#[version = "0.0.5"]
def @main(%x0: Tensor[(1, 64, 56, 56), float32] /* ty=Tensor[(1, 64, 56, 56), float32] span=from_string:4:9 */, %x1: Tensor[(29, 64, 56, 56), float32] /* ty=Tensor[(29, 64, 56, 56), float32] span=from_string:4:14 */, %x2: Tensor[(30, 64, 56, 92), float32] /* ty=Tensor[(30, 64, 56, 92), float32] span=from_string:13:14 */, %x3: Tensor[(30, 64, 56, 20), float32] /* ty=Tensor[(30, 64, 56, 20), float32] span=from_string:28:14 */, %x4: Tensor[(64, 64, 3, 3), float32] /* ty=Tensor[(64, 64, 3, 3), float32] span=from_string:23:14 */) -> (Tensor[(1, 64, 1, 1), float16], Tensor[(30, 64, 56, 168), float32], Tensor[(30, 64, 56, 92), float32], Tensor[(30, 64, 1, 1), float16], Tensor[(30, 64, 56, 56), float32], Tensor[(30, 64, 56, 20), float32], float32) {
  let %x_0 = cast(%x0, dtype="float16");
  let %x_1 = nn.global_max_pool2d(%x_0);
  let %x_2 = (%x0, %x1) /* ty=(Tensor[(1, 64, 56, 56), float32], Tensor[(29, 64, 56, 56), float32]) span=from_string:16:21 */;
  let %x_3 = concatenate(%x_2);
  let %x_4 = (%x_3, %x2) /* ty=(Tensor[(30, 64, 56, 56), float32], Tensor[(30, 64, 56, 92), float32]) span=from_string:7:20 */;
  let %x_5 = concatenate(%x_4, axis=3);
  let %x_6 = annotation.stop_fusion(%x_5);
  let %x_7 = (%x3,) /* ty=(Tensor[(30, 64, 56, 20), float32],) span=from_string:9:20 */;
  let %x_8 = concatenate(%x_7, axis=3);
  let %x_9 = annotation.stop_fusion(%x_8);
  let %x_10 = (%x_6, %x_9) /* ty=(Tensor[(30, 64, 56, 148), float32], Tensor[(30, 64, 56, 20), float32]) span=from_string:33:21 */;
  let %x_11 = concatenate(%x_10, axis=3);
  let %x_12 = cast(%x2, dtype="float16");
  let %x_13 = cast(%x_12, dtype="bfloat16");
  let %x_14 = cast(%x_13, dtype="float32");
  let %x_15 = clip(%x_14, a_min=-0.2f, a_max=0.4f);
  let %x_16 = 0f16 /* ty=float16 span=from_string:27:17 */;
  let %x_17 = concatenate(%x_2);
  let %x_18 = annotation.stop_fusion(%x_17);
  let %x_19 = (%x_18,) /* ty=(Tensor[(30, 64, 56, 56), float32],) span=from_string:19:21 */;
  let %x_20 = concatenate(%x_19);
  let %x_21 = ones_like(%x_20);
  let %x_22 = add(%x_20, %x_21);
  let %x_23 = nn.global_max_pool2d(%x_22);
  let %x_24 = cast(%x_23, dtype="float16");
  let %x_25 = cast(%x4, dtype="float16");
  let %x_26 = 2f16 /* ty=float16 span=from_string:25:28 */;
  let %x_27 = multiply(%x_25, %x_26);
  let %x_28 = nn.conv2d(%x_24, %x_27, padding=[1, 1, 1, 1], channels=64, kernel_size=[3, 3], out_dtype="float16");
  let %x_29 = add(%x_16, %x_28);
  let %x_30 = nn.relu(%x_29);
  let %x_31 = erf(%x_22);
  let %x_32 = cast(%x3, dtype="float16");
  let %x_33 = 1f16 /* ty=float16 span=from_string:29:22 */;
  let %x_34 = add(%x_32, %x_33);
  let %x_35 = cast(%x_34, dtype="float32");
  let %x_36 = exp(%x_35);
  let %x_37 = squeeze(%x_36);
  let %x_38 = 2.71828f /* ty=float32 span=from_string:38:42 */;
  let %x_39 = (%x_1, %x_11, %x_15, %x_30, %x_31, %x_37, %x_38) /* ty=(Tensor[(1, 64, 1, 1), float16], Tensor[(30, 64, 56, 168), float32], Tensor[(30, 64, 56, 92), float32], Tensor[(30, 64, 1, 1), float16], Tensor[(30, 64, 56, 56), float32], Tensor[(30, 64, 56, 20), float32], float32) span=from_string:3:3 */;
  %x_39
}
