#[version = "0.0.5"]
def @main(%x0: Tensor[(1, 64, 56, 56), float32] /* ty=Tensor[(1, 64, 56, 56), float32] span=from_string:25:30 */, %x1: Tensor[(29, 64, 56, 56), float32] /* ty=Tensor[(29, 64, 56, 56), float32] span=from_string:3:14 */, %x2: Tensor[(30, 64, 56, 92), float32] /* ty=Tensor[(30, 64, 56, 92), float32] span=from_string:12:13 */, %x3: Tensor[(30, 64, 56, 20), float32] /* ty=Tensor[(30, 64, 56, 20), float32] span=from_string:23:13 */, %x4: Tensor[(64, 64, 3, 3), float32] /* ty=Tensor[(64, 64, 3, 3), float32] span=from_string:20:19 */) -> (Tensor[(1, 64, 1, 1), float32], Tensor[(30, 64, 56, 168), float32], Tensor[(30, 64, 56, 92), bfloat16], Tensor[(30, 64, 1, 1), float32], Tensor[(30, 64, 56, 56), float32], Tensor[(30, 64, 56, 20), float32], float32) {
  let %x_0 = nn.global_max_pool2d(%x0);
  let %x_1 = (%x0, %x1) /* ty=(Tensor[(1, 64, 56, 56), float32], Tensor[(29, 64, 56, 56), float32]) span=from_string:13:21 */;
  let %x_2 = concatenate(%x_1);
  let %x_3 = (%x_2, %x2) /* ty=(Tensor[(30, 64, 56, 56), float32], Tensor[(30, 64, 56, 92), float32]) span=from_string:6:20 */;
  let %x_4 = concatenate(%x_3, axis=3);
  let %x_5 = annotation.stop_fusion(%x_4);
  let %x_6 = (%x3,) /* ty=(Tensor[(30, 64, 56, 20), float32],) span=from_string:8:20 */;
  let %x_7 = concatenate(%x_6, axis=3);
  let %x_8 = annotation.stop_fusion(%x_7);
  let %x_9 = (%x_5, %x_8) /* ty=(Tensor[(30, 64, 56, 148), float32], Tensor[(30, 64, 56, 20), float32]) span=from_string:26:21 */;
  let %x_10 = concatenate(%x_9, axis=3);
  let %x_11 = cast(%x2, dtype="bfloat16");
  let %x_12 = clip(%x_11, a_min=-0.2f, a_max=0.4f);
  let %x_13 = 0f /* ty=float32 span=from_string:22:15 */;
  let %x_14 = concatenate(%x_1);
  let %x_15 = annotation.stop_fusion(%x_14);
  let %x_16 = (%x_15,) /* ty=(Tensor[(30, 64, 56, 56), float32],) span=from_string:16:21 */;
  let %x_17 = concatenate(%x_16);
  let %x_18 = ones_like(%x_17);
  let %x_19 = add(%x_17, %x_18);
  let %x_20 = nn.global_max_pool2d(%x_19);
  let %x_21 = 2f /* ty=float32 span=from_string:20:26 */;
  let %x_22 = multiply(%x4, %x_21);
  let %x_23 = nn.conv2d(%x_20, %x_22, padding=[1, 1, 1, 1], channels=64, kernel_size=[3, 3]);
  let %x_24 = add(%x_13, %x_23);
  let %x_25 = nn.relu(%x_24);
  let %x_26 = fast_erf(%x_19);
  let %x_27 = 1f /* ty=float32 span=from_string:23:20 */;
  let %x_28 = add(%x3, %x_27);
  let %x_29 = fast_exp(%x_28);
  let %x_30 = squeeze(%x_29);
  let %x_31 = 2.71828f /* ty=float32 span=from_string:31:42 */;
  let %x_32 = (%x_0, %x_10, %x_12, %x_25, %x_26, %x_30, %x_31) /* ty=(Tensor[(1, 64, 1, 1), float32], Tensor[(30, 64, 56, 168), float32], Tensor[(30, 64, 56, 92), bfloat16], Tensor[(30, 64, 1, 1), float32], Tensor[(30, 64, 56, 56), float32], Tensor[(30, 64, 56, 20), float32], float32) span=from_string:3:3 */;
  %x_32
}
