#[version = "0.0.5"]
def @main(%x0: Tensor[(1, 64, 56, 56), float32] /* ty=Tensor[(1, 64, 56, 56), float32] span=from_string:23:30 */, %x1: Tensor[(29, 64, 56, 56), float32] /* ty=Tensor[(29, 64, 56, 56), float32] span=from_string:3:14 */, %x2: Tensor[(30, 64, 56, 92), float32] /* ty=Tensor[(30, 64, 56, 92), float32] span=from_string:12:13 */, %x3: Tensor[(30, 64, 56, 20), float32] /* ty=Tensor[(30, 64, 56, 20), float32] span=from_string:21:13 */, %x4: Tensor[(64, 64, 3, 3), float32] /* ty=Tensor[(64, 64, 3, 3), float32] span=from_string:19:19 */) -> (Tensor[(1, 64, 1, 1), float32], Tensor[(30, 64, 56, 168), float32], Tensor[(30, 64, 56, 92), bfloat16], Tensor[(30, 64, 1, 1), float32], Tensor[(30, 64, 56, 56), float32], Tensor[(30, 64, 56, 20), float32], float32) {
  let %x_0 = nn.global_max_pool2d(%x0);
  let %x_1 = (%x0, %x1) /* ty=(Tensor[(1, 64, 56, 56), float32], Tensor[(29, 64, 56, 56), float32]) span=from_string:13:21 */;
  let %x_2 = concatenate(%x_1);
  let %x_3 = (%x_2, %x2) /* ty=(Tensor[(30, 64, 56, 56), float32], Tensor[(30, 64, 56, 92), float32]) span=from_string:6:20 */;
  let %x_4 = concatenate(%x_3, axis=3);
  let %x_5 = annotation.stop_fusion(%x_4);
  let %x_6 = (%x3,) /* ty=(Tensor[(30, 64, 56, 20), float32],) span=from_string:8:20 */;
  let %x_7 = concatenate(%x_6, axis=3);
  let %x_8 = annotation.stop_fusion(%x_7);
  let %x_9 = (%x_5, %x_8) /* ty=(Tensor[(30, 64, 56, 148), float32], Tensor[(30, 64, 56, 20), float32]) span=from_string:24:21 */;
  let %x_10 = concatenate(%x_9, axis=3);
  let %x_11 = cast(%x2, dtype="bfloat16");
  let %x_12 = clip(%x_11, a_min=-0.2f, a_max=0.4f);
  let %x_13 = concatenate(%x_1);
  let %x_14 = annotation.stop_fusion(%x_13);
  let %x_15 = (%x_14,) /* ty=(Tensor[(30, 64, 56, 56), float32],) span=from_string:16:21 */;
  let %x_16 = concatenate(%x_15);
  let %x_17 = 1f /* ty=float32 span=from_string:17:20 */;
  let %x_18 = add(%x_16, %x_17);
  let %x_19 = nn.global_max_pool2d(%x_18);
  let %x_20 = 2f /* ty=float32 span=from_string:19:26 */;
  let %x_21 = multiply(%x4, %x_20);
  let %x_22 = nn.conv2d(%x_19, %x_21, padding=[1, 1, 1, 1], channels=64, kernel_size=[3, 3]);
  let %x_23 = nn.relu(%x_22);
  let %x_24 = fast_erf(%x_18);
  let %x_25 = 1f /* ty=float32 span=from_string:21:20 */;
  let %x_26 = add(%x3, %x_25);
  let %x_27 = fast_exp(%x_26);
  let %x_28 = squeeze(%x_27);
  let %x_29 = 2.71828f /* ty=float32 span=from_string:29:42 */;
  let %x_30 = (%x_0, %x_10, %x_12, %x_23, %x_24, %x_28, %x_29) /* ty=(Tensor[(1, 64, 1, 1), float32], Tensor[(30, 64, 56, 168), float32], Tensor[(30, 64, 56, 92), bfloat16], Tensor[(30, 64, 1, 1), float32], Tensor[(30, 64, 56, 56), float32], Tensor[(30, 64, 56, 20), float32], float32) span=from_string:3:3 */;
  %x_30
}
