#[version = "0.0.5"]
def @main(%x0: Tensor[(1, 64, 56, 56), float32] /* ty=Tensor[(1, 64, 56, 56), float32] span=from_string:6:9 */, %x1: Tensor[(29, 64, 56, 56), float32] /* ty=Tensor[(29, 64, 56, 56), float32] span=from_string:6:14 */, %x2: Tensor[(30, 64, 56, 92), float32] /* ty=Tensor[(30, 64, 56, 92), float32] span=from_string:15:14 */, %x3: Tensor[(30, 64, 56, 20), float32] /* ty=Tensor[(30, 64, 56, 20), float32] span=from_string:42:14 */, %x4: Tensor[(64, 64, 3, 3), float32] /* ty=Tensor[(64, 64, 3, 3), float32] span=from_string:31:14 */) -> (Tensor[(1, 64, 1, 1), float16], Tensor[(30, 64, 56, 168), float32], Tensor[(30, 64, 56, 92), float32], Tensor[(30, 64, 1, 1), float16], Tensor[(30, 64, 56, 56), float32], Tensor[(30, 64, 56, 20), float32], float32) {
  let %x_0 = cast(%x0, dtype="float16");
  let %x_1 = cast(%x_0, dtype="float16");
  let %x_2 = cast(%x_1, dtype="float16");
  let %x_3 = nn.global_max_pool2d(%x_2);
  let %x_4 = (%x0, %x1) /* ty=(Tensor[(1, 64, 56, 56), float32], Tensor[(29, 64, 56, 56), float32]) span=from_string:24:21 */;
  let %x_5 = concatenate(%x_4);
  let %x_6 = (%x_5, %x2) /* ty=(Tensor[(30, 64, 56, 56), float32], Tensor[(30, 64, 56, 92), float32]) span=from_string:9:20 */;
  let %x_7 = concatenate(%x_6, axis=3);
  let %x_8 = annotation.stop_fusion(%x_7);
  let %x_9 = (%x3,) /* ty=(Tensor[(30, 64, 56, 20), float32],) span=from_string:11:20 */;
  let %x_10 = concatenate(%x_9, axis=3);
  let %x_11 = annotation.stop_fusion(%x_10);
  let %x_12 = (%x_8, %x_11) /* ty=(Tensor[(30, 64, 56, 148), float32], Tensor[(30, 64, 56, 20), float32]) span=from_string:52:21 */;
  let %x_13 = concatenate(%x_12, axis=3);
  let %x_14 = cast(%x2, dtype="float16");
  let %x_15 = cast(%x_14, dtype="float16");
  let %x_16 = cast(%x_15, dtype="float16");
  let %x_17 = cast(%x_16, dtype="bfloat16");
  let %x_18 = cast(%x_17, dtype="float32");
  let %x_19 = cast(%x_18, dtype="float32");
  let %x_20 = cast(%x_19, dtype="float32");
  let %x_21 = clip(%x_20, a_min=-0.2f, a_max=0.4f);
  let %x_22 = 0f /* ty=float32 span=from_string:22:16 */;
  let %x_23 = cast(%x_22, dtype="float16");
  let %x_24 = cast(%x_23, dtype="float16");
  let %x_25 = cast(%x_24, dtype="float16");
  let %x_26 = concatenate(%x_4);
  let %x_27 = annotation.stop_fusion(%x_26);
  let %x_28 = (%x_27,) /* ty=(Tensor[(30, 64, 56, 56), float32],) span=from_string:27:21 */;
  let %x_29 = concatenate(%x_28);
  let %x_30 = ones_like(%x_29);
  let %x_31 = add(%x_29, %x_30);
  let %x_32 = nn.global_max_pool2d(%x_31);
  let %x_33 = cast(%x_32, dtype="float16");
  let %x_34 = cast(%x4, dtype="float16");
  let %x_35 = cast(%x_34, dtype="float16");
  let %x_36 = cast(%x_35, dtype="float16");
  let %x_37 = 2f /* ty=float32 span=from_string:33:16 */;
  let %x_38 = cast(%x_37, dtype="float16");
  let %x_39 = cast(%x_38, dtype="float16");
  let %x_40 = cast(%x_39, dtype="float16");
  let %x_41 = multiply(%x_36, %x_40);
  let %x_42 = nn.conv2d(%x_33, %x_41, padding=[1, 1, 1, 1], channels=64, kernel_size=[3, 3], out_dtype="float16");
  let %x_43 = add(%x_25, %x_42);
  let %x_44 = nn.relu(%x_43);
  let %x_45 = erf(%x_31);
  let %x_46 = cast(%x3, dtype="float16");
  let %x_47 = cast(%x_46, dtype="float16");
  let %x_48 = cast(%x_47, dtype="float16");
  let %x_49 = 1f /* ty=float32 span=from_string:44:16 */;
  let %x_50 = cast(%x_49, dtype="float16");
  let %x_51 = cast(%x_50, dtype="float16");
  let %x_52 = cast(%x_51, dtype="float16");
  let %x_53 = add(%x_48, %x_52);
  let %x_54 = cast(%x_53, dtype="float32");
  let %x_55 = exp(%x_54);
  let %x_56 = squeeze(%x_55);
  let %x_57 = 2.71828f /* ty=float32 span=from_string:57:42 */;
  let %x_58 = (%x_3, %x_13, %x_21, %x_44, %x_45, %x_56, %x_57) /* ty=(Tensor[(1, 64, 1, 1), float16], Tensor[(30, 64, 56, 168), float32], Tensor[(30, 64, 56, 92), float32], Tensor[(30, 64, 1, 1), float16], Tensor[(30, 64, 56, 56), float32], Tensor[(30, 64, 56, 20), float32], float32) span=from_string:3:3 */;
  %x_58
}
