#[version = "0.0.5"]
def @main(%x0: Tensor[(1, 64, 56, 56), float32] /* ty=Tensor[(1, 64, 56, 56), float32] span=from_string:5:9 */, %x1: Tensor[(29, 64, 56, 56), float32] /* ty=Tensor[(29, 64, 56, 56), float32] span=from_string:5:14 */, %x2: Tensor[(30, 64, 56, 92), float32] /* ty=Tensor[(30, 64, 56, 92), float32] span=from_string:14:14 */, %x3: Tensor[(30, 64, 56, 20), float32] /* ty=Tensor[(30, 64, 56, 20), float32] span=from_string:36:14 */, %x4: Tensor[(64, 64, 3, 3), float32] /* ty=Tensor[(64, 64, 3, 3), float32] span=from_string:27:14 */) -> (Tensor[(1, 64, 1, 1), float16], Tensor[(30, 64, 56, 168), float32], Tensor[(30, 64, 56, 92), float32], Tensor[(30, 64, 1, 1), float16], Tensor[(30, 64, 56, 56), float32], Tensor[(30, 64, 56, 20), float32], float32) {
  %0 = cast(%x0, dtype="float16") /* ty=Tensor[(1, 64, 56, 56), float16] span=from_string:4:13 */;
  %1 = cast(%0, dtype="float16") /* ty=Tensor[(1, 64, 56, 56), float16] span=from_string:43:30 */;
  %2 = (%x0, %x1) /* ty=(Tensor[(1, 64, 56, 56), float32], Tensor[(29, 64, 56, 56), float32]) span=from_string:20:21 */;
  %3 = concatenate(%2) /* ty=Tensor[(30, 64, 56, 56), float32] span=from_string:7:9 */;
  %4 = (%3, %x2) /* ty=(Tensor[(30, 64, 56, 56), float32], Tensor[(30, 64, 56, 92), float32]) span=from_string:8:20 */;
  %5 = concatenate(%4, axis=3) /* ty=Tensor[(30, 64, 56, 148), float32] span=from_string:11:31 */;
  %6 = (%x3,) /* ty=(Tensor[(30, 64, 56, 20), float32],) span=from_string:10:20 */;
  %7 = concatenate(%6, axis=3) /* ty=Tensor[(30, 64, 56, 20), float32] span=from_string:12:31 */;
  %8 = annotation.stop_fusion(%5) /* ty=Tensor[(30, 64, 56, 148), float32] span=from_string:13:10 */;
  %9 = annotation.stop_fusion(%7) /* ty=Tensor[(30, 64, 56, 20), float32] span=from_string:13:14 */;
  %10 = (%8, %9) /* ty=(Tensor[(30, 64, 56, 148), float32], Tensor[(30, 64, 56, 20), float32]) span=from_string:44:21 */;
  %11 = cast(%x2, dtype="float16") /* ty=Tensor[(30, 64, 56, 92), float16] span=from_string:15:14 */;
  %12 = cast(%11, dtype="float16") /* ty=Tensor[(30, 64, 56, 92), float16] span=from_string:16:14 */;
  %13 = cast(%12, dtype="bfloat16") /* ty=Tensor[(30, 64, 56, 92), bfloat16] span=from_string:17:14 */;
  %14 = cast(%13, dtype="float32") /* ty=Tensor[(30, 64, 56, 92), float32] span=from_string:18:14 */;
  %15 = cast(%14, dtype="float32") /* ty=Tensor[(30, 64, 56, 92), float32] span=from_string:45:14 */;
  %16 = concatenate(%2) /* ty=Tensor[(30, 64, 56, 56), float32] span=from_string:21:32 */;
  %17 = annotation.stop_fusion(%16) /* ty=Tensor[(30, 64, 56, 56), float32] span=from_string:22:10 */;
  %18 = (%17,) /* ty=(Tensor[(30, 64, 56, 56), float32],) span=from_string:23:21 */;
  %19 = concatenate(%18) /* ty=Tensor[(30, 64, 56, 56), float32] span=from_string:25:13 */;
  %20 = ones_like(%19) /* ty=Tensor[(30, 64, 56, 56), float32] span=from_string:25:18 */;
  %21 = add(%19, %20) /* ty=Tensor[(30, 64, 56, 56), float32] span=from_string:47:13 */;
  %22 = nn.global_max_pool2d(%21) /* ty=Tensor[(30, 64, 1, 1), float32] span=from_string:31:14 */;
  %23 = cast(%x4, dtype="float16") /* ty=Tensor[(64, 64, 3, 3), float16] span=from_string:29:14 */;
  %24 = cast(%23, dtype="float16") /* ty=Tensor[(64, 64, 3, 3), float16] span=from_string:32:19 */;
  %25 = cast(%22, dtype="float16") /* ty=Tensor[(30, 64, 1, 1), float16] span=from_string:34:19 */;
  %26 = multiply(%24, 2f16 /* ty=float16 */) /* ty=Tensor[(64, 64, 3, 3), float16] span=from_string:34:24 */;
  %27 = nn.conv2d(%25, %26, padding=[1, 1, 1, 1], channels=64, kernel_size=[3, 3], out_dtype="float16") /* ty=Tensor[(30, 64, 1, 1), float16] span=from_string:35:18 */;
  %28 = add(0f16 /* ty=float16 */, %27) /* ty=Tensor[(30, 64, 1, 1), float16] span=from_string:46:17 */;
  %29 = cast(%x3, dtype="float16") /* ty=Tensor[(30, 64, 56, 20), float16] span=from_string:38:14 */;
  %30 = cast(%29, dtype="float16") /* ty=Tensor[(30, 64, 56, 20), float16] span=from_string:40:13 */;
  %31 = add(%30, 1f16 /* ty=float16 */) /* ty=Tensor[(30, 64, 56, 20), float16] span=from_string:41:14 */;
  %32 = cast(%31, dtype="float32") /* ty=Tensor[(30, 64, 56, 20), float32] span=from_string:42:13 */;
  %33 = exp(%32) /* ty=Tensor[(30, 64, 56, 20), float32] span=from_string:48:17 */;
  %34 = nn.global_max_pool2d(%1) /* ty=Tensor[(1, 64, 1, 1), float16] span=from_string:49:4 */;
  %35 = concatenate(%10, axis=3) /* ty=Tensor[(30, 64, 56, 168), float32] span=from_string:49:9 */;
  %36 = clip(%15, a_min=-0.2f, a_max=0.4f) /* ty=Tensor[(30, 64, 56, 92), float32] span=from_string:49:14 */;
  %37 = nn.relu(%28) /* ty=Tensor[(30, 64, 1, 1), float16] span=from_string:49:19 */;
  %38 = erf(%21) /* ty=Tensor[(30, 64, 56, 56), float32] span=from_string:49:24 */;
  %39 = squeeze(%33) /* ty=Tensor[(30, 64, 56, 20), float32] span=from_string:49:29 */;
  (%34, %35, %36, %37, %38, %39, 2.71828f /* ty=float32 span=from_string:49:42 */) /* ty=(Tensor[(1, 64, 1, 1), float16], Tensor[(30, 64, 56, 168), float32], Tensor[(30, 64, 56, 92), float32], Tensor[(30, 64, 1, 1), float16], Tensor[(30, 64, 56, 56), float32], Tensor[(30, 64, 56, 20), float32], float32) span=from_string:3:3 */
}
