#[version = "0.0.5"]
def @main(%x0: Tensor[(1, 64, 56, 56), float32] /* ty=Tensor[(1, 64, 56, 56), float32] span=from_string:4:9 */, %x1: Tensor[(29, 64, 56, 56), float32] /* ty=Tensor[(29, 64, 56, 56), float32] span=from_string:4:14 */, %x2: Tensor[(30, 64, 56, 92), float32] /* ty=Tensor[(30, 64, 56, 92), float32] span=from_string:13:14 */, %x3: Tensor[(30, 64, 56, 20), float32] /* ty=Tensor[(30, 64, 56, 20), float32] span=from_string:30:14 */, %x4: Tensor[(64, 64, 3, 3), float32] /* ty=Tensor[(64, 64, 3, 3), float32] span=from_string:23:14 */) -> (Tensor[(1, 64, 1, 1), float16], Tensor[(30, 64, 56, 168), float32], Tensor[(30, 64, 56, 92), float32], Tensor[(30, 64, 1, 1), float16], Tensor[(30, 64, 56, 56), float32], Tensor[(30, 64, 56, 20), float32], float32) {
  %0 = cast(%x0, dtype="float16") /* ty=Tensor[(1, 64, 56, 56), float16] */;
  %1 = cast(%0, dtype="float16") /* ty=Tensor[(1, 64, 56, 56), float16] span=from_string:35:30 */;
  %2 = (%x0, %x1) /* ty=(Tensor[(1, 64, 56, 56), float32], Tensor[(29, 64, 56, 56), float32]) span=from_string:16:21 */;
  %3 = concatenate(%2) /* ty=Tensor[(30, 64, 56, 56), float32] span=from_string:6:9 */;
  %4 = (%3, %x2) /* ty=(Tensor[(30, 64, 56, 56), float32], Tensor[(30, 64, 56, 92), float32]) span=from_string:7:20 */;
  %5 = concatenate(%4, axis=3) /* ty=Tensor[(30, 64, 56, 148), float32] span=from_string:10:31 */;
  %6 = (%x3,) /* ty=(Tensor[(30, 64, 56, 20), float32],) span=from_string:9:20 */;
  %7 = concatenate(%6, axis=3) /* ty=Tensor[(30, 64, 56, 20), float32] span=from_string:11:31 */;
  %8 = annotation.stop_fusion(%5) /* ty=Tensor[(30, 64, 56, 148), float32] span=from_string:12:9 */;
  %9 = annotation.stop_fusion(%7) /* ty=Tensor[(30, 64, 56, 20), float32] span=from_string:12:13 */;
  %10 = (%8, %9) /* ty=(Tensor[(30, 64, 56, 148), float32], Tensor[(30, 64, 56, 20), float32]) span=from_string:36:21 */;
  %11 = cast(%x2, dtype="float16") /* ty=Tensor[(30, 64, 56, 92), float16] */;
  %12 = cast(%11, dtype="float16") /* ty=Tensor[(30, 64, 56, 92), float16] span=from_string:14:14 */;
  %13 = cast(%12, dtype="bfloat16") /* ty=Tensor[(30, 64, 56, 92), bfloat16] span=from_string:15:14 */;
  %14 = cast(%13, dtype="float32") /* ty=Tensor[(30, 64, 56, 92), float32] */;
  %15 = cast(%14, dtype="float32") /* ty=Tensor[(30, 64, 56, 92), float32] span=from_string:37:14 */;
  %16 = cast(0f /* ty=float32 span=from_string:27:16 */, dtype="float16") /* ty=float16 */;
  %17 = concatenate(%2) /* ty=Tensor[(30, 64, 56, 56), float32] span=from_string:17:32 */;
  %18 = annotation.stop_fusion(%17) /* ty=Tensor[(30, 64, 56, 56), float32] span=from_string:18:10 */;
  %19 = (%18,) /* ty=(Tensor[(30, 64, 56, 56), float32],) span=from_string:19:21 */;
  %20 = concatenate(%19) /* ty=Tensor[(30, 64, 56, 56), float32] span=from_string:21:13 */;
  %21 = ones_like(%20) /* ty=Tensor[(30, 64, 56, 56), float32] span=from_string:21:18 */;
  %22 = add(%20, %21) /* ty=Tensor[(30, 64, 56, 56), float32] span=from_string:39:13 */;
  %23 = nn.global_max_pool2d(%22) /* ty=Tensor[(30, 64, 1, 1), float32] span=from_string:25:14 */;
  %24 = cast(%x4, dtype="float16") /* ty=Tensor[(64, 64, 3, 3), float16] */;
  %25 = cast(2f /* ty=float32 span=from_string:24:16 */, dtype="float16") /* ty=float16 */;
  %26 = cast(%24, dtype="float16") /* ty=Tensor[(64, 64, 3, 3), float16] span=from_string:26:19 */;
  %27 = cast(%25, dtype="float16") /* ty=float16 span=from_string:26:24 */;
  %28 = cast(%23, dtype="float16") /* ty=Tensor[(30, 64, 1, 1), float16] span=from_string:28:19 */;
  %29 = multiply(%26, %27) /* ty=Tensor[(64, 64, 3, 3), float16] span=from_string:28:24 */;
  %30 = cast(%16, dtype="float16") /* ty=float16 span=from_string:29:13 */;
  %31 = nn.conv2d(%28, %29, padding=[1, 1, 1, 1], channels=64, kernel_size=[3, 3], out_dtype="float16") /* ty=Tensor[(30, 64, 1, 1), float16] span=from_string:29:18 */;
  %32 = add(%30, %31) /* ty=Tensor[(30, 64, 1, 1), float16] span=from_string:38:17 */;
  %33 = cast(%x3, dtype="float16") /* ty=Tensor[(30, 64, 56, 20), float16] */;
  %34 = cast(1f /* ty=float32 span=from_string:31:16 */, dtype="float16") /* ty=float16 */;
  %35 = cast(%33, dtype="float16") /* ty=Tensor[(30, 64, 56, 20), float16] span=from_string:32:13 */;
  %36 = cast(%34, dtype="float16") /* ty=float16 span=from_string:32:18 */;
  %37 = add(%35, %36) /* ty=Tensor[(30, 64, 56, 20), float16] span=from_string:33:14 */;
  %38 = cast(%37, dtype="float32") /* ty=Tensor[(30, 64, 56, 20), float32] span=from_string:34:13 */;
  %39 = exp(%38) /* ty=Tensor[(30, 64, 56, 20), float32] span=from_string:40:17 */;
  %40 = nn.global_max_pool2d(%1) /* ty=Tensor[(1, 64, 1, 1), float16] span=from_string:41:4 */;
  %41 = concatenate(%10, axis=3) /* ty=Tensor[(30, 64, 56, 168), float32] span=from_string:41:9 */;
  %42 = clip(%15, a_min=-0.2f, a_max=0.4f) /* ty=Tensor[(30, 64, 56, 92), float32] span=from_string:41:14 */;
  %43 = nn.relu(%32) /* ty=Tensor[(30, 64, 1, 1), float16] span=from_string:41:19 */;
  %44 = erf(%22) /* ty=Tensor[(30, 64, 56, 56), float32] span=from_string:41:24 */;
  %45 = squeeze(%39) /* ty=Tensor[(30, 64, 56, 20), float32] span=from_string:41:29 */;
  (%40, %41, %42, %43, %44, %45, 2.71828f /* ty=float32 span=from_string:41:42 */) /* ty=(Tensor[(1, 64, 1, 1), float16], Tensor[(30, 64, 56, 168), float32], Tensor[(30, 64, 56, 92), float32], Tensor[(30, 64, 1, 1), float16], Tensor[(30, 64, 56, 56), float32], Tensor[(30, 64, 56, 20), float32], float32) span=from_string:3:3 */
}
