#[version = "0.0.5"]
def @main(%x0: Tensor[(10, 10), float32] /* ty=Tensor[(10, 10), float32] span=from_string:3:13 */, %x1: Tensor[(65, 10), float32] /* ty=Tensor[(65, 10), float32] span=from_string:5:13 */, %x2: Tensor[(10, 10), float32] /* ty=Tensor[(10, 10), float32] span=from_string:10:13 */, %x3: Tensor[(10), float32] /* ty=Tensor[(10), float32] span=from_string:7:13 */, %x4: Tensor[(10), float32] /* ty=Tensor[(10), float32] span=from_string:11:13 */, %x5: Tensor[(12, 10), float32] /* ty=Tensor[(12, 10), float32] span=from_string:23:14 */, %x6: Tensor[(12), float32] /* ty=Tensor[(12), float32] span=from_string:24:14 */, %x7: Tensor[(1), float32] /* ty=Tensor[(1), float32] span=from_string:28:14 */, %x8: Tensor[(24, 10), float32] /* ty=Tensor[(24, 10), float32] span=from_string:30:14 */, %x9: Tensor[(24), float32] /* ty=Tensor[(24), float32] span=from_string:31:14 */, %x10: Tensor[(1), float32] /* ty=Tensor[(1), float32] span=from_string:35:14 */, %x11: Tensor[(14, 30), float32] /* ty=Tensor[(14, 30), float32] span=from_string:50:14 */, %x12: Tensor[(42, 24), float32] /* ty=Tensor[(42, 24), float32] span=from_string:57:14 */, %x13: Tensor[(10, 24), float32] /* ty=Tensor[(10, 24), float32] span=from_string:64:14 */, %x14: Tensor[(10), float32] /* ty=Tensor[(10), float32] span=from_string:58:14 */, %x15: Tensor[(10), float32] /* ty=Tensor[(10), float32] span=from_string:65:14 */, %x16: Tensor[(1), float32] /* ty=Tensor[(1), float32] span=from_string:62:14 */, %x17: Tensor[(1), float32] /* ty=Tensor[(1), float32] span=from_string:69:14 */) -> ((Tensor[(65, 10), float16], Tensor[(65, 10), float16]), (Tensor[(1, 1, 120), float16], Tensor[(1, 1, 240), float16]), (Tensor[(10, 24), float16], (Tensor[(10, 24), float16],)), Tensor[(1), float16], Tensor[(14, 65), float16], Tensor[(65, 10), float32], (Tensor[(1, 1, 420), float16], Tensor[(1, 1, 420), float16])) {
  %0 = cast(%x1, dtype="float16") /* ty=Tensor[(65, 10), float16] span=from_string:12:17 */;
  %1 = cast(%x0, dtype="float16") /* ty=Tensor[(10, 10), float16] span=from_string:6:12 */;
  %2 = cast(%x3, dtype="float16") /* ty=Tensor[(10), float16] span=from_string:9:20 */;
  %3 = nn.dense(%0, %1, units=None, out_dtype="float16") /* ty=Tensor[(65, 10), float16] span=from_string:14:13 */;
  %4 = expand_dims(%2, axis=0) /* ty=Tensor[(1, 10), float16] span=from_string:14:17 */;
  %5 = cast(%x2, dtype="float16") /* ty=Tensor[(10, 10), float16] span=from_string:12:21 */;
  %6 = cast(%x4, dtype="float16") /* ty=Tensor[(10), float16] span=from_string:13:21 */;
  %7 = nn.dense(%0, %5, units=None, out_dtype="float16") /* ty=Tensor[(65, 10), float16] span=from_string:54:13 */;
  %8 = expand_dims(%6, axis=0) /* ty=Tensor[(1, 10), float16] span=from_string:15:17 */;
  %9 = add(%3, %4) /* ty=Tensor[(65, 10), float16] span=from_string:73:10 */;
  %10 = add(%7, %8) /* ty=Tensor[(65, 10), float16] span=from_string:73:15 */;
  %11 = nn.relu(%1) /* ty=Tensor[(10, 10), float16] span=from_string:20:13 */;
  %12 = cast(1f /* ty=float32 span=from_string:17:16 */, dtype="float16") /* ty=float16 span=from_string:20:18 */;
  %13 = nn.relu(%1) /* ty=Tensor[(10, 10), float16] span=from_string:21:13 */;
  %14 = cast(1f /* ty=float32 span=from_string:19:16 */, dtype="float16") /* ty=float16 span=from_string:21:18 */;
  %15 = add(%11, %12) /* ty=Tensor[(10, 10), float16] span=from_string:22:13 */;
  %16 = add(%13, %14) /* ty=Tensor[(10, 10), float16] span=from_string:22:18 */;
  %17 = add(%15, %16) /* ty=Tensor[(10, 10), float16] span=from_string:32:18 */;
  %18 = cast(%x5, dtype="float16") /* ty=Tensor[(12, 10), float16] span=from_string:25:23 */;
  %19 = cast(%x6, dtype="float16") /* ty=Tensor[(12), float16] span=from_string:26:21 */;
  %20 = nn.dense(%17, %18, units=None, out_dtype="float16") /* ty=Tensor[(10, 12), float16] span=from_string:27:13 */;
  %21 = expand_dims(%19, axis=0) /* ty=Tensor[(1, 12), float16] span=from_string:27:18 */;
  %22 = add(%20, %21) /* ty=Tensor[(10, 12), float16] span=from_string:29:19 */;
  %23 = cast(%x7, dtype="float16") /* ty=Tensor[(1), float16] span=from_string:29:24 */;
  %24 = multiply(%22, %23) /* ty=Tensor[(10, 12), float16] span=from_string:37:17 */;
  %25 = cast(%x8, dtype="float16") /* ty=Tensor[(24, 10), float16] span=from_string:32:23 */;
  %26 = cast(%x9, dtype="float16") /* ty=Tensor[(24), float16] span=from_string:33:21 */;
  %27 = nn.dense(%17, %25, units=None, out_dtype="float16") /* ty=Tensor[(10, 24), float16] span=from_string:34:13 */;
  %28 = expand_dims(%26, axis=0) /* ty=Tensor[(1, 24), float16] span=from_string:34:18 */;
  %29 = add(%27, %28) /* ty=Tensor[(10, 24), float16] span=from_string:36:19 */;
  %30 = cast(%x10, dtype="float16") /* ty=Tensor[(1), float16] span=from_string:76:13 */;
  %31 = multiply(%29, %30) /* ty=Tensor[(10, 24), float16] span=from_string:46:32 */;
  %32 = reshape(%24, newshape=[1, 1, 120]) /* ty=Tensor[(1, 1, 120), float16] span=from_string:74:10 */;
  %33 = reshape(%31, newshape=[1, 1, 240]) /* ty=Tensor[(1, 1, 240), float16] span=from_string:74:15 */;
  %34 = ones(shape=[10, 24], dtype="float16") /* ty=Tensor[(10, 24), float16] */;
  %35 = multiply(%34, %31) /* ty=Tensor[(10, 24), float16] span=from_string:59:23 */;
  %36 = multiply(%34, %31) /* ty=Tensor[(10, 24), float16] span=from_string:46:27 */;
  %37 = collapse_sum_to(%35, meta[relay.Constant][0] /* ty=Tensor[(2), int32] */, meta[relay.attrs.InitOpAttrs][0]) /* ty=Tensor[(10, 24), float16] */;
  %38 = collapse_sum_to(%36, meta[relay.Constant][1] /* ty=Tensor[(2), int32] */, meta[relay.attrs.InitOpAttrs][1]) /* ty=Tensor[(10, 24), float16] */;
  %39 = add(%37, %38) /* ty=Tensor[(10, 24), float16] span=from_string:48:10 */;
  %40 = multiply(%31, %31) /* ty=Tensor[(10, 24), float16] span=from_string:75:10 */;
  %41 = (%39,) /* ty=(Tensor[(10, 24), float16],) span=from_string:75:15 */;
  %42 = cast(%x11, dtype="float16") /* ty=Tensor[(14, 30), float16] span=from_string:51:15 */;
  %43 = split(%42, indices_or_sections=3, axis=1) /* ty=(Tensor[(14, 10), float16], Tensor[(14, 10), float16], Tensor[(14, 10), float16]) span=from_string:53:9 */;
  %44 = %43.0 /* ty=Tensor[(14, 10), float16] span=from_string:77:18 */;
  %45 = add(%7, 1f16 /* ty=float16 */) /* ty=Tensor[(65, 10), float16] span=from_string:77:23 */;
  %46 = cast(%45, dtype="bfloat16") /* ty=Tensor[(65, 10), bfloat16] span=from_string:56:14 */;
  %47 = cast(%46, dtype="float32") /* ty=Tensor[(65, 10), float32] span=from_string:78:14 */;
  %48 = cast(%x12, dtype="float16") /* ty=Tensor[(42, 24), float16] span=from_string:66:18 */;
  %49 = cast(%x14, dtype="float16") /* ty=Tensor[(10), float16] span=from_string:60:21 */;
  %50 = nn.dense(%48, %35, units=None, out_dtype="float16") /* ty=Tensor[(42, 10), float16] span=from_string:61:13 */;
  %51 = expand_dims(%49, axis=0) /* ty=Tensor[(1, 10), float16] span=from_string:61:18 */;
  %52 = add(%50, %51) /* ty=Tensor[(42, 10), float16] span=from_string:63:19 */;
  %53 = cast(%x16, dtype="float16") /* ty=Tensor[(1), float16] span=from_string:63:24 */;
  %54 = multiply(%52, %53) /* ty=Tensor[(42, 10), float16] span=from_string:71:17 */;
  %55 = cast(%x13, dtype="float16") /* ty=Tensor[(10, 24), float16] span=from_string:66:23 */;
  %56 = cast(%x15, dtype="float16") /* ty=Tensor[(10), float16] span=from_string:67:21 */;
  %57 = nn.dense(%48, %55, units=None, out_dtype="float16") /* ty=Tensor[(42, 10), float16] span=from_string:68:13 */;
  %58 = expand_dims(%56, axis=0) /* ty=Tensor[(1, 10), float16] span=from_string:68:18 */;
  %59 = add(%57, %58) /* ty=Tensor[(42, 10), float16] span=from_string:70:19 */;
  %60 = cast(%x17, dtype="float16") /* ty=Tensor[(1), float16] span=from_string:70:24 */;
  %61 = multiply(%59, %60) /* ty=Tensor[(42, 10), float16] span=from_string:72:17 */;
  %62 = reshape(%54, newshape=[1, 1, -1]) /* ty=Tensor[(1, 1, 420), float16] span=from_string:79:10 */;
  %63 = reshape(%61, newshape=[1, 1, -1]) /* ty=Tensor[(1, 1, 420), float16] span=from_string:79:15 */;
  %64 = (%9, %10) /* ty=(Tensor[(65, 10), float16], Tensor[(65, 10), float16]) span=from_string:80:4 */;
  %65 = (%32, %33) /* ty=(Tensor[(1, 1, 120), float16], Tensor[(1, 1, 240), float16]) span=from_string:80:9 */;
  %66 = (%40, %41) /* ty=(Tensor[(10, 24), float16], (Tensor[(10, 24), float16],)) span=from_string:80:14 */;
  %67 = add(%30, 1f16 /* ty=float16 */) /* ty=Tensor[(1), float16] span=from_string:80:19 */;
  %68 = nn.dense(%44, %45, units=None, out_dtype="float16") /* ty=Tensor[(14, 65), float16] span=from_string:80:24 */;
  %69 = clip(%47, a_min=-0.2f, a_max=0.4f) /* ty=Tensor[(65, 10), float32] span=from_string:80:29 */;
  %70 = (%62, %63) /* ty=(Tensor[(1, 1, 420), float16], Tensor[(1, 1, 420), float16]) span=from_string:80:34 */;
  (%64, %65, %66, %67, %68, %69, %70) /* ty=((Tensor[(65, 10), float16], Tensor[(65, 10), float16]), (Tensor[(1, 1, 120), float16], Tensor[(1, 1, 240), float16]), (Tensor[(10, 24), float16], (Tensor[(10, 24), float16],)), Tensor[(1), float16], Tensor[(14, 65), float16], Tensor[(65, 10), float32], (Tensor[(1, 1, 420), float16], Tensor[(1, 1, 420), float16])) span=from_string:3:3 */
}

#[metadata]
{
  "root": 1, 
  "nodes": [
    {
      "type_key": ""
    }, 
    {
      "type_key": "Map", 
      "keys": [
        "relay.attrs.InitOpAttrs", 
        "relay.Constant"
      ], 
      "data": [2, 9]
    }, 
    {
      "type_key": "Array", 
      "data": [3, 7]
    }, 
    {
      "type_key": "relay.attrs.InitOpAttrs", 
      "attrs": {
        "dtype": "", 
        "shape": "4"
      }
    }, 
    {
      "type_key": "Array", 
      "data": [5, 6]
    }, 
    {
      "type_key": "IntImm", 
      "attrs": {
        "dtype": "int32", 
        "span": "0", 
        "value": "10"
      }
    }, 
    {
      "type_key": "IntImm", 
      "attrs": {
        "dtype": "int32", 
        "span": "0", 
        "value": "24"
      }
    }, 
    {
      "type_key": "relay.attrs.InitOpAttrs", 
      "attrs": {
        "dtype": "", 
        "shape": "8"
      }
    }, 
    {
      "type_key": "Array", 
      "data": [5, 6]
    }, 
    {
      "type_key": "Array", 
      "data": [10, 16]
    }, 
    {
      "type_key": "relay.Constant", 
      "attrs": {
        "_checked_type_": "13", 
        "data": "0", 
        "span": "0", 
        "virtual_device_": "11"
      }
    }, 
    {
      "type_key": "VirtualDevice", 
      "attrs": {
        "device_type_int": "-1", 
        "memory_scope": "12", 
        "target": "0", 
        "virtual_device_id": "-1"
      }
    }, 
    {
      "type_key": "runtime.String"
    }, 
    {
      "type_key": "relay.TensorType", 
      "attrs": {
        "dtype": "int32", 
        "shape": "14", 
        "span": "0"
      }
    }, 
    {
      "type_key": "Array", 
      "data": [15]
    }, 
    {
      "type_key": "IntImm", 
      "attrs": {
        "dtype": "int32", 
        "span": "0", 
        "value": "2"
      }
    }, 
    {
      "type_key": "relay.Constant", 
      "attrs": {
        "_checked_type_": "17", 
        "data": "1", 
        "span": "0", 
        "virtual_device_": "11"
      }
    }, 
    {
      "type_key": "relay.TensorType", 
      "attrs": {
        "dtype": "int32", 
        "shape": "18", 
        "span": "0"
      }
    }, 
    {
      "type_key": "Array", 
      "data": [19]
    }, 
    {
      "type_key": "IntImm", 
      "attrs": {
        "dtype": "int32", 
        "span": "0", 
        "value": "2"
      }
    }
  ], 
  "b64ndarrays": [
    "P6G0lvBAXt0AAAAAAAAAAAEAAAAAAAAAAQAAAAAgAQACAAAAAAAAAAgAAAAAAAAACgAAABgAAAA=", 
    "P6G0lvBAXt0AAAAAAAAAAAEAAAAAAAAAAQAAAAAgAQACAAAAAAAAAAgAAAAAAAAACgAAABgAAAA="
  ], 
  "attrs": {"tvm_version": "0.13.0"}
}