#[version = "0.0.5"]
def @main(%x0: Tensor[(10, 10), float32] /* ty=Tensor[(10, 10), float32] span=from_string:3:13 */, %x1: Tensor[(65, 10), float32] /* ty=Tensor[(65, 10), float32] span=from_string:6:13 */, %x2: Tensor[(10, 10), float32] /* ty=Tensor[(10, 10), float32] span=from_string:10:13 */, %x3: Tensor[(10), float32] /* ty=Tensor[(10), float32] span=from_string:8:13 */, %x4: Tensor[(10), float32] /* ty=Tensor[(10), float32] span=from_string:12:13 */, %x5: Tensor[(12, 10), float32] /* ty=Tensor[(12, 10), float32] span=from_string:24:13 */, %x6: Tensor[(12), float32] /* ty=Tensor[(12), float32] span=from_string:26:13 */, %x7: Tensor[(1), float32] /* ty=Tensor[(1), float32] span=from_string:28:13 */, %x8: Tensor[(24, 10), float32] /* ty=Tensor[(24, 10), float32] span=from_string:31:14 */, %x9: Tensor[(24), float32] /* ty=Tensor[(24), float32] span=from_string:33:14 */, %x10: Tensor[(1), float32] /* ty=Tensor[(1), float32] span=from_string:35:14 */, %x11: Tensor[(14, 30), float32] /* ty=Tensor[(14, 30), float32] span=from_string:52:14 */, %x12: Tensor[(42, 24), float32] /* ty=Tensor[(42, 24), float32] span=from_string:61:14 */, %x13: Tensor[(10, 24), float32] /* ty=Tensor[(10, 24), float32] span=from_string:68:14 */, %x14: Tensor[(10), float32] /* ty=Tensor[(10), float32] span=from_string:63:14 */, %x15: Tensor[(10), float32] /* ty=Tensor[(10), float32] span=from_string:70:14 */, %x16: Tensor[(1), float32] /* ty=Tensor[(1), float32] span=from_string:65:14 */, %x17: Tensor[(1), float32] /* ty=Tensor[(1), float32] span=from_string:72:14 */) -> ((Tensor[(65, 10), float16], Tensor[(65, 10), float16]), (Tensor[(1, 1, 120), float16], Tensor[(1, 1, 240), float16]), (Tensor[(10, 24), float16], (Tensor[(10, 24), float16],)), Tensor[(1), float16], Tensor[(14, 65), float16], Tensor[(65, 10), float16], (Tensor[(1, 1, 420), float16], Tensor[(1, 1, 420), float16])) {
  %0 = fn (%p01: Tensor[(10, 10), float32] /* ty=Tensor[(10, 10), float32] */, Primitive=1) -> Tensor[(10, 10), float16] {
    cast(%p01, dtype="float16") /* ty=Tensor[(10, 10), float16] span=from_string:5:104 */
  } /* ty=fn (Tensor[(10, 10), float32]) -> Tensor[(10, 10), float16] */;
  %1 = %0(%x0) /* ty=Tensor[(10, 10), float16] */;
  %2 = fn (%p0: Tensor[(10, 10), float16] /* ty=Tensor[(10, 10), float16] */, Primitive=1) -> Tensor[(10, 10), float16] {
    zeros_like(%p0) /* ty=Tensor[(10, 10), float16] span=from_string:4:99 */
  } /* ty=fn (Tensor[(10, 10), float16]) -> Tensor[(10, 10), float16] */;
  let %x_0: Tensor[(10, 10), float16] /* ty=Tensor[(10, 10), float16] span=from_string:5:108 */ = %2(%1) /* ty=Tensor[(10, 10), float16] */;
  %3 = fn (%p02: Tensor[(10, 10), float16] /* ty=Tensor[(10, 10), float16] */, %p1: Tensor[(10, 10), float16] /* ty=Tensor[(10, 10), float16] */, Primitive=1) -> Tensor[(10, 10), float16] {
    add(%p02, %p1) /* ty=Tensor[(10, 10), float16] span=from_string:5:100 */
  } /* ty=fn (Tensor[(10, 10), float16], Tensor[(10, 10), float16]) -> Tensor[(10, 10), float16] */;
  let %x_1: Tensor[(10, 10), float16] /* ty=Tensor[(10, 10), float16] span=from_string:19:109 */ = %3(%1, %x_0) /* ty=Tensor[(10, 10), float16] */;
  %4 = fn (%p04: Tensor[(65, 10), float32] /* ty=Tensor[(65, 10), float32] */, Primitive=1) -> Tensor[(65, 10), float16] {
    cast(%p04, dtype="float16") /* ty=Tensor[(65, 10), float16] span=from_string:11:109 */
  } /* ty=fn (Tensor[(65, 10), float32]) -> Tensor[(65, 10), float16] */;
  %5 = %4(%x1) /* ty=Tensor[(65, 10), float16] */;
  %6 = fn (%p03: Tensor[(65, 10), float16] /* ty=Tensor[(65, 10), float16] */, %p11: Tensor[(10, 10), float16] /* ty=Tensor[(10, 10), float16] */, Primitive=1) -> Tensor[(65, 10), float16] {
    nn.dense(%p03, %p11, units=None, out_dtype="float16") /* ty=Tensor[(65, 10), float16] span=from_string:7:99 */
  } /* ty=fn (Tensor[(65, 10), float16], Tensor[(10, 10), float16]) -> Tensor[(65, 10), float16] */;
  let %x_2: Tensor[(65, 10), float16] /* ty=Tensor[(65, 10), float16] span=from_string:9:103 */ = %6(%5, %x_1) /* ty=Tensor[(65, 10), float16] */;
  %8 = fn (%p05: Tensor[(10), float32] /* ty=Tensor[(10), float32] */, %p12: Tensor[(65, 10), float16] /* ty=Tensor[(65, 10), float16] */, Primitive=1) -> Tensor[(65, 10), float16] {
    %7 = cast(%p05, dtype="float16") /* ty=Tensor[(10), float16] span=from_string:9:109 */;
    add(%p12, %7) /* ty=Tensor[(65, 10), float16] span=from_string:9:99 */
  } /* ty=fn (Tensor[(10), float32], Tensor[(65, 10), float16]) -> Tensor[(65, 10), float16] */;
  let %x_3: Tensor[(65, 10), float16] /* ty=Tensor[(65, 10), float16] span=from_string:14:159 */ = %8(%x3, %x_2) /* ty=Tensor[(65, 10), float16] */;
  %9 = fn (%p07: Tensor[(10, 10), float32] /* ty=Tensor[(10, 10), float32] */, Primitive=1) -> Tensor[(10, 10), float16] {
    cast(%p07, dtype="float16") /* ty=Tensor[(10, 10), float16] span=from_string:11:113 */
  } /* ty=fn (Tensor[(10, 10), float32]) -> Tensor[(10, 10), float16] */;
  %10 = %9(%x2) /* ty=Tensor[(10, 10), float16] */;
  %11 = fn (%p06: Tensor[(65, 10), float16] /* ty=Tensor[(65, 10), float16] */, %p13: Tensor[(10, 10), float16] /* ty=Tensor[(10, 10), float16] */, Primitive=1) -> Tensor[(65, 10), float16] {
    nn.dense(%p06, %p13, units=None, out_dtype="float16") /* ty=Tensor[(65, 10), float16] span=from_string:11:100 */
  } /* ty=fn (Tensor[(65, 10), float16], Tensor[(10, 10), float16]) -> Tensor[(65, 10), float16] */;
  let %x_4: Tensor[(65, 10), float16] /* ty=Tensor[(65, 10), float16] span=from_string:56:105 */ = %11(%5, %10) /* ty=Tensor[(65, 10), float16] */;
  %13 = fn (%p08: Tensor[(10), float32] /* ty=Tensor[(10), float32] */, %p14: Tensor[(65, 10), float16] /* ty=Tensor[(65, 10), float16] */, Primitive=1) -> Tensor[(65, 10), float16] {
    %12 = cast(%p08, dtype="float16") /* ty=Tensor[(10), float16] span=from_string:13:109 */;
    add(%p14, %12) /* ty=Tensor[(65, 10), float16] span=from_string:13:99 */
  } /* ty=fn (Tensor[(10), float32], Tensor[(65, 10), float16]) -> Tensor[(65, 10), float16] */;
  let %x_5: Tensor[(65, 10), float16] /* ty=Tensor[(65, 10), float16] span=from_string:14:165 */ = %13(%x4, %x_4) /* ty=Tensor[(65, 10), float16] */;
  let %x_6: (Tensor[(65, 10), float16], Tensor[(65, 10), float16]) /* ty=(Tensor[(65, 10), float16], Tensor[(65, 10), float16]) span=from_string:76:681 */ = (%x_3, %x_5) /* ty=(Tensor[(65, 10), float16], Tensor[(65, 10), float16]) span=from_string:14:158 */;
  %14 = fn (%p09: Tensor[(10, 10), float16] /* ty=Tensor[(10, 10), float16] */, Primitive=1) -> Tensor[(10, 10), float16] {
    nn.relu(%p09) /* ty=Tensor[(10, 10), float16] span=from_string:15:100 */
  } /* ty=fn (Tensor[(10, 10), float16]) -> Tensor[(10, 10), float16] */;
  let %x_7: Tensor[(10, 10), float16] /* ty=Tensor[(10, 10), float16] span=from_string:18:104 */ = %14(%x_1) /* ty=Tensor[(10, 10), float16] */;
  let %x_8: float32 /* ty=float32 span=from_string:17:13 */ = 1f /* ty=float32 span=from_string:16:66 */;
  %16 = fn (%p010: float32 /* ty=float32 */, %p15: Tensor[(10, 10), float16] /* ty=Tensor[(10, 10), float16] */, Primitive=1) -> Tensor[(10, 10), float16] {
    %15 = cast(%p010, dtype="float16") /* ty=float16 span=from_string:18:110 */;
    add(%p15, %15) /* ty=Tensor[(10, 10), float16] span=from_string:18:100 */
  } /* ty=fn (float32, Tensor[(10, 10), float16]) -> Tensor[(10, 10), float16] */;
  let %x_9: Tensor[(10, 10), float16] /* ty=Tensor[(10, 10), float16] span=from_string:23:105 */ = %16(%x_8, %x_7) /* ty=Tensor[(10, 10), float16] */;
  %17 = fn (%p011: Tensor[(10, 10), float16] /* ty=Tensor[(10, 10), float16] */, Primitive=1) -> Tensor[(10, 10), float16] {
    nn.relu(%p011) /* ty=Tensor[(10, 10), float16] span=from_string:19:101 */
  } /* ty=fn (Tensor[(10, 10), float16]) -> Tensor[(10, 10), float16] */;
  let %x_10: Tensor[(10, 10), float16] /* ty=Tensor[(10, 10), float16] span=from_string:22:105 */ = %17(%x_1) /* ty=Tensor[(10, 10), float16] */;
  let %x_11: float32 /* ty=float32 span=from_string:21:13 */ = 1f /* ty=float32 span=from_string:20:67 */;
  %19 = fn (%p012: float32 /* ty=float32 */, %p16: Tensor[(10, 10), float16] /* ty=Tensor[(10, 10), float16] */, Primitive=1) -> Tensor[(10, 10), float16] {
    %18 = cast(%p012, dtype="float16") /* ty=float16 span=from_string:22:112 */;
    add(%p16, %18) /* ty=Tensor[(10, 10), float16] span=from_string:22:101 */
  } /* ty=fn (float32, Tensor[(10, 10), float16]) -> Tensor[(10, 10), float16] */;
  let %x_12: Tensor[(10, 10), float16] /* ty=Tensor[(10, 10), float16] span=from_string:23:111 */ = %19(%x_11, %x_10) /* ty=Tensor[(10, 10), float16] */;
  %20 = fn (%p013: Tensor[(10, 10), float16] /* ty=Tensor[(10, 10), float16] */, %p17: Tensor[(10, 10), float16] /* ty=Tensor[(10, 10), float16] */, Primitive=1) -> Tensor[(10, 10), float16] {
    add(%p013, %p17) /* ty=Tensor[(10, 10), float16] span=from_string:23:101 */
  } /* ty=fn (Tensor[(10, 10), float16], Tensor[(10, 10), float16]) -> Tensor[(10, 10), float16] */;
  let %x_13: Tensor[(10, 10), float16] /* ty=Tensor[(10, 10), float16] span=from_string:32:110 */ = %20(%x_9, %x_12) /* ty=Tensor[(10, 10), float16] */;
  %21 = fn (%p015: Tensor[(12, 10), float32] /* ty=Tensor[(12, 10), float32] */, Primitive=1) -> Tensor[(12, 10), float16] {
    cast(%p015, dtype="float16") /* ty=Tensor[(12, 10), float16] span=from_string:25:117 */
  } /* ty=fn (Tensor[(12, 10), float32]) -> Tensor[(12, 10), float16] */;
  %22 = %21(%x5) /* ty=Tensor[(12, 10), float16] */;
  %23 = fn (%p014: Tensor[(10, 10), float16] /* ty=Tensor[(10, 10), float16] */, %p18: Tensor[(12, 10), float16] /* ty=Tensor[(12, 10), float16] */, Primitive=1) -> Tensor[(10, 12), float16] {
    nn.dense(%p014, %p18, units=None, out_dtype="float16") /* ty=Tensor[(10, 12), float16] span=from_string:25:101 */
  } /* ty=fn (Tensor[(10, 10), float16], Tensor[(12, 10), float16]) -> Tensor[(10, 12), float16] */;
  let %x_14: Tensor[(10, 12), float16] /* ty=Tensor[(10, 12), float16] span=from_string:27:105 */ = %23(%x_13, %22) /* ty=Tensor[(10, 12), float16] */;
  %25 = fn (%p016: Tensor[(12), float32] /* ty=Tensor[(12), float32] */, %p19: Tensor[(10, 12), float16] /* ty=Tensor[(10, 12), float16] */, Primitive=1) -> Tensor[(10, 12), float16] {
    %24 = cast(%p016, dtype="float16") /* ty=Tensor[(12), float16] span=from_string:27:112 */;
    add(%p19, %24) /* ty=Tensor[(10, 12), float16] span=from_string:27:101 */
  } /* ty=fn (Tensor[(12), float32], Tensor[(10, 12), float16]) -> Tensor[(10, 12), float16] */;
  let %x_15: Tensor[(10, 12), float16] /* ty=Tensor[(10, 12), float16] span=from_string:29:111 */ = %25(%x6, %x_14) /* ty=Tensor[(10, 12), float16] */;
  %27 = fn (%p017: Tensor[(1), float32] /* ty=Tensor[(1), float32] */, %p110: Tensor[(10, 12), float16] /* ty=Tensor[(10, 12), float16] */, Primitive=1) -> Tensor[(10, 12), float16] {
    %26 = cast(%p017, dtype="float16") /* ty=Tensor[(1), float16] span=from_string:29:118 */;
    multiply(%p110, %26) /* ty=Tensor[(10, 12), float16] span=from_string:29:102 */
  } /* ty=fn (Tensor[(1), float32], Tensor[(10, 12), float16]) -> Tensor[(10, 12), float16] */;
  let %x_16: Tensor[(10, 12), float16] /* ty=Tensor[(10, 12), float16] span=from_string:30:115 */ = %27(%x7, %x_15) /* ty=Tensor[(10, 12), float16] */;
  %28 = fn (%p018: Tensor[(10, 12), float16] /* ty=Tensor[(10, 12), float16] */, Primitive=1, relay.reshape_only=1) -> Tensor[(1, 1, 120), float16] {
    reshape(%p018, newshape=[1, 1, 120]) /* ty=Tensor[(1, 1, 120), float16] span=from_string:30:107 */
  } /* ty=fn (Tensor[(10, 12), float16]) -> Tensor[(1, 1, 120), float16] */;
  let %x_17: Tensor[(1, 1, 120), float16] /* ty=Tensor[(1, 1, 120), float16] span=from_string:38:172 */ = %28(%x_16) /* ty=Tensor[(1, 1, 120), float16] */;
  %29 = fn (%p020: Tensor[(24, 10), float32] /* ty=Tensor[(24, 10), float32] */, Primitive=1) -> Tensor[(24, 10), float16] {
    cast(%p020, dtype="float16") /* ty=Tensor[(24, 10), float16] span=from_string:32:117 */
  } /* ty=fn (Tensor[(24, 10), float32]) -> Tensor[(24, 10), float16] */;
  %30 = %29(%x8) /* ty=Tensor[(24, 10), float16] */;
  %31 = fn (%p019: Tensor[(10, 10), float16] /* ty=Tensor[(10, 10), float16] */, %p111: Tensor[(24, 10), float16] /* ty=Tensor[(24, 10), float16] */, Primitive=1) -> Tensor[(10, 24), float16] {
    nn.dense(%p019, %p111, units=None, out_dtype="float16") /* ty=Tensor[(10, 24), float16] span=from_string:32:101 */
  } /* ty=fn (Tensor[(10, 10), float16], Tensor[(24, 10), float16]) -> Tensor[(10, 24), float16] */;
  let %x_18: Tensor[(10, 24), float16] /* ty=Tensor[(10, 24), float16] span=from_string:34:105 */ = %31(%x_13, %30) /* ty=Tensor[(10, 24), float16] */;
  %33 = fn (%p021: Tensor[(24), float32] /* ty=Tensor[(24), float32] */, %p112: Tensor[(10, 24), float16] /* ty=Tensor[(10, 24), float16] */, Primitive=1) -> Tensor[(10, 24), float16] {
    %32 = cast(%p021, dtype="float16") /* ty=Tensor[(24), float16] span=from_string:34:112 */;
    add(%p112, %32) /* ty=Tensor[(10, 24), float16] span=from_string:34:101 */
  } /* ty=fn (Tensor[(24), float32], Tensor[(10, 24), float16]) -> Tensor[(10, 24), float16] */;
  let %x_19: Tensor[(10, 24), float16] /* ty=Tensor[(10, 24), float16] span=from_string:36:111 */ = %33(%x9, %x_18) /* ty=Tensor[(10, 24), float16] */;
  %34 = fn (%p023: Tensor[(1), float32] /* ty=Tensor[(1), float32] */, Primitive=1) -> Tensor[(1), float16] {
    cast(%p023, dtype="float16") /* ty=Tensor[(1), float16] span=from_string:51:95 */
  } /* ty=fn (Tensor[(1), float32]) -> Tensor[(1), float16] */;
  %35 = %34(%x10) /* ty=Tensor[(1), float16] */;
  %36 = fn (%p022: Tensor[(10, 24), float16] /* ty=Tensor[(10, 24), float16] */, %p113: Tensor[(1), float16] /* ty=Tensor[(1), float16] */, Primitive=1) -> Tensor[(10, 24), float16] {
    multiply(%p022, %p113) /* ty=Tensor[(10, 24), float16] span=from_string:36:102 */
  } /* ty=fn (Tensor[(10, 24), float16], Tensor[(1), float16]) -> Tensor[(10, 24), float16] */;
  let %x_20: Tensor[(10, 24), float16] /* ty=Tensor[(10, 24), float16] span=from_string:46:126 */ = %36(%x_19, %35) /* ty=Tensor[(10, 24), float16] */;
  %37 = fn (%p024: Tensor[(10, 24), float16] /* ty=Tensor[(10, 24), float16] */, Primitive=1, relay.reshape_only=1) -> Tensor[(1, 1, 240), float16] {
    reshape(%p024, newshape=[1, 1, 240]) /* ty=Tensor[(1, 1, 240), float16] span=from_string:37:107 */
  } /* ty=fn (Tensor[(10, 24), float16]) -> Tensor[(1, 1, 240), float16] */;
  let %x_21: Tensor[(1, 1, 240), float16] /* ty=Tensor[(1, 1, 240), float16] span=from_string:38:179 */ = %37(%x_20) /* ty=Tensor[(1, 1, 240), float16] */;
  let %x_22: (Tensor[(1, 1, 120), float16], Tensor[(1, 1, 240), float16]) /* ty=(Tensor[(1, 1, 120), float16], Tensor[(1, 1, 240), float16]) span=from_string:76:687 */ = (%x_17, %x_21) /* ty=(Tensor[(1, 1, 120), float16], Tensor[(1, 1, 240), float16]) span=from_string:38:171 */;
  %38 = fn (%p025: Tensor[(10, 24), float16] /* ty=Tensor[(10, 24), float16] */, Primitive=1) -> Tensor[(10, 24), float16] {
    multiply(%p025, %p025) /* ty=Tensor[(10, 24), float16] span=from_string:39:102 */
  } /* ty=fn (Tensor[(10, 24), float16]) -> Tensor[(10, 24), float16] */;
  let %x_23: Tensor[(10, 24), float16] /* ty=Tensor[(10, 24), float16] span=from_string:49:166 */ = %38(%x_20) /* ty=Tensor[(10, 24), float16] */;
  %39 = fn (%p026: Tensor[(10, 24), float16] /* ty=Tensor[(10, 24), float16] */, Primitive=1) -> Tensor[(10, 24), float16] {
    zeros_like(%p026) /* ty=Tensor[(10, 24), float16] span=from_string:40:101 */
  } /* ty=fn (Tensor[(10, 24), float16]) -> Tensor[(10, 24), float16] */;
  let %x_24: Tensor[(10, 24), float16] /* ty=Tensor[(10, 24), float16] span=from_string:44:105 */ = %39(%x_20) /* ty=Tensor[(10, 24), float16] */;
  %40 = fn (%p027: Tensor[(10, 24), float16] /* ty=Tensor[(10, 24), float16] */, Primitive=1) -> Tensor[(10, 24), float16] {
    ones_like(%p027) /* ty=Tensor[(10, 24), float16] span=from_string:41:101 */
  } /* ty=fn (Tensor[(10, 24), float16]) -> Tensor[(10, 24), float16] */;
  let %x_25: Tensor[(10, 24), float16] /* ty=Tensor[(10, 24), float16] span=from_string:45:111 */ = %40(%x_23) /* ty=Tensor[(10, 24), float16] */;
  %41 = fn (%p028: Tensor[(10, 24), float16] /* ty=Tensor[(10, 24), float16] */, %p114: Tensor[(10, 24), float16] /* ty=Tensor[(10, 24), float16] */, Primitive=1) -> Tensor[(10, 24), float16] {
    multiply(%p028, %p114) /* ty=Tensor[(10, 24), float16] span=from_string:42:102 */
  } /* ty=fn (Tensor[(10, 24), float16], Tensor[(10, 24), float16]) -> Tensor[(10, 24), float16] */;
  let %x_26: Tensor[(10, 24), float16] /* ty=Tensor[(10, 24), float16] span=from_string:62:115 */ = %41(%x_25, %x_20) /* ty=Tensor[(10, 24), float16] */;
  %42 = fn (%p029: Tensor[(10, 24), float16] /* ty=Tensor[(10, 24), float16] */, %p115: Tensor[(10, 24), float16] /* ty=Tensor[(10, 24), float16] */, Primitive=1) -> Tensor[(10, 24), float16] {
    collapse_sum_like(%p029, %p115) /* ty=Tensor[(10, 24), float16] span=from_string:43:101 */
  } /* ty=fn (Tensor[(10, 24), float16], Tensor[(10, 24), float16]) -> Tensor[(10, 24), float16] */;
  let %x_27: Tensor[(10, 24), float16] /* ty=Tensor[(10, 24), float16] span=from_string:44:112 */ = %42(%x_26, %x_20) /* ty=Tensor[(10, 24), float16] */;
  %43 = fn (%p030: Tensor[(10, 24), float16] /* ty=Tensor[(10, 24), float16] */, %p116: Tensor[(10, 24), float16] /* ty=Tensor[(10, 24), float16] */, Primitive=1) -> Tensor[(10, 24), float16] {
    add(%p030, %p116) /* ty=Tensor[(10, 24), float16] span=from_string:44:101 */
  } /* ty=fn (Tensor[(10, 24), float16], Tensor[(10, 24), float16]) -> Tensor[(10, 24), float16] */;
  let %x_28: Tensor[(10, 24), float16] /* ty=Tensor[(10, 24), float16] span=from_string:47:105 */ = %43(%x_24, %x_27) /* ty=Tensor[(10, 24), float16] */;
  %44 = fn (%p031: Tensor[(10, 24), float16] /* ty=Tensor[(10, 24), float16] */, %p117: Tensor[(10, 24), float16] /* ty=Tensor[(10, 24), float16] */, Primitive=1) -> Tensor[(10, 24), float16] {
    multiply(%p031, %p117) /* ty=Tensor[(10, 24), float16] span=from_string:45:102 */
  } /* ty=fn (Tensor[(10, 24), float16], Tensor[(10, 24), float16]) -> Tensor[(10, 24), float16] */;
  let %x_29: Tensor[(10, 24), float16] /* ty=Tensor[(10, 24), float16] span=from_string:46:119 */ = %44(%x_25, %x_20) /* ty=Tensor[(10, 24), float16] */;
  %45 = fn (%p032: Tensor[(10, 24), float16] /* ty=Tensor[(10, 24), float16] */, %p118: Tensor[(10, 24), float16] /* ty=Tensor[(10, 24), float16] */, Primitive=1) -> Tensor[(10, 24), float16] {
    collapse_sum_like(%p032, %p118) /* ty=Tensor[(10, 24), float16] span=from_string:46:101 */
  } /* ty=fn (Tensor[(10, 24), float16], Tensor[(10, 24), float16]) -> Tensor[(10, 24), float16] */;
  let %x_30: Tensor[(10, 24), float16] /* ty=Tensor[(10, 24), float16] span=from_string:47:112 */ = %45(%x_29, %x_20) /* ty=Tensor[(10, 24), float16] */;
  %46 = fn (%p033: Tensor[(10, 24), float16] /* ty=Tensor[(10, 24), float16] */, %p119: Tensor[(10, 24), float16] /* ty=Tensor[(10, 24), float16] */, Primitive=1) -> Tensor[(10, 24), float16] {
    add(%p033, %p119) /* ty=Tensor[(10, 24), float16] span=from_string:47:101 */
  } /* ty=fn (Tensor[(10, 24), float16], Tensor[(10, 24), float16]) -> Tensor[(10, 24), float16] */;
  let %x_31: Tensor[(10, 24), float16] /* ty=Tensor[(10, 24), float16] span=from_string:48:108 */ = %46(%x_28, %x_30) /* ty=Tensor[(10, 24), float16] */;
  let %x_32: (Tensor[(10, 24), float16],) /* ty=(Tensor[(10, 24), float16],) span=from_string:49:173 */ = (%x_31,) /* ty=(Tensor[(10, 24), float16],) span=from_string:48:107 */;
  let %x_33: (Tensor[(10, 24), float16], (Tensor[(10, 24), float16],)) /* ty=(Tensor[(10, 24), float16], (Tensor[(10, 24), float16],)) span=from_string:76:694 */ = (%x_23, %x_32) /* ty=(Tensor[(10, 24), float16], (Tensor[(10, 24), float16],)) span=from_string:49:165 */;
  %47 = fn (Primitive=1) -> Tensor[(1), float16] {
    ones(shape=[1], dtype="float16") /* ty=Tensor[(1), float16] span=from_string:50:91 */
  } /* ty=fn () -> Tensor[(1), float16] */;
  let %x_34: Tensor[(1), float16] /* ty=Tensor[(1), float16] span=from_string:51:100 */ = %47() /* ty=Tensor[(1), float16] */;
  %48 = fn (%p034: Tensor[(1), float16] /* ty=Tensor[(1), float16] */, %p120: Tensor[(1), float16] /* ty=Tensor[(1), float16] */, Primitive=1) -> Tensor[(1), float16] {
    add(%p034, %p120) /* ty=Tensor[(1), float16] span=from_string:51:91 */
  } /* ty=fn (Tensor[(1), float16], Tensor[(1), float16]) -> Tensor[(1), float16] */;
  let %x_35: Tensor[(1), float16] /* ty=Tensor[(1), float16] span=from_string:76:701 */ = %48(%35, %x_34) /* ty=Tensor[(1), float16] */;
  %50 = fn (%p035: Tensor[(14, 30), float32] /* ty=Tensor[(14, 30), float32] */, Primitive=1) -> (Tensor[(14, 10), float16], Tensor[(14, 10), float16], Tensor[(14, 10), float16]) {
    %49 = cast(%p035, dtype="float16") /* ty=Tensor[(14, 30), float16] span=from_string:53:219 */;
    split(%49, indices_or_sections=3, axis=1) /* ty=(Tensor[(14, 10), float16], Tensor[(14, 10), float16], Tensor[(14, 10), float16]) span=from_string:53:213 */
  } /* ty=fn (Tensor[(14, 30), float32]) -> (Tensor[(14, 10), float16], Tensor[(14, 10), float16], Tensor[(14, 10), float16]) */;
  let %x_36: (Tensor[(14, 10), float16], Tensor[(14, 10), float16], Tensor[(14, 10), float16]) /* ty=(Tensor[(14, 10), float16], Tensor[(14, 10), float16], Tensor[(14, 10), float16]) span=from_string:54:101 */ = %50(%x11) /* ty=(Tensor[(14, 10), float16], Tensor[(14, 10), float16], Tensor[(14, 10), float16]) */;
  let %x_37: Tensor[(14, 10), float16] /* ty=Tensor[(14, 10), float16] span=from_string:57:110 */ = %x_36.0 /* ty=Tensor[(14, 10), float16] span=from_string:54:101 */;
  %51 = fn (%p036: Tensor[(65, 10), float16] /* ty=Tensor[(65, 10), float16] */, Primitive=1) -> Tensor[(65, 10), float16] {
    ones_like(%p036) /* ty=Tensor[(65, 10), float16] span=from_string:55:101 */
  } /* ty=fn (Tensor[(65, 10), float16]) -> Tensor[(65, 10), float16] */;
  let %x_38: Tensor[(65, 10), float16] /* ty=Tensor[(65, 10), float16] span=from_string:56:111 */ = %51(%x_4) /* ty=Tensor[(65, 10), float16] */;
  %52 = fn (%p037: Tensor[(65, 10), float16] /* ty=Tensor[(65, 10), float16] */, %p121: Tensor[(65, 10), float16] /* ty=Tensor[(65, 10), float16] */, Primitive=1) -> Tensor[(65, 10), float16] {
    add(%p037, %p121) /* ty=Tensor[(65, 10), float16] span=from_string:56:101 */
  } /* ty=fn (Tensor[(65, 10), float16], Tensor[(65, 10), float16]) -> Tensor[(65, 10), float16] */;
  let %x_39: Tensor[(65, 10), float16] /* ty=Tensor[(65, 10), float16] span=from_string:58:108 */ = %52(%x_4, %x_38) /* ty=Tensor[(65, 10), float16] */;
  %53 = fn (%p038: Tensor[(14, 10), float16] /* ty=Tensor[(14, 10), float16] */, %p122: Tensor[(65, 10), float16] /* ty=Tensor[(65, 10), float16] */, Primitive=1) -> Tensor[(14, 65), float16] {
    nn.dense(%p038, %p122, units=None, out_dtype="float16") /* ty=Tensor[(14, 65), float16] span=from_string:57:101 */
  } /* ty=fn (Tensor[(14, 10), float16], Tensor[(65, 10), float16]) -> Tensor[(14, 65), float16] */;
  let %x_40: Tensor[(14, 65), float16] /* ty=Tensor[(14, 65), float16] span=from_string:76:708 */ = %53(%x_37, %x_39) /* ty=Tensor[(14, 65), float16] */;
  %54 = fn (%p039: Tensor[(65, 10), float16] /* ty=Tensor[(65, 10), float16] */, Primitive=1) -> Tensor[(65, 10), bfloat16] {
    cast(%p039, dtype="bfloat16") /* ty=Tensor[(65, 10), bfloat16] span=from_string:58:103 */
  } /* ty=fn (Tensor[(65, 10), float16]) -> Tensor[(65, 10), bfloat16] */;
  let %x_41: Tensor[(65, 10), bfloat16] /* ty=Tensor[(65, 10), bfloat16] span=from_string:59:14 */ = %54(%x_39) /* ty=Tensor[(65, 10), bfloat16] */;
  %56 = fn (%p040: Tensor[(65, 10), bfloat16] /* ty=Tensor[(65, 10), bfloat16] */, Primitive=1) -> Tensor[(65, 10), float16] {
    %55 = cast(%p040, dtype="float16") /* ty=Tensor[(65, 10), float16] span=from_string:60:106 */;
    clip(%55, a_min=-0.2f, a_max=0.4f) /* ty=Tensor[(65, 10), float16] span=from_string:60:101 */
  } /* ty=fn (Tensor[(65, 10), bfloat16]) -> Tensor[(65, 10), float16] */;
  let %x_42: Tensor[(65, 10), float16] /* ty=Tensor[(65, 10), float16] span=from_string:76:715 */ = %56(%x_41) /* ty=Tensor[(65, 10), float16] */;
  %57 = fn (%p042: Tensor[(42, 24), float32] /* ty=Tensor[(42, 24), float32] */, Primitive=1) -> Tensor[(42, 24), float16] {
    cast(%p042, dtype="float16") /* ty=Tensor[(42, 24), float16] span=from_string:69:110 */
  } /* ty=fn (Tensor[(42, 24), float32]) -> Tensor[(42, 24), float16] */;
  %58 = %57(%x12) /* ty=Tensor[(42, 24), float16] */;
  %59 = fn (%p041: Tensor[(42, 24), float16] /* ty=Tensor[(42, 24), float16] */, %p123: Tensor[(10, 24), float16] /* ty=Tensor[(10, 24), float16] */, Primitive=1) -> Tensor[(42, 10), float16] {
    nn.dense(%p041, %p123, units=None, out_dtype="float16") /* ty=Tensor[(42, 10), float16] span=from_string:62:101 */
  } /* ty=fn (Tensor[(42, 24), float16], Tensor[(10, 24), float16]) -> Tensor[(42, 10), float16] */;
  let %x_43: Tensor[(42, 10), float16] /* ty=Tensor[(42, 10), float16] span=from_string:64:105 */ = %59(%58, %x_26) /* ty=Tensor[(42, 10), float16] */;
  %61 = fn (%p043: Tensor[(10), float32] /* ty=Tensor[(10), float32] */, %p124: Tensor[(42, 10), float16] /* ty=Tensor[(42, 10), float16] */, Primitive=1) -> Tensor[(42, 10), float16] {
    %60 = cast(%p043, dtype="float16") /* ty=Tensor[(10), float16] span=from_string:64:112 */;
    add(%p124, %60) /* ty=Tensor[(42, 10), float16] span=from_string:64:101 */
  } /* ty=fn (Tensor[(10), float32], Tensor[(42, 10), float16]) -> Tensor[(42, 10), float16] */;
  let %x_44: Tensor[(42, 10), float16] /* ty=Tensor[(42, 10), float16] span=from_string:66:111 */ = %61(%x14, %x_43) /* ty=Tensor[(42, 10), float16] */;
  %63 = fn (%p044: Tensor[(1), float32] /* ty=Tensor[(1), float32] */, %p125: Tensor[(42, 10), float16] /* ty=Tensor[(42, 10), float16] */, Primitive=1) -> Tensor[(42, 10), float16] {
    %62 = cast(%p044, dtype="float16") /* ty=Tensor[(1), float16] span=from_string:66:118 */;
    multiply(%p125, %62) /* ty=Tensor[(42, 10), float16] span=from_string:66:102 */
  } /* ty=fn (Tensor[(1), float32], Tensor[(42, 10), float16]) -> Tensor[(42, 10), float16] */;
  let %x_45: Tensor[(42, 10), float16] /* ty=Tensor[(42, 10), float16] span=from_string:67:115 */ = %63(%x16, %x_44) /* ty=Tensor[(42, 10), float16] */;
  %64 = fn (%p045: Tensor[(42, 10), float16] /* ty=Tensor[(42, 10), float16] */, Primitive=1, relay.reshape_only=1) -> Tensor[(1, 1, 420), float16] {
    reshape(%p045, newshape=[1, 1, -1]) /* ty=Tensor[(1, 1, 420), float16] span=from_string:67:107 */
  } /* ty=fn (Tensor[(42, 10), float16]) -> Tensor[(1, 1, 420), float16] */;
  let %x_46: Tensor[(1, 1, 420), float16] /* ty=Tensor[(1, 1, 420), float16] span=from_string:75:172 */ = %64(%x_45) /* ty=Tensor[(1, 1, 420), float16] */;
  %65 = fn (%p047: Tensor[(10, 24), float32] /* ty=Tensor[(10, 24), float32] */, Primitive=1) -> Tensor[(10, 24), float16] {
    cast(%p047, dtype="float16") /* ty=Tensor[(10, 24), float16] span=from_string:69:115 */
  } /* ty=fn (Tensor[(10, 24), float32]) -> Tensor[(10, 24), float16] */;
  %66 = %65(%x13) /* ty=Tensor[(10, 24), float16] */;
  %67 = fn (%p046: Tensor[(42, 24), float16] /* ty=Tensor[(42, 24), float16] */, %p126: Tensor[(10, 24), float16] /* ty=Tensor[(10, 24), float16] */, Primitive=1) -> Tensor[(42, 10), float16] {
    nn.dense(%p046, %p126, units=None, out_dtype="float16") /* ty=Tensor[(42, 10), float16] span=from_string:69:101 */
  } /* ty=fn (Tensor[(42, 24), float16], Tensor[(10, 24), float16]) -> Tensor[(42, 10), float16] */;
  let %x_47: Tensor[(42, 10), float16] /* ty=Tensor[(42, 10), float16] span=from_string:71:105 */ = %67(%58, %66) /* ty=Tensor[(42, 10), float16] */;
  %69 = fn (%p048: Tensor[(10), float32] /* ty=Tensor[(10), float32] */, %p127: Tensor[(42, 10), float16] /* ty=Tensor[(42, 10), float16] */, Primitive=1) -> Tensor[(42, 10), float16] {
    %68 = cast(%p048, dtype="float16") /* ty=Tensor[(10), float16] span=from_string:71:112 */;
    add(%p127, %68) /* ty=Tensor[(42, 10), float16] span=from_string:71:101 */
  } /* ty=fn (Tensor[(10), float32], Tensor[(42, 10), float16]) -> Tensor[(42, 10), float16] */;
  let %x_48: Tensor[(42, 10), float16] /* ty=Tensor[(42, 10), float16] span=from_string:73:111 */ = %69(%x15, %x_47) /* ty=Tensor[(42, 10), float16] */;
  %71 = fn (%p049: Tensor[(1), float32] /* ty=Tensor[(1), float32] */, %p128: Tensor[(42, 10), float16] /* ty=Tensor[(42, 10), float16] */, Primitive=1) -> Tensor[(42, 10), float16] {
    %70 = cast(%p049, dtype="float16") /* ty=Tensor[(1), float16] span=from_string:73:118 */;
    multiply(%p128, %70) /* ty=Tensor[(42, 10), float16] span=from_string:73:102 */
  } /* ty=fn (Tensor[(1), float32], Tensor[(42, 10), float16]) -> Tensor[(42, 10), float16] */;
  let %x_49: Tensor[(42, 10), float16] /* ty=Tensor[(42, 10), float16] span=from_string:74:115 */ = %71(%x17, %x_48) /* ty=Tensor[(42, 10), float16] */;
  %72 = fn (%p050: Tensor[(42, 10), float16] /* ty=Tensor[(42, 10), float16] */, Primitive=1, relay.reshape_only=1) -> Tensor[(1, 1, 420), float16] {
    reshape(%p050, newshape=[1, 1, -1]) /* ty=Tensor[(1, 1, 420), float16] span=from_string:74:107 */
  } /* ty=fn (Tensor[(42, 10), float16]) -> Tensor[(1, 1, 420), float16] */;
  let %x_50: Tensor[(1, 1, 420), float16] /* ty=Tensor[(1, 1, 420), float16] span=from_string:75:179 */ = %72(%x_49) /* ty=Tensor[(1, 1, 420), float16] */;
  let %x_51: (Tensor[(1, 1, 420), float16], Tensor[(1, 1, 420), float16]) /* ty=(Tensor[(1, 1, 420), float16], Tensor[(1, 1, 420), float16]) span=from_string:76:722 */ = (%x_46, %x_50) /* ty=(Tensor[(1, 1, 420), float16], Tensor[(1, 1, 420), float16]) span=from_string:75:171 */;
  let %x_52: ((Tensor[(65, 10), float16], Tensor[(65, 10), float16]), (Tensor[(1, 1, 120), float16], Tensor[(1, 1, 240), float16]), (Tensor[(10, 24), float16], (Tensor[(10, 24), float16],)), Tensor[(1), float16], Tensor[(14, 65), float16], Tensor[(65, 10), float16], (Tensor[(1, 1, 420), float16], Tensor[(1, 1, 420), float16])) /* ty=((Tensor[(65, 10), float16], Tensor[(65, 10), float16]), (Tensor[(1, 1, 120), float16], Tensor[(1, 1, 240), float16]), (Tensor[(10, 24), float16], (Tensor[(10, 24), float16],)), Tensor[(1), float16], Tensor[(14, 65), float16], Tensor[(65, 10), float16], (Tensor[(1, 1, 420), float16], Tensor[(1, 1, 420), float16])) span=from_string:77:680 */ = (%x_6, %x_22, %x_33, %x_35, %x_40, %x_42, %x_51) /* ty=((Tensor[(65, 10), float16], Tensor[(65, 10), float16]), (Tensor[(1, 1, 120), float16], Tensor[(1, 1, 240), float16]), (Tensor[(10, 24), float16], (Tensor[(10, 24), float16],)), Tensor[(1), float16], Tensor[(14, 65), float16], Tensor[(65, 10), float16], (Tensor[(1, 1, 420), float16], Tensor[(1, 1, 420), float16])) span=from_string:76:680 */;
  let %x_01: ((Tensor[(65, 10), float16], Tensor[(65, 10), float16]), (Tensor[(1, 1, 120), float16], Tensor[(1, 1, 240), float16]), (Tensor[(10, 24), float16], (Tensor[(10, 24), float16],)), Tensor[(1), float16], Tensor[(14, 65), float16], Tensor[(65, 10), float16], (Tensor[(1, 1, 420), float16], Tensor[(1, 1, 420), float16])) /* ty=((Tensor[(65, 10), float16], Tensor[(65, 10), float16]), (Tensor[(1, 1, 120), float16], Tensor[(1, 1, 240), float16]), (Tensor[(10, 24), float16], (Tensor[(10, 24), float16],)), Tensor[(1), float16], Tensor[(14, 65), float16], Tensor[(65, 10), float16], (Tensor[(1, 1, 420), float16], Tensor[(1, 1, 420), float16])) span=from_string:78:681 */ = %x_52;
  let %x_110: ((Tensor[(65, 10), float16], Tensor[(65, 10), float16]), (Tensor[(1, 1, 120), float16], Tensor[(1, 1, 240), float16]), (Tensor[(10, 24), float16], (Tensor[(10, 24), float16],)), Tensor[(1), float16], Tensor[(14, 65), float16], Tensor[(65, 10), float16], (Tensor[(1, 1, 420), float16], Tensor[(1, 1, 420), float16])) /* ty=((Tensor[(65, 10), float16], Tensor[(65, 10), float16]), (Tensor[(1, 1, 120), float16], Tensor[(1, 1, 240), float16]), (Tensor[(10, 24), float16], (Tensor[(10, 24), float16],)), Tensor[(1), float16], Tensor[(14, 65), float16], Tensor[(65, 10), float16], (Tensor[(1, 1, 420), float16], Tensor[(1, 1, 420), float16])) span=from_string:79:681 */ = %x_01;
  let %x_210: ((Tensor[(65, 10), float16], Tensor[(65, 10), float16]), (Tensor[(1, 1, 120), float16], Tensor[(1, 1, 240), float16]), (Tensor[(10, 24), float16], (Tensor[(10, 24), float16],)), Tensor[(1), float16], Tensor[(14, 65), float16], Tensor[(65, 10), float16], (Tensor[(1, 1, 420), float16], Tensor[(1, 1, 420), float16])) /* ty=((Tensor[(65, 10), float16], Tensor[(65, 10), float16]), (Tensor[(1, 1, 120), float16], Tensor[(1, 1, 240), float16]), (Tensor[(10, 24), float16], (Tensor[(10, 24), float16],)), Tensor[(1), float16], Tensor[(14, 65), float16], Tensor[(65, 10), float16], (Tensor[(1, 1, 420), float16], Tensor[(1, 1, 420), float16])) span=from_string:80:681 */ = %x_110;
  let %x_310: ((Tensor[(65, 10), float16], Tensor[(65, 10), float16]), (Tensor[(1, 1, 120), float16], Tensor[(1, 1, 240), float16]), (Tensor[(10, 24), float16], (Tensor[(10, 24), float16],)), Tensor[(1), float16], Tensor[(14, 65), float16], Tensor[(65, 10), float16], (Tensor[(1, 1, 420), float16], Tensor[(1, 1, 420), float16])) /* ty=((Tensor[(65, 10), float16], Tensor[(65, 10), float16]), (Tensor[(1, 1, 120), float16], Tensor[(1, 1, 240), float16]), (Tensor[(10, 24), float16], (Tensor[(10, 24), float16],)), Tensor[(1), float16], Tensor[(14, 65), float16], Tensor[(65, 10), float16], (Tensor[(1, 1, 420), float16], Tensor[(1, 1, 420), float16])) span=from_string:81:681 */ = %x_210;
  let %x_410: ((Tensor[(65, 10), float16], Tensor[(65, 10), float16]), (Tensor[(1, 1, 120), float16], Tensor[(1, 1, 240), float16]), (Tensor[(10, 24), float16], (Tensor[(10, 24), float16],)), Tensor[(1), float16], Tensor[(14, 65), float16], Tensor[(65, 10), float16], (Tensor[(1, 1, 420), float16], Tensor[(1, 1, 420), float16])) /* ty=((Tensor[(65, 10), float16], Tensor[(65, 10), float16]), (Tensor[(1, 1, 120), float16], Tensor[(1, 1, 240), float16]), (Tensor[(10, 24), float16], (Tensor[(10, 24), float16],)), Tensor[(1), float16], Tensor[(14, 65), float16], Tensor[(65, 10), float16], (Tensor[(1, 1, 420), float16], Tensor[(1, 1, 420), float16])) span=from_string:82:680 */ = %x_310;
  let %x_53: ((Tensor[(65, 10), float16], Tensor[(65, 10), float16]), (Tensor[(1, 1, 120), float16], Tensor[(1, 1, 240), float16]), (Tensor[(10, 24), float16], (Tensor[(10, 24), float16],)), Tensor[(1), float16], Tensor[(14, 65), float16], Tensor[(65, 10), float16], (Tensor[(1, 1, 420), float16], Tensor[(1, 1, 420), float16])) /* ty=((Tensor[(65, 10), float16], Tensor[(65, 10), float16]), (Tensor[(1, 1, 120), float16], Tensor[(1, 1, 240), float16]), (Tensor[(10, 24), float16], (Tensor[(10, 24), float16],)), Tensor[(1), float16], Tensor[(14, 65), float16], Tensor[(65, 10), float16], (Tensor[(1, 1, 420), float16], Tensor[(1, 1, 420), float16])) span=from_string:83:680 */ = %x_410;
  let %x_61: ((Tensor[(65, 10), float16], Tensor[(65, 10), float16]), (Tensor[(1, 1, 120), float16], Tensor[(1, 1, 240), float16]), (Tensor[(10, 24), float16], (Tensor[(10, 24), float16],)), Tensor[(1), float16], Tensor[(14, 65), float16], Tensor[(65, 10), float16], (Tensor[(1, 1, 420), float16], Tensor[(1, 1, 420), float16])) /* ty=((Tensor[(65, 10), float16], Tensor[(65, 10), float16]), (Tensor[(1, 1, 120), float16], Tensor[(1, 1, 240), float16]), (Tensor[(10, 24), float16], (Tensor[(10, 24), float16],)), Tensor[(1), float16], Tensor[(14, 65), float16], Tensor[(65, 10), float16], (Tensor[(1, 1, 420), float16], Tensor[(1, 1, 420), float16])) span=from_string:84:680 */ = %x_53;
  let %x_71: ((Tensor[(65, 10), float16], Tensor[(65, 10), float16]), (Tensor[(1, 1, 120), float16], Tensor[(1, 1, 240), float16]), (Tensor[(10, 24), float16], (Tensor[(10, 24), float16],)), Tensor[(1), float16], Tensor[(14, 65), float16], Tensor[(65, 10), float16], (Tensor[(1, 1, 420), float16], Tensor[(1, 1, 420), float16])) /* ty=((Tensor[(65, 10), float16], Tensor[(65, 10), float16]), (Tensor[(1, 1, 120), float16], Tensor[(1, 1, 240), float16]), (Tensor[(10, 24), float16], (Tensor[(10, 24), float16],)), Tensor[(1), float16], Tensor[(14, 65), float16], Tensor[(65, 10), float16], (Tensor[(1, 1, 420), float16], Tensor[(1, 1, 420), float16])) span=from_string:85:680 */ = %x_61;
  let %x_81: ((Tensor[(65, 10), float16], Tensor[(65, 10), float16]), (Tensor[(1, 1, 120), float16], Tensor[(1, 1, 240), float16]), (Tensor[(10, 24), float16], (Tensor[(10, 24), float16],)), Tensor[(1), float16], Tensor[(14, 65), float16], Tensor[(65, 10), float16], (Tensor[(1, 1, 420), float16], Tensor[(1, 1, 420), float16])) /* ty=((Tensor[(65, 10), float16], Tensor[(65, 10), float16]), (Tensor[(1, 1, 120), float16], Tensor[(1, 1, 240), float16]), (Tensor[(10, 24), float16], (Tensor[(10, 24), float16],)), Tensor[(1), float16], Tensor[(14, 65), float16], Tensor[(65, 10), float16], (Tensor[(1, 1, 420), float16], Tensor[(1, 1, 420), float16])) span=from_string:86:680 */ = %x_71;
  let %x_91: ((Tensor[(65, 10), float16], Tensor[(65, 10), float16]), (Tensor[(1, 1, 120), float16], Tensor[(1, 1, 240), float16]), (Tensor[(10, 24), float16], (Tensor[(10, 24), float16],)), Tensor[(1), float16], Tensor[(14, 65), float16], Tensor[(65, 10), float16], (Tensor[(1, 1, 420), float16], Tensor[(1, 1, 420), float16])) /* ty=((Tensor[(65, 10), float16], Tensor[(65, 10), float16]), (Tensor[(1, 1, 120), float16], Tensor[(1, 1, 240), float16]), (Tensor[(10, 24), float16], (Tensor[(10, 24), float16],)), Tensor[(1), float16], Tensor[(14, 65), float16], Tensor[(65, 10), float16], (Tensor[(1, 1, 420), float16], Tensor[(1, 1, 420), float16])) span=from_string:87:681 */ = %x_81;
  let %x_101: ((Tensor[(65, 10), float16], Tensor[(65, 10), float16]), (Tensor[(1, 1, 120), float16], Tensor[(1, 1, 240), float16]), (Tensor[(10, 24), float16], (Tensor[(10, 24), float16],)), Tensor[(1), float16], Tensor[(14, 65), float16], Tensor[(65, 10), float16], (Tensor[(1, 1, 420), float16], Tensor[(1, 1, 420), float16])) /* ty=((Tensor[(65, 10), float16], Tensor[(65, 10), float16]), (Tensor[(1, 1, 120), float16], Tensor[(1, 1, 240), float16]), (Tensor[(10, 24), float16], (Tensor[(10, 24), float16],)), Tensor[(1), float16], Tensor[(14, 65), float16], Tensor[(65, 10), float16], (Tensor[(1, 1, 420), float16], Tensor[(1, 1, 420), float16])) span=from_string:88:681 */ = %x_91;
  let %x_111: ((Tensor[(65, 10), float16], Tensor[(65, 10), float16]), (Tensor[(1, 1, 120), float16], Tensor[(1, 1, 240), float16]), (Tensor[(10, 24), float16], (Tensor[(10, 24), float16],)), Tensor[(1), float16], Tensor[(14, 65), float16], Tensor[(65, 10), float16], (Tensor[(1, 1, 420), float16], Tensor[(1, 1, 420), float16])) /* ty=((Tensor[(65, 10), float16], Tensor[(65, 10), float16]), (Tensor[(1, 1, 120), float16], Tensor[(1, 1, 240), float16]), (Tensor[(10, 24), float16], (Tensor[(10, 24), float16],)), Tensor[(1), float16], Tensor[(14, 65), float16], Tensor[(65, 10), float16], (Tensor[(1, 1, 420), float16], Tensor[(1, 1, 420), float16])) span=from_string:89:681 */ = %x_101;
  let %x_121: ((Tensor[(65, 10), float16], Tensor[(65, 10), float16]), (Tensor[(1, 1, 120), float16], Tensor[(1, 1, 240), float16]), (Tensor[(10, 24), float16], (Tensor[(10, 24), float16],)), Tensor[(1), float16], Tensor[(14, 65), float16], Tensor[(65, 10), float16], (Tensor[(1, 1, 420), float16], Tensor[(1, 1, 420), float16])) /* ty=((Tensor[(65, 10), float16], Tensor[(65, 10), float16]), (Tensor[(1, 1, 120), float16], Tensor[(1, 1, 240), float16]), (Tensor[(10, 24), float16], (Tensor[(10, 24), float16],)), Tensor[(1), float16], Tensor[(14, 65), float16], Tensor[(65, 10), float16], (Tensor[(1, 1, 420), float16], Tensor[(1, 1, 420), float16])) span=from_string:90:681 */ = %x_111;
  let %x_131: ((Tensor[(65, 10), float16], Tensor[(65, 10), float16]), (Tensor[(1, 1, 120), float16], Tensor[(1, 1, 240), float16]), (Tensor[(10, 24), float16], (Tensor[(10, 24), float16],)), Tensor[(1), float16], Tensor[(14, 65), float16], Tensor[(65, 10), float16], (Tensor[(1, 1, 420), float16], Tensor[(1, 1, 420), float16])) /* ty=((Tensor[(65, 10), float16], Tensor[(65, 10), float16]), (Tensor[(1, 1, 120), float16], Tensor[(1, 1, 240), float16]), (Tensor[(10, 24), float16], (Tensor[(10, 24), float16],)), Tensor[(1), float16], Tensor[(14, 65), float16], Tensor[(65, 10), float16], (Tensor[(1, 1, 420), float16], Tensor[(1, 1, 420), float16])) span=from_string:91:681 */ = %x_121;
  let %x_141: ((Tensor[(65, 10), float16], Tensor[(65, 10), float16]), (Tensor[(1, 1, 120), float16], Tensor[(1, 1, 240), float16]), (Tensor[(10, 24), float16], (Tensor[(10, 24), float16],)), Tensor[(1), float16], Tensor[(14, 65), float16], Tensor[(65, 10), float16], (Tensor[(1, 1, 420), float16], Tensor[(1, 1, 420), float16])) /* ty=((Tensor[(65, 10), float16], Tensor[(65, 10), float16]), (Tensor[(1, 1, 120), float16], Tensor[(1, 1, 240), float16]), (Tensor[(10, 24), float16], (Tensor[(10, 24), float16],)), Tensor[(1), float16], Tensor[(14, 65), float16], Tensor[(65, 10), float16], (Tensor[(1, 1, 420), float16], Tensor[(1, 1, 420), float16])) span=from_string:92:681 */ = %x_131;
  let %x_151: ((Tensor[(65, 10), float16], Tensor[(65, 10), float16]), (Tensor[(1, 1, 120), float16], Tensor[(1, 1, 240), float16]), (Tensor[(10, 24), float16], (Tensor[(10, 24), float16],)), Tensor[(1), float16], Tensor[(14, 65), float16], Tensor[(65, 10), float16], (Tensor[(1, 1, 420), float16], Tensor[(1, 1, 420), float16])) /* ty=((Tensor[(65, 10), float16], Tensor[(65, 10), float16]), (Tensor[(1, 1, 120), float16], Tensor[(1, 1, 240), float16]), (Tensor[(10, 24), float16], (Tensor[(10, 24), float16],)), Tensor[(1), float16], Tensor[(14, 65), float16], Tensor[(65, 10), float16], (Tensor[(1, 1, 420), float16], Tensor[(1, 1, 420), float16])) span=from_string:93:681 */ = %x_141;
  let %x_161: ((Tensor[(65, 10), float16], Tensor[(65, 10), float16]), (Tensor[(1, 1, 120), float16], Tensor[(1, 1, 240), float16]), (Tensor[(10, 24), float16], (Tensor[(10, 24), float16],)), Tensor[(1), float16], Tensor[(14, 65), float16], Tensor[(65, 10), float16], (Tensor[(1, 1, 420), float16], Tensor[(1, 1, 420), float16])) /* ty=((Tensor[(65, 10), float16], Tensor[(65, 10), float16]), (Tensor[(1, 1, 120), float16], Tensor[(1, 1, 240), float16]), (Tensor[(10, 24), float16], (Tensor[(10, 24), float16],)), Tensor[(1), float16], Tensor[(14, 65), float16], Tensor[(65, 10), float16], (Tensor[(1, 1, 420), float16], Tensor[(1, 1, 420), float16])) span=from_string:94:681 */ = %x_151;
  let %x_171: ((Tensor[(65, 10), float16], Tensor[(65, 10), float16]), (Tensor[(1, 1, 120), float16], Tensor[(1, 1, 240), float16]), (Tensor[(10, 24), float16], (Tensor[(10, 24), float16],)), Tensor[(1), float16], Tensor[(14, 65), float16], Tensor[(65, 10), float16], (Tensor[(1, 1, 420), float16], Tensor[(1, 1, 420), float16])) /* ty=((Tensor[(65, 10), float16], Tensor[(65, 10), float16]), (Tensor[(1, 1, 120), float16], Tensor[(1, 1, 240), float16]), (Tensor[(10, 24), float16], (Tensor[(10, 24), float16],)), Tensor[(1), float16], Tensor[(14, 65), float16], Tensor[(65, 10), float16], (Tensor[(1, 1, 420), float16], Tensor[(1, 1, 420), float16])) span=from_string:95:681 */ = %x_161;
  let %x_181: ((Tensor[(65, 10), float16], Tensor[(65, 10), float16]), (Tensor[(1, 1, 120), float16], Tensor[(1, 1, 240), float16]), (Tensor[(10, 24), float16], (Tensor[(10, 24), float16],)), Tensor[(1), float16], Tensor[(14, 65), float16], Tensor[(65, 10), float16], (Tensor[(1, 1, 420), float16], Tensor[(1, 1, 420), float16])) /* ty=((Tensor[(65, 10), float16], Tensor[(65, 10), float16]), (Tensor[(1, 1, 120), float16], Tensor[(1, 1, 240), float16]), (Tensor[(10, 24), float16], (Tensor[(10, 24), float16],)), Tensor[(1), float16], Tensor[(14, 65), float16], Tensor[(65, 10), float16], (Tensor[(1, 1, 420), float16], Tensor[(1, 1, 420), float16])) span=from_string:96:681 */ = %x_171;
  let %x_191: ((Tensor[(65, 10), float16], Tensor[(65, 10), float16]), (Tensor[(1, 1, 120), float16], Tensor[(1, 1, 240), float16]), (Tensor[(10, 24), float16], (Tensor[(10, 24), float16],)), Tensor[(1), float16], Tensor[(14, 65), float16], Tensor[(65, 10), float16], (Tensor[(1, 1, 420), float16], Tensor[(1, 1, 420), float16])) /* ty=((Tensor[(65, 10), float16], Tensor[(65, 10), float16]), (Tensor[(1, 1, 120), float16], Tensor[(1, 1, 240), float16]), (Tensor[(10, 24), float16], (Tensor[(10, 24), float16],)), Tensor[(1), float16], Tensor[(14, 65), float16], Tensor[(65, 10), float16], (Tensor[(1, 1, 420), float16], Tensor[(1, 1, 420), float16])) span=from_string:97:681 */ = %x_181;
  let %x_201: ((Tensor[(65, 10), float16], Tensor[(65, 10), float16]), (Tensor[(1, 1, 120), float16], Tensor[(1, 1, 240), float16]), (Tensor[(10, 24), float16], (Tensor[(10, 24), float16],)), Tensor[(1), float16], Tensor[(14, 65), float16], Tensor[(65, 10), float16], (Tensor[(1, 1, 420), float16], Tensor[(1, 1, 420), float16])) /* ty=((Tensor[(65, 10), float16], Tensor[(65, 10), float16]), (Tensor[(1, 1, 120), float16], Tensor[(1, 1, 240), float16]), (Tensor[(10, 24), float16], (Tensor[(10, 24), float16],)), Tensor[(1), float16], Tensor[(14, 65), float16], Tensor[(65, 10), float16], (Tensor[(1, 1, 420), float16], Tensor[(1, 1, 420), float16])) span=from_string:98:681 */ = %x_191;
  let %x_211: ((Tensor[(65, 10), float16], Tensor[(65, 10), float16]), (Tensor[(1, 1, 120), float16], Tensor[(1, 1, 240), float16]), (Tensor[(10, 24), float16], (Tensor[(10, 24), float16],)), Tensor[(1), float16], Tensor[(14, 65), float16], Tensor[(65, 10), float16], (Tensor[(1, 1, 420), float16], Tensor[(1, 1, 420), float16])) /* ty=((Tensor[(65, 10), float16], Tensor[(65, 10), float16]), (Tensor[(1, 1, 120), float16], Tensor[(1, 1, 240), float16]), (Tensor[(10, 24), float16], (Tensor[(10, 24), float16],)), Tensor[(1), float16], Tensor[(14, 65), float16], Tensor[(65, 10), float16], (Tensor[(1, 1, 420), float16], Tensor[(1, 1, 420), float16])) span=from_string:99:681 */ = %x_201;
  let %x_221: ((Tensor[(65, 10), float16], Tensor[(65, 10), float16]), (Tensor[(1, 1, 120), float16], Tensor[(1, 1, 240), float16]), (Tensor[(10, 24), float16], (Tensor[(10, 24), float16],)), Tensor[(1), float16], Tensor[(14, 65), float16], Tensor[(65, 10), float16], (Tensor[(1, 1, 420), float16], Tensor[(1, 1, 420), float16])) /* ty=((Tensor[(65, 10), float16], Tensor[(65, 10), float16]), (Tensor[(1, 1, 120), float16], Tensor[(1, 1, 240), float16]), (Tensor[(10, 24), float16], (Tensor[(10, 24), float16],)), Tensor[(1), float16], Tensor[(14, 65), float16], Tensor[(65, 10), float16], (Tensor[(1, 1, 420), float16], Tensor[(1, 1, 420), float16])) span=from_string:100:681 */ = %x_211;
  let %x_231: ((Tensor[(65, 10), float16], Tensor[(65, 10), float16]), (Tensor[(1, 1, 120), float16], Tensor[(1, 1, 240), float16]), (Tensor[(10, 24), float16], (Tensor[(10, 24), float16],)), Tensor[(1), float16], Tensor[(14, 65), float16], Tensor[(65, 10), float16], (Tensor[(1, 1, 420), float16], Tensor[(1, 1, 420), float16])) /* ty=((Tensor[(65, 10), float16], Tensor[(65, 10), float16]), (Tensor[(1, 1, 120), float16], Tensor[(1, 1, 240), float16]), (Tensor[(10, 24), float16], (Tensor[(10, 24), float16],)), Tensor[(1), float16], Tensor[(14, 65), float16], Tensor[(65, 10), float16], (Tensor[(1, 1, 420), float16], Tensor[(1, 1, 420), float16])) span=from_string:101:681 */ = %x_221;
  let %x_241: ((Tensor[(65, 10), float16], Tensor[(65, 10), float16]), (Tensor[(1, 1, 120), float16], Tensor[(1, 1, 240), float16]), (Tensor[(10, 24), float16], (Tensor[(10, 24), float16],)), Tensor[(1), float16], Tensor[(14, 65), float16], Tensor[(65, 10), float16], (Tensor[(1, 1, 420), float16], Tensor[(1, 1, 420), float16])) /* ty=((Tensor[(65, 10), float16], Tensor[(65, 10), float16]), (Tensor[(1, 1, 120), float16], Tensor[(1, 1, 240), float16]), (Tensor[(10, 24), float16], (Tensor[(10, 24), float16],)), Tensor[(1), float16], Tensor[(14, 65), float16], Tensor[(65, 10), float16], (Tensor[(1, 1, 420), float16], Tensor[(1, 1, 420), float16])) span=from_string:102:681 */ = %x_231;
  let %x_251: ((Tensor[(65, 10), float16], Tensor[(65, 10), float16]), (Tensor[(1, 1, 120), float16], Tensor[(1, 1, 240), float16]), (Tensor[(10, 24), float16], (Tensor[(10, 24), float16],)), Tensor[(1), float16], Tensor[(14, 65), float16], Tensor[(65, 10), float16], (Tensor[(1, 1, 420), float16], Tensor[(1, 1, 420), float16])) /* ty=((Tensor[(65, 10), float16], Tensor[(65, 10), float16]), (Tensor[(1, 1, 120), float16], Tensor[(1, 1, 240), float16]), (Tensor[(10, 24), float16], (Tensor[(10, 24), float16],)), Tensor[(1), float16], Tensor[(14, 65), float16], Tensor[(65, 10), float16], (Tensor[(1, 1, 420), float16], Tensor[(1, 1, 420), float16])) span=from_string:103:681 */ = %x_241;
  let %x_261: ((Tensor[(65, 10), float16], Tensor[(65, 10), float16]), (Tensor[(1, 1, 120), float16], Tensor[(1, 1, 240), float16]), (Tensor[(10, 24), float16], (Tensor[(10, 24), float16],)), Tensor[(1), float16], Tensor[(14, 65), float16], Tensor[(65, 10), float16], (Tensor[(1, 1, 420), float16], Tensor[(1, 1, 420), float16])) /* ty=((Tensor[(65, 10), float16], Tensor[(65, 10), float16]), (Tensor[(1, 1, 120), float16], Tensor[(1, 1, 240), float16]), (Tensor[(10, 24), float16], (Tensor[(10, 24), float16],)), Tensor[(1), float16], Tensor[(14, 65), float16], Tensor[(65, 10), float16], (Tensor[(1, 1, 420), float16], Tensor[(1, 1, 420), float16])) span=from_string:104:681 */ = %x_251;
  let %x_271: ((Tensor[(65, 10), float16], Tensor[(65, 10), float16]), (Tensor[(1, 1, 120), float16], Tensor[(1, 1, 240), float16]), (Tensor[(10, 24), float16], (Tensor[(10, 24), float16],)), Tensor[(1), float16], Tensor[(14, 65), float16], Tensor[(65, 10), float16], (Tensor[(1, 1, 420), float16], Tensor[(1, 1, 420), float16])) /* ty=((Tensor[(65, 10), float16], Tensor[(65, 10), float16]), (Tensor[(1, 1, 120), float16], Tensor[(1, 1, 240), float16]), (Tensor[(10, 24), float16], (Tensor[(10, 24), float16],)), Tensor[(1), float16], Tensor[(14, 65), float16], Tensor[(65, 10), float16], (Tensor[(1, 1, 420), float16], Tensor[(1, 1, 420), float16])) span=from_string:105:681 */ = %x_261;
  let %x_281: ((Tensor[(65, 10), float16], Tensor[(65, 10), float16]), (Tensor[(1, 1, 120), float16], Tensor[(1, 1, 240), float16]), (Tensor[(10, 24), float16], (Tensor[(10, 24), float16],)), Tensor[(1), float16], Tensor[(14, 65), float16], Tensor[(65, 10), float16], (Tensor[(1, 1, 420), float16], Tensor[(1, 1, 420), float16])) /* ty=((Tensor[(65, 10), float16], Tensor[(65, 10), float16]), (Tensor[(1, 1, 120), float16], Tensor[(1, 1, 240), float16]), (Tensor[(10, 24), float16], (Tensor[(10, 24), float16],)), Tensor[(1), float16], Tensor[(14, 65), float16], Tensor[(65, 10), float16], (Tensor[(1, 1, 420), float16], Tensor[(1, 1, 420), float16])) span=from_string:106:681 */ = %x_271;
  let %x_291: ((Tensor[(65, 10), float16], Tensor[(65, 10), float16]), (Tensor[(1, 1, 120), float16], Tensor[(1, 1, 240), float16]), (Tensor[(10, 24), float16], (Tensor[(10, 24), float16],)), Tensor[(1), float16], Tensor[(14, 65), float16], Tensor[(65, 10), float16], (Tensor[(1, 1, 420), float16], Tensor[(1, 1, 420), float16])) /* ty=((Tensor[(65, 10), float16], Tensor[(65, 10), float16]), (Tensor[(1, 1, 120), float16], Tensor[(1, 1, 240), float16]), (Tensor[(10, 24), float16], (Tensor[(10, 24), float16],)), Tensor[(1), float16], Tensor[(14, 65), float16], Tensor[(65, 10), float16], (Tensor[(1, 1, 420), float16], Tensor[(1, 1, 420), float16])) span=from_string:107:681 */ = %x_281;
  let %x_301: ((Tensor[(65, 10), float16], Tensor[(65, 10), float16]), (Tensor[(1, 1, 120), float16], Tensor[(1, 1, 240), float16]), (Tensor[(10, 24), float16], (Tensor[(10, 24), float16],)), Tensor[(1), float16], Tensor[(14, 65), float16], Tensor[(65, 10), float16], (Tensor[(1, 1, 420), float16], Tensor[(1, 1, 420), float16])) /* ty=((Tensor[(65, 10), float16], Tensor[(65, 10), float16]), (Tensor[(1, 1, 120), float16], Tensor[(1, 1, 240), float16]), (Tensor[(10, 24), float16], (Tensor[(10, 24), float16],)), Tensor[(1), float16], Tensor[(14, 65), float16], Tensor[(65, 10), float16], (Tensor[(1, 1, 420), float16], Tensor[(1, 1, 420), float16])) span=from_string:108:681 */ = %x_291;
  let %x_311: ((Tensor[(65, 10), float16], Tensor[(65, 10), float16]), (Tensor[(1, 1, 120), float16], Tensor[(1, 1, 240), float16]), (Tensor[(10, 24), float16], (Tensor[(10, 24), float16],)), Tensor[(1), float16], Tensor[(14, 65), float16], Tensor[(65, 10), float16], (Tensor[(1, 1, 420), float16], Tensor[(1, 1, 420), float16])) /* ty=((Tensor[(65, 10), float16], Tensor[(65, 10), float16]), (Tensor[(1, 1, 120), float16], Tensor[(1, 1, 240), float16]), (Tensor[(10, 24), float16], (Tensor[(10, 24), float16],)), Tensor[(1), float16], Tensor[(14, 65), float16], Tensor[(65, 10), float16], (Tensor[(1, 1, 420), float16], Tensor[(1, 1, 420), float16])) span=from_string:109:681 */ = %x_301;
  let %x_321: ((Tensor[(65, 10), float16], Tensor[(65, 10), float16]), (Tensor[(1, 1, 120), float16], Tensor[(1, 1, 240), float16]), (Tensor[(10, 24), float16], (Tensor[(10, 24), float16],)), Tensor[(1), float16], Tensor[(14, 65), float16], Tensor[(65, 10), float16], (Tensor[(1, 1, 420), float16], Tensor[(1, 1, 420), float16])) /* ty=((Tensor[(65, 10), float16], Tensor[(65, 10), float16]), (Tensor[(1, 1, 120), float16], Tensor[(1, 1, 240), float16]), (Tensor[(10, 24), float16], (Tensor[(10, 24), float16],)), Tensor[(1), float16], Tensor[(14, 65), float16], Tensor[(65, 10), float16], (Tensor[(1, 1, 420), float16], Tensor[(1, 1, 420), float16])) span=from_string:110:681 */ = %x_311;
  let %x_331: ((Tensor[(65, 10), float16], Tensor[(65, 10), float16]), (Tensor[(1, 1, 120), float16], Tensor[(1, 1, 240), float16]), (Tensor[(10, 24), float16], (Tensor[(10, 24), float16],)), Tensor[(1), float16], Tensor[(14, 65), float16], Tensor[(65, 10), float16], (Tensor[(1, 1, 420), float16], Tensor[(1, 1, 420), float16])) /* ty=((Tensor[(65, 10), float16], Tensor[(65, 10), float16]), (Tensor[(1, 1, 120), float16], Tensor[(1, 1, 240), float16]), (Tensor[(10, 24), float16], (Tensor[(10, 24), float16],)), Tensor[(1), float16], Tensor[(14, 65), float16], Tensor[(65, 10), float16], (Tensor[(1, 1, 420), float16], Tensor[(1, 1, 420), float16])) span=from_string:111:681 */ = %x_321;
  let %x_341: ((Tensor[(65, 10), float16], Tensor[(65, 10), float16]), (Tensor[(1, 1, 120), float16], Tensor[(1, 1, 240), float16]), (Tensor[(10, 24), float16], (Tensor[(10, 24), float16],)), Tensor[(1), float16], Tensor[(14, 65), float16], Tensor[(65, 10), float16], (Tensor[(1, 1, 420), float16], Tensor[(1, 1, 420), float16])) /* ty=((Tensor[(65, 10), float16], Tensor[(65, 10), float16]), (Tensor[(1, 1, 120), float16], Tensor[(1, 1, 240), float16]), (Tensor[(10, 24), float16], (Tensor[(10, 24), float16],)), Tensor[(1), float16], Tensor[(14, 65), float16], Tensor[(65, 10), float16], (Tensor[(1, 1, 420), float16], Tensor[(1, 1, 420), float16])) span=from_string:112:681 */ = %x_331;
  let %x_351: ((Tensor[(65, 10), float16], Tensor[(65, 10), float16]), (Tensor[(1, 1, 120), float16], Tensor[(1, 1, 240), float16]), (Tensor[(10, 24), float16], (Tensor[(10, 24), float16],)), Tensor[(1), float16], Tensor[(14, 65), float16], Tensor[(65, 10), float16], (Tensor[(1, 1, 420), float16], Tensor[(1, 1, 420), float16])) /* ty=((Tensor[(65, 10), float16], Tensor[(65, 10), float16]), (Tensor[(1, 1, 120), float16], Tensor[(1, 1, 240), float16]), (Tensor[(10, 24), float16], (Tensor[(10, 24), float16],)), Tensor[(1), float16], Tensor[(14, 65), float16], Tensor[(65, 10), float16], (Tensor[(1, 1, 420), float16], Tensor[(1, 1, 420), float16])) span=from_string:113:681 */ = %x_341;
  let %x_361: ((Tensor[(65, 10), float16], Tensor[(65, 10), float16]), (Tensor[(1, 1, 120), float16], Tensor[(1, 1, 240), float16]), (Tensor[(10, 24), float16], (Tensor[(10, 24), float16],)), Tensor[(1), float16], Tensor[(14, 65), float16], Tensor[(65, 10), float16], (Tensor[(1, 1, 420), float16], Tensor[(1, 1, 420), float16])) /* ty=((Tensor[(65, 10), float16], Tensor[(65, 10), float16]), (Tensor[(1, 1, 120), float16], Tensor[(1, 1, 240), float16]), (Tensor[(10, 24), float16], (Tensor[(10, 24), float16],)), Tensor[(1), float16], Tensor[(14, 65), float16], Tensor[(65, 10), float16], (Tensor[(1, 1, 420), float16], Tensor[(1, 1, 420), float16])) span=from_string:114:681 */ = %x_351;
  let %x_371: ((Tensor[(65, 10), float16], Tensor[(65, 10), float16]), (Tensor[(1, 1, 120), float16], Tensor[(1, 1, 240), float16]), (Tensor[(10, 24), float16], (Tensor[(10, 24), float16],)), Tensor[(1), float16], Tensor[(14, 65), float16], Tensor[(65, 10), float16], (Tensor[(1, 1, 420), float16], Tensor[(1, 1, 420), float16])) /* ty=((Tensor[(65, 10), float16], Tensor[(65, 10), float16]), (Tensor[(1, 1, 120), float16], Tensor[(1, 1, 240), float16]), (Tensor[(10, 24), float16], (Tensor[(10, 24), float16],)), Tensor[(1), float16], Tensor[(14, 65), float16], Tensor[(65, 10), float16], (Tensor[(1, 1, 420), float16], Tensor[(1, 1, 420), float16])) span=from_string:115:681 */ = %x_361;
  let %x_381: ((Tensor[(65, 10), float16], Tensor[(65, 10), float16]), (Tensor[(1, 1, 120), float16], Tensor[(1, 1, 240), float16]), (Tensor[(10, 24), float16], (Tensor[(10, 24), float16],)), Tensor[(1), float16], Tensor[(14, 65), float16], Tensor[(65, 10), float16], (Tensor[(1, 1, 420), float16], Tensor[(1, 1, 420), float16])) /* ty=((Tensor[(65, 10), float16], Tensor[(65, 10), float16]), (Tensor[(1, 1, 120), float16], Tensor[(1, 1, 240), float16]), (Tensor[(10, 24), float16], (Tensor[(10, 24), float16],)), Tensor[(1), float16], Tensor[(14, 65), float16], Tensor[(65, 10), float16], (Tensor[(1, 1, 420), float16], Tensor[(1, 1, 420), float16])) span=from_string:116:681 */ = %x_371;
  let %x_391: ((Tensor[(65, 10), float16], Tensor[(65, 10), float16]), (Tensor[(1, 1, 120), float16], Tensor[(1, 1, 240), float16]), (Tensor[(10, 24), float16], (Tensor[(10, 24), float16],)), Tensor[(1), float16], Tensor[(14, 65), float16], Tensor[(65, 10), float16], (Tensor[(1, 1, 420), float16], Tensor[(1, 1, 420), float16])) /* ty=((Tensor[(65, 10), float16], Tensor[(65, 10), float16]), (Tensor[(1, 1, 120), float16], Tensor[(1, 1, 240), float16]), (Tensor[(10, 24), float16], (Tensor[(10, 24), float16],)), Tensor[(1), float16], Tensor[(14, 65), float16], Tensor[(65, 10), float16], (Tensor[(1, 1, 420), float16], Tensor[(1, 1, 420), float16])) span=from_string:117:681 */ = %x_381;
  let %x_401: ((Tensor[(65, 10), float16], Tensor[(65, 10), float16]), (Tensor[(1, 1, 120), float16], Tensor[(1, 1, 240), float16]), (Tensor[(10, 24), float16], (Tensor[(10, 24), float16],)), Tensor[(1), float16], Tensor[(14, 65), float16], Tensor[(65, 10), float16], (Tensor[(1, 1, 420), float16], Tensor[(1, 1, 420), float16])) /* ty=((Tensor[(65, 10), float16], Tensor[(65, 10), float16]), (Tensor[(1, 1, 120), float16], Tensor[(1, 1, 240), float16]), (Tensor[(10, 24), float16], (Tensor[(10, 24), float16],)), Tensor[(1), float16], Tensor[(14, 65), float16], Tensor[(65, 10), float16], (Tensor[(1, 1, 420), float16], Tensor[(1, 1, 420), float16])) span=from_string:118:681 */ = %x_391;
  let %x_411: ((Tensor[(65, 10), float16], Tensor[(65, 10), float16]), (Tensor[(1, 1, 120), float16], Tensor[(1, 1, 240), float16]), (Tensor[(10, 24), float16], (Tensor[(10, 24), float16],)), Tensor[(1), float16], Tensor[(14, 65), float16], Tensor[(65, 10), float16], (Tensor[(1, 1, 420), float16], Tensor[(1, 1, 420), float16])) /* ty=((Tensor[(65, 10), float16], Tensor[(65, 10), float16]), (Tensor[(1, 1, 120), float16], Tensor[(1, 1, 240), float16]), (Tensor[(10, 24), float16], (Tensor[(10, 24), float16],)), Tensor[(1), float16], Tensor[(14, 65), float16], Tensor[(65, 10), float16], (Tensor[(1, 1, 420), float16], Tensor[(1, 1, 420), float16])) span=from_string:119:681 */ = %x_401;
  let %x_421: ((Tensor[(65, 10), float16], Tensor[(65, 10), float16]), (Tensor[(1, 1, 120), float16], Tensor[(1, 1, 240), float16]), (Tensor[(10, 24), float16], (Tensor[(10, 24), float16],)), Tensor[(1), float16], Tensor[(14, 65), float16], Tensor[(65, 10), float16], (Tensor[(1, 1, 420), float16], Tensor[(1, 1, 420), float16])) /* ty=((Tensor[(65, 10), float16], Tensor[(65, 10), float16]), (Tensor[(1, 1, 120), float16], Tensor[(1, 1, 240), float16]), (Tensor[(10, 24), float16], (Tensor[(10, 24), float16],)), Tensor[(1), float16], Tensor[(14, 65), float16], Tensor[(65, 10), float16], (Tensor[(1, 1, 420), float16], Tensor[(1, 1, 420), float16])) span=from_string:120:682 */ = %x_411;
  let %x_431: ((Tensor[(65, 10), float16], Tensor[(65, 10), float16]), (Tensor[(1, 1, 120), float16], Tensor[(1, 1, 240), float16]), (Tensor[(10, 24), float16], (Tensor[(10, 24), float16],)), Tensor[(1), float16], Tensor[(14, 65), float16], Tensor[(65, 10), float16], (Tensor[(1, 1, 420), float16], Tensor[(1, 1, 420), float16])) /* ty=((Tensor[(65, 10), float16], Tensor[(65, 10), float16]), (Tensor[(1, 1, 120), float16], Tensor[(1, 1, 240), float16]), (Tensor[(10, 24), float16], (Tensor[(10, 24), float16],)), Tensor[(1), float16], Tensor[(14, 65), float16], Tensor[(65, 10), float16], (Tensor[(1, 1, 420), float16], Tensor[(1, 1, 420), float16])) span=from_string:121:682 */ = %x_421;
  let %x_441: ((Tensor[(65, 10), float16], Tensor[(65, 10), float16]), (Tensor[(1, 1, 120), float16], Tensor[(1, 1, 240), float16]), (Tensor[(10, 24), float16], (Tensor[(10, 24), float16],)), Tensor[(1), float16], Tensor[(14, 65), float16], Tensor[(65, 10), float16], (Tensor[(1, 1, 420), float16], Tensor[(1, 1, 420), float16])) /* ty=((Tensor[(65, 10), float16], Tensor[(65, 10), float16]), (Tensor[(1, 1, 120), float16], Tensor[(1, 1, 240), float16]), (Tensor[(10, 24), float16], (Tensor[(10, 24), float16],)), Tensor[(1), float16], Tensor[(14, 65), float16], Tensor[(65, 10), float16], (Tensor[(1, 1, 420), float16], Tensor[(1, 1, 420), float16])) span=from_string:122:682 */ = %x_431;
  let %x_451: ((Tensor[(65, 10), float16], Tensor[(65, 10), float16]), (Tensor[(1, 1, 120), float16], Tensor[(1, 1, 240), float16]), (Tensor[(10, 24), float16], (Tensor[(10, 24), float16],)), Tensor[(1), float16], Tensor[(14, 65), float16], Tensor[(65, 10), float16], (Tensor[(1, 1, 420), float16], Tensor[(1, 1, 420), float16])) /* ty=((Tensor[(65, 10), float16], Tensor[(65, 10), float16]), (Tensor[(1, 1, 120), float16], Tensor[(1, 1, 240), float16]), (Tensor[(10, 24), float16], (Tensor[(10, 24), float16],)), Tensor[(1), float16], Tensor[(14, 65), float16], Tensor[(65, 10), float16], (Tensor[(1, 1, 420), float16], Tensor[(1, 1, 420), float16])) span=from_string:123:682 */ = %x_441;
  let %x_461: ((Tensor[(65, 10), float16], Tensor[(65, 10), float16]), (Tensor[(1, 1, 120), float16], Tensor[(1, 1, 240), float16]), (Tensor[(10, 24), float16], (Tensor[(10, 24), float16],)), Tensor[(1), float16], Tensor[(14, 65), float16], Tensor[(65, 10), float16], (Tensor[(1, 1, 420), float16], Tensor[(1, 1, 420), float16])) /* ty=((Tensor[(65, 10), float16], Tensor[(65, 10), float16]), (Tensor[(1, 1, 120), float16], Tensor[(1, 1, 240), float16]), (Tensor[(10, 24), float16], (Tensor[(10, 24), float16],)), Tensor[(1), float16], Tensor[(14, 65), float16], Tensor[(65, 10), float16], (Tensor[(1, 1, 420), float16], Tensor[(1, 1, 420), float16])) span=from_string:124:682 */ = %x_451;
  let %x_471: ((Tensor[(65, 10), float16], Tensor[(65, 10), float16]), (Tensor[(1, 1, 120), float16], Tensor[(1, 1, 240), float16]), (Tensor[(10, 24), float16], (Tensor[(10, 24), float16],)), Tensor[(1), float16], Tensor[(14, 65), float16], Tensor[(65, 10), float16], (Tensor[(1, 1, 420), float16], Tensor[(1, 1, 420), float16])) /* ty=((Tensor[(65, 10), float16], Tensor[(65, 10), float16]), (Tensor[(1, 1, 120), float16], Tensor[(1, 1, 240), float16]), (Tensor[(10, 24), float16], (Tensor[(10, 24), float16],)), Tensor[(1), float16], Tensor[(14, 65), float16], Tensor[(65, 10), float16], (Tensor[(1, 1, 420), float16], Tensor[(1, 1, 420), float16])) span=from_string:125:682 */ = %x_461;
  let %x_481: ((Tensor[(65, 10), float16], Tensor[(65, 10), float16]), (Tensor[(1, 1, 120), float16], Tensor[(1, 1, 240), float16]), (Tensor[(10, 24), float16], (Tensor[(10, 24), float16],)), Tensor[(1), float16], Tensor[(14, 65), float16], Tensor[(65, 10), float16], (Tensor[(1, 1, 420), float16], Tensor[(1, 1, 420), float16])) /* ty=((Tensor[(65, 10), float16], Tensor[(65, 10), float16]), (Tensor[(1, 1, 120), float16], Tensor[(1, 1, 240), float16]), (Tensor[(10, 24), float16], (Tensor[(10, 24), float16],)), Tensor[(1), float16], Tensor[(14, 65), float16], Tensor[(65, 10), float16], (Tensor[(1, 1, 420), float16], Tensor[(1, 1, 420), float16])) span=from_string:126:682 */ = %x_471;
  let %x_491: ((Tensor[(65, 10), float16], Tensor[(65, 10), float16]), (Tensor[(1, 1, 120), float16], Tensor[(1, 1, 240), float16]), (Tensor[(10, 24), float16], (Tensor[(10, 24), float16],)), Tensor[(1), float16], Tensor[(14, 65), float16], Tensor[(65, 10), float16], (Tensor[(1, 1, 420), float16], Tensor[(1, 1, 420), float16])) /* ty=((Tensor[(65, 10), float16], Tensor[(65, 10), float16]), (Tensor[(1, 1, 120), float16], Tensor[(1, 1, 240), float16]), (Tensor[(10, 24), float16], (Tensor[(10, 24), float16],)), Tensor[(1), float16], Tensor[(14, 65), float16], Tensor[(65, 10), float16], (Tensor[(1, 1, 420), float16], Tensor[(1, 1, 420), float16])) span=from_string:127:682 */ = %x_481;
  let %x_501: ((Tensor[(65, 10), float16], Tensor[(65, 10), float16]), (Tensor[(1, 1, 120), float16], Tensor[(1, 1, 240), float16]), (Tensor[(10, 24), float16], (Tensor[(10, 24), float16],)), Tensor[(1), float16], Tensor[(14, 65), float16], Tensor[(65, 10), float16], (Tensor[(1, 1, 420), float16], Tensor[(1, 1, 420), float16])) /* ty=((Tensor[(65, 10), float16], Tensor[(65, 10), float16]), (Tensor[(1, 1, 120), float16], Tensor[(1, 1, 240), float16]), (Tensor[(10, 24), float16], (Tensor[(10, 24), float16],)), Tensor[(1), float16], Tensor[(14, 65), float16], Tensor[(65, 10), float16], (Tensor[(1, 1, 420), float16], Tensor[(1, 1, 420), float16])) span=from_string:128:682 */ = %x_491;
  let %x_511: ((Tensor[(65, 10), float16], Tensor[(65, 10), float16]), (Tensor[(1, 1, 120), float16], Tensor[(1, 1, 240), float16]), (Tensor[(10, 24), float16], (Tensor[(10, 24), float16],)), Tensor[(1), float16], Tensor[(14, 65), float16], Tensor[(65, 10), float16], (Tensor[(1, 1, 420), float16], Tensor[(1, 1, 420), float16])) /* ty=((Tensor[(65, 10), float16], Tensor[(65, 10), float16]), (Tensor[(1, 1, 120), float16], Tensor[(1, 1, 240), float16]), (Tensor[(10, 24), float16], (Tensor[(10, 24), float16],)), Tensor[(1), float16], Tensor[(14, 65), float16], Tensor[(65, 10), float16], (Tensor[(1, 1, 420), float16], Tensor[(1, 1, 420), float16])) span=from_string:129:681 */ = %x_501;
  let %x_521: ((Tensor[(65, 10), float16], Tensor[(65, 10), float16]), (Tensor[(1, 1, 120), float16], Tensor[(1, 1, 240), float16]), (Tensor[(10, 24), float16], (Tensor[(10, 24), float16],)), Tensor[(1), float16], Tensor[(14, 65), float16], Tensor[(65, 10), float16], (Tensor[(1, 1, 420), float16], Tensor[(1, 1, 420), float16])) /* ty=((Tensor[(65, 10), float16], Tensor[(65, 10), float16]), (Tensor[(1, 1, 120), float16], Tensor[(1, 1, 240), float16]), (Tensor[(10, 24), float16], (Tensor[(10, 24), float16],)), Tensor[(1), float16], Tensor[(14, 65), float16], Tensor[(65, 10), float16], (Tensor[(1, 1, 420), float16], Tensor[(1, 1, 420), float16])) span=from_string:130:3 */ = %x_511;
  %x_521
}
