#[version = "0.0.5"]
def @main(%x0: Tensor[(10, 10), float32] /* ty=Tensor[(10, 10), float32] span=from_string:10:103 */, %x1: Tensor[(65, 10), float32] /* ty=Tensor[(65, 10), float32] span=from_string:22:104 */, %x2: Tensor[(10, 10), float32] /* ty=Tensor[(10, 10), float32] span=from_string:22:109 */, %x3: Tensor[(10), float32] /* ty=Tensor[(10), float32] span=from_string:18:109 */, %x4: Tensor[(10), float32] /* ty=Tensor[(10), float32] span=from_string:26:109 */, %x5: Tensor[(12, 10), float32] /* ty=Tensor[(12, 10), float32] span=from_string:51:112 */, %x6: Tensor[(12), float32] /* ty=Tensor[(12), float32] span=from_string:55:112 */, %x7: Tensor[(1), float32] /* ty=Tensor[(1), float32] span=from_string:59:112 */, %x8: Tensor[(24, 10), float32] /* ty=Tensor[(24, 10), float32] span=from_string:67:112 */, %x9: Tensor[(24), float32] /* ty=Tensor[(24), float32] span=from_string:71:112 */, %x10: Tensor[(1), float32] /* ty=Tensor[(1), float32] span=from_string:126:96 */, %x11: Tensor[(14, 30), float32] /* ty=Tensor[(14, 30), float32] span=from_string:130:218 */, %x12: Tensor[(42, 24), float32] /* ty=Tensor[(42, 24), float32] span=from_string:171:106 */, %x13: Tensor[(10, 24), float32] /* ty=Tensor[(10, 24), float32] span=from_string:171:112 */, %x14: Tensor[(10), float32] /* ty=Tensor[(10), float32] span=from_string:159:113 */, %x15: Tensor[(10), float32] /* ty=Tensor[(10), float32] span=from_string:175:113 */, %x16: Tensor[(1), float32] /* ty=Tensor[(1), float32] span=from_string:163:113 */, %x17: Tensor[(1), float32] /* ty=Tensor[(1), float32] span=from_string:179:113 */) -> ((Tensor[(65, 10), float32], Tensor[(65, 10), float32]), (Tensor[(1, 1, 120), float32], Tensor[(1, 1, 240), float32]), (Tensor[(10, 24), float32], (Tensor[(10, 24), float32],)), Tensor[(1), float32], Tensor[(14, 65), float32], Tensor[(65, 10), bfloat16], (Tensor[(1, 1, 420), float32], Tensor[(1, 1, 420), float32])) {
  %0 = fn (%p0: Tensor[(10, 10), float32] /* ty=Tensor[(10, 10), float32] span=from_string:4:16 */, Primitive=1) -> Tensor[(10, 10), float32] {
    zeros(shape=[10, 10], dtype="float32") /* ty=Tensor[(10, 10), float32] */
  } /* ty=fn (Tensor[(10, 10), float32]) -> Tensor[(10, 10), float32] span=from_string:6:100 */;
  let %x_0: Tensor[(10, 10), float32] /* ty=Tensor[(10, 10), float32] span=from_string:10:108 */ = %0(%x0) /* ty=Tensor[(10, 10), float32] span=from_string:6:100 */;
  %1 = fn (%p01: Tensor[(10, 10), float32] /* ty=Tensor[(10, 10), float32] span=from_string:8:9 */, %p1: Tensor[(10, 10), float32] /* ty=Tensor[(10, 10), float32] span=from_string:8:15 */, Primitive=1) -> Tensor[(10, 10), float32] {
    add(%p01, %p1) /* ty=Tensor[(10, 10), float32] span=from_string:8:5 */
  } /* ty=fn (Tensor[(10, 10), float32], Tensor[(10, 10), float32]) -> Tensor[(10, 10), float32] span=from_string:10:100 */;
  let %x_1: Tensor[(10, 10), float32] /* ty=Tensor[(10, 10), float32] span=from_string:39:104 */ = %1(%x0, %x_0) /* ty=Tensor[(10, 10), float32] span=from_string:10:100 */;
  %2 = fn (%p02: Tensor[(65, 10), float32] /* ty=Tensor[(65, 10), float32] span=from_string:12:14 */, %p11: Tensor[(10, 10), float32] /* ty=Tensor[(10, 10), float32] span=from_string:12:20 */, Primitive=1) -> Tensor[(65, 10), float32] {
    nn.dense(%p02, %p11, units=None) /* ty=Tensor[(65, 10), float32] span=from_string:12:5 */
  } /* ty=fn (Tensor[(65, 10), float32], Tensor[(10, 10), float32]) -> Tensor[(65, 10), float32] span=from_string:14:100 */;
  let %x_2: Tensor[(65, 10), float32] /* ty=Tensor[(65, 10), float32] span=from_string:18:103 */ = %2(%x1, %x_1) /* ty=Tensor[(65, 10), float32] span=from_string:14:100 */;
  %3 = fn (%p03: Tensor[(65, 10), float32] /* ty=Tensor[(65, 10), float32] span=from_string:16:9 */, %p12: Tensor[(10), float32] /* ty=Tensor[(10), float32] span=from_string:16:15 */, Primitive=1) -> Tensor[(65, 10), float32] {
    add(%p03, %p12) /* ty=Tensor[(65, 10), float32] span=from_string:16:5 */
  } /* ty=fn (Tensor[(65, 10), float32], Tensor[(10), float32]) -> Tensor[(65, 10), float32] span=from_string:18:100 */;
  let %x_3: Tensor[(65, 10), float32] /* ty=Tensor[(65, 10), float32] span=from_string:27:160 */ = %3(%x_2, %x3) /* ty=Tensor[(65, 10), float32] span=from_string:18:100 */;
  %4 = fn (%p04: Tensor[(65, 10), float32] /* ty=Tensor[(65, 10), float32] span=from_string:20:14 */, %p13: Tensor[(10, 10), float32] /* ty=Tensor[(10, 10), float32] span=from_string:20:20 */, Primitive=1) -> Tensor[(65, 10), float32] {
    nn.dense(%p04, %p13, units=None) /* ty=Tensor[(65, 10), float32] span=from_string:20:5 */
  } /* ty=fn (Tensor[(65, 10), float32], Tensor[(10, 10), float32]) -> Tensor[(65, 10), float32] span=from_string:22:101 */;
  let %x_4: Tensor[(65, 10), float32] /* ty=Tensor[(65, 10), float32] span=from_string:139:106 */ = %4(%x1, %x2) /* ty=Tensor[(65, 10), float32] span=from_string:22:101 */;
  %5 = fn (%p05: Tensor[(65, 10), float32] /* ty=Tensor[(65, 10), float32] span=from_string:24:9 */, %p14: Tensor[(10), float32] /* ty=Tensor[(10), float32] span=from_string:24:15 */, Primitive=1) -> Tensor[(65, 10), float32] {
    add(%p05, %p14) /* ty=Tensor[(65, 10), float32] span=from_string:24:5 */
  } /* ty=fn (Tensor[(65, 10), float32], Tensor[(10), float32]) -> Tensor[(65, 10), float32] span=from_string:26:100 */;
  let %x_5: Tensor[(65, 10), float32] /* ty=Tensor[(65, 10), float32] span=from_string:27:166 */ = %5(%x_4, %x4) /* ty=Tensor[(65, 10), float32] span=from_string:26:100 */;
  let %x_6: (Tensor[(65, 10), float32], Tensor[(65, 10), float32]) /* ty=(Tensor[(65, 10), float32], Tensor[(65, 10), float32]) span=from_string:185:685 */ = (%x_3, %x_5) /* ty=(Tensor[(65, 10), float32], Tensor[(65, 10), float32]) span=from_string:27:159 */;
  %6 = fn (%p06: Tensor[(10, 10), float32] /* ty=Tensor[(10, 10), float32] span=from_string:29:13 */, Primitive=1) -> Tensor[(10, 10), float32] {
    nn.relu(%p06) /* ty=Tensor[(10, 10), float32] span=from_string:29:5 */
  } /* ty=fn (Tensor[(10, 10), float32]) -> Tensor[(10, 10), float32] span=from_string:31:100 */;
  let %x_7: Tensor[(10, 10), float32] /* ty=Tensor[(10, 10), float32] span=from_string:35:103 */ = %6(%x_1) /* ty=Tensor[(10, 10), float32] span=from_string:31:100 */;
  %7 = fn (%p07: Tensor[(10, 10), float32] /* ty=Tensor[(10, 10), float32] span=from_string:33:9 */, %p15: float32 /* ty=float32 span=from_string:33:15 */, Primitive=1) -> Tensor[(10, 10), float32] {
    add(%p07, %p15) /* ty=Tensor[(10, 10), float32] span=from_string:33:5 */
  } /* ty=fn (Tensor[(10, 10), float32], float32) -> Tensor[(10, 10), float32] span=from_string:35:100 */;
  let %x_9: Tensor[(10, 10), float32] /* ty=Tensor[(10, 10), float32] span=from_string:47:105 */ = %7(%x_7, 1f /* ty=float32 span=from_string:35:111 */) /* ty=Tensor[(10, 10), float32] span=from_string:35:100 */;
  %8 = fn (%p08: Tensor[(10, 10), float32] /* ty=Tensor[(10, 10), float32] span=from_string:37:13 */, Primitive=1) -> Tensor[(10, 10), float32] {
    nn.relu(%p08) /* ty=Tensor[(10, 10), float32] span=from_string:37:5 */
  } /* ty=fn (Tensor[(10, 10), float32]) -> Tensor[(10, 10), float32] span=from_string:39:101 */;
  let %x_10: Tensor[(10, 10), float32] /* ty=Tensor[(10, 10), float32] span=from_string:43:104 */ = %8(%x_1) /* ty=Tensor[(10, 10), float32] span=from_string:39:101 */;
  %9 = fn (%p09: Tensor[(10, 10), float32] /* ty=Tensor[(10, 10), float32] span=from_string:41:9 */, %p16: float32 /* ty=float32 span=from_string:41:15 */, Primitive=1) -> Tensor[(10, 10), float32] {
    add(%p09, %p16) /* ty=Tensor[(10, 10), float32] span=from_string:41:5 */
  } /* ty=fn (Tensor[(10, 10), float32], float32) -> Tensor[(10, 10), float32] span=from_string:43:101 */;
  let %x_12: Tensor[(10, 10), float32] /* ty=Tensor[(10, 10), float32] span=from_string:47:111 */ = %9(%x_10, 1f /* ty=float32 span=from_string:43:113 */) /* ty=Tensor[(10, 10), float32] span=from_string:43:101 */;
  %10 = fn (%p010: Tensor[(10, 10), float32] /* ty=Tensor[(10, 10), float32] span=from_string:45:9 */, %p17: Tensor[(10, 10), float32] /* ty=Tensor[(10, 10), float32] span=from_string:45:16 */, Primitive=1) -> Tensor[(10, 10), float32] {
    add(%p010, %p17) /* ty=Tensor[(10, 10), float32] span=from_string:45:5 */
  } /* ty=fn (Tensor[(10, 10), float32], Tensor[(10, 10), float32]) -> Tensor[(10, 10), float32] span=from_string:47:101 */;
  let %x_13: Tensor[(10, 10), float32] /* ty=Tensor[(10, 10), float32] span=from_string:67:105 */ = %10(%x_9, %x_12) /* ty=Tensor[(10, 10), float32] span=from_string:47:101 */;
  %11 = fn (%p011: Tensor[(10, 10), float32] /* ty=Tensor[(10, 10), float32] span=from_string:49:14 */, %p18: Tensor[(12, 10), float32] /* ty=Tensor[(12, 10), float32] span=from_string:49:21 */, Primitive=1) -> Tensor[(10, 12), float32] {
    nn.dense(%p011, %p18, units=None) /* ty=Tensor[(10, 12), float32] span=from_string:49:5 */
  } /* ty=fn (Tensor[(10, 10), float32], Tensor[(12, 10), float32]) -> Tensor[(10, 12), float32] span=from_string:51:101 */;
  let %x_14: Tensor[(10, 12), float32] /* ty=Tensor[(10, 12), float32] span=from_string:55:105 */ = %11(%x_13, %x5) /* ty=Tensor[(10, 12), float32] span=from_string:51:101 */;
  %12 = fn (%p012: Tensor[(10, 12), float32] /* ty=Tensor[(10, 12), float32] span=from_string:53:9 */, %p19: Tensor[(12), float32] /* ty=Tensor[(12), float32] span=from_string:53:16 */, Primitive=1) -> Tensor[(10, 12), float32] {
    add(%p012, %p19) /* ty=Tensor[(10, 12), float32] span=from_string:53:5 */
  } /* ty=fn (Tensor[(10, 12), float32], Tensor[(12), float32]) -> Tensor[(10, 12), float32] span=from_string:55:101 */;
  let %x_15: Tensor[(10, 12), float32] /* ty=Tensor[(10, 12), float32] span=from_string:59:105 */ = %12(%x_14, %x6) /* ty=Tensor[(10, 12), float32] span=from_string:55:101 */;
  %13 = fn (%p013: Tensor[(10, 12), float32] /* ty=Tensor[(10, 12), float32] span=from_string:57:15 */, %p110: Tensor[(1), float32] /* ty=Tensor[(1), float32] span=from_string:57:22 */, Primitive=1) -> Tensor[(10, 12), float32] {
    multiply(%p013, %p110) /* ty=Tensor[(10, 12), float32] span=from_string:57:6 */
  } /* ty=fn (Tensor[(10, 12), float32], Tensor[(1), float32]) -> Tensor[(10, 12), float32] span=from_string:59:101 */;
  let %x_16: Tensor[(10, 12), float32] /* ty=Tensor[(10, 12), float32] span=from_string:63:111 */ = %13(%x_15, %x7) /* ty=Tensor[(10, 12), float32] span=from_string:59:101 */;
  %14 = fn (%p014: Tensor[(10, 12), float32] /* ty=Tensor[(10, 12), float32] span=from_string:61:13 */, Primitive=1, relay.reshape_only=1) -> Tensor[(1, 1, 120), float32] {
    reshape(%p014, newshape=[1, 1, 120]) /* ty=Tensor[(1, 1, 120), float32] span=from_string:61:5 */
  } /* ty=fn (Tensor[(10, 12), float32]) -> Tensor[(1, 1, 120), float32] span=from_string:63:107 */;
  let %x_17: Tensor[(1, 1, 120), float32] /* ty=Tensor[(1, 1, 120), float32] span=from_string:80:173 */ = %14(%x_16) /* ty=Tensor[(1, 1, 120), float32] span=from_string:63:107 */;
  %15 = fn (%p015: Tensor[(10, 10), float32] /* ty=Tensor[(10, 10), float32] span=from_string:65:14 */, %p111: Tensor[(24, 10), float32] /* ty=Tensor[(24, 10), float32] span=from_string:65:21 */, Primitive=1) -> Tensor[(10, 24), float32] {
    nn.dense(%p015, %p111, units=None) /* ty=Tensor[(10, 24), float32] span=from_string:65:5 */
  } /* ty=fn (Tensor[(10, 10), float32], Tensor[(24, 10), float32]) -> Tensor[(10, 24), float32] span=from_string:67:101 */;
  let %x_18: Tensor[(10, 24), float32] /* ty=Tensor[(10, 24), float32] span=from_string:71:105 */ = %15(%x_13, %x8) /* ty=Tensor[(10, 24), float32] span=from_string:67:101 */;
  %16 = fn (%p016: Tensor[(10, 24), float32] /* ty=Tensor[(10, 24), float32] span=from_string:69:9 */, %p112: Tensor[(24), float32] /* ty=Tensor[(24), float32] span=from_string:69:16 */, Primitive=1) -> Tensor[(10, 24), float32] {
    add(%p016, %p112) /* ty=Tensor[(10, 24), float32] span=from_string:69:5 */
  } /* ty=fn (Tensor[(10, 24), float32], Tensor[(24), float32]) -> Tensor[(10, 24), float32] span=from_string:71:101 */;
  let %x_19: Tensor[(10, 24), float32] /* ty=Tensor[(10, 24), float32] span=from_string:75:106 */ = %16(%x_18, %x9) /* ty=Tensor[(10, 24), float32] span=from_string:71:101 */;
  %17 = fn (%p017: Tensor[(10, 24), float32] /* ty=Tensor[(10, 24), float32] span=from_string:73:15 */, %p113: Tensor[(1), float32] /* ty=Tensor[(1), float32] span=from_string:73:22 */, Primitive=1) -> Tensor[(10, 24), float32] {
    multiply(%p017, %p113) /* ty=Tensor[(10, 24), float32] span=from_string:73:6 */
  } /* ty=fn (Tensor[(10, 24), float32], Tensor[(1), float32]) -> Tensor[(10, 24), float32] span=from_string:75:102 */;
  let %x_20: Tensor[(10, 24), float32] /* ty=Tensor[(10, 24), float32] span=from_string:112:113 */ = %17(%x_19, %x10) /* ty=Tensor[(10, 24), float32] span=from_string:75:102 */;
  %18 = fn (%p018: Tensor[(10, 24), float32] /* ty=Tensor[(10, 24), float32] span=from_string:77:13 */, Primitive=1, relay.reshape_only=1) -> Tensor[(1, 1, 240), float32] {
    reshape(%p018, newshape=[1, 1, 240]) /* ty=Tensor[(1, 1, 240), float32] span=from_string:77:5 */
  } /* ty=fn (Tensor[(10, 24), float32]) -> Tensor[(1, 1, 240), float32] span=from_string:79:107 */;
  let %x_21: Tensor[(1, 1, 240), float32] /* ty=Tensor[(1, 1, 240), float32] span=from_string:80:180 */ = %18(%x_20) /* ty=Tensor[(1, 1, 240), float32] span=from_string:79:107 */;
  let %x_22: (Tensor[(1, 1, 120), float32], Tensor[(1, 1, 240), float32]) /* ty=(Tensor[(1, 1, 120), float32], Tensor[(1, 1, 240), float32]) span=from_string:185:691 */ = (%x_17, %x_21) /* ty=(Tensor[(1, 1, 120), float32], Tensor[(1, 1, 240), float32]) span=from_string:80:172 */;
  %19 = fn (%p019: Tensor[(10, 24), float32] /* ty=Tensor[(10, 24), float32] span=from_string:82:22 */, Primitive=1) -> Tensor[(10, 24), float32] {
    multiply(%p019, %p019) /* ty=Tensor[(10, 24), float32] span=from_string:82:6 */
  } /* ty=fn (Tensor[(10, 24), float32]) -> Tensor[(10, 24), float32] span=from_string:84:102 */;
  let %x_23: Tensor[(10, 24), float32] /* ty=Tensor[(10, 24), float32] span=from_string:118:167 */ = %19(%x_20) /* ty=Tensor[(10, 24), float32] span=from_string:84:102 */;
  %20 = fn (%p020: Tensor[(10, 24), float32] /* ty=Tensor[(10, 24), float32] span=from_string:86:16 */, Primitive=1) -> Tensor[(10, 24), float32] {
    zeros(shape=[10, 24], dtype="float32") /* ty=Tensor[(10, 24), float32] */
  } /* ty=fn (Tensor[(10, 24), float32]) -> Tensor[(10, 24), float32] span=from_string:88:102 */;
  let %x_24: Tensor[(10, 24), float32] /* ty=Tensor[(10, 24), float32] span=from_string:104:106 */ = %20(%x_20) /* ty=Tensor[(10, 24), float32] span=from_string:88:102 */;
  %21 = fn (%p021: Tensor[(10, 24), float32] /* ty=Tensor[(10, 24), float32] span=from_string:90:15 */, Primitive=1) -> Tensor[(10, 24), float32] {
    ones(shape=[10, 24], dtype="float32") /* ty=Tensor[(10, 24), float32] */
  } /* ty=fn (Tensor[(10, 24), float32]) -> Tensor[(10, 24), float32] span=from_string:92:102 */;
  let %x_25: Tensor[(10, 24), float32] /* ty=Tensor[(10, 24), float32] span=from_string:108:106 */ = %21(%x_23) /* ty=Tensor[(10, 24), float32] span=from_string:92:102 */;
  %22 = fn (%p022: Tensor[(10, 24), float32] /* ty=Tensor[(10, 24), float32] span=from_string:94:15 */, %p114: Tensor[(10, 24), float32] /* ty=Tensor[(10, 24), float32] span=from_string:94:22 */, Primitive=1) -> Tensor[(10, 24), float32] {
    multiply(%p022, %p114) /* ty=Tensor[(10, 24), float32] span=from_string:94:6 */
  } /* ty=fn (Tensor[(10, 24), float32], Tensor[(10, 24), float32]) -> Tensor[(10, 24), float32] span=from_string:96:102 */;
  let %x_26: Tensor[(10, 24), float32] /* ty=Tensor[(10, 24), float32] span=from_string:155:112 */ = %22(%x_25, %x_20) /* ty=Tensor[(10, 24), float32] span=from_string:96:102 */;
  %23 = fn (%p023: Tensor[(10, 24), float32] /* ty=Tensor[(10, 24), float32] span=from_string:98:23 */, %p115: Tensor[(10, 24), float32] /* ty=Tensor[(10, 24), float32] span=from_string:98:30 */, Primitive=1) -> Tensor[(10, 24), float32] {
    collapse_sum_to(%p023, meta[relay.Constant][0] /* ty=Tensor[(2), int32] */, meta[relay.attrs.InitOpAttrs][0]) /* ty=Tensor[(10, 24), float32] */
  } /* ty=fn (Tensor[(10, 24), float32], Tensor[(10, 24), float32]) -> Tensor[(10, 24), float32] span=from_string:100:102 */;
  let %x_27: Tensor[(10, 24), float32] /* ty=Tensor[(10, 24), float32] span=from_string:104:113 */ = %23(%x_26, %x_20) /* ty=Tensor[(10, 24), float32] span=from_string:100:102 */;
  %24 = fn (%p024: Tensor[(10, 24), float32] /* ty=Tensor[(10, 24), float32] span=from_string:102:9 */, %p116: Tensor[(10, 24), float32] /* ty=Tensor[(10, 24), float32] span=from_string:102:16 */, Primitive=1) -> Tensor[(10, 24), float32] {
    add(%p024, %p116) /* ty=Tensor[(10, 24), float32] span=from_string:102:5 */
  } /* ty=fn (Tensor[(10, 24), float32], Tensor[(10, 24), float32]) -> Tensor[(10, 24), float32] span=from_string:104:102 */;
  let %x_28: Tensor[(10, 24), float32] /* ty=Tensor[(10, 24), float32] span=from_string:116:106 */ = %24(%x_24, %x_27) /* ty=Tensor[(10, 24), float32] span=from_string:104:102 */;
  %25 = fn (%p025: Tensor[(10, 24), float32] /* ty=Tensor[(10, 24), float32] span=from_string:106:15 */, %p117: Tensor[(10, 24), float32] /* ty=Tensor[(10, 24), float32] span=from_string:106:22 */, Primitive=1) -> Tensor[(10, 24), float32] {
    multiply(%p025, %p117) /* ty=Tensor[(10, 24), float32] span=from_string:106:6 */
  } /* ty=fn (Tensor[(10, 24), float32], Tensor[(10, 24), float32]) -> Tensor[(10, 24), float32] span=from_string:108:102 */;
  let %x_29: Tensor[(10, 24), float32] /* ty=Tensor[(10, 24), float32] span=from_string:112:106 */ = %25(%x_25, %x_20) /* ty=Tensor[(10, 24), float32] span=from_string:108:102 */;
  %26 = fn (%p026: Tensor[(10, 24), float32] /* ty=Tensor[(10, 24), float32] span=from_string:110:23 */, %p118: Tensor[(10, 24), float32] /* ty=Tensor[(10, 24), float32] span=from_string:110:30 */, Primitive=1) -> Tensor[(10, 24), float32] {
    collapse_sum_to(%p026, meta[relay.Constant][1] /* ty=Tensor[(2), int32] */, meta[relay.attrs.InitOpAttrs][1]) /* ty=Tensor[(10, 24), float32] */
  } /* ty=fn (Tensor[(10, 24), float32], Tensor[(10, 24), float32]) -> Tensor[(10, 24), float32] span=from_string:112:102 */;
  let %x_30: Tensor[(10, 24), float32] /* ty=Tensor[(10, 24), float32] span=from_string:116:113 */ = %26(%x_29, %x_20) /* ty=Tensor[(10, 24), float32] span=from_string:112:102 */;
  %27 = fn (%p027: Tensor[(10, 24), float32] /* ty=Tensor[(10, 24), float32] span=from_string:114:9 */, %p119: Tensor[(10, 24), float32] /* ty=Tensor[(10, 24), float32] span=from_string:114:16 */, Primitive=1) -> Tensor[(10, 24), float32] {
    add(%p027, %p119) /* ty=Tensor[(10, 24), float32] span=from_string:114:5 */
  } /* ty=fn (Tensor[(10, 24), float32], Tensor[(10, 24), float32]) -> Tensor[(10, 24), float32] span=from_string:116:102 */;
  let %x_31: Tensor[(10, 24), float32] /* ty=Tensor[(10, 24), float32] span=from_string:117:109 */ = %27(%x_28, %x_30) /* ty=Tensor[(10, 24), float32] span=from_string:116:102 */;
  let %x_32: (Tensor[(10, 24), float32],) /* ty=(Tensor[(10, 24), float32],) span=from_string:118:174 */ = (%x_31,) /* ty=(Tensor[(10, 24), float32],) span=from_string:117:108 */;
  let %x_33: (Tensor[(10, 24), float32], (Tensor[(10, 24), float32],)) /* ty=(Tensor[(10, 24), float32], (Tensor[(10, 24), float32],)) span=from_string:185:698 */ = (%x_23, %x_32) /* ty=(Tensor[(10, 24), float32], (Tensor[(10, 24), float32],)) span=from_string:118:166 */;
  %28 = fn (Primitive=1) -> Tensor[(1), float32] {
    ones(shape=[1], dtype="float32") /* ty=Tensor[(1), float32] span=from_string:120:5 */
  } /* ty=fn () -> Tensor[(1), float32] span=from_string:122:92 */;
  let %x_34: Tensor[(1), float32] /* ty=Tensor[(1), float32] span=from_string:126:102 */ = %28() /* ty=Tensor[(1), float32] span=from_string:122:92 */;
  %29 = fn (%p028: Tensor[(1), float32] /* ty=Tensor[(1), float32] span=from_string:124:9 */, %p120: Tensor[(1), float32] /* ty=Tensor[(1), float32] span=from_string:124:16 */, Primitive=1) -> Tensor[(1), float32] {
    add(%p028, %p120) /* ty=Tensor[(1), float32] span=from_string:124:5 */
  } /* ty=fn (Tensor[(1), float32], Tensor[(1), float32]) -> Tensor[(1), float32] span=from_string:126:92 */;
  let %x_35: Tensor[(1), float32] /* ty=Tensor[(1), float32] span=from_string:185:705 */ = %29(%x10, %x_34) /* ty=Tensor[(1), float32] span=from_string:126:92 */;
  %30 = fn (%p029: Tensor[(14, 30), float32] /* ty=Tensor[(14, 30), float32] span=from_string:128:11 */, Primitive=1) -> (Tensor[(14, 10), float32], Tensor[(14, 10), float32], Tensor[(14, 10), float32]) {
    split(%p029, indices_or_sections=3, axis=1) /* ty=(Tensor[(14, 10), float32], Tensor[(14, 10), float32], Tensor[(14, 10), float32]) span=from_string:128:5 */
  } /* ty=fn (Tensor[(14, 30), float32]) -> (Tensor[(14, 10), float32], Tensor[(14, 10), float32], Tensor[(14, 10), float32]) span=from_string:130:214 */;
  let %x_36: (Tensor[(14, 10), float32], Tensor[(14, 10), float32], Tensor[(14, 10), float32]) /* ty=(Tensor[(14, 10), float32], Tensor[(14, 10), float32], Tensor[(14, 10), float32]) span=from_string:131:102 */ = %30(%x11) /* ty=(Tensor[(14, 10), float32], Tensor[(14, 10), float32], Tensor[(14, 10), float32]) span=from_string:130:214 */;
  let %x_37: Tensor[(14, 10), float32] /* ty=Tensor[(14, 10), float32] span=from_string:143:106 */ = %x_36.0 /* ty=Tensor[(14, 10), float32] span=from_string:131:102 */;
  %31 = fn (%p030: Tensor[(65, 10), float32] /* ty=Tensor[(65, 10), float32] span=from_string:133:15 */, Primitive=1) -> Tensor[(65, 10), float32] {
    ones(shape=[65, 10], dtype="float32") /* ty=Tensor[(65, 10), float32] */
  } /* ty=fn (Tensor[(65, 10), float32]) -> Tensor[(65, 10), float32] span=from_string:135:102 */;
  let %x_38: Tensor[(65, 10), float32] /* ty=Tensor[(65, 10), float32] span=from_string:139:112 */ = %31(%x_4) /* ty=Tensor[(65, 10), float32] span=from_string:135:102 */;
  %32 = fn (%p031: Tensor[(65, 10), float32] /* ty=Tensor[(65, 10), float32] span=from_string:137:9 */, %p121: Tensor[(65, 10), float32] /* ty=Tensor[(65, 10), float32] span=from_string:137:16 */, Primitive=1) -> Tensor[(65, 10), float32] {
    add(%p031, %p121) /* ty=Tensor[(65, 10), float32] span=from_string:137:5 */
  } /* ty=fn (Tensor[(65, 10), float32], Tensor[(65, 10), float32]) -> Tensor[(65, 10), float32] span=from_string:139:102 */;
  let %x_39: Tensor[(65, 10), float32] /* ty=Tensor[(65, 10), float32] span=from_string:147:108 */ = %32(%x_4, %x_38) /* ty=Tensor[(65, 10), float32] span=from_string:139:102 */;
  %33 = fn (%p032: Tensor[(14, 10), float32] /* ty=Tensor[(14, 10), float32] span=from_string:141:14 */, %p122: Tensor[(65, 10), float32] /* ty=Tensor[(65, 10), float32] span=from_string:141:21 */, Primitive=1) -> Tensor[(14, 65), float32] {
    nn.dense(%p032, %p122, units=None) /* ty=Tensor[(14, 65), float32] span=from_string:141:5 */
  } /* ty=fn (Tensor[(14, 10), float32], Tensor[(65, 10), float32]) -> Tensor[(14, 65), float32] span=from_string:143:102 */;
  let %x_40: Tensor[(14, 65), float32] /* ty=Tensor[(14, 65), float32] span=from_string:185:712 */ = %33(%x_37, %x_39) /* ty=Tensor[(14, 65), float32] span=from_string:143:102 */;
  %34 = fn (%p033: Tensor[(65, 10), float32] /* ty=Tensor[(65, 10), float32] span=from_string:145:10 */, Primitive=1) -> Tensor[(65, 10), bfloat16] {
    cast(%p033, dtype="bfloat16") /* ty=Tensor[(65, 10), bfloat16] span=from_string:145:5 */
  } /* ty=fn (Tensor[(65, 10), float32]) -> Tensor[(65, 10), bfloat16] span=from_string:147:104 */;
  let %x_41: Tensor[(65, 10), bfloat16] /* ty=Tensor[(65, 10), bfloat16] span=from_string:151:108 */ = %34(%x_39) /* ty=Tensor[(65, 10), bfloat16] span=from_string:147:104 */;
  %35 = fn (%p034: Tensor[(65, 10), bfloat16] /* ty=Tensor[(65, 10), bfloat16] span=from_string:149:10 */, Primitive=1) -> Tensor[(65, 10), bfloat16] {
    clip(%p034, a_min=-0.2f, a_max=0.4f) /* ty=Tensor[(65, 10), bfloat16] span=from_string:149:5 */
  } /* ty=fn (Tensor[(65, 10), bfloat16]) -> Tensor[(65, 10), bfloat16] span=from_string:151:104 */;
  let %x_42: Tensor[(65, 10), bfloat16] /* ty=Tensor[(65, 10), bfloat16] span=from_string:185:719 */ = %35(%x_41) /* ty=Tensor[(65, 10), bfloat16] span=from_string:151:104 */;
  %36 = fn (%p035: Tensor[(42, 24), float32] /* ty=Tensor[(42, 24), float32] span=from_string:153:14 */, %p123: Tensor[(10, 24), float32] /* ty=Tensor[(10, 24), float32] span=from_string:153:21 */, Primitive=1) -> Tensor[(42, 10), float32] {
    nn.dense(%p035, %p123, units=None) /* ty=Tensor[(42, 10), float32] span=from_string:153:5 */
  } /* ty=fn (Tensor[(42, 24), float32], Tensor[(10, 24), float32]) -> Tensor[(42, 10), float32] span=from_string:155:102 */;
  let %x_43: Tensor[(42, 10), float32] /* ty=Tensor[(42, 10), float32] span=from_string:159:106 */ = %36(%x12, %x_26) /* ty=Tensor[(42, 10), float32] span=from_string:155:102 */;
  %37 = fn (%p036: Tensor[(42, 10), float32] /* ty=Tensor[(42, 10), float32] span=from_string:157:9 */, %p124: Tensor[(10), float32] /* ty=Tensor[(10), float32] span=from_string:157:16 */, Primitive=1) -> Tensor[(42, 10), float32] {
    add(%p036, %p124) /* ty=Tensor[(42, 10), float32] span=from_string:157:5 */
  } /* ty=fn (Tensor[(42, 10), float32], Tensor[(10), float32]) -> Tensor[(42, 10), float32] span=from_string:159:102 */;
  let %x_44: Tensor[(42, 10), float32] /* ty=Tensor[(42, 10), float32] span=from_string:163:106 */ = %37(%x_43, %x14) /* ty=Tensor[(42, 10), float32] span=from_string:159:102 */;
  %38 = fn (%p037: Tensor[(42, 10), float32] /* ty=Tensor[(42, 10), float32] span=from_string:161:15 */, %p125: Tensor[(1), float32] /* ty=Tensor[(1), float32] span=from_string:161:22 */, Primitive=1) -> Tensor[(42, 10), float32] {
    multiply(%p037, %p125) /* ty=Tensor[(42, 10), float32] span=from_string:161:6 */
  } /* ty=fn (Tensor[(42, 10), float32], Tensor[(1), float32]) -> Tensor[(42, 10), float32] span=from_string:163:102 */;
  let %x_45: Tensor[(42, 10), float32] /* ty=Tensor[(42, 10), float32] span=from_string:167:112 */ = %38(%x_44, %x16) /* ty=Tensor[(42, 10), float32] span=from_string:163:102 */;
  %39 = fn (%p038: Tensor[(42, 10), float32] /* ty=Tensor[(42, 10), float32] span=from_string:165:13 */, Primitive=1, relay.reshape_only=1) -> Tensor[(1, 1, 420), float32] {
    reshape(%p038, newshape=[1, 1, -1]) /* ty=Tensor[(1, 1, 420), float32] span=from_string:165:5 */
  } /* ty=fn (Tensor[(42, 10), float32]) -> Tensor[(1, 1, 420), float32] span=from_string:167:108 */;
  let %x_46: Tensor[(1, 1, 420), float32] /* ty=Tensor[(1, 1, 420), float32] span=from_string:184:173 */ = %39(%x_45) /* ty=Tensor[(1, 1, 420), float32] span=from_string:167:108 */;
  %40 = fn (%p039: Tensor[(42, 24), float32] /* ty=Tensor[(42, 24), float32] span=from_string:169:14 */, %p126: Tensor[(10, 24), float32] /* ty=Tensor[(10, 24), float32] span=from_string:169:21 */, Primitive=1) -> Tensor[(42, 10), float32] {
    nn.dense(%p039, %p126, units=None) /* ty=Tensor[(42, 10), float32] span=from_string:169:5 */
  } /* ty=fn (Tensor[(42, 24), float32], Tensor[(10, 24), float32]) -> Tensor[(42, 10), float32] span=from_string:171:102 */;
  let %x_47: Tensor[(42, 10), float32] /* ty=Tensor[(42, 10), float32] span=from_string:175:106 */ = %40(%x12, %x13) /* ty=Tensor[(42, 10), float32] span=from_string:171:102 */;
  %41 = fn (%p040: Tensor[(42, 10), float32] /* ty=Tensor[(42, 10), float32] span=from_string:173:9 */, %p127: Tensor[(10), float32] /* ty=Tensor[(10), float32] span=from_string:173:16 */, Primitive=1) -> Tensor[(42, 10), float32] {
    add(%p040, %p127) /* ty=Tensor[(42, 10), float32] span=from_string:173:5 */
  } /* ty=fn (Tensor[(42, 10), float32], Tensor[(10), float32]) -> Tensor[(42, 10), float32] span=from_string:175:102 */;
  let %x_48: Tensor[(42, 10), float32] /* ty=Tensor[(42, 10), float32] span=from_string:179:106 */ = %41(%x_47, %x15) /* ty=Tensor[(42, 10), float32] span=from_string:175:102 */;
  %42 = fn (%p041: Tensor[(42, 10), float32] /* ty=Tensor[(42, 10), float32] span=from_string:177:15 */, %p128: Tensor[(1), float32] /* ty=Tensor[(1), float32] span=from_string:177:22 */, Primitive=1) -> Tensor[(42, 10), float32] {
    multiply(%p041, %p128) /* ty=Tensor[(42, 10), float32] span=from_string:177:6 */
  } /* ty=fn (Tensor[(42, 10), float32], Tensor[(1), float32]) -> Tensor[(42, 10), float32] span=from_string:179:102 */;
  let %x_49: Tensor[(42, 10), float32] /* ty=Tensor[(42, 10), float32] span=from_string:183:112 */ = %42(%x_48, %x17) /* ty=Tensor[(42, 10), float32] span=from_string:179:102 */;
  %43 = fn (%p042: Tensor[(42, 10), float32] /* ty=Tensor[(42, 10), float32] span=from_string:181:13 */, Primitive=1, relay.reshape_only=1) -> Tensor[(1, 1, 420), float32] {
    reshape(%p042, newshape=[1, 1, -1]) /* ty=Tensor[(1, 1, 420), float32] span=from_string:181:5 */
  } /* ty=fn (Tensor[(42, 10), float32]) -> Tensor[(1, 1, 420), float32] span=from_string:183:108 */;
  let %x_50: Tensor[(1, 1, 420), float32] /* ty=Tensor[(1, 1, 420), float32] span=from_string:184:180 */ = %43(%x_49) /* ty=Tensor[(1, 1, 420), float32] span=from_string:183:108 */;
  let %x_51: (Tensor[(1, 1, 420), float32], Tensor[(1, 1, 420), float32]) /* ty=(Tensor[(1, 1, 420), float32], Tensor[(1, 1, 420), float32]) span=from_string:185:726 */ = (%x_46, %x_50) /* ty=(Tensor[(1, 1, 420), float32], Tensor[(1, 1, 420), float32]) span=from_string:184:172 */;
  let %x_52: ((Tensor[(65, 10), float32], Tensor[(65, 10), float32]), (Tensor[(1, 1, 120), float32], Tensor[(1, 1, 240), float32]), (Tensor[(10, 24), float32], (Tensor[(10, 24), float32],)), Tensor[(1), float32], Tensor[(14, 65), float32], Tensor[(65, 10), bfloat16], (Tensor[(1, 1, 420), float32], Tensor[(1, 1, 420), float32])) /* ty=((Tensor[(65, 10), float32], Tensor[(65, 10), float32]), (Tensor[(1, 1, 120), float32], Tensor[(1, 1, 240), float32]), (Tensor[(10, 24), float32], (Tensor[(10, 24), float32],)), Tensor[(1), float32], Tensor[(14, 65), float32], Tensor[(65, 10), bfloat16], (Tensor[(1, 1, 420), float32], Tensor[(1, 1, 420), float32])) span=from_string:186:684 */ = (%x_6, %x_22, %x_33, %x_35, %x_40, %x_42, %x_51) /* ty=((Tensor[(65, 10), float32], Tensor[(65, 10), float32]), (Tensor[(1, 1, 120), float32], Tensor[(1, 1, 240), float32]), (Tensor[(10, 24), float32], (Tensor[(10, 24), float32],)), Tensor[(1), float32], Tensor[(14, 65), float32], Tensor[(65, 10), bfloat16], (Tensor[(1, 1, 420), float32], Tensor[(1, 1, 420), float32])) span=from_string:185:684 */;
  let %x_01: ((Tensor[(65, 10), float32], Tensor[(65, 10), float32]), (Tensor[(1, 1, 120), float32], Tensor[(1, 1, 240), float32]), (Tensor[(10, 24), float32], (Tensor[(10, 24), float32],)), Tensor[(1), float32], Tensor[(14, 65), float32], Tensor[(65, 10), bfloat16], (Tensor[(1, 1, 420), float32], Tensor[(1, 1, 420), float32])) /* ty=((Tensor[(65, 10), float32], Tensor[(65, 10), float32]), (Tensor[(1, 1, 120), float32], Tensor[(1, 1, 240), float32]), (Tensor[(10, 24), float32], (Tensor[(10, 24), float32],)), Tensor[(1), float32], Tensor[(14, 65), float32], Tensor[(65, 10), bfloat16], (Tensor[(1, 1, 420), float32], Tensor[(1, 1, 420), float32])) span=from_string:187:685 */ = %x_52;
  let %x_110: ((Tensor[(65, 10), float32], Tensor[(65, 10), float32]), (Tensor[(1, 1, 120), float32], Tensor[(1, 1, 240), float32]), (Tensor[(10, 24), float32], (Tensor[(10, 24), float32],)), Tensor[(1), float32], Tensor[(14, 65), float32], Tensor[(65, 10), bfloat16], (Tensor[(1, 1, 420), float32], Tensor[(1, 1, 420), float32])) /* ty=((Tensor[(65, 10), float32], Tensor[(65, 10), float32]), (Tensor[(1, 1, 120), float32], Tensor[(1, 1, 240), float32]), (Tensor[(10, 24), float32], (Tensor[(10, 24), float32],)), Tensor[(1), float32], Tensor[(14, 65), float32], Tensor[(65, 10), bfloat16], (Tensor[(1, 1, 420), float32], Tensor[(1, 1, 420), float32])) span=from_string:188:685 */ = %x_01;
  let %x_210: ((Tensor[(65, 10), float32], Tensor[(65, 10), float32]), (Tensor[(1, 1, 120), float32], Tensor[(1, 1, 240), float32]), (Tensor[(10, 24), float32], (Tensor[(10, 24), float32],)), Tensor[(1), float32], Tensor[(14, 65), float32], Tensor[(65, 10), bfloat16], (Tensor[(1, 1, 420), float32], Tensor[(1, 1, 420), float32])) /* ty=((Tensor[(65, 10), float32], Tensor[(65, 10), float32]), (Tensor[(1, 1, 120), float32], Tensor[(1, 1, 240), float32]), (Tensor[(10, 24), float32], (Tensor[(10, 24), float32],)), Tensor[(1), float32], Tensor[(14, 65), float32], Tensor[(65, 10), bfloat16], (Tensor[(1, 1, 420), float32], Tensor[(1, 1, 420), float32])) span=from_string:189:685 */ = %x_110;
  let %x_310: ((Tensor[(65, 10), float32], Tensor[(65, 10), float32]), (Tensor[(1, 1, 120), float32], Tensor[(1, 1, 240), float32]), (Tensor[(10, 24), float32], (Tensor[(10, 24), float32],)), Tensor[(1), float32], Tensor[(14, 65), float32], Tensor[(65, 10), bfloat16], (Tensor[(1, 1, 420), float32], Tensor[(1, 1, 420), float32])) /* ty=((Tensor[(65, 10), float32], Tensor[(65, 10), float32]), (Tensor[(1, 1, 120), float32], Tensor[(1, 1, 240), float32]), (Tensor[(10, 24), float32], (Tensor[(10, 24), float32],)), Tensor[(1), float32], Tensor[(14, 65), float32], Tensor[(65, 10), bfloat16], (Tensor[(1, 1, 420), float32], Tensor[(1, 1, 420), float32])) span=from_string:190:685 */ = %x_210;
  let %x_410: ((Tensor[(65, 10), float32], Tensor[(65, 10), float32]), (Tensor[(1, 1, 120), float32], Tensor[(1, 1, 240), float32]), (Tensor[(10, 24), float32], (Tensor[(10, 24), float32],)), Tensor[(1), float32], Tensor[(14, 65), float32], Tensor[(65, 10), bfloat16], (Tensor[(1, 1, 420), float32], Tensor[(1, 1, 420), float32])) /* ty=((Tensor[(65, 10), float32], Tensor[(65, 10), float32]), (Tensor[(1, 1, 120), float32], Tensor[(1, 1, 240), float32]), (Tensor[(10, 24), float32], (Tensor[(10, 24), float32],)), Tensor[(1), float32], Tensor[(14, 65), float32], Tensor[(65, 10), bfloat16], (Tensor[(1, 1, 420), float32], Tensor[(1, 1, 420), float32])) span=from_string:191:684 */ = %x_310;
  let %x_53: ((Tensor[(65, 10), float32], Tensor[(65, 10), float32]), (Tensor[(1, 1, 120), float32], Tensor[(1, 1, 240), float32]), (Tensor[(10, 24), float32], (Tensor[(10, 24), float32],)), Tensor[(1), float32], Tensor[(14, 65), float32], Tensor[(65, 10), bfloat16], (Tensor[(1, 1, 420), float32], Tensor[(1, 1, 420), float32])) /* ty=((Tensor[(65, 10), float32], Tensor[(65, 10), float32]), (Tensor[(1, 1, 120), float32], Tensor[(1, 1, 240), float32]), (Tensor[(10, 24), float32], (Tensor[(10, 24), float32],)), Tensor[(1), float32], Tensor[(14, 65), float32], Tensor[(65, 10), bfloat16], (Tensor[(1, 1, 420), float32], Tensor[(1, 1, 420), float32])) span=from_string:192:684 */ = %x_410;
  let %x_61: ((Tensor[(65, 10), float32], Tensor[(65, 10), float32]), (Tensor[(1, 1, 120), float32], Tensor[(1, 1, 240), float32]), (Tensor[(10, 24), float32], (Tensor[(10, 24), float32],)), Tensor[(1), float32], Tensor[(14, 65), float32], Tensor[(65, 10), bfloat16], (Tensor[(1, 1, 420), float32], Tensor[(1, 1, 420), float32])) /* ty=((Tensor[(65, 10), float32], Tensor[(65, 10), float32]), (Tensor[(1, 1, 120), float32], Tensor[(1, 1, 240), float32]), (Tensor[(10, 24), float32], (Tensor[(10, 24), float32],)), Tensor[(1), float32], Tensor[(14, 65), float32], Tensor[(65, 10), bfloat16], (Tensor[(1, 1, 420), float32], Tensor[(1, 1, 420), float32])) span=from_string:193:684 */ = %x_53;
  let %x_71: ((Tensor[(65, 10), float32], Tensor[(65, 10), float32]), (Tensor[(1, 1, 120), float32], Tensor[(1, 1, 240), float32]), (Tensor[(10, 24), float32], (Tensor[(10, 24), float32],)), Tensor[(1), float32], Tensor[(14, 65), float32], Tensor[(65, 10), bfloat16], (Tensor[(1, 1, 420), float32], Tensor[(1, 1, 420), float32])) /* ty=((Tensor[(65, 10), float32], Tensor[(65, 10), float32]), (Tensor[(1, 1, 120), float32], Tensor[(1, 1, 240), float32]), (Tensor[(10, 24), float32], (Tensor[(10, 24), float32],)), Tensor[(1), float32], Tensor[(14, 65), float32], Tensor[(65, 10), bfloat16], (Tensor[(1, 1, 420), float32], Tensor[(1, 1, 420), float32])) span=from_string:194:684 */ = %x_61;
  let %x_81: ((Tensor[(65, 10), float32], Tensor[(65, 10), float32]), (Tensor[(1, 1, 120), float32], Tensor[(1, 1, 240), float32]), (Tensor[(10, 24), float32], (Tensor[(10, 24), float32],)), Tensor[(1), float32], Tensor[(14, 65), float32], Tensor[(65, 10), bfloat16], (Tensor[(1, 1, 420), float32], Tensor[(1, 1, 420), float32])) /* ty=((Tensor[(65, 10), float32], Tensor[(65, 10), float32]), (Tensor[(1, 1, 120), float32], Tensor[(1, 1, 240), float32]), (Tensor[(10, 24), float32], (Tensor[(10, 24), float32],)), Tensor[(1), float32], Tensor[(14, 65), float32], Tensor[(65, 10), bfloat16], (Tensor[(1, 1, 420), float32], Tensor[(1, 1, 420), float32])) span=from_string:195:684 */ = %x_71;
  let %x_91: ((Tensor[(65, 10), float32], Tensor[(65, 10), float32]), (Tensor[(1, 1, 120), float32], Tensor[(1, 1, 240), float32]), (Tensor[(10, 24), float32], (Tensor[(10, 24), float32],)), Tensor[(1), float32], Tensor[(14, 65), float32], Tensor[(65, 10), bfloat16], (Tensor[(1, 1, 420), float32], Tensor[(1, 1, 420), float32])) /* ty=((Tensor[(65, 10), float32], Tensor[(65, 10), float32]), (Tensor[(1, 1, 120), float32], Tensor[(1, 1, 240), float32]), (Tensor[(10, 24), float32], (Tensor[(10, 24), float32],)), Tensor[(1), float32], Tensor[(14, 65), float32], Tensor[(65, 10), bfloat16], (Tensor[(1, 1, 420), float32], Tensor[(1, 1, 420), float32])) span=from_string:196:685 */ = %x_81;
  let %x_101: ((Tensor[(65, 10), float32], Tensor[(65, 10), float32]), (Tensor[(1, 1, 120), float32], Tensor[(1, 1, 240), float32]), (Tensor[(10, 24), float32], (Tensor[(10, 24), float32],)), Tensor[(1), float32], Tensor[(14, 65), float32], Tensor[(65, 10), bfloat16], (Tensor[(1, 1, 420), float32], Tensor[(1, 1, 420), float32])) /* ty=((Tensor[(65, 10), float32], Tensor[(65, 10), float32]), (Tensor[(1, 1, 120), float32], Tensor[(1, 1, 240), float32]), (Tensor[(10, 24), float32], (Tensor[(10, 24), float32],)), Tensor[(1), float32], Tensor[(14, 65), float32], Tensor[(65, 10), bfloat16], (Tensor[(1, 1, 420), float32], Tensor[(1, 1, 420), float32])) span=from_string:197:685 */ = %x_91;
  let %x_111: ((Tensor[(65, 10), float32], Tensor[(65, 10), float32]), (Tensor[(1, 1, 120), float32], Tensor[(1, 1, 240), float32]), (Tensor[(10, 24), float32], (Tensor[(10, 24), float32],)), Tensor[(1), float32], Tensor[(14, 65), float32], Tensor[(65, 10), bfloat16], (Tensor[(1, 1, 420), float32], Tensor[(1, 1, 420), float32])) /* ty=((Tensor[(65, 10), float32], Tensor[(65, 10), float32]), (Tensor[(1, 1, 120), float32], Tensor[(1, 1, 240), float32]), (Tensor[(10, 24), float32], (Tensor[(10, 24), float32],)), Tensor[(1), float32], Tensor[(14, 65), float32], Tensor[(65, 10), bfloat16], (Tensor[(1, 1, 420), float32], Tensor[(1, 1, 420), float32])) span=from_string:198:685 */ = %x_101;
  let %x_121: ((Tensor[(65, 10), float32], Tensor[(65, 10), float32]), (Tensor[(1, 1, 120), float32], Tensor[(1, 1, 240), float32]), (Tensor[(10, 24), float32], (Tensor[(10, 24), float32],)), Tensor[(1), float32], Tensor[(14, 65), float32], Tensor[(65, 10), bfloat16], (Tensor[(1, 1, 420), float32], Tensor[(1, 1, 420), float32])) /* ty=((Tensor[(65, 10), float32], Tensor[(65, 10), float32]), (Tensor[(1, 1, 120), float32], Tensor[(1, 1, 240), float32]), (Tensor[(10, 24), float32], (Tensor[(10, 24), float32],)), Tensor[(1), float32], Tensor[(14, 65), float32], Tensor[(65, 10), bfloat16], (Tensor[(1, 1, 420), float32], Tensor[(1, 1, 420), float32])) span=from_string:199:685 */ = %x_111;
  let %x_131: ((Tensor[(65, 10), float32], Tensor[(65, 10), float32]), (Tensor[(1, 1, 120), float32], Tensor[(1, 1, 240), float32]), (Tensor[(10, 24), float32], (Tensor[(10, 24), float32],)), Tensor[(1), float32], Tensor[(14, 65), float32], Tensor[(65, 10), bfloat16], (Tensor[(1, 1, 420), float32], Tensor[(1, 1, 420), float32])) /* ty=((Tensor[(65, 10), float32], Tensor[(65, 10), float32]), (Tensor[(1, 1, 120), float32], Tensor[(1, 1, 240), float32]), (Tensor[(10, 24), float32], (Tensor[(10, 24), float32],)), Tensor[(1), float32], Tensor[(14, 65), float32], Tensor[(65, 10), bfloat16], (Tensor[(1, 1, 420), float32], Tensor[(1, 1, 420), float32])) span=from_string:200:685 */ = %x_121;
  let %x_141: ((Tensor[(65, 10), float32], Tensor[(65, 10), float32]), (Tensor[(1, 1, 120), float32], Tensor[(1, 1, 240), float32]), (Tensor[(10, 24), float32], (Tensor[(10, 24), float32],)), Tensor[(1), float32], Tensor[(14, 65), float32], Tensor[(65, 10), bfloat16], (Tensor[(1, 1, 420), float32], Tensor[(1, 1, 420), float32])) /* ty=((Tensor[(65, 10), float32], Tensor[(65, 10), float32]), (Tensor[(1, 1, 120), float32], Tensor[(1, 1, 240), float32]), (Tensor[(10, 24), float32], (Tensor[(10, 24), float32],)), Tensor[(1), float32], Tensor[(14, 65), float32], Tensor[(65, 10), bfloat16], (Tensor[(1, 1, 420), float32], Tensor[(1, 1, 420), float32])) span=from_string:201:685 */ = %x_131;
  let %x_151: ((Tensor[(65, 10), float32], Tensor[(65, 10), float32]), (Tensor[(1, 1, 120), float32], Tensor[(1, 1, 240), float32]), (Tensor[(10, 24), float32], (Tensor[(10, 24), float32],)), Tensor[(1), float32], Tensor[(14, 65), float32], Tensor[(65, 10), bfloat16], (Tensor[(1, 1, 420), float32], Tensor[(1, 1, 420), float32])) /* ty=((Tensor[(65, 10), float32], Tensor[(65, 10), float32]), (Tensor[(1, 1, 120), float32], Tensor[(1, 1, 240), float32]), (Tensor[(10, 24), float32], (Tensor[(10, 24), float32],)), Tensor[(1), float32], Tensor[(14, 65), float32], Tensor[(65, 10), bfloat16], (Tensor[(1, 1, 420), float32], Tensor[(1, 1, 420), float32])) span=from_string:202:685 */ = %x_141;
  let %x_161: ((Tensor[(65, 10), float32], Tensor[(65, 10), float32]), (Tensor[(1, 1, 120), float32], Tensor[(1, 1, 240), float32]), (Tensor[(10, 24), float32], (Tensor[(10, 24), float32],)), Tensor[(1), float32], Tensor[(14, 65), float32], Tensor[(65, 10), bfloat16], (Tensor[(1, 1, 420), float32], Tensor[(1, 1, 420), float32])) /* ty=((Tensor[(65, 10), float32], Tensor[(65, 10), float32]), (Tensor[(1, 1, 120), float32], Tensor[(1, 1, 240), float32]), (Tensor[(10, 24), float32], (Tensor[(10, 24), float32],)), Tensor[(1), float32], Tensor[(14, 65), float32], Tensor[(65, 10), bfloat16], (Tensor[(1, 1, 420), float32], Tensor[(1, 1, 420), float32])) span=from_string:203:685 */ = %x_151;
  let %x_171: ((Tensor[(65, 10), float32], Tensor[(65, 10), float32]), (Tensor[(1, 1, 120), float32], Tensor[(1, 1, 240), float32]), (Tensor[(10, 24), float32], (Tensor[(10, 24), float32],)), Tensor[(1), float32], Tensor[(14, 65), float32], Tensor[(65, 10), bfloat16], (Tensor[(1, 1, 420), float32], Tensor[(1, 1, 420), float32])) /* ty=((Tensor[(65, 10), float32], Tensor[(65, 10), float32]), (Tensor[(1, 1, 120), float32], Tensor[(1, 1, 240), float32]), (Tensor[(10, 24), float32], (Tensor[(10, 24), float32],)), Tensor[(1), float32], Tensor[(14, 65), float32], Tensor[(65, 10), bfloat16], (Tensor[(1, 1, 420), float32], Tensor[(1, 1, 420), float32])) span=from_string:204:685 */ = %x_161;
  let %x_181: ((Tensor[(65, 10), float32], Tensor[(65, 10), float32]), (Tensor[(1, 1, 120), float32], Tensor[(1, 1, 240), float32]), (Tensor[(10, 24), float32], (Tensor[(10, 24), float32],)), Tensor[(1), float32], Tensor[(14, 65), float32], Tensor[(65, 10), bfloat16], (Tensor[(1, 1, 420), float32], Tensor[(1, 1, 420), float32])) /* ty=((Tensor[(65, 10), float32], Tensor[(65, 10), float32]), (Tensor[(1, 1, 120), float32], Tensor[(1, 1, 240), float32]), (Tensor[(10, 24), float32], (Tensor[(10, 24), float32],)), Tensor[(1), float32], Tensor[(14, 65), float32], Tensor[(65, 10), bfloat16], (Tensor[(1, 1, 420), float32], Tensor[(1, 1, 420), float32])) span=from_string:205:685 */ = %x_171;
  let %x_191: ((Tensor[(65, 10), float32], Tensor[(65, 10), float32]), (Tensor[(1, 1, 120), float32], Tensor[(1, 1, 240), float32]), (Tensor[(10, 24), float32], (Tensor[(10, 24), float32],)), Tensor[(1), float32], Tensor[(14, 65), float32], Tensor[(65, 10), bfloat16], (Tensor[(1, 1, 420), float32], Tensor[(1, 1, 420), float32])) /* ty=((Tensor[(65, 10), float32], Tensor[(65, 10), float32]), (Tensor[(1, 1, 120), float32], Tensor[(1, 1, 240), float32]), (Tensor[(10, 24), float32], (Tensor[(10, 24), float32],)), Tensor[(1), float32], Tensor[(14, 65), float32], Tensor[(65, 10), bfloat16], (Tensor[(1, 1, 420), float32], Tensor[(1, 1, 420), float32])) span=from_string:206:685 */ = %x_181;
  let %x_201: ((Tensor[(65, 10), float32], Tensor[(65, 10), float32]), (Tensor[(1, 1, 120), float32], Tensor[(1, 1, 240), float32]), (Tensor[(10, 24), float32], (Tensor[(10, 24), float32],)), Tensor[(1), float32], Tensor[(14, 65), float32], Tensor[(65, 10), bfloat16], (Tensor[(1, 1, 420), float32], Tensor[(1, 1, 420), float32])) /* ty=((Tensor[(65, 10), float32], Tensor[(65, 10), float32]), (Tensor[(1, 1, 120), float32], Tensor[(1, 1, 240), float32]), (Tensor[(10, 24), float32], (Tensor[(10, 24), float32],)), Tensor[(1), float32], Tensor[(14, 65), float32], Tensor[(65, 10), bfloat16], (Tensor[(1, 1, 420), float32], Tensor[(1, 1, 420), float32])) span=from_string:207:685 */ = %x_191;
  let %x_211: ((Tensor[(65, 10), float32], Tensor[(65, 10), float32]), (Tensor[(1, 1, 120), float32], Tensor[(1, 1, 240), float32]), (Tensor[(10, 24), float32], (Tensor[(10, 24), float32],)), Tensor[(1), float32], Tensor[(14, 65), float32], Tensor[(65, 10), bfloat16], (Tensor[(1, 1, 420), float32], Tensor[(1, 1, 420), float32])) /* ty=((Tensor[(65, 10), float32], Tensor[(65, 10), float32]), (Tensor[(1, 1, 120), float32], Tensor[(1, 1, 240), float32]), (Tensor[(10, 24), float32], (Tensor[(10, 24), float32],)), Tensor[(1), float32], Tensor[(14, 65), float32], Tensor[(65, 10), bfloat16], (Tensor[(1, 1, 420), float32], Tensor[(1, 1, 420), float32])) span=from_string:208:685 */ = %x_201;
  let %x_221: ((Tensor[(65, 10), float32], Tensor[(65, 10), float32]), (Tensor[(1, 1, 120), float32], Tensor[(1, 1, 240), float32]), (Tensor[(10, 24), float32], (Tensor[(10, 24), float32],)), Tensor[(1), float32], Tensor[(14, 65), float32], Tensor[(65, 10), bfloat16], (Tensor[(1, 1, 420), float32], Tensor[(1, 1, 420), float32])) /* ty=((Tensor[(65, 10), float32], Tensor[(65, 10), float32]), (Tensor[(1, 1, 120), float32], Tensor[(1, 1, 240), float32]), (Tensor[(10, 24), float32], (Tensor[(10, 24), float32],)), Tensor[(1), float32], Tensor[(14, 65), float32], Tensor[(65, 10), bfloat16], (Tensor[(1, 1, 420), float32], Tensor[(1, 1, 420), float32])) span=from_string:209:685 */ = %x_211;
  let %x_231: ((Tensor[(65, 10), float32], Tensor[(65, 10), float32]), (Tensor[(1, 1, 120), float32], Tensor[(1, 1, 240), float32]), (Tensor[(10, 24), float32], (Tensor[(10, 24), float32],)), Tensor[(1), float32], Tensor[(14, 65), float32], Tensor[(65, 10), bfloat16], (Tensor[(1, 1, 420), float32], Tensor[(1, 1, 420), float32])) /* ty=((Tensor[(65, 10), float32], Tensor[(65, 10), float32]), (Tensor[(1, 1, 120), float32], Tensor[(1, 1, 240), float32]), (Tensor[(10, 24), float32], (Tensor[(10, 24), float32],)), Tensor[(1), float32], Tensor[(14, 65), float32], Tensor[(65, 10), bfloat16], (Tensor[(1, 1, 420), float32], Tensor[(1, 1, 420), float32])) span=from_string:210:685 */ = %x_221;
  let %x_241: ((Tensor[(65, 10), float32], Tensor[(65, 10), float32]), (Tensor[(1, 1, 120), float32], Tensor[(1, 1, 240), float32]), (Tensor[(10, 24), float32], (Tensor[(10, 24), float32],)), Tensor[(1), float32], Tensor[(14, 65), float32], Tensor[(65, 10), bfloat16], (Tensor[(1, 1, 420), float32], Tensor[(1, 1, 420), float32])) /* ty=((Tensor[(65, 10), float32], Tensor[(65, 10), float32]), (Tensor[(1, 1, 120), float32], Tensor[(1, 1, 240), float32]), (Tensor[(10, 24), float32], (Tensor[(10, 24), float32],)), Tensor[(1), float32], Tensor[(14, 65), float32], Tensor[(65, 10), bfloat16], (Tensor[(1, 1, 420), float32], Tensor[(1, 1, 420), float32])) span=from_string:211:685 */ = %x_231;
  let %x_251: ((Tensor[(65, 10), float32], Tensor[(65, 10), float32]), (Tensor[(1, 1, 120), float32], Tensor[(1, 1, 240), float32]), (Tensor[(10, 24), float32], (Tensor[(10, 24), float32],)), Tensor[(1), float32], Tensor[(14, 65), float32], Tensor[(65, 10), bfloat16], (Tensor[(1, 1, 420), float32], Tensor[(1, 1, 420), float32])) /* ty=((Tensor[(65, 10), float32], Tensor[(65, 10), float32]), (Tensor[(1, 1, 120), float32], Tensor[(1, 1, 240), float32]), (Tensor[(10, 24), float32], (Tensor[(10, 24), float32],)), Tensor[(1), float32], Tensor[(14, 65), float32], Tensor[(65, 10), bfloat16], (Tensor[(1, 1, 420), float32], Tensor[(1, 1, 420), float32])) span=from_string:212:685 */ = %x_241;
  let %x_261: ((Tensor[(65, 10), float32], Tensor[(65, 10), float32]), (Tensor[(1, 1, 120), float32], Tensor[(1, 1, 240), float32]), (Tensor[(10, 24), float32], (Tensor[(10, 24), float32],)), Tensor[(1), float32], Tensor[(14, 65), float32], Tensor[(65, 10), bfloat16], (Tensor[(1, 1, 420), float32], Tensor[(1, 1, 420), float32])) /* ty=((Tensor[(65, 10), float32], Tensor[(65, 10), float32]), (Tensor[(1, 1, 120), float32], Tensor[(1, 1, 240), float32]), (Tensor[(10, 24), float32], (Tensor[(10, 24), float32],)), Tensor[(1), float32], Tensor[(14, 65), float32], Tensor[(65, 10), bfloat16], (Tensor[(1, 1, 420), float32], Tensor[(1, 1, 420), float32])) span=from_string:213:685 */ = %x_251;
  let %x_271: ((Tensor[(65, 10), float32], Tensor[(65, 10), float32]), (Tensor[(1, 1, 120), float32], Tensor[(1, 1, 240), float32]), (Tensor[(10, 24), float32], (Tensor[(10, 24), float32],)), Tensor[(1), float32], Tensor[(14, 65), float32], Tensor[(65, 10), bfloat16], (Tensor[(1, 1, 420), float32], Tensor[(1, 1, 420), float32])) /* ty=((Tensor[(65, 10), float32], Tensor[(65, 10), float32]), (Tensor[(1, 1, 120), float32], Tensor[(1, 1, 240), float32]), (Tensor[(10, 24), float32], (Tensor[(10, 24), float32],)), Tensor[(1), float32], Tensor[(14, 65), float32], Tensor[(65, 10), bfloat16], (Tensor[(1, 1, 420), float32], Tensor[(1, 1, 420), float32])) span=from_string:214:685 */ = %x_261;
  let %x_281: ((Tensor[(65, 10), float32], Tensor[(65, 10), float32]), (Tensor[(1, 1, 120), float32], Tensor[(1, 1, 240), float32]), (Tensor[(10, 24), float32], (Tensor[(10, 24), float32],)), Tensor[(1), float32], Tensor[(14, 65), float32], Tensor[(65, 10), bfloat16], (Tensor[(1, 1, 420), float32], Tensor[(1, 1, 420), float32])) /* ty=((Tensor[(65, 10), float32], Tensor[(65, 10), float32]), (Tensor[(1, 1, 120), float32], Tensor[(1, 1, 240), float32]), (Tensor[(10, 24), float32], (Tensor[(10, 24), float32],)), Tensor[(1), float32], Tensor[(14, 65), float32], Tensor[(65, 10), bfloat16], (Tensor[(1, 1, 420), float32], Tensor[(1, 1, 420), float32])) span=from_string:215:685 */ = %x_271;
  let %x_291: ((Tensor[(65, 10), float32], Tensor[(65, 10), float32]), (Tensor[(1, 1, 120), float32], Tensor[(1, 1, 240), float32]), (Tensor[(10, 24), float32], (Tensor[(10, 24), float32],)), Tensor[(1), float32], Tensor[(14, 65), float32], Tensor[(65, 10), bfloat16], (Tensor[(1, 1, 420), float32], Tensor[(1, 1, 420), float32])) /* ty=((Tensor[(65, 10), float32], Tensor[(65, 10), float32]), (Tensor[(1, 1, 120), float32], Tensor[(1, 1, 240), float32]), (Tensor[(10, 24), float32], (Tensor[(10, 24), float32],)), Tensor[(1), float32], Tensor[(14, 65), float32], Tensor[(65, 10), bfloat16], (Tensor[(1, 1, 420), float32], Tensor[(1, 1, 420), float32])) span=from_string:216:685 */ = %x_281;
  let %x_301: ((Tensor[(65, 10), float32], Tensor[(65, 10), float32]), (Tensor[(1, 1, 120), float32], Tensor[(1, 1, 240), float32]), (Tensor[(10, 24), float32], (Tensor[(10, 24), float32],)), Tensor[(1), float32], Tensor[(14, 65), float32], Tensor[(65, 10), bfloat16], (Tensor[(1, 1, 420), float32], Tensor[(1, 1, 420), float32])) /* ty=((Tensor[(65, 10), float32], Tensor[(65, 10), float32]), (Tensor[(1, 1, 120), float32], Tensor[(1, 1, 240), float32]), (Tensor[(10, 24), float32], (Tensor[(10, 24), float32],)), Tensor[(1), float32], Tensor[(14, 65), float32], Tensor[(65, 10), bfloat16], (Tensor[(1, 1, 420), float32], Tensor[(1, 1, 420), float32])) span=from_string:217:685 */ = %x_291;
  let %x_311: ((Tensor[(65, 10), float32], Tensor[(65, 10), float32]), (Tensor[(1, 1, 120), float32], Tensor[(1, 1, 240), float32]), (Tensor[(10, 24), float32], (Tensor[(10, 24), float32],)), Tensor[(1), float32], Tensor[(14, 65), float32], Tensor[(65, 10), bfloat16], (Tensor[(1, 1, 420), float32], Tensor[(1, 1, 420), float32])) /* ty=((Tensor[(65, 10), float32], Tensor[(65, 10), float32]), (Tensor[(1, 1, 120), float32], Tensor[(1, 1, 240), float32]), (Tensor[(10, 24), float32], (Tensor[(10, 24), float32],)), Tensor[(1), float32], Tensor[(14, 65), float32], Tensor[(65, 10), bfloat16], (Tensor[(1, 1, 420), float32], Tensor[(1, 1, 420), float32])) span=from_string:218:685 */ = %x_301;
  let %x_321: ((Tensor[(65, 10), float32], Tensor[(65, 10), float32]), (Tensor[(1, 1, 120), float32], Tensor[(1, 1, 240), float32]), (Tensor[(10, 24), float32], (Tensor[(10, 24), float32],)), Tensor[(1), float32], Tensor[(14, 65), float32], Tensor[(65, 10), bfloat16], (Tensor[(1, 1, 420), float32], Tensor[(1, 1, 420), float32])) /* ty=((Tensor[(65, 10), float32], Tensor[(65, 10), float32]), (Tensor[(1, 1, 120), float32], Tensor[(1, 1, 240), float32]), (Tensor[(10, 24), float32], (Tensor[(10, 24), float32],)), Tensor[(1), float32], Tensor[(14, 65), float32], Tensor[(65, 10), bfloat16], (Tensor[(1, 1, 420), float32], Tensor[(1, 1, 420), float32])) span=from_string:219:685 */ = %x_311;
  let %x_331: ((Tensor[(65, 10), float32], Tensor[(65, 10), float32]), (Tensor[(1, 1, 120), float32], Tensor[(1, 1, 240), float32]), (Tensor[(10, 24), float32], (Tensor[(10, 24), float32],)), Tensor[(1), float32], Tensor[(14, 65), float32], Tensor[(65, 10), bfloat16], (Tensor[(1, 1, 420), float32], Tensor[(1, 1, 420), float32])) /* ty=((Tensor[(65, 10), float32], Tensor[(65, 10), float32]), (Tensor[(1, 1, 120), float32], Tensor[(1, 1, 240), float32]), (Tensor[(10, 24), float32], (Tensor[(10, 24), float32],)), Tensor[(1), float32], Tensor[(14, 65), float32], Tensor[(65, 10), bfloat16], (Tensor[(1, 1, 420), float32], Tensor[(1, 1, 420), float32])) span=from_string:220:685 */ = %x_321;
  let %x_341: ((Tensor[(65, 10), float32], Tensor[(65, 10), float32]), (Tensor[(1, 1, 120), float32], Tensor[(1, 1, 240), float32]), (Tensor[(10, 24), float32], (Tensor[(10, 24), float32],)), Tensor[(1), float32], Tensor[(14, 65), float32], Tensor[(65, 10), bfloat16], (Tensor[(1, 1, 420), float32], Tensor[(1, 1, 420), float32])) /* ty=((Tensor[(65, 10), float32], Tensor[(65, 10), float32]), (Tensor[(1, 1, 120), float32], Tensor[(1, 1, 240), float32]), (Tensor[(10, 24), float32], (Tensor[(10, 24), float32],)), Tensor[(1), float32], Tensor[(14, 65), float32], Tensor[(65, 10), bfloat16], (Tensor[(1, 1, 420), float32], Tensor[(1, 1, 420), float32])) span=from_string:221:685 */ = %x_331;
  let %x_351: ((Tensor[(65, 10), float32], Tensor[(65, 10), float32]), (Tensor[(1, 1, 120), float32], Tensor[(1, 1, 240), float32]), (Tensor[(10, 24), float32], (Tensor[(10, 24), float32],)), Tensor[(1), float32], Tensor[(14, 65), float32], Tensor[(65, 10), bfloat16], (Tensor[(1, 1, 420), float32], Tensor[(1, 1, 420), float32])) /* ty=((Tensor[(65, 10), float32], Tensor[(65, 10), float32]), (Tensor[(1, 1, 120), float32], Tensor[(1, 1, 240), float32]), (Tensor[(10, 24), float32], (Tensor[(10, 24), float32],)), Tensor[(1), float32], Tensor[(14, 65), float32], Tensor[(65, 10), bfloat16], (Tensor[(1, 1, 420), float32], Tensor[(1, 1, 420), float32])) span=from_string:222:685 */ = %x_341;
  let %x_361: ((Tensor[(65, 10), float32], Tensor[(65, 10), float32]), (Tensor[(1, 1, 120), float32], Tensor[(1, 1, 240), float32]), (Tensor[(10, 24), float32], (Tensor[(10, 24), float32],)), Tensor[(1), float32], Tensor[(14, 65), float32], Tensor[(65, 10), bfloat16], (Tensor[(1, 1, 420), float32], Tensor[(1, 1, 420), float32])) /* ty=((Tensor[(65, 10), float32], Tensor[(65, 10), float32]), (Tensor[(1, 1, 120), float32], Tensor[(1, 1, 240), float32]), (Tensor[(10, 24), float32], (Tensor[(10, 24), float32],)), Tensor[(1), float32], Tensor[(14, 65), float32], Tensor[(65, 10), bfloat16], (Tensor[(1, 1, 420), float32], Tensor[(1, 1, 420), float32])) span=from_string:223:685 */ = %x_351;
  let %x_371: ((Tensor[(65, 10), float32], Tensor[(65, 10), float32]), (Tensor[(1, 1, 120), float32], Tensor[(1, 1, 240), float32]), (Tensor[(10, 24), float32], (Tensor[(10, 24), float32],)), Tensor[(1), float32], Tensor[(14, 65), float32], Tensor[(65, 10), bfloat16], (Tensor[(1, 1, 420), float32], Tensor[(1, 1, 420), float32])) /* ty=((Tensor[(65, 10), float32], Tensor[(65, 10), float32]), (Tensor[(1, 1, 120), float32], Tensor[(1, 1, 240), float32]), (Tensor[(10, 24), float32], (Tensor[(10, 24), float32],)), Tensor[(1), float32], Tensor[(14, 65), float32], Tensor[(65, 10), bfloat16], (Tensor[(1, 1, 420), float32], Tensor[(1, 1, 420), float32])) span=from_string:224:685 */ = %x_361;
  let %x_381: ((Tensor[(65, 10), float32], Tensor[(65, 10), float32]), (Tensor[(1, 1, 120), float32], Tensor[(1, 1, 240), float32]), (Tensor[(10, 24), float32], (Tensor[(10, 24), float32],)), Tensor[(1), float32], Tensor[(14, 65), float32], Tensor[(65, 10), bfloat16], (Tensor[(1, 1, 420), float32], Tensor[(1, 1, 420), float32])) /* ty=((Tensor[(65, 10), float32], Tensor[(65, 10), float32]), (Tensor[(1, 1, 120), float32], Tensor[(1, 1, 240), float32]), (Tensor[(10, 24), float32], (Tensor[(10, 24), float32],)), Tensor[(1), float32], Tensor[(14, 65), float32], Tensor[(65, 10), bfloat16], (Tensor[(1, 1, 420), float32], Tensor[(1, 1, 420), float32])) span=from_string:225:685 */ = %x_371;
  let %x_391: ((Tensor[(65, 10), float32], Tensor[(65, 10), float32]), (Tensor[(1, 1, 120), float32], Tensor[(1, 1, 240), float32]), (Tensor[(10, 24), float32], (Tensor[(10, 24), float32],)), Tensor[(1), float32], Tensor[(14, 65), float32], Tensor[(65, 10), bfloat16], (Tensor[(1, 1, 420), float32], Tensor[(1, 1, 420), float32])) /* ty=((Tensor[(65, 10), float32], Tensor[(65, 10), float32]), (Tensor[(1, 1, 120), float32], Tensor[(1, 1, 240), float32]), (Tensor[(10, 24), float32], (Tensor[(10, 24), float32],)), Tensor[(1), float32], Tensor[(14, 65), float32], Tensor[(65, 10), bfloat16], (Tensor[(1, 1, 420), float32], Tensor[(1, 1, 420), float32])) span=from_string:226:685 */ = %x_381;
  let %x_401: ((Tensor[(65, 10), float32], Tensor[(65, 10), float32]), (Tensor[(1, 1, 120), float32], Tensor[(1, 1, 240), float32]), (Tensor[(10, 24), float32], (Tensor[(10, 24), float32],)), Tensor[(1), float32], Tensor[(14, 65), float32], Tensor[(65, 10), bfloat16], (Tensor[(1, 1, 420), float32], Tensor[(1, 1, 420), float32])) /* ty=((Tensor[(65, 10), float32], Tensor[(65, 10), float32]), (Tensor[(1, 1, 120), float32], Tensor[(1, 1, 240), float32]), (Tensor[(10, 24), float32], (Tensor[(10, 24), float32],)), Tensor[(1), float32], Tensor[(14, 65), float32], Tensor[(65, 10), bfloat16], (Tensor[(1, 1, 420), float32], Tensor[(1, 1, 420), float32])) span=from_string:227:685 */ = %x_391;
  let %x_411: ((Tensor[(65, 10), float32], Tensor[(65, 10), float32]), (Tensor[(1, 1, 120), float32], Tensor[(1, 1, 240), float32]), (Tensor[(10, 24), float32], (Tensor[(10, 24), float32],)), Tensor[(1), float32], Tensor[(14, 65), float32], Tensor[(65, 10), bfloat16], (Tensor[(1, 1, 420), float32], Tensor[(1, 1, 420), float32])) /* ty=((Tensor[(65, 10), float32], Tensor[(65, 10), float32]), (Tensor[(1, 1, 120), float32], Tensor[(1, 1, 240), float32]), (Tensor[(10, 24), float32], (Tensor[(10, 24), float32],)), Tensor[(1), float32], Tensor[(14, 65), float32], Tensor[(65, 10), bfloat16], (Tensor[(1, 1, 420), float32], Tensor[(1, 1, 420), float32])) span=from_string:228:685 */ = %x_401;
  let %x_421: ((Tensor[(65, 10), float32], Tensor[(65, 10), float32]), (Tensor[(1, 1, 120), float32], Tensor[(1, 1, 240), float32]), (Tensor[(10, 24), float32], (Tensor[(10, 24), float32],)), Tensor[(1), float32], Tensor[(14, 65), float32], Tensor[(65, 10), bfloat16], (Tensor[(1, 1, 420), float32], Tensor[(1, 1, 420), float32])) /* ty=((Tensor[(65, 10), float32], Tensor[(65, 10), float32]), (Tensor[(1, 1, 120), float32], Tensor[(1, 1, 240), float32]), (Tensor[(10, 24), float32], (Tensor[(10, 24), float32],)), Tensor[(1), float32], Tensor[(14, 65), float32], Tensor[(65, 10), bfloat16], (Tensor[(1, 1, 420), float32], Tensor[(1, 1, 420), float32])) span=from_string:229:685 */ = %x_411;
  let %x_431: ((Tensor[(65, 10), float32], Tensor[(65, 10), float32]), (Tensor[(1, 1, 120), float32], Tensor[(1, 1, 240), float32]), (Tensor[(10, 24), float32], (Tensor[(10, 24), float32],)), Tensor[(1), float32], Tensor[(14, 65), float32], Tensor[(65, 10), bfloat16], (Tensor[(1, 1, 420), float32], Tensor[(1, 1, 420), float32])) /* ty=((Tensor[(65, 10), float32], Tensor[(65, 10), float32]), (Tensor[(1, 1, 120), float32], Tensor[(1, 1, 240), float32]), (Tensor[(10, 24), float32], (Tensor[(10, 24), float32],)), Tensor[(1), float32], Tensor[(14, 65), float32], Tensor[(65, 10), bfloat16], (Tensor[(1, 1, 420), float32], Tensor[(1, 1, 420), float32])) span=from_string:230:685 */ = %x_421;
  let %x_441: ((Tensor[(65, 10), float32], Tensor[(65, 10), float32]), (Tensor[(1, 1, 120), float32], Tensor[(1, 1, 240), float32]), (Tensor[(10, 24), float32], (Tensor[(10, 24), float32],)), Tensor[(1), float32], Tensor[(14, 65), float32], Tensor[(65, 10), bfloat16], (Tensor[(1, 1, 420), float32], Tensor[(1, 1, 420), float32])) /* ty=((Tensor[(65, 10), float32], Tensor[(65, 10), float32]), (Tensor[(1, 1, 120), float32], Tensor[(1, 1, 240), float32]), (Tensor[(10, 24), float32], (Tensor[(10, 24), float32],)), Tensor[(1), float32], Tensor[(14, 65), float32], Tensor[(65, 10), bfloat16], (Tensor[(1, 1, 420), float32], Tensor[(1, 1, 420), float32])) span=from_string:231:685 */ = %x_431;
  let %x_451: ((Tensor[(65, 10), float32], Tensor[(65, 10), float32]), (Tensor[(1, 1, 120), float32], Tensor[(1, 1, 240), float32]), (Tensor[(10, 24), float32], (Tensor[(10, 24), float32],)), Tensor[(1), float32], Tensor[(14, 65), float32], Tensor[(65, 10), bfloat16], (Tensor[(1, 1, 420), float32], Tensor[(1, 1, 420), float32])) /* ty=((Tensor[(65, 10), float32], Tensor[(65, 10), float32]), (Tensor[(1, 1, 120), float32], Tensor[(1, 1, 240), float32]), (Tensor[(10, 24), float32], (Tensor[(10, 24), float32],)), Tensor[(1), float32], Tensor[(14, 65), float32], Tensor[(65, 10), bfloat16], (Tensor[(1, 1, 420), float32], Tensor[(1, 1, 420), float32])) span=from_string:232:685 */ = %x_441;
  let %x_461: ((Tensor[(65, 10), float32], Tensor[(65, 10), float32]), (Tensor[(1, 1, 120), float32], Tensor[(1, 1, 240), float32]), (Tensor[(10, 24), float32], (Tensor[(10, 24), float32],)), Tensor[(1), float32], Tensor[(14, 65), float32], Tensor[(65, 10), bfloat16], (Tensor[(1, 1, 420), float32], Tensor[(1, 1, 420), float32])) /* ty=((Tensor[(65, 10), float32], Tensor[(65, 10), float32]), (Tensor[(1, 1, 120), float32], Tensor[(1, 1, 240), float32]), (Tensor[(10, 24), float32], (Tensor[(10, 24), float32],)), Tensor[(1), float32], Tensor[(14, 65), float32], Tensor[(65, 10), bfloat16], (Tensor[(1, 1, 420), float32], Tensor[(1, 1, 420), float32])) span=from_string:233:685 */ = %x_451;
  let %x_471: ((Tensor[(65, 10), float32], Tensor[(65, 10), float32]), (Tensor[(1, 1, 120), float32], Tensor[(1, 1, 240), float32]), (Tensor[(10, 24), float32], (Tensor[(10, 24), float32],)), Tensor[(1), float32], Tensor[(14, 65), float32], Tensor[(65, 10), bfloat16], (Tensor[(1, 1, 420), float32], Tensor[(1, 1, 420), float32])) /* ty=((Tensor[(65, 10), float32], Tensor[(65, 10), float32]), (Tensor[(1, 1, 120), float32], Tensor[(1, 1, 240), float32]), (Tensor[(10, 24), float32], (Tensor[(10, 24), float32],)), Tensor[(1), float32], Tensor[(14, 65), float32], Tensor[(65, 10), bfloat16], (Tensor[(1, 1, 420), float32], Tensor[(1, 1, 420), float32])) span=from_string:234:685 */ = %x_461;
  let %x_481: ((Tensor[(65, 10), float32], Tensor[(65, 10), float32]), (Tensor[(1, 1, 120), float32], Tensor[(1, 1, 240), float32]), (Tensor[(10, 24), float32], (Tensor[(10, 24), float32],)), Tensor[(1), float32], Tensor[(14, 65), float32], Tensor[(65, 10), bfloat16], (Tensor[(1, 1, 420), float32], Tensor[(1, 1, 420), float32])) /* ty=((Tensor[(65, 10), float32], Tensor[(65, 10), float32]), (Tensor[(1, 1, 120), float32], Tensor[(1, 1, 240), float32]), (Tensor[(10, 24), float32], (Tensor[(10, 24), float32],)), Tensor[(1), float32], Tensor[(14, 65), float32], Tensor[(65, 10), bfloat16], (Tensor[(1, 1, 420), float32], Tensor[(1, 1, 420), float32])) span=from_string:235:685 */ = %x_471;
  let %x_491: ((Tensor[(65, 10), float32], Tensor[(65, 10), float32]), (Tensor[(1, 1, 120), float32], Tensor[(1, 1, 240), float32]), (Tensor[(10, 24), float32], (Tensor[(10, 24), float32],)), Tensor[(1), float32], Tensor[(14, 65), float32], Tensor[(65, 10), bfloat16], (Tensor[(1, 1, 420), float32], Tensor[(1, 1, 420), float32])) /* ty=((Tensor[(65, 10), float32], Tensor[(65, 10), float32]), (Tensor[(1, 1, 120), float32], Tensor[(1, 1, 240), float32]), (Tensor[(10, 24), float32], (Tensor[(10, 24), float32],)), Tensor[(1), float32], Tensor[(14, 65), float32], Tensor[(65, 10), bfloat16], (Tensor[(1, 1, 420), float32], Tensor[(1, 1, 420), float32])) span=from_string:236:685 */ = %x_481;
  let %x_501: ((Tensor[(65, 10), float32], Tensor[(65, 10), float32]), (Tensor[(1, 1, 120), float32], Tensor[(1, 1, 240), float32]), (Tensor[(10, 24), float32], (Tensor[(10, 24), float32],)), Tensor[(1), float32], Tensor[(14, 65), float32], Tensor[(65, 10), bfloat16], (Tensor[(1, 1, 420), float32], Tensor[(1, 1, 420), float32])) /* ty=((Tensor[(65, 10), float32], Tensor[(65, 10), float32]), (Tensor[(1, 1, 120), float32], Tensor[(1, 1, 240), float32]), (Tensor[(10, 24), float32], (Tensor[(10, 24), float32],)), Tensor[(1), float32], Tensor[(14, 65), float32], Tensor[(65, 10), bfloat16], (Tensor[(1, 1, 420), float32], Tensor[(1, 1, 420), float32])) span=from_string:237:685 */ = %x_491;
  let %x_511: ((Tensor[(65, 10), float32], Tensor[(65, 10), float32]), (Tensor[(1, 1, 120), float32], Tensor[(1, 1, 240), float32]), (Tensor[(10, 24), float32], (Tensor[(10, 24), float32],)), Tensor[(1), float32], Tensor[(14, 65), float32], Tensor[(65, 10), bfloat16], (Tensor[(1, 1, 420), float32], Tensor[(1, 1, 420), float32])) /* ty=((Tensor[(65, 10), float32], Tensor[(65, 10), float32]), (Tensor[(1, 1, 120), float32], Tensor[(1, 1, 240), float32]), (Tensor[(10, 24), float32], (Tensor[(10, 24), float32],)), Tensor[(1), float32], Tensor[(14, 65), float32], Tensor[(65, 10), bfloat16], (Tensor[(1, 1, 420), float32], Tensor[(1, 1, 420), float32])) span=from_string:238:683 */ = %x_501;
  let %x_521: ((Tensor[(65, 10), float32], Tensor[(65, 10), float32]), (Tensor[(1, 1, 120), float32], Tensor[(1, 1, 240), float32]), (Tensor[(10, 24), float32], (Tensor[(10, 24), float32],)), Tensor[(1), float32], Tensor[(14, 65), float32], Tensor[(65, 10), bfloat16], (Tensor[(1, 1, 420), float32], Tensor[(1, 1, 420), float32])) /* ty=((Tensor[(65, 10), float32], Tensor[(65, 10), float32]), (Tensor[(1, 1, 120), float32], Tensor[(1, 1, 240), float32]), (Tensor[(10, 24), float32], (Tensor[(10, 24), float32],)), Tensor[(1), float32], Tensor[(14, 65), float32], Tensor[(65, 10), bfloat16], (Tensor[(1, 1, 420), float32], Tensor[(1, 1, 420), float32])) span=from_string:239:3 */ = %x_511;
  %x_521
}

#[metadata]
{
  "root": 1, 
  "nodes": [
    {
      "type_key": ""
    }, 
    {
      "type_key": "Map", 
      "keys": [
        "relay.attrs.InitOpAttrs", 
        "relay.Constant"
      ], 
      "data": [2, 9]
    }, 
    {
      "type_key": "Array", 
      "data": [3, 7]
    }, 
    {
      "type_key": "relay.attrs.InitOpAttrs", 
      "attrs": {
        "dtype": "", 
        "shape": "4"
      }
    }, 
    {
      "type_key": "Array", 
      "data": [5, 6]
    }, 
    {
      "type_key": "IntImm", 
      "attrs": {
        "dtype": "int32", 
        "span": "0", 
        "value": "10"
      }
    }, 
    {
      "type_key": "IntImm", 
      "attrs": {
        "dtype": "int32", 
        "span": "0", 
        "value": "24"
      }
    }, 
    {
      "type_key": "relay.attrs.InitOpAttrs", 
      "attrs": {
        "dtype": "", 
        "shape": "8"
      }
    }, 
    {
      "type_key": "Array", 
      "data": [5, 6]
    }, 
    {
      "type_key": "Array", 
      "data": [10, 16]
    }, 
    {
      "type_key": "relay.Constant", 
      "attrs": {
        "_checked_type_": "13", 
        "data": "0", 
        "span": "0", 
        "virtual_device_": "11"
      }
    }, 
    {
      "type_key": "VirtualDevice", 
      "attrs": {
        "device_type_int": "-1", 
        "memory_scope": "12", 
        "target": "0", 
        "virtual_device_id": "-1"
      }
    }, 
    {
      "type_key": "runtime.String"
    }, 
    {
      "type_key": "relay.TensorType", 
      "attrs": {
        "dtype": "int32", 
        "shape": "14", 
        "span": "0"
      }
    }, 
    {
      "type_key": "Array", 
      "data": [15]
    }, 
    {
      "type_key": "IntImm", 
      "attrs": {
        "dtype": "int32", 
        "span": "0", 
        "value": "2"
      }
    }, 
    {
      "type_key": "relay.Constant", 
      "attrs": {
        "_checked_type_": "17", 
        "data": "1", 
        "span": "0", 
        "virtual_device_": "11"
      }
    }, 
    {
      "type_key": "relay.TensorType", 
      "attrs": {
        "dtype": "int32", 
        "shape": "18", 
        "span": "0"
      }
    }, 
    {
      "type_key": "Array", 
      "data": [19]
    }, 
    {
      "type_key": "IntImm", 
      "attrs": {
        "dtype": "int32", 
        "span": "0", 
        "value": "2"
      }
    }
  ], 
  "b64ndarrays": [
    "P6G0lvBAXt0AAAAAAAAAAAEAAAAAAAAAAQAAAAAgAQACAAAAAAAAAAgAAAAAAAAACgAAABgAAAA=", 
    "P6G0lvBAXt0AAAAAAAAAAAEAAAAAAAAAAQAAAAAgAQACAAAAAAAAAAgAAAAAAAAACgAAABgAAAA="
  ], 
  "attrs": {"tvm_version": "0.13.0"}
}