#[version = "0.0.5"]
def @main(%x0: Tensor[(10, 10), float32] /* ty=Tensor[(10, 10), float32] span=from_string:4:18 */, %x1: Tensor[(65, 10), float32] /* ty=Tensor[(65, 10), float32] span=from_string:19:24 */, %x2: Tensor[(10, 10), float32] /* ty=Tensor[(10, 10), float32] span=from_string:19:29 */, %x3: Tensor[(10), float32] /* ty=Tensor[(10), float32] span=from_string:18:26 */, %x4: Tensor[(10), float32] /* ty=Tensor[(10), float32] span=from_string:20:26 */, %x5: Tensor[(12, 10), float32] /* ty=Tensor[(12, 10), float32] span=from_string:22:30 */, %x6: Tensor[(12), float32] /* ty=Tensor[(12), float32] span=from_string:23:26 */, %x7: Tensor[(1), float32] /* ty=Tensor[(1), float32] span=from_string:24:32 */, %x8: Tensor[(24, 10), float32] /* ty=Tensor[(24, 10), float32] span=from_string:12:29 */, %x9: Tensor[(24), float32] /* ty=Tensor[(24), float32] span=from_string:13:25 */, %x10: Tensor[(1), float32] /* ty=Tensor[(1), float32] span=from_string:38:19 */, %x11: Tensor[(14, 30), float32] /* ty=Tensor[(14, 30), float32] span=from_string:39:21 */, %x12: Tensor[(42, 24), float32] /* ty=Tensor[(42, 24), float32] span=from_string:50:24 */, %x13: Tensor[(10, 24), float32] /* ty=Tensor[(10, 24), float32] span=from_string:50:30 */, %x14: Tensor[(10), float32] /* ty=Tensor[(10), float32] span=from_string:47:26 */, %x15: Tensor[(10), float32] /* ty=Tensor[(10), float32] span=from_string:51:26 */, %x16: Tensor[(1), float32] /* ty=Tensor[(1), float32] span=from_string:48:32 */, %x17: Tensor[(1), float32] /* ty=Tensor[(1), float32] span=from_string:52:32 */) -> ((Tensor[(65, 10), float32], Tensor[(65, 10), float32]), (Tensor[(1, 1, 120), float32], Tensor[(1, 1, 240), float32]), (Tensor[(10, 24), float32], (Tensor[(10, 24), float32],)), Tensor[(1), float32], Tensor[(14, 65), float32], Tensor[(65, 10), bfloat16], (Tensor[(1, 1, 420), float32], Tensor[(1, 1, 420), float32])) {
  let %x_0: Tensor[(10, 10), float32] /* ty=Tensor[(10, 10), float32] span=from_string:4:23 */ = zeros_like(%x0) /* ty=Tensor[(10, 10), float32] span=from_string:3:14 */;
  let %x_1: Tensor[(10, 10), float32] /* ty=Tensor[(10, 10), float32] span=from_string:17:29 */ = add(%x0, %x_0) /* ty=Tensor[(10, 10), float32] span=from_string:4:14 */;
  %0 = nn.relu(%x_1) /* ty=Tensor[(10, 10), float32] span=from_string:5:14 */;
  let %x_2: Tensor[(10, 10), float32] /* ty=Tensor[(10, 10), float32] span=from_string:7:18 */ = %0;
  let %x_3: float32 /* ty=float32 span=from_string:7:24 */ = 1f /* ty=float32 span=from_string:6:16 */;
  let %x_4: Tensor[(10, 10), float32] /* ty=Tensor[(10, 10), float32] span=from_string:11:18 */ = add(%x_2, %x_3) /* ty=Tensor[(10, 10), float32] span=from_string:7:14 */;
  let %x_5: Tensor[(10, 10), float32] /* ty=Tensor[(10, 10), float32] span=from_string:10:18 */ = %0;
  let %x_6: float32 /* ty=float32 span=from_string:10:24 */ = 1f /* ty=float32 span=from_string:9:16 */;
  let %x_7: Tensor[(10, 10), float32] /* ty=Tensor[(10, 10), float32] span=from_string:11:24 */ = add(%x_5, %x_6) /* ty=Tensor[(10, 10), float32] span=from_string:10:14 */;
  let %x_8: Tensor[(10, 10), float32] /* ty=Tensor[(10, 10), float32] span=from_string:22:24 */ = add(%x_4, %x_7) /* ty=Tensor[(10, 10), float32] span=from_string:11:14 */;
  let %x_9: Tensor[(10, 24), float32] /* ty=Tensor[(10, 24), float32] span=from_string:13:19 */ = nn.dense(%x_8, %x8, units=None) /* ty=Tensor[(10, 24), float32] span=from_string:12:14 */;
  let %x_10: Tensor[(10, 24), float32] /* ty=Tensor[(10, 24), float32] span=from_string:14:25 */ = add(%x_9, %x9) /* ty=Tensor[(10, 24), float32] span=from_string:13:15 */;
  let %x_11: Tensor[(10, 24), float32] /* ty=Tensor[(10, 24), float32] span=from_string:33:40 */ = multiply(%x_10, %x10) /* ty=Tensor[(10, 24), float32] span=from_string:14:16 */;
  let %x18: Tensor[(10, 24), float32] /* ty=Tensor[(10, 24), float32] span=from_string:36:16 */ = multiply(%x_11, %x_11) /* ty=Tensor[(10, 24), float32] span=from_string:15:100 */;
  let %x19: Tensor[(10, 24), float32] /* ty=Tensor[(10, 24), float32] span=from_string:32:25 */ = ones_like(%x18) /* ty=Tensor[(10, 24), float32] span=from_string:16:99 */;
  let %x_12: Tensor[(65, 10), float32] /* ty=Tensor[(65, 10), float32] span=from_string:18:19 */ = nn.dense(%x1, %x_1, units=None) /* ty=Tensor[(65, 10), float32] span=from_string:17:15 */;
  let %x_13: Tensor[(65, 10), float32] /* ty=Tensor[(65, 10), float32] span=from_string:21:16 */ = add(%x_12, %x3) /* ty=Tensor[(65, 10), float32] span=from_string:18:15 */;
  let %x_14: Tensor[(65, 10), float32] /* ty=Tensor[(65, 10), float32] span=from_string:42:19 */ = nn.dense(%x1, %x2, units=None) /* ty=Tensor[(65, 10), float32] span=from_string:19:15 */;
  let %x_15: Tensor[(65, 10), float32] /* ty=Tensor[(65, 10), float32] span=from_string:21:23 */ = add(%x_14, %x4) /* ty=Tensor[(65, 10), float32] span=from_string:20:15 */;
  let %x_16: (Tensor[(65, 10), float32], Tensor[(65, 10), float32]) /* ty=(Tensor[(65, 10), float32], Tensor[(65, 10), float32]) span=from_string:55:16 */ = (%x_13, %x_15) /* ty=(Tensor[(65, 10), float32], Tensor[(65, 10), float32]) span=from_string:21:15 */;
  let %x_17: Tensor[(10, 12), float32] /* ty=Tensor[(10, 12), float32] span=from_string:23:19 */ = nn.dense(%x_8, %x5, units=None) /* ty=Tensor[(10, 12), float32] span=from_string:22:15 */;
  let %x_18: Tensor[(10, 12), float32] /* ty=Tensor[(10, 12), float32] span=from_string:24:25 */ = add(%x_17, %x6) /* ty=Tensor[(10, 12), float32] span=from_string:23:15 */;
  let %x_19: Tensor[(10, 12), float32] /* ty=Tensor[(10, 12), float32] span=from_string:25:23 */ = multiply(%x_18, %x7) /* ty=Tensor[(10, 12), float32] span=from_string:24:16 */;
  let %x_20: Tensor[(1, 1, 120), float32] /* ty=Tensor[(1, 1, 120), float32] span=from_string:27:16 */ = reshape(%x_19, newshape=[1, 1, 120]) /* ty=Tensor[(1, 1, 120), float32] span=from_string:25:15 */;
  let %x_21: Tensor[(1, 1, 240), float32] /* ty=Tensor[(1, 1, 240), float32] span=from_string:27:23 */ = reshape(%x_11, newshape=[1, 1, 240]) /* ty=Tensor[(1, 1, 240), float32] span=from_string:26:15 */;
  let %x_22: (Tensor[(1, 1, 120), float32], Tensor[(1, 1, 240), float32]) /* ty=(Tensor[(1, 1, 120), float32], Tensor[(1, 1, 240), float32]) span=from_string:55:23 */ = (%x_20, %x_21) /* ty=(Tensor[(1, 1, 120), float32], Tensor[(1, 1, 240), float32]) span=from_string:27:15 */;
  let %x_23: Tensor[(10, 24), float32] /* ty=Tensor[(10, 24), float32] span=from_string:31:19 */ = zeros_like(%x_11) /* ty=Tensor[(10, 24), float32] span=from_string:28:15 */;
  %1 = multiply(%x19, %x_11) /* ty=Tensor[(10, 24), float32] span=from_string:29:16 */;
  let %x_24: Tensor[(10, 24), float32] /* ty=Tensor[(10, 24), float32] span=from_string:46:30 */ = %1;
  let %x_25: Tensor[(10, 24), float32] /* ty=Tensor[(10, 24), float32] span=from_string:31:26 */ = collapse_sum_like(%x_24, %x_11) /* ty=Tensor[(10, 24), float32] span=from_string:30:15 */;
  let %x_26: Tensor[(10, 24), float32] /* ty=Tensor[(10, 24), float32] span=from_string:34:19 */ = add(%x_23, %x_25) /* ty=Tensor[(10, 24), float32] span=from_string:31:15 */;
  let %x_27: Tensor[(10, 24), float32] /* ty=Tensor[(10, 24), float32] span=from_string:33:33 */ = %1;
  let %x_28: Tensor[(10, 24), float32] /* ty=Tensor[(10, 24), float32] span=from_string:34:26 */ = collapse_sum_like(%x_27, %x_11) /* ty=Tensor[(10, 24), float32] span=from_string:33:15 */;
  let %x_29: Tensor[(10, 24), float32] /* ty=Tensor[(10, 24), float32] span=from_string:35:16 */ = add(%x_26, %x_28) /* ty=Tensor[(10, 24), float32] span=from_string:34:15 */;
  let %x_30: (Tensor[(10, 24), float32],) /* ty=(Tensor[(10, 24), float32],) span=from_string:36:22 */ = (%x_29,) /* ty=(Tensor[(10, 24), float32],) span=from_string:35:15 */;
  let %x_31: (Tensor[(10, 24), float32], (Tensor[(10, 24), float32],)) /* ty=(Tensor[(10, 24), float32], (Tensor[(10, 24), float32],)) span=from_string:55:30 */ = (%x18, %x_30) /* ty=(Tensor[(10, 24), float32], (Tensor[(10, 24), float32],)) span=from_string:36:15 */;
  let %x_32: Tensor[(1), float32] /* ty=Tensor[(1), float32] span=from_string:38:25 */ = ones(shape=[1], dtype="float32") /* ty=Tensor[(1), float32] span=from_string:37:15 */;
  let %x_33: Tensor[(1), float32] /* ty=Tensor[(1), float32] span=from_string:55:37 */ = add(%x10, %x_32) /* ty=Tensor[(1), float32] span=from_string:38:15 */;
  let %x_34: (Tensor[(14, 10), float32], Tensor[(14, 10), float32], Tensor[(14, 10), float32]) /* ty=(Tensor[(14, 10), float32], Tensor[(14, 10), float32], Tensor[(14, 10), float32]) span=from_string:40:15 */ = split(%x11, indices_or_sections=3, axis=1) /* ty=(Tensor[(14, 10), float32], Tensor[(14, 10), float32], Tensor[(14, 10), float32]) span=from_string:39:15 */;
  let %x_35: Tensor[(14, 10), float32] /* ty=Tensor[(14, 10), float32] span=from_string:43:24 */ = %x_34.0 /* ty=Tensor[(14, 10), float32] span=from_string:40:15 */;
  let %x_36: Tensor[(65, 10), float32] /* ty=Tensor[(65, 10), float32] span=from_string:42:26 */ = ones_like(%x_14) /* ty=Tensor[(65, 10), float32] span=from_string:41:15 */;
  let %x_37: Tensor[(65, 10), float32] /* ty=Tensor[(65, 10), float32] span=from_string:44:20 */ = add(%x_14, %x_36) /* ty=Tensor[(65, 10), float32] span=from_string:42:15 */;
  let %x_38: Tensor[(14, 65), float32] /* ty=Tensor[(14, 65), float32] span=from_string:55:44 */ = nn.dense(%x_35, %x_37, units=None) /* ty=Tensor[(14, 65), float32] span=from_string:43:15 */;
  let %x_39: Tensor[(65, 10), bfloat16] /* ty=Tensor[(65, 10), bfloat16] span=from_string:45:20 */ = cast(%x_37, dtype="bfloat16") /* ty=Tensor[(65, 10), bfloat16] span=from_string:44:15 */;
  let %x_40: Tensor[(65, 10), bfloat16] /* ty=Tensor[(65, 10), bfloat16] span=from_string:55:51 */ = clip(%x_39, a_min=-0.2f, a_max=0.4f) /* ty=Tensor[(65, 10), bfloat16] span=from_string:45:15 */;
  let %x_41: Tensor[(42, 10), float32] /* ty=Tensor[(42, 10), float32] span=from_string:47:19 */ = nn.dense(%x12, %x_24, units=None) /* ty=Tensor[(42, 10), float32] span=from_string:46:15 */;
  let %x_42: Tensor[(42, 10), float32] /* ty=Tensor[(42, 10), float32] span=from_string:48:25 */ = add(%x_41, %x14) /* ty=Tensor[(42, 10), float32] span=from_string:47:15 */;
  let %x_43: Tensor[(42, 10), float32] /* ty=Tensor[(42, 10), float32] span=from_string:49:23 */ = multiply(%x_42, %x16) /* ty=Tensor[(42, 10), float32] span=from_string:48:16 */;
  let %x_44: Tensor[(1, 1, 420), float32] /* ty=Tensor[(1, 1, 420), float32] span=from_string:54:16 */ = reshape(%x_43, newshape=[1, 1, -1]) /* ty=Tensor[(1, 1, 420), float32] span=from_string:49:15 */;
  let %x_45: Tensor[(42, 10), float32] /* ty=Tensor[(42, 10), float32] span=from_string:51:19 */ = nn.dense(%x12, %x13, units=None) /* ty=Tensor[(42, 10), float32] span=from_string:50:15 */;
  let %x_46: Tensor[(42, 10), float32] /* ty=Tensor[(42, 10), float32] span=from_string:52:25 */ = add(%x_45, %x15) /* ty=Tensor[(42, 10), float32] span=from_string:51:15 */;
  let %x_47: Tensor[(42, 10), float32] /* ty=Tensor[(42, 10), float32] span=from_string:53:23 */ = multiply(%x_46, %x17) /* ty=Tensor[(42, 10), float32] span=from_string:52:16 */;
  let %x_48: Tensor[(1, 1, 420), float32] /* ty=Tensor[(1, 1, 420), float32] span=from_string:54:23 */ = reshape(%x_47, newshape=[1, 1, -1]) /* ty=Tensor[(1, 1, 420), float32] span=from_string:53:15 */;
  let %x_49: (Tensor[(1, 1, 420), float32], Tensor[(1, 1, 420), float32]) /* ty=(Tensor[(1, 1, 420), float32], Tensor[(1, 1, 420), float32]) span=from_string:55:58 */ = (%x_44, %x_48) /* ty=(Tensor[(1, 1, 420), float32], Tensor[(1, 1, 420), float32]) span=from_string:54:15 */;
  let %x_50: ((Tensor[(65, 10), float32], Tensor[(65, 10), float32]), (Tensor[(1, 1, 120), float32], Tensor[(1, 1, 240), float32]), (Tensor[(10, 24), float32], (Tensor[(10, 24), float32],)), Tensor[(1), float32], Tensor[(14, 65), float32], Tensor[(65, 10), bfloat16], (Tensor[(1, 1, 420), float32], Tensor[(1, 1, 420), float32])) /* ty=((Tensor[(65, 10), float32], Tensor[(65, 10), float32]), (Tensor[(1, 1, 120), float32], Tensor[(1, 1, 240), float32]), (Tensor[(10, 24), float32], (Tensor[(10, 24), float32],)), Tensor[(1), float32], Tensor[(14, 65), float32], Tensor[(65, 10), bfloat16], (Tensor[(1, 1, 420), float32], Tensor[(1, 1, 420), float32])) span=from_string:56:15 */ = (%x_16, %x_22, %x_31, %x_33, %x_38, %x_40, %x_49) /* ty=((Tensor[(65, 10), float32], Tensor[(65, 10), float32]), (Tensor[(1, 1, 120), float32], Tensor[(1, 1, 240), float32]), (Tensor[(10, 24), float32], (Tensor[(10, 24), float32],)), Tensor[(1), float32], Tensor[(14, 65), float32], Tensor[(65, 10), bfloat16], (Tensor[(1, 1, 420), float32], Tensor[(1, 1, 420), float32])) span=from_string:55:15 */;
  let %x_51: ((Tensor[(65, 10), float32], Tensor[(65, 10), float32]), (Tensor[(1, 1, 120), float32], Tensor[(1, 1, 240), float32]), (Tensor[(10, 24), float32], (Tensor[(10, 24), float32],)), Tensor[(1), float32], Tensor[(14, 65), float32], Tensor[(65, 10), bfloat16], (Tensor[(1, 1, 420), float32], Tensor[(1, 1, 420), float32])) /* ty=((Tensor[(65, 10), float32], Tensor[(65, 10), float32]), (Tensor[(1, 1, 120), float32], Tensor[(1, 1, 240), float32]), (Tensor[(10, 24), float32], (Tensor[(10, 24), float32],)), Tensor[(1), float32], Tensor[(14, 65), float32], Tensor[(65, 10), bfloat16], (Tensor[(1, 1, 420), float32], Tensor[(1, 1, 420), float32])) span=from_string:57:15 */ = %x_50;
  let %x_52: ((Tensor[(65, 10), float32], Tensor[(65, 10), float32]), (Tensor[(1, 1, 120), float32], Tensor[(1, 1, 240), float32]), (Tensor[(10, 24), float32], (Tensor[(10, 24), float32],)), Tensor[(1), float32], Tensor[(14, 65), float32], Tensor[(65, 10), bfloat16], (Tensor[(1, 1, 420), float32], Tensor[(1, 1, 420), float32])) /* ty=((Tensor[(65, 10), float32], Tensor[(65, 10), float32]), (Tensor[(1, 1, 120), float32], Tensor[(1, 1, 240), float32]), (Tensor[(10, 24), float32], (Tensor[(10, 24), float32],)), Tensor[(1), float32], Tensor[(14, 65), float32], Tensor[(65, 10), bfloat16], (Tensor[(1, 1, 420), float32], Tensor[(1, 1, 420), float32])) span=from_string:58:3 */ = %x_51;
  %x_52
}
