#[version = "0.0.5"]
def @main(%x0: Tensor[(10, 10), float32] /* ty=Tensor[(10, 10), float32] span=from_string:10:103 */, %x1: Tensor[(65, 10), float32] /* ty=Tensor[(65, 10), float32] span=from_string:22:104 */, %x2: Tensor[(10, 10), float32] /* ty=Tensor[(10, 10), float32] span=from_string:22:109 */, %x3: Tensor[(10), float32] /* ty=Tensor[(10), float32] span=from_string:18:109 */, %x4: Tensor[(10), float32] /* ty=Tensor[(10), float32] span=from_string:26:109 */, %x5: Tensor[(12, 10), float32] /* ty=Tensor[(12, 10), float32] span=from_string:51:112 */, %x6: Tensor[(12), float32] /* ty=Tensor[(12), float32] span=from_string:55:112 */, %x7: Tensor[(1), float32] /* ty=Tensor[(1), float32] span=from_string:59:112 */, %x8: Tensor[(24, 10), float32] /* ty=Tensor[(24, 10), float32] span=from_string:67:112 */, %x9: Tensor[(24), float32] /* ty=Tensor[(24), float32] span=from_string:71:112 */, %x10: Tensor[(1), float32] /* ty=Tensor[(1), float32] span=from_string:126:96 */, %x11: Tensor[(14, 30), float32] /* ty=Tensor[(14, 30), float32] span=from_string:130:218 */, %x12: Tensor[(42, 24), float32] /* ty=Tensor[(42, 24), float32] span=from_string:171:106 */, %x13: Tensor[(10, 24), float32] /* ty=Tensor[(10, 24), float32] span=from_string:171:112 */, %x14: Tensor[(10), float32] /* ty=Tensor[(10), float32] span=from_string:159:113 */, %x15: Tensor[(10), float32] /* ty=Tensor[(10), float32] span=from_string:175:113 */, %x16: Tensor[(1), float32] /* ty=Tensor[(1), float32] span=from_string:163:113 */, %x17: Tensor[(1), float32] /* ty=Tensor[(1), float32] span=from_string:179:113 */) -> ((Tensor[(65, 10), float32], Tensor[(65, 10), float32]), (Tensor[(1, 1, 120), float32], Tensor[(1, 1, 240), float32]), (Tensor[(10, 24), float32], (Tensor[(10, 24), float32],)), Tensor[(1), float32], Tensor[(14, 65), float32], Tensor[(65, 10), bfloat16], (Tensor[(1, 1, 420), float32], Tensor[(1, 1, 420), float32])) {
  %0 = fn (%p0: Tensor[(10, 10), float32] /* ty=Tensor[(10, 10), float32] */, Primitive=1) -> Tensor[(10, 10), float32] {
    zeros(shape=[10, 10], dtype="float32") /* ty=Tensor[(10, 10), float32] span=from_string:4:5 */
  } /* ty=fn (Tensor[(10, 10), float32]) -> Tensor[(10, 10), float32] span=from_string:6:100 */;
  %1 = %0(%x0) /* ty=Tensor[(10, 10), float32] span=from_string:6:100 */;
  %2 = fn (%p01: Tensor[(10, 10), float32] /* ty=Tensor[(10, 10), float32] span=from_string:8:9 */, %p1: Tensor[(10, 10), float32] /* ty=Tensor[(10, 10), float32] span=from_string:8:15 */, Primitive=1) -> Tensor[(10, 10), float32] {
    add(%p01, %p1) /* ty=Tensor[(10, 10), float32] span=from_string:8:5 */
  } /* ty=fn (Tensor[(10, 10), float32], Tensor[(10, 10), float32]) -> Tensor[(10, 10), float32] span=from_string:10:100 */;
  %3 = %2(%x0, %1) /* ty=Tensor[(10, 10), float32] span=from_string:10:100 */;
  %4 = fn (%p02: Tensor[(65, 10), float32] /* ty=Tensor[(65, 10), float32] span=from_string:12:14 */, %p11: Tensor[(10, 10), float32] /* ty=Tensor[(10, 10), float32] span=from_string:12:20 */, Primitive=1) -> Tensor[(65, 10), float32] {
    nn.dense(%p02, %p11, units=None) /* ty=Tensor[(65, 10), float32] span=from_string:12:5 */
  } /* ty=fn (Tensor[(65, 10), float32], Tensor[(10, 10), float32]) -> Tensor[(65, 10), float32] span=from_string:14:100 */;
  %5 = %4(%x1, %3) /* ty=Tensor[(65, 10), float32] span=from_string:14:100 */;
  %6 = fn (%p03: Tensor[(65, 10), float32] /* ty=Tensor[(65, 10), float32] span=from_string:16:9 */, %p12: Tensor[(10), float32] /* ty=Tensor[(10), float32] span=from_string:16:15 */, Primitive=1) -> Tensor[(65, 10), float32] {
    add(%p03, %p12) /* ty=Tensor[(65, 10), float32] span=from_string:16:5 */
  } /* ty=fn (Tensor[(65, 10), float32], Tensor[(10), float32]) -> Tensor[(65, 10), float32] span=from_string:18:100 */;
  %7 = fn (%p04: Tensor[(65, 10), float32] /* ty=Tensor[(65, 10), float32] span=from_string:20:14 */, %p13: Tensor[(10, 10), float32] /* ty=Tensor[(10, 10), float32] span=from_string:20:20 */, Primitive=1) -> Tensor[(65, 10), float32] {
    nn.dense(%p04, %p13, units=None) /* ty=Tensor[(65, 10), float32] span=from_string:20:5 */
  } /* ty=fn (Tensor[(65, 10), float32], Tensor[(10, 10), float32]) -> Tensor[(65, 10), float32] span=from_string:22:101 */;
  %8 = %7(%x1, %x2) /* ty=Tensor[(65, 10), float32] span=from_string:22:101 */;
  %9 = fn (%p05: Tensor[(65, 10), float32] /* ty=Tensor[(65, 10), float32] span=from_string:24:9 */, %p14: Tensor[(10), float32] /* ty=Tensor[(10), float32] span=from_string:24:15 */, Primitive=1) -> Tensor[(65, 10), float32] {
    add(%p05, %p14) /* ty=Tensor[(65, 10), float32] span=from_string:24:5 */
  } /* ty=fn (Tensor[(65, 10), float32], Tensor[(10), float32]) -> Tensor[(65, 10), float32] span=from_string:26:100 */;
  %10 = %6(%5, %x3) /* ty=Tensor[(65, 10), float32] span=from_string:18:100 */;
  %11 = %9(%8, %x4) /* ty=Tensor[(65, 10), float32] span=from_string:26:100 */;
  %12 = fn (%p06: Tensor[(10, 10), float32] /* ty=Tensor[(10, 10), float32] span=from_string:29:13 */, Primitive=1) -> Tensor[(10, 10), float32] {
    nn.relu(%p06) /* ty=Tensor[(10, 10), float32] span=from_string:29:5 */
  } /* ty=fn (Tensor[(10, 10), float32]) -> Tensor[(10, 10), float32] span=from_string:31:100 */;
  %13 = %12(%3) /* ty=Tensor[(10, 10), float32] span=from_string:31:100 */;
  %14 = fn (%p07: Tensor[(10, 10), float32] /* ty=Tensor[(10, 10), float32] span=from_string:33:9 */, %p15: float32 /* ty=float32 span=from_string:33:15 */, Primitive=1) -> Tensor[(10, 10), float32] {
    add(%p07, %p15) /* ty=Tensor[(10, 10), float32] span=from_string:33:5 */
  } /* ty=fn (Tensor[(10, 10), float32], float32) -> Tensor[(10, 10), float32] span=from_string:35:100 */;
  %15 = fn (%p08: Tensor[(10, 10), float32] /* ty=Tensor[(10, 10), float32] span=from_string:37:13 */, Primitive=1) -> Tensor[(10, 10), float32] {
    nn.relu(%p08) /* ty=Tensor[(10, 10), float32] span=from_string:37:5 */
  } /* ty=fn (Tensor[(10, 10), float32]) -> Tensor[(10, 10), float32] span=from_string:39:101 */;
  %16 = %15(%3) /* ty=Tensor[(10, 10), float32] span=from_string:39:101 */;
  %17 = fn (%p09: Tensor[(10, 10), float32] /* ty=Tensor[(10, 10), float32] span=from_string:41:9 */, %p16: float32 /* ty=float32 span=from_string:41:15 */, Primitive=1) -> Tensor[(10, 10), float32] {
    add(%p09, %p16) /* ty=Tensor[(10, 10), float32] span=from_string:41:5 */
  } /* ty=fn (Tensor[(10, 10), float32], float32) -> Tensor[(10, 10), float32] span=from_string:43:101 */;
  %18 = %14(%13, 1f /* ty=float32 span=from_string:35:111 */) /* ty=Tensor[(10, 10), float32] span=from_string:35:100 */;
  %19 = %17(%16, 1f /* ty=float32 span=from_string:43:113 */) /* ty=Tensor[(10, 10), float32] span=from_string:43:101 */;
  %20 = fn (%p010: Tensor[(10, 10), float32] /* ty=Tensor[(10, 10), float32] span=from_string:45:9 */, %p17: Tensor[(10, 10), float32] /* ty=Tensor[(10, 10), float32] span=from_string:45:16 */, Primitive=1) -> Tensor[(10, 10), float32] {
    add(%p010, %p17) /* ty=Tensor[(10, 10), float32] span=from_string:45:5 */
  } /* ty=fn (Tensor[(10, 10), float32], Tensor[(10, 10), float32]) -> Tensor[(10, 10), float32] span=from_string:47:101 */;
  %21 = %20(%18, %19) /* ty=Tensor[(10, 10), float32] span=from_string:47:101 */;
  %22 = fn (%p011: Tensor[(10, 10), float32] /* ty=Tensor[(10, 10), float32] span=from_string:49:14 */, %p18: Tensor[(12, 10), float32] /* ty=Tensor[(12, 10), float32] span=from_string:49:21 */, Primitive=1) -> Tensor[(10, 12), float32] {
    nn.dense(%p011, %p18, units=None) /* ty=Tensor[(10, 12), float32] span=from_string:49:5 */
  } /* ty=fn (Tensor[(10, 10), float32], Tensor[(12, 10), float32]) -> Tensor[(10, 12), float32] span=from_string:51:101 */;
  %23 = %22(%21, %x5) /* ty=Tensor[(10, 12), float32] span=from_string:51:101 */;
  %24 = fn (%p012: Tensor[(10, 12), float32] /* ty=Tensor[(10, 12), float32] span=from_string:53:9 */, %p19: Tensor[(12), float32] /* ty=Tensor[(12), float32] span=from_string:53:16 */, Primitive=1) -> Tensor[(10, 12), float32] {
    add(%p012, %p19) /* ty=Tensor[(10, 12), float32] span=from_string:53:5 */
  } /* ty=fn (Tensor[(10, 12), float32], Tensor[(12), float32]) -> Tensor[(10, 12), float32] span=from_string:55:101 */;
  %25 = %24(%23, %x6) /* ty=Tensor[(10, 12), float32] span=from_string:55:101 */;
  %26 = fn (%p013: Tensor[(10, 12), float32] /* ty=Tensor[(10, 12), float32] span=from_string:57:15 */, %p110: Tensor[(1), float32] /* ty=Tensor[(1), float32] span=from_string:57:22 */, Primitive=1) -> Tensor[(10, 12), float32] {
    multiply(%p013, %p110) /* ty=Tensor[(10, 12), float32] span=from_string:57:6 */
  } /* ty=fn (Tensor[(10, 12), float32], Tensor[(1), float32]) -> Tensor[(10, 12), float32] span=from_string:59:101 */;
  %27 = %26(%25, %x7) /* ty=Tensor[(10, 12), float32] span=from_string:59:101 */;
  %28 = fn (%p014: Tensor[(10, 12), float32] /* ty=Tensor[(10, 12), float32] span=from_string:61:13 */, Primitive=1, relay.reshape_only=1) -> Tensor[(1, 1, 120), float32] {
    reshape(%p014, newshape=[1, 1, 120]) /* ty=Tensor[(1, 1, 120), float32] span=from_string:61:5 */
  } /* ty=fn (Tensor[(10, 12), float32]) -> Tensor[(1, 1, 120), float32] span=from_string:63:107 */;
  %29 = fn (%p015: Tensor[(10, 10), float32] /* ty=Tensor[(10, 10), float32] span=from_string:65:14 */, %p111: Tensor[(24, 10), float32] /* ty=Tensor[(24, 10), float32] span=from_string:65:21 */, Primitive=1) -> Tensor[(10, 24), float32] {
    nn.dense(%p015, %p111, units=None) /* ty=Tensor[(10, 24), float32] span=from_string:65:5 */
  } /* ty=fn (Tensor[(10, 10), float32], Tensor[(24, 10), float32]) -> Tensor[(10, 24), float32] span=from_string:67:101 */;
  %30 = %29(%21, %x8) /* ty=Tensor[(10, 24), float32] span=from_string:67:101 */;
  %31 = fn (%p016: Tensor[(10, 24), float32] /* ty=Tensor[(10, 24), float32] span=from_string:69:9 */, %p112: Tensor[(24), float32] /* ty=Tensor[(24), float32] span=from_string:69:16 */, Primitive=1) -> Tensor[(10, 24), float32] {
    add(%p016, %p112) /* ty=Tensor[(10, 24), float32] span=from_string:69:5 */
  } /* ty=fn (Tensor[(10, 24), float32], Tensor[(24), float32]) -> Tensor[(10, 24), float32] span=from_string:71:101 */;
  %32 = %31(%30, %x9) /* ty=Tensor[(10, 24), float32] span=from_string:71:101 */;
  %33 = fn (%p017: Tensor[(10, 24), float32] /* ty=Tensor[(10, 24), float32] span=from_string:73:15 */, %p113: Tensor[(1), float32] /* ty=Tensor[(1), float32] span=from_string:73:22 */, Primitive=1) -> Tensor[(10, 24), float32] {
    multiply(%p017, %p113) /* ty=Tensor[(10, 24), float32] span=from_string:73:6 */
  } /* ty=fn (Tensor[(10, 24), float32], Tensor[(1), float32]) -> Tensor[(10, 24), float32] span=from_string:75:102 */;
  %34 = %33(%32, %x10) /* ty=Tensor[(10, 24), float32] span=from_string:75:102 */;
  %35 = fn (%p018: Tensor[(10, 24), float32] /* ty=Tensor[(10, 24), float32] span=from_string:77:13 */, Primitive=1, relay.reshape_only=1) -> Tensor[(1, 1, 240), float32] {
    reshape(%p018, newshape=[1, 1, 240]) /* ty=Tensor[(1, 1, 240), float32] span=from_string:77:5 */
  } /* ty=fn (Tensor[(10, 24), float32]) -> Tensor[(1, 1, 240), float32] span=from_string:79:107 */;
  %36 = %28(%27) /* ty=Tensor[(1, 1, 120), float32] span=from_string:63:107 */;
  %37 = %35(%34) /* ty=Tensor[(1, 1, 240), float32] span=from_string:79:107 */;
  %38 = fn (%p019: Tensor[(10, 24), float32] /* ty=Tensor[(10, 24), float32] span=from_string:82:22 */, Primitive=1) -> Tensor[(10, 24), float32] {
    multiply(%p019, %p019) /* ty=Tensor[(10, 24), float32] span=from_string:82:6 */
  } /* ty=fn (Tensor[(10, 24), float32]) -> Tensor[(10, 24), float32] span=from_string:84:102 */;
  %39 = fn (%p020: Tensor[(10, 24), float32] /* ty=Tensor[(10, 24), float32] */, Primitive=1) -> Tensor[(10, 24), float32] {
    zeros(shape=[10, 24], dtype="float32") /* ty=Tensor[(10, 24), float32] span=from_string:86:5 */
  } /* ty=fn (Tensor[(10, 24), float32]) -> Tensor[(10, 24), float32] span=from_string:88:102 */;
  %40 = %38(%34) /* ty=Tensor[(10, 24), float32] span=from_string:84:102 */;
  %41 = fn (%p021: Tensor[(10, 24), float32] /* ty=Tensor[(10, 24), float32] */, Primitive=1) -> Tensor[(10, 24), float32] {
    ones(shape=[10, 24], dtype="float32") /* ty=Tensor[(10, 24), float32] span=from_string:90:5 */
  } /* ty=fn (Tensor[(10, 24), float32]) -> Tensor[(10, 24), float32] span=from_string:92:102 */;
  %42 = %41(%40) /* ty=Tensor[(10, 24), float32] span=from_string:92:102 */;
  %43 = fn (%p022: Tensor[(10, 24), float32] /* ty=Tensor[(10, 24), float32] span=from_string:94:15 */, %p114: Tensor[(10, 24), float32] /* ty=Tensor[(10, 24), float32] span=from_string:94:22 */, Primitive=1) -> Tensor[(10, 24), float32] {
    multiply(%p022, %p114) /* ty=Tensor[(10, 24), float32] span=from_string:94:6 */
  } /* ty=fn (Tensor[(10, 24), float32], Tensor[(10, 24), float32]) -> Tensor[(10, 24), float32] span=from_string:96:102 */;
  %44 = %43(%42, %34) /* ty=Tensor[(10, 24), float32] span=from_string:96:102 */;
  %45 = fn (%p023: Tensor[(10, 24), float32] /* ty=Tensor[(10, 24), float32] span=from_string:98:21 */, %p115: Tensor[(10, 24), float32] /* ty=Tensor[(10, 24), float32] */, Primitive=1) -> Tensor[(10, 24), float32] {
    collapse_sum_to(%p023, meta[relay.Constant][0] /* ty=Tensor[(2), int32] span=from_string:98:33 */, meta[relay.attrs.InitOpAttrs][0]) /* ty=Tensor[(10, 24), float32] span=from_string:98:5 */
  } /* ty=fn (Tensor[(10, 24), float32], Tensor[(10, 24), float32]) -> Tensor[(10, 24), float32] span=from_string:100:102 */;
  %46 = %39(%34) /* ty=Tensor[(10, 24), float32] span=from_string:88:102 */;
  %47 = %45(%44, %34) /* ty=Tensor[(10, 24), float32] span=from_string:100:102 */;
  %48 = fn (%p024: Tensor[(10, 24), float32] /* ty=Tensor[(10, 24), float32] span=from_string:102:9 */, %p116: Tensor[(10, 24), float32] /* ty=Tensor[(10, 24), float32] span=from_string:102:16 */, Primitive=1) -> Tensor[(10, 24), float32] {
    add(%p024, %p116) /* ty=Tensor[(10, 24), float32] span=from_string:102:5 */
  } /* ty=fn (Tensor[(10, 24), float32], Tensor[(10, 24), float32]) -> Tensor[(10, 24), float32] span=from_string:104:102 */;
  %49 = fn (%p025: Tensor[(10, 24), float32] /* ty=Tensor[(10, 24), float32] span=from_string:106:15 */, %p117: Tensor[(10, 24), float32] /* ty=Tensor[(10, 24), float32] span=from_string:106:22 */, Primitive=1) -> Tensor[(10, 24), float32] {
    multiply(%p025, %p117) /* ty=Tensor[(10, 24), float32] span=from_string:106:6 */
  } /* ty=fn (Tensor[(10, 24), float32], Tensor[(10, 24), float32]) -> Tensor[(10, 24), float32] span=from_string:108:102 */;
  %50 = %49(%42, %34) /* ty=Tensor[(10, 24), float32] span=from_string:108:102 */;
  %51 = fn (%p026: Tensor[(10, 24), float32] /* ty=Tensor[(10, 24), float32] span=from_string:110:21 */, %p118: Tensor[(10, 24), float32] /* ty=Tensor[(10, 24), float32] */, Primitive=1) -> Tensor[(10, 24), float32] {
    collapse_sum_to(%p026, meta[relay.Constant][1] /* ty=Tensor[(2), int32] span=from_string:110:33 */, meta[relay.attrs.InitOpAttrs][1]) /* ty=Tensor[(10, 24), float32] span=from_string:110:5 */
  } /* ty=fn (Tensor[(10, 24), float32], Tensor[(10, 24), float32]) -> Tensor[(10, 24), float32] span=from_string:112:102 */;
  %52 = %48(%46, %47) /* ty=Tensor[(10, 24), float32] span=from_string:104:102 */;
  %53 = %51(%50, %34) /* ty=Tensor[(10, 24), float32] span=from_string:112:102 */;
  %54 = fn (%p027: Tensor[(10, 24), float32] /* ty=Tensor[(10, 24), float32] span=from_string:114:9 */, %p119: Tensor[(10, 24), float32] /* ty=Tensor[(10, 24), float32] span=from_string:114:16 */, Primitive=1) -> Tensor[(10, 24), float32] {
    add(%p027, %p119) /* ty=Tensor[(10, 24), float32] span=from_string:114:5 */
  } /* ty=fn (Tensor[(10, 24), float32], Tensor[(10, 24), float32]) -> Tensor[(10, 24), float32] span=from_string:116:102 */;
  %55 = %54(%52, %53) /* ty=Tensor[(10, 24), float32] span=from_string:116:102 */;
  %56 = (%55,) /* ty=(Tensor[(10, 24), float32],) span=from_string:117:108 */;
  %57 = fn (Primitive=1) -> Tensor[(1), float32] {
    ones(shape=[1], dtype="float32") /* ty=Tensor[(1), float32] span=from_string:120:5 */
  } /* ty=fn () -> Tensor[(1), float32] span=from_string:122:92 */;
  %58 = %57() /* ty=Tensor[(1), float32] span=from_string:122:92 */;
  %59 = fn (%p028: Tensor[(1), float32] /* ty=Tensor[(1), float32] span=from_string:124:9 */, %p120: Tensor[(1), float32] /* ty=Tensor[(1), float32] span=from_string:124:16 */, Primitive=1) -> Tensor[(1), float32] {
    add(%p028, %p120) /* ty=Tensor[(1), float32] span=from_string:124:5 */
  } /* ty=fn (Tensor[(1), float32], Tensor[(1), float32]) -> Tensor[(1), float32] span=from_string:126:92 */;
  %60 = fn (%p029: Tensor[(14, 30), float32] /* ty=Tensor[(14, 30), float32] span=from_string:128:11 */, Primitive=1) -> (Tensor[(14, 10), float32], Tensor[(14, 10), float32], Tensor[(14, 10), float32]) {
    split(%p029, indices_or_sections=3, axis=1) /* ty=(Tensor[(14, 10), float32], Tensor[(14, 10), float32], Tensor[(14, 10), float32]) span=from_string:128:5 */
  } /* ty=fn (Tensor[(14, 30), float32]) -> (Tensor[(14, 10), float32], Tensor[(14, 10), float32], Tensor[(14, 10), float32]) span=from_string:130:214 */;
  %61 = %60(%x11) /* ty=(Tensor[(14, 10), float32], Tensor[(14, 10), float32], Tensor[(14, 10), float32]) span=from_string:130:214 */;
  %62 = fn (%p030: Tensor[(65, 10), float32] /* ty=Tensor[(65, 10), float32] */, Primitive=1) -> Tensor[(65, 10), float32] {
    ones(shape=[65, 10], dtype="float32") /* ty=Tensor[(65, 10), float32] span=from_string:133:5 */
  } /* ty=fn (Tensor[(65, 10), float32]) -> Tensor[(65, 10), float32] span=from_string:135:102 */;
  %63 = %62(%8) /* ty=Tensor[(65, 10), float32] span=from_string:135:102 */;
  %64 = fn (%p031: Tensor[(65, 10), float32] /* ty=Tensor[(65, 10), float32] span=from_string:137:9 */, %p121: Tensor[(65, 10), float32] /* ty=Tensor[(65, 10), float32] span=from_string:137:16 */, Primitive=1) -> Tensor[(65, 10), float32] {
    add(%p031, %p121) /* ty=Tensor[(65, 10), float32] span=from_string:137:5 */
  } /* ty=fn (Tensor[(65, 10), float32], Tensor[(65, 10), float32]) -> Tensor[(65, 10), float32] span=from_string:139:102 */;
  %65 = %61.0 /* ty=Tensor[(14, 10), float32] span=from_string:131:102 */;
  %66 = %64(%8, %63) /* ty=Tensor[(65, 10), float32] span=from_string:139:102 */;
  %67 = fn (%p032: Tensor[(14, 10), float32] /* ty=Tensor[(14, 10), float32] span=from_string:141:14 */, %p122: Tensor[(65, 10), float32] /* ty=Tensor[(65, 10), float32] span=from_string:141:21 */, Primitive=1) -> Tensor[(14, 65), float32] {
    nn.dense(%p032, %p122, units=None) /* ty=Tensor[(14, 65), float32] span=from_string:141:5 */
  } /* ty=fn (Tensor[(14, 10), float32], Tensor[(65, 10), float32]) -> Tensor[(14, 65), float32] span=from_string:143:102 */;
  %68 = fn (%p033: Tensor[(65, 10), float32] /* ty=Tensor[(65, 10), float32] span=from_string:145:10 */, Primitive=1) -> Tensor[(65, 10), bfloat16] {
    cast(%p033, dtype="bfloat16") /* ty=Tensor[(65, 10), bfloat16] span=from_string:145:5 */
  } /* ty=fn (Tensor[(65, 10), float32]) -> Tensor[(65, 10), bfloat16] span=from_string:147:104 */;
  %69 = %68(%66) /* ty=Tensor[(65, 10), bfloat16] span=from_string:147:104 */;
  %70 = fn (%p034: Tensor[(65, 10), bfloat16] /* ty=Tensor[(65, 10), bfloat16] span=from_string:149:10 */, Primitive=1) -> Tensor[(65, 10), bfloat16] {
    clip(%p034, a_min=-0.2f, a_max=0.4f) /* ty=Tensor[(65, 10), bfloat16] span=from_string:149:5 */
  } /* ty=fn (Tensor[(65, 10), bfloat16]) -> Tensor[(65, 10), bfloat16] span=from_string:151:104 */;
  %71 = fn (%p035: Tensor[(42, 24), float32] /* ty=Tensor[(42, 24), float32] span=from_string:153:14 */, %p123: Tensor[(10, 24), float32] /* ty=Tensor[(10, 24), float32] span=from_string:153:21 */, Primitive=1) -> Tensor[(42, 10), float32] {
    nn.dense(%p035, %p123, units=None) /* ty=Tensor[(42, 10), float32] span=from_string:153:5 */
  } /* ty=fn (Tensor[(42, 24), float32], Tensor[(10, 24), float32]) -> Tensor[(42, 10), float32] span=from_string:155:102 */;
  %72 = %71(%x12, %44) /* ty=Tensor[(42, 10), float32] span=from_string:155:102 */;
  %73 = fn (%p036: Tensor[(42, 10), float32] /* ty=Tensor[(42, 10), float32] span=from_string:157:9 */, %p124: Tensor[(10), float32] /* ty=Tensor[(10), float32] span=from_string:157:16 */, Primitive=1) -> Tensor[(42, 10), float32] {
    add(%p036, %p124) /* ty=Tensor[(42, 10), float32] span=from_string:157:5 */
  } /* ty=fn (Tensor[(42, 10), float32], Tensor[(10), float32]) -> Tensor[(42, 10), float32] span=from_string:159:102 */;
  %74 = %73(%72, %x14) /* ty=Tensor[(42, 10), float32] span=from_string:159:102 */;
  %75 = fn (%p037: Tensor[(42, 10), float32] /* ty=Tensor[(42, 10), float32] span=from_string:161:15 */, %p125: Tensor[(1), float32] /* ty=Tensor[(1), float32] span=from_string:161:22 */, Primitive=1) -> Tensor[(42, 10), float32] {
    multiply(%p037, %p125) /* ty=Tensor[(42, 10), float32] span=from_string:161:6 */
  } /* ty=fn (Tensor[(42, 10), float32], Tensor[(1), float32]) -> Tensor[(42, 10), float32] span=from_string:163:102 */;
  %76 = %75(%74, %x16) /* ty=Tensor[(42, 10), float32] span=from_string:163:102 */;
  %77 = fn (%p038: Tensor[(42, 10), float32] /* ty=Tensor[(42, 10), float32] span=from_string:165:13 */, Primitive=1, relay.reshape_only=1) -> Tensor[(1, 1, 420), float32] {
    reshape(%p038, newshape=[1, 1, -1]) /* ty=Tensor[(1, 1, 420), float32] span=from_string:165:5 */
  } /* ty=fn (Tensor[(42, 10), float32]) -> Tensor[(1, 1, 420), float32] span=from_string:167:108 */;
  %78 = fn (%p039: Tensor[(42, 24), float32] /* ty=Tensor[(42, 24), float32] span=from_string:169:14 */, %p126: Tensor[(10, 24), float32] /* ty=Tensor[(10, 24), float32] span=from_string:169:21 */, Primitive=1) -> Tensor[(42, 10), float32] {
    nn.dense(%p039, %p126, units=None) /* ty=Tensor[(42, 10), float32] span=from_string:169:5 */
  } /* ty=fn (Tensor[(42, 24), float32], Tensor[(10, 24), float32]) -> Tensor[(42, 10), float32] span=from_string:171:102 */;
  %79 = %78(%x12, %x13) /* ty=Tensor[(42, 10), float32] span=from_string:171:102 */;
  %80 = fn (%p040: Tensor[(42, 10), float32] /* ty=Tensor[(42, 10), float32] span=from_string:173:9 */, %p127: Tensor[(10), float32] /* ty=Tensor[(10), float32] span=from_string:173:16 */, Primitive=1) -> Tensor[(42, 10), float32] {
    add(%p040, %p127) /* ty=Tensor[(42, 10), float32] span=from_string:173:5 */
  } /* ty=fn (Tensor[(42, 10), float32], Tensor[(10), float32]) -> Tensor[(42, 10), float32] span=from_string:175:102 */;
  %81 = %80(%79, %x15) /* ty=Tensor[(42, 10), float32] span=from_string:175:102 */;
  %82 = fn (%p041: Tensor[(42, 10), float32] /* ty=Tensor[(42, 10), float32] span=from_string:177:15 */, %p128: Tensor[(1), float32] /* ty=Tensor[(1), float32] span=from_string:177:22 */, Primitive=1) -> Tensor[(42, 10), float32] {
    multiply(%p041, %p128) /* ty=Tensor[(42, 10), float32] span=from_string:177:6 */
  } /* ty=fn (Tensor[(42, 10), float32], Tensor[(1), float32]) -> Tensor[(42, 10), float32] span=from_string:179:102 */;
  %83 = %82(%81, %x17) /* ty=Tensor[(42, 10), float32] span=from_string:179:102 */;
  %84 = fn (%p042: Tensor[(42, 10), float32] /* ty=Tensor[(42, 10), float32] span=from_string:181:13 */, Primitive=1, relay.reshape_only=1) -> Tensor[(1, 1, 420), float32] {
    reshape(%p042, newshape=[1, 1, -1]) /* ty=Tensor[(1, 1, 420), float32] span=from_string:181:5 */
  } /* ty=fn (Tensor[(42, 10), float32]) -> Tensor[(1, 1, 420), float32] span=from_string:183:108 */;
  %85 = %77(%76) /* ty=Tensor[(1, 1, 420), float32] span=from_string:167:108 */;
  %86 = %84(%83) /* ty=Tensor[(1, 1, 420), float32] span=from_string:183:108 */;
  %87 = (%10, %11) /* ty=(Tensor[(65, 10), float32], Tensor[(65, 10), float32]) span=from_string:27:159 */;
  %88 = (%36, %37) /* ty=(Tensor[(1, 1, 120), float32], Tensor[(1, 1, 240), float32]) span=from_string:80:172 */;
  %89 = (%40, %56) /* ty=(Tensor[(10, 24), float32], (Tensor[(10, 24), float32],)) span=from_string:118:166 */;
  %90 = %59(%x10, %58) /* ty=Tensor[(1), float32] span=from_string:126:92 */;
  %91 = %67(%65, %66) /* ty=Tensor[(14, 65), float32] span=from_string:143:102 */;
  %92 = %70(%69) /* ty=Tensor[(65, 10), bfloat16] span=from_string:151:104 */;
  %93 = (%85, %86) /* ty=(Tensor[(1, 1, 420), float32], Tensor[(1, 1, 420), float32]) span=from_string:184:172 */;
  (%87, %88, %89, %90, %91, %92, %93) /* ty=((Tensor[(65, 10), float32], Tensor[(65, 10), float32]), (Tensor[(1, 1, 120), float32], Tensor[(1, 1, 240), float32]), (Tensor[(10, 24), float32], (Tensor[(10, 24), float32],)), Tensor[(1), float32], Tensor[(14, 65), float32], Tensor[(65, 10), bfloat16], (Tensor[(1, 1, 420), float32], Tensor[(1, 1, 420), float32])) span=from_string:185:684 */
}

#[metadata]
{
  "root": 1, 
  "nodes": [
    {
      "type_key": ""
    }, 
    {
      "type_key": "Map", 
      "keys": [
        "relay.attrs.InitOpAttrs", 
        "relay.Constant"
      ], 
      "data": [2, 9]
    }, 
    {
      "type_key": "Array", 
      "data": [3, 7]
    }, 
    {
      "type_key": "relay.attrs.InitOpAttrs", 
      "attrs": {
        "dtype": "", 
        "shape": "4"
      }
    }, 
    {
      "type_key": "Array", 
      "data": [5, 6]
    }, 
    {
      "type_key": "IntImm", 
      "attrs": {
        "dtype": "int32", 
        "span": "0", 
        "value": "10"
      }
    }, 
    {
      "type_key": "IntImm", 
      "attrs": {
        "dtype": "int32", 
        "span": "0", 
        "value": "24"
      }
    }, 
    {
      "type_key": "relay.attrs.InitOpAttrs", 
      "attrs": {
        "dtype": "", 
        "shape": "8"
      }
    }, 
    {
      "type_key": "Array", 
      "data": [5, 6]
    }, 
    {
      "type_key": "Array", 
      "data": [10, 18]
    }, 
    {
      "type_key": "relay.Constant", 
      "attrs": {
        "_checked_type_": "15", 
        "data": "0", 
        "span": "13", 
        "virtual_device_": "11"
      }
    }, 
    {
      "type_key": "VirtualDevice", 
      "attrs": {
        "device_type_int": "-1", 
        "memory_scope": "12", 
        "target": "0", 
        "virtual_device_id": "-1"
      }
    }, 
    {
      "type_key": "runtime.String"
    }, 
    {
      "type_key": "Span", 
      "attrs": {
        "column": "33", 
        "end_column": "51", 
        "end_line": "98", 
        "line": "98", 
        "source_name": "14"
      }
    }, 
    {
      "type_key": "SourceName", 
      "repr_str": "from_string"
    }, 
    {
      "type_key": "relay.TensorType", 
      "attrs": {
        "dtype": "int32", 
        "shape": "16", 
        "span": "0"
      }
    }, 
    {
      "type_key": "Array", 
      "data": [17]
    }, 
    {
      "type_key": "IntImm", 
      "attrs": {
        "dtype": "int32", 
        "span": "0", 
        "value": "2"
      }
    }, 
    {
      "type_key": "relay.Constant", 
      "attrs": {
        "_checked_type_": "20", 
        "data": "1", 
        "span": "19", 
        "virtual_device_": "11"
      }
    }, 
    {
      "type_key": "Span", 
      "attrs": {
        "column": "33", 
        "end_column": "51", 
        "end_line": "110", 
        "line": "110", 
        "source_name": "14"
      }
    }, 
    {
      "type_key": "relay.TensorType", 
      "attrs": {
        "dtype": "int32", 
        "shape": "21", 
        "span": "0"
      }
    }, 
    {
      "type_key": "Array", 
      "data": [22]
    }, 
    {
      "type_key": "IntImm", 
      "attrs": {
        "dtype": "int32", 
        "span": "0", 
        "value": "2"
      }
    }
  ], 
  "b64ndarrays": [
    "P6G0lvBAXt0AAAAAAAAAAAEAAAAAAAAAAQAAAAAgAQACAAAAAAAAAAgAAAAAAAAACgAAABgAAAA=", 
    "P6G0lvBAXt0AAAAAAAAAAAEAAAAAAAAAAQAAAAAgAQACAAAAAAAAAAgAAAAAAAAACgAAABgAAAA="
  ], 
  "attrs": {"tvm_version": "0.13.0"}
}