#[version = "0.0.5"]
def @main(%x0: Tensor[(10, 10), float32] /* ty=Tensor[(10, 10), float32] span=from_string:6:11 */, %x1: Tensor[(65, 10), float32] /* ty=Tensor[(65, 10), float32] span=from_string:18:11 */, %x2: Tensor[(10, 10), float32] /* ty=Tensor[(10, 10), float32] span=from_string:31:12 */, %x3: Tensor[(10), float32] /* ty=Tensor[(10), float32] span=from_string:27:103 */, %x4: Tensor[(10), float32] /* ty=Tensor[(10), float32] span=from_string:40:104 */, %x5: Tensor[(12, 10), float32] /* ty=Tensor[(12, 10), float32] span=from_string:69:13 */, %x6: Tensor[(12), float32] /* ty=Tensor[(12), float32] span=from_string:78:105 */, %x7: Tensor[(1), float32] /* ty=Tensor[(1), float32] span=from_string:83:105 */, %x8: Tensor[(24, 10), float32] /* ty=Tensor[(24, 10), float32] span=from_string:91:13 */, %x9: Tensor[(24), float32] /* ty=Tensor[(24), float32] span=from_string:100:105 */, %x10: Tensor[(1), float32] /* ty=Tensor[(1), float32] span=from_string:104:13 */, %x11: Tensor[(14, 30), float32] /* ty=Tensor[(14, 30), float32] span=from_string:164:217 */, %x12: Tensor[(42, 24), float32] /* ty=Tensor[(42, 24), float32] span=from_string:190:13 */, %x13: Tensor[(10, 24), float32] /* ty=Tensor[(10, 24), float32] span=from_string:212:13 */, %x14: Tensor[(10), float32] /* ty=Tensor[(10), float32] span=from_string:199:105 */, %x15: Tensor[(10), float32] /* ty=Tensor[(10), float32] span=from_string:221:105 */, %x16: Tensor[(1), float32] /* ty=Tensor[(1), float32] span=from_string:204:105 */, %x17: Tensor[(1), float32] /* ty=Tensor[(1), float32] span=from_string:226:105 */) -> ((Tensor[(65, 10), float16], Tensor[(65, 10), float16]), (Tensor[(1, 1, 120), float16], Tensor[(1, 1, 240), float16]), (Tensor[(10, 24), float16], (Tensor[(10, 24), float16],)), Tensor[(1), float16], Tensor[(14, 65), float16], Tensor[(65, 10), float16], (Tensor[(1, 1, 420), float16], Tensor[(1, 1, 420), float16])) {
  %0 = fn (%p01: Tensor[(10, 10), float32] /* ty=Tensor[(10, 10), float32] span=from_string:4:10 */, Primitive=1) -> Tensor[(10, 10), float16] {
    cast(%p01, dtype="float16") /* ty=Tensor[(10, 10), float16] span=from_string:4:5 */
  } /* ty=fn (Tensor[(10, 10), float32]) -> Tensor[(10, 10), float16] span=from_string:6:8 */;
  %1 = %0(%x0) /* ty=Tensor[(10, 10), float16] span=from_string:14:103 */;
  %2 = fn (%p0: Tensor[(10, 10), float16] /* ty=Tensor[(10, 10), float16] span=from_string:8:16 */, Primitive=1) -> Tensor[(10, 10), float16] {
    zeros_like(%p0) /* ty=Tensor[(10, 10), float16] span=from_string:8:5 */
  } /* ty=fn (Tensor[(10, 10), float16]) -> Tensor[(10, 10), float16] span=from_string:10:99 */;
  let %x_0: Tensor[(10, 10), float16] /* ty=Tensor[(10, 10), float16] span=from_string:14:107 */ = %2(%1) /* ty=Tensor[(10, 10), float16] span=from_string:10:99 */;
  %3 = fn (%p02: Tensor[(10, 10), float16] /* ty=Tensor[(10, 10), float16] span=from_string:12:9 */, %p1: Tensor[(10, 10), float16] /* ty=Tensor[(10, 10), float16] span=from_string:12:15 */, Primitive=1) -> Tensor[(10, 10), float16] {
    add(%p02, %p1) /* ty=Tensor[(10, 10), float16] span=from_string:12:5 */
  } /* ty=fn (Tensor[(10, 10), float16], Tensor[(10, 10), float16]) -> Tensor[(10, 10), float16] span=from_string:14:100 */;
  let %x_1: Tensor[(10, 10), float16] /* ty=Tensor[(10, 10), float16] span=from_string:55:105 */ = %3(%1, %x_0) /* ty=Tensor[(10, 10), float16] span=from_string:14:100 */;
  %4 = fn (%p04: Tensor[(65, 10), float32] /* ty=Tensor[(65, 10), float32] span=from_string:16:10 */, Primitive=1) -> Tensor[(65, 10), float16] {
    cast(%p04, dtype="float16") /* ty=Tensor[(65, 10), float16] span=from_string:16:5 */
  } /* ty=fn (Tensor[(65, 10), float32]) -> Tensor[(65, 10), float16] span=from_string:18:8 */;
  %5 = %4(%x1) /* ty=Tensor[(65, 10), float16] span=from_string:35:104 */;
  %6 = fn (%p03: Tensor[(65, 10), float16] /* ty=Tensor[(65, 10), float16] span=from_string:20:14 */, %p11: Tensor[(10, 10), float16] /* ty=Tensor[(10, 10), float16] span=from_string:20:20 */, Primitive=1) -> Tensor[(65, 10), float16] {
    nn.dense(%p03, %p11, units=None, out_dtype="float16") /* ty=Tensor[(65, 10), float16] span=from_string:20:5 */
  } /* ty=fn (Tensor[(65, 10), float16], Tensor[(10, 10), float16]) -> Tensor[(65, 10), float16] span=from_string:22:99 */;
  let %x_2: Tensor[(65, 10), float16] /* ty=Tensor[(65, 10), float16] span=from_string:27:108 */ = %6(%5, %x_1) /* ty=Tensor[(65, 10), float16] span=from_string:22:99 */;
  %8 = fn (%p05: Tensor[(10), float32] /* ty=Tensor[(10), float32] span=from_string:24:15 */, %p12: Tensor[(65, 10), float16] /* ty=Tensor[(65, 10), float16] span=from_string:25:9 */, Primitive=1) -> Tensor[(65, 10), float16] {
    %7 = cast(%p05, dtype="float16") /* ty=Tensor[(10), float16] span=from_string:25:15 */;
    add(%p12, %7) /* ty=Tensor[(65, 10), float16] span=from_string:24:5 */
  } /* ty=fn (Tensor[(10), float32], Tensor[(65, 10), float16]) -> Tensor[(65, 10), float16] span=from_string:27:100 */;
  let %x_3: Tensor[(65, 10), float16] /* ty=Tensor[(65, 10), float16] span=from_string:41:159 */ = %8(%x3, %x_2) /* ty=Tensor[(65, 10), float16] span=from_string:27:100 */;
  %9 = fn (%p07: Tensor[(10, 10), float32] /* ty=Tensor[(10, 10), float32] span=from_string:29:10 */, Primitive=1) -> Tensor[(10, 10), float16] {
    cast(%p07, dtype="float16") /* ty=Tensor[(10, 10), float16] span=from_string:29:5 */
  } /* ty=fn (Tensor[(10, 10), float32]) -> Tensor[(10, 10), float16] span=from_string:31:9 */;
  %10 = %9(%x2) /* ty=Tensor[(10, 10), float16] span=from_string:35:108 */;
  %11 = fn (%p06: Tensor[(65, 10), float16] /* ty=Tensor[(65, 10), float16] span=from_string:33:14 */, %p13: Tensor[(10, 10), float16] /* ty=Tensor[(10, 10), float16] span=from_string:33:20 */, Primitive=1) -> Tensor[(65, 10), float16] {
    nn.dense(%p06, %p13, units=None, out_dtype="float16") /* ty=Tensor[(65, 10), float16] span=from_string:33:5 */
  } /* ty=fn (Tensor[(65, 10), float16], Tensor[(10, 10), float16]) -> Tensor[(65, 10), float16] span=from_string:35:100 */;
  let %x_4: Tensor[(65, 10), float16] /* ty=Tensor[(65, 10), float16] span=from_string:173:105 */ = %11(%5, %10) /* ty=Tensor[(65, 10), float16] span=from_string:35:100 */;
  %13 = fn (%p08: Tensor[(10), float32] /* ty=Tensor[(10), float32] span=from_string:37:16 */, %p14: Tensor[(65, 10), float16] /* ty=Tensor[(65, 10), float16] span=from_string:38:9 */, Primitive=1) -> Tensor[(65, 10), float16] {
    %12 = cast(%p08, dtype="float16") /* ty=Tensor[(10), float16] span=from_string:38:15 */;
    add(%p14, %12) /* ty=Tensor[(65, 10), float16] span=from_string:37:5 */
  } /* ty=fn (Tensor[(10), float32], Tensor[(65, 10), float16]) -> Tensor[(65, 10), float16] span=from_string:40:100 */;
  let %x_5: Tensor[(65, 10), float16] /* ty=Tensor[(65, 10), float16] span=from_string:41:165 */ = %13(%x4, %x_4) /* ty=Tensor[(65, 10), float16] span=from_string:40:100 */;
  let %x_6: (Tensor[(65, 10), float16], Tensor[(65, 10), float16]) /* ty=(Tensor[(65, 10), float16], Tensor[(65, 10), float16]) span=from_string:232:682 */ = (%x_3, %x_5) /* ty=(Tensor[(65, 10), float16], Tensor[(65, 10), float16]) span=from_string:41:158 */;
  %14 = fn (%p09: Tensor[(10, 10), float16] /* ty=Tensor[(10, 10), float16] span=from_string:43:13 */, Primitive=1) -> Tensor[(10, 10), float16] {
    nn.relu(%p09) /* ty=Tensor[(10, 10), float16] span=from_string:43:5 */
  } /* ty=fn (Tensor[(10, 10), float16]) -> Tensor[(10, 10), float16] span=from_string:45:100 */;
  let %x_7: Tensor[(10, 10), float16] /* ty=Tensor[(10, 10), float16] span=from_string:51:110 */ = %14(%x_1) /* ty=Tensor[(10, 10), float16] span=from_string:45:100 */;
  %16 = fn (%p010: float32 /* ty=float32 span=from_string:48:16 */, %p15: Tensor[(10, 10), float16] /* ty=Tensor[(10, 10), float16] span=from_string:49:9 */, Primitive=1) -> Tensor[(10, 10), float16] {
    %15 = cast(%p010, dtype="float16") /* ty=float16 span=from_string:49:15 */;
    add(%p15, %15) /* ty=Tensor[(10, 10), float16] span=from_string:48:5 */
  } /* ty=fn (float32, Tensor[(10, 10), float16]) -> Tensor[(10, 10), float16] span=from_string:51:100 */;
  let %x_9: Tensor[(10, 10), float16] /* ty=Tensor[(10, 10), float16] span=from_string:65:105 */ = %16(1f /* ty=float32 span=from_string:46:65 */, %x_7) /* ty=Tensor[(10, 10), float16] span=from_string:51:100 */;
  %17 = fn (%p011: Tensor[(10, 10), float16] /* ty=Tensor[(10, 10), float16] span=from_string:53:13 */, Primitive=1) -> Tensor[(10, 10), float16] {
    nn.relu(%p011) /* ty=Tensor[(10, 10), float16] span=from_string:53:5 */
  } /* ty=fn (Tensor[(10, 10), float16]) -> Tensor[(10, 10), float16] span=from_string:55:101 */;
  let %x_10: Tensor[(10, 10), float16] /* ty=Tensor[(10, 10), float16] span=from_string:61:112 */ = %17(%x_1) /* ty=Tensor[(10, 10), float16] span=from_string:55:101 */;
  %19 = fn (%p012: float32 /* ty=float32 span=from_string:58:16 */, %p16: Tensor[(10, 10), float16] /* ty=Tensor[(10, 10), float16] span=from_string:59:9 */, Primitive=1) -> Tensor[(10, 10), float16] {
    %18 = cast(%p012, dtype="float16") /* ty=float16 span=from_string:59:15 */;
    add(%p16, %18) /* ty=Tensor[(10, 10), float16] span=from_string:58:5 */
  } /* ty=fn (float32, Tensor[(10, 10), float16]) -> Tensor[(10, 10), float16] span=from_string:61:101 */;
  let %x_12: Tensor[(10, 10), float16] /* ty=Tensor[(10, 10), float16] span=from_string:65:111 */ = %19(1f /* ty=float32 span=from_string:56:66 */, %x_10) /* ty=Tensor[(10, 10), float16] span=from_string:61:101 */;
  %20 = fn (%p013: Tensor[(10, 10), float16] /* ty=Tensor[(10, 10), float16] span=from_string:63:9 */, %p17: Tensor[(10, 10), float16] /* ty=Tensor[(10, 10), float16] span=from_string:63:16 */, Primitive=1) -> Tensor[(10, 10), float16] {
    add(%p013, %p17) /* ty=Tensor[(10, 10), float16] span=from_string:63:5 */
  } /* ty=fn (Tensor[(10, 10), float16], Tensor[(10, 10), float16]) -> Tensor[(10, 10), float16] span=from_string:65:101 */;
  let %x_13: Tensor[(10, 10), float16] /* ty=Tensor[(10, 10), float16] span=from_string:95:105 */ = %20(%x_9, %x_12) /* ty=Tensor[(10, 10), float16] span=from_string:65:101 */;
  %21 = fn (%p015: Tensor[(12, 10), float32] /* ty=Tensor[(12, 10), float32] span=from_string:67:10 */, Primitive=1) -> Tensor[(12, 10), float16] {
    cast(%p015, dtype="float16") /* ty=Tensor[(12, 10), float16] span=from_string:67:5 */
  } /* ty=fn (Tensor[(12, 10), float32]) -> Tensor[(12, 10), float16] span=from_string:69:9 */;
  %22 = %21(%x5) /* ty=Tensor[(12, 10), float16] span=from_string:73:112 */;
  %23 = fn (%p014: Tensor[(10, 10), float16] /* ty=Tensor[(10, 10), float16] span=from_string:71:14 */, %p18: Tensor[(12, 10), float16] /* ty=Tensor[(12, 10), float16] span=from_string:71:21 */, Primitive=1) -> Tensor[(10, 12), float16] {
    nn.dense(%p014, %p18, units=None, out_dtype="float16") /* ty=Tensor[(10, 12), float16] span=from_string:71:5 */
  } /* ty=fn (Tensor[(10, 10), float16], Tensor[(12, 10), float16]) -> Tensor[(10, 12), float16] span=from_string:73:101 */;
  let %x_14: Tensor[(10, 12), float16] /* ty=Tensor[(10, 12), float16] span=from_string:78:110 */ = %23(%x_13, %22) /* ty=Tensor[(10, 12), float16] span=from_string:73:101 */;
  %25 = fn (%p016: Tensor[(12), float32] /* ty=Tensor[(12), float32] span=from_string:75:16 */, %p19: Tensor[(10, 12), float16] /* ty=Tensor[(10, 12), float16] span=from_string:76:9 */, Primitive=1) -> Tensor[(10, 12), float16] {
    %24 = cast(%p016, dtype="float16") /* ty=Tensor[(12), float16] span=from_string:76:15 */;
    add(%p19, %24) /* ty=Tensor[(10, 12), float16] span=from_string:75:5 */
  } /* ty=fn (Tensor[(12), float32], Tensor[(10, 12), float16]) -> Tensor[(10, 12), float16] span=from_string:78:101 */;
  let %x_15: Tensor[(10, 12), float16] /* ty=Tensor[(10, 12), float16] span=from_string:83:110 */ = %25(%x6, %x_14) /* ty=Tensor[(10, 12), float16] span=from_string:78:101 */;
  %27 = fn (%p017: Tensor[(1), float32] /* ty=Tensor[(1), float32] span=from_string:80:16 */, %p110: Tensor[(10, 12), float16] /* ty=Tensor[(10, 12), float16] span=from_string:81:15 */, Primitive=1) -> Tensor[(10, 12), float16] {
    %26 = cast(%p017, dtype="float16") /* ty=Tensor[(1), float16] span=from_string:81:22 */;
    multiply(%p110, %26) /* ty=Tensor[(10, 12), float16] span=from_string:80:5 */
  } /* ty=fn (Tensor[(1), float32], Tensor[(10, 12), float16]) -> Tensor[(10, 12), float16] span=from_string:83:101 */;
  let %x_16: Tensor[(10, 12), float16] /* ty=Tensor[(10, 12), float16] span=from_string:87:111 */ = %27(%x7, %x_15) /* ty=Tensor[(10, 12), float16] span=from_string:83:101 */;
  %28 = fn (%p018: Tensor[(10, 12), float16] /* ty=Tensor[(10, 12), float16] span=from_string:85:13 */, Primitive=1, relay.reshape_only=1) -> Tensor[(1, 1, 120), float16] {
    reshape(%p018, newshape=[1, 1, 120]) /* ty=Tensor[(1, 1, 120), float16] span=from_string:85:5 */
  } /* ty=fn (Tensor[(10, 12), float16]) -> Tensor[(1, 1, 120), float16] span=from_string:87:107 */;
  let %x_17: Tensor[(1, 1, 120), float16] /* ty=Tensor[(1, 1, 120), float16] span=from_string:113:172 */ = %28(%x_16) /* ty=Tensor[(1, 1, 120), float16] span=from_string:87:107 */;
  %29 = fn (%p020: Tensor[(24, 10), float32] /* ty=Tensor[(24, 10), float32] span=from_string:89:10 */, Primitive=1) -> Tensor[(24, 10), float16] {
    cast(%p020, dtype="float16") /* ty=Tensor[(24, 10), float16] span=from_string:89:5 */
  } /* ty=fn (Tensor[(24, 10), float32]) -> Tensor[(24, 10), float16] span=from_string:91:9 */;
  %30 = %29(%x8) /* ty=Tensor[(24, 10), float16] span=from_string:95:112 */;
  %31 = fn (%p019: Tensor[(10, 10), float16] /* ty=Tensor[(10, 10), float16] span=from_string:93:14 */, %p111: Tensor[(24, 10), float16] /* ty=Tensor[(24, 10), float16] span=from_string:93:21 */, Primitive=1) -> Tensor[(10, 24), float16] {
    nn.dense(%p019, %p111, units=None, out_dtype="float16") /* ty=Tensor[(10, 24), float16] span=from_string:93:5 */
  } /* ty=fn (Tensor[(10, 10), float16], Tensor[(24, 10), float16]) -> Tensor[(10, 24), float16] span=from_string:95:101 */;
  let %x_18: Tensor[(10, 24), float16] /* ty=Tensor[(10, 24), float16] span=from_string:100:110 */ = %31(%x_13, %30) /* ty=Tensor[(10, 24), float16] span=from_string:95:101 */;
  %33 = fn (%p021: Tensor[(24), float32] /* ty=Tensor[(24), float32] span=from_string:97:16 */, %p112: Tensor[(10, 24), float16] /* ty=Tensor[(10, 24), float16] span=from_string:98:9 */, Primitive=1) -> Tensor[(10, 24), float16] {
    %32 = cast(%p021, dtype="float16") /* ty=Tensor[(24), float16] span=from_string:98:16 */;
    add(%p112, %32) /* ty=Tensor[(10, 24), float16] span=from_string:97:5 */
  } /* ty=fn (Tensor[(24), float32], Tensor[(10, 24), float16]) -> Tensor[(10, 24), float16] span=from_string:100:101 */;
  let %x_19: Tensor[(10, 24), float16] /* ty=Tensor[(10, 24), float16] span=from_string:108:105 */ = %33(%x9, %x_18) /* ty=Tensor[(10, 24), float16] span=from_string:100:101 */;
  %34 = fn (%p023: Tensor[(1), float32] /* ty=Tensor[(1), float32] span=from_string:102:10 */, Primitive=1) -> Tensor[(1), float16] {
    cast(%p023, dtype="float16") /* ty=Tensor[(1), float16] span=from_string:102:5 */
  } /* ty=fn (Tensor[(1), float32]) -> Tensor[(1), float16] span=from_string:104:9 */;
  %35 = %34(%x10) /* ty=Tensor[(1), float16] span=from_string:159:95 */;
  %36 = fn (%p022: Tensor[(10, 24), float16] /* ty=Tensor[(10, 24), float16] span=from_string:106:15 */, %p113: Tensor[(1), float16] /* ty=Tensor[(1), float16] span=from_string:106:22 */, Primitive=1) -> Tensor[(10, 24), float16] {
    multiply(%p022, %p113) /* ty=Tensor[(10, 24), float16] span=from_string:106:6 */
  } /* ty=fn (Tensor[(10, 24), float16], Tensor[(1), float16]) -> Tensor[(10, 24), float16] span=from_string:108:101 */;
  let %x_20: Tensor[(10, 24), float16] /* ty=Tensor[(10, 24), float16] span=from_string:145:112 */ = %36(%x_19, %35) /* ty=Tensor[(10, 24), float16] span=from_string:108:101 */;
  %37 = fn (%p024: Tensor[(10, 24), float16] /* ty=Tensor[(10, 24), float16] span=from_string:110:13 */, Primitive=1, relay.reshape_only=1) -> Tensor[(1, 1, 240), float16] {
    reshape(%p024, newshape=[1, 1, 240]) /* ty=Tensor[(1, 1, 240), float16] span=from_string:110:5 */
  } /* ty=fn (Tensor[(10, 24), float16]) -> Tensor[(1, 1, 240), float16] span=from_string:112:107 */;
  let %x_21: Tensor[(1, 1, 240), float16] /* ty=Tensor[(1, 1, 240), float16] span=from_string:113:179 */ = %37(%x_20) /* ty=Tensor[(1, 1, 240), float16] span=from_string:112:107 */;
  let %x_22: (Tensor[(1, 1, 120), float16], Tensor[(1, 1, 240), float16]) /* ty=(Tensor[(1, 1, 120), float16], Tensor[(1, 1, 240), float16]) span=from_string:232:688 */ = (%x_17, %x_21) /* ty=(Tensor[(1, 1, 120), float16], Tensor[(1, 1, 240), float16]) span=from_string:113:171 */;
  %38 = fn (%p025: Tensor[(10, 24), float16] /* ty=Tensor[(10, 24), float16] span=from_string:115:22 */, Primitive=1) -> Tensor[(10, 24), float16] {
    multiply(%p025, %p025) /* ty=Tensor[(10, 24), float16] span=from_string:115:6 */
  } /* ty=fn (Tensor[(10, 24), float16]) -> Tensor[(10, 24), float16] span=from_string:117:101 */;
  let %x_23: Tensor[(10, 24), float16] /* ty=Tensor[(10, 24), float16] span=from_string:151:166 */ = %38(%x_20) /* ty=Tensor[(10, 24), float16] span=from_string:117:101 */;
  %39 = fn (%p026: Tensor[(10, 24), float16] /* ty=Tensor[(10, 24), float16] span=from_string:119:16 */, Primitive=1) -> Tensor[(10, 24), float16] {
    zeros_like(%p026) /* ty=Tensor[(10, 24), float16] span=from_string:119:5 */
  } /* ty=fn (Tensor[(10, 24), float16]) -> Tensor[(10, 24), float16] span=from_string:121:101 */;
  let %x_24: Tensor[(10, 24), float16] /* ty=Tensor[(10, 24), float16] span=from_string:137:105 */ = %39(%x_20) /* ty=Tensor[(10, 24), float16] span=from_string:121:101 */;
  %40 = fn (%p027: Tensor[(10, 24), float16] /* ty=Tensor[(10, 24), float16] span=from_string:123:15 */, Primitive=1) -> Tensor[(10, 24), float16] {
    ones_like(%p027) /* ty=Tensor[(10, 24), float16] span=from_string:123:5 */
  } /* ty=fn (Tensor[(10, 24), float16]) -> Tensor[(10, 24), float16] span=from_string:125:101 */;
  let %x_25: Tensor[(10, 24), float16] /* ty=Tensor[(10, 24), float16] span=from_string:141:105 */ = %40(%x_23) /* ty=Tensor[(10, 24), float16] span=from_string:125:101 */;
  %41 = fn (%p028: Tensor[(10, 24), float16] /* ty=Tensor[(10, 24), float16] span=from_string:127:15 */, %p114: Tensor[(10, 24), float16] /* ty=Tensor[(10, 24), float16] span=from_string:127:22 */, Primitive=1) -> Tensor[(10, 24), float16] {
    multiply(%p028, %p114) /* ty=Tensor[(10, 24), float16] span=from_string:127:6 */
  } /* ty=fn (Tensor[(10, 24), float16], Tensor[(10, 24), float16]) -> Tensor[(10, 24), float16] span=from_string:129:101 */;
  let %x_26: Tensor[(10, 24), float16] /* ty=Tensor[(10, 24), float16] span=from_string:194:110 */ = %41(%x_25, %x_20) /* ty=Tensor[(10, 24), float16] span=from_string:129:101 */;
  %42 = fn (%p029: Tensor[(10, 24), float16] /* ty=Tensor[(10, 24), float16] span=from_string:131:23 */, %p115: Tensor[(10, 24), float16] /* ty=Tensor[(10, 24), float16] span=from_string:131:30 */, Primitive=1) -> Tensor[(10, 24), float16] {
    collapse_sum_like(%p029, %p115) /* ty=Tensor[(10, 24), float16] span=from_string:131:5 */
  } /* ty=fn (Tensor[(10, 24), float16], Tensor[(10, 24), float16]) -> Tensor[(10, 24), float16] span=from_string:133:101 */;
  let %x_27: Tensor[(10, 24), float16] /* ty=Tensor[(10, 24), float16] span=from_string:137:112 */ = %42(%x_26, %x_20) /* ty=Tensor[(10, 24), float16] span=from_string:133:101 */;
  %43 = fn (%p030: Tensor[(10, 24), float16] /* ty=Tensor[(10, 24), float16] span=from_string:135:9 */, %p116: Tensor[(10, 24), float16] /* ty=Tensor[(10, 24), float16] span=from_string:135:16 */, Primitive=1) -> Tensor[(10, 24), float16] {
    add(%p030, %p116) /* ty=Tensor[(10, 24), float16] span=from_string:135:5 */
  } /* ty=fn (Tensor[(10, 24), float16], Tensor[(10, 24), float16]) -> Tensor[(10, 24), float16] span=from_string:137:101 */;
  let %x_28: Tensor[(10, 24), float16] /* ty=Tensor[(10, 24), float16] span=from_string:149:105 */ = %43(%x_24, %x_27) /* ty=Tensor[(10, 24), float16] span=from_string:137:101 */;
  %44 = fn (%p031: Tensor[(10, 24), float16] /* ty=Tensor[(10, 24), float16] span=from_string:139:15 */, %p117: Tensor[(10, 24), float16] /* ty=Tensor[(10, 24), float16] span=from_string:139:22 */, Primitive=1) -> Tensor[(10, 24), float16] {
    multiply(%p031, %p117) /* ty=Tensor[(10, 24), float16] span=from_string:139:6 */
  } /* ty=fn (Tensor[(10, 24), float16], Tensor[(10, 24), float16]) -> Tensor[(10, 24), float16] span=from_string:141:101 */;
  let %x_29: Tensor[(10, 24), float16] /* ty=Tensor[(10, 24), float16] span=from_string:145:105 */ = %44(%x_25, %x_20) /* ty=Tensor[(10, 24), float16] span=from_string:141:101 */;
  %45 = fn (%p032: Tensor[(10, 24), float16] /* ty=Tensor[(10, 24), float16] span=from_string:143:23 */, %p118: Tensor[(10, 24), float16] /* ty=Tensor[(10, 24), float16] span=from_string:143:30 */, Primitive=1) -> Tensor[(10, 24), float16] {
    collapse_sum_like(%p032, %p118) /* ty=Tensor[(10, 24), float16] span=from_string:143:5 */
  } /* ty=fn (Tensor[(10, 24), float16], Tensor[(10, 24), float16]) -> Tensor[(10, 24), float16] span=from_string:145:101 */;
  let %x_30: Tensor[(10, 24), float16] /* ty=Tensor[(10, 24), float16] span=from_string:149:112 */ = %45(%x_29, %x_20) /* ty=Tensor[(10, 24), float16] span=from_string:145:101 */;
  %46 = fn (%p033: Tensor[(10, 24), float16] /* ty=Tensor[(10, 24), float16] span=from_string:147:9 */, %p119: Tensor[(10, 24), float16] /* ty=Tensor[(10, 24), float16] span=from_string:147:16 */, Primitive=1) -> Tensor[(10, 24), float16] {
    add(%p033, %p119) /* ty=Tensor[(10, 24), float16] span=from_string:147:5 */
  } /* ty=fn (Tensor[(10, 24), float16], Tensor[(10, 24), float16]) -> Tensor[(10, 24), float16] span=from_string:149:101 */;
  let %x_31: Tensor[(10, 24), float16] /* ty=Tensor[(10, 24), float16] span=from_string:150:108 */ = %46(%x_28, %x_30) /* ty=Tensor[(10, 24), float16] span=from_string:149:101 */;
  let %x_32: (Tensor[(10, 24), float16],) /* ty=(Tensor[(10, 24), float16],) span=from_string:151:173 */ = (%x_31,) /* ty=(Tensor[(10, 24), float16],) span=from_string:150:107 */;
  let %x_33: (Tensor[(10, 24), float16], (Tensor[(10, 24), float16],)) /* ty=(Tensor[(10, 24), float16], (Tensor[(10, 24), float16],)) span=from_string:232:695 */ = (%x_23, %x_32) /* ty=(Tensor[(10, 24), float16], (Tensor[(10, 24), float16],)) span=from_string:151:165 */;
  %47 = fn (Primitive=1) -> Tensor[(1), float16] {
    ones(shape=[1], dtype="float16") /* ty=Tensor[(1), float16] span=from_string:153:5 */
  } /* ty=fn () -> Tensor[(1), float16] span=from_string:155:91 */;
  let %x_34: Tensor[(1), float16] /* ty=Tensor[(1), float16] span=from_string:159:100 */ = %47() /* ty=Tensor[(1), float16] span=from_string:155:91 */;
  %48 = fn (%p034: Tensor[(1), float16] /* ty=Tensor[(1), float16] span=from_string:157:9 */, %p120: Tensor[(1), float16] /* ty=Tensor[(1), float16] span=from_string:157:16 */, Primitive=1) -> Tensor[(1), float16] {
    add(%p034, %p120) /* ty=Tensor[(1), float16] span=from_string:157:5 */
  } /* ty=fn (Tensor[(1), float16], Tensor[(1), float16]) -> Tensor[(1), float16] span=from_string:159:91 */;
  let %x_35: Tensor[(1), float16] /* ty=Tensor[(1), float16] span=from_string:232:702 */ = %48(%35, %x_34) /* ty=Tensor[(1), float16] span=from_string:159:91 */;
  %50 = fn (%p035: Tensor[(14, 30), float32] /* ty=Tensor[(14, 30), float32] span=from_string:161:16 */, Primitive=1) -> (Tensor[(14, 10), float16], Tensor[(14, 10), float16], Tensor[(14, 10), float16]) {
    %49 = cast(%p035, dtype="float16") /* ty=Tensor[(14, 30), float16] span=from_string:162:11 */;
    split(%49, indices_or_sections=3, axis=1) /* ty=(Tensor[(14, 10), float16], Tensor[(14, 10), float16], Tensor[(14, 10), float16]) span=from_string:161:5 */
  } /* ty=fn (Tensor[(14, 30), float32]) -> (Tensor[(14, 10), float16], Tensor[(14, 10), float16], Tensor[(14, 10), float16]) span=from_string:164:213 */;
  let %x_36: (Tensor[(14, 10), float16], Tensor[(14, 10), float16], Tensor[(14, 10), float16]) /* ty=(Tensor[(14, 10), float16], Tensor[(14, 10), float16], Tensor[(14, 10), float16]) span=from_string:165:101 */ = %50(%x11) /* ty=(Tensor[(14, 10), float16], Tensor[(14, 10), float16], Tensor[(14, 10), float16]) span=from_string:164:213 */;
  let %x_37: Tensor[(14, 10), float16] /* ty=Tensor[(14, 10), float16] span=from_string:177:105 */ = %x_36.0 /* ty=Tensor[(14, 10), float16] span=from_string:165:101 */;
  %51 = fn (%p036: Tensor[(65, 10), float16] /* ty=Tensor[(65, 10), float16] span=from_string:167:15 */, Primitive=1) -> Tensor[(65, 10), float16] {
    ones_like(%p036) /* ty=Tensor[(65, 10), float16] span=from_string:167:5 */
  } /* ty=fn (Tensor[(65, 10), float16]) -> Tensor[(65, 10), float16] span=from_string:169:101 */;
  let %x_38: Tensor[(65, 10), float16] /* ty=Tensor[(65, 10), float16] span=from_string:173:111 */ = %51(%x_4) /* ty=Tensor[(65, 10), float16] span=from_string:169:101 */;
  %52 = fn (%p037: Tensor[(65, 10), float16] /* ty=Tensor[(65, 10), float16] span=from_string:171:9 */, %p121: Tensor[(65, 10), float16] /* ty=Tensor[(65, 10), float16] span=from_string:171:16 */, Primitive=1) -> Tensor[(65, 10), float16] {
    add(%p037, %p121) /* ty=Tensor[(65, 10), float16] span=from_string:171:5 */
  } /* ty=fn (Tensor[(65, 10), float16], Tensor[(65, 10), float16]) -> Tensor[(65, 10), float16] span=from_string:173:101 */;
  let %x_39: Tensor[(65, 10), float16] /* ty=Tensor[(65, 10), float16] span=from_string:181:106 */ = %52(%x_4, %x_38) /* ty=Tensor[(65, 10), float16] span=from_string:173:101 */;
  %53 = fn (%p038: Tensor[(14, 10), float16] /* ty=Tensor[(14, 10), float16] span=from_string:175:14 */, %p122: Tensor[(65, 10), float16] /* ty=Tensor[(65, 10), float16] span=from_string:175:21 */, Primitive=1) -> Tensor[(14, 65), float16] {
    nn.dense(%p038, %p122, units=None, out_dtype="float16") /* ty=Tensor[(14, 65), float16] span=from_string:175:5 */
  } /* ty=fn (Tensor[(14, 10), float16], Tensor[(65, 10), float16]) -> Tensor[(14, 65), float16] span=from_string:177:101 */;
  let %x_40: Tensor[(14, 65), float16] /* ty=Tensor[(14, 65), float16] span=from_string:232:709 */ = %53(%x_37, %x_39) /* ty=Tensor[(14, 65), float16] span=from_string:177:101 */;
  %54 = fn (%p039: Tensor[(65, 10), float16] /* ty=Tensor[(65, 10), float16] span=from_string:179:10 */, Primitive=1) -> Tensor[(65, 10), bfloat16] {
    cast(%p039, dtype="bfloat16") /* ty=Tensor[(65, 10), bfloat16] span=from_string:179:5 */
  } /* ty=fn (Tensor[(65, 10), float16]) -> Tensor[(65, 10), bfloat16] span=from_string:181:102 */;
  let %x_41: Tensor[(65, 10), bfloat16] /* ty=Tensor[(65, 10), bfloat16] span=from_string:186:105 */ = %54(%x_39) /* ty=Tensor[(65, 10), bfloat16] span=from_string:181:102 */;
  %56 = fn (%p040: Tensor[(65, 10), bfloat16] /* ty=Tensor[(65, 10), bfloat16] span=from_string:183:16 */, Primitive=1) -> Tensor[(65, 10), float16] {
    %55 = cast(%p040, dtype="float16") /* ty=Tensor[(65, 10), float16] span=from_string:184:10 */;
    clip(%55, a_min=-0.2f, a_max=0.4f) /* ty=Tensor[(65, 10), float16] span=from_string:183:5 */
  } /* ty=fn (Tensor[(65, 10), bfloat16]) -> Tensor[(65, 10), float16] span=from_string:186:101 */;
  let %x_42: Tensor[(65, 10), float16] /* ty=Tensor[(65, 10), float16] span=from_string:232:716 */ = %56(%x_41) /* ty=Tensor[(65, 10), float16] span=from_string:186:101 */;
  %57 = fn (%p042: Tensor[(42, 24), float32] /* ty=Tensor[(42, 24), float32] span=from_string:188:10 */, Primitive=1) -> Tensor[(42, 24), float16] {
    cast(%p042, dtype="float16") /* ty=Tensor[(42, 24), float16] span=from_string:188:5 */
  } /* ty=fn (Tensor[(42, 24), float32]) -> Tensor[(42, 24), float16] span=from_string:190:9 */;
  %58 = %57(%x12) /* ty=Tensor[(42, 24), float16] span=from_string:216:105 */;
  %59 = fn (%p041: Tensor[(42, 24), float16] /* ty=Tensor[(42, 24), float16] span=from_string:192:14 */, %p123: Tensor[(10, 24), float16] /* ty=Tensor[(10, 24), float16] span=from_string:192:21 */, Primitive=1) -> Tensor[(42, 10), float16] {
    nn.dense(%p041, %p123, units=None, out_dtype="float16") /* ty=Tensor[(42, 10), float16] span=from_string:192:5 */
  } /* ty=fn (Tensor[(42, 24), float16], Tensor[(10, 24), float16]) -> Tensor[(42, 10), float16] span=from_string:194:101 */;
  let %x_43: Tensor[(42, 10), float16] /* ty=Tensor[(42, 10), float16] span=from_string:199:111 */ = %59(%58, %x_26) /* ty=Tensor[(42, 10), float16] span=from_string:194:101 */;
  %61 = fn (%p043: Tensor[(10), float32] /* ty=Tensor[(10), float32] span=from_string:196:16 */, %p124: Tensor[(42, 10), float16] /* ty=Tensor[(42, 10), float16] span=from_string:197:9 */, Primitive=1) -> Tensor[(42, 10), float16] {
    %60 = cast(%p043, dtype="float16") /* ty=Tensor[(10), float16] span=from_string:197:16 */;
    add(%p124, %60) /* ty=Tensor[(42, 10), float16] span=from_string:196:5 */
  } /* ty=fn (Tensor[(10), float32], Tensor[(42, 10), float16]) -> Tensor[(42, 10), float16] span=from_string:199:101 */;
  let %x_44: Tensor[(42, 10), float16] /* ty=Tensor[(42, 10), float16] span=from_string:204:111 */ = %61(%x14, %x_43) /* ty=Tensor[(42, 10), float16] span=from_string:199:101 */;
  %63 = fn (%p044: Tensor[(1), float32] /* ty=Tensor[(1), float32] span=from_string:201:16 */, %p125: Tensor[(42, 10), float16] /* ty=Tensor[(42, 10), float16] span=from_string:202:15 */, Primitive=1) -> Tensor[(42, 10), float16] {
    %62 = cast(%p044, dtype="float16") /* ty=Tensor[(1), float16] span=from_string:202:22 */;
    multiply(%p125, %62) /* ty=Tensor[(42, 10), float16] span=from_string:201:5 */
  } /* ty=fn (Tensor[(1), float32], Tensor[(42, 10), float16]) -> Tensor[(42, 10), float16] span=from_string:204:101 */;
  let %x_45: Tensor[(42, 10), float16] /* ty=Tensor[(42, 10), float16] span=from_string:208:111 */ = %63(%x16, %x_44) /* ty=Tensor[(42, 10), float16] span=from_string:204:101 */;
  %64 = fn (%p045: Tensor[(42, 10), float16] /* ty=Tensor[(42, 10), float16] span=from_string:206:13 */, Primitive=1, relay.reshape_only=1) -> Tensor[(1, 1, 420), float16] {
    reshape(%p045, newshape=[1, 1, -1]) /* ty=Tensor[(1, 1, 420), float16] span=from_string:206:5 */
  } /* ty=fn (Tensor[(42, 10), float16]) -> Tensor[(1, 1, 420), float16] span=from_string:208:107 */;
  let %x_46: Tensor[(1, 1, 420), float16] /* ty=Tensor[(1, 1, 420), float16] span=from_string:231:172 */ = %64(%x_45) /* ty=Tensor[(1, 1, 420), float16] span=from_string:208:107 */;
  %65 = fn (%p047: Tensor[(10, 24), float32] /* ty=Tensor[(10, 24), float32] span=from_string:210:10 */, Primitive=1) -> Tensor[(10, 24), float16] {
    cast(%p047, dtype="float16") /* ty=Tensor[(10, 24), float16] span=from_string:210:5 */
  } /* ty=fn (Tensor[(10, 24), float32]) -> Tensor[(10, 24), float16] span=from_string:212:9 */;
  %66 = %65(%x13) /* ty=Tensor[(10, 24), float16] span=from_string:216:110 */;
  %67 = fn (%p046: Tensor[(42, 24), float16] /* ty=Tensor[(42, 24), float16] span=from_string:214:14 */, %p126: Tensor[(10, 24), float16] /* ty=Tensor[(10, 24), float16] span=from_string:214:21 */, Primitive=1) -> Tensor[(42, 10), float16] {
    nn.dense(%p046, %p126, units=None, out_dtype="float16") /* ty=Tensor[(42, 10), float16] span=from_string:214:5 */
  } /* ty=fn (Tensor[(42, 24), float16], Tensor[(10, 24), float16]) -> Tensor[(42, 10), float16] span=from_string:216:101 */;
  let %x_47: Tensor[(42, 10), float16] /* ty=Tensor[(42, 10), float16] span=from_string:221:111 */ = %67(%58, %66) /* ty=Tensor[(42, 10), float16] span=from_string:216:101 */;
  %69 = fn (%p048: Tensor[(10), float32] /* ty=Tensor[(10), float32] span=from_string:218:16 */, %p127: Tensor[(42, 10), float16] /* ty=Tensor[(42, 10), float16] span=from_string:219:9 */, Primitive=1) -> Tensor[(42, 10), float16] {
    %68 = cast(%p048, dtype="float16") /* ty=Tensor[(10), float16] span=from_string:219:16 */;
    add(%p127, %68) /* ty=Tensor[(42, 10), float16] span=from_string:218:5 */
  } /* ty=fn (Tensor[(10), float32], Tensor[(42, 10), float16]) -> Tensor[(42, 10), float16] span=from_string:221:101 */;
  let %x_48: Tensor[(42, 10), float16] /* ty=Tensor[(42, 10), float16] span=from_string:226:111 */ = %69(%x15, %x_47) /* ty=Tensor[(42, 10), float16] span=from_string:221:101 */;
  %71 = fn (%p049: Tensor[(1), float32] /* ty=Tensor[(1), float32] span=from_string:223:16 */, %p128: Tensor[(42, 10), float16] /* ty=Tensor[(42, 10), float16] span=from_string:224:15 */, Primitive=1) -> Tensor[(42, 10), float16] {
    %70 = cast(%p049, dtype="float16") /* ty=Tensor[(1), float16] span=from_string:224:22 */;
    multiply(%p128, %70) /* ty=Tensor[(42, 10), float16] span=from_string:223:5 */
  } /* ty=fn (Tensor[(1), float32], Tensor[(42, 10), float16]) -> Tensor[(42, 10), float16] span=from_string:226:101 */;
  let %x_49: Tensor[(42, 10), float16] /* ty=Tensor[(42, 10), float16] span=from_string:230:111 */ = %71(%x17, %x_48) /* ty=Tensor[(42, 10), float16] span=from_string:226:101 */;
  %72 = fn (%p050: Tensor[(42, 10), float16] /* ty=Tensor[(42, 10), float16] span=from_string:228:13 */, Primitive=1, relay.reshape_only=1) -> Tensor[(1, 1, 420), float16] {
    reshape(%p050, newshape=[1, 1, -1]) /* ty=Tensor[(1, 1, 420), float16] span=from_string:228:5 */
  } /* ty=fn (Tensor[(42, 10), float16]) -> Tensor[(1, 1, 420), float16] span=from_string:230:107 */;
  let %x_50: Tensor[(1, 1, 420), float16] /* ty=Tensor[(1, 1, 420), float16] span=from_string:231:179 */ = %72(%x_49) /* ty=Tensor[(1, 1, 420), float16] span=from_string:230:107 */;
  let %x_51: (Tensor[(1, 1, 420), float16], Tensor[(1, 1, 420), float16]) /* ty=(Tensor[(1, 1, 420), float16], Tensor[(1, 1, 420), float16]) span=from_string:232:723 */ = (%x_46, %x_50) /* ty=(Tensor[(1, 1, 420), float16], Tensor[(1, 1, 420), float16]) span=from_string:231:171 */;
  let %x_52: ((Tensor[(65, 10), float16], Tensor[(65, 10), float16]), (Tensor[(1, 1, 120), float16], Tensor[(1, 1, 240), float16]), (Tensor[(10, 24), float16], (Tensor[(10, 24), float16],)), Tensor[(1), float16], Tensor[(14, 65), float16], Tensor[(65, 10), float16], (Tensor[(1, 1, 420), float16], Tensor[(1, 1, 420), float16])) /* ty=((Tensor[(65, 10), float16], Tensor[(65, 10), float16]), (Tensor[(1, 1, 120), float16], Tensor[(1, 1, 240), float16]), (Tensor[(10, 24), float16], (Tensor[(10, 24), float16],)), Tensor[(1), float16], Tensor[(14, 65), float16], Tensor[(65, 10), float16], (Tensor[(1, 1, 420), float16], Tensor[(1, 1, 420), float16])) span=from_string:233:681 */ = (%x_6, %x_22, %x_33, %x_35, %x_40, %x_42, %x_51) /* ty=((Tensor[(65, 10), float16], Tensor[(65, 10), float16]), (Tensor[(1, 1, 120), float16], Tensor[(1, 1, 240), float16]), (Tensor[(10, 24), float16], (Tensor[(10, 24), float16],)), Tensor[(1), float16], Tensor[(14, 65), float16], Tensor[(65, 10), float16], (Tensor[(1, 1, 420), float16], Tensor[(1, 1, 420), float16])) span=from_string:232:681 */;
  let %x_01: ((Tensor[(65, 10), float16], Tensor[(65, 10), float16]), (Tensor[(1, 1, 120), float16], Tensor[(1, 1, 240), float16]), (Tensor[(10, 24), float16], (Tensor[(10, 24), float16],)), Tensor[(1), float16], Tensor[(14, 65), float16], Tensor[(65, 10), float16], (Tensor[(1, 1, 420), float16], Tensor[(1, 1, 420), float16])) /* ty=((Tensor[(65, 10), float16], Tensor[(65, 10), float16]), (Tensor[(1, 1, 120), float16], Tensor[(1, 1, 240), float16]), (Tensor[(10, 24), float16], (Tensor[(10, 24), float16],)), Tensor[(1), float16], Tensor[(14, 65), float16], Tensor[(65, 10), float16], (Tensor[(1, 1, 420), float16], Tensor[(1, 1, 420), float16])) span=from_string:234:682 */ = %x_52;
  let %x_110: ((Tensor[(65, 10), float16], Tensor[(65, 10), float16]), (Tensor[(1, 1, 120), float16], Tensor[(1, 1, 240), float16]), (Tensor[(10, 24), float16], (Tensor[(10, 24), float16],)), Tensor[(1), float16], Tensor[(14, 65), float16], Tensor[(65, 10), float16], (Tensor[(1, 1, 420), float16], Tensor[(1, 1, 420), float16])) /* ty=((Tensor[(65, 10), float16], Tensor[(65, 10), float16]), (Tensor[(1, 1, 120), float16], Tensor[(1, 1, 240), float16]), (Tensor[(10, 24), float16], (Tensor[(10, 24), float16],)), Tensor[(1), float16], Tensor[(14, 65), float16], Tensor[(65, 10), float16], (Tensor[(1, 1, 420), float16], Tensor[(1, 1, 420), float16])) span=from_string:235:682 */ = %x_01;
  let %x_210: ((Tensor[(65, 10), float16], Tensor[(65, 10), float16]), (Tensor[(1, 1, 120), float16], Tensor[(1, 1, 240), float16]), (Tensor[(10, 24), float16], (Tensor[(10, 24), float16],)), Tensor[(1), float16], Tensor[(14, 65), float16], Tensor[(65, 10), float16], (Tensor[(1, 1, 420), float16], Tensor[(1, 1, 420), float16])) /* ty=((Tensor[(65, 10), float16], Tensor[(65, 10), float16]), (Tensor[(1, 1, 120), float16], Tensor[(1, 1, 240), float16]), (Tensor[(10, 24), float16], (Tensor[(10, 24), float16],)), Tensor[(1), float16], Tensor[(14, 65), float16], Tensor[(65, 10), float16], (Tensor[(1, 1, 420), float16], Tensor[(1, 1, 420), float16])) span=from_string:236:682 */ = %x_110;
  let %x_310: ((Tensor[(65, 10), float16], Tensor[(65, 10), float16]), (Tensor[(1, 1, 120), float16], Tensor[(1, 1, 240), float16]), (Tensor[(10, 24), float16], (Tensor[(10, 24), float16],)), Tensor[(1), float16], Tensor[(14, 65), float16], Tensor[(65, 10), float16], (Tensor[(1, 1, 420), float16], Tensor[(1, 1, 420), float16])) /* ty=((Tensor[(65, 10), float16], Tensor[(65, 10), float16]), (Tensor[(1, 1, 120), float16], Tensor[(1, 1, 240), float16]), (Tensor[(10, 24), float16], (Tensor[(10, 24), float16],)), Tensor[(1), float16], Tensor[(14, 65), float16], Tensor[(65, 10), float16], (Tensor[(1, 1, 420), float16], Tensor[(1, 1, 420), float16])) span=from_string:237:682 */ = %x_210;
  let %x_410: ((Tensor[(65, 10), float16], Tensor[(65, 10), float16]), (Tensor[(1, 1, 120), float16], Tensor[(1, 1, 240), float16]), (Tensor[(10, 24), float16], (Tensor[(10, 24), float16],)), Tensor[(1), float16], Tensor[(14, 65), float16], Tensor[(65, 10), float16], (Tensor[(1, 1, 420), float16], Tensor[(1, 1, 420), float16])) /* ty=((Tensor[(65, 10), float16], Tensor[(65, 10), float16]), (Tensor[(1, 1, 120), float16], Tensor[(1, 1, 240), float16]), (Tensor[(10, 24), float16], (Tensor[(10, 24), float16],)), Tensor[(1), float16], Tensor[(14, 65), float16], Tensor[(65, 10), float16], (Tensor[(1, 1, 420), float16], Tensor[(1, 1, 420), float16])) span=from_string:238:681 */ = %x_310;
  let %x_53: ((Tensor[(65, 10), float16], Tensor[(65, 10), float16]), (Tensor[(1, 1, 120), float16], Tensor[(1, 1, 240), float16]), (Tensor[(10, 24), float16], (Tensor[(10, 24), float16],)), Tensor[(1), float16], Tensor[(14, 65), float16], Tensor[(65, 10), float16], (Tensor[(1, 1, 420), float16], Tensor[(1, 1, 420), float16])) /* ty=((Tensor[(65, 10), float16], Tensor[(65, 10), float16]), (Tensor[(1, 1, 120), float16], Tensor[(1, 1, 240), float16]), (Tensor[(10, 24), float16], (Tensor[(10, 24), float16],)), Tensor[(1), float16], Tensor[(14, 65), float16], Tensor[(65, 10), float16], (Tensor[(1, 1, 420), float16], Tensor[(1, 1, 420), float16])) span=from_string:239:681 */ = %x_410;
  let %x_61: ((Tensor[(65, 10), float16], Tensor[(65, 10), float16]), (Tensor[(1, 1, 120), float16], Tensor[(1, 1, 240), float16]), (Tensor[(10, 24), float16], (Tensor[(10, 24), float16],)), Tensor[(1), float16], Tensor[(14, 65), float16], Tensor[(65, 10), float16], (Tensor[(1, 1, 420), float16], Tensor[(1, 1, 420), float16])) /* ty=((Tensor[(65, 10), float16], Tensor[(65, 10), float16]), (Tensor[(1, 1, 120), float16], Tensor[(1, 1, 240), float16]), (Tensor[(10, 24), float16], (Tensor[(10, 24), float16],)), Tensor[(1), float16], Tensor[(14, 65), float16], Tensor[(65, 10), float16], (Tensor[(1, 1, 420), float16], Tensor[(1, 1, 420), float16])) span=from_string:240:681 */ = %x_53;
  let %x_71: ((Tensor[(65, 10), float16], Tensor[(65, 10), float16]), (Tensor[(1, 1, 120), float16], Tensor[(1, 1, 240), float16]), (Tensor[(10, 24), float16], (Tensor[(10, 24), float16],)), Tensor[(1), float16], Tensor[(14, 65), float16], Tensor[(65, 10), float16], (Tensor[(1, 1, 420), float16], Tensor[(1, 1, 420), float16])) /* ty=((Tensor[(65, 10), float16], Tensor[(65, 10), float16]), (Tensor[(1, 1, 120), float16], Tensor[(1, 1, 240), float16]), (Tensor[(10, 24), float16], (Tensor[(10, 24), float16],)), Tensor[(1), float16], Tensor[(14, 65), float16], Tensor[(65, 10), float16], (Tensor[(1, 1, 420), float16], Tensor[(1, 1, 420), float16])) span=from_string:241:681 */ = %x_61;
  let %x_81: ((Tensor[(65, 10), float16], Tensor[(65, 10), float16]), (Tensor[(1, 1, 120), float16], Tensor[(1, 1, 240), float16]), (Tensor[(10, 24), float16], (Tensor[(10, 24), float16],)), Tensor[(1), float16], Tensor[(14, 65), float16], Tensor[(65, 10), float16], (Tensor[(1, 1, 420), float16], Tensor[(1, 1, 420), float16])) /* ty=((Tensor[(65, 10), float16], Tensor[(65, 10), float16]), (Tensor[(1, 1, 120), float16], Tensor[(1, 1, 240), float16]), (Tensor[(10, 24), float16], (Tensor[(10, 24), float16],)), Tensor[(1), float16], Tensor[(14, 65), float16], Tensor[(65, 10), float16], (Tensor[(1, 1, 420), float16], Tensor[(1, 1, 420), float16])) span=from_string:242:681 */ = %x_71;
  let %x_91: ((Tensor[(65, 10), float16], Tensor[(65, 10), float16]), (Tensor[(1, 1, 120), float16], Tensor[(1, 1, 240), float16]), (Tensor[(10, 24), float16], (Tensor[(10, 24), float16],)), Tensor[(1), float16], Tensor[(14, 65), float16], Tensor[(65, 10), float16], (Tensor[(1, 1, 420), float16], Tensor[(1, 1, 420), float16])) /* ty=((Tensor[(65, 10), float16], Tensor[(65, 10), float16]), (Tensor[(1, 1, 120), float16], Tensor[(1, 1, 240), float16]), (Tensor[(10, 24), float16], (Tensor[(10, 24), float16],)), Tensor[(1), float16], Tensor[(14, 65), float16], Tensor[(65, 10), float16], (Tensor[(1, 1, 420), float16], Tensor[(1, 1, 420), float16])) span=from_string:243:682 */ = %x_81;
  let %x_101: ((Tensor[(65, 10), float16], Tensor[(65, 10), float16]), (Tensor[(1, 1, 120), float16], Tensor[(1, 1, 240), float16]), (Tensor[(10, 24), float16], (Tensor[(10, 24), float16],)), Tensor[(1), float16], Tensor[(14, 65), float16], Tensor[(65, 10), float16], (Tensor[(1, 1, 420), float16], Tensor[(1, 1, 420), float16])) /* ty=((Tensor[(65, 10), float16], Tensor[(65, 10), float16]), (Tensor[(1, 1, 120), float16], Tensor[(1, 1, 240), float16]), (Tensor[(10, 24), float16], (Tensor[(10, 24), float16],)), Tensor[(1), float16], Tensor[(14, 65), float16], Tensor[(65, 10), float16], (Tensor[(1, 1, 420), float16], Tensor[(1, 1, 420), float16])) span=from_string:244:682 */ = %x_91;
  let %x_111: ((Tensor[(65, 10), float16], Tensor[(65, 10), float16]), (Tensor[(1, 1, 120), float16], Tensor[(1, 1, 240), float16]), (Tensor[(10, 24), float16], (Tensor[(10, 24), float16],)), Tensor[(1), float16], Tensor[(14, 65), float16], Tensor[(65, 10), float16], (Tensor[(1, 1, 420), float16], Tensor[(1, 1, 420), float16])) /* ty=((Tensor[(65, 10), float16], Tensor[(65, 10), float16]), (Tensor[(1, 1, 120), float16], Tensor[(1, 1, 240), float16]), (Tensor[(10, 24), float16], (Tensor[(10, 24), float16],)), Tensor[(1), float16], Tensor[(14, 65), float16], Tensor[(65, 10), float16], (Tensor[(1, 1, 420), float16], Tensor[(1, 1, 420), float16])) span=from_string:245:682 */ = %x_101;
  let %x_121: ((Tensor[(65, 10), float16], Tensor[(65, 10), float16]), (Tensor[(1, 1, 120), float16], Tensor[(1, 1, 240), float16]), (Tensor[(10, 24), float16], (Tensor[(10, 24), float16],)), Tensor[(1), float16], Tensor[(14, 65), float16], Tensor[(65, 10), float16], (Tensor[(1, 1, 420), float16], Tensor[(1, 1, 420), float16])) /* ty=((Tensor[(65, 10), float16], Tensor[(65, 10), float16]), (Tensor[(1, 1, 120), float16], Tensor[(1, 1, 240), float16]), (Tensor[(10, 24), float16], (Tensor[(10, 24), float16],)), Tensor[(1), float16], Tensor[(14, 65), float16], Tensor[(65, 10), float16], (Tensor[(1, 1, 420), float16], Tensor[(1, 1, 420), float16])) span=from_string:246:682 */ = %x_111;
  let %x_131: ((Tensor[(65, 10), float16], Tensor[(65, 10), float16]), (Tensor[(1, 1, 120), float16], Tensor[(1, 1, 240), float16]), (Tensor[(10, 24), float16], (Tensor[(10, 24), float16],)), Tensor[(1), float16], Tensor[(14, 65), float16], Tensor[(65, 10), float16], (Tensor[(1, 1, 420), float16], Tensor[(1, 1, 420), float16])) /* ty=((Tensor[(65, 10), float16], Tensor[(65, 10), float16]), (Tensor[(1, 1, 120), float16], Tensor[(1, 1, 240), float16]), (Tensor[(10, 24), float16], (Tensor[(10, 24), float16],)), Tensor[(1), float16], Tensor[(14, 65), float16], Tensor[(65, 10), float16], (Tensor[(1, 1, 420), float16], Tensor[(1, 1, 420), float16])) span=from_string:247:682 */ = %x_121;
  let %x_141: ((Tensor[(65, 10), float16], Tensor[(65, 10), float16]), (Tensor[(1, 1, 120), float16], Tensor[(1, 1, 240), float16]), (Tensor[(10, 24), float16], (Tensor[(10, 24), float16],)), Tensor[(1), float16], Tensor[(14, 65), float16], Tensor[(65, 10), float16], (Tensor[(1, 1, 420), float16], Tensor[(1, 1, 420), float16])) /* ty=((Tensor[(65, 10), float16], Tensor[(65, 10), float16]), (Tensor[(1, 1, 120), float16], Tensor[(1, 1, 240), float16]), (Tensor[(10, 24), float16], (Tensor[(10, 24), float16],)), Tensor[(1), float16], Tensor[(14, 65), float16], Tensor[(65, 10), float16], (Tensor[(1, 1, 420), float16], Tensor[(1, 1, 420), float16])) span=from_string:248:682 */ = %x_131;
  let %x_151: ((Tensor[(65, 10), float16], Tensor[(65, 10), float16]), (Tensor[(1, 1, 120), float16], Tensor[(1, 1, 240), float16]), (Tensor[(10, 24), float16], (Tensor[(10, 24), float16],)), Tensor[(1), float16], Tensor[(14, 65), float16], Tensor[(65, 10), float16], (Tensor[(1, 1, 420), float16], Tensor[(1, 1, 420), float16])) /* ty=((Tensor[(65, 10), float16], Tensor[(65, 10), float16]), (Tensor[(1, 1, 120), float16], Tensor[(1, 1, 240), float16]), (Tensor[(10, 24), float16], (Tensor[(10, 24), float16],)), Tensor[(1), float16], Tensor[(14, 65), float16], Tensor[(65, 10), float16], (Tensor[(1, 1, 420), float16], Tensor[(1, 1, 420), float16])) span=from_string:249:682 */ = %x_141;
  let %x_161: ((Tensor[(65, 10), float16], Tensor[(65, 10), float16]), (Tensor[(1, 1, 120), float16], Tensor[(1, 1, 240), float16]), (Tensor[(10, 24), float16], (Tensor[(10, 24), float16],)), Tensor[(1), float16], Tensor[(14, 65), float16], Tensor[(65, 10), float16], (Tensor[(1, 1, 420), float16], Tensor[(1, 1, 420), float16])) /* ty=((Tensor[(65, 10), float16], Tensor[(65, 10), float16]), (Tensor[(1, 1, 120), float16], Tensor[(1, 1, 240), float16]), (Tensor[(10, 24), float16], (Tensor[(10, 24), float16],)), Tensor[(1), float16], Tensor[(14, 65), float16], Tensor[(65, 10), float16], (Tensor[(1, 1, 420), float16], Tensor[(1, 1, 420), float16])) span=from_string:250:682 */ = %x_151;
  let %x_171: ((Tensor[(65, 10), float16], Tensor[(65, 10), float16]), (Tensor[(1, 1, 120), float16], Tensor[(1, 1, 240), float16]), (Tensor[(10, 24), float16], (Tensor[(10, 24), float16],)), Tensor[(1), float16], Tensor[(14, 65), float16], Tensor[(65, 10), float16], (Tensor[(1, 1, 420), float16], Tensor[(1, 1, 420), float16])) /* ty=((Tensor[(65, 10), float16], Tensor[(65, 10), float16]), (Tensor[(1, 1, 120), float16], Tensor[(1, 1, 240), float16]), (Tensor[(10, 24), float16], (Tensor[(10, 24), float16],)), Tensor[(1), float16], Tensor[(14, 65), float16], Tensor[(65, 10), float16], (Tensor[(1, 1, 420), float16], Tensor[(1, 1, 420), float16])) span=from_string:251:682 */ = %x_161;
  let %x_181: ((Tensor[(65, 10), float16], Tensor[(65, 10), float16]), (Tensor[(1, 1, 120), float16], Tensor[(1, 1, 240), float16]), (Tensor[(10, 24), float16], (Tensor[(10, 24), float16],)), Tensor[(1), float16], Tensor[(14, 65), float16], Tensor[(65, 10), float16], (Tensor[(1, 1, 420), float16], Tensor[(1, 1, 420), float16])) /* ty=((Tensor[(65, 10), float16], Tensor[(65, 10), float16]), (Tensor[(1, 1, 120), float16], Tensor[(1, 1, 240), float16]), (Tensor[(10, 24), float16], (Tensor[(10, 24), float16],)), Tensor[(1), float16], Tensor[(14, 65), float16], Tensor[(65, 10), float16], (Tensor[(1, 1, 420), float16], Tensor[(1, 1, 420), float16])) span=from_string:252:682 */ = %x_171;
  let %x_191: ((Tensor[(65, 10), float16], Tensor[(65, 10), float16]), (Tensor[(1, 1, 120), float16], Tensor[(1, 1, 240), float16]), (Tensor[(10, 24), float16], (Tensor[(10, 24), float16],)), Tensor[(1), float16], Tensor[(14, 65), float16], Tensor[(65, 10), float16], (Tensor[(1, 1, 420), float16], Tensor[(1, 1, 420), float16])) /* ty=((Tensor[(65, 10), float16], Tensor[(65, 10), float16]), (Tensor[(1, 1, 120), float16], Tensor[(1, 1, 240), float16]), (Tensor[(10, 24), float16], (Tensor[(10, 24), float16],)), Tensor[(1), float16], Tensor[(14, 65), float16], Tensor[(65, 10), float16], (Tensor[(1, 1, 420), float16], Tensor[(1, 1, 420), float16])) span=from_string:253:682 */ = %x_181;
  let %x_201: ((Tensor[(65, 10), float16], Tensor[(65, 10), float16]), (Tensor[(1, 1, 120), float16], Tensor[(1, 1, 240), float16]), (Tensor[(10, 24), float16], (Tensor[(10, 24), float16],)), Tensor[(1), float16], Tensor[(14, 65), float16], Tensor[(65, 10), float16], (Tensor[(1, 1, 420), float16], Tensor[(1, 1, 420), float16])) /* ty=((Tensor[(65, 10), float16], Tensor[(65, 10), float16]), (Tensor[(1, 1, 120), float16], Tensor[(1, 1, 240), float16]), (Tensor[(10, 24), float16], (Tensor[(10, 24), float16],)), Tensor[(1), float16], Tensor[(14, 65), float16], Tensor[(65, 10), float16], (Tensor[(1, 1, 420), float16], Tensor[(1, 1, 420), float16])) span=from_string:254:682 */ = %x_191;
  let %x_211: ((Tensor[(65, 10), float16], Tensor[(65, 10), float16]), (Tensor[(1, 1, 120), float16], Tensor[(1, 1, 240), float16]), (Tensor[(10, 24), float16], (Tensor[(10, 24), float16],)), Tensor[(1), float16], Tensor[(14, 65), float16], Tensor[(65, 10), float16], (Tensor[(1, 1, 420), float16], Tensor[(1, 1, 420), float16])) /* ty=((Tensor[(65, 10), float16], Tensor[(65, 10), float16]), (Tensor[(1, 1, 120), float16], Tensor[(1, 1, 240), float16]), (Tensor[(10, 24), float16], (Tensor[(10, 24), float16],)), Tensor[(1), float16], Tensor[(14, 65), float16], Tensor[(65, 10), float16], (Tensor[(1, 1, 420), float16], Tensor[(1, 1, 420), float16])) span=from_string:255:683 */ = %x_201;
  let %x_221: ((Tensor[(65, 10), float16], Tensor[(65, 10), float16]), (Tensor[(1, 1, 120), float16], Tensor[(1, 1, 240), float16]), (Tensor[(10, 24), float16], (Tensor[(10, 24), float16],)), Tensor[(1), float16], Tensor[(14, 65), float16], Tensor[(65, 10), float16], (Tensor[(1, 1, 420), float16], Tensor[(1, 1, 420), float16])) /* ty=((Tensor[(65, 10), float16], Tensor[(65, 10), float16]), (Tensor[(1, 1, 120), float16], Tensor[(1, 1, 240), float16]), (Tensor[(10, 24), float16], (Tensor[(10, 24), float16],)), Tensor[(1), float16], Tensor[(14, 65), float16], Tensor[(65, 10), float16], (Tensor[(1, 1, 420), float16], Tensor[(1, 1, 420), float16])) span=from_string:256:683 */ = %x_211;
  let %x_231: ((Tensor[(65, 10), float16], Tensor[(65, 10), float16]), (Tensor[(1, 1, 120), float16], Tensor[(1, 1, 240), float16]), (Tensor[(10, 24), float16], (Tensor[(10, 24), float16],)), Tensor[(1), float16], Tensor[(14, 65), float16], Tensor[(65, 10), float16], (Tensor[(1, 1, 420), float16], Tensor[(1, 1, 420), float16])) /* ty=((Tensor[(65, 10), float16], Tensor[(65, 10), float16]), (Tensor[(1, 1, 120), float16], Tensor[(1, 1, 240), float16]), (Tensor[(10, 24), float16], (Tensor[(10, 24), float16],)), Tensor[(1), float16], Tensor[(14, 65), float16], Tensor[(65, 10), float16], (Tensor[(1, 1, 420), float16], Tensor[(1, 1, 420), float16])) span=from_string:257:683 */ = %x_221;
  let %x_241: ((Tensor[(65, 10), float16], Tensor[(65, 10), float16]), (Tensor[(1, 1, 120), float16], Tensor[(1, 1, 240), float16]), (Tensor[(10, 24), float16], (Tensor[(10, 24), float16],)), Tensor[(1), float16], Tensor[(14, 65), float16], Tensor[(65, 10), float16], (Tensor[(1, 1, 420), float16], Tensor[(1, 1, 420), float16])) /* ty=((Tensor[(65, 10), float16], Tensor[(65, 10), float16]), (Tensor[(1, 1, 120), float16], Tensor[(1, 1, 240), float16]), (Tensor[(10, 24), float16], (Tensor[(10, 24), float16],)), Tensor[(1), float16], Tensor[(14, 65), float16], Tensor[(65, 10), float16], (Tensor[(1, 1, 420), float16], Tensor[(1, 1, 420), float16])) span=from_string:258:683 */ = %x_231;
  let %x_251: ((Tensor[(65, 10), float16], Tensor[(65, 10), float16]), (Tensor[(1, 1, 120), float16], Tensor[(1, 1, 240), float16]), (Tensor[(10, 24), float16], (Tensor[(10, 24), float16],)), Tensor[(1), float16], Tensor[(14, 65), float16], Tensor[(65, 10), float16], (Tensor[(1, 1, 420), float16], Tensor[(1, 1, 420), float16])) /* ty=((Tensor[(65, 10), float16], Tensor[(65, 10), float16]), (Tensor[(1, 1, 120), float16], Tensor[(1, 1, 240), float16]), (Tensor[(10, 24), float16], (Tensor[(10, 24), float16],)), Tensor[(1), float16], Tensor[(14, 65), float16], Tensor[(65, 10), float16], (Tensor[(1, 1, 420), float16], Tensor[(1, 1, 420), float16])) span=from_string:259:683 */ = %x_241;
  let %x_261: ((Tensor[(65, 10), float16], Tensor[(65, 10), float16]), (Tensor[(1, 1, 120), float16], Tensor[(1, 1, 240), float16]), (Tensor[(10, 24), float16], (Tensor[(10, 24), float16],)), Tensor[(1), float16], Tensor[(14, 65), float16], Tensor[(65, 10), float16], (Tensor[(1, 1, 420), float16], Tensor[(1, 1, 420), float16])) /* ty=((Tensor[(65, 10), float16], Tensor[(65, 10), float16]), (Tensor[(1, 1, 120), float16], Tensor[(1, 1, 240), float16]), (Tensor[(10, 24), float16], (Tensor[(10, 24), float16],)), Tensor[(1), float16], Tensor[(14, 65), float16], Tensor[(65, 10), float16], (Tensor[(1, 1, 420), float16], Tensor[(1, 1, 420), float16])) span=from_string:260:683 */ = %x_251;
  let %x_271: ((Tensor[(65, 10), float16], Tensor[(65, 10), float16]), (Tensor[(1, 1, 120), float16], Tensor[(1, 1, 240), float16]), (Tensor[(10, 24), float16], (Tensor[(10, 24), float16],)), Tensor[(1), float16], Tensor[(14, 65), float16], Tensor[(65, 10), float16], (Tensor[(1, 1, 420), float16], Tensor[(1, 1, 420), float16])) /* ty=((Tensor[(65, 10), float16], Tensor[(65, 10), float16]), (Tensor[(1, 1, 120), float16], Tensor[(1, 1, 240), float16]), (Tensor[(10, 24), float16], (Tensor[(10, 24), float16],)), Tensor[(1), float16], Tensor[(14, 65), float16], Tensor[(65, 10), float16], (Tensor[(1, 1, 420), float16], Tensor[(1, 1, 420), float16])) span=from_string:261:683 */ = %x_261;
  let %x_281: ((Tensor[(65, 10), float16], Tensor[(65, 10), float16]), (Tensor[(1, 1, 120), float16], Tensor[(1, 1, 240), float16]), (Tensor[(10, 24), float16], (Tensor[(10, 24), float16],)), Tensor[(1), float16], Tensor[(14, 65), float16], Tensor[(65, 10), float16], (Tensor[(1, 1, 420), float16], Tensor[(1, 1, 420), float16])) /* ty=((Tensor[(65, 10), float16], Tensor[(65, 10), float16]), (Tensor[(1, 1, 120), float16], Tensor[(1, 1, 240), float16]), (Tensor[(10, 24), float16], (Tensor[(10, 24), float16],)), Tensor[(1), float16], Tensor[(14, 65), float16], Tensor[(65, 10), float16], (Tensor[(1, 1, 420), float16], Tensor[(1, 1, 420), float16])) span=from_string:262:683 */ = %x_271;
  let %x_291: ((Tensor[(65, 10), float16], Tensor[(65, 10), float16]), (Tensor[(1, 1, 120), float16], Tensor[(1, 1, 240), float16]), (Tensor[(10, 24), float16], (Tensor[(10, 24), float16],)), Tensor[(1), float16], Tensor[(14, 65), float16], Tensor[(65, 10), float16], (Tensor[(1, 1, 420), float16], Tensor[(1, 1, 420), float16])) /* ty=((Tensor[(65, 10), float16], Tensor[(65, 10), float16]), (Tensor[(1, 1, 120), float16], Tensor[(1, 1, 240), float16]), (Tensor[(10, 24), float16], (Tensor[(10, 24), float16],)), Tensor[(1), float16], Tensor[(14, 65), float16], Tensor[(65, 10), float16], (Tensor[(1, 1, 420), float16], Tensor[(1, 1, 420), float16])) span=from_string:263:683 */ = %x_281;
  let %x_301: ((Tensor[(65, 10), float16], Tensor[(65, 10), float16]), (Tensor[(1, 1, 120), float16], Tensor[(1, 1, 240), float16]), (Tensor[(10, 24), float16], (Tensor[(10, 24), float16],)), Tensor[(1), float16], Tensor[(14, 65), float16], Tensor[(65, 10), float16], (Tensor[(1, 1, 420), float16], Tensor[(1, 1, 420), float16])) /* ty=((Tensor[(65, 10), float16], Tensor[(65, 10), float16]), (Tensor[(1, 1, 120), float16], Tensor[(1, 1, 240), float16]), (Tensor[(10, 24), float16], (Tensor[(10, 24), float16],)), Tensor[(1), float16], Tensor[(14, 65), float16], Tensor[(65, 10), float16], (Tensor[(1, 1, 420), float16], Tensor[(1, 1, 420), float16])) span=from_string:264:683 */ = %x_291;
  let %x_311: ((Tensor[(65, 10), float16], Tensor[(65, 10), float16]), (Tensor[(1, 1, 120), float16], Tensor[(1, 1, 240), float16]), (Tensor[(10, 24), float16], (Tensor[(10, 24), float16],)), Tensor[(1), float16], Tensor[(14, 65), float16], Tensor[(65, 10), float16], (Tensor[(1, 1, 420), float16], Tensor[(1, 1, 420), float16])) /* ty=((Tensor[(65, 10), float16], Tensor[(65, 10), float16]), (Tensor[(1, 1, 120), float16], Tensor[(1, 1, 240), float16]), (Tensor[(10, 24), float16], (Tensor[(10, 24), float16],)), Tensor[(1), float16], Tensor[(14, 65), float16], Tensor[(65, 10), float16], (Tensor[(1, 1, 420), float16], Tensor[(1, 1, 420), float16])) span=from_string:265:683 */ = %x_301;
  let %x_321: ((Tensor[(65, 10), float16], Tensor[(65, 10), float16]), (Tensor[(1, 1, 120), float16], Tensor[(1, 1, 240), float16]), (Tensor[(10, 24), float16], (Tensor[(10, 24), float16],)), Tensor[(1), float16], Tensor[(14, 65), float16], Tensor[(65, 10), float16], (Tensor[(1, 1, 420), float16], Tensor[(1, 1, 420), float16])) /* ty=((Tensor[(65, 10), float16], Tensor[(65, 10), float16]), (Tensor[(1, 1, 120), float16], Tensor[(1, 1, 240), float16]), (Tensor[(10, 24), float16], (Tensor[(10, 24), float16],)), Tensor[(1), float16], Tensor[(14, 65), float16], Tensor[(65, 10), float16], (Tensor[(1, 1, 420), float16], Tensor[(1, 1, 420), float16])) span=from_string:266:683 */ = %x_311;
  let %x_331: ((Tensor[(65, 10), float16], Tensor[(65, 10), float16]), (Tensor[(1, 1, 120), float16], Tensor[(1, 1, 240), float16]), (Tensor[(10, 24), float16], (Tensor[(10, 24), float16],)), Tensor[(1), float16], Tensor[(14, 65), float16], Tensor[(65, 10), float16], (Tensor[(1, 1, 420), float16], Tensor[(1, 1, 420), float16])) /* ty=((Tensor[(65, 10), float16], Tensor[(65, 10), float16]), (Tensor[(1, 1, 120), float16], Tensor[(1, 1, 240), float16]), (Tensor[(10, 24), float16], (Tensor[(10, 24), float16],)), Tensor[(1), float16], Tensor[(14, 65), float16], Tensor[(65, 10), float16], (Tensor[(1, 1, 420), float16], Tensor[(1, 1, 420), float16])) span=from_string:267:683 */ = %x_321;
  let %x_341: ((Tensor[(65, 10), float16], Tensor[(65, 10), float16]), (Tensor[(1, 1, 120), float16], Tensor[(1, 1, 240), float16]), (Tensor[(10, 24), float16], (Tensor[(10, 24), float16],)), Tensor[(1), float16], Tensor[(14, 65), float16], Tensor[(65, 10), float16], (Tensor[(1, 1, 420), float16], Tensor[(1, 1, 420), float16])) /* ty=((Tensor[(65, 10), float16], Tensor[(65, 10), float16]), (Tensor[(1, 1, 120), float16], Tensor[(1, 1, 240), float16]), (Tensor[(10, 24), float16], (Tensor[(10, 24), float16],)), Tensor[(1), float16], Tensor[(14, 65), float16], Tensor[(65, 10), float16], (Tensor[(1, 1, 420), float16], Tensor[(1, 1, 420), float16])) span=from_string:268:683 */ = %x_331;
  let %x_351: ((Tensor[(65, 10), float16], Tensor[(65, 10), float16]), (Tensor[(1, 1, 120), float16], Tensor[(1, 1, 240), float16]), (Tensor[(10, 24), float16], (Tensor[(10, 24), float16],)), Tensor[(1), float16], Tensor[(14, 65), float16], Tensor[(65, 10), float16], (Tensor[(1, 1, 420), float16], Tensor[(1, 1, 420), float16])) /* ty=((Tensor[(65, 10), float16], Tensor[(65, 10), float16]), (Tensor[(1, 1, 120), float16], Tensor[(1, 1, 240), float16]), (Tensor[(10, 24), float16], (Tensor[(10, 24), float16],)), Tensor[(1), float16], Tensor[(14, 65), float16], Tensor[(65, 10), float16], (Tensor[(1, 1, 420), float16], Tensor[(1, 1, 420), float16])) span=from_string:269:683 */ = %x_341;
  let %x_361: ((Tensor[(65, 10), float16], Tensor[(65, 10), float16]), (Tensor[(1, 1, 120), float16], Tensor[(1, 1, 240), float16]), (Tensor[(10, 24), float16], (Tensor[(10, 24), float16],)), Tensor[(1), float16], Tensor[(14, 65), float16], Tensor[(65, 10), float16], (Tensor[(1, 1, 420), float16], Tensor[(1, 1, 420), float16])) /* ty=((Tensor[(65, 10), float16], Tensor[(65, 10), float16]), (Tensor[(1, 1, 120), float16], Tensor[(1, 1, 240), float16]), (Tensor[(10, 24), float16], (Tensor[(10, 24), float16],)), Tensor[(1), float16], Tensor[(14, 65), float16], Tensor[(65, 10), float16], (Tensor[(1, 1, 420), float16], Tensor[(1, 1, 420), float16])) span=from_string:270:683 */ = %x_351;
  let %x_371: ((Tensor[(65, 10), float16], Tensor[(65, 10), float16]), (Tensor[(1, 1, 120), float16], Tensor[(1, 1, 240), float16]), (Tensor[(10, 24), float16], (Tensor[(10, 24), float16],)), Tensor[(1), float16], Tensor[(14, 65), float16], Tensor[(65, 10), float16], (Tensor[(1, 1, 420), float16], Tensor[(1, 1, 420), float16])) /* ty=((Tensor[(65, 10), float16], Tensor[(65, 10), float16]), (Tensor[(1, 1, 120), float16], Tensor[(1, 1, 240), float16]), (Tensor[(10, 24), float16], (Tensor[(10, 24), float16],)), Tensor[(1), float16], Tensor[(14, 65), float16], Tensor[(65, 10), float16], (Tensor[(1, 1, 420), float16], Tensor[(1, 1, 420), float16])) span=from_string:271:683 */ = %x_361;
  let %x_381: ((Tensor[(65, 10), float16], Tensor[(65, 10), float16]), (Tensor[(1, 1, 120), float16], Tensor[(1, 1, 240), float16]), (Tensor[(10, 24), float16], (Tensor[(10, 24), float16],)), Tensor[(1), float16], Tensor[(14, 65), float16], Tensor[(65, 10), float16], (Tensor[(1, 1, 420), float16], Tensor[(1, 1, 420), float16])) /* ty=((Tensor[(65, 10), float16], Tensor[(65, 10), float16]), (Tensor[(1, 1, 120), float16], Tensor[(1, 1, 240), float16]), (Tensor[(10, 24), float16], (Tensor[(10, 24), float16],)), Tensor[(1), float16], Tensor[(14, 65), float16], Tensor[(65, 10), float16], (Tensor[(1, 1, 420), float16], Tensor[(1, 1, 420), float16])) span=from_string:272:683 */ = %x_371;
  let %x_391: ((Tensor[(65, 10), float16], Tensor[(65, 10), float16]), (Tensor[(1, 1, 120), float16], Tensor[(1, 1, 240), float16]), (Tensor[(10, 24), float16], (Tensor[(10, 24), float16],)), Tensor[(1), float16], Tensor[(14, 65), float16], Tensor[(65, 10), float16], (Tensor[(1, 1, 420), float16], Tensor[(1, 1, 420), float16])) /* ty=((Tensor[(65, 10), float16], Tensor[(65, 10), float16]), (Tensor[(1, 1, 120), float16], Tensor[(1, 1, 240), float16]), (Tensor[(10, 24), float16], (Tensor[(10, 24), float16],)), Tensor[(1), float16], Tensor[(14, 65), float16], Tensor[(65, 10), float16], (Tensor[(1, 1, 420), float16], Tensor[(1, 1, 420), float16])) span=from_string:273:683 */ = %x_381;
  let %x_401: ((Tensor[(65, 10), float16], Tensor[(65, 10), float16]), (Tensor[(1, 1, 120), float16], Tensor[(1, 1, 240), float16]), (Tensor[(10, 24), float16], (Tensor[(10, 24), float16],)), Tensor[(1), float16], Tensor[(14, 65), float16], Tensor[(65, 10), float16], (Tensor[(1, 1, 420), float16], Tensor[(1, 1, 420), float16])) /* ty=((Tensor[(65, 10), float16], Tensor[(65, 10), float16]), (Tensor[(1, 1, 120), float16], Tensor[(1, 1, 240), float16]), (Tensor[(10, 24), float16], (Tensor[(10, 24), float16],)), Tensor[(1), float16], Tensor[(14, 65), float16], Tensor[(65, 10), float16], (Tensor[(1, 1, 420), float16], Tensor[(1, 1, 420), float16])) span=from_string:274:683 */ = %x_391;
  let %x_411: ((Tensor[(65, 10), float16], Tensor[(65, 10), float16]), (Tensor[(1, 1, 120), float16], Tensor[(1, 1, 240), float16]), (Tensor[(10, 24), float16], (Tensor[(10, 24), float16],)), Tensor[(1), float16], Tensor[(14, 65), float16], Tensor[(65, 10), float16], (Tensor[(1, 1, 420), float16], Tensor[(1, 1, 420), float16])) /* ty=((Tensor[(65, 10), float16], Tensor[(65, 10), float16]), (Tensor[(1, 1, 120), float16], Tensor[(1, 1, 240), float16]), (Tensor[(10, 24), float16], (Tensor[(10, 24), float16],)), Tensor[(1), float16], Tensor[(14, 65), float16], Tensor[(65, 10), float16], (Tensor[(1, 1, 420), float16], Tensor[(1, 1, 420), float16])) span=from_string:275:683 */ = %x_401;
  let %x_421: ((Tensor[(65, 10), float16], Tensor[(65, 10), float16]), (Tensor[(1, 1, 120), float16], Tensor[(1, 1, 240), float16]), (Tensor[(10, 24), float16], (Tensor[(10, 24), float16],)), Tensor[(1), float16], Tensor[(14, 65), float16], Tensor[(65, 10), float16], (Tensor[(1, 1, 420), float16], Tensor[(1, 1, 420), float16])) /* ty=((Tensor[(65, 10), float16], Tensor[(65, 10), float16]), (Tensor[(1, 1, 120), float16], Tensor[(1, 1, 240), float16]), (Tensor[(10, 24), float16], (Tensor[(10, 24), float16],)), Tensor[(1), float16], Tensor[(14, 65), float16], Tensor[(65, 10), float16], (Tensor[(1, 1, 420), float16], Tensor[(1, 1, 420), float16])) span=from_string:276:683 */ = %x_411;
  let %x_431: ((Tensor[(65, 10), float16], Tensor[(65, 10), float16]), (Tensor[(1, 1, 120), float16], Tensor[(1, 1, 240), float16]), (Tensor[(10, 24), float16], (Tensor[(10, 24), float16],)), Tensor[(1), float16], Tensor[(14, 65), float16], Tensor[(65, 10), float16], (Tensor[(1, 1, 420), float16], Tensor[(1, 1, 420), float16])) /* ty=((Tensor[(65, 10), float16], Tensor[(65, 10), float16]), (Tensor[(1, 1, 120), float16], Tensor[(1, 1, 240), float16]), (Tensor[(10, 24), float16], (Tensor[(10, 24), float16],)), Tensor[(1), float16], Tensor[(14, 65), float16], Tensor[(65, 10), float16], (Tensor[(1, 1, 420), float16], Tensor[(1, 1, 420), float16])) span=from_string:277:683 */ = %x_421;
  let %x_441: ((Tensor[(65, 10), float16], Tensor[(65, 10), float16]), (Tensor[(1, 1, 120), float16], Tensor[(1, 1, 240), float16]), (Tensor[(10, 24), float16], (Tensor[(10, 24), float16],)), Tensor[(1), float16], Tensor[(14, 65), float16], Tensor[(65, 10), float16], (Tensor[(1, 1, 420), float16], Tensor[(1, 1, 420), float16])) /* ty=((Tensor[(65, 10), float16], Tensor[(65, 10), float16]), (Tensor[(1, 1, 120), float16], Tensor[(1, 1, 240), float16]), (Tensor[(10, 24), float16], (Tensor[(10, 24), float16],)), Tensor[(1), float16], Tensor[(14, 65), float16], Tensor[(65, 10), float16], (Tensor[(1, 1, 420), float16], Tensor[(1, 1, 420), float16])) span=from_string:278:683 */ = %x_431;
  let %x_451: ((Tensor[(65, 10), float16], Tensor[(65, 10), float16]), (Tensor[(1, 1, 120), float16], Tensor[(1, 1, 240), float16]), (Tensor[(10, 24), float16], (Tensor[(10, 24), float16],)), Tensor[(1), float16], Tensor[(14, 65), float16], Tensor[(65, 10), float16], (Tensor[(1, 1, 420), float16], Tensor[(1, 1, 420), float16])) /* ty=((Tensor[(65, 10), float16], Tensor[(65, 10), float16]), (Tensor[(1, 1, 120), float16], Tensor[(1, 1, 240), float16]), (Tensor[(10, 24), float16], (Tensor[(10, 24), float16],)), Tensor[(1), float16], Tensor[(14, 65), float16], Tensor[(65, 10), float16], (Tensor[(1, 1, 420), float16], Tensor[(1, 1, 420), float16])) span=from_string:279:683 */ = %x_441;
  let %x_461: ((Tensor[(65, 10), float16], Tensor[(65, 10), float16]), (Tensor[(1, 1, 120), float16], Tensor[(1, 1, 240), float16]), (Tensor[(10, 24), float16], (Tensor[(10, 24), float16],)), Tensor[(1), float16], Tensor[(14, 65), float16], Tensor[(65, 10), float16], (Tensor[(1, 1, 420), float16], Tensor[(1, 1, 420), float16])) /* ty=((Tensor[(65, 10), float16], Tensor[(65, 10), float16]), (Tensor[(1, 1, 120), float16], Tensor[(1, 1, 240), float16]), (Tensor[(10, 24), float16], (Tensor[(10, 24), float16],)), Tensor[(1), float16], Tensor[(14, 65), float16], Tensor[(65, 10), float16], (Tensor[(1, 1, 420), float16], Tensor[(1, 1, 420), float16])) span=from_string:280:683 */ = %x_451;
  let %x_471: ((Tensor[(65, 10), float16], Tensor[(65, 10), float16]), (Tensor[(1, 1, 120), float16], Tensor[(1, 1, 240), float16]), (Tensor[(10, 24), float16], (Tensor[(10, 24), float16],)), Tensor[(1), float16], Tensor[(14, 65), float16], Tensor[(65, 10), float16], (Tensor[(1, 1, 420), float16], Tensor[(1, 1, 420), float16])) /* ty=((Tensor[(65, 10), float16], Tensor[(65, 10), float16]), (Tensor[(1, 1, 120), float16], Tensor[(1, 1, 240), float16]), (Tensor[(10, 24), float16], (Tensor[(10, 24), float16],)), Tensor[(1), float16], Tensor[(14, 65), float16], Tensor[(65, 10), float16], (Tensor[(1, 1, 420), float16], Tensor[(1, 1, 420), float16])) span=from_string:281:683 */ = %x_461;
  let %x_481: ((Tensor[(65, 10), float16], Tensor[(65, 10), float16]), (Tensor[(1, 1, 120), float16], Tensor[(1, 1, 240), float16]), (Tensor[(10, 24), float16], (Tensor[(10, 24), float16],)), Tensor[(1), float16], Tensor[(14, 65), float16], Tensor[(65, 10), float16], (Tensor[(1, 1, 420), float16], Tensor[(1, 1, 420), float16])) /* ty=((Tensor[(65, 10), float16], Tensor[(65, 10), float16]), (Tensor[(1, 1, 120), float16], Tensor[(1, 1, 240), float16]), (Tensor[(10, 24), float16], (Tensor[(10, 24), float16],)), Tensor[(1), float16], Tensor[(14, 65), float16], Tensor[(65, 10), float16], (Tensor[(1, 1, 420), float16], Tensor[(1, 1, 420), float16])) span=from_string:282:683 */ = %x_471;
  let %x_491: ((Tensor[(65, 10), float16], Tensor[(65, 10), float16]), (Tensor[(1, 1, 120), float16], Tensor[(1, 1, 240), float16]), (Tensor[(10, 24), float16], (Tensor[(10, 24), float16],)), Tensor[(1), float16], Tensor[(14, 65), float16], Tensor[(65, 10), float16], (Tensor[(1, 1, 420), float16], Tensor[(1, 1, 420), float16])) /* ty=((Tensor[(65, 10), float16], Tensor[(65, 10), float16]), (Tensor[(1, 1, 120), float16], Tensor[(1, 1, 240), float16]), (Tensor[(10, 24), float16], (Tensor[(10, 24), float16],)), Tensor[(1), float16], Tensor[(14, 65), float16], Tensor[(65, 10), float16], (Tensor[(1, 1, 420), float16], Tensor[(1, 1, 420), float16])) span=from_string:283:683 */ = %x_481;
  let %x_501: ((Tensor[(65, 10), float16], Tensor[(65, 10), float16]), (Tensor[(1, 1, 120), float16], Tensor[(1, 1, 240), float16]), (Tensor[(10, 24), float16], (Tensor[(10, 24), float16],)), Tensor[(1), float16], Tensor[(14, 65), float16], Tensor[(65, 10), float16], (Tensor[(1, 1, 420), float16], Tensor[(1, 1, 420), float16])) /* ty=((Tensor[(65, 10), float16], Tensor[(65, 10), float16]), (Tensor[(1, 1, 120), float16], Tensor[(1, 1, 240), float16]), (Tensor[(10, 24), float16], (Tensor[(10, 24), float16],)), Tensor[(1), float16], Tensor[(14, 65), float16], Tensor[(65, 10), float16], (Tensor[(1, 1, 420), float16], Tensor[(1, 1, 420), float16])) span=from_string:284:683 */ = %x_491;
  let %x_511: ((Tensor[(65, 10), float16], Tensor[(65, 10), float16]), (Tensor[(1, 1, 120), float16], Tensor[(1, 1, 240), float16]), (Tensor[(10, 24), float16], (Tensor[(10, 24), float16],)), Tensor[(1), float16], Tensor[(14, 65), float16], Tensor[(65, 10), float16], (Tensor[(1, 1, 420), float16], Tensor[(1, 1, 420), float16])) /* ty=((Tensor[(65, 10), float16], Tensor[(65, 10), float16]), (Tensor[(1, 1, 120), float16], Tensor[(1, 1, 240), float16]), (Tensor[(10, 24), float16], (Tensor[(10, 24), float16],)), Tensor[(1), float16], Tensor[(14, 65), float16], Tensor[(65, 10), float16], (Tensor[(1, 1, 420), float16], Tensor[(1, 1, 420), float16])) span=from_string:285:681 */ = %x_501;
  let %x_521: ((Tensor[(65, 10), float16], Tensor[(65, 10), float16]), (Tensor[(1, 1, 120), float16], Tensor[(1, 1, 240), float16]), (Tensor[(10, 24), float16], (Tensor[(10, 24), float16],)), Tensor[(1), float16], Tensor[(14, 65), float16], Tensor[(65, 10), float16], (Tensor[(1, 1, 420), float16], Tensor[(1, 1, 420), float16])) /* ty=((Tensor[(65, 10), float16], Tensor[(65, 10), float16]), (Tensor[(1, 1, 120), float16], Tensor[(1, 1, 240), float16]), (Tensor[(10, 24), float16], (Tensor[(10, 24), float16],)), Tensor[(1), float16], Tensor[(14, 65), float16], Tensor[(65, 10), float16], (Tensor[(1, 1, 420), float16], Tensor[(1, 1, 420), float16])) span=from_string:286:3 */ = %x_511;
  %x_521
}
