#[version = "0.0.5"]
def @main(%x0: Tensor[(10, 10), float32] /* ty=Tensor[(10, 10), float32] span=from_string:4:103 */, %x1: Tensor[(65, 10), float32] /* ty=Tensor[(65, 10), float32] span=from_string:19:109 */, %x2: Tensor[(10, 10), float32] /* ty=Tensor[(10, 10), float32] span=from_string:19:114 */, %x3: Tensor[(10), float32] /* ty=Tensor[(10), float32] span=from_string:18:111 */, %x4: Tensor[(10), float32] /* ty=Tensor[(10), float32] span=from_string:20:111 */, %x5: Tensor[(12, 10), float32] /* ty=Tensor[(12, 10), float32] span=from_string:22:115 */, %x6: Tensor[(12), float32] /* ty=Tensor[(12), float32] span=from_string:23:111 */, %x7: Tensor[(1), float32] /* ty=Tensor[(1), float32] span=from_string:24:117 */, %x8: Tensor[(24, 10), float32] /* ty=Tensor[(24, 10), float32] span=from_string:12:114 */, %x9: Tensor[(24), float32] /* ty=Tensor[(24), float32] span=from_string:13:110 */, %x10: Tensor[(1), float32] /* ty=Tensor[(1), float32] span=from_string:38:94 */, %x11: Tensor[(14, 30), float32] /* ty=Tensor[(14, 30), float32] span=from_string:39:218 */, %x12: Tensor[(42, 24), float32] /* ty=Tensor[(42, 24), float32] span=from_string:50:109 */, %x13: Tensor[(10, 24), float32] /* ty=Tensor[(10, 24), float32] span=from_string:50:115 */, %x14: Tensor[(10), float32] /* ty=Tensor[(10), float32] span=from_string:47:111 */, %x15: Tensor[(10), float32] /* ty=Tensor[(10), float32] span=from_string:51:111 */, %x16: Tensor[(1), float32] /* ty=Tensor[(1), float32] span=from_string:48:117 */, %x17: Tensor[(1), float32] /* ty=Tensor[(1), float32] span=from_string:52:117 */) -> ((Tensor[(65, 10), float32], Tensor[(65, 10), float32]), (Tensor[(1, 1, 120), float32], Tensor[(1, 1, 240), float32]), (Tensor[(10, 24), float32], (Tensor[(10, 24), float32],)), Tensor[(1), float32], Tensor[(14, 65), float32], Tensor[(65, 10), bfloat16], (Tensor[(1, 1, 420), float32], Tensor[(1, 1, 420), float32])) {
  %0 = fn (Primitive=1) -> Tensor[(10, 10), float32] {
    zeros(shape=[10, 10], dtype="float32") /* ty=Tensor[(10, 10), float32] span=from_string:3:98 */
  } /* ty=fn () -> Tensor[(10, 10), float32] */;
  let %x_0: Tensor[(10, 10), float32] /* ty=Tensor[(10, 10), float32] span=from_string:4:108 */ = %0() /* ty=Tensor[(10, 10), float32] */;
  %1 = fn (%p0: Tensor[(10, 10), float32] /* ty=Tensor[(10, 10), float32] */, %p1: Tensor[(10, 10), float32] /* ty=Tensor[(10, 10), float32] */, Primitive=1) -> Tensor[(10, 10), float32] {
    add(%p0, %p1) /* ty=Tensor[(10, 10), float32] span=from_string:4:99 */
  } /* ty=fn (Tensor[(10, 10), float32], Tensor[(10, 10), float32]) -> Tensor[(10, 10), float32] */;
  let %x_1: Tensor[(10, 10), float32] /* ty=Tensor[(10, 10), float32] span=from_string:17:114 */ = %1(%x0, %x_0) /* ty=Tensor[(10, 10), float32] */;
  %2 = fn (%p01: Tensor[(10, 10), float32] /* ty=Tensor[(10, 10), float32] */, Primitive=1) -> Tensor[(10, 10), float32] {
    nn.relu(%p01) /* ty=Tensor[(10, 10), float32] span=from_string:5:98 */
  } /* ty=fn (Tensor[(10, 10), float32]) -> Tensor[(10, 10), float32] */;
  let %x_2: Tensor[(10, 10), float32] /* ty=Tensor[(10, 10), float32] span=from_string:7:103 */ = %2(%x_1) /* ty=Tensor[(10, 10), float32] */;
  let %x_3: float32 /* ty=float32 span=from_string:7:109 */ = 1f /* ty=float32 span=from_string:6:64 */;
  %3 = fn (%p02: Tensor[(10, 10), float32] /* ty=Tensor[(10, 10), float32] */, %p11: float32 /* ty=float32 */, Primitive=1) -> Tensor[(10, 10), float32] {
    add(%p02, %p11) /* ty=Tensor[(10, 10), float32] span=from_string:7:99 */
  } /* ty=fn (Tensor[(10, 10), float32], float32) -> Tensor[(10, 10), float32] */;
  let %x_4: Tensor[(10, 10), float32] /* ty=Tensor[(10, 10), float32] span=from_string:11:103 */ = %3(%x_2, %x_3) /* ty=Tensor[(10, 10), float32] */;
  %4 = fn (%p03: Tensor[(10, 10), float32] /* ty=Tensor[(10, 10), float32] */, Primitive=1) -> Tensor[(10, 10), float32] {
    nn.relu(%p03) /* ty=Tensor[(10, 10), float32] span=from_string:8:99 */
  } /* ty=fn (Tensor[(10, 10), float32]) -> Tensor[(10, 10), float32] */;
  let %x_5: Tensor[(10, 10), float32] /* ty=Tensor[(10, 10), float32] span=from_string:10:103 */ = %4(%x_1) /* ty=Tensor[(10, 10), float32] */;
  let %x_6: float32 /* ty=float32 span=from_string:10:109 */ = 1f /* ty=float32 span=from_string:9:65 */;
  %5 = fn (%p04: Tensor[(10, 10), float32] /* ty=Tensor[(10, 10), float32] */, %p12: float32 /* ty=float32 */, Primitive=1) -> Tensor[(10, 10), float32] {
    add(%p04, %p12) /* ty=Tensor[(10, 10), float32] span=from_string:10:99 */
  } /* ty=fn (Tensor[(10, 10), float32], float32) -> Tensor[(10, 10), float32] */;
  let %x_7: Tensor[(10, 10), float32] /* ty=Tensor[(10, 10), float32] span=from_string:11:109 */ = %5(%x_5, %x_6) /* ty=Tensor[(10, 10), float32] */;
  %6 = fn (%p05: Tensor[(10, 10), float32] /* ty=Tensor[(10, 10), float32] */, %p13: Tensor[(10, 10), float32] /* ty=Tensor[(10, 10), float32] */, Primitive=1) -> Tensor[(10, 10), float32] {
    add(%p05, %p13) /* ty=Tensor[(10, 10), float32] span=from_string:11:99 */
  } /* ty=fn (Tensor[(10, 10), float32], Tensor[(10, 10), float32]) -> Tensor[(10, 10), float32] */;
  let %x_8: Tensor[(10, 10), float32] /* ty=Tensor[(10, 10), float32] span=from_string:22:109 */ = %6(%x_4, %x_7) /* ty=Tensor[(10, 10), float32] */;
  %7 = fn (%p06: Tensor[(10, 10), float32] /* ty=Tensor[(10, 10), float32] */, %p14: Tensor[(24, 10), float32] /* ty=Tensor[(24, 10), float32] */, Primitive=1) -> Tensor[(10, 24), float32] {
    nn.dense(%p06, %p14, units=None) /* ty=Tensor[(10, 24), float32] span=from_string:12:99 */
  } /* ty=fn (Tensor[(10, 10), float32], Tensor[(24, 10), float32]) -> Tensor[(10, 24), float32] */;
  let %x_9: Tensor[(10, 24), float32] /* ty=Tensor[(10, 24), float32] span=from_string:13:104 */ = %7(%x_8, %x8) /* ty=Tensor[(10, 24), float32] */;
  %8 = fn (%p07: Tensor[(10, 24), float32] /* ty=Tensor[(10, 24), float32] */, %p15: Tensor[(24), float32] /* ty=Tensor[(24), float32] */, Primitive=1) -> Tensor[(10, 24), float32] {
    add(%p07, %p15) /* ty=Tensor[(10, 24), float32] span=from_string:13:100 */
  } /* ty=fn (Tensor[(10, 24), float32], Tensor[(24), float32]) -> Tensor[(10, 24), float32] */;
  let %x_10: Tensor[(10, 24), float32] /* ty=Tensor[(10, 24), float32] span=from_string:14:110 */ = %8(%x_9, %x9) /* ty=Tensor[(10, 24), float32] */;
  %9 = fn (%p08: Tensor[(10, 24), float32] /* ty=Tensor[(10, 24), float32] */, %p16: Tensor[(1), float32] /* ty=Tensor[(1), float32] */, Primitive=1) -> Tensor[(10, 24), float32] {
    multiply(%p08, %p16) /* ty=Tensor[(10, 24), float32] span=from_string:14:101 */
  } /* ty=fn (Tensor[(10, 24), float32], Tensor[(1), float32]) -> Tensor[(10, 24), float32] */;
  let %x_11: Tensor[(10, 24), float32] /* ty=Tensor[(10, 24), float32] span=from_string:32:116 */ = %9(%x_10, %x10) /* ty=Tensor[(10, 24), float32] */;
  %10 = fn (%p09: Tensor[(10, 24), float32] /* ty=Tensor[(10, 24), float32] */, Primitive=1) -> Tensor[(10, 24), float32] {
    multiply(%p09, %p09) /* ty=Tensor[(10, 24), float32] span=from_string:15:100 */
  } /* ty=fn (Tensor[(10, 24), float32]) -> Tensor[(10, 24), float32] */;
  let %x18: Tensor[(10, 24), float32] /* ty=Tensor[(10, 24), float32] span=from_string:36:165 */ = %10(%x_11) /* ty=Tensor[(10, 24), float32] */;
  %11 = fn (Primitive=1) -> Tensor[(10, 24), float32] {
    ones(shape=[10, 24], dtype="float32") /* ty=Tensor[(10, 24), float32] span=from_string:16:99 */
  } /* ty=fn () -> Tensor[(10, 24), float32] */;
  let %x19: Tensor[(10, 24), float32] /* ty=Tensor[(10, 24), float32] span=from_string:32:110 */ = %11() /* ty=Tensor[(10, 24), float32] */;
  %12 = fn (%p010: Tensor[(65, 10), float32] /* ty=Tensor[(65, 10), float32] */, %p17: Tensor[(10, 10), float32] /* ty=Tensor[(10, 10), float32] */, Primitive=1) -> Tensor[(65, 10), float32] {
    nn.dense(%p010, %p17, units=None) /* ty=Tensor[(65, 10), float32] span=from_string:17:100 */
  } /* ty=fn (Tensor[(65, 10), float32], Tensor[(10, 10), float32]) -> Tensor[(65, 10), float32] */;
  let %x_12: Tensor[(65, 10), float32] /* ty=Tensor[(65, 10), float32] span=from_string:18:104 */ = %12(%x1, %x_1) /* ty=Tensor[(65, 10), float32] */;
  %13 = fn (%p011: Tensor[(65, 10), float32] /* ty=Tensor[(65, 10), float32] */, %p18: Tensor[(10), float32] /* ty=Tensor[(10), float32] */, Primitive=1) -> Tensor[(65, 10), float32] {
    add(%p011, %p18) /* ty=Tensor[(65, 10), float32] span=from_string:18:100 */
  } /* ty=fn (Tensor[(65, 10), float32], Tensor[(10), float32]) -> Tensor[(65, 10), float32] */;
  let %x_13: Tensor[(65, 10), float32] /* ty=Tensor[(65, 10), float32] span=from_string:21:159 */ = %13(%x_12, %x3) /* ty=Tensor[(65, 10), float32] */;
  %14 = fn (%p012: Tensor[(65, 10), float32] /* ty=Tensor[(65, 10), float32] */, %p19: Tensor[(10, 10), float32] /* ty=Tensor[(10, 10), float32] */, Primitive=1) -> Tensor[(65, 10), float32] {
    nn.dense(%p012, %p19, units=None) /* ty=Tensor[(65, 10), float32] span=from_string:19:100 */
  } /* ty=fn (Tensor[(65, 10), float32], Tensor[(10, 10), float32]) -> Tensor[(65, 10), float32] */;
  let %x_14: Tensor[(65, 10), float32] /* ty=Tensor[(65, 10), float32] span=from_string:42:104 */ = %14(%x1, %x2) /* ty=Tensor[(65, 10), float32] */;
  %15 = fn (%p013: Tensor[(65, 10), float32] /* ty=Tensor[(65, 10), float32] */, %p110: Tensor[(10), float32] /* ty=Tensor[(10), float32] */, Primitive=1) -> Tensor[(65, 10), float32] {
    add(%p013, %p110) /* ty=Tensor[(65, 10), float32] span=from_string:20:100 */
  } /* ty=fn (Tensor[(65, 10), float32], Tensor[(10), float32]) -> Tensor[(65, 10), float32] */;
  let %x_15: Tensor[(65, 10), float32] /* ty=Tensor[(65, 10), float32] span=from_string:21:166 */ = %15(%x_14, %x4) /* ty=Tensor[(65, 10), float32] */;
  let %x_16: (Tensor[(65, 10), float32], Tensor[(65, 10), float32]) /* ty=(Tensor[(65, 10), float32], Tensor[(65, 10), float32]) span=from_string:55:683 */ = (%x_13, %x_15) /* ty=(Tensor[(65, 10), float32], Tensor[(65, 10), float32]) span=from_string:21:158 */;
  %16 = fn (%p014: Tensor[(10, 10), float32] /* ty=Tensor[(10, 10), float32] */, %p111: Tensor[(12, 10), float32] /* ty=Tensor[(12, 10), float32] */, Primitive=1) -> Tensor[(10, 12), float32] {
    nn.dense(%p014, %p111, units=None) /* ty=Tensor[(10, 12), float32] span=from_string:22:100 */
  } /* ty=fn (Tensor[(10, 10), float32], Tensor[(12, 10), float32]) -> Tensor[(10, 12), float32] */;
  let %x_17: Tensor[(10, 12), float32] /* ty=Tensor[(10, 12), float32] span=from_string:23:104 */ = %16(%x_8, %x5) /* ty=Tensor[(10, 12), float32] */;
  %17 = fn (%p015: Tensor[(10, 12), float32] /* ty=Tensor[(10, 12), float32] */, %p112: Tensor[(12), float32] /* ty=Tensor[(12), float32] */, Primitive=1) -> Tensor[(10, 12), float32] {
    add(%p015, %p112) /* ty=Tensor[(10, 12), float32] span=from_string:23:100 */
  } /* ty=fn (Tensor[(10, 12), float32], Tensor[(12), float32]) -> Tensor[(10, 12), float32] */;
  let %x_18: Tensor[(10, 12), float32] /* ty=Tensor[(10, 12), float32] span=from_string:24:110 */ = %17(%x_17, %x6) /* ty=Tensor[(10, 12), float32] */;
  %18 = fn (%p016: Tensor[(10, 12), float32] /* ty=Tensor[(10, 12), float32] */, %p113: Tensor[(1), float32] /* ty=Tensor[(1), float32] */, Primitive=1) -> Tensor[(10, 12), float32] {
    multiply(%p016, %p113) /* ty=Tensor[(10, 12), float32] span=from_string:24:101 */
  } /* ty=fn (Tensor[(10, 12), float32], Tensor[(1), float32]) -> Tensor[(10, 12), float32] */;
  let %x_19: Tensor[(10, 12), float32] /* ty=Tensor[(10, 12), float32] span=from_string:25:114 */ = %18(%x_18, %x7) /* ty=Tensor[(10, 12), float32] */;
  %19 = fn (%p017: Tensor[(10, 12), float32] /* ty=Tensor[(10, 12), float32] */, Primitive=1, relay.reshape_only=1) -> Tensor[(1, 1, 120), float32] {
    reshape(%p017, newshape=[1, 1, 120]) /* ty=Tensor[(1, 1, 120), float32] span=from_string:25:106 */
  } /* ty=fn (Tensor[(10, 12), float32]) -> Tensor[(1, 1, 120), float32] */;
  let %x_20: Tensor[(1, 1, 120), float32] /* ty=Tensor[(1, 1, 120), float32] span=from_string:27:171 */ = %19(%x_19) /* ty=Tensor[(1, 1, 120), float32] */;
  %20 = fn (%p018: Tensor[(10, 24), float32] /* ty=Tensor[(10, 24), float32] */, Primitive=1, relay.reshape_only=1) -> Tensor[(1, 1, 240), float32] {
    reshape(%p018, newshape=[1, 1, 240]) /* ty=Tensor[(1, 1, 240), float32] span=from_string:26:106 */
  } /* ty=fn (Tensor[(10, 24), float32]) -> Tensor[(1, 1, 240), float32] */;
  let %x_21: Tensor[(1, 1, 240), float32] /* ty=Tensor[(1, 1, 240), float32] span=from_string:27:178 */ = %20(%x_11) /* ty=Tensor[(1, 1, 240), float32] */;
  let %x_22: (Tensor[(1, 1, 120), float32], Tensor[(1, 1, 240), float32]) /* ty=(Tensor[(1, 1, 120), float32], Tensor[(1, 1, 240), float32]) span=from_string:55:690 */ = (%x_20, %x_21) /* ty=(Tensor[(1, 1, 120), float32], Tensor[(1, 1, 240), float32]) span=from_string:27:170 */;
  %21 = fn (Primitive=1) -> Tensor[(10, 24), float32] {
    zeros(shape=[10, 24], dtype="float32") /* ty=Tensor[(10, 24), float32] span=from_string:28:100 */
  } /* ty=fn () -> Tensor[(10, 24), float32] */;
  let %x_23: Tensor[(10, 24), float32] /* ty=Tensor[(10, 24), float32] span=from_string:31:104 */ = %21() /* ty=Tensor[(10, 24), float32] */;
  %22 = fn (%p019: Tensor[(10, 24), float32] /* ty=Tensor[(10, 24), float32] */, %p114: Tensor[(10, 24), float32] /* ty=Tensor[(10, 24), float32] */, Primitive=1) -> Tensor[(10, 24), float32] {
    multiply(%p019, %p114) /* ty=Tensor[(10, 24), float32] span=from_string:29:101 */
  } /* ty=fn (Tensor[(10, 24), float32], Tensor[(10, 24), float32]) -> Tensor[(10, 24), float32] */;
  let %x_24: Tensor[(10, 24), float32] /* ty=Tensor[(10, 24), float32] span=from_string:46:115 */ = %22(%x19, %x_11) /* ty=Tensor[(10, 24), float32] */;
  %23 = fn (%p020: Tensor[(10, 24), float32] /* ty=Tensor[(10, 24), float32] */, %p115: Tensor[(2), int32] /* ty=Tensor[(2), int32] */, Primitive=1) -> Tensor[(10, 24), float32] {
    collapse_sum_to(%p020, %p115, meta[relay.attrs.InitOpAttrs][0]) /* ty=Tensor[(10, 24), float32] span=from_string:30:100 */
  } /* ty=fn (Tensor[(10, 24), float32], Tensor[(2), int32]) -> Tensor[(10, 24), float32] */;
  let %x_25: Tensor[(10, 24), float32] /* ty=Tensor[(10, 24), float32] span=from_string:31:111 */ = %23(%x_24, meta[relay.Constant][0] /* ty=Tensor[(2), int32] span=from_string:30:128 */) /* ty=Tensor[(10, 24), float32] */;
  %24 = fn (%p021: Tensor[(10, 24), float32] /* ty=Tensor[(10, 24), float32] */, %p116: Tensor[(10, 24), float32] /* ty=Tensor[(10, 24), float32] */, Primitive=1) -> Tensor[(10, 24), float32] {
    add(%p021, %p116) /* ty=Tensor[(10, 24), float32] span=from_string:31:100 */
  } /* ty=fn (Tensor[(10, 24), float32], Tensor[(10, 24), float32]) -> Tensor[(10, 24), float32] */;
  let %x_26: Tensor[(10, 24), float32] /* ty=Tensor[(10, 24), float32] span=from_string:34:104 */ = %24(%x_23, %x_25) /* ty=Tensor[(10, 24), float32] */;
  %25 = fn (%p022: Tensor[(10, 24), float32] /* ty=Tensor[(10, 24), float32] */, %p117: Tensor[(10, 24), float32] /* ty=Tensor[(10, 24), float32] */, Primitive=1) -> Tensor[(10, 24), float32] {
    multiply(%p022, %p117) /* ty=Tensor[(10, 24), float32] span=from_string:32:101 */
  } /* ty=fn (Tensor[(10, 24), float32], Tensor[(10, 24), float32]) -> Tensor[(10, 24), float32] */;
  let %x_27: Tensor[(10, 24), float32] /* ty=Tensor[(10, 24), float32] span=from_string:33:116 */ = %25(%x19, %x_11) /* ty=Tensor[(10, 24), float32] */;
  %26 = fn (%p023: Tensor[(10, 24), float32] /* ty=Tensor[(10, 24), float32] */, %p118: Tensor[(2), int32] /* ty=Tensor[(2), int32] */, Primitive=1) -> Tensor[(10, 24), float32] {
    collapse_sum_to(%p023, %p118, meta[relay.attrs.InitOpAttrs][1]) /* ty=Tensor[(10, 24), float32] span=from_string:33:100 */
  } /* ty=fn (Tensor[(10, 24), float32], Tensor[(2), int32]) -> Tensor[(10, 24), float32] */;
  let %x_28: Tensor[(10, 24), float32] /* ty=Tensor[(10, 24), float32] span=from_string:34:111 */ = %26(%x_27, meta[relay.Constant][1] /* ty=Tensor[(2), int32] span=from_string:33:128 */) /* ty=Tensor[(10, 24), float32] */;
  %27 = fn (%p024: Tensor[(10, 24), float32] /* ty=Tensor[(10, 24), float32] */, %p119: Tensor[(10, 24), float32] /* ty=Tensor[(10, 24), float32] */, Primitive=1) -> Tensor[(10, 24), float32] {
    add(%p024, %p119) /* ty=Tensor[(10, 24), float32] span=from_string:34:100 */
  } /* ty=fn (Tensor[(10, 24), float32], Tensor[(10, 24), float32]) -> Tensor[(10, 24), float32] */;
  let %x_29: Tensor[(10, 24), float32] /* ty=Tensor[(10, 24), float32] span=from_string:35:107 */ = %27(%x_26, %x_28) /* ty=Tensor[(10, 24), float32] */;
  let %x_30: (Tensor[(10, 24), float32],) /* ty=(Tensor[(10, 24), float32],) span=from_string:36:171 */ = (%x_29,) /* ty=(Tensor[(10, 24), float32],) span=from_string:35:106 */;
  let %x_31: (Tensor[(10, 24), float32], (Tensor[(10, 24), float32],)) /* ty=(Tensor[(10, 24), float32], (Tensor[(10, 24), float32],)) span=from_string:55:697 */ = (%x18, %x_30) /* ty=(Tensor[(10, 24), float32], (Tensor[(10, 24), float32],)) span=from_string:36:164 */;
  %28 = fn (Primitive=1) -> Tensor[(1), float32] {
    ones(shape=[1], dtype="float32") /* ty=Tensor[(1), float32] span=from_string:37:90 */
  } /* ty=fn () -> Tensor[(1), float32] */;
  let %x_32: Tensor[(1), float32] /* ty=Tensor[(1), float32] span=from_string:38:100 */ = %28() /* ty=Tensor[(1), float32] */;
  %29 = fn (%p025: Tensor[(1), float32] /* ty=Tensor[(1), float32] */, %p120: Tensor[(1), float32] /* ty=Tensor[(1), float32] */, Primitive=1) -> Tensor[(1), float32] {
    add(%p025, %p120) /* ty=Tensor[(1), float32] span=from_string:38:90 */
  } /* ty=fn (Tensor[(1), float32], Tensor[(1), float32]) -> Tensor[(1), float32] */;
  let %x_33: Tensor[(1), float32] /* ty=Tensor[(1), float32] span=from_string:55:704 */ = %29(%x10, %x_32) /* ty=Tensor[(1), float32] */;
  %30 = fn (%p026: Tensor[(14, 30), float32] /* ty=Tensor[(14, 30), float32] */, Primitive=1) -> (Tensor[(14, 10), float32], Tensor[(14, 10), float32], Tensor[(14, 10), float32]) {
    split(%p026, indices_or_sections=3, axis=1) /* ty=(Tensor[(14, 10), float32], Tensor[(14, 10), float32], Tensor[(14, 10), float32]) span=from_string:39:212 */
  } /* ty=fn (Tensor[(14, 30), float32]) -> (Tensor[(14, 10), float32], Tensor[(14, 10), float32], Tensor[(14, 10), float32]) */;
  let %x_34: (Tensor[(14, 10), float32], Tensor[(14, 10), float32], Tensor[(14, 10), float32]) /* ty=(Tensor[(14, 10), float32], Tensor[(14, 10), float32], Tensor[(14, 10), float32]) span=from_string:40:100 */ = %30(%x11) /* ty=(Tensor[(14, 10), float32], Tensor[(14, 10), float32], Tensor[(14, 10), float32]) */;
  let %x_35: Tensor[(14, 10), float32] /* ty=Tensor[(14, 10), float32] span=from_string:43:109 */ = %x_34.0 /* ty=Tensor[(14, 10), float32] span=from_string:40:100 */;
  %31 = fn (Primitive=1) -> Tensor[(65, 10), float32] {
    ones(shape=[65, 10], dtype="float32") /* ty=Tensor[(65, 10), float32] span=from_string:41:100 */
  } /* ty=fn () -> Tensor[(65, 10), float32] */;
  let %x_36: Tensor[(65, 10), float32] /* ty=Tensor[(65, 10), float32] span=from_string:42:111 */ = %31() /* ty=Tensor[(65, 10), float32] */;
  %32 = fn (%p027: Tensor[(65, 10), float32] /* ty=Tensor[(65, 10), float32] */, %p121: Tensor[(65, 10), float32] /* ty=Tensor[(65, 10), float32] */, Primitive=1) -> Tensor[(65, 10), float32] {
    add(%p027, %p121) /* ty=Tensor[(65, 10), float32] span=from_string:42:100 */
  } /* ty=fn (Tensor[(65, 10), float32], Tensor[(65, 10), float32]) -> Tensor[(65, 10), float32] */;
  let %x_37: Tensor[(65, 10), float32] /* ty=Tensor[(65, 10), float32] span=from_string:44:107 */ = %32(%x_14, %x_36) /* ty=Tensor[(65, 10), float32] */;
  %33 = fn (%p028: Tensor[(14, 10), float32] /* ty=Tensor[(14, 10), float32] */, %p122: Tensor[(65, 10), float32] /* ty=Tensor[(65, 10), float32] */, Primitive=1) -> Tensor[(14, 65), float32] {
    nn.dense(%p028, %p122, units=None) /* ty=Tensor[(14, 65), float32] span=from_string:43:100 */
  } /* ty=fn (Tensor[(14, 10), float32], Tensor[(65, 10), float32]) -> Tensor[(14, 65), float32] */;
  let %x_38: Tensor[(14, 65), float32] /* ty=Tensor[(14, 65), float32] span=from_string:55:711 */ = %33(%x_35, %x_37) /* ty=Tensor[(14, 65), float32] */;
  %34 = fn (%p029: Tensor[(65, 10), float32] /* ty=Tensor[(65, 10), float32] */, Primitive=1) -> Tensor[(65, 10), bfloat16] {
    cast(%p029, dtype="bfloat16") /* ty=Tensor[(65, 10), bfloat16] span=from_string:44:102 */
  } /* ty=fn (Tensor[(65, 10), float32]) -> Tensor[(65, 10), bfloat16] */;
  let %x_39: Tensor[(65, 10), bfloat16] /* ty=Tensor[(65, 10), bfloat16] span=from_string:45:107 */ = %34(%x_37) /* ty=Tensor[(65, 10), bfloat16] */;
  %35 = fn (%p030: Tensor[(65, 10), bfloat16] /* ty=Tensor[(65, 10), bfloat16] */, Primitive=1) -> Tensor[(65, 10), bfloat16] {
    clip(%p030, a_min=-0.2f, a_max=0.4f) /* ty=Tensor[(65, 10), bfloat16] span=from_string:45:102 */
  } /* ty=fn (Tensor[(65, 10), bfloat16]) -> Tensor[(65, 10), bfloat16] */;
  let %x_40: Tensor[(65, 10), bfloat16] /* ty=Tensor[(65, 10), bfloat16] span=from_string:55:718 */ = %35(%x_39) /* ty=Tensor[(65, 10), bfloat16] */;
  %36 = fn (%p031: Tensor[(42, 24), float32] /* ty=Tensor[(42, 24), float32] */, %p123: Tensor[(10, 24), float32] /* ty=Tensor[(10, 24), float32] */, Primitive=1) -> Tensor[(42, 10), float32] {
    nn.dense(%p031, %p123, units=None) /* ty=Tensor[(42, 10), float32] span=from_string:46:100 */
  } /* ty=fn (Tensor[(42, 24), float32], Tensor[(10, 24), float32]) -> Tensor[(42, 10), float32] */;
  let %x_41: Tensor[(42, 10), float32] /* ty=Tensor[(42, 10), float32] span=from_string:47:104 */ = %36(%x12, %x_24) /* ty=Tensor[(42, 10), float32] */;
  %37 = fn (%p032: Tensor[(42, 10), float32] /* ty=Tensor[(42, 10), float32] */, %p124: Tensor[(10), float32] /* ty=Tensor[(10), float32] */, Primitive=1) -> Tensor[(42, 10), float32] {
    add(%p032, %p124) /* ty=Tensor[(42, 10), float32] span=from_string:47:100 */
  } /* ty=fn (Tensor[(42, 10), float32], Tensor[(10), float32]) -> Tensor[(42, 10), float32] */;
  let %x_42: Tensor[(42, 10), float32] /* ty=Tensor[(42, 10), float32] span=from_string:48:110 */ = %37(%x_41, %x14) /* ty=Tensor[(42, 10), float32] */;
  %38 = fn (%p033: Tensor[(42, 10), float32] /* ty=Tensor[(42, 10), float32] */, %p125: Tensor[(1), float32] /* ty=Tensor[(1), float32] */, Primitive=1) -> Tensor[(42, 10), float32] {
    multiply(%p033, %p125) /* ty=Tensor[(42, 10), float32] span=from_string:48:101 */
  } /* ty=fn (Tensor[(42, 10), float32], Tensor[(1), float32]) -> Tensor[(42, 10), float32] */;
  let %x_43: Tensor[(42, 10), float32] /* ty=Tensor[(42, 10), float32] span=from_string:49:114 */ = %38(%x_42, %x16) /* ty=Tensor[(42, 10), float32] */;
  %39 = fn (%p034: Tensor[(42, 10), float32] /* ty=Tensor[(42, 10), float32] */, Primitive=1, relay.reshape_only=1) -> Tensor[(1, 1, 420), float32] {
    reshape(%p034, newshape=[1, 1, -1]) /* ty=Tensor[(1, 1, 420), float32] span=from_string:49:106 */
  } /* ty=fn (Tensor[(42, 10), float32]) -> Tensor[(1, 1, 420), float32] */;
  let %x_44: Tensor[(1, 1, 420), float32] /* ty=Tensor[(1, 1, 420), float32] span=from_string:54:171 */ = %39(%x_43) /* ty=Tensor[(1, 1, 420), float32] */;
  %40 = fn (%p035: Tensor[(42, 24), float32] /* ty=Tensor[(42, 24), float32] */, %p126: Tensor[(10, 24), float32] /* ty=Tensor[(10, 24), float32] */, Primitive=1) -> Tensor[(42, 10), float32] {
    nn.dense(%p035, %p126, units=None) /* ty=Tensor[(42, 10), float32] span=from_string:50:100 */
  } /* ty=fn (Tensor[(42, 24), float32], Tensor[(10, 24), float32]) -> Tensor[(42, 10), float32] */;
  let %x_45: Tensor[(42, 10), float32] /* ty=Tensor[(42, 10), float32] span=from_string:51:104 */ = %40(%x12, %x13) /* ty=Tensor[(42, 10), float32] */;
  %41 = fn (%p036: Tensor[(42, 10), float32] /* ty=Tensor[(42, 10), float32] */, %p127: Tensor[(10), float32] /* ty=Tensor[(10), float32] */, Primitive=1) -> Tensor[(42, 10), float32] {
    add(%p036, %p127) /* ty=Tensor[(42, 10), float32] span=from_string:51:100 */
  } /* ty=fn (Tensor[(42, 10), float32], Tensor[(10), float32]) -> Tensor[(42, 10), float32] */;
  let %x_46: Tensor[(42, 10), float32] /* ty=Tensor[(42, 10), float32] span=from_string:52:110 */ = %41(%x_45, %x15) /* ty=Tensor[(42, 10), float32] */;
  %42 = fn (%p037: Tensor[(42, 10), float32] /* ty=Tensor[(42, 10), float32] */, %p128: Tensor[(1), float32] /* ty=Tensor[(1), float32] */, Primitive=1) -> Tensor[(42, 10), float32] {
    multiply(%p037, %p128) /* ty=Tensor[(42, 10), float32] span=from_string:52:101 */
  } /* ty=fn (Tensor[(42, 10), float32], Tensor[(1), float32]) -> Tensor[(42, 10), float32] */;
  let %x_47: Tensor[(42, 10), float32] /* ty=Tensor[(42, 10), float32] span=from_string:53:114 */ = %42(%x_46, %x17) /* ty=Tensor[(42, 10), float32] */;
  %43 = fn (%p038: Tensor[(42, 10), float32] /* ty=Tensor[(42, 10), float32] */, Primitive=1, relay.reshape_only=1) -> Tensor[(1, 1, 420), float32] {
    reshape(%p038, newshape=[1, 1, -1]) /* ty=Tensor[(1, 1, 420), float32] span=from_string:53:106 */
  } /* ty=fn (Tensor[(42, 10), float32]) -> Tensor[(1, 1, 420), float32] */;
  let %x_48: Tensor[(1, 1, 420), float32] /* ty=Tensor[(1, 1, 420), float32] span=from_string:54:178 */ = %43(%x_47) /* ty=Tensor[(1, 1, 420), float32] */;
  let %x_49: (Tensor[(1, 1, 420), float32], Tensor[(1, 1, 420), float32]) /* ty=(Tensor[(1, 1, 420), float32], Tensor[(1, 1, 420), float32]) span=from_string:55:725 */ = (%x_44, %x_48) /* ty=(Tensor[(1, 1, 420), float32], Tensor[(1, 1, 420), float32]) span=from_string:54:170 */;
  let %x_50: ((Tensor[(65, 10), float32], Tensor[(65, 10), float32]), (Tensor[(1, 1, 120), float32], Tensor[(1, 1, 240), float32]), (Tensor[(10, 24), float32], (Tensor[(10, 24), float32],)), Tensor[(1), float32], Tensor[(14, 65), float32], Tensor[(65, 10), bfloat16], (Tensor[(1, 1, 420), float32], Tensor[(1, 1, 420), float32])) /* ty=((Tensor[(65, 10), float32], Tensor[(65, 10), float32]), (Tensor[(1, 1, 120), float32], Tensor[(1, 1, 240), float32]), (Tensor[(10, 24), float32], (Tensor[(10, 24), float32],)), Tensor[(1), float32], Tensor[(14, 65), float32], Tensor[(65, 10), bfloat16], (Tensor[(1, 1, 420), float32], Tensor[(1, 1, 420), float32])) span=from_string:56:682 */ = (%x_16, %x_22, %x_31, %x_33, %x_38, %x_40, %x_49) /* ty=((Tensor[(65, 10), float32], Tensor[(65, 10), float32]), (Tensor[(1, 1, 120), float32], Tensor[(1, 1, 240), float32]), (Tensor[(10, 24), float32], (Tensor[(10, 24), float32],)), Tensor[(1), float32], Tensor[(14, 65), float32], Tensor[(65, 10), bfloat16], (Tensor[(1, 1, 420), float32], Tensor[(1, 1, 420), float32])) span=from_string:55:682 */;
  let %x_51: ((Tensor[(65, 10), float32], Tensor[(65, 10), float32]), (Tensor[(1, 1, 120), float32], Tensor[(1, 1, 240), float32]), (Tensor[(10, 24), float32], (Tensor[(10, 24), float32],)), Tensor[(1), float32], Tensor[(14, 65), float32], Tensor[(65, 10), bfloat16], (Tensor[(1, 1, 420), float32], Tensor[(1, 1, 420), float32])) /* ty=((Tensor[(65, 10), float32], Tensor[(65, 10), float32]), (Tensor[(1, 1, 120), float32], Tensor[(1, 1, 240), float32]), (Tensor[(10, 24), float32], (Tensor[(10, 24), float32],)), Tensor[(1), float32], Tensor[(14, 65), float32], Tensor[(65, 10), bfloat16], (Tensor[(1, 1, 420), float32], Tensor[(1, 1, 420), float32])) span=from_string:57:681 */ = %x_50;
  let %x_52: ((Tensor[(65, 10), float32], Tensor[(65, 10), float32]), (Tensor[(1, 1, 120), float32], Tensor[(1, 1, 240), float32]), (Tensor[(10, 24), float32], (Tensor[(10, 24), float32],)), Tensor[(1), float32], Tensor[(14, 65), float32], Tensor[(65, 10), bfloat16], (Tensor[(1, 1, 420), float32], Tensor[(1, 1, 420), float32])) /* ty=((Tensor[(65, 10), float32], Tensor[(65, 10), float32]), (Tensor[(1, 1, 120), float32], Tensor[(1, 1, 240), float32]), (Tensor[(10, 24), float32], (Tensor[(10, 24), float32],)), Tensor[(1), float32], Tensor[(14, 65), float32], Tensor[(65, 10), bfloat16], (Tensor[(1, 1, 420), float32], Tensor[(1, 1, 420), float32])) span=from_string:58:3 */ = %x_51;
  %x_52
}

#[metadata]
{
  "root": 1, 
  "nodes": [
    {
      "type_key": ""
    }, 
    {
      "type_key": "Map", 
      "keys": [
        "relay.Constant", 
        "relay.attrs.InitOpAttrs"
      ], 
      "data": [2, 16]
    }, 
    {
      "type_key": "Array", 
      "data": [3, 11]
    }, 
    {
      "type_key": "relay.Constant", 
      "attrs": {
        "_checked_type_": "8", 
        "data": "0", 
        "span": "6", 
        "virtual_device_": "4"
      }
    }, 
    {
      "type_key": "VirtualDevice", 
      "attrs": {
        "device_type_int": "-1", 
        "memory_scope": "5", 
        "target": "0", 
        "virtual_device_id": "-1"
      }
    }, 
    {
      "type_key": "runtime.String"
    }, 
    {
      "type_key": "Span", 
      "attrs": {
        "column": "128", 
        "end_column": "146", 
        "end_line": "30", 
        "line": "30", 
        "source_name": "7"
      }
    }, 
    {
      "type_key": "SourceName", 
      "repr_str": "from_string"
    }, 
    {
      "type_key": "relay.TensorType", 
      "attrs": {
        "dtype": "int32", 
        "shape": "9", 
        "span": "0"
      }
    }, 
    {
      "type_key": "Array", 
      "data": [10]
    }, 
    {
      "type_key": "IntImm", 
      "attrs": {
        "dtype": "int32", 
        "span": "0", 
        "value": "2"
      }
    }, 
    {
      "type_key": "relay.Constant", 
      "attrs": {
        "_checked_type_": "13", 
        "data": "1", 
        "span": "12", 
        "virtual_device_": "4"
      }
    }, 
    {
      "type_key": "Span", 
      "attrs": {
        "column": "128", 
        "end_column": "146", 
        "end_line": "33", 
        "line": "33", 
        "source_name": "7"
      }
    }, 
    {
      "type_key": "relay.TensorType", 
      "attrs": {
        "dtype": "int32", 
        "shape": "14", 
        "span": "0"
      }
    }, 
    {
      "type_key": "Array", 
      "data": [15]
    }, 
    {
      "type_key": "IntImm", 
      "attrs": {
        "dtype": "int32", 
        "span": "0", 
        "value": "2"
      }
    }, 
    {
      "type_key": "Array", 
      "data": [17, 21]
    }, 
    {
      "type_key": "relay.attrs.InitOpAttrs", 
      "attrs": {
        "dtype": "", 
        "shape": "18"
      }
    }, 
    {
      "type_key": "Array", 
      "data": [19, 20]
    }, 
    {
      "type_key": "IntImm", 
      "attrs": {
        "dtype": "int32", 
        "span": "0", 
        "value": "10"
      }
    }, 
    {
      "type_key": "IntImm", 
      "attrs": {
        "dtype": "int32", 
        "span": "0", 
        "value": "24"
      }
    }, 
    {
      "type_key": "relay.attrs.InitOpAttrs", 
      "attrs": {
        "dtype": "", 
        "shape": "22"
      }
    }, 
    {
      "type_key": "Array", 
      "data": [19, 20]
    }
  ], 
  "b64ndarrays": [
    "P6G0lvBAXt0AAAAAAAAAAAEAAAAAAAAAAQAAAAAgAQACAAAAAAAAAAgAAAAAAAAACgAAABgAAAA=", 
    "P6G0lvBAXt0AAAAAAAAAAAEAAAAAAAAAAQAAAAAgAQACAAAAAAAAAAgAAAAAAAAACgAAABgAAAA="
  ], 
  "attrs": {"tvm_version": "0.13.0"}
}