#[version = "0.0.5"]
def @main(%x0: Tensor[(10, 10), float32] /* ty=Tensor[(10, 10), float32] span=from_string:4:13 */, %x1: Tensor[(65, 10), float32] /* ty=Tensor[(65, 10), float32] span=from_string:3:13 */, %x2: Tensor[(10, 10), float32] /* ty=Tensor[(10, 10), float32] span=from_string:7:13 */, %x3: Tensor[(10), float32] /* ty=Tensor[(10), float32] span=from_string:6:13 */, %x4: Tensor[(10), float32] /* ty=Tensor[(10), float32] span=from_string:9:13 */, %x5: Tensor[(12, 10), float32] /* ty=Tensor[(12, 10), float32] span=from_string:19:14 */, %x6: Tensor[(12), float32] /* ty=Tensor[(12), float32] span=from_string:21:14 */, %x7: Tensor[(1), float32] /* ty=Tensor[(1), float32] span=from_string:23:14 */, %x8: Tensor[(24, 10), float32] /* ty=Tensor[(24, 10), float32] span=from_string:25:14 */, %x9: Tensor[(24), float32] /* ty=Tensor[(24), float32] span=from_string:27:14 */, %x10: Tensor[(1), float32] /* ty=Tensor[(1), float32] span=from_string:29:14 */, %x11: Tensor[(14, 30), float32] /* ty=Tensor[(14, 30), float32] span=from_string:42:14 */, %x12: Tensor[(42, 24), float32] /* ty=Tensor[(42, 24), float32] span=from_string:49:14 */, %x13: Tensor[(10, 24), float32] /* ty=Tensor[(10, 24), float32] span=from_string:55:14 */, %x14: Tensor[(10), float32] /* ty=Tensor[(10), float32] span=from_string:51:14 */, %x15: Tensor[(10), float32] /* ty=Tensor[(10), float32] span=from_string:57:14 */, %x16: Tensor[(1), float32] /* ty=Tensor[(1), float32] span=from_string:53:14 */, %x17: Tensor[(1), float32] /* ty=Tensor[(1), float32] span=from_string:59:14 */) -> ((Tensor[(65, 10), float16], Tensor[(65, 10), float16]), (Tensor[(1, 1, 120), float16], Tensor[(1, 1, 240), float16]), (Tensor[(10, 24), float16], (Tensor[(10, 24), float16],)), Tensor[(1), float16], Tensor[(14, 65), float16], Tensor[(65, 10), float32], (Tensor[(1, 1, 420), float16], Tensor[(1, 1, 420), float16])) {
  %0 = cast(%x1, dtype="float16") /* ty=Tensor[(65, 10), float16] span=from_string:8:17 */;
  %1 = cast(%x0, dtype="float16") /* ty=Tensor[(10, 10), float16] span=from_string:14:17 */;
  %2 = cast(%x3, dtype="float16") /* ty=Tensor[(10), float16] span=from_string:10:16 */;
  %3 = nn.dense(%0, %1, units=None, out_dtype="float16") /* ty=Tensor[(65, 10), float16] span=from_string:10:12 */;
  %4 = expand_dims(%2, axis=0) /* ty=Tensor[(1, 10), float16] */;
  %5 = cast(%x2, dtype="float16") /* ty=Tensor[(10, 10), float16] span=from_string:8:21 */;
  %6 = cast(%x4, dtype="float16") /* ty=Tensor[(10), float16] span=from_string:11:16 */;
  %7 = nn.dense(%0, %5, units=None, out_dtype="float16") /* ty=Tensor[(65, 10), float16] span=from_string:46:13 */;
  %8 = expand_dims(%6, axis=0) /* ty=Tensor[(1, 10), float16] */;
  %9 = add(%3, %4) /* ty=Tensor[(65, 10), float16] span=from_string:63:10 */;
  %10 = add(%7, %8) /* ty=Tensor[(65, 10), float16] span=from_string:63:14 */;
  %11 = nn.relu(%1) /* ty=Tensor[(10, 10), float16] span=from_string:16:13 */;
  %12 = cast(1f /* ty=float32 span=from_string:13:16 */, dtype="float16") /* ty=float16 span=from_string:16:17 */;
  %13 = nn.relu(%1) /* ty=Tensor[(10, 10), float16] span=from_string:17:13 */;
  %14 = cast(1f /* ty=float32 span=from_string:15:16 */, dtype="float16") /* ty=float16 span=from_string:17:18 */;
  %15 = add(%11, %12) /* ty=Tensor[(10, 10), float16] span=from_string:18:13 */;
  %16 = add(%13, %14) /* ty=Tensor[(10, 10), float16] span=from_string:18:18 */;
  %17 = add(%15, %16) /* ty=Tensor[(10, 10), float16] span=from_string:26:18 */;
  %18 = cast(%x5, dtype="float16") /* ty=Tensor[(12, 10), float16] span=from_string:20:23 */;
  %19 = cast(%x6, dtype="float16") /* ty=Tensor[(12), float16] span=from_string:22:18 */;
  %20 = nn.dense(%17, %18, units=None, out_dtype="float16") /* ty=Tensor[(10, 12), float16] span=from_string:22:13 */;
  %21 = expand_dims(%19, axis=0) /* ty=Tensor[(1, 12), float16] */;
  %22 = add(%20, %21) /* ty=Tensor[(10, 12), float16] span=from_string:24:19 */;
  %23 = cast(%x7, dtype="float16") /* ty=Tensor[(1), float16] span=from_string:24:24 */;
  %24 = multiply(%22, %23) /* ty=Tensor[(10, 12), float16] span=from_string:31:17 */;
  %25 = cast(%x8, dtype="float16") /* ty=Tensor[(24, 10), float16] span=from_string:26:23 */;
  %26 = cast(%x9, dtype="float16") /* ty=Tensor[(24), float16] span=from_string:28:18 */;
  %27 = nn.dense(%17, %25, units=None, out_dtype="float16") /* ty=Tensor[(10, 24), float16] span=from_string:28:13 */;
  %28 = expand_dims(%26, axis=0) /* ty=Tensor[(1, 24), float16] */;
  %29 = add(%27, %28) /* ty=Tensor[(10, 24), float16] span=from_string:30:19 */;
  %30 = cast(%x10, dtype="float16") /* ty=Tensor[(1), float16] span=from_string:66:13 */;
  %31 = multiply(%29, %30) /* ty=Tensor[(10, 24), float16] span=from_string:39:24 */;
  %32 = reshape(%24, newshape=[1, 1, 120]) /* ty=Tensor[(1, 1, 120), float16] span=from_string:64:10 */;
  %33 = reshape(%31, newshape=[1, 1, 240]) /* ty=Tensor[(1, 1, 240), float16] span=from_string:64:15 */;
  %34 = ones(shape=[10, 24], dtype="float16") /* ty=Tensor[(10, 24), float16] span=from_string:35:19 */;
  %35 = multiply(%34, %31) /* ty=Tensor[(10, 24), float16] span=from_string:50:23 */;
  %36 = multiply(%34, %31) /* ty=Tensor[(10, 24), float16] span=from_string:37:25 */;
  %37 = collapse_sum_to(%35, meta[relay.Constant][0] /* ty=Tensor[(2), int32] span=from_string:36:35 */, meta[relay.attrs.InitOpAttrs][0]) /* ty=Tensor[(10, 24), float16] span=from_string:38:13 */;
  %38 = collapse_sum_to(%36, meta[relay.Constant][1] /* ty=Tensor[(2), int32] span=from_string:37:35 */, meta[relay.attrs.InitOpAttrs][1]) /* ty=Tensor[(10, 24), float16] span=from_string:38:18 */;
  %39 = add(%37, %38) /* ty=Tensor[(10, 24), float16] span=from_string:40:10 */;
  %40 = multiply(%31, %31) /* ty=Tensor[(10, 24), float16] span=from_string:65:10 */;
  %41 = (%39,) /* ty=(Tensor[(10, 24), float16],) span=from_string:65:15 */;
  %42 = cast(1f /* ty=float32 span=from_string:41:16 */, dtype="float16") /* ty=float16 span=from_string:66:18 */;
  %43 = cast(%x11, dtype="float16") /* ty=Tensor[(14, 30), float16] span=from_string:43:15 */;
  %44 = split(%43, indices_or_sections=3, axis=1) /* ty=(Tensor[(14, 10), float16], Tensor[(14, 10), float16], Tensor[(14, 10), float16]) span=from_string:45:9 */;
  %45 = cast(1f /* ty=float32 span=from_string:44:16 */, dtype="float16") /* ty=float16 span=from_string:46:17 */;
  %46 = %44.0 /* ty=Tensor[(14, 10), float16] span=from_string:67:18 */;
  %47 = add(%7, %45) /* ty=Tensor[(65, 10), float16] span=from_string:67:23 */;
  %48 = cast(%47, dtype="bfloat16") /* ty=Tensor[(65, 10), bfloat16] span=from_string:48:14 */;
  %49 = cast(%48, dtype="float32") /* ty=Tensor[(65, 10), float32] span=from_string:68:14 */;
  %50 = cast(%x12, dtype="float16") /* ty=Tensor[(42, 24), float16] span=from_string:56:18 */;
  %51 = cast(%x14, dtype="float16") /* ty=Tensor[(10), float16] span=from_string:52:18 */;
  %52 = nn.dense(%50, %35, units=None, out_dtype="float16") /* ty=Tensor[(42, 10), float16] span=from_string:52:13 */;
  %53 = expand_dims(%51, axis=0) /* ty=Tensor[(1, 10), float16] */;
  %54 = add(%52, %53) /* ty=Tensor[(42, 10), float16] span=from_string:54:19 */;
  %55 = cast(%x16, dtype="float16") /* ty=Tensor[(1), float16] span=from_string:54:24 */;
  %56 = multiply(%54, %55) /* ty=Tensor[(42, 10), float16] span=from_string:61:17 */;
  %57 = cast(%x13, dtype="float16") /* ty=Tensor[(10, 24), float16] span=from_string:56:23 */;
  %58 = cast(%x15, dtype="float16") /* ty=Tensor[(10), float16] span=from_string:58:18 */;
  %59 = nn.dense(%50, %57, units=None, out_dtype="float16") /* ty=Tensor[(42, 10), float16] span=from_string:58:13 */;
  %60 = expand_dims(%58, axis=0) /* ty=Tensor[(1, 10), float16] */;
  %61 = add(%59, %60) /* ty=Tensor[(42, 10), float16] span=from_string:60:19 */;
  %62 = cast(%x17, dtype="float16") /* ty=Tensor[(1), float16] span=from_string:60:24 */;
  %63 = multiply(%61, %62) /* ty=Tensor[(42, 10), float16] span=from_string:62:17 */;
  %64 = reshape(%56, newshape=[1, 1, -1]) /* ty=Tensor[(1, 1, 420), float16] span=from_string:69:10 */;
  %65 = reshape(%63, newshape=[1, 1, -1]) /* ty=Tensor[(1, 1, 420), float16] span=from_string:69:15 */;
  %66 = (%9, %10) /* ty=(Tensor[(65, 10), float16], Tensor[(65, 10), float16]) span=from_string:70:4 */;
  %67 = (%32, %33) /* ty=(Tensor[(1, 1, 120), float16], Tensor[(1, 1, 240), float16]) span=from_string:70:9 */;
  %68 = (%40, %41) /* ty=(Tensor[(10, 24), float16], (Tensor[(10, 24), float16],)) span=from_string:70:14 */;
  %69 = add(%30, %42) /* ty=Tensor[(1), float16] span=from_string:70:19 */;
  %70 = nn.dense(%46, %47, units=None, out_dtype="float16") /* ty=Tensor[(14, 65), float16] span=from_string:70:24 */;
  %71 = clip(%49, a_min=-0.2f, a_max=0.4f) /* ty=Tensor[(65, 10), float32] span=from_string:70:29 */;
  %72 = (%64, %65) /* ty=(Tensor[(1, 1, 420), float16], Tensor[(1, 1, 420), float16]) span=from_string:70:34 */;
  (%66, %67, %68, %69, %70, %71, %72) /* ty=((Tensor[(65, 10), float16], Tensor[(65, 10), float16]), (Tensor[(1, 1, 120), float16], Tensor[(1, 1, 240), float16]), (Tensor[(10, 24), float16], (Tensor[(10, 24), float16],)), Tensor[(1), float16], Tensor[(14, 65), float16], Tensor[(65, 10), float32], (Tensor[(1, 1, 420), float16], Tensor[(1, 1, 420), float16])) span=from_string:3:3 */
}

#[metadata]
{
  "root": 1, 
  "nodes": [
    {
      "type_key": ""
    }, 
    {
      "type_key": "Map", 
      "keys": [
        "relay.attrs.InitOpAttrs", 
        "relay.Constant"
      ], 
      "data": [2, 9]
    }, 
    {
      "type_key": "Array", 
      "data": [3, 7]
    }, 
    {
      "type_key": "relay.attrs.InitOpAttrs", 
      "attrs": {
        "dtype": "float16", 
        "shape": "4"
      }
    }, 
    {
      "type_key": "Array", 
      "data": [5, 6]
    }, 
    {
      "type_key": "IntImm", 
      "attrs": {
        "dtype": "int32", 
        "span": "0", 
        "value": "10"
      }
    }, 
    {
      "type_key": "IntImm", 
      "attrs": {
        "dtype": "int32", 
        "span": "0", 
        "value": "24"
      }
    }, 
    {
      "type_key": "relay.attrs.InitOpAttrs", 
      "attrs": {
        "dtype": "float16", 
        "shape": "8"
      }
    }, 
    {
      "type_key": "Array", 
      "data": [5, 6]
    }, 
    {
      "type_key": "Array", 
      "data": [10, 18]
    }, 
    {
      "type_key": "relay.Constant", 
      "attrs": {
        "_checked_type_": "15", 
        "data": "0", 
        "span": "13", 
        "virtual_device_": "11"
      }
    }, 
    {
      "type_key": "VirtualDevice", 
      "attrs": {
        "device_type_int": "-1", 
        "memory_scope": "12", 
        "target": "0", 
        "virtual_device_id": "-1"
      }
    }, 
    {
      "type_key": "runtime.String"
    }, 
    {
      "type_key": "Span", 
      "attrs": {
        "column": "35", 
        "end_column": "53", 
        "end_line": "36", 
        "line": "36", 
        "source_name": "14"
      }
    }, 
    {
      "type_key": "SourceName", 
      "repr_str": "from_string"
    }, 
    {
      "type_key": "relay.TensorType", 
      "attrs": {
        "dtype": "int32", 
        "shape": "16", 
        "span": "0"
      }
    }, 
    {
      "type_key": "Array", 
      "data": [17]
    }, 
    {
      "type_key": "IntImm", 
      "attrs": {
        "dtype": "int32", 
        "span": "0", 
        "value": "2"
      }
    }, 
    {
      "type_key": "relay.Constant", 
      "attrs": {
        "_checked_type_": "20", 
        "data": "1", 
        "span": "19", 
        "virtual_device_": "11"
      }
    }, 
    {
      "type_key": "Span", 
      "attrs": {
        "column": "35", 
        "end_column": "53", 
        "end_line": "37", 
        "line": "37", 
        "source_name": "14"
      }
    }, 
    {
      "type_key": "relay.TensorType", 
      "attrs": {
        "dtype": "int32", 
        "shape": "21", 
        "span": "0"
      }
    }, 
    {
      "type_key": "Array", 
      "data": [22]
    }, 
    {
      "type_key": "IntImm", 
      "attrs": {
        "dtype": "int32", 
        "span": "0", 
        "value": "2"
      }
    }
  ], 
  "b64ndarrays": [
    "P6G0lvBAXt0AAAAAAAAAAAEAAAAAAAAAAQAAAAAgAQACAAAAAAAAAAgAAAAAAAAACgAAABgAAAA=", 
    "P6G0lvBAXt0AAAAAAAAAAAEAAAAAAAAAAQAAAAAgAQACAAAAAAAAAAgAAAAAAAAACgAAABgAAAA="
  ], 
  "attrs": {"tvm_version": "0.13.0"}
}