#[version = "0.0.5"]
def @main(%x0: Tensor[(10, 10), float32] /* ty=Tensor[(10, 10), float32] span=from_string:4:19 */, %x1: Tensor[(65, 10), float32] /* ty=Tensor[(65, 10), float32] span=from_string:3:19 */, %x2: Tensor[(10, 10), float32] /* ty=Tensor[(10, 10), float32] span=from_string:11:19 */, %x3: Tensor[(10), float32] /* ty=Tensor[(10), float32] span=from_string:8:19 */, %x4: Tensor[(10), float32] /* ty=Tensor[(10), float32] span=from_string:13:20 */, %x5: Tensor[(12, 10), float32] /* ty=Tensor[(12, 10), float32] span=from_string:26:20 */, %x6: Tensor[(12), float32] /* ty=Tensor[(12), float32] span=from_string:28:20 */, %x7: Tensor[(1), float32] /* ty=Tensor[(1), float32] span=from_string:31:20 */, %x8: Tensor[(24, 10), float32] /* ty=Tensor[(24, 10), float32] span=from_string:34:20 */, %x9: Tensor[(24), float32] /* ty=Tensor[(24), float32] span=from_string:36:20 */, %x10: Tensor[(1), float32] /* ty=Tensor[(1), float32] span=from_string:39:20 */, %x11: Tensor[(14, 30), float32] /* ty=Tensor[(14, 30), float32] span=from_string:56:20 */, %x12: Tensor[(42, 24), float32] /* ty=Tensor[(42, 24), float32] span=from_string:65:20 */, %x13: Tensor[(10, 24), float32] /* ty=Tensor[(10, 24), float32] span=from_string:73:20 */, %x14: Tensor[(10), float32] /* ty=Tensor[(10), float32] span=from_string:67:20 */, %x15: Tensor[(10), float32] /* ty=Tensor[(10), float32] span=from_string:75:20 */, %x16: Tensor[(1), float32] /* ty=Tensor[(1), float32] span=from_string:70:20 */, %x17: Tensor[(1), float32] /* ty=Tensor[(1), float32] span=from_string:78:20 */) -> ((Tensor[(65, 10), float16], Tensor[(65, 10), float16]), (Tensor[(1, 1, 120), float16], Tensor[(1, 1, 240), float16]), (Tensor[(10, 24), float16], (Tensor[(10, 24), float16],)), Tensor[(1), float16], Tensor[(14, 65), float16], Tensor[(65, 10), float32], (Tensor[(1, 1, 420), float16], Tensor[(1, 1, 420), float16])) {
  %0 = fn (%p0: Tensor[(65, 10), float32] /* ty=Tensor[(65, 10), float32] */, Primitive=1) -> Tensor[(65, 10), float16] {
    cast(%p0, dtype="float16") /* ty=Tensor[(65, 10), float16] span=from_string:3:14 */
  } /* ty=fn (Tensor[(65, 10), float32]) -> Tensor[(65, 10), float16] */;
  let %x_0: Tensor[(65, 10), float16] /* ty=Tensor[(65, 10), float16] span=from_string:12:23 */ = %0(%x1) /* ty=Tensor[(65, 10), float16] */;
  %1 = fn (%p01: Tensor[(10, 10), float32] /* ty=Tensor[(10, 10), float32] */, Primitive=1) -> Tensor[(10, 10), float16] {
    cast(%p01, dtype="float16") /* ty=Tensor[(10, 10), float16] span=from_string:4:14 */
  } /* ty=fn (Tensor[(10, 10), float32]) -> Tensor[(10, 10), float16] */;
  let %x_1: Tensor[(10, 10), float16] /* ty=Tensor[(10, 10), float16] span=from_string:6:18 */ = %1(%x0) /* ty=Tensor[(10, 10), float16] */;
  %2 = fn (%p02: Tensor[(10, 10), float16] /* ty=Tensor[(10, 10), float16] */, Primitive=1) -> Tensor[(10, 10), float16] {
    zeros_like(%p02) /* ty=Tensor[(10, 10), float16] span=from_string:5:14 */
  } /* ty=fn (Tensor[(10, 10), float16]) -> Tensor[(10, 10), float16] */;
  let %x_2: Tensor[(10, 10), float16] /* ty=Tensor[(10, 10), float16] span=from_string:6:24 */ = %2(%x_1) /* ty=Tensor[(10, 10), float16] */;
  %3 = fn (%p03: Tensor[(10, 10), float16] /* ty=Tensor[(10, 10), float16] */, %p1: Tensor[(10, 10), float16] /* ty=Tensor[(10, 10), float16] */, Primitive=1) -> Tensor[(10, 10), float16] {
    add(%p03, %p1) /* ty=Tensor[(10, 10), float16] span=from_string:6:14 */
  } /* ty=fn (Tensor[(10, 10), float16], Tensor[(10, 10), float16]) -> Tensor[(10, 10), float16] */;
  let %x_3: Tensor[(10, 10), float16] /* ty=Tensor[(10, 10), float16] span=from_string:21:23 */ = %3(%x_1, %x_2) /* ty=Tensor[(10, 10), float16] */;
  %4 = fn (%p04: Tensor[(65, 10), float16] /* ty=Tensor[(65, 10), float16] */, %p11: Tensor[(10, 10), float16] /* ty=Tensor[(10, 10), float16] */, Primitive=1) -> Tensor[(65, 10), float16] {
    nn.dense(%p04, %p11, units=None, out_dtype="float16") /* ty=Tensor[(65, 10), float16] span=from_string:7:14 */
  } /* ty=fn (Tensor[(65, 10), float16], Tensor[(10, 10), float16]) -> Tensor[(65, 10), float16] */;
  let %x_4: Tensor[(65, 10), float16] /* ty=Tensor[(65, 10), float16] span=from_string:10:18 */ = %4(%x_0, %x_3) /* ty=Tensor[(65, 10), float16] */;
  %5 = fn (%p05: Tensor[(10), float32] /* ty=Tensor[(10), float32] */, Primitive=1) -> Tensor[(10), float16] {
    cast(%p05, dtype="float16") /* ty=Tensor[(10), float16] span=from_string:8:14 */
  } /* ty=fn (Tensor[(10), float32]) -> Tensor[(10), float16] */;
  let %x_5: Tensor[(10), float16] /* ty=Tensor[(10), float16] span=from_string:9:26 */ = %5(%x3) /* ty=Tensor[(10), float16] */;
  %6 = fn (%p06: Tensor[(10), float16] /* ty=Tensor[(10), float16] */, Primitive=1, relay.reshape_only=1) -> Tensor[(1, 10), float16] {
    expand_dims(%p06, axis=0) /* ty=Tensor[(1, 10), float16] span=from_string:9:14 */
  } /* ty=fn (Tensor[(10), float16]) -> Tensor[(1, 10), float16] */;
  let %x_6: Tensor[(1, 10), float16] /* ty=Tensor[(1, 10), float16] span=from_string:10:24 */ = %6(%x_5) /* ty=Tensor[(1, 10), float16] */;
  %7 = fn (%p07: Tensor[(65, 10), float16] /* ty=Tensor[(65, 10), float16] */, %p12: Tensor[(1, 10), float16] /* ty=Tensor[(1, 10), float16] */, Primitive=1) -> Tensor[(65, 10), float16] {
    add(%p07, %p12) /* ty=Tensor[(65, 10), float16] span=from_string:10:14 */
  } /* ty=fn (Tensor[(65, 10), float16], Tensor[(1, 10), float16]) -> Tensor[(65, 10), float16] */;
  let %x_7: Tensor[(65, 10), float16] /* ty=Tensor[(65, 10), float16] span=from_string:16:16 */ = %7(%x_4, %x_6) /* ty=Tensor[(65, 10), float16] */;
  %8 = fn (%p08: Tensor[(10, 10), float32] /* ty=Tensor[(10, 10), float32] */, Primitive=1) -> Tensor[(10, 10), float16] {
    cast(%p08, dtype="float16") /* ty=Tensor[(10, 10), float16] span=from_string:11:14 */
  } /* ty=fn (Tensor[(10, 10), float32]) -> Tensor[(10, 10), float16] */;
  let %x_8: Tensor[(10, 10), float16] /* ty=Tensor[(10, 10), float16] span=from_string:12:29 */ = %8(%x2) /* ty=Tensor[(10, 10), float16] */;
  %9 = fn (%p09: Tensor[(65, 10), float16] /* ty=Tensor[(65, 10), float16] */, %p13: Tensor[(10, 10), float16] /* ty=Tensor[(10, 10), float16] */, Primitive=1) -> Tensor[(65, 10), float16] {
    nn.dense(%p09, %p13, units=None, out_dtype="float16") /* ty=Tensor[(65, 10), float16] span=from_string:12:14 */
  } /* ty=fn (Tensor[(65, 10), float16], Tensor[(10, 10), float16]) -> Tensor[(65, 10), float16] */;
  let %x_9: Tensor[(65, 10), float16] /* ty=Tensor[(65, 10), float16] span=from_string:60:19 */ = %9(%x_0, %x_8) /* ty=Tensor[(65, 10), float16] */;
  %10 = fn (%p010: Tensor[(10), float32] /* ty=Tensor[(10), float32] */, Primitive=1) -> Tensor[(10), float16] {
    cast(%p010, dtype="float16") /* ty=Tensor[(10), float16] span=from_string:13:15 */
  } /* ty=fn (Tensor[(10), float32]) -> Tensor[(10), float16] */;
  let %x_10: Tensor[(10), float16] /* ty=Tensor[(10), float16] span=from_string:14:27 */ = %10(%x4) /* ty=Tensor[(10), float16] */;
  %11 = fn (%p011: Tensor[(10), float16] /* ty=Tensor[(10), float16] */, Primitive=1, relay.reshape_only=1) -> Tensor[(1, 10), float16] {
    expand_dims(%p011, axis=0) /* ty=Tensor[(1, 10), float16] span=from_string:14:15 */
  } /* ty=fn (Tensor[(10), float16]) -> Tensor[(1, 10), float16] */;
  let %x_11: Tensor[(1, 10), float16] /* ty=Tensor[(1, 10), float16] span=from_string:15:25 */ = %11(%x_10) /* ty=Tensor[(1, 10), float16] */;
  %12 = fn (%p012: Tensor[(65, 10), float16] /* ty=Tensor[(65, 10), float16] */, %p14: Tensor[(1, 10), float16] /* ty=Tensor[(1, 10), float16] */, Primitive=1) -> Tensor[(65, 10), float16] {
    add(%p012, %p14) /* ty=Tensor[(65, 10), float16] span=from_string:15:15 */
  } /* ty=fn (Tensor[(65, 10), float16], Tensor[(1, 10), float16]) -> Tensor[(65, 10), float16] */;
  let %x_12: Tensor[(65, 10), float16] /* ty=Tensor[(65, 10), float16] span=from_string:16:22 */ = %12(%x_9, %x_11) /* ty=Tensor[(65, 10), float16] */;
  let %x_13: (Tensor[(65, 10), float16], Tensor[(65, 10), float16]) /* ty=(Tensor[(65, 10), float16], Tensor[(65, 10), float16]) span=from_string:82:16 */ = (%x_7, %x_12) /* ty=(Tensor[(65, 10), float16], Tensor[(65, 10), float16]) span=from_string:16:15 */;
  %13 = fn (%p013: Tensor[(10, 10), float16] /* ty=Tensor[(10, 10), float16] */, Primitive=1) -> Tensor[(10, 10), float16] {
    nn.relu(%p013) /* ty=Tensor[(10, 10), float16] span=from_string:17:15 */
  } /* ty=fn (Tensor[(10, 10), float16]) -> Tensor[(10, 10), float16] */;
  let %x_14: Tensor[(10, 10), float16] /* ty=Tensor[(10, 10), float16] span=from_string:20:19 */ = %13(%x_3) /* ty=Tensor[(10, 10), float16] */;
  let %x_15: float32 /* ty=float32 span=from_string:19:20 */ = 1f /* ty=float32 span=from_string:18:17 */;
  %14 = fn (%p014: float32 /* ty=float32 */, Primitive=1) -> float16 {
    cast(%p014, dtype="float16") /* ty=float16 span=from_string:19:15 */
  } /* ty=fn (float32) -> float16 */;
  let %x_16: float16 /* ty=float16 span=from_string:20:26 */ = %14(%x_15) /* ty=float16 */;
  %15 = fn (%p015: Tensor[(10, 10), float16] /* ty=Tensor[(10, 10), float16] */, %p15: float16 /* ty=float16 */, Primitive=1) -> Tensor[(10, 10), float16] {
    add(%p015, %p15) /* ty=Tensor[(10, 10), float16] span=from_string:20:15 */
  } /* ty=fn (Tensor[(10, 10), float16], float16) -> Tensor[(10, 10), float16] */;
  let %x_17: Tensor[(10, 10), float16] /* ty=Tensor[(10, 10), float16] span=from_string:25:19 */ = %15(%x_14, %x_16) /* ty=Tensor[(10, 10), float16] */;
  %16 = fn (%p016: Tensor[(10, 10), float16] /* ty=Tensor[(10, 10), float16] */, Primitive=1) -> Tensor[(10, 10), float16] {
    nn.relu(%p016) /* ty=Tensor[(10, 10), float16] span=from_string:21:15 */
  } /* ty=fn (Tensor[(10, 10), float16]) -> Tensor[(10, 10), float16] */;
  let %x_18: Tensor[(10, 10), float16] /* ty=Tensor[(10, 10), float16] span=from_string:24:19 */ = %16(%x_3) /* ty=Tensor[(10, 10), float16] */;
  let %x_19: float32 /* ty=float32 span=from_string:23:20 */ = 1f /* ty=float32 span=from_string:22:17 */;
  %17 = fn (%p017: float32 /* ty=float32 */, Primitive=1) -> float16 {
    cast(%p017, dtype="float16") /* ty=float16 span=from_string:23:15 */
  } /* ty=fn (float32) -> float16 */;
  let %x_20: float16 /* ty=float16 span=from_string:24:26 */ = %17(%x_19) /* ty=float16 */;
  %18 = fn (%p018: Tensor[(10, 10), float16] /* ty=Tensor[(10, 10), float16] */, %p16: float16 /* ty=float16 */, Primitive=1) -> Tensor[(10, 10), float16] {
    add(%p018, %p16) /* ty=Tensor[(10, 10), float16] span=from_string:24:15 */
  } /* ty=fn (Tensor[(10, 10), float16], float16) -> Tensor[(10, 10), float16] */;
  let %x_21: Tensor[(10, 10), float16] /* ty=Tensor[(10, 10), float16] span=from_string:25:26 */ = %18(%x_18, %x_20) /* ty=Tensor[(10, 10), float16] */;
  %19 = fn (%p019: Tensor[(10, 10), float16] /* ty=Tensor[(10, 10), float16] */, %p17: Tensor[(10, 10), float16] /* ty=Tensor[(10, 10), float16] */, Primitive=1) -> Tensor[(10, 10), float16] {
    add(%p019, %p17) /* ty=Tensor[(10, 10), float16] span=from_string:25:15 */
  } /* ty=fn (Tensor[(10, 10), float16], Tensor[(10, 10), float16]) -> Tensor[(10, 10), float16] */;
  let %x_22: Tensor[(10, 10), float16] /* ty=Tensor[(10, 10), float16] span=from_string:35:24 */ = %19(%x_17, %x_21) /* ty=Tensor[(10, 10), float16] */;
  %20 = fn (%p020: Tensor[(12, 10), float32] /* ty=Tensor[(12, 10), float32] */, Primitive=1) -> Tensor[(12, 10), float16] {
    cast(%p020, dtype="float16") /* ty=Tensor[(12, 10), float16] span=from_string:26:15 */
  } /* ty=fn (Tensor[(12, 10), float32]) -> Tensor[(12, 10), float16] */;
  let %x_23: Tensor[(12, 10), float16] /* ty=Tensor[(12, 10), float16] span=from_string:27:31 */ = %20(%x5) /* ty=Tensor[(12, 10), float16] */;
  %21 = fn (%p021: Tensor[(10, 10), float16] /* ty=Tensor[(10, 10), float16] */, %p18: Tensor[(12, 10), float16] /* ty=Tensor[(12, 10), float16] */, Primitive=1) -> Tensor[(10, 12), float16] {
    nn.dense(%p021, %p18, units=None, out_dtype="float16") /* ty=Tensor[(10, 12), float16] span=from_string:27:15 */
  } /* ty=fn (Tensor[(10, 10), float16], Tensor[(12, 10), float16]) -> Tensor[(10, 12), float16] */;
  let %x_24: Tensor[(10, 12), float16] /* ty=Tensor[(10, 12), float16] span=from_string:30:19 */ = %21(%x_22, %x_23) /* ty=Tensor[(10, 12), float16] */;
  %22 = fn (%p022: Tensor[(12), float32] /* ty=Tensor[(12), float32] */, Primitive=1) -> Tensor[(12), float16] {
    cast(%p022, dtype="float16") /* ty=Tensor[(12), float16] span=from_string:28:15 */
  } /* ty=fn (Tensor[(12), float32]) -> Tensor[(12), float16] */;
  let %x_25: Tensor[(12), float16] /* ty=Tensor[(12), float16] span=from_string:29:27 */ = %22(%x6) /* ty=Tensor[(12), float16] */;
  %23 = fn (%p023: Tensor[(12), float16] /* ty=Tensor[(12), float16] */, Primitive=1, relay.reshape_only=1) -> Tensor[(1, 12), float16] {
    expand_dims(%p023, axis=0) /* ty=Tensor[(1, 12), float16] span=from_string:29:15 */
  } /* ty=fn (Tensor[(12), float16]) -> Tensor[(1, 12), float16] */;
  let %x_26: Tensor[(1, 12), float16] /* ty=Tensor[(1, 12), float16] span=from_string:30:26 */ = %23(%x_25) /* ty=Tensor[(1, 12), float16] */;
  %24 = fn (%p024: Tensor[(10, 12), float16] /* ty=Tensor[(10, 12), float16] */, %p19: Tensor[(1, 12), float16] /* ty=Tensor[(1, 12), float16] */, Primitive=1) -> Tensor[(10, 12), float16] {
    add(%p024, %p19) /* ty=Tensor[(10, 12), float16] span=from_string:30:15 */
  } /* ty=fn (Tensor[(10, 12), float16], Tensor[(1, 12), float16]) -> Tensor[(10, 12), float16] */;
  let %x_27: Tensor[(10, 12), float16] /* ty=Tensor[(10, 12), float16] span=from_string:32:25 */ = %24(%x_24, %x_26) /* ty=Tensor[(10, 12), float16] */;
  %25 = fn (%p025: Tensor[(1), float32] /* ty=Tensor[(1), float32] */, Primitive=1) -> Tensor[(1), float16] {
    cast(%p025, dtype="float16") /* ty=Tensor[(1), float16] span=from_string:31:15 */
  } /* ty=fn (Tensor[(1), float32]) -> Tensor[(1), float16] */;
  let %x_28: Tensor[(1), float16] /* ty=Tensor[(1), float16] span=from_string:32:32 */ = %25(%x7) /* ty=Tensor[(1), float16] */;
  %26 = fn (%p026: Tensor[(10, 12), float16] /* ty=Tensor[(10, 12), float16] */, %p110: Tensor[(1), float16] /* ty=Tensor[(1), float16] */, Primitive=1) -> Tensor[(10, 12), float16] {
    multiply(%p026, %p110) /* ty=Tensor[(10, 12), float16] span=from_string:32:16 */
  } /* ty=fn (Tensor[(10, 12), float16], Tensor[(1), float16]) -> Tensor[(10, 12), float16] */;
  let %x_29: Tensor[(10, 12), float16] /* ty=Tensor[(10, 12), float16] span=from_string:33:23 */ = %26(%x_27, %x_28) /* ty=Tensor[(10, 12), float16] */;
  %27 = fn (%p027: Tensor[(10, 12), float16] /* ty=Tensor[(10, 12), float16] */, Primitive=1, relay.reshape_only=1) -> Tensor[(1, 1, 120), float16] {
    reshape(%p027, newshape=[1, 1, 120]) /* ty=Tensor[(1, 1, 120), float16] span=from_string:33:15 */
  } /* ty=fn (Tensor[(10, 12), float16]) -> Tensor[(1, 1, 120), float16] */;
  let %x_30: Tensor[(1, 1, 120), float16] /* ty=Tensor[(1, 1, 120), float16] span=from_string:42:16 */ = %27(%x_29) /* ty=Tensor[(1, 1, 120), float16] */;
  %28 = fn (%p028: Tensor[(24, 10), float32] /* ty=Tensor[(24, 10), float32] */, Primitive=1) -> Tensor[(24, 10), float16] {
    cast(%p028, dtype="float16") /* ty=Tensor[(24, 10), float16] span=from_string:34:15 */
  } /* ty=fn (Tensor[(24, 10), float32]) -> Tensor[(24, 10), float16] */;
  let %x_31: Tensor[(24, 10), float16] /* ty=Tensor[(24, 10), float16] span=from_string:35:31 */ = %28(%x8) /* ty=Tensor[(24, 10), float16] */;
  %29 = fn (%p029: Tensor[(10, 10), float16] /* ty=Tensor[(10, 10), float16] */, %p111: Tensor[(24, 10), float16] /* ty=Tensor[(24, 10), float16] */, Primitive=1) -> Tensor[(10, 24), float16] {
    nn.dense(%p029, %p111, units=None, out_dtype="float16") /* ty=Tensor[(10, 24), float16] span=from_string:35:15 */
  } /* ty=fn (Tensor[(10, 10), float16], Tensor[(24, 10), float16]) -> Tensor[(10, 24), float16] */;
  let %x_32: Tensor[(10, 24), float16] /* ty=Tensor[(10, 24), float16] span=from_string:38:19 */ = %29(%x_22, %x_31) /* ty=Tensor[(10, 24), float16] */;
  %30 = fn (%p030: Tensor[(24), float32] /* ty=Tensor[(24), float32] */, Primitive=1) -> Tensor[(24), float16] {
    cast(%p030, dtype="float16") /* ty=Tensor[(24), float16] span=from_string:36:15 */
  } /* ty=fn (Tensor[(24), float32]) -> Tensor[(24), float16] */;
  let %x_33: Tensor[(24), float16] /* ty=Tensor[(24), float16] span=from_string:37:27 */ = %30(%x9) /* ty=Tensor[(24), float16] */;
  %31 = fn (%p031: Tensor[(24), float16] /* ty=Tensor[(24), float16] */, Primitive=1, relay.reshape_only=1) -> Tensor[(1, 24), float16] {
    expand_dims(%p031, axis=0) /* ty=Tensor[(1, 24), float16] span=from_string:37:15 */
  } /* ty=fn (Tensor[(24), float16]) -> Tensor[(1, 24), float16] */;
  let %x_34: Tensor[(1, 24), float16] /* ty=Tensor[(1, 24), float16] span=from_string:38:26 */ = %31(%x_33) /* ty=Tensor[(1, 24), float16] */;
  %32 = fn (%p032: Tensor[(10, 24), float16] /* ty=Tensor[(10, 24), float16] */, %p112: Tensor[(1, 24), float16] /* ty=Tensor[(1, 24), float16] */, Primitive=1) -> Tensor[(10, 24), float16] {
    add(%p032, %p112) /* ty=Tensor[(10, 24), float16] span=from_string:38:15 */
  } /* ty=fn (Tensor[(10, 24), float16], Tensor[(1, 24), float16]) -> Tensor[(10, 24), float16] */;
  let %x_35: Tensor[(10, 24), float16] /* ty=Tensor[(10, 24), float16] span=from_string:40:25 */ = %32(%x_32, %x_34) /* ty=Tensor[(10, 24), float16] */;
  %33 = fn (%p033: Tensor[(1), float32] /* ty=Tensor[(1), float32] */, Primitive=1) -> Tensor[(1), float16] {
    cast(%p033, dtype="float16") /* ty=Tensor[(1), float16] span=from_string:39:15 */
  } /* ty=fn (Tensor[(1), float32]) -> Tensor[(1), float16] */;
  let %x_36: Tensor[(1), float16] /* ty=Tensor[(1), float16] span=from_string:55:19 */ = %33(%x10) /* ty=Tensor[(1), float16] */;
  %34 = fn (%p034: Tensor[(10, 24), float16] /* ty=Tensor[(10, 24), float16] */, %p113: Tensor[(1), float16] /* ty=Tensor[(1), float16] */, Primitive=1) -> Tensor[(10, 24), float16] {
    multiply(%p034, %p113) /* ty=Tensor[(10, 24), float16] span=from_string:40:16 */
  } /* ty=fn (Tensor[(10, 24), float16], Tensor[(1), float16]) -> Tensor[(10, 24), float16] */;
  let %x_37: Tensor[(10, 24), float16] /* ty=Tensor[(10, 24), float16] span=from_string:50:40 */ = %34(%x_35, %x_36) /* ty=Tensor[(10, 24), float16] */;
  %35 = fn (%p035: Tensor[(10, 24), float16] /* ty=Tensor[(10, 24), float16] */, Primitive=1, relay.reshape_only=1) -> Tensor[(1, 1, 240), float16] {
    reshape(%p035, newshape=[1, 1, 240]) /* ty=Tensor[(1, 1, 240), float16] span=from_string:41:15 */
  } /* ty=fn (Tensor[(10, 24), float16]) -> Tensor[(1, 1, 240), float16] */;
  let %x_38: Tensor[(1, 1, 240), float16] /* ty=Tensor[(1, 1, 240), float16] span=from_string:42:23 */ = %35(%x_37) /* ty=Tensor[(1, 1, 240), float16] */;
  let %x_39: (Tensor[(1, 1, 120), float16], Tensor[(1, 1, 240), float16]) /* ty=(Tensor[(1, 1, 120), float16], Tensor[(1, 1, 240), float16]) span=from_string:82:23 */ = (%x_30, %x_38) /* ty=(Tensor[(1, 1, 120), float16], Tensor[(1, 1, 240), float16]) span=from_string:42:15 */;
  %36 = fn (%p036: Tensor[(10, 24), float16] /* ty=Tensor[(10, 24), float16] */, Primitive=1) -> Tensor[(10, 24), float16] {
    multiply(%p036, %p036) /* ty=Tensor[(10, 24), float16] span=from_string:43:16 */
  } /* ty=fn (Tensor[(10, 24), float16]) -> Tensor[(10, 24), float16] */;
  let %x_40: Tensor[(10, 24), float16] /* ty=Tensor[(10, 24), float16] span=from_string:53:16 */ = %36(%x_37) /* ty=Tensor[(10, 24), float16] */;
  %37 = fn (%p037: Tensor[(10, 24), float16] /* ty=Tensor[(10, 24), float16] */, Primitive=1) -> Tensor[(10, 24), float16] {
    zeros_like(%p037) /* ty=Tensor[(10, 24), float16] span=from_string:44:15 */
  } /* ty=fn (Tensor[(10, 24), float16]) -> Tensor[(10, 24), float16] */;
  let %x_41: Tensor[(10, 24), float16] /* ty=Tensor[(10, 24), float16] span=from_string:48:19 */ = %37(%x_37) /* ty=Tensor[(10, 24), float16] */;
  %38 = fn (%p038: Tensor[(10, 24), float16] /* ty=Tensor[(10, 24), float16] */, Primitive=1) -> Tensor[(10, 24), float16] {
    ones_like(%p038) /* ty=Tensor[(10, 24), float16] span=from_string:45:15 */
  } /* ty=fn (Tensor[(10, 24), float16]) -> Tensor[(10, 24), float16] */;
  let %x_42: Tensor[(10, 24), float16] /* ty=Tensor[(10, 24), float16] span=from_string:49:25 */ = %38(%x_40) /* ty=Tensor[(10, 24), float16] */;
  %39 = fn (%p039: Tensor[(10, 24), float16] /* ty=Tensor[(10, 24), float16] */, %p114: Tensor[(10, 24), float16] /* ty=Tensor[(10, 24), float16] */, Primitive=1) -> Tensor[(10, 24), float16] {
    multiply(%p039, %p114) /* ty=Tensor[(10, 24), float16] span=from_string:46:16 */
  } /* ty=fn (Tensor[(10, 24), float16], Tensor[(10, 24), float16]) -> Tensor[(10, 24), float16] */;
  let %x_43: Tensor[(10, 24), float16] /* ty=Tensor[(10, 24), float16] span=from_string:66:31 */ = %39(%x_42, %x_37) /* ty=Tensor[(10, 24), float16] */;
  %40 = fn (%p040: Tensor[(10, 24), float16] /* ty=Tensor[(10, 24), float16] */, %p115: Tensor[(10, 24), float16] /* ty=Tensor[(10, 24), float16] */, Primitive=1) -> Tensor[(10, 24), float16] {
    collapse_sum_like(%p040, %p115) /* ty=Tensor[(10, 24), float16] span=from_string:47:15 */
  } /* ty=fn (Tensor[(10, 24), float16], Tensor[(10, 24), float16]) -> Tensor[(10, 24), float16] */;
  let %x_44: Tensor[(10, 24), float16] /* ty=Tensor[(10, 24), float16] span=from_string:48:26 */ = %40(%x_43, %x_37) /* ty=Tensor[(10, 24), float16] */;
  %41 = fn (%p041: Tensor[(10, 24), float16] /* ty=Tensor[(10, 24), float16] */, %p116: Tensor[(10, 24), float16] /* ty=Tensor[(10, 24), float16] */, Primitive=1) -> Tensor[(10, 24), float16] {
    add(%p041, %p116) /* ty=Tensor[(10, 24), float16] span=from_string:48:15 */
  } /* ty=fn (Tensor[(10, 24), float16], Tensor[(10, 24), float16]) -> Tensor[(10, 24), float16] */;
  let %x_45: Tensor[(10, 24), float16] /* ty=Tensor[(10, 24), float16] span=from_string:51:19 */ = %41(%x_41, %x_44) /* ty=Tensor[(10, 24), float16] */;
  %42 = fn (%p042: Tensor[(10, 24), float16] /* ty=Tensor[(10, 24), float16] */, %p117: Tensor[(10, 24), float16] /* ty=Tensor[(10, 24), float16] */, Primitive=1) -> Tensor[(10, 24), float16] {
    multiply(%p042, %p117) /* ty=Tensor[(10, 24), float16] span=from_string:49:16 */
  } /* ty=fn (Tensor[(10, 24), float16], Tensor[(10, 24), float16]) -> Tensor[(10, 24), float16] */;
  let %x_46: Tensor[(10, 24), float16] /* ty=Tensor[(10, 24), float16] span=from_string:50:33 */ = %42(%x_42, %x_37) /* ty=Tensor[(10, 24), float16] */;
  %43 = fn (%p043: Tensor[(10, 24), float16] /* ty=Tensor[(10, 24), float16] */, %p118: Tensor[(10, 24), float16] /* ty=Tensor[(10, 24), float16] */, Primitive=1) -> Tensor[(10, 24), float16] {
    collapse_sum_like(%p043, %p118) /* ty=Tensor[(10, 24), float16] span=from_string:50:15 */
  } /* ty=fn (Tensor[(10, 24), float16], Tensor[(10, 24), float16]) -> Tensor[(10, 24), float16] */;
  let %x_47: Tensor[(10, 24), float16] /* ty=Tensor[(10, 24), float16] span=from_string:51:26 */ = %43(%x_46, %x_37) /* ty=Tensor[(10, 24), float16] */;
  %44 = fn (%p044: Tensor[(10, 24), float16] /* ty=Tensor[(10, 24), float16] */, %p119: Tensor[(10, 24), float16] /* ty=Tensor[(10, 24), float16] */, Primitive=1) -> Tensor[(10, 24), float16] {
    add(%p044, %p119) /* ty=Tensor[(10, 24), float16] span=from_string:51:15 */
  } /* ty=fn (Tensor[(10, 24), float16], Tensor[(10, 24), float16]) -> Tensor[(10, 24), float16] */;
  let %x_48: Tensor[(10, 24), float16] /* ty=Tensor[(10, 24), float16] span=from_string:52:16 */ = %44(%x_45, %x_47) /* ty=Tensor[(10, 24), float16] */;
  let %x_49: (Tensor[(10, 24), float16],) /* ty=(Tensor[(10, 24), float16],) span=from_string:53:23 */ = (%x_48,) /* ty=(Tensor[(10, 24), float16],) span=from_string:52:15 */;
  let %x_50: (Tensor[(10, 24), float16], (Tensor[(10, 24), float16],)) /* ty=(Tensor[(10, 24), float16], (Tensor[(10, 24), float16],)) span=from_string:82:30 */ = (%x_40, %x_49) /* ty=(Tensor[(10, 24), float16], (Tensor[(10, 24), float16],)) span=from_string:53:15 */;
  %45 = fn (Primitive=1) -> Tensor[(1), float16] {
    ones(shape=[1], dtype="float16") /* ty=Tensor[(1), float16] span=from_string:54:15 */
  } /* ty=fn () -> Tensor[(1), float16] */;
  let %x_51: Tensor[(1), float16] /* ty=Tensor[(1), float16] span=from_string:55:26 */ = %45() /* ty=Tensor[(1), float16] */;
  %46 = fn (%p045: Tensor[(1), float16] /* ty=Tensor[(1), float16] */, %p120: Tensor[(1), float16] /* ty=Tensor[(1), float16] */, Primitive=1) -> Tensor[(1), float16] {
    add(%p045, %p120) /* ty=Tensor[(1), float16] span=from_string:55:15 */
  } /* ty=fn (Tensor[(1), float16], Tensor[(1), float16]) -> Tensor[(1), float16] */;
  let %x_52: Tensor[(1), float16] /* ty=Tensor[(1), float16] span=from_string:82:37 */ = %46(%x_36, %x_51) /* ty=Tensor[(1), float16] */;
  %47 = fn (%p046: Tensor[(14, 30), float32] /* ty=Tensor[(14, 30), float32] */, Primitive=1) -> Tensor[(14, 30), float16] {
    cast(%p046, dtype="float16") /* ty=Tensor[(14, 30), float16] span=from_string:56:15 */
  } /* ty=fn (Tensor[(14, 30), float32]) -> Tensor[(14, 30), float16] */;
  let %x_53: Tensor[(14, 30), float16] /* ty=Tensor[(14, 30), float16] span=from_string:57:21 */ = %47(%x11) /* ty=Tensor[(14, 30), float16] */;
  %48 = fn (%p047: Tensor[(14, 30), float16] /* ty=Tensor[(14, 30), float16] */, Primitive=1) -> (Tensor[(14, 10), float16], Tensor[(14, 10), float16], Tensor[(14, 10), float16]) {
    split(%p047, indices_or_sections=3, axis=1) /* ty=(Tensor[(14, 10), float16], Tensor[(14, 10), float16], Tensor[(14, 10), float16]) span=from_string:57:15 */
  } /* ty=fn (Tensor[(14, 30), float16]) -> (Tensor[(14, 10), float16], Tensor[(14, 10), float16], Tensor[(14, 10), float16]) */;
  let %x_54: (Tensor[(14, 10), float16], Tensor[(14, 10), float16], Tensor[(14, 10), float16]) /* ty=(Tensor[(14, 10), float16], Tensor[(14, 10), float16], Tensor[(14, 10), float16]) span=from_string:58:15 */ = %48(%x_53) /* ty=(Tensor[(14, 10), float16], Tensor[(14, 10), float16], Tensor[(14, 10), float16]) */;
  let %x_55: Tensor[(14, 10), float16] /* ty=Tensor[(14, 10), float16] span=from_string:61:24 */ = %x_54.0 /* ty=Tensor[(14, 10), float16] span=from_string:58:15 */;
  %49 = fn (%p048: Tensor[(65, 10), float16] /* ty=Tensor[(65, 10), float16] */, Primitive=1) -> Tensor[(65, 10), float16] {
    ones_like(%p048) /* ty=Tensor[(65, 10), float16] span=from_string:59:15 */
  } /* ty=fn (Tensor[(65, 10), float16]) -> Tensor[(65, 10), float16] */;
  let %x_56: Tensor[(65, 10), float16] /* ty=Tensor[(65, 10), float16] span=from_string:60:25 */ = %49(%x_9) /* ty=Tensor[(65, 10), float16] */;
  %50 = fn (%p049: Tensor[(65, 10), float16] /* ty=Tensor[(65, 10), float16] */, %p121: Tensor[(65, 10), float16] /* ty=Tensor[(65, 10), float16] */, Primitive=1) -> Tensor[(65, 10), float16] {
    add(%p049, %p121) /* ty=Tensor[(65, 10), float16] span=from_string:60:15 */
  } /* ty=fn (Tensor[(65, 10), float16], Tensor[(65, 10), float16]) -> Tensor[(65, 10), float16] */;
  let %x_57: Tensor[(65, 10), float16] /* ty=Tensor[(65, 10), float16] span=from_string:62:20 */ = %50(%x_9, %x_56) /* ty=Tensor[(65, 10), float16] */;
  %51 = fn (%p050: Tensor[(14, 10), float16] /* ty=Tensor[(14, 10), float16] */, %p122: Tensor[(65, 10), float16] /* ty=Tensor[(65, 10), float16] */, Primitive=1) -> Tensor[(14, 65), float16] {
    nn.dense(%p050, %p122, units=None, out_dtype="float16") /* ty=Tensor[(14, 65), float16] span=from_string:61:15 */
  } /* ty=fn (Tensor[(14, 10), float16], Tensor[(65, 10), float16]) -> Tensor[(14, 65), float16] */;
  let %x_58: Tensor[(14, 65), float16] /* ty=Tensor[(14, 65), float16] span=from_string:82:44 */ = %51(%x_55, %x_57) /* ty=Tensor[(14, 65), float16] */;
  %52 = fn (%p051: Tensor[(65, 10), float16] /* ty=Tensor[(65, 10), float16] */, Primitive=1) -> Tensor[(65, 10), bfloat16] {
    cast(%p051, dtype="bfloat16") /* ty=Tensor[(65, 10), bfloat16] span=from_string:62:15 */
  } /* ty=fn (Tensor[(65, 10), float16]) -> Tensor[(65, 10), bfloat16] */;
  let %x_59: Tensor[(65, 10), bfloat16] /* ty=Tensor[(65, 10), bfloat16] span=from_string:63:20 */ = %52(%x_57) /* ty=Tensor[(65, 10), bfloat16] */;
  %53 = fn (%p052: Tensor[(65, 10), bfloat16] /* ty=Tensor[(65, 10), bfloat16] */, Primitive=1) -> Tensor[(65, 10), float32] {
    cast(%p052, dtype="float32") /* ty=Tensor[(65, 10), float32] span=from_string:63:15 */
  } /* ty=fn (Tensor[(65, 10), bfloat16]) -> Tensor[(65, 10), float32] */;
  let %x_60: Tensor[(65, 10), float32] /* ty=Tensor[(65, 10), float32] span=from_string:64:20 */ = %53(%x_59) /* ty=Tensor[(65, 10), float32] */;
  %54 = fn (%p053: Tensor[(65, 10), float32] /* ty=Tensor[(65, 10), float32] */, Primitive=1) -> Tensor[(65, 10), float32] {
    clip(%p053, a_min=-0.2f, a_max=0.4f) /* ty=Tensor[(65, 10), float32] span=from_string:64:15 */
  } /* ty=fn (Tensor[(65, 10), float32]) -> Tensor[(65, 10), float32] */;
  let %x_61: Tensor[(65, 10), float32] /* ty=Tensor[(65, 10), float32] span=from_string:82:51 */ = %54(%x_60) /* ty=Tensor[(65, 10), float32] */;
  %55 = fn (%p054: Tensor[(42, 24), float32] /* ty=Tensor[(42, 24), float32] */, Primitive=1) -> Tensor[(42, 24), float16] {
    cast(%p054, dtype="float16") /* ty=Tensor[(42, 24), float16] span=from_string:65:15 */
  } /* ty=fn (Tensor[(42, 24), float32]) -> Tensor[(42, 24), float16] */;
  let %x_62: Tensor[(42, 24), float16] /* ty=Tensor[(42, 24), float16] span=from_string:74:24 */ = %55(%x12) /* ty=Tensor[(42, 24), float16] */;
  %56 = fn (%p055: Tensor[(42, 24), float16] /* ty=Tensor[(42, 24), float16] */, %p123: Tensor[(10, 24), float16] /* ty=Tensor[(10, 24), float16] */, Primitive=1) -> Tensor[(42, 10), float16] {
    nn.dense(%p055, %p123, units=None, out_dtype="float16") /* ty=Tensor[(42, 10), float16] span=from_string:66:15 */
  } /* ty=fn (Tensor[(42, 24), float16], Tensor[(10, 24), float16]) -> Tensor[(42, 10), float16] */;
  let %x_63: Tensor[(42, 10), float16] /* ty=Tensor[(42, 10), float16] span=from_string:69:19 */ = %56(%x_62, %x_43) /* ty=Tensor[(42, 10), float16] */;
  %57 = fn (%p056: Tensor[(10), float32] /* ty=Tensor[(10), float32] */, Primitive=1) -> Tensor[(10), float16] {
    cast(%p056, dtype="float16") /* ty=Tensor[(10), float16] span=from_string:67:15 */
  } /* ty=fn (Tensor[(10), float32]) -> Tensor[(10), float16] */;
  let %x_64: Tensor[(10), float16] /* ty=Tensor[(10), float16] span=from_string:68:27 */ = %57(%x14) /* ty=Tensor[(10), float16] */;
  %58 = fn (%p057: Tensor[(10), float16] /* ty=Tensor[(10), float16] */, Primitive=1, relay.reshape_only=1) -> Tensor[(1, 10), float16] {
    expand_dims(%p057, axis=0) /* ty=Tensor[(1, 10), float16] span=from_string:68:15 */
  } /* ty=fn (Tensor[(10), float16]) -> Tensor[(1, 10), float16] */;
  let %x_65: Tensor[(1, 10), float16] /* ty=Tensor[(1, 10), float16] span=from_string:69:26 */ = %58(%x_64) /* ty=Tensor[(1, 10), float16] */;
  %59 = fn (%p058: Tensor[(42, 10), float16] /* ty=Tensor[(42, 10), float16] */, %p124: Tensor[(1, 10), float16] /* ty=Tensor[(1, 10), float16] */, Primitive=1) -> Tensor[(42, 10), float16] {
    add(%p058, %p124) /* ty=Tensor[(42, 10), float16] span=from_string:69:15 */
  } /* ty=fn (Tensor[(42, 10), float16], Tensor[(1, 10), float16]) -> Tensor[(42, 10), float16] */;
  let %x_66: Tensor[(42, 10), float16] /* ty=Tensor[(42, 10), float16] span=from_string:71:25 */ = %59(%x_63, %x_65) /* ty=Tensor[(42, 10), float16] */;
  %60 = fn (%p059: Tensor[(1), float32] /* ty=Tensor[(1), float32] */, Primitive=1) -> Tensor[(1), float16] {
    cast(%p059, dtype="float16") /* ty=Tensor[(1), float16] span=from_string:70:15 */
  } /* ty=fn (Tensor[(1), float32]) -> Tensor[(1), float16] */;
  let %x_67: Tensor[(1), float16] /* ty=Tensor[(1), float16] span=from_string:71:32 */ = %60(%x16) /* ty=Tensor[(1), float16] */;
  %61 = fn (%p060: Tensor[(42, 10), float16] /* ty=Tensor[(42, 10), float16] */, %p125: Tensor[(1), float16] /* ty=Tensor[(1), float16] */, Primitive=1) -> Tensor[(42, 10), float16] {
    multiply(%p060, %p125) /* ty=Tensor[(42, 10), float16] span=from_string:71:16 */
  } /* ty=fn (Tensor[(42, 10), float16], Tensor[(1), float16]) -> Tensor[(42, 10), float16] */;
  let %x_68: Tensor[(42, 10), float16] /* ty=Tensor[(42, 10), float16] span=from_string:72:23 */ = %61(%x_66, %x_67) /* ty=Tensor[(42, 10), float16] */;
  %62 = fn (%p061: Tensor[(42, 10), float16] /* ty=Tensor[(42, 10), float16] */, Primitive=1, relay.reshape_only=1) -> Tensor[(1, 1, 420), float16] {
    reshape(%p061, newshape=[1, 1, -1]) /* ty=Tensor[(1, 1, 420), float16] span=from_string:72:15 */
  } /* ty=fn (Tensor[(42, 10), float16]) -> Tensor[(1, 1, 420), float16] */;
  let %x_69: Tensor[(1, 1, 420), float16] /* ty=Tensor[(1, 1, 420), float16] span=from_string:81:16 */ = %62(%x_68) /* ty=Tensor[(1, 1, 420), float16] */;
  %63 = fn (%p062: Tensor[(10, 24), float32] /* ty=Tensor[(10, 24), float32] */, Primitive=1) -> Tensor[(10, 24), float16] {
    cast(%p062, dtype="float16") /* ty=Tensor[(10, 24), float16] span=from_string:73:15 */
  } /* ty=fn (Tensor[(10, 24), float32]) -> Tensor[(10, 24), float16] */;
  let %x_70: Tensor[(10, 24), float16] /* ty=Tensor[(10, 24), float16] span=from_string:74:31 */ = %63(%x13) /* ty=Tensor[(10, 24), float16] */;
  %64 = fn (%p063: Tensor[(42, 24), float16] /* ty=Tensor[(42, 24), float16] */, %p126: Tensor[(10, 24), float16] /* ty=Tensor[(10, 24), float16] */, Primitive=1) -> Tensor[(42, 10), float16] {
    nn.dense(%p063, %p126, units=None, out_dtype="float16") /* ty=Tensor[(42, 10), float16] span=from_string:74:15 */
  } /* ty=fn (Tensor[(42, 24), float16], Tensor[(10, 24), float16]) -> Tensor[(42, 10), float16] */;
  let %x_71: Tensor[(42, 10), float16] /* ty=Tensor[(42, 10), float16] span=from_string:77:19 */ = %64(%x_62, %x_70) /* ty=Tensor[(42, 10), float16] */;
  %65 = fn (%p064: Tensor[(10), float32] /* ty=Tensor[(10), float32] */, Primitive=1) -> Tensor[(10), float16] {
    cast(%p064, dtype="float16") /* ty=Tensor[(10), float16] span=from_string:75:15 */
  } /* ty=fn (Tensor[(10), float32]) -> Tensor[(10), float16] */;
  let %x_72: Tensor[(10), float16] /* ty=Tensor[(10), float16] span=from_string:76:27 */ = %65(%x15) /* ty=Tensor[(10), float16] */;
  %66 = fn (%p065: Tensor[(10), float16] /* ty=Tensor[(10), float16] */, Primitive=1, relay.reshape_only=1) -> Tensor[(1, 10), float16] {
    expand_dims(%p065, axis=0) /* ty=Tensor[(1, 10), float16] span=from_string:76:15 */
  } /* ty=fn (Tensor[(10), float16]) -> Tensor[(1, 10), float16] */;
  let %x_73: Tensor[(1, 10), float16] /* ty=Tensor[(1, 10), float16] span=from_string:77:26 */ = %66(%x_72) /* ty=Tensor[(1, 10), float16] */;
  %67 = fn (%p066: Tensor[(42, 10), float16] /* ty=Tensor[(42, 10), float16] */, %p127: Tensor[(1, 10), float16] /* ty=Tensor[(1, 10), float16] */, Primitive=1) -> Tensor[(42, 10), float16] {
    add(%p066, %p127) /* ty=Tensor[(42, 10), float16] span=from_string:77:15 */
  } /* ty=fn (Tensor[(42, 10), float16], Tensor[(1, 10), float16]) -> Tensor[(42, 10), float16] */;
  let %x_74: Tensor[(42, 10), float16] /* ty=Tensor[(42, 10), float16] span=from_string:79:25 */ = %67(%x_71, %x_73) /* ty=Tensor[(42, 10), float16] */;
  %68 = fn (%p067: Tensor[(1), float32] /* ty=Tensor[(1), float32] */, Primitive=1) -> Tensor[(1), float16] {
    cast(%p067, dtype="float16") /* ty=Tensor[(1), float16] span=from_string:78:15 */
  } /* ty=fn (Tensor[(1), float32]) -> Tensor[(1), float16] */;
  let %x_75: Tensor[(1), float16] /* ty=Tensor[(1), float16] span=from_string:79:32 */ = %68(%x17) /* ty=Tensor[(1), float16] */;
  %69 = fn (%p068: Tensor[(42, 10), float16] /* ty=Tensor[(42, 10), float16] */, %p128: Tensor[(1), float16] /* ty=Tensor[(1), float16] */, Primitive=1) -> Tensor[(42, 10), float16] {
    multiply(%p068, %p128) /* ty=Tensor[(42, 10), float16] span=from_string:79:16 */
  } /* ty=fn (Tensor[(42, 10), float16], Tensor[(1), float16]) -> Tensor[(42, 10), float16] */;
  let %x_76: Tensor[(42, 10), float16] /* ty=Tensor[(42, 10), float16] span=from_string:80:23 */ = %69(%x_74, %x_75) /* ty=Tensor[(42, 10), float16] */;
  %70 = fn (%p069: Tensor[(42, 10), float16] /* ty=Tensor[(42, 10), float16] */, Primitive=1, relay.reshape_only=1) -> Tensor[(1, 1, 420), float16] {
    reshape(%p069, newshape=[1, 1, -1]) /* ty=Tensor[(1, 1, 420), float16] span=from_string:80:15 */
  } /* ty=fn (Tensor[(42, 10), float16]) -> Tensor[(1, 1, 420), float16] */;
  let %x_77: Tensor[(1, 1, 420), float16] /* ty=Tensor[(1, 1, 420), float16] span=from_string:81:23 */ = %70(%x_76) /* ty=Tensor[(1, 1, 420), float16] */;
  let %x_78: (Tensor[(1, 1, 420), float16], Tensor[(1, 1, 420), float16]) /* ty=(Tensor[(1, 1, 420), float16], Tensor[(1, 1, 420), float16]) span=from_string:82:58 */ = (%x_69, %x_77) /* ty=(Tensor[(1, 1, 420), float16], Tensor[(1, 1, 420), float16]) span=from_string:81:15 */;
  let %x_79: ((Tensor[(65, 10), float16], Tensor[(65, 10), float16]), (Tensor[(1, 1, 120), float16], Tensor[(1, 1, 240), float16]), (Tensor[(10, 24), float16], (Tensor[(10, 24), float16],)), Tensor[(1), float16], Tensor[(14, 65), float16], Tensor[(65, 10), float32], (Tensor[(1, 1, 420), float16], Tensor[(1, 1, 420), float16])) /* ty=((Tensor[(65, 10), float16], Tensor[(65, 10), float16]), (Tensor[(1, 1, 120), float16], Tensor[(1, 1, 240), float16]), (Tensor[(10, 24), float16], (Tensor[(10, 24), float16],)), Tensor[(1), float16], Tensor[(14, 65), float16], Tensor[(65, 10), float32], (Tensor[(1, 1, 420), float16], Tensor[(1, 1, 420), float16])) span=from_string:83:3 */ = (%x_13, %x_39, %x_50, %x_52, %x_58, %x_61, %x_78) /* ty=((Tensor[(65, 10), float16], Tensor[(65, 10), float16]), (Tensor[(1, 1, 120), float16], Tensor[(1, 1, 240), float16]), (Tensor[(10, 24), float16], (Tensor[(10, 24), float16],)), Tensor[(1), float16], Tensor[(14, 65), float16], Tensor[(65, 10), float32], (Tensor[(1, 1, 420), float16], Tensor[(1, 1, 420), float16])) span=from_string:82:15 */;
  %x_79
}
