#[version = "0.0.5"]
def @main(%x0: Tensor[(10, 10), float32] /* ty=Tensor[(10, 10), float32] span=from_string:10:101 */, %x1: Tensor[(65, 10), float32] /* ty=Tensor[(65, 10), float32] span=from_string:6:102 */, %x2: Tensor[(10, 10), float32] /* ty=Tensor[(10, 10), float32] span=from_string:38:102 */, %x3: Tensor[(10), float32] /* ty=Tensor[(10), float32] span=from_string:26:93 */, %x4: Tensor[(10), float32] /* ty=Tensor[(10), float32] span=from_string:46:96 */, %x5: Tensor[(12, 10), float32] /* ty=Tensor[(12, 10), float32] span=from_string:89:104 */, %x6: Tensor[(12), float32] /* ty=Tensor[(12), float32] span=from_string:97:96 */, %x7: Tensor[(1), float32] /* ty=Tensor[(1), float32] span=from_string:109:94 */, %x8: Tensor[(24, 10), float32] /* ty=Tensor[(24, 10), float32] span=from_string:121:104 */, %x9: Tensor[(24), float32] /* ty=Tensor[(24), float32] span=from_string:129:96 */, %x10: Tensor[(1), float32] /* ty=Tensor[(1), float32] span=from_string:141:94 */, %x11: Tensor[(14, 30), float32] /* ty=Tensor[(14, 30), float32] span=from_string:200:104 */, %x12: Tensor[(42, 24), float32] /* ty=Tensor[(42, 24), float32] span=from_string:233:104 */, %x13: Tensor[(10, 24), float32] /* ty=Tensor[(10, 24), float32] span=from_string:265:104 */, %x14: Tensor[(10), float32] /* ty=Tensor[(10), float32] span=from_string:241:96 */, %x15: Tensor[(10), float32] /* ty=Tensor[(10), float32] span=from_string:273:96 */, %x16: Tensor[(1), float32] /* ty=Tensor[(1), float32] span=from_string:253:94 */, %x17: Tensor[(1), float32] /* ty=Tensor[(1), float32] span=from_string:285:94 */) -> ((Tensor[(65, 10), float16], Tensor[(65, 10), float16]), (Tensor[(1, 1, 120), float16], Tensor[(1, 1, 240), float16]), (Tensor[(10, 24), float16], (Tensor[(10, 24), float16],)), Tensor[(1), float16], Tensor[(14, 65), float16], Tensor[(65, 10), float32], (Tensor[(1, 1, 420), float16], Tensor[(1, 1, 420), float16])) {
  %0 = fn (%p0: Tensor[(65, 10), float32] /* ty=Tensor[(65, 10), float32] span=from_string:4:10 */, Primitive=1) -> Tensor[(65, 10), float16] {
    cast(%p0, dtype="float16") /* ty=Tensor[(65, 10), float16] span=from_string:4:5 */
  } /* ty=fn (Tensor[(65, 10), float32]) -> Tensor[(65, 10), float16] span=from_string:6:99 */;
  let %x_0: Tensor[(65, 10), float16] /* ty=Tensor[(65, 10), float16] span=from_string:42:102 */ = %0(%x1) /* ty=Tensor[(65, 10), float16] span=from_string:6:99 */;
  %1 = fn (%p01: Tensor[(10, 10), float32] /* ty=Tensor[(10, 10), float32] span=from_string:8:10 */, Primitive=1) -> Tensor[(10, 10), float16] {
    cast(%p01, dtype="float16") /* ty=Tensor[(10, 10), float16] span=from_string:8:5 */
  } /* ty=fn (Tensor[(10, 10), float32]) -> Tensor[(10, 10), float16] span=from_string:10:98 */;
  let %x_1: Tensor[(10, 10), float16] /* ty=Tensor[(10, 10), float16] span=from_string:18:102 */ = %1(%x0) /* ty=Tensor[(10, 10), float16] span=from_string:10:98 */;
  %2 = fn (%p02: Tensor[(10, 10), float16] /* ty=Tensor[(10, 10), float16] span=from_string:12:16 */, Primitive=1) -> Tensor[(10, 10), float16] {
    zeros_like(%p02) /* ty=Tensor[(10, 10), float16] span=from_string:12:5 */
  } /* ty=fn (Tensor[(10, 10), float16]) -> Tensor[(10, 10), float16] span=from_string:14:98 */;
  let %x_2: Tensor[(10, 10), float16] /* ty=Tensor[(10, 10), float16] span=from_string:18:108 */ = %2(%x_1) /* ty=Tensor[(10, 10), float16] span=from_string:14:98 */;
  %3 = fn (%p03: Tensor[(10, 10), float16] /* ty=Tensor[(10, 10), float16] span=from_string:16:9 */, %p1: Tensor[(10, 10), float16] /* ty=Tensor[(10, 10), float16] span=from_string:16:15 */, Primitive=1) -> Tensor[(10, 10), float16] {
    add(%p03, %p1) /* ty=Tensor[(10, 10), float16] span=from_string:16:5 */
  } /* ty=fn (Tensor[(10, 10), float16], Tensor[(10, 10), float16]) -> Tensor[(10, 10), float16] span=from_string:18:99 */;
  let %x_3: Tensor[(10, 10), float16] /* ty=Tensor[(10, 10), float16] span=from_string:72:104 */ = %3(%x_1, %x_2) /* ty=Tensor[(10, 10), float16] span=from_string:18:99 */;
  %4 = fn (%p04: Tensor[(65, 10), float16] /* ty=Tensor[(65, 10), float16] span=from_string:20:14 */, %p11: Tensor[(10, 10), float16] /* ty=Tensor[(10, 10), float16] span=from_string:20:20 */, Primitive=1) -> Tensor[(65, 10), float16] {
    nn.dense(%p04, %p11, units=None, out_dtype="float16") /* ty=Tensor[(65, 10), float16] span=from_string:20:5 */
  } /* ty=fn (Tensor[(65, 10), float16], Tensor[(10, 10), float16]) -> Tensor[(65, 10), float16] span=from_string:22:99 */;
  let %x_4: Tensor[(65, 10), float16] /* ty=Tensor[(65, 10), float16] span=from_string:34:102 */ = %4(%x_0, %x_3) /* ty=Tensor[(65, 10), float16] span=from_string:22:99 */;
  %5 = fn (%p05: Tensor[(10), float32] /* ty=Tensor[(10), float32] span=from_string:24:10 */, Primitive=1) -> Tensor[(10), float16] {
    cast(%p05, dtype="float16") /* ty=Tensor[(10), float16] span=from_string:24:5 */
  } /* ty=fn (Tensor[(10), float32]) -> Tensor[(10), float16] span=from_string:26:90 */;
  let %x_5: Tensor[(10), float16] /* ty=Tensor[(10), float16] span=from_string:30:100 */ = %5(%x3) /* ty=Tensor[(10), float16] span=from_string:26:90 */;
  %6 = fn (%p06: Tensor[(10), float16] /* ty=Tensor[(10), float16] span=from_string:28:17 */, Primitive=1, relay.reshape_only=1) -> Tensor[(1, 10), float16] {
    expand_dims(%p06, axis=0) /* ty=Tensor[(1, 10), float16] span=from_string:28:5 */
  } /* ty=fn (Tensor[(10), float16]) -> Tensor[(1, 10), float16] span=from_string:30:97 */;
  let %x_6: Tensor[(1, 10), float16] /* ty=Tensor[(1, 10), float16] span=from_string:34:108 */ = %6(%x_5) /* ty=Tensor[(1, 10), float16] span=from_string:30:97 */;
  %7 = fn (%p07: Tensor[(65, 10), float16] /* ty=Tensor[(65, 10), float16] span=from_string:32:9 */, %p12: Tensor[(1, 10), float16] /* ty=Tensor[(1, 10), float16] span=from_string:32:15 */, Primitive=1) -> Tensor[(65, 10), float16] {
    add(%p07, %p12) /* ty=Tensor[(65, 10), float16] span=from_string:32:5 */
  } /* ty=fn (Tensor[(65, 10), float16], Tensor[(1, 10), float16]) -> Tensor[(65, 10), float16] span=from_string:34:99 */;
  let %x_7: Tensor[(65, 10), float16] /* ty=Tensor[(65, 10), float16] span=from_string:55:159 */ = %7(%x_4, %x_6) /* ty=Tensor[(65, 10), float16] span=from_string:34:99 */;
  %8 = fn (%p08: Tensor[(10, 10), float32] /* ty=Tensor[(10, 10), float32] span=from_string:36:10 */, Primitive=1) -> Tensor[(10, 10), float16] {
    cast(%p08, dtype="float16") /* ty=Tensor[(10, 10), float16] span=from_string:36:5 */
  } /* ty=fn (Tensor[(10, 10), float32]) -> Tensor[(10, 10), float16] span=from_string:38:99 */;
  let %x_8: Tensor[(10, 10), float16] /* ty=Tensor[(10, 10), float16] span=from_string:42:108 */ = %8(%x2) /* ty=Tensor[(10, 10), float16] span=from_string:38:99 */;
  %9 = fn (%p09: Tensor[(65, 10), float16] /* ty=Tensor[(65, 10), float16] span=from_string:40:14 */, %p13: Tensor[(10, 10), float16] /* ty=Tensor[(10, 10), float16] span=from_string:40:20 */, Primitive=1) -> Tensor[(65, 10), float16] {
    nn.dense(%p09, %p13, units=None, out_dtype="float16") /* ty=Tensor[(65, 10), float16] span=from_string:40:5 */
  } /* ty=fn (Tensor[(65, 10), float16], Tensor[(10, 10), float16]) -> Tensor[(65, 10), float16] span=from_string:42:99 */;
  let %x_9: Tensor[(65, 10), float16] /* ty=Tensor[(65, 10), float16] span=from_string:213:104 */ = %9(%x_0, %x_8) /* ty=Tensor[(65, 10), float16] span=from_string:42:99 */;
  %10 = fn (%p010: Tensor[(10), float32] /* ty=Tensor[(10), float32] span=from_string:44:10 */, Primitive=1) -> Tensor[(10), float16] {
    cast(%p010, dtype="float16") /* ty=Tensor[(10), float16] span=from_string:44:5 */
  } /* ty=fn (Tensor[(10), float32]) -> Tensor[(10), float16] span=from_string:46:92 */;
  let %x_10: Tensor[(10), float16] /* ty=Tensor[(10), float16] span=from_string:50:102 */ = %10(%x4) /* ty=Tensor[(10), float16] span=from_string:46:92 */;
  %11 = fn (%p011: Tensor[(10), float16] /* ty=Tensor[(10), float16] span=from_string:48:17 */, Primitive=1, relay.reshape_only=1) -> Tensor[(1, 10), float16] {
    expand_dims(%p011, axis=0) /* ty=Tensor[(1, 10), float16] span=from_string:48:5 */
  } /* ty=fn (Tensor[(10), float16]) -> Tensor[(1, 10), float16] span=from_string:50:98 */;
  let %x_11: Tensor[(1, 10), float16] /* ty=Tensor[(1, 10), float16] span=from_string:54:110 */ = %11(%x_10) /* ty=Tensor[(1, 10), float16] span=from_string:50:98 */;
  %12 = fn (%p012: Tensor[(65, 10), float16] /* ty=Tensor[(65, 10), float16] span=from_string:52:9 */, %p14: Tensor[(1, 10), float16] /* ty=Tensor[(1, 10), float16] span=from_string:52:16 */, Primitive=1) -> Tensor[(65, 10), float16] {
    add(%p012, %p14) /* ty=Tensor[(65, 10), float16] span=from_string:52:5 */
  } /* ty=fn (Tensor[(65, 10), float16], Tensor[(1, 10), float16]) -> Tensor[(65, 10), float16] span=from_string:54:100 */;
  let %x_12: Tensor[(65, 10), float16] /* ty=Tensor[(65, 10), float16] span=from_string:55:165 */ = %12(%x_9, %x_11) /* ty=Tensor[(65, 10), float16] span=from_string:54:100 */;
  let %x_13: (Tensor[(65, 10), float16], Tensor[(65, 10), float16]) /* ty=(Tensor[(65, 10), float16], Tensor[(65, 10), float16]) span=from_string:295:680 */ = (%x_7, %x_12) /* ty=(Tensor[(65, 10), float16], Tensor[(65, 10), float16]) span=from_string:55:158 */;
  %13 = fn (%p013: Tensor[(10, 10), float16] /* ty=Tensor[(10, 10), float16] span=from_string:57:13 */, Primitive=1) -> Tensor[(10, 10), float16] {
    nn.relu(%p013) /* ty=Tensor[(10, 10), float16] span=from_string:57:5 */
  } /* ty=fn (Tensor[(10, 10), float16]) -> Tensor[(10, 10), float16] span=from_string:59:100 */;
  let %x_14: Tensor[(10, 10), float16] /* ty=Tensor[(10, 10), float16] span=from_string:68:104 */ = %13(%x_3) /* ty=Tensor[(10, 10), float16] span=from_string:59:100 */;
  let %x_15: float32 /* ty=float32 span=from_string:64:68 */ = 1f /* ty=float32 span=from_string:60:66 */;
  %14 = fn (%p014: float32 /* ty=float32 span=from_string:62:10 */, Primitive=1) -> float16 {
    cast(%p014, dtype="float16") /* ty=float16 span=from_string:62:5 */
  } /* ty=fn (float32) -> float16 span=from_string:64:64 */;
  let %x_16: float16 /* ty=float16 span=from_string:68:111 */ = %14(%x_15) /* ty=float16 span=from_string:64:64 */;
  %15 = fn (%p015: Tensor[(10, 10), float16] /* ty=Tensor[(10, 10), float16] span=from_string:66:9 */, %p15: float16 /* ty=float16 span=from_string:66:16 */, Primitive=1) -> Tensor[(10, 10), float16] {
    add(%p015, %p15) /* ty=Tensor[(10, 10), float16] span=from_string:66:5 */
  } /* ty=fn (Tensor[(10, 10), float16], float16) -> Tensor[(10, 10), float16] span=from_string:68:100 */;
  let %x_17: Tensor[(10, 10), float16] /* ty=Tensor[(10, 10), float16] span=from_string:85:104 */ = %15(%x_14, %x_16) /* ty=Tensor[(10, 10), float16] span=from_string:68:100 */;
  %16 = fn (%p016: Tensor[(10, 10), float16] /* ty=Tensor[(10, 10), float16] span=from_string:70:13 */, Primitive=1) -> Tensor[(10, 10), float16] {
    nn.relu(%p016) /* ty=Tensor[(10, 10), float16] span=from_string:70:5 */
  } /* ty=fn (Tensor[(10, 10), float16]) -> Tensor[(10, 10), float16] span=from_string:72:100 */;
  let %x_18: Tensor[(10, 10), float16] /* ty=Tensor[(10, 10), float16] span=from_string:81:104 */ = %16(%x_3) /* ty=Tensor[(10, 10), float16] span=from_string:72:100 */;
  let %x_19: float32 /* ty=float32 span=from_string:77:68 */ = 1f /* ty=float32 span=from_string:73:66 */;
  %17 = fn (%p017: float32 /* ty=float32 span=from_string:75:10 */, Primitive=1) -> float16 {
    cast(%p017, dtype="float16") /* ty=float16 span=from_string:75:5 */
  } /* ty=fn (float32) -> float16 span=from_string:77:64 */;
  let %x_20: float16 /* ty=float16 span=from_string:81:111 */ = %17(%x_19) /* ty=float16 span=from_string:77:64 */;
  %18 = fn (%p018: Tensor[(10, 10), float16] /* ty=Tensor[(10, 10), float16] span=from_string:79:9 */, %p16: float16 /* ty=float16 span=from_string:79:16 */, Primitive=1) -> Tensor[(10, 10), float16] {
    add(%p018, %p16) /* ty=Tensor[(10, 10), float16] span=from_string:79:5 */
  } /* ty=fn (Tensor[(10, 10), float16], float16) -> Tensor[(10, 10), float16] span=from_string:81:100 */;
  let %x_21: Tensor[(10, 10), float16] /* ty=Tensor[(10, 10), float16] span=from_string:85:111 */ = %18(%x_18, %x_20) /* ty=Tensor[(10, 10), float16] span=from_string:81:100 */;
  %19 = fn (%p019: Tensor[(10, 10), float16] /* ty=Tensor[(10, 10), float16] span=from_string:83:9 */, %p17: Tensor[(10, 10), float16] /* ty=Tensor[(10, 10), float16] span=from_string:83:16 */, Primitive=1) -> Tensor[(10, 10), float16] {
    add(%p019, %p17) /* ty=Tensor[(10, 10), float16] span=from_string:83:5 */
  } /* ty=fn (Tensor[(10, 10), float16], Tensor[(10, 10), float16]) -> Tensor[(10, 10), float16] span=from_string:85:100 */;
  let %x_22: Tensor[(10, 10), float16] /* ty=Tensor[(10, 10), float16] span=from_string:125:104 */ = %19(%x_17, %x_21) /* ty=Tensor[(10, 10), float16] span=from_string:85:100 */;
  %20 = fn (%p020: Tensor[(12, 10), float32] /* ty=Tensor[(12, 10), float32] span=from_string:87:10 */, Primitive=1) -> Tensor[(12, 10), float16] {
    cast(%p020, dtype="float16") /* ty=Tensor[(12, 10), float16] span=from_string:87:5 */
  } /* ty=fn (Tensor[(12, 10), float32]) -> Tensor[(12, 10), float16] span=from_string:89:100 */;
  let %x_23: Tensor[(12, 10), float16] /* ty=Tensor[(12, 10), float16] span=from_string:93:111 */ = %20(%x5) /* ty=Tensor[(12, 10), float16] span=from_string:89:100 */;
  %21 = fn (%p021: Tensor[(10, 10), float16] /* ty=Tensor[(10, 10), float16] span=from_string:91:14 */, %p18: Tensor[(12, 10), float16] /* ty=Tensor[(12, 10), float16] span=from_string:91:21 */, Primitive=1) -> Tensor[(10, 12), float16] {
    nn.dense(%p021, %p18, units=None, out_dtype="float16") /* ty=Tensor[(10, 12), float16] span=from_string:91:5 */
  } /* ty=fn (Tensor[(10, 10), float16], Tensor[(12, 10), float16]) -> Tensor[(10, 12), float16] span=from_string:93:100 */;
  let %x_24: Tensor[(10, 12), float16] /* ty=Tensor[(10, 12), float16] span=from_string:105:104 */ = %21(%x_22, %x_23) /* ty=Tensor[(10, 12), float16] span=from_string:93:100 */;
  %22 = fn (%p022: Tensor[(12), float32] /* ty=Tensor[(12), float32] span=from_string:95:10 */, Primitive=1) -> Tensor[(12), float16] {
    cast(%p022, dtype="float16") /* ty=Tensor[(12), float16] span=from_string:95:5 */
  } /* ty=fn (Tensor[(12), float32]) -> Tensor[(12), float16] span=from_string:97:92 */;
  let %x_25: Tensor[(12), float16] /* ty=Tensor[(12), float16] span=from_string:101:102 */ = %22(%x6) /* ty=Tensor[(12), float16] span=from_string:97:92 */;
  %23 = fn (%p023: Tensor[(12), float16] /* ty=Tensor[(12), float16] span=from_string:99:17 */, Primitive=1, relay.reshape_only=1) -> Tensor[(1, 12), float16] {
    expand_dims(%p023, axis=0) /* ty=Tensor[(1, 12), float16] span=from_string:99:5 */
  } /* ty=fn (Tensor[(12), float16]) -> Tensor[(1, 12), float16] span=from_string:101:98 */;
  let %x_26: Tensor[(1, 12), float16] /* ty=Tensor[(1, 12), float16] span=from_string:105:111 */ = %23(%x_25) /* ty=Tensor[(1, 12), float16] span=from_string:101:98 */;
  %24 = fn (%p024: Tensor[(10, 12), float16] /* ty=Tensor[(10, 12), float16] span=from_string:103:9 */, %p19: Tensor[(1, 12), float16] /* ty=Tensor[(1, 12), float16] span=from_string:103:16 */, Primitive=1) -> Tensor[(10, 12), float16] {
    add(%p024, %p19) /* ty=Tensor[(10, 12), float16] span=from_string:103:5 */
  } /* ty=fn (Tensor[(10, 12), float16], Tensor[(1, 12), float16]) -> Tensor[(10, 12), float16] span=from_string:105:100 */;
  let %x_27: Tensor[(10, 12), float16] /* ty=Tensor[(10, 12), float16] span=from_string:113:104 */ = %24(%x_24, %x_26) /* ty=Tensor[(10, 12), float16] span=from_string:105:100 */;
  %25 = fn (%p025: Tensor[(1), float32] /* ty=Tensor[(1), float32] span=from_string:107:10 */, Primitive=1) -> Tensor[(1), float16] {
    cast(%p025, dtype="float16") /* ty=Tensor[(1), float16] span=from_string:107:5 */
  } /* ty=fn (Tensor[(1), float32]) -> Tensor[(1), float16] span=from_string:109:90 */;
  let %x_28: Tensor[(1), float16] /* ty=Tensor[(1), float16] span=from_string:113:111 */ = %25(%x7) /* ty=Tensor[(1), float16] span=from_string:109:90 */;
  %26 = fn (%p026: Tensor[(10, 12), float16] /* ty=Tensor[(10, 12), float16] span=from_string:111:15 */, %p110: Tensor[(1), float16] /* ty=Tensor[(1), float16] span=from_string:111:22 */, Primitive=1) -> Tensor[(10, 12), float16] {
    multiply(%p026, %p110) /* ty=Tensor[(10, 12), float16] span=from_string:111:6 */
  } /* ty=fn (Tensor[(10, 12), float16], Tensor[(1), float16]) -> Tensor[(10, 12), float16] span=from_string:113:100 */;
  let %x_29: Tensor[(10, 12), float16] /* ty=Tensor[(10, 12), float16] span=from_string:117:110 */ = %26(%x_27, %x_28) /* ty=Tensor[(10, 12), float16] span=from_string:113:100 */;
  %27 = fn (%p027: Tensor[(10, 12), float16] /* ty=Tensor[(10, 12), float16] span=from_string:115:13 */, Primitive=1, relay.reshape_only=1) -> Tensor[(1, 1, 120), float16] {
    reshape(%p027, newshape=[1, 1, 120]) /* ty=Tensor[(1, 1, 120), float16] span=from_string:115:5 */
  } /* ty=fn (Tensor[(10, 12), float16]) -> Tensor[(1, 1, 120), float16] span=from_string:117:106 */;
  let %x_30: Tensor[(1, 1, 120), float16] /* ty=Tensor[(1, 1, 120), float16] span=from_string:150:171 */ = %27(%x_29) /* ty=Tensor[(1, 1, 120), float16] span=from_string:117:106 */;
  %28 = fn (%p028: Tensor[(24, 10), float32] /* ty=Tensor[(24, 10), float32] span=from_string:119:10 */, Primitive=1) -> Tensor[(24, 10), float16] {
    cast(%p028, dtype="float16") /* ty=Tensor[(24, 10), float16] span=from_string:119:5 */
  } /* ty=fn (Tensor[(24, 10), float32]) -> Tensor[(24, 10), float16] span=from_string:121:100 */;
  let %x_31: Tensor[(24, 10), float16] /* ty=Tensor[(24, 10), float16] span=from_string:125:111 */ = %28(%x8) /* ty=Tensor[(24, 10), float16] span=from_string:121:100 */;
  %29 = fn (%p029: Tensor[(10, 10), float16] /* ty=Tensor[(10, 10), float16] span=from_string:123:14 */, %p111: Tensor[(24, 10), float16] /* ty=Tensor[(24, 10), float16] span=from_string:123:21 */, Primitive=1) -> Tensor[(10, 24), float16] {
    nn.dense(%p029, %p111, units=None, out_dtype="float16") /* ty=Tensor[(10, 24), float16] span=from_string:123:5 */
  } /* ty=fn (Tensor[(10, 10), float16], Tensor[(24, 10), float16]) -> Tensor[(10, 24), float16] span=from_string:125:100 */;
  let %x_32: Tensor[(10, 24), float16] /* ty=Tensor[(10, 24), float16] span=from_string:137:104 */ = %29(%x_22, %x_31) /* ty=Tensor[(10, 24), float16] span=from_string:125:100 */;
  %30 = fn (%p030: Tensor[(24), float32] /* ty=Tensor[(24), float32] span=from_string:127:10 */, Primitive=1) -> Tensor[(24), float16] {
    cast(%p030, dtype="float16") /* ty=Tensor[(24), float16] span=from_string:127:5 */
  } /* ty=fn (Tensor[(24), float32]) -> Tensor[(24), float16] span=from_string:129:92 */;
  let %x_33: Tensor[(24), float16] /* ty=Tensor[(24), float16] span=from_string:133:102 */ = %30(%x9) /* ty=Tensor[(24), float16] span=from_string:129:92 */;
  %31 = fn (%p031: Tensor[(24), float16] /* ty=Tensor[(24), float16] span=from_string:131:17 */, Primitive=1, relay.reshape_only=1) -> Tensor[(1, 24), float16] {
    expand_dims(%p031, axis=0) /* ty=Tensor[(1, 24), float16] span=from_string:131:5 */
  } /* ty=fn (Tensor[(24), float16]) -> Tensor[(1, 24), float16] span=from_string:133:98 */;
  let %x_34: Tensor[(1, 24), float16] /* ty=Tensor[(1, 24), float16] span=from_string:137:111 */ = %31(%x_33) /* ty=Tensor[(1, 24), float16] span=from_string:133:98 */;
  %32 = fn (%p032: Tensor[(10, 24), float16] /* ty=Tensor[(10, 24), float16] span=from_string:135:9 */, %p112: Tensor[(1, 24), float16] /* ty=Tensor[(1, 24), float16] span=from_string:135:16 */, Primitive=1) -> Tensor[(10, 24), float16] {
    add(%p032, %p112) /* ty=Tensor[(10, 24), float16] span=from_string:135:5 */
  } /* ty=fn (Tensor[(10, 24), float16], Tensor[(1, 24), float16]) -> Tensor[(10, 24), float16] span=from_string:137:100 */;
  let %x_35: Tensor[(10, 24), float16] /* ty=Tensor[(10, 24), float16] span=from_string:145:104 */ = %32(%x_32, %x_34) /* ty=Tensor[(10, 24), float16] span=from_string:137:100 */;
  %33 = fn (%p033: Tensor[(1), float32] /* ty=Tensor[(1), float32] span=from_string:139:10 */, Primitive=1) -> Tensor[(1), float16] {
    cast(%p033, dtype="float16") /* ty=Tensor[(1), float16] span=from_string:139:5 */
  } /* ty=fn (Tensor[(1), float32]) -> Tensor[(1), float16] span=from_string:141:90 */;
  let %x_36: Tensor[(1), float16] /* ty=Tensor[(1), float16] span=from_string:196:94 */ = %33(%x10) /* ty=Tensor[(1), float16] span=from_string:141:90 */;
  %34 = fn (%p034: Tensor[(10, 24), float16] /* ty=Tensor[(10, 24), float16] span=from_string:143:15 */, %p113: Tensor[(1), float16] /* ty=Tensor[(1), float16] span=from_string:143:22 */, Primitive=1) -> Tensor[(10, 24), float16] {
    multiply(%p034, %p113) /* ty=Tensor[(10, 24), float16] span=from_string:143:6 */
  } /* ty=fn (Tensor[(10, 24), float16], Tensor[(1), float16]) -> Tensor[(10, 24), float16] span=from_string:145:100 */;
  let %x_37: Tensor[(10, 24), float16] /* ty=Tensor[(10, 24), float16] span=from_string:182:111 */ = %34(%x_35, %x_36) /* ty=Tensor[(10, 24), float16] span=from_string:145:100 */;
  %35 = fn (%p035: Tensor[(10, 24), float16] /* ty=Tensor[(10, 24), float16] span=from_string:147:13 */, Primitive=1, relay.reshape_only=1) -> Tensor[(1, 1, 240), float16] {
    reshape(%p035, newshape=[1, 1, 240]) /* ty=Tensor[(1, 1, 240), float16] span=from_string:147:5 */
  } /* ty=fn (Tensor[(10, 24), float16]) -> Tensor[(1, 1, 240), float16] span=from_string:149:106 */;
  let %x_38: Tensor[(1, 1, 240), float16] /* ty=Tensor[(1, 1, 240), float16] span=from_string:150:178 */ = %35(%x_37) /* ty=Tensor[(1, 1, 240), float16] span=from_string:149:106 */;
  let %x_39: (Tensor[(1, 1, 120), float16], Tensor[(1, 1, 240), float16]) /* ty=(Tensor[(1, 1, 120), float16], Tensor[(1, 1, 240), float16]) span=from_string:295:687 */ = (%x_30, %x_38) /* ty=(Tensor[(1, 1, 120), float16], Tensor[(1, 1, 240), float16]) span=from_string:150:170 */;
  %36 = fn (%p036: Tensor[(10, 24), float16] /* ty=Tensor[(10, 24), float16] span=from_string:152:22 */, Primitive=1) -> Tensor[(10, 24), float16] {
    multiply(%p036, %p036) /* ty=Tensor[(10, 24), float16] span=from_string:152:6 */
  } /* ty=fn (Tensor[(10, 24), float16]) -> Tensor[(10, 24), float16] span=from_string:154:100 */;
  let %x_40: Tensor[(10, 24), float16] /* ty=Tensor[(10, 24), float16] span=from_string:188:165 */ = %36(%x_37) /* ty=Tensor[(10, 24), float16] span=from_string:154:100 */;
  %37 = fn (%p037: Tensor[(10, 24), float16] /* ty=Tensor[(10, 24), float16] span=from_string:156:16 */, Primitive=1) -> Tensor[(10, 24), float16] {
    zeros_like(%p037) /* ty=Tensor[(10, 24), float16] span=from_string:156:5 */
  } /* ty=fn (Tensor[(10, 24), float16]) -> Tensor[(10, 24), float16] span=from_string:158:100 */;
  let %x_41: Tensor[(10, 24), float16] /* ty=Tensor[(10, 24), float16] span=from_string:174:104 */ = %37(%x_37) /* ty=Tensor[(10, 24), float16] span=from_string:158:100 */;
  %38 = fn (%p038: Tensor[(10, 24), float16] /* ty=Tensor[(10, 24), float16] span=from_string:160:15 */, Primitive=1) -> Tensor[(10, 24), float16] {
    ones_like(%p038) /* ty=Tensor[(10, 24), float16] span=from_string:160:5 */
  } /* ty=fn (Tensor[(10, 24), float16]) -> Tensor[(10, 24), float16] span=from_string:162:100 */;
  let %x_42: Tensor[(10, 24), float16] /* ty=Tensor[(10, 24), float16] span=from_string:178:104 */ = %38(%x_40) /* ty=Tensor[(10, 24), float16] span=from_string:162:100 */;
  %39 = fn (%p039: Tensor[(10, 24), float16] /* ty=Tensor[(10, 24), float16] span=from_string:164:15 */, %p114: Tensor[(10, 24), float16] /* ty=Tensor[(10, 24), float16] span=from_string:164:22 */, Primitive=1) -> Tensor[(10, 24), float16] {
    multiply(%p039, %p114) /* ty=Tensor[(10, 24), float16] span=from_string:164:6 */
  } /* ty=fn (Tensor[(10, 24), float16], Tensor[(10, 24), float16]) -> Tensor[(10, 24), float16] span=from_string:166:100 */;
  let %x_43: Tensor[(10, 24), float16] /* ty=Tensor[(10, 24), float16] span=from_string:237:111 */ = %39(%x_42, %x_37) /* ty=Tensor[(10, 24), float16] span=from_string:166:100 */;
  %40 = fn (%p040: Tensor[(10, 24), float16] /* ty=Tensor[(10, 24), float16] span=from_string:168:23 */, %p115: Tensor[(10, 24), float16] /* ty=Tensor[(10, 24), float16] span=from_string:168:30 */, Primitive=1) -> Tensor[(10, 24), float16] {
    collapse_sum_like(%p040, %p115) /* ty=Tensor[(10, 24), float16] span=from_string:168:5 */
  } /* ty=fn (Tensor[(10, 24), float16], Tensor[(10, 24), float16]) -> Tensor[(10, 24), float16] span=from_string:170:100 */;
  let %x_44: Tensor[(10, 24), float16] /* ty=Tensor[(10, 24), float16] span=from_string:174:111 */ = %40(%x_43, %x_37) /* ty=Tensor[(10, 24), float16] span=from_string:170:100 */;
  %41 = fn (%p041: Tensor[(10, 24), float16] /* ty=Tensor[(10, 24), float16] span=from_string:172:9 */, %p116: Tensor[(10, 24), float16] /* ty=Tensor[(10, 24), float16] span=from_string:172:16 */, Primitive=1) -> Tensor[(10, 24), float16] {
    add(%p041, %p116) /* ty=Tensor[(10, 24), float16] span=from_string:172:5 */
  } /* ty=fn (Tensor[(10, 24), float16], Tensor[(10, 24), float16]) -> Tensor[(10, 24), float16] span=from_string:174:100 */;
  let %x_45: Tensor[(10, 24), float16] /* ty=Tensor[(10, 24), float16] span=from_string:186:104 */ = %41(%x_41, %x_44) /* ty=Tensor[(10, 24), float16] span=from_string:174:100 */;
  %42 = fn (%p042: Tensor[(10, 24), float16] /* ty=Tensor[(10, 24), float16] span=from_string:176:15 */, %p117: Tensor[(10, 24), float16] /* ty=Tensor[(10, 24), float16] span=from_string:176:22 */, Primitive=1) -> Tensor[(10, 24), float16] {
    multiply(%p042, %p117) /* ty=Tensor[(10, 24), float16] span=from_string:176:6 */
  } /* ty=fn (Tensor[(10, 24), float16], Tensor[(10, 24), float16]) -> Tensor[(10, 24), float16] span=from_string:178:100 */;
  let %x_46: Tensor[(10, 24), float16] /* ty=Tensor[(10, 24), float16] span=from_string:182:104 */ = %42(%x_42, %x_37) /* ty=Tensor[(10, 24), float16] span=from_string:178:100 */;
  %43 = fn (%p043: Tensor[(10, 24), float16] /* ty=Tensor[(10, 24), float16] span=from_string:180:23 */, %p118: Tensor[(10, 24), float16] /* ty=Tensor[(10, 24), float16] span=from_string:180:30 */, Primitive=1) -> Tensor[(10, 24), float16] {
    collapse_sum_like(%p043, %p118) /* ty=Tensor[(10, 24), float16] span=from_string:180:5 */
  } /* ty=fn (Tensor[(10, 24), float16], Tensor[(10, 24), float16]) -> Tensor[(10, 24), float16] span=from_string:182:100 */;
  let %x_47: Tensor[(10, 24), float16] /* ty=Tensor[(10, 24), float16] span=from_string:186:111 */ = %43(%x_46, %x_37) /* ty=Tensor[(10, 24), float16] span=from_string:182:100 */;
  %44 = fn (%p044: Tensor[(10, 24), float16] /* ty=Tensor[(10, 24), float16] span=from_string:184:9 */, %p119: Tensor[(10, 24), float16] /* ty=Tensor[(10, 24), float16] span=from_string:184:16 */, Primitive=1) -> Tensor[(10, 24), float16] {
    add(%p044, %p119) /* ty=Tensor[(10, 24), float16] span=from_string:184:5 */
  } /* ty=fn (Tensor[(10, 24), float16], Tensor[(10, 24), float16]) -> Tensor[(10, 24), float16] span=from_string:186:100 */;
  let %x_48: Tensor[(10, 24), float16] /* ty=Tensor[(10, 24), float16] span=from_string:187:107 */ = %44(%x_45, %x_47) /* ty=Tensor[(10, 24), float16] span=from_string:186:100 */;
  let %x_49: (Tensor[(10, 24), float16],) /* ty=(Tensor[(10, 24), float16],) span=from_string:188:172 */ = (%x_48,) /* ty=(Tensor[(10, 24), float16],) span=from_string:187:106 */;
  let %x_50: (Tensor[(10, 24), float16], (Tensor[(10, 24), float16],)) /* ty=(Tensor[(10, 24), float16], (Tensor[(10, 24), float16],)) span=from_string:295:694 */ = (%x_40, %x_49) /* ty=(Tensor[(10, 24), float16], (Tensor[(10, 24), float16],)) span=from_string:188:164 */;
  %45 = fn (Primitive=1) -> Tensor[(1), float16] {
    ones(shape=[1], dtype="float16") /* ty=Tensor[(1), float16] span=from_string:190:5 */
  } /* ty=fn () -> Tensor[(1), float16] span=from_string:192:90 */;
  let %x_51: Tensor[(1), float16] /* ty=Tensor[(1), float16] span=from_string:196:101 */ = %45() /* ty=Tensor[(1), float16] span=from_string:192:90 */;
  %46 = fn (%p045: Tensor[(1), float16] /* ty=Tensor[(1), float16] span=from_string:194:9 */, %p120: Tensor[(1), float16] /* ty=Tensor[(1), float16] span=from_string:194:16 */, Primitive=1) -> Tensor[(1), float16] {
    add(%p045, %p120) /* ty=Tensor[(1), float16] span=from_string:194:5 */
  } /* ty=fn (Tensor[(1), float16], Tensor[(1), float16]) -> Tensor[(1), float16] span=from_string:196:90 */;
  let %x_52: Tensor[(1), float16] /* ty=Tensor[(1), float16] span=from_string:295:701 */ = %46(%x_36, %x_51) /* ty=Tensor[(1), float16] span=from_string:196:90 */;
  %47 = fn (%p046: Tensor[(14, 30), float32] /* ty=Tensor[(14, 30), float32] span=from_string:198:10 */, Primitive=1) -> Tensor[(14, 30), float16] {
    cast(%p046, dtype="float16") /* ty=Tensor[(14, 30), float16] span=from_string:198:5 */
  } /* ty=fn (Tensor[(14, 30), float32]) -> Tensor[(14, 30), float16] span=from_string:200:100 */;
  let %x_53: Tensor[(14, 30), float16] /* ty=Tensor[(14, 30), float16] span=from_string:204:216 */ = %47(%x11) /* ty=Tensor[(14, 30), float16] span=from_string:200:100 */;
  %48 = fn (%p047: Tensor[(14, 30), float16] /* ty=Tensor[(14, 30), float16] span=from_string:202:11 */, Primitive=1) -> (Tensor[(14, 10), float16], Tensor[(14, 10), float16], Tensor[(14, 10), float16]) {
    split(%p047, indices_or_sections=3, axis=1) /* ty=(Tensor[(14, 10), float16], Tensor[(14, 10), float16], Tensor[(14, 10), float16]) span=from_string:202:5 */
  } /* ty=fn (Tensor[(14, 30), float16]) -> (Tensor[(14, 10), float16], Tensor[(14, 10), float16], Tensor[(14, 10), float16]) span=from_string:204:212 */;
  let %x_54: (Tensor[(14, 10), float16], Tensor[(14, 10), float16], Tensor[(14, 10), float16]) /* ty=(Tensor[(14, 10), float16], Tensor[(14, 10), float16], Tensor[(14, 10), float16]) span=from_string:205:100 */ = %48(%x_53) /* ty=(Tensor[(14, 10), float16], Tensor[(14, 10), float16], Tensor[(14, 10), float16]) span=from_string:204:212 */;
  let %x_55: Tensor[(14, 10), float16] /* ty=Tensor[(14, 10), float16] span=from_string:217:104 */ = %x_54.0 /* ty=Tensor[(14, 10), float16] span=from_string:205:100 */;
  %49 = fn (%p048: Tensor[(65, 10), float16] /* ty=Tensor[(65, 10), float16] span=from_string:207:15 */, Primitive=1) -> Tensor[(65, 10), float16] {
    ones_like(%p048) /* ty=Tensor[(65, 10), float16] span=from_string:207:5 */
  } /* ty=fn (Tensor[(65, 10), float16]) -> Tensor[(65, 10), float16] span=from_string:209:100 */;
  let %x_56: Tensor[(65, 10), float16] /* ty=Tensor[(65, 10), float16] span=from_string:213:110 */ = %49(%x_9) /* ty=Tensor[(65, 10), float16] span=from_string:209:100 */;
  %50 = fn (%p049: Tensor[(65, 10), float16] /* ty=Tensor[(65, 10), float16] span=from_string:211:9 */, %p121: Tensor[(65, 10), float16] /* ty=Tensor[(65, 10), float16] span=from_string:211:16 */, Primitive=1) -> Tensor[(65, 10), float16] {
    add(%p049, %p121) /* ty=Tensor[(65, 10), float16] span=from_string:211:5 */
  } /* ty=fn (Tensor[(65, 10), float16], Tensor[(65, 10), float16]) -> Tensor[(65, 10), float16] span=from_string:213:100 */;
  let %x_57: Tensor[(65, 10), float16] /* ty=Tensor[(65, 10), float16] span=from_string:221:106 */ = %50(%x_9, %x_56) /* ty=Tensor[(65, 10), float16] span=from_string:213:100 */;
  %51 = fn (%p050: Tensor[(14, 10), float16] /* ty=Tensor[(14, 10), float16] span=from_string:215:14 */, %p122: Tensor[(65, 10), float16] /* ty=Tensor[(65, 10), float16] span=from_string:215:21 */, Primitive=1) -> Tensor[(14, 65), float16] {
    nn.dense(%p050, %p122, units=None, out_dtype="float16") /* ty=Tensor[(14, 65), float16] span=from_string:215:5 */
  } /* ty=fn (Tensor[(14, 10), float16], Tensor[(65, 10), float16]) -> Tensor[(14, 65), float16] span=from_string:217:100 */;
  let %x_58: Tensor[(14, 65), float16] /* ty=Tensor[(14, 65), float16] span=from_string:295:708 */ = %51(%x_55, %x_57) /* ty=Tensor[(14, 65), float16] span=from_string:217:100 */;
  %52 = fn (%p051: Tensor[(65, 10), float16] /* ty=Tensor[(65, 10), float16] span=from_string:219:10 */, Primitive=1) -> Tensor[(65, 10), bfloat16] {
    cast(%p051, dtype="bfloat16") /* ty=Tensor[(65, 10), bfloat16] span=from_string:219:5 */
  } /* ty=fn (Tensor[(65, 10), float16]) -> Tensor[(65, 10), bfloat16] span=from_string:221:102 */;
  let %x_59: Tensor[(65, 10), bfloat16] /* ty=Tensor[(65, 10), bfloat16] span=from_string:225:104 */ = %52(%x_57) /* ty=Tensor[(65, 10), bfloat16] span=from_string:221:102 */;
  %53 = fn (%p052: Tensor[(65, 10), bfloat16] /* ty=Tensor[(65, 10), bfloat16] span=from_string:223:10 */, Primitive=1) -> Tensor[(65, 10), float32] {
    cast(%p052, dtype="float32") /* ty=Tensor[(65, 10), float32] span=from_string:223:5 */
  } /* ty=fn (Tensor[(65, 10), bfloat16]) -> Tensor[(65, 10), float32] span=from_string:225:100 */;
  let %x_60: Tensor[(65, 10), float32] /* ty=Tensor[(65, 10), float32] span=from_string:229:104 */ = %53(%x_59) /* ty=Tensor[(65, 10), float32] span=from_string:225:100 */;
  %54 = fn (%p053: Tensor[(65, 10), float32] /* ty=Tensor[(65, 10), float32] span=from_string:227:10 */, Primitive=1) -> Tensor[(65, 10), float32] {
    clip(%p053, a_min=-0.2f, a_max=0.4f) /* ty=Tensor[(65, 10), float32] span=from_string:227:5 */
  } /* ty=fn (Tensor[(65, 10), float32]) -> Tensor[(65, 10), float32] span=from_string:229:100 */;
  let %x_61: Tensor[(65, 10), float32] /* ty=Tensor[(65, 10), float32] span=from_string:295:715 */ = %54(%x_60) /* ty=Tensor[(65, 10), float32] span=from_string:229:100 */;
  %55 = fn (%p054: Tensor[(42, 24), float32] /* ty=Tensor[(42, 24), float32] span=from_string:231:10 */, Primitive=1) -> Tensor[(42, 24), float16] {
    cast(%p054, dtype="float16") /* ty=Tensor[(42, 24), float16] span=from_string:231:5 */
  } /* ty=fn (Tensor[(42, 24), float32]) -> Tensor[(42, 24), float16] span=from_string:233:100 */;
  let %x_62: Tensor[(42, 24), float16] /* ty=Tensor[(42, 24), float16] span=from_string:269:104 */ = %55(%x12) /* ty=Tensor[(42, 24), float16] span=from_string:233:100 */;
  %56 = fn (%p055: Tensor[(42, 24), float16] /* ty=Tensor[(42, 24), float16] span=from_string:235:14 */, %p123: Tensor[(10, 24), float16] /* ty=Tensor[(10, 24), float16] span=from_string:235:21 */, Primitive=1) -> Tensor[(42, 10), float16] {
    nn.dense(%p055, %p123, units=None, out_dtype="float16") /* ty=Tensor[(42, 10), float16] span=from_string:235:5 */
  } /* ty=fn (Tensor[(42, 24), float16], Tensor[(10, 24), float16]) -> Tensor[(42, 10), float16] span=from_string:237:100 */;
  let %x_63: Tensor[(42, 10), float16] /* ty=Tensor[(42, 10), float16] span=from_string:249:104 */ = %56(%x_62, %x_43) /* ty=Tensor[(42, 10), float16] span=from_string:237:100 */;
  %57 = fn (%p056: Tensor[(10), float32] /* ty=Tensor[(10), float32] span=from_string:239:10 */, Primitive=1) -> Tensor[(10), float16] {
    cast(%p056, dtype="float16") /* ty=Tensor[(10), float16] span=from_string:239:5 */
  } /* ty=fn (Tensor[(10), float32]) -> Tensor[(10), float16] span=from_string:241:92 */;
  let %x_64: Tensor[(10), float16] /* ty=Tensor[(10), float16] span=from_string:245:102 */ = %57(%x14) /* ty=Tensor[(10), float16] span=from_string:241:92 */;
  %58 = fn (%p057: Tensor[(10), float16] /* ty=Tensor[(10), float16] span=from_string:243:17 */, Primitive=1, relay.reshape_only=1) -> Tensor[(1, 10), float16] {
    expand_dims(%p057, axis=0) /* ty=Tensor[(1, 10), float16] span=from_string:243:5 */
  } /* ty=fn (Tensor[(10), float16]) -> Tensor[(1, 10), float16] span=from_string:245:98 */;
  let %x_65: Tensor[(1, 10), float16] /* ty=Tensor[(1, 10), float16] span=from_string:249:111 */ = %58(%x_64) /* ty=Tensor[(1, 10), float16] span=from_string:245:98 */;
  %59 = fn (%p058: Tensor[(42, 10), float16] /* ty=Tensor[(42, 10), float16] span=from_string:247:9 */, %p124: Tensor[(1, 10), float16] /* ty=Tensor[(1, 10), float16] span=from_string:247:16 */, Primitive=1) -> Tensor[(42, 10), float16] {
    add(%p058, %p124) /* ty=Tensor[(42, 10), float16] span=from_string:247:5 */
  } /* ty=fn (Tensor[(42, 10), float16], Tensor[(1, 10), float16]) -> Tensor[(42, 10), float16] span=from_string:249:100 */;
  let %x_66: Tensor[(42, 10), float16] /* ty=Tensor[(42, 10), float16] span=from_string:257:104 */ = %59(%x_63, %x_65) /* ty=Tensor[(42, 10), float16] span=from_string:249:100 */;
  %60 = fn (%p059: Tensor[(1), float32] /* ty=Tensor[(1), float32] span=from_string:251:10 */, Primitive=1) -> Tensor[(1), float16] {
    cast(%p059, dtype="float16") /* ty=Tensor[(1), float16] span=from_string:251:5 */
  } /* ty=fn (Tensor[(1), float32]) -> Tensor[(1), float16] span=from_string:253:90 */;
  let %x_67: Tensor[(1), float16] /* ty=Tensor[(1), float16] span=from_string:257:111 */ = %60(%x16) /* ty=Tensor[(1), float16] span=from_string:253:90 */;
  %61 = fn (%p060: Tensor[(42, 10), float16] /* ty=Tensor[(42, 10), float16] span=from_string:255:15 */, %p125: Tensor[(1), float16] /* ty=Tensor[(1), float16] span=from_string:255:22 */, Primitive=1) -> Tensor[(42, 10), float16] {
    multiply(%p060, %p125) /* ty=Tensor[(42, 10), float16] span=from_string:255:6 */
  } /* ty=fn (Tensor[(42, 10), float16], Tensor[(1), float16]) -> Tensor[(42, 10), float16] span=from_string:257:100 */;
  let %x_68: Tensor[(42, 10), float16] /* ty=Tensor[(42, 10), float16] span=from_string:261:110 */ = %61(%x_66, %x_67) /* ty=Tensor[(42, 10), float16] span=from_string:257:100 */;
  %62 = fn (%p061: Tensor[(42, 10), float16] /* ty=Tensor[(42, 10), float16] span=from_string:259:13 */, Primitive=1, relay.reshape_only=1) -> Tensor[(1, 1, 420), float16] {
    reshape(%p061, newshape=[1, 1, -1]) /* ty=Tensor[(1, 1, 420), float16] span=from_string:259:5 */
  } /* ty=fn (Tensor[(42, 10), float16]) -> Tensor[(1, 1, 420), float16] span=from_string:261:106 */;
  let %x_69: Tensor[(1, 1, 420), float16] /* ty=Tensor[(1, 1, 420), float16] span=from_string:294:171 */ = %62(%x_68) /* ty=Tensor[(1, 1, 420), float16] span=from_string:261:106 */;
  %63 = fn (%p062: Tensor[(10, 24), float32] /* ty=Tensor[(10, 24), float32] span=from_string:263:10 */, Primitive=1) -> Tensor[(10, 24), float16] {
    cast(%p062, dtype="float16") /* ty=Tensor[(10, 24), float16] span=from_string:263:5 */
  } /* ty=fn (Tensor[(10, 24), float32]) -> Tensor[(10, 24), float16] span=from_string:265:100 */;
  let %x_70: Tensor[(10, 24), float16] /* ty=Tensor[(10, 24), float16] span=from_string:269:111 */ = %63(%x13) /* ty=Tensor[(10, 24), float16] span=from_string:265:100 */;
  %64 = fn (%p063: Tensor[(42, 24), float16] /* ty=Tensor[(42, 24), float16] span=from_string:267:14 */, %p126: Tensor[(10, 24), float16] /* ty=Tensor[(10, 24), float16] span=from_string:267:21 */, Primitive=1) -> Tensor[(42, 10), float16] {
    nn.dense(%p063, %p126, units=None, out_dtype="float16") /* ty=Tensor[(42, 10), float16] span=from_string:267:5 */
  } /* ty=fn (Tensor[(42, 24), float16], Tensor[(10, 24), float16]) -> Tensor[(42, 10), float16] span=from_string:269:100 */;
  let %x_71: Tensor[(42, 10), float16] /* ty=Tensor[(42, 10), float16] span=from_string:281:104 */ = %64(%x_62, %x_70) /* ty=Tensor[(42, 10), float16] span=from_string:269:100 */;
  %65 = fn (%p064: Tensor[(10), float32] /* ty=Tensor[(10), float32] span=from_string:271:10 */, Primitive=1) -> Tensor[(10), float16] {
    cast(%p064, dtype="float16") /* ty=Tensor[(10), float16] span=from_string:271:5 */
  } /* ty=fn (Tensor[(10), float32]) -> Tensor[(10), float16] span=from_string:273:92 */;
  let %x_72: Tensor[(10), float16] /* ty=Tensor[(10), float16] span=from_string:277:102 */ = %65(%x15) /* ty=Tensor[(10), float16] span=from_string:273:92 */;
  %66 = fn (%p065: Tensor[(10), float16] /* ty=Tensor[(10), float16] span=from_string:275:17 */, Primitive=1, relay.reshape_only=1) -> Tensor[(1, 10), float16] {
    expand_dims(%p065, axis=0) /* ty=Tensor[(1, 10), float16] span=from_string:275:5 */
  } /* ty=fn (Tensor[(10), float16]) -> Tensor[(1, 10), float16] span=from_string:277:98 */;
  let %x_73: Tensor[(1, 10), float16] /* ty=Tensor[(1, 10), float16] span=from_string:281:111 */ = %66(%x_72) /* ty=Tensor[(1, 10), float16] span=from_string:277:98 */;
  %67 = fn (%p066: Tensor[(42, 10), float16] /* ty=Tensor[(42, 10), float16] span=from_string:279:9 */, %p127: Tensor[(1, 10), float16] /* ty=Tensor[(1, 10), float16] span=from_string:279:16 */, Primitive=1) -> Tensor[(42, 10), float16] {
    add(%p066, %p127) /* ty=Tensor[(42, 10), float16] span=from_string:279:5 */
  } /* ty=fn (Tensor[(42, 10), float16], Tensor[(1, 10), float16]) -> Tensor[(42, 10), float16] span=from_string:281:100 */;
  let %x_74: Tensor[(42, 10), float16] /* ty=Tensor[(42, 10), float16] span=from_string:289:104 */ = %67(%x_71, %x_73) /* ty=Tensor[(42, 10), float16] span=from_string:281:100 */;
  %68 = fn (%p067: Tensor[(1), float32] /* ty=Tensor[(1), float32] span=from_string:283:10 */, Primitive=1) -> Tensor[(1), float16] {
    cast(%p067, dtype="float16") /* ty=Tensor[(1), float16] span=from_string:283:5 */
  } /* ty=fn (Tensor[(1), float32]) -> Tensor[(1), float16] span=from_string:285:90 */;
  let %x_75: Tensor[(1), float16] /* ty=Tensor[(1), float16] span=from_string:289:111 */ = %68(%x17) /* ty=Tensor[(1), float16] span=from_string:285:90 */;
  %69 = fn (%p068: Tensor[(42, 10), float16] /* ty=Tensor[(42, 10), float16] span=from_string:287:15 */, %p128: Tensor[(1), float16] /* ty=Tensor[(1), float16] span=from_string:287:22 */, Primitive=1) -> Tensor[(42, 10), float16] {
    multiply(%p068, %p128) /* ty=Tensor[(42, 10), float16] span=from_string:287:6 */
  } /* ty=fn (Tensor[(42, 10), float16], Tensor[(1), float16]) -> Tensor[(42, 10), float16] span=from_string:289:100 */;
  let %x_76: Tensor[(42, 10), float16] /* ty=Tensor[(42, 10), float16] span=from_string:293:110 */ = %69(%x_74, %x_75) /* ty=Tensor[(42, 10), float16] span=from_string:289:100 */;
  %70 = fn (%p069: Tensor[(42, 10), float16] /* ty=Tensor[(42, 10), float16] span=from_string:291:13 */, Primitive=1, relay.reshape_only=1) -> Tensor[(1, 1, 420), float16] {
    reshape(%p069, newshape=[1, 1, -1]) /* ty=Tensor[(1, 1, 420), float16] span=from_string:291:5 */
  } /* ty=fn (Tensor[(42, 10), float16]) -> Tensor[(1, 1, 420), float16] span=from_string:293:106 */;
  let %x_77: Tensor[(1, 1, 420), float16] /* ty=Tensor[(1, 1, 420), float16] span=from_string:294:178 */ = %70(%x_76) /* ty=Tensor[(1, 1, 420), float16] span=from_string:293:106 */;
  let %x_78: (Tensor[(1, 1, 420), float16], Tensor[(1, 1, 420), float16]) /* ty=(Tensor[(1, 1, 420), float16], Tensor[(1, 1, 420), float16]) span=from_string:295:722 */ = (%x_69, %x_77) /* ty=(Tensor[(1, 1, 420), float16], Tensor[(1, 1, 420), float16]) span=from_string:294:170 */;
  let %x_79: ((Tensor[(65, 10), float16], Tensor[(65, 10), float16]), (Tensor[(1, 1, 120), float16], Tensor[(1, 1, 240), float16]), (Tensor[(10, 24), float16], (Tensor[(10, 24), float16],)), Tensor[(1), float16], Tensor[(14, 65), float16], Tensor[(65, 10), float32], (Tensor[(1, 1, 420), float16], Tensor[(1, 1, 420), float16])) /* ty=((Tensor[(65, 10), float16], Tensor[(65, 10), float16]), (Tensor[(1, 1, 120), float16], Tensor[(1, 1, 240), float16]), (Tensor[(10, 24), float16], (Tensor[(10, 24), float16],)), Tensor[(1), float16], Tensor[(14, 65), float16], Tensor[(65, 10), float32], (Tensor[(1, 1, 420), float16], Tensor[(1, 1, 420), float16])) span=from_string:296:3 */ = (%x_13, %x_39, %x_50, %x_52, %x_58, %x_61, %x_78) /* ty=((Tensor[(65, 10), float16], Tensor[(65, 10), float16]), (Tensor[(1, 1, 120), float16], Tensor[(1, 1, 240), float16]), (Tensor[(10, 24), float16], (Tensor[(10, 24), float16],)), Tensor[(1), float16], Tensor[(14, 65), float16], Tensor[(65, 10), float32], (Tensor[(1, 1, 420), float16], Tensor[(1, 1, 420), float16])) span=from_string:295:679 */;
  %x_79
}
