#[version = "0.0.5"]
def @main(%x0: Tensor[(10, 10), float32] /* ty=Tensor[(10, 10), float32] span=from_string:10:105 */, %x1: Tensor[(65, 10), float32] /* ty=Tensor[(65, 10), float32] span=from_string:22:107 */, %x2: Tensor[(10, 10), float32] /* ty=Tensor[(10, 10), float32] span=from_string:22:112 */, %x3: Tensor[(10), float32] /* ty=Tensor[(10), float32] span=from_string:18:113 */, %x4: Tensor[(10), float32] /* ty=Tensor[(10), float32] span=from_string:26:113 */, %x5: Tensor[(12, 10), float32] /* ty=Tensor[(12, 10), float32] span=from_string:50:115 */, %x6: Tensor[(12), float32] /* ty=Tensor[(12), float32] span=from_string:54:115 */, %x7: Tensor[(1), float32] /* ty=Tensor[(1), float32] span=from_string:58:115 */, %x8: Tensor[(24, 10), float32] /* ty=Tensor[(24, 10), float32] span=from_string:66:115 */, %x9: Tensor[(24), float32] /* ty=Tensor[(24), float32] span=from_string:70:115 */, %x10: Tensor[(1), float32] /* ty=Tensor[(1), float32] span=from_string:122:99 */, %x11: Tensor[(14, 30), float32] /* ty=Tensor[(14, 30), float32] span=from_string:126:221 */, %x12: Tensor[(42, 24), float32] /* ty=Tensor[(42, 24), float32] span=from_string:167:109 */, %x13: Tensor[(10, 24), float32] /* ty=Tensor[(10, 24), float32] span=from_string:167:115 */, %x14: Tensor[(10), float32] /* ty=Tensor[(10), float32] span=from_string:155:116 */, %x15: Tensor[(10), float32] /* ty=Tensor[(10), float32] span=from_string:171:116 */, %x16: Tensor[(1), float32] /* ty=Tensor[(1), float32] span=from_string:159:116 */, %x17: Tensor[(1), float32] /* ty=Tensor[(1), float32] span=from_string:175:116 */) -> ((Tensor[(65, 10), float32], Tensor[(65, 10), float32]), (Tensor[(1, 1, 120), float32], Tensor[(1, 1, 240), float32]), (Tensor[(10, 24), float32], (Tensor[(10, 24), float32],)), Tensor[(1), float32], Tensor[(14, 65), float32], Tensor[(65, 10), bfloat16], (Tensor[(1, 1, 420), float32], Tensor[(1, 1, 420), float32])) {
  let %x_0: fn (Tensor[(10, 10), float32]) -> Tensor[(10, 10), float32] /* ty=fn (Tensor[(10, 10), float32]) -> Tensor[(10, 10), float32] span=from_string:6:101 */ = fn (%p0: Tensor[(10, 10), float32] /* ty=Tensor[(10, 10), float32] span=from_string:4:16 */, Primitive=1) -> Tensor[(10, 10), float32] {
    zeros(shape=[10, 10], dtype="float32") /* ty=Tensor[(10, 10), float32] */
  } /* ty=fn (Tensor[(10, 10), float32]) -> Tensor[(10, 10), float32] span=from_string:3:3 */;
  let %x_01: Tensor[(10, 10), float32] /* ty=Tensor[(10, 10), float32] span=from_string:10:110 */ = %x_0(%x0) /* ty=Tensor[(10, 10), float32] span=from_string:6:101 */;
  let %x_1: fn (Tensor[(10, 10), float32], Tensor[(10, 10), float32]) -> Tensor[(10, 10), float32] /* ty=fn (Tensor[(10, 10), float32], Tensor[(10, 10), float32]) -> Tensor[(10, 10), float32] span=from_string:10:100 */ = fn (%p01: Tensor[(10, 10), float32] /* ty=Tensor[(10, 10), float32] span=from_string:8:9 */, %p1: Tensor[(10, 10), float32] /* ty=Tensor[(10, 10), float32] span=from_string:8:15 */, Primitive=1) -> Tensor[(10, 10), float32] {
    add(%p01, %p1) /* ty=Tensor[(10, 10), float32] span=from_string:8:5 */
  } /* ty=fn (Tensor[(10, 10), float32], Tensor[(10, 10), float32]) -> Tensor[(10, 10), float32] span=from_string:7:3 */;
  let %x_11: Tensor[(10, 10), float32] /* ty=Tensor[(10, 10), float32] span=from_string:31:106 */ = %x_1(%x0, %x_01) /* ty=Tensor[(10, 10), float32] span=from_string:10:100 */;
  let %x_2: fn (Tensor[(65, 10), float32], Tensor[(10, 10), float32]) -> Tensor[(65, 10), float32] /* ty=fn (Tensor[(65, 10), float32], Tensor[(10, 10), float32]) -> Tensor[(65, 10), float32] span=from_string:14:101 */ = fn (%p02: Tensor[(65, 10), float32] /* ty=Tensor[(65, 10), float32] span=from_string:12:14 */, %p11: Tensor[(10, 10), float32] /* ty=Tensor[(10, 10), float32] span=from_string:12:20 */, Primitive=1) -> Tensor[(65, 10), float32] {
    nn.dense(%p02, %p11, units=None) /* ty=Tensor[(65, 10), float32] span=from_string:12:5 */
  } /* ty=fn (Tensor[(65, 10), float32], Tensor[(10, 10), float32]) -> Tensor[(65, 10), float32] span=from_string:11:3 */;
  let %x_21: Tensor[(65, 10), float32] /* ty=Tensor[(65, 10), float32] span=from_string:18:106 */ = %x_2(%x1, %x_11) /* ty=Tensor[(65, 10), float32] span=from_string:14:101 */;
  let %x_3: fn (Tensor[(65, 10), float32], Tensor[(10), float32]) -> Tensor[(65, 10), float32] /* ty=fn (Tensor[(65, 10), float32], Tensor[(10), float32]) -> Tensor[(65, 10), float32] span=from_string:18:101 */ = fn (%p03: Tensor[(65, 10), float32] /* ty=Tensor[(65, 10), float32] span=from_string:16:9 */, %p12: Tensor[(10), float32] /* ty=Tensor[(10), float32] span=from_string:16:15 */, Primitive=1) -> Tensor[(65, 10), float32] {
    add(%p03, %p12) /* ty=Tensor[(65, 10), float32] span=from_string:16:5 */
  } /* ty=fn (Tensor[(65, 10), float32], Tensor[(10), float32]) -> Tensor[(65, 10), float32] span=from_string:15:3 */;
  let %x_31: Tensor[(65, 10), float32] /* ty=Tensor[(65, 10), float32] span=from_string:27:160 */ = %x_3(%x_21, %x3) /* ty=Tensor[(65, 10), float32] span=from_string:18:101 */;
  let %x_4: fn (Tensor[(65, 10), float32], Tensor[(10, 10), float32]) -> Tensor[(65, 10), float32] /* ty=fn (Tensor[(65, 10), float32], Tensor[(10, 10), float32]) -> Tensor[(65, 10), float32] span=from_string:22:102 */ = fn (%p04: Tensor[(65, 10), float32] /* ty=Tensor[(65, 10), float32] span=from_string:20:14 */, %p13: Tensor[(10, 10), float32] /* ty=Tensor[(10, 10), float32] span=from_string:20:20 */, Primitive=1) -> Tensor[(65, 10), float32] {
    nn.dense(%p04, %p13, units=None) /* ty=Tensor[(65, 10), float32] span=from_string:20:5 */
  } /* ty=fn (Tensor[(65, 10), float32], Tensor[(10, 10), float32]) -> Tensor[(65, 10), float32] span=from_string:19:3 */;
  let %x_41: Tensor[(65, 10), float32] /* ty=Tensor[(65, 10), float32] span=from_string:135:109 */ = %x_4(%x1, %x2) /* ty=Tensor[(65, 10), float32] span=from_string:22:102 */;
  let %x_5: fn (Tensor[(65, 10), float32], Tensor[(10), float32]) -> Tensor[(65, 10), float32] /* ty=fn (Tensor[(65, 10), float32], Tensor[(10), float32]) -> Tensor[(65, 10), float32] span=from_string:26:101 */ = fn (%p05: Tensor[(65, 10), float32] /* ty=Tensor[(65, 10), float32] span=from_string:24:9 */, %p14: Tensor[(10), float32] /* ty=Tensor[(10), float32] span=from_string:24:15 */, Primitive=1) -> Tensor[(65, 10), float32] {
    add(%p05, %p14) /* ty=Tensor[(65, 10), float32] span=from_string:24:5 */
  } /* ty=fn (Tensor[(65, 10), float32], Tensor[(10), float32]) -> Tensor[(65, 10), float32] span=from_string:23:3 */;
  let %x_51: Tensor[(65, 10), float32] /* ty=Tensor[(65, 10), float32] span=from_string:27:167 */ = %x_5(%x_41, %x4) /* ty=Tensor[(65, 10), float32] span=from_string:26:101 */;
  let %x_6: (Tensor[(65, 10), float32], Tensor[(65, 10), float32]) /* ty=(Tensor[(65, 10), float32], Tensor[(65, 10), float32]) span=from_string:181:683 */ = (%x_31, %x_51) /* ty=(Tensor[(65, 10), float32], Tensor[(65, 10), float32]) span=from_string:27:159 */;
  let %x_61: fn (Tensor[(10, 10), float32]) -> Tensor[(10, 10), float32] /* ty=fn (Tensor[(10, 10), float32]) -> Tensor[(10, 10), float32] span=from_string:31:100 */ = fn (%p06: Tensor[(10, 10), float32] /* ty=Tensor[(10, 10), float32] span=from_string:29:13 */, Primitive=1) -> Tensor[(10, 10), float32] {
    nn.relu(%p06) /* ty=Tensor[(10, 10), float32] span=from_string:29:5 */
  } /* ty=fn (Tensor[(10, 10), float32]) -> Tensor[(10, 10), float32] span=from_string:28:3 */;
  let %x_7: Tensor[(10, 10), float32] /* ty=Tensor[(10, 10), float32] span=from_string:37:106 */ = %x_61(%x_11) /* ty=Tensor[(10, 10), float32] span=from_string:31:100 */;
  let %x_10: Tensor[(10, 10), float32] /* ty=Tensor[(10, 10), float32] span=from_string:42:107 */ = %x_7;
  let %x_8: float32 /* ty=float32 span=from_string:37:112 */ = 1f /* ty=float32 span=from_string:33:66 */;
  let %x_71: fn (Tensor[(10, 10), float32], float32) -> Tensor[(10, 10), float32] /* ty=fn (Tensor[(10, 10), float32], float32) -> Tensor[(10, 10), float32] span=from_string:37:100 */ = fn (%p07: Tensor[(10, 10), float32] /* ty=Tensor[(10, 10), float32] span=from_string:35:9 */, %p15: float32 /* ty=float32 span=from_string:35:15 */, Primitive=1) -> Tensor[(10, 10), float32] {
    add(%p07, %p15) /* ty=Tensor[(10, 10), float32] span=from_string:35:5 */
  } /* ty=fn (Tensor[(10, 10), float32], float32) -> Tensor[(10, 10), float32] span=from_string:34:3 */;
  let %x_9: Tensor[(10, 10), float32] /* ty=Tensor[(10, 10), float32] span=from_string:46:107 */ = %x_71(%x_7, %x_8) /* ty=Tensor[(10, 10), float32] span=from_string:37:100 */;
  let %x_111: float32 /* ty=float32 span=from_string:42:114 */ = 1f /* ty=float32 span=from_string:38:68 */;
  let %x_81: fn (Tensor[(10, 10), float32], float32) -> Tensor[(10, 10), float32] /* ty=fn (Tensor[(10, 10), float32], float32) -> Tensor[(10, 10), float32] span=from_string:42:101 */ = fn (%p08: Tensor[(10, 10), float32] /* ty=Tensor[(10, 10), float32] span=from_string:40:9 */, %p16: float32 /* ty=float32 span=from_string:40:15 */, Primitive=1) -> Tensor[(10, 10), float32] {
    add(%p08, %p16) /* ty=Tensor[(10, 10), float32] span=from_string:40:5 */
  } /* ty=fn (Tensor[(10, 10), float32], float32) -> Tensor[(10, 10), float32] span=from_string:39:3 */;
  let %x_12: Tensor[(10, 10), float32] /* ty=Tensor[(10, 10), float32] span=from_string:46:113 */ = %x_81(%x_10, %x_111) /* ty=Tensor[(10, 10), float32] span=from_string:42:101 */;
  let %x_91: fn (Tensor[(10, 10), float32], Tensor[(10, 10), float32]) -> Tensor[(10, 10), float32] /* ty=fn (Tensor[(10, 10), float32], Tensor[(10, 10), float32]) -> Tensor[(10, 10), float32] span=from_string:46:101 */ = fn (%p09: Tensor[(10, 10), float32] /* ty=Tensor[(10, 10), float32] span=from_string:44:9 */, %p17: Tensor[(10, 10), float32] /* ty=Tensor[(10, 10), float32] span=from_string:44:15 */, Primitive=1) -> Tensor[(10, 10), float32] {
    add(%p09, %p17) /* ty=Tensor[(10, 10), float32] span=from_string:44:5 */
  } /* ty=fn (Tensor[(10, 10), float32], Tensor[(10, 10), float32]) -> Tensor[(10, 10), float32] span=from_string:43:3 */;
  let %x_13: Tensor[(10, 10), float32] /* ty=Tensor[(10, 10), float32] span=from_string:66:108 */ = %x_91(%x_9, %x_12) /* ty=Tensor[(10, 10), float32] span=from_string:46:101 */;
  let %x_101: fn (Tensor[(10, 10), float32], Tensor[(12, 10), float32]) -> Tensor[(10, 12), float32] /* ty=fn (Tensor[(10, 10), float32], Tensor[(12, 10), float32]) -> Tensor[(10, 12), float32] span=from_string:50:101 */ = fn (%p010: Tensor[(10, 10), float32] /* ty=Tensor[(10, 10), float32] span=from_string:48:14 */, %p18: Tensor[(12, 10), float32] /* ty=Tensor[(12, 10), float32] span=from_string:48:21 */, Primitive=1) -> Tensor[(10, 12), float32] {
    nn.dense(%p010, %p18, units=None) /* ty=Tensor[(10, 12), float32] span=from_string:48:5 */
  } /* ty=fn (Tensor[(10, 10), float32], Tensor[(12, 10), float32]) -> Tensor[(10, 12), float32] span=from_string:47:3 */;
  let %x_14: Tensor[(10, 12), float32] /* ty=Tensor[(10, 12), float32] span=from_string:54:108 */ = %x_101(%x_13, %x5) /* ty=Tensor[(10, 12), float32] span=from_string:50:101 */;
  let %x_112: fn (Tensor[(10, 12), float32], Tensor[(12), float32]) -> Tensor[(10, 12), float32] /* ty=fn (Tensor[(10, 12), float32], Tensor[(12), float32]) -> Tensor[(10, 12), float32] span=from_string:54:101 */ = fn (%p011: Tensor[(10, 12), float32] /* ty=Tensor[(10, 12), float32] span=from_string:52:9 */, %p19: Tensor[(12), float32] /* ty=Tensor[(12), float32] span=from_string:52:16 */, Primitive=1) -> Tensor[(10, 12), float32] {
    add(%p011, %p19) /* ty=Tensor[(10, 12), float32] span=from_string:52:5 */
  } /* ty=fn (Tensor[(10, 12), float32], Tensor[(12), float32]) -> Tensor[(10, 12), float32] span=from_string:51:3 */;
  let %x_15: Tensor[(10, 12), float32] /* ty=Tensor[(10, 12), float32] span=from_string:58:108 */ = %x_112(%x_14, %x6) /* ty=Tensor[(10, 12), float32] span=from_string:54:101 */;
  let %x_121: fn (Tensor[(10, 12), float32], Tensor[(1), float32]) -> Tensor[(10, 12), float32] /* ty=fn (Tensor[(10, 12), float32], Tensor[(1), float32]) -> Tensor[(10, 12), float32] span=from_string:58:101 */ = fn (%p012: Tensor[(10, 12), float32] /* ty=Tensor[(10, 12), float32] span=from_string:56:15 */, %p110: Tensor[(1), float32] /* ty=Tensor[(1), float32] span=from_string:56:22 */, Primitive=1) -> Tensor[(10, 12), float32] {
    multiply(%p012, %p110) /* ty=Tensor[(10, 12), float32] span=from_string:56:6 */
  } /* ty=fn (Tensor[(10, 12), float32], Tensor[(1), float32]) -> Tensor[(10, 12), float32] span=from_string:55:3 */;
  let %x_16: Tensor[(10, 12), float32] /* ty=Tensor[(10, 12), float32] span=from_string:62:114 */ = %x_121(%x_15, %x7) /* ty=Tensor[(10, 12), float32] span=from_string:58:101 */;
  let %x_131: fn (Tensor[(10, 12), float32]) -> Tensor[(1, 1, 120), float32] /* ty=fn (Tensor[(10, 12), float32]) -> Tensor[(1, 1, 120), float32] span=from_string:62:107 */ = fn (%p013: Tensor[(10, 12), float32] /* ty=Tensor[(10, 12), float32] span=from_string:60:13 */, Primitive=1, relay.reshape_only=1) -> Tensor[(1, 1, 120), float32] {
    reshape(%p013, newshape=[1, 1, 120]) /* ty=Tensor[(1, 1, 120), float32] span=from_string:60:5 */
  } /* ty=fn (Tensor[(10, 12), float32]) -> Tensor[(1, 1, 120), float32] span=from_string:59:3 */;
  let %x_17: Tensor[(1, 1, 120), float32] /* ty=Tensor[(1, 1, 120), float32] span=from_string:79:173 */ = %x_131(%x_16) /* ty=Tensor[(1, 1, 120), float32] span=from_string:62:107 */;
  let %x_141: fn (Tensor[(10, 10), float32], Tensor[(24, 10), float32]) -> Tensor[(10, 24), float32] /* ty=fn (Tensor[(10, 10), float32], Tensor[(24, 10), float32]) -> Tensor[(10, 24), float32] span=from_string:66:101 */ = fn (%p014: Tensor[(10, 10), float32] /* ty=Tensor[(10, 10), float32] span=from_string:64:14 */, %p111: Tensor[(24, 10), float32] /* ty=Tensor[(24, 10), float32] span=from_string:64:21 */, Primitive=1) -> Tensor[(10, 24), float32] {
    nn.dense(%p014, %p111, units=None) /* ty=Tensor[(10, 24), float32] span=from_string:64:5 */
  } /* ty=fn (Tensor[(10, 10), float32], Tensor[(24, 10), float32]) -> Tensor[(10, 24), float32] span=from_string:63:3 */;
  let %x_18: Tensor[(10, 24), float32] /* ty=Tensor[(10, 24), float32] span=from_string:70:108 */ = %x_141(%x_13, %x8) /* ty=Tensor[(10, 24), float32] span=from_string:66:101 */;
  let %x_151: fn (Tensor[(10, 24), float32], Tensor[(24), float32]) -> Tensor[(10, 24), float32] /* ty=fn (Tensor[(10, 24), float32], Tensor[(24), float32]) -> Tensor[(10, 24), float32] span=from_string:70:101 */ = fn (%p015: Tensor[(10, 24), float32] /* ty=Tensor[(10, 24), float32] span=from_string:68:9 */, %p112: Tensor[(24), float32] /* ty=Tensor[(24), float32] span=from_string:68:16 */, Primitive=1) -> Tensor[(10, 24), float32] {
    add(%p015, %p112) /* ty=Tensor[(10, 24), float32] span=from_string:68:5 */
  } /* ty=fn (Tensor[(10, 24), float32], Tensor[(24), float32]) -> Tensor[(10, 24), float32] span=from_string:67:3 */;
  let %x_19: Tensor[(10, 24), float32] /* ty=Tensor[(10, 24), float32] span=from_string:74:109 */ = %x_151(%x_18, %x9) /* ty=Tensor[(10, 24), float32] span=from_string:70:101 */;
  let %x_161: fn (Tensor[(10, 24), float32], Tensor[(1), float32]) -> Tensor[(10, 24), float32] /* ty=fn (Tensor[(10, 24), float32], Tensor[(1), float32]) -> Tensor[(10, 24), float32] span=from_string:74:102 */ = fn (%p016: Tensor[(10, 24), float32] /* ty=Tensor[(10, 24), float32] span=from_string:72:15 */, %p113: Tensor[(1), float32] /* ty=Tensor[(1), float32] span=from_string:72:22 */, Primitive=1) -> Tensor[(10, 24), float32] {
    multiply(%p016, %p113) /* ty=Tensor[(10, 24), float32] span=from_string:72:6 */
  } /* ty=fn (Tensor[(10, 24), float32], Tensor[(1), float32]) -> Tensor[(10, 24), float32] span=from_string:71:3 */;
  let %x_20: Tensor[(10, 24), float32] /* ty=Tensor[(10, 24), float32] span=from_string:108:116 */ = %x_161(%x_19, %x10) /* ty=Tensor[(10, 24), float32] span=from_string:74:102 */;
  let %x_171: fn (Tensor[(10, 24), float32]) -> Tensor[(1, 1, 240), float32] /* ty=fn (Tensor[(10, 24), float32]) -> Tensor[(1, 1, 240), float32] span=from_string:78:108 */ = fn (%p017: Tensor[(10, 24), float32] /* ty=Tensor[(10, 24), float32] span=from_string:76:13 */, Primitive=1, relay.reshape_only=1) -> Tensor[(1, 1, 240), float32] {
    reshape(%p017, newshape=[1, 1, 240]) /* ty=Tensor[(1, 1, 240), float32] span=from_string:76:5 */
  } /* ty=fn (Tensor[(10, 24), float32]) -> Tensor[(1, 1, 240), float32] span=from_string:75:3 */;
  let %x_211: Tensor[(1, 1, 240), float32] /* ty=Tensor[(1, 1, 240), float32] span=from_string:79:180 */ = %x_171(%x_20) /* ty=Tensor[(1, 1, 240), float32] span=from_string:78:108 */;
  let %x_22: (Tensor[(1, 1, 120), float32], Tensor[(1, 1, 240), float32]) /* ty=(Tensor[(1, 1, 120), float32], Tensor[(1, 1, 240), float32]) span=from_string:181:689 */ = (%x_17, %x_211) /* ty=(Tensor[(1, 1, 120), float32], Tensor[(1, 1, 240), float32]) span=from_string:79:172 */;
  let %x_181: fn (Tensor[(10, 24), float32]) -> Tensor[(10, 24), float32] /* ty=fn (Tensor[(10, 24), float32]) -> Tensor[(10, 24), float32] span=from_string:83:102 */ = fn (%p018: Tensor[(10, 24), float32] /* ty=Tensor[(10, 24), float32] span=from_string:81:22 */, Primitive=1) -> Tensor[(10, 24), float32] {
    multiply(%p018, %p018) /* ty=Tensor[(10, 24), float32] span=from_string:81:6 */
  } /* ty=fn (Tensor[(10, 24), float32]) -> Tensor[(10, 24), float32] span=from_string:80:3 */;
  let %x_23: Tensor[(10, 24), float32] /* ty=Tensor[(10, 24), float32] span=from_string:114:167 */ = %x_181(%x_20) /* ty=Tensor[(10, 24), float32] span=from_string:83:102 */;
  let %x_191: fn (Tensor[(10, 24), float32]) -> Tensor[(10, 24), float32] /* ty=fn (Tensor[(10, 24), float32]) -> Tensor[(10, 24), float32] span=from_string:87:102 */ = fn (%p019: Tensor[(10, 24), float32] /* ty=Tensor[(10, 24), float32] span=from_string:85:16 */, Primitive=1) -> Tensor[(10, 24), float32] {
    zeros(shape=[10, 24], dtype="float32") /* ty=Tensor[(10, 24), float32] */
  } /* ty=fn (Tensor[(10, 24), float32]) -> Tensor[(10, 24), float32] span=from_string:84:3 */;
  let %x_24: Tensor[(10, 24), float32] /* ty=Tensor[(10, 24), float32] span=from_string:104:109 */ = %x_191(%x_20) /* ty=Tensor[(10, 24), float32] span=from_string:87:102 */;
  let %x_201: fn (Tensor[(10, 24), float32]) -> Tensor[(10, 24), float32] /* ty=fn (Tensor[(10, 24), float32]) -> Tensor[(10, 24), float32] span=from_string:91:100 */ = fn (%p020: Tensor[(10, 24), float32] /* ty=Tensor[(10, 24), float32] span=from_string:89:15 */, Primitive=1) -> Tensor[(10, 24), float32] {
    ones(shape=[10, 24], dtype="float32") /* ty=Tensor[(10, 24), float32] */
  } /* ty=fn (Tensor[(10, 24), float32]) -> Tensor[(10, 24), float32] span=from_string:88:3 */;
  let %x_25: Tensor[(10, 24), float32] /* ty=Tensor[(10, 24), float32] span=from_string:95:109 */ = %x_201(%x_23) /* ty=Tensor[(10, 24), float32] span=from_string:91:100 */;
  let %x_212: fn (Tensor[(10, 24), float32], Tensor[(10, 24), float32]) -> Tensor[(10, 24), float32] /* ty=fn (Tensor[(10, 24), float32], Tensor[(10, 24), float32]) -> Tensor[(10, 24), float32] span=from_string:95:102 */ = fn (%p021: Tensor[(10, 24), float32] /* ty=Tensor[(10, 24), float32] span=from_string:93:15 */, %p114: Tensor[(10, 24), float32] /* ty=Tensor[(10, 24), float32] span=from_string:93:22 */, Primitive=1) -> Tensor[(10, 24), float32] {
    multiply(%p021, %p114) /* ty=Tensor[(10, 24), float32] span=from_string:93:6 */
  } /* ty=fn (Tensor[(10, 24), float32], Tensor[(10, 24), float32]) -> Tensor[(10, 24), float32] span=from_string:92:3 */;
  let %x_26: Tensor[(10, 24), float32] /* ty=Tensor[(10, 24), float32] span=from_string:151:115 */ = %x_212(%x_25, %x_20) /* ty=Tensor[(10, 24), float32] span=from_string:95:102 */;
  let %x_29: Tensor[(10, 24), float32] /* ty=Tensor[(10, 24), float32] span=from_string:108:109 */ = %x_26;
  let %x_221: fn (Tensor[(10, 24), float32], Tensor[(10, 24), float32]) -> Tensor[(10, 24), float32] /* ty=fn (Tensor[(10, 24), float32], Tensor[(10, 24), float32]) -> Tensor[(10, 24), float32] span=from_string:100:102 */ = fn (%p022: Tensor[(10, 24), float32] /* ty=Tensor[(10, 24), float32] span=from_string:98:23 */, %p115: Tensor[(10, 24), float32] /* ty=Tensor[(10, 24), float32] span=from_string:98:30 */, Primitive=1) -> Tensor[(10, 24), float32] {
    collapse_sum_to(%p022, meta[relay.Constant][0] /* ty=Tensor[(2), int32] */, meta[relay.attrs.InitOpAttrs][0]) /* ty=Tensor[(10, 24), float32] */
  } /* ty=fn (Tensor[(10, 24), float32], Tensor[(10, 24), float32]) -> Tensor[(10, 24), float32] span=from_string:97:3 */;
  let %x_27: Tensor[(10, 24), float32] /* ty=Tensor[(10, 24), float32] span=from_string:104:116 */ = %x_221(%x_26, %x_20) /* ty=Tensor[(10, 24), float32] span=from_string:100:102 */;
  let %x_231: fn (Tensor[(10, 24), float32], Tensor[(10, 24), float32]) -> Tensor[(10, 24), float32] /* ty=fn (Tensor[(10, 24), float32], Tensor[(10, 24), float32]) -> Tensor[(10, 24), float32] span=from_string:104:102 */ = fn (%p023: Tensor[(10, 24), float32] /* ty=Tensor[(10, 24), float32] span=from_string:102:9 */, %p116: Tensor[(10, 24), float32] /* ty=Tensor[(10, 24), float32] span=from_string:102:16 */, Primitive=1) -> Tensor[(10, 24), float32] {
    add(%p023, %p116) /* ty=Tensor[(10, 24), float32] span=from_string:102:5 */
  } /* ty=fn (Tensor[(10, 24), float32], Tensor[(10, 24), float32]) -> Tensor[(10, 24), float32] span=from_string:101:3 */;
  let %x_28: Tensor[(10, 24), float32] /* ty=Tensor[(10, 24), float32] span=from_string:112:110 */ = %x_231(%x_24, %x_27) /* ty=Tensor[(10, 24), float32] span=from_string:104:102 */;
  let %x_241: fn (Tensor[(10, 24), float32], Tensor[(10, 24), float32]) -> Tensor[(10, 24), float32] /* ty=fn (Tensor[(10, 24), float32], Tensor[(10, 24), float32]) -> Tensor[(10, 24), float32] span=from_string:108:102 */ = fn (%p024: Tensor[(10, 24), float32] /* ty=Tensor[(10, 24), float32] span=from_string:106:23 */, %p117: Tensor[(10, 24), float32] /* ty=Tensor[(10, 24), float32] span=from_string:106:30 */, Primitive=1) -> Tensor[(10, 24), float32] {
    collapse_sum_to(%p024, meta[relay.Constant][1] /* ty=Tensor[(2), int32] */, meta[relay.attrs.InitOpAttrs][1]) /* ty=Tensor[(10, 24), float32] */
  } /* ty=fn (Tensor[(10, 24), float32], Tensor[(10, 24), float32]) -> Tensor[(10, 24), float32] span=from_string:105:3 */;
  let %x_30: Tensor[(10, 24), float32] /* ty=Tensor[(10, 24), float32] span=from_string:112:117 */ = %x_241(%x_29, %x_20) /* ty=Tensor[(10, 24), float32] span=from_string:108:102 */;
  let %x_251: fn (Tensor[(10, 24), float32], Tensor[(10, 24), float32]) -> Tensor[(10, 24), float32] /* ty=fn (Tensor[(10, 24), float32], Tensor[(10, 24), float32]) -> Tensor[(10, 24), float32] span=from_string:112:103 */ = fn (%p025: Tensor[(10, 24), float32] /* ty=Tensor[(10, 24), float32] span=from_string:110:9 */, %p118: Tensor[(10, 24), float32] /* ty=Tensor[(10, 24), float32] span=from_string:110:16 */, Primitive=1) -> Tensor[(10, 24), float32] {
    add(%p025, %p118) /* ty=Tensor[(10, 24), float32] span=from_string:110:5 */
  } /* ty=fn (Tensor[(10, 24), float32], Tensor[(10, 24), float32]) -> Tensor[(10, 24), float32] span=from_string:109:3 */;
  let %x_311: Tensor[(10, 24), float32] /* ty=Tensor[(10, 24), float32] span=from_string:113:109 */ = %x_251(%x_28, %x_30) /* ty=Tensor[(10, 24), float32] span=from_string:112:103 */;
  let %x_32: (Tensor[(10, 24), float32],) /* ty=(Tensor[(10, 24), float32],) span=from_string:114:174 */ = (%x_311,) /* ty=(Tensor[(10, 24), float32],) span=from_string:113:108 */;
  let %x_33: (Tensor[(10, 24), float32], (Tensor[(10, 24), float32],)) /* ty=(Tensor[(10, 24), float32], (Tensor[(10, 24), float32],)) span=from_string:181:696 */ = (%x_23, %x_32) /* ty=(Tensor[(10, 24), float32], (Tensor[(10, 24), float32],)) span=from_string:114:166 */;
  let %x_261: fn () -> Tensor[(1), float32] /* ty=fn () -> Tensor[(1), float32] span=from_string:118:92 */ = fn (Primitive=1) -> Tensor[(1), float32] {
    ones(shape=[1], dtype="float32") /* ty=Tensor[(1), float32] span=from_string:116:5 */
  } /* ty=fn () -> Tensor[(1), float32] span=from_string:115:3 */;
  let %x_34: Tensor[(1), float32] /* ty=Tensor[(1), float32] span=from_string:122:105 */ = %x_261() /* ty=Tensor[(1), float32] span=from_string:118:92 */;
  let %x_271: fn (Tensor[(1), float32], Tensor[(1), float32]) -> Tensor[(1), float32] /* ty=fn (Tensor[(1), float32], Tensor[(1), float32]) -> Tensor[(1), float32] span=from_string:122:92 */ = fn (%p026: Tensor[(1), float32] /* ty=Tensor[(1), float32] span=from_string:120:9 */, %p119: Tensor[(1), float32] /* ty=Tensor[(1), float32] span=from_string:120:16 */, Primitive=1) -> Tensor[(1), float32] {
    add(%p026, %p119) /* ty=Tensor[(1), float32] span=from_string:120:5 */
  } /* ty=fn (Tensor[(1), float32], Tensor[(1), float32]) -> Tensor[(1), float32] span=from_string:119:3 */;
  let %x_35: Tensor[(1), float32] /* ty=Tensor[(1), float32] span=from_string:181:703 */ = %x_271(%x10, %x_34) /* ty=Tensor[(1), float32] span=from_string:122:92 */;
  let %x_281: fn (Tensor[(14, 30), float32]) -> (Tensor[(14, 10), float32], Tensor[(14, 10), float32], Tensor[(14, 10), float32]) /* ty=fn (Tensor[(14, 30), float32]) -> (Tensor[(14, 10), float32], Tensor[(14, 10), float32], Tensor[(14, 10), float32]) span=from_string:126:214 */ = fn (%p027: Tensor[(14, 30), float32] /* ty=Tensor[(14, 30), float32] span=from_string:124:11 */, Primitive=1) -> (Tensor[(14, 10), float32], Tensor[(14, 10), float32], Tensor[(14, 10), float32]) {
    split(%p027, indices_or_sections=3, axis=1) /* ty=(Tensor[(14, 10), float32], Tensor[(14, 10), float32], Tensor[(14, 10), float32]) span=from_string:124:5 */
  } /* ty=fn (Tensor[(14, 30), float32]) -> (Tensor[(14, 10), float32], Tensor[(14, 10), float32], Tensor[(14, 10), float32]) span=from_string:123:3 */;
  let %x_36: (Tensor[(14, 10), float32], Tensor[(14, 10), float32], Tensor[(14, 10), float32]) /* ty=(Tensor[(14, 10), float32], Tensor[(14, 10), float32], Tensor[(14, 10), float32]) span=from_string:127:102 */ = %x_281(%x11) /* ty=(Tensor[(14, 10), float32], Tensor[(14, 10), float32], Tensor[(14, 10), float32]) span=from_string:126:214 */;
  let %x_37: Tensor[(14, 10), float32] /* ty=Tensor[(14, 10), float32] span=from_string:139:109 */ = %x_36.0 /* ty=Tensor[(14, 10), float32] span=from_string:127:102 */;
  let %x_291: fn (Tensor[(65, 10), float32]) -> Tensor[(65, 10), float32] /* ty=fn (Tensor[(65, 10), float32]) -> Tensor[(65, 10), float32] span=from_string:131:102 */ = fn (%p028: Tensor[(65, 10), float32] /* ty=Tensor[(65, 10), float32] span=from_string:129:15 */, Primitive=1) -> Tensor[(65, 10), float32] {
    ones(shape=[65, 10], dtype="float32") /* ty=Tensor[(65, 10), float32] */
  } /* ty=fn (Tensor[(65, 10), float32]) -> Tensor[(65, 10), float32] span=from_string:128:3 */;
  let %x_38: Tensor[(65, 10), float32] /* ty=Tensor[(65, 10), float32] span=from_string:135:116 */ = %x_291(%x_41) /* ty=Tensor[(65, 10), float32] span=from_string:131:102 */;
  let %x_301: fn (Tensor[(65, 10), float32], Tensor[(65, 10), float32]) -> Tensor[(65, 10), float32] /* ty=fn (Tensor[(65, 10), float32], Tensor[(65, 10), float32]) -> Tensor[(65, 10), float32] span=from_string:135:102 */ = fn (%p029: Tensor[(65, 10), float32] /* ty=Tensor[(65, 10), float32] span=from_string:133:9 */, %p120: Tensor[(65, 10), float32] /* ty=Tensor[(65, 10), float32] span=from_string:133:16 */, Primitive=1) -> Tensor[(65, 10), float32] {
    add(%p029, %p120) /* ty=Tensor[(65, 10), float32] span=from_string:133:5 */
  } /* ty=fn (Tensor[(65, 10), float32], Tensor[(65, 10), float32]) -> Tensor[(65, 10), float32] span=from_string:132:3 */;
  let %x_39: Tensor[(65, 10), float32] /* ty=Tensor[(65, 10), float32] span=from_string:143:112 */ = %x_301(%x_41, %x_38) /* ty=Tensor[(65, 10), float32] span=from_string:135:102 */;
  let %x_312: fn (Tensor[(14, 10), float32], Tensor[(65, 10), float32]) -> Tensor[(14, 65), float32] /* ty=fn (Tensor[(14, 10), float32], Tensor[(65, 10), float32]) -> Tensor[(14, 65), float32] span=from_string:139:102 */ = fn (%p030: Tensor[(14, 10), float32] /* ty=Tensor[(14, 10), float32] span=from_string:137:14 */, %p121: Tensor[(65, 10), float32] /* ty=Tensor[(65, 10), float32] span=from_string:137:21 */, Primitive=1) -> Tensor[(14, 65), float32] {
    nn.dense(%p030, %p121, units=None) /* ty=Tensor[(14, 65), float32] span=from_string:137:5 */
  } /* ty=fn (Tensor[(14, 10), float32], Tensor[(65, 10), float32]) -> Tensor[(14, 65), float32] span=from_string:136:3 */;
  let %x_40: Tensor[(14, 65), float32] /* ty=Tensor[(14, 65), float32] span=from_string:181:710 */ = %x_312(%x_37, %x_39) /* ty=Tensor[(14, 65), float32] span=from_string:139:102 */;
  let %x_321: fn (Tensor[(65, 10), float32]) -> Tensor[(65, 10), bfloat16] /* ty=fn (Tensor[(65, 10), float32]) -> Tensor[(65, 10), bfloat16] span=from_string:143:105 */ = fn (%p031: Tensor[(65, 10), float32] /* ty=Tensor[(65, 10), float32] span=from_string:141:10 */, Primitive=1) -> Tensor[(65, 10), bfloat16] {
    cast(%p031, dtype="bfloat16") /* ty=Tensor[(65, 10), bfloat16] span=from_string:141:5 */
  } /* ty=fn (Tensor[(65, 10), float32]) -> Tensor[(65, 10), bfloat16] span=from_string:140:3 */;
  let %x_411: Tensor[(65, 10), bfloat16] /* ty=Tensor[(65, 10), bfloat16] span=from_string:147:111 */ = %x_321(%x_39) /* ty=Tensor[(65, 10), bfloat16] span=from_string:143:105 */;
  let %x_331: fn (Tensor[(65, 10), bfloat16]) -> Tensor[(65, 10), bfloat16] /* ty=fn (Tensor[(65, 10), bfloat16]) -> Tensor[(65, 10), bfloat16] span=from_string:147:104 */ = fn (%p032: Tensor[(65, 10), bfloat16] /* ty=Tensor[(65, 10), bfloat16] span=from_string:145:10 */, Primitive=1) -> Tensor[(65, 10), bfloat16] {
    clip(%p032, a_min=-0.2f, a_max=0.4f) /* ty=Tensor[(65, 10), bfloat16] span=from_string:145:5 */
  } /* ty=fn (Tensor[(65, 10), bfloat16]) -> Tensor[(65, 10), bfloat16] span=from_string:144:3 */;
  let %x_42: Tensor[(65, 10), bfloat16] /* ty=Tensor[(65, 10), bfloat16] span=from_string:181:717 */ = %x_331(%x_411) /* ty=Tensor[(65, 10), bfloat16] span=from_string:147:104 */;
  let %x_341: fn (Tensor[(42, 24), float32], Tensor[(10, 24), float32]) -> Tensor[(42, 10), float32] /* ty=fn (Tensor[(42, 24), float32], Tensor[(10, 24), float32]) -> Tensor[(42, 10), float32] span=from_string:151:102 */ = fn (%p033: Tensor[(42, 24), float32] /* ty=Tensor[(42, 24), float32] span=from_string:149:14 */, %p122: Tensor[(10, 24), float32] /* ty=Tensor[(10, 24), float32] span=from_string:149:21 */, Primitive=1) -> Tensor[(42, 10), float32] {
    nn.dense(%p033, %p122, units=None) /* ty=Tensor[(42, 10), float32] span=from_string:149:5 */
  } /* ty=fn (Tensor[(42, 24), float32], Tensor[(10, 24), float32]) -> Tensor[(42, 10), float32] span=from_string:148:3 */;
  let %x_43: Tensor[(42, 10), float32] /* ty=Tensor[(42, 10), float32] span=from_string:155:109 */ = %x_341(%x12, %x_26) /* ty=Tensor[(42, 10), float32] span=from_string:151:102 */;
  let %x_351: fn (Tensor[(42, 10), float32], Tensor[(10), float32]) -> Tensor[(42, 10), float32] /* ty=fn (Tensor[(42, 10), float32], Tensor[(10), float32]) -> Tensor[(42, 10), float32] span=from_string:155:102 */ = fn (%p034: Tensor[(42, 10), float32] /* ty=Tensor[(42, 10), float32] span=from_string:153:9 */, %p123: Tensor[(10), float32] /* ty=Tensor[(10), float32] span=from_string:153:16 */, Primitive=1) -> Tensor[(42, 10), float32] {
    add(%p034, %p123) /* ty=Tensor[(42, 10), float32] span=from_string:153:5 */
  } /* ty=fn (Tensor[(42, 10), float32], Tensor[(10), float32]) -> Tensor[(42, 10), float32] span=from_string:152:3 */;
  let %x_44: Tensor[(42, 10), float32] /* ty=Tensor[(42, 10), float32] span=from_string:159:109 */ = %x_351(%x_43, %x14) /* ty=Tensor[(42, 10), float32] span=from_string:155:102 */;
  let %x_361: fn (Tensor[(42, 10), float32], Tensor[(1), float32]) -> Tensor[(42, 10), float32] /* ty=fn (Tensor[(42, 10), float32], Tensor[(1), float32]) -> Tensor[(42, 10), float32] span=from_string:159:102 */ = fn (%p035: Tensor[(42, 10), float32] /* ty=Tensor[(42, 10), float32] span=from_string:157:15 */, %p124: Tensor[(1), float32] /* ty=Tensor[(1), float32] span=from_string:157:22 */, Primitive=1) -> Tensor[(42, 10), float32] {
    multiply(%p035, %p124) /* ty=Tensor[(42, 10), float32] span=from_string:157:6 */
  } /* ty=fn (Tensor[(42, 10), float32], Tensor[(1), float32]) -> Tensor[(42, 10), float32] span=from_string:156:3 */;
  let %x_45: Tensor[(42, 10), float32] /* ty=Tensor[(42, 10), float32] span=from_string:163:115 */ = %x_361(%x_44, %x16) /* ty=Tensor[(42, 10), float32] span=from_string:159:102 */;
  let %x_371: fn (Tensor[(42, 10), float32]) -> Tensor[(1, 1, 420), float32] /* ty=fn (Tensor[(42, 10), float32]) -> Tensor[(1, 1, 420), float32] span=from_string:163:108 */ = fn (%p036: Tensor[(42, 10), float32] /* ty=Tensor[(42, 10), float32] span=from_string:161:13 */, Primitive=1, relay.reshape_only=1) -> Tensor[(1, 1, 420), float32] {
    reshape(%p036, newshape=[1, 1, -1]) /* ty=Tensor[(1, 1, 420), float32] span=from_string:161:5 */
  } /* ty=fn (Tensor[(42, 10), float32]) -> Tensor[(1, 1, 420), float32] span=from_string:160:3 */;
  let %x_46: Tensor[(1, 1, 420), float32] /* ty=Tensor[(1, 1, 420), float32] span=from_string:180:174 */ = %x_371(%x_45) /* ty=Tensor[(1, 1, 420), float32] span=from_string:163:108 */;
  let %x_381: fn (Tensor[(42, 24), float32], Tensor[(10, 24), float32]) -> Tensor[(42, 10), float32] /* ty=fn (Tensor[(42, 24), float32], Tensor[(10, 24), float32]) -> Tensor[(42, 10), float32] span=from_string:167:102 */ = fn (%p037: Tensor[(42, 24), float32] /* ty=Tensor[(42, 24), float32] span=from_string:165:14 */, %p125: Tensor[(10, 24), float32] /* ty=Tensor[(10, 24), float32] span=from_string:165:21 */, Primitive=1) -> Tensor[(42, 10), float32] {
    nn.dense(%p037, %p125, units=None) /* ty=Tensor[(42, 10), float32] span=from_string:165:5 */
  } /* ty=fn (Tensor[(42, 24), float32], Tensor[(10, 24), float32]) -> Tensor[(42, 10), float32] span=from_string:164:3 */;
  let %x_47: Tensor[(42, 10), float32] /* ty=Tensor[(42, 10), float32] span=from_string:171:109 */ = %x_381(%x12, %x13) /* ty=Tensor[(42, 10), float32] span=from_string:167:102 */;
  let %x_391: fn (Tensor[(42, 10), float32], Tensor[(10), float32]) -> Tensor[(42, 10), float32] /* ty=fn (Tensor[(42, 10), float32], Tensor[(10), float32]) -> Tensor[(42, 10), float32] span=from_string:171:102 */ = fn (%p038: Tensor[(42, 10), float32] /* ty=Tensor[(42, 10), float32] span=from_string:169:9 */, %p126: Tensor[(10), float32] /* ty=Tensor[(10), float32] span=from_string:169:16 */, Primitive=1) -> Tensor[(42, 10), float32] {
    add(%p038, %p126) /* ty=Tensor[(42, 10), float32] span=from_string:169:5 */
  } /* ty=fn (Tensor[(42, 10), float32], Tensor[(10), float32]) -> Tensor[(42, 10), float32] span=from_string:168:3 */;
  let %x_48: Tensor[(42, 10), float32] /* ty=Tensor[(42, 10), float32] span=from_string:175:109 */ = %x_391(%x_47, %x15) /* ty=Tensor[(42, 10), float32] span=from_string:171:102 */;
  let %x_401: fn (Tensor[(42, 10), float32], Tensor[(1), float32]) -> Tensor[(42, 10), float32] /* ty=fn (Tensor[(42, 10), float32], Tensor[(1), float32]) -> Tensor[(42, 10), float32] span=from_string:175:102 */ = fn (%p039: Tensor[(42, 10), float32] /* ty=Tensor[(42, 10), float32] span=from_string:173:15 */, %p127: Tensor[(1), float32] /* ty=Tensor[(1), float32] span=from_string:173:22 */, Primitive=1) -> Tensor[(42, 10), float32] {
    multiply(%p039, %p127) /* ty=Tensor[(42, 10), float32] span=from_string:173:6 */
  } /* ty=fn (Tensor[(42, 10), float32], Tensor[(1), float32]) -> Tensor[(42, 10), float32] span=from_string:172:3 */;
  let %x_49: Tensor[(42, 10), float32] /* ty=Tensor[(42, 10), float32] span=from_string:179:115 */ = %x_401(%x_48, %x17) /* ty=Tensor[(42, 10), float32] span=from_string:175:102 */;
  let %x_412: fn (Tensor[(42, 10), float32]) -> Tensor[(1, 1, 420), float32] /* ty=fn (Tensor[(42, 10), float32]) -> Tensor[(1, 1, 420), float32] span=from_string:179:108 */ = fn (%p040: Tensor[(42, 10), float32] /* ty=Tensor[(42, 10), float32] span=from_string:177:13 */, Primitive=1, relay.reshape_only=1) -> Tensor[(1, 1, 420), float32] {
    reshape(%p040, newshape=[1, 1, -1]) /* ty=Tensor[(1, 1, 420), float32] span=from_string:177:5 */
  } /* ty=fn (Tensor[(42, 10), float32]) -> Tensor[(1, 1, 420), float32] span=from_string:176:3 */;
  let %x_50: Tensor[(1, 1, 420), float32] /* ty=Tensor[(1, 1, 420), float32] span=from_string:180:181 */ = %x_412(%x_49) /* ty=Tensor[(1, 1, 420), float32] span=from_string:179:108 */;
  let %x_511: (Tensor[(1, 1, 420), float32], Tensor[(1, 1, 420), float32]) /* ty=(Tensor[(1, 1, 420), float32], Tensor[(1, 1, 420), float32]) span=from_string:181:724 */ = (%x_46, %x_50) /* ty=(Tensor[(1, 1, 420), float32], Tensor[(1, 1, 420), float32]) span=from_string:180:173 */;
  let %x_52: ((Tensor[(65, 10), float32], Tensor[(65, 10), float32]), (Tensor[(1, 1, 120), float32], Tensor[(1, 1, 240), float32]), (Tensor[(10, 24), float32], (Tensor[(10, 24), float32],)), Tensor[(1), float32], Tensor[(14, 65), float32], Tensor[(65, 10), bfloat16], (Tensor[(1, 1, 420), float32], Tensor[(1, 1, 420), float32])) /* ty=((Tensor[(65, 10), float32], Tensor[(65, 10), float32]), (Tensor[(1, 1, 120), float32], Tensor[(1, 1, 240), float32]), (Tensor[(10, 24), float32], (Tensor[(10, 24), float32],)), Tensor[(1), float32], Tensor[(14, 65), float32], Tensor[(65, 10), bfloat16], (Tensor[(1, 1, 420), float32], Tensor[(1, 1, 420), float32])) span=from_string:182:16 */ = (%x_6, %x_22, %x_33, %x_35, %x_40, %x_42, %x_511) /* ty=((Tensor[(65, 10), float32], Tensor[(65, 10), float32]), (Tensor[(1, 1, 120), float32], Tensor[(1, 1, 240), float32]), (Tensor[(10, 24), float32], (Tensor[(10, 24), float32],)), Tensor[(1), float32], Tensor[(14, 65), float32], Tensor[(65, 10), bfloat16], (Tensor[(1, 1, 420), float32], Tensor[(1, 1, 420), float32])) span=from_string:181:682 */;
  let %x_421: ((Tensor[(65, 10), float32], Tensor[(65, 10), float32]), (Tensor[(1, 1, 120), float32], Tensor[(1, 1, 240), float32]), (Tensor[(10, 24), float32], (Tensor[(10, 24), float32],)), Tensor[(1), float32], Tensor[(14, 65), float32], Tensor[(65, 10), bfloat16], (Tensor[(1, 1, 420), float32], Tensor[(1, 1, 420), float32])) /* ty=((Tensor[(65, 10), float32], Tensor[(65, 10), float32]), (Tensor[(1, 1, 120), float32], Tensor[(1, 1, 240), float32]), (Tensor[(10, 24), float32], (Tensor[(10, 24), float32],)), Tensor[(1), float32], Tensor[(14, 65), float32], Tensor[(65, 10), bfloat16], (Tensor[(1, 1, 420), float32], Tensor[(1, 1, 420), float32])) span=from_string:183:16 */ = %x_52;
  let %x_431: ((Tensor[(65, 10), float32], Tensor[(65, 10), float32]), (Tensor[(1, 1, 120), float32], Tensor[(1, 1, 240), float32]), (Tensor[(10, 24), float32], (Tensor[(10, 24), float32],)), Tensor[(1), float32], Tensor[(14, 65), float32], Tensor[(65, 10), bfloat16], (Tensor[(1, 1, 420), float32], Tensor[(1, 1, 420), float32])) /* ty=((Tensor[(65, 10), float32], Tensor[(65, 10), float32]), (Tensor[(1, 1, 120), float32], Tensor[(1, 1, 240), float32]), (Tensor[(10, 24), float32], (Tensor[(10, 24), float32],)), Tensor[(1), float32], Tensor[(14, 65), float32], Tensor[(65, 10), bfloat16], (Tensor[(1, 1, 420), float32], Tensor[(1, 1, 420), float32])) span=from_string:184:16 */ = %x_421;
  let %x_441: ((Tensor[(65, 10), float32], Tensor[(65, 10), float32]), (Tensor[(1, 1, 120), float32], Tensor[(1, 1, 240), float32]), (Tensor[(10, 24), float32], (Tensor[(10, 24), float32],)), Tensor[(1), float32], Tensor[(14, 65), float32], Tensor[(65, 10), bfloat16], (Tensor[(1, 1, 420), float32], Tensor[(1, 1, 420), float32])) /* ty=((Tensor[(65, 10), float32], Tensor[(65, 10), float32]), (Tensor[(1, 1, 120), float32], Tensor[(1, 1, 240), float32]), (Tensor[(10, 24), float32], (Tensor[(10, 24), float32],)), Tensor[(1), float32], Tensor[(14, 65), float32], Tensor[(65, 10), bfloat16], (Tensor[(1, 1, 420), float32], Tensor[(1, 1, 420), float32])) span=from_string:185:16 */ = %x_431;
  let %x_451: ((Tensor[(65, 10), float32], Tensor[(65, 10), float32]), (Tensor[(1, 1, 120), float32], Tensor[(1, 1, 240), float32]), (Tensor[(10, 24), float32], (Tensor[(10, 24), float32],)), Tensor[(1), float32], Tensor[(14, 65), float32], Tensor[(65, 10), bfloat16], (Tensor[(1, 1, 420), float32], Tensor[(1, 1, 420), float32])) /* ty=((Tensor[(65, 10), float32], Tensor[(65, 10), float32]), (Tensor[(1, 1, 120), float32], Tensor[(1, 1, 240), float32]), (Tensor[(10, 24), float32], (Tensor[(10, 24), float32],)), Tensor[(1), float32], Tensor[(14, 65), float32], Tensor[(65, 10), bfloat16], (Tensor[(1, 1, 420), float32], Tensor[(1, 1, 420), float32])) span=from_string:186:16 */ = %x_441;
  let %x_461: ((Tensor[(65, 10), float32], Tensor[(65, 10), float32]), (Tensor[(1, 1, 120), float32], Tensor[(1, 1, 240), float32]), (Tensor[(10, 24), float32], (Tensor[(10, 24), float32],)), Tensor[(1), float32], Tensor[(14, 65), float32], Tensor[(65, 10), bfloat16], (Tensor[(1, 1, 420), float32], Tensor[(1, 1, 420), float32])) /* ty=((Tensor[(65, 10), float32], Tensor[(65, 10), float32]), (Tensor[(1, 1, 120), float32], Tensor[(1, 1, 240), float32]), (Tensor[(10, 24), float32], (Tensor[(10, 24), float32],)), Tensor[(1), float32], Tensor[(14, 65), float32], Tensor[(65, 10), bfloat16], (Tensor[(1, 1, 420), float32], Tensor[(1, 1, 420), float32])) span=from_string:187:16 */ = %x_451;
  let %x_471: ((Tensor[(65, 10), float32], Tensor[(65, 10), float32]), (Tensor[(1, 1, 120), float32], Tensor[(1, 1, 240), float32]), (Tensor[(10, 24), float32], (Tensor[(10, 24), float32],)), Tensor[(1), float32], Tensor[(14, 65), float32], Tensor[(65, 10), bfloat16], (Tensor[(1, 1, 420), float32], Tensor[(1, 1, 420), float32])) /* ty=((Tensor[(65, 10), float32], Tensor[(65, 10), float32]), (Tensor[(1, 1, 120), float32], Tensor[(1, 1, 240), float32]), (Tensor[(10, 24), float32], (Tensor[(10, 24), float32],)), Tensor[(1), float32], Tensor[(14, 65), float32], Tensor[(65, 10), bfloat16], (Tensor[(1, 1, 420), float32], Tensor[(1, 1, 420), float32])) span=from_string:188:16 */ = %x_461;
  let %x_481: ((Tensor[(65, 10), float32], Tensor[(65, 10), float32]), (Tensor[(1, 1, 120), float32], Tensor[(1, 1, 240), float32]), (Tensor[(10, 24), float32], (Tensor[(10, 24), float32],)), Tensor[(1), float32], Tensor[(14, 65), float32], Tensor[(65, 10), bfloat16], (Tensor[(1, 1, 420), float32], Tensor[(1, 1, 420), float32])) /* ty=((Tensor[(65, 10), float32], Tensor[(65, 10), float32]), (Tensor[(1, 1, 120), float32], Tensor[(1, 1, 240), float32]), (Tensor[(10, 24), float32], (Tensor[(10, 24), float32],)), Tensor[(1), float32], Tensor[(14, 65), float32], Tensor[(65, 10), bfloat16], (Tensor[(1, 1, 420), float32], Tensor[(1, 1, 420), float32])) span=from_string:189:16 */ = %x_471;
  let %x_491: ((Tensor[(65, 10), float32], Tensor[(65, 10), float32]), (Tensor[(1, 1, 120), float32], Tensor[(1, 1, 240), float32]), (Tensor[(10, 24), float32], (Tensor[(10, 24), float32],)), Tensor[(1), float32], Tensor[(14, 65), float32], Tensor[(65, 10), bfloat16], (Tensor[(1, 1, 420), float32], Tensor[(1, 1, 420), float32])) /* ty=((Tensor[(65, 10), float32], Tensor[(65, 10), float32]), (Tensor[(1, 1, 120), float32], Tensor[(1, 1, 240), float32]), (Tensor[(10, 24), float32], (Tensor[(10, 24), float32],)), Tensor[(1), float32], Tensor[(14, 65), float32], Tensor[(65, 10), bfloat16], (Tensor[(1, 1, 420), float32], Tensor[(1, 1, 420), float32])) span=from_string:190:16 */ = %x_481;
  let %x_501: ((Tensor[(65, 10), float32], Tensor[(65, 10), float32]), (Tensor[(1, 1, 120), float32], Tensor[(1, 1, 240), float32]), (Tensor[(10, 24), float32], (Tensor[(10, 24), float32],)), Tensor[(1), float32], Tensor[(14, 65), float32], Tensor[(65, 10), bfloat16], (Tensor[(1, 1, 420), float32], Tensor[(1, 1, 420), float32])) /* ty=((Tensor[(65, 10), float32], Tensor[(65, 10), float32]), (Tensor[(1, 1, 120), float32], Tensor[(1, 1, 240), float32]), (Tensor[(10, 24), float32], (Tensor[(10, 24), float32],)), Tensor[(1), float32], Tensor[(14, 65), float32], Tensor[(65, 10), bfloat16], (Tensor[(1, 1, 420), float32], Tensor[(1, 1, 420), float32])) span=from_string:191:16 */ = %x_491;
  let %x_512: ((Tensor[(65, 10), float32], Tensor[(65, 10), float32]), (Tensor[(1, 1, 120), float32], Tensor[(1, 1, 240), float32]), (Tensor[(10, 24), float32], (Tensor[(10, 24), float32],)), Tensor[(1), float32], Tensor[(14, 65), float32], Tensor[(65, 10), bfloat16], (Tensor[(1, 1, 420), float32], Tensor[(1, 1, 420), float32])) /* ty=((Tensor[(65, 10), float32], Tensor[(65, 10), float32]), (Tensor[(1, 1, 120), float32], Tensor[(1, 1, 240), float32]), (Tensor[(10, 24), float32], (Tensor[(10, 24), float32],)), Tensor[(1), float32], Tensor[(14, 65), float32], Tensor[(65, 10), bfloat16], (Tensor[(1, 1, 420), float32], Tensor[(1, 1, 420), float32])) span=from_string:192:16 */ = %x_501;
  let %x_521: ((Tensor[(65, 10), float32], Tensor[(65, 10), float32]), (Tensor[(1, 1, 120), float32], Tensor[(1, 1, 240), float32]), (Tensor[(10, 24), float32], (Tensor[(10, 24), float32],)), Tensor[(1), float32], Tensor[(14, 65), float32], Tensor[(65, 10), bfloat16], (Tensor[(1, 1, 420), float32], Tensor[(1, 1, 420), float32])) /* ty=((Tensor[(65, 10), float32], Tensor[(65, 10), float32]), (Tensor[(1, 1, 120), float32], Tensor[(1, 1, 240), float32]), (Tensor[(10, 24), float32], (Tensor[(10, 24), float32],)), Tensor[(1), float32], Tensor[(14, 65), float32], Tensor[(65, 10), bfloat16], (Tensor[(1, 1, 420), float32], Tensor[(1, 1, 420), float32])) span=from_string:193:15 */ = %x_512;
  let %x_53: ((Tensor[(65, 10), float32], Tensor[(65, 10), float32]), (Tensor[(1, 1, 120), float32], Tensor[(1, 1, 240), float32]), (Tensor[(10, 24), float32], (Tensor[(10, 24), float32],)), Tensor[(1), float32], Tensor[(14, 65), float32], Tensor[(65, 10), bfloat16], (Tensor[(1, 1, 420), float32], Tensor[(1, 1, 420), float32])) /* ty=((Tensor[(65, 10), float32], Tensor[(65, 10), float32]), (Tensor[(1, 1, 120), float32], Tensor[(1, 1, 240), float32]), (Tensor[(10, 24), float32], (Tensor[(10, 24), float32],)), Tensor[(1), float32], Tensor[(14, 65), float32], Tensor[(65, 10), bfloat16], (Tensor[(1, 1, 420), float32], Tensor[(1, 1, 420), float32])) span=from_string:194:15 */ = %x_521;
  let %x_54: ((Tensor[(65, 10), float32], Tensor[(65, 10), float32]), (Tensor[(1, 1, 120), float32], Tensor[(1, 1, 240), float32]), (Tensor[(10, 24), float32], (Tensor[(10, 24), float32],)), Tensor[(1), float32], Tensor[(14, 65), float32], Tensor[(65, 10), bfloat16], (Tensor[(1, 1, 420), float32], Tensor[(1, 1, 420), float32])) /* ty=((Tensor[(65, 10), float32], Tensor[(65, 10), float32]), (Tensor[(1, 1, 120), float32], Tensor[(1, 1, 240), float32]), (Tensor[(10, 24), float32], (Tensor[(10, 24), float32],)), Tensor[(1), float32], Tensor[(14, 65), float32], Tensor[(65, 10), bfloat16], (Tensor[(1, 1, 420), float32], Tensor[(1, 1, 420), float32])) span=from_string:195:15 */ = %x_53;
  let %x_55: ((Tensor[(65, 10), float32], Tensor[(65, 10), float32]), (Tensor[(1, 1, 120), float32], Tensor[(1, 1, 240), float32]), (Tensor[(10, 24), float32], (Tensor[(10, 24), float32],)), Tensor[(1), float32], Tensor[(14, 65), float32], Tensor[(65, 10), bfloat16], (Tensor[(1, 1, 420), float32], Tensor[(1, 1, 420), float32])) /* ty=((Tensor[(65, 10), float32], Tensor[(65, 10), float32]), (Tensor[(1, 1, 120), float32], Tensor[(1, 1, 240), float32]), (Tensor[(10, 24), float32], (Tensor[(10, 24), float32],)), Tensor[(1), float32], Tensor[(14, 65), float32], Tensor[(65, 10), bfloat16], (Tensor[(1, 1, 420), float32], Tensor[(1, 1, 420), float32])) span=from_string:196:15 */ = %x_54;
  let %x_56: ((Tensor[(65, 10), float32], Tensor[(65, 10), float32]), (Tensor[(1, 1, 120), float32], Tensor[(1, 1, 240), float32]), (Tensor[(10, 24), float32], (Tensor[(10, 24), float32],)), Tensor[(1), float32], Tensor[(14, 65), float32], Tensor[(65, 10), bfloat16], (Tensor[(1, 1, 420), float32], Tensor[(1, 1, 420), float32])) /* ty=((Tensor[(65, 10), float32], Tensor[(65, 10), float32]), (Tensor[(1, 1, 120), float32], Tensor[(1, 1, 240), float32]), (Tensor[(10, 24), float32], (Tensor[(10, 24), float32],)), Tensor[(1), float32], Tensor[(14, 65), float32], Tensor[(65, 10), bfloat16], (Tensor[(1, 1, 420), float32], Tensor[(1, 1, 420), float32])) span=from_string:197:15 */ = %x_55;
  let %x_57: ((Tensor[(65, 10), float32], Tensor[(65, 10), float32]), (Tensor[(1, 1, 120), float32], Tensor[(1, 1, 240), float32]), (Tensor[(10, 24), float32], (Tensor[(10, 24), float32],)), Tensor[(1), float32], Tensor[(14, 65), float32], Tensor[(65, 10), bfloat16], (Tensor[(1, 1, 420), float32], Tensor[(1, 1, 420), float32])) /* ty=((Tensor[(65, 10), float32], Tensor[(65, 10), float32]), (Tensor[(1, 1, 120), float32], Tensor[(1, 1, 240), float32]), (Tensor[(10, 24), float32], (Tensor[(10, 24), float32],)), Tensor[(1), float32], Tensor[(14, 65), float32], Tensor[(65, 10), bfloat16], (Tensor[(1, 1, 420), float32], Tensor[(1, 1, 420), float32])) span=from_string:198:15 */ = %x_56;
  let %x_58: ((Tensor[(65, 10), float32], Tensor[(65, 10), float32]), (Tensor[(1, 1, 120), float32], Tensor[(1, 1, 240), float32]), (Tensor[(10, 24), float32], (Tensor[(10, 24), float32],)), Tensor[(1), float32], Tensor[(14, 65), float32], Tensor[(65, 10), bfloat16], (Tensor[(1, 1, 420), float32], Tensor[(1, 1, 420), float32])) /* ty=((Tensor[(65, 10), float32], Tensor[(65, 10), float32]), (Tensor[(1, 1, 120), float32], Tensor[(1, 1, 240), float32]), (Tensor[(10, 24), float32], (Tensor[(10, 24), float32],)), Tensor[(1), float32], Tensor[(14, 65), float32], Tensor[(65, 10), bfloat16], (Tensor[(1, 1, 420), float32], Tensor[(1, 1, 420), float32])) span=from_string:199:15 */ = %x_57;
  let %x_59: ((Tensor[(65, 10), float32], Tensor[(65, 10), float32]), (Tensor[(1, 1, 120), float32], Tensor[(1, 1, 240), float32]), (Tensor[(10, 24), float32], (Tensor[(10, 24), float32],)), Tensor[(1), float32], Tensor[(14, 65), float32], Tensor[(65, 10), bfloat16], (Tensor[(1, 1, 420), float32], Tensor[(1, 1, 420), float32])) /* ty=((Tensor[(65, 10), float32], Tensor[(65, 10), float32]), (Tensor[(1, 1, 120), float32], Tensor[(1, 1, 240), float32]), (Tensor[(10, 24), float32], (Tensor[(10, 24), float32],)), Tensor[(1), float32], Tensor[(14, 65), float32], Tensor[(65, 10), bfloat16], (Tensor[(1, 1, 420), float32], Tensor[(1, 1, 420), float32])) span=from_string:200:15 */ = %x_58;
  let %x_60: ((Tensor[(65, 10), float32], Tensor[(65, 10), float32]), (Tensor[(1, 1, 120), float32], Tensor[(1, 1, 240), float32]), (Tensor[(10, 24), float32], (Tensor[(10, 24), float32],)), Tensor[(1), float32], Tensor[(14, 65), float32], Tensor[(65, 10), bfloat16], (Tensor[(1, 1, 420), float32], Tensor[(1, 1, 420), float32])) /* ty=((Tensor[(65, 10), float32], Tensor[(65, 10), float32]), (Tensor[(1, 1, 120), float32], Tensor[(1, 1, 240), float32]), (Tensor[(10, 24), float32], (Tensor[(10, 24), float32],)), Tensor[(1), float32], Tensor[(14, 65), float32], Tensor[(65, 10), bfloat16], (Tensor[(1, 1, 420), float32], Tensor[(1, 1, 420), float32])) span=from_string:201:16 */ = %x_59;
  let %x_611: ((Tensor[(65, 10), float32], Tensor[(65, 10), float32]), (Tensor[(1, 1, 120), float32], Tensor[(1, 1, 240), float32]), (Tensor[(10, 24), float32], (Tensor[(10, 24), float32],)), Tensor[(1), float32], Tensor[(14, 65), float32], Tensor[(65, 10), bfloat16], (Tensor[(1, 1, 420), float32], Tensor[(1, 1, 420), float32])) /* ty=((Tensor[(65, 10), float32], Tensor[(65, 10), float32]), (Tensor[(1, 1, 120), float32], Tensor[(1, 1, 240), float32]), (Tensor[(10, 24), float32], (Tensor[(10, 24), float32],)), Tensor[(1), float32], Tensor[(14, 65), float32], Tensor[(65, 10), bfloat16], (Tensor[(1, 1, 420), float32], Tensor[(1, 1, 420), float32])) span=from_string:202:15 */ = %x_60;
  let %x_62: ((Tensor[(65, 10), float32], Tensor[(65, 10), float32]), (Tensor[(1, 1, 120), float32], Tensor[(1, 1, 240), float32]), (Tensor[(10, 24), float32], (Tensor[(10, 24), float32],)), Tensor[(1), float32], Tensor[(14, 65), float32], Tensor[(65, 10), bfloat16], (Tensor[(1, 1, 420), float32], Tensor[(1, 1, 420), float32])) /* ty=((Tensor[(65, 10), float32], Tensor[(65, 10), float32]), (Tensor[(1, 1, 120), float32], Tensor[(1, 1, 240), float32]), (Tensor[(10, 24), float32], (Tensor[(10, 24), float32],)), Tensor[(1), float32], Tensor[(14, 65), float32], Tensor[(65, 10), bfloat16], (Tensor[(1, 1, 420), float32], Tensor[(1, 1, 420), float32])) span=from_string:203:15 */ = %x_611;
  let %x_63: ((Tensor[(65, 10), float32], Tensor[(65, 10), float32]), (Tensor[(1, 1, 120), float32], Tensor[(1, 1, 240), float32]), (Tensor[(10, 24), float32], (Tensor[(10, 24), float32],)), Tensor[(1), float32], Tensor[(14, 65), float32], Tensor[(65, 10), bfloat16], (Tensor[(1, 1, 420), float32], Tensor[(1, 1, 420), float32])) /* ty=((Tensor[(65, 10), float32], Tensor[(65, 10), float32]), (Tensor[(1, 1, 120), float32], Tensor[(1, 1, 240), float32]), (Tensor[(10, 24), float32], (Tensor[(10, 24), float32],)), Tensor[(1), float32], Tensor[(14, 65), float32], Tensor[(65, 10), bfloat16], (Tensor[(1, 1, 420), float32], Tensor[(1, 1, 420), float32])) span=from_string:204:15 */ = %x_62;
  let %x_64: ((Tensor[(65, 10), float32], Tensor[(65, 10), float32]), (Tensor[(1, 1, 120), float32], Tensor[(1, 1, 240), float32]), (Tensor[(10, 24), float32], (Tensor[(10, 24), float32],)), Tensor[(1), float32], Tensor[(14, 65), float32], Tensor[(65, 10), bfloat16], (Tensor[(1, 1, 420), float32], Tensor[(1, 1, 420), float32])) /* ty=((Tensor[(65, 10), float32], Tensor[(65, 10), float32]), (Tensor[(1, 1, 120), float32], Tensor[(1, 1, 240), float32]), (Tensor[(10, 24), float32], (Tensor[(10, 24), float32],)), Tensor[(1), float32], Tensor[(14, 65), float32], Tensor[(65, 10), bfloat16], (Tensor[(1, 1, 420), float32], Tensor[(1, 1, 420), float32])) span=from_string:205:15 */ = %x_63;
  let %x_65: ((Tensor[(65, 10), float32], Tensor[(65, 10), float32]), (Tensor[(1, 1, 120), float32], Tensor[(1, 1, 240), float32]), (Tensor[(10, 24), float32], (Tensor[(10, 24), float32],)), Tensor[(1), float32], Tensor[(14, 65), float32], Tensor[(65, 10), bfloat16], (Tensor[(1, 1, 420), float32], Tensor[(1, 1, 420), float32])) /* ty=((Tensor[(65, 10), float32], Tensor[(65, 10), float32]), (Tensor[(1, 1, 120), float32], Tensor[(1, 1, 240), float32]), (Tensor[(10, 24), float32], (Tensor[(10, 24), float32],)), Tensor[(1), float32], Tensor[(14, 65), float32], Tensor[(65, 10), bfloat16], (Tensor[(1, 1, 420), float32], Tensor[(1, 1, 420), float32])) span=from_string:206:15 */ = %x_64;
  let %x_66: ((Tensor[(65, 10), float32], Tensor[(65, 10), float32]), (Tensor[(1, 1, 120), float32], Tensor[(1, 1, 240), float32]), (Tensor[(10, 24), float32], (Tensor[(10, 24), float32],)), Tensor[(1), float32], Tensor[(14, 65), float32], Tensor[(65, 10), bfloat16], (Tensor[(1, 1, 420), float32], Tensor[(1, 1, 420), float32])) /* ty=((Tensor[(65, 10), float32], Tensor[(65, 10), float32]), (Tensor[(1, 1, 120), float32], Tensor[(1, 1, 240), float32]), (Tensor[(10, 24), float32], (Tensor[(10, 24), float32],)), Tensor[(1), float32], Tensor[(14, 65), float32], Tensor[(65, 10), bfloat16], (Tensor[(1, 1, 420), float32], Tensor[(1, 1, 420), float32])) span=from_string:207:15 */ = %x_65;
  let %x_67: ((Tensor[(65, 10), float32], Tensor[(65, 10), float32]), (Tensor[(1, 1, 120), float32], Tensor[(1, 1, 240), float32]), (Tensor[(10, 24), float32], (Tensor[(10, 24), float32],)), Tensor[(1), float32], Tensor[(14, 65), float32], Tensor[(65, 10), bfloat16], (Tensor[(1, 1, 420), float32], Tensor[(1, 1, 420), float32])) /* ty=((Tensor[(65, 10), float32], Tensor[(65, 10), float32]), (Tensor[(1, 1, 120), float32], Tensor[(1, 1, 240), float32]), (Tensor[(10, 24), float32], (Tensor[(10, 24), float32],)), Tensor[(1), float32], Tensor[(14, 65), float32], Tensor[(65, 10), bfloat16], (Tensor[(1, 1, 420), float32], Tensor[(1, 1, 420), float32])) span=from_string:208:15 */ = %x_66;
  let %x_68: ((Tensor[(65, 10), float32], Tensor[(65, 10), float32]), (Tensor[(1, 1, 120), float32], Tensor[(1, 1, 240), float32]), (Tensor[(10, 24), float32], (Tensor[(10, 24), float32],)), Tensor[(1), float32], Tensor[(14, 65), float32], Tensor[(65, 10), bfloat16], (Tensor[(1, 1, 420), float32], Tensor[(1, 1, 420), float32])) /* ty=((Tensor[(65, 10), float32], Tensor[(65, 10), float32]), (Tensor[(1, 1, 120), float32], Tensor[(1, 1, 240), float32]), (Tensor[(10, 24), float32], (Tensor[(10, 24), float32],)), Tensor[(1), float32], Tensor[(14, 65), float32], Tensor[(65, 10), bfloat16], (Tensor[(1, 1, 420), float32], Tensor[(1, 1, 420), float32])) span=from_string:209:15 */ = %x_67;
  let %x_69: ((Tensor[(65, 10), float32], Tensor[(65, 10), float32]), (Tensor[(1, 1, 120), float32], Tensor[(1, 1, 240), float32]), (Tensor[(10, 24), float32], (Tensor[(10, 24), float32],)), Tensor[(1), float32], Tensor[(14, 65), float32], Tensor[(65, 10), bfloat16], (Tensor[(1, 1, 420), float32], Tensor[(1, 1, 420), float32])) /* ty=((Tensor[(65, 10), float32], Tensor[(65, 10), float32]), (Tensor[(1, 1, 120), float32], Tensor[(1, 1, 240), float32]), (Tensor[(10, 24), float32], (Tensor[(10, 24), float32],)), Tensor[(1), float32], Tensor[(14, 65), float32], Tensor[(65, 10), bfloat16], (Tensor[(1, 1, 420), float32], Tensor[(1, 1, 420), float32])) span=from_string:210:15 */ = %x_68;
  let %x_70: ((Tensor[(65, 10), float32], Tensor[(65, 10), float32]), (Tensor[(1, 1, 120), float32], Tensor[(1, 1, 240), float32]), (Tensor[(10, 24), float32], (Tensor[(10, 24), float32],)), Tensor[(1), float32], Tensor[(14, 65), float32], Tensor[(65, 10), bfloat16], (Tensor[(1, 1, 420), float32], Tensor[(1, 1, 420), float32])) /* ty=((Tensor[(65, 10), float32], Tensor[(65, 10), float32]), (Tensor[(1, 1, 120), float32], Tensor[(1, 1, 240), float32]), (Tensor[(10, 24), float32], (Tensor[(10, 24), float32],)), Tensor[(1), float32], Tensor[(14, 65), float32], Tensor[(65, 10), bfloat16], (Tensor[(1, 1, 420), float32], Tensor[(1, 1, 420), float32])) span=from_string:211:16 */ = %x_69;
  let %x_711: ((Tensor[(65, 10), float32], Tensor[(65, 10), float32]), (Tensor[(1, 1, 120), float32], Tensor[(1, 1, 240), float32]), (Tensor[(10, 24), float32], (Tensor[(10, 24), float32],)), Tensor[(1), float32], Tensor[(14, 65), float32], Tensor[(65, 10), bfloat16], (Tensor[(1, 1, 420), float32], Tensor[(1, 1, 420), float32])) /* ty=((Tensor[(65, 10), float32], Tensor[(65, 10), float32]), (Tensor[(1, 1, 120), float32], Tensor[(1, 1, 240), float32]), (Tensor[(10, 24), float32], (Tensor[(10, 24), float32],)), Tensor[(1), float32], Tensor[(14, 65), float32], Tensor[(65, 10), bfloat16], (Tensor[(1, 1, 420), float32], Tensor[(1, 1, 420), float32])) span=from_string:212:15 */ = %x_70;
  let %x_72: ((Tensor[(65, 10), float32], Tensor[(65, 10), float32]), (Tensor[(1, 1, 120), float32], Tensor[(1, 1, 240), float32]), (Tensor[(10, 24), float32], (Tensor[(10, 24), float32],)), Tensor[(1), float32], Tensor[(14, 65), float32], Tensor[(65, 10), bfloat16], (Tensor[(1, 1, 420), float32], Tensor[(1, 1, 420), float32])) /* ty=((Tensor[(65, 10), float32], Tensor[(65, 10), float32]), (Tensor[(1, 1, 120), float32], Tensor[(1, 1, 240), float32]), (Tensor[(10, 24), float32], (Tensor[(10, 24), float32],)), Tensor[(1), float32], Tensor[(14, 65), float32], Tensor[(65, 10), bfloat16], (Tensor[(1, 1, 420), float32], Tensor[(1, 1, 420), float32])) span=from_string:213:15 */ = %x_711;
  let %x_73: ((Tensor[(65, 10), float32], Tensor[(65, 10), float32]), (Tensor[(1, 1, 120), float32], Tensor[(1, 1, 240), float32]), (Tensor[(10, 24), float32], (Tensor[(10, 24), float32],)), Tensor[(1), float32], Tensor[(14, 65), float32], Tensor[(65, 10), bfloat16], (Tensor[(1, 1, 420), float32], Tensor[(1, 1, 420), float32])) /* ty=((Tensor[(65, 10), float32], Tensor[(65, 10), float32]), (Tensor[(1, 1, 120), float32], Tensor[(1, 1, 240), float32]), (Tensor[(10, 24), float32], (Tensor[(10, 24), float32],)), Tensor[(1), float32], Tensor[(14, 65), float32], Tensor[(65, 10), bfloat16], (Tensor[(1, 1, 420), float32], Tensor[(1, 1, 420), float32])) span=from_string:214:15 */ = %x_72;
  let %x_74: ((Tensor[(65, 10), float32], Tensor[(65, 10), float32]), (Tensor[(1, 1, 120), float32], Tensor[(1, 1, 240), float32]), (Tensor[(10, 24), float32], (Tensor[(10, 24), float32],)), Tensor[(1), float32], Tensor[(14, 65), float32], Tensor[(65, 10), bfloat16], (Tensor[(1, 1, 420), float32], Tensor[(1, 1, 420), float32])) /* ty=((Tensor[(65, 10), float32], Tensor[(65, 10), float32]), (Tensor[(1, 1, 120), float32], Tensor[(1, 1, 240), float32]), (Tensor[(10, 24), float32], (Tensor[(10, 24), float32],)), Tensor[(1), float32], Tensor[(14, 65), float32], Tensor[(65, 10), bfloat16], (Tensor[(1, 1, 420), float32], Tensor[(1, 1, 420), float32])) span=from_string:215:15 */ = %x_73;
  let %x_75: ((Tensor[(65, 10), float32], Tensor[(65, 10), float32]), (Tensor[(1, 1, 120), float32], Tensor[(1, 1, 240), float32]), (Tensor[(10, 24), float32], (Tensor[(10, 24), float32],)), Tensor[(1), float32], Tensor[(14, 65), float32], Tensor[(65, 10), bfloat16], (Tensor[(1, 1, 420), float32], Tensor[(1, 1, 420), float32])) /* ty=((Tensor[(65, 10), float32], Tensor[(65, 10), float32]), (Tensor[(1, 1, 120), float32], Tensor[(1, 1, 240), float32]), (Tensor[(10, 24), float32], (Tensor[(10, 24), float32],)), Tensor[(1), float32], Tensor[(14, 65), float32], Tensor[(65, 10), bfloat16], (Tensor[(1, 1, 420), float32], Tensor[(1, 1, 420), float32])) span=from_string:216:15 */ = %x_74;
  let %x_76: ((Tensor[(65, 10), float32], Tensor[(65, 10), float32]), (Tensor[(1, 1, 120), float32], Tensor[(1, 1, 240), float32]), (Tensor[(10, 24), float32], (Tensor[(10, 24), float32],)), Tensor[(1), float32], Tensor[(14, 65), float32], Tensor[(65, 10), bfloat16], (Tensor[(1, 1, 420), float32], Tensor[(1, 1, 420), float32])) /* ty=((Tensor[(65, 10), float32], Tensor[(65, 10), float32]), (Tensor[(1, 1, 120), float32], Tensor[(1, 1, 240), float32]), (Tensor[(10, 24), float32], (Tensor[(10, 24), float32],)), Tensor[(1), float32], Tensor[(14, 65), float32], Tensor[(65, 10), bfloat16], (Tensor[(1, 1, 420), float32], Tensor[(1, 1, 420), float32])) span=from_string:217:15 */ = %x_75;
  let %x_77: ((Tensor[(65, 10), float32], Tensor[(65, 10), float32]), (Tensor[(1, 1, 120), float32], Tensor[(1, 1, 240), float32]), (Tensor[(10, 24), float32], (Tensor[(10, 24), float32],)), Tensor[(1), float32], Tensor[(14, 65), float32], Tensor[(65, 10), bfloat16], (Tensor[(1, 1, 420), float32], Tensor[(1, 1, 420), float32])) /* ty=((Tensor[(65, 10), float32], Tensor[(65, 10), float32]), (Tensor[(1, 1, 120), float32], Tensor[(1, 1, 240), float32]), (Tensor[(10, 24), float32], (Tensor[(10, 24), float32],)), Tensor[(1), float32], Tensor[(14, 65), float32], Tensor[(65, 10), bfloat16], (Tensor[(1, 1, 420), float32], Tensor[(1, 1, 420), float32])) span=from_string:218:15 */ = %x_76;
  let %x_78: ((Tensor[(65, 10), float32], Tensor[(65, 10), float32]), (Tensor[(1, 1, 120), float32], Tensor[(1, 1, 240), float32]), (Tensor[(10, 24), float32], (Tensor[(10, 24), float32],)), Tensor[(1), float32], Tensor[(14, 65), float32], Tensor[(65, 10), bfloat16], (Tensor[(1, 1, 420), float32], Tensor[(1, 1, 420), float32])) /* ty=((Tensor[(65, 10), float32], Tensor[(65, 10), float32]), (Tensor[(1, 1, 120), float32], Tensor[(1, 1, 240), float32]), (Tensor[(10, 24), float32], (Tensor[(10, 24), float32],)), Tensor[(1), float32], Tensor[(14, 65), float32], Tensor[(65, 10), bfloat16], (Tensor[(1, 1, 420), float32], Tensor[(1, 1, 420), float32])) span=from_string:219:15 */ = %x_77;
  let %x_79: ((Tensor[(65, 10), float32], Tensor[(65, 10), float32]), (Tensor[(1, 1, 120), float32], Tensor[(1, 1, 240), float32]), (Tensor[(10, 24), float32], (Tensor[(10, 24), float32],)), Tensor[(1), float32], Tensor[(14, 65), float32], Tensor[(65, 10), bfloat16], (Tensor[(1, 1, 420), float32], Tensor[(1, 1, 420), float32])) /* ty=((Tensor[(65, 10), float32], Tensor[(65, 10), float32]), (Tensor[(1, 1, 120), float32], Tensor[(1, 1, 240), float32]), (Tensor[(10, 24), float32], (Tensor[(10, 24), float32],)), Tensor[(1), float32], Tensor[(14, 65), float32], Tensor[(65, 10), bfloat16], (Tensor[(1, 1, 420), float32], Tensor[(1, 1, 420), float32])) span=from_string:220:15 */ = %x_78;
  let %x_80: ((Tensor[(65, 10), float32], Tensor[(65, 10), float32]), (Tensor[(1, 1, 120), float32], Tensor[(1, 1, 240), float32]), (Tensor[(10, 24), float32], (Tensor[(10, 24), float32],)), Tensor[(1), float32], Tensor[(14, 65), float32], Tensor[(65, 10), bfloat16], (Tensor[(1, 1, 420), float32], Tensor[(1, 1, 420), float32])) /* ty=((Tensor[(65, 10), float32], Tensor[(65, 10), float32]), (Tensor[(1, 1, 120), float32], Tensor[(1, 1, 240), float32]), (Tensor[(10, 24), float32], (Tensor[(10, 24), float32],)), Tensor[(1), float32], Tensor[(14, 65), float32], Tensor[(65, 10), bfloat16], (Tensor[(1, 1, 420), float32], Tensor[(1, 1, 420), float32])) span=from_string:221:16 */ = %x_79;
  let %x_811: ((Tensor[(65, 10), float32], Tensor[(65, 10), float32]), (Tensor[(1, 1, 120), float32], Tensor[(1, 1, 240), float32]), (Tensor[(10, 24), float32], (Tensor[(10, 24), float32],)), Tensor[(1), float32], Tensor[(14, 65), float32], Tensor[(65, 10), bfloat16], (Tensor[(1, 1, 420), float32], Tensor[(1, 1, 420), float32])) /* ty=((Tensor[(65, 10), float32], Tensor[(65, 10), float32]), (Tensor[(1, 1, 120), float32], Tensor[(1, 1, 240), float32]), (Tensor[(10, 24), float32], (Tensor[(10, 24), float32],)), Tensor[(1), float32], Tensor[(14, 65), float32], Tensor[(65, 10), bfloat16], (Tensor[(1, 1, 420), float32], Tensor[(1, 1, 420), float32])) span=from_string:222:15 */ = %x_80;
  let %x_82: ((Tensor[(65, 10), float32], Tensor[(65, 10), float32]), (Tensor[(1, 1, 120), float32], Tensor[(1, 1, 240), float32]), (Tensor[(10, 24), float32], (Tensor[(10, 24), float32],)), Tensor[(1), float32], Tensor[(14, 65), float32], Tensor[(65, 10), bfloat16], (Tensor[(1, 1, 420), float32], Tensor[(1, 1, 420), float32])) /* ty=((Tensor[(65, 10), float32], Tensor[(65, 10), float32]), (Tensor[(1, 1, 120), float32], Tensor[(1, 1, 240), float32]), (Tensor[(10, 24), float32], (Tensor[(10, 24), float32],)), Tensor[(1), float32], Tensor[(14, 65), float32], Tensor[(65, 10), bfloat16], (Tensor[(1, 1, 420), float32], Tensor[(1, 1, 420), float32])) span=from_string:223:15 */ = %x_811;
  let %x_83: ((Tensor[(65, 10), float32], Tensor[(65, 10), float32]), (Tensor[(1, 1, 120), float32], Tensor[(1, 1, 240), float32]), (Tensor[(10, 24), float32], (Tensor[(10, 24), float32],)), Tensor[(1), float32], Tensor[(14, 65), float32], Tensor[(65, 10), bfloat16], (Tensor[(1, 1, 420), float32], Tensor[(1, 1, 420), float32])) /* ty=((Tensor[(65, 10), float32], Tensor[(65, 10), float32]), (Tensor[(1, 1, 120), float32], Tensor[(1, 1, 240), float32]), (Tensor[(10, 24), float32], (Tensor[(10, 24), float32],)), Tensor[(1), float32], Tensor[(14, 65), float32], Tensor[(65, 10), bfloat16], (Tensor[(1, 1, 420), float32], Tensor[(1, 1, 420), float32])) span=from_string:224:15 */ = %x_82;
  let %x_84: ((Tensor[(65, 10), float32], Tensor[(65, 10), float32]), (Tensor[(1, 1, 120), float32], Tensor[(1, 1, 240), float32]), (Tensor[(10, 24), float32], (Tensor[(10, 24), float32],)), Tensor[(1), float32], Tensor[(14, 65), float32], Tensor[(65, 10), bfloat16], (Tensor[(1, 1, 420), float32], Tensor[(1, 1, 420), float32])) /* ty=((Tensor[(65, 10), float32], Tensor[(65, 10), float32]), (Tensor[(1, 1, 120), float32], Tensor[(1, 1, 240), float32]), (Tensor[(10, 24), float32], (Tensor[(10, 24), float32],)), Tensor[(1), float32], Tensor[(14, 65), float32], Tensor[(65, 10), bfloat16], (Tensor[(1, 1, 420), float32], Tensor[(1, 1, 420), float32])) span=from_string:225:15 */ = %x_83;
  let %x_85: ((Tensor[(65, 10), float32], Tensor[(65, 10), float32]), (Tensor[(1, 1, 120), float32], Tensor[(1, 1, 240), float32]), (Tensor[(10, 24), float32], (Tensor[(10, 24), float32],)), Tensor[(1), float32], Tensor[(14, 65), float32], Tensor[(65, 10), bfloat16], (Tensor[(1, 1, 420), float32], Tensor[(1, 1, 420), float32])) /* ty=((Tensor[(65, 10), float32], Tensor[(65, 10), float32]), (Tensor[(1, 1, 120), float32], Tensor[(1, 1, 240), float32]), (Tensor[(10, 24), float32], (Tensor[(10, 24), float32],)), Tensor[(1), float32], Tensor[(14, 65), float32], Tensor[(65, 10), bfloat16], (Tensor[(1, 1, 420), float32], Tensor[(1, 1, 420), float32])) span=from_string:226:15 */ = %x_84;
  let %x_86: ((Tensor[(65, 10), float32], Tensor[(65, 10), float32]), (Tensor[(1, 1, 120), float32], Tensor[(1, 1, 240), float32]), (Tensor[(10, 24), float32], (Tensor[(10, 24), float32],)), Tensor[(1), float32], Tensor[(14, 65), float32], Tensor[(65, 10), bfloat16], (Tensor[(1, 1, 420), float32], Tensor[(1, 1, 420), float32])) /* ty=((Tensor[(65, 10), float32], Tensor[(65, 10), float32]), (Tensor[(1, 1, 120), float32], Tensor[(1, 1, 240), float32]), (Tensor[(10, 24), float32], (Tensor[(10, 24), float32],)), Tensor[(1), float32], Tensor[(14, 65), float32], Tensor[(65, 10), bfloat16], (Tensor[(1, 1, 420), float32], Tensor[(1, 1, 420), float32])) span=from_string:227:15 */ = %x_85;
  let %x_87: ((Tensor[(65, 10), float32], Tensor[(65, 10), float32]), (Tensor[(1, 1, 120), float32], Tensor[(1, 1, 240), float32]), (Tensor[(10, 24), float32], (Tensor[(10, 24), float32],)), Tensor[(1), float32], Tensor[(14, 65), float32], Tensor[(65, 10), bfloat16], (Tensor[(1, 1, 420), float32], Tensor[(1, 1, 420), float32])) /* ty=((Tensor[(65, 10), float32], Tensor[(65, 10), float32]), (Tensor[(1, 1, 120), float32], Tensor[(1, 1, 240), float32]), (Tensor[(10, 24), float32], (Tensor[(10, 24), float32],)), Tensor[(1), float32], Tensor[(14, 65), float32], Tensor[(65, 10), bfloat16], (Tensor[(1, 1, 420), float32], Tensor[(1, 1, 420), float32])) span=from_string:228:15 */ = %x_86;
  let %x_88: ((Tensor[(65, 10), float32], Tensor[(65, 10), float32]), (Tensor[(1, 1, 120), float32], Tensor[(1, 1, 240), float32]), (Tensor[(10, 24), float32], (Tensor[(10, 24), float32],)), Tensor[(1), float32], Tensor[(14, 65), float32], Tensor[(65, 10), bfloat16], (Tensor[(1, 1, 420), float32], Tensor[(1, 1, 420), float32])) /* ty=((Tensor[(65, 10), float32], Tensor[(65, 10), float32]), (Tensor[(1, 1, 120), float32], Tensor[(1, 1, 240), float32]), (Tensor[(10, 24), float32], (Tensor[(10, 24), float32],)), Tensor[(1), float32], Tensor[(14, 65), float32], Tensor[(65, 10), bfloat16], (Tensor[(1, 1, 420), float32], Tensor[(1, 1, 420), float32])) span=from_string:229:15 */ = %x_87;
  let %x_89: ((Tensor[(65, 10), float32], Tensor[(65, 10), float32]), (Tensor[(1, 1, 120), float32], Tensor[(1, 1, 240), float32]), (Tensor[(10, 24), float32], (Tensor[(10, 24), float32],)), Tensor[(1), float32], Tensor[(14, 65), float32], Tensor[(65, 10), bfloat16], (Tensor[(1, 1, 420), float32], Tensor[(1, 1, 420), float32])) /* ty=((Tensor[(65, 10), float32], Tensor[(65, 10), float32]), (Tensor[(1, 1, 120), float32], Tensor[(1, 1, 240), float32]), (Tensor[(10, 24), float32], (Tensor[(10, 24), float32],)), Tensor[(1), float32], Tensor[(14, 65), float32], Tensor[(65, 10), bfloat16], (Tensor[(1, 1, 420), float32], Tensor[(1, 1, 420), float32])) span=from_string:230:15 */ = %x_88;
  let %x_90: ((Tensor[(65, 10), float32], Tensor[(65, 10), float32]), (Tensor[(1, 1, 120), float32], Tensor[(1, 1, 240), float32]), (Tensor[(10, 24), float32], (Tensor[(10, 24), float32],)), Tensor[(1), float32], Tensor[(14, 65), float32], Tensor[(65, 10), bfloat16], (Tensor[(1, 1, 420), float32], Tensor[(1, 1, 420), float32])) /* ty=((Tensor[(65, 10), float32], Tensor[(65, 10), float32]), (Tensor[(1, 1, 120), float32], Tensor[(1, 1, 240), float32]), (Tensor[(10, 24), float32], (Tensor[(10, 24), float32],)), Tensor[(1), float32], Tensor[(14, 65), float32], Tensor[(65, 10), bfloat16], (Tensor[(1, 1, 420), float32], Tensor[(1, 1, 420), float32])) span=from_string:231:16 */ = %x_89;
  let %x_911: ((Tensor[(65, 10), float32], Tensor[(65, 10), float32]), (Tensor[(1, 1, 120), float32], Tensor[(1, 1, 240), float32]), (Tensor[(10, 24), float32], (Tensor[(10, 24), float32],)), Tensor[(1), float32], Tensor[(14, 65), float32], Tensor[(65, 10), bfloat16], (Tensor[(1, 1, 420), float32], Tensor[(1, 1, 420), float32])) /* ty=((Tensor[(65, 10), float32], Tensor[(65, 10), float32]), (Tensor[(1, 1, 120), float32], Tensor[(1, 1, 240), float32]), (Tensor[(10, 24), float32], (Tensor[(10, 24), float32],)), Tensor[(1), float32], Tensor[(14, 65), float32], Tensor[(65, 10), bfloat16], (Tensor[(1, 1, 420), float32], Tensor[(1, 1, 420), float32])) span=from_string:232:15 */ = %x_90;
  let %x_92: ((Tensor[(65, 10), float32], Tensor[(65, 10), float32]), (Tensor[(1, 1, 120), float32], Tensor[(1, 1, 240), float32]), (Tensor[(10, 24), float32], (Tensor[(10, 24), float32],)), Tensor[(1), float32], Tensor[(14, 65), float32], Tensor[(65, 10), bfloat16], (Tensor[(1, 1, 420), float32], Tensor[(1, 1, 420), float32])) /* ty=((Tensor[(65, 10), float32], Tensor[(65, 10), float32]), (Tensor[(1, 1, 120), float32], Tensor[(1, 1, 240), float32]), (Tensor[(10, 24), float32], (Tensor[(10, 24), float32],)), Tensor[(1), float32], Tensor[(14, 65), float32], Tensor[(65, 10), bfloat16], (Tensor[(1, 1, 420), float32], Tensor[(1, 1, 420), float32])) span=from_string:233:15 */ = %x_911;
  let %x_93: ((Tensor[(65, 10), float32], Tensor[(65, 10), float32]), (Tensor[(1, 1, 120), float32], Tensor[(1, 1, 240), float32]), (Tensor[(10, 24), float32], (Tensor[(10, 24), float32],)), Tensor[(1), float32], Tensor[(14, 65), float32], Tensor[(65, 10), bfloat16], (Tensor[(1, 1, 420), float32], Tensor[(1, 1, 420), float32])) /* ty=((Tensor[(65, 10), float32], Tensor[(65, 10), float32]), (Tensor[(1, 1, 120), float32], Tensor[(1, 1, 240), float32]), (Tensor[(10, 24), float32], (Tensor[(10, 24), float32],)), Tensor[(1), float32], Tensor[(14, 65), float32], Tensor[(65, 10), bfloat16], (Tensor[(1, 1, 420), float32], Tensor[(1, 1, 420), float32])) span=from_string:234:15 */ = %x_92;
  let %x_94: ((Tensor[(65, 10), float32], Tensor[(65, 10), float32]), (Tensor[(1, 1, 120), float32], Tensor[(1, 1, 240), float32]), (Tensor[(10, 24), float32], (Tensor[(10, 24), float32],)), Tensor[(1), float32], Tensor[(14, 65), float32], Tensor[(65, 10), bfloat16], (Tensor[(1, 1, 420), float32], Tensor[(1, 1, 420), float32])) /* ty=((Tensor[(65, 10), float32], Tensor[(65, 10), float32]), (Tensor[(1, 1, 120), float32], Tensor[(1, 1, 240), float32]), (Tensor[(10, 24), float32], (Tensor[(10, 24), float32],)), Tensor[(1), float32], Tensor[(14, 65), float32], Tensor[(65, 10), bfloat16], (Tensor[(1, 1, 420), float32], Tensor[(1, 1, 420), float32])) span=from_string:235:3 */ = %x_93;
  %x_94
}

#[metadata]
{
  "root": 1, 
  "nodes": [
    {
      "type_key": ""
    }, 
    {
      "type_key": "Map", 
      "keys": [
        "relay.attrs.InitOpAttrs", 
        "relay.Constant"
      ], 
      "data": [2, 9]
    }, 
    {
      "type_key": "Array", 
      "data": [3, 7]
    }, 
    {
      "type_key": "relay.attrs.InitOpAttrs", 
      "attrs": {
        "dtype": "", 
        "shape": "4"
      }
    }, 
    {
      "type_key": "Array", 
      "data": [5, 6]
    }, 
    {
      "type_key": "IntImm", 
      "attrs": {
        "dtype": "int32", 
        "span": "0", 
        "value": "10"
      }
    }, 
    {
      "type_key": "IntImm", 
      "attrs": {
        "dtype": "int32", 
        "span": "0", 
        "value": "24"
      }
    }, 
    {
      "type_key": "relay.attrs.InitOpAttrs", 
      "attrs": {
        "dtype": "", 
        "shape": "8"
      }
    }, 
    {
      "type_key": "Array", 
      "data": [5, 6]
    }, 
    {
      "type_key": "Array", 
      "data": [10, 16]
    }, 
    {
      "type_key": "relay.Constant", 
      "attrs": {
        "_checked_type_": "13", 
        "data": "0", 
        "span": "0", 
        "virtual_device_": "11"
      }
    }, 
    {
      "type_key": "VirtualDevice", 
      "attrs": {
        "device_type_int": "-1", 
        "memory_scope": "12", 
        "target": "0", 
        "virtual_device_id": "-1"
      }
    }, 
    {
      "type_key": "runtime.String"
    }, 
    {
      "type_key": "relay.TensorType", 
      "attrs": {
        "dtype": "int32", 
        "shape": "14", 
        "span": "0"
      }
    }, 
    {
      "type_key": "Array", 
      "data": [15]
    }, 
    {
      "type_key": "IntImm", 
      "attrs": {
        "dtype": "int32", 
        "span": "0", 
        "value": "2"
      }
    }, 
    {
      "type_key": "relay.Constant", 
      "attrs": {
        "_checked_type_": "17", 
        "data": "1", 
        "span": "0", 
        "virtual_device_": "11"
      }
    }, 
    {
      "type_key": "relay.TensorType", 
      "attrs": {
        "dtype": "int32", 
        "shape": "18", 
        "span": "0"
      }
    }, 
    {
      "type_key": "Array", 
      "data": [19]
    }, 
    {
      "type_key": "IntImm", 
      "attrs": {
        "dtype": "int32", 
        "span": "0", 
        "value": "2"
      }
    }
  ], 
  "b64ndarrays": [
    "P6G0lvBAXt0AAAAAAAAAAAEAAAAAAAAAAQAAAAAgAQACAAAAAAAAAAgAAAAAAAAACgAAABgAAAA=", 
    "P6G0lvBAXt0AAAAAAAAAAAEAAAAAAAAAAQAAAAAgAQACAAAAAAAAAAgAAAAAAAAACgAAABgAAAA="
  ], 
  "attrs": {"tvm_version": "0.13.0"}
}