#[version = "0.0.5"]
def @main(%x0: Tensor[(10, 10), float32] /* ty=Tensor[(10, 10), float32] span=from_string:7:11 */, %x1: Tensor[(65, 10), float32] /* ty=Tensor[(65, 10), float32] span=from_string:41:13 */, %x2: Tensor[(10, 10), float32] /* ty=Tensor[(10, 10), float32] span=from_string:37:18 */, %x3: Tensor[(10), float32] /* ty=Tensor[(10), float32] span=from_string:41:22 */, %x4: Tensor[(10), float32] /* ty=Tensor[(10), float32] span=from_string:42:18 */, %x5: Tensor[(12, 10), float32] /* ty=Tensor[(12, 10), float32] span=from_string:48:18 */, %x6: Tensor[(12), float32] /* ty=Tensor[(12), float32] span=from_string:48:23 */, %x7: Tensor[(1), float32] /* ty=Tensor[(1), float32] span=from_string:48:28 */, %x8: Tensor[(24, 10), float32] /* ty=Tensor[(24, 10), float32] span=from_string:21:18 */, %x9: Tensor[(24), float32] /* ty=Tensor[(24), float32] span=from_string:21:23 */, %x10: Tensor[(1), float32] /* ty=Tensor[(1), float32] span=from_string:121:13 */, %x11: Tensor[(14, 30), float32] /* ty=Tensor[(14, 30), float32] span=from_string:89:13 */, %x12: Tensor[(42, 24), float32] /* ty=Tensor[(42, 24), float32] span=from_string:112:13 */, %x13: Tensor[(10, 24), float32] /* ty=Tensor[(10, 24), float32] span=from_string:112:19 */, %x14: Tensor[(10), float32] /* ty=Tensor[(10), float32] span=from_string:103:24 */, %x15: Tensor[(10), float32] /* ty=Tensor[(10), float32] span=from_string:112:25 */, %x16: Tensor[(1), float32] /* ty=Tensor[(1), float32] span=from_string:103:30 */, %x17: Tensor[(1), float32] /* ty=Tensor[(1), float32] span=from_string:112:31 */) -> ((Tensor[(65, 10), float32], Tensor[(65, 10), float32]), (Tensor[(1, 1, 120), float32], Tensor[(1, 1, 240), float32]), (Tensor[(10, 24), float32], (Tensor[(10, 24), float32],)), Tensor[(1), float32], Tensor[(14, 65), float32], Tensor[(65, 10), bfloat16], (Tensor[(1, 1, 420), float32], Tensor[(1, 1, 420), float32])) {
  %5 = fn (%p03: Tensor[(10, 10), float32] /* ty=Tensor[(10, 10), float32] span=from_string:5:9 */, Primitive=1) -> Tensor[(10, 10), float32] {
    %4 = zeros_like(%p03) /* ty=Tensor[(10, 10), float32] span=from_string:5:15 */;
    add(%p03, %4) /* ty=Tensor[(10, 10), float32] span=from_string:4:5 */
  } /* ty=fn (Tensor[(10, 10), float32]) -> Tensor[(10, 10), float32] span=from_string:7:8 */;
  %6 = %5(%x0) /* ty=Tensor[(10, 10), float32] span=from_string:41:18 */;
  %7 = fn (%p02: Tensor[(10, 10), float32] /* ty=Tensor[(10, 10), float32] span=from_string:10:18 */, Primitive=1) -> Tensor[(10, 10), float32] {
    %2 = nn.relu(%p02) /* ty=Tensor[(10, 10), float32] span=from_string:11:14 */;
    %3 = add(%2, 1f /* ty=float32 span=from_string:11:20 */) /* ty=Tensor[(10, 10), float32] span=from_string:13:9 */;
    add(%3, %3) /* ty=Tensor[(10, 10), float32] span=from_string:9:5 */
  } /* ty=fn (Tensor[(10, 10), float32]) -> Tensor[(10, 10), float32] span=from_string:15:9 */;
  %8 = %7(%6) /* ty=Tensor[(10, 10), float32] span=from_string:48:13 */;
  %9 = fn (%p01: Tensor[(10, 10), float32] /* ty=Tensor[(10, 10), float32] span=from_string:17:19 */, %p1: Tensor[(24, 10), float32] /* ty=Tensor[(24, 10), float32] span=from_string:17:25 */, %p2: Tensor[(24), float32] /* ty=Tensor[(24), float32] span=from_string:18:18 */, %p3: Tensor[(1), float32] /* ty=Tensor[(1), float32] span=from_string:19:19 */, Primitive=1) -> Tensor[(10, 24), float32] {
    %0 = nn.dense(%p01, %p1, units=None) /* ty=Tensor[(10, 24), float32] span=from_string:18:14 */;
    %1 = add(%0, %p2) /* ty=Tensor[(10, 24), float32] span=from_string:19:15 */;
    multiply(%1, %p3) /* ty=Tensor[(10, 24), float32] span=from_string:17:5 */
  } /* ty=fn (Tensor[(10, 10), float32], Tensor[(24, 10), float32], Tensor[(24), float32], Tensor[(1), float32]) -> Tensor[(10, 24), float32] span=from_string:21:9 */;
  %10 = %9(%8, %x8, %x9, %x10) /* ty=Tensor[(10, 24), float32] span=from_string:75:13 */;
  %11 = fn (%p0: Tensor[(10, 24), float32] /* ty=Tensor[(10, 24), float32] span=from_string:23:20 */, Primitive=1) -> Tensor[(10, 24), float32] {
    multiply(%p0, %p0) /* ty=Tensor[(10, 24), float32] span=from_string:23:6 */
  } /* ty=fn (Tensor[(10, 24), float32]) -> Tensor[(10, 24), float32] span=from_string:25:99 */;
  let %x18: Tensor[(10, 24), float32] /* ty=Tensor[(10, 24), float32] span=from_string:120:10 */ = %11(%10) /* ty=Tensor[(10, 24), float32] span=from_string:25:99 */;
  %12 = fn (%p04: Tensor[(10, 24), float32] /* ty=Tensor[(10, 24), float32] span=from_string:27:15 */, Primitive=1) -> Tensor[(10, 24), float32] {
    ones_like(%p04) /* ty=Tensor[(10, 24), float32] span=from_string:27:5 */
  } /* ty=fn (Tensor[(10, 24), float32]) -> Tensor[(10, 24), float32] span=from_string:29:99 */;
  let %x19: Tensor[(10, 24), float32] /* ty=Tensor[(10, 24), float32] span=from_string:69:13 */ = %12(%x18) /* ty=Tensor[(10, 24), float32] span=from_string:29:99 */;
  %14 = fn (%p05: Tensor[(65, 10), float32] /* ty=Tensor[(65, 10), float32] span=from_string:31:20 */, %p11: Tensor[(10, 10), float32] /* ty=Tensor[(10, 10), float32] span=from_string:31:26 */, %p21: Tensor[(10), float32] /* ty=Tensor[(10), float32] span=from_string:32:14 */, Primitive=1) -> Tensor[(65, 10), float32] {
    %13 = nn.dense(%p05, %p11, units=None) /* ty=Tensor[(65, 10), float32] span=from_string:32:9 */;
    add(%13, %p21) /* ty=Tensor[(65, 10), float32] span=from_string:31:5 */
  } /* ty=fn (Tensor[(65, 10), float32], Tensor[(10, 10), float32], Tensor[(10), float32]) -> Tensor[(65, 10), float32] span=from_string:41:9 */;
  %15 = fn (%p07: Tensor[(65, 10), float32] /* ty=Tensor[(65, 10), float32] span=from_string:35:14 */, %p13: Tensor[(10, 10), float32] /* ty=Tensor[(10, 10), float32] span=from_string:35:20 */, Primitive=1) -> Tensor[(65, 10), float32] {
    nn.dense(%p07, %p13, units=None) /* ty=Tensor[(65, 10), float32] span=from_string:35:5 */
  } /* ty=fn (Tensor[(65, 10), float32], Tensor[(10, 10), float32]) -> Tensor[(65, 10), float32] span=from_string:37:9 */;
  %16 = %15(%x1, %x2) /* ty=Tensor[(65, 10), float32] span=from_string:90:13 */;
  %17 = fn (%p06: Tensor[(65, 10), float32] /* ty=Tensor[(65, 10), float32] span=from_string:39:9 */, %p12: Tensor[(10), float32] /* ty=Tensor[(10), float32] span=from_string:39:15 */, Primitive=1) -> Tensor[(65, 10), float32] {
    add(%p06, %p12) /* ty=Tensor[(65, 10), float32] span=from_string:39:5 */
  } /* ty=fn (Tensor[(65, 10), float32], Tensor[(10), float32]) -> Tensor[(65, 10), float32] span=from_string:42:9 */;
  %18 = %14(%x1, %6, %x3) /* ty=Tensor[(65, 10), float32] span=from_string:118:10 */;
  %19 = %17(%16, %x4) /* ty=Tensor[(65, 10), float32] span=from_string:118:15 */;
  %22 = fn (%p09: Tensor[(10, 10), float32] /* ty=Tensor[(10, 10), float32] span=from_string:44:20 */, %p14: Tensor[(12, 10), float32] /* ty=Tensor[(12, 10), float32] span=from_string:44:26 */, %p22: Tensor[(12), float32] /* ty=Tensor[(12), float32] span=from_string:45:20 */, %p31: Tensor[(1), float32] /* ty=Tensor[(1), float32] span=from_string:46:20 */, Primitive=1) -> Tensor[(10, 12), float32] {
    %20 = nn.dense(%p09, %p14, units=None) /* ty=Tensor[(10, 12), float32] span=from_string:45:15 */;
    %21 = add(%20, %p22) /* ty=Tensor[(10, 12), float32] span=from_string:46:15 */;
    multiply(%21, %p31) /* ty=Tensor[(10, 12), float32] span=from_string:44:5 */
  } /* ty=fn (Tensor[(10, 10), float32], Tensor[(12, 10), float32], Tensor[(12), float32], Tensor[(1), float32]) -> Tensor[(10, 12), float32] span=from_string:48:9 */;
  %23 = %22(%8, %x5, %x6, %x7) /* ty=Tensor[(10, 12), float32] span=from_string:55:13 */;
  %24 = fn (%p08: Tensor[(10, 12), float32] /* ty=Tensor[(10, 12), float32] span=from_string:50:13 */, Primitive=1, relay.reshape_only=1) -> Tensor[(1, 1, 120), float32] {
    reshape(%p08, newshape=[1, 1, 120]) /* ty=Tensor[(1, 1, 120), float32] span=from_string:50:5 */
  } /* ty=fn (Tensor[(10, 12), float32]) -> Tensor[(1, 1, 120), float32] span=from_string:55:9 */;
  %25 = fn (%p010: Tensor[(10, 24), float32] /* ty=Tensor[(10, 24), float32] span=from_string:53:13 */, Primitive=1, relay.reshape_only=1) -> Tensor[(1, 1, 240), float32] {
    reshape(%p010, newshape=[1, 1, 240]) /* ty=Tensor[(1, 1, 240), float32] span=from_string:53:5 */
  } /* ty=fn (Tensor[(10, 24), float32]) -> Tensor[(1, 1, 240), float32] span=from_string:56:9 */;
  %26 = %24(%23) /* ty=Tensor[(1, 1, 120), float32] span=from_string:119:10 */;
  %27 = %25(%10) /* ty=Tensor[(1, 1, 240), float32] span=from_string:119:15 */;
  %30 = fn (%p013: Tensor[(10, 24), float32] /* ty=Tensor[(10, 24), float32] span=from_string:58:15 */, %p17: Tensor[(10, 24), float32] /* ty=Tensor[(10, 24), float32] span=from_string:58:22 */, Primitive=1) -> Tensor[(10, 24), float32] {
    multiply(%p013, %p17) /* ty=Tensor[(10, 24), float32] span=from_string:58:6 */
  } /* ty=fn (Tensor[(10, 24), float32], Tensor[(10, 24), float32]) -> Tensor[(10, 24), float32] span=from_string:60:9 */;
  %31 = %30(%x19, %10) /* ty=Tensor[(10, 24), float32] span=from_string:103:19 */;
  %32 = fn (%p012: Tensor[(10, 24), float32] /* ty=Tensor[(10, 24), float32] span=from_string:62:23 */, %p16: Tensor[(10, 24), float32] /* ty=Tensor[(10, 24), float32] span=from_string:62:30 */, Primitive=1) -> Tensor[(10, 24), float32] {
    collapse_sum_like(%p012, %p16) /* ty=Tensor[(10, 24), float32] span=from_string:62:5 */
  } /* ty=fn (Tensor[(10, 24), float32], Tensor[(10, 24), float32]) -> Tensor[(10, 24), float32] span=from_string:68:9 */;
  %34 = fn (%p014: Tensor[(10, 24), float32] /* ty=Tensor[(10, 24), float32] span=from_string:65:21 */, %p18: Tensor[(10, 24), float32] /* ty=Tensor[(10, 24), float32] span=from_string:66:28 */, Primitive=1) -> Tensor[(10, 24), float32] {
    %33 = multiply(%p014, %p18) /* ty=Tensor[(10, 24), float32] span=from_string:66:23 */;
    collapse_sum_like(%33, %p18) /* ty=Tensor[(10, 24), float32] span=from_string:65:5 */
  } /* ty=fn (Tensor[(10, 24), float32], Tensor[(10, 24), float32]) -> Tensor[(10, 24), float32] span=from_string:69:9 */;
  %35 = %32(%31, %10) /* ty=Tensor[(10, 24), float32] span=from_string:75:18 */;
  %36 = %34(%x19, %10) /* ty=Tensor[(10, 24), float32] span=from_string:75:23 */;
  %37 = fn (%p011: Tensor[(10, 24), float32] /* ty=Tensor[(10, 24), float32] span=from_string:71:22 */, %p15: Tensor[(10, 24), float32] /* ty=Tensor[(10, 24), float32] span=from_string:72:20 */, %p23: Tensor[(10, 24), float32] /* ty=Tensor[(10, 24), float32] span=from_string:73:14 */, Primitive=1) -> Tensor[(10, 24), float32] {
    %28 = zeros_like(%p011) /* ty=Tensor[(10, 24), float32] span=from_string:72:15 */;
    %29 = add(%28, %p15) /* ty=Tensor[(10, 24), float32] span=from_string:73:9 */;
    add(%29, %p23) /* ty=Tensor[(10, 24), float32] span=from_string:71:5 */
  } /* ty=fn (Tensor[(10, 24), float32], Tensor[(10, 24), float32], Tensor[(10, 24), float32]) -> Tensor[(10, 24), float32] span=from_string:75:9 */;
  %38 = %37(%10, %35, %36) /* ty=Tensor[(10, 24), float32] span=from_string:76:10 */;
  %39 = (%38,) /* ty=(Tensor[(10, 24), float32],) span=from_string:120:16 */;
  %41 = fn (%p015: Tensor[(1), float32] /* ty=Tensor[(1), float32] span=from_string:79:9 */, Primitive=1) -> Tensor[(1), float32] {
    %40 = ones(shape=[1], dtype="float32") /* ty=Tensor[(1), float32] span=from_string:79:16 */;
    add(%p015, %40) /* ty=Tensor[(1), float32] span=from_string:78:5 */
  } /* ty=fn (Tensor[(1), float32]) -> Tensor[(1), float32] span=from_string:121:9 */;
  %43 = fn (%p017: Tensor[(14, 30), float32] /* ty=Tensor[(14, 30), float32] span=from_string:82:17 */, Primitive=1) -> Tensor[(14, 10), float32] {
    %42 = split(%p017, indices_or_sections=3, axis=1) /* ty=(Tensor[(14, 10), float32], Tensor[(14, 10), float32], Tensor[(14, 10), float32]) span=from_string:83:5 */;
    %42.0 /* ty=Tensor[(14, 10), float32] span=from_string:82:5 */
  } /* ty=fn (Tensor[(14, 30), float32]) -> Tensor[(14, 10), float32] span=from_string:89:9 */;
  %45 = fn (%p018: Tensor[(65, 10), float32] /* ty=Tensor[(65, 10), float32] span=from_string:87:9 */, Primitive=1) -> Tensor[(65, 10), float32] {
    %44 = ones_like(%p018) /* ty=Tensor[(65, 10), float32] span=from_string:87:16 */;
    add(%p018, %44) /* ty=Tensor[(65, 10), float32] span=from_string:86:5 */
  } /* ty=fn (Tensor[(65, 10), float32]) -> Tensor[(65, 10), float32] span=from_string:90:9 */;
  %46 = %43(%x11) /* ty=Tensor[(14, 10), float32] span=from_string:122:13 */;
  %47 = %45(%16) /* ty=Tensor[(65, 10), float32] span=from_string:123:13 */;
  %48 = fn (%p016: Tensor[(14, 10), float32] /* ty=Tensor[(14, 10), float32] span=from_string:92:14 */, %p19: Tensor[(65, 10), float32] /* ty=Tensor[(65, 10), float32] span=from_string:92:21 */, Primitive=1) -> Tensor[(14, 65), float32] {
    nn.dense(%p016, %p19, units=None) /* ty=Tensor[(14, 65), float32] span=from_string:92:5 */
  } /* ty=fn (Tensor[(14, 10), float32], Tensor[(65, 10), float32]) -> Tensor[(14, 65), float32] span=from_string:122:9 */;
  %50 = fn (%p019: Tensor[(65, 10), float32] /* ty=Tensor[(65, 10), float32] span=from_string:95:16 */, Primitive=1) -> Tensor[(65, 10), bfloat16] {
    %49 = cast(%p019, dtype="bfloat16") /* ty=Tensor[(65, 10), bfloat16] span=from_string:96:10 */;
    clip(%49, a_min=-0.2f, a_max=0.4f) /* ty=Tensor[(65, 10), bfloat16] span=from_string:95:5 */
  } /* ty=fn (Tensor[(65, 10), float32]) -> Tensor[(65, 10), bfloat16] span=from_string:123:9 */;
  %53 = fn (%p021: Tensor[(42, 24), float32] /* ty=Tensor[(42, 24), float32] span=from_string:99:20 */, %p110: Tensor[(10, 24), float32] /* ty=Tensor[(10, 24), float32] span=from_string:99:27 */, %p24: Tensor[(10), float32] /* ty=Tensor[(10), float32] span=from_string:100:20 */, %p32: Tensor[(1), float32] /* ty=Tensor[(1), float32] span=from_string:101:20 */, Primitive=1) -> Tensor[(42, 10), float32] {
    %51 = nn.dense(%p021, %p110, units=None) /* ty=Tensor[(42, 10), float32] span=from_string:100:15 */;
    %52 = add(%51, %p24) /* ty=Tensor[(42, 10), float32] span=from_string:101:15 */;
    multiply(%52, %p32) /* ty=Tensor[(42, 10), float32] span=from_string:99:5 */
  } /* ty=fn (Tensor[(42, 24), float32], Tensor[(10, 24), float32], Tensor[(10), float32], Tensor[(1), float32]) -> Tensor[(42, 10), float32] span=from_string:103:9 */;
  %54 = %53(%x12, %31, %x14, %x16) /* ty=Tensor[(42, 10), float32] span=from_string:116:13 */;
  %55 = fn (%p020: Tensor[(42, 10), float32] /* ty=Tensor[(42, 10), float32] span=from_string:105:13 */, Primitive=1, relay.reshape_only=1) -> Tensor[(1, 1, 420), float32] {
    reshape(%p020, newshape=[1, 1, -1]) /* ty=Tensor[(1, 1, 420), float32] span=from_string:105:5 */
  } /* ty=fn (Tensor[(42, 10), float32]) -> Tensor[(1, 1, 420), float32] span=from_string:116:9 */;
  %58 = fn (%p023: Tensor[(42, 24), float32] /* ty=Tensor[(42, 24), float32] span=from_string:108:20 */, %p111: Tensor[(10, 24), float32] /* ty=Tensor[(10, 24), float32] span=from_string:108:27 */, %p25: Tensor[(10), float32] /* ty=Tensor[(10), float32] span=from_string:109:20 */, %p33: Tensor[(1), float32] /* ty=Tensor[(1), float32] span=from_string:110:20 */, Primitive=1) -> Tensor[(42, 10), float32] {
    %56 = nn.dense(%p023, %p111, units=None) /* ty=Tensor[(42, 10), float32] span=from_string:109:15 */;
    %57 = add(%56, %p25) /* ty=Tensor[(42, 10), float32] span=from_string:110:15 */;
    multiply(%57, %p33) /* ty=Tensor[(42, 10), float32] span=from_string:108:5 */
  } /* ty=fn (Tensor[(42, 24), float32], Tensor[(10, 24), float32], Tensor[(10), float32], Tensor[(1), float32]) -> Tensor[(42, 10), float32] span=from_string:112:9 */;
  %59 = %58(%x12, %x13, %x15, %x17) /* ty=Tensor[(42, 10), float32] span=from_string:117:13 */;
  %60 = fn (%p022: Tensor[(42, 10), float32] /* ty=Tensor[(42, 10), float32] span=from_string:114:13 */, Primitive=1, relay.reshape_only=1) -> Tensor[(1, 1, 420), float32] {
    reshape(%p022, newshape=[1, 1, -1]) /* ty=Tensor[(1, 1, 420), float32] span=from_string:114:5 */
  } /* ty=fn (Tensor[(42, 10), float32]) -> Tensor[(1, 1, 420), float32] span=from_string:117:9 */;
  %61 = %55(%54) /* ty=Tensor[(1, 1, 420), float32] span=from_string:124:10 */;
  %62 = %60(%59) /* ty=Tensor[(1, 1, 420), float32] span=from_string:124:15 */;
  %63 = (%18, %19) /* ty=(Tensor[(65, 10), float32], Tensor[(65, 10), float32]) span=from_string:125:4 */;
  %64 = (%26, %27) /* ty=(Tensor[(1, 1, 120), float32], Tensor[(1, 1, 240), float32]) span=from_string:125:9 */;
  %65 = (%x18, %39) /* ty=(Tensor[(10, 24), float32], (Tensor[(10, 24), float32],)) span=from_string:125:14 */;
  %66 = %41(%x10) /* ty=Tensor[(1), float32] span=from_string:125:19 */;
  %67 = %48(%46, %47) /* ty=Tensor[(14, 65), float32] span=from_string:125:24 */;
  %68 = %50(%47) /* ty=Tensor[(65, 10), bfloat16] span=from_string:125:29 */;
  %69 = (%61, %62) /* ty=(Tensor[(1, 1, 420), float32], Tensor[(1, 1, 420), float32]) span=from_string:125:34 */;
  (%63, %64, %65, %66, %67, %68, %69) /* ty=((Tensor[(65, 10), float32], Tensor[(65, 10), float32]), (Tensor[(1, 1, 120), float32], Tensor[(1, 1, 240), float32]), (Tensor[(10, 24), float32], (Tensor[(10, 24), float32],)), Tensor[(1), float32], Tensor[(14, 65), float32], Tensor[(65, 10), bfloat16], (Tensor[(1, 1, 420), float32], Tensor[(1, 1, 420), float32])) span=from_string:125:3 */
}
