#[version = "0.0.5"]
def @main(%x0: Tensor[(10, 10), float32] /* ty=Tensor[(10, 10), float32] span=from_string:4:12 */, %x1: Tensor[(65, 10), float32] /* ty=Tensor[(65, 10), float32] span=from_string:6:17 */, %x2: Tensor[(10, 10), float32] /* ty=Tensor[(10, 10), float32] span=from_string:6:22 */, %x3: Tensor[(10), float32] /* ty=Tensor[(10), float32] span=from_string:7:16 */, %x4: Tensor[(10), float32] /* ty=Tensor[(10), float32] span=from_string:8:16 */, %x5: Tensor[(12, 10), float32] /* ty=Tensor[(12, 10), float32] span=from_string:14:23 */, %x6: Tensor[(12), float32] /* ty=Tensor[(12), float32] span=from_string:15:18 */, %x7: Tensor[(1), float32] /* ty=Tensor[(1), float32] span=from_string:16:24 */, %x8: Tensor[(24, 10), float32] /* ty=Tensor[(24, 10), float32] span=from_string:17:23 */, %x9: Tensor[(24), float32] /* ty=Tensor[(24), float32] span=from_string:18:18 */, %x10: Tensor[(1), float32] /* ty=Tensor[(1), float32] span=from_string:49:13 */, %x11: Tensor[(14, 30), float32] /* ty=Tensor[(14, 30), float32] span=from_string:33:15 */, %x12: Tensor[(42, 24), float32] /* ty=Tensor[(42, 24), float32] span=from_string:41:18 */, %x13: Tensor[(10, 24), float32] /* ty=Tensor[(10, 24), float32] span=from_string:41:24 */, %x14: Tensor[(10), float32] /* ty=Tensor[(10), float32] span=from_string:39:18 */, %x15: Tensor[(10), float32] /* ty=Tensor[(10), float32] span=from_string:42:18 */, %x16: Tensor[(1), float32] /* ty=Tensor[(1), float32] span=from_string:40:24 */, %x17: Tensor[(1), float32] /* ty=Tensor[(1), float32] span=from_string:43:24 */) -> ((Tensor[(65, 10), float32], Tensor[(65, 10), float32]), (Tensor[(1, 1, 120), float32], Tensor[(1, 1, 240), float32]), (Tensor[(10, 24), float32], (Tensor[(10, 24), float32],)), Tensor[(1), float32], Tensor[(14, 65), float32], Tensor[(65, 10), bfloat16], (Tensor[(1, 1, 420), float32], Tensor[(1, 1, 420), float32])) {
  %0 = nn.dense(%x1, %x0, units=None) /* ty=Tensor[(65, 10), float32] span=from_string:7:12 */;
  %1 = nn.dense(%x1, %x2, units=None) /* ty=Tensor[(65, 10), float32] span=from_string:36:13 */;
  %2 = add(%0, %x3) /* ty=Tensor[(65, 10), float32] span=from_string:46:10 */;
  %3 = add(%1, %x4) /* ty=Tensor[(65, 10), float32] span=from_string:46:14 */;
  %4 = nn.relu(%x0) /* ty=Tensor[(10, 10), float32] span=from_string:11:12 */;
  %5 = nn.relu(%x0) /* ty=Tensor[(10, 10), float32] span=from_string:12:12 */;
  %6 = add(%4, 1f /* ty=float32 span=from_string:11:18 */) /* ty=Tensor[(10, 10), float32] span=from_string:13:13 */;
  %7 = add(%5, 1f /* ty=float32 span=from_string:12:18 */) /* ty=Tensor[(10, 10), float32] span=from_string:13:17 */;
  %8 = add(%6, %7) /* ty=Tensor[(10, 10), float32] span=from_string:17:18 */;
  %9 = nn.dense(%8, %x5, units=None) /* ty=Tensor[(10, 12), float32] span=from_string:15:13 */;
  %10 = add(%9, %x6) /* ty=Tensor[(10, 12), float32] span=from_string:16:19 */;
  %11 = multiply(%10, %x7) /* ty=Tensor[(10, 12), float32] span=from_string:20:17 */;
  %12 = nn.dense(%8, %x8, units=None) /* ty=Tensor[(10, 24), float32] span=from_string:18:13 */;
  %13 = add(%12, %x9) /* ty=Tensor[(10, 24), float32] span=from_string:19:19 */;
  %14 = multiply(%13, %x10) /* ty=Tensor[(10, 24), float32] span=from_string:29:32 */;
  %15 = reshape(%11, newshape=[1, 1, 120]) /* ty=Tensor[(1, 1, 120), float32] span=from_string:47:10 */;
  %16 = reshape(%14, newshape=[1, 1, 240]) /* ty=Tensor[(1, 1, 240), float32] span=from_string:47:15 */;
  %17 = ones(shape=[10, 24], dtype="float32") /* ty=Tensor[(10, 24), float32] */;
  %18 = multiply(%17, %14) /* ty=Tensor[(10, 24), float32] span=from_string:38:24 */;
  %19 = multiply(%17, %14) /* ty=Tensor[(10, 24), float32] span=from_string:29:27 */;
  %20 = collapse_sum_to(%18, meta[relay.Constant][0] /* ty=Tensor[(2), int32] */, meta[relay.attrs.InitOpAttrs][0]) /* ty=Tensor[(10, 24), float32] */;
  %21 = collapse_sum_to(%19, meta[relay.Constant][1] /* ty=Tensor[(2), int32] */, meta[relay.attrs.InitOpAttrs][1]) /* ty=Tensor[(10, 24), float32] */;
  %22 = add(%20, %21) /* ty=Tensor[(10, 24), float32] span=from_string:31:10 */;
  %23 = multiply(%14, %14) /* ty=Tensor[(10, 24), float32] span=from_string:48:10 */;
  %24 = (%22,) /* ty=(Tensor[(10, 24), float32],) span=from_string:48:15 */;
  %25 = split(%x11, indices_or_sections=3, axis=1) /* ty=(Tensor[(14, 10), float32], Tensor[(14, 10), float32], Tensor[(14, 10), float32]) span=from_string:35:9 */;
  %26 = %25.0 /* ty=Tensor[(14, 10), float32] span=from_string:50:18 */;
  %27 = add(%1, 1f /* ty=float32 */) /* ty=Tensor[(65, 10), float32] span=from_string:50:23 */;
  %28 = cast(%27, dtype="bfloat16") /* ty=Tensor[(65, 10), bfloat16] span=from_string:51:14 */;
  %29 = nn.dense(%x12, %18, units=None) /* ty=Tensor[(42, 10), float32] span=from_string:39:13 */;
  %30 = add(%29, %x14) /* ty=Tensor[(42, 10), float32] span=from_string:40:19 */;
  %31 = multiply(%30, %x16) /* ty=Tensor[(42, 10), float32] span=from_string:44:17 */;
  %32 = nn.dense(%x12, %x13, units=None) /* ty=Tensor[(42, 10), float32] span=from_string:42:13 */;
  %33 = add(%32, %x15) /* ty=Tensor[(42, 10), float32] span=from_string:43:19 */;
  %34 = multiply(%33, %x17) /* ty=Tensor[(42, 10), float32] span=from_string:45:17 */;
  %35 = reshape(%31, newshape=[1, 1, -1]) /* ty=Tensor[(1, 1, 420), float32] span=from_string:52:10 */;
  %36 = reshape(%34, newshape=[1, 1, -1]) /* ty=Tensor[(1, 1, 420), float32] span=from_string:52:15 */;
  %37 = (%2, %3) /* ty=(Tensor[(65, 10), float32], Tensor[(65, 10), float32]) span=from_string:53:4 */;
  %38 = (%15, %16) /* ty=(Tensor[(1, 1, 120), float32], Tensor[(1, 1, 240), float32]) span=from_string:53:9 */;
  %39 = (%23, %24) /* ty=(Tensor[(10, 24), float32], (Tensor[(10, 24), float32],)) span=from_string:53:14 */;
  %40 = add(%x10, 1f /* ty=float32 */) /* ty=Tensor[(1), float32] span=from_string:53:19 */;
  %41 = nn.dense(%26, %27, units=None) /* ty=Tensor[(14, 65), float32] span=from_string:53:24 */;
  %42 = clip(%28, a_min=-0.2f, a_max=0.4f) /* ty=Tensor[(65, 10), bfloat16] span=from_string:53:29 */;
  %43 = (%35, %36) /* ty=(Tensor[(1, 1, 420), float32], Tensor[(1, 1, 420), float32]) span=from_string:53:34 */;
  (%37, %38, %39, %40, %41, %42, %43) /* ty=((Tensor[(65, 10), float32], Tensor[(65, 10), float32]), (Tensor[(1, 1, 120), float32], Tensor[(1, 1, 240), float32]), (Tensor[(10, 24), float32], (Tensor[(10, 24), float32],)), Tensor[(1), float32], Tensor[(14, 65), float32], Tensor[(65, 10), bfloat16], (Tensor[(1, 1, 420), float32], Tensor[(1, 1, 420), float32])) span=from_string:3:3 */
}

#[metadata]
{
  "root": 1, 
  "nodes": [
    {
      "type_key": ""
    }, 
    {
      "type_key": "Map", 
      "keys": [
        "relay.attrs.InitOpAttrs", 
        "relay.Constant"
      ], 
      "data": [2, 9]
    }, 
    {
      "type_key": "Array", 
      "data": [3, 7]
    }, 
    {
      "type_key": "relay.attrs.InitOpAttrs", 
      "attrs": {
        "dtype": "", 
        "shape": "4"
      }
    }, 
    {
      "type_key": "Array", 
      "data": [5, 6]
    }, 
    {
      "type_key": "IntImm", 
      "attrs": {
        "dtype": "int32", 
        "span": "0", 
        "value": "10"
      }
    }, 
    {
      "type_key": "IntImm", 
      "attrs": {
        "dtype": "int32", 
        "span": "0", 
        "value": "24"
      }
    }, 
    {
      "type_key": "relay.attrs.InitOpAttrs", 
      "attrs": {
        "dtype": "", 
        "shape": "8"
      }
    }, 
    {
      "type_key": "Array", 
      "data": [5, 6]
    }, 
    {
      "type_key": "Array", 
      "data": [10, 16]
    }, 
    {
      "type_key": "relay.Constant", 
      "attrs": {
        "_checked_type_": "13", 
        "data": "0", 
        "span": "0", 
        "virtual_device_": "11"
      }
    }, 
    {
      "type_key": "VirtualDevice", 
      "attrs": {
        "device_type_int": "-1", 
        "memory_scope": "12", 
        "target": "0", 
        "virtual_device_id": "-1"
      }
    }, 
    {
      "type_key": "runtime.String"
    }, 
    {
      "type_key": "relay.TensorType", 
      "attrs": {
        "dtype": "int32", 
        "shape": "14", 
        "span": "0"
      }
    }, 
    {
      "type_key": "Array", 
      "data": [15]
    }, 
    {
      "type_key": "IntImm", 
      "attrs": {
        "dtype": "int32", 
        "span": "0", 
        "value": "2"
      }
    }, 
    {
      "type_key": "relay.Constant", 
      "attrs": {
        "_checked_type_": "17", 
        "data": "1", 
        "span": "0", 
        "virtual_device_": "11"
      }
    }, 
    {
      "type_key": "relay.TensorType", 
      "attrs": {
        "dtype": "int32", 
        "shape": "18", 
        "span": "0"
      }
    }, 
    {
      "type_key": "Array", 
      "data": [19]
    }, 
    {
      "type_key": "IntImm", 
      "attrs": {
        "dtype": "int32", 
        "span": "0", 
        "value": "2"
      }
    }
  ], 
  "b64ndarrays": [
    "P6G0lvBAXt0AAAAAAAAAAAEAAAAAAAAAAQAAAAAgAQACAAAAAAAAAAgAAAAAAAAACgAAABgAAAA=", 
    "P6G0lvBAXt0AAAAAAAAAAAEAAAAAAAAAAQAAAAAgAQACAAAAAAAAAAgAAAAAAAAACgAAABgAAAA="
  ], 
  "attrs": {"tvm_version": "0.13.0"}
}