#[version = "0.0.5"]
def @main(%x0: Tensor[(10, 10), float32] /* ty=Tensor[(10, 10), float32] span=from_string:10:11 */, %x1: Tensor[(65, 10), float32] /* ty=Tensor[(65, 10), float32] span=from_string:21:11 */, %x2: Tensor[(10, 10), float32] /* ty=Tensor[(10, 10), float32] span=from_string:21:16 */, %x3: Tensor[(10), float32] /* ty=Tensor[(10), float32] span=from_string:25:16 */, %x4: Tensor[(10), float32] /* ty=Tensor[(10), float32] span=from_string:26:16 */, %x5: Tensor[(12, 10), float32] /* ty=Tensor[(12, 10), float32] span=from_string:50:18 */, %x6: Tensor[(12), float32] /* ty=Tensor[(12), float32] span=from_string:54:18 */, %x7: Tensor[(1), float32] /* ty=Tensor[(1), float32] span=from_string:58:18 */, %x8: Tensor[(24, 10), float32] /* ty=Tensor[(24, 10), float32] span=from_string:65:18 */, %x9: Tensor[(24), float32] /* ty=Tensor[(24), float32] span=from_string:69:18 */, %x10: Tensor[(1), float32] /* ty=Tensor[(1), float32] span=from_string:181:13 */, %x11: Tensor[(14, 30), float32] /* ty=Tensor[(14, 30), float32] span=from_string:126:13 */, %x12: Tensor[(42, 24), float32] /* ty=Tensor[(42, 24), float32] span=from_string:164:13 */, %x13: Tensor[(10, 24), float32] /* ty=Tensor[(10, 24), float32] span=from_string:164:19 */, %x14: Tensor[(10), float32] /* ty=Tensor[(10), float32] span=from_string:153:18 */, %x15: Tensor[(10), float32] /* ty=Tensor[(10), float32] span=from_string:168:18 */, %x16: Tensor[(1), float32] /* ty=Tensor[(1), float32] span=from_string:157:18 */, %x17: Tensor[(1), float32] /* ty=Tensor[(1), float32] span=from_string:172:18 */) -> ((Tensor[(65, 10), float32], Tensor[(65, 10), float32]), (Tensor[(1, 1, 120), float32], Tensor[(1, 1, 240), float32]), (Tensor[(10, 24), float32], (Tensor[(10, 24), float32],)), Tensor[(1), float32], Tensor[(14, 65), float32], Tensor[(65, 10), bfloat16], (Tensor[(1, 1, 420), float32], Tensor[(1, 1, 420), float32])) {
  %0 = fn (%p0: Tensor[(10, 10), float32] /* ty=Tensor[(10, 10), float32] span=from_string:4:16 */, Primitive=1) -> Tensor[(10, 10), float32] {
    zeros(shape=[10, 10], dtype="float32") /* ty=Tensor[(10, 10), float32] */
  } /* ty=fn (Tensor[(10, 10), float32]) -> Tensor[(10, 10), float32] span=from_string:6:8 */;
  %1 = %0(%x0) /* ty=Tensor[(10, 10), float32] span=from_string:10:16 */;
  %2 = fn (%p01: Tensor[(10, 10), float32] /* ty=Tensor[(10, 10), float32] span=from_string:8:9 */, %p1: Tensor[(10, 10), float32] /* ty=Tensor[(10, 10), float32] span=from_string:8:15 */, Primitive=1) -> Tensor[(10, 10), float32] {
    add(%p01, %p1) /* ty=Tensor[(10, 10), float32] span=from_string:8:5 */
  } /* ty=fn (Tensor[(10, 10), float32], Tensor[(10, 10), float32]) -> Tensor[(10, 10), float32] span=from_string:10:8 */;
  %3 = %2(%x0, %1) /* ty=Tensor[(10, 10), float32] span=from_string:37:13 */;
  %4 = fn (%p02: Tensor[(65, 10), float32] /* ty=Tensor[(65, 10), float32] span=from_string:12:14 */, %p11: Tensor[(10, 10), float32] /* ty=Tensor[(10, 10), float32] span=from_string:12:20 */, Primitive=1) -> Tensor[(65, 10), float32] {
    nn.dense(%p02, %p11, units=None) /* ty=Tensor[(65, 10), float32] span=from_string:12:5 */
  } /* ty=fn (Tensor[(65, 10), float32], Tensor[(10, 10), float32]) -> Tensor[(65, 10), float32] span=from_string:14:8 */;
  %5 = %4(%x1, %3) /* ty=Tensor[(65, 10), float32] span=from_string:25:12 */;
  %6 = fn (%p03: Tensor[(65, 10), float32] /* ty=Tensor[(65, 10), float32] span=from_string:16:9 */, %p12: Tensor[(10), float32] /* ty=Tensor[(10), float32] span=from_string:16:15 */, Primitive=1) -> Tensor[(65, 10), float32] {
    add(%p03, %p12) /* ty=Tensor[(65, 10), float32] span=from_string:16:5 */
  } /* ty=fn (Tensor[(65, 10), float32], Tensor[(10), float32]) -> Tensor[(65, 10), float32] span=from_string:25:9 */;
  %7 = fn (%p04: Tensor[(65, 10), float32] /* ty=Tensor[(65, 10), float32] span=from_string:19:14 */, %p13: Tensor[(10, 10), float32] /* ty=Tensor[(10, 10), float32] span=from_string:19:20 */, Primitive=1) -> Tensor[(65, 10), float32] {
    nn.dense(%p04, %p13, units=None) /* ty=Tensor[(65, 10), float32] span=from_string:19:5 */
  } /* ty=fn (Tensor[(65, 10), float32], Tensor[(10, 10), float32]) -> Tensor[(65, 10), float32] span=from_string:21:8 */;
  %8 = %7(%x1, %x2) /* ty=Tensor[(65, 10), float32] span=from_string:135:13 */;
  %9 = fn (%p05: Tensor[(65, 10), float32] /* ty=Tensor[(65, 10), float32] span=from_string:23:9 */, %p14: Tensor[(10), float32] /* ty=Tensor[(10), float32] span=from_string:23:15 */, Primitive=1) -> Tensor[(65, 10), float32] {
    add(%p05, %p14) /* ty=Tensor[(65, 10), float32] span=from_string:23:5 */
  } /* ty=fn (Tensor[(65, 10), float32], Tensor[(10), float32]) -> Tensor[(65, 10), float32] span=from_string:26:9 */;
  %10 = %6(%5, %x3) /* ty=Tensor[(65, 10), float32] span=from_string:178:10 */;
  %11 = %9(%8, %x4) /* ty=Tensor[(65, 10), float32] span=from_string:178:15 */;
  %12 = fn (%p06: Tensor[(10, 10), float32] /* ty=Tensor[(10, 10), float32] span=from_string:28:13 */, Primitive=1) -> Tensor[(10, 10), float32] {
    nn.relu(%p06) /* ty=Tensor[(10, 10), float32] span=from_string:28:5 */
  } /* ty=fn (Tensor[(10, 10), float32]) -> Tensor[(10, 10), float32] span=from_string:30:9 */;
  %13 = %12(%3) /* ty=Tensor[(10, 10), float32] span=from_string:41:13 */;
  %14 = fn (%p07: Tensor[(10, 10), float32] /* ty=Tensor[(10, 10), float32] span=from_string:32:9 */, %p15: float32 /* ty=float32 span=from_string:32:15 */, Primitive=1) -> Tensor[(10, 10), float32] {
    add(%p07, %p15) /* ty=Tensor[(10, 10), float32] span=from_string:32:5 */
  } /* ty=fn (Tensor[(10, 10), float32], float32) -> Tensor[(10, 10), float32] span=from_string:41:9 */;
  %15 = fn (%p08: Tensor[(10, 10), float32] /* ty=Tensor[(10, 10), float32] span=from_string:35:13 */, Primitive=1) -> Tensor[(10, 10), float32] {
    nn.relu(%p08) /* ty=Tensor[(10, 10), float32] span=from_string:35:5 */
  } /* ty=fn (Tensor[(10, 10), float32]) -> Tensor[(10, 10), float32] span=from_string:37:9 */;
  %16 = %15(%3) /* ty=Tensor[(10, 10), float32] span=from_string:42:13 */;
  %17 = fn (%p09: Tensor[(10, 10), float32] /* ty=Tensor[(10, 10), float32] span=from_string:39:9 */, %p16: float32 /* ty=float32 span=from_string:39:15 */, Primitive=1) -> Tensor[(10, 10), float32] {
    add(%p09, %p16) /* ty=Tensor[(10, 10), float32] span=from_string:39:5 */
  } /* ty=fn (Tensor[(10, 10), float32], float32) -> Tensor[(10, 10), float32] span=from_string:42:9 */;
  %18 = %14(%13, 1f /* ty=float32 span=from_string:41:20 */) /* ty=Tensor[(10, 10), float32] span=from_string:46:13 */;
  %19 = %17(%16, 1f /* ty=float32 span=from_string:42:20 */) /* ty=Tensor[(10, 10), float32] span=from_string:46:18 */;
  %20 = fn (%p010: Tensor[(10, 10), float32] /* ty=Tensor[(10, 10), float32] span=from_string:44:9 */, %p17: Tensor[(10, 10), float32] /* ty=Tensor[(10, 10), float32] span=from_string:44:16 */, Primitive=1) -> Tensor[(10, 10), float32] {
    add(%p010, %p17) /* ty=Tensor[(10, 10), float32] span=from_string:44:5 */
  } /* ty=fn (Tensor[(10, 10), float32], Tensor[(10, 10), float32]) -> Tensor[(10, 10), float32] span=from_string:46:9 */;
  %21 = %20(%18, %19) /* ty=Tensor[(10, 10), float32] span=from_string:65:13 */;
  %22 = fn (%p011: Tensor[(10, 10), float32] /* ty=Tensor[(10, 10), float32] span=from_string:48:14 */, %p18: Tensor[(12, 10), float32] /* ty=Tensor[(12, 10), float32] span=from_string:48:21 */, Primitive=1) -> Tensor[(10, 12), float32] {
    nn.dense(%p011, %p18, units=None) /* ty=Tensor[(10, 12), float32] span=from_string:48:5 */
  } /* ty=fn (Tensor[(10, 10), float32], Tensor[(12, 10), float32]) -> Tensor[(10, 12), float32] span=from_string:50:9 */;
  %23 = %22(%21, %x5) /* ty=Tensor[(10, 12), float32] span=from_string:54:13 */;
  %24 = fn (%p012: Tensor[(10, 12), float32] /* ty=Tensor[(10, 12), float32] span=from_string:52:9 */, %p19: Tensor[(12), float32] /* ty=Tensor[(12), float32] span=from_string:52:16 */, Primitive=1) -> Tensor[(10, 12), float32] {
    add(%p012, %p19) /* ty=Tensor[(10, 12), float32] span=from_string:52:5 */
  } /* ty=fn (Tensor[(10, 12), float32], Tensor[(12), float32]) -> Tensor[(10, 12), float32] span=from_string:54:9 */;
  %25 = %24(%23, %x6) /* ty=Tensor[(10, 12), float32] span=from_string:58:13 */;
  %26 = fn (%p013: Tensor[(10, 12), float32] /* ty=Tensor[(10, 12), float32] span=from_string:56:15 */, %p110: Tensor[(1), float32] /* ty=Tensor[(1), float32] span=from_string:56:22 */, Primitive=1) -> Tensor[(10, 12), float32] {
    multiply(%p013, %p110) /* ty=Tensor[(10, 12), float32] span=from_string:56:6 */
  } /* ty=fn (Tensor[(10, 12), float32], Tensor[(1), float32]) -> Tensor[(10, 12), float32] span=from_string:58:9 */;
  %27 = %26(%25, %x7) /* ty=Tensor[(10, 12), float32] span=from_string:77:13 */;
  %28 = fn (%p014: Tensor[(10, 12), float32] /* ty=Tensor[(10, 12), float32] span=from_string:60:13 */, Primitive=1, relay.reshape_only=1) -> Tensor[(1, 1, 120), float32] {
    reshape(%p014, newshape=[1, 1, 120]) /* ty=Tensor[(1, 1, 120), float32] span=from_string:60:5 */
  } /* ty=fn (Tensor[(10, 12), float32]) -> Tensor[(1, 1, 120), float32] span=from_string:77:9 */;
  %29 = fn (%p015: Tensor[(10, 10), float32] /* ty=Tensor[(10, 10), float32] span=from_string:63:14 */, %p111: Tensor[(24, 10), float32] /* ty=Tensor[(24, 10), float32] span=from_string:63:21 */, Primitive=1) -> Tensor[(10, 24), float32] {
    nn.dense(%p015, %p111, units=None) /* ty=Tensor[(10, 24), float32] span=from_string:63:5 */
  } /* ty=fn (Tensor[(10, 10), float32], Tensor[(24, 10), float32]) -> Tensor[(10, 24), float32] span=from_string:65:9 */;
  %30 = %29(%21, %x8) /* ty=Tensor[(10, 24), float32] span=from_string:69:13 */;
  %31 = fn (%p016: Tensor[(10, 24), float32] /* ty=Tensor[(10, 24), float32] span=from_string:67:9 */, %p112: Tensor[(24), float32] /* ty=Tensor[(24), float32] span=from_string:67:16 */, Primitive=1) -> Tensor[(10, 24), float32] {
    add(%p016, %p112) /* ty=Tensor[(10, 24), float32] span=from_string:67:5 */
  } /* ty=fn (Tensor[(10, 24), float32], Tensor[(24), float32]) -> Tensor[(10, 24), float32] span=from_string:69:9 */;
  %32 = %31(%30, %x9) /* ty=Tensor[(10, 24), float32] span=from_string:73:13 */;
  %33 = fn (%p017: Tensor[(10, 24), float32] /* ty=Tensor[(10, 24), float32] span=from_string:71:15 */, %p113: Tensor[(1), float32] /* ty=Tensor[(1), float32] span=from_string:71:22 */, Primitive=1) -> Tensor[(10, 24), float32] {
    multiply(%p017, %p113) /* ty=Tensor[(10, 24), float32] span=from_string:71:6 */
  } /* ty=fn (Tensor[(10, 24), float32], Tensor[(1), float32]) -> Tensor[(10, 24), float32] span=from_string:73:9 */;
  %34 = %33(%32, %x10) /* ty=Tensor[(10, 24), float32] span=from_string:110:18 */;
  %35 = fn (%p018: Tensor[(10, 24), float32] /* ty=Tensor[(10, 24), float32] span=from_string:75:13 */, Primitive=1, relay.reshape_only=1) -> Tensor[(1, 1, 240), float32] {
    reshape(%p018, newshape=[1, 1, 240]) /* ty=Tensor[(1, 1, 240), float32] span=from_string:75:5 */
  } /* ty=fn (Tensor[(10, 24), float32]) -> Tensor[(1, 1, 240), float32] span=from_string:78:9 */;
  %36 = %28(%27) /* ty=Tensor[(1, 1, 120), float32] span=from_string:179:10 */;
  %37 = %35(%34) /* ty=Tensor[(1, 1, 240), float32] span=from_string:179:15 */;
  %38 = fn (%p019: Tensor[(10, 24), float32] /* ty=Tensor[(10, 24), float32] span=from_string:80:22 */, Primitive=1) -> Tensor[(10, 24), float32] {
    multiply(%p019, %p019) /* ty=Tensor[(10, 24), float32] span=from_string:80:6 */
  } /* ty=fn (Tensor[(10, 24), float32]) -> Tensor[(10, 24), float32] span=from_string:85:9 */;
  %39 = fn (%p020: Tensor[(10, 24), float32] /* ty=Tensor[(10, 24), float32] span=from_string:83:16 */, Primitive=1) -> Tensor[(10, 24), float32] {
    zeros(shape=[10, 24], dtype="float32") /* ty=Tensor[(10, 24), float32] */
  } /* ty=fn (Tensor[(10, 24), float32]) -> Tensor[(10, 24), float32] span=from_string:97:9 */;
  %40 = %38(%34) /* ty=Tensor[(10, 24), float32] span=from_string:180:10 */;
  %41 = fn (%p021: Tensor[(10, 24), float32] /* ty=Tensor[(10, 24), float32] span=from_string:87:15 */, Primitive=1) -> Tensor[(10, 24), float32] {
    ones(shape=[10, 24], dtype="float32") /* ty=Tensor[(10, 24), float32] */
  } /* ty=fn (Tensor[(10, 24), float32]) -> Tensor[(10, 24), float32] span=from_string:89:9 */;
  %42 = %41(%40) /* ty=Tensor[(10, 24), float32] span=from_string:105:13 */;
  %43 = fn (%p022: Tensor[(10, 24), float32] /* ty=Tensor[(10, 24), float32] span=from_string:91:15 */, %p114: Tensor[(10, 24), float32] /* ty=Tensor[(10, 24), float32] span=from_string:91:22 */, Primitive=1) -> Tensor[(10, 24), float32] {
    multiply(%p022, %p114) /* ty=Tensor[(10, 24), float32] span=from_string:91:6 */
  } /* ty=fn (Tensor[(10, 24), float32], Tensor[(10, 24), float32]) -> Tensor[(10, 24), float32] span=from_string:93:9 */;
  %44 = %43(%42, %34) /* ty=Tensor[(10, 24), float32] span=from_string:149:19 */;
  %45 = fn (%p023: Tensor[(10, 24), float32] /* ty=Tensor[(10, 24), float32] span=from_string:95:23 */, %p115: Tensor[(10, 24), float32] /* ty=Tensor[(10, 24), float32] span=from_string:95:30 */, Primitive=1) -> Tensor[(10, 24), float32] {
    collapse_sum_to(%p023, meta[relay.Constant][0] /* ty=Tensor[(2), int32] */, meta[relay.attrs.InitOpAttrs][0]) /* ty=Tensor[(10, 24), float32] */
  } /* ty=fn (Tensor[(10, 24), float32], Tensor[(10, 24), float32]) -> Tensor[(10, 24), float32] span=from_string:98:9 */;
  %46 = %39(%34) /* ty=Tensor[(10, 24), float32] span=from_string:109:13 */;
  %47 = %45(%44, %34) /* ty=Tensor[(10, 24), float32] span=from_string:109:18 */;
  %48 = fn (%p024: Tensor[(10, 24), float32] /* ty=Tensor[(10, 24), float32] span=from_string:100:9 */, %p116: Tensor[(10, 24), float32] /* ty=Tensor[(10, 24), float32] span=from_string:100:16 */, Primitive=1) -> Tensor[(10, 24), float32] {
    add(%p024, %p116) /* ty=Tensor[(10, 24), float32] span=from_string:100:5 */
  } /* ty=fn (Tensor[(10, 24), float32], Tensor[(10, 24), float32]) -> Tensor[(10, 24), float32] span=from_string:109:9 */;
  %49 = fn (%p025: Tensor[(10, 24), float32] /* ty=Tensor[(10, 24), float32] span=from_string:103:15 */, %p117: Tensor[(10, 24), float32] /* ty=Tensor[(10, 24), float32] span=from_string:103:22 */, Primitive=1) -> Tensor[(10, 24), float32] {
    multiply(%p025, %p117) /* ty=Tensor[(10, 24), float32] span=from_string:103:6 */
  } /* ty=fn (Tensor[(10, 24), float32], Tensor[(10, 24), float32]) -> Tensor[(10, 24), float32] span=from_string:105:9 */;
  %50 = %49(%42, %34) /* ty=Tensor[(10, 24), float32] span=from_string:110:13 */;
  %51 = fn (%p026: Tensor[(10, 24), float32] /* ty=Tensor[(10, 24), float32] span=from_string:107:23 */, %p118: Tensor[(10, 24), float32] /* ty=Tensor[(10, 24), float32] span=from_string:107:30 */, Primitive=1) -> Tensor[(10, 24), float32] {
    collapse_sum_to(%p026, meta[relay.Constant][1] /* ty=Tensor[(2), int32] */, meta[relay.attrs.InitOpAttrs][1]) /* ty=Tensor[(10, 24), float32] */
  } /* ty=fn (Tensor[(10, 24), float32], Tensor[(10, 24), float32]) -> Tensor[(10, 24), float32] span=from_string:110:9 */;
  %52 = %48(%46, %47) /* ty=Tensor[(10, 24), float32] span=from_string:114:13 */;
  %53 = %51(%50, %34) /* ty=Tensor[(10, 24), float32] span=from_string:114:18 */;
  %54 = fn (%p027: Tensor[(10, 24), float32] /* ty=Tensor[(10, 24), float32] span=from_string:112:9 */, %p119: Tensor[(10, 24), float32] /* ty=Tensor[(10, 24), float32] span=from_string:112:16 */, Primitive=1) -> Tensor[(10, 24), float32] {
    add(%p027, %p119) /* ty=Tensor[(10, 24), float32] span=from_string:112:5 */
  } /* ty=fn (Tensor[(10, 24), float32], Tensor[(10, 24), float32]) -> Tensor[(10, 24), float32] span=from_string:114:9 */;
  %55 = %54(%52, %53) /* ty=Tensor[(10, 24), float32] span=from_string:115:10 */;
  %56 = (%55,) /* ty=(Tensor[(10, 24), float32],) span=from_string:180:15 */;
  %57 = fn (Primitive=1) -> Tensor[(1), float32] {
    ones(shape=[1], dtype="float32") /* ty=Tensor[(1), float32] span=from_string:117:5 */
  } /* ty=fn () -> Tensor[(1), float32] span=from_string:119:9 */;
  %58 = %57() /* ty=Tensor[(1), float32] span=from_string:181:19 */;
  %59 = fn (%p028: Tensor[(1), float32] /* ty=Tensor[(1), float32] span=from_string:121:9 */, %p120: Tensor[(1), float32] /* ty=Tensor[(1), float32] span=from_string:121:16 */, Primitive=1) -> Tensor[(1), float32] {
    add(%p028, %p120) /* ty=Tensor[(1), float32] span=from_string:121:5 */
  } /* ty=fn (Tensor[(1), float32], Tensor[(1), float32]) -> Tensor[(1), float32] span=from_string:181:9 */;
  %60 = fn (%p029: Tensor[(14, 30), float32] /* ty=Tensor[(14, 30), float32] span=from_string:124:11 */, Primitive=1) -> (Tensor[(14, 10), float32], Tensor[(14, 10), float32], Tensor[(14, 10), float32]) {
    split(%p029, indices_or_sections=3, axis=1) /* ty=(Tensor[(14, 10), float32], Tensor[(14, 10), float32], Tensor[(14, 10), float32]) span=from_string:124:5 */
  } /* ty=fn (Tensor[(14, 30), float32]) -> (Tensor[(14, 10), float32], Tensor[(14, 10), float32], Tensor[(14, 10), float32]) span=from_string:126:9 */;
  %61 = %60(%x11) /* ty=(Tensor[(14, 10), float32], Tensor[(14, 10), float32], Tensor[(14, 10), float32]) span=from_string:134:9 */;
  %62 = fn (%p030: Tensor[(65, 10), float32] /* ty=Tensor[(65, 10), float32] span=from_string:128:15 */, Primitive=1) -> Tensor[(65, 10), float32] {
    ones(shape=[65, 10], dtype="float32") /* ty=Tensor[(65, 10), float32] */
  } /* ty=fn (Tensor[(65, 10), float32]) -> Tensor[(65, 10), float32] span=from_string:130:9 */;
  %63 = %62(%8) /* ty=Tensor[(65, 10), float32] span=from_string:135:17 */;
  %64 = fn (%p031: Tensor[(65, 10), float32] /* ty=Tensor[(65, 10), float32] span=from_string:132:9 */, %p121: Tensor[(65, 10), float32] /* ty=Tensor[(65, 10), float32] span=from_string:132:16 */, Primitive=1) -> Tensor[(65, 10), float32] {
    add(%p031, %p121) /* ty=Tensor[(65, 10), float32] span=from_string:132:5 */
  } /* ty=fn (Tensor[(65, 10), float32], Tensor[(65, 10), float32]) -> Tensor[(65, 10), float32] span=from_string:135:9 */;
  %65 = %61.0 /* ty=Tensor[(14, 10), float32] span=from_string:182:13 */;
  %66 = %64(%8, %63) /* ty=Tensor[(65, 10), float32] span=from_string:182:18 */;
  %67 = fn (%p032: Tensor[(14, 10), float32] /* ty=Tensor[(14, 10), float32] span=from_string:137:14 */, %p122: Tensor[(65, 10), float32] /* ty=Tensor[(65, 10), float32] span=from_string:137:21 */, Primitive=1) -> Tensor[(14, 65), float32] {
    nn.dense(%p032, %p122, units=None) /* ty=Tensor[(14, 65), float32] span=from_string:137:5 */
  } /* ty=fn (Tensor[(14, 10), float32], Tensor[(65, 10), float32]) -> Tensor[(14, 65), float32] span=from_string:182:9 */;
  %68 = fn (%p033: Tensor[(65, 10), float32] /* ty=Tensor[(65, 10), float32] span=from_string:140:10 */, Primitive=1) -> Tensor[(65, 10), bfloat16] {
    cast(%p033, dtype="bfloat16") /* ty=Tensor[(65, 10), bfloat16] span=from_string:140:5 */
  } /* ty=fn (Tensor[(65, 10), float32]) -> Tensor[(65, 10), bfloat16] span=from_string:142:9 */;
  %69 = %68(%66) /* ty=Tensor[(65, 10), bfloat16] span=from_string:183:13 */;
  %70 = fn (%p034: Tensor[(65, 10), bfloat16] /* ty=Tensor[(65, 10), bfloat16] span=from_string:144:10 */, Primitive=1) -> Tensor[(65, 10), bfloat16] {
    clip(%p034, a_min=-0.2f, a_max=0.4f) /* ty=Tensor[(65, 10), bfloat16] span=from_string:144:5 */
  } /* ty=fn (Tensor[(65, 10), bfloat16]) -> Tensor[(65, 10), bfloat16] span=from_string:183:9 */;
  %71 = fn (%p035: Tensor[(42, 24), float32] /* ty=Tensor[(42, 24), float32] span=from_string:147:14 */, %p123: Tensor[(10, 24), float32] /* ty=Tensor[(10, 24), float32] span=from_string:147:21 */, Primitive=1) -> Tensor[(42, 10), float32] {
    nn.dense(%p035, %p123, units=None) /* ty=Tensor[(42, 10), float32] span=from_string:147:5 */
  } /* ty=fn (Tensor[(42, 24), float32], Tensor[(10, 24), float32]) -> Tensor[(42, 10), float32] span=from_string:149:9 */;
  %72 = %71(%x12, %44) /* ty=Tensor[(42, 10), float32] span=from_string:153:13 */;
  %73 = fn (%p036: Tensor[(42, 10), float32] /* ty=Tensor[(42, 10), float32] span=from_string:151:9 */, %p124: Tensor[(10), float32] /* ty=Tensor[(10), float32] span=from_string:151:16 */, Primitive=1) -> Tensor[(42, 10), float32] {
    add(%p036, %p124) /* ty=Tensor[(42, 10), float32] span=from_string:151:5 */
  } /* ty=fn (Tensor[(42, 10), float32], Tensor[(10), float32]) -> Tensor[(42, 10), float32] span=from_string:153:9 */;
  %74 = %73(%72, %x14) /* ty=Tensor[(42, 10), float32] span=from_string:157:13 */;
  %75 = fn (%p037: Tensor[(42, 10), float32] /* ty=Tensor[(42, 10), float32] span=from_string:155:15 */, %p125: Tensor[(1), float32] /* ty=Tensor[(1), float32] span=from_string:155:22 */, Primitive=1) -> Tensor[(42, 10), float32] {
    multiply(%p037, %p125) /* ty=Tensor[(42, 10), float32] span=from_string:155:6 */
  } /* ty=fn (Tensor[(42, 10), float32], Tensor[(1), float32]) -> Tensor[(42, 10), float32] span=from_string:157:9 */;
  %76 = %75(%74, %x16) /* ty=Tensor[(42, 10), float32] span=from_string:176:13 */;
  %77 = fn (%p038: Tensor[(42, 10), float32] /* ty=Tensor[(42, 10), float32] span=from_string:159:13 */, Primitive=1, relay.reshape_only=1) -> Tensor[(1, 1, 420), float32] {
    reshape(%p038, newshape=[1, 1, -1]) /* ty=Tensor[(1, 1, 420), float32] span=from_string:159:5 */
  } /* ty=fn (Tensor[(42, 10), float32]) -> Tensor[(1, 1, 420), float32] span=from_string:176:9 */;
  %78 = fn (%p039: Tensor[(42, 24), float32] /* ty=Tensor[(42, 24), float32] span=from_string:162:14 */, %p126: Tensor[(10, 24), float32] /* ty=Tensor[(10, 24), float32] span=from_string:162:21 */, Primitive=1) -> Tensor[(42, 10), float32] {
    nn.dense(%p039, %p126, units=None) /* ty=Tensor[(42, 10), float32] span=from_string:162:5 */
  } /* ty=fn (Tensor[(42, 24), float32], Tensor[(10, 24), float32]) -> Tensor[(42, 10), float32] span=from_string:164:9 */;
  %79 = %78(%x12, %x13) /* ty=Tensor[(42, 10), float32] span=from_string:168:13 */;
  %80 = fn (%p040: Tensor[(42, 10), float32] /* ty=Tensor[(42, 10), float32] span=from_string:166:9 */, %p127: Tensor[(10), float32] /* ty=Tensor[(10), float32] span=from_string:166:16 */, Primitive=1) -> Tensor[(42, 10), float32] {
    add(%p040, %p127) /* ty=Tensor[(42, 10), float32] span=from_string:166:5 */
  } /* ty=fn (Tensor[(42, 10), float32], Tensor[(10), float32]) -> Tensor[(42, 10), float32] span=from_string:168:9 */;
  %81 = %80(%79, %x15) /* ty=Tensor[(42, 10), float32] span=from_string:172:13 */;
  %82 = fn (%p041: Tensor[(42, 10), float32] /* ty=Tensor[(42, 10), float32] span=from_string:170:15 */, %p128: Tensor[(1), float32] /* ty=Tensor[(1), float32] span=from_string:170:22 */, Primitive=1) -> Tensor[(42, 10), float32] {
    multiply(%p041, %p128) /* ty=Tensor[(42, 10), float32] span=from_string:170:6 */
  } /* ty=fn (Tensor[(42, 10), float32], Tensor[(1), float32]) -> Tensor[(42, 10), float32] span=from_string:172:9 */;
  %83 = %82(%81, %x17) /* ty=Tensor[(42, 10), float32] span=from_string:177:13 */;
  %84 = fn (%p042: Tensor[(42, 10), float32] /* ty=Tensor[(42, 10), float32] span=from_string:174:13 */, Primitive=1, relay.reshape_only=1) -> Tensor[(1, 1, 420), float32] {
    reshape(%p042, newshape=[1, 1, -1]) /* ty=Tensor[(1, 1, 420), float32] span=from_string:174:5 */
  } /* ty=fn (Tensor[(42, 10), float32]) -> Tensor[(1, 1, 420), float32] span=from_string:177:9 */;
  %85 = %77(%76) /* ty=Tensor[(1, 1, 420), float32] span=from_string:184:10 */;
  %86 = %84(%83) /* ty=Tensor[(1, 1, 420), float32] span=from_string:184:15 */;
  %87 = (%10, %11) /* ty=(Tensor[(65, 10), float32], Tensor[(65, 10), float32]) span=from_string:185:4 */;
  %88 = (%36, %37) /* ty=(Tensor[(1, 1, 120), float32], Tensor[(1, 1, 240), float32]) span=from_string:185:9 */;
  %89 = (%40, %56) /* ty=(Tensor[(10, 24), float32], (Tensor[(10, 24), float32],)) span=from_string:185:14 */;
  %90 = %59(%x10, %58) /* ty=Tensor[(1), float32] span=from_string:185:19 */;
  %91 = %67(%65, %66) /* ty=Tensor[(14, 65), float32] span=from_string:185:24 */;
  %92 = %70(%69) /* ty=Tensor[(65, 10), bfloat16] span=from_string:185:29 */;
  %93 = (%85, %86) /* ty=(Tensor[(1, 1, 420), float32], Tensor[(1, 1, 420), float32]) span=from_string:185:34 */;
  (%87, %88, %89, %90, %91, %92, %93) /* ty=((Tensor[(65, 10), float32], Tensor[(65, 10), float32]), (Tensor[(1, 1, 120), float32], Tensor[(1, 1, 240), float32]), (Tensor[(10, 24), float32], (Tensor[(10, 24), float32],)), Tensor[(1), float32], Tensor[(14, 65), float32], Tensor[(65, 10), bfloat16], (Tensor[(1, 1, 420), float32], Tensor[(1, 1, 420), float32])) span=from_string:3:3 */
}

#[metadata]
{
  "root": 1, 
  "nodes": [
    {
      "type_key": ""
    }, 
    {
      "type_key": "Map", 
      "keys": [
        "relay.attrs.InitOpAttrs", 
        "relay.Constant"
      ], 
      "data": [2, 9]
    }, 
    {
      "type_key": "Array", 
      "data": [3, 7]
    }, 
    {
      "type_key": "relay.attrs.InitOpAttrs", 
      "attrs": {
        "dtype": "", 
        "shape": "4"
      }
    }, 
    {
      "type_key": "Array", 
      "data": [5, 6]
    }, 
    {
      "type_key": "IntImm", 
      "attrs": {
        "dtype": "int32", 
        "span": "0", 
        "value": "10"
      }
    }, 
    {
      "type_key": "IntImm", 
      "attrs": {
        "dtype": "int32", 
        "span": "0", 
        "value": "24"
      }
    }, 
    {
      "type_key": "relay.attrs.InitOpAttrs", 
      "attrs": {
        "dtype": "", 
        "shape": "8"
      }
    }, 
    {
      "type_key": "Array", 
      "data": [5, 6]
    }, 
    {
      "type_key": "Array", 
      "data": [10, 16]
    }, 
    {
      "type_key": "relay.Constant", 
      "attrs": {
        "_checked_type_": "13", 
        "data": "0", 
        "span": "0", 
        "virtual_device_": "11"
      }
    }, 
    {
      "type_key": "VirtualDevice", 
      "attrs": {
        "device_type_int": "-1", 
        "memory_scope": "12", 
        "target": "0", 
        "virtual_device_id": "-1"
      }
    }, 
    {
      "type_key": "runtime.String"
    }, 
    {
      "type_key": "relay.TensorType", 
      "attrs": {
        "dtype": "int32", 
        "shape": "14", 
        "span": "0"
      }
    }, 
    {
      "type_key": "Array", 
      "data": [15]
    }, 
    {
      "type_key": "IntImm", 
      "attrs": {
        "dtype": "int32", 
        "span": "0", 
        "value": "2"
      }
    }, 
    {
      "type_key": "relay.Constant", 
      "attrs": {
        "_checked_type_": "17", 
        "data": "1", 
        "span": "0", 
        "virtual_device_": "11"
      }
    }, 
    {
      "type_key": "relay.TensorType", 
      "attrs": {
        "dtype": "int32", 
        "shape": "18", 
        "span": "0"
      }
    }, 
    {
      "type_key": "Array", 
      "data": [19]
    }, 
    {
      "type_key": "IntImm", 
      "attrs": {
        "dtype": "int32", 
        "span": "0", 
        "value": "2"
      }
    }
  ], 
  "b64ndarrays": [
    "P6G0lvBAXt0AAAAAAAAAAAEAAAAAAAAAAQAAAAAgAQACAAAAAAAAAAgAAAAAAAAACgAAABgAAAA=", 
    "P6G0lvBAXt0AAAAAAAAAAAEAAAAAAAAAAQAAAAAgAQACAAAAAAAAAAgAAAAAAAAACgAAABgAAAA="
  ], 
  "attrs": {"tvm_version": "0.13.0"}
}