#[version = "0.0.5"]
def @main(%x0: Tensor[(1, 3, 224, 224), int8] /* ty=Tensor[(1, 3, 224, 224), int8] span=from_string:8:11 */, %x1: Tensor[(1, 3, 224, 29), int8] /* ty=Tensor[(1, 3, 224, 29), int8] span=from_string:23:13 */, %x2: Tensor[(1, 3, 224, 74), int8] /* ty=Tensor[(1, 3, 224, 74), int8] span=from_string:31:17 */, %x3: Tensor[(1, 3, 224, 11), int8] /* ty=Tensor[(1, 3, 224, 11), int8] span=from_string:31:22 */, %x4: Tensor[(3), float32] /* ty=Tensor[(3), float32] span=from_string:53:33 */, %x5: Tensor[(3), float32] /* ty=Tensor[(3), float32] span=from_string:73:13 */, %x6: Tensor[(3), float32] /* ty=Tensor[(3), float32] span=from_string:53:23 */, %x7: Tensor[(3), float32] /* ty=Tensor[(3), float32] span=from_string:53:18 */, %x8: Tensor[(3, 224), float32] /* ty=Tensor[(3, 224), float32] span=from_string:74:17 */) -> (Tensor[(3, 224, 224), int8], Tensor[(1, 3, 224, 338), int8], Tensor[(1, 3, 224, 338), float32], Tensor[(1, 3, 224, 224), float32], Tensor[(3, 224, 224), bfloat16], Tensor[(1, 3, 224, 29), float32], Tensor[(3), float32], float32, Tensor[(3, 224, 224), float32]) {
  %0 = qnn.dequantize(%x0, 2f /* ty=float32 span=from_string:4:33 */, 0 /* ty=int32 span=from_string:4:75 */) /* ty=Tensor[(1, 3, 224, 224), float32] span=from_string:5:14 */;
  %1 = abs(%0) /* ty=Tensor[(1, 3, 224, 224), float32] span=from_string:6:18 */;
  %2 = qnn.quantize(%1, 2f /* ty=float32 span=from_string:6:24 */, 0 /* ty=int32 span=from_string:6:66 */, out_dtype="int8") /* ty=Tensor[(1, 3, 224, 224), int8] span=from_string:4:5 */;
  %3 = qnn.dequantize(%2, 2f /* ty=float32 span=from_string:10:28 */, 0 /* ty=int32 span=from_string:10:70 */) /* ty=Tensor[(1, 3, 224, 224), float32] span=from_string:10:5 */;
  %4 = squeeze(%3, axis=[0]) /* ty=Tensor[(3, 224, 224), float32] span=from_string:14:5 */;
  %5 = qnn.dequantize(%2, 0.5f /* ty=float32 span=from_string:25:35 */, 0 /* ty=int32 span=from_string:25:77 */) /* ty=Tensor[(1, 3, 224, 224), float32] span=from_string:28:12 */;
  %6 = qnn.dequantize(%x1, 1.5f /* ty=float32 span=from_string:21:30 */, 0 /* ty=int32 span=from_string:21:72 */) /* ty=Tensor[(1, 3, 224, 29), float32] span=from_string:21:5 */;
  %7 = qnn.dequantize(%x2, 2.5f /* ty=float32 span=from_string:26:35 */, 0 /* ty=int32 span=from_string:26:78 */) /* ty=Tensor[(1, 3, 224, 74), float32] span=from_string:28:21 */;
  %8 = qnn.dequantize(%x3, 3.5f /* ty=float32 span=from_string:27:35 */, 0 /* ty=int32 span=from_string:27:78 */) /* ty=Tensor[(1, 3, 224, 11), float32] span=from_string:28:26 */;
  %9 = (%5, %6, %7, %8) /* ty=(Tensor[(1, 3, 224, 224), float32], Tensor[(1, 3, 224, 29), float32], Tensor[(1, 3, 224, 74), float32], Tensor[(1, 3, 224, 11), float32]) span=from_string:29:17 */;
  %10 = concatenate(%9, axis=-1) /* ty=Tensor[(1, 3, 224, 338), float32] span=from_string:25:5 */;
  %11 = ones(shape=[1], dtype="float32") /* ty=Tensor[(1), float32] span=from_string:37:15 */;
  %12 = transpose(%3, axes=[0, 3, 1, 2]) /* ty=Tensor[(1, 224, 3, 224), float32] span=from_string:41:28 */;
  %13 = layout_transform(%12, src_layout="NCHW", dst_layout="NCHW4c") /* ty=Tensor[(1, 56, 3, 224, 4), float32] span=from_string:42:19 */;
  %14 = nn.relu(%13) /* ty=Tensor[(1, 56, 3, 224, 4), float32] span=from_string:43:28 */;
  %15 = layout_transform(%14, src_layout="NCHW4c", dst_layout="NCHW") /* ty=Tensor[(1, 224, 3, 224), float32] span=from_string:44:15 */;
  %16 = cast(%4, dtype="bfloat16") /* ty=Tensor[(3, 224, 224), bfloat16] span=from_string:48:10 */;
  %17 = nn.batch_norm(%6, %x7, %x6, %x5, %x4) /* ty=(Tensor[(1, 3, 224, 29), float32], Tensor[(3), float32], Tensor[(3), float32]) span=from_string:51:5 */;
  %18 = %17.0 /* ty=Tensor[(1, 3, 224, 29), float32] span=from_string:57:9 */;
  %19 = %17.0 /* ty=Tensor[(1, 3, 224, 29), float32] span=from_string:57:14 */;
  %20 = ones_like(%x5) /* ty=Tensor[(3), float32] span=from_string:61:16 */;
  %21 = cast(%4, dtype="int32") /* ty=Tensor[(3, 224, 224), int32] span=from_string:65:15 */;
  %22 = qnn.quantize(%4, 2f /* ty=float32 span=from_string:18:25 */, 0 /* ty=int32 span=from_string:18:68 */, out_dtype="int8") /* ty=Tensor[(3, 224, 224), int8] span=from_string:18:5 */;
  %23 = qnn.quantize(%10, 3.5f /* ty=float32 span=from_string:33:28 */, 0 /* ty=int32 span=from_string:33:71 */, out_dtype="int8") /* ty=Tensor[(1, 3, 224, 338), int8] span=from_string:33:5 */;
  %24 = multiply(%11, %10) /* ty=Tensor[(1, 3, 224, 338), float32] span=from_string:36:5 */;
  %25 = transpose(%15, axes=[0, 2, 3, 1]) /* ty=Tensor[(1, 3, 224, 224), float32] span=from_string:40:5 */;
  %26 = clip(%16, a_min=-0.2f, a_max=0.4f) /* ty=Tensor[(3, 224, 224), bfloat16] span=from_string:47:5 */;
  %27 = add(%18, %19) /* ty=Tensor[(1, 3, 224, 29), float32] span=from_string:55:5 */;
  %28 = add(%x5, %20) /* ty=Tensor[(3), float32] span=from_string:60:5 */;
  %29 = cast_like(%21, %x8) /* ty=Tensor[(3, 224, 224), float32] span=from_string:64:5 */;
  (%22, %23, %24, %25, %26, %27, %28, 4.5f /* ty=float32 span=from_string:75:43 */, %29) /* ty=(Tensor[(3, 224, 224), int8], Tensor[(1, 3, 224, 338), int8], Tensor[(1, 3, 224, 338), float32], Tensor[(1, 3, 224, 224), float32], Tensor[(3, 224, 224), bfloat16], Tensor[(1, 3, 224, 29), float32], Tensor[(3), float32], float32, Tensor[(3, 224, 224), float32]) span=from_string:3:3 */
}
