#[version = "0.0.5"]
def @main(%x0: Tensor[(1, 3, 224, 224), int8] /* ty=Tensor[(1, 3, 224, 224), int8] span=from_string:5:129 */, %x1: Tensor[(1, 3, 224, 29), int8] /* ty=Tensor[(1, 3, 224, 29), int8] span=from_string:22:129 */, %x2: Tensor[(1, 3, 224, 74), int8] /* ty=Tensor[(1, 3, 224, 74), int8] span=from_string:28:129 */, %x3: Tensor[(1, 3, 224, 11), int8] /* ty=Tensor[(1, 3, 224, 11), int8] span=from_string:31:129 */, %x4: Tensor[(3), float32] /* ty=Tensor[(3), float32] span=from_string:45:242 */, %x5: Tensor[(3), float32] /* ty=Tensor[(3), float32] span=from_string:51:94 */, %x6: Tensor[(3), float32] /* ty=Tensor[(3), float32] span=from_string:45:232 */, %x7: Tensor[(3), float32] /* ty=Tensor[(3), float32] span=from_string:45:227 */, %x8: Tensor[(3, 224), float32] /* ty=Tensor[(3, 224), float32] */) -> (Tensor[(3, 224, 224), int8], Tensor[(1, 3, 224, 338), int8], Tensor[(1, 3, 224, 338), float32], Tensor[(1, 3, 224, 224), float32], Tensor[(3, 224, 224), bfloat16], Tensor[(1, 3, 224, 29), float32], Tensor[(3), float32], float32, Tensor[(3, 224, 224), float32]) {
  let %x_0: float32 /* ty=float32 span=from_string:5:134 */ = 2f /* ty=float32 span=from_string:3:64 */;
  let %x_1: int32 /* ty=int32 span=from_string:5:140 */ = 0 /* ty=int32 span=from_string:4:61 */;
  let %x_2: Tensor[(1, 3, 224, 224), float32] /* ty=Tensor[(1, 3, 224, 224), float32] span=from_string:6:118 */ = qnn.dequantize(%x0, %x_0, %x_1) /* ty=Tensor[(1, 3, 224, 224), float32] span=from_string:5:114 */;
  let %x_3: Tensor[(1, 3, 224, 224), float32] /* ty=Tensor[(1, 3, 224, 224), float32] span=from_string:9:124 */ = abs(%x_2) /* ty=Tensor[(1, 3, 224, 224), float32] span=from_string:6:114 */;
  let %x_4: float32 /* ty=float32 span=from_string:9:130 */ = 2f /* ty=float32 span=from_string:7:64 */;
  let %x_5: int32 /* ty=int32 span=from_string:9:136 */ = 0 /* ty=int32 span=from_string:8:61 */;
  let %x_6: Tensor[(1, 3, 224, 224), int8] /* ty=Tensor[(1, 3, 224, 224), int8] span=from_string:19:131 */ = qnn.quantize(%x_3, %x_4, %x_5, out_dtype="int8") /* ty=Tensor[(1, 3, 224, 224), int8] span=from_string:9:111 */;
  let %x_7: float32 /* ty=float32 span=from_string:12:136 */ = 2f /* ty=float32 span=from_string:10:65 */;
  let %x_8: int32 /* ty=int32 span=from_string:12:142 */ = 0 /* ty=int32 span=from_string:11:62 */;
  let %x_9: Tensor[(1, 3, 224, 224), float32] /* ty=Tensor[(1, 3, 224, 224), float32] span=from_string:40:137 */ = qnn.dequantize(%x_6, %x_7, %x_8) /* ty=Tensor[(1, 3, 224, 224), float32] span=from_string:12:115 */;
  let %x_10: Tensor[(3, 224, 224), float32] /* ty=Tensor[(3, 224, 224), float32] span=from_string:53:113 */ = squeeze(%x_9, axis=[0]) /* ty=Tensor[(3, 224, 224), float32] span=from_string:13:110 */;
  let %x_11: float32 /* ty=float32 span=from_string:16:126 */ = 2f /* ty=float32 span=from_string:14:66 */;
  let %x_12: int32 /* ty=int32 span=from_string:16:133 */ = 0 /* ty=int32 span=from_string:15:63 */;
  let %x_13: Tensor[(3, 224, 224), int8] /* ty=Tensor[(3, 224, 224), int8] span=from_string:55:576 */ = qnn.quantize(%x_10, %x_11, %x_12, out_dtype="int8") /* ty=Tensor[(3, 224, 224), int8] span=from_string:16:106 */;
  let %x_14: float32 /* ty=float32 span=from_string:19:137 */ = 0.5f /* ty=float32 span=from_string:17:68 */;
  let %x_15: int32 /* ty=int32 span=from_string:19:144 */ = 0 /* ty=int32 span=from_string:18:63 */;
  let %x_16: Tensor[(1, 3, 224, 224), float32] /* ty=Tensor[(1, 3, 224, 224), float32] span=from_string:23:189 */ = qnn.dequantize(%x_6, %x_14, %x_15) /* ty=Tensor[(1, 3, 224, 224), float32] span=from_string:19:116 */;
  let %x_17: float32 /* ty=float32 span=from_string:22:134 */ = 1.5f /* ty=float32 span=from_string:20:68 */;
  let %x_18: int32 /* ty=int32 span=from_string:22:141 */ = 0 /* ty=int32 span=from_string:21:63 */;
  let %x_19: Tensor[(1, 3, 224, 29), float32] /* ty=Tensor[(1, 3, 224, 29), float32] span=from_string:45:220 */ = qnn.dequantize(%x1, %x_17, %x_18) /* ty=Tensor[(1, 3, 224, 29), float32] span=from_string:22:114 */;
  let %x_20: (Tensor[(1, 3, 224, 224), float32], Tensor[(1, 3, 224, 29), float32]) /* ty=(Tensor[(1, 3, 224, 224), float32], Tensor[(1, 3, 224, 29), float32]) span=from_string:24:128 */ = (%x_16, %x_19) /* ty=(Tensor[(1, 3, 224, 224), float32], Tensor[(1, 3, 224, 29), float32]) span=from_string:23:188 */;
  let %x_21: Tensor[(1, 3, 224, 253), float32] /* ty=Tensor[(1, 3, 224, 253), float32] span=from_string:25:139 */ = concatenate(%x_20, axis=-1) /* ty=Tensor[(1, 3, 224, 253), float32] span=from_string:24:116 */;
  let %x_22: Tensor[(1, 3, 224, 253), float32] /* ty=Tensor[(1, 3, 224, 253), float32] span=from_string:35:189 */ = annotation.stop_fusion(%x_21) /* ty=Tensor[(1, 3, 224, 253), float32] span=from_string:25:116 */;
  let %x_23: float32 /* ty=float32 span=from_string:28:134 */ = 2.5f /* ty=float32 span=from_string:26:68 */;
  let %x_24: int32 /* ty=int32 span=from_string:28:141 */ = 0 /* ty=int32 span=from_string:27:63 */;
  let %x_25: Tensor[(1, 3, 224, 74), float32] /* ty=Tensor[(1, 3, 224, 74), float32] span=from_string:32:187 */ = qnn.dequantize(%x2, %x_23, %x_24) /* ty=Tensor[(1, 3, 224, 74), float32] span=from_string:28:114 */;
  let %x_26: float32 /* ty=float32 span=from_string:31:134 */ = 3.5f /* ty=float32 span=from_string:29:68 */;
  let %x_27: int32 /* ty=int32 span=from_string:31:141 */ = 0 /* ty=int32 span=from_string:30:63 */;
  let %x_28: Tensor[(1, 3, 224, 11), float32] /* ty=Tensor[(1, 3, 224, 11), float32] span=from_string:32:194 */ = qnn.dequantize(%x3, %x_26, %x_27) /* ty=Tensor[(1, 3, 224, 11), float32] span=from_string:31:114 */;
  let %x_29: (Tensor[(1, 3, 224, 74), float32], Tensor[(1, 3, 224, 11), float32]) /* ty=(Tensor[(1, 3, 224, 74), float32], Tensor[(1, 3, 224, 11), float32]) span=from_string:33:126 */ = (%x_25, %x_28) /* ty=(Tensor[(1, 3, 224, 74), float32], Tensor[(1, 3, 224, 11), float32]) span=from_string:32:186 */;
  let %x_30: Tensor[(1, 3, 224, 85), float32] /* ty=Tensor[(1, 3, 224, 85), float32] span=from_string:34:137 */ = concatenate(%x_29, axis=-1) /* ty=Tensor[(1, 3, 224, 85), float32] span=from_string:33:114 */;
  let %x_31: Tensor[(1, 3, 224, 85), float32] /* ty=Tensor[(1, 3, 224, 85), float32] span=from_string:35:196 */ = annotation.stop_fusion(%x_30) /* ty=Tensor[(1, 3, 224, 85), float32] span=from_string:34:114 */;
  let %x_32: (Tensor[(1, 3, 224, 253), float32], Tensor[(1, 3, 224, 85), float32]) /* ty=(Tensor[(1, 3, 224, 253), float32], Tensor[(1, 3, 224, 85), float32]) span=from_string:36:128 */ = (%x_22, %x_31) /* ty=(Tensor[(1, 3, 224, 253), float32], Tensor[(1, 3, 224, 85), float32]) span=from_string:35:188 */;
  let %x_33: Tensor[(1, 3, 224, 338), float32] /* ty=Tensor[(1, 3, 224, 338), float32] span=from_string:55:590 */ = concatenate(%x_32, axis=-1) /* ty=Tensor[(1, 3, 224, 338), float32] span=from_string:36:116 */;
  let %x_34: float32 /* ty=float32 span=from_string:39:132 */ = 3.5f /* ty=float32 span=from_string:37:68 */;
  let %x_35: int32 /* ty=int32 span=from_string:39:139 */ = 0 /* ty=int32 span=from_string:38:63 */;
  let %x_36: Tensor[(1, 3, 224, 338), int8] /* ty=Tensor[(1, 3, 224, 338), int8] span=from_string:55:583 */ = qnn.quantize(%x_33, %x_34, %x_35, out_dtype="int8") /* ty=Tensor[(1, 3, 224, 338), int8] span=from_string:39:112 */;
  let %x_37: Tensor[(1, 56, 3, 224, 4), float32] /* ty=Tensor[(1, 56, 3, 224, 4), float32] span=from_string:41:128 */ = layout_transform(%x_9, src_layout="NHWC", dst_layout="NCHW4c") /* ty=Tensor[(1, 56, 3, 224, 4), float32] span=from_string:40:120 */;
  let %x_38: Tensor[(1, 56, 3, 224, 4), float32] /* ty=Tensor[(1, 56, 3, 224, 4), float32] span=from_string:42:133 */ = nn.relu(%x_37) /* ty=Tensor[(1, 56, 3, 224, 4), float32] span=from_string:41:120 */;
  let %x_39: Tensor[(1, 3, 224, 224), float32] /* ty=Tensor[(1, 3, 224, 224), float32] span=from_string:55:597 */ = layout_transform(%x_38, src_layout="NCHW4c", dst_layout="NHWC") /* ty=Tensor[(1, 3, 224, 224), float32] span=from_string:42:116 */;
  let %x_40: Tensor[(3, 224, 224), bfloat16] /* ty=Tensor[(3, 224, 224), bfloat16] span=from_string:44:117 */ = cast(%x_10, dtype="bfloat16") /* ty=Tensor[(3, 224, 224), bfloat16] span=from_string:43:112 */;
  let %x_41: Tensor[(3, 224, 224), bfloat16] /* ty=Tensor[(3, 224, 224), bfloat16] span=from_string:55:604 */ = clip(%x_40, a_min=-0.2f, a_max=0.4f) /* ty=Tensor[(3, 224, 224), bfloat16] span=from_string:44:112 */;
  let %x_42: (Tensor[(1, 3, 224, 29), float32], Tensor[(3), float32], Tensor[(3), float32]) /* ty=(Tensor[(1, 3, 224, 29), float32], Tensor[(3), float32], Tensor[(3), float32]) span=from_string:46:8 */ = nn.batch_norm(%x_19, %x7, %x6, %x5, %x4) /* ty=(Tensor[(1, 3, 224, 29), float32], Tensor[(3), float32], Tensor[(3), float32]) span=from_string:45:206 */;
  %0 = %x_42.0 /* ty=Tensor[(1, 3, 224, 29), float32] span=from_string:48:114 */;
  let %x_43: Tensor[(1, 3, 224, 29), float32] /* ty=Tensor[(1, 3, 224, 29), float32] span=from_string:49:118 */ = %0;
  let %x_44: Tensor[(1, 3, 224, 29), float32] /* ty=Tensor[(1, 3, 224, 29), float32] span=from_string:49:125 */ = %0;
  let %x_45: Tensor[(1, 3, 224, 29), float32] /* ty=Tensor[(1, 3, 224, 29), float32] span=from_string:55:611 */ = add(%x_43, %x_44) /* ty=Tensor[(1, 3, 224, 29), float32] span=from_string:49:114 */;
  let %x_46: float32 /* ty=float32 span=from_string:51:99 */ = 1f /* ty=float32 span=from_string:50:66 */;
  let %x_47: Tensor[(3), float32] /* ty=Tensor[(3), float32] span=from_string:55:618 */ = add(%x5, %x_46) /* ty=Tensor[(3), float32] span=from_string:51:90 */;
  let %x_48: float32 /* ty=float32 span=from_string:55:625 */ = 4.5f /* ty=float32 span=from_string:52:68 */;
  let %x_49: Tensor[(3, 224, 224), int32] /* ty=Tensor[(3, 224, 224), int32] span=from_string:54:115 */ = cast(%x_10, dtype="int32") /* ty=Tensor[(3, 224, 224), int32] span=from_string:53:108 */;
  let %x_50: Tensor[(3, 224, 224), float32] /* ty=Tensor[(3, 224, 224), float32] span=from_string:55:632 */ = cast(%x_49, dtype="float32") /* ty=Tensor[(3, 224, 224), float32] span=from_string:54:110 */;
  let %x_51: (Tensor[(3, 224, 224), int8], Tensor[(1, 3, 224, 338), int8], Tensor[(1, 3, 224, 338), float32], Tensor[(1, 3, 224, 224), float32], Tensor[(3, 224, 224), bfloat16], Tensor[(1, 3, 224, 29), float32], Tensor[(3), float32], float32, Tensor[(3, 224, 224), float32]) /* ty=(Tensor[(3, 224, 224), int8], Tensor[(1, 3, 224, 338), int8], Tensor[(1, 3, 224, 338), float32], Tensor[(1, 3, 224, 224), float32], Tensor[(3, 224, 224), bfloat16], Tensor[(1, 3, 224, 29), float32], Tensor[(3), float32], float32, Tensor[(3, 224, 224), float32]) span=from_string:56:3 */ = (%x_13, %x_36, %x_33, %x_39, %x_41, %x_45, %x_47, %x_48, %x_50) /* ty=(Tensor[(3, 224, 224), int8], Tensor[(1, 3, 224, 338), int8], Tensor[(1, 3, 224, 338), float32], Tensor[(1, 3, 224, 224), float32], Tensor[(3, 224, 224), bfloat16], Tensor[(1, 3, 224, 29), float32], Tensor[(3), float32], float32, Tensor[(3, 224, 224), float32]) span=from_string:55:575 */;
  %x_51
}
