#[version = "0.0.5"]
def @main(%x0: Tensor[(1, 3, 224, 224), int8] /* ty=Tensor[(1, 3, 224, 224), int8] span=from_string:8:11 */, %x1: Tensor[(1, 3, 224, 29), int8] /* ty=Tensor[(1, 3, 224, 29), int8] span=from_string:23:13 */, %x2: Tensor[(1, 3, 224, 74), int8] /* ty=Tensor[(1, 3, 224, 74), int8] span=from_string:36:13 */, %x3: Tensor[(1, 3, 224, 11), int8] /* ty=Tensor[(1, 3, 224, 11), int8] span=from_string:36:18 */, %x4: Tensor[(3), float32] /* ty=Tensor[(3), float32] span=from_string:57:33 */, %x5: Tensor[(3), float32] /* ty=Tensor[(3), float32] span=from_string:75:13 */, %x6: Tensor[(3), float32] /* ty=Tensor[(3), float32] span=from_string:57:23 */, %x7: Tensor[(3), float32] /* ty=Tensor[(3), float32] span=from_string:57:18 */, %x8: Tensor[(3, 224), float32] /* ty=Tensor[(3, 224), float32] */) -> (Tensor[(3, 224, 224), int8], Tensor[(1, 3, 224, 338), int8], Tensor[(1, 3, 224, 338), float32], Tensor[(1, 3, 224, 224), float32], Tensor[(3, 224, 224), bfloat16], Tensor[(1, 3, 224, 29), float32], Tensor[(3), float32], float32, Tensor[(3, 224, 224), float32]) {
  let %x_0 = fn (%p03: Tensor[(1, 3, 224, 224), int8] /* ty=Tensor[(1, 3, 224, 224), int8] span=from_string:4:25 */, Primitive=1) -> Tensor[(1, 3, 224, 224), int8] {
    %0 = qnn.dequantize(%p03, 2f /* ty=float32 span=from_string:4:33 */, 0 /* ty=int32 span=from_string:4:75 */) /* ty=Tensor[(1, 3, 224, 224), float32] span=from_string:5:14 */;
    %1 = abs(%0) /* ty=Tensor[(1, 3, 224, 224), float32] span=from_string:6:18 */;
    qnn.quantize(%1, 2f /* ty=float32 span=from_string:6:24 */, 0 /* ty=int32 span=from_string:6:66 */, out_dtype="int8") /* ty=Tensor[(1, 3, 224, 224), int8] span=from_string:4:5 */
  } /* ty=fn (Tensor[(1, 3, 224, 224), int8]) -> Tensor[(1, 3, 224, 224), int8] span=from_string:8:8 */;
  let %x_1 = %x_0(%x0);
  let %x_2 = fn (%p02: Tensor[(1, 3, 224, 224), int8] /* ty=Tensor[(1, 3, 224, 224), int8] span=from_string:10:20 */, Primitive=1) -> Tensor[(1, 3, 224, 224), float32] {
    qnn.dequantize(%p02, 2f /* ty=float32 span=from_string:10:28 */, 0 /* ty=int32 span=from_string:10:70 */) /* ty=Tensor[(1, 3, 224, 224), float32] span=from_string:10:5 */
  } /* ty=fn (Tensor[(1, 3, 224, 224), int8]) -> Tensor[(1, 3, 224, 224), float32] span=from_string:12:8 */;
  let %x_3 = %x_2(%x_1);
  let %x_4 = fn (%p01: Tensor[(1, 3, 224, 224), float32] /* ty=Tensor[(1, 3, 224, 224), float32] span=from_string:14:13 */, Primitive=1, relay.reshape_only=1) -> Tensor[(3, 224, 224), float32] {
    squeeze(%p01, axis=[0]) /* ty=Tensor[(3, 224, 224), float32] span=from_string:14:5 */
  } /* ty=fn (Tensor[(1, 3, 224, 224), float32]) -> Tensor[(3, 224, 224), float32] span=from_string:16:8 */;
  let %x_5 = %x_4(%x_3);
  let %x_6 = fn (%p0: Tensor[(3, 224, 224), float32] /* ty=Tensor[(3, 224, 224), float32] span=from_string:18:18 */, Primitive=1) -> Tensor[(3, 224, 224), int8] {
    qnn.quantize(%p0, 2f /* ty=float32 span=from_string:18:25 */, 0 /* ty=int32 span=from_string:18:68 */, out_dtype="int8") /* ty=Tensor[(3, 224, 224), int8] span=from_string:18:5 */
  } /* ty=fn (Tensor[(3, 224, 224), float32]) -> Tensor[(3, 224, 224), int8] span=from_string:70:9 */;
  let %x_7 = %x_6(%x_5);
  let %x_8 = fn (%p07: Tensor[(1, 3, 224, 29), int8] /* ty=Tensor[(1, 3, 224, 29), int8] span=from_string:21:20 */, Primitive=1) -> Tensor[(1, 3, 224, 29), float32] {
    qnn.dequantize(%p07, 1.5f /* ty=float32 span=from_string:21:30 */, 0 /* ty=int32 span=from_string:21:72 */) /* ty=Tensor[(1, 3, 224, 29), float32] span=from_string:21:5 */
  } /* ty=fn (Tensor[(1, 3, 224, 29), int8]) -> Tensor[(1, 3, 224, 29), float32] span=from_string:23:9 */;
  let %x_9 = %x_8(%x1);
  let %x_10 = fn (%p06: Tensor[(1, 3, 224, 224), int8] /* ty=Tensor[(1, 3, 224, 224), int8] span=from_string:25:26 */, %p11: Tensor[(1, 3, 224, 29), float32] /* ty=Tensor[(1, 3, 224, 29), float32] span=from_string:26:17 */, Primitive=1) -> Tensor[(1, 3, 224, 253), float32] {
    %2 = qnn.dequantize(%p06, 0.5f /* ty=float32 span=from_string:25:36 */, 0 /* ty=int32 span=from_string:25:78 */) /* ty=Tensor[(1, 3, 224, 224), float32] span=from_string:26:12 */;
    %3 = (%2, %p11) /* ty=(Tensor[(1, 3, 224, 224), float32], Tensor[(1, 3, 224, 29), float32]) span=from_string:27:17 */;
    concatenate(%3, axis=-1) /* ty=Tensor[(1, 3, 224, 253), float32] span=from_string:25:5 */
  } /* ty=fn (Tensor[(1, 3, 224, 224), int8], Tensor[(1, 3, 224, 29), float32]) -> Tensor[(1, 3, 224, 253), float32] span=from_string:35:9 */;
  let %x_11 = %x_10(%x_1, %x_9);
  let %x_12 = fn (%p08: Tensor[(1, 3, 224, 74), int8] /* ty=Tensor[(1, 3, 224, 74), int8] span=from_string:30:26 */, %p12: Tensor[(1, 3, 224, 11), int8] /* ty=Tensor[(1, 3, 224, 11), int8] span=from_string:31:26 */, Primitive=1) -> Tensor[(1, 3, 224, 85), float32] {
    %4 = qnn.dequantize(%p08, 2.5f /* ty=float32 span=from_string:30:36 */, 0 /* ty=int32 span=from_string:30:79 */) /* ty=Tensor[(1, 3, 224, 74), float32] span=from_string:32:12 */;
    %5 = qnn.dequantize(%p12, 3.5f /* ty=float32 span=from_string:31:36 */, 0 /* ty=int32 span=from_string:31:79 */) /* ty=Tensor[(1, 3, 224, 11), float32] span=from_string:32:17 */;
    %6 = (%4, %5) /* ty=(Tensor[(1, 3, 224, 74), float32], Tensor[(1, 3, 224, 11), float32]) span=from_string:33:17 */;
    concatenate(%6, axis=-1) /* ty=Tensor[(1, 3, 224, 85), float32] span=from_string:30:5 */
  } /* ty=fn (Tensor[(1, 3, 224, 74), int8], Tensor[(1, 3, 224, 11), int8]) -> Tensor[(1, 3, 224, 85), float32] span=from_string:36:9 */;
  let %x_13 = %x_12(%x2, %x3);
  let %x_14 = fn (%p05: Tensor[(1, 3, 224, 253), float32] /* ty=Tensor[(1, 3, 224, 253), float32] span=from_string:38:11 */, %p1: Tensor[(1, 3, 224, 85), float32] /* ty=Tensor[(1, 3, 224, 85), float32] span=from_string:38:17 */, Primitive=1) -> Tensor[(1, 3, 224, 338), float32] {
    %7 = (%p05, %p1) /* ty=(Tensor[(1, 3, 224, 253), float32], Tensor[(1, 3, 224, 85), float32]) span=from_string:39:17 */;
    concatenate(%7, axis=-1) /* ty=Tensor[(1, 3, 224, 338), float32] span=from_string:38:5 */
  } /* ty=fn (Tensor[(1, 3, 224, 253), float32], Tensor[(1, 3, 224, 85), float32]) -> Tensor[(1, 3, 224, 338), float32] span=from_string:41:9 */;
  let %x_15 = %x_14(%x_11, %x_13);
  let %x_16 = fn (%p04: Tensor[(1, 3, 224, 338), float32] /* ty=Tensor[(1, 3, 224, 338), float32] span=from_string:43:18 */, Primitive=1) -> Tensor[(1, 3, 224, 338), int8] {
    qnn.quantize(%p04, 3.5f /* ty=float32 span=from_string:43:28 */, 0 /* ty=int32 span=from_string:43:71 */, out_dtype="int8") /* ty=Tensor[(1, 3, 224, 338), int8] span=from_string:43:5 */
  } /* ty=fn (Tensor[(1, 3, 224, 338), float32]) -> Tensor[(1, 3, 224, 338), int8] span=from_string:71:9 */;
  let %x_17 = %x_16(%x_15);
  let %x_18 = fn (%p09: Tensor[(1, 3, 224, 224), float32] /* ty=Tensor[(1, 3, 224, 224), float32] span=from_string:46:28 */, Primitive=1) -> Tensor[(1, 3, 224, 224), float32] {
    %8 = layout_transform(%p09, src_layout="NHWC", dst_layout="NCHW4c") /* ty=Tensor[(1, 56, 3, 224, 4), float32] span=from_string:47:19 */;
    %9 = nn.relu(%8) /* ty=Tensor[(1, 56, 3, 224, 4), float32] span=from_string:48:22 */;
    layout_transform(%9, src_layout="NCHW4c", dst_layout="NHWC") /* ty=Tensor[(1, 3, 224, 224), float32] span=from_string:46:5 */
  } /* ty=fn (Tensor[(1, 3, 224, 224), float32]) -> Tensor[(1, 3, 224, 224), float32] span=from_string:72:9 */;
  let %x_19 = %x_18(%x_3);
  let %x_20 = fn (%p010: Tensor[(3, 224, 224), float32] /* ty=Tensor[(3, 224, 224), float32] span=from_string:51:16 */, Primitive=1) -> Tensor[(3, 224, 224), bfloat16] {
    %10 = cast(%p010, dtype="bfloat16") /* ty=Tensor[(3, 224, 224), bfloat16] span=from_string:52:10 */;
    clip(%10, a_min=-0.2f, a_max=0.4f) /* ty=Tensor[(3, 224, 224), bfloat16] span=from_string:51:5 */
  } /* ty=fn (Tensor[(3, 224, 224), float32]) -> Tensor[(3, 224, 224), bfloat16] span=from_string:73:9 */;
  let %x_21 = %x_20(%x_5);
  let %x_22 = fn (%p012: Tensor[(1, 3, 224, 29), float32] /* ty=Tensor[(1, 3, 224, 29), float32] span=from_string:55:19 */, %p13: Tensor[(3), float32] /* ty=Tensor[(3), float32] span=from_string:55:26 */, %p2: Tensor[(3), float32] /* ty=Tensor[(3), float32] span=from_string:55:32 */, %p3: Tensor[(3), float32] /* ty=Tensor[(3), float32] span=from_string:55:37 */, %p4: Tensor[(3), float32] /* ty=Tensor[(3), float32] span=from_string:55:42 */, Primitive=1) -> (Tensor[(1, 3, 224, 29), float32], Tensor[(3), float32], Tensor[(3), float32]) {
    nn.batch_norm(%p012, %p13, %p2, %p3, %p4) /* ty=(Tensor[(1, 3, 224, 29), float32], Tensor[(3), float32], Tensor[(3), float32]) span=from_string:55:5 */
  } /* ty=fn (Tensor[(1, 3, 224, 29), float32], Tensor[(3), float32], Tensor[(3), float32], Tensor[(3), float32], Tensor[(3), float32]) -> (Tensor[(1, 3, 224, 29), float32], Tensor[(3), float32], Tensor[(3), float32]) span=from_string:57:9 */;
  let %x_23 = %x_22(%x_9, %x7, %x6, %x5, %x4);
  let %x_24 = fn (%p011: (Tensor[(1, 3, 224, 29), float32], Tensor[(3), float32], Tensor[(3), float32]) /* ty=(Tensor[(1, 3, 224, 29), float32], Tensor[(3), float32], Tensor[(3), float32]) span=from_string:60:11 */, Primitive=1) -> Tensor[(1, 3, 224, 29), float32] {
    %11 = %p011.0 /* ty=Tensor[(1, 3, 224, 29), float32] span=from_string:61:9 */;
    %12 = %p011.0 /* ty=Tensor[(1, 3, 224, 29), float32] span=from_string:61:14 */;
    add(%11, %12) /* ty=Tensor[(1, 3, 224, 29), float32] span=from_string:59:5 */
  } /* ty=fn ((Tensor[(1, 3, 224, 29), float32], Tensor[(3), float32], Tensor[(3), float32])) -> Tensor[(1, 3, 224, 29), float32] span=from_string:74:9 */;
  let %x_25 = %x_24(%x_23);
  let %x_26 = fn (%p013: Tensor[(3), float32] /* ty=Tensor[(3), float32] span=from_string:64:9 */, Primitive=1) -> Tensor[(3), float32] {
    add(%p013, 1f /* ty=float32 span=from_string:64:18 */) /* ty=Tensor[(3), float32] span=from_string:64:5 */
  } /* ty=fn (Tensor[(3), float32]) -> Tensor[(3), float32] span=from_string:75:9 */;
  let %x_27 = %x_26(%x5);
  let %x_28 = 4.5f /* ty=float32 span=from_string:77:43 */;
  let %x_29 = fn (%p014: Tensor[(3, 224, 224), float32] /* ty=Tensor[(3, 224, 224), float32] span=from_string:67:16 */, Primitive=1) -> Tensor[(3, 224, 224), float32] {
    %13 = cast(%p014, dtype="int32") /* ty=Tensor[(3, 224, 224), int32] span=from_string:68:10 */;
    cast(%13, dtype="float32") /* ty=Tensor[(3, 224, 224), float32] span=from_string:67:5 */
  } /* ty=fn (Tensor[(3, 224, 224), float32]) -> Tensor[(3, 224, 224), float32] span=from_string:76:9 */;
  let %x_30 = %x_29(%x_5);
  let %x_31 = (%x_7, %x_17, %x_15, %x_19, %x_21, %x_25, %x_27, %x_28, %x_30) /* ty=(Tensor[(3, 224, 224), int8], Tensor[(1, 3, 224, 338), int8], Tensor[(1, 3, 224, 338), float32], Tensor[(1, 3, 224, 224), float32], Tensor[(3, 224, 224), bfloat16], Tensor[(1, 3, 224, 29), float32], Tensor[(3), float32], float32, Tensor[(3, 224, 224), float32]) span=from_string:3:3 */;
  %x_31
}
