#[version = "0.0.5"]
def @main(%x0: Tensor[(4, 7), float32] /* ty=Tensor[(4, 7), float32] span=from_string:3:100 */, %x1: Tensor[(2, 7, 2), float32] /* ty=Tensor[(2, 7, 2), float32] span=from_string:6:110 */, %x2: Tensor[(14, 2), float32] /* ty=Tensor[(14, 2), float32] */, %x3: Tensor[(52, 7, 2), float32] /* ty=Tensor[(52, 7, 2), float32] span=from_string:17:173 */) -> (Tensor[(4, 7), float16], Tensor[(2), int32], Tensor[(14, 2), float16], int32, int32, Tensor[(54, 7, 2), float16]) {
  %0 = cast(%x0, dtype="float16") /* ty=Tensor[(4, 7), float16] span=from_string:3:95 */;
  %1 = reshape(%0, newshape=[2, 7, 2]) /* ty=Tensor[(2, 7, 2), float16] span=from_string:4:102 */;
  %2 = fast_erf(%x1) /* ty=Tensor[(2, 7, 2), float32] span=from_string:6:101 */;
  %3 = cast(%2, dtype="float16") /* ty=Tensor[(2, 7, 2), float16] span=from_string:7:102 */;
  %4 = add(%3, 1f16 /* ty=float16 span=from_string:8:117 */) /* ty=Tensor[(2, 7, 2), float16] span=from_string:8:102 */;
  %5 = annotation.stop_fusion(%4) /* ty=Tensor[(2, 7, 2), float16] span=from_string:10:104 */;
  %6 = cast(%5, dtype="float32") /* ty=Tensor[(2, 7, 2), float32] span=from_string:11:103 */;
  %7 = fast_exp(%6) /* ty=Tensor[(2, 7, 2), float32] span=from_string:12:103 */;
  %8 = cast(%7, dtype="float16") /* ty=Tensor[(2, 7, 2), float16] span=from_string:13:103 */;
  %9 = sqrt(%8) /* ty=Tensor[(2, 7, 2), float16] span=from_string:14:103 */;
  %10 = divide(2f16 /* ty=float16 span=from_string:15:114 */, %9) /* ty=Tensor[(2, 7, 2), float16] span=from_string:15:103 */;
  %11 = add(2f16 /* ty=float16 span=from_string:16:111 */, %10) /* ty=Tensor[(2, 7, 2), float16] span=from_string:16:103 */;
  %12 = (%11, %x3) /* ty=(Tensor[(2, 7, 2), float16], Tensor[(52, 7, 2), float32]) span=from_string:17:165 */;
  %13 = %12.1 /* ty=Tensor[(52, 7, 2), float32] span=from_string:19:105 */;
  %14 = %12.0 /* ty=Tensor[(2, 7, 2), float16] span=from_string:18:103 */;
  %15 = cast(%13, dtype="float16") /* ty=Tensor[(52, 7, 2), float16] span=from_string:20:105 */;
  %16 = (%14, %15) /* ty=(Tensor[(2, 7, 2), float16], Tensor[(52, 7, 2), float16]) span=from_string:21:166 */;
  %17 = reshape(%1, newshape=[4, 7]) /* ty=Tensor[(4, 7), float16] span=from_string:5:96 */;
  %18 = reshape(%4, newshape=[14, 2]) /* ty=Tensor[(14, 2), float16] span=from_string:9:98 */;
  %19 = concatenate(%16) /* ty=Tensor[(54, 7, 2), float16] span=from_string:22:105 */;
  (%17, meta[relay.Constant][0] /* ty=Tensor[(2), int32] span=from_string:23:297 */, %18, 2 /* ty=int32 span=from_string:23:376 */, 1 /* ty=int32 span=from_string:23:418 */, %19) /* ty=(Tensor[(4, 7), float16], Tensor[(2), int32], Tensor[(14, 2), float16], int32, int32, Tensor[(54, 7, 2), float16]) span=from_string:23:285 */
}

#[metadata]
{
  "root": 1, 
  "nodes": [
    {
      "type_key": ""
    }, 
    {
      "type_key": "Map", 
      "keys": [
        "relay.Constant"
      ], 
      "data": [2]
    }, 
    {
      "type_key": "Array", 
      "data": [3]
    }, 
    {
      "type_key": "relay.Constant", 
      "attrs": {
        "_checked_type_": "8", 
        "data": "0", 
        "span": "6", 
        "virtual_device_": "4"
      }
    }, 
    {
      "type_key": "VirtualDevice", 
      "attrs": {
        "device_type_int": "-1", 
        "memory_scope": "5", 
        "target": "0", 
        "virtual_device_id": "-1"
      }
    }, 
    {
      "type_key": "runtime.String"
    }, 
    {
      "type_key": "Span", 
      "attrs": {
        "column": "297", 
        "end_column": "315", 
        "end_line": "23", 
        "line": "23", 
        "source_name": "7"
      }
    }, 
    {
      "type_key": "SourceName", 
      "repr_str": "from_string"
    }, 
    {
      "type_key": "relay.TensorType", 
      "attrs": {
        "dtype": "int32", 
        "shape": "9", 
        "span": "11"
      }
    }, 
    {
      "type_key": "Array", 
      "data": [10]
    }, 
    {
      "type_key": "IntImm", 
      "attrs": {
        "dtype": "int32", 
        "span": "0", 
        "value": "2"
      }
    }, 
    {
      "type_key": "Span", 
      "attrs": {
        "column": "379", 
        "end_column": "399", 
        "end_line": "2", 
        "line": "2", 
        "source_name": "7"
      }
    }
  ], 
  "b64ndarrays": [
    "P6G0lvBAXt0AAAAAAAAAAAEAAAAAAAAAAQAAAAAgAQACAAAAAAAAAAgAAAAAAAAABAAAAAcAAAA="
  ], 
  "attrs": {"tvm_version": "0.13.0"}
}