#[version = "0.0.5"]
def @main(%x0: Tensor[(5, 10), int8] /* ty=Tensor[(5, 10), int8] span=from_string:69:13 */, %x1: Tensor[(10), float32] /* ty=Tensor[(10), float32] span=from_string:34:13 */, %x2: Tensor[(96, 10), float32] /* ty=Tensor[(96, 10), float32] span=from_string:53:18 */, %x3: Tensor[(58, 10), float32] /* ty=Tensor[(58, 10), float32] span=from_string:60:18 */, %x4: Tensor[(10), float32] /* ty=Tensor[(10), float32] */) -> (float32, Tensor[(5, 10), float32], (Tensor[(5, 10), float32], Tensor[(10), float32]), Tensor[(5, 10), int8], (Tensor[(5, 96, 1), float32], Tensor[(5, 58, 1), float32]), int32, Tensor[(5, 10), int32], Tensor[(5, 96), float32], Tensor[(5, 174), float32]) {
  let %x_0 = 0.2f /* ty=float32 span=from_string:110:8 */;
  let %x_1 = fn (%p02: Tensor[(5, 10), int8] /* ty=Tensor[(5, 10), int8] span=from_string:4:20 */, Primitive=1) -> Tensor[(5, 10), float32] {
    qnn.dequantize(%p02, 0.1f /* ty=float32 span=from_string:4:30 */, 0 /* ty=int32 span=from_string:4:72 */) /* ty=Tensor[(5, 10), float32] span=from_string:4:5 */
  } /* ty=fn (Tensor[(5, 10), int8]) -> Tensor[(5, 10), float32] span=from_string:6:8 */;
  let %x_2 = %x_1(%x0);
  let %x_3 = fn (%p01: Tensor[(5, 10), float32] /* ty=Tensor[(5, 10), float32] span=from_string:8:16 */, Primitive=1) -> Tensor[(5, 10), float32] {
    nn.softmax(%p01) /* ty=Tensor[(5, 10), float32] span=from_string:8:5 */
  } /* ty=fn (Tensor[(5, 10), float32]) -> Tensor[(5, 10), float32] span=from_string:10:8 */;
  let %x_4 = %x_3(%x_2);
  let %x_5 = fn (%p0: Tensor[(5, 10), float32] /* ty=Tensor[(5, 10), float32] span=from_string:13:9 */, Primitive=1) -> Tensor[(5, 10), float32] {
    %0 = zeros(shape=[1], dtype="float32") /* ty=Tensor[(1), float32] span=from_string:13:14 */;
    add(%p0, %0) /* ty=Tensor[(5, 10), float32] span=from_string:12:5 */
  } /* ty=fn (Tensor[(5, 10), float32]) -> Tensor[(5, 10), float32] span=from_string:103:9 */;
  let %x_6 = %x_5(%x_4);
  let %x_7 = fn (%p04: Tensor[(5, 10), float32] /* ty=Tensor[(5, 10), float32] span=from_string:16:16 */, Primitive=1) -> Tensor[(5, 10), float32] {
    zeros_like(%p04) /* ty=Tensor[(5, 10), float32] span=from_string:16:5 */
  } /* ty=fn (Tensor[(5, 10), float32]) -> Tensor[(5, 10), float32] span=from_string:23:9 */;
  let %x_8 = %x_7(%x_2);
  let %x_9 = fn (%p06: Tensor[(5, 10), float32] /* ty=Tensor[(5, 10), float32] span=from_string:19:14 */, %p12: Tensor[(10), float32] /* ty=Tensor[(10), float32] span=from_string:19:20 */, Primitive=1) -> Tensor[(5, 10), float32] {
    %1 = add(%p06, %p12) /* ty=Tensor[(5, 10), float32] span=from_string:20:15 */;
    ones_like(%1) /* ty=Tensor[(5, 10), float32] span=from_string:19:5 */
  } /* ty=fn (Tensor[(5, 10), float32], Tensor[(10), float32]) -> Tensor[(5, 10), float32] span=from_string:22:8 */;
  let %x_10 = %x_9(%x_2, %x1);
  let %x_11 = fn (%p05: Tensor[(5, 10), float32] /* ty=Tensor[(5, 10), float32] span=from_string:25:23 */, %p11: Tensor[(5, 10), float32] /* ty=Tensor[(5, 10), float32] span=from_string:25:29 */, Primitive=1) -> Tensor[(5, 10), float32] {
    collapse_sum_like(%p05, %p11) /* ty=Tensor[(5, 10), float32] span=from_string:25:5 */
  } /* ty=fn (Tensor[(5, 10), float32], Tensor[(5, 10), float32]) -> Tensor[(5, 10), float32] span=from_string:27:9 */;
  let %x_12 = %x_11(%x_10, %x_8);
  let %x_13 = fn (%p03: Tensor[(5, 10), float32] /* ty=Tensor[(5, 10), float32] span=from_string:29:9 */, %p1: Tensor[(5, 10), float32] /* ty=Tensor[(5, 10), float32] span=from_string:29:15 */, Primitive=1) -> Tensor[(5, 10), float32] {
    add(%p03, %p1) /* ty=Tensor[(5, 10), float32] span=from_string:29:5 */
  } /* ty=fn (Tensor[(5, 10), float32], Tensor[(5, 10), float32]) -> Tensor[(5, 10), float32] span=from_string:42:9 */;
  let %x_14 = %x_13(%x_8, %x_12);
  let %x_15 = fn (%p08: Tensor[(10), float32] /* ty=Tensor[(10), float32] span=from_string:32:16 */, Primitive=1) -> Tensor[(10), float32] {
    zeros_like(%p08) /* ty=Tensor[(10), float32] span=from_string:32:5 */
  } /* ty=fn (Tensor[(10), float32]) -> Tensor[(10), float32] span=from_string:34:9 */;
  let %x_16 = %x_15(%x1);
  let %x_17 = fn (%p09: Tensor[(5, 10), float32] /* ty=Tensor[(5, 10), float32] span=from_string:36:23 */, %p14: Tensor[(10), float32] /* ty=Tensor[(10), float32] span=from_string:36:29 */, Primitive=1) -> Tensor[(10), float32] {
    collapse_sum_like(%p09, %p14) /* ty=Tensor[(10), float32] span=from_string:36:5 */
  } /* ty=fn (Tensor[(5, 10), float32], Tensor[(10), float32]) -> Tensor[(10), float32] span=from_string:38:9 */;
  let %x_18 = %x_17(%x_10, %x_16);
  let %x_19 = fn (%p07: Tensor[(10), float32] /* ty=Tensor[(10), float32] span=from_string:40:9 */, %p13: Tensor[(10), float32] /* ty=Tensor[(10), float32] span=from_string:40:15 */, Primitive=1) -> Tensor[(10), float32] {
    add(%p07, %p13) /* ty=Tensor[(10), float32] span=from_string:40:5 */
  } /* ty=fn (Tensor[(10), float32], Tensor[(10), float32]) -> Tensor[(10), float32] span=from_string:43:9 */;
  let %x_20 = %x_19(%x_16, %x_18);
  let %x_21 = (%x_14, %x_20) /* ty=(Tensor[(5, 10), float32], Tensor[(10), float32]) span=from_string:110:55 */;
  let %x_22 = fn (%p010: Tensor[(5, 10), float32] /* ty=Tensor[(5, 10), float32] span=from_string:45:24 */, Primitive=1) -> Tensor[(5, 10), int8] {
    %2 = qnn.quantize(%p010, 0.00390625f /* ty=float32 span=from_string:45:42 */, -128 /* ty=int32 span=from_string:45:88 */, out_dtype="int8") /* ty=Tensor[(5, 10), int8] span=from_string:46:26 */;
    %3 = qnn.dequantize(%2, 0.1f /* ty=float32 span=from_string:46:35 */, 10 /* ty=int32 span=from_string:46:79 */) /* ty=Tensor[(5, 10), float32] span=from_string:47:21 */;
    %4 = multiply(%3, 1f /* ty=float32 span=from_string:47:28 */) /* ty=Tensor[(5, 10), float32] span=from_string:48:18 */;
    qnn.quantize(%4, 0.1f /* ty=float32 span=from_string:48:27 */, 10 /* ty=int32 span=from_string:48:71 */, out_dtype="int8") /* ty=Tensor[(5, 10), int8] span=from_string:45:5 */
  } /* ty=fn (Tensor[(5, 10), float32]) -> Tensor[(5, 10), int8] span=from_string:105:9 */;
  let %x_23 = %x_22(%x_4);
  let %x_24 = fn (%p012: Tensor[(5, 10), float32] /* ty=Tensor[(5, 10), float32] span=from_string:51:14 */, %p15: Tensor[(96, 10), float32] /* ty=Tensor[(96, 10), float32] span=from_string:51:21 */, Primitive=1) -> Tensor[(5, 96), float32] {
    nn.dense(%p012, %p15, units=None) /* ty=Tensor[(5, 96), float32] span=from_string:51:5 */
  } /* ty=fn (Tensor[(5, 10), float32], Tensor[(96, 10), float32]) -> Tensor[(5, 96), float32] span=from_string:53:9 */;
  let %x_25 = %x_24(%x_14, %x2);
  let %x_26 = fn (%p011: Tensor[(5, 96), float32] /* ty=Tensor[(5, 96), float32] span=from_string:55:17 */, Primitive=1, relay.reshape_only=1) -> Tensor[(5, 96, 1), float32] {
    expand_dims(%p011, axis=2) /* ty=Tensor[(5, 96, 1), float32] span=from_string:55:5 */
  } /* ty=fn (Tensor[(5, 96), float32]) -> Tensor[(5, 96, 1), float32] span=from_string:64:9 */;
  let %x_27 = %x_26(%x_25);
  let %x_28 = fn (%p014: Tensor[(5, 10), float32] /* ty=Tensor[(5, 10), float32] span=from_string:58:14 */, %p16: Tensor[(58, 10), float32] /* ty=Tensor[(58, 10), float32] span=from_string:58:21 */, Primitive=1) -> Tensor[(5, 58), float32] {
    nn.dense(%p014, %p16, units=None) /* ty=Tensor[(5, 58), float32] span=from_string:58:5 */
  } /* ty=fn (Tensor[(5, 10), float32], Tensor[(58, 10), float32]) -> Tensor[(5, 58), float32] span=from_string:60:9 */;
  let %x_29 = %x_28(%x_14, %x3);
  let %x_30 = fn (%p013: Tensor[(5, 58), float32] /* ty=Tensor[(5, 58), float32] span=from_string:62:17 */, Primitive=1, relay.reshape_only=1) -> Tensor[(5, 58, 1), float32] {
    expand_dims(%p013, axis=2) /* ty=Tensor[(5, 58, 1), float32] span=from_string:62:5 */
  } /* ty=fn (Tensor[(5, 58), float32]) -> Tensor[(5, 58, 1), float32] span=from_string:65:9 */;
  let %x_31 = %x_30(%x_29);
  let %x_32 = (%x_27, %x_31) /* ty=(Tensor[(5, 96, 1), float32], Tensor[(5, 58, 1), float32]) span=from_string:110:65 */;
  let %x_33 = 10 /* ty=int32 span=from_string:110:72 */;
  let %x_34 = fn (%p016: Tensor[(5, 10), int8] /* ty=Tensor[(5, 10), int8] span=from_string:67:20 */, Primitive=1) -> Tensor[(5, 10), float32] {
    qnn.dequantize(%p016, 2f /* ty=float32 span=from_string:67:29 */, 0 /* ty=int32 span=from_string:67:72 */) /* ty=Tensor[(5, 10), float32] span=from_string:67:5 */
  } /* ty=fn (Tensor[(5, 10), int8]) -> Tensor[(5, 10), float32] span=from_string:69:9 */;
  let %x_35 = %x_34(%x0);
  let %x_36 = fn (%p015: Tensor[(5, 10), float32] /* ty=Tensor[(5, 10), float32] span=from_string:71:13 */, Primitive=1) -> Tensor[(5, 10), int32] {
    argsort(%p015, axis=1, dtype="int32") /* ty=Tensor[(5, 10), int32] span=from_string:71:5 */
  } /* ty=fn (Tensor[(5, 10), float32]) -> Tensor[(5, 10), int32] span=from_string:107:9 */;
  let %x_37 = %x_36(%x_35);
  let %x_38 = fn (%p017: Tensor[(5, 96), float32] /* ty=Tensor[(5, 96), float32] span=from_string:74:19 */, Primitive=1) -> Tensor[(5, 96), float32] {
    %5 = nn.relu(%p017) /* ty=Tensor[(5, 96), float32] span=from_string:75:15 */;
    %6 = add(%5, 1f /* ty=float32 span=from_string:75:22 */) /* ty=Tensor[(5, 96), float32] span=from_string:76:14 */;
    add(%6, %6) /* ty=Tensor[(5, 96), float32] span=from_string:74:5 */
  } /* ty=fn (Tensor[(5, 96), float32]) -> Tensor[(5, 96), float32] span=from_string:108:9 */;
  let %x_39 = %x_38(%x_25);
  let %x_40 = fn (%p020: Tensor[(5, 58, 1), float32] /* ty=Tensor[(5, 58, 1), float32] span=from_string:79:13 */, Primitive=1, relay.reshape_only=1) -> Tensor[(5, 58), float32] {
    squeeze(%p020) /* ty=Tensor[(5, 58), float32] span=from_string:79:5 */
  } /* ty=fn (Tensor[(5, 58, 1), float32]) -> Tensor[(5, 58), float32] span=from_string:81:9 */;
  let %x_41 = %x_40(%x_31);
  let %x_42 = fn (%p019: Tensor[(5, 58), float32] /* ty=Tensor[(5, 58), float32] span=from_string:85:15 */, Primitive=1) -> Tensor[(5, 116), float32] {
    %7 = squeeze(%p019) /* ty=Tensor[(5, 58), float32] span=from_string:84:15 */;
    %8 = add(%7, 1f /* ty=float32 span=from_string:84:22 */) /* ty=Tensor[(5, 58), float32] span=from_string:86:15 */;
    %9 = add(%p019, 1f /* ty=float32 span=from_string:85:24 */) /* ty=Tensor[(5, 58), float32] span=from_string:87:12 */;
    %10 = add(%8, 1f /* ty=float32 span=from_string:86:22 */) /* ty=Tensor[(5, 58), float32] span=from_string:87:17 */;
    %11 = (%9, %10) /* ty=(Tensor[(5, 58), float32], Tensor[(5, 58), float32]) span=from_string:88:17 */;
    concatenate(%11, axis=1) /* ty=Tensor[(5, 116), float32] span=from_string:83:5 */
  } /* ty=fn (Tensor[(5, 58), float32]) -> Tensor[(5, 116), float32] span=from_string:95:9 */;
  let %x_43 = %x_42(%x_41);
  let %x_44 = fn (%p021: Tensor[(5, 58), float32] /* ty=Tensor[(5, 58), float32] span=from_string:91:15 */, Primitive=1) -> Tensor[(5, 58), float32] {
    %12 = add(%p021, 1f /* ty=float32 span=from_string:91:24 */) /* ty=Tensor[(5, 58), float32] span=from_string:92:12 */;
    %13 = (%12,) /* ty=(Tensor[(5, 58), float32],) span=from_string:93:17 */;
    concatenate(%13, axis=1) /* ty=Tensor[(5, 58), float32] span=from_string:91:5 */
  } /* ty=fn (Tensor[(5, 58), float32]) -> Tensor[(5, 58), float32] span=from_string:96:9 */;
  let %x_45 = %x_44(%x_41);
  let %x_46 = fn (%p018: Tensor[(5, 116), float32] /* ty=Tensor[(5, 116), float32] span=from_string:98:12 */, %p17: Tensor[(5, 58), float32] /* ty=Tensor[(5, 58), float32] span=from_string:98:19 */, Primitive=1) -> Tensor[(5, 174), float32] {
    %14 = (%p018, %p17) /* ty=(Tensor[(5, 116), float32], Tensor[(5, 58), float32]) span=from_string:99:23 */;
    %15 = concatenate(%14, axis=1) /* ty=Tensor[(5, 174), float32] span=from_string:100:19 */;
    %16 = squeeze(%15) /* ty=Tensor[(5, 174), float32] span=from_string:101:9 */;
    add(%16, 1f /* ty=float32 span=from_string:101:16 */) /* ty=Tensor[(5, 174), float32] span=from_string:98:5 */
  } /* ty=fn (Tensor[(5, 116), float32], Tensor[(5, 58), float32]) -> Tensor[(5, 174), float32] span=from_string:109:9 */;
  let %x_47 = %x_46(%x_43, %x_45);
  let %x_48 = (%x_0, %x_6, %x_21, %x_23, %x_32, %x_33, %x_37, %x_39, %x_47) /* ty=(float32, Tensor[(5, 10), float32], (Tensor[(5, 10), float32], Tensor[(10), float32]), Tensor[(5, 10), int8], (Tensor[(5, 96, 1), float32], Tensor[(5, 58, 1), float32]), int32, Tensor[(5, 10), int32], Tensor[(5, 96), float32], Tensor[(5, 174), float32]) span=from_string:3:3 */;
  %x_48
}
