#[version = "0.0.5"]
def @main(%x0: Tensor[(5, 10), int8] /* ty=Tensor[(5, 10), int8] span=from_string:30:17 */, %x1: Tensor[(10), float32] /* ty=Tensor[(10), float32] */, %x2: Tensor[(96, 10), float32] /* ty=Tensor[(96, 10), float32] span=from_string:8:21 */, %x3: Tensor[(58, 10), float32] /* ty=Tensor[(58, 10), float32] span=from_string:9:21 */, %x4: Tensor[(10), float32] /* ty=Tensor[(10), float32] */) -> (float32, Tensor[(5, 10), float32], (Tensor[(5, 10), float32], Tensor[(10), float32]), Tensor[(5, 10), int8], (Tensor[(5, 96, 1), float32], Tensor[(5, 58, 1), float32]), int32, Tensor[(5, 10), int32], Tensor[(5, 96), float32], Tensor[(5, 174), float32]) {
  %0 = fn (%p01: Tensor[(5, 10), int8] /* ty=Tensor[(5, 10), int8] */, Primitive=1) -> Tensor[(5, 10), float32] {
    qnn.dequantize(%p01, 0.1f /* ty=float32 span=from_string:3:32 */, 0 /* ty=int32 span=from_string:3:74 */) /* ty=Tensor[(5, 10), float32] span=from_string:7:19 */
  } /* ty=fn (Tensor[(5, 10), int8]) -> Tensor[(5, 10), float32] */;
  %1 = %0(%x0) /* ty=Tensor[(5, 10), float32] */;
  %2 = fn (%p0: Tensor[(5, 10), float32] /* ty=Tensor[(5, 10), float32] */, Primitive=1) -> Tensor[(5, 10), float32] {
    nn.softmax(%p0) /* ty=Tensor[(5, 10), float32] span=from_string:33:49 */
  } /* ty=fn (Tensor[(5, 10), float32]) -> Tensor[(5, 10), float32] */;
  %3 = fn (Primitive=1) -> Tensor[(5, 10), float32] {
    ones(shape=[5, 10], dtype="float32") /* ty=Tensor[(5, 10), float32] span=from_string:6:24 */
  } /* ty=fn () -> Tensor[(5, 10), float32] */;
  %4 = %3() /* ty=Tensor[(5, 10), float32] */;
  %5 = fn (%p02: Tensor[(5, 10), float32] /* ty=Tensor[(5, 10), float32] */, %p1: Tensor[(2), int32] /* ty=Tensor[(2), int32] */, Primitive=1) -> Tensor[(5, 10), float32] {
    collapse_sum_to(%p02, %p1, meta[relay.attrs.InitOpAttrs][0]) /* ty=Tensor[(5, 10), float32] span=from_string:27:10 */
  } /* ty=fn (Tensor[(5, 10), float32], Tensor[(2), int32]) -> Tensor[(5, 10), float32] */;
  %6 = fn (%p03: Tensor[(5, 10), float32] /* ty=Tensor[(5, 10), float32] */, %p11: Tensor[(1), int32] /* ty=Tensor[(1), int32] */, Primitive=1) -> Tensor[(10), float32] {
    collapse_sum_to(%p03, %p11, meta[relay.attrs.InitOpAttrs][1]) /* ty=Tensor[(10), float32] span=from_string:27:14 */
  } /* ty=fn (Tensor[(5, 10), float32], Tensor[(1), int32]) -> Tensor[(10), float32] */;
  %7 = %5(%4, meta[relay.Constant][0] /* ty=Tensor[(2), int32] span=from_string:5:33 */) /* ty=Tensor[(5, 10), float32] */;
  %8 = %6(%4, meta[relay.Constant][1] /* ty=Tensor[(1), int32] span=from_string:6:33 */) /* ty=Tensor[(10), float32] */;
  %9 = %2(%1) /* ty=Tensor[(5, 10), float32] */;
  %10 = fn (%p04: Tensor[(5, 10), float32] /* ty=Tensor[(5, 10), float32] */, Primitive=1) -> Tensor[(5, 10), int8] {
    qnn.quantize(%p04, 0.00390625f /* ty=float32 span=from_string:28:37 */, -128 /* ty=int32 span=from_string:28:82 */, out_dtype="int8") /* ty=Tensor[(5, 10), int8] span=from_string:33:58 */
  } /* ty=fn (Tensor[(5, 10), float32]) -> Tensor[(5, 10), int8] */;
  %11 = fn (%p06: Tensor[(5, 10), float32] /* ty=Tensor[(5, 10), float32] */, %p12: Tensor[(96, 10), float32] /* ty=Tensor[(96, 10), float32] */, Primitive=1) -> Tensor[(5, 96), float32] {
    nn.dense(%p06, %p12, units=None) /* ty=Tensor[(5, 96), float32] span=from_string:12:16 */
  } /* ty=fn (Tensor[(5, 10), float32], Tensor[(96, 10), float32]) -> Tensor[(5, 96), float32] */;
  %12 = %11(%7, %x2) /* ty=Tensor[(5, 96), float32] */;
  %13 = fn (%p05: Tensor[(5, 96), float32] /* ty=Tensor[(5, 96), float32] */, Primitive=1, relay.reshape_only=1) -> Tensor[(5, 96, 1), float32] {
    expand_dims(%p05, axis=2) /* ty=Tensor[(5, 96, 1), float32] span=from_string:29:10 */
  } /* ty=fn (Tensor[(5, 96), float32]) -> Tensor[(5, 96, 1), float32] */;
  %14 = fn (%p08: Tensor[(5, 10), float32] /* ty=Tensor[(5, 10), float32] */, %p13: Tensor[(58, 10), float32] /* ty=Tensor[(58, 10), float32] */, Primitive=1) -> Tensor[(5, 58), float32] {
    nn.dense(%p08, %p13, units=None) /* ty=Tensor[(5, 58), float32] span=from_string:11:20 */
  } /* ty=fn (Tensor[(5, 10), float32], Tensor[(58, 10), float32]) -> Tensor[(5, 58), float32] */;
  %15 = %14(%7, %x3) /* ty=Tensor[(5, 58), float32] */;
  %16 = fn (%p07: Tensor[(5, 58), float32] /* ty=Tensor[(5, 58), float32] */, Primitive=1, relay.reshape_only=1) -> Tensor[(5, 58, 1), float32] {
    expand_dims(%p07, axis=2) /* ty=Tensor[(5, 58, 1), float32] span=from_string:29:14 */
  } /* ty=fn (Tensor[(5, 58), float32]) -> Tensor[(5, 58, 1), float32] */;
  %17 = %13(%12) /* ty=Tensor[(5, 96, 1), float32] */;
  %18 = %16(%15) /* ty=Tensor[(5, 58, 1), float32] */;
  %19 = fn (%p09: Tensor[(5, 10), int8] /* ty=Tensor[(5, 10), int8] */, Primitive=1) -> Tensor[(5, 10), int32] {
    argsort(%p09, axis=1, dtype="int32") /* ty=Tensor[(5, 10), int32] span=from_string:33:110 */
  } /* ty=fn (Tensor[(5, 10), int8]) -> Tensor[(5, 10), int32] */;
  %22 = fn (%p010: Tensor[(5, 96), float32] /* ty=Tensor[(5, 96), float32] */, Primitive=1) -> Tensor[(5, 96), float32] {
    %20 = nn.relu(%p010) /* ty=Tensor[(5, 96), float32] span=from_string:13:13 */;
    %21 = add(%20, 1f /* ty=float32 span=from_string:13:19 */) /* ty=Tensor[(5, 96), float32] span=from_string:31:18 */;
    add(%21, %21) /* ty=Tensor[(5, 96), float32] span=from_string:33:115 */
  } /* ty=fn (Tensor[(5, 96), float32]) -> Tensor[(5, 96), float32] */;
  %29 = fn (%p013: Tensor[(5, 58, 1), float32] /* ty=Tensor[(5, 58, 1), float32] */, Primitive=1, relay.reshape_only=1) -> Tensor[(5, 58), float32] {
    squeeze(%p013) /* ty=Tensor[(5, 58), float32] span=from_string:16:13 */
  } /* ty=fn (Tensor[(5, 58, 1), float32]) -> Tensor[(5, 58), float32] */;
  %30 = %29(%18) /* ty=Tensor[(5, 58), float32] */;
  %31 = fn (%p014: Tensor[(5, 58), float32] /* ty=Tensor[(5, 58), float32] */, Primitive=1) -> Tensor[(5, 58), float32] {
    add(%p014, 1f /* ty=float32 span=from_string:16:20 */) /* ty=Tensor[(5, 58), float32] span=from_string:20:10 */
  } /* ty=fn (Tensor[(5, 58), float32]) -> Tensor[(5, 58), float32] */;
  %32 = %31(%30) /* ty=Tensor[(5, 58), float32] */;
  %33 = fn (%p012: Tensor[(5, 58), float32] /* ty=Tensor[(5, 58), float32] */, %p15: Tensor[(5, 58), float32] /* ty=Tensor[(5, 58), float32] */, Primitive=1) -> Tensor[(5, 116), float32] {
    %26 = squeeze(%p012) /* ty=Tensor[(5, 58), float32] span=from_string:17:13 */;
    %27 = add(%26, 2f /* ty=float32 span=from_string:17:20 */) /* ty=Tensor[(5, 58), float32] span=from_string:18:15 */;
    %28 = (%p15, %27) /* ty=(Tensor[(5, 58), float32], Tensor[(5, 58), float32]) span=from_string:19:21 */;
    concatenate(%28, axis=1) /* ty=Tensor[(5, 116), float32] span=from_string:22:32 */
  } /* ty=fn (Tensor[(5, 58), float32], Tensor[(5, 58), float32]) -> Tensor[(5, 116), float32] */;
  %35 = fn (%p015: Tensor[(5, 58), float32] /* ty=Tensor[(5, 58), float32] */, Primitive=1) -> Tensor[(5, 58), float32] {
    %34 = (%p015,) /* ty=(Tensor[(5, 58), float32],) span=from_string:21:21 */;
    concatenate(%34, axis=1) /* ty=Tensor[(5, 58), float32] span=from_string:23:32 */
  } /* ty=fn (Tensor[(5, 58), float32]) -> Tensor[(5, 58), float32] */;
  %36 = %33(%30, %32) /* ty=Tensor[(5, 116), float32] */;
  %37 = %35(%32) /* ty=Tensor[(5, 58), float32] */;
  %38 = fn (%p011: Tensor[(5, 116), float32] /* ty=Tensor[(5, 116), float32] */, %p14: Tensor[(5, 58), float32] /* ty=Tensor[(5, 58), float32] */, Primitive=1) -> Tensor[(5, 174), float32] {
    %23 = (%p011, %p14) /* ty=(Tensor[(5, 116), float32], Tensor[(5, 58), float32]) span=from_string:25:21 */;
    %24 = concatenate(%23, axis=1) /* ty=Tensor[(5, 174), float32] span=from_string:26:17 */;
    %25 = squeeze(%24) /* ty=Tensor[(5, 174), float32] span=from_string:32:13 */;
    add(%25, 1f /* ty=float32 span=from_string:32:20 */) /* ty=Tensor[(5, 174), float32] span=from_string:33:120 */
  } /* ty=fn (Tensor[(5, 116), float32], Tensor[(5, 58), float32]) -> Tensor[(5, 174), float32] */;
  %39 = (%7, %8) /* ty=(Tensor[(5, 10), float32], Tensor[(10), float32]) span=from_string:33:53 */;
  %40 = %10(%9) /* ty=Tensor[(5, 10), int8] */;
  %41 = (%17, %18) /* ty=(Tensor[(5, 96, 1), float32], Tensor[(5, 58, 1), float32]) span=from_string:33:63 */;
  %42 = %19(%x0) /* ty=Tensor[(5, 10), int32] */;
  %43 = %22(%12) /* ty=Tensor[(5, 96), float32] */;
  %44 = %38(%36, %37) /* ty=Tensor[(5, 174), float32] */;
  (0.2f /* ty=float32 span=from_string:33:8 */, %9, %39, %40, %41, 10 /* ty=int32 span=from_string:33:70 */, %42, %43, %44) /* ty=(float32, Tensor[(5, 10), float32], (Tensor[(5, 10), float32], Tensor[(10), float32]), Tensor[(5, 10), int8], (Tensor[(5, 96, 1), float32], Tensor[(5, 58, 1), float32]), int32, Tensor[(5, 10), int32], Tensor[(5, 96), float32], Tensor[(5, 174), float32]) span=from_string:3:3 */
}

#[metadata]
{
  "root": 1, 
  "nodes": [
    {
      "type_key": ""
    }, 
    {
      "type_key": "Map", 
      "keys": [
        "relay.Constant", 
        "relay.attrs.InitOpAttrs"
      ], 
      "data": [2, 16]
    }, 
    {
      "type_key": "Array", 
      "data": [3, 11]
    }, 
    {
      "type_key": "relay.Constant", 
      "attrs": {
        "_checked_type_": "8", 
        "data": "0", 
        "span": "6", 
        "virtual_device_": "4"
      }
    }, 
    {
      "type_key": "VirtualDevice", 
      "attrs": {
        "device_type_int": "-1", 
        "memory_scope": "5", 
        "target": "0", 
        "virtual_device_id": "-1"
      }
    }, 
    {
      "type_key": "runtime.String"
    }, 
    {
      "type_key": "Span", 
      "attrs": {
        "column": "33", 
        "end_column": "51", 
        "end_line": "5", 
        "line": "5", 
        "source_name": "7"
      }
    }, 
    {
      "type_key": "SourceName", 
      "repr_str": "from_string"
    }, 
    {
      "type_key": "relay.TensorType", 
      "attrs": {
        "dtype": "int32", 
        "shape": "9", 
        "span": "0"
      }
    }, 
    {
      "type_key": "Array", 
      "data": [10]
    }, 
    {
      "type_key": "IntImm", 
      "attrs": {
        "dtype": "int32", 
        "span": "0", 
        "value": "2"
      }
    }, 
    {
      "type_key": "relay.Constant", 
      "attrs": {
        "_checked_type_": "13", 
        "data": "1", 
        "span": "12", 
        "virtual_device_": "4"
      }
    }, 
    {
      "type_key": "Span", 
      "attrs": {
        "column": "33", 
        "end_column": "51", 
        "end_line": "6", 
        "line": "6", 
        "source_name": "7"
      }
    }, 
    {
      "type_key": "relay.TensorType", 
      "attrs": {
        "dtype": "int32", 
        "shape": "14", 
        "span": "0"
      }
    }, 
    {
      "type_key": "Array", 
      "data": [15]
    }, 
    {
      "type_key": "IntImm", 
      "attrs": {
        "dtype": "int32", 
        "span": "0", 
        "value": "1"
      }
    }, 
    {
      "type_key": "Array", 
      "data": [17, 21]
    }, 
    {
      "type_key": "relay.attrs.InitOpAttrs", 
      "attrs": {
        "dtype": "", 
        "shape": "18"
      }
    }, 
    {
      "type_key": "Array", 
      "data": [19, 20]
    }, 
    {
      "type_key": "IntImm", 
      "attrs": {
        "dtype": "int32", 
        "span": "0", 
        "value": "5"
      }
    }, 
    {
      "type_key": "IntImm", 
      "attrs": {
        "dtype": "int32", 
        "span": "0", 
        "value": "10"
      }
    }, 
    {
      "type_key": "relay.attrs.InitOpAttrs", 
      "attrs": {
        "dtype": "", 
        "shape": "22"
      }
    }, 
    {
      "type_key": "Array", 
      "data": [23]
    }, 
    {
      "type_key": "IntImm", 
      "attrs": {
        "dtype": "int32", 
        "span": "0", 
        "value": "10"
      }
    }
  ], 
  "b64ndarrays": [
    "P6G0lvBAXt0AAAAAAAAAAAEAAAAAAAAAAQAAAAAgAQACAAAAAAAAAAgAAAAAAAAABQAAAAoAAAA=", 
    "P6G0lvBAXt0AAAAAAAAAAAEAAAAAAAAAAQAAAAAgAQABAAAAAAAAAAQAAAAAAAAACgAAAA=="
  ], 
  "attrs": {"tvm_version": "0.13.0"}
}