#[version = "0.0.5"]
def @main(%x0: Tensor[(5, 10), int8] /* ty=Tensor[(5, 10), int8] span=from_string:75:21 */, %x1: Tensor[(10), float32] /* ty=Tensor[(10), float32] span=from_string:37:21 */, %x2: Tensor[(96, 10), float32] /* ty=Tensor[(96, 10), float32] span=from_string:57:28 */, %x3: Tensor[(58, 10), float32] /* ty=Tensor[(58, 10), float32] span=from_string:65:28 */, %x4: Tensor[(10), float32] /* ty=Tensor[(10), float32] */) -> (float32, Tensor[(5, 10), float32], (Tensor[(5, 10), float32], Tensor[(10), float32]), Tensor[(5, 10), int8], (Tensor[(5, 96, 1), float32], Tensor[(5, 58, 1), float32]), int32, Tensor[(5, 10), int32], Tensor[(5, 96), float32], Tensor[(5, 174), float32]) {
  let %x_0: float32 /* ty=float32 span=from_string:114:16 */ = 0.2f /* ty=float32 span=from_string:3:18 */;
  let %x_1: fn (Tensor[(5, 10), int8]) -> Tensor[(5, 10), float32] /* ty=fn (Tensor[(5, 10), int8]) -> Tensor[(5, 10), float32] span=from_string:7:14 */ = fn (%p02: Tensor[(5, 10), int8] /* ty=Tensor[(5, 10), int8] span=from_string:5:20 */, Primitive=1) -> Tensor[(5, 10), float32] {
    qnn.dequantize(%p02, 0.1f /* ty=float32 span=from_string:5:30 */, 0 /* ty=int32 span=from_string:5:72 */) /* ty=Tensor[(5, 10), float32] span=from_string:5:5 */
  } /* ty=fn (Tensor[(5, 10), int8]) -> Tensor[(5, 10), float32] span=from_string:4:3 */;
  let %x_2: Tensor[(5, 10), float32] /* ty=Tensor[(5, 10), float32] span=from_string:25:20 */ = %x_1(%x0) /* ty=Tensor[(5, 10), float32] span=from_string:7:14 */;
  let %x_3: fn (Tensor[(5, 10), float32]) -> Tensor[(5, 10), float32] /* ty=fn (Tensor[(5, 10), float32]) -> Tensor[(5, 10), float32] span=from_string:11:14 */ = fn (%p01: Tensor[(5, 10), float32] /* ty=Tensor[(5, 10), float32] span=from_string:9:16 */, Primitive=1) -> Tensor[(5, 10), float32] {
    nn.softmax(%p01) /* ty=Tensor[(5, 10), float32] span=from_string:9:5 */
  } /* ty=fn (Tensor[(5, 10), float32]) -> Tensor[(5, 10), float32] span=from_string:8:3 */;
  let %x_4: Tensor[(5, 10), float32] /* ty=Tensor[(5, 10), float32] span=from_string:53:21 */ = %x_3(%x_2) /* ty=Tensor[(5, 10), float32] span=from_string:11:14 */;
  let %x_5: fn (Tensor[(5, 10), float32]) -> Tensor[(5, 10), float32] /* ty=fn (Tensor[(5, 10), float32]) -> Tensor[(5, 10), float32] span=from_string:16:14 */ = fn (%p0: Tensor[(5, 10), float32] /* ty=Tensor[(5, 10), float32] span=from_string:14:9 */, Primitive=1) -> Tensor[(5, 10), float32] {
    %0 = zeros(shape=[1], dtype="float32") /* ty=Tensor[(1), float32] span=from_string:14:14 */;
    add(%p0, %0) /* ty=Tensor[(5, 10), float32] span=from_string:13:5 */
  } /* ty=fn (Tensor[(5, 10), float32]) -> Tensor[(5, 10), float32] span=from_string:12:3 */;
  let %x_6: Tensor[(5, 10), float32] /* ty=Tensor[(5, 10), float32] span=from_string:114:22 */ = %x_5(%x_4) /* ty=Tensor[(5, 10), float32] span=from_string:16:14 */;
  let %x_7: fn (Tensor[(5, 10), float32]) -> Tensor[(5, 10), float32] /* ty=fn (Tensor[(5, 10), float32]) -> Tensor[(5, 10), float32] span=from_string:20:14 */ = fn (%p04: Tensor[(5, 10), float32] /* ty=Tensor[(5, 10), float32] span=from_string:18:16 */, Primitive=1) -> Tensor[(5, 10), float32] {
    zeros_like(%p04) /* ty=Tensor[(5, 10), float32] span=from_string:18:5 */
  } /* ty=fn (Tensor[(5, 10), float32]) -> Tensor[(5, 10), float32] span=from_string:17:3 */;
  let %x_8: Tensor[(5, 10), float32] /* ty=Tensor[(5, 10), float32] span=from_string:33:21 */ = %x_7(%x_2) /* ty=Tensor[(5, 10), float32] span=from_string:20:14 */;
  let %x_9: fn (Tensor[(5, 10), float32], Tensor[(10), float32]) -> Tensor[(5, 10), float32] /* ty=fn (Tensor[(5, 10), float32], Tensor[(10), float32]) -> Tensor[(5, 10), float32] span=from_string:25:15 */ = fn (%p06: Tensor[(5, 10), float32] /* ty=Tensor[(5, 10), float32] span=from_string:22:14 */, %p12: Tensor[(10), float32] /* ty=Tensor[(10), float32] span=from_string:22:20 */, Primitive=1) -> Tensor[(5, 10), float32] {
    %1 = add(%p06, %p12) /* ty=Tensor[(5, 10), float32] span=from_string:23:15 */;
    ones_like(%1) /* ty=Tensor[(5, 10), float32] span=from_string:22:5 */
  } /* ty=fn (Tensor[(5, 10), float32], Tensor[(10), float32]) -> Tensor[(5, 10), float32] span=from_string:21:3 */;
  let %x_10: Tensor[(5, 10), float32] /* ty=Tensor[(5, 10), float32] span=from_string:41:21 */ = %x_9(%x_2, %x1) /* ty=Tensor[(5, 10), float32] span=from_string:25:15 */;
  let %x_11: fn (Tensor[(5, 10), float32], Tensor[(5, 10), float32]) -> Tensor[(5, 10), float32] /* ty=fn (Tensor[(5, 10), float32], Tensor[(5, 10), float32]) -> Tensor[(5, 10), float32] span=from_string:29:15 */ = fn (%p05: Tensor[(5, 10), float32] /* ty=Tensor[(5, 10), float32] span=from_string:27:23 */, %p11: Tensor[(5, 10), float32] /* ty=Tensor[(5, 10), float32] span=from_string:27:29 */, Primitive=1) -> Tensor[(5, 10), float32] {
    collapse_sum_like(%p05, %p11) /* ty=Tensor[(5, 10), float32] span=from_string:27:5 */
  } /* ty=fn (Tensor[(5, 10), float32], Tensor[(5, 10), float32]) -> Tensor[(5, 10), float32] span=from_string:26:3 */;
  let %x_12: Tensor[(5, 10), float32] /* ty=Tensor[(5, 10), float32] span=from_string:33:27 */ = %x_11(%x_10, %x_8) /* ty=Tensor[(5, 10), float32] span=from_string:29:15 */;
  let %x_13: fn (Tensor[(5, 10), float32], Tensor[(5, 10), float32]) -> Tensor[(5, 10), float32] /* ty=fn (Tensor[(5, 10), float32], Tensor[(5, 10), float32]) -> Tensor[(5, 10), float32] span=from_string:33:15 */ = fn (%p03: Tensor[(5, 10), float32] /* ty=Tensor[(5, 10), float32] span=from_string:31:9 */, %p1: Tensor[(5, 10), float32] /* ty=Tensor[(5, 10), float32] span=from_string:31:15 */, Primitive=1) -> Tensor[(5, 10), float32] {
    add(%p03, %p1) /* ty=Tensor[(5, 10), float32] span=from_string:31:5 */
  } /* ty=fn (Tensor[(5, 10), float32], Tensor[(5, 10), float32]) -> Tensor[(5, 10), float32] span=from_string:30:3 */;
  let %x_14: Tensor[(5, 10), float32] /* ty=Tensor[(5, 10), float32] span=from_string:65:21 */ = %x_13(%x_8, %x_12) /* ty=Tensor[(5, 10), float32] span=from_string:33:15 */;
  let %x_15: fn (Tensor[(10), float32]) -> Tensor[(10), float32] /* ty=fn (Tensor[(10), float32]) -> Tensor[(10), float32] span=from_string:37:15 */ = fn (%p08: Tensor[(10), float32] /* ty=Tensor[(10), float32] span=from_string:35:16 */, Primitive=1) -> Tensor[(10), float32] {
    zeros_like(%p08) /* ty=Tensor[(10), float32] span=from_string:35:5 */
  } /* ty=fn (Tensor[(10), float32]) -> Tensor[(10), float32] span=from_string:34:3 */;
  let %x_16: Tensor[(10), float32] /* ty=Tensor[(10), float32] span=from_string:45:21 */ = %x_15(%x1) /* ty=Tensor[(10), float32] span=from_string:37:15 */;
  let %x_17: fn (Tensor[(5, 10), float32], Tensor[(10), float32]) -> Tensor[(10), float32] /* ty=fn (Tensor[(5, 10), float32], Tensor[(10), float32]) -> Tensor[(10), float32] span=from_string:41:15 */ = fn (%p09: Tensor[(5, 10), float32] /* ty=Tensor[(5, 10), float32] span=from_string:39:23 */, %p14: Tensor[(10), float32] /* ty=Tensor[(10), float32] span=from_string:39:29 */, Primitive=1) -> Tensor[(10), float32] {
    collapse_sum_like(%p09, %p14) /* ty=Tensor[(10), float32] span=from_string:39:5 */
  } /* ty=fn (Tensor[(5, 10), float32], Tensor[(10), float32]) -> Tensor[(10), float32] span=from_string:38:3 */;
  let %x_18: Tensor[(10), float32] /* ty=Tensor[(10), float32] span=from_string:45:28 */ = %x_17(%x_10, %x_16) /* ty=Tensor[(10), float32] span=from_string:41:15 */;
  let %x_19: fn (Tensor[(10), float32], Tensor[(10), float32]) -> Tensor[(10), float32] /* ty=fn (Tensor[(10), float32], Tensor[(10), float32]) -> Tensor[(10), float32] span=from_string:45:15 */ = fn (%p07: Tensor[(10), float32] /* ty=Tensor[(10), float32] span=from_string:43:9 */, %p13: Tensor[(10), float32] /* ty=Tensor[(10), float32] span=from_string:43:15 */, Primitive=1) -> Tensor[(10), float32] {
    add(%p07, %p13) /* ty=Tensor[(10), float32] span=from_string:43:5 */
  } /* ty=fn (Tensor[(10), float32], Tensor[(10), float32]) -> Tensor[(10), float32] span=from_string:42:3 */;
  let %x_20: Tensor[(10), float32] /* ty=Tensor[(10), float32] span=from_string:46:23 */ = %x_19(%x_16, %x_18) /* ty=Tensor[(10), float32] span=from_string:45:15 */;
  let %x_21: (Tensor[(5, 10), float32], Tensor[(10), float32]) /* ty=(Tensor[(5, 10), float32], Tensor[(10), float32]) span=from_string:114:28 */ = (%x_14, %x_20) /* ty=(Tensor[(5, 10), float32], Tensor[(10), float32]) span=from_string:46:15 */;
  let %x_22: fn (Tensor[(5, 10), float32]) -> Tensor[(5, 10), int8] /* ty=fn (Tensor[(5, 10), float32]) -> Tensor[(5, 10), int8] span=from_string:53:15 */ = fn (%p010: Tensor[(5, 10), float32] /* ty=Tensor[(5, 10), float32] span=from_string:48:23 */, Primitive=1) -> Tensor[(5, 10), int8] {
    %2 = qnn.quantize(%p010, 0.00390625f /* ty=float32 span=from_string:48:41 */, -128 /* ty=int32 span=from_string:48:87 */, out_dtype="int8") /* ty=Tensor[(5, 10), int8] span=from_string:49:25 */;
    %3 = qnn.dequantize(%2, 0.1f /* ty=float32 span=from_string:49:33 */, 10 /* ty=int32 span=from_string:49:77 */) /* ty=Tensor[(5, 10), float32] span=from_string:50:20 */;
    %4 = multiply(%3, 1f /* ty=float32 span=from_string:50:26 */) /* ty=Tensor[(5, 10), float32] span=from_string:51:18 */;
    qnn.quantize(%4, 0.1f /* ty=float32 span=from_string:51:26 */, 10 /* ty=int32 span=from_string:51:70 */, out_dtype="int8") /* ty=Tensor[(5, 10), int8] span=from_string:48:5 */
  } /* ty=fn (Tensor[(5, 10), float32]) -> Tensor[(5, 10), int8] span=from_string:47:3 */;
  let %x_23: Tensor[(5, 10), int8] /* ty=Tensor[(5, 10), int8] span=from_string:114:35 */ = %x_22(%x_4) /* ty=Tensor[(5, 10), int8] span=from_string:53:15 */;
  let %x_24: fn (Tensor[(5, 10), float32], Tensor[(96, 10), float32]) -> Tensor[(5, 96), float32] /* ty=fn (Tensor[(5, 10), float32], Tensor[(96, 10), float32]) -> Tensor[(5, 96), float32] span=from_string:57:15 */ = fn (%p012: Tensor[(5, 10), float32] /* ty=Tensor[(5, 10), float32] span=from_string:55:14 */, %p15: Tensor[(96, 10), float32] /* ty=Tensor[(96, 10), float32] span=from_string:55:21 */, Primitive=1) -> Tensor[(5, 96), float32] {
    nn.dense(%p012, %p15, units=None) /* ty=Tensor[(5, 96), float32] span=from_string:55:5 */
  } /* ty=fn (Tensor[(5, 10), float32], Tensor[(96, 10), float32]) -> Tensor[(5, 96), float32] span=from_string:54:3 */;
  let %x_25: Tensor[(5, 96), float32] /* ty=Tensor[(5, 96), float32] span=from_string:87:21 */ = %x_24(%x_14, %x2) /* ty=Tensor[(5, 96), float32] span=from_string:57:15 */;
  let %x_26: fn (Tensor[(5, 96), float32]) -> Tensor[(5, 96, 1), float32] /* ty=fn (Tensor[(5, 96), float32]) -> Tensor[(5, 96, 1), float32] span=from_string:61:15 */ = fn (%p011: Tensor[(5, 96), float32] /* ty=Tensor[(5, 96), float32] span=from_string:59:17 */, Primitive=1, relay.reshape_only=1) -> Tensor[(5, 96, 1), float32] {
    expand_dims(%p011, axis=2) /* ty=Tensor[(5, 96, 1), float32] span=from_string:59:5 */
  } /* ty=fn (Tensor[(5, 96), float32]) -> Tensor[(5, 96, 1), float32] span=from_string:58:3 */;
  let %x_27: Tensor[(5, 96, 1), float32] /* ty=Tensor[(5, 96, 1), float32] span=from_string:70:16 */ = %x_26(%x_25) /* ty=Tensor[(5, 96, 1), float32] span=from_string:61:15 */;
  let %x_28: fn (Tensor[(5, 10), float32], Tensor[(58, 10), float32]) -> Tensor[(5, 58), float32] /* ty=fn (Tensor[(5, 10), float32], Tensor[(58, 10), float32]) -> Tensor[(5, 58), float32] span=from_string:65:15 */ = fn (%p014: Tensor[(5, 10), float32] /* ty=Tensor[(5, 10), float32] span=from_string:63:14 */, %p16: Tensor[(58, 10), float32] /* ty=Tensor[(58, 10), float32] span=from_string:63:21 */, Primitive=1) -> Tensor[(5, 58), float32] {
    nn.dense(%p014, %p16, units=None) /* ty=Tensor[(5, 58), float32] span=from_string:63:5 */
  } /* ty=fn (Tensor[(5, 10), float32], Tensor[(58, 10), float32]) -> Tensor[(5, 58), float32] span=from_string:62:3 */;
  let %x_29: Tensor[(5, 58), float32] /* ty=Tensor[(5, 58), float32] span=from_string:69:21 */ = %x_28(%x_14, %x3) /* ty=Tensor[(5, 58), float32] span=from_string:65:15 */;
  let %x_30: fn (Tensor[(5, 58), float32]) -> Tensor[(5, 58, 1), float32] /* ty=fn (Tensor[(5, 58), float32]) -> Tensor[(5, 58, 1), float32] span=from_string:69:15 */ = fn (%p013: Tensor[(5, 58), float32] /* ty=Tensor[(5, 58), float32] span=from_string:67:17 */, Primitive=1, relay.reshape_only=1) -> Tensor[(5, 58, 1), float32] {
    expand_dims(%p013, axis=2) /* ty=Tensor[(5, 58, 1), float32] span=from_string:67:5 */
  } /* ty=fn (Tensor[(5, 58), float32]) -> Tensor[(5, 58, 1), float32] span=from_string:66:3 */;
  let %x_31: Tensor[(5, 58, 1), float32] /* ty=Tensor[(5, 58, 1), float32] span=from_string:91:21 */ = %x_30(%x_29) /* ty=Tensor[(5, 58, 1), float32] span=from_string:69:15 */;
  let %x_32: (Tensor[(5, 96, 1), float32], Tensor[(5, 58, 1), float32]) /* ty=(Tensor[(5, 96, 1), float32], Tensor[(5, 58, 1), float32]) span=from_string:114:42 */ = (%x_27, %x_31) /* ty=(Tensor[(5, 96, 1), float32], Tensor[(5, 58, 1), float32]) span=from_string:70:15 */;
  let %x_33: int32 /* ty=int32 span=from_string:114:49 */ = 10 /* ty=int32 span=from_string:71:17 */;
  let %x_34: fn (Tensor[(5, 10), int8]) -> Tensor[(5, 10), float32] /* ty=fn (Tensor[(5, 10), int8]) -> Tensor[(5, 10), float32] span=from_string:75:15 */ = fn (%p016: Tensor[(5, 10), int8] /* ty=Tensor[(5, 10), int8] span=from_string:73:20 */, Primitive=1) -> Tensor[(5, 10), float32] {
    qnn.dequantize(%p016, 2f /* ty=float32 span=from_string:73:29 */, 0 /* ty=int32 span=from_string:73:72 */) /* ty=Tensor[(5, 10), float32] span=from_string:73:5 */
  } /* ty=fn (Tensor[(5, 10), int8]) -> Tensor[(5, 10), float32] span=from_string:72:3 */;
  let %x_35: Tensor[(5, 10), float32] /* ty=Tensor[(5, 10), float32] span=from_string:79:21 */ = %x_34(%x0) /* ty=Tensor[(5, 10), float32] span=from_string:75:15 */;
  let %x_36: fn (Tensor[(5, 10), float32]) -> Tensor[(5, 10), int32] /* ty=fn (Tensor[(5, 10), float32]) -> Tensor[(5, 10), int32] span=from_string:79:15 */ = fn (%p015: Tensor[(5, 10), float32] /* ty=Tensor[(5, 10), float32] span=from_string:77:13 */, Primitive=1) -> Tensor[(5, 10), int32] {
    argsort(%p015, axis=1, dtype="int32") /* ty=Tensor[(5, 10), int32] span=from_string:77:5 */
  } /* ty=fn (Tensor[(5, 10), float32]) -> Tensor[(5, 10), int32] span=from_string:76:3 */;
  let %x_37: Tensor[(5, 10), int32] /* ty=Tensor[(5, 10), int32] span=from_string:114:56 */ = %x_36(%x_35) /* ty=Tensor[(5, 10), int32] span=from_string:79:15 */;
  let %x_38: fn (Tensor[(5, 96), float32]) -> Tensor[(5, 96), float32] /* ty=fn (Tensor[(5, 96), float32]) -> Tensor[(5, 96), float32] span=from_string:87:15 */ = fn (%p017: Tensor[(5, 96), float32] /* ty=Tensor[(5, 96), float32] span=from_string:82:18 */, Primitive=1) -> Tensor[(5, 96), float32] {
    %5 = nn.relu(%p017) /* ty=Tensor[(5, 96), float32] span=from_string:83:14 */;
    %6 = add(%5, 1f /* ty=float32 span=from_string:83:20 */) /* ty=Tensor[(5, 96), float32] span=from_string:85:9 */;
    add(%6, %6) /* ty=Tensor[(5, 96), float32] span=from_string:81:5 */
  } /* ty=fn (Tensor[(5, 96), float32]) -> Tensor[(5, 96), float32] span=from_string:80:3 */;
  let %x_39: Tensor[(5, 96), float32] /* ty=Tensor[(5, 96), float32] span=from_string:114:63 */ = %x_38(%x_25) /* ty=Tensor[(5, 96), float32] span=from_string:87:15 */;
  let %x_40: fn (Tensor[(5, 58, 1), float32]) -> Tensor[(5, 58), float32] /* ty=fn (Tensor[(5, 58, 1), float32]) -> Tensor[(5, 58), float32] span=from_string:91:15 */ = fn (%p020: Tensor[(5, 58, 1), float32] /* ty=Tensor[(5, 58, 1), float32] span=from_string:89:13 */, Primitive=1, relay.reshape_only=1) -> Tensor[(5, 58), float32] {
    squeeze(%p020) /* ty=Tensor[(5, 58), float32] span=from_string:89:5 */
  } /* ty=fn (Tensor[(5, 58, 1), float32]) -> Tensor[(5, 58), float32] span=from_string:88:3 */;
  let %x_41: Tensor[(5, 58), float32] /* ty=Tensor[(5, 58), float32] span=from_string:106:21 */ = %x_40(%x_31) /* ty=Tensor[(5, 58), float32] span=from_string:91:15 */;
  let %x_42: fn (Tensor[(5, 58), float32]) -> Tensor[(5, 116), float32] /* ty=fn (Tensor[(5, 58), float32]) -> Tensor[(5, 116), float32] span=from_string:100:15 */ = fn (%p019: Tensor[(5, 58), float32] /* ty=Tensor[(5, 58), float32] span=from_string:95:15 */, Primitive=1) -> Tensor[(5, 116), float32] {
    %7 = squeeze(%p019) /* ty=Tensor[(5, 58), float32] span=from_string:94:15 */;
    %8 = add(%7, 1f /* ty=float32 span=from_string:94:21 */) /* ty=Tensor[(5, 58), float32] span=from_string:96:15 */;
    %9 = add(%p019, 1f /* ty=float32 span=from_string:95:24 */) /* ty=Tensor[(5, 58), float32] span=from_string:97:12 */;
    %10 = add(%8, 1f /* ty=float32 span=from_string:96:22 */) /* ty=Tensor[(5, 58), float32] span=from_string:97:17 */;
    %11 = (%9, %10) /* ty=(Tensor[(5, 58), float32], Tensor[(5, 58), float32]) span=from_string:98:17 */;
    concatenate(%11, axis=1) /* ty=Tensor[(5, 116), float32] span=from_string:93:5 */
  } /* ty=fn (Tensor[(5, 58), float32]) -> Tensor[(5, 116), float32] span=from_string:92:3 */;
  let %x_43: Tensor[(5, 116), float32] /* ty=Tensor[(5, 116), float32] span=from_string:113:21 */ = %x_42(%x_41) /* ty=Tensor[(5, 116), float32] span=from_string:100:15 */;
  let %x_44: fn (Tensor[(5, 58), float32]) -> Tensor[(5, 58), float32] /* ty=fn (Tensor[(5, 58), float32]) -> Tensor[(5, 58), float32] span=from_string:106:15 */ = fn (%p021: Tensor[(5, 58), float32] /* ty=Tensor[(5, 58), float32] span=from_string:102:15 */, Primitive=1) -> Tensor[(5, 58), float32] {
    %12 = add(%p021, 1f /* ty=float32 span=from_string:102:24 */) /* ty=Tensor[(5, 58), float32] span=from_string:103:12 */;
    %13 = (%12,) /* ty=(Tensor[(5, 58), float32],) span=from_string:104:17 */;
    concatenate(%13, axis=1) /* ty=Tensor[(5, 58), float32] span=from_string:102:5 */
  } /* ty=fn (Tensor[(5, 58), float32]) -> Tensor[(5, 58), float32] span=from_string:101:3 */;
  let %x_45: Tensor[(5, 58), float32] /* ty=Tensor[(5, 58), float32] span=from_string:113:28 */ = %x_44(%x_41) /* ty=Tensor[(5, 58), float32] span=from_string:106:15 */;
  let %x_46: fn (Tensor[(5, 116), float32], Tensor[(5, 58), float32]) -> Tensor[(5, 174), float32] /* ty=fn (Tensor[(5, 116), float32], Tensor[(5, 58), float32]) -> Tensor[(5, 174), float32] span=from_string:113:15 */ = fn (%p018: Tensor[(5, 116), float32] /* ty=Tensor[(5, 116), float32] span=from_string:108:12 */, %p17: Tensor[(5, 58), float32] /* ty=Tensor[(5, 58), float32] span=from_string:108:19 */, Primitive=1) -> Tensor[(5, 174), float32] {
    %14 = (%p018, %p17) /* ty=(Tensor[(5, 116), float32], Tensor[(5, 58), float32]) span=from_string:109:23 */;
    %15 = concatenate(%14, axis=1) /* ty=Tensor[(5, 174), float32] span=from_string:110:19 */;
    %16 = squeeze(%15) /* ty=Tensor[(5, 174), float32] span=from_string:111:9 */;
    add(%16, 1f /* ty=float32 span=from_string:111:16 */) /* ty=Tensor[(5, 174), float32] span=from_string:108:5 */
  } /* ty=fn (Tensor[(5, 116), float32], Tensor[(5, 58), float32]) -> Tensor[(5, 174), float32] span=from_string:107:3 */;
  let %x_47: Tensor[(5, 174), float32] /* ty=Tensor[(5, 174), float32] span=from_string:114:70 */ = %x_46(%x_43, %x_45) /* ty=Tensor[(5, 174), float32] span=from_string:113:15 */;
  let %x_48: (float32, Tensor[(5, 10), float32], (Tensor[(5, 10), float32], Tensor[(10), float32]), Tensor[(5, 10), int8], (Tensor[(5, 96, 1), float32], Tensor[(5, 58, 1), float32]), int32, Tensor[(5, 10), int32], Tensor[(5, 96), float32], Tensor[(5, 174), float32]) /* ty=(float32, Tensor[(5, 10), float32], (Tensor[(5, 10), float32], Tensor[(10), float32]), Tensor[(5, 10), int8], (Tensor[(5, 96, 1), float32], Tensor[(5, 58, 1), float32]), int32, Tensor[(5, 10), int32], Tensor[(5, 96), float32], Tensor[(5, 174), float32]) span=from_string:115:3 */ = (%x_0, %x_6, %x_21, %x_23, %x_32, %x_33, %x_37, %x_39, %x_47) /* ty=(float32, Tensor[(5, 10), float32], (Tensor[(5, 10), float32], Tensor[(10), float32]), Tensor[(5, 10), int8], (Tensor[(5, 96, 1), float32], Tensor[(5, 58, 1), float32]), int32, Tensor[(5, 10), int32], Tensor[(5, 96), float32], Tensor[(5, 174), float32]) span=from_string:114:15 */;
  %x_48
}
