#[version = "0.0.5"]
def @main(%x0: Tensor[(1, 3, 224, 224), int8] /* ty=Tensor[(1, 3, 224, 224), int8] span=GeneratedSource:41:13 */, %x1: Tensor[(1, 3, 224, 224), int8] /* ty=Tensor[(1, 3, 224, 224), int8] span=GeneratedSource:56:13 */, %x2: Tensor[(3, 3, 3, 3), float32] /* ty=Tensor[(3, 3, 3, 3), float32] span=GeneratedSource:29:18 */, %x3: Tensor[(3, 3, 1, 1), float32] /* ty=Tensor[(3, 3, 1, 1), float32] span=GeneratedSource:76:18 */, %x4: Tensor[(3, 3, 3, 3), float32] /* ty=Tensor[(3, 3, 3, 3), float32] span=GeneratedSource:79:13 */, %x5: Tensor[(1, 3, 224, 89), int8] /* ty=Tensor[(1, 3, 224, 89), int8] span=GeneratedSource:77:18 */, %x6: Tensor[(1, 3, 224, 32), int8] /* ty=Tensor[(1, 3, 224, 32), int8] span=GeneratedSource:77:23 */, %x7: Tensor[(1, 3, 224, 4), int8] /* ty=Tensor[(1, 3, 224, 4), int8] span=GeneratedSource:77:28 */, %x8: Tensor[(224), float32] /* ty=Tensor[(224), float32] span=GeneratedSource:66:35 */, %x9: Tensor[(224), float32] /* ty=Tensor[(224), float32] span=GeneratedSource:66:30 */, %x10: Tensor[(224), float32] /* ty=Tensor[(224), float32] span=GeneratedSource:66:24 */, %x11: Tensor[(224), float32] /* ty=Tensor[(224), float32] span=GeneratedSource:66:18 */) -> (Tensor[(1, 3, 224, 224), float16], Tensor[(1, 3, 224, 224), float32], Tensor[(1, 3, 224, 349), int8], Tensor[(1, 3, 224, 224), float32], Tensor[(3, 3, 3, 3), float32], Tensor[(1, 224, 3, 224), float32], Tensor[(1, 1, 3, 224, 224), int8]) {
  %2 = fn (%p02: Tensor[(1, 3, 224, 224), int8] /* ty=Tensor[(1, 3, 224, 224), int8] span=GeneratedSource:4:20 */, Primitive=1) -> Tensor[(1, 3, 224, 224), float32] {
    qnn.dequantize(%p02, 0.1f /* ty=float32 span=GeneratedSource:4:30 */, 0 /* ty=int32 span=GeneratedSource:4:72 */) /* ty=Tensor[(1, 3, 224, 224), float32] span=GeneratedSource:4:5 */
  } /* ty=fn (Tensor[(1, 3, 224, 224), int8]) -> Tensor[(1, 3, 224, 224), float32] span=GeneratedSource:6:8 */;
  %3 = %2(%x0) /* ty=Tensor[(1, 3, 224, 224), float32] span=GeneratedSource:56:18 */;
  %4 = fn (%p01: Tensor[(1, 3, 224, 224), float32] /* ty=Tensor[(1, 3, 224, 224), float32] span=GeneratedSource:8:16 */, Primitive=1) -> Tensor[(1, 3, 224, 224), float32] {
    nn.softmax(%p01) /* ty=Tensor[(1, 3, 224, 224), float32] span=GeneratedSource:8:5 */
  } /* ty=fn (Tensor[(1, 3, 224, 224), float32]) -> Tensor[(1, 3, 224, 224), float32] span=GeneratedSource:10:8 */;
  %5 = %4(%3) /* ty=Tensor[(1, 3, 224, 224), float32] span=GeneratedSource:75:12 */;
  %6 = fn (%p0: Tensor[(1, 3, 224, 224), float32] /* ty=Tensor[(1, 3, 224, 224), float32] span=GeneratedSource:13:14 */, Primitive=1) -> Tensor[(1, 3, 224, 224), float32] {
    %0 = zeros(shape=[1], dtype="float32") /* ty=Tensor[(1), float32] span=GeneratedSource:13:19 */;
    %1 = add(%p0, %0) /* ty=Tensor[(1, 3, 224, 224), float32] span=GeneratedSource:14:53 */;
    add(2f /* ty=float32 span=GeneratedSource:14:11 */, %1) /* ty=Tensor[(1, 3, 224, 224), float32] span=GeneratedSource:12:5 */
  } /* ty=fn (Tensor[(1, 3, 224, 224), float32]) -> Tensor[(1, 3, 224, 224), float32] span=GeneratedSource:16:115 */;
  let %x14: Tensor[(1, 3, 224, 224), float32] /* ty=Tensor[(1, 3, 224, 224), float32] span=GeneratedSource:23:13 */ = %6(%5) /* ty=Tensor[(1, 3, 224, 224), float32] span=GeneratedSource:16:115 */;
  %7 = fn (%p03: Tensor[(1, 3, 224, 224), float32] /* ty=Tensor[(1, 3, 224, 224), float32] span=GeneratedSource:18:10 */, Primitive=1) -> Tensor[(1, 3, 224, 224), float16] {
    cast(%p03, dtype="float16") /* ty=Tensor[(1, 3, 224, 224), float16] span=GeneratedSource:18:5 */
  } /* ty=fn (Tensor[(1, 3, 224, 224), float32]) -> Tensor[(1, 3, 224, 224), float16] span=GeneratedSource:75:9 */;
  %11 = fn (%p06: Tensor[(1, 3, 224, 224), float32] /* ty=Tensor[(1, 3, 224, 224), float32] span=GeneratedSource:21:9 */, Primitive=1) -> Tensor[(1, 3, 224, 224), float32] {
    add(%p06, 1f /* ty=float32 span=GeneratedSource:21:17 */) /* ty=Tensor[(1, 3, 224, 224), float32] span=GeneratedSource:21:5 */
  } /* ty=fn (Tensor[(1, 3, 224, 224), float32]) -> Tensor[(1, 3, 224, 224), float32] span=GeneratedSource:23:9 */;
  %12 = %11(%x14) /* ty=Tensor[(1, 3, 224, 224), float32] span=GeneratedSource:29:13 */;
  %13 = fn (%p05: Tensor[(1, 3, 224, 224), float32] /* ty=Tensor[(1, 3, 224, 224), float32] span=GeneratedSource:25:20 */, %p11: Tensor[(3, 3, 3, 3), float32] /* ty=Tensor[(3, 3, 3, 3), float32] span=GeneratedSource:25:26 */, Primitive=1) -> Tensor[(1, 3, 224, 224), float32] {
    %9 = nn.conv2d(%p05, %p11, padding=[1, 1, 1, 1], channels=3, kernel_size=[3, 3]) /* ty=Tensor[(1, 3, 224, 224), float32] span=GeneratedSource:27:9 */;
    %10 = add(1f /* ty=float32 span=GeneratedSource:26:17 */, %9) /* ty=Tensor[(1, 3, 224, 224), float32] span=GeneratedSource:27:13 */;
    add(%9, %10) /* ty=Tensor[(1, 3, 224, 224), float32] span=GeneratedSource:25:5 */
  } /* ty=fn (Tensor[(1, 3, 224, 224), float32], Tensor[(3, 3, 3, 3), float32]) -> Tensor[(1, 3, 224, 224), float32] span=GeneratedSource:29:9 */;
  %14 = %13(%12, %x2) /* ty=Tensor[(1, 3, 224, 224), float32] span=GeneratedSource:76:13 */;
  %15 = fn (%p07: Tensor[(1, 3, 224, 224), float32] /* ty=Tensor[(1, 3, 224, 224), float32] span=GeneratedSource:31:15 */, %p12: Tensor[(3, 3, 3, 3), float32] /* ty=Tensor[(3, 3, 3, 3), float32] span=GeneratedSource:31:21 */, Primitive=1) -> Tensor[(1, 3, 224, 224), float32] {
    nn.conv2d(%p07, %p12, padding=[1, 1, 1, 1], channels=3, kernel_size=[3, 3]) /* ty=Tensor[(1, 3, 224, 224), float32] span=GeneratedSource:31:5 */
  } /* ty=fn (Tensor[(1, 3, 224, 224), float32], Tensor[(3, 3, 3, 3), float32]) -> Tensor[(1, 3, 224, 224), float32] span=GeneratedSource:33:9 */;
  %16 = %15(%14, %x4) /* ty=Tensor[(1, 3, 224, 224), float32] span=GeneratedSource:76:23 */;
  %17 = fn (%p04: Tensor[(1, 3, 224, 224), float32] /* ty=Tensor[(1, 3, 224, 224), float32] span=GeneratedSource:35:20 */, %p1: Tensor[(3, 3, 1, 1), float32] /* ty=Tensor[(3, 3, 1, 1), float32] span=GeneratedSource:35:26 */, %p2: Tensor[(1, 3, 224, 224), float32] /* ty=Tensor[(1, 3, 224, 224), float32] span=GeneratedSource:36:13 */, Primitive=1) -> Tensor[(1, 3, 224, 224), float32] {
    %8 = nn.conv2d(%p04, %p1, padding=[0, 0, 0, 0], channels=3, kernel_size=[1, 1]) /* ty=Tensor[(1, 3, 224, 224), float32] span=GeneratedSource:36:9 */;
    add(%8, %p2) /* ty=Tensor[(1, 3, 224, 224), float32] span=GeneratedSource:35:5 */
  } /* ty=fn (Tensor[(1, 3, 224, 224), float32], Tensor[(3, 3, 1, 1), float32], Tensor[(1, 3, 224, 224), float32]) -> Tensor[(1, 3, 224, 224), float32] span=GeneratedSource:76:9 */;
  %21 = fn (%p09: Tensor[(1, 3, 224, 224), int8] /* ty=Tensor[(1, 3, 224, 224), int8] span=GeneratedSource:39:14 */, %p14: Tensor[(1, 3, 224, 224), int8] /* ty=Tensor[(1, 3, 224, 224), int8] span=GeneratedSource:39:20 */, Primitive=1) -> Tensor[(1, 3, 224, 224), int8] {
    qnn.mul(%p09, %p14, 0.1f /* ty=float32 span=GeneratedSource:39:30 */, 0 /* ty=int32 span=GeneratedSource:39:73 */, 0.2f /* ty=float32 span=GeneratedSource:39:117 */, 0 /* ty=int32 span=GeneratedSource:39:161 */, 20f /* ty=float32 span=GeneratedSource:39:205 */, 0 /* ty=int32 span=GeneratedSource:39:249 */) /* ty=Tensor[(1, 3, 224, 224), int8] span=GeneratedSource:39:5 */
  } /* ty=fn (Tensor[(1, 3, 224, 224), int8], Tensor[(1, 3, 224, 224), int8]) -> Tensor[(1, 3, 224, 224), int8] span=GeneratedSource:41:9 */;
  %22 = %21(%x0, %x1) /* ty=Tensor[(1, 3, 224, 224), int8] span=GeneratedSource:81:13 */;
  %23 = fn (%p08: Tensor[(1, 3, 224, 224), int8] /* ty=Tensor[(1, 3, 224, 224), int8] span=GeneratedSource:43:12 */, %p13: Tensor[(1, 3, 224, 89), int8] /* ty=Tensor[(1, 3, 224, 89), int8] span=GeneratedSource:43:18 */, %p21: Tensor[(1, 3, 224, 32), int8] /* ty=Tensor[(1, 3, 224, 32), int8] span=GeneratedSource:43:24 */, %p3: Tensor[(1, 3, 224, 4), int8] /* ty=Tensor[(1, 3, 224, 4), int8] span=GeneratedSource:43:30 */, Primitive=1) -> Tensor[(1, 3, 224, 349), int8] {
    %18 = (%p08, %p13, %p21, %p3) /* ty=(Tensor[(1, 3, 224, 224), int8], Tensor[(1, 3, 224, 89), int8], Tensor[(1, 3, 224, 32), int8], Tensor[(1, 3, 224, 4), int8]) span=GeneratedSource:46:21 */;
    %19 = (0.5f /* ty=float32 span=GeneratedSource:44:16 */, 1.5f /* ty=float32 span=GeneratedSource:44:62 */, 2.5f /* ty=float32 span=GeneratedSource:44:108 */, 3.5f /* ty=float32 span=GeneratedSource:44:155 */) /* ty=(float32, float32, float32, float32) span=GeneratedSource:46:26 */;
    %20 = (0 /* ty=int32 span=GeneratedSource:45:13 */, 0 /* ty=int32 span=GeneratedSource:45:54 */, 0 /* ty=int32 span=GeneratedSource:45:95 */, 0 /* ty=int32 span=GeneratedSource:45:136 */) /* ty=(int32, int32, int32, int32) span=GeneratedSource:46:31 */;
    qnn.concatenate(%18, %19, %20, 3.5f /* ty=float32 span=GeneratedSource:46:40 */, 0 /* ty=int32 span=GeneratedSource:46:83 */, axis=-1) /* ty=Tensor[(1, 3, 224, 349), int8] span=GeneratedSource:43:5 */
  } /* ty=fn (Tensor[(1, 3, 224, 224), int8], Tensor[(1, 3, 224, 89), int8], Tensor[(1, 3, 224, 32), int8], Tensor[(1, 3, 224, 4), int8]) -> Tensor[(1, 3, 224, 349), int8] span=GeneratedSource:77:9 */;
  %29 = fn (%p011: Tensor[(1, 3, 224, 224), int8] /* ty=Tensor[(1, 3, 224, 224), int8] span=GeneratedSource:49:26 */, %p15: Tensor[(1, 3, 224, 224), float32] /* ty=Tensor[(1, 3, 224, 224), float32] span=GeneratedSource:50:21 */, Primitive=1) -> Tensor[(1, 224, 3, 224), float32] {
    %24 = qnn.dequantize(%p011, 0.2f /* ty=float32 span=GeneratedSource:49:37 */, 0 /* ty=int32 span=GeneratedSource:49:80 */) /* ty=Tensor[(1, 3, 224, 224), float32] span=GeneratedSource:50:27 */;
    %25 = multiply(%p15, %24) /* ty=Tensor[(1, 3, 224, 224), float32] span=GeneratedSource:51:28 */;
    %26 = layout_transform(%25, src_layout="NHWC", dst_layout="NCHW") /* ty=Tensor[(1, 224, 3, 224), float32] span=GeneratedSource:52:28 */;
    %27 = layout_transform(%26, src_layout="NCHW", dst_layout="NCHW4c") /* ty=Tensor[(1, 56, 3, 224, 4), float32] span=GeneratedSource:53:19 */;
    %28 = nn.relu(%27) /* ty=Tensor[(1, 56, 3, 224, 4), float32] span=GeneratedSource:54:22 */;
    layout_transform(%28, src_layout="NCHW4c", dst_layout="NCHW") /* ty=Tensor[(1, 224, 3, 224), float32] span=GeneratedSource:49:5 */
  } /* ty=fn (Tensor[(1, 3, 224, 224), int8], Tensor[(1, 3, 224, 224), float32]) -> Tensor[(1, 224, 3, 224), float32] span=GeneratedSource:56:9 */;
  %30 = %29(%x1, %3) /* ty=Tensor[(1, 224, 3, 224), float32] span=GeneratedSource:78:13 */;
  %31 = fn (%p010: Tensor[(1, 224, 3, 224), float32] /* ty=Tensor[(1, 224, 3, 224), float32] span=GeneratedSource:58:22 */, Primitive=1) -> Tensor[(1, 3, 224, 224), float32] {
    layout_transform(%p010, src_layout="NCHW", dst_layout="NHWC") /* ty=Tensor[(1, 3, 224, 224), float32] span=GeneratedSource:58:5 */
  } /* ty=fn (Tensor[(1, 224, 3, 224), float32]) -> Tensor[(1, 3, 224, 224), float32] span=GeneratedSource:78:9 */;
  %32 = fn (%p012: Tensor[(3, 3, 3, 3), float32] /* ty=Tensor[(3, 3, 3, 3), float32] span=GeneratedSource:61:53 */, Primitive=1) -> Tensor[(3, 3, 3, 3), float32] {
    add(2f /* ty=float32 span=GeneratedSource:61:11 */, %p012) /* ty=Tensor[(3, 3, 3, 3), float32] span=GeneratedSource:61:5 */
  } /* ty=fn (Tensor[(3, 3, 3, 3), float32]) -> Tensor[(3, 3, 3, 3), float32] span=GeneratedSource:79:9 */;
  %35 = fn (%p014: Tensor[(1, 224, 3, 224), float32] /* ty=Tensor[(1, 224, 3, 224), float32] span=GeneratedSource:64:19 */, %p16: Tensor[(224), float32] /* ty=Tensor[(224), float32] span=GeneratedSource:64:26 */, %p22: Tensor[(224), float32] /* ty=Tensor[(224), float32] span=GeneratedSource:64:32 */, %p31: Tensor[(224), float32] /* ty=Tensor[(224), float32] span=GeneratedSource:64:38 */, %p4: Tensor[(224), float32] /* ty=Tensor[(224), float32] span=GeneratedSource:64:44 */, Primitive=1) -> (Tensor[(1, 224, 3, 224), float32], Tensor[(224), float32], Tensor[(224), float32]) {
    nn.batch_norm(%p014, %p16, %p22, %p31, %p4) /* ty=(Tensor[(1, 224, 3, 224), float32], Tensor[(224), float32], Tensor[(224), float32]) span=GeneratedSource:64:5 */
  } /* ty=fn (Tensor[(1, 224, 3, 224), float32], Tensor[(224), float32], Tensor[(224), float32], Tensor[(224), float32], Tensor[(224), float32]) -> (Tensor[(1, 224, 3, 224), float32], Tensor[(224), float32], Tensor[(224), float32]) span=GeneratedSource:66:9 */;
  %36 = %35(%30, %x11, %x10, %x9, %x8) /* ty=(Tensor[(1, 224, 3, 224), float32], Tensor[(224), float32], Tensor[(224), float32]) span=GeneratedSource:80:13 */;
  %37 = fn (%p013: (Tensor[(1, 224, 3, 224), float32], Tensor[(224), float32], Tensor[(224), float32]) /* ty=(Tensor[(1, 224, 3, 224), float32], Tensor[(224), float32], Tensor[(224), float32]) span=GeneratedSource:69:11 */, Primitive=1) -> Tensor[(1, 224, 3, 224), float32] {
    %33 = %p013.0 /* ty=Tensor[(1, 224, 3, 224), float32] span=GeneratedSource:70:9 */;
    %34 = %p013.0 /* ty=Tensor[(1, 224, 3, 224), float32] span=GeneratedSource:70:14 */;
    add(%33, %34) /* ty=Tensor[(1, 224, 3, 224), float32] span=GeneratedSource:68:5 */
  } /* ty=fn ((Tensor[(1, 224, 3, 224), float32], Tensor[(224), float32], Tensor[(224), float32])) -> Tensor[(1, 224, 3, 224), float32] span=GeneratedSource:80:9 */;
  %38 = fn (%p015: Tensor[(1, 3, 224, 224), int8] /* ty=Tensor[(1, 3, 224, 224), int8] span=GeneratedSource:73:17 */, Primitive=1, relay.reshape_only=1) -> Tensor[(1, 1, 3, 224, 224), int8] {
    expand_dims(%p015, axis=1) /* ty=Tensor[(1, 1, 3, 224, 224), int8] span=GeneratedSource:73:5 */
  } /* ty=fn (Tensor[(1, 3, 224, 224), int8]) -> Tensor[(1, 1, 3, 224, 224), int8] span=GeneratedSource:81:9 */;
  %39 = %7(%5) /* ty=Tensor[(1, 3, 224, 224), float16] span=GeneratedSource:82:4 */;
  %40 = %17(%14, %x3, %16) /* ty=Tensor[(1, 3, 224, 224), float32] span=GeneratedSource:82:9 */;
  %41 = %23(%22, %x5, %x6, %x7) /* ty=Tensor[(1, 3, 224, 349), int8] span=GeneratedSource:82:14 */;
  %42 = %31(%30) /* ty=Tensor[(1, 3, 224, 224), float32] span=GeneratedSource:82:19 */;
  %43 = %32(%x4) /* ty=Tensor[(3, 3, 3, 3), float32] span=GeneratedSource:82:24 */;
  %44 = %37(%36) /* ty=Tensor[(1, 224, 3, 224), float32] span=GeneratedSource:82:29 */;
  %45 = %38(%22) /* ty=Tensor[(1, 1, 3, 224, 224), int8] span=GeneratedSource:82:34 */;
  (%39, %40, %41, %42, %43, %44, %45) /* ty=(Tensor[(1, 3, 224, 224), float16], Tensor[(1, 3, 224, 224), float32], Tensor[(1, 3, 224, 349), int8], Tensor[(1, 3, 224, 224), float32], Tensor[(3, 3, 3, 3), float32], Tensor[(1, 224, 3, 224), float32], Tensor[(1, 1, 3, 224, 224), int8]) span=GeneratedSource:82:3 */
}
