#[version = "0.0.5"]
def @main(%x0: Tensor[(4, 7), float32] /* ty=Tensor[(4, 7), float32] span=from_string:3:13 */, %x1: Tensor[(2, 7, 2), float32] /* ty=Tensor[(2, 7, 2), float32] span=from_string:6:104 */, %x2: Tensor[(14, 2), float32] /* ty=Tensor[(14, 2), float32] */, %x3: Tensor[(52, 7, 2), float32] /* ty=Tensor[(52, 7, 2), float32] span=from_string:25:172 */) -> (Tensor[(4, 7), float16], Tensor[(2), int32], Tensor[(14, 2), float16], int32, int32, Tensor[(54, 7, 2), float16]) {
  %0 = cast(%x0, dtype="float16") /* ty=Tensor[(4, 7), float16] span=from_string:4:103 */;
  let %x_0: Tensor[(4, 7), float16] /* ty=Tensor[(4, 7), float16] span=from_string:31:284 */ = reshape(%0, newshape=[4, 7]) /* ty=Tensor[(4, 7), float16] span=from_string:4:95 */;
  let %x_1: Tensor[(2), int32] /* ty=Tensor[(2), int32] span=from_string:31:290 */ = meta[relay.Constant][0] /* ty=Tensor[(2), int32] span=from_string:5:92 */;
  let %x_2: Tensor[(2, 7, 2), float32] /* ty=Tensor[(2, 7, 2), float32] span=from_string:8:13 */ = erf(%x1) /* ty=Tensor[(2, 7, 2), float32] span=from_string:6:100 */;
  let %x_3: float32 /* ty=float32 span=from_string:9:13 */ = 1f /* ty=float32 span=from_string:7:64 */;
  %1 = cast(%x_2, dtype="float16") /* ty=Tensor[(2, 7, 2), float16] span=from_string:10:105 */;
  %2 = cast(%x_3, dtype="float16") /* ty=float16 span=from_string:10:109 */;
  let %x_4: Tensor[(2, 7, 2), float16] /* ty=Tensor[(2, 7, 2), float16] span=from_string:16:125 */ = add(%1, %2) /* ty=Tensor[(2, 7, 2), float16] span=from_string:10:101 */;
  let %x_5: Tensor[(14, 2), float16] /* ty=Tensor[(14, 2), float16] span=from_string:31:296 */ = reshape(%x_4, newshape=[14, 2]) /* ty=Tensor[(14, 2), float16] span=from_string:11:97 */;
  let %x_6: int32 /* ty=int32 span=from_string:31:302 */ = 2 /* ty=int32 span=from_string:12:62 */;
  let %x_7: int32 /* ty=int32 span=from_string:31:308 */ = 1 /* ty=int32 span=from_string:13:62 */;
  let %x_8: float32 /* ty=float32 span=from_string:23:13 */ = 2f /* ty=float32 span=from_string:14:65 */;
  let %x_9: float32 /* ty=float32 span=from_string:21:13 */ = 2f /* ty=float32 span=from_string:15:65 */;
  let %x_10: Tensor[(2, 7, 2), float16] /* ty=Tensor[(2, 7, 2), float16] span=from_string:17:13 */ = annotation.stop_fusion(%x_4) /* ty=Tensor[(2, 7, 2), float16] span=from_string:16:102 */;
  %3 = cast(%x_10, dtype="float32") /* ty=Tensor[(2, 7, 2), float32] span=from_string:18:106 */;
  let %x_11: Tensor[(2, 7, 2), float32] /* ty=Tensor[(2, 7, 2), float32] span=from_string:19:13 */ = exp(%3) /* ty=Tensor[(2, 7, 2), float32] span=from_string:18:102 */;
  %4 = cast(%x_11, dtype="float16") /* ty=Tensor[(2, 7, 2), float16] span=from_string:20:108 */;
  let %x_12: Tensor[(2, 7, 2), float16] /* ty=Tensor[(2, 7, 2), float16] span=from_string:22:116 */ = rsqrt(%4) /* ty=Tensor[(2, 7, 2), float16] span=from_string:20:102 */;
  %5 = cast(%x_9, dtype="float16") /* ty=float16 span=from_string:22:112 */;
  let %x_13: Tensor[(2, 7, 2), float16] /* ty=Tensor[(2, 7, 2), float16] span=from_string:24:110 */ = multiply(%5, %x_12) /* ty=Tensor[(2, 7, 2), float16] span=from_string:22:103 */;
  %6 = cast(%x_8, dtype="float16") /* ty=float16 span=from_string:24:106 */;
  let %x_14: Tensor[(2, 7, 2), float16] /* ty=Tensor[(2, 7, 2), float16] span=from_string:25:165 */ = add(%6, %x_13) /* ty=Tensor[(2, 7, 2), float16] span=from_string:24:102 */;
  let %x_15: (Tensor[(2, 7, 2), float16], Tensor[(52, 7, 2), float32]) /* ty=(Tensor[(2, 7, 2), float16], Tensor[(52, 7, 2), float32]) span=from_string:27:8 */ = (%x_14, %x3) /* ty=(Tensor[(2, 7, 2), float16], Tensor[(52, 7, 2), float32]) span=from_string:25:164 */;
  %7 = %x_15.1 /* ty=Tensor[(52, 7, 2), float32] span=from_string:28:13 */;
  %8 = %x_15.0 /* ty=Tensor[(2, 7, 2), float16] span=from_string:29:10 */;
  %9 = cast(%7, dtype="float16") /* ty=Tensor[(52, 7, 2), float16] span=from_string:29:14 */;
  %10 = (%8, %9) /* ty=(Tensor[(2, 7, 2), float16], Tensor[(52, 7, 2), float16]) span=from_string:30:116 */;
  %11 = concatenate(%10) /* ty=Tensor[(54, 7, 2), float16] */;
  %12 = annotation.stop_fusion(%11) /* ty=Tensor[(54, 7, 2), float16] */;
  %13 = (%12,) /* ty=(Tensor[(54, 7, 2), float16],) span=from_string:30:116 */;
  let %x_16: Tensor[(54, 7, 2), float16] /* ty=Tensor[(54, 7, 2), float16] span=from_string:31:314 */ = concatenate(%13) /* ty=Tensor[(54, 7, 2), float16] */;
  let %x_17: (Tensor[(4, 7), float16], Tensor[(2), int32], Tensor[(14, 2), float16], int32, int32, Tensor[(54, 7, 2), float16]) /* ty=(Tensor[(4, 7), float16], Tensor[(2), int32], Tensor[(14, 2), float16], int32, int32, Tensor[(54, 7, 2), float16]) span=from_string:32:3 */ = (%x_0, %x_1, %x_5, %x_6, %x_7, %x_16) /* ty=(Tensor[(4, 7), float16], Tensor[(2), int32], Tensor[(14, 2), float16], int32, int32, Tensor[(54, 7, 2), float16]) span=from_string:31:283 */;
  %x_17
}

#[metadata]
{
  "root": 1, 
  "nodes": [
    {
      "type_key": ""
    }, 
    {
      "type_key": "Map", 
      "keys": [
        "relay.Constant"
      ], 
      "data": [2]
    }, 
    {
      "type_key": "Array", 
      "data": [3]
    }, 
    {
      "type_key": "relay.Constant", 
      "attrs": {
        "_checked_type_": "8", 
        "data": "0", 
        "span": "6", 
        "virtual_device_": "4"
      }
    }, 
    {
      "type_key": "VirtualDevice", 
      "attrs": {
        "device_type_int": "-1", 
        "memory_scope": "5", 
        "target": "0", 
        "virtual_device_id": "-1"
      }
    }, 
    {
      "type_key": "runtime.String"
    }, 
    {
      "type_key": "Span", 
      "attrs": {
        "column": "92", 
        "end_column": "110", 
        "end_line": "5", 
        "line": "5", 
        "source_name": "7"
      }
    }, 
    {
      "type_key": "SourceName", 
      "repr_str": "from_string"
    }, 
    {
      "type_key": "relay.TensorType", 
      "attrs": {
        "dtype": "int32", 
        "shape": "9", 
        "span": "0"
      }
    }, 
    {
      "type_key": "Array", 
      "data": [10]
    }, 
    {
      "type_key": "IntImm", 
      "attrs": {
        "dtype": "int32", 
        "span": "0", 
        "value": "2"
      }
    }
  ], 
  "b64ndarrays": [
    "P6G0lvBAXt0AAAAAAAAAAAEAAAAAAAAAAQAAAAAgAQACAAAAAAAAAAgAAAAAAAAABAAAAAcAAAA="
  ], 
  "attrs": {"tvm_version": "0.13.0"}
}