#[version = "0.0.5"]
def @main(%x0: Tensor[(4, 7), float32] /* ty=Tensor[(4, 7), float32] span=from_string:6:103 */, %x1: Tensor[(2, 7, 2), float32] /* ty=Tensor[(2, 7, 2), float32] span=from_string:15:103 */, %x2: Tensor[(14, 2), float32] /* ty=Tensor[(14, 2), float32] */, %x3: Tensor[(52, 7, 2), float32] /* ty=Tensor[(52, 7, 2), float32] span=from_string:46:172 */) -> (Tensor[(4, 7), float16], Tensor[(2), int32], Tensor[(14, 2), float16], int32, int32, Tensor[(54, 7, 2), float16]) {
  %1 = fn (%p0: Tensor[(4, 7), float32] /* ty=Tensor[(4, 7), float32] span=from_string:4:13 */, Primitive=1, relay.reshape_only=1) -> Tensor[(2, 7, 2), float16] {
    %0 = cast(%p0, dtype="float16") /* ty=Tensor[(4, 7), float16] */;
    reshape(%0, newshape=[2, 7, 2]) /* ty=Tensor[(2, 7, 2), float16] span=from_string:4:5 */
  } /* ty=fn (Tensor[(4, 7), float32]) -> Tensor[(2, 7, 2), float16] span=from_string:6:100 */;
  let %x_0: Tensor[(2, 7, 2), float16] /* ty=Tensor[(2, 7, 2), float16] span=from_string:10:98 */ = %1(%x0) /* ty=Tensor[(2, 7, 2), float16] span=from_string:6:100 */;
  %3 = cast(%x_0, dtype="float32") /* ty=Tensor[(2, 7, 2), float32] */;
  %4 = fn (%p01: Tensor[(2, 7, 2), float32] /* ty=Tensor[(2, 7, 2), float32] span=from_string:8:13 */, Primitive=1, relay.reshape_only=1) -> Tensor[(4, 7), float16] {
    %2 = cast(%p01, dtype="float16") /* ty=Tensor[(2, 7, 2), float16] */;
    reshape(%2, newshape=[4, 7]) /* ty=Tensor[(4, 7), float16] span=from_string:8:5 */
  } /* ty=fn (Tensor[(2, 7, 2), float32]) -> Tensor[(4, 7), float16] span=from_string:10:95 */;
  let %x_1: Tensor[(4, 7), float16] /* ty=Tensor[(4, 7), float16] span=from_string:57:284 */ = %4(%3) /* ty=Tensor[(4, 7), float16] span=from_string:10:95 */;
  let %x_2: Tensor[(2), int32] /* ty=Tensor[(2), int32] span=from_string:57:290 */ = meta[relay.Constant][0] /* ty=Tensor[(2), int32] span=from_string:11:92 */;
  %5 = fn (%p02: Tensor[(2, 7, 2), float32] /* ty=Tensor[(2, 7, 2), float32] span=from_string:13:9 */, Primitive=1) -> Tensor[(2, 7, 2), float32] {
    erf(%p02) /* ty=Tensor[(2, 7, 2), float32] span=from_string:13:5 */
  } /* ty=fn (Tensor[(2, 7, 2), float32]) -> Tensor[(2, 7, 2), float32] span=from_string:15:100 */;
  let %x_3: Tensor[(2, 7, 2), float32] /* ty=Tensor[(2, 7, 2), float32] span=from_string:20:104 */ = %5(%x1) /* ty=Tensor[(2, 7, 2), float32] span=from_string:15:100 */;
  let %x_4: float32 /* ty=float32 span=from_string:20:110 */ = 1f /* ty=float32 span=from_string:16:64 */;
  %8 = fn (%p03: Tensor[(2, 7, 2), float32] /* ty=Tensor[(2, 7, 2), float32] span=from_string:18:9 */, %p1: float32 /* ty=float32 span=from_string:18:15 */, Primitive=1) -> Tensor[(2, 7, 2), float16] {
    %6 = cast(%p03, dtype="float16") /* ty=Tensor[(2, 7, 2), float16] */;
    %7 = cast(%p1, dtype="float16") /* ty=float16 */;
    add(%6, %7) /* ty=Tensor[(2, 7, 2), float16] span=from_string:18:5 */
  } /* ty=fn (Tensor[(2, 7, 2), float32], float32) -> Tensor[(2, 7, 2), float16] span=from_string:20:101 */;
  let %x_5: Tensor[(2, 7, 2), float16] /* ty=Tensor[(2, 7, 2), float16] span=from_string:29:102 */ = %8(%x_3, %x_4) /* ty=Tensor[(2, 7, 2), float16] span=from_string:20:101 */;
  %10 = cast(%x_5, dtype="float32") /* ty=Tensor[(2, 7, 2), float32] */;
  %11 = fn (%p04: Tensor[(2, 7, 2), float32] /* ty=Tensor[(2, 7, 2), float32] span=from_string:22:13 */, Primitive=1, relay.reshape_only=1) -> Tensor[(14, 2), float16] {
    %9 = cast(%p04, dtype="float16") /* ty=Tensor[(2, 7, 2), float16] */;
    reshape(%9, newshape=[14, 2]) /* ty=Tensor[(14, 2), float16] span=from_string:22:5 */
  } /* ty=fn (Tensor[(2, 7, 2), float32]) -> Tensor[(14, 2), float16] span=from_string:24:97 */;
  let %x_6: Tensor[(14, 2), float16] /* ty=Tensor[(14, 2), float16] span=from_string:57:296 */ = %11(%10) /* ty=Tensor[(14, 2), float16] span=from_string:24:97 */;
  let %x_7: int32 /* ty=int32 span=from_string:57:302 */ = 2 /* ty=int32 span=from_string:25:62 */;
  let %x_8: int32 /* ty=int32 span=from_string:57:308 */ = 1 /* ty=int32 span=from_string:26:62 */;
  let %x_9: float32 /* ty=float32 span=from_string:45:105 */ = 2f /* ty=float32 span=from_string:27:65 */;
  let %x_10: float32 /* ty=float32 span=from_string:41:105 */ = 2f /* ty=float32 span=from_string:28:66 */;
  let %x_11: Tensor[(2, 7, 2), float16] /* ty=Tensor[(2, 7, 2), float16] span=from_string:33:105 */ = %x_5;
  %12 = cast(%x_11, dtype="float32") /* ty=Tensor[(2, 7, 2), float32] */;
  %13 = fn (%p05: Tensor[(2, 7, 2), float32] /* ty=Tensor[(2, 7, 2), float32] span=from_string:31:9 */, Primitive=1) -> Tensor[(2, 7, 2), float32] {
    exp(%p05) /* ty=Tensor[(2, 7, 2), float32] span=from_string:31:5 */
  } /* ty=fn (Tensor[(2, 7, 2), float32]) -> Tensor[(2, 7, 2), float32] span=from_string:33:102 */;
  let %x_12: Tensor[(2, 7, 2), float32] /* ty=Tensor[(2, 7, 2), float32] span=from_string:37:105 */ = %13(%12) /* ty=Tensor[(2, 7, 2), float32] span=from_string:33:102 */;
  %15 = fn (%p06: Tensor[(2, 7, 2), float32] /* ty=Tensor[(2, 7, 2), float32] span=from_string:35:10 */, Primitive=1) -> Tensor[(2, 7, 2), float16] {
    %14 = cast(%p06, dtype="float16") /* ty=Tensor[(2, 7, 2), float16] */;
    sqrt(%14) /* ty=Tensor[(2, 7, 2), float16] span=from_string:35:5 */
  } /* ty=fn (Tensor[(2, 7, 2), float32]) -> Tensor[(2, 7, 2), float16] span=from_string:37:102 */;
  let %x_13: Tensor[(2, 7, 2), float16] /* ty=Tensor[(2, 7, 2), float16] span=from_string:41:112 */ = %15(%x_12) /* ty=Tensor[(2, 7, 2), float16] span=from_string:37:102 */;
  %18 = cast(%x_13, dtype="float32") /* ty=Tensor[(2, 7, 2), float32] */;
  %19 = fn (%p07: float32 /* ty=float32 span=from_string:39:12 */, %p11: Tensor[(2, 7, 2), float32] /* ty=Tensor[(2, 7, 2), float32] span=from_string:39:18 */, Primitive=1) -> Tensor[(2, 7, 2), float16] {
    %16 = cast(%p07, dtype="float16") /* ty=float16 */;
    %17 = cast(%p11, dtype="float16") /* ty=Tensor[(2, 7, 2), float16] */;
    divide(%16, %17) /* ty=Tensor[(2, 7, 2), float16] span=from_string:39:5 */
  } /* ty=fn (float32, Tensor[(2, 7, 2), float32]) -> Tensor[(2, 7, 2), float16] span=from_string:41:102 */;
  let %x_14: Tensor[(2, 7, 2), float16] /* ty=Tensor[(2, 7, 2), float16] span=from_string:45:111 */ = %19(%x_10, %18) /* ty=Tensor[(2, 7, 2), float16] span=from_string:41:102 */;
  %22 = cast(%x_14, dtype="float32") /* ty=Tensor[(2, 7, 2), float32] */;
  %23 = fn (%p08: float32 /* ty=float32 span=from_string:43:9 */, %p12: Tensor[(2, 7, 2), float32] /* ty=Tensor[(2, 7, 2), float32] span=from_string:43:15 */, Primitive=1) -> Tensor[(2, 7, 2), float16] {
    %20 = cast(%p08, dtype="float16") /* ty=float16 */;
    %21 = cast(%p12, dtype="float16") /* ty=Tensor[(2, 7, 2), float16] */;
    add(%20, %21) /* ty=Tensor[(2, 7, 2), float16] span=from_string:43:5 */
  } /* ty=fn (float32, Tensor[(2, 7, 2), float32]) -> Tensor[(2, 7, 2), float16] span=from_string:45:102 */;
  let %x_15: Tensor[(2, 7, 2), float16] /* ty=Tensor[(2, 7, 2), float16] span=from_string:46:165 */ = %23(%x_9, %22) /* ty=Tensor[(2, 7, 2), float16] span=from_string:45:102 */;
  let %x_16: (Tensor[(2, 7, 2), float16], Tensor[(52, 7, 2), float32]) /* ty=(Tensor[(2, 7, 2), float16], Tensor[(52, 7, 2), float32]) span=from_string:50:107 */ = (%x_15, %x3) /* ty=(Tensor[(2, 7, 2), float16], Tensor[(52, 7, 2), float32]) span=from_string:46:164 */;
  %29 = %x_16.0 /* ty=Tensor[(2, 7, 2), float16] */;
  %30 = cast(%29, dtype="float32") /* ty=Tensor[(2, 7, 2), float32] */;
  %31 = %x_16.1 /* ty=Tensor[(52, 7, 2), float32] */;
  %32 = (%30, %31) /* ty=(Tensor[(2, 7, 2), float32], Tensor[(52, 7, 2), float32]) */;
  %33 = fn (%p09: (Tensor[(2, 7, 2), float32], Tensor[(52, 7, 2), float32]) /* ty=(Tensor[(2, 7, 2), float32], Tensor[(52, 7, 2), float32]) span=from_string:48:17 */, Primitive=1) -> Tensor[(54, 7, 2), float16] {
    %24 = %p09.0 /* ty=Tensor[(2, 7, 2), float32] */;
    %25 = %p09.1 /* ty=Tensor[(52, 7, 2), float32] */;
    %26 = cast(%24, dtype="float16") /* ty=Tensor[(2, 7, 2), float16] */;
    %27 = cast(%25, dtype="float16") /* ty=Tensor[(52, 7, 2), float16] */;
    %28 = (%26, %27) /* ty=(Tensor[(2, 7, 2), float16], Tensor[(52, 7, 2), float16]) */;
    concatenate(%28) /* ty=Tensor[(54, 7, 2), float16] span=from_string:48:5 */
  } /* ty=fn ((Tensor[(2, 7, 2), float32], Tensor[(52, 7, 2), float32])) -> Tensor[(54, 7, 2), float16] span=from_string:50:104 */;
  let %x_17: Tensor[(54, 7, 2), float16] /* ty=Tensor[(54, 7, 2), float16] span=from_string:51:104 */ = %33(%32) /* ty=Tensor[(54, 7, 2), float16] span=from_string:50:104 */;
  let %x_18: Tensor[(54, 7, 2), float16] /* ty=Tensor[(54, 7, 2), float16] span=from_string:52:111 */ = %x_17;
  let %x_19: (Tensor[(54, 7, 2), float16],) /* ty=(Tensor[(54, 7, 2), float16],) span=from_string:56:108 */ = (%x_18,) /* ty=(Tensor[(54, 7, 2), float16],) span=from_string:52:110 */;
  %37 = %x_19.0 /* ty=Tensor[(54, 7, 2), float16] */;
  %38 = cast(%37, dtype="float32") /* ty=Tensor[(54, 7, 2), float32] */;
  %39 = (%38,) /* ty=(Tensor[(54, 7, 2), float32],) */;
  %40 = fn (%p010: (Tensor[(54, 7, 2), float32],) /* ty=(Tensor[(54, 7, 2), float32],) span=from_string:54:17 */, Primitive=1) -> Tensor[(54, 7, 2), float16] {
    %34 = %p010.0 /* ty=Tensor[(54, 7, 2), float32] */;
    %35 = cast(%34, dtype="float16") /* ty=Tensor[(54, 7, 2), float16] */;
    %36 = (%35,) /* ty=(Tensor[(54, 7, 2), float16],) */;
    concatenate(%36) /* ty=Tensor[(54, 7, 2), float16] span=from_string:54:5 */
  } /* ty=fn ((Tensor[(54, 7, 2), float32],)) -> Tensor[(54, 7, 2), float16] span=from_string:56:104 */;
  let %x_20: Tensor[(54, 7, 2), float16] /* ty=Tensor[(54, 7, 2), float16] span=from_string:57:314 */ = %40(%39) /* ty=Tensor[(54, 7, 2), float16] span=from_string:56:104 */;
  let %x_21: (Tensor[(4, 7), float16], Tensor[(2), int32], Tensor[(14, 2), float16], int32, int32, Tensor[(54, 7, 2), float16]) /* ty=(Tensor[(4, 7), float16], Tensor[(2), int32], Tensor[(14, 2), float16], int32, int32, Tensor[(54, 7, 2), float16]) span=from_string:58:3 */ = (%x_1, %x_2, %x_6, %x_7, %x_8, %x_20) /* ty=(Tensor[(4, 7), float16], Tensor[(2), int32], Tensor[(14, 2), float16], int32, int32, Tensor[(54, 7, 2), float16]) span=from_string:57:283 */;
  %x_21
}

#[metadata]
{
  "root": 1, 
  "nodes": [
    {
      "type_key": ""
    }, 
    {
      "type_key": "Map", 
      "keys": [
        "relay.Constant"
      ], 
      "data": [2]
    }, 
    {
      "type_key": "Array", 
      "data": [3]
    }, 
    {
      "type_key": "relay.Constant", 
      "attrs": {
        "_checked_type_": "8", 
        "data": "0", 
        "span": "6", 
        "virtual_device_": "4"
      }
    }, 
    {
      "type_key": "VirtualDevice", 
      "attrs": {
        "device_type_int": "-1", 
        "memory_scope": "5", 
        "target": "0", 
        "virtual_device_id": "-1"
      }
    }, 
    {
      "type_key": "runtime.String"
    }, 
    {
      "type_key": "Span", 
      "attrs": {
        "column": "92", 
        "end_column": "110", 
        "end_line": "11", 
        "line": "11", 
        "source_name": "7"
      }
    }, 
    {
      "type_key": "SourceName", 
      "repr_str": "from_string"
    }, 
    {
      "type_key": "relay.TensorType", 
      "attrs": {
        "dtype": "int32", 
        "shape": "9", 
        "span": "0"
      }
    }, 
    {
      "type_key": "Array", 
      "data": [10]
    }, 
    {
      "type_key": "IntImm", 
      "attrs": {
        "dtype": "int32", 
        "span": "0", 
        "value": "2"
      }
    }
  ], 
  "b64ndarrays": [
    "P6G0lvBAXt0AAAAAAAAAAAEAAAAAAAAAAQAAAAAgAQACAAAAAAAAAAgAAAAAAAAABAAAAAcAAAA="
  ], 
  "attrs": {"tvm_version": "0.13.0"}
}