#[version = "0.0.5"]
def @main(%x0: Tensor[(4, 7), float32] /* ty=Tensor[(4, 7), float32] span=from_string:11:16 */, %x1: Tensor[(2, 7, 2), float32] /* ty=Tensor[(2, 7, 2), float32] span=from_string:3:12 */, %x2: Tensor[(14, 2), float32] /* ty=Tensor[(14, 2), float32] */, %x3: Tensor[(52, 7, 2), float32] /* ty=Tensor[(52, 7, 2), float32] span=from_string:10:13 */) -> (Tensor[(4, 7), float16], Tensor[(2), int32], Tensor[(14, 2), float32], int32, int32, Tensor[(54, 7, 2), float32]) {
  %0 = cast(%x0, dtype="float16") /* ty=Tensor[(4, 7), float16] */;
  %1 = erf(%x1) /* ty=Tensor[(2, 7, 2), float32] span=from_string:4:12 */;
  %2 = add(%1, 1f /* ty=float32 span=from_string:4:18 */) /* ty=Tensor[(2, 7, 2), float32] span=from_string:12:16 */;
  %3 = annotation.stop_fusion(%2) /* ty=Tensor[(2, 7, 2), float32] span=from_string:6:12 */;
  %4 = exp(%3) /* ty=Tensor[(2, 7, 2), float32] span=from_string:7:14 */;
  %5 = rsqrt(%4) /* ty=Tensor[(2, 7, 2), float32] span=from_string:8:61 */;
  %6 = multiply(2f /* ty=float32 span=from_string:8:20 */, %5) /* ty=Tensor[(2, 7, 2), float32] span=from_string:9:56 */;
  %7 = add(2f /* ty=float32 span=from_string:9:14 */, %6) /* ty=Tensor[(2, 7, 2), float32] span=from_string:10:9 */;
  %8 = (%7, %x3) /* ty=(Tensor[(2, 7, 2), float32], Tensor[(52, 7, 2), float32]) span=from_string:13:21 */;
  %9 = reshape(%0, newshape=[4, 7]) /* ty=Tensor[(4, 7), float16] span=from_string:14:4 */;
  %10 = reshape(%2, newshape=[14, 2]) /* ty=Tensor[(14, 2), float32] span=from_string:14:84 */;
  %11 = concatenate(%8) /* ty=Tensor[(54, 7, 2), float32] span=from_string:14:170 */;
  (%9, meta[relay.Constant][0] /* ty=Tensor[(2), int32] span=from_string:14:13 */, %10, 2 /* ty=int32 span=from_string:14:89 */, 1 /* ty=int32 span=from_string:14:130 */, %11) /* ty=(Tensor[(4, 7), float16], Tensor[(2), int32], Tensor[(14, 2), float32], int32, int32, Tensor[(54, 7, 2), float32]) span=from_string:3:3 */
}

#[metadata]
{
  "root": 1, 
  "nodes": [
    {
      "type_key": ""
    }, 
    {
      "type_key": "Map", 
      "keys": [
        "relay.Constant"
      ], 
      "data": [2]
    }, 
    {
      "type_key": "Array", 
      "data": [3]
    }, 
    {
      "type_key": "relay.Constant", 
      "attrs": {
        "_checked_type_": "8", 
        "data": "0", 
        "span": "6", 
        "virtual_device_": "4"
      }
    }, 
    {
      "type_key": "VirtualDevice", 
      "attrs": {
        "device_type_int": "-1", 
        "memory_scope": "5", 
        "target": "0", 
        "virtual_device_id": "-1"
      }
    }, 
    {
      "type_key": "runtime.String"
    }, 
    {
      "type_key": "Span", 
      "attrs": {
        "column": "13", 
        "end_column": "31", 
        "end_line": "14", 
        "line": "14", 
        "source_name": "7"
      }
    }, 
    {
      "type_key": "SourceName", 
      "repr_str": "from_string"
    }, 
    {
      "type_key": "relay.TensorType", 
      "attrs": {
        "dtype": "int32", 
        "shape": "9", 
        "span": "0"
      }
    }, 
    {
      "type_key": "Array", 
      "data": [10]
    }, 
    {
      "type_key": "IntImm", 
      "attrs": {
        "dtype": "int32", 
        "span": "0", 
        "value": "2"
      }
    }
  ], 
  "b64ndarrays": [
    "P6G0lvBAXt0AAAAAAAAAAAEAAAAAAAAAAQAAAAAgAQACAAAAAAAAAAgAAAAAAAAABAAAAAcAAAA="
  ], 
  "attrs": {"tvm_version": "0.13.0"}
}