#[version = "0.0.5"]
def @main(%x0: Tensor[(4, 7), float32] /* ty=Tensor[(4, 7), float32] span=from_string:33:17 */, %x1: Tensor[(2, 7, 2), float32] /* ty=Tensor[(2, 7, 2), float32] span=from_string:3:16 */, %x2: Tensor[(6, 7), float32] /* ty=Tensor[(6, 7), float32] span=from_string:19:23 */, %x3: Tensor[(6), float32] /* ty=Tensor[(6), float32] span=from_string:20:18 */, %x4: Tensor[(1), float32] /* ty=Tensor[(1), float32] span=from_string:21:24 */, %x5: Tensor[(12, 7), float32] /* ty=Tensor[(12, 7), float32] span=from_string:22:23 */, %x6: Tensor[(12), float32] /* ty=Tensor[(12), float32] span=from_string:23:18 */, %x7: Tensor[(1), float32] /* ty=Tensor[(1), float32] span=from_string:24:24 */, %x8: Tensor[(2, 17, 2), float32] /* ty=Tensor[(2, 17, 2), float32] span=from_string:29:25 */, %x9: Tensor[(2, 7, 2), float32] /* ty=Tensor[(2, 7, 2), float32] span=from_string:28:30 */, %x10: Tensor[(2, 7, 2), float32] /* ty=Tensor[(2, 7, 2), float32] span=from_string:29:30 */, %x11: Tensor[(7), float32] /* ty=Tensor[(7), float32] span=from_string:30:18 */, %x12: Tensor[(7), float32] /* ty=Tensor[(7), float32] span=from_string:31:18 */, %x13: Tensor[(7), float32] /* ty=Tensor[(7), float32] span=from_string:32:18 */, %x14: Tensor[(2), float32] /* ty=Tensor[(2), float32] span=from_string:39:27 */) -> (Tensor[(2, 7, 2), float16], Tensor[(3), int32], int32, Tensor[(2, 21, 2), float16], Tensor[(2, 63, 2), float16], Tensor[(3), uint8], (Tensor[(1, 1, 24), float16], Tensor[(1, 1, 48), float16]), (Tensor[(2, 17, 7), float16], Tensor[(2, 17, 7), float16], Tensor[(2, 17, 7), float16]), Tensor[(2, 63, 2), float16], int32) {
  %0 = cast(%x0, dtype="float16") /* ty=Tensor[(4, 7), float16] */;
  %1 = cast(%x1, dtype="float16") /* ty=Tensor[(2, 7, 2), float16] */;
  %2 = squeeze(%1) /* ty=Tensor[(2, 7, 2), float16] span=from_string:6:12 */;
  %3 = cast(1f /* ty=float32 span=from_string:6:18 */, dtype="float16") /* ty=float16 */;
  %4 = squeeze(%2) /* ty=Tensor[(2, 7, 2), float16] span=from_string:27:30 */;
  %5 = cast(1f /* ty=float32 span=from_string:5:18 */, dtype="float16") /* ty=float16 */;
  %6 = add(%4, %5) /* ty=Tensor[(2, 7, 2), float16] span=from_string:7:12 */;
  %7 = cast(1f /* ty=float32 span=from_string:7:18 */, dtype="float16") /* ty=float16 */;
  %8 = add(%2, %3) /* ty=Tensor[(2, 7, 2), float16] span=from_string:8:17 */;
  %9 = add(%6, %7) /* ty=Tensor[(2, 7, 2), float16] span=from_string:8:13 */;
  %10 = (%8, %9, %8) /* ty=(Tensor[(2, 7, 2), float16], Tensor[(2, 7, 2), float16], Tensor[(2, 7, 2), float16]) span=from_string:9:20 */;
  %11 = concatenate(%10, axis=1) /* ty=Tensor[(2, 21, 2), float16] span=from_string:10:16 */;
  %12 = squeeze(%11) /* ty=Tensor[(2, 21, 2), float16] span=from_string:34:13 */;
  %13 = cast(1f /* ty=float32 span=from_string:34:19 */, dtype="float16") /* ty=float16 */;
  %14 = squeeze(%12) /* ty=Tensor[(2, 21, 2), float16] span=from_string:14:13 */;
  %15 = cast(1f /* ty=float32 span=from_string:14:19 */, dtype="float16") /* ty=float16 */;
  %16 = squeeze(%14) /* ty=Tensor[(2, 21, 2), float16] span=from_string:13:13 */;
  %17 = cast(1f /* ty=float32 span=from_string:13:19 */, dtype="float16") /* ty=float16 */;
  %18 = add(%16, %17) /* ty=Tensor[(2, 21, 2), float16] span=from_string:15:13 */;
  %19 = cast(1f /* ty=float32 span=from_string:15:20 */, dtype="float16") /* ty=float16 */;
  %20 = add(%14, %15) /* ty=Tensor[(2, 21, 2), float16] span=from_string:16:20 */;
  %21 = add(%18, %19) /* ty=Tensor[(2, 21, 2), float16] span=from_string:16:15 */;
  %22 = (%20, %21, %20) /* ty=(Tensor[(2, 21, 2), float16], Tensor[(2, 21, 2), float16], Tensor[(2, 21, 2), float16]) span=from_string:17:21 */;
  %23 = concatenate(%22, axis=1) /* ty=Tensor[(2, 63, 2), float16] span=from_string:39:33 */;
  %24 = squeeze(%23) /* ty=Tensor[(2, 63, 2), float16] span=from_string:35:13 */;
  %25 = cast(1f /* ty=float32 span=from_string:35:20 */, dtype="float16") /* ty=float16 */;
  %26 = cast(%x2, dtype="float16") /* ty=Tensor[(6, 7), float16] */;
  %27 = nn.dense(%0, %26, units=None, out_dtype="float16") /* ty=Tensor[(4, 6), float16] span=from_string:20:13 */;
  %28 = cast(%x3, dtype="float16") /* ty=Tensor[(6), float16] */;
  %29 = add(%27, %28) /* ty=Tensor[(4, 6), float16] span=from_string:21:19 */;
  %30 = cast(%x4, dtype="float16") /* ty=Tensor[(1), float16] */;
  %31 = multiply(%29, %30) /* ty=Tensor[(4, 6), float16] span=from_string:25:17 */;
  %32 = cast(%x5, dtype="float16") /* ty=Tensor[(12, 7), float16] */;
  %33 = nn.dense(%0, %32, units=None, out_dtype="float16") /* ty=Tensor[(4, 12), float16] span=from_string:23:13 */;
  %34 = cast(%x6, dtype="float16") /* ty=Tensor[(12), float16] */;
  %35 = add(%33, %34) /* ty=Tensor[(4, 12), float16] span=from_string:24:19 */;
  %36 = cast(%x7, dtype="float16") /* ty=Tensor[(1), float16] */;
  %37 = multiply(%35, %36) /* ty=Tensor[(4, 12), float16] span=from_string:26:17 */;
  %38 = reshape(%31, newshape=[1, 1, 24]) /* ty=Tensor[(1, 1, 24), float16] span=from_string:37:10 */;
  %39 = reshape(%37, newshape=[1, 1, 48]) /* ty=Tensor[(1, 1, 48), float16] span=from_string:37:15 */;
  %40 = cast(%x8, dtype="float16") /* ty=Tensor[(2, 17, 2), float16] */;
  %41 = nn.batch_matmul(%40, %4, out_dtype="float16", transpose_b=True) /* ty=Tensor[(2, 17, 7), float16] span=from_string:30:13 */;
  %42 = cast(%x11, dtype="float16") /* ty=Tensor[(7), float16] */;
  %43 = cast(%x9, dtype="float16") /* ty=Tensor[(2, 7, 2), float16] */;
  %44 = nn.batch_matmul(%40, %43, out_dtype="float16", transpose_b=True) /* ty=Tensor[(2, 17, 7), float16] span=from_string:31:13 */;
  %45 = cast(%x12, dtype="float16") /* ty=Tensor[(7), float16] */;
  %46 = cast(%x10, dtype="float16") /* ty=Tensor[(2, 7, 2), float16] */;
  %47 = nn.batch_matmul(%40, %46, out_dtype="float16", transpose_b=True) /* ty=Tensor[(2, 17, 7), float16] span=from_string:32:13 */;
  %48 = cast(%x13, dtype="float16") /* ty=Tensor[(7), float16] */;
  %49 = add(%41, %42) /* ty=Tensor[(2, 17, 7), float16] span=from_string:38:10 */;
  %50 = add(%44, %45) /* ty=Tensor[(2, 17, 7), float16] span=from_string:38:15 */;
  %51 = add(%47, %48) /* ty=Tensor[(2, 17, 7), float16] span=from_string:38:20 */;
  %52 = cast(%x14, dtype="float16") /* ty=Tensor[(2), float16] */;
  %53 = reshape(%0, newshape=[2, 7, 2]) /* ty=Tensor[(2, 7, 2), float16] span=from_string:40:4 */;
  %54 = add(%12, %13) /* ty=Tensor[(2, 21, 2), float16] span=from_string:40:126 */;
  %55 = add(%24, %25) /* ty=Tensor[(2, 63, 2), float16] span=from_string:40:131 */;
  %56 = clip(meta[relay.Constant][1] /* ty=Tensor[(3), uint8] span=from_string:36:19 */, a_min=114f, a_max=117f) /* ty=Tensor[(3), uint8] span=from_string:40:136 */;
  %57 = (%38, %39) /* ty=(Tensor[(1, 1, 24), float16], Tensor[(1, 1, 48), float16]) span=from_string:40:141 */;
  %58 = (%49, %50, %51) /* ty=(Tensor[(2, 17, 7), float16], Tensor[(2, 17, 7), float16], Tensor[(2, 17, 7), float16]) span=from_string:40:146 */;
  %59 = broadcast_to_like(%52, %23) /* ty=Tensor[(2, 63, 2), float16] span=from_string:40:151 */;
  (%53, meta[relay.Constant][0] /* ty=Tensor[(3), int32] span=from_string:40:14 */, 2 /* ty=int32 span=from_string:40:86 */, %54, %55, %56, %57, %58, %59, 1 /* ty=int32 span=from_string:40:157 */) /* ty=(Tensor[(2, 7, 2), float16], Tensor[(3), int32], int32, Tensor[(2, 21, 2), float16], Tensor[(2, 63, 2), float16], Tensor[(3), uint8], (Tensor[(1, 1, 24), float16], Tensor[(1, 1, 48), float16]), (Tensor[(2, 17, 7), float16], Tensor[(2, 17, 7), float16], Tensor[(2, 17, 7), float16]), Tensor[(2, 63, 2), float16], int32) span=from_string:3:3 */
}

#[metadata]
{
  "root": 1, 
  "nodes": [
    {
      "type_key": ""
    }, 
    {
      "type_key": "Map", 
      "keys": [
        "relay.Constant"
      ], 
      "data": [2]
    }, 
    {
      "type_key": "Array", 
      "data": [3, 11]
    }, 
    {
      "type_key": "relay.Constant", 
      "attrs": {
        "_checked_type_": "8", 
        "data": "0", 
        "span": "6", 
        "virtual_device_": "4"
      }
    }, 
    {
      "type_key": "VirtualDevice", 
      "attrs": {
        "device_type_int": "-1", 
        "memory_scope": "5", 
        "target": "0", 
        "virtual_device_id": "-1"
      }
    }, 
    {
      "type_key": "runtime.String"
    }, 
    {
      "type_key": "Span", 
      "attrs": {
        "column": "14", 
        "end_column": "32", 
        "end_line": "40", 
        "line": "40", 
        "source_name": "7"
      }
    }, 
    {
      "type_key": "SourceName", 
      "repr_str": "from_string"
    }, 
    {
      "type_key": "relay.TensorType", 
      "attrs": {
        "dtype": "int32", 
        "shape": "9", 
        "span": "0"
      }
    }, 
    {
      "type_key": "Array", 
      "data": [10]
    }, 
    {
      "type_key": "IntImm", 
      "attrs": {
        "dtype": "int32", 
        "span": "0", 
        "value": "3"
      }
    }, 
    {
      "type_key": "relay.Constant", 
      "attrs": {
        "_checked_type_": "13", 
        "data": "1", 
        "span": "12", 
        "virtual_device_": "4"
      }
    }, 
    {
      "type_key": "Span", 
      "attrs": {
        "column": "19", 
        "end_column": "37", 
        "end_line": "36", 
        "line": "36", 
        "source_name": "7"
      }
    }, 
    {
      "type_key": "relay.TensorType", 
      "attrs": {
        "dtype": "uint8", 
        "shape": "14", 
        "span": "0"
      }
    }, 
    {
      "type_key": "Array", 
      "data": [15]
    }, 
    {
      "type_key": "IntImm", 
      "attrs": {
        "dtype": "int32", 
        "span": "0", 
        "value": "3"
      }
    }
  ], 
  "b64ndarrays": [
    "P6G0lvBAXt0AAAAAAAAAAAEAAAAAAAAAAQAAAAAgAQADAAAAAAAAAAwAAAAAAAAAAgAAAAcAAAACAAAA", 
    "P6G0lvBAXt0AAAAAAAAAAAEAAAAAAAAAAQAAAAEIAQADAAAAAAAAAAMAAAAAAAAAAgcC"
  ], 
  "attrs": {"tvm_version": "0.13.0"}
}