#[version = "0.0.5"]
def @main(%x0: Tensor[(4, 7), float32] /* ty=Tensor[(4, 7), float32] span=from_string:3:100 */, %x1: Tensor[(2, 7, 2), float32] /* ty=Tensor[(2, 7, 2), float32] span=from_string:7:105 */, %x2: Tensor[(6, 7), float32] /* ty=Tensor[(6, 7), float32] span=from_string:44:101 */, %x3: Tensor[(6), float32] /* ty=Tensor[(6), float32] span=from_string:46:95 */, %x4: Tensor[(1), float32] /* ty=Tensor[(1), float32] span=from_string:48:95 */, %x5: Tensor[(12, 7), float32] /* ty=Tensor[(12, 7), float32] span=from_string:51:103 */, %x6: Tensor[(12), float32] /* ty=Tensor[(12), float32] span=from_string:53:97 */, %x7: Tensor[(1), float32] /* ty=Tensor[(1), float32] span=from_string:55:95 */, %x8: Tensor[(2, 17, 2), float32] /* ty=Tensor[(2, 17, 2), float32] span=from_string:59:109 */, %x9: Tensor[(2, 7, 2), float32] /* ty=Tensor[(2, 7, 2), float32] span=from_string:63:107 */, %x10: Tensor[(2, 7, 2), float32] /* ty=Tensor[(2, 7, 2), float32] span=from_string:67:107 */, %x11: Tensor[(7), float32] /* ty=Tensor[(7), float32] span=from_string:61:95 */, %x12: Tensor[(7), float32] /* ty=Tensor[(7), float32] span=from_string:65:95 */, %x13: Tensor[(7), float32] /* ty=Tensor[(7), float32] span=from_string:69:95 */, %x14: Tensor[(2), float32] /* ty=Tensor[(2), float32] span=from_string:72:95 */) -> (Tensor[(2, 7, 2), float16], Tensor[(3), int32], int32, Tensor[(2, 21, 2), float16], Tensor[(2, 63, 2), float16], Tensor[(3), uint8], (Tensor[(1, 1, 24), float16], Tensor[(1, 1, 48), float16]), (Tensor[(2, 17, 7), float16], Tensor[(2, 17, 7), float16], Tensor[(2, 17, 7), float16]), Tensor[(2, 63, 2), float16], int32) {
  %0 = cast(%x0, dtype="float16") /* ty=Tensor[(4, 7), float16] span=from_string:3:95 */;
  %1 = cast(%x1, dtype="float16") /* ty=Tensor[(2, 7, 2), float16] span=from_string:7:100 */;
  %2 = squeeze(%1) /* ty=Tensor[(2, 7, 2), float16] span=from_string:8:101 */;
  %3 = cast(1f /* ty=float32 span=from_string:9:65 */, dtype="float16") /* ty=float16 span=from_string:10:63 */;
  %4 = squeeze(%2) /* ty=Tensor[(2, 7, 2), float16] span=from_string:12:101 */;
  %5 = cast(1f /* ty=float32 span=from_string:13:66 */, dtype="float16") /* ty=float16 span=from_string:14:64 */;
  %6 = add(%4, %5) /* ty=Tensor[(2, 7, 2), float16] span=from_string:15:102 */;
  %7 = cast(1f /* ty=float32 span=from_string:16:66 */, dtype="float16") /* ty=float16 span=from_string:17:64 */;
  %8 = add(%2, %3) /* ty=Tensor[(2, 7, 2), float16] span=from_string:11:101 */;
  %9 = add(%6, %7) /* ty=Tensor[(2, 7, 2), float16] span=from_string:18:102 */;
  %10 = (%8, %9, %8) /* ty=(Tensor[(2, 7, 2), float16], Tensor[(2, 7, 2), float16], Tensor[(2, 7, 2), float16]) span=from_string:19:218 */;
  %11 = concatenate(%10, axis=1) /* ty=Tensor[(2, 21, 2), float16] span=from_string:20:104 */;
  %12 = squeeze(%11) /* ty=Tensor[(2, 21, 2), float16] span=from_string:21:104 */;
  %13 = cast(1f /* ty=float32 span=from_string:22:66 */, dtype="float16") /* ty=float16 span=from_string:23:64 */;
  %14 = squeeze(%12) /* ty=Tensor[(2, 21, 2), float16] span=from_string:25:104 */;
  %15 = cast(1f /* ty=float32 span=from_string:26:66 */, dtype="float16") /* ty=float16 span=from_string:27:64 */;
  %16 = squeeze(%14) /* ty=Tensor[(2, 21, 2), float16] span=from_string:29:104 */;
  %17 = cast(1f /* ty=float32 span=from_string:30:66 */, dtype="float16") /* ty=float16 span=from_string:31:64 */;
  %18 = add(%16, %17) /* ty=Tensor[(2, 21, 2), float16] span=from_string:32:104 */;
  %19 = cast(1f /* ty=float32 span=from_string:33:66 */, dtype="float16") /* ty=float16 span=from_string:34:64 */;
  %20 = add(%14, %15) /* ty=Tensor[(2, 21, 2), float16] span=from_string:28:104 */;
  %21 = add(%18, %19) /* ty=Tensor[(2, 21, 2), float16] span=from_string:35:104 */;
  %22 = (%20, %21, %20) /* ty=(Tensor[(2, 21, 2), float16], Tensor[(2, 21, 2), float16], Tensor[(2, 21, 2), float16]) span=from_string:36:224 */;
  %23 = concatenate(%22, axis=1) /* ty=Tensor[(2, 63, 2), float16] span=from_string:37:104 */;
  %24 = squeeze(%23) /* ty=Tensor[(2, 63, 2), float16] span=from_string:38:104 */;
  %25 = cast(1f /* ty=float32 span=from_string:39:66 */, dtype="float16") /* ty=float16 span=from_string:40:64 */;
  %26 = cast(%x2, dtype="float16") /* ty=Tensor[(6, 7), float16] span=from_string:44:96 */;
  %27 = nn.dense(%0, %26, units=None, out_dtype="float16") /* ty=Tensor[(4, 6), float16] span=from_string:45:96 */;
  %28 = cast(%x3, dtype="float16") /* ty=Tensor[(6), float16] span=from_string:46:90 */;
  %29 = add(%27, %28) /* ty=Tensor[(4, 6), float16] span=from_string:47:96 */;
  %30 = cast(%x4, dtype="float16") /* ty=Tensor[(1), float16] span=from_string:48:90 */;
  %31 = multiply(%29, %30) /* ty=Tensor[(4, 6), float16] span=from_string:49:97 */;
  %32 = cast(%x5, dtype="float16") /* ty=Tensor[(12, 7), float16] span=from_string:51:98 */;
  %33 = nn.dense(%0, %32, units=None, out_dtype="float16") /* ty=Tensor[(4, 12), float16] span=from_string:52:98 */;
  %34 = cast(%x6, dtype="float16") /* ty=Tensor[(12), float16] span=from_string:53:92 */;
  %35 = add(%33, %34) /* ty=Tensor[(4, 12), float16] span=from_string:54:98 */;
  %36 = cast(%x7, dtype="float16") /* ty=Tensor[(1), float16] span=from_string:55:90 */;
  %37 = multiply(%35, %36) /* ty=Tensor[(4, 12), float16] span=from_string:56:99 */;
  %38 = reshape(%31, newshape=[1, 1, 24]) /* ty=Tensor[(1, 1, 24), float16] span=from_string:50:104 */;
  %39 = reshape(%37, newshape=[1, 1, 48]) /* ty=Tensor[(1, 1, 48), float16] span=from_string:57:104 */;
  %40 = cast(%x8, dtype="float16") /* ty=Tensor[(2, 17, 2), float16] span=from_string:59:104 */;
  %41 = nn.batch_matmul(%40, %4, out_dtype="float16", transpose_b=True) /* ty=Tensor[(2, 17, 7), float16] span=from_string:60:104 */;
  %42 = cast(%x11, dtype="float16") /* ty=Tensor[(7), float16] span=from_string:61:90 */;
  %43 = cast(%x9, dtype="float16") /* ty=Tensor[(2, 7, 2), float16] span=from_string:63:102 */;
  %44 = nn.batch_matmul(%40, %43, out_dtype="float16", transpose_b=True) /* ty=Tensor[(2, 17, 7), float16] span=from_string:64:104 */;
  %45 = cast(%x12, dtype="float16") /* ty=Tensor[(7), float16] span=from_string:65:90 */;
  %46 = cast(%x10, dtype="float16") /* ty=Tensor[(2, 7, 2), float16] span=from_string:67:102 */;
  %47 = nn.batch_matmul(%40, %46, out_dtype="float16", transpose_b=True) /* ty=Tensor[(2, 17, 7), float16] span=from_string:68:104 */;
  %48 = cast(%x13, dtype="float16") /* ty=Tensor[(7), float16] span=from_string:69:90 */;
  %49 = add(%41, %42) /* ty=Tensor[(2, 17, 7), float16] span=from_string:62:104 */;
  %50 = add(%44, %45) /* ty=Tensor[(2, 17, 7), float16] span=from_string:66:104 */;
  %51 = add(%47, %48) /* ty=Tensor[(2, 17, 7), float16] span=from_string:70:104 */;
  %52 = cast(%x14, dtype="float16") /* ty=Tensor[(2), float16] span=from_string:72:90 */;
  %53 = reshape(%0, newshape=[2, 7, 2]) /* ty=Tensor[(2, 7, 2), float16] span=from_string:4:101 */;
  %54 = add(%12, %13) /* ty=Tensor[(2, 21, 2), float16] span=from_string:24:104 */;
  %55 = add(%24, %25) /* ty=Tensor[(2, 63, 2), float16] span=from_string:41:104 */;
  %56 = clip(meta[relay.Constant][1] /* ty=Tensor[(3), uint8] span=from_string:42:91 */, a_min=114f, a_max=117f) /* ty=Tensor[(3), uint8] span=from_string:43:86 */;
  %57 = (%38, %39) /* ty=(Tensor[(1, 1, 24), float16], Tensor[(1, 1, 48), float16]) span=from_string:58:166 */;
  %58 = (%49, %50, %51) /* ty=(Tensor[(2, 17, 7), float16], Tensor[(2, 17, 7), float16], Tensor[(2, 17, 7), float16]) span=from_string:71:224 */;
  %59 = broadcast_to_like(%52, %23) /* ty=Tensor[(2, 63, 2), float16] span=from_string:73:104 */;
  (%53, meta[relay.Constant][0] /* ty=Tensor[(3), int32] span=from_string:5:92 */, 2 /* ty=int32 span=from_string:6:62 */, %54, %55, %56, %57, %58, %59, 1 /* ty=int32 span=from_string:74:63 */) /* ty=(Tensor[(2, 7, 2), float16], Tensor[(3), int32], int32, Tensor[(2, 21, 2), float16], Tensor[(2, 63, 2), float16], Tensor[(3), uint8], (Tensor[(1, 1, 24), float16], Tensor[(1, 1, 48), float16]), (Tensor[(2, 17, 7), float16], Tensor[(2, 17, 7), float16], Tensor[(2, 17, 7), float16]), Tensor[(2, 63, 2), float16], int32) span=from_string:75:691 */
}

#[metadata]
{
  "root": 1, 
  "nodes": [
    {
      "type_key": ""
    }, 
    {
      "type_key": "Map", 
      "keys": [
        "relay.Constant"
      ], 
      "data": [2]
    }, 
    {
      "type_key": "Array", 
      "data": [3, 11]
    }, 
    {
      "type_key": "relay.Constant", 
      "attrs": {
        "_checked_type_": "8", 
        "data": "0", 
        "span": "6", 
        "virtual_device_": "4"
      }
    }, 
    {
      "type_key": "VirtualDevice", 
      "attrs": {
        "device_type_int": "-1", 
        "memory_scope": "5", 
        "target": "0", 
        "virtual_device_id": "-1"
      }
    }, 
    {
      "type_key": "runtime.String"
    }, 
    {
      "type_key": "Span", 
      "attrs": {
        "column": "92", 
        "end_column": "110", 
        "end_line": "5", 
        "line": "5", 
        "source_name": "7"
      }
    }, 
    {
      "type_key": "SourceName", 
      "repr_str": "from_string"
    }, 
    {
      "type_key": "relay.TensorType", 
      "attrs": {
        "dtype": "int32", 
        "shape": "9", 
        "span": "0"
      }
    }, 
    {
      "type_key": "Array", 
      "data": [10]
    }, 
    {
      "type_key": "IntImm", 
      "attrs": {
        "dtype": "int32", 
        "span": "0", 
        "value": "3"
      }
    }, 
    {
      "type_key": "relay.Constant", 
      "attrs": {
        "_checked_type_": "13", 
        "data": "1", 
        "span": "12", 
        "virtual_device_": "4"
      }
    }, 
    {
      "type_key": "Span", 
      "attrs": {
        "column": "91", 
        "end_column": "109", 
        "end_line": "42", 
        "line": "42", 
        "source_name": "7"
      }
    }, 
    {
      "type_key": "relay.TensorType", 
      "attrs": {
        "dtype": "uint8", 
        "shape": "14", 
        "span": "0"
      }
    }, 
    {
      "type_key": "Array", 
      "data": [15]
    }, 
    {
      "type_key": "IntImm", 
      "attrs": {
        "dtype": "int32", 
        "span": "0", 
        "value": "3"
      }
    }
  ], 
  "b64ndarrays": [
    "P6G0lvBAXt0AAAAAAAAAAAEAAAAAAAAAAQAAAAAgAQADAAAAAAAAAAwAAAAAAAAAAgAAAAcAAAACAAAA", 
    "P6G0lvBAXt0AAAAAAAAAAAEAAAAAAAAAAQAAAAEIAQADAAAAAAAAAAMAAAAAAAAAAgcC"
  ], 
  "attrs": {"tvm_version": "0.13.0"}
}