#[version = "0.0.5"]
def @main(%x0: Tensor[(4, 7), float32] /* ty=Tensor[(4, 7), float32] span=from_string:3:13 */, %x1: Tensor[(2, 7, 2), float32] /* ty=Tensor[(2, 7, 2), float32] span=from_string:4:13 */, %x2: Tensor[(6, 7), float32] /* ty=Tensor[(6, 7), float32] span=from_string:29:14 */, %x3: Tensor[(6), float32] /* ty=Tensor[(6), float32] span=from_string:31:14 */, %x4: Tensor[(1), float32] /* ty=Tensor[(1), float32] span=from_string:33:14 */, %x5: Tensor[(12, 7), float32] /* ty=Tensor[(12, 7), float32] span=from_string:35:14 */, %x6: Tensor[(12), float32] /* ty=Tensor[(12), float32] span=from_string:37:14 */, %x7: Tensor[(1), float32] /* ty=Tensor[(1), float32] span=from_string:39:14 */, %x8: Tensor[(2, 17, 2), float32] /* ty=Tensor[(2, 17, 2), float32] span=from_string:43:14 */, %x9: Tensor[(2, 7, 2), float32] /* ty=Tensor[(2, 7, 2), float32] span=from_string:46:14 */, %x10: Tensor[(2, 7, 2), float32] /* ty=Tensor[(2, 7, 2), float32] span=from_string:49:14 */, %x11: Tensor[(7), float32] /* ty=Tensor[(7), float32] span=from_string:45:14 */, %x12: Tensor[(7), float32] /* ty=Tensor[(7), float32] span=from_string:48:14 */, %x13: Tensor[(7), float32] /* ty=Tensor[(7), float32] span=from_string:51:14 */, %x14: Tensor[(2), float32] /* ty=Tensor[(2), float32] span=from_string:55:14 */) -> (Tensor[(2, 7, 2), float16], Tensor[(3), int32], int32, Tensor[(2, 21, 2), float16], Tensor[(2, 63, 2), float16], Tensor[(3), uint8], (Tensor[(1, 1, 24), float16], Tensor[(1, 1, 48), float16]), (Tensor[(2, 17, 7), float16], Tensor[(2, 17, 7), float16], Tensor[(2, 17, 7), float16]), Tensor[(2, 63, 2), float16], int32) {
  %0 = cast(%x0, dtype="float16") /* ty=Tensor[(4, 7), float16] span=from_string:56:17 */;
  %1 = cast(%x1, dtype="float16") /* ty=Tensor[(2, 7, 2), float16] span=from_string:5:16 */;
  %2 = squeeze(%1) /* ty=Tensor[(2, 7, 2), float16] span=from_string:11:12 */;
  %3 = cast(1f /* ty=float32 span=from_string:6:15 */, dtype="float16") /* ty=float16 span=from_string:11:16 */;
  %4 = squeeze(%2) /* ty=Tensor[(2, 7, 2), float16] span=from_string:44:30 */;
  %5 = cast(1f /* ty=float32 span=from_string:8:15 */, dtype="float16") /* ty=float16 span=from_string:9:16 */;
  %6 = add(%4, %5) /* ty=Tensor[(2, 7, 2), float16] span=from_string:12:12 */;
  %7 = cast(1f /* ty=float32 span=from_string:10:15 */, dtype="float16") /* ty=float16 span=from_string:12:16 */;
  %8 = add(%2, %3) /* ty=Tensor[(2, 7, 2), float16] span=from_string:13:18 */;
  %9 = add(%6, %7) /* ty=Tensor[(2, 7, 2), float16] span=from_string:13:14 */;
  %10 = (%8, %9, %8) /* ty=(Tensor[(2, 7, 2), float16], Tensor[(2, 7, 2), float16], Tensor[(2, 7, 2), float16]) span=from_string:14:21 */;
  %11 = concatenate(%10, axis=1) /* ty=Tensor[(2, 21, 2), float16] span=from_string:15:17 */;
  %12 = squeeze(%11) /* ty=Tensor[(2, 21, 2), float16] span=from_string:57:13 */;
  %13 = cast(1f /* ty=float32 span=from_string:16:16 */, dtype="float16") /* ty=float16 span=from_string:57:18 */;
  %14 = squeeze(%12) /* ty=Tensor[(2, 21, 2), float16] span=from_string:23:13 */;
  %15 = cast(1f /* ty=float32 span=from_string:18:16 */, dtype="float16") /* ty=float16 span=from_string:23:18 */;
  %16 = squeeze(%14) /* ty=Tensor[(2, 21, 2), float16] span=from_string:21:13 */;
  %17 = cast(1f /* ty=float32 span=from_string:20:16 */, dtype="float16") /* ty=float16 span=from_string:21:18 */;
  %18 = add(%16, %17) /* ty=Tensor[(2, 21, 2), float16] span=from_string:24:13 */;
  %19 = cast(1f /* ty=float32 span=from_string:22:16 */, dtype="float16") /* ty=float16 span=from_string:24:18 */;
  %20 = add(%14, %15) /* ty=Tensor[(2, 21, 2), float16] span=from_string:25:20 */;
  %21 = add(%18, %19) /* ty=Tensor[(2, 21, 2), float16] span=from_string:25:15 */;
  %22 = (%20, %21, %20) /* ty=(Tensor[(2, 21, 2), float16], Tensor[(2, 21, 2), float16], Tensor[(2, 21, 2), float16]) span=from_string:26:21 */;
  %23 = concatenate(%22, axis=1) /* ty=Tensor[(2, 63, 2), float16] span=from_string:62:32 */;
  %24 = squeeze(%23) /* ty=Tensor[(2, 63, 2), float16] span=from_string:58:13 */;
  %25 = cast(1f /* ty=float32 span=from_string:28:16 */, dtype="float16") /* ty=float16 span=from_string:58:18 */;
  %26 = cast(%x2, dtype="float16") /* ty=Tensor[(6, 7), float16] span=from_string:30:22 */;
  %27 = nn.dense(%0, %26, units=None, out_dtype="float16") /* ty=Tensor[(4, 6), float16] span=from_string:32:13 */;
  %28 = cast(%x3, dtype="float16") /* ty=Tensor[(6), float16] span=from_string:32:18 */;
  %29 = add(%27, %28) /* ty=Tensor[(4, 6), float16] span=from_string:34:19 */;
  %30 = cast(%x4, dtype="float16") /* ty=Tensor[(1), float16] span=from_string:34:24 */;
  %31 = multiply(%29, %30) /* ty=Tensor[(4, 6), float16] span=from_string:41:17 */;
  %32 = cast(%x5, dtype="float16") /* ty=Tensor[(12, 7), float16] span=from_string:36:22 */;
  %33 = nn.dense(%0, %32, units=None, out_dtype="float16") /* ty=Tensor[(4, 12), float16] span=from_string:38:13 */;
  %34 = cast(%x6, dtype="float16") /* ty=Tensor[(12), float16] span=from_string:38:18 */;
  %35 = add(%33, %34) /* ty=Tensor[(4, 12), float16] span=from_string:40:19 */;
  %36 = cast(%x7, dtype="float16") /* ty=Tensor[(1), float16] span=from_string:40:24 */;
  %37 = multiply(%35, %36) /* ty=Tensor[(4, 12), float16] span=from_string:42:17 */;
  %38 = reshape(%31, newshape=[1, 1, 24]) /* ty=Tensor[(1, 1, 24), float16] span=from_string:60:10 */;
  %39 = reshape(%37, newshape=[1, 1, 48]) /* ty=Tensor[(1, 1, 48), float16] span=from_string:60:15 */;
  %40 = cast(%x8, dtype="float16") /* ty=Tensor[(2, 17, 2), float16] span=from_string:50:25 */;
  %41 = nn.batch_matmul(%40, %4, out_dtype="float16", transpose_b=True) /* ty=Tensor[(2, 17, 7), float16] span=from_string:52:13 */;
  %42 = cast(%x11, dtype="float16") /* ty=Tensor[(7), float16] span=from_string:52:18 */;
  %43 = cast(%x9, dtype="float16") /* ty=Tensor[(2, 7, 2), float16] span=from_string:47:30 */;
  %44 = nn.batch_matmul(%40, %43, out_dtype="float16", transpose_b=True) /* ty=Tensor[(2, 17, 7), float16] span=from_string:53:13 */;
  %45 = cast(%x12, dtype="float16") /* ty=Tensor[(7), float16] span=from_string:53:18 */;
  %46 = cast(%x10, dtype="float16") /* ty=Tensor[(2, 7, 2), float16] span=from_string:50:30 */;
  %47 = nn.batch_matmul(%40, %46, out_dtype="float16", transpose_b=True) /* ty=Tensor[(2, 17, 7), float16] span=from_string:54:13 */;
  %48 = cast(%x13, dtype="float16") /* ty=Tensor[(7), float16] span=from_string:54:18 */;
  %49 = add(%41, %42) /* ty=Tensor[(2, 17, 7), float16] span=from_string:61:10 */;
  %50 = add(%44, %45) /* ty=Tensor[(2, 17, 7), float16] span=from_string:61:15 */;
  %51 = add(%47, %48) /* ty=Tensor[(2, 17, 7), float16] span=from_string:61:20 */;
  %52 = cast(%x14, dtype="float16") /* ty=Tensor[(2), float16] span=from_string:62:27 */;
  %53 = reshape(%0, newshape=[2, 7, 2]) /* ty=Tensor[(2, 7, 2), float16] span=from_string:63:4 */;
  %54 = add(%12, %13) /* ty=Tensor[(2, 21, 2), float16] span=from_string:63:124 */;
  %55 = add(%24, %25) /* ty=Tensor[(2, 63, 2), float16] span=from_string:63:129 */;
  %56 = clip(meta[relay.Constant][1] /* ty=Tensor[(3), uint8] span=from_string:59:19 */, a_min=114f, a_max=117f) /* ty=Tensor[(3), uint8] span=from_string:63:134 */;
  %57 = (%38, %39) /* ty=(Tensor[(1, 1, 24), float16], Tensor[(1, 1, 48), float16]) span=from_string:63:139 */;
  %58 = (%49, %50, %51) /* ty=(Tensor[(2, 17, 7), float16], Tensor[(2, 17, 7), float16], Tensor[(2, 17, 7), float16]) span=from_string:63:144 */;
  %59 = broadcast_to_like(%52, %23) /* ty=Tensor[(2, 63, 2), float16] span=from_string:63:149 */;
  (%53, meta[relay.Constant][0] /* ty=Tensor[(3), int32] span=from_string:63:14 */, 2 /* ty=int32 span=from_string:63:85 */, %54, %55, %56, %57, %58, %59, 1 /* ty=int32 span=from_string:63:155 */) /* ty=(Tensor[(2, 7, 2), float16], Tensor[(3), int32], int32, Tensor[(2, 21, 2), float16], Tensor[(2, 63, 2), float16], Tensor[(3), uint8], (Tensor[(1, 1, 24), float16], Tensor[(1, 1, 48), float16]), (Tensor[(2, 17, 7), float16], Tensor[(2, 17, 7), float16], Tensor[(2, 17, 7), float16]), Tensor[(2, 63, 2), float16], int32) span=from_string:3:3 */
}

#[metadata]
{
  "root": 1, 
  "nodes": [
    {
      "type_key": ""
    }, 
    {
      "type_key": "Map", 
      "keys": [
        "relay.Constant"
      ], 
      "data": [2]
    }, 
    {
      "type_key": "Array", 
      "data": [3, 12]
    }, 
    {
      "type_key": "relay.Constant", 
      "attrs": {
        "_checked_type_": "8", 
        "data": "0", 
        "span": "6", 
        "virtual_device_": "4"
      }
    }, 
    {
      "type_key": "VirtualDevice", 
      "attrs": {
        "device_type_int": "-1", 
        "memory_scope": "5", 
        "target": "0", 
        "virtual_device_id": "-1"
      }
    }, 
    {
      "type_key": "runtime.String"
    }, 
    {
      "type_key": "Span", 
      "attrs": {
        "column": "14", 
        "end_column": "32", 
        "end_line": "63", 
        "line": "63", 
        "source_name": "7"
      }
    }, 
    {
      "type_key": "SourceName", 
      "repr_str": "from_string"
    }, 
    {
      "type_key": "relay.TensorType", 
      "attrs": {
        "dtype": "int32", 
        "shape": "9", 
        "span": "11"
      }
    }, 
    {
      "type_key": "Array", 
      "data": [10]
    }, 
    {
      "type_key": "IntImm", 
      "attrs": {
        "dtype": "int32", 
        "span": "0", 
        "value": "3"
      }
    }, 
    {
      "type_key": "Span", 
      "attrs": {
        "column": "1326", 
        "end_column": "1346", 
        "end_line": "2", 
        "line": "2", 
        "source_name": "7"
      }
    }, 
    {
      "type_key": "relay.Constant", 
      "attrs": {
        "_checked_type_": "14", 
        "data": "1", 
        "span": "13", 
        "virtual_device_": "4"
      }
    }, 
    {
      "type_key": "Span", 
      "attrs": {
        "column": "19", 
        "end_column": "37", 
        "end_line": "59", 
        "line": "59", 
        "source_name": "7"
      }
    }, 
    {
      "type_key": "relay.TensorType", 
      "attrs": {
        "dtype": "uint8", 
        "shape": "15", 
        "span": "0"
      }
    }, 
    {
      "type_key": "Array", 
      "data": [16]
    }, 
    {
      "type_key": "IntImm", 
      "attrs": {
        "dtype": "int32", 
        "span": "0", 
        "value": "3"
      }
    }
  ], 
  "b64ndarrays": [
    "P6G0lvBAXt0AAAAAAAAAAAEAAAAAAAAAAQAAAAAgAQADAAAAAAAAAAwAAAAAAAAAAgAAAAcAAAACAAAA", 
    "P6G0lvBAXt0AAAAAAAAAAAEAAAAAAAAAAQAAAAEIAQADAAAAAAAAAAMAAAAAAAAAAgcC"
  ], 
  "attrs": {"tvm_version": "0.13.0"}
}