#[version = "0.0.5"]
def @main(%x0: Tensor[(10, 10), float32] /* ty=Tensor[(10, 10), float32] span=from_string:4:19 */, %x1: Tensor[(34, 10), float32] /* ty=Tensor[(34, 10), float32] span=from_string:17:20 */, %x2: Tensor[(38, 10), float32] /* ty=Tensor[(38, 10), float32] span=from_string:20:20 */, %x3: Tensor[(100), float32] /* ty=Tensor[(100), float32] */, %x4: Tensor[(57), int32] /* ty=Tensor[(57), int32] span=from_string:3:65 */, %x5: Tensor[(30, 10), float32] /* ty=Tensor[(30, 10), float32] span=from_string:36:20 */) -> (Tensor[(10, 10), float16], (Tensor[(10, 10), float16], (Tensor[(10, 10), float16],)), (Tensor[(10, 34, 1), float16], Tensor[(10, 38, 1), float16]), Tensor[(10, 34, 1), float32], Tensor[(10, 10), float32], Tensor[(10, 10), float16], Tensor[(1), int32], Tensor[(10, 10), float32], float32) {
  %0 = cast(%x0, dtype="float16") /* ty=Tensor[(10, 10), float16] span=from_string:4:14 */;
  %1 = ones(shape=[10, 10], dtype="float16") /* ty=Tensor[(10, 10), float16] span=from_string:6:97 */;
  %2 = multiply(%1, %0) /* ty=Tensor[(10, 10), float16] span=from_string:9:15 */;
  %3 = collapse_sum_to(%2, meta[relay.Constant][0] /* ty=Tensor[(2), int32] span=from_string:10:19 */, meta[relay.attrs.InitOpAttrs][0]) /* ty=Tensor[(10, 10), float16] span=from_string:11:14 */;
  %4 = collapse_sum_to(%2, meta[relay.Constant][1] /* ty=Tensor[(2), int32] span=from_string:12:19 */, meta[relay.attrs.InitOpAttrs][1]) /* ty=Tensor[(10, 10), float16] span=from_string:13:14 */;
  %5 = add(%3, %4) /* ty=Tensor[(10, 10), float16] span=from_string:14:14 */;
  %6 = multiply(%0, %0) /* ty=Tensor[(10, 10), float16] span=from_string:5:99 */;
  %7 = (%5,) /* ty=(Tensor[(10, 10), float16],) span=from_string:15:14 */;
  %8 = cast(%x1, dtype="float16") /* ty=Tensor[(34, 10), float16] span=from_string:17:15 */;
  %9 = nn.dense(%6, %8, units=None, out_dtype="float16") /* ty=Tensor[(10, 34), float16] span=from_string:18:15 */;
  %10 = cast(%x2, dtype="float16") /* ty=Tensor[(38, 10), float16] span=from_string:20:15 */;
  %11 = nn.dense(%6, %10, units=None, out_dtype="float16") /* ty=Tensor[(10, 38), float16] span=from_string:21:15 */;
  %12 = expand_dims(%9, axis=2) /* ty=Tensor[(10, 34, 1), float16] span=from_string:19:15 */;
  %13 = expand_dims(%11, axis=2) /* ty=Tensor[(10, 38, 1), float16] span=from_string:22:15 */;
  %14 = cast(1f /* ty=float32 span=from_string:24:17 */, dtype="float16") /* ty=float16 span=from_string:25:15 */;
  %15 = add(%12, %14) /* ty=Tensor[(10, 34, 1), float16] span=from_string:26:15 */;
  %16 = annotation.stop_fusion(%15) /* ty=Tensor[(10, 34, 1), float16] span=from_string:27:15 */;
  %17 = cast(%16, dtype="float32") /* ty=Tensor[(10, 34, 1), float32] span=from_string:28:15 */;
  %18 = add(%4, %14) /* ty=Tensor[(10, 10), float16] span=from_string:30:15 */;
  %19 = cast(%18, dtype="float32") /* ty=Tensor[(10, 10), float32] span=from_string:31:15 */;
  %20 = exp(%19) /* ty=Tensor[(10, 10), float32] span=from_string:32:15 */;
  %21 = cast(%x5, dtype="float16") /* ty=Tensor[(30, 10), float16] span=from_string:36:15 */;
  %22 = nn.dense(%1, %21, units=None, out_dtype="float16") /* ty=Tensor[(10, 30), float16] span=from_string:37:15 */;
  %23 = split(%22, indices_or_sections=3, axis=1) /* ty=(Tensor[(10, 10), float16], Tensor[(10, 10), float16], Tensor[(10, 10), float16]) span=from_string:38:15 */;
  %24 = %23.0 /* ty=Tensor[(10, 10), float16] span=from_string:39:15 */;
  %25 = sigmoid(%24) /* ty=Tensor[(10, 10), float16] span=from_string:40:15 */;
  %26 = %23.1 /* ty=Tensor[(10, 10), float16] span=from_string:42:15 */;
  %27 = tanh(%26) /* ty=Tensor[(10, 10), float16] span=from_string:43:15 */;
  %28 = %23.2 /* ty=Tensor[(10, 10), float16] span=from_string:45:15 */;
  %29 = cast(%28, dtype="float32") /* ty=Tensor[(10, 10), float32] span=from_string:46:15 */;
  %30 = cast(%27, dtype="float32") /* ty=Tensor[(10, 10), float32] span=from_string:44:15 */;
  %31 = exp(%29) /* ty=Tensor[(10, 10), float32] span=from_string:47:15 */;
  %32 = cast(%25, dtype="float32") /* ty=Tensor[(10, 10), float32] span=from_string:41:15 */;
  %33 = multiply(%30, %31) /* ty=Tensor[(10, 10), float32] span=from_string:48:16 */;
  %34 = multiply(%0, 2f16 /* ty=float16 span=from_string:7:18 */) /* ty=Tensor[(10, 10), float16] span=from_string:8:15 */;
  %35 = (%6, %7) /* ty=(Tensor[(10, 10), float16], (Tensor[(10, 10), float16],)) span=from_string:16:15 */;
  %36 = (%12, %13) /* ty=(Tensor[(10, 34, 1), float16], Tensor[(10, 38, 1), float16]) span=from_string:23:15 */;
  %37 = exp(%17) /* ty=Tensor[(10, 34, 1), float32] span=from_string:29:15 */;
  %38 = squeeze(%20) /* ty=Tensor[(10, 10), float32] span=from_string:33:15 */;
  %39 = reshape(%18, newshape=[10, 10]) /* ty=Tensor[(10, 10), float16] span=from_string:34:15 */;
  %40 = add(%32, %33) /* ty=Tensor[(10, 10), float32] span=from_string:49:15 */;
  (%34, %35, %36, %37, %38, %39, meta[relay.Constant][2] /* ty=Tensor[(1), int32] span=from_string:35:20 */, %40, 0.761594f /* ty=float32 span=from_string:50:24 */) /* ty=(Tensor[(10, 10), float16], (Tensor[(10, 10), float16], (Tensor[(10, 10), float16],)), (Tensor[(10, 34, 1), float16], Tensor[(10, 38, 1), float16]), Tensor[(10, 34, 1), float32], Tensor[(10, 10), float32], Tensor[(10, 10), float16], Tensor[(1), int32], Tensor[(10, 10), float32], float32) span=from_string:51:15 */
}

#[metadata]
{
  "root": 1, 
  "nodes": [
    {
      "type_key": ""
    }, 
    {
      "type_key": "Map", 
      "keys": [
        "relay.attrs.InitOpAttrs", 
        "relay.Constant"
      ], 
      "data": [2, 9]
    }, 
    {
      "type_key": "Array", 
      "data": [3, 7]
    }, 
    {
      "type_key": "relay.attrs.InitOpAttrs", 
      "attrs": {
        "dtype": "", 
        "shape": "4"
      }
    }, 
    {
      "type_key": "Array", 
      "data": [5, 6]
    }, 
    {
      "type_key": "IntImm", 
      "attrs": {
        "dtype": "int32", 
        "span": "0", 
        "value": "10"
      }
    }, 
    {
      "type_key": "IntImm", 
      "attrs": {
        "dtype": "int32", 
        "span": "0", 
        "value": "10"
      }
    }, 
    {
      "type_key": "relay.attrs.InitOpAttrs", 
      "attrs": {
        "dtype": "", 
        "shape": "8"
      }
    }, 
    {
      "type_key": "Array", 
      "data": [5, 6]
    }, 
    {
      "type_key": "Array", 
      "data": [10, 18, 23]
    }, 
    {
      "type_key": "relay.Constant", 
      "attrs": {
        "_checked_type_": "15", 
        "data": "0", 
        "span": "13", 
        "virtual_device_": "11"
      }
    }, 
    {
      "type_key": "VirtualDevice", 
      "attrs": {
        "device_type_int": "-1", 
        "memory_scope": "12", 
        "target": "0", 
        "virtual_device_id": "-1"
      }
    }, 
    {
      "type_key": "runtime.String"
    }, 
    {
      "type_key": "Span", 
      "attrs": {
        "column": "19", 
        "end_column": "37", 
        "end_line": "10", 
        "line": "10", 
        "source_name": "14"
      }
    }, 
    {
      "type_key": "SourceName", 
      "repr_str": "from_string"
    }, 
    {
      "type_key": "relay.TensorType", 
      "attrs": {
        "dtype": "int32", 
        "shape": "16", 
        "span": "0"
      }
    }, 
    {
      "type_key": "Array", 
      "data": [17]
    }, 
    {
      "type_key": "IntImm", 
      "attrs": {
        "dtype": "int32", 
        "span": "0", 
        "value": "2"
      }
    }, 
    {
      "type_key": "relay.Constant", 
      "attrs": {
        "_checked_type_": "20", 
        "data": "1", 
        "span": "19", 
        "virtual_device_": "11"
      }
    }, 
    {
      "type_key": "Span", 
      "attrs": {
        "column": "19", 
        "end_column": "37", 
        "end_line": "12", 
        "line": "12", 
        "source_name": "14"
      }
    }, 
    {
      "type_key": "relay.TensorType", 
      "attrs": {
        "dtype": "int32", 
        "shape": "21", 
        "span": "0"
      }
    }, 
    {
      "type_key": "Array", 
      "data": [22]
    }, 
    {
      "type_key": "IntImm", 
      "attrs": {
        "dtype": "int32", 
        "span": "0", 
        "value": "2"
      }
    }, 
    {
      "type_key": "relay.Constant", 
      "attrs": {
        "_checked_type_": "27", 
        "data": "2", 
        "span": "26", 
        "virtual_device_": "24"
      }
    }, 
    {
      "type_key": "VirtualDevice", 
      "attrs": {
        "device_type_int": "-1", 
        "memory_scope": "25", 
        "target": "0", 
        "virtual_device_id": "-1"
      }
    }, 
    {
      "type_key": "runtime.String"
    }, 
    {
      "type_key": "Span", 
      "attrs": {
        "column": "20", 
        "end_column": "38", 
        "end_line": "35", 
        "line": "35", 
        "source_name": "14"
      }
    }, 
    {
      "type_key": "relay.TensorType", 
      "attrs": {
        "dtype": "int32", 
        "shape": "28", 
        "span": "0"
      }
    }, 
    {
      "type_key": "Array", 
      "data": [29]
    }, 
    {
      "type_key": "IntImm", 
      "attrs": {
        "dtype": "int32", 
        "span": "0", 
        "value": "1"
      }
    }
  ], 
  "b64ndarrays": [
    "P6G0lvBAXt0AAAAAAAAAAAEAAAAAAAAAAQAAAAAgAQACAAAAAAAAAAgAAAAAAAAACgAAAAoAAAA=", 
    "P6G0lvBAXt0AAAAAAAAAAAEAAAAAAAAAAQAAAAAgAQACAAAAAAAAAAgAAAAAAAAACgAAAAoAAAA=", 
    "P6G0lvBAXt0AAAAAAAAAAAEAAAAAAAAAAQAAAAAgAQABAAAAAAAAAAQAAAAAAAAAZAAAAA=="
  ], 
  "attrs": {"tvm_version": "0.13.0"}
}