#[version = "0.0.5"]
def @main(%x0: Tensor[(10, 10), float32] /* ty=Tensor[(10, 10), float32] span=from_string:35:18 */, %x1: Tensor[(34, 10), float32] /* ty=Tensor[(34, 10), float32] span=from_string:13:22 */, %x2: Tensor[(38, 10), float32] /* ty=Tensor[(38, 10), float32] span=from_string:14:22 */, %x3: Tensor[(100), float32] /* ty=Tensor[(100), float32] */, %x4: Tensor[(57), int32] /* ty=Tensor[(57), int32] */, %x5: Tensor[(30, 10), float32] /* ty=Tensor[(30, 10), float32] span=from_string:26:22 */) -> (Tensor[(10, 10), float32], (Tensor[(10, 10), float32], (Tensor[(10, 10), float32],)), (Tensor[(10, 34, 1), float32], Tensor[(10, 38, 1), float32]), Tensor[(10, 34, 1), float32], Tensor[(10, 10), float32], Tensor[(10, 10), float32], Tensor[(1), int32], Tensor[(10, 10), float32], float32) {
  %0 = fn (%p0: Tensor[(10, 10), float32] /* ty=Tensor[(10, 10), float32] */, Primitive=1) -> Tensor[(10, 10), float32] {
    add(%p0, %p0) /* ty=Tensor[(10, 10), float32] span=from_string:42:4 */
  } /* ty=fn (Tensor[(10, 10), float32]) -> Tensor[(10, 10), float32] */;
  %1 = fn (%p01: Tensor[(10, 10), float32] /* ty=Tensor[(10, 10), float32] */, Primitive=1) -> Tensor[(10, 10), float32] {
    multiply(%p01, %p01) /* ty=Tensor[(10, 10), float32] span=from_string:36:10 */
  } /* ty=fn (Tensor[(10, 10), float32]) -> Tensor[(10, 10), float32] */;
  %5 = %1(%x0) /* ty=Tensor[(10, 10), float32] */;
  %6 = fn (%p04: Tensor[(10, 10), float32] /* ty=Tensor[(10, 10), float32] */, Primitive=1) -> Tensor[(10, 10), float32] {
    ones_like(%p04) /* ty=Tensor[(10, 10), float32] span=from_string:26:18 */
  } /* ty=fn (Tensor[(10, 10), float32]) -> Tensor[(10, 10), float32] */;
  %7 = %6(%5) /* ty=Tensor[(10, 10), float32] */;
  %8 = fn (%p03: Tensor[(10, 10), float32] /* ty=Tensor[(10, 10), float32] */, %p11: Tensor[(10, 10), float32] /* ty=Tensor[(10, 10), float32] */, Primitive=1) -> Tensor[(10, 10), float32] {
    %4 = multiply(%p03, %p11) /* ty=Tensor[(10, 10), float32] span=from_string:7:26 */;
    collapse_sum_like(%4, %p11) /* ty=Tensor[(10, 10), float32] span=from_string:9:16 */
  } /* ty=fn (Tensor[(10, 10), float32], Tensor[(10, 10), float32]) -> Tensor[(10, 10), float32] */;
  %10 = fn (%p05: Tensor[(10, 10), float32] /* ty=Tensor[(10, 10), float32] */, %p12: Tensor[(10, 10), float32] /* ty=Tensor[(10, 10), float32] */, Primitive=1) -> Tensor[(10, 10), float32] {
    %9 = multiply(%p05, %p12) /* ty=Tensor[(10, 10), float32] span=from_string:10:26 */;
    collapse_sum_like(%9, %p12) /* ty=Tensor[(10, 10), float32] span=from_string:20:13 */
  } /* ty=fn (Tensor[(10, 10), float32], Tensor[(10, 10), float32]) -> Tensor[(10, 10), float32] */;
  %11 = %8(%7, %x0) /* ty=Tensor[(10, 10), float32] */;
  %12 = %10(%7, %x0) /* ty=Tensor[(10, 10), float32] */;
  %13 = fn (%p02: Tensor[(10, 10), float32] /* ty=Tensor[(10, 10), float32] */, %p1: Tensor[(10, 10), float32] /* ty=Tensor[(10, 10), float32] */, %p2: Tensor[(10, 10), float32] /* ty=Tensor[(10, 10), float32] */, Primitive=1) -> Tensor[(10, 10), float32] {
    %2 = zeros_like(%p02) /* ty=Tensor[(10, 10), float32] span=from_string:9:12 */;
    %3 = add(%2, %p1) /* ty=Tensor[(10, 10), float32] span=from_string:11:12 */;
    add(%3, %p2) /* ty=Tensor[(10, 10), float32] span=from_string:12:9 */
  } /* ty=fn (Tensor[(10, 10), float32], Tensor[(10, 10), float32], Tensor[(10, 10), float32]) -> Tensor[(10, 10), float32] */;
  %14 = %13(%x0, %11, %12) /* ty=Tensor[(10, 10), float32] */;
  %15 = (%14,) /* ty=(Tensor[(10, 10), float32],) span=from_string:36:14 */;
  %16 = fn (%p07: Tensor[(10, 10), float32] /* ty=Tensor[(10, 10), float32] */, %p13: Tensor[(34, 10), float32] /* ty=Tensor[(34, 10), float32] */, Primitive=1) -> Tensor[(10, 34), float32] {
    nn.dense(%p07, %p13, units=None) /* ty=Tensor[(10, 34), float32] span=from_string:15:21 */
  } /* ty=fn (Tensor[(10, 10), float32], Tensor[(34, 10), float32]) -> Tensor[(10, 34), float32] */;
  %17 = %16(%5, %x1) /* ty=Tensor[(10, 34), float32] */;
  %18 = fn (%p06: Tensor[(10, 34), float32] /* ty=Tensor[(10, 34), float32] */, Primitive=1, relay.reshape_only=1) -> Tensor[(10, 34, 1), float32] {
    expand_dims(%p06, axis=2) /* ty=Tensor[(10, 34, 1), float32] span=from_string:37:10 */
  } /* ty=fn (Tensor[(10, 34), float32]) -> Tensor[(10, 34, 1), float32] */;
  %19 = fn (%p09: Tensor[(10, 10), float32] /* ty=Tensor[(10, 10), float32] */, %p14: Tensor[(38, 10), float32] /* ty=Tensor[(38, 10), float32] */, Primitive=1) -> Tensor[(10, 38), float32] {
    nn.dense(%p09, %p14, units=None) /* ty=Tensor[(10, 38), float32] span=from_string:16:21 */
  } /* ty=fn (Tensor[(10, 10), float32], Tensor[(38, 10), float32]) -> Tensor[(10, 38), float32] */;
  %20 = %19(%5, %x2) /* ty=Tensor[(10, 38), float32] */;
  %21 = fn (%p08: Tensor[(10, 38), float32] /* ty=Tensor[(10, 38), float32] */, Primitive=1, relay.reshape_only=1) -> Tensor[(10, 38, 1), float32] {
    expand_dims(%p08, axis=2) /* ty=Tensor[(10, 38, 1), float32] span=from_string:37:15 */
  } /* ty=fn (Tensor[(10, 38), float32]) -> Tensor[(10, 38, 1), float32] */;
  %22 = %18(%17) /* ty=Tensor[(10, 34, 1), float32] */;
  %23 = %21(%20) /* ty=Tensor[(10, 38, 1), float32] */;
  %24 = fn (%p011: Tensor[(10, 34, 1), float32] /* ty=Tensor[(10, 34, 1), float32] */, Primitive=1) -> Tensor[(10, 34, 1), float32] {
    add(%p011, 1f /* ty=float32 span=from_string:17:20 */) /* ty=Tensor[(10, 34, 1), float32] span=from_string:18:32 */
  } /* ty=fn (Tensor[(10, 34, 1), float32]) -> Tensor[(10, 34, 1), float32] */;
  %25 = %24(%22) /* ty=Tensor[(10, 34, 1), float32] */;
  %26 = fn (%p010: Tensor[(10, 34, 1), float32] /* ty=Tensor[(10, 34, 1), float32] */, Primitive=1) -> Tensor[(10, 34, 1), float32] {
    exp(%p010) /* ty=Tensor[(10, 34, 1), float32] span=from_string:42:19 */
  } /* ty=fn (Tensor[(10, 34, 1), float32]) -> Tensor[(10, 34, 1), float32] */;
  %30 = fn (%p013: Tensor[(10, 10), float32] /* ty=Tensor[(10, 10), float32] */, Primitive=1) -> Tensor[(10, 10), float32] {
    %28 = zeros(shape=[1], dtype="float32") /* ty=Tensor[(1), float32] span=from_string:20:17 */;
    %29 = add(%p013, %28) /* ty=Tensor[(10, 10), float32] span=from_string:21:13 */;
    add(%29, 1f /* ty=float32 span=from_string:21:20 */) /* ty=Tensor[(10, 10), float32] span=from_string:23:17 */
  } /* ty=fn (Tensor[(10, 10), float32]) -> Tensor[(10, 10), float32] */;
  %31 = %30(%12) /* ty=Tensor[(10, 10), float32] */;
  %32 = fn (%p012: Tensor[(10, 10), float32] /* ty=Tensor[(10, 10), float32] */, Primitive=1) -> Tensor[(10, 10), float32] {
    %27 = exp(%p012) /* ty=Tensor[(10, 10), float32] span=from_string:39:17 */;
    squeeze(%27) /* ty=Tensor[(10, 10), float32] span=from_string:42:24 */
  } /* ty=fn (Tensor[(10, 10), float32]) -> Tensor[(10, 10), float32] */;
  %36 = fn (%p014: Tensor[(10, 10), float32] /* ty=Tensor[(10, 10), float32] */, Primitive=1, relay.reshape_only=1) -> Tensor[(10, 10), float32] {
    %33 = reshape(%p014, newshape=[100]) /* ty=Tensor[(100), float32] span=from_string:24:17 */;
    %34 = reshape(%33, newshape=[10, 10]) /* ty=Tensor[(10, 10), float32] span=from_string:25:17 */;
    %35 = reshape(%34, newshape=[100]) /* ty=Tensor[(100), float32] span=from_string:40:17 */;
    reshape(%35, newshape=[10, 10]) /* ty=Tensor[(10, 10), float32] span=from_string:42:29 */
  } /* ty=fn (Tensor[(10, 10), float32]) -> Tensor[(10, 10), float32] */;
  %45 = fn (%p016: Tensor[(10, 10), float32] /* ty=Tensor[(10, 10), float32] */, %p15: Tensor[(30, 10), float32] /* ty=Tensor[(30, 10), float32] */, Primitive=1) -> Tensor[(10, 30), float32] {
    nn.dense(%p016, %p15, units=None) /* ty=Tensor[(10, 30), float32] span=from_string:27:15 */
  } /* ty=fn (Tensor[(10, 10), float32], Tensor[(30, 10), float32]) -> Tensor[(10, 30), float32] */;
  %46 = %45(%7, %x5) /* ty=Tensor[(10, 30), float32] */;
  %47 = fn (%p015: Tensor[(10, 30), float32] /* ty=Tensor[(10, 30), float32] */, Primitive=1) -> Tensor[(10, 10), float32] {
    %37 = split(%p015, indices_or_sections=3, axis=1) /* ty=(Tensor[(10, 10), float32], Tensor[(10, 10), float32], Tensor[(10, 10), float32]) span=from_string:30:9 */;
    %38 = %37.0 /* ty=Tensor[(10, 10), float32] */;
    %39 = %37.1 /* ty=Tensor[(10, 10), float32] */;
    %40 = %37.2 /* ty=Tensor[(10, 10), float32] */;
    %41 = tanh(%39) /* ty=Tensor[(10, 10), float32] span=from_string:34:19 */;
    %42 = exp(%40) /* ty=Tensor[(10, 10), float32] span=from_string:34:24 */;
    %43 = sigmoid(%38) /* ty=Tensor[(10, 10), float32] span=from_string:41:13 */;
    %44 = multiply(%41, %42) /* ty=Tensor[(10, 10), float32] span=from_string:41:18 */;
    add(%43, %44) /* ty=Tensor[(10, 10), float32] span=from_string:42:110 */
  } /* ty=fn (Tensor[(10, 30), float32]) -> Tensor[(10, 10), float32] */;
  %48 = %0(%x0) /* ty=Tensor[(10, 10), float32] */;
  %49 = (%5, %15) /* ty=(Tensor[(10, 10), float32], (Tensor[(10, 10), float32],)) span=from_string:42:9 */;
  %50 = (%22, %23) /* ty=(Tensor[(10, 34, 1), float32], Tensor[(10, 38, 1), float32]) span=from_string:42:14 */;
  %51 = %26(%25) /* ty=Tensor[(10, 34, 1), float32] */;
  %52 = %32(%31) /* ty=Tensor[(10, 10), float32] */;
  %53 = %36(%31) /* ty=Tensor[(10, 10), float32] */;
  %54 = %47(%46) /* ty=Tensor[(10, 10), float32] */;
  (%48, %49, %50, %51, %52, %53, meta[relay.Constant][0] /* ty=Tensor[(1), int32] span=from_string:42:39 */, %54, 0.761594f /* ty=float32 span=from_string:42:124 */) /* ty=(Tensor[(10, 10), float32], (Tensor[(10, 10), float32], (Tensor[(10, 10), float32],)), (Tensor[(10, 34, 1), float32], Tensor[(10, 38, 1), float32]), Tensor[(10, 34, 1), float32], Tensor[(10, 10), float32], Tensor[(10, 10), float32], Tensor[(1), int32], Tensor[(10, 10), float32], float32) span=from_string:3:3 */
}

#[metadata]
{
  "root": 1, 
  "nodes": [
    {
      "type_key": ""
    }, 
    {
      "type_key": "Map", 
      "keys": [
        "relay.Constant"
      ], 
      "data": [2]
    }, 
    {
      "type_key": "Array", 
      "data": [3]
    }, 
    {
      "type_key": "relay.Constant", 
      "attrs": {
        "_checked_type_": "8", 
        "data": "0", 
        "span": "6", 
        "virtual_device_": "4"
      }
    }, 
    {
      "type_key": "VirtualDevice", 
      "attrs": {
        "device_type_int": "-1", 
        "memory_scope": "5", 
        "target": "0", 
        "virtual_device_id": "-1"
      }
    }, 
    {
      "type_key": "runtime.String"
    }, 
    {
      "type_key": "Span", 
      "attrs": {
        "column": "39", 
        "end_column": "57", 
        "end_line": "42", 
        "line": "42", 
        "source_name": "7"
      }
    }, 
    {
      "type_key": "SourceName", 
      "repr_str": "from_string"
    }, 
    {
      "type_key": "relay.TensorType", 
      "attrs": {
        "dtype": "int32", 
        "shape": "9", 
        "span": "11"
      }
    }, 
    {
      "type_key": "Array", 
      "data": [10]
    }, 
    {
      "type_key": "IntImm", 
      "attrs": {
        "dtype": "int32", 
        "span": "0", 
        "value": "1"
      }
    }, 
    {
      "type_key": "Span", 
      "attrs": {
        "column": "726", 
        "end_column": "746", 
        "end_line": "2", 
        "line": "2", 
        "source_name": "7"
      }
    }
  ], 
  "b64ndarrays": [
    "P6G0lvBAXt0AAAAAAAAAAAEAAAAAAAAAAQAAAAAgAQABAAAAAAAAAAQAAAAAAAAAZAAAAA=="
  ], 
  "attrs": {"tvm_version": "0.13.0"}
}