#[version = "0.0.5"]
def @main(%x0: Tensor[(10, 10), float32] /* ty=Tensor[(10, 10), float32] span=from_string:58:109 */, %x1: Tensor[(34, 10), float32] /* ty=Tensor[(34, 10), float32] span=from_string:74:109 */, %x2: Tensor[(38, 10), float32] /* ty=Tensor[(38, 10), float32] span=from_string:86:109 */, %x3: Tensor[(100), float32] /* ty=Tensor[(100), float32] */, %x4: Tensor[(57), int32] /* ty=Tensor[(57), int32] */, %x5: Tensor[(30, 10), float32] /* ty=Tensor[(30, 10), float32] span=from_string:161:111 */) -> (Tensor[(10, 10), float16], (Tensor[(10, 10), float16], (Tensor[(10, 10), float16],)), (Tensor[(10, 34, 1), float16], Tensor[(10, 38, 1), float16]), Tensor[(10, 34, 1), float16], Tensor[(10, 10), float16], Tensor[(10, 10), float16], Tensor[(1), int32], Tensor[(10, 10), float16], float32) {
  %1 = fn (%p0: Tensor[(10, 10), float32] /* ty=Tensor[(10, 10), float32] span=from_string:4:15 */, Primitive=1) -> Tensor[(10, 10), float16] {
    %0 = cast(%p0, dtype="float16") /* ty=Tensor[(10, 10), float16] span=from_string:5:19 */;
    multiply(%0, %0) /* ty=Tensor[(10, 10), float16] span=from_string:4:5 */
  } /* ty=fn (Tensor[(10, 10), float32]) -> Tensor[(10, 10), float16] span=from_string:7:100 */;
  let %x_0: Tensor[(10, 10), float16] /* ty=Tensor[(10, 10), float16] span=from_string:68:167 */ = %1(%x0) /* ty=Tensor[(10, 10), float16] span=from_string:7:100 */;
  %3 = cast(%x_0, dtype="float32") /* ty=Tensor[(10, 10), float32] span=from_string:86:105 */;
  %4 = fn (%p01: Tensor[(10, 10), float32] /* ty=Tensor[(10, 10), float32] span=from_string:10:15 */, Primitive=1) -> Tensor[(10, 10), float16] {
    %2 = cast(%p01, dtype="float16") /* ty=Tensor[(10, 10), float16] span=from_string:11:15 */;
    ones_like(%2) /* ty=Tensor[(10, 10), float16] span=from_string:10:5 */
  } /* ty=fn (Tensor[(10, 10), float32]) -> Tensor[(10, 10), float16] span=from_string:13:101 */;
  let %x_1: Tensor[(10, 10), float16] /* ty=Tensor[(10, 10), float16] span=from_string:24:14 */ = %4(%3) /* ty=Tensor[(10, 10), float16] span=from_string:13:101 */;
  %6 = fn (%p02: Tensor[(10, 10), float32] /* ty=Tensor[(10, 10), float32] span=from_string:15:15 */, Primitive=1) -> Tensor[(10, 10), float16] {
    %5 = cast(%p02, dtype="float16") /* ty=Tensor[(10, 10), float16] span=from_string:16:13 */;
    add(%5, %5) /* ty=Tensor[(10, 10), float16] span=from_string:15:5 */
  } /* ty=fn (Tensor[(10, 10), float32]) -> Tensor[(10, 10), float16] span=from_string:18:101 */;
  let %x_2: Tensor[(10, 10), float16] /* ty=Tensor[(10, 10), float16] span=from_string:205:629 */ = %6(%x0) /* ty=Tensor[(10, 10), float16] span=from_string:18:101 */;
  %8 = fn (%p03: Tensor[(10, 10), float32] /* ty=Tensor[(10, 10), float32] span=from_string:20:15 */, Primitive=1) -> Tensor[(10, 10), float16] {
    %7 = cast(%p03, dtype="float16") /* ty=Tensor[(10, 10), float16] span=from_string:21:16 */;
    zeros_like(%7) /* ty=Tensor[(10, 10), float16] span=from_string:20:5 */
  } /* ty=fn (Tensor[(10, 10), float32]) -> Tensor[(10, 10), float16] span=from_string:23:100 */;
  let %x_3: Tensor[(10, 10), float16] /* ty=Tensor[(10, 10), float16] span=from_string:38:14 */ = %8(%x0) /* ty=Tensor[(10, 10), float16] span=from_string:23:100 */;
  %11 = cast(%x_1, dtype="float32") /* ty=Tensor[(10, 10), float32] span=from_string:161:106 */;
  %12 = fn (%p04: Tensor[(10, 10), float32] /* ty=Tensor[(10, 10), float32] span=from_string:26:15 */, %p1: Tensor[(10, 10), float32] /* ty=Tensor[(10, 10), float32] span=from_string:27:16 */, Primitive=1) -> Tensor[(10, 10), float16] {
    %9 = cast(%p04, dtype="float16") /* ty=Tensor[(10, 10), float16] span=from_string:28:15 */;
    %10 = cast(%p1, dtype="float16") /* ty=Tensor[(10, 10), float16] span=from_string:28:19 */;
    multiply(%9, %10) /* ty=Tensor[(10, 10), float16] span=from_string:26:5 */
  } /* ty=fn (Tensor[(10, 10), float32], Tensor[(10, 10), float32]) -> Tensor[(10, 10), float16] span=from_string:30:100 */;
  let %x_4: Tensor[(10, 10), float16] /* ty=Tensor[(10, 10), float16] span=from_string:31:14 */ = %12(%11, %x0) /* ty=Tensor[(10, 10), float16] span=from_string:30:100 */;
  %15 = cast(%x_4, dtype="float32") /* ty=Tensor[(10, 10), float32] span=from_string:37:104 */;
  %16 = fn (%p05: Tensor[(10, 10), float32] /* ty=Tensor[(10, 10), float32] span=from_string:33:16 */, %p11: Tensor[(10, 10), float32] /* ty=Tensor[(10, 10), float32] span=from_string:34:16 */, Primitive=1) -> Tensor[(10, 10), float16] {
    %13 = cast(%p05, dtype="float16") /* ty=Tensor[(10, 10), float16] span=from_string:35:23 */;
    %14 = cast(%p11, dtype="float16") /* ty=Tensor[(10, 10), float16] span=from_string:35:28 */;
    collapse_sum_like(%13, %14) /* ty=Tensor[(10, 10), float16] span=from_string:33:5 */
  } /* ty=fn (Tensor[(10, 10), float32], Tensor[(10, 10), float32]) -> Tensor[(10, 10), float16] span=from_string:37:100 */;
  let %x_5: Tensor[(10, 10), float16] /* ty=Tensor[(10, 10), float16] span=from_string:39:14 */ = %16(%15, %x0) /* ty=Tensor[(10, 10), float16] span=from_string:37:100 */;
  %19 = cast(%x_3, dtype="float32") /* ty=Tensor[(10, 10), float32] span=from_string:45:104 */;
  %20 = cast(%x_5, dtype="float32") /* ty=Tensor[(10, 10), float32] span=from_string:45:109 */;
  %21 = fn (%p06: Tensor[(10, 10), float32] /* ty=Tensor[(10, 10), float32] span=from_string:41:16 */, %p12: Tensor[(10, 10), float32] /* ty=Tensor[(10, 10), float32] span=from_string:42:16 */, Primitive=1) -> Tensor[(10, 10), float16] {
    %17 = cast(%p06, dtype="float16") /* ty=Tensor[(10, 10), float16] span=from_string:43:9 */;
    %18 = cast(%p12, dtype="float16") /* ty=Tensor[(10, 10), float16] span=from_string:43:14 */;
    add(%17, %18) /* ty=Tensor[(10, 10), float16] span=from_string:41:5 */
  } /* ty=fn (Tensor[(10, 10), float32], Tensor[(10, 10), float32]) -> Tensor[(10, 10), float16] span=from_string:45:100 */;
  let %x_6: Tensor[(10, 10), float16] /* ty=Tensor[(10, 10), float16] span=from_string:59:14 */ = %21(%19, %20) /* ty=Tensor[(10, 10), float16] span=from_string:45:100 */;
  %24 = fn (%p07: Tensor[(10, 10), float32] /* ty=Tensor[(10, 10), float32] span=from_string:47:16 */, %p13: Tensor[(10, 10), float32] /* ty=Tensor[(10, 10), float32] span=from_string:48:16 */, Primitive=1) -> Tensor[(10, 10), float16] {
    %22 = cast(%p07, dtype="float16") /* ty=Tensor[(10, 10), float16] span=from_string:49:15 */;
    %23 = cast(%p13, dtype="float16") /* ty=Tensor[(10, 10), float16] span=from_string:49:20 */;
    multiply(%22, %23) /* ty=Tensor[(10, 10), float16] span=from_string:47:5 */
  } /* ty=fn (Tensor[(10, 10), float32], Tensor[(10, 10), float32]) -> Tensor[(10, 10), float16] span=from_string:51:100 */;
  let %x_7: Tensor[(10, 10), float16] /* ty=Tensor[(10, 10), float16] span=from_string:52:14 */ = %24(%11, %x0) /* ty=Tensor[(10, 10), float16] span=from_string:51:100 */;
  %27 = cast(%x_7, dtype="float32") /* ty=Tensor[(10, 10), float32] span=from_string:58:104 */;
  %28 = fn (%p08: Tensor[(10, 10), float32] /* ty=Tensor[(10, 10), float32] span=from_string:54:16 */, %p14: Tensor[(10, 10), float32] /* ty=Tensor[(10, 10), float32] span=from_string:55:16 */, Primitive=1) -> Tensor[(10, 10), float16] {
    %25 = cast(%p08, dtype="float16") /* ty=Tensor[(10, 10), float16] span=from_string:56:23 */;
    %26 = cast(%p14, dtype="float16") /* ty=Tensor[(10, 10), float16] span=from_string:56:28 */;
    collapse_sum_like(%25, %26) /* ty=Tensor[(10, 10), float16] span=from_string:54:5 */
  } /* ty=fn (Tensor[(10, 10), float32], Tensor[(10, 10), float32]) -> Tensor[(10, 10), float16] span=from_string:58:100 */;
  let %x_8: Tensor[(10, 10), float16] /* ty=Tensor[(10, 10), float16] span=from_string:60:14 */ = %28(%27, %x0) /* ty=Tensor[(10, 10), float16] span=from_string:58:100 */;
  %31 = cast(%x_6, dtype="float32") /* ty=Tensor[(10, 10), float32] span=from_string:66:104 */;
  %32 = cast(%x_8, dtype="float32") /* ty=Tensor[(10, 10), float32] span=from_string:113:105 */;
  %33 = fn (%p09: Tensor[(10, 10), float32] /* ty=Tensor[(10, 10), float32] span=from_string:62:16 */, %p15: Tensor[(10, 10), float32] /* ty=Tensor[(10, 10), float32] span=from_string:63:16 */, Primitive=1) -> Tensor[(10, 10), float16] {
    %29 = cast(%p09, dtype="float16") /* ty=Tensor[(10, 10), float16] span=from_string:64:9 */;
    %30 = cast(%p15, dtype="float16") /* ty=Tensor[(10, 10), float16] span=from_string:64:14 */;
    add(%29, %30) /* ty=Tensor[(10, 10), float16] span=from_string:62:5 */
  } /* ty=fn (Tensor[(10, 10), float32], Tensor[(10, 10), float32]) -> Tensor[(10, 10), float16] span=from_string:66:100 */;
  let %x_9: Tensor[(10, 10), float16] /* ty=Tensor[(10, 10), float16] span=from_string:67:108 */ = %33(%31, %32) /* ty=Tensor[(10, 10), float16] span=from_string:66:100 */;
  let %x_10: (Tensor[(10, 10), float16],) /* ty=(Tensor[(10, 10), float16],) span=from_string:68:173 */ = (%x_9,) /* ty=(Tensor[(10, 10), float16],) span=from_string:67:107 */;
  let %x_11: (Tensor[(10, 10), float16], (Tensor[(10, 10), float16],)) /* ty=(Tensor[(10, 10), float16], (Tensor[(10, 10), float16],)) span=from_string:205:635 */ = (%x_0, %x_10) /* ty=(Tensor[(10, 10), float16], (Tensor[(10, 10), float16],)) span=from_string:68:166 */;
  %36 = fn (%p010: Tensor[(10, 10), float32] /* ty=Tensor[(10, 10), float32] span=from_string:70:16 */, %p16: Tensor[(34, 10), float32] /* ty=Tensor[(34, 10), float32] span=from_string:71:16 */, Primitive=1) -> Tensor[(10, 34), float16] {
    %34 = cast(%p010, dtype="float16") /* ty=Tensor[(10, 10), float16] span=from_string:72:14 */;
    %35 = cast(%p16, dtype="float16") /* ty=Tensor[(34, 10), float16] span=from_string:72:19 */;
    nn.dense(%34, %35, units=None, out_dtype="float16") /* ty=Tensor[(10, 34), float16] span=from_string:70:5 */
  } /* ty=fn (Tensor[(10, 10), float32], Tensor[(34, 10), float32]) -> Tensor[(10, 34), float16] span=from_string:74:101 */;
  let %x_12: Tensor[(10, 34), float16] /* ty=Tensor[(10, 34), float16] span=from_string:75:14 */ = %36(%3, %x1) /* ty=Tensor[(10, 34), float16] span=from_string:74:101 */;
  %38 = cast(%x_12, dtype="float32") /* ty=Tensor[(10, 34), float32] span=from_string:80:111 */;
  %39 = fn (%p011: Tensor[(10, 34), float32] /* ty=Tensor[(10, 34), float32] span=from_string:77:16 */, Primitive=1, relay.reshape_only=1) -> Tensor[(10, 34, 1), float16] {
    %37 = cast(%p011, dtype="float16") /* ty=Tensor[(10, 34), float16] span=from_string:78:17 */;
    expand_dims(%37, axis=2) /* ty=Tensor[(10, 34, 1), float16] span=from_string:77:5 */
  } /* ty=fn (Tensor[(10, 34), float32]) -> Tensor[(10, 34, 1), float16] span=from_string:80:107 */;
  let %x_13: Tensor[(10, 34, 1), float16] /* ty=Tensor[(10, 34, 1), float16] span=from_string:94:14 */ = %39(%38) /* ty=Tensor[(10, 34, 1), float16] span=from_string:80:107 */;
  %42 = fn (%p012: Tensor[(10, 10), float32] /* ty=Tensor[(10, 10), float32] span=from_string:82:16 */, %p17: Tensor[(38, 10), float32] /* ty=Tensor[(38, 10), float32] span=from_string:83:16 */, Primitive=1) -> Tensor[(10, 38), float16] {
    %40 = cast(%p012, dtype="float16") /* ty=Tensor[(10, 10), float16] span=from_string:84:14 */;
    %41 = cast(%p17, dtype="float16") /* ty=Tensor[(38, 10), float16] span=from_string:84:19 */;
    nn.dense(%40, %41, units=None, out_dtype="float16") /* ty=Tensor[(10, 38), float16] span=from_string:82:5 */
  } /* ty=fn (Tensor[(10, 10), float32], Tensor[(38, 10), float32]) -> Tensor[(10, 38), float16] span=from_string:86:101 */;
  let %x_14: Tensor[(10, 38), float16] /* ty=Tensor[(10, 38), float16] span=from_string:87:14 */ = %42(%3, %x2) /* ty=Tensor[(10, 38), float16] span=from_string:86:101 */;
  %44 = cast(%x_14, dtype="float32") /* ty=Tensor[(10, 38), float32] span=from_string:92:111 */;
  %45 = fn (%p013: Tensor[(10, 38), float32] /* ty=Tensor[(10, 38), float32] span=from_string:89:16 */, Primitive=1, relay.reshape_only=1) -> Tensor[(10, 38, 1), float16] {
    %43 = cast(%p013, dtype="float16") /* ty=Tensor[(10, 38), float16] span=from_string:90:17 */;
    expand_dims(%43, axis=2) /* ty=Tensor[(10, 38, 1), float16] span=from_string:89:5 */
  } /* ty=fn (Tensor[(10, 38), float32]) -> Tensor[(10, 38, 1), float16] span=from_string:92:107 */;
  let %x_15: Tensor[(10, 38, 1), float16] /* ty=Tensor[(10, 38, 1), float16] span=from_string:93:180 */ = %45(%44) /* ty=Tensor[(10, 38, 1), float16] span=from_string:92:107 */;
  let %x_16: (Tensor[(10, 34, 1), float16], Tensor[(10, 38, 1), float16]) /* ty=(Tensor[(10, 34, 1), float16], Tensor[(10, 38, 1), float16]) span=from_string:205:642 */ = (%x_13, %x_15) /* ty=(Tensor[(10, 34, 1), float16], Tensor[(10, 38, 1), float16]) span=from_string:93:172 */;
  %48 = cast(%x_13, dtype="float32") /* ty=Tensor[(10, 34, 1), float32] span=from_string:100:111 */;
  %49 = fn (%p014: Tensor[(10, 34, 1), float32] /* ty=Tensor[(10, 34, 1), float32] span=from_string:96:16 */, Primitive=1) -> Tensor[(10, 34, 1), float16] {
    %46 = cast(%p014, dtype="float16") /* ty=Tensor[(10, 34, 1), float16] span=from_string:98:9 */;
    %47 = cast(1f /* ty=float32 span=from_string:97:18 */, dtype="float16") /* ty=float16 span=from_string:98:14 */;
    add(%46, %47) /* ty=Tensor[(10, 34, 1), float16] span=from_string:96:5 */
  } /* ty=fn (Tensor[(10, 34, 1), float32]) -> Tensor[(10, 34, 1), float16] span=from_string:100:107 */;
  let %x_18: Tensor[(10, 34, 1), float16] /* ty=Tensor[(10, 34, 1), float16] span=from_string:101:107 */ = %49(%48) /* ty=Tensor[(10, 34, 1), float16] span=from_string:100:107 */;
  let %x_19: Tensor[(10, 34, 1), float16] /* ty=Tensor[(10, 34, 1), float16] span=from_string:102:14 */ = %x_18;
  %51 = cast(%x_19, dtype="float32") /* ty=Tensor[(10, 34, 1), float32] span=from_string:107:112 */;
  %52 = fn (%p015: Tensor[(10, 34, 1), float32] /* ty=Tensor[(10, 34, 1), float32] span=from_string:104:16 */, Primitive=1) -> Tensor[(10, 34, 1), float16] {
    %50 = cast(%p015, dtype="float16") /* ty=Tensor[(10, 34, 1), float16] span=from_string:105:14 */;
    fast_exp(%50) /* ty=Tensor[(10, 34, 1), float16] span=from_string:104:5 */
  } /* ty=fn (Tensor[(10, 34, 1), float32]) -> Tensor[(10, 34, 1), float16] span=from_string:107:108 */;
  let %x_20: Tensor[(10, 34, 1), float16] /* ty=Tensor[(10, 34, 1), float16] span=from_string:205:649 */ = %52(%51) /* ty=Tensor[(10, 34, 1), float16] span=from_string:107:108 */;
  %55 = fn (%p016: Tensor[(10, 10), float32] /* ty=Tensor[(10, 10), float32] span=from_string:109:16 */, %p18: Tensor[(1), float32] /* ty=Tensor[(1), float32] span=from_string:110:16 */, Primitive=1) -> Tensor[(10, 10), float16] {
    %53 = cast(%p016, dtype="float16") /* ty=Tensor[(10, 10), float16] span=from_string:111:9 */;
    %54 = cast(%p18, dtype="float16") /* ty=Tensor[(1), float16] span=from_string:111:14 */;
    add(%53, %54) /* ty=Tensor[(10, 10), float16] span=from_string:109:5 */
  } /* ty=fn (Tensor[(10, 10), float32], Tensor[(1), float32]) -> Tensor[(10, 10), float16] span=from_string:113:101 */;
  let %x_24: Tensor[(10, 10), float16] /* ty=Tensor[(10, 10), float16] span=from_string:114:14 */ = %55(%32, meta[relay.Constant][0] /* ty=Tensor[(1), float32] span=from_string:113:115 */) /* ty=Tensor[(10, 10), float16] span=from_string:113:101 */;
  %58 = cast(%x_24, dtype="float32") /* ty=Tensor[(10, 10), float32] span=from_string:120:104 */;
  %59 = fn (%p017: Tensor[(10, 10), float32] /* ty=Tensor[(10, 10), float32] span=from_string:116:16 */, Primitive=1) -> Tensor[(10, 10), float16] {
    %56 = cast(%p017, dtype="float16") /* ty=Tensor[(10, 10), float16] span=from_string:118:9 */;
    %57 = cast(1f /* ty=float32 span=from_string:117:18 */, dtype="float16") /* ty=float16 span=from_string:118:14 */;
    add(%56, %57) /* ty=Tensor[(10, 10), float16] span=from_string:116:5 */
  } /* ty=fn (Tensor[(10, 10), float32]) -> Tensor[(10, 10), float16] span=from_string:120:100 */;
  let %x_26: Tensor[(10, 10), float16] /* ty=Tensor[(10, 10), float16] span=from_string:121:14 */ = %59(%58) /* ty=Tensor[(10, 10), float16] span=from_string:120:100 */;
  %61 = cast(%x_26, dtype="float32") /* ty=Tensor[(10, 10), float32] span=from_string:137:99 */;
  %62 = fn (%p018: Tensor[(10, 10), float32] /* ty=Tensor[(10, 10), float32] span=from_string:123:16 */, Primitive=1) -> Tensor[(10, 10), float16] {
    %60 = cast(%p018, dtype="float16") /* ty=Tensor[(10, 10), float16] span=from_string:124:14 */;
    fast_exp(%60) /* ty=Tensor[(10, 10), float16] span=from_string:123:5 */
  } /* ty=fn (Tensor[(10, 10), float32]) -> Tensor[(10, 10), float16] span=from_string:126:101 */;
  let %x_27: Tensor[(10, 10), float16] /* ty=Tensor[(10, 10), float16] span=from_string:127:14 */ = %62(%61) /* ty=Tensor[(10, 10), float16] span=from_string:126:101 */;
  %64 = cast(%x_27, dtype="float32") /* ty=Tensor[(10, 10), float32] span=from_string:132:106 */;
  %65 = fn (%p019: Tensor[(10, 10), float32] /* ty=Tensor[(10, 10), float32] span=from_string:129:16 */, Primitive=1, relay.reshape_only=1) -> Tensor[(10, 10), float16] {
    %63 = cast(%p019, dtype="float16") /* ty=Tensor[(10, 10), float16] span=from_string:130:13 */;
    squeeze(%63) /* ty=Tensor[(10, 10), float16] span=from_string:129:5 */
  } /* ty=fn (Tensor[(10, 10), float32]) -> Tensor[(10, 10), float16] span=from_string:132:102 */;
  let %x_28: Tensor[(10, 10), float16] /* ty=Tensor[(10, 10), float16] span=from_string:205:656 */ = %65(%64) /* ty=Tensor[(10, 10), float16] span=from_string:132:102 */;
  %67 = fn (%p020: Tensor[(10, 10), float32] /* ty=Tensor[(10, 10), float32] span=from_string:134:16 */, Primitive=1, relay.reshape_only=1) -> Tensor[(100), float16] {
    %66 = cast(%p020, dtype="float16") /* ty=Tensor[(10, 10), float16] span=from_string:135:13 */;
    reshape(%66, newshape=[100]) /* ty=Tensor[(100), float16] span=from_string:134:5 */
  } /* ty=fn (Tensor[(10, 10), float32]) -> Tensor[(100), float16] span=from_string:137:95 */;
  let %x_29: Tensor[(100), float16] /* ty=Tensor[(100), float16] span=from_string:138:14 */ = %67(%61) /* ty=Tensor[(100), float16] span=from_string:137:95 */;
  %69 = cast(%x_29, dtype="float32") /* ty=Tensor[(100), float32] span=from_string:143:104 */;
  %70 = fn (%p021: Tensor[(100), float32] /* ty=Tensor[(100), float32] span=from_string:140:16 */, Primitive=1, relay.reshape_only=1) -> Tensor[(10, 10), float16] {
    %68 = cast(%p021, dtype="float16") /* ty=Tensor[(100), float16] span=from_string:141:13 */;
    reshape(%68, newshape=[10, 10]) /* ty=Tensor[(10, 10), float16] span=from_string:140:5 */
  } /* ty=fn (Tensor[(100), float32]) -> Tensor[(10, 10), float16] span=from_string:143:100 */;
  let %x_30: Tensor[(10, 10), float16] /* ty=Tensor[(10, 10), float16] span=from_string:144:14 */ = %70(%69) /* ty=Tensor[(10, 10), float16] span=from_string:143:100 */;
  %72 = cast(%x_30, dtype="float32") /* ty=Tensor[(10, 10), float32] span=from_string:149:100 */;
  %73 = fn (%p022: Tensor[(10, 10), float32] /* ty=Tensor[(10, 10), float32] span=from_string:146:16 */, Primitive=1, relay.reshape_only=1) -> Tensor[(100), float16] {
    %71 = cast(%p022, dtype="float16") /* ty=Tensor[(10, 10), float16] span=from_string:147:13 */;
    reshape(%71, newshape=[100]) /* ty=Tensor[(100), float16] span=from_string:146:5 */
  } /* ty=fn (Tensor[(10, 10), float32]) -> Tensor[(100), float16] span=from_string:149:96 */;
  let %x_31: Tensor[(100), float16] /* ty=Tensor[(100), float16] span=from_string:150:14 */ = %73(%72) /* ty=Tensor[(100), float16] span=from_string:149:96 */;
  %75 = cast(%x_31, dtype="float32") /* ty=Tensor[(100), float32] span=from_string:155:106 */;
  %76 = fn (%p023: Tensor[(100), float32] /* ty=Tensor[(100), float32] span=from_string:152:16 */, Primitive=1, relay.reshape_only=1) -> Tensor[(10, 10), float16] {
    %74 = cast(%p023, dtype="float16") /* ty=Tensor[(100), float16] span=from_string:153:13 */;
    reshape(%74, newshape=[10, 10]) /* ty=Tensor[(10, 10), float16] span=from_string:152:5 */
  } /* ty=fn (Tensor[(100), float32]) -> Tensor[(10, 10), float16] span=from_string:155:102 */;
  let %x_32: Tensor[(10, 10), float16] /* ty=Tensor[(10, 10), float16] span=from_string:205:663 */ = %76(%75) /* ty=Tensor[(10, 10), float16] span=from_string:155:102 */;
  %79 = fn (%p024: Tensor[(10, 10), float32] /* ty=Tensor[(10, 10), float32] span=from_string:157:16 */, %p19: Tensor[(30, 10), float32] /* ty=Tensor[(30, 10), float32] span=from_string:158:16 */, Primitive=1) -> Tensor[(10, 30), float16] {
    %77 = cast(%p024, dtype="float16") /* ty=Tensor[(10, 10), float16] span=from_string:159:14 */;
    %78 = cast(%p19, dtype="float16") /* ty=Tensor[(30, 10), float16] span=from_string:159:19 */;
    nn.dense(%77, %78, units=None, out_dtype="float16") /* ty=Tensor[(10, 30), float16] span=from_string:157:5 */
  } /* ty=fn (Tensor[(10, 10), float32], Tensor[(30, 10), float32]) -> Tensor[(10, 30), float16] span=from_string:161:102 */;
  let %x_34: Tensor[(10, 30), float16] /* ty=Tensor[(10, 30), float16] span=from_string:162:14 */ = %79(%11, %x5) /* ty=Tensor[(10, 30), float16] span=from_string:161:102 */;
  %81 = cast(%x_34, dtype="float32") /* ty=Tensor[(10, 30), float32] span=from_string:167:218 */;
  %82 = fn (%p025: Tensor[(10, 30), float32] /* ty=Tensor[(10, 30), float32] span=from_string:164:16 */, Primitive=1) -> (Tensor[(10, 10), float16], Tensor[(10, 10), float16], Tensor[(10, 10), float16]) {
    %80 = cast(%p025, dtype="float16") /* ty=Tensor[(10, 30), float16] span=from_string:165:11 */;
    split(%80, indices_or_sections=3, axis=1) /* ty=(Tensor[(10, 10), float16], Tensor[(10, 10), float16], Tensor[(10, 10), float16]) span=from_string:164:5 */
  } /* ty=fn (Tensor[(10, 30), float32]) -> (Tensor[(10, 10), float16], Tensor[(10, 10), float16], Tensor[(10, 10), float16]) span=from_string:167:214 */;
  let %x_35: (Tensor[(10, 10), float16], Tensor[(10, 10), float16], Tensor[(10, 10), float16]) /* ty=(Tensor[(10, 10), float16], Tensor[(10, 10), float16], Tensor[(10, 10), float16]) span=from_string:182:102 */ = %82(%81) /* ty=(Tensor[(10, 10), float16], Tensor[(10, 10), float16], Tensor[(10, 10), float16]) span=from_string:167:214 */;
  let %x_36: Tensor[(10, 10), float16] /* ty=Tensor[(10, 10), float16] span=from_string:169:14 */ = %x_35.0 /* ty=Tensor[(10, 10), float16] span=from_string:168:102 */;
  %84 = cast(%x_36, dtype="float32") /* ty=Tensor[(10, 10), float32] span=from_string:174:106 */;
  %85 = fn (%p026: Tensor[(10, 10), float32] /* ty=Tensor[(10, 10), float32] span=from_string:171:16 */, Primitive=1) -> Tensor[(10, 10), float16] {
    %83 = cast(%p026, dtype="float16") /* ty=Tensor[(10, 10), float16] span=from_string:172:13 */;
    sigmoid(%83) /* ty=Tensor[(10, 10), float16] span=from_string:171:5 */
  } /* ty=fn (Tensor[(10, 10), float32]) -> Tensor[(10, 10), float16] span=from_string:174:102 */;
  let %x_37: Tensor[(10, 10), float16] /* ty=Tensor[(10, 10), float16] span=from_string:197:14 */ = %85(%84) /* ty=Tensor[(10, 10), float16] span=from_string:174:102 */;
  let %x_38: Tensor[(10, 10), float16] /* ty=Tensor[(10, 10), float16] span=from_string:176:14 */ = %x_35.1 /* ty=Tensor[(10, 10), float16] span=from_string:175:102 */;
  %87 = cast(%x_38, dtype="float32") /* ty=Tensor[(10, 10), float32] span=from_string:181:106 */;
  %88 = fn (%p027: Tensor[(10, 10), float32] /* ty=Tensor[(10, 10), float32] span=from_string:178:16 */, Primitive=1) -> Tensor[(10, 10), float16] {
    %86 = cast(%p027, dtype="float16") /* ty=Tensor[(10, 10), float16] span=from_string:179:15 */;
    fast_tanh(%86) /* ty=Tensor[(10, 10), float16] span=from_string:178:5 */
  } /* ty=fn (Tensor[(10, 10), float32]) -> Tensor[(10, 10), float16] span=from_string:181:102 */;
  let %x_39: Tensor[(10, 10), float16] /* ty=Tensor[(10, 10), float16] span=from_string:189:14 */ = %88(%87) /* ty=Tensor[(10, 10), float16] span=from_string:181:102 */;
  let %x_40: Tensor[(10, 10), float16] /* ty=Tensor[(10, 10), float16] span=from_string:183:14 */ = %x_35.2 /* ty=Tensor[(10, 10), float16] span=from_string:182:102 */;
  %90 = cast(%x_40, dtype="float32") /* ty=Tensor[(10, 10), float32] span=from_string:188:106 */;
  %91 = fn (%p028: Tensor[(10, 10), float32] /* ty=Tensor[(10, 10), float32] span=from_string:185:16 */, Primitive=1) -> Tensor[(10, 10), float16] {
    %89 = cast(%p028, dtype="float16") /* ty=Tensor[(10, 10), float16] span=from_string:186:14 */;
    fast_exp(%89) /* ty=Tensor[(10, 10), float16] span=from_string:185:5 */
  } /* ty=fn (Tensor[(10, 10), float32]) -> Tensor[(10, 10), float16] span=from_string:188:102 */;
  let %x_41: Tensor[(10, 10), float16] /* ty=Tensor[(10, 10), float16] span=from_string:190:14 */ = %91(%90) /* ty=Tensor[(10, 10), float16] span=from_string:188:102 */;
  %94 = cast(%x_39, dtype="float32") /* ty=Tensor[(10, 10), float32] span=from_string:196:106 */;
  %95 = cast(%x_41, dtype="float32") /* ty=Tensor[(10, 10), float32] span=from_string:196:111 */;
  %96 = fn (%p029: Tensor[(10, 10), float32] /* ty=Tensor[(10, 10), float32] span=from_string:192:16 */, %p110: Tensor[(10, 10), float32] /* ty=Tensor[(10, 10), float32] span=from_string:193:16 */, Primitive=1) -> Tensor[(10, 10), float16] {
    %92 = cast(%p029, dtype="float16") /* ty=Tensor[(10, 10), float16] span=from_string:194:15 */;
    %93 = cast(%p110, dtype="float16") /* ty=Tensor[(10, 10), float16] span=from_string:194:20 */;
    multiply(%92, %93) /* ty=Tensor[(10, 10), float16] span=from_string:192:5 */
  } /* ty=fn (Tensor[(10, 10), float32], Tensor[(10, 10), float32]) -> Tensor[(10, 10), float16] span=from_string:196:102 */;
  let %x_42: Tensor[(10, 10), float16] /* ty=Tensor[(10, 10), float16] span=from_string:198:15 */ = %96(%94, %95) /* ty=Tensor[(10, 10), float16] span=from_string:196:102 */;
  %99 = cast(%x_37, dtype="float32") /* ty=Tensor[(10, 10), float32] span=from_string:204:107 */;
  %100 = cast(%x_42, dtype="float32") /* ty=Tensor[(10, 10), float32] span=from_string:204:112 */;
  %101 = fn (%p030: Tensor[(10, 10), float32] /* ty=Tensor[(10, 10), float32] span=from_string:200:16 */, %p111: Tensor[(10, 10), float32] /* ty=Tensor[(10, 10), float32] span=from_string:201:16 */, Primitive=1) -> Tensor[(10, 10), float16] {
    %97 = cast(%p030, dtype="float16") /* ty=Tensor[(10, 10), float16] span=from_string:202:9 */;
    %98 = cast(%p111, dtype="float16") /* ty=Tensor[(10, 10), float16] span=from_string:202:14 */;
    add(%97, %98) /* ty=Tensor[(10, 10), float16] span=from_string:200:5 */
  } /* ty=fn (Tensor[(10, 10), float32], Tensor[(10, 10), float32]) -> Tensor[(10, 10), float16] span=from_string:204:102 */;
  let %x_43: Tensor[(10, 10), float16] /* ty=Tensor[(10, 10), float16] span=from_string:205:748 */ = %101(%99, %100) /* ty=Tensor[(10, 10), float16] span=from_string:204:102 */;
  let %x_45: (Tensor[(10, 10), float16], (Tensor[(10, 10), float16], (Tensor[(10, 10), float16],)), (Tensor[(10, 34, 1), float16], Tensor[(10, 38, 1), float16]), Tensor[(10, 34, 1), float16], Tensor[(10, 10), float16], Tensor[(10, 10), float16], Tensor[(1), int32], Tensor[(10, 10), float16], float32) /* ty=(Tensor[(10, 10), float16], (Tensor[(10, 10), float16], (Tensor[(10, 10), float16],)), (Tensor[(10, 34, 1), float16], Tensor[(10, 38, 1), float16]), Tensor[(10, 34, 1), float16], Tensor[(10, 10), float16], Tensor[(10, 10), float16], Tensor[(1), int32], Tensor[(10, 10), float16], float32) span=from_string:206:3 */ = (%x_2, %x_11, %x_16, %x_20, %x_28, %x_32, meta[relay.Constant][1] /* ty=Tensor[(1), int32] span=from_string:205:675 */, %x_43, 0.761594f /* ty=float32 span=from_string:205:764 */) /* ty=(Tensor[(10, 10), float16], (Tensor[(10, 10), float16], (Tensor[(10, 10), float16],)), (Tensor[(10, 34, 1), float16], Tensor[(10, 38, 1), float16]), Tensor[(10, 34, 1), float16], Tensor[(10, 10), float16], Tensor[(10, 10), float16], Tensor[(1), int32], Tensor[(10, 10), float16], float32) span=from_string:205:628 */;
  %x_45
}

#[metadata]
{
  "root": 1, 
  "nodes": [
    {
      "type_key": ""
    }, 
    {
      "type_key": "Map", 
      "keys": [
        "relay.Constant"
      ], 
      "data": [2]
    }, 
    {
      "type_key": "Array", 
      "data": [3, 11]
    }, 
    {
      "type_key": "relay.Constant", 
      "attrs": {
        "_checked_type_": "8", 
        "data": "0", 
        "span": "6", 
        "virtual_device_": "4"
      }
    }, 
    {
      "type_key": "VirtualDevice", 
      "attrs": {
        "device_type_int": "-1", 
        "memory_scope": "5", 
        "target": "0", 
        "virtual_device_id": "-1"
      }
    }, 
    {
      "type_key": "runtime.String"
    }, 
    {
      "type_key": "Span", 
      "attrs": {
        "column": "115", 
        "end_column": "133", 
        "end_line": "113", 
        "line": "113", 
        "source_name": "7"
      }
    }, 
    {
      "type_key": "SourceName", 
      "repr_str": "from_string"
    }, 
    {
      "type_key": "relay.TensorType", 
      "attrs": {
        "dtype": "float32", 
        "shape": "9", 
        "span": "0"
      }
    }, 
    {
      "type_key": "Array", 
      "data": [10]
    }, 
    {
      "type_key": "IntImm", 
      "attrs": {
        "dtype": "int32", 
        "span": "0", 
        "value": "1"
      }
    }, 
    {
      "type_key": "relay.Constant", 
      "attrs": {
        "_checked_type_": "15", 
        "data": "1", 
        "span": "14", 
        "virtual_device_": "12"
      }
    }, 
    {
      "type_key": "VirtualDevice", 
      "attrs": {
        "device_type_int": "-1", 
        "memory_scope": "13", 
        "target": "0", 
        "virtual_device_id": "-1"
      }
    }, 
    {
      "type_key": "runtime.String"
    }, 
    {
      "type_key": "Span", 
      "attrs": {
        "column": "675", 
        "end_column": "693", 
        "end_line": "205", 
        "line": "205", 
        "source_name": "7"
      }
    }, 
    {
      "type_key": "relay.TensorType", 
      "attrs": {
        "dtype": "int32", 
        "shape": "16", 
        "span": "18"
      }
    }, 
    {
      "type_key": "Array", 
      "data": [17]
    }, 
    {
      "type_key": "IntImm", 
      "attrs": {
        "dtype": "int32", 
        "span": "0", 
        "value": "1"
      }
    }, 
    {
      "type_key": "Span", 
      "attrs": {
        "column": "731", 
        "end_column": "751", 
        "end_line": "2", 
        "line": "2", 
        "source_name": "7"
      }
    }
  ], 
  "b64ndarrays": [
    "P6G0lvBAXt0AAAAAAAAAAAEAAAAAAAAAAQAAAAIgAQABAAAAAAAAAAQAAAAAAAAAAAAAAA==", 
    "P6G0lvBAXt0AAAAAAAAAAAEAAAAAAAAAAQAAAAAgAQABAAAAAAAAAAQAAAAAAAAAZAAAAA=="
  ], 
  "attrs": {"tvm_version": "0.13.0"}
}