#[version = "0.0.5"]
def @main(%x0: Tensor[(10, 10), float32] /* ty=Tensor[(10, 10), float32] span=from_string:4:104 */, %x1: Tensor[(34, 10), float32] /* ty=Tensor[(34, 10), float32] span=from_string:14:106 */, %x2: Tensor[(38, 10), float32] /* ty=Tensor[(38, 10), float32] span=from_string:17:106 */, %x3: Tensor[(100), float32] /* ty=Tensor[(100), float32] */, %x4: Tensor[(57), int32] /* ty=Tensor[(57), int32] span=from_string:3:65 */, %x5: Tensor[(30, 10), float32] /* ty=Tensor[(30, 10), float32] span=from_string:30:106 */) -> (Tensor[(10, 10), float16], (Tensor[(10, 10), float16], (Tensor[(10, 10), float16],)), (Tensor[(10, 34, 1), float16], Tensor[(10, 38, 1), float16]), Tensor[(10, 34, 1), float32], Tensor[(10, 10), float32], Tensor[(10, 10), float16], Tensor[(1), int32], Tensor[(10, 10), float32], float32) {
  %0 = cast(%x0, dtype="float16") /* ty=Tensor[(10, 10), float16] span=from_string:4:99 */;
  %1 = ones(shape=[10, 10], dtype="float16") /* ty=Tensor[(10, 10), float16] span=from_string:6:99 */;
  %2 = multiply(%1, %0) /* ty=Tensor[(10, 10), float16] span=from_string:8:101 */;
  %3 = collapse_sum_to(%2, meta[relay.Constant][0] /* ty=Tensor[(2), int32] span=from_string:9:127 */, meta[relay.attrs.InitOpAttrs][0]) /* ty=Tensor[(10, 10), float16] span=from_string:9:100 */;
  %4 = collapse_sum_to(%2, meta[relay.Constant][1] /* ty=Tensor[(2), int32] span=from_string:10:127 */, meta[relay.attrs.InitOpAttrs][1]) /* ty=Tensor[(10, 10), float16] span=from_string:10:100 */;
  %5 = add(%3, %4) /* ty=Tensor[(10, 10), float16] span=from_string:11:100 */;
  %6 = multiply(%0, %0) /* ty=Tensor[(10, 10), float16] span=from_string:5:100 */;
  %7 = (%5,) /* ty=(Tensor[(10, 10), float16],) span=from_string:12:106 */;
  %8 = cast(%x1, dtype="float16") /* ty=Tensor[(34, 10), float16] span=from_string:14:101 */;
  %9 = nn.dense(%6, %8, units=None, out_dtype="float16") /* ty=Tensor[(10, 34), float16] span=from_string:15:101 */;
  %10 = cast(%x2, dtype="float16") /* ty=Tensor[(38, 10), float16] span=from_string:17:101 */;
  %11 = nn.dense(%6, %10, units=None, out_dtype="float16") /* ty=Tensor[(10, 38), float16] span=from_string:18:101 */;
  %12 = expand_dims(%9, axis=2) /* ty=Tensor[(10, 34, 1), float16] span=from_string:16:107 */;
  %13 = expand_dims(%11, axis=2) /* ty=Tensor[(10, 38, 1), float16] span=from_string:19:107 */;
  %14 = add(%12, 1f16 /* ty=float16 span=from_string:21:122 */) /* ty=Tensor[(10, 34, 1), float16] span=from_string:21:107 */;
  %15 = annotation.stop_fusion(%14) /* ty=Tensor[(10, 34, 1), float16] span=from_string:22:107 */;
  %16 = cast(%15, dtype="float32") /* ty=Tensor[(10, 34, 1), float32] span=from_string:23:107 */;
  %17 = add(%4, 1f16 /* ty=float16 span=from_string:25:115 */) /* ty=Tensor[(10, 10), float16] span=from_string:25:101 */;
  %18 = cast(%17, dtype="float32") /* ty=Tensor[(10, 10), float32] span=from_string:26:101 */;
  %19 = exp(%18) /* ty=Tensor[(10, 10), float32] span=from_string:27:101 */;
  %20 = cast(%x5, dtype="float16") /* ty=Tensor[(30, 10), float16] span=from_string:30:101 */;
  %21 = nn.dense(%1, %20, units=None, out_dtype="float16") /* ty=Tensor[(10, 30), float16] span=from_string:31:101 */;
  %22 = split(%21, indices_or_sections=3, axis=1) /* ty=(Tensor[(10, 10), float16], Tensor[(10, 10), float16], Tensor[(10, 10), float16]) span=from_string:32:213 */;
  %23 = %22.0 /* ty=Tensor[(10, 10), float16] span=from_string:33:101 */;
  %24 = sigmoid(%23) /* ty=Tensor[(10, 10), float16] span=from_string:34:101 */;
  %25 = %22.1 /* ty=Tensor[(10, 10), float16] span=from_string:36:101 */;
  %26 = tanh(%25) /* ty=Tensor[(10, 10), float16] span=from_string:37:101 */;
  %27 = %22.2 /* ty=Tensor[(10, 10), float16] span=from_string:39:101 */;
  %28 = cast(%27, dtype="float32") /* ty=Tensor[(10, 10), float32] span=from_string:40:101 */;
  %29 = cast(%26, dtype="float32") /* ty=Tensor[(10, 10), float32] span=from_string:38:101 */;
  %30 = exp(%28) /* ty=Tensor[(10, 10), float32] span=from_string:41:101 */;
  %31 = cast(%24, dtype="float32") /* ty=Tensor[(10, 10), float32] span=from_string:35:101 */;
  %32 = multiply(%29, %30) /* ty=Tensor[(10, 10), float32] span=from_string:42:102 */;
  %33 = multiply(%0, 2f16 /* ty=float16 span=from_string:7:120 */) /* ty=Tensor[(10, 10), float16] span=from_string:7:101 */;
  %34 = (%6, %7) /* ty=(Tensor[(10, 10), float16], (Tensor[(10, 10), float16],)) span=from_string:13:165 */;
  %35 = (%12, %13) /* ty=(Tensor[(10, 34, 1), float16], Tensor[(10, 38, 1), float16]) span=from_string:20:171 */;
  %36 = exp(%16) /* ty=Tensor[(10, 34, 1), float32] span=from_string:24:107 */;
  %37 = squeeze(%19) /* ty=Tensor[(10, 10), float32] span=from_string:28:101 */;
  %38 = reshape(%17, newshape=[10, 10]) /* ty=Tensor[(10, 10), float16] span=from_string:29:101 */;
  %39 = add(%31, %32) /* ty=Tensor[(10, 10), float32] span=from_string:43:101 */;
  (%33, %34, %35, %36, %37, %38, meta[relay.Constant][2] /* ty=Tensor[(1), int32] span=from_string:44:676 */, %39, 0.761594f /* ty=float32 span=from_string:44:764 */) /* ty=(Tensor[(10, 10), float16], (Tensor[(10, 10), float16], (Tensor[(10, 10), float16],)), (Tensor[(10, 34, 1), float16], Tensor[(10, 38, 1), float16]), Tensor[(10, 34, 1), float32], Tensor[(10, 10), float32], Tensor[(10, 10), float16], Tensor[(1), int32], Tensor[(10, 10), float32], float32) span=from_string:44:629 */
}

#[metadata]
{
  "root": 1, 
  "nodes": [
    {
      "type_key": ""
    }, 
    {
      "type_key": "Map", 
      "keys": [
        "relay.attrs.InitOpAttrs", 
        "relay.Constant"
      ], 
      "data": [2, 9]
    }, 
    {
      "type_key": "Array", 
      "data": [3, 7]
    }, 
    {
      "type_key": "relay.attrs.InitOpAttrs", 
      "attrs": {
        "dtype": "", 
        "shape": "4"
      }
    }, 
    {
      "type_key": "Array", 
      "data": [5, 6]
    }, 
    {
      "type_key": "IntImm", 
      "attrs": {
        "dtype": "int32", 
        "span": "0", 
        "value": "10"
      }
    }, 
    {
      "type_key": "IntImm", 
      "attrs": {
        "dtype": "int32", 
        "span": "0", 
        "value": "10"
      }
    }, 
    {
      "type_key": "relay.attrs.InitOpAttrs", 
      "attrs": {
        "dtype": "", 
        "shape": "8"
      }
    }, 
    {
      "type_key": "Array", 
      "data": [5, 6]
    }, 
    {
      "type_key": "Array", 
      "data": [10, 18, 23]
    }, 
    {
      "type_key": "relay.Constant", 
      "attrs": {
        "_checked_type_": "15", 
        "data": "0", 
        "span": "13", 
        "virtual_device_": "11"
      }
    }, 
    {
      "type_key": "VirtualDevice", 
      "attrs": {
        "device_type_int": "-1", 
        "memory_scope": "12", 
        "target": "0", 
        "virtual_device_id": "-1"
      }
    }, 
    {
      "type_key": "runtime.String"
    }, 
    {
      "type_key": "Span", 
      "attrs": {
        "column": "127", 
        "end_column": "145", 
        "end_line": "9", 
        "line": "9", 
        "source_name": "14"
      }
    }, 
    {
      "type_key": "SourceName", 
      "repr_str": "from_string"
    }, 
    {
      "type_key": "relay.TensorType", 
      "attrs": {
        "dtype": "int32", 
        "shape": "16", 
        "span": "0"
      }
    }, 
    {
      "type_key": "Array", 
      "data": [17]
    }, 
    {
      "type_key": "IntImm", 
      "attrs": {
        "dtype": "int32", 
        "span": "0", 
        "value": "2"
      }
    }, 
    {
      "type_key": "relay.Constant", 
      "attrs": {
        "_checked_type_": "20", 
        "data": "1", 
        "span": "19", 
        "virtual_device_": "11"
      }
    }, 
    {
      "type_key": "Span", 
      "attrs": {
        "column": "127", 
        "end_column": "145", 
        "end_line": "10", 
        "line": "10", 
        "source_name": "14"
      }
    }, 
    {
      "type_key": "relay.TensorType", 
      "attrs": {
        "dtype": "int32", 
        "shape": "21", 
        "span": "0"
      }
    }, 
    {
      "type_key": "Array", 
      "data": [22]
    }, 
    {
      "type_key": "IntImm", 
      "attrs": {
        "dtype": "int32", 
        "span": "0", 
        "value": "2"
      }
    }, 
    {
      "type_key": "relay.Constant", 
      "attrs": {
        "_checked_type_": "27", 
        "data": "2", 
        "span": "26", 
        "virtual_device_": "24"
      }
    }, 
    {
      "type_key": "VirtualDevice", 
      "attrs": {
        "device_type_int": "-1", 
        "memory_scope": "25", 
        "target": "0", 
        "virtual_device_id": "-1"
      }
    }, 
    {
      "type_key": "runtime.String"
    }, 
    {
      "type_key": "Span", 
      "attrs": {
        "column": "676", 
        "end_column": "694", 
        "end_line": "44", 
        "line": "44", 
        "source_name": "14"
      }
    }, 
    {
      "type_key": "relay.TensorType", 
      "attrs": {
        "dtype": "int32", 
        "shape": "28", 
        "span": "30"
      }
    }, 
    {
      "type_key": "Array", 
      "data": [29]
    }, 
    {
      "type_key": "IntImm", 
      "attrs": {
        "dtype": "int32", 
        "span": "0", 
        "value": "1"
      }
    }, 
    {
      "type_key": "Span", 
      "attrs": {
        "column": "751", 
        "end_column": "771", 
        "end_line": "2", 
        "line": "2", 
        "source_name": "14"
      }
    }
  ], 
  "b64ndarrays": [
    "P6G0lvBAXt0AAAAAAAAAAAEAAAAAAAAAAQAAAAAgAQACAAAAAAAAAAgAAAAAAAAACgAAAAoAAAA=", 
    "P6G0lvBAXt0AAAAAAAAAAAEAAAAAAAAAAQAAAAAgAQACAAAAAAAAAAgAAAAAAAAACgAAAAoAAAA=", 
    "P6G0lvBAXt0AAAAAAAAAAAEAAAAAAAAAAQAAAAAgAQABAAAAAAAAAAQAAAAAAAAAZAAAAA=="
  ], 
  "attrs": {"tvm_version": "0.13.0"}
}