#[version = "0.0.5"]
def @main(%x0: Tensor[(10, 10), float32] /* ty=Tensor[(10, 10), float32] span=from_string:3:19 */, %x1: Tensor[(34, 10), float32] /* ty=Tensor[(34, 10), float32] span=from_string:16:20 */, %x2: Tensor[(38, 10), float32] /* ty=Tensor[(38, 10), float32] span=from_string:19:20 */, %x3: Tensor[(100), float32] /* ty=Tensor[(100), float32] */, %x4: Tensor[(57), int32] /* ty=Tensor[(57), int32] */, %x5: Tensor[(30, 10), float32] /* ty=Tensor[(30, 10), float32] span=from_string:42:20 */) -> (Tensor[(10, 10), float16], (Tensor[(10, 10), float16], (Tensor[(10, 10), float16],)), (Tensor[(10, 34, 1), float16], Tensor[(10, 38, 1), float16]), Tensor[(10, 34, 1), float32], Tensor[(10, 10), float32], Tensor[(10, 10), float16], Tensor[(1), int32], Tensor[(10, 10), float32], float32) {
  let %x_0: Tensor[(10, 10), float16] /* ty=Tensor[(10, 10), float16] span=from_string:12:38 */ = cast(%x0, dtype="float16") /* ty=Tensor[(10, 10), float16] span=from_string:3:14 */;
  let %x6: Tensor[(10, 10), float16] /* ty=Tensor[(10, 10), float16] span=from_string:20:24 */ = multiply(%x_0, %x_0) /* ty=Tensor[(10, 10), float16] span=from_string:4:99 */;
  let %x7: Tensor[(10, 10), float16] /* ty=Tensor[(10, 10), float16] span=from_string:43:24 */ = ones(shape=[10, 10], dtype="float16") /* ty=Tensor[(10, 10), float16] */;
  let %x_1: Tensor[(10, 10), float16] /* ty=Tensor[(10, 10), float16] span=from_string:57:16 */ = multiply(%x_0, 2f16 /* ty=float16 */) /* ty=Tensor[(10, 10), float16] */;
  let %x_2: Tensor[(10, 10), float16] /* ty=Tensor[(10, 10), float16] span=from_string:10:18 */ = zeros(shape=[10, 10], dtype="float16") /* ty=Tensor[(10, 10), float16] */;
  let %x_3: Tensor[(10, 10), float16] /* ty=Tensor[(10, 10), float16] span=from_string:9:32 */ = multiply(%x7, %x_0) /* ty=Tensor[(10, 10), float16] span=from_string:8:15 */;
  let %x_4: Tensor[(10, 10), float16] /* ty=Tensor[(10, 10), float16] span=from_string:10:24 */ = collapse_sum_to(%x_3, meta[relay.Constant][0] /* ty=Tensor[(2), int32] */, meta[relay.attrs.InitOpAttrs][0]) /* ty=Tensor[(10, 10), float16] */;
  let %x_5: Tensor[(10, 10), float16] /* ty=Tensor[(10, 10), float16] span=from_string:13:18 */ = add(%x_2, %x_4) /* ty=Tensor[(10, 10), float16] span=from_string:10:14 */;
  let %x_6: Tensor[(10, 10), float16] /* ty=Tensor[(10, 10), float16] span=from_string:12:32 */ = multiply(%x7, %x_0) /* ty=Tensor[(10, 10), float16] span=from_string:11:15 */;
  let %x_7: Tensor[(10, 10), float16] /* ty=Tensor[(10, 10), float16] span=from_string:30:19 */ = collapse_sum_to(%x_6, meta[relay.Constant][1] /* ty=Tensor[(2), int32] */, meta[relay.attrs.InitOpAttrs][1]) /* ty=Tensor[(10, 10), float16] */;
  let %x_8: Tensor[(10, 10), float16] /* ty=Tensor[(10, 10), float16] span=from_string:14:15 */ = add(%x_5, %x_7) /* ty=Tensor[(10, 10), float16] span=from_string:13:14 */;
  let %x_9: (Tensor[(10, 10), float16],) /* ty=(Tensor[(10, 10), float16],) span=from_string:15:21 */ = (%x_8,) /* ty=(Tensor[(10, 10), float16],) span=from_string:14:14 */;
  let %x_10: (Tensor[(10, 10), float16], (Tensor[(10, 10), float16],)) /* ty=(Tensor[(10, 10), float16], (Tensor[(10, 10), float16],)) span=from_string:57:22 */ = (%x6, %x_9) /* ty=(Tensor[(10, 10), float16], (Tensor[(10, 10), float16],)) span=from_string:15:15 */;
  let %x_11: Tensor[(34, 10), float16] /* ty=Tensor[(34, 10), float16] span=from_string:17:29 */ = cast(%x1, dtype="float16") /* ty=Tensor[(34, 10), float16] span=from_string:16:15 */;
  let %x_12: Tensor[(10, 34), float16] /* ty=Tensor[(10, 34), float16] span=from_string:18:27 */ = nn.dense(%x6, %x_11, units=None, out_dtype="float16") /* ty=Tensor[(10, 34), float16] span=from_string:17:15 */;
  let %x_13: Tensor[(10, 34, 1), float16] /* ty=Tensor[(10, 34, 1), float16] span=from_string:25:19 */ = expand_dims(%x_12, axis=2) /* ty=Tensor[(10, 34, 1), float16] span=from_string:18:15 */;
  let %x_14: Tensor[(38, 10), float16] /* ty=Tensor[(38, 10), float16] span=from_string:20:29 */ = cast(%x2, dtype="float16") /* ty=Tensor[(38, 10), float16] span=from_string:19:15 */;
  let %x_15: Tensor[(10, 38), float16] /* ty=Tensor[(10, 38), float16] span=from_string:21:27 */ = nn.dense(%x6, %x_14, units=None, out_dtype="float16") /* ty=Tensor[(10, 38), float16] span=from_string:20:15 */;
  let %x_16: Tensor[(10, 38, 1), float16] /* ty=Tensor[(10, 38, 1), float16] span=from_string:22:23 */ = expand_dims(%x_15, axis=2) /* ty=Tensor[(10, 38, 1), float16] span=from_string:21:15 */;
  let %x_17: (Tensor[(10, 34, 1), float16], Tensor[(10, 38, 1), float16]) /* ty=(Tensor[(10, 34, 1), float16], Tensor[(10, 38, 1), float16]) span=from_string:57:29 */ = (%x_13, %x_16) /* ty=(Tensor[(10, 34, 1), float16], Tensor[(10, 38, 1), float16]) span=from_string:22:15 */;
  let %x_18: float32 /* ty=float32 span=from_string:24:20 */ = 1f /* ty=float32 span=from_string:23:17 */;
  let %x_19: float16 /* ty=float16 span=from_string:25:26 */ = cast(%x_18, dtype="float16") /* ty=float16 span=from_string:24:15 */;
  let %x_20: Tensor[(10, 34, 1), float16] /* ty=Tensor[(10, 34, 1), float16] span=from_string:26:38 */ = add(%x_13, %x_19) /* ty=Tensor[(10, 34, 1), float16] span=from_string:25:15 */;
  let %x_21: Tensor[(10, 34, 1), float16] /* ty=Tensor[(10, 34, 1), float16] span=from_string:27:20 */ = annotation.stop_fusion(%x_20) /* ty=Tensor[(10, 34, 1), float16] span=from_string:26:15 */;
  let %x_22: Tensor[(10, 34, 1), float32] /* ty=Tensor[(10, 34, 1), float32] span=from_string:28:19 */ = cast(%x_21, dtype="float32") /* ty=Tensor[(10, 34, 1), float32] span=from_string:27:15 */;
  let %x_23: Tensor[(10, 34, 1), float32] /* ty=Tensor[(10, 34, 1), float32] span=from_string:57:36 */ = exp(%x_22) /* ty=Tensor[(10, 34, 1), float32] span=from_string:28:15 */;
  let %x_24: Tensor[(1), float16] /* ty=Tensor[(1), float16] span=from_string:30:25 */ = zeros(shape=[1], dtype="float16") /* ty=Tensor[(1), float16] span=from_string:29:15 */;
  let %x_25: Tensor[(10, 10), float16] /* ty=Tensor[(10, 10), float16] span=from_string:33:19 */ = add(%x_7, %x_24) /* ty=Tensor[(10, 10), float16] span=from_string:30:15 */;
  let %x_26: float32 /* ty=float32 span=from_string:32:20 */ = 1f /* ty=float32 span=from_string:31:17 */;
  let %x_27: float16 /* ty=float16 span=from_string:33:26 */ = cast(%x_26, dtype="float16") /* ty=float16 span=from_string:32:15 */;
  let %x_28: Tensor[(10, 10), float16] /* ty=Tensor[(10, 10), float16] span=from_string:37:23 */ = add(%x_25, %x_27) /* ty=Tensor[(10, 10), float16] span=from_string:33:15 */;
  let %x_29: Tensor[(10, 10), float32] /* ty=Tensor[(10, 10), float32] span=from_string:35:19 */ = cast(%x_28, dtype="float32") /* ty=Tensor[(10, 10), float32] span=from_string:34:15 */;
  let %x_30: Tensor[(10, 10), float32] /* ty=Tensor[(10, 10), float32] span=from_string:36:23 */ = exp(%x_29) /* ty=Tensor[(10, 10), float32] span=from_string:35:15 */;
  let %x_31: Tensor[(10, 10), float32] /* ty=Tensor[(10, 10), float32] span=from_string:57:43 */ = squeeze(%x_30) /* ty=Tensor[(10, 10), float32] span=from_string:36:15 */;
  let %x_32: Tensor[(100), float16] /* ty=Tensor[(100), float16] span=from_string:38:23 */ = reshape(%x_28, newshape=[100]) /* ty=Tensor[(100), float16] span=from_string:37:15 */;
  let %x_33: Tensor[(10, 10), float16] /* ty=Tensor[(10, 10), float16] span=from_string:39:23 */ = reshape(%x_32, newshape=[10, 10]) /* ty=Tensor[(10, 10), float16] span=from_string:38:15 */;
  let %x_34: Tensor[(100), float16] /* ty=Tensor[(100), float16] span=from_string:40:23 */ = reshape(%x_33, newshape=[100]) /* ty=Tensor[(100), float16] span=from_string:39:15 */;
  let %x_35: Tensor[(10, 10), float16] /* ty=Tensor[(10, 10), float16] span=from_string:57:50 */ = reshape(%x_34, newshape=[10, 10]) /* ty=Tensor[(10, 10), float16] span=from_string:40:15 */;
  let %x_36: Tensor[(1), int32] /* ty=Tensor[(1), int32] span=from_string:57:57 */ = meta[relay.Constant][2] /* ty=Tensor[(1), int32] span=from_string:41:20 */;
  let %x_37: Tensor[(30, 10), float16] /* ty=Tensor[(30, 10), float16] span=from_string:43:29 */ = cast(%x5, dtype="float16") /* ty=Tensor[(30, 10), float16] span=from_string:42:15 */;
  let %x_38: Tensor[(10, 30), float16] /* ty=Tensor[(10, 30), float16] span=from_string:44:21 */ = nn.dense(%x7, %x_37, units=None, out_dtype="float16") /* ty=Tensor[(10, 30), float16] span=from_string:43:15 */;
  let %x_39: (Tensor[(10, 10), float16], Tensor[(10, 10), float16], Tensor[(10, 10), float16]) /* ty=(Tensor[(10, 10), float16], Tensor[(10, 10), float16], Tensor[(10, 10), float16]) span=from_string:51:15 */ = split(%x_38, indices_or_sections=3, axis=1) /* ty=(Tensor[(10, 10), float16], Tensor[(10, 10), float16], Tensor[(10, 10), float16]) span=from_string:44:15 */;
  let %x_40: Tensor[(10, 10), float16] /* ty=Tensor[(10, 10), float16] span=from_string:46:23 */ = %x_39.0 /* ty=Tensor[(10, 10), float16] span=from_string:45:15 */;
  let %x_41: Tensor[(10, 10), float16] /* ty=Tensor[(10, 10), float16] span=from_string:47:20 */ = sigmoid(%x_40) /* ty=Tensor[(10, 10), float16] span=from_string:46:15 */;
  let %x_42: Tensor[(10, 10), float32] /* ty=Tensor[(10, 10), float32] span=from_string:55:19 */ = cast(%x_41, dtype="float32") /* ty=Tensor[(10, 10), float32] span=from_string:47:15 */;
  let %x_43: Tensor[(10, 10), float16] /* ty=Tensor[(10, 10), float16] span=from_string:49:20 */ = %x_39.1 /* ty=Tensor[(10, 10), float16] span=from_string:48:15 */;
  let %x_44: Tensor[(10, 10), float16] /* ty=Tensor[(10, 10), float16] span=from_string:50:20 */ = tanh(%x_43) /* ty=Tensor[(10, 10), float16] span=from_string:49:15 */;
  let %x_45: Tensor[(10, 10), float32] /* ty=Tensor[(10, 10), float32] span=from_string:54:25 */ = cast(%x_44, dtype="float32") /* ty=Tensor[(10, 10), float32] span=from_string:50:15 */;
  let %x_46: Tensor[(10, 10), float16] /* ty=Tensor[(10, 10), float16] span=from_string:52:20 */ = %x_39.2 /* ty=Tensor[(10, 10), float16] span=from_string:51:15 */;
  let %x_47: Tensor[(10, 10), float32] /* ty=Tensor[(10, 10), float32] span=from_string:53:19 */ = cast(%x_46, dtype="float32") /* ty=Tensor[(10, 10), float32] span=from_string:52:15 */;
  let %x_48: Tensor[(10, 10), float32] /* ty=Tensor[(10, 10), float32] span=from_string:54:32 */ = exp(%x_47) /* ty=Tensor[(10, 10), float32] span=from_string:53:15 */;
  let %x_49: Tensor[(10, 10), float32] /* ty=Tensor[(10, 10), float32] span=from_string:55:26 */ = multiply(%x_45, %x_48) /* ty=Tensor[(10, 10), float32] span=from_string:54:16 */;
  let %x_50: Tensor[(10, 10), float32] /* ty=Tensor[(10, 10), float32] span=from_string:57:64 */ = add(%x_42, %x_49) /* ty=Tensor[(10, 10), float32] span=from_string:55:15 */;
  let %x_51: float32 /* ty=float32 span=from_string:57:71 */ = 0.761594f /* ty=float32 span=from_string:56:24 */;
  let %x_52: (Tensor[(10, 10), float16], (Tensor[(10, 10), float16], (Tensor[(10, 10), float16],)), (Tensor[(10, 34, 1), float16], Tensor[(10, 38, 1), float16]), Tensor[(10, 34, 1), float32], Tensor[(10, 10), float32], Tensor[(10, 10), float16], Tensor[(1), int32], Tensor[(10, 10), float32], float32) /* ty=(Tensor[(10, 10), float16], (Tensor[(10, 10), float16], (Tensor[(10, 10), float16],)), (Tensor[(10, 34, 1), float16], Tensor[(10, 38, 1), float16]), Tensor[(10, 34, 1), float32], Tensor[(10, 10), float32], Tensor[(10, 10), float16], Tensor[(1), int32], Tensor[(10, 10), float32], float32) span=from_string:58:15 */ = (%x_1, %x_10, %x_17, %x_23, %x_31, %x_35, %x_36, %x_50, %x_51) /* ty=(Tensor[(10, 10), float16], (Tensor[(10, 10), float16], (Tensor[(10, 10), float16],)), (Tensor[(10, 34, 1), float16], Tensor[(10, 38, 1), float16]), Tensor[(10, 34, 1), float32], Tensor[(10, 10), float32], Tensor[(10, 10), float16], Tensor[(1), int32], Tensor[(10, 10), float32], float32) span=from_string:57:15 */;
  let %x_53: (Tensor[(10, 10), float16], (Tensor[(10, 10), float16], (Tensor[(10, 10), float16],)), (Tensor[(10, 34, 1), float16], Tensor[(10, 38, 1), float16]), Tensor[(10, 34, 1), float32], Tensor[(10, 10), float32], Tensor[(10, 10), float16], Tensor[(1), int32], Tensor[(10, 10), float32], float32) /* ty=(Tensor[(10, 10), float16], (Tensor[(10, 10), float16], (Tensor[(10, 10), float16],)), (Tensor[(10, 34, 1), float16], Tensor[(10, 38, 1), float16]), Tensor[(10, 34, 1), float32], Tensor[(10, 10), float32], Tensor[(10, 10), float16], Tensor[(1), int32], Tensor[(10, 10), float32], float32) span=from_string:59:15 */ = %x_52;
  let %x_54: (Tensor[(10, 10), float16], (Tensor[(10, 10), float16], (Tensor[(10, 10), float16],)), (Tensor[(10, 34, 1), float16], Tensor[(10, 38, 1), float16]), Tensor[(10, 34, 1), float32], Tensor[(10, 10), float32], Tensor[(10, 10), float16], Tensor[(1), int32], Tensor[(10, 10), float32], float32) /* ty=(Tensor[(10, 10), float16], (Tensor[(10, 10), float16], (Tensor[(10, 10), float16],)), (Tensor[(10, 34, 1), float16], Tensor[(10, 38, 1), float16]), Tensor[(10, 34, 1), float32], Tensor[(10, 10), float32], Tensor[(10, 10), float16], Tensor[(1), int32], Tensor[(10, 10), float32], float32) span=from_string:60:3 */ = %x_53;
  %x_54
}

#[metadata]
{
  "root": 1, 
  "nodes": [
    {
      "type_key": ""
    }, 
    {
      "type_key": "Map", 
      "keys": [
        "relay.attrs.InitOpAttrs", 
        "relay.Constant"
      ], 
      "data": [2, 9]
    }, 
    {
      "type_key": "Array", 
      "data": [3, 7]
    }, 
    {
      "type_key": "relay.attrs.InitOpAttrs", 
      "attrs": {
        "dtype": "", 
        "shape": "4"
      }
    }, 
    {
      "type_key": "Array", 
      "data": [5, 6]
    }, 
    {
      "type_key": "IntImm", 
      "attrs": {
        "dtype": "int32", 
        "span": "0", 
        "value": "10"
      }
    }, 
    {
      "type_key": "IntImm", 
      "attrs": {
        "dtype": "int32", 
        "span": "0", 
        "value": "10"
      }
    }, 
    {
      "type_key": "relay.attrs.InitOpAttrs", 
      "attrs": {
        "dtype": "", 
        "shape": "8"
      }
    }, 
    {
      "type_key": "Array", 
      "data": [5, 6]
    }, 
    {
      "type_key": "Array", 
      "data": [10, 16, 20]
    }, 
    {
      "type_key": "relay.Constant", 
      "attrs": {
        "_checked_type_": "13", 
        "data": "0", 
        "span": "0", 
        "virtual_device_": "11"
      }
    }, 
    {
      "type_key": "VirtualDevice", 
      "attrs": {
        "device_type_int": "-1", 
        "memory_scope": "12", 
        "target": "0", 
        "virtual_device_id": "-1"
      }
    }, 
    {
      "type_key": "runtime.String"
    }, 
    {
      "type_key": "relay.TensorType", 
      "attrs": {
        "dtype": "int32", 
        "shape": "14", 
        "span": "0"
      }
    }, 
    {
      "type_key": "Array", 
      "data": [15]
    }, 
    {
      "type_key": "IntImm", 
      "attrs": {
        "dtype": "int32", 
        "span": "0", 
        "value": "2"
      }
    }, 
    {
      "type_key": "relay.Constant", 
      "attrs": {
        "_checked_type_": "17", 
        "data": "1", 
        "span": "0", 
        "virtual_device_": "11"
      }
    }, 
    {
      "type_key": "relay.TensorType", 
      "attrs": {
        "dtype": "int32", 
        "shape": "18", 
        "span": "0"
      }
    }, 
    {
      "type_key": "Array", 
      "data": [19]
    }, 
    {
      "type_key": "IntImm", 
      "attrs": {
        "dtype": "int32", 
        "span": "0", 
        "value": "2"
      }
    }, 
    {
      "type_key": "relay.Constant", 
      "attrs": {
        "_checked_type_": "25", 
        "data": "2", 
        "span": "23", 
        "virtual_device_": "21"
      }
    }, 
    {
      "type_key": "VirtualDevice", 
      "attrs": {
        "device_type_int": "-1", 
        "memory_scope": "22", 
        "target": "0", 
        "virtual_device_id": "-1"
      }
    }, 
    {
      "type_key": "runtime.String"
    }, 
    {
      "type_key": "Span", 
      "attrs": {
        "column": "20", 
        "end_column": "38", 
        "end_line": "41", 
        "line": "41", 
        "source_name": "24"
      }
    }, 
    {
      "type_key": "SourceName", 
      "repr_str": "from_string"
    }, 
    {
      "type_key": "relay.TensorType", 
      "attrs": {
        "dtype": "int32", 
        "shape": "26", 
        "span": "0"
      }
    }, 
    {
      "type_key": "Array", 
      "data": [27]
    }, 
    {
      "type_key": "IntImm", 
      "attrs": {
        "dtype": "int32", 
        "span": "0", 
        "value": "1"
      }
    }
  ], 
  "b64ndarrays": [
    "P6G0lvBAXt0AAAAAAAAAAAEAAAAAAAAAAQAAAAAgAQACAAAAAAAAAAgAAAAAAAAACgAAAAoAAAA=", 
    "P6G0lvBAXt0AAAAAAAAAAAEAAAAAAAAAAQAAAAAgAQACAAAAAAAAAAgAAAAAAAAACgAAAAoAAAA=", 
    "P6G0lvBAXt0AAAAAAAAAAAEAAAAAAAAAAQAAAAAgAQABAAAAAAAAAAQAAAAAAAAAZAAAAA=="
  ], 
  "attrs": {"tvm_version": "0.13.0"}
}