#[version = "0.0.5"]
def @main(%x0: Tensor[(10, 10), float32] /* ty=Tensor[(10, 10), float32] span=from_string:7:19 */, %x1: Tensor[(34, 10), float32] /* ty=Tensor[(34, 10), float32] span=from_string:42:21 */, %x2: Tensor[(38, 10), float32] /* ty=Tensor[(38, 10), float32] span=from_string:54:21 */, %x3: Tensor[(100), float32] /* ty=Tensor[(100), float32] */, %x4: Tensor[(57), int32] /* ty=Tensor[(57), int32] span=from_string:3:65 */, %x5: Tensor[(30, 10), float32] /* ty=Tensor[(30, 10), float32] span=from_string:93:21 */) -> (Tensor[(10, 10), float16], (Tensor[(10, 10), float16], (Tensor[(10, 10), float16],)), (Tensor[(10, 34, 1), float16], Tensor[(10, 38, 1), float16]), Tensor[(10, 34, 1), float32], Tensor[(10, 10), float32], Tensor[(10, 10), float16], Tensor[(1), int32], Tensor[(10, 10), float32], float32) {
  %1 = fn (%p01: Tensor[(10, 10), float32] /* ty=Tensor[(10, 10), float32] span=from_string:5:10 */, Primitive=1) -> Tensor[(10, 10), float16] {
    cast(%p01, dtype="float16") /* ty=Tensor[(10, 10), float16] span=from_string:5:5 */
  } /* ty=fn (Tensor[(10, 10), float32]) -> Tensor[(10, 10), float16] span=from_string:4:3 */;
  %2 = %1(%x0) /* ty=Tensor[(10, 10), float16] span=from_string:7:14 */;
  %3 = fn (%p02: Tensor[(10, 10), float16] /* ty=Tensor[(10, 10), float16] span=from_string:18:15 */, Primitive=1) -> Tensor[(10, 10), float16] {
    %0 = cast(2f /* ty=float32 span=from_string:17:17 */, dtype="float16") /* ty=float16 span=from_string:18:21 */;
    multiply(%p02, %0) /* ty=Tensor[(10, 10), float16] span=from_string:17:5 */
  } /* ty=fn (Tensor[(10, 10), float16]) -> Tensor[(10, 10), float16] span=from_string:16:3 */;
  %4 = fn (%p0: Tensor[(10, 10), float16] /* ty=Tensor[(10, 10), float16] span=from_string:9:20 */, Primitive=1) -> Tensor[(10, 10), float16] {
    multiply(%p0, %p0) /* ty=Tensor[(10, 10), float16] span=from_string:9:6 */
  } /* ty=fn (Tensor[(10, 10), float16]) -> Tensor[(10, 10), float16] span=from_string:8:3 */;
  %6 = fn (Primitive=1) -> Tensor[(10, 10), float16] {
    ones(shape=[10, 10], dtype="float16") /* ty=Tensor[(10, 10), float16] span=from_string:13:5 */
  } /* ty=fn () -> Tensor[(10, 10), float16] span=from_string:12:3 */;
  %7 = %6() /* ty=Tensor[(10, 10), float16] span=from_string:15:98 */;
  %8 = fn (%p04: Tensor[(10, 10), float16] /* ty=Tensor[(10, 10), float16] span=from_string:23:20 */, %p11: Tensor[(10, 10), float16] /* ty=Tensor[(10, 10), float16] span=from_string:23:26 */, %p2: Tensor[(2), int32] /* ty=Tensor[(2), int32] span=from_string:24:25 */, Primitive=1) -> Tensor[(10, 10), float16] {
    %5 = multiply(%p04, %p11) /* ty=Tensor[(10, 10), float16] span=from_string:24:21 */;
    collapse_sum_to(%5, %p2, meta[relay.attrs.InitOpAttrs][0]) /* ty=Tensor[(10, 10), float16] span=from_string:23:5 */
  } /* ty=fn (Tensor[(10, 10), float16], Tensor[(10, 10), float16], Tensor[(2), int32]) -> Tensor[(10, 10), float16] span=from_string:22:3 */;
  %10 = fn (%p05: Tensor[(10, 10), float16] /* ty=Tensor[(10, 10), float16] span=from_string:29:20 */, %p12: Tensor[(10, 10), float16] /* ty=Tensor[(10, 10), float16] span=from_string:29:26 */, %p21: Tensor[(2), int32] /* ty=Tensor[(2), int32] span=from_string:30:25 */, Primitive=1) -> Tensor[(10, 10), float16] {
    %9 = multiply(%p05, %p12) /* ty=Tensor[(10, 10), float16] span=from_string:30:21 */;
    collapse_sum_to(%9, %p21, meta[relay.attrs.InitOpAttrs][1]) /* ty=Tensor[(10, 10), float16] span=from_string:29:5 */
  } /* ty=fn (Tensor[(10, 10), float16], Tensor[(10, 10), float16], Tensor[(2), int32]) -> Tensor[(10, 10), float16] span=from_string:28:3 */;
  %11 = %8(%7, %2, meta[relay.Constant][0] /* ty=Tensor[(2), int32] span=from_string:21:19 */) /* ty=Tensor[(10, 10), float16] span=from_string:26:14 */;
  %12 = %10(%7, %2, meta[relay.Constant][1] /* ty=Tensor[(2), int32] span=from_string:27:19 */) /* ty=Tensor[(10, 10), float16] span=from_string:32:15 */;
  %13 = fn (%p03: Tensor[(10, 10), float16] /* ty=Tensor[(10, 10), float16] span=from_string:34:9 */, %p1: Tensor[(10, 10), float16] /* ty=Tensor[(10, 10), float16] span=from_string:34:15 */, Primitive=1) -> Tensor[(10, 10), float16] {
    add(%p03, %p1) /* ty=Tensor[(10, 10), float16] span=from_string:34:5 */
  } /* ty=fn (Tensor[(10, 10), float16], Tensor[(10, 10), float16]) -> Tensor[(10, 10), float16] span=from_string:33:3 */;
  %14 = %13(%11, %12) /* ty=Tensor[(10, 10), float16] span=from_string:36:15 */;
  %15 = %4(%2) /* ty=Tensor[(10, 10), float16] span=from_string:11:99 */;
  %16 = (%14,) /* ty=(Tensor[(10, 10), float16],) span=from_string:37:15 */;
  %17 = fn (%p08: Tensor[(34, 10), float32] /* ty=Tensor[(34, 10), float32] span=from_string:40:10 */, Primitive=1) -> Tensor[(34, 10), float16] {
    cast(%p08, dtype="float16") /* ty=Tensor[(34, 10), float16] span=from_string:40:5 */
  } /* ty=fn (Tensor[(34, 10), float32]) -> Tensor[(34, 10), float16] span=from_string:39:3 */;
  %18 = %17(%x1) /* ty=Tensor[(34, 10), float16] span=from_string:42:15 */;
  %19 = fn (%p07: Tensor[(10, 10), float16] /* ty=Tensor[(10, 10), float16] span=from_string:44:14 */, %p13: Tensor[(34, 10), float16] /* ty=Tensor[(34, 10), float16] span=from_string:44:20 */, Primitive=1) -> Tensor[(10, 34), float16] {
    nn.dense(%p07, %p13, units=None, out_dtype="float16") /* ty=Tensor[(10, 34), float16] span=from_string:44:5 */
  } /* ty=fn (Tensor[(10, 10), float16], Tensor[(34, 10), float16]) -> Tensor[(10, 34), float16] span=from_string:43:3 */;
  %20 = %19(%15, %18) /* ty=Tensor[(10, 34), float16] span=from_string:46:15 */;
  %21 = fn (%p06: Tensor[(10, 34), float16] /* ty=Tensor[(10, 34), float16] span=from_string:48:17 */, Primitive=1, relay.reshape_only=1) -> Tensor[(10, 34, 1), float16] {
    expand_dims(%p06, axis=2) /* ty=Tensor[(10, 34, 1), float16] span=from_string:48:5 */
  } /* ty=fn (Tensor[(10, 34), float16]) -> Tensor[(10, 34, 1), float16] span=from_string:47:3 */;
  %22 = fn (%p011: Tensor[(38, 10), float32] /* ty=Tensor[(38, 10), float32] span=from_string:52:10 */, Primitive=1) -> Tensor[(38, 10), float16] {
    cast(%p011, dtype="float16") /* ty=Tensor[(38, 10), float16] span=from_string:52:5 */
  } /* ty=fn (Tensor[(38, 10), float32]) -> Tensor[(38, 10), float16] span=from_string:51:3 */;
  %23 = %22(%x2) /* ty=Tensor[(38, 10), float16] span=from_string:54:15 */;
  %24 = fn (%p010: Tensor[(10, 10), float16] /* ty=Tensor[(10, 10), float16] span=from_string:56:14 */, %p14: Tensor[(38, 10), float16] /* ty=Tensor[(38, 10), float16] span=from_string:56:21 */, Primitive=1) -> Tensor[(10, 38), float16] {
    nn.dense(%p010, %p14, units=None, out_dtype="float16") /* ty=Tensor[(10, 38), float16] span=from_string:56:5 */
  } /* ty=fn (Tensor[(10, 10), float16], Tensor[(38, 10), float16]) -> Tensor[(10, 38), float16] span=from_string:55:3 */;
  %25 = %24(%15, %23) /* ty=Tensor[(10, 38), float16] span=from_string:58:15 */;
  %26 = fn (%p09: Tensor[(10, 38), float16] /* ty=Tensor[(10, 38), float16] span=from_string:60:17 */, Primitive=1, relay.reshape_only=1) -> Tensor[(10, 38, 1), float16] {
    expand_dims(%p09, axis=2) /* ty=Tensor[(10, 38, 1), float16] span=from_string:60:5 */
  } /* ty=fn (Tensor[(10, 38), float16]) -> Tensor[(10, 38, 1), float16] span=from_string:59:3 */;
  %27 = %21(%20) /* ty=Tensor[(10, 34, 1), float16] span=from_string:50:15 */;
  %28 = %26(%25) /* ty=Tensor[(10, 38, 1), float16] span=from_string:62:15 */;
  %31 = fn (%p013: Tensor[(10, 34, 1), float16] /* ty=Tensor[(10, 34, 1), float16] span=from_string:66:9 */, Primitive=1) -> Tensor[(10, 34, 1), float16] {
    %30 = cast(1f /* ty=float32 span=from_string:65:17 */, dtype="float16") /* ty=float16 span=from_string:66:16 */;
    add(%p013, %30) /* ty=Tensor[(10, 34, 1), float16] span=from_string:65:5 */
  } /* ty=fn (Tensor[(10, 34, 1), float16]) -> Tensor[(10, 34, 1), float16] span=from_string:64:3 */;
  %32 = %31(%27) /* ty=Tensor[(10, 34, 1), float16] span=from_string:68:15 */;
  %33 = fn (%p012: Tensor[(10, 34, 1), float16] /* ty=Tensor[(10, 34, 1), float16] span=from_string:70:15 */, Primitive=1) -> Tensor[(10, 34, 1), float32] {
    %29 = cast(%p012, dtype="float32") /* ty=Tensor[(10, 34, 1), float32] span=from_string:71:9 */;
    exp(%29) /* ty=Tensor[(10, 34, 1), float32] span=from_string:70:5 */
  } /* ty=fn (Tensor[(10, 34, 1), float16]) -> Tensor[(10, 34, 1), float32] span=from_string:69:3 */;
  %37 = fn (%p015: Tensor[(10, 10), float16] /* ty=Tensor[(10, 10), float16] span=from_string:76:9 */, Primitive=1) -> Tensor[(10, 10), float16] {
    %36 = cast(1f /* ty=float32 span=from_string:75:17 */, dtype="float16") /* ty=float16 span=from_string:76:16 */;
    add(%p015, %36) /* ty=Tensor[(10, 10), float16] span=from_string:75:5 */
  } /* ty=fn (Tensor[(10, 10), float16]) -> Tensor[(10, 10), float16] span=from_string:74:3 */;
  %38 = %37(%12) /* ty=Tensor[(10, 10), float16] span=from_string:78:15 */;
  %39 = fn (%p014: Tensor[(10, 10), float16] /* ty=Tensor[(10, 10), float16] span=from_string:80:15 */, Primitive=1) -> Tensor[(10, 10), float32] {
    %34 = cast(%p014, dtype="float32") /* ty=Tensor[(10, 10), float32] span=from_string:81:14 */;
    %35 = exp(%34) /* ty=Tensor[(10, 10), float32] span=from_string:82:13 */;
    squeeze(%35) /* ty=Tensor[(10, 10), float32] span=from_string:80:5 */
  } /* ty=fn (Tensor[(10, 10), float16]) -> Tensor[(10, 10), float32] span=from_string:79:3 */;
  %40 = fn (%p016: Tensor[(10, 10), float16] /* ty=Tensor[(10, 10), float16] span=from_string:86:13 */, Primitive=1, relay.reshape_only=1) -> Tensor[(10, 10), float16] {
    reshape(%p016, newshape=[10, 10]) /* ty=Tensor[(10, 10), float16] span=from_string:86:5 */
  } /* ty=fn (Tensor[(10, 10), float16]) -> Tensor[(10, 10), float16] span=from_string:85:3 */;
  %52 = fn (%p019: Tensor[(30, 10), float32] /* ty=Tensor[(30, 10), float32] span=from_string:91:10 */, Primitive=1) -> Tensor[(30, 10), float16] {
    cast(%p019, dtype="float16") /* ty=Tensor[(30, 10), float16] span=from_string:91:5 */
  } /* ty=fn (Tensor[(30, 10), float32]) -> Tensor[(30, 10), float16] span=from_string:90:3 */;
  %53 = %52(%x5) /* ty=Tensor[(30, 10), float16] span=from_string:93:15 */;
  %54 = fn (%p018: Tensor[(10, 10), float16] /* ty=Tensor[(10, 10), float16] span=from_string:95:14 */, %p15: Tensor[(30, 10), float16] /* ty=Tensor[(30, 10), float16] span=from_string:95:21 */, Primitive=1) -> Tensor[(10, 30), float16] {
    nn.dense(%p018, %p15, units=None, out_dtype="float16") /* ty=Tensor[(10, 30), float16] span=from_string:95:5 */
  } /* ty=fn (Tensor[(10, 10), float16], Tensor[(30, 10), float16]) -> Tensor[(10, 30), float16] span=from_string:94:3 */;
  %55 = %54(%7, %53) /* ty=Tensor[(10, 30), float16] span=from_string:97:15 */;
  %56 = fn (%p017: Tensor[(10, 30), float16] /* ty=Tensor[(10, 30), float16] span=from_string:99:16 */, Primitive=1) -> Tensor[(10, 10), float32] {
    %41 = split(%p017, indices_or_sections=3, axis=1) /* ty=(Tensor[(10, 10), float16], Tensor[(10, 10), float16], Tensor[(10, 10), float16]) span=from_string:104:11 */;
    %42 = %41.0 /* ty=Tensor[(10, 10), float16] span=from_string:101:19 */;
    %43 = sigmoid(%42) /* ty=Tensor[(10, 10), float16] span=from_string:108:16 */;
    %44 = %41.1 /* ty=Tensor[(10, 10), float16] span=from_string:103:16 */;
    %45 = tanh(%44) /* ty=Tensor[(10, 10), float16] span=from_string:106:16 */;
    %46 = %41.2 /* ty=Tensor[(10, 10), float16] span=from_string:105:16 */;
    %47 = cast(%46, dtype="float32") /* ty=Tensor[(10, 10), float32] span=from_string:107:15 */;
    %48 = cast(%45, dtype="float32") /* ty=Tensor[(10, 10), float32] span=from_string:109:21 */;
    %49 = exp(%47) /* ty=Tensor[(10, 10), float32] span=from_string:109:26 */;
    %50 = cast(%43, dtype="float32") /* ty=Tensor[(10, 10), float32] span=from_string:110:9 */;
    %51 = multiply(%48, %49) /* ty=Tensor[(10, 10), float32] span=from_string:110:14 */;
    add(%50, %51) /* ty=Tensor[(10, 10), float32] span=from_string:99:5 */
  } /* ty=fn (Tensor[(10, 30), float16]) -> Tensor[(10, 10), float32] span=from_string:98:3 */;
  %57 = %3(%2) /* ty=Tensor[(10, 10), float16] span=from_string:20:14 */;
  %58 = (%15, %16) /* ty=(Tensor[(10, 10), float16], (Tensor[(10, 10), float16],)) span=from_string:38:15 */;
  %59 = (%27, %28) /* ty=(Tensor[(10, 34, 1), float16], Tensor[(10, 38, 1), float16]) span=from_string:63:15 */;
  %60 = %33(%32) /* ty=Tensor[(10, 34, 1), float32] span=from_string:73:15 */;
  %61 = %39(%38) /* ty=Tensor[(10, 10), float32] span=from_string:84:15 */;
  %62 = %40(%38) /* ty=Tensor[(10, 10), float16] span=from_string:88:15 */;
  %63 = %56(%55) /* ty=Tensor[(10, 10), float32] span=from_string:112:15 */;
  (%57, %58, %59, %60, %61, %62, meta[relay.Constant][2] /* ty=Tensor[(1), int32] span=from_string:89:20 */, %63, 0.761594f /* ty=float32 span=from_string:113:24 */) /* ty=(Tensor[(10, 10), float16], (Tensor[(10, 10), float16], (Tensor[(10, 10), float16],)), (Tensor[(10, 34, 1), float16], Tensor[(10, 38, 1), float16]), Tensor[(10, 34, 1), float32], Tensor[(10, 10), float32], Tensor[(10, 10), float16], Tensor[(1), int32], Tensor[(10, 10), float32], float32) span=from_string:114:15 */
}

#[metadata]
{
  "root": 1, 
  "nodes": [
    {
      "type_key": ""
    }, 
    {
      "type_key": "Map", 
      "keys": [
        "relay.Constant", 
        "relay.attrs.InitOpAttrs"
      ], 
      "data": [2, 23]
    }, 
    {
      "type_key": "Array", 
      "data": [3, 11, 16]
    }, 
    {
      "type_key": "relay.Constant", 
      "attrs": {
        "_checked_type_": "8", 
        "data": "0", 
        "span": "6", 
        "virtual_device_": "4"
      }
    }, 
    {
      "type_key": "VirtualDevice", 
      "attrs": {
        "device_type_int": "-1", 
        "memory_scope": "5", 
        "target": "0", 
        "virtual_device_id": "-1"
      }
    }, 
    {
      "type_key": "runtime.String"
    }, 
    {
      "type_key": "Span", 
      "attrs": {
        "column": "19", 
        "end_column": "37", 
        "end_line": "21", 
        "line": "21", 
        "source_name": "7"
      }
    }, 
    {
      "type_key": "SourceName", 
      "repr_str": "from_string"
    }, 
    {
      "type_key": "relay.TensorType", 
      "attrs": {
        "dtype": "int32", 
        "shape": "9", 
        "span": "0"
      }
    }, 
    {
      "type_key": "Array", 
      "data": [10]
    }, 
    {
      "type_key": "IntImm", 
      "attrs": {
        "dtype": "int32", 
        "span": "0", 
        "value": "2"
      }
    }, 
    {
      "type_key": "relay.Constant", 
      "attrs": {
        "_checked_type_": "13", 
        "data": "1", 
        "span": "12", 
        "virtual_device_": "4"
      }
    }, 
    {
      "type_key": "Span", 
      "attrs": {
        "column": "19", 
        "end_column": "37", 
        "end_line": "27", 
        "line": "27", 
        "source_name": "7"
      }
    }, 
    {
      "type_key": "relay.TensorType", 
      "attrs": {
        "dtype": "int32", 
        "shape": "14", 
        "span": "0"
      }
    }, 
    {
      "type_key": "Array", 
      "data": [15]
    }, 
    {
      "type_key": "IntImm", 
      "attrs": {
        "dtype": "int32", 
        "span": "0", 
        "value": "2"
      }
    }, 
    {
      "type_key": "relay.Constant", 
      "attrs": {
        "_checked_type_": "20", 
        "data": "2", 
        "span": "19", 
        "virtual_device_": "17"
      }
    }, 
    {
      "type_key": "VirtualDevice", 
      "attrs": {
        "device_type_int": "-1", 
        "memory_scope": "18", 
        "target": "0", 
        "virtual_device_id": "-1"
      }
    }, 
    {
      "type_key": "runtime.String"
    }, 
    {
      "type_key": "Span", 
      "attrs": {
        "column": "20", 
        "end_column": "38", 
        "end_line": "89", 
        "line": "89", 
        "source_name": "7"
      }
    }, 
    {
      "type_key": "relay.TensorType", 
      "attrs": {
        "dtype": "int32", 
        "shape": "21", 
        "span": "0"
      }
    }, 
    {
      "type_key": "Array", 
      "data": [22]
    }, 
    {
      "type_key": "IntImm", 
      "attrs": {
        "dtype": "int32", 
        "span": "0", 
        "value": "1"
      }
    }, 
    {
      "type_key": "Array", 
      "data": [24, 28]
    }, 
    {
      "type_key": "relay.attrs.InitOpAttrs", 
      "attrs": {
        "dtype": "float16", 
        "shape": "25"
      }
    }, 
    {
      "type_key": "Array", 
      "data": [26, 27]
    }, 
    {
      "type_key": "IntImm", 
      "attrs": {
        "dtype": "int32", 
        "span": "0", 
        "value": "10"
      }
    }, 
    {
      "type_key": "IntImm", 
      "attrs": {
        "dtype": "int32", 
        "span": "0", 
        "value": "10"
      }
    }, 
    {
      "type_key": "relay.attrs.InitOpAttrs", 
      "attrs": {
        "dtype": "float16", 
        "shape": "29"
      }
    }, 
    {
      "type_key": "Array", 
      "data": [26, 27]
    }
  ], 
  "b64ndarrays": [
    "P6G0lvBAXt0AAAAAAAAAAAEAAAAAAAAAAQAAAAAgAQACAAAAAAAAAAgAAAAAAAAACgAAAAoAAAA=", 
    "P6G0lvBAXt0AAAAAAAAAAAEAAAAAAAAAAQAAAAAgAQACAAAAAAAAAAgAAAAAAAAACgAAAAoAAAA=", 
    "P6G0lvBAXt0AAAAAAAAAAAEAAAAAAAAAAQAAAAAgAQABAAAAAAAAAAQAAAAAAAAAZAAAAA=="
  ], 
  "attrs": {"tvm_version": "0.13.0"}
}