#[version = "0.0.5"]
def @main(%x0: Tensor[(10, 10), float32] /* ty=Tensor[(10, 10), float32] span=from_string:3:13 */, %x1: Tensor[(34, 10), float32] /* ty=Tensor[(34, 10), float32] span=from_string:16:14 */, %x2: Tensor[(38, 10), float32] /* ty=Tensor[(38, 10), float32] span=from_string:18:14 */, %x3: Tensor[(100), float32] /* ty=Tensor[(100), float32] */, %x4: Tensor[(57), int32] /* ty=Tensor[(57), int32] */, %x5: Tensor[(30, 10), float32] /* ty=Tensor[(30, 10), float32] span=from_string:35:14 */) -> (Tensor[(10, 10), float16], (Tensor[(10, 10), float16], (Tensor[(10, 10), float16],)), (Tensor[(10, 34, 1), float16], Tensor[(10, 38, 1), float16]), Tensor[(10, 34, 1), float32], Tensor[(10, 10), float32], Tensor[(10, 10), float16], Tensor[(1), int32], Tensor[(10, 10), float32], float32) {
  %0 = cast(%x0, dtype="float16") /* ty=Tensor[(10, 10), float16] span=from_string:48:17 */;
  %1 = multiply(%0, %0) /* ty=Tensor[(10, 10), float16] span=from_string:19:18 */;
  let %x6: Tensor[(10, 10), float16] /* ty=Tensor[(10, 10), float16] span=from_string:49:10 */ = %1;
  %2 = ones_like(%x6) /* ty=Tensor[(10, 10), float16] span=from_string:36:18 */;
  let %x7: Tensor[(10, 10), float16] /* ty=Tensor[(10, 10), float16] span=from_string:11:18 */ = %2;
  %3 = multiply(%x7, %0) /* ty=Tensor[(10, 10), float16] span=from_string:10:26 */;
  %4 = zeros_like(%0) /* ty=Tensor[(10, 10), float16] span=from_string:12:12 */;
  %5 = collapse_sum_like(%3, %0) /* ty=Tensor[(10, 10), float16] span=from_string:12:16 */;
  %6 = multiply(%x7, %0) /* ty=Tensor[(10, 10), float16] span=from_string:13:26 */;
  %7 = add(%4, %5) /* ty=Tensor[(10, 10), float16] span=from_string:14:12 */;
  %8 = collapse_sum_like(%6, %0) /* ty=Tensor[(10, 10), float16] span=from_string:27:13 */;
  %9 = add(%7, %8) /* ty=Tensor[(10, 10), float16] span=from_string:15:10 */;
  %10 = (%9,) /* ty=(Tensor[(10, 10), float16],) span=from_string:49:15 */;
  %11 = cast(%x1, dtype="float16") /* ty=Tensor[(34, 10), float16] span=from_string:17:22 */;
  %12 = nn.dense(%1, %11, units=None, out_dtype="float16") /* ty=Tensor[(10, 34), float16] span=from_string:20:21 */;
  %13 = cast(%x2, dtype="float16") /* ty=Tensor[(38, 10), float16] span=from_string:19:22 */;
  %14 = nn.dense(%1, %13, units=None, out_dtype="float16") /* ty=Tensor[(10, 38), float16] span=from_string:21:21 */;
  %15 = expand_dims(%12, axis=2) /* ty=Tensor[(10, 34, 1), float16] span=from_string:50:10 */;
  %16 = expand_dims(%14, axis=2) /* ty=Tensor[(10, 38, 1), float16] span=from_string:50:15 */;
  %17 = add(%15, 1f16 /* ty=float16 */) /* ty=Tensor[(10, 34, 1), float16] span=from_string:24:32 */;
  %18 = annotation.stop_fusion(%17) /* ty=Tensor[(10, 34, 1), float16] span=from_string:25:14 */;
  %19 = cast(%18, dtype="float32") /* ty=Tensor[(10, 34, 1), float32] span=from_string:51:13 */;
  %20 = zeros(shape=[1], dtype="float16") /* ty=Tensor[(1), float16] span=from_string:27:17 */;
  %21 = add(%8, %20) /* ty=Tensor[(10, 10), float16] span=from_string:29:13 */;
  %22 = add(%21, 1f16 /* ty=float16 */) /* ty=Tensor[(10, 10), float16] span=from_string:32:17 */;
  %23 = cast(%22, dtype="float32") /* ty=Tensor[(10, 10), float32] span=from_string:31:13 */;
  %24 = exp(%23) /* ty=Tensor[(10, 10), float32] span=from_string:52:17 */;
  %25 = reshape(%22, newshape=[100]) /* ty=Tensor[(100), float16] span=from_string:33:17 */;
  %26 = reshape(%25, newshape=[10, 10]) /* ty=Tensor[(10, 10), float16] span=from_string:34:17 */;
  %27 = reshape(%26, newshape=[100]) /* ty=Tensor[(100), float16] span=from_string:53:17 */;
  %28 = cast(%x5, dtype="float16") /* ty=Tensor[(30, 10), float16] span=from_string:36:22 */;
  %29 = nn.dense(%2, %28, units=None, out_dtype="float16") /* ty=Tensor[(10, 30), float16] span=from_string:37:15 */;
  %30 = split(%29, indices_or_sections=3, axis=1) /* ty=(Tensor[(10, 10), float16], Tensor[(10, 10), float16], Tensor[(10, 10), float16]) span=from_string:42:9 */;
  %31 = %30.0 /* ty=Tensor[(10, 10), float16] span=from_string:39:17 */;
  %32 = sigmoid(%31) /* ty=Tensor[(10, 10), float16] span=from_string:46:14 */;
  %33 = %30.1 /* ty=Tensor[(10, 10), float16] span=from_string:41:14 */;
  %34 = tanh(%33) /* ty=Tensor[(10, 10), float16] span=from_string:44:14 */;
  %35 = %30.2 /* ty=Tensor[(10, 10), float16] span=from_string:43:14 */;
  %36 = cast(%35, dtype="float32") /* ty=Tensor[(10, 10), float32] span=from_string:45:13 */;
  %37 = cast(%34, dtype="float32") /* ty=Tensor[(10, 10), float32] span=from_string:47:19 */;
  %38 = exp(%36) /* ty=Tensor[(10, 10), float32] span=from_string:47:24 */;
  %39 = cast(%32, dtype="float32") /* ty=Tensor[(10, 10), float32] span=from_string:54:13 */;
  %40 = multiply(%37, %38) /* ty=Tensor[(10, 10), float32] span=from_string:54:18 */;
  %41 = add(%0, %0) /* ty=Tensor[(10, 10), float16] span=from_string:55:4 */;
  %42 = (%x6, %10) /* ty=(Tensor[(10, 10), float16], (Tensor[(10, 10), float16],)) span=from_string:55:9 */;
  %43 = (%15, %16) /* ty=(Tensor[(10, 34, 1), float16], Tensor[(10, 38, 1), float16]) span=from_string:55:14 */;
  %44 = exp(%19) /* ty=Tensor[(10, 34, 1), float32] span=from_string:55:19 */;
  %45 = squeeze(%24) /* ty=Tensor[(10, 10), float32] span=from_string:55:24 */;
  %46 = reshape(%27, newshape=[10, 10]) /* ty=Tensor[(10, 10), float16] span=from_string:55:29 */;
  %47 = add(%39, %40) /* ty=Tensor[(10, 10), float32] span=from_string:55:110 */;
  (%41, %42, %43, %44, %45, %46, meta[relay.Constant][0] /* ty=Tensor[(1), int32] span=from_string:55:39 */, %47, 0.761594f /* ty=float32 span=from_string:55:124 */) /* ty=(Tensor[(10, 10), float16], (Tensor[(10, 10), float16], (Tensor[(10, 10), float16],)), (Tensor[(10, 34, 1), float16], Tensor[(10, 38, 1), float16]), Tensor[(10, 34, 1), float32], Tensor[(10, 10), float32], Tensor[(10, 10), float16], Tensor[(1), int32], Tensor[(10, 10), float32], float32) span=from_string:55:3 */
}

#[metadata]
{
  "root": 1, 
  "nodes": [
    {
      "type_key": ""
    }, 
    {
      "type_key": "Map", 
      "keys": [
        "relay.Constant"
      ], 
      "data": [2]
    }, 
    {
      "type_key": "Array", 
      "data": [3]
    }, 
    {
      "type_key": "relay.Constant", 
      "attrs": {
        "_checked_type_": "8", 
        "data": "0", 
        "span": "6", 
        "virtual_device_": "4"
      }
    }, 
    {
      "type_key": "VirtualDevice", 
      "attrs": {
        "device_type_int": "-1", 
        "memory_scope": "5", 
        "target": "0", 
        "virtual_device_id": "-1"
      }
    }, 
    {
      "type_key": "runtime.String"
    }, 
    {
      "type_key": "Span", 
      "attrs": {
        "column": "39", 
        "end_column": "57", 
        "end_line": "55", 
        "line": "55", 
        "source_name": "7"
      }
    }, 
    {
      "type_key": "SourceName", 
      "repr_str": "from_string"
    }, 
    {
      "type_key": "relay.TensorType", 
      "attrs": {
        "dtype": "int32", 
        "shape": "9", 
        "span": "11"
      }
    }, 
    {
      "type_key": "Array", 
      "data": [10]
    }, 
    {
      "type_key": "IntImm", 
      "attrs": {
        "dtype": "int32", 
        "span": "0", 
        "value": "1"
      }
    }, 
    {
      "type_key": "Span", 
      "attrs": {
        "column": "726", 
        "end_column": "746", 
        "end_line": "2", 
        "line": "2", 
        "source_name": "7"
      }
    }
  ], 
  "b64ndarrays": [
    "P6G0lvBAXt0AAAAAAAAAAAEAAAAAAAAAAQAAAAAgAQABAAAAAAAAAAQAAAAAAAAAZAAAAA=="
  ], 
  "attrs": {"tvm_version": "0.13.0"}
}