#[version = "0.0.5"]
def @main(%x0: Tensor[(10, 10), float32] /* ty=Tensor[(10, 10), float32] span=from_string:6:11 */, %x1: Tensor[(34, 10), float32] /* ty=Tensor[(34, 10), float32] span=from_string:40:13 */, %x2: Tensor[(38, 10), float32] /* ty=Tensor[(38, 10), float32] span=from_string:51:13 */, %x3: Tensor[(100), float32] /* ty=Tensor[(100), float32] */, %x4: Tensor[(57), int32] /* ty=Tensor[(57), int32] span=from_string:17:65 */, %x5: Tensor[(30, 10), float32] /* ty=Tensor[(30, 10), float32] span=from_string:85:13 */) -> (Tensor[(10, 10), float16], (Tensor[(10, 10), float16], (Tensor[(10, 10), float16],)), (Tensor[(10, 34, 1), float16], Tensor[(10, 38, 1), float16]), Tensor[(10, 34, 1), float32], Tensor[(10, 10), float32], Tensor[(10, 10), float16], Tensor[(1), int32], Tensor[(10, 10), float32], float32) {
  %1 = fn (%p01: Tensor[(10, 10), float32] /* ty=Tensor[(10, 10), float32] span=from_string:4:10 */, Primitive=1) -> Tensor[(10, 10), float16] {
    cast(%p01, dtype="float16") /* ty=Tensor[(10, 10), float16] span=from_string:4:5 */
  } /* ty=fn (Tensor[(10, 10), float32]) -> Tensor[(10, 10), float16] span=from_string:6:8 */;
  %2 = %1(%x0) /* ty=Tensor[(10, 10), float16] span=from_string:104:12 */;
  %3 = fn (%p02: Tensor[(10, 10), float16] /* ty=Tensor[(10, 10), float16] span=from_string:20:15 */, Primitive=1) -> Tensor[(10, 10), float16] {
    %0 = cast(2f /* ty=float32 span=from_string:19:17 */, dtype="float16") /* ty=float16 span=from_string:20:21 */;
    multiply(%p02, %0) /* ty=Tensor[(10, 10), float16] span=from_string:19:5 */
  } /* ty=fn (Tensor[(10, 10), float16]) -> Tensor[(10, 10), float16] span=from_string:104:9 */;
  %4 = fn (%p0: Tensor[(10, 10), float16] /* ty=Tensor[(10, 10), float16] span=from_string:8:20 */, Primitive=1) -> Tensor[(10, 10), float16] {
    multiply(%p0, %p0) /* ty=Tensor[(10, 10), float16] span=from_string:8:6 */
  } /* ty=fn (Tensor[(10, 10), float16]) -> Tensor[(10, 10), float16] span=from_string:10:8 */;
  %6 = fn (Primitive=1) -> Tensor[(10, 10), float16] {
    ones(shape=[10, 10], dtype="float16") /* ty=Tensor[(10, 10), float16] span=from_string:13:5 */
  } /* ty=fn () -> Tensor[(10, 10), float16] span=from_string:15:8 */;
  %7 = %6() /* ty=Tensor[(10, 10), float16] span=from_string:89:13 */;
  %8 = fn (%p04: Tensor[(10, 10), float16] /* ty=Tensor[(10, 10), float16] span=from_string:23:20 */, %p11: Tensor[(10, 10), float16] /* ty=Tensor[(10, 10), float16] span=from_string:23:26 */, %p2: Tensor[(2), int32] /* ty=Tensor[(2), int32] span=from_string:24:25 */, Primitive=1) -> Tensor[(10, 10), float16] {
    %5 = multiply(%p04, %p11) /* ty=Tensor[(10, 10), float16] span=from_string:24:21 */;
    collapse_sum_to(%5, %p2, meta[relay.attrs.InitOpAttrs][0]) /* ty=Tensor[(10, 10), float16] span=from_string:23:5 */
  } /* ty=fn (Tensor[(10, 10), float16], Tensor[(10, 10), float16], Tensor[(2), int32]) -> Tensor[(10, 10), float16] span=from_string:30:9 */;
  %10 = fn (%p05: Tensor[(10, 10), float16] /* ty=Tensor[(10, 10), float16] span=from_string:27:21 */, %p12: Tensor[(10, 10), float16] /* ty=Tensor[(10, 10), float16] span=from_string:27:27 */, %p21: Tensor[(2), int32] /* ty=Tensor[(2), int32] span=from_string:28:26 */, Primitive=1) -> Tensor[(10, 10), float16] {
    %9 = multiply(%p05, %p12) /* ty=Tensor[(10, 10), float16] span=from_string:28:21 */;
    collapse_sum_to(%9, %p21, meta[relay.attrs.InitOpAttrs][1]) /* ty=Tensor[(10, 10), float16] span=from_string:27:5 */
  } /* ty=fn (Tensor[(10, 10), float16], Tensor[(10, 10), float16], Tensor[(2), int32]) -> Tensor[(10, 10), float16] span=from_string:31:9 */;
  %11 = %8(%7, %2, meta[relay.Constant][0] /* ty=Tensor[(2), int32] span=from_string:30:26 */) /* ty=Tensor[(10, 10), float16] span=from_string:35:13 */;
  %12 = %10(%7, %2, meta[relay.Constant][1] /* ty=Tensor[(2), int32] span=from_string:31:27 */) /* ty=Tensor[(10, 10), float16] span=from_string:73:13 */;
  %13 = fn (%p03: Tensor[(10, 10), float16] /* ty=Tensor[(10, 10), float16] span=from_string:33:9 */, %p1: Tensor[(10, 10), float16] /* ty=Tensor[(10, 10), float16] span=from_string:33:15 */, Primitive=1) -> Tensor[(10, 10), float16] {
    add(%p03, %p1) /* ty=Tensor[(10, 10), float16] span=from_string:33:5 */
  } /* ty=fn (Tensor[(10, 10), float16], Tensor[(10, 10), float16]) -> Tensor[(10, 10), float16] span=from_string:35:9 */;
  %14 = %13(%11, %12) /* ty=Tensor[(10, 10), float16] span=from_string:36:10 */;
  %15 = %4(%2) /* ty=Tensor[(10, 10), float16] span=from_string:55:13 */;
  %16 = (%14,) /* ty=(Tensor[(10, 10), float16],) span=from_string:105:15 */;
  %17 = fn (%p08: Tensor[(34, 10), float32] /* ty=Tensor[(34, 10), float32] span=from_string:38:10 */, Primitive=1) -> Tensor[(34, 10), float16] {
    cast(%p08, dtype="float16") /* ty=Tensor[(34, 10), float16] span=from_string:38:5 */
  } /* ty=fn (Tensor[(34, 10), float32]) -> Tensor[(34, 10), float16] span=from_string:40:9 */;
  %18 = %17(%x1) /* ty=Tensor[(34, 10), float16] span=from_string:44:17 */;
  %19 = fn (%p07: Tensor[(10, 10), float16] /* ty=Tensor[(10, 10), float16] span=from_string:42:14 */, %p13: Tensor[(34, 10), float16] /* ty=Tensor[(34, 10), float16] span=from_string:42:20 */, Primitive=1) -> Tensor[(10, 34), float16] {
    nn.dense(%p07, %p13, units=None, out_dtype="float16") /* ty=Tensor[(10, 34), float16] span=from_string:42:5 */
  } /* ty=fn (Tensor[(10, 10), float16], Tensor[(34, 10), float16]) -> Tensor[(10, 34), float16] span=from_string:44:9 */;
  %20 = %19(%15, %18) /* ty=Tensor[(10, 34), float16] span=from_string:59:13 */;
  %21 = fn (%p06: Tensor[(10, 34), float16] /* ty=Tensor[(10, 34), float16] span=from_string:46:17 */, Primitive=1, relay.reshape_only=1) -> Tensor[(10, 34, 1), float16] {
    expand_dims(%p06, axis=2) /* ty=Tensor[(10, 34, 1), float16] span=from_string:46:5 */
  } /* ty=fn (Tensor[(10, 34), float16]) -> Tensor[(10, 34, 1), float16] span=from_string:59:9 */;
  %22 = fn (%p011: Tensor[(38, 10), float32] /* ty=Tensor[(38, 10), float32] span=from_string:49:10 */, Primitive=1) -> Tensor[(38, 10), float16] {
    cast(%p011, dtype="float16") /* ty=Tensor[(38, 10), float16] span=from_string:49:5 */
  } /* ty=fn (Tensor[(38, 10), float32]) -> Tensor[(38, 10), float16] span=from_string:51:9 */;
  %23 = %22(%x2) /* ty=Tensor[(38, 10), float16] span=from_string:55:17 */;
  %24 = fn (%p010: Tensor[(10, 10), float16] /* ty=Tensor[(10, 10), float16] span=from_string:53:14 */, %p14: Tensor[(38, 10), float16] /* ty=Tensor[(38, 10), float16] span=from_string:53:21 */, Primitive=1) -> Tensor[(10, 38), float16] {
    nn.dense(%p010, %p14, units=None, out_dtype="float16") /* ty=Tensor[(10, 38), float16] span=from_string:53:5 */
  } /* ty=fn (Tensor[(10, 10), float16], Tensor[(38, 10), float16]) -> Tensor[(10, 38), float16] span=from_string:55:9 */;
  %25 = %24(%15, %23) /* ty=Tensor[(10, 38), float16] span=from_string:60:13 */;
  %26 = fn (%p09: Tensor[(10, 38), float16] /* ty=Tensor[(10, 38), float16] span=from_string:57:17 */, Primitive=1, relay.reshape_only=1) -> Tensor[(10, 38, 1), float16] {
    expand_dims(%p09, axis=2) /* ty=Tensor[(10, 38, 1), float16] span=from_string:57:5 */
  } /* ty=fn (Tensor[(10, 38), float16]) -> Tensor[(10, 38, 1), float16] span=from_string:60:9 */;
  %27 = %21(%20) /* ty=Tensor[(10, 34, 1), float16] span=from_string:106:10 */;
  %28 = %26(%25) /* ty=Tensor[(10, 38, 1), float16] span=from_string:106:15 */;
  %31 = fn (%p013: Tensor[(10, 34, 1), float16] /* ty=Tensor[(10, 34, 1), float16] span=from_string:63:9 */, Primitive=1) -> Tensor[(10, 34, 1), float16] {
    %30 = cast(1f /* ty=float32 span=from_string:62:18 */, dtype="float16") /* ty=float16 span=from_string:71:16 */;
    add(%p013, %30) /* ty=Tensor[(10, 34, 1), float16] span=from_string:62:5 */
  } /* ty=fn (Tensor[(10, 34, 1), float16]) -> Tensor[(10, 34, 1), float16] span=from_string:65:9 */;
  %32 = %31(%27) /* ty=Tensor[(10, 34, 1), float16] span=from_string:107:13 */;
  %33 = fn (%p012: Tensor[(10, 34, 1), float16] /* ty=Tensor[(10, 34, 1), float16] span=from_string:67:16 */, Primitive=1) -> Tensor[(10, 34, 1), float32] {
    %29 = cast(%p012, dtype="float32") /* ty=Tensor[(10, 34, 1), float32] span=from_string:68:9 */;
    exp(%29) /* ty=Tensor[(10, 34, 1), float32] span=from_string:67:5 */
  } /* ty=fn (Tensor[(10, 34, 1), float16]) -> Tensor[(10, 34, 1), float32] span=from_string:107:9 */;
  %36 = fn (%p015: Tensor[(10, 10), float16] /* ty=Tensor[(10, 10), float16] span=from_string:71:9 */, Primitive=1) -> Tensor[(10, 10), float16] {
    add(%p015, %30) /* ty=Tensor[(10, 10), float16] span=from_string:71:5 */
  } /* ty=fn (Tensor[(10, 10), float16]) -> Tensor[(10, 10), float16] span=from_string:73:9 */;
  %37 = %36(%12) /* ty=Tensor[(10, 10), float16] span=from_string:109:13 */;
  %38 = fn (%p014: Tensor[(10, 10), float16] /* ty=Tensor[(10, 10), float16] span=from_string:75:16 */, Primitive=1) -> Tensor[(10, 10), float32] {
    %34 = cast(%p014, dtype="float32") /* ty=Tensor[(10, 10), float32] span=from_string:76:15 */;
    %35 = exp(%34) /* ty=Tensor[(10, 10), float32] span=from_string:77:13 */;
    squeeze(%35) /* ty=Tensor[(10, 10), float32] span=from_string:75:5 */
  } /* ty=fn (Tensor[(10, 10), float16]) -> Tensor[(10, 10), float32] span=from_string:108:9 */;
  %39 = fn (%p016: Tensor[(10, 10), float16] /* ty=Tensor[(10, 10), float16] span=from_string:80:13 */, Primitive=1, relay.reshape_only=1) -> Tensor[(10, 10), float16] {
    reshape(%p016, newshape=[10, 10]) /* ty=Tensor[(10, 10), float16] span=from_string:80:5 */
  } /* ty=fn (Tensor[(10, 10), float16]) -> Tensor[(10, 10), float16] span=from_string:109:9 */;
  %51 = fn (%p019: Tensor[(30, 10), float32] /* ty=Tensor[(30, 10), float32] span=from_string:83:10 */, Primitive=1) -> Tensor[(30, 10), float16] {
    cast(%p019, dtype="float16") /* ty=Tensor[(30, 10), float16] span=from_string:83:5 */
  } /* ty=fn (Tensor[(30, 10), float32]) -> Tensor[(30, 10), float16] span=from_string:85:9 */;
  %52 = %51(%x5) /* ty=Tensor[(30, 10), float16] span=from_string:89:17 */;
  %53 = fn (%p018: Tensor[(10, 10), float16] /* ty=Tensor[(10, 10), float16] span=from_string:87:14 */, %p15: Tensor[(30, 10), float16] /* ty=Tensor[(30, 10), float16] span=from_string:87:21 */, Primitive=1) -> Tensor[(10, 30), float16] {
    nn.dense(%p018, %p15, units=None, out_dtype="float16") /* ty=Tensor[(10, 30), float16] span=from_string:87:5 */
  } /* ty=fn (Tensor[(10, 10), float16], Tensor[(30, 10), float16]) -> Tensor[(10, 30), float16] span=from_string:89:9 */;
  %54 = %53(%7, %52) /* ty=Tensor[(10, 30), float16] span=from_string:110:13 */;
  %55 = fn (%p017: Tensor[(10, 30), float16] /* ty=Tensor[(10, 30), float16] span=from_string:91:17 */, Primitive=1) -> Tensor[(10, 10), float32] {
    %40 = split(%p017, indices_or_sections=3, axis=1) /* ty=(Tensor[(10, 10), float16], Tensor[(10, 10), float16], Tensor[(10, 10), float16]) span=from_string:96:11 */;
    %41 = %40.0 /* ty=Tensor[(10, 10), float16] span=from_string:93:19 */;
    %42 = sigmoid(%41) /* ty=Tensor[(10, 10), float16] span=from_string:100:16 */;
    %43 = %40.1 /* ty=Tensor[(10, 10), float16] span=from_string:95:16 */;
    %44 = tanh(%43) /* ty=Tensor[(10, 10), float16] span=from_string:98:16 */;
    %45 = %40.2 /* ty=Tensor[(10, 10), float16] span=from_string:97:16 */;
    %46 = cast(%45, dtype="float32") /* ty=Tensor[(10, 10), float32] span=from_string:99:15 */;
    %47 = cast(%44, dtype="float32") /* ty=Tensor[(10, 10), float32] span=from_string:101:21 */;
    %48 = exp(%46) /* ty=Tensor[(10, 10), float32] span=from_string:101:26 */;
    %49 = cast(%42, dtype="float32") /* ty=Tensor[(10, 10), float32] span=from_string:102:9 */;
    %50 = multiply(%47, %48) /* ty=Tensor[(10, 10), float32] span=from_string:102:14 */;
    add(%49, %50) /* ty=Tensor[(10, 10), float32] span=from_string:91:5 */
  } /* ty=fn (Tensor[(10, 30), float16]) -> Tensor[(10, 10), float32] span=from_string:110:9 */;
  %56 = %3(%2) /* ty=Tensor[(10, 10), float16] span=from_string:111:4 */;
  %57 = (%15, %16) /* ty=(Tensor[(10, 10), float16], (Tensor[(10, 10), float16],)) span=from_string:111:9 */;
  %58 = (%27, %28) /* ty=(Tensor[(10, 34, 1), float16], Tensor[(10, 38, 1), float16]) span=from_string:111:14 */;
  %59 = %33(%32) /* ty=Tensor[(10, 34, 1), float32] span=from_string:111:19 */;
  %60 = %38(%37) /* ty=Tensor[(10, 10), float32] span=from_string:111:24 */;
  %61 = %39(%37) /* ty=Tensor[(10, 10), float16] span=from_string:111:29 */;
  %62 = %55(%54) /* ty=Tensor[(10, 10), float32] span=from_string:111:111 */;
  (%56, %57, %58, %59, %60, %61, meta[relay.Constant][2] /* ty=Tensor[(1), int32] span=from_string:111:39 */, %62, 0.761594f /* ty=float32 span=from_string:111:125 */) /* ty=(Tensor[(10, 10), float16], (Tensor[(10, 10), float16], (Tensor[(10, 10), float16],)), (Tensor[(10, 34, 1), float16], Tensor[(10, 38, 1), float16]), Tensor[(10, 34, 1), float32], Tensor[(10, 10), float32], Tensor[(10, 10), float16], Tensor[(1), int32], Tensor[(10, 10), float32], float32) span=from_string:111:3 */
}

#[metadata]
{
  "root": 1, 
  "nodes": [
    {
      "type_key": ""
    }, 
    {
      "type_key": "Map", 
      "keys": [
        "relay.Constant", 
        "relay.attrs.InitOpAttrs"
      ], 
      "data": [2, 24]
    }, 
    {
      "type_key": "Array", 
      "data": [3, 11, 16]
    }, 
    {
      "type_key": "relay.Constant", 
      "attrs": {
        "_checked_type_": "8", 
        "data": "0", 
        "span": "6", 
        "virtual_device_": "4"
      }
    }, 
    {
      "type_key": "VirtualDevice", 
      "attrs": {
        "device_type_int": "-1", 
        "memory_scope": "5", 
        "target": "0", 
        "virtual_device_id": "-1"
      }
    }, 
    {
      "type_key": "runtime.String"
    }, 
    {
      "type_key": "Span", 
      "attrs": {
        "column": "26", 
        "end_column": "44", 
        "end_line": "30", 
        "line": "30", 
        "source_name": "7"
      }
    }, 
    {
      "type_key": "SourceName", 
      "repr_str": "from_string"
    }, 
    {
      "type_key": "relay.TensorType", 
      "attrs": {
        "dtype": "int32", 
        "shape": "9", 
        "span": "0"
      }
    }, 
    {
      "type_key": "Array", 
      "data": [10]
    }, 
    {
      "type_key": "IntImm", 
      "attrs": {
        "dtype": "int32", 
        "span": "0", 
        "value": "2"
      }
    }, 
    {
      "type_key": "relay.Constant", 
      "attrs": {
        "_checked_type_": "13", 
        "data": "1", 
        "span": "12", 
        "virtual_device_": "4"
      }
    }, 
    {
      "type_key": "Span", 
      "attrs": {
        "column": "27", 
        "end_column": "45", 
        "end_line": "31", 
        "line": "31", 
        "source_name": "7"
      }
    }, 
    {
      "type_key": "relay.TensorType", 
      "attrs": {
        "dtype": "int32", 
        "shape": "14", 
        "span": "0"
      }
    }, 
    {
      "type_key": "Array", 
      "data": [15]
    }, 
    {
      "type_key": "IntImm", 
      "attrs": {
        "dtype": "int32", 
        "span": "0", 
        "value": "2"
      }
    }, 
    {
      "type_key": "relay.Constant", 
      "attrs": {
        "_checked_type_": "20", 
        "data": "2", 
        "span": "19", 
        "virtual_device_": "17"
      }
    }, 
    {
      "type_key": "VirtualDevice", 
      "attrs": {
        "device_type_int": "-1", 
        "memory_scope": "18", 
        "target": "0", 
        "virtual_device_id": "-1"
      }
    }, 
    {
      "type_key": "runtime.String"
    }, 
    {
      "type_key": "Span", 
      "attrs": {
        "column": "39", 
        "end_column": "57", 
        "end_line": "111", 
        "line": "111", 
        "source_name": "7"
      }
    }, 
    {
      "type_key": "relay.TensorType", 
      "attrs": {
        "dtype": "int32", 
        "shape": "21", 
        "span": "23"
      }
    }, 
    {
      "type_key": "Array", 
      "data": [22]
    }, 
    {
      "type_key": "IntImm", 
      "attrs": {
        "dtype": "int32", 
        "span": "0", 
        "value": "1"
      }
    }, 
    {
      "type_key": "Span", 
      "attrs": {
        "column": "748", 
        "end_column": "768", 
        "end_line": "2", 
        "line": "2", 
        "source_name": "7"
      }
    }, 
    {
      "type_key": "Array", 
      "data": [25, 29]
    }, 
    {
      "type_key": "relay.attrs.InitOpAttrs", 
      "attrs": {
        "dtype": "float16", 
        "shape": "26"
      }
    }, 
    {
      "type_key": "Array", 
      "data": [27, 28]
    }, 
    {
      "type_key": "IntImm", 
      "attrs": {
        "dtype": "int32", 
        "span": "0", 
        "value": "10"
      }
    }, 
    {
      "type_key": "IntImm", 
      "attrs": {
        "dtype": "int32", 
        "span": "0", 
        "value": "10"
      }
    }, 
    {
      "type_key": "relay.attrs.InitOpAttrs", 
      "attrs": {
        "dtype": "float16", 
        "shape": "30"
      }
    }, 
    {
      "type_key": "Array", 
      "data": [27, 28]
    }
  ], 
  "b64ndarrays": [
    "P6G0lvBAXt0AAAAAAAAAAAEAAAAAAAAAAQAAAAAgAQACAAAAAAAAAAgAAAAAAAAACgAAAAoAAAA=", 
    "P6G0lvBAXt0AAAAAAAAAAAEAAAAAAAAAAQAAAAAgAQACAAAAAAAAAAgAAAAAAAAACgAAAAoAAAA=", 
    "P6G0lvBAXt0AAAAAAAAAAAEAAAAAAAAAAQAAAAAgAQABAAAAAAAAAAQAAAAAAAAAZAAAAA=="
  ], 
  "attrs": {"tvm_version": "0.13.0"}
}