#[version = "0.0.5"]
def @main(%x0: Tensor[(10, 10), float32] /* ty=Tensor[(10, 10), float32] span=from_string:38:109 */, %x1: Tensor[(34, 10), float32] /* ty=Tensor[(34, 10), float32] span=from_string:48:111 */, %x2: Tensor[(38, 10), float32] /* ty=Tensor[(38, 10), float32] span=from_string:56:111 */, %x3: Tensor[(100), float32] /* ty=Tensor[(100), float32] */, %x4: Tensor[(57), int32] /* ty=Tensor[(57), int32] */, %x5: Tensor[(30, 10), float32] /* ty=Tensor[(30, 10), float32] span=from_string:106:111 */) -> (Tensor[(10, 10), float16], (Tensor[(10, 10), float16], (Tensor[(10, 10), float16],)), (Tensor[(10, 34, 1), float16], Tensor[(10, 38, 1), float16]), Tensor[(10, 34, 1), float16], Tensor[(10, 10), float16], Tensor[(10, 10), float16], Tensor[(1), int32], Tensor[(10, 10), float16], float32) {
  %1 = fn (%p0: Tensor[(10, 10), float32] /* ty=Tensor[(10, 10), float32] span=from_string:4:20 */, Primitive=1) -> Tensor[(10, 10), float16] {
    %0 = cast(%p0, dtype="float16") /* ty=Tensor[(10, 10), float16] */;
    multiply(%0, %0) /* ty=Tensor[(10, 10), float16] span=from_string:4:6 */
  } /* ty=fn (Tensor[(10, 10), float32]) -> Tensor[(10, 10), float16] span=from_string:6:100 */;
  let %x_0: Tensor[(10, 10), float16] /* ty=Tensor[(10, 10), float16] span=from_string:56:105 */ = %1(%x0) /* ty=Tensor[(10, 10), float16] span=from_string:6:100 */;
  %3 = cast(%x_0, dtype="float32") /* ty=Tensor[(10, 10), float32] */;
  %4 = fn (%p01: Tensor[(10, 10), float32] /* ty=Tensor[(10, 10), float32] span=from_string:8:15 */, Primitive=1) -> Tensor[(10, 10), float16] {
    %2 = cast(%p01, dtype="float16") /* ty=Tensor[(10, 10), float16] */;
    ones_like(%2) /* ty=Tensor[(10, 10), float16] span=from_string:8:5 */
  } /* ty=fn (Tensor[(10, 10), float32]) -> Tensor[(10, 10), float16] span=from_string:10:100 */;
  let %x_1: Tensor[(10, 10), float16] /* ty=Tensor[(10, 10), float16] span=from_string:106:105 */ = %4(%3) /* ty=Tensor[(10, 10), float16] span=from_string:10:100 */;
  %6 = fn (%p02: Tensor[(10, 10), float32] /* ty=Tensor[(10, 10), float32] span=from_string:12:15 */, Primitive=1) -> Tensor[(10, 10), float16] {
    %5 = cast(%p02, dtype="float16") /* ty=Tensor[(10, 10), float16] */;
    add(%5, %5) /* ty=Tensor[(10, 10), float16] span=from_string:12:5 */
  } /* ty=fn (Tensor[(10, 10), float32]) -> Tensor[(10, 10), float16] span=from_string:14:100 */;
  let %x_2: Tensor[(10, 10), float16] /* ty=Tensor[(10, 10), float16] span=from_string:134:628 */ = %6(%x0) /* ty=Tensor[(10, 10), float16] span=from_string:14:100 */;
  %8 = fn (%p03: Tensor[(10, 10), float32] /* ty=Tensor[(10, 10), float32] span=from_string:16:16 */, Primitive=1) -> Tensor[(10, 10), float16] {
    %7 = cast(%p03, dtype="float16") /* ty=Tensor[(10, 10), float16] */;
    zeros_like(%7) /* ty=Tensor[(10, 10), float16] span=from_string:16:5 */
  } /* ty=fn (Tensor[(10, 10), float32]) -> Tensor[(10, 10), float16] span=from_string:18:99 */;
  let %x_3: Tensor[(10, 10), float16] /* ty=Tensor[(10, 10), float16] span=from_string:30:103 */ = %8(%x0) /* ty=Tensor[(10, 10), float16] span=from_string:18:99 */;
  %11 = cast(%x_1, dtype="float32") /* ty=Tensor[(10, 10), float32] */;
  %12 = fn (%p04: Tensor[(10, 10), float32] /* ty=Tensor[(10, 10), float32] span=from_string:20:15 */, %p1: Tensor[(10, 10), float32] /* ty=Tensor[(10, 10), float32] span=from_string:20:21 */, Primitive=1) -> Tensor[(10, 10), float16] {
    %9 = cast(%p04, dtype="float16") /* ty=Tensor[(10, 10), float16] */;
    %10 = cast(%p1, dtype="float16") /* ty=Tensor[(10, 10), float16] */;
    multiply(%9, %10) /* ty=Tensor[(10, 10), float16] span=from_string:20:6 */
  } /* ty=fn (Tensor[(10, 10), float32], Tensor[(10, 10), float32]) -> Tensor[(10, 10), float16] span=from_string:22:99 */;
  let %x_4: Tensor[(10, 10), float16] /* ty=Tensor[(10, 10), float16] span=from_string:26:102 */ = %12(%11, %x0) /* ty=Tensor[(10, 10), float16] span=from_string:22:99 */;
  %15 = cast(%x_4, dtype="float32") /* ty=Tensor[(10, 10), float32] */;
  %16 = fn (%p05: Tensor[(10, 10), float32] /* ty=Tensor[(10, 10), float32] span=from_string:24:23 */, %p11: Tensor[(10, 10), float32] /* ty=Tensor[(10, 10), float32] span=from_string:24:29 */, Primitive=1) -> Tensor[(10, 10), float16] {
    %13 = cast(%p05, dtype="float16") /* ty=Tensor[(10, 10), float16] */;
    %14 = cast(%p11, dtype="float16") /* ty=Tensor[(10, 10), float16] */;
    collapse_sum_like(%13, %14) /* ty=Tensor[(10, 10), float16] span=from_string:24:5 */
  } /* ty=fn (Tensor[(10, 10), float32], Tensor[(10, 10), float32]) -> Tensor[(10, 10), float16] span=from_string:26:99 */;
  let %x_5: Tensor[(10, 10), float16] /* ty=Tensor[(10, 10), float16] span=from_string:30:109 */ = %16(%15, %x0) /* ty=Tensor[(10, 10), float16] span=from_string:26:99 */;
  %19 = cast(%x_3, dtype="float32") /* ty=Tensor[(10, 10), float32] */;
  %20 = cast(%x_5, dtype="float32") /* ty=Tensor[(10, 10), float32] */;
  %21 = fn (%p06: Tensor[(10, 10), float32] /* ty=Tensor[(10, 10), float32] span=from_string:28:9 */, %p12: Tensor[(10, 10), float32] /* ty=Tensor[(10, 10), float32] span=from_string:28:15 */, Primitive=1) -> Tensor[(10, 10), float16] {
    %17 = cast(%p06, dtype="float16") /* ty=Tensor[(10, 10), float16] */;
    %18 = cast(%p12, dtype="float16") /* ty=Tensor[(10, 10), float16] */;
    add(%17, %18) /* ty=Tensor[(10, 10), float16] span=from_string:28:5 */
  } /* ty=fn (Tensor[(10, 10), float32], Tensor[(10, 10), float32]) -> Tensor[(10, 10), float16] span=from_string:30:100 */;
  let %x_6: Tensor[(10, 10), float16] /* ty=Tensor[(10, 10), float16] span=from_string:42:103 */ = %21(%19, %20) /* ty=Tensor[(10, 10), float16] span=from_string:30:100 */;
  %24 = fn (%p07: Tensor[(10, 10), float32] /* ty=Tensor[(10, 10), float32] span=from_string:32:15 */, %p13: Tensor[(10, 10), float32] /* ty=Tensor[(10, 10), float32] span=from_string:32:21 */, Primitive=1) -> Tensor[(10, 10), float16] {
    %22 = cast(%p07, dtype="float16") /* ty=Tensor[(10, 10), float16] */;
    %23 = cast(%p13, dtype="float16") /* ty=Tensor[(10, 10), float16] */;
    multiply(%22, %23) /* ty=Tensor[(10, 10), float16] span=from_string:32:6 */
  } /* ty=fn (Tensor[(10, 10), float32], Tensor[(10, 10), float32]) -> Tensor[(10, 10), float16] span=from_string:34:100 */;
  let %x_7: Tensor[(10, 10), float16] /* ty=Tensor[(10, 10), float16] span=from_string:38:103 */ = %24(%11, %x0) /* ty=Tensor[(10, 10), float16] span=from_string:34:100 */;
  %27 = cast(%x_7, dtype="float32") /* ty=Tensor[(10, 10), float32] */;
  %28 = fn (%p08: Tensor[(10, 10), float32] /* ty=Tensor[(10, 10), float32] span=from_string:36:23 */, %p14: Tensor[(10, 10), float32] /* ty=Tensor[(10, 10), float32] span=from_string:36:29 */, Primitive=1) -> Tensor[(10, 10), float16] {
    %25 = cast(%p08, dtype="float16") /* ty=Tensor[(10, 10), float16] */;
    %26 = cast(%p14, dtype="float16") /* ty=Tensor[(10, 10), float16] */;
    collapse_sum_like(%25, %26) /* ty=Tensor[(10, 10), float16] span=from_string:36:5 */
  } /* ty=fn (Tensor[(10, 10), float32], Tensor[(10, 10), float32]) -> Tensor[(10, 10), float16] span=from_string:38:100 */;
  let %x_8: Tensor[(10, 10), float16] /* ty=Tensor[(10, 10), float16] span=from_string:74:105 */ = %28(%27, %x0) /* ty=Tensor[(10, 10), float16] span=from_string:38:100 */;
  %31 = cast(%x_6, dtype="float32") /* ty=Tensor[(10, 10), float32] */;
  %32 = cast(%x_8, dtype="float32") /* ty=Tensor[(10, 10), float32] */;
  %33 = fn (%p09: Tensor[(10, 10), float32] /* ty=Tensor[(10, 10), float32] span=from_string:40:9 */, %p15: Tensor[(10, 10), float32] /* ty=Tensor[(10, 10), float32] span=from_string:40:15 */, Primitive=1) -> Tensor[(10, 10), float16] {
    %29 = cast(%p09, dtype="float16") /* ty=Tensor[(10, 10), float16] */;
    %30 = cast(%p15, dtype="float16") /* ty=Tensor[(10, 10), float16] */;
    add(%29, %30) /* ty=Tensor[(10, 10), float16] span=from_string:40:5 */
  } /* ty=fn (Tensor[(10, 10), float32], Tensor[(10, 10), float32]) -> Tensor[(10, 10), float16] span=from_string:42:100 */;
  let %x_9: Tensor[(10, 10), float16] /* ty=Tensor[(10, 10), float16] span=from_string:43:108 */ = %33(%31, %32) /* ty=Tensor[(10, 10), float16] span=from_string:42:100 */;
  let %x_10: (Tensor[(10, 10), float16],) /* ty=(Tensor[(10, 10), float16],) span=from_string:44:172 */ = (%x_9,) /* ty=(Tensor[(10, 10), float16],) span=from_string:43:107 */;
  let %x_11: (Tensor[(10, 10), float16], (Tensor[(10, 10), float16],)) /* ty=(Tensor[(10, 10), float16], (Tensor[(10, 10), float16],)) span=from_string:134:634 */ = (%x_0, %x_10) /* ty=(Tensor[(10, 10), float16], (Tensor[(10, 10), float16],)) span=from_string:44:165 */;
  %36 = fn (%p010: Tensor[(10, 10), float32] /* ty=Tensor[(10, 10), float32] span=from_string:46:14 */, %p16: Tensor[(34, 10), float32] /* ty=Tensor[(34, 10), float32] span=from_string:46:21 */, Primitive=1) -> Tensor[(10, 34), float16] {
    %34 = cast(%p010, dtype="float16") /* ty=Tensor[(10, 10), float16] */;
    %35 = cast(%p16, dtype="float16") /* ty=Tensor[(34, 10), float16] */;
    nn.dense(%34, %35, units=None, out_dtype="float16") /* ty=Tensor[(10, 34), float16] span=from_string:46:5 */
  } /* ty=fn (Tensor[(10, 10), float32], Tensor[(34, 10), float32]) -> Tensor[(10, 34), float16] span=from_string:48:101 */;
  let %x_12: Tensor[(10, 34), float16] /* ty=Tensor[(10, 34), float16] span=from_string:52:111 */ = %36(%3, %x1) /* ty=Tensor[(10, 34), float16] span=from_string:48:101 */;
  %38 = cast(%x_12, dtype="float32") /* ty=Tensor[(10, 34), float32] */;
  %39 = fn (%p011: Tensor[(10, 34), float32] /* ty=Tensor[(10, 34), float32] span=from_string:50:17 */, Primitive=1, relay.reshape_only=1) -> Tensor[(10, 34, 1), float16] {
    %37 = cast(%p011, dtype="float16") /* ty=Tensor[(10, 34), float16] */;
    expand_dims(%37, axis=2) /* ty=Tensor[(10, 34, 1), float16] span=from_string:50:5 */
  } /* ty=fn (Tensor[(10, 34), float32]) -> Tensor[(10, 34, 1), float16] span=from_string:52:107 */;
  let %x_13: Tensor[(10, 34, 1), float16] /* ty=Tensor[(10, 34, 1), float16] span=from_string:65:111 */ = %39(%38) /* ty=Tensor[(10, 34, 1), float16] span=from_string:52:107 */;
  %42 = fn (%p012: Tensor[(10, 10), float32] /* ty=Tensor[(10, 10), float32] span=from_string:54:14 */, %p17: Tensor[(38, 10), float32] /* ty=Tensor[(38, 10), float32] span=from_string:54:21 */, Primitive=1) -> Tensor[(10, 38), float16] {
    %40 = cast(%p012, dtype="float16") /* ty=Tensor[(10, 10), float16] */;
    %41 = cast(%p17, dtype="float16") /* ty=Tensor[(38, 10), float16] */;
    nn.dense(%40, %41, units=None, out_dtype="float16") /* ty=Tensor[(10, 38), float16] span=from_string:54:5 */
  } /* ty=fn (Tensor[(10, 10), float32], Tensor[(38, 10), float32]) -> Tensor[(10, 38), float16] span=from_string:56:101 */;
  let %x_14: Tensor[(10, 38), float16] /* ty=Tensor[(10, 38), float16] span=from_string:60:111 */ = %42(%3, %x2) /* ty=Tensor[(10, 38), float16] span=from_string:56:101 */;
  %44 = cast(%x_14, dtype="float32") /* ty=Tensor[(10, 38), float32] */;
  %45 = fn (%p013: Tensor[(10, 38), float32] /* ty=Tensor[(10, 38), float32] span=from_string:58:17 */, Primitive=1, relay.reshape_only=1) -> Tensor[(10, 38, 1), float16] {
    %43 = cast(%p013, dtype="float16") /* ty=Tensor[(10, 38), float16] */;
    expand_dims(%43, axis=2) /* ty=Tensor[(10, 38, 1), float16] span=from_string:58:5 */
  } /* ty=fn (Tensor[(10, 38), float32]) -> Tensor[(10, 38, 1), float16] span=from_string:60:107 */;
  let %x_15: Tensor[(10, 38, 1), float16] /* ty=Tensor[(10, 38, 1), float16] span=from_string:61:179 */ = %45(%44) /* ty=Tensor[(10, 38, 1), float16] span=from_string:60:107 */;
  let %x_16: (Tensor[(10, 34, 1), float16], Tensor[(10, 38, 1), float16]) /* ty=(Tensor[(10, 34, 1), float16], Tensor[(10, 38, 1), float16]) span=from_string:134:641 */ = (%x_13, %x_15) /* ty=(Tensor[(10, 34, 1), float16], Tensor[(10, 38, 1), float16]) span=from_string:61:171 */;
  %48 = cast(%x_13, dtype="float32") /* ty=Tensor[(10, 34, 1), float32] */;
  %49 = fn (%p014: Tensor[(10, 34, 1), float32] /* ty=Tensor[(10, 34, 1), float32] span=from_string:63:9 */, Primitive=1) -> Tensor[(10, 34, 1), float16] {
    %46 = cast(%p014, dtype="float16") /* ty=Tensor[(10, 34, 1), float16] */;
    %47 = cast(1f /* ty=float32 span=from_string:63:18 */, dtype="float16") /* ty=float16 */;
    add(%46, %47) /* ty=Tensor[(10, 34, 1), float16] span=from_string:63:5 */
  } /* ty=fn (Tensor[(10, 34, 1), float32]) -> Tensor[(10, 34, 1), float16] span=from_string:65:107 */;
  let %x_18: Tensor[(10, 34, 1), float16] /* ty=Tensor[(10, 34, 1), float16] span=from_string:66:107 */ = %49(%48) /* ty=Tensor[(10, 34, 1), float16] span=from_string:65:107 */;
  let %x_19: Tensor[(10, 34, 1), float16] /* ty=Tensor[(10, 34, 1), float16] span=from_string:70:111 */ = %x_18;
  %51 = cast(%x_19, dtype="float32") /* ty=Tensor[(10, 34, 1), float32] */;
  %52 = fn (%p015: Tensor[(10, 34, 1), float32] /* ty=Tensor[(10, 34, 1), float32] span=from_string:68:14 */, Primitive=1) -> Tensor[(10, 34, 1), float16] {
    %50 = cast(%p015, dtype="float16") /* ty=Tensor[(10, 34, 1), float16] */;
    fast_exp(%50) /* ty=Tensor[(10, 34, 1), float16] span=from_string:68:5 */
  } /* ty=fn (Tensor[(10, 34, 1), float32]) -> Tensor[(10, 34, 1), float16] span=from_string:70:107 */;
  let %x_20: Tensor[(10, 34, 1), float16] /* ty=Tensor[(10, 34, 1), float16] span=from_string:134:648 */ = %52(%51) /* ty=Tensor[(10, 34, 1), float16] span=from_string:70:107 */;
  %55 = fn (%p016: Tensor[(10, 10), float32] /* ty=Tensor[(10, 10), float32] span=from_string:72:9 */, %p18: Tensor[(1), float32] /* ty=Tensor[(1), float32] span=from_string:72:16 */, Primitive=1) -> Tensor[(10, 10), float16] {
    %53 = cast(%p016, dtype="float16") /* ty=Tensor[(10, 10), float16] */;
    %54 = cast(%p18, dtype="float16") /* ty=Tensor[(1), float16] */;
    add(%53, %54) /* ty=Tensor[(10, 10), float16] span=from_string:72:5 */
  } /* ty=fn (Tensor[(10, 10), float32], Tensor[(1), float32]) -> Tensor[(10, 10), float16] span=from_string:74:101 */;
  let %x_24: Tensor[(10, 10), float16] /* ty=Tensor[(10, 10), float16] span=from_string:78:105 */ = %55(%32, meta[relay.Constant][0] /* ty=Tensor[(1), float32] span=from_string:74:116 */) /* ty=Tensor[(10, 10), float16] span=from_string:74:101 */;
  %58 = cast(%x_24, dtype="float32") /* ty=Tensor[(10, 10), float32] */;
  %59 = fn (%p017: Tensor[(10, 10), float32] /* ty=Tensor[(10, 10), float32] span=from_string:76:9 */, Primitive=1) -> Tensor[(10, 10), float16] {
    %56 = cast(%p017, dtype="float16") /* ty=Tensor[(10, 10), float16] */;
    %57 = cast(1f /* ty=float32 span=from_string:76:18 */, dtype="float16") /* ty=float16 */;
    add(%56, %57) /* ty=Tensor[(10, 10), float16] span=from_string:76:5 */
  } /* ty=fn (Tensor[(10, 10), float32]) -> Tensor[(10, 10), float16] span=from_string:78:101 */;
  let %x_26: Tensor[(10, 10), float16] /* ty=Tensor[(10, 10), float16] span=from_string:90:99 */ = %59(%58) /* ty=Tensor[(10, 10), float16] span=from_string:78:101 */;
  %61 = cast(%x_26, dtype="float32") /* ty=Tensor[(10, 10), float32] */;
  %62 = fn (%p018: Tensor[(10, 10), float32] /* ty=Tensor[(10, 10), float32] span=from_string:80:14 */, Primitive=1) -> Tensor[(10, 10), float16] {
    %60 = cast(%p018, dtype="float16") /* ty=Tensor[(10, 10), float16] */;
    fast_exp(%60) /* ty=Tensor[(10, 10), float16] span=from_string:80:5 */
  } /* ty=fn (Tensor[(10, 10), float32]) -> Tensor[(10, 10), float16] span=from_string:82:101 */;
  let %x_27: Tensor[(10, 10), float16] /* ty=Tensor[(10, 10), float16] span=from_string:86:105 */ = %62(%61) /* ty=Tensor[(10, 10), float16] span=from_string:82:101 */;
  %64 = cast(%x_27, dtype="float32") /* ty=Tensor[(10, 10), float32] */;
  %65 = fn (%p019: Tensor[(10, 10), float32] /* ty=Tensor[(10, 10), float32] span=from_string:84:13 */, Primitive=1, relay.reshape_only=1) -> Tensor[(10, 10), float16] {
    %63 = cast(%p019, dtype="float16") /* ty=Tensor[(10, 10), float16] */;
    squeeze(%63) /* ty=Tensor[(10, 10), float16] span=from_string:84:5 */
  } /* ty=fn (Tensor[(10, 10), float32]) -> Tensor[(10, 10), float16] span=from_string:86:101 */;
  let %x_28: Tensor[(10, 10), float16] /* ty=Tensor[(10, 10), float16] span=from_string:134:655 */ = %65(%64) /* ty=Tensor[(10, 10), float16] span=from_string:86:101 */;
  %67 = fn (%p020: Tensor[(10, 10), float32] /* ty=Tensor[(10, 10), float32] span=from_string:88:13 */, Primitive=1, relay.reshape_only=1) -> Tensor[(100), float16] {
    %66 = cast(%p020, dtype="float16") /* ty=Tensor[(10, 10), float16] */;
    reshape(%66, newshape=[100]) /* ty=Tensor[(100), float16] span=from_string:88:5 */
  } /* ty=fn (Tensor[(10, 10), float32]) -> Tensor[(100), float16] span=from_string:90:95 */;
  let %x_29: Tensor[(100), float16] /* ty=Tensor[(100), float16] span=from_string:94:105 */ = %67(%61) /* ty=Tensor[(100), float16] span=from_string:90:95 */;
  %69 = cast(%x_29, dtype="float32") /* ty=Tensor[(100), float32] */;
  %70 = fn (%p021: Tensor[(100), float32] /* ty=Tensor[(100), float32] span=from_string:92:13 */, Primitive=1, relay.reshape_only=1) -> Tensor[(10, 10), float16] {
    %68 = cast(%p021, dtype="float16") /* ty=Tensor[(100), float16] */;
    reshape(%68, newshape=[10, 10]) /* ty=Tensor[(10, 10), float16] span=from_string:92:5 */
  } /* ty=fn (Tensor[(100), float32]) -> Tensor[(10, 10), float16] span=from_string:94:101 */;
  let %x_30: Tensor[(10, 10), float16] /* ty=Tensor[(10, 10), float16] span=from_string:98:99 */ = %70(%69) /* ty=Tensor[(10, 10), float16] span=from_string:94:101 */;
  %72 = cast(%x_30, dtype="float32") /* ty=Tensor[(10, 10), float32] */;
  %73 = fn (%p022: Tensor[(10, 10), float32] /* ty=Tensor[(10, 10), float32] span=from_string:96:13 */, Primitive=1, relay.reshape_only=1) -> Tensor[(100), float16] {
    %71 = cast(%p022, dtype="float16") /* ty=Tensor[(10, 10), float16] */;
    reshape(%71, newshape=[100]) /* ty=Tensor[(100), float16] span=from_string:96:5 */
  } /* ty=fn (Tensor[(10, 10), float32]) -> Tensor[(100), float16] span=from_string:98:95 */;
  let %x_31: Tensor[(100), float16] /* ty=Tensor[(100), float16] span=from_string:102:105 */ = %73(%72) /* ty=Tensor[(100), float16] span=from_string:98:95 */;
  %75 = cast(%x_31, dtype="float32") /* ty=Tensor[(100), float32] */;
  %76 = fn (%p023: Tensor[(100), float32] /* ty=Tensor[(100), float32] span=from_string:100:13 */, Primitive=1, relay.reshape_only=1) -> Tensor[(10, 10), float16] {
    %74 = cast(%p023, dtype="float16") /* ty=Tensor[(100), float16] */;
    reshape(%74, newshape=[10, 10]) /* ty=Tensor[(10, 10), float16] span=from_string:100:5 */
  } /* ty=fn (Tensor[(100), float32]) -> Tensor[(10, 10), float16] span=from_string:102:101 */;
  let %x_32: Tensor[(10, 10), float16] /* ty=Tensor[(10, 10), float16] span=from_string:134:662 */ = %76(%75) /* ty=Tensor[(10, 10), float16] span=from_string:102:101 */;
  %79 = fn (%p024: Tensor[(10, 10), float32] /* ty=Tensor[(10, 10), float32] span=from_string:104:14 */, %p19: Tensor[(30, 10), float32] /* ty=Tensor[(30, 10), float32] span=from_string:104:21 */, Primitive=1) -> Tensor[(10, 30), float16] {
    %77 = cast(%p024, dtype="float16") /* ty=Tensor[(10, 10), float16] */;
    %78 = cast(%p19, dtype="float16") /* ty=Tensor[(30, 10), float16] */;
    nn.dense(%77, %78, units=None, out_dtype="float16") /* ty=Tensor[(10, 30), float16] span=from_string:104:5 */
  } /* ty=fn (Tensor[(10, 10), float32], Tensor[(30, 10), float32]) -> Tensor[(10, 30), float16] span=from_string:106:101 */;
  let %x_34: Tensor[(10, 30), float16] /* ty=Tensor[(10, 30), float16] span=from_string:110:217 */ = %79(%11, %x5) /* ty=Tensor[(10, 30), float16] span=from_string:106:101 */;
  %81 = cast(%x_34, dtype="float32") /* ty=Tensor[(10, 30), float32] */;
  %82 = fn (%p025: Tensor[(10, 30), float32] /* ty=Tensor[(10, 30), float32] span=from_string:108:11 */, Primitive=1) -> (Tensor[(10, 10), float16], Tensor[(10, 10), float16], Tensor[(10, 10), float16]) {
    %80 = cast(%p025, dtype="float16") /* ty=Tensor[(10, 30), float16] */;
    split(%80, indices_or_sections=3, axis=1) /* ty=(Tensor[(10, 10), float16], Tensor[(10, 10), float16], Tensor[(10, 10), float16]) span=from_string:108:5 */
  } /* ty=fn (Tensor[(10, 30), float32]) -> (Tensor[(10, 10), float16], Tensor[(10, 10), float16], Tensor[(10, 10), float16]) span=from_string:110:213 */;
  let %x_35: (Tensor[(10, 10), float16], Tensor[(10, 10), float16], Tensor[(10, 10), float16]) /* ty=(Tensor[(10, 10), float16], Tensor[(10, 10), float16], Tensor[(10, 10), float16]) span=from_string:121:101 */ = %82(%81) /* ty=(Tensor[(10, 10), float16], Tensor[(10, 10), float16], Tensor[(10, 10), float16]) span=from_string:110:213 */;
  let %x_36: Tensor[(10, 10), float16] /* ty=Tensor[(10, 10), float16] span=from_string:115:105 */ = %x_35.0 /* ty=Tensor[(10, 10), float16] span=from_string:111:101 */;
  %84 = cast(%x_36, dtype="float32") /* ty=Tensor[(10, 10), float32] */;
  %85 = fn (%p026: Tensor[(10, 10), float32] /* ty=Tensor[(10, 10), float32] span=from_string:113:13 */, Primitive=1) -> Tensor[(10, 10), float16] {
    %83 = cast(%p026, dtype="float16") /* ty=Tensor[(10, 10), float16] */;
    sigmoid(%83) /* ty=Tensor[(10, 10), float16] span=from_string:113:5 */
  } /* ty=fn (Tensor[(10, 10), float32]) -> Tensor[(10, 10), float16] span=from_string:115:101 */;
  let %x_37: Tensor[(10, 10), float16] /* ty=Tensor[(10, 10), float16] span=from_string:133:105 */ = %85(%84) /* ty=Tensor[(10, 10), float16] span=from_string:115:101 */;
  let %x_38: Tensor[(10, 10), float16] /* ty=Tensor[(10, 10), float16] span=from_string:120:105 */ = %x_35.1 /* ty=Tensor[(10, 10), float16] span=from_string:116:101 */;
  %87 = cast(%x_38, dtype="float32") /* ty=Tensor[(10, 10), float32] */;
  %88 = fn (%p027: Tensor[(10, 10), float32] /* ty=Tensor[(10, 10), float32] span=from_string:118:15 */, Primitive=1) -> Tensor[(10, 10), float16] {
    %86 = cast(%p027, dtype="float16") /* ty=Tensor[(10, 10), float16] */;
    fast_tanh(%86) /* ty=Tensor[(10, 10), float16] span=from_string:118:5 */
  } /* ty=fn (Tensor[(10, 10), float32]) -> Tensor[(10, 10), float16] span=from_string:120:101 */;
  let %x_39: Tensor[(10, 10), float16] /* ty=Tensor[(10, 10), float16] span=from_string:129:105 */ = %88(%87) /* ty=Tensor[(10, 10), float16] span=from_string:120:101 */;
  let %x_40: Tensor[(10, 10), float16] /* ty=Tensor[(10, 10), float16] span=from_string:125:105 */ = %x_35.2 /* ty=Tensor[(10, 10), float16] span=from_string:121:101 */;
  %90 = cast(%x_40, dtype="float32") /* ty=Tensor[(10, 10), float32] */;
  %91 = fn (%p028: Tensor[(10, 10), float32] /* ty=Tensor[(10, 10), float32] span=from_string:123:14 */, Primitive=1) -> Tensor[(10, 10), float16] {
    %89 = cast(%p028, dtype="float16") /* ty=Tensor[(10, 10), float16] */;
    fast_exp(%89) /* ty=Tensor[(10, 10), float16] span=from_string:123:5 */
  } /* ty=fn (Tensor[(10, 10), float32]) -> Tensor[(10, 10), float16] span=from_string:125:101 */;
  let %x_41: Tensor[(10, 10), float16] /* ty=Tensor[(10, 10), float16] span=from_string:129:112 */ = %91(%90) /* ty=Tensor[(10, 10), float16] span=from_string:125:101 */;
  %94 = cast(%x_39, dtype="float32") /* ty=Tensor[(10, 10), float32] */;
  %95 = cast(%x_41, dtype="float32") /* ty=Tensor[(10, 10), float32] */;
  %96 = fn (%p029: Tensor[(10, 10), float32] /* ty=Tensor[(10, 10), float32] span=from_string:127:15 */, %p110: Tensor[(10, 10), float32] /* ty=Tensor[(10, 10), float32] span=from_string:127:22 */, Primitive=1) -> Tensor[(10, 10), float16] {
    %92 = cast(%p029, dtype="float16") /* ty=Tensor[(10, 10), float16] */;
    %93 = cast(%p110, dtype="float16") /* ty=Tensor[(10, 10), float16] */;
    multiply(%92, %93) /* ty=Tensor[(10, 10), float16] span=from_string:127:6 */
  } /* ty=fn (Tensor[(10, 10), float32], Tensor[(10, 10), float32]) -> Tensor[(10, 10), float16] span=from_string:129:101 */;
  let %x_42: Tensor[(10, 10), float16] /* ty=Tensor[(10, 10), float16] span=from_string:133:112 */ = %96(%94, %95) /* ty=Tensor[(10, 10), float16] span=from_string:129:101 */;
  %99 = cast(%x_37, dtype="float32") /* ty=Tensor[(10, 10), float32] */;
  %100 = cast(%x_42, dtype="float32") /* ty=Tensor[(10, 10), float32] */;
  %101 = fn (%p030: Tensor[(10, 10), float32] /* ty=Tensor[(10, 10), float32] span=from_string:131:9 */, %p111: Tensor[(10, 10), float32] /* ty=Tensor[(10, 10), float32] span=from_string:131:16 */, Primitive=1) -> Tensor[(10, 10), float16] {
    %97 = cast(%p030, dtype="float16") /* ty=Tensor[(10, 10), float16] */;
    %98 = cast(%p111, dtype="float16") /* ty=Tensor[(10, 10), float16] */;
    add(%97, %98) /* ty=Tensor[(10, 10), float16] span=from_string:131:5 */
  } /* ty=fn (Tensor[(10, 10), float32], Tensor[(10, 10), float32]) -> Tensor[(10, 10), float16] span=from_string:133:101 */;
  let %x_43: Tensor[(10, 10), float16] /* ty=Tensor[(10, 10), float16] span=from_string:134:746 */ = %101(%99, %100) /* ty=Tensor[(10, 10), float16] span=from_string:133:101 */;
  let %x_45: (Tensor[(10, 10), float16], (Tensor[(10, 10), float16], (Tensor[(10, 10), float16],)), (Tensor[(10, 34, 1), float16], Tensor[(10, 38, 1), float16]), Tensor[(10, 34, 1), float16], Tensor[(10, 10), float16], Tensor[(10, 10), float16], Tensor[(1), int32], Tensor[(10, 10), float16], float32) /* ty=(Tensor[(10, 10), float16], (Tensor[(10, 10), float16], (Tensor[(10, 10), float16],)), (Tensor[(10, 34, 1), float16], Tensor[(10, 38, 1), float16]), Tensor[(10, 34, 1), float16], Tensor[(10, 10), float16], Tensor[(10, 10), float16], Tensor[(1), int32], Tensor[(10, 10), float16], float32) span=from_string:135:3 */ = (%x_2, %x_11, %x_16, %x_20, %x_28, %x_32, meta[relay.Constant][1] /* ty=Tensor[(1), int32] span=from_string:134:674 */, %x_43, 0.761594f /* ty=float32 span=from_string:134:762 */) /* ty=(Tensor[(10, 10), float16], (Tensor[(10, 10), float16], (Tensor[(10, 10), float16],)), (Tensor[(10, 34, 1), float16], Tensor[(10, 38, 1), float16]), Tensor[(10, 34, 1), float16], Tensor[(10, 10), float16], Tensor[(10, 10), float16], Tensor[(1), int32], Tensor[(10, 10), float16], float32) span=from_string:134:627 */;
  %x_45
}

#[metadata]
{
  "root": 1, 
  "nodes": [
    {
      "type_key": ""
    }, 
    {
      "type_key": "Map", 
      "keys": [
        "relay.Constant"
      ], 
      "data": [2]
    }, 
    {
      "type_key": "Array", 
      "data": [3, 11]
    }, 
    {
      "type_key": "relay.Constant", 
      "attrs": {
        "_checked_type_": "8", 
        "data": "0", 
        "span": "6", 
        "virtual_device_": "4"
      }
    }, 
    {
      "type_key": "VirtualDevice", 
      "attrs": {
        "device_type_int": "-1", 
        "memory_scope": "5", 
        "target": "0", 
        "virtual_device_id": "-1"
      }
    }, 
    {
      "type_key": "runtime.String"
    }, 
    {
      "type_key": "Span", 
      "attrs": {
        "column": "116", 
        "end_column": "134", 
        "end_line": "74", 
        "line": "74", 
        "source_name": "7"
      }
    }, 
    {
      "type_key": "SourceName", 
      "repr_str": "from_string"
    }, 
    {
      "type_key": "relay.TensorType", 
      "attrs": {
        "dtype": "float32", 
        "shape": "9", 
        "span": "0"
      }
    }, 
    {
      "type_key": "Array", 
      "data": [10]
    }, 
    {
      "type_key": "IntImm", 
      "attrs": {
        "dtype": "int32", 
        "span": "0", 
        "value": "1"
      }
    }, 
    {
      "type_key": "relay.Constant", 
      "attrs": {
        "_checked_type_": "15", 
        "data": "1", 
        "span": "14", 
        "virtual_device_": "12"
      }
    }, 
    {
      "type_key": "VirtualDevice", 
      "attrs": {
        "device_type_int": "-1", 
        "memory_scope": "13", 
        "target": "0", 
        "virtual_device_id": "-1"
      }
    }, 
    {
      "type_key": "runtime.String"
    }, 
    {
      "type_key": "Span", 
      "attrs": {
        "column": "674", 
        "end_column": "692", 
        "end_line": "134", 
        "line": "134", 
        "source_name": "7"
      }
    }, 
    {
      "type_key": "relay.TensorType", 
      "attrs": {
        "dtype": "int32", 
        "shape": "16", 
        "span": "18"
      }
    }, 
    {
      "type_key": "Array", 
      "data": [17]
    }, 
    {
      "type_key": "IntImm", 
      "attrs": {
        "dtype": "int32", 
        "span": "0", 
        "value": "1"
      }
    }, 
    {
      "type_key": "Span", 
      "attrs": {
        "column": "730", 
        "end_column": "750", 
        "end_line": "2", 
        "line": "2", 
        "source_name": "7"
      }
    }
  ], 
  "b64ndarrays": [
    "P6G0lvBAXt0AAAAAAAAAAAEAAAAAAAAAAQAAAAIgAQABAAAAAAAAAAQAAAAAAAAAAAAAAA==", 
    "P6G0lvBAXt0AAAAAAAAAAAEAAAAAAAAAAQAAAAAgAQABAAAAAAAAAAQAAAAAAAAAZAAAAA=="
  ], 
  "attrs": {"tvm_version": "0.13.0"}
}