#[version = "0.0.5"]
def @main(%x0: Tensor[(10, 10), float32] /* ty=Tensor[(10, 10), float32] span=from_string:36:18 */, %x1: Tensor[(34, 10), float32] /* ty=Tensor[(34, 10), float32] span=from_string:14:22 */, %x2: Tensor[(38, 10), float32] /* ty=Tensor[(38, 10), float32] span=from_string:15:22 */, %x3: Tensor[(100), float32] /* ty=Tensor[(100), float32] */, %x4: Tensor[(57), int32] /* ty=Tensor[(57), int32] span=from_string:3:65 */, %x5: Tensor[(30, 10), float32] /* ty=Tensor[(30, 10), float32] span=from_string:27:23 */) -> (Tensor[(10, 10), float32], (Tensor[(10, 10), float32], (Tensor[(10, 10), float32],)), (Tensor[(10, 34, 1), float32], Tensor[(10, 38, 1), float32]), Tensor[(10, 34, 1), float32], Tensor[(10, 10), float32], Tensor[(10, 10), float32], Tensor[(1), int32], Tensor[(10, 10), float32], float32) {
  let %x9: Tensor[(57), int32] /* ty=Tensor[(57), int32] */ = %x4;
  let %x6: Tensor[(10, 10), float32] /* ty=Tensor[(10, 10), float32] span=from_string:37:10 */ = multiply(%x0, %x0);
  let %x7: Tensor[(10, 10), float32] /* ty=Tensor[(10, 10), float32] span=from_string:27:18 */ = ones_like(%x6);
  let %x_0 = add(%x0, %x0);
  let %x_1 = zeros_like(%x0);
  let %x_2 = multiply(%x7, %x0);
  let %x_3 = collapse_sum_like(%x_2, %x0);
  let %x_4 = add(%x_1, %x_3);
  let %x_5 = multiply(%x7, %x0);
  let %x_6 = collapse_sum_like(%x_5, %x0);
  let %x_7 = add(%x_4, %x_6);
  let %x_8 = (%x_7,) /* ty=(Tensor[(10, 10), float32],) span=from_string:37:15 */;
  let %x_9 = (%x6, %x_8) /* ty=(Tensor[(10, 10), float32], (Tensor[(10, 10), float32],)) span=from_string:43:9 */;
  let %x_10 = nn.dense(%x6, %x1, units=None);
  let %x_11 = expand_dims(%x_10, axis=2);
  let %x_12 = nn.dense(%x6, %x2, units=None);
  let %x_13 = expand_dims(%x_12, axis=2);
  let %x_14 = (%x_11, %x_13) /* ty=(Tensor[(10, 34, 1), float32], Tensor[(10, 38, 1), float32]) span=from_string:43:14 */;
  let %x_15 = 1f /* ty=float32 span=from_string:18:20 */;
  let %x_16 = add(%x_11, %x_15);
  let %x_17 = annotation.stop_fusion(%x_16);
  let %x_18 = fast_exp(%x_17);
  let %x_19 = zeros(shape=[1], dtype="float32");
  let %x_20 = add(%x_6, %x_19);
  let %x_21 = 1f /* ty=float32 span=from_string:22:20 */;
  let %x_22 = add(%x_20, %x_21);
  let %x_23 = fast_exp(%x_22);
  let %x_24 = squeeze(%x_23);
  let %x_25 = reshape(%x_22, newshape=[100]);
  let %x_26 = reshape(%x_25, newshape=[10, 10]);
  let %x_27 = reshape(%x_26, newshape=[100]);
  let %x_28 = reshape(%x_27, newshape=[10, 10]);
  let %x_29 = meta[relay.Constant][0] /* ty=Tensor[(1), int32] span=from_string:43:39 */;
  let %x_30 = nn.dense(%x7, %x5, units=None);
  let %x_31 = split(%x_30, indices_or_sections=3, axis=1);
  let %x_32 = %x_31.0;
  let %x_33 = sigmoid(%x_32);
  let %x_34 = %x_31.1;
  let %x_35 = fast_tanh(%x_34);
  let %x_36 = %x_31.2;
  let %x_37 = fast_exp(%x_36);
  let %x_38 = multiply(%x_35, %x_37);
  let %x_39 = add(%x_33, %x_38);
  let %x_40 = 0.761594f /* ty=float32 span=from_string:43:124 */;
  let %x_41 = (%x_0, %x_9, %x_14, %x_18, %x_24, %x_28, %x_29, %x_39, %x_40) /* ty=(Tensor[(10, 10), float32], (Tensor[(10, 10), float32], (Tensor[(10, 10), float32],)), (Tensor[(10, 34, 1), float32], Tensor[(10, 38, 1), float32]), Tensor[(10, 34, 1), float32], Tensor[(10, 10), float32], Tensor[(10, 10), float32], Tensor[(1), int32], Tensor[(10, 10), float32], float32) span=from_string:43:3 */;
  let %x_42 = %x_41;
  let %x_43 = %x_42;
  let %x_44 = %x_43;
  %x_44
}

#[metadata]
{
  "root": 1, 
  "nodes": [
    {
      "type_key": ""
    }, 
    {
      "type_key": "Map", 
      "keys": [
        "relay.Constant"
      ], 
      "data": [2]
    }, 
    {
      "type_key": "Array", 
      "data": [3]
    }, 
    {
      "type_key": "relay.Constant", 
      "attrs": {
        "_checked_type_": "8", 
        "data": "0", 
        "span": "6", 
        "virtual_device_": "4"
      }
    }, 
    {
      "type_key": "VirtualDevice", 
      "attrs": {
        "device_type_int": "-1", 
        "memory_scope": "5", 
        "target": "0", 
        "virtual_device_id": "-1"
      }
    }, 
    {
      "type_key": "runtime.String"
    }, 
    {
      "type_key": "Span", 
      "attrs": {
        "column": "39", 
        "end_column": "57", 
        "end_line": "43", 
        "line": "43", 
        "source_name": "7"
      }
    }, 
    {
      "type_key": "SourceName", 
      "repr_str": "from_string"
    }, 
    {
      "type_key": "relay.TensorType", 
      "attrs": {
        "dtype": "int32", 
        "shape": "9", 
        "span": "11"
      }
    }, 
    {
      "type_key": "Array", 
      "data": [10]
    }, 
    {
      "type_key": "IntImm", 
      "attrs": {
        "dtype": "int32", 
        "span": "0", 
        "value": "1"
      }
    }, 
    {
      "type_key": "Span", 
      "attrs": {
        "column": "748", 
        "end_column": "768", 
        "end_line": "2", 
        "line": "2", 
        "source_name": "7"
      }
    }
  ], 
  "b64ndarrays": [
    "P6G0lvBAXt0AAAAAAAAAAAEAAAAAAAAAAQAAAAAgAQABAAAAAAAAAAQAAAAAAAAAZAAAAA=="
  ], 
  "attrs": {"tvm_version": "0.13.0"}
}