#[version = "0.0.5"]
def @main(%x0: Tensor[(10, 10), float32] /* ty=Tensor[(10, 10), float32] span=from_string:3:13 */, %x1: Tensor[(34, 10), float32] /* ty=Tensor[(34, 10), float32] span=from_string:15:13 */, %x2: Tensor[(38, 10), float32] /* ty=Tensor[(38, 10), float32] span=from_string:17:14 */, %x3: Tensor[(100), float32] /* ty=Tensor[(100), float32] */, %x4: Tensor[(57), int32] /* ty=Tensor[(57), int32] span=from_string:8:65 */, %x5: Tensor[(30, 10), float32] /* ty=Tensor[(30, 10), float32] span=from_string:33:14 */) -> (Tensor[(10, 10), float16], (Tensor[(10, 10), float16], (Tensor[(10, 10), float16],)), (Tensor[(10, 34, 1), float16], Tensor[(10, 38, 1), float16]), Tensor[(10, 34, 1), float32], Tensor[(10, 10), float32], Tensor[(10, 10), float16], Tensor[(1), int32], Tensor[(10, 10), float32], float32) {
  let %x9: Tensor[(57), int32] /* ty=Tensor[(57), int32] */ = %x4;
  let %x_0 = cast(%x0, dtype="float16");
  let %x6: Tensor[(10, 10), float16] /* ty=Tensor[(10, 10), float16] span=from_string:47:10 */ = multiply(%x_0, %x_0);
  let %x7: Tensor[(10, 10), float16] /* ty=Tensor[(10, 10), float16] span=from_string:9:18 */ = ones_like(%x6);
  let %x_1 = add(%x_0, %x_0);
  let %x_2 = zeros_like(%x_0);
  let %x_3 = multiply(%x7, %x_0);
  let %x_4 = collapse_sum_like(%x_3, %x_0);
  let %x_5 = add(%x_2, %x_4);
  let %x_6 = add(%x_5, %x_4);
  let %x_7 = (%x_6,) /* ty=(Tensor[(10, 10), float16],) span=from_string:47:15 */;
  let %x_8 = (%x6, %x_7) /* ty=(Tensor[(10, 10), float16], (Tensor[(10, 10), float16],)) span=from_string:53:9 */;
  let %x_9 = cast(%x1, dtype="float16");
  let %x_10 = nn.dense(%x6, %x_9, units=None, out_dtype="float16");
  let %x_11 = expand_dims(%x_10, axis=2);
  let %x_12 = cast(%x2, dtype="float16");
  let %x_13 = nn.dense(%x6, %x_12, units=None, out_dtype="float16");
  let %x_14 = expand_dims(%x_13, axis=2);
  let %x_15 = (%x_11, %x_14) /* ty=(Tensor[(10, 34, 1), float16], Tensor[(10, 38, 1), float16]) span=from_string:53:14 */;
  let %x_16 = 1f /* ty=float32 span=from_string:21:16 */;
  let %x_17 = cast(%x_16, dtype="float16");
  let %x_18 = add(%x_11, %x_17);
  let %x_19 = annotation.stop_fusion(%x_18);
  let %x_20 = cast(%x_19, dtype="float32");
  let %x_21 = exp(%x_20);
  let %x_22 = zeros(shape=[1], dtype="float16");
  let %x_23 = add(%x_4, %x_22);
  let %x_24 = add(%x_23, %x_17);
  let %x_25 = cast(%x_24, dtype="float32");
  let %x_26 = exp(%x_25);
  let %x_27 = squeeze(%x_26);
  let %x_28 = reshape(%x_24, newshape=[100]);
  let %x_29 = reshape(%x_28, newshape=[10, 10]);
  let %x_30 = reshape(%x_29, newshape=[100]);
  let %x_31 = reshape(%x_30, newshape=[10, 10]);
  let %x_32 = meta[relay.Constant][0] /* ty=Tensor[(1), int32] span=from_string:53:39 */;
  let %x_33 = cast(%x5, dtype="float16");
  let %x_34 = nn.dense(%x7, %x_33, units=None, out_dtype="float16");
  let %x_35 = split(%x_34, indices_or_sections=3, axis=1);
  let %x_36 = %x_35.0;
  let %x_37 = sigmoid(%x_36);
  let %x_38 = cast(%x_37, dtype="float32");
  let %x_39 = %x_35.1;
  let %x_40 = tanh(%x_39);
  let %x_41 = cast(%x_40, dtype="float32");
  let %x_42 = %x_35.2;
  let %x_43 = cast(%x_42, dtype="float32");
  let %x_44 = exp(%x_43);
  let %x_45 = multiply(%x_41, %x_44);
  let %x_46 = add(%x_38, %x_45);
  let %x_47 = 0.761594f /* ty=float32 span=from_string:53:124 */;
  let %x_48 = (%x_1, %x_8, %x_15, %x_21, %x_27, %x_31, %x_32, %x_46, %x_47) /* ty=(Tensor[(10, 10), float16], (Tensor[(10, 10), float16], (Tensor[(10, 10), float16],)), (Tensor[(10, 34, 1), float16], Tensor[(10, 38, 1), float16]), Tensor[(10, 34, 1), float32], Tensor[(10, 10), float32], Tensor[(10, 10), float16], Tensor[(1), int32], Tensor[(10, 10), float32], float32) span=from_string:53:3 */;
  let %x_49 = %x_48;
  let %x_50 = %x_49;
  let %x_51 = %x_50;
  %x_51
}

#[metadata]
{
  "root": 1, 
  "nodes": [
    {
      "type_key": ""
    }, 
    {
      "type_key": "Map", 
      "keys": [
        "relay.Constant"
      ], 
      "data": [2]
    }, 
    {
      "type_key": "Array", 
      "data": [3]
    }, 
    {
      "type_key": "relay.Constant", 
      "attrs": {
        "_checked_type_": "8", 
        "data": "0", 
        "span": "6", 
        "virtual_device_": "4"
      }
    }, 
    {
      "type_key": "VirtualDevice", 
      "attrs": {
        "device_type_int": "-1", 
        "memory_scope": "5", 
        "target": "0", 
        "virtual_device_id": "-1"
      }
    }, 
    {
      "type_key": "runtime.String"
    }, 
    {
      "type_key": "Span", 
      "attrs": {
        "column": "39", 
        "end_column": "57", 
        "end_line": "53", 
        "line": "53", 
        "source_name": "7"
      }
    }, 
    {
      "type_key": "SourceName", 
      "repr_str": "from_string"
    }, 
    {
      "type_key": "relay.TensorType", 
      "attrs": {
        "dtype": "int32", 
        "shape": "9", 
        "span": "11"
      }
    }, 
    {
      "type_key": "Array", 
      "data": [10]
    }, 
    {
      "type_key": "IntImm", 
      "attrs": {
        "dtype": "int32", 
        "span": "0", 
        "value": "1"
      }
    }, 
    {
      "type_key": "Span", 
      "attrs": {
        "column": "747", 
        "end_column": "767", 
        "end_line": "2", 
        "line": "2", 
        "source_name": "7"
      }
    }
  ], 
  "b64ndarrays": [
    "P6G0lvBAXt0AAAAAAAAAAAEAAAAAAAAAAQAAAAAgAQABAAAAAAAAAAQAAAAAAAAAZAAAAA=="
  ], 
  "attrs": {"tvm_version": "0.13.0"}
}