#[version = "0.0.5"]
def @main(%x0: Tensor[(10, 10), float32] /* ty=Tensor[(10, 10), float32] span=from_string:3:13 */, %x1: Tensor[(34, 10), float32] /* ty=Tensor[(34, 10), float32] span=from_string:13:14 */, %x2: Tensor[(38, 10), float32] /* ty=Tensor[(38, 10), float32] span=from_string:15:14 */, %x3: Tensor[(100), float32] /* ty=Tensor[(100), float32] */, %x4: Tensor[(57), int32] /* ty=Tensor[(57), int32] */, %x5: Tensor[(30, 10), float32] /* ty=Tensor[(30, 10), float32] span=from_string:27:14 */) -> (Tensor[(10, 10), float16], (Tensor[(10, 10), float16], (Tensor[(10, 10), float16],)), (Tensor[(10, 34, 1), float16], Tensor[(10, 38, 1), float16]), Tensor[(10, 34, 1), float32], Tensor[(10, 10), float32], Tensor[(10, 10), float16], Tensor[(1), int32], Tensor[(10, 10), float32], float32) {
  %1 = fn (%p01: Tensor[(10, 10), float32] /* ty=Tensor[(10, 10), float32] */, Primitive=1) -> Tensor[(10, 10), float16] {
    cast(%p01, dtype="float16") /* ty=Tensor[(10, 10), float16] span=from_string:40:19 */
  } /* ty=fn (Tensor[(10, 10), float32]) -> Tensor[(10, 10), float16] */;
  %2 = %1(%x0) /* ty=Tensor[(10, 10), float16] */;
  %3 = fn (%p0: Tensor[(10, 10), float16] /* ty=Tensor[(10, 10), float16] */, Primitive=1) -> Tensor[(10, 10), float16] {
    %0 = cast(2f /* ty=float32 span=from_string:4:15 */, dtype="float16") /* ty=float16 span=from_string:40:23 */;
    multiply(%p0, %0) /* ty=Tensor[(10, 10), float16] span=from_string:47:4 */
  } /* ty=fn (Tensor[(10, 10), float16]) -> Tensor[(10, 10), float16] */;
  %4 = fn (%p02: Tensor[(10, 10), float16] /* ty=Tensor[(10, 10), float16] */, Primitive=1) -> Tensor[(10, 10), float16] {
    multiply(%p02, %p02) /* ty=Tensor[(10, 10), float16] span=from_string:41:10 */
  } /* ty=fn (Tensor[(10, 10), float16]) -> Tensor[(10, 10), float16] */;
  %6 = fn (Primitive=1) -> Tensor[(10, 10), float16] {
    ones(shape=[10, 10], dtype="float16") /* ty=Tensor[(10, 10), float16] span=from_string:28:18 */
  } /* ty=fn () -> Tensor[(10, 10), float16] */;
  %7 = %6() /* ty=Tensor[(10, 10), float16] */;
  %8 = fn (%p04: Tensor[(10, 10), float16] /* ty=Tensor[(10, 10), float16] */, %p11: Tensor[(10, 10), float16] /* ty=Tensor[(10, 10), float16] */, %p2: Tensor[(2), int32] /* ty=Tensor[(2), int32] */, Primitive=1) -> Tensor[(10, 10), float16] {
    %5 = multiply(%p04, %p11) /* ty=Tensor[(10, 10), float16] span=from_string:8:24 */;
    collapse_sum_to(%5, %p2, meta[relay.attrs.InitOpAttrs][0]) /* ty=Tensor[(10, 10), float16] span=from_string:10:12 */
  } /* ty=fn (Tensor[(10, 10), float16], Tensor[(10, 10), float16], Tensor[(2), int32]) -> Tensor[(10, 10), float16] */;
  %10 = fn (%p05: Tensor[(10, 10), float16] /* ty=Tensor[(10, 10), float16] */, %p12: Tensor[(10, 10), float16] /* ty=Tensor[(10, 10), float16] */, %p21: Tensor[(2), int32] /* ty=Tensor[(2), int32] */, Primitive=1) -> Tensor[(10, 10), float16] {
    %9 = multiply(%p05, %p12) /* ty=Tensor[(10, 10), float16] span=from_string:9:24 */;
    collapse_sum_to(%9, %p21, meta[relay.attrs.InitOpAttrs][1]) /* ty=Tensor[(10, 10), float16] span=from_string:24:13 */
  } /* ty=fn (Tensor[(10, 10), float16], Tensor[(10, 10), float16], Tensor[(2), int32]) -> Tensor[(10, 10), float16] */;
  %11 = %8(%7, %2, meta[relay.Constant][0] /* ty=Tensor[(2), int32] span=from_string:8:33 */) /* ty=Tensor[(10, 10), float16] */;
  %12 = %10(%7, %2, meta[relay.Constant][1] /* ty=Tensor[(2), int32] span=from_string:9:33 */) /* ty=Tensor[(10, 10), float16] */;
  %13 = fn (%p03: Tensor[(10, 10), float16] /* ty=Tensor[(10, 10), float16] */, %p1: Tensor[(10, 10), float16] /* ty=Tensor[(10, 10), float16] */, Primitive=1) -> Tensor[(10, 10), float16] {
    add(%p03, %p1) /* ty=Tensor[(10, 10), float16] span=from_string:12:9 */
  } /* ty=fn (Tensor[(10, 10), float16], Tensor[(10, 10), float16]) -> Tensor[(10, 10), float16] */;
  %14 = %13(%11, %12) /* ty=Tensor[(10, 10), float16] */;
  %15 = %4(%2) /* ty=Tensor[(10, 10), float16] */;
  %16 = (%14,) /* ty=(Tensor[(10, 10), float16],) span=from_string:41:14 */;
  %17 = fn (%p08: Tensor[(34, 10), float32] /* ty=Tensor[(34, 10), float32] */, Primitive=1) -> Tensor[(34, 10), float16] {
    cast(%p08, dtype="float16") /* ty=Tensor[(34, 10), float16] span=from_string:14:22 */
  } /* ty=fn (Tensor[(34, 10), float32]) -> Tensor[(34, 10), float16] */;
  %18 = %17(%x1) /* ty=Tensor[(34, 10), float16] */;
  %19 = fn (%p07: Tensor[(10, 10), float16] /* ty=Tensor[(10, 10), float16] */, %p13: Tensor[(34, 10), float16] /* ty=Tensor[(34, 10), float16] */, Primitive=1) -> Tensor[(10, 34), float16] {
    nn.dense(%p07, %p13, units=None, out_dtype="float16") /* ty=Tensor[(10, 34), float16] span=from_string:17:21 */
  } /* ty=fn (Tensor[(10, 10), float16], Tensor[(34, 10), float16]) -> Tensor[(10, 34), float16] */;
  %20 = %19(%15, %18) /* ty=Tensor[(10, 34), float16] */;
  %21 = fn (%p06: Tensor[(10, 34), float16] /* ty=Tensor[(10, 34), float16] */, Primitive=1, relay.reshape_only=1) -> Tensor[(10, 34, 1), float16] {
    expand_dims(%p06, axis=2) /* ty=Tensor[(10, 34, 1), float16] span=from_string:42:10 */
  } /* ty=fn (Tensor[(10, 34), float16]) -> Tensor[(10, 34, 1), float16] */;
  %22 = fn (%p011: Tensor[(38, 10), float32] /* ty=Tensor[(38, 10), float32] */, Primitive=1) -> Tensor[(38, 10), float16] {
    cast(%p011, dtype="float16") /* ty=Tensor[(38, 10), float16] span=from_string:16:22 */
  } /* ty=fn (Tensor[(38, 10), float32]) -> Tensor[(38, 10), float16] */;
  %23 = %22(%x2) /* ty=Tensor[(38, 10), float16] */;
  %24 = fn (%p010: Tensor[(10, 10), float16] /* ty=Tensor[(10, 10), float16] */, %p14: Tensor[(38, 10), float16] /* ty=Tensor[(38, 10), float16] */, Primitive=1) -> Tensor[(10, 38), float16] {
    nn.dense(%p010, %p14, units=None, out_dtype="float16") /* ty=Tensor[(10, 38), float16] span=from_string:18:21 */
  } /* ty=fn (Tensor[(10, 10), float16], Tensor[(38, 10), float16]) -> Tensor[(10, 38), float16] */;
  %25 = %24(%15, %23) /* ty=Tensor[(10, 38), float16] */;
  %26 = fn (%p09: Tensor[(10, 38), float16] /* ty=Tensor[(10, 38), float16] */, Primitive=1, relay.reshape_only=1) -> Tensor[(10, 38, 1), float16] {
    expand_dims(%p09, axis=2) /* ty=Tensor[(10, 38, 1), float16] span=from_string:42:15 */
  } /* ty=fn (Tensor[(10, 38), float16]) -> Tensor[(10, 38, 1), float16] */;
  %27 = %21(%20) /* ty=Tensor[(10, 34, 1), float16] */;
  %28 = %26(%25) /* ty=Tensor[(10, 38, 1), float16] */;
  %31 = fn (%p013: Tensor[(10, 34, 1), float16] /* ty=Tensor[(10, 34, 1), float16] */, Primitive=1) -> Tensor[(10, 34, 1), float16] {
    %30 = cast(1f /* ty=float32 span=from_string:19:16 */, dtype="float16") /* ty=float16 span=from_string:20:18 */;
    add(%p013, %30) /* ty=Tensor[(10, 34, 1), float16] span=from_string:21:32 */
  } /* ty=fn (Tensor[(10, 34, 1), float16]) -> Tensor[(10, 34, 1), float16] */;
  %32 = %31(%27) /* ty=Tensor[(10, 34, 1), float16] */;
  %33 = fn (%p012: Tensor[(10, 34, 1), float16] /* ty=Tensor[(10, 34, 1), float16] */, Primitive=1) -> Tensor[(10, 34, 1), float32] {
    %29 = cast(%p012, dtype="float32") /* ty=Tensor[(10, 34, 1), float32] span=from_string:43:13 */;
    exp(%29) /* ty=Tensor[(10, 34, 1), float32] span=from_string:47:19 */
  } /* ty=fn (Tensor[(10, 34, 1), float16]) -> Tensor[(10, 34, 1), float32] */;
  %37 = fn (%p015: Tensor[(10, 10), float16] /* ty=Tensor[(10, 10), float16] */, Primitive=1) -> Tensor[(10, 10), float16] {
    %36 = cast(1f /* ty=float32 span=from_string:23:16 */, dtype="float16") /* ty=float16 span=from_string:24:17 */;
    add(%p015, %36) /* ty=Tensor[(10, 10), float16] span=from_string:45:17 */
  } /* ty=fn (Tensor[(10, 10), float16]) -> Tensor[(10, 10), float16] */;
  %38 = %37(%12) /* ty=Tensor[(10, 10), float16] */;
  %39 = fn (%p014: Tensor[(10, 10), float16] /* ty=Tensor[(10, 10), float16] */, Primitive=1) -> Tensor[(10, 10), float32] {
    %34 = cast(%p014, dtype="float32") /* ty=Tensor[(10, 10), float32] span=from_string:26:13 */;
    %35 = exp(%34) /* ty=Tensor[(10, 10), float32] span=from_string:44:17 */;
    squeeze(%35) /* ty=Tensor[(10, 10), float32] span=from_string:47:24 */
  } /* ty=fn (Tensor[(10, 10), float16]) -> Tensor[(10, 10), float32] */;
  %40 = fn (%p016: Tensor[(10, 10), float16] /* ty=Tensor[(10, 10), float16] */, Primitive=1, relay.reshape_only=1) -> Tensor[(10, 10), float16] {
    reshape(%p016, newshape=[10, 10]) /* ty=Tensor[(10, 10), float16] span=from_string:47:29 */
  } /* ty=fn (Tensor[(10, 10), float16]) -> Tensor[(10, 10), float16] */;
  %52 = fn (%p019: Tensor[(30, 10), float32] /* ty=Tensor[(30, 10), float32] */, Primitive=1) -> Tensor[(30, 10), float16] {
    cast(%p019, dtype="float16") /* ty=Tensor[(30, 10), float16] span=from_string:28:22 */
  } /* ty=fn (Tensor[(30, 10), float32]) -> Tensor[(30, 10), float16] */;
  %53 = %52(%x5) /* ty=Tensor[(30, 10), float16] */;
  %54 = fn (%p018: Tensor[(10, 10), float16] /* ty=Tensor[(10, 10), float16] */, %p15: Tensor[(30, 10), float16] /* ty=Tensor[(30, 10), float16] */, Primitive=1) -> Tensor[(10, 30), float16] {
    nn.dense(%p018, %p15, units=None, out_dtype="float16") /* ty=Tensor[(10, 30), float16] span=from_string:29:15 */
  } /* ty=fn (Tensor[(10, 10), float16], Tensor[(30, 10), float16]) -> Tensor[(10, 30), float16] */;
  %55 = %54(%7, %53) /* ty=Tensor[(10, 30), float16] */;
  %56 = fn (%p017: Tensor[(10, 30), float16] /* ty=Tensor[(10, 30), float16] */, Primitive=1) -> Tensor[(10, 10), float32] {
    %41 = split(%p017, indices_or_sections=3, axis=1) /* ty=(Tensor[(10, 10), float16], Tensor[(10, 10), float16], Tensor[(10, 10), float16]) span=from_string:34:9 */;
    %42 = %41.0 /* ty=Tensor[(10, 10), float16] */;
    %43 = sigmoid(%42) /* ty=Tensor[(10, 10), float16] span=from_string:38:14 */;
    %44 = %41.1 /* ty=Tensor[(10, 10), float16] */;
    %45 = tanh(%44) /* ty=Tensor[(10, 10), float16] span=from_string:36:14 */;
    %46 = %41.2 /* ty=Tensor[(10, 10), float16] */;
    %47 = cast(%46, dtype="float32") /* ty=Tensor[(10, 10), float32] span=from_string:37:13 */;
    %48 = cast(%45, dtype="float32") /* ty=Tensor[(10, 10), float32] span=from_string:39:19 */;
    %49 = exp(%47) /* ty=Tensor[(10, 10), float32] span=from_string:39:24 */;
    %50 = cast(%43, dtype="float32") /* ty=Tensor[(10, 10), float32] span=from_string:46:13 */;
    %51 = multiply(%48, %49) /* ty=Tensor[(10, 10), float32] span=from_string:46:18 */;
    add(%50, %51) /* ty=Tensor[(10, 10), float32] span=from_string:47:110 */
  } /* ty=fn (Tensor[(10, 30), float16]) -> Tensor[(10, 10), float32] */;
  %57 = %3(%2) /* ty=Tensor[(10, 10), float16] */;
  %58 = (%15, %16) /* ty=(Tensor[(10, 10), float16], (Tensor[(10, 10), float16],)) span=from_string:47:9 */;
  %59 = (%27, %28) /* ty=(Tensor[(10, 34, 1), float16], Tensor[(10, 38, 1), float16]) span=from_string:47:14 */;
  %60 = %33(%32) /* ty=Tensor[(10, 34, 1), float32] */;
  %61 = %39(%38) /* ty=Tensor[(10, 10), float32] */;
  %62 = %40(%38) /* ty=Tensor[(10, 10), float16] */;
  %63 = %56(%55) /* ty=Tensor[(10, 10), float32] */;
  (%57, %58, %59, %60, %61, %62, meta[relay.Constant][2] /* ty=Tensor[(1), int32] span=from_string:47:39 */, %63, 0.761594f /* ty=float32 span=from_string:47:124 */) /* ty=(Tensor[(10, 10), float16], (Tensor[(10, 10), float16], (Tensor[(10, 10), float16],)), (Tensor[(10, 34, 1), float16], Tensor[(10, 38, 1), float16]), Tensor[(10, 34, 1), float32], Tensor[(10, 10), float32], Tensor[(10, 10), float16], Tensor[(1), int32], Tensor[(10, 10), float32], float32) span=from_string:3:3 */
}

#[metadata]
{
  "root": 1, 
  "nodes": [
    {
      "type_key": ""
    }, 
    {
      "type_key": "Map", 
      "keys": [
        "relay.Constant", 
        "relay.attrs.InitOpAttrs"
      ], 
      "data": [2, 24]
    }, 
    {
      "type_key": "Array", 
      "data": [3, 11, 16]
    }, 
    {
      "type_key": "relay.Constant", 
      "attrs": {
        "_checked_type_": "8", 
        "data": "0", 
        "span": "6", 
        "virtual_device_": "4"
      }
    }, 
    {
      "type_key": "VirtualDevice", 
      "attrs": {
        "device_type_int": "-1", 
        "memory_scope": "5", 
        "target": "0", 
        "virtual_device_id": "-1"
      }
    }, 
    {
      "type_key": "runtime.String"
    }, 
    {
      "type_key": "Span", 
      "attrs": {
        "column": "33", 
        "end_column": "51", 
        "end_line": "8", 
        "line": "8", 
        "source_name": "7"
      }
    }, 
    {
      "type_key": "SourceName", 
      "repr_str": "from_string"
    }, 
    {
      "type_key": "relay.TensorType", 
      "attrs": {
        "dtype": "int32", 
        "shape": "9", 
        "span": "0"
      }
    }, 
    {
      "type_key": "Array", 
      "data": [10]
    }, 
    {
      "type_key": "IntImm", 
      "attrs": {
        "dtype": "int32", 
        "span": "0", 
        "value": "2"
      }
    }, 
    {
      "type_key": "relay.Constant", 
      "attrs": {
        "_checked_type_": "13", 
        "data": "1", 
        "span": "12", 
        "virtual_device_": "4"
      }
    }, 
    {
      "type_key": "Span", 
      "attrs": {
        "column": "33", 
        "end_column": "51", 
        "end_line": "9", 
        "line": "9", 
        "source_name": "7"
      }
    }, 
    {
      "type_key": "relay.TensorType", 
      "attrs": {
        "dtype": "int32", 
        "shape": "14", 
        "span": "0"
      }
    }, 
    {
      "type_key": "Array", 
      "data": [15]
    }, 
    {
      "type_key": "IntImm", 
      "attrs": {
        "dtype": "int32", 
        "span": "0", 
        "value": "2"
      }
    }, 
    {
      "type_key": "relay.Constant", 
      "attrs": {
        "_checked_type_": "20", 
        "data": "2", 
        "span": "19", 
        "virtual_device_": "17"
      }
    }, 
    {
      "type_key": "VirtualDevice", 
      "attrs": {
        "device_type_int": "-1", 
        "memory_scope": "18", 
        "target": "0", 
        "virtual_device_id": "-1"
      }
    }, 
    {
      "type_key": "runtime.String"
    }, 
    {
      "type_key": "Span", 
      "attrs": {
        "column": "39", 
        "end_column": "57", 
        "end_line": "47", 
        "line": "47", 
        "source_name": "7"
      }
    }, 
    {
      "type_key": "relay.TensorType", 
      "attrs": {
        "dtype": "int32", 
        "shape": "21", 
        "span": "23"
      }
    }, 
    {
      "type_key": "Array", 
      "data": [22]
    }, 
    {
      "type_key": "IntImm", 
      "attrs": {
        "dtype": "int32", 
        "span": "0", 
        "value": "1"
      }
    }, 
    {
      "type_key": "Span", 
      "attrs": {
        "column": "747", 
        "end_column": "767", 
        "end_line": "2", 
        "line": "2", 
        "source_name": "7"
      }
    }, 
    {
      "type_key": "Array", 
      "data": [25, 29]
    }, 
    {
      "type_key": "relay.attrs.InitOpAttrs", 
      "attrs": {
        "dtype": "float16", 
        "shape": "26"
      }
    }, 
    {
      "type_key": "Array", 
      "data": [27, 28]
    }, 
    {
      "type_key": "IntImm", 
      "attrs": {
        "dtype": "int32", 
        "span": "0", 
        "value": "10"
      }
    }, 
    {
      "type_key": "IntImm", 
      "attrs": {
        "dtype": "int32", 
        "span": "0", 
        "value": "10"
      }
    }, 
    {
      "type_key": "relay.attrs.InitOpAttrs", 
      "attrs": {
        "dtype": "float16", 
        "shape": "30"
      }
    }, 
    {
      "type_key": "Array", 
      "data": [27, 28]
    }
  ], 
  "b64ndarrays": [
    "P6G0lvBAXt0AAAAAAAAAAAEAAAAAAAAAAQAAAAAgAQACAAAAAAAAAAgAAAAAAAAACgAAAAoAAAA=", 
    "P6G0lvBAXt0AAAAAAAAAAAEAAAAAAAAAAQAAAAAgAQACAAAAAAAAAAgAAAAAAAAACgAAAAoAAAA=", 
    "P6G0lvBAXt0AAAAAAAAAAAEAAAAAAAAAAQAAAAAgAQABAAAAAAAAAAQAAAAAAAAAZAAAAA=="
  ], 
  "attrs": {"tvm_version": "0.13.0"}
}