#[version = "0.0.5"]
def @main(%x0: Tensor[(10, 10), float32] /* ty=Tensor[(10, 10), float32] span=from_string:6:19 */, %x1: Tensor[(34, 10), float32] /* ty=Tensor[(34, 10), float32] span=from_string:41:21 */, %x2: Tensor[(38, 10), float32] /* ty=Tensor[(38, 10), float32] span=from_string:53:21 */, %x3: Tensor[(100), float32] /* ty=Tensor[(100), float32] */, %x4: Tensor[(57), int32] /* ty=Tensor[(57), int32] */, %x5: Tensor[(30, 10), float32] /* ty=Tensor[(30, 10), float32] span=from_string:92:21 */) -> (Tensor[(10, 10), float16], (Tensor[(10, 10), float16], (Tensor[(10, 10), float16],)), (Tensor[(10, 34, 1), float16], Tensor[(10, 38, 1), float16]), Tensor[(10, 34, 1), float32], Tensor[(10, 10), float32], Tensor[(10, 10), float16], Tensor[(1), int32], Tensor[(10, 10), float32], float32) {
  %1 = fn (%p01: Tensor[(10, 10), float32] /* ty=Tensor[(10, 10), float32] span=from_string:4:10 */, Primitive=1) -> Tensor[(10, 10), float16] {
    cast(%p01, dtype="float16") /* ty=Tensor[(10, 10), float16] span=from_string:4:5 */
  } /* ty=fn (Tensor[(10, 10), float32]) -> Tensor[(10, 10), float16] span=from_string:3:3 */;
  %2 = %1(%x0) /* ty=Tensor[(10, 10), float16] span=from_string:6:14 */;
  %3 = fn (%p02: Tensor[(10, 10), float16] /* ty=Tensor[(10, 10), float16] span=from_string:17:15 */, Primitive=1) -> Tensor[(10, 10), float16] {
    %0 = cast(2f /* ty=float32 span=from_string:16:17 */, dtype="float16") /* ty=float16 span=from_string:17:21 */;
    multiply(%p02, %0) /* ty=Tensor[(10, 10), float16] span=from_string:16:5 */
  } /* ty=fn (Tensor[(10, 10), float16]) -> Tensor[(10, 10), float16] span=from_string:15:3 */;
  %4 = fn (%p0: Tensor[(10, 10), float16] /* ty=Tensor[(10, 10), float16] span=from_string:8:20 */, Primitive=1) -> Tensor[(10, 10), float16] {
    multiply(%p0, %p0) /* ty=Tensor[(10, 10), float16] span=from_string:8:6 */
  } /* ty=fn (Tensor[(10, 10), float16]) -> Tensor[(10, 10), float16] span=from_string:7:3 */;
  %6 = fn (Primitive=1) -> Tensor[(10, 10), float16] {
    ones(shape=[10, 10], dtype="float16") /* ty=Tensor[(10, 10), float16] span=from_string:12:5 */
  } /* ty=fn () -> Tensor[(10, 10), float16] span=from_string:11:3 */;
  %7 = %6() /* ty=Tensor[(10, 10), float16] span=from_string:14:98 */;
  %8 = fn (%p04: Tensor[(10, 10), float16] /* ty=Tensor[(10, 10), float16] span=from_string:22:20 */, %p11: Tensor[(10, 10), float16] /* ty=Tensor[(10, 10), float16] span=from_string:22:26 */, %p2: Tensor[(2), int32] /* ty=Tensor[(2), int32] span=from_string:23:25 */, Primitive=1) -> Tensor[(10, 10), float16] {
    %5 = multiply(%p04, %p11) /* ty=Tensor[(10, 10), float16] span=from_string:23:21 */;
    collapse_sum_to(%5, %p2, meta[relay.attrs.InitOpAttrs][0]) /* ty=Tensor[(10, 10), float16] span=from_string:22:5 */
  } /* ty=fn (Tensor[(10, 10), float16], Tensor[(10, 10), float16], Tensor[(2), int32]) -> Tensor[(10, 10), float16] span=from_string:21:3 */;
  %10 = fn (%p05: Tensor[(10, 10), float16] /* ty=Tensor[(10, 10), float16] span=from_string:28:20 */, %p12: Tensor[(10, 10), float16] /* ty=Tensor[(10, 10), float16] span=from_string:28:26 */, %p21: Tensor[(2), int32] /* ty=Tensor[(2), int32] span=from_string:29:25 */, Primitive=1) -> Tensor[(10, 10), float16] {
    %9 = multiply(%p05, %p12) /* ty=Tensor[(10, 10), float16] span=from_string:29:21 */;
    collapse_sum_to(%9, %p21, meta[relay.attrs.InitOpAttrs][1]) /* ty=Tensor[(10, 10), float16] span=from_string:28:5 */
  } /* ty=fn (Tensor[(10, 10), float16], Tensor[(10, 10), float16], Tensor[(2), int32]) -> Tensor[(10, 10), float16] span=from_string:27:3 */;
  %11 = %8(%7, %2, meta[relay.Constant][0] /* ty=Tensor[(2), int32] span=from_string:20:19 */) /* ty=Tensor[(10, 10), float16] span=from_string:25:14 */;
  %12 = %10(%7, %2, meta[relay.Constant][1] /* ty=Tensor[(2), int32] span=from_string:26:19 */) /* ty=Tensor[(10, 10), float16] span=from_string:31:15 */;
  %13 = fn (%p03: Tensor[(10, 10), float16] /* ty=Tensor[(10, 10), float16] span=from_string:33:9 */, %p1: Tensor[(10, 10), float16] /* ty=Tensor[(10, 10), float16] span=from_string:33:15 */, Primitive=1) -> Tensor[(10, 10), float16] {
    add(%p03, %p1) /* ty=Tensor[(10, 10), float16] span=from_string:33:5 */
  } /* ty=fn (Tensor[(10, 10), float16], Tensor[(10, 10), float16]) -> Tensor[(10, 10), float16] span=from_string:32:3 */;
  %14 = %13(%11, %12) /* ty=Tensor[(10, 10), float16] span=from_string:35:15 */;
  %15 = %4(%2) /* ty=Tensor[(10, 10), float16] span=from_string:10:99 */;
  %16 = (%14,) /* ty=(Tensor[(10, 10), float16],) span=from_string:36:15 */;
  %17 = fn (%p08: Tensor[(34, 10), float32] /* ty=Tensor[(34, 10), float32] span=from_string:39:10 */, Primitive=1) -> Tensor[(34, 10), float16] {
    cast(%p08, dtype="float16") /* ty=Tensor[(34, 10), float16] span=from_string:39:5 */
  } /* ty=fn (Tensor[(34, 10), float32]) -> Tensor[(34, 10), float16] span=from_string:38:3 */;
  %18 = %17(%x1) /* ty=Tensor[(34, 10), float16] span=from_string:41:15 */;
  %19 = fn (%p07: Tensor[(10, 10), float16] /* ty=Tensor[(10, 10), float16] span=from_string:43:14 */, %p13: Tensor[(34, 10), float16] /* ty=Tensor[(34, 10), float16] span=from_string:43:20 */, Primitive=1) -> Tensor[(10, 34), float16] {
    nn.dense(%p07, %p13, units=None, out_dtype="float16") /* ty=Tensor[(10, 34), float16] span=from_string:43:5 */
  } /* ty=fn (Tensor[(10, 10), float16], Tensor[(34, 10), float16]) -> Tensor[(10, 34), float16] span=from_string:42:3 */;
  %20 = %19(%15, %18) /* ty=Tensor[(10, 34), float16] span=from_string:45:15 */;
  %21 = fn (%p06: Tensor[(10, 34), float16] /* ty=Tensor[(10, 34), float16] span=from_string:47:17 */, Primitive=1, relay.reshape_only=1) -> Tensor[(10, 34, 1), float16] {
    expand_dims(%p06, axis=2) /* ty=Tensor[(10, 34, 1), float16] span=from_string:47:5 */
  } /* ty=fn (Tensor[(10, 34), float16]) -> Tensor[(10, 34, 1), float16] span=from_string:46:3 */;
  %22 = fn (%p011: Tensor[(38, 10), float32] /* ty=Tensor[(38, 10), float32] span=from_string:51:10 */, Primitive=1) -> Tensor[(38, 10), float16] {
    cast(%p011, dtype="float16") /* ty=Tensor[(38, 10), float16] span=from_string:51:5 */
  } /* ty=fn (Tensor[(38, 10), float32]) -> Tensor[(38, 10), float16] span=from_string:50:3 */;
  %23 = %22(%x2) /* ty=Tensor[(38, 10), float16] span=from_string:53:15 */;
  %24 = fn (%p010: Tensor[(10, 10), float16] /* ty=Tensor[(10, 10), float16] span=from_string:55:14 */, %p14: Tensor[(38, 10), float16] /* ty=Tensor[(38, 10), float16] span=from_string:55:21 */, Primitive=1) -> Tensor[(10, 38), float16] {
    nn.dense(%p010, %p14, units=None, out_dtype="float16") /* ty=Tensor[(10, 38), float16] span=from_string:55:5 */
  } /* ty=fn (Tensor[(10, 10), float16], Tensor[(38, 10), float16]) -> Tensor[(10, 38), float16] span=from_string:54:3 */;
  %25 = %24(%15, %23) /* ty=Tensor[(10, 38), float16] span=from_string:57:15 */;
  %26 = fn (%p09: Tensor[(10, 38), float16] /* ty=Tensor[(10, 38), float16] span=from_string:59:17 */, Primitive=1, relay.reshape_only=1) -> Tensor[(10, 38, 1), float16] {
    expand_dims(%p09, axis=2) /* ty=Tensor[(10, 38, 1), float16] span=from_string:59:5 */
  } /* ty=fn (Tensor[(10, 38), float16]) -> Tensor[(10, 38, 1), float16] span=from_string:58:3 */;
  %27 = %21(%20) /* ty=Tensor[(10, 34, 1), float16] span=from_string:49:15 */;
  %28 = %26(%25) /* ty=Tensor[(10, 38, 1), float16] span=from_string:61:15 */;
  %31 = fn (%p013: Tensor[(10, 34, 1), float16] /* ty=Tensor[(10, 34, 1), float16] span=from_string:65:9 */, Primitive=1) -> Tensor[(10, 34, 1), float16] {
    %30 = cast(1f /* ty=float32 span=from_string:64:17 */, dtype="float16") /* ty=float16 span=from_string:65:16 */;
    add(%p013, %30) /* ty=Tensor[(10, 34, 1), float16] span=from_string:64:5 */
  } /* ty=fn (Tensor[(10, 34, 1), float16]) -> Tensor[(10, 34, 1), float16] span=from_string:63:3 */;
  %32 = %31(%27) /* ty=Tensor[(10, 34, 1), float16] span=from_string:67:15 */;
  %33 = fn (%p012: Tensor[(10, 34, 1), float16] /* ty=Tensor[(10, 34, 1), float16] span=from_string:69:15 */, Primitive=1) -> Tensor[(10, 34, 1), float32] {
    %29 = cast(%p012, dtype="float32") /* ty=Tensor[(10, 34, 1), float32] span=from_string:70:9 */;
    exp(%29) /* ty=Tensor[(10, 34, 1), float32] span=from_string:69:5 */
  } /* ty=fn (Tensor[(10, 34, 1), float16]) -> Tensor[(10, 34, 1), float32] span=from_string:68:3 */;
  %37 = fn (%p015: Tensor[(10, 10), float16] /* ty=Tensor[(10, 10), float16] span=from_string:75:9 */, Primitive=1) -> Tensor[(10, 10), float16] {
    %36 = cast(1f /* ty=float32 span=from_string:74:17 */, dtype="float16") /* ty=float16 span=from_string:75:16 */;
    add(%p015, %36) /* ty=Tensor[(10, 10), float16] span=from_string:74:5 */
  } /* ty=fn (Tensor[(10, 10), float16]) -> Tensor[(10, 10), float16] span=from_string:73:3 */;
  %38 = %37(%12) /* ty=Tensor[(10, 10), float16] span=from_string:77:15 */;
  %39 = fn (%p014: Tensor[(10, 10), float16] /* ty=Tensor[(10, 10), float16] span=from_string:79:15 */, Primitive=1) -> Tensor[(10, 10), float32] {
    %34 = cast(%p014, dtype="float32") /* ty=Tensor[(10, 10), float32] span=from_string:80:14 */;
    %35 = exp(%34) /* ty=Tensor[(10, 10), float32] span=from_string:81:13 */;
    squeeze(%35) /* ty=Tensor[(10, 10), float32] span=from_string:79:5 */
  } /* ty=fn (Tensor[(10, 10), float16]) -> Tensor[(10, 10), float32] span=from_string:78:3 */;
  %40 = fn (%p016: Tensor[(10, 10), float16] /* ty=Tensor[(10, 10), float16] span=from_string:85:13 */, Primitive=1, relay.reshape_only=1) -> Tensor[(10, 10), float16] {
    reshape(%p016, newshape=[10, 10]) /* ty=Tensor[(10, 10), float16] span=from_string:85:5 */
  } /* ty=fn (Tensor[(10, 10), float16]) -> Tensor[(10, 10), float16] span=from_string:84:3 */;
  %52 = fn (%p019: Tensor[(30, 10), float32] /* ty=Tensor[(30, 10), float32] span=from_string:90:10 */, Primitive=1) -> Tensor[(30, 10), float16] {
    cast(%p019, dtype="float16") /* ty=Tensor[(30, 10), float16] span=from_string:90:5 */
  } /* ty=fn (Tensor[(30, 10), float32]) -> Tensor[(30, 10), float16] span=from_string:89:3 */;
  %53 = %52(%x5) /* ty=Tensor[(30, 10), float16] span=from_string:92:15 */;
  %54 = fn (%p018: Tensor[(10, 10), float16] /* ty=Tensor[(10, 10), float16] span=from_string:94:14 */, %p15: Tensor[(30, 10), float16] /* ty=Tensor[(30, 10), float16] span=from_string:94:21 */, Primitive=1) -> Tensor[(10, 30), float16] {
    nn.dense(%p018, %p15, units=None, out_dtype="float16") /* ty=Tensor[(10, 30), float16] span=from_string:94:5 */
  } /* ty=fn (Tensor[(10, 10), float16], Tensor[(30, 10), float16]) -> Tensor[(10, 30), float16] span=from_string:93:3 */;
  %55 = %54(%7, %53) /* ty=Tensor[(10, 30), float16] span=from_string:96:15 */;
  %56 = fn (%p017: Tensor[(10, 30), float16] /* ty=Tensor[(10, 30), float16] span=from_string:98:16 */, Primitive=1) -> Tensor[(10, 10), float32] {
    %41 = split(%p017, indices_or_sections=3, axis=1) /* ty=(Tensor[(10, 10), float16], Tensor[(10, 10), float16], Tensor[(10, 10), float16]) span=from_string:103:11 */;
    %42 = %41.0 /* ty=Tensor[(10, 10), float16] span=from_string:100:19 */;
    %43 = sigmoid(%42) /* ty=Tensor[(10, 10), float16] span=from_string:107:16 */;
    %44 = %41.1 /* ty=Tensor[(10, 10), float16] span=from_string:102:16 */;
    %45 = tanh(%44) /* ty=Tensor[(10, 10), float16] span=from_string:105:16 */;
    %46 = %41.2 /* ty=Tensor[(10, 10), float16] span=from_string:104:16 */;
    %47 = cast(%46, dtype="float32") /* ty=Tensor[(10, 10), float32] span=from_string:106:15 */;
    %48 = cast(%45, dtype="float32") /* ty=Tensor[(10, 10), float32] span=from_string:108:21 */;
    %49 = exp(%47) /* ty=Tensor[(10, 10), float32] span=from_string:108:26 */;
    %50 = cast(%43, dtype="float32") /* ty=Tensor[(10, 10), float32] span=from_string:109:9 */;
    %51 = multiply(%48, %49) /* ty=Tensor[(10, 10), float32] span=from_string:109:14 */;
    add(%50, %51) /* ty=Tensor[(10, 10), float32] span=from_string:98:5 */
  } /* ty=fn (Tensor[(10, 30), float16]) -> Tensor[(10, 10), float32] span=from_string:97:3 */;
  %57 = %3(%2) /* ty=Tensor[(10, 10), float16] span=from_string:19:14 */;
  %58 = (%15, %16) /* ty=(Tensor[(10, 10), float16], (Tensor[(10, 10), float16],)) span=from_string:37:15 */;
  %59 = (%27, %28) /* ty=(Tensor[(10, 34, 1), float16], Tensor[(10, 38, 1), float16]) span=from_string:62:15 */;
  %60 = %33(%32) /* ty=Tensor[(10, 34, 1), float32] span=from_string:72:15 */;
  %61 = %39(%38) /* ty=Tensor[(10, 10), float32] span=from_string:83:15 */;
  %62 = %40(%38) /* ty=Tensor[(10, 10), float16] span=from_string:87:15 */;
  %63 = %56(%55) /* ty=Tensor[(10, 10), float32] span=from_string:111:15 */;
  (%57, %58, %59, %60, %61, %62, meta[relay.Constant][2] /* ty=Tensor[(1), int32] span=from_string:88:20 */, %63, 0.761594f /* ty=float32 span=from_string:112:24 */) /* ty=(Tensor[(10, 10), float16], (Tensor[(10, 10), float16], (Tensor[(10, 10), float16],)), (Tensor[(10, 34, 1), float16], Tensor[(10, 38, 1), float16]), Tensor[(10, 34, 1), float32], Tensor[(10, 10), float32], Tensor[(10, 10), float16], Tensor[(1), int32], Tensor[(10, 10), float32], float32) span=from_string:113:15 */
}

#[metadata]
{
  "root": 1, 
  "nodes": [
    {
      "type_key": ""
    }, 
    {
      "type_key": "Map", 
      "keys": [
        "relay.Constant", 
        "relay.attrs.InitOpAttrs"
      ], 
      "data": [2, 23]
    }, 
    {
      "type_key": "Array", 
      "data": [3, 11, 16]
    }, 
    {
      "type_key": "relay.Constant", 
      "attrs": {
        "_checked_type_": "8", 
        "data": "0", 
        "span": "6", 
        "virtual_device_": "4"
      }
    }, 
    {
      "type_key": "VirtualDevice", 
      "attrs": {
        "device_type_int": "-1", 
        "memory_scope": "5", 
        "target": "0", 
        "virtual_device_id": "-1"
      }
    }, 
    {
      "type_key": "runtime.String"
    }, 
    {
      "type_key": "Span", 
      "attrs": {
        "column": "19", 
        "end_column": "37", 
        "end_line": "20", 
        "line": "20", 
        "source_name": "7"
      }
    }, 
    {
      "type_key": "SourceName", 
      "repr_str": "from_string"
    }, 
    {
      "type_key": "relay.TensorType", 
      "attrs": {
        "dtype": "int32", 
        "shape": "9", 
        "span": "0"
      }
    }, 
    {
      "type_key": "Array", 
      "data": [10]
    }, 
    {
      "type_key": "IntImm", 
      "attrs": {
        "dtype": "int32", 
        "span": "0", 
        "value": "2"
      }
    }, 
    {
      "type_key": "relay.Constant", 
      "attrs": {
        "_checked_type_": "13", 
        "data": "1", 
        "span": "12", 
        "virtual_device_": "4"
      }
    }, 
    {
      "type_key": "Span", 
      "attrs": {
        "column": "19", 
        "end_column": "37", 
        "end_line": "26", 
        "line": "26", 
        "source_name": "7"
      }
    }, 
    {
      "type_key": "relay.TensorType", 
      "attrs": {
        "dtype": "int32", 
        "shape": "14", 
        "span": "0"
      }
    }, 
    {
      "type_key": "Array", 
      "data": [15]
    }, 
    {
      "type_key": "IntImm", 
      "attrs": {
        "dtype": "int32", 
        "span": "0", 
        "value": "2"
      }
    }, 
    {
      "type_key": "relay.Constant", 
      "attrs": {
        "_checked_type_": "20", 
        "data": "2", 
        "span": "19", 
        "virtual_device_": "17"
      }
    }, 
    {
      "type_key": "VirtualDevice", 
      "attrs": {
        "device_type_int": "-1", 
        "memory_scope": "18", 
        "target": "0", 
        "virtual_device_id": "-1"
      }
    }, 
    {
      "type_key": "runtime.String"
    }, 
    {
      "type_key": "Span", 
      "attrs": {
        "column": "20", 
        "end_column": "38", 
        "end_line": "88", 
        "line": "88", 
        "source_name": "7"
      }
    }, 
    {
      "type_key": "relay.TensorType", 
      "attrs": {
        "dtype": "int32", 
        "shape": "21", 
        "span": "0"
      }
    }, 
    {
      "type_key": "Array", 
      "data": [22]
    }, 
    {
      "type_key": "IntImm", 
      "attrs": {
        "dtype": "int32", 
        "span": "0", 
        "value": "1"
      }
    }, 
    {
      "type_key": "Array", 
      "data": [24, 28]
    }, 
    {
      "type_key": "relay.attrs.InitOpAttrs", 
      "attrs": {
        "dtype": "float16", 
        "shape": "25"
      }
    }, 
    {
      "type_key": "Array", 
      "data": [26, 27]
    }, 
    {
      "type_key": "IntImm", 
      "attrs": {
        "dtype": "int32", 
        "span": "0", 
        "value": "10"
      }
    }, 
    {
      "type_key": "IntImm", 
      "attrs": {
        "dtype": "int32", 
        "span": "0", 
        "value": "10"
      }
    }, 
    {
      "type_key": "relay.attrs.InitOpAttrs", 
      "attrs": {
        "dtype": "float16", 
        "shape": "29"
      }
    }, 
    {
      "type_key": "Array", 
      "data": [26, 27]
    }
  ], 
  "b64ndarrays": [
    "P6G0lvBAXt0AAAAAAAAAAAEAAAAAAAAAAQAAAAAgAQACAAAAAAAAAAgAAAAAAAAACgAAAAoAAAA=", 
    "P6G0lvBAXt0AAAAAAAAAAAEAAAAAAAAAAQAAAAAgAQACAAAAAAAAAAgAAAAAAAAACgAAAAoAAAA=", 
    "P6G0lvBAXt0AAAAAAAAAAAEAAAAAAAAAAQAAAAAgAQABAAAAAAAAAAQAAAAAAAAAZAAAAA=="
  ], 
  "attrs": {"tvm_version": "0.13.0"}
}