#[version = "0.0.5"]
def @main(%x0: Tensor[(10, 10), float32] /* ty=Tensor[(10, 10), float32] span=from_string:12:124 */, %x1: Tensor[(34, 10), float32] /* ty=Tensor[(34, 10), float32] span=from_string:16:115 */, %x2: Tensor[(38, 10), float32] /* ty=Tensor[(38, 10), float32] span=from_string:18:115 */, %x3: Tensor[(100), float32] /* ty=Tensor[(100), float32] */, %x4: Tensor[(57), int32] /* ty=Tensor[(57), int32] span=from_string:3:65 */, %x5: Tensor[(30, 10), float32] /* ty=Tensor[(30, 10), float32] span=from_string:36:115 */) -> (Tensor[(10, 10), float32], (Tensor[(10, 10), float32], (Tensor[(10, 10), float32],)), (Tensor[(10, 34, 1), float32], Tensor[(10, 38, 1), float32]), Tensor[(10, 34, 1), float32], Tensor[(10, 10), float32], Tensor[(10, 10), float32], Tensor[(1), int32], Tensor[(10, 10), float32], float32) {
  let %x9: Tensor[(57), int32] /* ty=Tensor[(57), int32] */ = %x4;
  let %x6: Tensor[(10, 10), float32] /* ty=Tensor[(10, 10), float32] span=from_string:18:110 */ = multiply(%x0, %x0) /* ty=Tensor[(10, 10), float32] span=from_string:4:100 */;
  let %x7: Tensor[(10, 10), float32] /* ty=Tensor[(10, 10), float32] span=from_string:36:110 */ = ones_like(%x6) /* ty=Tensor[(10, 10), float32] span=from_string:5:99 */;
  let %x_0: Tensor[(10, 10), float32] /* ty=Tensor[(10, 10), float32] span=from_string:47:630 */ = add(%x0, %x0) /* ty=Tensor[(10, 10), float32] span=from_string:6:100 */;
  let %x_1: Tensor[(10, 10), float32] /* ty=Tensor[(10, 10), float32] span=from_string:10:104 */ = zeros_like(%x0) /* ty=Tensor[(10, 10), float32] span=from_string:7:100 */;
  let %x_2: Tensor[(10, 10), float32] /* ty=Tensor[(10, 10), float32] span=from_string:9:118 */ = multiply(%x7, %x0) /* ty=Tensor[(10, 10), float32] span=from_string:8:100 */;
  let %x_3: Tensor[(10, 10), float32] /* ty=Tensor[(10, 10), float32] span=from_string:10:110 */ = collapse_sum_like(%x_2, %x0) /* ty=Tensor[(10, 10), float32] span=from_string:9:100 */;
  let %x_4: Tensor[(10, 10), float32] /* ty=Tensor[(10, 10), float32] span=from_string:13:104 */ = add(%x_1, %x_3) /* ty=Tensor[(10, 10), float32] span=from_string:10:100 */;
  let %x_5: Tensor[(10, 10), float32] /* ty=Tensor[(10, 10), float32] span=from_string:12:118 */ = multiply(%x7, %x0) /* ty=Tensor[(10, 10), float32] span=from_string:11:101 */;
  let %x_6: Tensor[(10, 10), float32] /* ty=Tensor[(10, 10), float32] span=from_string:26:105 */ = collapse_sum_like(%x_5, %x0) /* ty=Tensor[(10, 10), float32] span=from_string:12:100 */;
  let %x_7: Tensor[(10, 10), float32] /* ty=Tensor[(10, 10), float32] span=from_string:14:107 */ = add(%x_4, %x_6) /* ty=Tensor[(10, 10), float32] span=from_string:13:100 */;
  let %x_8: (Tensor[(10, 10), float32],) /* ty=(Tensor[(10, 10), float32],) span=from_string:15:170 */ = (%x_7,) /* ty=(Tensor[(10, 10), float32],) span=from_string:14:106 */;
  let %x_9: (Tensor[(10, 10), float32], (Tensor[(10, 10), float32],)) /* ty=(Tensor[(10, 10), float32], (Tensor[(10, 10), float32],)) span=from_string:47:636 */ = (%x6, %x_8) /* ty=(Tensor[(10, 10), float32], (Tensor[(10, 10), float32],)) span=from_string:15:164 */;
  let %x_10: Tensor[(10, 34), float32] /* ty=Tensor[(10, 34), float32] span=from_string:17:119 */ = nn.dense(%x6, %x1, units=None) /* ty=Tensor[(10, 34), float32] span=from_string:16:101 */;
  let %x_11: Tensor[(10, 34, 1), float32] /* ty=Tensor[(10, 34, 1), float32] span=from_string:22:111 */ = expand_dims(%x_10, axis=2) /* ty=Tensor[(10, 34, 1), float32] span=from_string:17:107 */;
  let %x_12: Tensor[(10, 38), float32] /* ty=Tensor[(10, 38), float32] span=from_string:19:119 */ = nn.dense(%x6, %x2, units=None) /* ty=Tensor[(10, 38), float32] span=from_string:18:101 */;
  let %x_13: Tensor[(10, 38, 1), float32] /* ty=Tensor[(10, 38, 1), float32] span=from_string:20:179 */ = expand_dims(%x_12, axis=2) /* ty=Tensor[(10, 38, 1), float32] span=from_string:19:107 */;
  let %x_14: (Tensor[(10, 34, 1), float32], Tensor[(10, 38, 1), float32]) /* ty=(Tensor[(10, 34, 1), float32], Tensor[(10, 38, 1), float32]) span=from_string:47:642 */ = (%x_11, %x_13) /* ty=(Tensor[(10, 34, 1), float32], Tensor[(10, 38, 1), float32]) span=from_string:20:171 */;
  let %x_15: float32 /* ty=float32 span=from_string:22:118 */ = 1f /* ty=float32 span=from_string:21:67 */;
  let %x_16: Tensor[(10, 34, 1), float32] /* ty=Tensor[(10, 34, 1), float32] span=from_string:23:130 */ = add(%x_11, %x_15) /* ty=Tensor[(10, 34, 1), float32] span=from_string:22:107 */;
  let %x_17: Tensor[(10, 34, 1), float32] /* ty=Tensor[(10, 34, 1), float32] span=from_string:24:111 */ = annotation.stop_fusion(%x_16) /* ty=Tensor[(10, 34, 1), float32] span=from_string:23:107 */;
  let %x_18: Tensor[(10, 34, 1), float32] /* ty=Tensor[(10, 34, 1), float32] span=from_string:47:649 */ = exp(%x_17) /* ty=Tensor[(10, 34, 1), float32] span=from_string:24:107 */;
  let %x_19: Tensor[(1), float32] /* ty=Tensor[(1), float32] span=from_string:26:111 */ = zeros(shape=[1], dtype="float32") /* ty=Tensor[(1), float32] span=from_string:25:91 */;
  let %x_20: Tensor[(10, 10), float32] /* ty=Tensor[(10, 10), float32] span=from_string:28:105 */ = add(%x_6, %x_19) /* ty=Tensor[(10, 10), float32] span=from_string:26:101 */;
  let %x_21: float32 /* ty=float32 span=from_string:28:112 */ = 1f /* ty=float32 span=from_string:27:67 */;
  let %x_22: Tensor[(10, 10), float32] /* ty=Tensor[(10, 10), float32] span=from_string:31:103 */ = add(%x_20, %x_21) /* ty=Tensor[(10, 10), float32] span=from_string:28:101 */;
  let %x_23: Tensor[(10, 10), float32] /* ty=Tensor[(10, 10), float32] span=from_string:30:109 */ = exp(%x_22) /* ty=Tensor[(10, 10), float32] span=from_string:29:101 */;
  let %x_24: Tensor[(10, 10), float32] /* ty=Tensor[(10, 10), float32] span=from_string:47:656 */ = squeeze(%x_23) /* ty=Tensor[(10, 10), float32] span=from_string:30:101 */;
  let %x_25: Tensor[(100), float32] /* ty=Tensor[(100), float32] span=from_string:32:109 */ = reshape(%x_22, newshape=[100]) /* ty=Tensor[(100), float32] span=from_string:31:95 */;
  let %x_26: Tensor[(10, 10), float32] /* ty=Tensor[(10, 10), float32] span=from_string:33:103 */ = reshape(%x_25, newshape=[10, 10]) /* ty=Tensor[(10, 10), float32] span=from_string:32:101 */;
  let %x_27: Tensor[(100), float32] /* ty=Tensor[(100), float32] span=from_string:34:109 */ = reshape(%x_26, newshape=[100]) /* ty=Tensor[(100), float32] span=from_string:33:95 */;
  let %x_28: Tensor[(10, 10), float32] /* ty=Tensor[(10, 10), float32] span=from_string:47:663 */ = reshape(%x_27, newshape=[10, 10]) /* ty=Tensor[(10, 10), float32] span=from_string:34:101 */;
  let %x_29: Tensor[(1), int32] /* ty=Tensor[(1), int32] span=from_string:47:670 */ = meta[relay.Constant][0] /* ty=Tensor[(1), int32] span=from_string:35:94 */;
  let %x_30: Tensor[(10, 30), float32] /* ty=Tensor[(10, 30), float32] span=from_string:37:219 */ = nn.dense(%x7, %x5, units=None) /* ty=Tensor[(10, 30), float32] span=from_string:36:101 */;
  let %x_31: (Tensor[(10, 10), float32], Tensor[(10, 10), float32], Tensor[(10, 10), float32]) /* ty=(Tensor[(10, 10), float32], Tensor[(10, 10), float32], Tensor[(10, 10), float32]) span=from_string:42:101 */ = split(%x_30, indices_or_sections=3, axis=1) /* ty=(Tensor[(10, 10), float32], Tensor[(10, 10), float32], Tensor[(10, 10), float32]) span=from_string:37:213 */;
  let %x_32: Tensor[(10, 10), float32] /* ty=Tensor[(10, 10), float32] span=from_string:39:109 */ = %x_31.0 /* ty=Tensor[(10, 10), float32] span=from_string:38:101 */;
  let %x_33: Tensor[(10, 10), float32] /* ty=Tensor[(10, 10), float32] span=from_string:45:105 */ = sigmoid(%x_32) /* ty=Tensor[(10, 10), float32] span=from_string:39:101 */;
  let %x_34: Tensor[(10, 10), float32] /* ty=Tensor[(10, 10), float32] span=from_string:41:106 */ = %x_31.1 /* ty=Tensor[(10, 10), float32] span=from_string:40:101 */;
  let %x_35: Tensor[(10, 10), float32] /* ty=Tensor[(10, 10), float32] span=from_string:44:111 */ = tanh(%x_34) /* ty=Tensor[(10, 10), float32] span=from_string:41:101 */;
  let %x_36: Tensor[(10, 10), float32] /* ty=Tensor[(10, 10), float32] span=from_string:43:105 */ = %x_31.2 /* ty=Tensor[(10, 10), float32] span=from_string:42:101 */;
  let %x_37: Tensor[(10, 10), float32] /* ty=Tensor[(10, 10), float32] span=from_string:44:118 */ = exp(%x_36) /* ty=Tensor[(10, 10), float32] span=from_string:43:101 */;
  let %x_38: Tensor[(10, 10), float32] /* ty=Tensor[(10, 10), float32] span=from_string:45:112 */ = multiply(%x_35, %x_37) /* ty=Tensor[(10, 10), float32] span=from_string:44:102 */;
  let %x_39: Tensor[(10, 10), float32] /* ty=Tensor[(10, 10), float32] span=from_string:47:677 */ = add(%x_33, %x_38) /* ty=Tensor[(10, 10), float32] span=from_string:45:101 */;
  let %x_40: float32 /* ty=float32 span=from_string:47:684 */ = 0.761594f /* ty=float32 span=from_string:46:74 */;
  let %x_41: (Tensor[(10, 10), float32], (Tensor[(10, 10), float32], (Tensor[(10, 10), float32],)), (Tensor[(10, 34, 1), float32], Tensor[(10, 38, 1), float32]), Tensor[(10, 34, 1), float32], Tensor[(10, 10), float32], Tensor[(10, 10), float32], Tensor[(1), int32], Tensor[(10, 10), float32], float32) /* ty=(Tensor[(10, 10), float32], (Tensor[(10, 10), float32], (Tensor[(10, 10), float32],)), (Tensor[(10, 34, 1), float32], Tensor[(10, 38, 1), float32]), Tensor[(10, 34, 1), float32], Tensor[(10, 10), float32], Tensor[(10, 10), float32], Tensor[(1), int32], Tensor[(10, 10), float32], float32) span=from_string:48:629 */ = (%x_0, %x_9, %x_14, %x_18, %x_24, %x_28, %x_29, %x_39, %x_40) /* ty=(Tensor[(10, 10), float32], (Tensor[(10, 10), float32], (Tensor[(10, 10), float32],)), (Tensor[(10, 34, 1), float32], Tensor[(10, 38, 1), float32]), Tensor[(10, 34, 1), float32], Tensor[(10, 10), float32], Tensor[(10, 10), float32], Tensor[(1), int32], Tensor[(10, 10), float32], float32) span=from_string:47:629 */;
  let %x_42: (Tensor[(10, 10), float32], (Tensor[(10, 10), float32], (Tensor[(10, 10), float32],)), (Tensor[(10, 34, 1), float32], Tensor[(10, 38, 1), float32]), Tensor[(10, 34, 1), float32], Tensor[(10, 10), float32], Tensor[(10, 10), float32], Tensor[(1), int32], Tensor[(10, 10), float32], float32) /* ty=(Tensor[(10, 10), float32], (Tensor[(10, 10), float32], (Tensor[(10, 10), float32],)), (Tensor[(10, 34, 1), float32], Tensor[(10, 38, 1), float32]), Tensor[(10, 34, 1), float32], Tensor[(10, 10), float32], Tensor[(10, 10), float32], Tensor[(1), int32], Tensor[(10, 10), float32], float32) span=from_string:49:629 */ = %x_41;
  let %x_43: (Tensor[(10, 10), float32], (Tensor[(10, 10), float32], (Tensor[(10, 10), float32],)), (Tensor[(10, 34, 1), float32], Tensor[(10, 38, 1), float32]), Tensor[(10, 34, 1), float32], Tensor[(10, 10), float32], Tensor[(10, 10), float32], Tensor[(1), int32], Tensor[(10, 10), float32], float32) /* ty=(Tensor[(10, 10), float32], (Tensor[(10, 10), float32], (Tensor[(10, 10), float32],)), (Tensor[(10, 34, 1), float32], Tensor[(10, 38, 1), float32]), Tensor[(10, 34, 1), float32], Tensor[(10, 10), float32], Tensor[(10, 10), float32], Tensor[(1), int32], Tensor[(10, 10), float32], float32) span=from_string:50:629 */ = %x_42;
  let %x_44: (Tensor[(10, 10), float32], (Tensor[(10, 10), float32], (Tensor[(10, 10), float32],)), (Tensor[(10, 34, 1), float32], Tensor[(10, 38, 1), float32]), Tensor[(10, 34, 1), float32], Tensor[(10, 10), float32], Tensor[(10, 10), float32], Tensor[(1), int32], Tensor[(10, 10), float32], float32) /* ty=(Tensor[(10, 10), float32], (Tensor[(10, 10), float32], (Tensor[(10, 10), float32],)), (Tensor[(10, 34, 1), float32], Tensor[(10, 38, 1), float32]), Tensor[(10, 34, 1), float32], Tensor[(10, 10), float32], Tensor[(10, 10), float32], Tensor[(1), int32], Tensor[(10, 10), float32], float32) span=from_string:51:629 */ = %x_43;
  let %x_01: (Tensor[(10, 10), float32], (Tensor[(10, 10), float32], (Tensor[(10, 10), float32],)), (Tensor[(10, 34, 1), float32], Tensor[(10, 38, 1), float32]), Tensor[(10, 34, 1), float32], Tensor[(10, 10), float32], Tensor[(10, 10), float32], Tensor[(1), int32], Tensor[(10, 10), float32], float32) /* ty=(Tensor[(10, 10), float32], (Tensor[(10, 10), float32], (Tensor[(10, 10), float32],)), (Tensor[(10, 34, 1), float32], Tensor[(10, 38, 1), float32]), Tensor[(10, 34, 1), float32], Tensor[(10, 10), float32], Tensor[(10, 10), float32], Tensor[(1), int32], Tensor[(10, 10), float32], float32) span=from_string:52:630 */ = %x_44;
  let %x_110: (Tensor[(10, 10), float32], (Tensor[(10, 10), float32], (Tensor[(10, 10), float32],)), (Tensor[(10, 34, 1), float32], Tensor[(10, 38, 1), float32]), Tensor[(10, 34, 1), float32], Tensor[(10, 10), float32], Tensor[(10, 10), float32], Tensor[(1), int32], Tensor[(10, 10), float32], float32) /* ty=(Tensor[(10, 10), float32], (Tensor[(10, 10), float32], (Tensor[(10, 10), float32],)), (Tensor[(10, 34, 1), float32], Tensor[(10, 38, 1), float32]), Tensor[(10, 34, 1), float32], Tensor[(10, 10), float32], Tensor[(10, 10), float32], Tensor[(1), int32], Tensor[(10, 10), float32], float32) span=from_string:53:630 */ = %x_01;
  let %x_210: (Tensor[(10, 10), float32], (Tensor[(10, 10), float32], (Tensor[(10, 10), float32],)), (Tensor[(10, 34, 1), float32], Tensor[(10, 38, 1), float32]), Tensor[(10, 34, 1), float32], Tensor[(10, 10), float32], Tensor[(10, 10), float32], Tensor[(1), int32], Tensor[(10, 10), float32], float32) /* ty=(Tensor[(10, 10), float32], (Tensor[(10, 10), float32], (Tensor[(10, 10), float32],)), (Tensor[(10, 34, 1), float32], Tensor[(10, 38, 1), float32]), Tensor[(10, 34, 1), float32], Tensor[(10, 10), float32], Tensor[(10, 10), float32], Tensor[(1), int32], Tensor[(10, 10), float32], float32) span=from_string:54:630 */ = %x_110;
  let %x_310: (Tensor[(10, 10), float32], (Tensor[(10, 10), float32], (Tensor[(10, 10), float32],)), (Tensor[(10, 34, 1), float32], Tensor[(10, 38, 1), float32]), Tensor[(10, 34, 1), float32], Tensor[(10, 10), float32], Tensor[(10, 10), float32], Tensor[(1), int32], Tensor[(10, 10), float32], float32) /* ty=(Tensor[(10, 10), float32], (Tensor[(10, 10), float32], (Tensor[(10, 10), float32],)), (Tensor[(10, 34, 1), float32], Tensor[(10, 38, 1), float32]), Tensor[(10, 34, 1), float32], Tensor[(10, 10), float32], Tensor[(10, 10), float32], Tensor[(1), int32], Tensor[(10, 10), float32], float32) span=from_string:55:629 */ = %x_210;
  let %x_45: (Tensor[(10, 10), float32], (Tensor[(10, 10), float32], (Tensor[(10, 10), float32],)), (Tensor[(10, 34, 1), float32], Tensor[(10, 38, 1), float32]), Tensor[(10, 34, 1), float32], Tensor[(10, 10), float32], Tensor[(10, 10), float32], Tensor[(1), int32], Tensor[(10, 10), float32], float32) /* ty=(Tensor[(10, 10), float32], (Tensor[(10, 10), float32], (Tensor[(10, 10), float32],)), (Tensor[(10, 34, 1), float32], Tensor[(10, 38, 1), float32]), Tensor[(10, 34, 1), float32], Tensor[(10, 10), float32], Tensor[(10, 10), float32], Tensor[(1), int32], Tensor[(10, 10), float32], float32) span=from_string:56:629 */ = %x_310;
  let %x_51: (Tensor[(10, 10), float32], (Tensor[(10, 10), float32], (Tensor[(10, 10), float32],)), (Tensor[(10, 34, 1), float32], Tensor[(10, 38, 1), float32]), Tensor[(10, 34, 1), float32], Tensor[(10, 10), float32], Tensor[(10, 10), float32], Tensor[(1), int32], Tensor[(10, 10), float32], float32) /* ty=(Tensor[(10, 10), float32], (Tensor[(10, 10), float32], (Tensor[(10, 10), float32],)), (Tensor[(10, 34, 1), float32], Tensor[(10, 38, 1), float32]), Tensor[(10, 34, 1), float32], Tensor[(10, 10), float32], Tensor[(10, 10), float32], Tensor[(1), int32], Tensor[(10, 10), float32], float32) span=from_string:57:629 */ = %x_45;
  let %x_61: (Tensor[(10, 10), float32], (Tensor[(10, 10), float32], (Tensor[(10, 10), float32],)), (Tensor[(10, 34, 1), float32], Tensor[(10, 38, 1), float32]), Tensor[(10, 34, 1), float32], Tensor[(10, 10), float32], Tensor[(10, 10), float32], Tensor[(1), int32], Tensor[(10, 10), float32], float32) /* ty=(Tensor[(10, 10), float32], (Tensor[(10, 10), float32], (Tensor[(10, 10), float32],)), (Tensor[(10, 34, 1), float32], Tensor[(10, 38, 1), float32]), Tensor[(10, 34, 1), float32], Tensor[(10, 10), float32], Tensor[(10, 10), float32], Tensor[(1), int32], Tensor[(10, 10), float32], float32) span=from_string:58:629 */ = %x_51;
  let %x_71: (Tensor[(10, 10), float32], (Tensor[(10, 10), float32], (Tensor[(10, 10), float32],)), (Tensor[(10, 34, 1), float32], Tensor[(10, 38, 1), float32]), Tensor[(10, 34, 1), float32], Tensor[(10, 10), float32], Tensor[(10, 10), float32], Tensor[(1), int32], Tensor[(10, 10), float32], float32) /* ty=(Tensor[(10, 10), float32], (Tensor[(10, 10), float32], (Tensor[(10, 10), float32],)), (Tensor[(10, 34, 1), float32], Tensor[(10, 38, 1), float32]), Tensor[(10, 34, 1), float32], Tensor[(10, 10), float32], Tensor[(10, 10), float32], Tensor[(1), int32], Tensor[(10, 10), float32], float32) span=from_string:59:629 */ = %x_61;
  let %x_81: (Tensor[(10, 10), float32], (Tensor[(10, 10), float32], (Tensor[(10, 10), float32],)), (Tensor[(10, 34, 1), float32], Tensor[(10, 38, 1), float32]), Tensor[(10, 34, 1), float32], Tensor[(10, 10), float32], Tensor[(10, 10), float32], Tensor[(1), int32], Tensor[(10, 10), float32], float32) /* ty=(Tensor[(10, 10), float32], (Tensor[(10, 10), float32], (Tensor[(10, 10), float32],)), (Tensor[(10, 34, 1), float32], Tensor[(10, 38, 1), float32]), Tensor[(10, 34, 1), float32], Tensor[(10, 10), float32], Tensor[(10, 10), float32], Tensor[(1), int32], Tensor[(10, 10), float32], float32) span=from_string:60:629 */ = %x_71;
  let %x_91: (Tensor[(10, 10), float32], (Tensor[(10, 10), float32], (Tensor[(10, 10), float32],)), (Tensor[(10, 34, 1), float32], Tensor[(10, 38, 1), float32]), Tensor[(10, 34, 1), float32], Tensor[(10, 10), float32], Tensor[(10, 10), float32], Tensor[(1), int32], Tensor[(10, 10), float32], float32) /* ty=(Tensor[(10, 10), float32], (Tensor[(10, 10), float32], (Tensor[(10, 10), float32],)), (Tensor[(10, 34, 1), float32], Tensor[(10, 38, 1), float32]), Tensor[(10, 34, 1), float32], Tensor[(10, 10), float32], Tensor[(10, 10), float32], Tensor[(1), int32], Tensor[(10, 10), float32], float32) span=from_string:61:630 */ = %x_81;
  let %x_101: (Tensor[(10, 10), float32], (Tensor[(10, 10), float32], (Tensor[(10, 10), float32],)), (Tensor[(10, 34, 1), float32], Tensor[(10, 38, 1), float32]), Tensor[(10, 34, 1), float32], Tensor[(10, 10), float32], Tensor[(10, 10), float32], Tensor[(1), int32], Tensor[(10, 10), float32], float32) /* ty=(Tensor[(10, 10), float32], (Tensor[(10, 10), float32], (Tensor[(10, 10), float32],)), (Tensor[(10, 34, 1), float32], Tensor[(10, 38, 1), float32]), Tensor[(10, 34, 1), float32], Tensor[(10, 10), float32], Tensor[(10, 10), float32], Tensor[(1), int32], Tensor[(10, 10), float32], float32) span=from_string:62:630 */ = %x_91;
  let %x_111: (Tensor[(10, 10), float32], (Tensor[(10, 10), float32], (Tensor[(10, 10), float32],)), (Tensor[(10, 34, 1), float32], Tensor[(10, 38, 1), float32]), Tensor[(10, 34, 1), float32], Tensor[(10, 10), float32], Tensor[(10, 10), float32], Tensor[(1), int32], Tensor[(10, 10), float32], float32) /* ty=(Tensor[(10, 10), float32], (Tensor[(10, 10), float32], (Tensor[(10, 10), float32],)), (Tensor[(10, 34, 1), float32], Tensor[(10, 38, 1), float32]), Tensor[(10, 34, 1), float32], Tensor[(10, 10), float32], Tensor[(10, 10), float32], Tensor[(1), int32], Tensor[(10, 10), float32], float32) span=from_string:63:630 */ = %x_101;
  let %x_121: (Tensor[(10, 10), float32], (Tensor[(10, 10), float32], (Tensor[(10, 10), float32],)), (Tensor[(10, 34, 1), float32], Tensor[(10, 38, 1), float32]), Tensor[(10, 34, 1), float32], Tensor[(10, 10), float32], Tensor[(10, 10), float32], Tensor[(1), int32], Tensor[(10, 10), float32], float32) /* ty=(Tensor[(10, 10), float32], (Tensor[(10, 10), float32], (Tensor[(10, 10), float32],)), (Tensor[(10, 34, 1), float32], Tensor[(10, 38, 1), float32]), Tensor[(10, 34, 1), float32], Tensor[(10, 10), float32], Tensor[(10, 10), float32], Tensor[(1), int32], Tensor[(10, 10), float32], float32) span=from_string:64:630 */ = %x_111;
  let %x_131: (Tensor[(10, 10), float32], (Tensor[(10, 10), float32], (Tensor[(10, 10), float32],)), (Tensor[(10, 34, 1), float32], Tensor[(10, 38, 1), float32]), Tensor[(10, 34, 1), float32], Tensor[(10, 10), float32], Tensor[(10, 10), float32], Tensor[(1), int32], Tensor[(10, 10), float32], float32) /* ty=(Tensor[(10, 10), float32], (Tensor[(10, 10), float32], (Tensor[(10, 10), float32],)), (Tensor[(10, 34, 1), float32], Tensor[(10, 38, 1), float32]), Tensor[(10, 34, 1), float32], Tensor[(10, 10), float32], Tensor[(10, 10), float32], Tensor[(1), int32], Tensor[(10, 10), float32], float32) span=from_string:65:630 */ = %x_121;
  let %x_141: (Tensor[(10, 10), float32], (Tensor[(10, 10), float32], (Tensor[(10, 10), float32],)), (Tensor[(10, 34, 1), float32], Tensor[(10, 38, 1), float32]), Tensor[(10, 34, 1), float32], Tensor[(10, 10), float32], Tensor[(10, 10), float32], Tensor[(1), int32], Tensor[(10, 10), float32], float32) /* ty=(Tensor[(10, 10), float32], (Tensor[(10, 10), float32], (Tensor[(10, 10), float32],)), (Tensor[(10, 34, 1), float32], Tensor[(10, 38, 1), float32]), Tensor[(10, 34, 1), float32], Tensor[(10, 10), float32], Tensor[(10, 10), float32], Tensor[(1), int32], Tensor[(10, 10), float32], float32) span=from_string:66:630 */ = %x_131;
  let %x_151: (Tensor[(10, 10), float32], (Tensor[(10, 10), float32], (Tensor[(10, 10), float32],)), (Tensor[(10, 34, 1), float32], Tensor[(10, 38, 1), float32]), Tensor[(10, 34, 1), float32], Tensor[(10, 10), float32], Tensor[(10, 10), float32], Tensor[(1), int32], Tensor[(10, 10), float32], float32) /* ty=(Tensor[(10, 10), float32], (Tensor[(10, 10), float32], (Tensor[(10, 10), float32],)), (Tensor[(10, 34, 1), float32], Tensor[(10, 38, 1), float32]), Tensor[(10, 34, 1), float32], Tensor[(10, 10), float32], Tensor[(10, 10), float32], Tensor[(1), int32], Tensor[(10, 10), float32], float32) span=from_string:67:630 */ = %x_141;
  let %x_161: (Tensor[(10, 10), float32], (Tensor[(10, 10), float32], (Tensor[(10, 10), float32],)), (Tensor[(10, 34, 1), float32], Tensor[(10, 38, 1), float32]), Tensor[(10, 34, 1), float32], Tensor[(10, 10), float32], Tensor[(10, 10), float32], Tensor[(1), int32], Tensor[(10, 10), float32], float32) /* ty=(Tensor[(10, 10), float32], (Tensor[(10, 10), float32], (Tensor[(10, 10), float32],)), (Tensor[(10, 34, 1), float32], Tensor[(10, 38, 1), float32]), Tensor[(10, 34, 1), float32], Tensor[(10, 10), float32], Tensor[(10, 10), float32], Tensor[(1), int32], Tensor[(10, 10), float32], float32) span=from_string:68:630 */ = %x_151;
  let %x_171: (Tensor[(10, 10), float32], (Tensor[(10, 10), float32], (Tensor[(10, 10), float32],)), (Tensor[(10, 34, 1), float32], Tensor[(10, 38, 1), float32]), Tensor[(10, 34, 1), float32], Tensor[(10, 10), float32], Tensor[(10, 10), float32], Tensor[(1), int32], Tensor[(10, 10), float32], float32) /* ty=(Tensor[(10, 10), float32], (Tensor[(10, 10), float32], (Tensor[(10, 10), float32],)), (Tensor[(10, 34, 1), float32], Tensor[(10, 38, 1), float32]), Tensor[(10, 34, 1), float32], Tensor[(10, 10), float32], Tensor[(10, 10), float32], Tensor[(1), int32], Tensor[(10, 10), float32], float32) span=from_string:69:630 */ = %x_161;
  let %x_181: (Tensor[(10, 10), float32], (Tensor[(10, 10), float32], (Tensor[(10, 10), float32],)), (Tensor[(10, 34, 1), float32], Tensor[(10, 38, 1), float32]), Tensor[(10, 34, 1), float32], Tensor[(10, 10), float32], Tensor[(10, 10), float32], Tensor[(1), int32], Tensor[(10, 10), float32], float32) /* ty=(Tensor[(10, 10), float32], (Tensor[(10, 10), float32], (Tensor[(10, 10), float32],)), (Tensor[(10, 34, 1), float32], Tensor[(10, 38, 1), float32]), Tensor[(10, 34, 1), float32], Tensor[(10, 10), float32], Tensor[(10, 10), float32], Tensor[(1), int32], Tensor[(10, 10), float32], float32) span=from_string:70:630 */ = %x_171;
  let %x_191: (Tensor[(10, 10), float32], (Tensor[(10, 10), float32], (Tensor[(10, 10), float32],)), (Tensor[(10, 34, 1), float32], Tensor[(10, 38, 1), float32]), Tensor[(10, 34, 1), float32], Tensor[(10, 10), float32], Tensor[(10, 10), float32], Tensor[(1), int32], Tensor[(10, 10), float32], float32) /* ty=(Tensor[(10, 10), float32], (Tensor[(10, 10), float32], (Tensor[(10, 10), float32],)), (Tensor[(10, 34, 1), float32], Tensor[(10, 38, 1), float32]), Tensor[(10, 34, 1), float32], Tensor[(10, 10), float32], Tensor[(10, 10), float32], Tensor[(1), int32], Tensor[(10, 10), float32], float32) span=from_string:71:630 */ = %x_181;
  let %x_201: (Tensor[(10, 10), float32], (Tensor[(10, 10), float32], (Tensor[(10, 10), float32],)), (Tensor[(10, 34, 1), float32], Tensor[(10, 38, 1), float32]), Tensor[(10, 34, 1), float32], Tensor[(10, 10), float32], Tensor[(10, 10), float32], Tensor[(1), int32], Tensor[(10, 10), float32], float32) /* ty=(Tensor[(10, 10), float32], (Tensor[(10, 10), float32], (Tensor[(10, 10), float32],)), (Tensor[(10, 34, 1), float32], Tensor[(10, 38, 1), float32]), Tensor[(10, 34, 1), float32], Tensor[(10, 10), float32], Tensor[(10, 10), float32], Tensor[(1), int32], Tensor[(10, 10), float32], float32) span=from_string:72:630 */ = %x_191;
  let %x_211: (Tensor[(10, 10), float32], (Tensor[(10, 10), float32], (Tensor[(10, 10), float32],)), (Tensor[(10, 34, 1), float32], Tensor[(10, 38, 1), float32]), Tensor[(10, 34, 1), float32], Tensor[(10, 10), float32], Tensor[(10, 10), float32], Tensor[(1), int32], Tensor[(10, 10), float32], float32) /* ty=(Tensor[(10, 10), float32], (Tensor[(10, 10), float32], (Tensor[(10, 10), float32],)), (Tensor[(10, 34, 1), float32], Tensor[(10, 38, 1), float32]), Tensor[(10, 34, 1), float32], Tensor[(10, 10), float32], Tensor[(10, 10), float32], Tensor[(1), int32], Tensor[(10, 10), float32], float32) span=from_string:73:630 */ = %x_201;
  let %x_221: (Tensor[(10, 10), float32], (Tensor[(10, 10), float32], (Tensor[(10, 10), float32],)), (Tensor[(10, 34, 1), float32], Tensor[(10, 38, 1), float32]), Tensor[(10, 34, 1), float32], Tensor[(10, 10), float32], Tensor[(10, 10), float32], Tensor[(1), int32], Tensor[(10, 10), float32], float32) /* ty=(Tensor[(10, 10), float32], (Tensor[(10, 10), float32], (Tensor[(10, 10), float32],)), (Tensor[(10, 34, 1), float32], Tensor[(10, 38, 1), float32]), Tensor[(10, 34, 1), float32], Tensor[(10, 10), float32], Tensor[(10, 10), float32], Tensor[(1), int32], Tensor[(10, 10), float32], float32) span=from_string:74:630 */ = %x_211;
  let %x_231: (Tensor[(10, 10), float32], (Tensor[(10, 10), float32], (Tensor[(10, 10), float32],)), (Tensor[(10, 34, 1), float32], Tensor[(10, 38, 1), float32]), Tensor[(10, 34, 1), float32], Tensor[(10, 10), float32], Tensor[(10, 10), float32], Tensor[(1), int32], Tensor[(10, 10), float32], float32) /* ty=(Tensor[(10, 10), float32], (Tensor[(10, 10), float32], (Tensor[(10, 10), float32],)), (Tensor[(10, 34, 1), float32], Tensor[(10, 38, 1), float32]), Tensor[(10, 34, 1), float32], Tensor[(10, 10), float32], Tensor[(10, 10), float32], Tensor[(1), int32], Tensor[(10, 10), float32], float32) span=from_string:75:630 */ = %x_221;
  let %x_241: (Tensor[(10, 10), float32], (Tensor[(10, 10), float32], (Tensor[(10, 10), float32],)), (Tensor[(10, 34, 1), float32], Tensor[(10, 38, 1), float32]), Tensor[(10, 34, 1), float32], Tensor[(10, 10), float32], Tensor[(10, 10), float32], Tensor[(1), int32], Tensor[(10, 10), float32], float32) /* ty=(Tensor[(10, 10), float32], (Tensor[(10, 10), float32], (Tensor[(10, 10), float32],)), (Tensor[(10, 34, 1), float32], Tensor[(10, 38, 1), float32]), Tensor[(10, 34, 1), float32], Tensor[(10, 10), float32], Tensor[(10, 10), float32], Tensor[(1), int32], Tensor[(10, 10), float32], float32) span=from_string:76:630 */ = %x_231;
  let %x_251: (Tensor[(10, 10), float32], (Tensor[(10, 10), float32], (Tensor[(10, 10), float32],)), (Tensor[(10, 34, 1), float32], Tensor[(10, 38, 1), float32]), Tensor[(10, 34, 1), float32], Tensor[(10, 10), float32], Tensor[(10, 10), float32], Tensor[(1), int32], Tensor[(10, 10), float32], float32) /* ty=(Tensor[(10, 10), float32], (Tensor[(10, 10), float32], (Tensor[(10, 10), float32],)), (Tensor[(10, 34, 1), float32], Tensor[(10, 38, 1), float32]), Tensor[(10, 34, 1), float32], Tensor[(10, 10), float32], Tensor[(10, 10), float32], Tensor[(1), int32], Tensor[(10, 10), float32], float32) span=from_string:77:630 */ = %x_241;
  let %x_261: (Tensor[(10, 10), float32], (Tensor[(10, 10), float32], (Tensor[(10, 10), float32],)), (Tensor[(10, 34, 1), float32], Tensor[(10, 38, 1), float32]), Tensor[(10, 34, 1), float32], Tensor[(10, 10), float32], Tensor[(10, 10), float32], Tensor[(1), int32], Tensor[(10, 10), float32], float32) /* ty=(Tensor[(10, 10), float32], (Tensor[(10, 10), float32], (Tensor[(10, 10), float32],)), (Tensor[(10, 34, 1), float32], Tensor[(10, 38, 1), float32]), Tensor[(10, 34, 1), float32], Tensor[(10, 10), float32], Tensor[(10, 10), float32], Tensor[(1), int32], Tensor[(10, 10), float32], float32) span=from_string:78:630 */ = %x_251;
  let %x_271: (Tensor[(10, 10), float32], (Tensor[(10, 10), float32], (Tensor[(10, 10), float32],)), (Tensor[(10, 34, 1), float32], Tensor[(10, 38, 1), float32]), Tensor[(10, 34, 1), float32], Tensor[(10, 10), float32], Tensor[(10, 10), float32], Tensor[(1), int32], Tensor[(10, 10), float32], float32) /* ty=(Tensor[(10, 10), float32], (Tensor[(10, 10), float32], (Tensor[(10, 10), float32],)), (Tensor[(10, 34, 1), float32], Tensor[(10, 38, 1), float32]), Tensor[(10, 34, 1), float32], Tensor[(10, 10), float32], Tensor[(10, 10), float32], Tensor[(1), int32], Tensor[(10, 10), float32], float32) span=from_string:79:630 */ = %x_261;
  let %x_281: (Tensor[(10, 10), float32], (Tensor[(10, 10), float32], (Tensor[(10, 10), float32],)), (Tensor[(10, 34, 1), float32], Tensor[(10, 38, 1), float32]), Tensor[(10, 34, 1), float32], Tensor[(10, 10), float32], Tensor[(10, 10), float32], Tensor[(1), int32], Tensor[(10, 10), float32], float32) /* ty=(Tensor[(10, 10), float32], (Tensor[(10, 10), float32], (Tensor[(10, 10), float32],)), (Tensor[(10, 34, 1), float32], Tensor[(10, 38, 1), float32]), Tensor[(10, 34, 1), float32], Tensor[(10, 10), float32], Tensor[(10, 10), float32], Tensor[(1), int32], Tensor[(10, 10), float32], float32) span=from_string:80:630 */ = %x_271;
  let %x_291: (Tensor[(10, 10), float32], (Tensor[(10, 10), float32], (Tensor[(10, 10), float32],)), (Tensor[(10, 34, 1), float32], Tensor[(10, 38, 1), float32]), Tensor[(10, 34, 1), float32], Tensor[(10, 10), float32], Tensor[(10, 10), float32], Tensor[(1), int32], Tensor[(10, 10), float32], float32) /* ty=(Tensor[(10, 10), float32], (Tensor[(10, 10), float32], (Tensor[(10, 10), float32],)), (Tensor[(10, 34, 1), float32], Tensor[(10, 38, 1), float32]), Tensor[(10, 34, 1), float32], Tensor[(10, 10), float32], Tensor[(10, 10), float32], Tensor[(1), int32], Tensor[(10, 10), float32], float32) span=from_string:81:630 */ = %x_281;
  let %x_301: (Tensor[(10, 10), float32], (Tensor[(10, 10), float32], (Tensor[(10, 10), float32],)), (Tensor[(10, 34, 1), float32], Tensor[(10, 38, 1), float32]), Tensor[(10, 34, 1), float32], Tensor[(10, 10), float32], Tensor[(10, 10), float32], Tensor[(1), int32], Tensor[(10, 10), float32], float32) /* ty=(Tensor[(10, 10), float32], (Tensor[(10, 10), float32], (Tensor[(10, 10), float32],)), (Tensor[(10, 34, 1), float32], Tensor[(10, 38, 1), float32]), Tensor[(10, 34, 1), float32], Tensor[(10, 10), float32], Tensor[(10, 10), float32], Tensor[(1), int32], Tensor[(10, 10), float32], float32) span=from_string:82:630 */ = %x_291;
  let %x_311: (Tensor[(10, 10), float32], (Tensor[(10, 10), float32], (Tensor[(10, 10), float32],)), (Tensor[(10, 34, 1), float32], Tensor[(10, 38, 1), float32]), Tensor[(10, 34, 1), float32], Tensor[(10, 10), float32], Tensor[(10, 10), float32], Tensor[(1), int32], Tensor[(10, 10), float32], float32) /* ty=(Tensor[(10, 10), float32], (Tensor[(10, 10), float32], (Tensor[(10, 10), float32],)), (Tensor[(10, 34, 1), float32], Tensor[(10, 38, 1), float32]), Tensor[(10, 34, 1), float32], Tensor[(10, 10), float32], Tensor[(10, 10), float32], Tensor[(1), int32], Tensor[(10, 10), float32], float32) span=from_string:83:630 */ = %x_301;
  let %x_321: (Tensor[(10, 10), float32], (Tensor[(10, 10), float32], (Tensor[(10, 10), float32],)), (Tensor[(10, 34, 1), float32], Tensor[(10, 38, 1), float32]), Tensor[(10, 34, 1), float32], Tensor[(10, 10), float32], Tensor[(10, 10), float32], Tensor[(1), int32], Tensor[(10, 10), float32], float32) /* ty=(Tensor[(10, 10), float32], (Tensor[(10, 10), float32], (Tensor[(10, 10), float32],)), (Tensor[(10, 34, 1), float32], Tensor[(10, 38, 1), float32]), Tensor[(10, 34, 1), float32], Tensor[(10, 10), float32], Tensor[(10, 10), float32], Tensor[(1), int32], Tensor[(10, 10), float32], float32) span=from_string:84:630 */ = %x_311;
  let %x_331: (Tensor[(10, 10), float32], (Tensor[(10, 10), float32], (Tensor[(10, 10), float32],)), (Tensor[(10, 34, 1), float32], Tensor[(10, 38, 1), float32]), Tensor[(10, 34, 1), float32], Tensor[(10, 10), float32], Tensor[(10, 10), float32], Tensor[(1), int32], Tensor[(10, 10), float32], float32) /* ty=(Tensor[(10, 10), float32], (Tensor[(10, 10), float32], (Tensor[(10, 10), float32],)), (Tensor[(10, 34, 1), float32], Tensor[(10, 38, 1), float32]), Tensor[(10, 34, 1), float32], Tensor[(10, 10), float32], Tensor[(10, 10), float32], Tensor[(1), int32], Tensor[(10, 10), float32], float32) span=from_string:85:630 */ = %x_321;
  let %x_341: (Tensor[(10, 10), float32], (Tensor[(10, 10), float32], (Tensor[(10, 10), float32],)), (Tensor[(10, 34, 1), float32], Tensor[(10, 38, 1), float32]), Tensor[(10, 34, 1), float32], Tensor[(10, 10), float32], Tensor[(10, 10), float32], Tensor[(1), int32], Tensor[(10, 10), float32], float32) /* ty=(Tensor[(10, 10), float32], (Tensor[(10, 10), float32], (Tensor[(10, 10), float32],)), (Tensor[(10, 34, 1), float32], Tensor[(10, 38, 1), float32]), Tensor[(10, 34, 1), float32], Tensor[(10, 10), float32], Tensor[(10, 10), float32], Tensor[(1), int32], Tensor[(10, 10), float32], float32) span=from_string:86:630 */ = %x_331;
  let %x_351: (Tensor[(10, 10), float32], (Tensor[(10, 10), float32], (Tensor[(10, 10), float32],)), (Tensor[(10, 34, 1), float32], Tensor[(10, 38, 1), float32]), Tensor[(10, 34, 1), float32], Tensor[(10, 10), float32], Tensor[(10, 10), float32], Tensor[(1), int32], Tensor[(10, 10), float32], float32) /* ty=(Tensor[(10, 10), float32], (Tensor[(10, 10), float32], (Tensor[(10, 10), float32],)), (Tensor[(10, 34, 1), float32], Tensor[(10, 38, 1), float32]), Tensor[(10, 34, 1), float32], Tensor[(10, 10), float32], Tensor[(10, 10), float32], Tensor[(1), int32], Tensor[(10, 10), float32], float32) span=from_string:87:630 */ = %x_341;
  let %x_361: (Tensor[(10, 10), float32], (Tensor[(10, 10), float32], (Tensor[(10, 10), float32],)), (Tensor[(10, 34, 1), float32], Tensor[(10, 38, 1), float32]), Tensor[(10, 34, 1), float32], Tensor[(10, 10), float32], Tensor[(10, 10), float32], Tensor[(1), int32], Tensor[(10, 10), float32], float32) /* ty=(Tensor[(10, 10), float32], (Tensor[(10, 10), float32], (Tensor[(10, 10), float32],)), (Tensor[(10, 34, 1), float32], Tensor[(10, 38, 1), float32]), Tensor[(10, 34, 1), float32], Tensor[(10, 10), float32], Tensor[(10, 10), float32], Tensor[(1), int32], Tensor[(10, 10), float32], float32) span=from_string:88:630 */ = %x_351;
  let %x_371: (Tensor[(10, 10), float32], (Tensor[(10, 10), float32], (Tensor[(10, 10), float32],)), (Tensor[(10, 34, 1), float32], Tensor[(10, 38, 1), float32]), Tensor[(10, 34, 1), float32], Tensor[(10, 10), float32], Tensor[(10, 10), float32], Tensor[(1), int32], Tensor[(10, 10), float32], float32) /* ty=(Tensor[(10, 10), float32], (Tensor[(10, 10), float32], (Tensor[(10, 10), float32],)), (Tensor[(10, 34, 1), float32], Tensor[(10, 38, 1), float32]), Tensor[(10, 34, 1), float32], Tensor[(10, 10), float32], Tensor[(10, 10), float32], Tensor[(1), int32], Tensor[(10, 10), float32], float32) span=from_string:89:630 */ = %x_361;
  let %x_381: (Tensor[(10, 10), float32], (Tensor[(10, 10), float32], (Tensor[(10, 10), float32],)), (Tensor[(10, 34, 1), float32], Tensor[(10, 38, 1), float32]), Tensor[(10, 34, 1), float32], Tensor[(10, 10), float32], Tensor[(10, 10), float32], Tensor[(1), int32], Tensor[(10, 10), float32], float32) /* ty=(Tensor[(10, 10), float32], (Tensor[(10, 10), float32], (Tensor[(10, 10), float32],)), (Tensor[(10, 34, 1), float32], Tensor[(10, 38, 1), float32]), Tensor[(10, 34, 1), float32], Tensor[(10, 10), float32], Tensor[(10, 10), float32], Tensor[(1), int32], Tensor[(10, 10), float32], float32) span=from_string:90:630 */ = %x_371;
  let %x_391: (Tensor[(10, 10), float32], (Tensor[(10, 10), float32], (Tensor[(10, 10), float32],)), (Tensor[(10, 34, 1), float32], Tensor[(10, 38, 1), float32]), Tensor[(10, 34, 1), float32], Tensor[(10, 10), float32], Tensor[(10, 10), float32], Tensor[(1), int32], Tensor[(10, 10), float32], float32) /* ty=(Tensor[(10, 10), float32], (Tensor[(10, 10), float32], (Tensor[(10, 10), float32],)), (Tensor[(10, 34, 1), float32], Tensor[(10, 38, 1), float32]), Tensor[(10, 34, 1), float32], Tensor[(10, 10), float32], Tensor[(10, 10), float32], Tensor[(1), int32], Tensor[(10, 10), float32], float32) span=from_string:91:630 */ = %x_381;
  let %x_401: (Tensor[(10, 10), float32], (Tensor[(10, 10), float32], (Tensor[(10, 10), float32],)), (Tensor[(10, 34, 1), float32], Tensor[(10, 38, 1), float32]), Tensor[(10, 34, 1), float32], Tensor[(10, 10), float32], Tensor[(10, 10), float32], Tensor[(1), int32], Tensor[(10, 10), float32], float32) /* ty=(Tensor[(10, 10), float32], (Tensor[(10, 10), float32], (Tensor[(10, 10), float32],)), (Tensor[(10, 34, 1), float32], Tensor[(10, 38, 1), float32]), Tensor[(10, 34, 1), float32], Tensor[(10, 10), float32], Tensor[(10, 10), float32], Tensor[(1), int32], Tensor[(10, 10), float32], float32) span=from_string:92:630 */ = %x_391;
  let %x_411: (Tensor[(10, 10), float32], (Tensor[(10, 10), float32], (Tensor[(10, 10), float32],)), (Tensor[(10, 34, 1), float32], Tensor[(10, 38, 1), float32]), Tensor[(10, 34, 1), float32], Tensor[(10, 10), float32], Tensor[(10, 10), float32], Tensor[(1), int32], Tensor[(10, 10), float32], float32) /* ty=(Tensor[(10, 10), float32], (Tensor[(10, 10), float32], (Tensor[(10, 10), float32],)), (Tensor[(10, 34, 1), float32], Tensor[(10, 38, 1), float32]), Tensor[(10, 34, 1), float32], Tensor[(10, 10), float32], Tensor[(10, 10), float32], Tensor[(1), int32], Tensor[(10, 10), float32], float32) span=from_string:93:630 */ = %x_401;
  let %x_421: (Tensor[(10, 10), float32], (Tensor[(10, 10), float32], (Tensor[(10, 10), float32],)), (Tensor[(10, 34, 1), float32], Tensor[(10, 38, 1), float32]), Tensor[(10, 34, 1), float32], Tensor[(10, 10), float32], Tensor[(10, 10), float32], Tensor[(1), int32], Tensor[(10, 10), float32], float32) /* ty=(Tensor[(10, 10), float32], (Tensor[(10, 10), float32], (Tensor[(10, 10), float32],)), (Tensor[(10, 34, 1), float32], Tensor[(10, 38, 1), float32]), Tensor[(10, 34, 1), float32], Tensor[(10, 10), float32], Tensor[(10, 10), float32], Tensor[(1), int32], Tensor[(10, 10), float32], float32) span=from_string:94:630 */ = %x_411;
  let %x_431: (Tensor[(10, 10), float32], (Tensor[(10, 10), float32], (Tensor[(10, 10), float32],)), (Tensor[(10, 34, 1), float32], Tensor[(10, 38, 1), float32]), Tensor[(10, 34, 1), float32], Tensor[(10, 10), float32], Tensor[(10, 10), float32], Tensor[(1), int32], Tensor[(10, 10), float32], float32) /* ty=(Tensor[(10, 10), float32], (Tensor[(10, 10), float32], (Tensor[(10, 10), float32],)), (Tensor[(10, 34, 1), float32], Tensor[(10, 38, 1), float32]), Tensor[(10, 34, 1), float32], Tensor[(10, 10), float32], Tensor[(10, 10), float32], Tensor[(1), int32], Tensor[(10, 10), float32], float32) span=from_string:95:630 */ = %x_421;
  let %x_441: (Tensor[(10, 10), float32], (Tensor[(10, 10), float32], (Tensor[(10, 10), float32],)), (Tensor[(10, 34, 1), float32], Tensor[(10, 38, 1), float32]), Tensor[(10, 34, 1), float32], Tensor[(10, 10), float32], Tensor[(10, 10), float32], Tensor[(1), int32], Tensor[(10, 10), float32], float32) /* ty=(Tensor[(10, 10), float32], (Tensor[(10, 10), float32], (Tensor[(10, 10), float32],)), (Tensor[(10, 34, 1), float32], Tensor[(10, 38, 1), float32]), Tensor[(10, 34, 1), float32], Tensor[(10, 10), float32], Tensor[(10, 10), float32], Tensor[(1), int32], Tensor[(10, 10), float32], float32) span=from_string:96:630 */ = %x_431;
  let %x_451: (Tensor[(10, 10), float32], (Tensor[(10, 10), float32], (Tensor[(10, 10), float32],)), (Tensor[(10, 34, 1), float32], Tensor[(10, 38, 1), float32]), Tensor[(10, 34, 1), float32], Tensor[(10, 10), float32], Tensor[(10, 10), float32], Tensor[(1), int32], Tensor[(10, 10), float32], float32) /* ty=(Tensor[(10, 10), float32], (Tensor[(10, 10), float32], (Tensor[(10, 10), float32],)), (Tensor[(10, 34, 1), float32], Tensor[(10, 38, 1), float32]), Tensor[(10, 34, 1), float32], Tensor[(10, 10), float32], Tensor[(10, 10), float32], Tensor[(1), int32], Tensor[(10, 10), float32], float32) span=from_string:97:629 */ = %x_441;
  let %x_46: (Tensor[(10, 10), float32], (Tensor[(10, 10), float32], (Tensor[(10, 10), float32],)), (Tensor[(10, 34, 1), float32], Tensor[(10, 38, 1), float32]), Tensor[(10, 34, 1), float32], Tensor[(10, 10), float32], Tensor[(10, 10), float32], Tensor[(1), int32], Tensor[(10, 10), float32], float32) /* ty=(Tensor[(10, 10), float32], (Tensor[(10, 10), float32], (Tensor[(10, 10), float32],)), (Tensor[(10, 34, 1), float32], Tensor[(10, 38, 1), float32]), Tensor[(10, 34, 1), float32], Tensor[(10, 10), float32], Tensor[(10, 10), float32], Tensor[(1), int32], Tensor[(10, 10), float32], float32) span=from_string:98:627 */ = %x_451;
  let %x_47: (Tensor[(10, 10), float32], (Tensor[(10, 10), float32], (Tensor[(10, 10), float32],)), (Tensor[(10, 34, 1), float32], Tensor[(10, 38, 1), float32]), Tensor[(10, 34, 1), float32], Tensor[(10, 10), float32], Tensor[(10, 10), float32], Tensor[(1), int32], Tensor[(10, 10), float32], float32) /* ty=(Tensor[(10, 10), float32], (Tensor[(10, 10), float32], (Tensor[(10, 10), float32],)), (Tensor[(10, 34, 1), float32], Tensor[(10, 38, 1), float32]), Tensor[(10, 34, 1), float32], Tensor[(10, 10), float32], Tensor[(10, 10), float32], Tensor[(1), int32], Tensor[(10, 10), float32], float32) span=from_string:99:15 */ = %x_46;
  let %x_02: (Tensor[(10, 10), float32], (Tensor[(10, 10), float32], (Tensor[(10, 10), float32],)), (Tensor[(10, 34, 1), float32], Tensor[(10, 38, 1), float32]), Tensor[(10, 34, 1), float32], Tensor[(10, 10), float32], Tensor[(10, 10), float32], Tensor[(1), int32], Tensor[(10, 10), float32], float32) /* ty=(Tensor[(10, 10), float32], (Tensor[(10, 10), float32], (Tensor[(10, 10), float32],)), (Tensor[(10, 34, 1), float32], Tensor[(10, 38, 1), float32]), Tensor[(10, 34, 1), float32], Tensor[(10, 10), float32], Tensor[(10, 10), float32], Tensor[(1), int32], Tensor[(10, 10), float32], float32) span=from_string:100:16 */ = %x_47;
  let %x_112: (Tensor[(10, 10), float32], (Tensor[(10, 10), float32], (Tensor[(10, 10), float32],)), (Tensor[(10, 34, 1), float32], Tensor[(10, 38, 1), float32]), Tensor[(10, 34, 1), float32], Tensor[(10, 10), float32], Tensor[(10, 10), float32], Tensor[(1), int32], Tensor[(10, 10), float32], float32) /* ty=(Tensor[(10, 10), float32], (Tensor[(10, 10), float32], (Tensor[(10, 10), float32],)), (Tensor[(10, 34, 1), float32], Tensor[(10, 38, 1), float32]), Tensor[(10, 34, 1), float32], Tensor[(10, 10), float32], Tensor[(10, 10), float32], Tensor[(1), int32], Tensor[(10, 10), float32], float32) span=from_string:101:16 */ = %x_02;
  let %x_212: (Tensor[(10, 10), float32], (Tensor[(10, 10), float32], (Tensor[(10, 10), float32],)), (Tensor[(10, 34, 1), float32], Tensor[(10, 38, 1), float32]), Tensor[(10, 34, 1), float32], Tensor[(10, 10), float32], Tensor[(10, 10), float32], Tensor[(1), int32], Tensor[(10, 10), float32], float32) /* ty=(Tensor[(10, 10), float32], (Tensor[(10, 10), float32], (Tensor[(10, 10), float32],)), (Tensor[(10, 34, 1), float32], Tensor[(10, 38, 1), float32]), Tensor[(10, 34, 1), float32], Tensor[(10, 10), float32], Tensor[(10, 10), float32], Tensor[(1), int32], Tensor[(10, 10), float32], float32) span=from_string:102:16 */ = %x_112;
  let %x_312: (Tensor[(10, 10), float32], (Tensor[(10, 10), float32], (Tensor[(10, 10), float32],)), (Tensor[(10, 34, 1), float32], Tensor[(10, 38, 1), float32]), Tensor[(10, 34, 1), float32], Tensor[(10, 10), float32], Tensor[(10, 10), float32], Tensor[(1), int32], Tensor[(10, 10), float32], float32) /* ty=(Tensor[(10, 10), float32], (Tensor[(10, 10), float32], (Tensor[(10, 10), float32],)), (Tensor[(10, 34, 1), float32], Tensor[(10, 38, 1), float32]), Tensor[(10, 34, 1), float32], Tensor[(10, 10), float32], Tensor[(10, 10), float32], Tensor[(1), int32], Tensor[(10, 10), float32], float32) span=from_string:103:15 */ = %x_212;
  let %x_48: (Tensor[(10, 10), float32], (Tensor[(10, 10), float32], (Tensor[(10, 10), float32],)), (Tensor[(10, 34, 1), float32], Tensor[(10, 38, 1), float32]), Tensor[(10, 34, 1), float32], Tensor[(10, 10), float32], Tensor[(10, 10), float32], Tensor[(1), int32], Tensor[(10, 10), float32], float32) /* ty=(Tensor[(10, 10), float32], (Tensor[(10, 10), float32], (Tensor[(10, 10), float32],)), (Tensor[(10, 34, 1), float32], Tensor[(10, 38, 1), float32]), Tensor[(10, 34, 1), float32], Tensor[(10, 10), float32], Tensor[(10, 10), float32], Tensor[(1), int32], Tensor[(10, 10), float32], float32) span=from_string:104:15 */ = %x_312;
  let %x_52: (Tensor[(10, 10), float32], (Tensor[(10, 10), float32], (Tensor[(10, 10), float32],)), (Tensor[(10, 34, 1), float32], Tensor[(10, 38, 1), float32]), Tensor[(10, 34, 1), float32], Tensor[(10, 10), float32], Tensor[(10, 10), float32], Tensor[(1), int32], Tensor[(10, 10), float32], float32) /* ty=(Tensor[(10, 10), float32], (Tensor[(10, 10), float32], (Tensor[(10, 10), float32],)), (Tensor[(10, 34, 1), float32], Tensor[(10, 38, 1), float32]), Tensor[(10, 34, 1), float32], Tensor[(10, 10), float32], Tensor[(10, 10), float32], Tensor[(1), int32], Tensor[(10, 10), float32], float32) span=from_string:105:15 */ = %x_48;
  let %x_62: (Tensor[(10, 10), float32], (Tensor[(10, 10), float32], (Tensor[(10, 10), float32],)), (Tensor[(10, 34, 1), float32], Tensor[(10, 38, 1), float32]), Tensor[(10, 34, 1), float32], Tensor[(10, 10), float32], Tensor[(10, 10), float32], Tensor[(1), int32], Tensor[(10, 10), float32], float32) /* ty=(Tensor[(10, 10), float32], (Tensor[(10, 10), float32], (Tensor[(10, 10), float32],)), (Tensor[(10, 34, 1), float32], Tensor[(10, 38, 1), float32]), Tensor[(10, 34, 1), float32], Tensor[(10, 10), float32], Tensor[(10, 10), float32], Tensor[(1), int32], Tensor[(10, 10), float32], float32) span=from_string:106:15 */ = %x_52;
  let %x_72: (Tensor[(10, 10), float32], (Tensor[(10, 10), float32], (Tensor[(10, 10), float32],)), (Tensor[(10, 34, 1), float32], Tensor[(10, 38, 1), float32]), Tensor[(10, 34, 1), float32], Tensor[(10, 10), float32], Tensor[(10, 10), float32], Tensor[(1), int32], Tensor[(10, 10), float32], float32) /* ty=(Tensor[(10, 10), float32], (Tensor[(10, 10), float32], (Tensor[(10, 10), float32],)), (Tensor[(10, 34, 1), float32], Tensor[(10, 38, 1), float32]), Tensor[(10, 34, 1), float32], Tensor[(10, 10), float32], Tensor[(10, 10), float32], Tensor[(1), int32], Tensor[(10, 10), float32], float32) span=from_string:107:15 */ = %x_62;
  let %x_82: (Tensor[(10, 10), float32], (Tensor[(10, 10), float32], (Tensor[(10, 10), float32],)), (Tensor[(10, 34, 1), float32], Tensor[(10, 38, 1), float32]), Tensor[(10, 34, 1), float32], Tensor[(10, 10), float32], Tensor[(10, 10), float32], Tensor[(1), int32], Tensor[(10, 10), float32], float32) /* ty=(Tensor[(10, 10), float32], (Tensor[(10, 10), float32], (Tensor[(10, 10), float32],)), (Tensor[(10, 34, 1), float32], Tensor[(10, 38, 1), float32]), Tensor[(10, 34, 1), float32], Tensor[(10, 10), float32], Tensor[(10, 10), float32], Tensor[(1), int32], Tensor[(10, 10), float32], float32) span=from_string:108:15 */ = %x_72;
  let %x_92: (Tensor[(10, 10), float32], (Tensor[(10, 10), float32], (Tensor[(10, 10), float32],)), (Tensor[(10, 34, 1), float32], Tensor[(10, 38, 1), float32]), Tensor[(10, 34, 1), float32], Tensor[(10, 10), float32], Tensor[(10, 10), float32], Tensor[(1), int32], Tensor[(10, 10), float32], float32) /* ty=(Tensor[(10, 10), float32], (Tensor[(10, 10), float32], (Tensor[(10, 10), float32],)), (Tensor[(10, 34, 1), float32], Tensor[(10, 38, 1), float32]), Tensor[(10, 34, 1), float32], Tensor[(10, 10), float32], Tensor[(10, 10), float32], Tensor[(1), int32], Tensor[(10, 10), float32], float32) span=from_string:109:16 */ = %x_82;
  let %x_102: (Tensor[(10, 10), float32], (Tensor[(10, 10), float32], (Tensor[(10, 10), float32],)), (Tensor[(10, 34, 1), float32], Tensor[(10, 38, 1), float32]), Tensor[(10, 34, 1), float32], Tensor[(10, 10), float32], Tensor[(10, 10), float32], Tensor[(1), int32], Tensor[(10, 10), float32], float32) /* ty=(Tensor[(10, 10), float32], (Tensor[(10, 10), float32], (Tensor[(10, 10), float32],)), (Tensor[(10, 34, 1), float32], Tensor[(10, 38, 1), float32]), Tensor[(10, 34, 1), float32], Tensor[(10, 10), float32], Tensor[(10, 10), float32], Tensor[(1), int32], Tensor[(10, 10), float32], float32) span=from_string:110:16 */ = %x_92;
  let %x_113: (Tensor[(10, 10), float32], (Tensor[(10, 10), float32], (Tensor[(10, 10), float32],)), (Tensor[(10, 34, 1), float32], Tensor[(10, 38, 1), float32]), Tensor[(10, 34, 1), float32], Tensor[(10, 10), float32], Tensor[(10, 10), float32], Tensor[(1), int32], Tensor[(10, 10), float32], float32) /* ty=(Tensor[(10, 10), float32], (Tensor[(10, 10), float32], (Tensor[(10, 10), float32],)), (Tensor[(10, 34, 1), float32], Tensor[(10, 38, 1), float32]), Tensor[(10, 34, 1), float32], Tensor[(10, 10), float32], Tensor[(10, 10), float32], Tensor[(1), int32], Tensor[(10, 10), float32], float32) span=from_string:111:16 */ = %x_102;
  let %x_122: (Tensor[(10, 10), float32], (Tensor[(10, 10), float32], (Tensor[(10, 10), float32],)), (Tensor[(10, 34, 1), float32], Tensor[(10, 38, 1), float32]), Tensor[(10, 34, 1), float32], Tensor[(10, 10), float32], Tensor[(10, 10), float32], Tensor[(1), int32], Tensor[(10, 10), float32], float32) /* ty=(Tensor[(10, 10), float32], (Tensor[(10, 10), float32], (Tensor[(10, 10), float32],)), (Tensor[(10, 34, 1), float32], Tensor[(10, 38, 1), float32]), Tensor[(10, 34, 1), float32], Tensor[(10, 10), float32], Tensor[(10, 10), float32], Tensor[(1), int32], Tensor[(10, 10), float32], float32) span=from_string:112:16 */ = %x_113;
  let %x_132: (Tensor[(10, 10), float32], (Tensor[(10, 10), float32], (Tensor[(10, 10), float32],)), (Tensor[(10, 34, 1), float32], Tensor[(10, 38, 1), float32]), Tensor[(10, 34, 1), float32], Tensor[(10, 10), float32], Tensor[(10, 10), float32], Tensor[(1), int32], Tensor[(10, 10), float32], float32) /* ty=(Tensor[(10, 10), float32], (Tensor[(10, 10), float32], (Tensor[(10, 10), float32],)), (Tensor[(10, 34, 1), float32], Tensor[(10, 38, 1), float32]), Tensor[(10, 34, 1), float32], Tensor[(10, 10), float32], Tensor[(10, 10), float32], Tensor[(1), int32], Tensor[(10, 10), float32], float32) span=from_string:113:16 */ = %x_122;
  let %x_142: (Tensor[(10, 10), float32], (Tensor[(10, 10), float32], (Tensor[(10, 10), float32],)), (Tensor[(10, 34, 1), float32], Tensor[(10, 38, 1), float32]), Tensor[(10, 34, 1), float32], Tensor[(10, 10), float32], Tensor[(10, 10), float32], Tensor[(1), int32], Tensor[(10, 10), float32], float32) /* ty=(Tensor[(10, 10), float32], (Tensor[(10, 10), float32], (Tensor[(10, 10), float32],)), (Tensor[(10, 34, 1), float32], Tensor[(10, 38, 1), float32]), Tensor[(10, 34, 1), float32], Tensor[(10, 10), float32], Tensor[(10, 10), float32], Tensor[(1), int32], Tensor[(10, 10), float32], float32) span=from_string:114:16 */ = %x_132;
  let %x_152: (Tensor[(10, 10), float32], (Tensor[(10, 10), float32], (Tensor[(10, 10), float32],)), (Tensor[(10, 34, 1), float32], Tensor[(10, 38, 1), float32]), Tensor[(10, 34, 1), float32], Tensor[(10, 10), float32], Tensor[(10, 10), float32], Tensor[(1), int32], Tensor[(10, 10), float32], float32) /* ty=(Tensor[(10, 10), float32], (Tensor[(10, 10), float32], (Tensor[(10, 10), float32],)), (Tensor[(10, 34, 1), float32], Tensor[(10, 38, 1), float32]), Tensor[(10, 34, 1), float32], Tensor[(10, 10), float32], Tensor[(10, 10), float32], Tensor[(1), int32], Tensor[(10, 10), float32], float32) span=from_string:115:16 */ = %x_142;
  let %x_162: (Tensor[(10, 10), float32], (Tensor[(10, 10), float32], (Tensor[(10, 10), float32],)), (Tensor[(10, 34, 1), float32], Tensor[(10, 38, 1), float32]), Tensor[(10, 34, 1), float32], Tensor[(10, 10), float32], Tensor[(10, 10), float32], Tensor[(1), int32], Tensor[(10, 10), float32], float32) /* ty=(Tensor[(10, 10), float32], (Tensor[(10, 10), float32], (Tensor[(10, 10), float32],)), (Tensor[(10, 34, 1), float32], Tensor[(10, 38, 1), float32]), Tensor[(10, 34, 1), float32], Tensor[(10, 10), float32], Tensor[(10, 10), float32], Tensor[(1), int32], Tensor[(10, 10), float32], float32) span=from_string:116:16 */ = %x_152;
  let %x_172: (Tensor[(10, 10), float32], (Tensor[(10, 10), float32], (Tensor[(10, 10), float32],)), (Tensor[(10, 34, 1), float32], Tensor[(10, 38, 1), float32]), Tensor[(10, 34, 1), float32], Tensor[(10, 10), float32], Tensor[(10, 10), float32], Tensor[(1), int32], Tensor[(10, 10), float32], float32) /* ty=(Tensor[(10, 10), float32], (Tensor[(10, 10), float32], (Tensor[(10, 10), float32],)), (Tensor[(10, 34, 1), float32], Tensor[(10, 38, 1), float32]), Tensor[(10, 34, 1), float32], Tensor[(10, 10), float32], Tensor[(10, 10), float32], Tensor[(1), int32], Tensor[(10, 10), float32], float32) span=from_string:117:16 */ = %x_162;
  let %x_182: (Tensor[(10, 10), float32], (Tensor[(10, 10), float32], (Tensor[(10, 10), float32],)), (Tensor[(10, 34, 1), float32], Tensor[(10, 38, 1), float32]), Tensor[(10, 34, 1), float32], Tensor[(10, 10), float32], Tensor[(10, 10), float32], Tensor[(1), int32], Tensor[(10, 10), float32], float32) /* ty=(Tensor[(10, 10), float32], (Tensor[(10, 10), float32], (Tensor[(10, 10), float32],)), (Tensor[(10, 34, 1), float32], Tensor[(10, 38, 1), float32]), Tensor[(10, 34, 1), float32], Tensor[(10, 10), float32], Tensor[(10, 10), float32], Tensor[(1), int32], Tensor[(10, 10), float32], float32) span=from_string:118:16 */ = %x_172;
  let %x_192: (Tensor[(10, 10), float32], (Tensor[(10, 10), float32], (Tensor[(10, 10), float32],)), (Tensor[(10, 34, 1), float32], Tensor[(10, 38, 1), float32]), Tensor[(10, 34, 1), float32], Tensor[(10, 10), float32], Tensor[(10, 10), float32], Tensor[(1), int32], Tensor[(10, 10), float32], float32) /* ty=(Tensor[(10, 10), float32], (Tensor[(10, 10), float32], (Tensor[(10, 10), float32],)), (Tensor[(10, 34, 1), float32], Tensor[(10, 38, 1), float32]), Tensor[(10, 34, 1), float32], Tensor[(10, 10), float32], Tensor[(10, 10), float32], Tensor[(1), int32], Tensor[(10, 10), float32], float32) span=from_string:119:16 */ = %x_182;
  let %x_202: (Tensor[(10, 10), float32], (Tensor[(10, 10), float32], (Tensor[(10, 10), float32],)), (Tensor[(10, 34, 1), float32], Tensor[(10, 38, 1), float32]), Tensor[(10, 34, 1), float32], Tensor[(10, 10), float32], Tensor[(10, 10), float32], Tensor[(1), int32], Tensor[(10, 10), float32], float32) /* ty=(Tensor[(10, 10), float32], (Tensor[(10, 10), float32], (Tensor[(10, 10), float32],)), (Tensor[(10, 34, 1), float32], Tensor[(10, 38, 1), float32]), Tensor[(10, 34, 1), float32], Tensor[(10, 10), float32], Tensor[(10, 10), float32], Tensor[(1), int32], Tensor[(10, 10), float32], float32) span=from_string:120:16 */ = %x_192;
  let %x_213: (Tensor[(10, 10), float32], (Tensor[(10, 10), float32], (Tensor[(10, 10), float32],)), (Tensor[(10, 34, 1), float32], Tensor[(10, 38, 1), float32]), Tensor[(10, 34, 1), float32], Tensor[(10, 10), float32], Tensor[(10, 10), float32], Tensor[(1), int32], Tensor[(10, 10), float32], float32) /* ty=(Tensor[(10, 10), float32], (Tensor[(10, 10), float32], (Tensor[(10, 10), float32],)), (Tensor[(10, 34, 1), float32], Tensor[(10, 38, 1), float32]), Tensor[(10, 34, 1), float32], Tensor[(10, 10), float32], Tensor[(10, 10), float32], Tensor[(1), int32], Tensor[(10, 10), float32], float32) span=from_string:121:16 */ = %x_202;
  let %x_222: (Tensor[(10, 10), float32], (Tensor[(10, 10), float32], (Tensor[(10, 10), float32],)), (Tensor[(10, 34, 1), float32], Tensor[(10, 38, 1), float32]), Tensor[(10, 34, 1), float32], Tensor[(10, 10), float32], Tensor[(10, 10), float32], Tensor[(1), int32], Tensor[(10, 10), float32], float32) /* ty=(Tensor[(10, 10), float32], (Tensor[(10, 10), float32], (Tensor[(10, 10), float32],)), (Tensor[(10, 34, 1), float32], Tensor[(10, 38, 1), float32]), Tensor[(10, 34, 1), float32], Tensor[(10, 10), float32], Tensor[(10, 10), float32], Tensor[(1), int32], Tensor[(10, 10), float32], float32) span=from_string:122:16 */ = %x_213;
  let %x_232: (Tensor[(10, 10), float32], (Tensor[(10, 10), float32], (Tensor[(10, 10), float32],)), (Tensor[(10, 34, 1), float32], Tensor[(10, 38, 1), float32]), Tensor[(10, 34, 1), float32], Tensor[(10, 10), float32], Tensor[(10, 10), float32], Tensor[(1), int32], Tensor[(10, 10), float32], float32) /* ty=(Tensor[(10, 10), float32], (Tensor[(10, 10), float32], (Tensor[(10, 10), float32],)), (Tensor[(10, 34, 1), float32], Tensor[(10, 38, 1), float32]), Tensor[(10, 34, 1), float32], Tensor[(10, 10), float32], Tensor[(10, 10), float32], Tensor[(1), int32], Tensor[(10, 10), float32], float32) span=from_string:123:16 */ = %x_222;
  let %x_242: (Tensor[(10, 10), float32], (Tensor[(10, 10), float32], (Tensor[(10, 10), float32],)), (Tensor[(10, 34, 1), float32], Tensor[(10, 38, 1), float32]), Tensor[(10, 34, 1), float32], Tensor[(10, 10), float32], Tensor[(10, 10), float32], Tensor[(1), int32], Tensor[(10, 10), float32], float32) /* ty=(Tensor[(10, 10), float32], (Tensor[(10, 10), float32], (Tensor[(10, 10), float32],)), (Tensor[(10, 34, 1), float32], Tensor[(10, 38, 1), float32]), Tensor[(10, 34, 1), float32], Tensor[(10, 10), float32], Tensor[(10, 10), float32], Tensor[(1), int32], Tensor[(10, 10), float32], float32) span=from_string:124:16 */ = %x_232;
  let %x_252: (Tensor[(10, 10), float32], (Tensor[(10, 10), float32], (Tensor[(10, 10), float32],)), (Tensor[(10, 34, 1), float32], Tensor[(10, 38, 1), float32]), Tensor[(10, 34, 1), float32], Tensor[(10, 10), float32], Tensor[(10, 10), float32], Tensor[(1), int32], Tensor[(10, 10), float32], float32) /* ty=(Tensor[(10, 10), float32], (Tensor[(10, 10), float32], (Tensor[(10, 10), float32],)), (Tensor[(10, 34, 1), float32], Tensor[(10, 38, 1), float32]), Tensor[(10, 34, 1), float32], Tensor[(10, 10), float32], Tensor[(10, 10), float32], Tensor[(1), int32], Tensor[(10, 10), float32], float32) span=from_string:125:16 */ = %x_242;
  let %x_262: (Tensor[(10, 10), float32], (Tensor[(10, 10), float32], (Tensor[(10, 10), float32],)), (Tensor[(10, 34, 1), float32], Tensor[(10, 38, 1), float32]), Tensor[(10, 34, 1), float32], Tensor[(10, 10), float32], Tensor[(10, 10), float32], Tensor[(1), int32], Tensor[(10, 10), float32], float32) /* ty=(Tensor[(10, 10), float32], (Tensor[(10, 10), float32], (Tensor[(10, 10), float32],)), (Tensor[(10, 34, 1), float32], Tensor[(10, 38, 1), float32]), Tensor[(10, 34, 1), float32], Tensor[(10, 10), float32], Tensor[(10, 10), float32], Tensor[(1), int32], Tensor[(10, 10), float32], float32) span=from_string:126:16 */ = %x_252;
  let %x_272: (Tensor[(10, 10), float32], (Tensor[(10, 10), float32], (Tensor[(10, 10), float32],)), (Tensor[(10, 34, 1), float32], Tensor[(10, 38, 1), float32]), Tensor[(10, 34, 1), float32], Tensor[(10, 10), float32], Tensor[(10, 10), float32], Tensor[(1), int32], Tensor[(10, 10), float32], float32) /* ty=(Tensor[(10, 10), float32], (Tensor[(10, 10), float32], (Tensor[(10, 10), float32],)), (Tensor[(10, 34, 1), float32], Tensor[(10, 38, 1), float32]), Tensor[(10, 34, 1), float32], Tensor[(10, 10), float32], Tensor[(10, 10), float32], Tensor[(1), int32], Tensor[(10, 10), float32], float32) span=from_string:127:16 */ = %x_262;
  let %x_282: (Tensor[(10, 10), float32], (Tensor[(10, 10), float32], (Tensor[(10, 10), float32],)), (Tensor[(10, 34, 1), float32], Tensor[(10, 38, 1), float32]), Tensor[(10, 34, 1), float32], Tensor[(10, 10), float32], Tensor[(10, 10), float32], Tensor[(1), int32], Tensor[(10, 10), float32], float32) /* ty=(Tensor[(10, 10), float32], (Tensor[(10, 10), float32], (Tensor[(10, 10), float32],)), (Tensor[(10, 34, 1), float32], Tensor[(10, 38, 1), float32]), Tensor[(10, 34, 1), float32], Tensor[(10, 10), float32], Tensor[(10, 10), float32], Tensor[(1), int32], Tensor[(10, 10), float32], float32) span=from_string:128:16 */ = %x_272;
  let %x_292: (Tensor[(10, 10), float32], (Tensor[(10, 10), float32], (Tensor[(10, 10), float32],)), (Tensor[(10, 34, 1), float32], Tensor[(10, 38, 1), float32]), Tensor[(10, 34, 1), float32], Tensor[(10, 10), float32], Tensor[(10, 10), float32], Tensor[(1), int32], Tensor[(10, 10), float32], float32) /* ty=(Tensor[(10, 10), float32], (Tensor[(10, 10), float32], (Tensor[(10, 10), float32],)), (Tensor[(10, 34, 1), float32], Tensor[(10, 38, 1), float32]), Tensor[(10, 34, 1), float32], Tensor[(10, 10), float32], Tensor[(10, 10), float32], Tensor[(1), int32], Tensor[(10, 10), float32], float32) span=from_string:129:16 */ = %x_282;
  let %x_302: (Tensor[(10, 10), float32], (Tensor[(10, 10), float32], (Tensor[(10, 10), float32],)), (Tensor[(10, 34, 1), float32], Tensor[(10, 38, 1), float32]), Tensor[(10, 34, 1), float32], Tensor[(10, 10), float32], Tensor[(10, 10), float32], Tensor[(1), int32], Tensor[(10, 10), float32], float32) /* ty=(Tensor[(10, 10), float32], (Tensor[(10, 10), float32], (Tensor[(10, 10), float32],)), (Tensor[(10, 34, 1), float32], Tensor[(10, 38, 1), float32]), Tensor[(10, 34, 1), float32], Tensor[(10, 10), float32], Tensor[(10, 10), float32], Tensor[(1), int32], Tensor[(10, 10), float32], float32) span=from_string:130:16 */ = %x_292;
  let %x_313: (Tensor[(10, 10), float32], (Tensor[(10, 10), float32], (Tensor[(10, 10), float32],)), (Tensor[(10, 34, 1), float32], Tensor[(10, 38, 1), float32]), Tensor[(10, 34, 1), float32], Tensor[(10, 10), float32], Tensor[(10, 10), float32], Tensor[(1), int32], Tensor[(10, 10), float32], float32) /* ty=(Tensor[(10, 10), float32], (Tensor[(10, 10), float32], (Tensor[(10, 10), float32],)), (Tensor[(10, 34, 1), float32], Tensor[(10, 38, 1), float32]), Tensor[(10, 34, 1), float32], Tensor[(10, 10), float32], Tensor[(10, 10), float32], Tensor[(1), int32], Tensor[(10, 10), float32], float32) span=from_string:131:16 */ = %x_302;
  let %x_322: (Tensor[(10, 10), float32], (Tensor[(10, 10), float32], (Tensor[(10, 10), float32],)), (Tensor[(10, 34, 1), float32], Tensor[(10, 38, 1), float32]), Tensor[(10, 34, 1), float32], Tensor[(10, 10), float32], Tensor[(10, 10), float32], Tensor[(1), int32], Tensor[(10, 10), float32], float32) /* ty=(Tensor[(10, 10), float32], (Tensor[(10, 10), float32], (Tensor[(10, 10), float32],)), (Tensor[(10, 34, 1), float32], Tensor[(10, 38, 1), float32]), Tensor[(10, 34, 1), float32], Tensor[(10, 10), float32], Tensor[(10, 10), float32], Tensor[(1), int32], Tensor[(10, 10), float32], float32) span=from_string:132:16 */ = %x_313;
  let %x_332: (Tensor[(10, 10), float32], (Tensor[(10, 10), float32], (Tensor[(10, 10), float32],)), (Tensor[(10, 34, 1), float32], Tensor[(10, 38, 1), float32]), Tensor[(10, 34, 1), float32], Tensor[(10, 10), float32], Tensor[(10, 10), float32], Tensor[(1), int32], Tensor[(10, 10), float32], float32) /* ty=(Tensor[(10, 10), float32], (Tensor[(10, 10), float32], (Tensor[(10, 10), float32],)), (Tensor[(10, 34, 1), float32], Tensor[(10, 38, 1), float32]), Tensor[(10, 34, 1), float32], Tensor[(10, 10), float32], Tensor[(10, 10), float32], Tensor[(1), int32], Tensor[(10, 10), float32], float32) span=from_string:133:16 */ = %x_322;
  let %x_342: (Tensor[(10, 10), float32], (Tensor[(10, 10), float32], (Tensor[(10, 10), float32],)), (Tensor[(10, 34, 1), float32], Tensor[(10, 38, 1), float32]), Tensor[(10, 34, 1), float32], Tensor[(10, 10), float32], Tensor[(10, 10), float32], Tensor[(1), int32], Tensor[(10, 10), float32], float32) /* ty=(Tensor[(10, 10), float32], (Tensor[(10, 10), float32], (Tensor[(10, 10), float32],)), (Tensor[(10, 34, 1), float32], Tensor[(10, 38, 1), float32]), Tensor[(10, 34, 1), float32], Tensor[(10, 10), float32], Tensor[(10, 10), float32], Tensor[(1), int32], Tensor[(10, 10), float32], float32) span=from_string:134:16 */ = %x_332;
  let %x_352: (Tensor[(10, 10), float32], (Tensor[(10, 10), float32], (Tensor[(10, 10), float32],)), (Tensor[(10, 34, 1), float32], Tensor[(10, 38, 1), float32]), Tensor[(10, 34, 1), float32], Tensor[(10, 10), float32], Tensor[(10, 10), float32], Tensor[(1), int32], Tensor[(10, 10), float32], float32) /* ty=(Tensor[(10, 10), float32], (Tensor[(10, 10), float32], (Tensor[(10, 10), float32],)), (Tensor[(10, 34, 1), float32], Tensor[(10, 38, 1), float32]), Tensor[(10, 34, 1), float32], Tensor[(10, 10), float32], Tensor[(10, 10), float32], Tensor[(1), int32], Tensor[(10, 10), float32], float32) span=from_string:135:16 */ = %x_342;
  let %x_362: (Tensor[(10, 10), float32], (Tensor[(10, 10), float32], (Tensor[(10, 10), float32],)), (Tensor[(10, 34, 1), float32], Tensor[(10, 38, 1), float32]), Tensor[(10, 34, 1), float32], Tensor[(10, 10), float32], Tensor[(10, 10), float32], Tensor[(1), int32], Tensor[(10, 10), float32], float32) /* ty=(Tensor[(10, 10), float32], (Tensor[(10, 10), float32], (Tensor[(10, 10), float32],)), (Tensor[(10, 34, 1), float32], Tensor[(10, 38, 1), float32]), Tensor[(10, 34, 1), float32], Tensor[(10, 10), float32], Tensor[(10, 10), float32], Tensor[(1), int32], Tensor[(10, 10), float32], float32) span=from_string:136:16 */ = %x_352;
  let %x_372: (Tensor[(10, 10), float32], (Tensor[(10, 10), float32], (Tensor[(10, 10), float32],)), (Tensor[(10, 34, 1), float32], Tensor[(10, 38, 1), float32]), Tensor[(10, 34, 1), float32], Tensor[(10, 10), float32], Tensor[(10, 10), float32], Tensor[(1), int32], Tensor[(10, 10), float32], float32) /* ty=(Tensor[(10, 10), float32], (Tensor[(10, 10), float32], (Tensor[(10, 10), float32],)), (Tensor[(10, 34, 1), float32], Tensor[(10, 38, 1), float32]), Tensor[(10, 34, 1), float32], Tensor[(10, 10), float32], Tensor[(10, 10), float32], Tensor[(1), int32], Tensor[(10, 10), float32], float32) span=from_string:137:16 */ = %x_362;
  let %x_382: (Tensor[(10, 10), float32], (Tensor[(10, 10), float32], (Tensor[(10, 10), float32],)), (Tensor[(10, 34, 1), float32], Tensor[(10, 38, 1), float32]), Tensor[(10, 34, 1), float32], Tensor[(10, 10), float32], Tensor[(10, 10), float32], Tensor[(1), int32], Tensor[(10, 10), float32], float32) /* ty=(Tensor[(10, 10), float32], (Tensor[(10, 10), float32], (Tensor[(10, 10), float32],)), (Tensor[(10, 34, 1), float32], Tensor[(10, 38, 1), float32]), Tensor[(10, 34, 1), float32], Tensor[(10, 10), float32], Tensor[(10, 10), float32], Tensor[(1), int32], Tensor[(10, 10), float32], float32) span=from_string:138:16 */ = %x_372;
  let %x_392: (Tensor[(10, 10), float32], (Tensor[(10, 10), float32], (Tensor[(10, 10), float32],)), (Tensor[(10, 34, 1), float32], Tensor[(10, 38, 1), float32]), Tensor[(10, 34, 1), float32], Tensor[(10, 10), float32], Tensor[(10, 10), float32], Tensor[(1), int32], Tensor[(10, 10), float32], float32) /* ty=(Tensor[(10, 10), float32], (Tensor[(10, 10), float32], (Tensor[(10, 10), float32],)), (Tensor[(10, 34, 1), float32], Tensor[(10, 38, 1), float32]), Tensor[(10, 34, 1), float32], Tensor[(10, 10), float32], Tensor[(10, 10), float32], Tensor[(1), int32], Tensor[(10, 10), float32], float32) span=from_string:139:16 */ = %x_382;
  let %x_402: (Tensor[(10, 10), float32], (Tensor[(10, 10), float32], (Tensor[(10, 10), float32],)), (Tensor[(10, 34, 1), float32], Tensor[(10, 38, 1), float32]), Tensor[(10, 34, 1), float32], Tensor[(10, 10), float32], Tensor[(10, 10), float32], Tensor[(1), int32], Tensor[(10, 10), float32], float32) /* ty=(Tensor[(10, 10), float32], (Tensor[(10, 10), float32], (Tensor[(10, 10), float32],)), (Tensor[(10, 34, 1), float32], Tensor[(10, 38, 1), float32]), Tensor[(10, 34, 1), float32], Tensor[(10, 10), float32], Tensor[(10, 10), float32], Tensor[(1), int32], Tensor[(10, 10), float32], float32) span=from_string:140:16 */ = %x_392;
  let %x_412: (Tensor[(10, 10), float32], (Tensor[(10, 10), float32], (Tensor[(10, 10), float32],)), (Tensor[(10, 34, 1), float32], Tensor[(10, 38, 1), float32]), Tensor[(10, 34, 1), float32], Tensor[(10, 10), float32], Tensor[(10, 10), float32], Tensor[(1), int32], Tensor[(10, 10), float32], float32) /* ty=(Tensor[(10, 10), float32], (Tensor[(10, 10), float32], (Tensor[(10, 10), float32],)), (Tensor[(10, 34, 1), float32], Tensor[(10, 38, 1), float32]), Tensor[(10, 34, 1), float32], Tensor[(10, 10), float32], Tensor[(10, 10), float32], Tensor[(1), int32], Tensor[(10, 10), float32], float32) span=from_string:141:16 */ = %x_402;
  let %x_422: (Tensor[(10, 10), float32], (Tensor[(10, 10), float32], (Tensor[(10, 10), float32],)), (Tensor[(10, 34, 1), float32], Tensor[(10, 38, 1), float32]), Tensor[(10, 34, 1), float32], Tensor[(10, 10), float32], Tensor[(10, 10), float32], Tensor[(1), int32], Tensor[(10, 10), float32], float32) /* ty=(Tensor[(10, 10), float32], (Tensor[(10, 10), float32], (Tensor[(10, 10), float32],)), (Tensor[(10, 34, 1), float32], Tensor[(10, 38, 1), float32]), Tensor[(10, 34, 1), float32], Tensor[(10, 10), float32], Tensor[(10, 10), float32], Tensor[(1), int32], Tensor[(10, 10), float32], float32) span=from_string:142:16 */ = %x_412;
  let %x_432: (Tensor[(10, 10), float32], (Tensor[(10, 10), float32], (Tensor[(10, 10), float32],)), (Tensor[(10, 34, 1), float32], Tensor[(10, 38, 1), float32]), Tensor[(10, 34, 1), float32], Tensor[(10, 10), float32], Tensor[(10, 10), float32], Tensor[(1), int32], Tensor[(10, 10), float32], float32) /* ty=(Tensor[(10, 10), float32], (Tensor[(10, 10), float32], (Tensor[(10, 10), float32],)), (Tensor[(10, 34, 1), float32], Tensor[(10, 38, 1), float32]), Tensor[(10, 34, 1), float32], Tensor[(10, 10), float32], Tensor[(10, 10), float32], Tensor[(1), int32], Tensor[(10, 10), float32], float32) span=from_string:143:16 */ = %x_422;
  let %x_442: (Tensor[(10, 10), float32], (Tensor[(10, 10), float32], (Tensor[(10, 10), float32],)), (Tensor[(10, 34, 1), float32], Tensor[(10, 38, 1), float32]), Tensor[(10, 34, 1), float32], Tensor[(10, 10), float32], Tensor[(10, 10), float32], Tensor[(1), int32], Tensor[(10, 10), float32], float32) /* ty=(Tensor[(10, 10), float32], (Tensor[(10, 10), float32], (Tensor[(10, 10), float32],)), (Tensor[(10, 34, 1), float32], Tensor[(10, 38, 1), float32]), Tensor[(10, 34, 1), float32], Tensor[(10, 10), float32], Tensor[(10, 10), float32], Tensor[(1), int32], Tensor[(10, 10), float32], float32) span=from_string:144:16 */ = %x_432;
  let %x_452: (Tensor[(10, 10), float32], (Tensor[(10, 10), float32], (Tensor[(10, 10), float32],)), (Tensor[(10, 34, 1), float32], Tensor[(10, 38, 1), float32]), Tensor[(10, 34, 1), float32], Tensor[(10, 10), float32], Tensor[(10, 10), float32], Tensor[(1), int32], Tensor[(10, 10), float32], float32) /* ty=(Tensor[(10, 10), float32], (Tensor[(10, 10), float32], (Tensor[(10, 10), float32],)), (Tensor[(10, 34, 1), float32], Tensor[(10, 38, 1), float32]), Tensor[(10, 34, 1), float32], Tensor[(10, 10), float32], Tensor[(10, 10), float32], Tensor[(1), int32], Tensor[(10, 10), float32], float32) span=from_string:145:16 */ = %x_442;
  let %x_461: (Tensor[(10, 10), float32], (Tensor[(10, 10), float32], (Tensor[(10, 10), float32],)), (Tensor[(10, 34, 1), float32], Tensor[(10, 38, 1), float32]), Tensor[(10, 34, 1), float32], Tensor[(10, 10), float32], Tensor[(10, 10), float32], Tensor[(1), int32], Tensor[(10, 10), float32], float32) /* ty=(Tensor[(10, 10), float32], (Tensor[(10, 10), float32], (Tensor[(10, 10), float32],)), (Tensor[(10, 34, 1), float32], Tensor[(10, 38, 1), float32]), Tensor[(10, 34, 1), float32], Tensor[(10, 10), float32], Tensor[(10, 10), float32], Tensor[(1), int32], Tensor[(10, 10), float32], float32) span=from_string:146:16 */ = %x_452;
  let %x_471: (Tensor[(10, 10), float32], (Tensor[(10, 10), float32], (Tensor[(10, 10), float32],)), (Tensor[(10, 34, 1), float32], Tensor[(10, 38, 1), float32]), Tensor[(10, 34, 1), float32], Tensor[(10, 10), float32], Tensor[(10, 10), float32], Tensor[(1), int32], Tensor[(10, 10), float32], float32) /* ty=(Tensor[(10, 10), float32], (Tensor[(10, 10), float32], (Tensor[(10, 10), float32],)), (Tensor[(10, 34, 1), float32], Tensor[(10, 38, 1), float32]), Tensor[(10, 34, 1), float32], Tensor[(10, 10), float32], Tensor[(10, 10), float32], Tensor[(1), int32], Tensor[(10, 10), float32], float32) span=from_string:147:16 */ = %x_461;
  let %x_481: (Tensor[(10, 10), float32], (Tensor[(10, 10), float32], (Tensor[(10, 10), float32],)), (Tensor[(10, 34, 1), float32], Tensor[(10, 38, 1), float32]), Tensor[(10, 34, 1), float32], Tensor[(10, 10), float32], Tensor[(10, 10), float32], Tensor[(1), int32], Tensor[(10, 10), float32], float32) /* ty=(Tensor[(10, 10), float32], (Tensor[(10, 10), float32], (Tensor[(10, 10), float32],)), (Tensor[(10, 34, 1), float32], Tensor[(10, 38, 1), float32]), Tensor[(10, 34, 1), float32], Tensor[(10, 10), float32], Tensor[(10, 10), float32], Tensor[(1), int32], Tensor[(10, 10), float32], float32) span=from_string:148:15 */ = %x_471;
  let %x_49: (Tensor[(10, 10), float32], (Tensor[(10, 10), float32], (Tensor[(10, 10), float32],)), (Tensor[(10, 34, 1), float32], Tensor[(10, 38, 1), float32]), Tensor[(10, 34, 1), float32], Tensor[(10, 10), float32], Tensor[(10, 10), float32], Tensor[(1), int32], Tensor[(10, 10), float32], float32) /* ty=(Tensor[(10, 10), float32], (Tensor[(10, 10), float32], (Tensor[(10, 10), float32],)), (Tensor[(10, 34, 1), float32], Tensor[(10, 38, 1), float32]), Tensor[(10, 34, 1), float32], Tensor[(10, 10), float32], Tensor[(10, 10), float32], Tensor[(1), int32], Tensor[(10, 10), float32], float32) span=from_string:149:15 */ = %x_481;
  let %x_50: (Tensor[(10, 10), float32], (Tensor[(10, 10), float32], (Tensor[(10, 10), float32],)), (Tensor[(10, 34, 1), float32], Tensor[(10, 38, 1), float32]), Tensor[(10, 34, 1), float32], Tensor[(10, 10), float32], Tensor[(10, 10), float32], Tensor[(1), int32], Tensor[(10, 10), float32], float32) /* ty=(Tensor[(10, 10), float32], (Tensor[(10, 10), float32], (Tensor[(10, 10), float32],)), (Tensor[(10, 34, 1), float32], Tensor[(10, 38, 1), float32]), Tensor[(10, 34, 1), float32], Tensor[(10, 10), float32], Tensor[(10, 10), float32], Tensor[(1), int32], Tensor[(10, 10), float32], float32) span=from_string:150:16 */ = %x_49;
  let %x_511: (Tensor[(10, 10), float32], (Tensor[(10, 10), float32], (Tensor[(10, 10), float32],)), (Tensor[(10, 34, 1), float32], Tensor[(10, 38, 1), float32]), Tensor[(10, 34, 1), float32], Tensor[(10, 10), float32], Tensor[(10, 10), float32], Tensor[(1), int32], Tensor[(10, 10), float32], float32) /* ty=(Tensor[(10, 10), float32], (Tensor[(10, 10), float32], (Tensor[(10, 10), float32],)), (Tensor[(10, 34, 1), float32], Tensor[(10, 38, 1), float32]), Tensor[(10, 34, 1), float32], Tensor[(10, 10), float32], Tensor[(10, 10), float32], Tensor[(1), int32], Tensor[(10, 10), float32], float32) span=from_string:151:16 */ = %x_50;
  let %x_521: (Tensor[(10, 10), float32], (Tensor[(10, 10), float32], (Tensor[(10, 10), float32],)), (Tensor[(10, 34, 1), float32], Tensor[(10, 38, 1), float32]), Tensor[(10, 34, 1), float32], Tensor[(10, 10), float32], Tensor[(10, 10), float32], Tensor[(1), int32], Tensor[(10, 10), float32], float32) /* ty=(Tensor[(10, 10), float32], (Tensor[(10, 10), float32], (Tensor[(10, 10), float32],)), (Tensor[(10, 34, 1), float32], Tensor[(10, 38, 1), float32]), Tensor[(10, 34, 1), float32], Tensor[(10, 10), float32], Tensor[(10, 10), float32], Tensor[(1), int32], Tensor[(10, 10), float32], float32) span=from_string:152:15 */ = %x_511;
  let %x_53: (Tensor[(10, 10), float32], (Tensor[(10, 10), float32], (Tensor[(10, 10), float32],)), (Tensor[(10, 34, 1), float32], Tensor[(10, 38, 1), float32]), Tensor[(10, 34, 1), float32], Tensor[(10, 10), float32], Tensor[(10, 10), float32], Tensor[(1), int32], Tensor[(10, 10), float32], float32) /* ty=(Tensor[(10, 10), float32], (Tensor[(10, 10), float32], (Tensor[(10, 10), float32],)), (Tensor[(10, 34, 1), float32], Tensor[(10, 38, 1), float32]), Tensor[(10, 34, 1), float32], Tensor[(10, 10), float32], Tensor[(10, 10), float32], Tensor[(1), int32], Tensor[(10, 10), float32], float32) span=from_string:153:15 */ = %x_521;
  let %x_54: (Tensor[(10, 10), float32], (Tensor[(10, 10), float32], (Tensor[(10, 10), float32],)), (Tensor[(10, 34, 1), float32], Tensor[(10, 38, 1), float32]), Tensor[(10, 34, 1), float32], Tensor[(10, 10), float32], Tensor[(10, 10), float32], Tensor[(1), int32], Tensor[(10, 10), float32], float32) /* ty=(Tensor[(10, 10), float32], (Tensor[(10, 10), float32], (Tensor[(10, 10), float32],)), (Tensor[(10, 34, 1), float32], Tensor[(10, 38, 1), float32]), Tensor[(10, 34, 1), float32], Tensor[(10, 10), float32], Tensor[(10, 10), float32], Tensor[(1), int32], Tensor[(10, 10), float32], float32) span=from_string:154:15 */ = %x_53;
  let %x_55: (Tensor[(10, 10), float32], (Tensor[(10, 10), float32], (Tensor[(10, 10), float32],)), (Tensor[(10, 34, 1), float32], Tensor[(10, 38, 1), float32]), Tensor[(10, 34, 1), float32], Tensor[(10, 10), float32], Tensor[(10, 10), float32], Tensor[(1), int32], Tensor[(10, 10), float32], float32) /* ty=(Tensor[(10, 10), float32], (Tensor[(10, 10), float32], (Tensor[(10, 10), float32],)), (Tensor[(10, 34, 1), float32], Tensor[(10, 38, 1), float32]), Tensor[(10, 34, 1), float32], Tensor[(10, 10), float32], Tensor[(10, 10), float32], Tensor[(1), int32], Tensor[(10, 10), float32], float32) span=from_string:155:15 */ = %x_54;
  let %x_56: (Tensor[(10, 10), float32], (Tensor[(10, 10), float32], (Tensor[(10, 10), float32],)), (Tensor[(10, 34, 1), float32], Tensor[(10, 38, 1), float32]), Tensor[(10, 34, 1), float32], Tensor[(10, 10), float32], Tensor[(10, 10), float32], Tensor[(1), int32], Tensor[(10, 10), float32], float32) /* ty=(Tensor[(10, 10), float32], (Tensor[(10, 10), float32], (Tensor[(10, 10), float32],)), (Tensor[(10, 34, 1), float32], Tensor[(10, 38, 1), float32]), Tensor[(10, 34, 1), float32], Tensor[(10, 10), float32], Tensor[(10, 10), float32], Tensor[(1), int32], Tensor[(10, 10), float32], float32) span=from_string:156:15 */ = %x_55;
  let %x_57: (Tensor[(10, 10), float32], (Tensor[(10, 10), float32], (Tensor[(10, 10), float32],)), (Tensor[(10, 34, 1), float32], Tensor[(10, 38, 1), float32]), Tensor[(10, 34, 1), float32], Tensor[(10, 10), float32], Tensor[(10, 10), float32], Tensor[(1), int32], Tensor[(10, 10), float32], float32) /* ty=(Tensor[(10, 10), float32], (Tensor[(10, 10), float32], (Tensor[(10, 10), float32],)), (Tensor[(10, 34, 1), float32], Tensor[(10, 38, 1), float32]), Tensor[(10, 34, 1), float32], Tensor[(10, 10), float32], Tensor[(10, 10), float32], Tensor[(1), int32], Tensor[(10, 10), float32], float32) span=from_string:157:15 */ = %x_56;
  let %x_58: (Tensor[(10, 10), float32], (Tensor[(10, 10), float32], (Tensor[(10, 10), float32],)), (Tensor[(10, 34, 1), float32], Tensor[(10, 38, 1), float32]), Tensor[(10, 34, 1), float32], Tensor[(10, 10), float32], Tensor[(10, 10), float32], Tensor[(1), int32], Tensor[(10, 10), float32], float32) /* ty=(Tensor[(10, 10), float32], (Tensor[(10, 10), float32], (Tensor[(10, 10), float32],)), (Tensor[(10, 34, 1), float32], Tensor[(10, 38, 1), float32]), Tensor[(10, 34, 1), float32], Tensor[(10, 10), float32], Tensor[(10, 10), float32], Tensor[(1), int32], Tensor[(10, 10), float32], float32) span=from_string:158:15 */ = %x_57;
  let %x_59: (Tensor[(10, 10), float32], (Tensor[(10, 10), float32], (Tensor[(10, 10), float32],)), (Tensor[(10, 34, 1), float32], Tensor[(10, 38, 1), float32]), Tensor[(10, 34, 1), float32], Tensor[(10, 10), float32], Tensor[(10, 10), float32], Tensor[(1), int32], Tensor[(10, 10), float32], float32) /* ty=(Tensor[(10, 10), float32], (Tensor[(10, 10), float32], (Tensor[(10, 10), float32],)), (Tensor[(10, 34, 1), float32], Tensor[(10, 38, 1), float32]), Tensor[(10, 34, 1), float32], Tensor[(10, 10), float32], Tensor[(10, 10), float32], Tensor[(1), int32], Tensor[(10, 10), float32], float32) span=from_string:159:15 */ = %x_58;
  let %x_60: (Tensor[(10, 10), float32], (Tensor[(10, 10), float32], (Tensor[(10, 10), float32],)), (Tensor[(10, 34, 1), float32], Tensor[(10, 38, 1), float32]), Tensor[(10, 34, 1), float32], Tensor[(10, 10), float32], Tensor[(10, 10), float32], Tensor[(1), int32], Tensor[(10, 10), float32], float32) /* ty=(Tensor[(10, 10), float32], (Tensor[(10, 10), float32], (Tensor[(10, 10), float32],)), (Tensor[(10, 34, 1), float32], Tensor[(10, 38, 1), float32]), Tensor[(10, 34, 1), float32], Tensor[(10, 10), float32], Tensor[(10, 10), float32], Tensor[(1), int32], Tensor[(10, 10), float32], float32) span=from_string:160:16 */ = %x_59;
  let %x_611: (Tensor[(10, 10), float32], (Tensor[(10, 10), float32], (Tensor[(10, 10), float32],)), (Tensor[(10, 34, 1), float32], Tensor[(10, 38, 1), float32]), Tensor[(10, 34, 1), float32], Tensor[(10, 10), float32], Tensor[(10, 10), float32], Tensor[(1), int32], Tensor[(10, 10), float32], float32) /* ty=(Tensor[(10, 10), float32], (Tensor[(10, 10), float32], (Tensor[(10, 10), float32],)), (Tensor[(10, 34, 1), float32], Tensor[(10, 38, 1), float32]), Tensor[(10, 34, 1), float32], Tensor[(10, 10), float32], Tensor[(10, 10), float32], Tensor[(1), int32], Tensor[(10, 10), float32], float32) span=from_string:161:16 */ = %x_60;
  let %x_621: (Tensor[(10, 10), float32], (Tensor[(10, 10), float32], (Tensor[(10, 10), float32],)), (Tensor[(10, 34, 1), float32], Tensor[(10, 38, 1), float32]), Tensor[(10, 34, 1), float32], Tensor[(10, 10), float32], Tensor[(10, 10), float32], Tensor[(1), int32], Tensor[(10, 10), float32], float32) /* ty=(Tensor[(10, 10), float32], (Tensor[(10, 10), float32], (Tensor[(10, 10), float32],)), (Tensor[(10, 34, 1), float32], Tensor[(10, 38, 1), float32]), Tensor[(10, 34, 1), float32], Tensor[(10, 10), float32], Tensor[(10, 10), float32], Tensor[(1), int32], Tensor[(10, 10), float32], float32) span=from_string:162:15 */ = %x_611;
  let %x_63: (Tensor[(10, 10), float32], (Tensor[(10, 10), float32], (Tensor[(10, 10), float32],)), (Tensor[(10, 34, 1), float32], Tensor[(10, 38, 1), float32]), Tensor[(10, 34, 1), float32], Tensor[(10, 10), float32], Tensor[(10, 10), float32], Tensor[(1), int32], Tensor[(10, 10), float32], float32) /* ty=(Tensor[(10, 10), float32], (Tensor[(10, 10), float32], (Tensor[(10, 10), float32],)), (Tensor[(10, 34, 1), float32], Tensor[(10, 38, 1), float32]), Tensor[(10, 34, 1), float32], Tensor[(10, 10), float32], Tensor[(10, 10), float32], Tensor[(1), int32], Tensor[(10, 10), float32], float32) span=from_string:163:15 */ = %x_621;
  let %x_64: (Tensor[(10, 10), float32], (Tensor[(10, 10), float32], (Tensor[(10, 10), float32],)), (Tensor[(10, 34, 1), float32], Tensor[(10, 38, 1), float32]), Tensor[(10, 34, 1), float32], Tensor[(10, 10), float32], Tensor[(10, 10), float32], Tensor[(1), int32], Tensor[(10, 10), float32], float32) /* ty=(Tensor[(10, 10), float32], (Tensor[(10, 10), float32], (Tensor[(10, 10), float32],)), (Tensor[(10, 34, 1), float32], Tensor[(10, 38, 1), float32]), Tensor[(10, 34, 1), float32], Tensor[(10, 10), float32], Tensor[(10, 10), float32], Tensor[(1), int32], Tensor[(10, 10), float32], float32) span=from_string:164:15 */ = %x_63;
  let %x_65: (Tensor[(10, 10), float32], (Tensor[(10, 10), float32], (Tensor[(10, 10), float32],)), (Tensor[(10, 34, 1), float32], Tensor[(10, 38, 1), float32]), Tensor[(10, 34, 1), float32], Tensor[(10, 10), float32], Tensor[(10, 10), float32], Tensor[(1), int32], Tensor[(10, 10), float32], float32) /* ty=(Tensor[(10, 10), float32], (Tensor[(10, 10), float32], (Tensor[(10, 10), float32],)), (Tensor[(10, 34, 1), float32], Tensor[(10, 38, 1), float32]), Tensor[(10, 34, 1), float32], Tensor[(10, 10), float32], Tensor[(10, 10), float32], Tensor[(1), int32], Tensor[(10, 10), float32], float32) span=from_string:165:15 */ = %x_64;
  let %x_66: (Tensor[(10, 10), float32], (Tensor[(10, 10), float32], (Tensor[(10, 10), float32],)), (Tensor[(10, 34, 1), float32], Tensor[(10, 38, 1), float32]), Tensor[(10, 34, 1), float32], Tensor[(10, 10), float32], Tensor[(10, 10), float32], Tensor[(1), int32], Tensor[(10, 10), float32], float32) /* ty=(Tensor[(10, 10), float32], (Tensor[(10, 10), float32], (Tensor[(10, 10), float32],)), (Tensor[(10, 34, 1), float32], Tensor[(10, 38, 1), float32]), Tensor[(10, 34, 1), float32], Tensor[(10, 10), float32], Tensor[(10, 10), float32], Tensor[(1), int32], Tensor[(10, 10), float32], float32) span=from_string:166:15 */ = %x_65;
  let %x_67: (Tensor[(10, 10), float32], (Tensor[(10, 10), float32], (Tensor[(10, 10), float32],)), (Tensor[(10, 34, 1), float32], Tensor[(10, 38, 1), float32]), Tensor[(10, 34, 1), float32], Tensor[(10, 10), float32], Tensor[(10, 10), float32], Tensor[(1), int32], Tensor[(10, 10), float32], float32) /* ty=(Tensor[(10, 10), float32], (Tensor[(10, 10), float32], (Tensor[(10, 10), float32],)), (Tensor[(10, 34, 1), float32], Tensor[(10, 38, 1), float32]), Tensor[(10, 34, 1), float32], Tensor[(10, 10), float32], Tensor[(10, 10), float32], Tensor[(1), int32], Tensor[(10, 10), float32], float32) span=from_string:167:15 */ = %x_66;
  let %x_68: (Tensor[(10, 10), float32], (Tensor[(10, 10), float32], (Tensor[(10, 10), float32],)), (Tensor[(10, 34, 1), float32], Tensor[(10, 38, 1), float32]), Tensor[(10, 34, 1), float32], Tensor[(10, 10), float32], Tensor[(10, 10), float32], Tensor[(1), int32], Tensor[(10, 10), float32], float32) /* ty=(Tensor[(10, 10), float32], (Tensor[(10, 10), float32], (Tensor[(10, 10), float32],)), (Tensor[(10, 34, 1), float32], Tensor[(10, 38, 1), float32]), Tensor[(10, 34, 1), float32], Tensor[(10, 10), float32], Tensor[(10, 10), float32], Tensor[(1), int32], Tensor[(10, 10), float32], float32) span=from_string:168:15 */ = %x_67;
  let %x_69: (Tensor[(10, 10), float32], (Tensor[(10, 10), float32], (Tensor[(10, 10), float32],)), (Tensor[(10, 34, 1), float32], Tensor[(10, 38, 1), float32]), Tensor[(10, 34, 1), float32], Tensor[(10, 10), float32], Tensor[(10, 10), float32], Tensor[(1), int32], Tensor[(10, 10), float32], float32) /* ty=(Tensor[(10, 10), float32], (Tensor[(10, 10), float32], (Tensor[(10, 10), float32],)), (Tensor[(10, 34, 1), float32], Tensor[(10, 38, 1), float32]), Tensor[(10, 34, 1), float32], Tensor[(10, 10), float32], Tensor[(10, 10), float32], Tensor[(1), int32], Tensor[(10, 10), float32], float32) span=from_string:169:15 */ = %x_68;
  let %x_70: (Tensor[(10, 10), float32], (Tensor[(10, 10), float32], (Tensor[(10, 10), float32],)), (Tensor[(10, 34, 1), float32], Tensor[(10, 38, 1), float32]), Tensor[(10, 34, 1), float32], Tensor[(10, 10), float32], Tensor[(10, 10), float32], Tensor[(1), int32], Tensor[(10, 10), float32], float32) /* ty=(Tensor[(10, 10), float32], (Tensor[(10, 10), float32], (Tensor[(10, 10), float32],)), (Tensor[(10, 34, 1), float32], Tensor[(10, 38, 1), float32]), Tensor[(10, 34, 1), float32], Tensor[(10, 10), float32], Tensor[(10, 10), float32], Tensor[(1), int32], Tensor[(10, 10), float32], float32) span=from_string:170:16 */ = %x_69;
  let %x_711: (Tensor[(10, 10), float32], (Tensor[(10, 10), float32], (Tensor[(10, 10), float32],)), (Tensor[(10, 34, 1), float32], Tensor[(10, 38, 1), float32]), Tensor[(10, 34, 1), float32], Tensor[(10, 10), float32], Tensor[(10, 10), float32], Tensor[(1), int32], Tensor[(10, 10), float32], float32) /* ty=(Tensor[(10, 10), float32], (Tensor[(10, 10), float32], (Tensor[(10, 10), float32],)), (Tensor[(10, 34, 1), float32], Tensor[(10, 38, 1), float32]), Tensor[(10, 34, 1), float32], Tensor[(10, 10), float32], Tensor[(10, 10), float32], Tensor[(1), int32], Tensor[(10, 10), float32], float32) span=from_string:171:16 */ = %x_70;
  let %x_721: (Tensor[(10, 10), float32], (Tensor[(10, 10), float32], (Tensor[(10, 10), float32],)), (Tensor[(10, 34, 1), float32], Tensor[(10, 38, 1), float32]), Tensor[(10, 34, 1), float32], Tensor[(10, 10), float32], Tensor[(10, 10), float32], Tensor[(1), int32], Tensor[(10, 10), float32], float32) /* ty=(Tensor[(10, 10), float32], (Tensor[(10, 10), float32], (Tensor[(10, 10), float32],)), (Tensor[(10, 34, 1), float32], Tensor[(10, 38, 1), float32]), Tensor[(10, 34, 1), float32], Tensor[(10, 10), float32], Tensor[(10, 10), float32], Tensor[(1), int32], Tensor[(10, 10), float32], float32) span=from_string:172:15 */ = %x_711;
  let %x_73: (Tensor[(10, 10), float32], (Tensor[(10, 10), float32], (Tensor[(10, 10), float32],)), (Tensor[(10, 34, 1), float32], Tensor[(10, 38, 1), float32]), Tensor[(10, 34, 1), float32], Tensor[(10, 10), float32], Tensor[(10, 10), float32], Tensor[(1), int32], Tensor[(10, 10), float32], float32) /* ty=(Tensor[(10, 10), float32], (Tensor[(10, 10), float32], (Tensor[(10, 10), float32],)), (Tensor[(10, 34, 1), float32], Tensor[(10, 38, 1), float32]), Tensor[(10, 34, 1), float32], Tensor[(10, 10), float32], Tensor[(10, 10), float32], Tensor[(1), int32], Tensor[(10, 10), float32], float32) span=from_string:173:15 */ = %x_721;
  let %x_74: (Tensor[(10, 10), float32], (Tensor[(10, 10), float32], (Tensor[(10, 10), float32],)), (Tensor[(10, 34, 1), float32], Tensor[(10, 38, 1), float32]), Tensor[(10, 34, 1), float32], Tensor[(10, 10), float32], Tensor[(10, 10), float32], Tensor[(1), int32], Tensor[(10, 10), float32], float32) /* ty=(Tensor[(10, 10), float32], (Tensor[(10, 10), float32], (Tensor[(10, 10), float32],)), (Tensor[(10, 34, 1), float32], Tensor[(10, 38, 1), float32]), Tensor[(10, 34, 1), float32], Tensor[(10, 10), float32], Tensor[(10, 10), float32], Tensor[(1), int32], Tensor[(10, 10), float32], float32) span=from_string:174:15 */ = %x_73;
  let %x_75: (Tensor[(10, 10), float32], (Tensor[(10, 10), float32], (Tensor[(10, 10), float32],)), (Tensor[(10, 34, 1), float32], Tensor[(10, 38, 1), float32]), Tensor[(10, 34, 1), float32], Tensor[(10, 10), float32], Tensor[(10, 10), float32], Tensor[(1), int32], Tensor[(10, 10), float32], float32) /* ty=(Tensor[(10, 10), float32], (Tensor[(10, 10), float32], (Tensor[(10, 10), float32],)), (Tensor[(10, 34, 1), float32], Tensor[(10, 38, 1), float32]), Tensor[(10, 34, 1), float32], Tensor[(10, 10), float32], Tensor[(10, 10), float32], Tensor[(1), int32], Tensor[(10, 10), float32], float32) span=from_string:175:15 */ = %x_74;
  let %x_76: (Tensor[(10, 10), float32], (Tensor[(10, 10), float32], (Tensor[(10, 10), float32],)), (Tensor[(10, 34, 1), float32], Tensor[(10, 38, 1), float32]), Tensor[(10, 34, 1), float32], Tensor[(10, 10), float32], Tensor[(10, 10), float32], Tensor[(1), int32], Tensor[(10, 10), float32], float32) /* ty=(Tensor[(10, 10), float32], (Tensor[(10, 10), float32], (Tensor[(10, 10), float32],)), (Tensor[(10, 34, 1), float32], Tensor[(10, 38, 1), float32]), Tensor[(10, 34, 1), float32], Tensor[(10, 10), float32], Tensor[(10, 10), float32], Tensor[(1), int32], Tensor[(10, 10), float32], float32) span=from_string:176:15 */ = %x_75;
  let %x_77: (Tensor[(10, 10), float32], (Tensor[(10, 10), float32], (Tensor[(10, 10), float32],)), (Tensor[(10, 34, 1), float32], Tensor[(10, 38, 1), float32]), Tensor[(10, 34, 1), float32], Tensor[(10, 10), float32], Tensor[(10, 10), float32], Tensor[(1), int32], Tensor[(10, 10), float32], float32) /* ty=(Tensor[(10, 10), float32], (Tensor[(10, 10), float32], (Tensor[(10, 10), float32],)), (Tensor[(10, 34, 1), float32], Tensor[(10, 38, 1), float32]), Tensor[(10, 34, 1), float32], Tensor[(10, 10), float32], Tensor[(10, 10), float32], Tensor[(1), int32], Tensor[(10, 10), float32], float32) span=from_string:177:15 */ = %x_76;
  let %x_78: (Tensor[(10, 10), float32], (Tensor[(10, 10), float32], (Tensor[(10, 10), float32],)), (Tensor[(10, 34, 1), float32], Tensor[(10, 38, 1), float32]), Tensor[(10, 34, 1), float32], Tensor[(10, 10), float32], Tensor[(10, 10), float32], Tensor[(1), int32], Tensor[(10, 10), float32], float32) /* ty=(Tensor[(10, 10), float32], (Tensor[(10, 10), float32], (Tensor[(10, 10), float32],)), (Tensor[(10, 34, 1), float32], Tensor[(10, 38, 1), float32]), Tensor[(10, 34, 1), float32], Tensor[(10, 10), float32], Tensor[(10, 10), float32], Tensor[(1), int32], Tensor[(10, 10), float32], float32) span=from_string:178:15 */ = %x_77;
  let %x_79: (Tensor[(10, 10), float32], (Tensor[(10, 10), float32], (Tensor[(10, 10), float32],)), (Tensor[(10, 34, 1), float32], Tensor[(10, 38, 1), float32]), Tensor[(10, 34, 1), float32], Tensor[(10, 10), float32], Tensor[(10, 10), float32], Tensor[(1), int32], Tensor[(10, 10), float32], float32) /* ty=(Tensor[(10, 10), float32], (Tensor[(10, 10), float32], (Tensor[(10, 10), float32],)), (Tensor[(10, 34, 1), float32], Tensor[(10, 38, 1), float32]), Tensor[(10, 34, 1), float32], Tensor[(10, 10), float32], Tensor[(10, 10), float32], Tensor[(1), int32], Tensor[(10, 10), float32], float32) span=from_string:179:15 */ = %x_78;
  let %x_80: (Tensor[(10, 10), float32], (Tensor[(10, 10), float32], (Tensor[(10, 10), float32],)), (Tensor[(10, 34, 1), float32], Tensor[(10, 38, 1), float32]), Tensor[(10, 34, 1), float32], Tensor[(10, 10), float32], Tensor[(10, 10), float32], Tensor[(1), int32], Tensor[(10, 10), float32], float32) /* ty=(Tensor[(10, 10), float32], (Tensor[(10, 10), float32], (Tensor[(10, 10), float32],)), (Tensor[(10, 34, 1), float32], Tensor[(10, 38, 1), float32]), Tensor[(10, 34, 1), float32], Tensor[(10, 10), float32], Tensor[(10, 10), float32], Tensor[(1), int32], Tensor[(10, 10), float32], float32) span=from_string:180:16 */ = %x_79;
  let %x_811: (Tensor[(10, 10), float32], (Tensor[(10, 10), float32], (Tensor[(10, 10), float32],)), (Tensor[(10, 34, 1), float32], Tensor[(10, 38, 1), float32]), Tensor[(10, 34, 1), float32], Tensor[(10, 10), float32], Tensor[(10, 10), float32], Tensor[(1), int32], Tensor[(10, 10), float32], float32) /* ty=(Tensor[(10, 10), float32], (Tensor[(10, 10), float32], (Tensor[(10, 10), float32],)), (Tensor[(10, 34, 1), float32], Tensor[(10, 38, 1), float32]), Tensor[(10, 34, 1), float32], Tensor[(10, 10), float32], Tensor[(10, 10), float32], Tensor[(1), int32], Tensor[(10, 10), float32], float32) span=from_string:181:16 */ = %x_80;
  let %x_821: (Tensor[(10, 10), float32], (Tensor[(10, 10), float32], (Tensor[(10, 10), float32],)), (Tensor[(10, 34, 1), float32], Tensor[(10, 38, 1), float32]), Tensor[(10, 34, 1), float32], Tensor[(10, 10), float32], Tensor[(10, 10), float32], Tensor[(1), int32], Tensor[(10, 10), float32], float32) /* ty=(Tensor[(10, 10), float32], (Tensor[(10, 10), float32], (Tensor[(10, 10), float32],)), (Tensor[(10, 34, 1), float32], Tensor[(10, 38, 1), float32]), Tensor[(10, 34, 1), float32], Tensor[(10, 10), float32], Tensor[(10, 10), float32], Tensor[(1), int32], Tensor[(10, 10), float32], float32) span=from_string:182:15 */ = %x_811;
  let %x_83: (Tensor[(10, 10), float32], (Tensor[(10, 10), float32], (Tensor[(10, 10), float32],)), (Tensor[(10, 34, 1), float32], Tensor[(10, 38, 1), float32]), Tensor[(10, 34, 1), float32], Tensor[(10, 10), float32], Tensor[(10, 10), float32], Tensor[(1), int32], Tensor[(10, 10), float32], float32) /* ty=(Tensor[(10, 10), float32], (Tensor[(10, 10), float32], (Tensor[(10, 10), float32],)), (Tensor[(10, 34, 1), float32], Tensor[(10, 38, 1), float32]), Tensor[(10, 34, 1), float32], Tensor[(10, 10), float32], Tensor[(10, 10), float32], Tensor[(1), int32], Tensor[(10, 10), float32], float32) span=from_string:183:15 */ = %x_821;
  let %x_84: (Tensor[(10, 10), float32], (Tensor[(10, 10), float32], (Tensor[(10, 10), float32],)), (Tensor[(10, 34, 1), float32], Tensor[(10, 38, 1), float32]), Tensor[(10, 34, 1), float32], Tensor[(10, 10), float32], Tensor[(10, 10), float32], Tensor[(1), int32], Tensor[(10, 10), float32], float32) /* ty=(Tensor[(10, 10), float32], (Tensor[(10, 10), float32], (Tensor[(10, 10), float32],)), (Tensor[(10, 34, 1), float32], Tensor[(10, 38, 1), float32]), Tensor[(10, 34, 1), float32], Tensor[(10, 10), float32], Tensor[(10, 10), float32], Tensor[(1), int32], Tensor[(10, 10), float32], float32) span=from_string:184:15 */ = %x_83;
  let %x_85: (Tensor[(10, 10), float32], (Tensor[(10, 10), float32], (Tensor[(10, 10), float32],)), (Tensor[(10, 34, 1), float32], Tensor[(10, 38, 1), float32]), Tensor[(10, 34, 1), float32], Tensor[(10, 10), float32], Tensor[(10, 10), float32], Tensor[(1), int32], Tensor[(10, 10), float32], float32) /* ty=(Tensor[(10, 10), float32], (Tensor[(10, 10), float32], (Tensor[(10, 10), float32],)), (Tensor[(10, 34, 1), float32], Tensor[(10, 38, 1), float32]), Tensor[(10, 34, 1), float32], Tensor[(10, 10), float32], Tensor[(10, 10), float32], Tensor[(1), int32], Tensor[(10, 10), float32], float32) span=from_string:185:15 */ = %x_84;
  let %x_86: (Tensor[(10, 10), float32], (Tensor[(10, 10), float32], (Tensor[(10, 10), float32],)), (Tensor[(10, 34, 1), float32], Tensor[(10, 38, 1), float32]), Tensor[(10, 34, 1), float32], Tensor[(10, 10), float32], Tensor[(10, 10), float32], Tensor[(1), int32], Tensor[(10, 10), float32], float32) /* ty=(Tensor[(10, 10), float32], (Tensor[(10, 10), float32], (Tensor[(10, 10), float32],)), (Tensor[(10, 34, 1), float32], Tensor[(10, 38, 1), float32]), Tensor[(10, 34, 1), float32], Tensor[(10, 10), float32], Tensor[(10, 10), float32], Tensor[(1), int32], Tensor[(10, 10), float32], float32) span=from_string:186:15 */ = %x_85;
  let %x_87: (Tensor[(10, 10), float32], (Tensor[(10, 10), float32], (Tensor[(10, 10), float32],)), (Tensor[(10, 34, 1), float32], Tensor[(10, 38, 1), float32]), Tensor[(10, 34, 1), float32], Tensor[(10, 10), float32], Tensor[(10, 10), float32], Tensor[(1), int32], Tensor[(10, 10), float32], float32) /* ty=(Tensor[(10, 10), float32], (Tensor[(10, 10), float32], (Tensor[(10, 10), float32],)), (Tensor[(10, 34, 1), float32], Tensor[(10, 38, 1), float32]), Tensor[(10, 34, 1), float32], Tensor[(10, 10), float32], Tensor[(10, 10), float32], Tensor[(1), int32], Tensor[(10, 10), float32], float32) span=from_string:187:15 */ = %x_86;
  let %x_88: (Tensor[(10, 10), float32], (Tensor[(10, 10), float32], (Tensor[(10, 10), float32],)), (Tensor[(10, 34, 1), float32], Tensor[(10, 38, 1), float32]), Tensor[(10, 34, 1), float32], Tensor[(10, 10), float32], Tensor[(10, 10), float32], Tensor[(1), int32], Tensor[(10, 10), float32], float32) /* ty=(Tensor[(10, 10), float32], (Tensor[(10, 10), float32], (Tensor[(10, 10), float32],)), (Tensor[(10, 34, 1), float32], Tensor[(10, 38, 1), float32]), Tensor[(10, 34, 1), float32], Tensor[(10, 10), float32], Tensor[(10, 10), float32], Tensor[(1), int32], Tensor[(10, 10), float32], float32) span=from_string:188:15 */ = %x_87;
  let %x_89: (Tensor[(10, 10), float32], (Tensor[(10, 10), float32], (Tensor[(10, 10), float32],)), (Tensor[(10, 34, 1), float32], Tensor[(10, 38, 1), float32]), Tensor[(10, 34, 1), float32], Tensor[(10, 10), float32], Tensor[(10, 10), float32], Tensor[(1), int32], Tensor[(10, 10), float32], float32) /* ty=(Tensor[(10, 10), float32], (Tensor[(10, 10), float32], (Tensor[(10, 10), float32],)), (Tensor[(10, 34, 1), float32], Tensor[(10, 38, 1), float32]), Tensor[(10, 34, 1), float32], Tensor[(10, 10), float32], Tensor[(10, 10), float32], Tensor[(1), int32], Tensor[(10, 10), float32], float32) span=from_string:189:15 */ = %x_88;
  let %x_90: (Tensor[(10, 10), float32], (Tensor[(10, 10), float32], (Tensor[(10, 10), float32],)), (Tensor[(10, 34, 1), float32], Tensor[(10, 38, 1), float32]), Tensor[(10, 34, 1), float32], Tensor[(10, 10), float32], Tensor[(10, 10), float32], Tensor[(1), int32], Tensor[(10, 10), float32], float32) /* ty=(Tensor[(10, 10), float32], (Tensor[(10, 10), float32], (Tensor[(10, 10), float32],)), (Tensor[(10, 34, 1), float32], Tensor[(10, 38, 1), float32]), Tensor[(10, 34, 1), float32], Tensor[(10, 10), float32], Tensor[(10, 10), float32], Tensor[(1), int32], Tensor[(10, 10), float32], float32) span=from_string:190:16 */ = %x_89;
  let %x_911: (Tensor[(10, 10), float32], (Tensor[(10, 10), float32], (Tensor[(10, 10), float32],)), (Tensor[(10, 34, 1), float32], Tensor[(10, 38, 1), float32]), Tensor[(10, 34, 1), float32], Tensor[(10, 10), float32], Tensor[(10, 10), float32], Tensor[(1), int32], Tensor[(10, 10), float32], float32) /* ty=(Tensor[(10, 10), float32], (Tensor[(10, 10), float32], (Tensor[(10, 10), float32],)), (Tensor[(10, 34, 1), float32], Tensor[(10, 38, 1), float32]), Tensor[(10, 34, 1), float32], Tensor[(10, 10), float32], Tensor[(10, 10), float32], Tensor[(1), int32], Tensor[(10, 10), float32], float32) span=from_string:191:16 */ = %x_90;
  let %x_921: (Tensor[(10, 10), float32], (Tensor[(10, 10), float32], (Tensor[(10, 10), float32],)), (Tensor[(10, 34, 1), float32], Tensor[(10, 38, 1), float32]), Tensor[(10, 34, 1), float32], Tensor[(10, 10), float32], Tensor[(10, 10), float32], Tensor[(1), int32], Tensor[(10, 10), float32], float32) /* ty=(Tensor[(10, 10), float32], (Tensor[(10, 10), float32], (Tensor[(10, 10), float32],)), (Tensor[(10, 34, 1), float32], Tensor[(10, 38, 1), float32]), Tensor[(10, 34, 1), float32], Tensor[(10, 10), float32], Tensor[(10, 10), float32], Tensor[(1), int32], Tensor[(10, 10), float32], float32) span=from_string:192:15 */ = %x_911;
  let %x_93: (Tensor[(10, 10), float32], (Tensor[(10, 10), float32], (Tensor[(10, 10), float32],)), (Tensor[(10, 34, 1), float32], Tensor[(10, 38, 1), float32]), Tensor[(10, 34, 1), float32], Tensor[(10, 10), float32], Tensor[(10, 10), float32], Tensor[(1), int32], Tensor[(10, 10), float32], float32) /* ty=(Tensor[(10, 10), float32], (Tensor[(10, 10), float32], (Tensor[(10, 10), float32],)), (Tensor[(10, 34, 1), float32], Tensor[(10, 38, 1), float32]), Tensor[(10, 34, 1), float32], Tensor[(10, 10), float32], Tensor[(10, 10), float32], Tensor[(1), int32], Tensor[(10, 10), float32], float32) span=from_string:193:15 */ = %x_921;
  let %x_94: (Tensor[(10, 10), float32], (Tensor[(10, 10), float32], (Tensor[(10, 10), float32],)), (Tensor[(10, 34, 1), float32], Tensor[(10, 38, 1), float32]), Tensor[(10, 34, 1), float32], Tensor[(10, 10), float32], Tensor[(10, 10), float32], Tensor[(1), int32], Tensor[(10, 10), float32], float32) /* ty=(Tensor[(10, 10), float32], (Tensor[(10, 10), float32], (Tensor[(10, 10), float32],)), (Tensor[(10, 34, 1), float32], Tensor[(10, 38, 1), float32]), Tensor[(10, 34, 1), float32], Tensor[(10, 10), float32], Tensor[(10, 10), float32], Tensor[(1), int32], Tensor[(10, 10), float32], float32) span=from_string:194:15 */ = %x_93;
  let %x_95: (Tensor[(10, 10), float32], (Tensor[(10, 10), float32], (Tensor[(10, 10), float32],)), (Tensor[(10, 34, 1), float32], Tensor[(10, 38, 1), float32]), Tensor[(10, 34, 1), float32], Tensor[(10, 10), float32], Tensor[(10, 10), float32], Tensor[(1), int32], Tensor[(10, 10), float32], float32) /* ty=(Tensor[(10, 10), float32], (Tensor[(10, 10), float32], (Tensor[(10, 10), float32],)), (Tensor[(10, 34, 1), float32], Tensor[(10, 38, 1), float32]), Tensor[(10, 34, 1), float32], Tensor[(10, 10), float32], Tensor[(10, 10), float32], Tensor[(1), int32], Tensor[(10, 10), float32], float32) span=from_string:195:3 */ = %x_94;
  %x_95
}

#[metadata]
{
  "root": 1, 
  "nodes": [
    {
      "type_key": ""
    }, 
    {
      "type_key": "Map", 
      "keys": [
        "relay.Constant"
      ], 
      "data": [2]
    }, 
    {
      "type_key": "Array", 
      "data": [3]
    }, 
    {
      "type_key": "relay.Constant", 
      "attrs": {
        "_checked_type_": "8", 
        "data": "0", 
        "span": "6", 
        "virtual_device_": "4"
      }
    }, 
    {
      "type_key": "VirtualDevice", 
      "attrs": {
        "device_type_int": "-1", 
        "memory_scope": "5", 
        "target": "0", 
        "virtual_device_id": "-1"
      }
    }, 
    {
      "type_key": "runtime.String"
    }, 
    {
      "type_key": "Span", 
      "attrs": {
        "column": "94", 
        "end_column": "112", 
        "end_line": "35", 
        "line": "35", 
        "source_name": "7"
      }
    }, 
    {
      "type_key": "SourceName", 
      "repr_str": "from_string"
    }, 
    {
      "type_key": "relay.TensorType", 
      "attrs": {
        "dtype": "int32", 
        "shape": "9", 
        "span": "0"
      }
    }, 
    {
      "type_key": "Array", 
      "data": [10]
    }, 
    {
      "type_key": "IntImm", 
      "attrs": {
        "dtype": "int32", 
        "span": "0", 
        "value": "1"
      }
    }
  ], 
  "b64ndarrays": [
    "P6G0lvBAXt0AAAAAAAAAAAEAAAAAAAAAAQAAAAAgAQABAAAAAAAAAAQAAAAAAAAAZAAAAA=="
  ], 
  "attrs": {"tvm_version": "0.13.0"}
}