#[version = "0.0.5"]
def @main(%x0: Tensor[(10, 10), float32] /* ty=Tensor[(10, 10), float32] span=from_string:12:128 */, %x1: Tensor[(34, 10), float32] /* ty=Tensor[(34, 10), float32] span=from_string:16:119 */, %x2: Tensor[(38, 10), float32] /* ty=Tensor[(38, 10), float32] span=from_string:18:119 */, %x3: Tensor[(100), float32] /* ty=Tensor[(100), float32] */, %x4: Tensor[(57), int32] /* ty=Tensor[(57), int32] span=from_string:3:65 */, %x5: Tensor[(30, 10), float32] /* ty=Tensor[(30, 10), float32] span=from_string:36:119 */) -> (Tensor[(10, 10), float32], (Tensor[(10, 10), float32], (Tensor[(10, 10), float32],)), (Tensor[(10, 34, 1), float32], Tensor[(10, 38, 1), float32]), Tensor[(10, 34, 1), float32], Tensor[(10, 10), float32], Tensor[(10, 10), float32], Tensor[(1), int32], Tensor[(10, 10), float32], float32) {
  let %x9: Tensor[(57), int32] /* ty=Tensor[(57), int32] */ = %x4;
  let %x6: Tensor[(10, 10), float32] /* ty=Tensor[(10, 10), float32] span=from_string:18:114 */ = multiply(%x0, %x0) /* ty=Tensor[(10, 10), float32] span=from_string:4:104 */;
  let %x7: Tensor[(10, 10), float32] /* ty=Tensor[(10, 10), float32] span=from_string:36:114 */ = ones_like(%x6) /* ty=Tensor[(10, 10), float32] span=from_string:5:103 */;
  let %x_0: Tensor[(10, 10), float32] /* ty=Tensor[(10, 10), float32] span=from_string:47:634 */ = add(%x0, %x0) /* ty=Tensor[(10, 10), float32] span=from_string:6:104 */;
  let %x_1: Tensor[(10, 10), float32] /* ty=Tensor[(10, 10), float32] span=from_string:10:108 */ = zeros_like(%x0) /* ty=Tensor[(10, 10), float32] span=from_string:7:104 */;
  let %x_2: Tensor[(10, 10), float32] /* ty=Tensor[(10, 10), float32] span=from_string:9:122 */ = multiply(%x7, %x0) /* ty=Tensor[(10, 10), float32] span=from_string:8:104 */;
  let %x_3: Tensor[(10, 10), float32] /* ty=Tensor[(10, 10), float32] span=from_string:10:114 */ = collapse_sum_like(%x_2, %x0) /* ty=Tensor[(10, 10), float32] span=from_string:9:104 */;
  let %x_4: Tensor[(10, 10), float32] /* ty=Tensor[(10, 10), float32] span=from_string:13:108 */ = add(%x_1, %x_3) /* ty=Tensor[(10, 10), float32] span=from_string:10:104 */;
  let %x_5: Tensor[(10, 10), float32] /* ty=Tensor[(10, 10), float32] span=from_string:12:122 */ = multiply(%x7, %x0) /* ty=Tensor[(10, 10), float32] span=from_string:11:105 */;
  let %x_6: Tensor[(10, 10), float32] /* ty=Tensor[(10, 10), float32] span=from_string:26:109 */ = collapse_sum_like(%x_5, %x0) /* ty=Tensor[(10, 10), float32] span=from_string:12:104 */;
  let %x_7: Tensor[(10, 10), float32] /* ty=Tensor[(10, 10), float32] span=from_string:14:111 */ = add(%x_4, %x_6) /* ty=Tensor[(10, 10), float32] span=from_string:13:104 */;
  let %x_8: (Tensor[(10, 10), float32],) /* ty=(Tensor[(10, 10), float32],) span=from_string:15:174 */ = (%x_7,) /* ty=(Tensor[(10, 10), float32],) span=from_string:14:110 */;
  let %x_9: (Tensor[(10, 10), float32], (Tensor[(10, 10), float32],)) /* ty=(Tensor[(10, 10), float32], (Tensor[(10, 10), float32],)) span=from_string:47:640 */ = (%x6, %x_8) /* ty=(Tensor[(10, 10), float32], (Tensor[(10, 10), float32],)) span=from_string:15:168 */;
  let %x_10: Tensor[(10, 34), float32] /* ty=Tensor[(10, 34), float32] span=from_string:17:123 */ = nn.dense(%x6, %x1, units=None) /* ty=Tensor[(10, 34), float32] span=from_string:16:105 */;
  let %x_11: Tensor[(10, 34, 1), float32] /* ty=Tensor[(10, 34, 1), float32] span=from_string:22:115 */ = expand_dims(%x_10, axis=2) /* ty=Tensor[(10, 34, 1), float32] span=from_string:17:111 */;
  let %x_12: Tensor[(10, 38), float32] /* ty=Tensor[(10, 38), float32] span=from_string:19:123 */ = nn.dense(%x6, %x2, units=None) /* ty=Tensor[(10, 38), float32] span=from_string:18:105 */;
  let %x_13: Tensor[(10, 38, 1), float32] /* ty=Tensor[(10, 38, 1), float32] span=from_string:20:183 */ = expand_dims(%x_12, axis=2) /* ty=Tensor[(10, 38, 1), float32] span=from_string:19:111 */;
  let %x_14: (Tensor[(10, 34, 1), float32], Tensor[(10, 38, 1), float32]) /* ty=(Tensor[(10, 34, 1), float32], Tensor[(10, 38, 1), float32]) span=from_string:47:646 */ = (%x_11, %x_13) /* ty=(Tensor[(10, 34, 1), float32], Tensor[(10, 38, 1), float32]) span=from_string:20:175 */;
  let %x_15: float32 /* ty=float32 span=from_string:22:122 */ = 1f /* ty=float32 span=from_string:21:71 */;
  let %x_16: Tensor[(10, 34, 1), float32] /* ty=Tensor[(10, 34, 1), float32] span=from_string:23:134 */ = add(%x_11, %x_15) /* ty=Tensor[(10, 34, 1), float32] span=from_string:22:111 */;
  let %x_17: Tensor[(10, 34, 1), float32] /* ty=Tensor[(10, 34, 1), float32] span=from_string:24:115 */ = annotation.stop_fusion(%x_16) /* ty=Tensor[(10, 34, 1), float32] span=from_string:23:111 */;
  let %x_18: Tensor[(10, 34, 1), float32] /* ty=Tensor[(10, 34, 1), float32] span=from_string:47:653 */ = exp(%x_17) /* ty=Tensor[(10, 34, 1), float32] span=from_string:24:111 */;
  let %x_19: Tensor[(1), float32] /* ty=Tensor[(1), float32] span=from_string:26:115 */ = zeros(shape=[1], dtype="float32") /* ty=Tensor[(1), float32] span=from_string:25:95 */;
  let %x_20: Tensor[(10, 10), float32] /* ty=Tensor[(10, 10), float32] span=from_string:28:109 */ = add(%x_6, %x_19) /* ty=Tensor[(10, 10), float32] span=from_string:26:105 */;
  let %x_21: float32 /* ty=float32 span=from_string:28:116 */ = 1f /* ty=float32 span=from_string:27:71 */;
  let %x_22: Tensor[(10, 10), float32] /* ty=Tensor[(10, 10), float32] span=from_string:31:107 */ = add(%x_20, %x_21) /* ty=Tensor[(10, 10), float32] span=from_string:28:105 */;
  let %x_23: Tensor[(10, 10), float32] /* ty=Tensor[(10, 10), float32] span=from_string:30:113 */ = exp(%x_22) /* ty=Tensor[(10, 10), float32] span=from_string:29:105 */;
  let %x_24: Tensor[(10, 10), float32] /* ty=Tensor[(10, 10), float32] span=from_string:47:660 */ = squeeze(%x_23) /* ty=Tensor[(10, 10), float32] span=from_string:30:105 */;
  let %x_25: Tensor[(100), float32] /* ty=Tensor[(100), float32] span=from_string:32:113 */ = reshape(%x_22, newshape=[100]) /* ty=Tensor[(100), float32] span=from_string:31:99 */;
  let %x_26: Tensor[(10, 10), float32] /* ty=Tensor[(10, 10), float32] span=from_string:33:107 */ = reshape(%x_25, newshape=[10, 10]) /* ty=Tensor[(10, 10), float32] span=from_string:32:105 */;
  let %x_27: Tensor[(100), float32] /* ty=Tensor[(100), float32] span=from_string:34:113 */ = reshape(%x_26, newshape=[100]) /* ty=Tensor[(100), float32] span=from_string:33:99 */;
  let %x_28: Tensor[(10, 10), float32] /* ty=Tensor[(10, 10), float32] span=from_string:47:667 */ = reshape(%x_27, newshape=[10, 10]) /* ty=Tensor[(10, 10), float32] span=from_string:34:105 */;
  let %x_29: Tensor[(1), int32] /* ty=Tensor[(1), int32] span=from_string:47:674 */ = meta[relay.Constant][0] /* ty=Tensor[(1), int32] span=from_string:35:98 */;
  let %x_30: Tensor[(10, 30), float32] /* ty=Tensor[(10, 30), float32] span=from_string:37:223 */ = nn.dense(%x7, %x5, units=None) /* ty=Tensor[(10, 30), float32] span=from_string:36:105 */;
  let %x_31: (Tensor[(10, 10), float32], Tensor[(10, 10), float32], Tensor[(10, 10), float32]) /* ty=(Tensor[(10, 10), float32], Tensor[(10, 10), float32], Tensor[(10, 10), float32]) span=from_string:42:105 */ = split(%x_30, indices_or_sections=3, axis=1) /* ty=(Tensor[(10, 10), float32], Tensor[(10, 10), float32], Tensor[(10, 10), float32]) span=from_string:37:217 */;
  let %x_32: Tensor[(10, 10), float32] /* ty=Tensor[(10, 10), float32] span=from_string:39:113 */ = %x_31.0 /* ty=Tensor[(10, 10), float32] span=from_string:38:105 */;
  let %x_33: Tensor[(10, 10), float32] /* ty=Tensor[(10, 10), float32] span=from_string:45:109 */ = sigmoid(%x_32) /* ty=Tensor[(10, 10), float32] span=from_string:39:105 */;
  let %x_34: Tensor[(10, 10), float32] /* ty=Tensor[(10, 10), float32] span=from_string:41:110 */ = %x_31.1 /* ty=Tensor[(10, 10), float32] span=from_string:40:105 */;
  let %x_35: Tensor[(10, 10), float32] /* ty=Tensor[(10, 10), float32] span=from_string:44:115 */ = tanh(%x_34) /* ty=Tensor[(10, 10), float32] span=from_string:41:105 */;
  let %x_36: Tensor[(10, 10), float32] /* ty=Tensor[(10, 10), float32] span=from_string:43:109 */ = %x_31.2 /* ty=Tensor[(10, 10), float32] span=from_string:42:105 */;
  let %x_37: Tensor[(10, 10), float32] /* ty=Tensor[(10, 10), float32] span=from_string:44:122 */ = exp(%x_36) /* ty=Tensor[(10, 10), float32] span=from_string:43:105 */;
  let %x_38: Tensor[(10, 10), float32] /* ty=Tensor[(10, 10), float32] span=from_string:45:116 */ = multiply(%x_35, %x_37) /* ty=Tensor[(10, 10), float32] span=from_string:44:106 */;
  let %x_39: Tensor[(10, 10), float32] /* ty=Tensor[(10, 10), float32] span=from_string:47:681 */ = add(%x_33, %x_38) /* ty=Tensor[(10, 10), float32] span=from_string:45:105 */;
  let %x_40: float32 /* ty=float32 span=from_string:47:688 */ = 0.761594f /* ty=float32 span=from_string:46:78 */;
  let %x_41: (Tensor[(10, 10), float32], (Tensor[(10, 10), float32], (Tensor[(10, 10), float32],)), (Tensor[(10, 34, 1), float32], Tensor[(10, 38, 1), float32]), Tensor[(10, 34, 1), float32], Tensor[(10, 10), float32], Tensor[(10, 10), float32], Tensor[(1), int32], Tensor[(10, 10), float32], float32) /* ty=(Tensor[(10, 10), float32], (Tensor[(10, 10), float32], (Tensor[(10, 10), float32],)), (Tensor[(10, 34, 1), float32], Tensor[(10, 38, 1), float32]), Tensor[(10, 34, 1), float32], Tensor[(10, 10), float32], Tensor[(10, 10), float32], Tensor[(1), int32], Tensor[(10, 10), float32], float32) span=from_string:48:633 */ = (%x_0, %x_9, %x_14, %x_18, %x_24, %x_28, %x_29, %x_39, %x_40) /* ty=(Tensor[(10, 10), float32], (Tensor[(10, 10), float32], (Tensor[(10, 10), float32],)), (Tensor[(10, 34, 1), float32], Tensor[(10, 38, 1), float32]), Tensor[(10, 34, 1), float32], Tensor[(10, 10), float32], Tensor[(10, 10), float32], Tensor[(1), int32], Tensor[(10, 10), float32], float32) span=from_string:47:633 */;
  let %x_42: (Tensor[(10, 10), float32], (Tensor[(10, 10), float32], (Tensor[(10, 10), float32],)), (Tensor[(10, 34, 1), float32], Tensor[(10, 38, 1), float32]), Tensor[(10, 34, 1), float32], Tensor[(10, 10), float32], Tensor[(10, 10), float32], Tensor[(1), int32], Tensor[(10, 10), float32], float32) /* ty=(Tensor[(10, 10), float32], (Tensor[(10, 10), float32], (Tensor[(10, 10), float32],)), (Tensor[(10, 34, 1), float32], Tensor[(10, 38, 1), float32]), Tensor[(10, 34, 1), float32], Tensor[(10, 10), float32], Tensor[(10, 10), float32], Tensor[(1), int32], Tensor[(10, 10), float32], float32) span=from_string:49:633 */ = %x_41;
  let %x_43: (Tensor[(10, 10), float32], (Tensor[(10, 10), float32], (Tensor[(10, 10), float32],)), (Tensor[(10, 34, 1), float32], Tensor[(10, 38, 1), float32]), Tensor[(10, 34, 1), float32], Tensor[(10, 10), float32], Tensor[(10, 10), float32], Tensor[(1), int32], Tensor[(10, 10), float32], float32) /* ty=(Tensor[(10, 10), float32], (Tensor[(10, 10), float32], (Tensor[(10, 10), float32],)), (Tensor[(10, 34, 1), float32], Tensor[(10, 38, 1), float32]), Tensor[(10, 34, 1), float32], Tensor[(10, 10), float32], Tensor[(10, 10), float32], Tensor[(1), int32], Tensor[(10, 10), float32], float32) span=from_string:50:633 */ = %x_42;
  let %x_44: (Tensor[(10, 10), float32], (Tensor[(10, 10), float32], (Tensor[(10, 10), float32],)), (Tensor[(10, 34, 1), float32], Tensor[(10, 38, 1), float32]), Tensor[(10, 34, 1), float32], Tensor[(10, 10), float32], Tensor[(10, 10), float32], Tensor[(1), int32], Tensor[(10, 10), float32], float32) /* ty=(Tensor[(10, 10), float32], (Tensor[(10, 10), float32], (Tensor[(10, 10), float32],)), (Tensor[(10, 34, 1), float32], Tensor[(10, 38, 1), float32]), Tensor[(10, 34, 1), float32], Tensor[(10, 10), float32], Tensor[(10, 10), float32], Tensor[(1), int32], Tensor[(10, 10), float32], float32) span=from_string:51:633 */ = %x_43;
  let %x_01: (Tensor[(10, 10), float32], (Tensor[(10, 10), float32], (Tensor[(10, 10), float32],)), (Tensor[(10, 34, 1), float32], Tensor[(10, 38, 1), float32]), Tensor[(10, 34, 1), float32], Tensor[(10, 10), float32], Tensor[(10, 10), float32], Tensor[(1), int32], Tensor[(10, 10), float32], float32) /* ty=(Tensor[(10, 10), float32], (Tensor[(10, 10), float32], (Tensor[(10, 10), float32],)), (Tensor[(10, 34, 1), float32], Tensor[(10, 38, 1), float32]), Tensor[(10, 34, 1), float32], Tensor[(10, 10), float32], Tensor[(10, 10), float32], Tensor[(1), int32], Tensor[(10, 10), float32], float32) span=from_string:52:634 */ = %x_44;
  let %x_110: (Tensor[(10, 10), float32], (Tensor[(10, 10), float32], (Tensor[(10, 10), float32],)), (Tensor[(10, 34, 1), float32], Tensor[(10, 38, 1), float32]), Tensor[(10, 34, 1), float32], Tensor[(10, 10), float32], Tensor[(10, 10), float32], Tensor[(1), int32], Tensor[(10, 10), float32], float32) /* ty=(Tensor[(10, 10), float32], (Tensor[(10, 10), float32], (Tensor[(10, 10), float32],)), (Tensor[(10, 34, 1), float32], Tensor[(10, 38, 1), float32]), Tensor[(10, 34, 1), float32], Tensor[(10, 10), float32], Tensor[(10, 10), float32], Tensor[(1), int32], Tensor[(10, 10), float32], float32) span=from_string:53:634 */ = %x_01;
  let %x_210: (Tensor[(10, 10), float32], (Tensor[(10, 10), float32], (Tensor[(10, 10), float32],)), (Tensor[(10, 34, 1), float32], Tensor[(10, 38, 1), float32]), Tensor[(10, 34, 1), float32], Tensor[(10, 10), float32], Tensor[(10, 10), float32], Tensor[(1), int32], Tensor[(10, 10), float32], float32) /* ty=(Tensor[(10, 10), float32], (Tensor[(10, 10), float32], (Tensor[(10, 10), float32],)), (Tensor[(10, 34, 1), float32], Tensor[(10, 38, 1), float32]), Tensor[(10, 34, 1), float32], Tensor[(10, 10), float32], Tensor[(10, 10), float32], Tensor[(1), int32], Tensor[(10, 10), float32], float32) span=from_string:54:634 */ = %x_110;
  let %x_310: (Tensor[(10, 10), float32], (Tensor[(10, 10), float32], (Tensor[(10, 10), float32],)), (Tensor[(10, 34, 1), float32], Tensor[(10, 38, 1), float32]), Tensor[(10, 34, 1), float32], Tensor[(10, 10), float32], Tensor[(10, 10), float32], Tensor[(1), int32], Tensor[(10, 10), float32], float32) /* ty=(Tensor[(10, 10), float32], (Tensor[(10, 10), float32], (Tensor[(10, 10), float32],)), (Tensor[(10, 34, 1), float32], Tensor[(10, 38, 1), float32]), Tensor[(10, 34, 1), float32], Tensor[(10, 10), float32], Tensor[(10, 10), float32], Tensor[(1), int32], Tensor[(10, 10), float32], float32) span=from_string:55:633 */ = %x_210;
  let %x_45: (Tensor[(10, 10), float32], (Tensor[(10, 10), float32], (Tensor[(10, 10), float32],)), (Tensor[(10, 34, 1), float32], Tensor[(10, 38, 1), float32]), Tensor[(10, 34, 1), float32], Tensor[(10, 10), float32], Tensor[(10, 10), float32], Tensor[(1), int32], Tensor[(10, 10), float32], float32) /* ty=(Tensor[(10, 10), float32], (Tensor[(10, 10), float32], (Tensor[(10, 10), float32],)), (Tensor[(10, 34, 1), float32], Tensor[(10, 38, 1), float32]), Tensor[(10, 34, 1), float32], Tensor[(10, 10), float32], Tensor[(10, 10), float32], Tensor[(1), int32], Tensor[(10, 10), float32], float32) span=from_string:56:633 */ = %x_310;
  let %x_51: (Tensor[(10, 10), float32], (Tensor[(10, 10), float32], (Tensor[(10, 10), float32],)), (Tensor[(10, 34, 1), float32], Tensor[(10, 38, 1), float32]), Tensor[(10, 34, 1), float32], Tensor[(10, 10), float32], Tensor[(10, 10), float32], Tensor[(1), int32], Tensor[(10, 10), float32], float32) /* ty=(Tensor[(10, 10), float32], (Tensor[(10, 10), float32], (Tensor[(10, 10), float32],)), (Tensor[(10, 34, 1), float32], Tensor[(10, 38, 1), float32]), Tensor[(10, 34, 1), float32], Tensor[(10, 10), float32], Tensor[(10, 10), float32], Tensor[(1), int32], Tensor[(10, 10), float32], float32) span=from_string:57:633 */ = %x_45;
  let %x_61: (Tensor[(10, 10), float32], (Tensor[(10, 10), float32], (Tensor[(10, 10), float32],)), (Tensor[(10, 34, 1), float32], Tensor[(10, 38, 1), float32]), Tensor[(10, 34, 1), float32], Tensor[(10, 10), float32], Tensor[(10, 10), float32], Tensor[(1), int32], Tensor[(10, 10), float32], float32) /* ty=(Tensor[(10, 10), float32], (Tensor[(10, 10), float32], (Tensor[(10, 10), float32],)), (Tensor[(10, 34, 1), float32], Tensor[(10, 38, 1), float32]), Tensor[(10, 34, 1), float32], Tensor[(10, 10), float32], Tensor[(10, 10), float32], Tensor[(1), int32], Tensor[(10, 10), float32], float32) span=from_string:58:633 */ = %x_51;
  let %x_71: (Tensor[(10, 10), float32], (Tensor[(10, 10), float32], (Tensor[(10, 10), float32],)), (Tensor[(10, 34, 1), float32], Tensor[(10, 38, 1), float32]), Tensor[(10, 34, 1), float32], Tensor[(10, 10), float32], Tensor[(10, 10), float32], Tensor[(1), int32], Tensor[(10, 10), float32], float32) /* ty=(Tensor[(10, 10), float32], (Tensor[(10, 10), float32], (Tensor[(10, 10), float32],)), (Tensor[(10, 34, 1), float32], Tensor[(10, 38, 1), float32]), Tensor[(10, 34, 1), float32], Tensor[(10, 10), float32], Tensor[(10, 10), float32], Tensor[(1), int32], Tensor[(10, 10), float32], float32) span=from_string:59:633 */ = %x_61;
  let %x_81: (Tensor[(10, 10), float32], (Tensor[(10, 10), float32], (Tensor[(10, 10), float32],)), (Tensor[(10, 34, 1), float32], Tensor[(10, 38, 1), float32]), Tensor[(10, 34, 1), float32], Tensor[(10, 10), float32], Tensor[(10, 10), float32], Tensor[(1), int32], Tensor[(10, 10), float32], float32) /* ty=(Tensor[(10, 10), float32], (Tensor[(10, 10), float32], (Tensor[(10, 10), float32],)), (Tensor[(10, 34, 1), float32], Tensor[(10, 38, 1), float32]), Tensor[(10, 34, 1), float32], Tensor[(10, 10), float32], Tensor[(10, 10), float32], Tensor[(1), int32], Tensor[(10, 10), float32], float32) span=from_string:60:633 */ = %x_71;
  let %x_91: (Tensor[(10, 10), float32], (Tensor[(10, 10), float32], (Tensor[(10, 10), float32],)), (Tensor[(10, 34, 1), float32], Tensor[(10, 38, 1), float32]), Tensor[(10, 34, 1), float32], Tensor[(10, 10), float32], Tensor[(10, 10), float32], Tensor[(1), int32], Tensor[(10, 10), float32], float32) /* ty=(Tensor[(10, 10), float32], (Tensor[(10, 10), float32], (Tensor[(10, 10), float32],)), (Tensor[(10, 34, 1), float32], Tensor[(10, 38, 1), float32]), Tensor[(10, 34, 1), float32], Tensor[(10, 10), float32], Tensor[(10, 10), float32], Tensor[(1), int32], Tensor[(10, 10), float32], float32) span=from_string:61:634 */ = %x_81;
  let %x_101: (Tensor[(10, 10), float32], (Tensor[(10, 10), float32], (Tensor[(10, 10), float32],)), (Tensor[(10, 34, 1), float32], Tensor[(10, 38, 1), float32]), Tensor[(10, 34, 1), float32], Tensor[(10, 10), float32], Tensor[(10, 10), float32], Tensor[(1), int32], Tensor[(10, 10), float32], float32) /* ty=(Tensor[(10, 10), float32], (Tensor[(10, 10), float32], (Tensor[(10, 10), float32],)), (Tensor[(10, 34, 1), float32], Tensor[(10, 38, 1), float32]), Tensor[(10, 34, 1), float32], Tensor[(10, 10), float32], Tensor[(10, 10), float32], Tensor[(1), int32], Tensor[(10, 10), float32], float32) span=from_string:62:634 */ = %x_91;
  let %x_111: (Tensor[(10, 10), float32], (Tensor[(10, 10), float32], (Tensor[(10, 10), float32],)), (Tensor[(10, 34, 1), float32], Tensor[(10, 38, 1), float32]), Tensor[(10, 34, 1), float32], Tensor[(10, 10), float32], Tensor[(10, 10), float32], Tensor[(1), int32], Tensor[(10, 10), float32], float32) /* ty=(Tensor[(10, 10), float32], (Tensor[(10, 10), float32], (Tensor[(10, 10), float32],)), (Tensor[(10, 34, 1), float32], Tensor[(10, 38, 1), float32]), Tensor[(10, 34, 1), float32], Tensor[(10, 10), float32], Tensor[(10, 10), float32], Tensor[(1), int32], Tensor[(10, 10), float32], float32) span=from_string:63:634 */ = %x_101;
  let %x_121: (Tensor[(10, 10), float32], (Tensor[(10, 10), float32], (Tensor[(10, 10), float32],)), (Tensor[(10, 34, 1), float32], Tensor[(10, 38, 1), float32]), Tensor[(10, 34, 1), float32], Tensor[(10, 10), float32], Tensor[(10, 10), float32], Tensor[(1), int32], Tensor[(10, 10), float32], float32) /* ty=(Tensor[(10, 10), float32], (Tensor[(10, 10), float32], (Tensor[(10, 10), float32],)), (Tensor[(10, 34, 1), float32], Tensor[(10, 38, 1), float32]), Tensor[(10, 34, 1), float32], Tensor[(10, 10), float32], Tensor[(10, 10), float32], Tensor[(1), int32], Tensor[(10, 10), float32], float32) span=from_string:64:634 */ = %x_111;
  let %x_131: (Tensor[(10, 10), float32], (Tensor[(10, 10), float32], (Tensor[(10, 10), float32],)), (Tensor[(10, 34, 1), float32], Tensor[(10, 38, 1), float32]), Tensor[(10, 34, 1), float32], Tensor[(10, 10), float32], Tensor[(10, 10), float32], Tensor[(1), int32], Tensor[(10, 10), float32], float32) /* ty=(Tensor[(10, 10), float32], (Tensor[(10, 10), float32], (Tensor[(10, 10), float32],)), (Tensor[(10, 34, 1), float32], Tensor[(10, 38, 1), float32]), Tensor[(10, 34, 1), float32], Tensor[(10, 10), float32], Tensor[(10, 10), float32], Tensor[(1), int32], Tensor[(10, 10), float32], float32) span=from_string:65:634 */ = %x_121;
  let %x_141: (Tensor[(10, 10), float32], (Tensor[(10, 10), float32], (Tensor[(10, 10), float32],)), (Tensor[(10, 34, 1), float32], Tensor[(10, 38, 1), float32]), Tensor[(10, 34, 1), float32], Tensor[(10, 10), float32], Tensor[(10, 10), float32], Tensor[(1), int32], Tensor[(10, 10), float32], float32) /* ty=(Tensor[(10, 10), float32], (Tensor[(10, 10), float32], (Tensor[(10, 10), float32],)), (Tensor[(10, 34, 1), float32], Tensor[(10, 38, 1), float32]), Tensor[(10, 34, 1), float32], Tensor[(10, 10), float32], Tensor[(10, 10), float32], Tensor[(1), int32], Tensor[(10, 10), float32], float32) span=from_string:66:634 */ = %x_131;
  let %x_151: (Tensor[(10, 10), float32], (Tensor[(10, 10), float32], (Tensor[(10, 10), float32],)), (Tensor[(10, 34, 1), float32], Tensor[(10, 38, 1), float32]), Tensor[(10, 34, 1), float32], Tensor[(10, 10), float32], Tensor[(10, 10), float32], Tensor[(1), int32], Tensor[(10, 10), float32], float32) /* ty=(Tensor[(10, 10), float32], (Tensor[(10, 10), float32], (Tensor[(10, 10), float32],)), (Tensor[(10, 34, 1), float32], Tensor[(10, 38, 1), float32]), Tensor[(10, 34, 1), float32], Tensor[(10, 10), float32], Tensor[(10, 10), float32], Tensor[(1), int32], Tensor[(10, 10), float32], float32) span=from_string:67:634 */ = %x_141;
  let %x_161: (Tensor[(10, 10), float32], (Tensor[(10, 10), float32], (Tensor[(10, 10), float32],)), (Tensor[(10, 34, 1), float32], Tensor[(10, 38, 1), float32]), Tensor[(10, 34, 1), float32], Tensor[(10, 10), float32], Tensor[(10, 10), float32], Tensor[(1), int32], Tensor[(10, 10), float32], float32) /* ty=(Tensor[(10, 10), float32], (Tensor[(10, 10), float32], (Tensor[(10, 10), float32],)), (Tensor[(10, 34, 1), float32], Tensor[(10, 38, 1), float32]), Tensor[(10, 34, 1), float32], Tensor[(10, 10), float32], Tensor[(10, 10), float32], Tensor[(1), int32], Tensor[(10, 10), float32], float32) span=from_string:68:634 */ = %x_151;
  let %x_171: (Tensor[(10, 10), float32], (Tensor[(10, 10), float32], (Tensor[(10, 10), float32],)), (Tensor[(10, 34, 1), float32], Tensor[(10, 38, 1), float32]), Tensor[(10, 34, 1), float32], Tensor[(10, 10), float32], Tensor[(10, 10), float32], Tensor[(1), int32], Tensor[(10, 10), float32], float32) /* ty=(Tensor[(10, 10), float32], (Tensor[(10, 10), float32], (Tensor[(10, 10), float32],)), (Tensor[(10, 34, 1), float32], Tensor[(10, 38, 1), float32]), Tensor[(10, 34, 1), float32], Tensor[(10, 10), float32], Tensor[(10, 10), float32], Tensor[(1), int32], Tensor[(10, 10), float32], float32) span=from_string:69:634 */ = %x_161;
  let %x_181: (Tensor[(10, 10), float32], (Tensor[(10, 10), float32], (Tensor[(10, 10), float32],)), (Tensor[(10, 34, 1), float32], Tensor[(10, 38, 1), float32]), Tensor[(10, 34, 1), float32], Tensor[(10, 10), float32], Tensor[(10, 10), float32], Tensor[(1), int32], Tensor[(10, 10), float32], float32) /* ty=(Tensor[(10, 10), float32], (Tensor[(10, 10), float32], (Tensor[(10, 10), float32],)), (Tensor[(10, 34, 1), float32], Tensor[(10, 38, 1), float32]), Tensor[(10, 34, 1), float32], Tensor[(10, 10), float32], Tensor[(10, 10), float32], Tensor[(1), int32], Tensor[(10, 10), float32], float32) span=from_string:70:634 */ = %x_171;
  let %x_191: (Tensor[(10, 10), float32], (Tensor[(10, 10), float32], (Tensor[(10, 10), float32],)), (Tensor[(10, 34, 1), float32], Tensor[(10, 38, 1), float32]), Tensor[(10, 34, 1), float32], Tensor[(10, 10), float32], Tensor[(10, 10), float32], Tensor[(1), int32], Tensor[(10, 10), float32], float32) /* ty=(Tensor[(10, 10), float32], (Tensor[(10, 10), float32], (Tensor[(10, 10), float32],)), (Tensor[(10, 34, 1), float32], Tensor[(10, 38, 1), float32]), Tensor[(10, 34, 1), float32], Tensor[(10, 10), float32], Tensor[(10, 10), float32], Tensor[(1), int32], Tensor[(10, 10), float32], float32) span=from_string:71:634 */ = %x_181;
  let %x_201: (Tensor[(10, 10), float32], (Tensor[(10, 10), float32], (Tensor[(10, 10), float32],)), (Tensor[(10, 34, 1), float32], Tensor[(10, 38, 1), float32]), Tensor[(10, 34, 1), float32], Tensor[(10, 10), float32], Tensor[(10, 10), float32], Tensor[(1), int32], Tensor[(10, 10), float32], float32) /* ty=(Tensor[(10, 10), float32], (Tensor[(10, 10), float32], (Tensor[(10, 10), float32],)), (Tensor[(10, 34, 1), float32], Tensor[(10, 38, 1), float32]), Tensor[(10, 34, 1), float32], Tensor[(10, 10), float32], Tensor[(10, 10), float32], Tensor[(1), int32], Tensor[(10, 10), float32], float32) span=from_string:72:634 */ = %x_191;
  let %x_211: (Tensor[(10, 10), float32], (Tensor[(10, 10), float32], (Tensor[(10, 10), float32],)), (Tensor[(10, 34, 1), float32], Tensor[(10, 38, 1), float32]), Tensor[(10, 34, 1), float32], Tensor[(10, 10), float32], Tensor[(10, 10), float32], Tensor[(1), int32], Tensor[(10, 10), float32], float32) /* ty=(Tensor[(10, 10), float32], (Tensor[(10, 10), float32], (Tensor[(10, 10), float32],)), (Tensor[(10, 34, 1), float32], Tensor[(10, 38, 1), float32]), Tensor[(10, 34, 1), float32], Tensor[(10, 10), float32], Tensor[(10, 10), float32], Tensor[(1), int32], Tensor[(10, 10), float32], float32) span=from_string:73:634 */ = %x_201;
  let %x_221: (Tensor[(10, 10), float32], (Tensor[(10, 10), float32], (Tensor[(10, 10), float32],)), (Tensor[(10, 34, 1), float32], Tensor[(10, 38, 1), float32]), Tensor[(10, 34, 1), float32], Tensor[(10, 10), float32], Tensor[(10, 10), float32], Tensor[(1), int32], Tensor[(10, 10), float32], float32) /* ty=(Tensor[(10, 10), float32], (Tensor[(10, 10), float32], (Tensor[(10, 10), float32],)), (Tensor[(10, 34, 1), float32], Tensor[(10, 38, 1), float32]), Tensor[(10, 34, 1), float32], Tensor[(10, 10), float32], Tensor[(10, 10), float32], Tensor[(1), int32], Tensor[(10, 10), float32], float32) span=from_string:74:634 */ = %x_211;
  let %x_231: (Tensor[(10, 10), float32], (Tensor[(10, 10), float32], (Tensor[(10, 10), float32],)), (Tensor[(10, 34, 1), float32], Tensor[(10, 38, 1), float32]), Tensor[(10, 34, 1), float32], Tensor[(10, 10), float32], Tensor[(10, 10), float32], Tensor[(1), int32], Tensor[(10, 10), float32], float32) /* ty=(Tensor[(10, 10), float32], (Tensor[(10, 10), float32], (Tensor[(10, 10), float32],)), (Tensor[(10, 34, 1), float32], Tensor[(10, 38, 1), float32]), Tensor[(10, 34, 1), float32], Tensor[(10, 10), float32], Tensor[(10, 10), float32], Tensor[(1), int32], Tensor[(10, 10), float32], float32) span=from_string:75:634 */ = %x_221;
  let %x_241: (Tensor[(10, 10), float32], (Tensor[(10, 10), float32], (Tensor[(10, 10), float32],)), (Tensor[(10, 34, 1), float32], Tensor[(10, 38, 1), float32]), Tensor[(10, 34, 1), float32], Tensor[(10, 10), float32], Tensor[(10, 10), float32], Tensor[(1), int32], Tensor[(10, 10), float32], float32) /* ty=(Tensor[(10, 10), float32], (Tensor[(10, 10), float32], (Tensor[(10, 10), float32],)), (Tensor[(10, 34, 1), float32], Tensor[(10, 38, 1), float32]), Tensor[(10, 34, 1), float32], Tensor[(10, 10), float32], Tensor[(10, 10), float32], Tensor[(1), int32], Tensor[(10, 10), float32], float32) span=from_string:76:634 */ = %x_231;
  let %x_251: (Tensor[(10, 10), float32], (Tensor[(10, 10), float32], (Tensor[(10, 10), float32],)), (Tensor[(10, 34, 1), float32], Tensor[(10, 38, 1), float32]), Tensor[(10, 34, 1), float32], Tensor[(10, 10), float32], Tensor[(10, 10), float32], Tensor[(1), int32], Tensor[(10, 10), float32], float32) /* ty=(Tensor[(10, 10), float32], (Tensor[(10, 10), float32], (Tensor[(10, 10), float32],)), (Tensor[(10, 34, 1), float32], Tensor[(10, 38, 1), float32]), Tensor[(10, 34, 1), float32], Tensor[(10, 10), float32], Tensor[(10, 10), float32], Tensor[(1), int32], Tensor[(10, 10), float32], float32) span=from_string:77:634 */ = %x_241;
  let %x_261: (Tensor[(10, 10), float32], (Tensor[(10, 10), float32], (Tensor[(10, 10), float32],)), (Tensor[(10, 34, 1), float32], Tensor[(10, 38, 1), float32]), Tensor[(10, 34, 1), float32], Tensor[(10, 10), float32], Tensor[(10, 10), float32], Tensor[(1), int32], Tensor[(10, 10), float32], float32) /* ty=(Tensor[(10, 10), float32], (Tensor[(10, 10), float32], (Tensor[(10, 10), float32],)), (Tensor[(10, 34, 1), float32], Tensor[(10, 38, 1), float32]), Tensor[(10, 34, 1), float32], Tensor[(10, 10), float32], Tensor[(10, 10), float32], Tensor[(1), int32], Tensor[(10, 10), float32], float32) span=from_string:78:634 */ = %x_251;
  let %x_271: (Tensor[(10, 10), float32], (Tensor[(10, 10), float32], (Tensor[(10, 10), float32],)), (Tensor[(10, 34, 1), float32], Tensor[(10, 38, 1), float32]), Tensor[(10, 34, 1), float32], Tensor[(10, 10), float32], Tensor[(10, 10), float32], Tensor[(1), int32], Tensor[(10, 10), float32], float32) /* ty=(Tensor[(10, 10), float32], (Tensor[(10, 10), float32], (Tensor[(10, 10), float32],)), (Tensor[(10, 34, 1), float32], Tensor[(10, 38, 1), float32]), Tensor[(10, 34, 1), float32], Tensor[(10, 10), float32], Tensor[(10, 10), float32], Tensor[(1), int32], Tensor[(10, 10), float32], float32) span=from_string:79:634 */ = %x_261;
  let %x_281: (Tensor[(10, 10), float32], (Tensor[(10, 10), float32], (Tensor[(10, 10), float32],)), (Tensor[(10, 34, 1), float32], Tensor[(10, 38, 1), float32]), Tensor[(10, 34, 1), float32], Tensor[(10, 10), float32], Tensor[(10, 10), float32], Tensor[(1), int32], Tensor[(10, 10), float32], float32) /* ty=(Tensor[(10, 10), float32], (Tensor[(10, 10), float32], (Tensor[(10, 10), float32],)), (Tensor[(10, 34, 1), float32], Tensor[(10, 38, 1), float32]), Tensor[(10, 34, 1), float32], Tensor[(10, 10), float32], Tensor[(10, 10), float32], Tensor[(1), int32], Tensor[(10, 10), float32], float32) span=from_string:80:634 */ = %x_271;
  let %x_291: (Tensor[(10, 10), float32], (Tensor[(10, 10), float32], (Tensor[(10, 10), float32],)), (Tensor[(10, 34, 1), float32], Tensor[(10, 38, 1), float32]), Tensor[(10, 34, 1), float32], Tensor[(10, 10), float32], Tensor[(10, 10), float32], Tensor[(1), int32], Tensor[(10, 10), float32], float32) /* ty=(Tensor[(10, 10), float32], (Tensor[(10, 10), float32], (Tensor[(10, 10), float32],)), (Tensor[(10, 34, 1), float32], Tensor[(10, 38, 1), float32]), Tensor[(10, 34, 1), float32], Tensor[(10, 10), float32], Tensor[(10, 10), float32], Tensor[(1), int32], Tensor[(10, 10), float32], float32) span=from_string:81:634 */ = %x_281;
  let %x_301: (Tensor[(10, 10), float32], (Tensor[(10, 10), float32], (Tensor[(10, 10), float32],)), (Tensor[(10, 34, 1), float32], Tensor[(10, 38, 1), float32]), Tensor[(10, 34, 1), float32], Tensor[(10, 10), float32], Tensor[(10, 10), float32], Tensor[(1), int32], Tensor[(10, 10), float32], float32) /* ty=(Tensor[(10, 10), float32], (Tensor[(10, 10), float32], (Tensor[(10, 10), float32],)), (Tensor[(10, 34, 1), float32], Tensor[(10, 38, 1), float32]), Tensor[(10, 34, 1), float32], Tensor[(10, 10), float32], Tensor[(10, 10), float32], Tensor[(1), int32], Tensor[(10, 10), float32], float32) span=from_string:82:634 */ = %x_291;
  let %x_311: (Tensor[(10, 10), float32], (Tensor[(10, 10), float32], (Tensor[(10, 10), float32],)), (Tensor[(10, 34, 1), float32], Tensor[(10, 38, 1), float32]), Tensor[(10, 34, 1), float32], Tensor[(10, 10), float32], Tensor[(10, 10), float32], Tensor[(1), int32], Tensor[(10, 10), float32], float32) /* ty=(Tensor[(10, 10), float32], (Tensor[(10, 10), float32], (Tensor[(10, 10), float32],)), (Tensor[(10, 34, 1), float32], Tensor[(10, 38, 1), float32]), Tensor[(10, 34, 1), float32], Tensor[(10, 10), float32], Tensor[(10, 10), float32], Tensor[(1), int32], Tensor[(10, 10), float32], float32) span=from_string:83:634 */ = %x_301;
  let %x_321: (Tensor[(10, 10), float32], (Tensor[(10, 10), float32], (Tensor[(10, 10), float32],)), (Tensor[(10, 34, 1), float32], Tensor[(10, 38, 1), float32]), Tensor[(10, 34, 1), float32], Tensor[(10, 10), float32], Tensor[(10, 10), float32], Tensor[(1), int32], Tensor[(10, 10), float32], float32) /* ty=(Tensor[(10, 10), float32], (Tensor[(10, 10), float32], (Tensor[(10, 10), float32],)), (Tensor[(10, 34, 1), float32], Tensor[(10, 38, 1), float32]), Tensor[(10, 34, 1), float32], Tensor[(10, 10), float32], Tensor[(10, 10), float32], Tensor[(1), int32], Tensor[(10, 10), float32], float32) span=from_string:84:634 */ = %x_311;
  let %x_331: (Tensor[(10, 10), float32], (Tensor[(10, 10), float32], (Tensor[(10, 10), float32],)), (Tensor[(10, 34, 1), float32], Tensor[(10, 38, 1), float32]), Tensor[(10, 34, 1), float32], Tensor[(10, 10), float32], Tensor[(10, 10), float32], Tensor[(1), int32], Tensor[(10, 10), float32], float32) /* ty=(Tensor[(10, 10), float32], (Tensor[(10, 10), float32], (Tensor[(10, 10), float32],)), (Tensor[(10, 34, 1), float32], Tensor[(10, 38, 1), float32]), Tensor[(10, 34, 1), float32], Tensor[(10, 10), float32], Tensor[(10, 10), float32], Tensor[(1), int32], Tensor[(10, 10), float32], float32) span=from_string:85:634 */ = %x_321;
  let %x_341: (Tensor[(10, 10), float32], (Tensor[(10, 10), float32], (Tensor[(10, 10), float32],)), (Tensor[(10, 34, 1), float32], Tensor[(10, 38, 1), float32]), Tensor[(10, 34, 1), float32], Tensor[(10, 10), float32], Tensor[(10, 10), float32], Tensor[(1), int32], Tensor[(10, 10), float32], float32) /* ty=(Tensor[(10, 10), float32], (Tensor[(10, 10), float32], (Tensor[(10, 10), float32],)), (Tensor[(10, 34, 1), float32], Tensor[(10, 38, 1), float32]), Tensor[(10, 34, 1), float32], Tensor[(10, 10), float32], Tensor[(10, 10), float32], Tensor[(1), int32], Tensor[(10, 10), float32], float32) span=from_string:86:634 */ = %x_331;
  let %x_351: (Tensor[(10, 10), float32], (Tensor[(10, 10), float32], (Tensor[(10, 10), float32],)), (Tensor[(10, 34, 1), float32], Tensor[(10, 38, 1), float32]), Tensor[(10, 34, 1), float32], Tensor[(10, 10), float32], Tensor[(10, 10), float32], Tensor[(1), int32], Tensor[(10, 10), float32], float32) /* ty=(Tensor[(10, 10), float32], (Tensor[(10, 10), float32], (Tensor[(10, 10), float32],)), (Tensor[(10, 34, 1), float32], Tensor[(10, 38, 1), float32]), Tensor[(10, 34, 1), float32], Tensor[(10, 10), float32], Tensor[(10, 10), float32], Tensor[(1), int32], Tensor[(10, 10), float32], float32) span=from_string:87:634 */ = %x_341;
  let %x_361: (Tensor[(10, 10), float32], (Tensor[(10, 10), float32], (Tensor[(10, 10), float32],)), (Tensor[(10, 34, 1), float32], Tensor[(10, 38, 1), float32]), Tensor[(10, 34, 1), float32], Tensor[(10, 10), float32], Tensor[(10, 10), float32], Tensor[(1), int32], Tensor[(10, 10), float32], float32) /* ty=(Tensor[(10, 10), float32], (Tensor[(10, 10), float32], (Tensor[(10, 10), float32],)), (Tensor[(10, 34, 1), float32], Tensor[(10, 38, 1), float32]), Tensor[(10, 34, 1), float32], Tensor[(10, 10), float32], Tensor[(10, 10), float32], Tensor[(1), int32], Tensor[(10, 10), float32], float32) span=from_string:88:634 */ = %x_351;
  let %x_371: (Tensor[(10, 10), float32], (Tensor[(10, 10), float32], (Tensor[(10, 10), float32],)), (Tensor[(10, 34, 1), float32], Tensor[(10, 38, 1), float32]), Tensor[(10, 34, 1), float32], Tensor[(10, 10), float32], Tensor[(10, 10), float32], Tensor[(1), int32], Tensor[(10, 10), float32], float32) /* ty=(Tensor[(10, 10), float32], (Tensor[(10, 10), float32], (Tensor[(10, 10), float32],)), (Tensor[(10, 34, 1), float32], Tensor[(10, 38, 1), float32]), Tensor[(10, 34, 1), float32], Tensor[(10, 10), float32], Tensor[(10, 10), float32], Tensor[(1), int32], Tensor[(10, 10), float32], float32) span=from_string:89:634 */ = %x_361;
  let %x_381: (Tensor[(10, 10), float32], (Tensor[(10, 10), float32], (Tensor[(10, 10), float32],)), (Tensor[(10, 34, 1), float32], Tensor[(10, 38, 1), float32]), Tensor[(10, 34, 1), float32], Tensor[(10, 10), float32], Tensor[(10, 10), float32], Tensor[(1), int32], Tensor[(10, 10), float32], float32) /* ty=(Tensor[(10, 10), float32], (Tensor[(10, 10), float32], (Tensor[(10, 10), float32],)), (Tensor[(10, 34, 1), float32], Tensor[(10, 38, 1), float32]), Tensor[(10, 34, 1), float32], Tensor[(10, 10), float32], Tensor[(10, 10), float32], Tensor[(1), int32], Tensor[(10, 10), float32], float32) span=from_string:90:634 */ = %x_371;
  let %x_391: (Tensor[(10, 10), float32], (Tensor[(10, 10), float32], (Tensor[(10, 10), float32],)), (Tensor[(10, 34, 1), float32], Tensor[(10, 38, 1), float32]), Tensor[(10, 34, 1), float32], Tensor[(10, 10), float32], Tensor[(10, 10), float32], Tensor[(1), int32], Tensor[(10, 10), float32], float32) /* ty=(Tensor[(10, 10), float32], (Tensor[(10, 10), float32], (Tensor[(10, 10), float32],)), (Tensor[(10, 34, 1), float32], Tensor[(10, 38, 1), float32]), Tensor[(10, 34, 1), float32], Tensor[(10, 10), float32], Tensor[(10, 10), float32], Tensor[(1), int32], Tensor[(10, 10), float32], float32) span=from_string:91:634 */ = %x_381;
  let %x_401: (Tensor[(10, 10), float32], (Tensor[(10, 10), float32], (Tensor[(10, 10), float32],)), (Tensor[(10, 34, 1), float32], Tensor[(10, 38, 1), float32]), Tensor[(10, 34, 1), float32], Tensor[(10, 10), float32], Tensor[(10, 10), float32], Tensor[(1), int32], Tensor[(10, 10), float32], float32) /* ty=(Tensor[(10, 10), float32], (Tensor[(10, 10), float32], (Tensor[(10, 10), float32],)), (Tensor[(10, 34, 1), float32], Tensor[(10, 38, 1), float32]), Tensor[(10, 34, 1), float32], Tensor[(10, 10), float32], Tensor[(10, 10), float32], Tensor[(1), int32], Tensor[(10, 10), float32], float32) span=from_string:92:634 */ = %x_391;
  let %x_411: (Tensor[(10, 10), float32], (Tensor[(10, 10), float32], (Tensor[(10, 10), float32],)), (Tensor[(10, 34, 1), float32], Tensor[(10, 38, 1), float32]), Tensor[(10, 34, 1), float32], Tensor[(10, 10), float32], Tensor[(10, 10), float32], Tensor[(1), int32], Tensor[(10, 10), float32], float32) /* ty=(Tensor[(10, 10), float32], (Tensor[(10, 10), float32], (Tensor[(10, 10), float32],)), (Tensor[(10, 34, 1), float32], Tensor[(10, 38, 1), float32]), Tensor[(10, 34, 1), float32], Tensor[(10, 10), float32], Tensor[(10, 10), float32], Tensor[(1), int32], Tensor[(10, 10), float32], float32) span=from_string:93:634 */ = %x_401;
  let %x_421: (Tensor[(10, 10), float32], (Tensor[(10, 10), float32], (Tensor[(10, 10), float32],)), (Tensor[(10, 34, 1), float32], Tensor[(10, 38, 1), float32]), Tensor[(10, 34, 1), float32], Tensor[(10, 10), float32], Tensor[(10, 10), float32], Tensor[(1), int32], Tensor[(10, 10), float32], float32) /* ty=(Tensor[(10, 10), float32], (Tensor[(10, 10), float32], (Tensor[(10, 10), float32],)), (Tensor[(10, 34, 1), float32], Tensor[(10, 38, 1), float32]), Tensor[(10, 34, 1), float32], Tensor[(10, 10), float32], Tensor[(10, 10), float32], Tensor[(1), int32], Tensor[(10, 10), float32], float32) span=from_string:94:634 */ = %x_411;
  let %x_431: (Tensor[(10, 10), float32], (Tensor[(10, 10), float32], (Tensor[(10, 10), float32],)), (Tensor[(10, 34, 1), float32], Tensor[(10, 38, 1), float32]), Tensor[(10, 34, 1), float32], Tensor[(10, 10), float32], Tensor[(10, 10), float32], Tensor[(1), int32], Tensor[(10, 10), float32], float32) /* ty=(Tensor[(10, 10), float32], (Tensor[(10, 10), float32], (Tensor[(10, 10), float32],)), (Tensor[(10, 34, 1), float32], Tensor[(10, 38, 1), float32]), Tensor[(10, 34, 1), float32], Tensor[(10, 10), float32], Tensor[(10, 10), float32], Tensor[(1), int32], Tensor[(10, 10), float32], float32) span=from_string:95:634 */ = %x_421;
  let %x_441: (Tensor[(10, 10), float32], (Tensor[(10, 10), float32], (Tensor[(10, 10), float32],)), (Tensor[(10, 34, 1), float32], Tensor[(10, 38, 1), float32]), Tensor[(10, 34, 1), float32], Tensor[(10, 10), float32], Tensor[(10, 10), float32], Tensor[(1), int32], Tensor[(10, 10), float32], float32) /* ty=(Tensor[(10, 10), float32], (Tensor[(10, 10), float32], (Tensor[(10, 10), float32],)), (Tensor[(10, 34, 1), float32], Tensor[(10, 38, 1), float32]), Tensor[(10, 34, 1), float32], Tensor[(10, 10), float32], Tensor[(10, 10), float32], Tensor[(1), int32], Tensor[(10, 10), float32], float32) span=from_string:96:634 */ = %x_431;
  let %x_451: (Tensor[(10, 10), float32], (Tensor[(10, 10), float32], (Tensor[(10, 10), float32],)), (Tensor[(10, 34, 1), float32], Tensor[(10, 38, 1), float32]), Tensor[(10, 34, 1), float32], Tensor[(10, 10), float32], Tensor[(10, 10), float32], Tensor[(1), int32], Tensor[(10, 10), float32], float32) /* ty=(Tensor[(10, 10), float32], (Tensor[(10, 10), float32], (Tensor[(10, 10), float32],)), (Tensor[(10, 34, 1), float32], Tensor[(10, 38, 1), float32]), Tensor[(10, 34, 1), float32], Tensor[(10, 10), float32], Tensor[(10, 10), float32], Tensor[(1), int32], Tensor[(10, 10), float32], float32) span=from_string:97:633 */ = %x_441;
  let %x_46: (Tensor[(10, 10), float32], (Tensor[(10, 10), float32], (Tensor[(10, 10), float32],)), (Tensor[(10, 34, 1), float32], Tensor[(10, 38, 1), float32]), Tensor[(10, 34, 1), float32], Tensor[(10, 10), float32], Tensor[(10, 10), float32], Tensor[(1), int32], Tensor[(10, 10), float32], float32) /* ty=(Tensor[(10, 10), float32], (Tensor[(10, 10), float32], (Tensor[(10, 10), float32],)), (Tensor[(10, 34, 1), float32], Tensor[(10, 38, 1), float32]), Tensor[(10, 34, 1), float32], Tensor[(10, 10), float32], Tensor[(10, 10), float32], Tensor[(1), int32], Tensor[(10, 10), float32], float32) span=from_string:98:633 */ = %x_451;
  let %x_47: (Tensor[(10, 10), float32], (Tensor[(10, 10), float32], (Tensor[(10, 10), float32],)), (Tensor[(10, 34, 1), float32], Tensor[(10, 38, 1), float32]), Tensor[(10, 34, 1), float32], Tensor[(10, 10), float32], Tensor[(10, 10), float32], Tensor[(1), int32], Tensor[(10, 10), float32], float32) /* ty=(Tensor[(10, 10), float32], (Tensor[(10, 10), float32], (Tensor[(10, 10), float32],)), (Tensor[(10, 34, 1), float32], Tensor[(10, 38, 1), float32]), Tensor[(10, 34, 1), float32], Tensor[(10, 10), float32], Tensor[(10, 10), float32], Tensor[(1), int32], Tensor[(10, 10), float32], float32) span=from_string:99:634 */ = %x_46;
  let %x_02: (Tensor[(10, 10), float32], (Tensor[(10, 10), float32], (Tensor[(10, 10), float32],)), (Tensor[(10, 34, 1), float32], Tensor[(10, 38, 1), float32]), Tensor[(10, 34, 1), float32], Tensor[(10, 10), float32], Tensor[(10, 10), float32], Tensor[(1), int32], Tensor[(10, 10), float32], float32) /* ty=(Tensor[(10, 10), float32], (Tensor[(10, 10), float32], (Tensor[(10, 10), float32],)), (Tensor[(10, 34, 1), float32], Tensor[(10, 38, 1), float32]), Tensor[(10, 34, 1), float32], Tensor[(10, 10), float32], Tensor[(10, 10), float32], Tensor[(1), int32], Tensor[(10, 10), float32], float32) span=from_string:100:635 */ = %x_47;
  let %x_112: (Tensor[(10, 10), float32], (Tensor[(10, 10), float32], (Tensor[(10, 10), float32],)), (Tensor[(10, 34, 1), float32], Tensor[(10, 38, 1), float32]), Tensor[(10, 34, 1), float32], Tensor[(10, 10), float32], Tensor[(10, 10), float32], Tensor[(1), int32], Tensor[(10, 10), float32], float32) /* ty=(Tensor[(10, 10), float32], (Tensor[(10, 10), float32], (Tensor[(10, 10), float32],)), (Tensor[(10, 34, 1), float32], Tensor[(10, 38, 1), float32]), Tensor[(10, 34, 1), float32], Tensor[(10, 10), float32], Tensor[(10, 10), float32], Tensor[(1), int32], Tensor[(10, 10), float32], float32) span=from_string:101:635 */ = %x_02;
  let %x_212: (Tensor[(10, 10), float32], (Tensor[(10, 10), float32], (Tensor[(10, 10), float32],)), (Tensor[(10, 34, 1), float32], Tensor[(10, 38, 1), float32]), Tensor[(10, 34, 1), float32], Tensor[(10, 10), float32], Tensor[(10, 10), float32], Tensor[(1), int32], Tensor[(10, 10), float32], float32) /* ty=(Tensor[(10, 10), float32], (Tensor[(10, 10), float32], (Tensor[(10, 10), float32],)), (Tensor[(10, 34, 1), float32], Tensor[(10, 38, 1), float32]), Tensor[(10, 34, 1), float32], Tensor[(10, 10), float32], Tensor[(10, 10), float32], Tensor[(1), int32], Tensor[(10, 10), float32], float32) span=from_string:102:635 */ = %x_112;
  let %x_312: (Tensor[(10, 10), float32], (Tensor[(10, 10), float32], (Tensor[(10, 10), float32],)), (Tensor[(10, 34, 1), float32], Tensor[(10, 38, 1), float32]), Tensor[(10, 34, 1), float32], Tensor[(10, 10), float32], Tensor[(10, 10), float32], Tensor[(1), int32], Tensor[(10, 10), float32], float32) /* ty=(Tensor[(10, 10), float32], (Tensor[(10, 10), float32], (Tensor[(10, 10), float32],)), (Tensor[(10, 34, 1), float32], Tensor[(10, 38, 1), float32]), Tensor[(10, 34, 1), float32], Tensor[(10, 10), float32], Tensor[(10, 10), float32], Tensor[(1), int32], Tensor[(10, 10), float32], float32) span=from_string:103:634 */ = %x_212;
  let %x_48: (Tensor[(10, 10), float32], (Tensor[(10, 10), float32], (Tensor[(10, 10), float32],)), (Tensor[(10, 34, 1), float32], Tensor[(10, 38, 1), float32]), Tensor[(10, 34, 1), float32], Tensor[(10, 10), float32], Tensor[(10, 10), float32], Tensor[(1), int32], Tensor[(10, 10), float32], float32) /* ty=(Tensor[(10, 10), float32], (Tensor[(10, 10), float32], (Tensor[(10, 10), float32],)), (Tensor[(10, 34, 1), float32], Tensor[(10, 38, 1), float32]), Tensor[(10, 34, 1), float32], Tensor[(10, 10), float32], Tensor[(10, 10), float32], Tensor[(1), int32], Tensor[(10, 10), float32], float32) span=from_string:104:634 */ = %x_312;
  let %x_52: (Tensor[(10, 10), float32], (Tensor[(10, 10), float32], (Tensor[(10, 10), float32],)), (Tensor[(10, 34, 1), float32], Tensor[(10, 38, 1), float32]), Tensor[(10, 34, 1), float32], Tensor[(10, 10), float32], Tensor[(10, 10), float32], Tensor[(1), int32], Tensor[(10, 10), float32], float32) /* ty=(Tensor[(10, 10), float32], (Tensor[(10, 10), float32], (Tensor[(10, 10), float32],)), (Tensor[(10, 34, 1), float32], Tensor[(10, 38, 1), float32]), Tensor[(10, 34, 1), float32], Tensor[(10, 10), float32], Tensor[(10, 10), float32], Tensor[(1), int32], Tensor[(10, 10), float32], float32) span=from_string:105:634 */ = %x_48;
  let %x_62: (Tensor[(10, 10), float32], (Tensor[(10, 10), float32], (Tensor[(10, 10), float32],)), (Tensor[(10, 34, 1), float32], Tensor[(10, 38, 1), float32]), Tensor[(10, 34, 1), float32], Tensor[(10, 10), float32], Tensor[(10, 10), float32], Tensor[(1), int32], Tensor[(10, 10), float32], float32) /* ty=(Tensor[(10, 10), float32], (Tensor[(10, 10), float32], (Tensor[(10, 10), float32],)), (Tensor[(10, 34, 1), float32], Tensor[(10, 38, 1), float32]), Tensor[(10, 34, 1), float32], Tensor[(10, 10), float32], Tensor[(10, 10), float32], Tensor[(1), int32], Tensor[(10, 10), float32], float32) span=from_string:106:634 */ = %x_52;
  let %x_72: (Tensor[(10, 10), float32], (Tensor[(10, 10), float32], (Tensor[(10, 10), float32],)), (Tensor[(10, 34, 1), float32], Tensor[(10, 38, 1), float32]), Tensor[(10, 34, 1), float32], Tensor[(10, 10), float32], Tensor[(10, 10), float32], Tensor[(1), int32], Tensor[(10, 10), float32], float32) /* ty=(Tensor[(10, 10), float32], (Tensor[(10, 10), float32], (Tensor[(10, 10), float32],)), (Tensor[(10, 34, 1), float32], Tensor[(10, 38, 1), float32]), Tensor[(10, 34, 1), float32], Tensor[(10, 10), float32], Tensor[(10, 10), float32], Tensor[(1), int32], Tensor[(10, 10), float32], float32) span=from_string:107:634 */ = %x_62;
  let %x_82: (Tensor[(10, 10), float32], (Tensor[(10, 10), float32], (Tensor[(10, 10), float32],)), (Tensor[(10, 34, 1), float32], Tensor[(10, 38, 1), float32]), Tensor[(10, 34, 1), float32], Tensor[(10, 10), float32], Tensor[(10, 10), float32], Tensor[(1), int32], Tensor[(10, 10), float32], float32) /* ty=(Tensor[(10, 10), float32], (Tensor[(10, 10), float32], (Tensor[(10, 10), float32],)), (Tensor[(10, 34, 1), float32], Tensor[(10, 38, 1), float32]), Tensor[(10, 34, 1), float32], Tensor[(10, 10), float32], Tensor[(10, 10), float32], Tensor[(1), int32], Tensor[(10, 10), float32], float32) span=from_string:108:634 */ = %x_72;
  let %x_92: (Tensor[(10, 10), float32], (Tensor[(10, 10), float32], (Tensor[(10, 10), float32],)), (Tensor[(10, 34, 1), float32], Tensor[(10, 38, 1), float32]), Tensor[(10, 34, 1), float32], Tensor[(10, 10), float32], Tensor[(10, 10), float32], Tensor[(1), int32], Tensor[(10, 10), float32], float32) /* ty=(Tensor[(10, 10), float32], (Tensor[(10, 10), float32], (Tensor[(10, 10), float32],)), (Tensor[(10, 34, 1), float32], Tensor[(10, 38, 1), float32]), Tensor[(10, 34, 1), float32], Tensor[(10, 10), float32], Tensor[(10, 10), float32], Tensor[(1), int32], Tensor[(10, 10), float32], float32) span=from_string:109:635 */ = %x_82;
  let %x_102: (Tensor[(10, 10), float32], (Tensor[(10, 10), float32], (Tensor[(10, 10), float32],)), (Tensor[(10, 34, 1), float32], Tensor[(10, 38, 1), float32]), Tensor[(10, 34, 1), float32], Tensor[(10, 10), float32], Tensor[(10, 10), float32], Tensor[(1), int32], Tensor[(10, 10), float32], float32) /* ty=(Tensor[(10, 10), float32], (Tensor[(10, 10), float32], (Tensor[(10, 10), float32],)), (Tensor[(10, 34, 1), float32], Tensor[(10, 38, 1), float32]), Tensor[(10, 34, 1), float32], Tensor[(10, 10), float32], Tensor[(10, 10), float32], Tensor[(1), int32], Tensor[(10, 10), float32], float32) span=from_string:110:635 */ = %x_92;
  let %x_113: (Tensor[(10, 10), float32], (Tensor[(10, 10), float32], (Tensor[(10, 10), float32],)), (Tensor[(10, 34, 1), float32], Tensor[(10, 38, 1), float32]), Tensor[(10, 34, 1), float32], Tensor[(10, 10), float32], Tensor[(10, 10), float32], Tensor[(1), int32], Tensor[(10, 10), float32], float32) /* ty=(Tensor[(10, 10), float32], (Tensor[(10, 10), float32], (Tensor[(10, 10), float32],)), (Tensor[(10, 34, 1), float32], Tensor[(10, 38, 1), float32]), Tensor[(10, 34, 1), float32], Tensor[(10, 10), float32], Tensor[(10, 10), float32], Tensor[(1), int32], Tensor[(10, 10), float32], float32) span=from_string:111:635 */ = %x_102;
  let %x_122: (Tensor[(10, 10), float32], (Tensor[(10, 10), float32], (Tensor[(10, 10), float32],)), (Tensor[(10, 34, 1), float32], Tensor[(10, 38, 1), float32]), Tensor[(10, 34, 1), float32], Tensor[(10, 10), float32], Tensor[(10, 10), float32], Tensor[(1), int32], Tensor[(10, 10), float32], float32) /* ty=(Tensor[(10, 10), float32], (Tensor[(10, 10), float32], (Tensor[(10, 10), float32],)), (Tensor[(10, 34, 1), float32], Tensor[(10, 38, 1), float32]), Tensor[(10, 34, 1), float32], Tensor[(10, 10), float32], Tensor[(10, 10), float32], Tensor[(1), int32], Tensor[(10, 10), float32], float32) span=from_string:112:635 */ = %x_113;
  let %x_132: (Tensor[(10, 10), float32], (Tensor[(10, 10), float32], (Tensor[(10, 10), float32],)), (Tensor[(10, 34, 1), float32], Tensor[(10, 38, 1), float32]), Tensor[(10, 34, 1), float32], Tensor[(10, 10), float32], Tensor[(10, 10), float32], Tensor[(1), int32], Tensor[(10, 10), float32], float32) /* ty=(Tensor[(10, 10), float32], (Tensor[(10, 10), float32], (Tensor[(10, 10), float32],)), (Tensor[(10, 34, 1), float32], Tensor[(10, 38, 1), float32]), Tensor[(10, 34, 1), float32], Tensor[(10, 10), float32], Tensor[(10, 10), float32], Tensor[(1), int32], Tensor[(10, 10), float32], float32) span=from_string:113:635 */ = %x_122;
  let %x_142: (Tensor[(10, 10), float32], (Tensor[(10, 10), float32], (Tensor[(10, 10), float32],)), (Tensor[(10, 34, 1), float32], Tensor[(10, 38, 1), float32]), Tensor[(10, 34, 1), float32], Tensor[(10, 10), float32], Tensor[(10, 10), float32], Tensor[(1), int32], Tensor[(10, 10), float32], float32) /* ty=(Tensor[(10, 10), float32], (Tensor[(10, 10), float32], (Tensor[(10, 10), float32],)), (Tensor[(10, 34, 1), float32], Tensor[(10, 38, 1), float32]), Tensor[(10, 34, 1), float32], Tensor[(10, 10), float32], Tensor[(10, 10), float32], Tensor[(1), int32], Tensor[(10, 10), float32], float32) span=from_string:114:635 */ = %x_132;
  let %x_152: (Tensor[(10, 10), float32], (Tensor[(10, 10), float32], (Tensor[(10, 10), float32],)), (Tensor[(10, 34, 1), float32], Tensor[(10, 38, 1), float32]), Tensor[(10, 34, 1), float32], Tensor[(10, 10), float32], Tensor[(10, 10), float32], Tensor[(1), int32], Tensor[(10, 10), float32], float32) /* ty=(Tensor[(10, 10), float32], (Tensor[(10, 10), float32], (Tensor[(10, 10), float32],)), (Tensor[(10, 34, 1), float32], Tensor[(10, 38, 1), float32]), Tensor[(10, 34, 1), float32], Tensor[(10, 10), float32], Tensor[(10, 10), float32], Tensor[(1), int32], Tensor[(10, 10), float32], float32) span=from_string:115:635 */ = %x_142;
  let %x_162: (Tensor[(10, 10), float32], (Tensor[(10, 10), float32], (Tensor[(10, 10), float32],)), (Tensor[(10, 34, 1), float32], Tensor[(10, 38, 1), float32]), Tensor[(10, 34, 1), float32], Tensor[(10, 10), float32], Tensor[(10, 10), float32], Tensor[(1), int32], Tensor[(10, 10), float32], float32) /* ty=(Tensor[(10, 10), float32], (Tensor[(10, 10), float32], (Tensor[(10, 10), float32],)), (Tensor[(10, 34, 1), float32], Tensor[(10, 38, 1), float32]), Tensor[(10, 34, 1), float32], Tensor[(10, 10), float32], Tensor[(10, 10), float32], Tensor[(1), int32], Tensor[(10, 10), float32], float32) span=from_string:116:635 */ = %x_152;
  let %x_172: (Tensor[(10, 10), float32], (Tensor[(10, 10), float32], (Tensor[(10, 10), float32],)), (Tensor[(10, 34, 1), float32], Tensor[(10, 38, 1), float32]), Tensor[(10, 34, 1), float32], Tensor[(10, 10), float32], Tensor[(10, 10), float32], Tensor[(1), int32], Tensor[(10, 10), float32], float32) /* ty=(Tensor[(10, 10), float32], (Tensor[(10, 10), float32], (Tensor[(10, 10), float32],)), (Tensor[(10, 34, 1), float32], Tensor[(10, 38, 1), float32]), Tensor[(10, 34, 1), float32], Tensor[(10, 10), float32], Tensor[(10, 10), float32], Tensor[(1), int32], Tensor[(10, 10), float32], float32) span=from_string:117:635 */ = %x_162;
  let %x_182: (Tensor[(10, 10), float32], (Tensor[(10, 10), float32], (Tensor[(10, 10), float32],)), (Tensor[(10, 34, 1), float32], Tensor[(10, 38, 1), float32]), Tensor[(10, 34, 1), float32], Tensor[(10, 10), float32], Tensor[(10, 10), float32], Tensor[(1), int32], Tensor[(10, 10), float32], float32) /* ty=(Tensor[(10, 10), float32], (Tensor[(10, 10), float32], (Tensor[(10, 10), float32],)), (Tensor[(10, 34, 1), float32], Tensor[(10, 38, 1), float32]), Tensor[(10, 34, 1), float32], Tensor[(10, 10), float32], Tensor[(10, 10), float32], Tensor[(1), int32], Tensor[(10, 10), float32], float32) span=from_string:118:635 */ = %x_172;
  let %x_192: (Tensor[(10, 10), float32], (Tensor[(10, 10), float32], (Tensor[(10, 10), float32],)), (Tensor[(10, 34, 1), float32], Tensor[(10, 38, 1), float32]), Tensor[(10, 34, 1), float32], Tensor[(10, 10), float32], Tensor[(10, 10), float32], Tensor[(1), int32], Tensor[(10, 10), float32], float32) /* ty=(Tensor[(10, 10), float32], (Tensor[(10, 10), float32], (Tensor[(10, 10), float32],)), (Tensor[(10, 34, 1), float32], Tensor[(10, 38, 1), float32]), Tensor[(10, 34, 1), float32], Tensor[(10, 10), float32], Tensor[(10, 10), float32], Tensor[(1), int32], Tensor[(10, 10), float32], float32) span=from_string:119:635 */ = %x_182;
  let %x_202: (Tensor[(10, 10), float32], (Tensor[(10, 10), float32], (Tensor[(10, 10), float32],)), (Tensor[(10, 34, 1), float32], Tensor[(10, 38, 1), float32]), Tensor[(10, 34, 1), float32], Tensor[(10, 10), float32], Tensor[(10, 10), float32], Tensor[(1), int32], Tensor[(10, 10), float32], float32) /* ty=(Tensor[(10, 10), float32], (Tensor[(10, 10), float32], (Tensor[(10, 10), float32],)), (Tensor[(10, 34, 1), float32], Tensor[(10, 38, 1), float32]), Tensor[(10, 34, 1), float32], Tensor[(10, 10), float32], Tensor[(10, 10), float32], Tensor[(1), int32], Tensor[(10, 10), float32], float32) span=from_string:120:635 */ = %x_192;
  let %x_213: (Tensor[(10, 10), float32], (Tensor[(10, 10), float32], (Tensor[(10, 10), float32],)), (Tensor[(10, 34, 1), float32], Tensor[(10, 38, 1), float32]), Tensor[(10, 34, 1), float32], Tensor[(10, 10), float32], Tensor[(10, 10), float32], Tensor[(1), int32], Tensor[(10, 10), float32], float32) /* ty=(Tensor[(10, 10), float32], (Tensor[(10, 10), float32], (Tensor[(10, 10), float32],)), (Tensor[(10, 34, 1), float32], Tensor[(10, 38, 1), float32]), Tensor[(10, 34, 1), float32], Tensor[(10, 10), float32], Tensor[(10, 10), float32], Tensor[(1), int32], Tensor[(10, 10), float32], float32) span=from_string:121:635 */ = %x_202;
  let %x_222: (Tensor[(10, 10), float32], (Tensor[(10, 10), float32], (Tensor[(10, 10), float32],)), (Tensor[(10, 34, 1), float32], Tensor[(10, 38, 1), float32]), Tensor[(10, 34, 1), float32], Tensor[(10, 10), float32], Tensor[(10, 10), float32], Tensor[(1), int32], Tensor[(10, 10), float32], float32) /* ty=(Tensor[(10, 10), float32], (Tensor[(10, 10), float32], (Tensor[(10, 10), float32],)), (Tensor[(10, 34, 1), float32], Tensor[(10, 38, 1), float32]), Tensor[(10, 34, 1), float32], Tensor[(10, 10), float32], Tensor[(10, 10), float32], Tensor[(1), int32], Tensor[(10, 10), float32], float32) span=from_string:122:635 */ = %x_213;
  let %x_232: (Tensor[(10, 10), float32], (Tensor[(10, 10), float32], (Tensor[(10, 10), float32],)), (Tensor[(10, 34, 1), float32], Tensor[(10, 38, 1), float32]), Tensor[(10, 34, 1), float32], Tensor[(10, 10), float32], Tensor[(10, 10), float32], Tensor[(1), int32], Tensor[(10, 10), float32], float32) /* ty=(Tensor[(10, 10), float32], (Tensor[(10, 10), float32], (Tensor[(10, 10), float32],)), (Tensor[(10, 34, 1), float32], Tensor[(10, 38, 1), float32]), Tensor[(10, 34, 1), float32], Tensor[(10, 10), float32], Tensor[(10, 10), float32], Tensor[(1), int32], Tensor[(10, 10), float32], float32) span=from_string:123:635 */ = %x_222;
  let %x_242: (Tensor[(10, 10), float32], (Tensor[(10, 10), float32], (Tensor[(10, 10), float32],)), (Tensor[(10, 34, 1), float32], Tensor[(10, 38, 1), float32]), Tensor[(10, 34, 1), float32], Tensor[(10, 10), float32], Tensor[(10, 10), float32], Tensor[(1), int32], Tensor[(10, 10), float32], float32) /* ty=(Tensor[(10, 10), float32], (Tensor[(10, 10), float32], (Tensor[(10, 10), float32],)), (Tensor[(10, 34, 1), float32], Tensor[(10, 38, 1), float32]), Tensor[(10, 34, 1), float32], Tensor[(10, 10), float32], Tensor[(10, 10), float32], Tensor[(1), int32], Tensor[(10, 10), float32], float32) span=from_string:124:635 */ = %x_232;
  let %x_252: (Tensor[(10, 10), float32], (Tensor[(10, 10), float32], (Tensor[(10, 10), float32],)), (Tensor[(10, 34, 1), float32], Tensor[(10, 38, 1), float32]), Tensor[(10, 34, 1), float32], Tensor[(10, 10), float32], Tensor[(10, 10), float32], Tensor[(1), int32], Tensor[(10, 10), float32], float32) /* ty=(Tensor[(10, 10), float32], (Tensor[(10, 10), float32], (Tensor[(10, 10), float32],)), (Tensor[(10, 34, 1), float32], Tensor[(10, 38, 1), float32]), Tensor[(10, 34, 1), float32], Tensor[(10, 10), float32], Tensor[(10, 10), float32], Tensor[(1), int32], Tensor[(10, 10), float32], float32) span=from_string:125:635 */ = %x_242;
  let %x_262: (Tensor[(10, 10), float32], (Tensor[(10, 10), float32], (Tensor[(10, 10), float32],)), (Tensor[(10, 34, 1), float32], Tensor[(10, 38, 1), float32]), Tensor[(10, 34, 1), float32], Tensor[(10, 10), float32], Tensor[(10, 10), float32], Tensor[(1), int32], Tensor[(10, 10), float32], float32) /* ty=(Tensor[(10, 10), float32], (Tensor[(10, 10), float32], (Tensor[(10, 10), float32],)), (Tensor[(10, 34, 1), float32], Tensor[(10, 38, 1), float32]), Tensor[(10, 34, 1), float32], Tensor[(10, 10), float32], Tensor[(10, 10), float32], Tensor[(1), int32], Tensor[(10, 10), float32], float32) span=from_string:126:635 */ = %x_252;
  let %x_272: (Tensor[(10, 10), float32], (Tensor[(10, 10), float32], (Tensor[(10, 10), float32],)), (Tensor[(10, 34, 1), float32], Tensor[(10, 38, 1), float32]), Tensor[(10, 34, 1), float32], Tensor[(10, 10), float32], Tensor[(10, 10), float32], Tensor[(1), int32], Tensor[(10, 10), float32], float32) /* ty=(Tensor[(10, 10), float32], (Tensor[(10, 10), float32], (Tensor[(10, 10), float32],)), (Tensor[(10, 34, 1), float32], Tensor[(10, 38, 1), float32]), Tensor[(10, 34, 1), float32], Tensor[(10, 10), float32], Tensor[(10, 10), float32], Tensor[(1), int32], Tensor[(10, 10), float32], float32) span=from_string:127:635 */ = %x_262;
  let %x_282: (Tensor[(10, 10), float32], (Tensor[(10, 10), float32], (Tensor[(10, 10), float32],)), (Tensor[(10, 34, 1), float32], Tensor[(10, 38, 1), float32]), Tensor[(10, 34, 1), float32], Tensor[(10, 10), float32], Tensor[(10, 10), float32], Tensor[(1), int32], Tensor[(10, 10), float32], float32) /* ty=(Tensor[(10, 10), float32], (Tensor[(10, 10), float32], (Tensor[(10, 10), float32],)), (Tensor[(10, 34, 1), float32], Tensor[(10, 38, 1), float32]), Tensor[(10, 34, 1), float32], Tensor[(10, 10), float32], Tensor[(10, 10), float32], Tensor[(1), int32], Tensor[(10, 10), float32], float32) span=from_string:128:635 */ = %x_272;
  let %x_292: (Tensor[(10, 10), float32], (Tensor[(10, 10), float32], (Tensor[(10, 10), float32],)), (Tensor[(10, 34, 1), float32], Tensor[(10, 38, 1), float32]), Tensor[(10, 34, 1), float32], Tensor[(10, 10), float32], Tensor[(10, 10), float32], Tensor[(1), int32], Tensor[(10, 10), float32], float32) /* ty=(Tensor[(10, 10), float32], (Tensor[(10, 10), float32], (Tensor[(10, 10), float32],)), (Tensor[(10, 34, 1), float32], Tensor[(10, 38, 1), float32]), Tensor[(10, 34, 1), float32], Tensor[(10, 10), float32], Tensor[(10, 10), float32], Tensor[(1), int32], Tensor[(10, 10), float32], float32) span=from_string:129:635 */ = %x_282;
  let %x_302: (Tensor[(10, 10), float32], (Tensor[(10, 10), float32], (Tensor[(10, 10), float32],)), (Tensor[(10, 34, 1), float32], Tensor[(10, 38, 1), float32]), Tensor[(10, 34, 1), float32], Tensor[(10, 10), float32], Tensor[(10, 10), float32], Tensor[(1), int32], Tensor[(10, 10), float32], float32) /* ty=(Tensor[(10, 10), float32], (Tensor[(10, 10), float32], (Tensor[(10, 10), float32],)), (Tensor[(10, 34, 1), float32], Tensor[(10, 38, 1), float32]), Tensor[(10, 34, 1), float32], Tensor[(10, 10), float32], Tensor[(10, 10), float32], Tensor[(1), int32], Tensor[(10, 10), float32], float32) span=from_string:130:635 */ = %x_292;
  let %x_313: (Tensor[(10, 10), float32], (Tensor[(10, 10), float32], (Tensor[(10, 10), float32],)), (Tensor[(10, 34, 1), float32], Tensor[(10, 38, 1), float32]), Tensor[(10, 34, 1), float32], Tensor[(10, 10), float32], Tensor[(10, 10), float32], Tensor[(1), int32], Tensor[(10, 10), float32], float32) /* ty=(Tensor[(10, 10), float32], (Tensor[(10, 10), float32], (Tensor[(10, 10), float32],)), (Tensor[(10, 34, 1), float32], Tensor[(10, 38, 1), float32]), Tensor[(10, 34, 1), float32], Tensor[(10, 10), float32], Tensor[(10, 10), float32], Tensor[(1), int32], Tensor[(10, 10), float32], float32) span=from_string:131:635 */ = %x_302;
  let %x_322: (Tensor[(10, 10), float32], (Tensor[(10, 10), float32], (Tensor[(10, 10), float32],)), (Tensor[(10, 34, 1), float32], Tensor[(10, 38, 1), float32]), Tensor[(10, 34, 1), float32], Tensor[(10, 10), float32], Tensor[(10, 10), float32], Tensor[(1), int32], Tensor[(10, 10), float32], float32) /* ty=(Tensor[(10, 10), float32], (Tensor[(10, 10), float32], (Tensor[(10, 10), float32],)), (Tensor[(10, 34, 1), float32], Tensor[(10, 38, 1), float32]), Tensor[(10, 34, 1), float32], Tensor[(10, 10), float32], Tensor[(10, 10), float32], Tensor[(1), int32], Tensor[(10, 10), float32], float32) span=from_string:132:635 */ = %x_313;
  let %x_332: (Tensor[(10, 10), float32], (Tensor[(10, 10), float32], (Tensor[(10, 10), float32],)), (Tensor[(10, 34, 1), float32], Tensor[(10, 38, 1), float32]), Tensor[(10, 34, 1), float32], Tensor[(10, 10), float32], Tensor[(10, 10), float32], Tensor[(1), int32], Tensor[(10, 10), float32], float32) /* ty=(Tensor[(10, 10), float32], (Tensor[(10, 10), float32], (Tensor[(10, 10), float32],)), (Tensor[(10, 34, 1), float32], Tensor[(10, 38, 1), float32]), Tensor[(10, 34, 1), float32], Tensor[(10, 10), float32], Tensor[(10, 10), float32], Tensor[(1), int32], Tensor[(10, 10), float32], float32) span=from_string:133:635 */ = %x_322;
  let %x_342: (Tensor[(10, 10), float32], (Tensor[(10, 10), float32], (Tensor[(10, 10), float32],)), (Tensor[(10, 34, 1), float32], Tensor[(10, 38, 1), float32]), Tensor[(10, 34, 1), float32], Tensor[(10, 10), float32], Tensor[(10, 10), float32], Tensor[(1), int32], Tensor[(10, 10), float32], float32) /* ty=(Tensor[(10, 10), float32], (Tensor[(10, 10), float32], (Tensor[(10, 10), float32],)), (Tensor[(10, 34, 1), float32], Tensor[(10, 38, 1), float32]), Tensor[(10, 34, 1), float32], Tensor[(10, 10), float32], Tensor[(10, 10), float32], Tensor[(1), int32], Tensor[(10, 10), float32], float32) span=from_string:134:635 */ = %x_332;
  let %x_352: (Tensor[(10, 10), float32], (Tensor[(10, 10), float32], (Tensor[(10, 10), float32],)), (Tensor[(10, 34, 1), float32], Tensor[(10, 38, 1), float32]), Tensor[(10, 34, 1), float32], Tensor[(10, 10), float32], Tensor[(10, 10), float32], Tensor[(1), int32], Tensor[(10, 10), float32], float32) /* ty=(Tensor[(10, 10), float32], (Tensor[(10, 10), float32], (Tensor[(10, 10), float32],)), (Tensor[(10, 34, 1), float32], Tensor[(10, 38, 1), float32]), Tensor[(10, 34, 1), float32], Tensor[(10, 10), float32], Tensor[(10, 10), float32], Tensor[(1), int32], Tensor[(10, 10), float32], float32) span=from_string:135:635 */ = %x_342;
  let %x_362: (Tensor[(10, 10), float32], (Tensor[(10, 10), float32], (Tensor[(10, 10), float32],)), (Tensor[(10, 34, 1), float32], Tensor[(10, 38, 1), float32]), Tensor[(10, 34, 1), float32], Tensor[(10, 10), float32], Tensor[(10, 10), float32], Tensor[(1), int32], Tensor[(10, 10), float32], float32) /* ty=(Tensor[(10, 10), float32], (Tensor[(10, 10), float32], (Tensor[(10, 10), float32],)), (Tensor[(10, 34, 1), float32], Tensor[(10, 38, 1), float32]), Tensor[(10, 34, 1), float32], Tensor[(10, 10), float32], Tensor[(10, 10), float32], Tensor[(1), int32], Tensor[(10, 10), float32], float32) span=from_string:136:635 */ = %x_352;
  let %x_372: (Tensor[(10, 10), float32], (Tensor[(10, 10), float32], (Tensor[(10, 10), float32],)), (Tensor[(10, 34, 1), float32], Tensor[(10, 38, 1), float32]), Tensor[(10, 34, 1), float32], Tensor[(10, 10), float32], Tensor[(10, 10), float32], Tensor[(1), int32], Tensor[(10, 10), float32], float32) /* ty=(Tensor[(10, 10), float32], (Tensor[(10, 10), float32], (Tensor[(10, 10), float32],)), (Tensor[(10, 34, 1), float32], Tensor[(10, 38, 1), float32]), Tensor[(10, 34, 1), float32], Tensor[(10, 10), float32], Tensor[(10, 10), float32], Tensor[(1), int32], Tensor[(10, 10), float32], float32) span=from_string:137:635 */ = %x_362;
  let %x_382: (Tensor[(10, 10), float32], (Tensor[(10, 10), float32], (Tensor[(10, 10), float32],)), (Tensor[(10, 34, 1), float32], Tensor[(10, 38, 1), float32]), Tensor[(10, 34, 1), float32], Tensor[(10, 10), float32], Tensor[(10, 10), float32], Tensor[(1), int32], Tensor[(10, 10), float32], float32) /* ty=(Tensor[(10, 10), float32], (Tensor[(10, 10), float32], (Tensor[(10, 10), float32],)), (Tensor[(10, 34, 1), float32], Tensor[(10, 38, 1), float32]), Tensor[(10, 34, 1), float32], Tensor[(10, 10), float32], Tensor[(10, 10), float32], Tensor[(1), int32], Tensor[(10, 10), float32], float32) span=from_string:138:635 */ = %x_372;
  let %x_392: (Tensor[(10, 10), float32], (Tensor[(10, 10), float32], (Tensor[(10, 10), float32],)), (Tensor[(10, 34, 1), float32], Tensor[(10, 38, 1), float32]), Tensor[(10, 34, 1), float32], Tensor[(10, 10), float32], Tensor[(10, 10), float32], Tensor[(1), int32], Tensor[(10, 10), float32], float32) /* ty=(Tensor[(10, 10), float32], (Tensor[(10, 10), float32], (Tensor[(10, 10), float32],)), (Tensor[(10, 34, 1), float32], Tensor[(10, 38, 1), float32]), Tensor[(10, 34, 1), float32], Tensor[(10, 10), float32], Tensor[(10, 10), float32], Tensor[(1), int32], Tensor[(10, 10), float32], float32) span=from_string:139:635 */ = %x_382;
  let %x_402: (Tensor[(10, 10), float32], (Tensor[(10, 10), float32], (Tensor[(10, 10), float32],)), (Tensor[(10, 34, 1), float32], Tensor[(10, 38, 1), float32]), Tensor[(10, 34, 1), float32], Tensor[(10, 10), float32], Tensor[(10, 10), float32], Tensor[(1), int32], Tensor[(10, 10), float32], float32) /* ty=(Tensor[(10, 10), float32], (Tensor[(10, 10), float32], (Tensor[(10, 10), float32],)), (Tensor[(10, 34, 1), float32], Tensor[(10, 38, 1), float32]), Tensor[(10, 34, 1), float32], Tensor[(10, 10), float32], Tensor[(10, 10), float32], Tensor[(1), int32], Tensor[(10, 10), float32], float32) span=from_string:140:635 */ = %x_392;
  let %x_412: (Tensor[(10, 10), float32], (Tensor[(10, 10), float32], (Tensor[(10, 10), float32],)), (Tensor[(10, 34, 1), float32], Tensor[(10, 38, 1), float32]), Tensor[(10, 34, 1), float32], Tensor[(10, 10), float32], Tensor[(10, 10), float32], Tensor[(1), int32], Tensor[(10, 10), float32], float32) /* ty=(Tensor[(10, 10), float32], (Tensor[(10, 10), float32], (Tensor[(10, 10), float32],)), (Tensor[(10, 34, 1), float32], Tensor[(10, 38, 1), float32]), Tensor[(10, 34, 1), float32], Tensor[(10, 10), float32], Tensor[(10, 10), float32], Tensor[(1), int32], Tensor[(10, 10), float32], float32) span=from_string:141:635 */ = %x_402;
  let %x_422: (Tensor[(10, 10), float32], (Tensor[(10, 10), float32], (Tensor[(10, 10), float32],)), (Tensor[(10, 34, 1), float32], Tensor[(10, 38, 1), float32]), Tensor[(10, 34, 1), float32], Tensor[(10, 10), float32], Tensor[(10, 10), float32], Tensor[(1), int32], Tensor[(10, 10), float32], float32) /* ty=(Tensor[(10, 10), float32], (Tensor[(10, 10), float32], (Tensor[(10, 10), float32],)), (Tensor[(10, 34, 1), float32], Tensor[(10, 38, 1), float32]), Tensor[(10, 34, 1), float32], Tensor[(10, 10), float32], Tensor[(10, 10), float32], Tensor[(1), int32], Tensor[(10, 10), float32], float32) span=from_string:142:635 */ = %x_412;
  let %x_432: (Tensor[(10, 10), float32], (Tensor[(10, 10), float32], (Tensor[(10, 10), float32],)), (Tensor[(10, 34, 1), float32], Tensor[(10, 38, 1), float32]), Tensor[(10, 34, 1), float32], Tensor[(10, 10), float32], Tensor[(10, 10), float32], Tensor[(1), int32], Tensor[(10, 10), float32], float32) /* ty=(Tensor[(10, 10), float32], (Tensor[(10, 10), float32], (Tensor[(10, 10), float32],)), (Tensor[(10, 34, 1), float32], Tensor[(10, 38, 1), float32]), Tensor[(10, 34, 1), float32], Tensor[(10, 10), float32], Tensor[(10, 10), float32], Tensor[(1), int32], Tensor[(10, 10), float32], float32) span=from_string:143:635 */ = %x_422;
  let %x_442: (Tensor[(10, 10), float32], (Tensor[(10, 10), float32], (Tensor[(10, 10), float32],)), (Tensor[(10, 34, 1), float32], Tensor[(10, 38, 1), float32]), Tensor[(10, 34, 1), float32], Tensor[(10, 10), float32], Tensor[(10, 10), float32], Tensor[(1), int32], Tensor[(10, 10), float32], float32) /* ty=(Tensor[(10, 10), float32], (Tensor[(10, 10), float32], (Tensor[(10, 10), float32],)), (Tensor[(10, 34, 1), float32], Tensor[(10, 38, 1), float32]), Tensor[(10, 34, 1), float32], Tensor[(10, 10), float32], Tensor[(10, 10), float32], Tensor[(1), int32], Tensor[(10, 10), float32], float32) span=from_string:144:635 */ = %x_432;
  let %x_452: (Tensor[(10, 10), float32], (Tensor[(10, 10), float32], (Tensor[(10, 10), float32],)), (Tensor[(10, 34, 1), float32], Tensor[(10, 38, 1), float32]), Tensor[(10, 34, 1), float32], Tensor[(10, 10), float32], Tensor[(10, 10), float32], Tensor[(1), int32], Tensor[(10, 10), float32], float32) /* ty=(Tensor[(10, 10), float32], (Tensor[(10, 10), float32], (Tensor[(10, 10), float32],)), (Tensor[(10, 34, 1), float32], Tensor[(10, 38, 1), float32]), Tensor[(10, 34, 1), float32], Tensor[(10, 10), float32], Tensor[(10, 10), float32], Tensor[(1), int32], Tensor[(10, 10), float32], float32) span=from_string:145:635 */ = %x_442;
  let %x_461: (Tensor[(10, 10), float32], (Tensor[(10, 10), float32], (Tensor[(10, 10), float32],)), (Tensor[(10, 34, 1), float32], Tensor[(10, 38, 1), float32]), Tensor[(10, 34, 1), float32], Tensor[(10, 10), float32], Tensor[(10, 10), float32], Tensor[(1), int32], Tensor[(10, 10), float32], float32) /* ty=(Tensor[(10, 10), float32], (Tensor[(10, 10), float32], (Tensor[(10, 10), float32],)), (Tensor[(10, 34, 1), float32], Tensor[(10, 38, 1), float32]), Tensor[(10, 34, 1), float32], Tensor[(10, 10), float32], Tensor[(10, 10), float32], Tensor[(1), int32], Tensor[(10, 10), float32], float32) span=from_string:146:635 */ = %x_452;
  let %x_471: (Tensor[(10, 10), float32], (Tensor[(10, 10), float32], (Tensor[(10, 10), float32],)), (Tensor[(10, 34, 1), float32], Tensor[(10, 38, 1), float32]), Tensor[(10, 34, 1), float32], Tensor[(10, 10), float32], Tensor[(10, 10), float32], Tensor[(1), int32], Tensor[(10, 10), float32], float32) /* ty=(Tensor[(10, 10), float32], (Tensor[(10, 10), float32], (Tensor[(10, 10), float32],)), (Tensor[(10, 34, 1), float32], Tensor[(10, 38, 1), float32]), Tensor[(10, 34, 1), float32], Tensor[(10, 10), float32], Tensor[(10, 10), float32], Tensor[(1), int32], Tensor[(10, 10), float32], float32) span=from_string:147:635 */ = %x_461;
  let %x_481: (Tensor[(10, 10), float32], (Tensor[(10, 10), float32], (Tensor[(10, 10), float32],)), (Tensor[(10, 34, 1), float32], Tensor[(10, 38, 1), float32]), Tensor[(10, 34, 1), float32], Tensor[(10, 10), float32], Tensor[(10, 10), float32], Tensor[(1), int32], Tensor[(10, 10), float32], float32) /* ty=(Tensor[(10, 10), float32], (Tensor[(10, 10), float32], (Tensor[(10, 10), float32],)), (Tensor[(10, 34, 1), float32], Tensor[(10, 38, 1), float32]), Tensor[(10, 34, 1), float32], Tensor[(10, 10), float32], Tensor[(10, 10), float32], Tensor[(1), int32], Tensor[(10, 10), float32], float32) span=from_string:148:634 */ = %x_471;
  let %x_49: (Tensor[(10, 10), float32], (Tensor[(10, 10), float32], (Tensor[(10, 10), float32],)), (Tensor[(10, 34, 1), float32], Tensor[(10, 38, 1), float32]), Tensor[(10, 34, 1), float32], Tensor[(10, 10), float32], Tensor[(10, 10), float32], Tensor[(1), int32], Tensor[(10, 10), float32], float32) /* ty=(Tensor[(10, 10), float32], (Tensor[(10, 10), float32], (Tensor[(10, 10), float32],)), (Tensor[(10, 34, 1), float32], Tensor[(10, 38, 1), float32]), Tensor[(10, 34, 1), float32], Tensor[(10, 10), float32], Tensor[(10, 10), float32], Tensor[(1), int32], Tensor[(10, 10), float32], float32) span=from_string:149:634 */ = %x_481;
  let %x_50: (Tensor[(10, 10), float32], (Tensor[(10, 10), float32], (Tensor[(10, 10), float32],)), (Tensor[(10, 34, 1), float32], Tensor[(10, 38, 1), float32]), Tensor[(10, 34, 1), float32], Tensor[(10, 10), float32], Tensor[(10, 10), float32], Tensor[(1), int32], Tensor[(10, 10), float32], float32) /* ty=(Tensor[(10, 10), float32], (Tensor[(10, 10), float32], (Tensor[(10, 10), float32],)), (Tensor[(10, 34, 1), float32], Tensor[(10, 38, 1), float32]), Tensor[(10, 34, 1), float32], Tensor[(10, 10), float32], Tensor[(10, 10), float32], Tensor[(1), int32], Tensor[(10, 10), float32], float32) span=from_string:150:635 */ = %x_49;
  let %x_511: (Tensor[(10, 10), float32], (Tensor[(10, 10), float32], (Tensor[(10, 10), float32],)), (Tensor[(10, 34, 1), float32], Tensor[(10, 38, 1), float32]), Tensor[(10, 34, 1), float32], Tensor[(10, 10), float32], Tensor[(10, 10), float32], Tensor[(1), int32], Tensor[(10, 10), float32], float32) /* ty=(Tensor[(10, 10), float32], (Tensor[(10, 10), float32], (Tensor[(10, 10), float32],)), (Tensor[(10, 34, 1), float32], Tensor[(10, 38, 1), float32]), Tensor[(10, 34, 1), float32], Tensor[(10, 10), float32], Tensor[(10, 10), float32], Tensor[(1), int32], Tensor[(10, 10), float32], float32) span=from_string:151:635 */ = %x_50;
  let %x_521: (Tensor[(10, 10), float32], (Tensor[(10, 10), float32], (Tensor[(10, 10), float32],)), (Tensor[(10, 34, 1), float32], Tensor[(10, 38, 1), float32]), Tensor[(10, 34, 1), float32], Tensor[(10, 10), float32], Tensor[(10, 10), float32], Tensor[(1), int32], Tensor[(10, 10), float32], float32) /* ty=(Tensor[(10, 10), float32], (Tensor[(10, 10), float32], (Tensor[(10, 10), float32],)), (Tensor[(10, 34, 1), float32], Tensor[(10, 38, 1), float32]), Tensor[(10, 34, 1), float32], Tensor[(10, 10), float32], Tensor[(10, 10), float32], Tensor[(1), int32], Tensor[(10, 10), float32], float32) span=from_string:152:634 */ = %x_511;
  let %x_53: (Tensor[(10, 10), float32], (Tensor[(10, 10), float32], (Tensor[(10, 10), float32],)), (Tensor[(10, 34, 1), float32], Tensor[(10, 38, 1), float32]), Tensor[(10, 34, 1), float32], Tensor[(10, 10), float32], Tensor[(10, 10), float32], Tensor[(1), int32], Tensor[(10, 10), float32], float32) /* ty=(Tensor[(10, 10), float32], (Tensor[(10, 10), float32], (Tensor[(10, 10), float32],)), (Tensor[(10, 34, 1), float32], Tensor[(10, 38, 1), float32]), Tensor[(10, 34, 1), float32], Tensor[(10, 10), float32], Tensor[(10, 10), float32], Tensor[(1), int32], Tensor[(10, 10), float32], float32) span=from_string:153:634 */ = %x_521;
  let %x_54: (Tensor[(10, 10), float32], (Tensor[(10, 10), float32], (Tensor[(10, 10), float32],)), (Tensor[(10, 34, 1), float32], Tensor[(10, 38, 1), float32]), Tensor[(10, 34, 1), float32], Tensor[(10, 10), float32], Tensor[(10, 10), float32], Tensor[(1), int32], Tensor[(10, 10), float32], float32) /* ty=(Tensor[(10, 10), float32], (Tensor[(10, 10), float32], (Tensor[(10, 10), float32],)), (Tensor[(10, 34, 1), float32], Tensor[(10, 38, 1), float32]), Tensor[(10, 34, 1), float32], Tensor[(10, 10), float32], Tensor[(10, 10), float32], Tensor[(1), int32], Tensor[(10, 10), float32], float32) span=from_string:154:634 */ = %x_53;
  let %x_55: (Tensor[(10, 10), float32], (Tensor[(10, 10), float32], (Tensor[(10, 10), float32],)), (Tensor[(10, 34, 1), float32], Tensor[(10, 38, 1), float32]), Tensor[(10, 34, 1), float32], Tensor[(10, 10), float32], Tensor[(10, 10), float32], Tensor[(1), int32], Tensor[(10, 10), float32], float32) /* ty=(Tensor[(10, 10), float32], (Tensor[(10, 10), float32], (Tensor[(10, 10), float32],)), (Tensor[(10, 34, 1), float32], Tensor[(10, 38, 1), float32]), Tensor[(10, 34, 1), float32], Tensor[(10, 10), float32], Tensor[(10, 10), float32], Tensor[(1), int32], Tensor[(10, 10), float32], float32) span=from_string:155:634 */ = %x_54;
  let %x_56: (Tensor[(10, 10), float32], (Tensor[(10, 10), float32], (Tensor[(10, 10), float32],)), (Tensor[(10, 34, 1), float32], Tensor[(10, 38, 1), float32]), Tensor[(10, 34, 1), float32], Tensor[(10, 10), float32], Tensor[(10, 10), float32], Tensor[(1), int32], Tensor[(10, 10), float32], float32) /* ty=(Tensor[(10, 10), float32], (Tensor[(10, 10), float32], (Tensor[(10, 10), float32],)), (Tensor[(10, 34, 1), float32], Tensor[(10, 38, 1), float32]), Tensor[(10, 34, 1), float32], Tensor[(10, 10), float32], Tensor[(10, 10), float32], Tensor[(1), int32], Tensor[(10, 10), float32], float32) span=from_string:156:634 */ = %x_55;
  let %x_57: (Tensor[(10, 10), float32], (Tensor[(10, 10), float32], (Tensor[(10, 10), float32],)), (Tensor[(10, 34, 1), float32], Tensor[(10, 38, 1), float32]), Tensor[(10, 34, 1), float32], Tensor[(10, 10), float32], Tensor[(10, 10), float32], Tensor[(1), int32], Tensor[(10, 10), float32], float32) /* ty=(Tensor[(10, 10), float32], (Tensor[(10, 10), float32], (Tensor[(10, 10), float32],)), (Tensor[(10, 34, 1), float32], Tensor[(10, 38, 1), float32]), Tensor[(10, 34, 1), float32], Tensor[(10, 10), float32], Tensor[(10, 10), float32], Tensor[(1), int32], Tensor[(10, 10), float32], float32) span=from_string:157:634 */ = %x_56;
  let %x_58: (Tensor[(10, 10), float32], (Tensor[(10, 10), float32], (Tensor[(10, 10), float32],)), (Tensor[(10, 34, 1), float32], Tensor[(10, 38, 1), float32]), Tensor[(10, 34, 1), float32], Tensor[(10, 10), float32], Tensor[(10, 10), float32], Tensor[(1), int32], Tensor[(10, 10), float32], float32) /* ty=(Tensor[(10, 10), float32], (Tensor[(10, 10), float32], (Tensor[(10, 10), float32],)), (Tensor[(10, 34, 1), float32], Tensor[(10, 38, 1), float32]), Tensor[(10, 34, 1), float32], Tensor[(10, 10), float32], Tensor[(10, 10), float32], Tensor[(1), int32], Tensor[(10, 10), float32], float32) span=from_string:158:634 */ = %x_57;
  let %x_59: (Tensor[(10, 10), float32], (Tensor[(10, 10), float32], (Tensor[(10, 10), float32],)), (Tensor[(10, 34, 1), float32], Tensor[(10, 38, 1), float32]), Tensor[(10, 34, 1), float32], Tensor[(10, 10), float32], Tensor[(10, 10), float32], Tensor[(1), int32], Tensor[(10, 10), float32], float32) /* ty=(Tensor[(10, 10), float32], (Tensor[(10, 10), float32], (Tensor[(10, 10), float32],)), (Tensor[(10, 34, 1), float32], Tensor[(10, 38, 1), float32]), Tensor[(10, 34, 1), float32], Tensor[(10, 10), float32], Tensor[(10, 10), float32], Tensor[(1), int32], Tensor[(10, 10), float32], float32) span=from_string:159:634 */ = %x_58;
  let %x_60: (Tensor[(10, 10), float32], (Tensor[(10, 10), float32], (Tensor[(10, 10), float32],)), (Tensor[(10, 34, 1), float32], Tensor[(10, 38, 1), float32]), Tensor[(10, 34, 1), float32], Tensor[(10, 10), float32], Tensor[(10, 10), float32], Tensor[(1), int32], Tensor[(10, 10), float32], float32) /* ty=(Tensor[(10, 10), float32], (Tensor[(10, 10), float32], (Tensor[(10, 10), float32],)), (Tensor[(10, 34, 1), float32], Tensor[(10, 38, 1), float32]), Tensor[(10, 34, 1), float32], Tensor[(10, 10), float32], Tensor[(10, 10), float32], Tensor[(1), int32], Tensor[(10, 10), float32], float32) span=from_string:160:635 */ = %x_59;
  let %x_611: (Tensor[(10, 10), float32], (Tensor[(10, 10), float32], (Tensor[(10, 10), float32],)), (Tensor[(10, 34, 1), float32], Tensor[(10, 38, 1), float32]), Tensor[(10, 34, 1), float32], Tensor[(10, 10), float32], Tensor[(10, 10), float32], Tensor[(1), int32], Tensor[(10, 10), float32], float32) /* ty=(Tensor[(10, 10), float32], (Tensor[(10, 10), float32], (Tensor[(10, 10), float32],)), (Tensor[(10, 34, 1), float32], Tensor[(10, 38, 1), float32]), Tensor[(10, 34, 1), float32], Tensor[(10, 10), float32], Tensor[(10, 10), float32], Tensor[(1), int32], Tensor[(10, 10), float32], float32) span=from_string:161:635 */ = %x_60;
  let %x_621: (Tensor[(10, 10), float32], (Tensor[(10, 10), float32], (Tensor[(10, 10), float32],)), (Tensor[(10, 34, 1), float32], Tensor[(10, 38, 1), float32]), Tensor[(10, 34, 1), float32], Tensor[(10, 10), float32], Tensor[(10, 10), float32], Tensor[(1), int32], Tensor[(10, 10), float32], float32) /* ty=(Tensor[(10, 10), float32], (Tensor[(10, 10), float32], (Tensor[(10, 10), float32],)), (Tensor[(10, 34, 1), float32], Tensor[(10, 38, 1), float32]), Tensor[(10, 34, 1), float32], Tensor[(10, 10), float32], Tensor[(10, 10), float32], Tensor[(1), int32], Tensor[(10, 10), float32], float32) span=from_string:162:634 */ = %x_611;
  let %x_63: (Tensor[(10, 10), float32], (Tensor[(10, 10), float32], (Tensor[(10, 10), float32],)), (Tensor[(10, 34, 1), float32], Tensor[(10, 38, 1), float32]), Tensor[(10, 34, 1), float32], Tensor[(10, 10), float32], Tensor[(10, 10), float32], Tensor[(1), int32], Tensor[(10, 10), float32], float32) /* ty=(Tensor[(10, 10), float32], (Tensor[(10, 10), float32], (Tensor[(10, 10), float32],)), (Tensor[(10, 34, 1), float32], Tensor[(10, 38, 1), float32]), Tensor[(10, 34, 1), float32], Tensor[(10, 10), float32], Tensor[(10, 10), float32], Tensor[(1), int32], Tensor[(10, 10), float32], float32) span=from_string:163:634 */ = %x_621;
  let %x_64: (Tensor[(10, 10), float32], (Tensor[(10, 10), float32], (Tensor[(10, 10), float32],)), (Tensor[(10, 34, 1), float32], Tensor[(10, 38, 1), float32]), Tensor[(10, 34, 1), float32], Tensor[(10, 10), float32], Tensor[(10, 10), float32], Tensor[(1), int32], Tensor[(10, 10), float32], float32) /* ty=(Tensor[(10, 10), float32], (Tensor[(10, 10), float32], (Tensor[(10, 10), float32],)), (Tensor[(10, 34, 1), float32], Tensor[(10, 38, 1), float32]), Tensor[(10, 34, 1), float32], Tensor[(10, 10), float32], Tensor[(10, 10), float32], Tensor[(1), int32], Tensor[(10, 10), float32], float32) span=from_string:164:634 */ = %x_63;
  let %x_65: (Tensor[(10, 10), float32], (Tensor[(10, 10), float32], (Tensor[(10, 10), float32],)), (Tensor[(10, 34, 1), float32], Tensor[(10, 38, 1), float32]), Tensor[(10, 34, 1), float32], Tensor[(10, 10), float32], Tensor[(10, 10), float32], Tensor[(1), int32], Tensor[(10, 10), float32], float32) /* ty=(Tensor[(10, 10), float32], (Tensor[(10, 10), float32], (Tensor[(10, 10), float32],)), (Tensor[(10, 34, 1), float32], Tensor[(10, 38, 1), float32]), Tensor[(10, 34, 1), float32], Tensor[(10, 10), float32], Tensor[(10, 10), float32], Tensor[(1), int32], Tensor[(10, 10), float32], float32) span=from_string:165:634 */ = %x_64;
  let %x_66: (Tensor[(10, 10), float32], (Tensor[(10, 10), float32], (Tensor[(10, 10), float32],)), (Tensor[(10, 34, 1), float32], Tensor[(10, 38, 1), float32]), Tensor[(10, 34, 1), float32], Tensor[(10, 10), float32], Tensor[(10, 10), float32], Tensor[(1), int32], Tensor[(10, 10), float32], float32) /* ty=(Tensor[(10, 10), float32], (Tensor[(10, 10), float32], (Tensor[(10, 10), float32],)), (Tensor[(10, 34, 1), float32], Tensor[(10, 38, 1), float32]), Tensor[(10, 34, 1), float32], Tensor[(10, 10), float32], Tensor[(10, 10), float32], Tensor[(1), int32], Tensor[(10, 10), float32], float32) span=from_string:166:634 */ = %x_65;
  let %x_67: (Tensor[(10, 10), float32], (Tensor[(10, 10), float32], (Tensor[(10, 10), float32],)), (Tensor[(10, 34, 1), float32], Tensor[(10, 38, 1), float32]), Tensor[(10, 34, 1), float32], Tensor[(10, 10), float32], Tensor[(10, 10), float32], Tensor[(1), int32], Tensor[(10, 10), float32], float32) /* ty=(Tensor[(10, 10), float32], (Tensor[(10, 10), float32], (Tensor[(10, 10), float32],)), (Tensor[(10, 34, 1), float32], Tensor[(10, 38, 1), float32]), Tensor[(10, 34, 1), float32], Tensor[(10, 10), float32], Tensor[(10, 10), float32], Tensor[(1), int32], Tensor[(10, 10), float32], float32) span=from_string:167:634 */ = %x_66;
  let %x_68: (Tensor[(10, 10), float32], (Tensor[(10, 10), float32], (Tensor[(10, 10), float32],)), (Tensor[(10, 34, 1), float32], Tensor[(10, 38, 1), float32]), Tensor[(10, 34, 1), float32], Tensor[(10, 10), float32], Tensor[(10, 10), float32], Tensor[(1), int32], Tensor[(10, 10), float32], float32) /* ty=(Tensor[(10, 10), float32], (Tensor[(10, 10), float32], (Tensor[(10, 10), float32],)), (Tensor[(10, 34, 1), float32], Tensor[(10, 38, 1), float32]), Tensor[(10, 34, 1), float32], Tensor[(10, 10), float32], Tensor[(10, 10), float32], Tensor[(1), int32], Tensor[(10, 10), float32], float32) span=from_string:168:634 */ = %x_67;
  let %x_69: (Tensor[(10, 10), float32], (Tensor[(10, 10), float32], (Tensor[(10, 10), float32],)), (Tensor[(10, 34, 1), float32], Tensor[(10, 38, 1), float32]), Tensor[(10, 34, 1), float32], Tensor[(10, 10), float32], Tensor[(10, 10), float32], Tensor[(1), int32], Tensor[(10, 10), float32], float32) /* ty=(Tensor[(10, 10), float32], (Tensor[(10, 10), float32], (Tensor[(10, 10), float32],)), (Tensor[(10, 34, 1), float32], Tensor[(10, 38, 1), float32]), Tensor[(10, 34, 1), float32], Tensor[(10, 10), float32], Tensor[(10, 10), float32], Tensor[(1), int32], Tensor[(10, 10), float32], float32) span=from_string:169:634 */ = %x_68;
  let %x_70: (Tensor[(10, 10), float32], (Tensor[(10, 10), float32], (Tensor[(10, 10), float32],)), (Tensor[(10, 34, 1), float32], Tensor[(10, 38, 1), float32]), Tensor[(10, 34, 1), float32], Tensor[(10, 10), float32], Tensor[(10, 10), float32], Tensor[(1), int32], Tensor[(10, 10), float32], float32) /* ty=(Tensor[(10, 10), float32], (Tensor[(10, 10), float32], (Tensor[(10, 10), float32],)), (Tensor[(10, 34, 1), float32], Tensor[(10, 38, 1), float32]), Tensor[(10, 34, 1), float32], Tensor[(10, 10), float32], Tensor[(10, 10), float32], Tensor[(1), int32], Tensor[(10, 10), float32], float32) span=from_string:170:635 */ = %x_69;
  let %x_711: (Tensor[(10, 10), float32], (Tensor[(10, 10), float32], (Tensor[(10, 10), float32],)), (Tensor[(10, 34, 1), float32], Tensor[(10, 38, 1), float32]), Tensor[(10, 34, 1), float32], Tensor[(10, 10), float32], Tensor[(10, 10), float32], Tensor[(1), int32], Tensor[(10, 10), float32], float32) /* ty=(Tensor[(10, 10), float32], (Tensor[(10, 10), float32], (Tensor[(10, 10), float32],)), (Tensor[(10, 34, 1), float32], Tensor[(10, 38, 1), float32]), Tensor[(10, 34, 1), float32], Tensor[(10, 10), float32], Tensor[(10, 10), float32], Tensor[(1), int32], Tensor[(10, 10), float32], float32) span=from_string:171:635 */ = %x_70;
  let %x_721: (Tensor[(10, 10), float32], (Tensor[(10, 10), float32], (Tensor[(10, 10), float32],)), (Tensor[(10, 34, 1), float32], Tensor[(10, 38, 1), float32]), Tensor[(10, 34, 1), float32], Tensor[(10, 10), float32], Tensor[(10, 10), float32], Tensor[(1), int32], Tensor[(10, 10), float32], float32) /* ty=(Tensor[(10, 10), float32], (Tensor[(10, 10), float32], (Tensor[(10, 10), float32],)), (Tensor[(10, 34, 1), float32], Tensor[(10, 38, 1), float32]), Tensor[(10, 34, 1), float32], Tensor[(10, 10), float32], Tensor[(10, 10), float32], Tensor[(1), int32], Tensor[(10, 10), float32], float32) span=from_string:172:634 */ = %x_711;
  let %x_73: (Tensor[(10, 10), float32], (Tensor[(10, 10), float32], (Tensor[(10, 10), float32],)), (Tensor[(10, 34, 1), float32], Tensor[(10, 38, 1), float32]), Tensor[(10, 34, 1), float32], Tensor[(10, 10), float32], Tensor[(10, 10), float32], Tensor[(1), int32], Tensor[(10, 10), float32], float32) /* ty=(Tensor[(10, 10), float32], (Tensor[(10, 10), float32], (Tensor[(10, 10), float32],)), (Tensor[(10, 34, 1), float32], Tensor[(10, 38, 1), float32]), Tensor[(10, 34, 1), float32], Tensor[(10, 10), float32], Tensor[(10, 10), float32], Tensor[(1), int32], Tensor[(10, 10), float32], float32) span=from_string:173:634 */ = %x_721;
  let %x_74: (Tensor[(10, 10), float32], (Tensor[(10, 10), float32], (Tensor[(10, 10), float32],)), (Tensor[(10, 34, 1), float32], Tensor[(10, 38, 1), float32]), Tensor[(10, 34, 1), float32], Tensor[(10, 10), float32], Tensor[(10, 10), float32], Tensor[(1), int32], Tensor[(10, 10), float32], float32) /* ty=(Tensor[(10, 10), float32], (Tensor[(10, 10), float32], (Tensor[(10, 10), float32],)), (Tensor[(10, 34, 1), float32], Tensor[(10, 38, 1), float32]), Tensor[(10, 34, 1), float32], Tensor[(10, 10), float32], Tensor[(10, 10), float32], Tensor[(1), int32], Tensor[(10, 10), float32], float32) span=from_string:174:634 */ = %x_73;
  let %x_75: (Tensor[(10, 10), float32], (Tensor[(10, 10), float32], (Tensor[(10, 10), float32],)), (Tensor[(10, 34, 1), float32], Tensor[(10, 38, 1), float32]), Tensor[(10, 34, 1), float32], Tensor[(10, 10), float32], Tensor[(10, 10), float32], Tensor[(1), int32], Tensor[(10, 10), float32], float32) /* ty=(Tensor[(10, 10), float32], (Tensor[(10, 10), float32], (Tensor[(10, 10), float32],)), (Tensor[(10, 34, 1), float32], Tensor[(10, 38, 1), float32]), Tensor[(10, 34, 1), float32], Tensor[(10, 10), float32], Tensor[(10, 10), float32], Tensor[(1), int32], Tensor[(10, 10), float32], float32) span=from_string:175:634 */ = %x_74;
  let %x_76: (Tensor[(10, 10), float32], (Tensor[(10, 10), float32], (Tensor[(10, 10), float32],)), (Tensor[(10, 34, 1), float32], Tensor[(10, 38, 1), float32]), Tensor[(10, 34, 1), float32], Tensor[(10, 10), float32], Tensor[(10, 10), float32], Tensor[(1), int32], Tensor[(10, 10), float32], float32) /* ty=(Tensor[(10, 10), float32], (Tensor[(10, 10), float32], (Tensor[(10, 10), float32],)), (Tensor[(10, 34, 1), float32], Tensor[(10, 38, 1), float32]), Tensor[(10, 34, 1), float32], Tensor[(10, 10), float32], Tensor[(10, 10), float32], Tensor[(1), int32], Tensor[(10, 10), float32], float32) span=from_string:176:634 */ = %x_75;
  let %x_77: (Tensor[(10, 10), float32], (Tensor[(10, 10), float32], (Tensor[(10, 10), float32],)), (Tensor[(10, 34, 1), float32], Tensor[(10, 38, 1), float32]), Tensor[(10, 34, 1), float32], Tensor[(10, 10), float32], Tensor[(10, 10), float32], Tensor[(1), int32], Tensor[(10, 10), float32], float32) /* ty=(Tensor[(10, 10), float32], (Tensor[(10, 10), float32], (Tensor[(10, 10), float32],)), (Tensor[(10, 34, 1), float32], Tensor[(10, 38, 1), float32]), Tensor[(10, 34, 1), float32], Tensor[(10, 10), float32], Tensor[(10, 10), float32], Tensor[(1), int32], Tensor[(10, 10), float32], float32) span=from_string:177:634 */ = %x_76;
  let %x_78: (Tensor[(10, 10), float32], (Tensor[(10, 10), float32], (Tensor[(10, 10), float32],)), (Tensor[(10, 34, 1), float32], Tensor[(10, 38, 1), float32]), Tensor[(10, 34, 1), float32], Tensor[(10, 10), float32], Tensor[(10, 10), float32], Tensor[(1), int32], Tensor[(10, 10), float32], float32) /* ty=(Tensor[(10, 10), float32], (Tensor[(10, 10), float32], (Tensor[(10, 10), float32],)), (Tensor[(10, 34, 1), float32], Tensor[(10, 38, 1), float32]), Tensor[(10, 34, 1), float32], Tensor[(10, 10), float32], Tensor[(10, 10), float32], Tensor[(1), int32], Tensor[(10, 10), float32], float32) span=from_string:178:634 */ = %x_77;
  let %x_79: (Tensor[(10, 10), float32], (Tensor[(10, 10), float32], (Tensor[(10, 10), float32],)), (Tensor[(10, 34, 1), float32], Tensor[(10, 38, 1), float32]), Tensor[(10, 34, 1), float32], Tensor[(10, 10), float32], Tensor[(10, 10), float32], Tensor[(1), int32], Tensor[(10, 10), float32], float32) /* ty=(Tensor[(10, 10), float32], (Tensor[(10, 10), float32], (Tensor[(10, 10), float32],)), (Tensor[(10, 34, 1), float32], Tensor[(10, 38, 1), float32]), Tensor[(10, 34, 1), float32], Tensor[(10, 10), float32], Tensor[(10, 10), float32], Tensor[(1), int32], Tensor[(10, 10), float32], float32) span=from_string:179:634 */ = %x_78;
  let %x_80: (Tensor[(10, 10), float32], (Tensor[(10, 10), float32], (Tensor[(10, 10), float32],)), (Tensor[(10, 34, 1), float32], Tensor[(10, 38, 1), float32]), Tensor[(10, 34, 1), float32], Tensor[(10, 10), float32], Tensor[(10, 10), float32], Tensor[(1), int32], Tensor[(10, 10), float32], float32) /* ty=(Tensor[(10, 10), float32], (Tensor[(10, 10), float32], (Tensor[(10, 10), float32],)), (Tensor[(10, 34, 1), float32], Tensor[(10, 38, 1), float32]), Tensor[(10, 34, 1), float32], Tensor[(10, 10), float32], Tensor[(10, 10), float32], Tensor[(1), int32], Tensor[(10, 10), float32], float32) span=from_string:180:635 */ = %x_79;
  let %x_811: (Tensor[(10, 10), float32], (Tensor[(10, 10), float32], (Tensor[(10, 10), float32],)), (Tensor[(10, 34, 1), float32], Tensor[(10, 38, 1), float32]), Tensor[(10, 34, 1), float32], Tensor[(10, 10), float32], Tensor[(10, 10), float32], Tensor[(1), int32], Tensor[(10, 10), float32], float32) /* ty=(Tensor[(10, 10), float32], (Tensor[(10, 10), float32], (Tensor[(10, 10), float32],)), (Tensor[(10, 34, 1), float32], Tensor[(10, 38, 1), float32]), Tensor[(10, 34, 1), float32], Tensor[(10, 10), float32], Tensor[(10, 10), float32], Tensor[(1), int32], Tensor[(10, 10), float32], float32) span=from_string:181:635 */ = %x_80;
  let %x_821: (Tensor[(10, 10), float32], (Tensor[(10, 10), float32], (Tensor[(10, 10), float32],)), (Tensor[(10, 34, 1), float32], Tensor[(10, 38, 1), float32]), Tensor[(10, 34, 1), float32], Tensor[(10, 10), float32], Tensor[(10, 10), float32], Tensor[(1), int32], Tensor[(10, 10), float32], float32) /* ty=(Tensor[(10, 10), float32], (Tensor[(10, 10), float32], (Tensor[(10, 10), float32],)), (Tensor[(10, 34, 1), float32], Tensor[(10, 38, 1), float32]), Tensor[(10, 34, 1), float32], Tensor[(10, 10), float32], Tensor[(10, 10), float32], Tensor[(1), int32], Tensor[(10, 10), float32], float32) span=from_string:182:634 */ = %x_811;
  let %x_83: (Tensor[(10, 10), float32], (Tensor[(10, 10), float32], (Tensor[(10, 10), float32],)), (Tensor[(10, 34, 1), float32], Tensor[(10, 38, 1), float32]), Tensor[(10, 34, 1), float32], Tensor[(10, 10), float32], Tensor[(10, 10), float32], Tensor[(1), int32], Tensor[(10, 10), float32], float32) /* ty=(Tensor[(10, 10), float32], (Tensor[(10, 10), float32], (Tensor[(10, 10), float32],)), (Tensor[(10, 34, 1), float32], Tensor[(10, 38, 1), float32]), Tensor[(10, 34, 1), float32], Tensor[(10, 10), float32], Tensor[(10, 10), float32], Tensor[(1), int32], Tensor[(10, 10), float32], float32) span=from_string:183:634 */ = %x_821;
  let %x_84: (Tensor[(10, 10), float32], (Tensor[(10, 10), float32], (Tensor[(10, 10), float32],)), (Tensor[(10, 34, 1), float32], Tensor[(10, 38, 1), float32]), Tensor[(10, 34, 1), float32], Tensor[(10, 10), float32], Tensor[(10, 10), float32], Tensor[(1), int32], Tensor[(10, 10), float32], float32) /* ty=(Tensor[(10, 10), float32], (Tensor[(10, 10), float32], (Tensor[(10, 10), float32],)), (Tensor[(10, 34, 1), float32], Tensor[(10, 38, 1), float32]), Tensor[(10, 34, 1), float32], Tensor[(10, 10), float32], Tensor[(10, 10), float32], Tensor[(1), int32], Tensor[(10, 10), float32], float32) span=from_string:184:634 */ = %x_83;
  let %x_85: (Tensor[(10, 10), float32], (Tensor[(10, 10), float32], (Tensor[(10, 10), float32],)), (Tensor[(10, 34, 1), float32], Tensor[(10, 38, 1), float32]), Tensor[(10, 34, 1), float32], Tensor[(10, 10), float32], Tensor[(10, 10), float32], Tensor[(1), int32], Tensor[(10, 10), float32], float32) /* ty=(Tensor[(10, 10), float32], (Tensor[(10, 10), float32], (Tensor[(10, 10), float32],)), (Tensor[(10, 34, 1), float32], Tensor[(10, 38, 1), float32]), Tensor[(10, 34, 1), float32], Tensor[(10, 10), float32], Tensor[(10, 10), float32], Tensor[(1), int32], Tensor[(10, 10), float32], float32) span=from_string:185:634 */ = %x_84;
  let %x_86: (Tensor[(10, 10), float32], (Tensor[(10, 10), float32], (Tensor[(10, 10), float32],)), (Tensor[(10, 34, 1), float32], Tensor[(10, 38, 1), float32]), Tensor[(10, 34, 1), float32], Tensor[(10, 10), float32], Tensor[(10, 10), float32], Tensor[(1), int32], Tensor[(10, 10), float32], float32) /* ty=(Tensor[(10, 10), float32], (Tensor[(10, 10), float32], (Tensor[(10, 10), float32],)), (Tensor[(10, 34, 1), float32], Tensor[(10, 38, 1), float32]), Tensor[(10, 34, 1), float32], Tensor[(10, 10), float32], Tensor[(10, 10), float32], Tensor[(1), int32], Tensor[(10, 10), float32], float32) span=from_string:186:634 */ = %x_85;
  let %x_87: (Tensor[(10, 10), float32], (Tensor[(10, 10), float32], (Tensor[(10, 10), float32],)), (Tensor[(10, 34, 1), float32], Tensor[(10, 38, 1), float32]), Tensor[(10, 34, 1), float32], Tensor[(10, 10), float32], Tensor[(10, 10), float32], Tensor[(1), int32], Tensor[(10, 10), float32], float32) /* ty=(Tensor[(10, 10), float32], (Tensor[(10, 10), float32], (Tensor[(10, 10), float32],)), (Tensor[(10, 34, 1), float32], Tensor[(10, 38, 1), float32]), Tensor[(10, 34, 1), float32], Tensor[(10, 10), float32], Tensor[(10, 10), float32], Tensor[(1), int32], Tensor[(10, 10), float32], float32) span=from_string:187:634 */ = %x_86;
  let %x_88: (Tensor[(10, 10), float32], (Tensor[(10, 10), float32], (Tensor[(10, 10), float32],)), (Tensor[(10, 34, 1), float32], Tensor[(10, 38, 1), float32]), Tensor[(10, 34, 1), float32], Tensor[(10, 10), float32], Tensor[(10, 10), float32], Tensor[(1), int32], Tensor[(10, 10), float32], float32) /* ty=(Tensor[(10, 10), float32], (Tensor[(10, 10), float32], (Tensor[(10, 10), float32],)), (Tensor[(10, 34, 1), float32], Tensor[(10, 38, 1), float32]), Tensor[(10, 34, 1), float32], Tensor[(10, 10), float32], Tensor[(10, 10), float32], Tensor[(1), int32], Tensor[(10, 10), float32], float32) span=from_string:188:634 */ = %x_87;
  let %x_89: (Tensor[(10, 10), float32], (Tensor[(10, 10), float32], (Tensor[(10, 10), float32],)), (Tensor[(10, 34, 1), float32], Tensor[(10, 38, 1), float32]), Tensor[(10, 34, 1), float32], Tensor[(10, 10), float32], Tensor[(10, 10), float32], Tensor[(1), int32], Tensor[(10, 10), float32], float32) /* ty=(Tensor[(10, 10), float32], (Tensor[(10, 10), float32], (Tensor[(10, 10), float32],)), (Tensor[(10, 34, 1), float32], Tensor[(10, 38, 1), float32]), Tensor[(10, 34, 1), float32], Tensor[(10, 10), float32], Tensor[(10, 10), float32], Tensor[(1), int32], Tensor[(10, 10), float32], float32) span=from_string:189:634 */ = %x_88;
  let %x_90: (Tensor[(10, 10), float32], (Tensor[(10, 10), float32], (Tensor[(10, 10), float32],)), (Tensor[(10, 34, 1), float32], Tensor[(10, 38, 1), float32]), Tensor[(10, 34, 1), float32], Tensor[(10, 10), float32], Tensor[(10, 10), float32], Tensor[(1), int32], Tensor[(10, 10), float32], float32) /* ty=(Tensor[(10, 10), float32], (Tensor[(10, 10), float32], (Tensor[(10, 10), float32],)), (Tensor[(10, 34, 1), float32], Tensor[(10, 38, 1), float32]), Tensor[(10, 34, 1), float32], Tensor[(10, 10), float32], Tensor[(10, 10), float32], Tensor[(1), int32], Tensor[(10, 10), float32], float32) span=from_string:190:635 */ = %x_89;
  let %x_911: (Tensor[(10, 10), float32], (Tensor[(10, 10), float32], (Tensor[(10, 10), float32],)), (Tensor[(10, 34, 1), float32], Tensor[(10, 38, 1), float32]), Tensor[(10, 34, 1), float32], Tensor[(10, 10), float32], Tensor[(10, 10), float32], Tensor[(1), int32], Tensor[(10, 10), float32], float32) /* ty=(Tensor[(10, 10), float32], (Tensor[(10, 10), float32], (Tensor[(10, 10), float32],)), (Tensor[(10, 34, 1), float32], Tensor[(10, 38, 1), float32]), Tensor[(10, 34, 1), float32], Tensor[(10, 10), float32], Tensor[(10, 10), float32], Tensor[(1), int32], Tensor[(10, 10), float32], float32) span=from_string:191:635 */ = %x_90;
  let %x_921: (Tensor[(10, 10), float32], (Tensor[(10, 10), float32], (Tensor[(10, 10), float32],)), (Tensor[(10, 34, 1), float32], Tensor[(10, 38, 1), float32]), Tensor[(10, 34, 1), float32], Tensor[(10, 10), float32], Tensor[(10, 10), float32], Tensor[(1), int32], Tensor[(10, 10), float32], float32) /* ty=(Tensor[(10, 10), float32], (Tensor[(10, 10), float32], (Tensor[(10, 10), float32],)), (Tensor[(10, 34, 1), float32], Tensor[(10, 38, 1), float32]), Tensor[(10, 34, 1), float32], Tensor[(10, 10), float32], Tensor[(10, 10), float32], Tensor[(1), int32], Tensor[(10, 10), float32], float32) span=from_string:192:634 */ = %x_911;
  let %x_93: (Tensor[(10, 10), float32], (Tensor[(10, 10), float32], (Tensor[(10, 10), float32],)), (Tensor[(10, 34, 1), float32], Tensor[(10, 38, 1), float32]), Tensor[(10, 34, 1), float32], Tensor[(10, 10), float32], Tensor[(10, 10), float32], Tensor[(1), int32], Tensor[(10, 10), float32], float32) /* ty=(Tensor[(10, 10), float32], (Tensor[(10, 10), float32], (Tensor[(10, 10), float32],)), (Tensor[(10, 34, 1), float32], Tensor[(10, 38, 1), float32]), Tensor[(10, 34, 1), float32], Tensor[(10, 10), float32], Tensor[(10, 10), float32], Tensor[(1), int32], Tensor[(10, 10), float32], float32) span=from_string:193:634 */ = %x_921;
  let %x_94: (Tensor[(10, 10), float32], (Tensor[(10, 10), float32], (Tensor[(10, 10), float32],)), (Tensor[(10, 34, 1), float32], Tensor[(10, 38, 1), float32]), Tensor[(10, 34, 1), float32], Tensor[(10, 10), float32], Tensor[(10, 10), float32], Tensor[(1), int32], Tensor[(10, 10), float32], float32) /* ty=(Tensor[(10, 10), float32], (Tensor[(10, 10), float32], (Tensor[(10, 10), float32],)), (Tensor[(10, 34, 1), float32], Tensor[(10, 38, 1), float32]), Tensor[(10, 34, 1), float32], Tensor[(10, 10), float32], Tensor[(10, 10), float32], Tensor[(1), int32], Tensor[(10, 10), float32], float32) span=from_string:194:634 */ = %x_93;
  let %x_95: (Tensor[(10, 10), float32], (Tensor[(10, 10), float32], (Tensor[(10, 10), float32],)), (Tensor[(10, 34, 1), float32], Tensor[(10, 38, 1), float32]), Tensor[(10, 34, 1), float32], Tensor[(10, 10), float32], Tensor[(10, 10), float32], Tensor[(1), int32], Tensor[(10, 10), float32], float32) /* ty=(Tensor[(10, 10), float32], (Tensor[(10, 10), float32], (Tensor[(10, 10), float32],)), (Tensor[(10, 34, 1), float32], Tensor[(10, 38, 1), float32]), Tensor[(10, 34, 1), float32], Tensor[(10, 10), float32], Tensor[(10, 10), float32], Tensor[(1), int32], Tensor[(10, 10), float32], float32) span=from_string:195:634 */ = %x_94;
  let %x_03: (Tensor[(10, 10), float32], (Tensor[(10, 10), float32], (Tensor[(10, 10), float32],)), (Tensor[(10, 34, 1), float32], Tensor[(10, 38, 1), float32]), Tensor[(10, 34, 1), float32], Tensor[(10, 10), float32], Tensor[(10, 10), float32], Tensor[(1), int32], Tensor[(10, 10), float32], float32) /* ty=(Tensor[(10, 10), float32], (Tensor[(10, 10), float32], (Tensor[(10, 10), float32],)), (Tensor[(10, 34, 1), float32], Tensor[(10, 38, 1), float32]), Tensor[(10, 34, 1), float32], Tensor[(10, 10), float32], Tensor[(10, 10), float32], Tensor[(1), int32], Tensor[(10, 10), float32], float32) span=from_string:196:635 */ = %x_95;
  let %x_114: (Tensor[(10, 10), float32], (Tensor[(10, 10), float32], (Tensor[(10, 10), float32],)), (Tensor[(10, 34, 1), float32], Tensor[(10, 38, 1), float32]), Tensor[(10, 34, 1), float32], Tensor[(10, 10), float32], Tensor[(10, 10), float32], Tensor[(1), int32], Tensor[(10, 10), float32], float32) /* ty=(Tensor[(10, 10), float32], (Tensor[(10, 10), float32], (Tensor[(10, 10), float32],)), (Tensor[(10, 34, 1), float32], Tensor[(10, 38, 1), float32]), Tensor[(10, 34, 1), float32], Tensor[(10, 10), float32], Tensor[(10, 10), float32], Tensor[(1), int32], Tensor[(10, 10), float32], float32) span=from_string:197:635 */ = %x_03;
  let %x_214: (Tensor[(10, 10), float32], (Tensor[(10, 10), float32], (Tensor[(10, 10), float32],)), (Tensor[(10, 34, 1), float32], Tensor[(10, 38, 1), float32]), Tensor[(10, 34, 1), float32], Tensor[(10, 10), float32], Tensor[(10, 10), float32], Tensor[(1), int32], Tensor[(10, 10), float32], float32) /* ty=(Tensor[(10, 10), float32], (Tensor[(10, 10), float32], (Tensor[(10, 10), float32],)), (Tensor[(10, 34, 1), float32], Tensor[(10, 38, 1), float32]), Tensor[(10, 34, 1), float32], Tensor[(10, 10), float32], Tensor[(10, 10), float32], Tensor[(1), int32], Tensor[(10, 10), float32], float32) span=from_string:198:635 */ = %x_114;
  let %x_314: (Tensor[(10, 10), float32], (Tensor[(10, 10), float32], (Tensor[(10, 10), float32],)), (Tensor[(10, 34, 1), float32], Tensor[(10, 38, 1), float32]), Tensor[(10, 34, 1), float32], Tensor[(10, 10), float32], Tensor[(10, 10), float32], Tensor[(1), int32], Tensor[(10, 10), float32], float32) /* ty=(Tensor[(10, 10), float32], (Tensor[(10, 10), float32], (Tensor[(10, 10), float32],)), (Tensor[(10, 34, 1), float32], Tensor[(10, 38, 1), float32]), Tensor[(10, 34, 1), float32], Tensor[(10, 10), float32], Tensor[(10, 10), float32], Tensor[(1), int32], Tensor[(10, 10), float32], float32) span=from_string:199:635 */ = %x_214;
  let %x_410: (Tensor[(10, 10), float32], (Tensor[(10, 10), float32], (Tensor[(10, 10), float32],)), (Tensor[(10, 34, 1), float32], Tensor[(10, 38, 1), float32]), Tensor[(10, 34, 1), float32], Tensor[(10, 10), float32], Tensor[(10, 10), float32], Tensor[(1), int32], Tensor[(10, 10), float32], float32) /* ty=(Tensor[(10, 10), float32], (Tensor[(10, 10), float32], (Tensor[(10, 10), float32],)), (Tensor[(10, 34, 1), float32], Tensor[(10, 38, 1), float32]), Tensor[(10, 34, 1), float32], Tensor[(10, 10), float32], Tensor[(10, 10), float32], Tensor[(1), int32], Tensor[(10, 10), float32], float32) span=from_string:200:635 */ = %x_314;
  let %x_510: (Tensor[(10, 10), float32], (Tensor[(10, 10), float32], (Tensor[(10, 10), float32],)), (Tensor[(10, 34, 1), float32], Tensor[(10, 38, 1), float32]), Tensor[(10, 34, 1), float32], Tensor[(10, 10), float32], Tensor[(10, 10), float32], Tensor[(1), int32], Tensor[(10, 10), float32], float32) /* ty=(Tensor[(10, 10), float32], (Tensor[(10, 10), float32], (Tensor[(10, 10), float32],)), (Tensor[(10, 34, 1), float32], Tensor[(10, 38, 1), float32]), Tensor[(10, 34, 1), float32], Tensor[(10, 10), float32], Tensor[(10, 10), float32], Tensor[(1), int32], Tensor[(10, 10), float32], float32) span=from_string:201:635 */ = %x_410;
  let %x_610: (Tensor[(10, 10), float32], (Tensor[(10, 10), float32], (Tensor[(10, 10), float32],)), (Tensor[(10, 34, 1), float32], Tensor[(10, 38, 1), float32]), Tensor[(10, 34, 1), float32], Tensor[(10, 10), float32], Tensor[(10, 10), float32], Tensor[(1), int32], Tensor[(10, 10), float32], float32) /* ty=(Tensor[(10, 10), float32], (Tensor[(10, 10), float32], (Tensor[(10, 10), float32],)), (Tensor[(10, 34, 1), float32], Tensor[(10, 38, 1), float32]), Tensor[(10, 34, 1), float32], Tensor[(10, 10), float32], Tensor[(10, 10), float32], Tensor[(1), int32], Tensor[(10, 10), float32], float32) span=from_string:202:635 */ = %x_510;
  let %x_710: (Tensor[(10, 10), float32], (Tensor[(10, 10), float32], (Tensor[(10, 10), float32],)), (Tensor[(10, 34, 1), float32], Tensor[(10, 38, 1), float32]), Tensor[(10, 34, 1), float32], Tensor[(10, 10), float32], Tensor[(10, 10), float32], Tensor[(1), int32], Tensor[(10, 10), float32], float32) /* ty=(Tensor[(10, 10), float32], (Tensor[(10, 10), float32], (Tensor[(10, 10), float32],)), (Tensor[(10, 34, 1), float32], Tensor[(10, 38, 1), float32]), Tensor[(10, 34, 1), float32], Tensor[(10, 10), float32], Tensor[(10, 10), float32], Tensor[(1), int32], Tensor[(10, 10), float32], float32) span=from_string:203:635 */ = %x_610;
  let %x_810: (Tensor[(10, 10), float32], (Tensor[(10, 10), float32], (Tensor[(10, 10), float32],)), (Tensor[(10, 34, 1), float32], Tensor[(10, 38, 1), float32]), Tensor[(10, 34, 1), float32], Tensor[(10, 10), float32], Tensor[(10, 10), float32], Tensor[(1), int32], Tensor[(10, 10), float32], float32) /* ty=(Tensor[(10, 10), float32], (Tensor[(10, 10), float32], (Tensor[(10, 10), float32],)), (Tensor[(10, 34, 1), float32], Tensor[(10, 38, 1), float32]), Tensor[(10, 34, 1), float32], Tensor[(10, 10), float32], Tensor[(10, 10), float32], Tensor[(1), int32], Tensor[(10, 10), float32], float32) span=from_string:204:634 */ = %x_710;
  let %x_96: (Tensor[(10, 10), float32], (Tensor[(10, 10), float32], (Tensor[(10, 10), float32],)), (Tensor[(10, 34, 1), float32], Tensor[(10, 38, 1), float32]), Tensor[(10, 34, 1), float32], Tensor[(10, 10), float32], Tensor[(10, 10), float32], Tensor[(1), int32], Tensor[(10, 10), float32], float32) /* ty=(Tensor[(10, 10), float32], (Tensor[(10, 10), float32], (Tensor[(10, 10), float32],)), (Tensor[(10, 34, 1), float32], Tensor[(10, 38, 1), float32]), Tensor[(10, 34, 1), float32], Tensor[(10, 10), float32], Tensor[(10, 10), float32], Tensor[(1), int32], Tensor[(10, 10), float32], float32) span=from_string:205:635 */ = %x_810;
  let %x_103: (Tensor[(10, 10), float32], (Tensor[(10, 10), float32], (Tensor[(10, 10), float32],)), (Tensor[(10, 34, 1), float32], Tensor[(10, 38, 1), float32]), Tensor[(10, 34, 1), float32], Tensor[(10, 10), float32], Tensor[(10, 10), float32], Tensor[(1), int32], Tensor[(10, 10), float32], float32) /* ty=(Tensor[(10, 10), float32], (Tensor[(10, 10), float32], (Tensor[(10, 10), float32],)), (Tensor[(10, 34, 1), float32], Tensor[(10, 38, 1), float32]), Tensor[(10, 34, 1), float32], Tensor[(10, 10), float32], Tensor[(10, 10), float32], Tensor[(1), int32], Tensor[(10, 10), float32], float32) span=from_string:206:635 */ = %x_96;
  let %x_115: (Tensor[(10, 10), float32], (Tensor[(10, 10), float32], (Tensor[(10, 10), float32],)), (Tensor[(10, 34, 1), float32], Tensor[(10, 38, 1), float32]), Tensor[(10, 34, 1), float32], Tensor[(10, 10), float32], Tensor[(10, 10), float32], Tensor[(1), int32], Tensor[(10, 10), float32], float32) /* ty=(Tensor[(10, 10), float32], (Tensor[(10, 10), float32], (Tensor[(10, 10), float32],)), (Tensor[(10, 34, 1), float32], Tensor[(10, 38, 1), float32]), Tensor[(10, 34, 1), float32], Tensor[(10, 10), float32], Tensor[(10, 10), float32], Tensor[(1), int32], Tensor[(10, 10), float32], float32) span=from_string:207:635 */ = %x_103;
  let %x_123: (Tensor[(10, 10), float32], (Tensor[(10, 10), float32], (Tensor[(10, 10), float32],)), (Tensor[(10, 34, 1), float32], Tensor[(10, 38, 1), float32]), Tensor[(10, 34, 1), float32], Tensor[(10, 10), float32], Tensor[(10, 10), float32], Tensor[(1), int32], Tensor[(10, 10), float32], float32) /* ty=(Tensor[(10, 10), float32], (Tensor[(10, 10), float32], (Tensor[(10, 10), float32],)), (Tensor[(10, 34, 1), float32], Tensor[(10, 38, 1), float32]), Tensor[(10, 34, 1), float32], Tensor[(10, 10), float32], Tensor[(10, 10), float32], Tensor[(1), int32], Tensor[(10, 10), float32], float32) span=from_string:208:635 */ = %x_115;
  let %x_133: (Tensor[(10, 10), float32], (Tensor[(10, 10), float32], (Tensor[(10, 10), float32],)), (Tensor[(10, 34, 1), float32], Tensor[(10, 38, 1), float32]), Tensor[(10, 34, 1), float32], Tensor[(10, 10), float32], Tensor[(10, 10), float32], Tensor[(1), int32], Tensor[(10, 10), float32], float32) /* ty=(Tensor[(10, 10), float32], (Tensor[(10, 10), float32], (Tensor[(10, 10), float32],)), (Tensor[(10, 34, 1), float32], Tensor[(10, 38, 1), float32]), Tensor[(10, 34, 1), float32], Tensor[(10, 10), float32], Tensor[(10, 10), float32], Tensor[(1), int32], Tensor[(10, 10), float32], float32) span=from_string:209:635 */ = %x_123;
  let %x_143: (Tensor[(10, 10), float32], (Tensor[(10, 10), float32], (Tensor[(10, 10), float32],)), (Tensor[(10, 34, 1), float32], Tensor[(10, 38, 1), float32]), Tensor[(10, 34, 1), float32], Tensor[(10, 10), float32], Tensor[(10, 10), float32], Tensor[(1), int32], Tensor[(10, 10), float32], float32) /* ty=(Tensor[(10, 10), float32], (Tensor[(10, 10), float32], (Tensor[(10, 10), float32],)), (Tensor[(10, 34, 1), float32], Tensor[(10, 38, 1), float32]), Tensor[(10, 34, 1), float32], Tensor[(10, 10), float32], Tensor[(10, 10), float32], Tensor[(1), int32], Tensor[(10, 10), float32], float32) span=from_string:210:635 */ = %x_133;
  let %x_153: (Tensor[(10, 10), float32], (Tensor[(10, 10), float32], (Tensor[(10, 10), float32],)), (Tensor[(10, 34, 1), float32], Tensor[(10, 38, 1), float32]), Tensor[(10, 34, 1), float32], Tensor[(10, 10), float32], Tensor[(10, 10), float32], Tensor[(1), int32], Tensor[(10, 10), float32], float32) /* ty=(Tensor[(10, 10), float32], (Tensor[(10, 10), float32], (Tensor[(10, 10), float32],)), (Tensor[(10, 34, 1), float32], Tensor[(10, 38, 1), float32]), Tensor[(10, 34, 1), float32], Tensor[(10, 10), float32], Tensor[(10, 10), float32], Tensor[(1), int32], Tensor[(10, 10), float32], float32) span=from_string:211:635 */ = %x_143;
  let %x_163: (Tensor[(10, 10), float32], (Tensor[(10, 10), float32], (Tensor[(10, 10), float32],)), (Tensor[(10, 34, 1), float32], Tensor[(10, 38, 1), float32]), Tensor[(10, 34, 1), float32], Tensor[(10, 10), float32], Tensor[(10, 10), float32], Tensor[(1), int32], Tensor[(10, 10), float32], float32) /* ty=(Tensor[(10, 10), float32], (Tensor[(10, 10), float32], (Tensor[(10, 10), float32],)), (Tensor[(10, 34, 1), float32], Tensor[(10, 38, 1), float32]), Tensor[(10, 34, 1), float32], Tensor[(10, 10), float32], Tensor[(10, 10), float32], Tensor[(1), int32], Tensor[(10, 10), float32], float32) span=from_string:212:635 */ = %x_153;
  let %x_173: (Tensor[(10, 10), float32], (Tensor[(10, 10), float32], (Tensor[(10, 10), float32],)), (Tensor[(10, 34, 1), float32], Tensor[(10, 38, 1), float32]), Tensor[(10, 34, 1), float32], Tensor[(10, 10), float32], Tensor[(10, 10), float32], Tensor[(1), int32], Tensor[(10, 10), float32], float32) /* ty=(Tensor[(10, 10), float32], (Tensor[(10, 10), float32], (Tensor[(10, 10), float32],)), (Tensor[(10, 34, 1), float32], Tensor[(10, 38, 1), float32]), Tensor[(10, 34, 1), float32], Tensor[(10, 10), float32], Tensor[(10, 10), float32], Tensor[(1), int32], Tensor[(10, 10), float32], float32) span=from_string:213:635 */ = %x_163;
  let %x_183: (Tensor[(10, 10), float32], (Tensor[(10, 10), float32], (Tensor[(10, 10), float32],)), (Tensor[(10, 34, 1), float32], Tensor[(10, 38, 1), float32]), Tensor[(10, 34, 1), float32], Tensor[(10, 10), float32], Tensor[(10, 10), float32], Tensor[(1), int32], Tensor[(10, 10), float32], float32) /* ty=(Tensor[(10, 10), float32], (Tensor[(10, 10), float32], (Tensor[(10, 10), float32],)), (Tensor[(10, 34, 1), float32], Tensor[(10, 38, 1), float32]), Tensor[(10, 34, 1), float32], Tensor[(10, 10), float32], Tensor[(10, 10), float32], Tensor[(1), int32], Tensor[(10, 10), float32], float32) span=from_string:214:635 */ = %x_173;
  let %x_193: (Tensor[(10, 10), float32], (Tensor[(10, 10), float32], (Tensor[(10, 10), float32],)), (Tensor[(10, 34, 1), float32], Tensor[(10, 38, 1), float32]), Tensor[(10, 34, 1), float32], Tensor[(10, 10), float32], Tensor[(10, 10), float32], Tensor[(1), int32], Tensor[(10, 10), float32], float32) /* ty=(Tensor[(10, 10), float32], (Tensor[(10, 10), float32], (Tensor[(10, 10), float32],)), (Tensor[(10, 34, 1), float32], Tensor[(10, 38, 1), float32]), Tensor[(10, 34, 1), float32], Tensor[(10, 10), float32], Tensor[(10, 10), float32], Tensor[(1), int32], Tensor[(10, 10), float32], float32) span=from_string:215:635 */ = %x_183;
  let %x_203: (Tensor[(10, 10), float32], (Tensor[(10, 10), float32], (Tensor[(10, 10), float32],)), (Tensor[(10, 34, 1), float32], Tensor[(10, 38, 1), float32]), Tensor[(10, 34, 1), float32], Tensor[(10, 10), float32], Tensor[(10, 10), float32], Tensor[(1), int32], Tensor[(10, 10), float32], float32) /* ty=(Tensor[(10, 10), float32], (Tensor[(10, 10), float32], (Tensor[(10, 10), float32],)), (Tensor[(10, 34, 1), float32], Tensor[(10, 38, 1), float32]), Tensor[(10, 34, 1), float32], Tensor[(10, 10), float32], Tensor[(10, 10), float32], Tensor[(1), int32], Tensor[(10, 10), float32], float32) span=from_string:216:635 */ = %x_193;
  let %x_215: (Tensor[(10, 10), float32], (Tensor[(10, 10), float32], (Tensor[(10, 10), float32],)), (Tensor[(10, 34, 1), float32], Tensor[(10, 38, 1), float32]), Tensor[(10, 34, 1), float32], Tensor[(10, 10), float32], Tensor[(10, 10), float32], Tensor[(1), int32], Tensor[(10, 10), float32], float32) /* ty=(Tensor[(10, 10), float32], (Tensor[(10, 10), float32], (Tensor[(10, 10), float32],)), (Tensor[(10, 34, 1), float32], Tensor[(10, 38, 1), float32]), Tensor[(10, 34, 1), float32], Tensor[(10, 10), float32], Tensor[(10, 10), float32], Tensor[(1), int32], Tensor[(10, 10), float32], float32) span=from_string:217:635 */ = %x_203;
  let %x_223: (Tensor[(10, 10), float32], (Tensor[(10, 10), float32], (Tensor[(10, 10), float32],)), (Tensor[(10, 34, 1), float32], Tensor[(10, 38, 1), float32]), Tensor[(10, 34, 1), float32], Tensor[(10, 10), float32], Tensor[(10, 10), float32], Tensor[(1), int32], Tensor[(10, 10), float32], float32) /* ty=(Tensor[(10, 10), float32], (Tensor[(10, 10), float32], (Tensor[(10, 10), float32],)), (Tensor[(10, 34, 1), float32], Tensor[(10, 38, 1), float32]), Tensor[(10, 34, 1), float32], Tensor[(10, 10), float32], Tensor[(10, 10), float32], Tensor[(1), int32], Tensor[(10, 10), float32], float32) span=from_string:218:635 */ = %x_215;
  let %x_233: (Tensor[(10, 10), float32], (Tensor[(10, 10), float32], (Tensor[(10, 10), float32],)), (Tensor[(10, 34, 1), float32], Tensor[(10, 38, 1), float32]), Tensor[(10, 34, 1), float32], Tensor[(10, 10), float32], Tensor[(10, 10), float32], Tensor[(1), int32], Tensor[(10, 10), float32], float32) /* ty=(Tensor[(10, 10), float32], (Tensor[(10, 10), float32], (Tensor[(10, 10), float32],)), (Tensor[(10, 34, 1), float32], Tensor[(10, 38, 1), float32]), Tensor[(10, 34, 1), float32], Tensor[(10, 10), float32], Tensor[(10, 10), float32], Tensor[(1), int32], Tensor[(10, 10), float32], float32) span=from_string:219:635 */ = %x_223;
  let %x_243: (Tensor[(10, 10), float32], (Tensor[(10, 10), float32], (Tensor[(10, 10), float32],)), (Tensor[(10, 34, 1), float32], Tensor[(10, 38, 1), float32]), Tensor[(10, 34, 1), float32], Tensor[(10, 10), float32], Tensor[(10, 10), float32], Tensor[(1), int32], Tensor[(10, 10), float32], float32) /* ty=(Tensor[(10, 10), float32], (Tensor[(10, 10), float32], (Tensor[(10, 10), float32],)), (Tensor[(10, 34, 1), float32], Tensor[(10, 38, 1), float32]), Tensor[(10, 34, 1), float32], Tensor[(10, 10), float32], Tensor[(10, 10), float32], Tensor[(1), int32], Tensor[(10, 10), float32], float32) span=from_string:220:635 */ = %x_233;
  let %x_253: (Tensor[(10, 10), float32], (Tensor[(10, 10), float32], (Tensor[(10, 10), float32],)), (Tensor[(10, 34, 1), float32], Tensor[(10, 38, 1), float32]), Tensor[(10, 34, 1), float32], Tensor[(10, 10), float32], Tensor[(10, 10), float32], Tensor[(1), int32], Tensor[(10, 10), float32], float32) /* ty=(Tensor[(10, 10), float32], (Tensor[(10, 10), float32], (Tensor[(10, 10), float32],)), (Tensor[(10, 34, 1), float32], Tensor[(10, 38, 1), float32]), Tensor[(10, 34, 1), float32], Tensor[(10, 10), float32], Tensor[(10, 10), float32], Tensor[(1), int32], Tensor[(10, 10), float32], float32) span=from_string:221:635 */ = %x_243;
  let %x_263: (Tensor[(10, 10), float32], (Tensor[(10, 10), float32], (Tensor[(10, 10), float32],)), (Tensor[(10, 34, 1), float32], Tensor[(10, 38, 1), float32]), Tensor[(10, 34, 1), float32], Tensor[(10, 10), float32], Tensor[(10, 10), float32], Tensor[(1), int32], Tensor[(10, 10), float32], float32) /* ty=(Tensor[(10, 10), float32], (Tensor[(10, 10), float32], (Tensor[(10, 10), float32],)), (Tensor[(10, 34, 1), float32], Tensor[(10, 38, 1), float32]), Tensor[(10, 34, 1), float32], Tensor[(10, 10), float32], Tensor[(10, 10), float32], Tensor[(1), int32], Tensor[(10, 10), float32], float32) span=from_string:222:635 */ = %x_253;
  let %x_273: (Tensor[(10, 10), float32], (Tensor[(10, 10), float32], (Tensor[(10, 10), float32],)), (Tensor[(10, 34, 1), float32], Tensor[(10, 38, 1), float32]), Tensor[(10, 34, 1), float32], Tensor[(10, 10), float32], Tensor[(10, 10), float32], Tensor[(1), int32], Tensor[(10, 10), float32], float32) /* ty=(Tensor[(10, 10), float32], (Tensor[(10, 10), float32], (Tensor[(10, 10), float32],)), (Tensor[(10, 34, 1), float32], Tensor[(10, 38, 1), float32]), Tensor[(10, 34, 1), float32], Tensor[(10, 10), float32], Tensor[(10, 10), float32], Tensor[(1), int32], Tensor[(10, 10), float32], float32) span=from_string:223:635 */ = %x_263;
  let %x_283: (Tensor[(10, 10), float32], (Tensor[(10, 10), float32], (Tensor[(10, 10), float32],)), (Tensor[(10, 34, 1), float32], Tensor[(10, 38, 1), float32]), Tensor[(10, 34, 1), float32], Tensor[(10, 10), float32], Tensor[(10, 10), float32], Tensor[(1), int32], Tensor[(10, 10), float32], float32) /* ty=(Tensor[(10, 10), float32], (Tensor[(10, 10), float32], (Tensor[(10, 10), float32],)), (Tensor[(10, 34, 1), float32], Tensor[(10, 38, 1), float32]), Tensor[(10, 34, 1), float32], Tensor[(10, 10), float32], Tensor[(10, 10), float32], Tensor[(1), int32], Tensor[(10, 10), float32], float32) span=from_string:224:635 */ = %x_273;
  let %x_293: (Tensor[(10, 10), float32], (Tensor[(10, 10), float32], (Tensor[(10, 10), float32],)), (Tensor[(10, 34, 1), float32], Tensor[(10, 38, 1), float32]), Tensor[(10, 34, 1), float32], Tensor[(10, 10), float32], Tensor[(10, 10), float32], Tensor[(1), int32], Tensor[(10, 10), float32], float32) /* ty=(Tensor[(10, 10), float32], (Tensor[(10, 10), float32], (Tensor[(10, 10), float32],)), (Tensor[(10, 34, 1), float32], Tensor[(10, 38, 1), float32]), Tensor[(10, 34, 1), float32], Tensor[(10, 10), float32], Tensor[(10, 10), float32], Tensor[(1), int32], Tensor[(10, 10), float32], float32) span=from_string:225:635 */ = %x_283;
  let %x_303: (Tensor[(10, 10), float32], (Tensor[(10, 10), float32], (Tensor[(10, 10), float32],)), (Tensor[(10, 34, 1), float32], Tensor[(10, 38, 1), float32]), Tensor[(10, 34, 1), float32], Tensor[(10, 10), float32], Tensor[(10, 10), float32], Tensor[(1), int32], Tensor[(10, 10), float32], float32) /* ty=(Tensor[(10, 10), float32], (Tensor[(10, 10), float32], (Tensor[(10, 10), float32],)), (Tensor[(10, 34, 1), float32], Tensor[(10, 38, 1), float32]), Tensor[(10, 34, 1), float32], Tensor[(10, 10), float32], Tensor[(10, 10), float32], Tensor[(1), int32], Tensor[(10, 10), float32], float32) span=from_string:226:635 */ = %x_293;
  let %x_315: (Tensor[(10, 10), float32], (Tensor[(10, 10), float32], (Tensor[(10, 10), float32],)), (Tensor[(10, 34, 1), float32], Tensor[(10, 38, 1), float32]), Tensor[(10, 34, 1), float32], Tensor[(10, 10), float32], Tensor[(10, 10), float32], Tensor[(1), int32], Tensor[(10, 10), float32], float32) /* ty=(Tensor[(10, 10), float32], (Tensor[(10, 10), float32], (Tensor[(10, 10), float32],)), (Tensor[(10, 34, 1), float32], Tensor[(10, 38, 1), float32]), Tensor[(10, 34, 1), float32], Tensor[(10, 10), float32], Tensor[(10, 10), float32], Tensor[(1), int32], Tensor[(10, 10), float32], float32) span=from_string:227:635 */ = %x_303;
  let %x_323: (Tensor[(10, 10), float32], (Tensor[(10, 10), float32], (Tensor[(10, 10), float32],)), (Tensor[(10, 34, 1), float32], Tensor[(10, 38, 1), float32]), Tensor[(10, 34, 1), float32], Tensor[(10, 10), float32], Tensor[(10, 10), float32], Tensor[(1), int32], Tensor[(10, 10), float32], float32) /* ty=(Tensor[(10, 10), float32], (Tensor[(10, 10), float32], (Tensor[(10, 10), float32],)), (Tensor[(10, 34, 1), float32], Tensor[(10, 38, 1), float32]), Tensor[(10, 34, 1), float32], Tensor[(10, 10), float32], Tensor[(10, 10), float32], Tensor[(1), int32], Tensor[(10, 10), float32], float32) span=from_string:228:635 */ = %x_315;
  let %x_333: (Tensor[(10, 10), float32], (Tensor[(10, 10), float32], (Tensor[(10, 10), float32],)), (Tensor[(10, 34, 1), float32], Tensor[(10, 38, 1), float32]), Tensor[(10, 34, 1), float32], Tensor[(10, 10), float32], Tensor[(10, 10), float32], Tensor[(1), int32], Tensor[(10, 10), float32], float32) /* ty=(Tensor[(10, 10), float32], (Tensor[(10, 10), float32], (Tensor[(10, 10), float32],)), (Tensor[(10, 34, 1), float32], Tensor[(10, 38, 1), float32]), Tensor[(10, 34, 1), float32], Tensor[(10, 10), float32], Tensor[(10, 10), float32], Tensor[(1), int32], Tensor[(10, 10), float32], float32) span=from_string:229:635 */ = %x_323;
  let %x_343: (Tensor[(10, 10), float32], (Tensor[(10, 10), float32], (Tensor[(10, 10), float32],)), (Tensor[(10, 34, 1), float32], Tensor[(10, 38, 1), float32]), Tensor[(10, 34, 1), float32], Tensor[(10, 10), float32], Tensor[(10, 10), float32], Tensor[(1), int32], Tensor[(10, 10), float32], float32) /* ty=(Tensor[(10, 10), float32], (Tensor[(10, 10), float32], (Tensor[(10, 10), float32],)), (Tensor[(10, 34, 1), float32], Tensor[(10, 38, 1), float32]), Tensor[(10, 34, 1), float32], Tensor[(10, 10), float32], Tensor[(10, 10), float32], Tensor[(1), int32], Tensor[(10, 10), float32], float32) span=from_string:230:635 */ = %x_333;
  let %x_353: (Tensor[(10, 10), float32], (Tensor[(10, 10), float32], (Tensor[(10, 10), float32],)), (Tensor[(10, 34, 1), float32], Tensor[(10, 38, 1), float32]), Tensor[(10, 34, 1), float32], Tensor[(10, 10), float32], Tensor[(10, 10), float32], Tensor[(1), int32], Tensor[(10, 10), float32], float32) /* ty=(Tensor[(10, 10), float32], (Tensor[(10, 10), float32], (Tensor[(10, 10), float32],)), (Tensor[(10, 34, 1), float32], Tensor[(10, 38, 1), float32]), Tensor[(10, 34, 1), float32], Tensor[(10, 10), float32], Tensor[(10, 10), float32], Tensor[(1), int32], Tensor[(10, 10), float32], float32) span=from_string:231:635 */ = %x_343;
  let %x_363: (Tensor[(10, 10), float32], (Tensor[(10, 10), float32], (Tensor[(10, 10), float32],)), (Tensor[(10, 34, 1), float32], Tensor[(10, 38, 1), float32]), Tensor[(10, 34, 1), float32], Tensor[(10, 10), float32], Tensor[(10, 10), float32], Tensor[(1), int32], Tensor[(10, 10), float32], float32) /* ty=(Tensor[(10, 10), float32], (Tensor[(10, 10), float32], (Tensor[(10, 10), float32],)), (Tensor[(10, 34, 1), float32], Tensor[(10, 38, 1), float32]), Tensor[(10, 34, 1), float32], Tensor[(10, 10), float32], Tensor[(10, 10), float32], Tensor[(1), int32], Tensor[(10, 10), float32], float32) span=from_string:232:635 */ = %x_353;
  let %x_373: (Tensor[(10, 10), float32], (Tensor[(10, 10), float32], (Tensor[(10, 10), float32],)), (Tensor[(10, 34, 1), float32], Tensor[(10, 38, 1), float32]), Tensor[(10, 34, 1), float32], Tensor[(10, 10), float32], Tensor[(10, 10), float32], Tensor[(1), int32], Tensor[(10, 10), float32], float32) /* ty=(Tensor[(10, 10), float32], (Tensor[(10, 10), float32], (Tensor[(10, 10), float32],)), (Tensor[(10, 34, 1), float32], Tensor[(10, 38, 1), float32]), Tensor[(10, 34, 1), float32], Tensor[(10, 10), float32], Tensor[(10, 10), float32], Tensor[(1), int32], Tensor[(10, 10), float32], float32) span=from_string:233:635 */ = %x_363;
  let %x_383: (Tensor[(10, 10), float32], (Tensor[(10, 10), float32], (Tensor[(10, 10), float32],)), (Tensor[(10, 34, 1), float32], Tensor[(10, 38, 1), float32]), Tensor[(10, 34, 1), float32], Tensor[(10, 10), float32], Tensor[(10, 10), float32], Tensor[(1), int32], Tensor[(10, 10), float32], float32) /* ty=(Tensor[(10, 10), float32], (Tensor[(10, 10), float32], (Tensor[(10, 10), float32],)), (Tensor[(10, 34, 1), float32], Tensor[(10, 38, 1), float32]), Tensor[(10, 34, 1), float32], Tensor[(10, 10), float32], Tensor[(10, 10), float32], Tensor[(1), int32], Tensor[(10, 10), float32], float32) span=from_string:234:635 */ = %x_373;
  let %x_393: (Tensor[(10, 10), float32], (Tensor[(10, 10), float32], (Tensor[(10, 10), float32],)), (Tensor[(10, 34, 1), float32], Tensor[(10, 38, 1), float32]), Tensor[(10, 34, 1), float32], Tensor[(10, 10), float32], Tensor[(10, 10), float32], Tensor[(1), int32], Tensor[(10, 10), float32], float32) /* ty=(Tensor[(10, 10), float32], (Tensor[(10, 10), float32], (Tensor[(10, 10), float32],)), (Tensor[(10, 34, 1), float32], Tensor[(10, 38, 1), float32]), Tensor[(10, 34, 1), float32], Tensor[(10, 10), float32], Tensor[(10, 10), float32], Tensor[(1), int32], Tensor[(10, 10), float32], float32) span=from_string:235:635 */ = %x_383;
  let %x_403: (Tensor[(10, 10), float32], (Tensor[(10, 10), float32], (Tensor[(10, 10), float32],)), (Tensor[(10, 34, 1), float32], Tensor[(10, 38, 1), float32]), Tensor[(10, 34, 1), float32], Tensor[(10, 10), float32], Tensor[(10, 10), float32], Tensor[(1), int32], Tensor[(10, 10), float32], float32) /* ty=(Tensor[(10, 10), float32], (Tensor[(10, 10), float32], (Tensor[(10, 10), float32],)), (Tensor[(10, 34, 1), float32], Tensor[(10, 38, 1), float32]), Tensor[(10, 34, 1), float32], Tensor[(10, 10), float32], Tensor[(10, 10), float32], Tensor[(1), int32], Tensor[(10, 10), float32], float32) span=from_string:236:635 */ = %x_393;
  let %x_413: (Tensor[(10, 10), float32], (Tensor[(10, 10), float32], (Tensor[(10, 10), float32],)), (Tensor[(10, 34, 1), float32], Tensor[(10, 38, 1), float32]), Tensor[(10, 34, 1), float32], Tensor[(10, 10), float32], Tensor[(10, 10), float32], Tensor[(1), int32], Tensor[(10, 10), float32], float32) /* ty=(Tensor[(10, 10), float32], (Tensor[(10, 10), float32], (Tensor[(10, 10), float32],)), (Tensor[(10, 34, 1), float32], Tensor[(10, 38, 1), float32]), Tensor[(10, 34, 1), float32], Tensor[(10, 10), float32], Tensor[(10, 10), float32], Tensor[(1), int32], Tensor[(10, 10), float32], float32) span=from_string:237:635 */ = %x_403;
  let %x_423: (Tensor[(10, 10), float32], (Tensor[(10, 10), float32], (Tensor[(10, 10), float32],)), (Tensor[(10, 34, 1), float32], Tensor[(10, 38, 1), float32]), Tensor[(10, 34, 1), float32], Tensor[(10, 10), float32], Tensor[(10, 10), float32], Tensor[(1), int32], Tensor[(10, 10), float32], float32) /* ty=(Tensor[(10, 10), float32], (Tensor[(10, 10), float32], (Tensor[(10, 10), float32],)), (Tensor[(10, 34, 1), float32], Tensor[(10, 38, 1), float32]), Tensor[(10, 34, 1), float32], Tensor[(10, 10), float32], Tensor[(10, 10), float32], Tensor[(1), int32], Tensor[(10, 10), float32], float32) span=from_string:238:635 */ = %x_413;
  let %x_433: (Tensor[(10, 10), float32], (Tensor[(10, 10), float32], (Tensor[(10, 10), float32],)), (Tensor[(10, 34, 1), float32], Tensor[(10, 38, 1), float32]), Tensor[(10, 34, 1), float32], Tensor[(10, 10), float32], Tensor[(10, 10), float32], Tensor[(1), int32], Tensor[(10, 10), float32], float32) /* ty=(Tensor[(10, 10), float32], (Tensor[(10, 10), float32], (Tensor[(10, 10), float32],)), (Tensor[(10, 34, 1), float32], Tensor[(10, 38, 1), float32]), Tensor[(10, 34, 1), float32], Tensor[(10, 10), float32], Tensor[(10, 10), float32], Tensor[(1), int32], Tensor[(10, 10), float32], float32) span=from_string:239:635 */ = %x_423;
  let %x_443: (Tensor[(10, 10), float32], (Tensor[(10, 10), float32], (Tensor[(10, 10), float32],)), (Tensor[(10, 34, 1), float32], Tensor[(10, 38, 1), float32]), Tensor[(10, 34, 1), float32], Tensor[(10, 10), float32], Tensor[(10, 10), float32], Tensor[(1), int32], Tensor[(10, 10), float32], float32) /* ty=(Tensor[(10, 10), float32], (Tensor[(10, 10), float32], (Tensor[(10, 10), float32],)), (Tensor[(10, 34, 1), float32], Tensor[(10, 38, 1), float32]), Tensor[(10, 34, 1), float32], Tensor[(10, 10), float32], Tensor[(10, 10), float32], Tensor[(1), int32], Tensor[(10, 10), float32], float32) span=from_string:240:635 */ = %x_433;
  let %x_453: (Tensor[(10, 10), float32], (Tensor[(10, 10), float32], (Tensor[(10, 10), float32],)), (Tensor[(10, 34, 1), float32], Tensor[(10, 38, 1), float32]), Tensor[(10, 34, 1), float32], Tensor[(10, 10), float32], Tensor[(10, 10), float32], Tensor[(1), int32], Tensor[(10, 10), float32], float32) /* ty=(Tensor[(10, 10), float32], (Tensor[(10, 10), float32], (Tensor[(10, 10), float32],)), (Tensor[(10, 34, 1), float32], Tensor[(10, 38, 1), float32]), Tensor[(10, 34, 1), float32], Tensor[(10, 10), float32], Tensor[(10, 10), float32], Tensor[(1), int32], Tensor[(10, 10), float32], float32) span=from_string:241:635 */ = %x_443;
  let %x_462: (Tensor[(10, 10), float32], (Tensor[(10, 10), float32], (Tensor[(10, 10), float32],)), (Tensor[(10, 34, 1), float32], Tensor[(10, 38, 1), float32]), Tensor[(10, 34, 1), float32], Tensor[(10, 10), float32], Tensor[(10, 10), float32], Tensor[(1), int32], Tensor[(10, 10), float32], float32) /* ty=(Tensor[(10, 10), float32], (Tensor[(10, 10), float32], (Tensor[(10, 10), float32],)), (Tensor[(10, 34, 1), float32], Tensor[(10, 38, 1), float32]), Tensor[(10, 34, 1), float32], Tensor[(10, 10), float32], Tensor[(10, 10), float32], Tensor[(1), int32], Tensor[(10, 10), float32], float32) span=from_string:242:635 */ = %x_453;
  let %x_472: (Tensor[(10, 10), float32], (Tensor[(10, 10), float32], (Tensor[(10, 10), float32],)), (Tensor[(10, 34, 1), float32], Tensor[(10, 38, 1), float32]), Tensor[(10, 34, 1), float32], Tensor[(10, 10), float32], Tensor[(10, 10), float32], Tensor[(1), int32], Tensor[(10, 10), float32], float32) /* ty=(Tensor[(10, 10), float32], (Tensor[(10, 10), float32], (Tensor[(10, 10), float32],)), (Tensor[(10, 34, 1), float32], Tensor[(10, 38, 1), float32]), Tensor[(10, 34, 1), float32], Tensor[(10, 10), float32], Tensor[(10, 10), float32], Tensor[(1), int32], Tensor[(10, 10), float32], float32) span=from_string:243:635 */ = %x_462;
  let %x_482: (Tensor[(10, 10), float32], (Tensor[(10, 10), float32], (Tensor[(10, 10), float32],)), (Tensor[(10, 34, 1), float32], Tensor[(10, 38, 1), float32]), Tensor[(10, 34, 1), float32], Tensor[(10, 10), float32], Tensor[(10, 10), float32], Tensor[(1), int32], Tensor[(10, 10), float32], float32) /* ty=(Tensor[(10, 10), float32], (Tensor[(10, 10), float32], (Tensor[(10, 10), float32],)), (Tensor[(10, 34, 1), float32], Tensor[(10, 38, 1), float32]), Tensor[(10, 34, 1), float32], Tensor[(10, 10), float32], Tensor[(10, 10), float32], Tensor[(1), int32], Tensor[(10, 10), float32], float32) span=from_string:244:635 */ = %x_472;
  let %x_491: (Tensor[(10, 10), float32], (Tensor[(10, 10), float32], (Tensor[(10, 10), float32],)), (Tensor[(10, 34, 1), float32], Tensor[(10, 38, 1), float32]), Tensor[(10, 34, 1), float32], Tensor[(10, 10), float32], Tensor[(10, 10), float32], Tensor[(1), int32], Tensor[(10, 10), float32], float32) /* ty=(Tensor[(10, 10), float32], (Tensor[(10, 10), float32], (Tensor[(10, 10), float32],)), (Tensor[(10, 34, 1), float32], Tensor[(10, 38, 1), float32]), Tensor[(10, 34, 1), float32], Tensor[(10, 10), float32], Tensor[(10, 10), float32], Tensor[(1), int32], Tensor[(10, 10), float32], float32) span=from_string:245:635 */ = %x_482;
  let %x_501: (Tensor[(10, 10), float32], (Tensor[(10, 10), float32], (Tensor[(10, 10), float32],)), (Tensor[(10, 34, 1), float32], Tensor[(10, 38, 1), float32]), Tensor[(10, 34, 1), float32], Tensor[(10, 10), float32], Tensor[(10, 10), float32], Tensor[(1), int32], Tensor[(10, 10), float32], float32) /* ty=(Tensor[(10, 10), float32], (Tensor[(10, 10), float32], (Tensor[(10, 10), float32],)), (Tensor[(10, 34, 1), float32], Tensor[(10, 38, 1), float32]), Tensor[(10, 34, 1), float32], Tensor[(10, 10), float32], Tensor[(10, 10), float32], Tensor[(1), int32], Tensor[(10, 10), float32], float32) span=from_string:246:635 */ = %x_491;
  let %x_512: (Tensor[(10, 10), float32], (Tensor[(10, 10), float32], (Tensor[(10, 10), float32],)), (Tensor[(10, 34, 1), float32], Tensor[(10, 38, 1), float32]), Tensor[(10, 34, 1), float32], Tensor[(10, 10), float32], Tensor[(10, 10), float32], Tensor[(1), int32], Tensor[(10, 10), float32], float32) /* ty=(Tensor[(10, 10), float32], (Tensor[(10, 10), float32], (Tensor[(10, 10), float32],)), (Tensor[(10, 34, 1), float32], Tensor[(10, 38, 1), float32]), Tensor[(10, 34, 1), float32], Tensor[(10, 10), float32], Tensor[(10, 10), float32], Tensor[(1), int32], Tensor[(10, 10), float32], float32) span=from_string:247:635 */ = %x_501;
  let %x_522: (Tensor[(10, 10), float32], (Tensor[(10, 10), float32], (Tensor[(10, 10), float32],)), (Tensor[(10, 34, 1), float32], Tensor[(10, 38, 1), float32]), Tensor[(10, 34, 1), float32], Tensor[(10, 10), float32], Tensor[(10, 10), float32], Tensor[(1), int32], Tensor[(10, 10), float32], float32) /* ty=(Tensor[(10, 10), float32], (Tensor[(10, 10), float32], (Tensor[(10, 10), float32],)), (Tensor[(10, 34, 1), float32], Tensor[(10, 38, 1), float32]), Tensor[(10, 34, 1), float32], Tensor[(10, 10), float32], Tensor[(10, 10), float32], Tensor[(1), int32], Tensor[(10, 10), float32], float32) span=from_string:248:635 */ = %x_512;
  let %x_531: (Tensor[(10, 10), float32], (Tensor[(10, 10), float32], (Tensor[(10, 10), float32],)), (Tensor[(10, 34, 1), float32], Tensor[(10, 38, 1), float32]), Tensor[(10, 34, 1), float32], Tensor[(10, 10), float32], Tensor[(10, 10), float32], Tensor[(1), int32], Tensor[(10, 10), float32], float32) /* ty=(Tensor[(10, 10), float32], (Tensor[(10, 10), float32], (Tensor[(10, 10), float32],)), (Tensor[(10, 34, 1), float32], Tensor[(10, 38, 1), float32]), Tensor[(10, 34, 1), float32], Tensor[(10, 10), float32], Tensor[(10, 10), float32], Tensor[(1), int32], Tensor[(10, 10), float32], float32) span=from_string:249:635 */ = %x_522;
  let %x_541: (Tensor[(10, 10), float32], (Tensor[(10, 10), float32], (Tensor[(10, 10), float32],)), (Tensor[(10, 34, 1), float32], Tensor[(10, 38, 1), float32]), Tensor[(10, 34, 1), float32], Tensor[(10, 10), float32], Tensor[(10, 10), float32], Tensor[(1), int32], Tensor[(10, 10), float32], float32) /* ty=(Tensor[(10, 10), float32], (Tensor[(10, 10), float32], (Tensor[(10, 10), float32],)), (Tensor[(10, 34, 1), float32], Tensor[(10, 38, 1), float32]), Tensor[(10, 34, 1), float32], Tensor[(10, 10), float32], Tensor[(10, 10), float32], Tensor[(1), int32], Tensor[(10, 10), float32], float32) span=from_string:250:635 */ = %x_531;
  let %x_551: (Tensor[(10, 10), float32], (Tensor[(10, 10), float32], (Tensor[(10, 10), float32],)), (Tensor[(10, 34, 1), float32], Tensor[(10, 38, 1), float32]), Tensor[(10, 34, 1), float32], Tensor[(10, 10), float32], Tensor[(10, 10), float32], Tensor[(1), int32], Tensor[(10, 10), float32], float32) /* ty=(Tensor[(10, 10), float32], (Tensor[(10, 10), float32], (Tensor[(10, 10), float32],)), (Tensor[(10, 34, 1), float32], Tensor[(10, 38, 1), float32]), Tensor[(10, 34, 1), float32], Tensor[(10, 10), float32], Tensor[(10, 10), float32], Tensor[(1), int32], Tensor[(10, 10), float32], float32) span=from_string:251:635 */ = %x_541;
  let %x_561: (Tensor[(10, 10), float32], (Tensor[(10, 10), float32], (Tensor[(10, 10), float32],)), (Tensor[(10, 34, 1), float32], Tensor[(10, 38, 1), float32]), Tensor[(10, 34, 1), float32], Tensor[(10, 10), float32], Tensor[(10, 10), float32], Tensor[(1), int32], Tensor[(10, 10), float32], float32) /* ty=(Tensor[(10, 10), float32], (Tensor[(10, 10), float32], (Tensor[(10, 10), float32],)), (Tensor[(10, 34, 1), float32], Tensor[(10, 38, 1), float32]), Tensor[(10, 34, 1), float32], Tensor[(10, 10), float32], Tensor[(10, 10), float32], Tensor[(1), int32], Tensor[(10, 10), float32], float32) span=from_string:252:635 */ = %x_551;
  let %x_571: (Tensor[(10, 10), float32], (Tensor[(10, 10), float32], (Tensor[(10, 10), float32],)), (Tensor[(10, 34, 1), float32], Tensor[(10, 38, 1), float32]), Tensor[(10, 34, 1), float32], Tensor[(10, 10), float32], Tensor[(10, 10), float32], Tensor[(1), int32], Tensor[(10, 10), float32], float32) /* ty=(Tensor[(10, 10), float32], (Tensor[(10, 10), float32], (Tensor[(10, 10), float32],)), (Tensor[(10, 34, 1), float32], Tensor[(10, 38, 1), float32]), Tensor[(10, 34, 1), float32], Tensor[(10, 10), float32], Tensor[(10, 10), float32], Tensor[(1), int32], Tensor[(10, 10), float32], float32) span=from_string:253:635 */ = %x_561;
  let %x_581: (Tensor[(10, 10), float32], (Tensor[(10, 10), float32], (Tensor[(10, 10), float32],)), (Tensor[(10, 34, 1), float32], Tensor[(10, 38, 1), float32]), Tensor[(10, 34, 1), float32], Tensor[(10, 10), float32], Tensor[(10, 10), float32], Tensor[(1), int32], Tensor[(10, 10), float32], float32) /* ty=(Tensor[(10, 10), float32], (Tensor[(10, 10), float32], (Tensor[(10, 10), float32],)), (Tensor[(10, 34, 1), float32], Tensor[(10, 38, 1), float32]), Tensor[(10, 34, 1), float32], Tensor[(10, 10), float32], Tensor[(10, 10), float32], Tensor[(1), int32], Tensor[(10, 10), float32], float32) span=from_string:254:635 */ = %x_571;
  let %x_591: (Tensor[(10, 10), float32], (Tensor[(10, 10), float32], (Tensor[(10, 10), float32],)), (Tensor[(10, 34, 1), float32], Tensor[(10, 38, 1), float32]), Tensor[(10, 34, 1), float32], Tensor[(10, 10), float32], Tensor[(10, 10), float32], Tensor[(1), int32], Tensor[(10, 10), float32], float32) /* ty=(Tensor[(10, 10), float32], (Tensor[(10, 10), float32], (Tensor[(10, 10), float32],)), (Tensor[(10, 34, 1), float32], Tensor[(10, 38, 1), float32]), Tensor[(10, 34, 1), float32], Tensor[(10, 10), float32], Tensor[(10, 10), float32], Tensor[(1), int32], Tensor[(10, 10), float32], float32) span=from_string:255:635 */ = %x_581;
  let %x_601: (Tensor[(10, 10), float32], (Tensor[(10, 10), float32], (Tensor[(10, 10), float32],)), (Tensor[(10, 34, 1), float32], Tensor[(10, 38, 1), float32]), Tensor[(10, 34, 1), float32], Tensor[(10, 10), float32], Tensor[(10, 10), float32], Tensor[(1), int32], Tensor[(10, 10), float32], float32) /* ty=(Tensor[(10, 10), float32], (Tensor[(10, 10), float32], (Tensor[(10, 10), float32],)), (Tensor[(10, 34, 1), float32], Tensor[(10, 38, 1), float32]), Tensor[(10, 34, 1), float32], Tensor[(10, 10), float32], Tensor[(10, 10), float32], Tensor[(1), int32], Tensor[(10, 10), float32], float32) span=from_string:256:635 */ = %x_591;
  let %x_612: (Tensor[(10, 10), float32], (Tensor[(10, 10), float32], (Tensor[(10, 10), float32],)), (Tensor[(10, 34, 1), float32], Tensor[(10, 38, 1), float32]), Tensor[(10, 34, 1), float32], Tensor[(10, 10), float32], Tensor[(10, 10), float32], Tensor[(1), int32], Tensor[(10, 10), float32], float32) /* ty=(Tensor[(10, 10), float32], (Tensor[(10, 10), float32], (Tensor[(10, 10), float32],)), (Tensor[(10, 34, 1), float32], Tensor[(10, 38, 1), float32]), Tensor[(10, 34, 1), float32], Tensor[(10, 10), float32], Tensor[(10, 10), float32], Tensor[(1), int32], Tensor[(10, 10), float32], float32) span=from_string:257:635 */ = %x_601;
  let %x_622: (Tensor[(10, 10), float32], (Tensor[(10, 10), float32], (Tensor[(10, 10), float32],)), (Tensor[(10, 34, 1), float32], Tensor[(10, 38, 1), float32]), Tensor[(10, 34, 1), float32], Tensor[(10, 10), float32], Tensor[(10, 10), float32], Tensor[(1), int32], Tensor[(10, 10), float32], float32) /* ty=(Tensor[(10, 10), float32], (Tensor[(10, 10), float32], (Tensor[(10, 10), float32],)), (Tensor[(10, 34, 1), float32], Tensor[(10, 38, 1), float32]), Tensor[(10, 34, 1), float32], Tensor[(10, 10), float32], Tensor[(10, 10), float32], Tensor[(1), int32], Tensor[(10, 10), float32], float32) span=from_string:258:635 */ = %x_612;
  let %x_631: (Tensor[(10, 10), float32], (Tensor[(10, 10), float32], (Tensor[(10, 10), float32],)), (Tensor[(10, 34, 1), float32], Tensor[(10, 38, 1), float32]), Tensor[(10, 34, 1), float32], Tensor[(10, 10), float32], Tensor[(10, 10), float32], Tensor[(1), int32], Tensor[(10, 10), float32], float32) /* ty=(Tensor[(10, 10), float32], (Tensor[(10, 10), float32], (Tensor[(10, 10), float32],)), (Tensor[(10, 34, 1), float32], Tensor[(10, 38, 1), float32]), Tensor[(10, 34, 1), float32], Tensor[(10, 10), float32], Tensor[(10, 10), float32], Tensor[(1), int32], Tensor[(10, 10), float32], float32) span=from_string:259:635 */ = %x_622;
  let %x_641: (Tensor[(10, 10), float32], (Tensor[(10, 10), float32], (Tensor[(10, 10), float32],)), (Tensor[(10, 34, 1), float32], Tensor[(10, 38, 1), float32]), Tensor[(10, 34, 1), float32], Tensor[(10, 10), float32], Tensor[(10, 10), float32], Tensor[(1), int32], Tensor[(10, 10), float32], float32) /* ty=(Tensor[(10, 10), float32], (Tensor[(10, 10), float32], (Tensor[(10, 10), float32],)), (Tensor[(10, 34, 1), float32], Tensor[(10, 38, 1), float32]), Tensor[(10, 34, 1), float32], Tensor[(10, 10), float32], Tensor[(10, 10), float32], Tensor[(1), int32], Tensor[(10, 10), float32], float32) span=from_string:260:635 */ = %x_631;
  let %x_651: (Tensor[(10, 10), float32], (Tensor[(10, 10), float32], (Tensor[(10, 10), float32],)), (Tensor[(10, 34, 1), float32], Tensor[(10, 38, 1), float32]), Tensor[(10, 34, 1), float32], Tensor[(10, 10), float32], Tensor[(10, 10), float32], Tensor[(1), int32], Tensor[(10, 10), float32], float32) /* ty=(Tensor[(10, 10), float32], (Tensor[(10, 10), float32], (Tensor[(10, 10), float32],)), (Tensor[(10, 34, 1), float32], Tensor[(10, 38, 1), float32]), Tensor[(10, 34, 1), float32], Tensor[(10, 10), float32], Tensor[(10, 10), float32], Tensor[(1), int32], Tensor[(10, 10), float32], float32) span=from_string:261:635 */ = %x_641;
  let %x_661: (Tensor[(10, 10), float32], (Tensor[(10, 10), float32], (Tensor[(10, 10), float32],)), (Tensor[(10, 34, 1), float32], Tensor[(10, 38, 1), float32]), Tensor[(10, 34, 1), float32], Tensor[(10, 10), float32], Tensor[(10, 10), float32], Tensor[(1), int32], Tensor[(10, 10), float32], float32) /* ty=(Tensor[(10, 10), float32], (Tensor[(10, 10), float32], (Tensor[(10, 10), float32],)), (Tensor[(10, 34, 1), float32], Tensor[(10, 38, 1), float32]), Tensor[(10, 34, 1), float32], Tensor[(10, 10), float32], Tensor[(10, 10), float32], Tensor[(1), int32], Tensor[(10, 10), float32], float32) span=from_string:262:635 */ = %x_651;
  let %x_671: (Tensor[(10, 10), float32], (Tensor[(10, 10), float32], (Tensor[(10, 10), float32],)), (Tensor[(10, 34, 1), float32], Tensor[(10, 38, 1), float32]), Tensor[(10, 34, 1), float32], Tensor[(10, 10), float32], Tensor[(10, 10), float32], Tensor[(1), int32], Tensor[(10, 10), float32], float32) /* ty=(Tensor[(10, 10), float32], (Tensor[(10, 10), float32], (Tensor[(10, 10), float32],)), (Tensor[(10, 34, 1), float32], Tensor[(10, 38, 1), float32]), Tensor[(10, 34, 1), float32], Tensor[(10, 10), float32], Tensor[(10, 10), float32], Tensor[(1), int32], Tensor[(10, 10), float32], float32) span=from_string:263:635 */ = %x_661;
  let %x_681: (Tensor[(10, 10), float32], (Tensor[(10, 10), float32], (Tensor[(10, 10), float32],)), (Tensor[(10, 34, 1), float32], Tensor[(10, 38, 1), float32]), Tensor[(10, 34, 1), float32], Tensor[(10, 10), float32], Tensor[(10, 10), float32], Tensor[(1), int32], Tensor[(10, 10), float32], float32) /* ty=(Tensor[(10, 10), float32], (Tensor[(10, 10), float32], (Tensor[(10, 10), float32],)), (Tensor[(10, 34, 1), float32], Tensor[(10, 38, 1), float32]), Tensor[(10, 34, 1), float32], Tensor[(10, 10), float32], Tensor[(10, 10), float32], Tensor[(1), int32], Tensor[(10, 10), float32], float32) span=from_string:264:635 */ = %x_671;
  let %x_691: (Tensor[(10, 10), float32], (Tensor[(10, 10), float32], (Tensor[(10, 10), float32],)), (Tensor[(10, 34, 1), float32], Tensor[(10, 38, 1), float32]), Tensor[(10, 34, 1), float32], Tensor[(10, 10), float32], Tensor[(10, 10), float32], Tensor[(1), int32], Tensor[(10, 10), float32], float32) /* ty=(Tensor[(10, 10), float32], (Tensor[(10, 10), float32], (Tensor[(10, 10), float32],)), (Tensor[(10, 34, 1), float32], Tensor[(10, 38, 1), float32]), Tensor[(10, 34, 1), float32], Tensor[(10, 10), float32], Tensor[(10, 10), float32], Tensor[(1), int32], Tensor[(10, 10), float32], float32) span=from_string:265:635 */ = %x_681;
  let %x_701: (Tensor[(10, 10), float32], (Tensor[(10, 10), float32], (Tensor[(10, 10), float32],)), (Tensor[(10, 34, 1), float32], Tensor[(10, 38, 1), float32]), Tensor[(10, 34, 1), float32], Tensor[(10, 10), float32], Tensor[(10, 10), float32], Tensor[(1), int32], Tensor[(10, 10), float32], float32) /* ty=(Tensor[(10, 10), float32], (Tensor[(10, 10), float32], (Tensor[(10, 10), float32],)), (Tensor[(10, 34, 1), float32], Tensor[(10, 38, 1), float32]), Tensor[(10, 34, 1), float32], Tensor[(10, 10), float32], Tensor[(10, 10), float32], Tensor[(1), int32], Tensor[(10, 10), float32], float32) span=from_string:266:635 */ = %x_691;
  let %x_712: (Tensor[(10, 10), float32], (Tensor[(10, 10), float32], (Tensor[(10, 10), float32],)), (Tensor[(10, 34, 1), float32], Tensor[(10, 38, 1), float32]), Tensor[(10, 34, 1), float32], Tensor[(10, 10), float32], Tensor[(10, 10), float32], Tensor[(1), int32], Tensor[(10, 10), float32], float32) /* ty=(Tensor[(10, 10), float32], (Tensor[(10, 10), float32], (Tensor[(10, 10), float32],)), (Tensor[(10, 34, 1), float32], Tensor[(10, 38, 1), float32]), Tensor[(10, 34, 1), float32], Tensor[(10, 10), float32], Tensor[(10, 10), float32], Tensor[(1), int32], Tensor[(10, 10), float32], float32) span=from_string:267:635 */ = %x_701;
  let %x_722: (Tensor[(10, 10), float32], (Tensor[(10, 10), float32], (Tensor[(10, 10), float32],)), (Tensor[(10, 34, 1), float32], Tensor[(10, 38, 1), float32]), Tensor[(10, 34, 1), float32], Tensor[(10, 10), float32], Tensor[(10, 10), float32], Tensor[(1), int32], Tensor[(10, 10), float32], float32) /* ty=(Tensor[(10, 10), float32], (Tensor[(10, 10), float32], (Tensor[(10, 10), float32],)), (Tensor[(10, 34, 1), float32], Tensor[(10, 38, 1), float32]), Tensor[(10, 34, 1), float32], Tensor[(10, 10), float32], Tensor[(10, 10), float32], Tensor[(1), int32], Tensor[(10, 10), float32], float32) span=from_string:268:635 */ = %x_712;
  let %x_731: (Tensor[(10, 10), float32], (Tensor[(10, 10), float32], (Tensor[(10, 10), float32],)), (Tensor[(10, 34, 1), float32], Tensor[(10, 38, 1), float32]), Tensor[(10, 34, 1), float32], Tensor[(10, 10), float32], Tensor[(10, 10), float32], Tensor[(1), int32], Tensor[(10, 10), float32], float32) /* ty=(Tensor[(10, 10), float32], (Tensor[(10, 10), float32], (Tensor[(10, 10), float32],)), (Tensor[(10, 34, 1), float32], Tensor[(10, …
, 1), float32], Tensor[(10, 10), float32], Tensor[(10, 10), float32], Tensor[(1), int32], Tensor[(10, 10), float32], float32) span=from_string:311:635 */ = %x_1141;
  let %x_116: (Tensor[(10, 10), float32], (Tensor[(10, 10), float32], (Tensor[(10, 10), float32],)), (Tensor[(10, 34, 1), float32], Tensor[(10, 38, 1), float32]), Tensor[(10, 34, 1), float32], Tensor[(10, 10), float32], Tensor[(10, 10), float32], Tensor[(1), int32], Tensor[(10, 10), float32], float32) /* ty=(Tensor[(10, 10), float32], (Tensor[(10, 10), float32], (Tensor[(10, 10), float32],)), (Tensor[(10, 34, 1), float32], Tensor[(10, 38, 1), float32]), Tensor[(10, 34, 1), float32], Tensor[(10, 10), float32], Tensor[(10, 10), float32], Tensor[(1), int32], Tensor[(10, 10), float32], float32) span=from_string:312:635 */ = %x_1151;
  let %x_117: (Tensor[(10, 10), float32], (Tensor[(10, 10), float32], (Tensor[(10, 10), float32],)), (Tensor[(10, 34, 1), float32], Tensor[(10, 38, 1), float32]), Tensor[(10, 34, 1), float32], Tensor[(10, 10), float32], Tensor[(10, 10), float32], Tensor[(1), int32], Tensor[(10, 10), float32], float32) /* ty=(Tensor[(10, 10), float32], (Tensor[(10, 10), float32], (Tensor[(10, 10), float32],)), (Tensor[(10, 34, 1), float32], Tensor[(10, 38, 1), float32]), Tensor[(10, 34, 1), float32], Tensor[(10, 10), float32], Tensor[(10, 10), float32], Tensor[(1), int32], Tensor[(10, 10), float32], float32) span=from_string:313:635 */ = %x_116;
  let %x_118: (Tensor[(10, 10), float32], (Tensor[(10, 10), float32], (Tensor[(10, 10), float32],)), (Tensor[(10, 34, 1), float32], Tensor[(10, 38, 1), float32]), Tensor[(10, 34, 1), float32], Tensor[(10, 10), float32], Tensor[(10, 10), float32], Tensor[(1), int32], Tensor[(10, 10), float32], float32) /* ty=(Tensor[(10, 10), float32], (Tensor[(10, 10), float32], (Tensor[(10, 10), float32],)), (Tensor[(10, 34, 1), float32], Tensor[(10, 38, 1), float32]), Tensor[(10, 34, 1), float32], Tensor[(10, 10), float32], Tensor[(10, 10), float32], Tensor[(1), int32], Tensor[(10, 10), float32], float32) span=from_string:314:635 */ = %x_117;
  let %x_119: (Tensor[(10, 10), float32], (Tensor[(10, 10), float32], (Tensor[(10, 10), float32],)), (Tensor[(10, 34, 1), float32], Tensor[(10, 38, 1), float32]), Tensor[(10, 34, 1), float32], Tensor[(10, 10), float32], Tensor[(10, 10), float32], Tensor[(1), int32], Tensor[(10, 10), float32], float32) /* ty=(Tensor[(10, 10), float32], (Tensor[(10, 10), float32], (Tensor[(10, 10), float32],)), (Tensor[(10, 34, 1), float32], Tensor[(10, 38, 1), float32]), Tensor[(10, 34, 1), float32], Tensor[(10, 10), float32], Tensor[(10, 10), float32], Tensor[(1), int32], Tensor[(10, 10), float32], float32) span=from_string:315:635 */ = %x_118;
  let %x_120: (Tensor[(10, 10), float32], (Tensor[(10, 10), float32], (Tensor[(10, 10), float32],)), (Tensor[(10, 34, 1), float32], Tensor[(10, 38, 1), float32]), Tensor[(10, 34, 1), float32], Tensor[(10, 10), float32], Tensor[(10, 10), float32], Tensor[(1), int32], Tensor[(10, 10), float32], float32) /* ty=(Tensor[(10, 10), float32], (Tensor[(10, 10), float32], (Tensor[(10, 10), float32],)), (Tensor[(10, 34, 1), float32], Tensor[(10, 38, 1), float32]), Tensor[(10, 34, 1), float32], Tensor[(10, 10), float32], Tensor[(10, 10), float32], Tensor[(1), int32], Tensor[(10, 10), float32], float32) span=from_string:316:636 */ = %x_119;
  let %x_1211: (Tensor[(10, 10), float32], (Tensor[(10, 10), float32], (Tensor[(10, 10), float32],)), (Tensor[(10, 34, 1), float32], Tensor[(10, 38, 1), float32]), Tensor[(10, 34, 1), float32], Tensor[(10, 10), float32], Tensor[(10, 10), float32], Tensor[(1), int32], Tensor[(10, 10), float32], float32) /* ty=(Tensor[(10, 10), float32], (Tensor[(10, 10), float32], (Tensor[(10, 10), float32],)), (Tensor[(10, 34, 1), float32], Tensor[(10, 38, 1), float32]), Tensor[(10, 34, 1), float32], Tensor[(10, 10), float32], Tensor[(10, 10), float32], Tensor[(1), int32], Tensor[(10, 10), float32], float32) span=from_string:317:636 */ = %x_120;
  let %x_1221: (Tensor[(10, 10), float32], (Tensor[(10, 10), float32], (Tensor[(10, 10), float32],)), (Tensor[(10, 34, 1), float32], Tensor[(10, 38, 1), float32]), Tensor[(10, 34, 1), float32], Tensor[(10, 10), float32], Tensor[(10, 10), float32], Tensor[(1), int32], Tensor[(10, 10), float32], float32) /* ty=(Tensor[(10, 10), float32], (Tensor[(10, 10), float32], (Tensor[(10, 10), float32],)), (Tensor[(10, 34, 1), float32], Tensor[(10, 38, 1), float32]), Tensor[(10, 34, 1), float32], Tensor[(10, 10), float32], Tensor[(10, 10), float32], Tensor[(1), int32], Tensor[(10, 10), float32], float32) span=from_string:318:636 */ = %x_1211;
  let %x_1231: (Tensor[(10, 10), float32], (Tensor[(10, 10), float32], (Tensor[(10, 10), float32],)), (Tensor[(10, 34, 1), float32], Tensor[(10, 38, 1), float32]), Tensor[(10, 34, 1), float32], Tensor[(10, 10), float32], Tensor[(10, 10), float32], Tensor[(1), int32], Tensor[(10, 10), float32], float32) /* ty=(Tensor[(10, 10), float32], (Tensor[(10, 10), float32], (Tensor[(10, 10), float32],)), (Tensor[(10, 34, 1), float32], Tensor[(10, 38, 1), float32]), Tensor[(10, 34, 1), float32], Tensor[(10, 10), float32], Tensor[(10, 10), float32], Tensor[(1), int32], Tensor[(10, 10), float32], float32) span=from_string:319:635 */ = %x_1221;
  let %x_124: (Tensor[(10, 10), float32], (Tensor[(10, 10), float32], (Tensor[(10, 10), float32],)), (Tensor[(10, 34, 1), float32], Tensor[(10, 38, 1), float32]), Tensor[(10, 34, 1), float32], Tensor[(10, 10), float32], Tensor[(10, 10), float32], Tensor[(1), int32], Tensor[(10, 10), float32], float32) /* ty=(Tensor[(10, 10), float32], (Tensor[(10, 10), float32], (Tensor[(10, 10), float32],)), (Tensor[(10, 34, 1), float32], Tensor[(10, 38, 1), float32]), Tensor[(10, 34, 1), float32], Tensor[(10, 10), float32], Tensor[(10, 10), float32], Tensor[(1), int32], Tensor[(10, 10), float32], float32) span=from_string:320:635 */ = %x_1231;
  let %x_125: (Tensor[(10, 10), float32], (Tensor[(10, 10), float32], (Tensor[(10, 10), float32],)), (Tensor[(10, 34, 1), float32], Tensor[(10, 38, 1), float32]), Tensor[(10, 34, 1), float32], Tensor[(10, 10), float32], Tensor[(10, 10), float32], Tensor[(1), int32], Tensor[(10, 10), float32], float32) /* ty=(Tensor[(10, 10), float32], (Tensor[(10, 10), float32], (Tensor[(10, 10), float32],)), (Tensor[(10, 34, 1), float32], Tensor[(10, 38, 1), float32]), Tensor[(10, 34, 1), float32], Tensor[(10, 10), float32], Tensor[(10, 10), float32], Tensor[(1), int32], Tensor[(10, 10), float32], float32) span=from_string:321:635 */ = %x_124;
  let %x_126: (Tensor[(10, 10), float32], (Tensor[(10, 10), float32], (Tensor[(10, 10), float32],)), (Tensor[(10, 34, 1), float32], Tensor[(10, 38, 1), float32]), Tensor[(10, 34, 1), float32], Tensor[(10, 10), float32], Tensor[(10, 10), float32], Tensor[(1), int32], Tensor[(10, 10), float32], float32) /* ty=(Tensor[(10, 10), float32], (Tensor[(10, 10), float32], (Tensor[(10, 10), float32],)), (Tensor[(10, 34, 1), float32], Tensor[(10, 38, 1), float32]), Tensor[(10, 34, 1), float32], Tensor[(10, 10), float32], Tensor[(10, 10), float32], Tensor[(1), int32], Tensor[(10, 10), float32], float32) span=from_string:322:635 */ = %x_125;
  let %x_127: (Tensor[(10, 10), float32], (Tensor[(10, 10), float32], (Tensor[(10, 10), float32],)), (Tensor[(10, 34, 1), float32], Tensor[(10, 38, 1), float32]), Tensor[(10, 34, 1), float32], Tensor[(10, 10), float32], Tensor[(10, 10), float32], Tensor[(1), int32], Tensor[(10, 10), float32], float32) /* ty=(Tensor[(10, 10), float32], (Tensor[(10, 10), float32], (Tensor[(10, 10), float32],)), (Tensor[(10, 34, 1), float32], Tensor[(10, 38, 1), float32]), Tensor[(10, 34, 1), float32], Tensor[(10, 10), float32], Tensor[(10, 10), float32], Tensor[(1), int32], Tensor[(10, 10), float32], float32) span=from_string:323:635 */ = %x_126;
  let %x_128: (Tensor[(10, 10), float32], (Tensor[(10, 10), float32], (Tensor[(10, 10), float32],)), (Tensor[(10, 34, 1), float32], Tensor[(10, 38, 1), float32]), Tensor[(10, 34, 1), float32], Tensor[(10, 10), float32], Tensor[(10, 10), float32], Tensor[(1), int32], Tensor[(10, 10), float32], float32) /* ty=(Tensor[(10, 10), float32], (Tensor[(10, 10), float32], (Tensor[(10, 10), float32],)), (Tensor[(10, 34, 1), float32], Tensor[(10, 38, 1), float32]), Tensor[(10, 34, 1), float32], Tensor[(10, 10), float32], Tensor[(10, 10), float32], Tensor[(1), int32], Tensor[(10, 10), float32], float32) span=from_string:324:635 */ = %x_127;
  let %x_129: (Tensor[(10, 10), float32], (Tensor[(10, 10), float32], (Tensor[(10, 10), float32],)), (Tensor[(10, 34, 1), float32], Tensor[(10, 38, 1), float32]), Tensor[(10, 34, 1), float32], Tensor[(10, 10), float32], Tensor[(10, 10), float32], Tensor[(1), int32], Tensor[(10, 10), float32], float32) /* ty=(Tensor[(10, 10), float32], (Tensor[(10, 10), float32], (Tensor[(10, 10), float32],)), (Tensor[(10, 34, 1), float32], Tensor[(10, 38, 1), float32]), Tensor[(10, 34, 1), float32], Tensor[(10, 10), float32], Tensor[(10, 10), float32], Tensor[(1), int32], Tensor[(10, 10), float32], float32) span=from_string:325:635 */ = %x_128;
  let %x_130: (Tensor[(10, 10), float32], (Tensor[(10, 10), float32], (Tensor[(10, 10), float32],)), (Tensor[(10, 34, 1), float32], Tensor[(10, 38, 1), float32]), Tensor[(10, 34, 1), float32], Tensor[(10, 10), float32], Tensor[(10, 10), float32], Tensor[(1), int32], Tensor[(10, 10), float32], float32) /* ty=(Tensor[(10, 10), float32], (Tensor[(10, 10), float32], (Tensor[(10, 10), float32],)), (Tensor[(10, 34, 1), float32], Tensor[(10, 38, 1), float32]), Tensor[(10, 34, 1), float32], Tensor[(10, 10), float32], Tensor[(10, 10), float32], Tensor[(1), int32], Tensor[(10, 10), float32], float32) span=from_string:326:636 */ = %x_129;
  let %x_1311: (Tensor[(10, 10), float32], (Tensor[(10, 10), float32], (Tensor[(10, 10), float32],)), (Tensor[(10, 34, 1), float32], Tensor[(10, 38, 1), float32]), Tensor[(10, 34, 1), float32], Tensor[(10, 10), float32], Tensor[(10, 10), float32], Tensor[(1), int32], Tensor[(10, 10), float32], float32) /* ty=(Tensor[(10, 10), float32], (Tensor[(10, 10), float32], (Tensor[(10, 10), float32],)), (Tensor[(10, 34, 1), float32], Tensor[(10, 38, 1), float32]), Tensor[(10, 34, 1), float32], Tensor[(10, 10), float32], Tensor[(10, 10), float32], Tensor[(1), int32], Tensor[(10, 10), float32], float32) span=from_string:327:636 */ = %x_130;
  let %x_1321: (Tensor[(10, 10), float32], (Tensor[(10, 10), float32], (Tensor[(10, 10), float32],)), (Tensor[(10, 34, 1), float32], Tensor[(10, 38, 1), float32]), Tensor[(10, 34, 1), float32], Tensor[(10, 10), float32], Tensor[(10, 10), float32], Tensor[(1), int32], Tensor[(10, 10), float32], float32) /* ty=(Tensor[(10, 10), float32], (Tensor[(10, 10), float32], (Tensor[(10, 10), float32],)), (Tensor[(10, 34, 1), float32], Tensor[(10, 38, 1), float32]), Tensor[(10, 34, 1), float32], Tensor[(10, 10), float32], Tensor[(10, 10), float32], Tensor[(1), int32], Tensor[(10, 10), float32], float32) span=from_string:328:636 */ = %x_1311;
  let %x_1331: (Tensor[(10, 10), float32], (Tensor[(10, 10), float32], (Tensor[(10, 10), float32],)), (Tensor[(10, 34, 1), float32], Tensor[(10, 38, 1), float32]), Tensor[(10, 34, 1), float32], Tensor[(10, 10), float32], Tensor[(10, 10), float32], Tensor[(1), int32], Tensor[(10, 10), float32], float32) /* ty=(Tensor[(10, 10), float32], (Tensor[(10, 10), float32], (Tensor[(10, 10), float32],)), (Tensor[(10, 34, 1), float32], Tensor[(10, 38, 1), float32]), Tensor[(10, 34, 1), float32], Tensor[(10, 10), float32], Tensor[(10, 10), float32], Tensor[(1), int32], Tensor[(10, 10), float32], float32) span=from_string:329:635 */ = %x_1321;
  let %x_134: (Tensor[(10, 10), float32], (Tensor[(10, 10), float32], (Tensor[(10, 10), float32],)), (Tensor[(10, 34, 1), float32], Tensor[(10, 38, 1), float32]), Tensor[(10, 34, 1), float32], Tensor[(10, 10), float32], Tensor[(10, 10), float32], Tensor[(1), int32], Tensor[(10, 10), float32], float32) /* ty=(Tensor[(10, 10), float32], (Tensor[(10, 10), float32], (Tensor[(10, 10), float32],)), (Tensor[(10, 34, 1), float32], Tensor[(10, 38, 1), float32]), Tensor[(10, 34, 1), float32], Tensor[(10, 10), float32], Tensor[(10, 10), float32], Tensor[(1), int32], Tensor[(10, 10), float32], float32) span=from_string:330:635 */ = %x_1331;
  let %x_135: (Tensor[(10, 10), float32], (Tensor[(10, 10), float32], (Tensor[(10, 10), float32],)), (Tensor[(10, 34, 1), float32], Tensor[(10, 38, 1), float32]), Tensor[(10, 34, 1), float32], Tensor[(10, 10), float32], Tensor[(10, 10), float32], Tensor[(1), int32], Tensor[(10, 10), float32], float32) /* ty=(Tensor[(10, 10), float32], (Tensor[(10, 10), float32], (Tensor[(10, 10), float32],)), (Tensor[(10, 34, 1), float32], Tensor[(10, 38, 1), float32]), Tensor[(10, 34, 1), float32], Tensor[(10, 10), float32], Tensor[(10, 10), float32], Tensor[(1), int32], Tensor[(10, 10), float32], float32) span=from_string:331:635 */ = %x_134;
  let %x_136: (Tensor[(10, 10), float32], (Tensor[(10, 10), float32], (Tensor[(10, 10), float32],)), (Tensor[(10, 34, 1), float32], Tensor[(10, 38, 1), float32]), Tensor[(10, 34, 1), float32], Tensor[(10, 10), float32], Tensor[(10, 10), float32], Tensor[(1), int32], Tensor[(10, 10), float32], float32) /* ty=(Tensor[(10, 10), float32], (Tensor[(10, 10), float32], (Tensor[(10, 10), float32],)), (Tensor[(10, 34, 1), float32], Tensor[(10, 38, 1), float32]), Tensor[(10, 34, 1), float32], Tensor[(10, 10), float32], Tensor[(10, 10), float32], Tensor[(1), int32], Tensor[(10, 10), float32], float32) span=from_string:332:635 */ = %x_135;
  let %x_137: (Tensor[(10, 10), float32], (Tensor[(10, 10), float32], (Tensor[(10, 10), float32],)), (Tensor[(10, 34, 1), float32], Tensor[(10, 38, 1), float32]), Tensor[(10, 34, 1), float32], Tensor[(10, 10), float32], Tensor[(10, 10), float32], Tensor[(1), int32], Tensor[(10, 10), float32], float32) /* ty=(Tensor[(10, 10), float32], (Tensor[(10, 10), float32], (Tensor[(10, 10), float32],)), (Tensor[(10, 34, 1), float32], Tensor[(10, 38, 1), float32]), Tensor[(10, 34, 1), float32], Tensor[(10, 10), float32], Tensor[(10, 10), float32], Tensor[(1), int32], Tensor[(10, 10), float32], float32) span=from_string:333:635 */ = %x_136;
  let %x_138: (Tensor[(10, 10), float32], (Tensor[(10, 10), float32], (Tensor[(10, 10), float32],)), (Tensor[(10, 34, 1), float32], Tensor[(10, 38, 1), float32]), Tensor[(10, 34, 1), float32], Tensor[(10, 10), float32], Tensor[(10, 10), float32], Tensor[(1), int32], Tensor[(10, 10), float32], float32) /* ty=(Tensor[(10, 10), float32], (Tensor[(10, 10), float32], (Tensor[(10, 10), float32],)), (Tensor[(10, 34, 1), float32], Tensor[(10, 38, 1), float32]), Tensor[(10, 34, 1), float32], Tensor[(10, 10), float32], Tensor[(10, 10), float32], Tensor[(1), int32], Tensor[(10, 10), float32], float32) span=from_string:334:635 */ = %x_137;
  let %x_139: (Tensor[(10, 10), float32], (Tensor[(10, 10), float32], (Tensor[(10, 10), float32],)), (Tensor[(10, 34, 1), float32], Tensor[(10, 38, 1), float32]), Tensor[(10, 34, 1), float32], Tensor[(10, 10), float32], Tensor[(10, 10), float32], Tensor[(1), int32], Tensor[(10, 10), float32], float32) /* ty=(Tensor[(10, 10), float32], (Tensor[(10, 10), float32], (Tensor[(10, 10), float32],)), (Tensor[(10, 34, 1), float32], Tensor[(10, 38, 1), float32]), Tensor[(10, 34, 1), float32], Tensor[(10, 10), float32], Tensor[(10, 10), float32], Tensor[(1), int32], Tensor[(10, 10), float32], float32) span=from_string:335:635 */ = %x_138;
  let %x_140: (Tensor[(10, 10), float32], (Tensor[(10, 10), float32], (Tensor[(10, 10), float32],)), (Tensor[(10, 34, 1), float32], Tensor[(10, 38, 1), float32]), Tensor[(10, 34, 1), float32], Tensor[(10, 10), float32], Tensor[(10, 10), float32], Tensor[(1), int32], Tensor[(10, 10), float32], float32) /* ty=(Tensor[(10, 10), float32], (Tensor[(10, 10), float32], (Tensor[(10, 10), float32],)), (Tensor[(10, 34, 1), float32], Tensor[(10, 38, 1), float32]), Tensor[(10, 34, 1), float32], Tensor[(10, 10), float32], Tensor[(10, 10), float32], Tensor[(1), int32], Tensor[(10, 10), float32], float32) span=from_string:336:636 */ = %x_139;
  let %x_1411: (Tensor[(10, 10), float32], (Tensor[(10, 10), float32], (Tensor[(10, 10), float32],)), (Tensor[(10, 34, 1), float32], Tensor[(10, 38, 1), float32]), Tensor[(10, 34, 1), float32], Tensor[(10, 10), float32], Tensor[(10, 10), float32], Tensor[(1), int32], Tensor[(10, 10), float32], float32) /* ty=(Tensor[(10, 10), float32], (Tensor[(10, 10), float32], (Tensor[(10, 10), float32],)), (Tensor[(10, 34, 1), float32], Tensor[(10, 38, 1), float32]), Tensor[(10, 34, 1), float32], Tensor[(10, 10), float32], Tensor[(10, 10), float32], Tensor[(1), int32], Tensor[(10, 10), float32], float32) span=from_string:337:636 */ = %x_140;
  let %x_1421: (Tensor[(10, 10), float32], (Tensor[(10, 10), float32], (Tensor[(10, 10), float32],)), (Tensor[(10, 34, 1), float32], Tensor[(10, 38, 1), float32]), Tensor[(10, 34, 1), float32], Tensor[(10, 10), float32], Tensor[(10, 10), float32], Tensor[(1), int32], Tensor[(10, 10), float32], float32) /* ty=(Tensor[(10, 10), float32], (Tensor[(10, 10), float32], (Tensor[(10, 10), float32],)), (Tensor[(10, 34, 1), float32], Tensor[(10, 38, 1), float32]), Tensor[(10, 34, 1), float32], Tensor[(10, 10), float32], Tensor[(10, 10), float32], Tensor[(1), int32], Tensor[(10, 10), float32], float32) span=from_string:338:636 */ = %x_1411;
  let %x_1431: (Tensor[(10, 10), float32], (Tensor[(10, 10), float32], (Tensor[(10, 10), float32],)), (Tensor[(10, 34, 1), float32], Tensor[(10, 38, 1), float32]), Tensor[(10, 34, 1), float32], Tensor[(10, 10), float32], Tensor[(10, 10), float32], Tensor[(1), int32], Tensor[(10, 10), float32], float32) /* ty=(Tensor[(10, 10), float32], (Tensor[(10, 10), float32], (Tensor[(10, 10), float32],)), (Tensor[(10, 34, 1), float32], Tensor[(10, 38, 1), float32]), Tensor[(10, 34, 1), float32], Tensor[(10, 10), float32], Tensor[(10, 10), float32], Tensor[(1), int32], Tensor[(10, 10), float32], float32) span=from_string:339:635 */ = %x_1421;
  let %x_144: (Tensor[(10, 10), float32], (Tensor[(10, 10), float32], (Tensor[(10, 10), float32],)), (Tensor[(10, 34, 1), float32], Tensor[(10, 38, 1), float32]), Tensor[(10, 34, 1), float32], Tensor[(10, 10), float32], Tensor[(10, 10), float32], Tensor[(1), int32], Tensor[(10, 10), float32], float32) /* ty=(Tensor[(10, 10), float32], (Tensor[(10, 10), float32], (Tensor[(10, 10), float32],)), (Tensor[(10, 34, 1), float32], Tensor[(10, 38, 1), float32]), Tensor[(10, 34, 1), float32], Tensor[(10, 10), float32], Tensor[(10, 10), float32], Tensor[(1), int32], Tensor[(10, 10), float32], float32) span=from_string:340:635 */ = %x_1431;
  let %x_145: (Tensor[(10, 10), float32], (Tensor[(10, 10), float32], (Tensor[(10, 10), float32],)), (Tensor[(10, 34, 1), float32], Tensor[(10, 38, 1), float32]), Tensor[(10, 34, 1), float32], Tensor[(10, 10), float32], Tensor[(10, 10), float32], Tensor[(1), int32], Tensor[(10, 10), float32], float32) /* ty=(Tensor[(10, 10), float32], (Tensor[(10, 10), float32], (Tensor[(10, 10), float32],)), (Tensor[(10, 34, 1), float32], Tensor[(10, 38, 1), float32]), Tensor[(10, 34, 1), float32], Tensor[(10, 10), float32], Tensor[(10, 10), float32], Tensor[(1), int32], Tensor[(10, 10), float32], float32) span=from_string:341:635 */ = %x_144;
  let %x_146: (Tensor[(10, 10), float32], (Tensor[(10, 10), float32], (Tensor[(10, 10), float32],)), (Tensor[(10, 34, 1), float32], Tensor[(10, 38, 1), float32]), Tensor[(10, 34, 1), float32], Tensor[(10, 10), float32], Tensor[(10, 10), float32], Tensor[(1), int32], Tensor[(10, 10), float32], float32) /* ty=(Tensor[(10, 10), float32], (Tensor[(10, 10), float32], (Tensor[(10, 10), float32],)), (Tensor[(10, 34, 1), float32], Tensor[(10, 38, 1), float32]), Tensor[(10, 34, 1), float32], Tensor[(10, 10), float32], Tensor[(10, 10), float32], Tensor[(1), int32], Tensor[(10, 10), float32], float32) span=from_string:342:635 */ = %x_145;
  let %x_147: (Tensor[(10, 10), float32], (Tensor[(10, 10), float32], (Tensor[(10, 10), float32],)), (Tensor[(10, 34, 1), float32], Tensor[(10, 38, 1), float32]), Tensor[(10, 34, 1), float32], Tensor[(10, 10), float32], Tensor[(10, 10), float32], Tensor[(1), int32], Tensor[(10, 10), float32], float32) /* ty=(Tensor[(10, 10), float32], (Tensor[(10, 10), float32], (Tensor[(10, 10), float32],)), (Tensor[(10, 34, 1), float32], Tensor[(10, 38, 1), float32]), Tensor[(10, 34, 1), float32], Tensor[(10, 10), float32], Tensor[(10, 10), float32], Tensor[(1), int32], Tensor[(10, 10), float32], float32) span=from_string:343:635 */ = %x_146;
  let %x_148: (Tensor[(10, 10), float32], (Tensor[(10, 10), float32], (Tensor[(10, 10), float32],)), (Tensor[(10, 34, 1), float32], Tensor[(10, 38, 1), float32]), Tensor[(10, 34, 1), float32], Tensor[(10, 10), float32], Tensor[(10, 10), float32], Tensor[(1), int32], Tensor[(10, 10), float32], float32) /* ty=(Tensor[(10, 10), float32], (Tensor[(10, 10), float32], (Tensor[(10, 10), float32],)), (Tensor[(10, 34, 1), float32], Tensor[(10, 38, 1), float32]), Tensor[(10, 34, 1), float32], Tensor[(10, 10), float32], Tensor[(10, 10), float32], Tensor[(1), int32], Tensor[(10, 10), float32], float32) span=from_string:344:635 */ = %x_147;
  let %x_149: (Tensor[(10, 10), float32], (Tensor[(10, 10), float32], (Tensor[(10, 10), float32],)), (Tensor[(10, 34, 1), float32], Tensor[(10, 38, 1), float32]), Tensor[(10, 34, 1), float32], Tensor[(10, 10), float32], Tensor[(10, 10), float32], Tensor[(1), int32], Tensor[(10, 10), float32], float32) /* ty=(Tensor[(10, 10), float32], (Tensor[(10, 10), float32], (Tensor[(10, 10), float32],)), (Tensor[(10, 34, 1), float32], Tensor[(10, 38, 1), float32]), Tensor[(10, 34, 1), float32], Tensor[(10, 10), float32], Tensor[(10, 10), float32], Tensor[(1), int32], Tensor[(10, 10), float32], float32) span=from_string:345:635 */ = %x_148;
  let %x_150: (Tensor[(10, 10), float32], (Tensor[(10, 10), float32], (Tensor[(10, 10), float32],)), (Tensor[(10, 34, 1), float32], Tensor[(10, 38, 1), float32]), Tensor[(10, 34, 1), float32], Tensor[(10, 10), float32], Tensor[(10, 10), float32], Tensor[(1), int32], Tensor[(10, 10), float32], float32) /* ty=(Tensor[(10, 10), float32], (Tensor[(10, 10), float32], (Tensor[(10, 10), float32],)), (Tensor[(10, 34, 1), float32], Tensor[(10, 38, 1), float32]), Tensor[(10, 34, 1), float32], Tensor[(10, 10), float32], Tensor[(10, 10), float32], Tensor[(1), int32], Tensor[(10, 10), float32], float32) span=from_string:346:636 */ = %x_149;
  let %x_1511: (Tensor[(10, 10), float32], (Tensor[(10, 10), float32], (Tensor[(10, 10), float32],)), (Tensor[(10, 34, 1), float32], Tensor[(10, 38, 1), float32]), Tensor[(10, 34, 1), float32], Tensor[(10, 10), float32], Tensor[(10, 10), float32], Tensor[(1), int32], Tensor[(10, 10), float32], float32) /* ty=(Tensor[(10, 10), float32], (Tensor[(10, 10), float32], (Tensor[(10, 10), float32],)), (Tensor[(10, 34, 1), float32], Tensor[(10, 38, 1), float32]), Tensor[(10, 34, 1), float32], Tensor[(10, 10), float32], Tensor[(10, 10), float32], Tensor[(1), int32], Tensor[(10, 10), float32], float32) span=from_string:347:636 */ = %x_150;
  let %x_1521: (Tensor[(10, 10), float32], (Tensor[(10, 10), float32], (Tensor[(10, 10), float32],)), (Tensor[(10, 34, 1), float32], Tensor[(10, 38, 1), float32]), Tensor[(10, 34, 1), float32], Tensor[(10, 10), float32], Tensor[(10, 10), float32], Tensor[(1), int32], Tensor[(10, 10), float32], float32) /* ty=(Tensor[(10, 10), float32], (Tensor[(10, 10), float32], (Tensor[(10, 10), float32],)), (Tensor[(10, 34, 1), float32], Tensor[(10, 38, 1), float32]), Tensor[(10, 34, 1), float32], Tensor[(10, 10), float32], Tensor[(10, 10), float32], Tensor[(1), int32], Tensor[(10, 10), float32], float32) span=from_string:348:636 */ = %x_1511;
  let %x_1531: (Tensor[(10, 10), float32], (Tensor[(10, 10), float32], (Tensor[(10, 10), float32],)), (Tensor[(10, 34, 1), float32], Tensor[(10, 38, 1), float32]), Tensor[(10, 34, 1), float32], Tensor[(10, 10), float32], Tensor[(10, 10), float32], Tensor[(1), int32], Tensor[(10, 10), float32], float32) /* ty=(Tensor[(10, 10), float32], (Tensor[(10, 10), float32], (Tensor[(10, 10), float32],)), (Tensor[(10, 34, 1), float32], Tensor[(10, 38, 1), float32]), Tensor[(10, 34, 1), float32], Tensor[(10, 10), float32], Tensor[(10, 10), float32], Tensor[(1), int32], Tensor[(10, 10), float32], float32) span=from_string:349:635 */ = %x_1521;
  let %x_154: (Tensor[(10, 10), float32], (Tensor[(10, 10), float32], (Tensor[(10, 10), float32],)), (Tensor[(10, 34, 1), float32], Tensor[(10, 38, 1), float32]), Tensor[(10, 34, 1), float32], Tensor[(10, 10), float32], Tensor[(10, 10), float32], Tensor[(1), int32], Tensor[(10, 10), float32], float32) /* ty=(Tensor[(10, 10), float32], (Tensor[(10, 10), float32], (Tensor[(10, 10), float32],)), (Tensor[(10, 34, 1), float32], Tensor[(10, 38, 1), float32]), Tensor[(10, 34, 1), float32], Tensor[(10, 10), float32], Tensor[(10, 10), float32], Tensor[(1), int32], Tensor[(10, 10), float32], float32) span=from_string:350:635 */ = %x_1531;
  let %x_155: (Tensor[(10, 10), float32], (Tensor[(10, 10), float32], (Tensor[(10, 10), float32],)), (Tensor[(10, 34, 1), float32], Tensor[(10, 38, 1), float32]), Tensor[(10, 34, 1), float32], Tensor[(10, 10), float32], Tensor[(10, 10), float32], Tensor[(1), int32], Tensor[(10, 10), float32], float32) /* ty=(Tensor[(10, 10), float32], (Tensor[(10, 10), float32], (Tensor[(10, 10), float32],)), (Tensor[(10, 34, 1), float32], Tensor[(10, 38, 1), float32]), Tensor[(10, 34, 1), float32], Tensor[(10, 10), float32], Tensor[(10, 10), float32], Tensor[(1), int32], Tensor[(10, 10), float32], float32) span=from_string:351:635 */ = %x_154;
  let %x_156: (Tensor[(10, 10), float32], (Tensor[(10, 10), float32], (Tensor[(10, 10), float32],)), (Tensor[(10, 34, 1), float32], Tensor[(10, 38, 1), float32]), Tensor[(10, 34, 1), float32], Tensor[(10, 10), float32], Tensor[(10, 10), float32], Tensor[(1), int32], Tensor[(10, 10), float32], float32) /* ty=(Tensor[(10, 10), float32], (Tensor[(10, 10), float32], (Tensor[(10, 10), float32],)), (Tensor[(10, 34, 1), float32], Tensor[(10, 38, 1), float32]), Tensor[(10, 34, 1), float32], Tensor[(10, 10), float32], Tensor[(10, 10), float32], Tensor[(1), int32], Tensor[(10, 10), float32], float32) span=from_string:352:635 */ = %x_155;
  let %x_157: (Tensor[(10, 10), float32], (Tensor[(10, 10), float32], (Tensor[(10, 10), float32],)), (Tensor[(10, 34, 1), float32], Tensor[(10, 38, 1), float32]), Tensor[(10, 34, 1), float32], Tensor[(10, 10), float32], Tensor[(10, 10), float32], Tensor[(1), int32], Tensor[(10, 10), float32], float32) /* ty=(Tensor[(10, 10), float32], (Tensor[(10, 10), float32], (Tensor[(10, 10), float32],)), (Tensor[(10, 34, 1), float32], Tensor[(10, 38, 1), float32]), Tensor[(10, 34, 1), float32], Tensor[(10, 10), float32], Tensor[(10, 10), float32], Tensor[(1), int32], Tensor[(10, 10), float32], float32) span=from_string:353:635 */ = %x_156;
  let %x_158: (Tensor[(10, 10), float32], (Tensor[(10, 10), float32], (Tensor[(10, 10), float32],)), (Tensor[(10, 34, 1), float32], Tensor[(10, 38, 1), float32]), Tensor[(10, 34, 1), float32], Tensor[(10, 10), float32], Tensor[(10, 10), float32], Tensor[(1), int32], Tensor[(10, 10), float32], float32) /* ty=(Tensor[(10, 10), float32], (Tensor[(10, 10), float32], (Tensor[(10, 10), float32],)), (Tensor[(10, 34, 1), float32], Tensor[(10, 38, 1), float32]), Tensor[(10, 34, 1), float32], Tensor[(10, 10), float32], Tensor[(10, 10), float32], Tensor[(1), int32], Tensor[(10, 10), float32], float32) span=from_string:354:635 */ = %x_157;
  let %x_159: (Tensor[(10, 10), float32], (Tensor[(10, 10), float32], (Tensor[(10, 10), float32],)), (Tensor[(10, 34, 1), float32], Tensor[(10, 38, 1), float32]), Tensor[(10, 34, 1), float32], Tensor[(10, 10), float32], Tensor[(10, 10), float32], Tensor[(1), int32], Tensor[(10, 10), float32], float32) /* ty=(Tensor[(10, 10), float32], (Tensor[(10, 10), float32], (Tensor[(10, 10), float32],)), (Tensor[(10, 34, 1), float32], Tensor[(10, 38, 1), float32]), Tensor[(10, 34, 1), float32], Tensor[(10, 10), float32], Tensor[(10, 10), float32], Tensor[(1), int32], Tensor[(10, 10), float32], float32) span=from_string:355:635 */ = %x_158;
  let %x_160: (Tensor[(10, 10), float32], (Tensor[(10, 10), float32], (Tensor[(10, 10), float32],)), (Tensor[(10, 34, 1), float32], Tensor[(10, 38, 1), float32]), Tensor[(10, 34, 1), float32], Tensor[(10, 10), float32], Tensor[(10, 10), float32], Tensor[(1), int32], Tensor[(10, 10), float32], float32) /* ty=(Tensor[(10, 10), float32], (Tensor[(10, 10), float32], (Tensor[(10, 10), float32],)), (Tensor[(10, 34, 1), float32], Tensor[(10, 38, 1), float32]), Tensor[(10, 34, 1), float32], Tensor[(10, 10), float32], Tensor[(10, 10), float32], Tensor[(1), int32], Tensor[(10, 10), float32], float32) span=from_string:356:636 */ = %x_159;
  let %x_1611: (Tensor[(10, 10), float32], (Tensor[(10, 10), float32], (Tensor[(10, 10), float32],)), (Tensor[(10, 34, 1), float32], Tensor[(10, 38, 1), float32]), Tensor[(10, 34, 1), float32], Tensor[(10, 10), float32], Tensor[(10, 10), float32], Tensor[(1), int32], Tensor[(10, 10), float32], float32) /* ty=(Tensor[(10, 10), float32], (Tensor[(10, 10), float32], (Tensor[(10, 10), float32],)), (Tensor[(10, 34, 1), float32], Tensor[(10, 38, 1), float32]), Tensor[(10, 34, 1), float32], Tensor[(10, 10), float32], Tensor[(10, 10), float32], Tensor[(1), int32], Tensor[(10, 10), float32], float32) span=from_string:357:636 */ = %x_160;
  let %x_1621: (Tensor[(10, 10), float32], (Tensor[(10, 10), float32], (Tensor[(10, 10), float32],)), (Tensor[(10, 34, 1), float32], Tensor[(10, 38, 1), float32]), Tensor[(10, 34, 1), float32], Tensor[(10, 10), float32], Tensor[(10, 10), float32], Tensor[(1), int32], Tensor[(10, 10), float32], float32) /* ty=(Tensor[(10, 10), float32], (Tensor[(10, 10), float32], (Tensor[(10, 10), float32],)), (Tensor[(10, 34, 1), float32], Tensor[(10, 38, 1), float32]), Tensor[(10, 34, 1), float32], Tensor[(10, 10), float32], Tensor[(10, 10), float32], Tensor[(1), int32], Tensor[(10, 10), float32], float32) span=from_string:358:636 */ = %x_1611;
  let %x_1631: (Tensor[(10, 10), float32], (Tensor[(10, 10), float32], (Tensor[(10, 10), float32],)), (Tensor[(10, 34, 1), float32], Tensor[(10, 38, 1), float32]), Tensor[(10, 34, 1), float32], Tensor[(10, 10), float32], Tensor[(10, 10), float32], Tensor[(1), int32], Tensor[(10, 10), float32], float32) /* ty=(Tensor[(10, 10), float32], (Tensor[(10, 10), float32], (Tensor[(10, 10), float32],)), (Tensor[(10, 34, 1), float32], Tensor[(10, 38, 1), float32]), Tensor[(10, 34, 1), float32], Tensor[(10, 10), float32], Tensor[(10, 10), float32], Tensor[(1), int32], Tensor[(10, 10), float32], float32) span=from_string:359:635 */ = %x_1621;
  let %x_164: (Tensor[(10, 10), float32], (Tensor[(10, 10), float32], (Tensor[(10, 10), float32],)), (Tensor[(10, 34, 1), float32], Tensor[(10, 38, 1), float32]), Tensor[(10, 34, 1), float32], Tensor[(10, 10), float32], Tensor[(10, 10), float32], Tensor[(1), int32], Tensor[(10, 10), float32], float32) /* ty=(Tensor[(10, 10), float32], (Tensor[(10, 10), float32], (Tensor[(10, 10), float32],)), (Tensor[(10, 34, 1), float32], Tensor[(10, 38, 1), float32]), Tensor[(10, 34, 1), float32], Tensor[(10, 10), float32], Tensor[(10, 10), float32], Tensor[(1), int32], Tensor[(10, 10), float32], float32) span=from_string:360:635 */ = %x_1631;
  let %x_165: (Tensor[(10, 10), float32], (Tensor[(10, 10), float32], (Tensor[(10, 10), float32],)), (Tensor[(10, 34, 1), float32], Tensor[(10, 38, 1), float32]), Tensor[(10, 34, 1), float32], Tensor[(10, 10), float32], Tensor[(10, 10), float32], Tensor[(1), int32], Tensor[(10, 10), float32], float32) /* ty=(Tensor[(10, 10), float32], (Tensor[(10, 10), float32], (Tensor[(10, 10), float32],)), (Tensor[(10, 34, 1), float32], Tensor[(10, 38, 1), float32]), Tensor[(10, 34, 1), float32], Tensor[(10, 10), float32], Tensor[(10, 10), float32], Tensor[(1), int32], Tensor[(10, 10), float32], float32) span=from_string:361:635 */ = %x_164;
  let %x_166: (Tensor[(10, 10), float32], (Tensor[(10, 10), float32], (Tensor[(10, 10), float32],)), (Tensor[(10, 34, 1), float32], Tensor[(10, 38, 1), float32]), Tensor[(10, 34, 1), float32], Tensor[(10, 10), float32], Tensor[(10, 10), float32], Tensor[(1), int32], Tensor[(10, 10), float32], float32) /* ty=(Tensor[(10, 10), float32], (Tensor[(10, 10), float32], (Tensor[(10, 10), float32],)), (Tensor[(10, 34, 1), float32], Tensor[(10, 38, 1), float32]), Tensor[(10, 34, 1), float32], Tensor[(10, 10), float32], Tensor[(10, 10), float32], Tensor[(1), int32], Tensor[(10, 10), float32], float32) span=from_string:362:635 */ = %x_165;
  let %x_167: (Tensor[(10, 10), float32], (Tensor[(10, 10), float32], (Tensor[(10, 10), float32],)), (Tensor[(10, 34, 1), float32], Tensor[(10, 38, 1), float32]), Tensor[(10, 34, 1), float32], Tensor[(10, 10), float32], Tensor[(10, 10), float32], Tensor[(1), int32], Tensor[(10, 10), float32], float32) /* ty=(Tensor[(10, 10), float32], (Tensor[(10, 10), float32], (Tensor[(10, 10), float32],)), (Tensor[(10, 34, 1), float32], Tensor[(10, 38, 1), float32]), Tensor[(10, 34, 1), float32], Tensor[(10, 10), float32], Tensor[(10, 10), float32], Tensor[(1), int32], Tensor[(10, 10), float32], float32) span=from_string:363:635 */ = %x_166;
  let %x_168: (Tensor[(10, 10), float32], (Tensor[(10, 10), float32], (Tensor[(10, 10), float32],)), (Tensor[(10, 34, 1), float32], Tensor[(10, 38, 1), float32]), Tensor[(10, 34, 1), float32], Tensor[(10, 10), float32], Tensor[(10, 10), float32], Tensor[(1), int32], Tensor[(10, 10), float32], float32) /* ty=(Tensor[(10, 10), float32], (Tensor[(10, 10), float32], (Tensor[(10, 10), float32],)), (Tensor[(10, 34, 1), float32], Tensor[(10, 38, 1), float32]), Tensor[(10, 34, 1), float32], Tensor[(10, 10), float32], Tensor[(10, 10), float32], Tensor[(1), int32], Tensor[(10, 10), float32], float32) span=from_string:364:635 */ = %x_167;
  let %x_169: (Tensor[(10, 10), float32], (Tensor[(10, 10), float32], (Tensor[(10, 10), float32],)), (Tensor[(10, 34, 1), float32], Tensor[(10, 38, 1), float32]), Tensor[(10, 34, 1), float32], Tensor[(10, 10), float32], Tensor[(10, 10), float32], Tensor[(1), int32], Tensor[(10, 10), float32], float32) /* ty=(Tensor[(10, 10), float32], (Tensor[(10, 10), float32], (Tensor[(10, 10), float32],)), (Tensor[(10, 34, 1), float32], Tensor[(10, 38, 1), float32]), Tensor[(10, 34, 1), float32], Tensor[(10, 10), float32], Tensor[(10, 10), float32], Tensor[(1), int32], Tensor[(10, 10), float32], float32) span=from_string:365:635 */ = %x_168;
  let %x_170: (Tensor[(10, 10), float32], (Tensor[(10, 10), float32], (Tensor[(10, 10), float32],)), (Tensor[(10, 34, 1), float32], Tensor[(10, 38, 1), float32]), Tensor[(10, 34, 1), float32], Tensor[(10, 10), float32], Tensor[(10, 10), float32], Tensor[(1), int32], Tensor[(10, 10), float32], float32) /* ty=(Tensor[(10, 10), float32], (Tensor[(10, 10), float32], (Tensor[(10, 10), float32],)), (Tensor[(10, 34, 1), float32], Tensor[(10, 38, 1), float32]), Tensor[(10, 34, 1), float32], Tensor[(10, 10), float32], Tensor[(10, 10), float32], Tensor[(1), int32], Tensor[(10, 10), float32], float32) span=from_string:366:636 */ = %x_169;
  let %x_1711: (Tensor[(10, 10), float32], (Tensor[(10, 10), float32], (Tensor[(10, 10), float32],)), (Tensor[(10, 34, 1), float32], Tensor[(10, 38, 1), float32]), Tensor[(10, 34, 1), float32], Tensor[(10, 10), float32], Tensor[(10, 10), float32], Tensor[(1), int32], Tensor[(10, 10), float32], float32) /* ty=(Tensor[(10, 10), float32], (Tensor[(10, 10), float32], (Tensor[(10, 10), float32],)), (Tensor[(10, 34, 1), float32], Tensor[(10, 38, 1), float32]), Tensor[(10, 34, 1), float32], Tensor[(10, 10), float32], Tensor[(10, 10), float32], Tensor[(1), int32], Tensor[(10, 10), float32], float32) span=from_string:367:636 */ = %x_170;
  let %x_1721: (Tensor[(10, 10), float32], (Tensor[(10, 10), float32], (Tensor[(10, 10), float32],)), (Tensor[(10, 34, 1), float32], Tensor[(10, 38, 1), float32]), Tensor[(10, 34, 1), float32], Tensor[(10, 10), float32], Tensor[(10, 10), float32], Tensor[(1), int32], Tensor[(10, 10), float32], float32) /* ty=(Tensor[(10, 10), float32], (Tensor[(10, 10), float32], (Tensor[(10, 10), float32],)), (Tensor[(10, 34, 1), float32], Tensor[(10, 38, 1), float32]), Tensor[(10, 34, 1), float32], Tensor[(10, 10), float32], Tensor[(10, 10), float32], Tensor[(1), int32], Tensor[(10, 10), float32], float32) span=from_string:368:636 */ = %x_1711;
  let %x_1731: (Tensor[(10, 10), float32], (Tensor[(10, 10), float32], (Tensor[(10, 10), float32],)), (Tensor[(10, 34, 1), float32], Tensor[(10, 38, 1), float32]), Tensor[(10, 34, 1), float32], Tensor[(10, 10), float32], Tensor[(10, 10), float32], Tensor[(1), int32], Tensor[(10, 10), float32], float32) /* ty=(Tensor[(10, 10), float32], (Tensor[(10, 10), float32], (Tensor[(10, 10), float32],)), (Tensor[(10, 34, 1), float32], Tensor[(10, 38, 1), float32]), Tensor[(10, 34, 1), float32], Tensor[(10, 10), float32], Tensor[(10, 10), float32], Tensor[(1), int32], Tensor[(10, 10), float32], float32) span=from_string:369:635 */ = %x_1721;
  let %x_174: (Tensor[(10, 10), float32], (Tensor[(10, 10), float32], (Tensor[(10, 10), float32],)), (Tensor[(10, 34, 1), float32], Tensor[(10, 38, 1), float32]), Tensor[(10, 34, 1), float32], Tensor[(10, 10), float32], Tensor[(10, 10), float32], Tensor[(1), int32], Tensor[(10, 10), float32], float32) /* ty=(Tensor[(10, 10), float32], (Tensor[(10, 10), float32], (Tensor[(10, 10), float32],)), (Tensor[(10, 34, 1), float32], Tensor[(10, 38, 1), float32]), Tensor[(10, 34, 1), float32], Tensor[(10, 10), float32], Tensor[(10, 10), float32], Tensor[(1), int32], Tensor[(10, 10), float32], float32) span=from_string:370:635 */ = %x_1731;
  let %x_175: (Tensor[(10, 10), float32], (Tensor[(10, 10), float32], (Tensor[(10, 10), float32],)), (Tensor[(10, 34, 1), float32], Tensor[(10, 38, 1), float32]), Tensor[(10, 34, 1), float32], Tensor[(10, 10), float32], Tensor[(10, 10), float32], Tensor[(1), int32], Tensor[(10, 10), float32], float32) /* ty=(Tensor[(10, 10), float32], (Tensor[(10, 10), float32], (Tensor[(10, 10), float32],)), (Tensor[(10, 34, 1), float32], Tensor[(10, 38, 1), float32]), Tensor[(10, 34, 1), float32], Tensor[(10, 10), float32], Tensor[(10, 10), float32], Tensor[(1), int32], Tensor[(10, 10), float32], float32) span=from_string:371:635 */ = %x_174;
  let %x_176: (Tensor[(10, 10), float32], (Tensor[(10, 10), float32], (Tensor[(10, 10), float32],)), (Tensor[(10, 34, 1), float32], Tensor[(10, 38, 1), float32]), Tensor[(10, 34, 1), float32], Tensor[(10, 10), float32], Tensor[(10, 10), float32], Tensor[(1), int32], Tensor[(10, 10), float32], float32) /* ty=(Tensor[(10, 10), float32], (Tensor[(10, 10), float32], (Tensor[(10, 10), float32],)), (Tensor[(10, 34, 1), float32], Tensor[(10, 38, 1), float32]), Tensor[(10, 34, 1), float32], Tensor[(10, 10), float32], Tensor[(10, 10), float32], Tensor[(1), int32], Tensor[(10, 10), float32], float32) span=from_string:372:635 */ = %x_175;
  let %x_177: (Tensor[(10, 10), float32], (Tensor[(10, 10), float32], (Tensor[(10, 10), float32],)), (Tensor[(10, 34, 1), float32], Tensor[(10, 38, 1), float32]), Tensor[(10, 34, 1), float32], Tensor[(10, 10), float32], Tensor[(10, 10), float32], Tensor[(1), int32], Tensor[(10, 10), float32], float32) /* ty=(Tensor[(10, 10), float32], (Tensor[(10, 10), float32], (Tensor[(10, 10), float32],)), (Tensor[(10, 34, 1), float32], Tensor[(10, 38, 1), float32]), Tensor[(10, 34, 1), float32], Tensor[(10, 10), float32], Tensor[(10, 10), float32], Tensor[(1), int32], Tensor[(10, 10), float32], float32) span=from_string:373:635 */ = %x_176;
  let %x_178: (Tensor[(10, 10), float32], (Tensor[(10, 10), float32], (Tensor[(10, 10), float32],)), (Tensor[(10, 34, 1), float32], Tensor[(10, 38, 1), float32]), Tensor[(10, 34, 1), float32], Tensor[(10, 10), float32], Tensor[(10, 10), float32], Tensor[(1), int32], Tensor[(10, 10), float32], float32) /* ty=(Tensor[(10, 10), float32], (Tensor[(10, 10), float32], (Tensor[(10, 10), float32],)), (Tensor[(10, 34, 1), float32], Tensor[(10, 38, 1), float32]), Tensor[(10, 34, 1), float32], Tensor[(10, 10), float32], Tensor[(10, 10), float32], Tensor[(1), int32], Tensor[(10, 10), float32], float32) span=from_string:374:635 */ = %x_177;
  let %x_179: (Tensor[(10, 10), float32], (Tensor[(10, 10), float32], (Tensor[(10, 10), float32],)), (Tensor[(10, 34, 1), float32], Tensor[(10, 38, 1), float32]), Tensor[(10, 34, 1), float32], Tensor[(10, 10), float32], Tensor[(10, 10), float32], Tensor[(1), int32], Tensor[(10, 10), float32], float32) /* ty=(Tensor[(10, 10), float32], (Tensor[(10, 10), float32], (Tensor[(10, 10), float32],)), (Tensor[(10, 34, 1), float32], Tensor[(10, 38, 1), float32]), Tensor[(10, 34, 1), float32], Tensor[(10, 10), float32], Tensor[(10, 10), float32], Tensor[(1), int32], Tensor[(10, 10), float32], float32) span=from_string:375:635 */ = %x_178;
  let %x_180: (Tensor[(10, 10), float32], (Tensor[(10, 10), float32], (Tensor[(10, 10), float32],)), (Tensor[(10, 34, 1), float32], Tensor[(10, 38, 1), float32]), Tensor[(10, 34, 1), float32], Tensor[(10, 10), float32], Tensor[(10, 10), float32], Tensor[(1), int32], Tensor[(10, 10), float32], float32) /* ty=(Tensor[(10, 10), float32], (Tensor[(10, 10), float32], (Tensor[(10, 10), float32],)), (Tensor[(10, 34, 1), float32], Tensor[(10, 38, 1), float32]), Tensor[(10, 34, 1), float32], Tensor[(10, 10), float32], Tensor[(10, 10), float32], Tensor[(1), int32], Tensor[(10, 10), float32], float32) span=from_string:376:636 */ = %x_179;
  let %x_1811: (Tensor[(10, 10), float32], (Tensor[(10, 10), float32], (Tensor[(10, 10), float32],)), (Tensor[(10, 34, 1), float32], Tensor[(10, 38, 1), float32]), Tensor[(10, 34, 1), float32], Tensor[(10, 10), float32], Tensor[(10, 10), float32], Tensor[(1), int32], Tensor[(10, 10), float32], float32) /* ty=(Tensor[(10, 10), float32], (Tensor[(10, 10), float32], (Tensor[(10, 10), float32],)), (Tensor[(10, 34, 1), float32], Tensor[(10, 38, 1), float32]), Tensor[(10, 34, 1), float32], Tensor[(10, 10), float32], Tensor[(10, 10), float32], Tensor[(1), int32], Tensor[(10, 10), float32], float32) span=from_string:377:636 */ = %x_180;
  let %x_1821: (Tensor[(10, 10), float32], (Tensor[(10, 10), float32], (Tensor[(10, 10), float32],)), (Tensor[(10, 34, 1), float32], Tensor[(10, 38, 1), float32]), Tensor[(10, 34, 1), float32], Tensor[(10, 10), float32], Tensor[(10, 10), float32], Tensor[(1), int32], Tensor[(10, 10), float32], float32) /* ty=(Tensor[(10, 10), float32], (Tensor[(10, 10), float32], (Tensor[(10, 10), float32],)), (Tensor[(10, 34, 1), float32], Tensor[(10, 38, 1), float32]), Tensor[(10, 34, 1), float32], Tensor[(10, 10), float32], Tensor[(10, 10), float32], Tensor[(1), int32], Tensor[(10, 10), float32], float32) span=from_string:378:636 */ = %x_1811;
  let %x_1831: (Tensor[(10, 10), float32], (Tensor[(10, 10), float32], (Tensor[(10, 10), float32],)), (Tensor[(10, 34, 1), float32], Tensor[(10, 38, 1), float32]), Tensor[(10, 34, 1), float32], Tensor[(10, 10), float32], Tensor[(10, 10), float32], Tensor[(1), int32], Tensor[(10, 10), float32], float32) /* ty=(Tensor[(10, 10), float32], (Tensor[(10, 10), float32], (Tensor[(10, 10), float32],)), (Tensor[(10, 34, 1), float32], Tensor[(10, 38, 1), float32]), Tensor[(10, 34, 1), float32], Tensor[(10, 10), float32], Tensor[(10, 10), float32], Tensor[(1), int32], Tensor[(10, 10), float32], float32) span=from_string:379:635 */ = %x_1821;
  let %x_184: (Tensor[(10, 10), float32], (Tensor[(10, 10), float32], (Tensor[(10, 10), float32],)), (Tensor[(10, 34, 1), float32], Tensor[(10, 38, 1), float32]), Tensor[(10, 34, 1), float32], Tensor[(10, 10), float32], Tensor[(10, 10), float32], Tensor[(1), int32], Tensor[(10, 10), float32], float32) /* ty=(Tensor[(10, 10), float32], (Tensor[(10, 10), float32], (Tensor[(10, 10), float32],)), (Tensor[(10, 34, 1), float32], Tensor[(10, 38, 1), float32]), Tensor[(10, 34, 1), float32], Tensor[(10, 10), float32], Tensor[(10, 10), float32], Tensor[(1), int32], Tensor[(10, 10), float32], float32) span=from_string:380:635 */ = %x_1831;
  let %x_185: (Tensor[(10, 10), float32], (Tensor[(10, 10), float32], (Tensor[(10, 10), float32],)), (Tensor[(10, 34, 1), float32], Tensor[(10, 38, 1), float32]), Tensor[(10, 34, 1), float32], Tensor[(10, 10), float32], Tensor[(10, 10), float32], Tensor[(1), int32], Tensor[(10, 10), float32], float32) /* ty=(Tensor[(10, 10), float32], (Tensor[(10, 10), float32], (Tensor[(10, 10), float32],)), (Tensor[(10, 34, 1), float32], Tensor[(10, 38, 1), float32]), Tensor[(10, 34, 1), float32], Tensor[(10, 10), float32], Tensor[(10, 10), float32], Tensor[(1), int32], Tensor[(10, 10), float32], float32) span=from_string:381:635 */ = %x_184;
  let %x_186: (Tensor[(10, 10), float32], (Tensor[(10, 10), float32], (Tensor[(10, 10), float32],)), (Tensor[(10, 34, 1), float32], Tensor[(10, 38, 1), float32]), Tensor[(10, 34, 1), float32], Tensor[(10, 10), float32], Tensor[(10, 10), float32], Tensor[(1), int32], Tensor[(10, 10), float32], float32) /* ty=(Tensor[(10, 10), float32], (Tensor[(10, 10), float32], (Tensor[(10, 10), float32],)), (Tensor[(10, 34, 1), float32], Tensor[(10, 38, 1), float32]), Tensor[(10, 34, 1), float32], Tensor[(10, 10), float32], Tensor[(10, 10), float32], Tensor[(1), int32], Tensor[(10, 10), float32], float32) span=from_string:382:635 */ = %x_185;
  let %x_187: (Tensor[(10, 10), float32], (Tensor[(10, 10), float32], (Tensor[(10, 10), float32],)), (Tensor[(10, 34, 1), float32], Tensor[(10, 38, 1), float32]), Tensor[(10, 34, 1), float32], Tensor[(10, 10), float32], Tensor[(10, 10), float32], Tensor[(1), int32], Tensor[(10, 10), float32], float32) /* ty=(Tensor[(10, 10), float32], (Tensor[(10, 10), float32], (Tensor[(10, 10), float32],)), (Tensor[(10, 34, 1), float32], Tensor[(10, 38, 1), float32]), Tensor[(10, 34, 1), float32], Tensor[(10, 10), float32], Tensor[(10, 10), float32], Tensor[(1), int32], Tensor[(10, 10), float32], float32) span=from_string:383:635 */ = %x_186;
  let %x_188: (Tensor[(10, 10), float32], (Tensor[(10, 10), float32], (Tensor[(10, 10), float32],)), (Tensor[(10, 34, 1), float32], Tensor[(10, 38, 1), float32]), Tensor[(10, 34, 1), float32], Tensor[(10, 10), float32], Tensor[(10, 10), float32], Tensor[(1), int32], Tensor[(10, 10), float32], float32) /* ty=(Tensor[(10, 10), float32], (Tensor[(10, 10), float32], (Tensor[(10, 10), float32],)), (Tensor[(10, 34, 1), float32], Tensor[(10, 38, 1), float32]), Tensor[(10, 34, 1), float32], Tensor[(10, 10), float32], Tensor[(10, 10), float32], Tensor[(1), int32], Tensor[(10, 10), float32], float32) span=from_string:384:635 */ = %x_187;
  let %x_189: (Tensor[(10, 10), float32], (Tensor[(10, 10), float32], (Tensor[(10, 10), float32],)), (Tensor[(10, 34, 1), float32], Tensor[(10, 38, 1), float32]), Tensor[(10, 34, 1), float32], Tensor[(10, 10), float32], Tensor[(10, 10), float32], Tensor[(1), int32], Tensor[(10, 10), float32], float32) /* ty=(Tensor[(10, 10), float32], (Tensor[(10, 10), float32], (Tensor[(10, 10), float32],)), (Tensor[(10, 34, 1), float32], Tensor[(10, 38, 1), float32]), Tensor[(10, 34, 1), float32], Tensor[(10, 10), float32], Tensor[(10, 10), float32], Tensor[(1), int32], Tensor[(10, 10), float32], float32) span=from_string:385:635 */ = %x_188;
  let %x_190: (Tensor[(10, 10), float32], (Tensor[(10, 10), float32], (Tensor[(10, 10), float32],)), (Tensor[(10, 34, 1), float32], Tensor[(10, 38, 1), float32]), Tensor[(10, 34, 1), float32], Tensor[(10, 10), float32], Tensor[(10, 10), float32], Tensor[(1), int32], Tensor[(10, 10), float32], float32) /* ty=(Tensor[(10, 10), float32], (Tensor[(10, 10), float32], (Tensor[(10, 10), float32],)), (Tensor[(10, 34, 1), float32], Tensor[(10, 38, 1), float32]), Tensor[(10, 34, 1), float32], Tensor[(10, 10), float32], Tensor[(10, 10), float32], Tensor[(1), int32], Tensor[(10, 10), float32], float32) span=from_string:386:634 */ = %x_189;
  let %x_1911: (Tensor[(10, 10), float32], (Tensor[(10, 10), float32], (Tensor[(10, 10), float32],)), (Tensor[(10, 34, 1), float32], Tensor[(10, 38, 1), float32]), Tensor[(10, 34, 1), float32], Tensor[(10, 10), float32], Tensor[(10, 10), float32], Tensor[(1), int32], Tensor[(10, 10), float32], float32) /* ty=(Tensor[(10, 10), float32], (Tensor[(10, 10), float32], (Tensor[(10, 10), float32],)), (Tensor[(10, 34, 1), float32], Tensor[(10, 38, 1), float32]), Tensor[(10, 34, 1), float32], Tensor[(10, 10), float32], Tensor[(10, 10), float32], Tensor[(1), int32], Tensor[(10, 10), float32], float32) span=from_string:387:3 */ = %x_190;
  %x_1911
}

#[metadata]
{
  "root": 1, 
  "nodes": [
    {
      "type_key": ""
    }, 
    {
      "type_key": "Map", 
      "keys": [
        "relay.Constant"
      ], 
      "data": [2]
    }, 
    {
      "type_key": "Array", 
      "data": [3]
    }, 
    {
      "type_key": "relay.Constant", 
      "attrs": {
        "_checked_type_": "8", 
        "data": "0", 
        "span": "6", 
        "virtual_device_": "4"
      }
    }, 
    {
      "type_key": "VirtualDevice", 
      "attrs": {
        "device_type_int": "-1", 
        "memory_scope": "5", 
        "target": "0", 
        "virtual_device_id": "-1"
      }
    }, 
    {
      "type_key": "runtime.String"
    }, 
    {
      "type_key": "Span", 
      "attrs": {
        "column": "98", 
        "end_column": "116", 
        "end_line": "35", 
        "line": "35", 
        "source_name": "7"
      }
    }, 
    {
      "type_key": "SourceName", 
      "repr_str": "from_string"
    }, 
    {
      "type_key": "relay.TensorType", 
      "attrs": {
        "dtype": "int32", 
        "shape": "9", 
        "span": "0"
      }
    }, 
    {
      "type_key": "Array", 
      "data": [10]
    }, 
    {
      "type_key": "IntImm", 
      "attrs": {
        "dtype": "int32", 
        "span": "0", 
        "value": "1"
      }
    }
  ], 
  "b64ndarrays": [
    "P6G0lvBAXt0AAAAAAAAAAAEAAAAAAAAAAQAAAAAgAQABAAAAAAAAAAQAAAAAAAAAZAAAAA=="
  ], 
  "attrs": {"tvm_version": "0.13.0"}
}