#[version = "0.0.5"]
def @main(%x0: Tensor[(10, 10), float32] /* ty=Tensor[(10, 10), float32] span=from_string:36:18 */, %x1: Tensor[(34, 10), float32] /* ty=Tensor[(34, 10), float32] span=from_string:14:21 */, %x2: Tensor[(38, 10), float32] /* ty=Tensor[(38, 10), float32] span=from_string:15:21 */, %x3: Tensor[(100), float32] /* ty=Tensor[(100), float32] */, %x4: Tensor[(57), int32] /* ty=Tensor[(57), int32] span=from_string:7:65 */, %x5: Tensor[(30, 10), float32] /* ty=Tensor[(30, 10), float32] span=from_string:27:22 */) -> (Tensor[(10, 10), float32], (Tensor[(10, 10), float32], (Tensor[(10, 10), float32],)), (Tensor[(10, 34, 1), float32], Tensor[(10, 38, 1), float32]), Tensor[(10, 34, 1), float32], Tensor[(10, 10), float32], Tensor[(10, 10), float32], Tensor[(1), int32], Tensor[(10, 10), float32], float32) {
  let %x9: Tensor[(57), int32] /* ty=Tensor[(57), int32] */ = %x4;
  let %x6: Tensor[(10, 10), float32] /* ty=Tensor[(10, 10), float32] span=from_string:37:10 */ = multiply(%x0, %x0);
  let %x7: Tensor[(10, 10), float32] /* ty=Tensor[(10, 10), float32] span=from_string:8:18 */ = ones_like(%x6);
  let %x_0 = add(%x0, %x0);
  let %x_1 = zeros_like(%x0);
  let %x_2 = multiply(%x7, %x0);
  let %x_3 = collapse_sum_like(%x_2, %x0);
  let %x_4 = add(%x_1, %x_3);
  let %x_5 = add(%x_4, %x_3);
  let %x_6 = (%x_5,) /* ty=(Tensor[(10, 10), float32],) span=from_string:37:15 */;
  let %x_7 = (%x6, %x_6) /* ty=(Tensor[(10, 10), float32], (Tensor[(10, 10), float32],)) span=from_string:43:9 */;
  let %x_8 = nn.dense(%x6, %x1, units=None);
  let %x_9 = expand_dims(%x_8, axis=2);
  let %x_10 = nn.dense(%x6, %x2, units=None);
  let %x_11 = expand_dims(%x_10, axis=2);
  let %x_12 = (%x_9, %x_11) /* ty=(Tensor[(10, 34, 1), float32], Tensor[(10, 38, 1), float32]) span=from_string:43:14 */;
  let %x_13 = 1f /* ty=float32 span=from_string:18:20 */;
  let %x_14 = add(%x_9, %x_13);
  let %x_15 = annotation.stop_fusion(%x_14);
  let %x_16 = exp(%x_15);
  let %x_17 = zeros(shape=[1], dtype="float32");
  let %x_18 = add(%x_3, %x_17);
  let %x_19 = 1f /* ty=float32 span=from_string:22:20 */;
  let %x_20 = add(%x_18, %x_19);
  let %x_21 = exp(%x_20);
  let %x_22 = squeeze(%x_21);
  let %x_23 = reshape(%x_20, newshape=[100]);
  let %x_24 = reshape(%x_23, newshape=[10, 10]);
  let %x_25 = reshape(%x_24, newshape=[100]);
  let %x_26 = reshape(%x_25, newshape=[10, 10]);
  let %x_27 = meta[relay.Constant][0] /* ty=Tensor[(1), int32] span=from_string:43:39 */;
  let %x_28 = nn.dense(%x7, %x5, units=None);
  let %x_29 = split(%x_28, indices_or_sections=3, axis=1);
  let %x_30 = %x_29.0;
  let %x_31 = sigmoid(%x_30);
  let %x_32 = %x_29.1;
  let %x_33 = tanh(%x_32);
  let %x_34 = %x_29.2;
  let %x_35 = exp(%x_34);
  let %x_36 = multiply(%x_33, %x_35);
  let %x_37 = add(%x_31, %x_36);
  let %x_38 = 0.761594f /* ty=float32 span=from_string:43:124 */;
  let %x_39 = (%x_0, %x_7, %x_12, %x_16, %x_22, %x_26, %x_27, %x_37, %x_38) /* ty=(Tensor[(10, 10), float32], (Tensor[(10, 10), float32], (Tensor[(10, 10), float32],)), (Tensor[(10, 34, 1), float32], Tensor[(10, 38, 1), float32]), Tensor[(10, 34, 1), float32], Tensor[(10, 10), float32], Tensor[(10, 10), float32], Tensor[(1), int32], Tensor[(10, 10), float32], float32) span=from_string:43:3 */;
  let %x_40 = %x_39;
  let %x_41 = %x_40;
  let %x_42 = %x_41;
  %x_42
}

#[metadata]
{
  "root": 1, 
  "nodes": [
    {
      "type_key": ""
    }, 
    {
      "type_key": "Map", 
      "keys": [
        "relay.Constant"
      ], 
      "data": [2]
    }, 
    {
      "type_key": "Array", 
      "data": [3]
    }, 
    {
      "type_key": "relay.Constant", 
      "attrs": {
        "_checked_type_": "8", 
        "data": "0", 
        "span": "6", 
        "virtual_device_": "4"
      }
    }, 
    {
      "type_key": "VirtualDevice", 
      "attrs": {
        "device_type_int": "-1", 
        "memory_scope": "5", 
        "target": "0", 
        "virtual_device_id": "-1"
      }
    }, 
    {
      "type_key": "runtime.String"
    }, 
    {
      "type_key": "Span", 
      "attrs": {
        "column": "39", 
        "end_column": "57", 
        "end_line": "43", 
        "line": "43", 
        "source_name": "7"
      }
    }, 
    {
      "type_key": "SourceName", 
      "repr_str": "from_string"
    }, 
    {
      "type_key": "relay.TensorType", 
      "attrs": {
        "dtype": "int32", 
        "shape": "9", 
        "span": "11"
      }
    }, 
    {
      "type_key": "Array", 
      "data": [10]
    }, 
    {
      "type_key": "IntImm", 
      "attrs": {
        "dtype": "int32", 
        "span": "0", 
        "value": "1"
      }
    }, 
    {
      "type_key": "Span", 
      "attrs": {
        "column": "748", 
        "end_column": "768", 
        "end_line": "2", 
        "line": "2", 
        "source_name": "7"
      }
    }
  ], 
  "b64ndarrays": [
    "P6G0lvBAXt0AAAAAAAAAAAEAAAAAAAAAAQAAAAAgAQABAAAAAAAAAAQAAAAAAAAAZAAAAA=="
  ], 
  "attrs": {"tvm_version": "0.13.0"}
}