#[version = "0.0.5"]
def @main(%x0: Tensor[(10, 10), float32] /* ty=Tensor[(10, 10), float32] span=from_string:9:38 */, %x1: Tensor[(34, 10), float32] /* ty=Tensor[(34, 10), float32] span=from_string:14:28 */, %x2: Tensor[(38, 10), float32] /* ty=Tensor[(38, 10), float32] span=from_string:16:29 */, %x3: Tensor[(100), float32] /* ty=Tensor[(100), float32] */, %x4: Tensor[(57), int32] /* ty=Tensor[(57), int32] span=from_string:3:65 */, %x5: Tensor[(30, 10), float32] /* ty=Tensor[(30, 10), float32] span=from_string:34:29 */) -> (Tensor[(10, 10), float32], (Tensor[(10, 10), float32], (Tensor[(10, 10), float32],)), (Tensor[(10, 34, 1), float32], Tensor[(10, 38, 1), float32]), Tensor[(10, 34, 1), float32], Tensor[(10, 10), float32], Tensor[(10, 10), float32], Tensor[(1), int32], Tensor[(10, 10), float32], float32) {
  let %x6: Tensor[(10, 10), float32] /* ty=Tensor[(10, 10), float32] span=from_string:16:24 */ = multiply(%x0, %x0) /* ty=Tensor[(10, 10), float32] span=from_string:4:99 */;
  let %x7: Tensor[(10, 10), float32] /* ty=Tensor[(10, 10), float32] span=from_string:34:24 */ = ones_like(%x6) /* ty=Tensor[(10, 10), float32] span=from_string:5:97 */;
  let %x_0: Tensor[(10, 10), float32] /* ty=Tensor[(10, 10), float32] span=from_string:45:16 */ = add(%x0, %x0) /* ty=Tensor[(10, 10), float32] span=from_string:6:14 */;
  let %x_1: Tensor[(10, 10), float32] /* ty=Tensor[(10, 10), float32] span=from_string:10:18 */ = zeros_like(%x0) /* ty=Tensor[(10, 10), float32] span=from_string:7:14 */;
  let %x_2: Tensor[(10, 10), float32] /* ty=Tensor[(10, 10), float32] span=from_string:9:32 */ = multiply(%x7, %x0) /* ty=Tensor[(10, 10), float32] span=from_string:8:15 */;
  let %x_3: Tensor[(10, 10), float32] /* ty=Tensor[(10, 10), float32] span=from_string:24:19 */ = collapse_sum_like(%x_2, %x0) /* ty=Tensor[(10, 10), float32] span=from_string:9:14 */;
  let %x_4: Tensor[(10, 10), float32] /* ty=Tensor[(10, 10), float32] span=from_string:11:18 */ = add(%x_1, %x_3) /* ty=Tensor[(10, 10), float32] span=from_string:10:14 */;
  let %x_5: Tensor[(10, 10), float32] /* ty=Tensor[(10, 10), float32] span=from_string:12:15 */ = add(%x_4, %x_3) /* ty=Tensor[(10, 10), float32] span=from_string:11:14 */;
  let %x_6: (Tensor[(10, 10), float32],) /* ty=(Tensor[(10, 10), float32],) span=from_string:13:20 */ = (%x_5,) /* ty=(Tensor[(10, 10), float32],) span=from_string:12:14 */;
  let %x_7: (Tensor[(10, 10), float32], (Tensor[(10, 10), float32],)) /* ty=(Tensor[(10, 10), float32], (Tensor[(10, 10), float32],)) span=from_string:45:22 */ = (%x6, %x_6) /* ty=(Tensor[(10, 10), float32], (Tensor[(10, 10), float32],)) span=from_string:13:14 */;
  let %x_8: Tensor[(10, 34), float32] /* ty=Tensor[(10, 34), float32] span=from_string:15:26 */ = nn.dense(%x6, %x1, units=None) /* ty=Tensor[(10, 34), float32] span=from_string:14:14 */;
  let %x_9: Tensor[(10, 34, 1), float32] /* ty=Tensor[(10, 34, 1), float32] span=from_string:20:19 */ = expand_dims(%x_8, axis=2) /* ty=Tensor[(10, 34, 1), float32] span=from_string:15:14 */;
  let %x_10: Tensor[(10, 38), float32] /* ty=Tensor[(10, 38), float32] span=from_string:17:27 */ = nn.dense(%x6, %x2, units=None) /* ty=Tensor[(10, 38), float32] span=from_string:16:15 */;
  let %x_11: Tensor[(10, 38, 1), float32] /* ty=Tensor[(10, 38, 1), float32] span=from_string:18:22 */ = expand_dims(%x_10, axis=2) /* ty=Tensor[(10, 38, 1), float32] span=from_string:17:15 */;
  let %x_12: (Tensor[(10, 34, 1), float32], Tensor[(10, 38, 1), float32]) /* ty=(Tensor[(10, 34, 1), float32], Tensor[(10, 38, 1), float32]) span=from_string:45:28 */ = (%x_9, %x_11) /* ty=(Tensor[(10, 34, 1), float32], Tensor[(10, 38, 1), float32]) span=from_string:18:15 */;
  let %x_13: float32 /* ty=float32 span=from_string:20:25 */ = 1f /* ty=float32 span=from_string:19:17 */;
  let %x_14: Tensor[(10, 34, 1), float32] /* ty=Tensor[(10, 34, 1), float32] span=from_string:21:38 */ = add(%x_9, %x_13) /* ty=Tensor[(10, 34, 1), float32] span=from_string:20:15 */;
  let %x_15: Tensor[(10, 34, 1), float32] /* ty=Tensor[(10, 34, 1), float32] span=from_string:22:19 */ = annotation.stop_fusion(%x_14) /* ty=Tensor[(10, 34, 1), float32] span=from_string:21:15 */;
  let %x_16: Tensor[(10, 34, 1), float32] /* ty=Tensor[(10, 34, 1), float32] span=from_string:45:35 */ = exp(%x_15) /* ty=Tensor[(10, 34, 1), float32] span=from_string:22:15 */;
  let %x_17: Tensor[(1), float32] /* ty=Tensor[(1), float32] span=from_string:24:25 */ = zeros(shape=[1], dtype="float32") /* ty=Tensor[(1), float32] span=from_string:23:15 */;
  let %x_18: Tensor[(10, 10), float32] /* ty=Tensor[(10, 10), float32] span=from_string:26:19 */ = add(%x_3, %x_17) /* ty=Tensor[(10, 10), float32] span=from_string:24:15 */;
  let %x_19: float32 /* ty=float32 span=from_string:26:26 */ = 1f /* ty=float32 span=from_string:25:17 */;
  let %x_20: Tensor[(10, 10), float32] /* ty=Tensor[(10, 10), float32] span=from_string:29:23 */ = add(%x_18, %x_19) /* ty=Tensor[(10, 10), float32] span=from_string:26:15 */;
  let %x_21: Tensor[(10, 10), float32] /* ty=Tensor[(10, 10), float32] span=from_string:28:23 */ = exp(%x_20) /* ty=Tensor[(10, 10), float32] span=from_string:27:15 */;
  let %x_22: Tensor[(10, 10), float32] /* ty=Tensor[(10, 10), float32] span=from_string:45:42 */ = squeeze(%x_21) /* ty=Tensor[(10, 10), float32] span=from_string:28:15 */;
  let %x_23: Tensor[(100), float32] /* ty=Tensor[(100), float32] span=from_string:30:23 */ = reshape(%x_20, newshape=[100]) /* ty=Tensor[(100), float32] span=from_string:29:15 */;
  let %x_24: Tensor[(10, 10), float32] /* ty=Tensor[(10, 10), float32] span=from_string:31:23 */ = reshape(%x_23, newshape=[10, 10]) /* ty=Tensor[(10, 10), float32] span=from_string:30:15 */;
  let %x_25: Tensor[(100), float32] /* ty=Tensor[(100), float32] span=from_string:32:23 */ = reshape(%x_24, newshape=[100]) /* ty=Tensor[(100), float32] span=from_string:31:15 */;
  let %x_26: Tensor[(10, 10), float32] /* ty=Tensor[(10, 10), float32] span=from_string:45:49 */ = reshape(%x_25, newshape=[10, 10]) /* ty=Tensor[(10, 10), float32] span=from_string:32:15 */;
  let %x_27: Tensor[(1), int32] /* ty=Tensor[(1), int32] span=from_string:45:56 */ = meta[relay.Constant][0] /* ty=Tensor[(1), int32] span=from_string:33:20 */;
  let %x_28: Tensor[(10, 30), float32] /* ty=Tensor[(10, 30), float32] span=from_string:35:21 */ = nn.dense(%x7, %x5, units=None) /* ty=Tensor[(10, 30), float32] span=from_string:34:15 */;
  let %x_29: (Tensor[(10, 10), float32], Tensor[(10, 10), float32], Tensor[(10, 10), float32]) /* ty=(Tensor[(10, 10), float32], Tensor[(10, 10), float32], Tensor[(10, 10), float32]) span=from_string:40:15 */ = split(%x_28, indices_or_sections=3, axis=1) /* ty=(Tensor[(10, 10), float32], Tensor[(10, 10), float32], Tensor[(10, 10), float32]) span=from_string:35:15 */;
  let %x_30: Tensor[(10, 10), float32] /* ty=Tensor[(10, 10), float32] span=from_string:37:23 */ = %x_29.0 /* ty=Tensor[(10, 10), float32] span=from_string:36:15 */;
  let %x_31: Tensor[(10, 10), float32] /* ty=Tensor[(10, 10), float32] span=from_string:43:19 */ = sigmoid(%x_30) /* ty=Tensor[(10, 10), float32] span=from_string:37:15 */;
  let %x_32: Tensor[(10, 10), float32] /* ty=Tensor[(10, 10), float32] span=from_string:39:20 */ = %x_29.1 /* ty=Tensor[(10, 10), float32] span=from_string:38:15 */;
  let %x_33: Tensor[(10, 10), float32] /* ty=Tensor[(10, 10), float32] span=from_string:42:25 */ = tanh(%x_32) /* ty=Tensor[(10, 10), float32] span=from_string:39:15 */;
  let %x_34: Tensor[(10, 10), float32] /* ty=Tensor[(10, 10), float32] span=from_string:41:19 */ = %x_29.2 /* ty=Tensor[(10, 10), float32] span=from_string:40:15 */;
  let %x_35: Tensor[(10, 10), float32] /* ty=Tensor[(10, 10), float32] span=from_string:42:32 */ = exp(%x_34) /* ty=Tensor[(10, 10), float32] span=from_string:41:15 */;
  let %x_36: Tensor[(10, 10), float32] /* ty=Tensor[(10, 10), float32] span=from_string:43:26 */ = multiply(%x_33, %x_35) /* ty=Tensor[(10, 10), float32] span=from_string:42:16 */;
  let %x_37: Tensor[(10, 10), float32] /* ty=Tensor[(10, 10), float32] span=from_string:45:63 */ = add(%x_31, %x_36) /* ty=Tensor[(10, 10), float32] span=from_string:43:15 */;
  let %x_38: float32 /* ty=float32 span=from_string:45:70 */ = 0.761594f /* ty=float32 span=from_string:44:24 */;
  let %x_39: (Tensor[(10, 10), float32], (Tensor[(10, 10), float32], (Tensor[(10, 10), float32],)), (Tensor[(10, 34, 1), float32], Tensor[(10, 38, 1), float32]), Tensor[(10, 34, 1), float32], Tensor[(10, 10), float32], Tensor[(10, 10), float32], Tensor[(1), int32], Tensor[(10, 10), float32], float32) /* ty=(Tensor[(10, 10), float32], (Tensor[(10, 10), float32], (Tensor[(10, 10), float32],)), (Tensor[(10, 34, 1), float32], Tensor[(10, 38, 1), float32]), Tensor[(10, 34, 1), float32], Tensor[(10, 10), float32], Tensor[(10, 10), float32], Tensor[(1), int32], Tensor[(10, 10), float32], float32) span=from_string:46:15 */ = (%x_0, %x_7, %x_12, %x_16, %x_22, %x_26, %x_27, %x_37, %x_38) /* ty=(Tensor[(10, 10), float32], (Tensor[(10, 10), float32], (Tensor[(10, 10), float32],)), (Tensor[(10, 34, 1), float32], Tensor[(10, 38, 1), float32]), Tensor[(10, 34, 1), float32], Tensor[(10, 10), float32], Tensor[(10, 10), float32], Tensor[(1), int32], Tensor[(10, 10), float32], float32) span=from_string:45:15 */;
  let %x_40: (Tensor[(10, 10), float32], (Tensor[(10, 10), float32], (Tensor[(10, 10), float32],)), (Tensor[(10, 34, 1), float32], Tensor[(10, 38, 1), float32]), Tensor[(10, 34, 1), float32], Tensor[(10, 10), float32], Tensor[(10, 10), float32], Tensor[(1), int32], Tensor[(10, 10), float32], float32) /* ty=(Tensor[(10, 10), float32], (Tensor[(10, 10), float32], (Tensor[(10, 10), float32],)), (Tensor[(10, 34, 1), float32], Tensor[(10, 38, 1), float32]), Tensor[(10, 34, 1), float32], Tensor[(10, 10), float32], Tensor[(10, 10), float32], Tensor[(1), int32], Tensor[(10, 10), float32], float32) span=from_string:47:15 */ = %x_39;
  let %x_41: (Tensor[(10, 10), float32], (Tensor[(10, 10), float32], (Tensor[(10, 10), float32],)), (Tensor[(10, 34, 1), float32], Tensor[(10, 38, 1), float32]), Tensor[(10, 34, 1), float32], Tensor[(10, 10), float32], Tensor[(10, 10), float32], Tensor[(1), int32], Tensor[(10, 10), float32], float32) /* ty=(Tensor[(10, 10), float32], (Tensor[(10, 10), float32], (Tensor[(10, 10), float32],)), (Tensor[(10, 34, 1), float32], Tensor[(10, 38, 1), float32]), Tensor[(10, 34, 1), float32], Tensor[(10, 10), float32], Tensor[(10, 10), float32], Tensor[(1), int32], Tensor[(10, 10), float32], float32) span=from_string:48:15 */ = %x_40;
  let %x_42: (Tensor[(10, 10), float32], (Tensor[(10, 10), float32], (Tensor[(10, 10), float32],)), (Tensor[(10, 34, 1), float32], Tensor[(10, 38, 1), float32]), Tensor[(10, 34, 1), float32], Tensor[(10, 10), float32], Tensor[(10, 10), float32], Tensor[(1), int32], Tensor[(10, 10), float32], float32) /* ty=(Tensor[(10, 10), float32], (Tensor[(10, 10), float32], (Tensor[(10, 10), float32],)), (Tensor[(10, 34, 1), float32], Tensor[(10, 38, 1), float32]), Tensor[(10, 34, 1), float32], Tensor[(10, 10), float32], Tensor[(10, 10), float32], Tensor[(1), int32], Tensor[(10, 10), float32], float32) span=from_string:49:3 */ = %x_41;
  %x_42
}

#[metadata]
{
  "root": 1, 
  "nodes": [
    {
      "type_key": ""
    }, 
    {
      "type_key": "Map", 
      "keys": [
        "relay.Constant"
      ], 
      "data": [2]
    }, 
    {
      "type_key": "Array", 
      "data": [3]
    }, 
    {
      "type_key": "relay.Constant", 
      "attrs": {
        "_checked_type_": "8", 
        "data": "0", 
        "span": "6", 
        "virtual_device_": "4"
      }
    }, 
    {
      "type_key": "VirtualDevice", 
      "attrs": {
        "device_type_int": "-1", 
        "memory_scope": "5", 
        "target": "0", 
        "virtual_device_id": "-1"
      }
    }, 
    {
      "type_key": "runtime.String"
    }, 
    {
      "type_key": "Span", 
      "attrs": {
        "column": "20", 
        "end_column": "38", 
        "end_line": "33", 
        "line": "33", 
        "source_name": "7"
      }
    }, 
    {
      "type_key": "SourceName", 
      "repr_str": "from_string"
    }, 
    {
      "type_key": "relay.TensorType", 
      "attrs": {
        "dtype": "int32", 
        "shape": "9", 
        "span": "0"
      }
    }, 
    {
      "type_key": "Array", 
      "data": [10]
    }, 
    {
      "type_key": "IntImm", 
      "attrs": {
        "dtype": "int32", 
        "span": "0", 
        "value": "1"
      }
    }
  ], 
  "b64ndarrays": [
    "P6G0lvBAXt0AAAAAAAAAAAEAAAAAAAAAAQAAAAAgAQABAAAAAAAAAAQAAAAAAAAAZAAAAA=="
  ], 
  "attrs": {"tvm_version": "0.13.0"}
}