#[version = "0.0.5"]
def @main(%x0: Tensor[(10, 10), float32] /* ty=Tensor[(10, 10), float32] span=from_string:8:123 */, %x1: Tensor[(34, 10), float32] /* ty=Tensor[(34, 10), float32] span=from_string:13:113 */, %x2: Tensor[(38, 10), float32] /* ty=Tensor[(38, 10), float32] span=from_string:15:114 */, %x3: Tensor[(100), float32] /* ty=Tensor[(100), float32] */, %x4: Tensor[(57), int32] /* ty=Tensor[(57), int32] */, %x5: Tensor[(30, 10), float32] /* ty=Tensor[(30, 10), float32] span=from_string:33:114 */) -> (Tensor[(10, 10), float32], (Tensor[(10, 10), float32], (Tensor[(10, 10), float32],)), (Tensor[(10, 34, 1), float32], Tensor[(10, 38, 1), float32]), Tensor[(10, 34, 1), float32], Tensor[(10, 10), float32], Tensor[(10, 10), float32], Tensor[(1), int32], Tensor[(10, 10), float32], float32) {
  let %x6: Tensor[(10, 10), float32] /* ty=Tensor[(10, 10), float32] span=from_string:15:109 */ = multiply(%x0, %x0) /* ty=Tensor[(10, 10), float32] span=from_string:3:99 */;
  let %x7: Tensor[(10, 10), float32] /* ty=Tensor[(10, 10), float32] span=from_string:33:109 */ = ones_like(%x6) /* ty=Tensor[(10, 10), float32] span=from_string:4:98 */;
  let %x_0: Tensor[(10, 10), float32] /* ty=Tensor[(10, 10), float32] span=from_string:44:629 */ = add(%x0, %x0) /* ty=Tensor[(10, 10), float32] span=from_string:5:99 */;
  let %x_1: Tensor[(10, 10), float32] /* ty=Tensor[(10, 10), float32] span=from_string:9:103 */ = zeros_like(%x0) /* ty=Tensor[(10, 10), float32] span=from_string:6:99 */;
  let %x_2: Tensor[(10, 10), float32] /* ty=Tensor[(10, 10), float32] span=from_string:8:117 */ = multiply(%x7, %x0) /* ty=Tensor[(10, 10), float32] span=from_string:7:99 */;
  let %x_3: Tensor[(10, 10), float32] /* ty=Tensor[(10, 10), float32] span=from_string:23:104 */ = collapse_sum_like(%x_2, %x0) /* ty=Tensor[(10, 10), float32] span=from_string:8:99 */;
  let %x_4: Tensor[(10, 10), float32] /* ty=Tensor[(10, 10), float32] span=from_string:10:103 */ = add(%x_1, %x_3) /* ty=Tensor[(10, 10), float32] span=from_string:9:99 */;
  let %x_5: Tensor[(10, 10), float32] /* ty=Tensor[(10, 10), float32] span=from_string:11:106 */ = add(%x_4, %x_3) /* ty=Tensor[(10, 10), float32] span=from_string:10:99 */;
  let %x_6: (Tensor[(10, 10), float32],) /* ty=(Tensor[(10, 10), float32],) span=from_string:12:169 */ = (%x_5,) /* ty=(Tensor[(10, 10), float32],) span=from_string:11:105 */;
  let %x_7: (Tensor[(10, 10), float32], (Tensor[(10, 10), float32],)) /* ty=(Tensor[(10, 10), float32], (Tensor[(10, 10), float32],)) span=from_string:44:635 */ = (%x6, %x_6) /* ty=(Tensor[(10, 10), float32], (Tensor[(10, 10), float32],)) span=from_string:12:163 */;
  let %x_8: Tensor[(10, 34), float32] /* ty=Tensor[(10, 34), float32] span=from_string:14:117 */ = nn.dense(%x6, %x1, units=None) /* ty=Tensor[(10, 34), float32] span=from_string:13:99 */;
  let %x_9: Tensor[(10, 34, 1), float32] /* ty=Tensor[(10, 34, 1), float32] span=from_string:19:110 */ = expand_dims(%x_8, axis=2) /* ty=Tensor[(10, 34, 1), float32] span=from_string:14:105 */;
  let %x_10: Tensor[(10, 38), float32] /* ty=Tensor[(10, 38), float32] span=from_string:16:118 */ = nn.dense(%x6, %x2, units=None) /* ty=Tensor[(10, 38), float32] span=from_string:15:100 */;
  let %x_11: Tensor[(10, 38, 1), float32] /* ty=Tensor[(10, 38, 1), float32] span=from_string:17:177 */ = expand_dims(%x_10, axis=2) /* ty=Tensor[(10, 38, 1), float32] span=from_string:16:106 */;
  let %x_12: (Tensor[(10, 34, 1), float32], Tensor[(10, 38, 1), float32]) /* ty=(Tensor[(10, 34, 1), float32], Tensor[(10, 38, 1), float32]) span=from_string:44:641 */ = (%x_9, %x_11) /* ty=(Tensor[(10, 34, 1), float32], Tensor[(10, 38, 1), float32]) span=from_string:17:170 */;
  let %x_13: float32 /* ty=float32 span=from_string:19:116 */ = 1f /* ty=float32 span=from_string:18:66 */;
  let %x_14: Tensor[(10, 34, 1), float32] /* ty=Tensor[(10, 34, 1), float32] span=from_string:20:129 */ = add(%x_9, %x_13) /* ty=Tensor[(10, 34, 1), float32] span=from_string:19:106 */;
  let %x_15: Tensor[(10, 34, 1), float32] /* ty=Tensor[(10, 34, 1), float32] span=from_string:21:110 */ = annotation.stop_fusion(%x_14) /* ty=Tensor[(10, 34, 1), float32] span=from_string:20:106 */;
  let %x_16: Tensor[(10, 34, 1), float32] /* ty=Tensor[(10, 34, 1), float32] span=from_string:44:648 */ = exp(%x_15) /* ty=Tensor[(10, 34, 1), float32] span=from_string:21:106 */;
  let %x_17: Tensor[(1), float32] /* ty=Tensor[(1), float32] span=from_string:23:110 */ = zeros(shape=[1], dtype="float32") /* ty=Tensor[(1), float32] span=from_string:22:90 */;
  let %x_18: Tensor[(10, 10), float32] /* ty=Tensor[(10, 10), float32] span=from_string:25:104 */ = add(%x_3, %x_17) /* ty=Tensor[(10, 10), float32] span=from_string:23:100 */;
  let %x_19: float32 /* ty=float32 span=from_string:25:111 */ = 1f /* ty=float32 span=from_string:24:66 */;
  let %x_20: Tensor[(10, 10), float32] /* ty=Tensor[(10, 10), float32] span=from_string:28:102 */ = add(%x_18, %x_19) /* ty=Tensor[(10, 10), float32] span=from_string:25:100 */;
  let %x_21: Tensor[(10, 10), float32] /* ty=Tensor[(10, 10), float32] span=from_string:27:108 */ = exp(%x_20) /* ty=Tensor[(10, 10), float32] span=from_string:26:100 */;
  let %x_22: Tensor[(10, 10), float32] /* ty=Tensor[(10, 10), float32] span=from_string:44:655 */ = squeeze(%x_21) /* ty=Tensor[(10, 10), float32] span=from_string:27:100 */;
  let %x_23: Tensor[(100), float32] /* ty=Tensor[(100), float32] span=from_string:29:108 */ = reshape(%x_20, newshape=[100]) /* ty=Tensor[(100), float32] span=from_string:28:94 */;
  let %x_24: Tensor[(10, 10), float32] /* ty=Tensor[(10, 10), float32] span=from_string:30:102 */ = reshape(%x_23, newshape=[10, 10]) /* ty=Tensor[(10, 10), float32] span=from_string:29:100 */;
  let %x_25: Tensor[(100), float32] /* ty=Tensor[(100), float32] span=from_string:31:108 */ = reshape(%x_24, newshape=[100]) /* ty=Tensor[(100), float32] span=from_string:30:94 */;
  let %x_26: Tensor[(10, 10), float32] /* ty=Tensor[(10, 10), float32] span=from_string:44:662 */ = reshape(%x_25, newshape=[10, 10]) /* ty=Tensor[(10, 10), float32] span=from_string:31:100 */;
  let %x_27: Tensor[(1), int32] /* ty=Tensor[(1), int32] span=from_string:44:669 */ = meta[relay.Constant][0] /* ty=Tensor[(1), int32] span=from_string:32:93 */;
  let %x_28: Tensor[(10, 30), float32] /* ty=Tensor[(10, 30), float32] span=from_string:34:218 */ = nn.dense(%x7, %x5, units=None) /* ty=Tensor[(10, 30), float32] span=from_string:33:100 */;
  let %x_29: (Tensor[(10, 10), float32], Tensor[(10, 10), float32], Tensor[(10, 10), float32]) /* ty=(Tensor[(10, 10), float32], Tensor[(10, 10), float32], Tensor[(10, 10), float32]) span=from_string:39:100 */ = split(%x_28, indices_or_sections=3, axis=1) /* ty=(Tensor[(10, 10), float32], Tensor[(10, 10), float32], Tensor[(10, 10), float32]) span=from_string:34:212 */;
  let %x_30: Tensor[(10, 10), float32] /* ty=Tensor[(10, 10), float32] span=from_string:36:108 */ = %x_29.0 /* ty=Tensor[(10, 10), float32] span=from_string:35:100 */;
  let %x_31: Tensor[(10, 10), float32] /* ty=Tensor[(10, 10), float32] span=from_string:42:104 */ = sigmoid(%x_30) /* ty=Tensor[(10, 10), float32] span=from_string:36:100 */;
  let %x_32: Tensor[(10, 10), float32] /* ty=Tensor[(10, 10), float32] span=from_string:38:105 */ = %x_29.1 /* ty=Tensor[(10, 10), float32] span=from_string:37:100 */;
  let %x_33: Tensor[(10, 10), float32] /* ty=Tensor[(10, 10), float32] span=from_string:41:110 */ = tanh(%x_32) /* ty=Tensor[(10, 10), float32] span=from_string:38:100 */;
  let %x_34: Tensor[(10, 10), float32] /* ty=Tensor[(10, 10), float32] span=from_string:40:104 */ = %x_29.2 /* ty=Tensor[(10, 10), float32] span=from_string:39:100 */;
  let %x_35: Tensor[(10, 10), float32] /* ty=Tensor[(10, 10), float32] span=from_string:41:117 */ = exp(%x_34) /* ty=Tensor[(10, 10), float32] span=from_string:40:100 */;
  let %x_36: Tensor[(10, 10), float32] /* ty=Tensor[(10, 10), float32] span=from_string:42:111 */ = multiply(%x_33, %x_35) /* ty=Tensor[(10, 10), float32] span=from_string:41:101 */;
  let %x_37: Tensor[(10, 10), float32] /* ty=Tensor[(10, 10), float32] span=from_string:44:676 */ = add(%x_31, %x_36) /* ty=Tensor[(10, 10), float32] span=from_string:42:100 */;
  let %x_38: float32 /* ty=float32 span=from_string:44:683 */ = 0.761594f /* ty=float32 span=from_string:43:73 */;
  let %x_39: (Tensor[(10, 10), float32], (Tensor[(10, 10), float32], (Tensor[(10, 10), float32],)), (Tensor[(10, 34, 1), float32], Tensor[(10, 38, 1), float32]), Tensor[(10, 34, 1), float32], Tensor[(10, 10), float32], Tensor[(10, 10), float32], Tensor[(1), int32], Tensor[(10, 10), float32], float32) /* ty=(Tensor[(10, 10), float32], (Tensor[(10, 10), float32], (Tensor[(10, 10), float32],)), (Tensor[(10, 34, 1), float32], Tensor[(10, 38, 1), float32]), Tensor[(10, 34, 1), float32], Tensor[(10, 10), float32], Tensor[(10, 10), float32], Tensor[(1), int32], Tensor[(10, 10), float32], float32) span=from_string:45:628 */ = (%x_0, %x_7, %x_12, %x_16, %x_22, %x_26, %x_27, %x_37, %x_38) /* ty=(Tensor[(10, 10), float32], (Tensor[(10, 10), float32], (Tensor[(10, 10), float32],)), (Tensor[(10, 34, 1), float32], Tensor[(10, 38, 1), float32]), Tensor[(10, 34, 1), float32], Tensor[(10, 10), float32], Tensor[(10, 10), float32], Tensor[(1), int32], Tensor[(10, 10), float32], float32) span=from_string:44:628 */;
  let %x_40: (Tensor[(10, 10), float32], (Tensor[(10, 10), float32], (Tensor[(10, 10), float32],)), (Tensor[(10, 34, 1), float32], Tensor[(10, 38, 1), float32]), Tensor[(10, 34, 1), float32], Tensor[(10, 10), float32], Tensor[(10, 10), float32], Tensor[(1), int32], Tensor[(10, 10), float32], float32) /* ty=(Tensor[(10, 10), float32], (Tensor[(10, 10), float32], (Tensor[(10, 10), float32],)), (Tensor[(10, 34, 1), float32], Tensor[(10, 38, 1), float32]), Tensor[(10, 34, 1), float32], Tensor[(10, 10), float32], Tensor[(10, 10), float32], Tensor[(1), int32], Tensor[(10, 10), float32], float32) span=from_string:46:628 */ = %x_39;
  let %x_41: (Tensor[(10, 10), float32], (Tensor[(10, 10), float32], (Tensor[(10, 10), float32],)), (Tensor[(10, 34, 1), float32], Tensor[(10, 38, 1), float32]), Tensor[(10, 34, 1), float32], Tensor[(10, 10), float32], Tensor[(10, 10), float32], Tensor[(1), int32], Tensor[(10, 10), float32], float32) /* ty=(Tensor[(10, 10), float32], (Tensor[(10, 10), float32], (Tensor[(10, 10), float32],)), (Tensor[(10, 34, 1), float32], Tensor[(10, 38, 1), float32]), Tensor[(10, 34, 1), float32], Tensor[(10, 10), float32], Tensor[(10, 10), float32], Tensor[(1), int32], Tensor[(10, 10), float32], float32) span=from_string:47:627 */ = %x_40;
  let %x_42: (Tensor[(10, 10), float32], (Tensor[(10, 10), float32], (Tensor[(10, 10), float32],)), (Tensor[(10, 34, 1), float32], Tensor[(10, 38, 1), float32]), Tensor[(10, 34, 1), float32], Tensor[(10, 10), float32], Tensor[(10, 10), float32], Tensor[(1), int32], Tensor[(10, 10), float32], float32) /* ty=(Tensor[(10, 10), float32], (Tensor[(10, 10), float32], (Tensor[(10, 10), float32],)), (Tensor[(10, 34, 1), float32], Tensor[(10, 38, 1), float32]), Tensor[(10, 34, 1), float32], Tensor[(10, 10), float32], Tensor[(10, 10), float32], Tensor[(1), int32], Tensor[(10, 10), float32], float32) span=from_string:48:3 */ = %x_41;
  %x_42
}

#[metadata]
{
  "root": 1, 
  "nodes": [
    {
      "type_key": ""
    }, 
    {
      "type_key": "Map", 
      "keys": [
        "relay.Constant"
      ], 
      "data": [2]
    }, 
    {
      "type_key": "Array", 
      "data": [3]
    }, 
    {
      "type_key": "relay.Constant", 
      "attrs": {
        "_checked_type_": "8", 
        "data": "0", 
        "span": "6", 
        "virtual_device_": "4"
      }
    }, 
    {
      "type_key": "VirtualDevice", 
      "attrs": {
        "device_type_int": "-1", 
        "memory_scope": "5", 
        "target": "0", 
        "virtual_device_id": "-1"
      }
    }, 
    {
      "type_key": "runtime.String"
    }, 
    {
      "type_key": "Span", 
      "attrs": {
        "column": "93", 
        "end_column": "111", 
        "end_line": "32", 
        "line": "32", 
        "source_name": "7"
      }
    }, 
    {
      "type_key": "SourceName", 
      "repr_str": "from_string"
    }, 
    {
      "type_key": "relay.TensorType", 
      "attrs": {
        "dtype": "int32", 
        "shape": "9", 
        "span": "0"
      }
    }, 
    {
      "type_key": "Array", 
      "data": [10]
    }, 
    {
      "type_key": "IntImm", 
      "attrs": {
        "dtype": "int32", 
        "span": "0", 
        "value": "1"
      }
    }
  ], 
  "b64ndarrays": [
    "P6G0lvBAXt0AAAAAAAAAAAEAAAAAAAAAAQAAAAAgAQABAAAAAAAAAAQAAAAAAAAAZAAAAA=="
  ], 
  "attrs": {"tvm_version": "0.13.0"}
}