#[version = "0.0.5"]
def @main(%x0: Tensor[(10, 10), float32] /* ty=Tensor[(10, 10), float32] span=from_string:3:13 */, %x1: Tensor[(34, 10), float32] /* ty=Tensor[(34, 10), float32] span=from_string:17:14 */, %x2: Tensor[(38, 10), float32] /* ty=Tensor[(38, 10), float32] span=from_string:19:14 */, %x3: Tensor[(100), float32] /* ty=Tensor[(100), float32] */, %x4: Tensor[(57), int32] /* ty=Tensor[(57), int32] span=from_string:8:65 */, %x5: Tensor[(30, 10), float32] /* ty=Tensor[(30, 10), float32] span=from_string:36:14 */) -> (Tensor[(10, 10), float16], (Tensor[(10, 10), float16], (Tensor[(10, 10), float16],)), (Tensor[(10, 34, 1), float16], Tensor[(10, 38, 1), float16]), Tensor[(10, 34, 1), float32], Tensor[(10, 10), float32], Tensor[(10, 10), float16], Tensor[(1), int32], Tensor[(10, 10), float32], float32) {
  let %x9: Tensor[(57), int32] /* ty=Tensor[(57), int32] */ = %x4;
  let %x_0 = cast(%x0, dtype="float16");
  let %x6: Tensor[(10, 10), float16] /* ty=Tensor[(10, 10), float16] span=from_string:50:10 */ = multiply(%x_0, %x_0);
  let %x7: Tensor[(10, 10), float16] /* ty=Tensor[(10, 10), float16] span=from_string:12:18 */ = ones_like(%x6);
  let %x_1 = add(%x_0, %x_0);
  let %x_2 = zeros_like(%x_0);
  let %x_3 = multiply(%x7, %x_0);
  let %x_4 = collapse_sum_like(%x_3, %x_0);
  let %x_5 = add(%x_2, %x_4);
  let %x_6 = multiply(%x7, %x_0);
  let %x_7 = collapse_sum_like(%x_6, %x_0);
  let %x_8 = add(%x_5, %x_7);
  let %x_9 = (%x_8,) /* ty=(Tensor[(10, 10), float16],) span=from_string:50:15 */;
  let %x_10 = (%x6, %x_9) /* ty=(Tensor[(10, 10), float16], (Tensor[(10, 10), float16],)) span=from_string:56:9 */;
  let %x_11 = cast(%x1, dtype="float16");
  let %x_12 = nn.dense(%x6, %x_11, units=None, out_dtype="float16");
  let %x_13 = expand_dims(%x_12, axis=2);
  let %x_14 = cast(%x2, dtype="float16");
  let %x_15 = nn.dense(%x6, %x_14, units=None, out_dtype="float16");
  let %x_16 = expand_dims(%x_15, axis=2);
  let %x_17 = (%x_13, %x_16) /* ty=(Tensor[(10, 34, 1), float16], Tensor[(10, 38, 1), float16]) span=from_string:56:14 */;
  let %x_18 = 1f /* ty=float32 span=from_string:23:16 */;
  let %x_19 = cast(%x_18, dtype="float16");
  let %x_20 = add(%x_13, %x_19);
  let %x_21 = annotation.stop_fusion(%x_20);
  let %x_22 = cast(%x_21, dtype="float32");
  let %x_23 = exp(%x_22);
  let %x_24 = zeros(shape=[1], dtype="float16");
  let %x_25 = add(%x_7, %x_24);
  let %x_26 = 1f /* ty=float32 span=from_string:29:16 */;
  let %x_27 = cast(%x_26, dtype="float16");
  let %x_28 = add(%x_25, %x_27);
  let %x_29 = cast(%x_28, dtype="float32");
  let %x_30 = exp(%x_29);
  let %x_31 = squeeze(%x_30);
  let %x_32 = reshape(%x_28, newshape=[100]);
  let %x_33 = reshape(%x_32, newshape=[10, 10]);
  let %x_34 = reshape(%x_33, newshape=[100]);
  let %x_35 = reshape(%x_34, newshape=[10, 10]);
  let %x_36 = meta[relay.Constant][0] /* ty=Tensor[(1), int32] span=from_string:56:39 */;
  let %x_37 = cast(%x5, dtype="float16");
  let %x_38 = nn.dense(%x7, %x_37, units=None, out_dtype="float16");
  let %x_39 = split(%x_38, indices_or_sections=3, axis=1);
  let %x_40 = %x_39.0;
  let %x_41 = sigmoid(%x_40);
  let %x_42 = cast(%x_41, dtype="float32");
  let %x_43 = %x_39.1;
  let %x_44 = tanh(%x_43);
  let %x_45 = cast(%x_44, dtype="float32");
  let %x_46 = %x_39.2;
  let %x_47 = cast(%x_46, dtype="float32");
  let %x_48 = exp(%x_47);
  let %x_49 = multiply(%x_45, %x_48);
  let %x_50 = add(%x_42, %x_49);
  let %x_51 = 0.761594f /* ty=float32 span=from_string:56:124 */;
  let %x_52 = (%x_1, %x_10, %x_17, %x_23, %x_31, %x_35, %x_36, %x_50, %x_51) /* ty=(Tensor[(10, 10), float16], (Tensor[(10, 10), float16], (Tensor[(10, 10), float16],)), (Tensor[(10, 34, 1), float16], Tensor[(10, 38, 1), float16]), Tensor[(10, 34, 1), float32], Tensor[(10, 10), float32], Tensor[(10, 10), float16], Tensor[(1), int32], Tensor[(10, 10), float32], float32) span=from_string:56:3 */;
  let %x_53 = %x_52;
  let %x_54 = %x_53;
  let %x_55 = %x_54;
  %x_55
}

#[metadata]
{
  "root": 1, 
  "nodes": [
    {
      "type_key": ""
    }, 
    {
      "type_key": "Map", 
      "keys": [
        "relay.Constant"
      ], 
      "data": [2]
    }, 
    {
      "type_key": "Array", 
      "data": [3]
    }, 
    {
      "type_key": "relay.Constant", 
      "attrs": {
        "_checked_type_": "8", 
        "data": "0", 
        "span": "6", 
        "virtual_device_": "4"
      }
    }, 
    {
      "type_key": "VirtualDevice", 
      "attrs": {
        "device_type_int": "-1", 
        "memory_scope": "5", 
        "target": "0", 
        "virtual_device_id": "-1"
      }
    }, 
    {
      "type_key": "runtime.String"
    }, 
    {
      "type_key": "Span", 
      "attrs": {
        "column": "39", 
        "end_column": "57", 
        "end_line": "56", 
        "line": "56", 
        "source_name": "7"
      }
    }, 
    {
      "type_key": "SourceName", 
      "repr_str": "from_string"
    }, 
    {
      "type_key": "relay.TensorType", 
      "attrs": {
        "dtype": "int32", 
        "shape": "9", 
        "span": "11"
      }
    }, 
    {
      "type_key": "Array", 
      "data": [10]
    }, 
    {
      "type_key": "IntImm", 
      "attrs": {
        "dtype": "int32", 
        "span": "0", 
        "value": "1"
      }
    }, 
    {
      "type_key": "Span", 
      "attrs": {
        "column": "747", 
        "end_column": "767", 
        "end_line": "2", 
        "line": "2", 
        "source_name": "7"
      }
    }
  ], 
  "b64ndarrays": [
    "P6G0lvBAXt0AAAAAAAAAAAEAAAAAAAAAAQAAAAAgAQABAAAAAAAAAAQAAAAAAAAAZAAAAA=="
  ], 
  "attrs": {"tvm_version": "0.13.0"}
}