#[version = "0.0.5"]
def @main(%x0: Tensor[(10, 10), float32] /* ty=Tensor[(10, 10), float32] span=from_string:3:13 */, %x1: Tensor[(34, 10), float32] /* ty=Tensor[(34, 10), float32] span=from_string:16:14 */, %x2: Tensor[(38, 10), float32] /* ty=Tensor[(38, 10), float32] span=from_string:18:14 */, %x3: Tensor[(100), float32] /* ty=Tensor[(100), float32] */, %x4: Tensor[(57), int32] /* ty=Tensor[(57), int32] */, %x5: Tensor[(30, 10), float32] /* ty=Tensor[(30, 10), float32] span=from_string:35:14 */) -> (Tensor[(10, 10), float16], (Tensor[(10, 10), float16], (Tensor[(10, 10), float16],)), (Tensor[(10, 34, 1), float16], Tensor[(10, 38, 1), float16]), Tensor[(10, 34, 1), float32], Tensor[(10, 10), float32], Tensor[(10, 10), float16], Tensor[(1), int32], Tensor[(10, 10), float32], float32) {
  %0 = cast(%x0, dtype="float16") /* ty=Tensor[(10, 10), float16] span=from_string:48:17 */;
  %1 = multiply(%0, %0) /* ty=Tensor[(10, 10), float16] span=from_string:19:18 */;
  let %x6: Tensor[(10, 10), float16] /* ty=Tensor[(10, 10), float16] span=from_string:49:10 */ = %1;
  %2 = ones_like(%x6) /* ty=Tensor[(10, 10), float16] span=from_string:36:18 */;
  let %x7: Tensor[(10, 10), float16] /* ty=Tensor[(10, 10), float16] span=from_string:11:18 */ = %2;
  %3 = multiply(%x7, %0) /* ty=Tensor[(10, 10), float16] span=from_string:10:26 */;
  %4 = zeros_like(%0) /* ty=Tensor[(10, 10), float16] span=from_string:12:12 */;
  %5 = collapse_sum_like(%3, %0) /* ty=Tensor[(10, 10), float16] span=from_string:12:16 */;
  %6 = multiply(%x7, %0) /* ty=Tensor[(10, 10), float16] span=from_string:13:26 */;
  %7 = add(%4, %5) /* ty=Tensor[(10, 10), float16] span=from_string:14:12 */;
  %8 = collapse_sum_like(%6, %0) /* ty=Tensor[(10, 10), float16] span=from_string:27:13 */;
  %9 = add(%7, %8) /* ty=Tensor[(10, 10), float16] span=from_string:15:10 */;
  %10 = (%9,) /* ty=(Tensor[(10, 10), float16],) span=from_string:49:15 */;
  %11 = cast(%x1, dtype="float16") /* ty=Tensor[(34, 10), float16] span=from_string:17:22 */;
  %12 = nn.dense(%1, %11, units=None, out_dtype="float16") /* ty=Tensor[(10, 34), float16] span=from_string:20:21 */;
  %13 = cast(%x2, dtype="float16") /* ty=Tensor[(38, 10), float16] span=from_string:19:22 */;
  %14 = nn.dense(%1, %13, units=None, out_dtype="float16") /* ty=Tensor[(10, 38), float16] span=from_string:21:21 */;
  %15 = expand_dims(%12, axis=2) /* ty=Tensor[(10, 34, 1), float16] span=from_string:50:10 */;
  %16 = expand_dims(%14, axis=2) /* ty=Tensor[(10, 38, 1), float16] span=from_string:50:15 */;
  %17 = cast(1f /* ty=float32 span=from_string:22:16 */, dtype="float16") /* ty=float16 span=from_string:23:18 */;
  %18 = add(%15, %17) /* ty=Tensor[(10, 34, 1), float16] span=from_string:24:32 */;
  %19 = annotation.stop_fusion(%18) /* ty=Tensor[(10, 34, 1), float16] span=from_string:25:14 */;
  %20 = cast(%19, dtype="float32") /* ty=Tensor[(10, 34, 1), float32] span=from_string:51:13 */;
  %21 = zeros(shape=[1], dtype="float16") /* ty=Tensor[(1), float16] span=from_string:27:17 */;
  %22 = add(%8, %21) /* ty=Tensor[(10, 10), float16] span=from_string:29:13 */;
  %23 = cast(1f /* ty=float32 span=from_string:28:16 */, dtype="float16") /* ty=float16 span=from_string:29:18 */;
  %24 = add(%22, %23) /* ty=Tensor[(10, 10), float16] span=from_string:32:17 */;
  %25 = cast(%24, dtype="float32") /* ty=Tensor[(10, 10), float32] span=from_string:31:13 */;
  %26 = exp(%25) /* ty=Tensor[(10, 10), float32] span=from_string:52:17 */;
  %27 = reshape(%24, newshape=[100]) /* ty=Tensor[(100), float16] span=from_string:33:17 */;
  %28 = reshape(%27, newshape=[10, 10]) /* ty=Tensor[(10, 10), float16] span=from_string:34:17 */;
  %29 = reshape(%28, newshape=[100]) /* ty=Tensor[(100), float16] span=from_string:53:17 */;
  %30 = cast(%x5, dtype="float16") /* ty=Tensor[(30, 10), float16] span=from_string:36:22 */;
  %31 = nn.dense(%2, %30, units=None, out_dtype="float16") /* ty=Tensor[(10, 30), float16] span=from_string:37:15 */;
  %32 = split(%31, indices_or_sections=3, axis=1) /* ty=(Tensor[(10, 10), float16], Tensor[(10, 10), float16], Tensor[(10, 10), float16]) span=from_string:42:9 */;
  %33 = %32.0 /* ty=Tensor[(10, 10), float16] span=from_string:39:17 */;
  %34 = sigmoid(%33) /* ty=Tensor[(10, 10), float16] span=from_string:46:14 */;
  %35 = %32.1 /* ty=Tensor[(10, 10), float16] span=from_string:41:14 */;
  %36 = tanh(%35) /* ty=Tensor[(10, 10), float16] span=from_string:44:14 */;
  %37 = %32.2 /* ty=Tensor[(10, 10), float16] span=from_string:43:14 */;
  %38 = cast(%37, dtype="float32") /* ty=Tensor[(10, 10), float32] span=from_string:45:13 */;
  %39 = cast(%36, dtype="float32") /* ty=Tensor[(10, 10), float32] span=from_string:47:19 */;
  %40 = exp(%38) /* ty=Tensor[(10, 10), float32] span=from_string:47:24 */;
  %41 = cast(%34, dtype="float32") /* ty=Tensor[(10, 10), float32] span=from_string:54:13 */;
  %42 = multiply(%39, %40) /* ty=Tensor[(10, 10), float32] span=from_string:54:18 */;
  %43 = add(%0, %0) /* ty=Tensor[(10, 10), float16] span=from_string:55:4 */;
  %44 = (%x6, %10) /* ty=(Tensor[(10, 10), float16], (Tensor[(10, 10), float16],)) span=from_string:55:9 */;
  %45 = (%15, %16) /* ty=(Tensor[(10, 34, 1), float16], Tensor[(10, 38, 1), float16]) span=from_string:55:14 */;
  %46 = exp(%20) /* ty=Tensor[(10, 34, 1), float32] span=from_string:55:19 */;
  %47 = squeeze(%26) /* ty=Tensor[(10, 10), float32] span=from_string:55:24 */;
  %48 = reshape(%29, newshape=[10, 10]) /* ty=Tensor[(10, 10), float16] span=from_string:55:29 */;
  %49 = add(%41, %42) /* ty=Tensor[(10, 10), float32] span=from_string:55:110 */;
  (%43, %44, %45, %46, %47, %48, meta[relay.Constant][0] /* ty=Tensor[(1), int32] span=from_string:55:39 */, %49, 0.761594f /* ty=float32 span=from_string:55:124 */) /* ty=(Tensor[(10, 10), float16], (Tensor[(10, 10), float16], (Tensor[(10, 10), float16],)), (Tensor[(10, 34, 1), float16], Tensor[(10, 38, 1), float16]), Tensor[(10, 34, 1), float32], Tensor[(10, 10), float32], Tensor[(10, 10), float16], Tensor[(1), int32], Tensor[(10, 10), float32], float32) span=from_string:55:3 */
}

#[metadata]
{
  "root": 1, 
  "nodes": [
    {
      "type_key": ""
    }, 
    {
      "type_key": "Map", 
      "keys": [
        "relay.Constant"
      ], 
      "data": [2]
    }, 
    {
      "type_key": "Array", 
      "data": [3]
    }, 
    {
      "type_key": "relay.Constant", 
      "attrs": {
        "_checked_type_": "8", 
        "data": "0", 
        "span": "6", 
        "virtual_device_": "4"
      }
    }, 
    {
      "type_key": "VirtualDevice", 
      "attrs": {
        "device_type_int": "-1", 
        "memory_scope": "5", 
        "target": "0", 
        "virtual_device_id": "-1"
      }
    }, 
    {
      "type_key": "runtime.String"
    }, 
    {
      "type_key": "Span", 
      "attrs": {
        "column": "39", 
        "end_column": "57", 
        "end_line": "55", 
        "line": "55", 
        "source_name": "7"
      }
    }, 
    {
      "type_key": "SourceName", 
      "repr_str": "from_string"
    }, 
    {
      "type_key": "relay.TensorType", 
      "attrs": {
        "dtype": "int32", 
        "shape": "9", 
        "span": "11"
      }
    }, 
    {
      "type_key": "Array", 
      "data": [10]
    }, 
    {
      "type_key": "IntImm", 
      "attrs": {
        "dtype": "int32", 
        "span": "0", 
        "value": "1"
      }
    }, 
    {
      "type_key": "Span", 
      "attrs": {
        "column": "725", 
        "end_column": "745", 
        "end_line": "2", 
        "line": "2", 
        "source_name": "7"
      }
    }
  ], 
  "b64ndarrays": [
    "P6G0lvBAXt0AAAAAAAAAAAEAAAAAAAAAAQAAAAAgAQABAAAAAAAAAAQAAAAAAAAAZAAAAA=="
  ], 
  "attrs": {"tvm_version": "0.13.0"}
}