#[version = "0.0.5"]
def @main(%x0: Tensor[(10, 10), float32] /* ty=Tensor[(10, 10), float32] span=from_string:3:13 */, %x1: Tensor[(34, 10), float32] /* ty=Tensor[(34, 10), float32] span=from_string:16:14 */, %x2: Tensor[(38, 10), float32] /* ty=Tensor[(38, 10), float32] span=from_string:19:14 */, %x3: Tensor[(100), float32] /* ty=Tensor[(100), float32] */, %x4: Tensor[(57), int32] /* ty=Tensor[(57), int32] */, %x5: Tensor[(30, 10), float32] /* ty=Tensor[(30, 10), float32] span=from_string:34:14 */) -> (Tensor[(10, 10), float16], (Tensor[(10, 10), float16], (Tensor[(10, 10), float16],)), (Tensor[(10, 34, 1), float16], Tensor[(10, 38, 1), float16]), Tensor[(10, 34, 1), float32], Tensor[(10, 10), float32], Tensor[(10, 10), float16], Tensor[(1), int32], Tensor[(10, 10), float32], float32) {
  %0 = cast(%x0, dtype="float16") /* ty=Tensor[(10, 10), float16] span=from_string:9:13 */;
  %1 = cast(%0, dtype="float16") /* ty=Tensor[(10, 10), float16] span=from_string:11:23 */;
  %2 = multiply(%1, %1) /* ty=Tensor[(10, 10), float16] span=from_string:21:18 */;
  let %x6: Tensor[(10, 10), float16] /* ty=Tensor[(10, 10), float16] span=from_string:49:10 */ = %2;
  %3 = ones(shape=[10, 10], dtype="float16") /* ty=Tensor[(10, 10), float16] span=from_string:36:18 */;
  let %x7: Tensor[(10, 10), float16] /* ty=Tensor[(10, 10), float16] span=from_string:11:18 */ = %3;
  %4 = cast(%0, dtype="float16") /* ty=Tensor[(10, 10), float16] span=from_string:48:19 */;
  %5 = multiply(%x7, %1) /* ty=Tensor[(10, 10), float16] span=from_string:12:24 */;
  %6 = multiply(%x7, %1) /* ty=Tensor[(10, 10), float16] span=from_string:13:24 */;
  %7 = collapse_sum_to(%5, meta[relay.Constant][0] /* ty=Tensor[(2), int32] span=from_string:12:33 */, meta[relay.attrs.InitOpAttrs][0]) /* ty=Tensor[(10, 10), float16] span=from_string:14:12 */;
  %8 = collapse_sum_to(%6, meta[relay.Constant][1] /* ty=Tensor[(2), int32] span=from_string:13:33 */, meta[relay.attrs.InitOpAttrs][1]) /* ty=Tensor[(10, 10), float16] span=from_string:31:13 */;
  %9 = add(%7, %8) /* ty=Tensor[(10, 10), float16] span=from_string:15:10 */;
  %10 = (%9,) /* ty=(Tensor[(10, 10), float16],) span=from_string:49:15 */;
  %11 = cast(%x1, dtype="float16") /* ty=Tensor[(34, 10), float16] span=from_string:17:14 */;
  %12 = cast(%11, dtype="float16") /* ty=Tensor[(34, 10), float16] span=from_string:18:22 */;
  %13 = nn.dense(%2, %12, units=None, out_dtype="float16") /* ty=Tensor[(10, 34), float16] span=from_string:22:21 */;
  %14 = cast(%x2, dtype="float16") /* ty=Tensor[(38, 10), float16] span=from_string:20:14 */;
  %15 = cast(%14, dtype="float16") /* ty=Tensor[(38, 10), float16] span=from_string:21:22 */;
  %16 = nn.dense(%2, %15, units=None, out_dtype="float16") /* ty=Tensor[(10, 38), float16] span=from_string:23:21 */;
  %17 = expand_dims(%13, axis=2) /* ty=Tensor[(10, 34, 1), float16] span=from_string:50:10 */;
  %18 = expand_dims(%16, axis=2) /* ty=Tensor[(10, 38, 1), float16] span=from_string:50:15 */;
  %19 = cast(1f /* ty=float32 span=from_string:24:16 */, dtype="float16") /* ty=float16 span=from_string:25:14 */;
  %20 = cast(%19, dtype="float16") /* ty=float16 span=from_string:26:18 */;
  %21 = add(%17, %20) /* ty=Tensor[(10, 34, 1), float16] span=from_string:27:32 */;
  %22 = annotation.stop_fusion(%21) /* ty=Tensor[(10, 34, 1), float16] span=from_string:28:14 */;
  %23 = cast(%22, dtype="float32") /* ty=Tensor[(10, 34, 1), float32] span=from_string:51:13 */;
  %24 = cast(1f /* ty=float32 span=from_string:29:16 */, dtype="float16") /* ty=float16 span=from_string:30:14 */;
  %25 = cast(%24, dtype="float16") /* ty=float16 span=from_string:31:17 */;
  %26 = add(%8, %25) /* ty=Tensor[(10, 10), float16] span=from_string:53:17 */;
  %27 = cast(%26, dtype="float32") /* ty=Tensor[(10, 10), float32] span=from_string:33:13 */;
  %28 = exp(%27) /* ty=Tensor[(10, 10), float32] span=from_string:52:17 */;
  %29 = cast(%x5, dtype="float16") /* ty=Tensor[(30, 10), float16] span=from_string:35:14 */;
  %30 = cast(%29, dtype="float16") /* ty=Tensor[(30, 10), float16] span=from_string:36:22 */;
  %31 = nn.dense(%3, %30, units=None, out_dtype="float16") /* ty=Tensor[(10, 30), float16] span=from_string:37:15 */;
  %32 = split(%31, indices_or_sections=3, axis=1) /* ty=(Tensor[(10, 10), float16], Tensor[(10, 10), float16], Tensor[(10, 10), float16]) span=from_string:42:9 */;
  %33 = %32.0 /* ty=Tensor[(10, 10), float16] span=from_string:39:17 */;
  %34 = sigmoid(%33) /* ty=Tensor[(10, 10), float16] span=from_string:46:14 */;
  %35 = %32.1 /* ty=Tensor[(10, 10), float16] span=from_string:41:14 */;
  %36 = tanh(%35) /* ty=Tensor[(10, 10), float16] span=from_string:44:14 */;
  %37 = %32.2 /* ty=Tensor[(10, 10), float16] span=from_string:43:14 */;
  %38 = cast(%37, dtype="float32") /* ty=Tensor[(10, 10), float32] span=from_string:45:13 */;
  %39 = cast(%36, dtype="float32") /* ty=Tensor[(10, 10), float32] span=from_string:47:19 */;
  %40 = exp(%38) /* ty=Tensor[(10, 10), float32] span=from_string:47:24 */;
  %41 = cast(%34, dtype="float32") /* ty=Tensor[(10, 10), float32] span=from_string:54:13 */;
  %42 = multiply(%39, %40) /* ty=Tensor[(10, 10), float32] span=from_string:54:18 */;
  %43 = multiply(%4, 2f16 /* ty=float16 span=from_string:48:27 */) /* ty=Tensor[(10, 10), float16] span=from_string:55:4 */;
  %44 = (%x6, %10) /* ty=(Tensor[(10, 10), float16], (Tensor[(10, 10), float16],)) span=from_string:55:9 */;
  %45 = (%17, %18) /* ty=(Tensor[(10, 34, 1), float16], Tensor[(10, 38, 1), float16]) span=from_string:55:14 */;
  %46 = exp(%23) /* ty=Tensor[(10, 34, 1), float32] span=from_string:55:19 */;
  %47 = squeeze(%28) /* ty=Tensor[(10, 10), float32] span=from_string:55:24 */;
  %48 = reshape(%26, newshape=[10, 10]) /* ty=Tensor[(10, 10), float16] span=from_string:55:29 */;
  %49 = add(%41, %42) /* ty=Tensor[(10, 10), float32] span=from_string:55:110 */;
  (%43, %44, %45, %46, %47, %48, meta[relay.Constant][2] /* ty=Tensor[(1), int32] span=from_string:55:39 */, %49, 0.761594f /* ty=float32 span=from_string:55:124 */) /* ty=(Tensor[(10, 10), float16], (Tensor[(10, 10), float16], (Tensor[(10, 10), float16],)), (Tensor[(10, 34, 1), float16], Tensor[(10, 38, 1), float16]), Tensor[(10, 34, 1), float32], Tensor[(10, 10), float32], Tensor[(10, 10), float16], Tensor[(1), int32], Tensor[(10, 10), float32], float32) span=from_string:55:3 */
}

#[metadata]
{
  "root": 1, 
  "nodes": [
    {
      "type_key": ""
    }, 
    {
      "type_key": "Map", 
      "keys": [
        "relay.attrs.InitOpAttrs", 
        "relay.Constant"
      ], 
      "data": [2, 9]
    }, 
    {
      "type_key": "Array", 
      "data": [3, 7]
    }, 
    {
      "type_key": "relay.attrs.InitOpAttrs", 
      "attrs": {
        "dtype": "float16", 
        "shape": "4"
      }
    }, 
    {
      "type_key": "Array", 
      "data": [5, 6]
    }, 
    {
      "type_key": "IntImm", 
      "attrs": {
        "dtype": "int32", 
        "span": "0", 
        "value": "10"
      }
    }, 
    {
      "type_key": "IntImm", 
      "attrs": {
        "dtype": "int32", 
        "span": "0", 
        "value": "10"
      }
    }, 
    {
      "type_key": "relay.attrs.InitOpAttrs", 
      "attrs": {
        "dtype": "float16", 
        "shape": "8"
      }
    }, 
    {
      "type_key": "Array", 
      "data": [5, 6]
    }, 
    {
      "type_key": "Array", 
      "data": [10, 18, 23]
    }, 
    {
      "type_key": "relay.Constant", 
      "attrs": {
        "_checked_type_": "15", 
        "data": "0", 
        "span": "13", 
        "virtual_device_": "11"
      }
    }, 
    {
      "type_key": "VirtualDevice", 
      "attrs": {
        "device_type_int": "-1", 
        "memory_scope": "12", 
        "target": "0", 
        "virtual_device_id": "-1"
      }
    }, 
    {
      "type_key": "runtime.String"
    }, 
    {
      "type_key": "Span", 
      "attrs": {
        "column": "33", 
        "end_column": "51", 
        "end_line": "12", 
        "line": "12", 
        "source_name": "14"
      }
    }, 
    {
      "type_key": "SourceName", 
      "repr_str": "from_string"
    }, 
    {
      "type_key": "relay.TensorType", 
      "attrs": {
        "dtype": "int32", 
        "shape": "16", 
        "span": "0"
      }
    }, 
    {
      "type_key": "Array", 
      "data": [17]
    }, 
    {
      "type_key": "IntImm", 
      "attrs": {
        "dtype": "int32", 
        "span": "0", 
        "value": "2"
      }
    }, 
    {
      "type_key": "relay.Constant", 
      "attrs": {
        "_checked_type_": "20", 
        "data": "1", 
        "span": "19", 
        "virtual_device_": "11"
      }
    }, 
    {
      "type_key": "Span", 
      "attrs": {
        "column": "33", 
        "end_column": "51", 
        "end_line": "13", 
        "line": "13", 
        "source_name": "14"
      }
    }, 
    {
      "type_key": "relay.TensorType", 
      "attrs": {
        "dtype": "int32", 
        "shape": "21", 
        "span": "0"
      }
    }, 
    {
      "type_key": "Array", 
      "data": [22]
    }, 
    {
      "type_key": "IntImm", 
      "attrs": {
        "dtype": "int32", 
        "span": "0", 
        "value": "2"
      }
    }, 
    {
      "type_key": "relay.Constant", 
      "attrs": {
        "_checked_type_": "27", 
        "data": "2", 
        "span": "26", 
        "virtual_device_": "24"
      }
    }, 
    {
      "type_key": "VirtualDevice", 
      "attrs": {
        "device_type_int": "-1", 
        "memory_scope": "25", 
        "target": "0", 
        "virtual_device_id": "-1"
      }
    }, 
    {
      "type_key": "runtime.String"
    }, 
    {
      "type_key": "Span", 
      "attrs": {
        "column": "39", 
        "end_column": "57", 
        "end_line": "55", 
        "line": "55", 
        "source_name": "14"
      }
    }, 
    {
      "type_key": "relay.TensorType", 
      "attrs": {
        "dtype": "int32", 
        "shape": "28", 
        "span": "30"
      }
    }, 
    {
      "type_key": "Array", 
      "data": [29]
    }, 
    {
      "type_key": "IntImm", 
      "attrs": {
        "dtype": "int32", 
        "span": "0", 
        "value": "1"
      }
    }, 
    {
      "type_key": "Span", 
      "attrs": {
        "column": "725", 
        "end_column": "745", 
        "end_line": "2", 
        "line": "2", 
        "source_name": "14"
      }
    }
  ], 
  "b64ndarrays": [
    "P6G0lvBAXt0AAAAAAAAAAAEAAAAAAAAAAQAAAAAgAQACAAAAAAAAAAgAAAAAAAAACgAAAAoAAAA=", 
    "P6G0lvBAXt0AAAAAAAAAAAEAAAAAAAAAAQAAAAAgAQACAAAAAAAAAAgAAAAAAAAACgAAAAoAAAA=", 
    "P6G0lvBAXt0AAAAAAAAAAAEAAAAAAAAAAQAAAAAgAQABAAAAAAAAAAQAAAAAAAAAZAAAAA=="
  ], 
  "attrs": {"tvm_version": "0.13.0"}
}