#[version = "0.0.5"]
def @main(%x0: Tensor[(3, 3, 5), float32] /* ty=Tensor[(3, 3, 5), float32] span=from_string:4:23 */, %x1: Tensor[(3, 3, 3), int32] /* ty=Tensor[(3, 3, 3), int32] span=from_string:17:23 */, %x2: Tensor[(3, 3, 5), float32] /* ty=Tensor[(3, 3, 5), float32] span=from_string:9:30 */, %x3: Tensor[(5), float32] /* ty=Tensor[(5), float32] span=from_string:15:39 */, %x4: Tensor[(5), float32] /* ty=Tensor[(5), float32] span=from_string:12:32 */, %x5: Tensor[(5), float32] /* ty=Tensor[(5), float32] span=from_string:13:33 */, %x6: Tensor[(5), float32] /* ty=Tensor[(5), float32] */, %x7: Tensor[(10), int32] /* ty=Tensor[(10), int32] span=from_string:16:32 */, %x8: int32 /* ty=int32 span=from_string:17:28 */, %x9: int32 /* ty=int32 span=from_string:17:33 */) -> (Tensor[(3, 3, 5), int32], Tensor[(3, 3, 5), float32], Tensor[(3, 3, 5), float32], Tensor[(3, 3, 5), float32], Tensor[(3, 3, 5), float32], int32, Tensor[(5), int32], Tensor[(6, 3, 3, 3), float32]) {
  let %x_0: Tensor[(3, 3, 5), int32] /* ty=Tensor[(3, 3, 5), int32] span=from_string:18:16 */ = cast_like(%x0, %x1) /* ty=Tensor[(3, 3, 5), int32] span=from_string:3:14 */;
  let %x_1: Tensor[(3, 3, 5), float32] /* ty=Tensor[(3, 3, 5), float32] span=from_string:9:24 */ = subtract(%x0, %x2) /* ty=Tensor[(3, 3, 5), float32] span=from_string:4:14 */;
  let %x_3: Tensor[(3, 3, 5), float32] /* ty=Tensor[(3, 3, 5), float32] span=from_string:15:33 */ = add(%x_1, 1f /* ty=float32 span=from_string:5:16 */) /* ty=Tensor[(3, 3, 5), float32] span=from_string:6:14 */;
  let %x_4: Tensor[(3, 3, 5), float32] /* ty=Tensor[(3, 3, 5), float32] span=from_string:13:38 */ = exp(%x_3) /* ty=Tensor[(3, 3, 5), float32] span=from_string:7:14 */;
  let %x_5: Tensor[(3, 3, 5), float32] /* ty=Tensor[(3, 3, 5), float32] span=from_string:18:22 */ = squeeze(%x_4) /* ty=Tensor[(3, 3, 5), float32] span=from_string:8:14 */;
  let %x_6: Tensor[(3, 3, 5), float32] /* ty=Tensor[(3, 3, 5), float32] span=from_string:11:18 */ = multiply(%x_1, %x2) /* ty=Tensor[(3, 3, 5), float32] span=from_string:9:15 */;
  let %x_7: Tensor[(3, 3, 5), float32] /* ty=Tensor[(3, 3, 5), float32] span=from_string:12:37 */ = zeros_like(%x_6) /* ty=Tensor[(3, 3, 5), float32] span=from_string:10:14 */;
  let %x_8: Tensor[(3, 3, 5), float32] /* ty=Tensor[(3, 3, 5), float32] span=from_string:18:28 */ = add(%x_6, %x_7) /* ty=Tensor[(3, 3, 5), float32] span=from_string:11:14 */;
  let %x_9: Tensor[(3, 3, 5), float32] /* ty=Tensor[(3, 3, 5), float32] span=from_string:18:34 */ = broadcast_to_like(%x4, %x_7) /* ty=Tensor[(3, 3, 5), float32] span=from_string:12:14 */;
  let %x_10: Tensor[(3, 3, 5), float32] /* ty=Tensor[(3, 3, 5), float32] span=from_string:18:40 */ = broadcast_to_like(%x5, %x_4) /* ty=Tensor[(3, 3, 5), float32] span=from_string:13:15 */;
  let %x_12: Tensor[(5), float32] /* ty=Tensor[(5), float32] span=from_string:16:25 */ = collapse_sum_like(%x_3, %x3) /* ty=Tensor[(5), float32] span=from_string:15:15 */;
  let %x_13: Tensor[(5), int32] /* ty=Tensor[(5), int32] span=from_string:18:54 */ = cast_like(%x_12, %x7) /* ty=Tensor[(5), int32] span=from_string:16:15 */;
  let %x_14: Tensor[(6, 3, 3, 3), float32] /* ty=Tensor[(6, 3, 3, 3), float32] span=from_string:18:61 */ = one_hot(%x1, %x8, %x9, depth=6, axis=0, dtype="float32") /* ty=Tensor[(6, 3, 3, 3), float32] span=from_string:17:15 */;
  let %x_15: (Tensor[(3, 3, 5), int32], Tensor[(3, 3, 5), float32], Tensor[(3, 3, 5), float32], Tensor[(3, 3, 5), float32], Tensor[(3, 3, 5), float32], int32, Tensor[(5), int32], Tensor[(6, 3, 3, 3), float32]) /* ty=(Tensor[(3, 3, 5), int32], Tensor[(3, 3, 5), float32], Tensor[(3, 3, 5), float32], Tensor[(3, 3, 5), float32], Tensor[(3, 3, 5), float32], int32, Tensor[(5), int32], Tensor[(6, 3, 3, 3), float32]) span=from_string:19:3 */ = (%x_0, %x_5, %x_8, %x_9, %x_10, 5 /* ty=int32 span=from_string:14:16 */, %x_13, %x_14) /* ty=(Tensor[(3, 3, 5), int32], Tensor[(3, 3, 5), float32], Tensor[(3, 3, 5), float32], Tensor[(3, 3, 5), float32], Tensor[(3, 3, 5), float32], int32, Tensor[(5), int32], Tensor[(6, 3, 3, 3), float32]) span=from_string:18:15 */;
  %x_15
}
