#[version = "0.0.5"]
def @main(%x0: Tensor[(3, 3, 5), float32] /* ty=Tensor[(3, 3, 5), float32] span=from_string:4:110 */, %x1: Tensor[(3, 3, 3), int32] /* ty=Tensor[(3, 3, 3), int32] span=from_string:15:117 */, %x2: Tensor[(3, 3, 5), float32] /* ty=Tensor[(3, 3, 5), float32] span=from_string:8:118 */, %x3: Tensor[(5), float32] /* ty=Tensor[(5), float32] span=from_string:13:114 */, %x4: Tensor[(5), float32] /* ty=Tensor[(5), float32] span=from_string:11:120 */, %x5: Tensor[(5), float32] /* ty=Tensor[(5), float32] span=from_string:12:121 */, %x6: Tensor[(5), float32] /* ty=Tensor[(5), float32] */, %x7: Tensor[(10), int32] /* ty=Tensor[(10), int32] span=from_string:14:106 */, %x8: int32 /* ty=int32 span=from_string:15:122 */, %x9: int32 /* ty=int32 span=from_string:15:127 */) -> (Tensor[(3, 3, 5), int32], Tensor[(3, 3, 5), float32], Tensor[(3, 3, 5), float32], Tensor[(3, 3, 5), float32], Tensor[(3, 3, 5), float32], int32, Tensor[(5), int32], Tensor[(6, 3, 3, 3), float32]) {
  let %x_0: Tensor[(3, 3, 5), int32] /* ty=Tensor[(3, 3, 5), int32] span=from_string:16:448 */ = cast_like(%x0, %x1) /* ty=Tensor[(3, 3, 5), int32] span=from_string:3:100 */;
  let %x_1: Tensor[(3, 3, 5), float32] /* ty=Tensor[(3, 3, 5), float32] span=from_string:8:112 */ = subtract(%x0, %x2) /* ty=Tensor[(3, 3, 5), float32] span=from_string:4:101 */;
  let %x_3: Tensor[(3, 3, 5), float32] /* ty=Tensor[(3, 3, 5), float32] span=from_string:13:108 */ = add(%x_1, 1f /* ty=float32 span=from_string:5:114 */) /* ty=Tensor[(3, 3, 5), float32] span=from_string:5:102 */;
  let %x_4: Tensor[(3, 3, 5), float32] /* ty=Tensor[(3, 3, 5), float32] span=from_string:12:126 */ = exp(%x_3) /* ty=Tensor[(3, 3, 5), float32] span=from_string:6:102 */;
  let %x_5: Tensor[(3, 3, 5), float32] /* ty=Tensor[(3, 3, 5), float32] span=from_string:16:454 */ = squeeze(%x_4) /* ty=Tensor[(3, 3, 5), float32] span=from_string:7:102 */;
  let %x_6: Tensor[(3, 3, 5), float32] /* ty=Tensor[(3, 3, 5), float32] span=from_string:10:106 */ = multiply(%x_1, %x2) /* ty=Tensor[(3, 3, 5), float32] span=from_string:8:103 */;
  let %x_7: Tensor[(3, 3, 5), float32] /* ty=Tensor[(3, 3, 5), float32] span=from_string:11:125 */ = zeros_like(%x_6) /* ty=Tensor[(3, 3, 5), float32] span=from_string:9:102 */;
  let %x_8: Tensor[(3, 3, 5), float32] /* ty=Tensor[(3, 3, 5), float32] span=from_string:16:460 */ = add(%x_6, %x_7) /* ty=Tensor[(3, 3, 5), float32] span=from_string:10:102 */;
  let %x_9: Tensor[(3, 3, 5), float32] /* ty=Tensor[(3, 3, 5), float32] span=from_string:16:466 */ = broadcast_to_like(%x4, %x_7) /* ty=Tensor[(3, 3, 5), float32] span=from_string:11:102 */;
  let %x_10: Tensor[(3, 3, 5), float32] /* ty=Tensor[(3, 3, 5), float32] span=from_string:16:472 */ = broadcast_to_like(%x5, %x_4) /* ty=Tensor[(3, 3, 5), float32] span=from_string:12:103 */;
  let %x_12: Tensor[(5), float32] /* ty=Tensor[(5), float32] span=from_string:14:99 */ = collapse_sum_like(%x_3, %x3) /* ty=Tensor[(5), float32] span=from_string:13:90 */;
  let %x_13: Tensor[(5), int32] /* ty=Tensor[(5), int32] span=from_string:16:520 */ = cast_like(%x_12, %x7) /* ty=Tensor[(5), int32] span=from_string:14:89 */;
  let %x_14: Tensor[(6, 3, 3, 3), float32] /* ty=Tensor[(6, 3, 3, 3), float32] span=from_string:16:527 */ = one_hot(%x1, %x8, %x9, depth=6, axis=0, dtype="float32") /* ty=Tensor[(6, 3, 3, 3), float32] span=from_string:15:109 */;
  let %x_15: (Tensor[(3, 3, 5), int32], Tensor[(3, 3, 5), float32], Tensor[(3, 3, 5), float32], Tensor[(3, 3, 5), float32], Tensor[(3, 3, 5), float32], int32, Tensor[(5), int32], Tensor[(6, 3, 3, 3), float32]) /* ty=(Tensor[(3, 3, 5), int32], Tensor[(3, 3, 5), float32], Tensor[(3, 3, 5), float32], Tensor[(3, 3, 5), float32], Tensor[(3, 3, 5), float32], int32, Tensor[(5), int32], Tensor[(6, 3, 3, 3), float32]) span=from_string:17:3 */ = (%x_0, %x_5, %x_8, %x_9, %x_10, 5 /* ty=int32 span=from_string:16:480 */, %x_13, %x_14) /* ty=(Tensor[(3, 3, 5), int32], Tensor[(3, 3, 5), float32], Tensor[(3, 3, 5), float32], Tensor[(3, 3, 5), float32], Tensor[(3, 3, 5), float32], int32, Tensor[(5), int32], Tensor[(6, 3, 3, 3), float32]) span=from_string:16:447 */;
  %x_15
}
