#[version = "0.0.5"]
def @main(%x0: Tensor[(3, 3, 5), float32] /* ty=Tensor[(3, 3, 5), float32] span=GeneratedSource:3:13 */, %x1: Tensor[(3, 3, 3), int32] /* ty=Tensor[(3, 3, 3), int32] span=GeneratedSource:21:17 */, %x2: Tensor[(3, 3, 5), float32] /* ty=Tensor[(3, 3, 5), float32] span=GeneratedSource:4:13 */, %x3: Tensor[(5), float32] /* ty=Tensor[(5), float32] span=GeneratedSource:13:14 */, %x4: Tensor[(5), float32] /* ty=Tensor[(5), float32] span=GeneratedSource:12:13 */, %x5: Tensor[(5), float32] /* ty=Tensor[(5), float32] span=GeneratedSource:19:27 */, %x6: Tensor[(5), float32] /* ty=Tensor[(5), float32] */, %x7: Tensor[(10), int32] /* ty=Tensor[(10), int32] span=GeneratedSource:20:24 */, %x8: int32 /* ty=int32 span=GeneratedSource:21:22 */, %x9: int32 /* ty=int32 span=GeneratedSource:21:27 */) -> (Tensor[(3, 3, 5), int32], Tensor[(3, 3, 5), float32], Tensor[(3, 3, 5), float16], Tensor[(3, 3, 5), float16], Tensor[(3, 3, 5), float32], int32, Tensor[(5), int32], Tensor[(6, 3, 3, 3), float32]) {
  %0 = cast(%x0, dtype="float16") /* ty=Tensor[(3, 3, 5), float16] span=GeneratedSource:15:19 */;
  %1 = cast(%x2, dtype="float16") /* ty=Tensor[(3, 3, 5), float16] span=GeneratedSource:10:22 */;
  %2 = subtract(%0, %1) /* ty=Tensor[(3, 3, 5), float16] span=GeneratedSource:10:18 */;
  %3 = cast(1f /* ty=float32 span=GeneratedSource:6:15 */, dtype="float16") /* ty=float16 span=GeneratedSource:7:16 */;
  %4 = add(%2, %3) /* ty=Tensor[(3, 3, 5), float16] span=GeneratedSource:14:27 */;
  %5 = cast(%4, dtype="float32") /* ty=Tensor[(3, 3, 5), float32] span=GeneratedSource:9:12 */;
  %6 = exp(%5) /* ty=Tensor[(3, 3, 5), float32] span=GeneratedSource:19:32 */;
  %7 = multiply(%2, %1) /* ty=Tensor[(3, 3, 5), float16] span=GeneratedSource:17:13 */;
  %8 = zeros_like(%7) /* ty=Tensor[(3, 3, 5), float16] span=GeneratedSource:18:31 */;
  %9 = cast(%x4, dtype="float16") /* ty=Tensor[(5), float16] span=GeneratedSource:18:27 */;
  %10 = cast(%x3, dtype="float16") /* ty=Tensor[(5), float16] span=GeneratedSource:14:31 */;
  %11 = collapse_sum_like(%4, %10) /* ty=Tensor[(5), float16] span=GeneratedSource:20:19 */;
  %12 = cast_like(%0, %x1) /* ty=Tensor[(3, 3, 5), int32] span=GeneratedSource:22:4 */;
  %13 = squeeze(%6) /* ty=Tensor[(3, 3, 5), float32] span=GeneratedSource:22:9 */;
  %14 = add(%7, %8) /* ty=Tensor[(3, 3, 5), float16] span=GeneratedSource:22:14 */;
  %15 = broadcast_to_like(%9, %8) /* ty=Tensor[(3, 3, 5), float16] span=GeneratedSource:22:19 */;
  %16 = broadcast_to_like(%x5, %6) /* ty=Tensor[(3, 3, 5), float32] span=GeneratedSource:22:24 */;
  %17 = cast_like(%11, %x7) /* ty=Tensor[(5), int32] span=GeneratedSource:22:70 */;
  %18 = one_hot(%x1, %x8, %x9, depth=6, axis=0, dtype="float32") /* ty=Tensor[(6, 3, 3, 3), float32] span=GeneratedSource:22:75 */;
  (%12, %13, %14, %15, %16, 5 /* ty=int32 span=GeneratedSource:22:30 */, %17, %18) /* ty=(Tensor[(3, 3, 5), int32], Tensor[(3, 3, 5), float32], Tensor[(3, 3, 5), float16], Tensor[(3, 3, 5), float16], Tensor[(3, 3, 5), float32], int32, Tensor[(5), int32], Tensor[(6, 3, 3, 3), float32]) span=GeneratedSource:3:3 */
}
