#[version = "0.0.5"]
def @main(%x0: Tensor[(1, 16, 16, 16), float32] /* ty=Tensor[(1, 16, 16, 16), float32] span=from_string:3:12 */, %x1: Tensor[(64, 16, 3, 3), float32] /* ty=Tensor[(64, 16, 3, 3), float32] span=from_string:6:13 */, %x2: Tensor[(64, 64, 3, 3), float32] /* ty=Tensor[(64, 64, 3, 3), float32] span=from_string:22:14 */, %x3: Tensor[(64, 16, 3, 3), float32] /* ty=Tensor[(64, 16, 3, 3), float32] span=from_string:43:14 */) -> (Tensor[(1, 64, 16, 16), float16], Tensor[(1, 16, 16, 64), float16], Tensor[(1, 16, 16, 16), float32], Tensor[(1, 64, 16, 16), float16], float32, Tensor[(64, 48, 16), float16], Tensor[(64, 64, 16, 1), float16]) {
  let %x_0 = exp(%x0);
  let %x_1 = zeros_like(%x_0);
  let %x_2 = cast(%x_1, dtype="float16");
  let %x_3 = cast(%x1, dtype="float16");
  let %x_4 = nn.conv2d(%x_2, %x_3, padding=[1, 1, 1, 1], channels=64, kernel_size=[3, 3], out_dtype="float16");
  let %x_5 = nn.relu(%x_4);
  let %x_6 = 1f /* ty=float32 span=from_string:9:15 */;
  let %x_7 = cast(%x_6, dtype="float16");
  let %x_8 = add(%x_5, %x_7);
  let %x_9 = nn.relu(%x_4);
  let %x_10 = 1f /* ty=float32 span=from_string:11:15 */;
  let %x_11 = cast(%x_10, dtype="float16");
  let %x_12 = add(%x_9, %x_11);
  let %x_13 = add(%x_8, %x_12);
  let %x_14 = nn.relu(%x_5);
  let %x_15 = transpose(%x_14, axes=None);
  let %x_16 = transpose(%x_15, axes=None);
  let %x_17 = transpose(%x_16, axes=[0, 2, -1, 1]);
  let %x_18 = transpose(%x_17, axes=None);
  let %x_19 = transpose(%x_18, axes=None);
  let %x_20 = add(%x_0, %x_1);
  let %x_21 = transpose(%x_20, axes=[0, 2, 3, 1]);
  let %x_22 = layout_transform(%x_21, src_layout="NHWC", dst_layout="HWCN");
  let %x_23 = transpose(%x_22, axes=[3, 0, 1, 2]);
  let %x_24 = 0f /* ty=float32 span=from_string:26:16 */;
  let %x_25 = cast(%x_24, dtype="float16");
  let %x_26 = nn.relu(%x_4);
  let %x_27 = cast(%x2, dtype="float16");
  let %x_28 = 2f /* ty=float32 span=from_string:23:16 */;
  let %x_29 = cast(%x_28, dtype="float16");
  let %x_30 = multiply(%x_27, %x_29);
  let %x_31 = nn.conv2d(%x_26, %x_30, padding=[1, 1, 1, 1], channels=64, kernel_size=[3, 3], out_dtype="float16");
  let %x_32 = add(%x_25, %x_31);
  let %x_33 = nn.relu(%x_32);
  let %x_34 = 0f /* ty=float32 span=from_string:55:26 */;
  let %x_35 = squeeze(%x_32);
  let %x_36 = 1f /* ty=float32 span=from_string:30:16 */;
  let %x_37 = cast(%x_36, dtype="float16");
  let %x_38 = add(%x_35, %x_37);
  let %x_39 = squeeze(%x_35);
  let %x_40 = 1f /* ty=float32 span=from_string:32:16 */;
  let %x_41 = cast(%x_40, dtype="float16");
  let %x_42 = add(%x_39, %x_41);
  let %x_43 = 1f /* ty=float32 span=from_string:34:16 */;
  let %x_44 = cast(%x_43, dtype="float16");
  let %x_45 = add(%x_42, %x_44);
  let %x_46 = 1f /* ty=float32 span=from_string:35:16 */;
  let %x_47 = cast(%x_46, dtype="float16");
  let %x_48 = add(%x_35, %x_47);
  let %x_49 = (%x_38, %x_45, %x_48) /* ty=(Tensor[(64, 16, 16), float16], Tensor[(64, 16, 16), float16], Tensor[(64, 16, 16), float16]) span=from_string:40:21 */;
  let %x_50 = concatenate(%x_49, axis=1);
  let %x_51 = squeeze(%x_50);
  let %x_52 = 1f /* ty=float32 span=from_string:42:16 */;
  let %x_53 = cast(%x_52, dtype="float16");
  let %x_54 = add(%x_51, %x_53);
  let %x_55 = 0f /* ty=float32 span=from_string:46:16 */;
  let %x_56 = cast(%x_55, dtype="float16");
  let %x_57 = cast(%x3, dtype="float16");
  let %x_58 = 2f /* ty=float32 span=from_string:44:16 */;
  let %x_59 = cast(%x_58, dtype="float16");
  let %x_60 = multiply(%x_57, %x_59);
  let %x_61 = nn.conv2d(%x_18, %x_60, padding=[1, 1, 1, 1], channels=64, kernel_size=[3, 3], out_dtype="float16");
  let %x_62 = add(%x_56, %x_61);
  let %x_63 = nn.relu(%x_62);
  let %x_64 = (%x_13, %x_19, %x_23, %x_33, %x_34, %x_54, %x_63) /* ty=(Tensor[(1, 64, 16, 16), float16], Tensor[(1, 16, 16, 64), float16], Tensor[(1, 16, 16, 16), float32], Tensor[(1, 64, 16, 16), float16], float32, Tensor[(64, 48, 16), float16], Tensor[(64, 64, 16, 1), float16]) span=from_string:3:3 */;
  %x_64
}
