#[version = "0.0.5"]
def @main(%x0: Tensor[(2, 32), float32] /* ty=Tensor[(2, 32), float32] span=from_string:6:13 */, %x1: Tensor[(16, 32), float32] /* ty=Tensor[(16, 32), float32] span=from_string:7:13 */, %x2: Tensor[(8, 32), float32] /* ty=Tensor[(8, 32), float32] span=from_string:3:13 */, %x3: Tensor[(2, 11, 1), float32] /* ty=Tensor[(2, 11, 1), float32] span=from_string:28:13 */, %x4: Tensor[(2, 16, 1), float32] /* ty=Tensor[(2, 16, 1), float32] span=from_string:30:13 */, %x5: Tensor[(2, 16, 1), float32] /* ty=Tensor[(2, 16, 1), float32] span=from_string:32:13 */, %x6: Tensor[(5, 32), float32] /* ty=Tensor[(5, 32), float32] span=from_string:38:13 */, %x7: float32 /* ty=float32 span=from_string:40:14 */, %x8: Tensor[(32, 32), float32] /* ty=Tensor[(32, 32), float32] span=from_string:42:14 */, %x9: float32 /* ty=float32 span=from_string:44:14 */, %x10: Tensor[(72, 26), int32] /* ty=Tensor[(72, 26), int32] span=from_string:49:112 */) -> ((Tensor[(2, 16, 1), float16], Tensor[(2, 8, 1), float16]), Tensor[(2, 16), float32], (Tensor[(8, 32), float16], (Tensor[(8, 32), float16],)), (Tensor[(2, 11, 16), float16], Tensor[(2, 11, 16), float16], Tensor[(2, 11, 16), float16]), (Tensor[(5, 16), float16], Tensor[(5, 32), float16]), Tensor[(2, 8), float32], Tensor[(8, 32), int32], Tensor[(16, 32), float16]) {
  %0 = cast(%x2, dtype="float16") /* ty=Tensor[(8, 32), float16] span=from_string:20:123 */;
  let %x11: Tensor[(8, 32), float16] /* ty=Tensor[(8, 32), float16] span=from_string:23:161 */ = multiply(%0, %0) /* ty=Tensor[(8, 32), float16] span=from_string:4:98 */;
  let %x12: Tensor[(8, 32), float16] /* ty=Tensor[(8, 32), float16] span=from_string:49:106 */ = ones_like(%x11) /* ty=Tensor[(8, 32), float16] span=from_string:5:97 */;
  %1 = cast(%x0, dtype="float16") /* ty=Tensor[(2, 32), float16] span=from_string:10:104 */;
  %2 = cast(%x1, dtype="float16") /* ty=Tensor[(16, 32), float16] span=from_string:37:104 */;
  let %x_0: Tensor[(2, 16), float16] /* ty=Tensor[(2, 16), float16] span=from_string:13:13 */ = nn.dense(%1, %2, units=None, out_dtype="float16") /* ty=Tensor[(2, 16), float16] span=from_string:8:97 */;
  let %x_1: Tensor[(2, 16, 1), float16] /* ty=Tensor[(2, 16, 1), float16] span=from_string:25:109 */ = expand_dims(%x_0, axis=2) /* ty=Tensor[(2, 16, 1), float16] span=from_string:9:103 */;
  let %x_2: Tensor[(2, 8), float16] /* ty=Tensor[(2, 8), float16] span=from_string:47:14 */ = nn.dense(%1, %0, units=None, out_dtype="float16") /* ty=Tensor[(2, 8), float16] span=from_string:10:95 */;
  let %x_3: Tensor[(2, 8, 1), float16] /* ty=Tensor[(2, 8, 1), float16] span=from_string:12:170 */ = expand_dims(%x_2, axis=2) /* ty=Tensor[(2, 8, 1), float16] span=from_string:11:100 */;
  let %x_4: (Tensor[(2, 16, 1), float16], Tensor[(2, 8, 1), float16]) /* ty=(Tensor[(2, 16, 1), float16], Tensor[(2, 8, 1), float16]) span=from_string:51:781 */ = (%x_1, %x_3) /* ty=(Tensor[(2, 16, 1), float16], Tensor[(2, 8, 1), float16]) span=from_string:12:163 */;
  %3 = cast(%x_0, dtype="float32") /* ty=Tensor[(2, 16), float32] span=from_string:14:108 */;
  let %x_5: Tensor[(2, 16), float32] /* ty=Tensor[(2, 16), float32] span=from_string:51:787 */ = nn.softmax(%3) /* ty=Tensor[(2, 16), float32] span=from_string:14:97 */;
  let %x_6: Tensor[(8, 32), float16] /* ty=Tensor[(8, 32), float16] span=from_string:18:101 */ = zeros_like(%0) /* ty=Tensor[(8, 32), float16] span=from_string:15:97 */;
  let %x_7: Tensor[(8, 32), float16] /* ty=Tensor[(8, 32), float16] span=from_string:17:115 */ = multiply(%x12, %0) /* ty=Tensor[(8, 32), float16] span=from_string:16:98 */;
  let %x_8: Tensor[(8, 32), float16] /* ty=Tensor[(8, 32), float16] span=from_string:18:107 */ = collapse_sum_like(%x_7, %0) /* ty=Tensor[(8, 32), float16] span=from_string:17:97 */;
  let %x_9: Tensor[(8, 32), float16] /* ty=Tensor[(8, 32), float16] span=from_string:21:102 */ = add(%x_6, %x_8) /* ty=Tensor[(8, 32), float16] span=from_string:18:97 */;
  let %x_10: Tensor[(8, 32), float16] /* ty=Tensor[(8, 32), float16] span=from_string:20:116 */ = multiply(%x12, %0) /* ty=Tensor[(8, 32), float16] span=from_string:19:99 */;
  let %x_11: Tensor[(8, 32), float16] /* ty=Tensor[(8, 32), float16] span=from_string:21:108 */ = collapse_sum_like(%x_10, %0) /* ty=Tensor[(8, 32), float16] span=from_string:20:98 */;
  let %x_12: Tensor[(8, 32), float16] /* ty=Tensor[(8, 32), float16] span=from_string:22:105 */ = add(%x_9, %x_11) /* ty=Tensor[(8, 32), float16] span=from_string:21:98 */;
  let %x_13: (Tensor[(8, 32), float16],) /* ty=(Tensor[(8, 32), float16],) span=from_string:23:167 */ = (%x_12,) /* ty=(Tensor[(8, 32), float16],) span=from_string:22:104 */;
  let %x_14: (Tensor[(8, 32), float16], (Tensor[(8, 32), float16],)) /* ty=(Tensor[(8, 32), float16], (Tensor[(8, 32), float16],)) span=from_string:51:793 */ = (%x11, %x_13) /* ty=(Tensor[(8, 32), float16], (Tensor[(8, 32), float16],)) span=from_string:23:160 */;
  let %x_15: float32 /* ty=float32 span=from_string:26:13 */ = 2f /* ty=float32 span=from_string:24:66 */;
  let %x_16: Tensor[(2, 16, 1), float16] /* ty=Tensor[(2, 16, 1), float16] span=from_string:27:115 */ = sqrt(%x_1) /* ty=Tensor[(2, 16, 1), float16] span=from_string:25:104 */;
  %4 = cast(%x_15, dtype="float16") /* ty=float16 span=from_string:27:111 */;
  let %x_17: Tensor[(2, 16, 1), float16] /* ty=Tensor[(2, 16, 1), float16] span=from_string:29:126 */ = divide(%4, %x_16) /* ty=Tensor[(2, 16, 1), float16] span=from_string:27:104 */;
  %5 = cast(%x3, dtype="float16") /* ty=Tensor[(2, 11, 1), float16] span=from_string:33:122 */;
  let %x_18: Tensor[(2, 11, 16), float16] /* ty=Tensor[(2, 11, 16), float16] span=from_string:34:231 */ = nn.batch_matmul(%5, %x_17, out_dtype="float16", transpose_b=True) /* ty=Tensor[(2, 11, 16), float16] span=from_string:29:106 */;
  %6 = cast(%x4, dtype="float16") /* ty=Tensor[(2, 16, 1), float16] span=from_string:31:126 */;
  let %x_19: Tensor[(2, 11, 16), float16] /* ty=Tensor[(2, 11, 16), float16] span=from_string:34:238 */ = nn.batch_matmul(%5, %6, out_dtype="float16", transpose_b=True) /* ty=Tensor[(2, 11, 16), float16] span=from_string:31:106 */;
  %7 = cast(%x5, dtype="float16") /* ty=Tensor[(2, 16, 1), float16] span=from_string:33:126 */;
  let %x_20: Tensor[(2, 11, 16), float16] /* ty=Tensor[(2, 11, 16), float16] span=from_string:34:245 */ = nn.batch_matmul(%5, %7, out_dtype="float16", transpose_b=True) /* ty=Tensor[(2, 11, 16), float16] span=from_string:33:106 */;
  let %x_21: (Tensor[(2, 11, 16), float16], Tensor[(2, 11, 16), float16], Tensor[(2, 11, 16), float16]) /* ty=(Tensor[(2, 11, 16), float16], Tensor[(2, 11, 16), float16], Tensor[(2, 11, 16), float16]) span=from_string:51:800 */ = (%x_18, %x_19, %x_20) /* ty=(Tensor[(2, 11, 16), float16], Tensor[(2, 11, 16), float16], Tensor[(2, 11, 16), float16]) span=from_string:34:230 */;
  let %x_22: float32 /* ty=float32 span=from_string:36:13 */ = 1f /* ty=float32 span=from_string:35:66 */;
  %8 = cast(%x_22, dtype="float16") /* ty=float16 span=from_string:37:108 */;
  let %x_23: Tensor[(16, 32), float16] /* ty=Tensor[(16, 32), float16] span=from_string:39:111 */ = add(%2, %8) /* ty=Tensor[(16, 32), float16] span=from_string:37:100 */;
  %9 = cast(%x6, dtype="float16") /* ty=Tensor[(5, 32), float16] span=from_string:43:107 */;
  let %x_24: Tensor[(5, 16), float16] /* ty=Tensor[(5, 16), float16] span=from_string:41:102 */ = nn.dense(%9, %x_23, units=None, out_dtype="float16") /* ty=Tensor[(5, 16), float16] span=from_string:39:98 */;
  %10 = cast(%x7, dtype="float16") /* ty=float16 span=from_string:41:109 */;
  let %x_25: Tensor[(5, 16), float16] /* ty=Tensor[(5, 16), float16] span=from_string:46:155 */ = add(%x_24, %10) /* ty=Tensor[(5, 16), float16] span=from_string:41:98 */;
  %11 = cast(%x8, dtype="float16") /* ty=Tensor[(32, 32), float16] span=from_string:43:111 */;
  let %x_26: Tensor[(5, 32), float16] /* ty=Tensor[(5, 32), float16] span=from_string:45:102 */ = nn.dense(%9, %11, units=None, out_dtype="float16") /* ty=Tensor[(5, 32), float16] span=from_string:43:98 */;
  %12 = cast(%x9, dtype="float16") /* ty=float16 span=from_string:45:109 */;
  let %x_27: Tensor[(5, 32), float16] /* ty=Tensor[(5, 32), float16] span=from_string:46:162 */ = add(%x_26, %12) /* ty=Tensor[(5, 32), float16] span=from_string:45:98 */;
  let %x_28: (Tensor[(5, 16), float16], Tensor[(5, 32), float16]) /* ty=(Tensor[(5, 16), float16], Tensor[(5, 32), float16]) span=from_string:51:807 */ = (%x_25, %x_27) /* ty=(Tensor[(5, 16), float16], Tensor[(5, 32), float16]) span=from_string:46:154 */;
  %13 = cast(%x_2, dtype="float32") /* ty=Tensor[(2, 8), float32] span=from_string:48:107 */;
  let %x_29: Tensor[(2, 8), float32] /* ty=Tensor[(2, 8), float32] span=from_string:51:814 */ = nn.softmax(%13) /* ty=Tensor[(2, 8), float32] span=from_string:48:96 */;
  let %x_30: Tensor[(8, 32), int32] /* ty=Tensor[(8, 32), int32] span=from_string:51:821 */ = cast_like(%x12, %x10) /* ty=Tensor[(8, 32), int32] span=from_string:49:96 */;
  let %x_31: Tensor[(16, 32), float16] /* ty=Tensor[(16, 32), float16] span=from_string:51:828 */ = ones(shape=[16, 32], dtype="float16") /* ty=Tensor[(16, 32), float16] span=from_string:50:100 */;
  let %x_32: ((Tensor[(2, 16, 1), float16], Tensor[(2, 8, 1), float16]), Tensor[(2, 16), float32], (Tensor[(8, 32), float16], (Tensor[(8, 32), float16],)), (Tensor[(2, 11, 16), float16], Tensor[(2, 11, 16), float16], Tensor[(2, 11, 16), float16]), (Tensor[(5, 16), float16], Tensor[(5, 32), float16]), Tensor[(2, 8), float32], Tensor[(8, 32), int32], Tensor[(16, 32), float16]) /* ty=((Tensor[(2, 16, 1), float16], Tensor[(2, 8, 1), float16]), Tensor[(2, 16), float32], (Tensor[(8, 32), float16], (Tensor[(8, 32), float16],)), (Tensor[(2, 11, 16), float16], Tensor[(2, 11, 16), float16], Tensor[(2, 11, 16), float16]), (Tensor[(5, 16), float16], Tensor[(5, 32), float16]), Tensor[(2, 8), float32], Tensor[(8, 32), int32], Tensor[(16, 32), float16]) span=from_string:52:780 */ = (%x_4, %x_5, %x_14, %x_21, %x_28, %x_29, %x_30, %x_31) /* ty=((Tensor[(2, 16, 1), float16], Tensor[(2, 8, 1), float16]), Tensor[(2, 16), float32], (Tensor[(8, 32), float16], (Tensor[(8, 32), float16],)), (Tensor[(2, 11, 16), float16], Tensor[(2, 11, 16), float16], Tensor[(2, 11, 16), float16]), (Tensor[(5, 16), float16], Tensor[(5, 32), float16]), Tensor[(2, 8), float32], Tensor[(8, 32), int32], Tensor[(16, 32), float16]) span=from_string:51:780 */;
  let %x_33: ((Tensor[(2, 16, 1), float16], Tensor[(2, 8, 1), float16]), Tensor[(2, 16), float32], (Tensor[(8, 32), float16], (Tensor[(8, 32), float16],)), (Tensor[(2, 11, 16), float16], Tensor[(2, 11, 16), float16], Tensor[(2, 11, 16), float16]), (Tensor[(5, 16), float16], Tensor[(5, 32), float16]), Tensor[(2, 8), float32], Tensor[(8, 32), int32], Tensor[(16, 32), float16]) /* ty=((Tensor[(2, 16, 1), float16], Tensor[(2, 8, 1), float16]), Tensor[(2, 16), float32], (Tensor[(8, 32), float16], (Tensor[(8, 32), float16],)), (Tensor[(2, 11, 16), float16], Tensor[(2, 11, 16), float16], Tensor[(2, 11, 16), float16]), (Tensor[(5, 16), float16], Tensor[(5, 32), float16]), Tensor[(2, 8), float32], Tensor[(8, 32), int32], Tensor[(16, 32), float16]) span=from_string:53:779 */ = %x_32;
  let %x_34: ((Tensor[(2, 16, 1), float16], Tensor[(2, 8, 1), float16]), Tensor[(2, 16), float32], (Tensor[(8, 32), float16], (Tensor[(8, 32), float16],)), (Tensor[(2, 11, 16), float16], Tensor[(2, 11, 16), float16], Tensor[(2, 11, 16), float16]), (Tensor[(5, 16), float16], Tensor[(5, 32), float16]), Tensor[(2, 8), float32], Tensor[(8, 32), int32], Tensor[(16, 32), float16]) /* ty=((Tensor[(2, 16, 1), float16], Tensor[(2, 8, 1), float16]), Tensor[(2, 16), float32], (Tensor[(8, 32), float16], (Tensor[(8, 32), float16],)), (Tensor[(2, 11, 16), float16], Tensor[(2, 11, 16), float16], Tensor[(2, 11, 16), float16]), (Tensor[(5, 16), float16], Tensor[(5, 32), float16]), Tensor[(2, 8), float32], Tensor[(8, 32), int32], Tensor[(16, 32), float16]) span=from_string:54:3 */ = %x_33;
  %x_34
}
