#[version = "0.0.5"]
def @main(%x0: Tensor[(2, 32), float32] /* ty=Tensor[(2, 32), float32] span=from_string:3:13 */, %x1: Tensor[(16, 32), float32] /* ty=Tensor[(16, 32), float32] span=from_string:4:13 */, %x2: Tensor[(8, 32), float32] /* ty=Tensor[(8, 32), float32] span=from_string:6:13 */, %x3: Tensor[(2, 11, 1), float32] /* ty=Tensor[(2, 11, 1), float32] span=from_string:30:14 */, %x4: Tensor[(2, 16, 1), float32] /* ty=Tensor[(2, 16, 1), float32] span=from_string:23:15 */, %x5: Tensor[(2, 16, 1), float32] /* ty=Tensor[(2, 16, 1), float32] span=from_string:23:20 */, %x6: Tensor[(5, 32), float32] /* ty=Tensor[(5, 32), float32] span=from_string:37:14 */, %x7: float32 /* ty=float32 span=from_string:40:14 */, %x8: Tensor[(32, 32), float32] /* ty=Tensor[(32, 32), float32] span=from_string:41:14 */, %x9: float32 /* ty=float32 span=from_string:43:14 */, %x10: Tensor[(72, 26), int32] /* ty=Tensor[(72, 26), int32] span=from_string:52:23 */) -> ((Tensor[(2, 16, 1), float16], Tensor[(2, 8, 1), float16]), Tensor[(2, 16), float16], (Tensor[(8, 32), float16], (Tensor[(8, 32), float16],)), (Tensor[(2, 11, 16), float16], Tensor[(2, 11, 16), float16], Tensor[(2, 11, 16), float16]), (Tensor[(5, 16), float16], Tensor[(5, 32), float16]), Tensor[(2, 8), float16], Tensor[(8, 32), int32], Tensor[(16, 32), float16]) {
  %0 = cast(%x0, dtype="float16") /* ty=Tensor[(2, 32), float16] span=from_string:7:17 */;
  %1 = cast(%x1, dtype="float16") /* ty=Tensor[(16, 32), float16] span=from_string:38:13 */;
  %2 = nn.dense(%0, %1, units=None, out_dtype="float16") /* ty=Tensor[(2, 16), float16] span=from_string:47:25 */;
  %3 = cast(%x2, dtype="float16") /* ty=Tensor[(8, 32), float16] span=from_string:17:32 */;
  %4 = nn.dense(%0, %3, units=None, out_dtype="float16") /* ty=Tensor[(2, 8), float16] span=from_string:51:25 */;
  %5 = expand_dims(%2, axis=2) /* ty=Tensor[(2, 16, 1), float16] span=from_string:46:10 */;
  %6 = expand_dims(%4, axis=2) /* ty=Tensor[(2, 8, 1), float16] span=from_string:46:14 */;
  %7 = multiply(%3, %3) /* ty=Tensor[(8, 32), float16] span=from_string:48:10 */;
  %8 = ones_like(%7) /* ty=Tensor[(8, 32), float16] span=from_string:52:19 */;
  %9 = multiply(%8, %3) /* ty=Tensor[(8, 32), float16] span=from_string:14:27 */;
  %10 = zeros_like(%3) /* ty=Tensor[(8, 32), float16] span=from_string:16:13 */;
  %11 = collapse_sum_like(%9, %3) /* ty=Tensor[(8, 32), float16] span=from_string:16:18 */;
  %12 = multiply(%8, %3) /* ty=Tensor[(8, 32), float16] span=from_string:17:27 */;
  %13 = add(%10, %11) /* ty=Tensor[(8, 32), float16] span=from_string:18:13 */;
  %14 = collapse_sum_like(%12, %3) /* ty=Tensor[(8, 32), float16] span=from_string:18:18 */;
  %15 = add(%13, %14) /* ty=Tensor[(8, 32), float16] span=from_string:19:10 */;
  %16 = (%15,) /* ty=(Tensor[(8, 32), float16],) span=from_string:48:14 */;
  %17 = cast(2f /* ty=float32 span=from_string:20:16 */, dtype="float16") /* ty=float16 span=from_string:22:16 */;
  %18 = sqrt(%5) /* ty=Tensor[(2, 16, 1), float16] span=from_string:22:21 */;
  %19 = divide(%17, %18) /* ty=Tensor[(2, 16, 1), float16] span=from_string:23:10 */;
  %20 = (%19, %x4, %x5) /* ty=(Tensor[(2, 16, 1), float16], Tensor[(2, 16, 1), float32], Tensor[(2, 16, 1), float32]) span=from_string:27:9 */;
  %21 = %20.0 /* ty=Tensor[(2, 16, 1), float16] span=from_string:25:14 */;
  %22 = cast(%21, dtype="float32") /* ty=Tensor[(2, 16, 1), float32] span=from_string:28:10 */;
  %23 = %20.1 /* ty=Tensor[(2, 16, 1), float32] span=from_string:28:15 */;
  %24 = %20.2 /* ty=Tensor[(2, 16, 1), float32] span=from_string:28:20 */;
  %25 = (%22, %23, %24) /* ty=(Tensor[(2, 16, 1), float32], Tensor[(2, 16, 1), float32], Tensor[(2, 16, 1), float32]) span=from_string:29:21 */;
  %26 = concatenate(%25, axis=1) /* ty=Tensor[(2, 48, 1), float32] span=from_string:31:14 */;
  %27 = cast(%x3, dtype="float16") /* ty=Tensor[(2, 11, 1), float16] span=from_string:32:25 */;
  %28 = cast(%26, dtype="float16") /* ty=Tensor[(2, 48, 1), float16] span=from_string:32:30 */;
  %29 = nn.batch_matmul(%27, %28, out_dtype="float16", transpose_b=True) /* ty=Tensor[(2, 11, 48), float16] span=from_string:35:23 */;
  %30 = strided_slice(%29, begin=[0, 0, 0], end=[-1, -1, 16], strides=[1, 1, 1], slice_mode="size", axes=None) /* ty=Tensor[(2, 11, 16), float16] span=from_string:49:10 */;
  %31 = strided_slice(%29, begin=[0, 0, 16], end=[-1, -1, 16], strides=[1, 1, 1], slice_mode="size", axes=None) /* ty=Tensor[(2, 11, 16), float16] span=from_string:49:15 */;
  %32 = strided_slice(%29, begin=[0, 0, 32], end=[-1, -1, 16], strides=[1, 1, 1], slice_mode="size", axes=None) /* ty=Tensor[(2, 11, 16), float16] span=from_string:49:20 */;
  %33 = cast(1f /* ty=float32 span=from_string:36:16 */, dtype="float16") /* ty=float16 span=from_string:38:17 */;
  %34 = cast(%x6, dtype="float16") /* ty=Tensor[(5, 32), float16] span=from_string:42:18 */;
  %35 = add(%1, %33) /* ty=Tensor[(16, 32), float16] span=from_string:39:23 */;
  %36 = nn.dense(%34, %35, units=None, out_dtype="float16") /* ty=Tensor[(5, 16), float16] span=from_string:44:13 */;
  %37 = cast(%x7, dtype="float16") /* ty=float16 span=from_string:44:18 */;
  %38 = cast(%x8, dtype="float16") /* ty=Tensor[(32, 32), float16] span=from_string:42:23 */;
  %39 = nn.dense(%34, %38, units=None, out_dtype="float16") /* ty=Tensor[(5, 32), float16] span=from_string:45:13 */;
  %40 = cast(%x9, dtype="float16") /* ty=float16 span=from_string:45:18 */;
  %41 = add(%36, %37) /* ty=Tensor[(5, 16), float16] span=from_string:50:10 */;
  %42 = add(%39, %40) /* ty=Tensor[(5, 32), float16] span=from_string:50:15 */;
  %43 = (%5, %6) /* ty=(Tensor[(2, 16, 1), float16], Tensor[(2, 8, 1), float16]) span=from_string:54:4 */;
  %44 = nn.fast_softmax(%2) /* ty=Tensor[(2, 16), float16] span=from_string:54:9 */;
  %45 = (%7, %16) /* ty=(Tensor[(8, 32), float16], (Tensor[(8, 32), float16],)) span=from_string:54:14 */;
  %46 = (%30, %31, %32) /* ty=(Tensor[(2, 11, 16), float16], Tensor[(2, 11, 16), float16], Tensor[(2, 11, 16), float16]) span=from_string:54:19 */;
  %47 = (%41, %42) /* ty=(Tensor[(5, 16), float16], Tensor[(5, 32), float16]) span=from_string:54:24 */;
  %48 = nn.fast_softmax(%4) /* ty=Tensor[(2, 8), float16] span=from_string:54:29 */;
  %49 = cast_like(%8, %x10) /* ty=Tensor[(8, 32), int32] span=from_string:54:34 */;
  %50 = ones(shape=[16, 32], dtype="float16") /* ty=Tensor[(16, 32), float16] span=from_string:54:39 */;
  (%43, %44, %45, %46, %47, %48, %49, %50) /* ty=((Tensor[(2, 16, 1), float16], Tensor[(2, 8, 1), float16]), Tensor[(2, 16), float16], (Tensor[(8, 32), float16], (Tensor[(8, 32), float16],)), (Tensor[(2, 11, 16), float16], Tensor[(2, 11, 16), float16], Tensor[(2, 11, 16), float16]), (Tensor[(5, 16), float16], Tensor[(5, 32), float16]), Tensor[(2, 8), float16], Tensor[(8, 32), int32], Tensor[(16, 32), float16]) span=from_string:3:3 */
}
