#[version = "0.0.5"]
def @main(%x0: Tensor[(2, 32), float32] /* ty=Tensor[(2, 32), float32] span=from_string:7:13 */, %x1: Tensor[(16, 32), float32] /* ty=Tensor[(16, 32), float32] span=from_string:8:13 */, %x2: Tensor[(8, 32), float32] /* ty=Tensor[(8, 32), float32] span=from_string:3:13 */, %x3: Tensor[(2, 11, 1), float32] /* ty=Tensor[(2, 11, 1), float32] span=from_string:24:14 */, %x4: Tensor[(2, 16, 1), float32] /* ty=Tensor[(2, 16, 1), float32] span=from_string:26:14 */, %x5: Tensor[(2, 16, 1), float32] /* ty=Tensor[(2, 16, 1), float32] span=from_string:27:14 */, %x6: Tensor[(5, 32), float32] /* ty=Tensor[(5, 32), float32] span=from_string:32:14 */, %x7: float32 /* ty=float32 span=from_string:35:14 */, %x8: Tensor[(32, 32), float32] /* ty=Tensor[(32, 32), float32] span=from_string:36:14 */, %x9: float32 /* ty=float32 span=from_string:38:14 */, %x10: Tensor[(72, 26), int32] /* ty=Tensor[(72, 26), int32] span=from_string:48:23 */) -> ((Tensor[(2, 16, 1), float16], Tensor[(2, 8, 1), float16]), Tensor[(2, 16), float32], (Tensor[(8, 32), float16], (Tensor[(8, 32), float16],)), (Tensor[(2, 11, 16), float16], Tensor[(2, 11, 16), float16], Tensor[(2, 11, 16), float16]), (Tensor[(5, 16), float16], Tensor[(5, 32), float16]), Tensor[(2, 8), float32], Tensor[(8, 32), int32], Tensor[(16, 32), float16]) {
  %0 = cast(%x2, dtype="float16") /* ty=Tensor[(8, 32), float16] span=from_string:19:32 */;
  let %x11: Tensor[(8, 32), float16] /* ty=Tensor[(8, 32), float16] span=from_string:44:10 */ = multiply(%0, %0) /* ty=Tensor[(8, 32), float16] span=from_string:4:102 */;
  %1 = ones_like(%x11) /* ty=Tensor[(8, 32), float16] span=from_string:48:19 */;
  let %x12: Tensor[(8, 32), float16] /* ty=Tensor[(8, 32), float16] span=from_string:17:19 */ = %1;
  %2 = cast(%x0, dtype="float16") /* ty=Tensor[(2, 32), float16] span=from_string:10:17 */;
  %3 = cast(%x1, dtype="float16") /* ty=Tensor[(16, 32), float16] span=from_string:33:13 */;
  %4 = nn.dense(%2, %3, units=None, out_dtype="float16") /* ty=Tensor[(2, 16), float16] span=from_string:13:13 */;
  %5 = nn.dense(%2, %0, units=None, out_dtype="float16") /* ty=Tensor[(2, 8), float16] span=from_string:41:14 */;
  %6 = expand_dims(%4, axis=2) /* ty=Tensor[(2, 16, 1), float16] span=from_string:42:10 */;
  %7 = expand_dims(%5, axis=2) /* ty=Tensor[(2, 8, 1), float16] span=from_string:42:14 */;
  %8 = cast(%4, dtype="float32") /* ty=Tensor[(2, 16), float32] span=from_string:43:20 */;
  %9 = multiply(%x12, %0) /* ty=Tensor[(8, 32), float16] span=from_string:16:27 */;
  %10 = zeros_like(%0) /* ty=Tensor[(8, 32), float16] span=from_string:18:13 */;
  %11 = collapse_sum_like(%9, %0) /* ty=Tensor[(8, 32), float16] span=from_string:18:18 */;
  %12 = multiply(%x12, %0) /* ty=Tensor[(8, 32), float16] span=from_string:19:27 */;
  %13 = add(%10, %11) /* ty=Tensor[(8, 32), float16] span=from_string:20:13 */;
  %14 = collapse_sum_like(%12, %0) /* ty=Tensor[(8, 32), float16] span=from_string:20:18 */;
  %15 = add(%13, %14) /* ty=Tensor[(8, 32), float16] span=from_string:21:10 */;
  %16 = (%15,) /* ty=(Tensor[(8, 32), float16],) span=from_string:44:16 */;
  %17 = cast(2f /* ty=float32 span=from_string:22:16 */, dtype="float16") /* ty=float16 span=from_string:25:16 */;
  %18 = sqrt(%6) /* ty=Tensor[(2, 16, 1), float16] span=from_string:25:21 */;
  %19 = cast(%x3, dtype="float16") /* ty=Tensor[(2, 11, 1), float16] span=from_string:30:25 */;
  %20 = divide(%17, %18) /* ty=Tensor[(2, 16, 1), float16] span=from_string:28:30 */;
  %21 = cast(%x4, dtype="float16") /* ty=Tensor[(2, 16, 1), float16] span=from_string:29:30 */;
  %22 = cast(%x5, dtype="float16") /* ty=Tensor[(2, 16, 1), float16] span=from_string:30:30 */;
  %23 = nn.batch_matmul(%19, %20, out_dtype="float16", transpose_b=True) /* ty=Tensor[(2, 11, 16), float16] span=from_string:45:10 */;
  %24 = nn.batch_matmul(%19, %21, out_dtype="float16", transpose_b=True) /* ty=Tensor[(2, 11, 16), float16] span=from_string:45:15 */;
  %25 = nn.batch_matmul(%19, %22, out_dtype="float16", transpose_b=True) /* ty=Tensor[(2, 11, 16), float16] span=from_string:45:20 */;
  %26 = cast(1f /* ty=float32 span=from_string:31:16 */, dtype="float16") /* ty=float16 span=from_string:33:17 */;
  %27 = cast(%x6, dtype="float16") /* ty=Tensor[(5, 32), float16] span=from_string:37:18 */;
  %28 = add(%3, %26) /* ty=Tensor[(16, 32), float16] span=from_string:34:23 */;
  %29 = nn.dense(%27, %28, units=None, out_dtype="float16") /* ty=Tensor[(5, 16), float16] span=from_string:39:13 */;
  %30 = cast(%x7, dtype="float16") /* ty=float16 span=from_string:39:18 */;
  %31 = cast(%x8, dtype="float16") /* ty=Tensor[(32, 32), float16] span=from_string:37:23 */;
  %32 = nn.dense(%27, %31, units=None, out_dtype="float16") /* ty=Tensor[(5, 32), float16] span=from_string:40:13 */;
  %33 = cast(%x9, dtype="float16") /* ty=float16 span=from_string:40:18 */;
  %34 = add(%29, %30) /* ty=Tensor[(5, 16), float16] span=from_string:46:10 */;
  %35 = add(%32, %33) /* ty=Tensor[(5, 32), float16] span=from_string:46:15 */;
  %36 = cast(%5, dtype="float32") /* ty=Tensor[(2, 8), float32] span=from_string:47:20 */;
  %37 = (%6, %7) /* ty=(Tensor[(2, 16, 1), float16], Tensor[(2, 8, 1), float16]) span=from_string:50:4 */;
  %38 = nn.softmax(%8) /* ty=Tensor[(2, 16), float32] span=from_string:50:9 */;
  %39 = (%x11, %16) /* ty=(Tensor[(8, 32), float16], (Tensor[(8, 32), float16],)) span=from_string:50:14 */;
  %40 = (%23, %24, %25) /* ty=(Tensor[(2, 11, 16), float16], Tensor[(2, 11, 16), float16], Tensor[(2, 11, 16), float16]) span=from_string:50:19 */;
  %41 = (%34, %35) /* ty=(Tensor[(5, 16), float16], Tensor[(5, 32), float16]) span=from_string:50:24 */;
  %42 = nn.softmax(%36) /* ty=Tensor[(2, 8), float32] span=from_string:50:29 */;
  %43 = cast_like(%1, %x10) /* ty=Tensor[(8, 32), int32] span=from_string:50:34 */;
  %44 = ones(shape=[16, 32], dtype="float16") /* ty=Tensor[(16, 32), float16] span=from_string:50:39 */;
  (%37, %38, %39, %40, %41, %42, %43, %44) /* ty=((Tensor[(2, 16, 1), float16], Tensor[(2, 8, 1), float16]), Tensor[(2, 16), float32], (Tensor[(8, 32), float16], (Tensor[(8, 32), float16],)), (Tensor[(2, 11, 16), float16], Tensor[(2, 11, 16), float16], Tensor[(2, 11, 16), float16]), (Tensor[(5, 16), float16], Tensor[(5, 32), float16]), Tensor[(2, 8), float32], Tensor[(8, 32), int32], Tensor[(16, 32), float16]) span=from_string:50:3 */
}
