#[version = "0.0.5"]
def @main(%x0: Tensor[(4, 7), float32] /* ty=Tensor[(4, 7), float32] span=from_string:18:17 */, %x1: Tensor[(2, 7, 2), float32] /* ty=Tensor[(2, 7, 2), float32] */, %x2: Tensor[(2, 7, 2), float32] /* ty=Tensor[(2, 7, 2), float32] span=from_string:3:9 */, %x3: Tensor[(2, 77, 2), float32] /* ty=Tensor[(2, 77, 2), float32] span=from_string:11:24 */, %x4: Tensor[(2, 7, 2), float32] /* ty=Tensor[(2, 7, 2), float32] span=from_string:3:14 */, %x5: Tensor[(2, 7, 2), float32] /* ty=Tensor[(2, 7, 2), float32] span=from_string:15:57 */, %x6: Tensor[(14, 2), float32] /* ty=Tensor[(14, 2), float32] */, %x7: float32 /* ty=float32 */) -> (Tensor[(4, 7), float32], int32, (Tensor[(2, 77, 7), float32], Tensor[(2, 77, 7), float32], Tensor[(2, 77, 7), float32]), Tensor[(2, 7, 2), float32], Tensor[(2, 7, 2), float32], Tensor[(1), float32], Tensor[(3), int32]) {
  %0 = fn (%p0: Tensor[(4, 7), float32] /* ty=Tensor[(4, 7), float32] */, Primitive=1, relay.reshape_only=1) -> Tensor[(4, 7), float32] {
    reshape(%p0, newshape=[4, 7]) /* ty=Tensor[(4, 7), float32] span=from_string:24:4 */
  } /* ty=fn (Tensor[(4, 7), float32]) -> Tensor[(4, 7), float32] */;
  %3 = fn (%p04: Tensor[(2, 7, 2), float32] /* ty=Tensor[(2, 7, 2), float32] */, %p12: Tensor[(2, 7, 2), float32] /* ty=Tensor[(2, 7, 2), float32] */, Primitive=1) -> Tensor[(2, 14, 2), float32] {
    %2 = (%p04, %p12) /* ty=(Tensor[(2, 7, 2), float32], Tensor[(2, 7, 2), float32]) span=from_string:4:20 */;
    concatenate(%2, axis=1) /* ty=Tensor[(2, 14, 2), float32] span=from_string:7:31 */
  } /* ty=fn (Tensor[(2, 7, 2), float32], Tensor[(2, 7, 2), float32]) -> Tensor[(2, 14, 2), float32] */;
  %5 = fn (%p05: Tensor[(2, 7, 2), float32] /* ty=Tensor[(2, 7, 2), float32] */, Primitive=1) -> Tensor[(2, 7, 2), float32] {
    %4 = (%p05,) /* ty=(Tensor[(2, 7, 2), float32],) span=from_string:6:20 */;
    concatenate(%4, axis=1) /* ty=Tensor[(2, 7, 2), float32] span=from_string:8:31 */
  } /* ty=fn (Tensor[(2, 7, 2), float32]) -> Tensor[(2, 7, 2), float32] */;
  %6 = %3(%x2, %x4) /* ty=Tensor[(2, 14, 2), float32] */;
  %7 = %5(%x5) /* ty=Tensor[(2, 7, 2), float32] */;
  %8 = fn (%p03: Tensor[(2, 14, 2), float32] /* ty=Tensor[(2, 14, 2), float32] */, %p11: Tensor[(2, 7, 2), float32] /* ty=Tensor[(2, 7, 2), float32] */, Primitive=1) -> Tensor[(2, 21, 2), float32] {
    %1 = (%p03, %p11) /* ty=(Tensor[(2, 14, 2), float32], Tensor[(2, 7, 2), float32]) span=from_string:10:20 */;
    concatenate(%1, axis=1) /* ty=Tensor[(2, 21, 2), float32] span=from_string:11:29 */
  } /* ty=fn (Tensor[(2, 14, 2), float32], Tensor[(2, 7, 2), float32]) -> Tensor[(2, 21, 2), float32] */;
  %9 = %8(%6, %7) /* ty=Tensor[(2, 21, 2), float32] */;
  %10 = fn (%p02: Tensor[(2, 77, 2), float32] /* ty=Tensor[(2, 77, 2), float32] */, %p1: Tensor[(2, 21, 2), float32] /* ty=Tensor[(2, 21, 2), float32] */, Primitive=1) -> Tensor[(2, 77, 21), float32] {
    nn.batch_matmul(%p02, %p1, transpose_b=True) /* ty=Tensor[(2, 77, 21), float32] span=from_string:14:23 */
  } /* ty=fn (Tensor[(2, 77, 2), float32], Tensor[(2, 21, 2), float32]) -> Tensor[(2, 77, 21), float32] */;
  %11 = %10(%x3, %9) /* ty=Tensor[(2, 77, 21), float32] */;
  %12 = fn (%p01: Tensor[(2, 77, 21), float32] /* ty=Tensor[(2, 77, 21), float32] */, Primitive=1) -> Tensor[(2, 77, 7), float32] {
    strided_slice(%p01, begin=[0, 0, 0], end=[-1, -1, 7], strides=[1, 1, 1], slice_mode="size", axes=None) /* ty=Tensor[(2, 77, 7), float32] span=from_string:19:10 */
  } /* ty=fn (Tensor[(2, 77, 21), float32]) -> Tensor[(2, 77, 7), float32] */;
  %13 = fn (%p06: Tensor[(2, 77, 21), float32] /* ty=Tensor[(2, 77, 21), float32] */, Primitive=1) -> Tensor[(2, 77, 7), float32] {
    strided_slice(%p06, begin=[0, 0, 7], end=[-1, -1, 7], strides=[1, 1, 1], slice_mode="size", axes=None) /* ty=Tensor[(2, 77, 7), float32] span=from_string:19:14 */
  } /* ty=fn (Tensor[(2, 77, 21), float32]) -> Tensor[(2, 77, 7), float32] */;
  %14 = fn (%p07: Tensor[(2, 77, 21), float32] /* ty=Tensor[(2, 77, 21), float32] */, Primitive=1) -> Tensor[(2, 77, 7), float32] {
    strided_slice(%p07, begin=[0, 0, 14], end=[-1, -1, 7], strides=[1, 1, 1], slice_mode="size", axes=None) /* ty=Tensor[(2, 77, 7), float32] span=from_string:19:19 */
  } /* ty=fn (Tensor[(2, 77, 21), float32]) -> Tensor[(2, 77, 7), float32] */;
  %15 = %12(%11) /* ty=Tensor[(2, 77, 7), float32] */;
  %16 = %13(%11) /* ty=Tensor[(2, 77, 7), float32] */;
  %17 = %14(%11) /* ty=Tensor[(2, 77, 7), float32] */;
  %18 = fn (%p09: Tensor[(2, 7, 2), float32] /* ty=Tensor[(2, 7, 2), float32] */, Primitive=1) -> Tensor[(2, 7, 2), float32] {
    add(2f /* ty=float32 span=from_string:15:15 */, %p09) /* ty=Tensor[(2, 7, 2), float32] span=from_string:21:17 */
  } /* ty=fn (Tensor[(2, 7, 2), float32]) -> Tensor[(2, 7, 2), float32] */;
  %19 = fn (Primitive=1) -> Tensor[(1), float32] {
    zeros(shape=[1], dtype="float32") /* ty=Tensor[(1), float32] span=from_string:22:13 */
  } /* ty=fn () -> Tensor[(1), float32] */;
  %20 = %18(%x5) /* ty=Tensor[(2, 7, 2), float32] */;
  %21 = %19() /* ty=Tensor[(1), float32] */;
  %22 = fn (%p08: Tensor[(2, 7, 2), float32] /* ty=Tensor[(2, 7, 2), float32] */, %p13: Tensor[(1), float32] /* ty=Tensor[(1), float32] */, Primitive=1) -> Tensor[(2, 7, 2), float32] {
    add(%p08, %p13) /* ty=Tensor[(2, 7, 2), float32] span=from_string:24:55 */
  } /* ty=fn (Tensor[(2, 7, 2), float32], Tensor[(1), float32]) -> Tensor[(2, 7, 2), float32] */;
  %23 = fn (%p010: Tensor[(2, 7, 2), float32] /* ty=Tensor[(2, 7, 2), float32] */, Primitive=1, relay.reshape_only=1) -> Tensor[(2, 7, 2), float32] {
    reshape(%p010, newshape=[2, 7, 2]) /* ty=Tensor[(2, 7, 2), float32] span=from_string:24:60 */
  } /* ty=fn (Tensor[(2, 7, 2), float32]) -> Tensor[(2, 7, 2), float32] */;
  %25 = fn (%p011: Tensor[(1), float32] /* ty=Tensor[(1), float32] */, Primitive=1) -> Tensor[(1), float32] {
    %24 = ones(shape=[1], dtype="float32") /* ty=Tensor[(1), float32] span=from_string:22:18 */;
    add(%p011, %24) /* ty=Tensor[(1), float32] span=from_string:24:65 */
  } /* ty=fn (Tensor[(1), float32]) -> Tensor[(1), float32] */;
  %26 = fn (Primitive=1) -> Tensor[(3), int32] {
    zeros(shape=[3], dtype="int32") /* ty=Tensor[(3), int32] span=from_string:24:70 */
  } /* ty=fn () -> Tensor[(3), int32] */;
  %27 = %0(%x0) /* ty=Tensor[(4, 7), float32] */;
  %28 = (%15, %16, %17) /* ty=(Tensor[(2, 77, 7), float32], Tensor[(2, 77, 7), float32], Tensor[(2, 77, 7), float32]) span=from_string:24:50 */;
  %29 = %22(%20, %21) /* ty=Tensor[(2, 7, 2), float32] */;
  %30 = %23(%20) /* ty=Tensor[(2, 7, 2), float32] */;
  %31 = %25(%21) /* ty=Tensor[(1), float32] */;
  %32 = %26() /* ty=Tensor[(3), int32] */;
  (%27, 0 /* ty=int32 span=from_string:24:10 */, %28, %29, %30, %31, %32) /* ty=(Tensor[(4, 7), float32], int32, (Tensor[(2, 77, 7), float32], Tensor[(2, 77, 7), float32], Tensor[(2, 77, 7), float32]), Tensor[(2, 7, 2), float32], Tensor[(2, 7, 2), float32], Tensor[(1), float32], Tensor[(3), int32]) span=from_string:3:3 */
}
