#[version = "0.0.5"]
def @main(%x0: Tensor[(4, 7), float32] /* ty=Tensor[(4, 7), float32] span=from_string:58:12 */, %x1: Tensor[(2, 7, 2), float32] /* ty=Tensor[(2, 7, 2), float32] */, %x2: Tensor[(2, 7, 2), float32] /* ty=Tensor[(2, 7, 2), float32] span=from_string:14:11 */, %x3: Tensor[(2, 77, 2), float32] /* ty=Tensor[(2, 77, 2), float32] span=from_string:24:13 */, %x4: Tensor[(2, 7, 2), float32] /* ty=Tensor[(2, 7, 2), float32] span=from_string:14:16 */, %x5: Tensor[(2, 7, 2), float32] /* ty=Tensor[(2, 7, 2), float32] span=from_string:43:13 */, %x6: Tensor[(14, 2), float32] /* ty=Tensor[(14, 2), float32] */, %x7: float32 /* ty=float32 */) -> (Tensor[(4, 7), float32], int32, (Tensor[(2, 77, 7), float32], Tensor[(2, 77, 7), float32], Tensor[(2, 77, 7), float32]), Tensor[(2, 7, 2), float32], Tensor[(2, 7, 2), float32], Tensor[(1), float32], Tensor[(3), int32]) {
  %0 = fn (%p0: Tensor[(4, 7), float32] /* ty=Tensor[(4, 7), float32] span=from_string:4:13 */, Primitive=1, relay.reshape_only=1) -> Tensor[(4, 7), float32] {
    reshape(%p0, newshape=[4, 7]) /* ty=Tensor[(4, 7), float32] span=from_string:4:5 */
  } /* ty=fn (Tensor[(4, 7), float32]) -> Tensor[(4, 7), float32] span=from_string:58:9 */;
  %3 = fn (%p04: Tensor[(2, 7, 2), float32] /* ty=Tensor[(2, 7, 2), float32] span=from_string:7:11 */, %p12: Tensor[(2, 7, 2), float32] /* ty=Tensor[(2, 7, 2), float32] span=from_string:7:17 */, Primitive=1) -> Tensor[(2, 14, 2), float32] {
    %2 = (%p04, %p12) /* ty=(Tensor[(2, 7, 2), float32], Tensor[(2, 7, 2), float32]) span=from_string:8:17 */;
    concatenate(%2, axis=1) /* ty=Tensor[(2, 14, 2), float32] span=from_string:7:5 */
  } /* ty=fn (Tensor[(2, 7, 2), float32], Tensor[(2, 7, 2), float32]) -> Tensor[(2, 14, 2), float32] span=from_string:14:8 */;
  %5 = fn (%p05: Tensor[(2, 7, 2), float32] /* ty=Tensor[(2, 7, 2), float32] span=from_string:11:11 */, Primitive=1) -> Tensor[(2, 7, 2), float32] {
    %4 = (%p05,) /* ty=(Tensor[(2, 7, 2), float32],) span=from_string:12:17 */;
    concatenate(%4, axis=1) /* ty=Tensor[(2, 7, 2), float32] span=from_string:11:5 */
  } /* ty=fn (Tensor[(2, 7, 2), float32]) -> Tensor[(2, 7, 2), float32] span=from_string:15:8 */;
  %6 = %3(%x2, %x4) /* ty=Tensor[(2, 14, 2), float32] span=from_string:20:11 */;
  %7 = %5(%x5) /* ty=Tensor[(2, 7, 2), float32] span=from_string:20:15 */;
  %8 = fn (%p03: Tensor[(2, 14, 2), float32] /* ty=Tensor[(2, 14, 2), float32] span=from_string:17:11 */, %p11: Tensor[(2, 7, 2), float32] /* ty=Tensor[(2, 7, 2), float32] span=from_string:17:17 */, Primitive=1) -> Tensor[(2, 21, 2), float32] {
    %1 = (%p03, %p11) /* ty=(Tensor[(2, 14, 2), float32], Tensor[(2, 7, 2), float32]) span=from_string:18:17 */;
    concatenate(%1, axis=1) /* ty=Tensor[(2, 21, 2), float32] span=from_string:17:5 */
  } /* ty=fn (Tensor[(2, 14, 2), float32], Tensor[(2, 7, 2), float32]) -> Tensor[(2, 21, 2), float32] span=from_string:20:8 */;
  %9 = %8(%6, %7) /* ty=Tensor[(2, 21, 2), float32] span=from_string:24:18 */;
  %10 = fn (%p02: Tensor[(2, 77, 2), float32] /* ty=Tensor[(2, 77, 2), float32] span=from_string:22:21 */, %p1: Tensor[(2, 21, 2), float32] /* ty=Tensor[(2, 21, 2), float32] span=from_string:22:27 */, Primitive=1) -> Tensor[(2, 77, 21), float32] {
    nn.batch_matmul(%p02, %p1, transpose_b=True) /* ty=Tensor[(2, 77, 21), float32] span=from_string:22:5 */
  } /* ty=fn (Tensor[(2, 77, 2), float32], Tensor[(2, 21, 2), float32]) -> Tensor[(2, 77, 21), float32] span=from_string:24:9 */;
  %11 = %10(%x3, %9) /* ty=Tensor[(2, 77, 21), float32] span=from_string:36:13 */;
  %12 = fn (%p01: Tensor[(2, 77, 21), float32] /* ty=Tensor[(2, 77, 21), float32] span=from_string:26:19 */, Primitive=1) -> Tensor[(2, 77, 7), float32] {
    strided_slice(%p01, begin=[0, 0, 0], end=[-1, -1, 7], strides=[1, 1, 1], slice_mode="size", axes=None) /* ty=Tensor[(2, 77, 7), float32] span=from_string:26:5 */
  } /* ty=fn (Tensor[(2, 77, 21), float32]) -> Tensor[(2, 77, 7), float32] span=from_string:34:9 */;
  %13 = fn (%p06: Tensor[(2, 77, 21), float32] /* ty=Tensor[(2, 77, 21), float32] span=from_string:29:19 */, Primitive=1) -> Tensor[(2, 77, 7), float32] {
    strided_slice(%p06, begin=[0, 0, 7], end=[-1, -1, 7], strides=[1, 1, 1], slice_mode="size", axes=None) /* ty=Tensor[(2, 77, 7), float32] span=from_string:29:5 */
  } /* ty=fn (Tensor[(2, 77, 21), float32]) -> Tensor[(2, 77, 7), float32] span=from_string:35:9 */;
  %14 = fn (%p07: Tensor[(2, 77, 21), float32] /* ty=Tensor[(2, 77, 21), float32] span=from_string:32:19 */, Primitive=1) -> Tensor[(2, 77, 7), float32] {
    strided_slice(%p07, begin=[0, 0, 14], end=[-1, -1, 7], strides=[1, 1, 1], slice_mode="size", axes=None) /* ty=Tensor[(2, 77, 7), float32] span=from_string:32:5 */
  } /* ty=fn (Tensor[(2, 77, 21), float32]) -> Tensor[(2, 77, 7), float32] span=from_string:36:9 */;
  %15 = %12(%11) /* ty=Tensor[(2, 77, 7), float32] span=from_string:59:10 */;
  %16 = %13(%11) /* ty=Tensor[(2, 77, 7), float32] span=from_string:59:15 */;
  %17 = %14(%11) /* ty=Tensor[(2, 77, 7), float32] span=from_string:59:20 */;
  %18 = fn (%p09: Tensor[(2, 7, 2), float32] /* ty=Tensor[(2, 7, 2), float32] span=from_string:38:53 */, Primitive=1) -> Tensor[(2, 7, 2), float32] {
    add(2f /* ty=float32 span=from_string:38:11 */, %p09) /* ty=Tensor[(2, 7, 2), float32] span=from_string:38:5 */
  } /* ty=fn (Tensor[(2, 7, 2), float32]) -> Tensor[(2, 7, 2), float32] span=from_string:43:9 */;
  %19 = fn (Primitive=1) -> Tensor[(1), float32] {
    zeros(shape=[1], dtype="float32") /* ty=Tensor[(1), float32] span=from_string:41:5 */
  } /* ty=fn () -> Tensor[(1), float32] span=from_string:44:9 */;
  %20 = %18(%x5) /* ty=Tensor[(2, 7, 2), float32] span=from_string:61:13 */;
  %21 = %19() /* ty=Tensor[(1), float32] span=from_string:62:13 */;
  %22 = fn (%p08: Tensor[(2, 7, 2), float32] /* ty=Tensor[(2, 7, 2), float32] span=from_string:46:9 */, %p13: Tensor[(1), float32] /* ty=Tensor[(1), float32] span=from_string:46:15 */, Primitive=1) -> Tensor[(2, 7, 2), float32] {
    add(%p08, %p13) /* ty=Tensor[(2, 7, 2), float32] span=from_string:46:5 */
  } /* ty=fn (Tensor[(2, 7, 2), float32], Tensor[(1), float32]) -> Tensor[(2, 7, 2), float32] span=from_string:60:9 */;
  %23 = fn (%p010: Tensor[(2, 7, 2), float32] /* ty=Tensor[(2, 7, 2), float32] span=from_string:49:13 */, Primitive=1, relay.reshape_only=1) -> Tensor[(2, 7, 2), float32] {
    reshape(%p010, newshape=[2, 7, 2]) /* ty=Tensor[(2, 7, 2), float32] span=from_string:49:5 */
  } /* ty=fn (Tensor[(2, 7, 2), float32]) -> Tensor[(2, 7, 2), float32] span=from_string:61:9 */;
  %25 = fn (%p011: Tensor[(1), float32] /* ty=Tensor[(1), float32] span=from_string:53:9 */, Primitive=1) -> Tensor[(1), float32] {
    %24 = ones(shape=[1], dtype="float32") /* ty=Tensor[(1), float32] span=from_string:53:16 */;
    add(%p011, %24) /* ty=Tensor[(1), float32] span=from_string:52:5 */
  } /* ty=fn (Tensor[(1), float32]) -> Tensor[(1), float32] span=from_string:62:9 */;
  %26 = fn (Primitive=1) -> Tensor[(3), int32] {
    zeros(shape=[3], dtype="int32") /* ty=Tensor[(3), int32] span=from_string:56:5 */
  } /* ty=fn () -> Tensor[(3), int32] span=from_string:63:9 */;
  %27 = %0(%x0) /* ty=Tensor[(4, 7), float32] span=from_string:64:4 */;
  %28 = (%15, %16, %17) /* ty=(Tensor[(2, 77, 7), float32], Tensor[(2, 77, 7), float32], Tensor[(2, 77, 7), float32]) span=from_string:64:50 */;
  %29 = %22(%20, %21) /* ty=Tensor[(2, 7, 2), float32] span=from_string:64:55 */;
  %30 = %23(%20) /* ty=Tensor[(2, 7, 2), float32] span=from_string:64:60 */;
  %31 = %25(%21) /* ty=Tensor[(1), float32] span=from_string:64:65 */;
  %32 = %26() /* ty=Tensor[(3), int32] span=from_string:64:70 */;
  (%27, 0 /* ty=int32 span=from_string:64:10 */, %28, %29, %30, %31, %32) /* ty=(Tensor[(4, 7), float32], int32, (Tensor[(2, 77, 7), float32], Tensor[(2, 77, 7), float32], Tensor[(2, 77, 7), float32]), Tensor[(2, 7, 2), float32], Tensor[(2, 7, 2), float32], Tensor[(1), float32], Tensor[(3), int32]) span=from_string:3:3 */
}
