#[version = "0.0.5"]
def @main(%x0: Tensor[(1), float32] /* ty=Tensor[(1), float32] span=from_string:6:19 */, %x1: float32 /* ty=float32 span=from_string:12:24 */) -> (Tensor[(1), float32], (float32, float32), float32, Tensor[(1), float32], Tensor[(1), int32], Tensor[(1), float32]) {
  let %x4: Tensor[(1), float32] /* ty=Tensor[(1), float32] span=from_string:20:15 */ = add(2f /* ty=float32 */, %x0) /* ty=Tensor[(1), float32] span=from_string:13:15 */;
  %0 = subtract(2f /* ty=float32 span=from_string:11:23 */, %x1) /* ty=float32 span=from_string:12:20 */;
  %1 = zeros_like(%x4) /* ty=Tensor[(1), float32] span=from_string:20:20 */;
  %2 = add(%x4, %1) /* ty=Tensor[(1), float32] span=from_string:22:15 */;
  %3 = zeros(shape=[1], dtype="float32") /* ty=Tensor[(1), float32] span=from_string:22:20 */;
  %4 = ones(shape=[1], dtype="float32") /* ty=Tensor[(1), float32] */;
  %5 = (2f /* ty=float32 */, 4f /* ty=float32 */) /* ty=(float32, float32) span=from_string:23:16 */;
  %6 = multiply(%0, %x1) /* ty=float32 span=from_string:23:20 */;
  %7 = ones(shape=[1], dtype="float32") /* ty=Tensor[(1), float32] */;
  %8 = add(%2, %3) /* ty=Tensor[(1), float32] span=from_string:23:34 */;
  (%4, %5, %6, %7, meta[relay.Constant][0] /* ty=Tensor[(1), int32] */, %8) /* ty=(Tensor[(1), float32], (float32, float32), float32, Tensor[(1), float32], Tensor[(1), int32], Tensor[(1), float32]) span=from_string:24:5 */
}

#[metadata]
{
  "root": 1, 
  "nodes": [
    {
      "type_key": ""
    }, 
    {
      "type_key": "Map", 
      "keys": [
        "relay.Constant"
      ], 
      "data": [2]
    }, 
    {
      "type_key": "Array", 
      "data": [3]
    }, 
    {
      "type_key": "relay.Constant", 
      "attrs": {
        "_checked_type_": "6", 
        "data": "0", 
        "span": "0", 
        "virtual_device_": "4"
      }
    }, 
    {
      "type_key": "VirtualDevice", 
      "attrs": {
        "device_type_int": "-1", 
        "memory_scope": "5", 
        "target": "0", 
        "virtual_device_id": "-1"
      }
    }, 
    {
      "type_key": "runtime.String"
    }, 
    {
      "type_key": "relay.TensorType", 
      "attrs": {
        "dtype": "int32", 
        "shape": "7", 
        "span": "0"
      }
    }, 
    {
      "type_key": "Array", 
      "data": [8]
    }, 
    {
      "type_key": "IntImm", 
      "attrs": {
        "dtype": "int32", 
        "span": "0", 
        "value": "1"
      }
    }
  ], 
  "b64ndarrays": [
    "P6G0lvBAXt0AAAAAAAAAAAEAAAAAAAAAAQAAAAAgAQABAAAAAAAAAAQAAAAAAAAAAQAAAA=="
  ], 
  "attrs": {"tvm_version": "0.13.0"}
}