#[version = "0.0.5"]
def @main(%x0: Tensor[(10, 10), float32] /* ty=Tensor[(10, 10), float32] span=from_string:88:12 */, %x1: Tensor[(34, 10), float32] /* ty=Tensor[(34, 10), float32] span=from_string:37:17 */, %x2: Tensor[(38, 10), float32] /* ty=Tensor[(38, 10), float32] span=from_string:44:17 */, %x3: Tensor[(100), float32] /* ty=Tensor[(100), float32] */, %x4: Tensor[(57), int32] /* ty=Tensor[(57), int32] span=from_string:13:65 */, %x5: Tensor[(30, 10), float32] /* ty=Tensor[(30, 10), float32] span=from_string:76:17 */) -> (Tensor[(10, 10), float32], (Tensor[(10, 10), float32], (Tensor[(10, 10), float32],)), (Tensor[(10, 34, 1), float32], Tensor[(10, 38, 1), float32]), Tensor[(10, 34, 1), float32], Tensor[(10, 10), float32], Tensor[(10, 10), float32], Tensor[(1), int32], Tensor[(10, 10), float32], float32) {
  %0 = fn (%p0: Tensor[(10, 10), float32] /* ty=Tensor[(10, 10), float32] span=from_string:4:20 */, Primitive=1) -> Tensor[(10, 10), float32] {
    multiply(%p0, %p0) /* ty=Tensor[(10, 10), float32] span=from_string:4:6 */
  } /* ty=fn (Tensor[(10, 10), float32]) -> Tensor[(10, 10), float32] span=from_string:6:8 */;
  %1 = %0(%x0) /* ty=Tensor[(10, 10), float32] span=from_string:44:13 */;
  let %x6: Tensor[(10, 10), float32] /* ty=Tensor[(10, 10), float32] span=from_string:89:10 */ = %1;
  %2 = fn (%p01: Tensor[(10, 10), float32] /* ty=Tensor[(10, 10), float32] span=from_string:9:15 */, Primitive=1) -> Tensor[(10, 10), float32] {
    ones_like(%p01) /* ty=Tensor[(10, 10), float32] span=from_string:9:5 */
  } /* ty=fn (Tensor[(10, 10), float32]) -> Tensor[(10, 10), float32] span=from_string:11:8 */;
  %3 = %2(%x6) /* ty=Tensor[(10, 10), float32] span=from_string:76:13 */;
  let %x7: Tensor[(10, 10), float32] /* ty=Tensor[(10, 10), float32] span=from_string:26:13 */ = %3;
  %4 = fn (%p02: Tensor[(10, 10), float32] /* ty=Tensor[(10, 10), float32] span=from_string:15:15 */, Primitive=1) -> Tensor[(10, 10), float32] {
    add(%p02, %p02) /* ty=Tensor[(10, 10), float32] span=from_string:15:5 */
  } /* ty=fn (Tensor[(10, 10), float32]) -> Tensor[(10, 10), float32] span=from_string:88:9 */;
  %8 = fn (%p04: Tensor[(10, 10), float32] /* ty=Tensor[(10, 10), float32] span=from_string:18:20 */, %p11: Tensor[(10, 10), float32] /* ty=Tensor[(10, 10), float32] span=from_string:19:27 */, Primitive=1) -> Tensor[(10, 10), float32] {
    %7 = multiply(%p04, %p11) /* ty=Tensor[(10, 10), float32] span=from_string:19:23 */;
    collapse_sum_like(%7, %p11) /* ty=Tensor[(10, 10), float32] span=from_string:18:5 */
  } /* ty=fn (Tensor[(10, 10), float32], Tensor[(10, 10), float32]) -> Tensor[(10, 10), float32] span=from_string:25:9 */;
  %10 = fn (%p05: Tensor[(10, 10), float32] /* ty=Tensor[(10, 10), float32] span=from_string:22:20 */, %p12: Tensor[(10, 10), float32] /* ty=Tensor[(10, 10), float32] span=from_string:23:27 */, Primitive=1) -> Tensor[(10, 10), float32] {
    %9 = multiply(%p05, %p12) /* ty=Tensor[(10, 10), float32] span=from_string:23:23 */;
    collapse_sum_like(%9, %p12) /* ty=Tensor[(10, 10), float32] span=from_string:22:5 */
  } /* ty=fn (Tensor[(10, 10), float32], Tensor[(10, 10), float32]) -> Tensor[(10, 10), float32] span=from_string:26:9 */;
  %11 = %8(%x7, %x0) /* ty=Tensor[(10, 10), float32] span=from_string:32:18 */;
  %12 = %10(%x7, %x0) /* ty=Tensor[(10, 10), float32] span=from_string:62:13 */;
  %13 = fn (%p03: Tensor[(10, 10), float32] /* ty=Tensor[(10, 10), float32] span=from_string:28:21 */, %p1: Tensor[(10, 10), float32] /* ty=Tensor[(10, 10), float32] span=from_string:29:18 */, %p2: Tensor[(10, 10), float32] /* ty=Tensor[(10, 10), float32] span=from_string:30:13 */, Primitive=1) -> Tensor[(10, 10), float32] {
    %5 = zeros_like(%p03) /* ty=Tensor[(10, 10), float32] span=from_string:29:14 */;
    %6 = add(%5, %p1) /* ty=Tensor[(10, 10), float32] span=from_string:30:9 */;
    add(%6, %p2) /* ty=Tensor[(10, 10), float32] span=from_string:28:5 */
  } /* ty=fn (Tensor[(10, 10), float32], Tensor[(10, 10), float32], Tensor[(10, 10), float32]) -> Tensor[(10, 10), float32] span=from_string:32:9 */;
  %14 = %13(%x0, %11, %12) /* ty=Tensor[(10, 10), float32] span=from_string:33:10 */;
  %15 = (%14,) /* ty=(Tensor[(10, 10), float32],) span=from_string:89:15 */;
  %16 = fn (%p07: Tensor[(10, 10), float32] /* ty=Tensor[(10, 10), float32] span=from_string:35:14 */, %p13: Tensor[(34, 10), float32] /* ty=Tensor[(34, 10), float32] span=from_string:35:20 */, Primitive=1) -> Tensor[(10, 34), float32] {
    nn.dense(%p07, %p13, units=None) /* ty=Tensor[(10, 34), float32] span=from_string:35:5 */
  } /* ty=fn (Tensor[(10, 10), float32], Tensor[(34, 10), float32]) -> Tensor[(10, 34), float32] span=from_string:37:9 */;
  %17 = %16(%1, %x1) /* ty=Tensor[(10, 34), float32] span=from_string:48:13 */;
  %18 = fn (%p06: Tensor[(10, 34), float32] /* ty=Tensor[(10, 34), float32] span=from_string:39:17 */, Primitive=1, relay.reshape_only=1) -> Tensor[(10, 34, 1), float32] {
    expand_dims(%p06, axis=2) /* ty=Tensor[(10, 34, 1), float32] span=from_string:39:5 */
  } /* ty=fn (Tensor[(10, 34), float32]) -> Tensor[(10, 34, 1), float32] span=from_string:48:9 */;
  %19 = fn (%p09: Tensor[(10, 10), float32] /* ty=Tensor[(10, 10), float32] span=from_string:42:14 */, %p14: Tensor[(38, 10), float32] /* ty=Tensor[(38, 10), float32] span=from_string:42:20 */, Primitive=1) -> Tensor[(10, 38), float32] {
    nn.dense(%p09, %p14, units=None) /* ty=Tensor[(10, 38), float32] span=from_string:42:5 */
  } /* ty=fn (Tensor[(10, 10), float32], Tensor[(38, 10), float32]) -> Tensor[(10, 38), float32] span=from_string:44:9 */;
  %20 = %19(%1, %x2) /* ty=Tensor[(10, 38), float32] span=from_string:49:13 */;
  %21 = fn (%p08: Tensor[(10, 38), float32] /* ty=Tensor[(10, 38), float32] span=from_string:46:17 */, Primitive=1, relay.reshape_only=1) -> Tensor[(10, 38, 1), float32] {
    expand_dims(%p08, axis=2) /* ty=Tensor[(10, 38, 1), float32] span=from_string:46:5 */
  } /* ty=fn (Tensor[(10, 38), float32]) -> Tensor[(10, 38, 1), float32] span=from_string:49:9 */;
  %22 = %18(%17) /* ty=Tensor[(10, 34, 1), float32] span=from_string:90:10 */;
  %23 = %21(%20) /* ty=Tensor[(10, 38, 1), float32] span=from_string:90:15 */;
  %24 = fn (%p011: Tensor[(10, 34, 1), float32] /* ty=Tensor[(10, 34, 1), float32] span=from_string:51:9 */, Primitive=1) -> Tensor[(10, 34, 1), float32] {
    add(%p011, 1f /* ty=float32 span=from_string:51:18 */) /* ty=Tensor[(10, 34, 1), float32] span=from_string:51:5 */
  } /* ty=fn (Tensor[(10, 34, 1), float32]) -> Tensor[(10, 34, 1), float32] span=from_string:53:9 */;
  %25 = %24(%22) /* ty=Tensor[(10, 34, 1), float32] span=from_string:91:13 */;
  %26 = fn (%p010: Tensor[(10, 34, 1), float32] /* ty=Tensor[(10, 34, 1), float32] span=from_string:55:9 */, Primitive=1) -> Tensor[(10, 34, 1), float32] {
    exp(%p010) /* ty=Tensor[(10, 34, 1), float32] span=from_string:55:5 */
  } /* ty=fn (Tensor[(10, 34, 1), float32]) -> Tensor[(10, 34, 1), float32] span=from_string:91:9 */;
  %30 = fn (%p013: Tensor[(10, 10), float32] /* ty=Tensor[(10, 10), float32] span=from_string:59:15 */, Primitive=1) -> Tensor[(10, 10), float32] {
    %28 = zeros(shape=[1], dtype="float32") /* ty=Tensor[(1), float32] span=from_string:59:22 */;
    %29 = add(%p013, %28) /* ty=Tensor[(10, 10), float32] span=from_string:60:9 */;
    add(%29, 1f /* ty=float32 span=from_string:60:16 */) /* ty=Tensor[(10, 10), float32] span=from_string:58:5 */
  } /* ty=fn (Tensor[(10, 10), float32]) -> Tensor[(10, 10), float32] span=from_string:62:9 */;
  %31 = %30(%12) /* ty=Tensor[(10, 10), float32] span=from_string:93:13 */;
  %32 = fn (%p012: Tensor[(10, 10), float32] /* ty=Tensor[(10, 10), float32] span=from_string:64:15 */, Primitive=1) -> Tensor[(10, 10), float32] {
    %27 = exp(%p012) /* ty=Tensor[(10, 10), float32] span=from_string:65:13 */;
    squeeze(%27) /* ty=Tensor[(10, 10), float32] span=from_string:64:5 */
  } /* ty=fn (Tensor[(10, 10), float32]) -> Tensor[(10, 10), float32] span=from_string:92:9 */;
  %36 = fn (%p014: Tensor[(10, 10), float32] /* ty=Tensor[(10, 10), float32] span=from_string:68:19 */, Primitive=1, relay.reshape_only=1) -> Tensor[(10, 10), float32] {
    %33 = reshape(%p014, newshape=[100]) /* ty=Tensor[(100), float32] span=from_string:69:19 */;
    %34 = reshape(%33, newshape=[10, 10]) /* ty=Tensor[(10, 10), float32] span=from_string:70:19 */;
    %35 = reshape(%34, newshape=[100]) /* ty=Tensor[(100), float32] span=from_string:71:13 */;
    reshape(%35, newshape=[10, 10]) /* ty=Tensor[(10, 10), float32] span=from_string:68:5 */
  } /* ty=fn (Tensor[(10, 10), float32]) -> Tensor[(10, 10), float32] span=from_string:93:9 */;
  %45 = fn (%p016: Tensor[(10, 10), float32] /* ty=Tensor[(10, 10), float32] span=from_string:74:14 */, %p15: Tensor[(30, 10), float32] /* ty=Tensor[(30, 10), float32] span=from_string:74:21 */, Primitive=1) -> Tensor[(10, 30), float32] {
    nn.dense(%p016, %p15, units=None) /* ty=Tensor[(10, 30), float32] span=from_string:74:5 */
  } /* ty=fn (Tensor[(10, 10), float32], Tensor[(30, 10), float32]) -> Tensor[(10, 30), float32] span=from_string:76:9 */;
  %46 = %45(%3, %x5) /* ty=Tensor[(10, 30), float32] span=from_string:94:13 */;
  %47 = fn (%p015: Tensor[(10, 30), float32] /* ty=Tensor[(10, 30), float32] span=from_string:78:17 */, Primitive=1) -> Tensor[(10, 10), float32] {
    %37 = split(%p015, indices_or_sections=3, axis=1) /* ty=(Tensor[(10, 10), float32], Tensor[(10, 10), float32], Tensor[(10, 10), float32]) span=from_string:81:11 */;
    %38 = %37.0 /* ty=Tensor[(10, 10), float32] span=from_string:84:19 */;
    %39 = %37.1 /* ty=Tensor[(10, 10), float32] span=from_string:82:16 */;
    %40 = %37.2 /* ty=Tensor[(10, 10), float32] span=from_string:83:15 */;
    %41 = tanh(%39) /* ty=Tensor[(10, 10), float32] span=from_string:85:21 */;
    %42 = exp(%40) /* ty=Tensor[(10, 10), float32] span=from_string:85:26 */;
    %43 = sigmoid(%38) /* ty=Tensor[(10, 10), float32] span=from_string:86:9 */;
    %44 = multiply(%41, %42) /* ty=Tensor[(10, 10), float32] span=from_string:86:14 */;
    add(%43, %44) /* ty=Tensor[(10, 10), float32] span=from_string:78:5 */
  } /* ty=fn (Tensor[(10, 30), float32]) -> Tensor[(10, 10), float32] span=from_string:94:9 */;
  %48 = %4(%x0) /* ty=Tensor[(10, 10), float32] span=from_string:95:4 */;
  %49 = (%x6, %15) /* ty=(Tensor[(10, 10), float32], (Tensor[(10, 10), float32],)) span=from_string:95:9 */;
  %50 = (%22, %23) /* ty=(Tensor[(10, 34, 1), float32], Tensor[(10, 38, 1), float32]) span=from_string:95:14 */;
  %51 = %26(%25) /* ty=Tensor[(10, 34, 1), float32] span=from_string:95:19 */;
  %52 = %32(%31) /* ty=Tensor[(10, 10), float32] span=from_string:95:24 */;
  %53 = %36(%31) /* ty=Tensor[(10, 10), float32] span=from_string:95:29 */;
  %54 = %47(%46) /* ty=Tensor[(10, 10), float32] span=from_string:95:110 */;
  (%48, %49, %50, %51, %52, %53, meta[relay.Constant][0] /* ty=Tensor[(1), int32] span=from_string:95:39 */, %54, 0.761594f /* ty=float32 span=from_string:95:124 */) /* ty=(Tensor[(10, 10), float32], (Tensor[(10, 10), float32], (Tensor[(10, 10), float32],)), (Tensor[(10, 34, 1), float32], Tensor[(10, 38, 1), float32]), Tensor[(10, 34, 1), float32], Tensor[(10, 10), float32], Tensor[(10, 10), float32], Tensor[(1), int32], Tensor[(10, 10), float32], float32) span=from_string:95:3 */
}

#[metadata]
{
  "root": 1, 
  "nodes": [
    {
      "type_key": ""
    }, 
    {
      "type_key": "Map", 
      "keys": [
        "relay.Constant"
      ], 
      "data": [2]
    }, 
    {
      "type_key": "Array", 
      "data": [3]
    }, 
    {
      "type_key": "relay.Constant", 
      "attrs": {
        "_checked_type_": "8", 
        "data": "0", 
        "span": "6", 
        "virtual_device_": "4"
      }
    }, 
    {
      "type_key": "VirtualDevice", 
      "attrs": {
        "device_type_int": "-1", 
        "memory_scope": "5", 
        "target": "0", 
        "virtual_device_id": "-1"
      }
    }, 
    {
      "type_key": "runtime.String"
    }, 
    {
      "type_key": "Span", 
      "attrs": {
        "column": "39", 
        "end_column": "57", 
        "end_line": "95", 
        "line": "95", 
        "source_name": "7"
      }
    }, 
    {
      "type_key": "SourceName", 
      "repr_str": "from_string"
    }, 
    {
      "type_key": "relay.TensorType", 
      "attrs": {
        "dtype": "int32", 
        "shape": "9", 
        "span": "11"
      }
    }, 
    {
      "type_key": "Array", 
      "data": [10]
    }, 
    {
      "type_key": "IntImm", 
      "attrs": {
        "dtype": "int32", 
        "span": "0", 
        "value": "1"
      }
    }, 
    {
      "type_key": "Span", 
      "attrs": {
        "column": "748", 
        "end_column": "768", 
        "end_line": "2", 
        "line": "2", 
        "source_name": "7"
      }
    }
  ], 
  "b64ndarrays": [
    "P6G0lvBAXt0AAAAAAAAAAAEAAAAAAAAAAQAAAAAgAQABAAAAAAAAAAQAAAAAAAAAZAAAAA=="
  ], 
  "attrs": {"tvm_version": "0.13.0"}
}