#[version = "0.0.5"]
def @main(%x0: Tensor[(1, 128, 56, 56), float32] /* ty=Tensor[(1, 128, 56, 56), float32] span=from_string:7:11 */, %x1: Tensor[(1, 128, 56, 56), float32] /* ty=Tensor[(1, 128, 56, 56), float32] span=from_string:91:18 */, %x2: Tensor[(128, 128, 3, 3), float32] /* ty=Tensor[(128, 128, 3, 3), float32] span=from_string:41:18 */, %x3: Tensor[(128, 128, 1, 1), float32] /* ty=Tensor[(128, 128, 1, 1), float32] span=from_string:97:13 */, %x4: Tensor[(128, 128, 3, 3), float32] /* ty=Tensor[(128, 128, 3, 3), float32] span=from_string:48:18 */, %x5: Tensor[(128, 56, 56), float32] /* ty=Tensor[(128, 56, 56), float32] */, %x6: float32 /* ty=float32 span=from_string:95:89 */, %x7: Tensor[(80, 128, 56, 56), float32] /* ty=Tensor[(80, 128, 56, 56), float32] span=from_string:96:18 */) -> (Tensor[(1, 128, 56, 56), float16], Tensor[(1, 32, 56, 56, 4), float16], Tensor[(0, 255, 111, 56), float16], Tensor[(1, 128, 56, 56), float16], Tensor[(3), int32], Tensor[(4), int32], Tensor[(81, 128, 56, 56), float32], Tensor[(128, 384), float16]) {
  let %x_0 = fn (%p02: Tensor[(1, 128, 56, 56), float32] /* ty=Tensor[(1, 128, 56, 56), float32] span=from_string:4:15 */, Primitive=1) -> Tensor[(1, 32, 56, 56, 4), float16] {
    %0 = cast(%p02, dtype="float16") /* ty=Tensor[(1, 128, 56, 56), float16] span=from_string:5:22 */;
    layout_transform(%0, src_layout="NCHW", dst_layout="NCHW4c") /* ty=Tensor[(1, 32, 56, 56, 4), float16] span=from_string:4:5 */
  } /* ty=fn (Tensor[(1, 128, 56, 56), float32]) -> Tensor[(1, 32, 56, 56, 4), float16] span=from_string:7:8 */;
  let %x_1 = %x_0(%x0);
  let %x_2 = cast(%x_1, dtype="float32");
  let %x_3 = fn (%p01: Tensor[(1, 32, 56, 56, 4), float32] /* ty=Tensor[(1, 32, 56, 56, 4), float32] span=from_string:10:15 */, Primitive=1) -> Tensor[(1, 128, 56, 56), float16] {
    %1 = cast(%p01, dtype="float16") /* ty=Tensor[(1, 32, 56, 56, 4), float16] span=from_string:11:27 */;
    %2 = layout_transform(%1, src_layout="NCHW4c", dst_layout="NCHW") /* ty=Tensor[(1, 128, 56, 56), float16] span=from_string:12:13 */;
    nn.relu(%2) /* ty=Tensor[(1, 128, 56, 56), float16] span=from_string:10:5 */
  } /* ty=fn (Tensor[(1, 32, 56, 56, 4), float32]) -> Tensor[(1, 128, 56, 56), float16] span=from_string:14:9 */;
  let %x_4 = %x_3(%x_2);
  let %x_5 = cast(%x_4, dtype="float32");
  let %x_6 = fn (%p0: Tensor[(1, 128, 56, 56), float32] /* ty=Tensor[(1, 128, 56, 56), float32] span=from_string:17:15 */, %p1: Tensor[(1, 128, 56, 56), float32] /* ty=Tensor[(1, 128, 56, 56), float32] span=from_string:18:15 */, Primitive=1) -> Tensor[(1, 128, 56, 56), float16] {
    %3 = cast(%p0, dtype="float16") /* ty=Tensor[(1, 128, 56, 56), float16] span=from_string:19:19 */;
    %4 = cast(%p1, dtype="float16") /* ty=Tensor[(1, 128, 56, 56), float16] span=from_string:20:19 */;
    %5 = subtract(%3, %4) /* ty=Tensor[(1, 128, 56, 56), float16] span=from_string:20:15 */;
    multiply(%5, %4) /* ty=Tensor[(1, 128, 56, 56), float16] span=from_string:17:5 */
  } /* ty=fn (Tensor[(1, 128, 56, 56), float32], Tensor[(1, 128, 56, 56), float32]) -> Tensor[(1, 128, 56, 56), float16] span=from_string:91:9 */;
  let %x_7 = %x_6(%x_5, %x1);
  let %x_8 = fn (%p03: Tensor[(1, 32, 56, 56, 4), float32] /* ty=Tensor[(1, 32, 56, 56, 4), float32] span=from_string:23:16 */, Primitive=1) -> Tensor[(1, 32, 56, 56, 4), float16] {
    %6 = cast(%p03, dtype="float16") /* ty=Tensor[(1, 32, 56, 56, 4), float16] span=from_string:24:13 */;
    nn.relu(%6) /* ty=Tensor[(1, 32, 56, 56, 4), float16] span=from_string:23:5 */
  } /* ty=fn (Tensor[(1, 32, 56, 56, 4), float32]) -> Tensor[(1, 32, 56, 56, 4), float16] span=from_string:92:9 */;
  let %x_9 = %x_8(%x_2);
  let %x_10 = fn (%p07: Tensor[(1, 128, 56, 56), float32] /* ty=Tensor[(1, 128, 56, 56), float32] span=from_string:27:16 */, Primitive=1) -> Tensor[(1, 128, 56, 56), float16] {
    %7 = cast(%p07, dtype="float16") /* ty=Tensor[(1, 128, 56, 56), float16] span=from_string:29:9 */;
    %8 = cast(1f /* ty=float32 span=from_string:28:18 */, dtype="float16") /* ty=float16 span=from_string:29:14 */;
    add(%7, %8) /* ty=Tensor[(1, 128, 56, 56), float16] span=from_string:27:5 */
  } /* ty=fn (Tensor[(1, 128, 56, 56), float32]) -> Tensor[(1, 128, 56, 56), float16] span=from_string:31:9 */;
  let %x_11 = %x_10(%x_5);
  let %x_12 = cast(%x_11, dtype="float32");
  let %x_13 = fn (%p06: Tensor[(1, 128, 56, 56), float32] /* ty=Tensor[(1, 128, 56, 56), float32] span=from_string:34:16 */, %p12: Tensor[(128, 128, 3, 3), float32] /* ty=Tensor[(128, 128, 3, 3), float32] span=from_string:35:16 */, Primitive=1) -> Tensor[(1, 128, 56, 56), float16] {
    %9 = cast(%p06, dtype="float16") /* ty=Tensor[(1, 128, 56, 56), float16] span=from_string:37:21 */;
    %10 = cast(%p12, dtype="float16") /* ty=Tensor[(128, 128, 3, 3), float16] span=from_string:37:26 */;
    %11 = cast(1f /* ty=float32 span=from_string:36:18 */, dtype="float16") /* ty=float16 span=from_string:38:15 */;
    %12 = nn.conv2d(%9, %10, padding=[1, 1, 1, 1], channels=128, kernel_size=[3, 3], out_dtype="float16") /* ty=Tensor[(1, 128, 56, 56), float16] span=from_string:39:9 */;
    %13 = add(%11, %12) /* ty=Tensor[(1, 128, 56, 56), float16] span=from_string:39:14 */;
    add(%12, %13) /* ty=Tensor[(1, 128, 56, 56), float16] span=from_string:34:5 */
  } /* ty=fn (Tensor[(1, 128, 56, 56), float32], Tensor[(128, 128, 3, 3), float32]) -> Tensor[(1, 128, 56, 56), float16] span=from_string:41:9 */;
  let %x_14 = %x_13(%x_12, %x2);
  let %x_15 = cast(%x_14, dtype="float32");
  let %x_16 = fn (%p05: Tensor[(1, 128, 56, 56), float32] /* ty=Tensor[(1, 128, 56, 56), float32] span=from_string:44:16 */, %p11: Tensor[(128, 128, 3, 3), float32] /* ty=Tensor[(128, 128, 3, 3), float32] span=from_string:45:16 */, Primitive=1) -> Tensor[(1, 128, 56, 56), float16] {
    %14 = cast(%p05, dtype="float16") /* ty=Tensor[(1, 128, 56, 56), float16] span=from_string:46:15 */;
    %15 = cast(%p11, dtype="float16") /* ty=Tensor[(128, 128, 3, 3), float16] span=from_string:46:20 */;
    nn.conv2d(%14, %15, padding=[1, 1, 1, 1], channels=128, kernel_size=[3, 3], out_dtype="float16") /* ty=Tensor[(1, 128, 56, 56), float16] span=from_string:44:5 */
  } /* ty=fn (Tensor[(1, 128, 56, 56), float32], Tensor[(128, 128, 3, 3), float32]) -> Tensor[(1, 128, 56, 56), float16] span=from_string:48:9 */;
  let %x_17 = %x_16(%x_15, %x4);
  let %x_18 = cast(%x_17, dtype="float32");
  let %x_19 = fn (%p04: Tensor[(1, 128, 56, 56), float32] /* ty=Tensor[(1, 128, 56, 56), float32] span=from_string:51:16 */, Primitive=1) -> Tensor[(0, 255, 111, 56), float16] {
    %16 = cast(%p04, dtype="float16") /* ty=Tensor[(1, 128, 56, 56), float16] span=from_string:52:26 */;
    nn.batch_to_space_nd(%16, block_shape=[2, 2], crops=[[0, 1], [0, 1]]) /* ty=Tensor[(0, 255, 111, 56), float16] span=from_string:51:5 */
  } /* ty=fn (Tensor[(1, 128, 56, 56), float32]) -> Tensor[(0, 255, 111, 56), float16] span=from_string:93:9 */;
  let %x_20 = %x_19(%x_18);
  let %x_21 = fn (%p08: Tensor[(1, 128, 56, 56), float32] /* ty=Tensor[(1, 128, 56, 56), float32] span=from_string:55:16 */, Primitive=1, relay.reshape_only=1) -> Tensor[(1, 128, 56, 56), float16] {
    %17 = cast(%p08, dtype="float16") /* ty=Tensor[(1, 128, 56, 56), float16] span=from_string:56:13 */;
    reshape(%17, newshape=[1, 128, 56, 56]) /* ty=Tensor[(1, 128, 56, 56), float16] span=from_string:55:5 */
  } /* ty=fn (Tensor[(1, 128, 56, 56), float32]) -> Tensor[(1, 128, 56, 56), float16] span=from_string:94:9 */;
  let %x_22 = %x_21(%x_12);
  let %x_23 = meta[relay.Constant][0] /* ty=Tensor[(3), int32] span=from_string:95:18 */;
  let %x_24 = fn (%p09: Tensor[(3), int32] /* ty=Tensor[(3), int32] */, %p13: float32 /* ty=float32 span=from_string:59:16 */, Primitive=1) -> Tensor[(3), int32] {
    %18 = cast(%p13, dtype="float16") /* ty=float16 span=from_string:60:10 */;
    full(%18, shape=[3], dtype="int32") /* ty=Tensor[(3), int32] span=from_string:59:5 */
  } /* ty=fn (Tensor[(3), int32], float32) -> Tensor[(3), int32] span=from_string:95:9 */;
  let %x_25 = %x_24(%x_23, %x6);
  let %x_26 = meta[relay.Constant][1] /* ty=Tensor[(4), int32] span=from_string:98:34 */;
  let %x_27 = fn (%p011: Tensor[(1, 128, 56, 56), float32] /* ty=Tensor[(1, 128, 56, 56), float32] span=from_string:63:16 */, %p15: Tensor[(128, 128, 1, 1), float32] /* ty=Tensor[(128, 128, 1, 1), float32] span=from_string:64:16 */, %p2: Tensor[(1, 128, 56, 56), float32] /* ty=Tensor[(1, 128, 56, 56), float32] span=from_string:66:16 */, Primitive=1) -> Tensor[(1, 128, 56, 56), float16] {
    %19 = cast(%p011, dtype="float16") /* ty=Tensor[(1, 128, 56, 56), float16] span=from_string:65:21 */;
    %20 = cast(%p15, dtype="float16") /* ty=Tensor[(128, 128, 1, 1), float16] span=from_string:65:26 */;
    %21 = nn.conv2d(%19, %20, padding=[0, 0, 0, 0], channels=128, kernel_size=[1, 1], out_dtype="float16") /* ty=Tensor[(1, 128, 56, 56), float16] span=from_string:67:9 */;
    %22 = cast(%p2, dtype="float16") /* ty=Tensor[(1, 128, 56, 56), float16] span=from_string:67:14 */;
    add(%21, %22) /* ty=Tensor[(1, 128, 56, 56), float16] span=from_string:63:5 */
  } /* ty=fn (Tensor[(1, 128, 56, 56), float32], Tensor[(128, 128, 1, 1), float32], Tensor[(1, 128, 56, 56), float32]) -> Tensor[(1, 128, 56, 56), float16] span=from_string:69:9 */;
  let %x_28 = %x_27(%x_15, %x3, %x_18);
  let %x_29 = cast(%x_28, dtype="float32");
  let %x_30 = fn (%p010: Tensor[(1, 128, 56, 56), float32] /* ty=Tensor[(1, 128, 56, 56), float32] span=from_string:72:12 */, %p14: Tensor[(80, 128, 56, 56), float32] /* ty=Tensor[(80, 128, 56, 56), float32] span=from_string:72:19 */, Primitive=1) -> Tensor[(81, 128, 56, 56), float32] {
    %23 = (%p010, %p14) /* ty=(Tensor[(1, 128, 56, 56), float32], Tensor[(80, 128, 56, 56), float32]) span=from_string:73:17 */;
    concatenate(%23) /* ty=Tensor[(81, 128, 56, 56), float32] span=from_string:72:5 */
  } /* ty=fn (Tensor[(1, 128, 56, 56), float32], Tensor[(80, 128, 56, 56), float32]) -> Tensor[(81, 128, 56, 56), float32] span=from_string:96:9 */;
  let %x_31 = %x_30(%x_29, %x7);
  let %x_32 = fn (%p012: Tensor[(128, 128, 1, 1), float32] /* ty=Tensor[(128, 128, 1, 1), float32] span=from_string:76:16 */, Primitive=1) -> Tensor[(128, 384), float16] {
    %24 = cast(%p012, dtype="float16") /* ty=Tensor[(128, 128, 1, 1), float16] span=from_string:77:19 */;
    %25 = squeeze(%24) /* ty=Tensor[(128, 128), float16] span=from_string:84:15 */;
    %26 = cast(1f /* ty=float32 span=from_string:78:18 */, dtype="float16") /* ty=float16 span=from_string:82:20 */;
    %27 = squeeze(%25) /* ty=Tensor[(128, 128), float16] span=from_string:83:15 */;
    %28 = cast(2f /* ty=float32 span=from_string:80:18 */, dtype="float16") /* ty=float16 span=from_string:83:20 */;
    %29 = cast(1f /* ty=float32 span=from_string:81:18 */, dtype="float16") /* ty=float16 span=from_string:84:20 */;
    %30 = add(%25, %26) /* ty=Tensor[(128, 128), float16] span=from_string:85:12 */;
    %31 = add(%27, %28) /* ty=Tensor[(128, 128), float16] span=from_string:85:17 */;
    %32 = add(%25, %29) /* ty=Tensor[(128, 128), float16] span=from_string:85:22 */;
    %33 = (%30, %31, %32) /* ty=(Tensor[(128, 128), float16], Tensor[(128, 128), float16], Tensor[(128, 128), float16]) span=from_string:86:23 */;
    %34 = concatenate(%33, axis=1) /* ty=Tensor[(128, 384), float16] span=from_string:87:19 */;
    %35 = squeeze(%34) /* ty=Tensor[(128, 384), float16] span=from_string:89:9 */;
    %36 = cast(1f /* ty=float32 span=from_string:88:18 */, dtype="float16") /* ty=float16 span=from_string:89:14 */;
    add(%35, %36) /* ty=Tensor[(128, 384), float16] span=from_string:76:5 */
  } /* ty=fn (Tensor[(128, 128, 1, 1), float32]) -> Tensor[(128, 384), float16] span=from_string:97:9 */;
  let %x_33 = %x_32(%x3);
  let %x_34 = (%x_7, %x_9, %x_20, %x_22, %x_25, %x_26, %x_31, %x_33) /* ty=(Tensor[(1, 128, 56, 56), float16], Tensor[(1, 32, 56, 56, 4), float16], Tensor[(0, 255, 111, 56), float16], Tensor[(1, 128, 56, 56), float16], Tensor[(3), int32], Tensor[(4), int32], Tensor[(81, 128, 56, 56), float32], Tensor[(128, 384), float16]) span=from_string:3:3 */;
  %x_34
}

#[metadata]
{
  "root": 1, 
  "nodes": [
    {
      "type_key": ""
    }, 
    {
      "type_key": "Map", 
      "keys": [
        "relay.Constant"
      ], 
      "data": [2]
    }, 
    {
      "type_key": "Array", 
      "data": [3, 11]
    }, 
    {
      "type_key": "relay.Constant", 
      "attrs": {
        "_checked_type_": "8", 
        "data": "0", 
        "span": "6", 
        "virtual_device_": "4"
      }
    }, 
    {
      "type_key": "VirtualDevice", 
      "attrs": {
        "device_type_int": "-1", 
        "memory_scope": "5", 
        "target": "0", 
        "virtual_device_id": "-1"
      }
    }, 
    {
      "type_key": "runtime.String"
    }, 
    {
      "type_key": "Span", 
      "attrs": {
        "column": "18", 
        "end_column": "36", 
        "end_line": "95", 
        "line": "95", 
        "source_name": "7"
      }
    }, 
    {
      "type_key": "SourceName", 
      "repr_str": "from_string"
    }, 
    {
      "type_key": "relay.TensorType", 
      "attrs": {
        "dtype": "int32", 
        "shape": "9", 
        "span": "0"
      }
    }, 
    {
      "type_key": "Array", 
      "data": [10]
    }, 
    {
      "type_key": "IntImm", 
      "attrs": {
        "dtype": "int32", 
        "span": "0", 
        "value": "3"
      }
    }, 
    {
      "type_key": "relay.Constant", 
      "attrs": {
        "_checked_type_": "13", 
        "data": "1", 
        "span": "12", 
        "virtual_device_": "4"
      }
    }, 
    {
      "type_key": "Span", 
      "attrs": {
        "column": "34", 
        "end_column": "52", 
        "end_line": "98", 
        "line": "98", 
        "source_name": "7"
      }
    }, 
    {
      "type_key": "relay.TensorType", 
      "attrs": {
        "dtype": "int32", 
        "shape": "14", 
        "span": "16"
      }
    }, 
    {
      "type_key": "Array", 
      "data": [15]
    }, 
    {
      "type_key": "IntImm", 
      "attrs": {
        "dtype": "int32", 
        "span": "0", 
        "value": "4"
      }
    }, 
    {
      "type_key": "Span", 
      "attrs": {
        "column": "949", 
        "end_column": "969", 
        "end_line": "2", 
        "line": "2", 
        "source_name": "7"
      }
    }
  ], 
  "b64ndarrays": [
    "P6G0lvBAXt0AAAAAAAAAAAEAAAAAAAAAAQAAAAAgAQADAAAAAAAAAAwAAAAAAAAAgAAAADgAAAA4AAAA", 
    "P6G0lvBAXt0AAAAAAAAAAAEAAAAAAAAAAQAAAAAgAQAEAAAAAAAAABAAAAAAAAAAAAAAAAAAAAAAAAAAAAAAAA=="
  ], 
  "attrs": {"tvm_version": "0.13.0"}
}