#[version = "0.0.5"]
def @main(%x0: Tensor[(1, 128, 56, 56), float32] /* ty=Tensor[(1, 128, 56, 56), float32] span=from_string:3:13 */, %x1: Tensor[(1, 128, 56, 56), float32] /* ty=Tensor[(1, 128, 56, 56), float32] span=from_string:7:13 */, %x2: Tensor[(128, 128, 3, 3), float32] /* ty=Tensor[(128, 128, 3, 3), float32] span=from_string:14:13 */, %x3: Tensor[(128, 128, 1, 1), float32] /* ty=Tensor[(128, 128, 1, 1), float32] span=from_string:27:13 */, %x4: Tensor[(128, 128, 3, 3), float32] /* ty=Tensor[(128, 128, 3, 3), float32] span=from_string:20:13 */, %x5: Tensor[(128, 56, 56), float32] /* ty=Tensor[(128, 56, 56), float32] */, %x6: float32 /* ty=float32 span=from_string:24:13 */, %x7: Tensor[(80, 128, 56, 56), float32] /* ty=Tensor[(80, 128, 56, 56), float32] span=from_string:30:201 */) -> (Tensor[(1, 128, 56, 56), float16], Tensor[(1, 32, 56, 56, 4), float16], Tensor[(0, 255, 111, 56), float16], Tensor[(1, 128, 56, 56), float16], Tensor[(3), int32], Tensor[(4), int32], Tensor[(81, 128, 56, 56), float16], Tensor[(128, 384), float16]) {
  %1 = fn (%p0: Tensor[(1, 128, 56, 56), float32] /* ty=Tensor[(1, 128, 56, 56), float32] */, Primitive=1) -> Tensor[(1, 32, 56, 56, 4), float16] {
    %0 = cast(%p0, dtype="float16") /* ty=Tensor[(1, 128, 56, 56), float16] span=from_string:4:136 */;
    layout_transform(%0, src_layout="NCHW", dst_layout="NCHW4c") /* ty=Tensor[(1, 32, 56, 56, 4), float16] span=from_string:4:119 */
  } /* ty=fn (Tensor[(1, 128, 56, 56), float32]) -> Tensor[(1, 32, 56, 56, 4), float16] */;
  let %x_0: Tensor[(1, 32, 56, 56, 4), float16] /* ty=Tensor[(1, 32, 56, 56, 4), float16] span=from_string:10:128 */ = %1(%x0) /* ty=Tensor[(1, 32, 56, 56, 4), float16] */;
  %2 = fn (%p01: Tensor[(1, 32, 56, 56, 4), float16] /* ty=Tensor[(1, 32, 56, 56, 4), float16] */, Primitive=1) -> Tensor[(1, 128, 56, 56), float16] {
    layout_transform(%p01, src_layout="NCHW4c", dst_layout="NCHW") /* ty=Tensor[(1, 128, 56, 56), float16] span=from_string:5:115 */
  } /* ty=fn (Tensor[(1, 32, 56, 56, 4), float16]) -> Tensor[(1, 128, 56, 56), float16] */;
  let %x_1: Tensor[(1, 128, 56, 56), float16] /* ty=Tensor[(1, 128, 56, 56), float16] span=from_string:6:124 */ = %2(%x_0) /* ty=Tensor[(1, 128, 56, 56), float16] */;
  %3 = fn (%p02: Tensor[(1, 128, 56, 56), float16] /* ty=Tensor[(1, 128, 56, 56), float16] */, Primitive=1) -> Tensor[(1, 128, 56, 56), float16] {
    nn.relu(%p02) /* ty=Tensor[(1, 128, 56, 56), float16] span=from_string:6:116 */
  } /* ty=fn (Tensor[(1, 128, 56, 56), float16]) -> Tensor[(1, 128, 56, 56), float16] */;
  let %x_2: Tensor[(1, 128, 56, 56), float16] /* ty=Tensor[(1, 128, 56, 56), float16] span=from_string:13:120 */ = %3(%x_1) /* ty=Tensor[(1, 128, 56, 56), float16] */;
  %4 = fn (%p04: Tensor[(1, 128, 56, 56), float32] /* ty=Tensor[(1, 128, 56, 56), float32] */, Primitive=1) -> Tensor[(1, 128, 56, 56), float16] {
    cast(%p04, dtype="float16") /* ty=Tensor[(1, 128, 56, 56), float16] span=from_string:9:132 */
  } /* ty=fn (Tensor[(1, 128, 56, 56), float32]) -> Tensor[(1, 128, 56, 56), float16] */;
  %5 = %4(%x1) /* ty=Tensor[(1, 128, 56, 56), float16] */;
  %6 = fn (%p03: Tensor[(1, 128, 56, 56), float16] /* ty=Tensor[(1, 128, 56, 56), float16] */, %p1: Tensor[(1, 128, 56, 56), float16] /* ty=Tensor[(1, 128, 56, 56), float16] */, Primitive=1) -> Tensor[(1, 128, 56, 56), float16] {
    subtract(%p03, %p1) /* ty=Tensor[(1, 128, 56, 56), float16] span=from_string:8:115 */
  } /* ty=fn (Tensor[(1, 128, 56, 56), float16], Tensor[(1, 128, 56, 56), float16]) -> Tensor[(1, 128, 56, 56), float16] */;
  let %x_3: Tensor[(1, 128, 56, 56), float16] /* ty=Tensor[(1, 128, 56, 56), float16] span=from_string:9:126 */ = %6(%x_2, %5) /* ty=Tensor[(1, 128, 56, 56), float16] */;
  %7 = fn (%p05: Tensor[(1, 128, 56, 56), float16] /* ty=Tensor[(1, 128, 56, 56), float16] */, %p11: Tensor[(1, 128, 56, 56), float16] /* ty=Tensor[(1, 128, 56, 56), float16] */, Primitive=1) -> Tensor[(1, 128, 56, 56), float16] {
    multiply(%p05, %p11) /* ty=Tensor[(1, 128, 56, 56), float16] span=from_string:9:117 */
  } /* ty=fn (Tensor[(1, 128, 56, 56), float16], Tensor[(1, 128, 56, 56), float16]) -> Tensor[(1, 128, 56, 56), float16] */;
  let %x_4: Tensor[(1, 128, 56, 56), float16] /* ty=Tensor[(1, 128, 56, 56), float16] span=from_string:53:550 */ = %7(%x_3, %5) /* ty=Tensor[(1, 128, 56, 56), float16] */;
  %8 = fn (%p06: Tensor[(1, 32, 56, 56, 4), float16] /* ty=Tensor[(1, 32, 56, 56, 4), float16] */, Primitive=1) -> Tensor[(1, 32, 56, 56, 4), float16] {
    nn.relu(%p06) /* ty=Tensor[(1, 32, 56, 56, 4), float16] span=from_string:10:120 */
  } /* ty=fn (Tensor[(1, 32, 56, 56, 4), float16]) -> Tensor[(1, 32, 56, 56, 4), float16] */;
  let %x_5: Tensor[(1, 32, 56, 56, 4), float16] /* ty=Tensor[(1, 32, 56, 56, 4), float16] span=from_string:53:556 */ = %8(%x_0) /* ty=Tensor[(1, 32, 56, 56, 4), float16] */;
  let %x_6: float32 /* ty=float32 span=from_string:12:13 */ = 1f /* ty=float32 span=from_string:11:66 */;
  %10 = fn (%p07: float32 /* ty=float32 */, %p12: Tensor[(1, 128, 56, 56), float16] /* ty=Tensor[(1, 128, 56, 56), float16] */, Primitive=1) -> Tensor[(1, 128, 56, 56), float16] {
    %9 = cast(%p07, dtype="float16") /* ty=float16 span=from_string:13:126 */;
    add(%p12, %9) /* ty=Tensor[(1, 128, 56, 56), float16] span=from_string:13:116 */
  } /* ty=fn (float32, Tensor[(1, 128, 56, 56), float16]) -> Tensor[(1, 128, 56, 56), float16] */;
  let %x_7: Tensor[(1, 128, 56, 56), float16] /* ty=Tensor[(1, 128, 56, 56), float16] span=from_string:23:125 */ = %10(%x_6, %x_2) /* ty=Tensor[(1, 128, 56, 56), float16] */;
  %11 = fn (%p09: Tensor[(128, 128, 3, 3), float32] /* ty=Tensor[(128, 128, 3, 3), float32] */, Primitive=1) -> Tensor[(128, 128, 3, 3), float16] {
    cast(%p09, dtype="float16") /* ty=Tensor[(128, 128, 3, 3), float16] span=from_string:15:132 */
  } /* ty=fn (Tensor[(128, 128, 3, 3), float32]) -> Tensor[(128, 128, 3, 3), float16] */;
  %12 = %11(%x2) /* ty=Tensor[(128, 128, 3, 3), float16] */;
  %13 = fn (%p08: Tensor[(1, 128, 56, 56), float16] /* ty=Tensor[(1, 128, 56, 56), float16] */, %p13: Tensor[(128, 128, 3, 3), float16] /* ty=Tensor[(128, 128, 3, 3), float16] */, Primitive=1) -> Tensor[(1, 128, 56, 56), float16] {
    nn.conv2d(%p08, %p13, padding=[1, 1, 1, 1], channels=128, kernel_size=[3, 3], out_dtype="float16") /* ty=Tensor[(1, 128, 56, 56), float16] span=from_string:15:116 */
  } /* ty=fn (Tensor[(1, 128, 56, 56), float16], Tensor[(128, 128, 3, 3), float16]) -> Tensor[(1, 128, 56, 56), float16] */;
  let %x_8: Tensor[(1, 128, 56, 56), float16] /* ty=Tensor[(1, 128, 56, 56), float16] span=from_string:19:121 */ = %13(%x_7, %12) /* ty=Tensor[(1, 128, 56, 56), float16] */;
  let %x_9: float32 /* ty=float32 span=from_string:17:13 */ = 1f /* ty=float32 span=from_string:16:66 */;
  %15 = fn (%p010: float32 /* ty=float32 */, %p14: Tensor[(1, 128, 56, 56), float16] /* ty=Tensor[(1, 128, 56, 56), float16] */, Primitive=1) -> Tensor[(1, 128, 56, 56), float16] {
    %14 = cast(%p010, dtype="float16") /* ty=float16 span=from_string:18:121 */;
    add(%14, %p14) /* ty=Tensor[(1, 128, 56, 56), float16] span=from_string:18:117 */
  } /* ty=fn (float32, Tensor[(1, 128, 56, 56), float16]) -> Tensor[(1, 128, 56, 56), float16] */;
  let %x_10: Tensor[(1, 128, 56, 56), float16] /* ty=Tensor[(1, 128, 56, 56), float16] span=from_string:19:127 */ = %15(%x_9, %x_8) /* ty=Tensor[(1, 128, 56, 56), float16] */;
  %16 = fn (%p011: Tensor[(1, 128, 56, 56), float16] /* ty=Tensor[(1, 128, 56, 56), float16] */, %p15: Tensor[(1, 128, 56, 56), float16] /* ty=Tensor[(1, 128, 56, 56), float16] */, Primitive=1) -> Tensor[(1, 128, 56, 56), float16] {
    add(%p011, %p15) /* ty=Tensor[(1, 128, 56, 56), float16] span=from_string:19:117 */
  } /* ty=fn (Tensor[(1, 128, 56, 56), float16], Tensor[(1, 128, 56, 56), float16]) -> Tensor[(1, 128, 56, 56), float16] */;
  let %x_11: Tensor[(1, 128, 56, 56), float16] /* ty=Tensor[(1, 128, 56, 56), float16] span=from_string:28:127 */ = %16(%x_8, %x_10) /* ty=Tensor[(1, 128, 56, 56), float16] */;
  %17 = fn (%p013: Tensor[(128, 128, 3, 3), float32] /* ty=Tensor[(128, 128, 3, 3), float32] */, Primitive=1) -> Tensor[(128, 128, 3, 3), float16] {
    cast(%p013, dtype="float16") /* ty=Tensor[(128, 128, 3, 3), float16] span=from_string:21:134 */
  } /* ty=fn (Tensor[(128, 128, 3, 3), float32]) -> Tensor[(128, 128, 3, 3), float16] */;
  %18 = %17(%x4) /* ty=Tensor[(128, 128, 3, 3), float16] */;
  %19 = fn (%p012: Tensor[(1, 128, 56, 56), float16] /* ty=Tensor[(1, 128, 56, 56), float16] */, %p16: Tensor[(128, 128, 3, 3), float16] /* ty=Tensor[(128, 128, 3, 3), float16] */, Primitive=1) -> Tensor[(1, 128, 56, 56), float16] {
    nn.conv2d(%p012, %p16, padding=[1, 1, 1, 1], channels=128, kernel_size=[3, 3], out_dtype="float16") /* ty=Tensor[(1, 128, 56, 56), float16] span=from_string:21:117 */
  } /* ty=fn (Tensor[(1, 128, 56, 56), float16], Tensor[(128, 128, 3, 3), float16]) -> Tensor[(1, 128, 56, 56), float16] */;
  let %x_12: Tensor[(1, 128, 56, 56), float16] /* ty=Tensor[(1, 128, 56, 56), float16] span=from_string:29:128 */ = %19(%x_11, %18) /* ty=Tensor[(1, 128, 56, 56), float16] */;
  %20 = fn (%p014: Tensor[(1, 128, 56, 56), float16] /* ty=Tensor[(1, 128, 56, 56), float16] */, Primitive=1) -> Tensor[(0, 255, 111, 56), float16] {
    nn.batch_to_space_nd(%p014, block_shape=[2, 2], crops=[[0, 1], [0, 1]]) /* ty=Tensor[(0, 255, 111, 56), float16] span=from_string:22:119 */
  } /* ty=fn (Tensor[(1, 128, 56, 56), float16]) -> Tensor[(0, 255, 111, 56), float16] */;
  let %x_13: Tensor[(0, 255, 111, 56), float16] /* ty=Tensor[(0, 255, 111, 56), float16] span=from_string:53:562 */ = %20(%x_12) /* ty=Tensor[(0, 255, 111, 56), float16] */;
  %21 = fn (%p015: Tensor[(1, 128, 56, 56), float16] /* ty=Tensor[(1, 128, 56, 56), float16] */, Primitive=1, relay.reshape_only=1) -> Tensor[(1, 128, 56, 56), float16] {
    reshape(%p015, newshape=[1, 128, 56, 56]) /* ty=Tensor[(1, 128, 56, 56), float16] span=from_string:23:117 */
  } /* ty=fn (Tensor[(1, 128, 56, 56), float16]) -> Tensor[(1, 128, 56, 56), float16] */;
  let %x_14: Tensor[(1, 128, 56, 56), float16] /* ty=Tensor[(1, 128, 56, 56), float16] span=from_string:53:569 */ = %21(%x_7) /* ty=Tensor[(1, 128, 56, 56), float16] */;
  %23 = fn (%p016: float32 /* ty=float32 */, Primitive=1) -> Tensor[(3), int32] {
    %22 = cast(%p016, dtype="float16") /* ty=float16 span=from_string:25:94 */;
    full(%22, shape=[3], dtype="int32") /* ty=Tensor[(3), int32] span=from_string:25:89 */
  } /* ty=fn (float32) -> Tensor[(3), int32] */;
  let %x_15: Tensor[(3), int32] /* ty=Tensor[(3), int32] span=from_string:53:576 */ = %23(%x6) /* ty=Tensor[(3), int32] */;
  let %x_16: Tensor[(4), int32] /* ty=Tensor[(4), int32] span=from_string:53:583 */ = meta[relay.Constant][0] /* ty=Tensor[(4), int32] span=from_string:26:94 */;
  %24 = fn (%p018: Tensor[(128, 128, 1, 1), float32] /* ty=Tensor[(128, 128, 1, 1), float32] */, Primitive=1) -> Tensor[(128, 128, 1, 1), float16] {
    cast(%p018, dtype="float16") /* ty=Tensor[(128, 128, 1, 1), float16] span=from_string:36:113 */
  } /* ty=fn (Tensor[(128, 128, 1, 1), float32]) -> Tensor[(128, 128, 1, 1), float16] */;
  %25 = %24(%x3) /* ty=Tensor[(128, 128, 1, 1), float16] */;
  %26 = fn (%p017: Tensor[(1, 128, 56, 56), float16] /* ty=Tensor[(1, 128, 56, 56), float16] */, %p17: Tensor[(128, 128, 1, 1), float16] /* ty=Tensor[(128, 128, 1, 1), float16] */, Primitive=1) -> Tensor[(1, 128, 56, 56), float16] {
    nn.conv2d(%p017, %p17, padding=[0, 0, 0, 0], channels=128, kernel_size=[1, 1], out_dtype="float16") /* ty=Tensor[(1, 128, 56, 56), float16] span=from_string:28:117 */
  } /* ty=fn (Tensor[(1, 128, 56, 56), float16], Tensor[(128, 128, 1, 1), float16]) -> Tensor[(1, 128, 56, 56), float16] */;
  let %x_17: Tensor[(1, 128, 56, 56), float16] /* ty=Tensor[(1, 128, 56, 56), float16] span=from_string:29:121 */ = %26(%x_11, %25) /* ty=Tensor[(1, 128, 56, 56), float16] */;
  %27 = fn (%p019: Tensor[(1, 128, 56, 56), float16] /* ty=Tensor[(1, 128, 56, 56), float16] */, %p18: Tensor[(1, 128, 56, 56), float16] /* ty=Tensor[(1, 128, 56, 56), float16] */, Primitive=1) -> Tensor[(1, 128, 56, 56), float16] {
    add(%p019, %p18) /* ty=Tensor[(1, 128, 56, 56), float16] span=from_string:29:117 */
  } /* ty=fn (Tensor[(1, 128, 56, 56), float16], Tensor[(1, 128, 56, 56), float16]) -> Tensor[(1, 128, 56, 56), float16] */;
  let %x_18: Tensor[(1, 128, 56, 56), float16] /* ty=Tensor[(1, 128, 56, 56), float16] span=from_string:30:194 */ = %27(%x_17, %x_12) /* ty=Tensor[(1, 128, 56, 56), float16] */;
  let %x_19: (Tensor[(1, 128, 56, 56), float16], Tensor[(80, 128, 56, 56), float32]) /* ty=(Tensor[(1, 128, 56, 56), float16], Tensor[(80, 128, 56, 56), float32]) span=from_string:32:8 */ = (%x_18, %x7) /* ty=(Tensor[(1, 128, 56, 56), float16], Tensor[(80, 128, 56, 56), float32]) span=from_string:30:193 */;
  %32 = fn (%p020: (Tensor[(1, 128, 56, 56), float16], Tensor[(80, 128, 56, 56), float32]) /* ty=(Tensor[(1, 128, 56, 56), float16], Tensor[(80, 128, 56, 56), float32]) */, Primitive=1) -> Tensor[(81, 128, 56, 56), float16] {
    %28 = %p020.1 /* ty=Tensor[(80, 128, 56, 56), float32] */;
    %29 = %p020.0 /* ty=Tensor[(1, 128, 56, 56), float16] */;
    %30 = cast(%28, dtype="float16") /* ty=Tensor[(80, 128, 56, 56), float16] span=from_string:34:14 */;
    %31 = (%29, %30) /* ty=(Tensor[(1, 128, 56, 56), float16], Tensor[(80, 128, 56, 56), float16]) span=from_string:35:131 */;
    concatenate(%31) /* ty=Tensor[(81, 128, 56, 56), float16] span=from_string:35:119 */
  } /* ty=fn ((Tensor[(1, 128, 56, 56), float16], Tensor[(80, 128, 56, 56), float32])) -> Tensor[(81, 128, 56, 56), float16] */;
  let %x_20: Tensor[(81, 128, 56, 56), float16] /* ty=Tensor[(81, 128, 56, 56), float16] span=from_string:53:590 */ = %32(%x_19) /* ty=Tensor[(81, 128, 56, 56), float16] */;
  %33 = fn (%p021: Tensor[(128, 128, 1, 1), float16] /* ty=Tensor[(128, 128, 1, 1), float16] */, Primitive=1, relay.reshape_only=1) -> Tensor[(128, 128), float16] {
    squeeze(%p021) /* ty=Tensor[(128, 128), float16] span=from_string:36:105 */
  } /* ty=fn (Tensor[(128, 128, 1, 1), float16]) -> Tensor[(128, 128), float16] */;
  let %x_21: Tensor[(128, 128), float16] /* ty=Tensor[(128, 128), float16] span=from_string:46:109 */ = %33(%25) /* ty=Tensor[(128, 128), float16] */;
  let %x_22: float32 /* ty=float32 span=from_string:38:14 */ = 1f /* ty=float32 span=from_string:37:67 */;
  %35 = fn (%p022: float32 /* ty=float32 */, %p19: Tensor[(128, 128), float16] /* ty=Tensor[(128, 128), float16] */, Primitive=1) -> Tensor[(128, 128), float16] {
    %34 = cast(%p022, dtype="float16") /* ty=float16 span=from_string:39:116 */;
    add(%p19, %34) /* ty=Tensor[(128, 128), float16] span=from_string:39:105 */
  } /* ty=fn (float32, Tensor[(128, 128), float16]) -> Tensor[(128, 128), float16] */;
  let %x_23: Tensor[(128, 128), float16] /* ty=Tensor[(128, 128), float16] span=from_string:47:226 */ = %35(%x_22, %x_21) /* ty=Tensor[(128, 128), float16] */;
  %36 = fn (%p023: Tensor[(128, 128), float16] /* ty=Tensor[(128, 128), float16] */, Primitive=1, relay.reshape_only=1) -> Tensor[(128, 128), float16] {
    squeeze(%p023) /* ty=Tensor[(128, 128), float16] span=from_string:40:105 */
  } /* ty=fn (Tensor[(128, 128), float16]) -> Tensor[(128, 128), float16] */;
  let %x_24: Tensor[(128, 128), float16] /* ty=Tensor[(128, 128), float16] span=from_string:43:109 */ = %36(%x_21) /* ty=Tensor[(128, 128), float16] */;
  let %x_25: float32 /* ty=float32 span=from_string:42:14 */ = 2f /* ty=float32 span=from_string:41:67 */;
  %38 = fn (%p024: float32 /* ty=float32 */, %p110: Tensor[(128, 128), float16] /* ty=Tensor[(128, 128), float16] */, Primitive=1) -> Tensor[(128, 128), float16] {
    %37 = cast(%p024, dtype="float16") /* ty=float16 span=from_string:43:116 */;
    add(%p110, %37) /* ty=Tensor[(128, 128), float16] span=from_string:43:105 */
  } /* ty=fn (float32, Tensor[(128, 128), float16]) -> Tensor[(128, 128), float16] */;
  let %x_26: Tensor[(128, 128), float16] /* ty=Tensor[(128, 128), float16] span=from_string:47:233 */ = %38(%x_25, %x_24) /* ty=Tensor[(128, 128), float16] */;
  let %x_27: float32 /* ty=float32 span=from_string:45:14 */ = 1f /* ty=float32 span=from_string:44:67 */;
  %40 = fn (%p025: float32 /* ty=float32 */, %p111: Tensor[(128, 128), float16] /* ty=Tensor[(128, 128), float16] */, Primitive=1) -> Tensor[(128, 128), float16] {
    %39 = cast(%p025, dtype="float16") /* ty=float16 span=from_string:46:116 */;
    add(%p111, %39) /* ty=Tensor[(128, 128), float16] span=from_string:46:105 */
  } /* ty=fn (float32, Tensor[(128, 128), float16]) -> Tensor[(128, 128), float16] */;
  let %x_28: Tensor[(128, 128), float16] /* ty=Tensor[(128, 128), float16] span=from_string:47:240 */ = %40(%x_27, %x_21) /* ty=Tensor[(128, 128), float16] */;
  let %x_29: (Tensor[(128, 128), float16], Tensor[(128, 128), float16], Tensor[(128, 128), float16]) /* ty=(Tensor[(128, 128), float16], Tensor[(128, 128), float16], Tensor[(128, 128), float16]) span=from_string:48:117 */ = (%x_23, %x_26, %x_28) /* ty=(Tensor[(128, 128), float16], Tensor[(128, 128), float16], Tensor[(128, 128), float16]) span=from_string:47:225 */;
  %41 = fn (%p026: (Tensor[(128, 128), float16], Tensor[(128, 128), float16], Tensor[(128, 128), float16]) /* ty=(Tensor[(128, 128), float16], Tensor[(128, 128), float16], Tensor[(128, 128), float16]) */, Primitive=1) -> Tensor[(128, 384), float16] {
    concatenate(%p026, axis=1) /* ty=Tensor[(128, 384), float16] span=from_string:48:105 */
  } /* ty=fn ((Tensor[(128, 128), float16], Tensor[(128, 128), float16], Tensor[(128, 128), float16])) -> Tensor[(128, 384), float16] */;
  let %x_30: Tensor[(128, 384), float16] /* ty=Tensor[(128, 384), float16] span=from_string:49:113 */ = %41(%x_29) /* ty=Tensor[(128, 384), float16] */;
  %42 = fn (%p027: Tensor[(128, 384), float16] /* ty=Tensor[(128, 384), float16] */, Primitive=1, relay.reshape_only=1) -> Tensor[(128, 384), float16] {
    squeeze(%p027) /* ty=Tensor[(128, 384), float16] span=from_string:49:105 */
  } /* ty=fn (Tensor[(128, 384), float16]) -> Tensor[(128, 384), float16] */;
  let %x_31: Tensor[(128, 384), float16] /* ty=Tensor[(128, 384), float16] span=from_string:52:109 */ = %42(%x_30) /* ty=Tensor[(128, 384), float16] */;
  let %x_32: float32 /* ty=float32 span=from_string:51:14 */ = 1f /* ty=float32 span=from_string:50:67 */;
  %44 = fn (%p028: float32 /* ty=float32 */, %p112: Tensor[(128, 384), float16] /* ty=Tensor[(128, 384), float16] */, Primitive=1) -> Tensor[(128, 384), float16] {
    %43 = cast(%p028, dtype="float16") /* ty=float16 span=from_string:52:116 */;
    add(%p112, %43) /* ty=Tensor[(128, 384), float16] span=from_string:52:105 */
  } /* ty=fn (float32, Tensor[(128, 384), float16]) -> Tensor[(128, 384), float16] */;
  let %x_33: Tensor[(128, 384), float16] /* ty=Tensor[(128, 384), float16] span=from_string:53:597 */ = %44(%x_32, %x_31) /* ty=Tensor[(128, 384), float16] */;
  let %x_34: (Tensor[(1, 128, 56, 56), float16], Tensor[(1, 32, 56, 56, 4), float16], Tensor[(0, 255, 111, 56), float16], Tensor[(1, 128, 56, 56), float16], Tensor[(3), int32], Tensor[(4), int32], Tensor[(81, 128, 56, 56), float16], Tensor[(128, 384), float16]) /* ty=(Tensor[(1, 128, 56, 56), float16], Tensor[(1, 32, 56, 56, 4), float16], Tensor[(0, 255, 111, 56), float16], Tensor[(1, 128, 56, 56), float16], Tensor[(3), int32], Tensor[(4), int32], Tensor[(81, 128, 56, 56), float16], Tensor[(128, 384), float16]) span=from_string:54:3 */ = (%x_4, %x_5, %x_13, %x_14, %x_15, %x_16, %x_20, %x_33) /* ty=(Tensor[(1, 128, 56, 56), float16], Tensor[(1, 32, 56, 56, 4), float16], Tensor[(0, 255, 111, 56), float16], Tensor[(1, 128, 56, 56), float16], Tensor[(3), int32], Tensor[(4), int32], Tensor[(81, 128, 56, 56), float16], Tensor[(128, 384), float16]) span=from_string:53:549 */;
  %x_34
}

#[metadata]
{
  "root": 1, 
  "nodes": [
    {
      "type_key": ""
    }, 
    {
      "type_key": "Map", 
      "keys": [
        "relay.Constant"
      ], 
      "data": [2]
    }, 
    {
      "type_key": "Array", 
      "data": [3]
    }, 
    {
      "type_key": "relay.Constant", 
      "attrs": {
        "_checked_type_": "8", 
        "data": "0", 
        "span": "6", 
        "virtual_device_": "4"
      }
    }, 
    {
      "type_key": "VirtualDevice", 
      "attrs": {
        "device_type_int": "-1", 
        "memory_scope": "5", 
        "target": "0", 
        "virtual_device_id": "-1"
      }
    }, 
    {
      "type_key": "runtime.String"
    }, 
    {
      "type_key": "Span", 
      "attrs": {
        "column": "94", 
        "end_column": "112", 
        "end_line": "26", 
        "line": "26", 
        "source_name": "7"
      }
    }, 
    {
      "type_key": "SourceName", 
      "repr_str": "from_string"
    }, 
    {
      "type_key": "relay.TensorType", 
      "attrs": {
        "dtype": "int32", 
        "shape": "9", 
        "span": "0"
      }
    }, 
    {
      "type_key": "Array", 
      "data": [10]
    }, 
    {
      "type_key": "IntImm", 
      "attrs": {
        "dtype": "int32", 
        "span": "0", 
        "value": "4"
      }
    }
  ], 
  "b64ndarrays": [
    "P6G0lvBAXt0AAAAAAAAAAAEAAAAAAAAAAQAAAAAgAQAEAAAAAAAAABAAAAAAAAAAAAAAAAAAAAAAAAAAAAAAAA=="
  ], 
  "attrs": {"tvm_version": "0.13.0"}
}