#[version = "0.0.5"]
def @main(%x0: Tensor[(1, 128, 56, 56), float32] /* ty=Tensor[(1, 128, 56, 56), float32] span=from_string:6:11 */, %x1: Tensor[(1, 128, 56, 56), float32] /* ty=Tensor[(1, 128, 56, 56), float32] span=from_string:68:16 */, %x2: Tensor[(128, 128, 3, 3), float32] /* ty=Tensor[(128, 128, 3, 3), float32] span=from_string:30:18 */, %x3: Tensor[(128, 128, 1, 1), float32] /* ty=Tensor[(128, 128, 1, 1), float32] span=from_string:74:13 */, %x4: Tensor[(128, 128, 3, 3), float32] /* ty=Tensor[(128, 128, 3, 3), float32] span=from_string:34:18 */, %x5: Tensor[(128, 56, 56), float32] /* ty=Tensor[(128, 56, 56), float32] */, %x6: float32 /* ty=float32 span=from_string:72:89 */, %x7: Tensor[(80, 128, 56, 56), float32] /* ty=Tensor[(80, 128, 56, 56), float32] span=from_string:73:18 */) -> (Tensor[(1, 128, 56, 56), float32], Tensor[(1, 32, 56, 56, 4), float32], Tensor[(0, 255, 111, 56), float32], Tensor[(1, 128, 56, 56), float32], Tensor[(3), int32], Tensor[(4), int32], Tensor[(81, 128, 56, 56), float32], Tensor[(128, 384), float32]) {
  %2 = fn (%p02: Tensor[(1, 128, 56, 56), float32] /* ty=Tensor[(1, 128, 56, 56), float32] span=from_string:4:22 */, Primitive=1) -> Tensor[(1, 32, 56, 56, 4), float32] {
    layout_transform(%p02, src_layout="NCHW", dst_layout="NCHW4c") /* ty=Tensor[(1, 32, 56, 56, 4), float32] span=from_string:4:5 */
  } /* ty=fn (Tensor[(1, 128, 56, 56), float32]) -> Tensor[(1, 32, 56, 56, 4), float32] span=from_string:6:8 */;
  %3 = %2(%x0) /* ty=Tensor[(1, 32, 56, 56, 4), float32] span=from_string:69:12 */;
  %4 = fn (%p01: Tensor[(1, 32, 56, 56, 4), float32] /* ty=Tensor[(1, 32, 56, 56, 4), float32] span=from_string:8:27 */, Primitive=1) -> Tensor[(1, 128, 56, 56), float32] {
    %1 = layout_transform(%p01, src_layout="NCHW4c", dst_layout="NCHW") /* ty=Tensor[(1, 128, 56, 56), float32] span=from_string:9:13 */;
    nn.relu(%1) /* ty=Tensor[(1, 128, 56, 56), float32] span=from_string:8:5 */
  } /* ty=fn (Tensor[(1, 32, 56, 56, 4), float32]) -> Tensor[(1, 128, 56, 56), float32] span=from_string:11:8 */;
  %5 = %4(%3) /* ty=Tensor[(1, 128, 56, 56), float32] span=from_string:68:12 */;
  %6 = fn (%p0: Tensor[(1, 128, 56, 56), float32] /* ty=Tensor[(1, 128, 56, 56), float32] span=from_string:13:19 */, %p1: Tensor[(1, 128, 56, 56), float32] /* ty=Tensor[(1, 128, 56, 56), float32] span=from_string:14:19 */, Primitive=1) -> Tensor[(1, 128, 56, 56), float32] {
    %0 = subtract(%p0, %p1) /* ty=Tensor[(1, 128, 56, 56), float32] span=from_string:14:15 */;
    multiply(%0, %p1) /* ty=Tensor[(1, 128, 56, 56), float32] span=from_string:13:5 */
  } /* ty=fn (Tensor[(1, 128, 56, 56), float32], Tensor[(1, 128, 56, 56), float32]) -> Tensor[(1, 128, 56, 56), float32] span=from_string:68:9 */;
  %9 = fn (%p03: Tensor[(1, 32, 56, 56, 4), float32] /* ty=Tensor[(1, 32, 56, 56, 4), float32] span=from_string:17:27 */, Primitive=1) -> Tensor[(1, 32, 56, 56, 4), float32] {
    %7 = layout_transform(%p03, src_layout="NCHW4c", dst_layout="NCHW8c") /* ty=Tensor[(1, 16, 56, 56, 8), float32] span=from_string:18:27 */;
    %8 = layout_transform(%7, src_layout="NCHW8c", dst_layout="NCHW4c") /* ty=Tensor[(1, 32, 56, 56, 4), float32] span=from_string:19:13 */;
    nn.relu(%8) /* ty=Tensor[(1, 32, 56, 56, 4), float32] span=from_string:17:5 */
  } /* ty=fn (Tensor[(1, 32, 56, 56, 4), float32]) -> Tensor[(1, 32, 56, 56, 4), float32] span=from_string:69:9 */;
  %12 = fn (%p07: Tensor[(1, 128, 56, 56), float32] /* ty=Tensor[(1, 128, 56, 56), float32] span=from_string:22:9 */, Primitive=1) -> Tensor[(1, 128, 56, 56), float32] {
    add(%p07, 1f /* ty=float32 span=from_string:22:17 */) /* ty=Tensor[(1, 128, 56, 56), float32] span=from_string:22:5 */
  } /* ty=fn (Tensor[(1, 128, 56, 56), float32]) -> Tensor[(1, 128, 56, 56), float32] span=from_string:24:9 */;
  %13 = %12(%5) /* ty=Tensor[(1, 128, 56, 56), float32] span=from_string:71:13 */;
  %14 = fn (%p06: Tensor[(1, 128, 56, 56), float32] /* ty=Tensor[(1, 128, 56, 56), float32] span=from_string:26:21 */, %p12: Tensor[(128, 128, 3, 3), float32] /* ty=Tensor[(128, 128, 3, 3), float32] span=from_string:26:27 */, Primitive=1) -> Tensor[(1, 128, 56, 56), float32] {
    %10 = nn.conv2d(%p06, %p12, padding=[1, 1, 1, 1], channels=128, kernel_size=[3, 3]) /* ty=Tensor[(1, 128, 56, 56), float32] span=from_string:28:9 */;
    %11 = add(1f /* ty=float32 span=from_string:27:17 */, %10) /* ty=Tensor[(1, 128, 56, 56), float32] span=from_string:28:14 */;
    add(%10, %11) /* ty=Tensor[(1, 128, 56, 56), float32] span=from_string:26:5 */
  } /* ty=fn (Tensor[(1, 128, 56, 56), float32], Tensor[(128, 128, 3, 3), float32]) -> Tensor[(1, 128, 56, 56), float32] span=from_string:30:9 */;
  %15 = %14(%13, %x2) /* ty=Tensor[(1, 128, 56, 56), float32] span=from_string:51:13 */;
  %16 = fn (%p05: Tensor[(1, 128, 56, 56), float32] /* ty=Tensor[(1, 128, 56, 56), float32] span=from_string:32:15 */, %p11: Tensor[(128, 128, 3, 3), float32] /* ty=Tensor[(128, 128, 3, 3), float32] span=from_string:32:21 */, Primitive=1) -> Tensor[(1, 128, 56, 56), float32] {
    nn.conv2d(%p05, %p11, padding=[1, 1, 1, 1], channels=128, kernel_size=[3, 3]) /* ty=Tensor[(1, 128, 56, 56), float32] span=from_string:32:5 */
  } /* ty=fn (Tensor[(1, 128, 56, 56), float32], Tensor[(128, 128, 3, 3), float32]) -> Tensor[(1, 128, 56, 56), float32] span=from_string:34:9 */;
  %17 = %16(%15, %x4) /* ty=Tensor[(1, 128, 56, 56), float32] span=from_string:70:13 */;
  %18 = fn (%p04: Tensor[(1, 128, 56, 56), float32] /* ty=Tensor[(1, 128, 56, 56), float32] span=from_string:36:26 */, Primitive=1) -> Tensor[(0, 255, 111, 56), float32] {
    nn.batch_to_space_nd(%p04, block_shape=[2, 2], crops=[[0, 1], [0, 1]]) /* ty=Tensor[(0, 255, 111, 56), float32] span=from_string:36:5 */
  } /* ty=fn (Tensor[(1, 128, 56, 56), float32]) -> Tensor[(0, 255, 111, 56), float32] span=from_string:70:9 */;
  %22 = fn (%p08: Tensor[(1, 128, 56, 56), float32] /* ty=Tensor[(1, 128, 56, 56), float32] span=from_string:39:19 */, Primitive=1, relay.reshape_only=1) -> Tensor[(1, 128, 56, 56), float32] {
    %19 = reshape(%p08, newshape=[128, 56, 56]) /* ty=Tensor[(128, 56, 56), float32] span=from_string:40:19 */;
    %20 = reshape(%19, newshape=[1, 128, 56, 56]) /* ty=Tensor[(1, 128, 56, 56), float32] span=from_string:41:19 */;
    %21 = reshape(%20, newshape=[128, 56, 56]) /* ty=Tensor[(128, 56, 56), float32] span=from_string:42:13 */;
    reshape(%21, newshape=[1, 128, 56, 56]) /* ty=Tensor[(1, 128, 56, 56), float32] span=from_string:39:5 */
  } /* ty=fn (Tensor[(1, 128, 56, 56), float32]) -> Tensor[(1, 128, 56, 56), float32] span=from_string:71:9 */;
  %23 = fn (%p09: Tensor[(3), int32] /* ty=Tensor[(3), int32] span=from_string:45:15 */, %p13: float32 /* ty=float32 span=from_string:45:21 */, Primitive=1) -> Tensor[(3), int32] {
    full_like(%p09, %p13) /* ty=Tensor[(3), int32] span=from_string:45:5 */
  } /* ty=fn (Tensor[(3), int32], float32) -> Tensor[(3), int32] span=from_string:72:9 */;
  %29 = fn (%p011: Tensor[(1, 128, 56, 56), float32] /* ty=Tensor[(1, 128, 56, 56), float32] span=from_string:48:21 */, %p15: Tensor[(128, 128, 1, 1), float32] /* ty=Tensor[(128, 128, 1, 1), float32] span=from_string:48:28 */, %p2: Tensor[(1, 128, 56, 56), float32] /* ty=Tensor[(1, 128, 56, 56), float32] span=from_string:49:14 */, Primitive=1) -> Tensor[(1, 128, 56, 56), float32] {
    %28 = nn.conv2d(%p011, %p15, padding=[0, 0, 0, 0], channels=128, kernel_size=[1, 1]) /* ty=Tensor[(1, 128, 56, 56), float32] span=from_string:49:9 */;
    add(%28, %p2) /* ty=Tensor[(1, 128, 56, 56), float32] span=from_string:48:5 */
  } /* ty=fn (Tensor[(1, 128, 56, 56), float32], Tensor[(128, 128, 1, 1), float32], Tensor[(1, 128, 56, 56), float32]) -> Tensor[(1, 128, 56, 56), float32] span=from_string:51:9 */;
  %30 = %29(%15, %x3, %17) /* ty=Tensor[(1, 128, 56, 56), float32] span=from_string:73:13 */;
  %31 = fn (%p010: Tensor[(1, 128, 56, 56), float32] /* ty=Tensor[(1, 128, 56, 56), float32] span=from_string:53:12 */, %p14: Tensor[(80, 128, 56, 56), float32] /* ty=Tensor[(80, 128, 56, 56), float32] span=from_string:53:19 */, Primitive=1) -> Tensor[(81, 128, 56, 56), float32] {
    %24 = (%p010, %p14) /* ty=(Tensor[(1, 128, 56, 56), float32], Tensor[(80, 128, 56, 56), float32]) span=from_string:54:17 */;
    %25 = concatenate(%24) /* ty=Tensor[(81, 128, 56, 56), float32] */;
    %26 = annotation.stop_fusion(%25) /* ty=Tensor[(81, 128, 56, 56), float32] */;
    %27 = (%26,) /* ty=(Tensor[(81, 128, 56, 56), float32],) span=from_string:54:17 */;
    concatenate(%27) /* ty=Tensor[(81, 128, 56, 56), float32] */
  } /* ty=fn (Tensor[(1, 128, 56, 56), float32], Tensor[(80, 128, 56, 56), float32]) -> Tensor[(81, 128, 56, 56), float32] span=from_string:73:9 */;
  %47 = fn (%p012: Tensor[(128, 128, 1, 1), float32] /* ty=Tensor[(128, 128, 1, 1), float32] span=from_string:57:19 */, Primitive=1) -> Tensor[(128, 384), float32] {
    %32 = squeeze(%p012) /* ty=Tensor[(128, 128), float32] span=from_string:62:15 */;
    %33 = squeeze(%32) /* ty=Tensor[(128, 128), float32] span=from_string:59:15 */;
    %34 = add(%33, 1f /* ty=float32 span=from_string:59:22 */) /* ty=Tensor[(128, 128), float32] span=from_string:61:15 */;
    %35 = add(%32, 1f /* ty=float32 span=from_string:60:22 */) /* ty=Tensor[(128, 128), float32] span=from_string:63:12 */;
    %36 = add(%34, 1f /* ty=float32 span=from_string:61:22 */) /* ty=Tensor[(128, 128), float32] span=from_string:63:17 */;
    %37 = (%35, %36) /* ty=(Tensor[(128, 128), float32], Tensor[(128, 128), float32]) span=from_string:64:23 */;
    %38 = concatenate(%37, axis=1) /* ty=Tensor[(128, 256), float32] */;
    %39 = add(%32, 1f /* ty=float32 span=from_string:62:22 */) /* ty=Tensor[(128, 128), float32] span=from_string:63:22 */;
    %40 = (%39,) /* ty=(Tensor[(128, 128), float32],) span=from_string:64:23 */;
    %41 = concatenate(%40, axis=1) /* ty=Tensor[(128, 128), float32] */;
    %42 = annotation.stop_fusion(%38) /* ty=Tensor[(128, 256), float32] */;
    %43 = annotation.stop_fusion(%41) /* ty=Tensor[(128, 128), float32] */;
    %44 = (%42, %43) /* ty=(Tensor[(128, 256), float32], Tensor[(128, 128), float32]) span=from_string:64:23 */;
    %45 = concatenate(%44, axis=1) /* ty=Tensor[(128, 384), float32] */;
    %46 = squeeze(%45) /* ty=Tensor[(128, 384), float32] span=from_string:66:9 */;
    add(%46, 1f /* ty=float32 span=from_string:66:16 */) /* ty=Tensor[(128, 384), float32] span=from_string:57:5 */
  } /* ty=fn (Tensor[(128, 128, 1, 1), float32]) -> Tensor[(128, 384), float32] span=from_string:74:9 */;
  %48 = %6(%5, %x1) /* ty=Tensor[(1, 128, 56, 56), float32] span=from_string:75:4 */;
  %49 = %9(%3) /* ty=Tensor[(1, 32, 56, 56, 4), float32] span=from_string:75:9 */;
  %50 = %18(%17) /* ty=Tensor[(0, 255, 111, 56), float32] span=from_string:75:14 */;
  %51 = %22(%13) /* ty=Tensor[(1, 128, 56, 56), float32] span=from_string:75:19 */;
  %52 = %23(meta[relay.Constant][0] /* ty=Tensor[(3), int32] span=from_string:72:18 */, %x6) /* ty=Tensor[(3), int32] span=from_string:75:24 */;
  %53 = %31(%30, %x7) /* ty=Tensor[(81, 128, 56, 56), float32] span=from_string:75:105 */;
  %54 = %47(%x3) /* ty=Tensor[(128, 384), float32] span=from_string:75:110 */;
  (%48, %49, %50, %51, %52, meta[relay.Constant][1] /* ty=Tensor[(4), int32] span=from_string:75:34 */, %53, %54) /* ty=(Tensor[(1, 128, 56, 56), float32], Tensor[(1, 32, 56, 56, 4), float32], Tensor[(0, 255, 111, 56), float32], Tensor[(1, 128, 56, 56), float32], Tensor[(3), int32], Tensor[(4), int32], Tensor[(81, 128, 56, 56), float32], Tensor[(128, 384), float32]) span=from_string:3:3 */
}

#[metadata]
{
  "root": 1, 
  "nodes": [
    {
      "type_key": ""
    }, 
    {
      "type_key": "Map", 
      "keys": [
        "relay.Constant"
      ], 
      "data": [2]
    }, 
    {
      "type_key": "Array", 
      "data": [3, 11]
    }, 
    {
      "type_key": "relay.Constant", 
      "attrs": {
        "_checked_type_": "8", 
        "data": "0", 
        "span": "6", 
        "virtual_device_": "4"
      }
    }, 
    {
      "type_key": "VirtualDevice", 
      "attrs": {
        "device_type_int": "-1", 
        "memory_scope": "5", 
        "target": "0", 
        "virtual_device_id": "-1"
      }
    }, 
    {
      "type_key": "runtime.String"
    }, 
    {
      "type_key": "Span", 
      "attrs": {
        "column": "18", 
        "end_column": "36", 
        "end_line": "72", 
        "line": "72", 
        "source_name": "7"
      }
    }, 
    {
      "type_key": "SourceName", 
      "repr_str": "from_string"
    }, 
    {
      "type_key": "relay.TensorType", 
      "attrs": {
        "dtype": "int32", 
        "shape": "9", 
        "span": "0"
      }
    }, 
    {
      "type_key": "Array", 
      "data": [10]
    }, 
    {
      "type_key": "IntImm", 
      "attrs": {
        "dtype": "int32", 
        "span": "0", 
        "value": "3"
      }
    }, 
    {
      "type_key": "relay.Constant", 
      "attrs": {
        "_checked_type_": "13", 
        "data": "1", 
        "span": "12", 
        "virtual_device_": "4"
      }
    }, 
    {
      "type_key": "Span", 
      "attrs": {
        "column": "34", 
        "end_column": "52", 
        "end_line": "75", 
        "line": "75", 
        "source_name": "7"
      }
    }, 
    {
      "type_key": "relay.TensorType", 
      "attrs": {
        "dtype": "int32", 
        "shape": "14", 
        "span": "16"
      }
    }, 
    {
      "type_key": "Array", 
      "data": [15]
    }, 
    {
      "type_key": "IntImm", 
      "attrs": {
        "dtype": "int32", 
        "span": "0", 
        "value": "4"
      }
    }, 
    {
      "type_key": "Span", 
      "attrs": {
        "column": "949", 
        "end_column": "969", 
        "end_line": "2", 
        "line": "2", 
        "source_name": "7"
      }
    }
  ], 
  "b64ndarrays": [
    "P6G0lvBAXt0AAAAAAAAAAAEAAAAAAAAAAQAAAAAgAQADAAAAAAAAAAwAAAAAAAAAgAAAADgAAAA4AAAA", 
    "P6G0lvBAXt0AAAAAAAAAAAEAAAAAAAAAAQAAAAAgAQAEAAAAAAAAABAAAAAAAAAAAAAAAAAAAAAAAAAAAAAAAA=="
  ], 
  "attrs": {"tvm_version": "0.13.0"}
}