#[version = "0.0.5"]
def @main(%x0: Tensor[(1, 128, 56, 56), float32] /* ty=Tensor[(1, 128, 56, 56), float32] span=from_string:3:13 */, %x1: Tensor[(1, 128, 56, 56), float32] /* ty=Tensor[(1, 128, 56, 56), float32] span=from_string:7:13 */, %x2: Tensor[(128, 128, 3, 3), float32] /* ty=Tensor[(128, 128, 3, 3), float32] span=from_string:12:13 */, %x3: Tensor[(128, 128, 1, 1), float32] /* ty=Tensor[(128, 128, 1, 1), float32] span=from_string:22:14 */, %x4: Tensor[(128, 128, 3, 3), float32] /* ty=Tensor[(128, 128, 3, 3), float32] span=from_string:16:14 */, %x5: Tensor[(128, 56, 56), float32] /* ty=Tensor[(128, 56, 56), float32] */, %x6: float32 /* ty=float32 span=from_string:21:14 */, %x7: Tensor[(80, 128, 56, 56), float32] /* ty=Tensor[(80, 128, 56, 56), float32] span=from_string:26:15 */) -> (Tensor[(1, 128, 56, 56), float16], Tensor[(1, 32, 56, 56, 4), float16], Tensor[(0, 255, 111, 56), float16], Tensor[(1, 128, 56, 56), float16], Tensor[(3), int32], Tensor[(4), int32], Tensor[(81, 128, 56, 56), float32], Tensor[(128, 384), float16]) {
  %4 = fn (%p02: Tensor[(1, 128, 56, 56), float32] /* ty=Tensor[(1, 128, 56, 56), float32] */, Primitive=1) -> Tensor[(1, 32, 56, 56, 4), float16] {
    %3 = cast(%p02, dtype="float16") /* ty=Tensor[(1, 128, 56, 56), float16] span=from_string:4:25 */;
    layout_transform(%3, src_layout="NCHW", dst_layout="NCHW4c") /* ty=Tensor[(1, 32, 56, 56, 4), float16] span=from_string:9:25 */
  } /* ty=fn (Tensor[(1, 128, 56, 56), float32]) -> Tensor[(1, 32, 56, 56, 4), float16] */;
  %5 = %4(%x0) /* ty=Tensor[(1, 32, 56, 56, 4), float16] */;
  %6 = fn (%p01: Tensor[(1, 32, 56, 56, 4), float16] /* ty=Tensor[(1, 32, 56, 56, 4), float16] */, Primitive=1) -> Tensor[(1, 128, 56, 56), float16] {
    %2 = layout_transform(%p01, src_layout="NCHW4c", dst_layout="NCHW") /* ty=Tensor[(1, 128, 56, 56), float16] span=from_string:6:16 */;
    nn.relu(%2) /* ty=Tensor[(1, 128, 56, 56), float16] span=from_string:11:12 */
  } /* ty=fn (Tensor[(1, 32, 56, 56, 4), float16]) -> Tensor[(1, 128, 56, 56), float16] */;
  %7 = %6(%5) /* ty=Tensor[(1, 128, 56, 56), float16] */;
  %8 = fn (%p0: Tensor[(1, 128, 56, 56), float32] /* ty=Tensor[(1, 128, 56, 56), float32] */, %p1: Tensor[(1, 128, 56, 56), float16] /* ty=Tensor[(1, 128, 56, 56), float16] */, Primitive=1) -> Tensor[(1, 128, 56, 56), float16] {
    %0 = cast(%p0, dtype="float16") /* ty=Tensor[(1, 128, 56, 56), float16] span=from_string:45:23 */;
    %1 = subtract(%p1, %0) /* ty=Tensor[(1, 128, 56, 56), float16] span=from_string:45:19 */;
    multiply(%1, %0) /* ty=Tensor[(1, 128, 56, 56), float16] span=from_string:52:4 */
  } /* ty=fn (Tensor[(1, 128, 56, 56), float32], Tensor[(1, 128, 56, 56), float16]) -> Tensor[(1, 128, 56, 56), float16] */;
  %11 = fn (%p03: Tensor[(1, 32, 56, 56, 4), float16] /* ty=Tensor[(1, 32, 56, 56, 4), float16] */, Primitive=1) -> Tensor[(1, 32, 56, 56, 4), float16] {
    %9 = layout_transform(%p03, src_layout="NCHW4c", dst_layout="NCHW8c") /* ty=Tensor[(1, 16, 56, 56, 8), float16] span=from_string:10:25 */;
    %10 = layout_transform(%9, src_layout="NCHW8c", dst_layout="NCHW4c") /* ty=Tensor[(1, 32, 56, 56, 4), float16] span=from_string:46:17 */;
    nn.relu(%10) /* ty=Tensor[(1, 32, 56, 56, 4), float16] span=from_string:52:9 */
  } /* ty=fn (Tensor[(1, 32, 56, 56, 4), float16]) -> Tensor[(1, 32, 56, 56, 4), float16] */;
  %14 = fn (%p07: Tensor[(1, 128, 56, 56), float16] /* ty=Tensor[(1, 128, 56, 56), float16] */, %p13: float16 /* ty=float16 */, Primitive=1) -> Tensor[(1, 128, 56, 56), float16] {
    add(%p07, %p13) /* ty=Tensor[(1, 128, 56, 56), float16] span=from_string:18:17 */
  } /* ty=fn (Tensor[(1, 128, 56, 56), float16], float16) -> Tensor[(1, 128, 56, 56), float16] */;
  %15 = fn (%p08: Tensor[(128, 128, 3, 3), float32] /* ty=Tensor[(128, 128, 3, 3), float32] */, Primitive=1) -> Tensor[(128, 128, 3, 3), float16] {
    cast(%p08, dtype="float16") /* ty=Tensor[(128, 128, 3, 3), float16] span=from_string:13:23 */
  } /* ty=fn (Tensor[(128, 128, 3, 3), float32]) -> Tensor[(128, 128, 3, 3), float16] */;
  %16 = %14(%7, 1f16 /* ty=float16 span=from_string:11:20 */) /* ty=Tensor[(1, 128, 56, 56), float16] */;
  %17 = %15(%x2) /* ty=Tensor[(128, 128, 3, 3), float16] */;
  %18 = fn (%p06: Tensor[(1, 128, 56, 56), float16] /* ty=Tensor[(1, 128, 56, 56), float16] */, %p12: Tensor[(128, 128, 3, 3), float16] /* ty=Tensor[(128, 128, 3, 3), float16] */, %p2: float16 /* ty=float16 */, Primitive=1) -> Tensor[(1, 128, 56, 56), float16] {
    %12 = nn.conv2d(%p06, %p12, padding=[1, 1, 1, 1], channels=128, kernel_size=[3, 3], out_dtype="float16") /* ty=Tensor[(1, 128, 56, 56), float16] span=from_string:15:13 */;
    %13 = add(%p2, %12) /* ty=Tensor[(1, 128, 56, 56), float16] span=from_string:15:18 */;
    add(%12, %13) /* ty=Tensor[(1, 128, 56, 56), float16] span=from_string:23:19 */
  } /* ty=fn (Tensor[(1, 128, 56, 56), float16], Tensor[(128, 128, 3, 3), float16], float16) -> Tensor[(1, 128, 56, 56), float16] */;
  %19 = fn (%p09: Tensor[(128, 128, 3, 3), float32] /* ty=Tensor[(128, 128, 3, 3), float32] */, Primitive=1) -> Tensor[(128, 128, 3, 3), float16] {
    cast(%p09, dtype="float16") /* ty=Tensor[(128, 128, 3, 3), float16] span=from_string:17:24 */
  } /* ty=fn (Tensor[(128, 128, 3, 3), float32]) -> Tensor[(128, 128, 3, 3), float16] */;
  %20 = %18(%16, %17, 1f16 /* ty=float16 span=from_string:14:17 */) /* ty=Tensor[(1, 128, 56, 56), float16] */;
  %21 = %19(%x4) /* ty=Tensor[(128, 128, 3, 3), float16] */;
  %22 = fn (%p05: Tensor[(1, 128, 56, 56), float16] /* ty=Tensor[(1, 128, 56, 56), float16] */, %p11: Tensor[(128, 128, 3, 3), float16] /* ty=Tensor[(128, 128, 3, 3), float16] */, Primitive=1) -> Tensor[(1, 128, 56, 56), float16] {
    nn.conv2d(%p05, %p11, padding=[1, 1, 1, 1], channels=128, kernel_size=[3, 3], out_dtype="float16") /* ty=Tensor[(1, 128, 56, 56), float16] span=from_string:47:30 */
  } /* ty=fn (Tensor[(1, 128, 56, 56), float16], Tensor[(128, 128, 3, 3), float16]) -> Tensor[(1, 128, 56, 56), float16] */;
  %23 = %22(%20, %21) /* ty=Tensor[(1, 128, 56, 56), float16] */;
  %24 = fn (%p04: Tensor[(1, 128, 56, 56), float16] /* ty=Tensor[(1, 128, 56, 56), float16] */, Primitive=1) -> Tensor[(0, 255, 111, 56), float16] {
    nn.batch_to_space_nd(%p04, block_shape=[2, 2], crops=[[0, 1], [0, 1]]) /* ty=Tensor[(0, 255, 111, 56), float16] span=from_string:52:14 */
  } /* ty=fn (Tensor[(1, 128, 56, 56), float16]) -> Tensor[(0, 255, 111, 56), float16] */;
  %28 = fn (%p010: Tensor[(1, 128, 56, 56), float16] /* ty=Tensor[(1, 128, 56, 56), float16] */, Primitive=1, relay.reshape_only=1) -> Tensor[(1, 128, 56, 56), float16] {
    %25 = reshape(%p010, newshape=[128, 56, 56]) /* ty=Tensor[(128, 56, 56), float16] span=from_string:19:17 */;
    %26 = reshape(%25, newshape=[1, 128, 56, 56]) /* ty=Tensor[(1, 128, 56, 56), float16] span=from_string:20:17 */;
    %27 = reshape(%26, newshape=[128, 56, 56]) /* ty=Tensor[(128, 56, 56), float16] span=from_string:48:17 */;
    reshape(%27, newshape=[1, 128, 56, 56]) /* ty=Tensor[(1, 128, 56, 56), float16] span=from_string:52:19 */
  } /* ty=fn (Tensor[(1, 128, 56, 56), float16]) -> Tensor[(1, 128, 56, 56), float16] */;
  %30 = fn (%p011: float32 /* ty=float32 */, %p14: Tensor[(3), int32] /* ty=Tensor[(3), int32] */, Primitive=1) -> Tensor[(3), int32] {
    %29 = cast(%p011, dtype="float16") /* ty=float16 span=from_string:49:95 */;
    full_like(%p14, %29) /* ty=Tensor[(3), int32] span=from_string:52:24 */
  } /* ty=fn (float32, Tensor[(3), int32]) -> Tensor[(3), int32] */;
  %35 = fn (%p015: Tensor[(128, 128, 1, 1), float32] /* ty=Tensor[(128, 128, 1, 1), float32] */, Primitive=1) -> Tensor[(128, 128, 1, 1), float16] {
    cast(%p015, dtype="float16") /* ty=Tensor[(128, 128, 1, 1), float16] span=from_string:30:17 */
  } /* ty=fn (Tensor[(128, 128, 1, 1), float32]) -> Tensor[(128, 128, 1, 1), float16] */;
  %36 = %35(%x3) /* ty=Tensor[(128, 128, 1, 1), float16] */;
  %37 = fn (%p014: Tensor[(1, 128, 56, 56), float16] /* ty=Tensor[(1, 128, 56, 56), float16] */, %p16: Tensor[(128, 128, 1, 1), float16] /* ty=Tensor[(128, 128, 1, 1), float16] */, %p21: Tensor[(1, 128, 56, 56), float16] /* ty=Tensor[(1, 128, 56, 56), float16] */, Primitive=1) -> Tensor[(1, 128, 56, 56), float32] {
    %33 = nn.conv2d(%p014, %p16, padding=[0, 0, 0, 0], channels=128, kernel_size=[1, 1], out_dtype="float16") /* ty=Tensor[(1, 128, 56, 56), float16] span=from_string:24:13 */;
    %34 = add(%33, %p21) /* ty=Tensor[(1, 128, 56, 56), float16] span=from_string:25:14 */;
    cast(%34, dtype="float32") /* ty=Tensor[(1, 128, 56, 56), float32] span=from_string:26:10 */
  } /* ty=fn (Tensor[(1, 128, 56, 56), float16], Tensor[(128, 128, 1, 1), float16], Tensor[(1, 128, 56, 56), float16]) -> Tensor[(1, 128, 56, 56), float32] */;
  %38 = %37(%20, %36, %23) /* ty=Tensor[(1, 128, 56, 56), float32] */;
  %39 = fn (%p013: Tensor[(1, 128, 56, 56), float32] /* ty=Tensor[(1, 128, 56, 56), float32] */, %p15: Tensor[(80, 128, 56, 56), float32] /* ty=Tensor[(80, 128, 56, 56), float32] */, Primitive=1) -> Tensor[(81, 128, 56, 56), float32] {
    %32 = (%p013, %p15) /* ty=(Tensor[(1, 128, 56, 56), float32], Tensor[(80, 128, 56, 56), float32]) span=from_string:27:21 */;
    concatenate(%32) /* ty=Tensor[(81, 128, 56, 56), float32] span=from_string:28:32 */
  } /* ty=fn (Tensor[(1, 128, 56, 56), float32], Tensor[(80, 128, 56, 56), float32]) -> Tensor[(81, 128, 56, 56), float32] */;
  %40 = %39(%38, %x7) /* ty=Tensor[(81, 128, 56, 56), float32] */;
  %41 = fn (%p012: Tensor[(81, 128, 56, 56), float32] /* ty=Tensor[(81, 128, 56, 56), float32] */, Primitive=1) -> Tensor[(81, 128, 56, 56), float32] {
    %31 = (%p012,) /* ty=(Tensor[(81, 128, 56, 56), float32],) span=from_string:50:21 */;
    concatenate(%31) /* ty=Tensor[(81, 128, 56, 56), float32] span=from_string:52:105 */
  } /* ty=fn (Tensor[(81, 128, 56, 56), float32]) -> Tensor[(81, 128, 56, 56), float32] */;
  %50 = fn (%p018: Tensor[(128, 128, 1, 1), float16] /* ty=Tensor[(128, 128, 1, 1), float16] */, Primitive=1, relay.reshape_only=1) -> Tensor[(128, 128), float16] {
    squeeze(%p018) /* ty=Tensor[(128, 128), float16] span=from_string:37:13 */
  } /* ty=fn (Tensor[(128, 128, 1, 1), float16]) -> Tensor[(128, 128), float16] */;
  %51 = %50(%36) /* ty=Tensor[(128, 128), float16] */;
  %52 = fn (%p017: Tensor[(128, 128), float16] /* ty=Tensor[(128, 128), float16] */, %p18: float16 /* ty=float16 */, %p23: float16 /* ty=float16 */, %p3: float16 /* ty=float16 */, Primitive=1) -> Tensor[(128, 256), float16] {
    %45 = squeeze(%p017) /* ty=Tensor[(128, 128), float16] span=from_string:32:13 */;
    %46 = add(%45, %p23) /* ty=Tensor[(128, 128), float16] span=from_string:34:13 */;
    %47 = add(%p017, %p18) /* ty=Tensor[(128, 128), float16] span=from_string:35:10 */;
    %48 = add(%46, %p3) /* ty=Tensor[(128, 128), float16] span=from_string:35:15 */;
    %49 = (%47, %48) /* ty=(Tensor[(128, 128), float16], Tensor[(128, 128), float16]) span=from_string:36:21 */;
    concatenate(%49, axis=1) /* ty=Tensor[(128, 256), float16] span=from_string:40:32 */
  } /* ty=fn (Tensor[(128, 128), float16], float16, float16, float16) -> Tensor[(128, 256), float16] */;
  %55 = fn (%p019: Tensor[(128, 128), float16] /* ty=Tensor[(128, 128), float16] */, %p19: float16 /* ty=float16 */, Primitive=1) -> Tensor[(128, 128), float16] {
    %53 = add(%p019, %p19) /* ty=Tensor[(128, 128), float16] span=from_string:38:10 */;
    %54 = (%53,) /* ty=(Tensor[(128, 128), float16],) span=from_string:39:21 */;
    concatenate(%54, axis=1) /* ty=Tensor[(128, 128), float16] span=from_string:41:32 */
  } /* ty=fn (Tensor[(128, 128), float16], float16) -> Tensor[(128, 128), float16] */;
  %56 = %52(%51, 1f16 /* ty=float16 span=from_string:33:22 */, 1f16 /* ty=float16 span=from_string:32:22 */, 1f16 /* ty=float16 span=from_string:34:22 */) /* ty=Tensor[(128, 256), float16] */;
  %57 = %55(%51, 1f16 /* ty=float16 span=from_string:37:22 */) /* ty=Tensor[(128, 128), float16] */;
  %58 = fn (%p016: Tensor[(128, 256), float16] /* ty=Tensor[(128, 256), float16] */, %p17: Tensor[(128, 128), float16] /* ty=Tensor[(128, 128), float16] */, %p22: float16 /* ty=float16 */, Primitive=1) -> Tensor[(128, 384), float16] {
    %42 = (%p016, %p17) /* ty=(Tensor[(128, 256), float16], Tensor[(128, 128), float16]) span=from_string:43:21 */;
    %43 = concatenate(%42, axis=1) /* ty=Tensor[(128, 384), float16] span=from_string:44:17 */;
    %44 = squeeze(%43) /* ty=Tensor[(128, 384), float16] span=from_string:51:13 */;
    add(%44, %p22) /* ty=Tensor[(128, 384), float16] span=from_string:52:110 */
  } /* ty=fn (Tensor[(128, 256), float16], Tensor[(128, 128), float16], float16) -> Tensor[(128, 384), float16] */;
  %59 = %8(%x1, %7) /* ty=Tensor[(1, 128, 56, 56), float16] */;
  %60 = %11(%5) /* ty=Tensor[(1, 32, 56, 56, 4), float16] */;
  %61 = %24(%23) /* ty=Tensor[(0, 255, 111, 56), float16] */;
  %62 = %28(%16) /* ty=Tensor[(1, 128, 56, 56), float16] */;
  %63 = %30(%x6, meta[relay.Constant][0] /* ty=Tensor[(3), int32] span=from_string:49:24 */) /* ty=Tensor[(3), int32] */;
  %64 = %41(%40) /* ty=Tensor[(81, 128, 56, 56), float32] */;
  %65 = %58(%56, %57, 1f16 /* ty=float16 span=from_string:51:22 */) /* ty=Tensor[(128, 384), float16] */;
  (%59, %60, %61, %62, %63, meta[relay.Constant][1] /* ty=Tensor[(4), int32] span=from_string:52:34 */, %64, %65) /* ty=(Tensor[(1, 128, 56, 56), float16], Tensor[(1, 32, 56, 56, 4), float16], Tensor[(0, 255, 111, 56), float16], Tensor[(1, 128, 56, 56), float16], Tensor[(3), int32], Tensor[(4), int32], Tensor[(81, 128, 56, 56), float32], Tensor[(128, 384), float16]) span=from_string:3:3 */
}

#[metadata]
{
  "root": 1, 
  "nodes": [
    {
      "type_key": ""
    }, 
    {
      "type_key": "Map", 
      "keys": [
        "relay.Constant"
      ], 
      "data": [2]
    }, 
    {
      "type_key": "Array", 
      "data": [3, 11]
    }, 
    {
      "type_key": "relay.Constant", 
      "attrs": {
        "_checked_type_": "8", 
        "data": "0", 
        "span": "6", 
        "virtual_device_": "4"
      }
    }, 
    {
      "type_key": "VirtualDevice", 
      "attrs": {
        "device_type_int": "-1", 
        "memory_scope": "5", 
        "target": "0", 
        "virtual_device_id": "-1"
      }
    }, 
    {
      "type_key": "runtime.String"
    }, 
    {
      "type_key": "Span", 
      "attrs": {
        "column": "24", 
        "end_column": "42", 
        "end_line": "49", 
        "line": "49", 
        "source_name": "7"
      }
    }, 
    {
      "type_key": "SourceName", 
      "repr_str": "from_string"
    }, 
    {
      "type_key": "relay.TensorType", 
      "attrs": {
        "dtype": "int32", 
        "shape": "9", 
        "span": "0"
      }
    }, 
    {
      "type_key": "Array", 
      "data": [10]
    }, 
    {
      "type_key": "IntImm", 
      "attrs": {
        "dtype": "int32", 
        "span": "0", 
        "value": "3"
      }
    }, 
    {
      "type_key": "relay.Constant", 
      "attrs": {
        "_checked_type_": "13", 
        "data": "1", 
        "span": "12", 
        "virtual_device_": "4"
      }
    }, 
    {
      "type_key": "Span", 
      "attrs": {
        "column": "34", 
        "end_column": "52", 
        "end_line": "52", 
        "line": "52", 
        "source_name": "7"
      }
    }, 
    {
      "type_key": "relay.TensorType", 
      "attrs": {
        "dtype": "int32", 
        "shape": "14", 
        "span": "16"
      }
    }, 
    {
      "type_key": "Array", 
      "data": [15]
    }, 
    {
      "type_key": "IntImm", 
      "attrs": {
        "dtype": "int32", 
        "span": "0", 
        "value": "4"
      }
    }, 
    {
      "type_key": "Span", 
      "attrs": {
        "column": "948", 
        "end_column": "968", 
        "end_line": "2", 
        "line": "2", 
        "source_name": "7"
      }
    }
  ], 
  "b64ndarrays": [
    "P6G0lvBAXt0AAAAAAAAAAAEAAAAAAAAAAQAAAAAgAQADAAAAAAAAAAwAAAAAAAAAgAAAADgAAAA4AAAA", 
    "P6G0lvBAXt0AAAAAAAAAAAEAAAAAAAAAAQAAAAAgAQAEAAAAAAAAABAAAAAAAAAAAAAAAAAAAAAAAAAAAAAAAA=="
  ], 
  "attrs": {"tvm_version": "0.13.0"}
}