#[version = "0.0.5"]
def @main(%x0: Tensor[(1, 128, 56, 56), float32] /* ty=Tensor[(1, 128, 56, 56), float32] span=from_string:3:19 */, %x1: Tensor[(1, 128, 56, 56), float32] /* ty=Tensor[(1, 128, 56, 56), float32] span=from_string:7:19 */, %x2: Tensor[(128, 128, 3, 3), float32] /* ty=Tensor[(128, 128, 3, 3), float32] span=from_string:16:20 */, %x3: Tensor[(128, 128, 1, 1), float32] /* ty=Tensor[(128, 128, 1, 1), float32] span=from_string:33:20 */, %x4: Tensor[(128, 128, 3, 3), float32] /* ty=Tensor[(128, 128, 3, 3), float32] span=from_string:22:20 */, %x5: Tensor[(128, 56, 56), float32] /* ty=Tensor[(128, 56, 56), float32] */, %x6: float32 /* ty=float32 span=from_string:30:20 */, %x7: Tensor[(80, 128, 56, 56), float32] /* ty=Tensor[(80, 128, 56, 56), float32] span=from_string:37:23 */) -> (Tensor[(1, 128, 56, 56), float16], Tensor[(1, 32, 56, 56, 4), float16], Tensor[(0, 255, 111, 56), float16], Tensor[(1, 128, 56, 56), float16], Tensor[(3), int32], Tensor[(4), int32], Tensor[(81, 128, 56, 56), float32], Tensor[(128, 384), float16]) {
  let %x_0: Tensor[(1, 128, 56, 56), float16] /* ty=Tensor[(1, 128, 56, 56), float16] span=from_string:4:31 */ = cast(%x0, dtype="float16") /* ty=Tensor[(1, 128, 56, 56), float16] span=from_string:3:14 */;
  let %x_1: Tensor[(1, 32, 56, 56, 4), float16] /* ty=Tensor[(1, 32, 56, 56, 4), float16] span=from_string:10:31 */ = layout_transform(%x_0, src_layout="NCHW", dst_layout="NCHW4c") /* ty=Tensor[(1, 32, 56, 56, 4), float16] span=from_string:4:14 */;
  let %x_2: Tensor[(1, 128, 56, 56), float16] /* ty=Tensor[(1, 128, 56, 56), float16] span=from_string:6:22 */ = layout_transform(%x_1, src_layout="NCHW4c", dst_layout="NCHW") /* ty=Tensor[(1, 128, 56, 56), float16] span=from_string:5:14 */;
  let %x_3: Tensor[(1, 128, 56, 56), float16] /* ty=Tensor[(1, 128, 56, 56), float16] span=from_string:15:19 */ = nn.relu(%x_2) /* ty=Tensor[(1, 128, 56, 56), float16] span=from_string:6:14 */;
  let %x_4: Tensor[(1, 128, 56, 56), float16] /* ty=Tensor[(1, 128, 56, 56), float16] span=from_string:9:30 */ = cast(%x1, dtype="float16") /* ty=Tensor[(1, 128, 56, 56), float16] span=from_string:7:14 */;
  let %x_5: Tensor[(1, 128, 56, 56), float16] /* ty=Tensor[(1, 128, 56, 56), float16] span=from_string:9:24 */ = subtract(%x_3, %x_4) /* ty=Tensor[(1, 128, 56, 56), float16] span=from_string:8:14 */;
  let %x_6: Tensor[(1, 128, 56, 56), float16] /* ty=Tensor[(1, 128, 56, 56), float16] span=from_string:68:16 */ = multiply(%x_5, %x_4) /* ty=Tensor[(1, 128, 56, 56), float16] span=from_string:9:15 */;
  let %x_7: Tensor[(1, 16, 56, 56, 8), float16] /* ty=Tensor[(1, 16, 56, 56, 8), float16] span=from_string:11:31 */ = layout_transform(%x_1, src_layout="NCHW4c", dst_layout="NCHW8c") /* ty=Tensor[(1, 16, 56, 56, 8), float16] span=from_string:10:14 */;
  let %x_8: Tensor[(1, 32, 56, 56, 4), float16] /* ty=Tensor[(1, 32, 56, 56, 4), float16] span=from_string:12:22 */ = layout_transform(%x_7, src_layout="NCHW8c", dst_layout="NCHW4c") /* ty=Tensor[(1, 32, 56, 56, 4), float16] span=from_string:11:14 */;
  let %x_9: Tensor[(1, 32, 56, 56, 4), float16] /* ty=Tensor[(1, 32, 56, 56, 4), float16] span=from_string:68:22 */ = nn.relu(%x_8) /* ty=Tensor[(1, 32, 56, 56, 4), float16] span=from_string:12:14 */;
  let %x_12: Tensor[(1, 128, 56, 56), float16] /* ty=Tensor[(1, 128, 56, 56), float16] span=from_string:25:23 */ = add(%x_3, 1f16 /* ty=float16 */) /* ty=Tensor[(1, 128, 56, 56), float16] span=from_string:15:15 */;
  let %x_13: Tensor[(128, 128, 3, 3), float16] /* ty=Tensor[(128, 128, 3, 3), float16] span=from_string:17:32 */ = cast(%x2, dtype="float16") /* ty=Tensor[(128, 128, 3, 3), float16] span=from_string:16:15 */;
  let %x_14: Tensor[(1, 128, 56, 56), float16] /* ty=Tensor[(1, 128, 56, 56), float16] span=from_string:21:19 */ = nn.conv2d(%x_12, %x_13, padding=[1, 1, 1, 1], channels=128, kernel_size=[3, 3], out_dtype="float16") /* ty=Tensor[(1, 128, 56, 56), float16] span=from_string:17:15 */;
  let %x_17: Tensor[(1, 128, 56, 56), float16] /* ty=Tensor[(1, 128, 56, 56), float16] span=from_string:21:26 */ = add(1f16 /* ty=float16 */, %x_14) /* ty=Tensor[(1, 128, 56, 56), float16] span=from_string:20:15 */;
  let %x_18: Tensor[(1, 128, 56, 56), float16] /* ty=Tensor[(1, 128, 56, 56), float16] span=from_string:34:25 */ = add(%x_14, %x_17) /* ty=Tensor[(1, 128, 56, 56), float16] span=from_string:21:15 */;
  let %x_19: Tensor[(128, 128, 3, 3), float16] /* ty=Tensor[(128, 128, 3, 3), float16] span=from_string:23:32 */ = cast(%x4, dtype="float16") /* ty=Tensor[(128, 128, 3, 3), float16] span=from_string:22:15 */;
  let %x_20: Tensor[(1, 128, 56, 56), float16] /* ty=Tensor[(1, 128, 56, 56), float16] span=from_string:35:26 */ = nn.conv2d(%x_18, %x_19, padding=[1, 1, 1, 1], channels=128, kernel_size=[3, 3], out_dtype="float16") /* ty=Tensor[(1, 128, 56, 56), float16] span=from_string:23:15 */;
  let %x_21: Tensor[(0, 255, 111, 56), float16] /* ty=Tensor[(0, 255, 111, 56), float16] span=from_string:68:28 */ = nn.batch_to_space_nd(%x_20, block_shape=[2, 2], crops=[[0, 1], [0, 1]]) /* ty=Tensor[(0, 255, 111, 56), float16] span=from_string:24:15 */;
  let %x_22: Tensor[(128, 56, 56), float16] /* ty=Tensor[(128, 56, 56), float16] span=from_string:26:23 */ = reshape(%x_12, newshape=[128, 56, 56]) /* ty=Tensor[(128, 56, 56), float16] span=from_string:25:15 */;
  let %x_23: Tensor[(1, 128, 56, 56), float16] /* ty=Tensor[(1, 128, 56, 56), float16] span=from_string:27:23 */ = reshape(%x_22, newshape=[1, 128, 56, 56]) /* ty=Tensor[(1, 128, 56, 56), float16] span=from_string:26:15 */;
  let %x_24: Tensor[(128, 56, 56), float16] /* ty=Tensor[(128, 56, 56), float16] span=from_string:28:23 */ = reshape(%x_23, newshape=[128, 56, 56]) /* ty=Tensor[(128, 56, 56), float16] span=from_string:27:15 */;
  let %x_25: Tensor[(1, 128, 56, 56), float16] /* ty=Tensor[(1, 128, 56, 56), float16] span=from_string:68:35 */ = reshape(%x_24, newshape=[1, 128, 56, 56]) /* ty=Tensor[(1, 128, 56, 56), float16] span=from_string:28:15 */;
  let %x_27: float16 /* ty=float16 span=from_string:31:32 */ = cast(%x6, dtype="float16") /* ty=float16 span=from_string:30:15 */;
  let %x_28: Tensor[(3), int32] /* ty=Tensor[(3), int32] span=from_string:68:42 */ = full_like(meta[relay.Constant][0] /* ty=Tensor[(3), int32] span=from_string:29:20 */, %x_27) /* ty=Tensor[(3), int32] span=from_string:31:15 */;
  let %x_30: Tensor[(128, 128, 1, 1), float16] /* ty=Tensor[(128, 128, 1, 1), float16] span=from_string:42:23 */ = cast(%x3, dtype="float16") /* ty=Tensor[(128, 128, 1, 1), float16] span=from_string:33:15 */;
  let %x_31: Tensor[(1, 128, 56, 56), float16] /* ty=Tensor[(1, 128, 56, 56), float16] span=from_string:35:19 */ = nn.conv2d(%x_18, %x_30, padding=[0, 0, 0, 0], channels=128, kernel_size=[1, 1], out_dtype="float16") /* ty=Tensor[(1, 128, 56, 56), float16] span=from_string:34:15 */;
  let %x_32: Tensor[(1, 128, 56, 56), float16] /* ty=Tensor[(1, 128, 56, 56), float16] span=from_string:36:20 */ = add(%x_31, %x_20) /* ty=Tensor[(1, 128, 56, 56), float16] span=from_string:35:15 */;
  let %x_33: Tensor[(1, 128, 56, 56), float32] /* ty=Tensor[(1, 128, 56, 56), float32] span=from_string:37:16 */ = cast(%x_32, dtype="float32") /* ty=Tensor[(1, 128, 56, 56), float32] span=from_string:36:15 */;
  let %x_34: (Tensor[(1, 128, 56, 56), float32], Tensor[(80, 128, 56, 56), float32]) /* ty=(Tensor[(1, 128, 56, 56), float32], Tensor[(80, 128, 56, 56), float32]) span=from_string:38:27 */ = (%x_33, %x7) /* ty=(Tensor[(1, 128, 56, 56), float32], Tensor[(80, 128, 56, 56), float32]) span=from_string:37:15 */;
  let %x_35: Tensor[(81, 128, 56, 56), float32] /* ty=Tensor[(81, 128, 56, 56), float32] span=from_string:39:38 */ = concatenate(%x_34) /* ty=Tensor[(81, 128, 56, 56), float32] span=from_string:38:15 */;
  let %x_36: Tensor[(81, 128, 56, 56), float32] /* ty=Tensor[(81, 128, 56, 56), float32] span=from_string:40:16 */ = annotation.stop_fusion(%x_35) /* ty=Tensor[(81, 128, 56, 56), float32] span=from_string:39:15 */;
  let %x_37: (Tensor[(81, 128, 56, 56), float32],) /* ty=(Tensor[(81, 128, 56, 56), float32],) span=from_string:41:27 */ = (%x_36,) /* ty=(Tensor[(81, 128, 56, 56), float32],) span=from_string:40:15 */;
  let %x_38: Tensor[(81, 128, 56, 56), float32] /* ty=Tensor[(81, 128, 56, 56), float32] span=from_string:68:56 */ = concatenate(%x_37) /* ty=Tensor[(81, 128, 56, 56), float32] span=from_string:41:15 */;
  let %x_39: Tensor[(128, 128), float16] /* ty=Tensor[(128, 128), float16] span=from_string:58:19 */ = squeeze(%x_30) /* ty=Tensor[(128, 128), float16] span=from_string:42:15 */;
  let %x_42: Tensor[(128, 128), float16] /* ty=Tensor[(128, 128), float16] span=from_string:53:16 */ = add(%x_39, 1f16 /* ty=float16 */) /* ty=Tensor[(128, 128), float16] span=from_string:45:15 */;
  let %x_43: Tensor[(128, 128), float16] /* ty=Tensor[(128, 128), float16] span=from_string:49:19 */ = squeeze(%x_39) /* ty=Tensor[(128, 128), float16] span=from_string:46:15 */;
  let %x_46: Tensor[(128, 128), float16] /* ty=Tensor[(128, 128), float16] span=from_string:52:19 */ = add(%x_43, 1f16 /* ty=float16 */) /* ty=Tensor[(128, 128), float16] span=from_string:49:15 */;
  let %x_49: Tensor[(128, 128), float16] /* ty=Tensor[(128, 128), float16] span=from_string:53:23 */ = add(%x_46, 1f16 /* ty=float16 */) /* ty=Tensor[(128, 128), float16] span=from_string:52:15 */;
  let %x_50: (Tensor[(128, 128), float16], Tensor[(128, 128), float16]) /* ty=(Tensor[(128, 128), float16], Tensor[(128, 128), float16]) span=from_string:54:27 */ = (%x_42, %x_49) /* ty=(Tensor[(128, 128), float16], Tensor[(128, 128), float16]) span=from_string:53:15 */;
  let %x_51: Tensor[(128, 256), float16] /* ty=Tensor[(128, 256), float16] span=from_string:55:38 */ = concatenate(%x_50, axis=1) /* ty=Tensor[(128, 256), float16] span=from_string:54:15 */;
  let %x_52: Tensor[(128, 256), float16] /* ty=Tensor[(128, 256), float16] span=from_string:62:16 */ = annotation.stop_fusion(%x_51) /* ty=Tensor[(128, 256), float16] span=from_string:55:15 */;
  let %x_55: Tensor[(128, 128), float16] /* ty=Tensor[(128, 128), float16] span=from_string:59:16 */ = add(%x_39, 1f16 /* ty=float16 */) /* ty=Tensor[(128, 128), float16] span=from_string:58:15 */;
  let %x_56: (Tensor[(128, 128), float16],) /* ty=(Tensor[(128, 128), float16],) span=from_string:60:27 */ = (%x_55,) /* ty=(Tensor[(128, 128), float16],) span=from_string:59:15 */;
  let %x_57: Tensor[(128, 128), float16] /* ty=Tensor[(128, 128), float16] span=from_string:61:38 */ = concatenate(%x_56, axis=1) /* ty=Tensor[(128, 128), float16] span=from_string:60:15 */;
  let %x_58: Tensor[(128, 128), float16] /* ty=Tensor[(128, 128), float16] span=from_string:62:23 */ = annotation.stop_fusion(%x_57) /* ty=Tensor[(128, 128), float16] span=from_string:61:15 */;
  let %x_59: (Tensor[(128, 256), float16], Tensor[(128, 128), float16]) /* ty=(Tensor[(128, 256), float16], Tensor[(128, 128), float16]) span=from_string:63:27 */ = (%x_52, %x_58) /* ty=(Tensor[(128, 256), float16], Tensor[(128, 128), float16]) span=from_string:62:15 */;
  let %x_60: Tensor[(128, 384), float16] /* ty=Tensor[(128, 384), float16] span=from_string:64:23 */ = concatenate(%x_59, axis=1) /* ty=Tensor[(128, 384), float16] span=from_string:63:15 */;
  let %x_61: Tensor[(128, 384), float16] /* ty=Tensor[(128, 384), float16] span=from_string:67:19 */ = squeeze(%x_60) /* ty=Tensor[(128, 384), float16] span=from_string:64:15 */;
  let %x_64: Tensor[(128, 384), float16] /* ty=Tensor[(128, 384), float16] span=from_string:68:63 */ = add(%x_61, 1f16 /* ty=float16 */) /* ty=Tensor[(128, 384), float16] span=from_string:67:15 */;
  let %x_65: (Tensor[(1, 128, 56, 56), float16], Tensor[(1, 32, 56, 56, 4), float16], Tensor[(0, 255, 111, 56), float16], Tensor[(1, 128, 56, 56), float16], Tensor[(3), int32], Tensor[(4), int32], Tensor[(81, 128, 56, 56), float32], Tensor[(128, 384), float16]) /* ty=(Tensor[(1, 128, 56, 56), float16], Tensor[(1, 32, 56, 56, 4), float16], Tensor[(0, 255, 111, 56), float16], Tensor[(1, 128, 56, 56), float16], Tensor[(3), int32], Tensor[(4), int32], Tensor[(81, 128, 56, 56), float32], Tensor[(128, 384), float16]) span=from_string:69:3 */ = (%x_6, %x_9, %x_21, %x_25, %x_28, meta[relay.Constant][1] /* ty=Tensor[(4), int32] span=from_string:32:20 */, %x_38, %x_64) /* ty=(Tensor[(1, 128, 56, 56), float16], Tensor[(1, 32, 56, 56, 4), float16], Tensor[(0, 255, 111, 56), float16], Tensor[(1, 128, 56, 56), float16], Tensor[(3), int32], Tensor[(4), int32], Tensor[(81, 128, 56, 56), float32], Tensor[(128, 384), float16]) span=from_string:68:15 */;
  %x_65
}

#[metadata]
{
  "root": 1, 
  "nodes": [
    {
      "type_key": ""
    }, 
    {
      "type_key": "Map", 
      "keys": [
        "relay.Constant"
      ], 
      "data": [2]
    }, 
    {
      "type_key": "Array", 
      "data": [3, 11]
    }, 
    {
      "type_key": "relay.Constant", 
      "attrs": {
        "_checked_type_": "8", 
        "data": "0", 
        "span": "6", 
        "virtual_device_": "4"
      }
    }, 
    {
      "type_key": "VirtualDevice", 
      "attrs": {
        "device_type_int": "-1", 
        "memory_scope": "5", 
        "target": "0", 
        "virtual_device_id": "-1"
      }
    }, 
    {
      "type_key": "runtime.String"
    }, 
    {
      "type_key": "Span", 
      "attrs": {
        "column": "20", 
        "end_column": "38", 
        "end_line": "29", 
        "line": "29", 
        "source_name": "7"
      }
    }, 
    {
      "type_key": "SourceName", 
      "repr_str": "from_string"
    }, 
    {
      "type_key": "relay.TensorType", 
      "attrs": {
        "dtype": "int32", 
        "shape": "9", 
        "span": "0"
      }
    }, 
    {
      "type_key": "Array", 
      "data": [10]
    }, 
    {
      "type_key": "IntImm", 
      "attrs": {
        "dtype": "int32", 
        "span": "0", 
        "value": "3"
      }
    }, 
    {
      "type_key": "relay.Constant", 
      "attrs": {
        "_checked_type_": "13", 
        "data": "1", 
        "span": "12", 
        "virtual_device_": "4"
      }
    }, 
    {
      "type_key": "Span", 
      "attrs": {
        "column": "20", 
        "end_column": "38", 
        "end_line": "32", 
        "line": "32", 
        "source_name": "7"
      }
    }, 
    {
      "type_key": "relay.TensorType", 
      "attrs": {
        "dtype": "int32", 
        "shape": "14", 
        "span": "0"
      }
    }, 
    {
      "type_key": "Array", 
      "data": [15]
    }, 
    {
      "type_key": "IntImm", 
      "attrs": {
        "dtype": "int32", 
        "span": "0", 
        "value": "4"
      }
    }
  ], 
  "b64ndarrays": [
    "P6G0lvBAXt0AAAAAAAAAAAEAAAAAAAAAAQAAAAAgAQADAAAAAAAAAAwAAAAAAAAAgAAAADgAAAA4AAAA", 
    "P6G0lvBAXt0AAAAAAAAAAAEAAAAAAAAAAQAAAAAgAQAEAAAAAAAAABAAAAAAAAAAAAAAAAAAAAAAAAAAAAAAAA=="
  ], 
  "attrs": {"tvm_version": "0.13.0"}
}