#[version = "0.0.5"]
def @main(%x0: Tensor[(1, 128, 56, 56), float32] /* ty=Tensor[(1, 128, 56, 56), float32] span=from_string:3:13 */, %x1: Tensor[(1, 128, 56, 56), float32] /* ty=Tensor[(1, 128, 56, 56), float32] span=from_string:7:13 */, %x2: Tensor[(128, 128, 3, 3), float32] /* ty=Tensor[(128, 128, 3, 3), float32] span=from_string:13:14 */, %x3: Tensor[(128, 128, 1, 1), float32] /* ty=Tensor[(128, 128, 1, 1), float32] span=from_string:24:14 */, %x4: Tensor[(128, 128, 3, 3), float32] /* ty=Tensor[(128, 128, 3, 3), float32] span=from_string:18:14 */, %x5: Tensor[(128, 56, 56), float32] /* ty=Tensor[(128, 56, 56), float32] */, %x6: float32 /* ty=float32 span=from_string:23:14 */, %x7: Tensor[(80, 128, 56, 56), float32] /* ty=Tensor[(80, 128, 56, 56), float32] span=from_string:28:15 */) -> (Tensor[(1, 128, 56, 56), float16], Tensor[(1, 32, 56, 56, 4), float16], Tensor[(0, 255, 111, 56), float16], Tensor[(1, 128, 56, 56), float16], Tensor[(3), int32], Tensor[(4), int32], Tensor[(81, 128, 56, 56), float32], Tensor[(128, 384), float16]) {
  %4 = fn (%p02: Tensor[(1, 128, 56, 56), float32] /* ty=Tensor[(1, 128, 56, 56), float32] */, Primitive=1) -> Tensor[(1, 32, 56, 56, 4), float16] {
    %3 = cast(%p02, dtype="float16") /* ty=Tensor[(1, 128, 56, 56), float16] span=from_string:4:25 */;
    layout_transform(%3, src_layout="NCHW", dst_layout="NCHW4c") /* ty=Tensor[(1, 32, 56, 56, 4), float16] span=from_string:9:25 */
  } /* ty=fn (Tensor[(1, 128, 56, 56), float32]) -> Tensor[(1, 32, 56, 56, 4), float16] */;
  %5 = %4(%x0) /* ty=Tensor[(1, 32, 56, 56, 4), float16] */;
  %6 = fn (%p01: Tensor[(1, 32, 56, 56, 4), float16] /* ty=Tensor[(1, 32, 56, 56, 4), float16] */, Primitive=1) -> Tensor[(1, 128, 56, 56), float16] {
    %2 = layout_transform(%p01, src_layout="NCHW4c", dst_layout="NCHW") /* ty=Tensor[(1, 128, 56, 56), float16] span=from_string:6:16 */;
    nn.relu(%2) /* ty=Tensor[(1, 128, 56, 56), float16] span=from_string:12:12 */
  } /* ty=fn (Tensor[(1, 32, 56, 56, 4), float16]) -> Tensor[(1, 128, 56, 56), float16] */;
  %7 = %6(%5) /* ty=Tensor[(1, 128, 56, 56), float16] */;
  %8 = fn (%p0: Tensor[(1, 128, 56, 56), float32] /* ty=Tensor[(1, 128, 56, 56), float32] */, %p1: Tensor[(1, 128, 56, 56), float16] /* ty=Tensor[(1, 128, 56, 56), float16] */, Primitive=1) -> Tensor[(1, 128, 56, 56), float16] {
    %0 = cast(%p0, dtype="float16") /* ty=Tensor[(1, 128, 56, 56), float16] span=from_string:52:23 */;
    %1 = subtract(%p1, %0) /* ty=Tensor[(1, 128, 56, 56), float16] span=from_string:52:19 */;
    multiply(%1, %0) /* ty=Tensor[(1, 128, 56, 56), float16] span=from_string:59:4 */
  } /* ty=fn (Tensor[(1, 128, 56, 56), float32], Tensor[(1, 128, 56, 56), float16]) -> Tensor[(1, 128, 56, 56), float16] */;
  %11 = fn (%p03: Tensor[(1, 32, 56, 56, 4), float16] /* ty=Tensor[(1, 32, 56, 56, 4), float16] */, Primitive=1) -> Tensor[(1, 32, 56, 56, 4), float16] {
    %9 = layout_transform(%p03, src_layout="NCHW4c", dst_layout="NCHW8c") /* ty=Tensor[(1, 16, 56, 56, 8), float16] span=from_string:10:25 */;
    %10 = layout_transform(%9, src_layout="NCHW8c", dst_layout="NCHW4c") /* ty=Tensor[(1, 32, 56, 56, 4), float16] span=from_string:53:17 */;
    nn.relu(%10) /* ty=Tensor[(1, 32, 56, 56, 4), float16] span=from_string:59:9 */
  } /* ty=fn (Tensor[(1, 32, 56, 56, 4), float16]) -> Tensor[(1, 32, 56, 56, 4), float16] */;
  %16 = fn (%p07: Tensor[(1, 128, 56, 56), float16] /* ty=Tensor[(1, 128, 56, 56), float16] */, Primitive=1) -> Tensor[(1, 128, 56, 56), float16] {
    %15 = cast(1f /* ty=float32 span=from_string:11:15 */, dtype="float16") /* ty=float16 span=from_string:12:16 */;
    add(%p07, %15) /* ty=Tensor[(1, 128, 56, 56), float16] span=from_string:20:17 */
  } /* ty=fn (Tensor[(1, 128, 56, 56), float16]) -> Tensor[(1, 128, 56, 56), float16] */;
  %17 = fn (%p08: Tensor[(128, 128, 3, 3), float32] /* ty=Tensor[(128, 128, 3, 3), float32] */, Primitive=1) -> Tensor[(128, 128, 3, 3), float16] {
    cast(%p08, dtype="float16") /* ty=Tensor[(128, 128, 3, 3), float16] span=from_string:15:23 */
  } /* ty=fn (Tensor[(128, 128, 3, 3), float32]) -> Tensor[(128, 128, 3, 3), float16] */;
  %18 = %16(%7) /* ty=Tensor[(1, 128, 56, 56), float16] */;
  %19 = %17(%x2) /* ty=Tensor[(128, 128, 3, 3), float16] */;
  %20 = fn (%p06: Tensor[(1, 128, 56, 56), float16] /* ty=Tensor[(1, 128, 56, 56), float16] */, %p12: Tensor[(128, 128, 3, 3), float16] /* ty=Tensor[(128, 128, 3, 3), float16] */, Primitive=1) -> Tensor[(1, 128, 56, 56), float16] {
    %12 = cast(1f /* ty=float32 span=from_string:14:16 */, dtype="float16") /* ty=float16 span=from_string:16:13 */;
    %13 = nn.conv2d(%p06, %p12, padding=[1, 1, 1, 1], channels=128, kernel_size=[3, 3], out_dtype="float16") /* ty=Tensor[(1, 128, 56, 56), float16] span=from_string:17:13 */;
    %14 = add(%12, %13) /* ty=Tensor[(1, 128, 56, 56), float16] span=from_string:17:18 */;
    add(%13, %14) /* ty=Tensor[(1, 128, 56, 56), float16] span=from_string:25:19 */
  } /* ty=fn (Tensor[(1, 128, 56, 56), float16], Tensor[(128, 128, 3, 3), float16]) -> Tensor[(1, 128, 56, 56), float16] */;
  %21 = fn (%p09: Tensor[(128, 128, 3, 3), float32] /* ty=Tensor[(128, 128, 3, 3), float32] */, Primitive=1) -> Tensor[(128, 128, 3, 3), float16] {
    cast(%p09, dtype="float16") /* ty=Tensor[(128, 128, 3, 3), float16] span=from_string:19:24 */
  } /* ty=fn (Tensor[(128, 128, 3, 3), float32]) -> Tensor[(128, 128, 3, 3), float16] */;
  %22 = %20(%18, %19) /* ty=Tensor[(1, 128, 56, 56), float16] */;
  %23 = %21(%x4) /* ty=Tensor[(128, 128, 3, 3), float16] */;
  %24 = fn (%p05: Tensor[(1, 128, 56, 56), float16] /* ty=Tensor[(1, 128, 56, 56), float16] */, %p11: Tensor[(128, 128, 3, 3), float16] /* ty=Tensor[(128, 128, 3, 3), float16] */, Primitive=1) -> Tensor[(1, 128, 56, 56), float16] {
    nn.conv2d(%p05, %p11, padding=[1, 1, 1, 1], channels=128, kernel_size=[3, 3], out_dtype="float16") /* ty=Tensor[(1, 128, 56, 56), float16] span=from_string:54:30 */
  } /* ty=fn (Tensor[(1, 128, 56, 56), float16], Tensor[(128, 128, 3, 3), float16]) -> Tensor[(1, 128, 56, 56), float16] */;
  %25 = %24(%22, %23) /* ty=Tensor[(1, 128, 56, 56), float16] */;
  %26 = fn (%p04: Tensor[(1, 128, 56, 56), float16] /* ty=Tensor[(1, 128, 56, 56), float16] */, Primitive=1) -> Tensor[(0, 255, 111, 56), float16] {
    nn.batch_to_space_nd(%p04, block_shape=[2, 2], crops=[[0, 1], [0, 1]]) /* ty=Tensor[(0, 255, 111, 56), float16] span=from_string:59:14 */
  } /* ty=fn (Tensor[(1, 128, 56, 56), float16]) -> Tensor[(0, 255, 111, 56), float16] */;
  %30 = fn (%p010: Tensor[(1, 128, 56, 56), float16] /* ty=Tensor[(1, 128, 56, 56), float16] */, Primitive=1, relay.reshape_only=1) -> Tensor[(1, 128, 56, 56), float16] {
    %27 = reshape(%p010, newshape=[128, 56, 56]) /* ty=Tensor[(128, 56, 56), float16] span=from_string:21:17 */;
    %28 = reshape(%27, newshape=[1, 128, 56, 56]) /* ty=Tensor[(1, 128, 56, 56), float16] span=from_string:22:17 */;
    %29 = reshape(%28, newshape=[128, 56, 56]) /* ty=Tensor[(128, 56, 56), float16] span=from_string:55:17 */;
    reshape(%29, newshape=[1, 128, 56, 56]) /* ty=Tensor[(1, 128, 56, 56), float16] span=from_string:59:19 */
  } /* ty=fn (Tensor[(1, 128, 56, 56), float16]) -> Tensor[(1, 128, 56, 56), float16] */;
  %32 = fn (%p011: float32 /* ty=float32 */, %p13: Tensor[(3), int32] /* ty=Tensor[(3), int32] */, Primitive=1) -> Tensor[(3), int32] {
    %31 = cast(%p011, dtype="float16") /* ty=float16 span=from_string:56:95 */;
    full_like(%p13, %31) /* ty=Tensor[(3), int32] span=from_string:59:24 */
  } /* ty=fn (float32, Tensor[(3), int32]) -> Tensor[(3), int32] */;
  %37 = fn (%p015: Tensor[(128, 128, 1, 1), float32] /* ty=Tensor[(128, 128, 1, 1), float32] */, Primitive=1) -> Tensor[(128, 128, 1, 1), float16] {
    cast(%p015, dtype="float16") /* ty=Tensor[(128, 128, 1, 1), float16] span=from_string:32:17 */
  } /* ty=fn (Tensor[(128, 128, 1, 1), float32]) -> Tensor[(128, 128, 1, 1), float16] */;
  %38 = %37(%x3) /* ty=Tensor[(128, 128, 1, 1), float16] */;
  %39 = fn (%p014: Tensor[(1, 128, 56, 56), float16] /* ty=Tensor[(1, 128, 56, 56), float16] */, %p15: Tensor[(128, 128, 1, 1), float16] /* ty=Tensor[(128, 128, 1, 1), float16] */, %p2: Tensor[(1, 128, 56, 56), float16] /* ty=Tensor[(1, 128, 56, 56), float16] */, Primitive=1) -> Tensor[(1, 128, 56, 56), float32] {
    %35 = nn.conv2d(%p014, %p15, padding=[0, 0, 0, 0], channels=128, kernel_size=[1, 1], out_dtype="float16") /* ty=Tensor[(1, 128, 56, 56), float16] span=from_string:26:13 */;
    %36 = add(%35, %p2) /* ty=Tensor[(1, 128, 56, 56), float16] span=from_string:27:14 */;
    cast(%36, dtype="float32") /* ty=Tensor[(1, 128, 56, 56), float32] span=from_string:28:10 */
  } /* ty=fn (Tensor[(1, 128, 56, 56), float16], Tensor[(128, 128, 1, 1), float16], Tensor[(1, 128, 56, 56), float16]) -> Tensor[(1, 128, 56, 56), float32] */;
  %40 = %39(%22, %38, %25) /* ty=Tensor[(1, 128, 56, 56), float32] */;
  %41 = fn (%p013: Tensor[(1, 128, 56, 56), float32] /* ty=Tensor[(1, 128, 56, 56), float32] */, %p14: Tensor[(80, 128, 56, 56), float32] /* ty=Tensor[(80, 128, 56, 56), float32] */, Primitive=1) -> Tensor[(81, 128, 56, 56), float32] {
    %34 = (%p013, %p14) /* ty=(Tensor[(1, 128, 56, 56), float32], Tensor[(80, 128, 56, 56), float32]) span=from_string:29:21 */;
    concatenate(%34) /* ty=Tensor[(81, 128, 56, 56), float32] span=from_string:30:32 */
  } /* ty=fn (Tensor[(1, 128, 56, 56), float32], Tensor[(80, 128, 56, 56), float32]) -> Tensor[(81, 128, 56, 56), float32] */;
  %42 = %41(%40, %x7) /* ty=Tensor[(81, 128, 56, 56), float32] */;
  %43 = fn (%p012: Tensor[(81, 128, 56, 56), float32] /* ty=Tensor[(81, 128, 56, 56), float32] */, Primitive=1) -> Tensor[(81, 128, 56, 56), float32] {
    %33 = (%p012,) /* ty=(Tensor[(81, 128, 56, 56), float32],) span=from_string:57:21 */;
    concatenate(%33) /* ty=Tensor[(81, 128, 56, 56), float32] span=from_string:59:105 */
  } /* ty=fn (Tensor[(81, 128, 56, 56), float32]) -> Tensor[(81, 128, 56, 56), float32] */;
  %56 = fn (%p018: Tensor[(128, 128, 1, 1), float16] /* ty=Tensor[(128, 128, 1, 1), float16] */, Primitive=1, relay.reshape_only=1) -> Tensor[(128, 128), float16] {
    squeeze(%p018) /* ty=Tensor[(128, 128), float16] span=from_string:43:13 */
  } /* ty=fn (Tensor[(128, 128, 1, 1), float16]) -> Tensor[(128, 128), float16] */;
  %57 = %56(%38) /* ty=Tensor[(128, 128), float16] */;
  %58 = fn (%p017: Tensor[(128, 128), float16] /* ty=Tensor[(128, 128), float16] */, Primitive=1) -> Tensor[(128, 256), float16] {
    %48 = cast(1f /* ty=float32 span=from_string:33:16 */, dtype="float16") /* ty=float16 span=from_string:38:18 */;
    %49 = squeeze(%p017) /* ty=Tensor[(128, 128), float16] span=from_string:36:13 */;
    %50 = cast(1f /* ty=float32 span=from_string:35:16 */, dtype="float16") /* ty=float16 span=from_string:36:18 */;
    %51 = add(%49, %50) /* ty=Tensor[(128, 128), float16] span=from_string:39:13 */;
    %52 = cast(1f /* ty=float32 span=from_string:37:16 */, dtype="float16") /* ty=float16 span=from_string:39:18 */;
    %53 = add(%p017, %48) /* ty=Tensor[(128, 128), float16] span=from_string:40:10 */;
    %54 = add(%51, %52) /* ty=Tensor[(128, 128), float16] span=from_string:40:15 */;
    %55 = (%53, %54) /* ty=(Tensor[(128, 128), float16], Tensor[(128, 128), float16]) span=from_string:41:21 */;
    concatenate(%55, axis=1) /* ty=Tensor[(128, 256), float16] span=from_string:46:32 */
  } /* ty=fn (Tensor[(128, 128), float16]) -> Tensor[(128, 256), float16] */;
  %62 = fn (%p019: Tensor[(128, 128), float16] /* ty=Tensor[(128, 128), float16] */, Primitive=1) -> Tensor[(128, 128), float16] {
    %59 = cast(1f /* ty=float32 span=from_string:42:16 */, dtype="float16") /* ty=float16 span=from_string:43:18 */;
    %60 = add(%p019, %59) /* ty=Tensor[(128, 128), float16] span=from_string:44:10 */;
    %61 = (%60,) /* ty=(Tensor[(128, 128), float16],) span=from_string:45:21 */;
    concatenate(%61, axis=1) /* ty=Tensor[(128, 128), float16] span=from_string:47:32 */
  } /* ty=fn (Tensor[(128, 128), float16]) -> Tensor[(128, 128), float16] */;
  %63 = %58(%57) /* ty=Tensor[(128, 256), float16] */;
  %64 = %62(%57) /* ty=Tensor[(128, 128), float16] */;
  %65 = fn (%p016: Tensor[(128, 256), float16] /* ty=Tensor[(128, 256), float16] */, %p16: Tensor[(128, 128), float16] /* ty=Tensor[(128, 128), float16] */, Primitive=1) -> Tensor[(128, 384), float16] {
    %44 = (%p016, %p16) /* ty=(Tensor[(128, 256), float16], Tensor[(128, 128), float16]) span=from_string:49:21 */;
    %45 = concatenate(%44, axis=1) /* ty=Tensor[(128, 384), float16] span=from_string:50:17 */;
    %46 = squeeze(%45) /* ty=Tensor[(128, 384), float16] span=from_string:58:13 */;
    %47 = cast(1f /* ty=float32 span=from_string:51:16 */, dtype="float16") /* ty=float16 span=from_string:58:18 */;
    add(%46, %47) /* ty=Tensor[(128, 384), float16] span=from_string:59:110 */
  } /* ty=fn (Tensor[(128, 256), float16], Tensor[(128, 128), float16]) -> Tensor[(128, 384), float16] */;
  %66 = %8(%x1, %7) /* ty=Tensor[(1, 128, 56, 56), float16] */;
  %67 = %11(%5) /* ty=Tensor[(1, 32, 56, 56, 4), float16] */;
  %68 = %26(%25) /* ty=Tensor[(0, 255, 111, 56), float16] */;
  %69 = %30(%18) /* ty=Tensor[(1, 128, 56, 56), float16] */;
  %70 = %32(%x6, meta[relay.Constant][0] /* ty=Tensor[(3), int32] span=from_string:56:24 */) /* ty=Tensor[(3), int32] */;
  %71 = %43(%42) /* ty=Tensor[(81, 128, 56, 56), float32] */;
  %72 = %65(%63, %64) /* ty=Tensor[(128, 384), float16] */;
  (%66, %67, %68, %69, %70, meta[relay.Constant][1] /* ty=Tensor[(4), int32] span=from_string:59:34 */, %71, %72) /* ty=(Tensor[(1, 128, 56, 56), float16], Tensor[(1, 32, 56, 56, 4), float16], Tensor[(0, 255, 111, 56), float16], Tensor[(1, 128, 56, 56), float16], Tensor[(3), int32], Tensor[(4), int32], Tensor[(81, 128, 56, 56), float32], Tensor[(128, 384), float16]) span=from_string:3:3 */
}

#[metadata]
{
  "root": 1, 
  "nodes": [
    {
      "type_key": ""
    }, 
    {
      "type_key": "Map", 
      "keys": [
        "relay.Constant"
      ], 
      "data": [2]
    }, 
    {
      "type_key": "Array", 
      "data": [3, 11]
    }, 
    {
      "type_key": "relay.Constant", 
      "attrs": {
        "_checked_type_": "8", 
        "data": "0", 
        "span": "6", 
        "virtual_device_": "4"
      }
    }, 
    {
      "type_key": "VirtualDevice", 
      "attrs": {
        "device_type_int": "-1", 
        "memory_scope": "5", 
        "target": "0", 
        "virtual_device_id": "-1"
      }
    }, 
    {
      "type_key": "runtime.String"
    }, 
    {
      "type_key": "Span", 
      "attrs": {
        "column": "24", 
        "end_column": "42", 
        "end_line": "56", 
        "line": "56", 
        "source_name": "7"
      }
    }, 
    {
      "type_key": "SourceName", 
      "repr_str": "from_string"
    }, 
    {
      "type_key": "relay.TensorType", 
      "attrs": {
        "dtype": "int32", 
        "shape": "9", 
        "span": "0"
      }
    }, 
    {
      "type_key": "Array", 
      "data": [10]
    }, 
    {
      "type_key": "IntImm", 
      "attrs": {
        "dtype": "int32", 
        "span": "0", 
        "value": "3"
      }
    }, 
    {
      "type_key": "relay.Constant", 
      "attrs": {
        "_checked_type_": "13", 
        "data": "1", 
        "span": "12", 
        "virtual_device_": "4"
      }
    }, 
    {
      "type_key": "Span", 
      "attrs": {
        "column": "34", 
        "end_column": "52", 
        "end_line": "59", 
        "line": "59", 
        "source_name": "7"
      }
    }, 
    {
      "type_key": "relay.TensorType", 
      "attrs": {
        "dtype": "int32", 
        "shape": "14", 
        "span": "16"
      }
    }, 
    {
      "type_key": "Array", 
      "data": [15]
    }, 
    {
      "type_key": "IntImm", 
      "attrs": {
        "dtype": "int32", 
        "span": "0", 
        "value": "4"
      }
    }, 
    {
      "type_key": "Span", 
      "attrs": {
        "column": "948", 
        "end_column": "968", 
        "end_line": "2", 
        "line": "2", 
        "source_name": "7"
      }
    }
  ], 
  "b64ndarrays": [
    "P6G0lvBAXt0AAAAAAAAAAAEAAAAAAAAAAQAAAAAgAQADAAAAAAAAAAwAAAAAAAAAgAAAADgAAAA4AAAA", 
    "P6G0lvBAXt0AAAAAAAAAAAEAAAAAAAAAAQAAAAAgAQAEAAAAAAAAABAAAAAAAAAAAAAAAAAAAAAAAAAAAAAAAA=="
  ], 
  "attrs": {"tvm_version": "0.13.0"}
}