#[version = "0.0.5"]
def @main(%x0: Tensor[(1, 128, 56, 56), float32] /* ty=Tensor[(1, 128, 56, 56), float32] span=from_string:3:13 */, %x1: Tensor[(1, 128, 56, 56), float32] /* ty=Tensor[(1, 128, 56, 56), float32] span=from_string:8:13 */, %x2: Tensor[(128, 128, 3, 3), float32] /* ty=Tensor[(128, 128, 3, 3), float32] span=from_string:19:13 */, %x3: Tensor[(128, 128, 1, 1), float32] /* ty=Tensor[(128, 128, 1, 1), float32] span=from_string:40:13 */, %x4: Tensor[(128, 128, 3, 3), float32] /* ty=Tensor[(128, 128, 3, 3), float32] span=from_string:27:13 */, %x5: Tensor[(128, 56, 56), float32] /* ty=Tensor[(128, 56, 56), float32] */, %x6: float32 /* ty=float32 span=from_string:36:13 */, %x7: Tensor[(80, 128, 56, 56), float32] /* ty=Tensor[(80, 128, 56, 56), float32] span=from_string:45:200 */) -> (Tensor[(1, 128, 56, 56), float16], Tensor[(1, 32, 56, 56, 4), float16], Tensor[(0, 255, 111, 56), float16], Tensor[(1, 128, 56, 56), float16], Tensor[(3), int32], Tensor[(4), int32], Tensor[(81, 128, 56, 56), float16], Tensor[(128, 384), float16]) {
  %0 = cast(%x0, dtype="float16") /* ty=Tensor[(1, 128, 56, 56), float16] span=from_string:4:119 */;
  let %x_0: Tensor[(1, 128, 56, 56), float16] /* ty=Tensor[(1, 128, 56, 56), float16] span=from_string:5:136 */ = cast(%0, dtype="float16") /* ty=Tensor[(1, 128, 56, 56), float16] span=from_string:4:114 */;
  let %x_1: Tensor[(1, 32, 56, 56, 4), float16] /* ty=Tensor[(1, 32, 56, 56, 4), float16] span=from_string:12:136 */ = layout_transform(%x_0, src_layout="NCHW", dst_layout="NCHW4c") /* ty=Tensor[(1, 32, 56, 56, 4), float16] span=from_string:5:119 */;
  let %x_2: Tensor[(1, 128, 56, 56), float16] /* ty=Tensor[(1, 128, 56, 56), float16] span=from_string:7:123 */ = layout_transform(%x_1, src_layout="NCHW4c", dst_layout="NCHW") /* ty=Tensor[(1, 128, 56, 56), float16] span=from_string:6:114 */;
  let %x_3: Tensor[(1, 128, 56, 56), float16] /* ty=Tensor[(1, 128, 56, 56), float16] span=from_string:18:120 */ = nn.relu(%x_2) /* ty=Tensor[(1, 128, 56, 56), float16] span=from_string:7:115 */;
  %1 = cast(%x1, dtype="float16") /* ty=Tensor[(1, 128, 56, 56), float16] span=from_string:9:119 */;
  let %x_4: Tensor[(1, 128, 56, 56), float16] /* ty=Tensor[(1, 128, 56, 56), float16] span=from_string:11:131 */ = cast(%1, dtype="float16") /* ty=Tensor[(1, 128, 56, 56), float16] span=from_string:9:114 */;
  let %x_5: Tensor[(1, 128, 56, 56), float16] /* ty=Tensor[(1, 128, 56, 56), float16] span=from_string:11:125 */ = subtract(%x_3, %x_4) /* ty=Tensor[(1, 128, 56, 56), float16] span=from_string:10:114 */;
  let %x_6: Tensor[(1, 128, 56, 56), float16] /* ty=Tensor[(1, 128, 56, 56), float16] span=from_string:86:550 */ = multiply(%x_5, %x_4) /* ty=Tensor[(1, 128, 56, 56), float16] span=from_string:11:116 */;
  let %x_7: Tensor[(1, 16, 56, 56, 8), float16] /* ty=Tensor[(1, 16, 56, 56, 8), float16] span=from_string:13:136 */ = layout_transform(%x_1, src_layout="NCHW4c", dst_layout="NCHW8c") /* ty=Tensor[(1, 16, 56, 56, 8), float16] span=from_string:12:119 */;
  let %x_8: Tensor[(1, 32, 56, 56, 4), float16] /* ty=Tensor[(1, 32, 56, 56, 4), float16] span=from_string:14:127 */ = layout_transform(%x_7, src_layout="NCHW8c", dst_layout="NCHW4c") /* ty=Tensor[(1, 32, 56, 56, 4), float16] span=from_string:13:119 */;
  let %x_9: Tensor[(1, 32, 56, 56, 4), float16] /* ty=Tensor[(1, 32, 56, 56, 4), float16] span=from_string:86:556 */ = nn.relu(%x_8) /* ty=Tensor[(1, 32, 56, 56, 4), float16] span=from_string:14:119 */;
  let %x_12: Tensor[(1, 128, 56, 56), float16] /* ty=Tensor[(1, 128, 56, 56), float16] span=from_string:31:118 */ = add(%x_3, 1f16 /* ty=float16 */) /* ty=Tensor[(1, 128, 56, 56), float16] span=from_string:18:116 */;
  %2 = cast(%x2, dtype="float16") /* ty=Tensor[(128, 128, 3, 3), float16] span=from_string:20:121 */;
  let %x_13: Tensor[(128, 128, 3, 3), float16] /* ty=Tensor[(128, 128, 3, 3), float16] span=from_string:21:133 */ = cast(%2, dtype="float16") /* ty=Tensor[(128, 128, 3, 3), float16] span=from_string:20:116 */;
  let %x_14: Tensor[(1, 128, 56, 56), float16] /* ty=Tensor[(1, 128, 56, 56), float16] span=from_string:26:120 */ = nn.conv2d(%x_12, %x_13, padding=[1, 1, 1, 1], channels=128, kernel_size=[3, 3], out_dtype="float16") /* ty=Tensor[(1, 128, 56, 56), float16] span=from_string:21:116 */;
  let %x_17: Tensor[(1, 128, 56, 56), float16] /* ty=Tensor[(1, 128, 56, 56), float16] span=from_string:26:127 */ = add(1f16 /* ty=float16 */, %x_14) /* ty=Tensor[(1, 128, 56, 56), float16] span=from_string:25:116 */;
  let %x_18: Tensor[(1, 128, 56, 56), float16] /* ty=Tensor[(1, 128, 56, 56), float16] span=from_string:42:126 */ = add(%x_14, %x_17) /* ty=Tensor[(1, 128, 56, 56), float16] span=from_string:26:116 */;
  %3 = cast(%x4, dtype="float16") /* ty=Tensor[(128, 128, 3, 3), float16] span=from_string:28:121 */;
  let %x_19: Tensor[(128, 128, 3, 3), float16] /* ty=Tensor[(128, 128, 3, 3), float16] span=from_string:29:133 */ = cast(%3, dtype="float16") /* ty=Tensor[(128, 128, 3, 3), float16] span=from_string:28:116 */;
  let %x_20: Tensor[(1, 128, 56, 56), float16] /* ty=Tensor[(1, 128, 56, 56), float16] span=from_string:43:127 */ = nn.conv2d(%x_18, %x_19, padding=[1, 1, 1, 1], channels=128, kernel_size=[3, 3], out_dtype="float16") /* ty=Tensor[(1, 128, 56, 56), float16] span=from_string:29:116 */;
  let %x_21: Tensor[(0, 255, 111, 56), float16] /* ty=Tensor[(0, 255, 111, 56), float16] span=from_string:86:562 */ = nn.batch_to_space_nd(%x_20, block_shape=[2, 2], crops=[[0, 1], [0, 1]]) /* ty=Tensor[(0, 255, 111, 56), float16] span=from_string:30:118 */;
  let %x_22: Tensor[(128, 56, 56), float16] /* ty=Tensor[(128, 56, 56), float16] span=from_string:32:124 */ = reshape(%x_12, newshape=[128, 56, 56]) /* ty=Tensor[(128, 56, 56), float16] span=from_string:31:110 */;
  let %x_23: Tensor[(1, 128, 56, 56), float16] /* ty=Tensor[(1, 128, 56, 56), float16] span=from_string:33:118 */ = reshape(%x_22, newshape=[1, 128, 56, 56]) /* ty=Tensor[(1, 128, 56, 56), float16] span=from_string:32:116 */;
  let %x_24: Tensor[(128, 56, 56), float16] /* ty=Tensor[(128, 56, 56), float16] span=from_string:34:124 */ = reshape(%x_23, newshape=[128, 56, 56]) /* ty=Tensor[(128, 56, 56), float16] span=from_string:33:110 */;
  let %x_25: Tensor[(1, 128, 56, 56), float16] /* ty=Tensor[(1, 128, 56, 56), float16] span=from_string:86:569 */ = reshape(%x_24, newshape=[1, 128, 56, 56]) /* ty=Tensor[(1, 128, 56, 56), float16] span=from_string:34:116 */;
  %4 = cast(%x6, dtype="float16") /* ty=float16 span=from_string:37:69 */;
  let %x_27: float16 /* ty=float16 span=from_string:38:105 */ = cast(%4, dtype="float16") /* ty=float16 span=from_string:37:64 */;
  let %x_28: Tensor[(3), int32] /* ty=Tensor[(3), int32] span=from_string:86:576 */ = full_like(meta[relay.Constant][0] /* ty=Tensor[(3), int32] span=from_string:35:93 */, %x_27) /* ty=Tensor[(3), int32] span=from_string:38:88 */;
  %5 = cast(%x3, dtype="float16") /* ty=Tensor[(128, 128, 1, 1), float16] span=from_string:41:121 */;
  let %x_30: Tensor[(128, 128, 1, 1), float16] /* ty=Tensor[(128, 128, 1, 1), float16] span=from_string:55:112 */ = cast(%5, dtype="float16") /* ty=Tensor[(128, 128, 1, 1), float16] span=from_string:41:116 */;
  let %x_31: Tensor[(1, 128, 56, 56), float16] /* ty=Tensor[(1, 128, 56, 56), float16] span=from_string:43:120 */ = nn.conv2d(%x_18, %x_30, padding=[0, 0, 0, 0], channels=128, kernel_size=[1, 1], out_dtype="float16") /* ty=Tensor[(1, 128, 56, 56), float16] span=from_string:42:116 */;
  let %x_32: Tensor[(1, 128, 56, 56), float16] /* ty=Tensor[(1, 128, 56, 56), float16] span=from_string:44:121 */ = add(%x_31, %x_20) /* ty=Tensor[(1, 128, 56, 56), float16] span=from_string:43:116 */;
  let %x_33: Tensor[(1, 128, 56, 56), float32] /* ty=Tensor[(1, 128, 56, 56), float32] span=from_string:45:193 */ = cast(%x_32, dtype="float32") /* ty=Tensor[(1, 128, 56, 56), float32] span=from_string:44:116 */;
  let %x_34: (Tensor[(1, 128, 56, 56), float32], Tensor[(80, 128, 56, 56), float32]) /* ty=(Tensor[(1, 128, 56, 56), float32], Tensor[(80, 128, 56, 56), float32]) span=from_string:47:8 */ = (%x_33, %x7) /* ty=(Tensor[(1, 128, 56, 56), float32], Tensor[(80, 128, 56, 56), float32]) span=from_string:45:192 */;
  %6 = %x_34.0 /* ty=Tensor[(1, 128, 56, 56), float32] span=from_string:48:14 */;
  %7 = %x_34.1 /* ty=Tensor[(80, 128, 56, 56), float32] span=from_string:49:14 */;
  %8 = cast(%6, dtype="float16") /* ty=Tensor[(1, 128, 56, 56), float16] span=from_string:50:10 */;
  %9 = cast(%7, dtype="float16") /* ty=Tensor[(80, 128, 56, 56), float16] span=from_string:50:15 */;
  %10 = (%8, %9) /* ty=(Tensor[(1, 128, 56, 56), float16], Tensor[(80, 128, 56, 56), float16]) span=from_string:51:130 */;
  let %x_35: Tensor[(81, 128, 56, 56), float16] /* ty=Tensor[(81, 128, 56, 56), float16] span=from_string:52:141 */ = concatenate(%10) /* ty=Tensor[(81, 128, 56, 56), float16] span=from_string:51:118 */;
  let %x_36: Tensor[(81, 128, 56, 56), float16] /* ty=Tensor[(81, 128, 56, 56), float16] span=from_string:53:125 */ = annotation.stop_fusion(%x_35) /* ty=Tensor[(81, 128, 56, 56), float16] span=from_string:52:118 */;
  let %x_37: (Tensor[(81, 128, 56, 56), float16],) /* ty=(Tensor[(81, 128, 56, 56), float16],) span=from_string:54:130 */ = (%x_36,) /* ty=(Tensor[(81, 128, 56, 56), float16],) span=from_string:53:124 */;
  let %x_38: Tensor[(81, 128, 56, 56), float16] /* ty=Tensor[(81, 128, 56, 56), float16] span=from_string:86:590 */ = concatenate(%x_37) /* ty=Tensor[(81, 128, 56, 56), float16] span=from_string:54:118 */;
  let %x_39: Tensor[(128, 128), float16] /* ty=Tensor[(128, 128), float16] span=from_string:75:108 */ = squeeze(%x_30) /* ty=Tensor[(128, 128), float16] span=from_string:55:104 */;
  let %x_42: Tensor[(128, 128), float16] /* ty=Tensor[(128, 128), float16] span=from_string:69:167 */ = add(%x_39, 1f16 /* ty=float16 */) /* ty=Tensor[(128, 128), float16] span=from_string:59:104 */;
  let %x_43: Tensor[(128, 128), float16] /* ty=Tensor[(128, 128), float16] span=from_string:64:108 */ = squeeze(%x_39) /* ty=Tensor[(128, 128), float16] span=from_string:60:104 */;
  let %x_46: Tensor[(128, 128), float16] /* ty=Tensor[(128, 128), float16] span=from_string:68:108 */ = add(%x_43, 1f16 /* ty=float16 */) /* ty=Tensor[(128, 128), float16] span=from_string:64:104 */;
  let %x_49: Tensor[(128, 128), float16] /* ty=Tensor[(128, 128), float16] span=from_string:69:174 */ = add(%x_46, 1f16 /* ty=float16 */) /* ty=Tensor[(128, 128), float16] span=from_string:68:104 */;
  let %x_50: (Tensor[(128, 128), float16], Tensor[(128, 128), float16]) /* ty=(Tensor[(128, 128), float16], Tensor[(128, 128), float16]) span=from_string:70:116 */ = (%x_42, %x_49) /* ty=(Tensor[(128, 128), float16], Tensor[(128, 128), float16]) span=from_string:69:166 */;
  let %x_51: Tensor[(128, 256), float16] /* ty=Tensor[(128, 256), float16] span=from_string:71:127 */ = concatenate(%x_50, axis=1) /* ty=Tensor[(128, 256), float16] span=from_string:70:104 */;
  let %x_52: Tensor[(128, 256), float16] /* ty=Tensor[(128, 256), float16] span=from_string:79:167 */ = annotation.stop_fusion(%x_51) /* ty=Tensor[(128, 256), float16] span=from_string:71:104 */;
  let %x_55: Tensor[(128, 128), float16] /* ty=Tensor[(128, 128), float16] span=from_string:76:111 */ = add(%x_39, 1f16 /* ty=float16 */) /* ty=Tensor[(128, 128), float16] span=from_string:75:104 */;
  let %x_56: (Tensor[(128, 128), float16],) /* ty=(Tensor[(128, 128), float16],) span=from_string:77:116 */ = (%x_55,) /* ty=(Tensor[(128, 128), float16],) span=from_string:76:110 */;
  let %x_57: Tensor[(128, 128), float16] /* ty=Tensor[(128, 128), float16] span=from_string:78:127 */ = concatenate(%x_56, axis=1) /* ty=Tensor[(128, 128), float16] span=from_string:77:104 */;
  let %x_58: Tensor[(128, 128), float16] /* ty=Tensor[(128, 128), float16] span=from_string:79:174 */ = annotation.stop_fusion(%x_57) /* ty=Tensor[(128, 128), float16] span=from_string:78:104 */;
  let %x_59: (Tensor[(128, 256), float16], Tensor[(128, 128), float16]) /* ty=(Tensor[(128, 256), float16], Tensor[(128, 128), float16]) span=from_string:80:116 */ = (%x_52, %x_58) /* ty=(Tensor[(128, 256), float16], Tensor[(128, 128), float16]) span=from_string:79:166 */;
  let %x_60: Tensor[(128, 384), float16] /* ty=Tensor[(128, 384), float16] span=from_string:81:112 */ = concatenate(%x_59, axis=1) /* ty=Tensor[(128, 384), float16] span=from_string:80:104 */;
  let %x_61: Tensor[(128, 384), float16] /* ty=Tensor[(128, 384), float16] span=from_string:85:108 */ = squeeze(%x_60) /* ty=Tensor[(128, 384), float16] span=from_string:81:104 */;
  let %x_64: Tensor[(128, 384), float16] /* ty=Tensor[(128, 384), float16] span=from_string:86:597 */ = add(%x_61, 1f16 /* ty=float16 */) /* ty=Tensor[(128, 384), float16] span=from_string:85:104 */;
  let %x_65: (Tensor[(1, 128, 56, 56), float16], Tensor[(1, 32, 56, 56, 4), float16], Tensor[(0, 255, 111, 56), float16], Tensor[(1, 128, 56, 56), float16], Tensor[(3), int32], Tensor[(4), int32], Tensor[(81, 128, 56, 56), float16], Tensor[(128, 384), float16]) /* ty=(Tensor[(1, 128, 56, 56), float16], Tensor[(1, 32, 56, 56, 4), float16], Tensor[(0, 255, 111, 56), float16], Tensor[(1, 128, 56, 56), float16], Tensor[(3), int32], Tensor[(4), int32], Tensor[(81, 128, 56, 56), float16], Tensor[(128, 384), float16]) span=from_string:87:3 */ = (%x_6, %x_9, %x_21, %x_25, %x_28, meta[relay.Constant][1] /* ty=Tensor[(4), int32] span=from_string:39:93 */, %x_38, %x_64) /* ty=(Tensor[(1, 128, 56, 56), float16], Tensor[(1, 32, 56, 56, 4), float16], Tensor[(0, 255, 111, 56), float16], Tensor[(1, 128, 56, 56), float16], Tensor[(3), int32], Tensor[(4), int32], Tensor[(81, 128, 56, 56), float16], Tensor[(128, 384), float16]) span=from_string:86:549 */;
  %x_65
}

#[metadata]
{
  "root": 1, 
  "nodes": [
    {
      "type_key": ""
    }, 
    {
      "type_key": "Map", 
      "keys": [
        "relay.Constant"
      ], 
      "data": [2]
    }, 
    {
      "type_key": "Array", 
      "data": [3, 11]
    }, 
    {
      "type_key": "relay.Constant", 
      "attrs": {
        "_checked_type_": "8", 
        "data": "0", 
        "span": "6", 
        "virtual_device_": "4"
      }
    }, 
    {
      "type_key": "VirtualDevice", 
      "attrs": {
        "device_type_int": "-1", 
        "memory_scope": "5", 
        "target": "0", 
        "virtual_device_id": "-1"
      }
    }, 
    {
      "type_key": "runtime.String"
    }, 
    {
      "type_key": "Span", 
      "attrs": {
        "column": "93", 
        "end_column": "111", 
        "end_line": "35", 
        "line": "35", 
        "source_name": "7"
      }
    }, 
    {
      "type_key": "SourceName", 
      "repr_str": "from_string"
    }, 
    {
      "type_key": "relay.TensorType", 
      "attrs": {
        "dtype": "int32", 
        "shape": "9", 
        "span": "0"
      }
    }, 
    {
      "type_key": "Array", 
      "data": [10]
    }, 
    {
      "type_key": "IntImm", 
      "attrs": {
        "dtype": "int32", 
        "span": "0", 
        "value": "3"
      }
    }, 
    {
      "type_key": "relay.Constant", 
      "attrs": {
        "_checked_type_": "13", 
        "data": "1", 
        "span": "12", 
        "virtual_device_": "4"
      }
    }, 
    {
      "type_key": "Span", 
      "attrs": {
        "column": "93", 
        "end_column": "111", 
        "end_line": "39", 
        "line": "39", 
        "source_name": "7"
      }
    }, 
    {
      "type_key": "relay.TensorType", 
      "attrs": {
        "dtype": "int32", 
        "shape": "14", 
        "span": "0"
      }
    }, 
    {
      "type_key": "Array", 
      "data": [15]
    }, 
    {
      "type_key": "IntImm", 
      "attrs": {
        "dtype": "int32", 
        "span": "0", 
        "value": "4"
      }
    }
  ], 
  "b64ndarrays": [
    "P6G0lvBAXt0AAAAAAAAAAAEAAAAAAAAAAQAAAAAgAQADAAAAAAAAAAwAAAAAAAAAgAAAADgAAAA4AAAA", 
    "P6G0lvBAXt0AAAAAAAAAAAEAAAAAAAAAAQAAAAAgAQAEAAAAAAAAABAAAAAAAAAAAAAAAAAAAAAAAAAAAAAAAA=="
  ], 
  "attrs": {"tvm_version": "0.13.0"}
}