#[version = "0.0.5"]
def @main(%x0: Tensor[(10, 20), float32] /* ty=Tensor[(10, 20), float32] span=from_string:13:14 */, %x1: Tensor[(19, 20), float32] /* ty=Tensor[(19, 20), float32] span=from_string:21:14 */, %x2: Tensor[(10, 20), float32] /* ty=Tensor[(10, 20), float32] span=from_string:26:14 */, %x3: Tensor[(10), float32] /* ty=Tensor[(10), float32] span=from_string:23:14 */, %x4: Tensor[(10), float32] /* ty=Tensor[(10), float32] span=from_string:27:14 */, %x5: Tensor[(92, 20), float32] /* ty=Tensor[(92, 20), float32] span=from_string:36:14 */, %x6: Tensor[(59, 20), float32] /* ty=Tensor[(59, 20), float32] span=from_string:38:14 */, %x7: Tensor[(21, 10), float32] /* ty=Tensor[(21, 10), float32] span=from_string:42:14 */, %x8: Tensor[(21), float32] /* ty=Tensor[(21), float32] span=from_string:43:14 */, %x9: Tensor[(1), float32] /* ty=Tensor[(1), float32] span=from_string:47:14 */, %x10: Tensor[(42, 10), float32] /* ty=Tensor[(42, 10), float32] span=from_string:49:14 */, %x11: Tensor[(42), float32] /* ty=Tensor[(42), float32] span=from_string:50:14 */, %x12: Tensor[(1), float32] /* ty=Tensor[(1), float32] span=from_string:54:14 */, %x13: Tensor[(10, 59, 1), float32] /* ty=Tensor[(10, 59, 1), float32] */) -> (Tensor[(10, 20), float32], (Tensor[(19, 10), float16], Tensor[(19, 10), float16]), (Tensor[(10, 92, 1), float16], Tensor[(10, 59, 1), float16]), (Tensor[(1, 1, 399), float16], Tensor[(1, 1, 798), float16]), Tensor[(1), float16], int32) {
  %0 = cast(%x0, dtype="float16") /* ty=Tensor[(10, 20), float16] span=from_string:5:12 */;
  %1 = cast(1f /* ty=float32 span=from_string:4:15 */, dtype="float16") /* ty=float16 span=from_string:5:16 */;
  %2 = add(%0, %1) /* ty=Tensor[(10, 20), float16] span=from_string:6:13 */;
  %3 = cast(%2, dtype="float32") /* ty=Tensor[(10, 20), float32] span=from_string:7:12 */;
  %4 = exp(%3) /* ty=Tensor[(10, 20), float32] span=from_string:8:16 */;
  %5 = squeeze(%4) /* ty=Tensor[(10, 20), float32] span=from_string:9:12 */;
  %6 = add(%5, 1f /* ty=float32 span=from_string:9:18 */) /* ty=Tensor[(10, 20), float32] span=from_string:10:12 */;
  %7 = exp(%6) /* ty=Tensor[(10, 20), float32] span=from_string:11:16 */;
  %8 = squeeze(%7) /* ty=Tensor[(10, 20), float32] span=from_string:58:19 */;
  %9 = ones(shape=[1], dtype="float16") /* ty=Tensor[(1), float16] span=from_string:18:14 */;
  %10 = cast(%9, dtype="float32") /* ty=Tensor[(1), float32] span=from_string:20:19 */;
  %11 = multiply(%10, %5) /* ty=Tensor[(10, 20), float32] span=from_string:22:14 */;
  %12 = cast(%x1, dtype="float16") /* ty=Tensor[(19, 20), float16] span=from_string:28:18 */;
  %13 = cast(%11, dtype="float16") /* ty=Tensor[(10, 20), float16] span=from_string:24:23 */;
  %14 = cast(%x3, dtype="float16") /* ty=Tensor[(10), float16] span=from_string:25:21 */;
  %15 = nn.dense(%12, %13, units=None, out_dtype="float16") /* ty=Tensor[(19, 10), float16] span=from_string:30:13 */;
  %16 = expand_dims(%14, axis=0) /* ty=Tensor[(1, 10), float16] span=from_string:30:18 */;
  %17 = cast(%x2, dtype="float16") /* ty=Tensor[(10, 20), float16] span=from_string:28:23 */;
  %18 = cast(%x4, dtype="float16") /* ty=Tensor[(10), float16] span=from_string:29:21 */;
  %19 = nn.dense(%12, %17, units=None, out_dtype="float16") /* ty=Tensor[(19, 10), float16] span=from_string:31:13 */;
  %20 = expand_dims(%18, axis=0) /* ty=Tensor[(1, 10), float16] span=from_string:31:18 */;
  %21 = add(%15, %16) /* ty=Tensor[(19, 10), float16] span=from_string:59:10 */;
  %22 = add(%19, %20) /* ty=Tensor[(19, 10), float16] span=from_string:59:15 */;
  %23 = add(%4, 1f /* ty=float32 span=from_string:32:20 */) /* ty=Tensor[(10, 20), float32] span=from_string:33:13 */;
  %24 = exp(%23) /* ty=Tensor[(10, 20), float32] span=from_string:34:17 */;
  %25 = squeeze(%24) /* ty=Tensor[(10, 20), float32] span=from_string:35:14 */;
  %26 = cast(%25, dtype="float16") /* ty=Tensor[(10, 20), float16] span=from_string:39:18 */;
  %27 = cast(%x5, dtype="float16") /* ty=Tensor[(92, 20), float16] span=from_string:37:23 */;
  %28 = nn.dense(%26, %27, units=None, out_dtype="float16") /* ty=Tensor[(10, 92), float16] span=from_string:40:21 */;
  %29 = cast(%x6, dtype="float16") /* ty=Tensor[(59, 20), float16] span=from_string:39:23 */;
  %30 = nn.dense(%26, %29, units=None, out_dtype="float16") /* ty=Tensor[(10, 59), float16] span=from_string:41:21 */;
  %31 = expand_dims(%28, axis=2) /* ty=Tensor[(10, 92, 1), float16] span=from_string:60:10 */;
  %32 = expand_dims(%30, axis=2) /* ty=Tensor[(10, 59, 1), float16] span=from_string:60:15 */;
  %33 = cast(%x7, dtype="float16") /* ty=Tensor[(21, 10), float16] span=from_string:44:23 */;
  %34 = cast(%x8, dtype="float16") /* ty=Tensor[(21), float16] span=from_string:45:21 */;
  %35 = nn.dense(%21, %33, units=None, out_dtype="float16") /* ty=Tensor[(19, 21), float16] span=from_string:46:13 */;
  %36 = expand_dims(%34, axis=0) /* ty=Tensor[(1, 21), float16] span=from_string:46:18 */;
  %37 = add(%35, %36) /* ty=Tensor[(19, 21), float16] span=from_string:48:19 */;
  %38 = cast(%x9, dtype="float16") /* ty=Tensor[(1), float16] span=from_string:48:24 */;
  %39 = multiply(%37, %38) /* ty=Tensor[(19, 21), float16] span=from_string:56:17 */;
  %40 = cast(%x10, dtype="float16") /* ty=Tensor[(42, 10), float16] span=from_string:51:23 */;
  %41 = cast(%x11, dtype="float16") /* ty=Tensor[(42), float16] span=from_string:52:21 */;
  %42 = nn.dense(%21, %40, units=None, out_dtype="float16") /* ty=Tensor[(19, 42), float16] span=from_string:53:13 */;
  %43 = expand_dims(%41, axis=0) /* ty=Tensor[(1, 42), float16] span=from_string:53:18 */;
  %44 = add(%42, %43) /* ty=Tensor[(19, 42), float16] span=from_string:55:19 */;
  %45 = cast(%x12, dtype="float16") /* ty=Tensor[(1), float16] span=from_string:62:24 */;
  %46 = multiply(%44, %45) /* ty=Tensor[(19, 42), float16] span=from_string:57:17 */;
  %47 = reshape(%39, newshape=[1, 1, 399]) /* ty=Tensor[(1, 1, 399), float16] span=from_string:61:10 */;
  %48 = reshape(%46, newshape=[1, 1, 798]) /* ty=Tensor[(1, 1, 798), float16] span=from_string:61:15 */;
  %49 = multiply(%8, 2f /* ty=float32 span=from_string:58:25 */) /* ty=Tensor[(10, 20), float32] span=from_string:62:4 */;
  %50 = (%21, %22) /* ty=(Tensor[(19, 10), float16], Tensor[(19, 10), float16]) span=from_string:62:9 */;
  %51 = (%31, %32) /* ty=(Tensor[(10, 92, 1), float16], Tensor[(10, 59, 1), float16]) span=from_string:62:14 */;
  %52 = (%47, %48) /* ty=(Tensor[(1, 1, 399), float16], Tensor[(1, 1, 798), float16]) span=from_string:62:19 */;
  (%49, %50, %51, %52, %45, 590 /* ty=int32 span=from_string:62:32 */) /* ty=(Tensor[(10, 20), float32], (Tensor[(19, 10), float16], Tensor[(19, 10), float16]), (Tensor[(10, 92, 1), float16], Tensor[(10, 59, 1), float16]), (Tensor[(1, 1, 399), float16], Tensor[(1, 1, 798), float16]), Tensor[(1), float16], int32) span=from_string:3:3 */
}
