#[version = "0.0.5"]
def @main(%x0: Tensor[(10, 20), float32] /* ty=Tensor[(10, 20), float32] span=from_string:4:18 */, %x1: Tensor[(19, 20), float32] /* ty=Tensor[(19, 20), float32] span=from_string:16:24 */, %x2: Tensor[(10, 20), float32] /* ty=Tensor[(10, 20), float32] span=from_string:16:29 */, %x3: Tensor[(10), float32] /* ty=Tensor[(10), float32] span=from_string:15:26 */, %x4: Tensor[(10), float32] /* ty=Tensor[(10), float32] span=from_string:17:26 */, %x5: Tensor[(92, 20), float32] /* ty=Tensor[(92, 20), float32] span=from_string:23:31 */, %x6: Tensor[(59, 20), float32] /* ty=Tensor[(59, 20), float32] span=from_string:25:31 */, %x7: Tensor[(21, 10), float32] /* ty=Tensor[(21, 10), float32] span=from_string:28:31 */, %x8: Tensor[(21), float32] /* ty=Tensor[(21), float32] span=from_string:29:26 */, %x9: Tensor[(1), float32] /* ty=Tensor[(1), float32] span=from_string:30:32 */, %x10: Tensor[(42, 10), float32] /* ty=Tensor[(42, 10), float32] span=from_string:32:31 */, %x11: Tensor[(42), float32] /* ty=Tensor[(42), float32] span=from_string:33:26 */, %x12: Tensor[(1), float32] /* ty=Tensor[(1), float32] span=from_string:38:32 */, %x13: Tensor[(10, 59, 1), float32] /* ty=Tensor[(10, 59, 1), float32] */) -> (Tensor[(10, 20), float32], (Tensor[(19, 10), float32], Tensor[(19, 10), float32]), (Tensor[(10, 92, 1), float32], Tensor[(10, 59, 1), float32]), (Tensor[(1, 1, 399), float32], Tensor[(1, 1, 798), float32]), Tensor[(1), float32], int32) {
  %0 = add(%x0, 1f /* ty=float32 span=from_string:3:16 */) /* ty=Tensor[(10, 20), float32] span=from_string:4:14 */;
  %1 = exp(%0) /* ty=Tensor[(10, 20), float32] span=from_string:5:14 */;
  %2 = squeeze(%1) /* ty=Tensor[(10, 20), float32] span=from_string:6:14 */;
  %3 = add(%2, 1f /* ty=float32 span=from_string:7:16 */) /* ty=Tensor[(10, 20), float32] span=from_string:8:14 */;
  %4 = exp(%3) /* ty=Tensor[(10, 20), float32] span=from_string:9:14 */;
  %5 = squeeze(%4) /* ty=Tensor[(10, 20), float32] span=from_string:10:14 */;
  %6 = ones(shape=[1], dtype="float32") /* ty=Tensor[(1), float32] span=from_string:12:14 */;
  %7 = multiply(%6, %2) /* ty=Tensor[(10, 20), float32] span=from_string:13:16 */;
  %8 = nn.dense(%x1, %7, units=None) /* ty=Tensor[(19, 10), float32] span=from_string:14:15 */;
  %9 = nn.dense(%x1, %x2, units=None) /* ty=Tensor[(19, 10), float32] span=from_string:16:15 */;
  %10 = add(%8, %x3) /* ty=Tensor[(19, 10), float32] span=from_string:15:15 */;
  %11 = add(%9, %x4) /* ty=Tensor[(19, 10), float32] span=from_string:17:15 */;
  %12 = add(%1, 1f /* ty=float32 span=from_string:19:17 */) /* ty=Tensor[(10, 20), float32] span=from_string:20:15 */;
  %13 = exp(%12) /* ty=Tensor[(10, 20), float32] span=from_string:21:15 */;
  %14 = squeeze(%13) /* ty=Tensor[(10, 20), float32] span=from_string:22:15 */;
  %15 = nn.dense(%14, %x5, units=None) /* ty=Tensor[(10, 92), float32] span=from_string:23:15 */;
  %16 = nn.dense(%14, %x6, units=None) /* ty=Tensor[(10, 59), float32] span=from_string:25:15 */;
  %17 = expand_dims(%15, axis=2) /* ty=Tensor[(10, 92, 1), float32] span=from_string:24:15 */;
  %18 = expand_dims(%16, axis=2) /* ty=Tensor[(10, 59, 1), float32] span=from_string:26:15 */;
  %19 = nn.dense(%10, %x7, units=None) /* ty=Tensor[(19, 21), float32] span=from_string:28:15 */;
  %20 = add(%19, %x8) /* ty=Tensor[(19, 21), float32] span=from_string:29:15 */;
  %21 = multiply(%20, %x9) /* ty=Tensor[(19, 21), float32] span=from_string:30:16 */;
  %22 = nn.dense(%10, %x10, units=None) /* ty=Tensor[(19, 42), float32] span=from_string:32:15 */;
  %23 = add(%22, %x11) /* ty=Tensor[(19, 42), float32] span=from_string:33:15 */;
  %24 = multiply(%23, %x12) /* ty=Tensor[(19, 42), float32] span=from_string:34:16 */;
  %25 = reshape(%21, newshape=[1, 1, 399]) /* ty=Tensor[(1, 1, 399), float32] span=from_string:31:15 */;
  %26 = reshape(%24, newshape=[1, 1, 798]) /* ty=Tensor[(1, 1, 798), float32] span=from_string:35:15 */;
  %27 = ones(shape=[1], dtype="float32") /* ty=Tensor[(1), float32] span=from_string:37:15 */;
  %28 = add(%5, %5) /* ty=Tensor[(10, 20), float32] span=from_string:11:14 */;
  %29 = (%10, %11) /* ty=(Tensor[(19, 10), float32], Tensor[(19, 10), float32]) span=from_string:18:15 */;
  %30 = (%17, %18) /* ty=(Tensor[(10, 92, 1), float32], Tensor[(10, 59, 1), float32]) span=from_string:27:15 */;
  %31 = (%25, %26) /* ty=(Tensor[(1, 1, 399), float32], Tensor[(1, 1, 798), float32]) span=from_string:36:15 */;
  %32 = multiply(%27, %x12) /* ty=Tensor[(1), float32] span=from_string:38:16 */;
  (%28, %29, %30, %31, %32, 590 /* ty=int32 span=from_string:39:18 */) /* ty=(Tensor[(10, 20), float32], (Tensor[(19, 10), float32], Tensor[(19, 10), float32]), (Tensor[(10, 92, 1), float32], Tensor[(10, 59, 1), float32]), (Tensor[(1, 1, 399), float32], Tensor[(1, 1, 798), float32]), Tensor[(1), float32], int32) span=from_string:40:15 */
}
