#[version = "0.0.5"]
def @main(%x0: Tensor[(10, 20), float32] /* ty=Tensor[(10, 20), float32] span=from_string:7:101 */, %x1: Tensor[(19, 20), float32] /* ty=Tensor[(19, 20), float32] span=from_string:56:104 */, %x2: Tensor[(10, 20), float32] /* ty=Tensor[(10, 20), float32] span=from_string:56:109 */, %x3: Tensor[(10), float32] /* ty=Tensor[(10), float32] span=from_string:48:102 */, %x4: Tensor[(10), float32] /* ty=Tensor[(10), float32] span=from_string:60:102 */, %x5: Tensor[(92, 20), float32] /* ty=Tensor[(92, 20), float32] span=from_string:82:111 */, %x6: Tensor[(59, 20), float32] /* ty=Tensor[(59, 20), float32] span=from_string:90:111 */, %x7: Tensor[(21, 10), float32] /* ty=Tensor[(21, 10), float32] span=from_string:99:111 */, %x8: Tensor[(21), float32] /* ty=Tensor[(21), float32] span=from_string:103:102 */, %x9: Tensor[(1), float32] /* ty=Tensor[(1), float32] span=from_string:111:111 */, %x10: Tensor[(42, 10), float32] /* ty=Tensor[(42, 10), float32] span=from_string:119:111 */, %x11: Tensor[(42), float32] /* ty=Tensor[(42), float32] span=from_string:123:102 */, %x12: Tensor[(1), float32] /* ty=Tensor[(1), float32] span=from_string:144:101 */, %x13: Tensor[(10, 59, 1), float32] /* ty=Tensor[(10, 59, 1), float32] */) -> (Tensor[(10, 20), float32], (Tensor[(19, 10), float32], Tensor[(19, 10), float32]), (Tensor[(10, 92, 1), float32], Tensor[(10, 59, 1), float32]), (Tensor[(1, 1, 399), float32], Tensor[(1, 1, 798), float32]), Tensor[(1), float32], int32) {
  let %x_0: float32 /* ty=float32 span=from_string:7:106 */ = 1f /* ty=float32 span=from_string:3:64 */;
  %0 = fn (%p0: Tensor[(10, 20), float32] /* ty=Tensor[(10, 20), float32] span=from_string:5:9 */, %p1: float32 /* ty=float32 span=from_string:5:14 */, Primitive=1) -> Tensor[(10, 20), float32] {
    add(%p0, %p1) /* ty=Tensor[(10, 20), float32] span=from_string:5:5 */
  } /* ty=fn (Tensor[(10, 20), float32], float32) -> Tensor[(10, 20), float32] span=from_string:7:98 */;
  let %x_1: Tensor[(10, 20), float32] /* ty=Tensor[(10, 20), float32] span=from_string:11:102 */ = %0(%x0, %x_0) /* ty=Tensor[(10, 20), float32] span=from_string:7:98 */;
  %1 = fn (%p01: Tensor[(10, 20), float32] /* ty=Tensor[(10, 20), float32] span=from_string:9:14 */, Primitive=1) -> Tensor[(10, 20), float32] {
    fast_exp(%p01) /* ty=Tensor[(10, 20), float32] span=from_string:9:5 */
  } /* ty=fn (Tensor[(10, 20), float32]) -> Tensor[(10, 20), float32] span=from_string:11:99 */;
  let %x_2: Tensor[(10, 20), float32] /* ty=Tensor[(10, 20), float32] span=from_string:70:104 */ = %1(%x_1) /* ty=Tensor[(10, 20), float32] span=from_string:11:99 */;
  %2 = fn (%p02: Tensor[(10, 20), float32] /* ty=Tensor[(10, 20), float32] span=from_string:13:13 */, Primitive=1, relay.reshape_only=1) -> Tensor[(10, 20), float32] {
    squeeze(%p02) /* ty=Tensor[(10, 20), float32] span=from_string:13:5 */
  } /* ty=fn (Tensor[(10, 20), float32]) -> Tensor[(10, 20), float32] span=from_string:15:99 */;
  let %x_3: Tensor[(10, 20), float32] /* ty=Tensor[(10, 20), float32] span=from_string:40:109 */ = %2(%x_2) /* ty=Tensor[(10, 20), float32] span=from_string:15:99 */;
  let %x_4: float32 /* ty=float32 span=from_string:20:107 */ = 1f /* ty=float32 span=from_string:16:64 */;
  %3 = fn (%p03: Tensor[(10, 20), float32] /* ty=Tensor[(10, 20), float32] span=from_string:18:9 */, %p11: float32 /* ty=float32 span=from_string:18:15 */, Primitive=1) -> Tensor[(10, 20), float32] {
    add(%p03, %p11) /* ty=Tensor[(10, 20), float32] span=from_string:18:5 */
  } /* ty=fn (Tensor[(10, 20), float32], float32) -> Tensor[(10, 20), float32] span=from_string:20:98 */;
  let %x_5: Tensor[(10, 20), float32] /* ty=Tensor[(10, 20), float32] span=from_string:24:102 */ = %3(%x_3, %x_4) /* ty=Tensor[(10, 20), float32] span=from_string:20:98 */;
  %4 = fn (%p04: Tensor[(10, 20), float32] /* ty=Tensor[(10, 20), float32] span=from_string:22:14 */, Primitive=1) -> Tensor[(10, 20), float32] {
    fast_exp(%p04) /* ty=Tensor[(10, 20), float32] span=from_string:22:5 */
  } /* ty=fn (Tensor[(10, 20), float32]) -> Tensor[(10, 20), float32] span=from_string:24:99 */;
  let %x_6: Tensor[(10, 20), float32] /* ty=Tensor[(10, 20), float32] span=from_string:28:102 */ = %4(%x_5) /* ty=Tensor[(10, 20), float32] span=from_string:24:99 */;
  %5 = fn (%p05: Tensor[(10, 20), float32] /* ty=Tensor[(10, 20), float32] span=from_string:26:13 */, Primitive=1, relay.reshape_only=1) -> Tensor[(10, 20), float32] {
    squeeze(%p05) /* ty=Tensor[(10, 20), float32] span=from_string:26:5 */
  } /* ty=fn (Tensor[(10, 20), float32]) -> Tensor[(10, 20), float32] span=from_string:28:99 */;
  let %x_7: Tensor[(10, 20), float32] /* ty=Tensor[(10, 20), float32] span=from_string:32:102 */ = %5(%x_6) /* ty=Tensor[(10, 20), float32] span=from_string:28:99 */;
  %6 = fn (%p06: Tensor[(10, 20), float32] /* ty=Tensor[(10, 20), float32] span=from_string:30:15 */, Primitive=1) -> Tensor[(10, 20), float32] {
    multiply(%p06, 2f /* ty=float32 */) /* ty=Tensor[(10, 20), float32] */
  } /* ty=fn (Tensor[(10, 20), float32]) -> Tensor[(10, 20), float32] span=from_string:32:99 */;
  let %x_8: Tensor[(10, 20), float32] /* ty=Tensor[(10, 20), float32] span=from_string:146:524 */ = %6(%x_7) /* ty=Tensor[(10, 20), float32] span=from_string:32:99 */;
  %7 = fn (Primitive=1) -> Tensor[(1), float32] {
    ones(shape=[1], dtype="float32") /* ty=Tensor[(1), float32] span=from_string:34:5 */
  } /* ty=fn () -> Tensor[(1), float32] span=from_string:36:89 */;
  let %x_9: Tensor[(1), float32] /* ty=Tensor[(1), float32] span=from_string:40:103 */ = %7() /* ty=Tensor[(1), float32] span=from_string:36:89 */;
  %8 = fn (%p07: Tensor[(1), float32] /* ty=Tensor[(1), float32] span=from_string:38:15 */, %p12: Tensor[(10, 20), float32] /* ty=Tensor[(10, 20), float32] span=from_string:38:21 */, Primitive=1) -> Tensor[(10, 20), float32] {
    multiply(%p07, %p12) /* ty=Tensor[(10, 20), float32] span=from_string:38:6 */
  } /* ty=fn (Tensor[(1), float32], Tensor[(10, 20), float32]) -> Tensor[(10, 20), float32] span=from_string:40:100 */;
  let %x_10: Tensor[(10, 20), float32] /* ty=Tensor[(10, 20), float32] span=from_string:44:108 */ = %8(%x_9, %x_3) /* ty=Tensor[(10, 20), float32] span=from_string:40:100 */;
  %9 = fn (%p08: Tensor[(19, 20), float32] /* ty=Tensor[(19, 20), float32] span=from_string:42:14 */, %p13: Tensor[(10, 20), float32] /* ty=Tensor[(10, 20), float32] span=from_string:42:20 */, Primitive=1) -> Tensor[(19, 10), float32] {
    nn.dense(%p08, %p13, units=None) /* ty=Tensor[(19, 10), float32] span=from_string:42:5 */
  } /* ty=fn (Tensor[(19, 20), float32], Tensor[(10, 20), float32]) -> Tensor[(19, 10), float32] span=from_string:44:100 */;
  let %x_11: Tensor[(19, 10), float32] /* ty=Tensor[(19, 10), float32] span=from_string:52:104 */ = %9(%x1, %x_10) /* ty=Tensor[(19, 10), float32] span=from_string:44:100 */;
  %10 = fn (%p09: Tensor[(10), float32] /* ty=Tensor[(10), float32] span=from_string:46:17 */, Primitive=1, relay.reshape_only=1) -> Tensor[(1, 10), float32] {
    expand_dims(%p09, axis=0) /* ty=Tensor[(1, 10), float32] span=from_string:46:5 */
  } /* ty=fn (Tensor[(10), float32]) -> Tensor[(1, 10), float32] span=from_string:48:98 */;
  let %x_12: Tensor[(1, 10), float32] /* ty=Tensor[(1, 10), float32] span=from_string:52:111 */ = %10(%x3) /* ty=Tensor[(1, 10), float32] span=from_string:48:98 */;
  %11 = fn (%p010: Tensor[(19, 10), float32] /* ty=Tensor[(19, 10), float32] span=from_string:50:9 */, %p14: Tensor[(1, 10), float32] /* ty=Tensor[(1, 10), float32] span=from_string:50:16 */, Primitive=1) -> Tensor[(19, 10), float32] {
    add(%p010, %p14) /* ty=Tensor[(19, 10), float32] span=from_string:50:5 */
  } /* ty=fn (Tensor[(19, 10), float32], Tensor[(1, 10), float32]) -> Tensor[(19, 10), float32] span=from_string:52:100 */;
  let %x_13: Tensor[(19, 10), float32] /* ty=Tensor[(19, 10), float32] span=from_string:119:104 */ = %11(%x_11, %x_12) /* ty=Tensor[(19, 10), float32] span=from_string:52:100 */;
  %12 = fn (%p011: Tensor[(19, 20), float32] /* ty=Tensor[(19, 20), float32] span=from_string:54:14 */, %p15: Tensor[(10, 20), float32] /* ty=Tensor[(10, 20), float32] span=from_string:54:21 */, Primitive=1) -> Tensor[(19, 10), float32] {
    nn.dense(%p011, %p15, units=None) /* ty=Tensor[(19, 10), float32] span=from_string:54:5 */
  } /* ty=fn (Tensor[(19, 20), float32], Tensor[(10, 20), float32]) -> Tensor[(19, 10), float32] span=from_string:56:100 */;
  let %x_14: Tensor[(19, 10), float32] /* ty=Tensor[(19, 10), float32] span=from_string:64:104 */ = %12(%x1, %x2) /* ty=Tensor[(19, 10), float32] span=from_string:56:100 */;
  %13 = fn (%p012: Tensor[(10), float32] /* ty=Tensor[(10), float32] span=from_string:58:17 */, Primitive=1, relay.reshape_only=1) -> Tensor[(1, 10), float32] {
    expand_dims(%p012, axis=0) /* ty=Tensor[(1, 10), float32] span=from_string:58:5 */
  } /* ty=fn (Tensor[(10), float32]) -> Tensor[(1, 10), float32] span=from_string:60:98 */;
  let %x_15: Tensor[(1, 10), float32] /* ty=Tensor[(1, 10), float32] span=from_string:64:111 */ = %13(%x4) /* ty=Tensor[(1, 10), float32] span=from_string:60:98 */;
  %14 = fn (%p013: Tensor[(19, 10), float32] /* ty=Tensor[(19, 10), float32] span=from_string:62:9 */, %p16: Tensor[(1, 10), float32] /* ty=Tensor[(1, 10), float32] span=from_string:62:16 */, Primitive=1) -> Tensor[(19, 10), float32] {
    add(%p013, %p16) /* ty=Tensor[(19, 10), float32] span=from_string:62:5 */
  } /* ty=fn (Tensor[(19, 10), float32], Tensor[(1, 10), float32]) -> Tensor[(19, 10), float32] span=from_string:64:100 */;
  let %x_16: Tensor[(19, 10), float32] /* ty=Tensor[(19, 10), float32] span=from_string:65:166 */ = %14(%x_14, %x_15) /* ty=Tensor[(19, 10), float32] span=from_string:64:100 */;
  let %x_17: (Tensor[(19, 10), float32], Tensor[(19, 10), float32]) /* ty=(Tensor[(19, 10), float32], Tensor[(19, 10), float32]) span=from_string:146:530 */ = (%x_13, %x_16) /* ty=(Tensor[(19, 10), float32], Tensor[(19, 10), float32]) span=from_string:65:158 */;
  let %x_18: float32 /* ty=float32 span=from_string:70:110 */ = 1f /* ty=float32 span=from_string:66:66 */;
  %15 = fn (%p014: Tensor[(10, 20), float32] /* ty=Tensor[(10, 20), float32] span=from_string:68:9 */, %p17: float32 /* ty=float32 span=from_string:68:16 */, Primitive=1) -> Tensor[(10, 20), float32] {
    add(%p014, %p17) /* ty=Tensor[(10, 20), float32] span=from_string:68:5 */
  } /* ty=fn (Tensor[(10, 20), float32], float32) -> Tensor[(10, 20), float32] span=from_string:70:100 */;
  let %x_19: Tensor[(10, 20), float32] /* ty=Tensor[(10, 20), float32] span=from_string:74:104 */ = %15(%x_2, %x_18) /* ty=Tensor[(10, 20), float32] span=from_string:70:100 */;
  %16 = fn (%p015: Tensor[(10, 20), float32] /* ty=Tensor[(10, 20), float32] span=from_string:72:14 */, Primitive=1) -> Tensor[(10, 20), float32] {
    fast_exp(%p015) /* ty=Tensor[(10, 20), float32] span=from_string:72:5 */
  } /* ty=fn (Tensor[(10, 20), float32]) -> Tensor[(10, 20), float32] span=from_string:74:100 */;
  let %x_20: Tensor[(10, 20), float32] /* ty=Tensor[(10, 20), float32] span=from_string:78:104 */ = %16(%x_19) /* ty=Tensor[(10, 20), float32] span=from_string:74:100 */;
  %17 = fn (%p016: Tensor[(10, 20), float32] /* ty=Tensor[(10, 20), float32] span=from_string:76:13 */, Primitive=1, relay.reshape_only=1) -> Tensor[(10, 20), float32] {
    squeeze(%p016) /* ty=Tensor[(10, 20), float32] span=from_string:76:5 */
  } /* ty=fn (Tensor[(10, 20), float32]) -> Tensor[(10, 20), float32] span=from_string:78:100 */;
  let %x_21: Tensor[(10, 20), float32] /* ty=Tensor[(10, 20), float32] span=from_string:90:104 */ = %17(%x_20) /* ty=Tensor[(10, 20), float32] span=from_string:78:100 */;
  %18 = fn (%p017: Tensor[(10, 20), float32] /* ty=Tensor[(10, 20), float32] span=from_string:80:14 */, %p18: Tensor[(92, 20), float32] /* ty=Tensor[(92, 20), float32] span=from_string:80:21 */, Primitive=1) -> Tensor[(10, 92), float32] {
    nn.dense(%p017, %p18, units=None) /* ty=Tensor[(10, 92), float32] span=from_string:80:5 */
  } /* ty=fn (Tensor[(10, 20), float32], Tensor[(92, 20), float32]) -> Tensor[(10, 92), float32] span=from_string:82:100 */;
  let %x_22: Tensor[(10, 92), float32] /* ty=Tensor[(10, 92), float32] span=from_string:86:110 */ = %18(%x_21, %x5) /* ty=Tensor[(10, 92), float32] span=from_string:82:100 */;
  %19 = fn (%p018: Tensor[(10, 92), float32] /* ty=Tensor[(10, 92), float32] span=from_string:84:17 */, Primitive=1, relay.reshape_only=1) -> Tensor[(10, 92, 1), float32] {
    expand_dims(%p018, axis=2) /* ty=Tensor[(10, 92, 1), float32] span=from_string:84:5 */
  } /* ty=fn (Tensor[(10, 92), float32]) -> Tensor[(10, 92, 1), float32] span=from_string:86:106 */;
  let %x_23: Tensor[(10, 92, 1), float32] /* ty=Tensor[(10, 92, 1), float32] span=from_string:95:171 */ = %19(%x_22) /* ty=Tensor[(10, 92, 1), float32] span=from_string:86:106 */;
  %20 = fn (%p019: Tensor[(10, 20), float32] /* ty=Tensor[(10, 20), float32] span=from_string:88:14 */, %p19: Tensor[(59, 20), float32] /* ty=Tensor[(59, 20), float32] span=from_string:88:21 */, Primitive=1) -> Tensor[(10, 59), float32] {
    nn.dense(%p019, %p19, units=None) /* ty=Tensor[(10, 59), float32] span=from_string:88:5 */
  } /* ty=fn (Tensor[(10, 20), float32], Tensor[(59, 20), float32]) -> Tensor[(10, 59), float32] span=from_string:90:100 */;
  let %x_24: Tensor[(10, 59), float32] /* ty=Tensor[(10, 59), float32] span=from_string:94:110 */ = %20(%x_21, %x6) /* ty=Tensor[(10, 59), float32] span=from_string:90:100 */;
  %21 = fn (%p020: Tensor[(10, 59), float32] /* ty=Tensor[(10, 59), float32] span=from_string:92:17 */, Primitive=1, relay.reshape_only=1) -> Tensor[(10, 59, 1), float32] {
    expand_dims(%p020, axis=2) /* ty=Tensor[(10, 59, 1), float32] span=from_string:92:5 */
  } /* ty=fn (Tensor[(10, 59), float32]) -> Tensor[(10, 59, 1), float32] span=from_string:94:106 */;
  let %x_25: Tensor[(10, 59, 1), float32] /* ty=Tensor[(10, 59, 1), float32] span=from_string:95:178 */ = %21(%x_24) /* ty=Tensor[(10, 59, 1), float32] span=from_string:94:106 */;
  let %x_26: (Tensor[(10, 92, 1), float32], Tensor[(10, 59, 1), float32]) /* ty=(Tensor[(10, 92, 1), float32], Tensor[(10, 59, 1), float32]) span=from_string:146:537 */ = (%x_23, %x_25) /* ty=(Tensor[(10, 92, 1), float32], Tensor[(10, 59, 1), float32]) span=from_string:95:170 */;
  %22 = fn (%p021: Tensor[(19, 10), float32] /* ty=Tensor[(19, 10), float32] span=from_string:97:14 */, %p110: Tensor[(21, 10), float32] /* ty=Tensor[(21, 10), float32] span=from_string:97:21 */, Primitive=1) -> Tensor[(19, 21), float32] {
    nn.dense(%p021, %p110, units=None) /* ty=Tensor[(19, 21), float32] span=from_string:97:5 */
  } /* ty=fn (Tensor[(19, 10), float32], Tensor[(21, 10), float32]) -> Tensor[(19, 21), float32] span=from_string:99:100 */;
  let %x_27: Tensor[(19, 21), float32] /* ty=Tensor[(19, 21), float32] span=from_string:107:104 */ = %22(%x_13, %x7) /* ty=Tensor[(19, 21), float32] span=from_string:99:100 */;
  %23 = fn (%p022: Tensor[(21), float32] /* ty=Tensor[(21), float32] span=from_string:101:17 */, Primitive=1, relay.reshape_only=1) -> Tensor[(1, 21), float32] {
    expand_dims(%p022, axis=0) /* ty=Tensor[(1, 21), float32] span=from_string:101:5 */
  } /* ty=fn (Tensor[(21), float32]) -> Tensor[(1, 21), float32] span=from_string:103:98 */;
  let %x_28: Tensor[(1, 21), float32] /* ty=Tensor[(1, 21), float32] span=from_string:107:111 */ = %23(%x8) /* ty=Tensor[(1, 21), float32] span=from_string:103:98 */;
  %24 = fn (%p023: Tensor[(19, 21), float32] /* ty=Tensor[(19, 21), float32] span=from_string:105:9 */, %p111: Tensor[(1, 21), float32] /* ty=Tensor[(1, 21), float32] span=from_string:105:16 */, Primitive=1) -> Tensor[(19, 21), float32] {
    add(%p023, %p111) /* ty=Tensor[(19, 21), float32] span=from_string:105:5 */
  } /* ty=fn (Tensor[(19, 21), float32], Tensor[(1, 21), float32]) -> Tensor[(19, 21), float32] span=from_string:107:100 */;
  let %x_29: Tensor[(19, 21), float32] /* ty=Tensor[(19, 21), float32] span=from_string:111:104 */ = %24(%x_27, %x_28) /* ty=Tensor[(19, 21), float32] span=from_string:107:100 */;
  %25 = fn (%p024: Tensor[(19, 21), float32] /* ty=Tensor[(19, 21), float32] span=from_string:109:15 */, %p112: Tensor[(1), float32] /* ty=Tensor[(1), float32] span=from_string:109:22 */, Primitive=1) -> Tensor[(19, 21), float32] {
    multiply(%p024, %p112) /* ty=Tensor[(19, 21), float32] span=from_string:109:6 */
  } /* ty=fn (Tensor[(19, 21), float32], Tensor[(1), float32]) -> Tensor[(19, 21), float32] span=from_string:111:100 */;
  let %x_30: Tensor[(19, 21), float32] /* ty=Tensor[(19, 21), float32] span=from_string:115:110 */ = %25(%x_29, %x9) /* ty=Tensor[(19, 21), float32] span=from_string:111:100 */;
  %26 = fn (%p025: Tensor[(19, 21), float32] /* ty=Tensor[(19, 21), float32] span=from_string:113:13 */, Primitive=1, relay.reshape_only=1) -> Tensor[(1, 1, 399), float32] {
    reshape(%p025, newshape=[1, 1, 399]) /* ty=Tensor[(1, 1, 399), float32] span=from_string:113:5 */
  } /* ty=fn (Tensor[(19, 21), float32]) -> Tensor[(1, 1, 399), float32] span=from_string:115:106 */;
  let %x_31: Tensor[(1, 1, 399), float32] /* ty=Tensor[(1, 1, 399), float32] span=from_string:136:171 */ = %26(%x_30) /* ty=Tensor[(1, 1, 399), float32] span=from_string:115:106 */;
  %27 = fn (%p026: Tensor[(19, 10), float32] /* ty=Tensor[(19, 10), float32] span=from_string:117:14 */, %p113: Tensor[(42, 10), float32] /* ty=Tensor[(42, 10), float32] span=from_string:117:21 */, Primitive=1) -> Tensor[(19, 42), float32] {
    nn.dense(%p026, %p113, units=None) /* ty=Tensor[(19, 42), float32] span=from_string:117:5 */
  } /* ty=fn (Tensor[(19, 10), float32], Tensor[(42, 10), float32]) -> Tensor[(19, 42), float32] span=from_string:119:100 */;
  let %x_32: Tensor[(19, 42), float32] /* ty=Tensor[(19, 42), float32] span=from_string:127:104 */ = %27(%x_13, %x10) /* ty=Tensor[(19, 42), float32] span=from_string:119:100 */;
  %28 = fn (%p027: Tensor[(42), float32] /* ty=Tensor[(42), float32] span=from_string:121:17 */, Primitive=1, relay.reshape_only=1) -> Tensor[(1, 42), float32] {
    expand_dims(%p027, axis=0) /* ty=Tensor[(1, 42), float32] span=from_string:121:5 */
  } /* ty=fn (Tensor[(42), float32]) -> Tensor[(1, 42), float32] span=from_string:123:98 */;
  let %x_33: Tensor[(1, 42), float32] /* ty=Tensor[(1, 42), float32] span=from_string:127:111 */ = %28(%x11) /* ty=Tensor[(1, 42), float32] span=from_string:123:98 */;
  %29 = fn (%p028: Tensor[(19, 42), float32] /* ty=Tensor[(19, 42), float32] span=from_string:125:9 */, %p114: Tensor[(1, 42), float32] /* ty=Tensor[(1, 42), float32] span=from_string:125:16 */, Primitive=1) -> Tensor[(19, 42), float32] {
    add(%p028, %p114) /* ty=Tensor[(19, 42), float32] span=from_string:125:5 */
  } /* ty=fn (Tensor[(19, 42), float32], Tensor[(1, 42), float32]) -> Tensor[(19, 42), float32] span=from_string:127:100 */;
  let %x_34: Tensor[(19, 42), float32] /* ty=Tensor[(19, 42), float32] span=from_string:131:104 */ = %29(%x_32, %x_33) /* ty=Tensor[(19, 42), float32] span=from_string:127:100 */;
  %30 = fn (%p029: Tensor[(19, 42), float32] /* ty=Tensor[(19, 42), float32] span=from_string:129:15 */, %p115: Tensor[(1), float32] /* ty=Tensor[(1), float32] span=from_string:129:22 */, Primitive=1) -> Tensor[(19, 42), float32] {
    multiply(%p029, %p115) /* ty=Tensor[(19, 42), float32] span=from_string:129:6 */
  } /* ty=fn (Tensor[(19, 42), float32], Tensor[(1), float32]) -> Tensor[(19, 42), float32] span=from_string:131:100 */;
  let %x_35: Tensor[(19, 42), float32] /* ty=Tensor[(19, 42), float32] span=from_string:135:110 */ = %30(%x_34, %x12) /* ty=Tensor[(19, 42), float32] span=from_string:131:100 */;
  %31 = fn (%p030: Tensor[(19, 42), float32] /* ty=Tensor[(19, 42), float32] span=from_string:133:13 */, Primitive=1, relay.reshape_only=1) -> Tensor[(1, 1, 798), float32] {
    reshape(%p030, newshape=[1, 1, 798]) /* ty=Tensor[(1, 1, 798), float32] span=from_string:133:5 */
  } /* ty=fn (Tensor[(19, 42), float32]) -> Tensor[(1, 1, 798), float32] span=from_string:135:106 */;
  let %x_36: Tensor[(1, 1, 798), float32] /* ty=Tensor[(1, 1, 798), float32] span=from_string:136:178 */ = %31(%x_35) /* ty=Tensor[(1, 1, 798), float32] span=from_string:135:106 */;
  let %x_37: (Tensor[(1, 1, 399), float32], Tensor[(1, 1, 798), float32]) /* ty=(Tensor[(1, 1, 399), float32], Tensor[(1, 1, 798), float32]) span=from_string:146:544 */ = (%x_31, %x_36) /* ty=(Tensor[(1, 1, 399), float32], Tensor[(1, 1, 798), float32]) span=from_string:136:170 */;
  %32 = fn (Primitive=1) -> Tensor[(1), float32] {
    ones(shape=[1], dtype="float32") /* ty=Tensor[(1), float32] span=from_string:138:5 */
  } /* ty=fn () -> Tensor[(1), float32] span=from_string:140:90 */;
  let %x_38: Tensor[(1), float32] /* ty=Tensor[(1), float32] span=from_string:144:94 */ = %32() /* ty=Tensor[(1), float32] span=from_string:140:90 */;
  %33 = fn (%p031: Tensor[(1), float32] /* ty=Tensor[(1), float32] span=from_string:142:15 */, %p116: Tensor[(1), float32] /* ty=Tensor[(1), float32] span=from_string:142:22 */, Primitive=1) -> Tensor[(1), float32] {
    multiply(%p031, %p116) /* ty=Tensor[(1), float32] span=from_string:142:6 */
  } /* ty=fn (Tensor[(1), float32], Tensor[(1), float32]) -> Tensor[(1), float32] span=from_string:144:90 */;
  let %x_39: Tensor[(1), float32] /* ty=Tensor[(1), float32] span=from_string:146:551 */ = %33(%x_38, %x12) /* ty=Tensor[(1), float32] span=from_string:144:90 */;
  let %x_40: int32 /* ty=int32 span=from_string:146:558 */ = 590 /* ty=int32 span=from_string:145:65 */;
  let %x_41: (Tensor[(10, 20), float32], (Tensor[(19, 10), float32], Tensor[(19, 10), float32]), (Tensor[(10, 92, 1), float32], Tensor[(10, 59, 1), float32]), (Tensor[(1, 1, 399), float32], Tensor[(1, 1, 798), float32]), Tensor[(1), float32], int32) /* ty=(Tensor[(10, 20), float32], (Tensor[(19, 10), float32], Tensor[(19, 10), float32]), (Tensor[(10, 92, 1), float32], Tensor[(10, 59, 1), float32]), (Tensor[(1, 1, 399), float32], Tensor[(1, 1, 798), float32]), Tensor[(1), float32], int32) span=from_string:147:3 */ = (%x_8, %x_17, %x_26, %x_37, %x_39, %x_40) /* ty=(Tensor[(10, 20), float32], (Tensor[(19, 10), float32], Tensor[(19, 10), float32]), (Tensor[(10, 92, 1), float32], Tensor[(10, 59, 1), float32]), (Tensor[(1, 1, 399), float32], Tensor[(1, 1, 798), float32]), Tensor[(1), float32], int32) span=from_string:146:523 */;
  %x_41
}
