#[version = "0.0.5"]
def @main(%x0: Tensor[(10, 20), float32] /* ty=Tensor[(10, 20), float32] span=from_string:13:14 */, %x1: Tensor[(19, 20), float32] /* ty=Tensor[(19, 20), float32] span=from_string:21:14 */, %x2: Tensor[(10, 20), float32] /* ty=Tensor[(10, 20), float32] span=from_string:25:14 */, %x3: Tensor[(10), float32] /* ty=Tensor[(10), float32] span=from_string:24:14 */, %x4: Tensor[(10), float32] /* ty=Tensor[(10), float32] span=from_string:27:14 */, %x5: Tensor[(92, 20), float32] /* ty=Tensor[(92, 20), float32] span=from_string:34:14 */, %x6: Tensor[(59, 20), float32] /* ty=Tensor[(59, 20), float32] span=from_string:36:14 */, %x7: Tensor[(21, 10), float32] /* ty=Tensor[(21, 10), float32] span=from_string:40:14 */, %x8: Tensor[(21), float32] /* ty=Tensor[(21), float32] span=from_string:42:14 */, %x9: Tensor[(1), float32] /* ty=Tensor[(1), float32] span=from_string:44:14 */, %x10: Tensor[(42, 10), float32] /* ty=Tensor[(42, 10), float32] span=from_string:46:14 */, %x11: Tensor[(42), float32] /* ty=Tensor[(42), float32] span=from_string:48:14 */, %x12: Tensor[(1), float32] /* ty=Tensor[(1), float32] span=from_string:50:14 */, %x13: Tensor[(10, 59, 1), float32] /* ty=Tensor[(10, 59, 1), float32] */) -> (Tensor[(10, 20), float32], (Tensor[(19, 10), float16], Tensor[(19, 10), float16]), (Tensor[(10, 92, 1), float16], Tensor[(10, 59, 1), float16]), (Tensor[(1, 1, 399), float16], Tensor[(1, 1, 798), float16]), Tensor[(1), float16], int32) {
  let %x_0 = cast(%x0, dtype="float16");
  let %x_1 = 1f /* ty=float32 span=from_string:4:15 */;
  let %x_2 = cast(%x_1, dtype="float16");
  let %x_3 = add(%x_0, %x_2);
  let %x_4 = cast(%x_3, dtype="float32");
  let %x_5 = exp(%x_4);
  let %x_6 = squeeze(%x_5);
  let %x_7 = 1f /* ty=float32 span=from_string:9:18 */;
  let %x_8 = add(%x_6, %x_7);
  let %x_9 = exp(%x_8);
  let %x_10 = squeeze(%x_9);
  let %x_11 = 2f /* ty=float32 span=from_string:54:25 */;
  let %x_12 = multiply(%x_10, %x_11);
  let %x_13 = cast(%x1, dtype="float16");
  let %x_14 = ones(shape=[1], dtype="float16");
  let %x_15 = cast(%x_14, dtype="float32");
  let %x_16 = cast(%x0, dtype="float16");
  let %x_17 = 1f /* ty=float32 span=from_string:14:16 */;
  let %x_18 = cast(%x_17, dtype="float16");
  let %x_19 = add(%x_16, %x_18);
  let %x_20 = cast(%x_19, dtype="float32");
  let %x_21 = exp(%x_20);
  let %x_22 = squeeze(%x_21);
  let %x_23 = multiply(%x_15, %x_22);
  let %x_24 = cast(%x_23, dtype="float16");
  let %x_25 = nn.dense(%x_13, %x_24, units=None, out_dtype="float16");
  let %x_26 = cast(%x3, dtype="float16");
  let %x_27 = add(%x_25, %x_26);
  let %x_28 = cast(%x2, dtype="float16");
  let %x_29 = nn.dense(%x_13, %x_28, units=None, out_dtype="float16");
  let %x_30 = cast(%x4, dtype="float16");
  let %x_31 = add(%x_29, %x_30);
  let %x_32 = (%x_27, %x_31) /* ty=(Tensor[(19, 10), float16], Tensor[(19, 10), float16]) span=from_string:58:9 */;
  let %x_33 = 1f /* ty=float32 span=from_string:30:20 */;
  let %x_34 = add(%x_21, %x_33);
  let %x_35 = exp(%x_34);
  let %x_36 = squeeze(%x_35);
  let %x_37 = cast(%x_36, dtype="float16");
  let %x_38 = cast(%x5, dtype="float16");
  let %x_39 = nn.dense(%x_37, %x_38, units=None, out_dtype="float16");
  let %x_40 = expand_dims(%x_39, axis=2);
  let %x_41 = cast(%x6, dtype="float16");
  let %x_42 = nn.dense(%x_37, %x_41, units=None, out_dtype="float16");
  let %x_43 = expand_dims(%x_42, axis=2);
  let %x_44 = (%x_40, %x_43) /* ty=(Tensor[(10, 92, 1), float16], Tensor[(10, 59, 1), float16]) span=from_string:58:14 */;
  let %x_45 = cast(%x7, dtype="float16");
  let %x_46 = nn.dense(%x_27, %x_45, units=None, out_dtype="float16");
  let %x_47 = cast(%x8, dtype="float16");
  let %x_48 = add(%x_46, %x_47);
  let %x_49 = cast(%x9, dtype="float16");
  let %x_50 = multiply(%x_48, %x_49);
  let %x_51 = reshape(%x_50, newshape=[1, 1, 399]);
  let %x_52 = cast(%x10, dtype="float16");
  let %x_53 = nn.dense(%x_27, %x_52, units=None, out_dtype="float16");
  let %x_54 = cast(%x11, dtype="float16");
  let %x_55 = add(%x_53, %x_54);
  let %x_56 = cast(%x12, dtype="float16");
  let %x_57 = multiply(%x_55, %x_56);
  let %x_58 = reshape(%x_57, newshape=[1, 1, 798]);
  let %x_59 = (%x_51, %x_58) /* ty=(Tensor[(1, 1, 399), float16], Tensor[(1, 1, 798), float16]) span=from_string:58:19 */;
  let %x_60 = 590 /* ty=int32 span=from_string:58:32 */;
  let %x_61 = (%x_12, %x_32, %x_44, %x_59, %x_56, %x_60) /* ty=(Tensor[(10, 20), float32], (Tensor[(19, 10), float16], Tensor[(19, 10), float16]), (Tensor[(10, 92, 1), float16], Tensor[(10, 59, 1), float16]), (Tensor[(1, 1, 399), float16], Tensor[(1, 1, 798), float16]), Tensor[(1), float16], int32) span=from_string:3:3 */;
  %x_61
}
