#[version = "0.0.5"]
def @main(%x0: Tensor[(10, 20), float32] /* ty=Tensor[(10, 20), float32] span=from_string:4:103 */, %x1: Tensor[(19, 20), float32] /* ty=Tensor[(19, 20), float32] span=from_string:17:110 */, %x2: Tensor[(10, 20), float32] /* ty=Tensor[(10, 20), float32] span=from_string:17:115 */, %x3: Tensor[(10), float32] /* ty=Tensor[(10), float32] span=from_string:16:113 */, %x4: Tensor[(10), float32] /* ty=Tensor[(10), float32] span=from_string:18:112 */, %x5: Tensor[(92, 20), float32] /* ty=Tensor[(92, 20), float32] span=from_string:24:117 */, %x6: Tensor[(59, 20), float32] /* ty=Tensor[(59, 20), float32] span=from_string:26:117 */, %x7: Tensor[(21, 10), float32] /* ty=Tensor[(21, 10), float32] span=from_string:29:117 */, %x8: Tensor[(21), float32] /* ty=Tensor[(21), float32] span=from_string:30:112 */, %x9: Tensor[(1), float32] /* ty=Tensor[(1), float32] span=from_string:31:118 */, %x10: Tensor[(42, 10), float32] /* ty=Tensor[(42, 10), float32] span=from_string:33:117 */, %x11: Tensor[(42), float32] /* ty=Tensor[(42), float32] span=from_string:34:112 */, %x12: Tensor[(1), float32] /* ty=Tensor[(1), float32] span=from_string:39:108 */, %x13: Tensor[(10, 59, 1), float32] /* ty=Tensor[(10, 59, 1), float32] */) -> (Tensor[(10, 20), float32], (Tensor[(19, 10), float32], Tensor[(19, 10), float32]), (Tensor[(10, 92, 1), float32], Tensor[(10, 59, 1), float32]), (Tensor[(1, 1, 399), float32], Tensor[(1, 1, 798), float32]), Tensor[(1), float32], int32) {
  %0 = add(%x0, 1f /* ty=float32 span=from_string:3:16 */) /* ty=Tensor[(10, 20), float32] span=from_string:4:99 */;
  %1 = exp(%0) /* ty=Tensor[(10, 20), float32] span=from_string:5:100 */;
  %2 = squeeze(%1) /* ty=Tensor[(10, 20), float32] span=from_string:6:100 */;
  %3 = add(%2, 1f /* ty=float32 span=from_string:7:17 */) /* ty=Tensor[(10, 20), float32] span=from_string:8:99 */;
  %4 = exp(%3) /* ty=Tensor[(10, 20), float32] span=from_string:9:99 */;
  %5 = squeeze(%4) /* ty=Tensor[(10, 20), float32] span=from_string:10:99 */;
  %6 = ones(shape=[1], dtype="float32") /* ty=Tensor[(1), float32] span=from_string:13:90 */;
  %7 = multiply(%6, %2) /* ty=Tensor[(10, 20), float32] span=from_string:14:102 */;
  %8 = nn.dense(%x1, %7, units=None) /* ty=Tensor[(19, 10), float32] span=from_string:15:102 */;
  %9 = nn.dense(%x1, %x2, units=None) /* ty=Tensor[(19, 10), float32] span=from_string:17:101 */;
  %10 = add(%8, %x3) /* ty=Tensor[(19, 10), float32] span=from_string:16:101 */;
  %11 = add(%9, %x4) /* ty=Tensor[(19, 10), float32] span=from_string:18:101 */;
  %12 = add(%1, 1f /* ty=float32 span=from_string:20:17 */) /* ty=Tensor[(10, 20), float32] span=from_string:21:101 */;
  %13 = exp(%12) /* ty=Tensor[(10, 20), float32] span=from_string:22:101 */;
  %14 = squeeze(%13) /* ty=Tensor[(10, 20), float32] span=from_string:23:101 */;
  %15 = nn.dense(%14, %x5, units=None) /* ty=Tensor[(10, 92), float32] span=from_string:24:101 */;
  %16 = nn.dense(%14, %x6, units=None) /* ty=Tensor[(10, 59), float32] span=from_string:26:101 */;
  %17 = expand_dims(%15, axis=2) /* ty=Tensor[(10, 92, 1), float32] span=from_string:25:108 */;
  %18 = expand_dims(%16, axis=2) /* ty=Tensor[(10, 59, 1), float32] span=from_string:27:107 */;
  %19 = nn.dense(%10, %x7, units=None) /* ty=Tensor[(19, 21), float32] span=from_string:29:101 */;
  %20 = add(%19, %x8) /* ty=Tensor[(19, 21), float32] span=from_string:30:101 */;
  %21 = multiply(%20, %x9) /* ty=Tensor[(19, 21), float32] span=from_string:31:102 */;
  %22 = nn.dense(%10, %x10, units=None) /* ty=Tensor[(19, 42), float32] span=from_string:33:101 */;
  %23 = add(%22, %x11) /* ty=Tensor[(19, 42), float32] span=from_string:34:101 */;
  %24 = multiply(%23, %x12) /* ty=Tensor[(19, 42), float32] span=from_string:35:103 */;
  %25 = reshape(%21, newshape=[1, 1, 399]) /* ty=Tensor[(1, 1, 399), float32] span=from_string:32:107 */;
  %26 = reshape(%24, newshape=[1, 1, 798]) /* ty=Tensor[(1, 1, 798), float32] span=from_string:36:107 */;
  %27 = ones(shape=[1], dtype="float32") /* ty=Tensor[(1), float32] span=from_string:38:91 */;
  %28 = multiply(%5, 2f /* ty=float32 span=from_string:11:17 */) /* ty=Tensor[(10, 20), float32] span=from_string:12:101 */;
  %29 = (%10, %11) /* ty=(Tensor[(19, 10), float32], Tensor[(19, 10), float32]) span=from_string:19:159 */;
  %30 = (%17, %18) /* ty=(Tensor[(10, 92, 1), float32], Tensor[(10, 59, 1), float32]) span=from_string:28:171 */;
  %31 = (%25, %26) /* ty=(Tensor[(1, 1, 399), float32], Tensor[(1, 1, 798), float32]) span=from_string:37:171 */;
  %32 = multiply(%27, %x12) /* ty=Tensor[(1), float32] span=from_string:39:92 */;
  (%28, %29, %30, %31, %32, 590 /* ty=int32 span=from_string:40:17 */) /* ty=(Tensor[(10, 20), float32], (Tensor[(19, 10), float32], Tensor[(19, 10), float32]), (Tensor[(10, 92, 1), float32], Tensor[(10, 59, 1), float32]), (Tensor[(1, 1, 399), float32], Tensor[(1, 1, 798), float32]), Tensor[(1), float32], int32) span=from_string:41:523 */
}
