#[version = "0.0.5"]
def @main(%x0: Tensor[(10, 20), float32] /* ty=Tensor[(10, 20), float32] span=from_string:9:12 */, %x1: Tensor[(19, 20), float32] /* ty=Tensor[(19, 20), float32] span=from_string:13:18 */, %x2: Tensor[(10, 20), float32] /* ty=Tensor[(10, 20), float32] span=from_string:13:23 */, %x3: Tensor[(10), float32] /* ty=Tensor[(10), float32] span=from_string:14:17 */, %x4: Tensor[(10), float32] /* ty=Tensor[(10), float32] span=from_string:15:18 */, %x5: Tensor[(92, 20), float32] /* ty=Tensor[(92, 20), float32] span=from_string:19:23 */, %x6: Tensor[(59, 20), float32] /* ty=Tensor[(59, 20), float32] span=from_string:20:23 */, %x7: Tensor[(21, 10), float32] /* ty=Tensor[(21, 10), float32] span=from_string:23:23 */, %x8: Tensor[(21), float32] /* ty=Tensor[(21), float32] span=from_string:24:18 */, %x9: Tensor[(1), float32] /* ty=Tensor[(1), float32] span=from_string:25:24 */, %x10: Tensor[(42, 10), float32] /* ty=Tensor[(42, 10), float32] span=from_string:26:23 */, %x11: Tensor[(42), float32] /* ty=Tensor[(42), float32] span=from_string:27:18 */, %x12: Tensor[(1), float32] /* ty=Tensor[(1), float32] span=from_string:35:24 */, %x13: Tensor[(10, 59, 1), float32] /* ty=Tensor[(10, 59, 1), float32] */) -> (Tensor[(10, 20), float32], (Tensor[(19, 10), float32], Tensor[(19, 10), float32]), (Tensor[(10, 92, 1), float32], Tensor[(10, 59, 1), float32]), (Tensor[(1, 1, 399), float32], Tensor[(1, 1, 798), float32]), Tensor[(1), float32], int32) {
  let %x_0 = 1f /* ty=float32 span=from_string:3:19 */;
  let %x_1 = add(%x0, %x_0);
  let %x_2 = exp(%x_1);
  let %x_3 = squeeze(%x_2);
  let %x_4 = 1f /* ty=float32 span=from_string:6:18 */;
  let %x_5 = add(%x_3, %x_4);
  let %x_6 = exp(%x_5);
  let %x_7 = squeeze(%x_6);
  let %x_8 = 2f /* ty=float32 span=from_string:31:25 */;
  let %x_9 = multiply(%x_7, %x_8);
  let %x_10 = 1f /* ty=float32 span=from_string:9:19 */;
  let %x_11 = add(%x0, %x_10);
  let %x_12 = exp(%x_11);
  let %x_13 = squeeze(%x_12);
  let %x_14 = nn.dense(%x1, %x_13, units=None);
  let %x_15 = add(%x_14, %x3);
  let %x_16 = nn.dense(%x1, %x2, units=None);
  let %x_17 = add(%x_16, %x4);
  let %x_18 = (%x_15, %x_17) /* ty=(Tensor[(19, 10), float32], Tensor[(19, 10), float32]) span=from_string:35:9 */;
  let %x_19 = 1f /* ty=float32 span=from_string:16:19 */;
  let %x_20 = add(%x_12, %x_19);
  let %x_21 = exp(%x_20);
  let %x_22 = squeeze(%x_21);
  let %x_23 = nn.dense(%x_22, %x5, units=None);
  let %x_24 = expand_dims(%x_23, axis=2);
  let %x_25 = nn.dense(%x_22, %x6, units=None);
  let %x_26 = expand_dims(%x_25, axis=2);
  let %x_27 = (%x_24, %x_26) /* ty=(Tensor[(10, 92, 1), float32], Tensor[(10, 59, 1), float32]) span=from_string:35:14 */;
  let %x_28 = nn.dense(%x_15, %x7, units=None);
  let %x_29 = add(%x_28, %x8);
  let %x_30 = multiply(%x_29, %x9);
  let %x_31 = reshape(%x_30, newshape=[1, 1, 399]);
  let %x_32 = nn.dense(%x_15, %x10, units=None);
  let %x_33 = add(%x_32, %x11);
  let %x_34 = multiply(%x_33, %x12);
  let %x_35 = reshape(%x_34, newshape=[1, 1, 798]);
  let %x_36 = (%x_31, %x_35) /* ty=(Tensor[(1, 1, 399), float32], Tensor[(1, 1, 798), float32]) span=from_string:35:19 */;
  let %x_37 = 590 /* ty=int32 span=from_string:35:33 */;
  let %x_38 = (%x_9, %x_18, %x_27, %x_36, %x12, %x_37) /* ty=(Tensor[(10, 20), float32], (Tensor[(19, 10), float32], Tensor[(19, 10), float32]), (Tensor[(10, 92, 1), float32], Tensor[(10, 59, 1), float32]), (Tensor[(1, 1, 399), float32], Tensor[(1, 1, 798), float32]), Tensor[(1), float32], int32) span=from_string:3:3 */;
  %x_38
}
