#[version = "0.0.5"]
def @main(%x0: Tensor[(10, 20), float32] /* ty=Tensor[(10, 20), float32] span=from_string:3:13 */, %x1: Tensor[(19, 20), float32] /* ty=Tensor[(19, 20), float32] span=from_string:13:14 */, %x2: Tensor[(10, 20), float32] /* ty=Tensor[(10, 20), float32] span=from_string:18:14 */, %x3: Tensor[(10), float32] /* ty=Tensor[(10), float32] span=from_string:15:14 */, %x4: Tensor[(10), float32] /* ty=Tensor[(10), float32] span=from_string:19:14 */, %x5: Tensor[(92, 20), float32] /* ty=Tensor[(92, 20), float32] span=from_string:28:14 */, %x6: Tensor[(59, 20), float32] /* ty=Tensor[(59, 20), float32] span=from_string:30:14 */, %x7: Tensor[(21, 10), float32] /* ty=Tensor[(21, 10), float32] span=from_string:34:14 */, %x8: Tensor[(21), float32] /* ty=Tensor[(21), float32] span=from_string:35:14 */, %x9: Tensor[(1), float32] /* ty=Tensor[(1), float32] span=from_string:39:14 */, %x10: Tensor[(42, 10), float32] /* ty=Tensor[(42, 10), float32] span=from_string:41:14 */, %x11: Tensor[(42), float32] /* ty=Tensor[(42), float32] span=from_string:42:14 */, %x12: Tensor[(1), float32] /* ty=Tensor[(1), float32] span=from_string:46:14 */, %x13: Tensor[(10, 59, 1), float32] /* ty=Tensor[(10, 59, 1), float32] */) -> (Tensor[(10, 20), float16], (Tensor[(19, 10), float16], Tensor[(19, 10), float16]), (Tensor[(10, 92, 1), float16], Tensor[(10, 59, 1), float16]), (Tensor[(1, 1, 399), float16], Tensor[(1, 1, 798), float16]), Tensor[(1), float16], int32) {
  let %x_0 = cast(%x0, dtype="float16");
  let %x_1 = 1f /* ty=float32 span=from_string:4:15 */;
  let %x_2 = cast(%x_1, dtype="float16");
  let %x_3 = add(%x_0, %x_2);
  let %x_4 = fast_exp(%x_3);
  let %x_5 = squeeze(%x_4);
  let %x_6 = 1f /* ty=float32 span=from_string:8:15 */;
  let %x_7 = cast(%x_6, dtype="float16");
  let %x_8 = add(%x_5, %x_7);
  let %x_9 = fast_exp(%x_8);
  let %x_10 = squeeze(%x_9);
  let %x_11 = add(%x_10, %x_10);
  let %x_12 = cast(%x1, dtype="float16");
  let %x_13 = ones(shape=[1], dtype="float16");
  let %x_14 = multiply(%x_13, %x_5);
  let %x_15 = nn.dense(%x_12, %x_14, units=None, out_dtype="float16");
  let %x_16 = cast(%x3, dtype="float16");
  let %x_17 = expand_dims(%x_16, axis=0);
  let %x_18 = add(%x_15, %x_17);
  let %x_19 = cast(%x2, dtype="float16");
  let %x_20 = nn.dense(%x_12, %x_19, units=None, out_dtype="float16");
  let %x_21 = cast(%x4, dtype="float16");
  let %x_22 = expand_dims(%x_21, axis=0);
  let %x_23 = add(%x_20, %x_22);
  let %x_24 = (%x_18, %x_23) /* ty=(Tensor[(19, 10), float16], Tensor[(19, 10), float16]) span=from_string:56:9 */;
  let %x_25 = 1f /* ty=float32 span=from_string:24:16 */;
  let %x_26 = cast(%x_25, dtype="float16");
  let %x_27 = add(%x_4, %x_26);
  let %x_28 = fast_exp(%x_27);
  let %x_29 = squeeze(%x_28);
  let %x_30 = cast(%x5, dtype="float16");
  let %x_31 = nn.dense(%x_29, %x_30, units=None, out_dtype="float16");
  let %x_32 = expand_dims(%x_31, axis=2);
  let %x_33 = cast(%x6, dtype="float16");
  let %x_34 = nn.dense(%x_29, %x_33, units=None, out_dtype="float16");
  let %x_35 = expand_dims(%x_34, axis=2);
  let %x_36 = (%x_32, %x_35) /* ty=(Tensor[(10, 92, 1), float16], Tensor[(10, 59, 1), float16]) span=from_string:56:14 */;
  let %x_37 = cast(%x7, dtype="float16");
  let %x_38 = nn.dense(%x_18, %x_37, units=None, out_dtype="float16");
  let %x_39 = cast(%x8, dtype="float16");
  let %x_40 = expand_dims(%x_39, axis=0);
  let %x_41 = add(%x_38, %x_40);
  let %x_42 = cast(%x9, dtype="float16");
  let %x_43 = multiply(%x_41, %x_42);
  let %x_44 = reshape(%x_43, newshape=[1, 1, 399]);
  let %x_45 = cast(%x10, dtype="float16");
  let %x_46 = nn.dense(%x_18, %x_45, units=None, out_dtype="float16");
  let %x_47 = cast(%x11, dtype="float16");
  let %x_48 = expand_dims(%x_47, axis=0);
  let %x_49 = add(%x_46, %x_48);
  let %x_50 = cast(%x12, dtype="float16");
  let %x_51 = multiply(%x_49, %x_50);
  let %x_52 = reshape(%x_51, newshape=[1, 1, 798]);
  let %x_53 = (%x_44, %x_52) /* ty=(Tensor[(1, 1, 399), float16], Tensor[(1, 1, 798), float16]) span=from_string:56:19 */;
  let %x_54 = ones(shape=[1], dtype="float16");
  let %x_55 = multiply(%x_54, %x_50);
  let %x_56 = 590 /* ty=int32 span=from_string:56:32 */;
  let %x_57 = (%x_11, %x_24, %x_36, %x_53, %x_55, %x_56) /* ty=(Tensor[(10, 20), float16], (Tensor[(19, 10), float16], Tensor[(19, 10), float16]), (Tensor[(10, 92, 1), float16], Tensor[(10, 59, 1), float16]), (Tensor[(1, 1, 399), float16], Tensor[(1, 1, 798), float16]), Tensor[(1), float16], int32) span=from_string:3:3 */;
  %x_57
}
