#[version = "0.0.5"]
def @main(%x0: Tensor[(10, 20), float32] /* ty=Tensor[(10, 20), float32] span=from_string:7:101 */, %x1: Tensor[(19, 20), float32] /* ty=Tensor[(19, 20), float32] span=from_string:52:104 */, %x2: Tensor[(10, 20), float32] /* ty=Tensor[(10, 20), float32] span=from_string:52:109 */, %x3: Tensor[(10), float32] /* ty=Tensor[(10), float32] span=from_string:48:111 */, %x4: Tensor[(10), float32] /* ty=Tensor[(10), float32] span=from_string:56:111 */, %x5: Tensor[(92, 20), float32] /* ty=Tensor[(92, 20), float32] span=from_string:74:111 */, %x6: Tensor[(59, 20), float32] /* ty=Tensor[(59, 20), float32] span=from_string:82:111 */, %x7: Tensor[(21, 10), float32] /* ty=Tensor[(21, 10), float32] span=from_string:91:111 */, %x8: Tensor[(21), float32] /* ty=Tensor[(21), float32] span=from_string:95:111 */, %x9: Tensor[(1), float32] /* ty=Tensor[(1), float32] span=from_string:99:111 */, %x10: Tensor[(42, 10), float32] /* ty=Tensor[(42, 10), float32] span=from_string:107:111 */, %x11: Tensor[(42), float32] /* ty=Tensor[(42), float32] span=from_string:111:111 */, %x12: Tensor[(1), float32] /* ty=Tensor[(1), float32] span=from_string:128:101 */, %x13: Tensor[(10, 59, 1), float32] /* ty=Tensor[(10, 59, 1), float32] */) -> (Tensor[(10, 20), float32], (Tensor[(19, 10), float32], Tensor[(19, 10), float32]), (Tensor[(10, 92, 1), float32], Tensor[(10, 59, 1), float32]), (Tensor[(1, 1, 399), float32], Tensor[(1, 1, 798), float32]), Tensor[(1), float32], int32) {
  %0 = fn (%p0: Tensor[(10, 20), float32] /* ty=Tensor[(10, 20), float32] span=from_string:5:9 */, %p1: float32 /* ty=float32 span=from_string:5:14 */, Primitive=1) -> Tensor[(10, 20), float32] {
    add(%p0, %p1) /* ty=Tensor[(10, 20), float32] span=from_string:5:5 */
  } /* ty=fn (Tensor[(10, 20), float32], float32) -> Tensor[(10, 20), float32] span=from_string:7:98 */;
  %1 = %0(%x0, 1f /* ty=float32 span=from_string:3:64 */) /* ty=Tensor[(10, 20), float32] span=from_string:7:98 */;
  %2 = fn (%p01: Tensor[(10, 20), float32] /* ty=Tensor[(10, 20), float32] span=from_string:9:9 */, Primitive=1) -> Tensor[(10, 20), float32] {
    exp(%p01) /* ty=Tensor[(10, 20), float32] span=from_string:9:5 */
  } /* ty=fn (Tensor[(10, 20), float32]) -> Tensor[(10, 20), float32] span=from_string:11:99 */;
  %3 = %2(%1) /* ty=Tensor[(10, 20), float32] span=from_string:11:99 */;
  %4 = fn (%p02: Tensor[(10, 20), float32] /* ty=Tensor[(10, 20), float32] span=from_string:13:13 */, Primitive=1, relay.reshape_only=1) -> Tensor[(10, 20), float32] {
    squeeze(%p02) /* ty=Tensor[(10, 20), float32] span=from_string:13:5 */
  } /* ty=fn (Tensor[(10, 20), float32]) -> Tensor[(10, 20), float32] span=from_string:15:99 */;
  %5 = %4(%3) /* ty=Tensor[(10, 20), float32] span=from_string:15:99 */;
  %6 = fn (%p03: Tensor[(10, 20), float32] /* ty=Tensor[(10, 20), float32] span=from_string:18:9 */, %p11: float32 /* ty=float32 span=from_string:18:15 */, Primitive=1) -> Tensor[(10, 20), float32] {
    add(%p03, %p11) /* ty=Tensor[(10, 20), float32] span=from_string:18:5 */
  } /* ty=fn (Tensor[(10, 20), float32], float32) -> Tensor[(10, 20), float32] span=from_string:20:98 */;
  %7 = %6(%5, 1f /* ty=float32 span=from_string:16:64 */) /* ty=Tensor[(10, 20), float32] span=from_string:20:98 */;
  %8 = fn (%p04: Tensor[(10, 20), float32] /* ty=Tensor[(10, 20), float32] span=from_string:22:9 */, Primitive=1) -> Tensor[(10, 20), float32] {
    exp(%p04) /* ty=Tensor[(10, 20), float32] span=from_string:22:5 */
  } /* ty=fn (Tensor[(10, 20), float32]) -> Tensor[(10, 20), float32] span=from_string:24:99 */;
  %9 = %8(%7) /* ty=Tensor[(10, 20), float32] span=from_string:24:99 */;
  %10 = fn (%p05: Tensor[(10, 20), float32] /* ty=Tensor[(10, 20), float32] span=from_string:26:13 */, Primitive=1, relay.reshape_only=1) -> Tensor[(10, 20), float32] {
    squeeze(%p05) /* ty=Tensor[(10, 20), float32] span=from_string:26:5 */
  } /* ty=fn (Tensor[(10, 20), float32]) -> Tensor[(10, 20), float32] span=from_string:28:99 */;
  %11 = %10(%9) /* ty=Tensor[(10, 20), float32] span=from_string:28:99 */;
  %12 = fn (%p06: Tensor[(10, 20), float32] /* ty=Tensor[(10, 20), float32] span=from_string:30:15 */, Primitive=1) -> Tensor[(10, 20), float32] {
    add(%p06, %p06) /* ty=Tensor[(10, 20), float32] span=from_string:30:5 */
  } /* ty=fn (Tensor[(10, 20), float32]) -> Tensor[(10, 20), float32] span=from_string:32:99 */;
  %13 = fn (Primitive=1) -> Tensor[(1), float32] {
    ones(shape=[1], dtype="float32") /* ty=Tensor[(1), float32] span=from_string:34:5 */
  } /* ty=fn () -> Tensor[(1), float32] span=from_string:36:89 */;
  %14 = %13() /* ty=Tensor[(1), float32] span=from_string:36:89 */;
  %15 = fn (%p07: Tensor[(1), float32] /* ty=Tensor[(1), float32] span=from_string:38:15 */, %p12: Tensor[(10, 20), float32] /* ty=Tensor[(10, 20), float32] span=from_string:38:21 */, Primitive=1) -> Tensor[(10, 20), float32] {
    multiply(%p07, %p12) /* ty=Tensor[(10, 20), float32] span=from_string:38:6 */
  } /* ty=fn (Tensor[(1), float32], Tensor[(10, 20), float32]) -> Tensor[(10, 20), float32] span=from_string:40:100 */;
  %16 = %15(%14, %5) /* ty=Tensor[(10, 20), float32] span=from_string:40:100 */;
  %17 = fn (%p08: Tensor[(19, 20), float32] /* ty=Tensor[(19, 20), float32] span=from_string:42:14 */, %p13: Tensor[(10, 20), float32] /* ty=Tensor[(10, 20), float32] span=from_string:42:20 */, Primitive=1) -> Tensor[(19, 10), float32] {
    nn.dense(%p08, %p13, units=None) /* ty=Tensor[(19, 10), float32] span=from_string:42:5 */
  } /* ty=fn (Tensor[(19, 20), float32], Tensor[(10, 20), float32]) -> Tensor[(19, 10), float32] span=from_string:44:100 */;
  %18 = %17(%x1, %16) /* ty=Tensor[(19, 10), float32] span=from_string:44:100 */;
  %19 = fn (%p09: Tensor[(19, 10), float32] /* ty=Tensor[(19, 10), float32] span=from_string:46:9 */, %p14: Tensor[(10), float32] /* ty=Tensor[(10), float32] span=from_string:46:15 */, Primitive=1) -> Tensor[(19, 10), float32] {
    add(%p09, %p14) /* ty=Tensor[(19, 10), float32] span=from_string:46:5 */
  } /* ty=fn (Tensor[(19, 10), float32], Tensor[(10), float32]) -> Tensor[(19, 10), float32] span=from_string:48:100 */;
  %20 = fn (%p010: Tensor[(19, 20), float32] /* ty=Tensor[(19, 20), float32] span=from_string:50:14 */, %p15: Tensor[(10, 20), float32] /* ty=Tensor[(10, 20), float32] span=from_string:50:21 */, Primitive=1) -> Tensor[(19, 10), float32] {
    nn.dense(%p010, %p15, units=None) /* ty=Tensor[(19, 10), float32] span=from_string:50:5 */
  } /* ty=fn (Tensor[(19, 20), float32], Tensor[(10, 20), float32]) -> Tensor[(19, 10), float32] span=from_string:52:100 */;
  %21 = %20(%x1, %x2) /* ty=Tensor[(19, 10), float32] span=from_string:52:100 */;
  %22 = fn (%p011: Tensor[(19, 10), float32] /* ty=Tensor[(19, 10), float32] span=from_string:54:9 */, %p16: Tensor[(10), float32] /* ty=Tensor[(10), float32] span=from_string:54:16 */, Primitive=1) -> Tensor[(19, 10), float32] {
    add(%p011, %p16) /* ty=Tensor[(19, 10), float32] span=from_string:54:5 */
  } /* ty=fn (Tensor[(19, 10), float32], Tensor[(10), float32]) -> Tensor[(19, 10), float32] span=from_string:56:100 */;
  %23 = %19(%18, %x3) /* ty=Tensor[(19, 10), float32] span=from_string:48:100 */;
  %24 = %22(%21, %x4) /* ty=Tensor[(19, 10), float32] span=from_string:56:100 */;
  %25 = fn (%p012: Tensor[(10, 20), float32] /* ty=Tensor[(10, 20), float32] span=from_string:60:9 */, %p17: float32 /* ty=float32 span=from_string:60:16 */, Primitive=1) -> Tensor[(10, 20), float32] {
    add(%p012, %p17) /* ty=Tensor[(10, 20), float32] span=from_string:60:5 */
  } /* ty=fn (Tensor[(10, 20), float32], float32) -> Tensor[(10, 20), float32] span=from_string:62:100 */;
  %26 = %25(%3, 1f /* ty=float32 span=from_string:58:66 */) /* ty=Tensor[(10, 20), float32] span=from_string:62:100 */;
  %27 = fn (%p013: Tensor[(10, 20), float32] /* ty=Tensor[(10, 20), float32] span=from_string:64:9 */, Primitive=1) -> Tensor[(10, 20), float32] {
    exp(%p013) /* ty=Tensor[(10, 20), float32] span=from_string:64:5 */
  } /* ty=fn (Tensor[(10, 20), float32]) -> Tensor[(10, 20), float32] span=from_string:66:100 */;
  %28 = %27(%26) /* ty=Tensor[(10, 20), float32] span=from_string:66:100 */;
  %29 = fn (%p014: Tensor[(10, 20), float32] /* ty=Tensor[(10, 20), float32] span=from_string:68:13 */, Primitive=1, relay.reshape_only=1) -> Tensor[(10, 20), float32] {
    squeeze(%p014) /* ty=Tensor[(10, 20), float32] span=from_string:68:5 */
  } /* ty=fn (Tensor[(10, 20), float32]) -> Tensor[(10, 20), float32] span=from_string:70:100 */;
  %30 = %29(%28) /* ty=Tensor[(10, 20), float32] span=from_string:70:100 */;
  %31 = fn (%p015: Tensor[(10, 20), float32] /* ty=Tensor[(10, 20), float32] span=from_string:72:14 */, %p18: Tensor[(92, 20), float32] /* ty=Tensor[(92, 20), float32] span=from_string:72:21 */, Primitive=1) -> Tensor[(10, 92), float32] {
    nn.dense(%p015, %p18, units=None) /* ty=Tensor[(10, 92), float32] span=from_string:72:5 */
  } /* ty=fn (Tensor[(10, 20), float32], Tensor[(92, 20), float32]) -> Tensor[(10, 92), float32] span=from_string:74:100 */;
  %32 = %31(%30, %x5) /* ty=Tensor[(10, 92), float32] span=from_string:74:100 */;
  %33 = fn (%p016: Tensor[(10, 92), float32] /* ty=Tensor[(10, 92), float32] span=from_string:76:17 */, Primitive=1, relay.reshape_only=1) -> Tensor[(10, 92, 1), float32] {
    expand_dims(%p016, axis=2) /* ty=Tensor[(10, 92, 1), float32] span=from_string:76:5 */
  } /* ty=fn (Tensor[(10, 92), float32]) -> Tensor[(10, 92, 1), float32] span=from_string:78:106 */;
  %34 = fn (%p017: Tensor[(10, 20), float32] /* ty=Tensor[(10, 20), float32] span=from_string:80:14 */, %p19: Tensor[(59, 20), float32] /* ty=Tensor[(59, 20), float32] span=from_string:80:21 */, Primitive=1) -> Tensor[(10, 59), float32] {
    nn.dense(%p017, %p19, units=None) /* ty=Tensor[(10, 59), float32] span=from_string:80:5 */
  } /* ty=fn (Tensor[(10, 20), float32], Tensor[(59, 20), float32]) -> Tensor[(10, 59), float32] span=from_string:82:100 */;
  %35 = %34(%30, %x6) /* ty=Tensor[(10, 59), float32] span=from_string:82:100 */;
  %36 = fn (%p018: Tensor[(10, 59), float32] /* ty=Tensor[(10, 59), float32] span=from_string:84:17 */, Primitive=1, relay.reshape_only=1) -> Tensor[(10, 59, 1), float32] {
    expand_dims(%p018, axis=2) /* ty=Tensor[(10, 59, 1), float32] span=from_string:84:5 */
  } /* ty=fn (Tensor[(10, 59), float32]) -> Tensor[(10, 59, 1), float32] span=from_string:86:106 */;
  %37 = %33(%32) /* ty=Tensor[(10, 92, 1), float32] span=from_string:78:106 */;
  %38 = %36(%35) /* ty=Tensor[(10, 59, 1), float32] span=from_string:86:106 */;
  %39 = fn (%p019: Tensor[(19, 10), float32] /* ty=Tensor[(19, 10), float32] span=from_string:89:14 */, %p110: Tensor[(21, 10), float32] /* ty=Tensor[(21, 10), float32] span=from_string:89:21 */, Primitive=1) -> Tensor[(19, 21), float32] {
    nn.dense(%p019, %p110, units=None) /* ty=Tensor[(19, 21), float32] span=from_string:89:5 */
  } /* ty=fn (Tensor[(19, 10), float32], Tensor[(21, 10), float32]) -> Tensor[(19, 21), float32] span=from_string:91:100 */;
  %40 = %39(%23, %x7) /* ty=Tensor[(19, 21), float32] span=from_string:91:100 */;
  %41 = fn (%p020: Tensor[(19, 21), float32] /* ty=Tensor[(19, 21), float32] span=from_string:93:9 */, %p111: Tensor[(21), float32] /* ty=Tensor[(21), float32] span=from_string:93:16 */, Primitive=1) -> Tensor[(19, 21), float32] {
    add(%p020, %p111) /* ty=Tensor[(19, 21), float32] span=from_string:93:5 */
  } /* ty=fn (Tensor[(19, 21), float32], Tensor[(21), float32]) -> Tensor[(19, 21), float32] span=from_string:95:100 */;
  %42 = %41(%40, %x8) /* ty=Tensor[(19, 21), float32] span=from_string:95:100 */;
  %43 = fn (%p021: Tensor[(19, 21), float32] /* ty=Tensor[(19, 21), float32] span=from_string:97:15 */, %p112: Tensor[(1), float32] /* ty=Tensor[(1), float32] span=from_string:97:22 */, Primitive=1) -> Tensor[(19, 21), float32] {
    multiply(%p021, %p112) /* ty=Tensor[(19, 21), float32] span=from_string:97:6 */
  } /* ty=fn (Tensor[(19, 21), float32], Tensor[(1), float32]) -> Tensor[(19, 21), float32] span=from_string:99:100 */;
  %44 = %43(%42, %x9) /* ty=Tensor[(19, 21), float32] span=from_string:99:100 */;
  %45 = fn (%p022: Tensor[(19, 21), float32] /* ty=Tensor[(19, 21), float32] span=from_string:101:13 */, Primitive=1, relay.reshape_only=1) -> Tensor[(1, 1, 399), float32] {
    reshape(%p022, newshape=[1, 1, 399]) /* ty=Tensor[(1, 1, 399), float32] span=from_string:101:5 */
  } /* ty=fn (Tensor[(19, 21), float32]) -> Tensor[(1, 1, 399), float32] span=from_string:103:106 */;
  %46 = fn (%p023: Tensor[(19, 10), float32] /* ty=Tensor[(19, 10), float32] span=from_string:105:14 */, %p113: Tensor[(42, 10), float32] /* ty=Tensor[(42, 10), float32] span=from_string:105:21 */, Primitive=1) -> Tensor[(19, 42), float32] {
    nn.dense(%p023, %p113, units=None) /* ty=Tensor[(19, 42), float32] span=from_string:105:5 */
  } /* ty=fn (Tensor[(19, 10), float32], Tensor[(42, 10), float32]) -> Tensor[(19, 42), float32] span=from_string:107:100 */;
  %47 = %46(%23, %x10) /* ty=Tensor[(19, 42), float32] span=from_string:107:100 */;
  %48 = fn (%p024: Tensor[(19, 42), float32] /* ty=Tensor[(19, 42), float32] span=from_string:109:9 */, %p114: Tensor[(42), float32] /* ty=Tensor[(42), float32] span=from_string:109:16 */, Primitive=1) -> Tensor[(19, 42), float32] {
    add(%p024, %p114) /* ty=Tensor[(19, 42), float32] span=from_string:109:5 */
  } /* ty=fn (Tensor[(19, 42), float32], Tensor[(42), float32]) -> Tensor[(19, 42), float32] span=from_string:111:100 */;
  %49 = %48(%47, %x11) /* ty=Tensor[(19, 42), float32] span=from_string:111:100 */;
  %50 = fn (%p025: Tensor[(19, 42), float32] /* ty=Tensor[(19, 42), float32] span=from_string:113:15 */, %p115: Tensor[(1), float32] /* ty=Tensor[(1), float32] span=from_string:113:22 */, Primitive=1) -> Tensor[(19, 42), float32] {
    multiply(%p025, %p115) /* ty=Tensor[(19, 42), float32] span=from_string:113:6 */
  } /* ty=fn (Tensor[(19, 42), float32], Tensor[(1), float32]) -> Tensor[(19, 42), float32] span=from_string:115:100 */;
  %51 = %50(%49, %x12) /* ty=Tensor[(19, 42), float32] span=from_string:115:100 */;
  %52 = fn (%p026: Tensor[(19, 42), float32] /* ty=Tensor[(19, 42), float32] span=from_string:117:13 */, Primitive=1, relay.reshape_only=1) -> Tensor[(1, 1, 798), float32] {
    reshape(%p026, newshape=[1, 1, 798]) /* ty=Tensor[(1, 1, 798), float32] span=from_string:117:5 */
  } /* ty=fn (Tensor[(19, 42), float32]) -> Tensor[(1, 1, 798), float32] span=from_string:119:106 */;
  %53 = %45(%44) /* ty=Tensor[(1, 1, 399), float32] span=from_string:103:106 */;
  %54 = %52(%51) /* ty=Tensor[(1, 1, 798), float32] span=from_string:119:106 */;
  %55 = fn (Primitive=1) -> Tensor[(1), float32] {
    ones(shape=[1], dtype="float32") /* ty=Tensor[(1), float32] span=from_string:122:5 */
  } /* ty=fn () -> Tensor[(1), float32] span=from_string:124:90 */;
  %56 = %55() /* ty=Tensor[(1), float32] span=from_string:124:90 */;
  %57 = fn (%p027: Tensor[(1), float32] /* ty=Tensor[(1), float32] span=from_string:126:15 */, %p116: Tensor[(1), float32] /* ty=Tensor[(1), float32] span=from_string:126:22 */, Primitive=1) -> Tensor[(1), float32] {
    multiply(%p027, %p116) /* ty=Tensor[(1), float32] span=from_string:126:6 */
  } /* ty=fn (Tensor[(1), float32], Tensor[(1), float32]) -> Tensor[(1), float32] span=from_string:128:90 */;
  %58 = %12(%11) /* ty=Tensor[(10, 20), float32] span=from_string:32:99 */;
  %59 = (%23, %24) /* ty=(Tensor[(19, 10), float32], Tensor[(19, 10), float32]) span=from_string:57:158 */;
  %60 = (%37, %38) /* ty=(Tensor[(10, 92, 1), float32], Tensor[(10, 59, 1), float32]) span=from_string:87:170 */;
  %61 = (%53, %54) /* ty=(Tensor[(1, 1, 399), float32], Tensor[(1, 1, 798), float32]) span=from_string:120:170 */;
  %62 = %57(%56, %x12) /* ty=Tensor[(1), float32] span=from_string:128:90 */;
  (%58, %59, %60, %61, %62, 590 /* ty=int32 span=from_string:129:65 */) /* ty=(Tensor[(10, 20), float32], (Tensor[(19, 10), float32], Tensor[(19, 10), float32]), (Tensor[(10, 92, 1), float32], Tensor[(10, 59, 1), float32]), (Tensor[(1, 1, 399), float32], Tensor[(1, 1, 798), float32]), Tensor[(1), float32], int32) span=from_string:130:523 */
}
