#[version = "0.0.5"]
def @main(%x0: Tensor[(10, 20), float32] /* ty=Tensor[(10, 20), float32] span=from_string:3:13 */, %x1: Tensor[(19, 20), float32] /* ty=Tensor[(19, 20), float32] span=from_string:15:14 */, %x2: Tensor[(10, 20), float32] /* ty=Tensor[(10, 20), float32] span=from_string:20:14 */, %x3: Tensor[(10), float32] /* ty=Tensor[(10), float32] span=from_string:17:14 */, %x4: Tensor[(10), float32] /* ty=Tensor[(10), float32] span=from_string:21:14 */, %x5: Tensor[(92, 20), float32] /* ty=Tensor[(92, 20), float32] span=from_string:30:14 */, %x6: Tensor[(59, 20), float32] /* ty=Tensor[(59, 20), float32] span=from_string:32:14 */, %x7: Tensor[(21, 10), float32] /* ty=Tensor[(21, 10), float32] span=from_string:36:14 */, %x8: Tensor[(21), float32] /* ty=Tensor[(21), float32] span=from_string:37:14 */, %x9: Tensor[(1), float32] /* ty=Tensor[(1), float32] span=from_string:41:14 */, %x10: Tensor[(42, 10), float32] /* ty=Tensor[(42, 10), float32] span=from_string:43:14 */, %x11: Tensor[(42), float32] /* ty=Tensor[(42), float32] span=from_string:44:14 */, %x12: Tensor[(1), float32] /* ty=Tensor[(1), float32] span=from_string:48:14 */, %x13: Tensor[(10, 59, 1), float32] /* ty=Tensor[(10, 59, 1), float32] */) -> (Tensor[(10, 20), float32], (Tensor[(19, 10), float16], Tensor[(19, 10), float16]), (Tensor[(10, 92, 1), float16], Tensor[(10, 59, 1), float16]), (Tensor[(1, 1, 399), float16], Tensor[(1, 1, 798), float16]), Tensor[(1), float16], int32) {
  let %x_0 = cast(%x0, dtype="float16");
  let %x_1 = 1f /* ty=float32 span=from_string:4:15 */;
  let %x_2 = cast(%x_1, dtype="float16");
  let %x_3 = add(%x_0, %x_2);
  let %x_4 = cast(%x_3, dtype="float32");
  let %x_5 = exp(%x_4);
  let %x_6 = squeeze(%x_5);
  let %x_7 = 1f /* ty=float32 span=from_string:9:18 */;
  let %x_8 = add(%x_6, %x_7);
  let %x_9 = exp(%x_8);
  let %x_10 = squeeze(%x_9);
  let %x_11 = 2f /* ty=float32 span=from_string:52:25 */;
  let %x_12 = multiply(%x_10, %x_11);
  let %x_13 = cast(%x1, dtype="float16");
  let %x_14 = ones(shape=[1], dtype="float16");
  let %x_15 = cast(%x_14, dtype="float32");
  let %x_16 = multiply(%x_15, %x_6);
  let %x_17 = cast(%x_16, dtype="float16");
  let %x_18 = nn.dense(%x_13, %x_17, units=None, out_dtype="float16");
  let %x_19 = cast(%x3, dtype="float16");
  let %x_20 = expand_dims(%x_19, axis=0);
  let %x_21 = add(%x_18, %x_20);
  let %x_22 = cast(%x2, dtype="float16");
  let %x_23 = nn.dense(%x_13, %x_22, units=None, out_dtype="float16");
  let %x_24 = cast(%x4, dtype="float16");
  let %x_25 = expand_dims(%x_24, axis=0);
  let %x_26 = add(%x_23, %x_25);
  let %x_27 = (%x_21, %x_26) /* ty=(Tensor[(19, 10), float16], Tensor[(19, 10), float16]) span=from_string:56:9 */;
  let %x_28 = 1f /* ty=float32 span=from_string:26:19 */;
  let %x_29 = add(%x_5, %x_28);
  let %x_30 = exp(%x_29);
  let %x_31 = squeeze(%x_30);
  let %x_32 = cast(%x_31, dtype="float16");
  let %x_33 = cast(%x5, dtype="float16");
  let %x_34 = nn.dense(%x_32, %x_33, units=None, out_dtype="float16");
  let %x_35 = expand_dims(%x_34, axis=2);
  let %x_36 = cast(%x6, dtype="float16");
  let %x_37 = nn.dense(%x_32, %x_36, units=None, out_dtype="float16");
  let %x_38 = expand_dims(%x_37, axis=2);
  let %x_39 = (%x_35, %x_38) /* ty=(Tensor[(10, 92, 1), float16], Tensor[(10, 59, 1), float16]) span=from_string:56:14 */;
  let %x_40 = cast(%x7, dtype="float16");
  let %x_41 = nn.dense(%x_21, %x_40, units=None, out_dtype="float16");
  let %x_42 = cast(%x8, dtype="float16");
  let %x_43 = expand_dims(%x_42, axis=0);
  let %x_44 = add(%x_41, %x_43);
  let %x_45 = cast(%x9, dtype="float16");
  let %x_46 = multiply(%x_44, %x_45);
  let %x_47 = reshape(%x_46, newshape=[1, 1, 399]);
  let %x_48 = cast(%x10, dtype="float16");
  let %x_49 = nn.dense(%x_21, %x_48, units=None, out_dtype="float16");
  let %x_50 = cast(%x11, dtype="float16");
  let %x_51 = expand_dims(%x_50, axis=0);
  let %x_52 = add(%x_49, %x_51);
  let %x_53 = cast(%x12, dtype="float16");
  let %x_54 = multiply(%x_52, %x_53);
  let %x_55 = reshape(%x_54, newshape=[1, 1, 798]);
  let %x_56 = (%x_47, %x_55) /* ty=(Tensor[(1, 1, 399), float16], Tensor[(1, 1, 798), float16]) span=from_string:56:19 */;
  let %x_57 = 590 /* ty=int32 span=from_string:56:32 */;
  let %x_58 = (%x_12, %x_27, %x_39, %x_56, %x_53, %x_57) /* ty=(Tensor[(10, 20), float32], (Tensor[(19, 10), float16], Tensor[(19, 10), float16]), (Tensor[(10, 92, 1), float16], Tensor[(10, 59, 1), float16]), (Tensor[(1, 1, 399), float16], Tensor[(1, 1, 798), float16]), Tensor[(1), float16], int32) span=from_string:3:3 */;
  %x_58
}
