#[version = "0.0.5"]
def @main(%x0: Tensor[(10, 20), float32] /* ty=Tensor[(10, 20), float32] span=from_string:3:103 */, %x1: Tensor[(19, 20), float32] /* ty=Tensor[(19, 20), float32] span=from_string:14:110 */, %x2: Tensor[(10, 20), float32] /* ty=Tensor[(10, 20), float32] span=from_string:14:115 */, %x3: Tensor[(10), float32] /* ty=Tensor[(10), float32] span=from_string:13:112 */, %x4: Tensor[(10), float32] /* ty=Tensor[(10), float32] span=from_string:15:112 */, %x5: Tensor[(92, 20), float32] /* ty=Tensor[(92, 20), float32] span=from_string:20:117 */, %x6: Tensor[(59, 20), float32] /* ty=Tensor[(59, 20), float32] span=from_string:22:117 */, %x7: Tensor[(21, 10), float32] /* ty=Tensor[(21, 10), float32] span=from_string:25:117 */, %x8: Tensor[(21), float32] /* ty=Tensor[(21), float32] span=from_string:26:112 */, %x9: Tensor[(1), float32] /* ty=Tensor[(1), float32] span=from_string:27:118 */, %x10: Tensor[(42, 10), float32] /* ty=Tensor[(42, 10), float32] span=from_string:29:117 */, %x11: Tensor[(42), float32] /* ty=Tensor[(42), float32] span=from_string:30:112 */, %x12: Tensor[(1), float32] /* ty=Tensor[(1), float32] span=from_string:35:108 */, %x13: Tensor[(10, 59, 1), float32] /* ty=Tensor[(10, 59, 1), float32] */) -> (Tensor[(10, 20), float32], (Tensor[(19, 10), float32], Tensor[(19, 10), float32]), (Tensor[(10, 92, 1), float32], Tensor[(10, 59, 1), float32]), (Tensor[(1, 1, 399), float32], Tensor[(1, 1, 798), float32]), Tensor[(1), float32], int32) {
  let %x_1: Tensor[(10, 20), float32] /* ty=Tensor[(10, 20), float32] span=from_string:4:104 */ = add(%x0, 1f /* ty=float32 span=from_string:3:110 */) /* ty=Tensor[(10, 20), float32] span=from_string:3:99 */;
  let %x_2: Tensor[(10, 20), float32] /* ty=Tensor[(10, 20), float32] span=from_string:17:105 */ = exp(%x_1) /* ty=Tensor[(10, 20), float32] span=from_string:4:100 */;
  let %x_3: Tensor[(10, 20), float32] /* ty=Tensor[(10, 20), float32] span=from_string:11:117 */ = squeeze(%x_2) /* ty=Tensor[(10, 20), float32] span=from_string:5:100 */;
  let %x_5: Tensor[(10, 20), float32] /* ty=Tensor[(10, 20), float32] span=from_string:7:104 */ = add(%x_3, 1f /* ty=float32 span=from_string:6:111 */) /* ty=Tensor[(10, 20), float32] span=from_string:6:99 */;
  let %x_6: Tensor[(10, 20), float32] /* ty=Tensor[(10, 20), float32] span=from_string:8:108 */ = exp(%x_5) /* ty=Tensor[(10, 20), float32] span=from_string:7:100 */;
  let %x_7: Tensor[(10, 20), float32] /* ty=Tensor[(10, 20), float32] span=from_string:9:110 */ = squeeze(%x_6) /* ty=Tensor[(10, 20), float32] span=from_string:8:100 */;
  let %x_8: Tensor[(10, 20), float32] /* ty=Tensor[(10, 20), float32] span=from_string:36:524 */ = add(%x_7, %x_7) /* ty=Tensor[(10, 20), float32] span=from_string:9:100 */;
  let %x_9: Tensor[(1), float32] /* ty=Tensor[(1), float32] span=from_string:11:111 */ = ones(shape=[1], dtype="float32") /* ty=Tensor[(1), float32] span=from_string:10:90 */;
  let %x_10: Tensor[(10, 20), float32] /* ty=Tensor[(10, 20), float32] span=from_string:12:115 */ = multiply(%x_9, %x_3) /* ty=Tensor[(10, 20), float32] span=from_string:11:102 */;
  let %x_11: Tensor[(19, 10), float32] /* ty=Tensor[(19, 10), float32] span=from_string:13:105 */ = nn.dense(%x1, %x_10, units=None) /* ty=Tensor[(19, 10), float32] span=from_string:12:101 */;
  let %x_12: Tensor[(19, 10), float32] /* ty=Tensor[(19, 10), float32] span=from_string:29:110 */ = add(%x_11, %x3) /* ty=Tensor[(19, 10), float32] span=from_string:13:101 */;
  let %x_13: Tensor[(19, 10), float32] /* ty=Tensor[(19, 10), float32] span=from_string:15:105 */ = nn.dense(%x1, %x2, units=None) /* ty=Tensor[(19, 10), float32] span=from_string:14:101 */;
  let %x_14: Tensor[(19, 10), float32] /* ty=Tensor[(19, 10), float32] span=from_string:16:167 */ = add(%x_13, %x4) /* ty=Tensor[(19, 10), float32] span=from_string:15:101 */;
  let %x_15: (Tensor[(19, 10), float32], Tensor[(19, 10), float32]) /* ty=(Tensor[(19, 10), float32], Tensor[(19, 10), float32]) span=from_string:36:530 */ = (%x_12, %x_14) /* ty=(Tensor[(19, 10), float32], Tensor[(19, 10), float32]) span=from_string:16:159 */;
  let %x_17: Tensor[(10, 20), float32] /* ty=Tensor[(10, 20), float32] span=from_string:18:105 */ = add(%x_2, 1f /* ty=float32 span=from_string:17:113 */) /* ty=Tensor[(10, 20), float32] span=from_string:17:101 */;
  let %x_18: Tensor[(10, 20), float32] /* ty=Tensor[(10, 20), float32] span=from_string:19:109 */ = exp(%x_17) /* ty=Tensor[(10, 20), float32] span=from_string:18:101 */;
  let %x_19: Tensor[(10, 20), float32] /* ty=Tensor[(10, 20), float32] span=from_string:22:110 */ = squeeze(%x_18) /* ty=Tensor[(10, 20), float32] span=from_string:19:101 */;
  let %x_20: Tensor[(10, 92), float32] /* ty=Tensor[(10, 92), float32] span=from_string:21:119 */ = nn.dense(%x_19, %x5, units=None) /* ty=Tensor[(10, 92), float32] span=from_string:20:101 */;
  let %x_21: Tensor[(10, 92, 1), float32] /* ty=Tensor[(10, 92, 1), float32] span=from_string:24:172 */ = expand_dims(%x_20, axis=2) /* ty=Tensor[(10, 92, 1), float32] span=from_string:21:107 */;
  let %x_22: Tensor[(10, 59), float32] /* ty=Tensor[(10, 59), float32] span=from_string:23:119 */ = nn.dense(%x_19, %x6, units=None) /* ty=Tensor[(10, 59), float32] span=from_string:22:101 */;
  let %x_23: Tensor[(10, 59, 1), float32] /* ty=Tensor[(10, 59, 1), float32] span=from_string:24:179 */ = expand_dims(%x_22, axis=2) /* ty=Tensor[(10, 59, 1), float32] span=from_string:23:107 */;
  let %x_24: (Tensor[(10, 92, 1), float32], Tensor[(10, 59, 1), float32]) /* ty=(Tensor[(10, 92, 1), float32], Tensor[(10, 59, 1), float32]) span=from_string:36:537 */ = (%x_21, %x_23) /* ty=(Tensor[(10, 92, 1), float32], Tensor[(10, 59, 1), float32]) span=from_string:24:171 */;
  let %x_25: Tensor[(19, 21), float32] /* ty=Tensor[(19, 21), float32] span=from_string:26:105 */ = nn.dense(%x_12, %x7, units=None) /* ty=Tensor[(19, 21), float32] span=from_string:25:101 */;
  let %x_26: Tensor[(19, 21), float32] /* ty=Tensor[(19, 21), float32] span=from_string:27:111 */ = add(%x_25, %x8) /* ty=Tensor[(19, 21), float32] span=from_string:26:101 */;
  let %x_27: Tensor[(19, 21), float32] /* ty=Tensor[(19, 21), float32] span=from_string:28:115 */ = multiply(%x_26, %x9) /* ty=Tensor[(19, 21), float32] span=from_string:27:102 */;
  let %x_28: Tensor[(1, 1, 399), float32] /* ty=Tensor[(1, 1, 399), float32] span=from_string:33:172 */ = reshape(%x_27, newshape=[1, 1, 399]) /* ty=Tensor[(1, 1, 399), float32] span=from_string:28:107 */;
  let %x_29: Tensor[(19, 42), float32] /* ty=Tensor[(19, 42), float32] span=from_string:30:105 */ = nn.dense(%x_12, %x10, units=None) /* ty=Tensor[(19, 42), float32] span=from_string:29:101 */;
  let %x_30: Tensor[(19, 42), float32] /* ty=Tensor[(19, 42), float32] span=from_string:31:111 */ = add(%x_29, %x11) /* ty=Tensor[(19, 42), float32] span=from_string:30:101 */;
  let %x_31: Tensor[(19, 42), float32] /* ty=Tensor[(19, 42), float32] span=from_string:32:115 */ = multiply(%x_30, %x12) /* ty=Tensor[(19, 42), float32] span=from_string:31:102 */;
  let %x_32: Tensor[(1, 1, 798), float32] /* ty=Tensor[(1, 1, 798), float32] span=from_string:33:179 */ = reshape(%x_31, newshape=[1, 1, 798]) /* ty=Tensor[(1, 1, 798), float32] span=from_string:32:107 */;
  let %x_33: (Tensor[(1, 1, 399), float32], Tensor[(1, 1, 798), float32]) /* ty=(Tensor[(1, 1, 399), float32], Tensor[(1, 1, 798), float32]) span=from_string:36:544 */ = (%x_28, %x_32) /* ty=(Tensor[(1, 1, 399), float32], Tensor[(1, 1, 798), float32]) span=from_string:33:171 */;
  let %x_34: Tensor[(1), float32] /* ty=Tensor[(1), float32] span=from_string:35:101 */ = ones(shape=[1], dtype="float32") /* ty=Tensor[(1), float32] span=from_string:34:91 */;
  let %x_35: Tensor[(1), float32] /* ty=Tensor[(1), float32] span=from_string:36:551 */ = multiply(%x_34, %x12) /* ty=Tensor[(1), float32] span=from_string:35:92 */;
  let %x_37: (Tensor[(10, 20), float32], (Tensor[(19, 10), float32], Tensor[(19, 10), float32]), (Tensor[(10, 92, 1), float32], Tensor[(10, 59, 1), float32]), (Tensor[(1, 1, 399), float32], Tensor[(1, 1, 798), float32]), Tensor[(1), float32], int32) /* ty=(Tensor[(10, 20), float32], (Tensor[(19, 10), float32], Tensor[(19, 10), float32]), (Tensor[(10, 92, 1), float32], Tensor[(10, 59, 1), float32]), (Tensor[(1, 1, 399), float32], Tensor[(1, 1, 798), float32]), Tensor[(1), float32], int32) span=from_string:37:3 */ = (%x_8, %x_15, %x_24, %x_33, %x_35, 590 /* ty=int32 span=from_string:36:561 */) /* ty=(Tensor[(10, 20), float32], (Tensor[(19, 10), float32], Tensor[(19, 10), float32]), (Tensor[(10, 92, 1), float32], Tensor[(10, 59, 1), float32]), (Tensor[(1, 1, 399), float32], Tensor[(1, 1, 798), float32]), Tensor[(1), float32], int32) span=from_string:36:523 */;
  %x_37
}
