#[version = "0.0.5"]
def @main(%x0: Tensor[(10, 20), float32] /* ty=Tensor[(10, 20), float32] span=from_string:7:101 */, %x1: Tensor[(19, 20), float32] /* ty=Tensor[(19, 20), float32] span=from_string:52:104 */, %x2: Tensor[(10, 20), float32] /* ty=Tensor[(10, 20), float32] span=from_string:52:109 */, %x3: Tensor[(10), float32] /* ty=Tensor[(10), float32] span=from_string:48:111 */, %x4: Tensor[(10), float32] /* ty=Tensor[(10), float32] span=from_string:56:111 */, %x5: Tensor[(92, 20), float32] /* ty=Tensor[(92, 20), float32] span=from_string:74:111 */, %x6: Tensor[(59, 20), float32] /* ty=Tensor[(59, 20), float32] span=from_string:82:111 */, %x7: Tensor[(21, 10), float32] /* ty=Tensor[(21, 10), float32] span=from_string:91:111 */, %x8: Tensor[(21), float32] /* ty=Tensor[(21), float32] span=from_string:95:111 */, %x9: Tensor[(1), float32] /* ty=Tensor[(1), float32] span=from_string:99:111 */, %x10: Tensor[(42, 10), float32] /* ty=Tensor[(42, 10), float32] span=from_string:107:111 */, %x11: Tensor[(42), float32] /* ty=Tensor[(42), float32] span=from_string:111:111 */, %x12: Tensor[(1), float32] /* ty=Tensor[(1), float32] span=from_string:128:101 */, %x13: Tensor[(10, 59, 1), float32] /* ty=Tensor[(10, 59, 1), float32] */) -> (Tensor[(10, 20), float32], (Tensor[(19, 10), float32], Tensor[(19, 10), float32]), (Tensor[(10, 92, 1), float32], Tensor[(10, 59, 1), float32]), (Tensor[(1, 1, 399), float32], Tensor[(1, 1, 798), float32]), Tensor[(1), float32], int32) {
  let %x_0: float32 /* ty=float32 span=from_string:7:106 */ = 1f /* ty=float32 span=from_string:3:64 */;
  let %x_1: Tensor[(10, 20), float32] /* ty=Tensor[(10, 20), float32] span=from_string:11:102 */ = add(%x0, %x_0) /* ty=Tensor[(10, 20), float32] span=from_string:5:5 */;
  let %x_2: Tensor[(10, 20), float32] /* ty=Tensor[(10, 20), float32] span=from_string:62:104 */ = exp(%x_1) /* ty=Tensor[(10, 20), float32] span=from_string:9:5 */;
  let %x_3: Tensor[(10, 20), float32] /* ty=Tensor[(10, 20), float32] span=from_string:40:109 */ = squeeze(%x_2) /* ty=Tensor[(10, 20), float32] span=from_string:13:5 */;
  let %x_4: float32 /* ty=float32 span=from_string:20:107 */ = 1f /* ty=float32 span=from_string:16:64 */;
  let %x_5: Tensor[(10, 20), float32] /* ty=Tensor[(10, 20), float32] span=from_string:24:102 */ = add(%x_3, %x_4) /* ty=Tensor[(10, 20), float32] span=from_string:18:5 */;
  let %x_6: Tensor[(10, 20), float32] /* ty=Tensor[(10, 20), float32] span=from_string:28:102 */ = exp(%x_5) /* ty=Tensor[(10, 20), float32] span=from_string:22:5 */;
  let %x_7: Tensor[(10, 20), float32] /* ty=Tensor[(10, 20), float32] span=from_string:32:102 */ = squeeze(%x_6) /* ty=Tensor[(10, 20), float32] span=from_string:26:5 */;
  let %x_8: Tensor[(10, 20), float32] /* ty=Tensor[(10, 20), float32] span=from_string:130:524 */ = add(%x_7, %x_7) /* ty=Tensor[(10, 20), float32] span=from_string:30:5 */;
  let %x_9: Tensor[(1), float32] /* ty=Tensor[(1), float32] span=from_string:40:103 */ = ones(shape=[1], dtype="float32") /* ty=Tensor[(1), float32] span=from_string:34:5 */;
  let %x_10: Tensor[(10, 20), float32] /* ty=Tensor[(10, 20), float32] span=from_string:44:108 */ = multiply(%x_9, %x_3) /* ty=Tensor[(10, 20), float32] span=from_string:38:6 */;
  let %x_11: Tensor[(19, 10), float32] /* ty=Tensor[(19, 10), float32] span=from_string:48:104 */ = nn.dense(%x1, %x_10, units=None) /* ty=Tensor[(19, 10), float32] span=from_string:42:5 */;
  let %x_12: Tensor[(19, 10), float32] /* ty=Tensor[(19, 10), float32] span=from_string:107:104 */ = add(%x_11, %x3) /* ty=Tensor[(19, 10), float32] span=from_string:46:5 */;
  let %x_13: Tensor[(19, 10), float32] /* ty=Tensor[(19, 10), float32] span=from_string:56:104 */ = nn.dense(%x1, %x2, units=None) /* ty=Tensor[(19, 10), float32] span=from_string:50:5 */;
  let %x_14: Tensor[(19, 10), float32] /* ty=Tensor[(19, 10), float32] span=from_string:57:166 */ = add(%x_13, %x4) /* ty=Tensor[(19, 10), float32] span=from_string:54:5 */;
  let %x_15: (Tensor[(19, 10), float32], Tensor[(19, 10), float32]) /* ty=(Tensor[(19, 10), float32], Tensor[(19, 10), float32]) span=from_string:130:530 */ = (%x_12, %x_14) /* ty=(Tensor[(19, 10), float32], Tensor[(19, 10), float32]) span=from_string:57:158 */;
  let %x_16: float32 /* ty=float32 span=from_string:62:110 */ = 1f /* ty=float32 span=from_string:58:66 */;
  let %x_17: Tensor[(10, 20), float32] /* ty=Tensor[(10, 20), float32] span=from_string:66:104 */ = add(%x_2, %x_16) /* ty=Tensor[(10, 20), float32] span=from_string:60:5 */;
  let %x_18: Tensor[(10, 20), float32] /* ty=Tensor[(10, 20), float32] span=from_string:70:104 */ = exp(%x_17) /* ty=Tensor[(10, 20), float32] span=from_string:64:5 */;
  let %x_19: Tensor[(10, 20), float32] /* ty=Tensor[(10, 20), float32] span=from_string:82:104 */ = squeeze(%x_18) /* ty=Tensor[(10, 20), float32] span=from_string:68:5 */;
  let %x_20: Tensor[(10, 92), float32] /* ty=Tensor[(10, 92), float32] span=from_string:78:110 */ = nn.dense(%x_19, %x5, units=None) /* ty=Tensor[(10, 92), float32] span=from_string:72:5 */;
  let %x_21: Tensor[(10, 92, 1), float32] /* ty=Tensor[(10, 92, 1), float32] span=from_string:87:171 */ = expand_dims(%x_20, axis=2) /* ty=Tensor[(10, 92, 1), float32] span=from_string:76:5 */;
  let %x_22: Tensor[(10, 59), float32] /* ty=Tensor[(10, 59), float32] span=from_string:86:110 */ = nn.dense(%x_19, %x6, units=None) /* ty=Tensor[(10, 59), float32] span=from_string:80:5 */;
  let %x_23: Tensor[(10, 59, 1), float32] /* ty=Tensor[(10, 59, 1), float32] span=from_string:87:178 */ = expand_dims(%x_22, axis=2) /* ty=Tensor[(10, 59, 1), float32] span=from_string:84:5 */;
  let %x_24: (Tensor[(10, 92, 1), float32], Tensor[(10, 59, 1), float32]) /* ty=(Tensor[(10, 92, 1), float32], Tensor[(10, 59, 1), float32]) span=from_string:130:537 */ = (%x_21, %x_23) /* ty=(Tensor[(10, 92, 1), float32], Tensor[(10, 59, 1), float32]) span=from_string:87:170 */;
  let %x_25: Tensor[(19, 21), float32] /* ty=Tensor[(19, 21), float32] span=from_string:95:104 */ = nn.dense(%x_12, %x7, units=None) /* ty=Tensor[(19, 21), float32] span=from_string:89:5 */;
  let %x_26: Tensor[(19, 21), float32] /* ty=Tensor[(19, 21), float32] span=from_string:99:104 */ = add(%x_25, %x8) /* ty=Tensor[(19, 21), float32] span=from_string:93:5 */;
  let %x_27: Tensor[(19, 21), float32] /* ty=Tensor[(19, 21), float32] span=from_string:103:110 */ = multiply(%x_26, %x9) /* ty=Tensor[(19, 21), float32] span=from_string:97:6 */;
  let %x_28: Tensor[(1, 1, 399), float32] /* ty=Tensor[(1, 1, 399), float32] span=from_string:120:171 */ = reshape(%x_27, newshape=[1, 1, 399]) /* ty=Tensor[(1, 1, 399), float32] span=from_string:101:5 */;
  let %x_29: Tensor[(19, 42), float32] /* ty=Tensor[(19, 42), float32] span=from_string:111:104 */ = nn.dense(%x_12, %x10, units=None) /* ty=Tensor[(19, 42), float32] span=from_string:105:5 */;
  let %x_30: Tensor[(19, 42), float32] /* ty=Tensor[(19, 42), float32] span=from_string:115:104 */ = add(%x_29, %x11) /* ty=Tensor[(19, 42), float32] span=from_string:109:5 */;
  let %x_31: Tensor[(19, 42), float32] /* ty=Tensor[(19, 42), float32] span=from_string:119:110 */ = multiply(%x_30, %x12) /* ty=Tensor[(19, 42), float32] span=from_string:113:6 */;
  let %x_32: Tensor[(1, 1, 798), float32] /* ty=Tensor[(1, 1, 798), float32] span=from_string:120:178 */ = reshape(%x_31, newshape=[1, 1, 798]) /* ty=Tensor[(1, 1, 798), float32] span=from_string:117:5 */;
  let %x_33: (Tensor[(1, 1, 399), float32], Tensor[(1, 1, 798), float32]) /* ty=(Tensor[(1, 1, 399), float32], Tensor[(1, 1, 798), float32]) span=from_string:130:544 */ = (%x_28, %x_32) /* ty=(Tensor[(1, 1, 399), float32], Tensor[(1, 1, 798), float32]) span=from_string:120:170 */;
  let %x_34: Tensor[(1), float32] /* ty=Tensor[(1), float32] span=from_string:128:94 */ = ones(shape=[1], dtype="float32") /* ty=Tensor[(1), float32] span=from_string:122:5 */;
  let %x_35: Tensor[(1), float32] /* ty=Tensor[(1), float32] span=from_string:130:551 */ = multiply(%x_34, %x12) /* ty=Tensor[(1), float32] span=from_string:126:6 */;
  let %x_36: int32 /* ty=int32 span=from_string:130:558 */ = 590 /* ty=int32 span=from_string:129:65 */;
  let %x_37: (Tensor[(10, 20), float32], (Tensor[(19, 10), float32], Tensor[(19, 10), float32]), (Tensor[(10, 92, 1), float32], Tensor[(10, 59, 1), float32]), (Tensor[(1, 1, 399), float32], Tensor[(1, 1, 798), float32]), Tensor[(1), float32], int32) /* ty=(Tensor[(10, 20), float32], (Tensor[(19, 10), float32], Tensor[(19, 10), float32]), (Tensor[(10, 92, 1), float32], Tensor[(10, 59, 1), float32]), (Tensor[(1, 1, 399), float32], Tensor[(1, 1, 798), float32]), Tensor[(1), float32], int32) span=from_string:131:3 */ = (%x_8, %x_15, %x_24, %x_33, %x_35, %x_36) /* ty=(Tensor[(10, 20), float32], (Tensor[(19, 10), float32], Tensor[(19, 10), float32]), (Tensor[(10, 92, 1), float32], Tensor[(10, 59, 1), float32]), (Tensor[(1, 1, 399), float32], Tensor[(1, 1, 798), float32]), Tensor[(1), float32], int32) span=from_string:130:523 */;
  %x_37
}
