#[version = "0.0.5"]
def @main(%x0: Tensor[(10, 20), float32] /* ty=Tensor[(10, 20), float32] span=from_string:3:13 */, %x1: Tensor[(19, 20), float32] /* ty=Tensor[(19, 20), float32] span=from_string:15:14 */, %x2: Tensor[(10, 20), float32] /* ty=Tensor[(10, 20), float32] span=from_string:20:14 */, %x3: Tensor[(10), float32] /* ty=Tensor[(10), float32] span=from_string:17:14 */, %x4: Tensor[(10), float32] /* ty=Tensor[(10), float32] span=from_string:21:14 */, %x5: Tensor[(92, 20), float32] /* ty=Tensor[(92, 20), float32] span=from_string:30:14 */, %x6: Tensor[(59, 20), float32] /* ty=Tensor[(59, 20), float32] span=from_string:32:14 */, %x7: Tensor[(21, 10), float32] /* ty=Tensor[(21, 10), float32] span=from_string:36:14 */, %x8: Tensor[(21), float32] /* ty=Tensor[(21), float32] span=from_string:37:14 */, %x9: Tensor[(1), float32] /* ty=Tensor[(1), float32] span=from_string:41:14 */, %x10: Tensor[(42, 10), float32] /* ty=Tensor[(42, 10), float32] span=from_string:43:14 */, %x11: Tensor[(42), float32] /* ty=Tensor[(42), float32] span=from_string:44:14 */, %x12: Tensor[(1), float32] /* ty=Tensor[(1), float32] span=from_string:48:14 */, %x13: Tensor[(10, 59, 1), float32] /* ty=Tensor[(10, 59, 1), float32] */) -> (Tensor[(10, 20), float32], (Tensor[(19, 10), float16], Tensor[(19, 10), float16]), (Tensor[(10, 92, 1), float16], Tensor[(10, 59, 1), float16]), (Tensor[(1, 1, 399), float16], Tensor[(1, 1, 798), float16]), Tensor[(1), float16], int32) {
  %0 = cast(%x0, dtype="float16") /* ty=Tensor[(10, 20), float16] span=from_string:5:12 */;
  %1 = cast(1f /* ty=float32 span=from_string:4:15 */, dtype="float16") /* ty=float16 span=from_string:5:16 */;
  %2 = add(%0, %1) /* ty=Tensor[(10, 20), float16] span=from_string:6:13 */;
  %3 = cast(%2, dtype="float32") /* ty=Tensor[(10, 20), float32] span=from_string:7:12 */;
  %4 = fast_exp(%3) /* ty=Tensor[(10, 20), float32] */;
  %5 = squeeze(%4) /* ty=Tensor[(10, 20), float32] span=from_string:14:24 */;
  %6 = add(%5, 1f /* ty=float32 span=from_string:9:18 */) /* ty=Tensor[(10, 20), float32] span=from_string:10:12 */;
  %7 = fast_exp(%6) /* ty=Tensor[(10, 20), float32] */;
  %8 = squeeze(%7) /* ty=Tensor[(10, 20), float32] span=from_string:52:19 */;
  %9 = ones(shape=[1], dtype="float16") /* ty=Tensor[(1), float16] span=from_string:13:14 */;
  %10 = cast(%9, dtype="float32") /* ty=Tensor[(1), float32] span=from_string:14:19 */;
  %11 = multiply(%10, %5) /* ty=Tensor[(10, 20), float32] span=from_string:16:14 */;
  %12 = cast(%x1, dtype="float16") /* ty=Tensor[(19, 20), float16] span=from_string:22:18 */;
  %13 = cast(%11, dtype="float16") /* ty=Tensor[(10, 20), float16] span=from_string:18:23 */;
  %14 = cast(%x3, dtype="float16") /* ty=Tensor[(10), float16] span=from_string:19:21 */;
  %15 = nn.dense(%12, %13, units=None, out_dtype="float16") /* ty=Tensor[(19, 10), float16] span=from_string:24:13 */;
  %16 = expand_dims(%14, axis=0) /* ty=Tensor[(1, 10), float16] span=from_string:24:18 */;
  %17 = cast(%x2, dtype="float16") /* ty=Tensor[(10, 20), float16] span=from_string:22:23 */;
  %18 = cast(%x4, dtype="float16") /* ty=Tensor[(10), float16] span=from_string:23:21 */;
  %19 = nn.dense(%12, %17, units=None, out_dtype="float16") /* ty=Tensor[(19, 10), float16] span=from_string:25:13 */;
  %20 = expand_dims(%18, axis=0) /* ty=Tensor[(1, 10), float16] span=from_string:25:18 */;
  %21 = add(%15, %16) /* ty=Tensor[(19, 10), float16] span=from_string:53:10 */;
  %22 = add(%19, %20) /* ty=Tensor[(19, 10), float16] span=from_string:53:15 */;
  %23 = add(%4, 1f /* ty=float32 span=from_string:26:19 */) /* ty=Tensor[(10, 20), float32] span=from_string:27:13 */;
  %24 = fast_exp(%23) /* ty=Tensor[(10, 20), float32] */;
  %25 = squeeze(%24) /* ty=Tensor[(10, 20), float32] span=from_string:29:14 */;
  %26 = cast(%25, dtype="float16") /* ty=Tensor[(10, 20), float16] span=from_string:33:18 */;
  %27 = cast(%x5, dtype="float16") /* ty=Tensor[(92, 20), float16] span=from_string:31:23 */;
  %28 = nn.dense(%26, %27, units=None, out_dtype="float16") /* ty=Tensor[(10, 92), float16] span=from_string:34:21 */;
  %29 = cast(%x6, dtype="float16") /* ty=Tensor[(59, 20), float16] span=from_string:33:23 */;
  %30 = nn.dense(%26, %29, units=None, out_dtype="float16") /* ty=Tensor[(10, 59), float16] span=from_string:35:21 */;
  %31 = expand_dims(%28, axis=2) /* ty=Tensor[(10, 92, 1), float16] span=from_string:54:10 */;
  %32 = expand_dims(%30, axis=2) /* ty=Tensor[(10, 59, 1), float16] span=from_string:54:15 */;
  %33 = cast(%x7, dtype="float16") /* ty=Tensor[(21, 10), float16] span=from_string:38:23 */;
  %34 = cast(%x8, dtype="float16") /* ty=Tensor[(21), float16] span=from_string:39:21 */;
  %35 = nn.dense(%21, %33, units=None, out_dtype="float16") /* ty=Tensor[(19, 21), float16] span=from_string:40:13 */;
  %36 = expand_dims(%34, axis=0) /* ty=Tensor[(1, 21), float16] span=from_string:40:18 */;
  %37 = add(%35, %36) /* ty=Tensor[(19, 21), float16] span=from_string:42:19 */;
  %38 = cast(%x9, dtype="float16") /* ty=Tensor[(1), float16] span=from_string:42:24 */;
  %39 = multiply(%37, %38) /* ty=Tensor[(19, 21), float16] span=from_string:50:17 */;
  %40 = cast(%x10, dtype="float16") /* ty=Tensor[(42, 10), float16] span=from_string:45:23 */;
  %41 = cast(%x11, dtype="float16") /* ty=Tensor[(42), float16] span=from_string:46:21 */;
  %42 = nn.dense(%21, %40, units=None, out_dtype="float16") /* ty=Tensor[(19, 42), float16] span=from_string:47:13 */;
  %43 = expand_dims(%41, axis=0) /* ty=Tensor[(1, 42), float16] span=from_string:47:18 */;
  %44 = add(%42, %43) /* ty=Tensor[(19, 42), float16] span=from_string:49:19 */;
  %45 = cast(%x12, dtype="float16") /* ty=Tensor[(1), float16] span=from_string:56:24 */;
  %46 = multiply(%44, %45) /* ty=Tensor[(19, 42), float16] span=from_string:51:17 */;
  %47 = reshape(%39, newshape=[1, 1, 399]) /* ty=Tensor[(1, 1, 399), float16] span=from_string:55:10 */;
  %48 = reshape(%46, newshape=[1, 1, 798]) /* ty=Tensor[(1, 1, 798), float16] span=from_string:55:15 */;
  %49 = multiply(%8, 2f /* ty=float32 span=from_string:52:25 */) /* ty=Tensor[(10, 20), float32] span=from_string:56:4 */;
  %50 = (%21, %22) /* ty=(Tensor[(19, 10), float16], Tensor[(19, 10), float16]) span=from_string:56:9 */;
  %51 = (%31, %32) /* ty=(Tensor[(10, 92, 1), float16], Tensor[(10, 59, 1), float16]) span=from_string:56:14 */;
  %52 = (%47, %48) /* ty=(Tensor[(1, 1, 399), float16], Tensor[(1, 1, 798), float16]) span=from_string:56:19 */;
  (%49, %50, %51, %52, %45, 590 /* ty=int32 span=from_string:56:32 */) /* ty=(Tensor[(10, 20), float32], (Tensor[(19, 10), float16], Tensor[(19, 10), float16]), (Tensor[(10, 92, 1), float16], Tensor[(10, 59, 1), float16]), (Tensor[(1, 1, 399), float16], Tensor[(1, 1, 798), float16]), Tensor[(1), float16], int32) span=from_string:3:3 */
}
