#[version = "0.0.5"]
def @main(%x0: Tensor[(10, 20), float32] /* ty=Tensor[(10, 20), float32] span=from_string:117:12 */, %x1: Tensor[(19, 20), float32] /* ty=Tensor[(19, 20), float32] span=from_string:33:13 */, %x2: Tensor[(10, 20), float32] /* ty=Tensor[(10, 20), float32] span=from_string:43:13 */, %x3: Tensor[(10), float32] /* ty=Tensor[(10), float32] span=from_string:49:23 */, %x4: Tensor[(10), float32] /* ty=Tensor[(10), float32] span=from_string:50:23 */, %x5: Tensor[(92, 20), float32] /* ty=Tensor[(92, 20), float32] span=from_string:61:13 */, %x6: Tensor[(59, 20), float32] /* ty=Tensor[(59, 20), float32] span=from_string:72:13 */, %x7: Tensor[(21, 10), float32] /* ty=Tensor[(21, 10), float32] span=from_string:85:13 */, %x8: Tensor[(21), float32] /* ty=Tensor[(21), float32] span=from_string:93:23 */, %x9: Tensor[(1), float32] /* ty=Tensor[(1), float32] span=from_string:93:28 */, %x10: Tensor[(42, 10), float32] /* ty=Tensor[(42, 10), float32] span=from_string:103:13 */, %x11: Tensor[(42), float32] /* ty=Tensor[(42), float32] span=from_string:111:23 */, %x12: Tensor[(1), float32] /* ty=Tensor[(1), float32] span=from_string:104:13 */, %x13: Tensor[(10, 59, 1), float32] /* ty=Tensor[(10, 59, 1), float32] */) -> (Tensor[(10, 20), float32], (Tensor[(19, 10), float16], Tensor[(19, 10), float16]), (Tensor[(10, 92, 1), float16], Tensor[(10, 59, 1), float16]), (Tensor[(1, 1, 399), float16], Tensor[(1, 1, 798), float16]), Tensor[(1), float16], int32) {
  %9 = fn (%p0: Tensor[(10, 20), float32] /* ty=Tensor[(10, 20), float32] span=from_string:4:15 */, Primitive=1) -> Tensor[(10, 20), float32] {
    %0 = cast(%p0, dtype="float16") /* ty=Tensor[(10, 20), float16] span=from_string:6:14 */;
    %1 = cast(1f /* ty=float32 span=from_string:5:17 */, dtype="float16") /* ty=float16 span=from_string:6:18 */;
    %2 = add(%0, %1) /* ty=Tensor[(10, 20), float16] span=from_string:7:15 */;
    %3 = cast(%2, dtype="float32") /* ty=Tensor[(10, 20), float32] span=from_string:8:14 */;
    %4 = exp(%3) /* ty=Tensor[(10, 20), float32] span=from_string:9:18 */;
    %5 = squeeze(%4) /* ty=Tensor[(10, 20), float32] span=from_string:10:14 */;
    %6 = add(%5, 1f /* ty=float32 span=from_string:10:20 */) /* ty=Tensor[(10, 20), float32] span=from_string:11:14 */;
    %7 = exp(%6) /* ty=Tensor[(10, 20), float32] span=from_string:12:18 */;
    %8 = squeeze(%7) /* ty=Tensor[(10, 20), float32] span=from_string:13:15 */;
    multiply(%8, 2f /* ty=float32 span=from_string:13:21 */) /* ty=Tensor[(10, 20), float32] span=from_string:4:5 */
  } /* ty=fn (Tensor[(10, 20), float32]) -> Tensor[(10, 20), float32] span=from_string:117:9 */;
  %13 = fn (%p02: Tensor[(19, 20), float32] /* ty=Tensor[(19, 20), float32] span=from_string:16:10 */, Primitive=1) -> Tensor[(19, 20), float16] {
    cast(%p02, dtype="float16") /* ty=Tensor[(19, 20), float16] span=from_string:16:5 */
  } /* ty=fn (Tensor[(19, 20), float32]) -> Tensor[(19, 20), float16] span=from_string:33:9 */;
  %22 = fn (%p04: Tensor[(10, 20), float32] /* ty=Tensor[(10, 20), float32] span=from_string:19:16 */, Primitive=1) -> Tensor[(10, 20), float32] {
    %18 = cast(%p04, dtype="float16") /* ty=Tensor[(10, 20), float16] span=from_string:21:15 */;
    %19 = cast(1f /* ty=float32 span=from_string:20:18 */, dtype="float16") /* ty=float16 span=from_string:21:20 */;
    %20 = add(%18, %19) /* ty=Tensor[(10, 20), float16] span=from_string:22:16 */;
    %21 = cast(%20, dtype="float32") /* ty=Tensor[(10, 20), float32] span=from_string:23:9 */;
    exp(%21) /* ty=Tensor[(10, 20), float32] span=from_string:19:5 */
  } /* ty=fn (Tensor[(10, 20), float32]) -> Tensor[(10, 20), float32] span=from_string:25:9 */;
  %23 = %22(%x0) /* ty=Tensor[(10, 20), float32] span=from_string:60:13 */;
  %24 = fn (%p03: Tensor[(10, 20), float32] /* ty=Tensor[(10, 20), float32] span=from_string:29:19 */, Primitive=1) -> Tensor[(10, 20), float16] {
    %14 = ones(shape=[1], dtype="float16") /* ty=Tensor[(1), float16] span=from_string:28:16 */;
    %15 = cast(%14, dtype="float32") /* ty=Tensor[(1), float32] span=from_string:30:21 */;
    %16 = squeeze(%p03) /* ty=Tensor[(10, 20), float32] span=from_string:30:26 */;
    %17 = multiply(%15, %16) /* ty=Tensor[(10, 20), float32] span=from_string:31:10 */;
    cast(%17, dtype="float16") /* ty=Tensor[(10, 20), float16] span=from_string:27:5 */
  } /* ty=fn (Tensor[(10, 20), float32]) -> Tensor[(10, 20), float16] span=from_string:34:9 */;
  %25 = %13(%x1) /* ty=Tensor[(19, 20), float16] span=from_string:50:13 */;
  %26 = %24(%23) /* ty=Tensor[(10, 20), float16] span=from_string:49:18 */;
  %27 = fn (%p01: Tensor[(19, 20), float16] /* ty=Tensor[(19, 20), float16] span=from_string:36:20 */, %p1: Tensor[(10, 20), float16] /* ty=Tensor[(10, 20), float16] span=from_string:36:26 */, %p2: Tensor[(10), float32] /* ty=Tensor[(10), float32] span=from_string:37:16 */, Primitive=1) -> Tensor[(19, 10), float16] {
    %10 = cast(%p2, dtype="float16") /* ty=Tensor[(10), float16] span=from_string:38:14 */;
    %11 = nn.dense(%p01, %p1, units=None, out_dtype="float16") /* ty=Tensor[(19, 10), float16] span=from_string:38:9 */;
    %12 = expand_dims(%10, axis=0) /* ty=Tensor[(1, 10), float16] */;
    add(%11, %12) /* ty=Tensor[(19, 10), float16] span=from_string:36:5 */
  } /* ty=fn (Tensor[(19, 20), float16], Tensor[(10, 20), float16], Tensor[(10), float32]) -> Tensor[(19, 10), float16] span=from_string:49:9 */;
  %31 = fn (%p06: Tensor[(10, 20), float32] /* ty=Tensor[(10, 20), float32] span=from_string:41:10 */, Primitive=1) -> Tensor[(10, 20), float16] {
    cast(%p06, dtype="float16") /* ty=Tensor[(10, 20), float16] span=from_string:41:5 */
  } /* ty=fn (Tensor[(10, 20), float32]) -> Tensor[(10, 20), float16] span=from_string:43:9 */;
  %32 = %31(%x2) /* ty=Tensor[(10, 20), float16] span=from_string:50:18 */;
  %33 = fn (%p05: Tensor[(19, 20), float16] /* ty=Tensor[(19, 20), float16] span=from_string:45:20 */, %p11: Tensor[(10, 20), float16] /* ty=Tensor[(10, 20), float16] span=from_string:45:26 */, %p21: Tensor[(10), float32] /* ty=Tensor[(10), float32] span=from_string:46:16 */, Primitive=1) -> Tensor[(19, 10), float16] {
    %28 = cast(%p21, dtype="float16") /* ty=Tensor[(10), float16] span=from_string:47:14 */;
    %29 = nn.dense(%p05, %p11, units=None, out_dtype="float16") /* ty=Tensor[(19, 10), float16] span=from_string:47:9 */;
    %30 = expand_dims(%28, axis=0) /* ty=Tensor[(1, 10), float16] */;
    add(%29, %30) /* ty=Tensor[(19, 10), float16] span=from_string:45:5 */
  } /* ty=fn (Tensor[(19, 20), float16], Tensor[(10, 20), float16], Tensor[(10), float32]) -> Tensor[(19, 10), float16] span=from_string:50:9 */;
  %34 = %27(%25, %26, %x3) /* ty=Tensor[(19, 10), float16] span=from_string:118:10 */;
  %35 = %33(%25, %32, %x4) /* ty=Tensor[(19, 10), float16] span=from_string:118:15 */;
  %39 = fn (%p09: Tensor[(10, 20), float32] /* ty=Tensor[(10, 20), float32] span=from_string:52:15 */, Primitive=1) -> Tensor[(10, 20), float16] {
    %36 = add(%p09, 1f /* ty=float32 span=from_string:52:23 */) /* ty=Tensor[(10, 20), float32] span=from_string:53:15 */;
    %37 = exp(%36) /* ty=Tensor[(10, 20), float32] span=from_string:54:19 */;
    %38 = squeeze(%37) /* ty=Tensor[(10, 20), float32] span=from_string:55:10 */;
    cast(%38, dtype="float16") /* ty=Tensor[(10, 20), float16] span=from_string:52:5 */
  } /* ty=fn (Tensor[(10, 20), float32]) -> Tensor[(10, 20), float16] span=from_string:60:9 */;
  %40 = fn (%p010: Tensor[(92, 20), float32] /* ty=Tensor[(92, 20), float32] span=from_string:58:10 */, Primitive=1) -> Tensor[(92, 20), float16] {
    cast(%p010, dtype="float16") /* ty=Tensor[(92, 20), float16] span=from_string:58:5 */
  } /* ty=fn (Tensor[(92, 20), float32]) -> Tensor[(92, 20), float16] span=from_string:61:9 */;
  %41 = %39(%23) /* ty=Tensor[(10, 20), float16] span=from_string:76:13 */;
  %42 = %40(%x5) /* ty=Tensor[(92, 20), float16] span=from_string:65:18 */;
  %43 = fn (%p08: Tensor[(10, 20), float16] /* ty=Tensor[(10, 20), float16] span=from_string:63:14 */, %p12: Tensor[(92, 20), float16] /* ty=Tensor[(92, 20), float16] span=from_string:63:20 */, Primitive=1) -> Tensor[(10, 92), float16] {
    nn.dense(%p08, %p12, units=None, out_dtype="float16") /* ty=Tensor[(10, 92), float16] span=from_string:63:5 */
  } /* ty=fn (Tensor[(10, 20), float16], Tensor[(92, 20), float16]) -> Tensor[(10, 92), float16] span=from_string:65:9 */;
  %44 = %43(%41, %42) /* ty=Tensor[(10, 92), float16] span=from_string:80:13 */;
  %45 = fn (%p07: Tensor[(10, 92), float16] /* ty=Tensor[(10, 92), float16] span=from_string:67:17 */, Primitive=1, relay.reshape_only=1) -> Tensor[(10, 92, 1), float16] {
    expand_dims(%p07, axis=2) /* ty=Tensor[(10, 92, 1), float16] span=from_string:67:5 */
  } /* ty=fn (Tensor[(10, 92), float16]) -> Tensor[(10, 92, 1), float16] span=from_string:80:9 */;
  %46 = fn (%p013: Tensor[(59, 20), float32] /* ty=Tensor[(59, 20), float32] span=from_string:70:10 */, Primitive=1) -> Tensor[(59, 20), float16] {
    cast(%p013, dtype="float16") /* ty=Tensor[(59, 20), float16] span=from_string:70:5 */
  } /* ty=fn (Tensor[(59, 20), float32]) -> Tensor[(59, 20), float16] span=from_string:72:9 */;
  %47 = %46(%x6) /* ty=Tensor[(59, 20), float16] span=from_string:76:18 */;
  %48 = fn (%p012: Tensor[(10, 20), float16] /* ty=Tensor[(10, 20), float16] span=from_string:74:14 */, %p13: Tensor[(59, 20), float16] /* ty=Tensor[(59, 20), float16] span=from_string:74:21 */, Primitive=1) -> Tensor[(10, 59), float16] {
    nn.dense(%p012, %p13, units=None, out_dtype="float16") /* ty=Tensor[(10, 59), float16] span=from_string:74:5 */
  } /* ty=fn (Tensor[(10, 20), float16], Tensor[(59, 20), float16]) -> Tensor[(10, 59), float16] span=from_string:76:9 */;
  %49 = %48(%41, %47) /* ty=Tensor[(10, 59), float16] span=from_string:81:13 */;
  %50 = fn (%p011: Tensor[(10, 59), float16] /* ty=Tensor[(10, 59), float16] span=from_string:78:17 */, Primitive=1, relay.reshape_only=1) -> Tensor[(10, 59, 1), float16] {
    expand_dims(%p011, axis=2) /* ty=Tensor[(10, 59, 1), float16] span=from_string:78:5 */
  } /* ty=fn (Tensor[(10, 59), float16]) -> Tensor[(10, 59, 1), float16] span=from_string:81:9 */;
  %51 = %45(%44) /* ty=Tensor[(10, 92, 1), float16] span=from_string:119:10 */;
  %52 = %50(%49) /* ty=Tensor[(10, 59, 1), float16] span=from_string:119:15 */;
  %58 = fn (%p016: Tensor[(21, 10), float32] /* ty=Tensor[(21, 10), float32] span=from_string:83:10 */, Primitive=1) -> Tensor[(21, 10), float16] {
    cast(%p016, dtype="float16") /* ty=Tensor[(21, 10), float16] span=from_string:83:5 */
  } /* ty=fn (Tensor[(21, 10), float32]) -> Tensor[(21, 10), float16] span=from_string:85:9 */;
  %59 = %58(%x7) /* ty=Tensor[(21, 10), float16] span=from_string:93:18 */;
  %60 = fn (%p015: Tensor[(19, 10), float16] /* ty=Tensor[(19, 10), float16] span=from_string:87:20 */, %p14: Tensor[(21, 10), float16] /* ty=Tensor[(21, 10), float16] span=from_string:87:27 */, %p22: Tensor[(21), float32] /* ty=Tensor[(21), float32] span=from_string:88:16 */, %p3: Tensor[(1), float32] /* ty=Tensor[(1), float32] span=from_string:90:16 */, Primitive=1) -> Tensor[(19, 21), float16] {
    %53 = cast(%p22, dtype="float16") /* ty=Tensor[(21), float16] span=from_string:89:20 */;
    %54 = nn.dense(%p015, %p14, units=None, out_dtype="float16") /* ty=Tensor[(19, 21), float16] span=from_string:89:15 */;
    %55 = expand_dims(%53, axis=0) /* ty=Tensor[(1, 21), float16] */;
    %56 = add(%54, %55) /* ty=Tensor[(19, 21), float16] span=from_string:91:15 */;
    %57 = cast(%p3, dtype="float16") /* ty=Tensor[(1), float16] span=from_string:91:20 */;
    multiply(%56, %57) /* ty=Tensor[(19, 21), float16] span=from_string:87:5 */
  } /* ty=fn (Tensor[(19, 10), float16], Tensor[(21, 10), float16], Tensor[(21), float32], Tensor[(1), float32]) -> Tensor[(19, 21), float16] span=from_string:93:9 */;
  %61 = %60(%34, %59, %x8, %x9) /* ty=Tensor[(19, 21), float16] span=from_string:115:13 */;
  %62 = fn (%p014: Tensor[(19, 21), float16] /* ty=Tensor[(19, 21), float16] span=from_string:95:13 */, Primitive=1, relay.reshape_only=1) -> Tensor[(1, 1, 399), float16] {
    reshape(%p014, newshape=[1, 1, 399]) /* ty=Tensor[(1, 1, 399), float16] span=from_string:95:5 */
  } /* ty=fn (Tensor[(19, 21), float16]) -> Tensor[(1, 1, 399), float16] span=from_string:115:9 */;
  %67 = fn (%p019: Tensor[(42, 10), float32] /* ty=Tensor[(42, 10), float32] span=from_string:98:10 */, Primitive=1) -> Tensor[(42, 10), float16] {
    cast(%p019, dtype="float16") /* ty=Tensor[(42, 10), float16] span=from_string:98:5 */
  } /* ty=fn (Tensor[(42, 10), float32]) -> Tensor[(42, 10), float16] span=from_string:103:9 */;
  %68 = fn (%p020: Tensor[(1), float32] /* ty=Tensor[(1), float32] span=from_string:101:10 */, Primitive=1) -> Tensor[(1), float16] {
    cast(%p020, dtype="float16") /* ty=Tensor[(1), float16] span=from_string:101:5 */
  } /* ty=fn (Tensor[(1), float32]) -> Tensor[(1), float16] span=from_string:104:9 */;
  %69 = %67(%x10) /* ty=Tensor[(42, 10), float16] span=from_string:111:18 */;
  %70 = %68(%x12) /* ty=Tensor[(1), float16] span=from_string:121:24 */;
  %71 = fn (%p018: Tensor[(19, 10), float16] /* ty=Tensor[(19, 10), float16] span=from_string:106:20 */, %p15: Tensor[(42, 10), float16] /* ty=Tensor[(42, 10), float16] span=from_string:106:27 */, %p23: Tensor[(42), float32] /* ty=Tensor[(42), float32] span=from_string:107:16 */, %p31: Tensor[(1), float16] /* ty=Tensor[(1), float16] span=from_string:109:20 */, Primitive=1) -> Tensor[(19, 42), float16] {
    %63 = cast(%p23, dtype="float16") /* ty=Tensor[(42), float16] span=from_string:108:20 */;
    %64 = nn.dense(%p018, %p15, units=None, out_dtype="float16") /* ty=Tensor[(19, 42), float16] span=from_string:108:15 */;
    %65 = expand_dims(%63, axis=0) /* ty=Tensor[(1, 42), float16] */;
    %66 = add(%64, %65) /* ty=Tensor[(19, 42), float16] span=from_string:109:15 */;
    multiply(%66, %p31) /* ty=Tensor[(19, 42), float16] span=from_string:106:5 */
  } /* ty=fn (Tensor[(19, 10), float16], Tensor[(42, 10), float16], Tensor[(42), float32], Tensor[(1), float16]) -> Tensor[(19, 42), float16] span=from_string:111:9 */;
  %72 = %71(%34, %69, %x11, %70) /* ty=Tensor[(19, 42), float16] span=from_string:116:13 */;
  %73 = fn (%p017: Tensor[(19, 42), float16] /* ty=Tensor[(19, 42), float16] span=from_string:113:13 */, Primitive=1, relay.reshape_only=1) -> Tensor[(1, 1, 798), float16] {
    reshape(%p017, newshape=[1, 1, 798]) /* ty=Tensor[(1, 1, 798), float16] span=from_string:113:5 */
  } /* ty=fn (Tensor[(19, 42), float16]) -> Tensor[(1, 1, 798), float16] span=from_string:116:9 */;
  %74 = %62(%61) /* ty=Tensor[(1, 1, 399), float16] span=from_string:120:10 */;
  %75 = %73(%72) /* ty=Tensor[(1, 1, 798), float16] span=from_string:120:15 */;
  %76 = %9(%x0) /* ty=Tensor[(10, 20), float32] span=from_string:121:4 */;
  %77 = (%34, %35) /* ty=(Tensor[(19, 10), float16], Tensor[(19, 10), float16]) span=from_string:121:9 */;
  %78 = (%51, %52) /* ty=(Tensor[(10, 92, 1), float16], Tensor[(10, 59, 1), float16]) span=from_string:121:14 */;
  %79 = (%74, %75) /* ty=(Tensor[(1, 1, 399), float16], Tensor[(1, 1, 798), float16]) span=from_string:121:19 */;
  (%76, %77, %78, %79, %70, 590 /* ty=int32 span=from_string:121:32 */) /* ty=(Tensor[(10, 20), float32], (Tensor[(19, 10), float16], Tensor[(19, 10), float16]), (Tensor[(10, 92, 1), float16], Tensor[(10, 59, 1), float16]), (Tensor[(1, 1, 399), float16], Tensor[(1, 1, 798), float16]), Tensor[(1), float16], int32) span=from_string:3:3 */
}
