#[version = "0.0.5"]
def @main(%x0: Tensor[(10, 20), float32] /* ty=Tensor[(10, 20), float32] span=from_string:3:12 */, %x1: Tensor[(19, 20), float32] /* ty=Tensor[(19, 20), float32] span=from_string:13:18 */, %x2: Tensor[(10, 20), float32] /* ty=Tensor[(10, 20), float32] span=from_string:13:23 */, %x3: Tensor[(10), float32] /* ty=Tensor[(10), float32] span=from_string:12:20 */, %x4: Tensor[(10), float32] /* ty=Tensor[(10), float32] span=from_string:14:21 */, %x5: Tensor[(92, 20), float32] /* ty=Tensor[(92, 20), float32] span=from_string:20:23 */, %x6: Tensor[(59, 20), float32] /* ty=Tensor[(59, 20), float32] span=from_string:21:23 */, %x7: Tensor[(21, 10), float32] /* ty=Tensor[(21, 10), float32] span=from_string:24:23 */, %x8: Tensor[(21), float32] /* ty=Tensor[(21), float32] span=from_string:25:21 */, %x9: Tensor[(1), float32] /* ty=Tensor[(1), float32] span=from_string:27:24 */, %x10: Tensor[(42, 10), float32] /* ty=Tensor[(42, 10), float32] span=from_string:28:23 */, %x11: Tensor[(42), float32] /* ty=Tensor[(42), float32] span=from_string:29:21 */, %x12: Tensor[(1), float32] /* ty=Tensor[(1), float32] span=from_string:39:24 */, %x13: Tensor[(10, 59, 1), float32] /* ty=Tensor[(10, 59, 1), float32] */) -> (Tensor[(10, 20), float32], (Tensor[(19, 10), float32], Tensor[(19, 10), float32]), (Tensor[(10, 92, 1), float32], Tensor[(10, 59, 1), float32]), (Tensor[(1, 1, 399), float32], Tensor[(1, 1, 798), float32]), Tensor[(1), float32], int32) {
  let %x_0 = 1f /* ty=float32 span=from_string:3:19 */;
  let %x_1 = add(%x0, %x_0);
  let %x_2 = fast_exp(%x_1);
  let %x_3 = squeeze(%x_2);
  let %x_4 = 1f /* ty=float32 span=from_string:6:18 */;
  let %x_5 = add(%x_3, %x_4);
  let %x_6 = fast_exp(%x_5);
  let %x_7 = squeeze(%x_6);
  let %x_8 = add(%x_7, %x_7);
  let %x_9 = ones(shape=[1], dtype="float32");
  let %x_10 = multiply(%x_9, %x_3);
  let %x_11 = nn.dense(%x1, %x_10, units=None);
  let %x_12 = expand_dims(%x3, axis=0);
  let %x_13 = add(%x_11, %x_12);
  let %x_14 = nn.dense(%x1, %x2, units=None);
  let %x_15 = expand_dims(%x4, axis=0);
  let %x_16 = add(%x_14, %x_15);
  let %x_17 = (%x_13, %x_16) /* ty=(Tensor[(19, 10), float32], Tensor[(19, 10), float32]) span=from_string:40:9 */;
  let %x_18 = 1f /* ty=float32 span=from_string:17:19 */;
  let %x_19 = add(%x_2, %x_18);
  let %x_20 = fast_exp(%x_19);
  let %x_21 = squeeze(%x_20);
  let %x_22 = nn.dense(%x_21, %x5, units=None);
  let %x_23 = expand_dims(%x_22, axis=2);
  let %x_24 = nn.dense(%x_21, %x6, units=None);
  let %x_25 = expand_dims(%x_24, axis=2);
  let %x_26 = (%x_23, %x_25) /* ty=(Tensor[(10, 92, 1), float32], Tensor[(10, 59, 1), float32]) span=from_string:40:14 */;
  let %x_27 = nn.dense(%x_13, %x7, units=None);
  let %x_28 = expand_dims(%x8, axis=0);
  let %x_29 = add(%x_27, %x_28);
  let %x_30 = multiply(%x_29, %x9);
  let %x_31 = reshape(%x_30, newshape=[1, 1, 399]);
  let %x_32 = nn.dense(%x_13, %x10, units=None);
  let %x_33 = expand_dims(%x11, axis=0);
  let %x_34 = add(%x_32, %x_33);
  let %x_35 = multiply(%x_34, %x12);
  let %x_36 = reshape(%x_35, newshape=[1, 1, 798]);
  let %x_37 = (%x_31, %x_36) /* ty=(Tensor[(1, 1, 399), float32], Tensor[(1, 1, 798), float32]) span=from_string:40:19 */;
  let %x_38 = ones(shape=[1], dtype="float32");
  let %x_39 = multiply(%x_38, %x12);
  let %x_40 = 590 /* ty=int32 span=from_string:40:32 */;
  let %x_41 = (%x_8, %x_17, %x_26, %x_37, %x_39, %x_40) /* ty=(Tensor[(10, 20), float32], (Tensor[(19, 10), float32], Tensor[(19, 10), float32]), (Tensor[(10, 92, 1), float32], Tensor[(10, 59, 1), float32]), (Tensor[(1, 1, 399), float32], Tensor[(1, 1, 798), float32]), Tensor[(1), float32], int32) span=from_string:3:3 */;
  %x_41
}
