#[version = "0.0.5"]
def @main(%x0: Tensor[(10, 20), float32] /* ty=Tensor[(10, 20), float32] span=from_string:10:11 */, %x1: Tensor[(19, 20), float32] /* ty=Tensor[(19, 20), float32] span=from_string:30:13 */, %x2: Tensor[(10, 20), float32] /* ty=Tensor[(10, 20), float32] span=from_string:40:13 */, %x3: Tensor[(10), float32] /* ty=Tensor[(10), float32] span=from_string:46:23 */, %x4: Tensor[(10), float32] /* ty=Tensor[(10), float32] span=from_string:47:23 */, %x5: Tensor[(92, 20), float32] /* ty=Tensor[(92, 20), float32] span=from_string:58:13 */, %x6: Tensor[(59, 20), float32] /* ty=Tensor[(59, 20), float32] span=from_string:69:13 */, %x7: Tensor[(21, 10), float32] /* ty=Tensor[(21, 10), float32] span=from_string:82:13 */, %x8: Tensor[(21), float32] /* ty=Tensor[(21), float32] span=from_string:90:23 */, %x9: Tensor[(1), float32] /* ty=Tensor[(1), float32] span=from_string:90:28 */, %x10: Tensor[(42, 10), float32] /* ty=Tensor[(42, 10), float32] span=from_string:100:13 */, %x11: Tensor[(42), float32] /* ty=Tensor[(42), float32] span=from_string:108:23 */, %x12: Tensor[(1), float32] /* ty=Tensor[(1), float32] span=from_string:101:13 */, %x13: Tensor[(10, 59, 1), float32] /* ty=Tensor[(10, 59, 1), float32] */) -> (Tensor[(10, 20), float32], (Tensor[(19, 10), float16], Tensor[(19, 10), float16]), (Tensor[(10, 92, 1), float16], Tensor[(10, 59, 1), float16]), (Tensor[(1, 1, 399), float16], Tensor[(1, 1, 798), float16]), Tensor[(1), float16], int32) {
  let %x_0 = fn (%p02: Tensor[(10, 20), float32] /* ty=Tensor[(10, 20), float32] span=from_string:4:15 */, Primitive=1) -> Tensor[(10, 20), float32] {
    %0 = cast(%p02, dtype="float16") /* ty=Tensor[(10, 20), float16] span=from_string:6:14 */;
    %1 = cast(1f /* ty=float32 span=from_string:5:17 */, dtype="float16") /* ty=float16 span=from_string:6:18 */;
    %2 = add(%0, %1) /* ty=Tensor[(10, 20), float16] span=from_string:7:15 */;
    %3 = cast(%2, dtype="float32") /* ty=Tensor[(10, 20), float32] span=from_string:8:9 */;
    exp(%3) /* ty=Tensor[(10, 20), float32] span=from_string:4:5 */
  } /* ty=fn (Tensor[(10, 20), float32]) -> Tensor[(10, 20), float32] span=from_string:10:8 */;
  let %x_1 = %x_0(%x0);
  let %x_2 = fn (%p01: Tensor[(10, 20), float32] /* ty=Tensor[(10, 20), float32] span=from_string:12:13 */, Primitive=1, relay.reshape_only=1) -> Tensor[(10, 20), float32] {
    squeeze(%p01) /* ty=Tensor[(10, 20), float32] span=from_string:12:5 */
  } /* ty=fn (Tensor[(10, 20), float32]) -> Tensor[(10, 20), float32] span=from_string:14:9 */;
  let %x_3 = %x_2(%x_1);
  let %x_4 = fn (%p0: Tensor[(10, 20), float32] /* ty=Tensor[(10, 20), float32] span=from_string:16:14 */, Primitive=1) -> Tensor[(10, 20), float32] {
    %4 = add(%p0, 1f /* ty=float32 span=from_string:16:21 */) /* ty=Tensor[(10, 20), float32] span=from_string:17:14 */;
    %5 = exp(%4) /* ty=Tensor[(10, 20), float32] span=from_string:18:18 */;
    %6 = squeeze(%5) /* ty=Tensor[(10, 20), float32] span=from_string:19:15 */;
    multiply(%6, 2f /* ty=float32 span=from_string:19:21 */) /* ty=Tensor[(10, 20), float32] span=from_string:16:5 */
  } /* ty=fn (Tensor[(10, 20), float32]) -> Tensor[(10, 20), float32] span=from_string:117:9 */;
  let %x_5 = %x_4(%x_3);
  let %x_6 = fn (%p04: Tensor[(19, 20), float32] /* ty=Tensor[(19, 20), float32] span=from_string:22:10 */, Primitive=1) -> Tensor[(19, 20), float16] {
    cast(%p04, dtype="float16") /* ty=Tensor[(19, 20), float16] span=from_string:22:5 */
  } /* ty=fn (Tensor[(19, 20), float32]) -> Tensor[(19, 20), float16] span=from_string:30:9 */;
  let %x_7 = %x_6(%x1);
  let %x_8 = fn (%p05: Tensor[(10, 20), float32] /* ty=Tensor[(10, 20), float32] span=from_string:27:26 */, Primitive=1) -> Tensor[(10, 20), float16] {
    %7 = ones(shape=[1], dtype="float16") /* ty=Tensor[(1), float16] span=from_string:26:16 */;
    %8 = cast(%7, dtype="float32") /* ty=Tensor[(1), float32] span=from_string:27:21 */;
    %9 = multiply(%8, %p05) /* ty=Tensor[(10, 20), float32] span=from_string:28:10 */;
    cast(%9, dtype="float16") /* ty=Tensor[(10, 20), float16] span=from_string:25:5 */
  } /* ty=fn (Tensor[(10, 20), float32]) -> Tensor[(10, 20), float16] span=from_string:31:9 */;
  let %x_9 = %x_8(%x_3);
  let %x_10 = fn (%p03: Tensor[(19, 20), float16] /* ty=Tensor[(19, 20), float16] span=from_string:33:20 */, %p1: Tensor[(10, 20), float16] /* ty=Tensor[(10, 20), float16] span=from_string:33:26 */, %p2: Tensor[(10), float32] /* ty=Tensor[(10), float32] span=from_string:34:16 */, Primitive=1) -> Tensor[(19, 10), float16] {
    %10 = nn.dense(%p03, %p1, units=None, out_dtype="float16") /* ty=Tensor[(19, 10), float16] span=from_string:35:9 */;
    %11 = cast(%p2, dtype="float16") /* ty=Tensor[(10), float16] span=from_string:35:14 */;
    add(%10, %11) /* ty=Tensor[(19, 10), float16] span=from_string:33:5 */
  } /* ty=fn (Tensor[(19, 20), float16], Tensor[(10, 20), float16], Tensor[(10), float32]) -> Tensor[(19, 10), float16] span=from_string:46:9 */;
  let %x_11 = %x_10(%x_7, %x_9, %x3);
  let %x_12 = fn (%p07: Tensor[(10, 20), float32] /* ty=Tensor[(10, 20), float32] span=from_string:38:10 */, Primitive=1) -> Tensor[(10, 20), float16] {
    cast(%p07, dtype="float16") /* ty=Tensor[(10, 20), float16] span=from_string:38:5 */
  } /* ty=fn (Tensor[(10, 20), float32]) -> Tensor[(10, 20), float16] span=from_string:40:9 */;
  let %x_13 = %x_12(%x2);
  let %x_14 = fn (%p06: Tensor[(19, 20), float16] /* ty=Tensor[(19, 20), float16] span=from_string:42:20 */, %p11: Tensor[(10, 20), float16] /* ty=Tensor[(10, 20), float16] span=from_string:42:26 */, %p21: Tensor[(10), float32] /* ty=Tensor[(10), float32] span=from_string:43:16 */, Primitive=1) -> Tensor[(19, 10), float16] {
    %12 = nn.dense(%p06, %p11, units=None, out_dtype="float16") /* ty=Tensor[(19, 10), float16] span=from_string:44:9 */;
    %13 = cast(%p21, dtype="float16") /* ty=Tensor[(10), float16] span=from_string:44:14 */;
    add(%12, %13) /* ty=Tensor[(19, 10), float16] span=from_string:42:5 */
  } /* ty=fn (Tensor[(19, 20), float16], Tensor[(10, 20), float16], Tensor[(10), float32]) -> Tensor[(19, 10), float16] span=from_string:47:9 */;
  let %x_15 = %x_14(%x_7, %x_13, %x4);
  let %x_16 = (%x_11, %x_15) /* ty=(Tensor[(19, 10), float16], Tensor[(19, 10), float16]) span=from_string:122:9 */;
  let %x_17 = fn (%p010: Tensor[(10, 20), float32] /* ty=Tensor[(10, 20), float32] span=from_string:49:15 */, Primitive=1) -> Tensor[(10, 20), float16] {
    %14 = add(%p010, 1f /* ty=float32 span=from_string:49:24 */) /* ty=Tensor[(10, 20), float32] span=from_string:50:15 */;
    %15 = exp(%14) /* ty=Tensor[(10, 20), float32] span=from_string:51:19 */;
    %16 = squeeze(%15) /* ty=Tensor[(10, 20), float32] span=from_string:52:10 */;
    cast(%16, dtype="float16") /* ty=Tensor[(10, 20), float16] span=from_string:49:5 */
  } /* ty=fn (Tensor[(10, 20), float32]) -> Tensor[(10, 20), float16] span=from_string:57:9 */;
  let %x_18 = %x_17(%x_1);
  let %x_19 = fn (%p011: Tensor[(92, 20), float32] /* ty=Tensor[(92, 20), float32] span=from_string:55:10 */, Primitive=1) -> Tensor[(92, 20), float16] {
    cast(%p011, dtype="float16") /* ty=Tensor[(92, 20), float16] span=from_string:55:5 */
  } /* ty=fn (Tensor[(92, 20), float32]) -> Tensor[(92, 20), float16] span=from_string:58:9 */;
  let %x_20 = %x_19(%x5);
  let %x_21 = fn (%p09: Tensor[(10, 20), float16] /* ty=Tensor[(10, 20), float16] span=from_string:60:14 */, %p12: Tensor[(92, 20), float16] /* ty=Tensor[(92, 20), float16] span=from_string:60:20 */, Primitive=1) -> Tensor[(10, 92), float16] {
    nn.dense(%p09, %p12, units=None, out_dtype="float16") /* ty=Tensor[(10, 92), float16] span=from_string:60:5 */
  } /* ty=fn (Tensor[(10, 20), float16], Tensor[(92, 20), float16]) -> Tensor[(10, 92), float16] span=from_string:62:9 */;
  let %x_22 = %x_21(%x_18, %x_20);
  let %x_23 = fn (%p08: Tensor[(10, 92), float16] /* ty=Tensor[(10, 92), float16] span=from_string:64:17 */, Primitive=1, relay.reshape_only=1) -> Tensor[(10, 92, 1), float16] {
    expand_dims(%p08, axis=2) /* ty=Tensor[(10, 92, 1), float16] span=from_string:64:5 */
  } /* ty=fn (Tensor[(10, 92), float16]) -> Tensor[(10, 92, 1), float16] span=from_string:77:9 */;
  let %x_24 = %x_23(%x_22);
  let %x_25 = fn (%p014: Tensor[(59, 20), float32] /* ty=Tensor[(59, 20), float32] span=from_string:67:10 */, Primitive=1) -> Tensor[(59, 20), float16] {
    cast(%p014, dtype="float16") /* ty=Tensor[(59, 20), float16] span=from_string:67:5 */
  } /* ty=fn (Tensor[(59, 20), float32]) -> Tensor[(59, 20), float16] span=from_string:69:9 */;
  let %x_26 = %x_25(%x6);
  let %x_27 = fn (%p013: Tensor[(10, 20), float16] /* ty=Tensor[(10, 20), float16] span=from_string:71:14 */, %p13: Tensor[(59, 20), float16] /* ty=Tensor[(59, 20), float16] span=from_string:71:21 */, Primitive=1) -> Tensor[(10, 59), float16] {
    nn.dense(%p013, %p13, units=None, out_dtype="float16") /* ty=Tensor[(10, 59), float16] span=from_string:71:5 */
  } /* ty=fn (Tensor[(10, 20), float16], Tensor[(59, 20), float16]) -> Tensor[(10, 59), float16] span=from_string:73:9 */;
  let %x_28 = %x_27(%x_18, %x_26);
  let %x_29 = fn (%p012: Tensor[(10, 59), float16] /* ty=Tensor[(10, 59), float16] span=from_string:75:17 */, Primitive=1, relay.reshape_only=1) -> Tensor[(10, 59, 1), float16] {
    expand_dims(%p012, axis=2) /* ty=Tensor[(10, 59, 1), float16] span=from_string:75:5 */
  } /* ty=fn (Tensor[(10, 59), float16]) -> Tensor[(10, 59, 1), float16] span=from_string:78:9 */;
  let %x_30 = %x_29(%x_28);
  let %x_31 = (%x_24, %x_30) /* ty=(Tensor[(10, 92, 1), float16], Tensor[(10, 59, 1), float16]) span=from_string:122:14 */;
  let %x_32 = fn (%p017: Tensor[(21, 10), float32] /* ty=Tensor[(21, 10), float32] span=from_string:80:10 */, Primitive=1) -> Tensor[(21, 10), float16] {
    cast(%p017, dtype="float16") /* ty=Tensor[(21, 10), float16] span=from_string:80:5 */
  } /* ty=fn (Tensor[(21, 10), float32]) -> Tensor[(21, 10), float16] span=from_string:82:9 */;
  let %x_33 = %x_32(%x7);
  let %x_34 = fn (%p016: Tensor[(19, 10), float16] /* ty=Tensor[(19, 10), float16] span=from_string:84:20 */, %p14: Tensor[(21, 10), float16] /* ty=Tensor[(21, 10), float16] span=from_string:84:27 */, %p22: Tensor[(21), float32] /* ty=Tensor[(21), float32] span=from_string:85:16 */, %p3: Tensor[(1), float32] /* ty=Tensor[(1), float32] span=from_string:87:16 */, Primitive=1) -> Tensor[(19, 21), float16] {
    %17 = nn.dense(%p016, %p14, units=None, out_dtype="float16") /* ty=Tensor[(19, 21), float16] span=from_string:86:15 */;
    %18 = cast(%p22, dtype="float16") /* ty=Tensor[(21), float16] span=from_string:86:20 */;
    %19 = add(%17, %18) /* ty=Tensor[(19, 21), float16] span=from_string:88:15 */;
    %20 = cast(%p3, dtype="float16") /* ty=Tensor[(1), float16] span=from_string:88:20 */;
    multiply(%19, %20) /* ty=Tensor[(19, 21), float16] span=from_string:84:5 */
  } /* ty=fn (Tensor[(19, 10), float16], Tensor[(21, 10), float16], Tensor[(21), float32], Tensor[(1), float32]) -> Tensor[(19, 21), float16] span=from_string:90:9 */;
  let %x_35 = %x_34(%x_11, %x_33, %x8, %x9);
  let %x_36 = fn (%p015: Tensor[(19, 21), float16] /* ty=Tensor[(19, 21), float16] span=from_string:92:13 */, Primitive=1, relay.reshape_only=1) -> Tensor[(1, 1, 399), float16] {
    reshape(%p015, newshape=[1, 1, 399]) /* ty=Tensor[(1, 1, 399), float16] span=from_string:92:5 */
  } /* ty=fn (Tensor[(19, 21), float16]) -> Tensor[(1, 1, 399), float16] span=from_string:112:9 */;
  let %x_37 = %x_36(%x_35);
  let %x_38 = fn (%p020: Tensor[(42, 10), float32] /* ty=Tensor[(42, 10), float32] span=from_string:95:10 */, Primitive=1) -> Tensor[(42, 10), float16] {
    cast(%p020, dtype="float16") /* ty=Tensor[(42, 10), float16] span=from_string:95:5 */
  } /* ty=fn (Tensor[(42, 10), float32]) -> Tensor[(42, 10), float16] span=from_string:100:9 */;
  let %x_39 = %x_38(%x10);
  let %x_40 = fn (%p021: Tensor[(1), float32] /* ty=Tensor[(1), float32] span=from_string:98:10 */, Primitive=1) -> Tensor[(1), float16] {
    cast(%p021, dtype="float16") /* ty=Tensor[(1), float16] span=from_string:98:5 */
  } /* ty=fn (Tensor[(1), float32]) -> Tensor[(1), float16] span=from_string:101:9 */;
  let %x_41 = %x_40(%x12);
  let %x_42 = fn (%p019: Tensor[(19, 10), float16] /* ty=Tensor[(19, 10), float16] span=from_string:103:20 */, %p15: Tensor[(42, 10), float16] /* ty=Tensor[(42, 10), float16] span=from_string:103:27 */, %p23: Tensor[(42), float32] /* ty=Tensor[(42), float32] span=from_string:104:16 */, %p31: Tensor[(1), float16] /* ty=Tensor[(1), float16] span=from_string:106:20 */, Primitive=1) -> Tensor[(19, 42), float16] {
    %21 = nn.dense(%p019, %p15, units=None, out_dtype="float16") /* ty=Tensor[(19, 42), float16] span=from_string:105:15 */;
    %22 = cast(%p23, dtype="float16") /* ty=Tensor[(42), float16] span=from_string:105:20 */;
    %23 = add(%21, %22) /* ty=Tensor[(19, 42), float16] span=from_string:106:15 */;
    multiply(%23, %p31) /* ty=Tensor[(19, 42), float16] span=from_string:103:5 */
  } /* ty=fn (Tensor[(19, 10), float16], Tensor[(42, 10), float16], Tensor[(42), float32], Tensor[(1), float16]) -> Tensor[(19, 42), float16] span=from_string:108:9 */;
  let %x_43 = %x_42(%x_11, %x_39, %x11, %x_41);
  let %x_44 = fn (%p018: Tensor[(19, 42), float16] /* ty=Tensor[(19, 42), float16] span=from_string:110:13 */, Primitive=1, relay.reshape_only=1) -> Tensor[(1, 1, 798), float16] {
    reshape(%p018, newshape=[1, 1, 798]) /* ty=Tensor[(1, 1, 798), float16] span=from_string:110:5 */
  } /* ty=fn (Tensor[(19, 42), float16]) -> Tensor[(1, 1, 798), float16] span=from_string:113:9 */;
  let %x_45 = %x_44(%x_43);
  let %x_46 = (%x_37, %x_45) /* ty=(Tensor[(1, 1, 399), float16], Tensor[(1, 1, 798), float16]) span=from_string:122:19 */;
  let %x_47 = fn (%p022: Tensor[(1), float16] /* ty=Tensor[(1), float16] span=from_string:115:5 */, Primitive=1) -> Tensor[(1), float16] {
    %p022
  } /* ty=fn (Tensor[(1), float16]) -> Tensor[(1), float16] span=from_string:121:9 */;
  let %x_48 = %x_47(%x_41);
  let %x_49 = 590 /* ty=int32 span=from_string:122:32 */;
  let %x_50 = (%x_5, %x_16, %x_31, %x_46, %x_48, %x_49) /* ty=(Tensor[(10, 20), float32], (Tensor[(19, 10), float16], Tensor[(19, 10), float16]), (Tensor[(10, 92, 1), float16], Tensor[(10, 59, 1), float16]), (Tensor[(1, 1, 399), float16], Tensor[(1, 1, 798), float16]), Tensor[(1), float16], int32) span=from_string:3:3 */;
  %x_50
}
