#[version = "0.0.5"]
def @main(%x0: Tensor[(10, 20), float32] /* ty=Tensor[(10, 20), float32] span=from_string:9:12 */, %x1: Tensor[(19, 20), float32] /* ty=Tensor[(19, 20), float32] span=from_string:14:18 */, %x2: Tensor[(10, 20), float32] /* ty=Tensor[(10, 20), float32] span=from_string:14:23 */, %x3: Tensor[(10), float32] /* ty=Tensor[(10), float32] span=from_string:13:21 */, %x4: Tensor[(10), float32] /* ty=Tensor[(10), float32] span=from_string:15:21 */, %x5: Tensor[(92, 20), float32] /* ty=Tensor[(92, 20), float32] span=from_string:21:23 */, %x6: Tensor[(59, 20), float32] /* ty=Tensor[(59, 20), float32] span=from_string:22:23 */, %x7: Tensor[(21, 10), float32] /* ty=Tensor[(21, 10), float32] span=from_string:25:23 */, %x8: Tensor[(21), float32] /* ty=Tensor[(21), float32] span=from_string:26:21 */, %x9: Tensor[(1), float32] /* ty=Tensor[(1), float32] span=from_string:28:24 */, %x10: Tensor[(42, 10), float32] /* ty=Tensor[(42, 10), float32] span=from_string:29:23 */, %x11: Tensor[(42), float32] /* ty=Tensor[(42), float32] span=from_string:30:21 */, %x12: Tensor[(1), float32] /* ty=Tensor[(1), float32] span=from_string:39:24 */, %x13: Tensor[(10, 59, 1), float32] /* ty=Tensor[(10, 59, 1), float32] */) -> (Tensor[(10, 20), float32], (Tensor[(19, 10), float32], Tensor[(19, 10), float32]), (Tensor[(10, 92, 1), float32], Tensor[(10, 59, 1), float32]), (Tensor[(1, 1, 399), float32], Tensor[(1, 1, 798), float32]), Tensor[(1), float32], int32) {
  let %x_0 = 1f /* ty=float32 span=from_string:3:19 */;
  let %x_1 = add(%x0, %x_0);
  let %x_2 = fast_exp(%x_1);
  let %x_3 = squeeze(%x_2);
  let %x_4 = 1f /* ty=float32 span=from_string:6:18 */;
  let %x_5 = add(%x_3, %x_4);
  let %x_6 = fast_exp(%x_5);
  let %x_7 = squeeze(%x_6);
  let %x_8 = 2f /* ty=float32 span=from_string:35:25 */;
  let %x_9 = multiply(%x_7, %x_8);
  let %x_10 = 1f /* ty=float32 span=from_string:9:19 */;
  let %x_11 = add(%x0, %x_10);
  let %x_12 = fast_exp(%x_11);
  let %x_13 = squeeze(%x_12);
  let %x_14 = nn.dense(%x1, %x_13, units=None);
  let %x_15 = expand_dims(%x3, axis=0);
  let %x_16 = add(%x_14, %x_15);
  let %x_17 = nn.dense(%x1, %x2, units=None);
  let %x_18 = expand_dims(%x4, axis=0);
  let %x_19 = add(%x_17, %x_18);
  let %x_20 = (%x_16, %x_19) /* ty=(Tensor[(19, 10), float32], Tensor[(19, 10), float32]) span=from_string:39:9 */;
  let %x_21 = 1f /* ty=float32 span=from_string:18:19 */;
  let %x_22 = add(%x_12, %x_21);
  let %x_23 = fast_exp(%x_22);
  let %x_24 = squeeze(%x_23);
  let %x_25 = nn.dense(%x_24, %x5, units=None);
  let %x_26 = expand_dims(%x_25, axis=2);
  let %x_27 = nn.dense(%x_24, %x6, units=None);
  let %x_28 = expand_dims(%x_27, axis=2);
  let %x_29 = (%x_26, %x_28) /* ty=(Tensor[(10, 92, 1), float32], Tensor[(10, 59, 1), float32]) span=from_string:39:14 */;
  let %x_30 = nn.dense(%x_16, %x7, units=None);
  let %x_31 = expand_dims(%x8, axis=0);
  let %x_32 = add(%x_30, %x_31);
  let %x_33 = multiply(%x_32, %x9);
  let %x_34 = reshape(%x_33, newshape=[1, 1, 399]);
  let %x_35 = nn.dense(%x_16, %x10, units=None);
  let %x_36 = expand_dims(%x11, axis=0);
  let %x_37 = add(%x_35, %x_36);
  let %x_38 = multiply(%x_37, %x12);
  let %x_39 = reshape(%x_38, newshape=[1, 1, 798]);
  let %x_40 = (%x_34, %x_39) /* ty=(Tensor[(1, 1, 399), float32], Tensor[(1, 1, 798), float32]) span=from_string:39:19 */;
  let %x_41 = 590 /* ty=int32 span=from_string:39:33 */;
  let %x_42 = (%x_9, %x_20, %x_29, %x_40, %x12, %x_41) /* ty=(Tensor[(10, 20), float32], (Tensor[(19, 10), float32], Tensor[(19, 10), float32]), (Tensor[(10, 92, 1), float32], Tensor[(10, 59, 1), float32]), (Tensor[(1, 1, 399), float32], Tensor[(1, 1, 798), float32]), Tensor[(1), float32], int32) span=from_string:3:3 */;
  %x_42
}
