#[version = "0.0.5"]
def @main(%x0: Tensor[(10, 20), float32] /* ty=Tensor[(10, 20), float32] span=from_string:121:12 */, %x1: Tensor[(19, 20), float32] /* ty=Tensor[(19, 20), float32] span=from_string:33:13 */, %x2: Tensor[(10, 20), float32] /* ty=Tensor[(10, 20), float32] span=from_string:44:13 */, %x3: Tensor[(10), float32] /* ty=Tensor[(10), float32] span=from_string:51:23 */, %x4: Tensor[(10), float32] /* ty=Tensor[(10), float32] span=from_string:52:23 */, %x5: Tensor[(92, 20), float32] /* ty=Tensor[(92, 20), float32] span=from_string:63:13 */, %x6: Tensor[(59, 20), float32] /* ty=Tensor[(59, 20), float32] span=from_string:74:13 */, %x7: Tensor[(21, 10), float32] /* ty=Tensor[(21, 10), float32] span=from_string:87:13 */, %x8: Tensor[(21), float32] /* ty=Tensor[(21), float32] span=from_string:96:23 */, %x9: Tensor[(1), float32] /* ty=Tensor[(1), float32] span=from_string:96:28 */, %x10: Tensor[(42, 10), float32] /* ty=Tensor[(42, 10), float32] span=from_string:106:13 */, %x11: Tensor[(42), float32] /* ty=Tensor[(42), float32] span=from_string:115:23 */, %x12: Tensor[(1), float32] /* ty=Tensor[(1), float32] span=from_string:107:13 */, %x13: Tensor[(10, 59, 1), float32] /* ty=Tensor[(10, 59, 1), float32] */) -> (Tensor[(10, 20), float32], (Tensor[(19, 10), float16], Tensor[(19, 10), float16]), (Tensor[(10, 92, 1), float16], Tensor[(10, 59, 1), float16]), (Tensor[(1, 1, 399), float16], Tensor[(1, 1, 798), float16]), Tensor[(1), float16], int32) {
  %9 = fn (%p0: Tensor[(10, 20), float32] /* ty=Tensor[(10, 20), float32] span=from_string:4:15 */, Primitive=1) -> Tensor[(10, 20), float32] {
    %0 = cast(%p0, dtype="float16") /* ty=Tensor[(10, 20), float16] span=from_string:6:14 */;
    %1 = cast(1f /* ty=float32 span=from_string:5:17 */, dtype="float16") /* ty=float16 span=from_string:6:18 */;
    %2 = add(%0, %1) /* ty=Tensor[(10, 20), float16] span=from_string:7:15 */;
    %3 = cast(%2, dtype="float32") /* ty=Tensor[(10, 20), float32] span=from_string:8:14 */;
    %4 = exp(%3) /* ty=Tensor[(10, 20), float32] span=from_string:9:18 */;
    %5 = squeeze(%4) /* ty=Tensor[(10, 20), float32] span=from_string:10:14 */;
    %6 = add(%5, 1f /* ty=float32 span=from_string:10:20 */) /* ty=Tensor[(10, 20), float32] span=from_string:11:14 */;
    %7 = exp(%6) /* ty=Tensor[(10, 20), float32] span=from_string:12:18 */;
    %8 = squeeze(%7) /* ty=Tensor[(10, 20), float32] span=from_string:13:15 */;
    multiply(%8, 2f /* ty=float32 span=from_string:13:21 */) /* ty=Tensor[(10, 20), float32] span=from_string:4:5 */
  } /* ty=fn (Tensor[(10, 20), float32]) -> Tensor[(10, 20), float32] span=from_string:121:9 */;
  %13 = fn (%p02: Tensor[(19, 20), float32] /* ty=Tensor[(19, 20), float32] span=from_string:16:10 */, Primitive=1) -> Tensor[(19, 20), float16] {
    cast(%p02, dtype="float16") /* ty=Tensor[(19, 20), float16] span=from_string:16:5 */
  } /* ty=fn (Tensor[(19, 20), float32]) -> Tensor[(19, 20), float16] span=from_string:33:9 */;
  %21 = fn (%p04: Tensor[(10, 20), float32] /* ty=Tensor[(10, 20), float32] span=from_string:19:16 */, Primitive=1) -> Tensor[(10, 20), float32] {
    %18 = cast(%p04, dtype="float16") /* ty=Tensor[(10, 20), float16] span=from_string:21:15 */;
    %19 = add(%18, %1) /* ty=Tensor[(10, 20), float16] span=from_string:22:16 */;
    %20 = cast(%19, dtype="float32") /* ty=Tensor[(10, 20), float32] span=from_string:23:9 */;
    exp(%20) /* ty=Tensor[(10, 20), float32] span=from_string:19:5 */
  } /* ty=fn (Tensor[(10, 20), float32]) -> Tensor[(10, 20), float32] span=from_string:25:9 */;
  %22 = %21(%x0) /* ty=Tensor[(10, 20), float32] span=from_string:62:13 */;
  %23 = fn (%p03: Tensor[(10, 20), float32] /* ty=Tensor[(10, 20), float32] span=from_string:29:19 */, Primitive=1) -> Tensor[(10, 20), float16] {
    %14 = ones(shape=[1], dtype="float16") /* ty=Tensor[(1), float16] span=from_string:28:16 */;
    %15 = cast(%14, dtype="float32") /* ty=Tensor[(1), float32] span=from_string:30:21 */;
    %16 = squeeze(%p03) /* ty=Tensor[(10, 20), float32] span=from_string:30:26 */;
    %17 = multiply(%15, %16) /* ty=Tensor[(10, 20), float32] span=from_string:31:10 */;
    cast(%17, dtype="float16") /* ty=Tensor[(10, 20), float16] span=from_string:27:5 */
  } /* ty=fn (Tensor[(10, 20), float32]) -> Tensor[(10, 20), float16] span=from_string:34:9 */;
  %24 = %13(%x1) /* ty=Tensor[(19, 20), float16] span=from_string:52:13 */;
  %25 = %23(%22) /* ty=Tensor[(10, 20), float16] span=from_string:51:18 */;
  %26 = fn (%p01: Tensor[(19, 20), float16] /* ty=Tensor[(19, 20), float16] span=from_string:37:20 */, %p1: Tensor[(10, 20), float16] /* ty=Tensor[(10, 20), float16] span=from_string:37:26 */, %p2: Tensor[(10), float32] /* ty=Tensor[(10), float32] span=from_string:36:16 */, Primitive=1) -> Tensor[(19, 10), float16] {
    %10 = cast(%p2, dtype="float16") /* ty=Tensor[(10), float16] span=from_string:38:23 */;
    %11 = nn.dense(%p01, %p1, units=None, out_dtype="float16") /* ty=Tensor[(19, 10), float16] span=from_string:39:9 */;
    %12 = expand_dims(%10, axis=0) /* ty=Tensor[(1, 10), float16] span=from_string:39:14 */;
    add(%11, %12) /* ty=Tensor[(19, 10), float16] span=from_string:36:5 */
  } /* ty=fn (Tensor[(19, 20), float16], Tensor[(10, 20), float16], Tensor[(10), float32]) -> Tensor[(19, 10), float16] span=from_string:51:9 */;
  %30 = fn (%p06: Tensor[(10, 20), float32] /* ty=Tensor[(10, 20), float32] span=from_string:42:10 */, Primitive=1) -> Tensor[(10, 20), float16] {
    cast(%p06, dtype="float16") /* ty=Tensor[(10, 20), float16] span=from_string:42:5 */
  } /* ty=fn (Tensor[(10, 20), float32]) -> Tensor[(10, 20), float16] span=from_string:44:9 */;
  %31 = %30(%x2) /* ty=Tensor[(10, 20), float16] span=from_string:52:18 */;
  %32 = fn (%p05: Tensor[(19, 20), float16] /* ty=Tensor[(19, 20), float16] span=from_string:47:20 */, %p11: Tensor[(10, 20), float16] /* ty=Tensor[(10, 20), float16] span=from_string:47:26 */, %p21: Tensor[(10), float32] /* ty=Tensor[(10), float32] span=from_string:46:16 */, Primitive=1) -> Tensor[(19, 10), float16] {
    %27 = cast(%p21, dtype="float16") /* ty=Tensor[(10), float16] span=from_string:48:23 */;
    %28 = nn.dense(%p05, %p11, units=None, out_dtype="float16") /* ty=Tensor[(19, 10), float16] span=from_string:49:9 */;
    %29 = expand_dims(%27, axis=0) /* ty=Tensor[(1, 10), float16] span=from_string:49:14 */;
    add(%28, %29) /* ty=Tensor[(19, 10), float16] span=from_string:46:5 */
  } /* ty=fn (Tensor[(19, 20), float16], Tensor[(10, 20), float16], Tensor[(10), float32]) -> Tensor[(19, 10), float16] span=from_string:52:9 */;
  %33 = %26(%24, %25, %x3) /* ty=Tensor[(19, 10), float16] span=from_string:122:10 */;
  %34 = %32(%24, %31, %x4) /* ty=Tensor[(19, 10), float16] span=from_string:122:15 */;
  %38 = fn (%p09: Tensor[(10, 20), float32] /* ty=Tensor[(10, 20), float32] span=from_string:54:15 */, Primitive=1) -> Tensor[(10, 20), float16] {
    %35 = add(%p09, 1f /* ty=float32 span=from_string:54:23 */) /* ty=Tensor[(10, 20), float32] span=from_string:55:15 */;
    %36 = exp(%35) /* ty=Tensor[(10, 20), float32] span=from_string:56:19 */;
    %37 = squeeze(%36) /* ty=Tensor[(10, 20), float32] span=from_string:57:10 */;
    cast(%37, dtype="float16") /* ty=Tensor[(10, 20), float16] span=from_string:54:5 */
  } /* ty=fn (Tensor[(10, 20), float32]) -> Tensor[(10, 20), float16] span=from_string:62:9 */;
  %39 = fn (%p010: Tensor[(92, 20), float32] /* ty=Tensor[(92, 20), float32] span=from_string:60:10 */, Primitive=1) -> Tensor[(92, 20), float16] {
    cast(%p010, dtype="float16") /* ty=Tensor[(92, 20), float16] span=from_string:60:5 */
  } /* ty=fn (Tensor[(92, 20), float32]) -> Tensor[(92, 20), float16] span=from_string:63:9 */;
  %40 = %38(%22) /* ty=Tensor[(10, 20), float16] span=from_string:78:13 */;
  %41 = %39(%x5) /* ty=Tensor[(92, 20), float16] span=from_string:67:18 */;
  %42 = fn (%p08: Tensor[(10, 20), float16] /* ty=Tensor[(10, 20), float16] span=from_string:65:14 */, %p12: Tensor[(92, 20), float16] /* ty=Tensor[(92, 20), float16] span=from_string:65:20 */, Primitive=1) -> Tensor[(10, 92), float16] {
    nn.dense(%p08, %p12, units=None, out_dtype="float16") /* ty=Tensor[(10, 92), float16] span=from_string:65:5 */
  } /* ty=fn (Tensor[(10, 20), float16], Tensor[(92, 20), float16]) -> Tensor[(10, 92), float16] span=from_string:67:9 */;
  %43 = %42(%40, %41) /* ty=Tensor[(10, 92), float16] span=from_string:82:13 */;
  %44 = fn (%p07: Tensor[(10, 92), float16] /* ty=Tensor[(10, 92), float16] span=from_string:69:17 */, Primitive=1, relay.reshape_only=1) -> Tensor[(10, 92, 1), float16] {
    expand_dims(%p07, axis=2) /* ty=Tensor[(10, 92, 1), float16] span=from_string:69:5 */
  } /* ty=fn (Tensor[(10, 92), float16]) -> Tensor[(10, 92, 1), float16] span=from_string:82:9 */;
  %45 = fn (%p013: Tensor[(59, 20), float32] /* ty=Tensor[(59, 20), float32] span=from_string:72:10 */, Primitive=1) -> Tensor[(59, 20), float16] {
    cast(%p013, dtype="float16") /* ty=Tensor[(59, 20), float16] span=from_string:72:5 */
  } /* ty=fn (Tensor[(59, 20), float32]) -> Tensor[(59, 20), float16] span=from_string:74:9 */;
  %46 = %45(%x6) /* ty=Tensor[(59, 20), float16] span=from_string:78:18 */;
  %47 = fn (%p012: Tensor[(10, 20), float16] /* ty=Tensor[(10, 20), float16] span=from_string:76:14 */, %p13: Tensor[(59, 20), float16] /* ty=Tensor[(59, 20), float16] span=from_string:76:21 */, Primitive=1) -> Tensor[(10, 59), float16] {
    nn.dense(%p012, %p13, units=None, out_dtype="float16") /* ty=Tensor[(10, 59), float16] span=from_string:76:5 */
  } /* ty=fn (Tensor[(10, 20), float16], Tensor[(59, 20), float16]) -> Tensor[(10, 59), float16] span=from_string:78:9 */;
  %48 = %47(%40, %46) /* ty=Tensor[(10, 59), float16] span=from_string:83:13 */;
  %49 = fn (%p011: Tensor[(10, 59), float16] /* ty=Tensor[(10, 59), float16] span=from_string:80:17 */, Primitive=1, relay.reshape_only=1) -> Tensor[(10, 59, 1), float16] {
    expand_dims(%p011, axis=2) /* ty=Tensor[(10, 59, 1), float16] span=from_string:80:5 */
  } /* ty=fn (Tensor[(10, 59), float16]) -> Tensor[(10, 59, 1), float16] span=from_string:83:9 */;
  %50 = %44(%43) /* ty=Tensor[(10, 92, 1), float16] span=from_string:123:10 */;
  %51 = %49(%48) /* ty=Tensor[(10, 59, 1), float16] span=from_string:123:15 */;
  %57 = fn (%p016: Tensor[(21, 10), float32] /* ty=Tensor[(21, 10), float32] span=from_string:85:10 */, Primitive=1) -> Tensor[(21, 10), float16] {
    cast(%p016, dtype="float16") /* ty=Tensor[(21, 10), float16] span=from_string:85:5 */
  } /* ty=fn (Tensor[(21, 10), float32]) -> Tensor[(21, 10), float16] span=from_string:87:9 */;
  %58 = %57(%x7) /* ty=Tensor[(21, 10), float16] span=from_string:96:18 */;
  %59 = fn (%p015: Tensor[(19, 10), float16] /* ty=Tensor[(19, 10), float16] span=from_string:90:20 */, %p14: Tensor[(21, 10), float16] /* ty=Tensor[(21, 10), float16] span=from_string:90:27 */, %p22: Tensor[(21), float32] /* ty=Tensor[(21), float32] span=from_string:89:16 */, %p3: Tensor[(1), float32] /* ty=Tensor[(1), float32] span=from_string:93:16 */, Primitive=1) -> Tensor[(19, 21), float16] {
    %52 = cast(%p22, dtype="float16") /* ty=Tensor[(21), float16] span=from_string:91:23 */;
    %53 = nn.dense(%p015, %p14, units=None, out_dtype="float16") /* ty=Tensor[(19, 21), float16] span=from_string:92:15 */;
    %54 = expand_dims(%52, axis=0) /* ty=Tensor[(1, 21), float16] span=from_string:92:20 */;
    %55 = add(%53, %54) /* ty=Tensor[(19, 21), float16] span=from_string:94:15 */;
    %56 = cast(%p3, dtype="float16") /* ty=Tensor[(1), float16] span=from_string:94:20 */;
    multiply(%55, %56) /* ty=Tensor[(19, 21), float16] span=from_string:89:5 */
  } /* ty=fn (Tensor[(19, 10), float16], Tensor[(21, 10), float16], Tensor[(21), float32], Tensor[(1), float32]) -> Tensor[(19, 21), float16] span=from_string:96:9 */;
  %60 = %59(%33, %58, %x8, %x9) /* ty=Tensor[(19, 21), float16] span=from_string:119:13 */;
  %61 = fn (%p014: Tensor[(19, 21), float16] /* ty=Tensor[(19, 21), float16] span=from_string:98:13 */, Primitive=1, relay.reshape_only=1) -> Tensor[(1, 1, 399), float16] {
    reshape(%p014, newshape=[1, 1, 399]) /* ty=Tensor[(1, 1, 399), float16] span=from_string:98:5 */
  } /* ty=fn (Tensor[(19, 21), float16]) -> Tensor[(1, 1, 399), float16] span=from_string:119:9 */;
  %66 = fn (%p019: Tensor[(42, 10), float32] /* ty=Tensor[(42, 10), float32] span=from_string:101:10 */, Primitive=1) -> Tensor[(42, 10), float16] {
    cast(%p019, dtype="float16") /* ty=Tensor[(42, 10), float16] span=from_string:101:5 */
  } /* ty=fn (Tensor[(42, 10), float32]) -> Tensor[(42, 10), float16] span=from_string:106:9 */;
  %67 = fn (%p020: Tensor[(1), float32] /* ty=Tensor[(1), float32] span=from_string:104:10 */, Primitive=1) -> Tensor[(1), float16] {
    cast(%p020, dtype="float16") /* ty=Tensor[(1), float16] span=from_string:104:5 */
  } /* ty=fn (Tensor[(1), float32]) -> Tensor[(1), float16] span=from_string:107:9 */;
  %68 = %66(%x10) /* ty=Tensor[(42, 10), float16] span=from_string:115:18 */;
  %69 = %67(%x12) /* ty=Tensor[(1), float16] span=from_string:125:24 */;
  %70 = fn (%p018: Tensor[(19, 10), float16] /* ty=Tensor[(19, 10), float16] span=from_string:110:20 */, %p15: Tensor[(42, 10), float16] /* ty=Tensor[(42, 10), float16] span=from_string:110:27 */, %p23: Tensor[(42), float32] /* ty=Tensor[(42), float32] span=from_string:109:16 */, %p31: Tensor[(1), float16] /* ty=Tensor[(1), float16] span=from_string:113:20 */, Primitive=1) -> Tensor[(19, 42), float16] {
    %62 = cast(%p23, dtype="float16") /* ty=Tensor[(42), float16] span=from_string:111:23 */;
    %63 = nn.dense(%p018, %p15, units=None, out_dtype="float16") /* ty=Tensor[(19, 42), float16] span=from_string:112:15 */;
    %64 = expand_dims(%62, axis=0) /* ty=Tensor[(1, 42), float16] span=from_string:112:20 */;
    %65 = add(%63, %64) /* ty=Tensor[(19, 42), float16] span=from_string:113:15 */;
    multiply(%65, %p31) /* ty=Tensor[(19, 42), float16] span=from_string:109:5 */
  } /* ty=fn (Tensor[(19, 10), float16], Tensor[(42, 10), float16], Tensor[(42), float32], Tensor[(1), float16]) -> Tensor[(19, 42), float16] span=from_string:115:9 */;
  %71 = %70(%33, %68, %x11, %69) /* ty=Tensor[(19, 42), float16] span=from_string:120:13 */;
  %72 = fn (%p017: Tensor[(19, 42), float16] /* ty=Tensor[(19, 42), float16] span=from_string:117:13 */, Primitive=1, relay.reshape_only=1) -> Tensor[(1, 1, 798), float16] {
    reshape(%p017, newshape=[1, 1, 798]) /* ty=Tensor[(1, 1, 798), float16] span=from_string:117:5 */
  } /* ty=fn (Tensor[(19, 42), float16]) -> Tensor[(1, 1, 798), float16] span=from_string:120:9 */;
  %73 = %61(%60) /* ty=Tensor[(1, 1, 399), float16] span=from_string:124:10 */;
  %74 = %72(%71) /* ty=Tensor[(1, 1, 798), float16] span=from_string:124:15 */;
  %75 = %9(%x0) /* ty=Tensor[(10, 20), float32] span=from_string:125:4 */;
  %76 = (%33, %34) /* ty=(Tensor[(19, 10), float16], Tensor[(19, 10), float16]) span=from_string:125:9 */;
  %77 = (%50, %51) /* ty=(Tensor[(10, 92, 1), float16], Tensor[(10, 59, 1), float16]) span=from_string:125:14 */;
  %78 = (%73, %74) /* ty=(Tensor[(1, 1, 399), float16], Tensor[(1, 1, 798), float16]) span=from_string:125:19 */;
  (%75, %76, %77, %78, %69, 590 /* ty=int32 span=from_string:125:32 */) /* ty=(Tensor[(10, 20), float32], (Tensor[(19, 10), float16], Tensor[(19, 10), float16]), (Tensor[(10, 92, 1), float16], Tensor[(10, 59, 1), float16]), (Tensor[(1, 1, 399), float16], Tensor[(1, 1, 798), float16]), Tensor[(1), float16], int32) span=from_string:3:3 */
}
