#[version = "0.0.5"]
def @main(%x0: Tensor[(10, 20), float32] /* ty=Tensor[(10, 20), float32] span=from_string:3:13 */, %x1: Tensor[(19, 20), float32] /* ty=Tensor[(19, 20), float32] span=from_string:13:14 */, %x2: Tensor[(10, 20), float32] /* ty=Tensor[(10, 20), float32] span=from_string:17:14 */, %x3: Tensor[(10), float32] /* ty=Tensor[(10), float32] span=from_string:16:14 */, %x4: Tensor[(10), float32] /* ty=Tensor[(10), float32] span=from_string:19:14 */, %x5: Tensor[(92, 20), float32] /* ty=Tensor[(92, 20), float32] span=from_string:26:14 */, %x6: Tensor[(59, 20), float32] /* ty=Tensor[(59, 20), float32] span=from_string:28:14 */, %x7: Tensor[(21, 10), float32] /* ty=Tensor[(21, 10), float32] span=from_string:32:14 */, %x8: Tensor[(21), float32] /* ty=Tensor[(21), float32] span=from_string:34:14 */, %x9: Tensor[(1), float32] /* ty=Tensor[(1), float32] span=from_string:36:14 */, %x10: Tensor[(42, 10), float32] /* ty=Tensor[(42, 10), float32] span=from_string:38:14 */, %x11: Tensor[(42), float32] /* ty=Tensor[(42), float32] span=from_string:40:14 */, %x12: Tensor[(1), float32] /* ty=Tensor[(1), float32] span=from_string:42:14 */, %x13: Tensor[(10, 59, 1), float32] /* ty=Tensor[(10, 59, 1), float32] */) -> (Tensor[(10, 20), float16], (Tensor[(19, 10), float16], Tensor[(19, 10), float16]), (Tensor[(10, 92, 1), float16], Tensor[(10, 59, 1), float16]), (Tensor[(1, 1, 399), float16], Tensor[(1, 1, 798), float16]), Tensor[(1), float16], int32) {
  let %x_0 = cast(%x0, dtype="float16");
  let %x_1 = 1f /* ty=float32 span=from_string:4:15 */;
  let %x_2 = cast(%x_1, dtype="float16");
  let %x_3 = add(%x_0, %x_2);
  let %x_4 = fast_exp(%x_3);
  let %x_5 = squeeze(%x_4);
  let %x_6 = 1f /* ty=float32 span=from_string:8:15 */;
  let %x_7 = cast(%x_6, dtype="float16");
  let %x_8 = add(%x_5, %x_7);
  let %x_9 = fast_exp(%x_8);
  let %x_10 = squeeze(%x_9);
  let %x_11 = add(%x_10, %x_10);
  let %x_12 = cast(%x1, dtype="float16");
  let %x_13 = ones(shape=[1], dtype="float16");
  let %x_14 = multiply(%x_13, %x_5);
  let %x_15 = nn.dense(%x_12, %x_14, units=None, out_dtype="float16");
  let %x_16 = cast(%x3, dtype="float16");
  let %x_17 = add(%x_15, %x_16);
  let %x_18 = cast(%x2, dtype="float16");
  let %x_19 = nn.dense(%x_12, %x_18, units=None, out_dtype="float16");
  let %x_20 = cast(%x4, dtype="float16");
  let %x_21 = add(%x_19, %x_20);
  let %x_22 = (%x_17, %x_21) /* ty=(Tensor[(19, 10), float16], Tensor[(19, 10), float16]) span=from_string:52:9 */;
  let %x_23 = 1f /* ty=float32 span=from_string:22:16 */;
  let %x_24 = cast(%x_23, dtype="float16");
  let %x_25 = add(%x_4, %x_24);
  let %x_26 = fast_exp(%x_25);
  let %x_27 = squeeze(%x_26);
  let %x_28 = cast(%x5, dtype="float16");
  let %x_29 = nn.dense(%x_27, %x_28, units=None, out_dtype="float16");
  let %x_30 = expand_dims(%x_29, axis=2);
  let %x_31 = cast(%x6, dtype="float16");
  let %x_32 = nn.dense(%x_27, %x_31, units=None, out_dtype="float16");
  let %x_33 = expand_dims(%x_32, axis=2);
  let %x_34 = (%x_30, %x_33) /* ty=(Tensor[(10, 92, 1), float16], Tensor[(10, 59, 1), float16]) span=from_string:52:14 */;
  let %x_35 = cast(%x7, dtype="float16");
  let %x_36 = nn.dense(%x_17, %x_35, units=None, out_dtype="float16");
  let %x_37 = cast(%x8, dtype="float16");
  let %x_38 = add(%x_36, %x_37);
  let %x_39 = cast(%x9, dtype="float16");
  let %x_40 = multiply(%x_38, %x_39);
  let %x_41 = reshape(%x_40, newshape=[1, 1, 399]);
  let %x_42 = cast(%x10, dtype="float16");
  let %x_43 = nn.dense(%x_17, %x_42, units=None, out_dtype="float16");
  let %x_44 = cast(%x11, dtype="float16");
  let %x_45 = add(%x_43, %x_44);
  let %x_46 = cast(%x12, dtype="float16");
  let %x_47 = multiply(%x_45, %x_46);
  let %x_48 = reshape(%x_47, newshape=[1, 1, 798]);
  let %x_49 = (%x_41, %x_48) /* ty=(Tensor[(1, 1, 399), float16], Tensor[(1, 1, 798), float16]) span=from_string:52:19 */;
  let %x_50 = ones(shape=[1], dtype="float16");
  let %x_51 = multiply(%x_50, %x_46);
  let %x_52 = 590 /* ty=int32 span=from_string:52:32 */;
  let %x_53 = (%x_11, %x_22, %x_34, %x_49, %x_51, %x_52) /* ty=(Tensor[(10, 20), float16], (Tensor[(19, 10), float16], Tensor[(19, 10), float16]), (Tensor[(10, 92, 1), float16], Tensor[(10, 59, 1), float16]), (Tensor[(1, 1, 399), float16], Tensor[(1, 1, 798), float16]), Tensor[(1), float16], int32) span=from_string:3:3 */;
  %x_53
}
