#[version = "0.0.5"]
def @main(%x0: Tensor[(10, 20), float32] /* ty=Tensor[(10, 20), float32] span=from_string:10:13 */, %x1: Tensor[(19, 20), float32] /* ty=Tensor[(19, 20), float32] span=from_string:46:13 */, %x2: Tensor[(10, 20), float32] /* ty=Tensor[(10, 20), float32] span=from_string:46:18 */, %x3: Tensor[(10), float32] /* ty=Tensor[(10), float32] span=from_string:45:23 */, %x4: Tensor[(10), float32] /* ty=Tensor[(10), float32] span=from_string:46:23 */, %x5: Tensor[(92, 20), float32] /* ty=Tensor[(92, 20), float32] span=from_string:61:18 */, %x6: Tensor[(59, 20), float32] /* ty=Tensor[(59, 20), float32] span=from_string:72:18 */, %x7: Tensor[(21, 10), float32] /* ty=Tensor[(21, 10), float32] span=from_string:90:18 */, %x8: Tensor[(21), float32] /* ty=Tensor[(21), float32] span=from_string:90:23 */, %x9: Tensor[(1), float32] /* ty=Tensor[(1), float32] span=from_string:90:28 */, %x10: Tensor[(42, 10), float32] /* ty=Tensor[(42, 10), float32] span=from_string:105:18 */, %x11: Tensor[(42), float32] /* ty=Tensor[(42), float32] span=from_string:105:24 */, %x12: Tensor[(1), float32] /* ty=Tensor[(1), float32] span=from_string:120:13 */, %x13: Tensor[(10, 59, 1), float32] /* ty=Tensor[(10, 59, 1), float32] */) -> (Tensor[(10, 20), float32], (Tensor[(19, 10), float16], Tensor[(19, 10), float16]), (Tensor[(10, 92, 1), float16], Tensor[(10, 59, 1), float16]), (Tensor[(1, 1, 399), float16], Tensor[(1, 1, 798), float16]), Tensor[(1), float16], int32) {
  let %x_0 = fn (%p02: Tensor[(10, 20), float32] /* ty=Tensor[(10, 20), float32] span=from_string:4:15 */, Primitive=1) -> Tensor[(10, 20), float32] {
    %0 = cast(%p02, dtype="float16") /* ty=Tensor[(10, 20), float16] span=from_string:6:14 */;
    %1 = cast(1f /* ty=float32 span=from_string:5:17 */, dtype="float16") /* ty=float16 span=from_string:6:18 */;
    %2 = add(%0, %1) /* ty=Tensor[(10, 20), float16] span=from_string:7:16 */;
    %3 = cast(%2, dtype="float32") /* ty=Tensor[(10, 20), float32] span=from_string:8:9 */;
    exp(%3) /* ty=Tensor[(10, 20), float32] span=from_string:4:5 */
  } /* ty=fn (Tensor[(10, 20), float32]) -> Tensor[(10, 20), float32] span=from_string:10:9 */;
  let %x_1 = %x_0(%x0);
  let %x_2 = fn (%p01: Tensor[(10, 20), float32] /* ty=Tensor[(10, 20), float32] span=from_string:12:15 */, Primitive=1, relay.reshape_only=1) -> Tensor[(10, 20), float16] {
    %4 = cast(%p01, dtype="float16") /* ty=Tensor[(10, 20), float16] span=from_string:13:13 */;
    squeeze(%4) /* ty=Tensor[(10, 20), float16] span=from_string:12:5 */
  } /* ty=fn (Tensor[(10, 20), float32]) -> Tensor[(10, 20), float16] span=from_string:15:9 */;
  let %x_3 = %x_2(%x_1);
  let %x_4 = cast(%x_3, dtype="float32");
  let %x_5 = fn (%p0: Tensor[(10, 20), float32] /* ty=Tensor[(10, 20), float32] span=from_string:18:15 */, Primitive=1) -> Tensor[(10, 20), float32] {
    %5 = cast(%p0, dtype="float16") /* ty=Tensor[(10, 20), float16] span=from_string:20:14 */;
    %6 = cast(1f /* ty=float32 span=from_string:19:17 */, dtype="float16") /* ty=float16 span=from_string:20:18 */;
    %7 = add(%5, %6) /* ty=Tensor[(10, 20), float16] span=from_string:21:15 */;
    %8 = cast(%7, dtype="float32") /* ty=Tensor[(10, 20), float32] span=from_string:22:14 */;
    %9 = exp(%8) /* ty=Tensor[(10, 20), float32] span=from_string:23:18 */;
    %10 = squeeze(%9) /* ty=Tensor[(10, 20), float32] span=from_string:24:15 */;
    multiply(%10, 2f /* ty=float32 span=from_string:24:21 */) /* ty=Tensor[(10, 20), float32] span=from_string:18:5 */
  } /* ty=fn (Tensor[(10, 20), float32]) -> Tensor[(10, 20), float32] span=from_string:116:9 */;
  let %x_6 = %x_5(%x_4);
  let %x_7 = fn (%p04: Tensor[(10, 20), float32] /* ty=Tensor[(10, 20), float32] span=from_string:27:10 */, Primitive=1) -> Tensor[(10, 20), float16] {
    cast(%p04, dtype="float16") /* ty=Tensor[(10, 20), float16] span=from_string:27:5 */
  } /* ty=fn (Tensor[(10, 20), float32]) -> Tensor[(10, 20), float16] span=from_string:29:9 */;
  let %x_8 = %x_7(%x_4);
  let %x_9 = cast(%x_8, dtype="float32");
  let %x_10 = fn (%p03: Tensor[(19, 20), float32] /* ty=Tensor[(19, 20), float32] span=from_string:32:16 */, %p1: Tensor[(10, 20), float32] /* ty=Tensor[(10, 20), float32] span=from_string:33:16 */, %p2: Tensor[(10), float32] /* ty=Tensor[(10), float32] span=from_string:35:16 */, Primitive=1) -> Tensor[(19, 10), float16] {
    %11 = cast(%p03, dtype="float16") /* ty=Tensor[(19, 20), float16] span=from_string:34:20 */;
    %12 = cast(%p1, dtype="float16") /* ty=Tensor[(10, 20), float16] span=from_string:34:25 */;
    %13 = nn.dense(%11, %12, units=None, out_dtype="float16") /* ty=Tensor[(19, 10), float16] span=from_string:36:9 */;
    %14 = cast(%p2, dtype="float16") /* ty=Tensor[(10), float16] span=from_string:36:14 */;
    add(%13, %14) /* ty=Tensor[(19, 10), float16] span=from_string:32:5 */
  } /* ty=fn (Tensor[(19, 20), float32], Tensor[(10, 20), float32], Tensor[(10), float32]) -> Tensor[(19, 10), float16] span=from_string:45:9 */;
  let %x_11 = %x_10(%x1, %x_9, %x3);
  let %x_12 = fn (%p05: Tensor[(19, 20), float32] /* ty=Tensor[(19, 20), float32] span=from_string:39:16 */, %p11: Tensor[(10, 20), float32] /* ty=Tensor[(10, 20), float32] span=from_string:40:16 */, %p21: Tensor[(10), float32] /* ty=Tensor[(10), float32] span=from_string:42:16 */, Primitive=1) -> Tensor[(19, 10), float16] {
    %15 = cast(%p05, dtype="float16") /* ty=Tensor[(19, 20), float16] span=from_string:41:20 */;
    %16 = cast(%p11, dtype="float16") /* ty=Tensor[(10, 20), float16] span=from_string:41:25 */;
    %17 = nn.dense(%15, %16, units=None, out_dtype="float16") /* ty=Tensor[(19, 10), float16] span=from_string:43:9 */;
    %18 = cast(%p21, dtype="float16") /* ty=Tensor[(10), float16] span=from_string:43:14 */;
    add(%17, %18) /* ty=Tensor[(19, 10), float16] span=from_string:39:5 */
  } /* ty=fn (Tensor[(19, 20), float32], Tensor[(10, 20), float32], Tensor[(10), float32]) -> Tensor[(19, 10), float16] span=from_string:46:9 */;
  let %x_13 = %x_12(%x1, %x2, %x4);
  let %x_14 = (%x_11, %x_13) /* ty=(Tensor[(19, 10), float16], Tensor[(19, 10), float16]) span=from_string:121:9 */;
  let %x_15 = fn (%p08: Tensor[(10, 20), float32] /* ty=Tensor[(10, 20), float32] span=from_string:48:16 */, Primitive=1) -> Tensor[(10, 20), float32] {
    %19 = cast(%p08, dtype="float16") /* ty=Tensor[(10, 20), float16] span=from_string:50:15 */;
    %20 = cast(1f /* ty=float32 span=from_string:49:18 */, dtype="float16") /* ty=float16 span=from_string:50:20 */;
    %21 = add(%19, %20) /* ty=Tensor[(10, 20), float16] span=from_string:51:16 */;
    %22 = cast(%21, dtype="float32") /* ty=Tensor[(10, 20), float32] span=from_string:52:15 */;
    %23 = exp(%22) /* ty=Tensor[(10, 20), float32] span=from_string:53:13 */;
    squeeze(%23) /* ty=Tensor[(10, 20), float32] span=from_string:48:5 */
  } /* ty=fn (Tensor[(10, 20), float32]) -> Tensor[(10, 20), float32] span=from_string:55:9 */;
  let %x_16 = %x_15(%x_1);
  let %x_17 = fn (%p07: Tensor[(10, 20), float32] /* ty=Tensor[(10, 20), float32] span=from_string:57:16 */, %p12: Tensor[(92, 20), float32] /* ty=Tensor[(92, 20), float32] span=from_string:58:16 */, Primitive=1) -> Tensor[(10, 92), float16] {
    %24 = cast(%p07, dtype="float16") /* ty=Tensor[(10, 20), float16] span=from_string:59:14 */;
    %25 = cast(%p12, dtype="float16") /* ty=Tensor[(92, 20), float16] span=from_string:59:19 */;
    nn.dense(%24, %25, units=None, out_dtype="float16") /* ty=Tensor[(10, 92), float16] span=from_string:57:5 */
  } /* ty=fn (Tensor[(10, 20), float32], Tensor[(92, 20), float32]) -> Tensor[(10, 92), float16] span=from_string:61:9 */;
  let %x_18 = %x_17(%x_16, %x5);
  let %x_19 = cast(%x_18, dtype="float32");
  let %x_20 = fn (%p06: Tensor[(10, 92), float32] /* ty=Tensor[(10, 92), float32] span=from_string:64:16 */, Primitive=1, relay.reshape_only=1) -> Tensor[(10, 92, 1), float16] {
    %26 = cast(%p06, dtype="float16") /* ty=Tensor[(10, 92), float16] span=from_string:65:17 */;
    expand_dims(%26, axis=2) /* ty=Tensor[(10, 92, 1), float16] span=from_string:64:5 */
  } /* ty=fn (Tensor[(10, 92), float32]) -> Tensor[(10, 92, 1), float16] span=from_string:78:9 */;
  let %x_21 = %x_20(%x_19);
  let %x_22 = fn (%p010: Tensor[(10, 20), float32] /* ty=Tensor[(10, 20), float32] span=from_string:68:16 */, %p13: Tensor[(59, 20), float32] /* ty=Tensor[(59, 20), float32] span=from_string:69:16 */, Primitive=1) -> Tensor[(10, 59), float16] {
    %27 = cast(%p010, dtype="float16") /* ty=Tensor[(10, 20), float16] span=from_string:70:14 */;
    %28 = cast(%p13, dtype="float16") /* ty=Tensor[(59, 20), float16] span=from_string:70:19 */;
    nn.dense(%27, %28, units=None, out_dtype="float16") /* ty=Tensor[(10, 59), float16] span=from_string:68:5 */
  } /* ty=fn (Tensor[(10, 20), float32], Tensor[(59, 20), float32]) -> Tensor[(10, 59), float16] span=from_string:72:9 */;
  let %x_23 = %x_22(%x_16, %x6);
  let %x_24 = cast(%x_23, dtype="float32");
  let %x_25 = fn (%p09: Tensor[(10, 59), float32] /* ty=Tensor[(10, 59), float32] span=from_string:75:16 */, Primitive=1, relay.reshape_only=1) -> Tensor[(10, 59, 1), float16] {
    %29 = cast(%p09, dtype="float16") /* ty=Tensor[(10, 59), float16] span=from_string:76:17 */;
    expand_dims(%29, axis=2) /* ty=Tensor[(10, 59, 1), float16] span=from_string:75:5 */
  } /* ty=fn (Tensor[(10, 59), float32]) -> Tensor[(10, 59, 1), float16] span=from_string:79:9 */;
  let %x_26 = %x_25(%x_24);
  let %x_27 = (%x_21, %x_26) /* ty=(Tensor[(10, 92, 1), float16], Tensor[(10, 59, 1), float16]) span=from_string:121:14 */;
  let %x_28 = cast(%x_11, dtype="float32");
  let %x_29 = fn (%p012: Tensor[(19, 10), float32] /* ty=Tensor[(19, 10), float32] span=from_string:82:16 */, %p14: Tensor[(21, 10), float32] /* ty=Tensor[(21, 10), float32] span=from_string:83:16 */, %p22: Tensor[(21), float32] /* ty=Tensor[(21), float32] span=from_string:85:16 */, %p3: Tensor[(1), float32] /* ty=Tensor[(1), float32] span=from_string:87:16 */, Primitive=1) -> Tensor[(19, 21), float16] {
    %30 = cast(%p012, dtype="float16") /* ty=Tensor[(19, 10), float16] span=from_string:84:20 */;
    %31 = cast(%p14, dtype="float16") /* ty=Tensor[(21, 10), float16] span=from_string:84:25 */;
    %32 = nn.dense(%30, %31, units=None, out_dtype="float16") /* ty=Tensor[(19, 21), float16] span=from_string:86:15 */;
    %33 = cast(%p22, dtype="float16") /* ty=Tensor[(21), float16] span=from_string:86:20 */;
    %34 = add(%32, %33) /* ty=Tensor[(19, 21), float16] span=from_string:88:15 */;
    %35 = cast(%p3, dtype="float16") /* ty=Tensor[(1), float16] span=from_string:88:20 */;
    multiply(%34, %35) /* ty=Tensor[(19, 21), float16] span=from_string:82:5 */
  } /* ty=fn (Tensor[(19, 10), float32], Tensor[(21, 10), float32], Tensor[(21), float32], Tensor[(1), float32]) -> Tensor[(19, 21), float16] span=from_string:90:9 */;
  let %x_30 = %x_29(%x_28, %x7, %x8, %x9);
  let %x_31 = cast(%x_30, dtype="float32");
  let %x_32 = fn (%p011: Tensor[(19, 21), float32] /* ty=Tensor[(19, 21), float32] span=from_string:93:16 */, Primitive=1, relay.reshape_only=1) -> Tensor[(1, 1, 399), float16] {
    %36 = cast(%p011, dtype="float16") /* ty=Tensor[(19, 21), float16] span=from_string:94:13 */;
    reshape(%36, newshape=[1, 1, 399]) /* ty=Tensor[(1, 1, 399), float16] span=from_string:93:5 */
  } /* ty=fn (Tensor[(19, 21), float32]) -> Tensor[(1, 1, 399), float16] span=from_string:111:9 */;
  let %x_33 = %x_32(%x_31);
  let %x_34 = fn (%p014: Tensor[(19, 10), float32] /* ty=Tensor[(19, 10), float32] span=from_string:97:16 */, %p15: Tensor[(42, 10), float32] /* ty=Tensor[(42, 10), float32] span=from_string:98:16 */, %p23: Tensor[(42), float32] /* ty=Tensor[(42), float32] span=from_string:100:16 */, %p31: Tensor[(1), float32] /* ty=Tensor[(1), float32] span=from_string:102:16 */, Primitive=1) -> Tensor[(19, 42), float16] {
    %37 = cast(%p014, dtype="float16") /* ty=Tensor[(19, 10), float16] span=from_string:99:20 */;
    %38 = cast(%p15, dtype="float16") /* ty=Tensor[(42, 10), float16] span=from_string:99:25 */;
    %39 = nn.dense(%37, %38, units=None, out_dtype="float16") /* ty=Tensor[(19, 42), float16] span=from_string:101:15 */;
    %40 = cast(%p23, dtype="float16") /* ty=Tensor[(42), float16] span=from_string:101:20 */;
    %41 = add(%39, %40) /* ty=Tensor[(19, 42), float16] span=from_string:103:15 */;
    %42 = cast(%p31, dtype="float16") /* ty=Tensor[(1), float16] span=from_string:103:20 */;
    multiply(%41, %42) /* ty=Tensor[(19, 42), float16] span=from_string:97:5 */
  } /* ty=fn (Tensor[(19, 10), float32], Tensor[(42, 10), float32], Tensor[(42), float32], Tensor[(1), float32]) -> Tensor[(19, 42), float16] span=from_string:105:9 */;
  let %x_35 = %x_34(%x_28, %x10, %x11, %x12);
  let %x_36 = cast(%x_35, dtype="float32");
  let %x_37 = fn (%p013: Tensor[(19, 42), float32] /* ty=Tensor[(19, 42), float32] span=from_string:108:16 */, Primitive=1, relay.reshape_only=1) -> Tensor[(1, 1, 798), float16] {
    %43 = cast(%p013, dtype="float16") /* ty=Tensor[(19, 42), float16] span=from_string:109:13 */;
    reshape(%43, newshape=[1, 1, 798]) /* ty=Tensor[(1, 1, 798), float16] span=from_string:108:5 */
  } /* ty=fn (Tensor[(19, 42), float32]) -> Tensor[(1, 1, 798), float16] span=from_string:112:9 */;
  let %x_38 = %x_37(%x_36);
  let %x_39 = (%x_33, %x_38) /* ty=(Tensor[(1, 1, 399), float16], Tensor[(1, 1, 798), float16]) span=from_string:121:19 */;
  let %x_40 = fn (%p015: Tensor[(1), float32] /* ty=Tensor[(1), float32] span=from_string:114:10 */, Primitive=1) -> Tensor[(1), float16] {
    cast(%p015, dtype="float16") /* ty=Tensor[(1), float16] span=from_string:114:5 */
  } /* ty=fn (Tensor[(1), float32]) -> Tensor[(1), float16] span=from_string:120:9 */;
  let %x_41 = %x_40(%x12);
  let %x_42 = 590 /* ty=int32 span=from_string:121:32 */;
  let %x_43 = (%x_6, %x_14, %x_27, %x_39, %x_41, %x_42) /* ty=(Tensor[(10, 20), float32], (Tensor[(19, 10), float16], Tensor[(19, 10), float16]), (Tensor[(10, 92, 1), float16], Tensor[(10, 59, 1), float16]), (Tensor[(1, 1, 399), float16], Tensor[(1, 1, 798), float16]), Tensor[(1), float16], int32) span=from_string:3:3 */;
  %x_43
}
