#[version = "0.0.5"]
def @main(%x0: Tensor[(10, 20), float32] /* ty=Tensor[(10, 20), float32] span=from_string:116:12 */, %x1: Tensor[(19, 20), float32] /* ty=Tensor[(19, 20), float32] span=from_string:32:13 */, %x2: Tensor[(10, 20), float32] /* ty=Tensor[(10, 20), float32] span=from_string:42:13 */, %x3: Tensor[(10), float32] /* ty=Tensor[(10), float32] span=from_string:48:23 */, %x4: Tensor[(10), float32] /* ty=Tensor[(10), float32] span=from_string:49:23 */, %x5: Tensor[(92, 20), float32] /* ty=Tensor[(92, 20), float32] span=from_string:60:13 */, %x6: Tensor[(59, 20), float32] /* ty=Tensor[(59, 20), float32] span=from_string:71:13 */, %x7: Tensor[(21, 10), float32] /* ty=Tensor[(21, 10), float32] span=from_string:84:13 */, %x8: Tensor[(21), float32] /* ty=Tensor[(21), float32] span=from_string:92:23 */, %x9: Tensor[(1), float32] /* ty=Tensor[(1), float32] span=from_string:92:28 */, %x10: Tensor[(42, 10), float32] /* ty=Tensor[(42, 10), float32] span=from_string:102:13 */, %x11: Tensor[(42), float32] /* ty=Tensor[(42), float32] span=from_string:110:23 */, %x12: Tensor[(1), float32] /* ty=Tensor[(1), float32] span=from_string:103:13 */, %x13: Tensor[(10, 59, 1), float32] /* ty=Tensor[(10, 59, 1), float32] */) -> (Tensor[(10, 20), float32], (Tensor[(19, 10), float16], Tensor[(19, 10), float16]), (Tensor[(10, 92, 1), float16], Tensor[(10, 59, 1), float16]), (Tensor[(1, 1, 399), float16], Tensor[(1, 1, 798), float16]), Tensor[(1), float16], int32) {
  %9 = fn (%p0: Tensor[(10, 20), float32] /* ty=Tensor[(10, 20), float32] span=from_string:4:15 */, Primitive=1) -> Tensor[(10, 20), float32] {
    %0 = cast(%p0, dtype="float16") /* ty=Tensor[(10, 20), float16] span=from_string:6:14 */;
    %1 = cast(1f /* ty=float32 span=from_string:5:17 */, dtype="float16") /* ty=float16 span=from_string:20:20 */;
    %2 = add(%0, %1) /* ty=Tensor[(10, 20), float16] span=from_string:7:15 */;
    %3 = cast(%2, dtype="float32") /* ty=Tensor[(10, 20), float32] span=from_string:8:14 */;
    %4 = exp(%3) /* ty=Tensor[(10, 20), float32] span=from_string:9:18 */;
    %5 = squeeze(%4) /* ty=Tensor[(10, 20), float32] span=from_string:10:14 */;
    %6 = add(%5, 1f /* ty=float32 span=from_string:10:20 */) /* ty=Tensor[(10, 20), float32] span=from_string:11:14 */;
    %7 = exp(%6) /* ty=Tensor[(10, 20), float32] span=from_string:12:18 */;
    %8 = squeeze(%7) /* ty=Tensor[(10, 20), float32] span=from_string:13:15 */;
    multiply(%8, 2f /* ty=float32 span=from_string:13:21 */) /* ty=Tensor[(10, 20), float32] span=from_string:4:5 */
  } /* ty=fn (Tensor[(10, 20), float32]) -> Tensor[(10, 20), float32] span=from_string:116:9 */;
  %13 = fn (%p02: Tensor[(19, 20), float32] /* ty=Tensor[(19, 20), float32] span=from_string:16:10 */, Primitive=1) -> Tensor[(19, 20), float16] {
    cast(%p02, dtype="float16") /* ty=Tensor[(19, 20), float16] span=from_string:16:5 */
  } /* ty=fn (Tensor[(19, 20), float32]) -> Tensor[(19, 20), float16] span=from_string:32:9 */;
  %21 = fn (%p04: Tensor[(10, 20), float32] /* ty=Tensor[(10, 20), float32] span=from_string:19:16 */, Primitive=1) -> Tensor[(10, 20), float32] {
    %18 = cast(%p04, dtype="float16") /* ty=Tensor[(10, 20), float16] span=from_string:20:15 */;
    %19 = add(%18, %1) /* ty=Tensor[(10, 20), float16] span=from_string:21:16 */;
    %20 = cast(%19, dtype="float32") /* ty=Tensor[(10, 20), float32] span=from_string:22:9 */;
    exp(%20) /* ty=Tensor[(10, 20), float32] span=from_string:19:5 */
  } /* ty=fn (Tensor[(10, 20), float32]) -> Tensor[(10, 20), float32] span=from_string:24:9 */;
  %22 = %21(%x0) /* ty=Tensor[(10, 20), float32] span=from_string:59:13 */;
  %23 = fn (%p03: Tensor[(10, 20), float32] /* ty=Tensor[(10, 20), float32] span=from_string:28:19 */, Primitive=1) -> Tensor[(10, 20), float16] {
    %14 = ones(shape=[1], dtype="float16") /* ty=Tensor[(1), float16] span=from_string:27:16 */;
    %15 = cast(%14, dtype="float32") /* ty=Tensor[(1), float32] span=from_string:29:21 */;
    %16 = squeeze(%p03) /* ty=Tensor[(10, 20), float32] span=from_string:29:26 */;
    %17 = multiply(%15, %16) /* ty=Tensor[(10, 20), float32] span=from_string:30:10 */;
    cast(%17, dtype="float16") /* ty=Tensor[(10, 20), float16] span=from_string:26:5 */
  } /* ty=fn (Tensor[(10, 20), float32]) -> Tensor[(10, 20), float16] span=from_string:33:9 */;
  %24 = %13(%x1) /* ty=Tensor[(19, 20), float16] span=from_string:49:13 */;
  %25 = %23(%22) /* ty=Tensor[(10, 20), float16] span=from_string:48:18 */;
  %26 = fn (%p01: Tensor[(19, 20), float16] /* ty=Tensor[(19, 20), float16] span=from_string:35:20 */, %p1: Tensor[(10, 20), float16] /* ty=Tensor[(10, 20), float16] span=from_string:35:26 */, %p2: Tensor[(10), float32] /* ty=Tensor[(10), float32] span=from_string:36:16 */, Primitive=1) -> Tensor[(19, 10), float16] {
    %10 = cast(%p2, dtype="float16") /* ty=Tensor[(10), float16] span=from_string:37:14 */;
    %11 = nn.dense(%p01, %p1, units=None, out_dtype="float16") /* ty=Tensor[(19, 10), float16] span=from_string:37:9 */;
    %12 = expand_dims(%10, axis=0) /* ty=Tensor[(1, 10), float16] */;
    add(%11, %12) /* ty=Tensor[(19, 10), float16] span=from_string:35:5 */
  } /* ty=fn (Tensor[(19, 20), float16], Tensor[(10, 20), float16], Tensor[(10), float32]) -> Tensor[(19, 10), float16] span=from_string:48:9 */;
  %30 = fn (%p06: Tensor[(10, 20), float32] /* ty=Tensor[(10, 20), float32] span=from_string:40:10 */, Primitive=1) -> Tensor[(10, 20), float16] {
    cast(%p06, dtype="float16") /* ty=Tensor[(10, 20), float16] span=from_string:40:5 */
  } /* ty=fn (Tensor[(10, 20), float32]) -> Tensor[(10, 20), float16] span=from_string:42:9 */;
  %31 = %30(%x2) /* ty=Tensor[(10, 20), float16] span=from_string:49:18 */;
  %32 = fn (%p05: Tensor[(19, 20), float16] /* ty=Tensor[(19, 20), float16] span=from_string:44:20 */, %p11: Tensor[(10, 20), float16] /* ty=Tensor[(10, 20), float16] span=from_string:44:26 */, %p21: Tensor[(10), float32] /* ty=Tensor[(10), float32] span=from_string:45:16 */, Primitive=1) -> Tensor[(19, 10), float16] {
    %27 = cast(%p21, dtype="float16") /* ty=Tensor[(10), float16] span=from_string:46:14 */;
    %28 = nn.dense(%p05, %p11, units=None, out_dtype="float16") /* ty=Tensor[(19, 10), float16] span=from_string:46:9 */;
    %29 = expand_dims(%27, axis=0) /* ty=Tensor[(1, 10), float16] */;
    add(%28, %29) /* ty=Tensor[(19, 10), float16] span=from_string:44:5 */
  } /* ty=fn (Tensor[(19, 20), float16], Tensor[(10, 20), float16], Tensor[(10), float32]) -> Tensor[(19, 10), float16] span=from_string:49:9 */;
  %33 = %26(%24, %25, %x3) /* ty=Tensor[(19, 10), float16] span=from_string:117:10 */;
  %34 = %32(%24, %31, %x4) /* ty=Tensor[(19, 10), float16] span=from_string:117:15 */;
  %38 = fn (%p09: Tensor[(10, 20), float32] /* ty=Tensor[(10, 20), float32] span=from_string:51:15 */, Primitive=1) -> Tensor[(10, 20), float16] {
    %35 = add(%p09, 1f /* ty=float32 span=from_string:51:23 */) /* ty=Tensor[(10, 20), float32] span=from_string:52:15 */;
    %36 = exp(%35) /* ty=Tensor[(10, 20), float32] span=from_string:53:19 */;
    %37 = squeeze(%36) /* ty=Tensor[(10, 20), float32] span=from_string:54:10 */;
    cast(%37, dtype="float16") /* ty=Tensor[(10, 20), float16] span=from_string:51:5 */
  } /* ty=fn (Tensor[(10, 20), float32]) -> Tensor[(10, 20), float16] span=from_string:59:9 */;
  %39 = fn (%p010: Tensor[(92, 20), float32] /* ty=Tensor[(92, 20), float32] span=from_string:57:10 */, Primitive=1) -> Tensor[(92, 20), float16] {
    cast(%p010, dtype="float16") /* ty=Tensor[(92, 20), float16] span=from_string:57:5 */
  } /* ty=fn (Tensor[(92, 20), float32]) -> Tensor[(92, 20), float16] span=from_string:60:9 */;
  %40 = %38(%22) /* ty=Tensor[(10, 20), float16] span=from_string:75:13 */;
  %41 = %39(%x5) /* ty=Tensor[(92, 20), float16] span=from_string:64:18 */;
  %42 = fn (%p08: Tensor[(10, 20), float16] /* ty=Tensor[(10, 20), float16] span=from_string:62:14 */, %p12: Tensor[(92, 20), float16] /* ty=Tensor[(92, 20), float16] span=from_string:62:20 */, Primitive=1) -> Tensor[(10, 92), float16] {
    nn.dense(%p08, %p12, units=None, out_dtype="float16") /* ty=Tensor[(10, 92), float16] span=from_string:62:5 */
  } /* ty=fn (Tensor[(10, 20), float16], Tensor[(92, 20), float16]) -> Tensor[(10, 92), float16] span=from_string:64:9 */;
  %43 = %42(%40, %41) /* ty=Tensor[(10, 92), float16] span=from_string:79:13 */;
  %44 = fn (%p07: Tensor[(10, 92), float16] /* ty=Tensor[(10, 92), float16] span=from_string:66:17 */, Primitive=1, relay.reshape_only=1) -> Tensor[(10, 92, 1), float16] {
    expand_dims(%p07, axis=2) /* ty=Tensor[(10, 92, 1), float16] span=from_string:66:5 */
  } /* ty=fn (Tensor[(10, 92), float16]) -> Tensor[(10, 92, 1), float16] span=from_string:79:9 */;
  %45 = fn (%p013: Tensor[(59, 20), float32] /* ty=Tensor[(59, 20), float32] span=from_string:69:10 */, Primitive=1) -> Tensor[(59, 20), float16] {
    cast(%p013, dtype="float16") /* ty=Tensor[(59, 20), float16] span=from_string:69:5 */
  } /* ty=fn (Tensor[(59, 20), float32]) -> Tensor[(59, 20), float16] span=from_string:71:9 */;
  %46 = %45(%x6) /* ty=Tensor[(59, 20), float16] span=from_string:75:18 */;
  %47 = fn (%p012: Tensor[(10, 20), float16] /* ty=Tensor[(10, 20), float16] span=from_string:73:14 */, %p13: Tensor[(59, 20), float16] /* ty=Tensor[(59, 20), float16] span=from_string:73:21 */, Primitive=1) -> Tensor[(10, 59), float16] {
    nn.dense(%p012, %p13, units=None, out_dtype="float16") /* ty=Tensor[(10, 59), float16] span=from_string:73:5 */
  } /* ty=fn (Tensor[(10, 20), float16], Tensor[(59, 20), float16]) -> Tensor[(10, 59), float16] span=from_string:75:9 */;
  %48 = %47(%40, %46) /* ty=Tensor[(10, 59), float16] span=from_string:80:13 */;
  %49 = fn (%p011: Tensor[(10, 59), float16] /* ty=Tensor[(10, 59), float16] span=from_string:77:17 */, Primitive=1, relay.reshape_only=1) -> Tensor[(10, 59, 1), float16] {
    expand_dims(%p011, axis=2) /* ty=Tensor[(10, 59, 1), float16] span=from_string:77:5 */
  } /* ty=fn (Tensor[(10, 59), float16]) -> Tensor[(10, 59, 1), float16] span=from_string:80:9 */;
  %50 = %44(%43) /* ty=Tensor[(10, 92, 1), float16] span=from_string:118:10 */;
  %51 = %49(%48) /* ty=Tensor[(10, 59, 1), float16] span=from_string:118:15 */;
  %57 = fn (%p016: Tensor[(21, 10), float32] /* ty=Tensor[(21, 10), float32] span=from_string:82:10 */, Primitive=1) -> Tensor[(21, 10), float16] {
    cast(%p016, dtype="float16") /* ty=Tensor[(21, 10), float16] span=from_string:82:5 */
  } /* ty=fn (Tensor[(21, 10), float32]) -> Tensor[(21, 10), float16] span=from_string:84:9 */;
  %58 = %57(%x7) /* ty=Tensor[(21, 10), float16] span=from_string:92:18 */;
  %59 = fn (%p015: Tensor[(19, 10), float16] /* ty=Tensor[(19, 10), float16] span=from_string:86:20 */, %p14: Tensor[(21, 10), float16] /* ty=Tensor[(21, 10), float16] span=from_string:86:27 */, %p22: Tensor[(21), float32] /* ty=Tensor[(21), float32] span=from_string:87:16 */, %p3: Tensor[(1), float32] /* ty=Tensor[(1), float32] span=from_string:89:16 */, Primitive=1) -> Tensor[(19, 21), float16] {
    %52 = cast(%p22, dtype="float16") /* ty=Tensor[(21), float16] span=from_string:88:20 */;
    %53 = nn.dense(%p015, %p14, units=None, out_dtype="float16") /* ty=Tensor[(19, 21), float16] span=from_string:88:15 */;
    %54 = expand_dims(%52, axis=0) /* ty=Tensor[(1, 21), float16] */;
    %55 = add(%53, %54) /* ty=Tensor[(19, 21), float16] span=from_string:90:15 */;
    %56 = cast(%p3, dtype="float16") /* ty=Tensor[(1), float16] span=from_string:90:20 */;
    multiply(%55, %56) /* ty=Tensor[(19, 21), float16] span=from_string:86:5 */
  } /* ty=fn (Tensor[(19, 10), float16], Tensor[(21, 10), float16], Tensor[(21), float32], Tensor[(1), float32]) -> Tensor[(19, 21), float16] span=from_string:92:9 */;
  %60 = %59(%33, %58, %x8, %x9) /* ty=Tensor[(19, 21), float16] span=from_string:114:13 */;
  %61 = fn (%p014: Tensor[(19, 21), float16] /* ty=Tensor[(19, 21), float16] span=from_string:94:13 */, Primitive=1, relay.reshape_only=1) -> Tensor[(1, 1, 399), float16] {
    reshape(%p014, newshape=[1, 1, 399]) /* ty=Tensor[(1, 1, 399), float16] span=from_string:94:5 */
  } /* ty=fn (Tensor[(19, 21), float16]) -> Tensor[(1, 1, 399), float16] span=from_string:114:9 */;
  %66 = fn (%p019: Tensor[(42, 10), float32] /* ty=Tensor[(42, 10), float32] span=from_string:97:10 */, Primitive=1) -> Tensor[(42, 10), float16] {
    cast(%p019, dtype="float16") /* ty=Tensor[(42, 10), float16] span=from_string:97:5 */
  } /* ty=fn (Tensor[(42, 10), float32]) -> Tensor[(42, 10), float16] span=from_string:102:9 */;
  %67 = fn (%p020: Tensor[(1), float32] /* ty=Tensor[(1), float32] span=from_string:100:10 */, Primitive=1) -> Tensor[(1), float16] {
    cast(%p020, dtype="float16") /* ty=Tensor[(1), float16] span=from_string:100:5 */
  } /* ty=fn (Tensor[(1), float32]) -> Tensor[(1), float16] span=from_string:103:9 */;
  %68 = %66(%x10) /* ty=Tensor[(42, 10), float16] span=from_string:110:18 */;
  %69 = %67(%x12) /* ty=Tensor[(1), float16] span=from_string:120:24 */;
  %70 = fn (%p018: Tensor[(19, 10), float16] /* ty=Tensor[(19, 10), float16] span=from_string:105:20 */, %p15: Tensor[(42, 10), float16] /* ty=Tensor[(42, 10), float16] span=from_string:105:27 */, %p23: Tensor[(42), float32] /* ty=Tensor[(42), float32] span=from_string:106:16 */, %p31: Tensor[(1), float16] /* ty=Tensor[(1), float16] span=from_string:108:20 */, Primitive=1) -> Tensor[(19, 42), float16] {
    %62 = cast(%p23, dtype="float16") /* ty=Tensor[(42), float16] span=from_string:107:20 */;
    %63 = nn.dense(%p018, %p15, units=None, out_dtype="float16") /* ty=Tensor[(19, 42), float16] span=from_string:107:15 */;
    %64 = expand_dims(%62, axis=0) /* ty=Tensor[(1, 42), float16] */;
    %65 = add(%63, %64) /* ty=Tensor[(19, 42), float16] span=from_string:108:15 */;
    multiply(%65, %p31) /* ty=Tensor[(19, 42), float16] span=from_string:105:5 */
  } /* ty=fn (Tensor[(19, 10), float16], Tensor[(42, 10), float16], Tensor[(42), float32], Tensor[(1), float16]) -> Tensor[(19, 42), float16] span=from_string:110:9 */;
  %71 = %70(%33, %68, %x11, %69) /* ty=Tensor[(19, 42), float16] span=from_string:115:13 */;
  %72 = fn (%p017: Tensor[(19, 42), float16] /* ty=Tensor[(19, 42), float16] span=from_string:112:13 */, Primitive=1, relay.reshape_only=1) -> Tensor[(1, 1, 798), float16] {
    reshape(%p017, newshape=[1, 1, 798]) /* ty=Tensor[(1, 1, 798), float16] span=from_string:112:5 */
  } /* ty=fn (Tensor[(19, 42), float16]) -> Tensor[(1, 1, 798), float16] span=from_string:115:9 */;
  %73 = %61(%60) /* ty=Tensor[(1, 1, 399), float16] span=from_string:119:10 */;
  %74 = %72(%71) /* ty=Tensor[(1, 1, 798), float16] span=from_string:119:15 */;
  %75 = %9(%x0) /* ty=Tensor[(10, 20), float32] span=from_string:120:4 */;
  %76 = (%33, %34) /* ty=(Tensor[(19, 10), float16], Tensor[(19, 10), float16]) span=from_string:120:9 */;
  %77 = (%50, %51) /* ty=(Tensor[(10, 92, 1), float16], Tensor[(10, 59, 1), float16]) span=from_string:120:14 */;
  %78 = (%73, %74) /* ty=(Tensor[(1, 1, 399), float16], Tensor[(1, 1, 798), float16]) span=from_string:120:19 */;
  (%75, %76, %77, %78, %69, 590 /* ty=int32 span=from_string:120:32 */) /* ty=(Tensor[(10, 20), float32], (Tensor[(19, 10), float16], Tensor[(19, 10), float16]), (Tensor[(10, 92, 1), float16], Tensor[(10, 59, 1), float16]), (Tensor[(1, 1, 399), float16], Tensor[(1, 1, 798), float16]), Tensor[(1), float16], int32) span=from_string:3:3 */
}
