#[version = "0.0.5"]
def @main(%x0: Tensor[(10, 20), float32] /* ty=Tensor[(10, 20), float32] span=from_string:5:103 */, %x1: Tensor[(12, 20), float32] /* ty=Tensor[(12, 20), float32] span=from_string:20:115 */, %x2: Tensor[(12), float32] /* ty=Tensor[(12), float32] span=from_string:12:110 */, %x3: Tensor[(1), float32] /* ty=Tensor[(1), float32] span=from_string:38:95 */, %x4: Tensor[(24, 20), float32] /* ty=Tensor[(24, 20), float32] span=from_string:15:116 */, %x5: Tensor[(24), float32] /* ty=Tensor[(24), float32] span=from_string:16:112 */, %x6: Tensor[(1), float32] /* ty=Tensor[(1), float32] span=from_string:17:118 */, %x7: Tensor[(70, 20), float32] /* ty=Tensor[(70, 20), float32] span=from_string:24:110 */, %x8: Tensor[(12, 20), float32] /* ty=Tensor[(12, 20), float32] span=from_string:24:115 */, %x9: Tensor[(12), float32] /* ty=Tensor[(12), float32] span=from_string:21:112 */, %x10: Tensor[(12), float32] /* ty=Tensor[(12), float32] span=from_string:25:112 */, %x11: Tensor[(1), float32] /* ty=Tensor[(1), float32] span=from_string:29:16 */, %x12: Tensor[(1), float32] /* ty=Tensor[(1), float32] span=from_string:26:118 */, %x13: Tensor[(45, 24), float32] /* ty=Tensor[(45, 24), float32] span=from_string:41:167 */, %x14: Tensor[(1320), float32] /* ty=Tensor[(1320), float32] */) -> (Tensor[(10, 20), float16], (Tensor[(1, 1, 120), float16], Tensor[(1, 1, 240), float16]), (Tensor[(1, 1, 840), float16], Tensor[(1, 1, 840), float16]), Tensor[(1), float16], Tensor[(1), float16], Tensor[(70, 12), float16], Tensor[(1320), float16]) {
  let %x_0: float32 /* ty=float32 span=from_string:7:103 */ = 2f /* ty=float32 span=from_string:3:65 */;
  let %x_1: float32 /* ty=float32 span=from_string:5:108 */ = 1f /* ty=float32 span=from_string:4:65 */;
  %0 = cast(%x0, dtype="float16") /* ty=Tensor[(10, 20), float16] */;
  %1 = cast(%x_1, dtype="float16") /* ty=float16 */;
  let %x_2: Tensor[(10, 20), float16] /* ty=Tensor[(10, 20), float16] span=from_string:6:123 */ = add(%0, %1) /* ty=Tensor[(10, 20), float16] span=from_string:5:99 */;
  let %x_3: Tensor[(10, 20), float16] /* ty=Tensor[(10, 20), float16] span=from_string:10:104 */ = annotation.stop_fusion(%x_2) /* ty=Tensor[(10, 20), float16] span=from_string:6:100 */;
  %2 = cast(%x_0, dtype="float16") /* ty=float16 */;
  let %x_4: Tensor[(10, 20), float16] /* ty=Tensor[(10, 20), float16] span=from_string:9:104 */ = add(%2, %x_3) /* ty=Tensor[(10, 20), float16] span=from_string:7:99 */;
  let %x_5: Tensor[(10, 20), float16] /* ty=Tensor[(10, 20), float16] span=from_string:9:110 */ = ones(shape=[10, 20], dtype="float16") /* ty=Tensor[(10, 20), float16] span=from_string:8:99 */;
  let %x_6: Tensor[(10, 20), float16] /* ty=Tensor[(10, 20), float16] span=from_string:44:544 */ = add(%x_4, %x_5) /* ty=Tensor[(10, 20), float16] span=from_string:9:100 */;
  %3 = cast(%x_3, dtype="float32") /* ty=Tensor[(10, 20), float32] */;
  let %x_7: Tensor[(10, 20), float32] /* ty=Tensor[(10, 20), float32] span=from_string:15:110 */ = exp(%3) /* ty=Tensor[(10, 20), float32] span=from_string:10:100 */;
  %4 = cast(%x_7, dtype="float16") /* ty=Tensor[(10, 20), float16] */;
  %5 = cast(%x1, dtype="float16") /* ty=Tensor[(12, 20), float16] */;
  let %x_8: Tensor[(10, 12), float16] /* ty=Tensor[(10, 12), float16] span=from_string:12:104 */ = nn.dense(%4, %5, units=None, out_dtype="float16") /* ty=Tensor[(10, 12), float16] span=from_string:11:100 */;
  %6 = cast(%x2, dtype="float16") /* ty=Tensor[(12), float16] */;
  let %x_9: Tensor[(10, 12), float16] /* ty=Tensor[(10, 12), float16] span=from_string:13:111 */ = add(%x_8, %6) /* ty=Tensor[(10, 12), float16] span=from_string:12:100 */;
  %7 = cast(%x3, dtype="float16") /* ty=Tensor[(1), float16] */;
  let %x_10: Tensor[(10, 12), float16] /* ty=Tensor[(10, 12), float16] span=from_string:14:115 */ = multiply(%x_9, %7) /* ty=Tensor[(10, 12), float16] span=from_string:13:102 */;
  let %x_11: Tensor[(1, 1, 120), float16] /* ty=Tensor[(1, 1, 120), float16] span=from_string:19:172 */ = reshape(%x_10, newshape=[1, 1, 120]) /* ty=Tensor[(1, 1, 120), float16] span=from_string:14:107 */;
  %8 = cast(%x4, dtype="float16") /* ty=Tensor[(24, 20), float16] */;
  let %x_12: Tensor[(10, 24), float16] /* ty=Tensor[(10, 24), float16] span=from_string:41:160 */ = nn.dense(%4, %8, units=None, out_dtype="float16") /* ty=Tensor[(10, 24), float16] span=from_string:15:101 */;
  %9 = cast(%x5, dtype="float16") /* ty=Tensor[(24), float16] */;
  let %x_13: Tensor[(10, 24), float16] /* ty=Tensor[(10, 24), float16] span=from_string:17:111 */ = add(%x_12, %9) /* ty=Tensor[(10, 24), float16] span=from_string:16:101 */;
  %10 = cast(%x6, dtype="float16") /* ty=Tensor[(1), float16] */;
  let %x_14: Tensor[(10, 24), float16] /* ty=Tensor[(10, 24), float16] span=from_string:18:115 */ = multiply(%x_13, %10) /* ty=Tensor[(10, 24), float16] span=from_string:17:102 */;
  let %x_15: Tensor[(1, 1, 240), float16] /* ty=Tensor[(1, 1, 240), float16] span=from_string:19:179 */ = reshape(%x_14, newshape=[1, 1, 240]) /* ty=Tensor[(1, 1, 240), float16] span=from_string:18:107 */;
  let %x_16: (Tensor[(1, 1, 120), float16], Tensor[(1, 1, 240), float16]) /* ty=(Tensor[(1, 1, 120), float16], Tensor[(1, 1, 240), float16]) span=from_string:44:550 */ = (%x_11, %x_15) /* ty=(Tensor[(1, 1, 120), float16], Tensor[(1, 1, 240), float16]) span=from_string:19:171 */;
  %11 = cast(%x7, dtype="float16") /* ty=Tensor[(70, 20), float16] */;
  let %x_17: Tensor[(70, 12), float16] /* ty=Tensor[(70, 12), float16] span=from_string:21:105 */ = nn.dense(%11, %5, units=None, out_dtype="float16") /* ty=Tensor[(70, 12), float16] span=from_string:20:101 */;
  %12 = cast(%x9, dtype="float16") /* ty=Tensor[(12), float16] */;
  let %x_18: Tensor[(70, 12), float16] /* ty=Tensor[(70, 12), float16] span=from_string:40:118 */ = add(%x_17, %12) /* ty=Tensor[(70, 12), float16] span=from_string:21:101 */;
  %13 = cast(%x11, dtype="float16") /* ty=Tensor[(1), float16] */;
  let %x_19: Tensor[(70, 12), float16] /* ty=Tensor[(70, 12), float16] span=from_string:23:115 */ = multiply(%x_18, %13) /* ty=Tensor[(70, 12), float16] span=from_string:22:102 */;
  let %x_20: Tensor[(1, 1, 840), float16] /* ty=Tensor[(1, 1, 840), float16] span=from_string:28:172 */ = reshape(%x_19, newshape=[1, 1, -1]) /* ty=Tensor[(1, 1, 840), float16] span=from_string:23:107 */;
  %14 = cast(%x8, dtype="float16") /* ty=Tensor[(12, 20), float16] */;
  let %x_21: Tensor[(70, 12), float16] /* ty=Tensor[(70, 12), float16] span=from_string:25:105 */ = nn.dense(%11, %14, units=None, out_dtype="float16") /* ty=Tensor[(70, 12), float16] span=from_string:24:101 */;
  %15 = cast(%x10, dtype="float16") /* ty=Tensor[(12), float16] */;
  let %x_22: Tensor[(70, 12), float16] /* ty=Tensor[(70, 12), float16] span=from_string:26:111 */ = add(%x_21, %15) /* ty=Tensor[(70, 12), float16] span=from_string:25:101 */;
  %16 = cast(%x12, dtype="float16") /* ty=Tensor[(1), float16] */;
  let %x_23: Tensor[(70, 12), float16] /* ty=Tensor[(70, 12), float16] span=from_string:27:115 */ = multiply(%x_22, %16) /* ty=Tensor[(70, 12), float16] span=from_string:26:102 */;
  let %x_24: Tensor[(1, 1, 840), float16] /* ty=Tensor[(1, 1, 840), float16] span=from_string:28:179 */ = reshape(%x_23, newshape=[1, 1, -1]) /* ty=Tensor[(1, 1, 840), float16] span=from_string:27:107 */;
  let %x_25: (Tensor[(1, 1, 840), float16], Tensor[(1, 1, 840), float16]) /* ty=(Tensor[(1, 1, 840), float16], Tensor[(1, 1, 840), float16]) span=from_string:44:557 */ = (%x_20, %x_24) /* ty=(Tensor[(1, 1, 840), float16], Tensor[(1, 1, 840), float16]) span=from_string:28:171 */;
  %17 = nn.relu(%13) /* ty=Tensor[(1), float16] span=from_string:33:90 */;
  let %x_26: Tensor[(1), float16] /* ty=Tensor[(1), float16] span=from_string:32:94 */ = %17;
  let %x_27: float32 /* ty=float32 span=from_string:32:101 */ = 1f /* ty=float32 span=from_string:31:67 */;
  %18 = cast(%x_27, dtype="float16") /* ty=float16 */;
  let %x_28: Tensor[(1), float16] /* ty=Tensor[(1), float16] span=from_string:36:95 */ = add(%x_26, %18) /* ty=Tensor[(1), float16] span=from_string:32:90 */;
  let %x_29: Tensor[(1), float16] /* ty=Tensor[(1), float16] span=from_string:35:95 */ = %17;
  let %x_30: float32 /* ty=float32 span=from_string:35:102 */ = 1f /* ty=float32 span=from_string:34:67 */;
  %19 = cast(%x_30, dtype="float16") /* ty=float16 */;
  let %x_31: Tensor[(1), float16] /* ty=Tensor[(1), float16] span=from_string:36:102 */ = add(%x_29, %19) /* ty=Tensor[(1), float16] span=from_string:35:91 */;
  let %x_32: Tensor[(1), float16] /* ty=Tensor[(1), float16] span=from_string:44:564 */ = add(%x_28, %x_31) /* ty=Tensor[(1), float16] span=from_string:36:91 */;
  let %x_33: Tensor[(1), float16] /* ty=Tensor[(1), float16] span=from_string:38:100 */ = ones(shape=[1], dtype="float16") /* ty=Tensor[(1), float16] span=from_string:37:90 */;
  let %x_34: Tensor[(1), float16] /* ty=Tensor[(1), float16] span=from_string:44:571 */ = add(%7, %x_33) /* ty=Tensor[(1), float16] span=from_string:38:91 */;
  let %x_35: Tensor[(1), float16] /* ty=Tensor[(1), float16] span=from_string:40:111 */ = ones(shape=[1], dtype="float16") /* ty=Tensor[(1), float16] span=from_string:39:91 */;
  let %x_36: Tensor[(70, 12), float16] /* ty=Tensor[(70, 12), float16] span=from_string:44:578 */ = multiply(%x_35, %x_18) /* ty=Tensor[(70, 12), float16] span=from_string:40:102 */;
  let %x_37: (Tensor[(10, 24), float16], Tensor[(45, 24), float32]) /* ty=(Tensor[(10, 24), float16], Tensor[(45, 24), float32]) span=from_string:42:113 */ = (%x_12, %x13) /* ty=(Tensor[(10, 24), float16], Tensor[(45, 24), float32]) span=from_string:41:159 */;
  %20 = %x_37.1 /* ty=Tensor[(45, 24), float32] */;
  %21 = %x_37.0 /* ty=Tensor[(10, 24), float16] */;
  %22 = cast(%20, dtype="float16") /* ty=Tensor[(45, 24), float16] */;
  %23 = (%21, %22) /* ty=(Tensor[(10, 24), float16], Tensor[(45, 24), float16]) */;
  let %x_38: Tensor[(55, 24), float16] /* ty=Tensor[(55, 24), float16] span=from_string:43:105 */ = concatenate(%23) /* ty=Tensor[(55, 24), float16] span=from_string:42:101 */;
  let %x_39: Tensor[(1320), float16] /* ty=Tensor[(1320), float16] span=from_string:44:585 */ = reshape(%x_38, newshape=[1320]) /* ty=Tensor[(1320), float16] span=from_string:43:97 */;
  let %x_40: (Tensor[(10, 20), float16], (Tensor[(1, 1, 120), float16], Tensor[(1, 1, 240), float16]), (Tensor[(1, 1, 840), float16], Tensor[(1, 1, 840), float16]), Tensor[(1), float16], Tensor[(1), float16], Tensor[(70, 12), float16], Tensor[(1320), float16]) /* ty=(Tensor[(10, 20), float16], (Tensor[(1, 1, 120), float16], Tensor[(1, 1, 240), float16]), (Tensor[(1, 1, 840), float16], Tensor[(1, 1, 840), float16]), Tensor[(1), float16], Tensor[(1), float16], Tensor[(70, 12), float16], Tensor[(1320), float16]) span=from_string:45:3 */ = (%x_6, %x_16, %x_25, %x_32, %x_34, %x_36, %x_39) /* ty=(Tensor[(10, 20), float16], (Tensor[(1, 1, 120), float16], Tensor[(1, 1, 240), float16]), (Tensor[(1, 1, 840), float16], Tensor[(1, 1, 840), float16]), Tensor[(1), float16], Tensor[(1), float16], Tensor[(70, 12), float16], Tensor[(1320), float16]) span=from_string:44:543 */;
  %x_40
}
