#[version = "0.0.5"]
def @main(%x0: Tensor[(10, 20), float32] /* ty=Tensor[(10, 20), float32] span=from_string:5:19 */, %x1: Tensor[(12, 20), float32] /* ty=Tensor[(12, 20), float32] span=from_string:16:20 */, %x2: Tensor[(12), float32] /* ty=Tensor[(12), float32] span=from_string:18:20 */, %x3: Tensor[(1), float32] /* ty=Tensor[(1), float32] span=from_string:21:20 */, %x4: Tensor[(24, 20), float32] /* ty=Tensor[(24, 20), float32] span=from_string:24:20 */, %x5: Tensor[(24), float32] /* ty=Tensor[(24), float32] span=from_string:26:20 */, %x6: Tensor[(1), float32] /* ty=Tensor[(1), float32] span=from_string:29:20 */, %x7: Tensor[(70, 20), float32] /* ty=Tensor[(70, 20), float32] span=from_string:33:20 */, %x8: Tensor[(12, 20), float32] /* ty=Tensor[(12, 20), float32] span=from_string:41:20 */, %x9: Tensor[(12), float32] /* ty=Tensor[(12), float32] span=from_string:35:20 */, %x10: Tensor[(12), float32] /* ty=Tensor[(12), float32] span=from_string:43:20 */, %x11: Tensor[(1), float32] /* ty=Tensor[(1), float32] span=from_string:38:20 */, %x12: Tensor[(1), float32] /* ty=Tensor[(1), float32] span=from_string:46:20 */, %x13: Tensor[(45, 24), float32] /* ty=Tensor[(45, 24), float32] span=from_string:63:23 */, %x14: Tensor[(1320), float32] /* ty=Tensor[(1320), float32] */) -> (Tensor[(10, 20), float16], (Tensor[(1, 1, 120), float16], Tensor[(1, 1, 240), float16]), (Tensor[(1, 1, 840), float16], Tensor[(1, 1, 840), float16]), Tensor[(1), float16], Tensor[(1), float16], Tensor[(70, 12), float16], Tensor[(1320), float32]) {
  let %x_0: float32 /* ty=float32 span=from_string:4:19 */ = 2f /* ty=float32 span=from_string:3:16 */;
  let %x_1: float16 /* ty=float16 span=from_string:10:18 */ = cast(%x_0, dtype="float16") /* ty=float16 span=from_string:4:14 */;
  let %x_2: Tensor[(10, 20), float16] /* ty=Tensor[(10, 20), float16] span=from_string:8:18 */ = cast(%x0, dtype="float16") /* ty=Tensor[(10, 20), float16] span=from_string:5:14 */;
  let %x_3: float32 /* ty=float32 span=from_string:7:19 */ = 1f /* ty=float32 span=from_string:6:16 */;
  let %x_4: float16 /* ty=float16 span=from_string:8:24 */ = cast(%x_3, dtype="float16") /* ty=float16 span=from_string:7:14 */;
  let %x_5: Tensor[(10, 20), float16] /* ty=Tensor[(10, 20), float16] span=from_string:9:37 */ = add(%x_2, %x_4) /* ty=Tensor[(10, 20), float16] span=from_string:8:14 */;
  let %x_6: Tensor[(10, 20), float16] /* ty=Tensor[(10, 20), float16] span=from_string:13:20 */ = annotation.stop_fusion(%x_5) /* ty=Tensor[(10, 20), float16] span=from_string:9:14 */;
  let %x_7: Tensor[(10, 20), float16] /* ty=Tensor[(10, 20), float16] span=from_string:12:18 */ = add(%x_1, %x_6) /* ty=Tensor[(10, 20), float16] span=from_string:10:14 */;
  let %x_8: Tensor[(10, 20), float16] /* ty=Tensor[(10, 20), float16] span=from_string:12:24 */ = ones_like(%x_7) /* ty=Tensor[(10, 20), float16] span=from_string:11:14 */;
  let %x_9: Tensor[(10, 20), float16] /* ty=Tensor[(10, 20), float16] span=from_string:73:16 */ = add(%x_7, %x_8) /* ty=Tensor[(10, 20), float16] span=from_string:12:14 */;
  let %x_10: Tensor[(10, 20), float32] /* ty=Tensor[(10, 20), float32] span=from_string:14:19 */ = cast(%x_6, dtype="float32") /* ty=Tensor[(10, 20), float32] span=from_string:13:15 */;
  let %x_11: Tensor[(10, 20), float32] /* ty=Tensor[(10, 20), float32] span=from_string:15:20 */ = exp(%x_10) /* ty=Tensor[(10, 20), float32] span=from_string:14:15 */;
  let %x_12: Tensor[(10, 20), float16] /* ty=Tensor[(10, 20), float16] span=from_string:25:24 */ = cast(%x_11, dtype="float16") /* ty=Tensor[(10, 20), float16] span=from_string:15:15 */;
  let %x_13: Tensor[(12, 20), float16] /* ty=Tensor[(12, 20), float16] span=from_string:34:31 */ = cast(%x1, dtype="float16") /* ty=Tensor[(12, 20), float16] span=from_string:16:15 */;
  let %x_14: Tensor[(10, 12), float16] /* ty=Tensor[(10, 12), float16] span=from_string:20:19 */ = nn.dense(%x_12, %x_13, units=None, out_dtype="float16") /* ty=Tensor[(10, 12), float16] span=from_string:17:15 */;
  let %x_15: Tensor[(12), float16] /* ty=Tensor[(12), float16] span=from_string:19:27 */ = cast(%x2, dtype="float16") /* ty=Tensor[(12), float16] span=from_string:18:15 */;
  let %x_16: Tensor[(1, 12), float16] /* ty=Tensor[(1, 12), float16] span=from_string:20:26 */ = expand_dims(%x_15, axis=0) /* ty=Tensor[(1, 12), float16] span=from_string:19:15 */;
  let %x_17: Tensor[(10, 12), float16] /* ty=Tensor[(10, 12), float16] span=from_string:22:25 */ = add(%x_14, %x_16) /* ty=Tensor[(10, 12), float16] span=from_string:20:15 */;
  let %x_18: Tensor[(1), float16] /* ty=Tensor[(1), float16] span=from_string:60:19 */ = cast(%x3, dtype="float16") /* ty=Tensor[(1), float16] span=from_string:21:15 */;
  let %x_19: Tensor[(10, 12), float16] /* ty=Tensor[(10, 12), float16] span=from_string:23:23 */ = multiply(%x_17, %x_18) /* ty=Tensor[(10, 12), float16] span=from_string:22:16 */;
  let %x_20: Tensor[(1, 1, 120), float16] /* ty=Tensor[(1, 1, 120), float16] span=from_string:32:16 */ = reshape(%x_19, newshape=[1, 1, 120]) /* ty=Tensor[(1, 1, 120), float16] span=from_string:23:15 */;
  let %x_21: Tensor[(24, 20), float16] /* ty=Tensor[(24, 20), float16] span=from_string:25:31 */ = cast(%x4, dtype="float16") /* ty=Tensor[(24, 20), float16] span=from_string:24:15 */;
  let %x_22: Tensor[(10, 24), float16] /* ty=Tensor[(10, 24), float16] span=from_string:63:16 */ = nn.dense(%x_12, %x_21, units=None, out_dtype="float16") /* ty=Tensor[(10, 24), float16] span=from_string:25:15 */;
  let %x_23: Tensor[(24), float16] /* ty=Tensor[(24), float16] span=from_string:27:27 */ = cast(%x5, dtype="float16") /* ty=Tensor[(24), float16] span=from_string:26:15 */;
  let %x_24: Tensor[(1, 24), float16] /* ty=Tensor[(1, 24), float16] span=from_string:28:26 */ = expand_dims(%x_23, axis=0) /* ty=Tensor[(1, 24), float16] span=from_string:27:15 */;
  let %x_25: Tensor[(10, 24), float16] /* ty=Tensor[(10, 24), float16] span=from_string:30:25 */ = add(%x_22, %x_24) /* ty=Tensor[(10, 24), float16] span=from_string:28:15 */;
  let %x_26: Tensor[(1), float16] /* ty=Tensor[(1), float16] span=from_string:30:32 */ = cast(%x6, dtype="float16") /* ty=Tensor[(1), float16] span=from_string:29:15 */;
  let %x_27: Tensor[(10, 24), float16] /* ty=Tensor[(10, 24), float16] span=from_string:31:23 */ = multiply(%x_25, %x_26) /* ty=Tensor[(10, 24), float16] span=from_string:30:16 */;
  let %x_28: Tensor[(1, 1, 240), float16] /* ty=Tensor[(1, 1, 240), float16] span=from_string:32:23 */ = reshape(%x_27, newshape=[1, 1, 240]) /* ty=Tensor[(1, 1, 240), float16] span=from_string:31:15 */;
  let %x_29: (Tensor[(1, 1, 120), float16], Tensor[(1, 1, 240), float16]) /* ty=(Tensor[(1, 1, 120), float16], Tensor[(1, 1, 240), float16]) span=from_string:73:22 */ = (%x_20, %x_28) /* ty=(Tensor[(1, 1, 120), float16], Tensor[(1, 1, 240), float16]) span=from_string:32:15 */;
  let %x_30: Tensor[(70, 20), float16] /* ty=Tensor[(70, 20), float16] span=from_string:42:24 */ = cast(%x7, dtype="float16") /* ty=Tensor[(70, 20), float16] span=from_string:33:15 */;
  let %x_31: Tensor[(70, 12), float16] /* ty=Tensor[(70, 12), float16] span=from_string:37:19 */ = nn.dense(%x_30, %x_13, units=None, out_dtype="float16") /* ty=Tensor[(70, 12), float16] span=from_string:34:15 */;
  let %x_32: Tensor[(12), float16] /* ty=Tensor[(12), float16] span=from_string:36:27 */ = cast(%x9, dtype="float16") /* ty=Tensor[(12), float16] span=from_string:35:15 */;
  let %x_33: Tensor[(1, 12), float16] /* ty=Tensor[(1, 12), float16] span=from_string:37:26 */ = expand_dims(%x_32, axis=0) /* ty=Tensor[(1, 12), float16] span=from_string:36:15 */;
  let %x_34: Tensor[(70, 12), float16] /* ty=Tensor[(70, 12), float16] span=from_string:62:32 */ = add(%x_31, %x_33) /* ty=Tensor[(70, 12), float16] span=from_string:37:15 */;
  let %x_35: Tensor[(1), float16] /* ty=Tensor[(1), float16] span=from_string:54:23 */ = cast(%x11, dtype="float16") /* ty=Tensor[(1), float16] span=from_string:38:15 */;
  let %x_36: Tensor[(70, 12), float16] /* ty=Tensor[(70, 12), float16] span=from_string:40:23 */ = multiply(%x_34, %x_35) /* ty=Tensor[(70, 12), float16] span=from_string:39:16 */;
  let %x_37: Tensor[(1, 1, 840), float16] /* ty=Tensor[(1, 1, 840), float16] span=from_string:49:16 */ = reshape(%x_36, newshape=[1, 1, -1]) /* ty=Tensor[(1, 1, 840), float16] span=from_string:40:15 */;
  let %x_38: Tensor[(12, 20), float16] /* ty=Tensor[(12, 20), float16] span=from_string:42:31 */ = cast(%x8, dtype="float16") /* ty=Tensor[(12, 20), float16] span=from_string:41:15 */;
  let %x_39: Tensor[(70, 12), float16] /* ty=Tensor[(70, 12), float16] span=from_string:45:19 */ = nn.dense(%x_30, %x_38, units=None, out_dtype="float16") /* ty=Tensor[(70, 12), float16] span=from_string:42:15 */;
  let %x_40: Tensor[(12), float16] /* ty=Tensor[(12), float16] span=from_string:44:27 */ = cast(%x10, dtype="float16") /* ty=Tensor[(12), float16] span=from_string:43:15 */;
  let %x_41: Tensor[(1, 12), float16] /* ty=Tensor[(1, 12), float16] span=from_string:45:26 */ = expand_dims(%x_40, axis=0) /* ty=Tensor[(1, 12), float16] span=from_string:44:15 */;
  let %x_42: Tensor[(70, 12), float16] /* ty=Tensor[(70, 12), float16] span=from_string:47:25 */ = add(%x_39, %x_41) /* ty=Tensor[(70, 12), float16] span=from_string:45:15 */;
  let %x_43: Tensor[(1), float16] /* ty=Tensor[(1), float16] span=from_string:47:32 */ = cast(%x12, dtype="float16") /* ty=Tensor[(1), float16] span=from_string:46:15 */;
  let %x_44: Tensor[(70, 12), float16] /* ty=Tensor[(70, 12), float16] span=from_string:48:23 */ = multiply(%x_42, %x_43) /* ty=Tensor[(70, 12), float16] span=from_string:47:16 */;
  let %x_45: Tensor[(1, 1, 840), float16] /* ty=Tensor[(1, 1, 840), float16] span=from_string:49:23 */ = reshape(%x_44, newshape=[1, 1, -1]) /* ty=Tensor[(1, 1, 840), float16] span=from_string:48:15 */;
  let %x_46: (Tensor[(1, 1, 840), float16], Tensor[(1, 1, 840), float16]) /* ty=(Tensor[(1, 1, 840), float16], Tensor[(1, 1, 840), float16]) span=from_string:73:29 */ = (%x_37, %x_45) /* ty=(Tensor[(1, 1, 840), float16], Tensor[(1, 1, 840), float16]) span=from_string:49:15 */;
  %0 = nn.relu(%x_35) /* ty=Tensor[(1), float16] span=from_string:50:15 */;
  let %x_47: Tensor[(1), float16] /* ty=Tensor[(1), float16] span=from_string:53:19 */ = %0;
  let %x_48: float32 /* ty=float32 span=from_string:52:20 */ = 1f /* ty=float32 span=from_string:51:17 */;
  let %x_49: float16 /* ty=float16 span=from_string:53:26 */ = cast(%x_48, dtype="float16") /* ty=float16 span=from_string:52:15 */;
  let %x_50: Tensor[(1), float16] /* ty=Tensor[(1), float16] span=from_string:58:19 */ = add(%x_47, %x_49) /* ty=Tensor[(1), float16] span=from_string:53:15 */;
  let %x_51: Tensor[(1), float16] /* ty=Tensor[(1), float16] span=from_string:57:19 */ = %0;
  let %x_52: float32 /* ty=float32 span=from_string:56:20 */ = 1f /* ty=float32 span=from_string:55:17 */;
  let %x_53: float16 /* ty=float16 span=from_string:57:26 */ = cast(%x_52, dtype="float16") /* ty=float16 span=from_string:56:15 */;
  let %x_54: Tensor[(1), float16] /* ty=Tensor[(1), float16] span=from_string:58:26 */ = add(%x_51, %x_53) /* ty=Tensor[(1), float16] span=from_string:57:15 */;
  let %x_55: Tensor[(1), float16] /* ty=Tensor[(1), float16] span=from_string:73:36 */ = add(%x_50, %x_54) /* ty=Tensor[(1), float16] span=from_string:58:15 */;
  let %x_56: Tensor[(1), float16] /* ty=Tensor[(1), float16] span=from_string:60:26 */ = ones_like(%x_18) /* ty=Tensor[(1), float16] span=from_string:59:15 */;
  let %x_57: Tensor[(1), float16] /* ty=Tensor[(1), float16] span=from_string:73:43 */ = add(%x_18, %x_56) /* ty=Tensor[(1), float16] span=from_string:60:15 */;
  let %x_58: Tensor[(1), float16] /* ty=Tensor[(1), float16] span=from_string:62:25 */ = ones(shape=[1], dtype="float16") /* ty=Tensor[(1), float16] span=from_string:61:15 */;
  let %x_59: Tensor[(70, 12), float16] /* ty=Tensor[(70, 12), float16] span=from_string:73:50 */ = multiply(%x_58, %x_34) /* ty=Tensor[(70, 12), float16] span=from_string:62:16 */;
  let %x_60: (Tensor[(10, 24), float16], Tensor[(45, 24), float32]) /* ty=(Tensor[(10, 24), float16], Tensor[(45, 24), float32]) span=from_string:66:15 */ = (%x_22, %x13) /* ty=(Tensor[(10, 24), float16], Tensor[(45, 24), float32]) span=from_string:63:15 */;
  let %x_61: Tensor[(10, 24), float16] /* ty=Tensor[(10, 24), float16] span=from_string:65:20 */ = %x_60.0 /* ty=Tensor[(10, 24), float16] span=from_string:64:15 */;
  let %x_62: Tensor[(10, 24), float32] /* ty=Tensor[(10, 24), float32] span=from_string:67:16 */ = cast(%x_61, dtype="float32") /* ty=Tensor[(10, 24), float32] span=from_string:65:15 */;
  let %x_63: Tensor[(45, 24), float32] /* ty=Tensor[(45, 24), float32] span=from_string:67:23 */ = %x_60.1 /* ty=Tensor[(45, 24), float32] span=from_string:66:15 */;
  let %x_64: (Tensor[(10, 24), float32], Tensor[(45, 24), float32]) /* ty=(Tensor[(10, 24), float32], Tensor[(45, 24), float32]) span=from_string:68:27 */ = (%x_62, %x_63) /* ty=(Tensor[(10, 24), float32], Tensor[(45, 24), float32]) span=from_string:67:15 */;
  let %x_65: Tensor[(55, 24), float32] /* ty=Tensor[(55, 24), float32] span=from_string:69:38 */ = concatenate(%x_64) /* ty=Tensor[(55, 24), float32] span=from_string:68:15 */;
  let %x_66: Tensor[(55, 24), float32] /* ty=Tensor[(55, 24), float32] span=from_string:70:16 */ = annotation.stop_fusion(%x_65) /* ty=Tensor[(55, 24), float32] span=from_string:69:15 */;
  let %x_67: (Tensor[(55, 24), float32],) /* ty=(Tensor[(55, 24), float32],) span=from_string:71:27 */ = (%x_66,) /* ty=(Tensor[(55, 24), float32],) span=from_string:70:15 */;
  let %x_68: Tensor[(55, 24), float32] /* ty=Tensor[(55, 24), float32] span=from_string:72:23 */ = concatenate(%x_67) /* ty=Tensor[(55, 24), float32] span=from_string:71:15 */;
  let %x_69: Tensor[(1320), float32] /* ty=Tensor[(1320), float32] span=from_string:73:57 */ = reshape(%x_68, newshape=[1320]) /* ty=Tensor[(1320), float32] span=from_string:72:15 */;
  let %x_70: (Tensor[(10, 20), float16], (Tensor[(1, 1, 120), float16], Tensor[(1, 1, 240), float16]), (Tensor[(1, 1, 840), float16], Tensor[(1, 1, 840), float16]), Tensor[(1), float16], Tensor[(1), float16], Tensor[(70, 12), float16], Tensor[(1320), float32]) /* ty=(Tensor[(10, 20), float16], (Tensor[(1, 1, 120), float16], Tensor[(1, 1, 240), float16]), (Tensor[(1, 1, 840), float16], Tensor[(1, 1, 840), float16]), Tensor[(1), float16], Tensor[(1), float16], Tensor[(70, 12), float16], Tensor[(1320), float32]) span=from_string:74:3 */ = (%x_9, %x_29, %x_46, %x_55, %x_57, %x_59, %x_69) /* ty=(Tensor[(10, 20), float16], (Tensor[(1, 1, 120), float16], Tensor[(1, 1, 240), float16]), (Tensor[(1, 1, 840), float16], Tensor[(1, 1, 840), float16]), Tensor[(1), float16], Tensor[(1), float16], Tensor[(70, 12), float16], Tensor[(1320), float32]) span=from_string:73:15 */;
  %x_70
}
