#[version = "0.0.5"]
def @main(%x0: Tensor[(10, 20), float32] /* ty=Tensor[(10, 20), float32] span=from_string:8:11 */, %x1: Tensor[(12, 20), float32] /* ty=Tensor[(12, 20), float32] span=from_string:26:13 */, %x2: Tensor[(12), float32] /* ty=Tensor[(12), float32] span=from_string:34:23 */, %x3: Tensor[(1), float32] /* ty=Tensor[(1), float32] span=from_string:27:13 */, %x4: Tensor[(24, 20), float32] /* ty=Tensor[(24, 20), float32] span=from_string:41:13 */, %x5: Tensor[(24), float32] /* ty=Tensor[(24), float32] span=from_string:54:13 */, %x6: Tensor[(1), float32] /* ty=Tensor[(1), float32] span=from_string:54:23 */, %x7: Tensor[(70, 20), float32] /* ty=Tensor[(70, 20), float32] span=from_string:58:13 */, %x8: Tensor[(12, 20), float32] /* ty=Tensor[(12, 20), float32] span=from_string:76:13 */, %x9: Tensor[(12), float32] /* ty=Tensor[(12), float32] span=from_string:67:23 */, %x10: Tensor[(12), float32] /* ty=Tensor[(12), float32] span=from_string:84:23 */, %x11: Tensor[(1), float32] /* ty=Tensor[(1), float32] span=from_string:68:13 */, %x12: Tensor[(1), float32] /* ty=Tensor[(1), float32] span=from_string:84:29 */, %x13: Tensor[(45, 24), float32] /* ty=Tensor[(45, 24), float32] span=from_string:102:15 */, %x14: Tensor[(1320), float32] /* ty=Tensor[(1320), float32] */) -> (Tensor[(10, 20), float16], (Tensor[(1, 1, 120), float16], Tensor[(1, 1, 240), float16]), (Tensor[(1, 1, 840), float16], Tensor[(1, 1, 840), float16]), Tensor[(1), float16], Tensor[(1), float16], Tensor[(70, 12), float16], Tensor[(1320), float32]) {
  %4 = fn (%p01: Tensor[(10, 20), float32] /* ty=Tensor[(10, 20), float32] span=from_string:4:15 */, Primitive=1) -> Tensor[(10, 20), float16] {
    %2 = cast(%p01, dtype="float16") /* ty=Tensor[(10, 20), float16] span=from_string:6:9 */;
    %3 = cast(1f /* ty=float32 span=from_string:5:17 */, dtype="float16") /* ty=float16 span=from_string:6:13 */;
    add(%2, %3) /* ty=Tensor[(10, 20), float16] span=from_string:4:5 */
  } /* ty=fn (Tensor[(10, 20), float32]) -> Tensor[(10, 20), float16] span=from_string:8:8 */;
  %5 = %4(%x0) /* ty=Tensor[(10, 20), float16] span=from_string:111:12 */;
  %6 = fn (%p0: Tensor[(10, 20), float16] /* ty=Tensor[(10, 20), float16] span=from_string:11:18 */, %p1: float16 /* ty=float16 span=from_string:12:13 */, Primitive=1) -> Tensor[(10, 20), float16] {
    %0 = cast(2f /* ty=float32 span=from_string:10:17 */, dtype="float16") /* ty=float16 span=from_string:11:14 */;
    %1 = add(%0, %p0) /* ty=Tensor[(10, 20), float16] span=from_string:12:9 */;
    add(%1, %p1) /* ty=Tensor[(10, 20), float16] span=from_string:10:5 */
  } /* ty=fn (Tensor[(10, 20), float16], float16) -> Tensor[(10, 20), float16] span=from_string:111:9 */;
  %12 = fn (%p04: Tensor[(10, 20), float16] /* ty=Tensor[(10, 20), float16] span=from_string:15:16 */, Primitive=1) -> Tensor[(10, 20), float16] {
    %10 = cast(%p04, dtype="float32") /* ty=Tensor[(10, 20), float32] span=from_string:16:15 */;
    %11 = exp(%10) /* ty=Tensor[(10, 20), float32] span=from_string:17:10 */;
    cast(%11, dtype="float16") /* ty=Tensor[(10, 20), float16] span=from_string:15:5 */
  } /* ty=fn (Tensor[(10, 20), float16]) -> Tensor[(10, 20), float16] span=from_string:25:9 */;
  %13 = fn (%p05: Tensor[(12, 20), float32] /* ty=Tensor[(12, 20), float32] span=from_string:20:10 */, Primitive=1) -> Tensor[(12, 20), float16] {
    cast(%p05, dtype="float16") /* ty=Tensor[(12, 20), float16] span=from_string:20:5 */
  } /* ty=fn (Tensor[(12, 20), float32]) -> Tensor[(12, 20), float16] span=from_string:26:9 */;
  %14 = fn (%p06: Tensor[(1), float32] /* ty=Tensor[(1), float32] span=from_string:23:10 */, Primitive=1) -> Tensor[(1), float16] {
    cast(%p06, dtype="float16") /* ty=Tensor[(1), float16] span=from_string:23:5 */
  } /* ty=fn (Tensor[(1), float32]) -> Tensor[(1), float16] span=from_string:27:9 */;
  %15 = %12(%5) /* ty=Tensor[(10, 20), float16] span=from_string:45:13 */;
  %16 = %13(%x1) /* ty=Tensor[(12, 20), float16] span=from_string:67:18 */;
  %17 = %14(%x3) /* ty=Tensor[(1), float16] span=from_string:115:13 */;
  %18 = fn (%p03: Tensor[(10, 20), float16] /* ty=Tensor[(10, 20), float16] span=from_string:29:19 */, %p11: Tensor[(12, 20), float16] /* ty=Tensor[(12, 20), float16] span=from_string:29:25 */, %p2: Tensor[(12), float32] /* ty=Tensor[(12), float32] span=from_string:30:15 */, %p3: Tensor[(1), float16] /* ty=Tensor[(1), float16] span=from_string:32:19 */, Primitive=1) -> Tensor[(10, 12), float16] {
    %7 = nn.dense(%p03, %p11, units=None, out_dtype="float16") /* ty=Tensor[(10, 12), float16] span=from_string:31:14 */;
    %8 = cast(%p2, dtype="float16") /* ty=Tensor[(12), float16] span=from_string:31:18 */;
    %9 = add(%7, %8) /* ty=Tensor[(10, 12), float16] span=from_string:32:15 */;
    multiply(%9, %p3) /* ty=Tensor[(10, 12), float16] span=from_string:29:5 */
  } /* ty=fn (Tensor[(10, 20), float16], Tensor[(12, 20), float16], Tensor[(12), float32], Tensor[(1), float16]) -> Tensor[(10, 12), float16] span=from_string:34:9 */;
  %19 = %18(%15, %16, %x2, %17) /* ty=Tensor[(10, 12), float16] span=from_string:53:13 */;
  %20 = fn (%p02: Tensor[(10, 12), float16] /* ty=Tensor[(10, 12), float16] span=from_string:36:13 */, Primitive=1, relay.reshape_only=1) -> Tensor[(1, 1, 120), float16] {
    reshape(%p02, newshape=[1, 1, 120]) /* ty=Tensor[(1, 1, 120), float16] span=from_string:36:5 */
  } /* ty=fn (Tensor[(10, 12), float16]) -> Tensor[(1, 1, 120), float16] span=from_string:53:9 */;
  %25 = fn (%p09: Tensor[(24, 20), float32] /* ty=Tensor[(24, 20), float32] span=from_string:39:10 */, Primitive=1) -> Tensor[(24, 20), float16] {
    cast(%p09, dtype="float16") /* ty=Tensor[(24, 20), float16] span=from_string:39:5 */
  } /* ty=fn (Tensor[(24, 20), float32]) -> Tensor[(24, 20), float16] span=from_string:41:9 */;
  %26 = %25(%x4) /* ty=Tensor[(24, 20), float16] span=from_string:45:18 */;
  %27 = fn (%p08: Tensor[(10, 20), float16] /* ty=Tensor[(10, 20), float16] span=from_string:43:14 */, %p13: Tensor[(24, 20), float16] /* ty=Tensor[(24, 20), float16] span=from_string:43:20 */, Primitive=1) -> Tensor[(10, 24), float16] {
    nn.dense(%p08, %p13, units=None, out_dtype="float16") /* ty=Tensor[(10, 24), float16] span=from_string:43:5 */
  } /* ty=fn (Tensor[(10, 20), float16], Tensor[(24, 20), float16]) -> Tensor[(10, 24), float16] span=from_string:45:9 */;
  %28 = %27(%15, %26) /* ty=Tensor[(10, 24), float16] span=from_string:102:10 */;
  %29 = fn (%p07: Tensor[(24), float32] /* ty=Tensor[(24), float32] span=from_string:47:16 */, %p12: Tensor[(10, 24), float16] /* ty=Tensor[(10, 24), float16] span=from_string:48:15 */, %p21: Tensor[(1), float32] /* ty=Tensor[(1), float32] span=from_string:49:16 */, Primitive=1) -> Tensor[(1, 1, 240), float16] {
    %21 = cast(%p07, dtype="float16") /* ty=Tensor[(24), float16] span=from_string:48:21 */;
    %22 = add(%p12, %21) /* ty=Tensor[(10, 24), float16] span=from_string:50:21 */;
    %23 = cast(%p21, dtype="float16") /* ty=Tensor[(1), float16] span=from_string:50:26 */;
    %24 = multiply(%22, %23) /* ty=Tensor[(10, 24), float16] span=from_string:51:13 */;
    reshape(%24, newshape=[1, 1, 240]) /* ty=Tensor[(1, 1, 240), float16] span=from_string:47:5 */
  } /* ty=fn (Tensor[(24), float32], Tensor[(10, 24), float16], Tensor[(1), float32]) -> Tensor[(1, 1, 240), float16] span=from_string:54:9 */;
  %30 = %20(%19) /* ty=Tensor[(1, 1, 120), float16] span=from_string:112:10 */;
  %31 = %29(%x5, %28, %x6) /* ty=Tensor[(1, 1, 240), float16] span=from_string:112:15 */;
  %35 = fn (%p012: Tensor[(70, 20), float32] /* ty=Tensor[(70, 20), float32] span=from_string:56:10 */, Primitive=1) -> Tensor[(70, 20), float16] {
    cast(%p012, dtype="float16") /* ty=Tensor[(70, 20), float16] span=from_string:56:5 */
  } /* ty=fn (Tensor[(70, 20), float32]) -> Tensor[(70, 20), float16] span=from_string:58:9 */;
  %36 = %35(%x7) /* ty=Tensor[(70, 20), float16] span=from_string:84:13 */;
  %37 = fn (%p011: Tensor[(70, 20), float16] /* ty=Tensor[(70, 20), float16] span=from_string:60:20 */, %p15: Tensor[(12, 20), float16] /* ty=Tensor[(12, 20), float16] span=from_string:60:27 */, %p22: Tensor[(12), float32] /* ty=Tensor[(12), float32] span=from_string:61:16 */, Primitive=1) -> Tensor[(70, 12), float16] {
    %33 = nn.dense(%p011, %p15, units=None, out_dtype="float16") /* ty=Tensor[(70, 12), float16] span=from_string:62:9 */;
    %34 = cast(%p22, dtype="float16") /* ty=Tensor[(12), float16] span=from_string:62:14 */;
    add(%33, %34) /* ty=Tensor[(70, 12), float16] span=from_string:60:5 */
  } /* ty=fn (Tensor[(70, 20), float16], Tensor[(12, 20), float16], Tensor[(12), float32]) -> Tensor[(70, 12), float16] span=from_string:67:9 */;
  %38 = fn (%p013: Tensor[(1), float32] /* ty=Tensor[(1), float32] span=from_string:65:10 */, Primitive=1) -> Tensor[(1), float16] {
    cast(%p013, dtype="float16") /* ty=Tensor[(1), float16] span=from_string:65:5 */
  } /* ty=fn (Tensor[(1), float32]) -> Tensor[(1), float16] span=from_string:68:9 */;
  %39 = %37(%36, %16, %x9) /* ty=Tensor[(70, 12), float16] span=from_string:117:29 */;
  %40 = %38(%x11) /* ty=Tensor[(1), float16] span=from_string:114:13 */;
  %41 = fn (%p010: Tensor[(70, 12), float16] /* ty=Tensor[(70, 12), float16] span=from_string:70:21 */, %p14: Tensor[(1), float16] /* ty=Tensor[(1), float16] span=from_string:70:28 */, Primitive=1) -> Tensor[(1, 1, 840), float16] {
    %32 = multiply(%p010, %p14) /* ty=Tensor[(70, 12), float16] span=from_string:71:13 */;
    reshape(%32, newshape=[1, 1, -1]) /* ty=Tensor[(1, 1, 840), float16] span=from_string:70:5 */
  } /* ty=fn (Tensor[(70, 12), float16], Tensor[(1), float16]) -> Tensor[(1, 1, 840), float16] span=from_string:88:9 */;
  %46 = fn (%p016: Tensor[(12, 20), float32] /* ty=Tensor[(12, 20), float32] span=from_string:74:10 */, Primitive=1) -> Tensor[(12, 20), float16] {
    cast(%p016, dtype="float16") /* ty=Tensor[(12, 20), float16] span=from_string:74:5 */
  } /* ty=fn (Tensor[(12, 20), float32]) -> Tensor[(12, 20), float16] span=from_string:76:9 */;
  %47 = %46(%x8) /* ty=Tensor[(12, 20), float16] span=from_string:84:18 */;
  %48 = fn (%p015: Tensor[(70, 20), float16] /* ty=Tensor[(70, 20), float16] span=from_string:78:20 */, %p16: Tensor[(12, 20), float16] /* ty=Tensor[(12, 20), float16] span=from_string:78:27 */, %p23: Tensor[(12), float32] /* ty=Tensor[(12), float32] span=from_string:79:16 */, %p31: Tensor[(1), float32] /* ty=Tensor[(1), float32] span=from_string:81:16 */, Primitive=1) -> Tensor[(70, 12), float16] {
    %42 = nn.dense(%p015, %p16, units=None, out_dtype="float16") /* ty=Tensor[(70, 12), float16] span=from_string:80:15 */;
    %43 = cast(%p23, dtype="float16") /* ty=Tensor[(12), float16] span=from_string:80:20 */;
    %44 = add(%42, %43) /* ty=Tensor[(70, 12), float16] span=from_string:82:15 */;
    %45 = cast(%p31, dtype="float16") /* ty=Tensor[(1), float16] span=from_string:82:20 */;
    multiply(%44, %45) /* ty=Tensor[(70, 12), float16] span=from_string:78:5 */
  } /* ty=fn (Tensor[(70, 20), float16], Tensor[(12, 20), float16], Tensor[(12), float32], Tensor[(1), float32]) -> Tensor[(70, 12), float16] span=from_string:84:9 */;
  %49 = %48(%36, %47, %x10, %x12) /* ty=Tensor[(70, 12), float16] span=from_string:89:13 */;
  %50 = fn (%p014: Tensor[(70, 12), float16] /* ty=Tensor[(70, 12), float16] span=from_string:86:13 */, Primitive=1, relay.reshape_only=1) -> Tensor[(1, 1, 840), float16] {
    reshape(%p014, newshape=[1, 1, -1]) /* ty=Tensor[(1, 1, 840), float16] span=from_string:86:5 */
  } /* ty=fn (Tensor[(70, 12), float16]) -> Tensor[(1, 1, 840), float16] span=from_string:89:9 */;
  %51 = %41(%39, %40) /* ty=Tensor[(1, 1, 840), float16] span=from_string:113:10 */;
  %52 = %50(%49) /* ty=Tensor[(1, 1, 840), float16] span=from_string:113:15 */;
  %59 = fn (%p017: Tensor[(1), float16] /* ty=Tensor[(1), float16] span=from_string:93:19 */, Primitive=1) -> Tensor[(1), float16] {
    %53 = nn.relu(%p017) /* ty=Tensor[(1), float16] span=from_string:95:15 */;
    %54 = cast(1f /* ty=float32 span=from_string:92:18 */, dtype="float16") /* ty=float16 span=from_string:95:20 */;
    %55 = nn.relu(%p017) /* ty=Tensor[(1), float16] span=from_string:96:15 */;
    %56 = cast(1f /* ty=float32 span=from_string:94:18 */, dtype="float16") /* ty=float16 span=from_string:96:20 */;
    %57 = add(%53, %54) /* ty=Tensor[(1), float16] span=from_string:97:9 */;
    %58 = add(%55, %56) /* ty=Tensor[(1), float16] span=from_string:97:14 */;
    add(%57, %58) /* ty=Tensor[(1), float16] span=from_string:91:5 */
  } /* ty=fn (Tensor[(1), float16]) -> Tensor[(1), float16] span=from_string:114:9 */;
  %60 = fn (%p018: Tensor[(1), float16] /* ty=Tensor[(1), float16] span=from_string:100:9 */, %p17: float16 /* ty=float16 span=from_string:100:16 */, Primitive=1) -> Tensor[(1), float16] {
    add(%p018, %p17) /* ty=Tensor[(1), float16] span=from_string:100:5 */
  } /* ty=fn (Tensor[(1), float16], float16) -> Tensor[(1), float16] span=from_string:115:9 */;
  %69 = (%28, %x13) /* ty=(Tensor[(10, 24), float16], Tensor[(45, 24), float32]) span=from_string:116:13 */;
  %70 = fn (%p019: (Tensor[(10, 24), float16], Tensor[(45, 24), float32]) /* ty=(Tensor[(10, 24), float16], Tensor[(45, 24), float32]) span=from_string:106:11 */, Primitive=1) -> Tensor[(1320), float32] {
    %61 = %p019.0 /* ty=Tensor[(10, 24), float16] span=from_string:105:16 */;
    %62 = cast(%61, dtype="float32") /* ty=Tensor[(10, 24), float32] span=from_string:107:12 */;
    %63 = %p019.1 /* ty=Tensor[(45, 24), float32] span=from_string:107:17 */;
    %64 = (%62, %63) /* ty=(Tensor[(10, 24), float32], Tensor[(45, 24), float32]) span=from_string:108:23 */;
    %65 = concatenate(%64) /* ty=Tensor[(55, 24), float32] */;
    %66 = annotation.stop_fusion(%65) /* ty=Tensor[(55, 24), float32] */;
    %67 = (%66,) /* ty=(Tensor[(55, 24), float32],) span=from_string:108:23 */;
    %68 = concatenate(%67) /* ty=Tensor[(55, 24), float32] */;
    reshape(%68, newshape=[1320]) /* ty=Tensor[(1320), float32] span=from_string:104:5 */
  } /* ty=fn ((Tensor[(10, 24), float16], Tensor[(45, 24), float32])) -> Tensor[(1320), float32] span=from_string:116:9 */;
  %71 = %6(%5, 1f16 /* ty=float16 span=from_string:111:20 */) /* ty=Tensor[(10, 20), float16] span=from_string:117:4 */;
  %72 = (%30, %31) /* ty=(Tensor[(1, 1, 120), float16], Tensor[(1, 1, 240), float16]) span=from_string:117:9 */;
  %73 = (%51, %52) /* ty=(Tensor[(1, 1, 840), float16], Tensor[(1, 1, 840), float16]) span=from_string:117:14 */;
  %74 = %59(%40) /* ty=Tensor[(1), float16] span=from_string:117:19 */;
  %75 = %60(%17, 1f16 /* ty=float16 span=from_string:115:22 */) /* ty=Tensor[(1), float16] span=from_string:117:24 */;
  %76 = %70(%69) /* ty=Tensor[(1320), float32] span=from_string:117:34 */;
  (%71, %72, %73, %74, %75, %39, %76) /* ty=(Tensor[(10, 20), float16], (Tensor[(1, 1, 120), float16], Tensor[(1, 1, 240), float16]), (Tensor[(1, 1, 840), float16], Tensor[(1, 1, 840), float16]), Tensor[(1), float16], Tensor[(1), float16], Tensor[(70, 12), float16], Tensor[(1320), float32]) span=from_string:3:3 */
}
