#[version = "0.0.5"]
def @main(%x0: Tensor[(10, 20), float32] /* ty=Tensor[(10, 20), float32] span=from_string:8:11 */, %x1: Tensor[(12, 20), float32] /* ty=Tensor[(12, 20), float32] span=from_string:27:13 */, %x2: Tensor[(12), float32] /* ty=Tensor[(12), float32] span=from_string:36:23 */, %x3: Tensor[(1), float32] /* ty=Tensor[(1), float32] span=from_string:28:13 */, %x4: Tensor[(24, 20), float32] /* ty=Tensor[(24, 20), float32] span=from_string:43:13 */, %x5: Tensor[(24), float32] /* ty=Tensor[(24), float32] span=from_string:57:13 */, %x6: Tensor[(1), float32] /* ty=Tensor[(1), float32] span=from_string:57:23 */, %x7: Tensor[(70, 20), float32] /* ty=Tensor[(70, 20), float32] span=from_string:61:13 */, %x8: Tensor[(12, 20), float32] /* ty=Tensor[(12, 20), float32] span=from_string:80:13 */, %x9: Tensor[(12), float32] /* ty=Tensor[(12), float32] span=from_string:71:23 */, %x10: Tensor[(12), float32] /* ty=Tensor[(12), float32] span=from_string:89:23 */, %x11: Tensor[(1), float32] /* ty=Tensor[(1), float32] span=from_string:72:13 */, %x12: Tensor[(1), float32] /* ty=Tensor[(1), float32] span=from_string:89:29 */, %x13: Tensor[(45, 24), float32] /* ty=Tensor[(45, 24), float32] span=from_string:108:15 */, %x14: Tensor[(1320), float32] /* ty=Tensor[(1320), float32] */) -> (Tensor[(10, 20), float16], (Tensor[(1, 1, 120), float16], Tensor[(1, 1, 240), float16]), (Tensor[(1, 1, 840), float16], Tensor[(1, 1, 840), float16]), Tensor[(1), float16], Tensor[(1), float16], Tensor[(70, 12), float16], Tensor[(1320), float32]) {
  let %x_0 = fn (%p01: Tensor[(10, 20), float32] /* ty=Tensor[(10, 20), float32] span=from_string:4:15 */, Primitive=1) -> Tensor[(10, 20), float16] {
    %0 = cast(%p01, dtype="float16") /* ty=Tensor[(10, 20), float16] span=from_string:6:9 */;
    %1 = cast(1f /* ty=float32 span=from_string:5:17 */, dtype="float16") /* ty=float16 span=from_string:97:20 */;
    add(%0, %1) /* ty=Tensor[(10, 20), float16] span=from_string:4:5 */
  } /* ty=fn (Tensor[(10, 20), float32]) -> Tensor[(10, 20), float16] span=from_string:8:8 */;
  let %x_1 = %x_0(%x0);
  let %x_2 = fn (%p0: Tensor[(10, 20), float16] /* ty=Tensor[(10, 20), float16] span=from_string:11:18 */, Primitive=1) -> Tensor[(10, 20), float16] {
    %2 = cast(2f /* ty=float32 span=from_string:10:17 */, dtype="float16") /* ty=float16 span=from_string:11:14 */;
    %3 = add(%2, %p0) /* ty=Tensor[(10, 20), float16] span=from_string:13:9 */;
    %4 = ones_like(%3) /* ty=Tensor[(10, 20), float16] span=from_string:13:13 */;
    add(%3, %4) /* ty=Tensor[(10, 20), float16] span=from_string:10:5 */
  } /* ty=fn (Tensor[(10, 20), float16]) -> Tensor[(10, 20), float16] span=from_string:122:9 */;
  let %x_3 = %x_2(%x_1);
  let %x_4 = fn (%p04: Tensor[(10, 20), float16] /* ty=Tensor[(10, 20), float16] span=from_string:16:16 */, Primitive=1) -> Tensor[(10, 20), float16] {
    %5 = cast(%p04, dtype="float32") /* ty=Tensor[(10, 20), float32] span=from_string:17:15 */;
    %6 = exp(%5) /* ty=Tensor[(10, 20), float32] span=from_string:18:10 */;
    cast(%6, dtype="float16") /* ty=Tensor[(10, 20), float16] span=from_string:16:5 */
  } /* ty=fn (Tensor[(10, 20), float16]) -> Tensor[(10, 20), float16] span=from_string:26:9 */;
  let %x_5 = %x_4(%x_1);
  let %x_6 = fn (%p05: Tensor[(12, 20), float32] /* ty=Tensor[(12, 20), float32] span=from_string:21:10 */, Primitive=1) -> Tensor[(12, 20), float16] {
    cast(%p05, dtype="float16") /* ty=Tensor[(12, 20), float16] span=from_string:21:5 */
  } /* ty=fn (Tensor[(12, 20), float32]) -> Tensor[(12, 20), float16] span=from_string:27:9 */;
  let %x_7 = %x_6(%x1);
  let %x_8 = fn (%p06: Tensor[(1), float32] /* ty=Tensor[(1), float32] span=from_string:24:10 */, Primitive=1) -> Tensor[(1), float16] {
    cast(%p06, dtype="float16") /* ty=Tensor[(1), float16] span=from_string:24:5 */
  } /* ty=fn (Tensor[(1), float32]) -> Tensor[(1), float16] span=from_string:28:9 */;
  let %x_9 = %x_8(%x3);
  let %x_10 = fn (%p03: Tensor[(10, 20), float16] /* ty=Tensor[(10, 20), float16] span=from_string:31:19 */, %p1: Tensor[(12, 20), float16] /* ty=Tensor[(12, 20), float16] span=from_string:31:25 */, %p2: Tensor[(12), float32] /* ty=Tensor[(12), float32] span=from_string:30:15 */, %p3: Tensor[(1), float16] /* ty=Tensor[(1), float16] span=from_string:34:20 */, Primitive=1) -> Tensor[(10, 12), float16] {
    %7 = cast(%p2, dtype="float16") /* ty=Tensor[(12), float16] span=from_string:32:23 */;
    %8 = nn.dense(%p03, %p1, units=None, out_dtype="float16") /* ty=Tensor[(10, 12), float16] span=from_string:33:15 */;
    %9 = expand_dims(%7, axis=0) /* ty=Tensor[(1, 12), float16] span=from_string:33:19 */;
    %10 = add(%8, %9) /* ty=Tensor[(10, 12), float16] span=from_string:34:15 */;
    multiply(%10, %p3) /* ty=Tensor[(10, 12), float16] span=from_string:30:5 */
  } /* ty=fn (Tensor[(10, 20), float16], Tensor[(12, 20), float16], Tensor[(12), float32], Tensor[(1), float16]) -> Tensor[(10, 12), float16] span=from_string:36:9 */;
  let %x_11 = %x_10(%x_5, %x_7, %x2, %x_9);
  let %x_12 = fn (%p02: Tensor[(10, 12), float16] /* ty=Tensor[(10, 12), float16] span=from_string:38:13 */, Primitive=1, relay.reshape_only=1) -> Tensor[(1, 1, 120), float16] {
    reshape(%p02, newshape=[1, 1, 120]) /* ty=Tensor[(1, 1, 120), float16] span=from_string:38:5 */
  } /* ty=fn (Tensor[(10, 12), float16]) -> Tensor[(1, 1, 120), float16] span=from_string:56:9 */;
  let %x_13 = %x_12(%x_11);
  let %x_14 = fn (%p09: Tensor[(24, 20), float32] /* ty=Tensor[(24, 20), float32] span=from_string:41:10 */, Primitive=1) -> Tensor[(24, 20), float16] {
    cast(%p09, dtype="float16") /* ty=Tensor[(24, 20), float16] span=from_string:41:5 */
  } /* ty=fn (Tensor[(24, 20), float32]) -> Tensor[(24, 20), float16] span=from_string:43:9 */;
  let %x_15 = %x_14(%x4);
  let %x_16 = fn (%p08: Tensor[(10, 20), float16] /* ty=Tensor[(10, 20), float16] span=from_string:45:14 */, %p12: Tensor[(24, 20), float16] /* ty=Tensor[(24, 20), float16] span=from_string:45:20 */, Primitive=1) -> Tensor[(10, 24), float16] {
    nn.dense(%p08, %p12, units=None, out_dtype="float16") /* ty=Tensor[(10, 24), float16] span=from_string:45:5 */
  } /* ty=fn (Tensor[(10, 20), float16], Tensor[(24, 20), float16]) -> Tensor[(10, 24), float16] span=from_string:47:9 */;
  let %x_17 = %x_16(%x_5, %x_15);
  let %x_18 = fn (%p07: Tensor[(24), float32] /* ty=Tensor[(24), float32] span=from_string:49:16 */, %p11: Tensor[(10, 24), float16] /* ty=Tensor[(10, 24), float16] span=from_string:51:15 */, %p21: Tensor[(1), float32] /* ty=Tensor[(1), float32] span=from_string:52:16 */, Primitive=1) -> Tensor[(1, 1, 240), float16] {
    %11 = cast(%p07, dtype="float16") /* ty=Tensor[(24), float16] span=from_string:50:23 */;
    %12 = expand_dims(%11, axis=0) /* ty=Tensor[(1, 24), float16] span=from_string:51:21 */;
    %13 = add(%p11, %12) /* ty=Tensor[(10, 24), float16] span=from_string:53:21 */;
    %14 = cast(%p21, dtype="float16") /* ty=Tensor[(1), float16] span=from_string:53:26 */;
    %15 = multiply(%13, %14) /* ty=Tensor[(10, 24), float16] span=from_string:54:13 */;
    reshape(%15, newshape=[1, 1, 240]) /* ty=Tensor[(1, 1, 240), float16] span=from_string:49:5 */
  } /* ty=fn (Tensor[(24), float32], Tensor[(10, 24), float16], Tensor[(1), float32]) -> Tensor[(1, 1, 240), float16] span=from_string:57:9 */;
  let %x_19 = %x_18(%x5, %x_17, %x6);
  let %x_20 = (%x_13, %x_19) /* ty=(Tensor[(1, 1, 120), float16], Tensor[(1, 1, 240), float16]) span=from_string:129:9 */;
  let %x_21 = fn (%p012: Tensor[(70, 20), float32] /* ty=Tensor[(70, 20), float32] span=from_string:59:10 */, Primitive=1) -> Tensor[(70, 20), float16] {
    cast(%p012, dtype="float16") /* ty=Tensor[(70, 20), float16] span=from_string:59:5 */
  } /* ty=fn (Tensor[(70, 20), float32]) -> Tensor[(70, 20), float16] span=from_string:61:9 */;
  let %x_22 = %x_21(%x7);
  let %x_23 = fn (%p011: Tensor[(70, 20), float16] /* ty=Tensor[(70, 20), float16] span=from_string:64:20 */, %p14: Tensor[(12, 20), float16] /* ty=Tensor[(12, 20), float16] span=from_string:64:27 */, %p22: Tensor[(12), float32] /* ty=Tensor[(12), float32] span=from_string:63:16 */, Primitive=1) -> Tensor[(70, 12), float16] {
    %16 = cast(%p22, dtype="float16") /* ty=Tensor[(12), float16] span=from_string:65:23 */;
    %17 = nn.dense(%p011, %p14, units=None, out_dtype="float16") /* ty=Tensor[(70, 12), float16] span=from_string:66:9 */;
    %18 = expand_dims(%16, axis=0) /* ty=Tensor[(1, 12), float16] span=from_string:66:14 */;
    add(%17, %18) /* ty=Tensor[(70, 12), float16] span=from_string:63:5 */
  } /* ty=fn (Tensor[(70, 20), float16], Tensor[(12, 20), float16], Tensor[(12), float32]) -> Tensor[(70, 12), float16] span=from_string:71:9 */;
  let %x_24 = %x_23(%x_22, %x_7, %x9);
  let %x_25 = fn (%p013: Tensor[(1), float32] /* ty=Tensor[(1), float32] span=from_string:69:10 */, Primitive=1) -> Tensor[(1), float16] {
    cast(%p013, dtype="float16") /* ty=Tensor[(1), float16] span=from_string:69:5 */
  } /* ty=fn (Tensor[(1), float32]) -> Tensor[(1), float16] span=from_string:72:9 */;
  let %x_26 = %x_25(%x11);
  let %x_27 = fn (%p010: Tensor[(70, 12), float16] /* ty=Tensor[(70, 12), float16] span=from_string:74:21 */, %p13: Tensor[(1), float16] /* ty=Tensor[(1), float16] span=from_string:74:28 */, Primitive=1) -> Tensor[(1, 1, 840), float16] {
    %19 = multiply(%p010, %p13) /* ty=Tensor[(70, 12), float16] span=from_string:75:13 */;
    reshape(%19, newshape=[1, 1, -1]) /* ty=Tensor[(1, 1, 840), float16] span=from_string:74:5 */
  } /* ty=fn (Tensor[(70, 12), float16], Tensor[(1), float16]) -> Tensor[(1, 1, 840), float16] span=from_string:93:9 */;
  let %x_28 = %x_27(%x_24, %x_26);
  let %x_29 = fn (%p016: Tensor[(12, 20), float32] /* ty=Tensor[(12, 20), float32] span=from_string:78:10 */, Primitive=1) -> Tensor[(12, 20), float16] {
    cast(%p016, dtype="float16") /* ty=Tensor[(12, 20), float16] span=from_string:78:5 */
  } /* ty=fn (Tensor[(12, 20), float32]) -> Tensor[(12, 20), float16] span=from_string:80:9 */;
  let %x_30 = %x_29(%x8);
  let %x_31 = fn (%p015: Tensor[(70, 20), float16] /* ty=Tensor[(70, 20), float16] span=from_string:83:20 */, %p15: Tensor[(12, 20), float16] /* ty=Tensor[(12, 20), float16] span=from_string:83:27 */, %p23: Tensor[(12), float32] /* ty=Tensor[(12), float32] span=from_string:82:16 */, %p31: Tensor[(1), float32] /* ty=Tensor[(1), float32] span=from_string:86:16 */, Primitive=1) -> Tensor[(70, 12), float16] {
    %20 = cast(%p23, dtype="float16") /* ty=Tensor[(12), float16] span=from_string:84:23 */;
    %21 = nn.dense(%p015, %p15, units=None, out_dtype="float16") /* ty=Tensor[(70, 12), float16] span=from_string:85:15 */;
    %22 = expand_dims(%20, axis=0) /* ty=Tensor[(1, 12), float16] span=from_string:85:20 */;
    %23 = add(%21, %22) /* ty=Tensor[(70, 12), float16] span=from_string:87:15 */;
    %24 = cast(%p31, dtype="float16") /* ty=Tensor[(1), float16] span=from_string:87:20 */;
    multiply(%23, %24) /* ty=Tensor[(70, 12), float16] span=from_string:82:5 */
  } /* ty=fn (Tensor[(70, 20), float16], Tensor[(12, 20), float16], Tensor[(12), float32], Tensor[(1), float32]) -> Tensor[(70, 12), float16] span=from_string:89:9 */;
  let %x_32 = %x_31(%x_22, %x_30, %x10, %x12);
  let %x_33 = fn (%p014: Tensor[(70, 12), float16] /* ty=Tensor[(70, 12), float16] span=from_string:91:13 */, Primitive=1, relay.reshape_only=1) -> Tensor[(1, 1, 840), float16] {
    reshape(%p014, newshape=[1, 1, -1]) /* ty=Tensor[(1, 1, 840), float16] span=from_string:91:5 */
  } /* ty=fn (Tensor[(70, 12), float16]) -> Tensor[(1, 1, 840), float16] span=from_string:94:9 */;
  let %x_34 = %x_33(%x_32);
  let %x_35 = (%x_28, %x_34) /* ty=(Tensor[(1, 1, 840), float16], Tensor[(1, 1, 840), float16]) span=from_string:129:14 */;
  let %x_36 = fn (%p017: Tensor[(1), float16] /* ty=Tensor[(1), float16] span=from_string:96:19 */, Primitive=1) -> Tensor[(1), float16] {
    %25 = nn.relu(%p017) /* ty=Tensor[(1), float16] span=from_string:97:15 */;
    %26 = add(%25, %1) /* ty=Tensor[(1), float16] span=from_string:98:14 */;
    add(%26, %26) /* ty=Tensor[(1), float16] span=from_string:96:5 */
  } /* ty=fn (Tensor[(1), float16]) -> Tensor[(1), float16] span=from_string:125:9 */;
  let %x_37 = %x_36(%x_26);
  let %x_38 = fn (%p018: Tensor[(1), float16] /* ty=Tensor[(1), float16] span=from_string:102:9 */, Primitive=1) -> Tensor[(1), float16] {
    %27 = ones_like(%p018) /* ty=Tensor[(1), float16] span=from_string:102:16 */;
    add(%p018, %27) /* ty=Tensor[(1), float16] span=from_string:101:5 */
  } /* ty=fn (Tensor[(1), float16]) -> Tensor[(1), float16] span=from_string:126:9 */;
  let %x_39 = %x_38(%x_9);
  let %x_40 = fn (%p019: Tensor[(70, 12), float16] /* ty=Tensor[(70, 12), float16] span=from_string:106:20 */, Primitive=1) -> Tensor[(70, 12), float16] {
    %28 = ones(shape=[1], dtype="float16") /* ty=Tensor[(1), float16] span=from_string:106:15 */;
    multiply(%28, %p019) /* ty=Tensor[(70, 12), float16] span=from_string:105:5 */
  } /* ty=fn (Tensor[(70, 12), float16]) -> Tensor[(70, 12), float16] span=from_string:127:9 */;
  let %x_41 = %x_40(%x_24);
  let %x_42 = (%x_17, %x13) /* ty=(Tensor[(10, 24), float16], Tensor[(45, 24), float32]) span=from_string:116:13 */;
  let %x_43 = fn (%p021: (Tensor[(10, 24), float16], Tensor[(45, 24), float32]) /* ty=(Tensor[(10, 24), float16], Tensor[(45, 24), float32]) span=from_string:112:11 */, Primitive=1) -> Tensor[(55, 24), float32] {
    %29 = %p021.0 /* ty=Tensor[(10, 24), float16] span=from_string:111:16 */;
    %30 = cast(%29, dtype="float32") /* ty=Tensor[(10, 24), float32] span=from_string:113:12 */;
    %31 = %p021.1 /* ty=Tensor[(45, 24), float32] span=from_string:113:17 */;
    %32 = (%30, %31) /* ty=(Tensor[(10, 24), float32], Tensor[(45, 24), float32]) span=from_string:114:17 */;
    concatenate(%32) /* ty=Tensor[(55, 24), float32] span=from_string:110:5 */
  } /* ty=fn ((Tensor[(10, 24), float16], Tensor[(45, 24), float32])) -> Tensor[(55, 24), float32] span=from_string:116:9 */;
  let %x_44 = %x_43(%x_42);
  let %x_45 = fn (%p020: Tensor[(55, 24), float32] /* ty=Tensor[(55, 24), float32] span=from_string:118:12 */, Primitive=1) -> Tensor[(1320), float32] {
    %33 = (%p020,) /* ty=(Tensor[(55, 24), float32],) span=from_string:119:23 */;
    %34 = concatenate(%33) /* ty=Tensor[(55, 24), float32] span=from_string:120:13 */;
    reshape(%34, newshape=[1320]) /* ty=Tensor[(1320), float32] span=from_string:118:5 */
  } /* ty=fn (Tensor[(55, 24), float32]) -> Tensor[(1320), float32] span=from_string:128:9 */;
  let %x_46 = %x_45(%x_44);
  let %x_47 = (%x_3, %x_20, %x_35, %x_37, %x_39, %x_41, %x_46) /* ty=(Tensor[(10, 20), float16], (Tensor[(1, 1, 120), float16], Tensor[(1, 1, 240), float16]), (Tensor[(1, 1, 840), float16], Tensor[(1, 1, 840), float16]), Tensor[(1), float16], Tensor[(1), float16], Tensor[(70, 12), float16], Tensor[(1320), float32]) span=from_string:3:3 */;
  %x_47
}
