#[version = "0.0.5"]
def @main(%x0: Tensor[(10, 20), float32] /* ty=Tensor[(10, 20), float32] span=from_string:5:103 */, %x1: Tensor[(12, 20), float32] /* ty=Tensor[(12, 20), float32] span=from_string:16:105 */, %x2: Tensor[(12), float32] /* ty=Tensor[(12), float32] span=from_string:18:97 */, %x3: Tensor[(1), float32] /* ty=Tensor[(1), float32] span=from_string:21:95 */, %x4: Tensor[(24, 20), float32] /* ty=Tensor[(24, 20), float32] span=from_string:24:105 */, %x5: Tensor[(24), float32] /* ty=Tensor[(24), float32] span=from_string:26:97 */, %x6: Tensor[(1), float32] /* ty=Tensor[(1), float32] span=from_string:29:95 */, %x7: Tensor[(70, 20), float32] /* ty=Tensor[(70, 20), float32] span=from_string:33:105 */, %x8: Tensor[(12, 20), float32] /* ty=Tensor[(12, 20), float32] span=from_string:41:105 */, %x9: Tensor[(12), float32] /* ty=Tensor[(12), float32] span=from_string:35:97 */, %x10: Tensor[(12), float32] /* ty=Tensor[(12), float32] span=from_string:43:97 */, %x11: Tensor[(1), float32] /* ty=Tensor[(1), float32] span=from_string:38:95 */, %x12: Tensor[(1), float32] /* ty=Tensor[(1), float32] span=from_string:46:95 */, %x13: Tensor[(45, 24), float32] /* ty=Tensor[(45, 24), float32] span=from_string:64:166 */, %x14: Tensor[(1320), float32] /* ty=Tensor[(1320), float32] */) -> (Tensor[(10, 20), float16], (Tensor[(1, 1, 120), float16], Tensor[(1, 1, 240), float16]), (Tensor[(1, 1, 840), float16], Tensor[(1, 1, 840), float16]), Tensor[(1), float16], Tensor[(1), float16], Tensor[(70, 12), float16], Tensor[(1320), float32]) {
  let %x_0: float32 /* ty=float32 span=from_string:4:68 */ = 2f /* ty=float32 span=from_string:3:64 */;
  let %x_1: float16 /* ty=float16 span=from_string:10:103 */ = cast(%x_0, dtype="float16") /* ty=float16 span=from_string:4:63 */;
  let %x_2: Tensor[(10, 20), float16] /* ty=Tensor[(10, 20), float16] span=from_string:8:102 */ = cast(%x0, dtype="float16") /* ty=Tensor[(10, 20), float16] span=from_string:5:98 */;
  let %x_3: float32 /* ty=float32 span=from_string:7:67 */ = 1f /* ty=float32 span=from_string:6:64 */;
  let %x_4: float16 /* ty=float16 span=from_string:8:108 */ = cast(%x_3, dtype="float16") /* ty=float16 span=from_string:7:62 */;
  let %x_5: Tensor[(10, 20), float16] /* ty=Tensor[(10, 20), float16] span=from_string:9:122 */ = add(%x_2, %x_4) /* ty=Tensor[(10, 20), float16] span=from_string:8:98 */;
  let %x_6: Tensor[(10, 20), float16] /* ty=Tensor[(10, 20), float16] span=from_string:13:105 */ = annotation.stop_fusion(%x_5) /* ty=Tensor[(10, 20), float16] span=from_string:9:99 */;
  let %x_7: Tensor[(10, 20), float16] /* ty=Tensor[(10, 20), float16] span=from_string:12:103 */ = add(%x_1, %x_6) /* ty=Tensor[(10, 20), float16] span=from_string:10:99 */;
  let %x_8: Tensor[(10, 20), float16] /* ty=Tensor[(10, 20), float16] span=from_string:12:109 */ = ones(shape=[10, 20], dtype="float16") /* ty=Tensor[(10, 20), float16] */;
  let %x_9: Tensor[(10, 20), float16] /* ty=Tensor[(10, 20), float16] span=from_string:74:544 */ = add(%x_7, %x_8) /* ty=Tensor[(10, 20), float16] span=from_string:12:99 */;
  let %x_10: Tensor[(10, 20), float32] /* ty=Tensor[(10, 20), float32] span=from_string:14:104 */ = cast(%x_6, dtype="float32") /* ty=Tensor[(10, 20), float32] span=from_string:13:100 */;
  let %x_11: Tensor[(10, 20), float32] /* ty=Tensor[(10, 20), float32] span=from_string:15:105 */ = exp(%x_10) /* ty=Tensor[(10, 20), float32] span=from_string:14:100 */;
  let %x_12: Tensor[(10, 20), float16] /* ty=Tensor[(10, 20), float16] span=from_string:25:109 */ = cast(%x_11, dtype="float16") /* ty=Tensor[(10, 20), float16] span=from_string:15:100 */;
  let %x_13: Tensor[(12, 20), float16] /* ty=Tensor[(12, 20), float16] span=from_string:34:116 */ = cast(%x1, dtype="float16") /* ty=Tensor[(12, 20), float16] span=from_string:16:100 */;
  let %x_14: Tensor[(10, 12), float16] /* ty=Tensor[(10, 12), float16] span=from_string:20:104 */ = nn.dense(%x_12, %x_13, units=None, out_dtype="float16") /* ty=Tensor[(10, 12), float16] span=from_string:17:100 */;
  let %x_15: Tensor[(12), float16] /* ty=Tensor[(12), float16] span=from_string:19:110 */ = cast(%x2, dtype="float16") /* ty=Tensor[(12), float16] span=from_string:18:92 */;
  let %x_16: Tensor[(1, 12), float16] /* ty=Tensor[(1, 12), float16] span=from_string:20:111 */ = expand_dims(%x_15, axis=0) /* ty=Tensor[(1, 12), float16] span=from_string:19:98 */;
  let %x_17: Tensor[(10, 12), float16] /* ty=Tensor[(10, 12), float16] span=from_string:22:110 */ = add(%x_14, %x_16) /* ty=Tensor[(10, 12), float16] span=from_string:20:100 */;
  let %x_18: Tensor[(1), float16] /* ty=Tensor[(1), float16] span=from_string:61:94 */ = cast(%x3, dtype="float16") /* ty=Tensor[(1), float16] span=from_string:21:90 */;
  let %x_19: Tensor[(10, 12), float16] /* ty=Tensor[(10, 12), float16] span=from_string:23:114 */ = multiply(%x_17, %x_18) /* ty=Tensor[(10, 12), float16] span=from_string:22:101 */;
  let %x_20: Tensor[(1, 1, 120), float16] /* ty=Tensor[(1, 1, 120), float16] span=from_string:32:171 */ = reshape(%x_19, newshape=[1, 1, 120]) /* ty=Tensor[(1, 1, 120), float16] span=from_string:23:106 */;
  let %x_21: Tensor[(24, 20), float16] /* ty=Tensor[(24, 20), float16] span=from_string:25:116 */ = cast(%x4, dtype="float16") /* ty=Tensor[(24, 20), float16] span=from_string:24:100 */;
  let %x_22: Tensor[(10, 24), float16] /* ty=Tensor[(10, 24), float16] span=from_string:64:159 */ = nn.dense(%x_12, %x_21, units=None, out_dtype="float16") /* ty=Tensor[(10, 24), float16] span=from_string:25:100 */;
  let %x_23: Tensor[(24), float16] /* ty=Tensor[(24), float16] span=from_string:27:110 */ = cast(%x5, dtype="float16") /* ty=Tensor[(24), float16] span=from_string:26:92 */;
  let %x_24: Tensor[(1, 24), float16] /* ty=Tensor[(1, 24), float16] span=from_string:28:111 */ = expand_dims(%x_23, axis=0) /* ty=Tensor[(1, 24), float16] span=from_string:27:98 */;
  let %x_25: Tensor[(10, 24), float16] /* ty=Tensor[(10, 24), float16] span=from_string:30:110 */ = add(%x_22, %x_24) /* ty=Tensor[(10, 24), float16] span=from_string:28:100 */;
  let %x_26: Tensor[(1), float16] /* ty=Tensor[(1), float16] span=from_string:30:117 */ = cast(%x6, dtype="float16") /* ty=Tensor[(1), float16] span=from_string:29:90 */;
  let %x_27: Tensor[(10, 24), float16] /* ty=Tensor[(10, 24), float16] span=from_string:31:114 */ = multiply(%x_25, %x_26) /* ty=Tensor[(10, 24), float16] span=from_string:30:101 */;
  let %x_28: Tensor[(1, 1, 240), float16] /* ty=Tensor[(1, 1, 240), float16] span=from_string:32:178 */ = reshape(%x_27, newshape=[1, 1, 240]) /* ty=Tensor[(1, 1, 240), float16] span=from_string:31:106 */;
  let %x_29: (Tensor[(1, 1, 120), float16], Tensor[(1, 1, 240), float16]) /* ty=(Tensor[(1, 1, 120), float16], Tensor[(1, 1, 240), float16]) span=from_string:74:550 */ = (%x_20, %x_28) /* ty=(Tensor[(1, 1, 120), float16], Tensor[(1, 1, 240), float16]) span=from_string:32:170 */;
  let %x_30: Tensor[(70, 20), float16] /* ty=Tensor[(70, 20), float16] span=from_string:42:109 */ = cast(%x7, dtype="float16") /* ty=Tensor[(70, 20), float16] span=from_string:33:100 */;
  let %x_31: Tensor[(70, 12), float16] /* ty=Tensor[(70, 12), float16] span=from_string:37:104 */ = nn.dense(%x_30, %x_13, units=None, out_dtype="float16") /* ty=Tensor[(70, 12), float16] span=from_string:34:100 */;
  let %x_32: Tensor[(12), float16] /* ty=Tensor[(12), float16] span=from_string:36:110 */ = cast(%x9, dtype="float16") /* ty=Tensor[(12), float16] span=from_string:35:92 */;
  let %x_33: Tensor[(1, 12), float16] /* ty=Tensor[(1, 12), float16] span=from_string:37:111 */ = expand_dims(%x_32, axis=0) /* ty=Tensor[(1, 12), float16] span=from_string:36:98 */;
  let %x_34: Tensor[(70, 12), float16] /* ty=Tensor[(70, 12), float16] span=from_string:63:117 */ = add(%x_31, %x_33) /* ty=Tensor[(70, 12), float16] span=from_string:37:100 */;
  let %x_35: Tensor[(1), float16] /* ty=Tensor[(1), float16] span=from_string:50:16 */ = cast(%x11, dtype="float16") /* ty=Tensor[(1), float16] span=from_string:38:90 */;
  let %x_36: Tensor[(70, 12), float16] /* ty=Tensor[(70, 12), float16] span=from_string:40:114 */ = multiply(%x_34, %x_35) /* ty=Tensor[(70, 12), float16] span=from_string:39:101 */;
  let %x_37: Tensor[(1, 1, 840), float16] /* ty=Tensor[(1, 1, 840), float16] span=from_string:49:171 */ = reshape(%x_36, newshape=[1, 1, -1]) /* ty=Tensor[(1, 1, 840), float16] span=from_string:40:106 */;
  let %x_38: Tensor[(12, 20), float16] /* ty=Tensor[(12, 20), float16] span=from_string:42:116 */ = cast(%x8, dtype="float16") /* ty=Tensor[(12, 20), float16] span=from_string:41:100 */;
  let %x_39: Tensor[(70, 12), float16] /* ty=Tensor[(70, 12), float16] span=from_string:45:104 */ = nn.dense(%x_30, %x_38, units=None, out_dtype="float16") /* ty=Tensor[(70, 12), float16] span=from_string:42:100 */;
  let %x_40: Tensor[(12), float16] /* ty=Tensor[(12), float16] span=from_string:44:110 */ = cast(%x10, dtype="float16") /* ty=Tensor[(12), float16] span=from_string:43:92 */;
  let %x_41: Tensor[(1, 12), float16] /* ty=Tensor[(1, 12), float16] span=from_string:45:111 */ = expand_dims(%x_40, axis=0) /* ty=Tensor[(1, 12), float16] span=from_string:44:98 */;
  let %x_42: Tensor[(70, 12), float16] /* ty=Tensor[(70, 12), float16] span=from_string:47:110 */ = add(%x_39, %x_41) /* ty=Tensor[(70, 12), float16] span=from_string:45:100 */;
  let %x_43: Tensor[(1), float16] /* ty=Tensor[(1), float16] span=from_string:47:117 */ = cast(%x12, dtype="float16") /* ty=Tensor[(1), float16] span=from_string:46:90 */;
  let %x_44: Tensor[(70, 12), float16] /* ty=Tensor[(70, 12), float16] span=from_string:48:114 */ = multiply(%x_42, %x_43) /* ty=Tensor[(70, 12), float16] span=from_string:47:101 */;
  let %x_45: Tensor[(1, 1, 840), float16] /* ty=Tensor[(1, 1, 840), float16] span=from_string:49:178 */ = reshape(%x_44, newshape=[1, 1, -1]) /* ty=Tensor[(1, 1, 840), float16] span=from_string:48:106 */;
  let %x_46: (Tensor[(1, 1, 840), float16], Tensor[(1, 1, 840), float16]) /* ty=(Tensor[(1, 1, 840), float16], Tensor[(1, 1, 840), float16]) span=from_string:74:557 */ = (%x_37, %x_45) /* ty=(Tensor[(1, 1, 840), float16], Tensor[(1, 1, 840), float16]) span=from_string:49:170 */;
  %0 = nn.relu(%x_35) /* ty=Tensor[(1), float16] span=from_string:55:90 */;
  let %x_47: Tensor[(1), float16] /* ty=Tensor[(1), float16] span=from_string:54:94 */ = %0;
  let %x_48: float32 /* ty=float32 span=from_string:53:69 */ = 1f /* ty=float32 span=from_string:52:66 */;
  let %x_49: float16 /* ty=float16 span=from_string:54:101 */ = cast(%x_48, dtype="float16") /* ty=float16 span=from_string:53:64 */;
  let %x_50: Tensor[(1), float16] /* ty=Tensor[(1), float16] span=from_string:59:94 */ = add(%x_47, %x_49) /* ty=Tensor[(1), float16] span=from_string:54:90 */;
  let %x_51: Tensor[(1), float16] /* ty=Tensor[(1), float16] span=from_string:58:94 */ = %0;
  let %x_52: float32 /* ty=float32 span=from_string:57:69 */ = 1f /* ty=float32 span=from_string:56:66 */;
  let %x_53: float16 /* ty=float16 span=from_string:58:101 */ = cast(%x_52, dtype="float16") /* ty=float16 span=from_string:57:64 */;
  let %x_54: Tensor[(1), float16] /* ty=Tensor[(1), float16] span=from_string:59:101 */ = add(%x_51, %x_53) /* ty=Tensor[(1), float16] span=from_string:58:90 */;
  let %x_55: Tensor[(1), float16] /* ty=Tensor[(1), float16] span=from_string:74:564 */ = add(%x_50, %x_54) /* ty=Tensor[(1), float16] span=from_string:59:90 */;
  let %x_56: Tensor[(1), float16] /* ty=Tensor[(1), float16] span=from_string:61:101 */ = ones(shape=[1], dtype="float16") /* ty=Tensor[(1), float16] */;
  let %x_57: Tensor[(1), float16] /* ty=Tensor[(1), float16] span=from_string:74:571 */ = add(%x_18, %x_56) /* ty=Tensor[(1), float16] span=from_string:61:90 */;
  let %x_58: Tensor[(1), float16] /* ty=Tensor[(1), float16] span=from_string:63:110 */ = ones(shape=[1], dtype="float16") /* ty=Tensor[(1), float16] span=from_string:62:90 */;
  let %x_59: Tensor[(70, 12), float16] /* ty=Tensor[(70, 12), float16] span=from_string:74:578 */ = multiply(%x_58, %x_34) /* ty=Tensor[(70, 12), float16] span=from_string:63:101 */;
  let %x_60: (Tensor[(10, 24), float16], Tensor[(45, 24), float32]) /* ty=(Tensor[(10, 24), float16], Tensor[(45, 24), float32]) span=from_string:67:100 */ = (%x_22, %x13) /* ty=(Tensor[(10, 24), float16], Tensor[(45, 24), float32]) span=from_string:64:158 */;
  let %x_61: Tensor[(10, 24), float16] /* ty=Tensor[(10, 24), float16] span=from_string:66:105 */ = %x_60.0 /* ty=Tensor[(10, 24), float16] span=from_string:65:100 */;
  let %x_62: Tensor[(10, 24), float32] /* ty=Tensor[(10, 24), float32] span=from_string:68:159 */ = cast(%x_61, dtype="float32") /* ty=Tensor[(10, 24), float32] span=from_string:66:100 */;
  let %x_63: Tensor[(45, 24), float32] /* ty=Tensor[(45, 24), float32] span=from_string:68:166 */ = %x_60.1 /* ty=Tensor[(45, 24), float32] span=from_string:67:100 */;
  let %x_64: (Tensor[(10, 24), float32], Tensor[(45, 24), float32]) /* ty=(Tensor[(10, 24), float32], Tensor[(45, 24), float32]) span=from_string:69:112 */ = (%x_62, %x_63) /* ty=(Tensor[(10, 24), float32], Tensor[(45, 24), float32]) span=from_string:68:158 */;
  let %x_65: Tensor[(55, 24), float32] /* ty=Tensor[(55, 24), float32] span=from_string:70:123 */ = concatenate(%x_64) /* ty=Tensor[(55, 24), float32] span=from_string:69:100 */;
  let %x_66: Tensor[(55, 24), float32] /* ty=Tensor[(55, 24), float32] span=from_string:71:107 */ = annotation.stop_fusion(%x_65) /* ty=Tensor[(55, 24), float32] span=from_string:70:100 */;
  let %x_67: (Tensor[(55, 24), float32],) /* ty=(Tensor[(55, 24), float32],) span=from_string:72:112 */ = (%x_66,) /* ty=(Tensor[(55, 24), float32],) span=from_string:71:106 */;
  let %x_68: Tensor[(55, 24), float32] /* ty=Tensor[(55, 24), float32] span=from_string:73:104 */ = concatenate(%x_67) /* ty=Tensor[(55, 24), float32] span=from_string:72:100 */;
  let %x_69: Tensor[(1320), float32] /* ty=Tensor[(1320), float32] span=from_string:74:585 */ = reshape(%x_68, newshape=[1320]) /* ty=Tensor[(1320), float32] span=from_string:73:96 */;
  let %x_70: (Tensor[(10, 20), float16], (Tensor[(1, 1, 120), float16], Tensor[(1, 1, 240), float16]), (Tensor[(1, 1, 840), float16], Tensor[(1, 1, 840), float16]), Tensor[(1), float16], Tensor[(1), float16], Tensor[(70, 12), float16], Tensor[(1320), float32]) /* ty=(Tensor[(10, 20), float16], (Tensor[(1, 1, 120), float16], Tensor[(1, 1, 240), float16]), (Tensor[(1, 1, 840), float16], Tensor[(1, 1, 840), float16]), Tensor[(1), float16], Tensor[(1), float16], Tensor[(70, 12), float16], Tensor[(1320), float32]) span=from_string:75:3 */ = (%x_9, %x_29, %x_46, %x_55, %x_57, %x_59, %x_69) /* ty=(Tensor[(10, 20), float16], (Tensor[(1, 1, 120), float16], Tensor[(1, 1, 240), float16]), (Tensor[(1, 1, 840), float16], Tensor[(1, 1, 840), float16]), Tensor[(1), float16], Tensor[(1), float16], Tensor[(70, 12), float16], Tensor[(1320), float32]) span=from_string:74:543 */;
  %x_70
}
