#[version = "0.0.5"]
def @main(%x0: Tensor[(10, 20), float32] /* ty=Tensor[(10, 20), float32] span=from_string:5:13 */, %x1: Tensor[(12, 20), float32] /* ty=Tensor[(12, 20), float32] span=from_string:16:13 */, %x2: Tensor[(12), float32] /* ty=Tensor[(12), float32] span=from_string:18:13 */, %x3: Tensor[(1), float32] /* ty=Tensor[(1), float32] span=from_string:20:13 */, %x4: Tensor[(24, 20), float32] /* ty=Tensor[(24, 20), float32] span=from_string:23:13 */, %x5: Tensor[(24), float32] /* ty=Tensor[(24), float32] span=from_string:25:13 */, %x6: Tensor[(1), float32] /* ty=Tensor[(1), float32] span=from_string:27:14 */, %x7: Tensor[(70, 20), float32] /* ty=Tensor[(70, 20), float32] span=from_string:31:14 */, %x8: Tensor[(12, 20), float32] /* ty=Tensor[(12, 20), float32] span=from_string:38:14 */, %x9: Tensor[(12), float32] /* ty=Tensor[(12), float32] span=from_string:33:14 */, %x10: Tensor[(12), float32] /* ty=Tensor[(12), float32] span=from_string:40:14 */, %x11: Tensor[(1), float32] /* ty=Tensor[(1), float32] span=from_string:35:14 */, %x12: Tensor[(1), float32] /* ty=Tensor[(1), float32] span=from_string:42:14 */, %x13: Tensor[(45, 24), float32] /* ty=Tensor[(45, 24), float32] span=from_string:59:167 */, %x14: Tensor[(1320), float32] /* ty=Tensor[(1320), float32] */) -> (Tensor[(10, 20), float16], (Tensor[(1, 1, 120), float16], Tensor[(1, 1, 240), float16]), (Tensor[(1, 1, 840), float16], Tensor[(1, 1, 840), float16]), Tensor[(1), float16], Tensor[(1), float16], Tensor[(70, 12), float16], Tensor[(1320), float16]) {
  let %x_0: float32 /* ty=float32 span=from_string:9:13 */ = 2f /* ty=float32 span=from_string:3:65 */;
  let %x_1: float32 /* ty=float32 span=from_string:6:13 */ = 1f /* ty=float32 span=from_string:4:65 */;
  %0 = cast(%x0, dtype="float16") /* ty=Tensor[(10, 20), float16] span=from_string:7:103 */;
  %1 = cast(%x_1, dtype="float16") /* ty=float16 span=from_string:7:107 */;
  let %x_2: Tensor[(10, 20), float16] /* ty=Tensor[(10, 20), float16] span=from_string:8:123 */ = add(%0, %1) /* ty=Tensor[(10, 20), float16] span=from_string:7:99 */;
  let %x_3: Tensor[(10, 20), float16] /* ty=Tensor[(10, 20), float16] span=from_string:13:13 */ = annotation.stop_fusion(%x_2) /* ty=Tensor[(10, 20), float16] span=from_string:8:100 */;
  %2 = cast(%x_0, dtype="float16") /* ty=float16 span=from_string:10:103 */;
  let %x_4: Tensor[(10, 20), float16] /* ty=Tensor[(10, 20), float16] span=from_string:12:104 */ = add(%2, %x_3) /* ty=Tensor[(10, 20), float16] span=from_string:10:99 */;
  let %x_5: Tensor[(10, 20), float16] /* ty=Tensor[(10, 20), float16] span=from_string:12:110 */ = ones(shape=[10, 20], dtype="float16") /* ty=Tensor[(10, 20), float16] span=from_string:11:99 */;
  let %x_6: Tensor[(10, 20), float16] /* ty=Tensor[(10, 20), float16] span=from_string:66:544 */ = add(%x_4, %x_5) /* ty=Tensor[(10, 20), float16] span=from_string:12:100 */;
  %3 = cast(%x_3, dtype="float32") /* ty=Tensor[(10, 20), float32] span=from_string:14:104 */;
  let %x_7: Tensor[(10, 20), float32] /* ty=Tensor[(10, 20), float32] span=from_string:15:13 */ = exp(%3) /* ty=Tensor[(10, 20), float32] span=from_string:14:100 */;
  %4 = cast(%x_7, dtype="float16") /* ty=Tensor[(10, 20), float16] span=from_string:24:110 */;
  %5 = cast(%x1, dtype="float16") /* ty=Tensor[(12, 20), float16] span=from_string:32:115 */;
  let %x_8: Tensor[(10, 12), float16] /* ty=Tensor[(10, 12), float16] span=from_string:19:104 */ = nn.dense(%4, %5, units=None, out_dtype="float16") /* ty=Tensor[(10, 12), float16] span=from_string:17:100 */;
  %6 = cast(%x2, dtype="float16") /* ty=Tensor[(12), float16] span=from_string:19:110 */;
  let %x_9: Tensor[(10, 12), float16] /* ty=Tensor[(10, 12), float16] span=from_string:21:111 */ = add(%x_8, %6) /* ty=Tensor[(10, 12), float16] span=from_string:19:100 */;
  %7 = cast(%x3, dtype="float16") /* ty=Tensor[(1), float16] span=from_string:56:95 */;
  let %x_10: Tensor[(10, 12), float16] /* ty=Tensor[(10, 12), float16] span=from_string:22:115 */ = multiply(%x_9, %7) /* ty=Tensor[(10, 12), float16] span=from_string:21:102 */;
  let %x_11: Tensor[(1, 1, 120), float16] /* ty=Tensor[(1, 1, 120), float16] span=from_string:30:172 */ = reshape(%x_10, newshape=[1, 1, 120]) /* ty=Tensor[(1, 1, 120), float16] span=from_string:22:107 */;
  %8 = cast(%x4, dtype="float16") /* ty=Tensor[(24, 20), float16] span=from_string:24:114 */;
  let %x_12: Tensor[(10, 24), float16] /* ty=Tensor[(10, 24), float16] span=from_string:59:160 */ = nn.dense(%4, %8, units=None, out_dtype="float16") /* ty=Tensor[(10, 24), float16] span=from_string:24:101 */;
  %9 = cast(%x5, dtype="float16") /* ty=Tensor[(24), float16] span=from_string:26:112 */;
  let %x_13: Tensor[(10, 24), float16] /* ty=Tensor[(10, 24), float16] span=from_string:28:111 */ = add(%x_12, %9) /* ty=Tensor[(10, 24), float16] span=from_string:26:101 */;
  %10 = cast(%x6, dtype="float16") /* ty=Tensor[(1), float16] span=from_string:28:118 */;
  let %x_14: Tensor[(10, 24), float16] /* ty=Tensor[(10, 24), float16] span=from_string:29:115 */ = multiply(%x_13, %10) /* ty=Tensor[(10, 24), float16] span=from_string:28:102 */;
  let %x_15: Tensor[(1, 1, 240), float16] /* ty=Tensor[(1, 1, 240), float16] span=from_string:30:179 */ = reshape(%x_14, newshape=[1, 1, 240]) /* ty=Tensor[(1, 1, 240), float16] span=from_string:29:107 */;
  let %x_16: (Tensor[(1, 1, 120), float16], Tensor[(1, 1, 240), float16]) /* ty=(Tensor[(1, 1, 120), float16], Tensor[(1, 1, 240), float16]) span=from_string:66:550 */ = (%x_11, %x_15) /* ty=(Tensor[(1, 1, 120), float16], Tensor[(1, 1, 240), float16]) span=from_string:30:171 */;
  %11 = cast(%x7, dtype="float16") /* ty=Tensor[(70, 20), float16] span=from_string:39:110 */;
  let %x_17: Tensor[(70, 12), float16] /* ty=Tensor[(70, 12), float16] span=from_string:34:105 */ = nn.dense(%11, %5, units=None, out_dtype="float16") /* ty=Tensor[(70, 12), float16] span=from_string:32:101 */;
  %12 = cast(%x9, dtype="float16") /* ty=Tensor[(12), float16] span=from_string:34:112 */;
  let %x_18: Tensor[(70, 12), float16] /* ty=Tensor[(70, 12), float16] span=from_string:58:118 */ = add(%x_17, %12) /* ty=Tensor[(70, 12), float16] span=from_string:34:101 */;
  %13 = cast(%x11, dtype="float16") /* ty=Tensor[(1), float16] span=from_string:50:98 */;
  let %x_19: Tensor[(70, 12), float16] /* ty=Tensor[(70, 12), float16] span=from_string:37:115 */ = multiply(%x_18, %13) /* ty=Tensor[(70, 12), float16] span=from_string:36:102 */;
  let %x_20: Tensor[(1, 1, 840), float16] /* ty=Tensor[(1, 1, 840), float16] span=from_string:45:172 */ = reshape(%x_19, newshape=[1, 1, -1]) /* ty=Tensor[(1, 1, 840), float16] span=from_string:37:107 */;
  %14 = cast(%x8, dtype="float16") /* ty=Tensor[(12, 20), float16] span=from_string:39:115 */;
  let %x_21: Tensor[(70, 12), float16] /* ty=Tensor[(70, 12), float16] span=from_string:41:105 */ = nn.dense(%11, %14, units=None, out_dtype="float16") /* ty=Tensor[(70, 12), float16] span=from_string:39:101 */;
  %15 = cast(%x10, dtype="float16") /* ty=Tensor[(12), float16] span=from_string:41:112 */;
  let %x_22: Tensor[(70, 12), float16] /* ty=Tensor[(70, 12), float16] span=from_string:43:111 */ = add(%x_21, %15) /* ty=Tensor[(70, 12), float16] span=from_string:41:101 */;
  %16 = cast(%x12, dtype="float16") /* ty=Tensor[(1), float16] span=from_string:43:118 */;
  let %x_23: Tensor[(70, 12), float16] /* ty=Tensor[(70, 12), float16] span=from_string:44:115 */ = multiply(%x_22, %16) /* ty=Tensor[(70, 12), float16] span=from_string:43:102 */;
  let %x_24: Tensor[(1, 1, 840), float16] /* ty=Tensor[(1, 1, 840), float16] span=from_string:45:179 */ = reshape(%x_23, newshape=[1, 1, -1]) /* ty=Tensor[(1, 1, 840), float16] span=from_string:44:107 */;
  let %x_25: (Tensor[(1, 1, 840), float16], Tensor[(1, 1, 840), float16]) /* ty=(Tensor[(1, 1, 840), float16], Tensor[(1, 1, 840), float16]) span=from_string:66:557 */ = (%x_20, %x_24) /* ty=(Tensor[(1, 1, 840), float16], Tensor[(1, 1, 840), float16]) span=from_string:45:171 */;
  %17 = nn.relu(%13) /* ty=Tensor[(1), float16] span=from_string:46:90 */;
  let %x_26: Tensor[(1), float16] /* ty=Tensor[(1), float16] span=from_string:49:94 */ = %17;
  let %x_27: float32 /* ty=float32 span=from_string:48:14 */ = 1f /* ty=float32 span=from_string:47:67 */;
  %18 = cast(%x_27, dtype="float16") /* ty=float16 span=from_string:49:101 */;
  let %x_28: Tensor[(1), float16] /* ty=Tensor[(1), float16] span=from_string:54:95 */ = add(%x_26, %18) /* ty=Tensor[(1), float16] span=from_string:49:90 */;
  let %x_29: Tensor[(1), float16] /* ty=Tensor[(1), float16] span=from_string:53:95 */ = %17;
  let %x_30: float32 /* ty=float32 span=from_string:52:14 */ = 1f /* ty=float32 span=from_string:51:67 */;
  %19 = cast(%x_30, dtype="float16") /* ty=float16 span=from_string:53:102 */;
  let %x_31: Tensor[(1), float16] /* ty=Tensor[(1), float16] span=from_string:54:102 */ = add(%x_29, %19) /* ty=Tensor[(1), float16] span=from_string:53:91 */;
  let %x_32: Tensor[(1), float16] /* ty=Tensor[(1), float16] span=from_string:66:564 */ = add(%x_28, %x_31) /* ty=Tensor[(1), float16] span=from_string:54:91 */;
  let %x_33: Tensor[(1), float16] /* ty=Tensor[(1), float16] span=from_string:56:99 */ = ones(shape=[1], dtype="float16") /* ty=Tensor[(1), float16] span=from_string:55:90 */;
  let %x_34: Tensor[(1), float16] /* ty=Tensor[(1), float16] span=from_string:66:571 */ = add(%7, %x_33) /* ty=Tensor[(1), float16] span=from_string:56:91 */;
  let %x_35: Tensor[(1), float16] /* ty=Tensor[(1), float16] span=from_string:58:111 */ = ones(shape=[1], dtype="float16") /* ty=Tensor[(1), float16] span=from_string:57:91 */;
  let %x_36: Tensor[(70, 12), float16] /* ty=Tensor[(70, 12), float16] span=from_string:66:578 */ = multiply(%x_35, %x_18) /* ty=Tensor[(70, 12), float16] span=from_string:58:102 */;
  let %x_37: (Tensor[(10, 24), float16], Tensor[(45, 24), float32]) /* ty=(Tensor[(10, 24), float16], Tensor[(45, 24), float32]) span=from_string:61:9 */ = (%x_12, %x13) /* ty=(Tensor[(10, 24), float16], Tensor[(45, 24), float32]) span=from_string:59:159 */;
  %20 = %x_37.1 /* ty=Tensor[(45, 24), float32] span=from_string:62:14 */;
  %21 = %x_37.0 /* ty=Tensor[(10, 24), float16] span=from_string:63:10 */;
  %22 = cast(%20, dtype="float16") /* ty=Tensor[(45, 24), float16] span=from_string:63:15 */;
  %23 = (%21, %22) /* ty=(Tensor[(10, 24), float16], Tensor[(45, 24), float16]) span=from_string:64:113 */;
  let %x_38: Tensor[(55, 24), float16] /* ty=Tensor[(55, 24), float16] span=from_string:65:105 */ = concatenate(%23) /* ty=Tensor[(55, 24), float16] span=from_string:64:101 */;
  let %x_39: Tensor[(1320), float16] /* ty=Tensor[(1320), float16] span=from_string:66:585 */ = reshape(%x_38, newshape=[1320]) /* ty=Tensor[(1320), float16] span=from_string:65:97 */;
  let %x_40: (Tensor[(10, 20), float16], (Tensor[(1, 1, 120), float16], Tensor[(1, 1, 240), float16]), (Tensor[(1, 1, 840), float16], Tensor[(1, 1, 840), float16]), Tensor[(1), float16], Tensor[(1), float16], Tensor[(70, 12), float16], Tensor[(1320), float16]) /* ty=(Tensor[(10, 20), float16], (Tensor[(1, 1, 120), float16], Tensor[(1, 1, 240), float16]), (Tensor[(1, 1, 840), float16], Tensor[(1, 1, 840), float16]), Tensor[(1), float16], Tensor[(1), float16], Tensor[(70, 12), float16], Tensor[(1320), float16]) span=from_string:67:3 */ = (%x_6, %x_16, %x_25, %x_32, %x_34, %x_36, %x_39) /* ty=(Tensor[(10, 20), float16], (Tensor[(1, 1, 120), float16], Tensor[(1, 1, 240), float16]), (Tensor[(1, 1, 840), float16], Tensor[(1, 1, 840), float16]), Tensor[(1), float16], Tensor[(1), float16], Tensor[(70, 12), float16], Tensor[(1320), float16]) span=from_string:66:543 */;
  %x_40
}
