#[version = "0.0.5"]
def @main(%x0: Tensor[(10, 20), float32] /* ty=Tensor[(10, 20), float32] span=from_string:6:11 */, %x1: Tensor[(12, 20), float32] /* ty=Tensor[(12, 20), float32] span=from_string:41:18 */, %x2: Tensor[(12), float32] /* ty=Tensor[(12), float32] span=from_string:20:20 */, %x3: Tensor[(1), float32] /* ty=Tensor[(1), float32] span=from_string:82:13 */, %x4: Tensor[(24, 20), float32] /* ty=Tensor[(24, 20), float32] span=from_string:27:17 */, %x5: Tensor[(24), float32] /* ty=Tensor[(24), float32] span=from_string:35:13 */, %x6: Tensor[(1), float32] /* ty=Tensor[(1), float32] span=from_string:35:23 */, %x7: Tensor[(70, 20), float32] /* ty=Tensor[(70, 20), float32] span=from_string:52:13 */, %x8: Tensor[(12, 20), float32] /* ty=Tensor[(12, 20), float32] span=from_string:52:18 */, %x9: Tensor[(12), float32] /* ty=Tensor[(12), float32] span=from_string:41:23 */, %x10: Tensor[(12), float32] /* ty=Tensor[(12), float32] span=from_string:52:23 */, %x11: Tensor[(1), float32] /* ty=Tensor[(1), float32] span=from_string:81:13 */, %x12: Tensor[(1), float32] /* ty=Tensor[(1), float32] span=from_string:52:29 */, %x13: Tensor[(45, 24), float32] /* ty=Tensor[(45, 24), float32] span=from_string:72:18 */, %x14: Tensor[(1320), float32] /* ty=Tensor[(1320), float32] */) -> (Tensor[(10, 20), float32], (Tensor[(1, 1, 120), float32], Tensor[(1, 1, 240), float32]), (Tensor[(1, 1, 840), float32], Tensor[(1, 1, 840), float32]), Tensor[(1), float32], Tensor[(1), float32], Tensor[(70, 12), float32], Tensor[(1320), float32]) {
  let %x_0 = fn (%p01: Tensor[(10, 20), float32] /* ty=Tensor[(10, 20), float32] span=from_string:4:9 */, Primitive=1) -> Tensor[(10, 20), float32] {
    add(%p01, 1f /* ty=float32 span=from_string:4:17 */) /* ty=Tensor[(10, 20), float32] span=from_string:4:5 */
  } /* ty=fn (Tensor[(10, 20), float32]) -> Tensor[(10, 20), float32] span=from_string:6:8 */;
  let %x_1 = %x_0(%x0);
  let %x_2 = fn (%p0: Tensor[(10, 20), float32] /* ty=Tensor[(10, 20), float32] span=from_string:8:9 */, Primitive=1) -> Tensor[(10, 20), float32] {
    add(%p0, 3f /* ty=float32 span=from_string:8:16 */) /* ty=Tensor[(10, 20), float32] span=from_string:8:5 */
  } /* ty=fn (Tensor[(10, 20), float32]) -> Tensor[(10, 20), float32] span=from_string:78:9 */;
  let %x_3 = %x_2(%x_1);
  let %x_4 = fn (%p04: Tensor[(10, 20), float32] /* ty=Tensor[(10, 20), float32] span=from_string:11:9 */, Primitive=1) -> Tensor[(10, 20), float32] {
    exp(%p04) /* ty=Tensor[(10, 20), float32] span=from_string:11:5 */
  } /* ty=fn (Tensor[(10, 20), float32]) -> Tensor[(10, 20), float32] span=from_string:13:8 */;
  let %x_5 = %x_4(%x_1);
  let %x_6 = fn (%p03: Tensor[(10, 20), float32] /* ty=Tensor[(10, 20), float32] span=from_string:15:19 */, %p1: Tensor[(12, 20), float32] /* ty=Tensor[(12, 20), float32] span=from_string:15:25 */, %p2: Tensor[(12), float32] /* ty=Tensor[(12), float32] span=from_string:16:22 */, %p3: Tensor[(1), float32] /* ty=Tensor[(1), float32] span=from_string:18:19 */, Primitive=1) -> Tensor[(10, 12), float32] {
    %0 = nn.dense(%p03, %p1, units=None) /* ty=Tensor[(10, 12), float32] span=from_string:17:14 */;
    %1 = expand_dims(%p2, axis=0) /* ty=Tensor[(1, 12), float32] span=from_string:17:18 */;
    %2 = add(%0, %1) /* ty=Tensor[(10, 12), float32] span=from_string:18:15 */;
    multiply(%2, %p3) /* ty=Tensor[(10, 12), float32] span=from_string:15:5 */
  } /* ty=fn (Tensor[(10, 20), float32], Tensor[(12, 20), float32], Tensor[(12), float32], Tensor[(1), float32]) -> Tensor[(10, 12), float32] span=from_string:20:8 */;
  let %x_7 = %x_6(%x_5, %x1, %x2, %x3);
  let %x_8 = fn (%p02: Tensor[(10, 12), float32] /* ty=Tensor[(10, 12), float32] span=from_string:22:13 */, Primitive=1, relay.reshape_only=1) -> Tensor[(1, 1, 120), float32] {
    reshape(%p02, newshape=[1, 1, 120]) /* ty=Tensor[(1, 1, 120), float32] span=from_string:22:5 */
  } /* ty=fn (Tensor[(10, 12), float32]) -> Tensor[(1, 1, 120), float32] span=from_string:34:9 */;
  let %x_9 = %x_8(%x_7);
  let %x_10 = fn (%p06: Tensor[(10, 20), float32] /* ty=Tensor[(10, 20), float32] span=from_string:25:14 */, %p12: Tensor[(24, 20), float32] /* ty=Tensor[(24, 20), float32] span=from_string:25:20 */, Primitive=1) -> Tensor[(10, 24), float32] {
    nn.dense(%p06, %p12, units=None) /* ty=Tensor[(10, 24), float32] span=from_string:25:5 */
  } /* ty=fn (Tensor[(10, 20), float32], Tensor[(24, 20), float32]) -> Tensor[(10, 24), float32] span=from_string:27:9 */;
  let %x_11 = %x_10(%x_5, %x4);
  let %x_12 = fn (%p05: Tensor[(24), float32] /* ty=Tensor[(24), float32] span=from_string:29:23 */, %p11: Tensor[(10, 24), float32] /* ty=Tensor[(10, 24), float32] span=from_string:30:15 */, %p21: Tensor[(1), float32] /* ty=Tensor[(1), float32] span=from_string:31:26 */, Primitive=1) -> Tensor[(1, 1, 240), float32] {
    %3 = expand_dims(%p05, axis=0) /* ty=Tensor[(1, 24), float32] span=from_string:30:21 */;
    %4 = add(%p11, %3) /* ty=Tensor[(10, 24), float32] span=from_string:31:21 */;
    %5 = multiply(%4, %p21) /* ty=Tensor[(10, 24), float32] span=from_string:32:13 */;
    reshape(%5, newshape=[1, 1, 240]) /* ty=Tensor[(1, 1, 240), float32] span=from_string:29:5 */
  } /* ty=fn (Tensor[(24), float32], Tensor[(10, 24), float32], Tensor[(1), float32]) -> Tensor[(1, 1, 240), float32] span=from_string:35:9 */;
  let %x_13 = %x_12(%x5, %x_11, %x6);
  let %x_14 = (%x_9, %x_13) /* ty=(Tensor[(1, 1, 120), float32], Tensor[(1, 1, 240), float32]) span=from_string:84:9 */;
  let %x_15 = fn (%p08: Tensor[(70, 20), float32] /* ty=Tensor[(70, 20), float32] span=from_string:37:20 */, %p14: Tensor[(12, 20), float32] /* ty=Tensor[(12, 20), float32] span=from_string:37:26 */, %p22: Tensor[(12), float32] /* ty=Tensor[(12), float32] span=from_string:38:23 */, Primitive=1) -> Tensor[(70, 12), float32] {
    %6 = nn.dense(%p08, %p14, units=None) /* ty=Tensor[(70, 12), float32] span=from_string:39:9 */;
    %7 = expand_dims(%p22, axis=0) /* ty=Tensor[(1, 12), float32] span=from_string:39:14 */;
    add(%6, %7) /* ty=Tensor[(70, 12), float32] span=from_string:37:5 */
  } /* ty=fn (Tensor[(70, 20), float32], Tensor[(12, 20), float32], Tensor[(12), float32]) -> Tensor[(70, 12), float32] span=from_string:41:9 */;
  let %x_16 = %x_15(%x7, %x1, %x9);
  let %x_17 = fn (%p07: Tensor[(70, 12), float32] /* ty=Tensor[(70, 12), float32] span=from_string:43:21 */, %p13: Tensor[(1), float32] /* ty=Tensor[(1), float32] span=from_string:43:27 */, Primitive=1) -> Tensor[(1, 1, 840), float32] {
    %8 = multiply(%p07, %p13) /* ty=Tensor[(70, 12), float32] span=from_string:44:13 */;
    reshape(%8, newshape=[1, 1, -1]) /* ty=Tensor[(1, 1, 840), float32] span=from_string:43:5 */
  } /* ty=fn (Tensor[(70, 12), float32], Tensor[(1), float32]) -> Tensor[(1, 1, 840), float32] span=from_string:56:9 */;
  let %x_18 = %x_17(%x_16, %x11);
  let %x_19 = fn (%p010: Tensor[(70, 20), float32] /* ty=Tensor[(70, 20), float32] span=from_string:47:20 */, %p15: Tensor[(12, 20), float32] /* ty=Tensor[(12, 20), float32] span=from_string:47:27 */, %p23: Tensor[(12), float32] /* ty=Tensor[(12), float32] span=from_string:48:23 */, %p31: Tensor[(1), float32] /* ty=Tensor[(1), float32] span=from_string:50:20 */, Primitive=1) -> Tensor[(70, 12), float32] {
    %9 = nn.dense(%p010, %p15, units=None) /* ty=Tensor[(70, 12), float32] span=from_string:49:15 */;
    %10 = expand_dims(%p23, axis=0) /* ty=Tensor[(1, 12), float32] span=from_string:49:20 */;
    %11 = add(%9, %10) /* ty=Tensor[(70, 12), float32] span=from_string:50:15 */;
    multiply(%11, %p31) /* ty=Tensor[(70, 12), float32] span=from_string:47:5 */
  } /* ty=fn (Tensor[(70, 20), float32], Tensor[(12, 20), float32], Tensor[(12), float32], Tensor[(1), float32]) -> Tensor[(70, 12), float32] span=from_string:52:9 */;
  let %x_20 = %x_19(%x7, %x8, %x10, %x12);
  let %x_21 = fn (%p09: Tensor[(70, 12), float32] /* ty=Tensor[(70, 12), float32] span=from_string:54:13 */, Primitive=1, relay.reshape_only=1) -> Tensor[(1, 1, 840), float32] {
    reshape(%p09, newshape=[1, 1, -1]) /* ty=Tensor[(1, 1, 840), float32] span=from_string:54:5 */
  } /* ty=fn (Tensor[(70, 12), float32]) -> Tensor[(1, 1, 840), float32] span=from_string:57:9 */;
  let %x_22 = %x_21(%x_20);
  let %x_23 = (%x_18, %x_22) /* ty=(Tensor[(1, 1, 840), float32], Tensor[(1, 1, 840), float32]) span=from_string:84:14 */;
  let %x_24 = fn (%p011: Tensor[(1), float32] /* ty=Tensor[(1), float32] span=from_string:60:19 */, Primitive=1) -> Tensor[(1), float32] {
    %12 = nn.relu(%p011) /* ty=Tensor[(1), float32] span=from_string:61:15 */;
    %13 = nn.relu(%p011) /* ty=Tensor[(1), float32] span=from_string:62:15 */;
    %14 = add(%12, 1f /* ty=float32 span=from_string:61:22 */) /* ty=Tensor[(1), float32] span=from_string:63:9 */;
    %15 = add(%13, 1f /* ty=float32 span=from_string:62:22 */) /* ty=Tensor[(1), float32] span=from_string:63:14 */;
    add(%14, %15) /* ty=Tensor[(1), float32] span=from_string:59:5 */
  } /* ty=fn (Tensor[(1), float32]) -> Tensor[(1), float32] span=from_string:81:9 */;
  let %x_25 = %x_24(%x11);
  let %x_26 = fn (%p012: Tensor[(1), float32] /* ty=Tensor[(1), float32] span=from_string:66:9 */, Primitive=1) -> Tensor[(1), float32] {
    add(%p012, 1f /* ty=float32 span=from_string:66:18 */) /* ty=Tensor[(1), float32] span=from_string:66:5 */
  } /* ty=fn (Tensor[(1), float32]) -> Tensor[(1), float32] span=from_string:82:9 */;
  let %x_27 = %x_26(%x3);
  let %x_28 = fn (%p014: Tensor[(10, 24), float32] /* ty=Tensor[(10, 24), float32] span=from_string:69:12 */, %p16: Tensor[(45, 24), float32] /* ty=Tensor[(45, 24), float32] span=from_string:69:19 */, Primitive=1) -> Tensor[(55, 24), float32] {
    %16 = (%p014, %p16) /* ty=(Tensor[(10, 24), float32], Tensor[(45, 24), float32]) span=from_string:70:17 */;
    concatenate(%16) /* ty=Tensor[(55, 24), float32] span=from_string:69:5 */
  } /* ty=fn (Tensor[(10, 24), float32], Tensor[(45, 24), float32]) -> Tensor[(55, 24), float32] span=from_string:72:9 */;
  let %x_29 = %x_28(%x_11, %x13);
  let %x_30 = fn (%p013: Tensor[(55, 24), float32] /* ty=Tensor[(55, 24), float32] span=from_string:74:12 */, Primitive=1) -> Tensor[(1320), float32] {
    %17 = (%p013,) /* ty=(Tensor[(55, 24), float32],) span=from_string:75:23 */;
    %18 = concatenate(%17) /* ty=Tensor[(55, 24), float32] span=from_string:76:13 */;
    reshape(%18, newshape=[1320]) /* ty=Tensor[(1320), float32] span=from_string:74:5 */
  } /* ty=fn (Tensor[(55, 24), float32]) -> Tensor[(1320), float32] span=from_string:83:9 */;
  let %x_31 = %x_30(%x_29);
  let %x_32 = (%x_3, %x_14, %x_23, %x_25, %x_27, %x_16, %x_31) /* ty=(Tensor[(10, 20), float32], (Tensor[(1, 1, 120), float32], Tensor[(1, 1, 240), float32]), (Tensor[(1, 1, 840), float32], Tensor[(1, 1, 840), float32]), Tensor[(1), float32], Tensor[(1), float32], Tensor[(70, 12), float32], Tensor[(1320), float32]) span=from_string:3:3 */;
  %x_32
}
