#[version = "0.0.5"]
def @main(%x0: Tensor[(1, 64, 56, 56), float32] /* ty=Tensor[(1, 64, 56, 56), float32] span=from_string:3:118 */, %x1: Tensor[(64, 64, 3, 3), float32] /* ty=Tensor[(64, 64, 3, 3), float32] span=from_string:14:118 */) -> ((Tensor[(1, 64, 1, 1), float16], Tensor[(1, 64, 1, 1), float16]), float32, Tensor[(0, 127, 111, 56), float16], Tensor[(1, 64, 1, 1), float16], Tensor[(0, 111, 1, 1), float16], Tensor[(111, 56, 127, 0), float16]) {
  let %x_0: Tensor[(1, 64, 56, 56), float16] /* ty=Tensor[(1, 64, 56, 56), float16] span=from_string:7:138 */ = cast(%x0, dtype="float16");
  let %x_1: Tensor[(1, 64, 1, 1), float16] /* ty=Tensor[(1, 64, 1, 1), float16] span=from_string:6:179 */ = nn.global_max_pool2d(%x_0);
  let %x_01 = 2f16 /* ty=float16 span=from_string:5:130 */;
  let %x_4: Tensor[(1, 64, 1, 1), float16] /* ty=Tensor[(1, 64, 1, 1), float16] span=from_string:13:115 */ = multiply(%x_1, %x_01);
  let %x_5: (Tensor[(1, 64, 1, 1), float16], Tensor[(1, 64, 1, 1), float16]) /* ty=(Tensor[(1, 64, 1, 1), float16], Tensor[(1, 64, 1, 1), float16]) span=from_string:25:476 */ = (%x_1, %x_4) /* ty=(Tensor[(1, 64, 1, 1), float16], Tensor[(1, 64, 1, 1), float16]) span=from_string:6:178 */;
  let %x_7: Tensor[(0, 127, 111, 56), float16] /* ty=Tensor[(0, 127, 111, 56), float16] span=from_string:8:125 */ = nn.batch_to_space_nd(%x_0, block_shape=[2, 2], crops=[[0, 1], [0, 1]]);
  let %x_8: Tensor[(0, 127, 111, 56), float16] /* ty=Tensor[(0, 127, 111, 56), float16] span=from_string:9:128 */ = nn.relu(%x_7);
  let %x_9: Tensor[(0, 111, 56, 127), float16] /* ty=Tensor[(0, 111, 56, 127), float16] span=from_string:17:134 */ = transpose(%x_8, axes=[0, 2, 3, 1]);
  let %x_10: Tensor[(111, 56, 127, 0), float16] /* ty=Tensor[(111, 56, 127, 0), float16] span=from_string:22:142 */ = transpose(%x_9, axes=[1, 2, 3, 0]);
  let %x_11: Tensor[(0, 127, 111, 56), float16] /* ty=Tensor[(0, 127, 111, 56), float16] span=from_string:25:533 */ = transpose(%x_10, axes=[3, 2, 0, 1]);
  let %x_12: Tensor[(1), float16] /* ty=Tensor[(1), float16] span=from_string:13:121 */ = ones(shape=[1], dtype="float16");
  let %x_13: Tensor[(1, 64, 1, 1), float16] /* ty=Tensor[(1, 64, 1, 1), float16] span=from_string:15:121 */ = add(%x_4, %x_12);
  let %x_14: Tensor[(64, 64, 3, 3), float16] /* ty=Tensor[(64, 64, 3, 3), float16] span=from_string:15:128 */ = cast(%x1, dtype="float16");
  let %x_15: Tensor[(1, 64, 1, 1), float16] /* ty=Tensor[(1, 64, 1, 1), float16] span=from_string:16:119 */ = nn.conv2d(%x_13, %x_14, padding=[1, 1, 1, 1], channels=64, kernel_size=[3, 3], out_dtype="float16");
  let %x_16: Tensor[(1, 64, 1, 1), float16] /* ty=Tensor[(1, 64, 1, 1), float16] span=from_string:25:540 */ = nn.relu(%x_15);
  let %x_17: Tensor[(0, 111, 1, 1), float16] /* ty=Tensor[(0, 111, 1, 1), float16] span=from_string:18:121 */ = nn.global_max_pool2d(%x_9);
  let %x_18: Tensor[(0, 111, 1, 1), float16] /* ty=Tensor[(0, 111, 1, 1), float16] span=from_string:19:123 */ = nn.relu(%x_17);
  let %x_19: Tensor[(0, 1, 1, 111), float16] /* ty=Tensor[(0, 1, 1, 111), float16] span=from_string:20:123 */ = transpose(%x_18, axes=[0, 2, 3, 1]);
  let %x_20: Tensor[(1, 1, 111, 0), float16] /* ty=Tensor[(1, 1, 111, 0), float16] span=from_string:21:123 */ = transpose(%x_19, axes=[1, 2, 3, 0]);
  let %x_21: Tensor[(0, 111, 1, 1), float16] /* ty=Tensor[(0, 111, 1, 1), float16] span=from_string:25:547 */ = transpose(%x_20, axes=[3, 2, 0, 1]);
  let %x_22: Tensor[(111, 14, 127, 0, 4), float16] /* ty=Tensor[(111, 14, 127, 0, 4), float16] span=from_string:23:136 */ = layout_transform(%x_10, src_layout="NCHW", dst_layout="NCHW4c");
  let %x_23: Tensor[(111, 56, 127, 0), float16] /* ty=Tensor[(111, 56, 127, 0), float16] span=from_string:24:127 */ = layout_transform(%x_22, src_layout="NCHW4c", dst_layout="NCHW");
  let %x_24: Tensor[(111, 56, 127, 0), float16] /* ty=Tensor[(111, 56, 127, 0), float16] span=from_string:25:554 */ = nn.relu(%x_23);
  let %x_110 = 7.38906f /* ty=float32 span=from_string:25:490 */;
  let %x_25: ((Tensor[(1, 64, 1, 1), float16], Tensor[(1, 64, 1, 1), float16]), float32, Tensor[(0, 127, 111, 56), float16], Tensor[(1, 64, 1, 1), float16], Tensor[(0, 111, 1, 1), float16], Tensor[(111, 56, 127, 0), float16]) /* ty=((Tensor[(1, 64, 1, 1), float16], Tensor[(1, 64, 1, 1), float16]), float32, Tensor[(0, 127, 111, 56), float16], Tensor[(1, 64, 1, 1), float16], Tensor[(0, 111, 1, 1), float16], Tensor[(111, 56, 127, 0), float16]) span=from_string:26:475 */ = (%x_5, %x_110, %x_11, %x_16, %x_21, %x_24) /* ty=((Tensor[(1, 64, 1, 1), float16], Tensor[(1, 64, 1, 1), float16]), float32, Tensor[(0, 127, 111, 56), float16], Tensor[(1, 64, 1, 1), float16], Tensor[(0, 111, 1, 1), float16], Tensor[(111, 56, 127, 0), float16]) span=from_string:25:475 */;
  let %x_011: ((Tensor[(1, 64, 1, 1), float16], Tensor[(1, 64, 1, 1), float16]), float32, Tensor[(0, 127, 111, 56), float16], Tensor[(1, 64, 1, 1), float16], Tensor[(0, 111, 1, 1), float16], Tensor[(111, 56, 127, 0), float16]) /* ty=((Tensor[(1, 64, 1, 1), float16], Tensor[(1, 64, 1, 1), float16]), float32, Tensor[(0, 127, 111, 56), float16], Tensor[(1, 64, 1, 1), float16], Tensor[(0, 111, 1, 1), float16], Tensor[(111, 56, 127, 0), float16]) span=from_string:27:476 */ = %x_25;
  let %x_1101: ((Tensor[(1, 64, 1, 1), float16], Tensor[(1, 64, 1, 1), float16]), float32, Tensor[(0, 127, 111, 56), float16], Tensor[(1, 64, 1, 1), float16], Tensor[(0, 111, 1, 1), float16], Tensor[(111, 56, 127, 0), float16]) /* ty=((Tensor[(1, 64, 1, 1), float16], Tensor[(1, 64, 1, 1), float16]), float32, Tensor[(0, 127, 111, 56), float16], Tensor[(1, 64, 1, 1), float16], Tensor[(0, 111, 1, 1), float16], Tensor[(111, 56, 127, 0), float16]) span=from_string:28:475 */ = %x_011;
  let %x_26: ((Tensor[(1, 64, 1, 1), float16], Tensor[(1, 64, 1, 1), float16]), float32, Tensor[(0, 127, 111, 56), float16], Tensor[(1, 64, 1, 1), float16], Tensor[(0, 111, 1, 1), float16], Tensor[(111, 56, 127, 0), float16]) /* ty=((Tensor[(1, 64, 1, 1), float16], Tensor[(1, 64, 1, 1), float16]), float32, Tensor[(0, 127, 111, 56), float16], Tensor[(1, 64, 1, 1), float16], Tensor[(0, 111, 1, 1), float16], Tensor[(111, 56, 127, 0), float16]) span=from_string:29:475 */ = %x_1101;
  let %x_31: ((Tensor[(1, 64, 1, 1), float16], Tensor[(1, 64, 1, 1), float16]), float32, Tensor[(0, 127, 111, 56), float16], Tensor[(1, 64, 1, 1), float16], Tensor[(0, 111, 1, 1), float16], Tensor[(111, 56, 127, 0), float16]) /* ty=((Tensor[(1, 64, 1, 1), float16], Tensor[(1, 64, 1, 1), float16]), float32, Tensor[(0, 127, 111, 56), float16], Tensor[(1, 64, 1, 1), float16], Tensor[(0, 111, 1, 1), float16], Tensor[(111, 56, 127, 0), float16]) span=from_string:30:475 */ = %x_26;
  let %x_41: ((Tensor[(1, 64, 1, 1), float16], Tensor[(1, 64, 1, 1), float16]), float32, Tensor[(0, 127, 111, 56), float16], Tensor[(1, 64, 1, 1), float16], Tensor[(0, 111, 1, 1), float16], Tensor[(111, 56, 127, 0), float16]) /* ty=((Tensor[(1, 64, 1, 1), float16], Tensor[(1, 64, 1, 1), float16]), float32, Tensor[(0, 127, 111, 56), float16], Tensor[(1, 64, 1, 1), float16], Tensor[(0, 111, 1, 1), float16], Tensor[(111, 56, 127, 0), float16]) span=from_string:31:475 */ = %x_31;
  let %x_51: ((Tensor[(1, 64, 1, 1), float16], Tensor[(1, 64, 1, 1), float16]), float32, Tensor[(0, 127, 111, 56), float16], Tensor[(1, 64, 1, 1), float16], Tensor[(0, 111, 1, 1), float16], Tensor[(111, 56, 127, 0), float16]) /* ty=((Tensor[(1, 64, 1, 1), float16], Tensor[(1, 64, 1, 1), float16]), float32, Tensor[(0, 127, 111, 56), float16], Tensor[(1, 64, 1, 1), float16], Tensor[(0, 111, 1, 1), float16], Tensor[(111, 56, 127, 0), float16]) span=from_string:32:475 */ = %x_41;
  let %x_61: ((Tensor[(1, 64, 1, 1), float16], Tensor[(1, 64, 1, 1), float16]), float32, Tensor[(0, 127, 111, 56), float16], Tensor[(1, 64, 1, 1), float16], Tensor[(0, 111, 1, 1), float16], Tensor[(111, 56, 127, 0), float16]) /* ty=((Tensor[(1, 64, 1, 1), float16], Tensor[(1, 64, 1, 1), float16]), float32, Tensor[(0, 127, 111, 56), float16], Tensor[(1, 64, 1, 1), float16], Tensor[(0, 111, 1, 1), float16], Tensor[(111, 56, 127, 0), float16]) span=from_string:33:475 */ = %x_51;
  let %x_71: ((Tensor[(1, 64, 1, 1), float16], Tensor[(1, 64, 1, 1), float16]), float32, Tensor[(0, 127, 111, 56), float16], Tensor[(1, 64, 1, 1), float16], Tensor[(0, 111, 1, 1), float16], Tensor[(111, 56, 127, 0), float16]) /* ty=((Tensor[(1, 64, 1, 1), float16], Tensor[(1, 64, 1, 1), float16]), float32, Tensor[(0, 127, 111, 56), float16], Tensor[(1, 64, 1, 1), float16], Tensor[(0, 111, 1, 1), float16], Tensor[(111, 56, 127, 0), float16]) span=from_string:34:475 */ = %x_61;
  let %x_81: ((Tensor[(1, 64, 1, 1), float16], Tensor[(1, 64, 1, 1), float16]), float32, Tensor[(0, 127, 111, 56), float16], Tensor[(1, 64, 1, 1), float16], Tensor[(0, 111, 1, 1), float16], Tensor[(111, 56, 127, 0), float16]) /* ty=((Tensor[(1, 64, 1, 1), float16], Tensor[(1, 64, 1, 1), float16]), float32, Tensor[(0, 127, 111, 56), float16], Tensor[(1, 64, 1, 1), float16], Tensor[(0, 111, 1, 1), float16], Tensor[(111, 56, 127, 0), float16]) span=from_string:35:475 */ = %x_71;
  let %x_91: ((Tensor[(1, 64, 1, 1), float16], Tensor[(1, 64, 1, 1), float16]), float32, Tensor[(0, 127, 111, 56), float16], Tensor[(1, 64, 1, 1), float16], Tensor[(0, 111, 1, 1), float16], Tensor[(111, 56, 127, 0), float16]) /* ty=((Tensor[(1, 64, 1, 1), float16], Tensor[(1, 64, 1, 1), float16]), float32, Tensor[(0, 127, 111, 56), float16], Tensor[(1, 64, 1, 1), float16], Tensor[(0, 111, 1, 1), float16], Tensor[(111, 56, 127, 0), float16]) span=from_string:36:476 */ = %x_81;
  let %x_101: ((Tensor[(1, 64, 1, 1), float16], Tensor[(1, 64, 1, 1), float16]), float32, Tensor[(0, 127, 111, 56), float16], Tensor[(1, 64, 1, 1), float16], Tensor[(0, 111, 1, 1), float16], Tensor[(111, 56, 127, 0), float16]) /* ty=((Tensor[(1, 64, 1, 1), float16], Tensor[(1, 64, 1, 1), float16]), float32, Tensor[(0, 127, 111, 56), float16], Tensor[(1, 64, 1, 1), float16], Tensor[(0, 111, 1, 1), float16], Tensor[(111, 56, 127, 0), float16]) span=from_string:37:476 */ = %x_91;
  let %x_111: ((Tensor[(1, 64, 1, 1), float16], Tensor[(1, 64, 1, 1), float16]), float32, Tensor[(0, 127, 111, 56), float16], Tensor[(1, 64, 1, 1), float16], Tensor[(0, 111, 1, 1), float16], Tensor[(111, 56, 127, 0), float16]) /* ty=((Tensor[(1, 64, 1, 1), float16], Tensor[(1, 64, 1, 1), float16]), float32, Tensor[(0, 127, 111, 56), float16], Tensor[(1, 64, 1, 1), float16], Tensor[(0, 111, 1, 1), float16], Tensor[(111, 56, 127, 0), float16]) span=from_string:38:476 */ = %x_101;
  let %x_121: ((Tensor[(1, 64, 1, 1), float16], Tensor[(1, 64, 1, 1), float16]), float32, Tensor[(0, 127, 111, 56), float16], Tensor[(1, 64, 1, 1), float16], Tensor[(0, 111, 1, 1), float16], Tensor[(111, 56, 127, 0), float16]) /* ty=((Tensor[(1, 64, 1, 1), float16], Tensor[(1, 64, 1, 1), float16]), float32, Tensor[(0, 127, 111, 56), float16], Tensor[(1, 64, 1, 1), float16], Tensor[(0, 111, 1, 1), float16], Tensor[(111, 56, 127, 0), float16]) span=from_string:39:476 */ = %x_111;
  let %x_131: ((Tensor[(1, 64, 1, 1), float16], Tensor[(1, 64, 1, 1), float16]), float32, Tensor[(0, 127, 111, 56), float16], Tensor[(1, 64, 1, 1), float16], Tensor[(0, 111, 1, 1), float16], Tensor[(111, 56, 127, 0), float16]) /* ty=((Tensor[(1, 64, 1, 1), float16], Tensor[(1, 64, 1, 1), float16]), float32, Tensor[(0, 127, 111, 56), float16], Tensor[(1, 64, 1, 1), float16], Tensor[(0, 111, 1, 1), float16], Tensor[(111, 56, 127, 0), float16]) span=from_string:40:476 */ = %x_121;
  let %x_141: ((Tensor[(1, 64, 1, 1), float16], Tensor[(1, 64, 1, 1), float16]), float32, Tensor[(0, 127, 111, 56), float16], Tensor[(1, 64, 1, 1), float16], Tensor[(0, 111, 1, 1), float16], Tensor[(111, 56, 127, 0), float16]) /* ty=((Tensor[(1, 64, 1, 1), float16], Tensor[(1, 64, 1, 1), float16]), float32, Tensor[(0, 127, 111, 56), float16], Tensor[(1, 64, 1, 1), float16], Tensor[(0, 111, 1, 1), float16], Tensor[(111, 56, 127, 0), float16]) span=from_string:41:476 */ = %x_131;
  let %x_151: ((Tensor[(1, 64, 1, 1), float16], Tensor[(1, 64, 1, 1), float16]), float32, Tensor[(0, 127, 111, 56), float16], Tensor[(1, 64, 1, 1), float16], Tensor[(0, 111, 1, 1), float16], Tensor[(111, 56, 127, 0), float16]) /* ty=((Tensor[(1, 64, 1, 1), float16], Tensor[(1, 64, 1, 1), float16]), float32, Tensor[(0, 127, 111, 56), float16], Tensor[(1, 64, 1, 1), float16], Tensor[(0, 111, 1, 1), float16], Tensor[(111, 56, 127, 0), float16]) span=from_string:42:476 */ = %x_141;
  let %x_161: ((Tensor[(1, 64, 1, 1), float16], Tensor[(1, 64, 1, 1), float16]), float32, Tensor[(0, 127, 111, 56), float16], Tensor[(1, 64, 1, 1), float16], Tensor[(0, 111, 1, 1), float16], Tensor[(111, 56, 127, 0), float16]) /* ty=((Tensor[(1, 64, 1, 1), float16], Tensor[(1, 64, 1, 1), float16]), float32, Tensor[(0, 127, 111, 56), float16], Tensor[(1, 64, 1, 1), float16], Tensor[(0, 111, 1, 1), float16], Tensor[(111, 56, 127, 0), float16]) span=from_string:43:476 */ = %x_151;
  let %x_171: ((Tensor[(1, 64, 1, 1), float16], Tensor[(1, 64, 1, 1), float16]), float32, Tensor[(0, 127, 111, 56), float16], Tensor[(1, 64, 1, 1), float16], Tensor[(0, 111, 1, 1), float16], Tensor[(111, 56, 127, 0), float16]) /* ty=((Tensor[(1, 64, 1, 1), float16], Tensor[(1, 64, 1, 1), float16]), float32, Tensor[(0, 127, 111, 56), float16], Tensor[(1, 64, 1, 1), float16], Tensor[(0, 111, 1, 1), float16], Tensor[(111, 56, 127, 0), float16]) span=from_string:44:476 */ = %x_161;
  let %x_181: ((Tensor[(1, 64, 1, 1), float16], Tensor[(1, 64, 1, 1), float16]), float32, Tensor[(0, 127, 111, 56), float16], Tensor[(1, 64, 1, 1), float16], Tensor[(0, 111, 1, 1), float16], Tensor[(111, 56, 127, 0), float16]) /* ty=((Tensor[(1, 64, 1, 1), float16], Tensor[(1, 64, 1, 1), float16]), float32, Tensor[(0, 127, 111, 56), float16], Tensor[(1, 64, 1, 1), float16], Tensor[(0, 111, 1, 1), float16], Tensor[(111, 56, 127, 0), float16]) span=from_string:45:476 */ = %x_171;
  let %x_191: ((Tensor[(1, 64, 1, 1), float16], Tensor[(1, 64, 1, 1), float16]), float32, Tensor[(0, 127, 111, 56), float16], Tensor[(1, 64, 1, 1), float16], Tensor[(0, 111, 1, 1), float16], Tensor[(111, 56, 127, 0), float16]) /* ty=((Tensor[(1, 64, 1, 1), float16], Tensor[(1, 64, 1, 1), float16]), float32, Tensor[(0, 127, 111, 56), float16], Tensor[(1, 64, 1, 1), float16], Tensor[(0, 111, 1, 1), float16], Tensor[(111, 56, 127, 0), float16]) span=from_string:46:476 */ = %x_181;
  let %x_201: ((Tensor[(1, 64, 1, 1), float16], Tensor[(1, 64, 1, 1), float16]), float32, Tensor[(0, 127, 111, 56), float16], Tensor[(1, 64, 1, 1), float16], Tensor[(0, 111, 1, 1), float16], Tensor[(111, 56, 127, 0), float16]) /* ty=((Tensor[(1, 64, 1, 1), float16], Tensor[(1, 64, 1, 1), float16]), float32, Tensor[(0, 127, 111, 56), float16], Tensor[(1, 64, 1, 1), float16], Tensor[(0, 111, 1, 1), float16], Tensor[(111, 56, 127, 0), float16]) span=from_string:47:476 */ = %x_191;
  let %x_211: ((Tensor[(1, 64, 1, 1), float16], Tensor[(1, 64, 1, 1), float16]), float32, Tensor[(0, 127, 111, 56), float16], Tensor[(1, 64, 1, 1), float16], Tensor[(0, 111, 1, 1), float16], Tensor[(111, 56, 127, 0), float16]) /* ty=((Tensor[(1, 64, 1, 1), float16], Tensor[(1, 64, 1, 1), float16]), float32, Tensor[(0, 127, 111, 56), float16], Tensor[(1, 64, 1, 1), float16], Tensor[(0, 111, 1, 1), float16], Tensor[(111, 56, 127, 0), float16]) span=from_string:48:476 */ = %x_201;
  let %x_221: ((Tensor[(1, 64, 1, 1), float16], Tensor[(1, 64, 1, 1), float16]), float32, Tensor[(0, 127, 111, 56), float16], Tensor[(1, 64, 1, 1), float16], Tensor[(0, 111, 1, 1), float16], Tensor[(111, 56, 127, 0), float16]) /* ty=((Tensor[(1, 64, 1, 1), float16], Tensor[(1, 64, 1, 1), float16]), float32, Tensor[(0, 127, 111, 56), float16], Tensor[(1, 64, 1, 1), float16], Tensor[(0, 111, 1, 1), float16], Tensor[(111, 56, 127, 0), float16]) span=from_string:49:476 */ = %x_211;
  let %x_231: ((Tensor[(1, 64, 1, 1), float16], Tensor[(1, 64, 1, 1), float16]), float32, Tensor[(0, 127, 111, 56), float16], Tensor[(1, 64, 1, 1), float16], Tensor[(0, 111, 1, 1), float16], Tensor[(111, 56, 127, 0), float16]) /* ty=((Tensor[(1, 64, 1, 1), float16], Tensor[(1, 64, 1, 1), float16]), float32, Tensor[(0, 127, 111, 56), float16], Tensor[(1, 64, 1, 1), float16], Tensor[(0, 111, 1, 1), float16], Tensor[(111, 56, 127, 0), float16]) span=from_string:50:476 */ = %x_221;
  let %x_241: ((Tensor[(1, 64, 1, 1), float16], Tensor[(1, 64, 1, 1), float16]), float32, Tensor[(0, 127, 111, 56), float16], Tensor[(1, 64, 1, 1), float16], Tensor[(0, 111, 1, 1), float16], Tensor[(111, 56, 127, 0), float16]) /* ty=((Tensor[(1, 64, 1, 1), float16], Tensor[(1, 64, 1, 1), float16]), float32, Tensor[(0, 127, 111, 56), float16], Tensor[(1, 64, 1, 1), float16], Tensor[(0, 111, 1, 1), float16], Tensor[(111, 56, 127, 0), float16]) span=from_string:51:474 */ = %x_231;
  let %x_251: ((Tensor[(1, 64, 1, 1), float16], Tensor[(1, 64, 1, 1), float16]), float32, Tensor[(0, 127, 111, 56), float16], Tensor[(1, 64, 1, 1), float16], Tensor[(0, 111, 1, 1), float16], Tensor[(111, 56, 127, 0), float16]) /* ty=((Tensor[(1, 64, 1, 1), float16], Tensor[(1, 64, 1, 1), float16]), float32, Tensor[(0, 127, 111, 56), float16], Tensor[(1, 64, 1, 1), float16], Tensor[(0, 111, 1, 1), float16], Tensor[(111, 56, 127, 0), float16]) span=from_string:52:3 */ = %x_241;
  let %x_2 = %x_251;
  let %x_3 = %x_2;
  let %x_42 = %x_3;
  let %x_52 = %x_42;
  let %x_6 = %x_52;
  let %x_72 = %x_6;
  let %x_82 = %x_72;
  let %x_92 = %x_82;
  let %x_102 = %x_92;
  let %x_112 = %x_102;
  let %x_122 = %x_112;
  let %x_132 = %x_122;
  let %x_142 = %x_132;
  let %x_152 = %x_142;
  let %x_162 = %x_152;
  let %x_172 = %x_162;
  let %x_182 = %x_172;
  let %x_192 = %x_182;
  let %x_202 = %x_192;
  let %x_212 = %x_202;
  let %x_222 = %x_212;
  let %x_232 = %x_222;
  let %x_242 = %x_232;
  let %x_252 = %x_242;
  let %x_261 = %x_252;
  let %x_27 = %x_261;
  let %x_28 = %x_27;
  let %x_29 = %x_28;
  let %x_30 = %x_29;
  let %x_311 = %x_30;
  let %x_32 = %x_311;
  let %x_33 = %x_32;
  let %x_34 = %x_33;
  let %x_35 = %x_34;
  let %x_36 = %x_35;
  let %x_37 = %x_36;
  let %x_38 = %x_37;
  let %x_39 = %x_38;
  let %x_40 = %x_39;
  let %x_411 = %x_40;
  let %x_421 = %x_411;
  let %x_43 = %x_421;
  let %x_44 = %x_43;
  let %x_45 = %x_44;
  let %x_46 = %x_45;
  let %x_47 = %x_46;
  let %x_48 = %x_47;
  let %x_49 = %x_48;
  let %x_50 = %x_49;
  %x_50
}
