#[version = "0.0.5"]
def @main(%x0: Tensor[(1, 64, 56, 56), float32] /* ty=Tensor[(1, 64, 56, 56), float32] span=from_string:8:35 */, %x1: Tensor[(64, 64, 3, 3), float32] /* ty=Tensor[(64, 64, 3, 3), float32] span=from_string:15:32 */) -> ((Tensor[(1, 64, 1, 1), float32], Tensor[(1, 64, 1, 1), float32]), float32, Tensor[(0, 127, 111, 56), float32], Tensor[(1, 64, 1, 1), float32], Tensor[(0, 111, 1, 1), float32], Tensor[(111, 56, 127, 0), float32]) {
  %0 = fn (%p0: Tensor[(1, 64, 56, 56), float32] /* ty=Tensor[(1, 64, 56, 56), float32] */, Primitive=1) -> Tensor[(1, 64, 1, 1), float32] {
    nn.global_max_pool2d(%p0) /* ty=Tensor[(1, 64, 1, 1), float32] span=from_string:3:14 */
  } /* ty=fn (Tensor[(1, 64, 56, 56), float32]) -> Tensor[(1, 64, 1, 1), float32] */;
  let %x_0: Tensor[(1, 64, 1, 1), float32] /* ty=Tensor[(1, 64, 1, 1), float32] span=from_string:6:15 */ = %0(%x0) /* ty=Tensor[(1, 64, 1, 1), float32] */;
  let %x_1: float32 /* ty=float32 span=from_string:5:30 */ = 2f /* ty=float32 span=from_string:4:16 */;
  %1 = fn (%p01: Tensor[(1, 64, 1, 1), float32] /* ty=Tensor[(1, 64, 1, 1), float32] */, %p1: float32 /* ty=float32 */, Primitive=1) -> Tensor[(1, 64, 1, 1), float32] {
    multiply(%p01, %p1) /* ty=Tensor[(1, 64, 1, 1), float32] span=from_string:5:15 */
  } /* ty=fn (Tensor[(1, 64, 1, 1), float32], float32) -> Tensor[(1, 64, 1, 1), float32] */;
  let %x_2: Tensor[(1, 64, 1, 1), float32] /* ty=Tensor[(1, 64, 1, 1), float32] span=from_string:14:19 */ = %1(%x_0, %x_1) /* ty=Tensor[(1, 64, 1, 1), float32] */;
  let %x_3: (Tensor[(1, 64, 1, 1), float32], Tensor[(1, 64, 1, 1), float32]) /* ty=(Tensor[(1, 64, 1, 1), float32], Tensor[(1, 64, 1, 1), float32]) span=from_string:20:16 */ = (%x_0, %x_2) /* ty=(Tensor[(1, 64, 1, 1), float32], Tensor[(1, 64, 1, 1), float32]) span=from_string:6:14 */;
  let %x_4: float32 /* ty=float32 span=from_string:20:22 */ = 7.38906f /* ty=float32 span=from_string:7:22 */;
  %2 = fn (%p02: Tensor[(1, 64, 56, 56), float32] /* ty=Tensor[(1, 64, 56, 56), float32] */, Primitive=1) -> Tensor[(0, 127, 111, 56), float32] {
    nn.batch_to_space_nd(%p02, block_shape=[2, 2], crops=[[0, 1], [0, 1]]) /* ty=Tensor[(0, 127, 111, 56), float32] span=from_string:8:14 */
  } /* ty=fn (Tensor[(1, 64, 56, 56), float32]) -> Tensor[(0, 127, 111, 56), float32] */;
  let %x_5: Tensor[(0, 127, 111, 56), float32] /* ty=Tensor[(0, 127, 111, 56), float32] span=from_string:9:22 */ = %2(%x0) /* ty=Tensor[(0, 127, 111, 56), float32] */;
  %3 = fn (%p03: Tensor[(0, 127, 111, 56), float32] /* ty=Tensor[(0, 127, 111, 56), float32] */, Primitive=1) -> Tensor[(0, 127, 111, 56), float32] {
    nn.relu(%p03) /* ty=Tensor[(0, 127, 111, 56), float32] span=from_string:9:14 */
  } /* ty=fn (Tensor[(0, 127, 111, 56), float32]) -> Tensor[(0, 127, 111, 56), float32] */;
  let %x_6: Tensor[(0, 127, 111, 56), float32] /* ty=Tensor[(0, 127, 111, 56), float32] span=from_string:10:24 */ = %3(%x_5) /* ty=Tensor[(0, 127, 111, 56), float32] */;
  %4 = fn (%p04: Tensor[(0, 127, 111, 56), float32] /* ty=Tensor[(0, 127, 111, 56), float32] */, Primitive=1) -> Tensor[(0, 111, 56, 127), float32] {
    transpose(%p04, axes=[0, 2, 3, 1]) /* ty=Tensor[(0, 111, 56, 127), float32] span=from_string:10:14 */
  } /* ty=fn (Tensor[(0, 127, 111, 56), float32]) -> Tensor[(0, 111, 56, 127), float32] */;
  let %x_7: Tensor[(0, 111, 56, 127), float32] /* ty=Tensor[(0, 111, 56, 127), float32] span=from_string:17:36 */ = %4(%x_6) /* ty=Tensor[(0, 111, 56, 127), float32] */;
  %5 = fn (%p05: Tensor[(0, 111, 56, 127), float32] /* ty=Tensor[(0, 111, 56, 127), float32] */, Primitive=1) -> Tensor[(111, 56, 127, 0), float32] {
    transpose(%p05, axes=[1, 2, 3, 0]) /* ty=Tensor[(111, 56, 127, 0), float32] span=from_string:11:14 */
  } /* ty=fn (Tensor[(0, 111, 56, 127), float32]) -> Tensor[(111, 56, 127, 0), float32] */;
  let %x_8: Tensor[(111, 56, 127, 0), float32] /* ty=Tensor[(111, 56, 127, 0), float32] span=from_string:19:23 */ = %5(%x_7) /* ty=Tensor[(111, 56, 127, 0), float32] */;
  %6 = fn (%p06: Tensor[(111, 56, 127, 0), float32] /* ty=Tensor[(111, 56, 127, 0), float32] */, Primitive=1) -> Tensor[(0, 127, 111, 56), float32] {
    transpose(%p06, axes=[3, 2, 0, 1]) /* ty=Tensor[(0, 127, 111, 56), float32] span=from_string:12:14 */
  } /* ty=fn (Tensor[(111, 56, 127, 0), float32]) -> Tensor[(0, 127, 111, 56), float32] */;
  let %x_9: Tensor[(0, 127, 111, 56), float32] /* ty=Tensor[(0, 127, 111, 56), float32] span=from_string:20:28 */ = %6(%x_8) /* ty=Tensor[(0, 127, 111, 56), float32] */;
  let %x_10: float32 /* ty=float32 span=from_string:14:25 */ = 1f /* ty=float32 span=from_string:13:17 */;
  %7 = fn (%p07: Tensor[(1, 64, 1, 1), float32] /* ty=Tensor[(1, 64, 1, 1), float32] */, %p11: float32 /* ty=float32 */, Primitive=1) -> Tensor[(1, 64, 1, 1), float32] {
    add(%p07, %p11) /* ty=Tensor[(1, 64, 1, 1), float32] span=from_string:14:15 */
  } /* ty=fn (Tensor[(1, 64, 1, 1), float32], float32) -> Tensor[(1, 64, 1, 1), float32] */;
  let %x_11: Tensor[(1, 64, 1, 1), float32] /* ty=Tensor[(1, 64, 1, 1), float32] span=from_string:15:25 */ = %7(%x_2, %x_10) /* ty=Tensor[(1, 64, 1, 1), float32] */;
  %8 = fn (%p08: Tensor[(1, 64, 1, 1), float32] /* ty=Tensor[(1, 64, 1, 1), float32] */, %p12: Tensor[(64, 64, 3, 3), float32] /* ty=Tensor[(64, 64, 3, 3), float32] */, Primitive=1) -> Tensor[(1, 64, 1, 1), float32] {
    nn.conv2d(%p08, %p12, padding=[1, 1, 1, 1], channels=64, kernel_size=[3, 3]) /* ty=Tensor[(1, 64, 1, 1), float32] span=from_string:15:15 */
  } /* ty=fn (Tensor[(1, 64, 1, 1), float32], Tensor[(64, 64, 3, 3), float32]) -> Tensor[(1, 64, 1, 1), float32] */;
  let %x_12: Tensor[(1, 64, 1, 1), float32] /* ty=Tensor[(1, 64, 1, 1), float32] span=from_string:16:23 */ = %8(%x_11, %x1) /* ty=Tensor[(1, 64, 1, 1), float32] */;
  %9 = fn (%p09: Tensor[(1, 64, 1, 1), float32] /* ty=Tensor[(1, 64, 1, 1), float32] */, Primitive=1) -> Tensor[(1, 64, 1, 1), float32] {
    nn.relu(%p09) /* ty=Tensor[(1, 64, 1, 1), float32] span=from_string:16:15 */
  } /* ty=fn (Tensor[(1, 64, 1, 1), float32]) -> Tensor[(1, 64, 1, 1), float32] */;
  let %x_13: Tensor[(1, 64, 1, 1), float32] /* ty=Tensor[(1, 64, 1, 1), float32] span=from_string:20:34 */ = %9(%x_12) /* ty=Tensor[(1, 64, 1, 1), float32] */;
  %10 = fn (%p010: Tensor[(0, 111, 56, 127), float32] /* ty=Tensor[(0, 111, 56, 127), float32] */, Primitive=1) -> Tensor[(0, 111, 1, 1), float32] {
    nn.global_max_pool2d(%p010) /* ty=Tensor[(0, 111, 1, 1), float32] span=from_string:17:15 */
  } /* ty=fn (Tensor[(0, 111, 56, 127), float32]) -> Tensor[(0, 111, 1, 1), float32] */;
  let %x_14: Tensor[(0, 111, 1, 1), float32] /* ty=Tensor[(0, 111, 1, 1), float32] span=from_string:18:23 */ = %10(%x_7) /* ty=Tensor[(0, 111, 1, 1), float32] */;
  %11 = fn (%p011: Tensor[(0, 111, 1, 1), float32] /* ty=Tensor[(0, 111, 1, 1), float32] */, Primitive=1) -> Tensor[(0, 111, 1, 1), float32] {
    nn.relu(%p011) /* ty=Tensor[(0, 111, 1, 1), float32] span=from_string:18:15 */
  } /* ty=fn (Tensor[(0, 111, 1, 1), float32]) -> Tensor[(0, 111, 1, 1), float32] */;
  let %x_15: Tensor[(0, 111, 1, 1), float32] /* ty=Tensor[(0, 111, 1, 1), float32] span=from_string:20:41 */ = %11(%x_14) /* ty=Tensor[(0, 111, 1, 1), float32] */;
  %12 = fn (%p012: Tensor[(111, 56, 127, 0), float32] /* ty=Tensor[(111, 56, 127, 0), float32] */, Primitive=1) -> Tensor[(111, 56, 127, 0), float32] {
    nn.relu(%p012) /* ty=Tensor[(111, 56, 127, 0), float32] span=from_string:19:15 */
  } /* ty=fn (Tensor[(111, 56, 127, 0), float32]) -> Tensor[(111, 56, 127, 0), float32] */;
  let %x_16: Tensor[(111, 56, 127, 0), float32] /* ty=Tensor[(111, 56, 127, 0), float32] span=from_string:20:48 */ = %12(%x_8) /* ty=Tensor[(111, 56, 127, 0), float32] */;
  let %x_17: ((Tensor[(1, 64, 1, 1), float32], Tensor[(1, 64, 1, 1), float32]), float32, Tensor[(0, 127, 111, 56), float32], Tensor[(1, 64, 1, 1), float32], Tensor[(0, 111, 1, 1), float32], Tensor[(111, 56, 127, 0), float32]) /* ty=((Tensor[(1, 64, 1, 1), float32], Tensor[(1, 64, 1, 1), float32]), float32, Tensor[(0, 127, 111, 56), float32], Tensor[(1, 64, 1, 1), float32], Tensor[(0, 111, 1, 1), float32], Tensor[(111, 56, 127, 0), float32]) span=from_string:21:3 */ = (%x_3, %x_4, %x_9, %x_13, %x_15, %x_16) /* ty=((Tensor[(1, 64, 1, 1), float32], Tensor[(1, 64, 1, 1), float32]), float32, Tensor[(0, 127, 111, 56), float32], Tensor[(1, 64, 1, 1), float32], Tensor[(0, 111, 1, 1), float32], Tensor[(111, 56, 127, 0), float32]) span=from_string:20:15 */;
  %x_17
}
