#[version = "0.0.5"]
def @main(%x0: Tensor[(4, 7), float32] /* ty=Tensor[(4, 7), float32] span=from_string:55:24 */, %x1: Tensor[(2, 7, 2), float32] /* ty=Tensor[(2, 7, 2), float32] span=from_string:6:22 */, %x2: Tensor[(6, 7), float32] /* ty=Tensor[(6, 7), float32] span=from_string:51:29 */, %x3: Tensor[(6), float32] /* ty=Tensor[(6), float32] span=from_string:52:26 */, %x4: Tensor[(1), float32] /* ty=Tensor[(1), float32] span=from_string:53:32 */, %x5: Tensor[(12, 7), float32] /* ty=Tensor[(12, 7), float32] span=from_string:55:29 */, %x6: Tensor[(12), float32] /* ty=Tensor[(12), float32] span=from_string:56:26 */, %x7: Tensor[(1), float32] /* ty=Tensor[(1), float32] span=from_string:57:32 */, %x8: Tensor[(2, 17, 2), float32] /* ty=Tensor[(2, 17, 2), float32] span=from_string:62:31 */, %x9: Tensor[(2, 7, 2), float32] /* ty=Tensor[(2, 7, 2), float32] span=from_string:60:22 */, %x10: Tensor[(2, 7, 2), float32] /* ty=Tensor[(2, 7, 2), float32] span=from_string:60:27 */, %x11: Tensor[(7), float32] /* ty=Tensor[(7), float32] span=from_string:63:16 */, %x12: Tensor[(7), float32] /* ty=Tensor[(7), float32] span=from_string:63:22 */, %x13: Tensor[(7), float32] /* ty=Tensor[(7), float32] span=from_string:63:28 */, %x14: Tensor[(2), float32] /* ty=Tensor[(2), float32] span=from_string:70:28 */) -> (Tensor[(2, 7, 2), float32], Tensor[(3), int32], int32, Tensor[(2, 21, 2), float32], Tensor[(2, 63, 2), float32], Tensor[(3), uint8], (Tensor[(1, 1, 24), float32], Tensor[(1, 1, 48), float32]), (Tensor[(2, 17, 7), float32], Tensor[(2, 17, 7), float32], Tensor[(2, 17, 7), float32]), Tensor[(2, 63, 2), float32], int32) {
  let %x_0: Tensor[(2, 7, 2), float32] /* ty=Tensor[(2, 7, 2), float32] span=from_string:72:16 */ = reshape(%x0, newshape=[2, 7, 2]) /* ty=Tensor[(2, 7, 2), float32] span=from_string:3:14 */;
  let %x_1: Tensor[(3), int32] /* ty=Tensor[(3), int32] span=from_string:72:22 */ = meta[relay.Constant][0] /* ty=Tensor[(3), int32] span=from_string:4:19 */;
  let %x_2: int32 /* ty=int32 span=from_string:72:28 */ = 2 /* ty=int32 span=from_string:5:15 */;
  let %x_3: Tensor[(2, 7, 2), float32] /* ty=Tensor[(2, 7, 2), float32] span=from_string:9:22 */ = squeeze(%x1) /* ty=Tensor[(2, 7, 2), float32] span=from_string:6:14 */;
  let %x_4: float32 /* ty=float32 span=from_string:8:24 */ = 1f /* ty=float32 span=from_string:7:16 */;
  let %x_5: Tensor[(2, 7, 2), float32] /* ty=Tensor[(2, 7, 2), float32] span=from_string:23:28 */ = add(%x_3, %x_4) /* ty=Tensor[(2, 7, 2), float32] span=from_string:8:14 */;
  let %x_6: Tensor[(2, 7, 2), float32] /* ty=Tensor[(2, 7, 2), float32] span=from_string:60:16 */ = squeeze(%x_3) /* ty=Tensor[(2, 7, 2), float32] span=from_string:9:14 */;
  let %x_7: float32 /* ty=float32 span=from_string:11:24 */ = 2f /* ty=float32 span=from_string:10:16 */;
  let %x_8: Tensor[(2, 7, 2), float32] /* ty=Tensor[(2, 7, 2), float32] span=from_string:23:22 */ = add(%x_6, %x_7) /* ty=Tensor[(2, 7, 2), float32] span=from_string:11:14 */;
  let %x_9: (Tensor[(2, 7, 2), float32], Tensor[(2, 7, 2), float32]) /* ty=(Tensor[(2, 7, 2), float32], Tensor[(2, 7, 2), float32]) span=from_string:13:27 */ = (%x_5, %x_8) /* ty=(Tensor[(2, 7, 2), float32], Tensor[(2, 7, 2), float32]) span=from_string:12:14 */;
  let %x_10: Tensor[(2, 14, 2), float32] /* ty=Tensor[(2, 14, 2), float32] span=from_string:14:38 */ = concatenate(%x_9, axis=1) /* ty=Tensor[(2, 14, 2), float32] span=from_string:13:15 */;
  let %x_11: Tensor[(2, 14, 2), float32] /* ty=Tensor[(2, 14, 2), float32] span=from_string:18:16 */ = annotation.stop_fusion(%x_10) /* ty=Tensor[(2, 14, 2), float32] span=from_string:14:15 */;
  let %x_12: (Tensor[(2, 7, 2), float32],) /* ty=(Tensor[(2, 7, 2), float32],) span=from_string:16:27 */ = (%x_5,) /* ty=(Tensor[(2, 7, 2), float32],) span=from_string:15:15 */;
  let %x_13: Tensor[(2, 7, 2), float32] /* ty=Tensor[(2, 7, 2), float32] span=from_string:17:38 */ = concatenate(%x_12, axis=1) /* ty=Tensor[(2, 7, 2), float32] span=from_string:16:15 */;
  let %x_14: Tensor[(2, 7, 2), float32] /* ty=Tensor[(2, 7, 2), float32] span=from_string:18:23 */ = annotation.stop_fusion(%x_13) /* ty=Tensor[(2, 7, 2), float32] span=from_string:17:15 */;
  let %x_15: (Tensor[(2, 14, 2), float32], Tensor[(2, 7, 2), float32]) /* ty=(Tensor[(2, 14, 2), float32], Tensor[(2, 7, 2), float32]) span=from_string:19:27 */ = (%x_11, %x_14) /* ty=(Tensor[(2, 14, 2), float32], Tensor[(2, 7, 2), float32]) span=from_string:18:15 */;
  let %x_16: Tensor[(2, 21, 2), float32] /* ty=Tensor[(2, 21, 2), float32] span=from_string:20:23 */ = concatenate(%x_15, axis=1) /* ty=Tensor[(2, 21, 2), float32] span=from_string:19:15 */;
  let %x_17: Tensor[(2, 21, 2), float32] /* ty=Tensor[(2, 21, 2), float32] span=from_string:22:19 */ = squeeze(%x_16) /* ty=Tensor[(2, 21, 2), float32] span=from_string:20:15 */;
  let %x_18: float32 /* ty=float32 span=from_string:22:26 */ = 1f /* ty=float32 span=from_string:21:17 */;
  let %x_19: Tensor[(2, 21, 2), float32] /* ty=Tensor[(2, 21, 2), float32] span=from_string:72:34 */ = add(%x_17, %x_18) /* ty=Tensor[(2, 21, 2), float32] span=from_string:22:15 */;
  let %x_20: (Tensor[(2, 7, 2), float32], Tensor[(2, 7, 2), float32], Tensor[(2, 7, 2), float32]) /* ty=(Tensor[(2, 7, 2), float32], Tensor[(2, 7, 2), float32], Tensor[(2, 7, 2), float32]) span=from_string:24:27 */ = (%x_5, %x_8, %x_5) /* ty=(Tensor[(2, 7, 2), float32], Tensor[(2, 7, 2), float32], Tensor[(2, 7, 2), float32]) span=from_string:23:15 */;
  let %x_21: Tensor[(2, 21, 2), float32] /* ty=Tensor[(2, 21, 2), float32] span=from_string:25:23 */ = concatenate(%x_20, axis=1) /* ty=Tensor[(2, 21, 2), float32] span=from_string:24:15 */;
  let %x_22: Tensor[(2, 21, 2), float32] /* ty=Tensor[(2, 21, 2), float32] span=from_string:26:23 */ = squeeze(%x_21) /* ty=Tensor[(2, 21, 2), float32] span=from_string:25:15 */;
  let %x_23: Tensor[(2, 21, 2), float32] /* ty=Tensor[(2, 21, 2), float32] span=from_string:29:23 */ = squeeze(%x_22) /* ty=Tensor[(2, 21, 2), float32] span=from_string:26:15 */;
  let %x_24: float32 /* ty=float32 span=from_string:28:26 */ = 1f /* ty=float32 span=from_string:27:17 */;
  let %x_25: Tensor[(2, 21, 2), float32] /* ty=Tensor[(2, 21, 2), float32] span=from_string:35:16 */ = add(%x_23, %x_24) /* ty=Tensor[(2, 21, 2), float32] span=from_string:28:15 */;
  let %x_26: Tensor[(2, 21, 2), float32] /* ty=Tensor[(2, 21, 2), float32] span=from_string:31:19 */ = squeeze(%x_23) /* ty=Tensor[(2, 21, 2), float32] span=from_string:29:15 */;
  let %x_27: float32 /* ty=float32 span=from_string:31:26 */ = 2f /* ty=float32 span=from_string:30:17 */;
  let %x_28: Tensor[(2, 21, 2), float32] /* ty=Tensor[(2, 21, 2), float32] span=from_string:32:23 */ = add(%x_26, %x_27) /* ty=Tensor[(2, 21, 2), float32] span=from_string:31:15 */;
  let %x_29: (Tensor[(2, 21, 2), float32], Tensor[(2, 21, 2), float32]) /* ty=(Tensor[(2, 21, 2), float32], Tensor[(2, 21, 2), float32]) span=from_string:33:27 */ = (%x_25, %x_28) /* ty=(Tensor[(2, 21, 2), float32], Tensor[(2, 21, 2), float32]) span=from_string:32:15 */;
  let %x_30: Tensor[(2, 42, 2), float32] /* ty=Tensor[(2, 42, 2), float32] span=from_string:34:38 */ = concatenate(%x_29, axis=1) /* ty=Tensor[(2, 42, 2), float32] span=from_string:33:15 */;
  let %x_31: Tensor[(2, 42, 2), float32] /* ty=Tensor[(2, 42, 2), float32] span=from_string:38:16 */ = annotation.stop_fusion(%x_30) /* ty=Tensor[(2, 42, 2), float32] span=from_string:34:15 */;
  let %x_32: (Tensor[(2, 21, 2), float32],) /* ty=(Tensor[(2, 21, 2), float32],) span=from_string:36:27 */ = (%x_25,) /* ty=(Tensor[(2, 21, 2), float32],) span=from_string:35:15 */;
  let %x_33: Tensor[(2, 21, 2), float32] /* ty=Tensor[(2, 21, 2), float32] span=from_string:37:38 */ = concatenate(%x_32, axis=1) /* ty=Tensor[(2, 21, 2), float32] span=from_string:36:15 */;
  let %x_34: Tensor[(2, 21, 2), float32] /* ty=Tensor[(2, 21, 2), float32] span=from_string:38:23 */ = annotation.stop_fusion(%x_33) /* ty=Tensor[(2, 21, 2), float32] span=from_string:37:15 */;
  let %x_35: (Tensor[(2, 42, 2), float32], Tensor[(2, 21, 2), float32]) /* ty=(Tensor[(2, 42, 2), float32], Tensor[(2, 21, 2), float32]) span=from_string:39:27 */ = (%x_31, %x_34) /* ty=(Tensor[(2, 42, 2), float32], Tensor[(2, 21, 2), float32]) span=from_string:38:15 */;
  let %x_36: Tensor[(2, 63, 2), float32] /* ty=Tensor[(2, 63, 2), float32] span=from_string:40:23 */ = concatenate(%x_35, axis=1) /* ty=Tensor[(2, 63, 2), float32] span=from_string:39:15 */;
  let %x_37: Tensor[(2, 63, 2), float32] /* ty=Tensor[(2, 63, 2), float32] span=from_string:42:19 */ = squeeze(%x_36) /* ty=Tensor[(2, 63, 2), float32] span=from_string:40:15 */;
  let %x_38: float32 /* ty=float32 span=from_string:42:26 */ = 1f /* ty=float32 span=from_string:41:17 */;
  let %x_39: Tensor[(2, 63, 2), float32] /* ty=Tensor[(2, 63, 2), float32] span=from_string:72:41 */ = add(%x_37, %x_38) /* ty=Tensor[(2, 63, 2), float32] span=from_string:42:15 */;
  let %x_40: Tensor[(3), uint8] /* ty=Tensor[(3), uint8] span=from_string:46:30 */ = meta[relay.Constant][1] /* ty=Tensor[(3), uint8] span=from_string:43:20 */;
  let %x_41: float32 /* ty=float32 span=from_string:46:37 */ = 2f /* ty=float32 span=from_string:44:17 */;
  let %x_42: int32 /* ty=int32 span=from_string:46:44 */ = 114 /* ty=int32 span=from_string:45:18 */;
  let %x_43: Tensor[(3), float32] /* ty=Tensor[(3), float32] span=from_string:47:20 */ = qnn.dequantize(%x_40, %x_41, %x_42) /* ty=Tensor[(3), float32] span=from_string:46:15 */;
  let %x_44: Tensor[(3), float32] /* ty=Tensor[(3), float32] span=from_string:50:28 */ = clip(%x_43, a_min=0f, a_max=6f) /* ty=Tensor[(3), float32] span=from_string:47:15 */;
  let %x_45: float32 /* ty=float32 span=from_string:50:35 */ = 2f /* ty=float32 span=from_string:48:17 */;
  let %x_46: int32 /* ty=int32 span=from_string:50:42 */ = 114 /* ty=int32 span=from_string:49:18 */;
  let %x_47: Tensor[(3), uint8] /* ty=Tensor[(3), uint8] span=from_string:72:48 */ = qnn.quantize(%x_44, %x_45, %x_46, out_dtype="uint8") /* ty=Tensor[(3), uint8] span=from_string:50:15 */;
  let %x_48: Tensor[(4, 6), float32] /* ty=Tensor[(4, 6), float32] span=from_string:52:19 */ = nn.dense(%x0, %x2, units=None) /* ty=Tensor[(4, 6), float32] span=from_string:51:15 */;
  let %x_49: Tensor[(4, 6), float32] /* ty=Tensor[(4, 6), float32] span=from_string:53:25 */ = add(%x_48, %x3) /* ty=Tensor[(4, 6), float32] span=from_string:52:15 */;
  let %x_50: Tensor[(4, 6), float32] /* ty=Tensor[(4, 6), float32] span=from_string:54:23 */ = multiply(%x_49, %x4) /* ty=Tensor[(4, 6), float32] span=from_string:53:16 */;
  let %x_51: Tensor[(1, 1, 24), float32] /* ty=Tensor[(1, 1, 24), float32] span=from_string:59:16 */ = reshape(%x_50, newshape=[1, 1, 24]) /* ty=Tensor[(1, 1, 24), float32] span=from_string:54:15 */;
  let %x_52: Tensor[(4, 12), float32] /* ty=Tensor[(4, 12), float32] span=from_string:56:19 */ = nn.dense(%x0, %x5, units=None) /* ty=Tensor[(4, 12), float32] span=from_string:55:15 */;
  let %x_53: Tensor[(4, 12), float32] /* ty=Tensor[(4, 12), float32] span=from_string:57:25 */ = add(%x_52, %x6) /* ty=Tensor[(4, 12), float32] span=from_string:56:15 */;
  let %x_54: Tensor[(4, 12), float32] /* ty=Tensor[(4, 12), float32] span=from_string:58:23 */ = multiply(%x_53, %x7) /* ty=Tensor[(4, 12), float32] span=from_string:57:16 */;
  let %x_55: Tensor[(1, 1, 48), float32] /* ty=Tensor[(1, 1, 48), float32] span=from_string:59:23 */ = reshape(%x_54, newshape=[1, 1, 48]) /* ty=Tensor[(1, 1, 48), float32] span=from_string:58:15 */;
  let %x_56: (Tensor[(1, 1, 24), float32], Tensor[(1, 1, 48), float32]) /* ty=(Tensor[(1, 1, 24), float32], Tensor[(1, 1, 48), float32]) span=from_string:72:55 */ = (%x_51, %x_55) /* ty=(Tensor[(1, 1, 24), float32], Tensor[(1, 1, 48), float32]) span=from_string:59:15 */;
  let %x_57: (Tensor[(2, 7, 2), float32], Tensor[(2, 7, 2), float32], Tensor[(2, 7, 2), float32]) /* ty=(Tensor[(2, 7, 2), float32], Tensor[(2, 7, 2), float32], Tensor[(2, 7, 2), float32]) span=from_string:61:27 */ = (%x_6, %x9, %x10) /* ty=(Tensor[(2, 7, 2), float32], Tensor[(2, 7, 2), float32], Tensor[(2, 7, 2), float32]) span=from_string:60:15 */;
  let %x_58: Tensor[(2, 21, 2), float32] /* ty=Tensor[(2, 21, 2), float32] span=from_string:62:36 */ = concatenate(%x_57, axis=1) /* ty=Tensor[(2, 21, 2), float32] span=from_string:61:15 */;
  let %x_59: Tensor[(2, 17, 21), float32] /* ty=Tensor[(2, 17, 21), float32] span=from_string:65:19 */ = nn.batch_matmul(%x8, %x_58, transpose_b=True) /* ty=Tensor[(2, 17, 21), float32] span=from_string:62:15 */;
  let %x_60: (Tensor[(7), float32], Tensor[(7), float32], Tensor[(7), float32]) /* ty=(Tensor[(7), float32], Tensor[(7), float32], Tensor[(7), float32]) span=from_string:64:27 */ = (%x11, %x12, %x13) /* ty=(Tensor[(7), float32], Tensor[(7), float32], Tensor[(7), float32]) span=from_string:63:15 */;
  let %x_61: Tensor[(21), float32] /* ty=Tensor[(21), float32] span=from_string:65:26 */ = concatenate(%x_60, axis=-1) /* ty=Tensor[(21), float32] span=from_string:64:15 */;
  let %x_62: Tensor[(2, 17, 21), float32] /* ty=Tensor[(2, 17, 21), float32] span=from_string:68:29 */ = add(%x_59, %x_61) /* ty=Tensor[(2, 17, 21), float32] span=from_string:65:15 */;
  let %x_63: Tensor[(2, 17, 7), float32] /* ty=Tensor[(2, 17, 7), float32] span=from_string:69:16 */ = strided_slice(%x_62, begin=[0, 0, 0], end=[-1, -1, 7], strides=[1, 1, 1], slice_mode="size", axes=None) /* ty=Tensor[(2, 17, 7), float32] span=from_string:66:15 */;
  let %x_64: Tensor[(2, 17, 7), float32] /* ty=Tensor[(2, 17, 7), float32] span=from_string:69:23 */ = strided_slice(%x_62, begin=[0, 0, 7], end=[-1, -1, 7], strides=[1, 1, 1], slice_mode="size", axes=None) /* ty=Tensor[(2, 17, 7), float32] span=from_string:67:15 */;
  let %x_65: Tensor[(2, 17, 7), float32] /* ty=Tensor[(2, 17, 7), float32] span=from_string:69:30 */ = strided_slice(%x_62, begin=[0, 0, 14], end=[-1, -1, 7], strides=[1, 1, 1], slice_mode="size", axes=None) /* ty=Tensor[(2, 17, 7), float32] span=from_string:68:15 */;
  let %x_66: (Tensor[(2, 17, 7), float32], Tensor[(2, 17, 7), float32], Tensor[(2, 17, 7), float32]) /* ty=(Tensor[(2, 17, 7), float32], Tensor[(2, 17, 7), float32], Tensor[(2, 17, 7), float32]) span=from_string:72:62 */ = (%x_63, %x_64, %x_65) /* ty=(Tensor[(2, 17, 7), float32], Tensor[(2, 17, 7), float32], Tensor[(2, 17, 7), float32]) span=from_string:69:15 */;
  let %x_67: Tensor[(2, 63, 2), float32] /* ty=Tensor[(2, 63, 2), float32] span=from_string:72:69 */ = broadcast_to(%x14, shape=[2, 63, 2]) /* ty=Tensor[(2, 63, 2), float32] span=from_string:70:15 */;
  let %x_68: int32 /* ty=int32 span=from_string:72:76 */ = 1 /* ty=int32 span=from_string:71:16 */;
  let %x_69: (Tensor[(2, 7, 2), float32], Tensor[(3), int32], int32, Tensor[(2, 21, 2), float32], Tensor[(2, 63, 2), float32], Tensor[(3), uint8], (Tensor[(1, 1, 24), float32], Tensor[(1, 1, 48), float32]), (Tensor[(2, 17, 7), float32], Tensor[(2, 17, 7), float32], Tensor[(2, 17, 7), float32]), Tensor[(2, 63, 2), float32], int32) /* ty=(Tensor[(2, 7, 2), float32], Tensor[(3), int32], int32, Tensor[(2, 21, 2), float32], Tensor[(2, 63, 2), float32], Tensor[(3), uint8], (Tensor[(1, 1, 24), float32], Tensor[(1, 1, 48), float32]), (Tensor[(2, 17, 7), float32], Tensor[(2, 17, 7), float32], Tensor[(2, 17, 7), float32]), Tensor[(2, 63, 2), float32], int32) span=from_string:73:3 */ = (%x_0, %x_1, %x_2, %x_19, %x_39, %x_47, %x_56, %x_66, %x_67, %x_68) /* ty=(Tensor[(2, 7, 2), float32], Tensor[(3), int32], int32, Tensor[(2, 21, 2), float32], Tensor[(2, 63, 2), float32], Tensor[(3), uint8], (Tensor[(1, 1, 24), float32], Tensor[(1, 1, 48), float32]), (Tensor[(2, 17, 7), float32], Tensor[(2, 17, 7), float32], Tensor[(2, 17, 7), float32]), Tensor[(2, 63, 2), float32], int32) span=from_string:72:15 */;
  %x_69
}

#[metadata]
{
  "root": 1, 
  "nodes": [
    {
      "type_key": ""
    }, 
    {
      "type_key": "Map", 
      "keys": [
        "relay.Constant"
      ], 
      "data": [2]
    }, 
    {
      "type_key": "Array", 
      "data": [3, 11]
    }, 
    {
      "type_key": "relay.Constant", 
      "attrs": {
        "_checked_type_": "8", 
        "data": "0", 
        "span": "6", 
        "virtual_device_": "4"
      }
    }, 
    {
      "type_key": "VirtualDevice", 
      "attrs": {
        "device_type_int": "-1", 
        "memory_scope": "5", 
        "target": "0", 
        "virtual_device_id": "-1"
      }
    }, 
    {
      "type_key": "runtime.String"
    }, 
    {
      "type_key": "Span", 
      "attrs": {
        "column": "19", 
        "end_column": "37", 
        "end_line": "4", 
        "line": "4", 
        "source_name": "7"
      }
    }, 
    {
      "type_key": "SourceName", 
      "repr_str": "from_string"
    }, 
    {
      "type_key": "relay.TensorType", 
      "attrs": {
        "dtype": "int32", 
        "shape": "9", 
        "span": "0"
      }
    }, 
    {
      "type_key": "Array", 
      "data": [10]
    }, 
    {
      "type_key": "IntImm", 
      "attrs": {
        "dtype": "int32", 
        "span": "0", 
        "value": "3"
      }
    }, 
    {
      "type_key": "relay.Constant", 
      "attrs": {
        "_checked_type_": "13", 
        "data": "1", 
        "span": "12", 
        "virtual_device_": "4"
      }
    }, 
    {
      "type_key": "Span", 
      "attrs": {
        "column": "20", 
        "end_column": "38", 
        "end_line": "43", 
        "line": "43", 
        "source_name": "7"
      }
    }, 
    {
      "type_key": "relay.TensorType", 
      "attrs": {
        "dtype": "uint8", 
        "shape": "14", 
        "span": "0"
      }
    }, 
    {
      "type_key": "Array", 
      "data": [15]
    }, 
    {
      "type_key": "IntImm", 
      "attrs": {
        "dtype": "int32", 
        "span": "0", 
        "value": "3"
      }
    }
  ], 
  "b64ndarrays": [
    "P6G0lvBAXt0AAAAAAAAAAAEAAAAAAAAAAQAAAAAgAQADAAAAAAAAAAwAAAAAAAAAAgAAAAcAAAACAAAA", 
    "P6G0lvBAXt0AAAAAAAAAAAEAAAAAAAAAAQAAAAEIAQADAAAAAAAAAAMAAAAAAAAAAgcC"
  ], 
  "attrs": {"tvm_version": "0.13.0"}
}