#[version = "0.0.5"]
def @main(%x0: Tensor[(4, 7), float32] /* ty=Tensor[(4, 7), float32] span=from_string:3:13 */, %x1: Tensor[(2, 7, 2), float32] /* ty=Tensor[(2, 7, 2), float32] span=from_string:4:13 */, %x2: Tensor[(6, 7), float32] /* ty=Tensor[(6, 7), float32] span=from_string:21:14 */, %x3: Tensor[(6), float32] /* ty=Tensor[(6), float32] span=from_string:23:14 */, %x4: Tensor[(1), float32] /* ty=Tensor[(1), float32] span=from_string:25:14 */, %x5: Tensor[(12, 7), float32] /* ty=Tensor[(12, 7), float32] span=from_string:27:14 */, %x6: Tensor[(12), float32] /* ty=Tensor[(12), float32] span=from_string:29:14 */, %x7: Tensor[(1), float32] /* ty=Tensor[(1), float32] span=from_string:31:14 */, %x8: Tensor[(2, 17, 2), float32] /* ty=Tensor[(2, 17, 2), float32] span=from_string:42:14 */, %x9: Tensor[(2, 7, 2), float32] /* ty=Tensor[(2, 7, 2), float32] span=from_string:35:14 */, %x10: Tensor[(2, 7, 2), float32] /* ty=Tensor[(2, 7, 2), float32] span=from_string:35:19 */, %x11: Tensor[(7), float32] /* ty=Tensor[(7), float32] span=from_string:45:10 */, %x12: Tensor[(7), float32] /* ty=Tensor[(7), float32] span=from_string:45:16 */, %x13: Tensor[(7), float32] /* ty=Tensor[(7), float32] span=from_string:45:22 */, %x14: Tensor[(2), float32] /* ty=Tensor[(2), float32] span=from_string:52:14 */) -> (Tensor[(2, 7, 2), float16], Tensor[(3), int32], int32, Tensor[(2, 21, 2), float16], Tensor[(2, 63, 2), float16], Tensor[(3), uint8], (Tensor[(1, 1, 24), float16], Tensor[(1, 1, 48), float16]), (Tensor[(2, 17, 7), float32], Tensor[(2, 17, 7), float32], Tensor[(2, 17, 7), float32]), Tensor[(2, 63, 2), float16], int32) {
  let %x_0 = cast(%x0, dtype="float16");
  let %x_1 = reshape(%x_0, newshape=[2, 7, 2]);
  let %x_2 = meta[relay.Constant][0] /* ty=Tensor[(3), int32] span=from_string:60:14 */;
  let %x_3 = 2 /* ty=int32 span=from_string:60:86 */;
  let %x_4 = cast(%x1, dtype="float16");
  let %x_5 = squeeze(%x_4);
  let %x_6 = 1f /* ty=float32 span=from_string:6:15 */;
  let %x_7 = cast(%x_6, dtype="float16");
  let %x_8 = add(%x_5, %x_7);
  let %x_9 = squeeze(%x_5);
  let %x_10 = 2f /* ty=float32 span=from_string:8:15 */;
  let %x_11 = cast(%x_10, dtype="float16");
  let %x_12 = add(%x_9, %x_11);
  let %x_13 = (%x_8, %x_12, %x_8) /* ty=(Tensor[(2, 7, 2), float16], Tensor[(2, 7, 2), float16], Tensor[(2, 7, 2), float16]) span=from_string:12:20 */;
  let %x_14 = concatenate(%x_13, axis=1);
  let %x_15 = squeeze(%x_14);
  let %x_16 = add(%x_15, %x_7);
  let %x_17 = squeeze(%x_15);
  let %x_18 = add(%x_17, %x_7);
  let %x_19 = squeeze(%x_17);
  let %x_20 = add(%x_19, %x_11);
  let %x_21 = (%x_18, %x_20, %x_18) /* ty=(Tensor[(2, 21, 2), float16], Tensor[(2, 21, 2), float16], Tensor[(2, 21, 2), float16]) span=from_string:19:21 */;
  let %x_22 = concatenate(%x_21, axis=1);
  let %x_23 = squeeze(%x_22);
  let %x_24 = add(%x_23, %x_7);
  let %x_25 = meta[relay.Constant][1] /* ty=Tensor[(3), uint8] span=from_string:56:19 */;
  let %x_26 = clip(%x_25, a_min=114f, a_max=117f);
  let %x_27 = cast(%x2, dtype="float16");
  let %x_28 = nn.dense(%x_0, %x_27, units=None, out_dtype="float16");
  let %x_29 = cast(%x3, dtype="float16");
  let %x_30 = add(%x_28, %x_29);
  let %x_31 = cast(%x4, dtype="float16");
  let %x_32 = multiply(%x_30, %x_31);
  let %x_33 = reshape(%x_32, newshape=[1, 1, 24]);
  let %x_34 = cast(%x5, dtype="float16");
  let %x_35 = nn.dense(%x_0, %x_34, units=None, out_dtype="float16");
  let %x_36 = cast(%x6, dtype="float16");
  let %x_37 = add(%x_35, %x_36);
  let %x_38 = cast(%x7, dtype="float16");
  let %x_39 = multiply(%x_37, %x_38);
  let %x_40 = reshape(%x_39, newshape=[1, 1, 48]);
  let %x_41 = (%x_33, %x_40) /* ty=(Tensor[(1, 1, 24), float16], Tensor[(1, 1, 48), float16]) span=from_string:60:141 */;
  let %x_42 = cast(%x8, dtype="float16");
  let %x_43 = (%x_9, %x9, %x10) /* ty=(Tensor[(2, 7, 2), float16], Tensor[(2, 7, 2), float32], Tensor[(2, 7, 2), float32]) span=from_string:39:9 */;
  let %x_44 = %x_43.0;
  let %x_45 = cast(%x_44, dtype="float32");
  let %x_46 = %x_43.1;
  let %x_47 = %x_43.2;
  let %x_48 = (%x_45, %x_46, %x_47) /* ty=(Tensor[(2, 7, 2), float32], Tensor[(2, 7, 2), float32], Tensor[(2, 7, 2), float32]) span=from_string:41:21 */;
  let %x_49 = concatenate(%x_48, axis=1);
  let %x_50 = cast(%x_49, dtype="float16");
  let %x_51 = nn.batch_matmul(%x_42, %x_50, out_dtype="float16", transpose_b=True);
  let %x_52 = cast(%x_51, dtype="float32");
  let %x_53 = (%x11, %x12, %x13) /* ty=(Tensor[(7), float32], Tensor[(7), float32], Tensor[(7), float32]) span=from_string:47:21 */;
  let %x_54 = concatenate(%x_53, axis=-1);
  let %x_55 = add(%x_52, %x_54);
  let %x_56 = strided_slice(%x_55, begin=[0, 0, 0], end=[-1, -1, 7], strides=[1, 1, 1], slice_mode="size", axes=None);
  let %x_57 = strided_slice(%x_55, begin=[0, 0, 7], end=[-1, -1, 7], strides=[1, 1, 1], slice_mode="size", axes=None);
  let %x_58 = strided_slice(%x_55, begin=[0, 0, 14], end=[-1, -1, 7], strides=[1, 1, 1], slice_mode="size", axes=None);
  let %x_59 = (%x_56, %x_57, %x_58) /* ty=(Tensor[(2, 17, 7), float32], Tensor[(2, 17, 7), float32], Tensor[(2, 17, 7), float32]) span=from_string:60:146 */;
  let %x_60 = cast(%x14, dtype="float16");
  let %x_61 = broadcast_to(%x_60, shape=[2, 63, 2], dtype="float16");
  let %x_62 = 1 /* ty=int32 span=from_string:60:157 */;
  let %x_63 = (%x_1, %x_2, %x_3, %x_16, %x_24, %x_26, %x_41, %x_59, %x_61, %x_62) /* ty=(Tensor[(2, 7, 2), float16], Tensor[(3), int32], int32, Tensor[(2, 21, 2), float16], Tensor[(2, 63, 2), float16], Tensor[(3), uint8], (Tensor[(1, 1, 24), float16], Tensor[(1, 1, 48), float16]), (Tensor[(2, 17, 7), float32], Tensor[(2, 17, 7), float32], Tensor[(2, 17, 7), float32]), Tensor[(2, 63, 2), float16], int32) span=from_string:3:3 */;
  %x_63
}

#[metadata]
{
  "root": 1, 
  "nodes": [
    {
      "type_key": ""
    }, 
    {
      "type_key": "Map", 
      "keys": [
        "relay.Constant"
      ], 
      "data": [2]
    }, 
    {
      "type_key": "Array", 
      "data": [3, 12]
    }, 
    {
      "type_key": "relay.Constant", 
      "attrs": {
        "_checked_type_": "8", 
        "data": "0", 
        "span": "6", 
        "virtual_device_": "4"
      }
    }, 
    {
      "type_key": "VirtualDevice", 
      "attrs": {
        "device_type_int": "-1", 
        "memory_scope": "5", 
        "target": "0", 
        "virtual_device_id": "-1"
      }
    }, 
    {
      "type_key": "runtime.String"
    }, 
    {
      "type_key": "Span", 
      "attrs": {
        "column": "14", 
        "end_column": "32", 
        "end_line": "60", 
        "line": "60", 
        "source_name": "7"
      }
    }, 
    {
      "type_key": "SourceName", 
      "repr_str": "from_string"
    }, 
    {
      "type_key": "relay.TensorType", 
      "attrs": {
        "dtype": "int32", 
        "shape": "9", 
        "span": "11"
      }
    }, 
    {
      "type_key": "Array", 
      "data": [10]
    }, 
    {
      "type_key": "IntImm", 
      "attrs": {
        "dtype": "int32", 
        "span": "0", 
        "value": "3"
      }
    }, 
    {
      "type_key": "Span", 
      "attrs": {
        "column": "1319", 
        "end_column": "1339", 
        "end_line": "2", 
        "line": "2", 
        "source_name": "7"
      }
    }, 
    {
      "type_key": "relay.Constant", 
      "attrs": {
        "_checked_type_": "14", 
        "data": "1", 
        "span": "13", 
        "virtual_device_": "4"
      }
    }, 
    {
      "type_key": "Span", 
      "attrs": {
        "column": "19", 
        "end_column": "37", 
        "end_line": "56", 
        "line": "56", 
        "source_name": "7"
      }
    }, 
    {
      "type_key": "relay.TensorType", 
      "attrs": {
        "dtype": "uint8", 
        "shape": "15", 
        "span": "0"
      }
    }, 
    {
      "type_key": "Array", 
      "data": [16]
    }, 
    {
      "type_key": "IntImm", 
      "attrs": {
        "dtype": "int32", 
        "span": "0", 
        "value": "3"
      }
    }
  ], 
  "b64ndarrays": [
    "P6G0lvBAXt0AAAAAAAAAAAEAAAAAAAAAAQAAAAAgAQADAAAAAAAAAAwAAAAAAAAAAgAAAAcAAAACAAAA", 
    "P6G0lvBAXt0AAAAAAAAAAAEAAAAAAAAAAQAAAAEIAQADAAAAAAAAAAMAAAAAAAAAAgcC"
  ], 
  "attrs": {"tvm_version": "0.13.0"}
}