#[version = "0.0.5"]
def @main(%x0: Tensor[(4, 7), float32] /* ty=Tensor[(4, 7), float32] span=from_string:66:21 */, %x1: Tensor[(2, 7, 2), float32] /* ty=Tensor[(2, 7, 2), float32] span=from_string:12:19 */, %x2: Tensor[(6, 7), float32] /* ty=Tensor[(6, 7), float32] span=from_string:55:26 */, %x3: Tensor[(6), float32] /* ty=Tensor[(6), float32] span=from_string:55:31 */, %x4: Tensor[(1), float32] /* ty=Tensor[(1), float32] span=from_string:55:36 */, %x5: Tensor[(12, 7), float32] /* ty=Tensor[(12, 7), float32] span=from_string:66:26 */, %x6: Tensor[(12), float32] /* ty=Tensor[(12), float32] span=from_string:66:31 */, %x7: Tensor[(1), float32] /* ty=Tensor[(1), float32] span=from_string:66:36 */, %x8: Tensor[(2, 17, 2), float32] /* ty=Tensor[(2, 17, 2), float32] span=from_string:86:21 */, %x9: Tensor[(2, 7, 2), float32] /* ty=Tensor[(2, 7, 2), float32] span=from_string:76:27 */, %x10: Tensor[(2, 7, 2), float32] /* ty=Tensor[(2, 7, 2), float32] span=from_string:76:32 */, %x11: Tensor[(7), float32] /* ty=Tensor[(7), float32] span=from_string:81:21 */, %x12: Tensor[(7), float32] /* ty=Tensor[(7), float32] span=from_string:81:27 */, %x13: Tensor[(7), float32] /* ty=Tensor[(7), float32] span=from_string:81:33 */, %x14: Tensor[(2), float32] /* ty=Tensor[(2), float32] span=from_string:103:21 */) -> (Tensor[(2, 7, 2), float32], Tensor[(3), int32], int32, Tensor[(2, 21, 2), float32], Tensor[(2, 63, 2), float32], Tensor[(3), uint8], (Tensor[(1, 1, 24), float32], Tensor[(1, 1, 48), float32]), (Tensor[(2, 17, 7), float32], Tensor[(2, 17, 7), float32], Tensor[(2, 17, 7), float32]), Tensor[(2, 63, 2), float32], int32) {
  let %x_0: fn (Tensor[(4, 7), float32]) -> Tensor[(2, 7, 2), float32] /* ty=fn (Tensor[(4, 7), float32]) -> Tensor[(2, 7, 2), float32] span=from_string:6:14 */ = fn (%p0: Tensor[(4, 7), float32] /* ty=Tensor[(4, 7), float32] span=from_string:4:13 */, Primitive=1, relay.reshape_only=1) -> Tensor[(2, 7, 2), float32] {
    reshape(%p0, newshape=[2, 7, 2]) /* ty=Tensor[(2, 7, 2), float32] span=from_string:4:5 */
  } /* ty=fn (Tensor[(4, 7), float32]) -> Tensor[(2, 7, 2), float32] span=from_string:3:3 */;
  let %x_1: Tensor[(2, 7, 2), float32] /* ty=Tensor[(2, 7, 2), float32] span=from_string:105:16 */ = %x_0(%x0) /* ty=Tensor[(2, 7, 2), float32] span=from_string:6:14 */;
  let %x_2: Tensor[(3), int32] /* ty=Tensor[(3), int32] span=from_string:105:22 */ = meta[relay.Constant][0] /* ty=Tensor[(3), int32] span=from_string:7:19 */;
  let %x_3: int32 /* ty=int32 span=from_string:105:28 */ = 2 /* ty=int32 span=from_string:8:15 */;
  let %x_4: fn (Tensor[(2, 7, 2), float32]) -> Tensor[(2, 7, 2), float32] /* ty=fn (Tensor[(2, 7, 2), float32]) -> Tensor[(2, 7, 2), float32] span=from_string:12:14 */ = fn (%p03: Tensor[(2, 7, 2), float32] /* ty=Tensor[(2, 7, 2), float32] span=from_string:10:13 */, Primitive=1, relay.reshape_only=1) -> Tensor[(2, 7, 2), float32] {
    squeeze(%p03) /* ty=Tensor[(2, 7, 2), float32] span=from_string:10:5 */
  } /* ty=fn (Tensor[(2, 7, 2), float32]) -> Tensor[(2, 7, 2), float32] span=from_string:9:3 */;
  let %x_5: Tensor[(2, 7, 2), float32] /* ty=Tensor[(2, 7, 2), float32] span=from_string:25:19 */ = %x_4(%x1) /* ty=Tensor[(2, 7, 2), float32] span=from_string:12:14 */;
  let %x_6: fn (Tensor[(2, 7, 2), float32]) -> Tensor[(2, 7, 2), float32] /* ty=fn (Tensor[(2, 7, 2), float32]) -> Tensor[(2, 7, 2), float32] span=from_string:16:14 */ = fn (%p04: Tensor[(2, 7, 2), float32] /* ty=Tensor[(2, 7, 2), float32] span=from_string:14:13 */, Primitive=1, relay.reshape_only=1) -> Tensor[(2, 7, 2), float32] {
    squeeze(%p04) /* ty=Tensor[(2, 7, 2), float32] span=from_string:14:5 */
  } /* ty=fn (Tensor[(2, 7, 2), float32]) -> Tensor[(2, 7, 2), float32] span=from_string:13:3 */;
  let %x_7: Tensor[(2, 7, 2), float32] /* ty=Tensor[(2, 7, 2), float32] span=from_string:76:21 */ = %x_6(%x_5) /* ty=Tensor[(2, 7, 2), float32] span=from_string:16:14 */;
  let %x_8: fn (Tensor[(2, 7, 2), float32], Tensor[(2, 7, 2), float32]) -> Tensor[(2, 21, 2), float32] /* ty=fn (Tensor[(2, 7, 2), float32], Tensor[(2, 7, 2), float32]) -> Tensor[(2, 21, 2), float32] span=from_string:25:14 */ = fn (%p02: Tensor[(2, 7, 2), float32] /* ty=Tensor[(2, 7, 2), float32] span=from_string:20:14 */, %p1: Tensor[(2, 7, 2), float32] /* ty=Tensor[(2, 7, 2), float32] span=from_string:19:14 */, Primitive=1) -> Tensor[(2, 21, 2), float32] {
    %0 = add(%p02, 1f /* ty=float32 span=from_string:18:22 */) /* ty=Tensor[(2, 7, 2), float32] span=from_string:21:11 */;
    %1 = add(%p1, 2f /* ty=float32 span=from_string:19:21 */) /* ty=Tensor[(2, 7, 2), float32] span=from_string:21:15 */;
    %2 = (%0, %1) /* ty=(Tensor[(2, 7, 2), float32], Tensor[(2, 7, 2), float32]) span=from_string:22:22 */;
    %3 = concatenate(%2, axis=1) /* ty=Tensor[(2, 14, 2), float32] */;
    %4 = add(%p02, 1f /* ty=float32 span=from_string:20:22 */) /* ty=Tensor[(2, 7, 2), float32] span=from_string:21:19 */;
    %5 = (%4,) /* ty=(Tensor[(2, 7, 2), float32],) span=from_string:22:22 */;
    %6 = concatenate(%5, axis=1) /* ty=Tensor[(2, 7, 2), float32] */;
    %7 = annotation.stop_fusion(%3) /* ty=Tensor[(2, 14, 2), float32] */;
    %8 = annotation.stop_fusion(%6) /* ty=Tensor[(2, 7, 2), float32] */;
    %9 = (%7, %8) /* ty=(Tensor[(2, 14, 2), float32], Tensor[(2, 7, 2), float32]) span=from_string:22:22 */;
    %10 = concatenate(%9, axis=1) /* ty=Tensor[(2, 21, 2), float32] */;
    squeeze(%10) /* ty=Tensor[(2, 21, 2), float32] span=from_string:18:5 */
  } /* ty=fn (Tensor[(2, 7, 2), float32], Tensor[(2, 7, 2), float32]) -> Tensor[(2, 21, 2), float32] span=from_string:17:3 */;
  let %x_9: Tensor[(2, 21, 2), float32] /* ty=Tensor[(2, 21, 2), float32] span=from_string:41:21 */ = %x_8(%x_5, %x_7) /* ty=Tensor[(2, 21, 2), float32] span=from_string:25:14 */;
  let %x_10: fn (Tensor[(2, 21, 2), float32]) -> Tensor[(2, 21, 2), float32] /* ty=fn (Tensor[(2, 21, 2), float32]) -> Tensor[(2, 21, 2), float32] span=from_string:29:15 */ = fn (%p01: Tensor[(2, 21, 2), float32] /* ty=Tensor[(2, 21, 2), float32] span=from_string:27:9 */, Primitive=1) -> Tensor[(2, 21, 2), float32] {
    add(%p01, 1f /* ty=float32 span=from_string:27:17 */) /* ty=Tensor[(2, 21, 2), float32] span=from_string:27:5 */
  } /* ty=fn (Tensor[(2, 21, 2), float32]) -> Tensor[(2, 21, 2), float32] span=from_string:26:3 */;
  let %x_11: Tensor[(2, 21, 2), float32] /* ty=Tensor[(2, 21, 2), float32] span=from_string:105:34 */ = %x_10(%x_9) /* ty=Tensor[(2, 21, 2), float32] span=from_string:29:15 */;
  let %x_12: fn (Tensor[(2, 21, 2), float32]) -> Tensor[(2, 63, 2), float32] /* ty=fn (Tensor[(2, 21, 2), float32]) -> Tensor[(2, 63, 2), float32] span=from_string:41:15 */ = fn (%p05: Tensor[(2, 21, 2), float32] /* ty=Tensor[(2, 21, 2), float32] span=from_string:31:18 */, Primitive=1) -> Tensor[(2, 63, 2), float32] {
    %11 = squeeze(%p05) /* ty=Tensor[(2, 21, 2), float32] span=from_string:35:14 */;
    %12 = squeeze(%11) /* ty=Tensor[(2, 21, 2), float32] span=from_string:34:14 */;
    %13 = add(%11, 1f /* ty=float32 span=from_string:33:20 */) /* ty=Tensor[(2, 21, 2), float32] span=from_string:36:12 */;
    %14 = add(%12, 2f /* ty=float32 span=from_string:34:20 */) /* ty=Tensor[(2, 21, 2), float32] span=from_string:36:16 */;
    %15 = (%13, %14) /* ty=(Tensor[(2, 21, 2), float32], Tensor[(2, 21, 2), float32]) span=from_string:37:23 */;
    %16 = concatenate(%15, axis=1) /* ty=Tensor[(2, 42, 2), float32] */;
    %17 = add(%11, 1f /* ty=float32 span=from_string:35:20 */) /* ty=Tensor[(2, 21, 2), float32] span=from_string:36:20 */;
    %18 = (%17,) /* ty=(Tensor[(2, 21, 2), float32],) span=from_string:37:23 */;
    %19 = concatenate(%18, axis=1) /* ty=Tensor[(2, 21, 2), float32] */;
    %20 = annotation.stop_fusion(%16) /* ty=Tensor[(2, 42, 2), float32] */;
    %21 = annotation.stop_fusion(%19) /* ty=Tensor[(2, 21, 2), float32] */;
    %22 = (%20, %21) /* ty=(Tensor[(2, 42, 2), float32], Tensor[(2, 21, 2), float32]) span=from_string:37:23 */;
    %23 = concatenate(%22, axis=1) /* ty=Tensor[(2, 63, 2), float32] */;
    %24 = squeeze(%23) /* ty=Tensor[(2, 63, 2), float32] span=from_string:39:9 */;
    add(%24, 1f /* ty=float32 span=from_string:39:16 */) /* ty=Tensor[(2, 63, 2), float32] span=from_string:31:5 */
  } /* ty=fn (Tensor[(2, 21, 2), float32]) -> Tensor[(2, 63, 2), float32] span=from_string:30:3 */;
  let %x_13: Tensor[(2, 63, 2), float32] /* ty=Tensor[(2, 63, 2), float32] span=from_string:105:41 */ = %x_12(%x_9) /* ty=Tensor[(2, 63, 2), float32] span=from_string:41:15 */;
  let %x_14: Tensor[(3), uint8] /* ty=Tensor[(3), uint8] span=from_string:48:21 */ = meta[relay.Constant][1] /* ty=Tensor[(3), uint8] span=from_string:42:20 */;
  let %x_15: fn (Tensor[(3), uint8]) -> Tensor[(3), uint8] /* ty=fn (Tensor[(3), uint8]) -> Tensor[(3), uint8] span=from_string:48:15 */ = fn (%p06: Tensor[(3), uint8] /* ty=Tensor[(3), uint8] span=from_string:44:26 */, Primitive=1) -> Tensor[(3), uint8] {
    %25 = qnn.dequantize(%p06, 2f /* ty=float32 span=from_string:44:34 */, 114 /* ty=int32 span=from_string:44:79 */) /* ty=Tensor[(3), float32] span=from_string:45:16 */;
    %26 = clip(%25, a_min=0f, a_max=6f) /* ty=Tensor[(3), float32] span=from_string:46:18 */;
    qnn.quantize(%26, 2f /* ty=float32 span=from_string:46:25 */, 114 /* ty=int32 span=from_string:46:70 */, out_dtype="uint8") /* ty=Tensor[(3), uint8] span=from_string:44:5 */
  } /* ty=fn (Tensor[(3), uint8]) -> Tensor[(3), uint8] span=from_string:43:3 */;
  let %x_16: Tensor[(3), uint8] /* ty=Tensor[(3), uint8] span=from_string:105:48 */ = %x_15(%x_14) /* ty=Tensor[(3), uint8] span=from_string:48:15 */;
  let %x_17: fn (Tensor[(4, 7), float32], Tensor[(6, 7), float32], Tensor[(6), float32], Tensor[(1), float32]) -> Tensor[(4, 6), float32] /* ty=fn (Tensor[(4, 7), float32], Tensor[(6, 7), float32], Tensor[(6), float32], Tensor[(1), float32]) -> Tensor[(4, 6), float32] span=from_string:55:15 */ = fn (%p08: Tensor[(4, 7), float32] /* ty=Tensor[(4, 7), float32] span=from_string:50:20 */, %p11: Tensor[(6, 7), float32] /* ty=Tensor[(6, 7), float32] span=from_string:50:26 */, %p2: Tensor[(6), float32] /* ty=Tensor[(6), float32] span=from_string:51:23 */, %p3: Tensor[(1), float32] /* ty=Tensor[(1), float32] span=from_string:53:20 */, Primitive=1) -> Tensor[(4, 6), float32] {
    %27 = nn.dense(%p08, %p11, units=None) /* ty=Tensor[(4, 6), float32] span=from_string:52:15 */;
    %28 = expand_dims(%p2, axis=0) /* ty=Tensor[(1, 6), float32] span=from_string:52:20 */;
    %29 = add(%27, %28) /* ty=Tensor[(4, 6), float32] span=from_string:53:15 */;
    multiply(%29, %p3) /* ty=Tensor[(4, 6), float32] span=from_string:50:5 */
  } /* ty=fn (Tensor[(4, 7), float32], Tensor[(6, 7), float32], Tensor[(6), float32], Tensor[(1), float32]) -> Tensor[(4, 6), float32] span=from_string:49:3 */;
  let %x_18: Tensor[(4, 6), float32] /* ty=Tensor[(4, 6), float32] span=from_string:59:21 */ = %x_17(%x0, %x2, %x3, %x4) /* ty=Tensor[(4, 6), float32] span=from_string:55:15 */;
  let %x_19: fn (Tensor[(4, 6), float32]) -> Tensor[(1, 1, 24), float32] /* ty=fn (Tensor[(4, 6), float32]) -> Tensor[(1, 1, 24), float32] span=from_string:59:15 */ = fn (%p07: Tensor[(4, 6), float32] /* ty=Tensor[(4, 6), float32] span=from_string:57:13 */, Primitive=1, relay.reshape_only=1) -> Tensor[(1, 1, 24), float32] {
    reshape(%p07, newshape=[1, 1, 24]) /* ty=Tensor[(1, 1, 24), float32] span=from_string:57:5 */
  } /* ty=fn (Tensor[(4, 6), float32]) -> Tensor[(1, 1, 24), float32] span=from_string:56:3 */;
  let %x_20: Tensor[(1, 1, 24), float32] /* ty=Tensor[(1, 1, 24), float32] span=from_string:71:16 */ = %x_19(%x_18) /* ty=Tensor[(1, 1, 24), float32] span=from_string:59:15 */;
  let %x_21: fn (Tensor[(4, 7), float32], Tensor[(12, 7), float32], Tensor[(12), float32], Tensor[(1), float32]) -> Tensor[(4, 12), float32] /* ty=fn (Tensor[(4, 7), float32], Tensor[(12, 7), float32], Tensor[(12), float32], Tensor[(1), float32]) -> Tensor[(4, 12), float32] span=from_string:66:15 */ = fn (%p010: Tensor[(4, 7), float32] /* ty=Tensor[(4, 7), float32] span=from_string:61:20 */, %p12: Tensor[(12, 7), float32] /* ty=Tensor[(12, 7), float32] span=from_string:61:27 */, %p21: Tensor[(12), float32] /* ty=Tensor[(12), float32] span=from_string:62:23 */, %p31: Tensor[(1), float32] /* ty=Tensor[(1), float32] span=from_string:64:20 */, Primitive=1) -> Tensor[(4, 12), float32] {
    %30 = nn.dense(%p010, %p12, units=None) /* ty=Tensor[(4, 12), float32] span=from_string:63:15 */;
    %31 = expand_dims(%p21, axis=0) /* ty=Tensor[(1, 12), float32] span=from_string:63:20 */;
    %32 = add(%30, %31) /* ty=Tensor[(4, 12), float32] span=from_string:64:15 */;
    multiply(%32, %p31) /* ty=Tensor[(4, 12), float32] span=from_string:61:5 */
  } /* ty=fn (Tensor[(4, 7), float32], Tensor[(12, 7), float32], Tensor[(12), float32], Tensor[(1), float32]) -> Tensor[(4, 12), float32] span=from_string:60:3 */;
  let %x_22: Tensor[(4, 12), float32] /* ty=Tensor[(4, 12), float32] span=from_string:70:21 */ = %x_21(%x0, %x5, %x6, %x7) /* ty=Tensor[(4, 12), float32] span=from_string:66:15 */;
  let %x_23: fn (Tensor[(4, 12), float32]) -> Tensor[(1, 1, 48), float32] /* ty=fn (Tensor[(4, 12), float32]) -> Tensor[(1, 1, 48), float32] span=from_string:70:15 */ = fn (%p09: Tensor[(4, 12), float32] /* ty=Tensor[(4, 12), float32] span=from_string:68:13 */, Primitive=1, relay.reshape_only=1) -> Tensor[(1, 1, 48), float32] {
    reshape(%p09, newshape=[1, 1, 48]) /* ty=Tensor[(1, 1, 48), float32] span=from_string:68:5 */
  } /* ty=fn (Tensor[(4, 12), float32]) -> Tensor[(1, 1, 48), float32] span=from_string:67:3 */;
  let %x_24: Tensor[(1, 1, 48), float32] /* ty=Tensor[(1, 1, 48), float32] span=from_string:71:23 */ = %x_23(%x_22) /* ty=Tensor[(1, 1, 48), float32] span=from_string:70:15 */;
  let %x_25: (Tensor[(1, 1, 24), float32], Tensor[(1, 1, 48), float32]) /* ty=(Tensor[(1, 1, 24), float32], Tensor[(1, 1, 48), float32]) span=from_string:105:55 */ = (%x_20, %x_24) /* ty=(Tensor[(1, 1, 24), float32], Tensor[(1, 1, 48), float32]) span=from_string:71:15 */;
  let %x_26: fn (Tensor[(2, 7, 2), float32], Tensor[(2, 7, 2), float32], Tensor[(2, 7, 2), float32]) -> Tensor[(2, 21, 2), float32] /* ty=fn (Tensor[(2, 7, 2), float32], Tensor[(2, 7, 2), float32], Tensor[(2, 7, 2), float32]) -> Tensor[(2, 21, 2), float32] span=from_string:76:15 */ = fn (%p013: Tensor[(2, 7, 2), float32] /* ty=Tensor[(2, 7, 2), float32] span=from_string:73:12 */, %p14: Tensor[(2, 7, 2), float32] /* ty=Tensor[(2, 7, 2), float32] span=from_string:73:19 */, %p23: Tensor[(2, 7, 2), float32] /* ty=Tensor[(2, 7, 2), float32] span=from_string:73:25 */, Primitive=1) -> Tensor[(2, 21, 2), float32] {
    %33 = (%p013, %p14) /* ty=(Tensor[(2, 7, 2), float32], Tensor[(2, 7, 2), float32]) span=from_string:74:17 */;
    %34 = concatenate(%33, axis=1) /* ty=Tensor[(2, 14, 2), float32] */;
    %35 = (%p23,) /* ty=(Tensor[(2, 7, 2), float32],) span=from_string:74:17 */;
    %36 = concatenate(%35, axis=1) /* ty=Tensor[(2, 7, 2), float32] */;
    %37 = annotation.stop_fusion(%34) /* ty=Tensor[(2, 14, 2), float32] */;
    %38 = annotation.stop_fusion(%36) /* ty=Tensor[(2, 7, 2), float32] */;
    %39 = (%37, %38) /* ty=(Tensor[(2, 14, 2), float32], Tensor[(2, 7, 2), float32]) span=from_string:74:17 */;
    concatenate(%39, axis=1) /* ty=Tensor[(2, 21, 2), float32] */
  } /* ty=fn (Tensor[(2, 7, 2), float32], Tensor[(2, 7, 2), float32], Tensor[(2, 7, 2), float32]) -> Tensor[(2, 21, 2), float32] span=from_string:72:3 */;
  let %x_27: Tensor[(2, 21, 2), float32] /* ty=Tensor[(2, 21, 2), float32] span=from_string:86:26 */ = %x_26(%x_7, %x9, %x10) /* ty=Tensor[(2, 21, 2), float32] span=from_string:76:15 */;
  let %x_28: fn (Tensor[(7), float32], Tensor[(7), float32], Tensor[(7), float32]) -> Tensor[(21), float32] /* ty=fn (Tensor[(7), float32], Tensor[(7), float32], Tensor[(7), float32]) -> Tensor[(21), float32] span=from_string:81:15 */ = fn (%p014: Tensor[(7), float32] /* ty=Tensor[(7), float32] span=from_string:78:12 */, %p15: Tensor[(7), float32] /* ty=Tensor[(7), float32] span=from_string:78:19 */, %p24: Tensor[(7), float32] /* ty=Tensor[(7), float32] span=from_string:78:25 */, Primitive=1) -> Tensor[(21), float32] {
    %40 = (%p014, %p15) /* ty=(Tensor[(7), float32], Tensor[(7), float32]) span=from_string:79:17 */;
    %41 = concatenate(%40, axis=-1) /* ty=Tensor[(14), float32] */;
    %42 = (%p24,) /* ty=(Tensor[(7), float32],) span=from_string:79:17 */;
    %43 = concatenate(%42, axis=-1) /* ty=Tensor[(7), float32] */;
    %44 = annotation.stop_fusion(%41) /* ty=Tensor[(14), float32] */;
    %45 = annotation.stop_fusion(%43) /* ty=Tensor[(7), float32] */;
    %46 = (%44, %45) /* ty=(Tensor[(14), float32], Tensor[(7), float32]) span=from_string:79:17 */;
    concatenate(%46, axis=-1) /* ty=Tensor[(21), float32] */
  } /* ty=fn (Tensor[(7), float32], Tensor[(7), float32], Tensor[(7), float32]) -> Tensor[(21), float32] span=from_string:77:3 */;
  let %x_29: Tensor[(21), float32] /* ty=Tensor[(21), float32] span=from_string:86:33 */ = %x_28(%x11, %x12, %x13) /* ty=Tensor[(21), float32] span=from_string:81:15 */;
  let %x_30: fn (Tensor[(2, 17, 2), float32], Tensor[(2, 21, 2), float32], Tensor[(21), float32]) -> Tensor[(2, 17, 21), float32] /* ty=fn (Tensor[(2, 17, 2), float32], Tensor[(2, 21, 2), float32], Tensor[(21), float32]) -> Tensor[(2, 17, 21), float32] span=from_string:86:15 */ = fn (%p012: Tensor[(2, 17, 2), float32] /* ty=Tensor[(2, 17, 2), float32] span=from_string:83:27 */, %p13: Tensor[(2, 21, 2), float32] /* ty=Tensor[(2, 21, 2), float32] span=from_string:83:34 */, %p22: Tensor[(21), float32] /* ty=Tensor[(21), float32] span=from_string:84:14 */, Primitive=1) -> Tensor[(2, 17, 21), float32] {
    %47 = nn.batch_matmul(%p012, %p13, transpose_b=True) /* ty=Tensor[(2, 17, 21), float32] span=from_string:84:9 */;
    add(%47, %p22) /* ty=Tensor[(2, 17, 21), float32] span=from_string:83:5 */
  } /* ty=fn (Tensor[(2, 17, 2), float32], Tensor[(2, 21, 2), float32], Tensor[(21), float32]) -> Tensor[(2, 17, 21), float32] span=from_string:82:3 */;
  let %x_31: Tensor[(2, 17, 21), float32] /* ty=Tensor[(2, 17, 21), float32] span=from_string:98:21 */ = %x_30(%x8, %x_27, %x_29) /* ty=Tensor[(2, 17, 21), float32] span=from_string:86:15 */;
  let %x_32: fn (Tensor[(2, 17, 21), float32]) -> Tensor[(2, 17, 7), float32] /* ty=fn (Tensor[(2, 17, 21), float32]) -> Tensor[(2, 17, 7), float32] span=from_string:90:15 */ = fn (%p011: Tensor[(2, 17, 21), float32] /* ty=Tensor[(2, 17, 21), float32] span=from_string:88:19 */, Primitive=1) -> Tensor[(2, 17, 7), float32] {
    strided_slice(%p011, begin=[0, 0, 0], end=[-1, -1, 7], strides=[1, 1, 1], slice_mode="size", axes=None) /* ty=Tensor[(2, 17, 7), float32] span=from_string:88:5 */
  } /* ty=fn (Tensor[(2, 17, 21), float32]) -> Tensor[(2, 17, 7), float32] span=from_string:87:3 */;
  let %x_33: Tensor[(2, 17, 7), float32] /* ty=Tensor[(2, 17, 7), float32] span=from_string:99:16 */ = %x_32(%x_31) /* ty=Tensor[(2, 17, 7), float32] span=from_string:90:15 */;
  let %x_34: fn (Tensor[(2, 17, 21), float32]) -> Tensor[(2, 17, 7), float32] /* ty=fn (Tensor[(2, 17, 21), float32]) -> Tensor[(2, 17, 7), float32] span=from_string:94:15 */ = fn (%p015: Tensor[(2, 17, 21), float32] /* ty=Tensor[(2, 17, 21), float32] span=from_string:92:19 */, Primitive=1) -> Tensor[(2, 17, 7), float32] {
    strided_slice(%p015, begin=[0, 0, 7], end=[-1, -1, 7], strides=[1, 1, 1], slice_mode="size", axes=None) /* ty=Tensor[(2, 17, 7), float32] span=from_string:92:5 */
  } /* ty=fn (Tensor[(2, 17, 21), float32]) -> Tensor[(2, 17, 7), float32] span=from_string:91:3 */;
  let %x_35: Tensor[(2, 17, 7), float32] /* ty=Tensor[(2, 17, 7), float32] span=from_string:99:23 */ = %x_34(%x_31) /* ty=Tensor[(2, 17, 7), float32] span=from_string:94:15 */;
  let %x_36: fn (Tensor[(2, 17, 21), float32]) -> Tensor[(2, 17, 7), float32] /* ty=fn (Tensor[(2, 17, 21), float32]) -> Tensor[(2, 17, 7), float32] span=from_string:98:15 */ = fn (%p016: Tensor[(2, 17, 21), float32] /* ty=Tensor[(2, 17, 21), float32] span=from_string:96:19 */, Primitive=1) -> Tensor[(2, 17, 7), float32] {
    strided_slice(%p016, begin=[0, 0, 14], end=[-1, -1, 7], strides=[1, 1, 1], slice_mode="size", axes=None) /* ty=Tensor[(2, 17, 7), float32] span=from_string:96:5 */
  } /* ty=fn (Tensor[(2, 17, 21), float32]) -> Tensor[(2, 17, 7), float32] span=from_string:95:3 */;
  let %x_37: Tensor[(2, 17, 7), float32] /* ty=Tensor[(2, 17, 7), float32] span=from_string:99:30 */ = %x_36(%x_31) /* ty=Tensor[(2, 17, 7), float32] span=from_string:98:15 */;
  let %x_38: (Tensor[(2, 17, 7), float32], Tensor[(2, 17, 7), float32], Tensor[(2, 17, 7), float32]) /* ty=(Tensor[(2, 17, 7), float32], Tensor[(2, 17, 7), float32], Tensor[(2, 17, 7), float32]) span=from_string:105:62 */ = (%x_33, %x_35, %x_37) /* ty=(Tensor[(2, 17, 7), float32], Tensor[(2, 17, 7), float32], Tensor[(2, 17, 7), float32]) span=from_string:99:15 */;
  let %x_39: fn (Tensor[(2), float32]) -> Tensor[(2, 63, 2), float32] /* ty=fn (Tensor[(2), float32]) -> Tensor[(2, 63, 2), float32] span=from_string:103:15 */ = fn (%p017: Tensor[(2), float32] /* ty=Tensor[(2), float32] span=from_string:101:18 */, Primitive=1) -> Tensor[(2, 63, 2), float32] {
    broadcast_to(%p017, shape=[2, 63, 2]) /* ty=Tensor[(2, 63, 2), float32] span=from_string:101:5 */
  } /* ty=fn (Tensor[(2), float32]) -> Tensor[(2, 63, 2), float32] span=from_string:100:3 */;
  let %x_40: Tensor[(2, 63, 2), float32] /* ty=Tensor[(2, 63, 2), float32] span=from_string:105:69 */ = %x_39(%x14) /* ty=Tensor[(2, 63, 2), float32] span=from_string:103:15 */;
  let %x_41: int32 /* ty=int32 span=from_string:105:76 */ = 1 /* ty=int32 span=from_string:104:16 */;
  let %x_42: (Tensor[(2, 7, 2), float32], Tensor[(3), int32], int32, Tensor[(2, 21, 2), float32], Tensor[(2, 63, 2), float32], Tensor[(3), uint8], (Tensor[(1, 1, 24), float32], Tensor[(1, 1, 48), float32]), (Tensor[(2, 17, 7), float32], Tensor[(2, 17, 7), float32], Tensor[(2, 17, 7), float32]), Tensor[(2, 63, 2), float32], int32) /* ty=(Tensor[(2, 7, 2), float32], Tensor[(3), int32], int32, Tensor[(2, 21, 2), float32], Tensor[(2, 63, 2), float32], Tensor[(3), uint8], (Tensor[(1, 1, 24), float32], Tensor[(1, 1, 48), float32]), (Tensor[(2, 17, 7), float32], Tensor[(2, 17, 7), float32], Tensor[(2, 17, 7), float32]), Tensor[(2, 63, 2), float32], int32) span=from_string:106:3 */ = (%x_1, %x_2, %x_3, %x_11, %x_13, %x_16, %x_25, %x_38, %x_40, %x_41) /* ty=(Tensor[(2, 7, 2), float32], Tensor[(3), int32], int32, Tensor[(2, 21, 2), float32], Tensor[(2, 63, 2), float32], Tensor[(3), uint8], (Tensor[(1, 1, 24), float32], Tensor[(1, 1, 48), float32]), (Tensor[(2, 17, 7), float32], Tensor[(2, 17, 7), float32], Tensor[(2, 17, 7), float32]), Tensor[(2, 63, 2), float32], int32) span=from_string:105:15 */;
  %x_42
}

#[metadata]
{
  "root": 1, 
  "nodes": [
    {
      "type_key": ""
    }, 
    {
      "type_key": "Map", 
      "keys": [
        "relay.Constant"
      ], 
      "data": [2]
    }, 
    {
      "type_key": "Array", 
      "data": [3, 11]
    }, 
    {
      "type_key": "relay.Constant", 
      "attrs": {
        "_checked_type_": "8", 
        "data": "0", 
        "span": "6", 
        "virtual_device_": "4"
      }
    }, 
    {
      "type_key": "VirtualDevice", 
      "attrs": {
        "device_type_int": "-1", 
        "memory_scope": "5", 
        "target": "0", 
        "virtual_device_id": "-1"
      }
    }, 
    {
      "type_key": "runtime.String"
    }, 
    {
      "type_key": "Span", 
      "attrs": {
        "column": "19", 
        "end_column": "37", 
        "end_line": "7", 
        "line": "7", 
        "source_name": "7"
      }
    }, 
    {
      "type_key": "SourceName", 
      "repr_str": "from_string"
    }, 
    {
      "type_key": "relay.TensorType", 
      "attrs": {
        "dtype": "int32", 
        "shape": "9", 
        "span": "0"
      }
    }, 
    {
      "type_key": "Array", 
      "data": [10]
    }, 
    {
      "type_key": "IntImm", 
      "attrs": {
        "dtype": "int32", 
        "span": "0", 
        "value": "3"
      }
    }, 
    {
      "type_key": "relay.Constant", 
      "attrs": {
        "_checked_type_": "13", 
        "data": "1", 
        "span": "12", 
        "virtual_device_": "4"
      }
    }, 
    {
      "type_key": "Span", 
      "attrs": {
        "column": "20", 
        "end_column": "38", 
        "end_line": "42", 
        "line": "42", 
        "source_name": "7"
      }
    }, 
    {
      "type_key": "relay.TensorType", 
      "attrs": {
        "dtype": "uint8", 
        "shape": "14", 
        "span": "0"
      }
    }, 
    {
      "type_key": "Array", 
      "data": [15]
    }, 
    {
      "type_key": "IntImm", 
      "attrs": {
        "dtype": "int32", 
        "span": "0", 
        "value": "3"
      }
    }
  ], 
  "b64ndarrays": [
    "P6G0lvBAXt0AAAAAAAAAAAEAAAAAAAAAAQAAAAAgAQADAAAAAAAAAAwAAAAAAAAAAgAAAAcAAAACAAAA", 
    "P6G0lvBAXt0AAAAAAAAAAAEAAAAAAAAAAQAAAAEIAQADAAAAAAAAAAMAAAAAAAAAAgcC"
  ], 
  "attrs": {"tvm_version": "0.13.0"}
}