#[version = "0.0.5"]
def @main(%x0: Tensor[(4, 7), float32] /* ty=Tensor[(4, 7), float32] span=from_string:63:17 */, %x1: Tensor[(2, 7, 2), float32] /* ty=Tensor[(2, 7, 2), float32] span=from_string:3:16 */, %x2: Tensor[(6, 7), float32] /* ty=Tensor[(6, 7), float32] span=from_string:32:23 */, %x3: Tensor[(6), float32] /* ty=Tensor[(6), float32] span=from_string:33:21 */, %x4: Tensor[(1), float32] /* ty=Tensor[(1), float32] span=from_string:35:24 */, %x5: Tensor[(12, 7), float32] /* ty=Tensor[(12, 7), float32] span=from_string:36:23 */, %x6: Tensor[(12), float32] /* ty=Tensor[(12), float32] span=from_string:37:21 */, %x7: Tensor[(1), float32] /* ty=Tensor[(1), float32] span=from_string:39:24 */, %x8: Tensor[(2, 17, 2), float32] /* ty=Tensor[(2, 17, 2), float32] span=from_string:57:25 */, %x9: Tensor[(2, 7, 2), float32] /* ty=Tensor[(2, 7, 2), float32] span=from_string:42:14 */, %x10: Tensor[(2, 7, 2), float32] /* ty=Tensor[(2, 7, 2), float32] span=from_string:44:10 */, %x11: Tensor[(7), float32] /* ty=Tensor[(7), float32] span=from_string:50:10 */, %x12: Tensor[(7), float32] /* ty=Tensor[(7), float32] span=from_string:50:16 */, %x13: Tensor[(7), float32] /* ty=Tensor[(7), float32] span=from_string:52:10 */, %x14: Tensor[(2), float32] /* ty=Tensor[(2), float32] span=from_string:69:22 */) -> (Tensor[(2, 7, 2), float16], Tensor[(3), int32], int32, Tensor[(2, 21, 2), float16], Tensor[(2, 63, 2), float16], Tensor[(3), uint8], (Tensor[(1, 1, 24), float16], Tensor[(1, 1, 48), float16]), (Tensor[(2, 17, 7), float32], Tensor[(2, 17, 7), float32], Tensor[(2, 17, 7), float32]), Tensor[(2, 63, 2), float16], int32) {
  %0 = cast(%x0, dtype="float16") /* ty=Tensor[(4, 7), float16] */;
  %1 = cast(%x1, dtype="float16") /* ty=Tensor[(2, 7, 2), float16] */;
  %2 = squeeze(%1) /* ty=Tensor[(2, 7, 2), float16] span=from_string:5:12 */;
  %3 = cast(1f /* ty=float32 span=from_string:5:18 */, dtype="float16") /* ty=float16 */;
  %4 = squeeze(%2) /* ty=Tensor[(2, 7, 2), float16] span=from_string:42:10 */;
  %5 = cast(2f /* ty=float32 span=from_string:6:18 */, dtype="float16") /* ty=float16 */;
  %6 = add(%2, %3) /* ty=Tensor[(2, 7, 2), float16] span=from_string:16:18 */;
  %7 = add(%4, %5) /* ty=Tensor[(2, 7, 2), float16] span=from_string:16:14 */;
  %8 = (%6, %7) /* ty=(Tensor[(2, 7, 2), float16], Tensor[(2, 7, 2), float16]) span=from_string:8:20 */;
  %9 = concatenate(%8, axis=1) /* ty=Tensor[(2, 14, 2), float16] span=from_string:11:31 */;
  %10 = (%6,) /* ty=(Tensor[(2, 7, 2), float16],) span=from_string:10:20 */;
  %11 = concatenate(%10, axis=1) /* ty=Tensor[(2, 7, 2), float16] span=from_string:12:31 */;
  %12 = annotation.stop_fusion(%9) /* ty=Tensor[(2, 14, 2), float16] span=from_string:13:10 */;
  %13 = annotation.stop_fusion(%11) /* ty=Tensor[(2, 7, 2), float16] span=from_string:13:14 */;
  %14 = (%12, %13) /* ty=(Tensor[(2, 14, 2), float16], Tensor[(2, 7, 2), float16]) span=from_string:14:21 */;
  %15 = concatenate(%14, axis=1) /* ty=Tensor[(2, 21, 2), float16] span=from_string:15:17 */;
  %16 = squeeze(%15) /* ty=Tensor[(2, 21, 2), float16] span=from_string:64:13 */;
  %17 = cast(1f /* ty=float32 span=from_string:64:20 */, dtype="float16") /* ty=float16 */;
  %18 = (%6, %7, %6) /* ty=(Tensor[(2, 7, 2), float16], Tensor[(2, 7, 2), float16], Tensor[(2, 7, 2), float16]) span=from_string:17:21 */;
  %19 = concatenate(%18, axis=1) /* ty=Tensor[(2, 21, 2), float16] span=from_string:18:17 */;
  %20 = squeeze(%19) /* ty=Tensor[(2, 21, 2), float16] span=from_string:19:17 */;
  %21 = squeeze(%20) /* ty=Tensor[(2, 21, 2), float16] span=from_string:21:13 */;
  %22 = cast(1f /* ty=float32 span=from_string:21:20 */, dtype="float16") /* ty=float16 */;
  %23 = squeeze(%21) /* ty=Tensor[(2, 21, 2), float16] span=from_string:22:13 */;
  %24 = cast(2f /* ty=float32 span=from_string:22:20 */, dtype="float16") /* ty=float16 */;
  %25 = add(%21, %22) /* ty=Tensor[(2, 21, 2), float16] span=from_string:25:10 */;
  %26 = add(%23, %24) /* ty=Tensor[(2, 21, 2), float16] span=from_string:23:15 */;
  %27 = (%25, %26) /* ty=(Tensor[(2, 21, 2), float16], Tensor[(2, 21, 2), float16]) span=from_string:24:21 */;
  %28 = concatenate(%27, axis=1) /* ty=Tensor[(2, 42, 2), float16] span=from_string:27:32 */;
  %29 = (%25,) /* ty=(Tensor[(2, 21, 2), float16],) span=from_string:26:21 */;
  %30 = concatenate(%29, axis=1) /* ty=Tensor[(2, 21, 2), float16] span=from_string:28:32 */;
  %31 = annotation.stop_fusion(%28) /* ty=Tensor[(2, 42, 2), float16] span=from_string:29:10 */;
  %32 = annotation.stop_fusion(%30) /* ty=Tensor[(2, 21, 2), float16] span=from_string:29:15 */;
  %33 = (%31, %32) /* ty=(Tensor[(2, 42, 2), float16], Tensor[(2, 21, 2), float16]) span=from_string:30:21 */;
  %34 = concatenate(%33, axis=1) /* ty=Tensor[(2, 63, 2), float16] span=from_string:31:17 */;
  %35 = squeeze(%34) /* ty=Tensor[(2, 63, 2), float16] span=from_string:65:13 */;
  %36 = cast(1f /* ty=float32 span=from_string:65:20 */, dtype="float16") /* ty=float16 */;
  %37 = cast(%x2, dtype="float16") /* ty=Tensor[(6, 7), float16] */;
  %38 = cast(%x3, dtype="float16") /* ty=Tensor[(6), float16] */;
  %39 = nn.dense(%0, %37, units=None, out_dtype="float16") /* ty=Tensor[(4, 6), float16] span=from_string:34:13 */;
  %40 = expand_dims(%38, axis=0) /* ty=Tensor[(1, 6), float16] span=from_string:34:18 */;
  %41 = add(%39, %40) /* ty=Tensor[(4, 6), float16] span=from_string:35:19 */;
  %42 = cast(%x4, dtype="float16") /* ty=Tensor[(1), float16] */;
  %43 = multiply(%41, %42) /* ty=Tensor[(4, 6), float16] span=from_string:40:17 */;
  %44 = cast(%x5, dtype="float16") /* ty=Tensor[(12, 7), float16] */;
  %45 = cast(%x6, dtype="float16") /* ty=Tensor[(12), float16] */;
  %46 = nn.dense(%0, %44, units=None, out_dtype="float16") /* ty=Tensor[(4, 12), float16] span=from_string:38:13 */;
  %47 = expand_dims(%45, axis=0) /* ty=Tensor[(1, 12), float16] span=from_string:38:18 */;
  %48 = add(%46, %47) /* ty=Tensor[(4, 12), float16] span=from_string:39:19 */;
  %49 = cast(%x7, dtype="float16") /* ty=Tensor[(1), float16] */;
  %50 = multiply(%48, %49) /* ty=Tensor[(4, 12), float16] span=from_string:41:17 */;
  %51 = reshape(%43, newshape=[1, 1, 24]) /* ty=Tensor[(1, 1, 24), float16] span=from_string:67:10 */;
  %52 = reshape(%50, newshape=[1, 1, 48]) /* ty=Tensor[(1, 1, 48), float16] span=from_string:67:15 */;
  %53 = (%4, %x9) /* ty=(Tensor[(2, 7, 2), float16], Tensor[(2, 7, 2), float32]) span=from_string:43:21 */;
  %54 = %53.0 /* ty=Tensor[(2, 7, 2), float16] */;
  %55 = cast(%54, dtype="float32") /* ty=Tensor[(2, 7, 2), float32] */;
  %56 = %53.1 /* ty=Tensor[(2, 7, 2), float32] */;
  %57 = (%55, %56) /* ty=(Tensor[(2, 7, 2), float32], Tensor[(2, 7, 2), float32]) */;
  %58 = concatenate(%57, axis=1) /* ty=Tensor[(2, 14, 2), float32] span=from_string:46:32 */;
  %59 = (%x10,) /* ty=(Tensor[(2, 7, 2), float32],) span=from_string:45:21 */;
  %60 = concatenate(%59, axis=1) /* ty=Tensor[(2, 7, 2), float32] span=from_string:47:32 */;
  %61 = annotation.stop_fusion(%58) /* ty=Tensor[(2, 14, 2), float32] span=from_string:48:10 */;
  %62 = annotation.stop_fusion(%60) /* ty=Tensor[(2, 7, 2), float32] span=from_string:48:15 */;
  %63 = (%61, %62) /* ty=(Tensor[(2, 14, 2), float32], Tensor[(2, 7, 2), float32]) span=from_string:49:21 */;
  %64 = concatenate(%63, axis=1) /* ty=Tensor[(2, 21, 2), float32] span=from_string:57:30 */;
  %65 = cast(%x8, dtype="float16") /* ty=Tensor[(2, 17, 2), float16] */;
  %66 = cast(%64, dtype="float16") /* ty=Tensor[(2, 21, 2), float16] */;
  %67 = nn.batch_matmul(%65, %66, out_dtype="float16", transpose_b=True) /* ty=Tensor[(2, 17, 21), float16] span=from_string:59:13 */;
  %68 = (%x11, %x12) /* ty=(Tensor[(7), float32], Tensor[(7), float32]) span=from_string:51:21 */;
  %69 = concatenate(%68, axis=-1) /* ty=Tensor[(14), float32] span=from_string:54:32 */;
  %70 = (%x13,) /* ty=(Tensor[(7), float32],) span=from_string:53:21 */;
  %71 = concatenate(%70, axis=-1) /* ty=Tensor[(7), float32] span=from_string:55:32 */;
  %72 = annotation.stop_fusion(%69) /* ty=Tensor[(14), float32] span=from_string:56:10 */;
  %73 = annotation.stop_fusion(%71) /* ty=Tensor[(7), float32] span=from_string:56:15 */;
  %74 = (%72, %73) /* ty=(Tensor[(14), float32], Tensor[(7), float32]) span=from_string:58:21 */;
  %75 = cast(%67, dtype="float32") /* ty=Tensor[(2, 17, 21), float32] */;
  %76 = concatenate(%74, axis=-1) /* ty=Tensor[(21), float32] span=from_string:59:18 */;
  %77 = add(%75, %76) /* ty=Tensor[(2, 17, 21), float32] span=from_string:62:23 */;
  %78 = strided_slice(%77, begin=[0, 0, 0], end=[-1, -1, 7], strides=[1, 1, 1], slice_mode="size", axes=None) /* ty=Tensor[(2, 17, 7), float32] span=from_string:68:10 */;
  %79 = strided_slice(%77, begin=[0, 0, 7], end=[-1, -1, 7], strides=[1, 1, 1], slice_mode="size", axes=None) /* ty=Tensor[(2, 17, 7), float32] span=from_string:68:15 */;
  %80 = strided_slice(%77, begin=[0, 0, 14], end=[-1, -1, 7], strides=[1, 1, 1], slice_mode="size", axes=None) /* ty=Tensor[(2, 17, 7), float32] span=from_string:68:20 */;
  %81 = cast(%x14, dtype="float16") /* ty=Tensor[(2), float16] */;
  %82 = reshape(%0, newshape=[2, 7, 2]) /* ty=Tensor[(2, 7, 2), float16] span=from_string:70:4 */;
  %83 = add(%16, %17) /* ty=Tensor[(2, 21, 2), float16] span=from_string:70:126 */;
  %84 = add(%35, %36) /* ty=Tensor[(2, 63, 2), float16] span=from_string:70:131 */;
  %85 = clip(meta[relay.Constant][1] /* ty=Tensor[(3), uint8] span=from_string:66:19 */, a_min=114f, a_max=117f) /* ty=Tensor[(3), uint8] span=from_string:70:136 */;
  %86 = (%51, %52) /* ty=(Tensor[(1, 1, 24), float16], Tensor[(1, 1, 48), float16]) span=from_string:70:141 */;
  %87 = (%78, %79, %80) /* ty=(Tensor[(2, 17, 7), float32], Tensor[(2, 17, 7), float32], Tensor[(2, 17, 7), float32]) span=from_string:70:146 */;
  %88 = broadcast_to(%81, shape=[2, 63, 2], dtype="float16") /* ty=Tensor[(2, 63, 2), float16] span=from_string:70:151 */;
  (%82, meta[relay.Constant][0] /* ty=Tensor[(3), int32] span=from_string:70:14 */, 2 /* ty=int32 span=from_string:70:86 */, %83, %84, %85, %86, %87, %88, 1 /* ty=int32 span=from_string:70:157 */) /* ty=(Tensor[(2, 7, 2), float16], Tensor[(3), int32], int32, Tensor[(2, 21, 2), float16], Tensor[(2, 63, 2), float16], Tensor[(3), uint8], (Tensor[(1, 1, 24), float16], Tensor[(1, 1, 48), float16]), (Tensor[(2, 17, 7), float32], Tensor[(2, 17, 7), float32], Tensor[(2, 17, 7), float32]), Tensor[(2, 63, 2), float16], int32) span=from_string:3:3 */
}

#[metadata]
{
  "root": 1, 
  "nodes": [
    {
      "type_key": ""
    }, 
    {
      "type_key": "Map", 
      "keys": [
        "relay.Constant"
      ], 
      "data": [2]
    }, 
    {
      "type_key": "Array", 
      "data": [3, 11]
    }, 
    {
      "type_key": "relay.Constant", 
      "attrs": {
        "_checked_type_": "8", 
        "data": "0", 
        "span": "6", 
        "virtual_device_": "4"
      }
    }, 
    {
      "type_key": "VirtualDevice", 
      "attrs": {
        "device_type_int": "-1", 
        "memory_scope": "5", 
        "target": "0", 
        "virtual_device_id": "-1"
      }
    }, 
    {
      "type_key": "runtime.String"
    }, 
    {
      "type_key": "Span", 
      "attrs": {
        "column": "14", 
        "end_column": "32", 
        "end_line": "70", 
        "line": "70", 
        "source_name": "7"
      }
    }, 
    {
      "type_key": "SourceName", 
      "repr_str": "from_string"
    }, 
    {
      "type_key": "relay.TensorType", 
      "attrs": {
        "dtype": "int32", 
        "shape": "9", 
        "span": "0"
      }
    }, 
    {
      "type_key": "Array", 
      "data": [10]
    }, 
    {
      "type_key": "IntImm", 
      "attrs": {
        "dtype": "int32", 
        "span": "0", 
        "value": "3"
      }
    }, 
    {
      "type_key": "relay.Constant", 
      "attrs": {
        "_checked_type_": "13", 
        "data": "1", 
        "span": "12", 
        "virtual_device_": "4"
      }
    }, 
    {
      "type_key": "Span", 
      "attrs": {
        "column": "19", 
        "end_column": "37", 
        "end_line": "66", 
        "line": "66", 
        "source_name": "7"
      }
    }, 
    {
      "type_key": "relay.TensorType", 
      "attrs": {
        "dtype": "uint8", 
        "shape": "14", 
        "span": "0"
      }
    }, 
    {
      "type_key": "Array", 
      "data": [15]
    }, 
    {
      "type_key": "IntImm", 
      "attrs": {
        "dtype": "int32", 
        "span": "0", 
        "value": "3"
      }
    }
  ], 
  "b64ndarrays": [
    "P6G0lvBAXt0AAAAAAAAAAAEAAAAAAAAAAQAAAAAgAQADAAAAAAAAAAwAAAAAAAAAAgAAAAcAAAACAAAA", 
    "P6G0lvBAXt0AAAAAAAAAAAEAAAAAAAAAAQAAAAEIAQADAAAAAAAAAAMAAAAAAAAAAgcC"
  ], 
  "attrs": {"tvm_version": "0.13.0"}
}