#[version = "0.0.5"]
def @main(%x0: Tensor[(4, 7), float32] /* ty=Tensor[(4, 7), float32] span=from_string:62:21 */, %x1: Tensor[(2, 7, 2), float32] /* ty=Tensor[(2, 7, 2), float32] span=from_string:12:19 */, %x2: Tensor[(6, 7), float32] /* ty=Tensor[(6, 7), float32] span=from_string:52:26 */, %x3: Tensor[(6), float32] /* ty=Tensor[(6), float32] span=from_string:52:31 */, %x4: Tensor[(1), float32] /* ty=Tensor[(1), float32] span=from_string:52:36 */, %x5: Tensor[(12, 7), float32] /* ty=Tensor[(12, 7), float32] span=from_string:62:26 */, %x6: Tensor[(12), float32] /* ty=Tensor[(12), float32] span=from_string:62:31 */, %x7: Tensor[(1), float32] /* ty=Tensor[(1), float32] span=from_string:62:36 */, %x8: Tensor[(2, 17, 2), float32] /* ty=Tensor[(2, 17, 2), float32] span=from_string:82:21 */, %x9: Tensor[(2, 7, 2), float32] /* ty=Tensor[(2, 7, 2), float32] span=from_string:72:27 */, %x10: Tensor[(2, 7, 2), float32] /* ty=Tensor[(2, 7, 2), float32] span=from_string:72:32 */, %x11: Tensor[(7), float32] /* ty=Tensor[(7), float32] span=from_string:77:21 */, %x12: Tensor[(7), float32] /* ty=Tensor[(7), float32] span=from_string:77:27 */, %x13: Tensor[(7), float32] /* ty=Tensor[(7), float32] span=from_string:77:33 */, %x14: Tensor[(2), float32] /* ty=Tensor[(2), float32] span=from_string:99:21 */) -> (Tensor[(2, 7, 2), float32], Tensor[(3), int32], int32, Tensor[(2, 21, 2), float32], Tensor[(2, 63, 2), float32], Tensor[(3), uint8], (Tensor[(1, 1, 24), float32], Tensor[(1, 1, 48), float32]), (Tensor[(2, 17, 7), float32], Tensor[(2, 17, 7), float32], Tensor[(2, 17, 7), float32]), Tensor[(2, 63, 2), float32], int32) {
  let %x_0: fn (Tensor[(4, 7), float32]) -> Tensor[(2, 7, 2), float32] /* ty=fn (Tensor[(4, 7), float32]) -> Tensor[(2, 7, 2), float32] span=from_string:6:14 */ = fn (%p0: Tensor[(4, 7), float32] /* ty=Tensor[(4, 7), float32] span=from_string:4:13 */, Primitive=1, relay.reshape_only=1) -> Tensor[(2, 7, 2), float32] {
    reshape(%p0, newshape=[2, 7, 2]) /* ty=Tensor[(2, 7, 2), float32] span=from_string:4:5 */
  } /* ty=fn (Tensor[(4, 7), float32]) -> Tensor[(2, 7, 2), float32] span=from_string:3:3 */;
  let %x_1: Tensor[(2, 7, 2), float32] /* ty=Tensor[(2, 7, 2), float32] span=from_string:101:16 */ = %x_0(%x0) /* ty=Tensor[(2, 7, 2), float32] span=from_string:6:14 */;
  let %x_2: Tensor[(3), int32] /* ty=Tensor[(3), int32] span=from_string:101:22 */ = meta[relay.Constant][0] /* ty=Tensor[(3), int32] span=from_string:7:19 */;
  let %x_3: int32 /* ty=int32 span=from_string:101:28 */ = 2 /* ty=int32 span=from_string:8:15 */;
  let %x_4: fn (Tensor[(2, 7, 2), float32]) -> Tensor[(2, 7, 2), float32] /* ty=fn (Tensor[(2, 7, 2), float32]) -> Tensor[(2, 7, 2), float32] span=from_string:12:14 */ = fn (%p03: Tensor[(2, 7, 2), float32] /* ty=Tensor[(2, 7, 2), float32] span=from_string:10:13 */, Primitive=1, relay.reshape_only=1) -> Tensor[(2, 7, 2), float32] {
    squeeze(%p03) /* ty=Tensor[(2, 7, 2), float32] span=from_string:10:5 */
  } /* ty=fn (Tensor[(2, 7, 2), float32]) -> Tensor[(2, 7, 2), float32] span=from_string:9:3 */;
  let %x_5: Tensor[(2, 7, 2), float32] /* ty=Tensor[(2, 7, 2), float32] span=from_string:25:19 */ = %x_4(%x1) /* ty=Tensor[(2, 7, 2), float32] span=from_string:12:14 */;
  let %x_6: fn (Tensor[(2, 7, 2), float32]) -> Tensor[(2, 7, 2), float32] /* ty=fn (Tensor[(2, 7, 2), float32]) -> Tensor[(2, 7, 2), float32] span=from_string:16:14 */ = fn (%p04: Tensor[(2, 7, 2), float32] /* ty=Tensor[(2, 7, 2), float32] span=from_string:14:13 */, Primitive=1, relay.reshape_only=1) -> Tensor[(2, 7, 2), float32] {
    squeeze(%p04) /* ty=Tensor[(2, 7, 2), float32] span=from_string:14:5 */
  } /* ty=fn (Tensor[(2, 7, 2), float32]) -> Tensor[(2, 7, 2), float32] span=from_string:13:3 */;
  let %x_7: Tensor[(2, 7, 2), float32] /* ty=Tensor[(2, 7, 2), float32] span=from_string:72:21 */ = %x_6(%x_5) /* ty=Tensor[(2, 7, 2), float32] span=from_string:16:14 */;
  let %x_8: fn (Tensor[(2, 7, 2), float32], Tensor[(2, 7, 2), float32]) -> Tensor[(2, 21, 2), float32] /* ty=fn (Tensor[(2, 7, 2), float32], Tensor[(2, 7, 2), float32]) -> Tensor[(2, 21, 2), float32] span=from_string:25:14 */ = fn (%p02: Tensor[(2, 7, 2), float32] /* ty=Tensor[(2, 7, 2), float32] span=from_string:20:14 */, %p1: Tensor[(2, 7, 2), float32] /* ty=Tensor[(2, 7, 2), float32] span=from_string:19:14 */, Primitive=1) -> Tensor[(2, 21, 2), float32] {
    %0 = add(%p02, 1f /* ty=float32 span=from_string:18:22 */) /* ty=Tensor[(2, 7, 2), float32] span=from_string:21:11 */;
    %1 = add(%p1, 2f /* ty=float32 span=from_string:19:21 */) /* ty=Tensor[(2, 7, 2), float32] span=from_string:21:15 */;
    %2 = (%0, %1, %0) /* ty=(Tensor[(2, 7, 2), float32], Tensor[(2, 7, 2), float32], Tensor[(2, 7, 2), float32]) span=from_string:22:22 */;
    %3 = concatenate(%2, axis=1) /* ty=Tensor[(2, 21, 2), float32] span=from_string:23:13 */;
    squeeze(%3) /* ty=Tensor[(2, 21, 2), float32] span=from_string:18:5 */
  } /* ty=fn (Tensor[(2, 7, 2), float32], Tensor[(2, 7, 2), float32]) -> Tensor[(2, 21, 2), float32] span=from_string:17:3 */;
  let %x_9: Tensor[(2, 21, 2), float32] /* ty=Tensor[(2, 21, 2), float32] span=from_string:41:21 */ = %x_8(%x_5, %x_7) /* ty=Tensor[(2, 21, 2), float32] span=from_string:25:14 */;
  let %x_10: fn (Tensor[(2, 21, 2), float32]) -> Tensor[(2, 21, 2), float32] /* ty=fn (Tensor[(2, 21, 2), float32]) -> Tensor[(2, 21, 2), float32] span=from_string:29:15 */ = fn (%p01: Tensor[(2, 21, 2), float32] /* ty=Tensor[(2, 21, 2), float32] span=from_string:27:9 */, Primitive=1) -> Tensor[(2, 21, 2), float32] {
    add(%p01, 1f /* ty=float32 span=from_string:27:17 */) /* ty=Tensor[(2, 21, 2), float32] span=from_string:27:5 */
  } /* ty=fn (Tensor[(2, 21, 2), float32]) -> Tensor[(2, 21, 2), float32] span=from_string:26:3 */;
  let %x_11: Tensor[(2, 21, 2), float32] /* ty=Tensor[(2, 21, 2), float32] span=from_string:101:34 */ = %x_10(%x_9) /* ty=Tensor[(2, 21, 2), float32] span=from_string:29:15 */;
  let %x_12: fn (Tensor[(2, 21, 2), float32]) -> Tensor[(2, 63, 2), float32] /* ty=fn (Tensor[(2, 21, 2), float32]) -> Tensor[(2, 63, 2), float32] span=from_string:41:15 */ = fn (%p05: Tensor[(2, 21, 2), float32] /* ty=Tensor[(2, 21, 2), float32] span=from_string:31:18 */, Primitive=1) -> Tensor[(2, 63, 2), float32] {
    %4 = squeeze(%p05) /* ty=Tensor[(2, 21, 2), float32] span=from_string:35:14 */;
    %5 = squeeze(%4) /* ty=Tensor[(2, 21, 2), float32] span=from_string:34:14 */;
    %6 = add(%4, 1f /* ty=float32 span=from_string:33:20 */) /* ty=Tensor[(2, 21, 2), float32] span=from_string:36:12 */;
    %7 = add(%5, 2f /* ty=float32 span=from_string:34:20 */) /* ty=Tensor[(2, 21, 2), float32] span=from_string:36:16 */;
    %8 = (%6, %7, %6) /* ty=(Tensor[(2, 21, 2), float32], Tensor[(2, 21, 2), float32], Tensor[(2, 21, 2), float32]) span=from_string:37:23 */;
    %9 = concatenate(%8, axis=1) /* ty=Tensor[(2, 63, 2), float32] span=from_string:38:19 */;
    %10 = squeeze(%9) /* ty=Tensor[(2, 63, 2), float32] span=from_string:39:9 */;
    add(%10, 1f /* ty=float32 span=from_string:39:16 */) /* ty=Tensor[(2, 63, 2), float32] span=from_string:31:5 */
  } /* ty=fn (Tensor[(2, 21, 2), float32]) -> Tensor[(2, 63, 2), float32] span=from_string:30:3 */;
  let %x_13: Tensor[(2, 63, 2), float32] /* ty=Tensor[(2, 63, 2), float32] span=from_string:101:41 */ = %x_12(%x_9) /* ty=Tensor[(2, 63, 2), float32] span=from_string:41:15 */;
  let %x_14: Tensor[(3), uint8] /* ty=Tensor[(3), uint8] span=from_string:46:21 */ = meta[relay.Constant][1] /* ty=Tensor[(3), uint8] span=from_string:42:20 */;
  let %x_15: fn (Tensor[(3), uint8]) -> Tensor[(3), uint8] /* ty=fn (Tensor[(3), uint8]) -> Tensor[(3), uint8] span=from_string:46:15 */ = fn (%p06: Tensor[(3), uint8] /* ty=Tensor[(3), uint8] span=from_string:44:10 */, Primitive=1) -> Tensor[(3), uint8] {
    clip(%p06, a_min=114f, a_max=117f) /* ty=Tensor[(3), uint8] span=from_string:44:5 */
  } /* ty=fn (Tensor[(3), uint8]) -> Tensor[(3), uint8] span=from_string:43:3 */;
  let %x_16: Tensor[(3), uint8] /* ty=Tensor[(3), uint8] span=from_string:101:48 */ = %x_15(%x_14) /* ty=Tensor[(3), uint8] span=from_string:46:15 */;
  let %x_17: fn (Tensor[(4, 7), float32], Tensor[(6, 7), float32], Tensor[(6), float32], Tensor[(1), float32]) -> Tensor[(4, 6), float32] /* ty=fn (Tensor[(4, 7), float32], Tensor[(6, 7), float32], Tensor[(6), float32], Tensor[(1), float32]) -> Tensor[(4, 6), float32] span=from_string:52:15 */ = fn (%p08: Tensor[(4, 7), float32] /* ty=Tensor[(4, 7), float32] span=from_string:48:20 */, %p11: Tensor[(6, 7), float32] /* ty=Tensor[(6, 7), float32] span=from_string:48:26 */, %p2: Tensor[(6), float32] /* ty=Tensor[(6), float32] span=from_string:49:20 */, %p3: Tensor[(1), float32] /* ty=Tensor[(1), float32] span=from_string:50:20 */, Primitive=1) -> Tensor[(4, 6), float32] {
    %11 = nn.dense(%p08, %p11, units=None) /* ty=Tensor[(4, 6), float32] span=from_string:49:15 */;
    %12 = add(%11, %p2) /* ty=Tensor[(4, 6), float32] span=from_string:50:15 */;
    multiply(%12, %p3) /* ty=Tensor[(4, 6), float32] span=from_string:48:5 */
  } /* ty=fn (Tensor[(4, 7), float32], Tensor[(6, 7), float32], Tensor[(6), float32], Tensor[(1), float32]) -> Tensor[(4, 6), float32] span=from_string:47:3 */;
  let %x_18: Tensor[(4, 6), float32] /* ty=Tensor[(4, 6), float32] span=from_string:56:21 */ = %x_17(%x0, %x2, %x3, %x4) /* ty=Tensor[(4, 6), float32] span=from_string:52:15 */;
  let %x_19: fn (Tensor[(4, 6), float32]) -> Tensor[(1, 1, 24), float32] /* ty=fn (Tensor[(4, 6), float32]) -> Tensor[(1, 1, 24), float32] span=from_string:56:15 */ = fn (%p07: Tensor[(4, 6), float32] /* ty=Tensor[(4, 6), float32] span=from_string:54:13 */, Primitive=1, relay.reshape_only=1) -> Tensor[(1, 1, 24), float32] {
    reshape(%p07, newshape=[1, 1, 24]) /* ty=Tensor[(1, 1, 24), float32] span=from_string:54:5 */
  } /* ty=fn (Tensor[(4, 6), float32]) -> Tensor[(1, 1, 24), float32] span=from_string:53:3 */;
  let %x_20: Tensor[(1, 1, 24), float32] /* ty=Tensor[(1, 1, 24), float32] span=from_string:67:16 */ = %x_19(%x_18) /* ty=Tensor[(1, 1, 24), float32] span=from_string:56:15 */;
  let %x_21: fn (Tensor[(4, 7), float32], Tensor[(12, 7), float32], Tensor[(12), float32], Tensor[(1), float32]) -> Tensor[(4, 12), float32] /* ty=fn (Tensor[(4, 7), float32], Tensor[(12, 7), float32], Tensor[(12), float32], Tensor[(1), float32]) -> Tensor[(4, 12), float32] span=from_string:62:15 */ = fn (%p010: Tensor[(4, 7), float32] /* ty=Tensor[(4, 7), float32] span=from_string:58:20 */, %p12: Tensor[(12, 7), float32] /* ty=Tensor[(12, 7), float32] span=from_string:58:27 */, %p21: Tensor[(12), float32] /* ty=Tensor[(12), float32] span=from_string:59:20 */, %p31: Tensor[(1), float32] /* ty=Tensor[(1), float32] span=from_string:60:20 */, Primitive=1) -> Tensor[(4, 12), float32] {
    %13 = nn.dense(%p010, %p12, units=None) /* ty=Tensor[(4, 12), float32] span=from_string:59:15 */;
    %14 = add(%13, %p21) /* ty=Tensor[(4, 12), float32] span=from_string:60:15 */;
    multiply(%14, %p31) /* ty=Tensor[(4, 12), float32] span=from_string:58:5 */
  } /* ty=fn (Tensor[(4, 7), float32], Tensor[(12, 7), float32], Tensor[(12), float32], Tensor[(1), float32]) -> Tensor[(4, 12), float32] span=from_string:57:3 */;
  let %x_22: Tensor[(4, 12), float32] /* ty=Tensor[(4, 12), float32] span=from_string:66:21 */ = %x_21(%x0, %x5, %x6, %x7) /* ty=Tensor[(4, 12), float32] span=from_string:62:15 */;
  let %x_23: fn (Tensor[(4, 12), float32]) -> Tensor[(1, 1, 48), float32] /* ty=fn (Tensor[(4, 12), float32]) -> Tensor[(1, 1, 48), float32] span=from_string:66:15 */ = fn (%p09: Tensor[(4, 12), float32] /* ty=Tensor[(4, 12), float32] span=from_string:64:13 */, Primitive=1, relay.reshape_only=1) -> Tensor[(1, 1, 48), float32] {
    reshape(%p09, newshape=[1, 1, 48]) /* ty=Tensor[(1, 1, 48), float32] span=from_string:64:5 */
  } /* ty=fn (Tensor[(4, 12), float32]) -> Tensor[(1, 1, 48), float32] span=from_string:63:3 */;
  let %x_24: Tensor[(1, 1, 48), float32] /* ty=Tensor[(1, 1, 48), float32] span=from_string:67:23 */ = %x_23(%x_22) /* ty=Tensor[(1, 1, 48), float32] span=from_string:66:15 */;
  let %x_25: (Tensor[(1, 1, 24), float32], Tensor[(1, 1, 48), float32]) /* ty=(Tensor[(1, 1, 24), float32], Tensor[(1, 1, 48), float32]) span=from_string:101:55 */ = (%x_20, %x_24) /* ty=(Tensor[(1, 1, 24), float32], Tensor[(1, 1, 48), float32]) span=from_string:67:15 */;
  let %x_26: fn (Tensor[(2, 7, 2), float32], Tensor[(2, 7, 2), float32], Tensor[(2, 7, 2), float32]) -> Tensor[(2, 21, 2), float32] /* ty=fn (Tensor[(2, 7, 2), float32], Tensor[(2, 7, 2), float32], Tensor[(2, 7, 2), float32]) -> Tensor[(2, 21, 2), float32] span=from_string:72:15 */ = fn (%p013: Tensor[(2, 7, 2), float32] /* ty=Tensor[(2, 7, 2), float32] span=from_string:69:12 */, %p14: Tensor[(2, 7, 2), float32] /* ty=Tensor[(2, 7, 2), float32] span=from_string:69:19 */, %p23: Tensor[(2, 7, 2), float32] /* ty=Tensor[(2, 7, 2), float32] span=from_string:69:25 */, Primitive=1) -> Tensor[(2, 21, 2), float32] {
    %15 = (%p013, %p14, %p23) /* ty=(Tensor[(2, 7, 2), float32], Tensor[(2, 7, 2), float32], Tensor[(2, 7, 2), float32]) span=from_string:70:17 */;
    concatenate(%15, axis=1) /* ty=Tensor[(2, 21, 2), float32] span=from_string:69:5 */
  } /* ty=fn (Tensor[(2, 7, 2), float32], Tensor[(2, 7, 2), float32], Tensor[(2, 7, 2), float32]) -> Tensor[(2, 21, 2), float32] span=from_string:68:3 */;
  let %x_27: Tensor[(2, 21, 2), float32] /* ty=Tensor[(2, 21, 2), float32] span=from_string:82:26 */ = %x_26(%x_7, %x9, %x10) /* ty=Tensor[(2, 21, 2), float32] span=from_string:72:15 */;
  let %x_28: fn (Tensor[(7), float32], Tensor[(7), float32], Tensor[(7), float32]) -> Tensor[(21), float32] /* ty=fn (Tensor[(7), float32], Tensor[(7), float32], Tensor[(7), float32]) -> Tensor[(21), float32] span=from_string:77:15 */ = fn (%p014: Tensor[(7), float32] /* ty=Tensor[(7), float32] span=from_string:74:12 */, %p15: Tensor[(7), float32] /* ty=Tensor[(7), float32] span=from_string:74:19 */, %p24: Tensor[(7), float32] /* ty=Tensor[(7), float32] span=from_string:74:25 */, Primitive=1) -> Tensor[(21), float32] {
    %16 = (%p014, %p15, %p24) /* ty=(Tensor[(7), float32], Tensor[(7), float32], Tensor[(7), float32]) span=from_string:75:17 */;
    concatenate(%16, axis=-1) /* ty=Tensor[(21), float32] span=from_string:74:5 */
  } /* ty=fn (Tensor[(7), float32], Tensor[(7), float32], Tensor[(7), float32]) -> Tensor[(21), float32] span=from_string:73:3 */;
  let %x_29: Tensor[(21), float32] /* ty=Tensor[(21), float32] span=from_string:82:33 */ = %x_28(%x11, %x12, %x13) /* ty=Tensor[(21), float32] span=from_string:77:15 */;
  let %x_30: fn (Tensor[(2, 17, 2), float32], Tensor[(2, 21, 2), float32], Tensor[(21), float32]) -> Tensor[(2, 17, 21), float32] /* ty=fn (Tensor[(2, 17, 2), float32], Tensor[(2, 21, 2), float32], Tensor[(21), float32]) -> Tensor[(2, 17, 21), float32] span=from_string:82:15 */ = fn (%p012: Tensor[(2, 17, 2), float32] /* ty=Tensor[(2, 17, 2), float32] span=from_string:79:27 */, %p13: Tensor[(2, 21, 2), float32] /* ty=Tensor[(2, 21, 2), float32] span=from_string:79:34 */, %p22: Tensor[(21), float32] /* ty=Tensor[(21), float32] span=from_string:80:14 */, Primitive=1) -> Tensor[(2, 17, 21), float32] {
    %17 = nn.batch_matmul(%p012, %p13, transpose_b=True) /* ty=Tensor[(2, 17, 21), float32] span=from_string:80:9 */;
    add(%17, %p22) /* ty=Tensor[(2, 17, 21), float32] span=from_string:79:5 */
  } /* ty=fn (Tensor[(2, 17, 2), float32], Tensor[(2, 21, 2), float32], Tensor[(21), float32]) -> Tensor[(2, 17, 21), float32] span=from_string:78:3 */;
  let %x_31: Tensor[(2, 17, 21), float32] /* ty=Tensor[(2, 17, 21), float32] span=from_string:94:21 */ = %x_30(%x8, %x_27, %x_29) /* ty=Tensor[(2, 17, 21), float32] span=from_string:82:15 */;
  let %x_32: fn (Tensor[(2, 17, 21), float32]) -> Tensor[(2, 17, 7), float32] /* ty=fn (Tensor[(2, 17, 21), float32]) -> Tensor[(2, 17, 7), float32] span=from_string:86:15 */ = fn (%p011: Tensor[(2, 17, 21), float32] /* ty=Tensor[(2, 17, 21), float32] span=from_string:84:19 */, Primitive=1) -> Tensor[(2, 17, 7), float32] {
    strided_slice(%p011, begin=[0, 0, 0], end=[-1, -1, 7], strides=[1, 1, 1], slice_mode="size", axes=None) /* ty=Tensor[(2, 17, 7), float32] span=from_string:84:5 */
  } /* ty=fn (Tensor[(2, 17, 21), float32]) -> Tensor[(2, 17, 7), float32] span=from_string:83:3 */;
  let %x_33: Tensor[(2, 17, 7), float32] /* ty=Tensor[(2, 17, 7), float32] span=from_string:95:16 */ = %x_32(%x_31) /* ty=Tensor[(2, 17, 7), float32] span=from_string:86:15 */;
  let %x_34: fn (Tensor[(2, 17, 21), float32]) -> Tensor[(2, 17, 7), float32] /* ty=fn (Tensor[(2, 17, 21), float32]) -> Tensor[(2, 17, 7), float32] span=from_string:90:15 */ = fn (%p015: Tensor[(2, 17, 21), float32] /* ty=Tensor[(2, 17, 21), float32] span=from_string:88:19 */, Primitive=1) -> Tensor[(2, 17, 7), float32] {
    strided_slice(%p015, begin=[0, 0, 7], end=[-1, -1, 7], strides=[1, 1, 1], slice_mode="size", axes=None) /* ty=Tensor[(2, 17, 7), float32] span=from_string:88:5 */
  } /* ty=fn (Tensor[(2, 17, 21), float32]) -> Tensor[(2, 17, 7), float32] span=from_string:87:3 */;
  let %x_35: Tensor[(2, 17, 7), float32] /* ty=Tensor[(2, 17, 7), float32] span=from_string:95:23 */ = %x_34(%x_31) /* ty=Tensor[(2, 17, 7), float32] span=from_string:90:15 */;
  let %x_36: fn (Tensor[(2, 17, 21), float32]) -> Tensor[(2, 17, 7), float32] /* ty=fn (Tensor[(2, 17, 21), float32]) -> Tensor[(2, 17, 7), float32] span=from_string:94:15 */ = fn (%p016: Tensor[(2, 17, 21), float32] /* ty=Tensor[(2, 17, 21), float32] span=from_string:92:19 */, Primitive=1) -> Tensor[(2, 17, 7), float32] {
    strided_slice(%p016, begin=[0, 0, 14], end=[-1, -1, 7], strides=[1, 1, 1], slice_mode="size", axes=None) /* ty=Tensor[(2, 17, 7), float32] span=from_string:92:5 */
  } /* ty=fn (Tensor[(2, 17, 21), float32]) -> Tensor[(2, 17, 7), float32] span=from_string:91:3 */;
  let %x_37: Tensor[(2, 17, 7), float32] /* ty=Tensor[(2, 17, 7), float32] span=from_string:95:30 */ = %x_36(%x_31) /* ty=Tensor[(2, 17, 7), float32] span=from_string:94:15 */;
  let %x_38: (Tensor[(2, 17, 7), float32], Tensor[(2, 17, 7), float32], Tensor[(2, 17, 7), float32]) /* ty=(Tensor[(2, 17, 7), float32], Tensor[(2, 17, 7), float32], Tensor[(2, 17, 7), float32]) span=from_string:101:62 */ = (%x_33, %x_35, %x_37) /* ty=(Tensor[(2, 17, 7), float32], Tensor[(2, 17, 7), float32], Tensor[(2, 17, 7), float32]) span=from_string:95:15 */;
  let %x_39: fn (Tensor[(2), float32]) -> Tensor[(2, 63, 2), float32] /* ty=fn (Tensor[(2), float32]) -> Tensor[(2, 63, 2), float32] span=from_string:99:15 */ = fn (%p017: Tensor[(2), float32] /* ty=Tensor[(2), float32] span=from_string:97:18 */, Primitive=1) -> Tensor[(2, 63, 2), float32] {
    broadcast_to(%p017, shape=[2, 63, 2]) /* ty=Tensor[(2, 63, 2), float32] span=from_string:97:5 */
  } /* ty=fn (Tensor[(2), float32]) -> Tensor[(2, 63, 2), float32] span=from_string:96:3 */;
  let %x_40: Tensor[(2, 63, 2), float32] /* ty=Tensor[(2, 63, 2), float32] span=from_string:101:69 */ = %x_39(%x14) /* ty=Tensor[(2, 63, 2), float32] span=from_string:99:15 */;
  let %x_41: int32 /* ty=int32 span=from_string:101:76 */ = 1 /* ty=int32 span=from_string:100:16 */;
  let %x_42: (Tensor[(2, 7, 2), float32], Tensor[(3), int32], int32, Tensor[(2, 21, 2), float32], Tensor[(2, 63, 2), float32], Tensor[(3), uint8], (Tensor[(1, 1, 24), float32], Tensor[(1, 1, 48), float32]), (Tensor[(2, 17, 7), float32], Tensor[(2, 17, 7), float32], Tensor[(2, 17, 7), float32]), Tensor[(2, 63, 2), float32], int32) /* ty=(Tensor[(2, 7, 2), float32], Tensor[(3), int32], int32, Tensor[(2, 21, 2), float32], Tensor[(2, 63, 2), float32], Tensor[(3), uint8], (Tensor[(1, 1, 24), float32], Tensor[(1, 1, 48), float32]), (Tensor[(2, 17, 7), float32], Tensor[(2, 17, 7), float32], Tensor[(2, 17, 7), float32]), Tensor[(2, 63, 2), float32], int32) span=from_string:102:3 */ = (%x_1, %x_2, %x_3, %x_11, %x_13, %x_16, %x_25, %x_38, %x_40, %x_41) /* ty=(Tensor[(2, 7, 2), float32], Tensor[(3), int32], int32, Tensor[(2, 21, 2), float32], Tensor[(2, 63, 2), float32], Tensor[(3), uint8], (Tensor[(1, 1, 24), float32], Tensor[(1, 1, 48), float32]), (Tensor[(2, 17, 7), float32], Tensor[(2, 17, 7), float32], Tensor[(2, 17, 7), float32]), Tensor[(2, 63, 2), float32], int32) span=from_string:101:15 */;
  %x_42
}

#[metadata]
{
  "root": 1, 
  "nodes": [
    {
      "type_key": ""
    }, 
    {
      "type_key": "Map", 
      "keys": [
        "relay.Constant"
      ], 
      "data": [2]
    }, 
    {
      "type_key": "Array", 
      "data": [3, 11]
    }, 
    {
      "type_key": "relay.Constant", 
      "attrs": {
        "_checked_type_": "8", 
        "data": "0", 
        "span": "6", 
        "virtual_device_": "4"
      }
    }, 
    {
      "type_key": "VirtualDevice", 
      "attrs": {
        "device_type_int": "-1", 
        "memory_scope": "5", 
        "target": "0", 
        "virtual_device_id": "-1"
      }
    }, 
    {
      "type_key": "runtime.String"
    }, 
    {
      "type_key": "Span", 
      "attrs": {
        "column": "19", 
        "end_column": "37", 
        "end_line": "7", 
        "line": "7", 
        "source_name": "7"
      }
    }, 
    {
      "type_key": "SourceName", 
      "repr_str": "from_string"
    }, 
    {
      "type_key": "relay.TensorType", 
      "attrs": {
        "dtype": "int32", 
        "shape": "9", 
        "span": "0"
      }
    }, 
    {
      "type_key": "Array", 
      "data": [10]
    }, 
    {
      "type_key": "IntImm", 
      "attrs": {
        "dtype": "int32", 
        "span": "0", 
        "value": "3"
      }
    }, 
    {
      "type_key": "relay.Constant", 
      "attrs": {
        "_checked_type_": "13", 
        "data": "1", 
        "span": "12", 
        "virtual_device_": "4"
      }
    }, 
    {
      "type_key": "Span", 
      "attrs": {
        "column": "20", 
        "end_column": "38", 
        "end_line": "42", 
        "line": "42", 
        "source_name": "7"
      }
    }, 
    {
      "type_key": "relay.TensorType", 
      "attrs": {
        "dtype": "uint8", 
        "shape": "14", 
        "span": "0"
      }
    }, 
    {
      "type_key": "Array", 
      "data": [15]
    }, 
    {
      "type_key": "IntImm", 
      "attrs": {
        "dtype": "int32", 
        "span": "0", 
        "value": "3"
      }
    }
  ], 
  "b64ndarrays": [
    "P6G0lvBAXt0AAAAAAAAAAAEAAAAAAAAAAQAAAAAgAQADAAAAAAAAAAwAAAAAAAAAAgAAAAcAAAACAAAA", 
    "P6G0lvBAXt0AAAAAAAAAAAEAAAAAAAAAAQAAAAEIAQADAAAAAAAAAAMAAAAAAAAAAgcC"
  ], 
  "attrs": {"tvm_version": "0.13.0"}
}