#[version = "0.0.5"]
def @main(%x0: Tensor[(4, 7), float32] /* ty=Tensor[(4, 7), float32] span=from_string:63:24 */, %x1: Tensor[(2, 7, 2), float32] /* ty=Tensor[(2, 7, 2), float32] span=from_string:6:22 */, %x2: Tensor[(6, 7), float32] /* ty=Tensor[(6, 7), float32] span=from_string:59:29 */, %x3: Tensor[(6), float32] /* ty=Tensor[(6), float32] span=from_string:60:26 */, %x4: Tensor[(1), float32] /* ty=Tensor[(1), float32] span=from_string:61:32 */, %x5: Tensor[(12, 7), float32] /* ty=Tensor[(12, 7), float32] span=from_string:63:29 */, %x6: Tensor[(12), float32] /* ty=Tensor[(12), float32] span=from_string:64:26 */, %x7: Tensor[(1), float32] /* ty=Tensor[(1), float32] span=from_string:65:32 */, %x8: Tensor[(2, 17, 2), float32] /* ty=Tensor[(2, 17, 2), float32] span=from_string:72:31 */, %x9: Tensor[(2, 7, 2), float32] /* ty=Tensor[(2, 7, 2), float32] span=from_string:70:36 */, %x10: Tensor[(2, 7, 2), float32] /* ty=Tensor[(2, 7, 2), float32] span=from_string:72:36 */, %x11: Tensor[(7), float32] /* ty=Tensor[(7), float32] span=from_string:69:26 */, %x12: Tensor[(7), float32] /* ty=Tensor[(7), float32] span=from_string:71:26 */, %x13: Tensor[(7), float32] /* ty=Tensor[(7), float32] span=from_string:73:26 */, %x14: Tensor[(2), float32] /* ty=Tensor[(2), float32] span=from_string:75:33 */) -> (Tensor[(2, 7, 2), float32], Tensor[(3), int32], int32, Tensor[(2, 21, 2), float32], Tensor[(2, 63, 2), float32], Tensor[(3), uint8], (Tensor[(1, 1, 24), float32], Tensor[(1, 1, 48), float32]), (Tensor[(2, 17, 7), float32], Tensor[(2, 17, 7), float32], Tensor[(2, 17, 7), float32]), Tensor[(2, 63, 2), float32], int32) {
  let %x_0: Tensor[(2, 7, 2), float32] /* ty=Tensor[(2, 7, 2), float32] span=from_string:77:16 */ = reshape(%x0, newshape=[2, 7, 2]) /* ty=Tensor[(2, 7, 2), float32] span=from_string:3:14 */;
  let %x_1: Tensor[(3), int32] /* ty=Tensor[(3), int32] span=from_string:77:22 */ = meta[relay.Constant][0] /* ty=Tensor[(3), int32] span=from_string:4:19 */;
  let %x_2: int32 /* ty=int32 span=from_string:77:28 */ = 2 /* ty=int32 span=from_string:5:15 */;
  let %x_3: Tensor[(2, 7, 2), float32] /* ty=Tensor[(2, 7, 2), float32] span=from_string:18:19 */ = squeeze(%x1) /* ty=Tensor[(2, 7, 2), float32] span=from_string:6:14 */;
  let %x_4: float32 /* ty=float32 span=from_string:8:24 */ = 1f /* ty=float32 span=from_string:7:16 */;
  let %x_5: Tensor[(2, 7, 2), float32] /* ty=Tensor[(2, 7, 2), float32] span=from_string:27:16 */ = add(%x_3, %x_4) /* ty=Tensor[(2, 7, 2), float32] span=from_string:8:14 */;
  let %x_6: Tensor[(2, 7, 2), float32] /* ty=Tensor[(2, 7, 2), float32] span=from_string:68:36 */ = squeeze(%x_3) /* ty=Tensor[(2, 7, 2), float32] span=from_string:9:14 */;
  let %x_7: float32 /* ty=float32 span=from_string:11:24 */ = 1f /* ty=float32 span=from_string:10:16 */;
  let %x_8: Tensor[(2, 7, 2), float32] /* ty=Tensor[(2, 7, 2), float32] span=from_string:13:19 */ = add(%x_6, %x_7) /* ty=Tensor[(2, 7, 2), float32] span=from_string:11:14 */;
  let %x_9: float32 /* ty=float32 span=from_string:13:25 */ = 1f /* ty=float32 span=from_string:12:16 */;
  let %x_10: Tensor[(2, 7, 2), float32] /* ty=Tensor[(2, 7, 2), float32] span=from_string:27:22 */ = add(%x_8, %x_9) /* ty=Tensor[(2, 7, 2), float32] span=from_string:13:15 */;
  let %x_11: (Tensor[(2, 7, 2), float32], Tensor[(2, 7, 2), float32]) /* ty=(Tensor[(2, 7, 2), float32], Tensor[(2, 7, 2), float32]) span=from_string:15:27 */ = (%x_5, %x_10) /* ty=(Tensor[(2, 7, 2), float32], Tensor[(2, 7, 2), float32]) span=from_string:14:15 */;
  let %x_12: Tensor[(2, 14, 2), float32] /* ty=Tensor[(2, 14, 2), float32] span=from_string:16:38 */ = concatenate(%x_11, axis=1) /* ty=Tensor[(2, 14, 2), float32] span=from_string:15:15 */;
  let %x_13: Tensor[(2, 14, 2), float32] /* ty=Tensor[(2, 14, 2), float32] span=from_string:22:16 */ = annotation.stop_fusion(%x_12) /* ty=Tensor[(2, 14, 2), float32] span=from_string:16:15 */;
  let %x_14: float32 /* ty=float32 span=from_string:18:25 */ = 1f /* ty=float32 span=from_string:17:17 */;
  let %x_15: Tensor[(2, 7, 2), float32] /* ty=Tensor[(2, 7, 2), float32] span=from_string:27:29 */ = add(%x_3, %x_14) /* ty=Tensor[(2, 7, 2), float32] span=from_string:18:15 */;
  let %x_16: (Tensor[(2, 7, 2), float32],) /* ty=(Tensor[(2, 7, 2), float32],) span=from_string:20:27 */ = (%x_15,) /* ty=(Tensor[(2, 7, 2), float32],) span=from_string:19:15 */;
  let %x_17: Tensor[(2, 7, 2), float32] /* ty=Tensor[(2, 7, 2), float32] span=from_string:21:38 */ = concatenate(%x_16, axis=1) /* ty=Tensor[(2, 7, 2), float32] span=from_string:20:15 */;
  let %x_18: Tensor[(2, 7, 2), float32] /* ty=Tensor[(2, 7, 2), float32] span=from_string:22:23 */ = annotation.stop_fusion(%x_17) /* ty=Tensor[(2, 7, 2), float32] span=from_string:21:15 */;
  let %x_19: (Tensor[(2, 14, 2), float32], Tensor[(2, 7, 2), float32]) /* ty=(Tensor[(2, 14, 2), float32], Tensor[(2, 7, 2), float32]) span=from_string:23:27 */ = (%x_13, %x_18) /* ty=(Tensor[(2, 14, 2), float32], Tensor[(2, 7, 2), float32]) span=from_string:22:15 */;
  let %x_20: Tensor[(2, 21, 2), float32] /* ty=Tensor[(2, 21, 2), float32] span=from_string:24:23 */ = concatenate(%x_19, axis=1) /* ty=Tensor[(2, 21, 2), float32] span=from_string:23:15 */;
  let %x_21: Tensor[(2, 21, 2), float32] /* ty=Tensor[(2, 21, 2), float32] span=from_string:26:19 */ = squeeze(%x_20) /* ty=Tensor[(2, 21, 2), float32] span=from_string:24:15 */;
  let %x_22: float32 /* ty=float32 span=from_string:26:26 */ = 1f /* ty=float32 span=from_string:25:17 */;
  let %x_23: Tensor[(2, 21, 2), float32] /* ty=Tensor[(2, 21, 2), float32] span=from_string:77:34 */ = add(%x_21, %x_22) /* ty=Tensor[(2, 21, 2), float32] span=from_string:26:15 */;
  let %x_24: (Tensor[(2, 7, 2), float32], Tensor[(2, 7, 2), float32], Tensor[(2, 7, 2), float32]) /* ty=(Tensor[(2, 7, 2), float32], Tensor[(2, 7, 2), float32], Tensor[(2, 7, 2), float32]) span=from_string:28:27 */ = (%x_5, %x_10, %x_15) /* ty=(Tensor[(2, 7, 2), float32], Tensor[(2, 7, 2), float32], Tensor[(2, 7, 2), float32]) span=from_string:27:15 */;
  let %x_25: Tensor[(2, 21, 2), float32] /* ty=Tensor[(2, 21, 2), float32] span=from_string:29:23 */ = concatenate(%x_24, axis=1) /* ty=Tensor[(2, 21, 2), float32] span=from_string:28:15 */;
  let %x_26: Tensor[(2, 21, 2), float32] /* ty=Tensor[(2, 21, 2), float32] span=from_string:30:23 */ = squeeze(%x_25) /* ty=Tensor[(2, 21, 2), float32] span=from_string:29:15 */;
  let %x_27: Tensor[(2, 21, 2), float32] /* ty=Tensor[(2, 21, 2), float32] span=from_string:42:19 */ = squeeze(%x_26) /* ty=Tensor[(2, 21, 2), float32] span=from_string:30:15 */;
  let %x_28: float32 /* ty=float32 span=from_string:32:26 */ = 1f /* ty=float32 span=from_string:31:17 */;
  let %x_29: Tensor[(2, 21, 2), float32] /* ty=Tensor[(2, 21, 2), float32] span=from_string:38:16 */ = add(%x_27, %x_28) /* ty=Tensor[(2, 21, 2), float32] span=from_string:32:15 */;
  let %x_30: Tensor[(2, 21, 2), float32] /* ty=Tensor[(2, 21, 2), float32] span=from_string:35:19 */ = squeeze(%x_27) /* ty=Tensor[(2, 21, 2), float32] span=from_string:33:15 */;
  let %x_31: float32 /* ty=float32 span=from_string:35:26 */ = 1f /* ty=float32 span=from_string:34:17 */;
  let %x_32: Tensor[(2, 21, 2), float32] /* ty=Tensor[(2, 21, 2), float32] span=from_string:37:19 */ = add(%x_30, %x_31) /* ty=Tensor[(2, 21, 2), float32] span=from_string:35:15 */;
  let %x_33: float32 /* ty=float32 span=from_string:37:26 */ = 1f /* ty=float32 span=from_string:36:17 */;
  let %x_34: Tensor[(2, 21, 2), float32] /* ty=Tensor[(2, 21, 2), float32] span=from_string:38:23 */ = add(%x_32, %x_33) /* ty=Tensor[(2, 21, 2), float32] span=from_string:37:15 */;
  let %x_35: (Tensor[(2, 21, 2), float32], Tensor[(2, 21, 2), float32]) /* ty=(Tensor[(2, 21, 2), float32], Tensor[(2, 21, 2), float32]) span=from_string:39:27 */ = (%x_29, %x_34) /* ty=(Tensor[(2, 21, 2), float32], Tensor[(2, 21, 2), float32]) span=from_string:38:15 */;
  let %x_36: Tensor[(2, 42, 2), float32] /* ty=Tensor[(2, 42, 2), float32] span=from_string:40:38 */ = concatenate(%x_35, axis=1) /* ty=Tensor[(2, 42, 2), float32] span=from_string:39:15 */;
  let %x_37: Tensor[(2, 42, 2), float32] /* ty=Tensor[(2, 42, 2), float32] span=from_string:46:16 */ = annotation.stop_fusion(%x_36) /* ty=Tensor[(2, 42, 2), float32] span=from_string:40:15 */;
  let %x_38: float32 /* ty=float32 span=from_string:42:26 */ = 1f /* ty=float32 span=from_string:41:17 */;
  let %x_39: Tensor[(2, 21, 2), float32] /* ty=Tensor[(2, 21, 2), float32] span=from_string:43:16 */ = add(%x_27, %x_38) /* ty=Tensor[(2, 21, 2), float32] span=from_string:42:15 */;
  let %x_40: (Tensor[(2, 21, 2), float32],) /* ty=(Tensor[(2, 21, 2), float32],) span=from_string:44:27 */ = (%x_39,) /* ty=(Tensor[(2, 21, 2), float32],) span=from_string:43:15 */;
  let %x_41: Tensor[(2, 21, 2), float32] /* ty=Tensor[(2, 21, 2), float32] span=from_string:45:38 */ = concatenate(%x_40, axis=1) /* ty=Tensor[(2, 21, 2), float32] span=from_string:44:15 */;
  let %x_42: Tensor[(2, 21, 2), float32] /* ty=Tensor[(2, 21, 2), float32] span=from_string:46:23 */ = annotation.stop_fusion(%x_41) /* ty=Tensor[(2, 21, 2), float32] span=from_string:45:15 */;
  let %x_43: (Tensor[(2, 42, 2), float32], Tensor[(2, 21, 2), float32]) /* ty=(Tensor[(2, 42, 2), float32], Tensor[(2, 21, 2), float32]) span=from_string:47:27 */ = (%x_37, %x_42) /* ty=(Tensor[(2, 42, 2), float32], Tensor[(2, 21, 2), float32]) span=from_string:46:15 */;
  let %x_44: Tensor[(2, 63, 2), float32] /* ty=Tensor[(2, 63, 2), float32] span=from_string:75:39 */ = concatenate(%x_43, axis=1) /* ty=Tensor[(2, 63, 2), float32] span=from_string:47:15 */;
  let %x_45: Tensor[(2, 63, 2), float32] /* ty=Tensor[(2, 63, 2), float32] span=from_string:50:19 */ = squeeze(%x_44) /* ty=Tensor[(2, 63, 2), float32] span=from_string:48:15 */;
  let %x_46: float32 /* ty=float32 span=from_string:50:26 */ = 1f /* ty=float32 span=from_string:49:17 */;
  let %x_47: Tensor[(2, 63, 2), float32] /* ty=Tensor[(2, 63, 2), float32] span=from_string:77:41 */ = add(%x_45, %x_46) /* ty=Tensor[(2, 63, 2), float32] span=from_string:50:15 */;
  let %x_48: Tensor[(3), uint8] /* ty=Tensor[(3), uint8] span=from_string:54:30 */ = meta[relay.Constant][1] /* ty=Tensor[(3), uint8] span=from_string:51:20 */;
  let %x_49: float32 /* ty=float32 span=from_string:54:37 */ = 2f /* ty=float32 span=from_string:52:17 */;
  let %x_50: int32 /* ty=int32 span=from_string:54:44 */ = 114 /* ty=int32 span=from_string:53:18 */;
  let %x_51: Tensor[(3), float32] /* ty=Tensor[(3), float32] span=from_string:55:20 */ = qnn.dequantize(%x_48, %x_49, %x_50) /* ty=Tensor[(3), float32] span=from_string:54:15 */;
  let %x_52: Tensor[(3), float32] /* ty=Tensor[(3), float32] span=from_string:58:28 */ = clip(%x_51, a_min=0f, a_max=6f) /* ty=Tensor[(3), float32] span=from_string:55:15 */;
  let %x_53: float32 /* ty=float32 span=from_string:58:35 */ = 2f /* ty=float32 span=from_string:56:17 */;
  let %x_54: int32 /* ty=int32 span=from_string:58:42 */ = 114 /* ty=int32 span=from_string:57:18 */;
  let %x_55: Tensor[(3), uint8] /* ty=Tensor[(3), uint8] span=from_string:77:48 */ = qnn.quantize(%x_52, %x_53, %x_54, out_dtype="uint8") /* ty=Tensor[(3), uint8] span=from_string:58:15 */;
  let %x_56: Tensor[(4, 6), float32] /* ty=Tensor[(4, 6), float32] span=from_string:60:19 */ = nn.dense(%x0, %x2, units=None) /* ty=Tensor[(4, 6), float32] span=from_string:59:15 */;
  let %x_57: Tensor[(4, 6), float32] /* ty=Tensor[(4, 6), float32] span=from_string:61:25 */ = add(%x_56, %x3) /* ty=Tensor[(4, 6), float32] span=from_string:60:15 */;
  let %x_58: Tensor[(4, 6), float32] /* ty=Tensor[(4, 6), float32] span=from_string:62:23 */ = multiply(%x_57, %x4) /* ty=Tensor[(4, 6), float32] span=from_string:61:16 */;
  let %x_59: Tensor[(1, 1, 24), float32] /* ty=Tensor[(1, 1, 24), float32] span=from_string:67:16 */ = reshape(%x_58, newshape=[1, 1, 24]) /* ty=Tensor[(1, 1, 24), float32] span=from_string:62:15 */;
  let %x_60: Tensor[(4, 12), float32] /* ty=Tensor[(4, 12), float32] span=from_string:64:19 */ = nn.dense(%x0, %x5, units=None) /* ty=Tensor[(4, 12), float32] span=from_string:63:15 */;
  let %x_61: Tensor[(4, 12), float32] /* ty=Tensor[(4, 12), float32] span=from_string:65:25 */ = add(%x_60, %x6) /* ty=Tensor[(4, 12), float32] span=from_string:64:15 */;
  let %x_62: Tensor[(4, 12), float32] /* ty=Tensor[(4, 12), float32] span=from_string:66:23 */ = multiply(%x_61, %x7) /* ty=Tensor[(4, 12), float32] span=from_string:65:16 */;
  let %x_63: Tensor[(1, 1, 48), float32] /* ty=Tensor[(1, 1, 48), float32] span=from_string:67:23 */ = reshape(%x_62, newshape=[1, 1, 48]) /* ty=Tensor[(1, 1, 48), float32] span=from_string:66:15 */;
  let %x_64: (Tensor[(1, 1, 24), float32], Tensor[(1, 1, 48), float32]) /* ty=(Tensor[(1, 1, 24), float32], Tensor[(1, 1, 48), float32]) span=from_string:77:55 */ = (%x_59, %x_63) /* ty=(Tensor[(1, 1, 24), float32], Tensor[(1, 1, 48), float32]) span=from_string:67:15 */;
  let %x_65: Tensor[(2, 17, 7), float32] /* ty=Tensor[(2, 17, 7), float32] span=from_string:69:19 */ = nn.batch_matmul(%x8, %x_6, transpose_b=True) /* ty=Tensor[(2, 17, 7), float32] span=from_string:68:15 */;
  let %x_66: Tensor[(2, 17, 7), float32] /* ty=Tensor[(2, 17, 7), float32] span=from_string:74:16 */ = add(%x_65, %x11) /* ty=Tensor[(2, 17, 7), float32] span=from_string:69:15 */;
  let %x_67: Tensor[(2, 17, 7), float32] /* ty=Tensor[(2, 17, 7), float32] span=from_string:71:19 */ = nn.batch_matmul(%x8, %x9, transpose_b=True) /* ty=Tensor[(2, 17, 7), float32] span=from_string:70:15 */;
  let %x_68: Tensor[(2, 17, 7), float32] /* ty=Tensor[(2, 17, 7), float32] span=from_string:74:23 */ = add(%x_67, %x12) /* ty=Tensor[(2, 17, 7), float32] span=from_string:71:15 */;
  let %x_69: Tensor[(2, 17, 7), float32] /* ty=Tensor[(2, 17, 7), float32] span=from_string:73:19 */ = nn.batch_matmul(%x8, %x10, transpose_b=True) /* ty=Tensor[(2, 17, 7), float32] span=from_string:72:15 */;
  let %x_70: Tensor[(2, 17, 7), float32] /* ty=Tensor[(2, 17, 7), float32] span=from_string:74:30 */ = add(%x_69, %x13) /* ty=Tensor[(2, 17, 7), float32] span=from_string:73:15 */;
  let %x_71: (Tensor[(2, 17, 7), float32], Tensor[(2, 17, 7), float32], Tensor[(2, 17, 7), float32]) /* ty=(Tensor[(2, 17, 7), float32], Tensor[(2, 17, 7), float32], Tensor[(2, 17, 7), float32]) span=from_string:77:62 */ = (%x_66, %x_68, %x_70) /* ty=(Tensor[(2, 17, 7), float32], Tensor[(2, 17, 7), float32], Tensor[(2, 17, 7), float32]) span=from_string:74:15 */;
  let %x_72: Tensor[(2, 63, 2), float32] /* ty=Tensor[(2, 63, 2), float32] span=from_string:77:69 */ = broadcast_to(%x14, shape=[2, 63, 2]) /* ty=Tensor[(2, 63, 2), float32] */;
  let %x_73: int32 /* ty=int32 span=from_string:77:76 */ = 1 /* ty=int32 span=from_string:76:16 */;
  let %x_74: (Tensor[(2, 7, 2), float32], Tensor[(3), int32], int32, Tensor[(2, 21, 2), float32], Tensor[(2, 63, 2), float32], Tensor[(3), uint8], (Tensor[(1, 1, 24), float32], Tensor[(1, 1, 48), float32]), (Tensor[(2, 17, 7), float32], Tensor[(2, 17, 7), float32], Tensor[(2, 17, 7), float32]), Tensor[(2, 63, 2), float32], int32) /* ty=(Tensor[(2, 7, 2), float32], Tensor[(3), int32], int32, Tensor[(2, 21, 2), float32], Tensor[(2, 63, 2), float32], Tensor[(3), uint8], (Tensor[(1, 1, 24), float32], Tensor[(1, 1, 48), float32]), (Tensor[(2, 17, 7), float32], Tensor[(2, 17, 7), float32], Tensor[(2, 17, 7), float32]), Tensor[(2, 63, 2), float32], int32) span=from_string:78:3 */ = (%x_0, %x_1, %x_2, %x_23, %x_47, %x_55, %x_64, %x_71, %x_72, %x_73) /* ty=(Tensor[(2, 7, 2), float32], Tensor[(3), int32], int32, Tensor[(2, 21, 2), float32], Tensor[(2, 63, 2), float32], Tensor[(3), uint8], (Tensor[(1, 1, 24), float32], Tensor[(1, 1, 48), float32]), (Tensor[(2, 17, 7), float32], Tensor[(2, 17, 7), float32], Tensor[(2, 17, 7), float32]), Tensor[(2, 63, 2), float32], int32) span=from_string:77:15 */;
  %x_74
}

#[metadata]
{
  "root": 1, 
  "nodes": [
    {
      "type_key": ""
    }, 
    {
      "type_key": "Map", 
      "keys": [
        "relay.Constant"
      ], 
      "data": [2]
    }, 
    {
      "type_key": "Array", 
      "data": [3, 11]
    }, 
    {
      "type_key": "relay.Constant", 
      "attrs": {
        "_checked_type_": "8", 
        "data": "0", 
        "span": "6", 
        "virtual_device_": "4"
      }
    }, 
    {
      "type_key": "VirtualDevice", 
      "attrs": {
        "device_type_int": "-1", 
        "memory_scope": "5", 
        "target": "0", 
        "virtual_device_id": "-1"
      }
    }, 
    {
      "type_key": "runtime.String"
    }, 
    {
      "type_key": "Span", 
      "attrs": {
        "column": "19", 
        "end_column": "37", 
        "end_line": "4", 
        "line": "4", 
        "source_name": "7"
      }
    }, 
    {
      "type_key": "SourceName", 
      "repr_str": "from_string"
    }, 
    {
      "type_key": "relay.TensorType", 
      "attrs": {
        "dtype": "int32", 
        "shape": "9", 
        "span": "0"
      }
    }, 
    {
      "type_key": "Array", 
      "data": [10]
    }, 
    {
      "type_key": "IntImm", 
      "attrs": {
        "dtype": "int32", 
        "span": "0", 
        "value": "3"
      }
    }, 
    {
      "type_key": "relay.Constant", 
      "attrs": {
        "_checked_type_": "13", 
        "data": "1", 
        "span": "12", 
        "virtual_device_": "4"
      }
    }, 
    {
      "type_key": "Span", 
      "attrs": {
        "column": "20", 
        "end_column": "38", 
        "end_line": "51", 
        "line": "51", 
        "source_name": "7"
      }
    }, 
    {
      "type_key": "relay.TensorType", 
      "attrs": {
        "dtype": "uint8", 
        "shape": "14", 
        "span": "0"
      }
    }, 
    {
      "type_key": "Array", 
      "data": [15]
    }, 
    {
      "type_key": "IntImm", 
      "attrs": {
        "dtype": "int32", 
        "span": "0", 
        "value": "3"
      }
    }
  ], 
  "b64ndarrays": [
    "P6G0lvBAXt0AAAAAAAAAAAEAAAAAAAAAAQAAAAAgAQADAAAAAAAAAAwAAAAAAAAAAgAAAAcAAAACAAAA", 
    "P6G0lvBAXt0AAAAAAAAAAAEAAAAAAAAAAQAAAAEIAQADAAAAAAAAAAMAAAAAAAAAAgcC"
  ], 
  "attrs": {"tvm_version": "0.13.0"}
}