#[version = "0.0.5"]
def @main(%x0: Tensor[(4, 7), float32] /* ty=Tensor[(4, 7), float32] span=from_string:63:17 */, %x1: Tensor[(2, 7, 2), float32] /* ty=Tensor[(2, 7, 2), float32] span=from_string:3:16 */, %x2: Tensor[(6, 7), float32] /* ty=Tensor[(6, 7), float32] span=from_string:34:23 */, %x3: Tensor[(6), float32] /* ty=Tensor[(6), float32] span=from_string:35:18 */, %x4: Tensor[(1), float32] /* ty=Tensor[(1), float32] span=from_string:36:24 */, %x5: Tensor[(12, 7), float32] /* ty=Tensor[(12, 7), float32] span=from_string:37:23 */, %x6: Tensor[(12), float32] /* ty=Tensor[(12), float32] span=from_string:38:18 */, %x7: Tensor[(1), float32] /* ty=Tensor[(1), float32] span=from_string:39:24 */, %x8: Tensor[(2, 17, 2), float32] /* ty=Tensor[(2, 17, 2), float32] span=from_string:57:25 */, %x9: Tensor[(2, 7, 2), float32] /* ty=Tensor[(2, 7, 2), float32] span=from_string:42:14 */, %x10: Tensor[(2, 7, 2), float32] /* ty=Tensor[(2, 7, 2), float32] span=from_string:44:10 */, %x11: Tensor[(7), float32] /* ty=Tensor[(7), float32] span=from_string:50:10 */, %x12: Tensor[(7), float32] /* ty=Tensor[(7), float32] span=from_string:50:16 */, %x13: Tensor[(7), float32] /* ty=Tensor[(7), float32] span=from_string:52:10 */, %x14: Tensor[(2), float32] /* ty=Tensor[(2), float32] span=from_string:69:27 */) -> (Tensor[(2, 7, 2), float32], Tensor[(3), int32], int32, Tensor[(2, 21, 2), float32], Tensor[(2, 63, 2), float32], Tensor[(3), uint8], (Tensor[(1, 1, 24), float32], Tensor[(1, 1, 48), float32]), (Tensor[(2, 17, 7), float32], Tensor[(2, 17, 7), float32], Tensor[(2, 17, 7), float32]), Tensor[(2, 63, 2), float32], int32) {
  %0 = fn (%p0: Tensor[(4, 7), float32] /* ty=Tensor[(4, 7), float32] */, Primitive=1, relay.reshape_only=1) -> Tensor[(2, 7, 2), float32] {
    reshape(%p0, newshape=[2, 7, 2]) /* ty=Tensor[(2, 7, 2), float32] span=from_string:70:4 */
  } /* ty=fn (Tensor[(4, 7), float32]) -> Tensor[(2, 7, 2), float32] */;
  %5 = fn (%p04: Tensor[(2, 7, 2), float32] /* ty=Tensor[(2, 7, 2), float32] */, Primitive=1, relay.reshape_only=1) -> Tensor[(2, 7, 2), float32] {
    squeeze(%p04) /* ty=Tensor[(2, 7, 2), float32] span=from_string:6:12 */
  } /* ty=fn (Tensor[(2, 7, 2), float32]) -> Tensor[(2, 7, 2), float32] */;
  %6 = %5(%x1) /* ty=Tensor[(2, 7, 2), float32] */;
  %7 = fn (%p03: Tensor[(2, 7, 2), float32] /* ty=Tensor[(2, 7, 2), float32] */, Primitive=1) -> Tensor[(2, 7, 2), float32] {
    add(%p03, 1f /* ty=float32 span=from_string:6:18 */) /* ty=Tensor[(2, 7, 2), float32] span=from_string:17:18 */
  } /* ty=fn (Tensor[(2, 7, 2), float32]) -> Tensor[(2, 7, 2), float32] */;
  %9 = fn (%p06: Tensor[(2, 7, 2), float32] /* ty=Tensor[(2, 7, 2), float32] */, Primitive=1, relay.reshape_only=1) -> Tensor[(2, 7, 2), float32] {
    squeeze(%p06) /* ty=Tensor[(2, 7, 2), float32] span=from_string:42:10 */
  } /* ty=fn (Tensor[(2, 7, 2), float32]) -> Tensor[(2, 7, 2), float32] */;
  %10 = %9(%6) /* ty=Tensor[(2, 7, 2), float32] */;
  %11 = fn (%p05: Tensor[(2, 7, 2), float32] /* ty=Tensor[(2, 7, 2), float32] */, Primitive=1) -> Tensor[(2, 7, 2), float32] {
    %8 = add(%p05, 1f /* ty=float32 span=from_string:5:18 */) /* ty=Tensor[(2, 7, 2), float32] span=from_string:7:12 */;
    add(%8, 1f /* ty=float32 span=from_string:7:18 */) /* ty=Tensor[(2, 7, 2), float32] span=from_string:17:14 */
  } /* ty=fn (Tensor[(2, 7, 2), float32]) -> Tensor[(2, 7, 2), float32] */;
  %12 = %7(%6) /* ty=Tensor[(2, 7, 2), float32] */;
  %13 = %11(%10) /* ty=Tensor[(2, 7, 2), float32] */;
  %14 = fn (%p02: Tensor[(2, 7, 2), float32] /* ty=Tensor[(2, 7, 2), float32] */, %p11: Tensor[(2, 7, 2), float32] /* ty=Tensor[(2, 7, 2), float32] */, Primitive=1) -> Tensor[(2, 14, 2), float32] {
    %4 = (%p02, %p11) /* ty=(Tensor[(2, 7, 2), float32], Tensor[(2, 7, 2), float32]) span=from_string:9:20 */;
    concatenate(%4, axis=1) /* ty=Tensor[(2, 14, 2), float32] span=from_string:12:31 */
  } /* ty=fn (Tensor[(2, 7, 2), float32], Tensor[(2, 7, 2), float32]) -> Tensor[(2, 14, 2), float32] */;
  %16 = fn (%p07: Tensor[(2, 7, 2), float32] /* ty=Tensor[(2, 7, 2), float32] */, Primitive=1) -> Tensor[(2, 7, 2), float32] {
    %15 = (%p07,) /* ty=(Tensor[(2, 7, 2), float32],) span=from_string:11:20 */;
    concatenate(%15, axis=1) /* ty=Tensor[(2, 7, 2), float32] span=from_string:13:32 */
  } /* ty=fn (Tensor[(2, 7, 2), float32]) -> Tensor[(2, 7, 2), float32] */;
  %17 = %14(%12, %13) /* ty=Tensor[(2, 14, 2), float32] */;
  %18 = %16(%12) /* ty=Tensor[(2, 7, 2), float32] */;
  %19 = fn (%p01: Tensor[(2, 14, 2), float32] /* ty=Tensor[(2, 14, 2), float32] */, %p1: Tensor[(2, 7, 2), float32] /* ty=Tensor[(2, 7, 2), float32] */, Primitive=1) -> Tensor[(2, 21, 2), float32] {
    %1 = (%p01, %p1) /* ty=(Tensor[(2, 14, 2), float32], Tensor[(2, 7, 2), float32]) span=from_string:15:21 */;
    %2 = concatenate(%1, axis=1) /* ty=Tensor[(2, 21, 2), float32] span=from_string:16:17 */;
    %3 = squeeze(%2) /* ty=Tensor[(2, 21, 2), float32] span=from_string:64:13 */;
    add(%3, 1f /* ty=float32 span=from_string:64:20 */) /* ty=Tensor[(2, 21, 2), float32] span=from_string:70:126 */
  } /* ty=fn (Tensor[(2, 14, 2), float32], Tensor[(2, 7, 2), float32]) -> Tensor[(2, 21, 2), float32] */;
  %29 = fn (%p011: Tensor[(2, 7, 2), float32] /* ty=Tensor[(2, 7, 2), float32] */, %p14: Tensor[(2, 7, 2), float32] /* ty=Tensor[(2, 7, 2), float32] */, Primitive=1) -> Tensor[(2, 21, 2), float32] {
    %26 = (%p011, %p14, %p011) /* ty=(Tensor[(2, 7, 2), float32], Tensor[(2, 7, 2), float32], Tensor[(2, 7, 2), float32]) span=from_string:18:21 */;
    %27 = concatenate(%26, axis=1) /* ty=Tensor[(2, 21, 2), float32] span=from_string:19:17 */;
    %28 = squeeze(%27) /* ty=Tensor[(2, 21, 2), float32] span=from_string:20:17 */;
    squeeze(%28) /* ty=Tensor[(2, 21, 2), float32] span=from_string:23:13 */
  } /* ty=fn (Tensor[(2, 7, 2), float32], Tensor[(2, 7, 2), float32]) -> Tensor[(2, 21, 2), float32] */;
  %30 = %29(%12, %13) /* ty=Tensor[(2, 21, 2), float32] */;
  %31 = fn (%p012: Tensor[(2, 21, 2), float32] /* ty=Tensor[(2, 21, 2), float32] */, Primitive=1) -> Tensor[(2, 21, 2), float32] {
    add(%p012, 1f /* ty=float32 span=from_string:23:20 */) /* ty=Tensor[(2, 21, 2), float32] span=from_string:27:10 */
  } /* ty=fn (Tensor[(2, 21, 2), float32]) -> Tensor[(2, 21, 2), float32] */;
  %32 = %31(%30) /* ty=Tensor[(2, 21, 2), float32] */;
  %33 = fn (%p010: Tensor[(2, 21, 2), float32] /* ty=Tensor[(2, 21, 2), float32] */, %p13: Tensor[(2, 21, 2), float32] /* ty=Tensor[(2, 21, 2), float32] */, Primitive=1) -> Tensor[(2, 42, 2), float32] {
    %22 = squeeze(%p010) /* ty=Tensor[(2, 21, 2), float32] span=from_string:22:13 */;
    %23 = add(%22, 1f /* ty=float32 span=from_string:22:20 */) /* ty=Tensor[(2, 21, 2), float32] span=from_string:24:13 */;
    %24 = add(%23, 1f /* ty=float32 span=from_string:24:20 */) /* ty=Tensor[(2, 21, 2), float32] span=from_string:25:15 */;
    %25 = (%p13, %24) /* ty=(Tensor[(2, 21, 2), float32], Tensor[(2, 21, 2), float32]) span=from_string:26:21 */;
    concatenate(%25, axis=1) /* ty=Tensor[(2, 42, 2), float32] span=from_string:29:32 */
  } /* ty=fn (Tensor[(2, 21, 2), float32], Tensor[(2, 21, 2), float32]) -> Tensor[(2, 42, 2), float32] */;
  %35 = fn (%p013: Tensor[(2, 21, 2), float32] /* ty=Tensor[(2, 21, 2), float32] */, Primitive=1) -> Tensor[(2, 21, 2), float32] {
    %34 = (%p013,) /* ty=(Tensor[(2, 21, 2), float32],) span=from_string:28:21 */;
    concatenate(%34, axis=1) /* ty=Tensor[(2, 21, 2), float32] span=from_string:30:32 */
  } /* ty=fn (Tensor[(2, 21, 2), float32]) -> Tensor[(2, 21, 2), float32] */;
  %36 = %33(%30, %32) /* ty=Tensor[(2, 42, 2), float32] */;
  %37 = %35(%32) /* ty=Tensor[(2, 21, 2), float32] */;
  %38 = fn (%p09: Tensor[(2, 42, 2), float32] /* ty=Tensor[(2, 42, 2), float32] */, %p12: Tensor[(2, 21, 2), float32] /* ty=Tensor[(2, 21, 2), float32] */, Primitive=1) -> Tensor[(2, 63, 2), float32] {
    %21 = (%p09, %p12) /* ty=(Tensor[(2, 42, 2), float32], Tensor[(2, 21, 2), float32]) span=from_string:32:21 */;
    concatenate(%21, axis=1) /* ty=Tensor[(2, 63, 2), float32] span=from_string:69:33 */
  } /* ty=fn (Tensor[(2, 42, 2), float32], Tensor[(2, 21, 2), float32]) -> Tensor[(2, 63, 2), float32] */;
  %39 = %38(%36, %37) /* ty=Tensor[(2, 63, 2), float32] */;
  %40 = fn (%p08: Tensor[(2, 63, 2), float32] /* ty=Tensor[(2, 63, 2), float32] */, Primitive=1) -> Tensor[(2, 63, 2), float32] {
    %20 = squeeze(%p08) /* ty=Tensor[(2, 63, 2), float32] span=from_string:65:13 */;
    add(%20, 1f /* ty=float32 span=from_string:65:20 */) /* ty=Tensor[(2, 63, 2), float32] span=from_string:70:131 */
  } /* ty=fn (Tensor[(2, 63, 2), float32]) -> Tensor[(2, 63, 2), float32] */;
  %41 = fn (%p014: Tensor[(3), uint8] /* ty=Tensor[(3), uint8] */, Primitive=1) -> Tensor[(3), uint8] {
    clip(%p014, a_min=114f, a_max=117f) /* ty=Tensor[(3), uint8] span=from_string:70:136 */
  } /* ty=fn (Tensor[(3), uint8]) -> Tensor[(3), uint8] */;
  %44 = fn (%p016: Tensor[(4, 7), float32] /* ty=Tensor[(4, 7), float32] */, %p15: Tensor[(6, 7), float32] /* ty=Tensor[(6, 7), float32] */, %p2: Tensor[(6), float32] /* ty=Tensor[(6), float32] */, %p3: Tensor[(1), float32] /* ty=Tensor[(1), float32] */, Primitive=1) -> Tensor[(4, 6), float32] {
    %42 = nn.dense(%p016, %p15, units=None) /* ty=Tensor[(4, 6), float32] span=from_string:35:13 */;
    %43 = add(%42, %p2) /* ty=Tensor[(4, 6), float32] span=from_string:36:19 */;
    multiply(%43, %p3) /* ty=Tensor[(4, 6), float32] span=from_string:40:17 */
  } /* ty=fn (Tensor[(4, 7), float32], Tensor[(6, 7), float32], Tensor[(6), float32], Tensor[(1), float32]) -> Tensor[(4, 6), float32] */;
  %45 = %44(%x0, %x2, %x3, %x4) /* ty=Tensor[(4, 6), float32] */;
  %46 = fn (%p015: Tensor[(4, 6), float32] /* ty=Tensor[(4, 6), float32] */, Primitive=1, relay.reshape_only=1) -> Tensor[(1, 1, 24), float32] {
    reshape(%p015, newshape=[1, 1, 24]) /* ty=Tensor[(1, 1, 24), float32] span=from_string:67:10 */
  } /* ty=fn (Tensor[(4, 6), float32]) -> Tensor[(1, 1, 24), float32] */;
  %49 = fn (%p018: Tensor[(4, 7), float32] /* ty=Tensor[(4, 7), float32] */, %p16: Tensor[(12, 7), float32] /* ty=Tensor[(12, 7), float32] */, %p21: Tensor[(12), float32] /* ty=Tensor[(12), float32] */, %p31: Tensor[(1), float32] /* ty=Tensor[(1), float32] */, Primitive=1) -> Tensor[(4, 12), float32] {
    %47 = nn.dense(%p018, %p16, units=None) /* ty=Tensor[(4, 12), float32] span=from_string:38:13 */;
    %48 = add(%47, %p21) /* ty=Tensor[(4, 12), float32] span=from_string:39:19 */;
    multiply(%48, %p31) /* ty=Tensor[(4, 12), float32] span=from_string:41:17 */
  } /* ty=fn (Tensor[(4, 7), float32], Tensor[(12, 7), float32], Tensor[(12), float32], Tensor[(1), float32]) -> Tensor[(4, 12), float32] */;
  %50 = %49(%x0, %x5, %x6, %x7) /* ty=Tensor[(4, 12), float32] */;
  %51 = fn (%p017: Tensor[(4, 12), float32] /* ty=Tensor[(4, 12), float32] */, Primitive=1, relay.reshape_only=1) -> Tensor[(1, 1, 48), float32] {
    reshape(%p017, newshape=[1, 1, 48]) /* ty=Tensor[(1, 1, 48), float32] span=from_string:67:15 */
  } /* ty=fn (Tensor[(4, 12), float32]) -> Tensor[(1, 1, 48), float32] */;
  %52 = %46(%45) /* ty=Tensor[(1, 1, 24), float32] */;
  %53 = %51(%50) /* ty=Tensor[(1, 1, 48), float32] */;
  %57 = fn (%p022: Tensor[(2, 7, 2), float32] /* ty=Tensor[(2, 7, 2), float32] */, %p19: Tensor[(2, 7, 2), float32] /* ty=Tensor[(2, 7, 2), float32] */, Primitive=1) -> Tensor[(2, 14, 2), float32] {
    %56 = (%p022, %p19) /* ty=(Tensor[(2, 7, 2), float32], Tensor[(2, 7, 2), float32]) span=from_string:43:21 */;
    concatenate(%56, axis=1) /* ty=Tensor[(2, 14, 2), float32] span=from_string:46:32 */
  } /* ty=fn (Tensor[(2, 7, 2), float32], Tensor[(2, 7, 2), float32]) -> Tensor[(2, 14, 2), float32] */;
  %59 = fn (%p023: Tensor[(2, 7, 2), float32] /* ty=Tensor[(2, 7, 2), float32] */, Primitive=1) -> Tensor[(2, 7, 2), float32] {
    %58 = (%p023,) /* ty=(Tensor[(2, 7, 2), float32],) span=from_string:45:21 */;
    concatenate(%58, axis=1) /* ty=Tensor[(2, 7, 2), float32] span=from_string:47:32 */
  } /* ty=fn (Tensor[(2, 7, 2), float32]) -> Tensor[(2, 7, 2), float32] */;
  %60 = %57(%10, %x9) /* ty=Tensor[(2, 14, 2), float32] */;
  %61 = %59(%x10) /* ty=Tensor[(2, 7, 2), float32] */;
  %62 = fn (%p021: Tensor[(2, 14, 2), float32] /* ty=Tensor[(2, 14, 2), float32] */, %p18: Tensor[(2, 7, 2), float32] /* ty=Tensor[(2, 7, 2), float32] */, Primitive=1) -> Tensor[(2, 21, 2), float32] {
    %55 = (%p021, %p18) /* ty=(Tensor[(2, 14, 2), float32], Tensor[(2, 7, 2), float32]) span=from_string:49:21 */;
    concatenate(%55, axis=1) /* ty=Tensor[(2, 21, 2), float32] span=from_string:57:30 */
  } /* ty=fn (Tensor[(2, 14, 2), float32], Tensor[(2, 7, 2), float32]) -> Tensor[(2, 21, 2), float32] */;
  %65 = fn (%p025: Tensor[(7), float32] /* ty=Tensor[(7), float32] */, %p111: Tensor[(7), float32] /* ty=Tensor[(7), float32] */, Primitive=1) -> Tensor[(14), float32] {
    %64 = (%p025, %p111) /* ty=(Tensor[(7), float32], Tensor[(7), float32]) span=from_string:51:21 */;
    concatenate(%64, axis=-1) /* ty=Tensor[(14), float32] span=from_string:54:32 */
  } /* ty=fn (Tensor[(7), float32], Tensor[(7), float32]) -> Tensor[(14), float32] */;
  %67 = fn (%p026: Tensor[(7), float32] /* ty=Tensor[(7), float32] */, Primitive=1) -> Tensor[(7), float32] {
    %66 = (%p026,) /* ty=(Tensor[(7), float32],) span=from_string:53:21 */;
    concatenate(%66, axis=-1) /* ty=Tensor[(7), float32] span=from_string:55:32 */
  } /* ty=fn (Tensor[(7), float32]) -> Tensor[(7), float32] */;
  %68 = %65(%x11, %x12) /* ty=Tensor[(14), float32] */;
  %69 = %67(%x13) /* ty=Tensor[(7), float32] */;
  %70 = fn (%p024: Tensor[(14), float32] /* ty=Tensor[(14), float32] */, %p110: Tensor[(7), float32] /* ty=Tensor[(7), float32] */, Primitive=1) -> Tensor[(21), float32] {
    %63 = (%p024, %p110) /* ty=(Tensor[(14), float32], Tensor[(7), float32]) span=from_string:58:21 */;
    concatenate(%63, axis=-1) /* ty=Tensor[(21), float32] span=from_string:59:18 */
  } /* ty=fn (Tensor[(14), float32], Tensor[(7), float32]) -> Tensor[(21), float32] */;
  %71 = %62(%60, %61) /* ty=Tensor[(2, 21, 2), float32] */;
  %72 = %70(%68, %69) /* ty=Tensor[(21), float32] */;
  %73 = fn (%p020: Tensor[(2, 17, 2), float32] /* ty=Tensor[(2, 17, 2), float32] */, %p17: Tensor[(2, 21, 2), float32] /* ty=Tensor[(2, 21, 2), float32] */, %p22: Tensor[(21), float32] /* ty=Tensor[(21), float32] */, Primitive=1) -> Tensor[(2, 17, 21), float32] {
    %54 = nn.batch_matmul(%p020, %p17, transpose_b=True) /* ty=Tensor[(2, 17, 21), float32] span=from_string:59:13 */;
    add(%54, %p22) /* ty=Tensor[(2, 17, 21), float32] span=from_string:62:23 */
  } /* ty=fn (Tensor[(2, 17, 2), float32], Tensor[(2, 21, 2), float32], Tensor[(21), float32]) -> Tensor[(2, 17, 21), float32] */;
  %74 = %73(%x8, %71, %72) /* ty=Tensor[(2, 17, 21), float32] */;
  %75 = fn (%p019: Tensor[(2, 17, 21), float32] /* ty=Tensor[(2, 17, 21), float32] */, Primitive=1) -> Tensor[(2, 17, 7), float32] {
    strided_slice(%p019, begin=[0, 0, 0], end=[-1, -1, 7], strides=[1, 1, 1], slice_mode="size", axes=None) /* ty=Tensor[(2, 17, 7), float32] span=from_string:68:10 */
  } /* ty=fn (Tensor[(2, 17, 21), float32]) -> Tensor[(2, 17, 7), float32] */;
  %76 = fn (%p027: Tensor[(2, 17, 21), float32] /* ty=Tensor[(2, 17, 21), float32] */, Primitive=1) -> Tensor[(2, 17, 7), float32] {
    strided_slice(%p027, begin=[0, 0, 7], end=[-1, -1, 7], strides=[1, 1, 1], slice_mode="size", axes=None) /* ty=Tensor[(2, 17, 7), float32] span=from_string:68:15 */
  } /* ty=fn (Tensor[(2, 17, 21), float32]) -> Tensor[(2, 17, 7), float32] */;
  %77 = fn (%p028: Tensor[(2, 17, 21), float32] /* ty=Tensor[(2, 17, 21), float32] */, Primitive=1) -> Tensor[(2, 17, 7), float32] {
    strided_slice(%p028, begin=[0, 0, 14], end=[-1, -1, 7], strides=[1, 1, 1], slice_mode="size", axes=None) /* ty=Tensor[(2, 17, 7), float32] span=from_string:68:20 */
  } /* ty=fn (Tensor[(2, 17, 21), float32]) -> Tensor[(2, 17, 7), float32] */;
  %78 = %75(%74) /* ty=Tensor[(2, 17, 7), float32] */;
  %79 = %76(%74) /* ty=Tensor[(2, 17, 7), float32] */;
  %80 = %77(%74) /* ty=Tensor[(2, 17, 7), float32] */;
  %81 = fn (%p029: Tensor[(2), float32] /* ty=Tensor[(2), float32] */, %p112: Tensor[(2, 63, 2), float32] /* ty=Tensor[(2, 63, 2), float32] */, Primitive=1) -> Tensor[(2, 63, 2), float32] {
    broadcast_to_like(%p029, %p112) /* ty=Tensor[(2, 63, 2), float32] span=from_string:70:151 */
  } /* ty=fn (Tensor[(2), float32], Tensor[(2, 63, 2), float32]) -> Tensor[(2, 63, 2), float32] */;
  %82 = %0(%x0) /* ty=Tensor[(2, 7, 2), float32] */;
  %83 = %19(%17, %18) /* ty=Tensor[(2, 21, 2), float32] */;
  %84 = %40(%39) /* ty=Tensor[(2, 63, 2), float32] */;
  %85 = %41(meta[relay.Constant][1] /* ty=Tensor[(3), uint8] span=from_string:66:19 */) /* ty=Tensor[(3), uint8] */;
  %86 = (%52, %53) /* ty=(Tensor[(1, 1, 24), float32], Tensor[(1, 1, 48), float32]) span=from_string:70:141 */;
  %87 = (%78, %79, %80) /* ty=(Tensor[(2, 17, 7), float32], Tensor[(2, 17, 7), float32], Tensor[(2, 17, 7), float32]) span=from_string:70:146 */;
  %88 = %81(%x14, %39) /* ty=Tensor[(2, 63, 2), float32] */;
  (%82, meta[relay.Constant][0] /* ty=Tensor[(3), int32] span=from_string:70:14 */, 2 /* ty=int32 span=from_string:70:86 */, %83, %84, %85, %86, %87, %88, 1 /* ty=int32 span=from_string:70:157 */) /* ty=(Tensor[(2, 7, 2), float32], Tensor[(3), int32], int32, Tensor[(2, 21, 2), float32], Tensor[(2, 63, 2), float32], Tensor[(3), uint8], (Tensor[(1, 1, 24), float32], Tensor[(1, 1, 48), float32]), (Tensor[(2, 17, 7), float32], Tensor[(2, 17, 7), float32], Tensor[(2, 17, 7), float32]), Tensor[(2, 63, 2), float32], int32) span=from_string:3:3 */
}

#[metadata]
{
  "root": 1, 
  "nodes": [
    {
      "type_key": ""
    }, 
    {
      "type_key": "Map", 
      "keys": [
        "relay.Constant"
      ], 
      "data": [2]
    }, 
    {
      "type_key": "Array", 
      "data": [3, 12]
    }, 
    {
      "type_key": "relay.Constant", 
      "attrs": {
        "_checked_type_": "8", 
        "data": "0", 
        "span": "6", 
        "virtual_device_": "4"
      }
    }, 
    {
      "type_key": "VirtualDevice", 
      "attrs": {
        "device_type_int": "-1", 
        "memory_scope": "5", 
        "target": "0", 
        "virtual_device_id": "-1"
      }
    }, 
    {
      "type_key": "runtime.String"
    }, 
    {
      "type_key": "Span", 
      "attrs": {
        "column": "14", 
        "end_column": "32", 
        "end_line": "70", 
        "line": "70", 
        "source_name": "7"
      }
    }, 
    {
      "type_key": "SourceName", 
      "repr_str": "from_string"
    }, 
    {
      "type_key": "relay.TensorType", 
      "attrs": {
        "dtype": "int32", 
        "shape": "9", 
        "span": "11"
      }
    }, 
    {
      "type_key": "Array", 
      "data": [10]
    }, 
    {
      "type_key": "IntImm", 
      "attrs": {
        "dtype": "int32", 
        "span": "0", 
        "value": "3"
      }
    }, 
    {
      "type_key": "Span", 
      "attrs": {
        "column": "1320", 
        "end_column": "1340", 
        "end_line": "2", 
        "line": "2", 
        "source_name": "7"
      }
    }, 
    {
      "type_key": "relay.Constant", 
      "attrs": {
        "_checked_type_": "14", 
        "data": "1", 
        "span": "13", 
        "virtual_device_": "4"
      }
    }, 
    {
      "type_key": "Span", 
      "attrs": {
        "column": "19", 
        "end_column": "37", 
        "end_line": "66", 
        "line": "66", 
        "source_name": "7"
      }
    }, 
    {
      "type_key": "relay.TensorType", 
      "attrs": {
        "dtype": "uint8", 
        "shape": "15", 
        "span": "17"
      }
    }, 
    {
      "type_key": "Array", 
      "data": [16]
    }, 
    {
      "type_key": "IntImm", 
      "attrs": {
        "dtype": "int32", 
        "span": "0", 
        "value": "3"
      }
    }, 
    {
      "type_key": "Span", 
      "attrs": {
        "column": "1409", 
        "end_column": "1427", 
        "end_line": "2", 
        "line": "2", 
        "source_name": "7"
      }
    }
  ], 
  "b64ndarrays": [
    "P6G0lvBAXt0AAAAAAAAAAAEAAAAAAAAAAQAAAAAgAQADAAAAAAAAAAwAAAAAAAAAAgAAAAcAAAACAAAA", 
    "P6G0lvBAXt0AAAAAAAAAAAEAAAAAAAAAAQAAAAEIAQADAAAAAAAAAAMAAAAAAAAAAgcC"
  ], 
  "attrs": {"tvm_version": "0.13.0"}
}