#[version = "0.0.5"]
def @main(%x0: Tensor[(1, 3, 224, 224), uint8] /* ty=Tensor[(1, 3, 224, 224), uint8] span=from_string:15:24 */, %x1: Tensor[(3, 224, 224), float32] /* ty=Tensor[(3, 224, 224), float32] span=from_string:27:25 */, %x2: Tensor[(224), float32] /* ty=Tensor[(224), float32] */) -> (Tensor[(1, 3, 224, 224), uint8], Tensor[(3, 224, 224), float32], (Tensor[(1, 3, 224, 224), float32], (Tensor[(1, 3, 224, 224), float32],)), Tensor[(1, 3, 224, 224), uint8], Tensor[(1, 3, 224, 224), float32], Tensor[(0, 5, 447, 224), float32], float32, Tensor[(1, 3, 224, 224), float32], Tensor[(224), float32], Tensor[(3, 224, 224), float32]) {
  %0 = fn (%p01: Tensor[(1, 3, 224, 224), uint8] /* ty=Tensor[(1, 3, 224, 224), uint8] */, Primitive=1) -> Tensor[(1, 3, 224, 224), float32] {
    qnn.dequantize(%p01, 2f /* ty=float32 span=from_string:3:30 */, 114 /* ty=int32 span=from_string:3:74 */) /* ty=Tensor[(1, 3, 224, 224), float32] span=from_string:10:23 */
  } /* ty=fn (Tensor[(1, 3, 224, 224), uint8]) -> Tensor[(1, 3, 224, 224), float32] */;
  %1 = %0(%x0) /* ty=Tensor[(1, 3, 224, 224), float32] */;
  %2 = fn (%p0: Tensor[(1, 3, 224, 224), float32] /* ty=Tensor[(1, 3, 224, 224), float32] */, Primitive=1) -> Tensor[(1, 3, 224, 224), float32] {
    multiply(%p0, %p0) /* ty=Tensor[(1, 3, 224, 224), float32] span=from_string:4:115 */
  } /* ty=fn (Tensor[(1, 3, 224, 224), float32]) -> Tensor[(1, 3, 224, 224), float32] */;
  let %x3: Tensor[(1, 3, 224, 224), float32] /* ty=Tensor[(1, 3, 224, 224), float32] span=from_string:22:10 */ = %2(%1) /* ty=Tensor[(1, 3, 224, 224), float32] */;
  %3 = fn (Primitive=1) -> Tensor[(1, 3, 224, 224), float32] {
    ones(shape=[1, 3, 224, 224], dtype="float32") /* ty=Tensor[(1, 3, 224, 224), float32] span=from_string:5:114 */
  } /* ty=fn () -> Tensor[(1, 3, 224, 224), float32] */;
  let %x4: Tensor[(1, 3, 224, 224), float32] /* ty=Tensor[(1, 3, 224, 224), float32] span=from_string:10:18 */ = %3() /* ty=Tensor[(1, 3, 224, 224), float32] */;
  %4 = fn (%p03: Tensor[(1, 3, 224, 224), float32] /* ty=Tensor[(1, 3, 224, 224), float32] */, Primitive=1) -> Tensor[(1, 3, 224, 224), float32] {
    clip(%p03, a_min=0f, a_max=6f) /* ty=Tensor[(1, 3, 224, 224), float32] span=from_string:21:17 */
  } /* ty=fn (Tensor[(1, 3, 224, 224), float32]) -> Tensor[(1, 3, 224, 224), float32] */;
  %5 = %4(%1) /* ty=Tensor[(1, 3, 224, 224), float32] */;
  %6 = fn (%p02: Tensor[(1, 3, 224, 224), float32] /* ty=Tensor[(1, 3, 224, 224), float32] */, Primitive=1) -> Tensor[(1, 3, 224, 224), uint8] {
    qnn.quantize(%p02, 2f /* ty=float32 span=from_string:20:28 */, 114 /* ty=int32 span=from_string:20:73 */, out_dtype="uint8") /* ty=Tensor[(1, 3, 224, 224), uint8] span=from_string:29:4 */
  } /* ty=fn (Tensor[(1, 3, 224, 224), float32]) -> Tensor[(1, 3, 224, 224), uint8] */;
  %7 = fn (%p04: Tensor[(1, 3, 224, 224), float32] /* ty=Tensor[(1, 3, 224, 224), float32] */, Primitive=1, relay.reshape_only=1) -> Tensor[(3, 224, 224), float32] {
    reshape(%p04, newshape=[3, 224, 224]) /* ty=Tensor[(3, 224, 224), float32] span=from_string:29:9 */
  } /* ty=fn (Tensor[(1, 3, 224, 224), float32]) -> Tensor[(3, 224, 224), float32] */;
  %8 = fn (Primitive=1) -> Tensor[(1, 3, 224, 224), float32] {
    zeros(shape=[1, 3, 224, 224], dtype="float32") /* ty=Tensor[(1, 3, 224, 224), float32] span=from_string:24:13 */
  } /* ty=fn () -> Tensor[(1, 3, 224, 224), float32] */;
  %10 = fn (%p07: Tensor[(1, 3, 224, 224), float32] /* ty=Tensor[(1, 3, 224, 224), float32] */, %p12: Tensor[(1, 3, 224, 224), float32] /* ty=Tensor[(1, 3, 224, 224), float32] */, %p2: Tensor[(4), int32] /* ty=Tensor[(4), int32] */, Primitive=1) -> Tensor[(1, 3, 224, 224), float32] {
    %9 = multiply(%p07, %p12) /* ty=Tensor[(1, 3, 224, 224), float32] span=from_string:9:24 */;
    collapse_sum_to(%9, %p2, meta[relay.attrs.InitOpAttrs][0]) /* ty=Tensor[(1, 3, 224, 224), float32] span=from_string:26:17 */
  } /* ty=fn (Tensor[(1, 3, 224, 224), float32], Tensor[(1, 3, 224, 224), float32], Tensor[(4), int32]) -> Tensor[(1, 3, 224, 224), float32] */;
  %11 = %8() /* ty=Tensor[(1, 3, 224, 224), float32] */;
  %12 = %10(%x4, %1, meta[relay.Constant][0] /* ty=Tensor[(4), int32] span=from_string:9:33 */) /* ty=Tensor[(1, 3, 224, 224), float32] */;
  %13 = fn (%p06: Tensor[(1, 3, 224, 224), float32] /* ty=Tensor[(1, 3, 224, 224), float32] */, %p11: Tensor[(1, 3, 224, 224), float32] /* ty=Tensor[(1, 3, 224, 224), float32] */, Primitive=1) -> Tensor[(1, 3, 224, 224), float32] {
    add(%p06, %p11) /* ty=Tensor[(1, 3, 224, 224), float32] span=from_string:25:30 */
  } /* ty=fn (Tensor[(1, 3, 224, 224), float32], Tensor[(1, 3, 224, 224), float32]) -> Tensor[(1, 3, 224, 224), float32] */;
  %15 = fn (%p08: Tensor[(1, 3, 224, 224), float32] /* ty=Tensor[(1, 3, 224, 224), float32] */, %p13: Tensor[(1, 3, 224, 224), float32] /* ty=Tensor[(1, 3, 224, 224), float32] */, %p21: Tensor[(4), int32] /* ty=Tensor[(4), int32] */, Primitive=1) -> Tensor[(1, 3, 224, 224), float32] {
    %14 = multiply(%p08, %p13) /* ty=Tensor[(1, 3, 224, 224), float32] span=from_string:12:24 */;
    collapse_sum_to(%14, %p21, meta[relay.attrs.InitOpAttrs][1]) /* ty=Tensor[(1, 3, 224, 224), float32] span=from_string:13:16 */
  } /* ty=fn (Tensor[(1, 3, 224, 224), float32], Tensor[(1, 3, 224, 224), float32], Tensor[(4), int32]) -> Tensor[(1, 3, 224, 224), float32] */;
  %16 = %13(%11, %12) /* ty=Tensor[(1, 3, 224, 224), float32] */;
  %17 = %15(%x4, %1, meta[relay.Constant][1] /* ty=Tensor[(4), int32] span=from_string:12:33 */) /* ty=Tensor[(1, 3, 224, 224), float32] */;
  %18 = fn (%p05: Tensor[(1, 3, 224, 224), float32] /* ty=Tensor[(1, 3, 224, 224), float32] */, %p1: Tensor[(1, 3, 224, 224), float32] /* ty=Tensor[(1, 3, 224, 224), float32] */, Primitive=1) -> Tensor[(1, 3, 224, 224), float32] {
    add(%p05, %p1) /* ty=Tensor[(1, 3, 224, 224), float32] span=from_string:14:9 */
  } /* ty=fn (Tensor[(1, 3, 224, 224), float32], Tensor[(1, 3, 224, 224), float32]) -> Tensor[(1, 3, 224, 224), float32] */;
  %19 = %18(%16, %17) /* ty=Tensor[(1, 3, 224, 224), float32] */;
  %20 = (%19,) /* ty=(Tensor[(1, 3, 224, 224), float32],) span=from_string:22:15 */;
  %23 = fn (%p09: Tensor[(1, 3, 224, 224), uint8] /* ty=Tensor[(1, 3, 224, 224), uint8] */, Primitive=1) -> Tensor[(1, 3, 224, 224), uint8] {
    %21 = qnn.dequantize(%p09, 2f /* ty=float32 span=from_string:15:31 */, 114 /* ty=int32 span=from_string:15:76 */) /* ty=Tensor[(1, 3, 224, 224), float32] span=from_string:16:14 */;
    %22 = clip(%21, a_min=0f, a_max=6f) /* ty=Tensor[(1, 3, 224, 224), float32] span=from_string:23:22 */;
    qnn.quantize(%22, 2f /* ty=float32 span=from_string:23:29 */, 114 /* ty=int32 span=from_string:23:74 */, out_dtype="uint8") /* ty=Tensor[(1, 3, 224, 224), uint8] span=from_string:29:19 */
  } /* ty=fn (Tensor[(1, 3, 224, 224), uint8]) -> Tensor[(1, 3, 224, 224), uint8] */;
  %24 = fn (Primitive=1) -> Tensor[(1, 3, 224, 224), float32] {
    ones(shape=[1, 3, 224, 224], dtype="float32") /* ty=Tensor[(1, 3, 224, 224), float32] span=from_string:24:17 */
  } /* ty=fn () -> Tensor[(1, 3, 224, 224), float32] */;
  %25 = %24() /* ty=Tensor[(1, 3, 224, 224), float32] */;
  %26 = fn (%p010: Tensor[(1, 3, 224, 224), float32] /* ty=Tensor[(1, 3, 224, 224), float32] */, %p14: Tensor[(1, 3, 224, 224), float32] /* ty=Tensor[(1, 3, 224, 224), float32] */, Primitive=1) -> Tensor[(1, 3, 224, 224), float32] {
    add(%p010, %p14) /* ty=Tensor[(1, 3, 224, 224), float32] span=from_string:29:24 */
  } /* ty=fn (Tensor[(1, 3, 224, 224), float32], Tensor[(1, 3, 224, 224), float32]) -> Tensor[(1, 3, 224, 224), float32] */;
  %27 = fn (%p011: Tensor[(1, 3, 224, 224), float32] /* ty=Tensor[(1, 3, 224, 224), float32] */, Primitive=1) -> Tensor[(0, 5, 447, 224), float32] {
    nn.batch_to_space_nd(%p011, block_shape=[2, 2], crops=[[0, 1], [0, 1]]) /* ty=Tensor[(0, 5, 447, 224), float32] span=from_string:29:29 */
  } /* ty=fn (Tensor[(1, 3, 224, 224), float32]) -> Tensor[(0, 5, 447, 224), float32] */;
  %28 = fn (%p012: Tensor[(1, 3, 224, 224), float32] /* ty=Tensor[(1, 3, 224, 224), float32] */, Primitive=1) -> Tensor[(1, 3, 224, 224), float32] {
    nn.relu(%p012) /* ty=Tensor[(1, 3, 224, 224), float32] span=from_string:29:78 */
  } /* ty=fn (Tensor[(1, 3, 224, 224), float32]) -> Tensor[(1, 3, 224, 224), float32] */;
  %29 = fn (%p013: Tensor[(3, 224, 224), float32] /* ty=Tensor[(3, 224, 224), float32] */, %p15: Tensor[(1), int32] /* ty=Tensor[(1), int32] */, Primitive=1) -> Tensor[(224), float32] {
    collapse_sum_to(%p013, %p15, meta[relay.attrs.InitOpAttrs][2]) /* ty=Tensor[(224), float32] span=from_string:29:83 */
  } /* ty=fn (Tensor[(3, 224, 224), float32], Tensor[(1), int32]) -> Tensor[(224), float32] */;
  %32 = fn (%p014: Tensor[(1, 3, 224, 224), float32] /* ty=Tensor[(1, 3, 224, 224), float32] */, Primitive=1) -> Tensor[(3, 224, 224), float32] {
    %30 = add(%p014, 1f /* ty=float32 span=from_string:18:20 */) /* ty=Tensor[(1, 3, 224, 224), float32] span=from_string:19:13 */;
    %31 = exp(%30) /* ty=Tensor[(1, 3, 224, 224), float32] span=from_string:28:17 */;
    squeeze(%31) /* ty=Tensor[(3, 224, 224), float32] span=from_string:29:88 */
  } /* ty=fn (Tensor[(1, 3, 224, 224), float32]) -> Tensor[(3, 224, 224), float32] */;
  %33 = %6(%5) /* ty=Tensor[(1, 3, 224, 224), uint8] */;
  %34 = %7(%5) /* ty=Tensor[(3, 224, 224), float32] */;
  %35 = (%x3, %20) /* ty=(Tensor[(1, 3, 224, 224), float32], (Tensor[(1, 3, 224, 224), float32],)) span=from_string:29:14 */;
  %36 = %23(%x0) /* ty=Tensor[(1, 3, 224, 224), uint8] */;
  %37 = %26(%11, %25) /* ty=Tensor[(1, 3, 224, 224), float32] */;
  %38 = %27(%16) /* ty=Tensor[(0, 5, 447, 224), float32] */;
  %39 = %28(%12) /* ty=Tensor[(1, 3, 224, 224), float32] */;
  %40 = %29(%x1, meta[relay.Constant][2] /* ty=Tensor[(1), int32] span=from_string:27:35 */) /* ty=Tensor[(224), float32] */;
  %41 = %32(%25) /* ty=Tensor[(3, 224, 224), float32] */;
  (%33, %34, %35, %36, %37, %38, 4f /* ty=float32 span=from_string:29:36 */, %39, %40, %41) /* ty=(Tensor[(1, 3, 224, 224), uint8], Tensor[(3, 224, 224), float32], (Tensor[(1, 3, 224, 224), float32], (Tensor[(1, 3, 224, 224), float32],)), Tensor[(1, 3, 224, 224), uint8], Tensor[(1, 3, 224, 224), float32], Tensor[(0, 5, 447, 224), float32], float32, Tensor[(1, 3, 224, 224), float32], Tensor[(224), float32], Tensor[(3, 224, 224), float32]) span=from_string:29:3 */
}

#[metadata]
{
  "root": 1, 
  "nodes": [
    {
      "type_key": ""
    }, 
    {
      "type_key": "Map", 
      "keys": [
        "relay.Constant", 
        "relay.attrs.InitOpAttrs"
      ], 
      "data": [2, 21]
    }, 
    {
      "type_key": "Array", 
      "data": [3, 11, 16]
    }, 
    {
      "type_key": "relay.Constant", 
      "attrs": {
        "_checked_type_": "8", 
        "data": "0", 
        "span": "6", 
        "virtual_device_": "4"
      }
    }, 
    {
      "type_key": "VirtualDevice", 
      "attrs": {
        "device_type_int": "-1", 
        "memory_scope": "5", 
        "target": "0", 
        "virtual_device_id": "-1"
      }
    }, 
    {
      "type_key": "runtime.String"
    }, 
    {
      "type_key": "Span", 
      "attrs": {
        "column": "33", 
        "end_column": "51", 
        "end_line": "9", 
        "line": "9", 
        "source_name": "7"
      }
    }, 
    {
      "type_key": "SourceName", 
      "repr_str": "from_string"
    }, 
    {
      "type_key": "relay.TensorType", 
      "attrs": {
        "dtype": "int32", 
        "shape": "9", 
        "span": "0"
      }
    }, 
    {
      "type_key": "Array", 
      "data": [10]
    }, 
    {
      "type_key": "IntImm", 
      "attrs": {
        "dtype": "int32", 
        "span": "0", 
        "value": "4"
      }
    }, 
    {
      "type_key": "relay.Constant", 
      "attrs": {
        "_checked_type_": "13", 
        "data": "1", 
        "span": "12", 
        "virtual_device_": "4"
      }
    }, 
    {
      "type_key": "Span", 
      "attrs": {
        "column": "33", 
        "end_column": "51", 
        "end_line": "12", 
        "line": "12", 
        "source_name": "7"
      }
    }, 
    {
      "type_key": "relay.TensorType", 
      "attrs": {
        "dtype": "int32", 
        "shape": "14", 
        "span": "0"
      }
    }, 
    {
      "type_key": "Array", 
      "data": [15]
    }, 
    {
      "type_key": "IntImm", 
      "attrs": {
        "dtype": "int32", 
        "span": "0", 
        "value": "4"
      }
    }, 
    {
      "type_key": "relay.Constant", 
      "attrs": {
        "_checked_type_": "18", 
        "data": "2", 
        "span": "17", 
        "virtual_device_": "4"
      }
    }, 
    {
      "type_key": "Span", 
      "attrs": {
        "column": "35", 
        "end_column": "53", 
        "end_line": "27", 
        "line": "27", 
        "source_name": "7"
      }
    }, 
    {
      "type_key": "relay.TensorType", 
      "attrs": {
        "dtype": "int32", 
        "shape": "19", 
        "span": "0"
      }
    }, 
    {
      "type_key": "Array", 
      "data": [20]
    }, 
    {
      "type_key": "IntImm", 
      "attrs": {
        "dtype": "int32", 
        "span": "0", 
        "value": "1"
      }
    }, 
    {
      "type_key": "Array", 
      "data": [22, 28, 30]
    }, 
    {
      "type_key": "relay.attrs.InitOpAttrs", 
      "attrs": {
        "dtype": "", 
        "shape": "23"
      }
    }, 
    {
      "type_key": "Array", 
      "data": [24, 25, 26, 27]
    }, 
    {
      "type_key": "IntImm", 
      "attrs": {
        "dtype": "int32", 
        "span": "0", 
        "value": "1"
      }
    }, 
    {
      "type_key": "IntImm", 
      "attrs": {
        "dtype": "int32", 
        "span": "0", 
        "value": "3"
      }
    }, 
    {
      "type_key": "IntImm", 
      "attrs": {
        "dtype": "int32", 
        "span": "0", 
        "value": "224"
      }
    }, 
    {
      "type_key": "IntImm", 
      "attrs": {
        "dtype": "int32", 
        "span": "0", 
        "value": "224"
      }
    }, 
    {
      "type_key": "relay.attrs.InitOpAttrs", 
      "attrs": {
        "dtype": "", 
        "shape": "29"
      }
    }, 
    {
      "type_key": "Array", 
      "data": [24, 25, 26, 27]
    }, 
    {
      "type_key": "relay.attrs.InitOpAttrs", 
      "attrs": {
        "dtype": "", 
        "shape": "31"
      }
    }, 
    {
      "type_key": "Array", 
      "data": [32]
    }, 
    {
      "type_key": "IntImm", 
      "attrs": {
        "dtype": "int32", 
        "span": "0", 
        "value": "224"
      }
    }
  ], 
  "b64ndarrays": [
    "P6G0lvBAXt0AAAAAAAAAAAEAAAAAAAAAAQAAAAAgAQAEAAAAAAAAABAAAAAAAAAAAQAAAAMAAADgAAAA4AAAAA==", 
    "P6G0lvBAXt0AAAAAAAAAAAEAAAAAAAAAAQAAAAAgAQAEAAAAAAAAABAAAAAAAAAAAQAAAAMAAADgAAAA4AAAAA==", 
    "P6G0lvBAXt0AAAAAAAAAAAEAAAAAAAAAAQAAAAAgAQABAAAAAAAAAAQAAAAAAAAA4AAAAA=="
  ], 
  "attrs": {"tvm_version": "0.13.0"}
}