#[version = "0.0.5"]
def @main(%x0: Tensor[(1, 3, 224, 224), uint8] /* ty=Tensor[(1, 3, 224, 224), uint8] span=from_string:15:24 */, %x1: Tensor[(3, 224, 224), float32] /* ty=Tensor[(3, 224, 224), float32] span=from_string:27:25 */, %x2: Tensor[(224), float32] /* ty=Tensor[(224), float32] */) -> (Tensor[(1, 3, 224, 224), uint8], Tensor[(3, 224, 224), float32], (Tensor[(1, 3, 224, 224), float32], (Tensor[(1, 3, 224, 224), float32],)), Tensor[(1, 3, 224, 224), uint8], Tensor[(1, 3, 224, 224), float32], Tensor[(0, 5, 447, 224), float32], float32, Tensor[(1, 3, 224, 224), float32], Tensor[(224), float32], Tensor[(3, 224, 224), float32]) {
  %0 = qnn.dequantize(%x0, 2f /* ty=float32 span=from_string:3:30 */, 114 /* ty=int32 span=from_string:3:74 */) /* ty=Tensor[(1, 3, 224, 224), float32] span=from_string:10:23 */;
  let %x3: Tensor[(1, 3, 224, 224), float32] /* ty=Tensor[(1, 3, 224, 224), float32] span=from_string:22:10 */ = multiply(%0, %0) /* ty=Tensor[(1, 3, 224, 224), float32] span=from_string:4:115 */;
  let %x4: Tensor[(1, 3, 224, 224), float32] /* ty=Tensor[(1, 3, 224, 224), float32] span=from_string:10:18 */ = ones(shape=[1, 3, 224, 224], dtype="float32") /* ty=Tensor[(1, 3, 224, 224), float32] span=from_string:5:114 */;
  %1 = clip(%0, a_min=0f, a_max=6f) /* ty=Tensor[(1, 3, 224, 224), float32] span=from_string:21:17 */;
  %2 = multiply(%x4, %0) /* ty=Tensor[(1, 3, 224, 224), float32] span=from_string:9:24 */;
  %3 = zeros(shape=[1, 3, 224, 224], dtype="float32") /* ty=Tensor[(1, 3, 224, 224), float32] span=from_string:24:13 */;
  %4 = collapse_sum_to(%2, meta[relay.Constant][0] /* ty=Tensor[(4), int32] span=from_string:9:33 */, meta[relay.attrs.InitOpAttrs][0]) /* ty=Tensor[(1, 3, 224, 224), float32] span=from_string:26:17 */;
  %5 = multiply(%x4, %0) /* ty=Tensor[(1, 3, 224, 224), float32] span=from_string:12:24 */;
  %6 = add(%3, %4) /* ty=Tensor[(1, 3, 224, 224), float32] span=from_string:25:30 */;
  %7 = collapse_sum_to(%5, meta[relay.Constant][1] /* ty=Tensor[(4), int32] span=from_string:12:33 */, meta[relay.attrs.InitOpAttrs][1]) /* ty=Tensor[(1, 3, 224, 224), float32] span=from_string:13:16 */;
  %8 = add(%6, %7) /* ty=Tensor[(1, 3, 224, 224), float32] span=from_string:14:9 */;
  %9 = (%8,) /* ty=(Tensor[(1, 3, 224, 224), float32],) span=from_string:22:15 */;
  %10 = ones(shape=[1, 3, 224, 224], dtype="float32") /* ty=Tensor[(1, 3, 224, 224), float32] span=from_string:24:17 */;
  %11 = add(%10, 1f /* ty=float32 span=from_string:18:20 */) /* ty=Tensor[(1, 3, 224, 224), float32] span=from_string:19:18 */;
  %12 = fast_exp(%11) /* ty=Tensor[(1, 3, 224, 224), float32] span=from_string:28:17 */;
  %13 = clip(%x0, a_min=114f, a_max=117f) /* ty=Tensor[(1, 3, 224, 224), uint8] */;
  %14 = reshape(%1, newshape=[3, 224, 224]) /* ty=Tensor[(3, 224, 224), float32] span=from_string:29:9 */;
  %15 = (%x3, %9) /* ty=(Tensor[(1, 3, 224, 224), float32], (Tensor[(1, 3, 224, 224), float32],)) span=from_string:29:14 */;
  %16 = clip(%x0, a_min=114f, a_max=117f) /* ty=Tensor[(1, 3, 224, 224), uint8] */;
  %17 = add(%3, %10) /* ty=Tensor[(1, 3, 224, 224), float32] span=from_string:29:24 */;
  %18 = nn.batch_to_space_nd(%6, block_shape=[2, 2], crops=[[0, 1], [0, 1]]) /* ty=Tensor[(0, 5, 447, 224), float32] span=from_string:29:29 */;
  %19 = nn.relu(%4) /* ty=Tensor[(1, 3, 224, 224), float32] span=from_string:29:78 */;
  %20 = collapse_sum_to(%x1, meta[relay.Constant][2] /* ty=Tensor[(1), int32] span=from_string:27:35 */, meta[relay.attrs.InitOpAttrs][2]) /* ty=Tensor[(224), float32] span=from_string:29:83 */;
  %21 = squeeze(%12) /* ty=Tensor[(3, 224, 224), float32] span=from_string:29:88 */;
  (%13, %14, %15, %16, %17, %18, 4f /* ty=float32 span=from_string:29:36 */, %19, %20, %21) /* ty=(Tensor[(1, 3, 224, 224), uint8], Tensor[(3, 224, 224), float32], (Tensor[(1, 3, 224, 224), float32], (Tensor[(1, 3, 224, 224), float32],)), Tensor[(1, 3, 224, 224), uint8], Tensor[(1, 3, 224, 224), float32], Tensor[(0, 5, 447, 224), float32], float32, Tensor[(1, 3, 224, 224), float32], Tensor[(224), float32], Tensor[(3, 224, 224), float32]) span=from_string:29:3 */
}

#[metadata]
{
  "root": 1, 
  "nodes": [
    {
      "type_key": ""
    }, 
    {
      "type_key": "Map", 
      "keys": [
        "relay.attrs.InitOpAttrs", 
        "relay.Constant"
      ], 
      "data": [2, 14]
    }, 
    {
      "type_key": "Array", 
      "data": [3, 9, 11]
    }, 
    {
      "type_key": "relay.attrs.InitOpAttrs", 
      "attrs": {
        "dtype": "", 
        "shape": "4"
      }
    }, 
    {
      "type_key": "Array", 
      "data": [5, 6, 7, 8]
    }, 
    {
      "type_key": "IntImm", 
      "attrs": {
        "dtype": "int32", 
        "span": "0", 
        "value": "1"
      }
    }, 
    {
      "type_key": "IntImm", 
      "attrs": {
        "dtype": "int32", 
        "span": "0", 
        "value": "3"
      }
    }, 
    {
      "type_key": "IntImm", 
      "attrs": {
        "dtype": "int32", 
        "span": "0", 
        "value": "224"
      }
    }, 
    {
      "type_key": "IntImm", 
      "attrs": {
        "dtype": "int32", 
        "span": "0", 
        "value": "224"
      }
    }, 
    {
      "type_key": "relay.attrs.InitOpAttrs", 
      "attrs": {
        "dtype": "", 
        "shape": "10"
      }
    }, 
    {
      "type_key": "Array", 
      "data": [5, 6, 7, 8]
    }, 
    {
      "type_key": "relay.attrs.InitOpAttrs", 
      "attrs": {
        "dtype": "", 
        "shape": "12"
      }
    }, 
    {
      "type_key": "Array", 
      "data": [13]
    }, 
    {
      "type_key": "IntImm", 
      "attrs": {
        "dtype": "int32", 
        "span": "0", 
        "value": "224"
      }
    }, 
    {
      "type_key": "Array", 
      "data": [15, 23, 28]
    }, 
    {
      "type_key": "relay.Constant", 
      "attrs": {
        "_checked_type_": "20", 
        "data": "0", 
        "span": "18", 
        "virtual_device_": "16"
      }
    }, 
    {
      "type_key": "VirtualDevice", 
      "attrs": {
        "device_type_int": "-1", 
        "memory_scope": "17", 
        "target": "0", 
        "virtual_device_id": "-1"
      }
    }, 
    {
      "type_key": "runtime.String"
    }, 
    {
      "type_key": "Span", 
      "attrs": {
        "column": "33", 
        "end_column": "51", 
        "end_line": "9", 
        "line": "9", 
        "source_name": "19"
      }
    }, 
    {
      "type_key": "SourceName", 
      "repr_str": "from_string"
    }, 
    {
      "type_key": "relay.TensorType", 
      "attrs": {
        "dtype": "int32", 
        "shape": "21", 
        "span": "0"
      }
    }, 
    {
      "type_key": "Array", 
      "data": [22]
    }, 
    {
      "type_key": "IntImm", 
      "attrs": {
        "dtype": "int32", 
        "span": "0", 
        "value": "4"
      }
    }, 
    {
      "type_key": "relay.Constant", 
      "attrs": {
        "_checked_type_": "25", 
        "data": "1", 
        "span": "24", 
        "virtual_device_": "16"
      }
    }, 
    {
      "type_key": "Span", 
      "attrs": {
        "column": "33", 
        "end_column": "51", 
        "end_line": "12", 
        "line": "12", 
        "source_name": "19"
      }
    }, 
    {
      "type_key": "relay.TensorType", 
      "attrs": {
        "dtype": "int32", 
        "shape": "26", 
        "span": "0"
      }
    }, 
    {
      "type_key": "Array", 
      "data": [27]
    }, 
    {
      "type_key": "IntImm", 
      "attrs": {
        "dtype": "int32", 
        "span": "0", 
        "value": "4"
      }
    }, 
    {
      "type_key": "relay.Constant", 
      "attrs": {
        "_checked_type_": "30", 
        "data": "2", 
        "span": "29", 
        "virtual_device_": "16"
      }
    }, 
    {
      "type_key": "Span", 
      "attrs": {
        "column": "35", 
        "end_column": "53", 
        "end_line": "27", 
        "line": "27", 
        "source_name": "19"
      }
    }, 
    {
      "type_key": "relay.TensorType", 
      "attrs": {
        "dtype": "int32", 
        "shape": "31", 
        "span": "0"
      }
    }, 
    {
      "type_key": "Array", 
      "data": [32]
    }, 
    {
      "type_key": "IntImm", 
      "attrs": {
        "dtype": "int32", 
        "span": "0", 
        "value": "1"
      }
    }
  ], 
  "b64ndarrays": [
    "P6G0lvBAXt0AAAAAAAAAAAEAAAAAAAAAAQAAAAAgAQAEAAAAAAAAABAAAAAAAAAAAQAAAAMAAADgAAAA4AAAAA==", 
    "P6G0lvBAXt0AAAAAAAAAAAEAAAAAAAAAAQAAAAAgAQAEAAAAAAAAABAAAAAAAAAAAQAAAAMAAADgAAAA4AAAAA==", 
    "P6G0lvBAXt0AAAAAAAAAAAEAAAAAAAAAAQAAAAAgAQABAAAAAAAAAAQAAAAAAAAA4AAAAA=="
  ], 
  "attrs": {"tvm_version": "0.13.0"}
}