#[version = "0.0.5"]
def @main(%x0: Tensor[(1, 3, 224, 224), uint8] /* ty=Tensor[(1, 3, 224, 224), uint8] span=from_string:62:121 */, %x1: Tensor[(3, 224, 224), float32] /* ty=Tensor[(3, 224, 224), float32] span=from_string:95:103 */, %x2: Tensor[(224), float32] /* ty=Tensor[(224), float32] span=from_string:95:108 */) -> (Tensor[(1, 3, 224, 224), uint8], Tensor[(3, 224, 224), float32], (Tensor[(1, 3, 224, 224), float32], (Tensor[(1, 3, 224, 224), float32],)), Tensor[(1, 3, 224, 224), uint8], Tensor[(1, 3, 224, 224), float32], Tensor[(0, 5, 447, 224), float32], float32, Tensor[(1, 3, 224, 224), float32], Tensor[(224), float32], Tensor[(3, 224, 224), float32]) {
  let %x_01: fn (Tensor[(1, 3, 224, 224), uint8], float32, int32) -> Tensor[(1, 3, 224, 224), float32] /* ty=fn (Tensor[(1, 3, 224, 224), uint8], float32, int32) -> Tensor[(1, 3, 224, 224), float32] span=from_string:8:116 */ = fn (%p0: Tensor[(1, 3, 224, 224), uint8] /* ty=Tensor[(1, 3, 224, 224), uint8] span=from_string:6:20 */, %p1: float32 /* ty=float32 span=from_string:6:25 */, %p2: int32 /* ty=int32 span=from_string:6:30 */, Primitive=1) -> Tensor[(1, 3, 224, 224), float32] {
    qnn.dequantize(%p0, %p1, %p2) /* ty=Tensor[(1, 3, 224, 224), float32] span=from_string:6:5 */
  } /* ty=fn (Tensor[(1, 3, 224, 224), uint8], float32, int32) -> Tensor[(1, 3, 224, 224), float32] */;
  let %x_2: Tensor[(1, 3, 224, 224), float32] /* ty=Tensor[(1, 3, 224, 224), float32] span=from_string:52:133 */ = %x_01(%x0, 2f /* ty=float32 span=from_string:3:65 */, 114 /* ty=int32 span=from_string:4:64 */) /* ty=Tensor[(1, 3, 224, 224), float32] span=from_string:8:116 */;
  let %x_11: fn (Tensor[(1, 3, 224, 224), float32]) -> Tensor[(1, 3, 224, 224), float32] /* ty=fn (Tensor[(1, 3, 224, 224), float32]) -> Tensor[(1, 3, 224, 224), float32] span=from_string:12:115 */ = fn (%p01: Tensor[(1, 3, 224, 224), float32] /* ty=Tensor[(1, 3, 224, 224), float32] span=from_string:10:21 */, Primitive=1) -> Tensor[(1, 3, 224, 224), float32] {
    multiply(%p01, %p01) /* ty=Tensor[(1, 3, 224, 224), float32] span=from_string:10:6 */
  } /* ty=fn (Tensor[(1, 3, 224, 224), float32]) -> Tensor[(1, 3, 224, 224), float32] */;
  let %x3: Tensor[(1, 3, 224, 224), float32] /* ty=Tensor[(1, 3, 224, 224), float32] span=from_string:58:199 */ = %x_11(%x_2) /* ty=Tensor[(1, 3, 224, 224), float32] span=from_string:12:115 */;
  let %x_21: fn (Tensor[(1, 3, 224, 224), float32]) -> Tensor[(1, 3, 224, 224), float32] /* ty=fn (Tensor[(1, 3, 224, 224), float32]) -> Tensor[(1, 3, 224, 224), float32] span=from_string:16:115 */ = fn (%p02: Tensor[(1, 3, 224, 224), float32] /* ty=Tensor[(1, 3, 224, 224), float32] */, Primitive=1) -> Tensor[(1, 3, 224, 224), float32] {
    ones(shape=[1, 3, 224, 224], dtype="float32") /* ty=Tensor[(1, 3, 224, 224), float32] span=from_string:14:5 */
  } /* ty=fn (Tensor[(1, 3, 224, 224), float32]) -> Tensor[(1, 3, 224, 224), float32] */;
  let %x4: Tensor[(1, 3, 224, 224), float32] /* ty=Tensor[(1, 3, 224, 224), float32] span=from_string:48:124 */ = %x_21(%x3) /* ty=Tensor[(1, 3, 224, 224), float32] span=from_string:16:115 */;
  let %x_3: fn (Tensor[(1, 3, 224, 224), uint8]) -> Tensor[(1, 3, 224, 224), uint8] /* ty=fn (Tensor[(1, 3, 224, 224), uint8]) -> Tensor[(1, 3, 224, 224), uint8] span=from_string:20:114 */ = fn (%p03: Tensor[(1, 3, 224, 224), uint8] /* ty=Tensor[(1, 3, 224, 224), uint8] span=from_string:18:10 */, Primitive=1) -> Tensor[(1, 3, 224, 224), uint8] {
    clip(%p03, a_min=114f, a_max=117f) /* ty=Tensor[(1, 3, 224, 224), uint8] span=from_string:18:5 */
  } /* ty=fn (Tensor[(1, 3, 224, 224), uint8]) -> Tensor[(1, 3, 224, 224), uint8] */;
  let %x_31: Tensor[(1, 3, 224, 224), uint8] /* ty=Tensor[(1, 3, 224, 224), uint8] span=from_string:109:739 */ = %x_3(%x0) /* ty=Tensor[(1, 3, 224, 224), uint8] span=from_string:20:114 */;
  let %x_4: fn (Tensor[(1, 3, 224, 224), float32]) -> Tensor[(1, 3, 224, 224), float32] /* ty=fn (Tensor[(1, 3, 224, 224), float32]) -> Tensor[(1, 3, 224, 224), float32] span=from_string:24:117 */ = fn (%p04: Tensor[(1, 3, 224, 224), float32] /* ty=Tensor[(1, 3, 224, 224), float32] span=from_string:22:10 */, Primitive=1) -> Tensor[(1, 3, 224, 224), float32] {
    clip(%p04, a_min=0f, a_max=6f) /* ty=Tensor[(1, 3, 224, 224), float32] span=from_string:22:5 */
  } /* ty=fn (Tensor[(1, 3, 224, 224), float32]) -> Tensor[(1, 3, 224, 224), float32] */;
  let %x_41: Tensor[(1, 3, 224, 224), float32] /* ty=Tensor[(1, 3, 224, 224), float32] span=from_string:28:117 */ = %x_4(%x_2) /* ty=Tensor[(1, 3, 224, 224), float32] span=from_string:24:117 */;
  let %x_5: fn (Tensor[(1, 3, 224, 224), float32]) -> Tensor[(3, 224, 224), float32] /* ty=fn (Tensor[(1, 3, 224, 224), float32]) -> Tensor[(3, 224, 224), float32] span=from_string:28:112 */ = fn (%p05: Tensor[(1, 3, 224, 224), float32] /* ty=Tensor[(1, 3, 224, 224), float32] span=from_string:26:13 */, Primitive=1, relay.reshape_only=1) -> Tensor[(3, 224, 224), float32] {
    reshape(%p05, newshape=[3, 224, 224]) /* ty=Tensor[(3, 224, 224), float32] span=from_string:26:5 */
  } /* ty=fn (Tensor[(1, 3, 224, 224), float32]) -> Tensor[(3, 224, 224), float32] */;
  let %x_51: Tensor[(3, 224, 224), float32] /* ty=Tensor[(3, 224, 224), float32] span=from_string:109:746 */ = %x_5(%x_41) /* ty=Tensor[(3, 224, 224), float32] span=from_string:28:112 */;
  let %x_6: fn (Tensor[(1, 3, 224, 224), float32]) -> Tensor[(1, 3, 224, 224), float32] /* ty=fn (Tensor[(1, 3, 224, 224), float32]) -> Tensor[(1, 3, 224, 224), float32] span=from_string:32:117 */ = fn (%p06: Tensor[(1, 3, 224, 224), float32] /* ty=Tensor[(1, 3, 224, 224), float32] */, Primitive=1) -> Tensor[(1, 3, 224, 224), float32] {
    zeros(shape=[1, 3, 224, 224], dtype="float32") /* ty=Tensor[(1, 3, 224, 224), float32] span=from_string:30:5 */
  } /* ty=fn (Tensor[(1, 3, 224, 224), float32]) -> Tensor[(1, 3, 224, 224), float32] */;
  let %x_61: Tensor[(1, 3, 224, 224), float32] /* ty=Tensor[(1, 3, 224, 224), float32] span=from_string:70:125 */ = %x_6(%x_2) /* ty=Tensor[(1, 3, 224, 224), float32] span=from_string:32:117 */;
  let %x_7: fn (Tensor[(1, 3, 224, 224), float32], Tensor[(1, 3, 224, 224), float32]) -> Tensor[(1, 3, 224, 224), float32] /* ty=fn (Tensor[(1, 3, 224, 224), float32], Tensor[(1, 3, 224, 224), float32]) -> Tensor[(1, 3, 224, 224), float32] span=from_string:36:117 */ = fn (%p07: Tensor[(1, 3, 224, 224), float32] /* ty=Tensor[(1, 3, 224, 224), float32] span=from_string:34:15 */, %p11: Tensor[(1, 3, 224, 224), float32] /* ty=Tensor[(1, 3, 224, 224), float32] span=from_string:34:21 */, Primitive=1) -> Tensor[(1, 3, 224, 224), float32] {
    multiply(%p07, %p11) /* ty=Tensor[(1, 3, 224, 224), float32] span=from_string:34:6 */
  } /* ty=fn (Tensor[(1, 3, 224, 224), float32], Tensor[(1, 3, 224, 224), float32]) -> Tensor[(1, 3, 224, 224), float32] */;
  let %x_71: Tensor[(1, 3, 224, 224), float32] /* ty=Tensor[(1, 3, 224, 224), float32] span=from_string:40:122 */ = %x_7(%x4, %x_2) /* ty=Tensor[(1, 3, 224, 224), float32] span=from_string:36:117 */;
  let %x_8: fn (Tensor[(1, 3, 224, 224), float32], Tensor[(1, 3, 224, 224), float32]) -> Tensor[(1, 3, 224, 224), float32] /* ty=fn (Tensor[(1, 3, 224, 224), float32], Tensor[(1, 3, 224, 224), float32]) -> Tensor[(1, 3, 224, 224), float32] span=from_string:40:117 */ = fn (%p08: Tensor[(1, 3, 224, 224), float32] /* ty=Tensor[(1, 3, 224, 224), float32] span=from_string:38:21 */, %p12: Tensor[(1, 3, 224, 224), float32] /* ty=Tensor[(1, 3, 224, 224), float32] */, Primitive=1) -> Tensor[(1, 3, 224, 224), float32] {
    collapse_sum_to(%p08, meta[relay.Constant][0] /* ty=Tensor[(4), int32] span=from_string:38:32 */, meta[relay.attrs.InitOpAttrs][0]) /* ty=Tensor[(1, 3, 224, 224), float32] span=from_string:38:5 */
  } /* ty=fn (Tensor[(1, 3, 224, 224), float32], Tensor[(1, 3, 224, 224), float32]) -> Tensor[(1, 3, 224, 224), float32] */;
  let %x_81: Tensor[(1, 3, 224, 224), float32] /* ty=Tensor[(1, 3, 224, 224), float32] span=from_string:79:124 */ = %x_8(%x_71, %x_2) /* ty=Tensor[(1, 3, 224, 224), float32] span=from_string:40:117 */;
  let %x_9: fn (Tensor[(1, 3, 224, 224), float32], Tensor[(1, 3, 224, 224), float32]) -> Tensor[(1, 3, 224, 224), float32] /* ty=fn (Tensor[(1, 3, 224, 224), float32], Tensor[(1, 3, 224, 224), float32]) -> Tensor[(1, 3, 224, 224), float32] span=from_string:44:117 */ = fn (%p09: Tensor[(1, 3, 224, 224), float32] /* ty=Tensor[(1, 3, 224, 224), float32] span=from_string:42:9 */, %p13: Tensor[(1, 3, 224, 224), float32] /* ty=Tensor[(1, 3, 224, 224), float32] span=from_string:42:15 */, Primitive=1) -> Tensor[(1, 3, 224, 224), float32] {
    add(%p09, %p13) /* ty=Tensor[(1, 3, 224, 224), float32] span=from_string:42:5 */
  } /* ty=fn (Tensor[(1, 3, 224, 224), float32], Tensor[(1, 3, 224, 224), float32]) -> Tensor[(1, 3, 224, 224), float32] */;
  let %x_91: Tensor[(1, 3, 224, 224), float32] /* ty=Tensor[(1, 3, 224, 224), float32] span=from_string:74:125 */ = %x_9(%x_61, %x_81) /* ty=Tensor[(1, 3, 224, 224), float32] span=from_string:44:117 */;
  let %x_10: fn (Tensor[(1, 3, 224, 224), float32], Tensor[(1, 3, 224, 224), float32]) -> Tensor[(1, 3, 224, 224), float32] /* ty=fn (Tensor[(1, 3, 224, 224), float32], Tensor[(1, 3, 224, 224), float32]) -> Tensor[(1, 3, 224, 224), float32] span=from_string:48:118 */ = fn (%p010: Tensor[(1, 3, 224, 224), float32] /* ty=Tensor[(1, 3, 224, 224), float32] span=from_string:46:15 */, %p14: Tensor[(1, 3, 224, 224), float32] /* ty=Tensor[(1, 3, 224, 224), float32] span=from_string:46:22 */, Primitive=1) -> Tensor[(1, 3, 224, 224), float32] {
    multiply(%p010, %p14) /* ty=Tensor[(1, 3, 224, 224), float32] span=from_string:46:6 */
  } /* ty=fn (Tensor[(1, 3, 224, 224), float32], Tensor[(1, 3, 224, 224), float32]) -> Tensor[(1, 3, 224, 224), float32] */;
  let %x_101: Tensor[(1, 3, 224, 224), float32] /* ty=Tensor[(1, 3, 224, 224), float32] span=from_string:52:125 */ = %x_10(%x4, %x_2) /* ty=Tensor[(1, 3, 224, 224), float32] span=from_string:48:118 */;
  let %x_111: fn (Tensor[(1, 3, 224, 224), float32], Tensor[(1, 3, 224, 224), float32]) -> Tensor[(1, 3, 224, 224), float32] /* ty=fn (Tensor[(1, 3, 224, 224), float32], Tensor[(1, 3, 224, 224), float32]) -> Tensor[(1, 3, 224, 224), float32] span=from_string:52:118 */ = fn (%p011: Tensor[(1, 3, 224, 224), float32] /* ty=Tensor[(1, 3, 224, 224), float32] span=from_string:50:21 */, %p15: Tensor[(1, 3, 224, 224), float32] /* ty=Tensor[(1, 3, 224, 224), float32] */, Primitive=1) -> Tensor[(1, 3, 224, 224), float32] {
    collapse_sum_to(%p011, meta[relay.Constant][1] /* ty=Tensor[(4), int32] span=from_string:50:33 */, meta[relay.attrs.InitOpAttrs][1]) /* ty=Tensor[(1, 3, 224, 224), float32] span=from_string:50:5 */
  } /* ty=fn (Tensor[(1, 3, 224, 224), float32], Tensor[(1, 3, 224, 224), float32]) -> Tensor[(1, 3, 224, 224), float32] */;
  let %x_112: Tensor[(1, 3, 224, 224), float32] /* ty=Tensor[(1, 3, 224, 224), float32] span=from_string:56:131 */ = %x_111(%x_101, %x_2) /* ty=Tensor[(1, 3, 224, 224), float32] span=from_string:52:118 */;
  let %x_12: fn (Tensor[(1, 3, 224, 224), float32], Tensor[(1, 3, 224, 224), float32]) -> Tensor[(1, 3, 224, 224), float32] /* ty=fn (Tensor[(1, 3, 224, 224), float32], Tensor[(1, 3, 224, 224), float32]) -> Tensor[(1, 3, 224, 224), float32] span=from_string:56:118 */ = fn (%p012: Tensor[(1, 3, 224, 224), float32] /* ty=Tensor[(1, 3, 224, 224), float32] span=from_string:54:9 */, %p16: Tensor[(1, 3, 224, 224), float32] /* ty=Tensor[(1, 3, 224, 224), float32] span=from_string:54:16 */, Primitive=1) -> Tensor[(1, 3, 224, 224), float32] {
    add(%p012, %p16) /* ty=Tensor[(1, 3, 224, 224), float32] span=from_string:54:5 */
  } /* ty=fn (Tensor[(1, 3, 224, 224), float32], Tensor[(1, 3, 224, 224), float32]) -> Tensor[(1, 3, 224, 224), float32] */;
  let %x_121: Tensor[(1, 3, 224, 224), float32] /* ty=Tensor[(1, 3, 224, 224), float32] span=from_string:57:124 */ = %x_12(%x_91, %x_112) /* ty=Tensor[(1, 3, 224, 224), float32] span=from_string:56:118 */;
  let %x_13: (Tensor[(1, 3, 224, 224), float32],) /* ty=(Tensor[(1, 3, 224, 224), float32],) span=from_string:58:204 */ = (%x_121,) /* ty=(Tensor[(1, 3, 224, 224), float32],) span=from_string:57:123 */;
  let %x_14: (Tensor[(1, 3, 224, 224), float32], (Tensor[(1, 3, 224, 224), float32],)) /* ty=(Tensor[(1, 3, 224, 224), float32], (Tensor[(1, 3, 224, 224), float32],)) span=from_string:109:753 */ = (%x3, %x_13) /* ty=(Tensor[(1, 3, 224, 224), float32], (Tensor[(1, 3, 224, 224), float32],)) span=from_string:58:198 */;
  let %x_131: fn (Tensor[(1, 3, 224, 224), uint8]) -> Tensor[(1, 3, 224, 224), uint8] /* ty=fn (Tensor[(1, 3, 224, 224), uint8]) -> Tensor[(1, 3, 224, 224), uint8] span=from_string:62:114 */ = fn (%p013: Tensor[(1, 3, 224, 224), uint8] /* ty=Tensor[(1, 3, 224, 224), uint8] span=from_string:60:10 */, Primitive=1) -> Tensor[(1, 3, 224, 224), uint8] {
    clip(%p013, a_min=114f, a_max=117f) /* ty=Tensor[(1, 3, 224, 224), uint8] span=from_string:60:5 */
  } /* ty=fn (Tensor[(1, 3, 224, 224), uint8]) -> Tensor[(1, 3, 224, 224), uint8] */;
  let %x_15: Tensor[(1, 3, 224, 224), uint8] /* ty=Tensor[(1, 3, 224, 224), uint8] span=from_string:109:760 */ = %x_131(%x0) /* ty=Tensor[(1, 3, 224, 224), uint8] span=from_string:62:114 */;
  let %x_141: fn (Tensor[(1, 3, 224, 224), float32]) -> Tensor[(1, 3, 224, 224), float32] /* ty=fn (Tensor[(1, 3, 224, 224), float32]) -> Tensor[(1, 3, 224, 224), float32] span=from_string:66:118 */ = fn (%p014: Tensor[(1, 3, 224, 224), float32] /* ty=Tensor[(1, 3, 224, 224), float32] */, Primitive=1) -> Tensor[(1, 3, 224, 224), float32] {
    ones(shape=[1, 3, 224, 224], dtype="float32") /* ty=Tensor[(1, 3, 224, 224), float32] span=from_string:64:5 */
  } /* ty=fn (Tensor[(1, 3, 224, 224), float32]) -> Tensor[(1, 3, 224, 224), float32] */;
  let %x_16: Tensor[(1, 3, 224, 224), float32] /* ty=Tensor[(1, 3, 224, 224), float32] span=from_string:100:125 */ = %x_141(%x_61) /* ty=Tensor[(1, 3, 224, 224), float32] span=from_string:66:118 */;
  let %x_151: fn (Tensor[(1, 3, 224, 224), float32], Tensor[(1, 3, 224, 224), float32]) -> Tensor[(1, 3, 224, 224), float32] /* ty=fn (Tensor[(1, 3, 224, 224), float32], Tensor[(1, 3, 224, 224), float32]) -> Tensor[(1, 3, 224, 224), float32] span=from_string:70:118 */ = fn (%p015: Tensor[(1, 3, 224, 224), float32] /* ty=Tensor[(1, 3, 224, 224), float32] span=from_string:68:9 */, %p17: Tensor[(1, 3, 224, 224), float32] /* ty=Tensor[(1, 3, 224, 224), float32] span=from_string:68:16 */, Primitive=1) -> Tensor[(1, 3, 224, 224), float32] {
    add(%p015, %p17) /* ty=Tensor[(1, 3, 224, 224), float32] span=from_string:68:5 */
  } /* ty=fn (Tensor[(1, 3, 224, 224), float32], Tensor[(1, 3, 224, 224), float32]) -> Tensor[(1, 3, 224, 224), float32] */;
  let %x_17: Tensor[(1, 3, 224, 224), float32] /* ty=Tensor[(1, 3, 224, 224), float32] span=from_string:109:767 */ = %x_151(%x_61, %x_16) /* ty=Tensor[(1, 3, 224, 224), float32] span=from_string:70:118 */;
  let %x_161: fn (Tensor[(1, 3, 224, 224), float32]) -> Tensor[(0, 5, 447, 224), float32] /* ty=fn (Tensor[(1, 3, 224, 224), float32]) -> Tensor[(0, 5, 447, 224), float32] span=from_string:74:118 */ = fn (%p016: Tensor[(1, 3, 224, 224), float32] /* ty=Tensor[(1, 3, 224, 224), float32] span=from_string:72:26 */, Primitive=1) -> Tensor[(0, 5, 447, 224), float32] {
    nn.batch_to_space_nd(%p016, block_shape=[2, 2], crops=[[0, 1], [0, 1]]) /* ty=Tensor[(0, 5, 447, 224), float32] span=from_string:72:5 */
  } /* ty=fn (Tensor[(1, 3, 224, 224), float32]) -> Tensor[(0, 5, 447, 224), float32] */;
  let %x_18: Tensor[(0, 5, 447, 224), float32] /* ty=Tensor[(0, 5, 447, 224), float32] span=from_string:109:774 */ = %x_161(%x_91) /* ty=Tensor[(0, 5, 447, 224), float32] span=from_string:74:118 */;
  let %x_171: fn (Tensor[(1, 3, 224, 224), float32]) -> Tensor[(1, 3, 224, 224), float32] /* ty=fn (Tensor[(1, 3, 224, 224), float32]) -> Tensor[(1, 3, 224, 224), float32] span=from_string:79:117 */ = fn (%p017: Tensor[(1, 3, 224, 224), float32] /* ty=Tensor[(1, 3, 224, 224), float32] span=from_string:77:13 */, Primitive=1) -> Tensor[(1, 3, 224, 224), float32] {
    nn.relu(%p017) /* ty=Tensor[(1, 3, 224, 224), float32] span=from_string:77:5 */
  } /* ty=fn (Tensor[(1, 3, 224, 224), float32]) -> Tensor[(1, 3, 224, 224), float32] */;
  let %x_20: Tensor[(1, 3, 224, 224), float32] /* ty=Tensor[(1, 3, 224, 224), float32] span=from_string:83:125 */ = %x_171(%x_81) /* ty=Tensor[(1, 3, 224, 224), float32] span=from_string:79:117 */;
  let %x_181: fn (Tensor[(1, 3, 224, 224), float32]) -> Tensor[(1, 224, 224, 3), float32] /* ty=fn (Tensor[(1, 3, 224, 224), float32]) -> Tensor[(1, 224, 224, 3), float32] span=from_string:83:118 */ = fn (%p018: Tensor[(1, 3, 224, 224), float32] /* ty=Tensor[(1, 3, 224, 224), float32] span=from_string:81:15 */, Primitive=1) -> Tensor[(1, 224, 224, 3), float32] {
    transpose(%p018, axes=[0, 2, 3, 1]) /* ty=Tensor[(1, 224, 224, 3), float32] span=from_string:81:5 */
  } /* ty=fn (Tensor[(1, 3, 224, 224), float32]) -> Tensor[(1, 224, 224, 3), float32] */;
  let %x_211: Tensor[(1, 224, 224, 3), float32] /* ty=Tensor[(1, 224, 224, 3), float32] span=from_string:87:124 */ = %x_181(%x_20) /* ty=Tensor[(1, 224, 224, 3), float32] span=from_string:83:118 */;
  let %x_191: fn (Tensor[(1, 224, 224, 3), float32]) -> Tensor[(224, 224, 3, 1), float32] /* ty=fn (Tensor[(1, 224, 224, 3), float32]) -> Tensor[(224, 224, 3, 1), float32] span=from_string:87:117 */ = fn (%p019: Tensor[(1, 224, 224, 3), float32] /* ty=Tensor[(1, 224, 224, 3), float32] span=from_string:85:15 */, Primitive=1) -> Tensor[(224, 224, 3, 1), float32] {
    transpose(%p019, axes=[1, 2, 3, 0]) /* ty=Tensor[(224, 224, 3, 1), float32] span=from_string:85:5 */
  } /* ty=fn (Tensor[(1, 224, 224, 3), float32]) -> Tensor[(224, 224, 3, 1), float32] */;
  let %x_22: Tensor[(224, 224, 3, 1), float32] /* ty=Tensor[(224, 224, 3, 1), float32] span=from_string:91:125 */ = %x_191(%x_211) /* ty=Tensor[(224, 224, 3, 1), float32] span=from_string:87:117 */;
  let %x_201: fn (Tensor[(224, 224, 3, 1), float32]) -> Tensor[(1, 3, 224, 224), float32] /* ty=fn (Tensor[(224, 224, 3, 1), float32]) -> Tensor[(1, 3, 224, 224), float32] span=from_string:91:118 */ = fn (%p020: Tensor[(224, 224, 3, 1), float32] /* ty=Tensor[(224, 224, 3, 1), float32] span=from_string:89:15 */, Primitive=1) -> Tensor[(1, 3, 224, 224), float32] {
    transpose(%p020, axes=[3, 2, 0, 1]) /* ty=Tensor[(1, 3, 224, 224), float32] span=from_string:89:5 */
  } /* ty=fn (Tensor[(224, 224, 3, 1), float32]) -> Tensor[(1, 3, 224, 224), float32] */;
  let %x_23: Tensor[(1, 3, 224, 224), float32] /* ty=Tensor[(1, 3, 224, 224), float32] span=from_string:109:788 */ = %x_201(%x_22) /* ty=Tensor[(1, 3, 224, 224), float32] span=from_string:91:118 */;
  let %x_212: fn (Tensor[(3, 224, 224), float32], Tensor[(224), float32]) -> Tensor[(224), float32] /* ty=fn (Tensor[(3, 224, 224), float32], Tensor[(224), float32]) -> Tensor[(224), float32] span=from_string:95:96 */ = fn (%p021: Tensor[(3, 224, 224), float32] /* ty=Tensor[(3, 224, 224), float32] span=from_string:93:21 */, %p18: Tensor[(224), float32] /* ty=Tensor[(224), float32] */, Primitive=1) -> Tensor[(224), float32] {
    collapse_sum_to(%p021, meta[relay.Constant][2] /* ty=Tensor[(1), int32] span=from_string:93:33 */, meta[relay.attrs.InitOpAttrs][2]) /* ty=Tensor[(224), float32] span=from_string:93:5 */
  } /* ty=fn (Tensor[(3, 224, 224), float32], Tensor[(224), float32]) -> Tensor[(224), float32] */;
  let %x_24: Tensor[(224), float32] /* ty=Tensor[(224), float32] span=from_string:109:795 */ = %x_212(%x1, %x2) /* ty=Tensor[(224), float32] span=from_string:95:96 */;
  let %x_221: fn (Tensor[(1, 3, 224, 224), float32], float32) -> Tensor[(1, 3, 224, 224), float32] /* ty=fn (Tensor[(1, 3, 224, 224), float32], float32) -> Tensor[(1, 3, 224, 224), float32] span=from_string:100:118 */ = fn (%p022: Tensor[(1, 3, 224, 224), float32] /* ty=Tensor[(1, 3, 224, 224), float32] span=from_string:98:9 */, %p19: float32 /* ty=float32 span=from_string:98:16 */, Primitive=1) -> Tensor[(1, 3, 224, 224), float32] {
    add(%p022, %p19) /* ty=Tensor[(1, 3, 224, 224), float32] span=from_string:98:5 */
  } /* ty=fn (Tensor[(1, 3, 224, 224), float32], float32) -> Tensor[(1, 3, 224, 224), float32] */;
  let %x_26: Tensor[(1, 3, 224, 224), float32] /* ty=Tensor[(1, 3, 224, 224), float32] span=from_string:104:125 */ = %x_221(%x_16, 1f /* ty=float32 span=from_string:96:68 */) /* ty=Tensor[(1, 3, 224, 224), float32] span=from_string:100:118 */;
  let %x_231: fn (Tensor[(1, 3, 224, 224), float32]) -> Tensor[(1, 3, 224, 224), float32] /* ty=fn (Tensor[(1, 3, 224, 224), float32]) -> Tensor[(1, 3, 224, 224), float32] span=from_string:104:118 */ = fn (%p023: Tensor[(1, 3, 224, 224), float32] /* ty=Tensor[(1, 3, 224, 224), float32] span=from_string:102:14 */, Primitive=1) -> Tensor[(1, 3, 224, 224), float32] {
    fast_exp(%p023) /* ty=Tensor[(1, 3, 224, 224), float32] span=from_string:102:5 */
  } /* ty=fn (Tensor[(1, 3, 224, 224), float32]) -> Tensor[(1, 3, 224, 224), float32] */;
  let %x_27: Tensor[(1, 3, 224, 224), float32] /* ty=Tensor[(1, 3, 224, 224), float32] span=from_string:108:119 */ = %x_231(%x_26) /* ty=Tensor[(1, 3, 224, 224), float32] span=from_string:104:118 */;
  let %x_241: fn (Tensor[(1, 3, 224, 224), float32]) -> Tensor[(3, 224, 224), float32] /* ty=fn (Tensor[(1, 3, 224, 224), float32]) -> Tensor[(3, 224, 224), float32] span=from_string:108:112 */ = fn (%p024: Tensor[(1, 3, 224, 224), float32] /* ty=Tensor[(1, 3, 224, 224), float32] span=from_string:106:13 */, Primitive=1, relay.reshape_only=1) -> Tensor[(3, 224, 224), float32] {
    squeeze(%p024) /* ty=Tensor[(3, 224, 224), float32] span=from_string:106:5 */
  } /* ty=fn (Tensor[(1, 3, 224, 224), float32]) -> Tensor[(3, 224, 224), float32] */;
  let %x_28: Tensor[(3, 224, 224), float32] /* ty=Tensor[(3, 224, 224), float32] span=from_string:109:802 */ = %x_241(%x_27) /* ty=Tensor[(3, 224, 224), float32] span=from_string:108:112 */;
  let %x_29: (Tensor[(1, 3, 224, 224), uint8], Tensor[(3, 224, 224), float32], (Tensor[(1, 3, 224, 224), float32], (Tensor[(1, 3, 224, 224), float32],)), Tensor[(1, 3, 224, 224), uint8], Tensor[(1, 3, 224, 224), float32], Tensor[(0, 5, 447, 224), float32], float32, Tensor[(1, 3, 224, 224), float32], Tensor[(224), float32], Tensor[(3, 224, 224), float32]) /* ty=(Tensor[(1, 3, 224, 224), uint8], Tensor[(3, 224, 224), float32], (Tensor[(1, 3, 224, 224), float32], (Tensor[(1, 3, 224, 224), float32],)), Tensor[(1, 3, 224, 224), uint8], Tensor[(1, 3, 224, 224), float32], Tensor[(0, 5, 447, 224), float32], float32, Tensor[(1, 3, 224, 224), float32], Tensor[(224), float32], Tensor[(3, 224, 224), float32]) span=from_string:110:738 */ = (%x_31, %x_51, %x_14, %x_15, %x_17, %x_18, 4f /* ty=float32 span=from_string:75:68 */, %x_23, %x_24, %x_28) /* ty=(Tensor[(1, 3, 224, 224), uint8], Tensor[(3, 224, 224), float32], (Tensor[(1, 3, 224, 224), float32], (Tensor[(1, 3, 224, 224), float32],)), Tensor[(1, 3, 224, 224), uint8], Tensor[(1, 3, 224, 224), float32], Tensor[(0, 5, 447, 224), float32], float32, Tensor[(1, 3, 224, 224), float32], Tensor[(224), float32], Tensor[(3, 224, 224), float32]) span=from_string:109:738 */;
  let %x_30: (Tensor[(1, 3, 224, 224), uint8], Tensor[(3, 224, 224), float32], (Tensor[(1, 3, 224, 224), float32], (Tensor[(1, 3, 224, 224), float32],)), Tensor[(1, 3, 224, 224), uint8], Tensor[(1, 3, 224, 224), float32], Tensor[(0, 5, 447, 224), float32], float32, Tensor[(1, 3, 224, 224), float32], Tensor[(224), float32], Tensor[(3, 224, 224), float32]) /* ty=(Tensor[(1, 3, 224, 224), uint8], Tensor[(3, 224, 224), float32], (Tensor[(1, 3, 224, 224), float32], (Tensor[(1, 3, 224, 224), float32],)), Tensor[(1, 3, 224, 224), uint8], Tensor[(1, 3, 224, 224), float32], Tensor[(0, 5, 447, 224), float32], float32, Tensor[(1, 3, 224, 224), float32], Tensor[(224), float32], Tensor[(3, 224, 224), float32]) span=from_string:111:737 */ = %x_29;
  let %x_311: (Tensor[(1, 3, 224, 224), uint8], Tensor[(3, 224, 224), float32], (Tensor[(1, 3, 224, 224), float32], (Tensor[(1, 3, 224, 224), float32],)), Tensor[(1, 3, 224, 224), uint8], Tensor[(1, 3, 224, 224), float32], Tensor[(0, 5, 447, 224), float32], float32, Tensor[(1, 3, 224, 224), float32], Tensor[(224), float32], Tensor[(3, 224, 224), float32]) /* ty=(Tensor[(1, 3, 224, 224), uint8], Tensor[(3, 224, 224), float32], (Tensor[(1, 3, 224, 224), float32], (Tensor[(1, 3, 224, 224), float32],)), Tensor[(1, 3, 224, 224), uint8], Tensor[(1, 3, 224, 224), float32], Tensor[(0, 5, 447, 224), float32], float32, Tensor[(1, 3, 224, 224), float32], Tensor[(224), float32], Tensor[(3, 224, 224), float32]) span=from_string:112:16 */ = %x_30;
  let %x_251: (Tensor[(1, 3, 224, 224), uint8], Tensor[(3, 224, 224), float32], (Tensor[(1, 3, 224, 224), float32], (Tensor[(1, 3, 224, 224), float32],)), Tensor[(1, 3, 224, 224), uint8], Tensor[(1, 3, 224, 224), float32], Tensor[(0, 5, 447, 224), float32], float32, Tensor[(1, 3, 224, 224), float32], Tensor[(224), float32], Tensor[(3, 224, 224), float32]) /* ty=(Tensor[(1, 3, 224, 224), uint8], Tensor[(3, 224, 224), float32], (Tensor[(1, 3, 224, 224), float32], (Tensor[(1, 3, 224, 224), float32],)), Tensor[(1, 3, 224, 224), uint8], Tensor[(1, 3, 224, 224), float32], Tensor[(0, 5, 447, 224), float32], float32, Tensor[(1, 3, 224, 224), float32], Tensor[(224), float32], Tensor[(3, 224, 224), float32]) span=from_string:113:16 */ = %x_311;
  let %x_261: (Tensor[(1, 3, 224, 224), uint8], Tensor[(3, 224, 224), float32], (Tensor[(1, 3, 224, 224), float32], (Tensor[(1, 3, 224, 224), float32],)), Tensor[(1, 3, 224, 224), uint8], Tensor[(1, 3, 224, 224), float32], Tensor[(0, 5, 447, 224), float32], float32, Tensor[(1, 3, 224, 224), float32], Tensor[(224), float32], Tensor[(3, 224, 224), float32]) /* ty=(Tensor[(1, 3, 224, 224), uint8], Tensor[(3, 224, 224), float32], (Tensor[(1, 3, 224, 224), float32], (Tensor[(1, 3, 224, 224), float32],)), Tensor[(1, 3, 224, 224), uint8], Tensor[(1, 3, 224, 224), float32], Tensor[(0, 5, 447, 224), float32], float32, Tensor[(1, 3, 224, 224), float32], Tensor[(224), float32], Tensor[(3, 224, 224), float32]) span=from_string:114:16 */ = %x_251;
  let %x_271: (Tensor[(1, 3, 224, 224), uint8], Tensor[(3, 224, 224), float32], (Tensor[(1, 3, 224, 224), float32], (Tensor[(1, 3, 224, 224), float32],)), Tensor[(1, 3, 224, 224), uint8], Tensor[(1, 3, 224, 224), float32], Tensor[(0, 5, 447, 224), float32], float32, Tensor[(1, 3, 224, 224), float32], Tensor[(224), float32], Tensor[(3, 224, 224), float32]) /* ty=(Tensor[(1, 3, 224, 224), uint8], Tensor[(3, 224, 224), float32], (Tensor[(1, 3, 224, 224), float32], (Tensor[(1, 3, 224, 224), float32],)), Tensor[(1, 3, 224, 224), uint8], Tensor[(1, 3, 224, 224), float32], Tensor[(0, 5, 447, 224), float32], float32, Tensor[(1, 3, 224, 224), float32], Tensor[(224), float32], Tensor[(3, 224, 224), float32]) span=from_string:115:16 */ = %x_261;
  let %x_281: (Tensor[(1, 3, 224, 224), uint8], Tensor[(3, 224, 224), float32], (Tensor[(1, 3, 224, 224), float32], (Tensor[(1, 3, 224, 224), float32],)), Tensor[(1, 3, 224, 224), uint8], Tensor[(1, 3, 224, 224), float32], Tensor[(0, 5, 447, 224), float32], float32, Tensor[(1, 3, 224, 224), float32], Tensor[(224), float32], Tensor[(3, 224, 224), float32]) /* ty=(Tensor[(1, 3, 224, 224), uint8], Tensor[(3, 224, 224), float32], (Tensor[(1, 3, 224, 224), float32], (Tensor[(1, 3, 224, 224), float32],)), Tensor[(1, 3, 224, 224), uint8], Tensor[(1, 3, 224, 224), float32], Tensor[(0, 5, 447, 224), float32], float32, Tensor[(1, 3, 224, 224), float32], Tensor[(224), float32], Tensor[(3, 224, 224), float32]) span=from_string:116:16 */ = %x_271;
  let %x_291: (Tensor[(1, 3, 224, 224), uint8], Tensor[(3, 224, 224), float32], (Tensor[(1, 3, 224, 224), float32], (Tensor[(1, 3, 224, 224), float32],)), Tensor[(1, 3, 224, 224), uint8], Tensor[(1, 3, 224, 224), float32], Tensor[(0, 5, 447, 224), float32], float32, Tensor[(1, 3, 224, 224), float32], Tensor[(224), float32], Tensor[(3, 224, 224), float32]) /* ty=(Tensor[(1, 3, 224, 224), uint8], Tensor[(3, 224, 224), float32], (Tensor[(1, 3, 224, 224), float32], (Tensor[(1, 3, 224, 224), float32],)), Tensor[(1, 3, 224, 224), uint8], Tensor[(1, 3, 224, 224), float32], Tensor[(0, 5, 447, 224), float32], float32, Tensor[(1, 3, 224, 224), float32], Tensor[(224), float32], Tensor[(3, 224, 224), float32]) span=from_string:117:16 */ = %x_281;
  let %x_301: (Tensor[(1, 3, 224, 224), uint8], Tensor[(3, 224, 224), float32], (Tensor[(1, 3, 224, 224), float32], (Tensor[(1, 3, 224, 224), float32],)), Tensor[(1, 3, 224, 224), uint8], Tensor[(1, 3, 224, 224), float32], Tensor[(0, 5, 447, 224), float32], float32, Tensor[(1, 3, 224, 224), float32], Tensor[(224), float32], Tensor[(3, 224, 224), float32]) /* ty=(Tensor[(1, 3, 224, 224), uint8], Tensor[(3, 224, 224), float32], (Tensor[(1, 3, 224, 224), float32], (Tensor[(1, 3, 224, 224), float32],)), Tensor[(1, 3, 224, 224), uint8], Tensor[(1, 3, 224, 224), float32], Tensor[(0, 5, 447, 224), float32], float32, Tensor[(1, 3, 224, 224), float32], Tensor[(224), float32], Tensor[(3, 224, 224), float32]) span=from_string:118:16 */ = %x_291;
  let %x_312: (Tensor[(1, 3, 224, 224), uint8], Tensor[(3, 224, 224), float32], (Tensor[(1, 3, 224, 224), float32], (Tensor[(1, 3, 224, 224), float32],)), Tensor[(1, 3, 224, 224), uint8], Tensor[(1, 3, 224, 224), float32], Tensor[(0, 5, 447, 224), float32], float32, Tensor[(1, 3, 224, 224), float32], Tensor[(224), float32], Tensor[(3, 224, 224), float32]) /* ty=(Tensor[(1, 3, 224, 224), uint8], Tensor[(3, 224, 224), float32], (Tensor[(1, 3, 224, 224), float32], (Tensor[(1, 3, 224, 224), float32],)), Tensor[(1, 3, 224, 224), uint8], Tensor[(1, 3, 224, 224), float32], Tensor[(0, 5, 447, 224), float32], float32, Tensor[(1, 3, 224, 224), float32], Tensor[(224), float32], Tensor[(3, 224, 224), float32]) span=from_string:119:15 */ = %x_301;
  let %x_32: (Tensor[(1, 3, 224, 224), uint8], Tensor[(3, 224, 224), float32], (Tensor[(1, 3, 224, 224), float32], (Tensor[(1, 3, 224, 224), float32],)), Tensor[(1, 3, 224, 224), uint8], Tensor[(1, 3, 224, 224), float32], Tensor[(0, 5, 447, 224), float32], float32, Tensor[(1, 3, 224, 224), float32], Tensor[(224), float32], Tensor[(3, 224, 224), float32]) /* ty=(Tensor[(1, 3, 224, 224), uint8], Tensor[(3, 224, 224), float32], (Tensor[(1, 3, 224, 224), float32], (Tensor[(1, 3, 224, 224), float32],)), Tensor[(1, 3, 224, 224), uint8], Tensor[(1, 3, 224, 224), float32], Tensor[(0, 5, 447, 224), float32], float32, Tensor[(1, 3, 224, 224), float32], Tensor[(224), float32], Tensor[(3, 224, 224), float32]) span=from_string:120:15 */ = %x_312;
  let %x_33: (Tensor[(1, 3, 224, 224), uint8], Tensor[(3, 224, 224), float32], (Tensor[(1, 3, 224, 224), float32], (Tensor[(1, 3, 224, 224), float32],)), Tensor[(1, 3, 224, 224), uint8], Tensor[(1, 3, 224, 224), float32], Tensor[(0, 5, 447, 224), float32], float32, Tensor[(1, 3, 224, 224), float32], Tensor[(224), float32], Tensor[(3, 224, 224), float32]) /* ty=(Tensor[(1, 3, 224, 224), uint8], Tensor[(3, 224, 224), float32], (Tensor[(1, 3, 224, 224), float32], (Tensor[(1, 3, 224, 224), float32],)), Tensor[(1, 3, 224, 224), uint8], Tensor[(1, 3, 224, 224), float32], Tensor[(0, 5, 447, 224), float32], float32, Tensor[(1, 3, 224, 224), float32], Tensor[(224), float32], Tensor[(3, 224, 224), float32]) span=from_string:121:15 */ = %x_32;
  let %x_34: (Tensor[(1, 3, 224, 224), uint8], Tensor[(3, 224, 224), float32], (Tensor[(1, 3, 224, 224), float32], (Tensor[(1, 3, 224, 224), float32],)), Tensor[(1, 3, 224, 224), uint8], Tensor[(1, 3, 224, 224), float32], Tensor[(0, 5, 447, 224), float32], float32, Tensor[(1, 3, 224, 224), float32], Tensor[(224), float32], Tensor[(3, 224, 224), float32]) /* ty=(Tensor[(1, 3, 224, 224), uint8], Tensor[(3, 224, 224), float32], (Tensor[(1, 3, 224, 224), float32], (Tensor[(1, 3, 224, 224), float32],)), Tensor[(1, 3, 224, 224), uint8], Tensor[(1, 3, 224, 224), float32], Tensor[(0, 5, 447, 224), float32], float32, Tensor[(1, 3, 224, 224), float32], Tensor[(224), float32], Tensor[(3, 224, 224), float32]) span=from_string:122:15 */ = %x_33;
  let %x_35: (Tensor[(1, 3, 224, 224), uint8], Tensor[(3, 224, 224), float32], (Tensor[(1, 3, 224, 224), float32], (Tensor[(1, 3, 224, 224), float32],)), Tensor[(1, 3, 224, 224), uint8], Tensor[(1, 3, 224, 224), float32], Tensor[(0, 5, 447, 224), float32], float32, Tensor[(1, 3, 224, 224), float32], Tensor[(224), float32], Tensor[(3, 224, 224), float32]) /* ty=(Tensor[(1, 3, 224, 224), uint8], Tensor[(3, 224, 224), float32], (Tensor[(1, 3, 224, 224), float32], (Tensor[(1, 3, 224, 224), float32],)), Tensor[(1, 3, 224, 224), uint8], Tensor[(1, 3, 224, 224), float32], Tensor[(0, 5, 447, 224), float32], float32, Tensor[(1, 3, 224, 224), float32], Tensor[(224), float32], Tensor[(3, 224, 224), float32]) span=from_string:123:15 */ = %x_34;
  let %x_36: (Tensor[(1, 3, 224, 224), uint8], Tensor[(3, 224, 224), float32], (Tensor[(1, 3, 224, 224), float32], (Tensor[(1, 3, 224, 224), float32],)), Tensor[(1, 3, 224, 224), uint8], Tensor[(1, 3, 224, 224), float32], Tensor[(0, 5, 447, 224), float32], float32, Tensor[(1, 3, 224, 224), float32], Tensor[(224), float32], Tensor[(3, 224, 224), float32]) /* ty=(Tensor[(1, 3, 224, 224), uint8], Tensor[(3, 224, 224), float32], (Tensor[(1, 3, 224, 224), float32], (Tensor[(1, 3, 224, 224), float32],)), Tensor[(1, 3, 224, 224), uint8], Tensor[(1, 3, 224, 224), float32], Tensor[(0, 5, 447, 224), float32], float32, Tensor[(1, 3, 224, 224), float32], Tensor[(224), float32], Tensor[(3, 224, 224), float32]) span=from_string:124:15 */ = %x_35;
  let %x_37: (Tensor[(1, 3, 224, 224), uint8], Tensor[(3, 224, 224), float32], (Tensor[(1, 3, 224, 224), float32], (Tensor[(1, 3, 224, 224), float32],)), Tensor[(1, 3, 224, 224), uint8], Tensor[(1, 3, 224, 224), float32], Tensor[(0, 5, 447, 224), float32], float32, Tensor[(1, 3, 224, 224), float32], Tensor[(224), float32], Tensor[(3, 224, 224), float32]) /* ty=(Tensor[(1, 3, 224, 224), uint8], Tensor[(3, 224, 224), float32], (Tensor[(1, 3, 224, 224), float32], (Tensor[(1, 3, 224, 224), float32],)), Tensor[(1, 3, 224, 224), uint8], Tensor[(1, 3, 224, 224), float32], Tensor[(0, 5, 447, 224), float32], float32, Tensor[(1, 3, 224, 224), float32], Tensor[(224), float32], Tensor[(3, 224, 224), float32]) span=from_string:125:15 */ = %x_36;
  let %x_38: (Tensor[(1, 3, 224, 224), uint8], Tensor[(3, 224, 224), float32], (Tensor[(1, 3, 224, 224), float32], (Tensor[(1, 3, 224, 224), float32],)), Tensor[(1, 3, 224, 224), uint8], Tensor[(1, 3, 224, 224), float32], Tensor[(0, 5, 447, 224), float32], float32, Tensor[(1, 3, 224, 224), float32], Tensor[(224), float32], Tensor[(3, 224, 224), float32]) /* ty=(Tensor[(1, 3, 224, 224), uint8], Tensor[(3, 224, 224), float32], (Tensor[(1, 3, 224, 224), float32], (Tensor[(1, 3, 224, 224), float32],)), Tensor[(1, 3, 224, 224), uint8], Tensor[(1, 3, 224, 224), float32], Tensor[(0, 5, 447, 224), float32], float32, Tensor[(1, 3, 224, 224), float32], Tensor[(224), float32], Tensor[(3, 224, 224), float32]) span=from_string:126:15 */ = %x_37;
  let %x_39: (Tensor[(1, 3, 224, 224), uint8], Tensor[(3, 224, 224), float32], (Tensor[(1, 3, 224, 224), float32], (Tensor[(1, 3, 224, 224), float32],)), Tensor[(1, 3, 224, 224), uint8], Tensor[(1, 3, 224, 224), float32], Tensor[(0, 5, 447, 224), float32], float32, Tensor[(1, 3, 224, 224), float32], Tensor[(224), float32], Tensor[(3, 224, 224), float32]) /* ty=(Tensor[(1, 3, 224, 224), uint8], Tensor[(3, 224, 224), float32], (Tensor[(1, 3, 224, 224), float32], (Tensor[(1, 3, 224, 224), float32],)), Tensor[(1, 3, 224, 224), uint8], Tensor[(1, 3, 224, 224), float32], Tensor[(0, 5, 447, 224), float32], float32, Tensor[(1, 3, 224, 224), float32], Tensor[(224), float32], Tensor[(3, 224, 224), float32]) span=from_string:127:15 */ = %x_38;
  let %x_40: (Tensor[(1, 3, 224, 224), uint8], Tensor[(3, 224, 224), float32], (Tensor[(1, 3, 224, 224), float32], (Tensor[(1, 3, 224, 224), float32],)), Tensor[(1, 3, 224, 224), uint8], Tensor[(1, 3, 224, 224), float32], Tensor[(0, 5, 447, 224), float32], float32, Tensor[(1, 3, 224, 224), float32], Tensor[(224), float32], Tensor[(3, 224, 224), float32]) /* ty=(Tensor[(1, 3, 224, 224), uint8], Tensor[(3, 224, 224), float32], (Tensor[(1, 3, 224, 224), float32], (Tensor[(1, 3, 224, 224), float32],)), Tensor[(1, 3, 224, 224), uint8], Tensor[(1, 3, 224, 224), float32], Tensor[(0, 5, 447, 224), float32], float32, Tensor[(1, 3, 224, 224), float32], Tensor[(224), float32], Tensor[(3, 224, 224), float32]) span=from_string:128:16 */ = %x_39;
  let %x_411: (Tensor[(1, 3, 224, 224), uint8], Tensor[(3, 224, 224), float32], (Tensor[(1, 3, 224, 224), float32], (Tensor[(1, 3, 224, 224), float32],)), Tensor[(1, 3, 224, 224), uint8], Tensor[(1, 3, 224, 224), float32], Tensor[(0, 5, 447, 224), float32], float32, Tensor[(1, 3, 224, 224), float32], Tensor[(224), float32], Tensor[(3, 224, 224), float32]) /* ty=(Tensor[(1, 3, 224, 224), uint8], Tensor[(3, 224, 224), float32], (Tensor[(1, 3, 224, 224), float32], (Tensor[(1, 3, 224, 224), float32],)), Tensor[(1, 3, 224, 224), uint8], Tensor[(1, 3, 224, 224), float32], Tensor[(0, 5, 447, 224), float32], float32, Tensor[(1, 3, 224, 224), float32], Tensor[(224), float32], Tensor[(3, 224, 224), float32]) span=from_string:129:15 */ = %x_40;
  let %x_42: (Tensor[(1, 3, 224, 224), uint8], Tensor[(3, 224, 224), float32], (Tensor[(1, 3, 224, 224), float32], (Tensor[(1, 3, 224, 224), float32],)), Tensor[(1, 3, 224, 224), uint8], Tensor[(1, 3, 224, 224), float32], Tensor[(0, 5, 447, 224), float32], float32, Tensor[(1, 3, 224, 224), float32], Tensor[(224), float32], Tensor[(3, 224, 224), float32]) /* ty=(Tensor[(1, 3, 224, 224), uint8], Tensor[(3, 224, 224), float32], (Tensor[(1, 3, 224, 224), float32], (Tensor[(1, 3, 224, 224), float32],)), Tensor[(1, 3, 224, 224), uint8], Tensor[(1, 3, 224, 224), float32], Tensor[(0, 5, 447, 224), float32], float32, Tensor[(1, 3, 224, 224), float32], Tensor[(224), float32], Tensor[(3, 224, 224), float32]) span=from_string:130:15 */ = %x_411;
  let %x_43: (Tensor[(1, 3, 224, 224), uint8], Tensor[(3, 224, 224), float32], (Tensor[(1, 3, 224, 224), float32], (Tensor[(1, 3, 224, 224), float32],)), Tensor[(1, 3, 224, 224), uint8], Tensor[(1, 3, 224, 224), float32], Tensor[(0, 5, 447, 224), float32], float32, Tensor[(1, 3, 224, 224), float32], Tensor[(224), float32], Tensor[(3, 224, 224), float32]) /* ty=(Tensor[(1, 3, 224, 224), uint8], Tensor[(3, 224, 224), float32], (Tensor[(1, 3, 224, 224), float32], (Tensor[(1, 3, 224, 224), float32],)), Tensor[(1, 3, 224, 224), uint8], Tensor[(1, 3, 224, 224), float32], Tensor[(0, 5, 447, 224), float32], float32, Tensor[(1, 3, 224, 224), float32], Tensor[(224), float32], Tensor[(3, 224, 224), float32]) span=from_string:131:15 */ = %x_42;
  let %x_44: (Tensor[(1, 3, 224, 224), uint8], Tensor[(3, 224, 224), float32], (Tensor[(1, 3, 224, 224), float32], (Tensor[(1, 3, 224, 224), float32],)), Tensor[(1, 3, 224, 224), uint8], Tensor[(1, 3, 224, 224), float32], Tensor[(0, 5, 447, 224), float32], float32, Tensor[(1, 3, 224, 224), float32], Tensor[(224), float32], Tensor[(3, 224, 224), float32]) /* ty=(Tensor[(1, 3, 224, 224), uint8], Tensor[(3, 224, 224), float32], (Tensor[(1, 3, 224, 224), float32], (Tensor[(1, 3, 224, 224), float32],)), Tensor[(1, 3, 224, 224), uint8], Tensor[(1, 3, 224, 224), float32], Tensor[(0, 5, 447, 224), float32], float32, Tensor[(1, 3, 224, 224), float32], Tensor[(224), float32], Tensor[(3, 224, 224), float32]) span=from_string:132:15 */ = %x_43;
  let %x_45: (Tensor[(1, 3, 224, 224), uint8], Tensor[(3, 224, 224), float32], (Tensor[(1, 3, 224, 224), float32], (Tensor[(1, 3, 224, 224), float32],)), Tensor[(1, 3, 224, 224), uint8], Tensor[(1, 3, 224, 224), float32], Tensor[(0, 5, 447, 224), float32], float32, Tensor[(1, 3, 224, 224), float32], Tensor[(224), float32], Tensor[(3, 224, 224), float32]) /* ty=(Tensor[(1, 3, 224, 224), uint8], Tensor[(3, 224, 224), float32], (Tensor[(1, 3, 224, 224), float32], (Tensor[(1, 3, 224, 224), float32],)), Tensor[(1, 3, 224, 224), uint8], Tensor[(1, 3, 224, 224), float32], Tensor[(0, 5, 447, 224), float32], float32, Tensor[(1, 3, 224, 224), float32], Tensor[(224), float32], Tensor[(3, 224, 224), float32]) span=from_string:133:15 */ = %x_44;
  let %x_46: (Tensor[(1, 3, 224, 224), uint8], Tensor[(3, 224, 224), float32], (Tensor[(1, 3, 224, 224), float32], (Tensor[(1, 3, 224, 224), float32],)), Tensor[(1, 3, 224, 224), uint8], Tensor[(1, 3, 224, 224), float32], Tensor[(0, 5, 447, 224), float32], float32, Tensor[(1, 3, 224, 224), float32], Tensor[(224), float32], Tensor[(3, 224, 224), float32]) /* ty=(Tensor[(1, 3, 224, 224), uint8], Tensor[(3, 224, 224), float32], (Tensor[(1, 3, 224, 224), float32], (Tensor[(1, 3, 224, 224), float32],)), Tensor[(1, 3, 224, 224), uint8], Tensor[(1, 3, 224, 224), float32], Tensor[(0, 5, 447, 224), float32], float32, Tensor[(1, 3, 224, 224), float32], Tensor[(224), float32], Tensor[(3, 224, 224), float32]) span=from_string:134:15 */ = %x_45;
  let %x_47: (Tensor[(1, 3, 224, 224), uint8], Tensor[(3, 224, 224), float32], (Tensor[(1, 3, 224, 224), float32], (Tensor[(1, 3, 224, 224), float32],)), Tensor[(1, 3, 224, 224), uint8], Tensor[(1, 3, 224, 224), float32], Tensor[(0, 5, 447, 224), float32], float32, Tensor[(1, 3, 224, 224), float32], Tensor[(224), float32], Tensor[(3, 224, 224), float32]) /* ty=(Tensor[(1, 3, 224, 224), uint8], Tensor[(3, 224, 224), float32], (Tensor[(1, 3, 224, 224), float32], (Tensor[(1, 3, 224, 224), float32],)), Tensor[(1, 3, 224, 224), uint8], Tensor[(1, 3, 224, 224), float32], Tensor[(0, 5, 447, 224), float32], float32, Tensor[(1, 3, 224, 224), float32], Tensor[(224), float32], Tensor[(3, 224, 224), float32]) span=from_string:135:15 */ = %x_46;
  let %x_48: (Tensor[(1, 3, 224, 224), uint8], Tensor[(3, 224, 224), float32], (Tensor[(1, 3, 224, 224), float32], (Tensor[(1, 3, 224, 224), float32],)), Tensor[(1, 3, 224, 224), uint8], Tensor[(1, 3, 224, 224), float32], Tensor[(0, 5, 447, 224), float32], float32, Tensor[(1, 3, 224, 224), float32], Tensor[(224), float32], Tensor[(3, 224, 224), float32]) /* ty=(Tensor[(1, 3, 224, 224), uint8], Tensor[(3, 224, 224), float32], (Tensor[(1, 3, 224, 224), float32], (Tensor[(1, 3, 224, 224), float32],)), Tensor[(1, 3, 224, 224), uint8], Tensor[(1, 3, 224, 224), float32], Tensor[(0, 5, 447, 224), float32], float32, Tensor[(1, 3, 224, 224), float32], Tensor[(224), float32], Tensor[(3, 224, 224), float32]) span=from_string:136:15 */ = %x_47;
  let %x_49: (Tensor[(1, 3, 224, 224), uint8], Tensor[(3, 224, 224), float32], (Tensor[(1, 3, 224, 224), float32], (Tensor[(1, 3, 224, 224), float32],)), Tensor[(1, 3, 224, 224), uint8], Tensor[(1, 3, 224, 224), float32], Tensor[(0, 5, 447, 224), float32], float32, Tensor[(1, 3, 224, 224), float32], Tensor[(224), float32], Tensor[(3, 224, 224), float32]) /* ty=(Tensor[(1, 3, 224, 224), uint8], Tensor[(3, 224, 224), float32], (Tensor[(1, 3, 224, 224), float32], (Tensor[(1, 3, 224, 224), float32],)), Tensor[(1, 3, 224, 224), uint8], Tensor[(1, 3, 224, 224), float32], Tensor[(0, 5, 447, 224), float32], float32, Tensor[(1, 3, 224, 224), float32], Tensor[(224), float32], Tensor[(3, 224, 224), float32]) span=from_string:137:15 */ = %x_48;
  let %x_50: (Tensor[(1, 3, 224, 224), uint8], Tensor[(3, 224, 224), float32], (Tensor[(1, 3, 224, 224), float32], (Tensor[(1, 3, 224, 224), float32],)), Tensor[(1, 3, 224, 224), uint8], Tensor[(1, 3, 224, 224), float32], Tensor[(0, 5, 447, 224), float32], float32, Tensor[(1, 3, 224, 224), float32], Tensor[(224), float32], Tensor[(3, 224, 224), float32]) /* ty=(Tensor[(1, 3, 224, 224), uint8], Tensor[(3, 224, 224), float32], (Tensor[(1, 3, 224, 224), float32], (Tensor[(1, 3, 224, 224), float32],)), Tensor[(1, 3, 224, 224), uint8], Tensor[(1, 3, 224, 224), float32], Tensor[(0, 5, 447, 224), float32], float32, Tensor[(1, 3, 224, 224), float32], Tensor[(224), float32], Tensor[(3, 224, 224), float32]) span=from_string:138:16 */ = %x_49;
  let %x_511: (Tensor[(1, 3, 224, 224), uint8], Tensor[(3, 224, 224), float32], (Tensor[(1, 3, 224, 224), float32], (Tensor[(1, 3, 224, 224), float32],)), Tensor[(1, 3, 224, 224), uint8], Tensor[(1, 3, 224, 224), float32], Tensor[(0, 5, 447, 224), float32], float32, Tensor[(1, 3, 224, 224), float32], Tensor[(224), float32], Tensor[(3, 224, 224), float32]) /* ty=(Tensor[(1, 3, 224, 224), uint8], Tensor[(3, 224, 224), float32], (Tensor[(1, 3, 224, 224), float32], (Tensor[(1, 3, 224, 224), float32],)), Tensor[(1, 3, 224, 224), uint8], Tensor[(1, 3, 224, 224), float32], Tensor[(0, 5, 447, 224), float32], float32, Tensor[(1, 3, 224, 224), float32], Tensor[(224), float32], Tensor[(3, 224, 224), float32]) span=from_string:139:15 */ = %x_50;
  let %x_52: (Tensor[(1, 3, 224, 224), uint8], Tensor[(3, 224, 224), float32], (Tensor[(1, 3, 224, 224), float32], (Tensor[(1, 3, 224, 224), float32],)), Tensor[(1, 3, 224, 224), uint8], Tensor[(1, 3, 224, 224), float32], Tensor[(0, 5, 447, 224), float32], float32, Tensor[(1, 3, 224, 224), float32], Tensor[(224), float32], Tensor[(3, 224, 224), float32]) /* ty=(Tensor[(1, 3, 224, 224), uint8], Tensor[(3, 224, 224), float32], (Tensor[(1, 3, 224, 224), float32], (Tensor[(1, 3, 224, 224), float32],)), Tensor[(1, 3, 224, 224), uint8], Tensor[(1, 3, 224, 224), float32], Tensor[(0, 5, 447, 224), float32], float32, Tensor[(1, 3, 224, 224), float32], Tensor[(224), float32], Tensor[(3, 224, 224), float32]) span=from_string:140:15 */ = %x_511;
  let %x_53: (Tensor[(1, 3, 224, 224), uint8], Tensor[(3, 224, 224), float32], (Tensor[(1, 3, 224, 224), float32], (Tensor[(1, 3, 224, 224), float32],)), Tensor[(1, 3, 224, 224), uint8], Tensor[(1, 3, 224, 224), float32], Tensor[(0, 5, 447, 224), float32], float32, Tensor[(1, 3, 224, 224), float32], Tensor[(224), float32], Tensor[(3, 224, 224), float32]) /* ty=(Tensor[(1, 3, 224, 224), uint8], Tensor[(3, 224, 224), float32], (Tensor[(1, 3, 224, 224), float32], (Tensor[(1, 3, 224, 224), float32],)), Tensor[(1, 3, 224, 224), uint8], Tensor[(1, 3, 224, 224), float32], Tensor[(0, 5, 447, 224), float32], float32, Tensor[(1, 3, 224, 224), float32], Tensor[(224), float32], Tensor[(3, 224, 224), float32]) span=from_string:141:15 */ = %x_52;
  let %x_54: (Tensor[(1, 3, 224, 224), uint8], Tensor[(3, 224, 224), float32], (Tensor[(1, 3, 224, 224), float32], (Tensor[(1, 3, 224, 224), float32],)), Tensor[(1, 3, 224, 224), uint8], Tensor[(1, 3, 224, 224), float32], Tensor[(0, 5, 447, 224), float32], float32, Tensor[(1, 3, 224, 224), float32], Tensor[(224), float32], Tensor[(3, 224, 224), float32]) /* ty=(Tensor[(1, 3, 224, 224), uint8], Tensor[(3, 224, 224), float32], (Tensor[(1, 3, 224, 224), float32], (Tensor[(1, 3, 224, 224), float32],)), Tensor[(1, 3, 224, 224), uint8], Tensor[(1, 3, 224, 224), float32], Tensor[(0, 5, 447, 224), float32], float32, Tensor[(1, 3, 224, 224), float32], Tensor[(224), float32], Tensor[(3, 224, 224), float32]) span=from_string:142:15 */ = %x_53;
  let %x_55: (Tensor[(1, 3, 224, 224), uint8], Tensor[(3, 224, 224), float32], (Tensor[(1, 3, 224, 224), float32], (Tensor[(1, 3, 224, 224), float32],)), Tensor[(1, 3, 224, 224), uint8], Tensor[(1, 3, 224, 224), float32], Tensor[(0, 5, 447, 224), float32], float32, Tensor[(1, 3, 224, 224), float32], Tensor[(224), float32], Tensor[(3, 224, 224), float32]) /* ty=(Tensor[(1, 3, 224, 224), uint8], Tensor[(3, 224, 224), float32], (Tensor[(1, 3, 224, 224), float32], (Tensor[(1, 3, 224, 224), float32],)), Tensor[(1, 3, 224, 224), uint8], Tensor[(1, 3, 224, 224), float32], Tensor[(0, 5, 447, 224), float32], float32, Tensor[(1, 3, 224, 224), float32], Tensor[(224), float32], Tensor[(3, 224, 224), float32]) span=from_string:143:15 */ = %x_54;
  let %x_56: (Tensor[(1, 3, 224, 224), uint8], Tensor[(3, 224, 224), float32], (Tensor[(1, 3, 224, 224), float32], (Tensor[(1, 3, 224, 224), float32],)), Tensor[(1, 3, 224, 224), uint8], Tensor[(1, 3, 224, 224), float32], Tensor[(0, 5, 447, 224), float32], float32, Tensor[(1, 3, 224, 224), float32], Tensor[(224), float32], Tensor[(3, 224, 224), float32]) /* ty=(Tensor[(1, 3, 224, 224), uint8], Tensor[(3, 224, 224), float32], (Tensor[(1, 3, 224, 224), float32], (Tensor[(1, 3, 224, 224), float32],)), Tensor[(1, 3, 224, 224), uint8], Tensor[(1, 3, 224, 224), float32], Tensor[(0, 5, 447, 224), float32], float32, Tensor[(1, 3, 224, 224), float32], Tensor[(224), float32], Tensor[(3, 224, 224), float32]) span=from_string:144:15 */ = %x_55;
  let %x_57: (Tensor[(1, 3, 224, 224), uint8], Tensor[(3, 224, 224), float32], (Tensor[(1, 3, 224, 224), float32], (Tensor[(1, 3, 224, 224), float32],)), Tensor[(1, 3, 224, 224), uint8], Tensor[(1, 3, 224, 224), float32], Tensor[(0, 5, 447, 224), float32], float32, Tensor[(1, 3, 224, 224), float32], Tensor[(224), float32], Tensor[(3, 224, 224), float32]) /* ty=(Tensor[(1, 3, 224, 224), uint8], Tensor[(3, 224, 224), float32], (Tensor[(1, 3, 224, 224), float32], (Tensor[(1, 3, 224, 224), float32],)), Tensor[(1, 3, 224, 224), uint8], Tensor[(1, 3, 224, 224), float32], Tensor[(0, 5, 447, 224), float32], float32, Tensor[(1, 3, 224, 224), float32], Tensor[(224), float32], Tensor[(3, 224, 224), float32]) span=from_string:145:15 */ = %x_56;
  let %x_58: (Tensor[(1, 3, 224, 224), uint8], Tensor[(3, 224, 224), float32], (Tensor[(1, 3, 224, 224), float32], (Tensor[(1, 3, 224, 224), float32],)), Tensor[(1, 3, 224, 224), uint8], Tensor[(1, 3, 224, 224), float32], Tensor[(0, 5, 447, 224), float32], float32, Tensor[(1, 3, 224, 224), float32], Tensor[(224), float32], Tensor[(3, 224, 224), float32]) /* ty=(Tensor[(1, 3, 224, 224), uint8], Tensor[(3, 224, 224), float32], (Tensor[(1, 3, 224, 224), float32], (Tensor[(1, 3, 224, 224), float32],)), Tensor[(1, 3, 224, 224), uint8], Tensor[(1, 3, 224, 224), float32], Tensor[(0, 5, 447, 224), float32], float32, Tensor[(1, 3, 224, 224), float32], Tensor[(224), float32], Tensor[(3, 224, 224), float32]) span=from_string:146:3 */ = %x_57;
  %x_58
}

#[metadata]
{
  "root": 1, 
  "nodes": [
    {
      "type_key": ""
    }, 
    {
      "type_key": "Map", 
      "keys": [
        "relay.attrs.InitOpAttrs", 
        "relay.Constant"
      ], 
      "data": [2, 14]
    }, 
    {
      "type_key": "Array", 
      "data": [3, 9, 11]
    }, 
    {
      "type_key": "relay.attrs.InitOpAttrs", 
      "attrs": {
        "dtype": "", 
        "shape": "4"
      }
    }, 
    {
      "type_key": "Array", 
      "data": [5, 6, 7, 8]
    }, 
    {
      "type_key": "IntImm", 
      "attrs": {
        "dtype": "int32", 
        "span": "0", 
        "value": "1"
      }
    }, 
    {
      "type_key": "IntImm", 
      "attrs": {
        "dtype": "int32", 
        "span": "0", 
        "value": "3"
      }
    }, 
    {
      "type_key": "IntImm", 
      "attrs": {
        "dtype": "int32", 
        "span": "0", 
        "value": "224"
      }
    }, 
    {
      "type_key": "IntImm", 
      "attrs": {
        "dtype": "int32", 
        "span": "0", 
        "value": "224"
      }
    }, 
    {
      "type_key": "relay.attrs.InitOpAttrs", 
      "attrs": {
        "dtype": "", 
        "shape": "10"
      }
    }, 
    {
      "type_key": "Array", 
      "data": [5, 6, 7, 8]
    }, 
    {
      "type_key": "relay.attrs.InitOpAttrs", 
      "attrs": {
        "dtype": "", 
        "shape": "12"
      }
    }, 
    {
      "type_key": "Array", 
      "data": [13]
    }, 
    {
      "type_key": "IntImm", 
      "attrs": {
        "dtype": "int32", 
        "span": "0", 
        "value": "224"
      }
    }, 
    {
      "type_key": "Array", 
      "data": [15, 23, 28]
    }, 
    {
      "type_key": "relay.Constant", 
      "attrs": {
        "_checked_type_": "20", 
        "data": "0", 
        "span": "18", 
        "virtual_device_": "16"
      }
    }, 
    {
      "type_key": "VirtualDevice", 
      "attrs": {
        "device_type_int": "-1", 
        "memory_scope": "17", 
        "target": "0", 
        "virtual_device_id": "-1"
      }
    }, 
    {
      "type_key": "runtime.String"
    }, 
    {
      "type_key": "Span", 
      "attrs": {
        "column": "32", 
        "end_column": "50", 
        "end_line": "38", 
        "line": "38", 
        "source_name": "19"
      }
    }, 
    {
      "type_key": "SourceName", 
      "repr_str": "from_string"
    }, 
    {
      "type_key": "relay.TensorType", 
      "attrs": {
        "dtype": "int32", 
        "shape": "21", 
        "span": "0"
      }
    }, 
    {
      "type_key": "Array", 
      "data": [22]
    }, 
    {
      "type_key": "IntImm", 
      "attrs": {
        "dtype": "int32", 
        "span": "0", 
        "value": "4"
      }
    }, 
    {
      "type_key": "relay.Constant", 
      "attrs": {
        "_checked_type_": "25", 
        "data": "1", 
        "span": "24", 
        "virtual_device_": "16"
      }
    }, 
    {
      "type_key": "Span", 
      "attrs": {
        "column": "33", 
        "end_column": "51", 
        "end_line": "50", 
        "line": "50", 
        "source_name": "19"
      }
    }, 
    {
      "type_key": "relay.TensorType", 
      "attrs": {
        "dtype": "int32", 
        "shape": "26", 
        "span": "0"
      }
    }, 
    {
      "type_key": "Array", 
      "data": [27]
    }, 
    {
      "type_key": "IntImm", 
      "attrs": {
        "dtype": "int32", 
        "span": "0", 
        "value": "4"
      }
    }, 
    {
      "type_key": "relay.Constant", 
      "attrs": {
        "_checked_type_": "30", 
        "data": "2", 
        "span": "29", 
        "virtual_device_": "16"
      }
    }, 
    {
      "type_key": "Span", 
      "attrs": {
        "column": "33", 
        "end_column": "51", 
        "end_line": "93", 
        "line": "93", 
        "source_name": "19"
      }
    }, 
    {
      "type_key": "relay.TensorType", 
      "attrs": {
        "dtype": "int32", 
        "shape": "31", 
        "span": "0"
      }
    }, 
    {
      "type_key": "Array", 
      "data": [32]
    }, 
    {
      "type_key": "IntImm", 
      "attrs": {
        "dtype": "int32", 
        "span": "0", 
        "value": "1"
      }
    }
  ], 
  "b64ndarrays": [
    "P6G0lvBAXt0AAAAAAAAAAAEAAAAAAAAAAQAAAAAgAQAEAAAAAAAAABAAAAAAAAAAAQAAAAMAAADgAAAA4AAAAA==", 
    "P6G0lvBAXt0AAAAAAAAAAAEAAAAAAAAAAQAAAAAgAQAEAAAAAAAAABAAAAAAAAAAAQAAAAMAAADgAAAA4AAAAA==", 
    "P6G0lvBAXt0AAAAAAAAAAAEAAAAAAAAAAQAAAAAgAQABAAAAAAAAAAQAAAAAAAAA4AAAAA=="
  ], 
  "attrs": {"tvm_version": "0.13.0"}
}