#[version = "0.0.5"]
def @main(%x0: Tensor[(1, 3, 224, 224), uint8] /* ty=Tensor[(1, 3, 224, 224), uint8] span=from_string:8:13 */, %x1: Tensor[(3, 224, 224), float32] /* ty=Tensor[(3, 224, 224), float32] span=from_string:31:112 */, %x2: Tensor[(224), float32] /* ty=Tensor[(224), float32] span=from_string:31:117 */) -> (Tensor[(1, 3, 224, 224), uint8], Tensor[(3, 224, 224), float32], (Tensor[(1, 3, 224, 224), float32], (Tensor[(1, 3, 224, 224), float32],)), Tensor[(1, 3, 224, 224), uint8], Tensor[(1, 3, 224, 224), float32], Tensor[(0, 5, 447, 224), float32], float32, Tensor[(1, 3, 224, 224), float32], Tensor[(224), float32], Tensor[(3, 224, 224), float32]) {
  let %x_2: Tensor[(1, 3, 224, 224), float32] /* ty=Tensor[(1, 3, 224, 224), float32] span=from_string:18:141 */ = qnn.dequantize(%x0, 2f /* ty=float32 span=from_string:3:64 */, 114 /* ty=int32 span=from_string:4:63 */) /* ty=Tensor[(1, 3, 224, 224), float32] span=from_string:5:115 */;
  let %x3: Tensor[(1, 3, 224, 224), float32] /* ty=Tensor[(1, 3, 224, 224), float32] span=from_string:21:197 */ = multiply(%x_2, %x_2) /* ty=Tensor[(1, 3, 224, 224), float32] span=from_string:6:115 */;
  let %x4: Tensor[(1, 3, 224, 224), float32] /* ty=Tensor[(1, 3, 224, 224), float32] span=from_string:13:18 */ = ones_like(%x3) /* ty=Tensor[(1, 3, 224, 224), float32] span=from_string:7:114 */;
  %0 = clip(%x0, a_min=114f, a_max=117f) /* ty=Tensor[(1, 3, 224, 224), uint8] span=from_string:22:112 */;
  let %x_3: Tensor[(1, 3, 224, 224), uint8] /* ty=Tensor[(1, 3, 224, 224), uint8] span=from_string:36:737 */ = %0;
  let %x_4: Tensor[(1, 3, 224, 224), float32] /* ty=Tensor[(1, 3, 224, 224), float32] span=from_string:11:117 */ = clip(%x_2, a_min=0f, a_max=6f) /* ty=Tensor[(1, 3, 224, 224), float32] span=from_string:10:115 */;
  let %x_5: Tensor[(3, 224, 224), float32] /* ty=Tensor[(3, 224, 224), float32] span=from_string:36:743 */ = reshape(%x_4, newshape=[3, 224, 224]) /* ty=Tensor[(3, 224, 224), float32] span=from_string:11:109 */;
  let %x_6: Tensor[(1, 3, 224, 224), float32] /* ty=Tensor[(1, 3, 224, 224), float32] span=from_string:24:120 */ = zeros_like(%x_2) /* ty=Tensor[(1, 3, 224, 224), float32] span=from_string:12:115 */;
  %1 = multiply(%x4, %x_2) /* ty=Tensor[(1, 3, 224, 224), float32] span=from_string:17:116 */;
  let %x_7: Tensor[(1, 3, 224, 224), float32] /* ty=Tensor[(1, 3, 224, 224), float32] span=from_string:15:133 */ = %1;
  let %x_8: Tensor[(1, 3, 224, 224), float32] /* ty=Tensor[(1, 3, 224, 224), float32] span=from_string:27:124 */ = collapse_sum_like(%x_7, %x_2) /* ty=Tensor[(1, 3, 224, 224), float32] span=from_string:15:115 */;
  let %x_9: Tensor[(1, 3, 224, 224), float32] /* ty=Tensor[(1, 3, 224, 224), float32] span=from_string:25:137 */ = add(%x_6, %x_8) /* ty=Tensor[(1, 3, 224, 224), float32] span=from_string:16:115 */;
  let %x_10: Tensor[(1, 3, 224, 224), float32] /* ty=Tensor[(1, 3, 224, 224), float32] span=from_string:18:134 */ = %1;
  let %x_11: Tensor[(1, 3, 224, 224), float32] /* ty=Tensor[(1, 3, 224, 224), float32] span=from_string:19:126 */ = collapse_sum_like(%x_10, %x_2) /* ty=Tensor[(1, 3, 224, 224), float32] span=from_string:18:116 */;
  let %x_12: Tensor[(1, 3, 224, 224), float32] /* ty=Tensor[(1, 3, 224, 224), float32] span=from_string:20:123 */ = add(%x_9, %x_11) /* ty=Tensor[(1, 3, 224, 224), float32] span=from_string:19:116 */;
  let %x_13: (Tensor[(1, 3, 224, 224), float32],) /* ty=(Tensor[(1, 3, 224, 224), float32],) span=from_string:21:202 */ = (%x_12,) /* ty=(Tensor[(1, 3, 224, 224), float32],) span=from_string:20:122 */;
  let %x_14: (Tensor[(1, 3, 224, 224), float32], (Tensor[(1, 3, 224, 224), float32],)) /* ty=(Tensor[(1, 3, 224, 224), float32], (Tensor[(1, 3, 224, 224), float32],)) span=from_string:36:749 */ = (%x3, %x_13) /* ty=(Tensor[(1, 3, 224, 224), float32], (Tensor[(1, 3, 224, 224), float32],)) span=from_string:21:196 */;
  let %x_15: Tensor[(1, 3, 224, 224), uint8] /* ty=Tensor[(1, 3, 224, 224), uint8] span=from_string:36:756 */ = %0;
  let %x_16: Tensor[(1, 3, 224, 224), float32] /* ty=Tensor[(1, 3, 224, 224), float32] span=from_string:33:120 */ = ones_like(%x_6) /* ty=Tensor[(1, 3, 224, 224), float32] span=from_string:23:116 */;
  let %x_17: Tensor[(1, 3, 224, 224), float32] /* ty=Tensor[(1, 3, 224, 224), float32] span=from_string:36:763 */ = add(%x_6, %x_16) /* ty=Tensor[(1, 3, 224, 224), float32] span=from_string:24:116 */;
  let %x_18: Tensor[(0, 5, 447, 224), float32] /* ty=Tensor[(0, 5, 447, 224), float32] span=from_string:36:770 */ = nn.batch_to_space_nd(%x_9, block_shape=[2, 2], crops=[[0, 1], [0, 1]]) /* ty=Tensor[(0, 5, 447, 224), float32] span=from_string:25:116 */;
  let %x_20: Tensor[(1, 3, 224, 224), float32] /* ty=Tensor[(1, 3, 224, 224), float32] span=from_string:28:126 */ = nn.relu(%x_8) /* ty=Tensor[(1, 3, 224, 224), float32] span=from_string:27:116 */;
  let %x_21: Tensor[(1, 224, 224, 3), float32] /* ty=Tensor[(1, 224, 224, 3), float32] span=from_string:29:126 */ = transpose(%x_20, axes=[0, 2, 3, 1]) /* ty=Tensor[(1, 224, 224, 3), float32] span=from_string:28:116 */;
  let %x_22: Tensor[(224, 224, 3, 1), float32] /* ty=Tensor[(224, 224, 3, 1), float32] span=from_string:30:126 */ = transpose(%x_21, axes=[1, 2, 3, 0]) /* ty=Tensor[(224, 224, 3, 1), float32] span=from_string:29:116 */;
  let %x_23: Tensor[(1, 3, 224, 224), float32] /* ty=Tensor[(1, 3, 224, 224), float32] span=from_string:36:784 */ = transpose(%x_22, axes=[3, 2, 0, 1]) /* ty=Tensor[(1, 3, 224, 224), float32] span=from_string:30:116 */;
  let %x_24: Tensor[(224), float32] /* ty=Tensor[(224), float32] span=from_string:36:791 */ = collapse_sum_like(%x1, %x2) /* ty=Tensor[(224), float32] span=from_string:31:94 */;
  let %x_26: Tensor[(1, 3, 224, 224), float32] /* ty=Tensor[(1, 3, 224, 224), float32] span=from_string:34:125 */ = add(%x_16, 1f /* ty=float32 span=from_string:32:66 */) /* ty=Tensor[(1, 3, 224, 224), float32] span=from_string:33:116 */;
  let %x_27: Tensor[(1, 3, 224, 224), float32] /* ty=Tensor[(1, 3, 224, 224), float32] span=from_string:35:118 */ = fast_exp(%x_26) /* ty=Tensor[(1, 3, 224, 224), float32] span=from_string:34:116 */;
  let %x_28: Tensor[(3, 224, 224), float32] /* ty=Tensor[(3, 224, 224), float32] span=from_string:36:798 */ = squeeze(%x_27) /* ty=Tensor[(3, 224, 224), float32] span=from_string:35:110 */;
  let %x_29: (Tensor[(1, 3, 224, 224), uint8], Tensor[(3, 224, 224), float32], (Tensor[(1, 3, 224, 224), float32], (Tensor[(1, 3, 224, 224), float32],)), Tensor[(1, 3, 224, 224), uint8], Tensor[(1, 3, 224, 224), float32], Tensor[(0, 5, 447, 224), float32], float32, Tensor[(1, 3, 224, 224), float32], Tensor[(224), float32], Tensor[(3, 224, 224), float32]) /* ty=(Tensor[(1, 3, 224, 224), uint8], Tensor[(3, 224, 224), float32], (Tensor[(1, 3, 224, 224), float32], (Tensor[(1, 3, 224, 224), float32],)), Tensor[(1, 3, 224, 224), uint8], Tensor[(1, 3, 224, 224), float32], Tensor[(0, 5, 447, 224), float32], float32, Tensor[(1, 3, 224, 224), float32], Tensor[(224), float32], Tensor[(3, 224, 224), float32]) span=from_string:37:736 */ = (%x_3, %x_5, %x_14, %x_15, %x_17, %x_18, 4f /* ty=float32 span=from_string:26:66 */, %x_23, %x_24, %x_28) /* ty=(Tensor[(1, 3, 224, 224), uint8], Tensor[(3, 224, 224), float32], (Tensor[(1, 3, 224, 224), float32], (Tensor[(1, 3, 224, 224), float32],)), Tensor[(1, 3, 224, 224), uint8], Tensor[(1, 3, 224, 224), float32], Tensor[(0, 5, 447, 224), float32], float32, Tensor[(1, 3, 224, 224), float32], Tensor[(224), float32], Tensor[(3, 224, 224), float32]) span=from_string:36:736 */;
  let %x_30: (Tensor[(1, 3, 224, 224), uint8], Tensor[(3, 224, 224), float32], (Tensor[(1, 3, 224, 224), float32], (Tensor[(1, 3, 224, 224), float32],)), Tensor[(1, 3, 224, 224), uint8], Tensor[(1, 3, 224, 224), float32], Tensor[(0, 5, 447, 224), float32], float32, Tensor[(1, 3, 224, 224), float32], Tensor[(224), float32], Tensor[(3, 224, 224), float32]) /* ty=(Tensor[(1, 3, 224, 224), uint8], Tensor[(3, 224, 224), float32], (Tensor[(1, 3, 224, 224), float32], (Tensor[(1, 3, 224, 224), float32],)), Tensor[(1, 3, 224, 224), uint8], Tensor[(1, 3, 224, 224), float32], Tensor[(0, 5, 447, 224), float32], float32, Tensor[(1, 3, 224, 224), float32], Tensor[(224), float32], Tensor[(3, 224, 224), float32]) span=from_string:38:735 */ = %x_29;
  let %x_31: (Tensor[(1, 3, 224, 224), uint8], Tensor[(3, 224, 224), float32], (Tensor[(1, 3, 224, 224), float32], (Tensor[(1, 3, 224, 224), float32],)), Tensor[(1, 3, 224, 224), uint8], Tensor[(1, 3, 224, 224), float32], Tensor[(0, 5, 447, 224), float32], float32, Tensor[(1, 3, 224, 224), float32], Tensor[(224), float32], Tensor[(3, 224, 224), float32]) /* ty=(Tensor[(1, 3, 224, 224), uint8], Tensor[(3, 224, 224), float32], (Tensor[(1, 3, 224, 224), float32], (Tensor[(1, 3, 224, 224), float32],)), Tensor[(1, 3, 224, 224), uint8], Tensor[(1, 3, 224, 224), float32], Tensor[(0, 5, 447, 224), float32], float32, Tensor[(1, 3, 224, 224), float32], Tensor[(224), float32], Tensor[(3, 224, 224), float32]) span=from_string:39:3 */ = %x_30;
  %x_31
}
