#[version = "0.0.5"]
def @main(%x0: Tensor[(1, 3, 224, 224), uint8] /* ty=Tensor[(1, 3, 224, 224), uint8] span=from_string:20:118 */, %x1: Tensor[(3, 224, 224), float32] /* ty=Tensor[(3, 224, 224), float32] span=from_string:28:111 */, %x2: Tensor[(224), float32] /* ty=Tensor[(224), float32] */) -> (Tensor[(1, 3, 224, 224), uint8], Tensor[(3, 224, 224), float32], (Tensor[(1, 3, 224, 224), float32], (Tensor[(1, 3, 224, 224), float32],)), Tensor[(1, 3, 224, 224), uint8], Tensor[(1, 3, 224, 224), float32], Tensor[(0, 5, 447, 224), float32], float32, Tensor[(1, 3, 224, 224), float32], Tensor[(224), float32], Tensor[(3, 224, 224), float32]) {
  let %x_0: float32 /* ty=float32 span=from_string:5:136 */ = 2f /* ty=float32 span=from_string:3:65 */;
  let %x_1: int32 /* ty=int32 span=from_string:5:142 */ = 114 /* ty=int32 span=from_string:4:64 */;
  %0 = fn (%p0: Tensor[(1, 3, 224, 224), uint8] /* ty=Tensor[(1, 3, 224, 224), uint8] */, %p1: float32 /* ty=float32 */, %p2: int32 /* ty=int32 */, Primitive=1) -> Tensor[(1, 3, 224, 224), float32] {
    qnn.dequantize(%p0, %p1, %p2) /* ty=Tensor[(1, 3, 224, 224), float32] span=from_string:5:116 */
  } /* ty=fn (Tensor[(1, 3, 224, 224), uint8], float32, int32) -> Tensor[(1, 3, 224, 224), float32] */;
  let %x_2: Tensor[(1, 3, 224, 224), float32] /* ty=Tensor[(1, 3, 224, 224), float32] span=from_string:15:132 */ = %0(%x0, %x_0, %x_1) /* ty=Tensor[(1, 3, 224, 224), float32] */;
  %1 = fn (%p01: Tensor[(1, 3, 224, 224), float32] /* ty=Tensor[(1, 3, 224, 224), float32] */, Primitive=1) -> Tensor[(1, 3, 224, 224), float32] {
    multiply(%p01, %p01) /* ty=Tensor[(1, 3, 224, 224), float32] span=from_string:6:116 */
  } /* ty=fn (Tensor[(1, 3, 224, 224), float32]) -> Tensor[(1, 3, 224, 224), float32] */;
  let %x3: Tensor[(1, 3, 224, 224), float32] /* ty=Tensor[(1, 3, 224, 224), float32] span=from_string:19:198 */ = %1(%x_2) /* ty=Tensor[(1, 3, 224, 224), float32] */;
  %2 = fn (Primitive=1) -> Tensor[(1, 3, 224, 224), float32] {
    ones(shape=[1, 3, 224, 224], dtype="float32") /* ty=Tensor[(1, 3, 224, 224), float32] span=from_string:7:115 */
  } /* ty=fn () -> Tensor[(1, 3, 224, 224), float32] */;
  let %x4: Tensor[(1, 3, 224, 224), float32] /* ty=Tensor[(1, 3, 224, 224), float32] span=from_string:15:127 */ = %2() /* ty=Tensor[(1, 3, 224, 224), float32] */;
  %3 = fn (%p02: Tensor[(1, 3, 224, 224), uint8] /* ty=Tensor[(1, 3, 224, 224), uint8] */, Primitive=1) -> Tensor[(1, 3, 224, 224), uint8] {
    clip(%p02, a_min=114f, a_max=117f) /* ty=Tensor[(1, 3, 224, 224), uint8] span=from_string:8:112 */
  } /* ty=fn (Tensor[(1, 3, 224, 224), uint8]) -> Tensor[(1, 3, 224, 224), uint8] */;
  let %x_3: Tensor[(1, 3, 224, 224), uint8] /* ty=Tensor[(1, 3, 224, 224), uint8] span=from_string:34:738 */ = %3(%x0) /* ty=Tensor[(1, 3, 224, 224), uint8] */;
  %4 = fn (%p03: Tensor[(1, 3, 224, 224), float32] /* ty=Tensor[(1, 3, 224, 224), float32] */, Primitive=1) -> Tensor[(1, 3, 224, 224), float32] {
    clip(%p03, a_min=0f, a_max=6f) /* ty=Tensor[(1, 3, 224, 224), float32] span=from_string:9:116 */
  } /* ty=fn (Tensor[(1, 3, 224, 224), float32]) -> Tensor[(1, 3, 224, 224), float32] */;
  let %x_4: Tensor[(1, 3, 224, 224), float32] /* ty=Tensor[(1, 3, 224, 224), float32] span=from_string:10:118 */ = %4(%x_2) /* ty=Tensor[(1, 3, 224, 224), float32] */;
  %5 = fn (%p04: Tensor[(1, 3, 224, 224), float32] /* ty=Tensor[(1, 3, 224, 224), float32] */, Primitive=1, relay.reshape_only=1) -> Tensor[(3, 224, 224), float32] {
    reshape(%p04, newshape=[3, 224, 224]) /* ty=Tensor[(3, 224, 224), float32] span=from_string:10:110 */
  } /* ty=fn (Tensor[(1, 3, 224, 224), float32]) -> Tensor[(3, 224, 224), float32] */;
  let %x_5: Tensor[(3, 224, 224), float32] /* ty=Tensor[(3, 224, 224), float32] span=from_string:34:744 */ = %5(%x_4) /* ty=Tensor[(3, 224, 224), float32] */;
  %6 = fn (Primitive=1) -> Tensor[(1, 3, 224, 224), float32] {
    zeros(shape=[1, 3, 224, 224], dtype="float32") /* ty=Tensor[(1, 3, 224, 224), float32] span=from_string:11:116 */
  } /* ty=fn () -> Tensor[(1, 3, 224, 224), float32] */;
  let %x_6: Tensor[(1, 3, 224, 224), float32] /* ty=Tensor[(1, 3, 224, 224), float32] span=from_string:22:121 */ = %6() /* ty=Tensor[(1, 3, 224, 224), float32] */;
  %7 = fn (%p05: Tensor[(1, 3, 224, 224), float32] /* ty=Tensor[(1, 3, 224, 224), float32] */, %p11: Tensor[(1, 3, 224, 224), float32] /* ty=Tensor[(1, 3, 224, 224), float32] */, Primitive=1) -> Tensor[(1, 3, 224, 224), float32] {
    multiply(%p05, %p11) /* ty=Tensor[(1, 3, 224, 224), float32] span=from_string:12:117 */
  } /* ty=fn (Tensor[(1, 3, 224, 224), float32], Tensor[(1, 3, 224, 224), float32]) -> Tensor[(1, 3, 224, 224), float32] */;
  let %x_7: Tensor[(1, 3, 224, 224), float32] /* ty=Tensor[(1, 3, 224, 224), float32] span=from_string:13:132 */ = %7(%x4, %x_2) /* ty=Tensor[(1, 3, 224, 224), float32] */;
  %8 = fn (%p06: Tensor[(1, 3, 224, 224), float32] /* ty=Tensor[(1, 3, 224, 224), float32] */, %p12: Tensor[(4), int32] /* ty=Tensor[(4), int32] */, Primitive=1) -> Tensor[(1, 3, 224, 224), float32] {
    collapse_sum_to(%p06, %p12, meta[relay.attrs.InitOpAttrs][0]) /* ty=Tensor[(1, 3, 224, 224), float32] span=from_string:13:116 */
  } /* ty=fn (Tensor[(1, 3, 224, 224), float32], Tensor[(4), int32]) -> Tensor[(1, 3, 224, 224), float32] */;
  let %x_8: Tensor[(1, 3, 224, 224), float32] /* ty=Tensor[(1, 3, 224, 224), float32] span=from_string:24:125 */ = %8(%x_7, meta[relay.Constant][0] /* ty=Tensor[(4), int32] span=from_string:13:143 */) /* ty=Tensor[(1, 3, 224, 224), float32] */;
  %9 = fn (%p07: Tensor[(1, 3, 224, 224), float32] /* ty=Tensor[(1, 3, 224, 224), float32] */, %p13: Tensor[(1, 3, 224, 224), float32] /* ty=Tensor[(1, 3, 224, 224), float32] */, Primitive=1) -> Tensor[(1, 3, 224, 224), float32] {
    add(%p07, %p13) /* ty=Tensor[(1, 3, 224, 224), float32] span=from_string:14:116 */
  } /* ty=fn (Tensor[(1, 3, 224, 224), float32], Tensor[(1, 3, 224, 224), float32]) -> Tensor[(1, 3, 224, 224), float32] */;
  let %x_9: Tensor[(1, 3, 224, 224), float32] /* ty=Tensor[(1, 3, 224, 224), float32] span=from_string:23:138 */ = %9(%x_6, %x_8) /* ty=Tensor[(1, 3, 224, 224), float32] */;
  %10 = fn (%p08: Tensor[(1, 3, 224, 224), float32] /* ty=Tensor[(1, 3, 224, 224), float32] */, %p14: Tensor[(1, 3, 224, 224), float32] /* ty=Tensor[(1, 3, 224, 224), float32] */, Primitive=1) -> Tensor[(1, 3, 224, 224), float32] {
    multiply(%p08, %p14) /* ty=Tensor[(1, 3, 224, 224), float32] span=from_string:15:118 */
  } /* ty=fn (Tensor[(1, 3, 224, 224), float32], Tensor[(1, 3, 224, 224), float32]) -> Tensor[(1, 3, 224, 224), float32] */;
  let %x_10: Tensor[(1, 3, 224, 224), float32] /* ty=Tensor[(1, 3, 224, 224), float32] span=from_string:16:133 */ = %10(%x4, %x_2) /* ty=Tensor[(1, 3, 224, 224), float32] */;
  %11 = fn (%p09: Tensor[(1, 3, 224, 224), float32] /* ty=Tensor[(1, 3, 224, 224), float32] */, %p15: Tensor[(4), int32] /* ty=Tensor[(4), int32] */, Primitive=1) -> Tensor[(1, 3, 224, 224), float32] {
    collapse_sum_to(%p09, %p15, meta[relay.attrs.InitOpAttrs][1]) /* ty=Tensor[(1, 3, 224, 224), float32] span=from_string:16:117 */
  } /* ty=fn (Tensor[(1, 3, 224, 224), float32], Tensor[(4), int32]) -> Tensor[(1, 3, 224, 224), float32] */;
  let %x_11: Tensor[(1, 3, 224, 224), float32] /* ty=Tensor[(1, 3, 224, 224), float32] span=from_string:17:127 */ = %11(%x_10, meta[relay.Constant][1] /* ty=Tensor[(4), int32] span=from_string:16:145 */) /* ty=Tensor[(1, 3, 224, 224), float32] */;
  %12 = fn (%p010: Tensor[(1, 3, 224, 224), float32] /* ty=Tensor[(1, 3, 224, 224), float32] */, %p16: Tensor[(1, 3, 224, 224), float32] /* ty=Tensor[(1, 3, 224, 224), float32] */, Primitive=1) -> Tensor[(1, 3, 224, 224), float32] {
    add(%p010, %p16) /* ty=Tensor[(1, 3, 224, 224), float32] span=from_string:17:117 */
  } /* ty=fn (Tensor[(1, 3, 224, 224), float32], Tensor[(1, 3, 224, 224), float32]) -> Tensor[(1, 3, 224, 224), float32] */;
  let %x_12: Tensor[(1, 3, 224, 224), float32] /* ty=Tensor[(1, 3, 224, 224), float32] span=from_string:18:124 */ = %12(%x_9, %x_11) /* ty=Tensor[(1, 3, 224, 224), float32] */;
  let %x_13: (Tensor[(1, 3, 224, 224), float32],) /* ty=(Tensor[(1, 3, 224, 224), float32],) span=from_string:19:203 */ = (%x_12,) /* ty=(Tensor[(1, 3, 224, 224), float32],) span=from_string:18:123 */;
  let %x_14: (Tensor[(1, 3, 224, 224), float32], (Tensor[(1, 3, 224, 224), float32],)) /* ty=(Tensor[(1, 3, 224, 224), float32], (Tensor[(1, 3, 224, 224), float32],)) span=from_string:34:750 */ = (%x3, %x_13) /* ty=(Tensor[(1, 3, 224, 224), float32], (Tensor[(1, 3, 224, 224), float32],)) span=from_string:19:197 */;
  %13 = fn (%p011: Tensor[(1, 3, 224, 224), uint8] /* ty=Tensor[(1, 3, 224, 224), uint8] */, Primitive=1) -> Tensor[(1, 3, 224, 224), uint8] {
    clip(%p011, a_min=114f, a_max=117f) /* ty=Tensor[(1, 3, 224, 224), uint8] span=from_string:20:113 */
  } /* ty=fn (Tensor[(1, 3, 224, 224), uint8]) -> Tensor[(1, 3, 224, 224), uint8] */;
  let %x_15: Tensor[(1, 3, 224, 224), uint8] /* ty=Tensor[(1, 3, 224, 224), uint8] span=from_string:34:757 */ = %13(%x0) /* ty=Tensor[(1, 3, 224, 224), uint8] */;
  %14 = fn (Primitive=1) -> Tensor[(1, 3, 224, 224), float32] {
    ones(shape=[1, 3, 224, 224], dtype="float32") /* ty=Tensor[(1, 3, 224, 224), float32] span=from_string:21:117 */
  } /* ty=fn () -> Tensor[(1, 3, 224, 224), float32] */;
  let %x_16: Tensor[(1, 3, 224, 224), float32] /* ty=Tensor[(1, 3, 224, 224), float32] span=from_string:30:121 */ = %14() /* ty=Tensor[(1, 3, 224, 224), float32] */;
  %15 = fn (%p012: Tensor[(1, 3, 224, 224), float32] /* ty=Tensor[(1, 3, 224, 224), float32] */, %p17: Tensor[(1, 3, 224, 224), float32] /* ty=Tensor[(1, 3, 224, 224), float32] */, Primitive=1) -> Tensor[(1, 3, 224, 224), float32] {
    add(%p012, %p17) /* ty=Tensor[(1, 3, 224, 224), float32] span=from_string:22:117 */
  } /* ty=fn (Tensor[(1, 3, 224, 224), float32], Tensor[(1, 3, 224, 224), float32]) -> Tensor[(1, 3, 224, 224), float32] */;
  let %x_17: Tensor[(1, 3, 224, 224), float32] /* ty=Tensor[(1, 3, 224, 224), float32] span=from_string:34:764 */ = %15(%x_6, %x_16) /* ty=Tensor[(1, 3, 224, 224), float32] */;
  %16 = fn (%p013: Tensor[(1, 3, 224, 224), float32] /* ty=Tensor[(1, 3, 224, 224), float32] */, Primitive=1) -> Tensor[(0, 5, 447, 224), float32] {
    nn.batch_to_space_nd(%p013, block_shape=[2, 2], crops=[[0, 1], [0, 1]]) /* ty=Tensor[(0, 5, 447, 224), float32] span=from_string:23:117 */
  } /* ty=fn (Tensor[(1, 3, 224, 224), float32]) -> Tensor[(0, 5, 447, 224), float32] */;
  let %x_18: Tensor[(0, 5, 447, 224), float32] /* ty=Tensor[(0, 5, 447, 224), float32] span=from_string:34:771 */ = %16(%x_9) /* ty=Tensor[(0, 5, 447, 224), float32] */;
  %17 = fn (%p014: Tensor[(1, 3, 224, 224), float32] /* ty=Tensor[(1, 3, 224, 224), float32] */, Primitive=1) -> Tensor[(1, 3, 224, 224), float32] {
    nn.relu(%p014) /* ty=Tensor[(1, 3, 224, 224), float32] span=from_string:24:117 */
  } /* ty=fn (Tensor[(1, 3, 224, 224), float32]) -> Tensor[(1, 3, 224, 224), float32] */;
  let %x_20: Tensor[(1, 3, 224, 224), float32] /* ty=Tensor[(1, 3, 224, 224), float32] span=from_string:25:127 */ = %17(%x_8) /* ty=Tensor[(1, 3, 224, 224), float32] */;
  %18 = fn (%p015: Tensor[(1, 3, 224, 224), float32] /* ty=Tensor[(1, 3, 224, 224), float32] */, Primitive=1) -> Tensor[(1, 224, 224, 3), float32] {
    transpose(%p015, axes=[0, 2, 3, 1]) /* ty=Tensor[(1, 224, 224, 3), float32] span=from_string:25:117 */
  } /* ty=fn (Tensor[(1, 3, 224, 224), float32]) -> Tensor[(1, 224, 224, 3), float32] */;
  let %x_21: Tensor[(1, 224, 224, 3), float32] /* ty=Tensor[(1, 224, 224, 3), float32] span=from_string:26:127 */ = %18(%x_20) /* ty=Tensor[(1, 224, 224, 3), float32] */;
  %19 = fn (%p016: Tensor[(1, 224, 224, 3), float32] /* ty=Tensor[(1, 224, 224, 3), float32] */, Primitive=1) -> Tensor[(224, 224, 3, 1), float32] {
    transpose(%p016, axes=[1, 2, 3, 0]) /* ty=Tensor[(224, 224, 3, 1), float32] span=from_string:26:117 */
  } /* ty=fn (Tensor[(1, 224, 224, 3), float32]) -> Tensor[(224, 224, 3, 1), float32] */;
  let %x_22: Tensor[(224, 224, 3, 1), float32] /* ty=Tensor[(224, 224, 3, 1), float32] span=from_string:27:127 */ = %19(%x_21) /* ty=Tensor[(224, 224, 3, 1), float32] */;
  %20 = fn (%p017: Tensor[(224, 224, 3, 1), float32] /* ty=Tensor[(224, 224, 3, 1), float32] */, Primitive=1) -> Tensor[(1, 3, 224, 224), float32] {
    transpose(%p017, axes=[3, 2, 0, 1]) /* ty=Tensor[(1, 3, 224, 224), float32] span=from_string:27:117 */
  } /* ty=fn (Tensor[(224, 224, 3, 1), float32]) -> Tensor[(1, 3, 224, 224), float32] */;
  let %x_23: Tensor[(1, 3, 224, 224), float32] /* ty=Tensor[(1, 3, 224, 224), float32] span=from_string:34:785 */ = %20(%x_22) /* ty=Tensor[(1, 3, 224, 224), float32] */;
  %21 = fn (%p018: Tensor[(3, 224, 224), float32] /* ty=Tensor[(3, 224, 224), float32] */, %p18: Tensor[(1), int32] /* ty=Tensor[(1), int32] */, Primitive=1) -> Tensor[(224), float32] {
    collapse_sum_to(%p018, %p18, meta[relay.attrs.InitOpAttrs][2]) /* ty=Tensor[(224), float32] span=from_string:28:95 */
  } /* ty=fn (Tensor[(3, 224, 224), float32], Tensor[(1), int32]) -> Tensor[(224), float32] */;
  let %x_24: Tensor[(224), float32] /* ty=Tensor[(224), float32] span=from_string:34:792 */ = %21(%x1, meta[relay.Constant][2] /* ty=Tensor[(1), int32] span=from_string:28:121 */) /* ty=Tensor[(224), float32] */;
  let %x_25: float32 /* ty=float32 span=from_string:30:128 */ = 1f /* ty=float32 span=from_string:29:67 */;
  %22 = fn (%p019: Tensor[(1, 3, 224, 224), float32] /* ty=Tensor[(1, 3, 224, 224), float32] */, %p19: float32 /* ty=float32 */, Primitive=1) -> Tensor[(1, 3, 224, 224), float32] {
    add(%p019, %p19) /* ty=Tensor[(1, 3, 224, 224), float32] span=from_string:30:117 */
  } /* ty=fn (Tensor[(1, 3, 224, 224), float32], float32) -> Tensor[(1, 3, 224, 224), float32] */;
  let %x_26: Tensor[(1, 3, 224, 224), float32] /* ty=Tensor[(1, 3, 224, 224), float32] span=from_string:31:126 */ = %22(%x_16, %x_25) /* ty=Tensor[(1, 3, 224, 224), float32] */;
  %23 = fn (%p020: Tensor[(1, 3, 224, 224), float32] /* ty=Tensor[(1, 3, 224, 224), float32] */, Primitive=1) -> Tensor[(1, 3, 224, 224), float32] {
    fast_exp(%p020) /* ty=Tensor[(1, 3, 224, 224), float32] span=from_string:31:117 */
  } /* ty=fn (Tensor[(1, 3, 224, 224), float32]) -> Tensor[(1, 3, 224, 224), float32] */;
  let %x_27: Tensor[(1, 3, 224, 224), float32] /* ty=Tensor[(1, 3, 224, 224), float32] span=from_string:32:119 */ = %23(%x_26) /* ty=Tensor[(1, 3, 224, 224), float32] */;
  %24 = fn (%p021: Tensor[(1, 3, 224, 224), float32] /* ty=Tensor[(1, 3, 224, 224), float32] */, Primitive=1, relay.reshape_only=1) -> Tensor[(3, 224, 224), float32] {
    squeeze(%p021) /* ty=Tensor[(3, 224, 224), float32] span=from_string:32:111 */
  } /* ty=fn (Tensor[(1, 3, 224, 224), float32]) -> Tensor[(3, 224, 224), float32] */;
  let %x_28: Tensor[(3, 224, 224), float32] /* ty=Tensor[(3, 224, 224), float32] span=from_string:34:799 */ = %24(%x_27) /* ty=Tensor[(3, 224, 224), float32] */;
  let %x_31: float32 /* ty=float32 span=from_string:34:778 */ = 4f /* ty=float32 span=from_string:33:67 */;
  let %x_29: (Tensor[(1, 3, 224, 224), uint8], Tensor[(3, 224, 224), float32], (Tensor[(1, 3, 224, 224), float32], (Tensor[(1, 3, 224, 224), float32],)), Tensor[(1, 3, 224, 224), uint8], Tensor[(1, 3, 224, 224), float32], Tensor[(0, 5, 447, 224), float32], float32, Tensor[(1, 3, 224, 224), float32], Tensor[(224), float32], Tensor[(3, 224, 224), float32]) /* ty=(Tensor[(1, 3, 224, 224), uint8], Tensor[(3, 224, 224), float32], (Tensor[(1, 3, 224, 224), float32], (Tensor[(1, 3, 224, 224), float32],)), Tensor[(1, 3, 224, 224), uint8], Tensor[(1, 3, 224, 224), float32], Tensor[(0, 5, 447, 224), float32], float32, Tensor[(1, 3, 224, 224), float32], Tensor[(224), float32], Tensor[(3, 224, 224), float32]) span=from_string:35:737 */ = (%x_3, %x_5, %x_14, %x_15, %x_17, %x_18, %x_31, %x_23, %x_24, %x_28) /* ty=(Tensor[(1, 3, 224, 224), uint8], Tensor[(3, 224, 224), float32], (Tensor[(1, 3, 224, 224), float32], (Tensor[(1, 3, 224, 224), float32],)), Tensor[(1, 3, 224, 224), uint8], Tensor[(1, 3, 224, 224), float32], Tensor[(0, 5, 447, 224), float32], float32, Tensor[(1, 3, 224, 224), float32], Tensor[(224), float32], Tensor[(3, 224, 224), float32]) span=from_string:34:737 */;
  let %x_30: (Tensor[(1, 3, 224, 224), uint8], Tensor[(3, 224, 224), float32], (Tensor[(1, 3, 224, 224), float32], (Tensor[(1, 3, 224, 224), float32],)), Tensor[(1, 3, 224, 224), uint8], Tensor[(1, 3, 224, 224), float32], Tensor[(0, 5, 447, 224), float32], float32, Tensor[(1, 3, 224, 224), float32], Tensor[(224), float32], Tensor[(3, 224, 224), float32]) /* ty=(Tensor[(1, 3, 224, 224), uint8], Tensor[(3, 224, 224), float32], (Tensor[(1, 3, 224, 224), float32], (Tensor[(1, 3, 224, 224), float32],)), Tensor[(1, 3, 224, 224), uint8], Tensor[(1, 3, 224, 224), float32], Tensor[(0, 5, 447, 224), float32], float32, Tensor[(1, 3, 224, 224), float32], Tensor[(224), float32], Tensor[(3, 224, 224), float32]) span=from_string:36:737 */ = %x_29;
  let %x_311: (Tensor[(1, 3, 224, 224), uint8], Tensor[(3, 224, 224), float32], (Tensor[(1, 3, 224, 224), float32], (Tensor[(1, 3, 224, 224), float32],)), Tensor[(1, 3, 224, 224), uint8], Tensor[(1, 3, 224, 224), float32], Tensor[(0, 5, 447, 224), float32], float32, Tensor[(1, 3, 224, 224), float32], Tensor[(224), float32], Tensor[(3, 224, 224), float32]) /* ty=(Tensor[(1, 3, 224, 224), uint8], Tensor[(3, 224, 224), float32], (Tensor[(1, 3, 224, 224), float32], (Tensor[(1, 3, 224, 224), float32],)), Tensor[(1, 3, 224, 224), uint8], Tensor[(1, 3, 224, 224), float32], Tensor[(0, 5, 447, 224), float32], float32, Tensor[(1, 3, 224, 224), float32], Tensor[(224), float32], Tensor[(3, 224, 224), float32]) span=from_string:37:736 */ = %x_30;
  let %x_41: (Tensor[(1, 3, 224, 224), uint8], Tensor[(3, 224, 224), float32], (Tensor[(1, 3, 224, 224), float32], (Tensor[(1, 3, 224, 224), float32],)), Tensor[(1, 3, 224, 224), uint8], Tensor[(1, 3, 224, 224), float32], Tensor[(0, 5, 447, 224), float32], float32, Tensor[(1, 3, 224, 224), float32], Tensor[(224), float32], Tensor[(3, 224, 224), float32]) /* ty=(Tensor[(1, 3, 224, 224), uint8], Tensor[(3, 224, 224), float32], (Tensor[(1, 3, 224, 224), float32], (Tensor[(1, 3, 224, 224), float32],)), Tensor[(1, 3, 224, 224), uint8], Tensor[(1, 3, 224, 224), float32], Tensor[(0, 5, 447, 224), float32], float32, Tensor[(1, 3, 224, 224), float32], Tensor[(224), float32], Tensor[(3, 224, 224), float32]) span=from_string:38:736 */ = %x_311;
  let %x_51: (Tensor[(1, 3, 224, 224), uint8], Tensor[(3, 224, 224), float32], (Tensor[(1, 3, 224, 224), float32], (Tensor[(1, 3, 224, 224), float32],)), Tensor[(1, 3, 224, 224), uint8], Tensor[(1, 3, 224, 224), float32], Tensor[(0, 5, 447, 224), float32], float32, Tensor[(1, 3, 224, 224), float32], Tensor[(224), float32], Tensor[(3, 224, 224), float32]) /* ty=(Tensor[(1, 3, 224, 224), uint8], Tensor[(3, 224, 224), float32], (Tensor[(1, 3, 224, 224), float32], (Tensor[(1, 3, 224, 224), float32],)), Tensor[(1, 3, 224, 224), uint8], Tensor[(1, 3, 224, 224), float32], Tensor[(0, 5, 447, 224), float32], float32, Tensor[(1, 3, 224, 224), float32], Tensor[(224), float32], Tensor[(3, 224, 224), float32]) span=from_string:39:736 */ = %x_41;
  let %x_61: (Tensor[(1, 3, 224, 224), uint8], Tensor[(3, 224, 224), float32], (Tensor[(1, 3, 224, 224), float32], (Tensor[(1, 3, 224, 224), float32],)), Tensor[(1, 3, 224, 224), uint8], Tensor[(1, 3, 224, 224), float32], Tensor[(0, 5, 447, 224), float32], float32, Tensor[(1, 3, 224, 224), float32], Tensor[(224), float32], Tensor[(3, 224, 224), float32]) /* ty=(Tensor[(1, 3, 224, 224), uint8], Tensor[(3, 224, 224), float32], (Tensor[(1, 3, 224, 224), float32], (Tensor[(1, 3, 224, 224), float32],)), Tensor[(1, 3, 224, 224), uint8], Tensor[(1, 3, 224, 224), float32], Tensor[(0, 5, 447, 224), float32], float32, Tensor[(1, 3, 224, 224), float32], Tensor[(224), float32], Tensor[(3, 224, 224), float32]) span=from_string:40:736 */ = %x_51;
  let %x_71: (Tensor[(1, 3, 224, 224), uint8], Tensor[(3, 224, 224), float32], (Tensor[(1, 3, 224, 224), float32], (Tensor[(1, 3, 224, 224), float32],)), Tensor[(1, 3, 224, 224), uint8], Tensor[(1, 3, 224, 224), float32], Tensor[(0, 5, 447, 224), float32], float32, Tensor[(1, 3, 224, 224), float32], Tensor[(224), float32], Tensor[(3, 224, 224), float32]) /* ty=(Tensor[(1, 3, 224, 224), uint8], Tensor[(3, 224, 224), float32], (Tensor[(1, 3, 224, 224), float32], (Tensor[(1, 3, 224, 224), float32],)), Tensor[(1, 3, 224, 224), uint8], Tensor[(1, 3, 224, 224), float32], Tensor[(0, 5, 447, 224), float32], float32, Tensor[(1, 3, 224, 224), float32], Tensor[(224), float32], Tensor[(3, 224, 224), float32]) span=from_string:41:736 */ = %x_61;
  let %x_81: (Tensor[(1, 3, 224, 224), uint8], Tensor[(3, 224, 224), float32], (Tensor[(1, 3, 224, 224), float32], (Tensor[(1, 3, 224, 224), float32],)), Tensor[(1, 3, 224, 224), uint8], Tensor[(1, 3, 224, 224), float32], Tensor[(0, 5, 447, 224), float32], float32, Tensor[(1, 3, 224, 224), float32], Tensor[(224), float32], Tensor[(3, 224, 224), float32]) /* ty=(Tensor[(1, 3, 224, 224), uint8], Tensor[(3, 224, 224), float32], (Tensor[(1, 3, 224, 224), float32], (Tensor[(1, 3, 224, 224), float32],)), Tensor[(1, 3, 224, 224), uint8], Tensor[(1, 3, 224, 224), float32], Tensor[(0, 5, 447, 224), float32], float32, Tensor[(1, 3, 224, 224), float32], Tensor[(224), float32], Tensor[(3, 224, 224), float32]) span=from_string:42:736 */ = %x_71;
  let %x_91: (Tensor[(1, 3, 224, 224), uint8], Tensor[(3, 224, 224), float32], (Tensor[(1, 3, 224, 224), float32], (Tensor[(1, 3, 224, 224), float32],)), Tensor[(1, 3, 224, 224), uint8], Tensor[(1, 3, 224, 224), float32], Tensor[(0, 5, 447, 224), float32], float32, Tensor[(1, 3, 224, 224), float32], Tensor[(224), float32], Tensor[(3, 224, 224), float32]) /* ty=(Tensor[(1, 3, 224, 224), uint8], Tensor[(3, 224, 224), float32], (Tensor[(1, 3, 224, 224), float32], (Tensor[(1, 3, 224, 224), float32],)), Tensor[(1, 3, 224, 224), uint8], Tensor[(1, 3, 224, 224), float32], Tensor[(0, 5, 447, 224), float32], float32, Tensor[(1, 3, 224, 224), float32], Tensor[(224), float32], Tensor[(3, 224, 224), float32]) span=from_string:43:737 */ = %x_81;
  let %x_101: (Tensor[(1, 3, 224, 224), uint8], Tensor[(3, 224, 224), float32], (Tensor[(1, 3, 224, 224), float32], (Tensor[(1, 3, 224, 224), float32],)), Tensor[(1, 3, 224, 224), uint8], Tensor[(1, 3, 224, 224), float32], Tensor[(0, 5, 447, 224), float32], float32, Tensor[(1, 3, 224, 224), float32], Tensor[(224), float32], Tensor[(3, 224, 224), float32]) /* ty=(Tensor[(1, 3, 224, 224), uint8], Tensor[(3, 224, 224), float32], (Tensor[(1, 3, 224, 224), float32], (Tensor[(1, 3, 224, 224), float32],)), Tensor[(1, 3, 224, 224), uint8], Tensor[(1, 3, 224, 224), float32], Tensor[(0, 5, 447, 224), float32], float32, Tensor[(1, 3, 224, 224), float32], Tensor[(224), float32], Tensor[(3, 224, 224), float32]) span=from_string:44:737 */ = %x_91;
  let %x_111: (Tensor[(1, 3, 224, 224), uint8], Tensor[(3, 224, 224), float32], (Tensor[(1, 3, 224, 224), float32], (Tensor[(1, 3, 224, 224), float32],)), Tensor[(1, 3, 224, 224), uint8], Tensor[(1, 3, 224, 224), float32], Tensor[(0, 5, 447, 224), float32], float32, Tensor[(1, 3, 224, 224), float32], Tensor[(224), float32], Tensor[(3, 224, 224), float32]) /* ty=(Tensor[(1, 3, 224, 224), uint8], Tensor[(3, 224, 224), float32], (Tensor[(1, 3, 224, 224), float32], (Tensor[(1, 3, 224, 224), float32],)), Tensor[(1, 3, 224, 224), uint8], Tensor[(1, 3, 224, 224), float32], Tensor[(0, 5, 447, 224), float32], float32, Tensor[(1, 3, 224, 224), float32], Tensor[(224), float32], Tensor[(3, 224, 224), float32]) span=from_string:45:737 */ = %x_101;
  let %x_121: (Tensor[(1, 3, 224, 224), uint8], Tensor[(3, 224, 224), float32], (Tensor[(1, 3, 224, 224), float32], (Tensor[(1, 3, 224, 224), float32],)), Tensor[(1, 3, 224, 224), uint8], Tensor[(1, 3, 224, 224), float32], Tensor[(0, 5, 447, 224), float32], float32, Tensor[(1, 3, 224, 224), float32], Tensor[(224), float32], Tensor[(3, 224, 224), float32]) /* ty=(Tensor[(1, 3, 224, 224), uint8], Tensor[(3, 224, 224), float32], (Tensor[(1, 3, 224, 224), float32], (Tensor[(1, 3, 224, 224), float32],)), Tensor[(1, 3, 224, 224), uint8], Tensor[(1, 3, 224, 224), float32], Tensor[(0, 5, 447, 224), float32], float32, Tensor[(1, 3, 224, 224), float32], Tensor[(224), float32], Tensor[(3, 224, 224), float32]) span=from_string:46:737 */ = %x_111;
  let %x_131: (Tensor[(1, 3, 224, 224), uint8], Tensor[(3, 224, 224), float32], (Tensor[(1, 3, 224, 224), float32], (Tensor[(1, 3, 224, 224), float32],)), Tensor[(1, 3, 224, 224), uint8], Tensor[(1, 3, 224, 224), float32], Tensor[(0, 5, 447, 224), float32], float32, Tensor[(1, 3, 224, 224), float32], Tensor[(224), float32], Tensor[(3, 224, 224), float32]) /* ty=(Tensor[(1, 3, 224, 224), uint8], Tensor[(3, 224, 224), float32], (Tensor[(1, 3, 224, 224), float32], (Tensor[(1, 3, 224, 224), float32],)), Tensor[(1, 3, 224, 224), uint8], Tensor[(1, 3, 224, 224), float32], Tensor[(0, 5, 447, 224), float32], float32, Tensor[(1, 3, 224, 224), float32], Tensor[(224), float32], Tensor[(3, 224, 224), float32]) span=from_string:47:737 */ = %x_121;
  let %x_141: (Tensor[(1, 3, 224, 224), uint8], Tensor[(3, 224, 224), float32], (Tensor[(1, 3, 224, 224), float32], (Tensor[(1, 3, 224, 224), float32],)), Tensor[(1, 3, 224, 224), uint8], Tensor[(1, 3, 224, 224), float32], Tensor[(0, 5, 447, 224), float32], float32, Tensor[(1, 3, 224, 224), float32], Tensor[(224), float32], Tensor[(3, 224, 224), float32]) /* ty=(Tensor[(1, 3, 224, 224), uint8], Tensor[(3, 224, 224), float32], (Tensor[(1, 3, 224, 224), float32], (Tensor[(1, 3, 224, 224), float32],)), Tensor[(1, 3, 224, 224), uint8], Tensor[(1, 3, 224, 224), float32], Tensor[(0, 5, 447, 224), float32], float32, Tensor[(1, 3, 224, 224), float32], Tensor[(224), float32], Tensor[(3, 224, 224), float32]) span=from_string:48:737 */ = %x_131;
  let %x_151: (Tensor[(1, 3, 224, 224), uint8], Tensor[(3, 224, 224), float32], (Tensor[(1, 3, 224, 224), float32], (Tensor[(1, 3, 224, 224), float32],)), Tensor[(1, 3, 224, 224), uint8], Tensor[(1, 3, 224, 224), float32], Tensor[(0, 5, 447, 224), float32], float32, Tensor[(1, 3, 224, 224), float32], Tensor[(224), float32], Tensor[(3, 224, 224), float32]) /* ty=(Tensor[(1, 3, 224, 224), uint8], Tensor[(3, 224, 224), float32], (Tensor[(1, 3, 224, 224), float32], (Tensor[(1, 3, 224, 224), float32],)), Tensor[(1, 3, 224, 224), uint8], Tensor[(1, 3, 224, 224), float32], Tensor[(0, 5, 447, 224), float32], float32, Tensor[(1, 3, 224, 224), float32], Tensor[(224), float32], Tensor[(3, 224, 224), float32]) span=from_string:49:737 */ = %x_141;
  let %x_161: (Tensor[(1, 3, 224, 224), uint8], Tensor[(3, 224, 224), float32], (Tensor[(1, 3, 224, 224), float32], (Tensor[(1, 3, 224, 224), float32],)), Tensor[(1, 3, 224, 224), uint8], Tensor[(1, 3, 224, 224), float32], Tensor[(0, 5, 447, 224), float32], float32, Tensor[(1, 3, 224, 224), float32], Tensor[(224), float32], Tensor[(3, 224, 224), float32]) /* ty=(Tensor[(1, 3, 224, 224), uint8], Tensor[(3, 224, 224), float32], (Tensor[(1, 3, 224, 224), float32], (Tensor[(1, 3, 224, 224), float32],)), Tensor[(1, 3, 224, 224), uint8], Tensor[(1, 3, 224, 224), float32], Tensor[(0, 5, 447, 224), float32], float32, Tensor[(1, 3, 224, 224), float32], Tensor[(224), float32], Tensor[(3, 224, 224), float32]) span=from_string:50:737 */ = %x_151;
  let %x_171: (Tensor[(1, 3, 224, 224), uint8], Tensor[(3, 224, 224), float32], (Tensor[(1, 3, 224, 224), float32], (Tensor[(1, 3, 224, 224), float32],)), Tensor[(1, 3, 224, 224), uint8], Tensor[(1, 3, 224, 224), float32], Tensor[(0, 5, 447, 224), float32], float32, Tensor[(1, 3, 224, 224), float32], Tensor[(224), float32], Tensor[(3, 224, 224), float32]) /* ty=(Tensor[(1, 3, 224, 224), uint8], Tensor[(3, 224, 224), float32], (Tensor[(1, 3, 224, 224), float32], (Tensor[(1, 3, 224, 224), float32],)), Tensor[(1, 3, 224, 224), uint8], Tensor[(1, 3, 224, 224), float32], Tensor[(0, 5, 447, 224), float32], float32, Tensor[(1, 3, 224, 224), float32], Tensor[(224), float32], Tensor[(3, 224, 224), float32]) span=from_string:51:737 */ = %x_161;
  let %x_181: (Tensor[(1, 3, 224, 224), uint8], Tensor[(3, 224, 224), float32], (Tensor[(1, 3, 224, 224), float32], (Tensor[(1, 3, 224, 224), float32],)), Tensor[(1, 3, 224, 224), uint8], Tensor[(1, 3, 224, 224), float32], Tensor[(0, 5, 447, 224), float32], float32, Tensor[(1, 3, 224, 224), float32], Tensor[(224), float32], Tensor[(3, 224, 224), float32]) /* ty=(Tensor[(1, 3, 224, 224), uint8], Tensor[(3, 224, 224), float32], (Tensor[(1, 3, 224, 224), float32], (Tensor[(1, 3, 224, 224), float32],)), Tensor[(1, 3, 224, 224), uint8], Tensor[(1, 3, 224, 224), float32], Tensor[(0, 5, 447, 224), float32], float32, Tensor[(1, 3, 224, 224), float32], Tensor[(224), float32], Tensor[(3, 224, 224), float32]) span=from_string:52:736 */ = %x_171;
  let %x_19: (Tensor[(1, 3, 224, 224), uint8], Tensor[(3, 224, 224), float32], (Tensor[(1, 3, 224, 224), float32], (Tensor[(1, 3, 224, 224), float32],)), Tensor[(1, 3, 224, 224), uint8], Tensor[(1, 3, 224, 224), float32], Tensor[(0, 5, 447, 224), float32], float32, Tensor[(1, 3, 224, 224), float32], Tensor[(224), float32], Tensor[(3, 224, 224), float32]) /* ty=(Tensor[(1, 3, 224, 224), uint8], Tensor[(3, 224, 224), float32], (Tensor[(1, 3, 224, 224), float32], (Tensor[(1, 3, 224, 224), float32],)), Tensor[(1, 3, 224, 224), uint8], Tensor[(1, 3, 224, 224), float32], Tensor[(0, 5, 447, 224), float32], float32, Tensor[(1, 3, 224, 224), float32], Tensor[(224), float32], Tensor[(3, 224, 224), float32]) span=from_string:53:737 */ = %x_181;
  let %x_201: (Tensor[(1, 3, 224, 224), uint8], Tensor[(3, 224, 224), float32], (Tensor[(1, 3, 224, 224), float32], (Tensor[(1, 3, 224, 224), float32],)), Tensor[(1, 3, 224, 224), uint8], Tensor[(1, 3, 224, 224), float32], Tensor[(0, 5, 447, 224), float32], float32, Tensor[(1, 3, 224, 224), float32], Tensor[(224), float32], Tensor[(3, 224, 224), float32]) /* ty=(Tensor[(1, 3, 224, 224), uint8], Tensor[(3, 224, 224), float32], (Tensor[(1, 3, 224, 224), float32], (Tensor[(1, 3, 224, 224), float32],)), Tensor[(1, 3, 224, 224), uint8], Tensor[(1, 3, 224, 224), float32], Tensor[(0, 5, 447, 224), float32], float32, Tensor[(1, 3, 224, 224), float32], Tensor[(224), float32], Tensor[(3, 224, 224), float32]) span=from_string:54:737 */ = %x_19;
  let %x_211: (Tensor[(1, 3, 224, 224), uint8], Tensor[(3, 224, 224), float32], (Tensor[(1, 3, 224, 224), float32], (Tensor[(1, 3, 224, 224), float32],)), Tensor[(1, 3, 224, 224), uint8], Tensor[(1, 3, 224, 224), float32], Tensor[(0, 5, 447, 224), float32], float32, Tensor[(1, 3, 224, 224), float32], Tensor[(224), float32], Tensor[(3, 224, 224), float32]) /* ty=(Tensor[(1, 3, 224, 224), uint8], Tensor[(3, 224, 224), float32], (Tensor[(1, 3, 224, 224), float32], (Tensor[(1, 3, 224, 224), float32],)), Tensor[(1, 3, 224, 224), uint8], Tensor[(1, 3, 224, 224), float32], Tensor[(0, 5, 447, 224), float32], float32, Tensor[(1, 3, 224, 224), float32], Tensor[(224), float32], Tensor[(3, 224, 224), float32]) span=from_string:55:737 */ = %x_201;
  let %x_221: (Tensor[(1, 3, 224, 224), uint8], Tensor[(3, 224, 224), float32], (Tensor[(1, 3, 224, 224), float32], (Tensor[(1, 3, 224, 224), float32],)), Tensor[(1, 3, 224, 224), uint8], Tensor[(1, 3, 224, 224), float32], Tensor[(0, 5, 447, 224), float32], float32, Tensor[(1, 3, 224, 224), float32], Tensor[(224), float32], Tensor[(3, 224, 224), float32]) /* ty=(Tensor[(1, 3, 224, 224), uint8], Tensor[(3, 224, 224), float32], (Tensor[(1, 3, 224, 224), float32], (Tensor[(1, 3, 224, 224), float32],)), Tensor[(1, 3, 224, 224), uint8], Tensor[(1, 3, 224, 224), float32], Tensor[(0, 5, 447, 224), float32], float32, Tensor[(1, 3, 224, 224), float32], Tensor[(224), float32], Tensor[(3, 224, 224), float32]) span=from_string:56:737 */ = %x_211;
  let %x_231: (Tensor[(1, 3, 224, 224), uint8], Tensor[(3, 224, 224), float32], (Tensor[(1, 3, 224, 224), float32], (Tensor[(1, 3, 224, 224), float32],)), Tensor[(1, 3, 224, 224), uint8], Tensor[(1, 3, 224, 224), float32], Tensor[(0, 5, 447, 224), float32], float32, Tensor[(1, 3, 224, 224), float32], Tensor[(224), float32], Tensor[(3, 224, 224), float32]) /* ty=(Tensor[(1, 3, 224, 224), uint8], Tensor[(3, 224, 224), float32], (Tensor[(1, 3, 224, 224), float32], (Tensor[(1, 3, 224, 224), float32],)), Tensor[(1, 3, 224, 224), uint8], Tensor[(1, 3, 224, 224), float32], Tensor[(0, 5, 447, 224), float32], float32, Tensor[(1, 3, 224, 224), float32], Tensor[(224), float32], Tensor[(3, 224, 224), float32]) span=from_string:57:737 */ = %x_221;
  let %x_241: (Tensor[(1, 3, 224, 224), uint8], Tensor[(3, 224, 224), float32], (Tensor[(1, 3, 224, 224), float32], (Tensor[(1, 3, 224, 224), float32],)), Tensor[(1, 3, 224, 224), uint8], Tensor[(1, 3, 224, 224), float32], Tensor[(0, 5, 447, 224), float32], float32, Tensor[(1, 3, 224, 224), float32], Tensor[(224), float32], Tensor[(3, 224, 224), float32]) /* ty=(Tensor[(1, 3, 224, 224), uint8], Tensor[(3, 224, 224), float32], (Tensor[(1, 3, 224, 224), float32], (Tensor[(1, 3, 224, 224), float32],)), Tensor[(1, 3, 224, 224), uint8], Tensor[(1, 3, 224, 224), float32], Tensor[(0, 5, 447, 224), float32], float32, Tensor[(1, 3, 224, 224), float32], Tensor[(224), float32], Tensor[(3, 224, 224), float32]) span=from_string:58:737 */ = %x_231;
  let %x_251: (Tensor[(1, 3, 224, 224), uint8], Tensor[(3, 224, 224), float32], (Tensor[(1, 3, 224, 224), float32], (Tensor[(1, 3, 224, 224), float32],)), Tensor[(1, 3, 224, 224), uint8], Tensor[(1, 3, 224, 224), float32], Tensor[(0, 5, 447, 224), float32], float32, Tensor[(1, 3, 224, 224), float32], Tensor[(224), float32], Tensor[(3, 224, 224), float32]) /* ty=(Tensor[(1, 3, 224, 224), uint8], Tensor[(3, 224, 224), float32], (Tensor[(1, 3, 224, 224), float32], (Tensor[(1, 3, 224, 224), float32],)), Tensor[(1, 3, 224, 224), uint8], Tensor[(1, 3, 224, 224), float32], Tensor[(0, 5, 447, 224), float32], float32, Tensor[(1, 3, 224, 224), float32], Tensor[(224), float32], Tensor[(3, 224, 224), float32]) span=from_string:59:737 */ = %x_241;
  let %x_261: (Tensor[(1, 3, 224, 224), uint8], Tensor[(3, 224, 224), float32], (Tensor[(1, 3, 224, 224), float32], (Tensor[(1, 3, 224, 224), float32],)), Tensor[(1, 3, 224, 224), uint8], Tensor[(1, 3, 224, 224), float32], Tensor[(0, 5, 447, 224), float32], float32, Tensor[(1, 3, 224, 224), float32], Tensor[(224), float32], Tensor[(3, 224, 224), float32]) /* ty=(Tensor[(1, 3, 224, 224), uint8], Tensor[(3, 224, 224), float32], (Tensor[(1, 3, 224, 224), float32], (Tensor[(1, 3, 224, 224), float32],)), Tensor[(1, 3, 224, 224), uint8], Tensor[(1, 3, 224, 224), float32], Tensor[(0, 5, 447, 224), float32], float32, Tensor[(1, 3, 224, 224), float32], Tensor[(224), float32], Tensor[(3, 224, 224), float32]) span=from_string:60:737 */ = %x_251;
  let %x_271: (Tensor[(1, 3, 224, 224), uint8], Tensor[(3, 224, 224), float32], (Tensor[(1, 3, 224, 224), float32], (Tensor[(1, 3, 224, 224), float32],)), Tensor[(1, 3, 224, 224), uint8], Tensor[(1, 3, 224, 224), float32], Tensor[(0, 5, 447, 224), float32], float32, Tensor[(1, 3, 224, 224), float32], Tensor[(224), float32], Tensor[(3, 224, 224), float32]) /* ty=(Tensor[(1, 3, 224, 224), uint8], Tensor[(3, 224, 224), float32], (Tensor[(1, 3, 224, 224), float32], (Tensor[(1, 3, 224, 224), float32],)), Tensor[(1, 3, 224, 224), uint8], Tensor[(1, 3, 224, 224), float32], Tensor[(0, 5, 447, 224), float32], float32, Tensor[(1, 3, 224, 224), float32], Tensor[(224), float32], Tensor[(3, 224, 224), float32]) span=from_string:61:737 */ = %x_261;
  let %x_281: (Tensor[(1, 3, 224, 224), uint8], Tensor[(3, 224, 224), float32], (Tensor[(1, 3, 224, 224), float32], (Tensor[(1, 3, 224, 224), float32],)), Tensor[(1, 3, 224, 224), uint8], Tensor[(1, 3, 224, 224), float32], Tensor[(0, 5, 447, 224), float32], float32, Tensor[(1, 3, 224, 224), float32], Tensor[(224), float32], Tensor[(3, 224, 224), float32]) /* ty=(Tensor[(1, 3, 224, 224), uint8], Tensor[(3, 224, 224), float32], (Tensor[(1, 3, 224, 224), float32], (Tensor[(1, 3, 224, 224), float32],)), Tensor[(1, 3, 224, 224), uint8], Tensor[(1, 3, 224, 224), float32], Tensor[(0, 5, 447, 224), float32], float32, Tensor[(1, 3, 224, 224), float32], Tensor[(224), float32], Tensor[(3, 224, 224), float32]) span=from_string:62:737 */ = %x_271;
  let %x_291: (Tensor[(1, 3, 224, 224), uint8], Tensor[(3, 224, 224), float32], (Tensor[(1, 3, 224, 224), float32], (Tensor[(1, 3, 224, 224), float32],)), Tensor[(1, 3, 224, 224), uint8], Tensor[(1, 3, 224, 224), float32], Tensor[(0, 5, 447, 224), float32], float32, Tensor[(1, 3, 224, 224), float32], Tensor[(224), float32], Tensor[(3, 224, 224), float32]) /* ty=(Tensor[(1, 3, 224, 224), uint8], Tensor[(3, 224, 224), float32], (Tensor[(1, 3, 224, 224), float32], (Tensor[(1, 3, 224, 224), float32],)), Tensor[(1, 3, 224, 224), uint8], Tensor[(1, 3, 224, 224), float32], Tensor[(0, 5, 447, 224), float32], float32, Tensor[(1, 3, 224, 224), float32], Tensor[(224), float32], Tensor[(3, 224, 224), float32]) span=from_string:63:737 */ = %x_281;
  let %x_301: (Tensor[(1, 3, 224, 224), uint8], Tensor[(3, 224, 224), float32], (Tensor[(1, 3, 224, 224), float32], (Tensor[(1, 3, 224, 224), float32],)), Tensor[(1, 3, 224, 224), uint8], Tensor[(1, 3, 224, 224), float32], Tensor[(0, 5, 447, 224), float32], float32, Tensor[(1, 3, 224, 224), float32], Tensor[(224), float32], Tensor[(3, 224, 224), float32]) /* ty=(Tensor[(1, 3, 224, 224), uint8], Tensor[(3, 224, 224), float32], (Tensor[(1, 3, 224, 224), float32], (Tensor[(1, 3, 224, 224), float32],)), Tensor[(1, 3, 224, 224), uint8], Tensor[(1, 3, 224, 224), float32], Tensor[(0, 5, 447, 224), float32], float32, Tensor[(1, 3, 224, 224), float32], Tensor[(224), float32], Tensor[(3, 224, 224), float32]) span=from_string:64:737 */ = %x_291;
  let %x_312: (Tensor[(1, 3, 224, 224), uint8], Tensor[(3, 224, 224), float32], (Tensor[(1, 3, 224, 224), float32], (Tensor[(1, 3, 224, 224), float32],)), Tensor[(1, 3, 224, 224), uint8], Tensor[(1, 3, 224, 224), float32], Tensor[(0, 5, 447, 224), float32], float32, Tensor[(1, 3, 224, 224), float32], Tensor[(224), float32], Tensor[(3, 224, 224), float32]) /* ty=(Tensor[(1, 3, 224, 224), uint8], Tensor[(3, 224, 224), float32], (Tensor[(1, 3, 224, 224), float32], (Tensor[(1, 3, 224, 224), float32],)), Tensor[(1, 3, 224, 224), uint8], Tensor[(1, 3, 224, 224), float32], Tensor[(0, 5, 447, 224), float32], float32, Tensor[(1, 3, 224, 224), float32], Tensor[(224), float32], Tensor[(3, 224, 224), float32]) span=from_string:65:736 */ = %x_301;
  let %x_32: (Tensor[(1, 3, 224, 224), uint8], Tensor[(3, 224, 224), float32], (Tensor[(1, 3, 224, 224), float32], (Tensor[(1, 3, 224, 224), float32],)), Tensor[(1, 3, 224, 224), uint8], Tensor[(1, 3, 224, 224), float32], Tensor[(0, 5, 447, 224), float32], float32, Tensor[(1, 3, 224, 224), float32], Tensor[(224), float32], Tensor[(3, 224, 224), float32]) /* ty=(Tensor[(1, 3, 224, 224), uint8], Tensor[(3, 224, 224), float32], (Tensor[(1, 3, 224, 224), float32], (Tensor[(1, 3, 224, 224), float32],)), Tensor[(1, 3, 224, 224), uint8], Tensor[(1, 3, 224, 224), float32], Tensor[(0, 5, 447, 224), float32], float32, Tensor[(1, 3, 224, 224), float32], Tensor[(224), float32], Tensor[(3, 224, 224), float32]) span=from_string:66:735 */ = %x_312;
  let %x_33: (Tensor[(1, 3, 224, 224), uint8], Tensor[(3, 224, 224), float32], (Tensor[(1, 3, 224, 224), float32], (Tensor[(1, 3, 224, 224), float32],)), Tensor[(1, 3, 224, 224), uint8], Tensor[(1, 3, 224, 224), float32], Tensor[(0, 5, 447, 224), float32], float32, Tensor[(1, 3, 224, 224), float32], Tensor[(224), float32], Tensor[(3, 224, 224), float32]) /* ty=(Tensor[(1, 3, 224, 224), uint8], Tensor[(3, 224, 224), float32], (Tensor[(1, 3, 224, 224), float32], (Tensor[(1, 3, 224, 224), float32],)), Tensor[(1, 3, 224, 224), uint8], Tensor[(1, 3, 224, 224), float32], Tensor[(0, 5, 447, 224), float32], float32, Tensor[(1, 3, 224, 224), float32], Tensor[(224), float32], Tensor[(3, 224, 224), float32]) span=from_string:67:3 */ = %x_32;
  %x_33
}

#[metadata]
{
  "root": 1, 
  "nodes": [
    {
      "type_key": ""
    }, 
    {
      "type_key": "Map", 
      "keys": [
        "relay.Constant", 
        "relay.attrs.InitOpAttrs"
      ], 
      "data": [2, 21]
    }, 
    {
      "type_key": "Array", 
      "data": [3, 11, 16]
    }, 
    {
      "type_key": "relay.Constant", 
      "attrs": {
        "_checked_type_": "8", 
        "data": "0", 
        "span": "6", 
        "virtual_device_": "4"
      }
    }, 
    {
      "type_key": "VirtualDevice", 
      "attrs": {
        "device_type_int": "-1", 
        "memory_scope": "5", 
        "target": "0", 
        "virtual_device_id": "-1"
      }
    }, 
    {
      "type_key": "runtime.String"
    }, 
    {
      "type_key": "Span", 
      "attrs": {
        "column": "143", 
        "end_column": "161", 
        "end_line": "13", 
        "line": "13", 
        "source_name": "7"
      }
    }, 
    {
      "type_key": "SourceName", 
      "repr_str": "from_string"
    }, 
    {
      "type_key": "relay.TensorType", 
      "attrs": {
        "dtype": "int32", 
        "shape": "9", 
        "span": "0"
      }
    }, 
    {
      "type_key": "Array", 
      "data": [10]
    }, 
    {
      "type_key": "IntImm", 
      "attrs": {
        "dtype": "int32", 
        "span": "0", 
        "value": "4"
      }
    }, 
    {
      "type_key": "relay.Constant", 
      "attrs": {
        "_checked_type_": "13", 
        "data": "1", 
        "span": "12", 
        "virtual_device_": "4"
      }
    }, 
    {
      "type_key": "Span", 
      "attrs": {
        "column": "145", 
        "end_column": "163", 
        "end_line": "16", 
        "line": "16", 
        "source_name": "7"
      }
    }, 
    {
      "type_key": "relay.TensorType", 
      "attrs": {
        "dtype": "int32", 
        "shape": "14", 
        "span": "0"
      }
    }, 
    {
      "type_key": "Array", 
      "data": [15]
    }, 
    {
      "type_key": "IntImm", 
      "attrs": {
        "dtype": "int32", 
        "span": "0", 
        "value": "4"
      }
    }, 
    {
      "type_key": "relay.Constant", 
      "attrs": {
        "_checked_type_": "18", 
        "data": "2", 
        "span": "17", 
        "virtual_device_": "4"
      }
    }, 
    {
      "type_key": "Span", 
      "attrs": {
        "column": "121", 
        "end_column": "139", 
        "end_line": "28", 
        "line": "28", 
        "source_name": "7"
      }
    }, 
    {
      "type_key": "relay.TensorType", 
      "attrs": {
        "dtype": "int32", 
        "shape": "19", 
        "span": "0"
      }
    }, 
    {
      "type_key": "Array", 
      "data": [20]
    }, 
    {
      "type_key": "IntImm", 
      "attrs": {
        "dtype": "int32", 
        "span": "0", 
        "value": "1"
      }
    }, 
    {
      "type_key": "Array", 
      "data": [22, 28, 30]
    }, 
    {
      "type_key": "relay.attrs.InitOpAttrs", 
      "attrs": {
        "dtype": "", 
        "shape": "23"
      }
    }, 
    {
      "type_key": "Array", 
      "data": [24, 25, 26, 27]
    }, 
    {
      "type_key": "IntImm", 
      "attrs": {
        "dtype": "int32", 
        "span": "0", 
        "value": "1"
      }
    }, 
    {
      "type_key": "IntImm", 
      "attrs": {
        "dtype": "int32", 
        "span": "0", 
        "value": "3"
      }
    }, 
    {
      "type_key": "IntImm", 
      "attrs": {
        "dtype": "int32", 
        "span": "0", 
        "value": "224"
      }
    }, 
    {
      "type_key": "IntImm", 
      "attrs": {
        "dtype": "int32", 
        "span": "0", 
        "value": "224"
      }
    }, 
    {
      "type_key": "relay.attrs.InitOpAttrs", 
      "attrs": {
        "dtype": "", 
        "shape": "29"
      }
    }, 
    {
      "type_key": "Array", 
      "data": [24, 25, 26, 27]
    }, 
    {
      "type_key": "relay.attrs.InitOpAttrs", 
      "attrs": {
        "dtype": "", 
        "shape": "31"
      }
    }, 
    {
      "type_key": "Array", 
      "data": [32]
    }, 
    {
      "type_key": "IntImm", 
      "attrs": {
        "dtype": "int32", 
        "span": "0", 
        "value": "224"
      }
    }
  ], 
  "b64ndarrays": [
    "P6G0lvBAXt0AAAAAAAAAAAEAAAAAAAAAAQAAAAAgAQAEAAAAAAAAABAAAAAAAAAAAQAAAAMAAADgAAAA4AAAAA==", 
    "P6G0lvBAXt0AAAAAAAAAAAEAAAAAAAAAAQAAAAAgAQAEAAAAAAAAABAAAAAAAAAAAQAAAAMAAADgAAAA4AAAAA==", 
    "P6G0lvBAXt0AAAAAAAAAAAEAAAAAAAAAAQAAAAAgAQABAAAAAAAAAAQAAAAAAAAA4AAAAA=="
  ], 
  "attrs": {"tvm_version": "0.13.0"}
}