#[version = "0.0.5"]
def @main(%x0: Tensor[(1, 3, 224, 224), uint8] /* ty=Tensor[(1, 3, 224, 224), uint8] span=from_string:77:13 */, %x1: Tensor[(3, 224, 224), float32] /* ty=Tensor[(3, 224, 224), float32] span=from_string:81:13 */, %x2: Tensor[(224), float32] /* ty=Tensor[(224), float32] */) -> (Tensor[(1, 3, 224, 224), uint8], Tensor[(3, 224, 224), float32], (Tensor[(1, 3, 224, 224), float32], (Tensor[(1, 3, 224, 224), float32],)), Tensor[(1, 3, 224, 224), uint8], Tensor[(1, 3, 224, 224), float32], Tensor[(0, 5, 447, 224), float32], float32, Tensor[(1, 3, 224, 224), float32], Tensor[(224), float32], Tensor[(3, 224, 224), float32]) {
  %0 = fn (%p01: Tensor[(1, 3, 224, 224), uint8] /* ty=Tensor[(1, 3, 224, 224), uint8] span=from_string:4:20 */, Primitive=1) -> Tensor[(1, 3, 224, 224), float32] {
    qnn.dequantize(%p01, 2f /* ty=float32 span=from_string:4:28 */, 114 /* ty=int32 span=from_string:4:72 */) /* ty=Tensor[(1, 3, 224, 224), float32] span=from_string:4:5 */
  } /* ty=fn (Tensor[(1, 3, 224, 224), uint8]) -> Tensor[(1, 3, 224, 224), float32] span=from_string:6:8 */;
  %1 = %0(%x0) /* ty=Tensor[(1, 3, 224, 224), float32] span=from_string:42:18 */;
  %2 = fn (%p0: Tensor[(1, 3, 224, 224), float32] /* ty=Tensor[(1, 3, 224, 224), float32] span=from_string:8:20 */, Primitive=1) -> Tensor[(1, 3, 224, 224), float32] {
    multiply(%p0, %p0) /* ty=Tensor[(1, 3, 224, 224), float32] span=from_string:8:6 */
  } /* ty=fn (Tensor[(1, 3, 224, 224), float32]) -> Tensor[(1, 3, 224, 224), float32] span=from_string:10:114 */;
  let %x3: Tensor[(1, 3, 224, 224), float32] /* ty=Tensor[(1, 3, 224, 224), float32] span=from_string:76:10 */ = %2(%1) /* ty=Tensor[(1, 3, 224, 224), float32] span=from_string:10:114 */;
  %3 = fn (Primitive=1) -> Tensor[(1, 3, 224, 224), float32] {
    ones(shape=[1, 3, 224, 224], dtype="float32") /* ty=Tensor[(1, 3, 224, 224), float32] span=from_string:12:5 */
  } /* ty=fn () -> Tensor[(1, 3, 224, 224), float32] span=from_string:14:114 */;
  let %x4: Tensor[(1, 3, 224, 224), float32] /* ty=Tensor[(1, 3, 224, 224), float32] span=from_string:42:13 */ = %3() /* ty=Tensor[(1, 3, 224, 224), float32] span=from_string:14:114 */;
  %4 = fn (%p03: Tensor[(1, 3, 224, 224), float32] /* ty=Tensor[(1, 3, 224, 224), float32] span=from_string:16:10 */, Primitive=1) -> Tensor[(1, 3, 224, 224), float32] {
    clip(%p03, a_min=0f, a_max=6f) /* ty=Tensor[(1, 3, 224, 224), float32] span=from_string:16:5 */
  } /* ty=fn (Tensor[(1, 3, 224, 224), float32]) -> Tensor[(1, 3, 224, 224), float32] span=from_string:18:8 */;
  %5 = %4(%1) /* ty=Tensor[(1, 3, 224, 224), float32] span=from_string:75:12 */;
  %6 = fn (%p02: Tensor[(1, 3, 224, 224), float32] /* ty=Tensor[(1, 3, 224, 224), float32] span=from_string:20:18 */, Primitive=1) -> Tensor[(1, 3, 224, 224), uint8] {
    qnn.quantize(%p02, 2f /* ty=float32 span=from_string:20:26 */, 114 /* ty=int32 span=from_string:20:71 */, out_dtype="uint8") /* ty=Tensor[(1, 3, 224, 224), uint8] span=from_string:20:5 */
  } /* ty=fn (Tensor[(1, 3, 224, 224), float32]) -> Tensor[(1, 3, 224, 224), uint8] span=from_string:74:9 */;
  %7 = fn (%p04: Tensor[(1, 3, 224, 224), float32] /* ty=Tensor[(1, 3, 224, 224), float32] span=from_string:23:13 */, Primitive=1, relay.reshape_only=1) -> Tensor[(3, 224, 224), float32] {
    reshape(%p04, newshape=[3, 224, 224]) /* ty=Tensor[(3, 224, 224), float32] span=from_string:23:5 */
  } /* ty=fn (Tensor[(1, 3, 224, 224), float32]) -> Tensor[(3, 224, 224), float32] span=from_string:75:9 */;
  %8 = fn (Primitive=1) -> Tensor[(1, 3, 224, 224), float32] {
    zeros(shape=[1, 3, 224, 224], dtype="float32") /* ty=Tensor[(1, 3, 224, 224), float32] span=from_string:26:5 */
  } /* ty=fn () -> Tensor[(1, 3, 224, 224), float32] span=from_string:32:9 */;
  %10 = fn (%p07: Tensor[(1, 3, 224, 224), float32] /* ty=Tensor[(1, 3, 224, 224), float32] span=from_string:29:20 */, %p12: Tensor[(1, 3, 224, 224), float32] /* ty=Tensor[(1, 3, 224, 224), float32] span=from_string:29:26 */, %p2: Tensor[(4), int32] /* ty=Tensor[(4), int32] span=from_string:30:25 */, Primitive=1) -> Tensor[(1, 3, 224, 224), float32] {
    %9 = multiply(%p07, %p12) /* ty=Tensor[(1, 3, 224, 224), float32] span=from_string:30:21 */;
    collapse_sum_to(%9, %p2, meta[relay.attrs.InitOpAttrs][0]) /* ty=Tensor[(1, 3, 224, 224), float32] span=from_string:29:5 */
  } /* ty=fn (Tensor[(1, 3, 224, 224), float32], Tensor[(1, 3, 224, 224), float32], Tensor[(4), int32]) -> Tensor[(1, 3, 224, 224), float32] span=from_string:33:9 */;
  %11 = %8() /* ty=Tensor[(1, 3, 224, 224), float32] span=from_string:78:13 */;
  %12 = %10(%x4, %1, meta[relay.Constant][0] /* ty=Tensor[(4), int32] span=from_string:33:27 */) /* ty=Tensor[(1, 3, 224, 224), float32] span=from_string:80:13 */;
  %13 = fn (%p06: Tensor[(1, 3, 224, 224), float32] /* ty=Tensor[(1, 3, 224, 224), float32] span=from_string:35:9 */, %p11: Tensor[(1, 3, 224, 224), float32] /* ty=Tensor[(1, 3, 224, 224), float32] span=from_string:35:15 */, Primitive=1) -> Tensor[(1, 3, 224, 224), float32] {
    add(%p06, %p11) /* ty=Tensor[(1, 3, 224, 224), float32] span=from_string:35:5 */
  } /* ty=fn (Tensor[(1, 3, 224, 224), float32], Tensor[(1, 3, 224, 224), float32]) -> Tensor[(1, 3, 224, 224), float32] span=from_string:41:9 */;
  %15 = fn (%p08: Tensor[(1, 3, 224, 224), float32] /* ty=Tensor[(1, 3, 224, 224), float32] span=from_string:38:21 */, %p13: Tensor[(1, 3, 224, 224), float32] /* ty=Tensor[(1, 3, 224, 224), float32] span=from_string:38:27 */, %p21: Tensor[(4), int32] /* ty=Tensor[(4), int32] span=from_string:39:26 */, Primitive=1) -> Tensor[(1, 3, 224, 224), float32] {
    %14 = multiply(%p08, %p13) /* ty=Tensor[(1, 3, 224, 224), float32] span=from_string:39:21 */;
    collapse_sum_to(%14, %p21, meta[relay.attrs.InitOpAttrs][1]) /* ty=Tensor[(1, 3, 224, 224), float32] span=from_string:38:5 */
  } /* ty=fn (Tensor[(1, 3, 224, 224), float32], Tensor[(1, 3, 224, 224), float32], Tensor[(4), int32]) -> Tensor[(1, 3, 224, 224), float32] span=from_string:42:9 */;
  %16 = %13(%11, %12) /* ty=Tensor[(1, 3, 224, 224), float32] span=from_string:79:13 */;
  %17 = %15(%x4, %1, meta[relay.Constant][1] /* ty=Tensor[(4), int32] span=from_string:42:27 */) /* ty=Tensor[(1, 3, 224, 224), float32] span=from_string:46:18 */;
  %18 = fn (%p05: Tensor[(1, 3, 224, 224), float32] /* ty=Tensor[(1, 3, 224, 224), float32] span=from_string:44:9 */, %p1: Tensor[(1, 3, 224, 224), float32] /* ty=Tensor[(1, 3, 224, 224), float32] span=from_string:44:15 */, Primitive=1) -> Tensor[(1, 3, 224, 224), float32] {
    add(%p05, %p1) /* ty=Tensor[(1, 3, 224, 224), float32] span=from_string:44:5 */
  } /* ty=fn (Tensor[(1, 3, 224, 224), float32], Tensor[(1, 3, 224, 224), float32]) -> Tensor[(1, 3, 224, 224), float32] span=from_string:46:9 */;
  %19 = %18(%16, %17) /* ty=Tensor[(1, 3, 224, 224), float32] span=from_string:47:10 */;
  %20 = (%19,) /* ty=(Tensor[(1, 3, 224, 224), float32],) span=from_string:76:15 */;
  %23 = fn (%p09: Tensor[(1, 3, 224, 224), uint8] /* ty=Tensor[(1, 3, 224, 224), uint8] span=from_string:49:26 */, Primitive=1) -> Tensor[(1, 3, 224, 224), uint8] {
    %21 = qnn.dequantize(%p09, 2f /* ty=float32 span=from_string:49:34 */, 114 /* ty=int32 span=from_string:49:79 */) /* ty=Tensor[(1, 3, 224, 224), float32] span=from_string:50:16 */;
    %22 = clip(%21, a_min=0f, a_max=6f) /* ty=Tensor[(1, 3, 224, 224), float32] span=from_string:51:18 */;
    qnn.quantize(%22, 2f /* ty=float32 span=from_string:51:25 */, 114 /* ty=int32 span=from_string:51:70 */, out_dtype="uint8") /* ty=Tensor[(1, 3, 224, 224), uint8] span=from_string:49:5 */
  } /* ty=fn (Tensor[(1, 3, 224, 224), uint8]) -> Tensor[(1, 3, 224, 224), uint8] span=from_string:77:9 */;
  %24 = fn (Primitive=1) -> Tensor[(1, 3, 224, 224), float32] {
    ones(shape=[1, 3, 224, 224], dtype="float32") /* ty=Tensor[(1, 3, 224, 224), float32] span=from_string:54:5 */
  } /* ty=fn () -> Tensor[(1, 3, 224, 224), float32] span=from_string:56:9 */;
  %25 = %24() /* ty=Tensor[(1, 3, 224, 224), float32] span=from_string:82:13 */;
  %26 = fn (%p010: Tensor[(1, 3, 224, 224), float32] /* ty=Tensor[(1, 3, 224, 224), float32] span=from_string:58:9 */, %p14: Tensor[(1, 3, 224, 224), float32] /* ty=Tensor[(1, 3, 224, 224), float32] span=from_string:58:16 */, Primitive=1) -> Tensor[(1, 3, 224, 224), float32] {
    add(%p010, %p14) /* ty=Tensor[(1, 3, 224, 224), float32] span=from_string:58:5 */
  } /* ty=fn (Tensor[(1, 3, 224, 224), float32], Tensor[(1, 3, 224, 224), float32]) -> Tensor[(1, 3, 224, 224), float32] span=from_string:78:9 */;
  %27 = fn (%p011: Tensor[(1, 3, 224, 224), float32] /* ty=Tensor[(1, 3, 224, 224), float32] span=from_string:61:26 */, Primitive=1) -> Tensor[(0, 5, 447, 224), float32] {
    nn.batch_to_space_nd(%p011, block_shape=[2, 2], crops=[[0, 1], [0, 1]]) /* ty=Tensor[(0, 5, 447, 224), float32] span=from_string:61:5 */
  } /* ty=fn (Tensor[(1, 3, 224, 224), float32]) -> Tensor[(0, 5, 447, 224), float32] span=from_string:79:9 */;
  %28 = fn (%p012: Tensor[(1, 3, 224, 224), float32] /* ty=Tensor[(1, 3, 224, 224), float32] span=from_string:64:13 */, Primitive=1) -> Tensor[(1, 3, 224, 224), float32] {
    nn.relu(%p012) /* ty=Tensor[(1, 3, 224, 224), float32] span=from_string:64:5 */
  } /* ty=fn (Tensor[(1, 3, 224, 224), float32]) -> Tensor[(1, 3, 224, 224), float32] span=from_string:80:9 */;
  %29 = fn (%p013: Tensor[(3, 224, 224), float32] /* ty=Tensor[(3, 224, 224), float32] span=from_string:67:21 */, %p15: Tensor[(1), int32] /* ty=Tensor[(1), int32] span=from_string:67:28 */, Primitive=1) -> Tensor[(224), float32] {
    collapse_sum_to(%p013, %p15, meta[relay.attrs.InitOpAttrs][2]) /* ty=Tensor[(224), float32] span=from_string:67:5 */
  } /* ty=fn (Tensor[(3, 224, 224), float32], Tensor[(1), int32]) -> Tensor[(224), float32] span=from_string:81:9 */;
  %32 = fn (%p014: Tensor[(1, 3, 224, 224), float32] /* ty=Tensor[(1, 3, 224, 224), float32] span=from_string:70:15 */, Primitive=1) -> Tensor[(3, 224, 224), float32] {
    %30 = add(%p014, 1f /* ty=float32 span=from_string:70:24 */) /* ty=Tensor[(1, 3, 224, 224), float32] span=from_string:71:15 */;
    %31 = exp(%30) /* ty=Tensor[(1, 3, 224, 224), float32] span=from_string:72:13 */;
    squeeze(%31) /* ty=Tensor[(3, 224, 224), float32] span=from_string:70:5 */
  } /* ty=fn (Tensor[(1, 3, 224, 224), float32]) -> Tensor[(3, 224, 224), float32] span=from_string:82:9 */;
  %33 = %6(%5) /* ty=Tensor[(1, 3, 224, 224), uint8] span=from_string:83:4 */;
  %34 = %7(%5) /* ty=Tensor[(3, 224, 224), float32] span=from_string:83:9 */;
  %35 = (%x3, %20) /* ty=(Tensor[(1, 3, 224, 224), float32], (Tensor[(1, 3, 224, 224), float32],)) span=from_string:83:14 */;
  %36 = %23(%x0) /* ty=Tensor[(1, 3, 224, 224), uint8] span=from_string:83:19 */;
  %37 = %26(%11, %25) /* ty=Tensor[(1, 3, 224, 224), float32] span=from_string:83:24 */;
  %38 = %27(%16) /* ty=Tensor[(0, 5, 447, 224), float32] span=from_string:83:29 */;
  %39 = %28(%12) /* ty=Tensor[(1, 3, 224, 224), float32] span=from_string:83:78 */;
  %40 = %29(%x1, meta[relay.Constant][2] /* ty=Tensor[(1), int32] span=from_string:81:23 */) /* ty=Tensor[(224), float32] span=from_string:83:83 */;
  %41 = %32(%25) /* ty=Tensor[(3, 224, 224), float32] span=from_string:83:88 */;
  (%33, %34, %35, %36, %37, %38, 4f /* ty=float32 span=from_string:83:36 */, %39, %40, %41) /* ty=(Tensor[(1, 3, 224, 224), uint8], Tensor[(3, 224, 224), float32], (Tensor[(1, 3, 224, 224), float32], (Tensor[(1, 3, 224, 224), float32],)), Tensor[(1, 3, 224, 224), uint8], Tensor[(1, 3, 224, 224), float32], Tensor[(0, 5, 447, 224), float32], float32, Tensor[(1, 3, 224, 224), float32], Tensor[(224), float32], Tensor[(3, 224, 224), float32]) span=from_string:83:3 */
}

#[metadata]
{
  "root": 1, 
  "nodes": [
    {
      "type_key": ""
    }, 
    {
      "type_key": "Map", 
      "keys": [
        "relay.Constant", 
        "relay.attrs.InitOpAttrs"
      ], 
      "data": [2, 21]
    }, 
    {
      "type_key": "Array", 
      "data": [3, 11, 16]
    }, 
    {
      "type_key": "relay.Constant", 
      "attrs": {
        "_checked_type_": "8", 
        "data": "0", 
        "span": "6", 
        "virtual_device_": "4"
      }
    }, 
    {
      "type_key": "VirtualDevice", 
      "attrs": {
        "device_type_int": "-1", 
        "memory_scope": "5", 
        "target": "0", 
        "virtual_device_id": "-1"
      }
    }, 
    {
      "type_key": "runtime.String"
    }, 
    {
      "type_key": "Span", 
      "attrs": {
        "column": "27", 
        "end_column": "45", 
        "end_line": "33", 
        "line": "33", 
        "source_name": "7"
      }
    }, 
    {
      "type_key": "SourceName", 
      "repr_str": "from_string"
    }, 
    {
      "type_key": "relay.TensorType", 
      "attrs": {
        "dtype": "int32", 
        "shape": "9", 
        "span": "0"
      }
    }, 
    {
      "type_key": "Array", 
      "data": [10]
    }, 
    {
      "type_key": "IntImm", 
      "attrs": {
        "dtype": "int32", 
        "span": "0", 
        "value": "4"
      }
    }, 
    {
      "type_key": "relay.Constant", 
      "attrs": {
        "_checked_type_": "13", 
        "data": "1", 
        "span": "12", 
        "virtual_device_": "4"
      }
    }, 
    {
      "type_key": "Span", 
      "attrs": {
        "column": "27", 
        "end_column": "45", 
        "end_line": "42", 
        "line": "42", 
        "source_name": "7"
      }
    }, 
    {
      "type_key": "relay.TensorType", 
      "attrs": {
        "dtype": "int32", 
        "shape": "14", 
        "span": "0"
      }
    }, 
    {
      "type_key": "Array", 
      "data": [15]
    }, 
    {
      "type_key": "IntImm", 
      "attrs": {
        "dtype": "int32", 
        "span": "0", 
        "value": "4"
      }
    }, 
    {
      "type_key": "relay.Constant", 
      "attrs": {
        "_checked_type_": "18", 
        "data": "2", 
        "span": "17", 
        "virtual_device_": "4"
      }
    }, 
    {
      "type_key": "Span", 
      "attrs": {
        "column": "23", 
        "end_column": "41", 
        "end_line": "81", 
        "line": "81", 
        "source_name": "7"
      }
    }, 
    {
      "type_key": "relay.TensorType", 
      "attrs": {
        "dtype": "int32", 
        "shape": "19", 
        "span": "0"
      }
    }, 
    {
      "type_key": "Array", 
      "data": [20]
    }, 
    {
      "type_key": "IntImm", 
      "attrs": {
        "dtype": "int32", 
        "span": "0", 
        "value": "1"
      }
    }, 
    {
      "type_key": "Array", 
      "data": [22, 28, 30]
    }, 
    {
      "type_key": "relay.attrs.InitOpAttrs", 
      "attrs": {
        "dtype": "", 
        "shape": "23"
      }
    }, 
    {
      "type_key": "Array", 
      "data": [24, 25, 26, 27]
    }, 
    {
      "type_key": "IntImm", 
      "attrs": {
        "dtype": "int32", 
        "span": "0", 
        "value": "1"
      }
    }, 
    {
      "type_key": "IntImm", 
      "attrs": {
        "dtype": "int32", 
        "span": "0", 
        "value": "3"
      }
    }, 
    {
      "type_key": "IntImm", 
      "attrs": {
        "dtype": "int32", 
        "span": "0", 
        "value": "224"
      }
    }, 
    {
      "type_key": "IntImm", 
      "attrs": {
        "dtype": "int32", 
        "span": "0", 
        "value": "224"
      }
    }, 
    {
      "type_key": "relay.attrs.InitOpAttrs", 
      "attrs": {
        "dtype": "", 
        "shape": "29"
      }
    }, 
    {
      "type_key": "Array", 
      "data": [24, 25, 26, 27]
    }, 
    {
      "type_key": "relay.attrs.InitOpAttrs", 
      "attrs": {
        "dtype": "", 
        "shape": "31"
      }
    }, 
    {
      "type_key": "Array", 
      "data": [32]
    }, 
    {
      "type_key": "IntImm", 
      "attrs": {
        "dtype": "int32", 
        "span": "0", 
        "value": "224"
      }
    }
  ], 
  "b64ndarrays": [
    "P6G0lvBAXt0AAAAAAAAAAAEAAAAAAAAAAQAAAAAgAQAEAAAAAAAAABAAAAAAAAAAAQAAAAMAAADgAAAA4AAAAA==", 
    "P6G0lvBAXt0AAAAAAAAAAAEAAAAAAAAAAQAAAAAgAQAEAAAAAAAAABAAAAAAAAAAAQAAAAMAAADgAAAA4AAAAA==", 
    "P6G0lvBAXt0AAAAAAAAAAAEAAAAAAAAAAQAAAAAgAQABAAAAAAAAAAQAAAAAAAAA4AAAAA=="
  ], 
  "attrs": {"tvm_version": "0.13.0"}
}