#[version = "0.0.5"]
def @main(%x0: Tensor[(10, 10), float32] /* ty=Tensor[(10, 10), float32] span=from_string:4:12 */, %x1: Tensor[(65, 10), float32] /* ty=Tensor[(65, 10), float32] span=from_string:16:18 */, %x2: Tensor[(10, 10), float32] /* ty=Tensor[(10, 10), float32] span=from_string:16:23 */, %x3: Tensor[(10), float32] /* ty=Tensor[(10), float32] span=from_string:17:18 */, %x4: Tensor[(10), float32] /* ty=Tensor[(10), float32] span=from_string:18:18 */, %x5: Tensor[(12, 10), float32] /* ty=Tensor[(12, 10), float32] span=from_string:19:22 */, %x6: Tensor[(12), float32] /* ty=Tensor[(12), float32] span=from_string:20:18 */, %x7: Tensor[(1), float32] /* ty=Tensor[(1), float32] span=from_string:21:24 */, %x8: Tensor[(24, 10), float32] /* ty=Tensor[(24, 10), float32] span=from_string:10:21 */, %x9: Tensor[(24), float32] /* ty=Tensor[(24), float32] span=from_string:11:16 */, %x10: Tensor[(1), float32] /* ty=Tensor[(1), float32] span=from_string:49:13 */, %x11: Tensor[(14, 30), float32] /* ty=Tensor[(14, 30), float32] span=from_string:33:15 */, %x12: Tensor[(42, 24), float32] /* ty=Tensor[(42, 24), float32] span=from_string:41:18 */, %x13: Tensor[(10, 24), float32] /* ty=Tensor[(10, 24), float32] span=from_string:41:24 */, %x14: Tensor[(10), float32] /* ty=Tensor[(10), float32] span=from_string:39:18 */, %x15: Tensor[(10), float32] /* ty=Tensor[(10), float32] span=from_string:42:18 */, %x16: Tensor[(1), float32] /* ty=Tensor[(1), float32] span=from_string:40:24 */, %x17: Tensor[(1), float32] /* ty=Tensor[(1), float32] span=from_string:43:24 */) -> ((Tensor[(65, 10), float32], Tensor[(65, 10), float32]), (Tensor[(1, 1, 120), float32], Tensor[(1, 1, 240), float32]), (Tensor[(10, 24), float32], (Tensor[(10, 24), float32],)), Tensor[(1), float32], Tensor[(14, 65), float32], Tensor[(65, 10), bfloat16], (Tensor[(1, 1, 420), float32], Tensor[(1, 1, 420), float32])) {
  let %x_0 = zeros_like(%x0);
  let %x_1 = add(%x0, %x_0);
  let %x_2 = nn.relu(%x_1);
  let %x_3 = 1f /* ty=float32 span=from_string:7:18 */;
  let %x_4 = add(%x_2, %x_3);
  let %x_5 = nn.relu(%x_1);
  let %x_6 = 1f /* ty=float32 span=from_string:8:18 */;
  let %x_7 = add(%x_5, %x_6);
  let %x_8 = add(%x_4, %x_7);
  let %x_9 = nn.dense(%x_8, %x8, units=None);
  let %x_10 = add(%x_9, %x9);
  let %x_11 = multiply(%x_10, %x10);
  let %x18: Tensor[(10, 24), float32] /* ty=Tensor[(10, 24), float32] span=from_string:48:10 */ = multiply(%x_11, %x_11);
  let %x19: Tensor[(10, 24), float32] /* ty=Tensor[(10, 24), float32] span=from_string:27:19 */ = ones_like(%x18);
  let %x_12 = nn.dense(%x1, %x_1, units=None);
  let %x_13 = add(%x_12, %x3);
  let %x_14 = nn.dense(%x1, %x2, units=None);
  let %x_15 = add(%x_14, %x4);
  let %x_16 = (%x_13, %x_15) /* ty=(Tensor[(65, 10), float32], Tensor[(65, 10), float32]) span=from_string:53:4 */;
  let %x_17 = nn.dense(%x_8, %x5, units=None);
  let %x_18 = add(%x_17, %x6);
  let %x_19 = multiply(%x_18, %x7);
  let %x_20 = reshape(%x_19, newshape=[1, 1, 120]);
  let %x_21 = reshape(%x_11, newshape=[1, 1, 240]);
  let %x_22 = (%x_20, %x_21) /* ty=(Tensor[(1, 1, 120), float32], Tensor[(1, 1, 240), float32]) span=from_string:53:9 */;
  let %x_23 = zeros_like(%x_11);
  let %x_24 = multiply(%x19, %x_11);
  let %x_25 = collapse_sum_like(%x_24, %x_11);
  let %x_26 = add(%x_23, %x_25);
  let %x_27 = multiply(%x19, %x_11);
  let %x_28 = collapse_sum_like(%x_27, %x_11);
  let %x_29 = add(%x_26, %x_28);
  let %x_30 = (%x_29,) /* ty=(Tensor[(10, 24), float32],) span=from_string:48:16 */;
  let %x_31 = (%x18, %x_30) /* ty=(Tensor[(10, 24), float32], (Tensor[(10, 24), float32],)) span=from_string:53:14 */;
  let %x_32 = ones(shape=[1], dtype="float32");
  let %x_33 = add(%x10, %x_32);
  let %x_34 = split(%x11, indices_or_sections=3, axis=1);
  let %x_35 = %x_34.0;
  let %x_36 = ones_like(%x_14);
  let %x_37 = add(%x_14, %x_36);
  let %x_38 = nn.dense(%x_35, %x_37, units=None);
  let %x_39 = cast(%x_37, dtype="bfloat16");
  let %x_40 = clip(%x_39, a_min=-0.2f, a_max=0.4f);
  let %x_41 = nn.dense(%x12, %x_24, units=None);
  let %x_42 = add(%x_41, %x14);
  let %x_43 = multiply(%x_42, %x16);
  let %x_44 = reshape(%x_43, newshape=[1, 1, -1]);
  let %x_45 = nn.dense(%x12, %x13, units=None);
  let %x_46 = add(%x_45, %x15);
  let %x_47 = multiply(%x_46, %x17);
  let %x_48 = reshape(%x_47, newshape=[1, 1, -1]);
  let %x_49 = (%x_44, %x_48) /* ty=(Tensor[(1, 1, 420), float32], Tensor[(1, 1, 420), float32]) span=from_string:53:34 */;
  let %x_50 = (%x_16, %x_22, %x_31, %x_33, %x_38, %x_40, %x_49) /* ty=((Tensor[(65, 10), float32], Tensor[(65, 10), float32]), (Tensor[(1, 1, 120), float32], Tensor[(1, 1, 240), float32]), (Tensor[(10, 24), float32], (Tensor[(10, 24), float32],)), Tensor[(1), float32], Tensor[(14, 65), float32], Tensor[(65, 10), bfloat16], (Tensor[(1, 1, 420), float32], Tensor[(1, 1, 420), float32])) span=from_string:53:3 */;
  let %x_51 = %x_50;
  let %x_52 = %x_51;
  %x_52
}
