#[version = "0.0.5"]
def @main(%x0: Tensor[(10, 10), float32] /* ty=Tensor[(10, 10), float32] span=from_string:3:13 */, %x1: Tensor[(65, 10), float32] /* ty=Tensor[(65, 10), float32] span=from_string:21:14 */, %x2: Tensor[(10, 10), float32] /* ty=Tensor[(10, 10), float32] span=from_string:24:14 */, %x3: Tensor[(10), float32] /* ty=Tensor[(10), float32] span=from_string:23:14 */, %x4: Tensor[(10), float32] /* ty=Tensor[(10), float32] span=from_string:26:14 */, %x5: Tensor[(12, 10), float32] /* ty=Tensor[(12, 10), float32] span=from_string:29:14 */, %x6: Tensor[(12), float32] /* ty=Tensor[(12), float32] span=from_string:31:14 */, %x7: Tensor[(1), float32] /* ty=Tensor[(1), float32] span=from_string:33:14 */, %x8: Tensor[(24, 10), float32] /* ty=Tensor[(24, 10), float32] span=from_string:13:14 */, %x9: Tensor[(24), float32] /* ty=Tensor[(24), float32] span=from_string:15:14 */, %x10: Tensor[(1), float32] /* ty=Tensor[(1), float32] span=from_string:17:14 */, %x11: Tensor[(14, 30), float32] /* ty=Tensor[(14, 30), float32] span=from_string:46:14 */, %x12: Tensor[(42, 24), float32] /* ty=Tensor[(42, 24), float32] span=from_string:53:14 */, %x13: Tensor[(10, 24), float32] /* ty=Tensor[(10, 24), float32] span=from_string:59:14 */, %x14: Tensor[(10), float32] /* ty=Tensor[(10), float32] span=from_string:55:14 */, %x15: Tensor[(10), float32] /* ty=Tensor[(10), float32] span=from_string:61:14 */, %x16: Tensor[(1), float32] /* ty=Tensor[(1), float32] span=from_string:57:14 */, %x17: Tensor[(1), float32] /* ty=Tensor[(1), float32] span=from_string:63:14 */) -> ((Tensor[(65, 10), float16], Tensor[(65, 10), float16]), (Tensor[(1, 1, 120), float16], Tensor[(1, 1, 240), float16]), (Tensor[(10, 24), float16], (Tensor[(10, 24), float16],)), Tensor[(1), float16], Tensor[(14, 65), float16], Tensor[(65, 10), float32], (Tensor[(1, 1, 420), float16], Tensor[(1, 1, 420), float16])) {
  let %x_0 = cast(%x0, dtype="float16");
  let %x_1 = zeros_like(%x_0);
  let %x_2 = add(%x_0, %x_1);
  let %x_3 = nn.relu(%x_2);
  let %x_4 = 1f /* ty=float32 span=from_string:7:15 */;
  let %x_5 = cast(%x_4, dtype="float16");
  let %x_6 = add(%x_3, %x_5);
  let %x_7 = nn.relu(%x_2);
  let %x_8 = 1f /* ty=float32 span=from_string:9:15 */;
  let %x_9 = cast(%x_8, dtype="float16");
  let %x_10 = add(%x_7, %x_9);
  let %x_11 = add(%x_6, %x_10);
  let %x_12 = cast(%x8, dtype="float16");
  let %x_13 = nn.dense(%x_11, %x_12, units=None, out_dtype="float16");
  let %x_14 = cast(%x9, dtype="float16");
  let %x_15 = add(%x_13, %x_14);
  let %x_16 = cast(%x10, dtype="float16");
  let %x_17 = multiply(%x_15, %x_16);
  let %x18: Tensor[(10, 24), float16] /* ty=Tensor[(10, 24), float16] span=from_string:69:10 */ = multiply(%x_17, %x_17);
  let %x19: Tensor[(10, 24), float16] /* ty=Tensor[(10, 24), float16] span=from_string:40:19 */ = ones_like(%x18);
  let %x_18 = cast(%x1, dtype="float16");
  let %x_19 = nn.dense(%x_18, %x_2, units=None, out_dtype="float16");
  let %x_20 = cast(%x3, dtype="float16");
  let %x_21 = add(%x_19, %x_20);
  let %x_22 = cast(%x2, dtype="float16");
  let %x_23 = nn.dense(%x_18, %x_22, units=None, out_dtype="float16");
  let %x_24 = cast(%x4, dtype="float16");
  let %x_25 = add(%x_23, %x_24);
  let %x_26 = (%x_21, %x_25) /* ty=(Tensor[(65, 10), float16], Tensor[(65, 10), float16]) span=from_string:74:4 */;
  let %x_27 = cast(%x5, dtype="float16");
  let %x_28 = nn.dense(%x_11, %x_27, units=None, out_dtype="float16");
  let %x_29 = cast(%x6, dtype="float16");
  let %x_30 = add(%x_28, %x_29);
  let %x_31 = cast(%x7, dtype="float16");
  let %x_32 = multiply(%x_30, %x_31);
  let %x_33 = reshape(%x_32, newshape=[1, 1, 120]);
  let %x_34 = reshape(%x_17, newshape=[1, 1, 240]);
  let %x_35 = (%x_33, %x_34) /* ty=(Tensor[(1, 1, 120), float16], Tensor[(1, 1, 240), float16]) span=from_string:74:9 */;
  let %x_36 = zeros_like(%x_17);
  let %x_37 = multiply(%x19, %x_17);
  let %x_38 = collapse_sum_like(%x_37, %x_17);
  let %x_39 = add(%x_36, %x_38);
  let %x_40 = multiply(%x19, %x_17);
  let %x_41 = collapse_sum_like(%x_40, %x_17);
  let %x_42 = add(%x_39, %x_41);
  let %x_43 = (%x_42,) /* ty=(Tensor[(10, 24), float16],) span=from_string:69:16 */;
  let %x_44 = (%x18, %x_43) /* ty=(Tensor[(10, 24), float16], (Tensor[(10, 24), float16],)) span=from_string:74:14 */;
  let %x_45 = ones(shape=[1], dtype="float16");
  let %x_46 = add(%x_16, %x_45);
  let %x_47 = cast(%x11, dtype="float16");
  let %x_48 = split(%x_47, indices_or_sections=3, axis=1);
  let %x_49 = %x_48.0;
  let %x_50 = ones_like(%x_23);
  let %x_51 = add(%x_23, %x_50);
  let %x_52 = nn.dense(%x_49, %x_51, units=None, out_dtype="float16");
  let %x_53 = cast(%x_51, dtype="bfloat16");
  let %x_54 = cast(%x_53, dtype="float32");
  let %x_55 = clip(%x_54, a_min=-0.2f, a_max=0.4f);
  let %x_56 = cast(%x12, dtype="float16");
  let %x_57 = nn.dense(%x_56, %x_37, units=None, out_dtype="float16");
  let %x_58 = cast(%x14, dtype="float16");
  let %x_59 = add(%x_57, %x_58);
  let %x_60 = cast(%x16, dtype="float16");
  let %x_61 = multiply(%x_59, %x_60);
  let %x_62 = reshape(%x_61, newshape=[1, 1, -1]);
  let %x_63 = cast(%x13, dtype="float16");
  let %x_64 = nn.dense(%x_56, %x_63, units=None, out_dtype="float16");
  let %x_65 = cast(%x15, dtype="float16");
  let %x_66 = add(%x_64, %x_65);
  let %x_67 = cast(%x17, dtype="float16");
  let %x_68 = multiply(%x_66, %x_67);
  let %x_69 = reshape(%x_68, newshape=[1, 1, -1]);
  let %x_70 = (%x_62, %x_69) /* ty=(Tensor[(1, 1, 420), float16], Tensor[(1, 1, 420), float16]) span=from_string:74:34 */;
  let %x_71 = (%x_26, %x_35, %x_44, %x_46, %x_52, %x_55, %x_70) /* ty=((Tensor[(65, 10), float16], Tensor[(65, 10), float16]), (Tensor[(1, 1, 120), float16], Tensor[(1, 1, 240), float16]), (Tensor[(10, 24), float16], (Tensor[(10, 24), float16],)), Tensor[(1), float16], Tensor[(14, 65), float16], Tensor[(65, 10), float32], (Tensor[(1, 1, 420), float16], Tensor[(1, 1, 420), float16])) span=from_string:74:3 */;
  let %x_72 = %x_71;
  let %x_73 = %x_72;
  %x_73
}
