#[version = "0.0.5"]
def @main(%x0: Tensor[(1, 5, 5, 4), float32] /* ty=Tensor[(1, 5, 5, 4), float32] span=from_string:6:109 */, %x1: Tensor[(1, 5, 5, 62), float32] /* ty=Tensor[(1, 5, 5, 62), float32] span=from_string:29:246 */, %x2: Tensor[(1, 5, 5, 36), float32] /* ty=Tensor[(1, 5, 5, 36), float32] span=from_string:29:251 */, %x3: Tensor[(5, 5, 4), float32] /* ty=Tensor[(5, 5, 4), float32] */, %x4: Tensor[(4, 5, 1, 1), float32] /* ty=Tensor[(4, 5, 1, 1), float32] */) -> (Tensor[(1, 5, 5, 4), float32], Tensor[(1, 5, 5, 102), float32], Tensor[(1, 5, 5, 4), float16], int32, Tensor[(5, 5, 4), float32], int32) {
  let %x_0 = fn (%p0: Tensor[(1, 5, 5, 4), float32] /* ty=Tensor[(1, 5, 5, 4), float32] span=from_string:4:10 */, Primitive=1) -> Tensor[(1, 5, 5, 4), float16] {
    cast(%p0, dtype="float16") /* ty=Tensor[(1, 5, 5, 4), float16] span=from_string:4:5 */
  } /* ty=fn (Tensor[(1, 5, 5, 4), float32]) -> Tensor[(1, 5, 5, 4), float16] span=from_string:6:106 */;
  let %x_01: Tensor[(1, 5, 5, 4), float16] /* ty=Tensor[(1, 5, 5, 4), float16] span=from_string:11:109 */ = %x_0(%x0);
  let %x_1: float16 /* ty=float16 span=from_string:11:115 */ = 1f16 /* ty=float16 span=from_string:7:66 */;
  let %x_11 = fn (%p01: Tensor[(1, 5, 5, 4), float16] /* ty=Tensor[(1, 5, 5, 4), float16] span=from_string:9:9 */, %p1: float16 /* ty=float16 span=from_string:9:15 */, Primitive=1) -> Tensor[(1, 5, 5, 4), float16] {
    add(%p01, %p1) /* ty=Tensor[(1, 5, 5, 4), float16] span=from_string:9:5 */
  } /* ty=fn (Tensor[(1, 5, 5, 4), float16], float16) -> Tensor[(1, 5, 5, 4), float16] span=from_string:11:106 */;
  let %x_2: Tensor[(1, 5, 5, 4), float16] /* ty=Tensor[(1, 5, 5, 4), float16] span=from_string:20:107 */ = %x_11(%x_01, %x_1);
  let %x_5: Tensor[(1, 5, 5, 4), float16] /* ty=Tensor[(1, 5, 5, 4), float16] span=from_string:37:111 */ = %x_2;
  let %x_21 = fn (%p02: Tensor[(1, 5, 5, 4), float16] /* ty=Tensor[(1, 5, 5, 4), float16] span=from_string:13:10 */, Primitive=1) -> Tensor[(1, 5, 5, 4), float32] {
    cast(%p02, dtype="float32") /* ty=Tensor[(1, 5, 5, 4), float32] span=from_string:13:5 */
  } /* ty=fn (Tensor[(1, 5, 5, 4), float16]) -> Tensor[(1, 5, 5, 4), float32] span=from_string:15:106 */;
  let %x_3: Tensor[(1, 5, 5, 4), float32] /* ty=Tensor[(1, 5, 5, 4), float32] span=from_string:19:110 */ = %x_21(%x_2);
  let %x_31 = fn (%p03: Tensor[(1, 5, 5, 4), float32] /* ty=Tensor[(1, 5, 5, 4), float32] span=from_string:17:9 */, Primitive=1) -> Tensor[(1, 5, 5, 4), float32] {
    exp(%p03) /* ty=Tensor[(1, 5, 5, 4), float32] span=from_string:17:5 */
  } /* ty=fn (Tensor[(1, 5, 5, 4), float32]) -> Tensor[(1, 5, 5, 4), float32] span=from_string:19:107 */;
  let %x_4: Tensor[(1, 5, 5, 4), float32] /* ty=Tensor[(1, 5, 5, 4), float32] span=from_string:61:328 */ = %x_31(%x_3);
  let %x_41 = fn (%p04: Tensor[(1, 5, 5, 4), float16] /* ty=Tensor[(1, 5, 5, 4), float16] span=from_string:22:10 */, Primitive=1) -> Tensor[(1, 5, 5, 4), float32] {
    cast(%p04, dtype="float32") /* ty=Tensor[(1, 5, 5, 4), float32] span=from_string:22:5 */
  } /* ty=fn (Tensor[(1, 5, 5, 4), float16]) -> Tensor[(1, 5, 5, 4), float32] span=from_string:24:107 */;
  let %x_6: Tensor[(1, 5, 5, 4), float32] /* ty=Tensor[(1, 5, 5, 4), float32] span=from_string:28:110 */ = %x_41(%x_5);
  let %x_51 = fn (%p05: Tensor[(1, 5, 5, 4), float32] /* ty=Tensor[(1, 5, 5, 4), float32] span=from_string:26:9 */, Primitive=1) -> Tensor[(1, 5, 5, 4), float32] {
    exp(%p05) /* ty=Tensor[(1, 5, 5, 4), float32] span=from_string:26:5 */
  } /* ty=fn (Tensor[(1, 5, 5, 4), float32]) -> Tensor[(1, 5, 5, 4), float32] span=from_string:28:107 */;
  let %x_7: Tensor[(1, 5, 5, 4), float32] /* ty=Tensor[(1, 5, 5, 4), float32] span=from_string:42:111 */ = %x_51(%x_6);
  let %x_8: (Tensor[(1, 5, 5, 4), float32], Tensor[(1, 5, 5, 62), float32], Tensor[(1, 5, 5, 36), float32]) /* ty=(Tensor[(1, 5, 5, 4), float32], Tensor[(1, 5, 5, 62), float32], Tensor[(1, 5, 5, 36), float32]) span=from_string:33:114 */ = (%x_7, %x1, %x2) /* ty=(Tensor[(1, 5, 5, 4), float32], Tensor[(1, 5, 5, 62), float32], Tensor[(1, 5, 5, 36), float32]) span=from_string:29:239 */;
  let %x_61 = fn (%p06: (Tensor[(1, 5, 5, 4), float32], Tensor[(1, 5, 5, 62), float32], Tensor[(1, 5, 5, 36), float32]) /* ty=(Tensor[(1, 5, 5, 4), float32], Tensor[(1, 5, 5, 62), float32], Tensor[(1, 5, 5, 36), float32]) span=from_string:31:17 */, Primitive=1) -> Tensor[(1, 5, 5, 102), float32] {
    concatenate(%p06, axis=3) /* ty=Tensor[(1, 5, 5, 102), float32] span=from_string:31:5 */
  } /* ty=fn ((Tensor[(1, 5, 5, 4), float32], Tensor[(1, 5, 5, 62), float32], Tensor[(1, 5, 5, 36), float32])) -> Tensor[(1, 5, 5, 102), float32] span=from_string:33:111 */;
  let %x_9: Tensor[(1, 5, 5, 102), float32] /* ty=Tensor[(1, 5, 5, 102), float32] span=from_string:61:334 */ = %x_61(%x_8);
  let %x_71 = fn (%p07: Tensor[(1, 5, 5, 4), float16] /* ty=Tensor[(1, 5, 5, 4), float16] span=from_string:35:13 */, Primitive=1, relay.reshape_only=1) -> Tensor[(1, 5, 5, 4), float16] {
    reshape(%p07, newshape=[1, 5, 5, 4]) /* ty=Tensor[(1, 5, 5, 4), float16] span=from_string:35:5 */
  } /* ty=fn (Tensor[(1, 5, 5, 4), float16]) -> Tensor[(1, 5, 5, 4), float16] span=from_string:37:108 */;
  let %x_10: Tensor[(1, 5, 5, 4), float16] /* ty=Tensor[(1, 5, 5, 4), float16] span=from_string:61:340 */ = %x_71(%x_5);
  let %x_111: int32 /* ty=int32 span=from_string:61:347 */ = 20 /* ty=int32 span=from_string:38:64 */;
  let %x_81 = fn (%p08: Tensor[(1, 5, 5, 4), float32] /* ty=Tensor[(1, 5, 5, 4), float32] span=from_string:40:15 */, Primitive=1) -> Tensor[(5, 5, 4, 1), float32] {
    transpose(%p08, axes=[1, 2, 3, 0]) /* ty=Tensor[(5, 5, 4, 1), float32] span=from_string:40:5 */
  } /* ty=fn (Tensor[(1, 5, 5, 4), float32]) -> Tensor[(5, 5, 4, 1), float32] span=from_string:42:108 */;
  let %x_12: Tensor[(5, 5, 4, 1), float32] /* ty=Tensor[(5, 5, 4, 1), float32] span=from_string:46:111 */ = %x_81(%x_7);
  let %x_91 = fn (%p09: Tensor[(5, 5, 4, 1), float32] /* ty=Tensor[(5, 5, 4, 1), float32] span=from_string:44:13 */, Primitive=1) -> Tensor[(5, 5, 4, 1), float32] {
    nn.relu(%p09) /* ty=Tensor[(5, 5, 4, 1), float32] span=from_string:44:5 */
  } /* ty=fn (Tensor[(5, 5, 4, 1), float32]) -> Tensor[(5, 5, 4, 1), float32] span=from_string:46:108 */;
  let %x_13: Tensor[(5, 5, 4, 1), float32] /* ty=Tensor[(5, 5, 4, 1), float32] span=from_string:51:112 */ = %x_91(%x_12);
  let %x_14: float32 /* ty=float32 span=from_string:51:119 */ = 1f /* ty=float32 span=from_string:47:66 */;
  let %x_101 = fn (%p010: Tensor[(5, 5, 4, 1), float32] /* ty=Tensor[(5, 5, 4, 1), float32] span=from_string:49:9 */, %p11: float32 /* ty=float32 span=from_string:49:16 */, Primitive=1) -> Tensor[(5, 5, 4, 1), float32] {
    add(%p010, %p11) /* ty=Tensor[(5, 5, 4, 1), float32] span=from_string:49:5 */
  } /* ty=fn (Tensor[(5, 5, 4, 1), float32], float32) -> Tensor[(5, 5, 4, 1), float32] span=from_string:51:108 */;
  let %x_15: Tensor[(5, 5, 4, 1), float32] /* ty=Tensor[(5, 5, 4, 1), float32] span=from_string:55:112 */ = %x_101(%x_13, %x_14);
  let %x_112 = fn (%p011: Tensor[(5, 5, 4, 1), float32] /* ty=Tensor[(5, 5, 4, 1), float32] span=from_string:53:9 */, Primitive=1) -> Tensor[(5, 5, 4, 1), float32] {
    exp(%p011) /* ty=Tensor[(5, 5, 4, 1), float32] span=from_string:53:5 */
  } /* ty=fn (Tensor[(5, 5, 4, 1), float32]) -> Tensor[(5, 5, 4, 1), float32] span=from_string:55:108 */;
  let %x_16: Tensor[(5, 5, 4, 1), float32] /* ty=Tensor[(5, 5, 4, 1), float32] span=from_string:59:106 */ = %x_112(%x_15);
  let %x_121 = fn (%p012: Tensor[(5, 5, 4, 1), float32] /* ty=Tensor[(5, 5, 4, 1), float32] span=from_string:57:13 */, Primitive=1, relay.reshape_only=1) -> Tensor[(5, 5, 4), float32] {
    squeeze(%p012) /* ty=Tensor[(5, 5, 4), float32] span=from_string:57:5 */
  } /* ty=fn (Tensor[(5, 5, 4, 1), float32]) -> Tensor[(5, 5, 4), float32] span=from_string:59:102 */;
  let %x_17: Tensor[(5, 5, 4), float32] /* ty=Tensor[(5, 5, 4), float32] span=from_string:61:354 */ = %x_121(%x_16);
  let %x_18: int32 /* ty=int32 span=from_string:61:361 */ = 2 /* ty=int32 span=from_string:60:63 */;
  let %x_19: (Tensor[(1, 5, 5, 4), float32], Tensor[(1, 5, 5, 102), float32], Tensor[(1, 5, 5, 4), float16], int32, Tensor[(5, 5, 4), float32], int32) /* ty=(Tensor[(1, 5, 5, 4), float32], Tensor[(1, 5, 5, 102), float32], Tensor[(1, 5, 5, 4), float16], int32, Tensor[(5, 5, 4), float32], int32) span=from_string:62:3 */ = (%x_4, %x_9, %x_10, %x_111, %x_17, %x_18) /* ty=(Tensor[(1, 5, 5, 4), float32], Tensor[(1, 5, 5, 102), float32], Tensor[(1, 5, 5, 4), float16], int32, Tensor[(5, 5, 4), float32], int32) span=from_string:61:327 */;
  let %x_131 = %x_19;
  let %x_141 = %x_131;
  let %x_151 = %x_141;
  let %x_161 = %x_151;
  let %x_171 = %x_161;
  let %x_181 = %x_171;
  let %x_191 = %x_181;
  let %x_20 = %x_191;
  let %x_211 = %x_20;
  let %x_22 = %x_211;
  let %x_23 = %x_22;
  let %x_24 = %x_23;
  let %x_25 = %x_24;
  let %x_26 = %x_25;
  let %x_27 = %x_26;
  let %x_28 = %x_27;
  let %x_29 = %x_28;
  let %x_30 = %x_29;
  let %x_311 = %x_30;
  let %x_32 = %x_311;
  %x_32
}
