#[version = "0.0.5"]
def @main(%x0: Tensor[(1, 5, 5, 4), float32] /* ty=Tensor[(1, 5, 5, 4), float32] span=from_string:8:110 */, %x1: Tensor[(1, 5, 5, 62), float32] /* ty=Tensor[(1, 5, 5, 62), float32] span=from_string:18:181 */, %x2: Tensor[(1, 5, 5, 36), float32] /* ty=Tensor[(1, 5, 5, 36), float32] span=from_string:28:115 */, %x3: Tensor[(5, 5, 4), float32] /* ty=Tensor[(5, 5, 4), float32] */, %x4: Tensor[(4, 5, 1, 1), float32] /* ty=Tensor[(4, 5, 1, 1), float32] */) -> (Tensor[(1, 5, 5, 4), float16], Tensor[(1, 5, 5, 102), float16], Tensor[(1, 5, 5, 4), float16], int32, Tensor[(5, 5, 4), float16], int32) {
  let %x_0 = 1f16 /* ty=float16 span=from_string:8:119 */;
  let %x_1 = fn (%p0: Tensor[(1, 5, 5, 4), float32] /* ty=Tensor[(1, 5, 5, 4), float32] span=from_string:4:15 */, %p1: float16 /* ty=float16 span=from_string:6:13 */, Primitive=1) -> Tensor[(1, 5, 5, 4), float16] {
    %0 = cast(%p0, dtype="float16") /* ty=Tensor[(1, 5, 5, 4), float16] span=from_string:5:15 */;
    %1 = cast(%0, dtype="float16") /* ty=Tensor[(1, 5, 5, 4), float16] span=from_string:6:9 */;
    add(%1, %p1) /* ty=Tensor[(1, 5, 5, 4), float16] span=from_string:4:5 */
  } /* ty=fn (Tensor[(1, 5, 5, 4), float32], float16) -> Tensor[(1, 5, 5, 4), float16] span=from_string:8:107 */;
  let %x_11: Tensor[(1, 5, 5, 4), float16] /* ty=Tensor[(1, 5, 5, 4), float16] span=from_string:13:108 */ = %x_1(%x0, %x_0);
  let %x_3: Tensor[(1, 5, 5, 4), float16] /* ty=Tensor[(1, 5, 5, 4), float16] span=from_string:45:107 */ = %x_11;
  let %x_2 = fn (%p01: Tensor[(1, 5, 5, 4), float16] /* ty=Tensor[(1, 5, 5, 4), float16] span=from_string:10:14 */, Primitive=1) -> Tensor[(1, 5, 5, 4), float16] {
    fast_exp(%p01) /* ty=Tensor[(1, 5, 5, 4), float16] span=from_string:10:5 */
  } /* ty=fn (Tensor[(1, 5, 5, 4), float16]) -> Tensor[(1, 5, 5, 4), float16] span=from_string:12:108 */;
  let %x_21: Tensor[(1, 5, 5, 4), float16] /* ty=Tensor[(1, 5, 5, 4), float16] span=from_string:82:328 */ = %x_2(%x_11);
  let %x_31 = fn (%p02: Tensor[(1, 5, 5, 4), float16] /* ty=Tensor[(1, 5, 5, 4), float16] span=from_string:15:14 */, Primitive=1) -> Tensor[(1, 5, 5, 4), float16] {
    fast_exp(%p02) /* ty=Tensor[(1, 5, 5, 4), float16] span=from_string:15:5 */
  } /* ty=fn (Tensor[(1, 5, 5, 4), float16]) -> Tensor[(1, 5, 5, 4), float16] span=from_string:17:108 */;
  let %x_4: Tensor[(1, 5, 5, 4), float16] /* ty=Tensor[(1, 5, 5, 4), float16] span=from_string:61:113 */ = %x_31(%x_3);
  let %x_5: (Tensor[(1, 5, 5, 4), float16], Tensor[(1, 5, 5, 62), float32]) /* ty=(Tensor[(1, 5, 5, 4), float16], Tensor[(1, 5, 5, 62), float32]) span=from_string:26:113 */ = (%x_4, %x1) /* ty=(Tensor[(1, 5, 5, 4), float16], Tensor[(1, 5, 5, 62), float32]) span=from_string:18:174 */;
  let %x_41 = fn (%p03: (Tensor[(1, 5, 5, 4), float16], Tensor[(1, 5, 5, 62), float32]) /* ty=(Tensor[(1, 5, 5, 4), float16], Tensor[(1, 5, 5, 62), float32]) span=from_string:21:10 */, Primitive=1) -> Tensor[(1, 5, 5, 66), float16] {
    %2 = %p03.1 /* ty=Tensor[(1, 5, 5, 62), float32] span=from_string:22:15 */;
    %3 = %p03.0 /* ty=Tensor[(1, 5, 5, 4), float16] span=from_string:23:11 */;
    %4 = cast(%2, dtype="float16") /* ty=Tensor[(1, 5, 5, 62), float16] span=from_string:23:15 */;
    %5 = (%3, %4) /* ty=(Tensor[(1, 5, 5, 4), float16], Tensor[(1, 5, 5, 62), float16]) span=from_string:24:17 */;
    concatenate(%5, axis=3) /* ty=Tensor[(1, 5, 5, 66), float16] span=from_string:20:5 */
  } /* ty=fn ((Tensor[(1, 5, 5, 4), float16], Tensor[(1, 5, 5, 62), float32])) -> Tensor[(1, 5, 5, 66), float16] span=from_string:26:110 */;
  let %x_6: Tensor[(1, 5, 5, 66), float16] /* ty=Tensor[(1, 5, 5, 66), float16] span=from_string:27:110 */ = %x_41(%x_5);
  let %x_7: Tensor[(1, 5, 5, 66), float16] /* ty=Tensor[(1, 5, 5, 66), float16] span=from_string:37:180 */ = %x_6;
  let %x_8: (Tensor[(1, 5, 5, 36), float32],) /* ty=(Tensor[(1, 5, 5, 36), float32],) span=from_string:35:114 */ = (%x2,) /* ty=(Tensor[(1, 5, 5, 36), float32],) span=from_string:28:114 */;
  let %x_51 = fn (%p04: (Tensor[(1, 5, 5, 36), float32],) /* ty=(Tensor[(1, 5, 5, 36), float32],) span=from_string:30:11 */, Primitive=1) -> Tensor[(1, 5, 5, 36), float16] {
    %6 = %p04.0 /* ty=Tensor[(1, 5, 5, 36), float32] span=from_string:31:16 */;
    %7 = cast(%6, dtype="float16") /* ty=Tensor[(1, 5, 5, 36), float16] span=from_string:32:12 */;
    %8 = (%7,) /* ty=(Tensor[(1, 5, 5, 36), float16],) span=from_string:33:17 */;
    concatenate(%8, axis=3) /* ty=Tensor[(1, 5, 5, 36), float16] span=from_string:30:5 */
  } /* ty=fn ((Tensor[(1, 5, 5, 36), float32],)) -> Tensor[(1, 5, 5, 36), float16] span=from_string:35:110 */;
  let %x_9: Tensor[(1, 5, 5, 36), float16] /* ty=Tensor[(1, 5, 5, 36), float16] span=from_string:36:111 */ = %x_51(%x_8);
  let %x_10: Tensor[(1, 5, 5, 36), float16] /* ty=Tensor[(1, 5, 5, 36), float16] span=from_string:37:186 */ = %x_9;
  let %x_111: (Tensor[(1, 5, 5, 66), float16], Tensor[(1, 5, 5, 36), float16]) /* ty=(Tensor[(1, 5, 5, 66), float16], Tensor[(1, 5, 5, 36), float16]) span=from_string:41:117 */ = (%x_7, %x_10) /* ty=(Tensor[(1, 5, 5, 66), float16], Tensor[(1, 5, 5, 36), float16]) span=from_string:37:179 */;
  let %x_61 = fn (%p05: (Tensor[(1, 5, 5, 66), float16], Tensor[(1, 5, 5, 36), float16]) /* ty=(Tensor[(1, 5, 5, 66), float16], Tensor[(1, 5, 5, 36), float16]) span=from_string:39:17 */, Primitive=1) -> Tensor[(1, 5, 5, 102), float16] {
    concatenate(%p05, axis=3) /* ty=Tensor[(1, 5, 5, 102), float16] span=from_string:39:5 */
  } /* ty=fn ((Tensor[(1, 5, 5, 66), float16], Tensor[(1, 5, 5, 36), float16])) -> Tensor[(1, 5, 5, 102), float16] span=from_string:41:113 */;
  let %x_12: Tensor[(1, 5, 5, 102), float16] /* ty=Tensor[(1, 5, 5, 102), float16] span=from_string:82:334 */ = %x_61(%x_111);
  let %x_71 = fn (%p06: Tensor[(1, 5, 5, 4), float16] /* ty=Tensor[(1, 5, 5, 4), float16] span=from_string:43:13 */, Primitive=1, relay.reshape_only=1) -> Tensor[(5, 5, 4), float16] {
    reshape(%p06, newshape=[5, 5, 4]) /* ty=Tensor[(5, 5, 4), float16] span=from_string:43:5 */
  } /* ty=fn (Tensor[(1, 5, 5, 4), float16]) -> Tensor[(5, 5, 4), float16] span=from_string:45:103 */;
  let %x_13: Tensor[(5, 5, 4), float16] /* ty=Tensor[(5, 5, 4), float16] span=from_string:49:113 */ = %x_71(%x_3);
  let %x_81 = fn (%p07: Tensor[(5, 5, 4), float16] /* ty=Tensor[(5, 5, 4), float16] span=from_string:47:13 */, Primitive=1, relay.reshape_only=1) -> Tensor[(1, 5, 5, 4), float16] {
    reshape(%p07, newshape=[1, 5, 5, 4]) /* ty=Tensor[(1, 5, 5, 4), float16] span=from_string:47:5 */
  } /* ty=fn (Tensor[(5, 5, 4), float16]) -> Tensor[(1, 5, 5, 4), float16] span=from_string:49:109 */;
  let %x_14: Tensor[(1, 5, 5, 4), float16] /* ty=Tensor[(1, 5, 5, 4), float16] span=from_string:53:107 */ = %x_81(%x_13);
  let %x_91 = fn (%p08: Tensor[(1, 5, 5, 4), float16] /* ty=Tensor[(1, 5, 5, 4), float16] span=from_string:51:13 */, Primitive=1, relay.reshape_only=1) -> Tensor[(5, 5, 4), float16] {
    reshape(%p08, newshape=[5, 5, 4]) /* ty=Tensor[(5, 5, 4), float16] span=from_string:51:5 */
  } /* ty=fn (Tensor[(1, 5, 5, 4), float16]) -> Tensor[(5, 5, 4), float16] span=from_string:53:103 */;
  let %x_15: Tensor[(5, 5, 4), float16] /* ty=Tensor[(5, 5, 4), float16] span=from_string:57:113 */ = %x_91(%x_14);
  let %x_101 = fn (%p09: Tensor[(5, 5, 4), float16] /* ty=Tensor[(5, 5, 4), float16] span=from_string:55:13 */, Primitive=1, relay.reshape_only=1) -> Tensor[(1, 5, 5, 4), float16] {
    reshape(%p09, newshape=[1, 5, 5, 4]) /* ty=Tensor[(1, 5, 5, 4), float16] span=from_string:55:5 */
  } /* ty=fn (Tensor[(5, 5, 4), float16]) -> Tensor[(1, 5, 5, 4), float16] span=from_string:57:109 */;
  let %x_16: Tensor[(1, 5, 5, 4), float16] /* ty=Tensor[(1, 5, 5, 4), float16] span=from_string:82:341 */ = %x_101(%x_15);
  let %x_112 = fn (%p010: Tensor[(1, 5, 5, 4), float16] /* ty=Tensor[(1, 5, 5, 4), float16] span=from_string:59:22 */, Primitive=1) -> Tensor[(1, 5, 4, 5), float16] {
    layout_transform(%p010, src_layout="NCHW", dst_layout="NHWC") /* ty=Tensor[(1, 5, 4, 5), float16] span=from_string:59:5 */
  } /* ty=fn (Tensor[(1, 5, 5, 4), float16]) -> Tensor[(1, 5, 4, 5), float16] span=from_string:61:109 */;
  let %x_18: Tensor[(1, 5, 4, 5), float16] /* ty=Tensor[(1, 5, 4, 5), float16] span=from_string:65:113 */ = %x_112(%x_4);
  let %x_121 = fn (%p011: Tensor[(1, 5, 4, 5), float16] /* ty=Tensor[(1, 5, 4, 5), float16] span=from_string:63:22 */, Primitive=1) -> Tensor[(5, 5, 4, 1), float16] {
    layout_transform(%p011, src_layout="NHWC", dst_layout="CHWN") /* ty=Tensor[(5, 5, 4, 1), float16] span=from_string:63:5 */
  } /* ty=fn (Tensor[(1, 5, 4, 5), float16]) -> Tensor[(5, 5, 4, 1), float16] span=from_string:65:109 */;
  let %x_19: Tensor[(5, 5, 4, 1), float16] /* ty=Tensor[(5, 5, 4, 1), float16] span=from_string:69:113 */ = %x_121(%x_18);
  let %x_131 = fn (%p012: Tensor[(5, 5, 4, 1), float16] /* ty=Tensor[(5, 5, 4, 1), float16] span=from_string:67:13 */, Primitive=1) -> Tensor[(5, 5, 4, 1), float16] {
    nn.relu(%p012) /* ty=Tensor[(5, 5, 4, 1), float16] span=from_string:67:5 */
  } /* ty=fn (Tensor[(5, 5, 4, 1), float16]) -> Tensor[(5, 5, 4, 1), float16] span=from_string:69:109 */;
  let %x_20: Tensor[(5, 5, 4, 1), float16] /* ty=Tensor[(5, 5, 4, 1), float16] span=from_string:73:113 */ = %x_131(%x_19);
  let %x_141 = 1f16 /* ty=float16 span=from_string:73:124 */;
  let %x_151 = fn (%p013: Tensor[(5, 5, 4, 1), float16] /* ty=Tensor[(5, 5, 4, 1), float16] span=from_string:71:9 */, %p11: float16 /* ty=float16 span=from_string:71:16 */, Primitive=1) -> Tensor[(5, 5, 4, 1), float16] {
    add(%p013, %p11) /* ty=Tensor[(5, 5, 4, 1), float16] span=from_string:71:5 */
  } /* ty=fn (Tensor[(5, 5, 4, 1), float16], float16) -> Tensor[(5, 5, 4, 1), float16] span=from_string:73:109 */;
  let %x_22: Tensor[(5, 5, 4, 1), float16] /* ty=Tensor[(5, 5, 4, 1), float16] span=from_string:77:113 */ = %x_151(%x_20, %x_141);
  let %x_161 = fn (%p014: Tensor[(5, 5, 4, 1), float16] /* ty=Tensor[(5, 5, 4, 1), float16] span=from_string:75:14 */, Primitive=1) -> Tensor[(5, 5, 4, 1), float16] {
    fast_exp(%p014) /* ty=Tensor[(5, 5, 4, 1), float16] span=from_string:75:5 */
  } /* ty=fn (Tensor[(5, 5, 4, 1), float16]) -> Tensor[(5, 5, 4, 1), float16] span=from_string:77:109 */;
  let %x_23: Tensor[(5, 5, 4, 1), float16] /* ty=Tensor[(5, 5, 4, 1), float16] span=from_string:81:107 */ = %x_161(%x_22);
  let %x_17 = fn (%p015: Tensor[(5, 5, 4, 1), float16] /* ty=Tensor[(5, 5, 4, 1), float16] span=from_string:79:13 */, Primitive=1, relay.reshape_only=1) -> Tensor[(5, 5, 4), float16] {
    squeeze(%p015) /* ty=Tensor[(5, 5, 4), float16] span=from_string:79:5 */
  } /* ty=fn (Tensor[(5, 5, 4, 1), float16]) -> Tensor[(5, 5, 4), float16] span=from_string:81:103 */;
  let %x_24: Tensor[(5, 5, 4), float16] /* ty=Tensor[(5, 5, 4), float16] span=from_string:82:391 */ = %x_17(%x_23);
  let %x_181 = 20 /* ty=int32 span=from_string:82:350 */;
  let %x_191 = 2 /* ty=int32 span=from_string:82:399 */;
  let %x_26: (Tensor[(1, 5, 5, 4), float16], Tensor[(1, 5, 5, 102), float16], Tensor[(1, 5, 5, 4), float16], int32, Tensor[(5, 5, 4), float16], int32) /* ty=(Tensor[(1, 5, 5, 4), float16], Tensor[(1, 5, 5, 102), float16], Tensor[(1, 5, 5, 4), float16], int32, Tensor[(5, 5, 4), float16], int32) span=from_string:83:3 */ = (%x_21, %x_12, %x_16, %x_181, %x_24, %x_191) /* ty=(Tensor[(1, 5, 5, 4), float16], Tensor[(1, 5, 5, 102), float16], Tensor[(1, 5, 5, 4), float16], int32, Tensor[(5, 5, 4), float16], int32) span=from_string:82:327 */;
  let %x_201 = %x_26;
  let %x_211 = %x_201;
  let %x_221 = %x_211;
  let %x_231 = %x_221;
  let %x_241 = %x_231;
  let %x_25 = %x_241;
  let %x_261 = %x_25;
  let %x_27 = %x_261;
  let %x_28 = %x_27;
  let %x_29 = %x_28;
  let %x_30 = %x_29;
  let %x_311 = %x_30;
  let %x_32 = %x_311;
  let %x_33 = %x_32;
  let %x_34 = %x_33;
  let %x_35 = %x_34;
  let %x_36 = %x_35;
  let %x_37 = %x_36;
  let %x_38 = %x_37;
  let %x_39 = %x_38;
  let %x_40 = %x_39;
  let %x_411 = %x_40;
  let %x_42 = %x_411;
  %x_42
}
