#[version = "0.0.5"]
def @main(%x0: Tensor[(1, 5, 5, 4), float32] /* ty=Tensor[(1, 5, 5, 4), float32] span=from_string:3:13 */, %x1: Tensor[(1, 5, 5, 62), float32] /* ty=Tensor[(1, 5, 5, 62), float32] span=from_string:9:182 */, %x2: Tensor[(1, 5, 5, 36), float32] /* ty=Tensor[(1, 5, 5, 36), float32] span=from_string:16:117 */, %x3: Tensor[(5, 5, 4), float32] /* ty=Tensor[(5, 5, 4), float32] */, %x4: Tensor[(4, 5, 1, 1), float32] /* ty=Tensor[(4, 5, 1, 1), float32] */) -> (Tensor[(1, 5, 5, 4), float16], Tensor[(1, 5, 5, 102), float16], Tensor[(1, 5, 5, 4), float16], int32, Tensor[(5, 5, 4), float16], int32) {
  %0 = cast(%x0, dtype="float16") /* ty=Tensor[(1, 5, 5, 4), float16] span=from_string:5:111 */;
  let %x_1: Tensor[(1, 5, 5, 4), float16] /* ty=Tensor[(1, 5, 5, 4), float16] span=from_string:7:131 */ = add(%0, 1f16 /* ty=float16 */) /* ty=Tensor[(1, 5, 5, 4), float16] span=from_string:5:107 */;
  let %x_2: Tensor[(1, 5, 5, 4), float16] /* ty=Tensor[(1, 5, 5, 4), float16] span=from_string:35:328 */ = fast_exp(%x_1) /* ty=Tensor[(1, 5, 5, 4), float16] span=from_string:6:108 */;
  let %x_3: Tensor[(1, 5, 5, 4), float16] /* ty=Tensor[(1, 5, 5, 4), float16] span=from_string:24:111 */ = annotation.stop_fusion(%x_1) /* ty=Tensor[(1, 5, 5, 4), float16] span=from_string:7:108 */;
  let %x_4: Tensor[(1, 5, 5, 4), float16] /* ty=Tensor[(1, 5, 5, 4), float16] span=from_string:28:126 */ = fast_exp(%x_3) /* ty=Tensor[(1, 5, 5, 4), float16] span=from_string:8:108 */;
  let %x_5: (Tensor[(1, 5, 5, 4), float16], Tensor[(1, 5, 5, 62), float32]) /* ty=(Tensor[(1, 5, 5, 4), float16], Tensor[(1, 5, 5, 62), float32]) span=from_string:11:8 */ = (%x_4, %x1) /* ty=(Tensor[(1, 5, 5, 4), float16], Tensor[(1, 5, 5, 62), float32]) span=from_string:9:175 */;
  %1 = %x_5.1 /* ty=Tensor[(1, 5, 5, 62), float32] span=from_string:12:13 */;
  %2 = %x_5.0 /* ty=Tensor[(1, 5, 5, 4), float16] span=from_string:13:9 */;
  %3 = cast(%1, dtype="float16") /* ty=Tensor[(1, 5, 5, 62), float16] span=from_string:13:13 */;
  %4 = (%2, %3) /* ty=(Tensor[(1, 5, 5, 4), float16], Tensor[(1, 5, 5, 62), float16]) span=from_string:14:121 */;
  let %x_6: Tensor[(1, 5, 5, 66), float16] /* ty=Tensor[(1, 5, 5, 66), float16] span=from_string:15:133 */ = concatenate(%4, axis=3) /* ty=Tensor[(1, 5, 5, 66), float16] span=from_string:14:109 */;
  let %x_7: Tensor[(1, 5, 5, 66), float16] /* ty=Tensor[(1, 5, 5, 66), float16] span=from_string:22:180 */ = annotation.stop_fusion(%x_6) /* ty=Tensor[(1, 5, 5, 66), float16] span=from_string:15:110 */;
  let %x_8: (Tensor[(1, 5, 5, 36), float32],) /* ty=(Tensor[(1, 5, 5, 36), float32],) span=from_string:17:8 */ = (%x2,) /* ty=(Tensor[(1, 5, 5, 36), float32],) span=from_string:16:116 */;
  %5 = %x_8.0 /* ty=Tensor[(1, 5, 5, 36), float32] span=from_string:18:13 */;
  %6 = cast(%5, dtype="float16") /* ty=Tensor[(1, 5, 5, 36), float16] span=from_string:19:9 */;
  %7 = (%6,) /* ty=(Tensor[(1, 5, 5, 36), float16],) span=from_string:20:122 */;
  let %x_9: Tensor[(1, 5, 5, 36), float16] /* ty=Tensor[(1, 5, 5, 36), float16] span=from_string:21:134 */ = concatenate(%7, axis=3) /* ty=Tensor[(1, 5, 5, 36), float16] span=from_string:20:110 */;
  let %x_10: Tensor[(1, 5, 5, 36), float16] /* ty=Tensor[(1, 5, 5, 36), float16] span=from_string:22:186 */ = annotation.stop_fusion(%x_9) /* ty=Tensor[(1, 5, 5, 36), float16] span=from_string:21:111 */;
  let %x_11: (Tensor[(1, 5, 5, 66), float16], Tensor[(1, 5, 5, 36), float16]) /* ty=(Tensor[(1, 5, 5, 66), float16], Tensor[(1, 5, 5, 36), float16]) span=from_string:23:125 */ = (%x_7, %x_10) /* ty=(Tensor[(1, 5, 5, 66), float16], Tensor[(1, 5, 5, 36), float16]) span=from_string:22:179 */;
  let %x_12: Tensor[(1, 5, 5, 102), float16] /* ty=Tensor[(1, 5, 5, 102), float16] span=from_string:35:334 */ = concatenate(%x_11, axis=3) /* ty=Tensor[(1, 5, 5, 102), float16] span=from_string:23:113 */;
  let %x_13: Tensor[(5, 5, 4), float16] /* ty=Tensor[(5, 5, 4), float16] span=from_string:25:117 */ = reshape(%x_3, newshape=[5, 5, 4]) /* ty=Tensor[(5, 5, 4), float16] span=from_string:24:103 */;
  let %x_14: Tensor[(1, 5, 5, 4), float16] /* ty=Tensor[(1, 5, 5, 4), float16] span=from_string:26:111 */ = reshape(%x_13, newshape=[1, 5, 5, 4]) /* ty=Tensor[(1, 5, 5, 4), float16] span=from_string:25:109 */;
  let %x_15: Tensor[(5, 5, 4), float16] /* ty=Tensor[(5, 5, 4), float16] span=from_string:27:117 */ = reshape(%x_14, newshape=[5, 5, 4]) /* ty=Tensor[(5, 5, 4), float16] span=from_string:26:103 */;
  let %x_16: Tensor[(1, 5, 5, 4), float16] /* ty=Tensor[(1, 5, 5, 4), float16] span=from_string:35:341 */ = reshape(%x_15, newshape=[1, 5, 5, 4]) /* ty=Tensor[(1, 5, 5, 4), float16] span=from_string:27:109 */;
  let %x_18: Tensor[(1, 5, 4, 5), float16] /* ty=Tensor[(1, 5, 4, 5), float16] span=from_string:29:126 */ = layout_transform(%x_4, src_layout="NCHW", dst_layout="NHWC") /* ty=Tensor[(1, 5, 4, 5), float16] span=from_string:28:109 */;
  let %x_19: Tensor[(5, 5, 4, 1), float16] /* ty=Tensor[(5, 5, 4, 1), float16] span=from_string:30:117 */ = layout_transform(%x_18, src_layout="NHWC", dst_layout="CHWN") /* ty=Tensor[(5, 5, 4, 1), float16] span=from_string:29:109 */;
  let %x_20: Tensor[(5, 5, 4, 1), float16] /* ty=Tensor[(5, 5, 4, 1), float16] span=from_string:32:113 */ = nn.relu(%x_19) /* ty=Tensor[(5, 5, 4, 1), float16] span=from_string:30:109 */;
  let %x_22: Tensor[(5, 5, 4, 1), float16] /* ty=Tensor[(5, 5, 4, 1), float16] span=from_string:33:118 */ = add(%x_20, 1f16 /* ty=float16 */) /* ty=Tensor[(5, 5, 4, 1), float16] span=from_string:32:109 */;
  let %x_23: Tensor[(5, 5, 4, 1), float16] /* ty=Tensor[(5, 5, 4, 1), float16] span=from_string:34:111 */ = fast_exp(%x_22) /* ty=Tensor[(5, 5, 4, 1), float16] span=from_string:33:109 */;
  let %x_24: Tensor[(5, 5, 4), float16] /* ty=Tensor[(5, 5, 4), float16] span=from_string:35:391 */ = squeeze(%x_23) /* ty=Tensor[(5, 5, 4), float16] span=from_string:34:103 */;
  let %x_26: (Tensor[(1, 5, 5, 4), float16], Tensor[(1, 5, 5, 102), float16], Tensor[(1, 5, 5, 4), float16], int32, Tensor[(5, 5, 4), float16], int32) /* ty=(Tensor[(1, 5, 5, 4), float16], Tensor[(1, 5, 5, 102), float16], Tensor[(1, 5, 5, 4), float16], int32, Tensor[(5, 5, 4), float16], int32) span=from_string:36:3 */ = (%x_2, %x_12, %x_16, 20 /* ty=int32 span=from_string:35:350 */, %x_24, 2 /* ty=int32 span=from_string:35:399 */) /* ty=(Tensor[(1, 5, 5, 4), float16], Tensor[(1, 5, 5, 102), float16], Tensor[(1, 5, 5, 4), float16], int32, Tensor[(5, 5, 4), float16], int32) span=from_string:35:327 */;
  %x_26
}
