#[version = "0.0.5"]
def @main(%x0: Tensor[(1, 5, 5, 4), float32] /* ty=Tensor[(1, 5, 5, 4), float32] span=from_string:4:13 */, %x1: Tensor[(1, 5, 5, 62), float32] /* ty=Tensor[(1, 5, 5, 62), float32] span=from_string:12:181 */, %x2: Tensor[(1, 5, 5, 36), float32] /* ty=Tensor[(1, 5, 5, 36), float32] span=from_string:19:115 */, %x3: Tensor[(5, 5, 4), float32] /* ty=Tensor[(5, 5, 4), float32] */, %x4: Tensor[(4, 5, 1, 1), float32] /* ty=Tensor[(4, 5, 1, 1), float32] */) -> (Tensor[(1, 5, 5, 4), float16], Tensor[(1, 5, 5, 102), float16], Tensor[(1, 5, 5, 4), float16], int32, Tensor[(5, 5, 4), float16], int32) {
  let %x_0: float32 /* ty=float32 span=from_string:5:13 */ = 1f /* ty=float32 span=from_string:3:64 */;
  %4 = fn (%p0: Tensor[(1, 5, 5, 4), float32] /* ty=Tensor[(1, 5, 5, 4), float32] */, %p1: float32 /* ty=float32 */, Primitive=1) -> Tensor[(1, 5, 5, 4), float16] {
    %0 = cast(%p0, dtype="float16") /* ty=Tensor[(1, 5, 5, 4), float16] span=from_string:6:13 */;
    %1 = cast(%p1, dtype="float16") /* ty=float16 span=from_string:7:13 */;
    %2 = cast(%0, dtype="float16") /* ty=Tensor[(1, 5, 5, 4), float16] span=from_string:8:111 */;
    %3 = cast(%1, dtype="float16") /* ty=float16 span=from_string:8:115 */;
    add(%2, %3) /* ty=Tensor[(1, 5, 5, 4), float16] span=from_string:8:107 */
  } /* ty=fn (Tensor[(1, 5, 5, 4), float32], float32) -> Tensor[(1, 5, 5, 4), float16] */;
  let %x_1: Tensor[(1, 5, 5, 4), float16] /* ty=Tensor[(1, 5, 5, 4), float16] span=from_string:10:131 */ = %4(%x0, %x_0) /* ty=Tensor[(1, 5, 5, 4), float16] */;
  %5 = fn (%p01: Tensor[(1, 5, 5, 4), float16] /* ty=Tensor[(1, 5, 5, 4), float16] */, Primitive=1) -> Tensor[(1, 5, 5, 4), float16] {
    fast_exp(%p01) /* ty=Tensor[(1, 5, 5, 4), float16] span=from_string:9:108 */
  } /* ty=fn (Tensor[(1, 5, 5, 4), float16]) -> Tensor[(1, 5, 5, 4), float16] */;
  let %x_2: Tensor[(1, 5, 5, 4), float16] /* ty=Tensor[(1, 5, 5, 4), float16] span=from_string:42:328 */ = %5(%x_1) /* ty=Tensor[(1, 5, 5, 4), float16] */;
  let %x_3: Tensor[(1, 5, 5, 4), float16] /* ty=Tensor[(1, 5, 5, 4), float16] span=from_string:27:111 */ = %x_1;
  %6 = fn (%p02: Tensor[(1, 5, 5, 4), float16] /* ty=Tensor[(1, 5, 5, 4), float16] */, Primitive=1) -> Tensor[(1, 5, 5, 4), float16] {
    fast_exp(%p02) /* ty=Tensor[(1, 5, 5, 4), float16] span=from_string:11:108 */
  } /* ty=fn (Tensor[(1, 5, 5, 4), float16]) -> Tensor[(1, 5, 5, 4), float16] */;
  let %x_4: Tensor[(1, 5, 5, 4), float16] /* ty=Tensor[(1, 5, 5, 4), float16] span=from_string:32:126 */ = %6(%x_3) /* ty=Tensor[(1, 5, 5, 4), float16] */;
  let %x_5: (Tensor[(1, 5, 5, 4), float16], Tensor[(1, 5, 5, 62), float32]) /* ty=(Tensor[(1, 5, 5, 4), float16], Tensor[(1, 5, 5, 62), float32]) span=from_string:14:8 */ = (%x_4, %x1) /* ty=(Tensor[(1, 5, 5, 4), float16], Tensor[(1, 5, 5, 62), float32]) span=from_string:12:174 */;
  %11 = fn (%p03: (Tensor[(1, 5, 5, 4), float16], Tensor[(1, 5, 5, 62), float32]) /* ty=(Tensor[(1, 5, 5, 4), float16], Tensor[(1, 5, 5, 62), float32]) */, Primitive=1) -> Tensor[(1, 5, 5, 66), float16] {
    %7 = %p03.1 /* ty=Tensor[(1, 5, 5, 62), float32] */;
    %8 = %p03.0 /* ty=Tensor[(1, 5, 5, 4), float16] */;
    %9 = cast(%7, dtype="float16") /* ty=Tensor[(1, 5, 5, 62), float16] span=from_string:16:13 */;
    %10 = (%8, %9) /* ty=(Tensor[(1, 5, 5, 4), float16], Tensor[(1, 5, 5, 62), float16]) span=from_string:17:122 */;
    concatenate(%10, axis=3) /* ty=Tensor[(1, 5, 5, 66), float16] span=from_string:17:110 */
  } /* ty=fn ((Tensor[(1, 5, 5, 4), float16], Tensor[(1, 5, 5, 62), float32])) -> Tensor[(1, 5, 5, 66), float16] */;
  let %x_6: Tensor[(1, 5, 5, 66), float16] /* ty=Tensor[(1, 5, 5, 66), float16] span=from_string:18:133 */ = %11(%x_5) /* ty=Tensor[(1, 5, 5, 66), float16] */;
  let %x_7: Tensor[(1, 5, 5, 66), float16] /* ty=Tensor[(1, 5, 5, 66), float16] span=from_string:25:180 */ = %x_6;
  let %x_8: (Tensor[(1, 5, 5, 36), float32],) /* ty=(Tensor[(1, 5, 5, 36), float32],) span=from_string:20:8 */ = (%x2,) /* ty=(Tensor[(1, 5, 5, 36), float32],) span=from_string:19:114 */;
  %15 = fn (%p04: (Tensor[(1, 5, 5, 36), float32],) /* ty=(Tensor[(1, 5, 5, 36), float32],) */, Primitive=1) -> Tensor[(1, 5, 5, 36), float16] {
    %12 = %p04.0 /* ty=Tensor[(1, 5, 5, 36), float32] */;
    %13 = cast(%12, dtype="float16") /* ty=Tensor[(1, 5, 5, 36), float16] span=from_string:22:10 */;
    %14 = (%13,) /* ty=(Tensor[(1, 5, 5, 36), float16],) span=from_string:23:122 */;
    concatenate(%14, axis=3) /* ty=Tensor[(1, 5, 5, 36), float16] span=from_string:23:110 */
  } /* ty=fn ((Tensor[(1, 5, 5, 36), float32],)) -> Tensor[(1, 5, 5, 36), float16] */;
  let %x_9: Tensor[(1, 5, 5, 36), float16] /* ty=Tensor[(1, 5, 5, 36), float16] span=from_string:24:134 */ = %15(%x_8) /* ty=Tensor[(1, 5, 5, 36), float16] */;
  let %x_10: Tensor[(1, 5, 5, 36), float16] /* ty=Tensor[(1, 5, 5, 36), float16] span=from_string:25:186 */ = %x_9;
  let %x_11: (Tensor[(1, 5, 5, 66), float16], Tensor[(1, 5, 5, 36), float16]) /* ty=(Tensor[(1, 5, 5, 66), float16], Tensor[(1, 5, 5, 36), float16]) span=from_string:26:125 */ = (%x_7, %x_10) /* ty=(Tensor[(1, 5, 5, 66), float16], Tensor[(1, 5, 5, 36), float16]) span=from_string:25:179 */;
  %16 = fn (%p05: (Tensor[(1, 5, 5, 66), float16], Tensor[(1, 5, 5, 36), float16]) /* ty=(Tensor[(1, 5, 5, 66), float16], Tensor[(1, 5, 5, 36), float16]) */, Primitive=1) -> Tensor[(1, 5, 5, 102), float16] {
    concatenate(%p05, axis=3) /* ty=Tensor[(1, 5, 5, 102), float16] span=from_string:26:113 */
  } /* ty=fn ((Tensor[(1, 5, 5, 66), float16], Tensor[(1, 5, 5, 36), float16])) -> Tensor[(1, 5, 5, 102), float16] */;
  let %x_12: Tensor[(1, 5, 5, 102), float16] /* ty=Tensor[(1, 5, 5, 102), float16] span=from_string:42:334 */ = %16(%x_11) /* ty=Tensor[(1, 5, 5, 102), float16] */;
  %17 = fn (%p06: Tensor[(1, 5, 5, 4), float16] /* ty=Tensor[(1, 5, 5, 4), float16] */, Primitive=1, relay.reshape_only=1) -> Tensor[(5, 5, 4), float16] {
    reshape(%p06, newshape=[5, 5, 4]) /* ty=Tensor[(5, 5, 4), float16] span=from_string:27:103 */
  } /* ty=fn (Tensor[(1, 5, 5, 4), float16]) -> Tensor[(5, 5, 4), float16] */;
  let %x_13: Tensor[(5, 5, 4), float16] /* ty=Tensor[(5, 5, 4), float16] span=from_string:28:117 */ = %17(%x_3) /* ty=Tensor[(5, 5, 4), float16] */;
  %18 = fn (%p07: Tensor[(5, 5, 4), float16] /* ty=Tensor[(5, 5, 4), float16] */, Primitive=1, relay.reshape_only=1) -> Tensor[(1, 5, 5, 4), float16] {
    reshape(%p07, newshape=[1, 5, 5, 4]) /* ty=Tensor[(1, 5, 5, 4), float16] span=from_string:28:109 */
  } /* ty=fn (Tensor[(5, 5, 4), float16]) -> Tensor[(1, 5, 5, 4), float16] */;
  let %x_14: Tensor[(1, 5, 5, 4), float16] /* ty=Tensor[(1, 5, 5, 4), float16] span=from_string:29:111 */ = %18(%x_13) /* ty=Tensor[(1, 5, 5, 4), float16] */;
  %19 = fn (%p08: Tensor[(1, 5, 5, 4), float16] /* ty=Tensor[(1, 5, 5, 4), float16] */, Primitive=1, relay.reshape_only=1) -> Tensor[(5, 5, 4), float16] {
    reshape(%p08, newshape=[5, 5, 4]) /* ty=Tensor[(5, 5, 4), float16] span=from_string:29:103 */
  } /* ty=fn (Tensor[(1, 5, 5, 4), float16]) -> Tensor[(5, 5, 4), float16] */;
  let %x_15: Tensor[(5, 5, 4), float16] /* ty=Tensor[(5, 5, 4), float16] span=from_string:30:117 */ = %19(%x_14) /* ty=Tensor[(5, 5, 4), float16] */;
  %20 = fn (%p09: Tensor[(5, 5, 4), float16] /* ty=Tensor[(5, 5, 4), float16] */, Primitive=1, relay.reshape_only=1) -> Tensor[(1, 5, 5, 4), float16] {
    reshape(%p09, newshape=[1, 5, 5, 4]) /* ty=Tensor[(1, 5, 5, 4), float16] span=from_string:30:109 */
  } /* ty=fn (Tensor[(5, 5, 4), float16]) -> Tensor[(1, 5, 5, 4), float16] */;
  let %x_16: Tensor[(1, 5, 5, 4), float16] /* ty=Tensor[(1, 5, 5, 4), float16] span=from_string:42:341 */ = %20(%x_15) /* ty=Tensor[(1, 5, 5, 4), float16] */;
  let %x_17: int32 /* ty=int32 span=from_string:42:348 */ = 20 /* ty=int32 span=from_string:31:65 */;
  %21 = fn (%p010: Tensor[(1, 5, 5, 4), float16] /* ty=Tensor[(1, 5, 5, 4), float16] */, Primitive=1) -> Tensor[(1, 5, 4, 5), float16] {
    layout_transform(%p010, src_layout="NCHW", dst_layout="NHWC") /* ty=Tensor[(1, 5, 4, 5), float16] span=from_string:32:109 */
  } /* ty=fn (Tensor[(1, 5, 5, 4), float16]) -> Tensor[(1, 5, 4, 5), float16] */;
  let %x_18: Tensor[(1, 5, 4, 5), float16] /* ty=Tensor[(1, 5, 4, 5), float16] span=from_string:33:126 */ = %21(%x_4) /* ty=Tensor[(1, 5, 4, 5), float16] */;
  %22 = fn (%p011: Tensor[(1, 5, 4, 5), float16] /* ty=Tensor[(1, 5, 4, 5), float16] */, Primitive=1) -> Tensor[(5, 5, 4, 1), float16] {
    layout_transform(%p011, src_layout="NHWC", dst_layout="CHWN") /* ty=Tensor[(5, 5, 4, 1), float16] span=from_string:33:109 */
  } /* ty=fn (Tensor[(1, 5, 4, 5), float16]) -> Tensor[(5, 5, 4, 1), float16] */;
  let %x_19: Tensor[(5, 5, 4, 1), float16] /* ty=Tensor[(5, 5, 4, 1), float16] span=from_string:34:117 */ = %22(%x_18) /* ty=Tensor[(5, 5, 4, 1), float16] */;
  %23 = fn (%p012: Tensor[(5, 5, 4, 1), float16] /* ty=Tensor[(5, 5, 4, 1), float16] */, Primitive=1) -> Tensor[(5, 5, 4, 1), float16] {
    nn.relu(%p012) /* ty=Tensor[(5, 5, 4, 1), float16] span=from_string:34:109 */
  } /* ty=fn (Tensor[(5, 5, 4, 1), float16]) -> Tensor[(5, 5, 4, 1), float16] */;
  let %x_20: Tensor[(5, 5, 4, 1), float16] /* ty=Tensor[(5, 5, 4, 1), float16] span=from_string:38:113 */ = %23(%x_19) /* ty=Tensor[(5, 5, 4, 1), float16] */;
  let %x_21: float32 /* ty=float32 span=from_string:36:14 */ = 1f /* ty=float32 span=from_string:35:66 */;
  %26 = fn (%p013: float32 /* ty=float32 */, %p11: Tensor[(5, 5, 4, 1), float16] /* ty=Tensor[(5, 5, 4, 1), float16] */, Primitive=1) -> Tensor[(5, 5, 4, 1), float16] {
    %24 = cast(%p013, dtype="float16") /* ty=float16 span=from_string:37:14 */;
    %25 = cast(%24, dtype="float16") /* ty=float16 span=from_string:38:120 */;
    add(%p11, %25) /* ty=Tensor[(5, 5, 4, 1), float16] span=from_string:38:109 */
  } /* ty=fn (float32, Tensor[(5, 5, 4, 1), float16]) -> Tensor[(5, 5, 4, 1), float16] */;
  let %x_22: Tensor[(5, 5, 4, 1), float16] /* ty=Tensor[(5, 5, 4, 1), float16] span=from_string:39:118 */ = %26(%x_21, %x_20) /* ty=Tensor[(5, 5, 4, 1), float16] */;
  %27 = fn (%p014: Tensor[(5, 5, 4, 1), float16] /* ty=Tensor[(5, 5, 4, 1), float16] */, Primitive=1) -> Tensor[(5, 5, 4, 1), float16] {
    fast_exp(%p014) /* ty=Tensor[(5, 5, 4, 1), float16] span=from_string:39:109 */
  } /* ty=fn (Tensor[(5, 5, 4, 1), float16]) -> Tensor[(5, 5, 4, 1), float16] */;
  let %x_23: Tensor[(5, 5, 4, 1), float16] /* ty=Tensor[(5, 5, 4, 1), float16] span=from_string:40:111 */ = %27(%x_22) /* ty=Tensor[(5, 5, 4, 1), float16] */;
  %28 = fn (%p015: Tensor[(5, 5, 4, 1), float16] /* ty=Tensor[(5, 5, 4, 1), float16] */, Primitive=1, relay.reshape_only=1) -> Tensor[(5, 5, 4), float16] {
    squeeze(%p015) /* ty=Tensor[(5, 5, 4), float16] span=from_string:40:103 */
  } /* ty=fn (Tensor[(5, 5, 4, 1), float16]) -> Tensor[(5, 5, 4), float16] */;
  let %x_24: Tensor[(5, 5, 4), float16] /* ty=Tensor[(5, 5, 4), float16] span=from_string:42:355 */ = %28(%x_23) /* ty=Tensor[(5, 5, 4), float16] */;
  let %x_25: int32 /* ty=int32 span=from_string:42:362 */ = 2 /* ty=int32 span=from_string:41:64 */;
  let %x_26: (Tensor[(1, 5, 5, 4), float16], Tensor[(1, 5, 5, 102), float16], Tensor[(1, 5, 5, 4), float16], int32, Tensor[(5, 5, 4), float16], int32) /* ty=(Tensor[(1, 5, 5, 4), float16], Tensor[(1, 5, 5, 102), float16], Tensor[(1, 5, 5, 4), float16], int32, Tensor[(5, 5, 4), float16], int32) span=from_string:43:3 */ = (%x_2, %x_12, %x_16, %x_17, %x_24, %x_25) /* ty=(Tensor[(1, 5, 5, 4), float16], Tensor[(1, 5, 5, 102), float16], Tensor[(1, 5, 5, 4), float16], int32, Tensor[(5, 5, 4), float16], int32) span=from_string:42:327 */;
  %x_26
}
