#[version = "0.0.5"]
def @main(%x0: Tensor[(1, 5, 5, 4), float32] /* ty=Tensor[(1, 5, 5, 4), float32] span=from_string:3:13 */, %x1: Tensor[(1, 5, 5, 62), float32] /* ty=Tensor[(1, 5, 5, 62), float32] span=from_string:10:13 */, %x2: Tensor[(1, 5, 5, 36), float32] /* ty=Tensor[(1, 5, 5, 36), float32] span=from_string:10:18 */, %x3: Tensor[(5, 5, 4), float32] /* ty=Tensor[(5, 5, 4), float32] */, %x4: Tensor[(4, 5, 1, 1), float32] /* ty=Tensor[(4, 5, 1, 1), float32] */) -> (Tensor[(1, 5, 5, 4), float32], Tensor[(1, 5, 5, 102), float32], Tensor[(1, 5, 5, 4), float16], int32, Tensor[(5, 5, 4), float32], int32) {
  let %x_0 = cast(%x0, dtype="float16");
  let %x_1 = 1f /* ty=float32 span=from_string:4:15 */;
  let %x_2 = cast(%x_1, dtype="float16");
  let %x_3 = add(%x_0, %x_2);
  let %x_4 = cast(%x_3, dtype="float32");
  let %x_5 = fast_exp(%x_4);
  let %x_6 = annotation.stop_fusion(%x_3);
  let %x_7 = cast(%x_6, dtype="float32");
  let %x_8 = fast_exp(%x_7);
  let %x_9 = (%x_8, %x1, %x2) /* ty=(Tensor[(1, 5, 5, 4), float32], Tensor[(1, 5, 5, 62), float32], Tensor[(1, 5, 5, 36), float32]) span=from_string:20:21 */;
  let %x_10 = concatenate(%x_9, axis=3);
  let %x_11 = reshape(%x_6, newshape=[5, 5, 4]);
  let %x_12 = reshape(%x_11, newshape=[1, 5, 5, 4]);
  let %x_13 = reshape(%x_12, newshape=[5, 5, 4]);
  let %x_14 = reshape(%x_13, newshape=[1, 5, 5, 4]);
  let %x_15 = 20 /* ty=int32 span=from_string:23:21 */;
  let %x_16 = layout_transform(%x_8, src_layout="NCHW", dst_layout="NHWC");
  let %x_17 = layout_transform(%x_16, src_layout="NHWC", dst_layout="CHWN");
  let %x_18 = nn.relu(%x_17);
  let %x_19 = 1f /* ty=float32 span=from_string:17:20 */;
  let %x_20 = add(%x_18, %x_19);
  let %x_21 = fast_exp(%x_20);
  let %x_22 = squeeze(%x_21);
  let %x_23 = 2 /* ty=int32 span=from_string:23:67 */;
  let %x_24 = (%x_5, %x_10, %x_14, %x_15, %x_22, %x_23) /* ty=(Tensor[(1, 5, 5, 4), float32], Tensor[(1, 5, 5, 102), float32], Tensor[(1, 5, 5, 4), float16], int32, Tensor[(5, 5, 4), float32], int32) span=from_string:3:3 */;
  %x_24
}
