#[version = "0.0.5"]
def @main(%x0: Tensor[(1, 5, 5, 4), float32] /* ty=Tensor[(1, 5, 5, 4), float32] span=from_string:3:111 */, %x1: Tensor[(1, 5, 5, 62), float32] /* ty=Tensor[(1, 5, 5, 62), float32] span=from_string:10:246 */, %x2: Tensor[(1, 5, 5, 36), float32] /* ty=Tensor[(1, 5, 5, 36), float32] span=from_string:10:251 */, %x3: Tensor[(5, 5, 4), float32] /* ty=Tensor[(5, 5, 4), float32] */, %x4: Tensor[(4, 5, 1, 1), float32] /* ty=Tensor[(4, 5, 1, 1), float32] */) -> (Tensor[(1, 5, 5, 4), float32], Tensor[(1, 5, 5, 102), float32], Tensor[(1, 5, 5, 4), float16], int32, Tensor[(5, 5, 4), float32], int32) {
  %0 = fn (%p0: Tensor[(1, 5, 5, 4), float32] /* ty=Tensor[(1, 5, 5, 4), float32] */, Primitive=1) -> Tensor[(1, 5, 5, 4), float16] {
    cast(%p0, dtype="float16") /* ty=Tensor[(1, 5, 5, 4), float16] span=from_string:3:106 */
  } /* ty=fn (Tensor[(1, 5, 5, 4), float32]) -> Tensor[(1, 5, 5, 4), float16] */;
  let %x_0: Tensor[(1, 5, 5, 4), float16] /* ty=Tensor[(1, 5, 5, 4), float16] span=from_string:4:110 */ = %0(%x0) /* ty=Tensor[(1, 5, 5, 4), float16] */;
  %1 = fn (%p01: Tensor[(1, 5, 5, 4), float16] /* ty=Tensor[(1, 5, 5, 4), float16] */, %p1: float16 /* ty=float16 */, Primitive=1) -> Tensor[(1, 5, 5, 4), float16] {
    add(%p01, %p1) /* ty=Tensor[(1, 5, 5, 4), float16] span=from_string:4:106 */
  } /* ty=fn (Tensor[(1, 5, 5, 4), float16], float16) -> Tensor[(1, 5, 5, 4), float16] */;
  let %x_2: Tensor[(1, 5, 5, 4), float16] /* ty=Tensor[(1, 5, 5, 4), float16] span=from_string:7:130 */ = %1(%x_0, 1f16 /* ty=float16 span=from_string:4:120 */) /* ty=Tensor[(1, 5, 5, 4), float16] */;
  %2 = fn (%p02: Tensor[(1, 5, 5, 4), float16] /* ty=Tensor[(1, 5, 5, 4), float16] */, Primitive=1) -> Tensor[(1, 5, 5, 4), float32] {
    cast(%p02, dtype="float32") /* ty=Tensor[(1, 5, 5, 4), float32] span=from_string:5:106 */
  } /* ty=fn (Tensor[(1, 5, 5, 4), float16]) -> Tensor[(1, 5, 5, 4), float32] */;
  let %x_3: Tensor[(1, 5, 5, 4), float32] /* ty=Tensor[(1, 5, 5, 4), float32] span=from_string:6:111 */ = %2(%x_2) /* ty=Tensor[(1, 5, 5, 4), float32] */;
  %3 = fn (%p03: Tensor[(1, 5, 5, 4), float32] /* ty=Tensor[(1, 5, 5, 4), float32] */, Primitive=1) -> Tensor[(1, 5, 5, 4), float32] {
    exp(%p03) /* ty=Tensor[(1, 5, 5, 4), float32] span=from_string:6:107 */
  } /* ty=fn (Tensor[(1, 5, 5, 4), float32]) -> Tensor[(1, 5, 5, 4), float32] */;
  let %x_4: Tensor[(1, 5, 5, 4), float32] /* ty=Tensor[(1, 5, 5, 4), float32] span=from_string:22:328 */ = %3(%x_3) /* ty=Tensor[(1, 5, 5, 4), float32] */;
  let %x_5: Tensor[(1, 5, 5, 4), float16] /* ty=Tensor[(1, 5, 5, 4), float16] span=from_string:12:110 */ = %x_2;
  %4 = fn (%p04: Tensor[(1, 5, 5, 4), float16] /* ty=Tensor[(1, 5, 5, 4), float16] */, Primitive=1) -> Tensor[(1, 5, 5, 4), float32] {
    cast(%p04, dtype="float32") /* ty=Tensor[(1, 5, 5, 4), float32] span=from_string:8:107 */
  } /* ty=fn (Tensor[(1, 5, 5, 4), float16]) -> Tensor[(1, 5, 5, 4), float32] */;
  let %x_6: Tensor[(1, 5, 5, 4), float32] /* ty=Tensor[(1, 5, 5, 4), float32] span=from_string:9:111 */ = %4(%x_5) /* ty=Tensor[(1, 5, 5, 4), float32] */;
  %5 = fn (%p05: Tensor[(1, 5, 5, 4), float32] /* ty=Tensor[(1, 5, 5, 4), float32] */, Primitive=1) -> Tensor[(1, 5, 5, 4), float32] {
    exp(%p05) /* ty=Tensor[(1, 5, 5, 4), float32] span=from_string:9:107 */
  } /* ty=fn (Tensor[(1, 5, 5, 4), float32]) -> Tensor[(1, 5, 5, 4), float32] */;
  let %x_7: Tensor[(1, 5, 5, 4), float32] /* ty=Tensor[(1, 5, 5, 4), float32] span=from_string:16:125 */ = %5(%x_6) /* ty=Tensor[(1, 5, 5, 4), float32] */;
  let %x_8: (Tensor[(1, 5, 5, 4), float32], Tensor[(1, 5, 5, 62), float32], Tensor[(1, 5, 5, 36), float32]) /* ty=(Tensor[(1, 5, 5, 4), float32], Tensor[(1, 5, 5, 62), float32], Tensor[(1, 5, 5, 36), float32]) span=from_string:11:123 */ = (%x_7, %x1, %x2) /* ty=(Tensor[(1, 5, 5, 4), float32], Tensor[(1, 5, 5, 62), float32], Tensor[(1, 5, 5, 36), float32]) span=from_string:10:239 */;
  %6 = fn (%p06: (Tensor[(1, 5, 5, 4), float32], Tensor[(1, 5, 5, 62), float32], Tensor[(1, 5, 5, 36), float32]) /* ty=(Tensor[(1, 5, 5, 4), float32], Tensor[(1, 5, 5, 62), float32], Tensor[(1, 5, 5, 36), float32]) */, Primitive=1) -> Tensor[(1, 5, 5, 102), float32] {
    concatenate(%p06, axis=3) /* ty=Tensor[(1, 5, 5, 102), float32] span=from_string:11:111 */
  } /* ty=fn ((Tensor[(1, 5, 5, 4), float32], Tensor[(1, 5, 5, 62), float32], Tensor[(1, 5, 5, 36), float32])) -> Tensor[(1, 5, 5, 102), float32] */;
  let %x_9: Tensor[(1, 5, 5, 102), float32] /* ty=Tensor[(1, 5, 5, 102), float32] span=from_string:22:334 */ = %6(%x_8) /* ty=Tensor[(1, 5, 5, 102), float32] */;
  %7 = fn (%p07: Tensor[(1, 5, 5, 4), float16] /* ty=Tensor[(1, 5, 5, 4), float16] */, Primitive=1, relay.reshape_only=1) -> Tensor[(5, 5, 4), float16] {
    reshape(%p07, newshape=[5, 5, 4]) /* ty=Tensor[(5, 5, 4), float16] span=from_string:12:102 */
  } /* ty=fn (Tensor[(1, 5, 5, 4), float16]) -> Tensor[(5, 5, 4), float16] */;
  let %x_10: Tensor[(5, 5, 4), float16] /* ty=Tensor[(5, 5, 4), float16] span=from_string:13:116 */ = %7(%x_5) /* ty=Tensor[(5, 5, 4), float16] */;
  %8 = fn (%p08: Tensor[(5, 5, 4), float16] /* ty=Tensor[(5, 5, 4), float16] */, Primitive=1, relay.reshape_only=1) -> Tensor[(1, 5, 5, 4), float16] {
    reshape(%p08, newshape=[1, 5, 5, 4]) /* ty=Tensor[(1, 5, 5, 4), float16] span=from_string:13:108 */
  } /* ty=fn (Tensor[(5, 5, 4), float16]) -> Tensor[(1, 5, 5, 4), float16] */;
  let %x_11: Tensor[(1, 5, 5, 4), float16] /* ty=Tensor[(1, 5, 5, 4), float16] span=from_string:14:110 */ = %8(%x_10) /* ty=Tensor[(1, 5, 5, 4), float16] */;
  %9 = fn (%p09: Tensor[(1, 5, 5, 4), float16] /* ty=Tensor[(1, 5, 5, 4), float16] */, Primitive=1, relay.reshape_only=1) -> Tensor[(5, 5, 4), float16] {
    reshape(%p09, newshape=[5, 5, 4]) /* ty=Tensor[(5, 5, 4), float16] span=from_string:14:102 */
  } /* ty=fn (Tensor[(1, 5, 5, 4), float16]) -> Tensor[(5, 5, 4), float16] */;
  let %x_12: Tensor[(5, 5, 4), float16] /* ty=Tensor[(5, 5, 4), float16] span=from_string:15:116 */ = %9(%x_11) /* ty=Tensor[(5, 5, 4), float16] */;
  %10 = fn (%p010: Tensor[(5, 5, 4), float16] /* ty=Tensor[(5, 5, 4), float16] */, Primitive=1, relay.reshape_only=1) -> Tensor[(1, 5, 5, 4), float16] {
    reshape(%p010, newshape=[1, 5, 5, 4]) /* ty=Tensor[(1, 5, 5, 4), float16] span=from_string:15:108 */
  } /* ty=fn (Tensor[(5, 5, 4), float16]) -> Tensor[(1, 5, 5, 4), float16] */;
  let %x_13: Tensor[(1, 5, 5, 4), float16] /* ty=Tensor[(1, 5, 5, 4), float16] span=from_string:22:340 */ = %10(%x_12) /* ty=Tensor[(1, 5, 5, 4), float16] */;
  %11 = fn (%p011: Tensor[(1, 5, 5, 4), float32] /* ty=Tensor[(1, 5, 5, 4), float32] */, Primitive=1) -> Tensor[(1, 5, 4, 5), float32] {
    layout_transform(%p011, src_layout="NCHW", dst_layout="NHWC") /* ty=Tensor[(1, 5, 4, 5), float32] span=from_string:16:108 */
  } /* ty=fn (Tensor[(1, 5, 5, 4), float32]) -> Tensor[(1, 5, 4, 5), float32] */;
  let %x_15: Tensor[(1, 5, 4, 5), float32] /* ty=Tensor[(1, 5, 4, 5), float32] span=from_string:17:125 */ = %11(%x_7) /* ty=Tensor[(1, 5, 4, 5), float32] */;
  %12 = fn (%p012: Tensor[(1, 5, 4, 5), float32] /* ty=Tensor[(1, 5, 4, 5), float32] */, Primitive=1) -> Tensor[(5, 5, 4, 1), float32] {
    layout_transform(%p012, src_layout="NHWC", dst_layout="CHWN") /* ty=Tensor[(5, 5, 4, 1), float32] span=from_string:17:108 */
  } /* ty=fn (Tensor[(1, 5, 4, 5), float32]) -> Tensor[(5, 5, 4, 1), float32] */;
  let %x_16: Tensor[(5, 5, 4, 1), float32] /* ty=Tensor[(5, 5, 4, 1), float32] span=from_string:18:116 */ = %12(%x_15) /* ty=Tensor[(5, 5, 4, 1), float32] */;
  %13 = fn (%p013: Tensor[(5, 5, 4, 1), float32] /* ty=Tensor[(5, 5, 4, 1), float32] */, Primitive=1) -> Tensor[(5, 5, 4, 1), float32] {
    nn.relu(%p013) /* ty=Tensor[(5, 5, 4, 1), float32] span=from_string:18:108 */
  } /* ty=fn (Tensor[(5, 5, 4, 1), float32]) -> Tensor[(5, 5, 4, 1), float32] */;
  let %x_17: Tensor[(5, 5, 4, 1), float32] /* ty=Tensor[(5, 5, 4, 1), float32] span=from_string:19:112 */ = %13(%x_16) /* ty=Tensor[(5, 5, 4, 1), float32] */;
  %14 = fn (%p014: Tensor[(5, 5, 4, 1), float32] /* ty=Tensor[(5, 5, 4, 1), float32] */, Primitive=1) -> Tensor[(5, 5, 4, 1), float32] {
    add(%p014, 1f /* ty=float32 span=from_string:19:121 */) /* ty=Tensor[(5, 5, 4, 1), float32] span=from_string:19:108 */
  } /* ty=fn (Tensor[(5, 5, 4, 1), float32]) -> Tensor[(5, 5, 4, 1), float32] */;
  let %x_19: Tensor[(5, 5, 4, 1), float32] /* ty=Tensor[(5, 5, 4, 1), float32] span=from_string:20:112 */ = %14(%x_17) /* ty=Tensor[(5, 5, 4, 1), float32] */;
  %15 = fn (%p015: Tensor[(5, 5, 4, 1), float32] /* ty=Tensor[(5, 5, 4, 1), float32] */, Primitive=1) -> Tensor[(5, 5, 4, 1), float32] {
    exp(%p015) /* ty=Tensor[(5, 5, 4, 1), float32] span=from_string:20:108 */
  } /* ty=fn (Tensor[(5, 5, 4, 1), float32]) -> Tensor[(5, 5, 4, 1), float32] */;
  let %x_20: Tensor[(5, 5, 4, 1), float32] /* ty=Tensor[(5, 5, 4, 1), float32] span=from_string:21:110 */ = %15(%x_19) /* ty=Tensor[(5, 5, 4, 1), float32] */;
  %16 = fn (%p016: Tensor[(5, 5, 4, 1), float32] /* ty=Tensor[(5, 5, 4, 1), float32] */, Primitive=1, relay.reshape_only=1) -> Tensor[(5, 5, 4), float32] {
    squeeze(%p016) /* ty=Tensor[(5, 5, 4), float32] span=from_string:21:102 */
  } /* ty=fn (Tensor[(5, 5, 4, 1), float32]) -> Tensor[(5, 5, 4), float32] */;
  let %x_21: Tensor[(5, 5, 4), float32] /* ty=Tensor[(5, 5, 4), float32] span=from_string:22:389 */ = %16(%x_20) /* ty=Tensor[(5, 5, 4), float32] */;
  let %x_23: (Tensor[(1, 5, 5, 4), float32], Tensor[(1, 5, 5, 102), float32], Tensor[(1, 5, 5, 4), float16], int32, Tensor[(5, 5, 4), float32], int32) /* ty=(Tensor[(1, 5, 5, 4), float32], Tensor[(1, 5, 5, 102), float32], Tensor[(1, 5, 5, 4), float16], int32, Tensor[(5, 5, 4), float32], int32) span=from_string:23:3 */ = (%x_4, %x_9, %x_13, 20 /* ty=int32 span=from_string:22:349 */, %x_21, 2 /* ty=int32 span=from_string:22:397 */) /* ty=(Tensor[(1, 5, 5, 4), float32], Tensor[(1, 5, 5, 102), float32], Tensor[(1, 5, 5, 4), float16], int32, Tensor[(5, 5, 4), float32], int32) span=from_string:22:327 */;
  %x_23
}
