#[version = "0.0.5"]
def @main(%x0: Tensor[(1, 5, 5, 4), float32] /* ty=Tensor[(1, 5, 5, 4), float32] span=from_string:3:19 */, %x1: Tensor[(1, 5, 5, 62), float32] /* ty=Tensor[(1, 5, 5, 62), float32] span=from_string:12:21 */, %x2: Tensor[(1, 5, 5, 36), float32] /* ty=Tensor[(1, 5, 5, 36), float32] span=from_string:12:26 */, %x3: Tensor[(5, 5, 4), float32] /* ty=Tensor[(5, 5, 4), float32] */, %x4: Tensor[(4, 5, 1, 1), float32] /* ty=Tensor[(4, 5, 1, 1), float32] */) -> (Tensor[(1, 5, 5, 4), float32], Tensor[(1, 5, 5, 102), float32], Tensor[(1, 5, 5, 4), float16], int32, Tensor[(5, 5, 4), float32], int32) {
  %0 = fn (%p0: Tensor[(1, 5, 5, 4), float32] /* ty=Tensor[(1, 5, 5, 4), float32] */, Primitive=1) -> Tensor[(1, 5, 5, 4), float16] {
    cast(%p0, dtype="float16") /* ty=Tensor[(1, 5, 5, 4), float16] span=from_string:3:14 */
  } /* ty=fn (Tensor[(1, 5, 5, 4), float32]) -> Tensor[(1, 5, 5, 4), float16] */;
  let %x_0: Tensor[(1, 5, 5, 4), float16] /* ty=Tensor[(1, 5, 5, 4), float16] span=from_string:6:18 */ = %0(%x0) /* ty=Tensor[(1, 5, 5, 4), float16] */;
  let %x_1: float32 /* ty=float32 span=from_string:5:19 */ = 1f /* ty=float32 span=from_string:4:16 */;
  %1 = fn (%p01: float32 /* ty=float32 */, Primitive=1) -> float16 {
    cast(%p01, dtype="float16") /* ty=float16 span=from_string:5:14 */
  } /* ty=fn (float32) -> float16 */;
  let %x_2: float16 /* ty=float16 span=from_string:6:24 */ = %1(%x_1) /* ty=float16 */;
  %2 = fn (%p02: Tensor[(1, 5, 5, 4), float16] /* ty=Tensor[(1, 5, 5, 4), float16] */, %p1: float16 /* ty=float16 */, Primitive=1) -> Tensor[(1, 5, 5, 4), float16] {
    add(%p02, %p1) /* ty=Tensor[(1, 5, 5, 4), float16] span=from_string:6:14 */
  } /* ty=fn (Tensor[(1, 5, 5, 4), float16], float16) -> Tensor[(1, 5, 5, 4), float16] */;
  let %x_3: Tensor[(1, 5, 5, 4), float16] /* ty=Tensor[(1, 5, 5, 4), float16] span=from_string:9:37 */ = %2(%x_0, %x_2) /* ty=Tensor[(1, 5, 5, 4), float16] */;
  %3 = fn (%p03: Tensor[(1, 5, 5, 4), float16] /* ty=Tensor[(1, 5, 5, 4), float16] */, Primitive=1) -> Tensor[(1, 5, 5, 4), float32] {
    cast(%p03, dtype="float32") /* ty=Tensor[(1, 5, 5, 4), float32] span=from_string:7:14 */
  } /* ty=fn (Tensor[(1, 5, 5, 4), float16]) -> Tensor[(1, 5, 5, 4), float32] */;
  let %x_4: Tensor[(1, 5, 5, 4), float32] /* ty=Tensor[(1, 5, 5, 4), float32] span=from_string:8:23 */ = %3(%x_3) /* ty=Tensor[(1, 5, 5, 4), float32] */;
  %4 = fn (%p04: Tensor[(1, 5, 5, 4), float32] /* ty=Tensor[(1, 5, 5, 4), float32] */, Primitive=1) -> Tensor[(1, 5, 5, 4), float32] {
    fast_exp(%p04) /* ty=Tensor[(1, 5, 5, 4), float32] span=from_string:8:14 */
  } /* ty=fn (Tensor[(1, 5, 5, 4), float32]) -> Tensor[(1, 5, 5, 4), float32] */;
  let %x_5: Tensor[(1, 5, 5, 4), float32] /* ty=Tensor[(1, 5, 5, 4), float32] span=from_string:27:16 */ = %4(%x_4) /* ty=Tensor[(1, 5, 5, 4), float32] */;
  let %x_6: Tensor[(1, 5, 5, 4), float16] /* ty=Tensor[(1, 5, 5, 4), float16] span=from_string:14:23 */ = %x_3;
  %5 = fn (%p05: Tensor[(1, 5, 5, 4), float16] /* ty=Tensor[(1, 5, 5, 4), float16] */, Primitive=1) -> Tensor[(1, 5, 5, 4), float32] {
    cast(%p05, dtype="float32") /* ty=Tensor[(1, 5, 5, 4), float32] span=from_string:10:14 */
  } /* ty=fn (Tensor[(1, 5, 5, 4), float16]) -> Tensor[(1, 5, 5, 4), float32] */;
  let %x_7: Tensor[(1, 5, 5, 4), float32] /* ty=Tensor[(1, 5, 5, 4), float32] span=from_string:11:23 */ = %5(%x_6) /* ty=Tensor[(1, 5, 5, 4), float32] */;
  %6 = fn (%p06: Tensor[(1, 5, 5, 4), float32] /* ty=Tensor[(1, 5, 5, 4), float32] */, Primitive=1) -> Tensor[(1, 5, 5, 4), float32] {
    fast_exp(%p06) /* ty=Tensor[(1, 5, 5, 4), float32] span=from_string:11:14 */
  } /* ty=fn (Tensor[(1, 5, 5, 4), float32]) -> Tensor[(1, 5, 5, 4), float32] */;
  let %x_8: Tensor[(1, 5, 5, 4), float32] /* ty=Tensor[(1, 5, 5, 4), float32] span=from_string:19:32 */ = %6(%x_7) /* ty=Tensor[(1, 5, 5, 4), float32] */;
  let %x_9: (Tensor[(1, 5, 5, 4), float32], Tensor[(1, 5, 5, 62), float32], Tensor[(1, 5, 5, 36), float32]) /* ty=(Tensor[(1, 5, 5, 4), float32], Tensor[(1, 5, 5, 62), float32], Tensor[(1, 5, 5, 36), float32]) span=from_string:13:27 */ = (%x_8, %x1, %x2) /* ty=(Tensor[(1, 5, 5, 4), float32], Tensor[(1, 5, 5, 62), float32], Tensor[(1, 5, 5, 36), float32]) span=from_string:12:14 */;
  %7 = fn (%p07: (Tensor[(1, 5, 5, 4), float32], Tensor[(1, 5, 5, 62), float32], Tensor[(1, 5, 5, 36), float32]) /* ty=(Tensor[(1, 5, 5, 4), float32], Tensor[(1, 5, 5, 62), float32], Tensor[(1, 5, 5, 36), float32]) */, Primitive=1) -> Tensor[(1, 5, 5, 102), float32] {
    concatenate(%p07, axis=3) /* ty=Tensor[(1, 5, 5, 102), float32] span=from_string:13:15 */
  } /* ty=fn ((Tensor[(1, 5, 5, 4), float32], Tensor[(1, 5, 5, 62), float32], Tensor[(1, 5, 5, 36), float32])) -> Tensor[(1, 5, 5, 102), float32] */;
  let %x_10: Tensor[(1, 5, 5, 102), float32] /* ty=Tensor[(1, 5, 5, 102), float32] span=from_string:27:22 */ = %7(%x_9) /* ty=Tensor[(1, 5, 5, 102), float32] */;
  %8 = fn (%p08: Tensor[(1, 5, 5, 4), float16] /* ty=Tensor[(1, 5, 5, 4), float16] */, Primitive=1, relay.reshape_only=1) -> Tensor[(5, 5, 4), float16] {
    reshape(%p08, newshape=[5, 5, 4]) /* ty=Tensor[(5, 5, 4), float16] span=from_string:14:15 */
  } /* ty=fn (Tensor[(1, 5, 5, 4), float16]) -> Tensor[(5, 5, 4), float16] */;
  let %x_11: Tensor[(5, 5, 4), float16] /* ty=Tensor[(5, 5, 4), float16] span=from_string:15:23 */ = %8(%x_6) /* ty=Tensor[(5, 5, 4), float16] */;
  %9 = fn (%p09: Tensor[(5, 5, 4), float16] /* ty=Tensor[(5, 5, 4), float16] */, Primitive=1, relay.reshape_only=1) -> Tensor[(1, 5, 5, 4), float16] {
    reshape(%p09, newshape=[1, 5, 5, 4]) /* ty=Tensor[(1, 5, 5, 4), float16] span=from_string:15:15 */
  } /* ty=fn (Tensor[(5, 5, 4), float16]) -> Tensor[(1, 5, 5, 4), float16] */;
  let %x_12: Tensor[(1, 5, 5, 4), float16] /* ty=Tensor[(1, 5, 5, 4), float16] span=from_string:16:23 */ = %9(%x_11) /* ty=Tensor[(1, 5, 5, 4), float16] */;
  %10 = fn (%p010: Tensor[(1, 5, 5, 4), float16] /* ty=Tensor[(1, 5, 5, 4), float16] */, Primitive=1, relay.reshape_only=1) -> Tensor[(5, 5, 4), float16] {
    reshape(%p010, newshape=[5, 5, 4]) /* ty=Tensor[(5, 5, 4), float16] span=from_string:16:15 */
  } /* ty=fn (Tensor[(1, 5, 5, 4), float16]) -> Tensor[(5, 5, 4), float16] */;
  let %x_13: Tensor[(5, 5, 4), float16] /* ty=Tensor[(5, 5, 4), float16] span=from_string:17:23 */ = %10(%x_12) /* ty=Tensor[(5, 5, 4), float16] */;
  %11 = fn (%p011: Tensor[(5, 5, 4), float16] /* ty=Tensor[(5, 5, 4), float16] */, Primitive=1, relay.reshape_only=1) -> Tensor[(1, 5, 5, 4), float16] {
    reshape(%p011, newshape=[1, 5, 5, 4]) /* ty=Tensor[(1, 5, 5, 4), float16] span=from_string:17:15 */
  } /* ty=fn (Tensor[(5, 5, 4), float16]) -> Tensor[(1, 5, 5, 4), float16] */;
  let %x_14: Tensor[(1, 5, 5, 4), float16] /* ty=Tensor[(1, 5, 5, 4), float16] span=from_string:27:29 */ = %11(%x_13) /* ty=Tensor[(1, 5, 5, 4), float16] */;
  let %x_15: int32 /* ty=int32 span=from_string:27:36 */ = 20 /* ty=int32 span=from_string:18:17 */;
  %12 = fn (%p012: Tensor[(1, 5, 5, 4), float32] /* ty=Tensor[(1, 5, 5, 4), float32] */, Primitive=1) -> Tensor[(1, 5, 4, 5), float32] {
    layout_transform(%p012, src_layout="NCHW", dst_layout="NHWC") /* ty=Tensor[(1, 5, 4, 5), float32] span=from_string:19:15 */
  } /* ty=fn (Tensor[(1, 5, 5, 4), float32]) -> Tensor[(1, 5, 4, 5), float32] */;
  let %x_16: Tensor[(1, 5, 4, 5), float32] /* ty=Tensor[(1, 5, 4, 5), float32] span=from_string:20:32 */ = %12(%x_8) /* ty=Tensor[(1, 5, 4, 5), float32] */;
  %13 = fn (%p013: Tensor[(1, 5, 4, 5), float32] /* ty=Tensor[(1, 5, 4, 5), float32] */, Primitive=1) -> Tensor[(5, 5, 4, 1), float32] {
    layout_transform(%p013, src_layout="NHWC", dst_layout="CHWN") /* ty=Tensor[(5, 5, 4, 1), float32] span=from_string:20:15 */
  } /* ty=fn (Tensor[(1, 5, 4, 5), float32]) -> Tensor[(5, 5, 4, 1), float32] */;
  let %x_17: Tensor[(5, 5, 4, 1), float32] /* ty=Tensor[(5, 5, 4, 1), float32] span=from_string:21:23 */ = %13(%x_16) /* ty=Tensor[(5, 5, 4, 1), float32] */;
  %14 = fn (%p014: Tensor[(5, 5, 4, 1), float32] /* ty=Tensor[(5, 5, 4, 1), float32] */, Primitive=1) -> Tensor[(5, 5, 4, 1), float32] {
    nn.relu(%p014) /* ty=Tensor[(5, 5, 4, 1), float32] span=from_string:21:15 */
  } /* ty=fn (Tensor[(5, 5, 4, 1), float32]) -> Tensor[(5, 5, 4, 1), float32] */;
  let %x_18: Tensor[(5, 5, 4, 1), float32] /* ty=Tensor[(5, 5, 4, 1), float32] span=from_string:23:19 */ = %14(%x_17) /* ty=Tensor[(5, 5, 4, 1), float32] */;
  let %x_19: float32 /* ty=float32 span=from_string:23:26 */ = 1f /* ty=float32 span=from_string:22:17 */;
  %15 = fn (%p015: Tensor[(5, 5, 4, 1), float32] /* ty=Tensor[(5, 5, 4, 1), float32] */, %p11: float32 /* ty=float32 */, Primitive=1) -> Tensor[(5, 5, 4, 1), float32] {
    add(%p015, %p11) /* ty=Tensor[(5, 5, 4, 1), float32] span=from_string:23:15 */
  } /* ty=fn (Tensor[(5, 5, 4, 1), float32], float32) -> Tensor[(5, 5, 4, 1), float32] */;
  let %x_20: Tensor[(5, 5, 4, 1), float32] /* ty=Tensor[(5, 5, 4, 1), float32] span=from_string:24:24 */ = %15(%x_18, %x_19) /* ty=Tensor[(5, 5, 4, 1), float32] */;
  %16 = fn (%p016: Tensor[(5, 5, 4, 1), float32] /* ty=Tensor[(5, 5, 4, 1), float32] */, Primitive=1) -> Tensor[(5, 5, 4, 1), float32] {
    fast_exp(%p016) /* ty=Tensor[(5, 5, 4, 1), float32] span=from_string:24:15 */
  } /* ty=fn (Tensor[(5, 5, 4, 1), float32]) -> Tensor[(5, 5, 4, 1), float32] */;
  let %x_21: Tensor[(5, 5, 4, 1), float32] /* ty=Tensor[(5, 5, 4, 1), float32] span=from_string:25:23 */ = %16(%x_20) /* ty=Tensor[(5, 5, 4, 1), float32] */;
  %17 = fn (%p017: Tensor[(5, 5, 4, 1), float32] /* ty=Tensor[(5, 5, 4, 1), float32] */, Primitive=1, relay.reshape_only=1) -> Tensor[(5, 5, 4), float32] {
    squeeze(%p017) /* ty=Tensor[(5, 5, 4), float32] span=from_string:25:15 */
  } /* ty=fn (Tensor[(5, 5, 4, 1), float32]) -> Tensor[(5, 5, 4), float32] */;
  let %x_22: Tensor[(5, 5, 4), float32] /* ty=Tensor[(5, 5, 4), float32] span=from_string:27:43 */ = %17(%x_21) /* ty=Tensor[(5, 5, 4), float32] */;
  let %x_23: int32 /* ty=int32 span=from_string:27:50 */ = 2 /* ty=int32 span=from_string:26:16 */;
  let %x_24: (Tensor[(1, 5, 5, 4), float32], Tensor[(1, 5, 5, 102), float32], Tensor[(1, 5, 5, 4), float16], int32, Tensor[(5, 5, 4), float32], int32) /* ty=(Tensor[(1, 5, 5, 4), float32], Tensor[(1, 5, 5, 102), float32], Tensor[(1, 5, 5, 4), float16], int32, Tensor[(5, 5, 4), float32], int32) span=from_string:28:3 */ = (%x_5, %x_10, %x_14, %x_15, %x_22, %x_23) /* ty=(Tensor[(1, 5, 5, 4), float32], Tensor[(1, 5, 5, 102), float32], Tensor[(1, 5, 5, 4), float16], int32, Tensor[(5, 5, 4), float32], int32) span=from_string:27:15 */;
  %x_24
}
