#[version = "0.0.5"]
def @main(%x0: Tensor[(1, 5, 5, 4), float32] /* ty=Tensor[(1, 5, 5, 4), float32] span=from_string:6:109 */, %x1: Tensor[(1, 5, 5, 62), float32] /* ty=Tensor[(1, 5, 5, 62), float32] span=from_string:33:246 */, %x2: Tensor[(1, 5, 5, 36), float32] /* ty=Tensor[(1, 5, 5, 36), float32] span=from_string:33:251 */, %x3: Tensor[(5, 5, 4), float32] /* ty=Tensor[(5, 5, 4), float32] */, %x4: Tensor[(4, 5, 1, 1), float32] /* ty=Tensor[(4, 5, 1, 1), float32] */) -> (Tensor[(1, 5, 5, 4), float32], Tensor[(1, 5, 5, 102), float32], Tensor[(1, 5, 5, 4), float16], int32, Tensor[(5, 5, 4), float32], int32) {
  %0 = fn (%p0: Tensor[(1, 5, 5, 4), float32] /* ty=Tensor[(1, 5, 5, 4), float32] span=from_string:4:10 */, Primitive=1) -> Tensor[(1, 5, 5, 4), float16] {
    cast(%p0, dtype="float16") /* ty=Tensor[(1, 5, 5, 4), float16] span=from_string:4:5 */
  } /* ty=fn (Tensor[(1, 5, 5, 4), float32]) -> Tensor[(1, 5, 5, 4), float16] span=from_string:6:106 */;
  let %x_0: Tensor[(1, 5, 5, 4), float16] /* ty=Tensor[(1, 5, 5, 4), float16] span=from_string:15:109 */ = %0(%x0) /* ty=Tensor[(1, 5, 5, 4), float16] span=from_string:6:106 */;
  let %x_1: float32 /* ty=float32 span=from_string:11:65 */ = 1f /* ty=float32 span=from_string:7:64 */;
  %1 = fn (%p01: float32 /* ty=float32 span=from_string:9:10 */, Primitive=1) -> float16 {
    cast(%p01, dtype="float16") /* ty=float16 span=from_string:9:5 */
  } /* ty=fn (float32) -> float16 span=from_string:11:62 */;
  let %x_2: float16 /* ty=float16 span=from_string:15:115 */ = %1(%x_1) /* ty=float16 span=from_string:11:62 */;
  %2 = fn (%p02: Tensor[(1, 5, 5, 4), float16] /* ty=Tensor[(1, 5, 5, 4), float16] span=from_string:13:9 */, %p1: float16 /* ty=float16 span=from_string:13:15 */, Primitive=1) -> Tensor[(1, 5, 5, 4), float16] {
    add(%p02, %p1) /* ty=Tensor[(1, 5, 5, 4), float16] span=from_string:13:5 */
  } /* ty=fn (Tensor[(1, 5, 5, 4), float16], float16) -> Tensor[(1, 5, 5, 4), float16] span=from_string:15:106 */;
  let %x_3: Tensor[(1, 5, 5, 4), float16] /* ty=Tensor[(1, 5, 5, 4), float16] span=from_string:24:107 */ = %2(%x_0, %x_2) /* ty=Tensor[(1, 5, 5, 4), float16] span=from_string:15:106 */;
  %3 = fn (%p03: Tensor[(1, 5, 5, 4), float16] /* ty=Tensor[(1, 5, 5, 4), float16] span=from_string:17:10 */, Primitive=1) -> Tensor[(1, 5, 5, 4), float32] {
    cast(%p03, dtype="float32") /* ty=Tensor[(1, 5, 5, 4), float32] span=from_string:17:5 */
  } /* ty=fn (Tensor[(1, 5, 5, 4), float16]) -> Tensor[(1, 5, 5, 4), float32] span=from_string:19:106 */;
  let %x_4: Tensor[(1, 5, 5, 4), float32] /* ty=Tensor[(1, 5, 5, 4), float32] span=from_string:23:110 */ = %3(%x_3) /* ty=Tensor[(1, 5, 5, 4), float32] span=from_string:19:106 */;
  %4 = fn (%p04: Tensor[(1, 5, 5, 4), float32] /* ty=Tensor[(1, 5, 5, 4), float32] span=from_string:21:14 */, Primitive=1) -> Tensor[(1, 5, 5, 4), float32] {
    fast_exp(%p04) /* ty=Tensor[(1, 5, 5, 4), float32] span=from_string:21:5 */
  } /* ty=fn (Tensor[(1, 5, 5, 4), float32]) -> Tensor[(1, 5, 5, 4), float32] span=from_string:23:107 */;
  let %x_5: Tensor[(1, 5, 5, 4), float32] /* ty=Tensor[(1, 5, 5, 4), float32] span=from_string:81:328 */ = %4(%x_4) /* ty=Tensor[(1, 5, 5, 4), float32] span=from_string:23:107 */;
  let %x_6: Tensor[(1, 5, 5, 4), float16] /* ty=Tensor[(1, 5, 5, 4), float16] span=from_string:41:105 */ = %x_3;
  %5 = fn (%p05: Tensor[(1, 5, 5, 4), float16] /* ty=Tensor[(1, 5, 5, 4), float16] span=from_string:26:10 */, Primitive=1) -> Tensor[(1, 5, 5, 4), float32] {
    cast(%p05, dtype="float32") /* ty=Tensor[(1, 5, 5, 4), float32] span=from_string:26:5 */
  } /* ty=fn (Tensor[(1, 5, 5, 4), float16]) -> Tensor[(1, 5, 5, 4), float32] span=from_string:28:107 */;
  let %x_7: Tensor[(1, 5, 5, 4), float32] /* ty=Tensor[(1, 5, 5, 4), float32] span=from_string:32:110 */ = %5(%x_6) /* ty=Tensor[(1, 5, 5, 4), float32] span=from_string:28:107 */;
  %6 = fn (%p06: Tensor[(1, 5, 5, 4), float32] /* ty=Tensor[(1, 5, 5, 4), float32] span=from_string:30:14 */, Primitive=1) -> Tensor[(1, 5, 5, 4), float32] {
    fast_exp(%p06) /* ty=Tensor[(1, 5, 5, 4), float32] span=from_string:30:5 */
  } /* ty=fn (Tensor[(1, 5, 5, 4), float32]) -> Tensor[(1, 5, 5, 4), float32] span=from_string:32:107 */;
  let %x_8: Tensor[(1, 5, 5, 4), float32] /* ty=Tensor[(1, 5, 5, 4), float32] span=from_string:58:112 */ = %6(%x_7) /* ty=Tensor[(1, 5, 5, 4), float32] span=from_string:32:107 */;
  let %x_9: (Tensor[(1, 5, 5, 4), float32], Tensor[(1, 5, 5, 62), float32], Tensor[(1, 5, 5, 36), float32]) /* ty=(Tensor[(1, 5, 5, 4), float32], Tensor[(1, 5, 5, 62), float32], Tensor[(1, 5, 5, 36), float32]) span=from_string:37:115 */ = (%x_8, %x1, %x2) /* ty=(Tensor[(1, 5, 5, 4), float32], Tensor[(1, 5, 5, 62), float32], Tensor[(1, 5, 5, 36), float32]) span=from_string:33:239 */;
  %7 = fn (%p07: (Tensor[(1, 5, 5, 4), float32], Tensor[(1, 5, 5, 62), float32], Tensor[(1, 5, 5, 36), float32]) /* ty=(Tensor[(1, 5, 5, 4), float32], Tensor[(1, 5, 5, 62), float32], Tensor[(1, 5, 5, 36), float32]) span=from_string:35:17 */, Primitive=1) -> Tensor[(1, 5, 5, 102), float32] {
    concatenate(%p07, axis=3) /* ty=Tensor[(1, 5, 5, 102), float32] span=from_string:35:5 */
  } /* ty=fn ((Tensor[(1, 5, 5, 4), float32], Tensor[(1, 5, 5, 62), float32], Tensor[(1, 5, 5, 36), float32])) -> Tensor[(1, 5, 5, 102), float32] span=from_string:37:112 */;
  let %x_10: Tensor[(1, 5, 5, 102), float32] /* ty=Tensor[(1, 5, 5, 102), float32] span=from_string:81:334 */ = %7(%x_9) /* ty=Tensor[(1, 5, 5, 102), float32] span=from_string:37:112 */;
  %8 = fn (%p08: Tensor[(1, 5, 5, 4), float16] /* ty=Tensor[(1, 5, 5, 4), float16] span=from_string:39:13 */, Primitive=1, relay.reshape_only=1) -> Tensor[(5, 5, 4), float16] {
    reshape(%p08, newshape=[5, 5, 4]) /* ty=Tensor[(5, 5, 4), float16] span=from_string:39:5 */
  } /* ty=fn (Tensor[(1, 5, 5, 4), float16]) -> Tensor[(5, 5, 4), float16] span=from_string:41:102 */;
  let %x_11: Tensor[(5, 5, 4), float16] /* ty=Tensor[(5, 5, 4), float16] span=from_string:45:111 */ = %8(%x_6) /* ty=Tensor[(5, 5, 4), float16] span=from_string:41:102 */;
  %9 = fn (%p09: Tensor[(5, 5, 4), float16] /* ty=Tensor[(5, 5, 4), float16] span=from_string:43:13 */, Primitive=1, relay.reshape_only=1) -> Tensor[(1, 5, 5, 4), float16] {
    reshape(%p09, newshape=[1, 5, 5, 4]) /* ty=Tensor[(1, 5, 5, 4), float16] span=from_string:43:5 */
  } /* ty=fn (Tensor[(5, 5, 4), float16]) -> Tensor[(1, 5, 5, 4), float16] span=from_string:45:108 */;
  let %x_12: Tensor[(1, 5, 5, 4), float16] /* ty=Tensor[(1, 5, 5, 4), float16] span=from_string:49:106 */ = %9(%x_11) /* ty=Tensor[(1, 5, 5, 4), float16] span=from_string:45:108 */;
  %10 = fn (%p010: Tensor[(1, 5, 5, 4), float16] /* ty=Tensor[(1, 5, 5, 4), float16] span=from_string:47:13 */, Primitive=1, relay.reshape_only=1) -> Tensor[(5, 5, 4), float16] {
    reshape(%p010, newshape=[5, 5, 4]) /* ty=Tensor[(5, 5, 4), float16] span=from_string:47:5 */
  } /* ty=fn (Tensor[(1, 5, 5, 4), float16]) -> Tensor[(5, 5, 4), float16] span=from_string:49:102 */;
  let %x_13: Tensor[(5, 5, 4), float16] /* ty=Tensor[(5, 5, 4), float16] span=from_string:53:112 */ = %10(%x_12) /* ty=Tensor[(5, 5, 4), float16] span=from_string:49:102 */;
  %11 = fn (%p011: Tensor[(5, 5, 4), float16] /* ty=Tensor[(5, 5, 4), float16] span=from_string:51:13 */, Primitive=1, relay.reshape_only=1) -> Tensor[(1, 5, 5, 4), float16] {
    reshape(%p011, newshape=[1, 5, 5, 4]) /* ty=Tensor[(1, 5, 5, 4), float16] span=from_string:51:5 */
  } /* ty=fn (Tensor[(5, 5, 4), float16]) -> Tensor[(1, 5, 5, 4), float16] span=from_string:53:108 */;
  let %x_14: Tensor[(1, 5, 5, 4), float16] /* ty=Tensor[(1, 5, 5, 4), float16] span=from_string:81:341 */ = %11(%x_13) /* ty=Tensor[(1, 5, 5, 4), float16] span=from_string:53:108 */;
  let %x_15: int32 /* ty=int32 span=from_string:81:348 */ = 20 /* ty=int32 span=from_string:54:64 */;
  %12 = fn (%p012: Tensor[(1, 5, 5, 4), float32] /* ty=Tensor[(1, 5, 5, 4), float32] span=from_string:56:22 */, Primitive=1) -> Tensor[(1, 5, 4, 5), float32] {
    layout_transform(%p012, src_layout="NCHW", dst_layout="NHWC") /* ty=Tensor[(1, 5, 4, 5), float32] span=from_string:56:5 */
  } /* ty=fn (Tensor[(1, 5, 5, 4), float32]) -> Tensor[(1, 5, 4, 5), float32] span=from_string:58:108 */;
  let %x_16: Tensor[(1, 5, 4, 5), float32] /* ty=Tensor[(1, 5, 4, 5), float32] span=from_string:62:112 */ = %12(%x_8) /* ty=Tensor[(1, 5, 4, 5), float32] span=from_string:58:108 */;
  %13 = fn (%p013: Tensor[(1, 5, 4, 5), float32] /* ty=Tensor[(1, 5, 4, 5), float32] span=from_string:60:22 */, Primitive=1) -> Tensor[(5, 5, 4, 1), float32] {
    layout_transform(%p013, src_layout="NHWC", dst_layout="CHWN") /* ty=Tensor[(5, 5, 4, 1), float32] span=from_string:60:5 */
  } /* ty=fn (Tensor[(1, 5, 4, 5), float32]) -> Tensor[(5, 5, 4, 1), float32] span=from_string:62:108 */;
  let %x_17: Tensor[(5, 5, 4, 1), float32] /* ty=Tensor[(5, 5, 4, 1), float32] span=from_string:66:112 */ = %13(%x_16) /* ty=Tensor[(5, 5, 4, 1), float32] span=from_string:62:108 */;
  %14 = fn (%p014: Tensor[(5, 5, 4, 1), float32] /* ty=Tensor[(5, 5, 4, 1), float32] span=from_string:64:13 */, Primitive=1) -> Tensor[(5, 5, 4, 1), float32] {
    nn.relu(%p014) /* ty=Tensor[(5, 5, 4, 1), float32] span=from_string:64:5 */
  } /* ty=fn (Tensor[(5, 5, 4, 1), float32]) -> Tensor[(5, 5, 4, 1), float32] span=from_string:66:108 */;
  let %x_18: Tensor[(5, 5, 4, 1), float32] /* ty=Tensor[(5, 5, 4, 1), float32] span=from_string:71:112 */ = %14(%x_17) /* ty=Tensor[(5, 5, 4, 1), float32] span=from_string:66:108 */;
  let %x_19: float32 /* ty=float32 span=from_string:71:119 */ = 1f /* ty=float32 span=from_string:67:66 */;
  %15 = fn (%p015: Tensor[(5, 5, 4, 1), float32] /* ty=Tensor[(5, 5, 4, 1), float32] span=from_string:69:9 */, %p11: float32 /* ty=float32 span=from_string:69:16 */, Primitive=1) -> Tensor[(5, 5, 4, 1), float32] {
    add(%p015, %p11) /* ty=Tensor[(5, 5, 4, 1), float32] span=from_string:69:5 */
  } /* ty=fn (Tensor[(5, 5, 4, 1), float32], float32) -> Tensor[(5, 5, 4, 1), float32] span=from_string:71:108 */;
  let %x_20: Tensor[(5, 5, 4, 1), float32] /* ty=Tensor[(5, 5, 4, 1), float32] span=from_string:75:112 */ = %15(%x_18, %x_19) /* ty=Tensor[(5, 5, 4, 1), float32] span=from_string:71:108 */;
  %16 = fn (%p016: Tensor[(5, 5, 4, 1), float32] /* ty=Tensor[(5, 5, 4, 1), float32] span=from_string:73:14 */, Primitive=1) -> Tensor[(5, 5, 4, 1), float32] {
    fast_exp(%p016) /* ty=Tensor[(5, 5, 4, 1), float32] span=from_string:73:5 */
  } /* ty=fn (Tensor[(5, 5, 4, 1), float32]) -> Tensor[(5, 5, 4, 1), float32] span=from_string:75:108 */;
  let %x_21: Tensor[(5, 5, 4, 1), float32] /* ty=Tensor[(5, 5, 4, 1), float32] span=from_string:79:106 */ = %16(%x_20) /* ty=Tensor[(5, 5, 4, 1), float32] span=from_string:75:108 */;
  %17 = fn (%p017: Tensor[(5, 5, 4, 1), float32] /* ty=Tensor[(5, 5, 4, 1), float32] span=from_string:77:13 */, Primitive=1, relay.reshape_only=1) -> Tensor[(5, 5, 4), float32] {
    squeeze(%p017) /* ty=Tensor[(5, 5, 4), float32] span=from_string:77:5 */
  } /* ty=fn (Tensor[(5, 5, 4, 1), float32]) -> Tensor[(5, 5, 4), float32] span=from_string:79:102 */;
  let %x_22: Tensor[(5, 5, 4), float32] /* ty=Tensor[(5, 5, 4), float32] span=from_string:81:355 */ = %17(%x_21) /* ty=Tensor[(5, 5, 4), float32] span=from_string:79:102 */;
  let %x_23: int32 /* ty=int32 span=from_string:81:362 */ = 2 /* ty=int32 span=from_string:80:63 */;
  let %x_24: (Tensor[(1, 5, 5, 4), float32], Tensor[(1, 5, 5, 102), float32], Tensor[(1, 5, 5, 4), float16], int32, Tensor[(5, 5, 4), float32], int32) /* ty=(Tensor[(1, 5, 5, 4), float32], Tensor[(1, 5, 5, 102), float32], Tensor[(1, 5, 5, 4), float16], int32, Tensor[(5, 5, 4), float32], int32) span=from_string:82:3 */ = (%x_5, %x_10, %x_14, %x_15, %x_22, %x_23) /* ty=(Tensor[(1, 5, 5, 4), float32], Tensor[(1, 5, 5, 102), float32], Tensor[(1, 5, 5, 4), float16], int32, Tensor[(5, 5, 4), float32], int32) span=from_string:81:327 */;
  %x_24
}
