#[version = "0.0.5"]
def @main(%x0: Tensor[(1, 5, 5, 4), float32] /* ty=Tensor[(1, 5, 5, 4), float32] span=from_string:4:18 */, %x1: Tensor[(1, 5, 5, 62), float32] /* ty=Tensor[(1, 5, 5, 62), float32] span=from_string:8:21 */, %x2: Tensor[(1, 5, 5, 36), float32] /* ty=Tensor[(1, 5, 5, 36), float32] span=from_string:11:15 */, %x3: Tensor[(5, 5, 4), float32] /* ty=Tensor[(5, 5, 4), float32] */, %x4: Tensor[(4, 5, 1, 1), float32] /* ty=Tensor[(4, 5, 1, 1), float32] */) -> (Tensor[(1, 5, 5, 4), float32], Tensor[(1, 5, 5, 102), float32], Tensor[(1, 5, 5, 4), float32], int32, Tensor[(5, 5, 4), float32], int32) {
  %0 = add(%x0, 1f /* ty=float32 span=from_string:3:16 */) /* ty=Tensor[(1, 5, 5, 4), float32] span=from_string:4:14 */;
  %1 = annotation.stop_fusion(%0) /* ty=Tensor[(1, 5, 5, 4), float32] span=from_string:6:14 */;
  %2 = fast_exp(%1) /* ty=Tensor[(1, 5, 5, 4), float32] span=from_string:7:14 */;
  %3 = (%2, %x1) /* ty=(Tensor[(1, 5, 5, 4), float32], Tensor[(1, 5, 5, 62), float32]) span=from_string:8:14 */;
  %4 = concatenate(%3, axis=3) /* ty=Tensor[(1, 5, 5, 66), float32] span=from_string:9:14 */;
  %5 = (%x2,) /* ty=(Tensor[(1, 5, 5, 36), float32],) span=from_string:11:14 */;
  %6 = concatenate(%5, axis=3) /* ty=Tensor[(1, 5, 5, 36), float32] span=from_string:12:14 */;
  %7 = annotation.stop_fusion(%4) /* ty=Tensor[(1, 5, 5, 66), float32] span=from_string:10:14 */;
  %8 = annotation.stop_fusion(%6) /* ty=Tensor[(1, 5, 5, 36), float32] span=from_string:13:15 */;
  %9 = (%7, %8) /* ty=(Tensor[(1, 5, 5, 66), float32], Tensor[(1, 5, 5, 36), float32]) span=from_string:14:15 */;
  %10 = reshape(%1, newshape=[5, 5, 4]) /* ty=Tensor[(5, 5, 4), float32] span=from_string:16:15 */;
  %11 = reshape(%10, newshape=[1, 5, 5, 4]) /* ty=Tensor[(1, 5, 5, 4), float32] span=from_string:17:15 */;
  %12 = reshape(%11, newshape=[5, 5, 4]) /* ty=Tensor[(5, 5, 4), float32] span=from_string:18:15 */;
  %13 = layout_transform(%2, src_layout="NCHW", dst_layout="NHWC") /* ty=Tensor[(1, 5, 4, 5), float32] span=from_string:21:15 */;
  %14 = layout_transform(%13, src_layout="NHWC", dst_layout="CHWN") /* ty=Tensor[(5, 5, 4, 1), float32] span=from_string:22:15 */;
  %15 = nn.relu(%14) /* ty=Tensor[(5, 5, 4, 1), float32] span=from_string:23:15 */;
  %16 = add(%15, 1f /* ty=float32 span=from_string:24:17 */) /* ty=Tensor[(5, 5, 4, 1), float32] span=from_string:25:15 */;
  %17 = fast_exp(%16) /* ty=Tensor[(5, 5, 4, 1), float32] span=from_string:26:15 */;
  %18 = fast_exp(%0) /* ty=Tensor[(1, 5, 5, 4), float32] span=from_string:5:14 */;
  %19 = concatenate(%9, axis=3) /* ty=Tensor[(1, 5, 5, 102), float32] span=from_string:15:15 */;
  %20 = reshape(%12, newshape=[1, 5, 5, 4]) /* ty=Tensor[(1, 5, 5, 4), float32] span=from_string:19:15 */;
  %21 = squeeze(%17) /* ty=Tensor[(5, 5, 4), float32] span=from_string:27:15 */;
  (%18, %19, %20, 20 /* ty=int32 span=from_string:20:17 */, %21, 2 /* ty=int32 span=from_string:28:16 */) /* ty=(Tensor[(1, 5, 5, 4), float32], Tensor[(1, 5, 5, 102), float32], Tensor[(1, 5, 5, 4), float32], int32, Tensor[(5, 5, 4), float32], int32) span=from_string:29:15 */
}
