#[version = "0.0.5"]
def @main(%x0: Tensor[(1, 5, 5, 4), float32] /* ty=Tensor[(1, 5, 5, 4), float32] span=from_string:4:18 */, %x1: Tensor[(1, 5, 5, 62), float32] /* ty=Tensor[(1, 5, 5, 62), float32] span=from_string:8:21 */, %x2: Tensor[(1, 5, 5, 36), float32] /* ty=Tensor[(1, 5, 5, 36), float32] span=from_string:11:15 */, %x3: Tensor[(5, 5, 4), float32] /* ty=Tensor[(5, 5, 4), float32] */, %x4: Tensor[(4, 5, 1, 1), float32] /* ty=Tensor[(4, 5, 1, 1), float32] */) -> (Tensor[(1, 5, 5, 4), float32], Tensor[(1, 5, 5, 102), float16], Tensor[(1, 5, 5, 4), float16], int32, Tensor[(5, 5, 4), float16], int32) {
  let %x_0: float32 /* ty=float32 span=from_string:4:23 */ = 1f /* ty=float32 span=from_string:3:16 */;
  %0 = cast(%x0, dtype="float16") /* ty=Tensor[(1, 5, 5, 4), float16] */;
  %1 = cast(%x_0, dtype="float16") /* ty=float16 */;
  let %x_1: Tensor[(1, 5, 5, 4), float16] /* ty=Tensor[(1, 5, 5, 4), float16] span=from_string:6:37 */ = add(%0, %1) /* ty=Tensor[(1, 5, 5, 4), float16] span=from_string:4:14 */;
  %2 = cast(%x_1, dtype="float32") /* ty=Tensor[(1, 5, 5, 4), float32] */;
  let %x_2: Tensor[(1, 5, 5, 4), float32] /* ty=Tensor[(1, 5, 5, 4), float32] span=from_string:25:16 */ = exp(%2) /* ty=Tensor[(1, 5, 5, 4), float32] span=from_string:5:14 */;
  let %x_3: Tensor[(1, 5, 5, 4), float16] /* ty=Tensor[(1, 5, 5, 4), float16] span=from_string:16:23 */ = annotation.stop_fusion(%x_1) /* ty=Tensor[(1, 5, 5, 4), float16] span=from_string:6:14 */;
  %3 = cast(%x_3, dtype="float32") /* ty=Tensor[(1, 5, 5, 4), float32] */;
  let %x_4: Tensor[(1, 5, 5, 4), float32] /* ty=Tensor[(1, 5, 5, 4), float32] span=from_string:18:25 */ = exp(%3) /* ty=Tensor[(1, 5, 5, 4), float32] span=from_string:7:14 */;
  let %x_5: (Tensor[(1, 5, 5, 4), float32], Tensor[(1, 5, 5, 62), float32]) /* ty=(Tensor[(1, 5, 5, 4), float32], Tensor[(1, 5, 5, 62), float32]) span=from_string:9:26 */ = (%x_4, %x1) /* ty=(Tensor[(1, 5, 5, 4), float32], Tensor[(1, 5, 5, 62), float32]) span=from_string:8:14 */;
  %4 = %x_5.0 /* ty=Tensor[(1, 5, 5, 4), float32] */;
  %5 = %x_5.1 /* ty=Tensor[(1, 5, 5, 62), float32] */;
  %6 = cast(%4, dtype="float16") /* ty=Tensor[(1, 5, 5, 4), float16] */;
  %7 = cast(%5, dtype="float16") /* ty=Tensor[(1, 5, 5, 62), float16] */;
  %8 = (%6, %7) /* ty=(Tensor[(1, 5, 5, 4), float16], Tensor[(1, 5, 5, 62), float16]) */;
  let %x_6: Tensor[(1, 5, 5, 66), float16] /* ty=Tensor[(1, 5, 5, 66), float16] span=from_string:10:37 */ = concatenate(%8, axis=3) /* ty=Tensor[(1, 5, 5, 66), float16] span=from_string:9:14 */;
  let %x_7: Tensor[(1, 5, 5, 66), float16] /* ty=Tensor[(1, 5, 5, 66), float16] span=from_string:14:16 */ = annotation.stop_fusion(%x_6) /* ty=Tensor[(1, 5, 5, 66), float16] span=from_string:10:14 */;
  let %x_8: (Tensor[(1, 5, 5, 36), float32],) /* ty=(Tensor[(1, 5, 5, 36), float32],) span=from_string:12:26 */ = (%x2,) /* ty=(Tensor[(1, 5, 5, 36), float32],) span=from_string:11:14 */;
  %9 = %x_8.0 /* ty=Tensor[(1, 5, 5, 36), float32] */;
  %10 = cast(%9, dtype="float16") /* ty=Tensor[(1, 5, 5, 36), float16] */;
  %11 = (%10,) /* ty=(Tensor[(1, 5, 5, 36), float16],) */;
  let %x_9: Tensor[(1, 5, 5, 36), float16] /* ty=Tensor[(1, 5, 5, 36), float16] span=from_string:13:38 */ = concatenate(%11, axis=3) /* ty=Tensor[(1, 5, 5, 36), float16] span=from_string:12:14 */;
  let %x_10: Tensor[(1, 5, 5, 36), float16] /* ty=Tensor[(1, 5, 5, 36), float16] span=from_string:14:22 */ = annotation.stop_fusion(%x_9) /* ty=Tensor[(1, 5, 5, 36), float16] span=from_string:13:15 */;
  let %x_11: (Tensor[(1, 5, 5, 66), float16], Tensor[(1, 5, 5, 36), float16]) /* ty=(Tensor[(1, 5, 5, 66), float16], Tensor[(1, 5, 5, 36), float16]) span=from_string:15:27 */ = (%x_7, %x_10) /* ty=(Tensor[(1, 5, 5, 66), float16], Tensor[(1, 5, 5, 36), float16]) span=from_string:14:15 */;
  let %x_12: Tensor[(1, 5, 5, 102), float16] /* ty=Tensor[(1, 5, 5, 102), float16] span=from_string:25:22 */ = concatenate(%x_11, axis=3) /* ty=Tensor[(1, 5, 5, 102), float16] span=from_string:15:15 */;
  let %x_13: Tensor[(1, 5, 5, 4), float16] /* ty=Tensor[(1, 5, 5, 4), float16] span=from_string:25:29 */ = reshape(%x_3, newshape=[1, 5, 5, 4]) /* ty=Tensor[(1, 5, 5, 4), float16] span=from_string:16:15 */;
  let %x_14: int32 /* ty=int32 span=from_string:25:36 */ = 20 /* ty=int32 span=from_string:17:17 */;
  %12 = cast(%x_4, dtype="float16") /* ty=Tensor[(1, 5, 5, 4), float16] */;
  let %x_15: Tensor[(5, 5, 4, 1), float16] /* ty=Tensor[(5, 5, 4, 1), float16] span=from_string:19:23 */ = transpose(%12, axes=[1, 2, 3, 0]) /* ty=Tensor[(5, 5, 4, 1), float16] span=from_string:18:15 */;
  let %x_16: Tensor[(5, 5, 4, 1), float16] /* ty=Tensor[(5, 5, 4, 1), float16] span=from_string:21:19 */ = nn.relu(%x_15) /* ty=Tensor[(5, 5, 4, 1), float16] span=from_string:19:15 */;
  let %x_17: float32 /* ty=float32 span=from_string:21:26 */ = 1f /* ty=float32 span=from_string:20:17 */;
  %13 = cast(%x_17, dtype="float16") /* ty=float16 */;
  let %x_18: Tensor[(5, 5, 4, 1), float16] /* ty=Tensor[(5, 5, 4, 1), float16] span=from_string:22:19 */ = add(%x_16, %13) /* ty=Tensor[(5, 5, 4, 1), float16] span=from_string:21:15 */;
  %14 = cast(%x_18, dtype="float32") /* ty=Tensor[(5, 5, 4, 1), float32] */;
  let %x_19: Tensor[(5, 5, 4, 1), float32] /* ty=Tensor[(5, 5, 4, 1), float32] span=from_string:23:23 */ = exp(%14) /* ty=Tensor[(5, 5, 4, 1), float32] span=from_string:22:15 */;
  %15 = cast(%x_19, dtype="float16") /* ty=Tensor[(5, 5, 4, 1), float16] */;
  let %x_20: Tensor[(5, 5, 4), float16] /* ty=Tensor[(5, 5, 4), float16] span=from_string:25:43 */ = squeeze(%15) /* ty=Tensor[(5, 5, 4), float16] span=from_string:23:15 */;
  let %x_21: int32 /* ty=int32 span=from_string:25:50 */ = 2 /* ty=int32 span=from_string:24:16 */;
  let %x_22: (Tensor[(1, 5, 5, 4), float32], Tensor[(1, 5, 5, 102), float16], Tensor[(1, 5, 5, 4), float16], int32, Tensor[(5, 5, 4), float16], int32) /* ty=(Tensor[(1, 5, 5, 4), float32], Tensor[(1, 5, 5, 102), float16], Tensor[(1, 5, 5, 4), float16], int32, Tensor[(5, 5, 4), float16], int32) span=from_string:26:3 */ = (%x_2, %x_12, %x_13, %x_14, %x_20, %x_21) /* ty=(Tensor[(1, 5, 5, 4), float32], Tensor[(1, 5, 5, 102), float16], Tensor[(1, 5, 5, 4), float16], int32, Tensor[(5, 5, 4), float16], int32) span=from_string:25:15 */;
  %x_22
}
