#[version = "0.0.5"]
def @main(%x0: Tensor[(1, 5, 5, 4), float32] /* ty=Tensor[(1, 5, 5, 4), float32] span=from_string:4:13 */, %x1: Tensor[(1, 5, 5, 62), float32] /* ty=Tensor[(1, 5, 5, 62), float32] span=from_string:12:181 */, %x2: Tensor[(1, 5, 5, 36), float32] /* ty=Tensor[(1, 5, 5, 36), float32] span=from_string:20:116 */, %x3: Tensor[(5, 5, 4), float32] /* ty=Tensor[(5, 5, 4), float32] */, %x4: Tensor[(4, 5, 1, 1), float32] /* ty=Tensor[(4, 5, 1, 1), float32] */) -> (Tensor[(1, 5, 5, 4), float32], Tensor[(1, 5, 5, 102), float16], Tensor[(1, 5, 5, 4), float16], int32, Tensor[(5, 5, 4), float16], int32) {
  let %x_0: float32 /* ty=float32 span=from_string:5:13 */ = 1f /* ty=float32 span=from_string:3:64 */;
  %2 = fn (%p0: Tensor[(1, 5, 5, 4), float32] /* ty=Tensor[(1, 5, 5, 4), float32] */, %p1: float32 /* ty=float32 */, Primitive=1) -> Tensor[(1, 5, 5, 4), float16] {
    %0 = cast(%p0, dtype="float16") /* ty=Tensor[(1, 5, 5, 4), float16] span=from_string:6:110 */;
    %1 = cast(%p1, dtype="float16") /* ty=float16 span=from_string:6:114 */;
    add(%0, %1) /* ty=Tensor[(1, 5, 5, 4), float16] span=from_string:6:106 */
  } /* ty=fn (Tensor[(1, 5, 5, 4), float32], float32) -> Tensor[(1, 5, 5, 4), float16] */;
  let %x_1: Tensor[(1, 5, 5, 4), float16] /* ty=Tensor[(1, 5, 5, 4), float16] span=from_string:9:130 */ = %2(%x0, %x_0) /* ty=Tensor[(1, 5, 5, 4), float16] */;
  %4 = fn (%p01: Tensor[(1, 5, 5, 4), float16] /* ty=Tensor[(1, 5, 5, 4), float16] */, Primitive=1) -> Tensor[(1, 5, 5, 4), float32] {
    %3 = cast(%p01, dtype="float32") /* ty=Tensor[(1, 5, 5, 4), float32] span=from_string:8:111 */;
    exp(%3) /* ty=Tensor[(1, 5, 5, 4), float32] span=from_string:8:107 */
  } /* ty=fn (Tensor[(1, 5, 5, 4), float16]) -> Tensor[(1, 5, 5, 4), float32] */;
  let %x_2: Tensor[(1, 5, 5, 4), float32] /* ty=Tensor[(1, 5, 5, 4), float32] span=from_string:41:328 */ = %4(%x_1) /* ty=Tensor[(1, 5, 5, 4), float32] */;
  let %x_3: Tensor[(1, 5, 5, 4), float16] /* ty=Tensor[(1, 5, 5, 4), float16] span=from_string:28:116 */ = %x_1;
  %6 = fn (%p02: Tensor[(1, 5, 5, 4), float16] /* ty=Tensor[(1, 5, 5, 4), float16] */, Primitive=1) -> Tensor[(1, 5, 5, 4), float32] {
    %5 = cast(%p02, dtype="float32") /* ty=Tensor[(1, 5, 5, 4), float32] span=from_string:11:111 */;
    exp(%5) /* ty=Tensor[(1, 5, 5, 4), float32] span=from_string:11:107 */
  } /* ty=fn (Tensor[(1, 5, 5, 4), float16]) -> Tensor[(1, 5, 5, 4), float32] */;
  let %x_4: Tensor[(1, 5, 5, 4), float32] /* ty=Tensor[(1, 5, 5, 4), float32] span=from_string:30:14 */ = %6(%x_3) /* ty=Tensor[(1, 5, 5, 4), float32] */;
  let %x_5: (Tensor[(1, 5, 5, 4), float32], Tensor[(1, 5, 5, 62), float32]) /* ty=(Tensor[(1, 5, 5, 4), float32], Tensor[(1, 5, 5, 62), float32]) span=from_string:14:8 */ = (%x_4, %x1) /* ty=(Tensor[(1, 5, 5, 4), float32], Tensor[(1, 5, 5, 62), float32]) span=from_string:12:174 */;
  %12 = fn (%p03: (Tensor[(1, 5, 5, 4), float32], Tensor[(1, 5, 5, 62), float32]) /* ty=(Tensor[(1, 5, 5, 4), float32], Tensor[(1, 5, 5, 62), float32]) */, Primitive=1) -> Tensor[(1, 5, 5, 66), float16] {
    %7 = %p03.0 /* ty=Tensor[(1, 5, 5, 4), float32] */;
    %8 = %p03.1 /* ty=Tensor[(1, 5, 5, 62), float32] */;
    %9 = cast(%7, dtype="float16") /* ty=Tensor[(1, 5, 5, 4), float16] span=from_string:17:9 */;
    %10 = cast(%8, dtype="float16") /* ty=Tensor[(1, 5, 5, 62), float16] span=from_string:17:13 */;
    %11 = (%9, %10) /* ty=(Tensor[(1, 5, 5, 4), float16], Tensor[(1, 5, 5, 62), float16]) span=from_string:18:121 */;
    concatenate(%11, axis=3) /* ty=Tensor[(1, 5, 5, 66), float16] span=from_string:18:109 */
  } /* ty=fn ((Tensor[(1, 5, 5, 4), float32], Tensor[(1, 5, 5, 62), float32])) -> Tensor[(1, 5, 5, 66), float16] */;
  let %x_6: Tensor[(1, 5, 5, 66), float16] /* ty=Tensor[(1, 5, 5, 66), float16] span=from_string:19:132 */ = %12(%x_5) /* ty=Tensor[(1, 5, 5, 66), float16] */;
  let %x_7: Tensor[(1, 5, 5, 66), float16] /* ty=Tensor[(1, 5, 5, 66), float16] span=from_string:26:179 */ = %x_6;
  let %x_8: (Tensor[(1, 5, 5, 36), float32],) /* ty=(Tensor[(1, 5, 5, 36), float32],) span=from_string:21:8 */ = (%x2,) /* ty=(Tensor[(1, 5, 5, 36), float32],) span=from_string:20:115 */;
  %16 = fn (%p04: (Tensor[(1, 5, 5, 36), float32],) /* ty=(Tensor[(1, 5, 5, 36), float32],) */, Primitive=1) -> Tensor[(1, 5, 5, 36), float16] {
    %13 = %p04.0 /* ty=Tensor[(1, 5, 5, 36), float32] */;
    %14 = cast(%13, dtype="float16") /* ty=Tensor[(1, 5, 5, 36), float16] span=from_string:23:10 */;
    %15 = (%14,) /* ty=(Tensor[(1, 5, 5, 36), float16],) span=from_string:24:121 */;
    concatenate(%15, axis=3) /* ty=Tensor[(1, 5, 5, 36), float16] span=from_string:24:109 */
  } /* ty=fn ((Tensor[(1, 5, 5, 36), float32],)) -> Tensor[(1, 5, 5, 36), float16] */;
  let %x_9: Tensor[(1, 5, 5, 36), float16] /* ty=Tensor[(1, 5, 5, 36), float16] span=from_string:25:133 */ = %16(%x_8) /* ty=Tensor[(1, 5, 5, 36), float16] */;
  let %x_10: Tensor[(1, 5, 5, 36), float16] /* ty=Tensor[(1, 5, 5, 36), float16] span=from_string:26:185 */ = %x_9;
  let %x_11: (Tensor[(1, 5, 5, 66), float16], Tensor[(1, 5, 5, 36), float16]) /* ty=(Tensor[(1, 5, 5, 66), float16], Tensor[(1, 5, 5, 36), float16]) span=from_string:27:124 */ = (%x_7, %x_10) /* ty=(Tensor[(1, 5, 5, 66), float16], Tensor[(1, 5, 5, 36), float16]) span=from_string:26:178 */;
  %17 = fn (%p05: (Tensor[(1, 5, 5, 66), float16], Tensor[(1, 5, 5, 36), float16]) /* ty=(Tensor[(1, 5, 5, 66), float16], Tensor[(1, 5, 5, 36), float16]) */, Primitive=1) -> Tensor[(1, 5, 5, 102), float16] {
    concatenate(%p05, axis=3) /* ty=Tensor[(1, 5, 5, 102), float16] span=from_string:27:112 */
  } /* ty=fn ((Tensor[(1, 5, 5, 66), float16], Tensor[(1, 5, 5, 36), float16])) -> Tensor[(1, 5, 5, 102), float16] */;
  let %x_12: Tensor[(1, 5, 5, 102), float16] /* ty=Tensor[(1, 5, 5, 102), float16] span=from_string:41:334 */ = %17(%x_11) /* ty=Tensor[(1, 5, 5, 102), float16] */;
  %18 = fn (%p06: Tensor[(1, 5, 5, 4), float16] /* ty=Tensor[(1, 5, 5, 4), float16] */, Primitive=1, relay.reshape_only=1) -> Tensor[(1, 5, 5, 4), float16] {
    reshape(%p06, newshape=[1, 5, 5, 4]) /* ty=Tensor[(1, 5, 5, 4), float16] span=from_string:28:108 */
  } /* ty=fn (Tensor[(1, 5, 5, 4), float16]) -> Tensor[(1, 5, 5, 4), float16] */;
  let %x_13: Tensor[(1, 5, 5, 4), float16] /* ty=Tensor[(1, 5, 5, 4), float16] span=from_string:41:341 */ = %18(%x_3) /* ty=Tensor[(1, 5, 5, 4), float16] */;
  let %x_14: int32 /* ty=int32 span=from_string:41:348 */ = 20 /* ty=int32 span=from_string:29:64 */;
  %20 = fn (%p07: Tensor[(1, 5, 5, 4), float32] /* ty=Tensor[(1, 5, 5, 4), float32] */, Primitive=1) -> Tensor[(5, 5, 4, 1), float16] {
    %19 = cast(%p07, dtype="float16") /* ty=Tensor[(1, 5, 5, 4), float16] span=from_string:31:118 */;
    transpose(%19, axes=[1, 2, 3, 0]) /* ty=Tensor[(5, 5, 4, 1), float16] span=from_string:31:108 */
  } /* ty=fn (Tensor[(1, 5, 5, 4), float32]) -> Tensor[(5, 5, 4, 1), float16] */;
  let %x_15: Tensor[(5, 5, 4, 1), float16] /* ty=Tensor[(5, 5, 4, 1), float16] span=from_string:32:116 */ = %20(%x_4) /* ty=Tensor[(5, 5, 4, 1), float16] */;
  %21 = fn (%p08: Tensor[(5, 5, 4, 1), float16] /* ty=Tensor[(5, 5, 4, 1), float16] */, Primitive=1) -> Tensor[(5, 5, 4, 1), float16] {
    nn.relu(%p08) /* ty=Tensor[(5, 5, 4, 1), float16] span=from_string:32:108 */
  } /* ty=fn (Tensor[(5, 5, 4, 1), float16]) -> Tensor[(5, 5, 4, 1), float16] */;
  let %x_16: Tensor[(5, 5, 4, 1), float16] /* ty=Tensor[(5, 5, 4, 1), float16] span=from_string:35:112 */ = %21(%x_15) /* ty=Tensor[(5, 5, 4, 1), float16] */;
  let %x_17: float32 /* ty=float32 span=from_string:34:14 */ = 1f /* ty=float32 span=from_string:33:66 */;
  %23 = fn (%p09: float32 /* ty=float32 */, %p11: Tensor[(5, 5, 4, 1), float16] /* ty=Tensor[(5, 5, 4, 1), float16] */, Primitive=1) -> Tensor[(5, 5, 4, 1), float16] {
    %22 = cast(%p09, dtype="float16") /* ty=float16 span=from_string:35:119 */;
    add(%p11, %22) /* ty=Tensor[(5, 5, 4, 1), float16] span=from_string:35:108 */
  } /* ty=fn (float32, Tensor[(5, 5, 4, 1), float16]) -> Tensor[(5, 5, 4, 1), float16] */;
  let %x_18: Tensor[(5, 5, 4, 1), float16] /* ty=Tensor[(5, 5, 4, 1), float16] span=from_string:36:14 */ = %23(%x_17, %x_16) /* ty=Tensor[(5, 5, 4, 1), float16] */;
  %25 = fn (%p010: Tensor[(5, 5, 4, 1), float16] /* ty=Tensor[(5, 5, 4, 1), float16] */, Primitive=1) -> Tensor[(5, 5, 4, 1), float32] {
    %24 = cast(%p010, dtype="float32") /* ty=Tensor[(5, 5, 4, 1), float32] span=from_string:37:112 */;
    exp(%24) /* ty=Tensor[(5, 5, 4, 1), float32] span=from_string:37:108 */
  } /* ty=fn (Tensor[(5, 5, 4, 1), float16]) -> Tensor[(5, 5, 4, 1), float32] */;
  let %x_19: Tensor[(5, 5, 4, 1), float32] /* ty=Tensor[(5, 5, 4, 1), float32] span=from_string:38:14 */ = %25(%x_18) /* ty=Tensor[(5, 5, 4, 1), float32] */;
  %27 = fn (%p011: Tensor[(5, 5, 4, 1), float32] /* ty=Tensor[(5, 5, 4, 1), float32] */, Primitive=1) -> Tensor[(5, 5, 4), float16] {
    %26 = cast(%p011, dtype="float16") /* ty=Tensor[(5, 5, 4, 1), float16] span=from_string:39:110 */;
    squeeze(%26) /* ty=Tensor[(5, 5, 4), float16] span=from_string:39:102 */
  } /* ty=fn (Tensor[(5, 5, 4, 1), float32]) -> Tensor[(5, 5, 4), float16] */;
  let %x_20: Tensor[(5, 5, 4), float16] /* ty=Tensor[(5, 5, 4), float16] span=from_string:41:355 */ = %27(%x_19) /* ty=Tensor[(5, 5, 4), float16] */;
  let %x_21: int32 /* ty=int32 span=from_string:41:362 */ = 2 /* ty=int32 span=from_string:40:63 */;
  let %x_22: (Tensor[(1, 5, 5, 4), float32], Tensor[(1, 5, 5, 102), float16], Tensor[(1, 5, 5, 4), float16], int32, Tensor[(5, 5, 4), float16], int32) /* ty=(Tensor[(1, 5, 5, 4), float32], Tensor[(1, 5, 5, 102), float16], Tensor[(1, 5, 5, 4), float16], int32, Tensor[(5, 5, 4), float16], int32) span=from_string:42:3 */ = (%x_2, %x_12, %x_13, %x_14, %x_20, %x_21) /* ty=(Tensor[(1, 5, 5, 4), float32], Tensor[(1, 5, 5, 102), float16], Tensor[(1, 5, 5, 4), float16], int32, Tensor[(5, 5, 4), float16], int32) span=from_string:41:327 */;
  %x_22
}
