#[version = "0.0.5"]
def @main(%x0: Tensor[(1, 5, 5, 4), float32] /* ty=Tensor[(1, 5, 5, 4), float32] span=from_string:4:111 */, %x1: Tensor[(1, 5, 5, 62), float32] /* ty=Tensor[(1, 5, 5, 62), float32] span=from_string:8:246 */, %x2: Tensor[(1, 5, 5, 36), float32] /* ty=Tensor[(1, 5, 5, 36), float32] span=from_string:8:251 */, %x3: Tensor[(5, 5, 4), float32] /* ty=Tensor[(5, 5, 4), float32] */, %x4: Tensor[(4, 5, 1, 1), float32] /* ty=Tensor[(4, 5, 1, 1), float32] */) -> (Tensor[(1, 5, 5, 4), float32], Tensor[(1, 5, 5, 102), float32], Tensor[(1, 5, 5, 4), float32], int32, Tensor[(5, 5, 4), float32], int32) {
  let %x_0: float32 /* ty=float32 span=from_string:4:116 */ = 1f /* ty=float32 span=from_string:3:65 */;
  %0 = fn (%p0: Tensor[(1, 5, 5, 4), float32] /* ty=Tensor[(1, 5, 5, 4), float32] */, %p1: float32 /* ty=float32 */, Primitive=1) -> Tensor[(1, 5, 5, 4), float32] {
    add(%p0, %p1) /* ty=Tensor[(1, 5, 5, 4), float32] span=from_string:4:107 */
  } /* ty=fn (Tensor[(1, 5, 5, 4), float32], float32) -> Tensor[(1, 5, 5, 4), float32] */;
  let %x_1: Tensor[(1, 5, 5, 4), float32] /* ty=Tensor[(1, 5, 5, 4), float32] span=from_string:6:131 */ = %0(%x0, %x_0) /* ty=Tensor[(1, 5, 5, 4), float32] */;
  %1 = fn (%p01: Tensor[(1, 5, 5, 4), float32] /* ty=Tensor[(1, 5, 5, 4), float32] */, Primitive=1) -> Tensor[(1, 5, 5, 4), float32] {
    fast_exp(%p01) /* ty=Tensor[(1, 5, 5, 4), float32] span=from_string:5:108 */
  } /* ty=fn (Tensor[(1, 5, 5, 4), float32]) -> Tensor[(1, 5, 5, 4), float32] */;
  let %x_2: Tensor[(1, 5, 5, 4), float32] /* ty=Tensor[(1, 5, 5, 4), float32] span=from_string:23:328 */ = %1(%x_1) /* ty=Tensor[(1, 5, 5, 4), float32] */;
  let %x_3: Tensor[(1, 5, 5, 4), float32] /* ty=Tensor[(1, 5, 5, 4), float32] span=from_string:10:110 */ = %x_1;
  %2 = fn (%p02: Tensor[(1, 5, 5, 4), float32] /* ty=Tensor[(1, 5, 5, 4), float32] */, Primitive=1) -> Tensor[(1, 5, 5, 4), float32] {
    fast_exp(%p02) /* ty=Tensor[(1, 5, 5, 4), float32] span=from_string:7:108 */
  } /* ty=fn (Tensor[(1, 5, 5, 4), float32]) -> Tensor[(1, 5, 5, 4), float32] */;
  let %x_4: Tensor[(1, 5, 5, 4), float32] /* ty=Tensor[(1, 5, 5, 4), float32] span=from_string:15:126 */ = %2(%x_3) /* ty=Tensor[(1, 5, 5, 4), float32] */;
  let %x_5: (Tensor[(1, 5, 5, 4), float32], Tensor[(1, 5, 5, 62), float32], Tensor[(1, 5, 5, 36), float32]) /* ty=(Tensor[(1, 5, 5, 4), float32], Tensor[(1, 5, 5, 62), float32], Tensor[(1, 5, 5, 36), float32]) span=from_string:9:124 */ = (%x_4, %x1, %x2) /* ty=(Tensor[(1, 5, 5, 4), float32], Tensor[(1, 5, 5, 62), float32], Tensor[(1, 5, 5, 36), float32]) span=from_string:8:239 */;
  %3 = fn (%p03: (Tensor[(1, 5, 5, 4), float32], Tensor[(1, 5, 5, 62), float32], Tensor[(1, 5, 5, 36), float32]) /* ty=(Tensor[(1, 5, 5, 4), float32], Tensor[(1, 5, 5, 62), float32], Tensor[(1, 5, 5, 36), float32]) */, Primitive=1) -> Tensor[(1, 5, 5, 102), float32] {
    concatenate(%p03, axis=3) /* ty=Tensor[(1, 5, 5, 102), float32] span=from_string:9:112 */
  } /* ty=fn ((Tensor[(1, 5, 5, 4), float32], Tensor[(1, 5, 5, 62), float32], Tensor[(1, 5, 5, 36), float32])) -> Tensor[(1, 5, 5, 102), float32] */;
  let %x_6: Tensor[(1, 5, 5, 102), float32] /* ty=Tensor[(1, 5, 5, 102), float32] span=from_string:23:334 */ = %3(%x_5) /* ty=Tensor[(1, 5, 5, 102), float32] */;
  %4 = fn (%p04: Tensor[(1, 5, 5, 4), float32] /* ty=Tensor[(1, 5, 5, 4), float32] */, Primitive=1, relay.reshape_only=1) -> Tensor[(5, 5, 4), float32] {
    reshape(%p04, newshape=[5, 5, 4]) /* ty=Tensor[(5, 5, 4), float32] span=from_string:10:102 */
  } /* ty=fn (Tensor[(1, 5, 5, 4), float32]) -> Tensor[(5, 5, 4), float32] */;
  let %x_7: Tensor[(5, 5, 4), float32] /* ty=Tensor[(5, 5, 4), float32] span=from_string:11:116 */ = %4(%x_3) /* ty=Tensor[(5, 5, 4), float32] */;
  %5 = fn (%p05: Tensor[(5, 5, 4), float32] /* ty=Tensor[(5, 5, 4), float32] */, Primitive=1, relay.reshape_only=1) -> Tensor[(1, 5, 5, 4), float32] {
    reshape(%p05, newshape=[1, 5, 5, 4]) /* ty=Tensor[(1, 5, 5, 4), float32] span=from_string:11:108 */
  } /* ty=fn (Tensor[(5, 5, 4), float32]) -> Tensor[(1, 5, 5, 4), float32] */;
  let %x_8: Tensor[(1, 5, 5, 4), float32] /* ty=Tensor[(1, 5, 5, 4), float32] span=from_string:12:110 */ = %5(%x_7) /* ty=Tensor[(1, 5, 5, 4), float32] */;
  %6 = fn (%p06: Tensor[(1, 5, 5, 4), float32] /* ty=Tensor[(1, 5, 5, 4), float32] */, Primitive=1, relay.reshape_only=1) -> Tensor[(5, 5, 4), float32] {
    reshape(%p06, newshape=[5, 5, 4]) /* ty=Tensor[(5, 5, 4), float32] span=from_string:12:102 */
  } /* ty=fn (Tensor[(1, 5, 5, 4), float32]) -> Tensor[(5, 5, 4), float32] */;
  let %x_9: Tensor[(5, 5, 4), float32] /* ty=Tensor[(5, 5, 4), float32] span=from_string:13:117 */ = %6(%x_8) /* ty=Tensor[(5, 5, 4), float32] */;
  %7 = fn (%p07: Tensor[(5, 5, 4), float32] /* ty=Tensor[(5, 5, 4), float32] */, Primitive=1, relay.reshape_only=1) -> Tensor[(1, 5, 5, 4), float32] {
    reshape(%p07, newshape=[1, 5, 5, 4]) /* ty=Tensor[(1, 5, 5, 4), float32] span=from_string:13:109 */
  } /* ty=fn (Tensor[(5, 5, 4), float32]) -> Tensor[(1, 5, 5, 4), float32] */;
  let %x_10: Tensor[(1, 5, 5, 4), float32] /* ty=Tensor[(1, 5, 5, 4), float32] span=from_string:23:340 */ = %7(%x_9) /* ty=Tensor[(1, 5, 5, 4), float32] */;
  let %x_11: int32 /* ty=int32 span=from_string:23:347 */ = 20 /* ty=int32 span=from_string:14:65 */;
  %8 = fn (%p08: Tensor[(1, 5, 5, 4), float32] /* ty=Tensor[(1, 5, 5, 4), float32] */, Primitive=1) -> Tensor[(1, 5, 4, 5), float32] {
    layout_transform(%p08, src_layout="NCHW", dst_layout="NHWC") /* ty=Tensor[(1, 5, 4, 5), float32] span=from_string:15:109 */
  } /* ty=fn (Tensor[(1, 5, 5, 4), float32]) -> Tensor[(1, 5, 4, 5), float32] */;
  let %x_12: Tensor[(1, 5, 4, 5), float32] /* ty=Tensor[(1, 5, 4, 5), float32] span=from_string:16:126 */ = %8(%x_4) /* ty=Tensor[(1, 5, 4, 5), float32] */;
  %9 = fn (%p09: Tensor[(1, 5, 4, 5), float32] /* ty=Tensor[(1, 5, 4, 5), float32] */, Primitive=1) -> Tensor[(5, 5, 4, 1), float32] {
    layout_transform(%p09, src_layout="NHWC", dst_layout="CHWN") /* ty=Tensor[(5, 5, 4, 1), float32] span=from_string:16:109 */
  } /* ty=fn (Tensor[(1, 5, 4, 5), float32]) -> Tensor[(5, 5, 4, 1), float32] */;
  let %x_13: Tensor[(5, 5, 4, 1), float32] /* ty=Tensor[(5, 5, 4, 1), float32] span=from_string:17:117 */ = %9(%x_12) /* ty=Tensor[(5, 5, 4, 1), float32] */;
  %10 = fn (%p010: Tensor[(5, 5, 4, 1), float32] /* ty=Tensor[(5, 5, 4, 1), float32] */, Primitive=1) -> Tensor[(5, 5, 4, 1), float32] {
    nn.relu(%p010) /* ty=Tensor[(5, 5, 4, 1), float32] span=from_string:17:109 */
  } /* ty=fn (Tensor[(5, 5, 4, 1), float32]) -> Tensor[(5, 5, 4, 1), float32] */;
  let %x_14: Tensor[(5, 5, 4, 1), float32] /* ty=Tensor[(5, 5, 4, 1), float32] span=from_string:19:113 */ = %10(%x_13) /* ty=Tensor[(5, 5, 4, 1), float32] */;
  let %x_15: float32 /* ty=float32 span=from_string:19:120 */ = 1f /* ty=float32 span=from_string:18:67 */;
  %11 = fn (%p011: Tensor[(5, 5, 4, 1), float32] /* ty=Tensor[(5, 5, 4, 1), float32] */, %p11: float32 /* ty=float32 */, Primitive=1) -> Tensor[(5, 5, 4, 1), float32] {
    add(%p011, %p11) /* ty=Tensor[(5, 5, 4, 1), float32] span=from_string:19:109 */
  } /* ty=fn (Tensor[(5, 5, 4, 1), float32], float32) -> Tensor[(5, 5, 4, 1), float32] */;
  let %x_16: Tensor[(5, 5, 4, 1), float32] /* ty=Tensor[(5, 5, 4, 1), float32] span=from_string:20:118 */ = %11(%x_14, %x_15) /* ty=Tensor[(5, 5, 4, 1), float32] */;
  %12 = fn (%p012: Tensor[(5, 5, 4, 1), float32] /* ty=Tensor[(5, 5, 4, 1), float32] */, Primitive=1) -> Tensor[(5, 5, 4, 1), float32] {
    fast_exp(%p012) /* ty=Tensor[(5, 5, 4, 1), float32] span=from_string:20:109 */
  } /* ty=fn (Tensor[(5, 5, 4, 1), float32]) -> Tensor[(5, 5, 4, 1), float32] */;
  let %x_17: Tensor[(5, 5, 4, 1), float32] /* ty=Tensor[(5, 5, 4, 1), float32] span=from_string:21:111 */ = %12(%x_16) /* ty=Tensor[(5, 5, 4, 1), float32] */;
  %13 = fn (%p013: Tensor[(5, 5, 4, 1), float32] /* ty=Tensor[(5, 5, 4, 1), float32] */, Primitive=1, relay.reshape_only=1) -> Tensor[(5, 5, 4), float32] {
    squeeze(%p013) /* ty=Tensor[(5, 5, 4), float32] span=from_string:21:103 */
  } /* ty=fn (Tensor[(5, 5, 4, 1), float32]) -> Tensor[(5, 5, 4), float32] */;
  let %x_18: Tensor[(5, 5, 4), float32] /* ty=Tensor[(5, 5, 4), float32] span=from_string:23:354 */ = %13(%x_17) /* ty=Tensor[(5, 5, 4), float32] */;
  let %x_19: int32 /* ty=int32 span=from_string:23:361 */ = 2 /* ty=int32 span=from_string:22:64 */;
  let %x_20: (Tensor[(1, 5, 5, 4), float32], Tensor[(1, 5, 5, 102), float32], Tensor[(1, 5, 5, 4), float32], int32, Tensor[(5, 5, 4), float32], int32) /* ty=(Tensor[(1, 5, 5, 4), float32], Tensor[(1, 5, 5, 102), float32], Tensor[(1, 5, 5, 4), float32], int32, Tensor[(5, 5, 4), float32], int32) span=from_string:24:3 */ = (%x_2, %x_6, %x_10, %x_11, %x_18, %x_19) /* ty=(Tensor[(1, 5, 5, 4), float32], Tensor[(1, 5, 5, 102), float32], Tensor[(1, 5, 5, 4), float32], int32, Tensor[(5, 5, 4), float32], int32) span=from_string:23:327 */;
  %x_20
}
