#[version = "0.0.5"]
def @main(%x0: Tensor[(1, 5, 5, 4), float32] /* ty=Tensor[(1, 5, 5, 4), float32] span=from_string:3:12 */, %x1: Tensor[(1, 5, 5, 62), float32] /* ty=Tensor[(1, 5, 5, 62), float32] span=from_string:6:13 */, %x2: Tensor[(1, 5, 5, 36), float32] /* ty=Tensor[(1, 5, 5, 36), float32] span=from_string:6:18 */, %x3: Tensor[(5, 5, 4), float32] /* ty=Tensor[(5, 5, 4), float32] */, %x4: Tensor[(4, 5, 1, 1), float32] /* ty=Tensor[(4, 5, 1, 1), float32] */) -> (Tensor[(1, 5, 5, 4), float32], Tensor[(1, 5, 5, 102), float32], Tensor[(1, 5, 5, 4), float32], int32, Tensor[(5, 5, 4), float32], int32) {
  let %x_0 = 1f /* ty=float32 span=from_string:3:19 */;
  let %x_1 = add(%x0, %x_0);
  let %x_2 = exp(%x_1);
  let %x_3 = annotation.stop_fusion(%x_1);
  let %x_4 = exp(%x_3);
  let %x_5 = (%x_4, %x1, %x2) /* ty=(Tensor[(1, 5, 5, 4), float32], Tensor[(1, 5, 5, 62), float32], Tensor[(1, 5, 5, 36), float32]) span=from_string:12:20 */;
  let %x_6 = concatenate(%x_5, axis=3);
  let %x_7 = reshape(%x_3, newshape=[1, 5, 5, 4]);
  let %x_8 = 20 /* ty=int32 span=from_string:15:19 */;
  let %x_9 = transpose(%x_4, axes=[1, 2, 3, 0]);
  let %x_10 = nn.relu(%x_9);
  let %x_11 = 1f /* ty=float32 span=from_string:9:18 */;
  let %x_12 = add(%x_10, %x_11);
  let %x_13 = exp(%x_12);
  let %x_14 = squeeze(%x_13);
  let %x_15 = 2 /* ty=int32 span=from_string:15:65 */;
  let %x_16 = (%x_2, %x_6, %x_7, %x_8, %x_14, %x_15) /* ty=(Tensor[(1, 5, 5, 4), float32], Tensor[(1, 5, 5, 102), float32], Tensor[(1, 5, 5, 4), float32], int32, Tensor[(5, 5, 4), float32], int32) span=from_string:3:3 */;
  %x_16
}
