#[version = "0.0.5"]
def @main(%x0: Tensor[(1, 5, 5, 4), float32] /* ty=Tensor[(1, 5, 5, 4), float32] span=from_string:3:12 */, %x1: Tensor[(1, 5, 5, 62), float32] /* ty=Tensor[(1, 5, 5, 62), float32] span=from_string:6:13 */, %x2: Tensor[(1, 5, 5, 36), float32] /* ty=Tensor[(1, 5, 5, 36), float32] span=from_string:6:18 */, %x3: Tensor[(5, 5, 4), float32] /* ty=Tensor[(5, 5, 4), float32] */, %x4: Tensor[(4, 5, 1, 1), float32] /* ty=Tensor[(4, 5, 1, 1), float32] */) -> (Tensor[(1, 5, 5, 4), float32], Tensor[(1, 5, 5, 102), float32], Tensor[(1, 5, 5, 4), float32], int32, Tensor[(5, 5, 4), float32], int32) {
  let %x_0 = 1f /* ty=float32 span=from_string:3:19 */;
  let %x_1 = add(%x0, %x_0);
  let %x_2 = fast_exp(%x_1);
  let %x_3 = annotation.stop_fusion(%x_1);
  let %x_4 = fast_exp(%x_3);
  let %x_5 = (%x_4, %x1, %x2) /* ty=(Tensor[(1, 5, 5, 4), float32], Tensor[(1, 5, 5, 62), float32], Tensor[(1, 5, 5, 36), float32]) span=from_string:16:21 */;
  let %x_6 = concatenate(%x_5, axis=3);
  let %x_7 = reshape(%x_3, newshape=[5, 5, 4]);
  let %x_8 = reshape(%x_7, newshape=[1, 5, 5, 4]);
  let %x_9 = reshape(%x_8, newshape=[5, 5, 4]);
  let %x_10 = reshape(%x_9, newshape=[1, 5, 5, 4]);
  let %x_11 = 20 /* ty=int32 span=from_string:19:21 */;
  let %x_12 = layout_transform(%x_4, src_layout="NCHW", dst_layout="NHWC");
  let %x_13 = layout_transform(%x_12, src_layout="NHWC", dst_layout="CHWN");
  let %x_14 = nn.relu(%x_13);
  let %x_15 = 1f /* ty=float32 span=from_string:13:19 */;
  let %x_16 = add(%x_14, %x_15);
  let %x_17 = fast_exp(%x_16);
  let %x_18 = squeeze(%x_17);
  let %x_19 = 2 /* ty=int32 span=from_string:19:67 */;
  let %x_20 = (%x_2, %x_6, %x_10, %x_11, %x_18, %x_19) /* ty=(Tensor[(1, 5, 5, 4), float32], Tensor[(1, 5, 5, 102), float32], Tensor[(1, 5, 5, 4), float32], int32, Tensor[(5, 5, 4), float32], int32) span=from_string:3:3 */;
  %x_20
}
