#[version = "0.0.5"]
def @main(%x0: Tensor[(1, 5, 5, 4), float32] /* ty=Tensor[(1, 5, 5, 4), float32] span=from_string:4:13 */, %x1: Tensor[(1, 5, 5, 62), float32] /* ty=Tensor[(1, 5, 5, 62), float32] span=from_string:10:181 */, %x2: Tensor[(1, 5, 5, 36), float32] /* ty=Tensor[(1, 5, 5, 36), float32] span=from_string:17:116 */, %x3: Tensor[(5, 5, 4), float32] /* ty=Tensor[(5, 5, 4), float32] */, %x4: Tensor[(4, 5, 1, 1), float32] /* ty=Tensor[(4, 5, 1, 1), float32] */) -> (Tensor[(1, 5, 5, 4), float16], Tensor[(1, 5, 5, 102), float16], Tensor[(1, 5, 5, 4), float16], int32, Tensor[(5, 5, 4), float16], int32) {
  %0 = cast(%x0, dtype="float16") /* ty=Tensor[(1, 5, 5, 4), float16] span=from_string:6:110 */;
  let %x_1: Tensor[(1, 5, 5, 4), float16] /* ty=Tensor[(1, 5, 5, 4), float16] span=from_string:8:130 */ = add(%0, 1f16 /* ty=float16 */) /* ty=Tensor[(1, 5, 5, 4), float16] span=from_string:6:106 */;
  let %x_2: Tensor[(1, 5, 5, 4), float16] /* ty=Tensor[(1, 5, 5, 4), float16] span=from_string:39:328 */ = fast_exp(%x_1) /* ty=Tensor[(1, 5, 5, 4), float16] span=from_string:7:107 */;
  let %x_3: Tensor[(1, 5, 5, 4), float16] /* ty=Tensor[(1, 5, 5, 4), float16] span=from_string:25:110 */ = annotation.stop_fusion(%x_1) /* ty=Tensor[(1, 5, 5, 4), float16] span=from_string:8:107 */;
  let %x_4: Tensor[(1, 5, 5, 4), float16] /* ty=Tensor[(1, 5, 5, 4), float16] span=from_string:30:125 */ = fast_exp(%x_3) /* ty=Tensor[(1, 5, 5, 4), float16] span=from_string:9:107 */;
  let %x_5: (Tensor[(1, 5, 5, 4), float16], Tensor[(1, 5, 5, 62), float32]) /* ty=(Tensor[(1, 5, 5, 4), float16], Tensor[(1, 5, 5, 62), float32]) span=from_string:12:8 */ = (%x_4, %x1) /* ty=(Tensor[(1, 5, 5, 4), float16], Tensor[(1, 5, 5, 62), float32]) span=from_string:10:174 */;
  %1 = %x_5.1 /* ty=Tensor[(1, 5, 5, 62), float32] span=from_string:13:13 */;
  %2 = %x_5.0 /* ty=Tensor[(1, 5, 5, 4), float16] span=from_string:14:9 */;
  %3 = cast(%1, dtype="float16") /* ty=Tensor[(1, 5, 5, 62), float16] span=from_string:14:13 */;
  %4 = (%2, %3) /* ty=(Tensor[(1, 5, 5, 4), float16], Tensor[(1, 5, 5, 62), float16]) span=from_string:15:121 */;
  let %x_6: Tensor[(1, 5, 5, 66), float16] /* ty=Tensor[(1, 5, 5, 66), float16] span=from_string:16:132 */ = concatenate(%4, axis=3) /* ty=Tensor[(1, 5, 5, 66), float16] span=from_string:15:109 */;
  let %x_7: Tensor[(1, 5, 5, 66), float16] /* ty=Tensor[(1, 5, 5, 66), float16] span=from_string:23:179 */ = annotation.stop_fusion(%x_6) /* ty=Tensor[(1, 5, 5, 66), float16] span=from_string:16:109 */;
  let %x_8: (Tensor[(1, 5, 5, 36), float32],) /* ty=(Tensor[(1, 5, 5, 36), float32],) span=from_string:18:8 */ = (%x2,) /* ty=(Tensor[(1, 5, 5, 36), float32],) span=from_string:17:115 */;
  %5 = %x_8.0 /* ty=Tensor[(1, 5, 5, 36), float32] span=from_string:19:13 */;
  %6 = cast(%5, dtype="float16") /* ty=Tensor[(1, 5, 5, 36), float16] span=from_string:20:9 */;
  %7 = (%6,) /* ty=(Tensor[(1, 5, 5, 36), float16],) span=from_string:21:121 */;
  let %x_9: Tensor[(1, 5, 5, 36), float16] /* ty=Tensor[(1, 5, 5, 36), float16] span=from_string:22:133 */ = concatenate(%7, axis=3) /* ty=Tensor[(1, 5, 5, 36), float16] span=from_string:21:109 */;
  let %x_10: Tensor[(1, 5, 5, 36), float16] /* ty=Tensor[(1, 5, 5, 36), float16] span=from_string:23:185 */ = annotation.stop_fusion(%x_9) /* ty=Tensor[(1, 5, 5, 36), float16] span=from_string:22:110 */;
  let %x_11: (Tensor[(1, 5, 5, 66), float16], Tensor[(1, 5, 5, 36), float16]) /* ty=(Tensor[(1, 5, 5, 66), float16], Tensor[(1, 5, 5, 36), float16]) span=from_string:24:124 */ = (%x_7, %x_10) /* ty=(Tensor[(1, 5, 5, 66), float16], Tensor[(1, 5, 5, 36), float16]) span=from_string:23:178 */;
  let %x_12: Tensor[(1, 5, 5, 102), float16] /* ty=Tensor[(1, 5, 5, 102), float16] span=from_string:39:334 */ = concatenate(%x_11, axis=3) /* ty=Tensor[(1, 5, 5, 102), float16] span=from_string:24:112 */;
  let %x_13: Tensor[(5, 5, 4), float16] /* ty=Tensor[(5, 5, 4), float16] span=from_string:26:116 */ = reshape(%x_3, newshape=[5, 5, 4]) /* ty=Tensor[(5, 5, 4), float16] span=from_string:25:102 */;
  let %x_14: Tensor[(1, 5, 5, 4), float16] /* ty=Tensor[(1, 5, 5, 4), float16] span=from_string:27:110 */ = reshape(%x_13, newshape=[1, 5, 5, 4]) /* ty=Tensor[(1, 5, 5, 4), float16] span=from_string:26:108 */;
  let %x_15: Tensor[(5, 5, 4), float16] /* ty=Tensor[(5, 5, 4), float16] span=from_string:28:116 */ = reshape(%x_14, newshape=[5, 5, 4]) /* ty=Tensor[(5, 5, 4), float16] span=from_string:27:102 */;
  let %x_16: Tensor[(1, 5, 5, 4), float16] /* ty=Tensor[(1, 5, 5, 4), float16] span=from_string:39:341 */ = reshape(%x_15, newshape=[1, 5, 5, 4]) /* ty=Tensor[(1, 5, 5, 4), float16] span=from_string:28:108 */;
  let %x_18: Tensor[(1, 5, 4, 5), float16] /* ty=Tensor[(1, 5, 4, 5), float16] span=from_string:31:125 */ = layout_transform(%x_4, src_layout="NCHW", dst_layout="NHWC") /* ty=Tensor[(1, 5, 4, 5), float16] span=from_string:30:108 */;
  let %x_19: Tensor[(5, 5, 4, 1), float16] /* ty=Tensor[(5, 5, 4, 1), float16] span=from_string:32:116 */ = layout_transform(%x_18, src_layout="NHWC", dst_layout="CHWN") /* ty=Tensor[(5, 5, 4, 1), float16] span=from_string:31:108 */;
  let %x_20: Tensor[(5, 5, 4, 1), float16] /* ty=Tensor[(5, 5, 4, 1), float16] span=from_string:35:112 */ = nn.relu(%x_19) /* ty=Tensor[(5, 5, 4, 1), float16] span=from_string:32:108 */;
  let %x_22: Tensor[(5, 5, 4, 1), float16] /* ty=Tensor[(5, 5, 4, 1), float16] span=from_string:36:117 */ = add(%x_20, 1f16 /* ty=float16 */) /* ty=Tensor[(5, 5, 4, 1), float16] span=from_string:35:108 */;
  let %x_23: Tensor[(5, 5, 4, 1), float16] /* ty=Tensor[(5, 5, 4, 1), float16] span=from_string:37:110 */ = fast_exp(%x_22) /* ty=Tensor[(5, 5, 4, 1), float16] span=from_string:36:108 */;
  let %x_24: Tensor[(5, 5, 4), float16] /* ty=Tensor[(5, 5, 4), float16] span=from_string:39:355 */ = squeeze(%x_23) /* ty=Tensor[(5, 5, 4), float16] span=from_string:37:102 */;
  let %x_26: (Tensor[(1, 5, 5, 4), float16], Tensor[(1, 5, 5, 102), float16], Tensor[(1, 5, 5, 4), float16], int32, Tensor[(5, 5, 4), float16], int32) /* ty=(Tensor[(1, 5, 5, 4), float16], Tensor[(1, 5, 5, 102), float16], Tensor[(1, 5, 5, 4), float16], int32, Tensor[(5, 5, 4), float16], int32) span=from_string:40:3 */ = (%x_2, %x_12, %x_16, 20 /* ty=int32 span=from_string:29:64 */, %x_24, 2 /* ty=int32 span=from_string:38:63 */) /* ty=(Tensor[(1, 5, 5, 4), float16], Tensor[(1, 5, 5, 102), float16], Tensor[(1, 5, 5, 4), float16], int32, Tensor[(5, 5, 4), float16], int32) span=from_string:39:327 */;
  %x_26
}
