#[version = "0.0.5"]
def @main(%x0: Tensor[(1, 5, 5, 4), float32] /* ty=Tensor[(1, 5, 5, 4), float32] span=from_string:8:11 */, %x1: Tensor[(1, 5, 5, 62), float32] /* ty=Tensor[(1, 5, 5, 62), float32] span=from_string:37:17 */, %x2: Tensor[(1, 5, 5, 36), float32] /* ty=Tensor[(1, 5, 5, 36), float32] span=from_string:37:22 */, %x3: Tensor[(5, 5, 4), float32] /* ty=Tensor[(5, 5, 4), float32] */, %x4: Tensor[(4, 5, 1, 1), float32] /* ty=Tensor[(4, 5, 1, 1), float32] */) -> (Tensor[(1, 5, 5, 4), float32], Tensor[(1, 5, 5, 102), float32], Tensor[(1, 5, 5, 4), float16], int32, Tensor[(5, 5, 4), float32], int32) {
  let %x_0 = fn (%p01: Tensor[(1, 5, 5, 4), float32] /* ty=Tensor[(1, 5, 5, 4), float32] span=from_string:4:15 */, Primitive=1) -> Tensor[(1, 5, 5, 4), float16] {
    %0 = cast(%p01, dtype="float16") /* ty=Tensor[(1, 5, 5, 4), float16] span=from_string:6:9 */;
    %1 = cast(1f /* ty=float32 span=from_string:5:17 */, dtype="float16") /* ty=float16 span=from_string:6:13 */;
    add(%0, %1) /* ty=Tensor[(1, 5, 5, 4), float16] span=from_string:4:5 */
  } /* ty=fn (Tensor[(1, 5, 5, 4), float32]) -> Tensor[(1, 5, 5, 4), float16] span=from_string:8:8 */;
  let %x_1 = %x_0(%x0);
  let %x_2 = fn (%p0: Tensor[(1, 5, 5, 4), float16] /* ty=Tensor[(1, 5, 5, 4), float16] span=from_string:10:15 */, Primitive=1) -> Tensor[(1, 5, 5, 4), float32] {
    %2 = cast(%p0, dtype="float32") /* ty=Tensor[(1, 5, 5, 4), float32] span=from_string:11:9 */;
    exp(%2) /* ty=Tensor[(1, 5, 5, 4), float32] span=from_string:10:5 */
  } /* ty=fn (Tensor[(1, 5, 5, 4), float16]) -> Tensor[(1, 5, 5, 4), float32] span=from_string:36:9 */;
  let %x_3 = %x_2(%x_1);
  let %x_4 = fn (%p03: Tensor[(1, 5, 5, 4), float16] /* ty=Tensor[(1, 5, 5, 4), float16] span=from_string:14:15 */, Primitive=1) -> Tensor[(1, 5, 5, 4), float32] {
    %3 = cast(%p03, dtype="float32") /* ty=Tensor[(1, 5, 5, 4), float32] span=from_string:15:9 */;
    exp(%3) /* ty=Tensor[(1, 5, 5, 4), float32] span=from_string:14:5 */
  } /* ty=fn (Tensor[(1, 5, 5, 4), float16]) -> Tensor[(1, 5, 5, 4), float32] span=from_string:17:8 */;
  let %x_5 = %x_4(%x_1);
  let %x_6 = fn (%p02: Tensor[(1, 5, 5, 4), float32] /* ty=Tensor[(1, 5, 5, 4), float32] span=from_string:19:11 */, %p1: Tensor[(1, 5, 5, 62), float32] /* ty=Tensor[(1, 5, 5, 62), float32] span=from_string:19:17 */, %p2: Tensor[(1, 5, 5, 36), float32] /* ty=Tensor[(1, 5, 5, 36), float32] span=from_string:19:22 */, Primitive=1) -> Tensor[(1, 5, 5, 102), float32] {
    %4 = (%p02, %p1, %p2) /* ty=(Tensor[(1, 5, 5, 4), float32], Tensor[(1, 5, 5, 62), float32], Tensor[(1, 5, 5, 36), float32]) span=from_string:20:17 */;
    concatenate(%4, axis=3) /* ty=Tensor[(1, 5, 5, 102), float32] span=from_string:19:5 */
  } /* ty=fn (Tensor[(1, 5, 5, 4), float32], Tensor[(1, 5, 5, 62), float32], Tensor[(1, 5, 5, 36), float32]) -> Tensor[(1, 5, 5, 102), float32] span=from_string:37:9 */;
  let %x_7 = %x_6(%x_5, %x1, %x2);
  let %x_8 = fn (%p04: Tensor[(1, 5, 5, 4), float16] /* ty=Tensor[(1, 5, 5, 4), float16] span=from_string:23:19 */, Primitive=1, relay.reshape_only=1) -> Tensor[(1, 5, 5, 4), float16] {
    %5 = reshape(%p04, newshape=[5, 5, 4]) /* ty=Tensor[(5, 5, 4), float16] span=from_string:24:19 */;
    %6 = reshape(%5, newshape=[1, 5, 5, 4]) /* ty=Tensor[(1, 5, 5, 4), float16] span=from_string:25:19 */;
    %7 = reshape(%6, newshape=[5, 5, 4]) /* ty=Tensor[(5, 5, 4), float16] span=from_string:26:13 */;
    reshape(%7, newshape=[1, 5, 5, 4]) /* ty=Tensor[(1, 5, 5, 4), float16] span=from_string:23:5 */
  } /* ty=fn (Tensor[(1, 5, 5, 4), float16]) -> Tensor[(1, 5, 5, 4), float16] span=from_string:38:9 */;
  let %x_9 = %x_8(%x_1);
  let %x_10 = 20 /* ty=int32 span=from_string:40:21 */;
  let %x_11 = fn (%p05: Tensor[(1, 5, 5, 4), float32] /* ty=Tensor[(1, 5, 5, 4), float32] span=from_string:29:28 */, Primitive=1) -> Tensor[(5, 5, 4), float32] {
    %8 = layout_transform(%p05, src_layout="NCHW", dst_layout="NHWC") /* ty=Tensor[(1, 5, 4, 5), float32] span=from_string:30:28 */;
    %9 = layout_transform(%8, src_layout="NHWC", dst_layout="CHWN") /* ty=Tensor[(5, 5, 4, 1), float32] span=from_string:31:19 */;
    %10 = nn.relu(%9) /* ty=Tensor[(5, 5, 4, 1), float32] span=from_string:32:15 */;
    %11 = add(%10, 1f /* ty=float32 span=from_string:32:22 */) /* ty=Tensor[(5, 5, 4, 1), float32] span=from_string:33:15 */;
    %12 = exp(%11) /* ty=Tensor[(5, 5, 4, 1), float32] span=from_string:34:13 */;
    squeeze(%12) /* ty=Tensor[(5, 5, 4), float32] span=from_string:29:5 */
  } /* ty=fn (Tensor[(1, 5, 5, 4), float32]) -> Tensor[(5, 5, 4), float32] span=from_string:39:9 */;
  let %x_12 = %x_11(%x_5);
  let %x_13 = 2 /* ty=int32 span=from_string:40:67 */;
  let %x_14 = (%x_3, %x_7, %x_9, %x_10, %x_12, %x_13) /* ty=(Tensor[(1, 5, 5, 4), float32], Tensor[(1, 5, 5, 102), float32], Tensor[(1, 5, 5, 4), float16], int32, Tensor[(5, 5, 4), float32], int32) span=from_string:3:3 */;
  %x_14
}
