#[version = "0.0.5"]
def @main(%x0: Tensor[(1, 5, 5, 4), float32] /* ty=Tensor[(1, 5, 5, 4), float32] span=from_string:6:109 */, %x1: Tensor[(1, 5, 5, 62), float32] /* ty=Tensor[(1, 5, 5, 62), float32] span=from_string:29:246 */, %x2: Tensor[(1, 5, 5, 36), float32] /* ty=Tensor[(1, 5, 5, 36), float32] span=from_string:29:251 */, %x3: Tensor[(5, 5, 4), float32] /* ty=Tensor[(5, 5, 4), float32] */, %x4: Tensor[(4, 5, 1, 1), float32] /* ty=Tensor[(4, 5, 1, 1), float32] */) -> (Tensor[(1, 5, 5, 4), float32], Tensor[(1, 5, 5, 102), float32], Tensor[(1, 5, 5, 4), float16], int32, Tensor[(5, 5, 4), float32], int32) {
  %0 = fn (%p0: Tensor[(1, 5, 5, 4), float32] /* ty=Tensor[(1, 5, 5, 4), float32] span=from_string:4:10 */, Primitive=1) -> Tensor[(1, 5, 5, 4), float16] {
    cast(%p0, dtype="float16") /* ty=Tensor[(1, 5, 5, 4), float16] span=from_string:4:5 */
  } /* ty=fn (Tensor[(1, 5, 5, 4), float32]) -> Tensor[(1, 5, 5, 4), float16] span=from_string:6:106 */;
  let %x_0: Tensor[(1, 5, 5, 4), float16] /* ty=Tensor[(1, 5, 5, 4), float16] span=from_string:11:109 */ = %0(%x0) /* ty=Tensor[(1, 5, 5, 4), float16] span=from_string:6:106 */;
  %1 = fn (%p01: Tensor[(1, 5, 5, 4), float16] /* ty=Tensor[(1, 5, 5, 4), float16] span=from_string:9:9 */, %p1: float16 /* ty=float16 span=from_string:9:15 */, Primitive=1) -> Tensor[(1, 5, 5, 4), float16] {
    add(%p01, %p1) /* ty=Tensor[(1, 5, 5, 4), float16] span=from_string:9:5 */
  } /* ty=fn (Tensor[(1, 5, 5, 4), float16], float16) -> Tensor[(1, 5, 5, 4), float16] span=from_string:11:106 */;
  let %x_2: Tensor[(1, 5, 5, 4), float16] /* ty=Tensor[(1, 5, 5, 4), float16] span=from_string:20:107 */ = %1(%x_0, 1f16 /* ty=float16 span=from_string:7:66 */) /* ty=Tensor[(1, 5, 5, 4), float16] span=from_string:11:106 */;
  %2 = fn (%p02: Tensor[(1, 5, 5, 4), float16] /* ty=Tensor[(1, 5, 5, 4), float16] span=from_string:13:10 */, Primitive=1) -> Tensor[(1, 5, 5, 4), float32] {
    cast(%p02, dtype="float32") /* ty=Tensor[(1, 5, 5, 4), float32] span=from_string:13:5 */
  } /* ty=fn (Tensor[(1, 5, 5, 4), float16]) -> Tensor[(1, 5, 5, 4), float32] span=from_string:15:106 */;
  let %x_3: Tensor[(1, 5, 5, 4), float32] /* ty=Tensor[(1, 5, 5, 4), float32] span=from_string:19:110 */ = %2(%x_2) /* ty=Tensor[(1, 5, 5, 4), float32] span=from_string:15:106 */;
  %3 = fn (%p03: Tensor[(1, 5, 5, 4), float32] /* ty=Tensor[(1, 5, 5, 4), float32] span=from_string:17:9 */, Primitive=1) -> Tensor[(1, 5, 5, 4), float32] {
    exp(%p03) /* ty=Tensor[(1, 5, 5, 4), float32] span=from_string:17:5 */
  } /* ty=fn (Tensor[(1, 5, 5, 4), float32]) -> Tensor[(1, 5, 5, 4), float32] span=from_string:19:107 */;
  let %x_4: Tensor[(1, 5, 5, 4), float32] /* ty=Tensor[(1, 5, 5, 4), float32] span=from_string:77:328 */ = %3(%x_3) /* ty=Tensor[(1, 5, 5, 4), float32] span=from_string:19:107 */;
  let %x_5: Tensor[(1, 5, 5, 4), float16] /* ty=Tensor[(1, 5, 5, 4), float16] span=from_string:37:105 */ = %x_2;
  %4 = fn (%p04: Tensor[(1, 5, 5, 4), float16] /* ty=Tensor[(1, 5, 5, 4), float16] span=from_string:22:10 */, Primitive=1) -> Tensor[(1, 5, 5, 4), float32] {
    cast(%p04, dtype="float32") /* ty=Tensor[(1, 5, 5, 4), float32] span=from_string:22:5 */
  } /* ty=fn (Tensor[(1, 5, 5, 4), float16]) -> Tensor[(1, 5, 5, 4), float32] span=from_string:24:107 */;
  let %x_6: Tensor[(1, 5, 5, 4), float32] /* ty=Tensor[(1, 5, 5, 4), float32] span=from_string:28:110 */ = %4(%x_5) /* ty=Tensor[(1, 5, 5, 4), float32] span=from_string:24:107 */;
  %5 = fn (%p05: Tensor[(1, 5, 5, 4), float32] /* ty=Tensor[(1, 5, 5, 4), float32] span=from_string:26:9 */, Primitive=1) -> Tensor[(1, 5, 5, 4), float32] {
    exp(%p05) /* ty=Tensor[(1, 5, 5, 4), float32] span=from_string:26:5 */
  } /* ty=fn (Tensor[(1, 5, 5, 4), float32]) -> Tensor[(1, 5, 5, 4), float32] span=from_string:28:107 */;
  let %x_7: Tensor[(1, 5, 5, 4), float32] /* ty=Tensor[(1, 5, 5, 4), float32] span=from_string:54:112 */ = %5(%x_6) /* ty=Tensor[(1, 5, 5, 4), float32] span=from_string:28:107 */;
  let %x_8: (Tensor[(1, 5, 5, 4), float32], Tensor[(1, 5, 5, 62), float32], Tensor[(1, 5, 5, 36), float32]) /* ty=(Tensor[(1, 5, 5, 4), float32], Tensor[(1, 5, 5, 62), float32], Tensor[(1, 5, 5, 36), float32]) span=from_string:33:114 */ = (%x_7, %x1, %x2) /* ty=(Tensor[(1, 5, 5, 4), float32], Tensor[(1, 5, 5, 62), float32], Tensor[(1, 5, 5, 36), float32]) span=from_string:29:239 */;
  %6 = fn (%p06: (Tensor[(1, 5, 5, 4), float32], Tensor[(1, 5, 5, 62), float32], Tensor[(1, 5, 5, 36), float32]) /* ty=(Tensor[(1, 5, 5, 4), float32], Tensor[(1, 5, 5, 62), float32], Tensor[(1, 5, 5, 36), float32]) span=from_string:31:17 */, Primitive=1) -> Tensor[(1, 5, 5, 102), float32] {
    concatenate(%p06, axis=3) /* ty=Tensor[(1, 5, 5, 102), float32] span=from_string:31:5 */
  } /* ty=fn ((Tensor[(1, 5, 5, 4), float32], Tensor[(1, 5, 5, 62), float32], Tensor[(1, 5, 5, 36), float32])) -> Tensor[(1, 5, 5, 102), float32] span=from_string:33:111 */;
  let %x_9: Tensor[(1, 5, 5, 102), float32] /* ty=Tensor[(1, 5, 5, 102), float32] span=from_string:77:334 */ = %6(%x_8) /* ty=Tensor[(1, 5, 5, 102), float32] span=from_string:33:111 */;
  %7 = fn (%p07: Tensor[(1, 5, 5, 4), float16] /* ty=Tensor[(1, 5, 5, 4), float16] span=from_string:35:13 */, Primitive=1, relay.reshape_only=1) -> Tensor[(5, 5, 4), float16] {
    reshape(%p07, newshape=[5, 5, 4]) /* ty=Tensor[(5, 5, 4), float16] span=from_string:35:5 */
  } /* ty=fn (Tensor[(1, 5, 5, 4), float16]) -> Tensor[(5, 5, 4), float16] span=from_string:37:102 */;
  let %x_10: Tensor[(5, 5, 4), float16] /* ty=Tensor[(5, 5, 4), float16] span=from_string:41:111 */ = %7(%x_5) /* ty=Tensor[(5, 5, 4), float16] span=from_string:37:102 */;
  %8 = fn (%p08: Tensor[(5, 5, 4), float16] /* ty=Tensor[(5, 5, 4), float16] span=from_string:39:13 */, Primitive=1, relay.reshape_only=1) -> Tensor[(1, 5, 5, 4), float16] {
    reshape(%p08, newshape=[1, 5, 5, 4]) /* ty=Tensor[(1, 5, 5, 4), float16] span=from_string:39:5 */
  } /* ty=fn (Tensor[(5, 5, 4), float16]) -> Tensor[(1, 5, 5, 4), float16] span=from_string:41:108 */;
  let %x_11: Tensor[(1, 5, 5, 4), float16] /* ty=Tensor[(1, 5, 5, 4), float16] span=from_string:45:105 */ = %8(%x_10) /* ty=Tensor[(1, 5, 5, 4), float16] span=from_string:41:108 */;
  %9 = fn (%p09: Tensor[(1, 5, 5, 4), float16] /* ty=Tensor[(1, 5, 5, 4), float16] span=from_string:43:13 */, Primitive=1, relay.reshape_only=1) -> Tensor[(5, 5, 4), float16] {
    reshape(%p09, newshape=[5, 5, 4]) /* ty=Tensor[(5, 5, 4), float16] span=from_string:43:5 */
  } /* ty=fn (Tensor[(1, 5, 5, 4), float16]) -> Tensor[(5, 5, 4), float16] span=from_string:45:102 */;
  let %x_12: Tensor[(5, 5, 4), float16] /* ty=Tensor[(5, 5, 4), float16] span=from_string:49:112 */ = %9(%x_11) /* ty=Tensor[(5, 5, 4), float16] span=from_string:45:102 */;
  %10 = fn (%p010: Tensor[(5, 5, 4), float16] /* ty=Tensor[(5, 5, 4), float16] span=from_string:47:13 */, Primitive=1, relay.reshape_only=1) -> Tensor[(1, 5, 5, 4), float16] {
    reshape(%p010, newshape=[1, 5, 5, 4]) /* ty=Tensor[(1, 5, 5, 4), float16] span=from_string:47:5 */
  } /* ty=fn (Tensor[(5, 5, 4), float16]) -> Tensor[(1, 5, 5, 4), float16] span=from_string:49:108 */;
  let %x_13: Tensor[(1, 5, 5, 4), float16] /* ty=Tensor[(1, 5, 5, 4), float16] span=from_string:77:340 */ = %10(%x_12) /* ty=Tensor[(1, 5, 5, 4), float16] span=from_string:49:108 */;
  %11 = fn (%p011: Tensor[(1, 5, 5, 4), float32] /* ty=Tensor[(1, 5, 5, 4), float32] span=from_string:52:22 */, Primitive=1) -> Tensor[(1, 5, 4, 5), float32] {
    layout_transform(%p011, src_layout="NCHW", dst_layout="NHWC") /* ty=Tensor[(1, 5, 4, 5), float32] span=from_string:52:5 */
  } /* ty=fn (Tensor[(1, 5, 5, 4), float32]) -> Tensor[(1, 5, 4, 5), float32] span=from_string:54:108 */;
  let %x_15: Tensor[(1, 5, 4, 5), float32] /* ty=Tensor[(1, 5, 4, 5), float32] span=from_string:58:112 */ = %11(%x_7) /* ty=Tensor[(1, 5, 4, 5), float32] span=from_string:54:108 */;
  %12 = fn (%p012: Tensor[(1, 5, 4, 5), float32] /* ty=Tensor[(1, 5, 4, 5), float32] span=from_string:56:22 */, Primitive=1) -> Tensor[(5, 5, 4, 1), float32] {
    layout_transform(%p012, src_layout="NHWC", dst_layout="CHWN") /* ty=Tensor[(5, 5, 4, 1), float32] span=from_string:56:5 */
  } /* ty=fn (Tensor[(1, 5, 4, 5), float32]) -> Tensor[(5, 5, 4, 1), float32] span=from_string:58:108 */;
  let %x_16: Tensor[(5, 5, 4, 1), float32] /* ty=Tensor[(5, 5, 4, 1), float32] span=from_string:62:112 */ = %12(%x_15) /* ty=Tensor[(5, 5, 4, 1), float32] span=from_string:58:108 */;
  %13 = fn (%p013: Tensor[(5, 5, 4, 1), float32] /* ty=Tensor[(5, 5, 4, 1), float32] span=from_string:60:13 */, Primitive=1) -> Tensor[(5, 5, 4, 1), float32] {
    nn.relu(%p013) /* ty=Tensor[(5, 5, 4, 1), float32] span=from_string:60:5 */
  } /* ty=fn (Tensor[(5, 5, 4, 1), float32]) -> Tensor[(5, 5, 4, 1), float32] span=from_string:62:108 */;
  let %x_17: Tensor[(5, 5, 4, 1), float32] /* ty=Tensor[(5, 5, 4, 1), float32] span=from_string:67:112 */ = %13(%x_16) /* ty=Tensor[(5, 5, 4, 1), float32] span=from_string:62:108 */;
  %14 = fn (%p014: Tensor[(5, 5, 4, 1), float32] /* ty=Tensor[(5, 5, 4, 1), float32] span=from_string:65:9 */, %p11: float32 /* ty=float32 span=from_string:65:16 */, Primitive=1) -> Tensor[(5, 5, 4, 1), float32] {
    add(%p014, %p11) /* ty=Tensor[(5, 5, 4, 1), float32] span=from_string:65:5 */
  } /* ty=fn (Tensor[(5, 5, 4, 1), float32], float32) -> Tensor[(5, 5, 4, 1), float32] span=from_string:67:108 */;
  let %x_19: Tensor[(5, 5, 4, 1), float32] /* ty=Tensor[(5, 5, 4, 1), float32] span=from_string:71:112 */ = %14(%x_17, 1f /* ty=float32 span=from_string:63:66 */) /* ty=Tensor[(5, 5, 4, 1), float32] span=from_string:67:108 */;
  %15 = fn (%p015: Tensor[(5, 5, 4, 1), float32] /* ty=Tensor[(5, 5, 4, 1), float32] span=from_string:69:9 */, Primitive=1) -> Tensor[(5, 5, 4, 1), float32] {
    exp(%p015) /* ty=Tensor[(5, 5, 4, 1), float32] span=from_string:69:5 */
  } /* ty=fn (Tensor[(5, 5, 4, 1), float32]) -> Tensor[(5, 5, 4, 1), float32] span=from_string:71:108 */;
  let %x_20: Tensor[(5, 5, 4, 1), float32] /* ty=Tensor[(5, 5, 4, 1), float32] span=from_string:75:106 */ = %15(%x_19) /* ty=Tensor[(5, 5, 4, 1), float32] span=from_string:71:108 */;
  %16 = fn (%p016: Tensor[(5, 5, 4, 1), float32] /* ty=Tensor[(5, 5, 4, 1), float32] span=from_string:73:13 */, Primitive=1, relay.reshape_only=1) -> Tensor[(5, 5, 4), float32] {
    squeeze(%p016) /* ty=Tensor[(5, 5, 4), float32] span=from_string:73:5 */
  } /* ty=fn (Tensor[(5, 5, 4, 1), float32]) -> Tensor[(5, 5, 4), float32] span=from_string:75:102 */;
  let %x_21: Tensor[(5, 5, 4), float32] /* ty=Tensor[(5, 5, 4), float32] span=from_string:77:354 */ = %16(%x_20) /* ty=Tensor[(5, 5, 4), float32] span=from_string:75:102 */;
  let %x_23: (Tensor[(1, 5, 5, 4), float32], Tensor[(1, 5, 5, 102), float32], Tensor[(1, 5, 5, 4), float16], int32, Tensor[(5, 5, 4), float32], int32) /* ty=(Tensor[(1, 5, 5, 4), float32], Tensor[(1, 5, 5, 102), float32], Tensor[(1, 5, 5, 4), float16], int32, Tensor[(5, 5, 4), float32], int32) span=from_string:78:3 */ = (%x_4, %x_9, %x_13, 20 /* ty=int32 span=from_string:50:64 */, %x_21, 2 /* ty=int32 span=from_string:76:63 */) /* ty=(Tensor[(1, 5, 5, 4), float32], Tensor[(1, 5, 5, 102), float32], Tensor[(1, 5, 5, 4), float16], int32, Tensor[(5, 5, 4), float32], int32) span=from_string:77:327 */;
  %x_23
}
