#[version = "0.0.5"]
def @main(%x0: Tensor[(1, 5, 5, 4), float32] /* ty=Tensor[(1, 5, 5, 4), float32] span=from_string:3:110 */, %x1: Tensor[(1, 5, 5, 62), float32] /* ty=Tensor[(1, 5, 5, 62), float32] span=from_string:7:181 */, %x2: Tensor[(1, 5, 5, 36), float32] /* ty=Tensor[(1, 5, 5, 36), float32] span=from_string:10:116 */, %x3: Tensor[(5, 5, 4), float32] /* ty=Tensor[(5, 5, 4), float32] */, %x4: Tensor[(4, 5, 1, 1), float32] /* ty=Tensor[(4, 5, 1, 1), float32] */) -> (Tensor[(1, 5, 5, 4), float16], Tensor[(1, 5, 5, 102), float16], Tensor[(1, 5, 5, 4), float16], int32, Tensor[(5, 5, 4), float16], int32) {
  %0 = cast(%x0, dtype="float16") /* ty=Tensor[(1, 5, 5, 4), float16] */;
  %1 = cast(1f /* ty=float32 span=from_string:3:117 */, dtype="float16") /* ty=float16 */;
  let %x_1: Tensor[(1, 5, 5, 4), float16] /* ty=Tensor[(1, 5, 5, 4), float16] span=from_string:5:130 */ = add(%0, %1) /* ty=Tensor[(1, 5, 5, 4), float16] span=from_string:3:106 */;
  let %x_2: Tensor[(1, 5, 5, 4), float16] /* ty=Tensor[(1, 5, 5, 4), float16] span=from_string:25:328 */ = fast_exp(%x_1) /* ty=Tensor[(1, 5, 5, 4), float16] span=from_string:4:107 */;
  let %x_3: Tensor[(1, 5, 5, 4), float16] /* ty=Tensor[(1, 5, 5, 4), float16] span=from_string:15:110 */ = annotation.stop_fusion(%x_1) /* ty=Tensor[(1, 5, 5, 4), float16] span=from_string:5:107 */;
  let %x_4: Tensor[(1, 5, 5, 4), float16] /* ty=Tensor[(1, 5, 5, 4), float16] span=from_string:19:125 */ = fast_exp(%x_3) /* ty=Tensor[(1, 5, 5, 4), float16] span=from_string:6:107 */;
  let %x_5: (Tensor[(1, 5, 5, 4), float16], Tensor[(1, 5, 5, 62), float32]) /* ty=(Tensor[(1, 5, 5, 4), float16], Tensor[(1, 5, 5, 62), float32]) span=from_string:8:121 */ = (%x_4, %x1) /* ty=(Tensor[(1, 5, 5, 4), float16], Tensor[(1, 5, 5, 62), float32]) span=from_string:7:174 */;
  %2 = %x_5.1 /* ty=Tensor[(1, 5, 5, 62), float32] */;
  %3 = %x_5.0 /* ty=Tensor[(1, 5, 5, 4), float16] */;
  %4 = cast(%2, dtype="float16") /* ty=Tensor[(1, 5, 5, 62), float16] */;
  %5 = (%3, %4) /* ty=(Tensor[(1, 5, 5, 4), float16], Tensor[(1, 5, 5, 62), float16]) */;
  let %x_6: Tensor[(1, 5, 5, 66), float16] /* ty=Tensor[(1, 5, 5, 66), float16] span=from_string:9:132 */ = concatenate(%5, axis=3) /* ty=Tensor[(1, 5, 5, 66), float16] span=from_string:8:109 */;
  let %x_7: Tensor[(1, 5, 5, 66), float16] /* ty=Tensor[(1, 5, 5, 66), float16] span=from_string:13:179 */ = annotation.stop_fusion(%x_6) /* ty=Tensor[(1, 5, 5, 66), float16] span=from_string:9:109 */;
  let %x_8: (Tensor[(1, 5, 5, 36), float32],) /* ty=(Tensor[(1, 5, 5, 36), float32],) span=from_string:11:121 */ = (%x2,) /* ty=(Tensor[(1, 5, 5, 36), float32],) span=from_string:10:115 */;
  %6 = %x_8.0 /* ty=Tensor[(1, 5, 5, 36), float32] */;
  %7 = cast(%6, dtype="float16") /* ty=Tensor[(1, 5, 5, 36), float16] */;
  %8 = (%7,) /* ty=(Tensor[(1, 5, 5, 36), float16],) */;
  let %x_9: Tensor[(1, 5, 5, 36), float16] /* ty=Tensor[(1, 5, 5, 36), float16] span=from_string:12:133 */ = concatenate(%8, axis=3) /* ty=Tensor[(1, 5, 5, 36), float16] span=from_string:11:109 */;
  let %x_10: Tensor[(1, 5, 5, 36), float16] /* ty=Tensor[(1, 5, 5, 36), float16] span=from_string:13:185 */ = annotation.stop_fusion(%x_9) /* ty=Tensor[(1, 5, 5, 36), float16] span=from_string:12:110 */;
  let %x_11: (Tensor[(1, 5, 5, 66), float16], Tensor[(1, 5, 5, 36), float16]) /* ty=(Tensor[(1, 5, 5, 66), float16], Tensor[(1, 5, 5, 36), float16]) span=from_string:14:124 */ = (%x_7, %x_10) /* ty=(Tensor[(1, 5, 5, 66), float16], Tensor[(1, 5, 5, 36), float16]) span=from_string:13:178 */;
  let %x_12: Tensor[(1, 5, 5, 102), float16] /* ty=Tensor[(1, 5, 5, 102), float16] span=from_string:25:334 */ = concatenate(%x_11, axis=3) /* ty=Tensor[(1, 5, 5, 102), float16] span=from_string:14:112 */;
  let %x_13: Tensor[(5, 5, 4), float16] /* ty=Tensor[(5, 5, 4), float16] span=from_string:16:116 */ = reshape(%x_3, newshape=[5, 5, 4]) /* ty=Tensor[(5, 5, 4), float16] span=from_string:15:102 */;
  let %x_14: Tensor[(1, 5, 5, 4), float16] /* ty=Tensor[(1, 5, 5, 4), float16] span=from_string:17:110 */ = reshape(%x_13, newshape=[1, 5, 5, 4]) /* ty=Tensor[(1, 5, 5, 4), float16] span=from_string:16:108 */;
  let %x_15: Tensor[(5, 5, 4), float16] /* ty=Tensor[(5, 5, 4), float16] span=from_string:18:116 */ = reshape(%x_14, newshape=[5, 5, 4]) /* ty=Tensor[(5, 5, 4), float16] span=from_string:17:102 */;
  let %x_16: Tensor[(1, 5, 5, 4), float16] /* ty=Tensor[(1, 5, 5, 4), float16] span=from_string:25:341 */ = reshape(%x_15, newshape=[1, 5, 5, 4]) /* ty=Tensor[(1, 5, 5, 4), float16] span=from_string:18:108 */;
  let %x_18: Tensor[(1, 5, 4, 5), float16] /* ty=Tensor[(1, 5, 4, 5), float16] span=from_string:20:125 */ = layout_transform(%x_4, src_layout="NCHW", dst_layout="NHWC") /* ty=Tensor[(1, 5, 4, 5), float16] span=from_string:19:108 */;
  let %x_19: Tensor[(5, 5, 4, 1), float16] /* ty=Tensor[(5, 5, 4, 1), float16] span=from_string:21:116 */ = layout_transform(%x_18, src_layout="NHWC", dst_layout="CHWN") /* ty=Tensor[(5, 5, 4, 1), float16] span=from_string:20:108 */;
  let %x_20: Tensor[(5, 5, 4, 1), float16] /* ty=Tensor[(5, 5, 4, 1), float16] span=from_string:22:112 */ = nn.relu(%x_19) /* ty=Tensor[(5, 5, 4, 1), float16] span=from_string:21:108 */;
  %9 = cast(1f /* ty=float32 span=from_string:22:121 */, dtype="float16") /* ty=float16 */;
  let %x_22: Tensor[(5, 5, 4, 1), float16] /* ty=Tensor[(5, 5, 4, 1), float16] span=from_string:23:117 */ = add(%x_20, %9) /* ty=Tensor[(5, 5, 4, 1), float16] span=from_string:22:108 */;
  let %x_23: Tensor[(5, 5, 4, 1), float16] /* ty=Tensor[(5, 5, 4, 1), float16] span=from_string:24:110 */ = fast_exp(%x_22) /* ty=Tensor[(5, 5, 4, 1), float16] span=from_string:23:108 */;
  let %x_24: Tensor[(5, 5, 4), float16] /* ty=Tensor[(5, 5, 4), float16] span=from_string:25:390 */ = squeeze(%x_23) /* ty=Tensor[(5, 5, 4), float16] span=from_string:24:102 */;
  let %x_26: (Tensor[(1, 5, 5, 4), float16], Tensor[(1, 5, 5, 102), float16], Tensor[(1, 5, 5, 4), float16], int32, Tensor[(5, 5, 4), float16], int32) /* ty=(Tensor[(1, 5, 5, 4), float16], Tensor[(1, 5, 5, 102), float16], Tensor[(1, 5, 5, 4), float16], int32, Tensor[(5, 5, 4), float16], int32) span=from_string:26:3 */ = (%x_2, %x_12, %x_16, 20 /* ty=int32 span=from_string:25:350 */, %x_24, 2 /* ty=int32 span=from_string:25:398 */) /* ty=(Tensor[(1, 5, 5, 4), float16], Tensor[(1, 5, 5, 102), float16], Tensor[(1, 5, 5, 4), float16], int32, Tensor[(5, 5, 4), float16], int32) span=from_string:25:327 */;
  %x_26
}
