#[version = "0.0.5"]
def @main(%x0: Tensor[(1, 64, 56, 56), float32] /* ty=Tensor[(1, 64, 56, 56), float32] span=from_string:5:129 */, %x1: Tensor[(54, 64, 1, 1), float32] /* ty=Tensor[(54, 64, 1, 1), float32] span=from_string:10:115 */, %x2: Tensor[(28, 60, 95, 44), int32] /* ty=Tensor[(28, 60, 95, 44), int32] */, %x3: Tensor[(3456, 1, 1), float32] /* ty=Tensor[(3456, 1, 1), float32] */, %x4: Tensor[(55, 64, 1, 1), float32] /* ty=Tensor[(55, 64, 1, 1), float32] */) -> (Tensor[(1, 64, 56, 56), float32], Tensor[(1, 64, 1, 1), float32], Tensor[(55, 64, 1, 1), int32], Tensor[(54, 64, 1, 1), float32], Tensor[(1), float32], int32) {
  let %x_0: Tensor[(1), float32] /* ty=Tensor[(1), float32] span=from_string:12:100 */ = ones(shape=[1], dtype="float32") /* ty=Tensor[(1), float32] span=from_string:3:89 */;
  let %x_1: Tensor[(1, 64, 56, 56), float32] /* ty=Tensor[(1, 64, 56, 56), float32] span=from_string:14:372 */ = multiply(%x_0, %x0) /* ty=Tensor[(1, 64, 56, 56), float32] span=from_string:4:114 */;
  let %x_2: Tensor[(1, 64, 1, 1), float32] /* ty=Tensor[(1, 64, 1, 1), float32] span=from_string:7:179 */ = nn.global_max_pool2d(%x0) /* ty=Tensor[(1, 64, 1, 1), float32] span=from_string:5:108 */;
  let %x_3: Tensor[(1, 64, 1, 1), float32] /* ty=Tensor[(1, 64, 1, 1), float32] span=from_string:14:378 */ = multiply(%x_2, %x_2) /* ty=Tensor[(1, 64, 1, 1), float32] span=from_string:6:110 */;
  let %x_4: (Tensor[(1, 64, 1, 1), float32], Tensor[(54, 64, 1, 1), float32]) /* ty=(Tensor[(1, 64, 1, 1), float32], Tensor[(54, 64, 1, 1), float32]) span=from_string:8:122 */ = (%x_2, %x1) /* ty=(Tensor[(1, 64, 1, 1), float32], Tensor[(54, 64, 1, 1), float32]) span=from_string:7:178 */;
  let %x_5: Tensor[(55, 64, 1, 1), float32] /* ty=Tensor[(55, 64, 1, 1), float32] span=from_string:9:114 */ = concatenate(%x_4) /* ty=Tensor[(55, 64, 1, 1), float32] span=from_string:8:110 */;
  let %x_6: Tensor[(55, 64, 1, 1), int32] /* ty=Tensor[(55, 64, 1, 1), int32] span=from_string:14:384 */ = cast(%x_5, dtype="int32") /* ty=Tensor[(55, 64, 1, 1), int32] span=from_string:9:109 */;
  let %x_7: Tensor[(3456, 1, 1), float32] /* ty=Tensor[(3456, 1, 1), float32] span=from_string:11:119 */ = reshape(%x1, newshape=[3456, 1, 1]) /* ty=Tensor[(3456, 1, 1), float32] span=from_string:10:107 */;
  let %x_8: Tensor[(54, 64, 1, 1), float32] /* ty=Tensor[(54, 64, 1, 1), float32] span=from_string:14:390 */ = reshape(%x_7, newshape=[54, 64, 1, 1]) /* ty=Tensor[(54, 64, 1, 1), float32] span=from_string:11:111 */;
  let %x_9: Tensor[(1), float32] /* ty=Tensor[(1), float32] span=from_string:14:396 */ = nn.softmax(%x_0) /* ty=Tensor[(1), float32] span=from_string:12:89 */;
  let %x_11: (Tensor[(1, 64, 56, 56), float32], Tensor[(1, 64, 1, 1), float32], Tensor[(55, 64, 1, 1), int32], Tensor[(54, 64, 1, 1), float32], Tensor[(1), float32], int32) /* ty=(Tensor[(1, 64, 56, 56), float32], Tensor[(1, 64, 1, 1), float32], Tensor[(55, 64, 1, 1), int32], Tensor[(54, 64, 1, 1), float32], Tensor[(1), float32], int32) span=from_string:15:3 */ = (%x_1, %x_3, %x_6, %x_8, %x_9, 3520 /* ty=int32 span=from_string:13:66 */) /* ty=(Tensor[(1, 64, 56, 56), float32], Tensor[(1, 64, 1, 1), float32], Tensor[(55, 64, 1, 1), int32], Tensor[(54, 64, 1, 1), float32], Tensor[(1), float32], int32) span=from_string:14:371 */;
  %x_11
}
