#[version = "0.0.5"]
def @main(%x0: Tensor[(1, 64, 56, 56), float32] /* ty=Tensor[(1, 64, 56, 56), float32] span=from_string:5:35 */, %x1: Tensor[(54, 64, 1, 1), float32] /* ty=Tensor[(54, 64, 1, 1), float32] span=from_string:13:23 */, %x2: Tensor[(28, 60, 95, 44), int32] /* ty=Tensor[(28, 60, 95, 44), int32] span=from_string:12:30 */, %x3: Tensor[(3456, 1, 1), float32] /* ty=Tensor[(3456, 1, 1), float32] */, %x4: Tensor[(55, 64, 1, 1), float32] /* ty=Tensor[(55, 64, 1, 1), float32] */) -> (Tensor[(1, 64, 56, 56), float32], Tensor[(1, 64, 1, 1), float32], Tensor[(55, 64, 1, 1), int32], Tensor[(54, 64, 1, 1), float32], Tensor[(1), float32], int32) {
  let %x_0: Tensor[(1), float32] /* ty=Tensor[(1), float32] span=from_string:15:26 */ = ones(shape=[1], dtype="float32") /* ty=Tensor[(1), float32] span=from_string:3:14 */;
  let %x_1: Tensor[(1, 64, 56, 56), float32] /* ty=Tensor[(1, 64, 56, 56), float32] span=from_string:17:16 */ = multiply(%x_0, %x0) /* ty=Tensor[(1, 64, 56, 56), float32] span=from_string:4:15 */;
  let %x_2: Tensor[(1, 64, 1, 1), float32] /* ty=Tensor[(1, 64, 1, 1), float32] span=from_string:7:15 */ = nn.global_max_pool2d(%x0) /* ty=Tensor[(1, 64, 1, 1), float32] span=from_string:5:14 */;
  let %x_3: Tensor[(1, 64, 1, 1), float32] /* ty=Tensor[(1, 64, 1, 1), float32] span=from_string:17:22 */ = multiply(%x_2, %x_2) /* ty=Tensor[(1, 64, 1, 1), float32] span=from_string:6:15 */;
  let %x_4: (Tensor[(1, 64, 1, 1), float32], Tensor[(54, 64, 1, 1), float32]) /* ty=(Tensor[(1, 64, 1, 1), float32], Tensor[(54, 64, 1, 1), float32]) span=from_string:8:26 */ = (%x_2, %x1) /* ty=(Tensor[(1, 64, 1, 1), float32], Tensor[(54, 64, 1, 1), float32]) span=from_string:7:14 */;
  let %x_5: Tensor[(55, 64, 1, 1), float32] /* ty=Tensor[(55, 64, 1, 1), float32] span=from_string:9:37 */ = concatenate(%x_4) /* ty=Tensor[(55, 64, 1, 1), float32] span=from_string:8:14 */;
  let %x_6: Tensor[(55, 64, 1, 1), float32] /* ty=Tensor[(55, 64, 1, 1), float32] span=from_string:10:15 */ = annotation.stop_fusion(%x_5) /* ty=Tensor[(55, 64, 1, 1), float32] span=from_string:9:14 */;
  let %x_7: (Tensor[(55, 64, 1, 1), float32],) /* ty=(Tensor[(55, 64, 1, 1), float32],) span=from_string:11:26 */ = (%x_6,) /* ty=(Tensor[(55, 64, 1, 1), float32],) span=from_string:10:14 */;
  let %x_8: Tensor[(55, 64, 1, 1), float32] /* ty=Tensor[(55, 64, 1, 1), float32] span=from_string:12:24 */ = concatenate(%x_7) /* ty=Tensor[(55, 64, 1, 1), float32] span=from_string:11:14 */;
  let %x_9: Tensor[(55, 64, 1, 1), int32] /* ty=Tensor[(55, 64, 1, 1), int32] span=from_string:17:28 */ = cast(%x_8, dtype="int32") /* ty=Tensor[(55, 64, 1, 1), int32] */;
  let %x_10: Tensor[(3456, 1, 1), float32] /* ty=Tensor[(3456, 1, 1), float32] span=from_string:14:23 */ = reshape(%x1, newshape=[3456, 1, 1]) /* ty=Tensor[(3456, 1, 1), float32] span=from_string:13:15 */;
  let %x_11: Tensor[(54, 64, 1, 1), float32] /* ty=Tensor[(54, 64, 1, 1), float32] span=from_string:17:34 */ = reshape(%x_10, newshape=[54, 64, 1, 1]) /* ty=Tensor[(54, 64, 1, 1), float32] span=from_string:14:15 */;
  let %x_12: Tensor[(1), float32] /* ty=Tensor[(1), float32] span=from_string:17:41 */ = nn.softmax(%x_0) /* ty=Tensor[(1), float32] span=from_string:15:15 */;
  let %x_13: int32 /* ty=int32 span=from_string:17:48 */ = 3520 /* ty=int32 span=from_string:16:19 */;
  let %x_14: (Tensor[(1, 64, 56, 56), float32], Tensor[(1, 64, 1, 1), float32], Tensor[(55, 64, 1, 1), int32], Tensor[(54, 64, 1, 1), float32], Tensor[(1), float32], int32) /* ty=(Tensor[(1, 64, 56, 56), float32], Tensor[(1, 64, 1, 1), float32], Tensor[(55, 64, 1, 1), int32], Tensor[(54, 64, 1, 1), float32], Tensor[(1), float32], int32) span=from_string:18:3 */ = (%x_1, %x_3, %x_9, %x_11, %x_12, %x_13) /* ty=(Tensor[(1, 64, 56, 56), float32], Tensor[(1, 64, 1, 1), float32], Tensor[(55, 64, 1, 1), int32], Tensor[(54, 64, 1, 1), float32], Tensor[(1), float32], int32) span=from_string:17:15 */;
  %x_14
}
