#[version = "0.0.5"]
def @main(%x0: Tensor[(1, 64, 56, 56), float32] /* ty=Tensor[(1, 64, 56, 56), float32] span=from_string:14:116 */, %x1: Tensor[(54, 64, 1, 1), float32] /* ty=Tensor[(54, 64, 1, 1), float32] span=from_string:31:114 */, %x2: Tensor[(28, 60, 95, 44), int32] /* ty=Tensor[(28, 60, 95, 44), int32] span=from_string:27:122 */, %x3: Tensor[(3456, 1, 1), float32] /* ty=Tensor[(3456, 1, 1), float32] */, %x4: Tensor[(55, 64, 1, 1), float32] /* ty=Tensor[(55, 64, 1, 1), float32] */) -> (Tensor[(1, 64, 56, 56), float32], Tensor[(1, 64, 1, 1), float32], Tensor[(55, 64, 1, 1), int32], Tensor[(54, 64, 1, 1), float32], Tensor[(1), float32], int32) {
  let %x_0: fn () -> Tensor[(1), float32] /* ty=fn () -> Tensor[(1), float32] span=from_string:6:90 */ = fn (Primitive=1) -> Tensor[(1), float32] {
    ones(shape=[1], dtype="float32") /* ty=Tensor[(1), float32] span=from_string:4:5 */
  } /* ty=fn () -> Tensor[(1), float32] span=from_string:3:3 */;
  let %x_01: Tensor[(1), float32] /* ty=Tensor[(1), float32] span=from_string:39:96 */ = %x_0() /* ty=Tensor[(1), float32] span=from_string:6:90 */;
  let %x_1: fn (Tensor[(1), float32], Tensor[(1, 64, 56, 56), float32]) -> Tensor[(1, 64, 56, 56), float32] /* ty=fn (Tensor[(1), float32], Tensor[(1, 64, 56, 56), float32]) -> Tensor[(1, 64, 56, 56), float32] span=from_string:10:115 */ = fn (%p0: Tensor[(1), float32] /* ty=Tensor[(1), float32] span=from_string:8:15 */, %p1: Tensor[(1, 64, 56, 56), float32] /* ty=Tensor[(1, 64, 56, 56), float32] span=from_string:8:20 */, Primitive=1) -> Tensor[(1, 64, 56, 56), float32] {
    multiply(%p0, %p1) /* ty=Tensor[(1, 64, 56, 56), float32] span=from_string:8:6 */
  } /* ty=fn (Tensor[(1), float32], Tensor[(1, 64, 56, 56), float32]) -> Tensor[(1, 64, 56, 56), float32] span=from_string:7:3 */;
  let %x_11: Tensor[(1, 64, 56, 56), float32] /* ty=Tensor[(1, 64, 56, 56), float32] span=from_string:41:373 */ = %x_1(%x_01, %x0) /* ty=Tensor[(1, 64, 56, 56), float32] span=from_string:10:115 */;
  let %x_2: fn (Tensor[(1, 64, 56, 56), float32]) -> Tensor[(1, 64, 1, 1), float32] /* ty=fn (Tensor[(1, 64, 56, 56), float32]) -> Tensor[(1, 64, 1, 1), float32] span=from_string:14:111 */ = fn (%p01: Tensor[(1, 64, 56, 56), float32] /* ty=Tensor[(1, 64, 56, 56), float32] span=from_string:12:26 */, Primitive=1) -> Tensor[(1, 64, 1, 1), float32] {
    nn.global_max_pool2d(%p01) /* ty=Tensor[(1, 64, 1, 1), float32] span=from_string:12:5 */
  } /* ty=fn (Tensor[(1, 64, 56, 56), float32]) -> Tensor[(1, 64, 1, 1), float32] span=from_string:11:3 */;
  let %x_21: Tensor[(1, 64, 1, 1), float32] /* ty=Tensor[(1, 64, 1, 1), float32] span=from_string:19:181 */ = %x_2(%x0) /* ty=Tensor[(1, 64, 1, 1), float32] span=from_string:14:111 */;
  let %x_3: fn (Tensor[(1, 64, 1, 1), float32]) -> Tensor[(1, 64, 1, 1), float32] /* ty=fn (Tensor[(1, 64, 1, 1), float32]) -> Tensor[(1, 64, 1, 1), float32] span=from_string:18:111 */ = fn (%p02: Tensor[(1, 64, 1, 1), float32] /* ty=Tensor[(1, 64, 1, 1), float32] span=from_string:16:21 */, Primitive=1) -> Tensor[(1, 64, 1, 1), float32] {
    multiply(%p02, %p02) /* ty=Tensor[(1, 64, 1, 1), float32] span=from_string:16:6 */
  } /* ty=fn (Tensor[(1, 64, 1, 1), float32]) -> Tensor[(1, 64, 1, 1), float32] span=from_string:15:3 */;
  let %x_31: Tensor[(1, 64, 1, 1), float32] /* ty=Tensor[(1, 64, 1, 1), float32] span=from_string:41:380 */ = %x_3(%x_21) /* ty=Tensor[(1, 64, 1, 1), float32] span=from_string:18:111 */;
  let %x_4: (Tensor[(1, 64, 1, 1), float32], Tensor[(54, 64, 1, 1), float32]) /* ty=(Tensor[(1, 64, 1, 1), float32], Tensor[(54, 64, 1, 1), float32]) span=from_string:23:118 */ = (%x_21, %x1) /* ty=(Tensor[(1, 64, 1, 1), float32], Tensor[(54, 64, 1, 1), float32]) span=from_string:19:180 */;
  let %x_41: fn ((Tensor[(1, 64, 1, 1), float32], Tensor[(54, 64, 1, 1), float32])) -> Tensor[(55, 64, 1, 1), float32] /* ty=fn ((Tensor[(1, 64, 1, 1), float32], Tensor[(54, 64, 1, 1), float32])) -> Tensor[(55, 64, 1, 1), float32] span=from_string:23:112 */ = fn (%p03: (Tensor[(1, 64, 1, 1), float32], Tensor[(54, 64, 1, 1), float32]) /* ty=(Tensor[(1, 64, 1, 1), float32], Tensor[(54, 64, 1, 1), float32]) span=from_string:21:17 */, Primitive=1) -> Tensor[(55, 64, 1, 1), float32] {
    concatenate(%p03) /* ty=Tensor[(55, 64, 1, 1), float32] span=from_string:21:5 */
  } /* ty=fn ((Tensor[(1, 64, 1, 1), float32], Tensor[(54, 64, 1, 1), float32])) -> Tensor[(55, 64, 1, 1), float32] span=from_string:20:3 */;
  let %x_5: Tensor[(55, 64, 1, 1), float32] /* ty=Tensor[(55, 64, 1, 1), float32] span=from_string:27:116 */ = %x_41(%x_4) /* ty=Tensor[(55, 64, 1, 1), float32] span=from_string:23:112 */;
  let %x_51: fn (Tensor[(55, 64, 1, 1), float32], Tensor[(28, 60, 95, 44), int32]) -> Tensor[(55, 64, 1, 1), int32] /* ty=fn (Tensor[(55, 64, 1, 1), float32], Tensor[(28, 60, 95, 44), int32]) -> Tensor[(55, 64, 1, 1), int32] span=from_string:27:110 */ = fn (%p04: Tensor[(55, 64, 1, 1), float32] /* ty=Tensor[(55, 64, 1, 1), float32] span=from_string:25:15 */, %p11: Tensor[(28, 60, 95, 44), int32] /* ty=Tensor[(28, 60, 95, 44), int32] span=from_string:25:21 */, Primitive=1) -> Tensor[(55, 64, 1, 1), int32] {
    cast_like(%p04, %p11) /* ty=Tensor[(55, 64, 1, 1), int32] span=from_string:25:5 */
  } /* ty=fn (Tensor[(55, 64, 1, 1), float32], Tensor[(28, 60, 95, 44), int32]) -> Tensor[(55, 64, 1, 1), int32] span=from_string:24:3 */;
  let %x_6: Tensor[(55, 64, 1, 1), int32] /* ty=Tensor[(55, 64, 1, 1), int32] span=from_string:41:387 */ = %x_51(%x_5, %x2) /* ty=Tensor[(55, 64, 1, 1), int32] span=from_string:27:110 */;
  let %x_61: fn (Tensor[(54, 64, 1, 1), float32]) -> Tensor[(3456, 1, 1), float32] /* ty=fn (Tensor[(54, 64, 1, 1), float32]) -> Tensor[(3456, 1, 1), float32] span=from_string:31:108 */ = fn (%p05: Tensor[(54, 64, 1, 1), float32] /* ty=Tensor[(54, 64, 1, 1), float32] span=from_string:29:13 */, Primitive=1, relay.reshape_only=1) -> Tensor[(3456, 1, 1), float32] {
    reshape(%p05, newshape=[3456, 1, 1]) /* ty=Tensor[(3456, 1, 1), float32] span=from_string:29:5 */
  } /* ty=fn (Tensor[(54, 64, 1, 1), float32]) -> Tensor[(3456, 1, 1), float32] span=from_string:28:3 */;
  let %x_7: Tensor[(3456, 1, 1), float32] /* ty=Tensor[(3456, 1, 1), float32] span=from_string:35:118 */ = %x_61(%x1) /* ty=Tensor[(3456, 1, 1), float32] span=from_string:31:108 */;
  let %x_71: fn (Tensor[(3456, 1, 1), float32]) -> Tensor[(54, 64, 1, 1), float32] /* ty=fn (Tensor[(3456, 1, 1), float32]) -> Tensor[(54, 64, 1, 1), float32] span=from_string:35:112 */ = fn (%p06: Tensor[(3456, 1, 1), float32] /* ty=Tensor[(3456, 1, 1), float32] span=from_string:33:13 */, Primitive=1, relay.reshape_only=1) -> Tensor[(54, 64, 1, 1), float32] {
    reshape(%p06, newshape=[54, 64, 1, 1]) /* ty=Tensor[(54, 64, 1, 1), float32] span=from_string:33:5 */
  } /* ty=fn (Tensor[(3456, 1, 1), float32]) -> Tensor[(54, 64, 1, 1), float32] span=from_string:32:3 */;
  let %x_8: Tensor[(54, 64, 1, 1), float32] /* ty=Tensor[(54, 64, 1, 1), float32] span=from_string:41:393 */ = %x_71(%x_7) /* ty=Tensor[(54, 64, 1, 1), float32] span=from_string:35:112 */;
  let %x_81: fn (Tensor[(1), float32]) -> Tensor[(1), float32] /* ty=fn (Tensor[(1), float32]) -> Tensor[(1), float32] span=from_string:39:90 */ = fn (%p07: Tensor[(1), float32] /* ty=Tensor[(1), float32] span=from_string:37:16 */, Primitive=1) -> Tensor[(1), float32] {
    nn.softmax(%p07) /* ty=Tensor[(1), float32] span=from_string:37:5 */
  } /* ty=fn (Tensor[(1), float32]) -> Tensor[(1), float32] span=from_string:36:3 */;
  let %x_9: Tensor[(1), float32] /* ty=Tensor[(1), float32] span=from_string:41:399 */ = %x_81(%x_01) /* ty=Tensor[(1), float32] span=from_string:39:90 */;
  let %x_111: (Tensor[(1, 64, 56, 56), float32], Tensor[(1, 64, 1, 1), float32], Tensor[(55, 64, 1, 1), int32], Tensor[(54, 64, 1, 1), float32], Tensor[(1), float32], int32) /* ty=(Tensor[(1, 64, 56, 56), float32], Tensor[(1, 64, 1, 1), float32], Tensor[(55, 64, 1, 1), int32], Tensor[(54, 64, 1, 1), float32], Tensor[(1), float32], int32) span=from_string:42:15 */ = (%x_11, %x_31, %x_6, %x_8, %x_9, 3520 /* ty=int32 span=from_string:40:67 */) /* ty=(Tensor[(1, 64, 56, 56), float32], Tensor[(1, 64, 1, 1), float32], Tensor[(55, 64, 1, 1), int32], Tensor[(54, 64, 1, 1), float32], Tensor[(1), float32], int32) span=from_string:41:372 */;
  let %x_91: (Tensor[(1, 64, 56, 56), float32], Tensor[(1, 64, 1, 1), float32], Tensor[(55, 64, 1, 1), int32], Tensor[(54, 64, 1, 1), float32], Tensor[(1), float32], int32) /* ty=(Tensor[(1, 64, 56, 56), float32], Tensor[(1, 64, 1, 1), float32], Tensor[(55, 64, 1, 1), int32], Tensor[(54, 64, 1, 1), float32], Tensor[(1), float32], int32) span=from_string:43:16 */ = %x_111;
  let %x_101: (Tensor[(1, 64, 56, 56), float32], Tensor[(1, 64, 1, 1), float32], Tensor[(55, 64, 1, 1), int32], Tensor[(54, 64, 1, 1), float32], Tensor[(1), float32], int32) /* ty=(Tensor[(1, 64, 56, 56), float32], Tensor[(1, 64, 1, 1), float32], Tensor[(55, 64, 1, 1), int32], Tensor[(54, 64, 1, 1), float32], Tensor[(1), float32], int32) span=from_string:44:16 */ = %x_91;
  let %x_112: (Tensor[(1, 64, 56, 56), float32], Tensor[(1, 64, 1, 1), float32], Tensor[(55, 64, 1, 1), int32], Tensor[(54, 64, 1, 1), float32], Tensor[(1), float32], int32) /* ty=(Tensor[(1, 64, 56, 56), float32], Tensor[(1, 64, 1, 1), float32], Tensor[(55, 64, 1, 1), int32], Tensor[(54, 64, 1, 1), float32], Tensor[(1), float32], int32) span=from_string:45:15 */ = %x_101;
  let %x_12: (Tensor[(1, 64, 56, 56), float32], Tensor[(1, 64, 1, 1), float32], Tensor[(55, 64, 1, 1), int32], Tensor[(54, 64, 1, 1), float32], Tensor[(1), float32], int32) /* ty=(Tensor[(1, 64, 56, 56), float32], Tensor[(1, 64, 1, 1), float32], Tensor[(55, 64, 1, 1), int32], Tensor[(54, 64, 1, 1), float32], Tensor[(1), float32], int32) span=from_string:46:15 */ = %x_112;
  let %x_13: (Tensor[(1, 64, 56, 56), float32], Tensor[(1, 64, 1, 1), float32], Tensor[(55, 64, 1, 1), int32], Tensor[(54, 64, 1, 1), float32], Tensor[(1), float32], int32) /* ty=(Tensor[(1, 64, 56, 56), float32], Tensor[(1, 64, 1, 1), float32], Tensor[(55, 64, 1, 1), int32], Tensor[(54, 64, 1, 1), float32], Tensor[(1), float32], int32) span=from_string:47:15 */ = %x_12;
  let %x_14: (Tensor[(1, 64, 56, 56), float32], Tensor[(1, 64, 1, 1), float32], Tensor[(55, 64, 1, 1), int32], Tensor[(54, 64, 1, 1), float32], Tensor[(1), float32], int32) /* ty=(Tensor[(1, 64, 56, 56), float32], Tensor[(1, 64, 1, 1), float32], Tensor[(55, 64, 1, 1), int32], Tensor[(54, 64, 1, 1), float32], Tensor[(1), float32], int32) span=from_string:48:15 */ = %x_13;
  let %x_15: (Tensor[(1, 64, 56, 56), float32], Tensor[(1, 64, 1, 1), float32], Tensor[(55, 64, 1, 1), int32], Tensor[(54, 64, 1, 1), float32], Tensor[(1), float32], int32) /* ty=(Tensor[(1, 64, 56, 56), float32], Tensor[(1, 64, 1, 1), float32], Tensor[(55, 64, 1, 1), int32], Tensor[(54, 64, 1, 1), float32], Tensor[(1), float32], int32) span=from_string:49:15 */ = %x_14;
  let %x_16: (Tensor[(1, 64, 56, 56), float32], Tensor[(1, 64, 1, 1), float32], Tensor[(55, 64, 1, 1), int32], Tensor[(54, 64, 1, 1), float32], Tensor[(1), float32], int32) /* ty=(Tensor[(1, 64, 56, 56), float32], Tensor[(1, 64, 1, 1), float32], Tensor[(55, 64, 1, 1), int32], Tensor[(54, 64, 1, 1), float32], Tensor[(1), float32], int32) span=from_string:50:15 */ = %x_15;
  let %x_17: (Tensor[(1, 64, 56, 56), float32], Tensor[(1, 64, 1, 1), float32], Tensor[(55, 64, 1, 1), int32], Tensor[(54, 64, 1, 1), float32], Tensor[(1), float32], int32) /* ty=(Tensor[(1, 64, 56, 56), float32], Tensor[(1, 64, 1, 1), float32], Tensor[(55, 64, 1, 1), int32], Tensor[(54, 64, 1, 1), float32], Tensor[(1), float32], int32) span=from_string:51:15 */ = %x_16;
  let %x_18: (Tensor[(1, 64, 56, 56), float32], Tensor[(1, 64, 1, 1), float32], Tensor[(55, 64, 1, 1), int32], Tensor[(54, 64, 1, 1), float32], Tensor[(1), float32], int32) /* ty=(Tensor[(1, 64, 56, 56), float32], Tensor[(1, 64, 1, 1), float32], Tensor[(55, 64, 1, 1), int32], Tensor[(54, 64, 1, 1), float32], Tensor[(1), float32], int32) span=from_string:52:15 */ = %x_17;
  let %x_19: (Tensor[(1, 64, 56, 56), float32], Tensor[(1, 64, 1, 1), float32], Tensor[(55, 64, 1, 1), int32], Tensor[(54, 64, 1, 1), float32], Tensor[(1), float32], int32) /* ty=(Tensor[(1, 64, 56, 56), float32], Tensor[(1, 64, 1, 1), float32], Tensor[(55, 64, 1, 1), int32], Tensor[(54, 64, 1, 1), float32], Tensor[(1), float32], int32) span=from_string:53:15 */ = %x_18;
  let %x_20: (Tensor[(1, 64, 56, 56), float32], Tensor[(1, 64, 1, 1), float32], Tensor[(55, 64, 1, 1), int32], Tensor[(54, 64, 1, 1), float32], Tensor[(1), float32], int32) /* ty=(Tensor[(1, 64, 56, 56), float32], Tensor[(1, 64, 1, 1), float32], Tensor[(55, 64, 1, 1), int32], Tensor[(54, 64, 1, 1), float32], Tensor[(1), float32], int32) span=from_string:54:3 */ = %x_19;
  %x_20
}
