#[version = "0.0.5"]
def @main(%x0: Tensor[(1, 64, 56, 56), float32] /* ty=Tensor[(1, 64, 56, 56), float32] span=from_string:5:35 */, %x1: Tensor[(54, 64, 1, 1), float32] /* ty=Tensor[(54, 64, 1, 1), float32] span=from_string:10:22 */, %x2: Tensor[(28, 60, 95, 44), int32] /* ty=Tensor[(28, 60, 95, 44), int32] span=from_string:9:30 */, %x3: Tensor[(3456, 1, 1), float32] /* ty=Tensor[(3456, 1, 1), float32] */, %x4: Tensor[(55, 64, 1, 1), float32] /* ty=Tensor[(55, 64, 1, 1), float32] */) -> (Tensor[(1, 64, 56, 56), float32], Tensor[(1, 64, 1, 1), float32], Tensor[(55, 64, 1, 1), int32], Tensor[(54, 64, 1, 1), float32], Tensor[(1), float32], int32) {
  let %x_0: Tensor[(1), float32] /* ty=Tensor[(1), float32] span=from_string:12:25 */ = ones(shape=[1], dtype="float32") /* ty=Tensor[(1), float32] span=from_string:3:14 */;
  let %x_1: Tensor[(1, 64, 56, 56), float32] /* ty=Tensor[(1, 64, 56, 56), float32] span=from_string:14:16 */ = multiply(%x_0, %x0) /* ty=Tensor[(1, 64, 56, 56), float32] span=from_string:4:15 */;
  let %x_2: Tensor[(1, 64, 1, 1), float32] /* ty=Tensor[(1, 64, 1, 1), float32] span=from_string:7:15 */ = nn.global_max_pool2d(%x0) /* ty=Tensor[(1, 64, 1, 1), float32] span=from_string:5:14 */;
  let %x_3: Tensor[(1, 64, 1, 1), float32] /* ty=Tensor[(1, 64, 1, 1), float32] span=from_string:14:22 */ = multiply(%x_2, %x_2) /* ty=Tensor[(1, 64, 1, 1), float32] span=from_string:6:15 */;
  let %x_4: (Tensor[(1, 64, 1, 1), float32], Tensor[(54, 64, 1, 1), float32]) /* ty=(Tensor[(1, 64, 1, 1), float32], Tensor[(54, 64, 1, 1), float32]) span=from_string:8:26 */ = (%x_2, %x1) /* ty=(Tensor[(1, 64, 1, 1), float32], Tensor[(54, 64, 1, 1), float32]) span=from_string:7:14 */;
  let %x_5: Tensor[(55, 64, 1, 1), float32] /* ty=Tensor[(55, 64, 1, 1), float32] span=from_string:9:24 */ = concatenate(%x_4) /* ty=Tensor[(55, 64, 1, 1), float32] span=from_string:8:14 */;
  let %x_6: Tensor[(55, 64, 1, 1), int32] /* ty=Tensor[(55, 64, 1, 1), int32] span=from_string:14:28 */ = cast(%x_5, dtype="int32") /* ty=Tensor[(55, 64, 1, 1), int32] */;
  let %x_7: Tensor[(3456, 1, 1), float32] /* ty=Tensor[(3456, 1, 1), float32] span=from_string:11:22 */ = reshape(%x1, newshape=[3456, 1, 1]) /* ty=Tensor[(3456, 1, 1), float32] span=from_string:10:14 */;
  let %x_8: Tensor[(54, 64, 1, 1), float32] /* ty=Tensor[(54, 64, 1, 1), float32] span=from_string:14:34 */ = reshape(%x_7, newshape=[54, 64, 1, 1]) /* ty=Tensor[(54, 64, 1, 1), float32] span=from_string:11:14 */;
  let %x_9: Tensor[(1), float32] /* ty=Tensor[(1), float32] span=from_string:14:40 */ = nn.softmax(%x_0) /* ty=Tensor[(1), float32] span=from_string:12:14 */;
  let %x_10: int32 /* ty=int32 span=from_string:14:46 */ = 3520 /* ty=int32 span=from_string:13:19 */;
  let %x_11: (Tensor[(1, 64, 56, 56), float32], Tensor[(1, 64, 1, 1), float32], Tensor[(55, 64, 1, 1), int32], Tensor[(54, 64, 1, 1), float32], Tensor[(1), float32], int32) /* ty=(Tensor[(1, 64, 56, 56), float32], Tensor[(1, 64, 1, 1), float32], Tensor[(55, 64, 1, 1), int32], Tensor[(54, 64, 1, 1), float32], Tensor[(1), float32], int32) span=from_string:15:3 */ = (%x_1, %x_3, %x_6, %x_8, %x_9, %x_10) /* ty=(Tensor[(1, 64, 56, 56), float32], Tensor[(1, 64, 1, 1), float32], Tensor[(55, 64, 1, 1), int32], Tensor[(54, 64, 1, 1), float32], Tensor[(1), float32], int32) span=from_string:14:15 */;
  %x_11
}
