#[version = "0.0.5"]
def @main(%x0: Tensor[(1, 64, 56, 56), float32] /* ty=Tensor[(1, 64, 56, 56), float32] span=from_string:4:119 */, %x1: Tensor[(54, 64, 1, 1), float32] /* ty=Tensor[(54, 64, 1, 1), float32] span=from_string:15:118 */, %x2: Tensor[(28, 60, 95, 44), int32] /* ty=Tensor[(28, 60, 95, 44), int32] */, %x3: Tensor[(3456, 1, 1), float32] /* ty=Tensor[(3456, 1, 1), float32] */, %x4: Tensor[(55, 64, 1, 1), float32] /* ty=Tensor[(55, 64, 1, 1), float32] */) -> (Tensor[(1, 64, 56, 56), float16], Tensor[(1, 64, 1, 1), float16], Tensor[(55, 64, 1, 1), int32], Tensor[(54, 64, 1, 1), float16], Tensor[(1), float32], int32) {
  let %x_0: Tensor[(1), float16] /* ty=Tensor[(1), float16] span=from_string:18:96 */ = ones(shape=[1], dtype="float16") /* ty=Tensor[(1), float16] span=from_string:3:89 */;
  let %x_01: Tensor[(1, 64, 56, 56), float16] /* ty=Tensor[(1, 64, 56, 56), float16] span=from_string:6:130 */ = cast(%x0, dtype="float16") /* ty=Tensor[(1, 64, 56, 56), float16] span=from_string:4:114 */;
  let %x_1: Tensor[(1, 64, 56, 56), float16] /* ty=Tensor[(1, 64, 56, 56), float16] span=from_string:20:374 */ = multiply(%x_0, %x_01) /* ty=Tensor[(1, 64, 56, 56), float16] span=from_string:5:115 */;
  let %x_2: Tensor[(1, 64, 1, 1), float16] /* ty=Tensor[(1, 64, 1, 1), float16] span=from_string:8:180 */ = nn.global_max_pool2d(%x_01) /* ty=Tensor[(1, 64, 1, 1), float16] span=from_string:6:109 */;
  let %x_3: Tensor[(1, 64, 1, 1), float16] /* ty=Tensor[(1, 64, 1, 1), float16] span=from_string:20:380 */ = multiply(%x_2, %x_2) /* ty=Tensor[(1, 64, 1, 1), float16] span=from_string:7:111 */;
  let %x_4: (Tensor[(1, 64, 1, 1), float16], Tensor[(54, 64, 1, 1), float32]) /* ty=(Tensor[(1, 64, 1, 1), float16], Tensor[(54, 64, 1, 1), float32]) span=from_string:10:112 */ = (%x_2, %x1) /* ty=(Tensor[(1, 64, 1, 1), float16], Tensor[(54, 64, 1, 1), float32]) span=from_string:8:179 */;
  let %x_11: Tensor[(1, 64, 1, 1), float16] /* ty=Tensor[(1, 64, 1, 1), float16] span=from_string:12:182 */ = %x_4.0 /* ty=Tensor[(1, 64, 1, 1), float16] span=from_string:9:110 */;
  let %x_21: Tensor[(54, 64, 1, 1), float32] /* ty=Tensor[(54, 64, 1, 1), float32] span=from_string:11:117 */ = %x_4.1 /* ty=Tensor[(54, 64, 1, 1), float32] span=from_string:10:112 */;
  let %x_31: Tensor[(54, 64, 1, 1), float16] /* ty=Tensor[(54, 64, 1, 1), float16] span=from_string:12:189 */ = cast(%x_21, dtype="float16") /* ty=Tensor[(54, 64, 1, 1), float16] span=from_string:11:112 */;
  let %x_41: (Tensor[(1, 64, 1, 1), float16], Tensor[(54, 64, 1, 1), float16]) /* ty=(Tensor[(1, 64, 1, 1), float16], Tensor[(54, 64, 1, 1), float16]) span=from_string:13:124 */ = (%x_11, %x_31) /* ty=(Tensor[(1, 64, 1, 1), float16], Tensor[(54, 64, 1, 1), float16]) span=from_string:12:181 */;
  let %x_5: Tensor[(55, 64, 1, 1), float16] /* ty=Tensor[(55, 64, 1, 1), float16] span=from_string:14:115 */ = concatenate(%x_41) /* ty=Tensor[(55, 64, 1, 1), float16] span=from_string:13:112 */;
  let %x_6: Tensor[(55, 64, 1, 1), int32] /* ty=Tensor[(55, 64, 1, 1), int32] span=from_string:20:386 */ = cast(%x_5, dtype="int32") /* ty=Tensor[(55, 64, 1, 1), int32] span=from_string:14:110 */;
  let %x_51: Tensor[(54, 64, 1, 1), float16] /* ty=Tensor[(54, 64, 1, 1), float16] span=from_string:16:116 */ = cast(%x1, dtype="float16") /* ty=Tensor[(54, 64, 1, 1), float16] span=from_string:15:113 */;
  let %x_7: Tensor[(3456, 1, 1), float16] /* ty=Tensor[(3456, 1, 1), float16] span=from_string:17:120 */ = reshape(%x_51, newshape=[3456, 1, 1]) /* ty=Tensor[(3456, 1, 1), float16] span=from_string:16:108 */;
  let %x_8: Tensor[(54, 64, 1, 1), float16] /* ty=Tensor[(54, 64, 1, 1), float16] span=from_string:20:392 */ = reshape(%x_7, newshape=[54, 64, 1, 1]) /* ty=Tensor[(54, 64, 1, 1), float16] span=from_string:17:112 */;
  let %x_61: Tensor[(1), float32] /* ty=Tensor[(1), float32] span=from_string:19:101 */ = cast(%x_0, dtype="float32") /* ty=Tensor[(1), float32] span=from_string:18:91 */;
  let %x_9: Tensor[(1), float32] /* ty=Tensor[(1), float32] span=from_string:20:398 */ = nn.softmax(%x_61) /* ty=Tensor[(1), float32] span=from_string:19:90 */;
  let %x_111: (Tensor[(1, 64, 56, 56), float16], Tensor[(1, 64, 1, 1), float16], Tensor[(55, 64, 1, 1), int32], Tensor[(54, 64, 1, 1), float16], Tensor[(1), float32], int32) /* ty=(Tensor[(1, 64, 56, 56), float16], Tensor[(1, 64, 1, 1), float16], Tensor[(55, 64, 1, 1), int32], Tensor[(54, 64, 1, 1), float16], Tensor[(1), float32], int32) span=from_string:21:372 */ = (%x_1, %x_3, %x_6, %x_8, %x_9, 3520 /* ty=int32 span=from_string:20:408 */) /* ty=(Tensor[(1, 64, 56, 56), float16], Tensor[(1, 64, 1, 1), float16], Tensor[(55, 64, 1, 1), int32], Tensor[(54, 64, 1, 1), float16], Tensor[(1), float32], int32) span=from_string:20:373 */;
  let %x_81: (Tensor[(1, 64, 56, 56), float16], Tensor[(1, 64, 1, 1), float16], Tensor[(55, 64, 1, 1), int32], Tensor[(54, 64, 1, 1), float16], Tensor[(1), float32], int32) /* ty=(Tensor[(1, 64, 56, 56), float16], Tensor[(1, 64, 1, 1), float16], Tensor[(55, 64, 1, 1), int32], Tensor[(54, 64, 1, 1), float16], Tensor[(1), float32], int32) span=from_string:22:372 */ = %x_111;
  let %x_91: (Tensor[(1, 64, 56, 56), float16], Tensor[(1, 64, 1, 1), float16], Tensor[(55, 64, 1, 1), int32], Tensor[(54, 64, 1, 1), float16], Tensor[(1), float32], int32) /* ty=(Tensor[(1, 64, 56, 56), float16], Tensor[(1, 64, 1, 1), float16], Tensor[(55, 64, 1, 1), int32], Tensor[(54, 64, 1, 1), float16], Tensor[(1), float32], int32) span=from_string:23:372 */ = %x_81;
  let %x_10: (Tensor[(1, 64, 56, 56), float16], Tensor[(1, 64, 1, 1), float16], Tensor[(55, 64, 1, 1), int32], Tensor[(54, 64, 1, 1), float16], Tensor[(1), float32], int32) /* ty=(Tensor[(1, 64, 56, 56), float16], Tensor[(1, 64, 1, 1), float16], Tensor[(55, 64, 1, 1), int32], Tensor[(54, 64, 1, 1), float16], Tensor[(1), float32], int32) span=from_string:24:373 */ = %x_91;
  let %x_112: (Tensor[(1, 64, 56, 56), float16], Tensor[(1, 64, 1, 1), float16], Tensor[(55, 64, 1, 1), int32], Tensor[(54, 64, 1, 1), float16], Tensor[(1), float32], int32) /* ty=(Tensor[(1, 64, 56, 56), float16], Tensor[(1, 64, 1, 1), float16], Tensor[(55, 64, 1, 1), int32], Tensor[(54, 64, 1, 1), float16], Tensor[(1), float32], int32) span=from_string:25:372 */ = %x_10;
  let %x_12: (Tensor[(1, 64, 56, 56), float16], Tensor[(1, 64, 1, 1), float16], Tensor[(55, 64, 1, 1), int32], Tensor[(54, 64, 1, 1), float16], Tensor[(1), float32], int32) /* ty=(Tensor[(1, 64, 56, 56), float16], Tensor[(1, 64, 1, 1), float16], Tensor[(55, 64, 1, 1), int32], Tensor[(54, 64, 1, 1), float16], Tensor[(1), float32], int32) span=from_string:26:372 */ = %x_112;
  let %x_13: (Tensor[(1, 64, 56, 56), float16], Tensor[(1, 64, 1, 1), float16], Tensor[(55, 64, 1, 1), int32], Tensor[(54, 64, 1, 1), float16], Tensor[(1), float32], int32) /* ty=(Tensor[(1, 64, 56, 56), float16], Tensor[(1, 64, 1, 1), float16], Tensor[(55, 64, 1, 1), int32], Tensor[(54, 64, 1, 1), float16], Tensor[(1), float32], int32) span=from_string:27:372 */ = %x_12;
  let %x_14: (Tensor[(1, 64, 56, 56), float16], Tensor[(1, 64, 1, 1), float16], Tensor[(55, 64, 1, 1), int32], Tensor[(54, 64, 1, 1), float16], Tensor[(1), float32], int32) /* ty=(Tensor[(1, 64, 56, 56), float16], Tensor[(1, 64, 1, 1), float16], Tensor[(55, 64, 1, 1), int32], Tensor[(54, 64, 1, 1), float16], Tensor[(1), float32], int32) span=from_string:28:372 */ = %x_13;
  let %x_15: (Tensor[(1, 64, 56, 56), float16], Tensor[(1, 64, 1, 1), float16], Tensor[(55, 64, 1, 1), int32], Tensor[(54, 64, 1, 1), float16], Tensor[(1), float32], int32) /* ty=(Tensor[(1, 64, 56, 56), float16], Tensor[(1, 64, 1, 1), float16], Tensor[(55, 64, 1, 1), int32], Tensor[(54, 64, 1, 1), float16], Tensor[(1), float32], int32) span=from_string:29:372 */ = %x_14;
  let %x_16: (Tensor[(1, 64, 56, 56), float16], Tensor[(1, 64, 1, 1), float16], Tensor[(55, 64, 1, 1), int32], Tensor[(54, 64, 1, 1), float16], Tensor[(1), float32], int32) /* ty=(Tensor[(1, 64, 56, 56), float16], Tensor[(1, 64, 1, 1), float16], Tensor[(55, 64, 1, 1), int32], Tensor[(54, 64, 1, 1), float16], Tensor[(1), float32], int32) span=from_string:30:372 */ = %x_15;
  let %x_17: (Tensor[(1, 64, 56, 56), float16], Tensor[(1, 64, 1, 1), float16], Tensor[(55, 64, 1, 1), int32], Tensor[(54, 64, 1, 1), float16], Tensor[(1), float32], int32) /* ty=(Tensor[(1, 64, 56, 56), float16], Tensor[(1, 64, 1, 1), float16], Tensor[(55, 64, 1, 1), int32], Tensor[(54, 64, 1, 1), float16], Tensor[(1), float32], int32) span=from_string:31:371 */ = %x_16;
  let %x_18: (Tensor[(1, 64, 56, 56), float16], Tensor[(1, 64, 1, 1), float16], Tensor[(55, 64, 1, 1), int32], Tensor[(54, 64, 1, 1), float16], Tensor[(1), float32], int32) /* ty=(Tensor[(1, 64, 56, 56), float16], Tensor[(1, 64, 1, 1), float16], Tensor[(55, 64, 1, 1), int32], Tensor[(54, 64, 1, 1), float16], Tensor[(1), float32], int32) span=from_string:32:3 */ = %x_17;
  %x_18
}
