#[version = "0.0.5"]
def @main(%x0: Tensor[(1, 64, 56, 56), float32] /* ty=Tensor[(1, 64, 56, 56), float32] span=from_string:5:130 */, %x1: Tensor[(54, 64, 1, 1), float32] /* ty=Tensor[(54, 64, 1, 1), float32] span=from_string:10:116 */, %x2: Tensor[(28, 60, 95, 44), int32] /* ty=Tensor[(28, 60, 95, 44), int32] */, %x3: Tensor[(3456, 1, 1), float32] /* ty=Tensor[(3456, 1, 1), float32] */, %x4: Tensor[(55, 64, 1, 1), float32] /* ty=Tensor[(55, 64, 1, 1), float32] */) -> (Tensor[(1, 64, 56, 56), float32], Tensor[(1, 64, 1, 1), float32], Tensor[(55, 64, 1, 1), int32], Tensor[(54, 64, 1, 1), float32], Tensor[(1), float32], int32) {
  %0 = fn (Primitive=1) -> Tensor[(1), float32] {
    ones(shape=[1], dtype="float32") /* ty=Tensor[(1), float32] span=from_string:3:90 */
  } /* ty=fn () -> Tensor[(1), float32] */;
  let %x_0: Tensor[(1), float32] /* ty=Tensor[(1), float32] span=from_string:12:101 */ = %0() /* ty=Tensor[(1), float32] */;
  %1 = fn (%p0: Tensor[(1), float32] /* ty=Tensor[(1), float32] */, %p1: Tensor[(1, 64, 56, 56), float32] /* ty=Tensor[(1, 64, 56, 56), float32] */, Primitive=1) -> Tensor[(1, 64, 56, 56), float32] {
    multiply(%p0, %p1) /* ty=Tensor[(1, 64, 56, 56), float32] span=from_string:4:115 */
  } /* ty=fn (Tensor[(1), float32], Tensor[(1, 64, 56, 56), float32]) -> Tensor[(1, 64, 56, 56), float32] */;
  let %x_1: Tensor[(1, 64, 56, 56), float32] /* ty=Tensor[(1, 64, 56, 56), float32] span=from_string:14:373 */ = %1(%x_0, %x0) /* ty=Tensor[(1, 64, 56, 56), float32] */;
  %2 = fn (%p01: Tensor[(1, 64, 56, 56), float32] /* ty=Tensor[(1, 64, 56, 56), float32] */, Primitive=1) -> Tensor[(1, 64, 1, 1), float32] {
    nn.global_max_pool2d(%p01) /* ty=Tensor[(1, 64, 1, 1), float32] span=from_string:5:109 */
  } /* ty=fn (Tensor[(1, 64, 56, 56), float32]) -> Tensor[(1, 64, 1, 1), float32] */;
  let %x_2: Tensor[(1, 64, 1, 1), float32] /* ty=Tensor[(1, 64, 1, 1), float32] span=from_string:7:180 */ = %2(%x0) /* ty=Tensor[(1, 64, 1, 1), float32] */;
  %3 = fn (%p02: Tensor[(1, 64, 1, 1), float32] /* ty=Tensor[(1, 64, 1, 1), float32] */, Primitive=1) -> Tensor[(1, 64, 1, 1), float32] {
    multiply(%p02, %p02) /* ty=Tensor[(1, 64, 1, 1), float32] span=from_string:6:111 */
  } /* ty=fn (Tensor[(1, 64, 1, 1), float32]) -> Tensor[(1, 64, 1, 1), float32] */;
  let %x_3: Tensor[(1, 64, 1, 1), float32] /* ty=Tensor[(1, 64, 1, 1), float32] span=from_string:14:379 */ = %3(%x_2) /* ty=Tensor[(1, 64, 1, 1), float32] */;
  let %x_4: (Tensor[(1, 64, 1, 1), float32], Tensor[(54, 64, 1, 1), float32]) /* ty=(Tensor[(1, 64, 1, 1), float32], Tensor[(54, 64, 1, 1), float32]) span=from_string:8:123 */ = (%x_2, %x1) /* ty=(Tensor[(1, 64, 1, 1), float32], Tensor[(54, 64, 1, 1), float32]) span=from_string:7:179 */;
  %4 = fn (%p03: (Tensor[(1, 64, 1, 1), float32], Tensor[(54, 64, 1, 1), float32]) /* ty=(Tensor[(1, 64, 1, 1), float32], Tensor[(54, 64, 1, 1), float32]) */, Primitive=1) -> Tensor[(55, 64, 1, 1), float32] {
    concatenate(%p03) /* ty=Tensor[(55, 64, 1, 1), float32] span=from_string:8:111 */
  } /* ty=fn ((Tensor[(1, 64, 1, 1), float32], Tensor[(54, 64, 1, 1), float32])) -> Tensor[(55, 64, 1, 1), float32] */;
  let %x_5: Tensor[(55, 64, 1, 1), float32] /* ty=Tensor[(55, 64, 1, 1), float32] span=from_string:9:115 */ = %4(%x_4) /* ty=Tensor[(55, 64, 1, 1), float32] */;
  %5 = fn (%p04: Tensor[(55, 64, 1, 1), float32] /* ty=Tensor[(55, 64, 1, 1), float32] */, Primitive=1) -> Tensor[(55, 64, 1, 1), int32] {
    cast(%p04, dtype="int32") /* ty=Tensor[(55, 64, 1, 1), int32] span=from_string:9:110 */
  } /* ty=fn (Tensor[(55, 64, 1, 1), float32]) -> Tensor[(55, 64, 1, 1), int32] */;
  let %x_6: Tensor[(55, 64, 1, 1), int32] /* ty=Tensor[(55, 64, 1, 1), int32] span=from_string:14:385 */ = %5(%x_5) /* ty=Tensor[(55, 64, 1, 1), int32] */;
  %6 = fn (%p05: Tensor[(54, 64, 1, 1), float32] /* ty=Tensor[(54, 64, 1, 1), float32] */, Primitive=1, relay.reshape_only=1) -> Tensor[(3456, 1, 1), float32] {
    reshape(%p05, newshape=[3456, 1, 1]) /* ty=Tensor[(3456, 1, 1), float32] span=from_string:10:108 */
  } /* ty=fn (Tensor[(54, 64, 1, 1), float32]) -> Tensor[(3456, 1, 1), float32] */;
  let %x_7: Tensor[(3456, 1, 1), float32] /* ty=Tensor[(3456, 1, 1), float32] span=from_string:11:120 */ = %6(%x1) /* ty=Tensor[(3456, 1, 1), float32] */;
  %7 = fn (%p06: Tensor[(3456, 1, 1), float32] /* ty=Tensor[(3456, 1, 1), float32] */, Primitive=1, relay.reshape_only=1) -> Tensor[(54, 64, 1, 1), float32] {
    reshape(%p06, newshape=[54, 64, 1, 1]) /* ty=Tensor[(54, 64, 1, 1), float32] span=from_string:11:112 */
  } /* ty=fn (Tensor[(3456, 1, 1), float32]) -> Tensor[(54, 64, 1, 1), float32] */;
  let %x_8: Tensor[(54, 64, 1, 1), float32] /* ty=Tensor[(54, 64, 1, 1), float32] span=from_string:14:391 */ = %7(%x_7) /* ty=Tensor[(54, 64, 1, 1), float32] */;
  %8 = fn (%p07: Tensor[(1), float32] /* ty=Tensor[(1), float32] */, Primitive=1) -> Tensor[(1), float32] {
    nn.softmax(%p07) /* ty=Tensor[(1), float32] span=from_string:12:90 */
  } /* ty=fn (Tensor[(1), float32]) -> Tensor[(1), float32] */;
  let %x_9: Tensor[(1), float32] /* ty=Tensor[(1), float32] span=from_string:14:397 */ = %8(%x_0) /* ty=Tensor[(1), float32] */;
  let %x_10: int32 /* ty=int32 span=from_string:14:403 */ = 3520 /* ty=int32 span=from_string:13:67 */;
  let %x_11: (Tensor[(1, 64, 56, 56), float32], Tensor[(1, 64, 1, 1), float32], Tensor[(55, 64, 1, 1), int32], Tensor[(54, 64, 1, 1), float32], Tensor[(1), float32], int32) /* ty=(Tensor[(1, 64, 56, 56), float32], Tensor[(1, 64, 1, 1), float32], Tensor[(55, 64, 1, 1), int32], Tensor[(54, 64, 1, 1), float32], Tensor[(1), float32], int32) span=from_string:15:372 */ = (%x_1, %x_3, %x_6, %x_8, %x_9, %x_10) /* ty=(Tensor[(1, 64, 56, 56), float32], Tensor[(1, 64, 1, 1), float32], Tensor[(55, 64, 1, 1), int32], Tensor[(54, 64, 1, 1), float32], Tensor[(1), float32], int32) span=from_string:14:372 */;
  let %x_01: (Tensor[(1, 64, 56, 56), float32], Tensor[(1, 64, 1, 1), float32], Tensor[(55, 64, 1, 1), int32], Tensor[(54, 64, 1, 1), float32], Tensor[(1), float32], int32) /* ty=(Tensor[(1, 64, 56, 56), float32], Tensor[(1, 64, 1, 1), float32], Tensor[(55, 64, 1, 1), int32], Tensor[(54, 64, 1, 1), float32], Tensor[(1), float32], int32) span=from_string:16:372 */ = %x_11;
  let %x_12: (Tensor[(1, 64, 56, 56), float32], Tensor[(1, 64, 1, 1), float32], Tensor[(55, 64, 1, 1), int32], Tensor[(54, 64, 1, 1), float32], Tensor[(1), float32], int32) /* ty=(Tensor[(1, 64, 56, 56), float32], Tensor[(1, 64, 1, 1), float32], Tensor[(55, 64, 1, 1), int32], Tensor[(54, 64, 1, 1), float32], Tensor[(1), float32], int32) span=from_string:17:372 */ = %x_01;
  let %x_21: (Tensor[(1, 64, 56, 56), float32], Tensor[(1, 64, 1, 1), float32], Tensor[(55, 64, 1, 1), int32], Tensor[(54, 64, 1, 1), float32], Tensor[(1), float32], int32) /* ty=(Tensor[(1, 64, 56, 56), float32], Tensor[(1, 64, 1, 1), float32], Tensor[(55, 64, 1, 1), int32], Tensor[(54, 64, 1, 1), float32], Tensor[(1), float32], int32) span=from_string:18:372 */ = %x_12;
  let %x_31: (Tensor[(1, 64, 56, 56), float32], Tensor[(1, 64, 1, 1), float32], Tensor[(55, 64, 1, 1), int32], Tensor[(54, 64, 1, 1), float32], Tensor[(1), float32], int32) /* ty=(Tensor[(1, 64, 56, 56), float32], Tensor[(1, 64, 1, 1), float32], Tensor[(55, 64, 1, 1), int32], Tensor[(54, 64, 1, 1), float32], Tensor[(1), float32], int32) span=from_string:19:372 */ = %x_21;
  let %x_41: (Tensor[(1, 64, 56, 56), float32], Tensor[(1, 64, 1, 1), float32], Tensor[(55, 64, 1, 1), int32], Tensor[(54, 64, 1, 1), float32], Tensor[(1), float32], int32) /* ty=(Tensor[(1, 64, 56, 56), float32], Tensor[(1, 64, 1, 1), float32], Tensor[(55, 64, 1, 1), int32], Tensor[(54, 64, 1, 1), float32], Tensor[(1), float32], int32) span=from_string:20:372 */ = %x_31;
  let %x_51: (Tensor[(1, 64, 56, 56), float32], Tensor[(1, 64, 1, 1), float32], Tensor[(55, 64, 1, 1), int32], Tensor[(54, 64, 1, 1), float32], Tensor[(1), float32], int32) /* ty=(Tensor[(1, 64, 56, 56), float32], Tensor[(1, 64, 1, 1), float32], Tensor[(55, 64, 1, 1), int32], Tensor[(54, 64, 1, 1), float32], Tensor[(1), float32], int32) span=from_string:21:372 */ = %x_41;
  let %x_61: (Tensor[(1, 64, 56, 56), float32], Tensor[(1, 64, 1, 1), float32], Tensor[(55, 64, 1, 1), int32], Tensor[(54, 64, 1, 1), float32], Tensor[(1), float32], int32) /* ty=(Tensor[(1, 64, 56, 56), float32], Tensor[(1, 64, 1, 1), float32], Tensor[(55, 64, 1, 1), int32], Tensor[(54, 64, 1, 1), float32], Tensor[(1), float32], int32) span=from_string:22:372 */ = %x_51;
  let %x_71: (Tensor[(1, 64, 56, 56), float32], Tensor[(1, 64, 1, 1), float32], Tensor[(55, 64, 1, 1), int32], Tensor[(54, 64, 1, 1), float32], Tensor[(1), float32], int32) /* ty=(Tensor[(1, 64, 56, 56), float32], Tensor[(1, 64, 1, 1), float32], Tensor[(55, 64, 1, 1), int32], Tensor[(54, 64, 1, 1), float32], Tensor[(1), float32], int32) span=from_string:23:372 */ = %x_61;
  let %x_81: (Tensor[(1, 64, 56, 56), float32], Tensor[(1, 64, 1, 1), float32], Tensor[(55, 64, 1, 1), int32], Tensor[(54, 64, 1, 1), float32], Tensor[(1), float32], int32) /* ty=(Tensor[(1, 64, 56, 56), float32], Tensor[(1, 64, 1, 1), float32], Tensor[(55, 64, 1, 1), int32], Tensor[(54, 64, 1, 1), float32], Tensor[(1), float32], int32) span=from_string:24:372 */ = %x_71;
  let %x_91: (Tensor[(1, 64, 56, 56), float32], Tensor[(1, 64, 1, 1), float32], Tensor[(55, 64, 1, 1), int32], Tensor[(54, 64, 1, 1), float32], Tensor[(1), float32], int32) /* ty=(Tensor[(1, 64, 56, 56), float32], Tensor[(1, 64, 1, 1), float32], Tensor[(55, 64, 1, 1), int32], Tensor[(54, 64, 1, 1), float32], Tensor[(1), float32], int32) span=from_string:25:373 */ = %x_81;
  let %x_101: (Tensor[(1, 64, 56, 56), float32], Tensor[(1, 64, 1, 1), float32], Tensor[(55, 64, 1, 1), int32], Tensor[(54, 64, 1, 1), float32], Tensor[(1), float32], int32) /* ty=(Tensor[(1, 64, 56, 56), float32], Tensor[(1, 64, 1, 1), float32], Tensor[(55, 64, 1, 1), int32], Tensor[(54, 64, 1, 1), float32], Tensor[(1), float32], int32) span=from_string:26:372 */ = %x_91;
  let %x_111: (Tensor[(1, 64, 56, 56), float32], Tensor[(1, 64, 1, 1), float32], Tensor[(55, 64, 1, 1), int32], Tensor[(54, 64, 1, 1), float32], Tensor[(1), float32], int32) /* ty=(Tensor[(1, 64, 56, 56), float32], Tensor[(1, 64, 1, 1), float32], Tensor[(55, 64, 1, 1), int32], Tensor[(54, 64, 1, 1), float32], Tensor[(1), float32], int32) span=from_string:27:3 */ = %x_101;
  %x_111
}
