#[version = "0.0.5"]
def @main(%x0: Tensor[(1, 3, 224, 224), int8] /* ty=Tensor[(1, 3, 224, 224), int8] span=from_string:27:24 */, %x1: Tensor[(1, 3, 224, 224), int8] /* ty=Tensor[(1, 3, 224, 224), int8] span=from_string:44:30 */, %x2: Tensor[(3, 3, 3, 3), float32] /* ty=Tensor[(3, 3, 3, 3), float32] span=from_string:14:32 */, %x3: Tensor[(3, 3, 1, 1), float32] /* ty=Tensor[(3, 3, 1, 1), float32] span=from_string:18:32 */, %x4: Tensor[(3, 3, 3, 3), float32] /* ty=Tensor[(3, 3, 3, 3), float32] span=from_string:52:26 */, %x5: Tensor[(1, 3, 224, 89), int8] /* ty=Tensor[(1, 3, 224, 89), int8] span=from_string:28:23 */, %x6: Tensor[(1, 3, 224, 32), int8] /* ty=Tensor[(1, 3, 224, 32), int8] span=from_string:28:28 */, %x7: Tensor[(1, 3, 224, 4), int8] /* ty=Tensor[(1, 3, 224, 4), int8] span=from_string:28:33 */, %x8: Tensor[(224), float32] /* ty=Tensor[(224), float32] span=from_string:53:53 */, %x9: Tensor[(224), float32] /* ty=Tensor[(224), float32] span=from_string:53:48 */, %x10: Tensor[(224), float32] /* ty=Tensor[(224), float32] span=from_string:53:42 */, %x11: Tensor[(224), float32] /* ty=Tensor[(224), float32] span=from_string:53:36 */) -> (Tensor[(1, 3, 224, 224), float16], Tensor[(1, 3, 224, 224), float32], Tensor[(1, 3, 224, 349), int8], Tensor[(1, 3, 224, 224), float32], Tensor[(3, 3, 3, 3), float32], Tensor[(1, 224, 3, 224), float32], Tensor[(1, 1, 3, 224, 224), int8]) {
  let %x_0: float32 /* ty=float32 span=from_string:5:34 */ = 0.1f /* ty=float32 span=from_string:3:18 */;
  let %x_1: int32 /* ty=int32 span=from_string:5:40 */ = 0 /* ty=int32 span=from_string:4:15 */;
  let %x_2: Tensor[(1, 3, 224, 224), float32] /* ty=Tensor[(1, 3, 224, 224), float32] span=from_string:45:25 */ = qnn.dequantize(%x0, %x_0, %x_1) /* ty=Tensor[(1, 3, 224, 224), float32] span=from_string:5:14 */;
  let %x_3: Tensor[(1, 3, 224, 224), float32] /* ty=Tensor[(1, 3, 224, 224), float32] span=from_string:10:18 */ = nn.softmax(%x_2) /* ty=Tensor[(1, 3, 224, 224), float32] span=from_string:6:14 */;
  let %x_4: Tensor[(1, 3, 224, 224), float16] /* ty=Tensor[(1, 3, 224, 224), float16] span=from_string:57:16 */ = cast(%x_3, dtype="float16") /* ty=Tensor[(1, 3, 224, 224), float16] span=from_string:7:14 */;
  let %x_5: float32 /* ty=float32 span=from_string:11:18 */ = 2f /* ty=float32 span=from_string:8:16 */;
  let %x_6: Tensor[(1), float32] /* ty=Tensor[(1), float32] span=from_string:10:24 */ = zeros(shape=[1], dtype="float32") /* ty=Tensor[(1), float32] span=from_string:9:14 */;
  let %x_7: Tensor[(1, 3, 224, 224), float32] /* ty=Tensor[(1, 3, 224, 224), float32] span=from_string:11:24 */ = add(%x_3, %x_6) /* ty=Tensor[(1, 3, 224, 224), float32] span=from_string:10:14 */;
  let %x_8: Tensor[(1, 3, 224, 224), float32] /* ty=Tensor[(1, 3, 224, 224), float32] span=from_string:13:19 */ = add(%x_5, %x_7) /* ty=Tensor[(1, 3, 224, 224), float32] span=from_string:11:14 */;
  let %x_9: float32 /* ty=float32 span=from_string:13:25 */ = 1f /* ty=float32 span=from_string:12:16 */;
  let %x_10: Tensor[(1, 3, 224, 224), float32] /* ty=Tensor[(1, 3, 224, 224), float32] span=from_string:14:25 */ = add(%x_8, %x_9) /* ty=Tensor[(1, 3, 224, 224), float32] span=from_string:13:15 */;
  let %x_11: Tensor[(1, 3, 224, 224), float32] /* ty=Tensor[(1, 3, 224, 224), float32] span=from_string:17:19 */ = nn.conv2d(%x_10, %x2, padding=[1, 1, 1, 1], channels=3, kernel_size=[3, 3]) /* ty=Tensor[(1, 3, 224, 224), float32] span=from_string:14:15 */;
  let %x_12: float32 /* ty=float32 span=from_string:16:19 */ = 1f /* ty=float32 span=from_string:15:17 */;
  let %x_13: Tensor[(1, 3, 224, 224), float32] /* ty=Tensor[(1, 3, 224, 224), float32] span=from_string:17:26 */ = add(%x_12, %x_11) /* ty=Tensor[(1, 3, 224, 224), float32] span=from_string:16:15 */;
  let %x_14: Tensor[(1, 3, 224, 224), float32] /* ty=Tensor[(1, 3, 224, 224), float32] span=from_string:19:25 */ = add(%x_11, %x_13) /* ty=Tensor[(1, 3, 224, 224), float32] span=from_string:17:15 */;
  let %x_15: Tensor[(1, 3, 224, 224), float32] /* ty=Tensor[(1, 3, 224, 224), float32] span=from_string:20:19 */ = nn.conv2d(%x_14, %x3, padding=[0, 0, 0, 0], channels=3, kernel_size=[1, 1]) /* ty=Tensor[(1, 3, 224, 224), float32] span=from_string:18:15 */;
  let %x_16: Tensor[(1, 3, 224, 224), float32] /* ty=Tensor[(1, 3, 224, 224), float32] span=from_string:20:26 */ = nn.conv2d(%x_14, %x4, padding=[1, 1, 1, 1], channels=3, kernel_size=[3, 3]) /* ty=Tensor[(1, 3, 224, 224), float32] span=from_string:19:15 */;
  let %x_17: Tensor[(1, 3, 224, 224), float32] /* ty=Tensor[(1, 3, 224, 224), float32] span=from_string:57:22 */ = add(%x_15, %x_16) /* ty=Tensor[(1, 3, 224, 224), float32] span=from_string:20:15 */;
  let %x_18: float32 /* ty=float32 span=from_string:27:34 */ = 0.1f /* ty=float32 span=from_string:21:19 */;
  let %x_19: int32 /* ty=int32 span=from_string:27:41 */ = 0 /* ty=int32 span=from_string:22:16 */;
  let %x_20: float32 /* ty=float32 span=from_string:27:48 */ = 0.2f /* ty=float32 span=from_string:23:19 */;
  let %x_21: int32 /* ty=int32 span=from_string:27:55 */ = 0 /* ty=int32 span=from_string:24:16 */;
  let %x_22: float32 /* ty=float32 span=from_string:27:62 */ = 20f /* ty=float32 span=from_string:25:18 */;
  let %x_23: int32 /* ty=int32 span=from_string:27:69 */ = 0 /* ty=int32 span=from_string:26:16 */;
  let %x_24: Tensor[(1, 3, 224, 224), int8] /* ty=Tensor[(1, 3, 224, 224), int8] span=from_string:56:27 */ = qnn.mul(%x0, %x1, %x_18, %x_19, %x_20, %x_21, %x_22, %x_23) /* ty=Tensor[(1, 3, 224, 224), int8] span=from_string:27:15 */;
  let %x_25: (Tensor[(1, 3, 224, 224), int8], Tensor[(1, 3, 224, 89), int8], Tensor[(1, 3, 224, 32), int8], Tensor[(1, 3, 224, 4), int8]) /* ty=(Tensor[(1, 3, 224, 224), int8], Tensor[(1, 3, 224, 89), int8], Tensor[(1, 3, 224, 32), int8], Tensor[(1, 3, 224, 4), int8]) span=from_string:41:31 */ = (%x_24, %x5, %x6, %x7) /* ty=(Tensor[(1, 3, 224, 224), int8], Tensor[(1, 3, 224, 89), int8], Tensor[(1, 3, 224, 32), int8], Tensor[(1, 3, 224, 4), int8]) span=from_string:28:15 */;
  let %x_26: float32 /* ty=float32 span=from_string:33:16 */ = 0.5f /* ty=float32 span=from_string:29:19 */;
  let %x_27: float32 /* ty=float32 span=from_string:33:23 */ = 1.5f /* ty=float32 span=from_string:30:19 */;
  let %x_28: float32 /* ty=float32 span=from_string:33:30 */ = 2.5f /* ty=float32 span=from_string:31:19 */;
  let %x_29: float32 /* ty=float32 span=from_string:33:37 */ = 3.5f /* ty=float32 span=from_string:32:19 */;
  let %x_30: (float32, float32, float32, float32) /* ty=(float32, float32, float32, float32) span=from_string:41:38 */ = (%x_26, %x_27, %x_28, %x_29) /* ty=(float32, float32, float32, float32) span=from_string:33:15 */;
  let %x_31: int32 /* ty=int32 span=from_string:38:16 */ = 0 /* ty=int32 span=from_string:34:16 */;
  let %x_32: int32 /* ty=int32 span=from_string:38:23 */ = 0 /* ty=int32 span=from_string:35:16 */;
  let %x_33: int32 /* ty=int32 span=from_string:38:30 */ = 0 /* ty=int32 span=from_string:36:16 */;
  let %x_34: int32 /* ty=int32 span=from_string:38:37 */ = 0 /* ty=int32 span=from_string:37:16 */;
  let %x_35: (int32, int32, int32, int32) /* ty=(int32, int32, int32, int32) span=from_string:41:45 */ = (%x_31, %x_32, %x_33, %x_34) /* ty=(int32, int32, int32, int32) span=from_string:38:15 */;
  let %x_36: float32 /* ty=float32 span=from_string:41:52 */ = 3.5f /* ty=float32 span=from_string:39:19 */;
  let %x_37: int32 /* ty=int32 span=from_string:41:59 */ = 0 /* ty=int32 span=from_string:40:16 */;
  let %x_38: Tensor[(1, 3, 224, 349), int8] /* ty=Tensor[(1, 3, 224, 349), int8] span=from_string:57:29 */ = qnn.concatenate(%x_25, %x_30, %x_35, %x_36, %x_37, axis=-1) /* ty=Tensor[(1, 3, 224, 349), int8] span=from_string:41:15 */;
  let %x_39: float32 /* ty=float32 span=from_string:44:35 */ = 0.2f /* ty=float32 span=from_string:42:19 */;
  let %x_40: int32 /* ty=int32 span=from_string:44:42 */ = 0 /* ty=int32 span=from_string:43:16 */;
  let %x_41: Tensor[(1, 3, 224, 224), float32] /* ty=Tensor[(1, 3, 224, 224), float32] span=from_string:45:31 */ = qnn.dequantize(%x1, %x_39, %x_40) /* ty=Tensor[(1, 3, 224, 224), float32] span=from_string:44:15 */;
  let %x_42: Tensor[(1, 3, 224, 224), float32] /* ty=Tensor[(1, 3, 224, 224), float32] span=from_string:46:32 */ = multiply(%x_2, %x_41) /* ty=Tensor[(1, 3, 224, 224), float32] span=from_string:45:16 */;
  let %x_43: Tensor[(1, 224, 3, 224), float32] /* ty=Tensor[(1, 224, 3, 224), float32] span=from_string:47:32 */ = layout_transform(%x_42, src_layout="NHWC", dst_layout="NCHW") /* ty=Tensor[(1, 224, 3, 224), float32] span=from_string:46:15 */;
  let %x_44: Tensor[(1, 56, 3, 224, 4), float32] /* ty=Tensor[(1, 56, 3, 224, 4), float32] span=from_string:48:23 */ = layout_transform(%x_43, src_layout="NCHW", dst_layout="NCHW4c") /* ty=Tensor[(1, 56, 3, 224, 4), float32] span=from_string:47:15 */;
  let %x_45: Tensor[(1, 56, 3, 224, 4), float32] /* ty=Tensor[(1, 56, 3, 224, 4), float32] span=from_string:49:32 */ = nn.relu(%x_44) /* ty=Tensor[(1, 56, 3, 224, 4), float32] span=from_string:48:15 */;
  let %x_46: Tensor[(1, 224, 3, 224), float32] /* ty=Tensor[(1, 224, 3, 224), float32] span=from_string:53:29 */ = layout_transform(%x_45, src_layout="NCHW4c", dst_layout="NCHW") /* ty=Tensor[(1, 224, 3, 224), float32] span=from_string:49:15 */;
  let %x_47: Tensor[(1, 3, 224, 224), float32] /* ty=Tensor[(1, 3, 224, 224), float32] span=from_string:57:36 */ = layout_transform(%x_46, src_layout="NCHW", dst_layout="NHWC") /* ty=Tensor[(1, 3, 224, 224), float32] span=from_string:50:15 */;
  let %x_48: float32 /* ty=float32 span=from_string:52:19 */ = 2f /* ty=float32 span=from_string:51:17 */;
  let %x_49: Tensor[(3, 3, 3, 3), float32] /* ty=Tensor[(3, 3, 3, 3), float32] span=from_string:57:43 */ = add(%x_48, %x4) /* ty=Tensor[(3, 3, 3, 3), float32] span=from_string:52:15 */;
  let %x_50: (Tensor[(1, 224, 3, 224), float32], Tensor[(224), float32], Tensor[(224), float32]) /* ty=(Tensor[(1, 224, 3, 224), float32], Tensor[(224), float32], Tensor[(224), float32]) span=from_string:54:15 */ = nn.batch_norm(%x_46, %x11, %x10, %x9, %x8) /* ty=(Tensor[(1, 224, 3, 224), float32], Tensor[(224), float32], Tensor[(224), float32]) span=from_string:53:15 */;
  let %x_51: Tensor[(1, 224, 3, 224), float32] /* ty=Tensor[(1, 224, 3, 224), float32] span=from_string:55:26 */ = %x_50.0 /* ty=Tensor[(1, 224, 3, 224), float32] span=from_string:54:15 */;
  let %x_52: Tensor[(1, 224, 3, 224), float32] /* ty=Tensor[(1, 224, 3, 224), float32] span=from_string:57:50 */ = add(%x_51, %x_51) /* ty=Tensor[(1, 224, 3, 224), float32] span=from_string:55:15 */;
  let %x_53: Tensor[(1, 1, 3, 224, 224), int8] /* ty=Tensor[(1, 1, 3, 224, 224), int8] span=from_string:57:57 */ = expand_dims(%x_24, axis=1) /* ty=Tensor[(1, 1, 3, 224, 224), int8] span=from_string:56:15 */;
  let %x_54: (Tensor[(1, 3, 224, 224), float16], Tensor[(1, 3, 224, 224), float32], Tensor[(1, 3, 224, 349), int8], Tensor[(1, 3, 224, 224), float32], Tensor[(3, 3, 3, 3), float32], Tensor[(1, 224, 3, 224), float32], Tensor[(1, 1, 3, 224, 224), int8]) /* ty=(Tensor[(1, 3, 224, 224), float16], Tensor[(1, 3, 224, 224), float32], Tensor[(1, 3, 224, 349), int8], Tensor[(1, 3, 224, 224), float32], Tensor[(3, 3, 3, 3), float32], Tensor[(1, 224, 3, 224), float32], Tensor[(1, 1, 3, 224, 224), int8]) span=from_string:58:3 */ = (%x_4, %x_17, %x_38, %x_47, %x_49, %x_52, %x_53) /* ty=(Tensor[(1, 3, 224, 224), float16], Tensor[(1, 3, 224, 224), float32], Tensor[(1, 3, 224, 349), int8], Tensor[(1, 3, 224, 224), float32], Tensor[(3, 3, 3, 3), float32], Tensor[(1, 224, 3, 224), float32], Tensor[(1, 1, 3, 224, 224), int8]) span=from_string:57:15 */;
  %x_54
}
