#[version = "0.0.5"]
def @main(%x0: Tensor[(1, 3, 224, 224), int8] /* ty=Tensor[(1, 3, 224, 224), int8] span=from_string:27:121 */, %x1: Tensor[(1, 3, 224, 224), int8] /* ty=Tensor[(1, 3, 224, 224), int8] span=from_string:44:131 */, %x2: Tensor[(3, 3, 3, 3), float32] /* ty=Tensor[(3, 3, 3, 3), float32] span=from_string:14:133 */, %x3: Tensor[(3, 3, 1, 1), float32] /* ty=Tensor[(3, 3, 1, 1), float32] span=from_string:18:133 */, %x4: Tensor[(3, 3, 3, 3), float32] /* ty=Tensor[(3, 3, 3, 3), float32] span=from_string:52:119 */, %x5: Tensor[(1, 3, 224, 89), int8] /* ty=Tensor[(1, 3, 224, 89), int8] span=from_string:28:314 */, %x6: Tensor[(1, 3, 224, 32), int8] /* ty=Tensor[(1, 3, 224, 32), int8] span=from_string:28:319 */, %x7: Tensor[(1, 3, 224, 4), int8] /* ty=Tensor[(1, 3, 224, 4), int8] span=from_string:28:324 */, %x8: Tensor[(224), float32] /* ty=Tensor[(224), float32] span=from_string:53:254 */, %x9: Tensor[(224), float32] /* ty=Tensor[(224), float32] span=from_string:53:249 */, %x10: Tensor[(224), float32] /* ty=Tensor[(224), float32] span=from_string:53:243 */, %x11: Tensor[(224), float32] /* ty=Tensor[(224), float32] span=from_string:53:237 */) -> (Tensor[(1, 3, 224, 224), float16], Tensor[(1, 3, 224, 224), float32], Tensor[(1, 3, 224, 349), int8], Tensor[(1, 3, 224, 224), float32], Tensor[(3, 3, 3, 3), float32], Tensor[(1, 224, 3, 224), float32], Tensor[(1, 1, 3, 224, 224), int8]) {
  let %x_0: float32 /* ty=float32 span=from_string:5:135 */ = 0.1f /* ty=float32 span=from_string:3:66 */;
  let %x_1: int32 /* ty=int32 span=from_string:5:141 */ = 0 /* ty=int32 span=from_string:4:61 */;
  let %x_2: Tensor[(1, 3, 224, 224), float32] /* ty=Tensor[(1, 3, 224, 224), float32] span=from_string:45:126 */ = qnn.dequantize(%x0, %x_0, %x_1) /* ty=Tensor[(1, 3, 224, 224), float32] span=from_string:5:115 */;
  let %x_3: Tensor[(1, 3, 224, 224), float32] /* ty=Tensor[(1, 3, 224, 224), float32] span=from_string:10:119 */ = nn.softmax(%x_2) /* ty=Tensor[(1, 3, 224, 224), float32] span=from_string:6:115 */;
  let %x_4: Tensor[(1, 3, 224, 224), float16] /* ty=Tensor[(1, 3, 224, 224), float16] span=from_string:57:530 */ = cast(%x_3, dtype="float16") /* ty=Tensor[(1, 3, 224, 224), float16] span=from_string:7:115 */;
  let %x_5: float32 /* ty=float32 span=from_string:11:119 */ = 2f /* ty=float32 span=from_string:8:65 */;
  let %x_6: Tensor[(1), float32] /* ty=Tensor[(1), float32] span=from_string:10:125 */ = zeros(shape=[1], dtype="float32") /* ty=Tensor[(1), float32] span=from_string:9:89 */;
  let %x_7: Tensor[(1, 3, 224, 224), float32] /* ty=Tensor[(1, 3, 224, 224), float32] span=from_string:11:125 */ = add(%x_3, %x_6) /* ty=Tensor[(1, 3, 224, 224), float32] span=from_string:10:115 */;
  let %x_8: Tensor[(1, 3, 224, 224), float32] /* ty=Tensor[(1, 3, 224, 224), float32] span=from_string:13:120 */ = add(%x_5, %x_7) /* ty=Tensor[(1, 3, 224, 224), float32] span=from_string:11:115 */;
  let %x_9: float32 /* ty=float32 span=from_string:13:126 */ = 1f /* ty=float32 span=from_string:12:65 */;
  let %x_10: Tensor[(1, 3, 224, 224), float32] /* ty=Tensor[(1, 3, 224, 224), float32] span=from_string:14:126 */ = add(%x_8, %x_9) /* ty=Tensor[(1, 3, 224, 224), float32] span=from_string:13:116 */;
  let %x_11: Tensor[(1, 3, 224, 224), float32] /* ty=Tensor[(1, 3, 224, 224), float32] span=from_string:17:120 */ = nn.conv2d(%x_10, %x2, padding=[1, 1, 1, 1], channels=3, kernel_size=[3, 3]) /* ty=Tensor[(1, 3, 224, 224), float32] span=from_string:14:116 */;
  let %x_12: float32 /* ty=float32 span=from_string:16:120 */ = 1f /* ty=float32 span=from_string:15:66 */;
  let %x_13: Tensor[(1, 3, 224, 224), float32] /* ty=Tensor[(1, 3, 224, 224), float32] span=from_string:17:127 */ = add(%x_12, %x_11) /* ty=Tensor[(1, 3, 224, 224), float32] span=from_string:16:116 */;
  let %x_14: Tensor[(1, 3, 224, 224), float32] /* ty=Tensor[(1, 3, 224, 224), float32] span=from_string:19:126 */ = add(%x_11, %x_13) /* ty=Tensor[(1, 3, 224, 224), float32] span=from_string:17:116 */;
  let %x_15: Tensor[(1, 3, 224, 224), float32] /* ty=Tensor[(1, 3, 224, 224), float32] span=from_string:20:120 */ = nn.conv2d(%x_14, %x3, padding=[0, 0, 0, 0], channels=3, kernel_size=[1, 1]) /* ty=Tensor[(1, 3, 224, 224), float32] span=from_string:18:116 */;
  let %x_16: Tensor[(1, 3, 224, 224), float32] /* ty=Tensor[(1, 3, 224, 224), float32] span=from_string:20:127 */ = nn.conv2d(%x_14, %x4, padding=[1, 1, 1, 1], channels=3, kernel_size=[3, 3]) /* ty=Tensor[(1, 3, 224, 224), float32] span=from_string:19:116 */;
  let %x_17: Tensor[(1, 3, 224, 224), float32] /* ty=Tensor[(1, 3, 224, 224), float32] span=from_string:57:536 */ = add(%x_15, %x_16) /* ty=Tensor[(1, 3, 224, 224), float32] span=from_string:20:116 */;
  let %x_18: float32 /* ty=float32 span=from_string:27:131 */ = 0.1f /* ty=float32 span=from_string:21:68 */;
  let %x_19: int32 /* ty=int32 span=from_string:27:138 */ = 0 /* ty=int32 span=from_string:22:63 */;
  let %x_20: float32 /* ty=float32 span=from_string:27:145 */ = 0.2f /* ty=float32 span=from_string:23:68 */;
  let %x_21: int32 /* ty=int32 span=from_string:27:152 */ = 0 /* ty=int32 span=from_string:24:63 */;
  let %x_22: float32 /* ty=float32 span=from_string:27:159 */ = 20f /* ty=float32 span=from_string:25:67 */;
  let %x_23: int32 /* ty=int32 span=from_string:27:166 */ = 0 /* ty=int32 span=from_string:26:63 */;
  let %x_24: Tensor[(1, 3, 224, 224), int8] /* ty=Tensor[(1, 3, 224, 224), int8] span=from_string:56:130 */ = qnn.mul(%x0, %x1, %x_18, %x_19, %x_20, %x_21, %x_22, %x_23) /* ty=Tensor[(1, 3, 224, 224), int8] span=from_string:27:112 */;
  let %x_25: (Tensor[(1, 3, 224, 224), int8], Tensor[(1, 3, 224, 89), int8], Tensor[(1, 3, 224, 32), int8], Tensor[(1, 3, 224, 4), int8]) /* ty=(Tensor[(1, 3, 224, 224), int8], Tensor[(1, 3, 224, 89), int8], Tensor[(1, 3, 224, 32), int8], Tensor[(1, 3, 224, 4), int8]) span=from_string:41:128 */ = (%x_24, %x5, %x6, %x7) /* ty=(Tensor[(1, 3, 224, 224), int8], Tensor[(1, 3, 224, 89), int8], Tensor[(1, 3, 224, 32), int8], Tensor[(1, 3, 224, 4), int8]) span=from_string:28:306 */;
  let %x_26: float32 /* ty=float32 span=from_string:33:123 */ = 0.5f /* ty=float32 span=from_string:29:68 */;
  let %x_27: float32 /* ty=float32 span=from_string:33:130 */ = 1.5f /* ty=float32 span=from_string:30:68 */;
  let %x_28: float32 /* ty=float32 span=from_string:33:137 */ = 2.5f /* ty=float32 span=from_string:31:68 */;
  let %x_29: float32 /* ty=float32 span=from_string:33:144 */ = 3.5f /* ty=float32 span=from_string:32:68 */;
  let %x_30: (float32, float32, float32, float32) /* ty=(float32, float32, float32, float32) span=from_string:41:135 */ = (%x_26, %x_27, %x_28, %x_29) /* ty=(float32, float32, float32, float32) span=from_string:33:122 */;
  let %x_31: int32 /* ty=int32 span=from_string:38:115 */ = 0 /* ty=int32 span=from_string:34:63 */;
  let %x_32: int32 /* ty=int32 span=from_string:38:122 */ = 0 /* ty=int32 span=from_string:35:63 */;
  let %x_33: int32 /* ty=int32 span=from_string:38:129 */ = 0 /* ty=int32 span=from_string:36:63 */;
  let %x_34: int32 /* ty=int32 span=from_string:38:136 */ = 0 /* ty=int32 span=from_string:37:63 */;
  let %x_35: (int32, int32, int32, int32) /* ty=(int32, int32, int32, int32) span=from_string:41:142 */ = (%x_31, %x_32, %x_33, %x_34) /* ty=(int32, int32, int32, int32) span=from_string:38:114 */;
  let %x_36: float32 /* ty=float32 span=from_string:41:149 */ = 3.5f /* ty=float32 span=from_string:39:68 */;
  let %x_37: int32 /* ty=int32 span=from_string:41:156 */ = 0 /* ty=int32 span=from_string:40:63 */;
  let %x_38: Tensor[(1, 3, 224, 349), int8] /* ty=Tensor[(1, 3, 224, 349), int8] span=from_string:57:543 */ = qnn.concatenate(%x_25, %x_30, %x_35, %x_36, %x_37, axis=-1) /* ty=Tensor[(1, 3, 224, 349), int8] span=from_string:41:112 */;
  let %x_39: float32 /* ty=float32 span=from_string:44:136 */ = 0.2f /* ty=float32 span=from_string:42:68 */;
  let %x_40: int32 /* ty=int32 span=from_string:44:143 */ = 0 /* ty=int32 span=from_string:43:63 */;
  let %x_41: Tensor[(1, 3, 224, 224), float32] /* ty=Tensor[(1, 3, 224, 224), float32] span=from_string:45:132 */ = qnn.dequantize(%x1, %x_39, %x_40) /* ty=Tensor[(1, 3, 224, 224), float32] span=from_string:44:116 */;
  let %x_42: Tensor[(1, 3, 224, 224), float32] /* ty=Tensor[(1, 3, 224, 224), float32] span=from_string:46:133 */ = multiply(%x_2, %x_41) /* ty=Tensor[(1, 3, 224, 224), float32] span=from_string:45:117 */;
  let %x_43: Tensor[(1, 224, 3, 224), float32] /* ty=Tensor[(1, 224, 3, 224), float32] span=from_string:47:137 */ = layout_transform(%x_42, src_layout="NHWC", dst_layout="NCHW") /* ty=Tensor[(1, 224, 3, 224), float32] span=from_string:46:116 */;
  let %x_44: Tensor[(1, 56, 3, 224, 4), float32] /* ty=Tensor[(1, 56, 3, 224, 4), float32] span=from_string:48:128 */ = layout_transform(%x_43, src_layout="NCHW", dst_layout="NCHW4c") /* ty=Tensor[(1, 56, 3, 224, 4), float32] span=from_string:47:120 */;
  let %x_45: Tensor[(1, 56, 3, 224, 4), float32] /* ty=Tensor[(1, 56, 3, 224, 4), float32] span=from_string:49:133 */ = nn.relu(%x_44) /* ty=Tensor[(1, 56, 3, 224, 4), float32] span=from_string:48:120 */;
  let %x_46: Tensor[(1, 224, 3, 224), float32] /* ty=Tensor[(1, 224, 3, 224), float32] span=from_string:53:230 */ = layout_transform(%x_45, src_layout="NCHW4c", dst_layout="NCHW") /* ty=Tensor[(1, 224, 3, 224), float32] span=from_string:49:116 */;
  let %x_47: Tensor[(1, 3, 224, 224), float32] /* ty=Tensor[(1, 3, 224, 224), float32] span=from_string:57:550 */ = layout_transform(%x_46, src_layout="NCHW", dst_layout="NHWC") /* ty=Tensor[(1, 3, 224, 224), float32] span=from_string:50:116 */;
  let %x_48: float32 /* ty=float32 span=from_string:52:112 */ = 2f /* ty=float32 span=from_string:51:66 */;
  let %x_49: Tensor[(3, 3, 3, 3), float32] /* ty=Tensor[(3, 3, 3, 3), float32] span=from_string:57:557 */ = add(%x_48, %x4) /* ty=Tensor[(3, 3, 3, 3), float32] span=from_string:52:108 */;
  let %x_50: (Tensor[(1, 224, 3, 224), float32], Tensor[(224), float32], Tensor[(224), float32]) /* ty=(Tensor[(1, 224, 3, 224), float32], Tensor[(224), float32], Tensor[(224), float32]) span=from_string:54:116 */ = nn.batch_norm(%x_46, %x11, %x10, %x9, %x8) /* ty=(Tensor[(1, 224, 3, 224), float32], Tensor[(224), float32], Tensor[(224), float32]) span=from_string:53:216 */;
  let %x_51: Tensor[(1, 224, 3, 224), float32] /* ty=Tensor[(1, 224, 3, 224), float32] span=from_string:55:127 */ = %x_50.0 /* ty=Tensor[(1, 224, 3, 224), float32] span=from_string:54:116 */;
  let %x_52: Tensor[(1, 224, 3, 224), float32] /* ty=Tensor[(1, 224, 3, 224), float32] span=from_string:57:564 */ = add(%x_51, %x_51) /* ty=Tensor[(1, 224, 3, 224), float32] span=from_string:55:116 */;
  let %x_53: Tensor[(1, 1, 3, 224, 224), int8] /* ty=Tensor[(1, 1, 3, 224, 224), int8] span=from_string:57:571 */ = expand_dims(%x_24, axis=1) /* ty=Tensor[(1, 1, 3, 224, 224), int8] span=from_string:56:118 */;
  let %x_54: (Tensor[(1, 3, 224, 224), float16], Tensor[(1, 3, 224, 224), float32], Tensor[(1, 3, 224, 349), int8], Tensor[(1, 3, 224, 224), float32], Tensor[(3, 3, 3, 3), float32], Tensor[(1, 224, 3, 224), float32], Tensor[(1, 1, 3, 224, 224), int8]) /* ty=(Tensor[(1, 3, 224, 224), float16], Tensor[(1, 3, 224, 224), float32], Tensor[(1, 3, 224, 349), int8], Tensor[(1, 3, 224, 224), float32], Tensor[(3, 3, 3, 3), float32], Tensor[(1, 224, 3, 224), float32], Tensor[(1, 1, 3, 224, 224), int8]) span=from_string:58:3 */ = (%x_4, %x_17, %x_38, %x_47, %x_49, %x_52, %x_53) /* ty=(Tensor[(1, 3, 224, 224), float16], Tensor[(1, 3, 224, 224), float32], Tensor[(1, 3, 224, 349), int8], Tensor[(1, 3, 224, 224), float32], Tensor[(3, 3, 3, 3), float32], Tensor[(1, 224, 3, 224), float32], Tensor[(1, 1, 3, 224, 224), int8]) span=from_string:57:529 */;
  %x_54
}
