#[version = "0.0.5"]
def @main(%x0: Tensor[(1, 3, 224, 224), int8] /* ty=Tensor[(1, 3, 224, 224), int8] span=from_string:6:119 */, %x1: Tensor[(1, 3, 224, 224), int8] /* ty=Tensor[(1, 3, 224, 224), int8] span=from_string:58:121 */, %x2: Tensor[(3, 3, 3, 3), float32] /* ty=Tensor[(3, 3, 3, 3), float32] span=from_string:34:126 */, %x3: Tensor[(3, 3, 1, 1), float32] /* ty=Tensor[(3, 3, 1, 1), float32] span=from_string:46:128 */, %x4: Tensor[(3, 3, 3, 3), float32] /* ty=Tensor[(3, 3, 3, 3), float32] span=from_string:115:114 */, %x5: Tensor[(1, 3, 224, 89), int8] /* ty=Tensor[(1, 3, 224, 89), int8] span=from_string:74:119 */, %x6: Tensor[(1, 3, 224, 32), int8] /* ty=Tensor[(1, 3, 224, 32), int8] span=from_string:78:119 */, %x7: Tensor[(1, 3, 224, 4), int8] /* ty=Tensor[(1, 3, 224, 4), int8] span=from_string:82:117 */, %x8: Tensor[(224), float32] /* ty=Tensor[(224), float32] span=from_string:119:246 */, %x9: Tensor[(224), float32] /* ty=Tensor[(224), float32] span=from_string:119:241 */, %x10: Tensor[(224), float32] /* ty=Tensor[(224), float32] span=from_string:119:235 */, %x11: Tensor[(224), float32] /* ty=Tensor[(224), float32] span=from_string:119:229 */) -> (Tensor[(1, 3, 224, 224), float16], Tensor[(1, 3, 224, 224), float32], Tensor[(1, 3, 224, 349), int8], Tensor[(1, 3, 224, 224), float32], Tensor[(3, 3, 3, 3), float32], Tensor[(1, 224, 3, 224), float32], Tensor[(1, 1, 3, 224, 224), int8]) {
  %0 = fn (%p0: Tensor[(1, 3, 224, 224), int8] /* ty=Tensor[(1, 3, 224, 224), int8] span=from_string:4:20 */, Primitive=1) -> Tensor[(1, 3, 224, 224), float32] {
    qnn.dequantize(%p0, 0.1f /* ty=float32 span=from_string:4:29 */, 0 /* ty=int32 span=from_string:4:71 */) /* ty=Tensor[(1, 3, 224, 224), float32] span=from_string:4:5 */
  } /* ty=fn (Tensor[(1, 3, 224, 224), int8]) -> Tensor[(1, 3, 224, 224), float32] span=from_string:6:116 */;
  let %x_3: Tensor[(1, 3, 224, 224), float32] /* ty=Tensor[(1, 3, 224, 224), float32] span=from_string:62:121 */ = %0(%x0) /* ty=Tensor[(1, 3, 224, 224), float32] span=from_string:6:116 */;
  %1 = fn (%p01: Tensor[(1, 3, 224, 224), float32] /* ty=Tensor[(1, 3, 224, 224), float32] span=from_string:8:16 */, Primitive=1) -> Tensor[(1, 3, 224, 224), float32] {
    nn.fast_softmax(%p01) /* ty=Tensor[(1, 3, 224, 224), float32] */
  } /* ty=fn (Tensor[(1, 3, 224, 224), float32]) -> Tensor[(1, 3, 224, 224), float32] span=from_string:10:116 */;
  let %x_4: Tensor[(1, 3, 224, 224), float32] /* ty=Tensor[(1, 3, 224, 224), float32] span=from_string:26:120 */ = %1(%x_3) /* ty=Tensor[(1, 3, 224, 224), float32] span=from_string:10:116 */;
  %2 = fn (Primitive=1) -> Tensor[(1), float32] {
    zeros(shape=[1], dtype="float32") /* ty=Tensor[(1), float32] span=from_string:12:5 */
  } /* ty=fn () -> Tensor[(1), float32] span=from_string:14:90 */;
  let %x_5: Tensor[(1), float32] /* ty=Tensor[(1), float32] span=from_string:18:125 */ = %2() /* ty=Tensor[(1), float32] span=from_string:14:90 */;
  %3 = fn (%p02: Tensor[(1, 3, 224, 224), float32] /* ty=Tensor[(1, 3, 224, 224), float32] span=from_string:16:9 */, %p1: Tensor[(1), float32] /* ty=Tensor[(1), float32] span=from_string:16:15 */, Primitive=1) -> Tensor[(1, 3, 224, 224), float32] {
    add(%p02, %p1) /* ty=Tensor[(1, 3, 224, 224), float32] span=from_string:16:5 */
  } /* ty=fn (Tensor[(1, 3, 224, 224), float32], Tensor[(1), float32]) -> Tensor[(1, 3, 224, 224), float32] span=from_string:18:116 */;
  let %x_6: Tensor[(1, 3, 224, 224), float32] /* ty=Tensor[(1, 3, 224, 224), float32] span=from_string:22:119 */ = %3(%x_4, %x_5) /* ty=Tensor[(1, 3, 224, 224), float32] span=from_string:18:116 */;
  %4 = fn (%p03: Tensor[(1, 3, 224, 224), float32] /* ty=Tensor[(1, 3, 224, 224), float32] span=from_string:20:53 */, Primitive=1) -> Tensor[(1, 3, 224, 224), float32] {
    add(2f /* ty=float32 span=from_string:20:11 */, %p03) /* ty=Tensor[(1, 3, 224, 224), float32] span=from_string:20:5 */
  } /* ty=fn (Tensor[(1, 3, 224, 224), float32]) -> Tensor[(1, 3, 224, 224), float32] span=from_string:22:116 */;
  let %x14: Tensor[(1, 3, 224, 224), float32] /* ty=Tensor[(1, 3, 224, 224), float32] span=from_string:30:119 */ = %4(%x_6) /* ty=Tensor[(1, 3, 224, 224), float32] span=from_string:22:116 */;
  %5 = fn (%p04: Tensor[(1, 3, 224, 224), float32] /* ty=Tensor[(1, 3, 224, 224), float32] span=from_string:24:10 */, Primitive=1) -> Tensor[(1, 3, 224, 224), float16] {
    cast(%p04, dtype="float16") /* ty=Tensor[(1, 3, 224, 224), float16] span=from_string:24:5 */
  } /* ty=fn (Tensor[(1, 3, 224, 224), float32]) -> Tensor[(1, 3, 224, 224), float16] span=from_string:26:117 */;
  let %x_7: Tensor[(1, 3, 224, 224), float16] /* ty=Tensor[(1, 3, 224, 224), float16] span=from_string:138:533 */ = %5(%x_4) /* ty=Tensor[(1, 3, 224, 224), float16] span=from_string:26:117 */;
  %6 = fn (%p05: Tensor[(1, 3, 224, 224), float32] /* ty=Tensor[(1, 3, 224, 224), float32] span=from_string:28:9 */, Primitive=1) -> Tensor[(1, 3, 224, 224), float32] {
    add(%p05, 1f /* ty=float32 span=from_string:28:17 */) /* ty=Tensor[(1, 3, 224, 224), float32] span=from_string:28:5 */
  } /* ty=fn (Tensor[(1, 3, 224, 224), float32]) -> Tensor[(1, 3, 224, 224), float32] span=from_string:30:116 */;
  let %x_9: Tensor[(1, 3, 224, 224), float32] /* ty=Tensor[(1, 3, 224, 224), float32] span=from_string:34:120 */ = %6(%x14) /* ty=Tensor[(1, 3, 224, 224), float32] span=from_string:30:116 */;
  %7 = fn (%p06: Tensor[(1, 3, 224, 224), float32] /* ty=Tensor[(1, 3, 224, 224), float32] span=from_string:32:15 */, %p11: Tensor[(3, 3, 3, 3), float32] /* ty=Tensor[(3, 3, 3, 3), float32] span=from_string:32:21 */, Primitive=1) -> Tensor[(1, 3, 224, 224), float32] {
    nn.conv2d(%p06, %p11, padding=[1, 1, 1, 1], channels=3, kernel_size=[3, 3]) /* ty=Tensor[(1, 3, 224, 224), float32] span=from_string:32:5 */
  } /* ty=fn (Tensor[(1, 3, 224, 224), float32], Tensor[(3, 3, 3, 3), float32]) -> Tensor[(1, 3, 224, 224), float32] span=from_string:34:117 */;
  let %x_10: Tensor[(1, 3, 224, 224), float32] /* ty=Tensor[(1, 3, 224, 224), float32] span=from_string:42:120 */ = %7(%x_9, %x2) /* ty=Tensor[(1, 3, 224, 224), float32] span=from_string:34:117 */;
  %8 = fn (%p07: Tensor[(1, 3, 224, 224), float32] /* ty=Tensor[(1, 3, 224, 224), float32] span=from_string:36:53 */, Primitive=1) -> Tensor[(1, 3, 224, 224), float32] {
    add(1f /* ty=float32 span=from_string:36:11 */, %p07) /* ty=Tensor[(1, 3, 224, 224), float32] span=from_string:36:5 */
  } /* ty=fn (Tensor[(1, 3, 224, 224), float32]) -> Tensor[(1, 3, 224, 224), float32] span=from_string:38:117 */;
  let %x_12: Tensor[(1, 3, 224, 224), float32] /* ty=Tensor[(1, 3, 224, 224), float32] span=from_string:42:127 */ = %8(%x_10) /* ty=Tensor[(1, 3, 224, 224), float32] span=from_string:38:117 */;
  %9 = fn (%p08: Tensor[(1, 3, 224, 224), float32] /* ty=Tensor[(1, 3, 224, 224), float32] span=from_string:40:9 */, %p12: Tensor[(1, 3, 224, 224), float32] /* ty=Tensor[(1, 3, 224, 224), float32] span=from_string:40:15 */, Primitive=1) -> Tensor[(1, 3, 224, 224), float32] {
    add(%p08, %p12) /* ty=Tensor[(1, 3, 224, 224), float32] span=from_string:40:5 */
  } /* ty=fn (Tensor[(1, 3, 224, 224), float32], Tensor[(1, 3, 224, 224), float32]) -> Tensor[(1, 3, 224, 224), float32] span=from_string:42:117 */;
  let %x_13: Tensor[(1, 3, 224, 224), float32] /* ty=Tensor[(1, 3, 224, 224), float32] span=from_string:50:121 */ = %9(%x_10, %x_12) /* ty=Tensor[(1, 3, 224, 224), float32] span=from_string:42:117 */;
  %10 = fn (%p09: Tensor[(1, 3, 224, 224), float32] /* ty=Tensor[(1, 3, 224, 224), float32] span=from_string:44:15 */, %p13: Tensor[(3, 3, 1, 1), float32] /* ty=Tensor[(3, 3, 1, 1), float32] span=from_string:44:21 */, Primitive=1) -> Tensor[(1, 3, 224, 224), float32] {
    nn.conv2d(%p09, %p13, padding=[0, 0, 0, 0], channels=3, kernel_size=[1, 1]) /* ty=Tensor[(1, 3, 224, 224), float32] span=from_string:44:5 */
  } /* ty=fn (Tensor[(1, 3, 224, 224), float32], Tensor[(3, 3, 1, 1), float32]) -> Tensor[(1, 3, 224, 224), float32] span=from_string:46:117 */;
  let %x_14: Tensor[(1, 3, 224, 224), float32] /* ty=Tensor[(1, 3, 224, 224), float32] span=from_string:54:122 */ = %10(%x_13, %x3) /* ty=Tensor[(1, 3, 224, 224), float32] span=from_string:46:117 */;
  %11 = fn (%p010: Tensor[(1, 3, 224, 224), float32] /* ty=Tensor[(1, 3, 224, 224), float32] span=from_string:48:15 */, %p14: Tensor[(3, 3, 3, 3), float32] /* ty=Tensor[(3, 3, 3, 3), float32] span=from_string:48:22 */, Primitive=1) -> Tensor[(1, 3, 224, 224), float32] {
    nn.conv2d(%p010, %p14, padding=[1, 1, 1, 1], channels=3, kernel_size=[3, 3]) /* ty=Tensor[(1, 3, 224, 224), float32] span=from_string:48:5 */
  } /* ty=fn (Tensor[(1, 3, 224, 224), float32], Tensor[(3, 3, 3, 3), float32]) -> Tensor[(1, 3, 224, 224), float32] span=from_string:50:117 */;
  let %x_15: Tensor[(1, 3, 224, 224), float32] /* ty=Tensor[(1, 3, 224, 224), float32] span=from_string:54:129 */ = %11(%x_13, %x4) /* ty=Tensor[(1, 3, 224, 224), float32] span=from_string:50:117 */;
  %12 = fn (%p011: Tensor[(1, 3, 224, 224), float32] /* ty=Tensor[(1, 3, 224, 224), float32] span=from_string:52:9 */, %p15: Tensor[(1, 3, 224, 224), float32] /* ty=Tensor[(1, 3, 224, 224), float32] span=from_string:52:16 */, Primitive=1) -> Tensor[(1, 3, 224, 224), float32] {
    add(%p011, %p15) /* ty=Tensor[(1, 3, 224, 224), float32] span=from_string:52:5 */
  } /* ty=fn (Tensor[(1, 3, 224, 224), float32], Tensor[(1, 3, 224, 224), float32]) -> Tensor[(1, 3, 224, 224), float32] span=from_string:54:118 */;
  let %x_16: Tensor[(1, 3, 224, 224), float32] /* ty=Tensor[(1, 3, 224, 224), float32] span=from_string:138:539 */ = %12(%x_14, %x_15) /* ty=Tensor[(1, 3, 224, 224), float32] span=from_string:54:118 */;
  %13 = fn (%p012: Tensor[(1, 3, 224, 224), int8] /* ty=Tensor[(1, 3, 224, 224), int8] span=from_string:56:20 */, Primitive=1) -> Tensor[(1, 3, 224, 224), float32] {
    qnn.dequantize(%p012, 0.2f /* ty=float32 span=from_string:56:31 */, 0 /* ty=int32 span=from_string:56:74 */) /* ty=Tensor[(1, 3, 224, 224), float32] span=from_string:56:5 */
  } /* ty=fn (Tensor[(1, 3, 224, 224), int8]) -> Tensor[(1, 3, 224, 224), float32] span=from_string:58:117 */;
  let %x_19: Tensor[(1, 3, 224, 224), float32] /* ty=Tensor[(1, 3, 224, 224), float32] span=from_string:62:127 */ = %13(%x1) /* ty=Tensor[(1, 3, 224, 224), float32] span=from_string:58:117 */;
  %14 = fn (%p013: Tensor[(1, 3, 224, 224), float32] /* ty=Tensor[(1, 3, 224, 224), float32] span=from_string:60:15 */, %p16: Tensor[(1, 3, 224, 224), float32] /* ty=Tensor[(1, 3, 224, 224), float32] span=from_string:60:22 */, Primitive=1) -> Tensor[(1, 3, 224, 224), float32] {
    multiply(%p013, %p16) /* ty=Tensor[(1, 3, 224, 224), float32] span=from_string:60:6 */
  } /* ty=fn (Tensor[(1, 3, 224, 224), float32], Tensor[(1, 3, 224, 224), float32]) -> Tensor[(1, 3, 224, 224), float32] span=from_string:62:117 */;
  let %x_20: Tensor[(1, 3, 224, 224), float32] /* ty=Tensor[(1, 3, 224, 224), float32] span=from_string:95:121 */ = %14(%x_3, %x_19) /* ty=Tensor[(1, 3, 224, 224), float32] span=from_string:62:117 */;
  %15 = fn (%p014: Tensor[(1, 3, 224, 224), float32] /* ty=Tensor[(1, 3, 224, 224), float32] span=from_string:64:18 */, Primitive=1) -> Tensor[(1, 3, 224, 224), int8] {
    qnn.quantize(%p014, 20f /* ty=float32 span=from_string:64:28 */, 0 /* ty=int32 span=from_string:64:71 */, out_dtype="int8") /* ty=Tensor[(1, 3, 224, 224), int8] span=from_string:64:5 */
  } /* ty=fn (Tensor[(1, 3, 224, 224), float32]) -> Tensor[(1, 3, 224, 224), int8] span=from_string:66:114 */;
  let %x_23: Tensor[(1, 3, 224, 224), int8] /* ty=Tensor[(1, 3, 224, 224), int8] span=from_string:129:122 */ = %15(%x_20) /* ty=Tensor[(1, 3, 224, 224), int8] span=from_string:66:114 */;
  %16 = fn (%p015: Tensor[(1, 3, 224, 224), int8] /* ty=Tensor[(1, 3, 224, 224), int8] span=from_string:68:20 */, Primitive=1) -> Tensor[(1, 3, 224, 224), float32] {
    qnn.dequantize(%p015, 0.5f /* ty=float32 span=from_string:68:31 */, 0 /* ty=int32 span=from_string:68:74 */) /* ty=Tensor[(1, 3, 224, 224), float32] span=from_string:68:5 */
  } /* ty=fn (Tensor[(1, 3, 224, 224), int8]) -> Tensor[(1, 3, 224, 224), float32] span=from_string:70:117 */;
  let %x_26: Tensor[(1, 3, 224, 224), float32] /* ty=Tensor[(1, 3, 224, 224), float32] span=from_string:83:324 */ = %16(%x_23) /* ty=Tensor[(1, 3, 224, 224), float32] span=from_string:70:117 */;
  %17 = fn (%p016: Tensor[(1, 3, 224, 89), int8] /* ty=Tensor[(1, 3, 224, 89), int8] span=from_string:72:20 */, Primitive=1) -> Tensor[(1, 3, 224, 89), float32] {
    qnn.dequantize(%p016, 1.5f /* ty=float32 span=from_string:72:31 */, 0 /* ty=int32 span=from_string:72:74 */) /* ty=Tensor[(1, 3, 224, 89), float32] span=from_string:72:5 */
  } /* ty=fn (Tensor[(1, 3, 224, 89), int8]) -> Tensor[(1, 3, 224, 89), float32] span=from_string:74:115 */;
  let %x_29: Tensor[(1, 3, 224, 89), float32] /* ty=Tensor[(1, 3, 224, 89), float32] span=from_string:83:331 */ = %17(%x5) /* ty=Tensor[(1, 3, 224, 89), float32] span=from_string:74:115 */;
  %18 = fn (%p017: Tensor[(1, 3, 224, 32), int8] /* ty=Tensor[(1, 3, 224, 32), int8] span=from_string:76:20 */, Primitive=1) -> Tensor[(1, 3, 224, 32), float32] {
    qnn.dequantize(%p017, 2.5f /* ty=float32 span=from_string:76:31 */, 0 /* ty=int32 span=from_string:76:74 */) /* ty=Tensor[(1, 3, 224, 32), float32] span=from_string:76:5 */
  } /* ty=fn (Tensor[(1, 3, 224, 32), int8]) -> Tensor[(1, 3, 224, 32), float32] span=from_string:78:115 */;
  let %x_32: Tensor[(1, 3, 224, 32), float32] /* ty=Tensor[(1, 3, 224, 32), float32] span=from_string:83:338 */ = %18(%x6) /* ty=Tensor[(1, 3, 224, 32), float32] span=from_string:78:115 */;
  %19 = fn (%p018: Tensor[(1, 3, 224, 4), int8] /* ty=Tensor[(1, 3, 224, 4), int8] span=from_string:80:20 */, Primitive=1) -> Tensor[(1, 3, 224, 4), float32] {
    qnn.dequantize(%p018, 3.5f /* ty=float32 span=from_string:80:31 */, 0 /* ty=int32 span=from_string:80:74 */) /* ty=Tensor[(1, 3, 224, 4), float32] span=from_string:80:5 */
  } /* ty=fn (Tensor[(1, 3, 224, 4), int8]) -> Tensor[(1, 3, 224, 4), float32] span=from_string:82:113 */;
  let %x_35: Tensor[(1, 3, 224, 4), float32] /* ty=Tensor[(1, 3, 224, 4), float32] span=from_string:83:345 */ = %19(%x7) /* ty=Tensor[(1, 3, 224, 4), float32] span=from_string:82:113 */;
  let %x_36: (Tensor[(1, 3, 224, 224), float32], Tensor[(1, 3, 224, 89), float32], Tensor[(1, 3, 224, 32), float32], Tensor[(1, 3, 224, 4), float32]) /* ty=(Tensor[(1, 3, 224, 224), float32], Tensor[(1, 3, 224, 89), float32], Tensor[(1, 3, 224, 32), float32], Tensor[(1, 3, 224, 4), float32]) span=from_string:87:121 */ = (%x_26, %x_29, %x_32, %x_35) /* ty=(Tensor[(1, 3, 224, 224), float32], Tensor[(1, 3, 224, 89), float32], Tensor[(1, 3, 224, 32), float32], Tensor[(1, 3, 224, 4), float32]) span=from_string:83:323 */;
  %20 = fn (%p019: (Tensor[(1, 3, 224, 224), float32], Tensor[(1, 3, 224, 89), float32], Tensor[(1, 3, 224, 32), float32], Tensor[(1, 3, 224, 4), float32]) /* ty=(Tensor[(1, 3, 224, 224), float32], Tensor[(1, 3, 224, 89), float32], Tensor[(1, 3, 224, 32), float32], Tensor[(1, 3, 224, 4), float32]) span=from_string:85:17 */, Primitive=1) -> Tensor[(1, 3, 224, 349), float32] {
    concatenate(%p019, axis=-1) /* ty=Tensor[(1, 3, 224, 349), float32] span=from_string:85:5 */
  } /* ty=fn ((Tensor[(1, 3, 224, 224), float32], Tensor[(1, 3, 224, 89), float32], Tensor[(1, 3, 224, 32), float32], Tensor[(1, 3, 224, 4), float32])) -> Tensor[(1, 3, 224, 349), float32] span=from_string:87:117 */;
  let %x_37: Tensor[(1, 3, 224, 349), float32] /* ty=Tensor[(1, 3, 224, 349), float32] span=from_string:91:118 */ = %20(%x_36) /* ty=Tensor[(1, 3, 224, 349), float32] span=from_string:87:117 */;
  %21 = fn (%p020: Tensor[(1, 3, 224, 349), float32] /* ty=Tensor[(1, 3, 224, 349), float32] span=from_string:89:18 */, Primitive=1) -> Tensor[(1, 3, 224, 349), int8] {
    qnn.quantize(%p020, 3.5f /* ty=float32 span=from_string:89:29 */, 0 /* ty=int32 span=from_string:89:72 */, out_dtype="int8") /* ty=Tensor[(1, 3, 224, 349), int8] span=from_string:89:5 */
  } /* ty=fn (Tensor[(1, 3, 224, 349), float32]) -> Tensor[(1, 3, 224, 349), int8] span=from_string:91:114 */;
  let %x_40: Tensor[(1, 3, 224, 349), int8] /* ty=Tensor[(1, 3, 224, 349), int8] span=from_string:138:546 */ = %21(%x_37) /* ty=Tensor[(1, 3, 224, 349), int8] span=from_string:91:114 */;
  %22 = fn (%p021: Tensor[(1, 3, 224, 224), float32] /* ty=Tensor[(1, 3, 224, 224), float32] span=from_string:93:22 */, Primitive=1) -> Tensor[(1, 224, 3, 224), float32] {
    layout_transform(%p021, src_layout="NHWC", dst_layout="NCHW") /* ty=Tensor[(1, 224, 3, 224), float32] span=from_string:93:5 */
  } /* ty=fn (Tensor[(1, 3, 224, 224), float32]) -> Tensor[(1, 224, 3, 224), float32] span=from_string:95:117 */;
  let %x_41: Tensor[(1, 224, 3, 224), float32] /* ty=Tensor[(1, 224, 3, 224), float32] span=from_string:99:126 */ = %22(%x_20) /* ty=Tensor[(1, 224, 3, 224), float32] span=from_string:95:117 */;
  %23 = fn (%p022: Tensor[(1, 224, 3, 224), float32] /* ty=Tensor[(1, 224, 3, 224), float32] span=from_string:97:22 */, Primitive=1) -> Tensor[(1, 56, 3, 224, 4), float32] {
    layout_transform(%p022, src_layout="NCHW", dst_layout="NCHW4c") /* ty=Tensor[(1, 56, 3, 224, 4), float32] span=from_string:97:5 */
  } /* ty=fn (Tensor[(1, 224, 3, 224), float32]) -> Tensor[(1, 56, 3, 224, 4), float32] span=from_string:99:122 */;
  let %x_42: Tensor[(1, 56, 3, 224, 4), float32] /* ty=Tensor[(1, 56, 3, 224, 4), float32] span=from_string:103:126 */ = %23(%x_41) /* ty=Tensor[(1, 56, 3, 224, 4), float32] span=from_string:99:122 */;
  %24 = fn (%p023: Tensor[(1, 56, 3, 224, 4), float32] /* ty=Tensor[(1, 56, 3, 224, 4), float32] span=from_string:101:13 */, Primitive=1) -> Tensor[(1, 56, 3, 224, 4), float32] {
    nn.relu(%p023) /* ty=Tensor[(1, 56, 3, 224, 4), float32] span=from_string:101:5 */
  } /* ty=fn (Tensor[(1, 56, 3, 224, 4), float32]) -> Tensor[(1, 56, 3, 224, 4), float32] span=from_string:103:122 */;
  let %x_43: Tensor[(1, 56, 3, 224, 4), float32] /* ty=Tensor[(1, 56, 3, 224, 4), float32] span=from_string:107:122 */ = %24(%x_42) /* ty=Tensor[(1, 56, 3, 224, 4), float32] span=from_string:103:122 */;
  %25 = fn (%p024: Tensor[(1, 56, 3, 224, 4), float32] /* ty=Tensor[(1, 56, 3, 224, 4), float32] span=from_string:105:22 */, Primitive=1) -> Tensor[(1, 224, 3, 224), float32] {
    layout_transform(%p024, src_layout="NCHW4c", dst_layout="NCHW") /* ty=Tensor[(1, 224, 3, 224), float32] span=from_string:105:5 */
  } /* ty=fn (Tensor[(1, 56, 3, 224, 4), float32]) -> Tensor[(1, 224, 3, 224), float32] span=from_string:107:118 */;
  let %x_44: Tensor[(1, 224, 3, 224), float32] /* ty=Tensor[(1, 224, 3, 224), float32] span=from_string:119:222 */ = %25(%x_43) /* ty=Tensor[(1, 224, 3, 224), float32] span=from_string:107:118 */;
  %26 = fn (%p025: Tensor[(1, 224, 3, 224), float32] /* ty=Tensor[(1, 224, 3, 224), float32] span=from_string:109:22 */, Primitive=1) -> Tensor[(1, 3, 224, 224), float32] {
    layout_transform(%p025, src_layout="NCHW", dst_layout="NHWC") /* ty=Tensor[(1, 3, 224, 224), float32] span=from_string:109:5 */
  } /* ty=fn (Tensor[(1, 224, 3, 224), float32]) -> Tensor[(1, 3, 224, 224), float32] span=from_string:111:118 */;
  let %x_45: Tensor[(1, 3, 224, 224), float32] /* ty=Tensor[(1, 3, 224, 224), float32] span=from_string:138:553 */ = %26(%x_44) /* ty=Tensor[(1, 3, 224, 224), float32] span=from_string:111:118 */;
  %27 = fn (%p026: Tensor[(3, 3, 3, 3), float32] /* ty=Tensor[(3, 3, 3, 3), float32] span=from_string:113:54 */, Primitive=1) -> Tensor[(3, 3, 3, 3), float32] {
    add(2f /* ty=float32 span=from_string:113:11 */, %p026) /* ty=Tensor[(3, 3, 3, 3), float32] span=from_string:113:5 */
  } /* ty=fn (Tensor[(3, 3, 3, 3), float32]) -> Tensor[(3, 3, 3, 3), float32] span=from_string:115:110 */;
  let %x_47: Tensor[(3, 3, 3, 3), float32] /* ty=Tensor[(3, 3, 3, 3), float32] span=from_string:138:560 */ = %27(%x4) /* ty=Tensor[(3, 3, 3, 3), float32] span=from_string:115:110 */;
  %28 = fn (%p027: Tensor[(1, 224, 3, 224), float32] /* ty=Tensor[(1, 224, 3, 224), float32] span=from_string:117:19 */, %p17: Tensor[(224), float32] /* ty=Tensor[(224), float32] span=from_string:117:26 */, %p2: Tensor[(224), float32] /* ty=Tensor[(224), float32] span=from_string:117:32 */, %p3: Tensor[(224), float32] /* ty=Tensor[(224), float32] span=from_string:117:37 */, %p4: Tensor[(224), float32] /* ty=Tensor[(224), float32] span=from_string:117:42 */, Primitive=1) -> (Tensor[(1, 224, 3, 224), float32], Tensor[(224), float32], Tensor[(224), float32]) {
    nn.batch_norm(%p027, %p17, %p2, %p3, %p4) /* ty=(Tensor[(1, 224, 3, 224), float32], Tensor[(224), float32], Tensor[(224), float32]) span=from_string:117:5 */
  } /* ty=fn (Tensor[(1, 224, 3, 224), float32], Tensor[(224), float32], Tensor[(224), float32], Tensor[(224), float32], Tensor[(224), float32]) -> (Tensor[(1, 224, 3, 224), float32], Tensor[(224), float32], Tensor[(224), float32]) span=from_string:119:218 */;
  let %x_48: (Tensor[(1, 224, 3, 224), float32], Tensor[(224), float32], Tensor[(224), float32]) /* ty=(Tensor[(1, 224, 3, 224), float32], Tensor[(224), float32], Tensor[(224), float32]) span=from_string:121:118 */ = %28(%x_44, %x11, %x10, %x9, %x8) /* ty=(Tensor[(1, 224, 3, 224), float32], Tensor[(224), float32], Tensor[(224), float32]) span=from_string:119:218 */;
  let %x_49: Tensor[(1, 224, 3, 224), float32] /* ty=Tensor[(1, 224, 3, 224), float32] span=from_string:125:122 */ = %x_48.0 /* ty=Tensor[(1, 224, 3, 224), float32] span=from_string:120:118 */;
  let %x_50: Tensor[(1, 224, 3, 224), float32] /* ty=Tensor[(1, 224, 3, 224), float32] span=from_string:125:129 */ = %x_48.0 /* ty=Tensor[(1, 224, 3, 224), float32] span=from_string:121:118 */;
  %29 = fn (%p028: Tensor[(1, 224, 3, 224), float32] /* ty=Tensor[(1, 224, 3, 224), float32] span=from_string:123:9 */, %p18: Tensor[(1, 224, 3, 224), float32] /* ty=Tensor[(1, 224, 3, 224), float32] span=from_string:123:16 */, Primitive=1) -> Tensor[(1, 224, 3, 224), float32] {
    add(%p028, %p18) /* ty=Tensor[(1, 224, 3, 224), float32] span=from_string:123:5 */
  } /* ty=fn (Tensor[(1, 224, 3, 224), float32], Tensor[(1, 224, 3, 224), float32]) -> Tensor[(1, 224, 3, 224), float32] span=from_string:125:118 */;
  let %x_51: Tensor[(1, 224, 3, 224), float32] /* ty=Tensor[(1, 224, 3, 224), float32] span=from_string:138:567 */ = %29(%x_49, %x_50) /* ty=Tensor[(1, 224, 3, 224), float32] span=from_string:125:118 */;
  %30 = fn (%p029: Tensor[(1, 3, 224, 224), int8] /* ty=Tensor[(1, 3, 224, 224), int8] span=from_string:127:20 */, Primitive=1) -> Tensor[(1, 3, 224, 224), float32] {
    qnn.dequantize(%p029, 2f /* ty=float32 span=from_string:127:29 */, 0 /* ty=int32 span=from_string:127:73 */) /* ty=Tensor[(1, 3, 224, 224), float32] span=from_string:127:5 */
  } /* ty=fn (Tensor[(1, 3, 224, 224), int8]) -> Tensor[(1, 3, 224, 224), float32] span=from_string:129:118 */;
  let %x_54: Tensor[(1, 3, 224, 224), float32] /* ty=Tensor[(1, 3, 224, 224), float32] span=from_string:133:128 */ = %30(%x_23) /* ty=Tensor[(1, 3, 224, 224), float32] span=from_string:129:118 */;
  %31 = fn (%p030: Tensor[(1, 3, 224, 224), float32] /* ty=Tensor[(1, 3, 224, 224), float32] span=from_string:131:17 */, Primitive=1, relay.reshape_only=1) -> Tensor[(1, 1, 3, 224, 224), float32] {
    expand_dims(%p030, axis=1) /* ty=Tensor[(1, 1, 3, 224, 224), float32] span=from_string:131:5 */
  } /* ty=fn (Tensor[(1, 3, 224, 224), float32]) -> Tensor[(1, 1, 3, 224, 224), float32] span=from_string:133:124 */;
  let %x_55: Tensor[(1, 1, 3, 224, 224), float32] /* ty=Tensor[(1, 1, 3, 224, 224), float32] span=from_string:137:124 */ = %31(%x_54) /* ty=Tensor[(1, 1, 3, 224, 224), float32] span=from_string:133:124 */;
  %32 = fn (%p031: Tensor[(1, 1, 3, 224, 224), float32] /* ty=Tensor[(1, 1, 3, 224, 224), float32] span=from_string:135:18 */, Primitive=1) -> Tensor[(1, 1, 3, 224, 224), int8] {
    qnn.quantize(%p031, 2f /* ty=float32 span=from_string:135:27 */, 0 /* ty=int32 span=from_string:135:71 */, out_dtype="int8") /* ty=Tensor[(1, 1, 3, 224, 224), int8] span=from_string:135:5 */
  } /* ty=fn (Tensor[(1, 1, 3, 224, 224), float32]) -> Tensor[(1, 1, 3, 224, 224), int8] span=from_string:137:120 */;
  let %x_58: Tensor[(1, 1, 3, 224, 224), int8] /* ty=Tensor[(1, 1, 3, 224, 224), int8] span=from_string:138:574 */ = %32(%x_55) /* ty=Tensor[(1, 1, 3, 224, 224), int8] span=from_string:137:120 */;
  let %x_59: (Tensor[(1, 3, 224, 224), float16], Tensor[(1, 3, 224, 224), float32], Tensor[(1, 3, 224, 349), int8], Tensor[(1, 3, 224, 224), float32], Tensor[(3, 3, 3, 3), float32], Tensor[(1, 224, 3, 224), float32], Tensor[(1, 1, 3, 224, 224), int8]) /* ty=(Tensor[(1, 3, 224, 224), float16], Tensor[(1, 3, 224, 224), float32], Tensor[(1, 3, 224, 349), int8], Tensor[(1, 3, 224, 224), float32], Tensor[(3, 3, 3, 3), float32], Tensor[(1, 224, 3, 224), float32], Tensor[(1, 1, 3, 224, 224), int8]) span=from_string:139:530 */ = (%x_7, %x_16, %x_40, %x_45, %x_47, %x_51, %x_58) /* ty=(Tensor[(1, 3, 224, 224), float16], Tensor[(1, 3, 224, 224), float32], Tensor[(1, 3, 224, 349), int8], Tensor[(1, 3, 224, 224), float32], Tensor[(3, 3, 3, 3), float32], Tensor[(1, 224, 3, 224), float32], Tensor[(1, 1, 3, 224, 224), int8]) span=from_string:138:532 */;
  let %x_60: (Tensor[(1, 3, 224, 224), float16], Tensor[(1, 3, 224, 224), float32], Tensor[(1, 3, 224, 349), int8], Tensor[(1, 3, 224, 224), float32], Tensor[(3, 3, 3, 3), float32], Tensor[(1, 224, 3, 224), float32], Tensor[(1, 1, 3, 224, 224), int8]) /* ty=(Tensor[(1, 3, 224, 224), float16], Tensor[(1, 3, 224, 224), float32], Tensor[(1, 3, 224, 349), int8], Tensor[(1, 3, 224, 224), float32], Tensor[(3, 3, 3, 3), float32], Tensor[(1, 224, 3, 224), float32], Tensor[(1, 1, 3, 224, 224), int8]) span=from_string:140:3 */ = %x_59;
  %x_60
}
