#[version = "0.0.5"]
def @main(%x0: Tensor[(4, 7), float32] /* ty=Tensor[(4, 7), float32] span=from_string:19:104 */, %x1: Tensor[(2, 7, 2), float32] /* ty=Tensor[(2, 7, 2), float32] span=from_string:6:11 */, %x2: Tensor[(14, 2), float32] /* ty=Tensor[(14, 2), float32] span=from_string:133:13 */, %x3: int32 /* ty=int32 span=from_string:74:108 */, %x4: int32 /* ty=int32 span=from_string:74:113 */, %x5: Tensor[(74, 7, 2), float32] /* ty=Tensor[(74, 7, 2), float32] span=from_string:109:171 */, %x6: Tensor[(16, 2), float32] /* ty=Tensor[(16, 2), float32] span=from_string:134:13 */, %x7: Tensor[(16), float32] /* ty=Tensor[(16), float32] span=from_string:143:105 */, %x8: Tensor[(1), float32] /* ty=Tensor[(1), float32] span=from_string:148:105 */, %x9: Tensor[(32, 2), float32] /* ty=Tensor[(32, 2), float32] span=from_string:156:13 */, %x10: Tensor[(32), float32] /* ty=Tensor[(32), float32] span=from_string:165:105 */, %x11: Tensor[(1), float32] /* ty=Tensor[(1), float32] span=from_string:170:105 */) -> (Tensor[(4, 7), float16], (Tensor[(2, 7, 2), float16], (Tensor[(2, 7, 2), float16],)), Tensor[(2, 7, 2), float16], Tensor[(6, 2), float32], Tensor[(2, 7, 2), float16], Tensor[(2, 7, 2), float16], Tensor[(76, 7, 2), float16], (Tensor[(1, 1, 224), float16], Tensor[(1, 1, 448), float16])) {
  let %x_0 = fn (%p01: Tensor[(2, 7, 2), float32] /* ty=Tensor[(2, 7, 2), float32] span=from_string:4:10 */, Primitive=1) -> Tensor[(2, 7, 2), float16] {
    cast(%p01, dtype="float16") /* ty=Tensor[(2, 7, 2), float16] span=from_string:4:5 */
  } /* ty=fn (Tensor[(2, 7, 2), float32]) -> Tensor[(2, 7, 2), float16] span=from_string:6:8 */;
  let %x_1 = %x_0(%x1);
  let %x_2 = fn (%p0: Tensor[(2, 7, 2), float16] /* ty=Tensor[(2, 7, 2), float16] span=from_string:8:20 */, Primitive=1) -> Tensor[(2, 7, 2), float16] {
    multiply(%p0, %p0) /* ty=Tensor[(2, 7, 2), float16] span=from_string:8:6 */
  } /* ty=fn (Tensor[(2, 7, 2), float16]) -> Tensor[(2, 7, 2), float16] span=from_string:10:102 */;
  let %x12: Tensor[(2, 7, 2), float16] /* ty=Tensor[(2, 7, 2), float16] span=from_string:61:170 */ = %x_2(%x_1);
  let %x_3 = fn (Primitive=1) -> Tensor[(2, 7, 2), float16] {
    ones(shape=[2, 7, 2], dtype="float16") /* ty=Tensor[(2, 7, 2), float16] span=from_string:12:5 */
  } /* ty=fn () -> Tensor[(2, 7, 2), float16] span=from_string:14:102 */;
  let %x13: Tensor[(2, 7, 2), float16] /* ty=Tensor[(2, 7, 2), float16] span=from_string:51:106 */ = %x_3();
  let %x_4 = fn (%p02: Tensor[(4, 7), float32] /* ty=Tensor[(4, 7), float32] span=from_string:16:15 */, Primitive=1) -> Tensor[(2, 7, 2), float16] {
    %0 = cast(%p02, dtype="float16") /* ty=Tensor[(4, 7), float16] span=from_string:17:13 */;
    reshape(%0, newshape=[2, 7, 2]) /* ty=Tensor[(2, 7, 2), float16] span=from_string:16:5 */
  } /* ty=fn (Tensor[(4, 7), float32]) -> Tensor[(2, 7, 2), float16] span=from_string:19:101 */;
  let %x_01: Tensor[(2, 7, 2), float16] /* ty=Tensor[(2, 7, 2), float16] span=from_string:23:98 */ = %x_4(%x0);
  let %x_5 = fn (%p03: Tensor[(2, 7, 2), float16] /* ty=Tensor[(2, 7, 2), float16] span=from_string:21:13 */, Primitive=1, relay.reshape_only=1) -> Tensor[(4, 7), float16] {
    reshape(%p03, newshape=[4, 7]) /* ty=Tensor[(4, 7), float16] span=from_string:21:5 */
  } /* ty=fn (Tensor[(2, 7, 2), float16]) -> Tensor[(4, 7), float16] span=from_string:23:95 */;
  let %x_11: Tensor[(4, 7), float16] /* ty=Tensor[(4, 7), float16] span=from_string:27:105 */ = %x_5(%x_01);
  let %x_6 = fn (%p04: Tensor[(4, 7), float16] /* ty=Tensor[(4, 7), float16] span=from_string:25:13 */, Primitive=1, relay.reshape_only=1) -> Tensor[(2, 7, 2), float16] {
    reshape(%p04, newshape=[2, 7, 2]) /* ty=Tensor[(2, 7, 2), float16] span=from_string:25:5 */
  } /* ty=fn (Tensor[(4, 7), float16]) -> Tensor[(2, 7, 2), float16] span=from_string:27:102 */;
  let %x_21: Tensor[(2, 7, 2), float16] /* ty=Tensor[(2, 7, 2), float16] span=from_string:31:99 */ = %x_6(%x_11);
  let %x_7 = fn (%p05: Tensor[(2, 7, 2), float16] /* ty=Tensor[(2, 7, 2), float16] span=from_string:29:13 */, Primitive=1, relay.reshape_only=1) -> Tensor[(4, 7), float16] {
    reshape(%p05, newshape=[4, 7]) /* ty=Tensor[(4, 7), float16] span=from_string:29:5 */
  } /* ty=fn (Tensor[(2, 7, 2), float16]) -> Tensor[(4, 7), float16] span=from_string:31:96 */;
  let %x_31: Tensor[(4, 7), float16] /* ty=Tensor[(4, 7), float16] span=from_string:176:624 */ = %x_7(%x_21);
  let %x_8 = fn (Primitive=1) -> Tensor[(2, 7, 2), float16] {
    zeros(shape=[2, 7, 2], dtype="float16") /* ty=Tensor[(2, 7, 2), float16] span=from_string:33:5 */
  } /* ty=fn () -> Tensor[(2, 7, 2), float16] span=from_string:35:102 */;
  let %x_41: Tensor[(2, 7, 2), float16] /* ty=Tensor[(2, 7, 2), float16] span=from_string:47:106 */ = %x_8();
  let %x_9 = fn (%p06: Tensor[(2, 7, 2), float16] /* ty=Tensor[(2, 7, 2), float16] span=from_string:37:15 */, %p1: Tensor[(2, 7, 2), float16] /* ty=Tensor[(2, 7, 2), float16] span=from_string:37:21 */, Primitive=1) -> Tensor[(2, 7, 2), float16] {
    multiply(%p06, %p1) /* ty=Tensor[(2, 7, 2), float16] span=from_string:37:6 */
  } /* ty=fn (Tensor[(2, 7, 2), float16], Tensor[(2, 7, 2), float16]) -> Tensor[(2, 7, 2), float16] span=from_string:39:102 */;
  let %x_51: Tensor[(2, 7, 2), float16] /* ty=Tensor[(2, 7, 2), float16] span=from_string:97:113 */ = %x_9(%x13, %x_1);
  let %x_10 = meta[relay.Constant][0] /* ty=Tensor[(3), int32] span=from_string:43:117 */;
  let %x_111 = fn (%p07: Tensor[(2, 7, 2), float16] /* ty=Tensor[(2, 7, 2), float16] span=from_string:41:21 */, %p11: Tensor[(3), int32] /* ty=Tensor[(3), int32] span=from_string:41:27 */, Primitive=1) -> Tensor[(2, 7, 2), float16] {
    collapse_sum_to(%p07, %p11, meta[relay.attrs.InitOpAttrs][0]) /* ty=Tensor[(2, 7, 2), float16] span=from_string:41:5 */
  } /* ty=fn (Tensor[(2, 7, 2), float16], Tensor[(3), int32]) -> Tensor[(2, 7, 2), float16] span=from_string:43:102 */;
  let %x_61: Tensor[(2, 7, 2), float16] /* ty=Tensor[(2, 7, 2), float16] span=from_string:65:103 */ = %x_111(%x_51, %x_10);
  let %x_12 = fn (%p08: Tensor[(2, 7, 2), float16] /* ty=Tensor[(2, 7, 2), float16] span=from_string:45:9 */, %p12: Tensor[(2, 7, 2), float16] /* ty=Tensor[(2, 7, 2), float16] span=from_string:45:15 */, Primitive=1) -> Tensor[(2, 7, 2), float16] {
    add(%p08, %p12) /* ty=Tensor[(2, 7, 2), float16] span=from_string:45:5 */
  } /* ty=fn (Tensor[(2, 7, 2), float16], Tensor[(2, 7, 2), float16]) -> Tensor[(2, 7, 2), float16] span=from_string:47:102 */;
  let %x_71: Tensor[(2, 7, 2), float16] /* ty=Tensor[(2, 7, 2), float16] span=from_string:80:114 */ = %x_12(%x_41, %x_61);
  let %x_13 = fn (%p09: Tensor[(2, 7, 2), float16] /* ty=Tensor[(2, 7, 2), float16] span=from_string:49:15 */, %p13: Tensor[(2, 7, 2), float16] /* ty=Tensor[(2, 7, 2), float16] span=from_string:49:21 */, Primitive=1) -> Tensor[(2, 7, 2), float16] {
    multiply(%p09, %p13) /* ty=Tensor[(2, 7, 2), float16] span=from_string:49:6 */
  } /* ty=fn (Tensor[(2, 7, 2), float16], Tensor[(2, 7, 2), float16]) -> Tensor[(2, 7, 2), float16] span=from_string:51:102 */;
  let %x_81: Tensor[(2, 7, 2), float16] /* ty=Tensor[(2, 7, 2), float16] span=from_string:55:106 */ = %x_13(%x13, %x_1);
  let %x_14 = meta[relay.Constant][1] /* ty=Tensor[(3), int32] span=from_string:55:117 */;
  let %x_15 = fn (%p010: Tensor[(2, 7, 2), float16] /* ty=Tensor[(2, 7, 2), float16] span=from_string:53:21 */, %p14: Tensor[(3), int32] /* ty=Tensor[(3), int32] span=from_string:53:28 */, Primitive=1) -> Tensor[(2, 7, 2), float16] {
    collapse_sum_to(%p010, %p14, meta[relay.attrs.InitOpAttrs][1]) /* ty=Tensor[(2, 7, 2), float16] span=from_string:53:5 */
  } /* ty=fn (Tensor[(2, 7, 2), float16], Tensor[(3), int32]) -> Tensor[(2, 7, 2), float16] span=from_string:55:102 */;
  let %x_91: Tensor[(2, 7, 2), float16] /* ty=Tensor[(2, 7, 2), float16] span=from_string:59:113 */ = %x_15(%x_81, %x_14);
  let %x_16 = fn (%p011: Tensor[(2, 7, 2), float16] /* ty=Tensor[(2, 7, 2), float16] span=from_string:57:9 */, %p15: Tensor[(2, 7, 2), float16] /* ty=Tensor[(2, 7, 2), float16] span=from_string:57:16 */, Primitive=1) -> Tensor[(2, 7, 2), float16] {
    add(%p011, %p15) /* ty=Tensor[(2, 7, 2), float16] span=from_string:57:5 */
  } /* ty=fn (Tensor[(2, 7, 2), float16], Tensor[(2, 7, 2), float16]) -> Tensor[(2, 7, 2), float16] span=from_string:59:103 */;
  let %x_101: Tensor[(2, 7, 2), float16] /* ty=Tensor[(2, 7, 2), float16] span=from_string:60:110 */ = %x_16(%x_71, %x_91);
  let %x_112: (Tensor[(2, 7, 2), float16],) /* ty=(Tensor[(2, 7, 2), float16],) span=from_string:61:176 */ = (%x_101,) /* ty=(Tensor[(2, 7, 2), float16],) span=from_string:60:109 */;
  let %x_121: (Tensor[(2, 7, 2), float16], (Tensor[(2, 7, 2), float16],)) /* ty=(Tensor[(2, 7, 2), float16], (Tensor[(2, 7, 2), float16],)) span=from_string:176:630 */ = (%x12, %x_112) /* ty=(Tensor[(2, 7, 2), float16], (Tensor[(2, 7, 2), float16],)) span=from_string:61:169 */;
  let %x_17 = fn (%p012: Tensor[(2, 7, 2), float16] /* ty=Tensor[(2, 7, 2), float16] span=from_string:63:13 */, Primitive=1, relay.reshape_only=1) -> Tensor[(14, 2), float16] {
    reshape(%p012, newshape=[14, 2]) /* ty=Tensor[(14, 2), float16] span=from_string:63:5 */
  } /* ty=fn (Tensor[(2, 7, 2), float16]) -> Tensor[(14, 2), float16] span=from_string:65:99 */;
  let %x_131: Tensor[(14, 2), float16] /* ty=Tensor[(14, 2), float16] span=from_string:69:107 */ = %x_17(%x_61);
  let %x_18 = fn (%p013: Tensor[(14, 2), float16] /* ty=Tensor[(14, 2), float16] span=from_string:67:13 */, Primitive=1, relay.reshape_only=1) -> Tensor[(2, 7, 2), float16] {
    reshape(%p013, newshape=[2, 7, 2]) /* ty=Tensor[(2, 7, 2), float16] span=from_string:67:5 */
  } /* ty=fn (Tensor[(14, 2), float16]) -> Tensor[(2, 7, 2), float16] span=from_string:69:103 */;
  let %x_141: Tensor[(2, 7, 2), float16] /* ty=Tensor[(2, 7, 2), float16] span=from_string:176:637 */ = %x_18(%x_131);
  let %x_151: Tensor[(2), int32] /* ty=Tensor[(2), int32] span=from_string:74:101 */ = meta[relay.Constant][2] /* ty=Tensor[(2), int32] span=from_string:70:94 */;
  let %x_19 = fn (%p014: Tensor[(2), int32] /* ty=Tensor[(2), int32] span=from_string:72:13 */, %p16: int32 /* ty=int32 span=from_string:72:20 */, %p2: int32 /* ty=int32 span=from_string:72:26 */, Primitive=1) -> Tensor[(6, 2), float32] {
    one_hot(%p014, %p16, %p2, depth=6, axis=0, dtype="float32") /* ty=Tensor[(6, 2), float32] span=from_string:72:5 */
  } /* ty=fn (Tensor[(2), int32], int32, int32) -> Tensor[(6, 2), float32] span=from_string:74:97 */;
  let %x_161: Tensor[(6, 2), float32] /* ty=Tensor[(6, 2), float32] span=from_string:176:644 */ = %x_19(%x_151, %x3, %x4);
  let %x_171: float32 /* ty=float32 span=from_string:80:107 */ = 1f /* ty=float32 span=from_string:75:66 */;
  let %x_20 = fn (%p015: float32 /* ty=float32 span=from_string:77:16 */, %p17: Tensor[(2, 7, 2), float16] /* ty=Tensor[(2, 7, 2), float16] span=from_string:78:9 */, Primitive=1) -> Tensor[(2, 7, 2), float16] {
    %1 = cast(%p015, dtype="float16") /* ty=float16 span=from_string:78:15 */;
    add(%p17, %1) /* ty=Tensor[(2, 7, 2), float16] span=from_string:77:5 */
  } /* ty=fn (float32, Tensor[(2, 7, 2), float16]) -> Tensor[(2, 7, 2), float16] span=from_string:80:103 */;
  let %x_181: Tensor[(2, 7, 2), float16] /* ty=Tensor[(2, 7, 2), float16] span=from_string:81:103 */ = %x_20(%x_171, %x_71);
  let %x_191: Tensor[(2, 7, 2), float16] /* ty=Tensor[(2, 7, 2), float16] span=from_string:109:164 */ = %x_181;
  let %x_211 = fn (%p016: Tensor[(2, 7, 2), float16] /* ty=Tensor[(2, 7, 2), float16] span=from_string:83:16 */, Primitive=1) -> Tensor[(2, 7, 2), float32] {
    %2 = cast(%p016, dtype="float32") /* ty=Tensor[(2, 7, 2), float32] span=from_string:84:9 */;
    exp(%2) /* ty=Tensor[(2, 7, 2), float32] span=from_string:83:5 */
  } /* ty=fn (Tensor[(2, 7, 2), float16]) -> Tensor[(2, 7, 2), float32] span=from_string:86:102 */;
  let %x_201: Tensor[(2, 7, 2), float32] /* ty=Tensor[(2, 7, 2), float32] span=from_string:91:107 */ = %x_211(%x_191);
  let %x_22 = fn (%p017: Tensor[(2, 7, 2), float32] /* ty=Tensor[(2, 7, 2), float32] span=from_string:88:16 */, Primitive=1) -> Tensor[(2, 7, 2), float16] {
    %3 = cast(%p017, dtype="float16") /* ty=Tensor[(2, 7, 2), float16] span=from_string:89:20 */;
    multiply(%3, %3) /* ty=Tensor[(2, 7, 2), float16] span=from_string:88:5 */
  } /* ty=fn (Tensor[(2, 7, 2), float32]) -> Tensor[(2, 7, 2), float16] span=from_string:91:103 */;
  let %x_212: Tensor[(2, 7, 2), float16] /* ty=Tensor[(2, 7, 2), float16] span=from_string:176:651 */ = %x_22(%x_201);
  let %x_221: float32 /* ty=float32 span=from_string:97:106 */ = 1f /* ty=float32 span=from_string:92:66 */;
  let %x_23 = fn (%p018: float32 /* ty=float32 span=from_string:94:16 */, %p18: Tensor[(2, 7, 2), float16] /* ty=Tensor[(2, 7, 2), float16] span=from_string:95:9 */, Primitive=1) -> Tensor[(2, 7, 2), float16] {
    %4 = cast(%p018, dtype="float16") /* ty=float16 span=from_string:95:15 */;
    add(%p18, %4) /* ty=Tensor[(2, 7, 2), float16] span=from_string:94:5 */
  } /* ty=fn (float32, Tensor[(2, 7, 2), float16]) -> Tensor[(2, 7, 2), float16] span=from_string:97:102 */;
  let %x_231: Tensor[(2, 7, 2), float16] /* ty=Tensor[(2, 7, 2), float16] span=from_string:102:106 */ = %x_23(%x_221, %x_51);
  let %x_24 = fn (%p019: Tensor[(2, 7, 2), float16] /* ty=Tensor[(2, 7, 2), float16] span=from_string:99:16 */, Primitive=1) -> Tensor[(2, 7, 2), float32] {
    %5 = cast(%p019, dtype="float32") /* ty=Tensor[(2, 7, 2), float32] span=from_string:100:9 */;
    exp(%5) /* ty=Tensor[(2, 7, 2), float32] span=from_string:99:5 */
  } /* ty=fn (Tensor[(2, 7, 2), float16]) -> Tensor[(2, 7, 2), float32] span=from_string:102:102 */;
  let %x_241: Tensor[(2, 7, 2), float32] /* ty=Tensor[(2, 7, 2), float32] span=from_string:107:107 */ = %x_24(%x_231);
  let %x_25 = fn (%p020: Tensor[(2, 7, 2), float32] /* ty=Tensor[(2, 7, 2), float32] span=from_string:104:16 */, Primitive=1) -> Tensor[(2, 7, 2), float16] {
    %6 = cast(%p020, dtype="float16") /* ty=Tensor[(2, 7, 2), float16] span=from_string:105:13 */;
    squeeze(%6) /* ty=Tensor[(2, 7, 2), float16] span=from_string:104:5 */
  } /* ty=fn (Tensor[(2, 7, 2), float32]) -> Tensor[(2, 7, 2), float16] span=from_string:107:103 */;
  let %x_251: Tensor[(2, 7, 2), float16] /* ty=Tensor[(2, 7, 2), float16] span=from_string:176:658 */ = %x_25(%x_241);
  let %x_26: float32 /* ty=float32 span=from_string:126:109 */ = 2f /* ty=float32 span=from_string:108:66 */;
  let %x_27: (Tensor[(2, 7, 2), float16], Tensor[(74, 7, 2), float32]) /* ty=(Tensor[(2, 7, 2), float16], Tensor[(74, 7, 2), float32]) span=from_string:117:109 */ = (%x_191, %x5) /* ty=(Tensor[(2, 7, 2), float16], Tensor[(74, 7, 2), float32]) span=from_string:109:163 */;
  let %x_261 = fn (%p021: (Tensor[(2, 7, 2), float16], Tensor[(74, 7, 2), float32]) /* ty=(Tensor[(2, 7, 2), float16], Tensor[(74, 7, 2), float32]) span=from_string:112:11 */, Primitive=1) -> Tensor[(76, 7, 2), float16] {
    %7 = %p021.1 /* ty=Tensor[(74, 7, 2), float32] span=from_string:113:16 */;
    %8 = %p021.0 /* ty=Tensor[(2, 7, 2), float16] span=from_string:114:12 */;
    %9 = cast(%7, dtype="float16") /* ty=Tensor[(74, 7, 2), float16] span=from_string:114:17 */;
    %10 = (%8, %9) /* ty=(Tensor[(2, 7, 2), float16], Tensor[(74, 7, 2), float16]) span=from_string:115:17 */;
    concatenate(%10) /* ty=Tensor[(76, 7, 2), float16] span=from_string:111:5 */
  } /* ty=fn ((Tensor[(2, 7, 2), float16], Tensor[(74, 7, 2), float32])) -> Tensor[(76, 7, 2), float16] span=from_string:117:105 */;
  let %x_28: Tensor[(76, 7, 2), float16] /* ty=Tensor[(76, 7, 2), float16] span=from_string:121:109 */ = %x_261(%x_27);
  let %x_271 = fn (%p022: Tensor[(76, 7, 2), float16] /* ty=Tensor[(76, 7, 2), float16] span=from_string:119:10 */, Primitive=1) -> Tensor[(76, 7, 2), float16] {
    sqrt(%p022) /* ty=Tensor[(76, 7, 2), float16] span=from_string:119:5 */
  } /* ty=fn (Tensor[(76, 7, 2), float16]) -> Tensor[(76, 7, 2), float16] span=from_string:121:105 */;
  let %x_29: Tensor[(76, 7, 2), float16] /* ty=Tensor[(76, 7, 2), float16] span=from_string:126:116 */ = %x_271(%x_28);
  let %x_281 = fn (%p023: float32 /* ty=float32 span=from_string:123:16 */, %p19: Tensor[(76, 7, 2), float16] /* ty=Tensor[(76, 7, 2), float16] span=from_string:124:17 */, Primitive=1) -> Tensor[(76, 7, 2), float16] {
    %11 = cast(%p023, dtype="float16") /* ty=float16 span=from_string:124:12 */;
    divide(%11, %p19) /* ty=Tensor[(76, 7, 2), float16] span=from_string:123:5 */
  } /* ty=fn (float32, Tensor[(76, 7, 2), float16]) -> Tensor[(76, 7, 2), float16] span=from_string:126:105 */;
  let %x_30: Tensor[(76, 7, 2), float16] /* ty=Tensor[(76, 7, 2), float16] span=from_string:176:665 */ = %x_281(%x_26, %x_29);
  let %x_291 = fn (%p025: Tensor[(14, 2), float32] /* ty=Tensor[(14, 2), float32] span=from_string:128:10 */, Primitive=1) -> Tensor[(14, 2), float16] {
    cast(%p025, dtype="float16") /* ty=Tensor[(14, 2), float16] span=from_string:128:5 */
  } /* ty=fn (Tensor[(14, 2), float32]) -> Tensor[(14, 2), float16] span=from_string:133:9 */;
  let %x_301 = %x_291(%x2);
  let %x_311 = fn (%p026: Tensor[(16, 2), float32] /* ty=Tensor[(16, 2), float32] span=from_string:131:10 */, Primitive=1) -> Tensor[(16, 2), float16] {
    cast(%p026, dtype="float16") /* ty=Tensor[(16, 2), float16] span=from_string:131:5 */
  } /* ty=fn (Tensor[(16, 2), float32]) -> Tensor[(16, 2), float16] span=from_string:134:9 */;
  let %x_32 = %x_311(%x6);
  let %x_33 = fn (%p024: Tensor[(14, 2), float16] /* ty=Tensor[(14, 2), float16] span=from_string:136:14 */, %p110: Tensor[(16, 2), float16] /* ty=Tensor[(16, 2), float16] span=from_string:136:21 */, Primitive=1) -> Tensor[(14, 16), float16] {
    nn.dense(%p024, %p110, units=None, out_dtype="float16") /* ty=Tensor[(14, 16), float16] span=from_string:136:5 */
  } /* ty=fn (Tensor[(14, 2), float16], Tensor[(16, 2), float16]) -> Tensor[(14, 16), float16] span=from_string:138:101 */;
  let %x_312: Tensor[(14, 16), float16] /* ty=Tensor[(14, 16), float16] span=from_string:143:110 */ = %x_33(%x_301, %x_32);
  let %x_34 = fn (%p027: Tensor[(16), float32] /* ty=Tensor[(16), float32] span=from_string:140:16 */, %p111: Tensor[(14, 16), float16] /* ty=Tensor[(14, 16), float16] span=from_string:141:9 */, Primitive=1) -> Tensor[(14, 16), float16] {
    %12 = cast(%p027, dtype="float16") /* ty=Tensor[(16), float16] span=from_string:141:16 */;
    add(%p111, %12) /* ty=Tensor[(14, 16), float16] span=from_string:140:5 */
  } /* ty=fn (Tensor[(16), float32], Tensor[(14, 16), float16]) -> Tensor[(14, 16), float16] span=from_string:143:101 */;
  let %x_321: Tensor[(14, 16), float16] /* ty=Tensor[(14, 16), float16] span=from_string:148:110 */ = %x_34(%x7, %x_312);
  let %x_35 = fn (%p028: Tensor[(1), float32] /* ty=Tensor[(1), float32] span=from_string:145:16 */, %p112: Tensor[(14, 16), float16] /* ty=Tensor[(14, 16), float16] span=from_string:146:15 */, Primitive=1) -> Tensor[(14, 16), float16] {
    %13 = cast(%p028, dtype="float16") /* ty=Tensor[(1), float16] span=from_string:146:22 */;
    multiply(%p112, %13) /* ty=Tensor[(14, 16), float16] span=from_string:145:5 */
  } /* ty=fn (Tensor[(1), float32], Tensor[(14, 16), float16]) -> Tensor[(14, 16), float16] span=from_string:148:101 */;
  let %x_331: Tensor[(14, 16), float16] /* ty=Tensor[(14, 16), float16] span=from_string:152:111 */ = %x_35(%x8, %x_321);
  let %x_36 = fn (%p029: Tensor[(14, 16), float16] /* ty=Tensor[(14, 16), float16] span=from_string:150:13 */, Primitive=1, relay.reshape_only=1) -> Tensor[(1, 1, 224), float16] {
    reshape(%p029, newshape=[1, 1, 224]) /* ty=Tensor[(1, 1, 224), float16] span=from_string:150:5 */
  } /* ty=fn (Tensor[(14, 16), float16]) -> Tensor[(1, 1, 224), float16] span=from_string:152:107 */;
  let %x_341: Tensor[(1, 1, 224), float16] /* ty=Tensor[(1, 1, 224), float16] span=from_string:175:172 */ = %x_36(%x_331);
  let %x_37 = fn (%p031: Tensor[(32, 2), float32] /* ty=Tensor[(32, 2), float32] span=from_string:154:10 */, Primitive=1) -> Tensor[(32, 2), float16] {
    cast(%p031, dtype="float16") /* ty=Tensor[(32, 2), float16] span=from_string:154:5 */
  } /* ty=fn (Tensor[(32, 2), float32]) -> Tensor[(32, 2), float16] span=from_string:156:9 */;
  let %x_38 = %x_37(%x9);
  let %x_39 = fn (%p030: Tensor[(14, 2), float16] /* ty=Tensor[(14, 2), float16] span=from_string:158:14 */, %p113: Tensor[(32, 2), float16] /* ty=Tensor[(32, 2), float16] span=from_string:158:21 */, Primitive=1) -> Tensor[(14, 32), float16] {
    nn.dense(%p030, %p113, units=None, out_dtype="float16") /* ty=Tensor[(14, 32), float16] span=from_string:158:5 */
  } /* ty=fn (Tensor[(14, 2), float16], Tensor[(32, 2), float16]) -> Tensor[(14, 32), float16] span=from_string:160:101 */;
  let %x_351: Tensor[(14, 32), float16] /* ty=Tensor[(14, 32), float16] span=from_string:165:111 */ = %x_39(%x_301, %x_38);
  let %x_40 = fn (%p032: Tensor[(32), float32] /* ty=Tensor[(32), float32] span=from_string:162:16 */, %p114: Tensor[(14, 32), float16] /* ty=Tensor[(14, 32), float16] span=from_string:163:9 */, Primitive=1) -> Tensor[(14, 32), float16] {
    %14 = cast(%p032, dtype="float16") /* ty=Tensor[(32), float16] span=from_string:163:16 */;
    add(%p114, %14) /* ty=Tensor[(14, 32), float16] span=from_string:162:5 */
  } /* ty=fn (Tensor[(32), float32], Tensor[(14, 32), float16]) -> Tensor[(14, 32), float16] span=from_string:165:101 */;
  let %x_361: Tensor[(14, 32), float16] /* ty=Tensor[(14, 32), float16] span=from_string:170:111 */ = %x_40(%x10, %x_351);
  let %x_411 = fn (%p033: Tensor[(1), float32] /* ty=Tensor[(1), float32] span=from_string:167:16 */, %p115: Tensor[(14, 32), float16] /* ty=Tensor[(14, 32), float16] span=from_string:168:15 */, Primitive=1) -> Tensor[(14, 32), float16] {
    %15 = cast(%p033, dtype="float16") /* ty=Tensor[(1), float16] span=from_string:168:22 */;
    multiply(%p115, %15) /* ty=Tensor[(14, 32), float16] span=from_string:167:5 */
  } /* ty=fn (Tensor[(1), float32], Tensor[(14, 32), float16]) -> Tensor[(14, 32), float16] span=from_string:170:101 */;
  let %x_371: Tensor[(14, 32), float16] /* ty=Tensor[(14, 32), float16] span=from_string:174:111 */ = %x_411(%x11, %x_361);
  let %x_42 = fn (%p034: Tensor[(14, 32), float16] /* ty=Tensor[(14, 32), float16] span=from_string:172:13 */, Primitive=1, relay.reshape_only=1) -> Tensor[(1, 1, 448), float16] {
    reshape(%p034, newshape=[1, 1, 448]) /* ty=Tensor[(1, 1, 448), float16] span=from_string:172:5 */
  } /* ty=fn (Tensor[(14, 32), float16]) -> Tensor[(1, 1, 448), float16] span=from_string:174:107 */;
  let %x_381: Tensor[(1, 1, 448), float16] /* ty=Tensor[(1, 1, 448), float16] span=from_string:175:179 */ = %x_42(%x_371);
  let %x_391: (Tensor[(1, 1, 224), float16], Tensor[(1, 1, 448), float16]) /* ty=(Tensor[(1, 1, 224), float16], Tensor[(1, 1, 448), float16]) span=from_string:176:672 */ = (%x_341, %x_381) /* ty=(Tensor[(1, 1, 224), float16], Tensor[(1, 1, 448), float16]) span=from_string:175:171 */;
  let %x_401: (Tensor[(4, 7), float16], (Tensor[(2, 7, 2), float16], (Tensor[(2, 7, 2), float16],)), Tensor[(2, 7, 2), float16], Tensor[(6, 2), float32], Tensor[(2, 7, 2), float16], Tensor[(2, 7, 2), float16], Tensor[(76, 7, 2), float16], (Tensor[(1, 1, 224), float16], Tensor[(1, 1, 448), float16])) /* ty=(Tensor[(4, 7), float16], (Tensor[(2, 7, 2), float16], (Tensor[(2, 7, 2), float16],)), Tensor[(2, 7, 2), float16], Tensor[(6, 2), float32], Tensor[(2, 7, 2), float16], Tensor[(2, 7, 2), float16], Tensor[(76, 7, 2), float16], (Tensor[(1, 1, 224), float16], Tensor[(1, 1, 448), float16])) span=from_string:177:623 */ = (%x_31, %x_121, %x_141, %x_161, %x_212, %x_251, %x_30, %x_391) /* ty=(Tensor[(4, 7), float16], (Tensor[(2, 7, 2), float16], (Tensor[(2, 7, 2), float16],)), Tensor[(2, 7, 2), float16], Tensor[(6, 2), float32], Tensor[(2, 7, 2), float16], Tensor[(2, 7, 2), float16], Tensor[(76, 7, 2), float16], (Tensor[(1, 1, 224), float16], Tensor[(1, 1, 448), float16])) span=from_string:176:623 */;
  let %x_412: (Tensor[(4, 7), float16], (Tensor[(2, 7, 2), float16], (Tensor[(2, 7, 2), float16],)), Tensor[(2, 7, 2), float16], Tensor[(6, 2), float32], Tensor[(2, 7, 2), float16], Tensor[(2, 7, 2), float16], Tensor[(76, 7, 2), float16], (Tensor[(1, 1, 224), float16], Tensor[(1, 1, 448), float16])) /* ty=(Tensor[(4, 7), float16], (Tensor[(2, 7, 2), float16], (Tensor[(2, 7, 2), float16],)), Tensor[(2, 7, 2), float16], Tensor[(6, 2), float32], Tensor[(2, 7, 2), float16], Tensor[(2, 7, 2), float16], Tensor[(76, 7, 2), float16], (Tensor[(1, 1, 224), float16], Tensor[(1, 1, 448), float16])) span=from_string:178:621 */ = %x_401;
  let %x_421: (Tensor[(4, 7), float16], (Tensor[(2, 7, 2), float16], (Tensor[(2, 7, 2), float16],)), Tensor[(2, 7, 2), float16], Tensor[(6, 2), float32], Tensor[(2, 7, 2), float16], Tensor[(2, 7, 2), float16], Tensor[(76, 7, 2), float16], (Tensor[(1, 1, 224), float16], Tensor[(1, 1, 448), float16])) /* ty=(Tensor[(4, 7), float16], (Tensor[(2, 7, 2), float16], (Tensor[(2, 7, 2), float16],)), Tensor[(2, 7, 2), float16], Tensor[(6, 2), float32], Tensor[(2, 7, 2), float16], Tensor[(2, 7, 2), float16], Tensor[(76, 7, 2), float16], (Tensor[(1, 1, 224), float16], Tensor[(1, 1, 448), float16])) span=from_string:179:3 */ = %x_412;
  let %x_43 = %x_421;
  let %x_44 = %x_43;
  let %x_45 = %x_44;
  let %x_46 = %x_45;
  let %x_47 = %x_46;
  let %x_48 = %x_47;
  let %x_49 = %x_48;
  let %x_50 = %x_49;
  let %x_511 = %x_50;
  let %x_52 = %x_511;
  let %x_53 = %x_52;
  let %x_54 = %x_53;
  let %x_55 = %x_54;
  let %x_56 = %x_55;
  let %x_57 = %x_56;
  let %x_58 = %x_57;
  let %x_59 = %x_58;
  let %x_60 = %x_59;
  let %x_611 = %x_60;
  let %x_62 = %x_611;
  let %x_63 = %x_62;
  let %x_64 = %x_63;
  let %x_65 = %x_64;
  let %x_66 = %x_65;
  let %x_67 = %x_66;
  let %x_68 = %x_67;
  let %x_69 = %x_68;
  let %x_70 = %x_69;
  let %x_711 = %x_70;
  let %x_72 = %x_711;
  let %x_73 = %x_72;
  let %x_74 = %x_73;
  let %x_75 = %x_74;
  let %x_76 = %x_75;
  let %x_77 = %x_76;
  let %x_78 = %x_77;
  let %x_79 = %x_78;
  let %x_80 = %x_79;
  let %x_811 = %x_80;
  let %x_82 = %x_811;
  let %x_83 = %x_82;
  let %x_84 = %x_83;
  let %x_85 = %x_84;
  let %x_86 = %x_85;
  let %x_87 = %x_86;
  %x_87
}

#[metadata]
{
  "root": 1, 
  "nodes": [
    {
      "type_key": ""
    }, 
    {
      "type_key": "Map", 
      "keys": [
        "relay.attrs.InitOpAttrs", 
        "relay.Constant"
      ], 
      "data": [2, 10]
    }, 
    {
      "type_key": "Array", 
      "data": [3, 8]
    }, 
    {
      "type_key": "relay.attrs.InitOpAttrs", 
      "attrs": {
        "dtype": "", 
        "shape": "4"
      }
    }, 
    {
      "type_key": "Array", 
      "data": [5, 6, 7]
    }, 
    {
      "type_key": "IntImm", 
      "attrs": {
        "dtype": "int32", 
        "span": "0", 
        "value": "2"
      }
    }, 
    {
      "type_key": "IntImm", 
      "attrs": {
        "dtype": "int32", 
        "span": "0", 
        "value": "7"
      }
    }, 
    {
      "type_key": "IntImm", 
      "attrs": {
        "dtype": "int32", 
        "span": "0", 
        "value": "2"
      }
    }, 
    {
      "type_key": "relay.attrs.InitOpAttrs", 
      "attrs": {
        "dtype": "", 
        "shape": "9"
      }
    }, 
    {
      "type_key": "Array", 
      "data": [5, 6, 7]
    }, 
    {
      "type_key": "Array", 
      "data": [11, 19, 24]
    }, 
    {
      "type_key": "relay.Constant", 
      "attrs": {
        "_checked_type_": "16", 
        "data": "0", 
        "span": "14", 
        "virtual_device_": "12"
      }
    }, 
    {
      "type_key": "VirtualDevice", 
      "attrs": {
        "device_type_int": "-1", 
        "memory_scope": "13", 
        "target": "0", 
        "virtual_device_id": "-1"
      }
    }, 
    {
      "type_key": "runtime.String"
    }, 
    {
      "type_key": "Span", 
      "attrs": {
        "column": "117", 
        "end_column": "135", 
        "end_line": "43", 
        "line": "43", 
        "source_name": "15"
      }
    }, 
    {
      "type_key": "SourceName", 
      "repr_str": "from_string"
    }, 
    {
      "type_key": "relay.TensorType", 
      "attrs": {
        "dtype": "int32", 
        "shape": "17", 
        "span": "0"
      }
    }, 
    {
      "type_key": "Array", 
      "data": [18]
    }, 
    {
      "type_key": "IntImm", 
      "attrs": {
        "dtype": "int32", 
        "span": "0", 
        "value": "3"
      }
    }, 
    {
      "type_key": "relay.Constant", 
      "attrs": {
        "_checked_type_": "21", 
        "data": "1", 
        "span": "20", 
        "virtual_device_": "12"
      }
    }, 
    {
      "type_key": "Span", 
      "attrs": {
        "column": "117", 
        "end_column": "135", 
        "end_line": "55", 
        "line": "55", 
        "source_name": "15"
      }
    }, 
    {
      "type_key": "relay.TensorType", 
      "attrs": {
        "dtype": "int32", 
        "shape": "22", 
        "span": "0"
      }
    }, 
    {
      "type_key": "Array", 
      "data": [23]
    }, 
    {
      "type_key": "IntImm", 
      "attrs": {
        "dtype": "int32", 
        "span": "0", 
        "value": "3"
      }
    }, 
    {
      "type_key": "relay.Constant", 
      "attrs": {
        "_checked_type_": "28", 
        "data": "2", 
        "span": "27", 
        "virtual_device_": "25"
      }
    }, 
    {
      "type_key": "VirtualDevice", 
      "attrs": {
        "device_type_int": "-1", 
        "memory_scope": "26", 
        "target": "0", 
        "virtual_device_id": "-1"
      }
    }, 
    {
      "type_key": "runtime.String"
    }, 
    {
      "type_key": "Span", 
      "attrs": {
        "column": "94", 
        "end_column": "112", 
        "end_line": "70", 
        "line": "70", 
        "source_name": "15"
      }
    }, 
    {
      "type_key": "relay.TensorType", 
      "attrs": {
        "dtype": "int32", 
        "shape": "29", 
        "span": "0"
      }
    }, 
    {
      "type_key": "Array", 
      "data": [30]
    }, 
    {
      "type_key": "IntImm", 
      "attrs": {
        "dtype": "int32", 
        "span": "0", 
        "value": "2"
      }
    }
  ], 
  "b64ndarrays": [
    "P6G0lvBAXt0AAAAAAAAAAAEAAAAAAAAAAQAAAAAgAQADAAAAAAAAAAwAAAAAAAAAAgAAAAcAAAACAAAA", 
    "P6G0lvBAXt0AAAAAAAAAAAEAAAAAAAAAAQAAAAAgAQADAAAAAAAAAAwAAAAAAAAAAgAAAAcAAAACAAAA", 
    "P6G0lvBAXt0AAAAAAAAAAAEAAAAAAAAAAQAAAAAgAQACAAAAAAAAAAgAAAAAAAAABAAAAAcAAAA="
  ], 
  "attrs": {"tvm_version": "0.13.0"}
}