#[version = "0.0.5"]
def @main(%x0: Tensor[(4, 7), float32] /* ty=Tensor[(4, 7), float32] span=from_string:84:12 */, %x1: Tensor[(2, 7, 2), float32] /* ty=Tensor[(2, 7, 2), float32] span=from_string:29:13 */, %x2: Tensor[(14, 2), float32] /* ty=Tensor[(14, 2), float32] span=from_string:78:13 */, %x3: int32 /* ty=int32 span=from_string:87:89 */, %x4: int32 /* ty=int32 span=from_string:87:94 */, %x5: Tensor[(74, 7, 2), float32] /* ty=Tensor[(74, 7, 2), float32] span=from_string:90:18 */, %x6: Tensor[(16, 2), float32] /* ty=Tensor[(16, 2), float32] span=from_string:69:18 */, %x7: Tensor[(16), float32] /* ty=Tensor[(16), float32] span=from_string:69:23 */, %x8: Tensor[(1), float32] /* ty=Tensor[(1), float32] span=from_string:69:28 */, %x9: Tensor[(32, 2), float32] /* ty=Tensor[(32, 2), float32] span=from_string:78:18 */, %x10: Tensor[(32), float32] /* ty=Tensor[(32), float32] span=from_string:78:23 */, %x11: Tensor[(1), float32] /* ty=Tensor[(1), float32] span=from_string:78:29 */) -> (Tensor[(4, 7), float32], (Tensor[(2, 7, 2), float32], (Tensor[(2, 7, 2), float32],)), Tensor[(2, 7, 2), float32], Tensor[(6, 2), float32], Tensor[(2, 7, 2), float32], Tensor[(2, 7, 2), float32], Tensor[(76, 7, 2), float32], (Tensor[(1, 1, 224), float32], Tensor[(1, 1, 448), float32])) {
  let %x_0 = fn (%p0: Tensor[(2, 7, 2), float32] /* ty=Tensor[(2, 7, 2), float32] span=from_string:4:20 */, Primitive=1) -> Tensor[(2, 7, 2), float32] {
    multiply(%p0, %p0) /* ty=Tensor[(2, 7, 2), float32] span=from_string:4:6 */
  } /* ty=fn (Tensor[(2, 7, 2), float32]) -> Tensor[(2, 7, 2), float32] span=from_string:6:101 */;
  let %x12: Tensor[(2, 7, 2), float32] /* ty=Tensor[(2, 7, 2), float32] span=from_string:85:10 */ = %x_0(%x1);
  let %x_1 = fn (%p01: Tensor[(2, 7, 2), float32] /* ty=Tensor[(2, 7, 2), float32] span=from_string:8:15 */, Primitive=1) -> Tensor[(2, 7, 2), float32] {
    ones_like(%p01) /* ty=Tensor[(2, 7, 2), float32] span=from_string:8:5 */
  } /* ty=fn (Tensor[(2, 7, 2), float32]) -> Tensor[(2, 7, 2), float32] span=from_string:10:101 */;
  let %x13: Tensor[(2, 7, 2), float32] /* ty=Tensor[(2, 7, 2), float32] span=from_string:20:11 */ = %x_1(%x12);
  let %x_2 = fn (%p02: Tensor[(4, 7), float32] /* ty=Tensor[(4, 7), float32] span=from_string:12:18 */, Primitive=1, relay.reshape_only=1) -> Tensor[(4, 7), float32] {
    %0 = reshape(%p02, newshape=[2, 7, 2]) /* ty=Tensor[(2, 7, 2), float32] span=from_string:13:18 */;
    %1 = reshape(%0, newshape=[4, 7]) /* ty=Tensor[(4, 7), float32] span=from_string:14:18 */;
    %2 = reshape(%1, newshape=[2, 7, 2]) /* ty=Tensor[(2, 7, 2), float32] span=from_string:15:13 */;
    reshape(%2, newshape=[4, 7]) /* ty=Tensor[(4, 7), float32] span=from_string:12:5 */
  } /* ty=fn (Tensor[(4, 7), float32]) -> Tensor[(4, 7), float32] span=from_string:84:9 */;
  let %x_3 = %x_2(%x0);
  let %x_4 = fn (%p06: Tensor[(2, 7, 2), float32] /* ty=Tensor[(2, 7, 2), float32] span=from_string:18:15 */, %p13: Tensor[(2, 7, 2), float32] /* ty=Tensor[(2, 7, 2), float32] span=from_string:18:21 */, Primitive=1) -> Tensor[(2, 7, 2), float32] {
    multiply(%p06, %p13) /* ty=Tensor[(2, 7, 2), float32] span=from_string:18:6 */
  } /* ty=fn (Tensor[(2, 7, 2), float32], Tensor[(2, 7, 2), float32]) -> Tensor[(2, 7, 2), float32] span=from_string:20:8 */;
  let %x_5 = %x_4(%x13, %x1);
  let %x_6 = fn (%p05: Tensor[(2, 7, 2), float32] /* ty=Tensor[(2, 7, 2), float32] span=from_string:22:23 */, %p12: Tensor[(2, 7, 2), float32] /* ty=Tensor[(2, 7, 2), float32] span=from_string:22:29 */, Primitive=1) -> Tensor[(2, 7, 2), float32] {
    collapse_sum_like(%p05, %p12) /* ty=Tensor[(2, 7, 2), float32] span=from_string:22:5 */
  } /* ty=fn (Tensor[(2, 7, 2), float32], Tensor[(2, 7, 2), float32]) -> Tensor[(2, 7, 2), float32] span=from_string:24:9 */;
  let %x_7 = %x_6(%x_5, %x1);
  let %x_8 = fn (%p04: Tensor[(2, 7, 2), float32] /* ty=Tensor[(2, 7, 2), float32] span=from_string:26:21 */, %p11: Tensor[(2, 7, 2), float32] /* ty=Tensor[(2, 7, 2), float32] span=from_string:27:13 */, Primitive=1) -> Tensor[(2, 7, 2), float32] {
    %3 = zeros_like(%p04) /* ty=Tensor[(2, 7, 2), float32] span=from_string:27:9 */;
    add(%3, %p11) /* ty=Tensor[(2, 7, 2), float32] span=from_string:26:5 */
  } /* ty=fn (Tensor[(2, 7, 2), float32], Tensor[(2, 7, 2), float32]) -> Tensor[(2, 7, 2), float32] span=from_string:29:9 */;
  let %x_9 = %x_8(%x1, %x_7);
  let %x_10 = fn (%p03: Tensor[(2, 7, 2), float32] /* ty=Tensor[(2, 7, 2), float32] span=from_string:31:9 */, %p1: Tensor[(2, 7, 2), float32] /* ty=Tensor[(2, 7, 2), float32] span=from_string:31:15 */, Primitive=1) -> Tensor[(2, 7, 2), float32] {
    add(%p03, %p1) /* ty=Tensor[(2, 7, 2), float32] span=from_string:31:5 */
  } /* ty=fn (Tensor[(2, 7, 2), float32], Tensor[(2, 7, 2), float32]) -> Tensor[(2, 7, 2), float32] span=from_string:33:9 */;
  let %x_11 = %x_10(%x_9, %x_7);
  let %x_12 = (%x_11,) /* ty=(Tensor[(2, 7, 2), float32],) span=from_string:85:16 */;
  let %x_13 = (%x12, %x_12) /* ty=(Tensor[(2, 7, 2), float32], (Tensor[(2, 7, 2), float32],)) span=from_string:92:9 */;
  let %x_14 = fn (%p07: Tensor[(2, 7, 2), float32] /* ty=Tensor[(2, 7, 2), float32] span=from_string:36:19 */, Primitive=1, relay.reshape_only=1) -> Tensor[(2, 7, 2), float32] {
    %4 = reshape(%p07, newshape=[14, 2]) /* ty=Tensor[(14, 2), float32] span=from_string:37:13 */;
    reshape(%4, newshape=[2, 7, 2]) /* ty=Tensor[(2, 7, 2), float32] span=from_string:36:5 */
  } /* ty=fn (Tensor[(2, 7, 2), float32]) -> Tensor[(2, 7, 2), float32] span=from_string:86:9 */;
  let %x_15 = %x_14(%x_7);
  let %x_16 = meta[relay.Constant][0] /* ty=Tensor[(2), int32] span=from_string:87:18 */;
  let %x_17 = fn (%p08: Tensor[(2), int32] /* ty=Tensor[(2), int32] span=from_string:40:13 */, %p14: int32 /* ty=int32 span=from_string:40:19 */, %p2: int32 /* ty=int32 span=from_string:40:25 */, Primitive=1) -> Tensor[(6, 2), float32] {
    one_hot(%p08, %p14, %p2, depth=6, axis=0, dtype="float32") /* ty=Tensor[(6, 2), float32] span=from_string:40:5 */
  } /* ty=fn (Tensor[(2), int32], int32, int32) -> Tensor[(6, 2), float32] span=from_string:87:9 */;
  let %x_18 = %x_17(%x_16, %x3, %x4);
  let %x_19 = fn (%p010: Tensor[(2, 7, 2), float32] /* ty=Tensor[(2, 7, 2), float32] span=from_string:43:9 */, Primitive=1) -> Tensor[(2, 7, 2), float32] {
    add(%p010, 1f /* ty=float32 span=from_string:43:18 */) /* ty=Tensor[(2, 7, 2), float32] span=from_string:43:5 */
  } /* ty=fn (Tensor[(2, 7, 2), float32]) -> Tensor[(2, 7, 2), float32] span=from_string:45:9 */;
  let %x_20 = %x_19(%x_9);
  let %x_21 = fn (%p09: Tensor[(2, 7, 2), float32] /* ty=Tensor[(2, 7, 2), float32] span=from_string:47:20 */, Primitive=1) -> Tensor[(2, 7, 2), float32] {
    %5 = fast_exp(%p09) /* ty=Tensor[(2, 7, 2), float32] span=from_string:48:20 */;
    multiply(%5, %5) /* ty=Tensor[(2, 7, 2), float32] span=from_string:47:5 */
  } /* ty=fn (Tensor[(2, 7, 2), float32]) -> Tensor[(2, 7, 2), float32] span=from_string:88:9 */;
  let %x_22 = %x_21(%x_20);
  let %x_23 = fn (%p011: Tensor[(2, 7, 2), float32] /* ty=Tensor[(2, 7, 2), float32] span=from_string:51:15 */, Primitive=1) -> Tensor[(2, 7, 2), float32] {
    %6 = add(%p011, 1f /* ty=float32 span=from_string:51:24 */) /* ty=Tensor[(2, 7, 2), float32] span=from_string:52:20 */;
    %7 = fast_exp(%6) /* ty=Tensor[(2, 7, 2), float32] span=from_string:53:13 */;
    squeeze(%7) /* ty=Tensor[(2, 7, 2), float32] span=from_string:51:5 */
  } /* ty=fn (Tensor[(2, 7, 2), float32]) -> Tensor[(2, 7, 2), float32] span=from_string:89:9 */;
  let %x_24 = %x_23(%x_5);
  let %x_25 = fn (%p012: Tensor[(2, 7, 2), float32] /* ty=Tensor[(2, 7, 2), float32] span=from_string:56:12 */, %p15: Tensor[(74, 7, 2), float32] /* ty=Tensor[(74, 7, 2), float32] span=from_string:56:19 */, Primitive=1) -> Tensor[(76, 7, 2), float32] {
    %8 = (%p012, %p15) /* ty=(Tensor[(2, 7, 2), float32], Tensor[(74, 7, 2), float32]) span=from_string:57:23 */;
    %9 = concatenate(%8) /* ty=Tensor[(76, 7, 2), float32] span=from_string:58:34 */;
    %10 = annotation.stop_fusion(%9) /* ty=Tensor[(76, 7, 2), float32] span=from_string:59:12 */;
    %11 = (%10,) /* ty=(Tensor[(76, 7, 2), float32],) span=from_string:60:23 */;
    %12 = concatenate(%11) /* ty=Tensor[(76, 7, 2), float32] span=from_string:61:16 */;
    %13 = sqrt(%12) /* ty=Tensor[(76, 7, 2), float32] span=from_string:62:56 */;
    divide(2f /* ty=float32 span=from_string:62:14 */, %13) /* ty=Tensor[(76, 7, 2), float32] span=from_string:56:5 */
  } /* ty=fn (Tensor[(2, 7, 2), float32], Tensor[(74, 7, 2), float32]) -> Tensor[(76, 7, 2), float32] span=from_string:90:9 */;
  let %x_26 = %x_25(%x_20, %x5);
  let %x_27 = fn (%p014: Tensor[(14, 2), float32] /* ty=Tensor[(14, 2), float32] span=from_string:65:20 */, %p16: Tensor[(16, 2), float32] /* ty=Tensor[(16, 2), float32] span=from_string:65:27 */, %p21: Tensor[(16), float32] /* ty=Tensor[(16), float32] span=from_string:66:20 */, %p3: Tensor[(1), float32] /* ty=Tensor[(1), float32] span=from_string:67:20 */, Primitive=1) -> Tensor[(14, 16), float32] {
    %14 = nn.dense(%p014, %p16, units=None) /* ty=Tensor[(14, 16), float32] span=from_string:66:15 */;
    %15 = add(%14, %p21) /* ty=Tensor[(14, 16), float32] span=from_string:67:15 */;
    multiply(%15, %p3) /* ty=Tensor[(14, 16), float32] span=from_string:65:5 */
  } /* ty=fn (Tensor[(14, 2), float32], Tensor[(16, 2), float32], Tensor[(16), float32], Tensor[(1), float32]) -> Tensor[(14, 16), float32] span=from_string:69:9 */;
  let %x_28 = %x_27(%x2, %x6, %x7, %x8);
  let %x_29 = fn (%p013: Tensor[(14, 16), float32] /* ty=Tensor[(14, 16), float32] span=from_string:71:13 */, Primitive=1, relay.reshape_only=1) -> Tensor[(1, 1, 224), float32] {
    reshape(%p013, newshape=[1, 1, 224]) /* ty=Tensor[(1, 1, 224), float32] span=from_string:71:5 */
  } /* ty=fn (Tensor[(14, 16), float32]) -> Tensor[(1, 1, 224), float32] span=from_string:82:9 */;
  let %x_30 = %x_29(%x_28);
  let %x_31 = fn (%p016: Tensor[(14, 2), float32] /* ty=Tensor[(14, 2), float32] span=from_string:74:20 */, %p17: Tensor[(32, 2), float32] /* ty=Tensor[(32, 2), float32] span=from_string:74:27 */, %p22: Tensor[(32), float32] /* ty=Tensor[(32), float32] span=from_string:75:20 */, %p31: Tensor[(1), float32] /* ty=Tensor[(1), float32] span=from_string:76:20 */, Primitive=1) -> Tensor[(14, 32), float32] {
    %16 = nn.dense(%p016, %p17, units=None) /* ty=Tensor[(14, 32), float32] span=from_string:75:15 */;
    %17 = add(%16, %p22) /* ty=Tensor[(14, 32), float32] span=from_string:76:15 */;
    multiply(%17, %p31) /* ty=Tensor[(14, 32), float32] span=from_string:74:5 */
  } /* ty=fn (Tensor[(14, 2), float32], Tensor[(32, 2), float32], Tensor[(32), float32], Tensor[(1), float32]) -> Tensor[(14, 32), float32] span=from_string:78:9 */;
  let %x_32 = %x_31(%x2, %x9, %x10, %x11);
  let %x_33 = fn (%p015: Tensor[(14, 32), float32] /* ty=Tensor[(14, 32), float32] span=from_string:80:13 */, Primitive=1, relay.reshape_only=1) -> Tensor[(1, 1, 448), float32] {
    reshape(%p015, newshape=[1, 1, 448]) /* ty=Tensor[(1, 1, 448), float32] span=from_string:80:5 */
  } /* ty=fn (Tensor[(14, 32), float32]) -> Tensor[(1, 1, 448), float32] span=from_string:83:9 */;
  let %x_34 = %x_33(%x_32);
  let %x_35 = (%x_30, %x_34) /* ty=(Tensor[(1, 1, 224), float32], Tensor[(1, 1, 448), float32]) span=from_string:92:39 */;
  let %x_36 = (%x_3, %x_13, %x_15, %x_18, %x_22, %x_24, %x_26, %x_35) /* ty=(Tensor[(4, 7), float32], (Tensor[(2, 7, 2), float32], (Tensor[(2, 7, 2), float32],)), Tensor[(2, 7, 2), float32], Tensor[(6, 2), float32], Tensor[(2, 7, 2), float32], Tensor[(2, 7, 2), float32], Tensor[(76, 7, 2), float32], (Tensor[(1, 1, 224), float32], Tensor[(1, 1, 448), float32])) span=from_string:92:3 */;
  let %x_37 = %x_36;
  let %x_38 = %x_37;
  %x_38
}

#[metadata]
{
  "root": 1, 
  "nodes": [
    {
      "type_key": ""
    }, 
    {
      "type_key": "Map", 
      "keys": [
        "relay.Constant"
      ], 
      "data": [2]
    }, 
    {
      "type_key": "Array", 
      "data": [3]
    }, 
    {
      "type_key": "relay.Constant", 
      "attrs": {
        "_checked_type_": "8", 
        "data": "0", 
        "span": "6", 
        "virtual_device_": "4"
      }
    }, 
    {
      "type_key": "VirtualDevice", 
      "attrs": {
        "device_type_int": "-1", 
        "memory_scope": "5", 
        "target": "0", 
        "virtual_device_id": "-1"
      }
    }, 
    {
      "type_key": "runtime.String"
    }, 
    {
      "type_key": "Span", 
      "attrs": {
        "column": "18", 
        "end_column": "36", 
        "end_line": "87", 
        "line": "87", 
        "source_name": "7"
      }
    }, 
    {
      "type_key": "SourceName", 
      "repr_str": "from_string"
    }, 
    {
      "type_key": "relay.TensorType", 
      "attrs": {
        "dtype": "int32", 
        "shape": "9", 
        "span": "0"
      }
    }, 
    {
      "type_key": "Array", 
      "data": [10]
    }, 
    {
      "type_key": "IntImm", 
      "attrs": {
        "dtype": "int32", 
        "span": "0", 
        "value": "2"
      }
    }
  ], 
  "b64ndarrays": [
    "P6G0lvBAXt0AAAAAAAAAAAEAAAAAAAAAAQAAAAAgAQACAAAAAAAAAAgAAAAAAAAABAAAAAcAAAA="
  ], 
  "attrs": {"tvm_version": "0.13.0"}
}