#[version = "0.0.5"]
def @main(%x0: Tensor[(4, 7), float32] /* ty=Tensor[(4, 7), float32] span=from_string:6:13 */, %x1: Tensor[(2, 7, 2), float32] /* ty=Tensor[(2, 7, 2), float32] span=from_string:3:13 */, %x2: Tensor[(14, 2), float32] /* ty=Tensor[(14, 2), float32] span=from_string:50:14 */, %x3: int32 /* ty=int32 span=from_string:24:112 */, %x4: int32 /* ty=int32 span=from_string:24:117 */, %x5: Tensor[(74, 7, 2), float32] /* ty=Tensor[(74, 7, 2), float32] span=from_string:41:171 */, %x6: Tensor[(16, 2), float32] /* ty=Tensor[(16, 2), float32] span=from_string:51:14 */, %x7: Tensor[(16), float32] /* ty=Tensor[(16), float32] span=from_string:53:14 */, %x8: Tensor[(1), float32] /* ty=Tensor[(1), float32] span=from_string:55:14 */, %x9: Tensor[(32, 2), float32] /* ty=Tensor[(32, 2), float32] span=from_string:58:14 */, %x10: Tensor[(32), float32] /* ty=Tensor[(32), float32] span=from_string:60:14 */, %x11: Tensor[(1), float32] /* ty=Tensor[(1), float32] span=from_string:62:14 */) -> (Tensor[(4, 7), float16], (Tensor[(2, 7, 2), float16], (Tensor[(2, 7, 2), float16],)), Tensor[(2, 7, 2), float16], Tensor[(6, 2), float32], Tensor[(2, 7, 2), float16], Tensor[(2, 7, 2), float16], Tensor[(76, 7, 2), float16], (Tensor[(1, 1, 224), float16], Tensor[(1, 1, 448), float16])) {
  %0 = cast(%x0, dtype="float16") /* ty=Tensor[(4, 7), float16] span=from_string:7:109 */;
  %1 = reshape(%0, newshape=[2, 7, 2]) /* ty=Tensor[(2, 7, 2), float16] span=from_string:7:101 */;
  %2 = reshape(%1, newshape=[4, 7]) /* ty=Tensor[(4, 7), float16] span=from_string:8:95 */;
  %3 = reshape(%2, newshape=[2, 7, 2]) /* ty=Tensor[(2, 7, 2), float16] span=from_string:9:102 */;
  %4 = cast(%x1, dtype="float16") /* ty=Tensor[(2, 7, 2), float16] span=from_string:17:126 */;
  %5 = multiply(%4, %4) /* ty=Tensor[(2, 7, 2), float16] span=from_string:4:103 */;
  %6 = ones_like(%5) /* ty=Tensor[(2, 7, 2), float16] span=from_string:5:102 */;
  %7 = multiply(%6, %4) /* ty=Tensor[(2, 7, 2), float16] span=from_string:16:102 */;
  %8 = zeros_like(%4) /* ty=Tensor[(2, 7, 2), float16] span=from_string:11:102 */;
  %9 = collapse_sum_like(%7, %4) /* ty=Tensor[(2, 7, 2), float16] span=from_string:14:102 */;
  %10 = add(%8, %9) /* ty=Tensor[(2, 7, 2), float16] span=from_string:15:102 */;
  %11 = collapse_sum_like(%7, %4) /* ty=Tensor[(2, 7, 2), float16] span=from_string:17:102 */;
  %12 = add(%10, %11) /* ty=Tensor[(2, 7, 2), float16] span=from_string:18:103 */;
  %13 = (%12,) /* ty=(Tensor[(2, 7, 2), float16],) span=from_string:19:109 */;
  %14 = reshape(%9, newshape=[14, 2]) /* ty=Tensor[(14, 2), float16] span=from_string:21:99 */;
  %15 = cast(1f /* ty=float32 span=from_string:25:66 */, dtype="float16") /* ty=float16 span=from_string:27:113 */;
  %16 = add(%10, %15) /* ty=Tensor[(2, 7, 2), float16] span=from_string:27:103 */;
  %17 = annotation.stop_fusion(%16) /* ty=Tensor[(2, 7, 2), float16] span=from_string:28:103 */;
  %18 = cast(%17, dtype="float32") /* ty=Tensor[(2, 7, 2), float32] span=from_string:30:106 */;
  %19 = exp(%18) /* ty=Tensor[(2, 7, 2), float32] span=from_string:30:102 */;
  %20 = cast(%19, dtype="float16") /* ty=Tensor[(2, 7, 2), float16] span=from_string:32:117 */;
  %21 = cast(1f /* ty=float32 span=from_string:33:66 */, dtype="float16") /* ty=float16 span=from_string:35:112 */;
  %22 = add(%7, %21) /* ty=Tensor[(2, 7, 2), float16] span=from_string:35:102 */;
  %23 = cast(%22, dtype="float32") /* ty=Tensor[(2, 7, 2), float32] span=from_string:37:106 */;
  %24 = exp(%23) /* ty=Tensor[(2, 7, 2), float32] span=from_string:37:102 */;
  %25 = cast(%24, dtype="float16") /* ty=Tensor[(2, 7, 2), float16] span=from_string:39:111 */;
  %26 = (%17, %x5) /* ty=(Tensor[(2, 7, 2), float16], Tensor[(74, 7, 2), float32]) span=from_string:41:163 */;
  %27 = %26.1 /* ty=Tensor[(74, 7, 2), float32] span=from_string:44:14 */;
  %28 = %26.0 /* ty=Tensor[(2, 7, 2), float16] span=from_string:45:10 */;
  %29 = cast(%27, dtype="float16") /* ty=Tensor[(74, 7, 2), float16] span=from_string:45:15 */;
  %30 = (%28, %29) /* ty=(Tensor[(2, 7, 2), float16], Tensor[(74, 7, 2), float16]) span=from_string:46:117 */;
  %31 = concatenate(%30) /* ty=Tensor[(76, 7, 2), float16] span=from_string:46:105 */;
  %32 = cast(2f /* ty=float32 span=from_string:40:66 */, dtype="float16") /* ty=float16 span=from_string:49:112 */;
  %33 = sqrt(%31) /* ty=Tensor[(76, 7, 2), float16] span=from_string:47:105 */;
  %34 = cast(%x2, dtype="float16") /* ty=Tensor[(14, 2), float16] span=from_string:59:110 */;
  %35 = cast(%x6, dtype="float16") /* ty=Tensor[(16, 2), float16] span=from_string:52:115 */;
  %36 = nn.dense(%34, %35, units=None, out_dtype="float16") /* ty=Tensor[(14, 16), float16] span=from_string:52:101 */;
  %37 = cast(%x7, dtype="float16") /* ty=Tensor[(16), float16] span=from_string:54:112 */;
  %38 = add(%36, %37) /* ty=Tensor[(14, 16), float16] span=from_string:54:101 */;
  %39 = cast(%x8, dtype="float16") /* ty=Tensor[(1), float16] span=from_string:56:118 */;
  %40 = multiply(%38, %39) /* ty=Tensor[(14, 16), float16] span=from_string:56:102 */;
  %41 = cast(%x9, dtype="float16") /* ty=Tensor[(32, 2), float16] span=from_string:59:115 */;
  %42 = nn.dense(%34, %41, units=None, out_dtype="float16") /* ty=Tensor[(14, 32), float16] span=from_string:59:101 */;
  %43 = cast(%x10, dtype="float16") /* ty=Tensor[(32), float16] span=from_string:61:112 */;
  %44 = add(%42, %43) /* ty=Tensor[(14, 32), float16] span=from_string:61:101 */;
  %45 = cast(%x11, dtype="float16") /* ty=Tensor[(1), float16] span=from_string:63:118 */;
  %46 = multiply(%44, %45) /* ty=Tensor[(14, 32), float16] span=from_string:63:102 */;
  %47 = reshape(%40, newshape=[1, 1, 224]) /* ty=Tensor[(1, 1, 224), float16] span=from_string:57:107 */;
  %48 = reshape(%46, newshape=[1, 1, 448]) /* ty=Tensor[(1, 1, 448), float16] span=from_string:64:107 */;
  %49 = reshape(%3, newshape=[4, 7]) /* ty=Tensor[(4, 7), float16] span=from_string:10:96 */;
  %50 = (%5, %13) /* ty=(Tensor[(2, 7, 2), float16], (Tensor[(2, 7, 2), float16],)) span=from_string:20:169 */;
  %51 = reshape(%14, newshape=[2, 7, 2]) /* ty=Tensor[(2, 7, 2), float16] span=from_string:22:103 */;
  %52 = one_hot(meta[relay.Constant][0] /* ty=Tensor[(2), int32] span=from_string:23:94 */, %x3, %x4, depth=6, axis=0, dtype="float32") /* ty=Tensor[(6, 2), float32] span=from_string:24:97 */;
  %53 = multiply(%20, %20) /* ty=Tensor[(2, 7, 2), float16] span=from_string:32:104 */;
  %54 = squeeze(%25) /* ty=Tensor[(2, 7, 2), float16] span=from_string:39:103 */;
  %55 = divide(%32, %33) /* ty=Tensor[(76, 7, 2), float16] span=from_string:49:105 */;
  %56 = (%47, %48) /* ty=(Tensor[(1, 1, 224), float16], Tensor[(1, 1, 448), float16]) span=from_string:65:171 */;
  (%49, %50, %51, %52, %53, %54, %55, %56) /* ty=(Tensor[(4, 7), float16], (Tensor[(2, 7, 2), float16], (Tensor[(2, 7, 2), float16],)), Tensor[(2, 7, 2), float16], Tensor[(6, 2), float32], Tensor[(2, 7, 2), float16], Tensor[(2, 7, 2), float16], Tensor[(76, 7, 2), float16], (Tensor[(1, 1, 224), float16], Tensor[(1, 1, 448), float16])) span=from_string:66:623 */
}

#[metadata]
{
  "root": 1, 
  "nodes": [
    {
      "type_key": ""
    }, 
    {
      "type_key": "Map", 
      "keys": [
        "relay.Constant"
      ], 
      "data": [2]
    }, 
    {
      "type_key": "Array", 
      "data": [3]
    }, 
    {
      "type_key": "relay.Constant", 
      "attrs": {
        "_checked_type_": "8", 
        "data": "0", 
        "span": "6", 
        "virtual_device_": "4"
      }
    }, 
    {
      "type_key": "VirtualDevice", 
      "attrs": {
        "device_type_int": "-1", 
        "memory_scope": "5", 
        "target": "0", 
        "virtual_device_id": "-1"
      }
    }, 
    {
      "type_key": "runtime.String"
    }, 
    {
      "type_key": "Span", 
      "attrs": {
        "column": "94", 
        "end_column": "112", 
        "end_line": "23", 
        "line": "23", 
        "source_name": "7"
      }
    }, 
    {
      "type_key": "SourceName", 
      "repr_str": "from_string"
    }, 
    {
      "type_key": "relay.TensorType", 
      "attrs": {
        "dtype": "int32", 
        "shape": "9", 
        "span": "0"
      }
    }, 
    {
      "type_key": "Array", 
      "data": [10]
    }, 
    {
      "type_key": "IntImm", 
      "attrs": {
        "dtype": "int32", 
        "span": "0", 
        "value": "2"
      }
    }
  ], 
  "b64ndarrays": [
    "P6G0lvBAXt0AAAAAAAAAAAEAAAAAAAAAAQAAAAAgAQACAAAAAAAAAAgAAAAAAAAABAAAAAcAAAA="
  ], 
  "attrs": {"tvm_version": "0.13.0"}
}