#[version = "0.0.5"]
def @main(%x0: Tensor[(4, 7), float32] /* ty=Tensor[(4, 7), float32] span=from_string:88:12 */, %x1: Tensor[(2, 7, 2), float32] /* ty=Tensor[(2, 7, 2), float32] span=from_string:30:18 */, %x2: Tensor[(14, 2), float32] /* ty=Tensor[(14, 2), float32] span=from_string:82:13 */, %x3: int32 /* ty=int32 span=from_string:91:89 */, %x4: int32 /* ty=int32 span=from_string:91:94 */, %x5: Tensor[(74, 7, 2), float32] /* ty=Tensor[(74, 7, 2), float32] span=from_string:59:18 */, %x6: Tensor[(16, 2), float32] /* ty=Tensor[(16, 2), float32] span=from_string:72:18 */, %x7: Tensor[(16), float32] /* ty=Tensor[(16), float32] span=from_string:72:23 */, %x8: Tensor[(1), float32] /* ty=Tensor[(1), float32] span=from_string:72:28 */, %x9: Tensor[(32, 2), float32] /* ty=Tensor[(32, 2), float32] span=from_string:82:18 */, %x10: Tensor[(32), float32] /* ty=Tensor[(32), float32] span=from_string:82:23 */, %x11: Tensor[(1), float32] /* ty=Tensor[(1), float32] span=from_string:82:29 */) -> (Tensor[(4, 7), float16], (Tensor[(2, 7, 2), float16], (Tensor[(2, 7, 2), float16],)), Tensor[(2, 7, 2), float16], Tensor[(6, 2), float32], Tensor[(2, 7, 2), float32], Tensor[(2, 7, 2), float32], Tensor[(76, 7, 2), float32], (Tensor[(1, 1, 224), float16], Tensor[(1, 1, 448), float16])) {
  %1 = fn (%p0: Tensor[(2, 7, 2), float32] /* ty=Tensor[(2, 7, 2), float32] span=from_string:4:20 */, Primitive=1) -> Tensor[(2, 7, 2), float16] {
    %0 = cast(%p0, dtype="float16") /* ty=Tensor[(2, 7, 2), float16] */;
    multiply(%0, %0) /* ty=Tensor[(2, 7, 2), float16] span=from_string:4:6 */
  } /* ty=fn (Tensor[(2, 7, 2), float32]) -> Tensor[(2, 7, 2), float16] span=from_string:6:101 */;
  let %x12: Tensor[(2, 7, 2), float16] /* ty=Tensor[(2, 7, 2), float16] span=from_string:89:10 */ = %1(%x1) /* ty=Tensor[(2, 7, 2), float16] span=from_string:6:101 */;
  %2 = cast(%x12, dtype="float32") /* ty=Tensor[(2, 7, 2), float32] */;
  %3 = fn (%p01: Tensor[(2, 7, 2), float32] /* ty=Tensor[(2, 7, 2), float32] */, Primitive=1) -> Tensor[(2, 7, 2), float16] {
    ones(shape=[2, 7, 2], dtype="float16") /* ty=Tensor[(2, 7, 2), float16] span=from_string:8:5 */
  } /* ty=fn (Tensor[(2, 7, 2), float32]) -> Tensor[(2, 7, 2), float16] span=from_string:10:101 */;
  let %x13: Tensor[(2, 7, 2), float16] /* ty=Tensor[(2, 7, 2), float16] span=from_string:30:12 */ = %3(%2) /* ty=Tensor[(2, 7, 2), float16] span=from_string:10:101 */;
  %5 = fn (%p02: Tensor[(4, 7), float32] /* ty=Tensor[(4, 7), float32] span=from_string:12:13 */, Primitive=1, relay.reshape_only=1) -> Tensor[(4, 7), float16] {
    %4 = cast(%p02, dtype="float16") /* ty=Tensor[(4, 7), float16] */;
    reshape(%4, newshape=[4, 7]) /* ty=Tensor[(4, 7), float16] span=from_string:12:5 */
  } /* ty=fn (Tensor[(4, 7), float32]) -> Tensor[(4, 7), float16] span=from_string:88:9 */;
  %11 = cast(%x13, dtype="float32") /* ty=Tensor[(2, 7, 2), float32] */;
  %12 = fn (%p06: Tensor[(2, 7, 2), float32] /* ty=Tensor[(2, 7, 2), float32] span=from_string:15:15 */, %p13: Tensor[(2, 7, 2), float32] /* ty=Tensor[(2, 7, 2), float32] span=from_string:15:21 */, Primitive=1) -> Tensor[(2, 7, 2), float16] {
    %9 = cast(%p06, dtype="float16") /* ty=Tensor[(2, 7, 2), float16] */;
    %10 = cast(%p13, dtype="float16") /* ty=Tensor[(2, 7, 2), float16] */;
    multiply(%9, %10) /* ty=Tensor[(2, 7, 2), float16] span=from_string:15:6 */
  } /* ty=fn (Tensor[(2, 7, 2), float32], Tensor[(2, 7, 2), float32]) -> Tensor[(2, 7, 2), float16] span=from_string:17:8 */;
  %13 = %12(%11, %x1) /* ty=Tensor[(2, 7, 2), float16] span=from_string:93:13 */;
  %14 = cast(%13, dtype="float32") /* ty=Tensor[(2, 7, 2), float32] */;
  %15 = fn (%p05: Tensor[(2, 7, 2), float32] /* ty=Tensor[(2, 7, 2), float32] span=from_string:19:21 */, %p12: Tensor[(2, 7, 2), float32] /* ty=Tensor[(2, 7, 2), float32] */, Primitive=1) -> Tensor[(2, 7, 2), float16] {
    %8 = cast(%p05, dtype="float16") /* ty=Tensor[(2, 7, 2), float16] */;
    collapse_sum_to(%8, meta[relay.Constant][0] /* ty=Tensor[(3), int32] span=from_string:19:32 */, meta[relay.attrs.InitOpAttrs][0]) /* ty=Tensor[(2, 7, 2), float16] span=from_string:19:5 */
  } /* ty=fn (Tensor[(2, 7, 2), float32], Tensor[(2, 7, 2), float32]) -> Tensor[(2, 7, 2), float16] span=from_string:21:8 */;
  %16 = %15(%14, %x1) /* ty=Tensor[(2, 7, 2), float16] span=from_string:90:13 */;
  %17 = cast(%16, dtype="float32") /* ty=Tensor[(2, 7, 2), float32] */;
  %18 = fn (%p04: Tensor[(2, 7, 2), float32] /* ty=Tensor[(2, 7, 2), float32] */, %p11: Tensor[(2, 7, 2), float32] /* ty=Tensor[(2, 7, 2), float32] span=from_string:23:5 */, Primitive=1) -> Tensor[(2, 7, 2), float32] {
    %p11
  } /* ty=fn (Tensor[(2, 7, 2), float32], Tensor[(2, 7, 2), float32]) -> Tensor[(2, 7, 2), float32] span=from_string:29:9 */;
  %22 = fn (%p07: Tensor[(2, 7, 2), float32] /* ty=Tensor[(2, 7, 2), float32] span=from_string:26:20 */, %p14: Tensor[(2, 7, 2), float32] /* ty=Tensor[(2, 7, 2), float32] span=from_string:26:26 */, Primitive=1) -> Tensor[(2, 7, 2), float16] {
    %19 = cast(%p07, dtype="float16") /* ty=Tensor[(2, 7, 2), float16] */;
    %20 = cast(%p14, dtype="float16") /* ty=Tensor[(2, 7, 2), float16] */;
    %21 = multiply(%19, %20) /* ty=Tensor[(2, 7, 2), float16] span=from_string:27:21 */;
    collapse_sum_to(%21, meta[relay.Constant][1] /* ty=Tensor[(3), int32] span=from_string:27:30 */, meta[relay.attrs.InitOpAttrs][1]) /* ty=Tensor[(2, 7, 2), float16] span=from_string:26:5 */
  } /* ty=fn (Tensor[(2, 7, 2), float32], Tensor[(2, 7, 2), float32]) -> Tensor[(2, 7, 2), float16] span=from_string:30:9 */;
  %23 = %22(%11, %x1) /* ty=Tensor[(2, 7, 2), float16] span=from_string:34:18 */;
  %24 = %18(%x1, %17) /* ty=Tensor[(2, 7, 2), float32] span=from_string:45:13 */;
  %25 = cast(%23, dtype="float32") /* ty=Tensor[(2, 7, 2), float32] */;
  %26 = fn (%p03: Tensor[(2, 7, 2), float32] /* ty=Tensor[(2, 7, 2), float32] span=from_string:32:9 */, %p1: Tensor[(2, 7, 2), float32] /* ty=Tensor[(2, 7, 2), float32] span=from_string:32:15 */, Primitive=1) -> Tensor[(2, 7, 2), float16] {
    %6 = cast(%p03, dtype="float16") /* ty=Tensor[(2, 7, 2), float16] */;
    %7 = cast(%p1, dtype="float16") /* ty=Tensor[(2, 7, 2), float16] */;
    add(%6, %7) /* ty=Tensor[(2, 7, 2), float16] span=from_string:32:5 */
  } /* ty=fn (Tensor[(2, 7, 2), float32], Tensor[(2, 7, 2), float32]) -> Tensor[(2, 7, 2), float16] span=from_string:34:9 */;
  %27 = %26(%24, %25) /* ty=Tensor[(2, 7, 2), float16] span=from_string:35:10 */;
  %28 = (%27,) /* ty=(Tensor[(2, 7, 2), float16],) span=from_string:89:16 */;
  %30 = fn (%p08: Tensor[(2, 7, 2), float32] /* ty=Tensor[(2, 7, 2), float32] span=from_string:37:13 */, Primitive=1, relay.reshape_only=1) -> Tensor[(2, 7, 2), float16] {
    %29 = cast(%p08, dtype="float16") /* ty=Tensor[(2, 7, 2), float16] */;
    reshape(%29, newshape=[2, 7, 2]) /* ty=Tensor[(2, 7, 2), float16] span=from_string:37:5 */
  } /* ty=fn (Tensor[(2, 7, 2), float32]) -> Tensor[(2, 7, 2), float16] span=from_string:90:9 */;
  %31 = fn (%p09: Tensor[(2), int32] /* ty=Tensor[(2), int32] span=from_string:40:13 */, %p15: int32 /* ty=int32 span=from_string:40:19 */, %p2: int32 /* ty=int32 span=from_string:40:25 */, Primitive=1) -> Tensor[(6, 2), float32] {
    one_hot(%p09, %p15, %p2, depth=6, axis=0, dtype="float32") /* ty=Tensor[(6, 2), float32] span=from_string:40:5 */
  } /* ty=fn (Tensor[(2), int32], int32, int32) -> Tensor[(6, 2), float32] span=from_string:91:9 */;
  %35 = fn (%p011: Tensor[(2, 7, 2), float32] /* ty=Tensor[(2, 7, 2), float32] span=from_string:43:9 */, Primitive=1) -> Tensor[(2, 7, 2), float16] {
    %33 = cast(%p011, dtype="float16") /* ty=Tensor[(2, 7, 2), float16] */;
    %34 = cast(1f /* ty=float32 span=from_string:43:18 */, dtype="float16") /* ty=float16 */;
    add(%33, %34) /* ty=Tensor[(2, 7, 2), float16] span=from_string:43:5 */
  } /* ty=fn (Tensor[(2, 7, 2), float32]) -> Tensor[(2, 7, 2), float16] span=from_string:45:9 */;
  %36 = %35(%24) /* ty=Tensor[(2, 7, 2), float16] span=from_string:92:13 */;
  %37 = cast(%36, dtype="float32") /* ty=Tensor[(2, 7, 2), float32] */;
  %38 = fn (%p010: Tensor[(2, 7, 2), float32] /* ty=Tensor[(2, 7, 2), float32] span=from_string:47:15 */, Primitive=1) -> Tensor[(2, 7, 2), float32] {
    %32 = exp(%p010) /* ty=Tensor[(2, 7, 2), float32] span=from_string:48:20 */;
    multiply(%32, %32) /* ty=Tensor[(2, 7, 2), float32] span=from_string:47:5 */
  } /* ty=fn (Tensor[(2, 7, 2), float32]) -> Tensor[(2, 7, 2), float32] span=from_string:92:9 */;
  %44 = fn (%p012: Tensor[(2, 7, 2), float32] /* ty=Tensor[(2, 7, 2), float32] span=from_string:51:15 */, Primitive=1) -> Tensor[(2, 7, 2), float32] {
    %39 = cast(%p012, dtype="float16") /* ty=Tensor[(2, 7, 2), float16] */;
    %40 = cast(1f /* ty=float32 span=from_string:51:24 */, dtype="float16") /* ty=float16 */;
    %41 = add(%39, %40) /* ty=Tensor[(2, 7, 2), float16] span=from_string:52:15 */;
    %42 = cast(%41, dtype="float32") /* ty=Tensor[(2, 7, 2), float32] */;
    %43 = exp(%42) /* ty=Tensor[(2, 7, 2), float32] span=from_string:53:13 */;
    squeeze(%43) /* ty=Tensor[(2, 7, 2), float32] span=from_string:51:5 */
  } /* ty=fn (Tensor[(2, 7, 2), float32]) -> Tensor[(2, 7, 2), float32] span=from_string:93:9 */;
  %49 = fn (%p014: Tensor[(2, 7, 2), float32] /* ty=Tensor[(2, 7, 2), float32] span=from_string:56:12 */, %p16: Tensor[(74, 7, 2), float32] /* ty=Tensor[(74, 7, 2), float32] span=from_string:56:19 */, Primitive=1) -> Tensor[(76, 7, 2), float32] {
    %48 = (%p014, %p16) /* ty=(Tensor[(2, 7, 2), float32], Tensor[(74, 7, 2), float32]) span=from_string:57:17 */;
    concatenate(%48) /* ty=Tensor[(76, 7, 2), float32] span=from_string:56:5 */
  } /* ty=fn (Tensor[(2, 7, 2), float32], Tensor[(74, 7, 2), float32]) -> Tensor[(76, 7, 2), float32] span=from_string:59:9 */;
  %50 = %49(%37, %x5) /* ty=Tensor[(76, 7, 2), float32] span=from_string:94:13 */;
  %51 = fn (%p013: Tensor[(76, 7, 2), float32] /* ty=Tensor[(76, 7, 2), float32] span=from_string:61:12 */, Primitive=1) -> Tensor[(76, 7, 2), float32] {
    %45 = (%p013,) /* ty=(Tensor[(76, 7, 2), float32],) span=from_string:62:23 */;
    %46 = concatenate(%45) /* ty=Tensor[(76, 7, 2), float32] span=from_string:63:17 */;
    %47 = rsqrt(%46) /* ty=Tensor[(76, 7, 2), float32] span=from_string:64:59 */;
    multiply(2f /* ty=float32 span=from_string:64:17 */, %47) /* ty=Tensor[(76, 7, 2), float32] span=from_string:61:5 */
  } /* ty=fn (Tensor[(76, 7, 2), float32]) -> Tensor[(76, 7, 2), float32] span=from_string:94:9 */;
  %60 = fn (%p016: Tensor[(14, 2), float32] /* ty=Tensor[(14, 2), float32] span=from_string:67:20 */, %p17: Tensor[(16, 2), float32] /* ty=Tensor[(16, 2), float32] span=from_string:67:27 */, %p21: Tensor[(16), float32] /* ty=Tensor[(16), float32] span=from_string:68:23 */, %p3: Tensor[(1), float32] /* ty=Tensor[(1), float32] span=from_string:70:20 */, Primitive=1) -> Tensor[(14, 16), float16] {
    %53 = cast(%p016, dtype="float16") /* ty=Tensor[(14, 2), float16] */;
    %54 = cast(%p17, dtype="float16") /* ty=Tensor[(16, 2), float16] */;
    %55 = cast(%p21, dtype="float16") /* ty=Tensor[(16), float16] */;
    %56 = nn.dense(%53, %54, units=None, out_dtype="float16") /* ty=Tensor[(14, 16), float16] span=from_string:69:15 */;
    %57 = expand_dims(%55, axis=0) /* ty=Tensor[(1, 16), float16] span=from_string:69:20 */;
    %58 = add(%56, %57) /* ty=Tensor[(14, 16), float16] span=from_string:70:15 */;
    %59 = cast(%p3, dtype="float16") /* ty=Tensor[(1), float16] */;
    multiply(%58, %59) /* ty=Tensor[(14, 16), float16] span=from_string:67:5 */
  } /* ty=fn (Tensor[(14, 2), float32], Tensor[(16, 2), float32], Tensor[(16), float32], Tensor[(1), float32]) -> Tensor[(14, 16), float16] span=from_string:72:9 */;
  %61 = %60(%x2, %x6, %x7, %x8) /* ty=Tensor[(14, 16), float16] span=from_string:86:13 */;
  %62 = cast(%61, dtype="float32") /* ty=Tensor[(14, 16), float32] */;
  %63 = fn (%p015: Tensor[(14, 16), float32] /* ty=Tensor[(14, 16), float32] span=from_string:74:13 */, Primitive=1, relay.reshape_only=1) -> Tensor[(1, 1, 224), float16] {
    %52 = cast(%p015, dtype="float16") /* ty=Tensor[(14, 16), float16] */;
    reshape(%52, newshape=[1, 1, 224]) /* ty=Tensor[(1, 1, 224), float16] span=from_string:74:5 */
  } /* ty=fn (Tensor[(14, 16), float32]) -> Tensor[(1, 1, 224), float16] span=from_string:86:9 */;
  %72 = fn (%p018: Tensor[(14, 2), float32] /* ty=Tensor[(14, 2), float32] span=from_string:77:20 */, %p18: Tensor[(32, 2), float32] /* ty=Tensor[(32, 2), float32] span=from_string:77:27 */, %p22: Tensor[(32), float32] /* ty=Tensor[(32), float32] span=from_string:78:23 */, %p31: Tensor[(1), float32] /* ty=Tensor[(1), float32] span=from_string:80:20 */, Primitive=1) -> Tensor[(14, 32), float16] {
    %65 = cast(%p018, dtype="float16") /* ty=Tensor[(14, 2), float16] */;
    %66 = cast(%p18, dtype="float16") /* ty=Tensor[(32, 2), float16] */;
    %67 = cast(%p22, dtype="float16") /* ty=Tensor[(32), float16] */;
    %68 = nn.dense(%65, %66, units=None, out_dtype="float16") /* ty=Tensor[(14, 32), float16] span=from_string:79:15 */;
    %69 = expand_dims(%67, axis=0) /* ty=Tensor[(1, 32), float16] span=from_string:79:20 */;
    %70 = add(%68, %69) /* ty=Tensor[(14, 32), float16] span=from_string:80:15 */;
    %71 = cast(%p31, dtype="float16") /* ty=Tensor[(1), float16] */;
    multiply(%70, %71) /* ty=Tensor[(14, 32), float16] span=from_string:77:5 */
  } /* ty=fn (Tensor[(14, 2), float32], Tensor[(32, 2), float32], Tensor[(32), float32], Tensor[(1), float32]) -> Tensor[(14, 32), float16] span=from_string:82:9 */;
  %73 = %72(%x2, %x9, %x10, %x11) /* ty=Tensor[(14, 32), float16] span=from_string:87:13 */;
  %74 = cast(%73, dtype="float32") /* ty=Tensor[(14, 32), float32] */;
  %75 = fn (%p017: Tensor[(14, 32), float32] /* ty=Tensor[(14, 32), float32] span=from_string:84:13 */, Primitive=1, relay.reshape_only=1) -> Tensor[(1, 1, 448), float16] {
    %64 = cast(%p017, dtype="float16") /* ty=Tensor[(14, 32), float16] */;
    reshape(%64, newshape=[1, 1, 448]) /* ty=Tensor[(1, 1, 448), float16] span=from_string:84:5 */
  } /* ty=fn (Tensor[(14, 32), float32]) -> Tensor[(1, 1, 448), float16] span=from_string:87:9 */;
  %76 = %63(%62) /* ty=Tensor[(1, 1, 224), float16] span=from_string:95:10 */;
  %77 = %75(%74) /* ty=Tensor[(1, 1, 448), float16] span=from_string:95:15 */;
  %78 = %5(%x0) /* ty=Tensor[(4, 7), float16] span=from_string:96:4 */;
  %79 = (%x12, %28) /* ty=(Tensor[(2, 7, 2), float16], (Tensor[(2, 7, 2), float16],)) span=from_string:96:9 */;
  %80 = %30(%17) /* ty=Tensor[(2, 7, 2), float16] span=from_string:96:14 */;
  %81 = %31(meta[relay.Constant][2] /* ty=Tensor[(2), int32] span=from_string:91:18 */, %x3, %x4) /* ty=Tensor[(6, 2), float32] span=from_string:96:19 */;
  %82 = %38(%37) /* ty=Tensor[(2, 7, 2), float32] span=from_string:96:24 */;
  %83 = %44(%14) /* ty=Tensor[(2, 7, 2), float32] span=from_string:96:29 */;
  %84 = %51(%50) /* ty=Tensor[(76, 7, 2), float32] span=from_string:96:34 */;
  %85 = (%76, %77) /* ty=(Tensor[(1, 1, 224), float16], Tensor[(1, 1, 448), float16]) span=from_string:96:39 */;
  (%78, %79, %80, %81, %82, %83, %84, %85) /* ty=(Tensor[(4, 7), float16], (Tensor[(2, 7, 2), float16], (Tensor[(2, 7, 2), float16],)), Tensor[(2, 7, 2), float16], Tensor[(6, 2), float32], Tensor[(2, 7, 2), float32], Tensor[(2, 7, 2), float32], Tensor[(76, 7, 2), float32], (Tensor[(1, 1, 224), float16], Tensor[(1, 1, 448), float16])) span=from_string:96:3 */
}

#[metadata]
{
  "root": 1, 
  "nodes": [
    {
      "type_key": ""
    }, 
    {
      "type_key": "Map", 
      "keys": [
        "relay.attrs.InitOpAttrs", 
        "relay.Constant"
      ], 
      "data": [2, 10]
    }, 
    {
      "type_key": "Array", 
      "data": [3, 8]
    }, 
    {
      "type_key": "relay.attrs.InitOpAttrs", 
      "attrs": {
        "dtype": "float16", 
        "shape": "4"
      }
    }, 
    {
      "type_key": "Array", 
      "data": [5, 6, 7]
    }, 
    {
      "type_key": "IntImm", 
      "attrs": {
        "dtype": "int32", 
        "span": "0", 
        "value": "2"
      }
    }, 
    {
      "type_key": "IntImm", 
      "attrs": {
        "dtype": "int32", 
        "span": "0", 
        "value": "7"
      }
    }, 
    {
      "type_key": "IntImm", 
      "attrs": {
        "dtype": "int32", 
        "span": "0", 
        "value": "2"
      }
    }, 
    {
      "type_key": "relay.attrs.InitOpAttrs", 
      "attrs": {
        "dtype": "float16", 
        "shape": "9"
      }
    }, 
    {
      "type_key": "Array", 
      "data": [5, 6, 7]
    }, 
    {
      "type_key": "Array", 
      "data": [11, 19, 24]
    }, 
    {
      "type_key": "relay.Constant", 
      "attrs": {
        "_checked_type_": "16", 
        "data": "0", 
        "span": "14", 
        "virtual_device_": "12"
      }
    }, 
    {
      "type_key": "VirtualDevice", 
      "attrs": {
        "device_type_int": "-1", 
        "memory_scope": "13", 
        "target": "0", 
        "virtual_device_id": "-1"
      }
    }, 
    {
      "type_key": "runtime.String"
    }, 
    {
      "type_key": "Span", 
      "attrs": {
        "column": "32", 
        "end_column": "50", 
        "end_line": "19", 
        "line": "19", 
        "source_name": "15"
      }
    }, 
    {
      "type_key": "SourceName", 
      "repr_str": "from_string"
    }, 
    {
      "type_key": "relay.TensorType", 
      "attrs": {
        "dtype": "int32", 
        "shape": "17", 
        "span": "0"
      }
    }, 
    {
      "type_key": "Array", 
      "data": [18]
    }, 
    {
      "type_key": "IntImm", 
      "attrs": {
        "dtype": "int32", 
        "span": "0", 
        "value": "3"
      }
    }, 
    {
      "type_key": "relay.Constant", 
      "attrs": {
        "_checked_type_": "21", 
        "data": "1", 
        "span": "20", 
        "virtual_device_": "12"
      }
    }, 
    {
      "type_key": "Span", 
      "attrs": {
        "column": "30", 
        "end_column": "48", 
        "end_line": "27", 
        "line": "27", 
        "source_name": "15"
      }
    }, 
    {
      "type_key": "relay.TensorType", 
      "attrs": {
        "dtype": "int32", 
        "shape": "22", 
        "span": "0"
      }
    }, 
    {
      "type_key": "Array", 
      "data": [23]
    }, 
    {
      "type_key": "IntImm", 
      "attrs": {
        "dtype": "int32", 
        "span": "0", 
        "value": "3"
      }
    }, 
    {
      "type_key": "relay.Constant", 
      "attrs": {
        "_checked_type_": "28", 
        "data": "2", 
        "span": "27", 
        "virtual_device_": "25"
      }
    }, 
    {
      "type_key": "VirtualDevice", 
      "attrs": {
        "device_type_int": "-1", 
        "memory_scope": "26", 
        "target": "0", 
        "virtual_device_id": "-1"
      }
    }, 
    {
      "type_key": "runtime.String"
    }, 
    {
      "type_key": "Span", 
      "attrs": {
        "column": "18", 
        "end_column": "36", 
        "end_line": "91", 
        "line": "91", 
        "source_name": "15"
      }
    }, 
    {
      "type_key": "relay.TensorType", 
      "attrs": {
        "dtype": "int32", 
        "shape": "29", 
        "span": "0"
      }
    }, 
    {
      "type_key": "Array", 
      "data": [30]
    }, 
    {
      "type_key": "IntImm", 
      "attrs": {
        "dtype": "int32", 
        "span": "0", 
        "value": "2"
      }
    }
  ], 
  "b64ndarrays": [
    "P6G0lvBAXt0AAAAAAAAAAAEAAAAAAAAAAQAAAAAgAQADAAAAAAAAAAwAAAAAAAAAAgAAAAcAAAACAAAA", 
    "P6G0lvBAXt0AAAAAAAAAAAEAAAAAAAAAAQAAAAAgAQADAAAAAAAAAAwAAAAAAAAAAgAAAAcAAAACAAAA", 
    "P6G0lvBAXt0AAAAAAAAAAAEAAAAAAAAAAQAAAAAgAQACAAAAAAAAAAgAAAAAAAAABAAAAAcAAAA="
  ], 
  "attrs": {"tvm_version": "0.13.0"}
}