#[version = "0.0.5"]
def @main(%x0: Tensor[(4, 7), float32] /* ty=Tensor[(4, 7), float32] span=from_string:6:13 */, %x1: Tensor[(2, 7, 2), float32] /* ty=Tensor[(2, 7, 2), float32] span=from_string:3:13 */, %x2: Tensor[(14, 2), float32] /* ty=Tensor[(14, 2), float32] span=from_string:30:14 */, %x3: int32 /* ty=int32 span=from_string:50:93 */, %x4: int32 /* ty=int32 span=from_string:50:98 */, %x5: Tensor[(74, 7, 2), float32] /* ty=Tensor[(74, 7, 2), float32] span=from_string:27:15 */, %x6: Tensor[(16, 2), float32] /* ty=Tensor[(16, 2), float32] span=from_string:31:14 */, %x7: Tensor[(16), float32] /* ty=Tensor[(16), float32] span=from_string:32:14 */, %x8: Tensor[(1), float32] /* ty=Tensor[(1), float32] span=from_string:36:14 */, %x9: Tensor[(32, 2), float32] /* ty=Tensor[(32, 2), float32] span=from_string:38:14 */, %x10: Tensor[(32), float32] /* ty=Tensor[(32), float32] span=from_string:39:14 */, %x11: Tensor[(1), float32] /* ty=Tensor[(1), float32] span=from_string:43:14 */) -> (Tensor[(4, 7), float16], (Tensor[(2, 7, 2), float16], (Tensor[(2, 7, 2), float16],)), Tensor[(2, 7, 2), float16], Tensor[(6, 2), float32], Tensor[(2, 7, 2), float32], Tensor[(2, 7, 2), float32], Tensor[(76, 7, 2), float32], (Tensor[(1, 1, 224), float16], Tensor[(1, 1, 448), float16])) {
  %0 = cast(%x1, dtype="float16") /* ty=Tensor[(2, 7, 2), float16] span=from_string:12:30 */;
  let %x12: Tensor[(2, 7, 2), float16] /* ty=Tensor[(2, 7, 2), float16] span=from_string:48:10 */ = multiply(%0, %0) /* ty=Tensor[(2, 7, 2), float16] span=from_string:4:102 */;
  let %x13: Tensor[(2, 7, 2), float16] /* ty=Tensor[(2, 7, 2), float16] span=from_string:10:18 */ = ones(shape=[2, 7, 2], dtype="float16") /* ty=Tensor[(2, 7, 2), float16] */;
  %1 = cast(%x0, dtype="float16") /* ty=Tensor[(4, 7), float16] span=from_string:7:16 */;
  %2 = cast(%x1, dtype="float16") /* ty=Tensor[(2, 7, 2), float16] span=from_string:12:30 */;
  %3 = multiply(%x13, %2) /* ty=Tensor[(2, 7, 2), float16] span=from_string:23:13 */;
  %4 = collapse_sum_to(%3, meta[relay.Constant][0] /* ty=Tensor[(3), int32] */, meta[relay.attrs.InitOpAttrs][0]) /* ty=Tensor[(2, 7, 2), float16] */;
  %5 = multiply(%4, 2f16 /* ty=float16 */) /* ty=Tensor[(2, 7, 2), float16] */;
  %6 = (%5,) /* ty=(Tensor[(2, 7, 2), float16],) span=from_string:48:16 */;
  %7 = multiply(%x13, %0) /* ty=Tensor[(2, 7, 2), float16] span=from_string:23:13 */;
  %8 = collapse_sum_to(%7, meta[relay.Constant][1] /* ty=Tensor[(3), int32] */, meta[relay.attrs.InitOpAttrs][0]) /* ty=Tensor[(2, 7, 2), float16] */;
  %9 = cast(1f /* ty=float32 span=from_string:17:16 */, dtype="float16") /* ty=float16 span=from_string:18:17 */;
  %10 = add(%8, %9) /* ty=Tensor[(2, 7, 2), float16] span=from_string:19:32 */;
  %11 = annotation.stop_fusion(%10) /* ty=Tensor[(2, 7, 2), float16] span=from_string:26:14 */;
  %12 = cast(%11, dtype="float32") /* ty=Tensor[(2, 7, 2), float32] span=from_string:21:13 */;
  %13 = exp(%12) /* ty=Tensor[(2, 7, 2), float32] span=from_string:51:24 */;
  %14 = cast(1f /* ty=float32 span=from_string:22:16 */, dtype="float16") /* ty=float16 span=from_string:23:17 */;
  %15 = add(%7, %14) /* ty=Tensor[(2, 7, 2), float16] span=from_string:24:14 */;
  %16 = cast(%15, dtype="float32") /* ty=Tensor[(2, 7, 2), float32] span=from_string:25:13 */;
  %17 = exp(%16) /* ty=Tensor[(2, 7, 2), float32] span=from_string:52:17 */;
  %18 = cast(%11, dtype="float32") /* ty=Tensor[(2, 7, 2), float32] span=from_string:27:10 */;
  %19 = (%18, %x5) /* ty=(Tensor[(2, 7, 2), float32], Tensor[(74, 7, 2), float32]) span=from_string:28:21 */;
  %20 = concatenate(%19) /* ty=Tensor[(76, 7, 2), float32] span=from_string:29:14 */;
  %21 = rsqrt(%20) /* ty=Tensor[(76, 7, 2), float32] */;
  %22 = cast(%x2, dtype="float16") /* ty=Tensor[(14, 2), float16] span=from_string:40:18 */;
  %23 = cast(%x6, dtype="float16") /* ty=Tensor[(16, 2), float16] span=from_string:33:23 */;
  %24 = cast(%x7, dtype="float16") /* ty=Tensor[(16), float16] span=from_string:34:21 */;
  %25 = nn.dense(%22, %23, units=None, out_dtype="float16") /* ty=Tensor[(14, 16), float16] span=from_string:35:13 */;
  %26 = expand_dims(%24, axis=0) /* ty=Tensor[(1, 16), float16] span=from_string:35:18 */;
  %27 = add(%25, %26) /* ty=Tensor[(14, 16), float16] span=from_string:37:19 */;
  %28 = cast(%x8, dtype="float16") /* ty=Tensor[(1), float16] span=from_string:37:24 */;
  %29 = multiply(%27, %28) /* ty=Tensor[(14, 16), float16] span=from_string:45:17 */;
  %30 = cast(%x9, dtype="float16") /* ty=Tensor[(32, 2), float16] span=from_string:40:23 */;
  %31 = cast(%x10, dtype="float16") /* ty=Tensor[(32), float16] span=from_string:41:21 */;
  %32 = nn.dense(%22, %30, units=None, out_dtype="float16") /* ty=Tensor[(14, 32), float16] span=from_string:42:13 */;
  %33 = expand_dims(%31, axis=0) /* ty=Tensor[(1, 32), float16] span=from_string:42:18 */;
  %34 = add(%32, %33) /* ty=Tensor[(14, 32), float16] span=from_string:44:19 */;
  %35 = cast(%x11, dtype="float16") /* ty=Tensor[(1), float16] span=from_string:44:24 */;
  %36 = multiply(%34, %35) /* ty=Tensor[(14, 32), float16] span=from_string:46:17 */;
  %37 = reshape(%29, newshape=[1, 1, 224]) /* ty=Tensor[(1, 1, 224), float16] span=from_string:54:10 */;
  %38 = reshape(%36, newshape=[1, 1, 448]) /* ty=Tensor[(1, 1, 448), float16] span=from_string:54:15 */;
  %39 = reshape(%1, newshape=[4, 7]) /* ty=Tensor[(4, 7), float16] */;
  %40 = (%x12, %6) /* ty=(Tensor[(2, 7, 2), float16], (Tensor[(2, 7, 2), float16],)) span=from_string:55:9 */;
  %41 = reshape(%8, newshape=[2, 7, 2]) /* ty=Tensor[(2, 7, 2), float16] */;
  %42 = one_hot(meta[relay.Constant][2] /* ty=Tensor[(2), int32] span=from_string:50:22 */, %x3, %x4, depth=6, axis=0, dtype="float32") /* ty=Tensor[(6, 2), float32] span=from_string:55:19 */;
  %43 = multiply(%13, %13) /* ty=Tensor[(2, 7, 2), float32] span=from_string:55:24 */;
  %44 = squeeze(%17) /* ty=Tensor[(2, 7, 2), float32] span=from_string:55:29 */;
  %45 = multiply(2f /* ty=float32 span=from_string:53:18 */, %21) /* ty=Tensor[(76, 7, 2), float32] */;
  %46 = (%37, %38) /* ty=(Tensor[(1, 1, 224), float16], Tensor[(1, 1, 448), float16]) span=from_string:55:39 */;
  (%39, %40, %41, %42, %43, %44, %45, %46) /* ty=(Tensor[(4, 7), float16], (Tensor[(2, 7, 2), float16], (Tensor[(2, 7, 2), float16],)), Tensor[(2, 7, 2), float16], Tensor[(6, 2), float32], Tensor[(2, 7, 2), float32], Tensor[(2, 7, 2), float32], Tensor[(76, 7, 2), float32], (Tensor[(1, 1, 224), float16], Tensor[(1, 1, 448), float16])) span=from_string:55:3 */
}

#[metadata]
{
  "root": 1, 
  "nodes": [
    {
      "type_key": ""
    }, 
    {
      "type_key": "Map", 
      "keys": [
        "relay.attrs.InitOpAttrs", 
        "relay.Constant"
      ], 
      "data": [2, 8]
    }, 
    {
      "type_key": "Array", 
      "data": [3]
    }, 
    {
      "type_key": "relay.attrs.InitOpAttrs", 
      "attrs": {
        "dtype": "", 
        "shape": "4"
      }
    }, 
    {
      "type_key": "Array", 
      "data": [5, 6, 7]
    }, 
    {
      "type_key": "IntImm", 
      "attrs": {
        "dtype": "int32", 
        "span": "0", 
        "value": "2"
      }
    }, 
    {
      "type_key": "IntImm", 
      "attrs": {
        "dtype": "int32", 
        "span": "0", 
        "value": "7"
      }
    }, 
    {
      "type_key": "IntImm", 
      "attrs": {
        "dtype": "int32", 
        "span": "0", 
        "value": "2"
      }
    }, 
    {
      "type_key": "Array", 
      "data": [9, 15, 19]
    }, 
    {
      "type_key": "relay.Constant", 
      "attrs": {
        "_checked_type_": "12", 
        "data": "0", 
        "span": "0", 
        "virtual_device_": "10"
      }
    }, 
    {
      "type_key": "VirtualDevice", 
      "attrs": {
        "device_type_int": "-1", 
        "memory_scope": "11", 
        "target": "0", 
        "virtual_device_id": "-1"
      }
    }, 
    {
      "type_key": "runtime.String"
    }, 
    {
      "type_key": "relay.TensorType", 
      "attrs": {
        "dtype": "int32", 
        "shape": "13", 
        "span": "0"
      }
    }, 
    {
      "type_key": "Array", 
      "data": [14]
    }, 
    {
      "type_key": "IntImm", 
      "attrs": {
        "dtype": "int32", 
        "span": "0", 
        "value": "3"
      }
    }, 
    {
      "type_key": "relay.Constant", 
      "attrs": {
        "_checked_type_": "16", 
        "data": "0", 
        "span": "0", 
        "virtual_device_": "10"
      }
    }, 
    {
      "type_key": "relay.TensorType", 
      "attrs": {
        "dtype": "int32", 
        "shape": "17", 
        "span": "0"
      }
    }, 
    {
      "type_key": "Array", 
      "data": [18]
    }, 
    {
      "type_key": "IntImm", 
      "attrs": {
        "dtype": "int32", 
        "span": "0", 
        "value": "3"
      }
    }, 
    {
      "type_key": "relay.Constant", 
      "attrs": {
        "_checked_type_": "24", 
        "data": "1", 
        "span": "22", 
        "virtual_device_": "20"
      }
    }, 
    {
      "type_key": "VirtualDevice", 
      "attrs": {
        "device_type_int": "-1", 
        "memory_scope": "21", 
        "target": "0", 
        "virtual_device_id": "-1"
      }
    }, 
    {
      "type_key": "runtime.String"
    }, 
    {
      "type_key": "Span", 
      "attrs": {
        "column": "22", 
        "end_column": "40", 
        "end_line": "50", 
        "line": "50", 
        "source_name": "23"
      }
    }, 
    {
      "type_key": "SourceName", 
      "repr_str": "from_string"
    }, 
    {
      "type_key": "relay.TensorType", 
      "attrs": {
        "dtype": "int32", 
        "shape": "25", 
        "span": "0"
      }
    }, 
    {
      "type_key": "Array", 
      "data": [26]
    }, 
    {
      "type_key": "IntImm", 
      "attrs": {
        "dtype": "int32", 
        "span": "0", 
        "value": "2"
      }
    }
  ], 
  "b64ndarrays": [
    "P6G0lvBAXt0AAAAAAAAAAAEAAAAAAAAAAQAAAAAgAQADAAAAAAAAAAwAAAAAAAAAAgAAAAcAAAACAAAA", 
    "P6G0lvBAXt0AAAAAAAAAAAEAAAAAAAAAAQAAAAAgAQACAAAAAAAAAAgAAAAAAAAABAAAAAcAAAA="
  ], 
  "attrs": {"tvm_version": "0.13.0"}
}