#[version = "0.0.5"]
def @main(%x0: Tensor[(4, 7), float32] /* ty=Tensor[(4, 7), float32] span=from_string:6:13 */, %x1: Tensor[(2, 7, 2), float32] /* ty=Tensor[(2, 7, 2), float32] span=from_string:3:13 */, %x2: Tensor[(14, 2), float32] /* ty=Tensor[(14, 2), float32] span=from_string:52:14 */, %x3: int32 /* ty=int32 span=from_string:23:112 */, %x4: int32 /* ty=int32 span=from_string:23:117 */, %x5: Tensor[(74, 7, 2), float32] /* ty=Tensor[(74, 7, 2), float32] span=from_string:40:171 */, %x6: Tensor[(16, 2), float32] /* ty=Tensor[(16, 2), float32] span=from_string:53:14 */, %x7: Tensor[(16), float32] /* ty=Tensor[(16), float32] span=from_string:55:14 */, %x8: Tensor[(1), float32] /* ty=Tensor[(1), float32] span=from_string:57:14 */, %x9: Tensor[(32, 2), float32] /* ty=Tensor[(32, 2), float32] span=from_string:60:14 */, %x10: Tensor[(32), float32] /* ty=Tensor[(32), float32] span=from_string:62:14 */, %x11: Tensor[(1), float32] /* ty=Tensor[(1), float32] span=from_string:64:14 */) -> (Tensor[(4, 7), float16], (Tensor[(2, 7, 2), float16], (Tensor[(2, 7, 2), float16],)), Tensor[(2, 7, 2), float16], Tensor[(6, 2), float32], Tensor[(2, 7, 2), float16], Tensor[(2, 7, 2), float16], Tensor[(76, 7, 2), float16], (Tensor[(1, 1, 224), float16], Tensor[(1, 1, 448), float16])) {
  let %x_0 = cast(%x1, dtype="float16");
  let %x12: Tensor[(2, 7, 2), float16] /* ty=Tensor[(2, 7, 2), float16] span=from_string:19:170 */ = multiply(%x_0, %x_0);
  let %x13: Tensor[(2, 7, 2), float16] /* ty=Tensor[(2, 7, 2), float16] span=from_string:15:112 */ = ones_like(%x12);
  let %x_1 = cast(%x0, dtype="float16");
  let %x_01: Tensor[(2, 7, 2), float16] /* ty=Tensor[(2, 7, 2), float16] span=from_string:8:103 */ = reshape(%x_1, newshape=[2, 7, 2]);
  let %x_11: Tensor[(4, 7), float16] /* ty=Tensor[(4, 7), float16] span=from_string:9:110 */ = reshape(%x_01, newshape=[4, 7]);
  let %x_2: Tensor[(2, 7, 2), float16] /* ty=Tensor[(2, 7, 2), float16] span=from_string:10:104 */ = reshape(%x_11, newshape=[2, 7, 2]);
  let %x_3: Tensor[(4, 7), float16] /* ty=Tensor[(4, 7), float16] span=from_string:68:624 */ = reshape(%x_2, newshape=[4, 7]);
  let %x_4: Tensor[(2, 7, 2), float16] /* ty=Tensor[(2, 7, 2), float16] span=from_string:14:106 */ = zeros_like(%x_0);
  let %x_5: Tensor[(2, 7, 2), float16] /* ty=Tensor[(2, 7, 2), float16] span=from_string:34:106 */ = multiply(%x13, %x_0);
  let %x_6: Tensor[(2, 7, 2), float16] /* ty=Tensor[(2, 7, 2), float16] span=from_string:20:107 */ = collapse_sum_like(%x_5, %x_0);
  let %x_7: Tensor[(2, 7, 2), float16] /* ty=Tensor[(2, 7, 2), float16] span=from_string:26:107 */ = add(%x_4, %x_6);
  let %x_8: Tensor[(2, 7, 2), float16] /* ty=Tensor[(2, 7, 2), float16] span=from_string:16:120 */ = multiply(%x13, %x_0);
  let %x_9: Tensor[(2, 7, 2), float16] /* ty=Tensor[(2, 7, 2), float16] span=from_string:17:113 */ = collapse_sum_like(%x_8, %x_0);
  let %x_10: Tensor[(2, 7, 2), float16] /* ty=Tensor[(2, 7, 2), float16] span=from_string:18:110 */ = add(%x_7, %x_9);
  let %x_111: (Tensor[(2, 7, 2), float16],) /* ty=(Tensor[(2, 7, 2), float16],) span=from_string:19:176 */ = (%x_10,) /* ty=(Tensor[(2, 7, 2), float16],) span=from_string:18:109 */;
  let %x_12: (Tensor[(2, 7, 2), float16], (Tensor[(2, 7, 2), float16],)) /* ty=(Tensor[(2, 7, 2), float16], (Tensor[(2, 7, 2), float16],)) span=from_string:68:630 */ = (%x12, %x_111) /* ty=(Tensor[(2, 7, 2), float16], (Tensor[(2, 7, 2), float16],)) span=from_string:19:169 */;
  let %x_13: Tensor[(14, 2), float16] /* ty=Tensor[(14, 2), float16] span=from_string:21:111 */ = reshape(%x_6, newshape=[14, 2]);
  let %x_14: Tensor[(2, 7, 2), float16] /* ty=Tensor[(2, 7, 2), float16] span=from_string:68:637 */ = reshape(%x_13, newshape=[2, 7, 2]);
  let %x_15: Tensor[(2), int32] /* ty=Tensor[(2), int32] span=from_string:23:105 */ = meta[relay.Constant][0] /* ty=Tensor[(2), int32] span=from_string:22:94 */;
  let %x_16: Tensor[(6, 2), float32] /* ty=Tensor[(6, 2), float32] span=from_string:68:644 */ = one_hot(%x_15, %x3, %x4, depth=6, axis=0, dtype="float32");
  let %x_17: float32 /* ty=float32 span=from_string:25:13 */ = 1f /* ty=float32 span=from_string:24:66 */;
  let %x_21 = cast(%x_17, dtype="float16");
  let %x_18: Tensor[(2, 7, 2), float16] /* ty=Tensor[(2, 7, 2), float16] span=from_string:27:126 */ = add(%x_7, %x_21);
  let %x_19: Tensor[(2, 7, 2), float16] /* ty=Tensor[(2, 7, 2), float16] span=from_string:40:164 */ = annotation.stop_fusion(%x_18);
  let %x_31 = cast(%x_19, dtype="float32");
  let %x_20: Tensor[(2, 7, 2), float32] /* ty=Tensor[(2, 7, 2), float32] span=from_string:30:13 */ = exp(%x_31);
  let %x_41 = cast(%x_20, dtype="float16");
  let %x_211: Tensor[(2, 7, 2), float16] /* ty=Tensor[(2, 7, 2), float16] span=from_string:68:651 */ = multiply(%x_41, %x_41);
  let %x_22: float32 /* ty=float32 span=from_string:33:13 */ = 1f /* ty=float32 span=from_string:32:66 */;
  let %x_51 = cast(%x_22, dtype="float16");
  let %x_23: Tensor[(2, 7, 2), float16] /* ty=Tensor[(2, 7, 2), float16] span=from_string:35:13 */ = add(%x_5, %x_51);
  let %x_61 = cast(%x_23, dtype="float32");
  let %x_24: Tensor[(2, 7, 2), float32] /* ty=Tensor[(2, 7, 2), float32] span=from_string:37:13 */ = exp(%x_61);
  let %x_71 = cast(%x_24, dtype="float16");
  let %x_25: Tensor[(2, 7, 2), float16] /* ty=Tensor[(2, 7, 2), float16] span=from_string:68:658 */ = squeeze(%x_71);
  let %x_26: float32 /* ty=float32 span=from_string:50:14 */ = 2f /* ty=float32 span=from_string:39:66 */;
  let %x_27: (Tensor[(2, 7, 2), float16], Tensor[(74, 7, 2), float32]) /* ty=(Tensor[(2, 7, 2), float16], Tensor[(74, 7, 2), float32]) span=from_string:42:8 */ = (%x_19, %x5) /* ty=(Tensor[(2, 7, 2), float16], Tensor[(74, 7, 2), float32]) span=from_string:40:163 */;
  let %x_81 = %x_27.0;
  let %x_91 = %x_27.1;
  let %x_101 = cast(%x_91, dtype="float16");
  let %x_112 = (%x_81, %x_101) /* ty=(Tensor[(2, 7, 2), float16], Tensor[(74, 7, 2), float16]) span=from_string:45:21 */;
  let %x_121 = concatenate(%x_112);
  let %x_131 = annotation.stop_fusion(%x_121);
  let %x_141 = (%x_131,) /* ty=(Tensor[(76, 7, 2), float16],) span=from_string:48:117 */;
  let %x_28: Tensor[(76, 7, 2), float16] /* ty=Tensor[(76, 7, 2), float16] span=from_string:49:110 */ = concatenate(%x_141);
  let %x_29: Tensor[(76, 7, 2), float16] /* ty=Tensor[(76, 7, 2), float16] span=from_string:51:117 */ = sqrt(%x_28);
  let %x_151 = cast(%x_26, dtype="float16");
  let %x_30: Tensor[(76, 7, 2), float16] /* ty=Tensor[(76, 7, 2), float16] span=from_string:68:665 */ = divide(%x_151, %x_29);
  let %x_161 = cast(%x2, dtype="float16");
  let %x_171 = cast(%x6, dtype="float16");
  let %x_311: Tensor[(14, 16), float16] /* ty=Tensor[(14, 16), float16] span=from_string:56:105 */ = nn.dense(%x_161, %x_171, units=None, out_dtype="float16");
  let %x_181 = cast(%x7, dtype="float16");
  let %x_32: Tensor[(14, 16), float16] /* ty=Tensor[(14, 16), float16] span=from_string:58:111 */ = add(%x_311, %x_181);
  let %x_191 = cast(%x8, dtype="float16");
  let %x_33: Tensor[(14, 16), float16] /* ty=Tensor[(14, 16), float16] span=from_string:59:115 */ = multiply(%x_32, %x_191);
  let %x_34: Tensor[(1, 1, 224), float16] /* ty=Tensor[(1, 1, 224), float16] span=from_string:67:172 */ = reshape(%x_33, newshape=[1, 1, 224]);
  let %x_201 = cast(%x9, dtype="float16");
  let %x_35: Tensor[(14, 32), float16] /* ty=Tensor[(14, 32), float16] span=from_string:63:105 */ = nn.dense(%x_161, %x_201, units=None, out_dtype="float16");
  let %x_212 = cast(%x10, dtype="float16");
  let %x_36: Tensor[(14, 32), float16] /* ty=Tensor[(14, 32), float16] span=from_string:65:111 */ = add(%x_35, %x_212);
  let %x_221 = cast(%x11, dtype="float16");
  let %x_37: Tensor[(14, 32), float16] /* ty=Tensor[(14, 32), float16] span=from_string:66:115 */ = multiply(%x_36, %x_221);
  let %x_38: Tensor[(1, 1, 448), float16] /* ty=Tensor[(1, 1, 448), float16] span=from_string:67:179 */ = reshape(%x_37, newshape=[1, 1, 448]);
  let %x_39: (Tensor[(1, 1, 224), float16], Tensor[(1, 1, 448), float16]) /* ty=(Tensor[(1, 1, 224), float16], Tensor[(1, 1, 448), float16]) span=from_string:68:672 */ = (%x_34, %x_38) /* ty=(Tensor[(1, 1, 224), float16], Tensor[(1, 1, 448), float16]) span=from_string:67:171 */;
  let %x_40: (Tensor[(4, 7), float16], (Tensor[(2, 7, 2), float16], (Tensor[(2, 7, 2), float16],)), Tensor[(2, 7, 2), float16], Tensor[(6, 2), float32], Tensor[(2, 7, 2), float16], Tensor[(2, 7, 2), float16], Tensor[(76, 7, 2), float16], (Tensor[(1, 1, 224), float16], Tensor[(1, 1, 448), float16])) /* ty=(Tensor[(4, 7), float16], (Tensor[(2, 7, 2), float16], (Tensor[(2, 7, 2), float16],)), Tensor[(2, 7, 2), float16], Tensor[(6, 2), float32], Tensor[(2, 7, 2), float16], Tensor[(2, 7, 2), float16], Tensor[(76, 7, 2), float16], (Tensor[(1, 1, 224), float16], Tensor[(1, 1, 448), float16])) span=from_string:69:623 */ = (%x_3, %x_12, %x_14, %x_16, %x_211, %x_25, %x_30, %x_39) /* ty=(Tensor[(4, 7), float16], (Tensor[(2, 7, 2), float16], (Tensor[(2, 7, 2), float16],)), Tensor[(2, 7, 2), float16], Tensor[(6, 2), float32], Tensor[(2, 7, 2), float16], Tensor[(2, 7, 2), float16], Tensor[(76, 7, 2), float16], (Tensor[(1, 1, 224), float16], Tensor[(1, 1, 448), float16])) span=from_string:68:623 */;
  let %x_411: (Tensor[(4, 7), float16], (Tensor[(2, 7, 2), float16], (Tensor[(2, 7, 2), float16],)), Tensor[(2, 7, 2), float16], Tensor[(6, 2), float32], Tensor[(2, 7, 2), float16], Tensor[(2, 7, 2), float16], Tensor[(76, 7, 2), float16], (Tensor[(1, 1, 224), float16], Tensor[(1, 1, 448), float16])) /* ty=(Tensor[(4, 7), float16], (Tensor[(2, 7, 2), float16], (Tensor[(2, 7, 2), float16],)), Tensor[(2, 7, 2), float16], Tensor[(6, 2), float32], Tensor[(2, 7, 2), float16], Tensor[(2, 7, 2), float16], Tensor[(76, 7, 2), float16], (Tensor[(1, 1, 224), float16], Tensor[(1, 1, 448), float16])) span=from_string:70:621 */ = %x_40;
  let %x_42: (Tensor[(4, 7), float16], (Tensor[(2, 7, 2), float16], (Tensor[(2, 7, 2), float16],)), Tensor[(2, 7, 2), float16], Tensor[(6, 2), float32], Tensor[(2, 7, 2), float16], Tensor[(2, 7, 2), float16], Tensor[(76, 7, 2), float16], (Tensor[(1, 1, 224), float16], Tensor[(1, 1, 448), float16])) /* ty=(Tensor[(4, 7), float16], (Tensor[(2, 7, 2), float16], (Tensor[(2, 7, 2), float16],)), Tensor[(2, 7, 2), float16], Tensor[(6, 2), float32], Tensor[(2, 7, 2), float16], Tensor[(2, 7, 2), float16], Tensor[(76, 7, 2), float16], (Tensor[(1, 1, 224), float16], Tensor[(1, 1, 448), float16])) span=from_string:71:3 */ = %x_411;
  let %x_231 = %x_42;
  let %x_241 = %x_231;
  let %x_251 = %x_241;
  let %x_261 = %x_251;
  let %x_271 = %x_261;
  let %x_281 = %x_271;
  let %x_291 = %x_281;
  let %x_301 = %x_291;
  let %x_312 = %x_301;
  let %x_321 = %x_312;
  let %x_331 = %x_321;
  let %x_341 = %x_331;
  let %x_351 = %x_341;
  let %x_361 = %x_351;
  let %x_371 = %x_361;
  let %x_381 = %x_371;
  let %x_391 = %x_381;
  let %x_401 = %x_391;
  let %x_412 = %x_401;
  let %x_421 = %x_412;
  let %x_43 = %x_421;
  let %x_44 = %x_43;
  let %x_45 = %x_44;
  let %x_46 = %x_45;
  let %x_47 = %x_46;
  let %x_48 = %x_47;
  let %x_49 = %x_48;
  let %x_50 = %x_49;
  let %x_511 = %x_50;
  let %x_52 = %x_511;
  let %x_53 = %x_52;
  let %x_54 = %x_53;
  let %x_55 = %x_54;
  let %x_56 = %x_55;
  let %x_57 = %x_56;
  let %x_58 = %x_57;
  let %x_59 = %x_58;
  let %x_60 = %x_59;
  let %x_611 = %x_60;
  let %x_62 = %x_611;
  let %x_63 = %x_62;
  let %x_64 = %x_63;
  let %x_65 = %x_64;
  let %x_66 = %x_65;
  let %x_67 = %x_66;
  %x_67
}

#[metadata]
{
  "root": 1, 
  "nodes": [
    {
      "type_key": ""
    }, 
    {
      "type_key": "Map", 
      "keys": [
        "relay.Constant"
      ], 
      "data": [2]
    }, 
    {
      "type_key": "Array", 
      "data": [3]
    }, 
    {
      "type_key": "relay.Constant", 
      "attrs": {
        "_checked_type_": "8", 
        "data": "0", 
        "span": "6", 
        "virtual_device_": "4"
      }
    }, 
    {
      "type_key": "VirtualDevice", 
      "attrs": {
        "device_type_int": "-1", 
        "memory_scope": "5", 
        "target": "0", 
        "virtual_device_id": "-1"
      }
    }, 
    {
      "type_key": "runtime.String"
    }, 
    {
      "type_key": "Span", 
      "attrs": {
        "column": "94", 
        "end_column": "112", 
        "end_line": "22", 
        "line": "22", 
        "source_name": "7"
      }
    }, 
    {
      "type_key": "SourceName", 
      "repr_str": "from_string"
    }, 
    {
      "type_key": "relay.TensorType", 
      "attrs": {
        "dtype": "int32", 
        "shape": "9", 
        "span": "0"
      }
    }, 
    {
      "type_key": "Array", 
      "data": [10]
    }, 
    {
      "type_key": "IntImm", 
      "attrs": {
        "dtype": "int32", 
        "span": "0", 
        "value": "2"
      }
    }
  ], 
  "b64ndarrays": [
    "P6G0lvBAXt0AAAAAAAAAAAEAAAAAAAAAAQAAAAAgAQACAAAAAAAAAAgAAAAAAAAABAAAAAcAAAA="
  ], 
  "attrs": {"tvm_version": "0.13.0"}
}