#[version = "0.0.5"]
def @main(%x0: Tensor[(4, 7), float32] /* ty=Tensor[(4, 7), float32] span=from_string:107:12 */, %x1: Tensor[(2, 7, 2), float32] /* ty=Tensor[(2, 7, 2), float32] span=from_string:34:13 */, %x2: Tensor[(14, 2), float32] /* ty=Tensor[(14, 2), float32] span=from_string:99:13 */, %x3: int32 /* ty=int32 span=from_string:110:90 */, %x4: int32 /* ty=int32 span=from_string:110:95 */, %x5: Tensor[(74, 7, 2), float32] /* ty=Tensor[(74, 7, 2), float32] span=from_string:113:18 */, %x6: Tensor[(16, 2), float32] /* ty=Tensor[(16, 2), float32] span=from_string:84:18 */, %x7: Tensor[(16), float32] /* ty=Tensor[(16), float32] span=from_string:84:23 */, %x8: Tensor[(1), float32] /* ty=Tensor[(1), float32] span=from_string:84:28 */, %x9: Tensor[(32, 2), float32] /* ty=Tensor[(32, 2), float32] span=from_string:99:18 */, %x10: Tensor[(32), float32] /* ty=Tensor[(32), float32] span=from_string:99:23 */, %x11: Tensor[(1), float32] /* ty=Tensor[(1), float32] span=from_string:99:29 */) -> (Tensor[(4, 7), float16], (Tensor[(2, 7, 2), float16], (Tensor[(2, 7, 2), float16],)), Tensor[(2, 7, 2), float16], Tensor[(6, 2), float32], Tensor[(2, 7, 2), float16], Tensor[(2, 7, 2), float16], Tensor[(76, 7, 2), float32], (Tensor[(1, 1, 224), float16], Tensor[(1, 1, 448), float16])) {
  let %x_0 = fn (%p0: Tensor[(2, 7, 2), float32] /* ty=Tensor[(2, 7, 2), float32] span=from_string:4:15 */, Primitive=1) -> Tensor[(2, 7, 2), float16] {
    %0 = cast(%p0, dtype="float16") /* ty=Tensor[(2, 7, 2), float16] span=from_string:5:19 */;
    multiply(%0, %0) /* ty=Tensor[(2, 7, 2), float16] span=from_string:4:5 */
  } /* ty=fn (Tensor[(2, 7, 2), float32]) -> Tensor[(2, 7, 2), float16] span=from_string:7:102 */;
  let %x12: Tensor[(2, 7, 2), float16] /* ty=Tensor[(2, 7, 2), float16] span=from_string:108:10 */ = %x_0(%x1);
  let %x_1 = cast(%x12, dtype="float32");
  let %x_2 = fn (%p01: Tensor[(2, 7, 2), float32] /* ty=Tensor[(2, 7, 2), float32] */, Primitive=1) -> Tensor[(2, 7, 2), float16] {
    ones(shape=[2, 7, 2], dtype="float16") /* ty=Tensor[(2, 7, 2), float16] span=from_string:10:5 */
  } /* ty=fn (Tensor[(2, 7, 2), float32]) -> Tensor[(2, 7, 2), float16] span=from_string:12:101 */;
  let %x13: Tensor[(2, 7, 2), float16] /* ty=Tensor[(2, 7, 2), float16] span=from_string:17:14 */ = %x_2(%x_1);
  let %x_3 = fn (%p02: Tensor[(4, 7), float32] /* ty=Tensor[(4, 7), float32] span=from_string:14:15 */, Primitive=1, relay.reshape_only=1) -> Tensor[(4, 7), float16] {
    %1 = cast(%p02, dtype="float16") /* ty=Tensor[(4, 7), float16] span=from_string:15:13 */;
    reshape(%1, newshape=[4, 7]) /* ty=Tensor[(4, 7), float16] span=from_string:14:5 */
  } /* ty=fn (Tensor[(4, 7), float32]) -> Tensor[(4, 7), float16] span=from_string:107:9 */;
  let %x_4 = %x_3(%x0);
  let %x_5 = cast(%x13, dtype="float32");
  let %x_6 = fn (%p06: Tensor[(2, 7, 2), float32] /* ty=Tensor[(2, 7, 2), float32] span=from_string:19:15 */, %p13: Tensor[(2, 7, 2), float32] /* ty=Tensor[(2, 7, 2), float32] span=from_string:20:16 */, Primitive=1) -> Tensor[(2, 7, 2), float16] {
    %2 = cast(%p06, dtype="float16") /* ty=Tensor[(2, 7, 2), float16] span=from_string:21:15 */;
    %3 = cast(%p13, dtype="float16") /* ty=Tensor[(2, 7, 2), float16] span=from_string:21:19 */;
    multiply(%2, %3) /* ty=Tensor[(2, 7, 2), float16] span=from_string:19:5 */
  } /* ty=fn (Tensor[(2, 7, 2), float32], Tensor[(2, 7, 2), float32]) -> Tensor[(2, 7, 2), float16] span=from_string:23:9 */;
  let %x_7 = %x_6(%x_5, %x1);
  let %x_8 = cast(%x_7, dtype="float32");
  let %x_9 = fn (%p05: Tensor[(2, 7, 2), float32] /* ty=Tensor[(2, 7, 2), float32] span=from_string:26:15 */, %p12: Tensor[(2, 7, 2), float32] /* ty=Tensor[(2, 7, 2), float32] */, Primitive=1) -> Tensor[(2, 7, 2), float16] {
    %4 = cast(%p05, dtype="float16") /* ty=Tensor[(2, 7, 2), float16] span=from_string:27:21 */;
    collapse_sum_to(%4, meta[relay.Constant][0] /* ty=Tensor[(3), int32] span=from_string:27:30 */, meta[relay.attrs.InitOpAttrs][0]) /* ty=Tensor[(2, 7, 2), float16] span=from_string:26:5 */
  } /* ty=fn (Tensor[(2, 7, 2), float32], Tensor[(2, 7, 2), float32]) -> Tensor[(2, 7, 2), float16] span=from_string:29:9 */;
  let %x_10 = %x_9(%x_8, %x1);
  let %x_11 = cast(%x_10, dtype="float32");
  let %x_12 = fn (%p04: Tensor[(2, 7, 2), float32] /* ty=Tensor[(2, 7, 2), float32] */, %p11: Tensor[(2, 7, 2), float32] /* ty=Tensor[(2, 7, 2), float32] span=from_string:32:10 */, Primitive=1) -> Tensor[(2, 7, 2), float16] {
    cast(%p11, dtype="float16") /* ty=Tensor[(2, 7, 2), float16] span=from_string:32:5 */
  } /* ty=fn (Tensor[(2, 7, 2), float32], Tensor[(2, 7, 2), float32]) -> Tensor[(2, 7, 2), float16] span=from_string:34:9 */;
  let %x_13 = %x_12(%x1, %x_11);
  let %x_14 = cast(%x_13, dtype="float32");
  let %x_15 = fn (%p03: Tensor[(2, 7, 2), float32] /* ty=Tensor[(2, 7, 2), float32] span=from_string:37:15 */, %p1: Tensor[(2, 7, 2), float32] /* ty=Tensor[(2, 7, 2), float32] span=from_string:38:15 */, Primitive=1) -> Tensor[(2, 7, 2), float16] {
    %5 = cast(%p03, dtype="float16") /* ty=Tensor[(2, 7, 2), float16] span=from_string:39:9 */;
    %6 = cast(%p1, dtype="float16") /* ty=Tensor[(2, 7, 2), float16] span=from_string:39:13 */;
    add(%5, %6) /* ty=Tensor[(2, 7, 2), float16] span=from_string:37:5 */
  } /* ty=fn (Tensor[(2, 7, 2), float32], Tensor[(2, 7, 2), float32]) -> Tensor[(2, 7, 2), float16] span=from_string:41:9 */;
  let %x_16 = %x_15(%x_14, %x_11);
  let %x_17 = (%x_16,) /* ty=(Tensor[(2, 7, 2), float16],) span=from_string:108:16 */;
  let %x_18 = (%x12, %x_17) /* ty=(Tensor[(2, 7, 2), float16], (Tensor[(2, 7, 2), float16],)) span=from_string:115:9 */;
  let %x_19 = fn (%p07: Tensor[(2, 7, 2), float32] /* ty=Tensor[(2, 7, 2), float32] span=from_string:44:16 */, Primitive=1, relay.reshape_only=1) -> Tensor[(2, 7, 2), float16] {
    %7 = cast(%p07, dtype="float16") /* ty=Tensor[(2, 7, 2), float16] span=from_string:45:13 */;
    reshape(%7, newshape=[2, 7, 2]) /* ty=Tensor[(2, 7, 2), float16] span=from_string:44:5 */
  } /* ty=fn (Tensor[(2, 7, 2), float32]) -> Tensor[(2, 7, 2), float16] span=from_string:109:9 */;
  let %x_20 = %x_19(%x_11);
  let %x_21 = meta[relay.Constant][1] /* ty=Tensor[(2), int32] span=from_string:110:18 */;
  let %x_22 = fn (%p08: Tensor[(2), int32] /* ty=Tensor[(2), int32] span=from_string:48:13 */, %p14: int32 /* ty=int32 span=from_string:48:19 */, %p2: int32 /* ty=int32 span=from_string:48:25 */, Primitive=1) -> Tensor[(6, 2), float32] {
    one_hot(%p08, %p14, %p2, depth=6, axis=0, dtype="float32") /* ty=Tensor[(6, 2), float32] span=from_string:48:5 */
  } /* ty=fn (Tensor[(2), int32], int32, int32) -> Tensor[(6, 2), float32] span=from_string:110:9 */;
  let %x_23 = %x_22(%x_21, %x3, %x4);
  let %x_24 = fn (%p010: Tensor[(2, 7, 2), float32] /* ty=Tensor[(2, 7, 2), float32] span=from_string:51:16 */, Primitive=1) -> Tensor[(2, 7, 2), float16] {
    %8 = cast(%p010, dtype="float16") /* ty=Tensor[(2, 7, 2), float16] span=from_string:53:9 */;
    %9 = cast(1f /* ty=float32 span=from_string:52:18 */, dtype="float16") /* ty=float16 span=from_string:53:14 */;
    add(%8, %9) /* ty=Tensor[(2, 7, 2), float16] span=from_string:51:5 */
  } /* ty=fn (Tensor[(2, 7, 2), float32]) -> Tensor[(2, 7, 2), float16] span=from_string:55:9 */;
  let %x_25 = %x_24(%x_14);
  let %x_26 = cast(%x_25, dtype="float32");
  let %x_27 = fn (%p09: Tensor[(2, 7, 2), float32] /* ty=Tensor[(2, 7, 2), float32] span=from_string:58:16 */, Primitive=1) -> Tensor[(2, 7, 2), float16] {
    %10 = cast(%p09, dtype="float16") /* ty=Tensor[(2, 7, 2), float16] span=from_string:59:20 */;
    %11 = fast_exp(%10) /* ty=Tensor[(2, 7, 2), float16] span=from_string:60:20 */;
    multiply(%11, %11) /* ty=Tensor[(2, 7, 2), float16] span=from_string:58:5 */
  } /* ty=fn (Tensor[(2, 7, 2), float32]) -> Tensor[(2, 7, 2), float16] span=from_string:111:9 */;
  let %x_28 = %x_27(%x_26);
  let %x_29 = fn (%p011: Tensor[(2, 7, 2), float32] /* ty=Tensor[(2, 7, 2), float32] span=from_string:63:16 */, Primitive=1) -> Tensor[(2, 7, 2), float16] {
    %12 = cast(%p011, dtype="float16") /* ty=Tensor[(2, 7, 2), float16] span=from_string:65:15 */;
    %13 = cast(1f /* ty=float32 span=from_string:64:18 */, dtype="float16") /* ty=float16 span=from_string:65:20 */;
    %14 = add(%12, %13) /* ty=Tensor[(2, 7, 2), float16] span=from_string:66:20 */;
    %15 = fast_exp(%14) /* ty=Tensor[(2, 7, 2), float16] span=from_string:67:13 */;
    squeeze(%15) /* ty=Tensor[(2, 7, 2), float16] span=from_string:63:5 */
  } /* ty=fn (Tensor[(2, 7, 2), float32]) -> Tensor[(2, 7, 2), float16] span=from_string:112:9 */;
  let %x_30 = %x_29(%x_8);
  let %x_31 = fn (%p012: Tensor[(2, 7, 2), float32] /* ty=Tensor[(2, 7, 2), float32] span=from_string:70:12 */, %p15: Tensor[(74, 7, 2), float32] /* ty=Tensor[(74, 7, 2), float32] span=from_string:70:19 */, Primitive=1) -> Tensor[(76, 7, 2), float32] {
    %16 = (%p012, %p15) /* ty=(Tensor[(2, 7, 2), float32], Tensor[(74, 7, 2), float32]) span=from_string:71:23 */;
    %17 = concatenate(%16) /* ty=Tensor[(76, 7, 2), float32] span=from_string:72:17 */;
    %18 = rsqrt(%17) /* ty=Tensor[(76, 7, 2), float32] span=from_string:73:59 */;
    multiply(2f /* ty=float32 span=from_string:73:17 */, %18) /* ty=Tensor[(76, 7, 2), float32] span=from_string:70:5 */
  } /* ty=fn (Tensor[(2, 7, 2), float32], Tensor[(74, 7, 2), float32]) -> Tensor[(76, 7, 2), float32] span=from_string:113:9 */;
  let %x_32 = %x_31(%x_26, %x5);
  let %x_33 = fn (%p014: Tensor[(14, 2), float32] /* ty=Tensor[(14, 2), float32] span=from_string:76:16 */, %p16: Tensor[(16, 2), float32] /* ty=Tensor[(16, 2), float32] span=from_string:77:16 */, %p21: Tensor[(16), float32] /* ty=Tensor[(16), float32] span=from_string:79:16 */, %p3: Tensor[(1), float32] /* ty=Tensor[(1), float32] span=from_string:81:16 */, Primitive=1) -> Tensor[(14, 16), float16] {
    %19 = cast(%p014, dtype="float16") /* ty=Tensor[(14, 2), float16] span=from_string:78:20 */;
    %20 = cast(%p16, dtype="float16") /* ty=Tensor[(16, 2), float16] span=from_string:78:25 */;
    %21 = nn.dense(%19, %20, units=None, out_dtype="float16") /* ty=Tensor[(14, 16), float16] span=from_string:80:15 */;
    %22 = cast(%p21, dtype="float16") /* ty=Tensor[(16), float16] span=from_string:80:20 */;
    %23 = add(%21, %22) /* ty=Tensor[(14, 16), float16] span=from_string:82:15 */;
    %24 = cast(%p3, dtype="float16") /* ty=Tensor[(1), float16] span=from_string:82:20 */;
    multiply(%23, %24) /* ty=Tensor[(14, 16), float16] span=from_string:76:5 */
  } /* ty=fn (Tensor[(14, 2), float32], Tensor[(16, 2), float32], Tensor[(16), float32], Tensor[(1), float32]) -> Tensor[(14, 16), float16] span=from_string:84:9 */;
  let %x_34 = %x_33(%x2, %x6, %x7, %x8);
  let %x_35 = cast(%x_34, dtype="float32");
  let %x_36 = fn (%p013: Tensor[(14, 16), float32] /* ty=Tensor[(14, 16), float32] span=from_string:87:16 */, Primitive=1, relay.reshape_only=1) -> Tensor[(1, 1, 224), float16] {
    %25 = cast(%p013, dtype="float16") /* ty=Tensor[(14, 16), float16] span=from_string:88:13 */;
    reshape(%25, newshape=[1, 1, 224]) /* ty=Tensor[(1, 1, 224), float16] span=from_string:87:5 */
  } /* ty=fn (Tensor[(14, 16), float32]) -> Tensor[(1, 1, 224), float16] span=from_string:105:9 */;
  let %x_37 = %x_36(%x_35);
  let %x_38 = fn (%p016: Tensor[(14, 2), float32] /* ty=Tensor[(14, 2), float32] span=from_string:91:16 */, %p17: Tensor[(32, 2), float32] /* ty=Tensor[(32, 2), float32] span=from_string:92:16 */, %p22: Tensor[(32), float32] /* ty=Tensor[(32), float32] span=from_string:94:16 */, %p31: Tensor[(1), float32] /* ty=Tensor[(1), float32] span=from_string:96:16 */, Primitive=1) -> Tensor[(14, 32), float16] {
    %26 = cast(%p016, dtype="float16") /* ty=Tensor[(14, 2), float16] span=from_string:93:20 */;
    %27 = cast(%p17, dtype="float16") /* ty=Tensor[(32, 2), float16] span=from_string:93:25 */;
    %28 = nn.dense(%26, %27, units=None, out_dtype="float16") /* ty=Tensor[(14, 32), float16] span=from_string:95:15 */;
    %29 = cast(%p22, dtype="float16") /* ty=Tensor[(32), float16] span=from_string:95:20 */;
    %30 = add(%28, %29) /* ty=Tensor[(14, 32), float16] span=from_string:97:15 */;
    %31 = cast(%p31, dtype="float16") /* ty=Tensor[(1), float16] span=from_string:97:20 */;
    multiply(%30, %31) /* ty=Tensor[(14, 32), float16] span=from_string:91:5 */
  } /* ty=fn (Tensor[(14, 2), float32], Tensor[(32, 2), float32], Tensor[(32), float32], Tensor[(1), float32]) -> Tensor[(14, 32), float16] span=from_string:99:9 */;
  let %x_39 = %x_38(%x2, %x9, %x10, %x11);
  let %x_40 = cast(%x_39, dtype="float32");
  let %x_41 = fn (%p015: Tensor[(14, 32), float32] /* ty=Tensor[(14, 32), float32] span=from_string:102:16 */, Primitive=1, relay.reshape_only=1) -> Tensor[(1, 1, 448), float16] {
    %32 = cast(%p015, dtype="float16") /* ty=Tensor[(14, 32), float16] span=from_string:103:13 */;
    reshape(%32, newshape=[1, 1, 448]) /* ty=Tensor[(1, 1, 448), float16] span=from_string:102:5 */
  } /* ty=fn (Tensor[(14, 32), float32]) -> Tensor[(1, 1, 448), float16] span=from_string:106:9 */;
  let %x_42 = %x_41(%x_40);
  let %x_43 = (%x_37, %x_42) /* ty=(Tensor[(1, 1, 224), float16], Tensor[(1, 1, 448), float16]) span=from_string:115:39 */;
  let %x_44 = (%x_4, %x_18, %x_20, %x_23, %x_28, %x_30, %x_32, %x_43) /* ty=(Tensor[(4, 7), float16], (Tensor[(2, 7, 2), float16], (Tensor[(2, 7, 2), float16],)), Tensor[(2, 7, 2), float16], Tensor[(6, 2), float32], Tensor[(2, 7, 2), float16], Tensor[(2, 7, 2), float16], Tensor[(76, 7, 2), float32], (Tensor[(1, 1, 224), float16], Tensor[(1, 1, 448), float16])) span=from_string:115:3 */;
  let %x_45 = %x_44;
  let %x_46 = %x_45;
  %x_46
}

#[metadata]
{
  "root": 1, 
  "nodes": [
    {
      "type_key": ""
    }, 
    {
      "type_key": "Map", 
      "keys": [
        "relay.attrs.InitOpAttrs", 
        "relay.Constant"
      ], 
      "data": [2, 8]
    }, 
    {
      "type_key": "Array", 
      "data": [3]
    }, 
    {
      "type_key": "relay.attrs.InitOpAttrs", 
      "attrs": {
        "dtype": "", 
        "shape": "4"
      }
    }, 
    {
      "type_key": "Array", 
      "data": [5, 6, 7]
    }, 
    {
      "type_key": "IntImm", 
      "attrs": {
        "dtype": "int32", 
        "span": "0", 
        "value": "2"
      }
    }, 
    {
      "type_key": "IntImm", 
      "attrs": {
        "dtype": "int32", 
        "span": "0", 
        "value": "7"
      }
    }, 
    {
      "type_key": "IntImm", 
      "attrs": {
        "dtype": "int32", 
        "span": "0", 
        "value": "2"
      }
    }, 
    {
      "type_key": "Array", 
      "data": [9, 17]
    }, 
    {
      "type_key": "relay.Constant", 
      "attrs": {
        "_checked_type_": "14", 
        "data": "0", 
        "span": "12", 
        "virtual_device_": "10"
      }
    }, 
    {
      "type_key": "VirtualDevice", 
      "attrs": {
        "device_type_int": "-1", 
        "memory_scope": "11", 
        "target": "0", 
        "virtual_device_id": "-1"
      }
    }, 
    {
      "type_key": "runtime.String"
    }, 
    {
      "type_key": "Span", 
      "attrs": {
        "column": "30", 
        "end_column": "48", 
        "end_line": "27", 
        "line": "27", 
        "source_name": "13"
      }
    }, 
    {
      "type_key": "SourceName", 
      "repr_str": "from_string"
    }, 
    {
      "type_key": "relay.TensorType", 
      "attrs": {
        "dtype": "int32", 
        "shape": "15", 
        "span": "0"
      }
    }, 
    {
      "type_key": "Array", 
      "data": [16]
    }, 
    {
      "type_key": "IntImm", 
      "attrs": {
        "dtype": "int32", 
        "span": "0", 
        "value": "3"
      }
    }, 
    {
      "type_key": "relay.Constant", 
      "attrs": {
        "_checked_type_": "21", 
        "data": "1", 
        "span": "20", 
        "virtual_device_": "18"
      }
    }, 
    {
      "type_key": "VirtualDevice", 
      "attrs": {
        "device_type_int": "-1", 
        "memory_scope": "19", 
        "target": "0", 
        "virtual_device_id": "-1"
      }
    }, 
    {
      "type_key": "runtime.String"
    }, 
    {
      "type_key": "Span", 
      "attrs": {
        "column": "18", 
        "end_column": "36", 
        "end_line": "110", 
        "line": "110", 
        "source_name": "13"
      }
    }, 
    {
      "type_key": "relay.TensorType", 
      "attrs": {
        "dtype": "int32", 
        "shape": "22", 
        "span": "0"
      }
    }, 
    {
      "type_key": "Array", 
      "data": [23]
    }, 
    {
      "type_key": "IntImm", 
      "attrs": {
        "dtype": "int32", 
        "span": "0", 
        "value": "2"
      }
    }
  ], 
  "b64ndarrays": [
    "P6G0lvBAXt0AAAAAAAAAAAEAAAAAAAAAAQAAAAAgAQADAAAAAAAAAAwAAAAAAAAAAgAAAAcAAAACAAAA", 
    "P6G0lvBAXt0AAAAAAAAAAAEAAAAAAAAAAQAAAAAgAQACAAAAAAAAAAgAAAAAAAAABAAAAAcAAAA="
  ], 
  "attrs": {"tvm_version": "0.13.0"}
}