#[version = "0.0.5"]
def @main(%x0: Tensor[(4, 7), float32] /* ty=Tensor[(4, 7), float32] span=from_string:125:12 */, %x1: Tensor[(2, 7, 2), float32] /* ty=Tensor[(2, 7, 2), float32] span=from_string:49:18 */, %x2: Tensor[(14, 2), float32] /* ty=Tensor[(14, 2), float32] span=from_string:117:13 */, %x3: int32 /* ty=int32 span=from_string:128:90 */, %x4: int32 /* ty=int32 span=from_string:128:95 */, %x5: Tensor[(74, 7, 2), float32] /* ty=Tensor[(74, 7, 2), float32] span=from_string:131:18 */, %x6: Tensor[(16, 2), float32] /* ty=Tensor[(16, 2), float32] span=from_string:101:18 */, %x7: Tensor[(16), float32] /* ty=Tensor[(16), float32] span=from_string:101:23 */, %x8: Tensor[(1), float32] /* ty=Tensor[(1), float32] span=from_string:101:28 */, %x9: Tensor[(32, 2), float32] /* ty=Tensor[(32, 2), float32] span=from_string:117:18 */, %x10: Tensor[(32), float32] /* ty=Tensor[(32), float32] span=from_string:117:23 */, %x11: Tensor[(1), float32] /* ty=Tensor[(1), float32] span=from_string:117:29 */) -> (Tensor[(4, 7), float16], (Tensor[(2, 7, 2), float16], (Tensor[(2, 7, 2), float16],)), Tensor[(2, 7, 2), float16], Tensor[(6, 2), float32], Tensor[(2, 7, 2), float32], Tensor[(2, 7, 2), float32], Tensor[(76, 7, 2), float32], (Tensor[(1, 1, 224), float16], Tensor[(1, 1, 448), float16])) {
  %1 = fn (%p02: Tensor[(4, 7), float32] /* ty=Tensor[(4, 7), float32] span=from_string:4:15 */, Primitive=1, relay.reshape_only=1) -> Tensor[(4, 7), float16] {
    %0 = cast(%p02, dtype="float16") /* ty=Tensor[(4, 7), float16] span=from_string:5:18 */;
    reshape(%0, newshape=[4, 7]) /* ty=Tensor[(4, 7), float16] */
  } /* ty=fn (Tensor[(4, 7), float32]) -> Tensor[(4, 7), float16] span=from_string:125:9 */;
  %3 = fn (%p0: Tensor[(2, 7, 2), float32] /* ty=Tensor[(2, 7, 2), float32] span=from_string:11:15 */, Primitive=1) -> Tensor[(2, 7, 2), float16] {
    %2 = cast(%p0, dtype="float16") /* ty=Tensor[(2, 7, 2), float16] span=from_string:12:19 */;
    multiply(%2, %2) /* ty=Tensor[(2, 7, 2), float16] span=from_string:11:5 */
  } /* ty=fn (Tensor[(2, 7, 2), float32]) -> Tensor[(2, 7, 2), float16] span=from_string:14:9 */;
  %9 = %3(%x1) /* ty=Tensor[(2, 7, 2), float16] span=from_string:126:10 */;
  %10 = cast(%9, dtype="float32") /* ty=Tensor[(2, 7, 2), float32] span=from_string:20:13 */;
  %11 = fn (%p01: Tensor[(2, 7, 2), float32] /* ty=Tensor[(2, 7, 2), float32] span=from_string:17:16 */, Primitive=1) -> Tensor[(2, 7, 2), float16] {
    ones(shape=[2, 7, 2], dtype="float16") /* ty=Tensor[(2, 7, 2), float16] */
  } /* ty=fn (Tensor[(2, 7, 2), float32]) -> Tensor[(2, 7, 2), float16] span=from_string:20:9 */;
  %12 = %11(%10) /* ty=Tensor[(2, 7, 2), float16] span=from_string:21:14 */;
  %13 = cast(%12, dtype="float32") /* ty=Tensor[(2, 7, 2), float32] span=from_string:49:13 */;
  %14 = fn (%p06: Tensor[(2, 7, 2), float32] /* ty=Tensor[(2, 7, 2), float32] span=from_string:23:16 */, %p13: Tensor[(2, 7, 2), float32] /* ty=Tensor[(2, 7, 2), float32] span=from_string:24:16 */, Primitive=1) -> Tensor[(2, 7, 2), float16] {
    %7 = cast(%p06, dtype="float16") /* ty=Tensor[(2, 7, 2), float16] span=from_string:25:15 */;
    %8 = cast(%p13, dtype="float16") /* ty=Tensor[(2, 7, 2), float16] span=from_string:25:20 */;
    multiply(%7, %8) /* ty=Tensor[(2, 7, 2), float16] span=from_string:23:5 */
  } /* ty=fn (Tensor[(2, 7, 2), float32], Tensor[(2, 7, 2), float32]) -> Tensor[(2, 7, 2), float16] span=from_string:27:9 */;
  %15 = %14(%13, %x1) /* ty=Tensor[(2, 7, 2), float16] span=from_string:28:14 */;
  %16 = cast(%15, dtype="float32") /* ty=Tensor[(2, 7, 2), float32] span=from_string:130:13 */;
  %17 = fn (%p05: Tensor[(2, 7, 2), float32] /* ty=Tensor[(2, 7, 2), float32] span=from_string:30:16 */, %p12: Tensor[(2, 7, 2), float32] /* ty=Tensor[(2, 7, 2), float32] span=from_string:31:16 */, Primitive=1) -> Tensor[(2, 7, 2), float16] {
    %6 = cast(%p05, dtype="float16") /* ty=Tensor[(2, 7, 2), float16] span=from_string:32:23 */;
    collapse_sum_to(%6, meta[relay.Constant][0] /* ty=Tensor[(3), int32] */, meta[relay.attrs.InitOpAttrs][0]) /* ty=Tensor[(2, 7, 2), float16] */
  } /* ty=fn (Tensor[(2, 7, 2), float32], Tensor[(2, 7, 2), float32]) -> Tensor[(2, 7, 2), float16] span=from_string:34:9 */;
  %18 = %17(%16, %x1) /* ty=Tensor[(2, 7, 2), float16] span=from_string:35:14 */;
  %19 = cast(%18, dtype="float32") /* ty=Tensor[(2, 7, 2), float32] span=from_string:127:13 */;
  %20 = fn (%p04: Tensor[(2, 7, 2), float32] /* ty=Tensor[(2, 7, 2), float32] span=from_string:37:15 */, %p11: Tensor[(2, 7, 2), float32] /* ty=Tensor[(2, 7, 2), float32] span=from_string:39:16 */, Primitive=1) -> Tensor[(2, 7, 2), float16] {
    cast(%p11, dtype="float16") /* ty=Tensor[(2, 7, 2), float16] span=from_string:40:14 */
  } /* ty=fn (Tensor[(2, 7, 2), float32], Tensor[(2, 7, 2), float32]) -> Tensor[(2, 7, 2), float16] span=from_string:42:9 */;
  %21 = %20(%x1, %19) /* ty=Tensor[(2, 7, 2), float16] span=from_string:50:14 */;
  %25 = fn (%p07: Tensor[(2, 7, 2), float32] /* ty=Tensor[(2, 7, 2), float32] span=from_string:44:16 */, %p14: Tensor[(2, 7, 2), float32] /* ty=Tensor[(2, 7, 2), float32] span=from_string:45:16 */, Primitive=1) -> Tensor[(2, 7, 2), float16] {
    %22 = cast(%p07, dtype="float16") /* ty=Tensor[(2, 7, 2), float16] span=from_string:46:21 */;
    %23 = cast(%p14, dtype="float16") /* ty=Tensor[(2, 7, 2), float16] span=from_string:47:28 */;
    %24 = multiply(%22, %23) /* ty=Tensor[(2, 7, 2), float16] span=from_string:47:23 */;
    collapse_sum_to(%24, meta[relay.Constant][1] /* ty=Tensor[(3), int32] */, meta[relay.attrs.InitOpAttrs][1]) /* ty=Tensor[(2, 7, 2), float16] */
  } /* ty=fn (Tensor[(2, 7, 2), float32], Tensor[(2, 7, 2), float32]) -> Tensor[(2, 7, 2), float16] span=from_string:49:9 */;
  %26 = %25(%13, %x1) /* ty=Tensor[(2, 7, 2), float16] span=from_string:51:14 */;
  %27 = cast(%21, dtype="float32") /* ty=Tensor[(2, 7, 2), float32] span=from_string:72:13 */;
  %28 = cast(%26, dtype="float32") /* ty=Tensor[(2, 7, 2), float32] span=from_string:57:18 */;
  %29 = fn (%p03: Tensor[(2, 7, 2), float32] /* ty=Tensor[(2, 7, 2), float32] span=from_string:53:15 */, %p1: Tensor[(2, 7, 2), float32] /* ty=Tensor[(2, 7, 2), float32] span=from_string:54:15 */, Primitive=1) -> Tensor[(2, 7, 2), float16] {
    %4 = cast(%p03, dtype="float16") /* ty=Tensor[(2, 7, 2), float16] span=from_string:55:9 */;
    %5 = cast(%p1, dtype="float16") /* ty=Tensor[(2, 7, 2), float16] span=from_string:55:13 */;
    add(%4, %5) /* ty=Tensor[(2, 7, 2), float16] span=from_string:53:5 */
  } /* ty=fn (Tensor[(2, 7, 2), float32], Tensor[(2, 7, 2), float32]) -> Tensor[(2, 7, 2), float16] span=from_string:57:9 */;
  %30 = %29(%27, %28) /* ty=Tensor[(2, 7, 2), float16] span=from_string:58:10 */;
  %31 = (%30,) /* ty=(Tensor[(2, 7, 2), float16],) span=from_string:126:15 */;
  %33 = fn (%p08: Tensor[(2, 7, 2), float32] /* ty=Tensor[(2, 7, 2), float32] span=from_string:60:16 */, Primitive=1, relay.reshape_only=1) -> Tensor[(2, 7, 2), float16] {
    %32 = cast(%p08, dtype="float16") /* ty=Tensor[(2, 7, 2), float16] span=from_string:61:19 */;
    reshape(%32, newshape=[2, 7, 2]) /* ty=Tensor[(2, 7, 2), float16] */
  } /* ty=fn (Tensor[(2, 7, 2), float32]) -> Tensor[(2, 7, 2), float16] span=from_string:127:9 */;
  %34 = fn (%p09: Tensor[(2), int32] /* ty=Tensor[(2), int32] span=from_string:65:13 */, %p15: int32 /* ty=int32 span=from_string:65:19 */, %p2: int32 /* ty=int32 span=from_string:65:25 */, Primitive=1) -> Tensor[(6, 2), float32] {
    one_hot(%p09, %p15, %p2, depth=6, axis=0, dtype="float32") /* ty=Tensor[(6, 2), float32] span=from_string:65:5 */
  } /* ty=fn (Tensor[(2), int32], int32, int32) -> Tensor[(6, 2), float32] span=from_string:128:9 */;
  %38 = fn (%p011: Tensor[(2, 7, 2), float32] /* ty=Tensor[(2, 7, 2), float32] span=from_string:68:16 */, Primitive=1) -> Tensor[(2, 7, 2), float16] {
    %36 = cast(%p011, dtype="float16") /* ty=Tensor[(2, 7, 2), float16] span=from_string:70:9 */;
    %37 = cast(1f /* ty=float32 span=from_string:69:18 */, dtype="float16") /* ty=float16 span=from_string:80:20 */;
    add(%36, %37) /* ty=Tensor[(2, 7, 2), float16] span=from_string:68:5 */
  } /* ty=fn (Tensor[(2, 7, 2), float32]) -> Tensor[(2, 7, 2), float16] span=from_string:72:9 */;
  %39 = %38(%27) /* ty=Tensor[(2, 7, 2), float16] span=from_string:73:14 */;
  %40 = cast(%39, dtype="float32") /* ty=Tensor[(2, 7, 2), float32] span=from_string:131:13 */;
  %41 = fn (%p010: Tensor[(2, 7, 2), float32] /* ty=Tensor[(2, 7, 2), float32] span=from_string:75:15 */, Primitive=1) -> Tensor[(2, 7, 2), float32] {
    %35 = exp(%p010) /* ty=Tensor[(2, 7, 2), float32] span=from_string:76:20 */;
    multiply(%35, %35) /* ty=Tensor[(2, 7, 2), float32] span=from_string:75:5 */
  } /* ty=fn (Tensor[(2, 7, 2), float32]) -> Tensor[(2, 7, 2), float32] span=from_string:129:9 */;
  %46 = fn (%p012: Tensor[(2, 7, 2), float32] /* ty=Tensor[(2, 7, 2), float32] span=from_string:79:16 */, Primitive=1) -> Tensor[(2, 7, 2), float32] {
    %42 = cast(%p012, dtype="float16") /* ty=Tensor[(2, 7, 2), float16] span=from_string:80:15 */;
    %43 = add(%42, %37) /* ty=Tensor[(2, 7, 2), float16] span=from_string:81:16 */;
    %44 = cast(%43, dtype="float32") /* ty=Tensor[(2, 7, 2), float32] span=from_string:82:15 */;
    %45 = exp(%44) /* ty=Tensor[(2, 7, 2), float32] span=from_string:83:13 */;
    squeeze(%45) /* ty=Tensor[(2, 7, 2), float32] span=from_string:79:5 */
  } /* ty=fn (Tensor[(2, 7, 2), float32]) -> Tensor[(2, 7, 2), float32] span=from_string:130:9 */;
  %50 = fn (%p013: Tensor[(2, 7, 2), float32] /* ty=Tensor[(2, 7, 2), float32] span=from_string:86:12 */, %p16: Tensor[(74, 7, 2), float32] /* ty=Tensor[(74, 7, 2), float32] span=from_string:86:19 */, Primitive=1) -> Tensor[(76, 7, 2), float32] {
    %47 = (%p013, %p16) /* ty=(Tensor[(2, 7, 2), float32], Tensor[(74, 7, 2), float32]) span=from_string:87:23 */;
    %48 = concatenate(%47) /* ty=Tensor[(76, 7, 2), float32] span=from_string:88:16 */;
    %49 = rsqrt(%48) /* ty=Tensor[(76, 7, 2), float32] */;
    multiply(2f /* ty=float32 span=from_string:89:14 */, %49) /* ty=Tensor[(76, 7, 2), float32] */
  } /* ty=fn (Tensor[(2, 7, 2), float32], Tensor[(74, 7, 2), float32]) -> Tensor[(76, 7, 2), float32] span=from_string:131:9 */;
  %59 = fn (%p015: Tensor[(14, 2), float32] /* ty=Tensor[(14, 2), float32] span=from_string:92:16 */, %p17: Tensor[(16, 2), float32] /* ty=Tensor[(16, 2), float32] span=from_string:93:16 */, %p21: Tensor[(16), float32] /* ty=Tensor[(16), float32] span=from_string:94:16 */, %p3: Tensor[(1), float32] /* ty=Tensor[(1), float32] span=from_string:98:16 */, Primitive=1) -> Tensor[(14, 16), float16] {
    %52 = cast(%p015, dtype="float16") /* ty=Tensor[(14, 2), float16] span=from_string:95:20 */;
    %53 = cast(%p17, dtype="float16") /* ty=Tensor[(16, 2), float16] span=from_string:95:25 */;
    %54 = cast(%p21, dtype="float16") /* ty=Tensor[(16), float16] span=from_string:96:23 */;
    %55 = nn.dense(%52, %53, units=None, out_dtype="float16") /* ty=Tensor[(14, 16), float16] span=from_string:97:15 */;
    %56 = expand_dims(%54, axis=0) /* ty=Tensor[(1, 16), float16] span=from_string:97:20 */;
    %57 = add(%55, %56) /* ty=Tensor[(14, 16), float16] span=from_string:99:15 */;
    %58 = cast(%p3, dtype="float16") /* ty=Tensor[(1), float16] span=from_string:99:20 */;
    multiply(%57, %58) /* ty=Tensor[(14, 16), float16] span=from_string:92:5 */
  } /* ty=fn (Tensor[(14, 2), float32], Tensor[(16, 2), float32], Tensor[(16), float32], Tensor[(1), float32]) -> Tensor[(14, 16), float16] span=from_string:101:9 */;
  %60 = %59(%x2, %x6, %x7, %x8) /* ty=Tensor[(14, 16), float16] span=from_string:102:14 */;
  %61 = cast(%60, dtype="float32") /* ty=Tensor[(14, 16), float32] span=from_string:123:13 */;
  %62 = fn (%p014: Tensor[(14, 16), float32] /* ty=Tensor[(14, 16), float32] span=from_string:104:16 */, Primitive=1, relay.reshape_only=1) -> Tensor[(1, 1, 224), float16] {
    %51 = cast(%p014, dtype="float16") /* ty=Tensor[(14, 16), float16] span=from_string:105:13 */;
    reshape(%51, newshape=[1, 1, 224]) /* ty=Tensor[(1, 1, 224), float16] span=from_string:104:5 */
  } /* ty=fn (Tensor[(14, 16), float32]) -> Tensor[(1, 1, 224), float16] span=from_string:123:9 */;
  %71 = fn (%p017: Tensor[(14, 2), float32] /* ty=Tensor[(14, 2), float32] span=from_string:108:16 */, %p18: Tensor[(32, 2), float32] /* ty=Tensor[(32, 2), float32] span=from_string:109:16 */, %p22: Tensor[(32), float32] /* ty=Tensor[(32), float32] span=from_string:110:16 */, %p31: Tensor[(1), float32] /* ty=Tensor[(1), float32] span=from_string:114:16 */, Primitive=1) -> Tensor[(14, 32), float16] {
    %64 = cast(%p017, dtype="float16") /* ty=Tensor[(14, 2), float16] span=from_string:111:20 */;
    %65 = cast(%p18, dtype="float16") /* ty=Tensor[(32, 2), float16] span=from_string:111:25 */;
    %66 = cast(%p22, dtype="float16") /* ty=Tensor[(32), float16] span=from_string:112:23 */;
    %67 = nn.dense(%64, %65, units=None, out_dtype="float16") /* ty=Tensor[(14, 32), float16] span=from_string:113:15 */;
    %68 = expand_dims(%66, axis=0) /* ty=Tensor[(1, 32), float16] span=from_string:113:20 */;
    %69 = add(%67, %68) /* ty=Tensor[(14, 32), float16] span=from_string:115:15 */;
    %70 = cast(%p31, dtype="float16") /* ty=Tensor[(1), float16] span=from_string:115:20 */;
    multiply(%69, %70) /* ty=Tensor[(14, 32), float16] span=from_string:108:5 */
  } /* ty=fn (Tensor[(14, 2), float32], Tensor[(32, 2), float32], Tensor[(32), float32], Tensor[(1), float32]) -> Tensor[(14, 32), float16] span=from_string:117:9 */;
  %72 = %71(%x2, %x9, %x10, %x11) /* ty=Tensor[(14, 32), float16] span=from_string:118:14 */;
  %73 = cast(%72, dtype="float32") /* ty=Tensor[(14, 32), float32] span=from_string:124:13 */;
  %74 = fn (%p016: Tensor[(14, 32), float32] /* ty=Tensor[(14, 32), float32] span=from_string:120:16 */, Primitive=1, relay.reshape_only=1) -> Tensor[(1, 1, 448), float16] {
    %63 = cast(%p016, dtype="float16") /* ty=Tensor[(14, 32), float16] span=from_string:121:13 */;
    reshape(%63, newshape=[1, 1, 448]) /* ty=Tensor[(1, 1, 448), float16] span=from_string:120:5 */
  } /* ty=fn (Tensor[(14, 32), float32]) -> Tensor[(1, 1, 448), float16] span=from_string:124:9 */;
  %75 = %62(%61) /* ty=Tensor[(1, 1, 224), float16] span=from_string:132:10 */;
  %76 = %74(%73) /* ty=Tensor[(1, 1, 448), float16] span=from_string:132:15 */;
  %77 = %1(%x0) /* ty=Tensor[(4, 7), float16] span=from_string:133:4 */;
  %78 = (%9, %31) /* ty=(Tensor[(2, 7, 2), float16], (Tensor[(2, 7, 2), float16],)) span=from_string:133:9 */;
  %79 = %33(%19) /* ty=Tensor[(2, 7, 2), float16] span=from_string:133:14 */;
  %80 = %34(meta[relay.Constant][2] /* ty=Tensor[(2), int32] span=from_string:128:18 */, %x3, %x4) /* ty=Tensor[(6, 2), float32] span=from_string:133:19 */;
  %81 = %41(%40) /* ty=Tensor[(2, 7, 2), float32] span=from_string:133:24 */;
  %82 = %46(%16) /* ty=Tensor[(2, 7, 2), float32] span=from_string:133:29 */;
  %83 = %50(%40, %x5) /* ty=Tensor[(76, 7, 2), float32] span=from_string:133:34 */;
  %84 = (%75, %76) /* ty=(Tensor[(1, 1, 224), float16], Tensor[(1, 1, 448), float16]) span=from_string:133:39 */;
  (%77, %78, %79, %80, %81, %82, %83, %84) /* ty=(Tensor[(4, 7), float16], (Tensor[(2, 7, 2), float16], (Tensor[(2, 7, 2), float16],)), Tensor[(2, 7, 2), float16], Tensor[(6, 2), float32], Tensor[(2, 7, 2), float32], Tensor[(2, 7, 2), float32], Tensor[(76, 7, 2), float32], (Tensor[(1, 1, 224), float16], Tensor[(1, 1, 448), float16])) span=from_string:3:3 */
}

#[metadata]
{
  "root": 1, 
  "nodes": [
    {
      "type_key": ""
    }, 
    {
      "type_key": "Map", 
      "keys": [
        "relay.attrs.InitOpAttrs", 
        "relay.Constant"
      ], 
      "data": [2, 10]
    }, 
    {
      "type_key": "Array", 
      "data": [3, 8]
    }, 
    {
      "type_key": "relay.attrs.InitOpAttrs", 
      "attrs": {
        "dtype": "", 
        "shape": "4"
      }
    }, 
    {
      "type_key": "Array", 
      "data": [5, 6, 7]
    }, 
    {
      "type_key": "IntImm", 
      "attrs": {
        "dtype": "int32", 
        "span": "0", 
        "value": "2"
      }
    }, 
    {
      "type_key": "IntImm", 
      "attrs": {
        "dtype": "int32", 
        "span": "0", 
        "value": "7"
      }
    }, 
    {
      "type_key": "IntImm", 
      "attrs": {
        "dtype": "int32", 
        "span": "0", 
        "value": "2"
      }
    }, 
    {
      "type_key": "relay.attrs.InitOpAttrs", 
      "attrs": {
        "dtype": "", 
        "shape": "9"
      }
    }, 
    {
      "type_key": "Array", 
      "data": [5, 6, 7]
    }, 
    {
      "type_key": "Array", 
      "data": [11, 17, 21]
    }, 
    {
      "type_key": "relay.Constant", 
      "attrs": {
        "_checked_type_": "14", 
        "data": "0", 
        "span": "0", 
        "virtual_device_": "12"
      }
    }, 
    {
      "type_key": "VirtualDevice", 
      "attrs": {
        "device_type_int": "-1", 
        "memory_scope": "13", 
        "target": "0", 
        "virtual_device_id": "-1"
      }
    }, 
    {
      "type_key": "runtime.String"
    }, 
    {
      "type_key": "relay.TensorType", 
      "attrs": {
        "dtype": "int32", 
        "shape": "15", 
        "span": "0"
      }
    }, 
    {
      "type_key": "Array", 
      "data": [16]
    }, 
    {
      "type_key": "IntImm", 
      "attrs": {
        "dtype": "int32", 
        "span": "0", 
        "value": "3"
      }
    }, 
    {
      "type_key": "relay.Constant", 
      "attrs": {
        "_checked_type_": "18", 
        "data": "1", 
        "span": "0", 
        "virtual_device_": "12"
      }
    }, 
    {
      "type_key": "relay.TensorType", 
      "attrs": {
        "dtype": "int32", 
        "shape": "19", 
        "span": "0"
      }
    }, 
    {
      "type_key": "Array", 
      "data": [20]
    }, 
    {
      "type_key": "IntImm", 
      "attrs": {
        "dtype": "int32", 
        "span": "0", 
        "value": "3"
      }
    }, 
    {
      "type_key": "relay.Constant", 
      "attrs": {
        "_checked_type_": "26", 
        "data": "2", 
        "span": "24", 
        "virtual_device_": "22"
      }
    }, 
    {
      "type_key": "VirtualDevice", 
      "attrs": {
        "device_type_int": "-1", 
        "memory_scope": "23", 
        "target": "0", 
        "virtual_device_id": "-1"
      }
    }, 
    {
      "type_key": "runtime.String"
    }, 
    {
      "type_key": "Span", 
      "attrs": {
        "column": "18", 
        "end_column": "36", 
        "end_line": "128", 
        "line": "128", 
        "source_name": "25"
      }
    }, 
    {
      "type_key": "SourceName", 
      "repr_str": "from_string"
    }, 
    {
      "type_key": "relay.TensorType", 
      "attrs": {
        "dtype": "int32", 
        "shape": "27", 
        "span": "0"
      }
    }, 
    {
      "type_key": "Array", 
      "data": [28]
    }, 
    {
      "type_key": "IntImm", 
      "attrs": {
        "dtype": "int32", 
        "span": "0", 
        "value": "2"
      }
    }
  ], 
  "b64ndarrays": [
    "P6G0lvBAXt0AAAAAAAAAAAEAAAAAAAAAAQAAAAAgAQADAAAAAAAAAAwAAAAAAAAAAgAAAAcAAAACAAAA", 
    "P6G0lvBAXt0AAAAAAAAAAAEAAAAAAAAAAQAAAAAgAQADAAAAAAAAAAwAAAAAAAAAAgAAAAcAAAACAAAA", 
    "P6G0lvBAXt0AAAAAAAAAAAEAAAAAAAAAAQAAAAAgAQACAAAAAAAAAAgAAAAAAAAABAAAAAcAAAA="
  ], 
  "attrs": {"tvm_version": "0.13.0"}
}