#[version = "0.0.5"]
def @main(%x0: Tensor[(4, 7), float32] /* ty=Tensor[(4, 7), float32] span=from_string:121:12 */, %x1: Tensor[(2, 7, 2), float32] /* ty=Tensor[(2, 7, 2), float32] span=from_string:41:13 */, %x2: Tensor[(14, 2), float32] /* ty=Tensor[(14, 2), float32] span=from_string:113:13 */, %x3: int32 /* ty=int32 span=from_string:124:89 */, %x4: int32 /* ty=int32 span=from_string:124:94 */, %x5: Tensor[(74, 7, 2), float32] /* ty=Tensor[(74, 7, 2), float32] span=from_string:80:18 */, %x6: Tensor[(16, 2), float32] /* ty=Tensor[(16, 2), float32] span=from_string:97:18 */, %x7: Tensor[(16), float32] /* ty=Tensor[(16), float32] span=from_string:97:23 */, %x8: Tensor[(1), float32] /* ty=Tensor[(1), float32] span=from_string:97:28 */, %x9: Tensor[(32, 2), float32] /* ty=Tensor[(32, 2), float32] span=from_string:113:18 */, %x10: Tensor[(32), float32] /* ty=Tensor[(32), float32] span=from_string:113:23 */, %x11: Tensor[(1), float32] /* ty=Tensor[(1), float32] span=from_string:113:29 */) -> (Tensor[(4, 7), float16], (Tensor[(2, 7, 2), float16], (Tensor[(2, 7, 2), float16],)), Tensor[(2, 7, 2), float16], Tensor[(6, 2), float32], Tensor[(2, 7, 2), float32], Tensor[(2, 7, 2), float32], Tensor[(76, 7, 2), float32], (Tensor[(1, 1, 224), float16], Tensor[(1, 1, 448), float16])) {
  %1 = fn (%p0: Tensor[(2, 7, 2), float32] /* ty=Tensor[(2, 7, 2), float32] span=from_string:4:15 */, Primitive=1) -> Tensor[(2, 7, 2), float16] {
    %0 = cast(%p0, dtype="float16") /* ty=Tensor[(2, 7, 2), float16] span=from_string:5:19 */;
    multiply(%0, %0) /* ty=Tensor[(2, 7, 2), float16] span=from_string:4:5 */
  } /* ty=fn (Tensor[(2, 7, 2), float32]) -> Tensor[(2, 7, 2), float16] span=from_string:7:101 */;
  let %x12: Tensor[(2, 7, 2), float16] /* ty=Tensor[(2, 7, 2), float16] span=from_string:122:10 */ = %1(%x1) /* ty=Tensor[(2, 7, 2), float16] span=from_string:7:101 */;
  %2 = cast(%x12, dtype="float32") /* ty=Tensor[(2, 7, 2), float32] span=from_string:12:104 */;
  %3 = fn (%p01: Tensor[(2, 7, 2), float32] /* ty=Tensor[(2, 7, 2), float32] */, Primitive=1) -> Tensor[(2, 7, 2), float16] {
    ones(shape=[2, 7, 2], dtype="float16") /* ty=Tensor[(2, 7, 2), float16] span=from_string:10:5 */
  } /* ty=fn (Tensor[(2, 7, 2), float32]) -> Tensor[(2, 7, 2), float16] span=from_string:12:101 */;
  let %x13: Tensor[(2, 7, 2), float16] /* ty=Tensor[(2, 7, 2), float16] span=from_string:17:14 */ = %3(%2) /* ty=Tensor[(2, 7, 2), float16] span=from_string:12:101 */;
  %5 = fn (%p02: Tensor[(4, 7), float32] /* ty=Tensor[(4, 7), float32] span=from_string:14:15 */, Primitive=1, relay.reshape_only=1) -> Tensor[(4, 7), float16] {
    %4 = cast(%p02, dtype="float16") /* ty=Tensor[(4, 7), float16] span=from_string:15:13 */;
    reshape(%4, newshape=[4, 7]) /* ty=Tensor[(4, 7), float16] span=from_string:14:5 */
  } /* ty=fn (Tensor[(4, 7), float32]) -> Tensor[(4, 7), float16] span=from_string:121:9 */;
  %11 = cast(%x13, dtype="float32") /* ty=Tensor[(2, 7, 2), float32] span=from_string:40:13 */;
  %12 = fn (%p06: Tensor[(2, 7, 2), float32] /* ty=Tensor[(2, 7, 2), float32] span=from_string:19:15 */, %p13: Tensor[(2, 7, 2), float32] /* ty=Tensor[(2, 7, 2), float32] span=from_string:20:16 */, Primitive=1) -> Tensor[(2, 7, 2), float16] {
    %9 = cast(%p06, dtype="float16") /* ty=Tensor[(2, 7, 2), float16] span=from_string:21:15 */;
    %10 = cast(%p13, dtype="float16") /* ty=Tensor[(2, 7, 2), float16] span=from_string:21:19 */;
    multiply(%9, %10) /* ty=Tensor[(2, 7, 2), float16] span=from_string:19:5 */
  } /* ty=fn (Tensor[(2, 7, 2), float32], Tensor[(2, 7, 2), float32]) -> Tensor[(2, 7, 2), float16] span=from_string:23:9 */;
  %13 = %12(%11, %x1) /* ty=Tensor[(2, 7, 2), float16] span=from_string:24:14 */;
  %14 = cast(%13, dtype="float32") /* ty=Tensor[(2, 7, 2), float32] span=from_string:126:13 */;
  %15 = fn (%p05: Tensor[(2, 7, 2), float32] /* ty=Tensor[(2, 7, 2), float32] span=from_string:26:15 */, %p12: Tensor[(2, 7, 2), float32] /* ty=Tensor[(2, 7, 2), float32] */, Primitive=1) -> Tensor[(2, 7, 2), float16] {
    %8 = cast(%p05, dtype="float16") /* ty=Tensor[(2, 7, 2), float16] span=from_string:27:21 */;
    collapse_sum_to(%8, meta[relay.Constant][0] /* ty=Tensor[(3), int32] span=from_string:27:30 */, meta[relay.attrs.InitOpAttrs][0]) /* ty=Tensor[(2, 7, 2), float16] span=from_string:26:5 */
  } /* ty=fn (Tensor[(2, 7, 2), float32], Tensor[(2, 7, 2), float32]) -> Tensor[(2, 7, 2), float16] span=from_string:29:9 */;
  %16 = %15(%14, %x1) /* ty=Tensor[(2, 7, 2), float16] span=from_string:30:14 */;
  %17 = cast(%16, dtype="float32") /* ty=Tensor[(2, 7, 2), float32] span=from_string:123:13 */;
  %18 = fn (%p04: Tensor[(2, 7, 2), float32] /* ty=Tensor[(2, 7, 2), float32] */, %p11: Tensor[(2, 7, 2), float32] /* ty=Tensor[(2, 7, 2), float32] span=from_string:32:5 */, Primitive=1) -> Tensor[(2, 7, 2), float32] {
    %p11
  } /* ty=fn (Tensor[(2, 7, 2), float32], Tensor[(2, 7, 2), float32]) -> Tensor[(2, 7, 2), float32] span=from_string:41:9 */;
  %22 = fn (%p07: Tensor[(2, 7, 2), float32] /* ty=Tensor[(2, 7, 2), float32] span=from_string:35:16 */, %p14: Tensor[(2, 7, 2), float32] /* ty=Tensor[(2, 7, 2), float32] span=from_string:36:16 */, Primitive=1) -> Tensor[(2, 7, 2), float16] {
    %19 = cast(%p07, dtype="float16") /* ty=Tensor[(2, 7, 2), float16] span=from_string:37:21 */;
    %20 = cast(%p14, dtype="float16") /* ty=Tensor[(2, 7, 2), float16] span=from_string:37:26 */;
    %21 = multiply(%19, %20) /* ty=Tensor[(2, 7, 2), float16] span=from_string:38:21 */;
    collapse_sum_to(%21, meta[relay.Constant][1] /* ty=Tensor[(3), int32] span=from_string:38:31 */, meta[relay.attrs.InitOpAttrs][1]) /* ty=Tensor[(2, 7, 2), float16] span=from_string:35:5 */
  } /* ty=fn (Tensor[(2, 7, 2), float32], Tensor[(2, 7, 2), float32]) -> Tensor[(2, 7, 2), float16] span=from_string:40:9 */;
  %23 = %22(%11, %x1) /* ty=Tensor[(2, 7, 2), float16] span=from_string:42:14 */;
  %24 = %18(%x1, %17) /* ty=Tensor[(2, 7, 2), float32] span=from_string:62:13 */;
  %25 = cast(%23, dtype="float32") /* ty=Tensor[(2, 7, 2), float32] span=from_string:48:18 */;
  %26 = fn (%p03: Tensor[(2, 7, 2), float32] /* ty=Tensor[(2, 7, 2), float32] span=from_string:44:15 */, %p1: Tensor[(2, 7, 2), float32] /* ty=Tensor[(2, 7, 2), float32] span=from_string:45:15 */, Primitive=1) -> Tensor[(2, 7, 2), float16] {
    %6 = cast(%p03, dtype="float16") /* ty=Tensor[(2, 7, 2), float16] span=from_string:46:9 */;
    %7 = cast(%p1, dtype="float16") /* ty=Tensor[(2, 7, 2), float16] span=from_string:46:13 */;
    add(%6, %7) /* ty=Tensor[(2, 7, 2), float16] span=from_string:44:5 */
  } /* ty=fn (Tensor[(2, 7, 2), float32], Tensor[(2, 7, 2), float32]) -> Tensor[(2, 7, 2), float16] span=from_string:48:9 */;
  %27 = %26(%24, %25) /* ty=Tensor[(2, 7, 2), float16] span=from_string:49:10 */;
  %28 = (%27,) /* ty=(Tensor[(2, 7, 2), float16],) span=from_string:122:16 */;
  %30 = fn (%p08: Tensor[(2, 7, 2), float32] /* ty=Tensor[(2, 7, 2), float32] span=from_string:51:16 */, Primitive=1, relay.reshape_only=1) -> Tensor[(2, 7, 2), float16] {
    %29 = cast(%p08, dtype="float16") /* ty=Tensor[(2, 7, 2), float16] span=from_string:52:13 */;
    reshape(%29, newshape=[2, 7, 2]) /* ty=Tensor[(2, 7, 2), float16] span=from_string:51:5 */
  } /* ty=fn (Tensor[(2, 7, 2), float32]) -> Tensor[(2, 7, 2), float16] span=from_string:123:9 */;
  %31 = fn (%p09: Tensor[(2), int32] /* ty=Tensor[(2), int32] span=from_string:55:13 */, %p15: int32 /* ty=int32 span=from_string:55:19 */, %p2: int32 /* ty=int32 span=from_string:55:25 */, Primitive=1) -> Tensor[(6, 2), float32] {
    one_hot(%p09, %p15, %p2, depth=6, axis=0, dtype="float32") /* ty=Tensor[(6, 2), float32] span=from_string:55:5 */
  } /* ty=fn (Tensor[(2), int32], int32, int32) -> Tensor[(6, 2), float32] span=from_string:124:9 */;
  %35 = fn (%p011: Tensor[(2, 7, 2), float32] /* ty=Tensor[(2, 7, 2), float32] span=from_string:58:16 */, Primitive=1) -> Tensor[(2, 7, 2), float16] {
    %33 = cast(%p011, dtype="float16") /* ty=Tensor[(2, 7, 2), float16] span=from_string:60:9 */;
    %34 = cast(1f /* ty=float32 span=from_string:59:18 */, dtype="float16") /* ty=float16 span=from_string:60:14 */;
    add(%33, %34) /* ty=Tensor[(2, 7, 2), float16] span=from_string:58:5 */
  } /* ty=fn (Tensor[(2, 7, 2), float32]) -> Tensor[(2, 7, 2), float16] span=from_string:62:9 */;
  %36 = %35(%24) /* ty=Tensor[(2, 7, 2), float16] span=from_string:63:14 */;
  %37 = cast(%36, dtype="float32") /* ty=Tensor[(2, 7, 2), float32] span=from_string:125:13 */;
  %38 = fn (%p010: Tensor[(2, 7, 2), float32] /* ty=Tensor[(2, 7, 2), float32] span=from_string:65:15 */, Primitive=1) -> Tensor[(2, 7, 2), float32] {
    %32 = exp(%p010) /* ty=Tensor[(2, 7, 2), float32] span=from_string:66:20 */;
    multiply(%32, %32) /* ty=Tensor[(2, 7, 2), float32] span=from_string:65:5 */
  } /* ty=fn (Tensor[(2, 7, 2), float32]) -> Tensor[(2, 7, 2), float32] span=from_string:125:9 */;
  %43 = fn (%p012: Tensor[(2, 7, 2), float32] /* ty=Tensor[(2, 7, 2), float32] span=from_string:69:16 */, Primitive=1) -> Tensor[(2, 7, 2), float32] {
    %39 = cast(%p012, dtype="float16") /* ty=Tensor[(2, 7, 2), float16] span=from_string:71:15 */;
    %40 = add(%39, %34) /* ty=Tensor[(2, 7, 2), float16] span=from_string:72:16 */;
    %41 = cast(%40, dtype="float32") /* ty=Tensor[(2, 7, 2), float32] span=from_string:73:15 */;
    %42 = exp(%41) /* ty=Tensor[(2, 7, 2), float32] span=from_string:74:13 */;
    squeeze(%42) /* ty=Tensor[(2, 7, 2), float32] span=from_string:69:5 */
  } /* ty=fn (Tensor[(2, 7, 2), float32]) -> Tensor[(2, 7, 2), float32] span=from_string:126:9 */;
  %48 = fn (%p014: Tensor[(2, 7, 2), float32] /* ty=Tensor[(2, 7, 2), float32] span=from_string:77:12 */, %p16: Tensor[(74, 7, 2), float32] /* ty=Tensor[(74, 7, 2), float32] span=from_string:77:19 */, Primitive=1) -> Tensor[(76, 7, 2), float32] {
    %47 = (%p014, %p16) /* ty=(Tensor[(2, 7, 2), float32], Tensor[(74, 7, 2), float32]) span=from_string:78:17 */;
    concatenate(%47) /* ty=Tensor[(76, 7, 2), float32] span=from_string:77:5 */
  } /* ty=fn (Tensor[(2, 7, 2), float32], Tensor[(74, 7, 2), float32]) -> Tensor[(76, 7, 2), float32] span=from_string:80:9 */;
  %49 = %48(%37, %x5) /* ty=Tensor[(76, 7, 2), float32] span=from_string:127:13 */;
  %50 = fn (%p013: Tensor[(76, 7, 2), float32] /* ty=Tensor[(76, 7, 2), float32] span=from_string:82:12 */, Primitive=1) -> Tensor[(76, 7, 2), float32] {
    %44 = (%p013,) /* ty=(Tensor[(76, 7, 2), float32],) span=from_string:83:23 */;
    %45 = concatenate(%44) /* ty=Tensor[(76, 7, 2), float32] span=from_string:84:17 */;
    %46 = rsqrt(%45) /* ty=Tensor[(76, 7, 2), float32] span=from_string:85:59 */;
    multiply(2f /* ty=float32 span=from_string:85:17 */, %46) /* ty=Tensor[(76, 7, 2), float32] span=from_string:82:5 */
  } /* ty=fn (Tensor[(76, 7, 2), float32]) -> Tensor[(76, 7, 2), float32] span=from_string:127:9 */;
  %59 = fn (%p016: Tensor[(14, 2), float32] /* ty=Tensor[(14, 2), float32] span=from_string:88:16 */, %p17: Tensor[(16, 2), float32] /* ty=Tensor[(16, 2), float32] span=from_string:89:16 */, %p21: Tensor[(16), float32] /* ty=Tensor[(16), float32] span=from_string:90:16 */, %p3: Tensor[(1), float32] /* ty=Tensor[(1), float32] span=from_string:94:16 */, Primitive=1) -> Tensor[(14, 16), float16] {
    %52 = cast(%p016, dtype="float16") /* ty=Tensor[(14, 2), float16] span=from_string:91:20 */;
    %53 = cast(%p17, dtype="float16") /* ty=Tensor[(16, 2), float16] span=from_string:91:25 */;
    %54 = cast(%p21, dtype="float16") /* ty=Tensor[(16), float16] span=from_string:92:23 */;
    %55 = nn.dense(%52, %53, units=None, out_dtype="float16") /* ty=Tensor[(14, 16), float16] span=from_string:93:15 */;
    %56 = expand_dims(%54, axis=0) /* ty=Tensor[(1, 16), float16] span=from_string:93:20 */;
    %57 = add(%55, %56) /* ty=Tensor[(14, 16), float16] span=from_string:95:15 */;
    %58 = cast(%p3, dtype="float16") /* ty=Tensor[(1), float16] span=from_string:95:20 */;
    multiply(%57, %58) /* ty=Tensor[(14, 16), float16] span=from_string:88:5 */
  } /* ty=fn (Tensor[(14, 2), float32], Tensor[(16, 2), float32], Tensor[(16), float32], Tensor[(1), float32]) -> Tensor[(14, 16), float16] span=from_string:97:9 */;
  %60 = %59(%x2, %x6, %x7, %x8) /* ty=Tensor[(14, 16), float16] span=from_string:98:14 */;
  %61 = cast(%60, dtype="float32") /* ty=Tensor[(14, 16), float32] span=from_string:119:13 */;
  %62 = fn (%p015: Tensor[(14, 16), float32] /* ty=Tensor[(14, 16), float32] span=from_string:100:16 */, Primitive=1, relay.reshape_only=1) -> Tensor[(1, 1, 224), float16] {
    %51 = cast(%p015, dtype="float16") /* ty=Tensor[(14, 16), float16] span=from_string:101:13 */;
    reshape(%51, newshape=[1, 1, 224]) /* ty=Tensor[(1, 1, 224), float16] span=from_string:100:5 */
  } /* ty=fn (Tensor[(14, 16), float32]) -> Tensor[(1, 1, 224), float16] span=from_string:119:9 */;
  %71 = fn (%p018: Tensor[(14, 2), float32] /* ty=Tensor[(14, 2), float32] span=from_string:104:16 */, %p18: Tensor[(32, 2), float32] /* ty=Tensor[(32, 2), float32] span=from_string:105:16 */, %p22: Tensor[(32), float32] /* ty=Tensor[(32), float32] span=from_string:106:16 */, %p31: Tensor[(1), float32] /* ty=Tensor[(1), float32] span=from_string:110:16 */, Primitive=1) -> Tensor[(14, 32), float16] {
    %64 = cast(%p018, dtype="float16") /* ty=Tensor[(14, 2), float16] span=from_string:107:20 */;
    %65 = cast(%p18, dtype="float16") /* ty=Tensor[(32, 2), float16] span=from_string:107:25 */;
    %66 = cast(%p22, dtype="float16") /* ty=Tensor[(32), float16] span=from_string:108:23 */;
    %67 = nn.dense(%64, %65, units=None, out_dtype="float16") /* ty=Tensor[(14, 32), float16] span=from_string:109:15 */;
    %68 = expand_dims(%66, axis=0) /* ty=Tensor[(1, 32), float16] span=from_string:109:20 */;
    %69 = add(%67, %68) /* ty=Tensor[(14, 32), float16] span=from_string:111:15 */;
    %70 = cast(%p31, dtype="float16") /* ty=Tensor[(1), float16] span=from_string:111:20 */;
    multiply(%69, %70) /* ty=Tensor[(14, 32), float16] span=from_string:104:5 */
  } /* ty=fn (Tensor[(14, 2), float32], Tensor[(32, 2), float32], Tensor[(32), float32], Tensor[(1), float32]) -> Tensor[(14, 32), float16] span=from_string:113:9 */;
  %72 = %71(%x2, %x9, %x10, %x11) /* ty=Tensor[(14, 32), float16] span=from_string:114:14 */;
  %73 = cast(%72, dtype="float32") /* ty=Tensor[(14, 32), float32] span=from_string:120:13 */;
  %74 = fn (%p017: Tensor[(14, 32), float32] /* ty=Tensor[(14, 32), float32] span=from_string:116:16 */, Primitive=1, relay.reshape_only=1) -> Tensor[(1, 1, 448), float16] {
    %63 = cast(%p017, dtype="float16") /* ty=Tensor[(14, 32), float16] span=from_string:117:13 */;
    reshape(%63, newshape=[1, 1, 448]) /* ty=Tensor[(1, 1, 448), float16] span=from_string:116:5 */
  } /* ty=fn (Tensor[(14, 32), float32]) -> Tensor[(1, 1, 448), float16] span=from_string:120:9 */;
  %75 = %62(%61) /* ty=Tensor[(1, 1, 224), float16] span=from_string:128:10 */;
  %76 = %74(%73) /* ty=Tensor[(1, 1, 448), float16] span=from_string:128:15 */;
  %77 = %5(%x0) /* ty=Tensor[(4, 7), float16] span=from_string:129:4 */;
  %78 = (%x12, %28) /* ty=(Tensor[(2, 7, 2), float16], (Tensor[(2, 7, 2), float16],)) span=from_string:129:9 */;
  %79 = %30(%17) /* ty=Tensor[(2, 7, 2), float16] span=from_string:129:14 */;
  %80 = %31(meta[relay.Constant][2] /* ty=Tensor[(2), int32] span=from_string:124:18 */, %x3, %x4) /* ty=Tensor[(6, 2), float32] span=from_string:129:19 */;
  %81 = %38(%37) /* ty=Tensor[(2, 7, 2), float32] span=from_string:129:24 */;
  %82 = %43(%14) /* ty=Tensor[(2, 7, 2), float32] span=from_string:129:29 */;
  %83 = %50(%49) /* ty=Tensor[(76, 7, 2), float32] span=from_string:129:34 */;
  %84 = (%75, %76) /* ty=(Tensor[(1, 1, 224), float16], Tensor[(1, 1, 448), float16]) span=from_string:129:39 */;
  (%77, %78, %79, %80, %81, %82, %83, %84) /* ty=(Tensor[(4, 7), float16], (Tensor[(2, 7, 2), float16], (Tensor[(2, 7, 2), float16],)), Tensor[(2, 7, 2), float16], Tensor[(6, 2), float32], Tensor[(2, 7, 2), float32], Tensor[(2, 7, 2), float32], Tensor[(76, 7, 2), float32], (Tensor[(1, 1, 224), float16], Tensor[(1, 1, 448), float16])) span=from_string:129:3 */
}

#[metadata]
{
  "root": 1, 
  "nodes": [
    {
      "type_key": ""
    }, 
    {
      "type_key": "Map", 
      "keys": [
        "relay.attrs.InitOpAttrs", 
        "relay.Constant"
      ], 
      "data": [2, 10]
    }, 
    {
      "type_key": "Array", 
      "data": [3, 8]
    }, 
    {
      "type_key": "relay.attrs.InitOpAttrs", 
      "attrs": {
        "dtype": "float16", 
        "shape": "4"
      }
    }, 
    {
      "type_key": "Array", 
      "data": [5, 6, 7]
    }, 
    {
      "type_key": "IntImm", 
      "attrs": {
        "dtype": "int32", 
        "span": "0", 
        "value": "2"
      }
    }, 
    {
      "type_key": "IntImm", 
      "attrs": {
        "dtype": "int32", 
        "span": "0", 
        "value": "7"
      }
    }, 
    {
      "type_key": "IntImm", 
      "attrs": {
        "dtype": "int32", 
        "span": "0", 
        "value": "2"
      }
    }, 
    {
      "type_key": "relay.attrs.InitOpAttrs", 
      "attrs": {
        "dtype": "float16", 
        "shape": "9"
      }
    }, 
    {
      "type_key": "Array", 
      "data": [5, 6, 7]
    }, 
    {
      "type_key": "Array", 
      "data": [11, 19, 24]
    }, 
    {
      "type_key": "relay.Constant", 
      "attrs": {
        "_checked_type_": "16", 
        "data": "0", 
        "span": "14", 
        "virtual_device_": "12"
      }
    }, 
    {
      "type_key": "VirtualDevice", 
      "attrs": {
        "device_type_int": "-1", 
        "memory_scope": "13", 
        "target": "0", 
        "virtual_device_id": "-1"
      }
    }, 
    {
      "type_key": "runtime.String"
    }, 
    {
      "type_key": "Span", 
      "attrs": {
        "column": "30", 
        "end_column": "48", 
        "end_line": "27", 
        "line": "27", 
        "source_name": "15"
      }
    }, 
    {
      "type_key": "SourceName", 
      "repr_str": "from_string"
    }, 
    {
      "type_key": "relay.TensorType", 
      "attrs": {
        "dtype": "int32", 
        "shape": "17", 
        "span": "0"
      }
    }, 
    {
      "type_key": "Array", 
      "data": [18]
    }, 
    {
      "type_key": "IntImm", 
      "attrs": {
        "dtype": "int32", 
        "span": "0", 
        "value": "3"
      }
    }, 
    {
      "type_key": "relay.Constant", 
      "attrs": {
        "_checked_type_": "21", 
        "data": "1", 
        "span": "20", 
        "virtual_device_": "12"
      }
    }, 
    {
      "type_key": "Span", 
      "attrs": {
        "column": "31", 
        "end_column": "49", 
        "end_line": "38", 
        "line": "38", 
        "source_name": "15"
      }
    }, 
    {
      "type_key": "relay.TensorType", 
      "attrs": {
        "dtype": "int32", 
        "shape": "22", 
        "span": "0"
      }
    }, 
    {
      "type_key": "Array", 
      "data": [23]
    }, 
    {
      "type_key": "IntImm", 
      "attrs": {
        "dtype": "int32", 
        "span": "0", 
        "value": "3"
      }
    }, 
    {
      "type_key": "relay.Constant", 
      "attrs": {
        "_checked_type_": "28", 
        "data": "2", 
        "span": "27", 
        "virtual_device_": "25"
      }
    }, 
    {
      "type_key": "VirtualDevice", 
      "attrs": {
        "device_type_int": "-1", 
        "memory_scope": "26", 
        "target": "0", 
        "virtual_device_id": "-1"
      }
    }, 
    {
      "type_key": "runtime.String"
    }, 
    {
      "type_key": "Span", 
      "attrs": {
        "column": "18", 
        "end_column": "36", 
        "end_line": "124", 
        "line": "124", 
        "source_name": "15"
      }
    }, 
    {
      "type_key": "relay.TensorType", 
      "attrs": {
        "dtype": "int32", 
        "shape": "29", 
        "span": "0"
      }
    }, 
    {
      "type_key": "Array", 
      "data": [30]
    }, 
    {
      "type_key": "IntImm", 
      "attrs": {
        "dtype": "int32", 
        "span": "0", 
        "value": "2"
      }
    }
  ], 
  "b64ndarrays": [
    "P6G0lvBAXt0AAAAAAAAAAAEAAAAAAAAAAQAAAAAgAQADAAAAAAAAAAwAAAAAAAAAAgAAAAcAAAACAAAA", 
    "P6G0lvBAXt0AAAAAAAAAAAEAAAAAAAAAAQAAAAAgAQADAAAAAAAAAAwAAAAAAAAAAgAAAAcAAAACAAAA", 
    "P6G0lvBAXt0AAAAAAAAAAAEAAAAAAAAAAQAAAAAgAQACAAAAAAAAAAgAAAAAAAAABAAAAAcAAAA="
  ], 
  "attrs": {"tvm_version": "0.13.0"}
}