#[version = "0.0.5"]
def @main(%x0: Tensor[(4, 7), float32] /* ty=Tensor[(4, 7), float32] span=from_string:24:19 */, %x1: Tensor[(2, 7, 2), float32] /* ty=Tensor[(2, 7, 2), float32] span=from_string:55:21 */, %x2: Tensor[(14, 2), float32] /* ty=Tensor[(14, 2), float32] span=from_string:144:21 */, %x3: int32 /* ty=int32 span=from_string:78:28 */, %x4: int32 /* ty=int32 span=from_string:78:33 */, %x5: Tensor[(74, 7, 2), float32] /* ty=Tensor[(74, 7, 2), float32] span=from_string:115:28 */, %x6: Tensor[(16, 2), float32] /* ty=Tensor[(16, 2), float32] span=from_string:125:26 */, %x7: Tensor[(16), float32] /* ty=Tensor[(16), float32] span=from_string:125:31 */, %x8: Tensor[(1), float32] /* ty=Tensor[(1), float32] span=from_string:125:36 */, %x9: Tensor[(32, 2), float32] /* ty=Tensor[(32, 2), float32] span=from_string:144:26 */, %x10: Tensor[(32), float32] /* ty=Tensor[(32), float32] span=from_string:144:31 */, %x11: Tensor[(1), float32] /* ty=Tensor[(1), float32] span=from_string:144:37 */) -> (Tensor[(4, 7), float16], (Tensor[(2, 7, 2), float16], (Tensor[(2, 7, 2), float16],)), Tensor[(2, 7, 2), float16], Tensor[(6, 2), float32], Tensor[(2, 7, 2), float16], Tensor[(2, 7, 2), float16], Tensor[(76, 7, 2), float32], (Tensor[(1, 1, 224), float16], Tensor[(1, 1, 448), float16])) {
  let %x_0: fn (Tensor[(2, 7, 2), float32]) -> Tensor[(2, 7, 2), float16] /* ty=fn (Tensor[(2, 7, 2), float32]) -> Tensor[(2, 7, 2), float16] span=from_string:7:102 */ = fn (%p0: Tensor[(2, 7, 2), float32] /* ty=Tensor[(2, 7, 2), float32] span=from_string:4:15 */, Primitive=1) -> Tensor[(2, 7, 2), float16] {
    %0 = cast(%p0, dtype="float16") /* ty=Tensor[(2, 7, 2), float16] span=from_string:5:19 */;
    multiply(%0, %0) /* ty=Tensor[(2, 7, 2), float16] span=from_string:4:5 */
  } /* ty=fn (Tensor[(2, 7, 2), float32]) -> Tensor[(2, 7, 2), float16] span=from_string:3:3 */;
  let %x12: Tensor[(2, 7, 2), float16] /* ty=Tensor[(2, 7, 2), float16] span=from_string:67:16 */ = %x_0(%x1) /* ty=Tensor[(2, 7, 2), float16] span=from_string:7:102 */;
  let %x_1: fn (Tensor[(2, 7, 2), float16]) -> Tensor[(2, 7, 2), float32] /* ty=fn (Tensor[(2, 7, 2), float16]) -> Tensor[(2, 7, 2), float32] span=from_string:11:14 */ = fn (%p02: Tensor[(2, 7, 2), float16] /* ty=Tensor[(2, 7, 2), float16] span=from_string:9:10 */, Primitive=1) -> Tensor[(2, 7, 2), float32] {
    cast(%p02, dtype="float32") /* ty=Tensor[(2, 7, 2), float32] span=from_string:9:5 */
  } /* ty=fn (Tensor[(2, 7, 2), float16]) -> Tensor[(2, 7, 2), float32] span=from_string:8:3 */;
  let %x_2: Tensor[(2, 7, 2), float32] /* ty=Tensor[(2, 7, 2), float32] span=from_string:16:106 */ = %x_1(%x12) /* ty=Tensor[(2, 7, 2), float32] span=from_string:11:14 */;
  let %x_3: fn (Tensor[(2, 7, 2), float32]) -> Tensor[(2, 7, 2), float16] /* ty=fn (Tensor[(2, 7, 2), float32]) -> Tensor[(2, 7, 2), float16] span=from_string:16:101 */ = fn (%p01: Tensor[(2, 7, 2), float32] /* ty=Tensor[(2, 7, 2), float32] span=from_string:13:15 */, Primitive=1) -> Tensor[(2, 7, 2), float16] {
    %1 = cast(%p01, dtype="float16") /* ty=Tensor[(2, 7, 2), float16] span=from_string:14:15 */;
    ones_like(%1) /* ty=Tensor[(2, 7, 2), float16] span=from_string:13:5 */
  } /* ty=fn (Tensor[(2, 7, 2), float32]) -> Tensor[(2, 7, 2), float16] span=from_string:12:3 */;
  let %x13: Tensor[(2, 7, 2), float16] /* ty=Tensor[(2, 7, 2), float16] span=from_string:28:19 */ = %x_3(%x_2) /* ty=Tensor[(2, 7, 2), float16] span=from_string:16:101 */;
  let %x_4: fn (Tensor[(4, 7), float32]) -> Tensor[(4, 7), float16] /* ty=fn (Tensor[(4, 7), float32]) -> Tensor[(4, 7), float16] span=from_string:24:14 */ = fn (%p021: Tensor[(4, 7), float32] /* ty=Tensor[(4, 7), float32] span=from_string:18:15 */, Primitive=1, relay.reshape_only=1) -> Tensor[(4, 7), float16] {
    %2 = cast(%p021, dtype="float16") /* ty=Tensor[(4, 7), float16] span=from_string:19:18 */;
    %3 = reshape(%2, newshape=[2, 7, 2]) /* ty=Tensor[(2, 7, 2), float16] span=from_string:20:18 */;
    %4 = reshape(%3, newshape=[4, 7]) /* ty=Tensor[(4, 7), float16] span=from_string:21:18 */;
    %5 = reshape(%4, newshape=[2, 7, 2]) /* ty=Tensor[(2, 7, 2), float16] span=from_string:22:13 */;
    reshape(%5, newshape=[4, 7]) /* ty=Tensor[(4, 7), float16] span=from_string:18:5 */
  } /* ty=fn (Tensor[(4, 7), float32]) -> Tensor[(4, 7), float16] span=from_string:17:3 */;
  let %x_5: Tensor[(4, 7), float16] /* ty=Tensor[(4, 7), float16] span=from_string:155:16 */ = %x_4(%x0) /* ty=Tensor[(4, 7), float16] span=from_string:24:14 */;
  let %x_6: fn (Tensor[(2, 7, 2), float16]) -> Tensor[(2, 7, 2), float32] /* ty=fn (Tensor[(2, 7, 2), float16]) -> Tensor[(2, 7, 2), float32] span=from_string:28:14 */ = fn (%p07: Tensor[(2, 7, 2), float16] /* ty=Tensor[(2, 7, 2), float16] span=from_string:26:10 */, Primitive=1) -> Tensor[(2, 7, 2), float32] {
    cast(%p07, dtype="float32") /* ty=Tensor[(2, 7, 2), float32] span=from_string:26:5 */
  } /* ty=fn (Tensor[(2, 7, 2), float16]) -> Tensor[(2, 7, 2), float32] span=from_string:25:3 */;
  let %x_7: Tensor[(2, 7, 2), float32] /* ty=Tensor[(2, 7, 2), float32] span=from_string:34:19 */ = %x_6(%x13) /* ty=Tensor[(2, 7, 2), float32] span=from_string:28:14 */;
  let %x_8: fn (Tensor[(2, 7, 2), float32], Tensor[(2, 7, 2), float32]) -> Tensor[(2, 7, 2), float16] /* ty=fn (Tensor[(2, 7, 2), float32], Tensor[(2, 7, 2), float32]) -> Tensor[(2, 7, 2), float16] span=from_string:34:14 */ = fn (%p061: Tensor[(2, 7, 2), float32] /* ty=Tensor[(2, 7, 2), float32] span=from_string:30:15 */, %p13: Tensor[(2, 7, 2), float32] /* ty=Tensor[(2, 7, 2), float32] span=from_string:31:15 */, Primitive=1) -> Tensor[(2, 7, 2), float16] {
    %6 = cast(%p061, dtype="float16") /* ty=Tensor[(2, 7, 2), float16] span=from_string:32:15 */;
    %7 = cast(%p13, dtype="float16") /* ty=Tensor[(2, 7, 2), float16] span=from_string:32:19 */;
    multiply(%6, %7) /* ty=Tensor[(2, 7, 2), float16] span=from_string:30:5 */
  } /* ty=fn (Tensor[(2, 7, 2), float32], Tensor[(2, 7, 2), float32]) -> Tensor[(2, 7, 2), float16] span=from_string:29:3 */;
  let %x_9: Tensor[(2, 7, 2), float16] /* ty=Tensor[(2, 7, 2), float16] span=from_string:38:21 */ = %x_8(%x_7, %x1) /* ty=Tensor[(2, 7, 2), float16] span=from_string:34:14 */;
  let %x_10: fn (Tensor[(2, 7, 2), float16]) -> Tensor[(2, 7, 2), float32] /* ty=fn (Tensor[(2, 7, 2), float16]) -> Tensor[(2, 7, 2), float32] span=from_string:38:15 */ = fn (%p06: Tensor[(2, 7, 2), float16] /* ty=Tensor[(2, 7, 2), float16] span=from_string:36:10 */, Primitive=1) -> Tensor[(2, 7, 2), float32] {
    cast(%p06, dtype="float32") /* ty=Tensor[(2, 7, 2), float32] span=from_string:36:5 */
  } /* ty=fn (Tensor[(2, 7, 2), float16]) -> Tensor[(2, 7, 2), float32] span=from_string:35:3 */;
  let %x_11: Tensor[(2, 7, 2), float32] /* ty=Tensor[(2, 7, 2), float32] span=from_string:102:21 */ = %x_10(%x_9) /* ty=Tensor[(2, 7, 2), float32] span=from_string:38:15 */;
  let %x_12: fn (Tensor[(2, 7, 2), float32], Tensor[(2, 7, 2), float32]) -> Tensor[(2, 7, 2), float16] /* ty=fn (Tensor[(2, 7, 2), float32], Tensor[(2, 7, 2), float32]) -> Tensor[(2, 7, 2), float16] span=from_string:44:15 */ = fn (%p051: Tensor[(2, 7, 2), float32] /* ty=Tensor[(2, 7, 2), float32] span=from_string:40:15 */, %p12: Tensor[(2, 7, 2), float32] /* ty=Tensor[(2, 7, 2), float32] span=from_string:41:15 */, Primitive=1) -> Tensor[(2, 7, 2), float16] {
    %8 = cast(%p051, dtype="float16") /* ty=Tensor[(2, 7, 2), float16] span=from_string:42:23 */;
    %9 = cast(%p12, dtype="float16") /* ty=Tensor[(2, 7, 2), float16] span=from_string:42:27 */;
    collapse_sum_like(%8, %9) /* ty=Tensor[(2, 7, 2), float16] span=from_string:40:5 */
  } /* ty=fn (Tensor[(2, 7, 2), float32], Tensor[(2, 7, 2), float32]) -> Tensor[(2, 7, 2), float16] span=from_string:39:3 */;
  let %x_13: Tensor[(2, 7, 2), float16] /* ty=Tensor[(2, 7, 2), float16] span=from_string:48:21 */ = %x_12(%x_11, %x1) /* ty=Tensor[(2, 7, 2), float16] span=from_string:44:15 */;
  let %x_14: fn (Tensor[(2, 7, 2), float16]) -> Tensor[(2, 7, 2), float32] /* ty=fn (Tensor[(2, 7, 2), float16]) -> Tensor[(2, 7, 2), float32] span=from_string:48:15 */ = fn (%p05: Tensor[(2, 7, 2), float16] /* ty=Tensor[(2, 7, 2), float16] span=from_string:46:10 */, Primitive=1) -> Tensor[(2, 7, 2), float32] {
    cast(%p05, dtype="float32") /* ty=Tensor[(2, 7, 2), float32] span=from_string:46:5 */
  } /* ty=fn (Tensor[(2, 7, 2), float16]) -> Tensor[(2, 7, 2), float32] span=from_string:45:3 */;
  let %x_15: Tensor[(2, 7, 2), float32] /* ty=Tensor[(2, 7, 2), float32] span=from_string:73:21 */ = %x_14(%x_13) /* ty=Tensor[(2, 7, 2), float32] span=from_string:48:15 */;
  let %x_16: fn (Tensor[(2, 7, 2), float32], Tensor[(2, 7, 2), float32]) -> Tensor[(2, 7, 2), float16] /* ty=fn (Tensor[(2, 7, 2), float32], Tensor[(2, 7, 2), float32]) -> Tensor[(2, 7, 2), float16] span=from_string:55:15 */ = fn (%p041: Tensor[(2, 7, 2), float32] /* ty=Tensor[(2, 7, 2), float32] span=from_string:50:16 */, %p11: Tensor[(2, 7, 2), float32] /* ty=Tensor[(2, 7, 2), float32] span=from_string:52:16 */, Primitive=1) -> Tensor[(2, 7, 2), float16] {
    %10 = cast(%p041, dtype="float16") /* ty=Tensor[(2, 7, 2), float16] span=from_string:51:22 */;
    %11 = zeros_like(%10) /* ty=Tensor[(2, 7, 2), float16] span=from_string:53:9 */;
    %12 = cast(%p11, dtype="float16") /* ty=Tensor[(2, 7, 2), float16] span=from_string:53:14 */;
    add(%11, %12) /* ty=Tensor[(2, 7, 2), float16] span=from_string:50:5 */
  } /* ty=fn (Tensor[(2, 7, 2), float32], Tensor[(2, 7, 2), float32]) -> Tensor[(2, 7, 2), float16] span=from_string:49:3 */;
  let %x_17: Tensor[(2, 7, 2), float16] /* ty=Tensor[(2, 7, 2), float16] span=from_string:59:21 */ = %x_16(%x1, %x_15) /* ty=Tensor[(2, 7, 2), float16] span=from_string:55:15 */;
  let %x_18: fn (Tensor[(2, 7, 2), float16]) -> Tensor[(2, 7, 2), float32] /* ty=fn (Tensor[(2, 7, 2), float16]) -> Tensor[(2, 7, 2), float32] span=from_string:59:15 */ = fn (%p04: Tensor[(2, 7, 2), float16] /* ty=Tensor[(2, 7, 2), float16] span=from_string:57:10 */, Primitive=1) -> Tensor[(2, 7, 2), float32] {
    cast(%p04, dtype="float32") /* ty=Tensor[(2, 7, 2), float32] span=from_string:57:5 */
  } /* ty=fn (Tensor[(2, 7, 2), float16]) -> Tensor[(2, 7, 2), float32] span=from_string:56:3 */;
  let %x_19: Tensor[(2, 7, 2), float32] /* ty=Tensor[(2, 7, 2), float32] span=from_string:84:21 */ = %x_18(%x_17) /* ty=Tensor[(2, 7, 2), float32] span=from_string:59:15 */;
  let %x_20: fn (Tensor[(2, 7, 2), float32], Tensor[(2, 7, 2), float32]) -> Tensor[(2, 7, 2), float16] /* ty=fn (Tensor[(2, 7, 2), float32], Tensor[(2, 7, 2), float32]) -> Tensor[(2, 7, 2), float16] span=from_string:65:15 */ = fn (%p03: Tensor[(2, 7, 2), float32] /* ty=Tensor[(2, 7, 2), float32] span=from_string:61:16 */, %p1: Tensor[(2, 7, 2), float32] /* ty=Tensor[(2, 7, 2), float32] span=from_string:62:16 */, Primitive=1) -> Tensor[(2, 7, 2), float16] {
    %13 = cast(%p03, dtype="float16") /* ty=Tensor[(2, 7, 2), float16] span=from_string:63:9 */;
    %14 = cast(%p1, dtype="float16") /* ty=Tensor[(2, 7, 2), float16] span=from_string:63:14 */;
    add(%13, %14) /* ty=Tensor[(2, 7, 2), float16] span=from_string:61:5 */
  } /* ty=fn (Tensor[(2, 7, 2), float32], Tensor[(2, 7, 2), float32]) -> Tensor[(2, 7, 2), float16] span=from_string:60:3 */;
  let %x_21: Tensor[(2, 7, 2), float16] /* ty=Tensor[(2, 7, 2), float16] span=from_string:66:16 */ = %x_20(%x_19, %x_15) /* ty=Tensor[(2, 7, 2), float16] span=from_string:65:15 */;
  let %x_22: (Tensor[(2, 7, 2), float16],) /* ty=(Tensor[(2, 7, 2), float16],) span=from_string:67:22 */ = (%x_21,) /* ty=(Tensor[(2, 7, 2), float16],) span=from_string:66:15 */;
  let %x_23: (Tensor[(2, 7, 2), float16], (Tensor[(2, 7, 2), float16],)) /* ty=(Tensor[(2, 7, 2), float16], (Tensor[(2, 7, 2), float16],)) span=from_string:155:22 */ = (%x12, %x_22) /* ty=(Tensor[(2, 7, 2), float16], (Tensor[(2, 7, 2), float16],)) span=from_string:67:15 */;
  let %x_24: fn (Tensor[(2, 7, 2), float32]) -> Tensor[(2, 7, 2), float16] /* ty=fn (Tensor[(2, 7, 2), float32]) -> Tensor[(2, 7, 2), float16] span=from_string:73:15 */ = fn (%p071: Tensor[(2, 7, 2), float32] /* ty=Tensor[(2, 7, 2), float32] span=from_string:69:16 */, Primitive=1, relay.reshape_only=1) -> Tensor[(2, 7, 2), float16] {
    %15 = cast(%p071, dtype="float16") /* ty=Tensor[(2, 7, 2), float16] span=from_string:70:19 */;
    %16 = reshape(%15, newshape=[14, 2]) /* ty=Tensor[(14, 2), float16] span=from_string:71:13 */;
    reshape(%16, newshape=[2, 7, 2]) /* ty=Tensor[(2, 7, 2), float16] span=from_string:69:5 */
  } /* ty=fn (Tensor[(2, 7, 2), float32]) -> Tensor[(2, 7, 2), float16] span=from_string:68:3 */;
  let %x_25: Tensor[(2, 7, 2), float16] /* ty=Tensor[(2, 7, 2), float16] span=from_string:155:29 */ = %x_24(%x_15) /* ty=Tensor[(2, 7, 2), float16] span=from_string:73:15 */;
  let %x_26: Tensor[(2), int32] /* ty=Tensor[(2), int32] span=from_string:78:21 */ = meta[relay.Constant][0] /* ty=Tensor[(2), int32] span=from_string:74:20 */;
  let %x_27: fn (Tensor[(2), int32], int32, int32) -> Tensor[(6, 2), float32] /* ty=fn (Tensor[(2), int32], int32, int32) -> Tensor[(6, 2), float32] span=from_string:78:15 */ = fn (%p08: Tensor[(2), int32] /* ty=Tensor[(2), int32] span=from_string:76:13 */, %p14: int32 /* ty=int32 span=from_string:76:19 */, %p2: int32 /* ty=int32 span=from_string:76:25 */, Primitive=1) -> Tensor[(6, 2), float32] {
    one_hot(%p08, %p14, %p2, depth=6, axis=0, dtype="float32") /* ty=Tensor[(6, 2), float32] span=from_string:76:5 */
  } /* ty=fn (Tensor[(2), int32], int32, int32) -> Tensor[(6, 2), float32] span=from_string:75:3 */;
  let %x_28: Tensor[(6, 2), float32] /* ty=Tensor[(6, 2), float32] span=from_string:155:36 */ = %x_27(%x_26, %x3, %x4) /* ty=Tensor[(6, 2), float32] span=from_string:78:15 */;
  let %x_29: fn (Tensor[(2, 7, 2), float32]) -> Tensor[(2, 7, 2), float16] /* ty=fn (Tensor[(2, 7, 2), float32]) -> Tensor[(2, 7, 2), float16] span=from_string:84:15 */ = fn (%p0101: Tensor[(2, 7, 2), float32] /* ty=Tensor[(2, 7, 2), float32] span=from_string:80:16 */, Primitive=1) -> Tensor[(2, 7, 2), float16] {
    %17 = cast(%p0101, dtype="float16") /* ty=Tensor[(2, 7, 2), float16] span=from_string:82:9 */;
    %18 = cast(1f /* ty=float32 span=from_string:81:18 */, dtype="float16") /* ty=float16 span=from_string:82:14 */;
    add(%17, %18) /* ty=Tensor[(2, 7, 2), float16] span=from_string:80:5 */
  } /* ty=fn (Tensor[(2, 7, 2), float32]) -> Tensor[(2, 7, 2), float16] span=from_string:79:3 */;
  let %x_30: Tensor[(2, 7, 2), float16] /* ty=Tensor[(2, 7, 2), float16] span=from_string:88:21 */ = %x_29(%x_19) /* ty=Tensor[(2, 7, 2), float16] span=from_string:84:15 */;
  let %x_31: fn (Tensor[(2, 7, 2), float16]) -> Tensor[(2, 7, 2), float32] /* ty=fn (Tensor[(2, 7, 2), float16]) -> Tensor[(2, 7, 2), float32] span=from_string:88:15 */ = fn (%p010: Tensor[(2, 7, 2), float16] /* ty=Tensor[(2, 7, 2), float16] span=from_string:86:10 */, Primitive=1) -> Tensor[(2, 7, 2), float32] {
    cast(%p010, dtype="float32") /* ty=Tensor[(2, 7, 2), float32] span=from_string:86:5 */
  } /* ty=fn (Tensor[(2, 7, 2), float16]) -> Tensor[(2, 7, 2), float32] span=from_string:85:3 */;
  let %x_32: Tensor[(2, 7, 2), float32] /* ty=Tensor[(2, 7, 2), float32] span=from_string:115:21 */ = %x_31(%x_30) /* ty=Tensor[(2, 7, 2), float32] span=from_string:88:15 */;
  let %x_33: fn (Tensor[(2, 7, 2), float32]) -> Tensor[(2, 7, 2), float16] /* ty=fn (Tensor[(2, 7, 2), float32]) -> Tensor[(2, 7, 2), float16] span=from_string:94:15 */ = fn (%p09: Tensor[(2, 7, 2), float32] /* ty=Tensor[(2, 7, 2), float32] span=from_string:90:16 */, Primitive=1) -> Tensor[(2, 7, 2), float16] {
    %19 = cast(%p09, dtype="float16") /* ty=Tensor[(2, 7, 2), float16] span=from_string:91:20 */;
    %20 = fast_exp(%19) /* ty=Tensor[(2, 7, 2), float16] span=from_string:92:20 */;
    multiply(%20, %20) /* ty=Tensor[(2, 7, 2), float16] span=from_string:90:5 */
  } /* ty=fn (Tensor[(2, 7, 2), float32]) -> Tensor[(2, 7, 2), float16] span=from_string:89:3 */;
  let %x_34: Tensor[(2, 7, 2), float16] /* ty=Tensor[(2, 7, 2), float16] span=from_string:155:43 */ = %x_33(%x_32) /* ty=Tensor[(2, 7, 2), float16] span=from_string:94:15 */;
  let %x_35: fn (Tensor[(2, 7, 2), float32]) -> Tensor[(2, 7, 2), float16] /* ty=fn (Tensor[(2, 7, 2), float32]) -> Tensor[(2, 7, 2), float16] span=from_string:102:15 */ = fn (%p011: Tensor[(2, 7, 2), float32] /* ty=Tensor[(2, 7, 2), float32] span=from_string:96:16 */, Primitive=1) -> Tensor[(2, 7, 2), float16] {
    %21 = cast(%p011, dtype="float16") /* ty=Tensor[(2, 7, 2), float16] span=from_string:98:15 */;
    %22 = cast(1f /* ty=float32 span=from_string:97:18 */, dtype="float16") /* ty=float16 span=from_string:98:20 */;
    %23 = add(%21, %22) /* ty=Tensor[(2, 7, 2), float16] span=from_string:99:20 */;
    %24 = fast_exp(%23) /* ty=Tensor[(2, 7, 2), float16] span=from_string:100:13 */;
    squeeze(%24) /* ty=Tensor[(2, 7, 2), float16] span=from_string:96:5 */
  } /* ty=fn (Tensor[(2, 7, 2), float32]) -> Tensor[(2, 7, 2), float16] span=from_string:95:3 */;
  let %x_36: Tensor[(2, 7, 2), float16] /* ty=Tensor[(2, 7, 2), float16] span=from_string:155:50 */ = %x_35(%x_11) /* ty=Tensor[(2, 7, 2), float16] span=from_string:102:15 */;
  let %x_37: fn (Tensor[(2, 7, 2), float32], Tensor[(74, 7, 2), float32]) -> Tensor[(76, 7, 2), float32] /* ty=fn (Tensor[(2, 7, 2), float32], Tensor[(74, 7, 2), float32]) -> Tensor[(76, 7, 2), float32] span=from_string:115:15 */ = fn (%p012: Tensor[(2, 7, 2), float32] /* ty=Tensor[(2, 7, 2), float32] span=from_string:104:12 */, %p15: Tensor[(74, 7, 2), float32] /* ty=Tensor[(74, 7, 2), float32] span=from_string:104:19 */, Primitive=1) -> Tensor[(76, 7, 2), float32] {
    %25 = (%p012, %p15) /* ty=(Tensor[(2, 7, 2), float32], Tensor[(74, 7, 2), float32]) span=from_string:105:23 */;
    %26 = concatenate(%25) /* ty=Tensor[(76, 7, 2), float32] span=from_string:106:34 */;
    %27 = annotation.stop_fusion(%26) /* ty=Tensor[(76, 7, 2), float32] span=from_string:107:12 */;
    %28 = (%27,) /* ty=(Tensor[(76, 7, 2), float32],) span=from_string:108:23 */;
    %29 = concatenate(%28) /* ty=Tensor[(76, 7, 2), float32] span=from_string:109:34 */;
    %30 = annotation.stop_fusion(%29) /* ty=Tensor[(76, 7, 2), float32] span=from_string:110:12 */;
    %31 = (%30,) /* ty=(Tensor[(76, 7, 2), float32],) span=from_string:111:23 */;
    %32 = concatenate(%31) /* ty=Tensor[(76, 7, 2), float32] span=from_string:112:16 */;
    %33 = sqrt(%32) /* ty=Tensor[(76, 7, 2), float32] span=from_string:113:57 */;
    divide(2f /* ty=float32 span=from_string:113:14 */, %33) /* ty=Tensor[(76, 7, 2), float32] span=from_string:104:5 */
  } /* ty=fn (Tensor[(2, 7, 2), float32], Tensor[(74, 7, 2), float32]) -> Tensor[(76, 7, 2), float32] span=from_string:103:3 */;
  let %x_38: Tensor[(76, 7, 2), float32] /* ty=Tensor[(76, 7, 2), float32] span=from_string:155:57 */ = %x_37(%x_32, %x5) /* ty=Tensor[(76, 7, 2), float32] span=from_string:115:15 */;
  let %x_39: fn (Tensor[(14, 2), float32], Tensor[(16, 2), float32], Tensor[(16), float32], Tensor[(1), float32]) -> Tensor[(14, 16), float16] /* ty=fn (Tensor[(14, 2), float32], Tensor[(16, 2), float32], Tensor[(16), float32], Tensor[(1), float32]) -> Tensor[(14, 16), float16] span=from_string:125:15 */ = fn (%p0141: Tensor[(14, 2), float32] /* ty=Tensor[(14, 2), float32] span=from_string:117:16 */, %p16: Tensor[(16, 2), float32] /* ty=Tensor[(16, 2), float32] span=from_string:118:16 */, %p21: Tensor[(16), float32] /* ty=Tensor[(16), float32] span=from_string:120:16 */, %p3: Tensor[(1), float32] /* ty=Tensor[(1), float32] span=from_string:122:16 */, Primitive=1) -> Tensor[(14, 16), float16] {
    %34 = cast(%p0141, dtype="float16") /* ty=Tensor[(14, 2), float16] span=from_string:119:20 */;
    %35 = cast(%p16, dtype="float16") /* ty=Tensor[(16, 2), float16] span=from_string:119:25 */;
    %36 = cast(%p21, dtype="float16") /* ty=Tensor[(16), float16] span=from_string:121:20 */;
    %37 = nn.dense(%34, %35, units=None, out_dtype="float16") /* ty=Tensor[(14, 16), float16] span=from_string:121:15 */;
    %38 = expand_dims(%36, axis=0) /* ty=Tensor[(1, 16), float16] */;
    %39 = add(%37, %38) /* ty=Tensor[(14, 16), float16] span=from_string:123:15 */;
    %40 = cast(%p3, dtype="float16") /* ty=Tensor[(1), float16] span=from_string:123:20 */;
    multiply(%39, %40) /* ty=Tensor[(14, 16), float16] span=from_string:117:5 */
  } /* ty=fn (Tensor[(14, 2), float32], Tensor[(16, 2), float32], Tensor[(16), float32], Tensor[(1), float32]) -> Tensor[(14, 16), float16] span=from_string:116:3 */;
  let %x_40: Tensor[(14, 16), float16] /* ty=Tensor[(14, 16), float16] span=from_string:129:21 */ = %x_39(%x2, %x6, %x7, %x8) /* ty=Tensor[(14, 16), float16] span=from_string:125:15 */;
  let %x_41: fn (Tensor[(14, 16), float16]) -> Tensor[(14, 16), float32] /* ty=fn (Tensor[(14, 16), float16]) -> Tensor[(14, 16), float32] span=from_string:129:15 */ = fn (%p014: Tensor[(14, 16), float16] /* ty=Tensor[(14, 16), float16] span=from_string:127:10 */, Primitive=1) -> Tensor[(14, 16), float32] {
    cast(%p014, dtype="float32") /* ty=Tensor[(14, 16), float32] span=from_string:127:5 */
  } /* ty=fn (Tensor[(14, 16), float16]) -> Tensor[(14, 16), float32] span=from_string:126:3 */;
  let %x_42: Tensor[(14, 16), float32] /* ty=Tensor[(14, 16), float32] span=from_string:134:21 */ = %x_41(%x_40) /* ty=Tensor[(14, 16), float32] span=from_string:129:15 */;
  let %x_43: fn (Tensor[(14, 16), float32]) -> Tensor[(1, 1, 224), float16] /* ty=fn (Tensor[(14, 16), float32]) -> Tensor[(1, 1, 224), float16] span=from_string:134:15 */ = fn (%p013: Tensor[(14, 16), float32] /* ty=Tensor[(14, 16), float32] span=from_string:131:16 */, Primitive=1, relay.reshape_only=1) -> Tensor[(1, 1, 224), float16] {
    %41 = cast(%p013, dtype="float16") /* ty=Tensor[(14, 16), float16] span=from_string:132:13 */;
    reshape(%41, newshape=[1, 1, 224]) /* ty=Tensor[(1, 1, 224), float16] span=from_string:131:5 */
  } /* ty=fn (Tensor[(14, 16), float32]) -> Tensor[(1, 1, 224), float16] span=from_string:130:3 */;
  let %x_44: Tensor[(1, 1, 224), float16] /* ty=Tensor[(1, 1, 224), float16] span=from_string:154:16 */ = %x_43(%x_42) /* ty=Tensor[(1, 1, 224), float16] span=from_string:134:15 */;
  let %x_45: fn (Tensor[(14, 2), float32], Tensor[(32, 2), float32], Tensor[(32), float32], Tensor[(1), float32]) -> Tensor[(14, 32), float16] /* ty=fn (Tensor[(14, 2), float32], Tensor[(32, 2), float32], Tensor[(32), float32], Tensor[(1), float32]) -> Tensor[(14, 32), float16] span=from_string:144:15 */ = fn (%p0161: Tensor[(14, 2), float32] /* ty=Tensor[(14, 2), float32] span=from_string:136:16 */, %p17: Tensor[(32, 2), float32] /* ty=Tensor[(32, 2), float32] span=from_string:137:16 */, %p22: Tensor[(32), float32] /* ty=Tensor[(32), float32] span=from_string:139:16 */, %p31: Tensor[(1), float32] /* ty=Tensor[(1), float32] span=from_string:141:16 */, Primitive=1) -> Tensor[(14, 32), float16] {
    %42 = cast(%p0161, dtype="float16") /* ty=Tensor[(14, 2), float16] span=from_string:138:20 */;
    %43 = cast(%p17, dtype="float16") /* ty=Tensor[(32, 2), float16] span=from_string:138:25 */;
    %44 = cast(%p22, dtype="float16") /* ty=Tensor[(32), float16] span=from_string:140:20 */;
    %45 = nn.dense(%42, %43, units=None, out_dtype="float16") /* ty=Tensor[(14, 32), float16] span=from_string:140:15 */;
    %46 = expand_dims(%44, axis=0) /* ty=Tensor[(1, 32), float16] */;
    %47 = add(%45, %46) /* ty=Tensor[(14, 32), float16] span=from_string:142:15 */;
    %48 = cast(%p31, dtype="float16") /* ty=Tensor[(1), float16] span=from_string:142:20 */;
    multiply(%47, %48) /* ty=Tensor[(14, 32), float16] span=from_string:136:5 */
  } /* ty=fn (Tensor[(14, 2), float32], Tensor[(32, 2), float32], Tensor[(32), float32], Tensor[(1), float32]) -> Tensor[(14, 32), float16] span=from_string:135:3 */;
  let %x_46: Tensor[(14, 32), float16] /* ty=Tensor[(14, 32), float16] span=from_string:148:21 */ = %x_45(%x2, %x9, %x10, %x11) /* ty=Tensor[(14, 32), float16] span=from_string:144:15 */;
  let %x_47: fn (Tensor[(14, 32), float16]) -> Tensor[(14, 32), float32] /* ty=fn (Tensor[(14, 32), float16]) -> Tensor[(14, 32), float32] span=from_string:148:15 */ = fn (%p016: Tensor[(14, 32), float16] /* ty=Tensor[(14, 32), float16] span=from_string:146:10 */, Primitive=1) -> Tensor[(14, 32), float32] {
    cast(%p016, dtype="float32") /* ty=Tensor[(14, 32), float32] span=from_string:146:5 */
  } /* ty=fn (Tensor[(14, 32), float16]) -> Tensor[(14, 32), float32] span=from_string:145:3 */;
  let %x_48: Tensor[(14, 32), float32] /* ty=Tensor[(14, 32), float32] span=from_string:153:21 */ = %x_47(%x_46) /* ty=Tensor[(14, 32), float32] span=from_string:148:15 */;
  let %x_49: fn (Tensor[(14, 32), float32]) -> Tensor[(1, 1, 448), float16] /* ty=fn (Tensor[(14, 32), float32]) -> Tensor[(1, 1, 448), float16] span=from_string:153:15 */ = fn (%p015: Tensor[(14, 32), float32] /* ty=Tensor[(14, 32), float32] span=from_string:150:16 */, Primitive=1, relay.reshape_only=1) -> Tensor[(1, 1, 448), float16] {
    %49 = cast(%p015, dtype="float16") /* ty=Tensor[(14, 32), float16] span=from_string:151:13 */;
    reshape(%49, newshape=[1, 1, 448]) /* ty=Tensor[(1, 1, 448), float16] span=from_string:150:5 */
  } /* ty=fn (Tensor[(14, 32), float32]) -> Tensor[(1, 1, 448), float16] span=from_string:149:3 */;
  let %x_50: Tensor[(1, 1, 448), float16] /* ty=Tensor[(1, 1, 448), float16] span=from_string:154:23 */ = %x_49(%x_48) /* ty=Tensor[(1, 1, 448), float16] span=from_string:153:15 */;
  let %x_51: (Tensor[(1, 1, 224), float16], Tensor[(1, 1, 448), float16]) /* ty=(Tensor[(1, 1, 224), float16], Tensor[(1, 1, 448), float16]) span=from_string:155:64 */ = (%x_44, %x_50) /* ty=(Tensor[(1, 1, 224), float16], Tensor[(1, 1, 448), float16]) span=from_string:154:15 */;
  let %x_52: (Tensor[(4, 7), float16], (Tensor[(2, 7, 2), float16], (Tensor[(2, 7, 2), float16],)), Tensor[(2, 7, 2), float16], Tensor[(6, 2), float32], Tensor[(2, 7, 2), float16], Tensor[(2, 7, 2), float16], Tensor[(76, 7, 2), float32], (Tensor[(1, 1, 224), float16], Tensor[(1, 1, 448), float16])) /* ty=(Tensor[(4, 7), float16], (Tensor[(2, 7, 2), float16], (Tensor[(2, 7, 2), float16],)), Tensor[(2, 7, 2), float16], Tensor[(6, 2), float32], Tensor[(2, 7, 2), float16], Tensor[(2, 7, 2), float16], Tensor[(76, 7, 2), float32], (Tensor[(1, 1, 224), float16], Tensor[(1, 1, 448), float16])) span=from_string:156:15 */ = (%x_5, %x_23, %x_25, %x_28, %x_34, %x_36, %x_38, %x_51) /* ty=(Tensor[(4, 7), float16], (Tensor[(2, 7, 2), float16], (Tensor[(2, 7, 2), float16],)), Tensor[(2, 7, 2), float16], Tensor[(6, 2), float32], Tensor[(2, 7, 2), float16], Tensor[(2, 7, 2), float16], Tensor[(76, 7, 2), float32], (Tensor[(1, 1, 224), float16], Tensor[(1, 1, 448), float16])) span=from_string:155:15 */;
  let %x_53: (Tensor[(4, 7), float16], (Tensor[(2, 7, 2), float16], (Tensor[(2, 7, 2), float16],)), Tensor[(2, 7, 2), float16], Tensor[(6, 2), float32], Tensor[(2, 7, 2), float16], Tensor[(2, 7, 2), float16], Tensor[(76, 7, 2), float32], (Tensor[(1, 1, 224), float16], Tensor[(1, 1, 448), float16])) /* ty=(Tensor[(4, 7), float16], (Tensor[(2, 7, 2), float16], (Tensor[(2, 7, 2), float16],)), Tensor[(2, 7, 2), float16], Tensor[(6, 2), float32], Tensor[(2, 7, 2), float16], Tensor[(2, 7, 2), float16], Tensor[(76, 7, 2), float32], (Tensor[(1, 1, 224), float16], Tensor[(1, 1, 448), float16])) span=from_string:157:15 */ = %x_52;
  let %x_54: (Tensor[(4, 7), float16], (Tensor[(2, 7, 2), float16], (Tensor[(2, 7, 2), float16],)), Tensor[(2, 7, 2), float16], Tensor[(6, 2), float32], Tensor[(2, 7, 2), float16], Tensor[(2, 7, 2), float16], Tensor[(76, 7, 2), float32], (Tensor[(1, 1, 224), float16], Tensor[(1, 1, 448), float16])) /* ty=(Tensor[(4, 7), float16], (Tensor[(2, 7, 2), float16], (Tensor[(2, 7, 2), float16],)), Tensor[(2, 7, 2), float16], Tensor[(6, 2), float32], Tensor[(2, 7, 2), float16], Tensor[(2, 7, 2), float16], Tensor[(76, 7, 2), float32], (Tensor[(1, 1, 224), float16], Tensor[(1, 1, 448), float16])) span=from_string:158:3 */ = %x_53;
  %x_54
}

#[metadata]
{
  "root": 1, 
  "nodes": [
    {
      "type_key": ""
    }, 
    {
      "type_key": "Map", 
      "keys": [
        "relay.Constant"
      ], 
      "data": [2]
    }, 
    {
      "type_key": "Array", 
      "data": [3]
    }, 
    {
      "type_key": "relay.Constant", 
      "attrs": {
        "_checked_type_": "8", 
        "data": "0", 
        "span": "6", 
        "virtual_device_": "4"
      }
    }, 
    {
      "type_key": "VirtualDevice", 
      "attrs": {
        "device_type_int": "-1", 
        "memory_scope": "5", 
        "target": "0", 
        "virtual_device_id": "-1"
      }
    }, 
    {
      "type_key": "runtime.String"
    }, 
    {
      "type_key": "Span", 
      "attrs": {
        "column": "20", 
        "end_column": "38", 
        "end_line": "74", 
        "line": "74", 
        "source_name": "7"
      }
    }, 
    {
      "type_key": "SourceName", 
      "repr_str": "from_string"
    }, 
    {
      "type_key": "relay.TensorType", 
      "attrs": {
        "dtype": "int32", 
        "shape": "9", 
        "span": "0"
      }
    }, 
    {
      "type_key": "Array", 
      "data": [10]
    }, 
    {
      "type_key": "IntImm", 
      "attrs": {
        "dtype": "int32", 
        "span": "0", 
        "value": "2"
      }
    }
  ], 
  "b64ndarrays": [
    "P6G0lvBAXt0AAAAAAAAAAAEAAAAAAAAAAQAAAAAgAQACAAAAAAAAAAgAAAAAAAAABAAAAAcAAAA="
  ], 
  "attrs": {"tvm_version": "0.13.0"}
}