#[version = "0.0.5"]
def @main(%x0: Tensor[(4, 7), float32] /* ty=Tensor[(4, 7), float32] span=from_string:80:12 */, %x1: Tensor[(2, 7, 2), float32] /* ty=Tensor[(2, 7, 2), float32] span=from_string:27:17 */, %x2: Tensor[(14, 2), float32] /* ty=Tensor[(14, 2), float32] span=from_string:74:13 */, %x3: int32 /* ty=int32 span=from_string:83:89 */, %x4: int32 /* ty=int32 span=from_string:83:94 */, %x5: Tensor[(74, 7, 2), float32] /* ty=Tensor[(74, 7, 2), float32] span=from_string:86:18 */, %x6: Tensor[(16, 2), float32] /* ty=Tensor[(16, 2), float32] span=from_string:65:18 */, %x7: Tensor[(16), float32] /* ty=Tensor[(16), float32] span=from_string:65:23 */, %x8: Tensor[(1), float32] /* ty=Tensor[(1), float32] span=from_string:65:28 */, %x9: Tensor[(32, 2), float32] /* ty=Tensor[(32, 2), float32] span=from_string:74:18 */, %x10: Tensor[(32), float32] /* ty=Tensor[(32), float32] span=from_string:74:23 */, %x11: Tensor[(1), float32] /* ty=Tensor[(1), float32] span=from_string:74:29 */) -> (Tensor[(4, 7), float32], (Tensor[(2, 7, 2), float32], (Tensor[(2, 7, 2), float32],)), Tensor[(2, 7, 2), float32], Tensor[(6, 2), float32], Tensor[(2, 7, 2), float32], Tensor[(2, 7, 2), float32], Tensor[(76, 7, 2), float32], (Tensor[(1, 1, 224), float32], Tensor[(1, 1, 448), float32])) {
  let %x_0 = fn (%p01: Tensor[(4, 7), float32] /* ty=Tensor[(4, 7), float32] span=from_string:4:13 */, Primitive=1, relay.reshape_only=1) -> Tensor[(4, 7), float32] {
    reshape(%p01, newshape=[4, 7]) /* ty=Tensor[(4, 7), float32] span=from_string:4:5 */
  } /* ty=fn (Tensor[(4, 7), float32]) -> Tensor[(4, 7), float32] span=from_string:80:9 */;
  let %x_1 = %x_0(%x0);
  let %x_2 = fn (%p0: Tensor[(2, 7, 2), float32] /* ty=Tensor[(2, 7, 2), float32] span=from_string:7:20 */, Primitive=1) -> Tensor[(2, 7, 2), float32] {
    multiply(%p0, %p0) /* ty=Tensor[(2, 7, 2), float32] span=from_string:7:6 */
  } /* ty=fn (Tensor[(2, 7, 2), float32]) -> Tensor[(2, 7, 2), float32] span=from_string:22:8 */;
  let %x_3 = %x_2(%x1);
  let %x_4 = fn (Primitive=1) -> Tensor[(2, 7, 2), float32] {
    ones(shape=[2, 7, 2], dtype="float32") /* ty=Tensor[(2, 7, 2), float32] span=from_string:10:5 */
  } /* ty=fn () -> Tensor[(2, 7, 2), float32] span=from_string:12:8 */;
  let %x_5 = %x_4();
  let %x_6 = meta[relay.Constant][0] /* ty=Tensor[(3), int32] span=from_string:17:25 */;
  let %x_7 = fn (%p03: Tensor[(2, 7, 2), float32] /* ty=Tensor[(2, 7, 2), float32] span=from_string:14:20 */, %p1: Tensor[(2, 7, 2), float32] /* ty=Tensor[(2, 7, 2), float32] span=from_string:14:26 */, %p2: Tensor[(3), int32] /* ty=Tensor[(3), int32] span=from_string:15:25 */, Primitive=1) -> Tensor[(2, 7, 2), float32] {
    %0 = multiply(%p03, %p1) /* ty=Tensor[(2, 7, 2), float32] span=from_string:15:21 */;
    collapse_sum_to(%0, %p2, meta[relay.attrs.InitOpAttrs][0]) /* ty=Tensor[(2, 7, 2), float32] span=from_string:14:5 */
  } /* ty=fn (Tensor[(2, 7, 2), float32], Tensor[(2, 7, 2), float32], Tensor[(3), int32]) -> Tensor[(2, 7, 2), float32] span=from_string:17:8 */;
  let %x_8 = %x_7(%x_5, %x1, %x_6);
  let %x_9 = fn (%p02: Tensor[(2, 7, 2), float32] /* ty=Tensor[(2, 7, 2), float32] span=from_string:19:15 */, Primitive=1) -> Tensor[(2, 7, 2), float32] {
    multiply(%p02, 2f /* ty=float32 span=from_string:19:23 */) /* ty=Tensor[(2, 7, 2), float32] span=from_string:19:6 */
  } /* ty=fn (Tensor[(2, 7, 2), float32]) -> Tensor[(2, 7, 2), float32] span=from_string:21:8 */;
  let %x_10 = %x_9(%x_8);
  let %x_11 = (%x_10,) /* ty=(Tensor[(2, 7, 2), float32],) span=from_string:81:14 */;
  let %x_12 = (%x_3, %x_11) /* ty=(Tensor[(2, 7, 2), float32], (Tensor[(2, 7, 2), float32],)) span=from_string:88:9 */;
  let %x_13 = fn (%p06: Tensor[(2, 7, 2), float32] /* ty=Tensor[(2, 7, 2), float32] span=from_string:25:15 */, %p12: Tensor[(2, 7, 2), float32] /* ty=Tensor[(2, 7, 2), float32] span=from_string:25:21 */, Primitive=1) -> Tensor[(2, 7, 2), float32] {
    multiply(%p06, %p12) /* ty=Tensor[(2, 7, 2), float32] span=from_string:25:6 */
  } /* ty=fn (Tensor[(2, 7, 2), float32], Tensor[(2, 7, 2), float32]) -> Tensor[(2, 7, 2), float32] span=from_string:27:9 */;
  let %x_14 = %x_13(%x_5, %x1);
  let %x_15 = meta[relay.Constant][1] /* ty=Tensor[(3), int32] span=from_string:31:23 */;
  let %x_16 = fn (%p05: Tensor[(2, 7, 2), float32] /* ty=Tensor[(2, 7, 2), float32] span=from_string:29:21 */, %p11: Tensor[(3), int32] /* ty=Tensor[(3), int32] span=from_string:29:27 */, Primitive=1) -> Tensor[(2, 7, 2), float32] {
    collapse_sum_to(%p05, %p11, meta[relay.attrs.InitOpAttrs][0]) /* ty=Tensor[(2, 7, 2), float32] span=from_string:29:5 */
  } /* ty=fn (Tensor[(2, 7, 2), float32], Tensor[(3), int32]) -> Tensor[(2, 7, 2), float32] span=from_string:31:9 */;
  let %x_17 = %x_16(%x_14, %x_15);
  let %x_18 = fn (%p04: Tensor[(2, 7, 2), float32] /* ty=Tensor[(2, 7, 2), float32] span=from_string:33:13 */, Primitive=1, relay.reshape_only=1) -> Tensor[(2, 7, 2), float32] {
    reshape(%p04, newshape=[2, 7, 2]) /* ty=Tensor[(2, 7, 2), float32] span=from_string:33:5 */
  } /* ty=fn (Tensor[(2, 7, 2), float32]) -> Tensor[(2, 7, 2), float32] span=from_string:82:9 */;
  let %x_19 = %x_18(%x_17);
  let %x_20 = meta[relay.Constant][2] /* ty=Tensor[(2), int32] span=from_string:83:18 */;
  let %x_21 = fn (%p07: Tensor[(2), int32] /* ty=Tensor[(2), int32] span=from_string:36:13 */, %p13: int32 /* ty=int32 span=from_string:36:19 */, %p21: int32 /* ty=int32 span=from_string:36:25 */, Primitive=1) -> Tensor[(6, 2), float32] {
    one_hot(%p07, %p13, %p21, depth=6, axis=0, dtype="float32") /* ty=Tensor[(6, 2), float32] span=from_string:36:5 */
  } /* ty=fn (Tensor[(2), int32], int32, int32) -> Tensor[(6, 2), float32] span=from_string:83:9 */;
  let %x_22 = %x_21(%x_20, %x3, %x4);
  let %x_23 = fn (%p09: Tensor[(2, 7, 2), float32] /* ty=Tensor[(2, 7, 2), float32] span=from_string:39:9 */, Primitive=1) -> Tensor[(2, 7, 2), float32] {
    add(%p09, 1f /* ty=float32 span=from_string:39:17 */) /* ty=Tensor[(2, 7, 2), float32] span=from_string:39:5 */
  } /* ty=fn (Tensor[(2, 7, 2), float32]) -> Tensor[(2, 7, 2), float32] span=from_string:41:9 */;
  let %x_24 = %x_23(%x_17);
  let %x_25 = fn (%p08: Tensor[(2, 7, 2), float32] /* ty=Tensor[(2, 7, 2), float32] span=from_string:43:15 */, Primitive=1) -> Tensor[(2, 7, 2), float32] {
    %1 = exp(%p08) /* ty=Tensor[(2, 7, 2), float32] span=from_string:44:20 */;
    multiply(%1, %1) /* ty=Tensor[(2, 7, 2), float32] span=from_string:43:5 */
  } /* ty=fn (Tensor[(2, 7, 2), float32]) -> Tensor[(2, 7, 2), float32] span=from_string:84:9 */;
  let %x_26 = %x_25(%x_24);
  let %x_27 = fn (%p010: Tensor[(2, 7, 2), float32] /* ty=Tensor[(2, 7, 2), float32] span=from_string:47:15 */, Primitive=1) -> Tensor[(2, 7, 2), float32] {
    %2 = add(%p010, 1f /* ty=float32 span=from_string:47:24 */) /* ty=Tensor[(2, 7, 2), float32] span=from_string:48:15 */;
    %3 = exp(%2) /* ty=Tensor[(2, 7, 2), float32] span=from_string:49:13 */;
    squeeze(%3) /* ty=Tensor[(2, 7, 2), float32] span=from_string:47:5 */
  } /* ty=fn (Tensor[(2, 7, 2), float32]) -> Tensor[(2, 7, 2), float32] span=from_string:85:9 */;
  let %x_28 = %x_27(%x_14);
  let %x_29 = fn (%p011: Tensor[(2, 7, 2), float32] /* ty=Tensor[(2, 7, 2), float32] span=from_string:52:12 */, %p14: Tensor[(74, 7, 2), float32] /* ty=Tensor[(74, 7, 2), float32] span=from_string:52:19 */, Primitive=1) -> Tensor[(76, 7, 2), float32] {
    %4 = (%p011, %p14) /* ty=(Tensor[(2, 7, 2), float32], Tensor[(74, 7, 2), float32]) span=from_string:53:23 */;
    %5 = concatenate(%4) /* ty=Tensor[(76, 7, 2), float32] span=from_string:54:34 */;
    %6 = annotation.stop_fusion(%5) /* ty=Tensor[(76, 7, 2), float32] span=from_string:55:12 */;
    %7 = (%6,) /* ty=(Tensor[(76, 7, 2), float32],) span=from_string:56:23 */;
    %8 = concatenate(%7) /* ty=Tensor[(76, 7, 2), float32] span=from_string:57:17 */;
    %9 = rsqrt(%8) /* ty=Tensor[(76, 7, 2), float32] span=from_string:58:59 */;
    multiply(2f /* ty=float32 span=from_string:58:17 */, %9) /* ty=Tensor[(76, 7, 2), float32] span=from_string:52:5 */
  } /* ty=fn (Tensor[(2, 7, 2), float32], Tensor[(74, 7, 2), float32]) -> Tensor[(76, 7, 2), float32] span=from_string:86:9 */;
  let %x_30 = %x_29(%x_24, %x5);
  let %x_31 = fn (%p013: Tensor[(14, 2), float32] /* ty=Tensor[(14, 2), float32] span=from_string:61:20 */, %p15: Tensor[(16, 2), float32] /* ty=Tensor[(16, 2), float32] span=from_string:61:27 */, %p22: Tensor[(16), float32] /* ty=Tensor[(16), float32] span=from_string:62:20 */, %p3: Tensor[(1), float32] /* ty=Tensor[(1), float32] span=from_string:63:20 */, Primitive=1) -> Tensor[(14, 16), float32] {
    %10 = nn.dense(%p013, %p15, units=None) /* ty=Tensor[(14, 16), float32] span=from_string:62:15 */;
    %11 = add(%10, %p22) /* ty=Tensor[(14, 16), float32] span=from_string:63:15 */;
    multiply(%11, %p3) /* ty=Tensor[(14, 16), float32] span=from_string:61:5 */
  } /* ty=fn (Tensor[(14, 2), float32], Tensor[(16, 2), float32], Tensor[(16), float32], Tensor[(1), float32]) -> Tensor[(14, 16), float32] span=from_string:65:9 */;
  let %x_32 = %x_31(%x2, %x6, %x7, %x8);
  let %x_33 = fn (%p012: Tensor[(14, 16), float32] /* ty=Tensor[(14, 16), float32] span=from_string:67:13 */, Primitive=1, relay.reshape_only=1) -> Tensor[(1, 1, 224), float32] {
    reshape(%p012, newshape=[1, 1, 224]) /* ty=Tensor[(1, 1, 224), float32] span=from_string:67:5 */
  } /* ty=fn (Tensor[(14, 16), float32]) -> Tensor[(1, 1, 224), float32] span=from_string:78:9 */;
  let %x_34 = %x_33(%x_32);
  let %x_35 = fn (%p015: Tensor[(14, 2), float32] /* ty=Tensor[(14, 2), float32] span=from_string:70:20 */, %p16: Tensor[(32, 2), float32] /* ty=Tensor[(32, 2), float32] span=from_string:70:27 */, %p23: Tensor[(32), float32] /* ty=Tensor[(32), float32] span=from_string:71:20 */, %p31: Tensor[(1), float32] /* ty=Tensor[(1), float32] span=from_string:72:20 */, Primitive=1) -> Tensor[(14, 32), float32] {
    %12 = nn.dense(%p015, %p16, units=None) /* ty=Tensor[(14, 32), float32] span=from_string:71:15 */;
    %13 = add(%12, %p23) /* ty=Tensor[(14, 32), float32] span=from_string:72:15 */;
    multiply(%13, %p31) /* ty=Tensor[(14, 32), float32] span=from_string:70:5 */
  } /* ty=fn (Tensor[(14, 2), float32], Tensor[(32, 2), float32], Tensor[(32), float32], Tensor[(1), float32]) -> Tensor[(14, 32), float32] span=from_string:74:9 */;
  let %x_36 = %x_35(%x2, %x9, %x10, %x11);
  let %x_37 = fn (%p014: Tensor[(14, 32), float32] /* ty=Tensor[(14, 32), float32] span=from_string:76:13 */, Primitive=1, relay.reshape_only=1) -> Tensor[(1, 1, 448), float32] {
    reshape(%p014, newshape=[1, 1, 448]) /* ty=Tensor[(1, 1, 448), float32] span=from_string:76:5 */
  } /* ty=fn (Tensor[(14, 32), float32]) -> Tensor[(1, 1, 448), float32] span=from_string:79:9 */;
  let %x_38 = %x_37(%x_36);
  let %x_39 = (%x_34, %x_38) /* ty=(Tensor[(1, 1, 224), float32], Tensor[(1, 1, 448), float32]) span=from_string:88:39 */;
  let %x_40 = (%x_1, %x_12, %x_19, %x_22, %x_26, %x_28, %x_30, %x_39) /* ty=(Tensor[(4, 7), float32], (Tensor[(2, 7, 2), float32], (Tensor[(2, 7, 2), float32],)), Tensor[(2, 7, 2), float32], Tensor[(6, 2), float32], Tensor[(2, 7, 2), float32], Tensor[(2, 7, 2), float32], Tensor[(76, 7, 2), float32], (Tensor[(1, 1, 224), float32], Tensor[(1, 1, 448), float32])) span=from_string:3:3 */;
  %x_40
}

#[metadata]
{
  "root": 1, 
  "nodes": [
    {
      "type_key": ""
    }, 
    {
      "type_key": "Map", 
      "keys": [
        "relay.attrs.InitOpAttrs", 
        "relay.Constant"
      ], 
      "data": [2, 8]
    }, 
    {
      "type_key": "Array", 
      "data": [3]
    }, 
    {
      "type_key": "relay.attrs.InitOpAttrs", 
      "attrs": {
        "dtype": "", 
        "shape": "4"
      }
    }, 
    {
      "type_key": "Array", 
      "data": [5, 6, 7]
    }, 
    {
      "type_key": "IntImm", 
      "attrs": {
        "dtype": "int32", 
        "span": "0", 
        "value": "2"
      }
    }, 
    {
      "type_key": "IntImm", 
      "attrs": {
        "dtype": "int32", 
        "span": "0", 
        "value": "7"
      }
    }, 
    {
      "type_key": "IntImm", 
      "attrs": {
        "dtype": "int32", 
        "span": "0", 
        "value": "2"
      }
    }, 
    {
      "type_key": "Array", 
      "data": [9, 17, 22]
    }, 
    {
      "type_key": "relay.Constant", 
      "attrs": {
        "_checked_type_": "14", 
        "data": "0", 
        "span": "12", 
        "virtual_device_": "10"
      }
    }, 
    {
      "type_key": "VirtualDevice", 
      "attrs": {
        "device_type_int": "-1", 
        "memory_scope": "11", 
        "target": "0", 
        "virtual_device_id": "-1"
      }
    }, 
    {
      "type_key": "runtime.String"
    }, 
    {
      "type_key": "Span", 
      "attrs": {
        "column": "25", 
        "end_column": "43", 
        "end_line": "17", 
        "line": "17", 
        "source_name": "13"
      }
    }, 
    {
      "type_key": "SourceName", 
      "repr_str": "from_string"
    }, 
    {
      "type_key": "relay.TensorType", 
      "attrs": {
        "dtype": "int32", 
        "shape": "15", 
        "span": "0"
      }
    }, 
    {
      "type_key": "Array", 
      "data": [16]
    }, 
    {
      "type_key": "IntImm", 
      "attrs": {
        "dtype": "int32", 
        "span": "0", 
        "value": "3"
      }
    }, 
    {
      "type_key": "relay.Constant", 
      "attrs": {
        "_checked_type_": "19", 
        "data": "0", 
        "span": "18", 
        "virtual_device_": "10"
      }
    }, 
    {
      "type_key": "Span", 
      "attrs": {
        "column": "23", 
        "end_column": "41", 
        "end_line": "31", 
        "line": "31", 
        "source_name": "13"
      }
    }, 
    {
      "type_key": "relay.TensorType", 
      "attrs": {
        "dtype": "int32", 
        "shape": "20", 
        "span": "0"
      }
    }, 
    {
      "type_key": "Array", 
      "data": [21]
    }, 
    {
      "type_key": "IntImm", 
      "attrs": {
        "dtype": "int32", 
        "span": "0", 
        "value": "3"
      }
    }, 
    {
      "type_key": "relay.Constant", 
      "attrs": {
        "_checked_type_": "26", 
        "data": "1", 
        "span": "25", 
        "virtual_device_": "23"
      }
    }, 
    {
      "type_key": "VirtualDevice", 
      "attrs": {
        "device_type_int": "-1", 
        "memory_scope": "24", 
        "target": "0", 
        "virtual_device_id": "-1"
      }
    }, 
    {
      "type_key": "runtime.String"
    }, 
    {
      "type_key": "Span", 
      "attrs": {
        "column": "18", 
        "end_column": "36", 
        "end_line": "83", 
        "line": "83", 
        "source_name": "13"
      }
    }, 
    {
      "type_key": "relay.TensorType", 
      "attrs": {
        "dtype": "int32", 
        "shape": "27", 
        "span": "0"
      }
    }, 
    {
      "type_key": "Array", 
      "data": [28]
    }, 
    {
      "type_key": "IntImm", 
      "attrs": {
        "dtype": "int32", 
        "span": "0", 
        "value": "2"
      }
    }
  ], 
  "b64ndarrays": [
    "P6G0lvBAXt0AAAAAAAAAAAEAAAAAAAAAAQAAAAAgAQADAAAAAAAAAAwAAAAAAAAAAgAAAAcAAAACAAAA", 
    "P6G0lvBAXt0AAAAAAAAAAAEAAAAAAAAAAQAAAAAgAQACAAAAAAAAAAgAAAAAAAAABAAAAAcAAAA="
  ], 
  "attrs": {"tvm_version": "0.13.0"}
}