#[version = "0.0.5"]
def @main(%x0: Tensor[(4, 7), float32] /* ty=Tensor[(4, 7), float32] span=from_string:7:101 */, %x1: Tensor[(2, 7, 2), float32] /* ty=Tensor[(2, 7, 2), float32] span=from_string:43:114 */, %x2: Tensor[(14, 2), float32] /* ty=Tensor[(14, 2), float32] span=from_string:120:107 */, %x3: int32 /* ty=int32 span=from_string:62:110 */, %x4: int32 /* ty=int32 span=from_string:62:115 */, %x5: Tensor[(74, 7, 2), float32] /* ty=Tensor[(74, 7, 2), float32] span=from_string:92:118 */, %x6: Tensor[(16, 2), float32] /* ty=Tensor[(16, 2), float32] span=from_string:103:112 */, %x7: Tensor[(16), float32] /* ty=Tensor[(16), float32] span=from_string:103:117 */, %x8: Tensor[(1), float32] /* ty=Tensor[(1), float32] span=from_string:103:122 */, %x9: Tensor[(32, 2), float32] /* ty=Tensor[(32, 2), float32] span=from_string:120:112 */, %x10: Tensor[(32), float32] /* ty=Tensor[(32), float32] span=from_string:120:117 */, %x11: Tensor[(1), float32] /* ty=Tensor[(1), float32] span=from_string:120:123 */) -> (Tensor[(4, 7), float16], (Tensor[(2, 7, 2), float16], (Tensor[(2, 7, 2), float16],)), Tensor[(2, 7, 2), float16], Tensor[(6, 2), float32], Tensor[(2, 7, 2), float32], Tensor[(2, 7, 2), float32], Tensor[(76, 7, 2), float32], (Tensor[(1, 1, 224), float16], Tensor[(1, 1, 448), float16])) {
  let %x_0: fn (Tensor[(4, 7), float32]) -> Tensor[(4, 7), float16] /* ty=fn (Tensor[(4, 7), float32]) -> Tensor[(4, 7), float16] span=from_string:7:96 */ = fn (%p02: Tensor[(4, 7), float32] /* ty=Tensor[(4, 7), float32] span=from_string:4:15 */, Primitive=1, relay.reshape_only=1) -> Tensor[(4, 7), float16] {
    %0 = cast(%p02, dtype="float16") /* ty=Tensor[(4, 7), float16] span=from_string:5:13 */;
    reshape(%0, newshape=[4, 7]) /* ty=Tensor[(4, 7), float16] span=from_string:4:5 */
  } /* ty=fn (Tensor[(4, 7), float32]) -> Tensor[(4, 7), float16] span=from_string:3:3 */;
  let %x_1: Tensor[(4, 7), float16] /* ty=Tensor[(4, 7), float16] span=from_string:128:623 */ = %x_0(%x0) /* ty=Tensor[(4, 7), float16] span=from_string:7:96 */;
  let %x_2: fn (Tensor[(2, 7, 2), float32]) -> Tensor[(2, 7, 2), float16] /* ty=fn (Tensor[(2, 7, 2), float32]) -> Tensor[(2, 7, 2), float16] span=from_string:12:101 */ = fn (%p0: Tensor[(2, 7, 2), float32] /* ty=Tensor[(2, 7, 2), float32] span=from_string:9:15 */, Primitive=1) -> Tensor[(2, 7, 2), float16] {
    %1 = cast(%p0, dtype="float16") /* ty=Tensor[(2, 7, 2), float16] span=from_string:10:19 */;
    multiply(%1, %1) /* ty=Tensor[(2, 7, 2), float16] span=from_string:9:5 */
  } /* ty=fn (Tensor[(2, 7, 2), float32]) -> Tensor[(2, 7, 2), float16] span=from_string:8:3 */;
  let %x_3: Tensor[(2, 7, 2), float16] /* ty=Tensor[(2, 7, 2), float16] span=from_string:52:170 */ = %x_2(%x1) /* ty=Tensor[(2, 7, 2), float16] span=from_string:12:101 */;
  %2 = fn (%p01: Tensor[(2, 7, 2), float16] /* ty=Tensor[(2, 7, 2), float16] */, Primitive=1) -> Tensor[(2, 7, 2), float32] {
    cast(%p01, dtype="float32") /* ty=Tensor[(2, 7, 2), float32] span=from_string:13:101 */
  } /* ty=fn (Tensor[(2, 7, 2), float16]) -> Tensor[(2, 7, 2), float32] */;
  let %x_4: Tensor[(2, 7, 2), float32] /* ty=Tensor[(2, 7, 2), float32] span=from_string:17:106 */ = %2(%x_3) /* ty=Tensor[(2, 7, 2), float32] */;
  let %x_5: fn (Tensor[(2, 7, 2), float32]) -> Tensor[(2, 7, 2), float16] /* ty=fn (Tensor[(2, 7, 2), float32]) -> Tensor[(2, 7, 2), float16] span=from_string:17:101 */ = fn (%p011: Tensor[(2, 7, 2), float32] /* ty=Tensor[(2, 7, 2), float32] */, Primitive=1) -> Tensor[(2, 7, 2), float16] {
    ones(shape=[2, 7, 2], dtype="float16") /* ty=Tensor[(2, 7, 2), float16] span=from_string:15:5 */
  } /* ty=fn (Tensor[(2, 7, 2), float32]) -> Tensor[(2, 7, 2), float16] span=from_string:14:3 */;
  let %x_6: Tensor[(2, 7, 2), float16] /* ty=Tensor[(2, 7, 2), float16] span=from_string:18:106 */ = %x_5(%x_4) /* ty=Tensor[(2, 7, 2), float16] span=from_string:17:101 */;
  %3 = fn (%p03: Tensor[(2, 7, 2), float16] /* ty=Tensor[(2, 7, 2), float16] */, Primitive=1) -> Tensor[(2, 7, 2), float32] {
    cast(%p03, dtype="float32") /* ty=Tensor[(2, 7, 2), float32] span=from_string:18:101 */
  } /* ty=fn (Tensor[(2, 7, 2), float16]) -> Tensor[(2, 7, 2), float32] */;
  let %x_7: Tensor[(2, 7, 2), float32] /* ty=Tensor[(2, 7, 2), float32] span=from_string:43:108 */ = %3(%x_6) /* ty=Tensor[(2, 7, 2), float32] */;
  let %x_8: fn (Tensor[(2, 7, 2), float32], Tensor[(2, 7, 2), float32]) -> Tensor[(2, 7, 2), float16] /* ty=fn (Tensor[(2, 7, 2), float32], Tensor[(2, 7, 2), float32]) -> Tensor[(2, 7, 2), float16] span=from_string:24:101 */ = fn (%p06: Tensor[(2, 7, 2), float32] /* ty=Tensor[(2, 7, 2), float32] span=from_string:20:15 */, %p13: Tensor[(2, 7, 2), float32] /* ty=Tensor[(2, 7, 2), float32] span=from_string:21:15 */, Primitive=1) -> Tensor[(2, 7, 2), float16] {
    %4 = cast(%p06, dtype="float16") /* ty=Tensor[(2, 7, 2), float16] span=from_string:22:15 */;
    %5 = cast(%p13, dtype="float16") /* ty=Tensor[(2, 7, 2), float16] span=from_string:22:19 */;
    multiply(%4, %5) /* ty=Tensor[(2, 7, 2), float16] span=from_string:20:5 */
  } /* ty=fn (Tensor[(2, 7, 2), float32], Tensor[(2, 7, 2), float32]) -> Tensor[(2, 7, 2), float16] span=from_string:19:3 */;
  let %x_9: Tensor[(2, 7, 2), float16] /* ty=Tensor[(2, 7, 2), float16] span=from_string:25:107 */ = %x_8(%x_7, %x1) /* ty=Tensor[(2, 7, 2), float16] span=from_string:24:101 */;
  %6 = fn (%p04: Tensor[(2, 7, 2), float16] /* ty=Tensor[(2, 7, 2), float16] */, Primitive=1) -> Tensor[(2, 7, 2), float32] {
    cast(%p04, dtype="float32") /* ty=Tensor[(2, 7, 2), float32] span=from_string:25:102 */
  } /* ty=fn (Tensor[(2, 7, 2), float16]) -> Tensor[(2, 7, 2), float32] */;
  let %x_10: Tensor[(2, 7, 2), float32] /* ty=Tensor[(2, 7, 2), float32] span=from_string:82:109 */ = %6(%x_9) /* ty=Tensor[(2, 7, 2), float32] */;
  let %x_11: fn (Tensor[(2, 7, 2), float32], Tensor[(2, 7, 2), float32]) -> Tensor[(2, 7, 2), float16] /* ty=fn (Tensor[(2, 7, 2), float32], Tensor[(2, 7, 2), float32]) -> Tensor[(2, 7, 2), float16] span=from_string:30:102 */ = fn (%p05: Tensor[(2, 7, 2), float32] /* ty=Tensor[(2, 7, 2), float32] span=from_string:27:15 */, %p12: Tensor[(2, 7, 2), float32] /* ty=Tensor[(2, 7, 2), float32] */, Primitive=1) -> Tensor[(2, 7, 2), float16] {
    %7 = cast(%p05, dtype="float16") /* ty=Tensor[(2, 7, 2), float16] span=from_string:28:21 */;
    collapse_sum_to(%7, meta[relay.Constant][0] /* ty=Tensor[(3), int32] span=from_string:28:30 */, meta[relay.attrs.InitOpAttrs][0]) /* ty=Tensor[(2, 7, 2), float16] span=from_string:27:5 */
  } /* ty=fn (Tensor[(2, 7, 2), float32], Tensor[(2, 7, 2), float32]) -> Tensor[(2, 7, 2), float16] span=from_string:26:3 */;
  let %x_12: Tensor[(2, 7, 2), float16] /* ty=Tensor[(2, 7, 2), float16] span=from_string:31:107 */ = %x_11(%x_10, %x1) /* ty=Tensor[(2, 7, 2), float16] span=from_string:30:102 */;
  %8 = fn (%p07: Tensor[(2, 7, 2), float16] /* ty=Tensor[(2, 7, 2), float16] */, Primitive=1) -> Tensor[(2, 7, 2), float32] {
    cast(%p07, dtype="float32") /* ty=Tensor[(2, 7, 2), float32] span=from_string:31:102 */
  } /* ty=fn (Tensor[(2, 7, 2), float16]) -> Tensor[(2, 7, 2), float32] */;
  let %x_13: Tensor[(2, 7, 2), float32] /* ty=Tensor[(2, 7, 2), float32] span=from_string:57:109 */ = %8(%x_12) /* ty=Tensor[(2, 7, 2), float32] */;
  let %x_14: fn (Tensor[(2, 7, 2), float32], Tensor[(2, 7, 2), float32]) -> Tensor[(2, 7, 2), float16] /* ty=fn (Tensor[(2, 7, 2), float32], Tensor[(2, 7, 2), float32]) -> Tensor[(2, 7, 2), float16] span=from_string:35:102 */ = fn (%p041: Tensor[(2, 7, 2), float32] /* ty=Tensor[(2, 7, 2), float32] */, %p11: Tensor[(2, 7, 2), float32] /* ty=Tensor[(2, 7, 2), float32] span=from_string:33:10 */, Primitive=1) -> Tensor[(2, 7, 2), float16] {
    cast(%p11, dtype="float16") /* ty=Tensor[(2, 7, 2), float16] span=from_string:33:5 */
  } /* ty=fn (Tensor[(2, 7, 2), float32], Tensor[(2, 7, 2), float32]) -> Tensor[(2, 7, 2), float16] span=from_string:32:3 */;
  let %x_15: Tensor[(2, 7, 2), float16] /* ty=Tensor[(2, 7, 2), float16] span=from_string:36:107 */ = %x_14(%x1, %x_13) /* ty=Tensor[(2, 7, 2), float16] span=from_string:35:102 */;
  %9 = fn (%p08: Tensor[(2, 7, 2), float16] /* ty=Tensor[(2, 7, 2), float16] */, Primitive=1) -> Tensor[(2, 7, 2), float32] {
    cast(%p08, dtype="float32") /* ty=Tensor[(2, 7, 2), float32] span=from_string:36:102 */
  } /* ty=fn (Tensor[(2, 7, 2), float16]) -> Tensor[(2, 7, 2), float32] */;
  let %x_16: Tensor[(2, 7, 2), float32] /* ty=Tensor[(2, 7, 2), float32] span=from_string:68:108 */ = %9(%x_15) /* ty=Tensor[(2, 7, 2), float32] */;
  let %x_17: fn (Tensor[(2, 7, 2), float32], Tensor[(2, 7, 2), float32]) -> Tensor[(2, 7, 2), float16] /* ty=fn (Tensor[(2, 7, 2), float32], Tensor[(2, 7, 2), float32]) -> Tensor[(2, 7, 2), float16] span=from_string:43:102 */ = fn (%p071: Tensor[(2, 7, 2), float32] /* ty=Tensor[(2, 7, 2), float32] span=from_string:38:15 */, %p14: Tensor[(2, 7, 2), float32] /* ty=Tensor[(2, 7, 2), float32] span=from_string:39:15 */, Primitive=1) -> Tensor[(2, 7, 2), float16] {
    %10 = cast(%p071, dtype="float16") /* ty=Tensor[(2, 7, 2), float16] span=from_string:40:20 */;
    %11 = cast(%p14, dtype="float16") /* ty=Tensor[(2, 7, 2), float16] span=from_string:40:24 */;
    %12 = multiply(%10, %11) /* ty=Tensor[(2, 7, 2), float16] span=from_string:41:21 */;
    collapse_sum_to(%12, meta[relay.Constant][1] /* ty=Tensor[(3), int32] span=from_string:41:30 */, meta[relay.attrs.InitOpAttrs][1]) /* ty=Tensor[(2, 7, 2), float16] span=from_string:38:5 */
  } /* ty=fn (Tensor[(2, 7, 2), float32], Tensor[(2, 7, 2), float32]) -> Tensor[(2, 7, 2), float16] span=from_string:37:3 */;
  let %x_18: Tensor[(2, 7, 2), float16] /* ty=Tensor[(2, 7, 2), float16] span=from_string:44:107 */ = %x_17(%x_7, %x1) /* ty=Tensor[(2, 7, 2), float16] span=from_string:43:102 */;
  %13 = fn (%p09: Tensor[(2, 7, 2), float16] /* ty=Tensor[(2, 7, 2), float16] */, Primitive=1) -> Tensor[(2, 7, 2), float32] {
    cast(%p09, dtype="float32") /* ty=Tensor[(2, 7, 2), float32] span=from_string:44:102 */
  } /* ty=fn (Tensor[(2, 7, 2), float16]) -> Tensor[(2, 7, 2), float32] */;
  let %x_19: Tensor[(2, 7, 2), float32] /* ty=Tensor[(2, 7, 2), float32] span=from_string:50:115 */ = %13(%x_18) /* ty=Tensor[(2, 7, 2), float32] */;
  let %x_20: fn (Tensor[(2, 7, 2), float32], Tensor[(2, 7, 2), float32]) -> Tensor[(2, 7, 2), float16] /* ty=fn (Tensor[(2, 7, 2), float32], Tensor[(2, 7, 2), float32]) -> Tensor[(2, 7, 2), float16] span=from_string:50:102 */ = fn (%p031: Tensor[(2, 7, 2), float32] /* ty=Tensor[(2, 7, 2), float32] span=from_string:46:15 */, %p1: Tensor[(2, 7, 2), float32] /* ty=Tensor[(2, 7, 2), float32] span=from_string:47:15 */, Primitive=1) -> Tensor[(2, 7, 2), float16] {
    %14 = cast(%p031, dtype="float16") /* ty=Tensor[(2, 7, 2), float16] span=from_string:48:9 */;
    %15 = cast(%p1, dtype="float16") /* ty=Tensor[(2, 7, 2), float16] span=from_string:48:13 */;
    add(%14, %15) /* ty=Tensor[(2, 7, 2), float16] span=from_string:46:5 */
  } /* ty=fn (Tensor[(2, 7, 2), float32], Tensor[(2, 7, 2), float32]) -> Tensor[(2, 7, 2), float16] span=from_string:45:3 */;
  let %x_21: Tensor[(2, 7, 2), float16] /* ty=Tensor[(2, 7, 2), float16] span=from_string:51:109 */ = %x_20(%x_16, %x_19) /* ty=Tensor[(2, 7, 2), float16] span=from_string:50:102 */;
  let %x_22: (Tensor[(2, 7, 2), float16],) /* ty=(Tensor[(2, 7, 2), float16],) span=from_string:52:176 */ = (%x_21,) /* ty=(Tensor[(2, 7, 2), float16],) span=from_string:51:108 */;
  let %x_23: (Tensor[(2, 7, 2), float16], (Tensor[(2, 7, 2), float16],)) /* ty=(Tensor[(2, 7, 2), float16], (Tensor[(2, 7, 2), float16],)) span=from_string:128:629 */ = (%x_3, %x_22) /* ty=(Tensor[(2, 7, 2), float16], (Tensor[(2, 7, 2), float16],)) span=from_string:52:169 */;
  let %x_24: fn (Tensor[(2, 7, 2), float32]) -> Tensor[(2, 7, 2), float16] /* ty=fn (Tensor[(2, 7, 2), float32]) -> Tensor[(2, 7, 2), float16] span=from_string:57:103 */ = fn (%p081: Tensor[(2, 7, 2), float32] /* ty=Tensor[(2, 7, 2), float32] span=from_string:54:16 */, Primitive=1, relay.reshape_only=1) -> Tensor[(2, 7, 2), float16] {
    %16 = cast(%p081, dtype="float16") /* ty=Tensor[(2, 7, 2), float16] span=from_string:55:13 */;
    reshape(%16, newshape=[2, 7, 2]) /* ty=Tensor[(2, 7, 2), float16] span=from_string:54:5 */
  } /* ty=fn (Tensor[(2, 7, 2), float32]) -> Tensor[(2, 7, 2), float16] span=from_string:53:3 */;
  let %x_25: Tensor[(2, 7, 2), float16] /* ty=Tensor[(2, 7, 2), float16] span=from_string:128:636 */ = %x_24(%x_13) /* ty=Tensor[(2, 7, 2), float16] span=from_string:57:103 */;
  let %x_26: Tensor[(2), int32] /* ty=Tensor[(2), int32] span=from_string:62:103 */ = meta[relay.Constant][2] /* ty=Tensor[(2), int32] span=from_string:58:93 */;
  let %x_27: fn (Tensor[(2), int32], int32, int32) -> Tensor[(6, 2), float32] /* ty=fn (Tensor[(2), int32], int32, int32) -> Tensor[(6, 2), float32] span=from_string:62:97 */ = fn (%p091: Tensor[(2), int32] /* ty=Tensor[(2), int32] span=from_string:60:13 */, %p15: int32 /* ty=int32 span=from_string:60:19 */, %p2: int32 /* ty=int32 span=from_string:60:25 */, Primitive=1) -> Tensor[(6, 2), float32] {
    one_hot(%p091, %p15, %p2, depth=6, axis=0, dtype="float32") /* ty=Tensor[(6, 2), float32] span=from_string:60:5 */
  } /* ty=fn (Tensor[(2), int32], int32, int32) -> Tensor[(6, 2), float32] span=from_string:59:3 */;
  let %x_28: Tensor[(6, 2), float32] /* ty=Tensor[(6, 2), float32] span=from_string:128:643 */ = %x_27(%x_26, %x3, %x4) /* ty=Tensor[(6, 2), float32] span=from_string:62:97 */;
  let %x_29: fn (Tensor[(2, 7, 2), float32]) -> Tensor[(2, 7, 2), float16] /* ty=fn (Tensor[(2, 7, 2), float32]) -> Tensor[(2, 7, 2), float16] span=from_string:68:102 */ = fn (%p0111: Tensor[(2, 7, 2), float32] /* ty=Tensor[(2, 7, 2), float32] span=from_string:64:16 */, Primitive=1) -> Tensor[(2, 7, 2), float16] {
    %17 = cast(%p0111, dtype="float16") /* ty=Tensor[(2, 7, 2), float16] span=from_string:66:9 */;
    %18 = cast(1f /* ty=float32 span=from_string:65:18 */, dtype="float16") /* ty=float16 span=from_string:77:20 */;
    add(%17, %18) /* ty=Tensor[(2, 7, 2), float16] span=from_string:64:5 */
  } /* ty=fn (Tensor[(2, 7, 2), float32]) -> Tensor[(2, 7, 2), float16] span=from_string:63:3 */;
  let %x_30: Tensor[(2, 7, 2), float16] /* ty=Tensor[(2, 7, 2), float16] span=from_string:69:107 */ = %x_29(%x_16) /* ty=Tensor[(2, 7, 2), float16] span=from_string:68:102 */;
  %19 = fn (%p010: Tensor[(2, 7, 2), float16] /* ty=Tensor[(2, 7, 2), float16] */, Primitive=1) -> Tensor[(2, 7, 2), float32] {
    cast(%p010, dtype="float32") /* ty=Tensor[(2, 7, 2), float32] span=from_string:69:102 */
  } /* ty=fn (Tensor[(2, 7, 2), float16]) -> Tensor[(2, 7, 2), float32] */;
  let %x_31: Tensor[(2, 7, 2), float32] /* ty=Tensor[(2, 7, 2), float32] span=from_string:92:111 */ = %19(%x_30) /* ty=Tensor[(2, 7, 2), float32] */;
  let %x_32: fn (Tensor[(2, 7, 2), float32]) -> Tensor[(2, 7, 2), float32] /* ty=fn (Tensor[(2, 7, 2), float32]) -> Tensor[(2, 7, 2), float32] span=from_string:74:103 */ = fn (%p0101: Tensor[(2, 7, 2), float32] /* ty=Tensor[(2, 7, 2), float32] span=from_string:71:15 */, Primitive=1) -> Tensor[(2, 7, 2), float32] {
    %20 = exp(%p0101) /* ty=Tensor[(2, 7, 2), float32] span=from_string:72:20 */;
    multiply(%20, %20) /* ty=Tensor[(2, 7, 2), float32] span=from_string:71:5 */
  } /* ty=fn (Tensor[(2, 7, 2), float32]) -> Tensor[(2, 7, 2), float32] span=from_string:70:3 */;
  let %x_33: Tensor[(2, 7, 2), float32] /* ty=Tensor[(2, 7, 2), float32] span=from_string:128:650 */ = %x_32(%x_31) /* ty=Tensor[(2, 7, 2), float32] span=from_string:74:103 */;
  let %x_34: fn (Tensor[(2, 7, 2), float32]) -> Tensor[(2, 7, 2), float32] /* ty=fn (Tensor[(2, 7, 2), float32]) -> Tensor[(2, 7, 2), float32] span=from_string:82:103 */ = fn (%p012: Tensor[(2, 7, 2), float32] /* ty=Tensor[(2, 7, 2), float32] span=from_string:76:16 */, Primitive=1) -> Tensor[(2, 7, 2), float32] {
    %21 = cast(%p012, dtype="float16") /* ty=Tensor[(2, 7, 2), float16] span=from_string:77:15 */;
    %22 = add(%21, %18) /* ty=Tensor[(2, 7, 2), float16] span=from_string:78:16 */;
    %23 = cast(%22, dtype="float32") /* ty=Tensor[(2, 7, 2), float32] span=from_string:79:15 */;
    %24 = exp(%23) /* ty=Tensor[(2, 7, 2), float32] span=from_string:80:13 */;
    squeeze(%24) /* ty=Tensor[(2, 7, 2), float32] span=from_string:76:5 */
  } /* ty=fn (Tensor[(2, 7, 2), float32]) -> Tensor[(2, 7, 2), float32] span=from_string:75:3 */;
  let %x_35: Tensor[(2, 7, 2), float32] /* ty=Tensor[(2, 7, 2), float32] span=from_string:128:657 */ = %x_34(%x_10) /* ty=Tensor[(2, 7, 2), float32] span=from_string:82:103 */;
  let %x_36: fn (Tensor[(2, 7, 2), float32], Tensor[(74, 7, 2), float32]) -> Tensor[(76, 7, 2), float32] /* ty=fn (Tensor[(2, 7, 2), float32], Tensor[(74, 7, 2), float32]) -> Tensor[(76, 7, 2), float32] span=from_string:92:105 */ = fn (%p013: Tensor[(2, 7, 2), float32] /* ty=Tensor[(2, 7, 2), float32] span=from_string:84:12 */, %p16: Tensor[(74, 7, 2), float32] /* ty=Tensor[(74, 7, 2), float32] span=from_string:84:19 */, Primitive=1) -> Tensor[(76, 7, 2), float32] {
    %25 = (%p013, %p16) /* ty=(Tensor[(2, 7, 2), float32], Tensor[(74, 7, 2), float32]) span=from_string:85:23 */;
    %26 = concatenate(%25) /* ty=Tensor[(76, 7, 2), float32] span=from_string:86:34 */;
    %27 = annotation.stop_fusion(%26) /* ty=Tensor[(76, 7, 2), float32] span=from_string:87:12 */;
    %28 = (%27,) /* ty=(Tensor[(76, 7, 2), float32],) span=from_string:88:23 */;
    %29 = concatenate(%28) /* ty=Tensor[(76, 7, 2), float32] span=from_string:89:17 */;
    %30 = rsqrt(%29) /* ty=Tensor[(76, 7, 2), float32] span=from_string:90:59 */;
    multiply(2f /* ty=float32 span=from_string:90:17 */, %30) /* ty=Tensor[(76, 7, 2), float32] span=from_string:84:5 */
  } /* ty=fn (Tensor[(2, 7, 2), float32], Tensor[(74, 7, 2), float32]) -> Tensor[(76, 7, 2), float32] span=from_string:83:3 */;
  let %x_37: Tensor[(76, 7, 2), float32] /* ty=Tensor[(76, 7, 2), float32] span=from_string:128:664 */ = %x_36(%x_31, %x5) /* ty=Tensor[(76, 7, 2), float32] span=from_string:92:105 */;
  let %x_38: fn (Tensor[(14, 2), float32], Tensor[(16, 2), float32], Tensor[(16), float32], Tensor[(1), float32]) -> Tensor[(14, 16), float16] /* ty=fn (Tensor[(14, 2), float32], Tensor[(16, 2), float32], Tensor[(16), float32], Tensor[(1), float32]) -> Tensor[(14, 16), float16] span=from_string:103:101 */ = fn (%p015: Tensor[(14, 2), float32] /* ty=Tensor[(14, 2), float32] span=from_string:94:16 */, %p17: Tensor[(16, 2), float32] /* ty=Tensor[(16, 2), float32] span=from_string:95:16 */, %p21: Tensor[(16), float32] /* ty=Tensor[(16), float32] span=from_string:96:16 */, %p3: Tensor[(1), float32] /* ty=Tensor[(1), float32] span=from_string:100:16 */, Primitive=1) -> Tensor[(14, 16), float16] {
    %31 = cast(%p015, dtype="float16") /* ty=Tensor[(14, 2), float16] span=from_string:97:20 */;
    %32 = cast(%p17, dtype="float16") /* ty=Tensor[(16, 2), float16] span=from_string:97:25 */;
    %33 = cast(%p21, dtype="float16") /* ty=Tensor[(16), float16] span=from_string:98:23 */;
    %34 = nn.dense(%31, %32, units=None, out_dtype="float16") /* ty=Tensor[(14, 16), float16] span=from_string:99:15 */;
    %35 = expand_dims(%33, axis=0) /* ty=Tensor[(1, 16), float16] span=from_string:99:20 */;
    %36 = add(%34, %35) /* ty=Tensor[(14, 16), float16] span=from_string:101:15 */;
    %37 = cast(%p3, dtype="float16") /* ty=Tensor[(1), float16] span=from_string:101:20 */;
    multiply(%36, %37) /* ty=Tensor[(14, 16), float16] span=from_string:94:5 */
  } /* ty=fn (Tensor[(14, 2), float32], Tensor[(16, 2), float32], Tensor[(16), float32], Tensor[(1), float32]) -> Tensor[(14, 16), float16] span=from_string:93:3 */;
  let %x_39: Tensor[(14, 16), float16] /* ty=Tensor[(14, 16), float16] span=from_string:104:106 */ = %x_38(%x2, %x6, %x7, %x8) /* ty=Tensor[(14, 16), float16] span=from_string:103:101 */;
  %38 = fn (%p014: Tensor[(14, 16), float16] /* ty=Tensor[(14, 16), float16] */, Primitive=1) -> Tensor[(14, 16), float32] {
    cast(%p014, dtype="float32") /* ty=Tensor[(14, 16), float32] span=from_string:104:101 */
  } /* ty=fn (Tensor[(14, 16), float16]) -> Tensor[(14, 16), float32] */;
  let %x_40: Tensor[(14, 16), float32] /* ty=Tensor[(14, 16), float32] span=from_string:109:113 */ = %38(%x_39) /* ty=Tensor[(14, 16), float32] */;
  let %x_41: fn (Tensor[(14, 16), float32]) -> Tensor[(1, 1, 224), float16] /* ty=fn (Tensor[(14, 16), float32]) -> Tensor[(1, 1, 224), float16] span=from_string:109:107 */ = fn (%p0141: Tensor[(14, 16), float32] /* ty=Tensor[(14, 16), float32] span=from_string:106:16 */, Primitive=1, relay.reshape_only=1) -> Tensor[(1, 1, 224), float16] {
    %39 = cast(%p0141, dtype="float16") /* ty=Tensor[(14, 16), float16] span=from_string:107:13 */;
    reshape(%39, newshape=[1, 1, 224]) /* ty=Tensor[(1, 1, 224), float16] span=from_string:106:5 */
  } /* ty=fn (Tensor[(14, 16), float32]) -> Tensor[(1, 1, 224), float16] span=from_string:105:3 */;
  let %x_42: Tensor[(1, 1, 224), float16] /* ty=Tensor[(1, 1, 224), float16] span=from_string:127:172 */ = %x_41(%x_40) /* ty=Tensor[(1, 1, 224), float16] span=from_string:109:107 */;
  let %x_43: fn (Tensor[(14, 2), float32], Tensor[(32, 2), float32], Tensor[(32), float32], Tensor[(1), float32]) -> Tensor[(14, 32), float16] /* ty=fn (Tensor[(14, 2), float32], Tensor[(32, 2), float32], Tensor[(32), float32], Tensor[(1), float32]) -> Tensor[(14, 32), float16] span=from_string:120:101 */ = fn (%p017: Tensor[(14, 2), float32] /* ty=Tensor[(14, 2), float32] span=from_string:111:16 */, %p18: Tensor[(32, 2), float32] /* ty=Tensor[(32, 2), float32] span=from_string:112:16 */, %p22: Tensor[(32), float32] /* ty=Tensor[(32), float32] span=from_string:113:16 */, %p31: Tensor[(1), float32] /* ty=Tensor[(1), float32] span=from_string:117:16 */, Primitive=1) -> Tensor[(14, 32), float16] {
    %40 = cast(%p017, dtype="float16") /* ty=Tensor[(14, 2), float16] span=from_string:114:20 */;
    %41 = cast(%p18, dtype="float16") /* ty=Tensor[(32, 2), float16] span=from_string:114:25 */;
    %42 = cast(%p22, dtype="float16") /* ty=Tensor[(32), float16] span=from_string:115:23 */;
    %43 = nn.dense(%40, %41, units=None, out_dtype="float16") /* ty=Tensor[(14, 32), float16] span=from_string:116:15 */;
    %44 = expand_dims(%42, axis=0) /* ty=Tensor[(1, 32), float16] span=from_string:116:20 */;
    %45 = add(%43, %44) /* ty=Tensor[(14, 32), float16] span=from_string:118:15 */;
    %46 = cast(%p31, dtype="float16") /* ty=Tensor[(1), float16] span=from_string:118:20 */;
    multiply(%45, %46) /* ty=Tensor[(14, 32), float16] span=from_string:111:5 */
  } /* ty=fn (Tensor[(14, 2), float32], Tensor[(32, 2), float32], Tensor[(32), float32], Tensor[(1), float32]) -> Tensor[(14, 32), float16] span=from_string:110:3 */;
  let %x_44: Tensor[(14, 32), float16] /* ty=Tensor[(14, 32), float16] span=from_string:121:106 */ = %x_43(%x2, %x9, %x10, %x11) /* ty=Tensor[(14, 32), float16] span=from_string:120:101 */;
  %47 = fn (%p016: Tensor[(14, 32), float16] /* ty=Tensor[(14, 32), float16] */, Primitive=1) -> Tensor[(14, 32), float32] {
    cast(%p016, dtype="float32") /* ty=Tensor[(14, 32), float32] span=from_string:121:101 */
  } /* ty=fn (Tensor[(14, 32), float16]) -> Tensor[(14, 32), float32] */;
  let %x_45: Tensor[(14, 32), float32] /* ty=Tensor[(14, 32), float32] span=from_string:126:113 */ = %47(%x_44) /* ty=Tensor[(14, 32), float32] */;
  let %x_46: fn (Tensor[(14, 32), float32]) -> Tensor[(1, 1, 448), float16] /* ty=fn (Tensor[(14, 32), float32]) -> Tensor[(1, 1, 448), float16] span=from_string:126:107 */ = fn (%p0161: Tensor[(14, 32), float32] /* ty=Tensor[(14, 32), float32] span=from_string:123:16 */, Primitive=1, relay.reshape_only=1) -> Tensor[(1, 1, 448), float16] {
    %48 = cast(%p0161, dtype="float16") /* ty=Tensor[(14, 32), float16] span=from_string:124:13 */;
    reshape(%48, newshape=[1, 1, 448]) /* ty=Tensor[(1, 1, 448), float16] span=from_string:123:5 */
  } /* ty=fn (Tensor[(14, 32), float32]) -> Tensor[(1, 1, 448), float16] span=from_string:122:3 */;
  let %x_47: Tensor[(1, 1, 448), float16] /* ty=Tensor[(1, 1, 448), float16] span=from_string:127:179 */ = %x_46(%x_45) /* ty=Tensor[(1, 1, 448), float16] span=from_string:126:107 */;
  let %x_48: (Tensor[(1, 1, 224), float16], Tensor[(1, 1, 448), float16]) /* ty=(Tensor[(1, 1, 224), float16], Tensor[(1, 1, 448), float16]) span=from_string:128:671 */ = (%x_42, %x_47) /* ty=(Tensor[(1, 1, 224), float16], Tensor[(1, 1, 448), float16]) span=from_string:127:171 */;
  let %x_49: (Tensor[(4, 7), float16], (Tensor[(2, 7, 2), float16], (Tensor[(2, 7, 2), float16],)), Tensor[(2, 7, 2), float16], Tensor[(6, 2), float32], Tensor[(2, 7, 2), float32], Tensor[(2, 7, 2), float32], Tensor[(76, 7, 2), float32], (Tensor[(1, 1, 224), float16], Tensor[(1, 1, 448), float16])) /* ty=(Tensor[(4, 7), float16], (Tensor[(2, 7, 2), float16], (Tensor[(2, 7, 2), float16],)), Tensor[(2, 7, 2), float16], Tensor[(6, 2), float32], Tensor[(2, 7, 2), float32], Tensor[(2, 7, 2), float32], Tensor[(76, 7, 2), float32], (Tensor[(1, 1, 224), float16], Tensor[(1, 1, 448), float16])) span=from_string:129:3 */ = (%x_1, %x_23, %x_25, %x_28, %x_33, %x_35, %x_37, %x_48) /* ty=(Tensor[(4, 7), float16], (Tensor[(2, 7, 2), float16], (Tensor[(2, 7, 2), float16],)), Tensor[(2, 7, 2), float16], Tensor[(6, 2), float32], Tensor[(2, 7, 2), float32], Tensor[(2, 7, 2), float32], Tensor[(76, 7, 2), float32], (Tensor[(1, 1, 224), float16], Tensor[(1, 1, 448), float16])) span=from_string:128:622 */;
  %x_49
}

#[metadata]
{
  "root": 1, 
  "nodes": [
    {
      "type_key": ""
    }, 
    {
      "type_key": "Map", 
      "keys": [
        "relay.attrs.InitOpAttrs", 
        "relay.Constant"
      ], 
      "data": [2, 10]
    }, 
    {
      "type_key": "Array", 
      "data": [3, 8]
    }, 
    {
      "type_key": "relay.attrs.InitOpAttrs", 
      "attrs": {
        "dtype": "", 
        "shape": "4"
      }
    }, 
    {
      "type_key": "Array", 
      "data": [5, 6, 7]
    }, 
    {
      "type_key": "IntImm", 
      "attrs": {
        "dtype": "int32", 
        "span": "0", 
        "value": "2"
      }
    }, 
    {
      "type_key": "IntImm", 
      "attrs": {
        "dtype": "int32", 
        "span": "0", 
        "value": "7"
      }
    }, 
    {
      "type_key": "IntImm", 
      "attrs": {
        "dtype": "int32", 
        "span": "0", 
        "value": "2"
      }
    }, 
    {
      "type_key": "relay.attrs.InitOpAttrs", 
      "attrs": {
        "dtype": "", 
        "shape": "9"
      }
    }, 
    {
      "type_key": "Array", 
      "data": [5, 6, 7]
    }, 
    {
      "type_key": "Array", 
      "data": [11, 19, 24]
    }, 
    {
      "type_key": "relay.Constant", 
      "attrs": {
        "_checked_type_": "16", 
        "data": "0", 
        "span": "14", 
        "virtual_device_": "12"
      }
    }, 
    {
      "type_key": "VirtualDevice", 
      "attrs": {
        "device_type_int": "-1", 
        "memory_scope": "13", 
        "target": "0", 
        "virtual_device_id": "-1"
      }
    }, 
    {
      "type_key": "runtime.String"
    }, 
    {
      "type_key": "Span", 
      "attrs": {
        "column": "30", 
        "end_column": "48", 
        "end_line": "28", 
        "line": "28", 
        "source_name": "15"
      }
    }, 
    {
      "type_key": "SourceName", 
      "repr_str": "from_string"
    }, 
    {
      "type_key": "relay.TensorType", 
      "attrs": {
        "dtype": "int32", 
        "shape": "17", 
        "span": "0"
      }
    }, 
    {
      "type_key": "Array", 
      "data": [18]
    }, 
    {
      "type_key": "IntImm", 
      "attrs": {
        "dtype": "int32", 
        "span": "0", 
        "value": "3"
      }
    }, 
    {
      "type_key": "relay.Constant", 
      "attrs": {
        "_checked_type_": "21", 
        "data": "1", 
        "span": "20", 
        "virtual_device_": "12"
      }
    }, 
    {
      "type_key": "Span", 
      "attrs": {
        "column": "30", 
        "end_column": "48", 
        "end_line": "41", 
        "line": "41", 
        "source_name": "15"
      }
    }, 
    {
      "type_key": "relay.TensorType", 
      "attrs": {
        "dtype": "int32", 
        "shape": "22", 
        "span": "0"
      }
    }, 
    {
      "type_key": "Array", 
      "data": [23]
    }, 
    {
      "type_key": "IntImm", 
      "attrs": {
        "dtype": "int32", 
        "span": "0", 
        "value": "3"
      }
    }, 
    {
      "type_key": "relay.Constant", 
      "attrs": {
        "_checked_type_": "28", 
        "data": "2", 
        "span": "27", 
        "virtual_device_": "25"
      }
    }, 
    {
      "type_key": "VirtualDevice", 
      "attrs": {
        "device_type_int": "-1", 
        "memory_scope": "26", 
        "target": "0", 
        "virtual_device_id": "-1"
      }
    }, 
    {
      "type_key": "runtime.String"
    }, 
    {
      "type_key": "Span", 
      "attrs": {
        "column": "93", 
        "end_column": "111", 
        "end_line": "58", 
        "line": "58", 
        "source_name": "15"
      }
    }, 
    {
      "type_key": "relay.TensorType", 
      "attrs": {
        "dtype": "int32", 
        "shape": "29", 
        "span": "0"
      }
    }, 
    {
      "type_key": "Array", 
      "data": [30]
    }, 
    {
      "type_key": "IntImm", 
      "attrs": {
        "dtype": "int32", 
        "span": "0", 
        "value": "2"
      }
    }
  ], 
  "b64ndarrays": [
    "P6G0lvBAXt0AAAAAAAAAAAEAAAAAAAAAAQAAAAAgAQADAAAAAAAAAAwAAAAAAAAAAgAAAAcAAAACAAAA", 
    "P6G0lvBAXt0AAAAAAAAAAAEAAAAAAAAAAQAAAAAgAQADAAAAAAAAAAwAAAAAAAAAAgAAAAcAAAACAAAA", 
    "P6G0lvBAXt0AAAAAAAAAAAEAAAAAAAAAAQAAAAAgAQACAAAAAAAAAAgAAAAAAAAABAAAAAcAAAA="
  ], 
  "attrs": {"tvm_version": "0.13.0"}
}