#[version = "0.0.5"]
def @main(%x0: Tensor[(4, 7), float32] /* ty=Tensor[(4, 7), float32] span=from_string:83:12 */, %x1: Tensor[(2, 7, 2), float32] /* ty=Tensor[(2, 7, 2), float32] span=from_string:29:13 */, %x2: Tensor[(14, 2), float32] /* ty=Tensor[(14, 2), float32] span=from_string:77:13 */, %x3: int32 /* ty=int32 span=from_string:86:89 */, %x4: int32 /* ty=int32 span=from_string:86:94 */, %x5: Tensor[(74, 7, 2), float32] /* ty=Tensor[(74, 7, 2), float32] span=from_string:89:18 */, %x6: Tensor[(16, 2), float32] /* ty=Tensor[(16, 2), float32] span=from_string:67:18 */, %x7: Tensor[(16), float32] /* ty=Tensor[(16), float32] span=from_string:67:23 */, %x8: Tensor[(1), float32] /* ty=Tensor[(1), float32] span=from_string:67:28 */, %x9: Tensor[(32, 2), float32] /* ty=Tensor[(32, 2), float32] span=from_string:77:18 */, %x10: Tensor[(32), float32] /* ty=Tensor[(32), float32] span=from_string:77:23 */, %x11: Tensor[(1), float32] /* ty=Tensor[(1), float32] span=from_string:77:29 */) -> (Tensor[(4, 7), float32], (Tensor[(2, 7, 2), float32], (Tensor[(2, 7, 2), float32],)), Tensor[(2, 7, 2), float32], Tensor[(6, 2), float32], Tensor[(2, 7, 2), float32], Tensor[(2, 7, 2), float32], Tensor[(76, 7, 2), float32], (Tensor[(1, 1, 224), float32], Tensor[(1, 1, 448), float32])) {
  %3 = fn (%p02: Tensor[(4, 7), float32] /* ty=Tensor[(4, 7), float32] span=from_string:12:18 */, Primitive=1, relay.reshape_only=1) -> Tensor[(4, 7), float32] {
    %0 = reshape(%p02, newshape=[2, 7, 2]) /* ty=Tensor[(2, 7, 2), float32] span=from_string:13:18 */;
    %1 = reshape(%0, newshape=[4, 7]) /* ty=Tensor[(4, 7), float32] span=from_string:14:18 */;
    %2 = reshape(%1, newshape=[2, 7, 2]) /* ty=Tensor[(2, 7, 2), float32] span=from_string:15:13 */;
    reshape(%2, newshape=[4, 7]) /* ty=Tensor[(4, 7), float32] span=from_string:12:5 */
  } /* ty=fn (Tensor[(4, 7), float32]) -> Tensor[(4, 7), float32] span=from_string:83:9 */;
  %4 = fn (%p0: Tensor[(2, 7, 2), float32] /* ty=Tensor[(2, 7, 2), float32] span=from_string:4:20 */, Primitive=1) -> Tensor[(2, 7, 2), float32] {
    multiply(%p0, %p0) /* ty=Tensor[(2, 7, 2), float32] span=from_string:4:6 */
  } /* ty=fn (Tensor[(2, 7, 2), float32]) -> Tensor[(2, 7, 2), float32] span=from_string:6:101 */;
  %6 = %4(%x1) /* ty=Tensor[(2, 7, 2), float32] span=from_string:6:101 */;
  %7 = fn (%p01: Tensor[(2, 7, 2), float32] /* ty=Tensor[(2, 7, 2), float32] span=from_string:8:15 */, Primitive=1) -> Tensor[(2, 7, 2), float32] {
    ones_like(%p01) /* ty=Tensor[(2, 7, 2), float32] span=from_string:8:5 */
  } /* ty=fn (Tensor[(2, 7, 2), float32]) -> Tensor[(2, 7, 2), float32] span=from_string:10:100 */;
  %8 = %7(%6) /* ty=Tensor[(2, 7, 2), float32] span=from_string:10:100 */;
  %9 = fn (%p06: Tensor[(2, 7, 2), float32] /* ty=Tensor[(2, 7, 2), float32] span=from_string:18:15 */, %p13: Tensor[(2, 7, 2), float32] /* ty=Tensor[(2, 7, 2), float32] span=from_string:18:21 */, Primitive=1) -> Tensor[(2, 7, 2), float32] {
    multiply(%p06, %p13) /* ty=Tensor[(2, 7, 2), float32] span=from_string:18:6 */
  } /* ty=fn (Tensor[(2, 7, 2), float32], Tensor[(2, 7, 2), float32]) -> Tensor[(2, 7, 2), float32] span=from_string:20:8 */;
  %10 = %9(%8, %x1) /* ty=Tensor[(2, 7, 2), float32] span=from_string:88:13 */;
  %11 = fn (%p05: Tensor[(2, 7, 2), float32] /* ty=Tensor[(2, 7, 2), float32] span=from_string:22:23 */, %p12: Tensor[(2, 7, 2), float32] /* ty=Tensor[(2, 7, 2), float32] span=from_string:22:29 */, Primitive=1) -> Tensor[(2, 7, 2), float32] {
    collapse_sum_like(%p05, %p12) /* ty=Tensor[(2, 7, 2), float32] span=from_string:22:5 */
  } /* ty=fn (Tensor[(2, 7, 2), float32], Tensor[(2, 7, 2), float32]) -> Tensor[(2, 7, 2), float32] span=from_string:24:9 */;
  %12 = %11(%10, %x1) /* ty=Tensor[(2, 7, 2), float32] span=from_string:85:13 */;
  %13 = fn (%p04: Tensor[(2, 7, 2), float32] /* ty=Tensor[(2, 7, 2), float32] span=from_string:26:21 */, %p11: Tensor[(2, 7, 2), float32] /* ty=Tensor[(2, 7, 2), float32] span=from_string:27:13 */, Primitive=1) -> Tensor[(2, 7, 2), float32] {
    %5 = zeros_like(%p04) /* ty=Tensor[(2, 7, 2), float32] span=from_string:27:9 */;
    add(%5, %p11) /* ty=Tensor[(2, 7, 2), float32] span=from_string:26:5 */
  } /* ty=fn (Tensor[(2, 7, 2), float32], Tensor[(2, 7, 2), float32]) -> Tensor[(2, 7, 2), float32] span=from_string:29:9 */;
  %14 = %13(%x1, %12) /* ty=Tensor[(2, 7, 2), float32] span=from_string:45:13 */;
  %15 = fn (%p03: Tensor[(2, 7, 2), float32] /* ty=Tensor[(2, 7, 2), float32] span=from_string:31:9 */, %p1: Tensor[(2, 7, 2), float32] /* ty=Tensor[(2, 7, 2), float32] span=from_string:31:15 */, Primitive=1) -> Tensor[(2, 7, 2), float32] {
    add(%p03, %p1) /* ty=Tensor[(2, 7, 2), float32] span=from_string:31:5 */
  } /* ty=fn (Tensor[(2, 7, 2), float32], Tensor[(2, 7, 2), float32]) -> Tensor[(2, 7, 2), float32] span=from_string:33:9 */;
  %16 = %15(%14, %12) /* ty=Tensor[(2, 7, 2), float32] span=from_string:34:10 */;
  %17 = (%16,) /* ty=(Tensor[(2, 7, 2), float32],) span=from_string:84:16 */;
  %19 = fn (%p07: Tensor[(2, 7, 2), float32] /* ty=Tensor[(2, 7, 2), float32] span=from_string:36:19 */, Primitive=1, relay.reshape_only=1) -> Tensor[(2, 7, 2), float32] {
    %18 = reshape(%p07, newshape=[14, 2]) /* ty=Tensor[(14, 2), float32] span=from_string:37:13 */;
    reshape(%18, newshape=[2, 7, 2]) /* ty=Tensor[(2, 7, 2), float32] span=from_string:36:5 */
  } /* ty=fn (Tensor[(2, 7, 2), float32]) -> Tensor[(2, 7, 2), float32] span=from_string:85:9 */;
  %20 = fn (%p08: Tensor[(2), int32] /* ty=Tensor[(2), int32] span=from_string:40:13 */, %p14: int32 /* ty=int32 span=from_string:40:19 */, %p2: int32 /* ty=int32 span=from_string:40:25 */, Primitive=1) -> Tensor[(6, 2), float32] {
    one_hot(%p08, %p14, %p2, depth=6, axis=0, dtype="float32") /* ty=Tensor[(6, 2), float32] span=from_string:40:5 */
  } /* ty=fn (Tensor[(2), int32], int32, int32) -> Tensor[(6, 2), float32] span=from_string:86:9 */;
  %22 = fn (%p010: Tensor[(2, 7, 2), float32] /* ty=Tensor[(2, 7, 2), float32] span=from_string:43:9 */, Primitive=1) -> Tensor[(2, 7, 2), float32] {
    add(%p010, 1f /* ty=float32 span=from_string:43:18 */) /* ty=Tensor[(2, 7, 2), float32] span=from_string:43:5 */
  } /* ty=fn (Tensor[(2, 7, 2), float32]) -> Tensor[(2, 7, 2), float32] span=from_string:45:9 */;
  %23 = %22(%14) /* ty=Tensor[(2, 7, 2), float32] span=from_string:89:13 */;
  %24 = fn (%p09: Tensor[(2, 7, 2), float32] /* ty=Tensor[(2, 7, 2), float32] span=from_string:47:15 */, Primitive=1) -> Tensor[(2, 7, 2), float32] {
    %21 = exp(%p09) /* ty=Tensor[(2, 7, 2), float32] span=from_string:48:20 */;
    multiply(%21, %21) /* ty=Tensor[(2, 7, 2), float32] span=from_string:47:5 */
  } /* ty=fn (Tensor[(2, 7, 2), float32]) -> Tensor[(2, 7, 2), float32] span=from_string:87:9 */;
  %27 = fn (%p011: Tensor[(2, 7, 2), float32] /* ty=Tensor[(2, 7, 2), float32] span=from_string:51:15 */, Primitive=1) -> Tensor[(2, 7, 2), float32] {
    %25 = add(%p011, 1f /* ty=float32 span=from_string:51:24 */) /* ty=Tensor[(2, 7, 2), float32] span=from_string:52:15 */;
    %26 = exp(%25) /* ty=Tensor[(2, 7, 2), float32] span=from_string:53:13 */;
    squeeze(%26) /* ty=Tensor[(2, 7, 2), float32] span=from_string:51:5 */
  } /* ty=fn (Tensor[(2, 7, 2), float32]) -> Tensor[(2, 7, 2), float32] span=from_string:88:9 */;
  %31 = fn (%p012: Tensor[(2, 7, 2), float32] /* ty=Tensor[(2, 7, 2), float32] span=from_string:56:12 */, %p15: Tensor[(74, 7, 2), float32] /* ty=Tensor[(74, 7, 2), float32] span=from_string:56:19 */, Primitive=1) -> Tensor[(76, 7, 2), float32] {
    %28 = (%p012, %p15) /* ty=(Tensor[(2, 7, 2), float32], Tensor[(74, 7, 2), float32]) span=from_string:57:23 */;
    %29 = concatenate(%28) /* ty=Tensor[(76, 7, 2), float32] span=from_string:58:16 */;
    %30 = sqrt(%29) /* ty=Tensor[(76, 7, 2), float32] span=from_string:59:56 */;
    divide(2f /* ty=float32 span=from_string:59:14 */, %30) /* ty=Tensor[(76, 7, 2), float32] span=from_string:56:5 */
  } /* ty=fn (Tensor[(2, 7, 2), float32], Tensor[(74, 7, 2), float32]) -> Tensor[(76, 7, 2), float32] span=from_string:89:9 */;
  %35 = fn (%p014: Tensor[(14, 2), float32] /* ty=Tensor[(14, 2), float32] span=from_string:62:20 */, %p16: Tensor[(16, 2), float32] /* ty=Tensor[(16, 2), float32] span=from_string:62:27 */, %p21: Tensor[(16), float32] /* ty=Tensor[(16), float32] span=from_string:63:23 */, %p3: Tensor[(1), float32] /* ty=Tensor[(1), float32] span=from_string:65:20 */, Primitive=1) -> Tensor[(14, 16), float32] {
    %32 = nn.dense(%p014, %p16, units=None) /* ty=Tensor[(14, 16), float32] span=from_string:64:15 */;
    %33 = expand_dims(%p21, axis=0) /* ty=Tensor[(1, 16), float32] span=from_string:64:20 */;
    %34 = add(%32, %33) /* ty=Tensor[(14, 16), float32] span=from_string:65:15 */;
    multiply(%34, %p3) /* ty=Tensor[(14, 16), float32] span=from_string:62:5 */
  } /* ty=fn (Tensor[(14, 2), float32], Tensor[(16, 2), float32], Tensor[(16), float32], Tensor[(1), float32]) -> Tensor[(14, 16), float32] span=from_string:67:9 */;
  %36 = %35(%x2, %x6, %x7, %x8) /* ty=Tensor[(14, 16), float32] span=from_string:81:13 */;
  %37 = fn (%p013: Tensor[(14, 16), float32] /* ty=Tensor[(14, 16), float32] span=from_string:69:13 */, Primitive=1, relay.reshape_only=1) -> Tensor[(1, 1, 224), float32] {
    reshape(%p013, newshape=[1, 1, 224]) /* ty=Tensor[(1, 1, 224), float32] span=from_string:69:5 */
  } /* ty=fn (Tensor[(14, 16), float32]) -> Tensor[(1, 1, 224), float32] span=from_string:81:9 */;
  %41 = fn (%p016: Tensor[(14, 2), float32] /* ty=Tensor[(14, 2), float32] span=from_string:72:20 */, %p17: Tensor[(32, 2), float32] /* ty=Tensor[(32, 2), float32] span=from_string:72:27 */, %p22: Tensor[(32), float32] /* ty=Tensor[(32), float32] span=from_string:73:23 */, %p31: Tensor[(1), float32] /* ty=Tensor[(1), float32] span=from_string:75:20 */, Primitive=1) -> Tensor[(14, 32), float32] {
    %38 = nn.dense(%p016, %p17, units=None) /* ty=Tensor[(14, 32), float32] span=from_string:74:15 */;
    %39 = expand_dims(%p22, axis=0) /* ty=Tensor[(1, 32), float32] span=from_string:74:20 */;
    %40 = add(%38, %39) /* ty=Tensor[(14, 32), float32] span=from_string:75:15 */;
    multiply(%40, %p31) /* ty=Tensor[(14, 32), float32] span=from_string:72:5 */
  } /* ty=fn (Tensor[(14, 2), float32], Tensor[(32, 2), float32], Tensor[(32), float32], Tensor[(1), float32]) -> Tensor[(14, 32), float32] span=from_string:77:9 */;
  %42 = %41(%x2, %x9, %x10, %x11) /* ty=Tensor[(14, 32), float32] span=from_string:82:13 */;
  %43 = fn (%p015: Tensor[(14, 32), float32] /* ty=Tensor[(14, 32), float32] span=from_string:79:13 */, Primitive=1, relay.reshape_only=1) -> Tensor[(1, 1, 448), float32] {
    reshape(%p015, newshape=[1, 1, 448]) /* ty=Tensor[(1, 1, 448), float32] span=from_string:79:5 */
  } /* ty=fn (Tensor[(14, 32), float32]) -> Tensor[(1, 1, 448), float32] span=from_string:82:9 */;
  %44 = %37(%36) /* ty=Tensor[(1, 1, 224), float32] span=from_string:90:10 */;
  %45 = %43(%42) /* ty=Tensor[(1, 1, 448), float32] span=from_string:90:15 */;
  %46 = %3(%x0) /* ty=Tensor[(4, 7), float32] span=from_string:91:4 */;
  %47 = (%6, %17) /* ty=(Tensor[(2, 7, 2), float32], (Tensor[(2, 7, 2), float32],)) span=from_string:91:9 */;
  %48 = %19(%12) /* ty=Tensor[(2, 7, 2), float32] span=from_string:91:14 */;
  %49 = %20(meta[relay.Constant][0] /* ty=Tensor[(2), int32] span=from_string:86:18 */, %x3, %x4) /* ty=Tensor[(6, 2), float32] span=from_string:91:19 */;
  %50 = %24(%23) /* ty=Tensor[(2, 7, 2), float32] span=from_string:91:24 */;
  %51 = %27(%10) /* ty=Tensor[(2, 7, 2), float32] span=from_string:91:29 */;
  %52 = %31(%23, %x5) /* ty=Tensor[(76, 7, 2), float32] span=from_string:91:34 */;
  %53 = (%44, %45) /* ty=(Tensor[(1, 1, 224), float32], Tensor[(1, 1, 448), float32]) span=from_string:91:39 */;
  (%46, %47, %48, %49, %50, %51, %52, %53) /* ty=(Tensor[(4, 7), float32], (Tensor[(2, 7, 2), float32], (Tensor[(2, 7, 2), float32],)), Tensor[(2, 7, 2), float32], Tensor[(6, 2), float32], Tensor[(2, 7, 2), float32], Tensor[(2, 7, 2), float32], Tensor[(76, 7, 2), float32], (Tensor[(1, 1, 224), float32], Tensor[(1, 1, 448), float32])) span=from_string:91:3 */
}

#[metadata]
{
  "root": 1, 
  "nodes": [
    {
      "type_key": ""
    }, 
    {
      "type_key": "Map", 
      "keys": [
        "relay.Constant"
      ], 
      "data": [2]
    }, 
    {
      "type_key": "Array", 
      "data": [3]
    }, 
    {
      "type_key": "relay.Constant", 
      "attrs": {
        "_checked_type_": "8", 
        "data": "0", 
        "span": "6", 
        "virtual_device_": "4"
      }
    }, 
    {
      "type_key": "VirtualDevice", 
      "attrs": {
        "device_type_int": "-1", 
        "memory_scope": "5", 
        "target": "0", 
        "virtual_device_id": "-1"
      }
    }, 
    {
      "type_key": "runtime.String"
    }, 
    {
      "type_key": "Span", 
      "attrs": {
        "column": "18", 
        "end_column": "36", 
        "end_line": "86", 
        "line": "86", 
        "source_name": "7"
      }
    }, 
    {
      "type_key": "SourceName", 
      "repr_str": "from_string"
    }, 
    {
      "type_key": "relay.TensorType", 
      "attrs": {
        "dtype": "int32", 
        "shape": "9", 
        "span": "0"
      }
    }, 
    {
      "type_key": "Array", 
      "data": [10]
    }, 
    {
      "type_key": "IntImm", 
      "attrs": {
        "dtype": "int32", 
        "span": "0", 
        "value": "2"
      }
    }
  ], 
  "b64ndarrays": [
    "P6G0lvBAXt0AAAAAAAAAAAEAAAAAAAAAAQAAAAAgAQACAAAAAAAAAAgAAAAAAAAABAAAAAcAAAA="
  ], 
  "attrs": {"tvm_version": "0.13.0"}
}