#[version = "0.0.5"]
def @main(%x0: Tensor[(4, 7), float32] /* ty=Tensor[(4, 7), float32] span=from_string:3:13 */, %x1: Tensor[(2, 7, 2), float32] /* ty=Tensor[(2, 7, 2), float32] span=from_string:7:13 */, %x2: Tensor[(14, 2), float32] /* ty=Tensor[(14, 2), float32] span=from_string:32:14 */, %x3: int32 /* ty=int32 span=from_string:52:93 */, %x4: int32 /* ty=int32 span=from_string:52:98 */, %x5: Tensor[(74, 7, 2), float32] /* ty=Tensor[(74, 7, 2), float32] span=from_string:29:15 */, %x6: Tensor[(16, 2), float32] /* ty=Tensor[(16, 2), float32] span=from_string:33:14 */, %x7: Tensor[(16), float32] /* ty=Tensor[(16), float32] span=from_string:34:14 */, %x8: Tensor[(1), float32] /* ty=Tensor[(1), float32] span=from_string:38:14 */, %x9: Tensor[(32, 2), float32] /* ty=Tensor[(32, 2), float32] span=from_string:40:14 */, %x10: Tensor[(32), float32] /* ty=Tensor[(32), float32] span=from_string:41:14 */, %x11: Tensor[(1), float32] /* ty=Tensor[(1), float32] span=from_string:45:14 */) -> (Tensor[(4, 7), float16], (Tensor[(2, 7, 2), float16], (Tensor[(2, 7, 2), float16],)), Tensor[(2, 7, 2), float16], Tensor[(6, 2), float32], Tensor[(2, 7, 2), float32], Tensor[(2, 7, 2), float32], Tensor[(76, 7, 2), float32], (Tensor[(1, 1, 224), float16], Tensor[(1, 1, 448), float16])) {
  %0 = cast(%x0, dtype="float16") /* ty=Tensor[(4, 7), float16] span=from_string:4:16 */;
  %1 = reshape(%0, newshape=[2, 7, 2]) /* ty=Tensor[(2, 7, 2), float16] span=from_string:5:16 */;
  %2 = reshape(%1, newshape=[4, 7]) /* ty=Tensor[(4, 7), float16] span=from_string:6:16 */;
  %3 = reshape(%2, newshape=[2, 7, 2]) /* ty=Tensor[(2, 7, 2), float16] span=from_string:49:17 */;
  %4 = cast(%x1, dtype="float16") /* ty=Tensor[(2, 7, 2), float16] span=from_string:15:32 */;
  %5 = multiply(%4, %4) /* ty=Tensor[(2, 7, 2), float16] span=from_string:50:10 */;
  %6 = ones_like(%5) /* ty=Tensor[(2, 7, 2), float16] span=from_string:13:19 */;
  %7 = multiply(%6, %4) /* ty=Tensor[(2, 7, 2), float16] span=from_string:25:13 */;
  %8 = zeros_like(%4) /* ty=Tensor[(2, 7, 2), float16] span=from_string:14:13 */;
  %9 = collapse_sum_like(%7, %4) /* ty=Tensor[(2, 7, 2), float16] span=from_string:18:17 */;
  %10 = multiply(%6, %4) /* ty=Tensor[(2, 7, 2), float16] span=from_string:15:27 */;
  %11 = add(%8, %9) /* ty=Tensor[(2, 7, 2), float16] span=from_string:20:13 */;
  %12 = collapse_sum_like(%10, %4) /* ty=Tensor[(2, 7, 2), float16] span=from_string:16:18 */;
  %13 = add(%11, %12) /* ty=Tensor[(2, 7, 2), float16] span=from_string:17:10 */;
  %14 = (%13,) /* ty=(Tensor[(2, 7, 2), float16],) span=from_string:50:14 */;
  %15 = reshape(%9, newshape=[14, 2]) /* ty=Tensor[(14, 2), float16] span=from_string:51:17 */;
  %16 = cast(1f /* ty=float32 span=from_string:19:16 */, dtype="float16") /* ty=float16 span=from_string:20:18 */;
  %17 = add(%11, %16) /* ty=Tensor[(2, 7, 2), float16] span=from_string:21:32 */;
  %18 = annotation.stop_fusion(%17) /* ty=Tensor[(2, 7, 2), float16] span=from_string:28:14 */;
  %19 = cast(%18, dtype="float32") /* ty=Tensor[(2, 7, 2), float32] span=from_string:23:13 */;
  %20 = exp(%19) /* ty=Tensor[(2, 7, 2), float32] span=from_string:53:24 */;
  %21 = cast(1f /* ty=float32 span=from_string:24:16 */, dtype="float16") /* ty=float16 span=from_string:25:17 */;
  %22 = add(%7, %21) /* ty=Tensor[(2, 7, 2), float16] span=from_string:26:14 */;
  %23 = cast(%22, dtype="float32") /* ty=Tensor[(2, 7, 2), float32] span=from_string:27:13 */;
  %24 = exp(%23) /* ty=Tensor[(2, 7, 2), float32] span=from_string:54:17 */;
  %25 = cast(%18, dtype="float32") /* ty=Tensor[(2, 7, 2), float32] span=from_string:29:10 */;
  %26 = (%25, %x5) /* ty=(Tensor[(2, 7, 2), float32], Tensor[(74, 7, 2), float32]) span=from_string:30:21 */;
  %27 = concatenate(%26) /* ty=Tensor[(76, 7, 2), float32] */;
  %28 = annotation.stop_fusion(%27) /* ty=Tensor[(76, 7, 2), float32] */;
  %29 = (%28,) /* ty=(Tensor[(76, 7, 2), float32],) span=from_string:30:21 */;
  %30 = concatenate(%29) /* ty=Tensor[(76, 7, 2), float32] */;
  %31 = sqrt(%30) /* ty=Tensor[(76, 7, 2), float32] span=from_string:55:60 */;
  %32 = cast(%x2, dtype="float16") /* ty=Tensor[(14, 2), float16] span=from_string:42:18 */;
  %33 = cast(%x6, dtype="float16") /* ty=Tensor[(16, 2), float16] span=from_string:35:23 */;
  %34 = cast(%x7, dtype="float16") /* ty=Tensor[(16), float16] span=from_string:36:21 */;
  %35 = nn.dense(%32, %33, units=None, out_dtype="float16") /* ty=Tensor[(14, 16), float16] span=from_string:37:13 */;
  %36 = expand_dims(%34, axis=0) /* ty=Tensor[(1, 16), float16] span=from_string:37:18 */;
  %37 = add(%35, %36) /* ty=Tensor[(14, 16), float16] span=from_string:39:19 */;
  %38 = cast(%x8, dtype="float16") /* ty=Tensor[(1), float16] span=from_string:39:24 */;
  %39 = multiply(%37, %38) /* ty=Tensor[(14, 16), float16] span=from_string:47:17 */;
  %40 = cast(%x9, dtype="float16") /* ty=Tensor[(32, 2), float16] span=from_string:42:23 */;
  %41 = cast(%x10, dtype="float16") /* ty=Tensor[(32), float16] span=from_string:43:21 */;
  %42 = nn.dense(%32, %40, units=None, out_dtype="float16") /* ty=Tensor[(14, 32), float16] span=from_string:44:13 */;
  %43 = expand_dims(%41, axis=0) /* ty=Tensor[(1, 32), float16] span=from_string:44:18 */;
  %44 = add(%42, %43) /* ty=Tensor[(14, 32), float16] span=from_string:46:19 */;
  %45 = cast(%x11, dtype="float16") /* ty=Tensor[(1), float16] span=from_string:46:24 */;
  %46 = multiply(%44, %45) /* ty=Tensor[(14, 32), float16] span=from_string:48:17 */;
  %47 = reshape(%39, newshape=[1, 1, 224]) /* ty=Tensor[(1, 1, 224), float16] span=from_string:56:10 */;
  %48 = reshape(%46, newshape=[1, 1, 448]) /* ty=Tensor[(1, 1, 448), float16] span=from_string:56:15 */;
  %49 = reshape(%3, newshape=[4, 7]) /* ty=Tensor[(4, 7), float16] span=from_string:57:4 */;
  %50 = (%5, %14) /* ty=(Tensor[(2, 7, 2), float16], (Tensor[(2, 7, 2), float16],)) span=from_string:57:9 */;
  %51 = reshape(%15, newshape=[2, 7, 2]) /* ty=Tensor[(2, 7, 2), float16] span=from_string:57:14 */;
  %52 = one_hot(meta[relay.Constant][0] /* ty=Tensor[(2), int32] span=from_string:52:22 */, %x3, %x4, depth=6, axis=0, dtype="float32") /* ty=Tensor[(6, 2), float32] span=from_string:57:19 */;
  %53 = multiply(%20, %20) /* ty=Tensor[(2, 7, 2), float32] span=from_string:57:24 */;
  %54 = squeeze(%24) /* ty=Tensor[(2, 7, 2), float32] span=from_string:57:29 */;
  %55 = divide(2f /* ty=float32 span=from_string:55:18 */, %31) /* ty=Tensor[(76, 7, 2), float32] span=from_string:57:34 */;
  %56 = (%47, %48) /* ty=(Tensor[(1, 1, 224), float16], Tensor[(1, 1, 448), float16]) span=from_string:57:39 */;
  (%49, %50, %51, %52, %53, %54, %55, %56) /* ty=(Tensor[(4, 7), float16], (Tensor[(2, 7, 2), float16], (Tensor[(2, 7, 2), float16],)), Tensor[(2, 7, 2), float16], Tensor[(6, 2), float32], Tensor[(2, 7, 2), float32], Tensor[(2, 7, 2), float32], Tensor[(76, 7, 2), float32], (Tensor[(1, 1, 224), float16], Tensor[(1, 1, 448), float16])) span=from_string:3:3 */
}

#[metadata]
{
  "root": 1, 
  "nodes": [
    {
      "type_key": ""
    }, 
    {
      "type_key": "Map", 
      "keys": [
        "relay.Constant"
      ], 
      "data": [2]
    }, 
    {
      "type_key": "Array", 
      "data": [3]
    }, 
    {
      "type_key": "relay.Constant", 
      "attrs": {
        "_checked_type_": "8", 
        "data": "0", 
        "span": "6", 
        "virtual_device_": "4"
      }
    }, 
    {
      "type_key": "VirtualDevice", 
      "attrs": {
        "device_type_int": "-1", 
        "memory_scope": "5", 
        "target": "0", 
        "virtual_device_id": "-1"
      }
    }, 
    {
      "type_key": "runtime.String"
    }, 
    {
      "type_key": "Span", 
      "attrs": {
        "column": "22", 
        "end_column": "40", 
        "end_line": "52", 
        "line": "52", 
        "source_name": "7"
      }
    }, 
    {
      "type_key": "SourceName", 
      "repr_str": "from_string"
    }, 
    {
      "type_key": "relay.TensorType", 
      "attrs": {
        "dtype": "int32", 
        "shape": "9", 
        "span": "0"
      }
    }, 
    {
      "type_key": "Array", 
      "data": [10]
    }, 
    {
      "type_key": "IntImm", 
      "attrs": {
        "dtype": "int32", 
        "span": "0", 
        "value": "2"
      }
    }
  ], 
  "b64ndarrays": [
    "P6G0lvBAXt0AAAAAAAAAAAEAAAAAAAAAAQAAAAAgAQACAAAAAAAAAAgAAAAAAAAABAAAAAcAAAA="
  ], 
  "attrs": {"tvm_version": "0.13.0"}
}