#[version = "0.0.5"]
def @main(%x0: Tensor[(4, 7), float32] /* ty=Tensor[(4, 7), float32] span=from_string:19:104 */, %x1: Tensor[(2, 7, 2), float32] /* ty=Tensor[(2, 7, 2), float32] span=from_string:6:11 */, %x2: Tensor[(14, 2), float32] /* ty=Tensor[(14, 2), float32] span=from_string:133:13 */, %x3: int32 /* ty=int32 span=from_string:74:109 */, %x4: int32 /* ty=int32 span=from_string:74:114 */, %x5: Tensor[(74, 7, 2), float32] /* ty=Tensor[(74, 7, 2), float32] span=from_string:109:174 */, %x6: Tensor[(16, 2), float32] /* ty=Tensor[(16, 2), float32] span=from_string:134:13 */, %x7: Tensor[(16), float32] /* ty=Tensor[(16), float32] span=from_string:143:106 */, %x8: Tensor[(1), float32] /* ty=Tensor[(1), float32] span=from_string:148:106 */, %x9: Tensor[(32, 2), float32] /* ty=Tensor[(32, 2), float32] span=from_string:156:13 */, %x10: Tensor[(32), float32] /* ty=Tensor[(32), float32] span=from_string:165:106 */, %x11: Tensor[(1), float32] /* ty=Tensor[(1), float32] span=from_string:170:106 */) -> (Tensor[(4, 7), float16], (Tensor[(2, 7, 2), float16], (Tensor[(2, 7, 2), float16],)), Tensor[(2, 7, 2), float16], Tensor[(6, 2), float32], Tensor[(2, 7, 2), float16], Tensor[(2, 7, 2), float16], Tensor[(76, 7, 2), float16], (Tensor[(1, 1, 224), float16], Tensor[(1, 1, 448), float16])) {
  %0 = cast(%x1, dtype="float16") /* ty=Tensor[(2, 7, 2), float16] span=from_string:4:5 */;
  let %x12: Tensor[(2, 7, 2), float16] /* ty=Tensor[(2, 7, 2), float16] span=from_string:61:171 */ = multiply(%0, %0) /* ty=Tensor[(2, 7, 2), float16] span=from_string:8:6 */;
  let %x13: Tensor[(2, 7, 2), float16] /* ty=Tensor[(2, 7, 2), float16] span=from_string:51:106 */ = ones(shape=[2, 7, 2], dtype="float16") /* ty=Tensor[(2, 7, 2), float16] span=from_string:12:5 */;
  %1 = cast(%x0, dtype="float16") /* ty=Tensor[(4, 7), float16] span=from_string:17:13 */;
  let %x_0: Tensor[(2, 7, 2), float16] /* ty=Tensor[(2, 7, 2), float16] span=from_string:23:99 */ = reshape(%1, newshape=[2, 7, 2]) /* ty=Tensor[(2, 7, 2), float16] span=from_string:16:5 */;
  let %x_1: Tensor[(4, 7), float16] /* ty=Tensor[(4, 7), float16] span=from_string:27:104 */ = reshape(%x_0, newshape=[4, 7]) /* ty=Tensor[(4, 7), float16] span=from_string:21:5 */;
  let %x_2: Tensor[(2, 7, 2), float16] /* ty=Tensor[(2, 7, 2), float16] span=from_string:31:100 */ = reshape(%x_1, newshape=[2, 7, 2]) /* ty=Tensor[(2, 7, 2), float16] span=from_string:25:5 */;
  let %x_3: Tensor[(4, 7), float16] /* ty=Tensor[(4, 7), float16] span=from_string:176:625 */ = reshape(%x_2, newshape=[4, 7]) /* ty=Tensor[(4, 7), float16] span=from_string:29:5 */;
  let %x_4: Tensor[(2, 7, 2), float16] /* ty=Tensor[(2, 7, 2), float16] span=from_string:47:106 */ = zeros(shape=[2, 7, 2], dtype="float16") /* ty=Tensor[(2, 7, 2), float16] span=from_string:33:5 */;
  let %x_5: Tensor[(2, 7, 2), float16] /* ty=Tensor[(2, 7, 2), float16] span=from_string:97:115 */ = multiply(%x13, %0) /* ty=Tensor[(2, 7, 2), float16] span=from_string:37:6 */;
  let %x_6: Tensor[(2, 7, 2), float16] /* ty=Tensor[(2, 7, 2), float16] span=from_string:65:103 */ = collapse_sum_to(%x_5, meta[relay.Constant][0] /* ty=Tensor[(3), int32] span=from_string:41:32 */, meta[relay.attrs.InitOpAttrs][0]) /* ty=Tensor[(2, 7, 2), float16] span=from_string:41:5 */;
  let %x_7: Tensor[(2, 7, 2), float16] /* ty=Tensor[(2, 7, 2), float16] span=from_string:80:114 */ = add(%x_4, %x_6) /* ty=Tensor[(2, 7, 2), float16] span=from_string:45:5 */;
  let %x_8: Tensor[(2, 7, 2), float16] /* ty=Tensor[(2, 7, 2), float16] span=from_string:55:106 */ = multiply(%x13, %0) /* ty=Tensor[(2, 7, 2), float16] span=from_string:49:6 */;
  let %x_9: Tensor[(2, 7, 2), float16] /* ty=Tensor[(2, 7, 2), float16] span=from_string:59:113 */ = collapse_sum_to(%x_8, meta[relay.Constant][1] /* ty=Tensor[(3), int32] span=from_string:53:33 */, meta[relay.attrs.InitOpAttrs][1]) /* ty=Tensor[(2, 7, 2), float16] span=from_string:53:5 */;
  let %x_10: Tensor[(2, 7, 2), float16] /* ty=Tensor[(2, 7, 2), float16] span=from_string:60:110 */ = add(%x_7, %x_9) /* ty=Tensor[(2, 7, 2), float16] span=from_string:57:5 */;
  let %x_11: (Tensor[(2, 7, 2), float16],) /* ty=(Tensor[(2, 7, 2), float16],) span=from_string:61:177 */ = (%x_10,) /* ty=(Tensor[(2, 7, 2), float16],) span=from_string:60:109 */;
  let %x_12: (Tensor[(2, 7, 2), float16], (Tensor[(2, 7, 2), float16],)) /* ty=(Tensor[(2, 7, 2), float16], (Tensor[(2, 7, 2), float16],)) span=from_string:176:631 */ = (%x12, %x_11) /* ty=(Tensor[(2, 7, 2), float16], (Tensor[(2, 7, 2), float16],)) span=from_string:61:170 */;
  let %x_13: Tensor[(14, 2), float16] /* ty=Tensor[(14, 2), float16] span=from_string:69:108 */ = reshape(%x_6, newshape=[14, 2]) /* ty=Tensor[(14, 2), float16] span=from_string:63:5 */;
  let %x_14: Tensor[(2, 7, 2), float16] /* ty=Tensor[(2, 7, 2), float16] span=from_string:176:638 */ = reshape(%x_13, newshape=[2, 7, 2]) /* ty=Tensor[(2, 7, 2), float16] span=from_string:67:5 */;
  let %x_15: Tensor[(2), int32] /* ty=Tensor[(2), int32] span=from_string:74:102 */ = meta[relay.Constant][2] /* ty=Tensor[(2), int32] span=from_string:70:94 */;
  let %x_16: Tensor[(6, 2), float32] /* ty=Tensor[(6, 2), float32] span=from_string:176:645 */ = one_hot(%x_15, %x3, %x4, depth=6, axis=0, dtype="float32") /* ty=Tensor[(6, 2), float32] span=from_string:72:5 */;
  let %x_17: float32 /* ty=float32 span=from_string:80:107 */ = 1f /* ty=float32 span=from_string:75:67 */;
  %2 = cast(%x_17, dtype="float16") /* ty=float16 span=from_string:78:15 */;
  let %x_18: Tensor[(2, 7, 2), float16] /* ty=Tensor[(2, 7, 2), float16] span=from_string:81:104 */ = add(%x_7, %2) /* ty=Tensor[(2, 7, 2), float16] span=from_string:77:5 */;
  let %x_19: Tensor[(2, 7, 2), float16] /* ty=Tensor[(2, 7, 2), float16] span=from_string:109:167 */ = %x_18;
  %3 = cast(%x_19, dtype="float32") /* ty=Tensor[(2, 7, 2), float32] span=from_string:84:9 */;
  let %x_20: Tensor[(2, 7, 2), float32] /* ty=Tensor[(2, 7, 2), float32] span=from_string:91:108 */ = exp(%3) /* ty=Tensor[(2, 7, 2), float32] span=from_string:83:5 */;
  %4 = cast(%x_20, dtype="float16") /* ty=Tensor[(2, 7, 2), float16] span=from_string:89:20 */;
  let %x_21: Tensor[(2, 7, 2), float16] /* ty=Tensor[(2, 7, 2), float16] span=from_string:176:652 */ = multiply(%4, %4) /* ty=Tensor[(2, 7, 2), float16] span=from_string:88:5 */;
  let %x_22: float32 /* ty=float32 span=from_string:97:108 */ = 1f /* ty=float32 span=from_string:92:67 */;
  %5 = cast(%x_22, dtype="float16") /* ty=float16 span=from_string:95:15 */;
  let %x_23: Tensor[(2, 7, 2), float16] /* ty=Tensor[(2, 7, 2), float16] span=from_string:102:108 */ = add(%x_5, %5) /* ty=Tensor[(2, 7, 2), float16] span=from_string:94:5 */;
  %6 = cast(%x_23, dtype="float32") /* ty=Tensor[(2, 7, 2), float32] span=from_string:100:9 */;
  let %x_24: Tensor[(2, 7, 2), float32] /* ty=Tensor[(2, 7, 2), float32] span=from_string:107:108 */ = exp(%6) /* ty=Tensor[(2, 7, 2), float32] span=from_string:99:5 */;
  %7 = cast(%x_24, dtype="float16") /* ty=Tensor[(2, 7, 2), float16] span=from_string:105:13 */;
  let %x_25: Tensor[(2, 7, 2), float16] /* ty=Tensor[(2, 7, 2), float16] span=from_string:176:659 */ = squeeze(%7) /* ty=Tensor[(2, 7, 2), float16] span=from_string:104:5 */;
  let %x_26: float32 /* ty=float32 span=from_string:126:110 */ = 2f /* ty=float32 span=from_string:108:68 */;
  let %x_27: (Tensor[(2, 7, 2), float16], Tensor[(74, 7, 2), float32]) /* ty=(Tensor[(2, 7, 2), float16], Tensor[(74, 7, 2), float32]) span=from_string:117:110 */ = (%x_19, %x5) /* ty=(Tensor[(2, 7, 2), float16], Tensor[(74, 7, 2), float32]) span=from_string:109:166 */;
  %8 = %x_27.1 /* ty=Tensor[(74, 7, 2), float32] span=from_string:113:16 */;
  %9 = %x_27.0 /* ty=Tensor[(2, 7, 2), float16] span=from_string:114:12 */;
  %10 = cast(%8, dtype="float16") /* ty=Tensor[(74, 7, 2), float16] span=from_string:114:17 */;
  %11 = (%9, %10) /* ty=(Tensor[(2, 7, 2), float16], Tensor[(74, 7, 2), float16]) span=from_string:115:17 */;
  let %x_28: Tensor[(76, 7, 2), float16] /* ty=Tensor[(76, 7, 2), float16] span=from_string:121:110 */ = concatenate(%11) /* ty=Tensor[(76, 7, 2), float16] span=from_string:111:5 */;
  let %x_29: Tensor[(76, 7, 2), float16] /* ty=Tensor[(76, 7, 2), float16] span=from_string:126:117 */ = sqrt(%x_28) /* ty=Tensor[(76, 7, 2), float16] span=from_string:119:5 */;
  %12 = cast(%x_26, dtype="float16") /* ty=float16 span=from_string:124:12 */;
  let %x_30: Tensor[(76, 7, 2), float16] /* ty=Tensor[(76, 7, 2), float16] span=from_string:176:666 */ = divide(%12, %x_29) /* ty=Tensor[(76, 7, 2), float16] span=from_string:123:5 */;
  %13 = cast(%x2, dtype="float16") /* ty=Tensor[(14, 2), float16] span=from_string:128:5 */;
  %14 = cast(%x6, dtype="float16") /* ty=Tensor[(16, 2), float16] span=from_string:131:5 */;
  let %x_31: Tensor[(14, 16), float16] /* ty=Tensor[(14, 16), float16] span=from_string:143:111 */ = nn.dense(%13, %14, units=None, out_dtype="float16") /* ty=Tensor[(14, 16), float16] span=from_string:136:5 */;
  %15 = cast(%x7, dtype="float16") /* ty=Tensor[(16), float16] span=from_string:141:16 */;
  let %x_32: Tensor[(14, 16), float16] /* ty=Tensor[(14, 16), float16] span=from_string:148:111 */ = add(%x_31, %15) /* ty=Tensor[(14, 16), float16] span=from_string:140:5 */;
  %16 = cast(%x8, dtype="float16") /* ty=Tensor[(1), float16] span=from_string:146:22 */;
  let %x_33: Tensor[(14, 16), float16] /* ty=Tensor[(14, 16), float16] span=from_string:152:112 */ = multiply(%x_32, %16) /* ty=Tensor[(14, 16), float16] span=from_string:145:5 */;
  let %x_34: Tensor[(1, 1, 224), float16] /* ty=Tensor[(1, 1, 224), float16] span=from_string:175:173 */ = reshape(%x_33, newshape=[1, 1, 224]) /* ty=Tensor[(1, 1, 224), float16] span=from_string:150:5 */;
  %17 = cast(%x9, dtype="float16") /* ty=Tensor[(32, 2), float16] span=from_string:154:5 */;
  let %x_35: Tensor[(14, 32), float16] /* ty=Tensor[(14, 32), float16] span=from_string:165:112 */ = nn.dense(%13, %17, units=None, out_dtype="float16") /* ty=Tensor[(14, 32), float16] span=from_string:158:5 */;
  %18 = cast(%x10, dtype="float16") /* ty=Tensor[(32), float16] span=from_string:163:16 */;
  let %x_36: Tensor[(14, 32), float16] /* ty=Tensor[(14, 32), float16] span=from_string:170:112 */ = add(%x_35, %18) /* ty=Tensor[(14, 32), float16] span=from_string:162:5 */;
  %19 = cast(%x11, dtype="float16") /* ty=Tensor[(1), float16] span=from_string:168:22 */;
  let %x_37: Tensor[(14, 32), float16] /* ty=Tensor[(14, 32), float16] span=from_string:174:112 */ = multiply(%x_36, %19) /* ty=Tensor[(14, 32), float16] span=from_string:167:5 */;
  let %x_38: Tensor[(1, 1, 448), float16] /* ty=Tensor[(1, 1, 448), float16] span=from_string:175:180 */ = reshape(%x_37, newshape=[1, 1, 448]) /* ty=Tensor[(1, 1, 448), float16] span=from_string:172:5 */;
  let %x_39: (Tensor[(1, 1, 224), float16], Tensor[(1, 1, 448), float16]) /* ty=(Tensor[(1, 1, 224), float16], Tensor[(1, 1, 448), float16]) span=from_string:176:673 */ = (%x_34, %x_38) /* ty=(Tensor[(1, 1, 224), float16], Tensor[(1, 1, 448), float16]) span=from_string:175:172 */;
  let %x_40: (Tensor[(4, 7), float16], (Tensor[(2, 7, 2), float16], (Tensor[(2, 7, 2), float16],)), Tensor[(2, 7, 2), float16], Tensor[(6, 2), float32], Tensor[(2, 7, 2), float16], Tensor[(2, 7, 2), float16], Tensor[(76, 7, 2), float16], (Tensor[(1, 1, 224), float16], Tensor[(1, 1, 448), float16])) /* ty=(Tensor[(4, 7), float16], (Tensor[(2, 7, 2), float16], (Tensor[(2, 7, 2), float16],)), Tensor[(2, 7, 2), float16], Tensor[(6, 2), float32], Tensor[(2, 7, 2), float16], Tensor[(2, 7, 2), float16], Tensor[(76, 7, 2), float16], (Tensor[(1, 1, 224), float16], Tensor[(1, 1, 448), float16])) span=from_string:177:624 */ = (%x_3, %x_12, %x_14, %x_16, %x_21, %x_25, %x_30, %x_39) /* ty=(Tensor[(4, 7), float16], (Tensor[(2, 7, 2), float16], (Tensor[(2, 7, 2), float16],)), Tensor[(2, 7, 2), float16], Tensor[(6, 2), float32], Tensor[(2, 7, 2), float16], Tensor[(2, 7, 2), float16], Tensor[(76, 7, 2), float16], (Tensor[(1, 1, 224), float16], Tensor[(1, 1, 448), float16])) span=from_string:176:624 */;
  let %x_41: (Tensor[(4, 7), float16], (Tensor[(2, 7, 2), float16], (Tensor[(2, 7, 2), float16],)), Tensor[(2, 7, 2), float16], Tensor[(6, 2), float32], Tensor[(2, 7, 2), float16], Tensor[(2, 7, 2), float16], Tensor[(76, 7, 2), float16], (Tensor[(1, 1, 224), float16], Tensor[(1, 1, 448), float16])) /* ty=(Tensor[(4, 7), float16], (Tensor[(2, 7, 2), float16], (Tensor[(2, 7, 2), float16],)), Tensor[(2, 7, 2), float16], Tensor[(6, 2), float32], Tensor[(2, 7, 2), float16], Tensor[(2, 7, 2), float16], Tensor[(76, 7, 2), float16], (Tensor[(1, 1, 224), float16], Tensor[(1, 1, 448), float16])) span=from_string:178:622 */ = %x_40;
  let %x_42: (Tensor[(4, 7), float16], (Tensor[(2, 7, 2), float16], (Tensor[(2, 7, 2), float16],)), Tensor[(2, 7, 2), float16], Tensor[(6, 2), float32], Tensor[(2, 7, 2), float16], Tensor[(2, 7, 2), float16], Tensor[(76, 7, 2), float16], (Tensor[(1, 1, 224), float16], Tensor[(1, 1, 448), float16])) /* ty=(Tensor[(4, 7), float16], (Tensor[(2, 7, 2), float16], (Tensor[(2, 7, 2), float16],)), Tensor[(2, 7, 2), float16], Tensor[(6, 2), float32], Tensor[(2, 7, 2), float16], Tensor[(2, 7, 2), float16], Tensor[(76, 7, 2), float16], (Tensor[(1, 1, 224), float16], Tensor[(1, 1, 448), float16])) span=from_string:179:3 */ = %x_41;
  %x_42
}

#[metadata]
{
  "root": 1, 
  "nodes": [
    {
      "type_key": ""
    }, 
    {
      "type_key": "Map", 
      "keys": [
        "relay.attrs.InitOpAttrs", 
        "relay.Constant"
      ], 
      "data": [2, 10]
    }, 
    {
      "type_key": "Array", 
      "data": [3, 8]
    }, 
    {
      "type_key": "relay.attrs.InitOpAttrs", 
      "attrs": {
        "dtype": "", 
        "shape": "4"
      }
    }, 
    {
      "type_key": "Array", 
      "data": [5, 6, 7]
    }, 
    {
      "type_key": "IntImm", 
      "attrs": {
        "dtype": "int32", 
        "span": "0", 
        "value": "2"
      }
    }, 
    {
      "type_key": "IntImm", 
      "attrs": {
        "dtype": "int32", 
        "span": "0", 
        "value": "7"
      }
    }, 
    {
      "type_key": "IntImm", 
      "attrs": {
        "dtype": "int32", 
        "span": "0", 
        "value": "2"
      }
    }, 
    {
      "type_key": "relay.attrs.InitOpAttrs", 
      "attrs": {
        "dtype": "", 
        "shape": "9"
      }
    }, 
    {
      "type_key": "Array", 
      "data": [5, 6, 7]
    }, 
    {
      "type_key": "Array", 
      "data": [11, 19, 24]
    }, 
    {
      "type_key": "relay.Constant", 
      "attrs": {
        "_checked_type_": "16", 
        "data": "0", 
        "span": "14", 
        "virtual_device_": "12"
      }
    }, 
    {
      "type_key": "VirtualDevice", 
      "attrs": {
        "device_type_int": "-1", 
        "memory_scope": "13", 
        "target": "0", 
        "virtual_device_id": "-1"
      }
    }, 
    {
      "type_key": "runtime.String"
    }, 
    {
      "type_key": "Span", 
      "attrs": {
        "column": "32", 
        "end_column": "50", 
        "end_line": "41", 
        "line": "41", 
        "source_name": "15"
      }
    }, 
    {
      "type_key": "SourceName", 
      "repr_str": "from_string"
    }, 
    {
      "type_key": "relay.TensorType", 
      "attrs": {
        "dtype": "int32", 
        "shape": "17", 
        "span": "0"
      }
    }, 
    {
      "type_key": "Array", 
      "data": [18]
    }, 
    {
      "type_key": "IntImm", 
      "attrs": {
        "dtype": "int32", 
        "span": "0", 
        "value": "3"
      }
    }, 
    {
      "type_key": "relay.Constant", 
      "attrs": {
        "_checked_type_": "21", 
        "data": "1", 
        "span": "20", 
        "virtual_device_": "12"
      }
    }, 
    {
      "type_key": "Span", 
      "attrs": {
        "column": "33", 
        "end_column": "51", 
        "end_line": "53", 
        "line": "53", 
        "source_name": "15"
      }
    }, 
    {
      "type_key": "relay.TensorType", 
      "attrs": {
        "dtype": "int32", 
        "shape": "22", 
        "span": "0"
      }
    }, 
    {
      "type_key": "Array", 
      "data": [23]
    }, 
    {
      "type_key": "IntImm", 
      "attrs": {
        "dtype": "int32", 
        "span": "0", 
        "value": "3"
      }
    }, 
    {
      "type_key": "relay.Constant", 
      "attrs": {
        "_checked_type_": "28", 
        "data": "2", 
        "span": "27", 
        "virtual_device_": "25"
      }
    }, 
    {
      "type_key": "VirtualDevice", 
      "attrs": {
        "device_type_int": "-1", 
        "memory_scope": "26", 
        "target": "0", 
        "virtual_device_id": "-1"
      }
    }, 
    {
      "type_key": "runtime.String"
    }, 
    {
      "type_key": "Span", 
      "attrs": {
        "column": "94", 
        "end_column": "112", 
        "end_line": "70", 
        "line": "70", 
        "source_name": "15"
      }
    }, 
    {
      "type_key": "relay.TensorType", 
      "attrs": {
        "dtype": "int32", 
        "shape": "29", 
        "span": "0"
      }
    }, 
    {
      "type_key": "Array", 
      "data": [30]
    }, 
    {
      "type_key": "IntImm", 
      "attrs": {
        "dtype": "int32", 
        "span": "0", 
        "value": "2"
      }
    }
  ], 
  "b64ndarrays": [
    "P6G0lvBAXt0AAAAAAAAAAAEAAAAAAAAAAQAAAAAgAQADAAAAAAAAAAwAAAAAAAAAAgAAAAcAAAACAAAA", 
    "P6G0lvBAXt0AAAAAAAAAAAEAAAAAAAAAAQAAAAAgAQADAAAAAAAAAAwAAAAAAAAAAgAAAAcAAAACAAAA", 
    "P6G0lvBAXt0AAAAAAAAAAAEAAAAAAAAAAQAAAAAgAQACAAAAAAAAAAgAAAAAAAAABAAAAAcAAAA="
  ], 
  "attrs": {"tvm_version": "0.13.0"}
}