#[version = "0.0.5"]
def @main(%x0: Tensor[(4, 7), float32] /* ty=Tensor[(4, 7), float32] span=from_string:6:13 */, %x1: Tensor[(2, 7, 2), float32] /* ty=Tensor[(2, 7, 2), float32] span=from_string:3:13 */, %x2: Tensor[(14, 2), float32] /* ty=Tensor[(14, 2), float32] span=from_string:30:14 */, %x3: int32 /* ty=int32 span=from_string:48:93 */, %x4: int32 /* ty=int32 span=from_string:48:98 */, %x5: Tensor[(74, 7, 2), float32] /* ty=Tensor[(74, 7, 2), float32] span=from_string:23:15 */, %x6: Tensor[(16, 2), float32] /* ty=Tensor[(16, 2), float32] span=from_string:31:14 */, %x7: Tensor[(16), float32] /* ty=Tensor[(16), float32] span=from_string:33:14 */, %x8: Tensor[(1), float32] /* ty=Tensor[(1), float32] span=from_string:35:14 */, %x9: Tensor[(32, 2), float32] /* ty=Tensor[(32, 2), float32] span=from_string:37:14 */, %x10: Tensor[(32), float32] /* ty=Tensor[(32), float32] span=from_string:39:14 */, %x11: Tensor[(1), float32] /* ty=Tensor[(1), float32] span=from_string:41:14 */) -> (Tensor[(4, 7), float16], (Tensor[(2, 7, 2), float16], (Tensor[(2, 7, 2), float16],)), Tensor[(2, 7, 2), float16], Tensor[(6, 2), float32], Tensor[(2, 7, 2), float32], Tensor[(2, 7, 2), float32], Tensor[(76, 7, 2), float32], (Tensor[(1, 1, 224), float16], Tensor[(1, 1, 448), float16])) {
  %0 = cast(%x1, dtype="float16") /* ty=Tensor[(2, 7, 2), float16] span=from_string:12:24 */;
  let %x12: Tensor[(2, 7, 2), float16] /* ty=Tensor[(2, 7, 2), float16] span=from_string:46:10 */ = multiply(%0, %0) /* ty=Tensor[(2, 7, 2), float16] span=from_string:4:102 */;
  let %x13: Tensor[(2, 7, 2), float16] /* ty=Tensor[(2, 7, 2), float16] span=from_string:12:18 */ = ones(shape=[2, 7, 2], dtype="float16") /* ty=Tensor[(2, 7, 2), float16] span=from_string:5:100 */;
  %1 = cast(%x0, dtype="float16") /* ty=Tensor[(4, 7), float16] span=from_string:45:17 */;
  %2 = multiply(%x13, %0) /* ty=Tensor[(2, 7, 2), float16] span=from_string:8:24 */;
  %3 = collapse_sum_to(%2, meta[relay.Constant][0] /* ty=Tensor[(3), int32] span=from_string:8:33 */, meta[relay.attrs.InitOpAttrs][0]) /* ty=Tensor[(2, 7, 2), float16] span=from_string:10:18 */;
  %4 = cast(2f /* ty=float32 span=from_string:9:15 */, dtype="float16") /* ty=float16 span=from_string:10:22 */;
  %5 = multiply(%3, %4) /* ty=Tensor[(2, 7, 2), float16] span=from_string:11:9 */;
  %6 = (%5,) /* ty=(Tensor[(2, 7, 2), float16],) span=from_string:46:16 */;
  %7 = multiply(%x13, %0) /* ty=Tensor[(2, 7, 2), float16] span=from_string:20:13 */;
  %8 = collapse_sum_to(%7, meta[relay.Constant][1] /* ty=Tensor[(3), int32] span=from_string:13:33 */, meta[relay.attrs.InitOpAttrs][1]) /* ty=Tensor[(2, 7, 2), float16] span=from_string:47:17 */;
  %9 = cast(1f /* ty=float32 span=from_string:14:15 */, dtype="float16") /* ty=float16 span=from_string:15:17 */;
  %10 = add(%8, %9) /* ty=Tensor[(2, 7, 2), float16] span=from_string:16:32 */;
  %11 = annotation.stop_fusion(%10) /* ty=Tensor[(2, 7, 2), float16] span=from_string:23:10 */;
  %12 = cast(%11, dtype="float32") /* ty=Tensor[(2, 7, 2), float32] span=from_string:18:13 */;
  %13 = exp(%12) /* ty=Tensor[(2, 7, 2), float32] span=from_string:49:24 */;
  %14 = cast(1f /* ty=float32 span=from_string:19:16 */, dtype="float16") /* ty=float16 span=from_string:20:17 */;
  %15 = add(%7, %14) /* ty=Tensor[(2, 7, 2), float16] span=from_string:21:14 */;
  %16 = cast(%15, dtype="float32") /* ty=Tensor[(2, 7, 2), float32] span=from_string:22:13 */;
  %17 = exp(%16) /* ty=Tensor[(2, 7, 2), float32] span=from_string:50:17 */;
  %18 = (%11, %x5) /* ty=(Tensor[(2, 7, 2), float16], Tensor[(74, 7, 2), float32]) span=from_string:26:9 */;
  %19 = %18.0 /* ty=Tensor[(2, 7, 2), float16] span=from_string:25:14 */;
  %20 = cast(%19, dtype="float32") /* ty=Tensor[(2, 7, 2), float32] span=from_string:27:10 */;
  %21 = %18.1 /* ty=Tensor[(74, 7, 2), float32] span=from_string:27:15 */;
  %22 = (%20, %21) /* ty=(Tensor[(2, 7, 2), float32], Tensor[(74, 7, 2), float32]) span=from_string:28:21 */;
  %23 = concatenate(%22) /* ty=Tensor[(76, 7, 2), float32] */;
  %24 = annotation.stop_fusion(%23) /* ty=Tensor[(76, 7, 2), float32] */;
  %25 = (%24,) /* ty=(Tensor[(76, 7, 2), float32],) span=from_string:28:21 */;
  %26 = concatenate(%25) /* ty=Tensor[(76, 7, 2), float32] */;
  %27 = rsqrt(%26) /* ty=Tensor[(76, 7, 2), float32] span=from_string:51:63 */;
  %28 = cast(%x2, dtype="float16") /* ty=Tensor[(14, 2), float16] span=from_string:38:18 */;
  %29 = cast(%x6, dtype="float16") /* ty=Tensor[(16, 2), float16] span=from_string:32:23 */;
  %30 = nn.dense(%28, %29, units=None, out_dtype="float16") /* ty=Tensor[(14, 16), float16] span=from_string:34:13 */;
  %31 = cast(%x7, dtype="float16") /* ty=Tensor[(16), float16] span=from_string:34:18 */;
  %32 = add(%30, %31) /* ty=Tensor[(14, 16), float16] span=from_string:36:19 */;
  %33 = cast(%x8, dtype="float16") /* ty=Tensor[(1), float16] span=from_string:36:24 */;
  %34 = multiply(%32, %33) /* ty=Tensor[(14, 16), float16] span=from_string:43:17 */;
  %35 = cast(%x9, dtype="float16") /* ty=Tensor[(32, 2), float16] span=from_string:38:23 */;
  %36 = nn.dense(%28, %35, units=None, out_dtype="float16") /* ty=Tensor[(14, 32), float16] span=from_string:40:13 */;
  %37 = cast(%x10, dtype="float16") /* ty=Tensor[(32), float16] span=from_string:40:18 */;
  %38 = add(%36, %37) /* ty=Tensor[(14, 32), float16] span=from_string:42:19 */;
  %39 = cast(%x11, dtype="float16") /* ty=Tensor[(1), float16] span=from_string:42:24 */;
  %40 = multiply(%38, %39) /* ty=Tensor[(14, 32), float16] span=from_string:44:17 */;
  %41 = reshape(%34, newshape=[1, 1, 224]) /* ty=Tensor[(1, 1, 224), float16] span=from_string:52:10 */;
  %42 = reshape(%40, newshape=[1, 1, 448]) /* ty=Tensor[(1, 1, 448), float16] span=from_string:52:15 */;
  %43 = reshape(%1, newshape=[4, 7]) /* ty=Tensor[(4, 7), float16] span=from_string:53:4 */;
  %44 = (%x12, %6) /* ty=(Tensor[(2, 7, 2), float16], (Tensor[(2, 7, 2), float16],)) span=from_string:53:9 */;
  %45 = reshape(%8, newshape=[2, 7, 2]) /* ty=Tensor[(2, 7, 2), float16] span=from_string:53:14 */;
  %46 = one_hot(meta[relay.Constant][2] /* ty=Tensor[(2), int32] span=from_string:48:22 */, %x3, %x4, depth=6, axis=0, dtype="float32") /* ty=Tensor[(6, 2), float32] span=from_string:53:19 */;
  %47 = multiply(%13, %13) /* ty=Tensor[(2, 7, 2), float32] span=from_string:53:24 */;
  %48 = squeeze(%17) /* ty=Tensor[(2, 7, 2), float32] span=from_string:53:29 */;
  %49 = multiply(2f /* ty=float32 span=from_string:51:21 */, %27) /* ty=Tensor[(76, 7, 2), float32] span=from_string:53:34 */;
  %50 = (%41, %42) /* ty=(Tensor[(1, 1, 224), float16], Tensor[(1, 1, 448), float16]) span=from_string:53:39 */;
  (%43, %44, %45, %46, %47, %48, %49, %50) /* ty=(Tensor[(4, 7), float16], (Tensor[(2, 7, 2), float16], (Tensor[(2, 7, 2), float16],)), Tensor[(2, 7, 2), float16], Tensor[(6, 2), float32], Tensor[(2, 7, 2), float32], Tensor[(2, 7, 2), float32], Tensor[(76, 7, 2), float32], (Tensor[(1, 1, 224), float16], Tensor[(1, 1, 448), float16])) span=from_string:53:3 */
}

#[metadata]
{
  "root": 1, 
  "nodes": [
    {
      "type_key": ""
    }, 
    {
      "type_key": "Map", 
      "keys": [
        "relay.attrs.InitOpAttrs", 
        "relay.Constant"
      ], 
      "data": [2, 9]
    }, 
    {
      "type_key": "Array", 
      "data": [3, 8]
    }, 
    {
      "type_key": "relay.attrs.InitOpAttrs", 
      "attrs": {
        "dtype": "float16", 
        "shape": "4"
      }
    }, 
    {
      "type_key": "Array", 
      "data": [5, 6, 7]
    }, 
    {
      "type_key": "IntImm", 
      "attrs": {
        "dtype": "int32", 
        "span": "0", 
        "value": "2"
      }
    }, 
    {
      "type_key": "IntImm", 
      "attrs": {
        "dtype": "int32", 
        "span": "0", 
        "value": "7"
      }
    }, 
    {
      "type_key": "IntImm", 
      "attrs": {
        "dtype": "int32", 
        "span": "0", 
        "value": "2"
      }
    }, 
    {
      "type_key": "relay.attrs.InitOpAttrs", 
      "attrs": {
        "dtype": "float16", 
        "shape": "4"
      }
    }, 
    {
      "type_key": "Array", 
      "data": [10, 18, 23]
    }, 
    {
      "type_key": "relay.Constant", 
      "attrs": {
        "_checked_type_": "15", 
        "data": "0", 
        "span": "13", 
        "virtual_device_": "11"
      }
    }, 
    {
      "type_key": "VirtualDevice", 
      "attrs": {
        "device_type_int": "-1", 
        "memory_scope": "12", 
        "target": "0", 
        "virtual_device_id": "-1"
      }
    }, 
    {
      "type_key": "runtime.String"
    }, 
    {
      "type_key": "Span", 
      "attrs": {
        "column": "33", 
        "end_column": "51", 
        "end_line": "8", 
        "line": "8", 
        "source_name": "14"
      }
    }, 
    {
      "type_key": "SourceName", 
      "repr_str": "from_string"
    }, 
    {
      "type_key": "relay.TensorType", 
      "attrs": {
        "dtype": "int32", 
        "shape": "16", 
        "span": "0"
      }
    }, 
    {
      "type_key": "Array", 
      "data": [17]
    }, 
    {
      "type_key": "IntImm", 
      "attrs": {
        "dtype": "int32", 
        "span": "0", 
        "value": "3"
      }
    }, 
    {
      "type_key": "relay.Constant", 
      "attrs": {
        "_checked_type_": "20", 
        "data": "0", 
        "span": "19", 
        "virtual_device_": "11"
      }
    }, 
    {
      "type_key": "Span", 
      "attrs": {
        "column": "33", 
        "end_column": "51", 
        "end_line": "13", 
        "line": "13", 
        "source_name": "14"
      }
    }, 
    {
      "type_key": "relay.TensorType", 
      "attrs": {
        "dtype": "int32", 
        "shape": "21", 
        "span": "0"
      }
    }, 
    {
      "type_key": "Array", 
      "data": [22]
    }, 
    {
      "type_key": "IntImm", 
      "attrs": {
        "dtype": "int32", 
        "span": "0", 
        "value": "3"
      }
    }, 
    {
      "type_key": "relay.Constant", 
      "attrs": {
        "_checked_type_": "27", 
        "data": "1", 
        "span": "26", 
        "virtual_device_": "24"
      }
    }, 
    {
      "type_key": "VirtualDevice", 
      "attrs": {
        "device_type_int": "-1", 
        "memory_scope": "25", 
        "target": "0", 
        "virtual_device_id": "-1"
      }
    }, 
    {
      "type_key": "runtime.String"
    }, 
    {
      "type_key": "Span", 
      "attrs": {
        "column": "22", 
        "end_column": "40", 
        "end_line": "48", 
        "line": "48", 
        "source_name": "14"
      }
    }, 
    {
      "type_key": "relay.TensorType", 
      "attrs": {
        "dtype": "int32", 
        "shape": "28", 
        "span": "0"
      }
    }, 
    {
      "type_key": "Array", 
      "data": [29]
    }, 
    {
      "type_key": "IntImm", 
      "attrs": {
        "dtype": "int32", 
        "span": "0", 
        "value": "2"
      }
    }
  ], 
  "b64ndarrays": [
    "P6G0lvBAXt0AAAAAAAAAAAEAAAAAAAAAAQAAAAAgAQADAAAAAAAAAAwAAAAAAAAAAgAAAAcAAAACAAAA", 
    "P6G0lvBAXt0AAAAAAAAAAAEAAAAAAAAAAQAAAAAgAQACAAAAAAAAAAgAAAAAAAAABAAAAAcAAAA="
  ], 
  "attrs": {"tvm_version": "0.13.0"}
}