#[version = "0.0.5"]
def @main(%x0: Tensor[(1, 4, 2), int8] /* ty=Tensor[(1, 4, 2), int8] span=from_string:15:118 */, %x1: Tensor[(1, 4, 2), int8] /* ty=Tensor[(1, 4, 2), int8] span=from_string:11:106 */, %x2: Tensor[(31, 65), int64] /* ty=Tensor[(31, 65), int64] span=from_string:18:100 */, %x3: Tensor[(58), float32] /* ty=Tensor[(58), float32] */, %x4: Tensor[(1, 100, 2), int8] /* ty=Tensor[(1, 100, 2), int8] span=from_string:20:122 */, %x5: Tensor[(1, 18, 2), int8] /* ty=Tensor[(1, 18, 2), int8] span=from_string:25:120 */, %x6: Tensor[(1, 46, 2), int8] /* ty=Tensor[(1, 46, 2), int8] span=from_string:38:120 */, %x7: Tensor[(49, 17, 31), int32] /* ty=Tensor[(49, 17, 31), int32] */) -> (Tensor[(1, 4, 4), float32], Tensor[(1, 4, 2), float32], Tensor[(1, 4, 100), float32], Tensor[(31, 65), int32], Tensor[(1, 100, 18), int8], Tensor[(1, 4, 2), float32], Tensor[(1, 18, 46), int8], (Tensor[(1), float32], (Tensor[(1), float32],)), Tensor[(1, 2), int32], Tensor[(1, 100, 18), int32]) {
  %0 = fn (Primitive=1) -> Tensor[(1), float32] {
    ones(shape=[1], dtype="float32") /* ty=Tensor[(1), float32] span=from_string:3:90 */
  } /* ty=fn () -> Tensor[(1), float32] */;
  let %x_0: Tensor[(1), float32] /* ty=Tensor[(1), float32] span=from_string:33:106 */ = %0() /* ty=Tensor[(1), float32] */;
  %1 = fn (%p0: Tensor[(1), float32] /* ty=Tensor[(1), float32] */, Primitive=1) -> Tensor[(1), float32] {
    multiply(%p0, %p0) /* ty=Tensor[(1), float32] span=from_string:4:90 */
  } /* ty=fn (Tensor[(1), float32]) -> Tensor[(1), float32] */;
  let %x8: Tensor[(1), float32] /* ty=Tensor[(1), float32] span=from_string:37:146 */ = %1(%x_0) /* ty=Tensor[(1), float32] */;
  %2 = fn (Primitive=1) -> Tensor[(1), float32] {
    ones(shape=[1], dtype="float32") /* ty=Tensor[(1), float32] span=from_string:5:89 */
  } /* ty=fn () -> Tensor[(1), float32] */;
  let %x9: Tensor[(1), float32] /* ty=Tensor[(1), float32] span=from_string:33:101 */ = %2() /* ty=Tensor[(1), float32] */;
  %3 = fn (%p01: Tensor[(1, 4, 2), int8] /* ty=Tensor[(1, 4, 2), int8] */, Primitive=1) -> Tensor[(1, 4, 2), float32] {
    qnn.dequantize(%p01, 2f /* ty=float32 span=from_string:6:124 */, 0 /* ty=int32 span=from_string:6:166 */) /* ty=Tensor[(1, 4, 2), float32] span=from_string:6:102 */
  } /* ty=fn (Tensor[(1, 4, 2), int8]) -> Tensor[(1, 4, 2), float32] */;
  let %x_3: Tensor[(1, 4, 2), float32] /* ty=Tensor[(1, 4, 2), float32] span=from_string:8:118 */ = %3(%x0) /* ty=Tensor[(1, 4, 2), float32] */;
  %4 = fn (%p02: Tensor[(1, 4, 2), int8] /* ty=Tensor[(1, 4, 2), int8] */, Primitive=1) -> Tensor[(1, 4, 2), float32] {
    qnn.dequantize(%p02, 6f /* ty=float32 span=from_string:7:124 */, 0 /* ty=int32 span=from_string:7:166 */) /* ty=Tensor[(1, 4, 2), float32] span=from_string:7:102 */
  } /* ty=fn (Tensor[(1, 4, 2), int8]) -> Tensor[(1, 4, 2), float32] */;
  let %x_6: Tensor[(1, 4, 2), float32] /* ty=Tensor[(1, 4, 2), float32] span=from_string:24:107 */ = %4(%x1) /* ty=Tensor[(1, 4, 2), float32] */;
  %5 = fn (%p03: Tensor[(1, 4, 2), float32] /* ty=Tensor[(1, 4, 2), float32] */, %p1: Tensor[(1, 4, 2), float32] /* ty=Tensor[(1, 4, 2), float32] */, Primitive=1) -> Tensor[(1, 4, 4), float32] {
    nn.batch_matmul(%p03, %p1, transpose_b=True) /* ty=Tensor[(1, 4, 4), float32] span=from_string:8:102 */
  } /* ty=fn (Tensor[(1, 4, 2), float32], Tensor[(1, 4, 2), float32]) -> Tensor[(1, 4, 4), float32] */;
  let %x_7: Tensor[(1, 4, 4), float32] /* ty=Tensor[(1, 4, 4), float32] span=from_string:9:106 */ = %5(%x_3, %x_6) /* ty=Tensor[(1, 4, 4), float32] */;
  %6 = fn (%p04: Tensor[(1, 4, 4), float32] /* ty=Tensor[(1, 4, 4), float32] */, Primitive=1) -> Tensor[(1, 4, 4), float32] {
    add(%p04, 1f /* ty=float32 span=from_string:9:114 */) /* ty=Tensor[(1, 4, 4), float32] span=from_string:9:102 */
  } /* ty=fn (Tensor[(1, 4, 4), float32]) -> Tensor[(1, 4, 4), float32] */;
  let %x_9: Tensor[(1, 4, 4), float32] /* ty=Tensor[(1, 4, 4), float32] span=from_string:10:107 */ = %6(%x_7) /* ty=Tensor[(1, 4, 4), float32] */;
  %7 = fn (%p05: Tensor[(1, 4, 4), float32] /* ty=Tensor[(1, 4, 4), float32] */, Primitive=1) -> Tensor[(1, 4, 4), float32] {
    erf(%p05) /* ty=Tensor[(1, 4, 4), float32] span=from_string:10:103 */
  } /* ty=fn (Tensor[(1, 4, 4), float32]) -> Tensor[(1, 4, 4), float32] */;
  let %x_10: Tensor[(1, 4, 4), float32] /* ty=Tensor[(1, 4, 4), float32] span=from_string:41:652 */ = %7(%x_9) /* ty=Tensor[(1, 4, 4), float32] */;
  %8 = fn (%p06: Tensor[(1, 4, 2), int8] /* ty=Tensor[(1, 4, 2), int8] */, Primitive=1) -> Tensor[(1, 4, 2), int16] {
    cast(%p06, dtype="int16") /* ty=Tensor[(1, 4, 2), int16] span=from_string:11:101 */
  } /* ty=fn (Tensor[(1, 4, 2), int8]) -> Tensor[(1, 4, 2), int16] */;
  let %x_11: Tensor[(1, 4, 2), int16] /* ty=Tensor[(1, 4, 2), int16] span=from_string:12:106 */ = %8(%x1) /* ty=Tensor[(1, 4, 2), int16] */;
  %9 = fn (%p07: Tensor[(1, 4, 2), int16] /* ty=Tensor[(1, 4, 2), int16] */, Primitive=1) -> Tensor[(1, 4, 2), int32] {
    cast(%p07, dtype="int32") /* ty=Tensor[(1, 4, 2), int32] span=from_string:12:101 */
  } /* ty=fn (Tensor[(1, 4, 2), int16]) -> Tensor[(1, 4, 2), int32] */;
  let %x_12: Tensor[(1, 4, 2), int32] /* ty=Tensor[(1, 4, 2), int32] span=from_string:13:106 */ = %9(%x_11) /* ty=Tensor[(1, 4, 2), int32] */;
  %10 = fn (%p08: Tensor[(1, 4, 2), int32] /* ty=Tensor[(1, 4, 2), int32] */, Primitive=1) -> Tensor[(1, 4, 2), int64] {
    cast(%p08, dtype="int64") /* ty=Tensor[(1, 4, 2), int64] span=from_string:13:101 */
  } /* ty=fn (Tensor[(1, 4, 2), int32]) -> Tensor[(1, 4, 2), int64] */;
  let %x_13: Tensor[(1, 4, 2), int64] /* ty=Tensor[(1, 4, 2), int64] span=from_string:14:108 */ = %10(%x_12) /* ty=Tensor[(1, 4, 2), int64] */;
  %11 = fn (%p09: Tensor[(1, 4, 2), int64] /* ty=Tensor[(1, 4, 2), int64] */, Primitive=1) -> Tensor[(1, 4, 2), float32] {
    cast(%p09, dtype="float32") /* ty=Tensor[(1, 4, 2), float32] span=from_string:14:103 */
  } /* ty=fn (Tensor[(1, 4, 2), int64]) -> Tensor[(1, 4, 2), float32] */;
  let %x_14: Tensor[(1, 4, 2), float32] /* ty=Tensor[(1, 4, 2), float32] span=from_string:41:659 */ = %11(%x_13) /* ty=Tensor[(1, 4, 2), float32] */;
  %12 = fn (%p010: Tensor[(1, 4, 2), int8] /* ty=Tensor[(1, 4, 2), int8] */, Primitive=1) -> Tensor[(1, 4, 2), float32] {
    qnn.dequantize(%p010, 2f /* ty=float32 span=from_string:15:125 */, 0 /* ty=int32 span=from_string:15:168 */) /* ty=Tensor[(1, 4, 2), float32] span=from_string:15:103 */
  } /* ty=fn (Tensor[(1, 4, 2), int8]) -> Tensor[(1, 4, 2), float32] */;
  let %x_17: Tensor[(1, 4, 2), float32] /* ty=Tensor[(1, 4, 2), float32] span=from_string:17:123 */ = %12(%x0) /* ty=Tensor[(1, 4, 2), float32] */;
  %13 = fn (%p011: Tensor[(1, 100, 2), int8] /* ty=Tensor[(1, 100, 2), int8] */, Primitive=1) -> Tensor[(1, 100, 2), float32] {
    qnn.dequantize(%p011, 6f /* ty=float32 span=from_string:16:129 */, 0 /* ty=int32 span=from_string:16:172 */) /* ty=Tensor[(1, 100, 2), float32] span=from_string:16:107 */
  } /* ty=fn (Tensor[(1, 100, 2), int8]) -> Tensor[(1, 100, 2), float32] */;
  let %x_20: Tensor[(1, 100, 2), float32] /* ty=Tensor[(1, 100, 2), float32] span=from_string:17:130 */ = %13(%x4) /* ty=Tensor[(1, 100, 2), float32] */;
  %14 = fn (%p012: Tensor[(1, 4, 2), float32] /* ty=Tensor[(1, 4, 2), float32] */, %p11: Tensor[(1, 100, 2), float32] /* ty=Tensor[(1, 100, 2), float32] */, Primitive=1) -> Tensor[(1, 4, 100), float32] {
    nn.batch_matmul(%p012, %p11, transpose_b=True) /* ty=Tensor[(1, 4, 100), float32] span=from_string:17:107 */
  } /* ty=fn (Tensor[(1, 4, 2), float32], Tensor[(1, 100, 2), float32]) -> Tensor[(1, 4, 100), float32] */;
  let %x_21: Tensor[(1, 4, 100), float32] /* ty=Tensor[(1, 4, 100), float32] span=from_string:41:666 */ = %14(%x_17, %x_20) /* ty=Tensor[(1, 4, 100), float32] */;
  %15 = fn (%p013: Tensor[(31, 65), int64] /* ty=Tensor[(31, 65), int64] */, Primitive=1) -> Tensor[(31, 65), bool] {
    cast(%p013, dtype="bool") /* ty=Tensor[(31, 65), bool] span=from_string:18:95 */
  } /* ty=fn (Tensor[(31, 65), int64]) -> Tensor[(31, 65), bool] */;
  let %x_22: Tensor[(31, 65), bool] /* ty=Tensor[(31, 65), bool] span=from_string:19:104 */ = %15(%x2) /* ty=Tensor[(31, 65), bool] */;
  %16 = fn (%p014: Tensor[(31, 65), bool] /* ty=Tensor[(31, 65), bool] */, Primitive=1) -> Tensor[(31, 65), int32] {
    cast(%p014, dtype="int32") /* ty=Tensor[(31, 65), int32] span=from_string:19:99 */
  } /* ty=fn (Tensor[(31, 65), bool]) -> Tensor[(31, 65), int32] */;
  let %x_23: Tensor[(31, 65), int32] /* ty=Tensor[(31, 65), int32] span=from_string:41:673 */ = %16(%x_22) /* ty=Tensor[(31, 65), int32] */;
  %17 = fn (%p015: Tensor[(1, 100, 2), int8] /* ty=Tensor[(1, 100, 2), int8] */, Primitive=1) -> Tensor[(1, 100, 2), float32] {
    qnn.dequantize(%p015, 2f /* ty=float32 span=from_string:20:129 */, 0 /* ty=int32 span=from_string:20:172 */) /* ty=Tensor[(1, 100, 2), float32] span=from_string:20:107 */
  } /* ty=fn (Tensor[(1, 100, 2), int8]) -> Tensor[(1, 100, 2), float32] */;
  let %x_26: Tensor[(1, 100, 2), float32] /* ty=Tensor[(1, 100, 2), float32] span=from_string:22:125 */ = %17(%x4) /* ty=Tensor[(1, 100, 2), float32] */;
  %18 = fn (%p016: Tensor[(1, 18, 2), int8] /* ty=Tensor[(1, 18, 2), int8] */, Primitive=1) -> Tensor[(1, 18, 2), float32] {
    qnn.dequantize(%p016, 0.5f /* ty=float32 span=from_string:21:129 */, 0 /* ty=int32 span=from_string:21:172 */) /* ty=Tensor[(1, 18, 2), float32] span=from_string:21:105 */
  } /* ty=fn (Tensor[(1, 18, 2), int8]) -> Tensor[(1, 18, 2), float32] */;
  let %x_29: Tensor[(1, 18, 2), float32] /* ty=Tensor[(1, 18, 2), float32] span=from_string:22:132 */ = %18(%x5) /* ty=Tensor[(1, 18, 2), float32] */;
  %19 = fn (%p017: Tensor[(1, 100, 2), float32] /* ty=Tensor[(1, 100, 2), float32] */, %p12: Tensor[(1, 18, 2), float32] /* ty=Tensor[(1, 18, 2), float32] */, Primitive=1) -> Tensor[(1, 100, 18), float32] {
    nn.batch_matmul(%p017, %p12, transpose_b=True) /* ty=Tensor[(1, 100, 18), float32] span=from_string:22:109 */
  } /* ty=fn (Tensor[(1, 100, 2), float32], Tensor[(1, 18, 2), float32]) -> Tensor[(1, 100, 18), float32] */;
  let %x_30: Tensor[(1, 100, 18), float32] /* ty=Tensor[(1, 100, 18), float32] span=from_string:40:112 */ = %19(%x_26, %x_29) /* ty=Tensor[(1, 100, 18), float32] */;
  %20 = fn (%p018: Tensor[(1, 100, 18), float32] /* ty=Tensor[(1, 100, 18), float32] */, Primitive=1) -> Tensor[(1, 100, 18), int8] {
    qnn.quantize(%p018, 1f /* ty=float32 span=from_string:23:127 */, 0 /* ty=int32 span=from_string:23:170 */, out_dtype="int8") /* ty=Tensor[(1, 100, 18), int8] span=from_string:23:105 */
  } /* ty=fn (Tensor[(1, 100, 18), float32]) -> Tensor[(1, 100, 18), int8] */;
  let %x_33: Tensor[(1, 100, 18), int8] /* ty=Tensor[(1, 100, 18), int8] span=from_string:41:680 */ = %20(%x_30) /* ty=Tensor[(1, 100, 18), int8] */;
  %21 = fn (%p019: Tensor[(1, 4, 2), float32] /* ty=Tensor[(1, 4, 2), float32] */, %p13: Tensor[(1), float32] /* ty=Tensor[(1), float32] */, Primitive=1) -> Tensor[(1, 4, 2), float32] {
    add(%p019, %p13) /* ty=Tensor[(1, 4, 2), float32] span=from_string:24:103 */
  } /* ty=fn (Tensor[(1, 4, 2), float32], Tensor[(1), float32]) -> Tensor[(1, 4, 2), float32] */;
  let %x_34: Tensor[(1, 4, 2), float32] /* ty=Tensor[(1, 4, 2), float32] span=from_string:41:687 */ = %21(%x_6, %x_0) /* ty=Tensor[(1, 4, 2), float32] */;
  %22 = fn (%p020: Tensor[(1, 18, 2), int8] /* ty=Tensor[(1, 18, 2), int8] */, Primitive=1) -> Tensor[(1, 18, 2), float32] {
    qnn.dequantize(%p020, 2f /* ty=float32 span=from_string:25:127 */, 0 /* ty=int32 span=from_string:25:170 */) /* ty=Tensor[(1, 18, 2), float32] span=from_string:25:105 */
  } /* ty=fn (Tensor[(1, 18, 2), int8]) -> Tensor[(1, 18, 2), float32] */;
  let %x_37: Tensor[(1, 18, 2), float32] /* ty=Tensor[(1, 18, 2), float32] span=from_string:27:123 */ = %22(%x5) /* ty=Tensor[(1, 18, 2), float32] */;
  %23 = fn (%p021: Tensor[(1, 46, 2), int8] /* ty=Tensor[(1, 46, 2), int8] */, Primitive=1) -> Tensor[(1, 46, 2), float32] {
    qnn.dequantize(%p021, 0.5f /* ty=float32 span=from_string:26:129 */, 0 /* ty=int32 span=from_string:26:172 */) /* ty=Tensor[(1, 46, 2), float32] span=from_string:26:105 */
  } /* ty=fn (Tensor[(1, 46, 2), int8]) -> Tensor[(1, 46, 2), float32] */;
  let %x_40: Tensor[(1, 46, 2), float32] /* ty=Tensor[(1, 46, 2), float32] span=from_string:27:130 */ = %23(%x6) /* ty=Tensor[(1, 46, 2), float32] */;
  %24 = fn (%p022: Tensor[(1, 18, 2), float32] /* ty=Tensor[(1, 18, 2), float32] */, %p14: Tensor[(1, 46, 2), float32] /* ty=Tensor[(1, 46, 2), float32] */, Primitive=1) -> Tensor[(1, 18, 46), float32] {
    nn.batch_matmul(%p022, %p14, transpose_b=True) /* ty=Tensor[(1, 18, 46), float32] span=from_string:27:107 */
  } /* ty=fn (Tensor[(1, 18, 2), float32], Tensor[(1, 46, 2), float32]) -> Tensor[(1, 18, 46), float32] */;
  let %x_41: Tensor[(1, 18, 46), float32] /* ty=Tensor[(1, 18, 46), float32] span=from_string:28:116 */ = %24(%x_37, %x_40) /* ty=Tensor[(1, 18, 46), float32] */;
  %25 = fn (%p023: Tensor[(1, 18, 46), float32] /* ty=Tensor[(1, 18, 46), float32] */, Primitive=1) -> Tensor[(1, 18, 46), int8] {
    qnn.quantize(%p023, 1f /* ty=float32 span=from_string:28:125 */, 0 /* ty=int32 span=from_string:28:168 */, out_dtype="int8") /* ty=Tensor[(1, 18, 46), int8] span=from_string:28:103 */
  } /* ty=fn (Tensor[(1, 18, 46), float32]) -> Tensor[(1, 18, 46), int8] */;
  let %x_44: Tensor[(1, 18, 46), int8] /* ty=Tensor[(1, 18, 46), int8] span=from_string:41:694 */ = %25(%x_41) /* ty=Tensor[(1, 18, 46), int8] */;
  %26 = fn (Primitive=1) -> Tensor[(1), float32] {
    zeros(shape=[1], dtype="float32") /* ty=Tensor[(1), float32] span=from_string:29:90 */
  } /* ty=fn () -> Tensor[(1), float32] */;
  let %x_45: Tensor[(1), float32] /* ty=Tensor[(1), float32] span=from_string:32:94 */ = %26() /* ty=Tensor[(1), float32] */;
  %27 = fn (%p024: Tensor[(1), float32] /* ty=Tensor[(1), float32] */, %p15: Tensor[(1), float32] /* ty=Tensor[(1), float32] */, Primitive=1) -> Tensor[(1), float32] {
    multiply(%p024, %p15) /* ty=Tensor[(1), float32] span=from_string:30:92 */
  } /* ty=fn (Tensor[(1), float32], Tensor[(1), float32]) -> Tensor[(1), float32] */;
  let %x_46: Tensor[(1), float32] /* ty=Tensor[(1), float32] span=from_string:31:107 */ = %27(%x9, %x_0) /* ty=Tensor[(1), float32] */;
  %28 = fn (%p025: Tensor[(1), float32] /* ty=Tensor[(1), float32] */, %p16: Tensor[(1), int32] /* ty=Tensor[(1), int32] */, Primitive=1) -> Tensor[(1), float32] {
    collapse_sum_to(%p025, %p16, meta[relay.attrs.InitOpAttrs][0]) /* ty=Tensor[(1), float32] span=from_string:31:91 */
  } /* ty=fn (Tensor[(1), float32], Tensor[(1), int32]) -> Tensor[(1), float32] */;
  let %x_47: Tensor[(1), float32] /* ty=Tensor[(1), float32] span=from_string:32:101 */ = %28(%x_46, meta[relay.Constant][0] /* ty=Tensor[(1), int32] span=from_string:31:119 */) /* ty=Tensor[(1), float32] */;
  %29 = fn (%p026: Tensor[(1), float32] /* ty=Tensor[(1), float32] */, %p17: Tensor[(1), float32] /* ty=Tensor[(1), float32] */, Primitive=1) -> Tensor[(1), float32] {
    add(%p026, %p17) /* ty=Tensor[(1), float32] span=from_string:32:90 */
  } /* ty=fn (Tensor[(1), float32], Tensor[(1), float32]) -> Tensor[(1), float32] */;
  let %x_48: Tensor[(1), float32] /* ty=Tensor[(1), float32] span=from_string:35:94 */ = %29(%x_45, %x_47) /* ty=Tensor[(1), float32] */;
  %30 = fn (%p027: Tensor[(1), float32] /* ty=Tensor[(1), float32] */, %p18: Tensor[(1), float32] /* ty=Tensor[(1), float32] */, Primitive=1) -> Tensor[(1), float32] {
    multiply(%p027, %p18) /* ty=Tensor[(1), float32] span=from_string:33:92 */
  } /* ty=fn (Tensor[(1), float32], Tensor[(1), float32]) -> Tensor[(1), float32] */;
  let %x_49: Tensor[(1), float32] /* ty=Tensor[(1), float32] span=from_string:34:107 */ = %30(%x9, %x_0) /* ty=Tensor[(1), float32] */;
  %31 = fn (%p028: Tensor[(1), float32] /* ty=Tensor[(1), float32] */, %p19: Tensor[(1), int32] /* ty=Tensor[(1), int32] */, Primitive=1) -> Tensor[(1), float32] {
    collapse_sum_to(%p028, %p19, meta[relay.attrs.InitOpAttrs][1]) /* ty=Tensor[(1), float32] span=from_string:34:91 */
  } /* ty=fn (Tensor[(1), float32], Tensor[(1), int32]) -> Tensor[(1), float32] */;
  let %x_50: Tensor[(1), float32] /* ty=Tensor[(1), float32] span=from_string:35:101 */ = %31(%x_49, meta[relay.Constant][1] /* ty=Tensor[(1), int32] span=from_string:34:119 */) /* ty=Tensor[(1), float32] */;
  %32 = fn (%p029: Tensor[(1), float32] /* ty=Tensor[(1), float32] */, %p110: Tensor[(1), float32] /* ty=Tensor[(1), float32] */, Primitive=1) -> Tensor[(1), float32] {
    add(%p029, %p110) /* ty=Tensor[(1), float32] span=from_string:35:90 */
  } /* ty=fn (Tensor[(1), float32], Tensor[(1), float32]) -> Tensor[(1), float32] */;
  let %x_51: Tensor[(1), float32] /* ty=Tensor[(1), float32] span=from_string:36:98 */ = %32(%x_48, %x_50) /* ty=Tensor[(1), float32] */;
  let %x_52: (Tensor[(1), float32],) /* ty=(Tensor[(1), float32],) span=from_string:37:151 */ = (%x_51,) /* ty=(Tensor[(1), float32],) span=from_string:36:97 */;
  let %x_53: (Tensor[(1), float32], (Tensor[(1), float32],)) /* ty=(Tensor[(1), float32], (Tensor[(1), float32],)) span=from_string:41:701 */ = (%x8, %x_52) /* ty=(Tensor[(1), float32], (Tensor[(1), float32],)) span=from_string:37:145 */;
  %33 = fn (%p030: Tensor[(1, 46, 2), int8] /* ty=Tensor[(1, 46, 2), int8] */, Primitive=1) -> Tensor[(1, 46, 2), float32] {
    qnn.dequantize(%p030, 2f /* ty=float32 span=from_string:38:127 */, 0 /* ty=int32 span=from_string:38:170 */) /* ty=Tensor[(1, 46, 2), float32] span=from_string:38:105 */
  } /* ty=fn (Tensor[(1, 46, 2), int8]) -> Tensor[(1, 46, 2), float32] */;
  let %x_56: Tensor[(1, 46, 2), float32] /* ty=Tensor[(1, 46, 2), float32] span=from_string:39:102 */ = %33(%x6) /* ty=Tensor[(1, 46, 2), float32] */;
  %34 = fn (%p031: Tensor[(1, 46, 2), float32] /* ty=Tensor[(1, 46, 2), float32] */, Primitive=1) -> Tensor[(1, 2), int32] {
    argmax(%p031, axis=[1]) /* ty=Tensor[(1, 2), int32] span=from_string:39:95 */
  } /* ty=fn (Tensor[(1, 46, 2), float32]) -> Tensor[(1, 2), int32] */;
  let %x_57: Tensor[(1, 2), int32] /* ty=Tensor[(1, 2), int32] span=from_string:41:708 */ = %34(%x_56) /* ty=Tensor[(1, 2), int32] */;
  %35 = fn (%p032: Tensor[(1, 100, 18), float32] /* ty=Tensor[(1, 100, 18), float32] */, Primitive=1) -> Tensor[(1, 100, 18), int32] {
    cast(%p032, dtype="int32") /* ty=Tensor[(1, 100, 18), int32] span=from_string:40:107 */
  } /* ty=fn (Tensor[(1, 100, 18), float32]) -> Tensor[(1, 100, 18), int32] */;
  let %x_58: Tensor[(1, 100, 18), int32] /* ty=Tensor[(1, 100, 18), int32] span=from_string:41:715 */ = %35(%x_30) /* ty=Tensor[(1, 100, 18), int32] */;
  let %x_59: (Tensor[(1, 4, 4), float32], Tensor[(1, 4, 2), float32], Tensor[(1, 4, 100), float32], Tensor[(31, 65), int32], Tensor[(1, 100, 18), int8], Tensor[(1, 4, 2), float32], Tensor[(1, 18, 46), int8], (Tensor[(1), float32], (Tensor[(1), float32],)), Tensor[(1, 2), int32], Tensor[(1, 100, 18), int32]) /* ty=(Tensor[(1, 4, 4), float32], Tensor[(1, 4, 2), float32], Tensor[(1, 4, 100), float32], Tensor[(31, 65), int32], Tensor[(1, 100, 18), int8], Tensor[(1, 4, 2), float32], Tensor[(1, 18, 46), int8], (Tensor[(1), float32], (Tensor[(1), float32],)), Tensor[(1, 2), int32], Tensor[(1, 100, 18), int32]) span=from_string:42:651 */ = (%x_10, %x_14, %x_21, %x_23, %x_33, %x_34, %x_44, %x_53, %x_57, %x_58) /* ty=(Tensor[(1, 4, 4), float32], Tensor[(1, 4, 2), float32], Tensor[(1, 4, 100), float32], Tensor[(31, 65), int32], Tensor[(1, 100, 18), int8], Tensor[(1, 4, 2), float32], Tensor[(1, 18, 46), int8], (Tensor[(1), float32], (Tensor[(1), float32],)), Tensor[(1, 2), int32], Tensor[(1, 100, 18), int32]) span=from_string:41:651 */;
  let %x_60: (Tensor[(1, 4, 4), float32], Tensor[(1, 4, 2), float32], Tensor[(1, 4, 100), float32], Tensor[(31, 65), int32], Tensor[(1, 100, 18), int8], Tensor[(1, 4, 2), float32], Tensor[(1, 18, 46), int8], (Tensor[(1), float32], (Tensor[(1), float32],)), Tensor[(1, 2), int32], Tensor[(1, 100, 18), int32]) /* ty=(Tensor[(1, 4, 4), float32], Tensor[(1, 4, 2), float32], Tensor[(1, 4, 100), float32], Tensor[(31, 65), int32], Tensor[(1, 100, 18), int8], Tensor[(1, 4, 2), float32], Tensor[(1, 18, 46), int8], (Tensor[(1), float32], (Tensor[(1), float32],)), Tensor[(1, 2), int32], Tensor[(1, 100, 18), int32]) span=from_string:43:649 */ = %x_59;
  let %x_61: (Tensor[(1, 4, 4), float32], Tensor[(1, 4, 2), float32], Tensor[(1, 4, 100), float32], Tensor[(31, 65), int32], Tensor[(1, 100, 18), int8], Tensor[(1, 4, 2), float32], Tensor[(1, 18, 46), int8], (Tensor[(1), float32], (Tensor[(1), float32],)), Tensor[(1, 2), int32], Tensor[(1, 100, 18), int32]) /* ty=(Tensor[(1, 4, 4), float32], Tensor[(1, 4, 2), float32], Tensor[(1, 4, 100), float32], Tensor[(31, 65), int32], Tensor[(1, 100, 18), int8], Tensor[(1, 4, 2), float32], Tensor[(1, 18, 46), int8], (Tensor[(1), float32], (Tensor[(1), float32],)), Tensor[(1, 2), int32], Tensor[(1, 100, 18), int32]) span=from_string:44:3 */ = %x_60;
  %x_61
}

#[metadata]
{
  "root": 1, 
  "nodes": [
    {
      "type_key": ""
    }, 
    {
      "type_key": "Map", 
      "keys": [
        "relay.Constant", 
        "relay.attrs.InitOpAttrs"
      ], 
      "data": [2, 16]
    }, 
    {
      "type_key": "Array", 
      "data": [3, 11]
    }, 
    {
      "type_key": "relay.Constant", 
      "attrs": {
        "_checked_type_": "8", 
        "data": "0", 
        "span": "6", 
        "virtual_device_": "4"
      }
    }, 
    {
      "type_key": "VirtualDevice", 
      "attrs": {
        "device_type_int": "-1", 
        "memory_scope": "5", 
        "target": "0", 
        "virtual_device_id": "-1"
      }
    }, 
    {
      "type_key": "runtime.String"
    }, 
    {
      "type_key": "Span", 
      "attrs": {
        "column": "119", 
        "end_column": "137", 
        "end_line": "31", 
        "line": "31", 
        "source_name": "7"
      }
    }, 
    {
      "type_key": "SourceName", 
      "repr_str": "from_string"
    }, 
    {
      "type_key": "relay.TensorType", 
      "attrs": {
        "dtype": "int32", 
        "shape": "9", 
        "span": "0"
      }
    }, 
    {
      "type_key": "Array", 
      "data": [10]
    }, 
    {
      "type_key": "IntImm", 
      "attrs": {
        "dtype": "int32", 
        "span": "0", 
        "value": "1"
      }
    }, 
    {
      "type_key": "relay.Constant", 
      "attrs": {
        "_checked_type_": "13", 
        "data": "1", 
        "span": "12", 
        "virtual_device_": "4"
      }
    }, 
    {
      "type_key": "Span", 
      "attrs": {
        "column": "119", 
        "end_column": "137", 
        "end_line": "34", 
        "line": "34", 
        "source_name": "7"
      }
    }, 
    {
      "type_key": "relay.TensorType", 
      "attrs": {
        "dtype": "int32", 
        "shape": "14", 
        "span": "0"
      }
    }, 
    {
      "type_key": "Array", 
      "data": [15]
    }, 
    {
      "type_key": "IntImm", 
      "attrs": {
        "dtype": "int32", 
        "span": "0", 
        "value": "1"
      }
    }, 
    {
      "type_key": "Array", 
      "data": [17, 20]
    }, 
    {
      "type_key": "relay.attrs.InitOpAttrs", 
      "attrs": {
        "dtype": "", 
        "shape": "18"
      }
    }, 
    {
      "type_key": "Array", 
      "data": [19]
    }, 
    {
      "type_key": "IntImm", 
      "attrs": {
        "dtype": "int32", 
        "span": "0", 
        "value": "1"
      }
    }, 
    {
      "type_key": "relay.attrs.InitOpAttrs", 
      "attrs": {
        "dtype": "", 
        "shape": "21"
      }
    }, 
    {
      "type_key": "Array", 
      "data": [19]
    }
  ], 
  "b64ndarrays": [
    "P6G0lvBAXt0AAAAAAAAAAAEAAAAAAAAAAQAAAAAgAQABAAAAAAAAAAQAAAAAAAAAAQAAAA==", 
    "P6G0lvBAXt0AAAAAAAAAAAEAAAAAAAAAAQAAAAAgAQABAAAAAAAAAAQAAAAAAAAAAQAAAA=="
  ], 
  "attrs": {"tvm_version": "0.13.0"}
}