#[version = "0.0.5"]
def @main(%x0: Tensor[(1, 4, 2), int8] /* ty=Tensor[(1, 4, 2), int8] span=from_string:18:30 */, %x1: Tensor[(1, 4, 2), int8] /* ty=Tensor[(1, 4, 2), int8] span=from_string:15:20 */, %x2: Tensor[(31, 65), int64] /* ty=Tensor[(31, 65), int64] span=from_string:23:20 */, %x3: Tensor[(58), float32] /* ty=Tensor[(58), float32] */, %x4: Tensor[(1, 100, 2), int8] /* ty=Tensor[(1, 100, 2), int8] span=from_string:27:30 */, %x5: Tensor[(1, 18, 2), int8] /* ty=Tensor[(1, 18, 2), int8] span=from_string:38:30 */, %x6: Tensor[(1, 46, 2), int8] /* ty=Tensor[(1, 46, 2), int8] span=from_string:55:22 */, %x7: Tensor[(49, 17, 31), int32] /* ty=Tensor[(49, 17, 31), int32] */) -> (Tensor[(1, 4, 4), float32], Tensor[(1, 4, 2), float32], Tensor[(1, 4, 100), float32], Tensor[(31, 65), int32], Tensor[(1, 100, 18), int8], Tensor[(1, 4, 2), float32], Tensor[(1, 18, 46), int8], (Tensor[(1), float32], (Tensor[(1), float32],)), Tensor[(1, 2), int32], Tensor[(1, 100, 18), int32]) {
  %0 = fn (Primitive=1) -> Tensor[(1), float32] {
    ones(shape=[1], dtype="float32") /* ty=Tensor[(1), float32] span=from_string:3:88 */
  } /* ty=fn () -> Tensor[(1), float32] */;
  let %x8: Tensor[(1), float32] /* ty=Tensor[(1), float32] span=from_string:54:16 */ = %0() /* ty=Tensor[(1), float32] */;
  %1 = fn (Primitive=1) -> Tensor[(1), float32] {
    ones(shape=[1], dtype="float32") /* ty=Tensor[(1), float32] span=from_string:4:88 */
  } /* ty=fn () -> Tensor[(1), float32] */;
  let %x9: Tensor[(1), float32] /* ty=Tensor[(1), float32] span=from_string:49:25 */ = %1() /* ty=Tensor[(1), float32] */;
  let %x_0: float32 /* ty=float32 span=from_string:7:34 */ = 2f /* ty=float32 span=from_string:5:16 */;
  let %x_1: int32 /* ty=int32 span=from_string:7:40 */ = 0 /* ty=int32 span=from_string:6:15 */;
  %2 = fn (%p0: Tensor[(1, 4, 2), int8] /* ty=Tensor[(1, 4, 2), int8] */, %p1: float32 /* ty=float32 */, %p2: int32 /* ty=int32 */, Primitive=1) -> Tensor[(1, 4, 2), float32] {
    qnn.dequantize(%p0, %p1, %p2) /* ty=Tensor[(1, 4, 2), float32] span=from_string:7:14 */
  } /* ty=fn (Tensor[(1, 4, 2), int8], float32, int32) -> Tensor[(1, 4, 2), float32] */;
  let %x_2: Tensor[(1, 4, 2), float32] /* ty=Tensor[(1, 4, 2), float32] span=from_string:11:30 */ = %2(%x0, %x_0, %x_1) /* ty=Tensor[(1, 4, 2), float32] */;
  let %x_3: float32 /* ty=float32 span=from_string:10:34 */ = 6f /* ty=float32 span=from_string:8:16 */;
  let %x_4: int32 /* ty=int32 span=from_string:10:40 */ = 0 /* ty=int32 span=from_string:9:15 */;
  %3 = fn (%p01: Tensor[(1, 4, 2), int8] /* ty=Tensor[(1, 4, 2), int8] */, %p11: float32 /* ty=float32 */, %p21: int32 /* ty=int32 */, Primitive=1) -> Tensor[(1, 4, 2), float32] {
    qnn.dequantize(%p01, %p11, %p21) /* ty=Tensor[(1, 4, 2), float32] span=from_string:10:14 */
  } /* ty=fn (Tensor[(1, 4, 2), int8], float32, int32) -> Tensor[(1, 4, 2), float32] */;
  let %x_5: Tensor[(1, 4, 2), float32] /* ty=Tensor[(1, 4, 2), float32] span=from_string:35:19 */ = %3(%x1, %x_3, %x_4) /* ty=Tensor[(1, 4, 2), float32] */;
  %4 = fn (%p02: Tensor[(1, 4, 2), float32] /* ty=Tensor[(1, 4, 2), float32] */, %p12: Tensor[(1, 4, 2), float32] /* ty=Tensor[(1, 4, 2), float32] */, Primitive=1) -> Tensor[(1, 4, 4), float32] {
    nn.batch_matmul(%p02, %p12, transpose_b=True) /* ty=Tensor[(1, 4, 4), float32] span=from_string:11:14 */
  } /* ty=fn (Tensor[(1, 4, 2), float32], Tensor[(1, 4, 2), float32]) -> Tensor[(1, 4, 4), float32] */;
  let %x_6: Tensor[(1, 4, 4), float32] /* ty=Tensor[(1, 4, 4), float32] span=from_string:13:18 */ = %4(%x_2, %x_5) /* ty=Tensor[(1, 4, 4), float32] */;
  let %x_7: float32 /* ty=float32 span=from_string:13:24 */ = 1f /* ty=float32 span=from_string:12:16 */;
  %5 = fn (%p03: Tensor[(1, 4, 4), float32] /* ty=Tensor[(1, 4, 4), float32] */, %p13: float32 /* ty=float32 */, Primitive=1) -> Tensor[(1, 4, 4), float32] {
    add(%p03, %p13) /* ty=Tensor[(1, 4, 4), float32] span=from_string:13:14 */
  } /* ty=fn (Tensor[(1, 4, 4), float32], float32) -> Tensor[(1, 4, 4), float32] */;
  let %x_8: Tensor[(1, 4, 4), float32] /* ty=Tensor[(1, 4, 4), float32] span=from_string:14:18 */ = %5(%x_6, %x_7) /* ty=Tensor[(1, 4, 4), float32] */;
  %6 = fn (%p04: Tensor[(1, 4, 4), float32] /* ty=Tensor[(1, 4, 4), float32] */, Primitive=1) -> Tensor[(1, 4, 4), float32] {
    erf(%p04) /* ty=Tensor[(1, 4, 4), float32] span=from_string:14:14 */
  } /* ty=fn (Tensor[(1, 4, 4), float32]) -> Tensor[(1, 4, 4), float32] */;
  let %x_9: Tensor[(1, 4, 4), float32] /* ty=Tensor[(1, 4, 4), float32] span=from_string:57:16 */ = %6(%x_8) /* ty=Tensor[(1, 4, 4), float32] */;
  %7 = fn (%p05: Tensor[(1, 4, 2), int8] /* ty=Tensor[(1, 4, 2), int8] */, Primitive=1) -> Tensor[(1, 4, 2), float32] {
    cast(%p05, dtype="float32") /* ty=Tensor[(1, 4, 2), float32] span=from_string:15:15 */
  } /* ty=fn (Tensor[(1, 4, 2), int8]) -> Tensor[(1, 4, 2), float32] */;
  let %x_10: Tensor[(1, 4, 2), float32] /* ty=Tensor[(1, 4, 2), float32] span=from_string:57:22 */ = %7(%x1) /* ty=Tensor[(1, 4, 2), float32] */;
  let %x_11: float32 /* ty=float32 span=from_string:18:35 */ = 2f /* ty=float32 span=from_string:16:17 */;
  let %x_12: int32 /* ty=int32 span=from_string:18:42 */ = 0 /* ty=int32 span=from_string:17:16 */;
  %8 = fn (%p06: Tensor[(1, 4, 2), int8] /* ty=Tensor[(1, 4, 2), int8] */, %p14: float32 /* ty=float32 */, %p22: int32 /* ty=int32 */, Primitive=1) -> Tensor[(1, 4, 2), float32] {
    qnn.dequantize(%p06, %p14, %p22) /* ty=Tensor[(1, 4, 2), float32] span=from_string:18:15 */
  } /* ty=fn (Tensor[(1, 4, 2), int8], float32, int32) -> Tensor[(1, 4, 2), float32] */;
  let %x_13: Tensor[(1, 4, 2), float32] /* ty=Tensor[(1, 4, 2), float32] span=from_string:22:31 */ = %8(%x0, %x_11, %x_12) /* ty=Tensor[(1, 4, 2), float32] */;
  let %x_14: float32 /* ty=float32 span=from_string:21:35 */ = 6f /* ty=float32 span=from_string:19:17 */;
  let %x_15: int32 /* ty=int32 span=from_string:21:42 */ = 0 /* ty=int32 span=from_string:20:16 */;
  %9 = fn (%p07: Tensor[(1, 100, 2), int8] /* ty=Tensor[(1, 100, 2), int8] */, %p15: float32 /* ty=float32 */, %p23: int32 /* ty=int32 */, Primitive=1) -> Tensor[(1, 100, 2), float32] {
    qnn.dequantize(%p07, %p15, %p23) /* ty=Tensor[(1, 100, 2), float32] span=from_string:21:15 */
  } /* ty=fn (Tensor[(1, 100, 2), int8], float32, int32) -> Tensor[(1, 100, 2), float32] */;
  let %x_16: Tensor[(1, 100, 2), float32] /* ty=Tensor[(1, 100, 2), float32] span=from_string:22:38 */ = %9(%x4, %x_14, %x_15) /* ty=Tensor[(1, 100, 2), float32] */;
  %10 = fn (%p08: Tensor[(1, 4, 2), float32] /* ty=Tensor[(1, 4, 2), float32] */, %p16: Tensor[(1, 100, 2), float32] /* ty=Tensor[(1, 100, 2), float32] */, Primitive=1) -> Tensor[(1, 4, 100), float32] {
    nn.batch_matmul(%p08, %p16, transpose_b=True) /* ty=Tensor[(1, 4, 100), float32] span=from_string:22:15 */
  } /* ty=fn (Tensor[(1, 4, 2), float32], Tensor[(1, 100, 2), float32]) -> Tensor[(1, 4, 100), float32] */;
  let %x_17: Tensor[(1, 4, 100), float32] /* ty=Tensor[(1, 4, 100), float32] span=from_string:57:29 */ = %10(%x_13, %x_16) /* ty=Tensor[(1, 4, 100), float32] */;
  %11 = fn (%p09: Tensor[(31, 65), int64] /* ty=Tensor[(31, 65), int64] */, Primitive=1) -> Tensor[(31, 65), bool] {
    cast(%p09, dtype="bool") /* ty=Tensor[(31, 65), bool] span=from_string:23:15 */
  } /* ty=fn (Tensor[(31, 65), int64]) -> Tensor[(31, 65), bool] */;
  let %x_18: Tensor[(31, 65), bool] /* ty=Tensor[(31, 65), bool] span=from_string:24:20 */ = %11(%x2) /* ty=Tensor[(31, 65), bool] */;
  %12 = fn (%p010: Tensor[(31, 65), bool] /* ty=Tensor[(31, 65), bool] */, Primitive=1) -> Tensor[(31, 65), int32] {
    cast(%p010, dtype="int32") /* ty=Tensor[(31, 65), int32] span=from_string:24:15 */
  } /* ty=fn (Tensor[(31, 65), bool]) -> Tensor[(31, 65), int32] */;
  let %x_19: Tensor[(31, 65), int32] /* ty=Tensor[(31, 65), int32] span=from_string:57:36 */ = %12(%x_18) /* ty=Tensor[(31, 65), int32] */;
  let %x_20: float32 /* ty=float32 span=from_string:27:35 */ = 2f /* ty=float32 span=from_string:25:17 */;
  let %x_21: int32 /* ty=int32 span=from_string:27:42 */ = 0 /* ty=int32 span=from_string:26:16 */;
  %13 = fn (%p011: Tensor[(1, 100, 2), int8] /* ty=Tensor[(1, 100, 2), int8] */, %p17: float32 /* ty=float32 */, %p24: int32 /* ty=int32 */, Primitive=1) -> Tensor[(1, 100, 2), float32] {
    qnn.dequantize(%p011, %p17, %p24) /* ty=Tensor[(1, 100, 2), float32] span=from_string:27:15 */
  } /* ty=fn (Tensor[(1, 100, 2), int8], float32, int32) -> Tensor[(1, 100, 2), float32] */;
  let %x_22: Tensor[(1, 100, 2), float32] /* ty=Tensor[(1, 100, 2), float32] span=from_string:31:31 */ = %13(%x4, %x_20, %x_21) /* ty=Tensor[(1, 100, 2), float32] */;
  let %x_23: float32 /* ty=float32 span=from_string:30:35 */ = 0.5f /* ty=float32 span=from_string:28:19 */;
  let %x_24: int32 /* ty=int32 span=from_string:30:42 */ = 0 /* ty=int32 span=from_string:29:16 */;
  %14 = fn (%p012: Tensor[(1, 18, 2), int8] /* ty=Tensor[(1, 18, 2), int8] */, %p18: float32 /* ty=float32 */, %p25: int32 /* ty=int32 */, Primitive=1) -> Tensor[(1, 18, 2), float32] {
    qnn.dequantize(%p012, %p18, %p25) /* ty=Tensor[(1, 18, 2), float32] span=from_string:30:15 */
  } /* ty=fn (Tensor[(1, 18, 2), int8], float32, int32) -> Tensor[(1, 18, 2), float32] */;
  let %x_25: Tensor[(1, 18, 2), float32] /* ty=Tensor[(1, 18, 2), float32] span=from_string:31:38 */ = %14(%x5, %x_23, %x_24) /* ty=Tensor[(1, 18, 2), float32] */;
  %15 = fn (%p013: Tensor[(1, 100, 2), float32] /* ty=Tensor[(1, 100, 2), float32] */, %p19: Tensor[(1, 18, 2), float32] /* ty=Tensor[(1, 18, 2), float32] */, Primitive=1) -> Tensor[(1, 100, 18), float32] {
    nn.batch_matmul(%p013, %p19, transpose_b=True) /* ty=Tensor[(1, 100, 18), float32] span=from_string:31:15 */
  } /* ty=fn (Tensor[(1, 100, 2), float32], Tensor[(1, 18, 2), float32]) -> Tensor[(1, 100, 18), float32] */;
  let %x_26: Tensor[(1, 100, 18), float32] /* ty=Tensor[(1, 100, 18), float32] span=from_string:56:20 */ = %15(%x_22, %x_25) /* ty=Tensor[(1, 100, 18), float32] */;
  let %x_27: float32 /* ty=float32 span=from_string:34:35 */ = 1f /* ty=float32 span=from_string:32:17 */;
  let %x_28: int32 /* ty=int32 span=from_string:34:42 */ = 0 /* ty=int32 span=from_string:33:16 */;
  %16 = fn (%p014: Tensor[(1, 100, 18), float32] /* ty=Tensor[(1, 100, 18), float32] */, %p110: float32 /* ty=float32 */, %p26: int32 /* ty=int32 */, Primitive=1) -> Tensor[(1, 100, 18), int8] {
    qnn.quantize(%p014, %p110, %p26, out_dtype="int8") /* ty=Tensor[(1, 100, 18), int8] span=from_string:34:15 */
  } /* ty=fn (Tensor[(1, 100, 18), float32], float32, int32) -> Tensor[(1, 100, 18), int8] */;
  let %x_29: Tensor[(1, 100, 18), int8] /* ty=Tensor[(1, 100, 18), int8] span=from_string:57:43 */ = %16(%x_26, %x_27, %x_28) /* ty=Tensor[(1, 100, 18), int8] */;
  %17 = fn (%p015: Tensor[(1, 4, 2), float32] /* ty=Tensor[(1, 4, 2), float32] */, %p111: Tensor[(1), float32] /* ty=Tensor[(1), float32] */, Primitive=1) -> Tensor[(1, 4, 2), float32] {
    add(%p015, %p111) /* ty=Tensor[(1, 4, 2), float32] span=from_string:35:15 */
  } /* ty=fn (Tensor[(1, 4, 2), float32], Tensor[(1), float32]) -> Tensor[(1, 4, 2), float32] */;
  let %x_30: Tensor[(1, 4, 2), float32] /* ty=Tensor[(1, 4, 2), float32] span=from_string:57:50 */ = %17(%x_5, %x8) /* ty=Tensor[(1, 4, 2), float32] */;
  let %x_31: float32 /* ty=float32 span=from_string:38:35 */ = 2f /* ty=float32 span=from_string:36:17 */;
  let %x_32: int32 /* ty=int32 span=from_string:38:42 */ = 0 /* ty=int32 span=from_string:37:16 */;
  %18 = fn (%p016: Tensor[(1, 18, 2), int8] /* ty=Tensor[(1, 18, 2), int8] */, %p112: float32 /* ty=float32 */, %p27: int32 /* ty=int32 */, Primitive=1) -> Tensor[(1, 18, 2), float32] {
    qnn.dequantize(%p016, %p112, %p27) /* ty=Tensor[(1, 18, 2), float32] span=from_string:38:15 */
  } /* ty=fn (Tensor[(1, 18, 2), int8], float32, int32) -> Tensor[(1, 18, 2), float32] */;
  let %x_33: Tensor[(1, 18, 2), float32] /* ty=Tensor[(1, 18, 2), float32] span=from_string:42:31 */ = %18(%x5, %x_31, %x_32) /* ty=Tensor[(1, 18, 2), float32] */;
  let %x_34: float32 /* ty=float32 span=from_string:41:35 */ = 0.5f /* ty=float32 span=from_string:39:19 */;
  let %x_35: int32 /* ty=int32 span=from_string:41:42 */ = 0 /* ty=int32 span=from_string:40:16 */;
  %19 = fn (%p017: Tensor[(1, 46, 2), int8] /* ty=Tensor[(1, 46, 2), int8] */, %p113: float32 /* ty=float32 */, %p28: int32 /* ty=int32 */, Primitive=1) -> Tensor[(1, 46, 2), float32] {
    qnn.dequantize(%p017, %p113, %p28) /* ty=Tensor[(1, 46, 2), float32] span=from_string:41:15 */
  } /* ty=fn (Tensor[(1, 46, 2), int8], float32, int32) -> Tensor[(1, 46, 2), float32] */;
  let %x_36: Tensor[(1, 46, 2), float32] /* ty=Tensor[(1, 46, 2), float32] span=from_string:42:38 */ = %19(%x6, %x_34, %x_35) /* ty=Tensor[(1, 46, 2), float32] */;
  %20 = fn (%p018: Tensor[(1, 18, 2), float32] /* ty=Tensor[(1, 18, 2), float32] */, %p114: Tensor[(1, 46, 2), float32] /* ty=Tensor[(1, 46, 2), float32] */, Primitive=1) -> Tensor[(1, 18, 46), float32] {
    nn.batch_matmul(%p018, %p114, transpose_b=True) /* ty=Tensor[(1, 18, 46), float32] span=from_string:42:15 */
  } /* ty=fn (Tensor[(1, 18, 2), float32], Tensor[(1, 46, 2), float32]) -> Tensor[(1, 18, 46), float32] */;
  let %x_37: Tensor[(1, 18, 46), float32] /* ty=Tensor[(1, 18, 46), float32] span=from_string:45:28 */ = %20(%x_33, %x_36) /* ty=Tensor[(1, 18, 46), float32] */;
  let %x_38: float32 /* ty=float32 span=from_string:45:35 */ = 1f /* ty=float32 span=from_string:43:17 */;
  let %x_39: int32 /* ty=int32 span=from_string:45:42 */ = 0 /* ty=int32 span=from_string:44:16 */;
  %21 = fn (%p019: Tensor[(1, 18, 46), float32] /* ty=Tensor[(1, 18, 46), float32] */, %p115: float32 /* ty=float32 */, %p29: int32 /* ty=int32 */, Primitive=1) -> Tensor[(1, 18, 46), int8] {
    qnn.quantize(%p019, %p115, %p29, out_dtype="int8") /* ty=Tensor[(1, 18, 46), int8] span=from_string:45:15 */
  } /* ty=fn (Tensor[(1, 18, 46), float32], float32, int32) -> Tensor[(1, 18, 46), int8] */;
  let %x_40: Tensor[(1, 18, 46), int8] /* ty=Tensor[(1, 18, 46), int8] span=from_string:57:57 */ = %21(%x_37, %x_38, %x_39) /* ty=Tensor[(1, 18, 46), int8] */;
  %22 = fn (%p020: Tensor[(1), float32] /* ty=Tensor[(1), float32] */, %p116: Tensor[(1), float32] /* ty=Tensor[(1), float32] */, Primitive=1) -> Tensor[(1), float32] {
    multiply(%p020, %p116) /* ty=Tensor[(1), float32] span=from_string:46:16 */
  } /* ty=fn (Tensor[(1), float32], Tensor[(1), float32]) -> Tensor[(1), float32] */;
  let %x_41: Tensor[(1), float32] /* ty=Tensor[(1), float32] span=from_string:48:31 */ = %22(%x9, %x8) /* ty=Tensor[(1), float32] */;
  let %x_42: Tensor[(1), int32] /* ty=Tensor[(1), int32] span=from_string:48:38 */ = meta[relay.Constant][0] /* ty=Tensor[(1), int32] span=from_string:47:20 */;
  %23 = fn (%p021: Tensor[(1), float32] /* ty=Tensor[(1), float32] */, %p117: Tensor[(1), int32] /* ty=Tensor[(1), int32] */, Primitive=1) -> Tensor[(1), float32] {
    collapse_sum_to(%p021, %p117, meta[relay.attrs.InitOpAttrs][0]) /* ty=Tensor[(1), float32] span=from_string:48:15 */
  } /* ty=fn (Tensor[(1), float32], Tensor[(1), int32]) -> Tensor[(1), float32] */;
  let %x_43: Tensor[(1), float32] /* ty=Tensor[(1), float32] span=from_string:52:19 */ = %23(%x_41, %x_42) /* ty=Tensor[(1), float32] */;
  %24 = fn (%p022: Tensor[(1), float32] /* ty=Tensor[(1), float32] */, %p118: Tensor[(1), float32] /* ty=Tensor[(1), float32] */, Primitive=1) -> Tensor[(1), float32] {
    multiply(%p022, %p118) /* ty=Tensor[(1), float32] span=from_string:49:16 */
  } /* ty=fn (Tensor[(1), float32], Tensor[(1), float32]) -> Tensor[(1), float32] */;
  let %x_44: Tensor[(1), float32] /* ty=Tensor[(1), float32] span=from_string:51:31 */ = %24(%x9, %x8) /* ty=Tensor[(1), float32] */;
  let %x_45: Tensor[(1), int32] /* ty=Tensor[(1), int32] span=from_string:51:38 */ = meta[relay.Constant][1] /* ty=Tensor[(1), int32] span=from_string:50:20 */;
  %25 = fn (%p023: Tensor[(1), float32] /* ty=Tensor[(1), float32] */, %p119: Tensor[(1), int32] /* ty=Tensor[(1), int32] */, Primitive=1) -> Tensor[(1), float32] {
    collapse_sum_to(%p023, %p119, meta[relay.attrs.InitOpAttrs][1]) /* ty=Tensor[(1), float32] span=from_string:51:15 */
  } /* ty=fn (Tensor[(1), float32], Tensor[(1), int32]) -> Tensor[(1), float32] */;
  let %x_46: Tensor[(1), float32] /* ty=Tensor[(1), float32] span=from_string:52:26 */ = %25(%x_44, %x_45) /* ty=Tensor[(1), float32] */;
  %26 = fn (%p024: Tensor[(1), float32] /* ty=Tensor[(1), float32] */, %p120: Tensor[(1), float32] /* ty=Tensor[(1), float32] */, Primitive=1) -> Tensor[(1), float32] {
    add(%p024, %p120) /* ty=Tensor[(1), float32] span=from_string:52:15 */
  } /* ty=fn (Tensor[(1), float32], Tensor[(1), float32]) -> Tensor[(1), float32] */;
  let %x_47: Tensor[(1), float32] /* ty=Tensor[(1), float32] span=from_string:53:16 */ = %26(%x_43, %x_46) /* ty=Tensor[(1), float32] */;
  let %x_48: (Tensor[(1), float32],) /* ty=(Tensor[(1), float32],) span=from_string:54:21 */ = (%x_47,) /* ty=(Tensor[(1), float32],) span=from_string:53:15 */;
  let %x_49: (Tensor[(1), float32], (Tensor[(1), float32],)) /* ty=(Tensor[(1), float32], (Tensor[(1), float32],)) span=from_string:57:64 */ = (%x8, %x_48) /* ty=(Tensor[(1), float32], (Tensor[(1), float32],)) span=from_string:54:15 */;
  %27 = fn (%p025: Tensor[(1, 46, 2), int8] /* ty=Tensor[(1, 46, 2), int8] */, Primitive=1) -> Tensor[(1, 2), int32] {
    argmax(%p025, axis=[1]) /* ty=Tensor[(1, 2), int32] span=from_string:55:15 */
  } /* ty=fn (Tensor[(1, 46, 2), int8]) -> Tensor[(1, 2), int32] */;
  let %x_50: Tensor[(1, 2), int32] /* ty=Tensor[(1, 2), int32] span=from_string:57:71 */ = %27(%x6) /* ty=Tensor[(1, 2), int32] */;
  %28 = fn (%p026: Tensor[(1, 100, 18), float32] /* ty=Tensor[(1, 100, 18), float32] */, Primitive=1) -> Tensor[(1, 100, 18), int32] {
    cast(%p026, dtype="int32") /* ty=Tensor[(1, 100, 18), int32] span=from_string:56:15 */
  } /* ty=fn (Tensor[(1, 100, 18), float32]) -> Tensor[(1, 100, 18), int32] */;
  let %x_51: Tensor[(1, 100, 18), int32] /* ty=Tensor[(1, 100, 18), int32] span=from_string:57:78 */ = %28(%x_26) /* ty=Tensor[(1, 100, 18), int32] */;
  let %x_52: (Tensor[(1, 4, 4), float32], Tensor[(1, 4, 2), float32], Tensor[(1, 4, 100), float32], Tensor[(31, 65), int32], Tensor[(1, 100, 18), int8], Tensor[(1, 4, 2), float32], Tensor[(1, 18, 46), int8], (Tensor[(1), float32], (Tensor[(1), float32],)), Tensor[(1, 2), int32], Tensor[(1, 100, 18), int32]) /* ty=(Tensor[(1, 4, 4), float32], Tensor[(1, 4, 2), float32], Tensor[(1, 4, 100), float32], Tensor[(31, 65), int32], Tensor[(1, 100, 18), int8], Tensor[(1, 4, 2), float32], Tensor[(1, 18, 46), int8], (Tensor[(1), float32], (Tensor[(1), float32],)), Tensor[(1, 2), int32], Tensor[(1, 100, 18), int32]) span=from_string:58:15 */ = (%x_9, %x_10, %x_17, %x_19, %x_29, %x_30, %x_40, %x_49, %x_50, %x_51) /* ty=(Tensor[(1, 4, 4), float32], Tensor[(1, 4, 2), float32], Tensor[(1, 4, 100), float32], Tensor[(31, 65), int32], Tensor[(1, 100, 18), int8], Tensor[(1, 4, 2), float32], Tensor[(1, 18, 46), int8], (Tensor[(1), float32], (Tensor[(1), float32],)), Tensor[(1, 2), int32], Tensor[(1, 100, 18), int32]) span=from_string:57:15 */;
  let %x_53: (Tensor[(1, 4, 4), float32], Tensor[(1, 4, 2), float32], Tensor[(1, 4, 100), float32], Tensor[(31, 65), int32], Tensor[(1, 100, 18), int8], Tensor[(1, 4, 2), float32], Tensor[(1, 18, 46), int8], (Tensor[(1), float32], (Tensor[(1), float32],)), Tensor[(1, 2), int32], Tensor[(1, 100, 18), int32]) /* ty=(Tensor[(1, 4, 4), float32], Tensor[(1, 4, 2), float32], Tensor[(1, 4, 100), float32], Tensor[(31, 65), int32], Tensor[(1, 100, 18), int8], Tensor[(1, 4, 2), float32], Tensor[(1, 18, 46), int8], (Tensor[(1), float32], (Tensor[(1), float32],)), Tensor[(1, 2), int32], Tensor[(1, 100, 18), int32]) span=from_string:59:15 */ = %x_52;
  let %x_54: (Tensor[(1, 4, 4), float32], Tensor[(1, 4, 2), float32], Tensor[(1, 4, 100), float32], Tensor[(31, 65), int32], Tensor[(1, 100, 18), int8], Tensor[(1, 4, 2), float32], Tensor[(1, 18, 46), int8], (Tensor[(1), float32], (Tensor[(1), float32],)), Tensor[(1, 2), int32], Tensor[(1, 100, 18), int32]) /* ty=(Tensor[(1, 4, 4), float32], Tensor[(1, 4, 2), float32], Tensor[(1, 4, 100), float32], Tensor[(31, 65), int32], Tensor[(1, 100, 18), int8], Tensor[(1, 4, 2), float32], Tensor[(1, 18, 46), int8], (Tensor[(1), float32], (Tensor[(1), float32],)), Tensor[(1, 2), int32], Tensor[(1, 100, 18), int32]) span=from_string:60:3 */ = %x_53;
  %x_54
}

#[metadata]
{
  "root": 1, 
  "nodes": [
    {
      "type_key": ""
    }, 
    {
      "type_key": "Map", 
      "keys": [
        "relay.attrs.InitOpAttrs", 
        "relay.Constant"
      ], 
      "data": [2, 8]
    }, 
    {
      "type_key": "Array", 
      "data": [3, 6]
    }, 
    {
      "type_key": "relay.attrs.InitOpAttrs", 
      "attrs": {
        "dtype": "", 
        "shape": "4"
      }
    }, 
    {
      "type_key": "Array", 
      "data": [5]
    }, 
    {
      "type_key": "IntImm", 
      "attrs": {
        "dtype": "int32", 
        "span": "0", 
        "value": "1"
      }
    }, 
    {
      "type_key": "relay.attrs.InitOpAttrs", 
      "attrs": {
        "dtype": "", 
        "shape": "7"
      }
    }, 
    {
      "type_key": "Array", 
      "data": [5]
    }, 
    {
      "type_key": "Array", 
      "data": [9, 17]
    }, 
    {
      "type_key": "relay.Constant", 
      "attrs": {
        "_checked_type_": "14", 
        "data": "0", 
        "span": "12", 
        "virtual_device_": "10"
      }
    }, 
    {
      "type_key": "VirtualDevice", 
      "attrs": {
        "device_type_int": "-1", 
        "memory_scope": "11", 
        "target": "0", 
        "virtual_device_id": "-1"
      }
    }, 
    {
      "type_key": "runtime.String"
    }, 
    {
      "type_key": "Span", 
      "attrs": {
        "column": "20", 
        "end_column": "38", 
        "end_line": "47", 
        "line": "47", 
        "source_name": "13"
      }
    }, 
    {
      "type_key": "SourceName", 
      "repr_str": "from_string"
    }, 
    {
      "type_key": "relay.TensorType", 
      "attrs": {
        "dtype": "int32", 
        "shape": "15", 
        "span": "0"
      }
    }, 
    {
      "type_key": "Array", 
      "data": [16]
    }, 
    {
      "type_key": "IntImm", 
      "attrs": {
        "dtype": "int32", 
        "span": "0", 
        "value": "1"
      }
    }, 
    {
      "type_key": "relay.Constant", 
      "attrs": {
        "_checked_type_": "19", 
        "data": "1", 
        "span": "18", 
        "virtual_device_": "10"
      }
    }, 
    {
      "type_key": "Span", 
      "attrs": {
        "column": "20", 
        "end_column": "38", 
        "end_line": "50", 
        "line": "50", 
        "source_name": "13"
      }
    }, 
    {
      "type_key": "relay.TensorType", 
      "attrs": {
        "dtype": "int32", 
        "shape": "20", 
        "span": "0"
      }
    }, 
    {
      "type_key": "Array", 
      "data": [21]
    }, 
    {
      "type_key": "IntImm", 
      "attrs": {
        "dtype": "int32", 
        "span": "0", 
        "value": "1"
      }
    }
  ], 
  "b64ndarrays": [
    "P6G0lvBAXt0AAAAAAAAAAAEAAAAAAAAAAQAAAAAgAQABAAAAAAAAAAQAAAAAAAAAAQAAAA==", 
    "P6G0lvBAXt0AAAAAAAAAAAEAAAAAAAAAAQAAAAAgAQABAAAAAAAAAAQAAAAAAAAAAQAAAA=="
  ], 
  "attrs": {"tvm_version": "0.13.0"}
}