#[version = "0.0.5"]
def @main(%x0: Tensor[(1, 4, 2), int8] /* ty=Tensor[(1, 4, 2), int8] span=from_string:6:23 */, %x1: Tensor[(1, 4, 2), int8] /* ty=Tensor[(1, 4, 2), int8] span=from_string:12:106 */, %x2: Tensor[(31, 65), int64] /* ty=Tensor[(31, 65), int64] span=from_string:19:100 */, %x3: Tensor[(58), float32] /* ty=Tensor[(58), float32] span=from_string:15:120 */, %x4: Tensor[(1, 100, 2), int8] /* ty=Tensor[(1, 100, 2), int8] span=from_string:21:122 */, %x5: Tensor[(1, 18, 2), int8] /* ty=Tensor[(1, 18, 2), int8] span=from_string:26:120 */, %x6: Tensor[(1, 46, 2), int8] /* ty=Tensor[(1, 46, 2), int8] span=from_string:40:120 */, %x7: Tensor[(49, 17, 31), int32] /* ty=Tensor[(49, 17, 31), int32] span=from_string:42:124 */) -> (Tensor[(1, 4, 4), float32], Tensor[(1, 4, 2), float32], Tensor[(1, 4, 100), float32], Tensor[(31, 65), int32], Tensor[(1, 100, 18), int8], Tensor[(1, 4, 2), float32], Tensor[(1, 18, 46), int8], (Tensor[(1), float32], (Tensor[(1), float32],)), Tensor[(1, 2), int32], Tensor[(1, 100, 18), int32]) {
  let %x_0: Tensor[(1), float32] /* ty=Tensor[(1), float32] span=from_string:36:116 */ = ones(shape=[1], dtype="float32");
  let %x8: Tensor[(1), float32] /* ty=Tensor[(1), float32] span=from_string:39:146 */ = multiply(%x_0, %x_0);
  let %x9: Tensor[(1), float32] /* ty=Tensor[(1), float32] span=from_string:31:18 */ = ones_like(%x8);
  let %x_01 = 2f /* ty=float32 span=from_string:6:30 */;
  let %x_1 = 0 /* ty=int32 span=from_string:6:73 */;
  let %x_3: Tensor[(1, 4, 2), float32] /* ty=Tensor[(1, 4, 2), float32] span=from_string:9:117 */ = qnn.dequantize(%x0, %x_01, %x_1);
  let %x_17: Tensor[(1, 4, 2), float32] /* ty=Tensor[(1, 4, 2), float32] span=from_string:18:123 */ = %x_3;
  let %x_2 = 6f /* ty=float32 span=from_string:8:124 */;
  let %x_31 = 0 /* ty=int32 span=from_string:8:167 */;
  let %x_6: Tensor[(1, 4, 2), float32] /* ty=Tensor[(1, 4, 2), float32] span=from_string:25:107 */ = qnn.dequantize(%x1, %x_2, %x_31);
  let %x_7: Tensor[(1, 4, 4), float32] /* ty=Tensor[(1, 4, 4), float32] span=from_string:10:106 */ = nn.batch_matmul(%x_3, %x_6, transpose_b=True);
  let %x_4 = 1f /* ty=float32 span=from_string:10:114 */;
  let %x_9: Tensor[(1, 4, 4), float32] /* ty=Tensor[(1, 4, 4), float32] span=from_string:11:107 */ = add(%x_7, %x_4);
  let %x_10: Tensor[(1, 4, 4), float32] /* ty=Tensor[(1, 4, 4), float32] span=from_string:43:652 */ = erf(%x_9);
  let %x_11: Tensor[(1, 4, 2), int16] /* ty=Tensor[(1, 4, 2), int16] span=from_string:13:106 */ = cast(%x1, dtype="int16");
  let %x_12: Tensor[(1, 4, 2), int32] /* ty=Tensor[(1, 4, 2), int32] span=from_string:14:111 */ = cast(%x_11, dtype="int32");
  let %x_13: Tensor[(1, 4, 2), int64] /* ty=Tensor[(1, 4, 2), int64] span=from_string:15:113 */ = cast_like(%x_12, %x2);
  let %x_14: Tensor[(1, 4, 2), float32] /* ty=Tensor[(1, 4, 2), float32] span=from_string:43:659 */ = cast_like(%x_13, %x3);
  let %x_5 = 6f /* ty=float32 span=from_string:17:129 */;
  let %x_61 = 0 /* ty=int32 span=from_string:17:173 */;
  let %x_20: Tensor[(1, 100, 2), float32] /* ty=Tensor[(1, 100, 2), float32] span=from_string:18:130 */ = qnn.dequantize(%x4, %x_5, %x_61);
  let %x_21: Tensor[(1, 4, 100), float32] /* ty=Tensor[(1, 4, 100), float32] span=from_string:43:666 */ = nn.batch_matmul(%x_17, %x_20, transpose_b=True);
  let %x_22: Tensor[(31, 65), bool] /* ty=Tensor[(31, 65), bool] span=from_string:20:104 */ = cast(%x2, dtype="bool");
  let %x_23: Tensor[(31, 65), int32] /* ty=Tensor[(31, 65), int32] span=from_string:43:673 */ = cast(%x_22, dtype="int32");
  let %x_71 = 2f /* ty=float32 span=from_string:21:129 */;
  let %x_8 = 0 /* ty=int32 span=from_string:21:173 */;
  let %x_26: Tensor[(1, 100, 2), float32] /* ty=Tensor[(1, 100, 2), float32] span=from_string:23:125 */ = qnn.dequantize(%x4, %x_71, %x_8);
  let %x_91 = 0.5f /* ty=float32 span=from_string:22:129 */;
  let %x_101 = 0 /* ty=int32 span=from_string:22:173 */;
  let %x_29: Tensor[(1, 18, 2), float32] /* ty=Tensor[(1, 18, 2), float32] span=from_string:23:132 */ = qnn.dequantize(%x5, %x_91, %x_101);
  let %x_30: Tensor[(1, 100, 18), float32] /* ty=Tensor[(1, 100, 18), float32] span=from_string:42:117 */ = nn.batch_matmul(%x_26, %x_29, transpose_b=True);
  let %x_111 = 1f /* ty=float32 span=from_string:24:127 */;
  let %x_121 = 0 /* ty=int32 span=from_string:24:171 */;
  let %x_33: Tensor[(1, 100, 18), int8] /* ty=Tensor[(1, 100, 18), int8] span=from_string:43:680 */ = qnn.quantize(%x_30, %x_111, %x_121, out_dtype="int8");
  let %x_34: Tensor[(1, 4, 2), float32] /* ty=Tensor[(1, 4, 2), float32] span=from_string:43:687 */ = add(%x_6, %x_0);
  let %x_131 = 2f /* ty=float32 span=from_string:26:127 */;
  let %x_141 = 0 /* ty=int32 span=from_string:26:171 */;
  let %x_37: Tensor[(1, 18, 2), float32] /* ty=Tensor[(1, 18, 2), float32] span=from_string:28:123 */ = qnn.dequantize(%x5, %x_131, %x_141);
  let %x_15 = 0.5f /* ty=float32 span=from_string:27:129 */;
  let %x_16 = 0 /* ty=int32 span=from_string:27:173 */;
  let %x_40: Tensor[(1, 46, 2), float32] /* ty=Tensor[(1, 46, 2), float32] span=from_string:28:130 */ = qnn.dequantize(%x6, %x_15, %x_16);
  let %x_41: Tensor[(1, 18, 46), float32] /* ty=Tensor[(1, 18, 46), float32] span=from_string:29:116 */ = nn.batch_matmul(%x_37, %x_40, transpose_b=True);
  let %x_171 = 1f /* ty=float32 span=from_string:29:125 */;
  let %x_18 = 0 /* ty=int32 span=from_string:29:169 */;
  let %x_44: Tensor[(1, 18, 46), int8] /* ty=Tensor[(1, 18, 46), int8] span=from_string:43:694 */ = qnn.quantize(%x_41, %x_171, %x_18, out_dtype="int8");
  let %x_45: Tensor[(1), float32] /* ty=Tensor[(1), float32] span=from_string:34:94 */ = zeros_like(%x_0);
  let %x_46: Tensor[(1), float32] /* ty=Tensor[(1), float32] span=from_string:33:109 */ = multiply(%x9, %x_0);
  let %x_49: Tensor[(1), float32] /* ty=Tensor[(1), float32] span=from_string:36:109 */ = %x_46;
  let %x_47: Tensor[(1), float32] /* ty=Tensor[(1), float32] span=from_string:34:101 */ = collapse_sum_like(%x_46, %x_0);
  let %x_48: Tensor[(1), float32] /* ty=Tensor[(1), float32] span=from_string:37:94 */ = add(%x_45, %x_47);
  let %x_50: Tensor[(1), float32] /* ty=Tensor[(1), float32] span=from_string:37:101 */ = collapse_sum_like(%x_49, %x_0);
  let %x_51: Tensor[(1), float32] /* ty=Tensor[(1), float32] span=from_string:38:98 */ = add(%x_48, %x_50);
  let %x_52: (Tensor[(1), float32],) /* ty=(Tensor[(1), float32],) span=from_string:39:151 */ = (%x_51,) /* ty=(Tensor[(1), float32],) span=from_string:38:97 */;
  let %x_53: (Tensor[(1), float32], (Tensor[(1), float32],)) /* ty=(Tensor[(1), float32], (Tensor[(1), float32],)) span=from_string:43:701 */ = (%x8, %x_52) /* ty=(Tensor[(1), float32], (Tensor[(1), float32],)) span=from_string:39:145 */;
  let %x_19 = 2f /* ty=float32 span=from_string:40:127 */;
  let %x_201 = 0 /* ty=int32 span=from_string:40:171 */;
  let %x_56: Tensor[(1, 46, 2), float32] /* ty=Tensor[(1, 46, 2), float32] span=from_string:41:102 */ = qnn.dequantize(%x6, %x_19, %x_201);
  let %x_57: Tensor[(1, 2), int32] /* ty=Tensor[(1, 2), int32] span=from_string:43:708 */ = argmax(%x_56, axis=[1]);
  let %x_58: Tensor[(1, 100, 18), int32] /* ty=Tensor[(1, 100, 18), int32] span=from_string:43:715 */ = cast_like(%x_30, %x7);
  let %x_59: (Tensor[(1, 4, 4), float32], Tensor[(1, 4, 2), float32], Tensor[(1, 4, 100), float32], Tensor[(31, 65), int32], Tensor[(1, 100, 18), int8], Tensor[(1, 4, 2), float32], Tensor[(1, 18, 46), int8], (Tensor[(1), float32], (Tensor[(1), float32],)), Tensor[(1, 2), int32], Tensor[(1, 100, 18), int32]) /* ty=(Tensor[(1, 4, 4), float32], Tensor[(1, 4, 2), float32], Tensor[(1, 4, 100), float32], Tensor[(31, 65), int32], Tensor[(1, 100, 18), int8], Tensor[(1, 4, 2), float32], Tensor[(1, 18, 46), int8], (Tensor[(1), float32], (Tensor[(1), float32],)), Tensor[(1, 2), int32], Tensor[(1, 100, 18), int32]) span=from_string:44:651 */ = (%x_10, %x_14, %x_21, %x_23, %x_33, %x_34, %x_44, %x_53, %x_57, %x_58) /* ty=(Tensor[(1, 4, 4), float32], Tensor[(1, 4, 2), float32], Tensor[(1, 4, 100), float32], Tensor[(31, 65), int32], Tensor[(1, 100, 18), int8], Tensor[(1, 4, 2), float32], Tensor[(1, 18, 46), int8], (Tensor[(1), float32], (Tensor[(1), float32],)), Tensor[(1, 2), int32], Tensor[(1, 100, 18), int32]) span=from_string:43:651 */;
  let %x_60: (Tensor[(1, 4, 4), float32], Tensor[(1, 4, 2), float32], Tensor[(1, 4, 100), float32], Tensor[(31, 65), int32], Tensor[(1, 100, 18), int8], Tensor[(1, 4, 2), float32], Tensor[(1, 18, 46), int8], (Tensor[(1), float32], (Tensor[(1), float32],)), Tensor[(1, 2), int32], Tensor[(1, 100, 18), int32]) /* ty=(Tensor[(1, 4, 4), float32], Tensor[(1, 4, 2), float32], Tensor[(1, 4, 100), float32], Tensor[(31, 65), int32], Tensor[(1, 100, 18), int8], Tensor[(1, 4, 2), float32], Tensor[(1, 18, 46), int8], (Tensor[(1), float32], (Tensor[(1), float32],)), Tensor[(1, 2), int32], Tensor[(1, 100, 18), int32]) span=from_string:45:649 */ = %x_59;
  let %x_611: (Tensor[(1, 4, 4), float32], Tensor[(1, 4, 2), float32], Tensor[(1, 4, 100), float32], Tensor[(31, 65), int32], Tensor[(1, 100, 18), int8], Tensor[(1, 4, 2), float32], Tensor[(1, 18, 46), int8], (Tensor[(1), float32], (Tensor[(1), float32],)), Tensor[(1, 2), int32], Tensor[(1, 100, 18), int32]) /* ty=(Tensor[(1, 4, 4), float32], Tensor[(1, 4, 2), float32], Tensor[(1, 4, 100), float32], Tensor[(31, 65), int32], Tensor[(1, 100, 18), int8], Tensor[(1, 4, 2), float32], Tensor[(1, 18, 46), int8], (Tensor[(1), float32], (Tensor[(1), float32],)), Tensor[(1, 2), int32], Tensor[(1, 100, 18), int32]) span=from_string:46:3 */ = %x_60;
  let %x_211 = %x_611;
  let %x_221 = %x_211;
  let %x_231 = %x_221;
  let %x_24 = %x_231;
  let %x_25 = %x_24;
  let %x_261 = %x_25;
  let %x_27 = %x_261;
  let %x_28 = %x_27;
  let %x_291 = %x_28;
  let %x_301 = %x_291;
  let %x_311 = %x_301;
  let %x_32 = %x_311;
  let %x_331 = %x_32;
  let %x_341 = %x_331;
  let %x_35 = %x_341;
  let %x_36 = %x_35;
  let %x_371 = %x_36;
  let %x_38 = %x_371;
  let %x_39 = %x_38;
  let %x_401 = %x_39;
  let %x_411 = %x_401;
  let %x_42 = %x_411;
  let %x_43 = %x_42;
  let %x_441 = %x_43;
  let %x_451 = %x_441;
  let %x_461 = %x_451;
  let %x_471 = %x_461;
  let %x_481 = %x_471;
  let %x_491 = %x_481;
  let %x_501 = %x_491;
  let %x_511 = %x_501;
  let %x_521 = %x_511;
  let %x_531 = %x_521;
  let %x_54 = %x_531;
  let %x_55 = %x_54;
  let %x_561 = %x_55;
  let %x_571 = %x_561;
  let %x_581 = %x_571;
  let %x_591 = %x_581;
  let %x_601 = %x_591;
  let %x_612 = %x_601;
  %x_612
}
