#[version = "0.0.5"]
def @main(%x0: Tensor[(1, 4, 2), int8] /* ty=Tensor[(1, 4, 2), int8] span=from_string:6:23 */, %x1: Tensor[(1, 4, 2), int8] /* ty=Tensor[(1, 4, 2), int8] span=from_string:10:13 */, %x2: Tensor[(31, 65), int64] /* ty=Tensor[(31, 65), int64] span=from_string:14:13 */, %x3: Tensor[(58), float32] /* ty=Tensor[(58), float32] span=from_string:28:23 */, %x4: Tensor[(1, 100, 2), int8] /* ty=Tensor[(1, 100, 2), int8] span=from_string:24:24 */, %x5: Tensor[(1, 18, 2), int8] /* ty=Tensor[(1, 18, 2), int8] span=from_string:25:24 */, %x6: Tensor[(1, 46, 2), int8] /* ty=Tensor[(1, 46, 2), int8] span=from_string:23:24 */, %x7: Tensor[(49, 17, 31), int32] /* ty=Tensor[(49, 17, 31), int32] span=from_string:36:24 */) -> (Tensor[(1, 4, 4), float32], Tensor[(1, 4, 2), float32], Tensor[(1, 4, 100), float32], Tensor[(31, 65), int32], Tensor[(1, 100, 18), int8], Tensor[(1, 4, 2), float32], Tensor[(1, 18, 46), int8], (Tensor[(1), float32], (Tensor[(1), float32],)), Tensor[(1, 2), int32], Tensor[(1, 100, 18), int32]) {
  %0 = qnn.dequantize(%x0, 2f /* ty=float32 span=from_string:6:30 */, 0 /* ty=int32 span=from_string:6:72 */) /* ty=Tensor[(1, 4, 2), float32] span=from_string:29:25 */;
  %1 = qnn.dequantize(%x1, 6f /* ty=float32 span=from_string:7:30 */, 0 /* ty=int32 span=from_string:7:72 */) /* ty=Tensor[(1, 4, 2), float32] span=from_string:32:13 */;
  %2 = nn.batch_matmul(%0, %1, transpose_b=True) /* ty=Tensor[(1, 4, 4), float32] span=from_string:9:12 */;
  %3 = add(%2, 1f /* ty=float32 span=from_string:9:18 */) /* ty=Tensor[(1, 4, 4), float32] span=from_string:27:13 */;
  %4 = cast(%x1, dtype="int16") /* ty=Tensor[(1, 4, 2), int16] span=from_string:11:13 */;
  %5 = cast(%4, dtype="int32") /* ty=Tensor[(1, 4, 2), int32] span=from_string:12:18 */;
  %6 = cast_like(%5, %x2) /* ty=Tensor[(1, 4, 2), int64] span=from_string:28:19 */;
  %7 = qnn.dequantize(%x4, 6f /* ty=float32 span=from_string:13:30 */, 0 /* ty=int32 span=from_string:13:73 */) /* ty=Tensor[(1, 100, 2), float32] span=from_string:29:29 */;
  %8 = cast(%x2, dtype="bool") /* ty=Tensor[(31, 65), bool] span=from_string:30:14 */;
  %9 = qnn.batch_matmul(%x4, %x5, 0 /* ty=int32 span=from_string:15:37 */, 0 /* ty=int32 span=from_string:15:78 */, 2f /* ty=float32 span=from_string:15:120 */, 0.5f /* ty=float32 span=from_string:15:167 */, out_dtype="int32", transpose_b=True) /* ty=Tensor[(1, 100, 18), int32] span=from_string:31:24 */;
  %10 = ones(shape=[1], dtype="float32") /* ty=Tensor[(1), float32] span=from_string:32:17 */;
  %11 = qnn.batch_matmul(%x5, %x6, 0 /* ty=int32 span=from_string:16:37 */, 0 /* ty=int32 span=from_string:16:78 */, 2f /* ty=float32 span=from_string:16:120 */, 0.5f /* ty=float32 span=from_string:16:167 */, out_dtype="int32", transpose_b=True) /* ty=Tensor[(1, 18, 46), int32] span=from_string:33:24 */;
  %12 = multiply(%10, %10) /* ty=Tensor[(1), float32] span=from_string:4:89 */;
  %13 = ones_like(%12) /* ty=Tensor[(1), float32] span=from_string:5:88 */;
  %14 = multiply(%13, %10) /* ty=Tensor[(1), float32] span=from_string:19:27 */;
  %15 = zeros_like(%10) /* ty=Tensor[(1), float32] span=from_string:20:13 */;
  %16 = collapse_sum_like(%14, %10) /* ty=Tensor[(1), float32] span=from_string:21:18 */;
  %17 = add(%15, %16) /* ty=Tensor[(1), float32] span=from_string:21:13 */;
  %18 = add(%17, %16) /* ty=Tensor[(1), float32] span=from_string:22:10 */;
  %19 = (%18,) /* ty=(Tensor[(1), float32],) span=from_string:34:15 */;
  %20 = qnn.dequantize(%x6, 2f /* ty=float32 span=from_string:23:31 */, 0 /* ty=int32 span=from_string:23:74 */) /* ty=Tensor[(1, 46, 2), float32] span=from_string:35:16 */;
  %21 = qnn.dequantize(%x4, 2f /* ty=float32 span=from_string:24:31 */, 0 /* ty=int32 span=from_string:24:74 */) /* ty=Tensor[(1, 100, 2), float32] span=from_string:26:25 */;
  %22 = qnn.dequantize(%x5, 0.5f /* ty=float32 span=from_string:25:33 */, 0 /* ty=int32 span=from_string:25:76 */) /* ty=Tensor[(1, 18, 2), float32] span=from_string:26:30 */;
  %23 = nn.batch_matmul(%21, %22, transpose_b=True) /* ty=Tensor[(1, 100, 18), float32] span=from_string:36:19 */;
  %24 = erf(%3) /* ty=Tensor[(1, 4, 4), float32] span=from_string:37:4 */;
  %25 = cast_like(%6, %x3) /* ty=Tensor[(1, 4, 2), float32] span=from_string:37:9 */;
  %26 = nn.batch_matmul(%0, %7, transpose_b=True) /* ty=Tensor[(1, 4, 100), float32] span=from_string:37:14 */;
  %27 = cast(%8, dtype="int32") /* ty=Tensor[(31, 65), int32] span=from_string:37:19 */;
  %28 = qnn.requantize(%9, 1f /* ty=float32 span=from_string:31:31 */, 0 /* ty=int32 span=from_string:31:74 */, 1f /* ty=float32 span=from_string:31:116 */, 0 /* ty=int32 span=from_string:31:159 */, out_dtype="int8") /* ty=Tensor[(1, 100, 18), int8] span=from_string:37:24 */;
  %29 = add(%1, %10) /* ty=Tensor[(1, 4, 2), float32] span=from_string:37:29 */;
  %30 = qnn.requantize(%11, 1f /* ty=float32 span=from_string:33:31 */, 0 /* ty=int32 span=from_string:33:74 */, 1f /* ty=float32 span=from_string:33:116 */, 0 /* ty=int32 span=from_string:33:159 */, out_dtype="int8") /* ty=Tensor[(1, 18, 46), int8] span=from_string:37:34 */;
  %31 = (%12, %19) /* ty=(Tensor[(1), float32], (Tensor[(1), float32],)) span=from_string:37:39 */;
  %32 = argmax(%20, axis=[1]) /* ty=Tensor[(1, 2), int32] span=from_string:37:44 */;
  %33 = cast_like(%23, %x7) /* ty=Tensor[(1, 100, 18), int32] span=from_string:37:49 */;
  (%24, %25, %26, %27, %28, %29, %30, %31, %32, %33) /* ty=(Tensor[(1, 4, 4), float32], Tensor[(1, 4, 2), float32], Tensor[(1, 4, 100), float32], Tensor[(31, 65), int32], Tensor[(1, 100, 18), int8], Tensor[(1, 4, 2), float32], Tensor[(1, 18, 46), int8], (Tensor[(1), float32], (Tensor[(1), float32],)), Tensor[(1, 2), int32], Tensor[(1, 100, 18), int32]) span=from_string:37:3 */
}
