#[version = "0.0.5"]
def @main(%x0: Tensor[(1, 4, 2), int8] /* ty=Tensor[(1, 4, 2), int8] span=from_string:20:108 */, %x1: Tensor[(1, 4, 2), int8] /* ty=Tensor[(1, 4, 2), int8] span=from_string:43:108 */, %x2: Tensor[(31, 65), int64] /* ty=Tensor[(31, 65), int64] span=from_string:69:102 */, %x3: Tensor[(58), float32] /* ty=Tensor[(58), float32] span=from_string:55:118 */, %x4: Tensor[(1, 100, 2), int8] /* ty=Tensor[(1, 100, 2), int8] span=from_string:79:114 */, %x5: Tensor[(1, 18, 2), int8] /* ty=Tensor[(1, 18, 2), int8] span=from_string:105:113 */, %x6: Tensor[(1, 46, 2), int8] /* ty=Tensor[(1, 46, 2), int8] span=from_string:149:113 */, %x7: Tensor[(49, 17, 31), int32] /* ty=Tensor[(49, 17, 31), int32] span=from_string:157:122 */) -> (Tensor[(1, 4, 4), float32], Tensor[(1, 4, 2), float32], Tensor[(1, 4, 100), float32], Tensor[(31, 65), int32], Tensor[(1, 100, 18), int8], Tensor[(1, 4, 2), float32], Tensor[(1, 18, 46), int8], (Tensor[(1), float32], (Tensor[(1), float32],)), Tensor[(1, 2), int32], Tensor[(1, 100, 18), int32]) {
  %0 = fn (%p02: Tensor[(1, 4, 2), int8] /* ty=Tensor[(1, 4, 2), int8] span=from_string:18:20 */, %p1: float32 /* ty=float32 span=from_string:18:26 */, %p2: int32 /* ty=int32 span=from_string:18:31 */, Primitive=1) -> Tensor[(1, 4, 2), float32] {
    qnn.dequantize(%p02, %p1, %p2) /* ty=Tensor[(1, 4, 2), float32] span=from_string:18:5 */
  } /* ty=fn (Tensor[(1, 4, 2), int8], float32, int32) -> Tensor[(1, 4, 2), float32] span=from_string:17:3 */;
  %1 = fn (%p03: Tensor[(1, 4, 2), int8] /* ty=Tensor[(1, 4, 2), int8] span=from_string:24:20 */, %p11: float32 /* ty=float32 span=from_string:24:26 */, %p21: int32 /* ty=int32 span=from_string:24:32 */, Primitive=1) -> Tensor[(1, 4, 2), float32] {
    qnn.dequantize(%p03, %p11, %p21) /* ty=Tensor[(1, 4, 2), float32] span=from_string:24:5 */
  } /* ty=fn (Tensor[(1, 4, 2), int8], float32, int32) -> Tensor[(1, 4, 2), float32] span=from_string:23:3 */;
  %2 = %0(%x0, 2f /* ty=float32 span=from_string:15:67 */, 0 /* ty=int32 span=from_string:16:64 */) /* ty=Tensor[(1, 4, 2), float32] span=from_string:20:103 */;
  %3 = %1(%x1, 6f /* ty=float32 span=from_string:21:66 */, 0 /* ty=int32 span=from_string:22:63 */) /* ty=Tensor[(1, 4, 2), float32] span=from_string:26:102 */;
  %4 = fn (%p04: Tensor[(1, 4, 2), float32] /* ty=Tensor[(1, 4, 2), float32] span=from_string:28:21 */, %p12: Tensor[(1, 4, 2), float32] /* ty=Tensor[(1, 4, 2), float32] span=from_string:28:27 */, Primitive=1) -> Tensor[(1, 4, 4), float32] {
    nn.batch_matmul(%p04, %p12, transpose_b=True) /* ty=Tensor[(1, 4, 4), float32] span=from_string:28:5 */
  } /* ty=fn (Tensor[(1, 4, 2), float32], Tensor[(1, 4, 2), float32]) -> Tensor[(1, 4, 4), float32] span=from_string:27:3 */;
  %5 = %4(%2, %3) /* ty=Tensor[(1, 4, 4), float32] span=from_string:30:102 */;
  %6 = fn (%p05: Tensor[(1, 4, 4), float32] /* ty=Tensor[(1, 4, 4), float32] span=from_string:33:9 */, %p13: float32 /* ty=float32 span=from_string:33:15 */, Primitive=1) -> Tensor[(1, 4, 4), float32] {
    add(%p05, %p13) /* ty=Tensor[(1, 4, 4), float32] span=from_string:33:5 */
  } /* ty=fn (Tensor[(1, 4, 4), float32], float32) -> Tensor[(1, 4, 4), float32] span=from_string:32:3 */;
  %7 = %6(%5, 1f /* ty=float32 span=from_string:31:66 */) /* ty=Tensor[(1, 4, 4), float32] span=from_string:35:102 */;
  %8 = fn (%p06: Tensor[(1, 4, 4), float32] /* ty=Tensor[(1, 4, 4), float32] span=from_string:37:9 */, Primitive=1) -> Tensor[(1, 4, 4), float32] {
    erf(%p06) /* ty=Tensor[(1, 4, 4), float32] span=from_string:37:5 */
  } /* ty=fn (Tensor[(1, 4, 4), float32]) -> Tensor[(1, 4, 4), float32] span=from_string:36:3 */;
  %9 = fn (%p07: Tensor[(1, 4, 2), int8] /* ty=Tensor[(1, 4, 2), int8] span=from_string:41:10 */, Primitive=1) -> Tensor[(1, 4, 2), int16] {
    cast(%p07, dtype="int16") /* ty=Tensor[(1, 4, 2), int16] span=from_string:41:5 */
  } /* ty=fn (Tensor[(1, 4, 2), int8]) -> Tensor[(1, 4, 2), int16] span=from_string:40:3 */;
  %10 = %9(%x1) /* ty=Tensor[(1, 4, 2), int16] span=from_string:43:102 */;
  %11 = fn (%p08: Tensor[(1, 4, 2), int16] /* ty=Tensor[(1, 4, 2), int16] span=from_string:45:10 */, Primitive=1) -> Tensor[(1, 4, 2), int32] {
    cast(%p08, dtype="int32") /* ty=Tensor[(1, 4, 2), int32] span=from_string:45:5 */
  } /* ty=fn (Tensor[(1, 4, 2), int16]) -> Tensor[(1, 4, 2), int32] span=from_string:44:3 */;
  %12 = %11(%10) /* ty=Tensor[(1, 4, 2), int32] span=from_string:47:101 */;
  %13 = fn (%p09: Tensor[(1, 4, 2), int32] /* ty=Tensor[(1, 4, 2), int32] span=from_string:49:15 */, %p14: Tensor[(31, 65), int64] /* ty=Tensor[(31, 65), int64] span=from_string:49:21 */, Primitive=1) -> Tensor[(1, 4, 2), int64] {
    cast_like(%p09, %p14) /* ty=Tensor[(1, 4, 2), int64] span=from_string:49:5 */
  } /* ty=fn (Tensor[(1, 4, 2), int32], Tensor[(31, 65), int64]) -> Tensor[(1, 4, 2), int64] span=from_string:48:3 */;
  %14 = %13(%12, %x2) /* ty=Tensor[(1, 4, 2), int64] span=from_string:51:101 */;
  %15 = fn (%p010: Tensor[(1, 4, 2), int64] /* ty=Tensor[(1, 4, 2), int64] span=from_string:53:15 */, %p15: Tensor[(58), float32] /* ty=Tensor[(58), float32] span=from_string:53:22 */, Primitive=1) -> Tensor[(1, 4, 2), float32] {
    cast_like(%p010, %p15) /* ty=Tensor[(1, 4, 2), float32] span=from_string:53:5 */
  } /* ty=fn (Tensor[(1, 4, 2), int64], Tensor[(58), float32]) -> Tensor[(1, 4, 2), float32] span=from_string:52:3 */;
  %16 = fn (%p011: Tensor[(1, 100, 2), int8] /* ty=Tensor[(1, 100, 2), int8] span=from_string:59:20 */, %p16: float32 /* ty=float32 span=from_string:59:27 */, %p22: int32 /* ty=int32 span=from_string:59:33 */, Primitive=1) -> Tensor[(1, 100, 2), float32] {
    qnn.dequantize(%p011, %p16, %p22) /* ty=Tensor[(1, 100, 2), float32] span=from_string:59:5 */
  } /* ty=fn (Tensor[(1, 100, 2), int8], float32, int32) -> Tensor[(1, 100, 2), float32] span=from_string:58:3 */;
  %17 = %16(%x4, 6f /* ty=float32 span=from_string:56:67 */, 0 /* ty=int32 span=from_string:57:64 */) /* ty=Tensor[(1, 100, 2), float32] span=from_string:61:107 */;
  %18 = fn (%p012: Tensor[(1, 4, 2), float32] /* ty=Tensor[(1, 4, 2), float32] span=from_string:63:21 */, %p17: Tensor[(1, 100, 2), float32] /* ty=Tensor[(1, 100, 2), float32] span=from_string:63:28 */, Primitive=1) -> Tensor[(1, 4, 100), float32] {
    nn.batch_matmul(%p012, %p17, transpose_b=True) /* ty=Tensor[(1, 4, 100), float32] span=from_string:63:5 */
  } /* ty=fn (Tensor[(1, 4, 2), float32], Tensor[(1, 100, 2), float32]) -> Tensor[(1, 4, 100), float32] span=from_string:62:3 */;
  %19 = fn (%p013: Tensor[(31, 65), int64] /* ty=Tensor[(31, 65), int64] span=from_string:67:10 */, Primitive=1) -> Tensor[(31, 65), bool] {
    cast(%p013, dtype="bool") /* ty=Tensor[(31, 65), bool] span=from_string:67:5 */
  } /* ty=fn (Tensor[(31, 65), int64]) -> Tensor[(31, 65), bool] span=from_string:66:3 */;
  %20 = %19(%x2) /* ty=Tensor[(31, 65), bool] span=from_string:69:95 */;
  %21 = fn (%p014: Tensor[(31, 65), bool] /* ty=Tensor[(31, 65), bool] span=from_string:71:10 */, Primitive=1) -> Tensor[(31, 65), int32] {
    cast(%p014, dtype="int32") /* ty=Tensor[(31, 65), int32] span=from_string:71:5 */
  } /* ty=fn (Tensor[(31, 65), bool]) -> Tensor[(31, 65), int32] span=from_string:70:3 */;
  %22 = fn (%p015: Tensor[(1, 100, 2), int8] /* ty=Tensor[(1, 100, 2), int8] span=from_string:77:20 */, %p18: float32 /* ty=float32 span=from_string:77:27 */, %p23: int32 /* ty=int32 span=from_string:77:33 */, Primitive=1) -> Tensor[(1, 100, 2), float32] {
    qnn.dequantize(%p015, %p18, %p23) /* ty=Tensor[(1, 100, 2), float32] span=from_string:77:5 */
  } /* ty=fn (Tensor[(1, 100, 2), int8], float32, int32) -> Tensor[(1, 100, 2), float32] span=from_string:76:3 */;
  %23 = fn (%p016: Tensor[(1, 18, 2), int8] /* ty=Tensor[(1, 18, 2), int8] span=from_string:83:20 */, %p19: float32 /* ty=float32 span=from_string:83:27 */, %p24: int32 /* ty=int32 span=from_string:83:33 */, Primitive=1) -> Tensor[(1, 18, 2), float32] {
    qnn.dequantize(%p016, %p19, %p24) /* ty=Tensor[(1, 18, 2), float32] span=from_string:83:5 */
  } /* ty=fn (Tensor[(1, 18, 2), int8], float32, int32) -> Tensor[(1, 18, 2), float32] span=from_string:82:3 */;
  %24 = %22(%x4, 2f /* ty=float32 span=from_string:74:68 */, 0 /* ty=int32 span=from_string:75:64 */) /* ty=Tensor[(1, 100, 2), float32] span=from_string:79:107 */;
  %25 = %23(%x5, 0.5f /* ty=float32 span=from_string:80:69 */, 0 /* ty=int32 span=from_string:81:64 */) /* ty=Tensor[(1, 18, 2), float32] span=from_string:85:105 */;
  %26 = fn (%p017: Tensor[(1, 100, 2), float32] /* ty=Tensor[(1, 100, 2), float32] span=from_string:87:21 */, %p110: Tensor[(1, 18, 2), float32] /* ty=Tensor[(1, 18, 2), float32] span=from_string:87:28 */, Primitive=1) -> Tensor[(1, 100, 18), float32] {
    nn.batch_matmul(%p017, %p110, transpose_b=True) /* ty=Tensor[(1, 100, 18), float32] span=from_string:87:5 */
  } /* ty=fn (Tensor[(1, 100, 2), float32], Tensor[(1, 18, 2), float32]) -> Tensor[(1, 100, 18), float32] span=from_string:86:3 */;
  %27 = %26(%24, %25) /* ty=Tensor[(1, 100, 18), float32] span=from_string:89:110 */;
  %28 = fn (%p018: Tensor[(1, 100, 18), float32] /* ty=Tensor[(1, 100, 18), float32] span=from_string:93:18 */, %p111: float32 /* ty=float32 span=from_string:93:25 */, %p25: int32 /* ty=int32 span=from_string:93:32 */, Primitive=1) -> Tensor[(1, 100, 18), int8] {
    qnn.quantize(%p018, %p111, %p25, out_dtype="int8") /* ty=Tensor[(1, 100, 18), int8] span=from_string:93:5 */
  } /* ty=fn (Tensor[(1, 100, 18), float32], float32, int32) -> Tensor[(1, 100, 18), int8] span=from_string:92:3 */;
  %29 = fn (Primitive=1) -> Tensor[(1), float32] {
    ones(shape=[1], dtype="float32") /* ty=Tensor[(1), float32] span=from_string:4:5 */
  } /* ty=fn () -> Tensor[(1), float32] span=from_string:3:3 */;
  %30 = %29() /* ty=Tensor[(1), float32] span=from_string:6:92 */;
  %31 = fn (%p019: Tensor[(1, 4, 2), float32] /* ty=Tensor[(1, 4, 2), float32] span=from_string:97:9 */, %p112: Tensor[(1), float32] /* ty=Tensor[(1), float32] span=from_string:97:16 */, Primitive=1) -> Tensor[(1, 4, 2), float32] {
    add(%p019, %p112) /* ty=Tensor[(1, 4, 2), float32] span=from_string:97:5 */
  } /* ty=fn (Tensor[(1, 4, 2), float32], Tensor[(1), float32]) -> Tensor[(1, 4, 2), float32] span=from_string:96:3 */;
  %32 = fn (%p020: Tensor[(1, 18, 2), int8] /* ty=Tensor[(1, 18, 2), int8] span=from_string:103:20 */, %p113: float32 /* ty=float32 span=from_string:103:27 */, %p26: int32 /* ty=int32 span=from_string:103:34 */, Primitive=1) -> Tensor[(1, 18, 2), float32] {
    qnn.dequantize(%p020, %p113, %p26) /* ty=Tensor[(1, 18, 2), float32] span=from_string:103:5 */
  } /* ty=fn (Tensor[(1, 18, 2), int8], float32, int32) -> Tensor[(1, 18, 2), float32] span=from_string:102:3 */;
  %33 = fn (%p021: Tensor[(1, 46, 2), int8] /* ty=Tensor[(1, 46, 2), int8] span=from_string:109:20 */, %p114: float32 /* ty=float32 span=from_string:109:27 */, %p27: int32 /* ty=int32 span=from_string:109:34 */, Primitive=1) -> Tensor[(1, 46, 2), float32] {
    qnn.dequantize(%p021, %p114, %p27) /* ty=Tensor[(1, 46, 2), float32] span=from_string:109:5 */
  } /* ty=fn (Tensor[(1, 46, 2), int8], float32, int32) -> Tensor[(1, 46, 2), float32] span=from_string:108:3 */;
  %34 = %32(%x5, 2f /* ty=float32 span=from_string:100:68 */, 0 /* ty=int32 span=from_string:101:65 */) /* ty=Tensor[(1, 18, 2), float32] span=from_string:105:106 */;
  %35 = %33(%x6, 0.5f /* ty=float32 span=from_string:106:70 */, 0 /* ty=int32 span=from_string:107:65 */) /* ty=Tensor[(1, 46, 2), float32] span=from_string:111:106 */;
  %36 = fn (%p022: Tensor[(1, 18, 2), float32] /* ty=Tensor[(1, 18, 2), float32] span=from_string:113:21 */, %p115: Tensor[(1, 46, 2), float32] /* ty=Tensor[(1, 46, 2), float32] span=from_string:113:28 */, Primitive=1) -> Tensor[(1, 18, 46), float32] {
    nn.batch_matmul(%p022, %p115, transpose_b=True) /* ty=Tensor[(1, 18, 46), float32] span=from_string:113:5 */
  } /* ty=fn (Tensor[(1, 18, 2), float32], Tensor[(1, 46, 2), float32]) -> Tensor[(1, 18, 46), float32] span=from_string:112:3 */;
  %37 = %36(%34, %35) /* ty=Tensor[(1, 18, 46), float32] span=from_string:115:108 */;
  %38 = fn (%p023: Tensor[(1, 18, 46), float32] /* ty=Tensor[(1, 18, 46), float32] span=from_string:119:18 */, %p116: float32 /* ty=float32 span=from_string:119:25 */, %p28: int32 /* ty=int32 span=from_string:119:32 */, Primitive=1) -> Tensor[(1, 18, 46), int8] {
    qnn.quantize(%p023, %p116, %p28, out_dtype="int8") /* ty=Tensor[(1, 18, 46), int8] span=from_string:119:5 */
  } /* ty=fn (Tensor[(1, 18, 46), float32], float32, int32) -> Tensor[(1, 18, 46), int8] span=from_string:118:3 */;
  %39 = fn (%p0: Tensor[(1), float32] /* ty=Tensor[(1), float32] span=from_string:8:20 */, Primitive=1) -> Tensor[(1), float32] {
    multiply(%p0, %p0) /* ty=Tensor[(1), float32] span=from_string:8:6 */
  } /* ty=fn (Tensor[(1), float32]) -> Tensor[(1), float32] span=from_string:7:3 */;
  %40 = fn (%p024: Tensor[(1), float32] /* ty=Tensor[(1), float32] span=from_string:123:16 */, Primitive=1) -> Tensor[(1), float32] {
    zeros_like(%p024) /* ty=Tensor[(1), float32] span=from_string:123:5 */
  } /* ty=fn (Tensor[(1), float32]) -> Tensor[(1), float32] span=from_string:122:3 */;
  %41 = %39(%30) /* ty=Tensor[(1), float32] span=from_string:10:90 */;
  %42 = fn (%p01: Tensor[(1), float32] /* ty=Tensor[(1), float32] span=from_string:12:15 */, Primitive=1) -> Tensor[(1), float32] {
    ones_like(%p01) /* ty=Tensor[(1), float32] span=from_string:12:5 */
  } /* ty=fn (Tensor[(1), float32]) -> Tensor[(1), float32] span=from_string:11:3 */;
  %43 = %42(%41) /* ty=Tensor[(1), float32] span=from_string:14:89 */;
  %44 = fn (%p025: Tensor[(1), float32] /* ty=Tensor[(1), float32] span=from_string:127:15 */, %p117: Tensor[(1), float32] /* ty=Tensor[(1), float32] span=from_string:127:22 */, Primitive=1) -> Tensor[(1), float32] {
    multiply(%p025, %p117) /* ty=Tensor[(1), float32] span=from_string:127:6 */
  } /* ty=fn (Tensor[(1), float32], Tensor[(1), float32]) -> Tensor[(1), float32] span=from_string:126:3 */;
  %45 = %44(%43, %30) /* ty=Tensor[(1), float32] span=from_string:129:91 */;
  %46 = fn (%p026: Tensor[(1), float32] /* ty=Tensor[(1), float32] span=from_string:131:23 */, %p118: Tensor[(1), float32] /* ty=Tensor[(1), float32] span=from_string:131:30 */, Primitive=1) -> Tensor[(1), float32] {
    collapse_sum_like(%p026, %p118) /* ty=Tensor[(1), float32] span=from_string:131:5 */
  } /* ty=fn (Tensor[(1), float32], Tensor[(1), float32]) -> Tensor[(1), float32] span=from_string:130:3 */;
  %47 = %40(%30) /* ty=Tensor[(1), float32] span=from_string:125:91 */;
  %48 = %46(%45, %30) /* ty=Tensor[(1), float32] span=from_string:133:92 */;
  %49 = fn (%p027: Tensor[(1), float32] /* ty=Tensor[(1), float32] span=from_string:135:9 */, %p119: Tensor[(1), float32] /* ty=Tensor[(1), float32] span=from_string:135:16 */, Primitive=1) -> Tensor[(1), float32] {
    add(%p027, %p119) /* ty=Tensor[(1), float32] span=from_string:135:5 */
  } /* ty=fn (Tensor[(1), float32], Tensor[(1), float32]) -> Tensor[(1), float32] span=from_string:134:3 */;
  %50 = %49(%47, %48) /* ty=Tensor[(1), float32] span=from_string:137:91 */;
  %51 = fn (%p028: Tensor[(1), float32] /* ty=Tensor[(1), float32] span=from_string:139:9 */, %p120: Tensor[(1), float32] /* ty=Tensor[(1), float32] span=from_string:139:16 */, Primitive=1) -> Tensor[(1), float32] {
    add(%p028, %p120) /* ty=Tensor[(1), float32] span=from_string:139:5 */
  } /* ty=fn (Tensor[(1), float32], Tensor[(1), float32]) -> Tensor[(1), float32] span=from_string:138:3 */;
  %52 = %51(%50, %48) /* ty=Tensor[(1), float32] span=from_string:141:91 */;
  %53 = (%52,) /* ty=(Tensor[(1), float32],) span=from_string:142:98 */;
  %54 = fn (%p029: Tensor[(1, 46, 2), int8] /* ty=Tensor[(1, 46, 2), int8] span=from_string:147:20 */, %p121: float32 /* ty=float32 span=from_string:147:27 */, %p29: int32 /* ty=int32 span=from_string:147:34 */, Primitive=1) -> Tensor[(1, 46, 2), float32] {
    qnn.dequantize(%p029, %p121, %p29) /* ty=Tensor[(1, 46, 2), float32] span=from_string:147:5 */
  } /* ty=fn (Tensor[(1, 46, 2), int8], float32, int32) -> Tensor[(1, 46, 2), float32] span=from_string:146:3 */;
  %55 = %54(%x6, 2f /* ty=float32 span=from_string:144:68 */, 0 /* ty=int32 span=from_string:145:65 */) /* ty=Tensor[(1, 46, 2), float32] span=from_string:149:106 */;
  %56 = fn (%p030: Tensor[(1, 46, 2), float32] /* ty=Tensor[(1, 46, 2), float32] span=from_string:151:12 */, Primitive=1) -> Tensor[(1, 2), int32] {
    argmax(%p030, axis=[1]) /* ty=Tensor[(1, 2), int32] span=from_string:151:5 */
  } /* ty=fn (Tensor[(1, 46, 2), float32]) -> Tensor[(1, 2), int32] span=from_string:150:3 */;
  %57 = fn (%p031: Tensor[(1, 100, 18), float32] /* ty=Tensor[(1, 100, 18), float32] span=from_string:155:15 */, %p122: Tensor[(49, 17, 31), int32] /* ty=Tensor[(49, 17, 31), int32] span=from_string:155:22 */, Primitive=1) -> Tensor[(1, 100, 18), int32] {
    cast_like(%p031, %p122) /* ty=Tensor[(1, 100, 18), int32] span=from_string:155:5 */
  } /* ty=fn (Tensor[(1, 100, 18), float32], Tensor[(49, 17, 31), int32]) -> Tensor[(1, 100, 18), int32] span=from_string:154:3 */;
  %58 = %8(%7) /* ty=Tensor[(1, 4, 4), float32] span=from_string:39:104 */;
  %59 = %15(%14, %x3) /* ty=Tensor[(1, 4, 2), float32] span=from_string:55:104 */;
  %60 = %18(%2, %17) /* ty=Tensor[(1, 4, 100), float32] span=from_string:65:108 */;
  %61 = %21(%20) /* ty=Tensor[(31, 65), int32] span=from_string:73:100 */;
  %62 = %28(%27, 1f /* ty=float32 span=from_string:90:67 */, 0 /* ty=int32 span=from_string:91:64 */) /* ty=Tensor[(1, 100, 18), int8] span=from_string:95:106 */;
  %63 = %31(%3, %30) /* ty=Tensor[(1, 4, 2), float32] span=from_string:99:105 */;
  %64 = %38(%37, 1f /* ty=float32 span=from_string:116:68 */, 0 /* ty=int32 span=from_string:117:65 */) /* ty=Tensor[(1, 18, 46), int8] span=from_string:121:105 */;
  %65 = (%41, %53) /* ty=(Tensor[(1), float32], (Tensor[(1), float32],)) span=from_string:143:146 */;
  %66 = %56(%55) /* ty=Tensor[(1, 2), int32] span=from_string:153:96 */;
  %67 = %57(%27, %x7) /* ty=Tensor[(1, 100, 18), int32] span=from_string:157:108 */;
  (%58, %59, %60, %61, %62, %63, %64, %65, %66, %67) /* ty=(Tensor[(1, 4, 4), float32], Tensor[(1, 4, 2), float32], Tensor[(1, 4, 100), float32], Tensor[(31, 65), int32], Tensor[(1, 100, 18), int8], Tensor[(1, 4, 2), float32], Tensor[(1, 18, 46), int8], (Tensor[(1), float32], (Tensor[(1), float32],)), Tensor[(1, 2), int32], Tensor[(1, 100, 18), int32]) span=from_string:158:652 */
}
