#[version = "0.0.5"]
def @main(%x0: Tensor[(1, 4, 2), int8] /* ty=Tensor[(1, 4, 2), int8] span=from_string:10:23 */, %x1: Tensor[(1, 4, 2), int8] /* ty=Tensor[(1, 4, 2), int8] span=from_string:26:14 */, %x2: Tensor[(31, 65), int64] /* ty=Tensor[(31, 65), int64] span=from_string:12:13 */, %x3: Tensor[(58), float32] /* ty=Tensor[(58), float32] */, %x4: Tensor[(1, 100, 2), int8] /* ty=Tensor[(1, 100, 2), int8] span=from_string:13:23 */, %x5: Tensor[(1, 18, 2), int8] /* ty=Tensor[(1, 18, 2), int8] span=from_string:16:24 */, %x6: Tensor[(1, 46, 2), int8] /* ty=Tensor[(1, 46, 2), int8] span=from_string:33:16 */, %x7: Tensor[(49, 17, 31), int32] /* ty=Tensor[(49, 17, 31), int32] */) -> (Tensor[(1, 4, 4), float32], Tensor[(1, 4, 2), float32], Tensor[(1, 4, 100), float32], Tensor[(31, 65), int32], Tensor[(1, 100, 18), int8], Tensor[(1, 4, 2), float32], Tensor[(1, 18, 46), int8], (Tensor[(1), float32], (Tensor[(1), float32],)), Tensor[(1, 2), int32], Tensor[(1, 100, 18), int32]) {
  let %x_0 = ones(shape=[1], dtype="float32");
  let %x8: Tensor[(1), float32] /* ty=Tensor[(1), float32] span=from_string:32:10 */ = multiply(%x_0, %x_0);
  let %x9: Tensor[(1), float32] /* ty=Tensor[(1), float32] span=from_string:20:19 */ = ones(shape=[1], dtype="float32");
  let %x_1 = 2f /* ty=float32 span=from_string:6:30 */;
  let %x_2 = 0 /* ty=int32 span=from_string:6:73 */;
  let %x_3 = qnn.dequantize(%x0, %x_1, %x_2);
  let %x_4 = 6f /* ty=float32 span=from_string:7:30 */;
  let %x_5 = 0 /* ty=int32 span=from_string:7:73 */;
  let %x_6 = qnn.dequantize(%x1, %x_4, %x_5);
  let %x_7 = nn.batch_matmul(%x_3, %x_6, transpose_b=True);
  let %x_8 = 1f /* ty=float32 span=from_string:9:18 */;
  let %x_9 = add(%x_7, %x_8);
  let %x_10 = erf(%x_9);
  let %x_11 = cast(%x1, dtype="float32");
  let %x_12 = 2f /* ty=float32 span=from_string:10:30 */;
  let %x_13 = 0 /* ty=int32 span=from_string:10:73 */;
  let %x_14 = qnn.dequantize(%x0, %x_12, %x_13);
  let %x_15 = 6f /* ty=float32 span=from_string:11:30 */;
  let %x_16 = 0 /* ty=int32 span=from_string:11:73 */;
  let %x_17 = qnn.dequantize(%x4, %x_15, %x_16);
  let %x_18 = nn.batch_matmul(%x_14, %x_17, transpose_b=True);
  let %x_19 = cast(%x2, dtype="bool");
  let %x_20 = cast(%x_19, dtype="int32");
  let %x_21 = 2f /* ty=float32 span=from_string:13:30 */;
  let %x_22 = 0 /* ty=int32 span=from_string:13:73 */;
  let %x_23 = qnn.dequantize(%x4, %x_21, %x_22);
  let %x_24 = 0.5f /* ty=float32 span=from_string:14:32 */;
  let %x_25 = 0 /* ty=int32 span=from_string:14:75 */;
  let %x_26 = qnn.dequantize(%x5, %x_24, %x_25);
  let %x_27 = nn.batch_matmul(%x_23, %x_26, transpose_b=True);
  let %x_28 = 1f /* ty=float32 span=from_string:29:29 */;
  let %x_29 = 0 /* ty=int32 span=from_string:29:72 */;
  let %x_30 = qnn.quantize(%x_27, %x_28, %x_29, out_dtype="int8");
  let %x_31 = add(%x_6, %x_0);
  let %x_32 = 2f /* ty=float32 span=from_string:16:31 */;
  let %x_33 = 0 /* ty=int32 span=from_string:16:74 */;
  let %x_34 = qnn.dequantize(%x5, %x_32, %x_33);
  let %x_35 = 0.5f /* ty=float32 span=from_string:17:33 */;
  let %x_36 = 0 /* ty=int32 span=from_string:17:76 */;
  let %x_37 = qnn.dequantize(%x6, %x_35, %x_36);
  let %x_38 = nn.batch_matmul(%x_34, %x_37, transpose_b=True);
  let %x_39 = 1f /* ty=float32 span=from_string:31:29 */;
  let %x_40 = 0 /* ty=int32 span=from_string:31:72 */;
  let %x_41 = qnn.quantize(%x_38, %x_39, %x_40, out_dtype="int8");
  let %x_42 = multiply(%x9, %x_0);
  let %x_43 = meta[relay.Constant][0] /* ty=Tensor[(1), int32] span=from_string:21:35 */;
  let %x_44 = collapse_sum_to(%x_42, %x_43, meta[relay.attrs.InitOpAttrs][0]);
  let %x_45 = multiply(%x9, %x_0);
  let %x_46 = meta[relay.Constant][1] /* ty=Tensor[(1), int32] span=from_string:22:35 */;
  let %x_47 = collapse_sum_to(%x_45, %x_46, meta[relay.attrs.InitOpAttrs][1]);
  let %x_48 = add(%x_44, %x_47);
  let %x_49 = (%x_48,) /* ty=(Tensor[(1), float32],) span=from_string:32:15 */;
  let %x_50 = (%x8, %x_49) /* ty=(Tensor[(1), float32], (Tensor[(1), float32],)) span=from_string:35:39 */;
  let %x_51 = argmax(%x6, axis=[1]);
  let %x_52 = cast(%x_27, dtype="int32");
  let %x_53 = (%x_10, %x_11, %x_18, %x_20, %x_30, %x_31, %x_41, %x_50, %x_51, %x_52) /* ty=(Tensor[(1, 4, 4), float32], Tensor[(1, 4, 2), float32], Tensor[(1, 4, 100), float32], Tensor[(31, 65), int32], Tensor[(1, 100, 18), int8], Tensor[(1, 4, 2), float32], Tensor[(1, 18, 46), int8], (Tensor[(1), float32], (Tensor[(1), float32],)), Tensor[(1, 2), int32], Tensor[(1, 100, 18), int32]) span=from_string:35:3 */;
  let %x_54 = %x_53;
  let %x_55 = %x_54;
  %x_55
}

#[metadata]
{
  "root": 1, 
  "nodes": [
    {
      "type_key": ""
    }, 
    {
      "type_key": "Map", 
      "keys": [
        "relay.attrs.InitOpAttrs", 
        "relay.Constant"
      ], 
      "data": [2, 8]
    }, 
    {
      "type_key": "Array", 
      "data": [3, 6]
    }, 
    {
      "type_key": "relay.attrs.InitOpAttrs", 
      "attrs": {
        "dtype": "", 
        "shape": "4"
      }
    }, 
    {
      "type_key": "Array", 
      "data": [5]
    }, 
    {
      "type_key": "IntImm", 
      "attrs": {
        "dtype": "int32", 
        "span": "0", 
        "value": "1"
      }
    }, 
    {
      "type_key": "relay.attrs.InitOpAttrs", 
      "attrs": {
        "dtype": "", 
        "shape": "7"
      }
    }, 
    {
      "type_key": "Array", 
      "data": [5]
    }, 
    {
      "type_key": "Array", 
      "data": [9, 17]
    }, 
    {
      "type_key": "relay.Constant", 
      "attrs": {
        "_checked_type_": "14", 
        "data": "0", 
        "span": "12", 
        "virtual_device_": "10"
      }
    }, 
    {
      "type_key": "VirtualDevice", 
      "attrs": {
        "device_type_int": "-1", 
        "memory_scope": "11", 
        "target": "0", 
        "virtual_device_id": "-1"
      }
    }, 
    {
      "type_key": "runtime.String"
    }, 
    {
      "type_key": "Span", 
      "attrs": {
        "column": "35", 
        "end_column": "53", 
        "end_line": "21", 
        "line": "21", 
        "source_name": "13"
      }
    }, 
    {
      "type_key": "SourceName", 
      "repr_str": "from_string"
    }, 
    {
      "type_key": "relay.TensorType", 
      "attrs": {
        "dtype": "int32", 
        "shape": "15", 
        "span": "0"
      }
    }, 
    {
      "type_key": "Array", 
      "data": [16]
    }, 
    {
      "type_key": "IntImm", 
      "attrs": {
        "dtype": "int32", 
        "span": "0", 
        "value": "1"
      }
    }, 
    {
      "type_key": "relay.Constant", 
      "attrs": {
        "_checked_type_": "19", 
        "data": "1", 
        "span": "18", 
        "virtual_device_": "10"
      }
    }, 
    {
      "type_key": "Span", 
      "attrs": {
        "column": "35", 
        "end_column": "53", 
        "end_line": "22", 
        "line": "22", 
        "source_name": "13"
      }
    }, 
    {
      "type_key": "relay.TensorType", 
      "attrs": {
        "dtype": "int32", 
        "shape": "20", 
        "span": "0"
      }
    }, 
    {
      "type_key": "Array", 
      "data": [21]
    }, 
    {
      "type_key": "IntImm", 
      "attrs": {
        "dtype": "int32", 
        "span": "0", 
        "value": "1"
      }
    }
  ], 
  "b64ndarrays": [
    "P6G0lvBAXt0AAAAAAAAAAAEAAAAAAAAAAQAAAAAgAQABAAAAAAAAAAQAAAAAAAAAAQAAAA==", 
    "P6G0lvBAXt0AAAAAAAAAAAEAAAAAAAAAAQAAAAAgAQABAAAAAAAAAAQAAAAAAAAAAQAAAA=="
  ], 
  "attrs": {"tvm_version": "0.13.0"}
}