#[version = "0.0.5"]
def @main(%x0: Tensor[(1, 4, 2), int8] /* ty=Tensor[(1, 4, 2), int8] span=from_string:45:105 */, %x1: Tensor[(1, 4, 2), int8] /* ty=Tensor[(1, 4, 2), int8] span=from_string:39:105 */, %x2: Tensor[(31, 65), int64] /* ty=Tensor[(31, 65), int64] span=from_string:59:98 */, %x3: Tensor[(58), float32] /* ty=Tensor[(58), float32] */, %x4: Tensor[(1, 100, 2), int8] /* ty=Tensor[(1, 100, 2), int8] span=from_string:69:110 */, %x5: Tensor[(1, 18, 2), int8] /* ty=Tensor[(1, 18, 2), int8] span=from_string:95:108 */, %x6: Tensor[(1, 46, 2), int8] /* ty=Tensor[(1, 46, 2), int8] span=from_string:139:98 */, %x7: Tensor[(49, 17, 31), int32] /* ty=Tensor[(49, 17, 31), int32] */) -> (Tensor[(1, 4, 4), float32], Tensor[(1, 4, 2), float32], Tensor[(1, 4, 100), float32], Tensor[(31, 65), int32], Tensor[(1, 100, 18), int8], Tensor[(1, 4, 2), float32], Tensor[(1, 18, 46), int8], (Tensor[(1), float32], (Tensor[(1), float32],)), Tensor[(1, 2), int32], Tensor[(1, 100, 18), int32]) {
  %0 = fn (Primitive=1) -> Tensor[(1), float32] {
    ones(shape=[1], dtype="float32") /* ty=Tensor[(1), float32] span=from_string:4:5 */
  } /* ty=fn () -> Tensor[(1), float32] span=from_string:6:88 */;
  let %x8: Tensor[(1), float32] /* ty=Tensor[(1), float32] span=from_string:135:145 */ = %0() /* ty=Tensor[(1), float32] span=from_string:6:88 */;
  %1 = fn (Primitive=1) -> Tensor[(1), float32] {
    ones(shape=[1], dtype="float32") /* ty=Tensor[(1), float32] span=from_string:8:5 */
  } /* ty=fn () -> Tensor[(1), float32] span=from_string:10:88 */;
  let %x9: Tensor[(1), float32] /* ty=Tensor[(1), float32] span=from_string:124:94 */ = %1() /* ty=Tensor[(1), float32] span=from_string:10:88 */;
  let %x_0: float32 /* ty=float32 span=from_string:16:109 */ = 2f /* ty=float32 span=from_string:11:64 */;
  let %x_1: int32 /* ty=int32 span=from_string:16:115 */ = 0 /* ty=int32 span=from_string:12:61 */;
  %2 = fn (%p0: Tensor[(1, 4, 2), int8] /* ty=Tensor[(1, 4, 2), int8] span=from_string:14:20 */, %p1: float32 /* ty=float32 span=from_string:14:25 */, %p2: int32 /* ty=int32 span=from_string:14:30 */, Primitive=1) -> Tensor[(1, 4, 2), float32] {
    qnn.dequantize(%p0, %p1, %p2) /* ty=Tensor[(1, 4, 2), float32] span=from_string:14:5 */
  } /* ty=fn (Tensor[(1, 4, 2), int8], float32, int32) -> Tensor[(1, 4, 2), float32] span=from_string:16:101 */;
  let %x_2: Tensor[(1, 4, 2), float32] /* ty=Tensor[(1, 4, 2), float32] span=from_string:26:104 */ = %2(%x0, %x_0, %x_1) /* ty=Tensor[(1, 4, 2), float32] span=from_string:16:101 */;
  let %x_3: float32 /* ty=float32 span=from_string:22:109 */ = 6f /* ty=float32 span=from_string:17:65 */;
  let %x_4: int32 /* ty=int32 span=from_string:22:115 */ = 0 /* ty=int32 span=from_string:18:62 */;
  %3 = fn (%p01: Tensor[(1, 4, 2), int8] /* ty=Tensor[(1, 4, 2), int8] span=from_string:20:20 */, %p11: float32 /* ty=float32 span=from_string:20:26 */, %p21: int32 /* ty=int32 span=from_string:20:32 */, Primitive=1) -> Tensor[(1, 4, 2), float32] {
    qnn.dequantize(%p01, %p11, %p21) /* ty=Tensor[(1, 4, 2), float32] span=from_string:20:5 */
  } /* ty=fn (Tensor[(1, 4, 2), int8], float32, int32) -> Tensor[(1, 4, 2), float32] span=from_string:22:101 */;
  let %x_5: Tensor[(1, 4, 2), float32] /* ty=Tensor[(1, 4, 2), float32] span=from_string:89:106 */ = %3(%x1, %x_3, %x_4) /* ty=Tensor[(1, 4, 2), float32] span=from_string:22:101 */;
  %4 = fn (%p02: Tensor[(1, 4, 2), float32] /* ty=Tensor[(1, 4, 2), float32] span=from_string:24:21 */, %p12: Tensor[(1, 4, 2), float32] /* ty=Tensor[(1, 4, 2), float32] span=from_string:24:27 */, Primitive=1) -> Tensor[(1, 4, 4), float32] {
    nn.batch_matmul(%p02, %p12, transpose_b=True) /* ty=Tensor[(1, 4, 4), float32] span=from_string:24:5 */
  } /* ty=fn (Tensor[(1, 4, 2), float32], Tensor[(1, 4, 2), float32]) -> Tensor[(1, 4, 4), float32] span=from_string:26:101 */;
  let %x_6: Tensor[(1, 4, 4), float32] /* ty=Tensor[(1, 4, 4), float32] span=from_string:31:104 */ = %4(%x_2, %x_5) /* ty=Tensor[(1, 4, 4), float32] span=from_string:26:101 */;
  let %x_7: float32 /* ty=float32 span=from_string:31:110 */ = 1f /* ty=float32 span=from_string:27:65 */;
  %5 = fn (%p03: Tensor[(1, 4, 4), float32] /* ty=Tensor[(1, 4, 4), float32] span=from_string:29:9 */, %p13: float32 /* ty=float32 span=from_string:29:15 */, Primitive=1) -> Tensor[(1, 4, 4), float32] {
    add(%p03, %p13) /* ty=Tensor[(1, 4, 4), float32] span=from_string:29:5 */
  } /* ty=fn (Tensor[(1, 4, 4), float32], float32) -> Tensor[(1, 4, 4), float32] span=from_string:31:101 */;
  let %x_8: Tensor[(1, 4, 4), float32] /* ty=Tensor[(1, 4, 4), float32] span=from_string:35:104 */ = %5(%x_6, %x_7) /* ty=Tensor[(1, 4, 4), float32] span=from_string:31:101 */;
  %6 = fn (%p04: Tensor[(1, 4, 4), float32] /* ty=Tensor[(1, 4, 4), float32] span=from_string:33:9 */, Primitive=1) -> Tensor[(1, 4, 4), float32] {
    erf(%p04) /* ty=Tensor[(1, 4, 4), float32] span=from_string:33:5 */
  } /* ty=fn (Tensor[(1, 4, 4), float32]) -> Tensor[(1, 4, 4), float32] span=from_string:35:101 */;
  let %x_9: Tensor[(1, 4, 4), float32] /* ty=Tensor[(1, 4, 4), float32] span=from_string:144:651 */ = %6(%x_8) /* ty=Tensor[(1, 4, 4), float32] span=from_string:35:101 */;
  %7 = fn (%p05: Tensor[(1, 4, 2), int8] /* ty=Tensor[(1, 4, 2), int8] span=from_string:37:10 */, Primitive=1) -> Tensor[(1, 4, 2), float32] {
    cast(%p05, dtype="float32") /* ty=Tensor[(1, 4, 2), float32] span=from_string:37:5 */
  } /* ty=fn (Tensor[(1, 4, 2), int8]) -> Tensor[(1, 4, 2), float32] span=from_string:39:102 */;
  let %x_10: Tensor[(1, 4, 2), float32] /* ty=Tensor[(1, 4, 2), float32] span=from_string:144:657 */ = %7(%x1) /* ty=Tensor[(1, 4, 2), float32] span=from_string:39:102 */;
  let %x_11: float32 /* ty=float32 span=from_string:45:110 */ = 2f /* ty=float32 span=from_string:40:66 */;
  let %x_12: int32 /* ty=int32 span=from_string:45:117 */ = 0 /* ty=int32 span=from_string:41:63 */;
  %8 = fn (%p06: Tensor[(1, 4, 2), int8] /* ty=Tensor[(1, 4, 2), int8] span=from_string:43:20 */, %p14: float32 /* ty=float32 span=from_string:43:26 */, %p22: int32 /* ty=int32 span=from_string:43:32 */, Primitive=1) -> Tensor[(1, 4, 2), float32] {
    qnn.dequantize(%p06, %p14, %p22) /* ty=Tensor[(1, 4, 2), float32] span=from_string:43:5 */
  } /* ty=fn (Tensor[(1, 4, 2), int8], float32, int32) -> Tensor[(1, 4, 2), float32] span=from_string:45:102 */;
  let %x_13: Tensor[(1, 4, 2), float32] /* ty=Tensor[(1, 4, 2), float32] span=from_string:55:110 */ = %8(%x0, %x_11, %x_12) /* ty=Tensor[(1, 4, 2), float32] span=from_string:45:102 */;
  let %x_14: float32 /* ty=float32 span=from_string:51:114 */ = 6f /* ty=float32 span=from_string:46:66 */;
  let %x_15: int32 /* ty=int32 span=from_string:51:121 */ = 0 /* ty=int32 span=from_string:47:63 */;
  %9 = fn (%p07: Tensor[(1, 100, 2), int8] /* ty=Tensor[(1, 100, 2), int8] span=from_string:49:20 */, %p15: float32 /* ty=float32 span=from_string:49:26 */, %p23: int32 /* ty=int32 span=from_string:49:32 */, Primitive=1) -> Tensor[(1, 100, 2), float32] {
    qnn.dequantize(%p07, %p15, %p23) /* ty=Tensor[(1, 100, 2), float32] span=from_string:49:5 */
  } /* ty=fn (Tensor[(1, 100, 2), int8], float32, int32) -> Tensor[(1, 100, 2), float32] span=from_string:51:106 */;
  let %x_16: Tensor[(1, 100, 2), float32] /* ty=Tensor[(1, 100, 2), float32] span=from_string:55:117 */ = %9(%x4, %x_14, %x_15) /* ty=Tensor[(1, 100, 2), float32] span=from_string:51:106 */;
  %10 = fn (%p08: Tensor[(1, 4, 2), float32] /* ty=Tensor[(1, 4, 2), float32] span=from_string:53:21 */, %p16: Tensor[(1, 100, 2), float32] /* ty=Tensor[(1, 100, 2), float32] span=from_string:53:27 */, Primitive=1) -> Tensor[(1, 4, 100), float32] {
    nn.batch_matmul(%p08, %p16, transpose_b=True) /* ty=Tensor[(1, 4, 100), float32] span=from_string:53:5 */
  } /* ty=fn (Tensor[(1, 4, 2), float32], Tensor[(1, 100, 2), float32]) -> Tensor[(1, 4, 100), float32] span=from_string:55:106 */;
  let %x_17: Tensor[(1, 4, 100), float32] /* ty=Tensor[(1, 4, 100), float32] span=from_string:144:664 */ = %10(%x_13, %x_16) /* ty=Tensor[(1, 4, 100), float32] span=from_string:55:106 */;
  %11 = fn (%p09: Tensor[(31, 65), int64] /* ty=Tensor[(31, 65), int64] span=from_string:57:10 */, Primitive=1) -> Tensor[(31, 65), bool] {
    cast(%p09, dtype="bool") /* ty=Tensor[(31, 65), bool] span=from_string:57:5 */
  } /* ty=fn (Tensor[(31, 65), int64]) -> Tensor[(31, 65), bool] span=from_string:59:94 */;
  let %x_18: Tensor[(31, 65), bool] /* ty=Tensor[(31, 65), bool] span=from_string:63:102 */ = %11(%x2) /* ty=Tensor[(31, 65), bool] span=from_string:59:94 */;
  %12 = fn (%p010: Tensor[(31, 65), bool] /* ty=Tensor[(31, 65), bool] span=from_string:61:10 */, Primitive=1) -> Tensor[(31, 65), int32] {
    cast(%p010, dtype="int32") /* ty=Tensor[(31, 65), int32] span=from_string:61:5 */
  } /* ty=fn (Tensor[(31, 65), bool]) -> Tensor[(31, 65), int32] span=from_string:63:98 */;
  let %x_19: Tensor[(31, 65), int32] /* ty=Tensor[(31, 65), int32] span=from_string:144:671 */ = %12(%x_18) /* ty=Tensor[(31, 65), int32] span=from_string:63:98 */;
  let %x_20: float32 /* ty=float32 span=from_string:69:115 */ = 2f /* ty=float32 span=from_string:64:66 */;
  let %x_21: int32 /* ty=int32 span=from_string:69:122 */ = 0 /* ty=int32 span=from_string:65:63 */;
  %13 = fn (%p011: Tensor[(1, 100, 2), int8] /* ty=Tensor[(1, 100, 2), int8] span=from_string:67:20 */, %p17: float32 /* ty=float32 span=from_string:67:27 */, %p24: int32 /* ty=int32 span=from_string:67:33 */, Primitive=1) -> Tensor[(1, 100, 2), float32] {
    qnn.dequantize(%p011, %p17, %p24) /* ty=Tensor[(1, 100, 2), float32] span=from_string:67:5 */
  } /* ty=fn (Tensor[(1, 100, 2), int8], float32, int32) -> Tensor[(1, 100, 2), float32] span=from_string:69:106 */;
  let %x_22: Tensor[(1, 100, 2), float32] /* ty=Tensor[(1, 100, 2), float32] span=from_string:79:112 */ = %13(%x4, %x_20, %x_21) /* ty=Tensor[(1, 100, 2), float32] span=from_string:69:106 */;
  let %x_23: float32 /* ty=float32 span=from_string:75:113 */ = 0.5f /* ty=float32 span=from_string:70:68 */;
  let %x_24: int32 /* ty=int32 span=from_string:75:120 */ = 0 /* ty=int32 span=from_string:71:63 */;
  %14 = fn (%p012: Tensor[(1, 18, 2), int8] /* ty=Tensor[(1, 18, 2), int8] span=from_string:73:20 */, %p18: float32 /* ty=float32 span=from_string:73:27 */, %p25: int32 /* ty=int32 span=from_string:73:33 */, Primitive=1) -> Tensor[(1, 18, 2), float32] {
    qnn.dequantize(%p012, %p18, %p25) /* ty=Tensor[(1, 18, 2), float32] span=from_string:73:5 */
  } /* ty=fn (Tensor[(1, 18, 2), int8], float32, int32) -> Tensor[(1, 18, 2), float32] span=from_string:75:104 */;
  let %x_25: Tensor[(1, 18, 2), float32] /* ty=Tensor[(1, 18, 2), float32] span=from_string:79:119 */ = %14(%x5, %x_23, %x_24) /* ty=Tensor[(1, 18, 2), float32] span=from_string:75:104 */;
  %15 = fn (%p013: Tensor[(1, 100, 2), float32] /* ty=Tensor[(1, 100, 2), float32] span=from_string:77:21 */, %p19: Tensor[(1, 18, 2), float32] /* ty=Tensor[(1, 18, 2), float32] span=from_string:77:28 */, Primitive=1) -> Tensor[(1, 100, 18), float32] {
    nn.batch_matmul(%p013, %p19, transpose_b=True) /* ty=Tensor[(1, 100, 18), float32] span=from_string:77:5 */
  } /* ty=fn (Tensor[(1, 100, 2), float32], Tensor[(1, 18, 2), float32]) -> Tensor[(1, 100, 18), float32] span=from_string:79:108 */;
  let %x_26: Tensor[(1, 100, 18), float32] /* ty=Tensor[(1, 100, 18), float32] span=from_string:143:110 */ = %15(%x_22, %x_25) /* ty=Tensor[(1, 100, 18), float32] span=from_string:79:108 */;
  let %x_27: float32 /* ty=float32 span=from_string:85:115 */ = 1f /* ty=float32 span=from_string:80:66 */;
  let %x_28: int32 /* ty=int32 span=from_string:85:122 */ = 0 /* ty=int32 span=from_string:81:63 */;
  %16 = fn (%p014: Tensor[(1, 100, 18), float32] /* ty=Tensor[(1, 100, 18), float32] span=from_string:83:18 */, %p110: float32 /* ty=float32 span=from_string:83:25 */, %p26: int32 /* ty=int32 span=from_string:83:32 */, Primitive=1) -> Tensor[(1, 100, 18), int8] {
    qnn.quantize(%p014, %p110, %p26, out_dtype="int8") /* ty=Tensor[(1, 100, 18), int8] span=from_string:83:5 */
  } /* ty=fn (Tensor[(1, 100, 18), float32], float32, int32) -> Tensor[(1, 100, 18), int8] span=from_string:85:104 */;
  let %x_29: Tensor[(1, 100, 18), int8] /* ty=Tensor[(1, 100, 18), int8] span=from_string:144:678 */ = %16(%x_26, %x_27, %x_28) /* ty=Tensor[(1, 100, 18), int8] span=from_string:85:104 */;
  %17 = fn (%p015: Tensor[(1, 4, 2), float32] /* ty=Tensor[(1, 4, 2), float32] span=from_string:87:9 */, %p111: Tensor[(1), float32] /* ty=Tensor[(1), float32] span=from_string:87:16 */, Primitive=1) -> Tensor[(1, 4, 2), float32] {
    add(%p015, %p111) /* ty=Tensor[(1, 4, 2), float32] span=from_string:87:5 */
  } /* ty=fn (Tensor[(1, 4, 2), float32], Tensor[(1), float32]) -> Tensor[(1, 4, 2), float32] span=from_string:89:102 */;
  let %x_30: Tensor[(1, 4, 2), float32] /* ty=Tensor[(1, 4, 2), float32] span=from_string:144:685 */ = %17(%x_5, %x8) /* ty=Tensor[(1, 4, 2), float32] span=from_string:89:102 */;
  let %x_31: float32 /* ty=float32 span=from_string:95:113 */ = 2f /* ty=float32 span=from_string:90:66 */;
  let %x_32: int32 /* ty=int32 span=from_string:95:120 */ = 0 /* ty=int32 span=from_string:91:63 */;
  %18 = fn (%p016: Tensor[(1, 18, 2), int8] /* ty=Tensor[(1, 18, 2), int8] span=from_string:93:20 */, %p112: float32 /* ty=float32 span=from_string:93:27 */, %p27: int32 /* ty=int32 span=from_string:93:34 */, Primitive=1) -> Tensor[(1, 18, 2), float32] {
    qnn.dequantize(%p016, %p112, %p27) /* ty=Tensor[(1, 18, 2), float32] span=from_string:93:5 */
  } /* ty=fn (Tensor[(1, 18, 2), int8], float32, int32) -> Tensor[(1, 18, 2), float32] span=from_string:95:104 */;
  let %x_33: Tensor[(1, 18, 2), float32] /* ty=Tensor[(1, 18, 2), float32] span=from_string:105:110 */ = %18(%x5, %x_31, %x_32) /* ty=Tensor[(1, 18, 2), float32] span=from_string:95:104 */;
  let %x_34: float32 /* ty=float32 span=from_string:101:113 */ = 0.5f /* ty=float32 span=from_string:96:68 */;
  let %x_35: int32 /* ty=int32 span=from_string:101:120 */ = 0 /* ty=int32 span=from_string:97:63 */;
  %19 = fn (%p017: Tensor[(1, 46, 2), int8] /* ty=Tensor[(1, 46, 2), int8] span=from_string:99:20 */, %p113: float32 /* ty=float32 span=from_string:99:27 */, %p28: int32 /* ty=int32 span=from_string:99:34 */, Primitive=1) -> Tensor[(1, 46, 2), float32] {
    qnn.dequantize(%p017, %p113, %p28) /* ty=Tensor[(1, 46, 2), float32] span=from_string:99:5 */
  } /* ty=fn (Tensor[(1, 46, 2), int8], float32, int32) -> Tensor[(1, 46, 2), float32] span=from_string:101:104 */;
  let %x_36: Tensor[(1, 46, 2), float32] /* ty=Tensor[(1, 46, 2), float32] span=from_string:105:117 */ = %19(%x6, %x_34, %x_35) /* ty=Tensor[(1, 46, 2), float32] span=from_string:101:104 */;
  %20 = fn (%p018: Tensor[(1, 18, 2), float32] /* ty=Tensor[(1, 18, 2), float32] span=from_string:103:21 */, %p114: Tensor[(1, 46, 2), float32] /* ty=Tensor[(1, 46, 2), float32] span=from_string:103:28 */, Primitive=1) -> Tensor[(1, 18, 46), float32] {
    nn.batch_matmul(%p018, %p114, transpose_b=True) /* ty=Tensor[(1, 18, 46), float32] span=from_string:103:5 */
  } /* ty=fn (Tensor[(1, 18, 2), float32], Tensor[(1, 46, 2), float32]) -> Tensor[(1, 18, 46), float32] span=from_string:105:106 */;
  let %x_37: Tensor[(1, 18, 46), float32] /* ty=Tensor[(1, 18, 46), float32] span=from_string:111:106 */ = %20(%x_33, %x_36) /* ty=Tensor[(1, 18, 46), float32] span=from_string:105:106 */;
  let %x_38: float32 /* ty=float32 span=from_string:111:113 */ = 1f /* ty=float32 span=from_string:106:66 */;
  let %x_39: int32 /* ty=int32 span=from_string:111:120 */ = 0 /* ty=int32 span=from_string:107:63 */;
  %21 = fn (%p019: Tensor[(1, 18, 46), float32] /* ty=Tensor[(1, 18, 46), float32] span=from_string:109:18 */, %p115: float32 /* ty=float32 span=from_string:109:25 */, %p29: int32 /* ty=int32 span=from_string:109:32 */, Primitive=1) -> Tensor[(1, 18, 46), int8] {
    qnn.quantize(%p019, %p115, %p29, out_dtype="int8") /* ty=Tensor[(1, 18, 46), int8] span=from_string:109:5 */
  } /* ty=fn (Tensor[(1, 18, 46), float32], float32, int32) -> Tensor[(1, 18, 46), int8] span=from_string:111:102 */;
  let %x_40: Tensor[(1, 18, 46), int8] /* ty=Tensor[(1, 18, 46), int8] span=from_string:144:692 */ = %21(%x_37, %x_38, %x_39) /* ty=Tensor[(1, 18, 46), int8] span=from_string:111:102 */;
  %22 = fn (%p020: Tensor[(1), float32] /* ty=Tensor[(1), float32] span=from_string:113:15 */, %p116: Tensor[(1), float32] /* ty=Tensor[(1), float32] span=from_string:113:22 */, Primitive=1) -> Tensor[(1), float32] {
    multiply(%p020, %p116) /* ty=Tensor[(1), float32] span=from_string:113:6 */
  } /* ty=fn (Tensor[(1), float32], Tensor[(1), float32]) -> Tensor[(1), float32] span=from_string:115:90 */;
  let %x_41: Tensor[(1), float32] /* ty=Tensor[(1), float32] span=from_string:120:94 */ = %22(%x9, %x8) /* ty=Tensor[(1), float32] span=from_string:115:90 */;
  let %x_42: Tensor[(1), int32] /* ty=Tensor[(1), int32] span=from_string:120:101 */ = meta[relay.Constant][0] /* ty=Tensor[(1), int32] span=from_string:116:93 */;
  %23 = fn (%p021: Tensor[(1), float32] /* ty=Tensor[(1), float32] span=from_string:118:21 */, %p117: Tensor[(1), int32] /* ty=Tensor[(1), int32] span=from_string:118:28 */, Primitive=1) -> Tensor[(1), float32] {
    collapse_sum_to(%p021, %p117, meta[relay.attrs.InitOpAttrs][0]) /* ty=Tensor[(1), float32] span=from_string:118:5 */
  } /* ty=fn (Tensor[(1), float32], Tensor[(1), int32]) -> Tensor[(1), float32] span=from_string:120:90 */;
  let %x_43: Tensor[(1), float32] /* ty=Tensor[(1), float32] span=from_string:133:94 */ = %23(%x_41, %x_42) /* ty=Tensor[(1), float32] span=from_string:120:90 */;
  %24 = fn (%p022: Tensor[(1), float32] /* ty=Tensor[(1), float32] span=from_string:122:15 */, %p118: Tensor[(1), float32] /* ty=Tensor[(1), float32] span=from_string:122:22 */, Primitive=1) -> Tensor[(1), float32] {
    multiply(%p022, %p118) /* ty=Tensor[(1), float32] span=from_string:122:6 */
  } /* ty=fn (Tensor[(1), float32], Tensor[(1), float32]) -> Tensor[(1), float32] span=from_string:124:90 */;
  let %x_44: Tensor[(1), float32] /* ty=Tensor[(1), float32] span=from_string:129:94 */ = %24(%x9, %x8) /* ty=Tensor[(1), float32] span=from_string:124:90 */;
  let %x_45: Tensor[(1), int32] /* ty=Tensor[(1), int32] span=from_string:129:101 */ = meta[relay.Constant][1] /* ty=Tensor[(1), int32] span=from_string:125:93 */;
  %25 = fn (%p023: Tensor[(1), float32] /* ty=Tensor[(1), float32] span=from_string:127:21 */, %p119: Tensor[(1), int32] /* ty=Tensor[(1), int32] span=from_string:127:28 */, Primitive=1) -> Tensor[(1), float32] {
    collapse_sum_to(%p023, %p119, meta[relay.attrs.InitOpAttrs][1]) /* ty=Tensor[(1), float32] span=from_string:127:5 */
  } /* ty=fn (Tensor[(1), float32], Tensor[(1), int32]) -> Tensor[(1), float32] span=from_string:129:90 */;
  let %x_46: Tensor[(1), float32] /* ty=Tensor[(1), float32] span=from_string:133:101 */ = %25(%x_44, %x_45) /* ty=Tensor[(1), float32] span=from_string:129:90 */;
  %26 = fn (%p024: Tensor[(1), float32] /* ty=Tensor[(1), float32] span=from_string:131:9 */, %p120: Tensor[(1), float32] /* ty=Tensor[(1), float32] span=from_string:131:16 */, Primitive=1) -> Tensor[(1), float32] {
    add(%p024, %p120) /* ty=Tensor[(1), float32] span=from_string:131:5 */
  } /* ty=fn (Tensor[(1), float32], Tensor[(1), float32]) -> Tensor[(1), float32] span=from_string:133:90 */;
  let %x_47: Tensor[(1), float32] /* ty=Tensor[(1), float32] span=from_string:134:97 */ = %26(%x_43, %x_46) /* ty=Tensor[(1), float32] span=from_string:133:90 */;
  let %x_48: (Tensor[(1), float32],) /* ty=(Tensor[(1), float32],) span=from_string:135:150 */ = (%x_47,) /* ty=(Tensor[(1), float32],) span=from_string:134:96 */;
  let %x_49: (Tensor[(1), float32], (Tensor[(1), float32],)) /* ty=(Tensor[(1), float32], (Tensor[(1), float32],)) span=from_string:144:699 */ = (%x8, %x_48) /* ty=(Tensor[(1), float32], (Tensor[(1), float32],)) span=from_string:135:144 */;
  %27 = fn (%p025: Tensor[(1, 46, 2), int8] /* ty=Tensor[(1, 46, 2), int8] span=from_string:137:12 */, Primitive=1) -> Tensor[(1, 2), int32] {
    argmax(%p025, axis=[1]) /* ty=Tensor[(1, 2), int32] span=from_string:137:5 */
  } /* ty=fn (Tensor[(1, 46, 2), int8]) -> Tensor[(1, 2), int32] span=from_string:139:94 */;
  let %x_50: Tensor[(1, 2), int32] /* ty=Tensor[(1, 2), int32] span=from_string:144:706 */ = %27(%x6) /* ty=Tensor[(1, 2), int32] span=from_string:139:94 */;
  %28 = fn (%p026: Tensor[(1, 100, 18), float32] /* ty=Tensor[(1, 100, 18), float32] span=from_string:141:10 */, Primitive=1) -> Tensor[(1, 100, 18), int32] {
    cast(%p026, dtype="int32") /* ty=Tensor[(1, 100, 18), int32] span=from_string:141:5 */
  } /* ty=fn (Tensor[(1, 100, 18), float32]) -> Tensor[(1, 100, 18), int32] span=from_string:143:106 */;
  let %x_51: Tensor[(1, 100, 18), int32] /* ty=Tensor[(1, 100, 18), int32] span=from_string:144:713 */ = %28(%x_26) /* ty=Tensor[(1, 100, 18), int32] span=from_string:143:106 */;
  let %x_52: (Tensor[(1, 4, 4), float32], Tensor[(1, 4, 2), float32], Tensor[(1, 4, 100), float32], Tensor[(31, 65), int32], Tensor[(1, 100, 18), int8], Tensor[(1, 4, 2), float32], Tensor[(1, 18, 46), int8], (Tensor[(1), float32], (Tensor[(1), float32],)), Tensor[(1, 2), int32], Tensor[(1, 100, 18), int32]) /* ty=(Tensor[(1, 4, 4), float32], Tensor[(1, 4, 2), float32], Tensor[(1, 4, 100), float32], Tensor[(31, 65), int32], Tensor[(1, 100, 18), int8], Tensor[(1, 4, 2), float32], Tensor[(1, 18, 46), int8], (Tensor[(1), float32], (Tensor[(1), float32],)), Tensor[(1, 2), int32], Tensor[(1, 100, 18), int32]) span=from_string:145:650 */ = (%x_9, %x_10, %x_17, %x_19, %x_29, %x_30, %x_40, %x_49, %x_50, %x_51) /* ty=(Tensor[(1, 4, 4), float32], Tensor[(1, 4, 2), float32], Tensor[(1, 4, 100), float32], Tensor[(31, 65), int32], Tensor[(1, 100, 18), int8], Tensor[(1, 4, 2), float32], Tensor[(1, 18, 46), int8], (Tensor[(1), float32], (Tensor[(1), float32],)), Tensor[(1, 2), int32], Tensor[(1, 100, 18), int32]) span=from_string:144:650 */;
  let %x_53: (Tensor[(1, 4, 4), float32], Tensor[(1, 4, 2), float32], Tensor[(1, 4, 100), float32], Tensor[(31, 65), int32], Tensor[(1, 100, 18), int8], Tensor[(1, 4, 2), float32], Tensor[(1, 18, 46), int8], (Tensor[(1), float32], (Tensor[(1), float32],)), Tensor[(1, 2), int32], Tensor[(1, 100, 18), int32]) /* ty=(Tensor[(1, 4, 4), float32], Tensor[(1, 4, 2), float32], Tensor[(1, 4, 100), float32], Tensor[(31, 65), int32], Tensor[(1, 100, 18), int8], Tensor[(1, 4, 2), float32], Tensor[(1, 18, 46), int8], (Tensor[(1), float32], (Tensor[(1), float32],)), Tensor[(1, 2), int32], Tensor[(1, 100, 18), int32]) span=from_string:146:649 */ = %x_52;
  let %x_54: (Tensor[(1, 4, 4), float32], Tensor[(1, 4, 2), float32], Tensor[(1, 4, 100), float32], Tensor[(31, 65), int32], Tensor[(1, 100, 18), int8], Tensor[(1, 4, 2), float32], Tensor[(1, 18, 46), int8], (Tensor[(1), float32], (Tensor[(1), float32],)), Tensor[(1, 2), int32], Tensor[(1, 100, 18), int32]) /* ty=(Tensor[(1, 4, 4), float32], Tensor[(1, 4, 2), float32], Tensor[(1, 4, 100), float32], Tensor[(31, 65), int32], Tensor[(1, 100, 18), int8], Tensor[(1, 4, 2), float32], Tensor[(1, 18, 46), int8], (Tensor[(1), float32], (Tensor[(1), float32],)), Tensor[(1, 2), int32], Tensor[(1, 100, 18), int32]) span=from_string:147:3 */ = %x_53;
  %x_54
}

#[metadata]
{
  "root": 1, 
  "nodes": [
    {
      "type_key": ""
    }, 
    {
      "type_key": "Map", 
      "keys": [
        "relay.attrs.InitOpAttrs", 
        "relay.Constant"
      ], 
      "data": [2, 8]
    }, 
    {
      "type_key": "Array", 
      "data": [3, 6]
    }, 
    {
      "type_key": "relay.attrs.InitOpAttrs", 
      "attrs": {
        "dtype": "", 
        "shape": "4"
      }
    }, 
    {
      "type_key": "Array", 
      "data": [5]
    }, 
    {
      "type_key": "IntImm", 
      "attrs": {
        "dtype": "int32", 
        "span": "0", 
        "value": "1"
      }
    }, 
    {
      "type_key": "relay.attrs.InitOpAttrs", 
      "attrs": {
        "dtype": "", 
        "shape": "7"
      }
    }, 
    {
      "type_key": "Array", 
      "data": [5]
    }, 
    {
      "type_key": "Array", 
      "data": [9, 17]
    }, 
    {
      "type_key": "relay.Constant", 
      "attrs": {
        "_checked_type_": "14", 
        "data": "0", 
        "span": "12", 
        "virtual_device_": "10"
      }
    }, 
    {
      "type_key": "VirtualDevice", 
      "attrs": {
        "device_type_int": "-1", 
        "memory_scope": "11", 
        "target": "0", 
        "virtual_device_id": "-1"
      }
    }, 
    {
      "type_key": "runtime.String"
    }, 
    {
      "type_key": "Span", 
      "attrs": {
        "column": "93", 
        "end_column": "111", 
        "end_line": "116", 
        "line": "116", 
        "source_name": "13"
      }
    }, 
    {
      "type_key": "SourceName", 
      "repr_str": "from_string"
    }, 
    {
      "type_key": "relay.TensorType", 
      "attrs": {
        "dtype": "int32", 
        "shape": "15", 
        "span": "0"
      }
    }, 
    {
      "type_key": "Array", 
      "data": [16]
    }, 
    {
      "type_key": "IntImm", 
      "attrs": {
        "dtype": "int32", 
        "span": "0", 
        "value": "1"
      }
    }, 
    {
      "type_key": "relay.Constant", 
      "attrs": {
        "_checked_type_": "19", 
        "data": "1", 
        "span": "18", 
        "virtual_device_": "10"
      }
    }, 
    {
      "type_key": "Span", 
      "attrs": {
        "column": "93", 
        "end_column": "111", 
        "end_line": "125", 
        "line": "125", 
        "source_name": "13"
      }
    }, 
    {
      "type_key": "relay.TensorType", 
      "attrs": {
        "dtype": "int32", 
        "shape": "20", 
        "span": "0"
      }
    }, 
    {
      "type_key": "Array", 
      "data": [21]
    }, 
    {
      "type_key": "IntImm", 
      "attrs": {
        "dtype": "int32", 
        "span": "0", 
        "value": "1"
      }
    }
  ], 
  "b64ndarrays": [
    "P6G0lvBAXt0AAAAAAAAAAAEAAAAAAAAAAQAAAAAgAQABAAAAAAAAAAQAAAAAAAAAAQAAAA==", 
    "P6G0lvBAXt0AAAAAAAAAAAEAAAAAAAAAAQAAAAAgAQABAAAAAAAAAAQAAAAAAAAAAQAAAA=="
  ], 
  "attrs": {"tvm_version": "0.13.0"}
}