#[version = "0.0.5"]
def @main(%x0: Tensor[(1, 4, 2), int8] /* ty=Tensor[(1, 4, 2), int8] span=from_string:8:29 */, %x1: Tensor[(1, 4, 2), int8] /* ty=Tensor[(1, 4, 2), int8] span=from_string:16:20 */, %x2: Tensor[(31, 65), int64] /* ty=Tensor[(31, 65), int64] span=from_string:24:20 */, %x3: Tensor[(58), float32] /* ty=Tensor[(58), float32] span=from_string:19:32 */, %x4: Tensor[(1, 100, 2), int8] /* ty=Tensor[(1, 100, 2), int8] span=from_string:60:30 */, %x5: Tensor[(1, 18, 2), int8] /* ty=Tensor[(1, 18, 2), int8] span=from_string:63:30 */, %x6: Tensor[(1, 46, 2), int8] /* ty=Tensor[(1, 46, 2), int8] span=from_string:56:30 */, %x7: Tensor[(49, 17, 31), int32] /* ty=Tensor[(49, 17, 31), int32] span=from_string:65:32 */) -> (Tensor[(1, 4, 4), float32], Tensor[(1, 4, 2), float32], Tensor[(1, 4, 100), float32], Tensor[(31, 65), int32], Tensor[(1, 100, 18), int8], Tensor[(1, 4, 2), float32], Tensor[(1, 18, 46), int8], (Tensor[(1), float32], (Tensor[(1), float32],)), Tensor[(1, 2), int32], Tensor[(1, 100, 18), int32]) {
  %0 = qnn.dequantize(%x0, 2f /* ty=float32 span=from_string:6:16 */, 0 /* ty=int32 span=from_string:7:15 */) /* ty=Tensor[(1, 4, 2), float32] span=from_string:8:14 */;
  %1 = qnn.dequantize(%x1, 6f /* ty=float32 span=from_string:9:16 */, 0 /* ty=int32 span=from_string:10:15 */) /* ty=Tensor[(1, 4, 2), float32] span=from_string:11:14 */;
  %2 = nn.batch_matmul(%0, %1, transpose_b=True) /* ty=Tensor[(1, 4, 4), float32] span=from_string:12:14 */;
  %3 = add(%2, 1f /* ty=float32 span=from_string:13:16 */) /* ty=Tensor[(1, 4, 4), float32] span=from_string:14:14 */;
  %4 = cast(%x1, dtype="int16") /* ty=Tensor[(1, 4, 2), int16] span=from_string:16:15 */;
  %5 = cast(%4, dtype="int32") /* ty=Tensor[(1, 4, 2), int32] span=from_string:17:15 */;
  %6 = cast_like(%5, %x2) /* ty=Tensor[(1, 4, 2), int64] span=from_string:18:15 */;
  %7 = qnn.dequantize(%x4, 6f /* ty=float32 span=from_string:20:17 */, 0 /* ty=int32 span=from_string:21:16 */) /* ty=Tensor[(1, 100, 2), float32] span=from_string:22:15 */;
  %8 = cast(%x2, dtype="bool") /* ty=Tensor[(31, 65), bool] span=from_string:24:15 */;
  %9 = qnn.batch_matmul(%x4, %x5, 0 /* ty=int32 span=from_string:26:16 */, 0 /* ty=int32 span=from_string:27:16 */, 2f /* ty=float32 span=from_string:28:17 */, 0.5f /* ty=float32 span=from_string:29:19 */, out_dtype="int32", transpose_b=True) /* ty=Tensor[(1, 100, 18), int32] span=from_string:30:15 */;
  %10 = ones(shape=[1], dtype="float32") /* ty=Tensor[(1), float32] span=from_string:3:14 */;
  %11 = qnn.batch_matmul(%x5, %x6, 0 /* ty=int32 span=from_string:37:16 */, 0 /* ty=int32 span=from_string:38:16 */, 2f /* ty=float32 span=from_string:39:17 */, 0.5f /* ty=float32 span=from_string:40:19 */, out_dtype="int32", transpose_b=True) /* ty=Tensor[(1, 18, 46), int32] span=from_string:41:15 */;
  %12 = multiply(%10, %10) /* ty=Tensor[(1), float32] span=from_string:4:89 */;
  %13 = ones_like(%12) /* ty=Tensor[(1), float32] span=from_string:5:88 */;
  %14 = multiply(%13, %10) /* ty=Tensor[(1), float32] span=from_string:48:16 */;
  %15 = zeros_like(%10) /* ty=Tensor[(1), float32] span=from_string:47:15 */;
  %16 = collapse_sum_like(%14, %10) /* ty=Tensor[(1), float32] span=from_string:49:15 */;
  %17 = add(%15, %16) /* ty=Tensor[(1), float32] span=from_string:50:15 */;
  %18 = add(%17, %16) /* ty=Tensor[(1), float32] span=from_string:51:15 */;
  %19 = (%18,) /* ty=(Tensor[(1), float32],) span=from_string:52:15 */;
  %20 = qnn.dequantize(%x6, 2f /* ty=float32 span=from_string:54:17 */, 0 /* ty=int32 span=from_string:55:16 */) /* ty=Tensor[(1, 46, 2), float32] span=from_string:56:15 */;
  %21 = qnn.dequantize(%x4, 2f /* ty=float32 span=from_string:58:17 */, 0 /* ty=int32 span=from_string:59:16 */) /* ty=Tensor[(1, 100, 2), float32] span=from_string:60:15 */;
  %22 = qnn.dequantize(%x5, 0.5f /* ty=float32 span=from_string:61:19 */, 0 /* ty=int32 span=from_string:62:16 */) /* ty=Tensor[(1, 18, 2), float32] span=from_string:63:15 */;
  %23 = nn.batch_matmul(%21, %22, transpose_b=True) /* ty=Tensor[(1, 100, 18), float32] span=from_string:64:15 */;
  %24 = erf(%3) /* ty=Tensor[(1, 4, 4), float32] span=from_string:15:15 */;
  %25 = cast_like(%6, %x3) /* ty=Tensor[(1, 4, 2), float32] span=from_string:19:15 */;
  %26 = nn.batch_matmul(%0, %7, transpose_b=True) /* ty=Tensor[(1, 4, 100), float32] span=from_string:23:15 */;
  %27 = cast(%8, dtype="int32") /* ty=Tensor[(31, 65), int32] span=from_string:25:15 */;
  %28 = qnn.requantize(%9, 1f /* ty=float32 span=from_string:31:17 */, 0 /* ty=int32 span=from_string:32:16 */, 1f /* ty=float32 span=from_string:33:17 */, 0 /* ty=int32 span=from_string:34:16 */, out_dtype="int8") /* ty=Tensor[(1, 100, 18), int8] span=from_string:35:15 */;
  %29 = add(%1, %10) /* ty=Tensor[(1, 4, 2), float32] span=from_string:36:15 */;
  %30 = qnn.requantize(%11, 1f /* ty=float32 span=from_string:42:17 */, 0 /* ty=int32 span=from_string:43:16 */, 1f /* ty=float32 span=from_string:44:17 */, 0 /* ty=int32 span=from_string:45:16 */, out_dtype="int8") /* ty=Tensor[(1, 18, 46), int8] span=from_string:46:15 */;
  %31 = (%12, %19) /* ty=(Tensor[(1), float32], (Tensor[(1), float32],)) span=from_string:53:15 */;
  %32 = argmax(%20, axis=[1]) /* ty=Tensor[(1, 2), int32] span=from_string:57:15 */;
  %33 = cast_like(%23, %x7) /* ty=Tensor[(1, 100, 18), int32] span=from_string:65:15 */;
  (%24, %25, %26, %27, %28, %29, %30, %31, %32, %33) /* ty=(Tensor[(1, 4, 4), float32], Tensor[(1, 4, 2), float32], Tensor[(1, 4, 100), float32], Tensor[(31, 65), int32], Tensor[(1, 100, 18), int8], Tensor[(1, 4, 2), float32], Tensor[(1, 18, 46), int8], (Tensor[(1), float32], (Tensor[(1), float32],)), Tensor[(1, 2), int32], Tensor[(1, 100, 18), int32]) span=from_string:66:15 */
}
