#[version = "0.0.5"]
def @main(%x0: Tensor[(1, 4, 2), int8] /* ty=Tensor[(1, 4, 2), int8] span=from_string:6:23 */, %x1: Tensor[(1, 4, 2), int8] /* ty=Tensor[(1, 4, 2), int8] span=from_string:23:14 */, %x2: Tensor[(31, 65), int64] /* ty=Tensor[(31, 65), int64] span=from_string:11:13 */, %x3: Tensor[(58), float32] /* ty=Tensor[(58), float32] */, %x4: Tensor[(1, 100, 2), int8] /* ty=Tensor[(1, 100, 2), int8] span=from_string:19:24 */, %x5: Tensor[(1, 18, 2), int8] /* ty=Tensor[(1, 18, 2), int8] span=from_string:20:24 */, %x6: Tensor[(1, 46, 2), int8] /* ty=Tensor[(1, 46, 2), int8] span=from_string:30:16 */, %x7: Tensor[(49, 17, 31), int32] /* ty=Tensor[(49, 17, 31), int32] */) -> (Tensor[(1, 4, 4), float32], Tensor[(1, 4, 2), float32], Tensor[(1, 4, 100), float32], Tensor[(31, 65), int32], Tensor[(1, 100, 18), int8], Tensor[(1, 4, 2), float32], Tensor[(1, 18, 46), int8], (Tensor[(1), float32], (Tensor[(1), float32],)), Tensor[(1, 2), int32], Tensor[(1, 100, 18), int32]) {
  let %x8: Tensor[(1), float32] /* ty=Tensor[(1), float32] span=from_string:29:10 */ = ones(shape=[1], dtype="float32");
  let %x9: Tensor[(1), float32] /* ty=Tensor[(1), float32] span=from_string:14:18 */ = ones(shape=[1], dtype="float32");
  let %x_0 = 2f /* ty=float32 span=from_string:6:30 */;
  let %x_1 = 0 /* ty=int32 span=from_string:6:72 */;
  let %x_2 = qnn.dequantize(%x0, %x_0, %x_1);
  let %x_3 = 6f /* ty=float32 span=from_string:7:30 */;
  let %x_4 = 0 /* ty=int32 span=from_string:7:72 */;
  let %x_5 = qnn.dequantize(%x1, %x_3, %x_4);
  let %x_6 = nn.batch_matmul(%x_2, %x_5, transpose_b=True);
  let %x_7 = 1f /* ty=float32 span=from_string:9:18 */;
  let %x_8 = add(%x_6, %x_7);
  let %x_9 = erf(%x_8);
  let %x_10 = cast(%x1, dtype="float32");
  let %x_11 = 6f /* ty=float32 span=from_string:10:30 */;
  let %x_12 = 0 /* ty=int32 span=from_string:10:73 */;
  let %x_13 = qnn.dequantize(%x4, %x_11, %x_12);
  let %x_14 = nn.batch_matmul(%x_2, %x_13, transpose_b=True);
  let %x_15 = cast(%x2, dtype="bool");
  let %x_16 = cast(%x_15, dtype="int32");
  let %x_17 = 0 /* ty=int32 span=from_string:12:36 */;
  let %x_18 = 0 /* ty=int32 span=from_string:12:77 */;
  let %x_19 = 2f /* ty=float32 span=from_string:12:119 */;
  let %x_20 = 0.5f /* ty=float32 span=from_string:12:165 */;
  let %x_21 = qnn.batch_matmul(%x4, %x5, %x_17, %x_18, %x_19, %x_20, out_dtype="int32", transpose_b=True);
  let %x_22 = 1f /* ty=float32 span=from_string:26:30 */;
  let %x_23 = 0 /* ty=int32 span=from_string:26:50 */;
  let %x_24 = 1f /* ty=float32 span=from_string:26:69 */;
  let %x_25 = 0 /* ty=int32 span=from_string:26:112 */;
  let %x_26 = qnn.requantize(%x_21, %x_22, %x_23, %x_24, %x_25, out_dtype="int8");
  let %x_27 = add(%x_5, %x8);
  let %x_28 = 0 /* ty=int32 span=from_string:13:36 */;
  let %x_29 = 0 /* ty=int32 span=from_string:13:77 */;
  let %x_30 = 2f /* ty=float32 span=from_string:13:119 */;
  let %x_31 = 0.5f /* ty=float32 span=from_string:13:165 */;
  let %x_32 = qnn.batch_matmul(%x5, %x6, %x_28, %x_29, %x_30, %x_31, out_dtype="int32", transpose_b=True);
  let %x_33 = 1f /* ty=float32 span=from_string:28:30 */;
  let %x_34 = 0 /* ty=int32 span=from_string:28:50 */;
  let %x_35 = 1f /* ty=float32 span=from_string:28:69 */;
  let %x_36 = 0 /* ty=int32 span=from_string:28:112 */;
  let %x_37 = qnn.requantize(%x_32, %x_33, %x_34, %x_35, %x_36, out_dtype="int8");
  let %x_38 = multiply(%x9, %x8);
  let %x_39 = meta[relay.Constant][0] /* ty=Tensor[(1), int32] span=from_string:15:34 */;
  let %x_40 = collapse_sum_to(%x_38, %x_39, meta[relay.attrs.InitOpAttrs][0]);
  let %x_41 = meta[relay.Constant][1] /* ty=Tensor[(1), int32] span=from_string:16:34 */;
  let %x_42 = collapse_sum_to(%x_38, %x_41, meta[relay.attrs.InitOpAttrs][1]);
  let %x_43 = add(%x_40, %x_42);
  let %x_44 = (%x_43,) /* ty=(Tensor[(1), float32],) span=from_string:29:15 */;
  let %x_45 = (%x8, %x_44) /* ty=(Tensor[(1), float32], (Tensor[(1), float32],)) span=from_string:32:39 */;
  let %x_46 = argmax(%x6, axis=[1]);
  let %x_47 = 2f /* ty=float32 span=from_string:19:31 */;
  let %x_48 = 0 /* ty=int32 span=from_string:19:74 */;
  let %x_49 = qnn.dequantize(%x4, %x_47, %x_48);
  let %x_50 = 0.5f /* ty=float32 span=from_string:20:33 */;
  let %x_51 = 0 /* ty=int32 span=from_string:20:76 */;
  let %x_52 = qnn.dequantize(%x5, %x_50, %x_51);
  let %x_53 = nn.batch_matmul(%x_49, %x_52, transpose_b=True);
  let %x_54 = cast(%x_53, dtype="int32");
  let %x_55 = (%x_9, %x_10, %x_14, %x_16, %x_26, %x_27, %x_37, %x_45, %x_46, %x_54) /* ty=(Tensor[(1, 4, 4), float32], Tensor[(1, 4, 2), float32], Tensor[(1, 4, 100), float32], Tensor[(31, 65), int32], Tensor[(1, 100, 18), int8], Tensor[(1, 4, 2), float32], Tensor[(1, 18, 46), int8], (Tensor[(1), float32], (Tensor[(1), float32],)), Tensor[(1, 2), int32], Tensor[(1, 100, 18), int32]) span=from_string:32:3 */;
  let %x_56 = %x_55;
  let %x_57 = %x_56;
  %x_57
}

#[metadata]
{
  "root": 1, 
  "nodes": [
    {
      "type_key": ""
    }, 
    {
      "type_key": "Map", 
      "keys": [
        "relay.attrs.InitOpAttrs", 
        "relay.Constant"
      ], 
      "data": [2, 8]
    }, 
    {
      "type_key": "Array", 
      "data": [3, 6]
    }, 
    {
      "type_key": "relay.attrs.InitOpAttrs", 
      "attrs": {
        "dtype": "", 
        "shape": "4"
      }
    }, 
    {
      "type_key": "Array", 
      "data": [5]
    }, 
    {
      "type_key": "IntImm", 
      "attrs": {
        "dtype": "int32", 
        "span": "0", 
        "value": "1"
      }
    }, 
    {
      "type_key": "relay.attrs.InitOpAttrs", 
      "attrs": {
        "dtype": "", 
        "shape": "7"
      }
    }, 
    {
      "type_key": "Array", 
      "data": [5]
    }, 
    {
      "type_key": "Array", 
      "data": [9, 17]
    }, 
    {
      "type_key": "relay.Constant", 
      "attrs": {
        "_checked_type_": "14", 
        "data": "0", 
        "span": "12", 
        "virtual_device_": "10"
      }
    }, 
    {
      "type_key": "VirtualDevice", 
      "attrs": {
        "device_type_int": "-1", 
        "memory_scope": "11", 
        "target": "0", 
        "virtual_device_id": "-1"
      }
    }, 
    {
      "type_key": "runtime.String"
    }, 
    {
      "type_key": "Span", 
      "attrs": {
        "column": "34", 
        "end_column": "52", 
        "end_line": "15", 
        "line": "15", 
        "source_name": "13"
      }
    }, 
    {
      "type_key": "SourceName", 
      "repr_str": "from_string"
    }, 
    {
      "type_key": "relay.TensorType", 
      "attrs": {
        "dtype": "int32", 
        "shape": "15", 
        "span": "0"
      }
    }, 
    {
      "type_key": "Array", 
      "data": [16]
    }, 
    {
      "type_key": "IntImm", 
      "attrs": {
        "dtype": "int32", 
        "span": "0", 
        "value": "1"
      }
    }, 
    {
      "type_key": "relay.Constant", 
      "attrs": {
        "_checked_type_": "19", 
        "data": "1", 
        "span": "18", 
        "virtual_device_": "10"
      }
    }, 
    {
      "type_key": "Span", 
      "attrs": {
        "column": "34", 
        "end_column": "52", 
        "end_line": "16", 
        "line": "16", 
        "source_name": "13"
      }
    }, 
    {
      "type_key": "relay.TensorType", 
      "attrs": {
        "dtype": "int32", 
        "shape": "20", 
        "span": "0"
      }
    }, 
    {
      "type_key": "Array", 
      "data": [21]
    }, 
    {
      "type_key": "IntImm", 
      "attrs": {
        "dtype": "int32", 
        "span": "0", 
        "value": "1"
      }
    }
  ], 
  "b64ndarrays": [
    "P6G0lvBAXt0AAAAAAAAAAAEAAAAAAAAAAQAAAAAgAQABAAAAAAAAAAQAAAAAAAAAAQAAAA==", 
    "P6G0lvBAXt0AAAAAAAAAAAEAAAAAAAAAAQAAAAAgAQABAAAAAAAAAAQAAAAAAAAAAQAAAA=="
  ], 
  "attrs": {"tvm_version": "0.13.0"}
}