#[version = "0.0.5"]
def @main(%x0: Tensor[(1, 4, 2), int8] /* ty=Tensor[(1, 4, 2), int8] span=from_string:16:30 */, %x1: Tensor[(1, 4, 2), int8] /* ty=Tensor[(1, 4, 2), int8] span=from_string:13:20 */, %x2: Tensor[(31, 65), int64] /* ty=Tensor[(31, 65), int64] span=from_string:21:20 */, %x3: Tensor[(58), float32] /* ty=Tensor[(58), float32] */, %x4: Tensor[(1, 100, 2), int8] /* ty=Tensor[(1, 100, 2), int8] span=from_string:25:30 */, %x5: Tensor[(1, 18, 2), int8] /* ty=Tensor[(1, 18, 2), int8] span=from_string:37:30 */, %x6: Tensor[(1, 46, 2), int8] /* ty=Tensor[(1, 46, 2), int8] span=from_string:55:22 */, %x7: Tensor[(49, 17, 31), int32] /* ty=Tensor[(49, 17, 31), int32] */) -> (Tensor[(1, 4, 4), float32], Tensor[(1, 4, 2), float32], Tensor[(1, 4, 100), float32], Tensor[(31, 65), int32], Tensor[(1, 100, 18), int8], Tensor[(1, 4, 2), float32], Tensor[(1, 18, 46), int8], (Tensor[(1), float32], (Tensor[(1), float32],)), Tensor[(1, 2), int32], Tensor[(1, 100, 18), int32]) {
  let %x_2: Tensor[(1, 4, 2), float32] /* ty=Tensor[(1, 4, 2), float32] span=from_string:9:30 */ = qnn.dequantize(%x0, 2f /* ty=float32 span=from_string:3:16 */, 0 /* ty=int32 span=from_string:4:15 */) /* ty=Tensor[(1, 4, 2), float32] span=from_string:5:14 */;
  let %x_5: Tensor[(1, 4, 2), float32] /* ty=Tensor[(1, 4, 2), float32] span=from_string:34:19 */ = qnn.dequantize(%x1, 6f /* ty=float32 span=from_string:6:16 */, 0 /* ty=int32 span=from_string:7:15 */) /* ty=Tensor[(1, 4, 2), float32] span=from_string:8:14 */;
  let %x_6: Tensor[(1, 4, 4), float32] /* ty=Tensor[(1, 4, 4), float32] span=from_string:11:18 */ = nn.batch_matmul(%x_2, %x_5, transpose_b=True) /* ty=Tensor[(1, 4, 4), float32] span=from_string:9:14 */;
  let %x_8: Tensor[(1, 4, 4), float32] /* ty=Tensor[(1, 4, 4), float32] span=from_string:12:18 */ = add(%x_6, 1f /* ty=float32 span=from_string:10:16 */) /* ty=Tensor[(1, 4, 4), float32] span=from_string:11:14 */;
  let %x_9: Tensor[(1, 4, 4), float32] /* ty=Tensor[(1, 4, 4), float32] span=from_string:57:16 */ = erf(%x_8) /* ty=Tensor[(1, 4, 4), float32] span=from_string:12:14 */;
  let %x_10: Tensor[(1, 4, 2), float32] /* ty=Tensor[(1, 4, 2), float32] span=from_string:57:22 */ = cast(%x1, dtype="float32") /* ty=Tensor[(1, 4, 2), float32] span=from_string:13:15 */;
  let %x_13: Tensor[(1, 4, 2), float32] /* ty=Tensor[(1, 4, 2), float32] span=from_string:20:31 */ = qnn.dequantize(%x0, 2f /* ty=float32 span=from_string:14:17 */, 0 /* ty=int32 span=from_string:15:16 */) /* ty=Tensor[(1, 4, 2), float32] span=from_string:16:15 */;
  let %x_16: Tensor[(1, 100, 2), float32] /* ty=Tensor[(1, 100, 2), float32] span=from_string:20:38 */ = qnn.dequantize(%x4, 6f /* ty=float32 span=from_string:17:17 */, 0 /* ty=int32 span=from_string:18:16 */) /* ty=Tensor[(1, 100, 2), float32] span=from_string:19:15 */;
  let %x_17: Tensor[(1, 4, 100), float32] /* ty=Tensor[(1, 4, 100), float32] span=from_string:57:29 */ = nn.batch_matmul(%x_13, %x_16, transpose_b=True) /* ty=Tensor[(1, 4, 100), float32] span=from_string:20:15 */;
  let %x_18: Tensor[(31, 65), bool] /* ty=Tensor[(31, 65), bool] span=from_string:22:20 */ = cast(%x2, dtype="bool") /* ty=Tensor[(31, 65), bool] span=from_string:21:15 */;
  let %x_19: Tensor[(31, 65), int32] /* ty=Tensor[(31, 65), int32] span=from_string:57:36 */ = cast(%x_18, dtype="int32") /* ty=Tensor[(31, 65), int32] span=from_string:22:15 */;
  let %x_22: Tensor[(1, 100, 2), float32] /* ty=Tensor[(1, 100, 2), float32] span=from_string:29:31 */ = qnn.dequantize(%x4, 2f /* ty=float32 span=from_string:23:17 */, 0 /* ty=int32 span=from_string:24:16 */) /* ty=Tensor[(1, 100, 2), float32] span=from_string:25:15 */;
  let %x_25: Tensor[(1, 18, 2), float32] /* ty=Tensor[(1, 18, 2), float32] span=from_string:29:38 */ = qnn.dequantize(%x5, 0.5f /* ty=float32 span=from_string:26:19 */, 0 /* ty=int32 span=from_string:27:16 */) /* ty=Tensor[(1, 18, 2), float32] span=from_string:28:15 */;
  let %x_26: Tensor[(1, 100, 18), float32] /* ty=Tensor[(1, 100, 18), float32] span=from_string:56:20 */ = nn.batch_matmul(%x_22, %x_25, transpose_b=True) /* ty=Tensor[(1, 100, 18), float32] span=from_string:29:15 */;
  let %x_29: Tensor[(1, 100, 18), int8] /* ty=Tensor[(1, 100, 18), int8] span=from_string:57:43 */ = qnn.quantize(%x_26, 1f /* ty=float32 span=from_string:30:17 */, 0 /* ty=int32 span=from_string:31:16 */, out_dtype="int8") /* ty=Tensor[(1, 100, 18), int8] span=from_string:32:15 */;
  let %x_30: Tensor[(1), float32] /* ty=Tensor[(1), float32] span=from_string:54:16 */ = ones(shape=[1], dtype="float32") /* ty=Tensor[(1), float32] span=from_string:33:15 */;
  let %x_31: Tensor[(1, 4, 2), float32] /* ty=Tensor[(1, 4, 2), float32] span=from_string:57:50 */ = add(%x_5, %x_30) /* ty=Tensor[(1, 4, 2), float32] span=from_string:34:15 */;
  let %x_34: Tensor[(1, 18, 2), float32] /* ty=Tensor[(1, 18, 2), float32] span=from_string:41:31 */ = qnn.dequantize(%x5, 2f /* ty=float32 span=from_string:35:17 */, 0 /* ty=int32 span=from_string:36:16 */) /* ty=Tensor[(1, 18, 2), float32] span=from_string:37:15 */;
  let %x_37: Tensor[(1, 46, 2), float32] /* ty=Tensor[(1, 46, 2), float32] span=from_string:41:38 */ = qnn.dequantize(%x6, 0.5f /* ty=float32 span=from_string:38:19 */, 0 /* ty=int32 span=from_string:39:16 */) /* ty=Tensor[(1, 46, 2), float32] span=from_string:40:15 */;
  let %x_38: Tensor[(1, 18, 46), float32] /* ty=Tensor[(1, 18, 46), float32] span=from_string:44:28 */ = nn.batch_matmul(%x_34, %x_37, transpose_b=True) /* ty=Tensor[(1, 18, 46), float32] span=from_string:41:15 */;
  let %x_41: Tensor[(1, 18, 46), int8] /* ty=Tensor[(1, 18, 46), int8] span=from_string:57:57 */ = qnn.quantize(%x_38, 1f /* ty=float32 span=from_string:42:17 */, 0 /* ty=int32 span=from_string:43:16 */, out_dtype="int8") /* ty=Tensor[(1, 18, 46), int8] span=from_string:44:15 */;
  let %x_42: Tensor[(1), float32] /* ty=Tensor[(1), float32] span=from_string:49:25 */ = ones(shape=[1], dtype="float32") /* ty=Tensor[(1), float32] span=from_string:45:15 */;
  let %x_43: Tensor[(1), float32] /* ty=Tensor[(1), float32] span=from_string:48:31 */ = multiply(%x_42, %x_30) /* ty=Tensor[(1), float32] span=from_string:46:16 */;
  let %x_45: Tensor[(1), float32] /* ty=Tensor[(1), float32] span=from_string:52:19 */ = collapse_sum_to(%x_43, meta[relay.Constant][0] /* ty=Tensor[(1), int32] span=from_string:47:20 */, meta[relay.attrs.InitOpAttrs][0]) /* ty=Tensor[(1), float32] span=from_string:48:15 */;
  let %x_46: Tensor[(1), float32] /* ty=Tensor[(1), float32] span=from_string:51:31 */ = multiply(%x_42, %x_30) /* ty=Tensor[(1), float32] span=from_string:49:16 */;
  let %x_48: Tensor[(1), float32] /* ty=Tensor[(1), float32] span=from_string:52:26 */ = collapse_sum_to(%x_46, meta[relay.Constant][1] /* ty=Tensor[(1), int32] span=from_string:50:20 */, meta[relay.attrs.InitOpAttrs][1]) /* ty=Tensor[(1), float32] span=from_string:51:15 */;
  let %x_49: Tensor[(1), float32] /* ty=Tensor[(1), float32] span=from_string:53:16 */ = add(%x_45, %x_48) /* ty=Tensor[(1), float32] span=from_string:52:15 */;
  let %x_50: (Tensor[(1), float32],) /* ty=(Tensor[(1), float32],) span=from_string:54:23 */ = (%x_49,) /* ty=(Tensor[(1), float32],) span=from_string:53:15 */;
  let %x_51: (Tensor[(1), float32], (Tensor[(1), float32],)) /* ty=(Tensor[(1), float32], (Tensor[(1), float32],)) span=from_string:57:64 */ = (%x_30, %x_50) /* ty=(Tensor[(1), float32], (Tensor[(1), float32],)) span=from_string:54:15 */;
  let %x_52: Tensor[(1, 2), int32] /* ty=Tensor[(1, 2), int32] span=from_string:57:71 */ = argmax(%x6, axis=[1]) /* ty=Tensor[(1, 2), int32] span=from_string:55:15 */;
  let %x_53: Tensor[(1, 100, 18), int32] /* ty=Tensor[(1, 100, 18), int32] span=from_string:57:78 */ = cast(%x_26, dtype="int32") /* ty=Tensor[(1, 100, 18), int32] span=from_string:56:15 */;
  let %x_54: (Tensor[(1, 4, 4), float32], Tensor[(1, 4, 2), float32], Tensor[(1, 4, 100), float32], Tensor[(31, 65), int32], Tensor[(1, 100, 18), int8], Tensor[(1, 4, 2), float32], Tensor[(1, 18, 46), int8], (Tensor[(1), float32], (Tensor[(1), float32],)), Tensor[(1, 2), int32], Tensor[(1, 100, 18), int32]) /* ty=(Tensor[(1, 4, 4), float32], Tensor[(1, 4, 2), float32], Tensor[(1, 4, 100), float32], Tensor[(31, 65), int32], Tensor[(1, 100, 18), int8], Tensor[(1, 4, 2), float32], Tensor[(1, 18, 46), int8], (Tensor[(1), float32], (Tensor[(1), float32],)), Tensor[(1, 2), int32], Tensor[(1, 100, 18), int32]) span=from_string:58:3 */ = (%x_9, %x_10, %x_17, %x_19, %x_29, %x_31, %x_41, %x_51, %x_52, %x_53) /* ty=(Tensor[(1, 4, 4), float32], Tensor[(1, 4, 2), float32], Tensor[(1, 4, 100), float32], Tensor[(31, 65), int32], Tensor[(1, 100, 18), int8], Tensor[(1, 4, 2), float32], Tensor[(1, 18, 46), int8], (Tensor[(1), float32], (Tensor[(1), float32],)), Tensor[(1, 2), int32], Tensor[(1, 100, 18), int32]) span=from_string:57:15 */;
  %x_54
}

#[metadata]
{
  "root": 1, 
  "nodes": [
    {
      "type_key": ""
    }, 
    {
      "type_key": "Map", 
      "keys": [
        "relay.attrs.InitOpAttrs", 
        "relay.Constant"
      ], 
      "data": [2, 8]
    }, 
    {
      "type_key": "Array", 
      "data": [3, 6]
    }, 
    {
      "type_key": "relay.attrs.InitOpAttrs", 
      "attrs": {
        "dtype": "", 
        "shape": "4"
      }
    }, 
    {
      "type_key": "Array", 
      "data": [5]
    }, 
    {
      "type_key": "IntImm", 
      "attrs": {
        "dtype": "int32", 
        "span": "0", 
        "value": "1"
      }
    }, 
    {
      "type_key": "relay.attrs.InitOpAttrs", 
      "attrs": {
        "dtype": "", 
        "shape": "7"
      }
    }, 
    {
      "type_key": "Array", 
      "data": [5]
    }, 
    {
      "type_key": "Array", 
      "data": [9, 17]
    }, 
    {
      "type_key": "relay.Constant", 
      "attrs": {
        "_checked_type_": "14", 
        "data": "0", 
        "span": "12", 
        "virtual_device_": "10"
      }
    }, 
    {
      "type_key": "VirtualDevice", 
      "attrs": {
        "device_type_int": "-1", 
        "memory_scope": "11", 
        "target": "0", 
        "virtual_device_id": "-1"
      }
    }, 
    {
      "type_key": "runtime.String"
    }, 
    {
      "type_key": "Span", 
      "attrs": {
        "column": "20", 
        "end_column": "38", 
        "end_line": "47", 
        "line": "47", 
        "source_name": "13"
      }
    }, 
    {
      "type_key": "SourceName", 
      "repr_str": "from_string"
    }, 
    {
      "type_key": "relay.TensorType", 
      "attrs": {
        "dtype": "int32", 
        "shape": "15", 
        "span": "0"
      }
    }, 
    {
      "type_key": "Array", 
      "data": [16]
    }, 
    {
      "type_key": "IntImm", 
      "attrs": {
        "dtype": "int32", 
        "span": "0", 
        "value": "1"
      }
    }, 
    {
      "type_key": "relay.Constant", 
      "attrs": {
        "_checked_type_": "19", 
        "data": "1", 
        "span": "18", 
        "virtual_device_": "10"
      }
    }, 
    {
      "type_key": "Span", 
      "attrs": {
        "column": "20", 
        "end_column": "38", 
        "end_line": "50", 
        "line": "50", 
        "source_name": "13"
      }
    }, 
    {
      "type_key": "relay.TensorType", 
      "attrs": {
        "dtype": "int32", 
        "shape": "20", 
        "span": "0"
      }
    }, 
    {
      "type_key": "Array", 
      "data": [21]
    }, 
    {
      "type_key": "IntImm", 
      "attrs": {
        "dtype": "int32", 
        "span": "0", 
        "value": "1"
      }
    }
  ], 
  "b64ndarrays": [
    "P6G0lvBAXt0AAAAAAAAAAAEAAAAAAAAAAQAAAAAgAQABAAAAAAAAAAQAAAAAAAAAAQAAAA==", 
    "P6G0lvBAXt0AAAAAAAAAAAEAAAAAAAAAAQAAAAAgAQABAAAAAAAAAAQAAAAAAAAAAQAAAA=="
  ], 
  "attrs": {"tvm_version": "0.13.0"}
}