#[version = "0.0.5"]
def @main(%x0: Tensor[(1, 4, 2), int8] /* ty=Tensor[(1, 4, 2), int8] span=from_string:22:117 */, %x1: Tensor[(1, 4, 2), int8] /* ty=Tensor[(1, 4, 2), int8] span=from_string:16:105 */, %x2: Tensor[(31, 65), int64] /* ty=Tensor[(31, 65), int64] span=from_string:27:99 */, %x3: Tensor[(58), float32] /* ty=Tensor[(58), float32] */, %x4: Tensor[(1, 100, 2), int8] /* ty=Tensor[(1, 100, 2), int8] span=from_string:31:121 */, %x5: Tensor[(1, 18, 2), int8] /* ty=Tensor[(1, 18, 2), int8] span=from_string:42:119 */, %x6: Tensor[(1, 46, 2), int8] /* ty=Tensor[(1, 46, 2), int8] span=from_string:61:119 */, %x7: Tensor[(49, 17, 31), int32] /* ty=Tensor[(49, 17, 31), int32] */) -> (Tensor[(1, 4, 4), float32], Tensor[(1, 4, 2), float32], Tensor[(1, 4, 100), float32], Tensor[(31, 65), int32], Tensor[(1, 100, 18), int8], Tensor[(1, 4, 2), float32], Tensor[(1, 18, 46), int8], (Tensor[(1), float32], (Tensor[(1), float32],)), Tensor[(1, 2), int32], Tensor[(1, 100, 18), int32]) {
  %0 = fn (Primitive=1) -> Tensor[(1), float32] {
    ones(shape=[1], dtype="float32") /* ty=Tensor[(1), float32] span=from_string:3:89 */
  } /* ty=fn () -> Tensor[(1), float32] */;
  let %x_0: Tensor[(1), float32] /* ty=Tensor[(1), float32] span=from_string:54:105 */ = %0() /* ty=Tensor[(1), float32] */;
  %1 = fn (%p0: Tensor[(1), float32] /* ty=Tensor[(1), float32] */, Primitive=1) -> Tensor[(1), float32] {
    multiply(%p0, %p0) /* ty=Tensor[(1), float32] span=from_string:4:89 */
  } /* ty=fn (Tensor[(1), float32]) -> Tensor[(1), float32] */;
  let %x8: Tensor[(1), float32] /* ty=Tensor[(1), float32] span=from_string:58:145 */ = %1(%x_0) /* ty=Tensor[(1), float32] */;
  %2 = fn (Primitive=1) -> Tensor[(1), float32] {
    ones(shape=[1], dtype="float32") /* ty=Tensor[(1), float32] span=from_string:5:88 */
  } /* ty=fn () -> Tensor[(1), float32] */;
  let %x9: Tensor[(1), float32] /* ty=Tensor[(1), float32] span=from_string:54:100 */ = %2() /* ty=Tensor[(1), float32] */;
  let %x_1: float32 /* ty=float32 span=from_string:8:121 */ = 2f /* ty=float32 span=from_string:6:64 */;
  let %x_2: int32 /* ty=int32 span=from_string:8:127 */ = 0 /* ty=int32 span=from_string:7:61 */;
  %3 = fn (%p01: Tensor[(1, 4, 2), int8] /* ty=Tensor[(1, 4, 2), int8] */, %p1: float32 /* ty=float32 */, %p2: int32 /* ty=int32 */, Primitive=1) -> Tensor[(1, 4, 2), float32] {
    qnn.dequantize(%p01, %p1, %p2) /* ty=Tensor[(1, 4, 2), float32] span=from_string:8:101 */
  } /* ty=fn (Tensor[(1, 4, 2), int8], float32, int32) -> Tensor[(1, 4, 2), float32] */;
  let %x_3: Tensor[(1, 4, 2), float32] /* ty=Tensor[(1, 4, 2), float32] span=from_string:12:117 */ = %3(%x0, %x_1, %x_2) /* ty=Tensor[(1, 4, 2), float32] */;
  let %x_4: float32 /* ty=float32 span=from_string:11:121 */ = 6f /* ty=float32 span=from_string:9:65 */;
  let %x_5: int32 /* ty=int32 span=from_string:11:127 */ = 0 /* ty=int32 span=from_string:10:62 */;
  %4 = fn (%p02: Tensor[(1, 4, 2), int8] /* ty=Tensor[(1, 4, 2), int8] */, %p11: float32 /* ty=float32 */, %p21: int32 /* ty=int32 */, Primitive=1) -> Tensor[(1, 4, 2), float32] {
    qnn.dequantize(%p02, %p11, %p21) /* ty=Tensor[(1, 4, 2), float32] span=from_string:11:101 */
  } /* ty=fn (Tensor[(1, 4, 2), int8], float32, int32) -> Tensor[(1, 4, 2), float32] */;
  let %x_6: Tensor[(1, 4, 2), float32] /* ty=Tensor[(1, 4, 2), float32] span=from_string:39:106 */ = %4(%x1, %x_4, %x_5) /* ty=Tensor[(1, 4, 2), float32] */;
  %5 = fn (%p03: Tensor[(1, 4, 2), float32] /* ty=Tensor[(1, 4, 2), float32] */, %p12: Tensor[(1, 4, 2), float32] /* ty=Tensor[(1, 4, 2), float32] */, Primitive=1) -> Tensor[(1, 4, 4), float32] {
    nn.batch_matmul(%p03, %p12, transpose_b=True) /* ty=Tensor[(1, 4, 4), float32] span=from_string:12:101 */
  } /* ty=fn (Tensor[(1, 4, 2), float32], Tensor[(1, 4, 2), float32]) -> Tensor[(1, 4, 4), float32] */;
  let %x_7: Tensor[(1, 4, 4), float32] /* ty=Tensor[(1, 4, 4), float32] span=from_string:14:105 */ = %5(%x_3, %x_6) /* ty=Tensor[(1, 4, 4), float32] */;
  let %x_8: float32 /* ty=float32 span=from_string:14:111 */ = 1f /* ty=float32 span=from_string:13:65 */;
  %6 = fn (%p04: Tensor[(1, 4, 4), float32] /* ty=Tensor[(1, 4, 4), float32] */, %p13: float32 /* ty=float32 */, Primitive=1) -> Tensor[(1, 4, 4), float32] {
    add(%p04, %p13) /* ty=Tensor[(1, 4, 4), float32] span=from_string:14:101 */
  } /* ty=fn (Tensor[(1, 4, 4), float32], float32) -> Tensor[(1, 4, 4), float32] */;
  let %x_9: Tensor[(1, 4, 4), float32] /* ty=Tensor[(1, 4, 4), float32] span=from_string:15:106 */ = %6(%x_7, %x_8) /* ty=Tensor[(1, 4, 4), float32] */;
  %7 = fn (%p05: Tensor[(1, 4, 4), float32] /* ty=Tensor[(1, 4, 4), float32] */, Primitive=1) -> Tensor[(1, 4, 4), float32] {
    erf(%p05) /* ty=Tensor[(1, 4, 4), float32] span=from_string:15:102 */
  } /* ty=fn (Tensor[(1, 4, 4), float32]) -> Tensor[(1, 4, 4), float32] */;
  let %x_10: Tensor[(1, 4, 4), float32] /* ty=Tensor[(1, 4, 4), float32] span=from_string:64:651 */ = %7(%x_9) /* ty=Tensor[(1, 4, 4), float32] */;
  %8 = fn (%p06: Tensor[(1, 4, 2), int8] /* ty=Tensor[(1, 4, 2), int8] */, Primitive=1) -> Tensor[(1, 4, 2), int16] {
    cast(%p06, dtype="int16") /* ty=Tensor[(1, 4, 2), int16] span=from_string:16:100 */
  } /* ty=fn (Tensor[(1, 4, 2), int8]) -> Tensor[(1, 4, 2), int16] */;
  let %x_11: Tensor[(1, 4, 2), int16] /* ty=Tensor[(1, 4, 2), int16] span=from_string:17:105 */ = %8(%x1) /* ty=Tensor[(1, 4, 2), int16] */;
  %9 = fn (%p07: Tensor[(1, 4, 2), int16] /* ty=Tensor[(1, 4, 2), int16] */, Primitive=1) -> Tensor[(1, 4, 2), int32] {
    cast(%p07, dtype="int32") /* ty=Tensor[(1, 4, 2), int32] span=from_string:17:100 */
  } /* ty=fn (Tensor[(1, 4, 2), int16]) -> Tensor[(1, 4, 2), int32] */;
  let %x_12: Tensor[(1, 4, 2), int32] /* ty=Tensor[(1, 4, 2), int32] span=from_string:18:105 */ = %9(%x_11) /* ty=Tensor[(1, 4, 2), int32] */;
  %10 = fn (%p08: Tensor[(1, 4, 2), int32] /* ty=Tensor[(1, 4, 2), int32] */, Primitive=1) -> Tensor[(1, 4, 2), int64] {
    cast(%p08, dtype="int64") /* ty=Tensor[(1, 4, 2), int64] span=from_string:18:100 */
  } /* ty=fn (Tensor[(1, 4, 2), int32]) -> Tensor[(1, 4, 2), int64] */;
  let %x_13: Tensor[(1, 4, 2), int64] /* ty=Tensor[(1, 4, 2), int64] span=from_string:19:107 */ = %10(%x_12) /* ty=Tensor[(1, 4, 2), int64] */;
  %11 = fn (%p09: Tensor[(1, 4, 2), int64] /* ty=Tensor[(1, 4, 2), int64] */, Primitive=1) -> Tensor[(1, 4, 2), float32] {
    cast(%p09, dtype="float32") /* ty=Tensor[(1, 4, 2), float32] span=from_string:19:102 */
  } /* ty=fn (Tensor[(1, 4, 2), int64]) -> Tensor[(1, 4, 2), float32] */;
  let %x_14: Tensor[(1, 4, 2), float32] /* ty=Tensor[(1, 4, 2), float32] span=from_string:64:658 */ = %11(%x_13) /* ty=Tensor[(1, 4, 2), float32] */;
  let %x_15: float32 /* ty=float32 span=from_string:22:122 */ = 2f /* ty=float32 span=from_string:20:66 */;
  let %x_16: int32 /* ty=int32 span=from_string:22:129 */ = 0 /* ty=int32 span=from_string:21:63 */;
  %12 = fn (%p010: Tensor[(1, 4, 2), int8] /* ty=Tensor[(1, 4, 2), int8] */, %p14: float32 /* ty=float32 */, %p22: int32 /* ty=int32 */, Primitive=1) -> Tensor[(1, 4, 2), float32] {
    qnn.dequantize(%p010, %p14, %p22) /* ty=Tensor[(1, 4, 2), float32] span=from_string:22:102 */
  } /* ty=fn (Tensor[(1, 4, 2), int8], float32, int32) -> Tensor[(1, 4, 2), float32] */;
  let %x_17: Tensor[(1, 4, 2), float32] /* ty=Tensor[(1, 4, 2), float32] span=from_string:26:122 */ = %12(%x0, %x_15, %x_16) /* ty=Tensor[(1, 4, 2), float32] */;
  let %x_18: float32 /* ty=float32 span=from_string:25:126 */ = 6f /* ty=float32 span=from_string:23:66 */;
  let %x_19: int32 /* ty=int32 span=from_string:25:133 */ = 0 /* ty=int32 span=from_string:24:63 */;
  %13 = fn (%p011: Tensor[(1, 100, 2), int8] /* ty=Tensor[(1, 100, 2), int8] */, %p15: float32 /* ty=float32 */, %p23: int32 /* ty=int32 */, Primitive=1) -> Tensor[(1, 100, 2), float32] {
    qnn.dequantize(%p011, %p15, %p23) /* ty=Tensor[(1, 100, 2), float32] span=from_string:25:106 */
  } /* ty=fn (Tensor[(1, 100, 2), int8], float32, int32) -> Tensor[(1, 100, 2), float32] */;
  let %x_20: Tensor[(1, 100, 2), float32] /* ty=Tensor[(1, 100, 2), float32] span=from_string:26:129 */ = %13(%x4, %x_18, %x_19) /* ty=Tensor[(1, 100, 2), float32] */;
  %14 = fn (%p012: Tensor[(1, 4, 2), float32] /* ty=Tensor[(1, 4, 2), float32] */, %p16: Tensor[(1, 100, 2), float32] /* ty=Tensor[(1, 100, 2), float32] */, Primitive=1) -> Tensor[(1, 4, 100), float32] {
    nn.batch_matmul(%p012, %p16, transpose_b=True) /* ty=Tensor[(1, 4, 100), float32] span=from_string:26:106 */
  } /* ty=fn (Tensor[(1, 4, 2), float32], Tensor[(1, 100, 2), float32]) -> Tensor[(1, 4, 100), float32] */;
  let %x_21: Tensor[(1, 4, 100), float32] /* ty=Tensor[(1, 4, 100), float32] span=from_string:64:665 */ = %14(%x_17, %x_20) /* ty=Tensor[(1, 4, 100), float32] */;
  %15 = fn (%p013: Tensor[(31, 65), int64] /* ty=Tensor[(31, 65), int64] */, Primitive=1) -> Tensor[(31, 65), bool] {
    cast(%p013, dtype="bool") /* ty=Tensor[(31, 65), bool] span=from_string:27:94 */
  } /* ty=fn (Tensor[(31, 65), int64]) -> Tensor[(31, 65), bool] */;
  let %x_22: Tensor[(31, 65), bool] /* ty=Tensor[(31, 65), bool] span=from_string:28:103 */ = %15(%x2) /* ty=Tensor[(31, 65), bool] */;
  %16 = fn (%p014: Tensor[(31, 65), bool] /* ty=Tensor[(31, 65), bool] */, Primitive=1) -> Tensor[(31, 65), int32] {
    cast(%p014, dtype="int32") /* ty=Tensor[(31, 65), int32] span=from_string:28:98 */
  } /* ty=fn (Tensor[(31, 65), bool]) -> Tensor[(31, 65), int32] */;
  let %x_23: Tensor[(31, 65), int32] /* ty=Tensor[(31, 65), int32] span=from_string:64:672 */ = %16(%x_22) /* ty=Tensor[(31, 65), int32] */;
  let %x_24: float32 /* ty=float32 span=from_string:31:126 */ = 2f /* ty=float32 span=from_string:29:66 */;
  let %x_25: int32 /* ty=int32 span=from_string:31:133 */ = 0 /* ty=int32 span=from_string:30:63 */;
  %17 = fn (%p015: Tensor[(1, 100, 2), int8] /* ty=Tensor[(1, 100, 2), int8] */, %p17: float32 /* ty=float32 */, %p24: int32 /* ty=int32 */, Primitive=1) -> Tensor[(1, 100, 2), float32] {
    qnn.dequantize(%p015, %p17, %p24) /* ty=Tensor[(1, 100, 2), float32] span=from_string:31:106 */
  } /* ty=fn (Tensor[(1, 100, 2), int8], float32, int32) -> Tensor[(1, 100, 2), float32] */;
  let %x_26: Tensor[(1, 100, 2), float32] /* ty=Tensor[(1, 100, 2), float32] span=from_string:35:124 */ = %17(%x4, %x_24, %x_25) /* ty=Tensor[(1, 100, 2), float32] */;
  let %x_27: float32 /* ty=float32 span=from_string:34:124 */ = 0.5f /* ty=float32 span=from_string:32:68 */;
  let %x_28: int32 /* ty=int32 span=from_string:34:131 */ = 0 /* ty=int32 span=from_string:33:63 */;
  %18 = fn (%p016: Tensor[(1, 18, 2), int8] /* ty=Tensor[(1, 18, 2), int8] */, %p18: float32 /* ty=float32 */, %p25: int32 /* ty=int32 */, Primitive=1) -> Tensor[(1, 18, 2), float32] {
    qnn.dequantize(%p016, %p18, %p25) /* ty=Tensor[(1, 18, 2), float32] span=from_string:34:104 */
  } /* ty=fn (Tensor[(1, 18, 2), int8], float32, int32) -> Tensor[(1, 18, 2), float32] */;
  let %x_29: Tensor[(1, 18, 2), float32] /* ty=Tensor[(1, 18, 2), float32] span=from_string:35:131 */ = %18(%x5, %x_27, %x_28) /* ty=Tensor[(1, 18, 2), float32] */;
  %19 = fn (%p017: Tensor[(1, 100, 2), float32] /* ty=Tensor[(1, 100, 2), float32] */, %p19: Tensor[(1, 18, 2), float32] /* ty=Tensor[(1, 18, 2), float32] */, Primitive=1) -> Tensor[(1, 100, 18), float32] {
    nn.batch_matmul(%p017, %p19, transpose_b=True) /* ty=Tensor[(1, 100, 18), float32] span=from_string:35:108 */
  } /* ty=fn (Tensor[(1, 100, 2), float32], Tensor[(1, 18, 2), float32]) -> Tensor[(1, 100, 18), float32] */;
  let %x_30: Tensor[(1, 100, 18), float32] /* ty=Tensor[(1, 100, 18), float32] span=from_string:63:111 */ = %19(%x_26, %x_29) /* ty=Tensor[(1, 100, 18), float32] */;
  let %x_31: float32 /* ty=float32 span=from_string:38:124 */ = 1f /* ty=float32 span=from_string:36:66 */;
  let %x_32: int32 /* ty=int32 span=from_string:38:131 */ = 0 /* ty=int32 span=from_string:37:63 */;
  %20 = fn (%p018: Tensor[(1, 100, 18), float32] /* ty=Tensor[(1, 100, 18), float32] */, %p110: float32 /* ty=float32 */, %p26: int32 /* ty=int32 */, Primitive=1) -> Tensor[(1, 100, 18), int8] {
    qnn.quantize(%p018, %p110, %p26, out_dtype="int8") /* ty=Tensor[(1, 100, 18), int8] span=from_string:38:104 */
  } /* ty=fn (Tensor[(1, 100, 18), float32], float32, int32) -> Tensor[(1, 100, 18), int8] */;
  let %x_33: Tensor[(1, 100, 18), int8] /* ty=Tensor[(1, 100, 18), int8] span=from_string:64:679 */ = %20(%x_30, %x_31, %x_32) /* ty=Tensor[(1, 100, 18), int8] */;
  %21 = fn (%p019: Tensor[(1, 4, 2), float32] /* ty=Tensor[(1, 4, 2), float32] */, %p111: Tensor[(1), float32] /* ty=Tensor[(1), float32] */, Primitive=1) -> Tensor[(1, 4, 2), float32] {
    add(%p019, %p111) /* ty=Tensor[(1, 4, 2), float32] span=from_string:39:102 */
  } /* ty=fn (Tensor[(1, 4, 2), float32], Tensor[(1), float32]) -> Tensor[(1, 4, 2), float32] */;
  let %x_34: Tensor[(1, 4, 2), float32] /* ty=Tensor[(1, 4, 2), float32] span=from_string:64:686 */ = %21(%x_6, %x_0) /* ty=Tensor[(1, 4, 2), float32] */;
  let %x_35: float32 /* ty=float32 span=from_string:42:124 */ = 2f /* ty=float32 span=from_string:40:66 */;
  let %x_36: int32 /* ty=int32 span=from_string:42:131 */ = 0 /* ty=int32 span=from_string:41:63 */;
  %22 = fn (%p020: Tensor[(1, 18, 2), int8] /* ty=Tensor[(1, 18, 2), int8] */, %p112: float32 /* ty=float32 */, %p27: int32 /* ty=int32 */, Primitive=1) -> Tensor[(1, 18, 2), float32] {
    qnn.dequantize(%p020, %p112, %p27) /* ty=Tensor[(1, 18, 2), float32] span=from_string:42:104 */
  } /* ty=fn (Tensor[(1, 18, 2), int8], float32, int32) -> Tensor[(1, 18, 2), float32] */;
  let %x_37: Tensor[(1, 18, 2), float32] /* ty=Tensor[(1, 18, 2), float32] span=from_string:46:122 */ = %22(%x5, %x_35, %x_36) /* ty=Tensor[(1, 18, 2), float32] */;
  let %x_38: float32 /* ty=float32 span=from_string:45:124 */ = 0.5f /* ty=float32 span=from_string:43:68 */;
  let %x_39: int32 /* ty=int32 span=from_string:45:131 */ = 0 /* ty=int32 span=from_string:44:63 */;
  %23 = fn (%p021: Tensor[(1, 46, 2), int8] /* ty=Tensor[(1, 46, 2), int8] */, %p113: float32 /* ty=float32 */, %p28: int32 /* ty=int32 */, Primitive=1) -> Tensor[(1, 46, 2), float32] {
    qnn.dequantize(%p021, %p113, %p28) /* ty=Tensor[(1, 46, 2), float32] span=from_string:45:104 */
  } /* ty=fn (Tensor[(1, 46, 2), int8], float32, int32) -> Tensor[(1, 46, 2), float32] */;
  let %x_40: Tensor[(1, 46, 2), float32] /* ty=Tensor[(1, 46, 2), float32] span=from_string:46:129 */ = %23(%x6, %x_38, %x_39) /* ty=Tensor[(1, 46, 2), float32] */;
  %24 = fn (%p022: Tensor[(1, 18, 2), float32] /* ty=Tensor[(1, 18, 2), float32] */, %p114: Tensor[(1, 46, 2), float32] /* ty=Tensor[(1, 46, 2), float32] */, Primitive=1) -> Tensor[(1, 18, 46), float32] {
    nn.batch_matmul(%p022, %p114, transpose_b=True) /* ty=Tensor[(1, 18, 46), float32] span=from_string:46:106 */
  } /* ty=fn (Tensor[(1, 18, 2), float32], Tensor[(1, 46, 2), float32]) -> Tensor[(1, 18, 46), float32] */;
  let %x_41: Tensor[(1, 18, 46), float32] /* ty=Tensor[(1, 18, 46), float32] span=from_string:49:115 */ = %24(%x_37, %x_40) /* ty=Tensor[(1, 18, 46), float32] */;
  let %x_42: float32 /* ty=float32 span=from_string:49:122 */ = 1f /* ty=float32 span=from_string:47:66 */;
  let %x_43: int32 /* ty=int32 span=from_string:49:129 */ = 0 /* ty=int32 span=from_string:48:63 */;
  %25 = fn (%p023: Tensor[(1, 18, 46), float32] /* ty=Tensor[(1, 18, 46), float32] */, %p115: float32 /* ty=float32 */, %p29: int32 /* ty=int32 */, Primitive=1) -> Tensor[(1, 18, 46), int8] {
    qnn.quantize(%p023, %p115, %p29, out_dtype="int8") /* ty=Tensor[(1, 18, 46), int8] span=from_string:49:102 */
  } /* ty=fn (Tensor[(1, 18, 46), float32], float32, int32) -> Tensor[(1, 18, 46), int8] */;
  let %x_44: Tensor[(1, 18, 46), int8] /* ty=Tensor[(1, 18, 46), int8] span=from_string:64:693 */ = %25(%x_41, %x_42, %x_43) /* ty=Tensor[(1, 18, 46), int8] */;
  %26 = fn (Primitive=1) -> Tensor[(1), float32] {
    zeros(shape=[1], dtype="float32") /* ty=Tensor[(1), float32] span=from_string:50:90 */
  } /* ty=fn () -> Tensor[(1), float32] */;
  let %x_45: Tensor[(1), float32] /* ty=Tensor[(1), float32] span=from_string:53:94 */ = %26() /* ty=Tensor[(1), float32] */;
  %27 = fn (%p024: Tensor[(1), float32] /* ty=Tensor[(1), float32] */, %p116: Tensor[(1), float32] /* ty=Tensor[(1), float32] */, Primitive=1) -> Tensor[(1), float32] {
    multiply(%p024, %p116) /* ty=Tensor[(1), float32] span=from_string:51:91 */
  } /* ty=fn (Tensor[(1), float32], Tensor[(1), float32]) -> Tensor[(1), float32] */;
  let %x_46: Tensor[(1), float32] /* ty=Tensor[(1), float32] span=from_string:52:106 */ = %27(%x9, %x_0) /* ty=Tensor[(1), float32] */;
  %28 = fn (%p025: Tensor[(1), float32] /* ty=Tensor[(1), float32] */, %p117: Tensor[(1), int32] /* ty=Tensor[(1), int32] */, Primitive=1) -> Tensor[(1), float32] {
    collapse_sum_to(%p025, %p117, meta[relay.attrs.InitOpAttrs][0]) /* ty=Tensor[(1), float32] span=from_string:52:90 */
  } /* ty=fn (Tensor[(1), float32], Tensor[(1), int32]) -> Tensor[(1), float32] */;
  let %x_47: Tensor[(1), float32] /* ty=Tensor[(1), float32] span=from_string:53:101 */ = %28(%x_46, meta[relay.Constant][0] /* ty=Tensor[(1), int32] span=from_string:52:118 */) /* ty=Tensor[(1), float32] */;
  %29 = fn (%p026: Tensor[(1), float32] /* ty=Tensor[(1), float32] */, %p118: Tensor[(1), float32] /* ty=Tensor[(1), float32] */, Primitive=1) -> Tensor[(1), float32] {
    add(%p026, %p118) /* ty=Tensor[(1), float32] span=from_string:53:90 */
  } /* ty=fn (Tensor[(1), float32], Tensor[(1), float32]) -> Tensor[(1), float32] */;
  let %x_48: Tensor[(1), float32] /* ty=Tensor[(1), float32] span=from_string:56:94 */ = %29(%x_45, %x_47) /* ty=Tensor[(1), float32] */;
  %30 = fn (%p027: Tensor[(1), float32] /* ty=Tensor[(1), float32] */, %p119: Tensor[(1), float32] /* ty=Tensor[(1), float32] */, Primitive=1) -> Tensor[(1), float32] {
    multiply(%p027, %p119) /* ty=Tensor[(1), float32] span=from_string:54:91 */
  } /* ty=fn (Tensor[(1), float32], Tensor[(1), float32]) -> Tensor[(1), float32] */;
  let %x_49: Tensor[(1), float32] /* ty=Tensor[(1), float32] span=from_string:55:106 */ = %30(%x9, %x_0) /* ty=Tensor[(1), float32] */;
  %31 = fn (%p028: Tensor[(1), float32] /* ty=Tensor[(1), float32] */, %p120: Tensor[(1), int32] /* ty=Tensor[(1), int32] */, Primitive=1) -> Tensor[(1), float32] {
    collapse_sum_to(%p028, %p120, meta[relay.attrs.InitOpAttrs][1]) /* ty=Tensor[(1), float32] span=from_string:55:90 */
  } /* ty=fn (Tensor[(1), float32], Tensor[(1), int32]) -> Tensor[(1), float32] */;
  let %x_50: Tensor[(1), float32] /* ty=Tensor[(1), float32] span=from_string:56:101 */ = %31(%x_49, meta[relay.Constant][1] /* ty=Tensor[(1), int32] span=from_string:55:118 */) /* ty=Tensor[(1), float32] */;
  %32 = fn (%p029: Tensor[(1), float32] /* ty=Tensor[(1), float32] */, %p121: Tensor[(1), float32] /* ty=Tensor[(1), float32] */, Primitive=1) -> Tensor[(1), float32] {
    add(%p029, %p121) /* ty=Tensor[(1), float32] span=from_string:56:90 */
  } /* ty=fn (Tensor[(1), float32], Tensor[(1), float32]) -> Tensor[(1), float32] */;
  let %x_51: Tensor[(1), float32] /* ty=Tensor[(1), float32] span=from_string:57:97 */ = %32(%x_48, %x_50) /* ty=Tensor[(1), float32] */;
  let %x_52: (Tensor[(1), float32],) /* ty=(Tensor[(1), float32],) span=from_string:58:150 */ = (%x_51,) /* ty=(Tensor[(1), float32],) span=from_string:57:96 */;
  let %x_53: (Tensor[(1), float32], (Tensor[(1), float32],)) /* ty=(Tensor[(1), float32], (Tensor[(1), float32],)) span=from_string:64:700 */ = (%x8, %x_52) /* ty=(Tensor[(1), float32], (Tensor[(1), float32],)) span=from_string:58:144 */;
  let %x_54: float32 /* ty=float32 span=from_string:61:124 */ = 2f /* ty=float32 span=from_string:59:66 */;
  let %x_55: int32 /* ty=int32 span=from_string:61:131 */ = 0 /* ty=int32 span=from_string:60:63 */;
  %33 = fn (%p030: Tensor[(1, 46, 2), int8] /* ty=Tensor[(1, 46, 2), int8] */, %p122: float32 /* ty=float32 */, %p210: int32 /* ty=int32 */, Primitive=1) -> Tensor[(1, 46, 2), float32] {
    qnn.dequantize(%p030, %p122, %p210) /* ty=Tensor[(1, 46, 2), float32] span=from_string:61:104 */
  } /* ty=fn (Tensor[(1, 46, 2), int8], float32, int32) -> Tensor[(1, 46, 2), float32] */;
  let %x_56: Tensor[(1, 46, 2), float32] /* ty=Tensor[(1, 46, 2), float32] span=from_string:62:101 */ = %33(%x6, %x_54, %x_55) /* ty=Tensor[(1, 46, 2), float32] */;
  %34 = fn (%p031: Tensor[(1, 46, 2), float32] /* ty=Tensor[(1, 46, 2), float32] */, Primitive=1) -> Tensor[(1, 2), int32] {
    argmax(%p031, axis=[1]) /* ty=Tensor[(1, 2), int32] span=from_string:62:94 */
  } /* ty=fn (Tensor[(1, 46, 2), float32]) -> Tensor[(1, 2), int32] */;
  let %x_57: Tensor[(1, 2), int32] /* ty=Tensor[(1, 2), int32] span=from_string:64:707 */ = %34(%x_56) /* ty=Tensor[(1, 2), int32] */;
  %35 = fn (%p032: Tensor[(1, 100, 18), float32] /* ty=Tensor[(1, 100, 18), float32] */, Primitive=1) -> Tensor[(1, 100, 18), int32] {
    cast(%p032, dtype="int32") /* ty=Tensor[(1, 100, 18), int32] span=from_string:63:106 */
  } /* ty=fn (Tensor[(1, 100, 18), float32]) -> Tensor[(1, 100, 18), int32] */;
  let %x_58: Tensor[(1, 100, 18), int32] /* ty=Tensor[(1, 100, 18), int32] span=from_string:64:714 */ = %35(%x_30) /* ty=Tensor[(1, 100, 18), int32] */;
  let %x_59: (Tensor[(1, 4, 4), float32], Tensor[(1, 4, 2), float32], Tensor[(1, 4, 100), float32], Tensor[(31, 65), int32], Tensor[(1, 100, 18), int8], Tensor[(1, 4, 2), float32], Tensor[(1, 18, 46), int8], (Tensor[(1), float32], (Tensor[(1), float32],)), Tensor[(1, 2), int32], Tensor[(1, 100, 18), int32]) /* ty=(Tensor[(1, 4, 4), float32], Tensor[(1, 4, 2), float32], Tensor[(1, 4, 100), float32], Tensor[(31, 65), int32], Tensor[(1, 100, 18), int8], Tensor[(1, 4, 2), float32], Tensor[(1, 18, 46), int8], (Tensor[(1), float32], (Tensor[(1), float32],)), Tensor[(1, 2), int32], Tensor[(1, 100, 18), int32]) span=from_string:65:650 */ = (%x_10, %x_14, %x_21, %x_23, %x_33, %x_34, %x_44, %x_53, %x_57, %x_58) /* ty=(Tensor[(1, 4, 4), float32], Tensor[(1, 4, 2), float32], Tensor[(1, 4, 100), float32], Tensor[(31, 65), int32], Tensor[(1, 100, 18), int8], Tensor[(1, 4, 2), float32], Tensor[(1, 18, 46), int8], (Tensor[(1), float32], (Tensor[(1), float32],)), Tensor[(1, 2), int32], Tensor[(1, 100, 18), int32]) span=from_string:64:650 */;
  let %x_60: (Tensor[(1, 4, 4), float32], Tensor[(1, 4, 2), float32], Tensor[(1, 4, 100), float32], Tensor[(31, 65), int32], Tensor[(1, 100, 18), int8], Tensor[(1, 4, 2), float32], Tensor[(1, 18, 46), int8], (Tensor[(1), float32], (Tensor[(1), float32],)), Tensor[(1, 2), int32], Tensor[(1, 100, 18), int32]) /* ty=(Tensor[(1, 4, 4), float32], Tensor[(1, 4, 2), float32], Tensor[(1, 4, 100), float32], Tensor[(31, 65), int32], Tensor[(1, 100, 18), int8], Tensor[(1, 4, 2), float32], Tensor[(1, 18, 46), int8], (Tensor[(1), float32], (Tensor[(1), float32],)), Tensor[(1, 2), int32], Tensor[(1, 100, 18), int32]) span=from_string:66:649 */ = %x_59;
  let %x_61: (Tensor[(1, 4, 4), float32], Tensor[(1, 4, 2), float32], Tensor[(1, 4, 100), float32], Tensor[(31, 65), int32], Tensor[(1, 100, 18), int8], Tensor[(1, 4, 2), float32], Tensor[(1, 18, 46), int8], (Tensor[(1), float32], (Tensor[(1), float32],)), Tensor[(1, 2), int32], Tensor[(1, 100, 18), int32]) /* ty=(Tensor[(1, 4, 4), float32], Tensor[(1, 4, 2), float32], Tensor[(1, 4, 100), float32], Tensor[(31, 65), int32], Tensor[(1, 100, 18), int8], Tensor[(1, 4, 2), float32], Tensor[(1, 18, 46), int8], (Tensor[(1), float32], (Tensor[(1), float32],)), Tensor[(1, 2), int32], Tensor[(1, 100, 18), int32]) span=from_string:67:3 */ = %x_60;
  %x_61
}

#[metadata]
{
  "root": 1, 
  "nodes": [
    {
      "type_key": ""
    }, 
    {
      "type_key": "Map", 
      "keys": [
        "relay.Constant", 
        "relay.attrs.InitOpAttrs"
      ], 
      "data": [2, 16]
    }, 
    {
      "type_key": "Array", 
      "data": [3, 11]
    }, 
    {
      "type_key": "relay.Constant", 
      "attrs": {
        "_checked_type_": "8", 
        "data": "0", 
        "span": "6", 
        "virtual_device_": "4"
      }
    }, 
    {
      "type_key": "VirtualDevice", 
      "attrs": {
        "device_type_int": "-1", 
        "memory_scope": "5", 
        "target": "0", 
        "virtual_device_id": "-1"
      }
    }, 
    {
      "type_key": "runtime.String"
    }, 
    {
      "type_key": "Span", 
      "attrs": {
        "column": "118", 
        "end_column": "136", 
        "end_line": "52", 
        "line": "52", 
        "source_name": "7"
      }
    }, 
    {
      "type_key": "SourceName", 
      "repr_str": "from_string"
    }, 
    {
      "type_key": "relay.TensorType", 
      "attrs": {
        "dtype": "int32", 
        "shape": "9", 
        "span": "0"
      }
    }, 
    {
      "type_key": "Array", 
      "data": [10]
    }, 
    {
      "type_key": "IntImm", 
      "attrs": {
        "dtype": "int32", 
        "span": "0", 
        "value": "1"
      }
    }, 
    {
      "type_key": "relay.Constant", 
      "attrs": {
        "_checked_type_": "13", 
        "data": "1", 
        "span": "12", 
        "virtual_device_": "4"
      }
    }, 
    {
      "type_key": "Span", 
      "attrs": {
        "column": "118", 
        "end_column": "136", 
        "end_line": "55", 
        "line": "55", 
        "source_name": "7"
      }
    }, 
    {
      "type_key": "relay.TensorType", 
      "attrs": {
        "dtype": "int32", 
        "shape": "14", 
        "span": "0"
      }
    }, 
    {
      "type_key": "Array", 
      "data": [15]
    }, 
    {
      "type_key": "IntImm", 
      "attrs": {
        "dtype": "int32", 
        "span": "0", 
        "value": "1"
      }
    }, 
    {
      "type_key": "Array", 
      "data": [17, 20]
    }, 
    {
      "type_key": "relay.attrs.InitOpAttrs", 
      "attrs": {
        "dtype": "", 
        "shape": "18"
      }
    }, 
    {
      "type_key": "Array", 
      "data": [19]
    }, 
    {
      "type_key": "IntImm", 
      "attrs": {
        "dtype": "int32", 
        "span": "0", 
        "value": "1"
      }
    }, 
    {
      "type_key": "relay.attrs.InitOpAttrs", 
      "attrs": {
        "dtype": "", 
        "shape": "21"
      }
    }, 
    {
      "type_key": "Array", 
      "data": [19]
    }
  ], 
  "b64ndarrays": [
    "P6G0lvBAXt0AAAAAAAAAAAEAAAAAAAAAAQAAAAAgAQABAAAAAAAAAAQAAAAAAAAAAQAAAA==", 
    "P6G0lvBAXt0AAAAAAAAAAAEAAAAAAAAAAQAAAAAgAQABAAAAAAAAAAQAAAAAAAAAAQAAAA=="
  ], 
  "attrs": {"tvm_version": "0.13.0"}
}