#[version = "0.0.5"]
def @main(%x0: Tensor[(1, 4, 2), int8] /* ty=Tensor[(1, 4, 2), int8] span=from_string:61:107 */, %x1: Tensor[(1, 4, 2), int8] /* ty=Tensor[(1, 4, 2), int8] span=from_string:43:104 */, %x2: Tensor[(31, 65), int64] /* ty=Tensor[(31, 65), int64] span=from_string:75:99 */, %x3: Tensor[(58), float32] /* ty=Tensor[(58), float32] */, %x4: Tensor[(1, 100, 2), int8] /* ty=Tensor[(1, 100, 2), int8] span=from_string:85:111 */, %x5: Tensor[(1, 18, 2), int8] /* ty=Tensor[(1, 18, 2), int8] span=from_string:111:109 */, %x6: Tensor[(1, 46, 2), int8] /* ty=Tensor[(1, 46, 2), int8] span=from_string:163:109 */, %x7: Tensor[(49, 17, 31), int32] /* ty=Tensor[(49, 17, 31), int32] */) -> (Tensor[(1, 4, 4), float32], Tensor[(1, 4, 2), float32], Tensor[(1, 4, 100), float32], Tensor[(31, 65), int32], Tensor[(1, 100, 18), int8], Tensor[(1, 4, 2), float32], Tensor[(1, 18, 46), int8], (Tensor[(1), float32], (Tensor[(1), float32],)), Tensor[(1, 2), int32], Tensor[(1, 100, 18), int32]) {
  %0 = fn (Primitive=1) -> Tensor[(1), float32] {
    ones(shape=[1], dtype="float32") /* ty=Tensor[(1), float32] span=from_string:4:5 */
  } /* ty=fn () -> Tensor[(1), float32] span=from_string:6:90 */;
  let %x_0: Tensor[(1), float32] /* ty=Tensor[(1), float32] span=from_string:147:100 */ = %0() /* ty=Tensor[(1), float32] span=from_string:6:90 */;
  %1 = fn (%p0: Tensor[(1), float32] /* ty=Tensor[(1), float32] span=from_string:8:20 */, Primitive=1) -> Tensor[(1), float32] {
    multiply(%p0, %p0) /* ty=Tensor[(1), float32] span=from_string:8:6 */
  } /* ty=fn (Tensor[(1), float32]) -> Tensor[(1), float32] span=from_string:10:89 */;
  let %x8: Tensor[(1), float32] /* ty=Tensor[(1), float32] span=from_string:157:146 */ = %1(%x_0) /* ty=Tensor[(1), float32] span=from_string:10:89 */;
  %2 = fn (Primitive=1) -> Tensor[(1), float32] {
    ones(shape=[1], dtype="float32") /* ty=Tensor[(1), float32] span=from_string:12:5 */
  } /* ty=fn () -> Tensor[(1), float32] span=from_string:14:89 */;
  let %x9: Tensor[(1), float32] /* ty=Tensor[(1), float32] span=from_string:147:95 */ = %2() /* ty=Tensor[(1), float32] span=from_string:14:89 */;
  %3 = fn (%p01: Tensor[(1, 4, 2), int8] /* ty=Tensor[(1, 4, 2), int8] span=from_string:18:20 */, %p1: float32 /* ty=float32 span=from_string:18:26 */, %p2: int32 /* ty=int32 span=from_string:18:31 */, Primitive=1) -> Tensor[(1, 4, 2), float32] {
    qnn.dequantize(%p01, %p1, %p2) /* ty=Tensor[(1, 4, 2), float32] span=from_string:18:5 */
  } /* ty=fn (Tensor[(1, 4, 2), int8], float32, int32) -> Tensor[(1, 4, 2), float32] span=from_string:20:102 */;
  let %x_3: Tensor[(1, 4, 2), float32] /* ty=Tensor[(1, 4, 2), float32] span=from_string:30:105 */ = %3(%x0, 2f /* ty=float32 span=from_string:15:65 */, 0 /* ty=int32 span=from_string:16:62 */) /* ty=Tensor[(1, 4, 2), float32] span=from_string:20:102 */;
  %4 = fn (%p02: Tensor[(1, 4, 2), int8] /* ty=Tensor[(1, 4, 2), int8] span=from_string:24:20 */, %p11: float32 /* ty=float32 span=from_string:24:26 */, %p21: int32 /* ty=int32 span=from_string:24:32 */, Primitive=1) -> Tensor[(1, 4, 2), float32] {
    qnn.dequantize(%p02, %p11, %p21) /* ty=Tensor[(1, 4, 2), float32] span=from_string:24:5 */
  } /* ty=fn (Tensor[(1, 4, 2), int8], float32, int32) -> Tensor[(1, 4, 2), float32] span=from_string:26:102 */;
  let %x_6: Tensor[(1, 4, 2), float32] /* ty=Tensor[(1, 4, 2), float32] span=from_string:105:107 */ = %4(%x1, 6f /* ty=float32 span=from_string:21:66 */, 0 /* ty=int32 span=from_string:22:63 */) /* ty=Tensor[(1, 4, 2), float32] span=from_string:26:102 */;
  %5 = fn (%p03: Tensor[(1, 4, 2), float32] /* ty=Tensor[(1, 4, 2), float32] span=from_string:28:21 */, %p12: Tensor[(1, 4, 2), float32] /* ty=Tensor[(1, 4, 2), float32] span=from_string:28:27 */, Primitive=1) -> Tensor[(1, 4, 4), float32] {
    nn.batch_matmul(%p03, %p12, transpose_b=True) /* ty=Tensor[(1, 4, 4), float32] span=from_string:28:5 */
  } /* ty=fn (Tensor[(1, 4, 2), float32], Tensor[(1, 4, 2), float32]) -> Tensor[(1, 4, 4), float32] span=from_string:30:102 */;
  let %x_7: Tensor[(1, 4, 4), float32] /* ty=Tensor[(1, 4, 4), float32] span=from_string:35:105 */ = %5(%x_3, %x_6) /* ty=Tensor[(1, 4, 4), float32] span=from_string:30:102 */;
  %6 = fn (%p04: Tensor[(1, 4, 4), float32] /* ty=Tensor[(1, 4, 4), float32] span=from_string:33:9 */, %p13: float32 /* ty=float32 span=from_string:33:15 */, Primitive=1) -> Tensor[(1, 4, 4), float32] {
    add(%p04, %p13) /* ty=Tensor[(1, 4, 4), float32] span=from_string:33:5 */
  } /* ty=fn (Tensor[(1, 4, 4), float32], float32) -> Tensor[(1, 4, 4), float32] span=from_string:35:102 */;
  let %x_9: Tensor[(1, 4, 4), float32] /* ty=Tensor[(1, 4, 4), float32] span=from_string:39:106 */ = %6(%x_7, 1f /* ty=float32 span=from_string:31:66 */) /* ty=Tensor[(1, 4, 4), float32] span=from_string:35:102 */;
  %7 = fn (%p05: Tensor[(1, 4, 4), float32] /* ty=Tensor[(1, 4, 4), float32] span=from_string:37:9 */, Primitive=1) -> Tensor[(1, 4, 4), float32] {
    erf(%p05) /* ty=Tensor[(1, 4, 4), float32] span=from_string:37:5 */
  } /* ty=fn (Tensor[(1, 4, 4), float32]) -> Tensor[(1, 4, 4), float32] span=from_string:39:103 */;
  let %x_10: Tensor[(1, 4, 4), float32] /* ty=Tensor[(1, 4, 4), float32] span=from_string:172:652 */ = %7(%x_9) /* ty=Tensor[(1, 4, 4), float32] span=from_string:39:103 */;
  %8 = fn (%p06: Tensor[(1, 4, 2), int8] /* ty=Tensor[(1, 4, 2), int8] span=from_string:41:10 */, Primitive=1) -> Tensor[(1, 4, 2), int16] {
    cast(%p06, dtype="int16") /* ty=Tensor[(1, 4, 2), int16] span=from_string:41:5 */
  } /* ty=fn (Tensor[(1, 4, 2), int8]) -> Tensor[(1, 4, 2), int16] span=from_string:43:101 */;
  let %x_11: Tensor[(1, 4, 2), int16] /* ty=Tensor[(1, 4, 2), int16] span=from_string:47:104 */ = %8(%x1) /* ty=Tensor[(1, 4, 2), int16] span=from_string:43:101 */;
  %9 = fn (%p07: Tensor[(1, 4, 2), int16] /* ty=Tensor[(1, 4, 2), int16] span=from_string:45:10 */, Primitive=1) -> Tensor[(1, 4, 2), int32] {
    cast(%p07, dtype="int32") /* ty=Tensor[(1, 4, 2), int32] span=from_string:45:5 */
  } /* ty=fn (Tensor[(1, 4, 2), int16]) -> Tensor[(1, 4, 2), int32] span=from_string:47:101 */;
  let %x_12: Tensor[(1, 4, 2), int32] /* ty=Tensor[(1, 4, 2), int32] span=from_string:51:105 */ = %9(%x_11) /* ty=Tensor[(1, 4, 2), int32] span=from_string:47:101 */;
  %10 = fn (%p08: Tensor[(1, 4, 2), int32] /* ty=Tensor[(1, 4, 2), int32] span=from_string:49:10 */, Primitive=1) -> Tensor[(1, 4, 2), int64] {
    cast(%p08, dtype="int64") /* ty=Tensor[(1, 4, 2), int64] span=from_string:49:5 */
  } /* ty=fn (Tensor[(1, 4, 2), int32]) -> Tensor[(1, 4, 2), int64] span=from_string:51:101 */;
  let %x_13: Tensor[(1, 4, 2), int64] /* ty=Tensor[(1, 4, 2), int64] span=from_string:55:107 */ = %10(%x_12) /* ty=Tensor[(1, 4, 2), int64] span=from_string:51:101 */;
  %11 = fn (%p09: Tensor[(1, 4, 2), int64] /* ty=Tensor[(1, 4, 2), int64] span=from_string:53:10 */, Primitive=1) -> Tensor[(1, 4, 2), float32] {
    cast(%p09, dtype="float32") /* ty=Tensor[(1, 4, 2), float32] span=from_string:53:5 */
  } /* ty=fn (Tensor[(1, 4, 2), int64]) -> Tensor[(1, 4, 2), float32] span=from_string:55:103 */;
  let %x_14: Tensor[(1, 4, 2), float32] /* ty=Tensor[(1, 4, 2), float32] span=from_string:172:659 */ = %11(%x_13) /* ty=Tensor[(1, 4, 2), float32] span=from_string:55:103 */;
  %12 = fn (%p010: Tensor[(1, 4, 2), int8] /* ty=Tensor[(1, 4, 2), int8] span=from_string:59:20 */, %p14: float32 /* ty=float32 span=from_string:59:27 */, %p22: int32 /* ty=int32 span=from_string:59:33 */, Primitive=1) -> Tensor[(1, 4, 2), float32] {
    qnn.dequantize(%p010, %p14, %p22) /* ty=Tensor[(1, 4, 2), float32] span=from_string:59:5 */
  } /* ty=fn (Tensor[(1, 4, 2), int8], float32, int32) -> Tensor[(1, 4, 2), float32] span=from_string:61:103 */;
  let %x_17: Tensor[(1, 4, 2), float32] /* ty=Tensor[(1, 4, 2), float32] span=from_string:71:111 */ = %12(%x0, 2f /* ty=float32 span=from_string:56:67 */, 0 /* ty=int32 span=from_string:57:64 */) /* ty=Tensor[(1, 4, 2), float32] span=from_string:61:103 */;
  %13 = fn (%p011: Tensor[(1, 100, 2), int8] /* ty=Tensor[(1, 100, 2), int8] span=from_string:65:20 */, %p15: float32 /* ty=float32 span=from_string:65:27 */, %p23: int32 /* ty=int32 span=from_string:65:33 */, Primitive=1) -> Tensor[(1, 100, 2), float32] {
    qnn.dequantize(%p011, %p15, %p23) /* ty=Tensor[(1, 100, 2), float32] span=from_string:65:5 */
  } /* ty=fn (Tensor[(1, 100, 2), int8], float32, int32) -> Tensor[(1, 100, 2), float32] span=from_string:67:107 */;
  let %x_20: Tensor[(1, 100, 2), float32] /* ty=Tensor[(1, 100, 2), float32] span=from_string:71:118 */ = %13(%x4, 6f /* ty=float32 span=from_string:62:67 */, 0 /* ty=int32 span=from_string:63:64 */) /* ty=Tensor[(1, 100, 2), float32] span=from_string:67:107 */;
  %14 = fn (%p012: Tensor[(1, 4, 2), float32] /* ty=Tensor[(1, 4, 2), float32] span=from_string:69:21 */, %p16: Tensor[(1, 100, 2), float32] /* ty=Tensor[(1, 100, 2), float32] span=from_string:69:28 */, Primitive=1) -> Tensor[(1, 4, 100), float32] {
    nn.batch_matmul(%p012, %p16, transpose_b=True) /* ty=Tensor[(1, 4, 100), float32] span=from_string:69:5 */
  } /* ty=fn (Tensor[(1, 4, 2), float32], Tensor[(1, 100, 2), float32]) -> Tensor[(1, 4, 100), float32] span=from_string:71:107 */;
  let %x_21: Tensor[(1, 4, 100), float32] /* ty=Tensor[(1, 4, 100), float32] span=from_string:172:666 */ = %14(%x_17, %x_20) /* ty=Tensor[(1, 4, 100), float32] span=from_string:71:107 */;
  %15 = fn (%p013: Tensor[(31, 65), int64] /* ty=Tensor[(31, 65), int64] span=from_string:73:10 */, Primitive=1) -> Tensor[(31, 65), bool] {
    cast(%p013, dtype="bool") /* ty=Tensor[(31, 65), bool] span=from_string:73:5 */
  } /* ty=fn (Tensor[(31, 65), int64]) -> Tensor[(31, 65), bool] span=from_string:75:95 */;
  let %x_22: Tensor[(31, 65), bool] /* ty=Tensor[(31, 65), bool] span=from_string:79:103 */ = %15(%x2) /* ty=Tensor[(31, 65), bool] span=from_string:75:95 */;
  %16 = fn (%p014: Tensor[(31, 65), bool] /* ty=Tensor[(31, 65), bool] span=from_string:77:10 */, Primitive=1) -> Tensor[(31, 65), int32] {
    cast(%p014, dtype="int32") /* ty=Tensor[(31, 65), int32] span=from_string:77:5 */
  } /* ty=fn (Tensor[(31, 65), bool]) -> Tensor[(31, 65), int32] span=from_string:79:99 */;
  let %x_23: Tensor[(31, 65), int32] /* ty=Tensor[(31, 65), int32] span=from_string:172:673 */ = %16(%x_22) /* ty=Tensor[(31, 65), int32] span=from_string:79:99 */;
  %17 = fn (%p015: Tensor[(1, 100, 2), int8] /* ty=Tensor[(1, 100, 2), int8] span=from_string:83:20 */, %p17: float32 /* ty=float32 span=from_string:83:27 */, %p24: int32 /* ty=int32 span=from_string:83:33 */, Primitive=1) -> Tensor[(1, 100, 2), float32] {
    qnn.dequantize(%p015, %p17, %p24) /* ty=Tensor[(1, 100, 2), float32] span=from_string:83:5 */
  } /* ty=fn (Tensor[(1, 100, 2), int8], float32, int32) -> Tensor[(1, 100, 2), float32] span=from_string:85:107 */;
  let %x_26: Tensor[(1, 100, 2), float32] /* ty=Tensor[(1, 100, 2), float32] span=from_string:95:113 */ = %17(%x4, 2f /* ty=float32 span=from_string:80:67 */, 0 /* ty=int32 span=from_string:81:64 */) /* ty=Tensor[(1, 100, 2), float32] span=from_string:85:107 */;
  %18 = fn (%p016: Tensor[(1, 18, 2), int8] /* ty=Tensor[(1, 18, 2), int8] span=from_string:89:20 */, %p18: float32 /* ty=float32 span=from_string:89:27 */, %p25: int32 /* ty=int32 span=from_string:89:33 */, Primitive=1) -> Tensor[(1, 18, 2), float32] {
    qnn.dequantize(%p016, %p18, %p25) /* ty=Tensor[(1, 18, 2), float32] span=from_string:89:5 */
  } /* ty=fn (Tensor[(1, 18, 2), int8], float32, int32) -> Tensor[(1, 18, 2), float32] span=from_string:91:105 */;
  let %x_29: Tensor[(1, 18, 2), float32] /* ty=Tensor[(1, 18, 2), float32] span=from_string:95:120 */ = %18(%x5, 0.5f /* ty=float32 span=from_string:86:69 */, 0 /* ty=int32 span=from_string:87:64 */) /* ty=Tensor[(1, 18, 2), float32] span=from_string:91:105 */;
  %19 = fn (%p017: Tensor[(1, 100, 2), float32] /* ty=Tensor[(1, 100, 2), float32] span=from_string:93:21 */, %p19: Tensor[(1, 18, 2), float32] /* ty=Tensor[(1, 18, 2), float32] span=from_string:93:28 */, Primitive=1) -> Tensor[(1, 100, 18), float32] {
    nn.batch_matmul(%p017, %p19, transpose_b=True) /* ty=Tensor[(1, 100, 18), float32] span=from_string:93:5 */
  } /* ty=fn (Tensor[(1, 100, 2), float32], Tensor[(1, 18, 2), float32]) -> Tensor[(1, 100, 18), float32] span=from_string:95:109 */;
  let %x_30: Tensor[(1, 100, 18), float32] /* ty=Tensor[(1, 100, 18), float32] span=from_string:171:111 */ = %19(%x_26, %x_29) /* ty=Tensor[(1, 100, 18), float32] span=from_string:95:109 */;
  %20 = fn (%p018: Tensor[(1, 100, 18), float32] /* ty=Tensor[(1, 100, 18), float32] span=from_string:99:18 */, %p110: float32 /* ty=float32 span=from_string:99:25 */, %p26: int32 /* ty=int32 span=from_string:99:32 */, Primitive=1) -> Tensor[(1, 100, 18), int8] {
    qnn.quantize(%p018, %p110, %p26, out_dtype="int8") /* ty=Tensor[(1, 100, 18), int8] span=from_string:99:5 */
  } /* ty=fn (Tensor[(1, 100, 18), float32], float32, int32) -> Tensor[(1, 100, 18), int8] span=from_string:101:105 */;
  let %x_33: Tensor[(1, 100, 18), int8] /* ty=Tensor[(1, 100, 18), int8] span=from_string:172:680 */ = %20(%x_30, 1f /* ty=float32 span=from_string:96:67 */, 0 /* ty=int32 span=from_string:97:64 */) /* ty=Tensor[(1, 100, 18), int8] span=from_string:101:105 */;
  %21 = fn (%p019: Tensor[(1, 4, 2), float32] /* ty=Tensor[(1, 4, 2), float32] span=from_string:103:9 */, %p111: Tensor[(1), float32] /* ty=Tensor[(1), float32] span=from_string:103:16 */, Primitive=1) -> Tensor[(1, 4, 2), float32] {
    add(%p019, %p111) /* ty=Tensor[(1, 4, 2), float32] span=from_string:103:5 */
  } /* ty=fn (Tensor[(1, 4, 2), float32], Tensor[(1), float32]) -> Tensor[(1, 4, 2), float32] span=from_string:105:103 */;
  let %x_34: Tensor[(1, 4, 2), float32] /* ty=Tensor[(1, 4, 2), float32] span=from_string:172:687 */ = %21(%x_6, %x_0) /* ty=Tensor[(1, 4, 2), float32] span=from_string:105:103 */;
  %22 = fn (%p020: Tensor[(1, 18, 2), int8] /* ty=Tensor[(1, 18, 2), int8] span=from_string:109:20 */, %p112: float32 /* ty=float32 span=from_string:109:27 */, %p27: int32 /* ty=int32 span=from_string:109:34 */, Primitive=1) -> Tensor[(1, 18, 2), float32] {
    qnn.dequantize(%p020, %p112, %p27) /* ty=Tensor[(1, 18, 2), float32] span=from_string:109:5 */
  } /* ty=fn (Tensor[(1, 18, 2), int8], float32, int32) -> Tensor[(1, 18, 2), float32] span=from_string:111:105 */;
  let %x_37: Tensor[(1, 18, 2), float32] /* ty=Tensor[(1, 18, 2), float32] span=from_string:121:111 */ = %22(%x5, 2f /* ty=float32 span=from_string:106:67 */, 0 /* ty=int32 span=from_string:107:64 */) /* ty=Tensor[(1, 18, 2), float32] span=from_string:111:105 */;
  %23 = fn (%p021: Tensor[(1, 46, 2), int8] /* ty=Tensor[(1, 46, 2), int8] span=from_string:115:20 */, %p113: float32 /* ty=float32 span=from_string:115:27 */, %p28: int32 /* ty=int32 span=from_string:115:34 */, Primitive=1) -> Tensor[(1, 46, 2), float32] {
    qnn.dequantize(%p021, %p113, %p28) /* ty=Tensor[(1, 46, 2), float32] span=from_string:115:5 */
  } /* ty=fn (Tensor[(1, 46, 2), int8], float32, int32) -> Tensor[(1, 46, 2), float32] span=from_string:117:105 */;
  let %x_40: Tensor[(1, 46, 2), float32] /* ty=Tensor[(1, 46, 2), float32] span=from_string:121:118 */ = %23(%x6, 0.5f /* ty=float32 span=from_string:112:69 */, 0 /* ty=int32 span=from_string:113:64 */) /* ty=Tensor[(1, 46, 2), float32] span=from_string:117:105 */;
  %24 = fn (%p022: Tensor[(1, 18, 2), float32] /* ty=Tensor[(1, 18, 2), float32] span=from_string:119:21 */, %p114: Tensor[(1, 46, 2), float32] /* ty=Tensor[(1, 46, 2), float32] span=from_string:119:28 */, Primitive=1) -> Tensor[(1, 18, 46), float32] {
    nn.batch_matmul(%p022, %p114, transpose_b=True) /* ty=Tensor[(1, 18, 46), float32] span=from_string:119:5 */
  } /* ty=fn (Tensor[(1, 18, 2), float32], Tensor[(1, 46, 2), float32]) -> Tensor[(1, 18, 46), float32] span=from_string:121:107 */;
  let %x_41: Tensor[(1, 18, 46), float32] /* ty=Tensor[(1, 18, 46), float32] span=from_string:127:107 */ = %24(%x_37, %x_40) /* ty=Tensor[(1, 18, 46), float32] span=from_string:121:107 */;
  %25 = fn (%p023: Tensor[(1, 18, 46), float32] /* ty=Tensor[(1, 18, 46), float32] span=from_string:125:18 */, %p115: float32 /* ty=float32 span=from_string:125:25 */, %p29: int32 /* ty=int32 span=from_string:125:32 */, Primitive=1) -> Tensor[(1, 18, 46), int8] {
    qnn.quantize(%p023, %p115, %p29, out_dtype="int8") /* ty=Tensor[(1, 18, 46), int8] span=from_string:125:5 */
  } /* ty=fn (Tensor[(1, 18, 46), float32], float32, int32) -> Tensor[(1, 18, 46), int8] span=from_string:127:103 */;
  let %x_44: Tensor[(1, 18, 46), int8] /* ty=Tensor[(1, 18, 46), int8] span=from_string:172:694 */ = %25(%x_41, 1f /* ty=float32 span=from_string:122:67 */, 0 /* ty=int32 span=from_string:123:64 */) /* ty=Tensor[(1, 18, 46), int8] span=from_string:127:103 */;
  %26 = fn (Primitive=1) -> Tensor[(1), float32] {
    zeros(shape=[1], dtype="float32") /* ty=Tensor[(1), float32] span=from_string:129:5 */
  } /* ty=fn () -> Tensor[(1), float32] span=from_string:131:90 */;
  let %x_45: Tensor[(1), float32] /* ty=Tensor[(1), float32] span=from_string:143:94 */ = %26() /* ty=Tensor[(1), float32] span=from_string:131:90 */;
  %27 = fn (%p024: Tensor[(1), float32] /* ty=Tensor[(1), float32] span=from_string:133:15 */, %p116: Tensor[(1), float32] /* ty=Tensor[(1), float32] span=from_string:133:22 */, Primitive=1) -> Tensor[(1), float32] {
    multiply(%p024, %p116) /* ty=Tensor[(1), float32] span=from_string:133:6 */
  } /* ty=fn (Tensor[(1), float32], Tensor[(1), float32]) -> Tensor[(1), float32] span=from_string:135:91 */;
  let %x_46: Tensor[(1), float32] /* ty=Tensor[(1), float32] span=from_string:139:95 */ = %27(%x9, %x_0) /* ty=Tensor[(1), float32] span=from_string:135:91 */;
  %28 = fn (%p025: Tensor[(1), float32] /* ty=Tensor[(1), float32] span=from_string:137:21 */, %p117: Tensor[(1), int32] /* ty=Tensor[(1), int32] span=from_string:137:28 */, Primitive=1) -> Tensor[(1), float32] {
    collapse_sum_to(%p025, %p117, meta[relay.attrs.InitOpAttrs][0]) /* ty=Tensor[(1), float32] span=from_string:137:5 */
  } /* ty=fn (Tensor[(1), float32], Tensor[(1), int32]) -> Tensor[(1), float32] span=from_string:139:91 */;
  let %x_47: Tensor[(1), float32] /* ty=Tensor[(1), float32] span=from_string:143:101 */ = %28(%x_46, meta[relay.Constant][0] /* ty=Tensor[(1), int32] span=from_string:139:107 */) /* ty=Tensor[(1), float32] span=from_string:139:91 */;
  %29 = fn (%p026: Tensor[(1), float32] /* ty=Tensor[(1), float32] span=from_string:141:9 */, %p118: Tensor[(1), float32] /* ty=Tensor[(1), float32] span=from_string:141:16 */, Primitive=1) -> Tensor[(1), float32] {
    add(%p026, %p118) /* ty=Tensor[(1), float32] span=from_string:141:5 */
  } /* ty=fn (Tensor[(1), float32], Tensor[(1), float32]) -> Tensor[(1), float32] span=from_string:143:90 */;
  let %x_48: Tensor[(1), float32] /* ty=Tensor[(1), float32] span=from_string:155:94 */ = %29(%x_45, %x_47) /* ty=Tensor[(1), float32] span=from_string:143:90 */;
  %30 = fn (%p027: Tensor[(1), float32] /* ty=Tensor[(1), float32] span=from_string:145:15 */, %p119: Tensor[(1), float32] /* ty=Tensor[(1), float32] span=from_string:145:22 */, Primitive=1) -> Tensor[(1), float32] {
    multiply(%p027, %p119) /* ty=Tensor[(1), float32] span=from_string:145:6 */
  } /* ty=fn (Tensor[(1), float32], Tensor[(1), float32]) -> Tensor[(1), float32] span=from_string:147:91 */;
  let %x_49: Tensor[(1), float32] /* ty=Tensor[(1), float32] span=from_string:151:95 */ = %30(%x9, %x_0) /* ty=Tensor[(1), float32] span=from_string:147:91 */;
  %31 = fn (%p028: Tensor[(1), float32] /* ty=Tensor[(1), float32] span=from_string:149:21 */, %p120: Tensor[(1), int32] /* ty=Tensor[(1), int32] span=from_string:149:28 */, Primitive=1) -> Tensor[(1), float32] {
    collapse_sum_to(%p028, %p120, meta[relay.attrs.InitOpAttrs][1]) /* ty=Tensor[(1), float32] span=from_string:149:5 */
  } /* ty=fn (Tensor[(1), float32], Tensor[(1), int32]) -> Tensor[(1), float32] span=from_string:151:91 */;
  let %x_50: Tensor[(1), float32] /* ty=Tensor[(1), float32] span=from_string:155:101 */ = %31(%x_49, meta[relay.Constant][1] /* ty=Tensor[(1), int32] span=from_string:151:107 */) /* ty=Tensor[(1), float32] span=from_string:151:91 */;
  %32 = fn (%p029: Tensor[(1), float32] /* ty=Tensor[(1), float32] span=from_string:153:9 */, %p121: Tensor[(1), float32] /* ty=Tensor[(1), float32] span=from_string:153:16 */, Primitive=1) -> Tensor[(1), float32] {
    add(%p029, %p121) /* ty=Tensor[(1), float32] span=from_string:153:5 */
  } /* ty=fn (Tensor[(1), float32], Tensor[(1), float32]) -> Tensor[(1), float32] span=from_string:155:90 */;
  let %x_51: Tensor[(1), float32] /* ty=Tensor[(1), float32] span=from_string:156:98 */ = %32(%x_48, %x_50) /* ty=Tensor[(1), float32] span=from_string:155:90 */;
  let %x_52: (Tensor[(1), float32],) /* ty=(Tensor[(1), float32],) span=from_string:157:151 */ = (%x_51,) /* ty=(Tensor[(1), float32],) span=from_string:156:97 */;
  let %x_53: (Tensor[(1), float32], (Tensor[(1), float32],)) /* ty=(Tensor[(1), float32], (Tensor[(1), float32],)) span=from_string:172:701 */ = (%x8, %x_52) /* ty=(Tensor[(1), float32], (Tensor[(1), float32],)) span=from_string:157:145 */;
  %33 = fn (%p030: Tensor[(1, 46, 2), int8] /* ty=Tensor[(1, 46, 2), int8] span=from_string:161:20 */, %p122: float32 /* ty=float32 span=from_string:161:27 */, %p210: int32 /* ty=int32 span=from_string:161:34 */, Primitive=1) -> Tensor[(1, 46, 2), float32] {
    qnn.dequantize(%p030, %p122, %p210) /* ty=Tensor[(1, 46, 2), float32] span=from_string:161:5 */
  } /* ty=fn (Tensor[(1, 46, 2), int8], float32, int32) -> Tensor[(1, 46, 2), float32] span=from_string:163:105 */;
  let %x_56: Tensor[(1, 46, 2), float32] /* ty=Tensor[(1, 46, 2), float32] span=from_string:167:99 */ = %33(%x6, 2f /* ty=float32 span=from_string:158:67 */, 0 /* ty=int32 span=from_string:159:64 */) /* ty=Tensor[(1, 46, 2), float32] span=from_string:163:105 */;
  %34 = fn (%p031: Tensor[(1, 46, 2), float32] /* ty=Tensor[(1, 46, 2), float32] span=from_string:165:12 */, Primitive=1) -> Tensor[(1, 2), int32] {
    argmax(%p031, axis=[1]) /* ty=Tensor[(1, 2), int32] span=from_string:165:5 */
  } /* ty=fn (Tensor[(1, 46, 2), float32]) -> Tensor[(1, 2), int32] span=from_string:167:95 */;
  let %x_57: Tensor[(1, 2), int32] /* ty=Tensor[(1, 2), int32] span=from_string:172:708 */ = %34(%x_56) /* ty=Tensor[(1, 2), int32] span=from_string:167:95 */;
  %35 = fn (%p032: Tensor[(1, 100, 18), float32] /* ty=Tensor[(1, 100, 18), float32] span=from_string:169:10 */, Primitive=1) -> Tensor[(1, 100, 18), int32] {
    cast(%p032, dtype="int32") /* ty=Tensor[(1, 100, 18), int32] span=from_string:169:5 */
  } /* ty=fn (Tensor[(1, 100, 18), float32]) -> Tensor[(1, 100, 18), int32] span=from_string:171:107 */;
  let %x_58: Tensor[(1, 100, 18), int32] /* ty=Tensor[(1, 100, 18), int32] span=from_string:172:715 */ = %35(%x_30) /* ty=Tensor[(1, 100, 18), int32] span=from_string:171:107 */;
  let %x_59: (Tensor[(1, 4, 4), float32], Tensor[(1, 4, 2), float32], Tensor[(1, 4, 100), float32], Tensor[(31, 65), int32], Tensor[(1, 100, 18), int8], Tensor[(1, 4, 2), float32], Tensor[(1, 18, 46), int8], (Tensor[(1), float32], (Tensor[(1), float32],)), Tensor[(1, 2), int32], Tensor[(1, 100, 18), int32]) /* ty=(Tensor[(1, 4, 4), float32], Tensor[(1, 4, 2), float32], Tensor[(1, 4, 100), float32], Tensor[(31, 65), int32], Tensor[(1, 100, 18), int8], Tensor[(1, 4, 2), float32], Tensor[(1, 18, 46), int8], (Tensor[(1), float32], (Tensor[(1), float32],)), Tensor[(1, 2), int32], Tensor[(1, 100, 18), int32]) span=from_string:173:651 */ = (%x_10, %x_14, %x_21, %x_23, %x_33, %x_34, %x_44, %x_53, %x_57, %x_58) /* ty=(Tensor[(1, 4, 4), float32], Tensor[(1, 4, 2), float32], Tensor[(1, 4, 100), float32], Tensor[(31, 65), int32], Tensor[(1, 100, 18), int8], Tensor[(1, 4, 2), float32], Tensor[(1, 18, 46), int8], (Tensor[(1), float32], (Tensor[(1), float32],)), Tensor[(1, 2), int32], Tensor[(1, 100, 18), int32]) span=from_string:172:651 */;
  let %x_60: (Tensor[(1, 4, 4), float32], Tensor[(1, 4, 2), float32], Tensor[(1, 4, 100), float32], Tensor[(31, 65), int32], Tensor[(1, 100, 18), int8], Tensor[(1, 4, 2), float32], Tensor[(1, 18, 46), int8], (Tensor[(1), float32], (Tensor[(1), float32],)), Tensor[(1, 2), int32], Tensor[(1, 100, 18), int32]) /* ty=(Tensor[(1, 4, 4), float32], Tensor[(1, 4, 2), float32], Tensor[(1, 4, 100), float32], Tensor[(31, 65), int32], Tensor[(1, 100, 18), int8], Tensor[(1, 4, 2), float32], Tensor[(1, 18, 46), int8], (Tensor[(1), float32], (Tensor[(1), float32],)), Tensor[(1, 2), int32], Tensor[(1, 100, 18), int32]) span=from_string:174:649 */ = %x_59;
  let %x_61: (Tensor[(1, 4, 4), float32], Tensor[(1, 4, 2), float32], Tensor[(1, 4, 100), float32], Tensor[(31, 65), int32], Tensor[(1, 100, 18), int8], Tensor[(1, 4, 2), float32], Tensor[(1, 18, 46), int8], (Tensor[(1), float32], (Tensor[(1), float32],)), Tensor[(1, 2), int32], Tensor[(1, 100, 18), int32]) /* ty=(Tensor[(1, 4, 4), float32], Tensor[(1, 4, 2), float32], Tensor[(1, 4, 100), float32], Tensor[(31, 65), int32], Tensor[(1, 100, 18), int8], Tensor[(1, 4, 2), float32], Tensor[(1, 18, 46), int8], (Tensor[(1), float32], (Tensor[(1), float32],)), Tensor[(1, 2), int32], Tensor[(1, 100, 18), int32]) span=from_string:175:3 */ = %x_60;
  %x_61
}

#[metadata]
{
  "root": 1, 
  "nodes": [
    {
      "type_key": ""
    }, 
    {
      "type_key": "Map", 
      "keys": [
        "relay.Constant", 
        "relay.attrs.InitOpAttrs"
      ], 
      "data": [2, 16]
    }, 
    {
      "type_key": "Array", 
      "data": [3, 11]
    }, 
    {
      "type_key": "relay.Constant", 
      "attrs": {
        "_checked_type_": "8", 
        "data": "0", 
        "span": "6", 
        "virtual_device_": "4"
      }
    }, 
    {
      "type_key": "VirtualDevice", 
      "attrs": {
        "device_type_int": "-1", 
        "memory_scope": "5", 
        "target": "0", 
        "virtual_device_id": "-1"
      }
    }, 
    {
      "type_key": "runtime.String"
    }, 
    {
      "type_key": "Span", 
      "attrs": {
        "column": "107", 
        "end_column": "125", 
        "end_line": "139", 
        "line": "139", 
        "source_name": "7"
      }
    }, 
    {
      "type_key": "SourceName", 
      "repr_str": "from_string"
    }, 
    {
      "type_key": "relay.TensorType", 
      "attrs": {
        "dtype": "int32", 
        "shape": "9", 
        "span": "0"
      }
    }, 
    {
      "type_key": "Array", 
      "data": [10]
    }, 
    {
      "type_key": "IntImm", 
      "attrs": {
        "dtype": "int32", 
        "span": "0", 
        "value": "1"
      }
    }, 
    {
      "type_key": "relay.Constant", 
      "attrs": {
        "_checked_type_": "13", 
        "data": "1", 
        "span": "12", 
        "virtual_device_": "4"
      }
    }, 
    {
      "type_key": "Span", 
      "attrs": {
        "column": "107", 
        "end_column": "125", 
        "end_line": "151", 
        "line": "151", 
        "source_name": "7"
      }
    }, 
    {
      "type_key": "relay.TensorType", 
      "attrs": {
        "dtype": "int32", 
        "shape": "14", 
        "span": "0"
      }
    }, 
    {
      "type_key": "Array", 
      "data": [15]
    }, 
    {
      "type_key": "IntImm", 
      "attrs": {
        "dtype": "int32", 
        "span": "0", 
        "value": "1"
      }
    }, 
    {
      "type_key": "Array", 
      "data": [17, 20]
    }, 
    {
      "type_key": "relay.attrs.InitOpAttrs", 
      "attrs": {
        "dtype": "", 
        "shape": "18"
      }
    }, 
    {
      "type_key": "Array", 
      "data": [19]
    }, 
    {
      "type_key": "IntImm", 
      "attrs": {
        "dtype": "int32", 
        "span": "0", 
        "value": "1"
      }
    }, 
    {
      "type_key": "relay.attrs.InitOpAttrs", 
      "attrs": {
        "dtype": "", 
        "shape": "21"
      }
    }, 
    {
      "type_key": "Array", 
      "data": [19]
    }
  ], 
  "b64ndarrays": [
    "P6G0lvBAXt0AAAAAAAAAAAEAAAAAAAAAAQAAAAAgAQABAAAAAAAAAAQAAAAAAAAAAQAAAA==", 
    "P6G0lvBAXt0AAAAAAAAAAAEAAAAAAAAAAQAAAAAgAQABAAAAAAAAAAQAAAAAAAAAAQAAAA=="
  ], 
  "attrs": {"tvm_version": "0.13.0"}
}