#[version = "0.0.5"]
def @main(%x0: Tensor[(1, 4, 2), int8] /* ty=Tensor[(1, 4, 2), int8] span=from_string:10:23 */, %x1: Tensor[(1, 4, 2), int8] /* ty=Tensor[(1, 4, 2), int8] span=from_string:26:14 */, %x2: Tensor[(31, 65), int64] /* ty=Tensor[(31, 65), int64] span=from_string:12:13 */, %x3: Tensor[(58), float32] /* ty=Tensor[(58), float32] */, %x4: Tensor[(1, 100, 2), int8] /* ty=Tensor[(1, 100, 2), int8] span=from_string:13:23 */, %x5: Tensor[(1, 18, 2), int8] /* ty=Tensor[(1, 18, 2), int8] span=from_string:16:24 */, %x6: Tensor[(1, 46, 2), int8] /* ty=Tensor[(1, 46, 2), int8] span=from_string:33:16 */, %x7: Tensor[(49, 17, 31), int32] /* ty=Tensor[(49, 17, 31), int32] */) -> (Tensor[(1, 4, 4), float32], Tensor[(1, 4, 2), float32], Tensor[(1, 4, 100), float32], Tensor[(31, 65), int32], Tensor[(1, 100, 18), int8], Tensor[(1, 4, 2), float32], Tensor[(1, 18, 46), int8], (Tensor[(1), float32], (Tensor[(1), float32],)), Tensor[(1, 2), int32], Tensor[(1, 100, 18), int32]) {
  %0 = fn (Primitive=1) -> Tensor[(1), float32] {
    ones(shape=[1], dtype="float32") /* ty=Tensor[(1), float32] span=from_string:30:17 */
  } /* ty=fn () -> Tensor[(1), float32] */;
  %1 = %0() /* ty=Tensor[(1), float32] */;
  let %x8: Tensor[(1), float32] /* ty=Tensor[(1), float32] span=from_string:32:10 */ = %1;
  %2 = fn (Primitive=1) -> Tensor[(1), float32] {
    ones(shape=[1], dtype="float32") /* ty=Tensor[(1), float32] span=from_string:5:88 */
  } /* ty=fn () -> Tensor[(1), float32] */;
  let %x9: Tensor[(1), float32] /* ty=Tensor[(1), float32] span=from_string:20:19 */ = %2() /* ty=Tensor[(1), float32] */;
  %5 = fn (%p01: Tensor[(1, 4, 2), int8] /* ty=Tensor[(1, 4, 2), int8] */, Primitive=1) -> Tensor[(1, 4, 2), float32] {
    qnn.dequantize(%p01, 2f /* ty=float32 span=from_string:6:30 */, 0 /* ty=int32 span=from_string:6:72 */) /* ty=Tensor[(1, 4, 2), float32] span=from_string:8:24 */
  } /* ty=fn (Tensor[(1, 4, 2), int8]) -> Tensor[(1, 4, 2), float32] */;
  %6 = fn (%p02: Tensor[(1, 4, 2), int8] /* ty=Tensor[(1, 4, 2), int8] */, Primitive=1) -> Tensor[(1, 4, 2), float32] {
    qnn.dequantize(%p02, 6f /* ty=float32 span=from_string:7:30 */, 0 /* ty=int32 span=from_string:7:72 */) /* ty=Tensor[(1, 4, 2), float32] span=from_string:30:13 */
  } /* ty=fn (Tensor[(1, 4, 2), int8]) -> Tensor[(1, 4, 2), float32] */;
  %7 = %5(%x0) /* ty=Tensor[(1, 4, 2), float32] */;
  %8 = %6(%x1) /* ty=Tensor[(1, 4, 2), float32] */;
  %9 = fn (%p0: Tensor[(1, 4, 2), float32] /* ty=Tensor[(1, 4, 2), float32] */, %p1: Tensor[(1, 4, 2), float32] /* ty=Tensor[(1, 4, 2), float32] */, Primitive=1) -> Tensor[(1, 4, 4), float32] {
    %3 = nn.batch_matmul(%p0, %p1, transpose_b=True) /* ty=Tensor[(1, 4, 4), float32] span=from_string:9:12 */;
    %4 = add(%3, 1f /* ty=float32 span=from_string:9:18 */) /* ty=Tensor[(1, 4, 4), float32] span=from_string:25:13 */;
    erf(%4) /* ty=Tensor[(1, 4, 4), float32] span=from_string:35:4 */
  } /* ty=fn (Tensor[(1, 4, 2), float32], Tensor[(1, 4, 2), float32]) -> Tensor[(1, 4, 4), float32] */;
  %10 = fn (%p03: Tensor[(1, 4, 2), int8] /* ty=Tensor[(1, 4, 2), int8] */, Primitive=1) -> Tensor[(1, 4, 2), float32] {
    cast(%p03, dtype="float32") /* ty=Tensor[(1, 4, 2), float32] span=from_string:35:9 */
  } /* ty=fn (Tensor[(1, 4, 2), int8]) -> Tensor[(1, 4, 2), float32] */;
  %11 = fn (%p05: Tensor[(1, 4, 2), int8] /* ty=Tensor[(1, 4, 2), int8] */, Primitive=1) -> Tensor[(1, 4, 2), float32] {
    qnn.dequantize(%p05, 2f /* ty=float32 span=from_string:10:30 */, 0 /* ty=int32 span=from_string:10:73 */) /* ty=Tensor[(1, 4, 2), float32] span=from_string:27:25 */
  } /* ty=fn (Tensor[(1, 4, 2), int8]) -> Tensor[(1, 4, 2), float32] */;
  %12 = fn (%p06: Tensor[(1, 100, 2), int8] /* ty=Tensor[(1, 100, 2), int8] */, Primitive=1) -> Tensor[(1, 100, 2), float32] {
    qnn.dequantize(%p06, 6f /* ty=float32 span=from_string:11:30 */, 0 /* ty=int32 span=from_string:11:73 */) /* ty=Tensor[(1, 100, 2), float32] span=from_string:27:29 */
  } /* ty=fn (Tensor[(1, 100, 2), int8]) -> Tensor[(1, 100, 2), float32] */;
  %13 = %11(%x0) /* ty=Tensor[(1, 4, 2), float32] */;
  %14 = %12(%x4) /* ty=Tensor[(1, 100, 2), float32] */;
  %15 = fn (%p04: Tensor[(1, 4, 2), float32] /* ty=Tensor[(1, 4, 2), float32] */, %p11: Tensor[(1, 100, 2), float32] /* ty=Tensor[(1, 100, 2), float32] */, Primitive=1) -> Tensor[(1, 4, 100), float32] {
    nn.batch_matmul(%p04, %p11, transpose_b=True) /* ty=Tensor[(1, 4, 100), float32] span=from_string:35:14 */
  } /* ty=fn (Tensor[(1, 4, 2), float32], Tensor[(1, 100, 2), float32]) -> Tensor[(1, 4, 100), float32] */;
  %17 = fn (%p07: Tensor[(31, 65), int64] /* ty=Tensor[(31, 65), int64] */, Primitive=1) -> Tensor[(31, 65), int32] {
    %16 = cast(%p07, dtype="bool") /* ty=Tensor[(31, 65), bool] span=from_string:28:14 */;
    cast(%16, dtype="int32") /* ty=Tensor[(31, 65), int32] span=from_string:35:19 */
  } /* ty=fn (Tensor[(31, 65), int64]) -> Tensor[(31, 65), int32] */;
  %18 = fn (%p010: Tensor[(1, 100, 2), int8] /* ty=Tensor[(1, 100, 2), int8] */, Primitive=1) -> Tensor[(1, 100, 2), float32] {
    qnn.dequantize(%p010, 2f /* ty=float32 span=from_string:13:30 */, 0 /* ty=int32 span=from_string:13:73 */) /* ty=Tensor[(1, 100, 2), float32] span=from_string:15:25 */
  } /* ty=fn (Tensor[(1, 100, 2), int8]) -> Tensor[(1, 100, 2), float32] */;
  %19 = fn (%p011: Tensor[(1, 18, 2), int8] /* ty=Tensor[(1, 18, 2), int8] */, Primitive=1) -> Tensor[(1, 18, 2), float32] {
    qnn.dequantize(%p011, 0.5f /* ty=float32 span=from_string:14:32 */, 0 /* ty=int32 span=from_string:14:75 */) /* ty=Tensor[(1, 18, 2), float32] span=from_string:15:29 */
  } /* ty=fn (Tensor[(1, 18, 2), int8]) -> Tensor[(1, 18, 2), float32] */;
  %20 = %18(%x4) /* ty=Tensor[(1, 100, 2), float32] */;
  %21 = %19(%x5) /* ty=Tensor[(1, 18, 2), float32] */;
  %22 = fn (%p09: Tensor[(1, 100, 2), float32] /* ty=Tensor[(1, 100, 2), float32] */, %p12: Tensor[(1, 18, 2), float32] /* ty=Tensor[(1, 18, 2), float32] */, Primitive=1) -> Tensor[(1, 100, 18), float32] {
    nn.batch_matmul(%p09, %p12, transpose_b=True) /* ty=Tensor[(1, 100, 18), float32] span=from_string:34:14 */
  } /* ty=fn (Tensor[(1, 100, 2), float32], Tensor[(1, 18, 2), float32]) -> Tensor[(1, 100, 18), float32] */;
  %23 = %22(%20, %21) /* ty=Tensor[(1, 100, 18), float32] */;
  %24 = fn (%p08: Tensor[(1, 100, 18), float32] /* ty=Tensor[(1, 100, 18), float32] */, Primitive=1) -> Tensor[(1, 100, 18), int8] {
    qnn.quantize(%p08, 1f /* ty=float32 span=from_string:29:29 */, 0 /* ty=int32 span=from_string:29:72 */, out_dtype="int8") /* ty=Tensor[(1, 100, 18), int8] span=from_string:35:24 */
  } /* ty=fn (Tensor[(1, 100, 18), float32]) -> Tensor[(1, 100, 18), int8] */;
  %25 = fn (%p012: Tensor[(1, 4, 2), float32] /* ty=Tensor[(1, 4, 2), float32] */, %p13: Tensor[(1), float32] /* ty=Tensor[(1), float32] */, Primitive=1) -> Tensor[(1, 4, 2), float32] {
    add(%p012, %p13) /* ty=Tensor[(1, 4, 2), float32] span=from_string:35:29 */
  } /* ty=fn (Tensor[(1, 4, 2), float32], Tensor[(1), float32]) -> Tensor[(1, 4, 2), float32] */;
  %27 = fn (%p014: Tensor[(1, 18, 2), int8] /* ty=Tensor[(1, 18, 2), int8] */, Primitive=1) -> Tensor[(1, 18, 2), float32] {
    qnn.dequantize(%p014, 2f /* ty=float32 span=from_string:16:31 */, 0 /* ty=int32 span=from_string:16:74 */) /* ty=Tensor[(1, 18, 2), float32] span=from_string:18:25 */
  } /* ty=fn (Tensor[(1, 18, 2), int8]) -> Tensor[(1, 18, 2), float32] */;
  %28 = fn (%p015: Tensor[(1, 46, 2), int8] /* ty=Tensor[(1, 46, 2), int8] */, Primitive=1) -> Tensor[(1, 46, 2), float32] {
    qnn.dequantize(%p015, 0.5f /* ty=float32 span=from_string:17:33 */, 0 /* ty=int32 span=from_string:17:76 */) /* ty=Tensor[(1, 46, 2), float32] span=from_string:18:30 */
  } /* ty=fn (Tensor[(1, 46, 2), int8]) -> Tensor[(1, 46, 2), float32] */;
  %29 = %27(%x5) /* ty=Tensor[(1, 18, 2), float32] */;
  %30 = %28(%x6) /* ty=Tensor[(1, 46, 2), float32] */;
  %31 = fn (%p013: Tensor[(1, 18, 2), float32] /* ty=Tensor[(1, 18, 2), float32] */, %p14: Tensor[(1, 46, 2), float32] /* ty=Tensor[(1, 46, 2), float32] */, Primitive=1) -> Tensor[(1, 18, 46), int8] {
    %26 = nn.batch_matmul(%p013, %p14, transpose_b=True) /* ty=Tensor[(1, 18, 46), float32] span=from_string:31:22 */;
    qnn.quantize(%26, 1f /* ty=float32 span=from_string:31:29 */, 0 /* ty=int32 span=from_string:31:72 */, out_dtype="int8") /* ty=Tensor[(1, 18, 46), int8] span=from_string:35:34 */
  } /* ty=fn (Tensor[(1, 18, 2), float32], Tensor[(1, 46, 2), float32]) -> Tensor[(1, 18, 46), int8] */;
  %33 = fn (%p017: Tensor[(1), float32] /* ty=Tensor[(1), float32] */, %p16: Tensor[(1), float32] /* ty=Tensor[(1), float32] */, %p2: Tensor[(1), int32] /* ty=Tensor[(1), int32] */, Primitive=1) -> Tensor[(1), float32] {
    %32 = multiply(%p017, %p16) /* ty=Tensor[(1), float32] span=from_string:21:25 */;
    collapse_sum_to(%32, %p2, meta[relay.attrs.InitOpAttrs][0]) /* ty=Tensor[(1), float32] span=from_string:23:13 */
  } /* ty=fn (Tensor[(1), float32], Tensor[(1), float32], Tensor[(1), int32]) -> Tensor[(1), float32] */;
  %35 = fn (%p018: Tensor[(1), float32] /* ty=Tensor[(1), float32] */, %p17: Tensor[(1), float32] /* ty=Tensor[(1), float32] */, %p21: Tensor[(1), int32] /* ty=Tensor[(1), int32] */, Primitive=1) -> Tensor[(1), float32] {
    %34 = multiply(%p018, %p17) /* ty=Tensor[(1), float32] span=from_string:22:25 */;
    collapse_sum_to(%34, %p21, meta[relay.attrs.InitOpAttrs][1]) /* ty=Tensor[(1), float32] span=from_string:23:18 */
  } /* ty=fn (Tensor[(1), float32], Tensor[(1), float32], Tensor[(1), int32]) -> Tensor[(1), float32] */;
  %36 = %33(%x9, %1, meta[relay.Constant][0] /* ty=Tensor[(1), int32] span=from_string:21:35 */) /* ty=Tensor[(1), float32] */;
  %37 = %35(%x9, %1, meta[relay.Constant][1] /* ty=Tensor[(1), int32] span=from_string:22:35 */) /* ty=Tensor[(1), float32] */;
  %38 = fn (%p016: Tensor[(1), float32] /* ty=Tensor[(1), float32] */, %p15: Tensor[(1), float32] /* ty=Tensor[(1), float32] */, Primitive=1) -> Tensor[(1), float32] {
    add(%p016, %p15) /* ty=Tensor[(1), float32] span=from_string:24:10 */
  } /* ty=fn (Tensor[(1), float32], Tensor[(1), float32]) -> Tensor[(1), float32] */;
  %39 = %38(%36, %37) /* ty=Tensor[(1), float32] */;
  %40 = (%39,) /* ty=(Tensor[(1), float32],) span=from_string:32:15 */;
  %41 = fn (%p019: Tensor[(1, 46, 2), int8] /* ty=Tensor[(1, 46, 2), int8] */, Primitive=1) -> Tensor[(1, 2), int32] {
    argmax(%p019, axis=[1]) /* ty=Tensor[(1, 2), int32] span=from_string:35:44 */
  } /* ty=fn (Tensor[(1, 46, 2), int8]) -> Tensor[(1, 2), int32] */;
  %42 = fn (%p020: Tensor[(1, 100, 18), float32] /* ty=Tensor[(1, 100, 18), float32] */, Primitive=1) -> Tensor[(1, 100, 18), int32] {
    cast(%p020, dtype="int32") /* ty=Tensor[(1, 100, 18), int32] span=from_string:35:49 */
  } /* ty=fn (Tensor[(1, 100, 18), float32]) -> Tensor[(1, 100, 18), int32] */;
  %43 = %9(%7, %8) /* ty=Tensor[(1, 4, 4), float32] */;
  %44 = %10(%x1) /* ty=Tensor[(1, 4, 2), float32] */;
  %45 = %15(%13, %14) /* ty=Tensor[(1, 4, 100), float32] */;
  %46 = %17(%x2) /* ty=Tensor[(31, 65), int32] */;
  %47 = %24(%23) /* ty=Tensor[(1, 100, 18), int8] */;
  %48 = %25(%8, %1) /* ty=Tensor[(1, 4, 2), float32] */;
  %49 = %31(%29, %30) /* ty=Tensor[(1, 18, 46), int8] */;
  %50 = (%x8, %40) /* ty=(Tensor[(1), float32], (Tensor[(1), float32],)) span=from_string:35:39 */;
  %51 = %41(%x6) /* ty=Tensor[(1, 2), int32] */;
  %52 = %42(%23) /* ty=Tensor[(1, 100, 18), int32] */;
  (%43, %44, %45, %46, %47, %48, %49, %50, %51, %52) /* ty=(Tensor[(1, 4, 4), float32], Tensor[(1, 4, 2), float32], Tensor[(1, 4, 100), float32], Tensor[(31, 65), int32], Tensor[(1, 100, 18), int8], Tensor[(1, 4, 2), float32], Tensor[(1, 18, 46), int8], (Tensor[(1), float32], (Tensor[(1), float32],)), Tensor[(1, 2), int32], Tensor[(1, 100, 18), int32]) span=from_string:35:3 */
}

#[metadata]
{
  "root": 1, 
  "nodes": [
    {
      "type_key": ""
    }, 
    {
      "type_key": "Map", 
      "keys": [
        "relay.Constant", 
        "relay.attrs.InitOpAttrs"
      ], 
      "data": [2, 16]
    }, 
    {
      "type_key": "Array", 
      "data": [3, 11]
    }, 
    {
      "type_key": "relay.Constant", 
      "attrs": {
        "_checked_type_": "8", 
        "data": "0", 
        "span": "6", 
        "virtual_device_": "4"
      }
    }, 
    {
      "type_key": "VirtualDevice", 
      "attrs": {
        "device_type_int": "-1", 
        "memory_scope": "5", 
        "target": "0", 
        "virtual_device_id": "-1"
      }
    }, 
    {
      "type_key": "runtime.String"
    }, 
    {
      "type_key": "Span", 
      "attrs": {
        "column": "35", 
        "end_column": "53", 
        "end_line": "21", 
        "line": "21", 
        "source_name": "7"
      }
    }, 
    {
      "type_key": "SourceName", 
      "repr_str": "from_string"
    }, 
    {
      "type_key": "relay.TensorType", 
      "attrs": {
        "dtype": "int32", 
        "shape": "9", 
        "span": "0"
      }
    }, 
    {
      "type_key": "Array", 
      "data": [10]
    }, 
    {
      "type_key": "IntImm", 
      "attrs": {
        "dtype": "int32", 
        "span": "0", 
        "value": "1"
      }
    }, 
    {
      "type_key": "relay.Constant", 
      "attrs": {
        "_checked_type_": "13", 
        "data": "1", 
        "span": "12", 
        "virtual_device_": "4"
      }
    }, 
    {
      "type_key": "Span", 
      "attrs": {
        "column": "35", 
        "end_column": "53", 
        "end_line": "22", 
        "line": "22", 
        "source_name": "7"
      }
    }, 
    {
      "type_key": "relay.TensorType", 
      "attrs": {
        "dtype": "int32", 
        "shape": "14", 
        "span": "0"
      }
    }, 
    {
      "type_key": "Array", 
      "data": [15]
    }, 
    {
      "type_key": "IntImm", 
      "attrs": {
        "dtype": "int32", 
        "span": "0", 
        "value": "1"
      }
    }, 
    {
      "type_key": "Array", 
      "data": [17, 20]
    }, 
    {
      "type_key": "relay.attrs.InitOpAttrs", 
      "attrs": {
        "dtype": "", 
        "shape": "18"
      }
    }, 
    {
      "type_key": "Array", 
      "data": [19]
    }, 
    {
      "type_key": "IntImm", 
      "attrs": {
        "dtype": "int32", 
        "span": "0", 
        "value": "1"
      }
    }, 
    {
      "type_key": "relay.attrs.InitOpAttrs", 
      "attrs": {
        "dtype": "", 
        "shape": "21"
      }
    }, 
    {
      "type_key": "Array", 
      "data": [19]
    }
  ], 
  "b64ndarrays": [
    "P6G0lvBAXt0AAAAAAAAAAAEAAAAAAAAAAQAAAAAgAQABAAAAAAAAAAQAAAAAAAAAAQAAAA==", 
    "P6G0lvBAXt0AAAAAAAAAAAEAAAAAAAAAAQAAAAAgAQABAAAAAAAAAAQAAAAAAAAAAQAAAA=="
  ], 
  "attrs": {"tvm_version": "0.13.0"}
}