#[version = "0.0.5"]
def @main(%x0: Tensor[(1, 4, 2), int8] /* ty=Tensor[(1, 4, 2), int8] span=from_string:3:23 */, %x1: Tensor[(1, 4, 2), int8] /* ty=Tensor[(1, 4, 2), int8] span=from_string:7:13 */, %x2: Tensor[(31, 65), int64] /* ty=Tensor[(31, 65), int64] span=from_string:11:13 */, %x3: Tensor[(58), float32] /* ty=Tensor[(58), float32] span=from_string:29:23 */, %x4: Tensor[(1, 100, 2), int8] /* ty=Tensor[(1, 100, 2), int8] span=from_string:12:23 */, %x5: Tensor[(1, 18, 2), int8] /* ty=Tensor[(1, 18, 2), int8] span=from_string:16:24 */, %x6: Tensor[(1, 46, 2), int8] /* ty=Tensor[(1, 46, 2), int8] span=from_string:27:24 */, %x7: Tensor[(49, 17, 31), int32] /* ty=Tensor[(49, 17, 31), int32] span=from_string:37:24 */) -> (Tensor[(1, 4, 4), float32], Tensor[(1, 4, 2), float32], Tensor[(1, 4, 100), float32], Tensor[(31, 65), int32], Tensor[(1, 100, 18), int8], Tensor[(1, 4, 2), float32], Tensor[(1, 18, 46), int8], (Tensor[(1), float32], (Tensor[(1), float32],)), Tensor[(1, 2), int32], Tensor[(1, 100, 18), int32]) {
  %0 = qnn.dequantize(%x0, 2f /* ty=float32 span=from_string:3:30 */, 0 /* ty=int32 span=from_string:3:72 */) /* ty=Tensor[(1, 4, 2), float32] span=from_string:30:25 */;
  %1 = qnn.dequantize(%x1, 6f /* ty=float32 span=from_string:4:30 */, 0 /* ty=int32 span=from_string:4:72 */) /* ty=Tensor[(1, 4, 2), float32] span=from_string:33:13 */;
  %2 = nn.batch_matmul(%0, %1, transpose_b=True) /* ty=Tensor[(1, 4, 4), float32] span=from_string:6:12 */;
  %3 = add(%2, 1f /* ty=float32 span=from_string:6:18 */) /* ty=Tensor[(1, 4, 4), float32] span=from_string:28:13 */;
  %4 = cast(%x1, dtype="int16") /* ty=Tensor[(1, 4, 2), int16] span=from_string:8:13 */;
  %5 = cast(%4, dtype="int32") /* ty=Tensor[(1, 4, 2), int32] span=from_string:9:18 */;
  %6 = cast_like(%5, %x2) /* ty=Tensor[(1, 4, 2), int64] span=from_string:29:19 */;
  %7 = qnn.dequantize(%x4, 6f /* ty=float32 span=from_string:10:30 */, 0 /* ty=int32 span=from_string:10:73 */) /* ty=Tensor[(1, 100, 2), float32] span=from_string:30:29 */;
  %8 = cast(%x2, dtype="bool") /* ty=Tensor[(31, 65), bool] span=from_string:31:14 */;
  %9 = qnn.batch_matmul(%x4, %x5, 0 /* ty=int32 span=from_string:12:73 */, 0 /* ty=int32 span=from_string:13:76 */, 2f /* ty=float32 span=from_string:12:30 */, 0.5f /* ty=float32 span=from_string:13:33 */, out_dtype="int32", transpose_b=True) /* ty=Tensor[(1, 100, 18), int32] */;
  %10 = ones(shape=[1], dtype="float32") /* ty=Tensor[(1), float32] span=from_string:33:17 */;
  %11 = qnn.batch_matmul(%x5, %x6, 0 /* ty=int32 span=from_string:16:74 */, 0 /* ty=int32 span=from_string:17:76 */, 2f /* ty=float32 span=from_string:16:31 */, 0.5f /* ty=float32 span=from_string:17:33 */, out_dtype="int32", transpose_b=True) /* ty=Tensor[(1, 18, 46), int32] */;
  %12 = multiply(%10, %10) /* ty=Tensor[(1), float32] span=from_string:35:10 */;
  %13 = ones_like(%12) /* ty=Tensor[(1), float32] span=from_string:21:19 */;
  %14 = multiply(%13, %10) /* ty=Tensor[(1), float32] span=from_string:23:27 */;
  %15 = zeros_like(%10) /* ty=Tensor[(1), float32] span=from_string:24:13 */;
  %16 = collapse_sum_like(%14, %10) /* ty=Tensor[(1), float32] span=from_string:25:18 */;
  %17 = add(%15, %16) /* ty=Tensor[(1), float32] span=from_string:25:13 */;
  %18 = add(%17, %16) /* ty=Tensor[(1), float32] span=from_string:26:10 */;
  %19 = (%18,) /* ty=(Tensor[(1), float32],) span=from_string:35:15 */;
  %20 = qnn.dequantize(%x6, 2f /* ty=float32 span=from_string:27:31 */, 0 /* ty=int32 span=from_string:27:74 */) /* ty=Tensor[(1, 46, 2), float32] span=from_string:36:16 */;
  %21 = qnn.dequantize(%x4, 2f /* ty=float32 span=from_string:12:30 */, 0 /* ty=int32 span=from_string:12:73 */) /* ty=Tensor[(1, 100, 2), float32] span=from_string:14:25 */;
  %22 = qnn.dequantize(%x5, 0.5f /* ty=float32 span=from_string:13:33 */, 0 /* ty=int32 span=from_string:13:76 */) /* ty=Tensor[(1, 18, 2), float32] span=from_string:14:29 */;
  %23 = nn.batch_matmul(%21, %22, transpose_b=True) /* ty=Tensor[(1, 100, 18), float32] span=from_string:37:19 */;
  %24 = erf(%3) /* ty=Tensor[(1, 4, 4), float32] span=from_string:38:4 */;
  %25 = cast_like(%6, %x3) /* ty=Tensor[(1, 4, 2), float32] span=from_string:38:9 */;
  %26 = nn.batch_matmul(%0, %7, transpose_b=True) /* ty=Tensor[(1, 4, 100), float32] span=from_string:38:14 */;
  %27 = cast(%8, dtype="int32") /* ty=Tensor[(31, 65), int32] span=from_string:38:19 */;
  %28 = qnn.requantize(%9, 1f /* ty=float32 */, 0 /* ty=int32 */, 1f /* ty=float32 span=from_string:32:29 */, 0 /* ty=int32 span=from_string:32:72 */, out_dtype="int8") /* ty=Tensor[(1, 100, 18), int8] */;
  %29 = add(%1, %10) /* ty=Tensor[(1, 4, 2), float32] span=from_string:38:29 */;
  %30 = qnn.requantize(%11, 1f /* ty=float32 */, 0 /* ty=int32 */, 1f /* ty=float32 span=from_string:34:29 */, 0 /* ty=int32 span=from_string:34:72 */, out_dtype="int8") /* ty=Tensor[(1, 18, 46), int8] */;
  %31 = (%12, %19) /* ty=(Tensor[(1), float32], (Tensor[(1), float32],)) span=from_string:38:39 */;
  %32 = argmax(%20, axis=[1]) /* ty=Tensor[(1, 2), int32] span=from_string:38:44 */;
  %33 = cast_like(%23, %x7) /* ty=Tensor[(1, 100, 18), int32] span=from_string:38:49 */;
  (%24, %25, %26, %27, %28, %29, %30, %31, %32, %33) /* ty=(Tensor[(1, 4, 4), float32], Tensor[(1, 4, 2), float32], Tensor[(1, 4, 100), float32], Tensor[(31, 65), int32], Tensor[(1, 100, 18), int8], Tensor[(1, 4, 2), float32], Tensor[(1, 18, 46), int8], (Tensor[(1), float32], (Tensor[(1), float32],)), Tensor[(1, 2), int32], Tensor[(1, 100, 18), int32]) span=from_string:3:3 */
}
