#[version = "0.0.5"]
def @main(%x0: Tensor[(1, 3, 224, 224), int8] /* ty=Tensor[(1, 3, 224, 224), int8] span=from_string:43:24 */, %x1: Tensor[(9, 224, 224), float32] /* ty=Tensor[(9, 224, 224), float32] */, %x2: Tensor[(58), int32] /* ty=Tensor[(58), int32] */) -> ((Tensor[(1, 27, 112, 112), float32], Tensor[(1, 27, 112, 112), float32]), Tensor[(1, 3, 224, 224), float32], Tensor[(1, 9, 224, 224), float32], (Tensor[(1, 3, 224, 224), float32], (Tensor[(1, 3, 224, 224), float32],)), Tensor[(3, 1, 222, 222), float32], Tensor[(4), int32], float32, (Tensor[(1, 3, 224, 224), float32], Tensor[(1, 3, 224, 224), float32]), Tensor[(1, 3, 224, 224), int8]) {
  %12 = fn (%p02: Tensor[(1, 3, 224, 224), int8] /* ty=Tensor[(1, 3, 224, 224), int8] */, Primitive=1) -> Tensor[(1, 3, 224, 224), float32] {
    qnn.dequantize(%p02, 2f /* ty=float32 span=from_string:3:30 */, -12 /* ty=int32 span=from_string:3:74 */) /* ty=Tensor[(1, 3, 224, 224), float32] span=from_string:37:23 */
  } /* ty=fn (Tensor[(1, 3, 224, 224), int8]) -> Tensor[(1, 3, 224, 224), float32] */;
  %13 = %12(%x0) /* ty=Tensor[(1, 3, 224, 224), float32] */;
  %14 = fn (%p03: Tensor[(1, 3, 224, 224), float32] /* ty=Tensor[(1, 3, 224, 224), float32] */, Primitive=1) -> Tensor[(1, 3, 224, 224), float32] {
    add(%p03, 1f /* ty=float32 span=from_string:4:18 */) /* ty=Tensor[(1, 3, 224, 224), float32] span=from_string:27:26 */
  } /* ty=fn (Tensor[(1, 3, 224, 224), float32]) -> Tensor[(1, 3, 224, 224), float32] */;
  %15 = fn (%p04: Tensor[(1, 3, 224, 224), float32] /* ty=Tensor[(1, 3, 224, 224), float32] */, Primitive=1) -> Tensor[(1, 3, 224, 224), float32] {
    add(%p04, 1f /* ty=float32 span=from_string:5:18 */) /* ty=Tensor[(1, 3, 224, 224), float32] span=from_string:35:23 */
  } /* ty=fn (Tensor[(1, 3, 224, 224), float32]) -> Tensor[(1, 3, 224, 224), float32] */;
  %21 = fn (%p05: Tensor[(1, 3, 224, 224), float32] /* ty=Tensor[(1, 3, 224, 224), float32] */, Primitive=1) -> Tensor[(1, 9, 224, 224), float32] {
    %16 = add(%p05, 1f /* ty=float32 span=from_string:9:18 */) /* ty=Tensor[(1, 3, 224, 224), float32] span=from_string:12:9 */;
    %17 = add(%p05, 1f /* ty=float32 span=from_string:10:18 */) /* ty=Tensor[(1, 3, 224, 224), float32] span=from_string:12:13 */;
    %18 = add(%p05, 1f /* ty=float32 span=from_string:11:18 */) /* ty=Tensor[(1, 3, 224, 224), float32] span=from_string:12:17 */;
    %19 = (%16, %17, %18) /* ty=(Tensor[(1, 3, 224, 224), float32], Tensor[(1, 3, 224, 224), float32], Tensor[(1, 3, 224, 224), float32]) span=from_string:13:21 */;
    %20 = concatenate(%19, axis=1) /* ty=Tensor[(1, 9, 224, 224), float32] span=from_string:20:13 */;
    add(%20, 1f /* ty=float32 span=from_string:20:20 */) /* ty=Tensor[(1, 9, 224, 224), float32] span=from_string:47:17 */
  } /* ty=fn (Tensor[(1, 3, 224, 224), float32]) -> Tensor[(1, 9, 224, 224), float32] */;
  %22 = %14(%13) /* ty=Tensor[(1, 3, 224, 224), float32] */;
  %23 = %15(%13) /* ty=Tensor[(1, 3, 224, 224), float32] */;
  %24 = %21(%13) /* ty=Tensor[(1, 9, 224, 224), float32] */;
  %25 = fn (%p01: Tensor[(1, 3, 224, 224), float32] /* ty=Tensor[(1, 3, 224, 224), float32] */, %p1: Tensor[(1, 3, 224, 224), float32] /* ty=Tensor[(1, 3, 224, 224), float32] */, %p2: Tensor[(1, 3, 224, 224), float32] /* ty=Tensor[(1, 3, 224, 224), float32] */, %p3: Tensor[(1, 9, 224, 224), float32] /* ty=Tensor[(1, 9, 224, 224), float32] */, Primitive=1) -> Tensor[(1, 27, 224, 224), float32] {
    %1 = add(%p01, 1f /* ty=float32 span=from_string:6:18 */) /* ty=Tensor[(1, 3, 224, 224), float32] span=from_string:7:17 */;
    %2 = (%p1, %p2, %1) /* ty=(Tensor[(1, 3, 224, 224), float32], Tensor[(1, 3, 224, 224), float32], Tensor[(1, 3, 224, 224), float32]) span=from_string:8:20 */;
    %3 = concatenate(%2, axis=1) /* ty=Tensor[(1, 9, 224, 224), float32] span=from_string:19:13 */;
    %4 = add(%p01, 1f /* ty=float32 span=from_string:14:19 */) /* ty=Tensor[(1, 3, 224, 224), float32] span=from_string:17:10 */;
    %5 = add(%p01, 1f /* ty=float32 span=from_string:15:19 */) /* ty=Tensor[(1, 3, 224, 224), float32] span=from_string:17:15 */;
    %6 = add(%p01, 1f /* ty=float32 span=from_string:16:19 */) /* ty=Tensor[(1, 3, 224, 224), float32] span=from_string:17:20 */;
    %7 = (%4, %5, %6) /* ty=(Tensor[(1, 3, 224, 224), float32], Tensor[(1, 3, 224, 224), float32], Tensor[(1, 3, 224, 224), float32]) span=from_string:18:21 */;
    %8 = concatenate(%7, axis=1) /* ty=Tensor[(1, 9, 224, 224), float32] span=from_string:21:13 */;
    %9 = add(%3, 1f /* ty=float32 span=from_string:19:19 */) /* ty=Tensor[(1, 9, 224, 224), float32] span=from_string:22:10 */;
    %10 = add(%8, 1f /* ty=float32 span=from_string:21:20 */) /* ty=Tensor[(1, 9, 224, 224), float32] span=from_string:22:20 */;
    %11 = (%9, %p3, %10) /* ty=(Tensor[(1, 9, 224, 224), float32], Tensor[(1, 9, 224, 224), float32], Tensor[(1, 9, 224, 224), float32]) span=from_string:23:21 */;
    concatenate(%11, axis=1) /* ty=Tensor[(1, 27, 224, 224), float32] span=from_string:24:24 */
  } /* ty=fn (Tensor[(1, 3, 224, 224), float32], Tensor[(1, 3, 224, 224), float32], Tensor[(1, 3, 224, 224), float32], Tensor[(1, 9, 224, 224), float32]) -> Tensor[(1, 27, 224, 224), float32] */;
  %26 = %25(%13, %22, %23, %24) /* ty=Tensor[(1, 27, 224, 224), float32] */;
  %27 = fn (%p0: Tensor[(1, 27, 224, 224), float32] /* ty=Tensor[(1, 27, 224, 224), float32] */, Primitive=1) -> Tensor[(1, 27, 112, 112), float32] {
    %0 = nn.max_pool2d(%p0, pool_size=[2, 2], strides=[2, 2], padding=[0, 0, 0, 0]) /* ty=Tensor[(1, 27, 112, 112), float32] span=from_string:25:13 */;
    add(%0, 1f /* ty=float32 span=from_string:25:20 */) /* ty=Tensor[(1, 27, 112, 112), float32] span=from_string:45:10 */
  } /* ty=fn (Tensor[(1, 27, 224, 224), float32]) -> Tensor[(1, 27, 112, 112), float32] */;
  %28 = %27(%26) /* ty=Tensor[(1, 27, 112, 112), float32] */;
  %29 = fn (%p06: Tensor[(1, 27, 112, 112), float32] /* ty=Tensor[(1, 27, 112, 112), float32] */, Primitive=1) -> Tensor[(1, 27, 112, 112), float32] {
    add(%p06, 1f /* ty=float32 span=from_string:26:20 */) /* ty=Tensor[(1, 27, 112, 112), float32] span=from_string:45:15 */
  } /* ty=fn (Tensor[(1, 27, 112, 112), float32]) -> Tensor[(1, 27, 112, 112), float32] */;
  %30 = %29(%28) /* ty=Tensor[(1, 27, 112, 112), float32] */;
  %33 = fn (%p07: Tensor[(1, 3, 224, 224), float32] /* ty=Tensor[(1, 3, 224, 224), float32] */, Primitive=1) -> Tensor[(1, 3, 224, 224), float32] {
    %31 = layout_transform(%p07, src_layout="NHWC", dst_layout="NCHW4c") /* ty=Tensor[(1, 56, 3, 224, 4), float32] span=from_string:28:17 */;
    %32 = nn.relu(%31) /* ty=Tensor[(1, 56, 3, 224, 4), float32] span=from_string:46:26 */;
    layout_transform(%32, src_layout="NCHW4c", dst_layout="NHWC") /* ty=Tensor[(1, 3, 224, 224), float32] span=from_string:52:9 */
  } /* ty=fn (Tensor[(1, 3, 224, 224), float32]) -> Tensor[(1, 3, 224, 224), float32] */;
  %34 = fn (%p08: Tensor[(1, 9, 224, 224), float32] /* ty=Tensor[(1, 9, 224, 224), float32] */, Primitive=1, relay.reshape_only=1) -> Tensor[(1, 9, 224, 224), float32] {
    reshape(%p08, newshape=[1, 9, 224, 224]) /* ty=Tensor[(1, 9, 224, 224), float32] span=from_string:52:14 */
  } /* ty=fn (Tensor[(1, 9, 224, 224), float32]) -> Tensor[(1, 9, 224, 224), float32] */;
  %35 = fn (%p09: Tensor[(1, 3, 224, 224), float32] /* ty=Tensor[(1, 3, 224, 224), float32] */, Primitive=1) -> Tensor[(1, 3, 224, 224), float32] {
    multiply(%p09, %p09) /* ty=Tensor[(1, 3, 224, 224), float32] span=from_string:48:10 */
  } /* ty=fn (Tensor[(1, 3, 224, 224), float32]) -> Tensor[(1, 3, 224, 224), float32] */;
  %36 = fn (Primitive=1) -> Tensor[(1, 3, 224, 224), float32] {
    ones(shape=[1, 3, 224, 224], dtype="float32") /* ty=Tensor[(1, 3, 224, 224), float32] span=from_string:31:19 */
  } /* ty=fn () -> Tensor[(1, 3, 224, 224), float32] */;
  %37 = %36() /* ty=Tensor[(1, 3, 224, 224), float32] */;
  %38 = fn (%p012: Tensor[(1, 3, 224, 224), float32] /* ty=Tensor[(1, 3, 224, 224), float32] */, %p13: Tensor[(1, 3, 224, 224), float32] /* ty=Tensor[(1, 3, 224, 224), float32] */, Primitive=1) -> Tensor[(1, 3, 224, 224), float32] {
    multiply(%p012, %p13) /* ty=Tensor[(1, 3, 224, 224), float32] span=from_string:50:15 */
  } /* ty=fn (Tensor[(1, 3, 224, 224), float32], Tensor[(1, 3, 224, 224), float32]) -> Tensor[(1, 3, 224, 224), float32] */;
  %39 = %38(%37, %23) /* ty=Tensor[(1, 3, 224, 224), float32] */;
  %40 = fn (%p011: Tensor[(1, 3, 224, 224), float32] /* ty=Tensor[(1, 3, 224, 224), float32] */, %p12: Tensor[(4), int32] /* ty=Tensor[(4), int32] */, Primitive=1) -> Tensor[(1, 3, 224, 224), float32] {
    collapse_sum_to(%p011, %p12, meta[relay.attrs.InitOpAttrs][0]) /* ty=Tensor[(1, 3, 224, 224), float32] span=from_string:34:13 */
  } /* ty=fn (Tensor[(1, 3, 224, 224), float32], Tensor[(4), int32]) -> Tensor[(1, 3, 224, 224), float32] */;
  %42 = fn (%p013: Tensor[(1, 3, 224, 224), float32] /* ty=Tensor[(1, 3, 224, 224), float32] */, %p14: Tensor[(1, 3, 224, 224), float32] /* ty=Tensor[(1, 3, 224, 224), float32] */, %p21: Tensor[(4), int32] /* ty=Tensor[(4), int32] */, Primitive=1) -> Tensor[(1, 3, 224, 224), float32] {
    %41 = multiply(%p013, %p14) /* ty=Tensor[(1, 3, 224, 224), float32] span=from_string:33:25 */;
    collapse_sum_to(%41, %p21, meta[relay.attrs.InitOpAttrs][1]) /* ty=Tensor[(1, 3, 224, 224), float32] span=from_string:34:18 */
  } /* ty=fn (Tensor[(1, 3, 224, 224), float32], Tensor[(1, 3, 224, 224), float32], Tensor[(4), int32]) -> Tensor[(1, 3, 224, 224), float32] */;
  %43 = %40(%39, meta[relay.Constant][0] /* ty=Tensor[(4), int32] span=from_string:32:35 */) /* ty=Tensor[(1, 3, 224, 224), float32] */;
  %44 = %42(%37, %23, meta[relay.Constant][1] /* ty=Tensor[(4), int32] span=from_string:33:35 */) /* ty=Tensor[(1, 3, 224, 224), float32] */;
  %45 = fn (%p010: Tensor[(1, 3, 224, 224), float32] /* ty=Tensor[(1, 3, 224, 224), float32] */, %p11: Tensor[(1, 3, 224, 224), float32] /* ty=Tensor[(1, 3, 224, 224), float32] */, Primitive=1) -> Tensor[(1, 3, 224, 224), float32] {
    add(%p010, %p11) /* ty=Tensor[(1, 3, 224, 224), float32] span=from_string:36:10 */
  } /* ty=fn (Tensor[(1, 3, 224, 224), float32], Tensor[(1, 3, 224, 224), float32]) -> Tensor[(1, 3, 224, 224), float32] */;
  %46 = %45(%43, %44) /* ty=Tensor[(1, 3, 224, 224), float32] */;
  %47 = %35(%23) /* ty=Tensor[(1, 3, 224, 224), float32] */;
  %48 = (%46,) /* ty=(Tensor[(1, 3, 224, 224), float32],) span=from_string:48:15 */;
  %52 = fn (%p015: Tensor[(1, 3, 224, 224), float32] /* ty=Tensor[(1, 3, 224, 224), float32] */, Primitive=1) -> Tensor[(1, 3, 222, 222), float32] {
    %50 = nn.avg_pool2d(%p015, pool_size=[3, 3], padding=[0, 0, 0, 0]) /* ty=Tensor[(1, 3, 222, 222), float32] span=from_string:38:22 */;
    %51 = qnn.quantize(%50, 0.5f /* ty=float32 span=from_string:38:31 */, 10 /* ty=int32 span=from_string:38:75 */, out_dtype="int8") /* ty=Tensor[(1, 3, 222, 222), int8] span=from_string:39:24 */;
    qnn.dequantize(%51, 2f /* ty=float32 span=from_string:39:31 */, 0 /* ty=int32 span=from_string:39:74 */) /* ty=Tensor[(1, 3, 222, 222), float32] span=from_string:40:17 */
  } /* ty=fn (Tensor[(1, 3, 224, 224), float32]) -> Tensor[(1, 3, 222, 222), float32] */;
  %53 = %52(%13) /* ty=Tensor[(1, 3, 222, 222), float32] */;
  %54 = fn (%p014: Tensor[(1, 3, 222, 222), float32] /* ty=Tensor[(1, 3, 222, 222), float32] */, Primitive=1) -> Tensor[(3, 1, 222, 222), float32] {
    %49 = reshape(%p014, newshape=[3, 1, 222, 222]) /* ty=Tensor[(3, 1, 222, 222), float32] span=from_string:49:13 */;
    erf(%49) /* ty=Tensor[(3, 1, 222, 222), float32] span=from_string:52:24 */
  } /* ty=fn (Tensor[(1, 3, 222, 222), float32]) -> Tensor[(3, 1, 222, 222), float32] */;
  %55 = fn (%p017: Tensor[(1, 3, 224, 224), float32] /* ty=Tensor[(1, 3, 224, 224), float32] */, Primitive=1) -> Tensor[(1, 3, 112, 112), float32] {
    nn.max_pool2d(%p017, pool_size=[2, 2], strides=[2, 2], padding=[0, 0, 0, 0]) /* ty=Tensor[(1, 3, 112, 112), float32] span=from_string:42:23 */
  } /* ty=fn (Tensor[(1, 3, 224, 224), float32]) -> Tensor[(1, 3, 112, 112), float32] */;
  %56 = %55(%39) /* ty=Tensor[(1, 3, 112, 112), float32] */;
  %57 = fn (%p016: Tensor[(1, 3, 112, 112), float32] /* ty=Tensor[(1, 3, 112, 112), float32] */, Primitive=1) -> Tensor[(1, 3, 224, 224), float32] {
    nn.upsampling(%p016, scale_h=2f, scale_w=2f) /* ty=Tensor[(1, 3, 224, 224), float32] span=from_string:50:10 */
  } /* ty=fn (Tensor[(1, 3, 112, 112), float32]) -> Tensor[(1, 3, 224, 224), float32] */;
  %58 = %57(%56) /* ty=Tensor[(1, 3, 224, 224), float32] */;
  %61 = fn (%p018: Tensor[(1, 3, 224, 224), int8] /* ty=Tensor[(1, 3, 224, 224), int8] */, Primitive=1) -> Tensor[(1, 3, 224, 224), int8] {
    %59 = qnn.dequantize(%p018, 0.626659f /* ty=float32 span=from_string:43:38 */, -128 /* ty=int32 span=from_string:43:84 */) /* ty=Tensor[(1, 3, 224, 224), float32] span=from_string:44:14 */;
    %60 = sqrt(%59) /* ty=Tensor[(1, 3, 224, 224), float32] span=from_string:51:22 */;
    qnn.quantize(%60, 0.13107f /* ty=float32 span=from_string:51:35 */, -128 /* ty=int32 span=from_string:51:81 */, out_dtype="int8") /* ty=Tensor[(1, 3, 224, 224), int8] span=from_string:52:155 */
  } /* ty=fn (Tensor[(1, 3, 224, 224), int8]) -> Tensor[(1, 3, 224, 224), int8] */;
  %62 = (%28, %30) /* ty=(Tensor[(1, 27, 112, 112), float32], Tensor[(1, 27, 112, 112), float32]) span=from_string:52:4 */;
  %63 = %33(%22) /* ty=Tensor[(1, 3, 224, 224), float32] */;
  %64 = %34(%24) /* ty=Tensor[(1, 9, 224, 224), float32] */;
  %65 = (%47, %48) /* ty=(Tensor[(1, 3, 224, 224), float32], (Tensor[(1, 3, 224, 224), float32],)) span=from_string:52:19 */;
  %66 = %54(%53) /* ty=Tensor[(3, 1, 222, 222), float32] */;
  %67 = (%58, %39) /* ty=(Tensor[(1, 3, 224, 224), float32], Tensor[(1, 3, 224, 224), float32]) span=from_string:52:150 */;
  %68 = %61(%x0) /* ty=Tensor[(1, 3, 224, 224), int8] */;
  (%62, %63, %64, %65, %66, meta[relay.Constant][2] /* ty=Tensor[(4), int32] span=from_string:52:34 */, 1f /* ty=float32 span=from_string:52:107 */, %67, %68) /* ty=((Tensor[(1, 27, 112, 112), float32], Tensor[(1, 27, 112, 112), float32]), Tensor[(1, 3, 224, 224), float32], Tensor[(1, 9, 224, 224), float32], (Tensor[(1, 3, 224, 224), float32], (Tensor[(1, 3, 224, 224), float32],)), Tensor[(3, 1, 222, 222), float32], Tensor[(4), int32], float32, (Tensor[(1, 3, 224, 224), float32], Tensor[(1, 3, 224, 224), float32]), Tensor[(1, 3, 224, 224), int8]) span=from_string:3:3 */
}

#[metadata]
{
  "root": 1, 
  "nodes": [
    {
      "type_key": ""
    }, 
    {
      "type_key": "Map", 
      "keys": [
        "relay.Constant", 
        "relay.attrs.InitOpAttrs"
      ], 
      "data": [2, 24]
    }, 
    {
      "type_key": "Array", 
      "data": [3, 11, 16]
    }, 
    {
      "type_key": "relay.Constant", 
      "attrs": {
        "_checked_type_": "8", 
        "data": "0", 
        "span": "6", 
        "virtual_device_": "4"
      }
    }, 
    {
      "type_key": "VirtualDevice", 
      "attrs": {
        "device_type_int": "-1", 
        "memory_scope": "5", 
        "target": "0", 
        "virtual_device_id": "-1"
      }
    }, 
    {
      "type_key": "runtime.String"
    }, 
    {
      "type_key": "Span", 
      "attrs": {
        "column": "35", 
        "end_column": "53", 
        "end_line": "32", 
        "line": "32", 
        "source_name": "7"
      }
    }, 
    {
      "type_key": "SourceName", 
      "repr_str": "from_string"
    }, 
    {
      "type_key": "relay.TensorType", 
      "attrs": {
        "dtype": "int32", 
        "shape": "9", 
        "span": "0"
      }
    }, 
    {
      "type_key": "Array", 
      "data": [10]
    }, 
    {
      "type_key": "IntImm", 
      "attrs": {
        "dtype": "int32", 
        "span": "0", 
        "value": "4"
      }
    }, 
    {
      "type_key": "relay.Constant", 
      "attrs": {
        "_checked_type_": "13", 
        "data": "1", 
        "span": "12", 
        "virtual_device_": "4"
      }
    }, 
    {
      "type_key": "Span", 
      "attrs": {
        "column": "35", 
        "end_column": "53", 
        "end_line": "33", 
        "line": "33", 
        "source_name": "7"
      }
    }, 
    {
      "type_key": "relay.TensorType", 
      "attrs": {
        "dtype": "int32", 
        "shape": "14", 
        "span": "0"
      }
    }, 
    {
      "type_key": "Array", 
      "data": [15]
    }, 
    {
      "type_key": "IntImm", 
      "attrs": {
        "dtype": "int32", 
        "span": "0", 
        "value": "4"
      }
    }, 
    {
      "type_key": "relay.Constant", 
      "attrs": {
        "_checked_type_": "20", 
        "data": "2", 
        "span": "19", 
        "virtual_device_": "17"
      }
    }, 
    {
      "type_key": "VirtualDevice", 
      "attrs": {
        "device_type_int": "-1", 
        "memory_scope": "18", 
        "target": "0", 
        "virtual_device_id": "-1"
      }
    }, 
    {
      "type_key": "runtime.String"
    }, 
    {
      "type_key": "Span", 
      "attrs": {
        "column": "34", 
        "end_column": "52", 
        "end_line": "52", 
        "line": "52", 
        "source_name": "7"
      }
    }, 
    {
      "type_key": "relay.TensorType", 
      "attrs": {
        "dtype": "int32", 
        "shape": "21", 
        "span": "23"
      }
    }, 
    {
      "type_key": "Array", 
      "data": [22]
    }, 
    {
      "type_key": "IntImm", 
      "attrs": {
        "dtype": "int32", 
        "span": "0", 
        "value": "4"
      }
    }, 
    {
      "type_key": "Span", 
      "attrs": {
        "column": "528", 
        "end_column": "548", 
        "end_line": "2", 
        "line": "2", 
        "source_name": "7"
      }
    }, 
    {
      "type_key": "Array", 
      "data": [25, 31]
    }, 
    {
      "type_key": "relay.attrs.InitOpAttrs", 
      "attrs": {
        "dtype": "", 
        "shape": "26"
      }
    }, 
    {
      "type_key": "Array", 
      "data": [27, 28, 29, 30]
    }, 
    {
      "type_key": "IntImm", 
      "attrs": {
        "dtype": "int32", 
        "span": "0", 
        "value": "1"
      }
    }, 
    {
      "type_key": "IntImm", 
      "attrs": {
        "dtype": "int32", 
        "span": "0", 
        "value": "3"
      }
    }, 
    {
      "type_key": "IntImm", 
      "attrs": {
        "dtype": "int32", 
        "span": "0", 
        "value": "224"
      }
    }, 
    {
      "type_key": "IntImm", 
      "attrs": {
        "dtype": "int32", 
        "span": "0", 
        "value": "224"
      }
    }, 
    {
      "type_key": "relay.attrs.InitOpAttrs", 
      "attrs": {
        "dtype": "", 
        "shape": "32"
      }
    }, 
    {
      "type_key": "Array", 
      "data": [27, 28, 29, 30]
    }
  ], 
  "b64ndarrays": [
    "P6G0lvBAXt0AAAAAAAAAAAEAAAAAAAAAAQAAAAAgAQAEAAAAAAAAABAAAAAAAAAAAQAAAAMAAADgAAAA4AAAAA==", 
    "P6G0lvBAXt0AAAAAAAAAAAEAAAAAAAAAAQAAAAAgAQAEAAAAAAAAABAAAAAAAAAAAQAAAAMAAADgAAAA4AAAAA==", 
    "P6G0lvBAXt0AAAAAAAAAAAEAAAAAAAAAAQAAAAAgAQAEAAAAAAAAABAAAAAAAAAAAQAAAAkAAADgAAAA4AAAAA=="
  ], 
  "attrs": {"tvm_version": "0.13.0"}
}