#[version = "0.0.5"]
def @main(%x0: Tensor[(1, 3, 224, 224), int8] /* ty=Tensor[(1, 3, 224, 224), int8] span=from_string:76:30 */, %x1: Tensor[(9, 224, 224), float32] /* ty=Tensor[(9, 224, 224), float32] */, %x2: Tensor[(58), int32] /* ty=Tensor[(58), int32] */) -> ((Tensor[(1, 27, 112, 112), float32], Tensor[(1, 27, 112, 112), float32]), Tensor[(1, 3, 224, 224), float32], Tensor[(1, 9, 224, 224), float32], (Tensor[(1, 3, 224, 224), float32], (Tensor[(1, 3, 224, 224), float32],)), Tensor[(3, 1, 222, 222), float32], Tensor[(4), int32], float32, (Tensor[(1, 3, 224, 224), float32], Tensor[(1, 3, 224, 224), float32]), Tensor[(1, 3, 224, 224), int8]) {
  let %x_0: float32 /* ty=float32 span=from_string:5:34 */ = 2f /* ty=float32 span=from_string:3:16 */;
  let %x_1: int32 /* ty=int32 span=from_string:5:40 */ = -12 /* ty=int32 span=from_string:4:17 */;
  %0 = fn (%p0: Tensor[(1, 3, 224, 224), int8] /* ty=Tensor[(1, 3, 224, 224), int8] */, %p1: float32 /* ty=float32 */, %p2: int32 /* ty=int32 */, Primitive=1) -> Tensor[(1, 3, 224, 224), float32] {
    qnn.dequantize(%p0, %p1, %p2) /* ty=Tensor[(1, 3, 224, 224), float32] span=from_string:5:14 */
  } /* ty=fn (Tensor[(1, 3, 224, 224), int8], float32, int32) -> Tensor[(1, 3, 224, 224), float32] */;
  let %x_2: Tensor[(1, 3, 224, 224), float32] /* ty=Tensor[(1, 3, 224, 224), float32] span=from_string:62:29 */ = %0(%x0, %x_0, %x_1) /* ty=Tensor[(1, 3, 224, 224), float32] */;
  let %x_3: float32 /* ty=float32 span=from_string:7:24 */ = 1f /* ty=float32 span=from_string:6:16 */;
  %1 = fn (%p01: Tensor[(1, 3, 224, 224), float32] /* ty=Tensor[(1, 3, 224, 224), float32] */, %p11: float32 /* ty=float32 */, Primitive=1) -> Tensor[(1, 3, 224, 224), float32] {
    add(%p01, %p11) /* ty=Tensor[(1, 3, 224, 224), float32] span=from_string:7:14 */
  } /* ty=fn (Tensor[(1, 3, 224, 224), float32], float32) -> Tensor[(1, 3, 224, 224), float32] */;
  let %x_4: Tensor[(1, 3, 224, 224), float32] /* ty=Tensor[(1, 3, 224, 224), float32] span=from_string:58:40 */ = %1(%x_2, %x_3) /* ty=Tensor[(1, 3, 224, 224), float32] */;
  %2 = fn (%p02: Tensor[(1, 3, 224, 224), float32] /* ty=Tensor[(1, 3, 224, 224), float32] */, Primitive=1) -> Tensor[(1, 3, 224, 224), float32] {
    multiply(%p02, %p02) /* ty=Tensor[(1, 3, 224, 224), float32] span=from_string:8:15 */
  } /* ty=fn (Tensor[(1, 3, 224, 224), float32]) -> Tensor[(1, 3, 224, 224), float32] */;
  let %x_5: Tensor[(1, 3, 224, 224), float32] /* ty=Tensor[(1, 3, 224, 224), float32] span=from_string:61:16 */ = %2(%x_4) /* ty=Tensor[(1, 3, 224, 224), float32] */;
  %3 = fn (%p03: Tensor[(1, 3, 224, 224), float32] /* ty=Tensor[(1, 3, 224, 224), float32] */, Primitive=1) -> Tensor[(1, 3, 224, 224), float32] {
    ones_like(%p03) /* ty=Tensor[(1, 3, 224, 224), float32] span=from_string:9:14 */
  } /* ty=fn (Tensor[(1, 3, 224, 224), float32]) -> Tensor[(1, 3, 224, 224), float32] */;
  let %x_6: Tensor[(1, 3, 224, 224), float32] /* ty=Tensor[(1, 3, 224, 224), float32] span=from_string:57:25 */ = %3(%x_5) /* ty=Tensor[(1, 3, 224, 224), float32] */;
  let %x_7: float32 /* ty=float32 span=from_string:11:24 */ = 1f /* ty=float32 span=from_string:10:16 */;
  %4 = fn (%p04: Tensor[(1, 3, 224, 224), float32] /* ty=Tensor[(1, 3, 224, 224), float32] */, %p12: float32 /* ty=float32 */, Primitive=1) -> Tensor[(1, 3, 224, 224), float32] {
    add(%p04, %p12) /* ty=Tensor[(1, 3, 224, 224), float32] span=from_string:11:14 */
  } /* ty=fn (Tensor[(1, 3, 224, 224), float32], float32) -> Tensor[(1, 3, 224, 224), float32] */;
  let %x_8: Tensor[(1, 3, 224, 224), float32] /* ty=Tensor[(1, 3, 224, 224), float32] span=from_string:46:25 */ = %4(%x_2, %x_7) /* ty=Tensor[(1, 3, 224, 224), float32] */;
  let %x_9: float32 /* ty=float32 span=from_string:13:25 */ = 1f /* ty=float32 span=from_string:12:16 */;
  %5 = fn (%p05: Tensor[(1, 3, 224, 224), float32] /* ty=Tensor[(1, 3, 224, 224), float32] */, %p13: float32 /* ty=float32 */, Primitive=1) -> Tensor[(1, 3, 224, 224), float32] {
    add(%p05, %p13) /* ty=Tensor[(1, 3, 224, 224), float32] span=from_string:13:15 */
  } /* ty=fn (Tensor[(1, 3, 224, 224), float32], float32) -> Tensor[(1, 3, 224, 224), float32] */;
  let %x_10: Tensor[(1, 3, 224, 224), float32] /* ty=Tensor[(1, 3, 224, 224), float32] span=from_string:14:28 */ = %5(%x_2, %x_9) /* ty=Tensor[(1, 3, 224, 224), float32] */;
  let %x_11: (Tensor[(1, 3, 224, 224), float32], Tensor[(1, 3, 224, 224), float32], Tensor[(1, 3, 224, 224), float32]) /* ty=(Tensor[(1, 3, 224, 224), float32], Tensor[(1, 3, 224, 224), float32], Tensor[(1, 3, 224, 224), float32]) span=from_string:15:27 */ = (%x_8, %x_4, %x_10) /* ty=(Tensor[(1, 3, 224, 224), float32], Tensor[(1, 3, 224, 224), float32], Tensor[(1, 3, 224, 224), float32]) span=from_string:14:15 */;
  %6 = fn (%p06: (Tensor[(1, 3, 224, 224), float32], Tensor[(1, 3, 224, 224), float32], Tensor[(1, 3, 224, 224), float32]) /* ty=(Tensor[(1, 3, 224, 224), float32], Tensor[(1, 3, 224, 224), float32], Tensor[(1, 3, 224, 224), float32]) */, Primitive=1) -> Tensor[(1, 9, 224, 224), float32] {
    concatenate(%p06, axis=1) /* ty=Tensor[(1, 9, 224, 224), float32] span=from_string:15:15 */
  } /* ty=fn ((Tensor[(1, 3, 224, 224), float32], Tensor[(1, 3, 224, 224), float32], Tensor[(1, 3, 224, 224), float32])) -> Tensor[(1, 9, 224, 224), float32] */;
  let %x_12: Tensor[(1, 9, 224, 224), float32] /* ty=Tensor[(1, 9, 224, 224), float32] span=from_string:17:19 */ = %6(%x_11) /* ty=Tensor[(1, 9, 224, 224), float32] */;
  let %x_13: float32 /* ty=float32 span=from_string:17:26 */ = 1f /* ty=float32 span=from_string:16:17 */;
  %7 = fn (%p07: Tensor[(1, 9, 224, 224), float32] /* ty=Tensor[(1, 9, 224, 224), float32] */, %p14: float32 /* ty=float32 */, Primitive=1) -> Tensor[(1, 9, 224, 224), float32] {
    add(%p07, %p14) /* ty=Tensor[(1, 9, 224, 224), float32] span=from_string:17:15 */
  } /* ty=fn (Tensor[(1, 9, 224, 224), float32], float32) -> Tensor[(1, 9, 224, 224), float32] */;
  let %x_14: Tensor[(1, 9, 224, 224), float32] /* ty=Tensor[(1, 9, 224, 224), float32] span=from_string:38:16 */ = %7(%x_12, %x_13) /* ty=Tensor[(1, 9, 224, 224), float32] */;
  let %x_15: float32 /* ty=float32 span=from_string:19:25 */ = 1f /* ty=float32 span=from_string:18:17 */;
  %8 = fn (%p08: Tensor[(1, 3, 224, 224), float32] /* ty=Tensor[(1, 3, 224, 224), float32] */, %p15: float32 /* ty=float32 */, Primitive=1) -> Tensor[(1, 3, 224, 224), float32] {
    add(%p08, %p15) /* ty=Tensor[(1, 3, 224, 224), float32] span=from_string:19:15 */
  } /* ty=fn (Tensor[(1, 3, 224, 224), float32], float32) -> Tensor[(1, 3, 224, 224), float32] */;
  let %x_16: Tensor[(1, 3, 224, 224), float32] /* ty=Tensor[(1, 3, 224, 224), float32] span=from_string:24:16 */ = %8(%x_2, %x_15) /* ty=Tensor[(1, 3, 224, 224), float32] */;
  let %x_17: float32 /* ty=float32 span=from_string:21:25 */ = 1f /* ty=float32 span=from_string:20:17 */;
  %9 = fn (%p09: Tensor[(1, 3, 224, 224), float32] /* ty=Tensor[(1, 3, 224, 224), float32] */, %p16: float32 /* ty=float32 */, Primitive=1) -> Tensor[(1, 3, 224, 224), float32] {
    add(%p09, %p16) /* ty=Tensor[(1, 3, 224, 224), float32] span=from_string:21:15 */
  } /* ty=fn (Tensor[(1, 3, 224, 224), float32], float32) -> Tensor[(1, 3, 224, 224), float32] */;
  let %x_18: Tensor[(1, 3, 224, 224), float32] /* ty=Tensor[(1, 3, 224, 224), float32] span=from_string:24:23 */ = %9(%x_2, %x_17) /* ty=Tensor[(1, 3, 224, 224), float32] */;
  let %x_19: float32 /* ty=float32 span=from_string:23:25 */ = 1f /* ty=float32 span=from_string:22:17 */;
  %10 = fn (%p010: Tensor[(1, 3, 224, 224), float32] /* ty=Tensor[(1, 3, 224, 224), float32] */, %p17: float32 /* ty=float32 */, Primitive=1) -> Tensor[(1, 3, 224, 224), float32] {
    add(%p010, %p17) /* ty=Tensor[(1, 3, 224, 224), float32] span=from_string:23:15 */
  } /* ty=fn (Tensor[(1, 3, 224, 224), float32], float32) -> Tensor[(1, 3, 224, 224), float32] */;
  let %x_20: Tensor[(1, 3, 224, 224), float32] /* ty=Tensor[(1, 3, 224, 224), float32] span=from_string:24:30 */ = %10(%x_2, %x_19) /* ty=Tensor[(1, 3, 224, 224), float32] */;
  let %x_21: (Tensor[(1, 3, 224, 224), float32], Tensor[(1, 3, 224, 224), float32], Tensor[(1, 3, 224, 224), float32]) /* ty=(Tensor[(1, 3, 224, 224), float32], Tensor[(1, 3, 224, 224), float32], Tensor[(1, 3, 224, 224), float32]) span=from_string:25:27 */ = (%x_16, %x_18, %x_20) /* ty=(Tensor[(1, 3, 224, 224), float32], Tensor[(1, 3, 224, 224), float32], Tensor[(1, 3, 224, 224), float32]) span=from_string:24:15 */;
  %11 = fn (%p011: (Tensor[(1, 3, 224, 224), float32], Tensor[(1, 3, 224, 224), float32], Tensor[(1, 3, 224, 224), float32]) /* ty=(Tensor[(1, 3, 224, 224), float32], Tensor[(1, 3, 224, 224), float32], Tensor[(1, 3, 224, 224), float32]) */, Primitive=1) -> Tensor[(1, 9, 224, 224), float32] {
    concatenate(%p011, axis=1) /* ty=Tensor[(1, 9, 224, 224), float32] span=from_string:25:15 */
  } /* ty=fn ((Tensor[(1, 3, 224, 224), float32], Tensor[(1, 3, 224, 224), float32], Tensor[(1, 3, 224, 224), float32])) -> Tensor[(1, 9, 224, 224), float32] */;
  let %x_22: Tensor[(1, 9, 224, 224), float32] /* ty=Tensor[(1, 9, 224, 224), float32] span=from_string:27:19 */ = %11(%x_21) /* ty=Tensor[(1, 9, 224, 224), float32] */;
  let %x_23: float32 /* ty=float32 span=from_string:27:26 */ = 1f /* ty=float32 span=from_string:26:17 */;
  %12 = fn (%p012: Tensor[(1, 9, 224, 224), float32] /* ty=Tensor[(1, 9, 224, 224), float32] */, %p18: float32 /* ty=float32 */, Primitive=1) -> Tensor[(1, 9, 224, 224), float32] {
    add(%p012, %p18) /* ty=Tensor[(1, 9, 224, 224), float32] span=from_string:27:15 */
  } /* ty=fn (Tensor[(1, 9, 224, 224), float32], float32) -> Tensor[(1, 9, 224, 224), float32] */;
  let %x_24: Tensor[(1, 9, 224, 224), float32] /* ty=Tensor[(1, 9, 224, 224), float32] span=from_string:51:23 */ = %12(%x_22, %x_23) /* ty=Tensor[(1, 9, 224, 224), float32] */;
  let %x_25: float32 /* ty=float32 span=from_string:29:25 */ = 1f /* ty=float32 span=from_string:28:17 */;
  %13 = fn (%p013: Tensor[(1, 3, 224, 224), float32] /* ty=Tensor[(1, 3, 224, 224), float32] */, %p19: float32 /* ty=float32 */, Primitive=1) -> Tensor[(1, 3, 224, 224), float32] {
    add(%p013, %p19) /* ty=Tensor[(1, 3, 224, 224), float32] span=from_string:29:15 */
  } /* ty=fn (Tensor[(1, 3, 224, 224), float32], float32) -> Tensor[(1, 3, 224, 224), float32] */;
  let %x_26: Tensor[(1, 3, 224, 224), float32] /* ty=Tensor[(1, 3, 224, 224), float32] span=from_string:34:16 */ = %13(%x_2, %x_25) /* ty=Tensor[(1, 3, 224, 224), float32] */;
  let %x_27: float32 /* ty=float32 span=from_string:31:25 */ = 1f /* ty=float32 span=from_string:30:17 */;
  %14 = fn (%p014: Tensor[(1, 3, 224, 224), float32] /* ty=Tensor[(1, 3, 224, 224), float32] */, %p110: float32 /* ty=float32 */, Primitive=1) -> Tensor[(1, 3, 224, 224), float32] {
    add(%p014, %p110) /* ty=Tensor[(1, 3, 224, 224), float32] span=from_string:31:15 */
  } /* ty=fn (Tensor[(1, 3, 224, 224), float32], float32) -> Tensor[(1, 3, 224, 224), float32] */;
  let %x_28: Tensor[(1, 3, 224, 224), float32] /* ty=Tensor[(1, 3, 224, 224), float32] span=from_string:34:23 */ = %14(%x_2, %x_27) /* ty=Tensor[(1, 3, 224, 224), float32] */;
  let %x_29: float32 /* ty=float32 span=from_string:33:25 */ = 1f /* ty=float32 span=from_string:32:17 */;
  %15 = fn (%p015: Tensor[(1, 3, 224, 224), float32] /* ty=Tensor[(1, 3, 224, 224), float32] */, %p111: float32 /* ty=float32 */, Primitive=1) -> Tensor[(1, 3, 224, 224), float32] {
    add(%p015, %p111) /* ty=Tensor[(1, 3, 224, 224), float32] span=from_string:33:15 */
  } /* ty=fn (Tensor[(1, 3, 224, 224), float32], float32) -> Tensor[(1, 3, 224, 224), float32] */;
  let %x_30: Tensor[(1, 3, 224, 224), float32] /* ty=Tensor[(1, 3, 224, 224), float32] span=from_string:34:30 */ = %15(%x_2, %x_29) /* ty=Tensor[(1, 3, 224, 224), float32] */;
  let %x_31: (Tensor[(1, 3, 224, 224), float32], Tensor[(1, 3, 224, 224), float32], Tensor[(1, 3, 224, 224), float32]) /* ty=(Tensor[(1, 3, 224, 224), float32], Tensor[(1, 3, 224, 224), float32], Tensor[(1, 3, 224, 224), float32]) span=from_string:35:27 */ = (%x_26, %x_28, %x_30) /* ty=(Tensor[(1, 3, 224, 224), float32], Tensor[(1, 3, 224, 224), float32], Tensor[(1, 3, 224, 224), float32]) span=from_string:34:15 */;
  %16 = fn (%p016: (Tensor[(1, 3, 224, 224), float32], Tensor[(1, 3, 224, 224), float32], Tensor[(1, 3, 224, 224), float32]) /* ty=(Tensor[(1, 3, 224, 224), float32], Tensor[(1, 3, 224, 224), float32], Tensor[(1, 3, 224, 224), float32]) */, Primitive=1) -> Tensor[(1, 9, 224, 224), float32] {
    concatenate(%p016, axis=1) /* ty=Tensor[(1, 9, 224, 224), float32] span=from_string:35:15 */
  } /* ty=fn ((Tensor[(1, 3, 224, 224), float32], Tensor[(1, 3, 224, 224), float32], Tensor[(1, 3, 224, 224), float32])) -> Tensor[(1, 9, 224, 224), float32] */;
  let %x_32: Tensor[(1, 9, 224, 224), float32] /* ty=Tensor[(1, 9, 224, 224), float32] span=from_string:37:19 */ = %16(%x_31) /* ty=Tensor[(1, 9, 224, 224), float32] */;
  let %x_33: float32 /* ty=float32 span=from_string:37:26 */ = 1f /* ty=float32 span=from_string:36:17 */;
  %17 = fn (%p017: Tensor[(1, 9, 224, 224), float32] /* ty=Tensor[(1, 9, 224, 224), float32] */, %p112: float32 /* ty=float32 */, Primitive=1) -> Tensor[(1, 9, 224, 224), float32] {
    add(%p017, %p112) /* ty=Tensor[(1, 9, 224, 224), float32] span=from_string:37:15 */
  } /* ty=fn (Tensor[(1, 9, 224, 224), float32], float32) -> Tensor[(1, 9, 224, 224), float32] */;
  let %x_34: Tensor[(1, 9, 224, 224), float32] /* ty=Tensor[(1, 9, 224, 224), float32] span=from_string:38:30 */ = %17(%x_32, %x_33) /* ty=Tensor[(1, 9, 224, 224), float32] */;
  let %x_35: (Tensor[(1, 9, 224, 224), float32], Tensor[(1, 9, 224, 224), float32], Tensor[(1, 9, 224, 224), float32]) /* ty=(Tensor[(1, 9, 224, 224), float32], Tensor[(1, 9, 224, 224), float32], Tensor[(1, 9, 224, 224), float32]) span=from_string:39:27 */ = (%x_14, %x_24, %x_34) /* ty=(Tensor[(1, 9, 224, 224), float32], Tensor[(1, 9, 224, 224), float32], Tensor[(1, 9, 224, 224), float32]) span=from_string:38:15 */;
  %18 = fn (%p018: (Tensor[(1, 9, 224, 224), float32], Tensor[(1, 9, 224, 224), float32], Tensor[(1, 9, 224, 224), float32]) /* ty=(Tensor[(1, 9, 224, 224), float32], Tensor[(1, 9, 224, 224), float32], Tensor[(1, 9, 224, 224), float32]) */, Primitive=1) -> Tensor[(1, 27, 224, 224), float32] {
    concatenate(%p018, axis=1) /* ty=Tensor[(1, 27, 224, 224), float32] span=from_string:39:15 */
  } /* ty=fn ((Tensor[(1, 9, 224, 224), float32], Tensor[(1, 9, 224, 224), float32], Tensor[(1, 9, 224, 224), float32])) -> Tensor[(1, 27, 224, 224), float32] */;
  let %x_36: Tensor[(1, 27, 224, 224), float32] /* ty=Tensor[(1, 27, 224, 224), float32] span=from_string:40:30 */ = %18(%x_35) /* ty=Tensor[(1, 27, 224, 224), float32] */;
  %19 = fn (%p019: Tensor[(1, 27, 224, 224), float32] /* ty=Tensor[(1, 27, 224, 224), float32] */, Primitive=1) -> Tensor[(1, 27, 112, 112), float32] {
    nn.max_pool2d(%p019, pool_size=[2, 2], strides=[2, 2], padding=[0, 0, 0, 0]) /* ty=Tensor[(1, 27, 112, 112), float32] span=from_string:40:15 */
  } /* ty=fn (Tensor[(1, 27, 224, 224), float32]) -> Tensor[(1, 27, 112, 112), float32] */;
  let %x_37: Tensor[(1, 27, 112, 112), float32] /* ty=Tensor[(1, 27, 112, 112), float32] span=from_string:42:19 */ = %19(%x_36) /* ty=Tensor[(1, 27, 112, 112), float32] */;
  let %x_38: float32 /* ty=float32 span=from_string:42:26 */ = 1f /* ty=float32 span=from_string:41:17 */;
  %20 = fn (%p020: Tensor[(1, 27, 112, 112), float32] /* ty=Tensor[(1, 27, 112, 112), float32] */, %p113: float32 /* ty=float32 */, Primitive=1) -> Tensor[(1, 27, 112, 112), float32] {
    add(%p020, %p113) /* ty=Tensor[(1, 27, 112, 112), float32] span=from_string:42:15 */
  } /* ty=fn (Tensor[(1, 27, 112, 112), float32], float32) -> Tensor[(1, 27, 112, 112), float32] */;
  let %x_39: Tensor[(1, 27, 112, 112), float32] /* ty=Tensor[(1, 27, 112, 112), float32] span=from_string:45:16 */ = %20(%x_37, %x_38) /* ty=Tensor[(1, 27, 112, 112), float32] */;
  let %x_40: float32 /* ty=float32 span=from_string:44:26 */ = 1f /* ty=float32 span=from_string:43:17 */;
  %21 = fn (%p021: Tensor[(1, 27, 112, 112), float32] /* ty=Tensor[(1, 27, 112, 112), float32] */, %p114: float32 /* ty=float32 */, Primitive=1) -> Tensor[(1, 27, 112, 112), float32] {
    add(%p021, %p114) /* ty=Tensor[(1, 27, 112, 112), float32] span=from_string:44:15 */
  } /* ty=fn (Tensor[(1, 27, 112, 112), float32], float32) -> Tensor[(1, 27, 112, 112), float32] */;
  let %x_41: Tensor[(1, 27, 112, 112), float32] /* ty=Tensor[(1, 27, 112, 112), float32] span=from_string:45:23 */ = %21(%x_39, %x_40) /* ty=Tensor[(1, 27, 112, 112), float32] */;
  let %x_42: (Tensor[(1, 27, 112, 112), float32], Tensor[(1, 27, 112, 112), float32]) /* ty=(Tensor[(1, 27, 112, 112), float32], Tensor[(1, 27, 112, 112), float32]) span=from_string:83:16 */ = (%x_39, %x_41) /* ty=(Tensor[(1, 27, 112, 112), float32], Tensor[(1, 27, 112, 112), float32]) span=from_string:45:15 */;
  %22 = fn (%p022: Tensor[(1, 3, 224, 224), float32] /* ty=Tensor[(1, 3, 224, 224), float32] */, Primitive=1) -> Tensor[(1, 224, 3, 224), float32] {
    transpose(%p022, axes=[0, 3, 1, 2]) /* ty=Tensor[(1, 224, 3, 224), float32] span=from_string:46:15 */
  } /* ty=fn (Tensor[(1, 3, 224, 224), float32]) -> Tensor[(1, 224, 3, 224), float32] */;
  let %x_43: Tensor[(1, 224, 3, 224), float32] /* ty=Tensor[(1, 224, 3, 224), float32] span=from_string:47:32 */ = %22(%x_8) /* ty=Tensor[(1, 224, 3, 224), float32] */;
  %23 = fn (%p023: Tensor[(1, 224, 3, 224), float32] /* ty=Tensor[(1, 224, 3, 224), float32] */, Primitive=1) -> Tensor[(1, 56, 3, 224, 4), float32] {
    layout_transform(%p023, src_layout="NCHW", dst_layout="NCHW4c") /* ty=Tensor[(1, 56, 3, 224, 4), float32] span=from_string:47:15 */
  } /* ty=fn (Tensor[(1, 224, 3, 224), float32]) -> Tensor[(1, 56, 3, 224, 4), float32] */;
  let %x_44: Tensor[(1, 56, 3, 224, 4), float32] /* ty=Tensor[(1, 56, 3, 224, 4), float32] span=from_string:48:23 */ = %23(%x_43) /* ty=Tensor[(1, 56, 3, 224, 4), float32] */;
  %24 = fn (%p024: Tensor[(1, 56, 3, 224, 4), float32] /* ty=Tensor[(1, 56, 3, 224, 4), float32] */, Primitive=1) -> Tensor[(1, 56, 3, 224, 4), float32] {
    nn.relu(%p024) /* ty=Tensor[(1, 56, 3, 224, 4), float32] span=from_string:48:15 */
  } /* ty=fn (Tensor[(1, 56, 3, 224, 4), float32]) -> Tensor[(1, 56, 3, 224, 4), float32] */;
  let %x_45: Tensor[(1, 56, 3, 224, 4), float32] /* ty=Tensor[(1, 56, 3, 224, 4), float32] span=from_string:49:32 */ = %24(%x_44) /* ty=Tensor[(1, 56, 3, 224, 4), float32] */;
  %25 = fn (%p025: Tensor[(1, 56, 3, 224, 4), float32] /* ty=Tensor[(1, 56, 3, 224, 4), float32] */, Primitive=1) -> Tensor[(1, 224, 3, 224), float32] {
    layout_transform(%p025, src_layout="NCHW4c", dst_layout="NCHW") /* ty=Tensor[(1, 224, 3, 224), float32] span=from_string:49:15 */
  } /* ty=fn (Tensor[(1, 56, 3, 224, 4), float32]) -> Tensor[(1, 224, 3, 224), float32] */;
  let %x_46: Tensor[(1, 224, 3, 224), float32] /* ty=Tensor[(1, 224, 3, 224), float32] span=from_string:50:25 */ = %25(%x_45) /* ty=Tensor[(1, 224, 3, 224), float32] */;
  %26 = fn (%p026: Tensor[(1, 224, 3, 224), float32] /* ty=Tensor[(1, 224, 3, 224), float32] */, Primitive=1) -> Tensor[(1, 3, 224, 224), float32] {
    transpose(%p026, axes=[0, 2, 3, 1]) /* ty=Tensor[(1, 3, 224, 224), float32] span=from_string:50:15 */
  } /* ty=fn (Tensor[(1, 224, 3, 224), float32]) -> Tensor[(1, 3, 224, 224), float32] */;
  let %x_47: Tensor[(1, 3, 224, 224), float32] /* ty=Tensor[(1, 3, 224, 224), float32] span=from_string:83:23 */ = %26(%x_46) /* ty=Tensor[(1, 3, 224, 224), float32] */;
  %27 = fn (%p027: Tensor[(1, 9, 224, 224), float32] /* ty=Tensor[(1, 9, 224, 224), float32] */, Primitive=1, relay.reshape_only=1) -> Tensor[(9, 224, 224), float32] {
    reshape(%p027, newshape=[9, 224, 224]) /* ty=Tensor[(9, 224, 224), float32] span=from_string:51:15 */
  } /* ty=fn (Tensor[(1, 9, 224, 224), float32]) -> Tensor[(9, 224, 224), float32] */;
  let %x_48: Tensor[(9, 224, 224), float32] /* ty=Tensor[(9, 224, 224), float32] span=from_string:52:23 */ = %27(%x_24) /* ty=Tensor[(9, 224, 224), float32] */;
  %28 = fn (%p028: Tensor[(9, 224, 224), float32] /* ty=Tensor[(9, 224, 224), float32] */, Primitive=1, relay.reshape_only=1) -> Tensor[(1, 9, 224, 224), float32] {
    reshape(%p028, newshape=[1, 9, 224, 224]) /* ty=Tensor[(1, 9, 224, 224), float32] span=from_string:52:15 */
  } /* ty=fn (Tensor[(9, 224, 224), float32]) -> Tensor[(1, 9, 224, 224), float32] */;
  let %x_49: Tensor[(1, 9, 224, 224), float32] /* ty=Tensor[(1, 9, 224, 224), float32] span=from_string:83:30 */ = %28(%x_48) /* ty=Tensor[(1, 9, 224, 224), float32] */;
  %29 = fn (%p029: Tensor[(1, 3, 224, 224), float32] /* ty=Tensor[(1, 3, 224, 224), float32] */, Primitive=1) -> Tensor[(1, 3, 224, 224), float32] {
    zeros_like(%p029) /* ty=Tensor[(1, 3, 224, 224), float32] span=from_string:53:15 */
  } /* ty=fn (Tensor[(1, 3, 224, 224), float32]) -> Tensor[(1, 3, 224, 224), float32] */;
  let %x_50: Tensor[(1, 3, 224, 224), float32] /* ty=Tensor[(1, 3, 224, 224), float32] span=from_string:56:19 */ = %29(%x_4) /* ty=Tensor[(1, 3, 224, 224), float32] */;
  %30 = fn (%p030: Tensor[(1, 3, 224, 224), float32] /* ty=Tensor[(1, 3, 224, 224), float32] */, %p115: Tensor[(1, 3, 224, 224), float32] /* ty=Tensor[(1, 3, 224, 224), float32] */, Primitive=1) -> Tensor[(1, 3, 224, 224), float32] {
    multiply(%p030, %p115) /* ty=Tensor[(1, 3, 224, 224), float32] span=from_string:54:16 */
  } /* ty=fn (Tensor[(1, 3, 224, 224), float32], Tensor[(1, 3, 224, 224), float32]) -> Tensor[(1, 3, 224, 224), float32] */;
  let %x_51: Tensor[(1, 3, 224, 224), float32] /* ty=Tensor[(1, 3, 224, 224), float32] span=from_string:73:23 */ = %30(%x_6, %x_4) /* ty=Tensor[(1, 3, 224, 224), float32] */;
  %31 = fn (%p031: Tensor[(1, 3, 224, 224), float32] /* ty=Tensor[(1, 3, 224, 224), float32] */, %p116: Tensor[(1, 3, 224, 224), float32] /* ty=Tensor[(1, 3, 224, 224), float32] */, Primitive=1) -> Tensor[(1, 3, 224, 224), float32] {
    collapse_sum_like(%p031, %p116) /* ty=Tensor[(1, 3, 224, 224), float32] span=from_string:55:15 */
  } /* ty=fn (Tensor[(1, 3, 224, 224), float32], Tensor[(1, 3, 224, 224), float32]) -> Tensor[(1, 3, 224, 224), float32] */;
  let %x_52: Tensor[(1, 3, 224, 224), float32] /* ty=Tensor[(1, 3, 224, 224), float32] span=from_string:56:26 */ = %31(%x_51, %x_4) /* ty=Tensor[(1, 3, 224, 224), float32] */;
  %32 = fn (%p032: Tensor[(1, 3, 224, 224), float32] /* ty=Tensor[(1, 3, 224, 224), float32] */, %p117: Tensor[(1, 3, 224, 224), float32] /* ty=Tensor[(1, 3, 224, 224), float32] */, Primitive=1) -> Tensor[(1, 3, 224, 224), float32] {
    add(%p032, %p117) /* ty=Tensor[(1, 3, 224, 224), float32] span=from_string:56:15 */
  } /* ty=fn (Tensor[(1, 3, 224, 224), float32], Tensor[(1, 3, 224, 224), float32]) -> Tensor[(1, 3, 224, 224), float32] */;
  let %x_53: Tensor[(1, 3, 224, 224), float32] /* ty=Tensor[(1, 3, 224, 224), float32] span=from_string:59:19 */ = %32(%x_50, %x_52) /* ty=Tensor[(1, 3, 224, 224), float32] */;
  %33 = fn (%p033: Tensor[(1, 3, 224, 224), float32] /* ty=Tensor[(1, 3, 224, 224), float32] */, %p118: Tensor[(1, 3, 224, 224), float32] /* ty=Tensor[(1, 3, 224, 224), float32] */, Primitive=1) -> Tensor[(1, 3, 224, 224), float32] {
    multiply(%p033, %p118) /* ty=Tensor[(1, 3, 224, 224), float32] span=from_string:57:16 */
  } /* ty=fn (Tensor[(1, 3, 224, 224), float32], Tensor[(1, 3, 224, 224), float32]) -> Tensor[(1, 3, 224, 224), float32] */;
  let %x_54: Tensor[(1, 3, 224, 224), float32] /* ty=Tensor[(1, 3, 224, 224), float32] span=from_string:58:33 */ = %33(%x_6, %x_4) /* ty=Tensor[(1, 3, 224, 224), float32] */;
  %34 = fn (%p034: Tensor[(1, 3, 224, 224), float32] /* ty=Tensor[(1, 3, 224, 224), float32] */, %p119: Tensor[(1, 3, 224, 224), float32] /* ty=Tensor[(1, 3, 224, 224), float32] */, Primitive=1) -> Tensor[(1, 3, 224, 224), float32] {
    collapse_sum_like(%p034, %p119) /* ty=Tensor[(1, 3, 224, 224), float32] span=from_string:58:15 */
  } /* ty=fn (Tensor[(1, 3, 224, 224), float32], Tensor[(1, 3, 224, 224), float32]) -> Tensor[(1, 3, 224, 224), float32] */;
  let %x_55: Tensor[(1, 3, 224, 224), float32] /* ty=Tensor[(1, 3, 224, 224), float32] span=from_string:59:26 */ = %34(%x_54, %x_4) /* ty=Tensor[(1, 3, 224, 224), float32] */;
  %35 = fn (%p035: Tensor[(1, 3, 224, 224), float32] /* ty=Tensor[(1, 3, 224, 224), float32] */, %p120: Tensor[(1, 3, 224, 224), float32] /* ty=Tensor[(1, 3, 224, 224), float32] */, Primitive=1) -> Tensor[(1, 3, 224, 224), float32] {
    add(%p035, %p120) /* ty=Tensor[(1, 3, 224, 224), float32] span=from_string:59:15 */
  } /* ty=fn (Tensor[(1, 3, 224, 224), float32], Tensor[(1, 3, 224, 224), float32]) -> Tensor[(1, 3, 224, 224), float32] */;
  let %x_56: Tensor[(1, 3, 224, 224), float32] /* ty=Tensor[(1, 3, 224, 224), float32] span=from_string:60:16 */ = %35(%x_53, %x_55) /* ty=Tensor[(1, 3, 224, 224), float32] */;
  let %x_57: (Tensor[(1, 3, 224, 224), float32],) /* ty=(Tensor[(1, 3, 224, 224), float32],) span=from_string:61:22 */ = (%x_56,) /* ty=(Tensor[(1, 3, 224, 224), float32],) span=from_string:60:15 */;
  let %x_58: (Tensor[(1, 3, 224, 224), float32], (Tensor[(1, 3, 224, 224), float32],)) /* ty=(Tensor[(1, 3, 224, 224), float32], (Tensor[(1, 3, 224, 224), float32],)) span=from_string:83:37 */ = (%x_5, %x_57) /* ty=(Tensor[(1, 3, 224, 224), float32], (Tensor[(1, 3, 224, 224), float32],)) span=from_string:61:15 */;
  %36 = fn (%p036: Tensor[(1, 3, 224, 224), float32] /* ty=Tensor[(1, 3, 224, 224), float32] */, Primitive=1) -> Tensor[(1, 3, 222, 222), float32] {
    nn.avg_pool2d(%p036, pool_size=[3, 3], padding=[0, 0, 0, 0]) /* ty=Tensor[(1, 3, 222, 222), float32] span=from_string:62:15 */
  } /* ty=fn (Tensor[(1, 3, 224, 224), float32]) -> Tensor[(1, 3, 222, 222), float32] */;
  let %x_59: Tensor[(1, 3, 222, 222), float32] /* ty=Tensor[(1, 3, 222, 222), float32] span=from_string:65:28 */ = %36(%x_2) /* ty=Tensor[(1, 3, 222, 222), float32] */;
  let %x_60: float32 /* ty=float32 span=from_string:65:35 */ = 0.5f /* ty=float32 span=from_string:63:19 */;
  let %x_61: int32 /* ty=int32 span=from_string:65:42 */ = 10 /* ty=int32 span=from_string:64:17 */;
  %37 = fn (%p037: Tensor[(1, 3, 222, 222), float32] /* ty=Tensor[(1, 3, 222, 222), float32] */, %p121: float32 /* ty=float32 */, %p21: int32 /* ty=int32 */, Primitive=1) -> Tensor[(1, 3, 222, 222), int8] {
    qnn.quantize(%p037, %p121, %p21, out_dtype="int8") /* ty=Tensor[(1, 3, 222, 222), int8] span=from_string:65:15 */
  } /* ty=fn (Tensor[(1, 3, 222, 222), float32], float32, int32) -> Tensor[(1, 3, 222, 222), int8] */;
  let %x_62: Tensor[(1, 3, 222, 222), int8] /* ty=Tensor[(1, 3, 222, 222), int8] span=from_string:68:30 */ = %37(%x_59, %x_60, %x_61) /* ty=Tensor[(1, 3, 222, 222), int8] */;
  let %x_63: float32 /* ty=float32 span=from_string:68:37 */ = 2f /* ty=float32 span=from_string:66:17 */;
  let %x_64: int32 /* ty=int32 span=from_string:68:44 */ = 0 /* ty=int32 span=from_string:67:16 */;
  %38 = fn (%p038: Tensor[(1, 3, 222, 222), int8] /* ty=Tensor[(1, 3, 222, 222), int8] */, %p122: float32 /* ty=float32 */, %p22: int32 /* ty=int32 */, Primitive=1) -> Tensor[(1, 3, 222, 222), float32] {
    qnn.dequantize(%p038, %p122, %p22) /* ty=Tensor[(1, 3, 222, 222), float32] span=from_string:68:15 */
  } /* ty=fn (Tensor[(1, 3, 222, 222), int8], float32, int32) -> Tensor[(1, 3, 222, 222), float32] */;
  let %x_65: Tensor[(1, 3, 222, 222), float32] /* ty=Tensor[(1, 3, 222, 222), float32] span=from_string:69:23 */ = %38(%x_62, %x_63, %x_64) /* ty=Tensor[(1, 3, 222, 222), float32] */;
  %39 = fn (%p039: Tensor[(1, 3, 222, 222), float32] /* ty=Tensor[(1, 3, 222, 222), float32] */, Primitive=1, relay.reshape_only=1) -> Tensor[(3, 1, 222, 222), float32] {
    reshape(%p039, newshape=[3, 1, 222, 222]) /* ty=Tensor[(3, 1, 222, 222), float32] span=from_string:69:15 */
  } /* ty=fn (Tensor[(1, 3, 222, 222), float32]) -> Tensor[(3, 1, 222, 222), float32] */;
  let %x_66: Tensor[(3, 1, 222, 222), float32] /* ty=Tensor[(3, 1, 222, 222), float32] span=from_string:70:19 */ = %39(%x_65) /* ty=Tensor[(3, 1, 222, 222), float32] */;
  %40 = fn (%p040: Tensor[(3, 1, 222, 222), float32] /* ty=Tensor[(3, 1, 222, 222), float32] */, Primitive=1) -> Tensor[(3, 1, 222, 222), float32] {
    erf(%p040) /* ty=Tensor[(3, 1, 222, 222), float32] span=from_string:70:15 */
  } /* ty=fn (Tensor[(3, 1, 222, 222), float32]) -> Tensor[(3, 1, 222, 222), float32] */;
  let %x_67: Tensor[(3, 1, 222, 222), float32] /* ty=Tensor[(3, 1, 222, 222), float32] span=from_string:83:44 */ = %40(%x_66) /* ty=Tensor[(3, 1, 222, 222), float32] */;
  %41 = fn (%p041: Tensor[(1, 3, 224, 224), float32] /* ty=Tensor[(1, 3, 224, 224), float32] */, Primitive=1) -> Tensor[(1, 3, 112, 112), float32] {
    nn.max_pool2d(%p041, pool_size=[2, 2], strides=[2, 2], padding=[0, 0, 0, 0]) /* ty=Tensor[(1, 3, 112, 112), float32] span=from_string:71:15 */
  } /* ty=fn (Tensor[(1, 3, 224, 224), float32]) -> Tensor[(1, 3, 112, 112), float32] */;
  let %x_68: Tensor[(1, 3, 112, 112), float32] /* ty=Tensor[(1, 3, 112, 112), float32] span=from_string:72:29 */ = %41(%x_51) /* ty=Tensor[(1, 3, 112, 112), float32] */;
  %42 = fn (%p042: Tensor[(1, 3, 112, 112), float32] /* ty=Tensor[(1, 3, 112, 112), float32] */, Primitive=1) -> Tensor[(1, 3, 224, 224), float32] {
    nn.upsampling(%p042, scale_h=2f, scale_w=2f) /* ty=Tensor[(1, 3, 224, 224), float32] span=from_string:72:15 */
  } /* ty=fn (Tensor[(1, 3, 112, 112), float32]) -> Tensor[(1, 3, 224, 224), float32] */;
  let %x_69: Tensor[(1, 3, 224, 224), float32] /* ty=Tensor[(1, 3, 224, 224), float32] span=from_string:73:16 */ = %42(%x_68) /* ty=Tensor[(1, 3, 224, 224), float32] */;
  let %x_70: (Tensor[(1, 3, 224, 224), float32], Tensor[(1, 3, 224, 224), float32]) /* ty=(Tensor[(1, 3, 224, 224), float32], Tensor[(1, 3, 224, 224), float32]) span=from_string:83:65 */ = (%x_69, %x_51) /* ty=(Tensor[(1, 3, 224, 224), float32], Tensor[(1, 3, 224, 224), float32]) span=from_string:73:15 */;
  let %x_71: float32 /* ty=float32 span=from_string:76:35 */ = 0.626659f /* ty=float32 span=from_string:74:24 */;
  let %x_72: int32 /* ty=int32 span=from_string:76:42 */ = -128 /* ty=int32 span=from_string:75:19 */;
  %43 = fn (%p043: Tensor[(1, 3, 224, 224), int8] /* ty=Tensor[(1, 3, 224, 224), int8] */, %p123: float32 /* ty=float32 */, %p23: int32 /* ty=int32 */, Primitive=1) -> Tensor[(1, 3, 224, 224), float32] {
    qnn.dequantize(%p043, %p123, %p23) /* ty=Tensor[(1, 3, 224, 224), float32] span=from_string:76:15 */
  } /* ty=fn (Tensor[(1, 3, 224, 224), int8], float32, int32) -> Tensor[(1, 3, 224, 224), float32] */;
  let %x_73: Tensor[(1, 3, 224, 224), float32] /* ty=Tensor[(1, 3, 224, 224), float32] span=from_string:77:20 */ = %43(%x0, %x_71, %x_72) /* ty=Tensor[(1, 3, 224, 224), float32] */;
  %44 = fn (%p044: Tensor[(1, 3, 224, 224), float32] /* ty=Tensor[(1, 3, 224, 224), float32] */, Primitive=1) -> Tensor[(1, 3, 224, 224), float32] {
    sqrt(%p044) /* ty=Tensor[(1, 3, 224, 224), float32] span=from_string:77:15 */
  } /* ty=fn (Tensor[(1, 3, 224, 224), float32]) -> Tensor[(1, 3, 224, 224), float32] */;
  let %x_74: Tensor[(1, 3, 224, 224), float32] /* ty=Tensor[(1, 3, 224, 224), float32] span=from_string:80:28 */ = %44(%x_73) /* ty=Tensor[(1, 3, 224, 224), float32] */;
  let %x_75: float32 /* ty=float32 span=from_string:80:35 */ = 0.13107f /* ty=float32 span=from_string:78:23 */;
  let %x_76: int32 /* ty=int32 span=from_string:80:42 */ = -128 /* ty=int32 span=from_string:79:19 */;
  %45 = fn (%p045: Tensor[(1, 3, 224, 224), float32] /* ty=Tensor[(1, 3, 224, 224), float32] */, %p124: float32 /* ty=float32 */, %p24: int32 /* ty=int32 */, Primitive=1) -> Tensor[(1, 3, 224, 224), int8] {
    qnn.quantize(%p045, %p124, %p24, out_dtype="int8") /* ty=Tensor[(1, 3, 224, 224), int8] span=from_string:80:15 */
  } /* ty=fn (Tensor[(1, 3, 224, 224), float32], float32, int32) -> Tensor[(1, 3, 224, 224), int8] */;
  let %x_77: Tensor[(1, 3, 224, 224), int8] /* ty=Tensor[(1, 3, 224, 224), int8] span=from_string:83:72 */ = %45(%x_74, %x_75, %x_76) /* ty=Tensor[(1, 3, 224, 224), int8] */;
  let %x_78: Tensor[(4), int32] /* ty=Tensor[(4), int32] span=from_string:83:51 */ = meta[relay.Constant][0] /* ty=Tensor[(4), int32] span=from_string:81:20 */;
  let %x_79: float32 /* ty=float32 span=from_string:83:58 */ = 1f /* ty=float32 span=from_string:82:17 */;
  let %x_80: ((Tensor[(1, 27, 112, 112), float32], Tensor[(1, 27, 112, 112), float32]), Tensor[(1, 3, 224, 224), float32], Tensor[(1, 9, 224, 224), float32], (Tensor[(1, 3, 224, 224), float32], (Tensor[(1, 3, 224, 224), float32],)), Tensor[(3, 1, 222, 222), float32], Tensor[(4), int32], float32, (Tensor[(1, 3, 224, 224), float32], Tensor[(1, 3, 224, 224), float32]), Tensor[(1, 3, 224, 224), int8]) /* ty=((Tensor[(1, 27, 112, 112), float32], Tensor[(1, 27, 112, 112), float32]), Tensor[(1, 3, 224, 224), float32], Tensor[(1, 9, 224, 224), float32], (Tensor[(1, 3, 224, 224), float32], (Tensor[(1, 3, 224, 224), float32],)), Tensor[(3, 1, 222, 222), float32], Tensor[(4), int32], float32, (Tensor[(1, 3, 224, 224), float32], Tensor[(1, 3, 224, 224), float32]), Tensor[(1, 3, 224, 224), int8]) span=from_string:84:3 */ = (%x_42, %x_47, %x_49, %x_58, %x_67, %x_78, %x_79, %x_70, %x_77) /* ty=((Tensor[(1, 27, 112, 112), float32], Tensor[(1, 27, 112, 112), float32]), Tensor[(1, 3, 224, 224), float32], Tensor[(1, 9, 224, 224), float32], (Tensor[(1, 3, 224, 224), float32], (Tensor[(1, 3, 224, 224), float32],)), Tensor[(3, 1, 222, 222), float32], Tensor[(4), int32], float32, (Tensor[(1, 3, 224, 224), float32], Tensor[(1, 3, 224, 224), float32]), Tensor[(1, 3, 224, 224), int8]) span=from_string:83:15 */;
  %x_80
}

#[metadata]
{
  "root": 1, 
  "nodes": [
    {
      "type_key": ""
    }, 
    {
      "type_key": "Map", 
      "keys": [
        "relay.Constant"
      ], 
      "data": [2]
    }, 
    {
      "type_key": "Array", 
      "data": [3]
    }, 
    {
      "type_key": "relay.Constant", 
      "attrs": {
        "_checked_type_": "8", 
        "data": "0", 
        "span": "6", 
        "virtual_device_": "4"
      }
    }, 
    {
      "type_key": "VirtualDevice", 
      "attrs": {
        "device_type_int": "-1", 
        "memory_scope": "5", 
        "target": "0", 
        "virtual_device_id": "-1"
      }
    }, 
    {
      "type_key": "runtime.String"
    }, 
    {
      "type_key": "Span", 
      "attrs": {
        "column": "20", 
        "end_column": "38", 
        "end_line": "81", 
        "line": "81", 
        "source_name": "7"
      }
    }, 
    {
      "type_key": "SourceName", 
      "repr_str": "from_string"
    }, 
    {
      "type_key": "relay.TensorType", 
      "attrs": {
        "dtype": "int32", 
        "shape": "9", 
        "span": "0"
      }
    }, 
    {
      "type_key": "Array", 
      "data": [10]
    }, 
    {
      "type_key": "IntImm", 
      "attrs": {
        "dtype": "int32", 
        "span": "0", 
        "value": "4"
      }
    }
  ], 
  "b64ndarrays": [
    "P6G0lvBAXt0AAAAAAAAAAAEAAAAAAAAAAQAAAAAgAQAEAAAAAAAAABAAAAAAAAAAAQAAAAkAAADgAAAA4AAAAA=="
  ], 
  "attrs": {"tvm_version": "0.13.0"}
}