#[version = "0.0.5"]
def @main(%x0: Tensor[(1, 3, 224, 224), int8] /* ty=Tensor[(1, 3, 224, 224), int8] span=from_string:123:13 */, %x1: Tensor[(9, 224, 224), float32] /* ty=Tensor[(9, 224, 224), float32] */, %x2: Tensor[(58), int32] /* ty=Tensor[(58), int32] */) -> ((Tensor[(1, 27, 112, 112), float32], Tensor[(1, 27, 112, 112), float32]), Tensor[(1, 3, 224, 224), float32], Tensor[(1, 9, 224, 224), float32], (Tensor[(1, 3, 224, 224), float32], (Tensor[(1, 3, 224, 224), float32],)), Tensor[(3, 1, 222, 222), float32], Tensor[(4), int32], float32, (Tensor[(1, 3, 224, 224), float32], Tensor[(1, 3, 224, 224), float32]), Tensor[(1, 3, 224, 224), int8]) {
  %15 = fn (%p02: Tensor[(1, 3, 224, 224), int8] /* ty=Tensor[(1, 3, 224, 224), int8] span=from_string:4:20 */, Primitive=1) -> Tensor[(1, 3, 224, 224), float32] {
    qnn.dequantize(%p02, 2f /* ty=float32 span=from_string:4:28 */, -12 /* ty=int32 span=from_string:4:72 */) /* ty=Tensor[(1, 3, 224, 224), float32] span=from_string:4:5 */
  } /* ty=fn (Tensor[(1, 3, 224, 224), int8]) -> Tensor[(1, 3, 224, 224), float32] span=from_string:6:8 */;
  %16 = %15(%x0) /* ty=Tensor[(1, 3, 224, 224), float32] span=from_string:99:13 */;
  %17 = fn (%p06: Tensor[(1, 3, 224, 224), float32] /* ty=Tensor[(1, 3, 224, 224), float32] span=from_string:20:9 */, Primitive=1) -> Tensor[(1, 3, 224, 224), float32] {
    add(%p06, 1f /* ty=float32 span=from_string:20:17 */) /* ty=Tensor[(1, 3, 224, 224), float32] span=from_string:20:5 */
  } /* ty=fn (Tensor[(1, 3, 224, 224), float32]) -> Tensor[(1, 3, 224, 224), float32] span=from_string:34:9 */;
  %18 = fn (%p01: Tensor[(1, 3, 224, 224), float32] /* ty=Tensor[(1, 3, 224, 224), float32] span=from_string:8:9 */, Primitive=1) -> Tensor[(1, 3, 224, 224), float32] {
    add(%p01, 1f /* ty=float32 span=from_string:8:17 */) /* ty=Tensor[(1, 3, 224, 224), float32] span=from_string:8:5 */
  } /* ty=fn (Tensor[(1, 3, 224, 224), float32]) -> Tensor[(1, 3, 224, 224), float32] span=from_string:10:8 */;
  %28 = fn (%p07: Tensor[(1, 3, 224, 224), float32] /* ty=Tensor[(1, 3, 224, 224), float32] span=from_string:23:15 */, Primitive=1) -> Tensor[(1, 9, 224, 224), float32] {
    %19 = add(%p07, 1f /* ty=float32 span=from_string:23:23 */) /* ty=Tensor[(1, 3, 224, 224), float32] span=from_string:26:12 */;
    %20 = (%19, %19) /* ty=(Tensor[(1, 3, 224, 224), float32], Tensor[(1, 3, 224, 224), float32]) span=from_string:25:23 */;
    %21 = concatenate(%20, axis=1) /* ty=Tensor[(1, 6, 224, 224), float32] span=from_string:28:34 */;
    %22 = (%19,) /* ty=(Tensor[(1, 3, 224, 224), float32],) span=from_string:27:23 */;
    %23 = concatenate(%22, axis=1) /* ty=Tensor[(1, 3, 224, 224), float32] span=from_string:29:34 */;
    %24 = annotation.stop_fusion(%21) /* ty=Tensor[(1, 6, 224, 224), float32] span=from_string:30:12 */;
    %25 = annotation.stop_fusion(%23) /* ty=Tensor[(1, 3, 224, 224), float32] span=from_string:30:17 */;
    %26 = (%24, %25) /* ty=(Tensor[(1, 6, 224, 224), float32], Tensor[(1, 3, 224, 224), float32]) span=from_string:31:23 */;
    %27 = concatenate(%26, axis=1) /* ty=Tensor[(1, 9, 224, 224), float32] span=from_string:32:9 */;
    add(%27, 1f /* ty=float32 span=from_string:32:16 */) /* ty=Tensor[(1, 9, 224, 224), float32] span=from_string:23:5 */
  } /* ty=fn (Tensor[(1, 3, 224, 224), float32]) -> Tensor[(1, 9, 224, 224), float32] span=from_string:35:9 */;
  %29 = %17(%16) /* ty=Tensor[(1, 3, 224, 224), float32] span=from_string:118:13 */;
  %30 = %18(%16) /* ty=Tensor[(1, 3, 224, 224), float32] span=from_string:92:13 */;
  %31 = %28(%16) /* ty=Tensor[(1, 9, 224, 224), float32] span=from_string:119:13 */;
  %32 = fn (%p05: Tensor[(1, 3, 224, 224), float32] /* ty=Tensor[(1, 3, 224, 224), float32] span=from_string:37:14 */, %p1: Tensor[(1, 3, 224, 224), float32] /* ty=Tensor[(1, 3, 224, 224), float32] span=from_string:38:11 */, %p2: Tensor[(1, 3, 224, 224), float32] /* ty=Tensor[(1, 3, 224, 224), float32] span=from_string:38:16 */, %p3: Tensor[(1, 9, 224, 224), float32] /* ty=Tensor[(1, 9, 224, 224), float32] span=from_string:41:17 */, Primitive=1) -> Tensor[(1, 27, 224, 224), float32] {
    %1 = add(%p05, 1f /* ty=float32 span=from_string:37:22 */) /* ty=Tensor[(1, 3, 224, 224), float32] span=from_string:43:20 */;
    %2 = (%p1, %p2, %1) /* ty=(Tensor[(1, 3, 224, 224), float32], Tensor[(1, 3, 224, 224), float32], Tensor[(1, 3, 224, 224), float32]) span=from_string:39:22 */;
    %3 = concatenate(%2, axis=1) /* ty=Tensor[(1, 9, 224, 224), float32] span=from_string:40:15 */;
    %4 = add(%3, 1f /* ty=float32 span=from_string:40:21 */) /* ty=Tensor[(1, 9, 224, 224), float32] span=from_string:41:12 */;
    %5 = (%4, %p3) /* ty=(Tensor[(1, 9, 224, 224), float32], Tensor[(1, 9, 224, 224), float32]) span=from_string:42:23 */;
    %6 = concatenate(%5, axis=1) /* ty=Tensor[(1, 18, 224, 224), float32] span=from_string:48:34 */;
    %7 = (%1, %1, %1) /* ty=(Tensor[(1, 3, 224, 224), float32], Tensor[(1, 3, 224, 224), float32], Tensor[(1, 3, 224, 224), float32]) span=from_string:44:23 */;
    %8 = concatenate(%7, axis=1) /* ty=Tensor[(1, 9, 224, 224), float32] span=from_string:45:15 */;
    %9 = add(%8, 1f /* ty=float32 span=from_string:45:22 */) /* ty=Tensor[(1, 9, 224, 224), float32] span=from_string:46:12 */;
    %10 = (%9,) /* ty=(Tensor[(1, 9, 224, 224), float32],) span=from_string:47:23 */;
    %11 = concatenate(%10, axis=1) /* ty=Tensor[(1, 9, 224, 224), float32] span=from_string:49:34 */;
    %12 = annotation.stop_fusion(%6) /* ty=Tensor[(1, 18, 224, 224), float32] span=from_string:50:12 */;
    %13 = annotation.stop_fusion(%11) /* ty=Tensor[(1, 9, 224, 224), float32] span=from_string:50:17 */;
    %14 = (%12, %13) /* ty=(Tensor[(1, 18, 224, 224), float32], Tensor[(1, 9, 224, 224), float32]) span=from_string:51:17 */;
    concatenate(%14, axis=1) /* ty=Tensor[(1, 27, 224, 224), float32] span=from_string:37:5 */
  } /* ty=fn (Tensor[(1, 3, 224, 224), float32], Tensor[(1, 3, 224, 224), float32], Tensor[(1, 3, 224, 224), float32], Tensor[(1, 9, 224, 224), float32]) -> Tensor[(1, 27, 224, 224), float32] span=from_string:53:9 */;
  %33 = %32(%16, %29, %30, %31) /* ty=Tensor[(1, 27, 224, 224), float32] span=from_string:58:13 */;
  %34 = fn (%p04: Tensor[(1, 27, 224, 224), float32] /* ty=Tensor[(1, 27, 224, 224), float32] span=from_string:55:25 */, Primitive=1) -> Tensor[(1, 27, 112, 112), float32] {
    %0 = nn.max_pool2d(%p04, pool_size=[2, 2], strides=[2, 2], padding=[0, 0, 0, 0]) /* ty=Tensor[(1, 27, 112, 112), float32] span=from_string:56:9 */;
    add(%0, 1f /* ty=float32 span=from_string:56:15 */) /* ty=Tensor[(1, 27, 112, 112), float32] span=from_string:55:5 */
  } /* ty=fn (Tensor[(1, 27, 224, 224), float32]) -> Tensor[(1, 27, 112, 112), float32] span=from_string:58:9 */;
  %35 = %34(%33) /* ty=Tensor[(1, 27, 112, 112), float32] span=from_string:117:10 */;
  %36 = fn (%p08: Tensor[(1, 27, 112, 112), float32] /* ty=Tensor[(1, 27, 112, 112), float32] span=from_string:60:9 */, Primitive=1) -> Tensor[(1, 27, 112, 112), float32] {
    add(%p08, 1f /* ty=float32 span=from_string:60:17 */) /* ty=Tensor[(1, 27, 112, 112), float32] span=from_string:60:5 */
  } /* ty=fn (Tensor[(1, 27, 112, 112), float32]) -> Tensor[(1, 27, 112, 112), float32] span=from_string:62:9 */;
  %37 = %36(%35) /* ty=Tensor[(1, 27, 112, 112), float32] span=from_string:117:15 */;
  %42 = fn (%p09: Tensor[(1, 3, 224, 224), float32] /* ty=Tensor[(1, 3, 224, 224), float32] span=from_string:64:21 */, Primitive=1) -> Tensor[(1, 3, 224, 224), float32] {
    %38 = transpose(%p09, axes=[0, 3, 1, 2]) /* ty=Tensor[(1, 224, 3, 224), float32] span=from_string:65:28 */;
    %39 = layout_transform(%38, src_layout="NCHW", dst_layout="NCHW4c") /* ty=Tensor[(1, 56, 3, 224, 4), float32] span=from_string:66:19 */;
    %40 = nn.relu(%39) /* ty=Tensor[(1, 56, 3, 224, 4), float32] span=from_string:67:28 */;
    %41 = layout_transform(%40, src_layout="NCHW4c", dst_layout="NCHW") /* ty=Tensor[(1, 224, 3, 224), float32] span=from_string:68:15 */;
    transpose(%41, axes=[0, 2, 3, 1]) /* ty=Tensor[(1, 3, 224, 224), float32] span=from_string:64:5 */
  } /* ty=fn (Tensor[(1, 3, 224, 224), float32]) -> Tensor[(1, 3, 224, 224), float32] span=from_string:118:9 */;
  %44 = fn (%p010: Tensor[(1, 9, 224, 224), float32] /* ty=Tensor[(1, 9, 224, 224), float32] span=from_string:71:19 */, Primitive=1, relay.reshape_only=1) -> Tensor[(1, 9, 224, 224), float32] {
    %43 = reshape(%p010, newshape=[9, 224, 224]) /* ty=Tensor[(9, 224, 224), float32] span=from_string:72:13 */;
    reshape(%43, newshape=[1, 9, 224, 224]) /* ty=Tensor[(1, 9, 224, 224), float32] span=from_string:71:5 */
  } /* ty=fn (Tensor[(1, 9, 224, 224), float32]) -> Tensor[(1, 9, 224, 224), float32] span=from_string:119:9 */;
  %45 = fn (%p0: Tensor[(1, 3, 224, 224), float32] /* ty=Tensor[(1, 3, 224, 224), float32] span=from_string:12:20 */, Primitive=1) -> Tensor[(1, 3, 224, 224), float32] {
    multiply(%p0, %p0) /* ty=Tensor[(1, 3, 224, 224), float32] span=from_string:12:6 */
  } /* ty=fn (Tensor[(1, 3, 224, 224), float32]) -> Tensor[(1, 3, 224, 224), float32] span=from_string:14:115 */;
  %48 = %45(%30) /* ty=Tensor[(1, 3, 224, 224), float32] span=from_string:14:115 */;
  %49 = fn (%p03: Tensor[(1, 3, 224, 224), float32] /* ty=Tensor[(1, 3, 224, 224), float32] span=from_string:16:15 */, Primitive=1) -> Tensor[(1, 3, 224, 224), float32] {
    ones_like(%p03) /* ty=Tensor[(1, 3, 224, 224), float32] span=from_string:16:5 */
  } /* ty=fn (Tensor[(1, 3, 224, 224), float32]) -> Tensor[(1, 3, 224, 224), float32] span=from_string:18:114 */;
  %50 = %49(%48) /* ty=Tensor[(1, 3, 224, 224), float32] span=from_string:18:114 */;
  %51 = fn (%p013: Tensor[(1, 3, 224, 224), float32] /* ty=Tensor[(1, 3, 224, 224), float32] span=from_string:75:15 */, %p13: Tensor[(1, 3, 224, 224), float32] /* ty=Tensor[(1, 3, 224, 224), float32] span=from_string:75:22 */, Primitive=1) -> Tensor[(1, 3, 224, 224), float32] {
    multiply(%p013, %p13) /* ty=Tensor[(1, 3, 224, 224), float32] span=from_string:75:6 */
  } /* ty=fn (Tensor[(1, 3, 224, 224), float32], Tensor[(1, 3, 224, 224), float32]) -> Tensor[(1, 3, 224, 224), float32] span=from_string:77:9 */;
  %52 = %51(%50, %30) /* ty=Tensor[(1, 3, 224, 224), float32] span=from_string:122:15 */;
  %53 = fn (%p012: Tensor[(1, 3, 224, 224), float32] /* ty=Tensor[(1, 3, 224, 224), float32] span=from_string:79:23 */, %p12: Tensor[(1, 3, 224, 224), float32] /* ty=Tensor[(1, 3, 224, 224), float32] span=from_string:79:30 */, Primitive=1) -> Tensor[(1, 3, 224, 224), float32] {
    collapse_sum_like(%p012, %p12) /* ty=Tensor[(1, 3, 224, 224), float32] span=from_string:79:5 */
  } /* ty=fn (Tensor[(1, 3, 224, 224), float32], Tensor[(1, 3, 224, 224), float32]) -> Tensor[(1, 3, 224, 224), float32] span=from_string:85:9 */;
  %55 = fn (%p014: Tensor[(1, 3, 224, 224), float32] /* ty=Tensor[(1, 3, 224, 224), float32] span=from_string:82:21 */, %p14: Tensor[(1, 3, 224, 224), float32] /* ty=Tensor[(1, 3, 224, 224), float32] span=from_string:83:28 */, Primitive=1) -> Tensor[(1, 3, 224, 224), float32] {
    %54 = multiply(%p014, %p14) /* ty=Tensor[(1, 3, 224, 224), float32] span=from_string:83:23 */;
    collapse_sum_like(%54, %p14) /* ty=Tensor[(1, 3, 224, 224), float32] span=from_string:82:5 */
  } /* ty=fn (Tensor[(1, 3, 224, 224), float32], Tensor[(1, 3, 224, 224), float32]) -> Tensor[(1, 3, 224, 224), float32] span=from_string:86:9 */;
  %56 = %53(%52, %30) /* ty=Tensor[(1, 3, 224, 224), float32] span=from_string:92:17 */;
  %57 = %55(%50, %30) /* ty=Tensor[(1, 3, 224, 224), float32] span=from_string:92:22 */;
  %58 = fn (%p011: Tensor[(1, 3, 224, 224), float32] /* ty=Tensor[(1, 3, 224, 224), float32] span=from_string:88:22 */, %p11: Tensor[(1, 3, 224, 224), float32] /* ty=Tensor[(1, 3, 224, 224), float32] span=from_string:89:20 */, %p21: Tensor[(1, 3, 224, 224), float32] /* ty=Tensor[(1, 3, 224, 224), float32] span=from_string:90:14 */, Primitive=1) -> Tensor[(1, 3, 224, 224), float32] {
    %46 = zeros_like(%p011) /* ty=Tensor[(1, 3, 224, 224), float32] span=from_string:89:15 */;
    %47 = add(%46, %p11) /* ty=Tensor[(1, 3, 224, 224), float32] span=from_string:90:9 */;
    add(%47, %p21) /* ty=Tensor[(1, 3, 224, 224), float32] span=from_string:88:5 */
  } /* ty=fn (Tensor[(1, 3, 224, 224), float32], Tensor[(1, 3, 224, 224), float32], Tensor[(1, 3, 224, 224), float32]) -> Tensor[(1, 3, 224, 224), float32] span=from_string:92:9 */;
  %59 = %58(%30, %56, %57) /* ty=Tensor[(1, 3, 224, 224), float32] span=from_string:93:10 */;
  %60 = (%59,) /* ty=(Tensor[(1, 3, 224, 224), float32],) span=from_string:120:15 */;
  %64 = fn (%p016: Tensor[(1, 3, 224, 224), float32] /* ty=Tensor[(1, 3, 224, 224), float32] span=from_string:95:25 */, Primitive=1) -> Tensor[(1, 3, 222, 222), float32] {
    %62 = nn.avg_pool2d(%p016, pool_size=[3, 3], padding=[0, 0, 0, 0]) /* ty=Tensor[(1, 3, 222, 222), float32] span=from_string:96:24 */;
    %63 = qnn.quantize(%62, 0.5f /* ty=float32 span=from_string:96:33 */, 10 /* ty=int32 span=from_string:96:77 */, out_dtype="int8") /* ty=Tensor[(1, 3, 222, 222), int8] span=from_string:97:20 */;
    qnn.dequantize(%63, 2f /* ty=float32 span=from_string:97:27 */, 0 /* ty=int32 span=from_string:97:70 */) /* ty=Tensor[(1, 3, 222, 222), float32] span=from_string:95:5 */
  } /* ty=fn (Tensor[(1, 3, 224, 224), float32]) -> Tensor[(1, 3, 222, 222), float32] span=from_string:99:9 */;
  %65 = %64(%16) /* ty=Tensor[(1, 3, 222, 222), float32] span=from_string:121:13 */;
  %66 = fn (%p015: Tensor[(1, 3, 222, 222), float32] /* ty=Tensor[(1, 3, 222, 222), float32] span=from_string:101:19 */, Primitive=1) -> Tensor[(3, 1, 222, 222), float32] {
    %61 = reshape(%p015, newshape=[3, 1, 222, 222]) /* ty=Tensor[(3, 1, 222, 222), float32] span=from_string:102:9 */;
    erf(%61) /* ty=Tensor[(3, 1, 222, 222), float32] span=from_string:101:5 */
  } /* ty=fn (Tensor[(1, 3, 222, 222), float32]) -> Tensor[(3, 1, 222, 222), float32] span=from_string:121:9 */;
  %67 = fn (%p018: Tensor[(1, 3, 224, 224), float32] /* ty=Tensor[(1, 3, 224, 224), float32] span=from_string:105:20 */, Primitive=1) -> Tensor[(1, 3, 112, 112), float32] {
    nn.max_pool2d(%p018, pool_size=[2, 2], strides=[2, 2], padding=[0, 0, 0, 0]) /* ty=Tensor[(1, 3, 112, 112), float32] span=from_string:105:5 */
  } /* ty=fn (Tensor[(1, 3, 224, 224), float32]) -> Tensor[(1, 3, 112, 112), float32] span=from_string:107:9 */;
  %68 = %67(%52) /* ty=Tensor[(1, 3, 112, 112), float32] span=from_string:111:13 */;
  %69 = fn (%p017: Tensor[(1, 3, 112, 112), float32] /* ty=Tensor[(1, 3, 112, 112), float32] span=from_string:109:19 */, Primitive=1) -> Tensor[(1, 3, 224, 224), float32] {
    nn.upsampling(%p017, scale_h=2f, scale_w=2f) /* ty=Tensor[(1, 3, 224, 224), float32] span=from_string:109:5 */
  } /* ty=fn (Tensor[(1, 3, 112, 112), float32]) -> Tensor[(1, 3, 224, 224), float32] span=from_string:111:9 */;
  %70 = %69(%68) /* ty=Tensor[(1, 3, 224, 224), float32] span=from_string:122:10 */;
  %73 = fn (%p019: Tensor[(1, 3, 224, 224), int8] /* ty=Tensor[(1, 3, 224, 224), int8] span=from_string:113:26 */, Primitive=1) -> Tensor[(1, 3, 224, 224), int8] {
    %71 = qnn.dequantize(%p019, 0.626659f /* ty=float32 span=from_string:113:42 */, -128 /* ty=int32 span=from_string:113:89 */) /* ty=Tensor[(1, 3, 224, 224), float32] span=from_string:114:16 */;
    %72 = sqrt(%71) /* ty=Tensor[(1, 3, 224, 224), float32] span=from_string:115:18 */;
    qnn.quantize(%72, 0.13107f /* ty=float32 span=from_string:115:31 */, -128 /* ty=int32 span=from_string:115:78 */, out_dtype="int8") /* ty=Tensor[(1, 3, 224, 224), int8] span=from_string:113:5 */
  } /* ty=fn (Tensor[(1, 3, 224, 224), int8]) -> Tensor[(1, 3, 224, 224), int8] span=from_string:123:9 */;
  %74 = (%35, %37) /* ty=(Tensor[(1, 27, 112, 112), float32], Tensor[(1, 27, 112, 112), float32]) span=from_string:124:4 */;
  %75 = %42(%29) /* ty=Tensor[(1, 3, 224, 224), float32] span=from_string:124:9 */;
  %76 = %44(%31) /* ty=Tensor[(1, 9, 224, 224), float32] span=from_string:124:14 */;
  %77 = (%48, %60) /* ty=(Tensor[(1, 3, 224, 224), float32], (Tensor[(1, 3, 224, 224), float32],)) span=from_string:124:19 */;
  %78 = %66(%65) /* ty=Tensor[(3, 1, 222, 222), float32] span=from_string:124:24 */;
  %79 = (%70, %52) /* ty=(Tensor[(1, 3, 224, 224), float32], Tensor[(1, 3, 224, 224), float32]) span=from_string:124:152 */;
  %80 = %73(%x0) /* ty=Tensor[(1, 3, 224, 224), int8] span=from_string:124:157 */;
  (%74, %75, %76, %77, %78, meta[relay.Constant][0] /* ty=Tensor[(4), int32] span=from_string:124:34 */, 1f /* ty=float32 span=from_string:124:108 */, %79, %80) /* ty=((Tensor[(1, 27, 112, 112), float32], Tensor[(1, 27, 112, 112), float32]), Tensor[(1, 3, 224, 224), float32], Tensor[(1, 9, 224, 224), float32], (Tensor[(1, 3, 224, 224), float32], (Tensor[(1, 3, 224, 224), float32],)), Tensor[(3, 1, 222, 222), float32], Tensor[(4), int32], float32, (Tensor[(1, 3, 224, 224), float32], Tensor[(1, 3, 224, 224), float32]), Tensor[(1, 3, 224, 224), int8]) span=from_string:124:3 */
}

#[metadata]
{
  "root": 1, 
  "nodes": [
    {
      "type_key": ""
    }, 
    {
      "type_key": "Map", 
      "keys": [
        "relay.Constant"
      ], 
      "data": [2]
    }, 
    {
      "type_key": "Array", 
      "data": [3]
    }, 
    {
      "type_key": "relay.Constant", 
      "attrs": {
        "_checked_type_": "8", 
        "data": "0", 
        "span": "6", 
        "virtual_device_": "4"
      }
    }, 
    {
      "type_key": "VirtualDevice", 
      "attrs": {
        "device_type_int": "-1", 
        "memory_scope": "5", 
        "target": "0", 
        "virtual_device_id": "-1"
      }
    }, 
    {
      "type_key": "runtime.String"
    }, 
    {
      "type_key": "Span", 
      "attrs": {
        "column": "34", 
        "end_column": "52", 
        "end_line": "124", 
        "line": "124", 
        "source_name": "7"
      }
    }, 
    {
      "type_key": "SourceName", 
      "repr_str": "from_string"
    }, 
    {
      "type_key": "relay.TensorType", 
      "attrs": {
        "dtype": "int32", 
        "shape": "9", 
        "span": "11"
      }
    }, 
    {
      "type_key": "Array", 
      "data": [10]
    }, 
    {
      "type_key": "IntImm", 
      "attrs": {
        "dtype": "int32", 
        "span": "0", 
        "value": "4"
      }
    }, 
    {
      "type_key": "Span", 
      "attrs": {
        "column": "530", 
        "end_column": "550", 
        "end_line": "2", 
        "line": "2", 
        "source_name": "7"
      }
    }
  ], 
  "b64ndarrays": [
    "P6G0lvBAXt0AAAAAAAAAAAEAAAAAAAAAAQAAAAAgAQAEAAAAAAAAABAAAAAAAAAAAQAAAAkAAADgAAAA4AAAAA=="
  ], 
  "attrs": {"tvm_version": "0.13.0"}
}