#[version = "0.0.5"]
def @main(%x0: Tensor[(1, 3, 224, 224), int8] /* ty=Tensor[(1, 3, 224, 224), int8] span=from_string:116:21 */, %x1: Tensor[(9, 224, 224), float32] /* ty=Tensor[(9, 224, 224), float32] */, %x2: Tensor[(58), int32] /* ty=Tensor[(58), int32] span=from_string:3:65 */) -> ((Tensor[(1, 27, 112, 112), float32], Tensor[(1, 27, 112, 112), float32]), Tensor[(1, 3, 224, 224), float32], Tensor[(1, 9, 224, 224), float32], (Tensor[(1, 3, 224, 224), float32], (Tensor[(1, 3, 224, 224), float32],)), Tensor[(3, 1, 222, 222), float32], Tensor[(4), int32], float32, (Tensor[(1, 3, 224, 224), float32], Tensor[(1, 3, 224, 224), float32]), Tensor[(1, 3, 224, 224), int8]) {
  %12 = fn (%p02: Tensor[(1, 3, 224, 224), int8] /* ty=Tensor[(1, 3, 224, 224), int8] span=from_string:5:20 */, Primitive=1) -> Tensor[(1, 3, 224, 224), float32] {
    qnn.dequantize(%p02, 2f /* ty=float32 span=from_string:5:28 */, -12 /* ty=int32 span=from_string:5:72 */) /* ty=Tensor[(1, 3, 224, 224), float32] span=from_string:5:5 */
  } /* ty=fn (Tensor[(1, 3, 224, 224), int8]) -> Tensor[(1, 3, 224, 224), float32] span=from_string:4:3 */;
  %13 = %12(%x0) /* ty=Tensor[(1, 3, 224, 224), float32] span=from_string:7:14 */;
  %14 = fn (%p05: Tensor[(1, 3, 224, 224), float32] /* ty=Tensor[(1, 3, 224, 224), float32] span=from_string:21:9 */, Primitive=1) -> Tensor[(1, 3, 224, 224), float32] {
    add(%p05, 1f /* ty=float32 span=from_string:21:17 */) /* ty=Tensor[(1, 3, 224, 224), float32] span=from_string:21:5 */
  } /* ty=fn (Tensor[(1, 3, 224, 224), float32]) -> Tensor[(1, 3, 224, 224), float32] span=from_string:20:3 */;
  %15 = fn (%p01: Tensor[(1, 3, 224, 224), float32] /* ty=Tensor[(1, 3, 224, 224), float32] span=from_string:9:9 */, Primitive=1) -> Tensor[(1, 3, 224, 224), float32] {
    add(%p01, 1f /* ty=float32 span=from_string:9:17 */) /* ty=Tensor[(1, 3, 224, 224), float32] span=from_string:9:5 */
  } /* ty=fn (Tensor[(1, 3, 224, 224), float32]) -> Tensor[(1, 3, 224, 224), float32] span=from_string:8:3 */;
  %21 = fn (%p06: Tensor[(1, 3, 224, 224), float32] /* ty=Tensor[(1, 3, 224, 224), float32] span=from_string:27:14 */, Primitive=1) -> Tensor[(1, 9, 224, 224), float32] {
    %16 = add(%p06, 1f /* ty=float32 span=from_string:25:22 */) /* ty=Tensor[(1, 3, 224, 224), float32] span=from_string:28:11 */;
    %17 = add(%p06, 1f /* ty=float32 span=from_string:26:22 */) /* ty=Tensor[(1, 3, 224, 224), float32] span=from_string:28:15 */;
    %18 = add(%p06, 1f /* ty=float32 span=from_string:27:22 */) /* ty=Tensor[(1, 3, 224, 224), float32] span=from_string:28:19 */;
    %19 = (%16, %17, %18) /* ty=(Tensor[(1, 3, 224, 224), float32], Tensor[(1, 3, 224, 224), float32], Tensor[(1, 3, 224, 224), float32]) span=from_string:29:22 */;
    %20 = concatenate(%19, axis=1) /* ty=Tensor[(1, 9, 224, 224), float32] span=from_string:30:9 */;
    add(%20, 1f /* ty=float32 span=from_string:30:15 */) /* ty=Tensor[(1, 9, 224, 224), float32] span=from_string:25:5 */
  } /* ty=fn (Tensor[(1, 3, 224, 224), float32]) -> Tensor[(1, 9, 224, 224), float32] span=from_string:24:3 */;
  %22 = %14(%13) /* ty=Tensor[(1, 3, 224, 224), float32] span=from_string:23:14 */;
  %23 = %15(%13) /* ty=Tensor[(1, 3, 224, 224), float32] span=from_string:11:14 */;
  %24 = %21(%13) /* ty=Tensor[(1, 9, 224, 224), float32] span=from_string:32:14 */;
  %25 = fn (%p04: Tensor[(1, 3, 224, 224), float32] /* ty=Tensor[(1, 3, 224, 224), float32] span=from_string:39:15 */, %p1: Tensor[(1, 3, 224, 224), float32] /* ty=Tensor[(1, 3, 224, 224), float32] span=from_string:35:11 */, %p2: Tensor[(1, 3, 224, 224), float32] /* ty=Tensor[(1, 3, 224, 224), float32] span=from_string:35:16 */, %p3: Tensor[(1, 9, 224, 224), float32] /* ty=Tensor[(1, 9, 224, 224), float32] span=from_string:44:17 */, Primitive=1) -> Tensor[(1, 27, 224, 224), float32] {
    %1 = add(%p04, 1f /* ty=float32 span=from_string:34:22 */) /* ty=Tensor[(1, 3, 224, 224), float32] span=from_string:35:21 */;
    %2 = (%p1, %p2, %1) /* ty=(Tensor[(1, 3, 224, 224), float32], Tensor[(1, 3, 224, 224), float32], Tensor[(1, 3, 224, 224), float32]) span=from_string:36:22 */;
    %3 = concatenate(%2, axis=1) /* ty=Tensor[(1, 9, 224, 224), float32] span=from_string:42:15 */;
    %4 = add(%p04, 1f /* ty=float32 span=from_string:37:22 */) /* ty=Tensor[(1, 3, 224, 224), float32] span=from_string:40:12 */;
    %5 = add(%p04, 1f /* ty=float32 span=from_string:38:22 */) /* ty=Tensor[(1, 3, 224, 224), float32] span=from_string:40:16 */;
    %6 = add(%p04, 1f /* ty=float32 span=from_string:39:23 */) /* ty=Tensor[(1, 3, 224, 224), float32] span=from_string:40:20 */;
    %7 = (%4, %5, %6) /* ty=(Tensor[(1, 3, 224, 224), float32], Tensor[(1, 3, 224, 224), float32], Tensor[(1, 3, 224, 224), float32]) span=from_string:41:23 */;
    %8 = concatenate(%7, axis=1) /* ty=Tensor[(1, 9, 224, 224), float32] span=from_string:43:15 */;
    %9 = add(%3, 1f /* ty=float32 span=from_string:42:21 */) /* ty=Tensor[(1, 9, 224, 224), float32] span=from_string:44:12 */;
    %10 = add(%8, 1f /* ty=float32 span=from_string:43:22 */) /* ty=Tensor[(1, 9, 224, 224), float32] span=from_string:44:22 */;
    %11 = (%9, %p3, %10) /* ty=(Tensor[(1, 9, 224, 224), float32], Tensor[(1, 9, 224, 224), float32], Tensor[(1, 9, 224, 224), float32]) span=from_string:45:17 */;
    concatenate(%11, axis=1) /* ty=Tensor[(1, 27, 224, 224), float32] span=from_string:34:5 */
  } /* ty=fn (Tensor[(1, 3, 224, 224), float32], Tensor[(1, 3, 224, 224), float32], Tensor[(1, 3, 224, 224), float32], Tensor[(1, 9, 224, 224), float32]) -> Tensor[(1, 27, 224, 224), float32] span=from_string:33:3 */;
  %26 = %25(%13, %22, %23, %24) /* ty=Tensor[(1, 27, 224, 224), float32] span=from_string:47:15 */;
  %27 = fn (%p03: Tensor[(1, 27, 224, 224), float32] /* ty=Tensor[(1, 27, 224, 224), float32] span=from_string:49:26 */, Primitive=1) -> Tensor[(1, 27, 112, 112), float32] {
    %0 = nn.max_pool2d(%p03, pool_size=[2, 2], strides=[2, 2], padding=[0, 0, 0, 0]) /* ty=Tensor[(1, 27, 112, 112), float32] span=from_string:50:9 */;
    add(%0, 1f /* ty=float32 span=from_string:50:16 */) /* ty=Tensor[(1, 27, 112, 112), float32] span=from_string:49:5 */
  } /* ty=fn (Tensor[(1, 27, 224, 224), float32]) -> Tensor[(1, 27, 112, 112), float32] span=from_string:48:3 */;
  %28 = %27(%26) /* ty=Tensor[(1, 27, 112, 112), float32] span=from_string:52:15 */;
  %29 = fn (%p07: Tensor[(1, 27, 112, 112), float32] /* ty=Tensor[(1, 27, 112, 112), float32] span=from_string:54:9 */, Primitive=1) -> Tensor[(1, 27, 112, 112), float32] {
    add(%p07, 1f /* ty=float32 span=from_string:54:17 */) /* ty=Tensor[(1, 27, 112, 112), float32] span=from_string:54:5 */
  } /* ty=fn (Tensor[(1, 27, 112, 112), float32]) -> Tensor[(1, 27, 112, 112), float32] span=from_string:53:3 */;
  %30 = %29(%28) /* ty=Tensor[(1, 27, 112, 112), float32] span=from_string:56:15 */;
  %33 = fn (%p08: Tensor[(1, 3, 224, 224), float32] /* ty=Tensor[(1, 3, 224, 224), float32] span=from_string:59:28 */, Primitive=1) -> Tensor[(1, 3, 224, 224), float32] {
    %31 = layout_transform(%p08, src_layout="NHWC", dst_layout="NCHW4c") /* ty=Tensor[(1, 56, 3, 224, 4), float32] span=from_string:60:19 */;
    %32 = nn.relu(%31) /* ty=Tensor[(1, 56, 3, 224, 4), float32] span=from_string:61:22 */;
    layout_transform(%32, src_layout="NCHW4c", dst_layout="NHWC") /* ty=Tensor[(1, 3, 224, 224), float32] span=from_string:59:5 */
  } /* ty=fn (Tensor[(1, 3, 224, 224), float32]) -> Tensor[(1, 3, 224, 224), float32] span=from_string:58:3 */;
  %34 = fn (%p09: Tensor[(1, 9, 224, 224), float32] /* ty=Tensor[(1, 9, 224, 224), float32] span=from_string:65:13 */, Primitive=1, relay.reshape_only=1) -> Tensor[(1, 9, 224, 224), float32] {
    reshape(%p09, newshape=[1, 9, 224, 224]) /* ty=Tensor[(1, 9, 224, 224), float32] span=from_string:65:5 */
  } /* ty=fn (Tensor[(1, 9, 224, 224), float32]) -> Tensor[(1, 9, 224, 224), float32] span=from_string:64:3 */;
  %35 = fn (%p0: Tensor[(1, 3, 224, 224), float32] /* ty=Tensor[(1, 3, 224, 224), float32] span=from_string:13:20 */, Primitive=1) -> Tensor[(1, 3, 224, 224), float32] {
    multiply(%p0, %p0) /* ty=Tensor[(1, 3, 224, 224), float32] span=from_string:13:6 */
  } /* ty=fn (Tensor[(1, 3, 224, 224), float32]) -> Tensor[(1, 3, 224, 224), float32] span=from_string:12:3 */;
  %36 = fn (Primitive=1) -> Tensor[(1, 3, 224, 224), float32] {
    ones(shape=[1, 3, 224, 224], dtype="float32") /* ty=Tensor[(1, 3, 224, 224), float32] span=from_string:17:5 */
  } /* ty=fn () -> Tensor[(1, 3, 224, 224), float32] span=from_string:16:3 */;
  %37 = %36() /* ty=Tensor[(1, 3, 224, 224), float32] span=from_string:19:114 */;
  %38 = fn (%p012: Tensor[(1, 3, 224, 224), float32] /* ty=Tensor[(1, 3, 224, 224), float32] span=from_string:69:15 */, %p13: Tensor[(1, 3, 224, 224), float32] /* ty=Tensor[(1, 3, 224, 224), float32] span=from_string:69:22 */, Primitive=1) -> Tensor[(1, 3, 224, 224), float32] {
    multiply(%p012, %p13) /* ty=Tensor[(1, 3, 224, 224), float32] span=from_string:69:6 */
  } /* ty=fn (Tensor[(1, 3, 224, 224), float32], Tensor[(1, 3, 224, 224), float32]) -> Tensor[(1, 3, 224, 224), float32] span=from_string:68:3 */;
  %39 = %38(%37, %23) /* ty=Tensor[(1, 3, 224, 224), float32] span=from_string:71:15 */;
  %40 = fn (%p011: Tensor[(1, 3, 224, 224), float32] /* ty=Tensor[(1, 3, 224, 224), float32] span=from_string:74:21 */, %p12: Tensor[(4), int32] /* ty=Tensor[(4), int32] span=from_string:74:28 */, Primitive=1) -> Tensor[(1, 3, 224, 224), float32] {
    collapse_sum_to(%p011, %p12, meta[relay.attrs.InitOpAttrs][0]) /* ty=Tensor[(1, 3, 224, 224), float32] span=from_string:74:5 */
  } /* ty=fn (Tensor[(1, 3, 224, 224), float32], Tensor[(4), int32]) -> Tensor[(1, 3, 224, 224), float32] span=from_string:73:3 */;
  %42 = fn (%p013: Tensor[(1, 3, 224, 224), float32] /* ty=Tensor[(1, 3, 224, 224), float32] span=from_string:79:21 */, %p14: Tensor[(1, 3, 224, 224), float32] /* ty=Tensor[(1, 3, 224, 224), float32] span=from_string:79:28 */, %p21: Tensor[(4), int32] /* ty=Tensor[(4), int32] span=from_string:80:26 */, Primitive=1) -> Tensor[(1, 3, 224, 224), float32] {
    %41 = multiply(%p013, %p14) /* ty=Tensor[(1, 3, 224, 224), float32] span=from_string:80:21 */;
    collapse_sum_to(%41, %p21, meta[relay.attrs.InitOpAttrs][1]) /* ty=Tensor[(1, 3, 224, 224), float32] span=from_string:79:5 */
  } /* ty=fn (Tensor[(1, 3, 224, 224), float32], Tensor[(1, 3, 224, 224), float32], Tensor[(4), int32]) -> Tensor[(1, 3, 224, 224), float32] span=from_string:78:3 */;
  %43 = %40(%39, meta[relay.Constant][0] /* ty=Tensor[(4), int32] span=from_string:72:20 */) /* ty=Tensor[(1, 3, 224, 224), float32] span=from_string:76:15 */;
  %44 = %42(%37, %23, meta[relay.Constant][1] /* ty=Tensor[(4), int32] span=from_string:77:20 */) /* ty=Tensor[(1, 3, 224, 224), float32] span=from_string:82:15 */;
  %45 = fn (%p010: Tensor[(1, 3, 224, 224), float32] /* ty=Tensor[(1, 3, 224, 224), float32] span=from_string:84:9 */, %p11: Tensor[(1, 3, 224, 224), float32] /* ty=Tensor[(1, 3, 224, 224), float32] span=from_string:84:16 */, Primitive=1) -> Tensor[(1, 3, 224, 224), float32] {
    add(%p010, %p11) /* ty=Tensor[(1, 3, 224, 224), float32] span=from_string:84:5 */
  } /* ty=fn (Tensor[(1, 3, 224, 224), float32], Tensor[(1, 3, 224, 224), float32]) -> Tensor[(1, 3, 224, 224), float32] span=from_string:83:3 */;
  %46 = %45(%43, %44) /* ty=Tensor[(1, 3, 224, 224), float32] span=from_string:86:15 */;
  %47 = %35(%23) /* ty=Tensor[(1, 3, 224, 224), float32] span=from_string:15:115 */;
  %48 = (%46,) /* ty=(Tensor[(1, 3, 224, 224), float32],) span=from_string:87:15 */;
  %52 = fn (%p015: Tensor[(1, 3, 224, 224), float32] /* ty=Tensor[(1, 3, 224, 224), float32] span=from_string:90:25 */, Primitive=1) -> Tensor[(1, 3, 222, 222), float32] {
    %50 = nn.avg_pool2d(%p015, pool_size=[3, 3], padding=[0, 0, 0, 0]) /* ty=Tensor[(1, 3, 222, 222), float32] span=from_string:91:24 */;
    %51 = qnn.quantize(%50, 0.5f /* ty=float32 span=from_string:91:33 */, 10 /* ty=int32 span=from_string:91:77 */, out_dtype="int8") /* ty=Tensor[(1, 3, 222, 222), int8] span=from_string:92:20 */;
    qnn.dequantize(%51, 2f /* ty=float32 span=from_string:92:27 */, 0 /* ty=int32 span=from_string:92:70 */) /* ty=Tensor[(1, 3, 222, 222), float32] span=from_string:90:5 */
  } /* ty=fn (Tensor[(1, 3, 224, 224), float32]) -> Tensor[(1, 3, 222, 222), float32] span=from_string:89:3 */;
  %53 = %52(%13) /* ty=Tensor[(1, 3, 222, 222), float32] span=from_string:94:15 */;
  %54 = fn (%p014: Tensor[(1, 3, 222, 222), float32] /* ty=Tensor[(1, 3, 222, 222), float32] span=from_string:96:19 */, Primitive=1) -> Tensor[(3, 1, 222, 222), float32] {
    %49 = reshape(%p014, newshape=[3, 1, 222, 222]) /* ty=Tensor[(3, 1, 222, 222), float32] span=from_string:97:9 */;
    erf(%49) /* ty=Tensor[(3, 1, 222, 222), float32] span=from_string:96:5 */
  } /* ty=fn (Tensor[(1, 3, 222, 222), float32]) -> Tensor[(3, 1, 222, 222), float32] span=from_string:95:3 */;
  %55 = fn (%p017: Tensor[(1, 3, 224, 224), float32] /* ty=Tensor[(1, 3, 224, 224), float32] span=from_string:103:20 */, Primitive=1) -> Tensor[(1, 3, 112, 112), float32] {
    nn.max_pool2d(%p017, pool_size=[2, 2], strides=[2, 2], padding=[0, 0, 0, 0]) /* ty=Tensor[(1, 3, 112, 112), float32] span=from_string:103:5 */
  } /* ty=fn (Tensor[(1, 3, 224, 224), float32]) -> Tensor[(1, 3, 112, 112), float32] span=from_string:102:3 */;
  %56 = %55(%39) /* ty=Tensor[(1, 3, 112, 112), float32] span=from_string:105:15 */;
  %57 = fn (%p016: Tensor[(1, 3, 112, 112), float32] /* ty=Tensor[(1, 3, 112, 112), float32] span=from_string:107:19 */, Primitive=1) -> Tensor[(1, 3, 224, 224), float32] {
    nn.upsampling(%p016, scale_h=2f, scale_w=2f) /* ty=Tensor[(1, 3, 224, 224), float32] span=from_string:107:5 */
  } /* ty=fn (Tensor[(1, 3, 112, 112), float32]) -> Tensor[(1, 3, 224, 224), float32] span=from_string:106:3 */;
  %58 = %57(%56) /* ty=Tensor[(1, 3, 224, 224), float32] span=from_string:109:15 */;
  %61 = fn (%p018: Tensor[(1, 3, 224, 224), int8] /* ty=Tensor[(1, 3, 224, 224), int8] span=from_string:112:26 */, Primitive=1) -> Tensor[(1, 3, 224, 224), int8] {
    %59 = qnn.dequantize(%p018, 0.626659f /* ty=float32 span=from_string:112:42 */, -128 /* ty=int32 span=from_string:112:89 */) /* ty=Tensor[(1, 3, 224, 224), float32] span=from_string:113:16 */;
    %60 = sqrt(%59) /* ty=Tensor[(1, 3, 224, 224), float32] span=from_string:114:18 */;
    qnn.quantize(%60, 0.13107f /* ty=float32 span=from_string:114:31 */, -128 /* ty=int32 span=from_string:114:78 */, out_dtype="int8") /* ty=Tensor[(1, 3, 224, 224), int8] span=from_string:112:5 */
  } /* ty=fn (Tensor[(1, 3, 224, 224), int8]) -> Tensor[(1, 3, 224, 224), int8] span=from_string:111:3 */;
  %62 = (%28, %30) /* ty=(Tensor[(1, 27, 112, 112), float32], Tensor[(1, 27, 112, 112), float32]) span=from_string:57:15 */;
  %63 = %33(%22) /* ty=Tensor[(1, 3, 224, 224), float32] span=from_string:63:15 */;
  %64 = %34(%24) /* ty=Tensor[(1, 9, 224, 224), float32] span=from_string:67:15 */;
  %65 = (%47, %48) /* ty=(Tensor[(1, 3, 224, 224), float32], (Tensor[(1, 3, 224, 224), float32],)) span=from_string:88:15 */;
  %66 = %54(%53) /* ty=Tensor[(3, 1, 222, 222), float32] span=from_string:99:15 */;
  %67 = (%58, %39) /* ty=(Tensor[(1, 3, 224, 224), float32], Tensor[(1, 3, 224, 224), float32]) span=from_string:110:15 */;
  %68 = %61(%x0) /* ty=Tensor[(1, 3, 224, 224), int8] span=from_string:116:15 */;
  (%62, %63, %64, %65, %66, meta[relay.Constant][2] /* ty=Tensor[(4), int32] span=from_string:100:20 */, 1f /* ty=float32 span=from_string:101:17 */, %67, %68) /* ty=((Tensor[(1, 27, 112, 112), float32], Tensor[(1, 27, 112, 112), float32]), Tensor[(1, 3, 224, 224), float32], Tensor[(1, 9, 224, 224), float32], (Tensor[(1, 3, 224, 224), float32], (Tensor[(1, 3, 224, 224), float32],)), Tensor[(3, 1, 222, 222), float32], Tensor[(4), int32], float32, (Tensor[(1, 3, 224, 224), float32], Tensor[(1, 3, 224, 224), float32]), Tensor[(1, 3, 224, 224), int8]) span=from_string:117:15 */
}

#[metadata]
{
  "root": 1, 
  "nodes": [
    {
      "type_key": ""
    }, 
    {
      "type_key": "Map", 
      "keys": [
        "relay.Constant", 
        "relay.attrs.InitOpAttrs"
      ], 
      "data": [2, 23]
    }, 
    {
      "type_key": "Array", 
      "data": [3, 11, 16]
    }, 
    {
      "type_key": "relay.Constant", 
      "attrs": {
        "_checked_type_": "8", 
        "data": "0", 
        "span": "6", 
        "virtual_device_": "4"
      }
    }, 
    {
      "type_key": "VirtualDevice", 
      "attrs": {
        "device_type_int": "-1", 
        "memory_scope": "5", 
        "target": "0", 
        "virtual_device_id": "-1"
      }
    }, 
    {
      "type_key": "runtime.String"
    }, 
    {
      "type_key": "Span", 
      "attrs": {
        "column": "20", 
        "end_column": "38", 
        "end_line": "72", 
        "line": "72", 
        "source_name": "7"
      }
    }, 
    {
      "type_key": "SourceName", 
      "repr_str": "from_string"
    }, 
    {
      "type_key": "relay.TensorType", 
      "attrs": {
        "dtype": "int32", 
        "shape": "9", 
        "span": "0"
      }
    }, 
    {
      "type_key": "Array", 
      "data": [10]
    }, 
    {
      "type_key": "IntImm", 
      "attrs": {
        "dtype": "int32", 
        "span": "0", 
        "value": "4"
      }
    }, 
    {
      "type_key": "relay.Constant", 
      "attrs": {
        "_checked_type_": "13", 
        "data": "1", 
        "span": "12", 
        "virtual_device_": "4"
      }
    }, 
    {
      "type_key": "Span", 
      "attrs": {
        "column": "20", 
        "end_column": "38", 
        "end_line": "77", 
        "line": "77", 
        "source_name": "7"
      }
    }, 
    {
      "type_key": "relay.TensorType", 
      "attrs": {
        "dtype": "int32", 
        "shape": "14", 
        "span": "0"
      }
    }, 
    {
      "type_key": "Array", 
      "data": [15]
    }, 
    {
      "type_key": "IntImm", 
      "attrs": {
        "dtype": "int32", 
        "span": "0", 
        "value": "4"
      }
    }, 
    {
      "type_key": "relay.Constant", 
      "attrs": {
        "_checked_type_": "20", 
        "data": "2", 
        "span": "19", 
        "virtual_device_": "17"
      }
    }, 
    {
      "type_key": "VirtualDevice", 
      "attrs": {
        "device_type_int": "-1", 
        "memory_scope": "18", 
        "target": "0", 
        "virtual_device_id": "-1"
      }
    }, 
    {
      "type_key": "runtime.String"
    }, 
    {
      "type_key": "Span", 
      "attrs": {
        "column": "20", 
        "end_column": "38", 
        "end_line": "100", 
        "line": "100", 
        "source_name": "7"
      }
    }, 
    {
      "type_key": "relay.TensorType", 
      "attrs": {
        "dtype": "int32", 
        "shape": "21", 
        "span": "0"
      }
    }, 
    {
      "type_key": "Array", 
      "data": [22]
    }, 
    {
      "type_key": "IntImm", 
      "attrs": {
        "dtype": "int32", 
        "span": "0", 
        "value": "4"
      }
    }, 
    {
      "type_key": "Array", 
      "data": [24, 30]
    }, 
    {
      "type_key": "relay.attrs.InitOpAttrs", 
      "attrs": {
        "dtype": "", 
        "shape": "25"
      }
    }, 
    {
      "type_key": "Array", 
      "data": [26, 27, 28, 29]
    }, 
    {
      "type_key": "IntImm", 
      "attrs": {
        "dtype": "int32", 
        "span": "0", 
        "value": "1"
      }
    }, 
    {
      "type_key": "IntImm", 
      "attrs": {
        "dtype": "int32", 
        "span": "0", 
        "value": "3"
      }
    }, 
    {
      "type_key": "IntImm", 
      "attrs": {
        "dtype": "int32", 
        "span": "0", 
        "value": "224"
      }
    }, 
    {
      "type_key": "IntImm", 
      "attrs": {
        "dtype": "int32", 
        "span": "0", 
        "value": "224"
      }
    }, 
    {
      "type_key": "relay.attrs.InitOpAttrs", 
      "attrs": {
        "dtype": "", 
        "shape": "31"
      }
    }, 
    {
      "type_key": "Array", 
      "data": [26, 27, 28, 29]
    }
  ], 
  "b64ndarrays": [
    "P6G0lvBAXt0AAAAAAAAAAAEAAAAAAAAAAQAAAAAgAQAEAAAAAAAAABAAAAAAAAAAAQAAAAMAAADgAAAA4AAAAA==", 
    "P6G0lvBAXt0AAAAAAAAAAAEAAAAAAAAAAQAAAAAgAQAEAAAAAAAAABAAAAAAAAAAAQAAAAMAAADgAAAA4AAAAA==", 
    "P6G0lvBAXt0AAAAAAAAAAAEAAAAAAAAAAQAAAAAgAQAEAAAAAAAAABAAAAAAAAAAAQAAAAkAAADgAAAA4AAAAA=="
  ], 
  "attrs": {"tvm_version": "0.13.0"}
}