#[version = "0.0.5"]
def @main(%x0: Tensor[(1, 3, 224, 224), int8] /* ty=Tensor[(1, 3, 224, 224), int8] span=from_string:64:24 */, %x1: Tensor[(9, 224, 224), float32] /* ty=Tensor[(9, 224, 224), float32] */, %x2: Tensor[(58), int32] /* ty=Tensor[(58), int32] span=from_string:7:65 */) -> ((Tensor[(1, 27, 112, 112), float32], Tensor[(1, 27, 112, 112), float32]), Tensor[(1, 3, 224, 224), float32], Tensor[(1, 9, 224, 224), float32], (Tensor[(1, 3, 224, 224), float32], (Tensor[(1, 3, 224, 224), float32],)), Tensor[(3, 1, 222, 222), float32], Tensor[(4), int32], float32, (Tensor[(1, 3, 224, 224), float32], Tensor[(1, 3, 224, 224), float32]), Tensor[(1, 3, 224, 224), int8]) {
  %0 = qnn.dequantize(%x0, 2f /* ty=float32 span=from_string:3:30 */, -12 /* ty=int32 span=from_string:3:74 */) /* ty=Tensor[(1, 3, 224, 224), float32] span=from_string:58:23 */;
  %1 = add(%0, 1f /* ty=float32 span=from_string:8:18 */) /* ty=Tensor[(1, 3, 224, 224), float32] span=from_string:36:19 */;
  %2 = add(%0, 1f /* ty=float32 span=from_string:4:18 */) /* ty=Tensor[(1, 3, 224, 224), float32] span=from_string:55:32 */;
  %3 = add(%0, 1f /* ty=float32 span=from_string:9:18 */) /* ty=Tensor[(1, 3, 224, 224), float32] span=from_string:10:17 */;
  %4 = (%1, %2, %3) /* ty=(Tensor[(1, 3, 224, 224), float32], Tensor[(1, 3, 224, 224), float32], Tensor[(1, 3, 224, 224), float32]) span=from_string:11:20 */;
  %5 = concatenate(%4, axis=1) /* ty=Tensor[(1, 9, 224, 224), float32] span=from_string:17:13 */;
  %6 = add(%0, 1f /* ty=float32 span=from_string:12:18 */) /* ty=Tensor[(1, 3, 224, 224), float32] span=from_string:40:10 */;
  %7 = add(%0, 1f /* ty=float32 span=from_string:13:18 */) /* ty=Tensor[(1, 3, 224, 224), float32] span=from_string:40:14 */;
  %8 = add(%0, 1f /* ty=float32 span=from_string:14:18 */) /* ty=Tensor[(1, 3, 224, 224), float32] span=from_string:42:10 */;
  %9 = (%6, %7, %8) /* ty=(Tensor[(1, 3, 224, 224), float32], Tensor[(1, 3, 224, 224), float32], Tensor[(1, 3, 224, 224), float32]) span=from_string:16:21 */;
  %10 = concatenate(%9, axis=1) /* ty=Tensor[(1, 9, 224, 224), float32] span=from_string:18:13 */;
  %11 = add(%5, 1f /* ty=float32 span=from_string:17:19 */) /* ty=Tensor[(1, 9, 224, 224), float32] span=from_string:19:10 */;
  %12 = add(%10, 1f /* ty=float32 span=from_string:18:20 */) /* ty=Tensor[(1, 9, 224, 224), float32] span=from_string:19:15 */;
  %13 = (%11, %12) /* ty=(Tensor[(1, 9, 224, 224), float32], Tensor[(1, 9, 224, 224), float32]) span=from_string:20:21 */;
  %14 = concatenate(%13, axis=1) /* ty=Tensor[(1, 18, 224, 224), float32] span=from_string:29:32 */;
  %15 = add(%0, 1f /* ty=float32 span=from_string:21:19 */) /* ty=Tensor[(1, 3, 224, 224), float32] span=from_string:24:10 */;
  %16 = add(%0, 1f /* ty=float32 span=from_string:22:19 */) /* ty=Tensor[(1, 3, 224, 224), float32] span=from_string:24:15 */;
  %17 = add(%0, 1f /* ty=float32 span=from_string:23:19 */) /* ty=Tensor[(1, 3, 224, 224), float32] span=from_string:24:20 */;
  %18 = (%15, %16, %17) /* ty=(Tensor[(1, 3, 224, 224), float32], Tensor[(1, 3, 224, 224), float32], Tensor[(1, 3, 224, 224), float32]) span=from_string:25:21 */;
  %19 = concatenate(%18, axis=1) /* ty=Tensor[(1, 9, 224, 224), float32] span=from_string:26:13 */;
  %20 = add(%19, 1f /* ty=float32 span=from_string:26:20 */) /* ty=Tensor[(1, 9, 224, 224), float32] span=from_string:27:10 */;
  %21 = (%20,) /* ty=(Tensor[(1, 9, 224, 224), float32],) span=from_string:28:21 */;
  %22 = concatenate(%21, axis=1) /* ty=Tensor[(1, 9, 224, 224), float32] span=from_string:30:32 */;
  %23 = annotation.stop_fusion(%14) /* ty=Tensor[(1, 18, 224, 224), float32] span=from_string:31:10 */;
  %24 = annotation.stop_fusion(%22) /* ty=Tensor[(1, 9, 224, 224), float32] span=from_string:31:15 */;
  %25 = (%23, %24) /* ty=(Tensor[(1, 18, 224, 224), float32], Tensor[(1, 9, 224, 224), float32]) span=from_string:32:21 */;
  %26 = concatenate(%25, axis=1) /* ty=Tensor[(1, 27, 224, 224), float32] span=from_string:33:24 */;
  %27 = nn.max_pool2d(%26, pool_size=[2, 2], strides=[2, 2], padding=[0, 0, 0, 0]) /* ty=Tensor[(1, 27, 112, 112), float32] span=from_string:34:13 */;
  %28 = add(%27, 1f /* ty=float32 span=from_string:34:20 */) /* ty=Tensor[(1, 27, 112, 112), float32] span=from_string:66:10 */;
  %29 = add(%28, 1f /* ty=float32 span=from_string:35:20 */) /* ty=Tensor[(1, 27, 112, 112), float32] span=from_string:66:15 */;
  %30 = transpose(%1, axes=[0, 3, 1, 2]) /* ty=Tensor[(1, 224, 3, 224), float32] span=from_string:37:26 */;
  %31 = layout_transform(%30, src_layout="NCHW", dst_layout="NCHW4c") /* ty=Tensor[(1, 56, 3, 224, 4), float32] span=from_string:38:17 */;
  %32 = nn.relu(%31) /* ty=Tensor[(1, 56, 3, 224, 4), float32] span=from_string:39:26 */;
  %33 = layout_transform(%32, src_layout="NCHW4c", dst_layout="NCHW") /* ty=Tensor[(1, 224, 3, 224), float32] span=from_string:67:19 */;
  %34 = (%6, %7) /* ty=(Tensor[(1, 3, 224, 224), float32], Tensor[(1, 3, 224, 224), float32]) span=from_string:41:21 */;
  %35 = concatenate(%34, axis=1) /* ty=Tensor[(1, 6, 224, 224), float32] span=from_string:44:32 */;
  %36 = (%8,) /* ty=(Tensor[(1, 3, 224, 224), float32],) span=from_string:43:21 */;
  %37 = concatenate(%36, axis=1) /* ty=Tensor[(1, 3, 224, 224), float32] span=from_string:45:32 */;
  %38 = annotation.stop_fusion(%35) /* ty=Tensor[(1, 6, 224, 224), float32] span=from_string:46:10 */;
  %39 = annotation.stop_fusion(%37) /* ty=Tensor[(1, 3, 224, 224), float32] span=from_string:46:15 */;
  %40 = (%38, %39) /* ty=(Tensor[(1, 6, 224, 224), float32], Tensor[(1, 3, 224, 224), float32]) span=from_string:47:21 */;
  %41 = concatenate(%40, axis=1) /* ty=Tensor[(1, 9, 224, 224), float32] span=from_string:48:13 */;
  %42 = add(%41, 1f /* ty=float32 span=from_string:48:20 */) /* ty=Tensor[(1, 9, 224, 224), float32] span=from_string:49:17 */;
  %43 = reshape(%42, newshape=[9, 224, 224]) /* ty=Tensor[(9, 224, 224), float32] span=from_string:68:17 */;
  %44 = multiply(%2, %2) /* ty=Tensor[(1, 3, 224, 224), float32] span=from_string:5:115 */;
  %45 = ones_like(%44) /* ty=Tensor[(1, 3, 224, 224), float32] span=from_string:6:114 */;
  %46 = multiply(%45, %2) /* ty=Tensor[(1, 3, 224, 224), float32] span=from_string:71:15 */;
  %47 = zeros_like(%2) /* ty=Tensor[(1, 3, 224, 224), float32] span=from_string:54:13 */;
  %48 = collapse_sum_like(%46, %2) /* ty=Tensor[(1, 3, 224, 224), float32] span=from_string:54:18 */;
  %49 = multiply(%45, %2) /* ty=Tensor[(1, 3, 224, 224), float32] span=from_string:55:27 */;
  %50 = add(%47, %48) /* ty=Tensor[(1, 3, 224, 224), float32] span=from_string:56:13 */;
  %51 = collapse_sum_like(%49, %2) /* ty=Tensor[(1, 3, 224, 224), float32] span=from_string:56:18 */;
  %52 = add(%50, %51) /* ty=Tensor[(1, 3, 224, 224), float32] span=from_string:57:10 */;
  %53 = (%52,) /* ty=(Tensor[(1, 3, 224, 224), float32],) span=from_string:69:15 */;
  %54 = nn.avg_pool2d(%0, pool_size=[3, 3], padding=[0, 0, 0, 0]) /* ty=Tensor[(1, 3, 222, 222), float32] span=from_string:59:22 */;
  %55 = qnn.quantize(%54, 0.5f /* ty=float32 span=from_string:59:31 */, 10 /* ty=int32 span=from_string:59:75 */, out_dtype="int8") /* ty=Tensor[(1, 3, 222, 222), int8] span=from_string:60:24 */;
  %56 = qnn.dequantize(%55, 2f /* ty=float32 span=from_string:60:31 */, 0 /* ty=int32 span=from_string:60:74 */) /* ty=Tensor[(1, 3, 222, 222), float32] span=from_string:61:17 */;
  %57 = reshape(%56, newshape=[3, 1, 222, 222]) /* ty=Tensor[(3, 1, 222, 222), float32] span=from_string:70:13 */;
  %58 = nn.max_pool2d(%46, pool_size=[2, 2], strides=[2, 2], padding=[0, 0, 0, 0]) /* ty=Tensor[(1, 3, 112, 112), float32] span=from_string:63:23 */;
  %59 = nn.upsampling(%58, scale_h=2f, scale_w=2f) /* ty=Tensor[(1, 3, 224, 224), float32] span=from_string:71:10 */;
  %60 = qnn.dequantize(%x0, 0.626659f /* ty=float32 span=from_string:64:38 */, -128 /* ty=int32 span=from_string:64:84 */) /* ty=Tensor[(1, 3, 224, 224), float32] span=from_string:65:14 */;
  %61 = sqrt(%60) /* ty=Tensor[(1, 3, 224, 224), float32] span=from_string:72:22 */;
  %62 = (%28, %29) /* ty=(Tensor[(1, 27, 112, 112), float32], Tensor[(1, 27, 112, 112), float32]) span=from_string:73:4 */;
  %63 = transpose(%33, axes=[0, 2, 3, 1]) /* ty=Tensor[(1, 3, 224, 224), float32] span=from_string:73:9 */;
  %64 = reshape(%43, newshape=[1, 9, 224, 224]) /* ty=Tensor[(1, 9, 224, 224), float32] span=from_string:73:14 */;
  %65 = (%44, %53) /* ty=(Tensor[(1, 3, 224, 224), float32], (Tensor[(1, 3, 224, 224), float32],)) span=from_string:73:19 */;
  %66 = erf(%57) /* ty=Tensor[(3, 1, 222, 222), float32] span=from_string:73:24 */;
  %67 = (%59, %46) /* ty=(Tensor[(1, 3, 224, 224), float32], Tensor[(1, 3, 224, 224), float32]) span=from_string:73:149 */;
  %68 = qnn.quantize(%61, 0.13107f /* ty=float32 span=from_string:72:35 */, -128 /* ty=int32 span=from_string:72:81 */, out_dtype="int8") /* ty=Tensor[(1, 3, 224, 224), int8] span=from_string:73:154 */;
  (%62, %63, %64, %65, %66, meta[relay.Constant][0] /* ty=Tensor[(4), int32] span=from_string:73:34 */, 1f /* ty=float32 span=from_string:73:107 */, %67, %68) /* ty=((Tensor[(1, 27, 112, 112), float32], Tensor[(1, 27, 112, 112), float32]), Tensor[(1, 3, 224, 224), float32], Tensor[(1, 9, 224, 224), float32], (Tensor[(1, 3, 224, 224), float32], (Tensor[(1, 3, 224, 224), float32],)), Tensor[(3, 1, 222, 222), float32], Tensor[(4), int32], float32, (Tensor[(1, 3, 224, 224), float32], Tensor[(1, 3, 224, 224), float32]), Tensor[(1, 3, 224, 224), int8]) span=from_string:73:3 */
}

#[metadata]
{
  "root": 1, 
  "nodes": [
    {
      "type_key": ""
    }, 
    {
      "type_key": "Map", 
      "keys": [
        "relay.Constant"
      ], 
      "data": [2]
    }, 
    {
      "type_key": "Array", 
      "data": [3]
    }, 
    {
      "type_key": "relay.Constant", 
      "attrs": {
        "_checked_type_": "8", 
        "data": "0", 
        "span": "6", 
        "virtual_device_": "4"
      }
    }, 
    {
      "type_key": "VirtualDevice", 
      "attrs": {
        "device_type_int": "-1", 
        "memory_scope": "5", 
        "target": "0", 
        "virtual_device_id": "-1"
      }
    }, 
    {
      "type_key": "runtime.String"
    }, 
    {
      "type_key": "Span", 
      "attrs": {
        "column": "34", 
        "end_column": "52", 
        "end_line": "73", 
        "line": "73", 
        "source_name": "7"
      }
    }, 
    {
      "type_key": "SourceName", 
      "repr_str": "from_string"
    }, 
    {
      "type_key": "relay.TensorType", 
      "attrs": {
        "dtype": "int32", 
        "shape": "9", 
        "span": "11"
      }
    }, 
    {
      "type_key": "Array", 
      "data": [10]
    }, 
    {
      "type_key": "IntImm", 
      "attrs": {
        "dtype": "int32", 
        "span": "0", 
        "value": "4"
      }
    }, 
    {
      "type_key": "Span", 
      "attrs": {
        "column": "528", 
        "end_column": "548", 
        "end_line": "2", 
        "line": "2", 
        "source_name": "7"
      }
    }
  ], 
  "b64ndarrays": [
    "P6G0lvBAXt0AAAAAAAAAAAEAAAAAAAAAAQAAAAAgAQAEAAAAAAAAABAAAAAAAAAAAQAAAAkAAADgAAAA4AAAAA=="
  ], 
  "attrs": {"tvm_version": "0.13.0"}
}