#[version = "0.0.5"]
def @main(%x0: Tensor[(1, 3, 224, 224), int8] /* ty=Tensor[(1, 3, 224, 224), int8] span=from_string:117:13 */, %x1: Tensor[(9, 224, 224), float32] /* ty=Tensor[(9, 224, 224), float32] */, %x2: Tensor[(58), int32] /* ty=Tensor[(58), int32] span=from_string:19:65 */) -> ((Tensor[(1, 27, 112, 112), float32], Tensor[(1, 27, 112, 112), float32]), Tensor[(1, 3, 224, 224), float32], Tensor[(1, 9, 224, 224), float32], (Tensor[(1, 3, 224, 224), float32], (Tensor[(1, 3, 224, 224), float32],)), Tensor[(3, 1, 222, 222), float32], Tensor[(4), int32], float32, (Tensor[(1, 3, 224, 224), float32], Tensor[(1, 3, 224, 224), float32]), Tensor[(1, 3, 224, 224), int8]) {
  let %x6: Tensor[(58), int32] /* ty=Tensor[(58), int32] */ = %x2;
  let %x_0 = fn (%p02: Tensor[(1, 3, 224, 224), int8] /* ty=Tensor[(1, 3, 224, 224), int8] span=from_string:4:20 */, Primitive=1) -> Tensor[(1, 3, 224, 224), float32] {
    qnn.dequantize(%p02, 2f /* ty=float32 span=from_string:4:28 */, -12 /* ty=int32 span=from_string:4:72 */) /* ty=Tensor[(1, 3, 224, 224), float32] span=from_string:4:5 */
  } /* ty=fn (Tensor[(1, 3, 224, 224), int8]) -> Tensor[(1, 3, 224, 224), float32] span=from_string:6:8 */;
  let %x_1 = %x_0(%x0);
  let %x_2 = fn (%p01: Tensor[(1, 3, 224, 224), float32] /* ty=Tensor[(1, 3, 224, 224), float32] span=from_string:8:9 */, Primitive=1) -> Tensor[(1, 3, 224, 224), float32] {
    add(%p01, 1f /* ty=float32 span=from_string:8:17 */) /* ty=Tensor[(1, 3, 224, 224), float32] span=from_string:8:5 */
  } /* ty=fn (Tensor[(1, 3, 224, 224), float32]) -> Tensor[(1, 3, 224, 224), float32] span=from_string:10:8 */;
  let %x_3 = %x_2(%x_1);
  let %x_4 = fn (%p0: Tensor[(1, 3, 224, 224), float32] /* ty=Tensor[(1, 3, 224, 224), float32] span=from_string:12:20 */, Primitive=1) -> Tensor[(1, 3, 224, 224), float32] {
    multiply(%p0, %p0) /* ty=Tensor[(1, 3, 224, 224), float32] span=from_string:12:6 */
  } /* ty=fn (Tensor[(1, 3, 224, 224), float32]) -> Tensor[(1, 3, 224, 224), float32] span=from_string:14:114 */;
  let %x3: Tensor[(1, 3, 224, 224), float32] /* ty=Tensor[(1, 3, 224, 224), float32] span=from_string:114:10 */ = %x_4(%x_3);
  let %x_5 = fn (%p03: Tensor[(1, 3, 224, 224), float32] /* ty=Tensor[(1, 3, 224, 224), float32] span=from_string:16:15 */, Primitive=1) -> Tensor[(1, 3, 224, 224), float32] {
    ones_like(%p03) /* ty=Tensor[(1, 3, 224, 224), float32] span=from_string:16:5 */
  } /* ty=fn (Tensor[(1, 3, 224, 224), float32]) -> Tensor[(1, 3, 224, 224), float32] span=from_string:18:114 */;
  let %x4: Tensor[(1, 3, 224, 224), float32] /* ty=Tensor[(1, 3, 224, 224), float32] span=from_string:80:13 */ = %x_5(%x3);
  let %x_6 = fn (%p06: Tensor[(1, 3, 224, 224), float32] /* ty=Tensor[(1, 3, 224, 224), float32] span=from_string:21:9 */, Primitive=1) -> Tensor[(1, 3, 224, 224), float32] {
    add(%p06, 1f /* ty=float32 span=from_string:21:17 */) /* ty=Tensor[(1, 3, 224, 224), float32] span=from_string:21:5 */
  } /* ty=fn (Tensor[(1, 3, 224, 224), float32]) -> Tensor[(1, 3, 224, 224), float32] span=from_string:31:9 */;
  let %x_7 = %x_6(%x_1);
  let %x_8 = fn (%p07: Tensor[(1, 3, 224, 224), float32] /* ty=Tensor[(1, 3, 224, 224), float32] span=from_string:26:15 */, Primitive=1) -> Tensor[(1, 9, 224, 224), float32] {
    %0 = add(%p07, 1f /* ty=float32 span=from_string:24:23 */) /* ty=Tensor[(1, 3, 224, 224), float32] span=from_string:27:12 */;
    %1 = add(%p07, 1f /* ty=float32 span=from_string:25:23 */) /* ty=Tensor[(1, 3, 224, 224), float32] span=from_string:27:17 */;
    %2 = add(%p07, 1f /* ty=float32 span=from_string:26:23 */) /* ty=Tensor[(1, 3, 224, 224), float32] span=from_string:27:22 */;
    %3 = (%0, %1, %2) /* ty=(Tensor[(1, 3, 224, 224), float32], Tensor[(1, 3, 224, 224), float32], Tensor[(1, 3, 224, 224), float32]) span=from_string:28:23 */;
    %4 = concatenate(%3, axis=1) /* ty=Tensor[(1, 9, 224, 224), float32] span=from_string:29:9 */;
    add(%4, 1f /* ty=float32 span=from_string:29:16 */) /* ty=Tensor[(1, 9, 224, 224), float32] span=from_string:24:5 */
  } /* ty=fn (Tensor[(1, 3, 224, 224), float32]) -> Tensor[(1, 9, 224, 224), float32] span=from_string:32:9 */;
  let %x_9 = %x_8(%x_1);
  let %x_10 = fn (%p05: Tensor[(1, 3, 224, 224), float32] /* ty=Tensor[(1, 3, 224, 224), float32] span=from_string:39:15 */, %p1: Tensor[(1, 3, 224, 224), float32] /* ty=Tensor[(1, 3, 224, 224), float32] span=from_string:35:11 */, %p2: Tensor[(1, 3, 224, 224), float32] /* ty=Tensor[(1, 3, 224, 224), float32] span=from_string:35:16 */, %p3: Tensor[(1, 9, 224, 224), float32] /* ty=Tensor[(1, 9, 224, 224), float32] span=from_string:44:17 */, Primitive=1) -> Tensor[(1, 27, 224, 224), float32] {
    %5 = add(%p05, 1f /* ty=float32 span=from_string:34:22 */) /* ty=Tensor[(1, 3, 224, 224), float32] span=from_string:35:21 */;
    %6 = (%p1, %p2, %5) /* ty=(Tensor[(1, 3, 224, 224), float32], Tensor[(1, 3, 224, 224), float32], Tensor[(1, 3, 224, 224), float32]) span=from_string:36:22 */;
    %7 = concatenate(%6, axis=1) /* ty=Tensor[(1, 9, 224, 224), float32] span=from_string:42:15 */;
    %8 = add(%p05, 1f /* ty=float32 span=from_string:37:23 */) /* ty=Tensor[(1, 3, 224, 224), float32] span=from_string:40:12 */;
    %9 = add(%p05, 1f /* ty=float32 span=from_string:38:23 */) /* ty=Tensor[(1, 3, 224, 224), float32] span=from_string:40:17 */;
    %10 = add(%p05, 1f /* ty=float32 span=from_string:39:23 */) /* ty=Tensor[(1, 3, 224, 224), float32] span=from_string:40:22 */;
    %11 = (%8, %9, %10) /* ty=(Tensor[(1, 3, 224, 224), float32], Tensor[(1, 3, 224, 224), float32], Tensor[(1, 3, 224, 224), float32]) span=from_string:41:23 */;
    %12 = concatenate(%11, axis=1) /* ty=Tensor[(1, 9, 224, 224), float32] span=from_string:43:15 */;
    %13 = add(%7, 1f /* ty=float32 span=from_string:42:21 */) /* ty=Tensor[(1, 9, 224, 224), float32] span=from_string:44:12 */;
    %14 = add(%12, 1f /* ty=float32 span=from_string:43:22 */) /* ty=Tensor[(1, 9, 224, 224), float32] span=from_string:44:22 */;
    %15 = (%13, %p3, %14) /* ty=(Tensor[(1, 9, 224, 224), float32], Tensor[(1, 9, 224, 224), float32], Tensor[(1, 9, 224, 224), float32]) span=from_string:45:17 */;
    concatenate(%15, axis=1) /* ty=Tensor[(1, 27, 224, 224), float32] span=from_string:34:5 */
  } /* ty=fn (Tensor[(1, 3, 224, 224), float32], Tensor[(1, 3, 224, 224), float32], Tensor[(1, 3, 224, 224), float32], Tensor[(1, 9, 224, 224), float32]) -> Tensor[(1, 27, 224, 224), float32] span=from_string:47:9 */;
  let %x_11 = %x_10(%x_1, %x_7, %x_3, %x_9);
  let %x_12 = fn (%p04: Tensor[(1, 27, 224, 224), float32] /* ty=Tensor[(1, 27, 224, 224), float32] span=from_string:49:25 */, Primitive=1) -> Tensor[(1, 27, 112, 112), float32] {
    %16 = nn.max_pool2d(%p04, pool_size=[2, 2], strides=[2, 2], padding=[0, 0, 0, 0]) /* ty=Tensor[(1, 27, 112, 112), float32] span=from_string:50:9 */;
    add(%16, 1f /* ty=float32 span=from_string:50:15 */) /* ty=Tensor[(1, 27, 112, 112), float32] span=from_string:49:5 */
  } /* ty=fn (Tensor[(1, 27, 224, 224), float32]) -> Tensor[(1, 27, 112, 112), float32] span=from_string:52:9 */;
  let %x_13 = %x_12(%x_11);
  let %x_14 = fn (%p08: Tensor[(1, 27, 112, 112), float32] /* ty=Tensor[(1, 27, 112, 112), float32] span=from_string:54:9 */, Primitive=1) -> Tensor[(1, 27, 112, 112), float32] {
    add(%p08, 1f /* ty=float32 span=from_string:54:17 */) /* ty=Tensor[(1, 27, 112, 112), float32] span=from_string:54:5 */
  } /* ty=fn (Tensor[(1, 27, 112, 112), float32]) -> Tensor[(1, 27, 112, 112), float32] span=from_string:56:9 */;
  let %x_15 = %x_14(%x_13);
  let %x_16 = (%x_13, %x_15) /* ty=(Tensor[(1, 27, 112, 112), float32], Tensor[(1, 27, 112, 112), float32]) span=from_string:118:4 */;
  let %x_17 = fn (%p09: Tensor[(1, 3, 224, 224), float32] /* ty=Tensor[(1, 3, 224, 224), float32] span=from_string:58:21 */, Primitive=1) -> Tensor[(1, 3, 224, 224), float32] {
    %17 = transpose(%p09, axes=[0, 3, 1, 2]) /* ty=Tensor[(1, 224, 3, 224), float32] span=from_string:59:28 */;
    %18 = layout_transform(%17, src_layout="NCHW", dst_layout="NCHW4c") /* ty=Tensor[(1, 56, 3, 224, 4), float32] span=from_string:60:19 */;
    %19 = nn.relu(%18) /* ty=Tensor[(1, 56, 3, 224, 4), float32] span=from_string:61:28 */;
    %20 = layout_transform(%19, src_layout="NCHW4c", dst_layout="NCHW") /* ty=Tensor[(1, 224, 3, 224), float32] span=from_string:62:15 */;
    transpose(%20, axes=[0, 2, 3, 1]) /* ty=Tensor[(1, 3, 224, 224), float32] span=from_string:58:5 */
  } /* ty=fn (Tensor[(1, 3, 224, 224), float32]) -> Tensor[(1, 3, 224, 224), float32] span=from_string:112:9 */;
  let %x_18 = %x_17(%x_7);
  let %x_19 = fn (%p010: Tensor[(1, 9, 224, 224), float32] /* ty=Tensor[(1, 9, 224, 224), float32] span=from_string:65:19 */, Primitive=1, relay.reshape_only=1) -> Tensor[(1, 9, 224, 224), float32] {
    %21 = reshape(%p010, newshape=[9, 224, 224]) /* ty=Tensor[(9, 224, 224), float32] span=from_string:66:13 */;
    reshape(%21, newshape=[1, 9, 224, 224]) /* ty=Tensor[(1, 9, 224, 224), float32] span=from_string:65:5 */
  } /* ty=fn (Tensor[(1, 9, 224, 224), float32]) -> Tensor[(1, 9, 224, 224), float32] span=from_string:113:9 */;
  let %x_20 = %x_19(%x_9);
  let %x_21 = fn (%p013: Tensor[(1, 3, 224, 224), float32] /* ty=Tensor[(1, 3, 224, 224), float32] span=from_string:69:15 */, %p13: Tensor[(1, 3, 224, 224), float32] /* ty=Tensor[(1, 3, 224, 224), float32] span=from_string:69:22 */, Primitive=1) -> Tensor[(1, 3, 224, 224), float32] {
    multiply(%p013, %p13) /* ty=Tensor[(1, 3, 224, 224), float32] span=from_string:69:6 */
  } /* ty=fn (Tensor[(1, 3, 224, 224), float32], Tensor[(1, 3, 224, 224), float32]) -> Tensor[(1, 3, 224, 224), float32] span=from_string:71:9 */;
  let %x_22 = %x_21(%x4, %x_3);
  let %x_23 = fn (%p012: Tensor[(1, 3, 224, 224), float32] /* ty=Tensor[(1, 3, 224, 224), float32] span=from_string:73:23 */, %p12: Tensor[(1, 3, 224, 224), float32] /* ty=Tensor[(1, 3, 224, 224), float32] span=from_string:73:30 */, Primitive=1) -> Tensor[(1, 3, 224, 224), float32] {
    collapse_sum_like(%p012, %p12) /* ty=Tensor[(1, 3, 224, 224), float32] span=from_string:73:5 */
  } /* ty=fn (Tensor[(1, 3, 224, 224), float32], Tensor[(1, 3, 224, 224), float32]) -> Tensor[(1, 3, 224, 224), float32] span=from_string:79:9 */;
  let %x_24 = %x_23(%x_22, %x_3);
  let %x_25 = fn (%p014: Tensor[(1, 3, 224, 224), float32] /* ty=Tensor[(1, 3, 224, 224), float32] span=from_string:76:21 */, %p14: Tensor[(1, 3, 224, 224), float32] /* ty=Tensor[(1, 3, 224, 224), float32] span=from_string:77:28 */, Primitive=1) -> Tensor[(1, 3, 224, 224), float32] {
    %22 = multiply(%p014, %p14) /* ty=Tensor[(1, 3, 224, 224), float32] span=from_string:77:23 */;
    collapse_sum_like(%22, %p14) /* ty=Tensor[(1, 3, 224, 224), float32] span=from_string:76:5 */
  } /* ty=fn (Tensor[(1, 3, 224, 224), float32], Tensor[(1, 3, 224, 224), float32]) -> Tensor[(1, 3, 224, 224), float32] span=from_string:80:9 */;
  let %x_26 = %x_25(%x4, %x_3);
  let %x_27 = fn (%p011: Tensor[(1, 3, 224, 224), float32] /* ty=Tensor[(1, 3, 224, 224), float32] span=from_string:82:22 */, %p11: Tensor[(1, 3, 224, 224), float32] /* ty=Tensor[(1, 3, 224, 224), float32] span=from_string:83:20 */, %p21: Tensor[(1, 3, 224, 224), float32] /* ty=Tensor[(1, 3, 224, 224), float32] span=from_string:84:14 */, Primitive=1) -> Tensor[(1, 3, 224, 224), float32] {
    %23 = zeros_like(%p011) /* ty=Tensor[(1, 3, 224, 224), float32] span=from_string:83:15 */;
    %24 = add(%23, %p11) /* ty=Tensor[(1, 3, 224, 224), float32] span=from_string:84:9 */;
    add(%24, %p21) /* ty=Tensor[(1, 3, 224, 224), float32] span=from_string:82:5 */
  } /* ty=fn (Tensor[(1, 3, 224, 224), float32], Tensor[(1, 3, 224, 224), float32], Tensor[(1, 3, 224, 224), float32]) -> Tensor[(1, 3, 224, 224), float32] span=from_string:86:9 */;
  let %x_28 = %x_27(%x_3, %x_24, %x_26);
  let %x_29 = (%x_28,) /* ty=(Tensor[(1, 3, 224, 224), float32],) span=from_string:114:15 */;
  let %x_30 = (%x3, %x_29) /* ty=(Tensor[(1, 3, 224, 224), float32], (Tensor[(1, 3, 224, 224), float32],)) span=from_string:118:19 */;
  let %x_31 = fn (%p016: Tensor[(1, 3, 224, 224), float32] /* ty=Tensor[(1, 3, 224, 224), float32] span=from_string:89:25 */, Primitive=1) -> Tensor[(1, 3, 222, 222), float32] {
    %25 = nn.avg_pool2d(%p016, pool_size=[3, 3], padding=[0, 0, 0, 0]) /* ty=Tensor[(1, 3, 222, 222), float32] span=from_string:90:24 */;
    %26 = qnn.quantize(%25, 0.5f /* ty=float32 span=from_string:90:33 */, 10 /* ty=int32 span=from_string:90:77 */, out_dtype="int8") /* ty=Tensor[(1, 3, 222, 222), int8] span=from_string:91:20 */;
    qnn.dequantize(%26, 2f /* ty=float32 span=from_string:91:27 */, 0 /* ty=int32 span=from_string:91:70 */) /* ty=Tensor[(1, 3, 222, 222), float32] span=from_string:89:5 */
  } /* ty=fn (Tensor[(1, 3, 224, 224), float32]) -> Tensor[(1, 3, 222, 222), float32] span=from_string:93:9 */;
  let %x_32 = %x_31(%x_1);
  let %x_33 = fn (%p015: Tensor[(1, 3, 222, 222), float32] /* ty=Tensor[(1, 3, 222, 222), float32] span=from_string:95:19 */, Primitive=1) -> Tensor[(3, 1, 222, 222), float32] {
    %27 = reshape(%p015, newshape=[3, 1, 222, 222]) /* ty=Tensor[(3, 1, 222, 222), float32] span=from_string:96:9 */;
    erf(%27) /* ty=Tensor[(3, 1, 222, 222), float32] span=from_string:95:5 */
  } /* ty=fn (Tensor[(1, 3, 222, 222), float32]) -> Tensor[(3, 1, 222, 222), float32] span=from_string:115:9 */;
  let %x_34 = %x_33(%x_32);
  let %x_35 = meta[relay.Constant][0] /* ty=Tensor[(4), int32] span=from_string:118:34 */;
  let %x_36 = 1f /* ty=float32 span=from_string:118:107 */;
  let %x_37 = fn (%p018: Tensor[(1, 3, 224, 224), float32] /* ty=Tensor[(1, 3, 224, 224), float32] span=from_string:99:20 */, Primitive=1) -> Tensor[(1, 3, 112, 112), float32] {
    nn.max_pool2d(%p018, pool_size=[2, 2], strides=[2, 2], padding=[0, 0, 0, 0]) /* ty=Tensor[(1, 3, 112, 112), float32] span=from_string:99:5 */
  } /* ty=fn (Tensor[(1, 3, 224, 224), float32]) -> Tensor[(1, 3, 112, 112), float32] span=from_string:101:9 */;
  let %x_38 = %x_37(%x_22);
  let %x_39 = fn (%p017: Tensor[(1, 3, 112, 112), float32] /* ty=Tensor[(1, 3, 112, 112), float32] span=from_string:103:19 */, Primitive=1) -> Tensor[(1, 3, 224, 224), float32] {
    nn.upsampling(%p017, scale_h=2f, scale_w=2f) /* ty=Tensor[(1, 3, 224, 224), float32] span=from_string:103:5 */
  } /* ty=fn (Tensor[(1, 3, 112, 112), float32]) -> Tensor[(1, 3, 224, 224), float32] span=from_string:105:9 */;
  let %x_40 = %x_39(%x_38);
  let %x_41 = (%x_40, %x_22) /* ty=(Tensor[(1, 3, 224, 224), float32], Tensor[(1, 3, 224, 224), float32]) span=from_string:118:149 */;
  let %x_42 = fn (%p019: Tensor[(1, 3, 224, 224), int8] /* ty=Tensor[(1, 3, 224, 224), int8] span=from_string:107:26 */, Primitive=1) -> Tensor[(1, 3, 224, 224), int8] {
    %28 = qnn.dequantize(%p019, 0.626659f /* ty=float32 span=from_string:107:42 */, -128 /* ty=int32 span=from_string:107:88 */) /* ty=Tensor[(1, 3, 224, 224), float32] span=from_string:108:16 */;
    %29 = sqrt(%28) /* ty=Tensor[(1, 3, 224, 224), float32] span=from_string:109:18 */;
    qnn.quantize(%29, 0.13107f /* ty=float32 span=from_string:109:31 */, -128 /* ty=int32 span=from_string:109:77 */, out_dtype="int8") /* ty=Tensor[(1, 3, 224, 224), int8] span=from_string:107:5 */
  } /* ty=fn (Tensor[(1, 3, 224, 224), int8]) -> Tensor[(1, 3, 224, 224), int8] span=from_string:117:9 */;
  let %x_43 = %x_42(%x0);
  let %x_44 = (%x_16, %x_18, %x_20, %x_30, %x_34, %x_35, %x_36, %x_41, %x_43) /* ty=((Tensor[(1, 27, 112, 112), float32], Tensor[(1, 27, 112, 112), float32]), Tensor[(1, 3, 224, 224), float32], Tensor[(1, 9, 224, 224), float32], (Tensor[(1, 3, 224, 224), float32], (Tensor[(1, 3, 224, 224), float32],)), Tensor[(3, 1, 222, 222), float32], Tensor[(4), int32], float32, (Tensor[(1, 3, 224, 224), float32], Tensor[(1, 3, 224, 224), float32]), Tensor[(1, 3, 224, 224), int8]) span=from_string:118:3 */;
  let %x_45 = %x_44;
  let %x_46 = %x_45;
  let %x_47 = %x_46;
  %x_47
}

#[metadata]
{
  "root": 1, 
  "nodes": [
    {
      "type_key": ""
    }, 
    {
      "type_key": "Map", 
      "keys": [
        "relay.Constant"
      ], 
      "data": [2]
    }, 
    {
      "type_key": "Array", 
      "data": [3]
    }, 
    {
      "type_key": "relay.Constant", 
      "attrs": {
        "_checked_type_": "8", 
        "data": "0", 
        "span": "6", 
        "virtual_device_": "4"
      }
    }, 
    {
      "type_key": "VirtualDevice", 
      "attrs": {
        "device_type_int": "-1", 
        "memory_scope": "5", 
        "target": "0", 
        "virtual_device_id": "-1"
      }
    }, 
    {
      "type_key": "runtime.String"
    }, 
    {
      "type_key": "Span", 
      "attrs": {
        "column": "34", 
        "end_column": "52", 
        "end_line": "118", 
        "line": "118", 
        "source_name": "7"
      }
    }, 
    {
      "type_key": "SourceName", 
      "repr_str": "from_string"
    }, 
    {
      "type_key": "relay.TensorType", 
      "attrs": {
        "dtype": "int32", 
        "shape": "9", 
        "span": "11"
      }
    }, 
    {
      "type_key": "Array", 
      "data": [10]
    }, 
    {
      "type_key": "IntImm", 
      "attrs": {
        "dtype": "int32", 
        "span": "0", 
        "value": "4"
      }
    }, 
    {
      "type_key": "Span", 
      "attrs": {
        "column": "528", 
        "end_column": "548", 
        "end_line": "2", 
        "line": "2", 
        "source_name": "7"
      }
    }
  ], 
  "b64ndarrays": [
    "P6G0lvBAXt0AAAAAAAAAAAEAAAAAAAAAAQAAAAAgAQAEAAAAAAAAABAAAAAAAAAAAQAAAAkAAADgAAAA4AAAAA=="
  ], 
  "attrs": {"tvm_version": "0.13.0"}
}