#[version = "0.0.5"]
def @main(%x0: Tensor[(1, 3, 224, 224), int8] /* ty=Tensor[(1, 3, 224, 224), int8] span=from_string:112:13 */, %x1: Tensor[(9, 224, 224), float32] /* ty=Tensor[(9, 224, 224), float32] */, %x2: Tensor[(58), int32] /* ty=Tensor[(58), int32] span=from_string:19:65 */) -> ((Tensor[(1, 27, 112, 112), float32], Tensor[(1, 27, 112, 112), float32]), Tensor[(1, 3, 224, 224), float32], Tensor[(1, 9, 224, 224), float32], (Tensor[(1, 3, 224, 224), float32], (Tensor[(1, 3, 224, 224), float32],)), Tensor[(3, 1, 222, 222), float32], Tensor[(4), int32], float32, (Tensor[(1, 3, 224, 224), float32], Tensor[(1, 3, 224, 224), float32]), Tensor[(1, 3, 224, 224), int8]) {
  %12 = fn (%p02: Tensor[(1, 3, 224, 224), int8] /* ty=Tensor[(1, 3, 224, 224), int8] span=from_string:4:20 */, Primitive=1) -> Tensor[(1, 3, 224, 224), float32] {
    qnn.dequantize(%p02, 2f /* ty=float32 span=from_string:4:28 */, -12 /* ty=int32 span=from_string:4:72 */) /* ty=Tensor[(1, 3, 224, 224), float32] span=from_string:4:5 */
  } /* ty=fn (Tensor[(1, 3, 224, 224), int8]) -> Tensor[(1, 3, 224, 224), float32] span=from_string:6:8 */;
  %13 = %12(%x0) /* ty=Tensor[(1, 3, 224, 224), float32] span=from_string:88:13 */;
  %14 = fn (%p05: Tensor[(1, 3, 224, 224), float32] /* ty=Tensor[(1, 3, 224, 224), float32] span=from_string:21:9 */, Primitive=1) -> Tensor[(1, 3, 224, 224), float32] {
    add(%p05, 1f /* ty=float32 span=from_string:21:17 */) /* ty=Tensor[(1, 3, 224, 224), float32] span=from_string:21:5 */
  } /* ty=fn (Tensor[(1, 3, 224, 224), float32]) -> Tensor[(1, 3, 224, 224), float32] span=from_string:31:9 */;
  %15 = fn (%p01: Tensor[(1, 3, 224, 224), float32] /* ty=Tensor[(1, 3, 224, 224), float32] span=from_string:8:9 */, Primitive=1) -> Tensor[(1, 3, 224, 224), float32] {
    add(%p01, 1f /* ty=float32 span=from_string:8:17 */) /* ty=Tensor[(1, 3, 224, 224), float32] span=from_string:8:5 */
  } /* ty=fn (Tensor[(1, 3, 224, 224), float32]) -> Tensor[(1, 3, 224, 224), float32] span=from_string:10:8 */;
  %21 = fn (%p06: Tensor[(1, 3, 224, 224), float32] /* ty=Tensor[(1, 3, 224, 224), float32] span=from_string:26:15 */, Primitive=1) -> Tensor[(1, 9, 224, 224), float32] {
    %16 = add(%p06, 1f /* ty=float32 span=from_string:24:23 */) /* ty=Tensor[(1, 3, 224, 224), float32] span=from_string:27:12 */;
    %17 = add(%p06, 1f /* ty=float32 span=from_string:25:23 */) /* ty=Tensor[(1, 3, 224, 224), float32] span=from_string:27:17 */;
    %18 = add(%p06, 1f /* ty=float32 span=from_string:26:23 */) /* ty=Tensor[(1, 3, 224, 224), float32] span=from_string:27:22 */;
    %19 = (%16, %17, %18) /* ty=(Tensor[(1, 3, 224, 224), float32], Tensor[(1, 3, 224, 224), float32], Tensor[(1, 3, 224, 224), float32]) span=from_string:28:23 */;
    %20 = concatenate(%19, axis=1) /* ty=Tensor[(1, 9, 224, 224), float32] span=from_string:29:9 */;
    add(%20, 1f /* ty=float32 span=from_string:29:16 */) /* ty=Tensor[(1, 9, 224, 224), float32] span=from_string:24:5 */
  } /* ty=fn (Tensor[(1, 3, 224, 224), float32]) -> Tensor[(1, 9, 224, 224), float32] span=from_string:32:9 */;
  %22 = %14(%13) /* ty=Tensor[(1, 3, 224, 224), float32] span=from_string:107:13 */;
  %23 = %15(%13) /* ty=Tensor[(1, 3, 224, 224), float32] span=from_string:77:18 */;
  %24 = %21(%13) /* ty=Tensor[(1, 9, 224, 224), float32] span=from_string:108:13 */;
  %25 = fn (%p04: Tensor[(1, 3, 224, 224), float32] /* ty=Tensor[(1, 3, 224, 224), float32] span=from_string:39:15 */, %p1: Tensor[(1, 3, 224, 224), float32] /* ty=Tensor[(1, 3, 224, 224), float32] span=from_string:35:11 */, %p2: Tensor[(1, 3, 224, 224), float32] /* ty=Tensor[(1, 3, 224, 224), float32] span=from_string:35:16 */, %p3: Tensor[(1, 9, 224, 224), float32] /* ty=Tensor[(1, 9, 224, 224), float32] span=from_string:44:17 */, Primitive=1) -> Tensor[(1, 27, 224, 224), float32] {
    %1 = add(%p04, 1f /* ty=float32 span=from_string:34:22 */) /* ty=Tensor[(1, 3, 224, 224), float32] span=from_string:35:21 */;
    %2 = (%p1, %p2, %1) /* ty=(Tensor[(1, 3, 224, 224), float32], Tensor[(1, 3, 224, 224), float32], Tensor[(1, 3, 224, 224), float32]) span=from_string:36:22 */;
    %3 = concatenate(%2, axis=1) /* ty=Tensor[(1, 9, 224, 224), float32] span=from_string:42:15 */;
    %4 = add(%p04, 1f /* ty=float32 span=from_string:37:23 */) /* ty=Tensor[(1, 3, 224, 224), float32] span=from_string:40:12 */;
    %5 = add(%p04, 1f /* ty=float32 span=from_string:38:23 */) /* ty=Tensor[(1, 3, 224, 224), float32] span=from_string:40:17 */;
    %6 = add(%p04, 1f /* ty=float32 span=from_string:39:23 */) /* ty=Tensor[(1, 3, 224, 224), float32] span=from_string:40:22 */;
    %7 = (%4, %5, %6) /* ty=(Tensor[(1, 3, 224, 224), float32], Tensor[(1, 3, 224, 224), float32], Tensor[(1, 3, 224, 224), float32]) span=from_string:41:23 */;
    %8 = concatenate(%7, axis=1) /* ty=Tensor[(1, 9, 224, 224), float32] span=from_string:43:15 */;
    %9 = add(%3, 1f /* ty=float32 span=from_string:42:21 */) /* ty=Tensor[(1, 9, 224, 224), float32] span=from_string:44:12 */;
    %10 = add(%8, 1f /* ty=float32 span=from_string:43:22 */) /* ty=Tensor[(1, 9, 224, 224), float32] span=from_string:44:22 */;
    %11 = (%9, %p3, %10) /* ty=(Tensor[(1, 9, 224, 224), float32], Tensor[(1, 9, 224, 224), float32], Tensor[(1, 9, 224, 224), float32]) span=from_string:45:17 */;
    concatenate(%11, axis=1) /* ty=Tensor[(1, 27, 224, 224), float32] span=from_string:34:5 */
  } /* ty=fn (Tensor[(1, 3, 224, 224), float32], Tensor[(1, 3, 224, 224), float32], Tensor[(1, 3, 224, 224), float32], Tensor[(1, 9, 224, 224), float32]) -> Tensor[(1, 27, 224, 224), float32] span=from_string:47:9 */;
  %26 = %25(%13, %22, %23, %24) /* ty=Tensor[(1, 27, 224, 224), float32] span=from_string:52:13 */;
  %27 = fn (%p03: Tensor[(1, 27, 224, 224), float32] /* ty=Tensor[(1, 27, 224, 224), float32] span=from_string:49:25 */, Primitive=1) -> Tensor[(1, 27, 112, 112), float32] {
    %0 = nn.max_pool2d(%p03, pool_size=[2, 2], strides=[2, 2], padding=[0, 0, 0, 0]) /* ty=Tensor[(1, 27, 112, 112), float32] span=from_string:50:9 */;
    add(%0, 1f /* ty=float32 span=from_string:50:15 */) /* ty=Tensor[(1, 27, 112, 112), float32] span=from_string:49:5 */
  } /* ty=fn (Tensor[(1, 27, 224, 224), float32]) -> Tensor[(1, 27, 112, 112), float32] span=from_string:52:9 */;
  %28 = %27(%26) /* ty=Tensor[(1, 27, 112, 112), float32] span=from_string:106:10 */;
  %29 = fn (%p07: Tensor[(1, 27, 112, 112), float32] /* ty=Tensor[(1, 27, 112, 112), float32] span=from_string:54:9 */, Primitive=1) -> Tensor[(1, 27, 112, 112), float32] {
    add(%p07, 1f /* ty=float32 span=from_string:54:17 */) /* ty=Tensor[(1, 27, 112, 112), float32] span=from_string:54:5 */
  } /* ty=fn (Tensor[(1, 27, 112, 112), float32]) -> Tensor[(1, 27, 112, 112), float32] span=from_string:56:9 */;
  %30 = %29(%28) /* ty=Tensor[(1, 27, 112, 112), float32] span=from_string:106:15 */;
  %33 = fn (%p08: Tensor[(1, 3, 224, 224), float32] /* ty=Tensor[(1, 3, 224, 224), float32] span=from_string:58:28 */, Primitive=1) -> Tensor[(1, 3, 224, 224), float32] {
    %31 = layout_transform(%p08, src_layout="NHWC", dst_layout="NCHW4c") /* ty=Tensor[(1, 56, 3, 224, 4), float32] span=from_string:59:19 */;
    %32 = nn.relu(%31) /* ty=Tensor[(1, 56, 3, 224, 4), float32] span=from_string:60:22 */;
    layout_transform(%32, src_layout="NCHW4c", dst_layout="NHWC") /* ty=Tensor[(1, 3, 224, 224), float32] span=from_string:58:5 */
  } /* ty=fn (Tensor[(1, 3, 224, 224), float32]) -> Tensor[(1, 3, 224, 224), float32] span=from_string:107:9 */;
  %34 = fn (%p09: Tensor[(1, 9, 224, 224), float32] /* ty=Tensor[(1, 9, 224, 224), float32] span=from_string:63:13 */, Primitive=1, relay.reshape_only=1) -> Tensor[(1, 9, 224, 224), float32] {
    reshape(%p09, newshape=[1, 9, 224, 224]) /* ty=Tensor[(1, 9, 224, 224), float32] span=from_string:63:5 */
  } /* ty=fn (Tensor[(1, 9, 224, 224), float32]) -> Tensor[(1, 9, 224, 224), float32] span=from_string:108:9 */;
  %35 = fn (%p0: Tensor[(1, 3, 224, 224), float32] /* ty=Tensor[(1, 3, 224, 224), float32] span=from_string:12:20 */, Primitive=1) -> Tensor[(1, 3, 224, 224), float32] {
    multiply(%p0, %p0) /* ty=Tensor[(1, 3, 224, 224), float32] span=from_string:12:6 */
  } /* ty=fn (Tensor[(1, 3, 224, 224), float32]) -> Tensor[(1, 3, 224, 224), float32] span=from_string:14:114 */;
  %36 = fn (Primitive=1) -> Tensor[(1, 3, 224, 224), float32] {
    ones(shape=[1, 3, 224, 224], dtype="float32") /* ty=Tensor[(1, 3, 224, 224), float32] span=from_string:16:5 */
  } /* ty=fn () -> Tensor[(1, 3, 224, 224), float32] span=from_string:18:114 */;
  %37 = %36() /* ty=Tensor[(1, 3, 224, 224), float32] span=from_string:18:114 */;
  %38 = fn (%p012: Tensor[(1, 3, 224, 224), float32] /* ty=Tensor[(1, 3, 224, 224), float32] span=from_string:66:15 */, %p13: Tensor[(1, 3, 224, 224), float32] /* ty=Tensor[(1, 3, 224, 224), float32] span=from_string:66:22 */, Primitive=1) -> Tensor[(1, 3, 224, 224), float32] {
    multiply(%p012, %p13) /* ty=Tensor[(1, 3, 224, 224), float32] span=from_string:66:6 */
  } /* ty=fn (Tensor[(1, 3, 224, 224), float32], Tensor[(1, 3, 224, 224), float32]) -> Tensor[(1, 3, 224, 224), float32] span=from_string:68:9 */;
  %39 = %38(%37, %23) /* ty=Tensor[(1, 3, 224, 224), float32] span=from_string:111:15 */;
  %40 = fn (%p011: Tensor[(1, 3, 224, 224), float32] /* ty=Tensor[(1, 3, 224, 224), float32] span=from_string:70:21 */, %p12: Tensor[(4), int32] /* ty=Tensor[(4), int32] span=from_string:70:28 */, Primitive=1) -> Tensor[(1, 3, 224, 224), float32] {
    collapse_sum_to(%p011, %p12, meta[relay.attrs.InitOpAttrs][0]) /* ty=Tensor[(1, 3, 224, 224), float32] span=from_string:70:5 */
  } /* ty=fn (Tensor[(1, 3, 224, 224), float32], Tensor[(4), int32]) -> Tensor[(1, 3, 224, 224), float32] span=from_string:76:9 */;
  %42 = fn (%p013: Tensor[(1, 3, 224, 224), float32] /* ty=Tensor[(1, 3, 224, 224), float32] span=from_string:73:21 */, %p14: Tensor[(1, 3, 224, 224), float32] /* ty=Tensor[(1, 3, 224, 224), float32] span=from_string:73:28 */, %p21: Tensor[(4), int32] /* ty=Tensor[(4), int32] span=from_string:74:26 */, Primitive=1) -> Tensor[(1, 3, 224, 224), float32] {
    %41 = multiply(%p013, %p14) /* ty=Tensor[(1, 3, 224, 224), float32] span=from_string:74:21 */;
    collapse_sum_to(%41, %p21, meta[relay.attrs.InitOpAttrs][1]) /* ty=Tensor[(1, 3, 224, 224), float32] span=from_string:73:5 */
  } /* ty=fn (Tensor[(1, 3, 224, 224), float32], Tensor[(1, 3, 224, 224), float32], Tensor[(4), int32]) -> Tensor[(1, 3, 224, 224), float32] span=from_string:77:9 */;
  %43 = %40(%39, meta[relay.Constant][0] /* ty=Tensor[(4), int32] span=from_string:76:23 */) /* ty=Tensor[(1, 3, 224, 224), float32] span=from_string:81:13 */;
  %44 = %42(%37, %23, meta[relay.Constant][1] /* ty=Tensor[(4), int32] span=from_string:77:27 */) /* ty=Tensor[(1, 3, 224, 224), float32] span=from_string:81:18 */;
  %45 = fn (%p010: Tensor[(1, 3, 224, 224), float32] /* ty=Tensor[(1, 3, 224, 224), float32] span=from_string:79:9 */, %p11: Tensor[(1, 3, 224, 224), float32] /* ty=Tensor[(1, 3, 224, 224), float32] span=from_string:79:16 */, Primitive=1) -> Tensor[(1, 3, 224, 224), float32] {
    add(%p010, %p11) /* ty=Tensor[(1, 3, 224, 224), float32] span=from_string:79:5 */
  } /* ty=fn (Tensor[(1, 3, 224, 224), float32], Tensor[(1, 3, 224, 224), float32]) -> Tensor[(1, 3, 224, 224), float32] span=from_string:81:9 */;
  %46 = %45(%43, %44) /* ty=Tensor[(1, 3, 224, 224), float32] span=from_string:82:10 */;
  %47 = %35(%23) /* ty=Tensor[(1, 3, 224, 224), float32] span=from_string:14:114 */;
  %48 = (%46,) /* ty=(Tensor[(1, 3, 224, 224), float32],) span=from_string:109:15 */;
  %52 = fn (%p015: Tensor[(1, 3, 224, 224), float32] /* ty=Tensor[(1, 3, 224, 224), float32] span=from_string:84:25 */, Primitive=1) -> Tensor[(1, 3, 222, 222), float32] {
    %50 = nn.avg_pool2d(%p015, pool_size=[3, 3], padding=[0, 0, 0, 0]) /* ty=Tensor[(1, 3, 222, 222), float32] span=from_string:85:24 */;
    %51 = qnn.quantize(%50, 0.5f /* ty=float32 span=from_string:85:33 */, 10 /* ty=int32 span=from_string:85:77 */, out_dtype="int8") /* ty=Tensor[(1, 3, 222, 222), int8] span=from_string:86:20 */;
    qnn.dequantize(%51, 2f /* ty=float32 span=from_string:86:27 */, 0 /* ty=int32 span=from_string:86:70 */) /* ty=Tensor[(1, 3, 222, 222), float32] span=from_string:84:5 */
  } /* ty=fn (Tensor[(1, 3, 224, 224), float32]) -> Tensor[(1, 3, 222, 222), float32] span=from_string:88:9 */;
  %53 = %52(%13) /* ty=Tensor[(1, 3, 222, 222), float32] span=from_string:110:13 */;
  %54 = fn (%p014: Tensor[(1, 3, 222, 222), float32] /* ty=Tensor[(1, 3, 222, 222), float32] span=from_string:90:19 */, Primitive=1) -> Tensor[(3, 1, 222, 222), float32] {
    %49 = reshape(%p014, newshape=[3, 1, 222, 222]) /* ty=Tensor[(3, 1, 222, 222), float32] span=from_string:91:9 */;
    erf(%49) /* ty=Tensor[(3, 1, 222, 222), float32] span=from_string:90:5 */
  } /* ty=fn (Tensor[(1, 3, 222, 222), float32]) -> Tensor[(3, 1, 222, 222), float32] span=from_string:110:9 */;
  %55 = fn (%p017: Tensor[(1, 3, 224, 224), float32] /* ty=Tensor[(1, 3, 224, 224), float32] span=from_string:94:20 */, Primitive=1) -> Tensor[(1, 3, 112, 112), float32] {
    nn.max_pool2d(%p017, pool_size=[2, 2], strides=[2, 2], padding=[0, 0, 0, 0]) /* ty=Tensor[(1, 3, 112, 112), float32] span=from_string:94:5 */
  } /* ty=fn (Tensor[(1, 3, 224, 224), float32]) -> Tensor[(1, 3, 112, 112), float32] span=from_string:96:9 */;
  %56 = %55(%39) /* ty=Tensor[(1, 3, 112, 112), float32] span=from_string:100:13 */;
  %57 = fn (%p016: Tensor[(1, 3, 112, 112), float32] /* ty=Tensor[(1, 3, 112, 112), float32] span=from_string:98:19 */, Primitive=1) -> Tensor[(1, 3, 224, 224), float32] {
    nn.upsampling(%p016, scale_h=2f, scale_w=2f) /* ty=Tensor[(1, 3, 224, 224), float32] span=from_string:98:5 */
  } /* ty=fn (Tensor[(1, 3, 112, 112), float32]) -> Tensor[(1, 3, 224, 224), float32] span=from_string:100:9 */;
  %58 = %57(%56) /* ty=Tensor[(1, 3, 224, 224), float32] span=from_string:111:10 */;
  %61 = fn (%p018: Tensor[(1, 3, 224, 224), int8] /* ty=Tensor[(1, 3, 224, 224), int8] span=from_string:102:26 */, Primitive=1) -> Tensor[(1, 3, 224, 224), int8] {
    %59 = qnn.dequantize(%p018, 0.626659f /* ty=float32 span=from_string:102:42 */, -128 /* ty=int32 span=from_string:102:88 */) /* ty=Tensor[(1, 3, 224, 224), float32] span=from_string:103:16 */;
    %60 = sqrt(%59) /* ty=Tensor[(1, 3, 224, 224), float32] span=from_string:104:18 */;
    qnn.quantize(%60, 0.13107f /* ty=float32 span=from_string:104:31 */, -128 /* ty=int32 span=from_string:104:77 */, out_dtype="int8") /* ty=Tensor[(1, 3, 224, 224), int8] span=from_string:102:5 */
  } /* ty=fn (Tensor[(1, 3, 224, 224), int8]) -> Tensor[(1, 3, 224, 224), int8] span=from_string:112:9 */;
  %62 = (%28, %30) /* ty=(Tensor[(1, 27, 112, 112), float32], Tensor[(1, 27, 112, 112), float32]) span=from_string:113:4 */;
  %63 = %33(%22) /* ty=Tensor[(1, 3, 224, 224), float32] span=from_string:113:9 */;
  %64 = %34(%24) /* ty=Tensor[(1, 9, 224, 224), float32] span=from_string:113:14 */;
  %65 = (%47, %48) /* ty=(Tensor[(1, 3, 224, 224), float32], (Tensor[(1, 3, 224, 224), float32],)) span=from_string:113:19 */;
  %66 = %54(%53) /* ty=Tensor[(3, 1, 222, 222), float32] span=from_string:113:24 */;
  %67 = (%58, %39) /* ty=(Tensor[(1, 3, 224, 224), float32], Tensor[(1, 3, 224, 224), float32]) span=from_string:113:150 */;
  %68 = %61(%x0) /* ty=Tensor[(1, 3, 224, 224), int8] span=from_string:113:155 */;
  (%62, %63, %64, %65, %66, meta[relay.Constant][2] /* ty=Tensor[(4), int32] span=from_string:113:34 */, 1f /* ty=float32 span=from_string:113:107 */, %67, %68) /* ty=((Tensor[(1, 27, 112, 112), float32], Tensor[(1, 27, 112, 112), float32]), Tensor[(1, 3, 224, 224), float32], Tensor[(1, 9, 224, 224), float32], (Tensor[(1, 3, 224, 224), float32], (Tensor[(1, 3, 224, 224), float32],)), Tensor[(3, 1, 222, 222), float32], Tensor[(4), int32], float32, (Tensor[(1, 3, 224, 224), float32], Tensor[(1, 3, 224, 224), float32]), Tensor[(1, 3, 224, 224), int8]) span=from_string:113:3 */
}

#[metadata]
{
  "root": 1, 
  "nodes": [
    {
      "type_key": ""
    }, 
    {
      "type_key": "Map", 
      "keys": [
        "relay.Constant", 
        "relay.attrs.InitOpAttrs"
      ], 
      "data": [2, 24]
    }, 
    {
      "type_key": "Array", 
      "data": [3, 11, 16]
    }, 
    {
      "type_key": "relay.Constant", 
      "attrs": {
        "_checked_type_": "8", 
        "data": "0", 
        "span": "6", 
        "virtual_device_": "4"
      }
    }, 
    {
      "type_key": "VirtualDevice", 
      "attrs": {
        "device_type_int": "-1", 
        "memory_scope": "5", 
        "target": "0", 
        "virtual_device_id": "-1"
      }
    }, 
    {
      "type_key": "runtime.String"
    }, 
    {
      "type_key": "Span", 
      "attrs": {
        "column": "23", 
        "end_column": "41", 
        "end_line": "76", 
        "line": "76", 
        "source_name": "7"
      }
    }, 
    {
      "type_key": "SourceName", 
      "repr_str": "from_string"
    }, 
    {
      "type_key": "relay.TensorType", 
      "attrs": {
        "dtype": "int32", 
        "shape": "9", 
        "span": "0"
      }
    }, 
    {
      "type_key": "Array", 
      "data": [10]
    }, 
    {
      "type_key": "IntImm", 
      "attrs": {
        "dtype": "int32", 
        "span": "0", 
        "value": "4"
      }
    }, 
    {
      "type_key": "relay.Constant", 
      "attrs": {
        "_checked_type_": "13", 
        "data": "1", 
        "span": "12", 
        "virtual_device_": "4"
      }
    }, 
    {
      "type_key": "Span", 
      "attrs": {
        "column": "27", 
        "end_column": "45", 
        "end_line": "77", 
        "line": "77", 
        "source_name": "7"
      }
    }, 
    {
      "type_key": "relay.TensorType", 
      "attrs": {
        "dtype": "int32", 
        "shape": "14", 
        "span": "0"
      }
    }, 
    {
      "type_key": "Array", 
      "data": [15]
    }, 
    {
      "type_key": "IntImm", 
      "attrs": {
        "dtype": "int32", 
        "span": "0", 
        "value": "4"
      }
    }, 
    {
      "type_key": "relay.Constant", 
      "attrs": {
        "_checked_type_": "20", 
        "data": "2", 
        "span": "19", 
        "virtual_device_": "17"
      }
    }, 
    {
      "type_key": "VirtualDevice", 
      "attrs": {
        "device_type_int": "-1", 
        "memory_scope": "18", 
        "target": "0", 
        "virtual_device_id": "-1"
      }
    }, 
    {
      "type_key": "runtime.String"
    }, 
    {
      "type_key": "Span", 
      "attrs": {
        "column": "34", 
        "end_column": "52", 
        "end_line": "113", 
        "line": "113", 
        "source_name": "7"
      }
    }, 
    {
      "type_key": "relay.TensorType", 
      "attrs": {
        "dtype": "int32", 
        "shape": "21", 
        "span": "23"
      }
    }, 
    {
      "type_key": "Array", 
      "data": [22]
    }, 
    {
      "type_key": "IntImm", 
      "attrs": {
        "dtype": "int32", 
        "span": "0", 
        "value": "4"
      }
    }, 
    {
      "type_key": "Span", 
      "attrs": {
        "column": "528", 
        "end_column": "548", 
        "end_line": "2", 
        "line": "2", 
        "source_name": "7"
      }
    }, 
    {
      "type_key": "Array", 
      "data": [25, 31]
    }, 
    {
      "type_key": "relay.attrs.InitOpAttrs", 
      "attrs": {
        "dtype": "", 
        "shape": "26"
      }
    }, 
    {
      "type_key": "Array", 
      "data": [27, 28, 29, 30]
    }, 
    {
      "type_key": "IntImm", 
      "attrs": {
        "dtype": "int32", 
        "span": "0", 
        "value": "1"
      }
    }, 
    {
      "type_key": "IntImm", 
      "attrs": {
        "dtype": "int32", 
        "span": "0", 
        "value": "3"
      }
    }, 
    {
      "type_key": "IntImm", 
      "attrs": {
        "dtype": "int32", 
        "span": "0", 
        "value": "224"
      }
    }, 
    {
      "type_key": "IntImm", 
      "attrs": {
        "dtype": "int32", 
        "span": "0", 
        "value": "224"
      }
    }, 
    {
      "type_key": "relay.attrs.InitOpAttrs", 
      "attrs": {
        "dtype": "", 
        "shape": "32"
      }
    }, 
    {
      "type_key": "Array", 
      "data": [27, 28, 29, 30]
    }
  ], 
  "b64ndarrays": [
    "P6G0lvBAXt0AAAAAAAAAAAEAAAAAAAAAAQAAAAAgAQAEAAAAAAAAABAAAAAAAAAAAQAAAAMAAADgAAAA4AAAAA==", 
    "P6G0lvBAXt0AAAAAAAAAAAEAAAAAAAAAAQAAAAAgAQAEAAAAAAAAABAAAAAAAAAAAQAAAAMAAADgAAAA4AAAAA==", 
    "P6G0lvBAXt0AAAAAAAAAAAEAAAAAAAAAAQAAAAAgAQAEAAAAAAAAABAAAAAAAAAAAQAAAAkAAADgAAAA4AAAAA=="
  ], 
  "attrs": {"tvm_version": "0.13.0"}
}