#[version = "0.0.5"]
def @main(%x0: Tensor[(1, 3, 224, 224), int8] /* ty=Tensor[(1, 3, 224, 224), int8] span=from_string:52:132 */, %x1: Tensor[(9, 224, 224), float32] /* ty=Tensor[(9, 224, 224), float32] */, %x2: Tensor[(58), int32] /* ty=Tensor[(58), int32] */) -> ((Tensor[(1, 27, 112, 112), float32], Tensor[(1, 27, 112, 112), float32]), Tensor[(1, 3, 224, 224), float32], Tensor[(1, 9, 224, 224), float32], (Tensor[(1, 3, 224, 224), float32], (Tensor[(1, 3, 224, 224), float32],)), Tensor[(3, 1, 222, 222), float32], Tensor[(4), int32], float32, (Tensor[(1, 3, 224, 224), float32], Tensor[(1, 3, 224, 224), float32]), Tensor[(1, 3, 224, 224), int8]) {
  %0 = qnn.dequantize(%x0, 2f /* ty=float32 span=from_string:3:65 */, -12 /* ty=int32 span=from_string:4:64 */) /* ty=Tensor[(1, 3, 224, 224), float32] span=from_string:5:116 */;
  %1 = add(%0, 1f /* ty=float32 span=from_string:6:65 */) /* ty=Tensor[(1, 3, 224, 224), float32] span=from_string:7:116 */;
  %2 = (%1, %1, %1) /* ty=(Tensor[(1, 3, 224, 224), float32], Tensor[(1, 3, 224, 224), float32], Tensor[(1, 3, 224, 224), float32]) span=from_string:10:260 */;
  %3 = concatenate(%2, axis=1) /* ty=Tensor[(1, 9, 224, 224), float32] span=from_string:11:116 */;
  %4 = add(%3, 1f /* ty=float32 span=from_string:12:66 */) /* ty=Tensor[(1, 9, 224, 224), float32] span=from_string:13:116 */;
  %5 = (%4, %4, %4) /* ty=(Tensor[(1, 9, 224, 224), float32], Tensor[(1, 9, 224, 224), float32], Tensor[(1, 9, 224, 224), float32]) span=from_string:14:260 */;
  %6 = concatenate(%5, axis=1) /* ty=Tensor[(1, 27, 224, 224), float32] span=from_string:15:119 */;
  %7 = nn.max_pool2d(%6, pool_size=[2, 2], strides=[2, 2], padding=[0, 0, 0, 0]) /* ty=Tensor[(1, 27, 112, 112), float32] span=from_string:16:119 */;
  %8 = add(%7, 1f /* ty=float32 span=from_string:17:67 */) /* ty=Tensor[(1, 27, 112, 112), float32] span=from_string:18:119 */;
  %9 = add(%8, 1f /* ty=float32 span=from_string:19:67 */) /* ty=Tensor[(1, 27, 112, 112), float32] span=from_string:20:119 */;
  %10 = transpose(%1, axes=[0, 3, 1, 2]) /* ty=Tensor[(1, 224, 3, 224), float32] span=from_string:22:117 */;
  %11 = layout_transform(%10, src_layout="NCHW", dst_layout="NCHW4c") /* ty=Tensor[(1, 56, 3, 224, 4), float32] span=from_string:23:121 */;
  %12 = nn.relu(%11) /* ty=Tensor[(1, 56, 3, 224, 4), float32] span=from_string:24:121 */;
  %13 = layout_transform(%12, src_layout="NCHW4c", dst_layout="NCHW") /* ty=Tensor[(1, 224, 3, 224), float32] span=from_string:25:117 */;
  %14 = reshape(%4, newshape=[9, 224, 224]) /* ty=Tensor[(9, 224, 224), float32] span=from_string:27:111 */;
  %15 = ones(shape=[1, 3, 224, 224], dtype="float32") /* ty=Tensor[(1, 3, 224, 224), float32] span=from_string:9:115 */;
  %16 = multiply(%15, %1) /* ty=Tensor[(1, 3, 224, 224), float32] span=from_string:30:118 */;
  %17 = zeros(shape=[1, 3, 224, 224], dtype="float32") /* ty=Tensor[(1, 3, 224, 224), float32] span=from_string:29:117 */;
  %18 = collapse_sum_to(%16, meta[relay.Constant][0] /* ty=Tensor[(4), int32] span=from_string:31:145 */, meta[relay.attrs.InitOpAttrs][0]) /* ty=Tensor[(1, 3, 224, 224), float32] span=from_string:31:117 */;
  %19 = add(%17, %18) /* ty=Tensor[(1, 3, 224, 224), float32] span=from_string:32:117 */;
  %20 = add(%19, %18) /* ty=Tensor[(1, 3, 224, 224), float32] span=from_string:33:117 */;
  %21 = multiply(%1, %1) /* ty=Tensor[(1, 3, 224, 224), float32] span=from_string:8:116 */;
  %22 = (%20,) /* ty=(Tensor[(1, 3, 224, 224), float32],) span=from_string:34:123 */;
  %23 = nn.avg_pool2d(%0, pool_size=[3, 3], padding=[0, 0, 0, 0]) /* ty=Tensor[(1, 3, 222, 222), float32] span=from_string:36:117 */;
  %24 = qnn.quantize(%23, 0.5f /* ty=float32 span=from_string:37:69 */, 10 /* ty=int32 span=from_string:38:65 */, out_dtype="int8") /* ty=Tensor[(1, 3, 222, 222), int8] span=from_string:39:113 */;
  %25 = qnn.dequantize(%24, 2f /* ty=float32 span=from_string:40:67 */, 0 /* ty=int32 span=from_string:41:64 */) /* ty=Tensor[(1, 3, 222, 222), float32] span=from_string:42:117 */;
  %26 = reshape(%25, newshape=[3, 1, 222, 222]) /* ty=Tensor[(3, 1, 222, 222), float32] span=from_string:43:117 */;
  %27 = nn.max_pool2d(%16, pool_size=[2, 2], strides=[2, 2], padding=[0, 0, 0, 0]) /* ty=Tensor[(1, 3, 112, 112), float32] span=from_string:47:117 */;
  %28 = nn.upsampling(%27, scale_h=2f, scale_w=2f) /* ty=Tensor[(1, 3, 224, 224), float32] span=from_string:48:117 */;
  %29 = qnn.dequantize(%x0, 0.626659f /* ty=float32 span=from_string:50:74 */, -128 /* ty=int32 span=from_string:51:67 */) /* ty=Tensor[(1, 3, 224, 224), float32] span=from_string:52:117 */;
  %30 = sqrt(%29) /* ty=Tensor[(1, 3, 224, 224), float32] span=from_string:53:117 */;
  %31 = (%8, %9) /* ty=(Tensor[(1, 27, 112, 112), float32], Tensor[(1, 27, 112, 112), float32]) span=from_string:21:195 */;
  %32 = transpose(%13, axes=[0, 2, 3, 1]) /* ty=Tensor[(1, 3, 224, 224), float32] span=from_string:26:117 */;
  %33 = reshape(%14, newshape=[1, 9, 224, 224]) /* ty=Tensor[(1, 9, 224, 224), float32] span=from_string:28:117 */;
  %34 = (%21, %22) /* ty=(Tensor[(1, 3, 224, 224), float32], (Tensor[(1, 3, 224, 224), float32],)) span=from_string:35:197 */;
  %35 = erf(%26) /* ty=Tensor[(3, 1, 222, 222), float32] span=from_string:44:117 */;
  %36 = (%28, %16) /* ty=(Tensor[(1, 3, 224, 224), float32], Tensor[(1, 3, 224, 224), float32]) span=from_string:49:191 */;
  %37 = qnn.quantize(%30, 0.13107f /* ty=float32 span=from_string:54:73 */, -128 /* ty=int32 span=from_string:55:67 */, out_dtype="int8") /* ty=Tensor[(1, 3, 224, 224), int8] span=from_string:56:113 */;
  (%31, %32, %33, %34, %35, meta[relay.Constant][1] /* ty=Tensor[(4), int32] span=from_string:45:94 */, 1f /* ty=float32 span=from_string:46:67 */, %36, %37) /* ty=((Tensor[(1, 27, 112, 112), float32], Tensor[(1, 27, 112, 112), float32]), Tensor[(1, 3, 224, 224), float32], Tensor[(1, 9, 224, 224), float32], (Tensor[(1, 3, 224, 224), float32], (Tensor[(1, 3, 224, 224), float32],)), Tensor[(3, 1, 222, 222), float32], Tensor[(4), int32], float32, (Tensor[(1, 3, 224, 224), float32], Tensor[(1, 3, 224, 224), float32]), Tensor[(1, 3, 224, 224), int8]) span=from_string:57:829 */
}

#[metadata]
{
  "root": 1, 
  "nodes": [
    {
      "type_key": ""
    }, 
    {
      "type_key": "Map", 
      "keys": [
        "relay.attrs.InitOpAttrs", 
        "relay.Constant"
      ], 
      "data": [2, 9]
    }, 
    {
      "type_key": "Array", 
      "data": [3]
    }, 
    {
      "type_key": "relay.attrs.InitOpAttrs", 
      "attrs": {
        "dtype": "", 
        "shape": "4"
      }
    }, 
    {
      "type_key": "Array", 
      "data": [5, 6, 7, 8]
    }, 
    {
      "type_key": "IntImm", 
      "attrs": {
        "dtype": "int32", 
        "span": "0", 
        "value": "1"
      }
    }, 
    {
      "type_key": "IntImm", 
      "attrs": {
        "dtype": "int32", 
        "span": "0", 
        "value": "3"
      }
    }, 
    {
      "type_key": "IntImm", 
      "attrs": {
        "dtype": "int32", 
        "span": "0", 
        "value": "224"
      }
    }, 
    {
      "type_key": "IntImm", 
      "attrs": {
        "dtype": "int32", 
        "span": "0", 
        "value": "224"
      }
    }, 
    {
      "type_key": "Array", 
      "data": [10, 18]
    }, 
    {
      "type_key": "relay.Constant", 
      "attrs": {
        "_checked_type_": "15", 
        "data": "0", 
        "span": "13", 
        "virtual_device_": "11"
      }
    }, 
    {
      "type_key": "VirtualDevice", 
      "attrs": {
        "device_type_int": "-1", 
        "memory_scope": "12", 
        "target": "0", 
        "virtual_device_id": "-1"
      }
    }, 
    {
      "type_key": "runtime.String"
    }, 
    {
      "type_key": "Span", 
      "attrs": {
        "column": "145", 
        "end_column": "163", 
        "end_line": "31", 
        "line": "31", 
        "source_name": "14"
      }
    }, 
    {
      "type_key": "SourceName", 
      "repr_str": "from_string"
    }, 
    {
      "type_key": "relay.TensorType", 
      "attrs": {
        "dtype": "int32", 
        "shape": "16", 
        "span": "0"
      }
    }, 
    {
      "type_key": "Array", 
      "data": [17]
    }, 
    {
      "type_key": "IntImm", 
      "attrs": {
        "dtype": "int32", 
        "span": "0", 
        "value": "4"
      }
    }, 
    {
      "type_key": "relay.Constant", 
      "attrs": {
        "_checked_type_": "22", 
        "data": "1", 
        "span": "21", 
        "virtual_device_": "19"
      }
    }, 
    {
      "type_key": "VirtualDevice", 
      "attrs": {
        "device_type_int": "-1", 
        "memory_scope": "20", 
        "target": "0", 
        "virtual_device_id": "-1"
      }
    }, 
    {
      "type_key": "runtime.String"
    }, 
    {
      "type_key": "Span", 
      "attrs": {
        "column": "94", 
        "end_column": "112", 
        "end_line": "45", 
        "line": "45", 
        "source_name": "14"
      }
    }, 
    {
      "type_key": "relay.TensorType", 
      "attrs": {
        "dtype": "int32", 
        "shape": "23", 
        "span": "0"
      }
    }, 
    {
      "type_key": "Array", 
      "data": [24]
    }, 
    {
      "type_key": "IntImm", 
      "attrs": {
        "dtype": "int32", 
        "span": "0", 
        "value": "4"
      }
    }
  ], 
  "b64ndarrays": [
    "P6G0lvBAXt0AAAAAAAAAAAEAAAAAAAAAAQAAAAAgAQAEAAAAAAAAABAAAAAAAAAAAQAAAAMAAADgAAAA4AAAAA==", 
    "P6G0lvBAXt0AAAAAAAAAAAEAAAAAAAAAAQAAAAAgAQAEAAAAAAAAABAAAAAAAAAAAQAAAAkAAADgAAAA4AAAAA=="
  ], 
  "attrs": {"tvm_version": "0.13.0"}
}