#[version = "0.0.5"]
def @main(%x0: Tensor[(1, 3, 224, 224), int8] /* ty=Tensor[(1, 3, 224, 224), int8] span=from_string:111:13 */, %x1: Tensor[(9, 224, 224), float32] /* ty=Tensor[(9, 224, 224), float32] */, %x2: Tensor[(58), int32] /* ty=Tensor[(58), int32] */) -> ((Tensor[(1, 27, 112, 112), float32], Tensor[(1, 27, 112, 112), float32]), Tensor[(1, 3, 224, 224), float32], Tensor[(1, 9, 224, 224), float32], (Tensor[(1, 3, 224, 224), float32], (Tensor[(1, 3, 224, 224), float32],)), Tensor[(3, 1, 222, 222), float32], Tensor[(4), int32], float32, (Tensor[(1, 3, 224, 224), float32], Tensor[(1, 3, 224, 224), float32]), Tensor[(1, 3, 224, 224), int8]) {
  %15 = fn (%p02: Tensor[(1, 3, 224, 224), int8] /* ty=Tensor[(1, 3, 224, 224), int8] span=from_string:4:20 */, Primitive=1) -> Tensor[(1, 3, 224, 224), float32] {
    qnn.dequantize(%p02, 2f /* ty=float32 span=from_string:4:28 */, -12 /* ty=int32 span=from_string:4:72 */) /* ty=Tensor[(1, 3, 224, 224), float32] span=from_string:4:5 */
  } /* ty=fn (Tensor[(1, 3, 224, 224), int8]) -> Tensor[(1, 3, 224, 224), float32] span=from_string:6:9 */;
  %16 = %15(%x0) /* ty=Tensor[(1, 3, 224, 224), float32] span=from_string:87:13 */;
  %17 = fn (%p06: Tensor[(1, 3, 224, 224), float32] /* ty=Tensor[(1, 3, 224, 224), float32] span=from_string:8:9 */, Primitive=1) -> Tensor[(1, 3, 224, 224), float32] {
    add(%p06, 1f /* ty=float32 span=from_string:8:17 */) /* ty=Tensor[(1, 3, 224, 224), float32] span=from_string:8:5 */
  } /* ty=fn (Tensor[(1, 3, 224, 224), float32]) -> Tensor[(1, 3, 224, 224), float32] span=from_string:19:9 */;
  %18 = fn (%p01: Tensor[(1, 3, 224, 224), float32] /* ty=Tensor[(1, 3, 224, 224), float32] span=from_string:11:9 */, Primitive=1) -> Tensor[(1, 3, 224, 224), float32] {
    add(%p01, 1f /* ty=float32 span=from_string:11:17 */) /* ty=Tensor[(1, 3, 224, 224), float32] span=from_string:11:5 */
  } /* ty=fn (Tensor[(1, 3, 224, 224), float32]) -> Tensor[(1, 3, 224, 224), float32] span=from_string:20:9 */;
  %28 = fn (%p07: Tensor[(1, 3, 224, 224), float32] /* ty=Tensor[(1, 3, 224, 224), float32] span=from_string:14:15 */, Primitive=1) -> Tensor[(1, 9, 224, 224), float32] {
    %19 = add(%p07, 1f /* ty=float32 span=from_string:14:23 */) /* ty=Tensor[(1, 3, 224, 224), float32] span=from_string:15:22 */;
    %20 = (%19, %19) /* ty=(Tensor[(1, 3, 224, 224), float32], Tensor[(1, 3, 224, 224), float32]) span=from_string:16:23 */;
    %21 = concatenate(%20, axis=1) /* ty=Tensor[(1, 6, 224, 224), float32] */;
    %22 = (%19,) /* ty=(Tensor[(1, 3, 224, 224), float32],) span=from_string:16:23 */;
    %23 = concatenate(%22, axis=1) /* ty=Tensor[(1, 3, 224, 224), float32] */;
    %24 = annotation.stop_fusion(%21) /* ty=Tensor[(1, 6, 224, 224), float32] */;
    %25 = annotation.stop_fusion(%23) /* ty=Tensor[(1, 3, 224, 224), float32] */;
    %26 = (%24, %25) /* ty=(Tensor[(1, 6, 224, 224), float32], Tensor[(1, 3, 224, 224), float32]) span=from_string:16:23 */;
    %27 = concatenate(%26, axis=1) /* ty=Tensor[(1, 9, 224, 224), float32] */;
    add(%27, 1f /* ty=float32 span=from_string:17:16 */) /* ty=Tensor[(1, 9, 224, 224), float32] span=from_string:14:5 */
  } /* ty=fn (Tensor[(1, 3, 224, 224), float32]) -> Tensor[(1, 9, 224, 224), float32] span=from_string:21:9 */;
  %29 = %17(%16) /* ty=Tensor[(1, 3, 224, 224), float32] span=from_string:106:13 */;
  %30 = %18(%16) /* ty=Tensor[(1, 3, 224, 224), float32] span=from_string:80:13 */;
  %31 = %28(%16) /* ty=Tensor[(1, 9, 224, 224), float32] span=from_string:107:13 */;
  %32 = fn (%p05: Tensor[(1, 3, 224, 224), float32] /* ty=Tensor[(1, 3, 224, 224), float32] span=from_string:23:14 */, %p1: Tensor[(1, 3, 224, 224), float32] /* ty=Tensor[(1, 3, 224, 224), float32] span=from_string:24:11 */, %p2: Tensor[(1, 3, 224, 224), float32] /* ty=Tensor[(1, 3, 224, 224), float32] span=from_string:24:16 */, %p3: Tensor[(1, 9, 224, 224), float32] /* ty=Tensor[(1, 9, 224, 224), float32] span=from_string:30:15 */, Primitive=1) -> Tensor[(1, 27, 224, 224), float32] {
    %1 = add(%p05, 1f /* ty=float32 span=from_string:23:22 */) /* ty=Tensor[(1, 3, 224, 224), float32] span=from_string:26:19 */;
    %2 = (%p1, %p2, %1) /* ty=(Tensor[(1, 3, 224, 224), float32], Tensor[(1, 3, 224, 224), float32], Tensor[(1, 3, 224, 224), float32]) span=from_string:25:22 */;
    %3 = concatenate(%2, axis=1) /* ty=Tensor[(1, 9, 224, 224), float32] span=from_string:28:14 */;
    %4 = add(%3, 1f /* ty=float32 span=from_string:28:20 */) /* ty=Tensor[(1, 9, 224, 224), float32] span=from_string:30:11 */;
    %5 = (%4, %p3) /* ty=(Tensor[(1, 9, 224, 224), float32], Tensor[(1, 9, 224, 224), float32]) span=from_string:31:17 */;
    %6 = concatenate(%5, axis=1) /* ty=Tensor[(1, 18, 224, 224), float32] */;
    %7 = (%1, %1, %1) /* ty=(Tensor[(1, 3, 224, 224), float32], Tensor[(1, 3, 224, 224), float32], Tensor[(1, 3, 224, 224), float32]) span=from_string:27:22 */;
    %8 = concatenate(%7, axis=1) /* ty=Tensor[(1, 9, 224, 224), float32] span=from_string:29:14 */;
    %9 = add(%8, 1f /* ty=float32 span=from_string:29:20 */) /* ty=Tensor[(1, 9, 224, 224), float32] span=from_string:30:20 */;
    %10 = (%9,) /* ty=(Tensor[(1, 9, 224, 224), float32],) span=from_string:31:17 */;
    %11 = concatenate(%10, axis=1) /* ty=Tensor[(1, 9, 224, 224), float32] */;
    %12 = annotation.stop_fusion(%6) /* ty=Tensor[(1, 18, 224, 224), float32] */;
    %13 = annotation.stop_fusion(%11) /* ty=Tensor[(1, 9, 224, 224), float32] */;
    %14 = (%12, %13) /* ty=(Tensor[(1, 18, 224, 224), float32], Tensor[(1, 9, 224, 224), float32]) span=from_string:31:17 */;
    concatenate(%14, axis=1) /* ty=Tensor[(1, 27, 224, 224), float32] */
  } /* ty=fn (Tensor[(1, 3, 224, 224), float32], Tensor[(1, 3, 224, 224), float32], Tensor[(1, 3, 224, 224), float32], Tensor[(1, 9, 224, 224), float32]) -> Tensor[(1, 27, 224, 224), float32] span=from_string:33:9 */;
  %33 = %32(%16, %29, %30, %31) /* ty=Tensor[(1, 27, 224, 224), float32] span=from_string:38:13 */;
  %34 = fn (%p04: Tensor[(1, 27, 224, 224), float32] /* ty=Tensor[(1, 27, 224, 224), float32] span=from_string:35:25 */, Primitive=1) -> Tensor[(1, 27, 112, 112), float32] {
    %0 = nn.max_pool2d(%p04, pool_size=[2, 2], strides=[2, 2], padding=[0, 0, 0, 0]) /* ty=Tensor[(1, 27, 112, 112), float32] span=from_string:36:9 */;
    add(%0, 1f /* ty=float32 span=from_string:36:15 */) /* ty=Tensor[(1, 27, 112, 112), float32] span=from_string:35:5 */
  } /* ty=fn (Tensor[(1, 27, 224, 224), float32]) -> Tensor[(1, 27, 112, 112), float32] span=from_string:38:9 */;
  %35 = %34(%33) /* ty=Tensor[(1, 27, 112, 112), float32] span=from_string:105:10 */;
  %36 = fn (%p08: Tensor[(1, 27, 112, 112), float32] /* ty=Tensor[(1, 27, 112, 112), float32] span=from_string:40:9 */, Primitive=1) -> Tensor[(1, 27, 112, 112), float32] {
    add(%p08, 1f /* ty=float32 span=from_string:40:17 */) /* ty=Tensor[(1, 27, 112, 112), float32] span=from_string:40:5 */
  } /* ty=fn (Tensor[(1, 27, 112, 112), float32]) -> Tensor[(1, 27, 112, 112), float32] span=from_string:42:9 */;
  %37 = %36(%35) /* ty=Tensor[(1, 27, 112, 112), float32] span=from_string:105:15 */;
  %42 = fn (%p09: Tensor[(1, 3, 224, 224), float32] /* ty=Tensor[(1, 3, 224, 224), float32] span=from_string:44:21 */, Primitive=1) -> Tensor[(1, 3, 224, 224), float32] {
    %38 = transpose(%p09, axes=[0, 3, 1, 2]) /* ty=Tensor[(1, 224, 3, 224), float32] span=from_string:45:28 */;
    %39 = layout_transform(%38, src_layout="NCHW", dst_layout="NCHW4c") /* ty=Tensor[(1, 56, 3, 224, 4), float32] span=from_string:46:19 */;
    %40 = nn.relu(%39) /* ty=Tensor[(1, 56, 3, 224, 4), float32] span=from_string:47:28 */;
    %41 = layout_transform(%40, src_layout="NCHW4c", dst_layout="NCHW") /* ty=Tensor[(1, 224, 3, 224), float32] span=from_string:48:15 */;
    transpose(%41, axes=[0, 2, 3, 1]) /* ty=Tensor[(1, 3, 224, 224), float32] span=from_string:44:5 */
  } /* ty=fn (Tensor[(1, 3, 224, 224), float32]) -> Tensor[(1, 3, 224, 224), float32] span=from_string:106:9 */;
  %44 = fn (%p010: Tensor[(1, 9, 224, 224), float32] /* ty=Tensor[(1, 9, 224, 224), float32] span=from_string:51:19 */, Primitive=1, relay.reshape_only=1) -> Tensor[(1, 9, 224, 224), float32] {
    %43 = reshape(%p010, newshape=[9, 224, 224]) /* ty=Tensor[(9, 224, 224), float32] span=from_string:52:13 */;
    reshape(%43, newshape=[1, 9, 224, 224]) /* ty=Tensor[(1, 9, 224, 224), float32] span=from_string:51:5 */
  } /* ty=fn (Tensor[(1, 9, 224, 224), float32]) -> Tensor[(1, 9, 224, 224), float32] span=from_string:107:9 */;
  %45 = fn (%p0: Tensor[(1, 3, 224, 224), float32] /* ty=Tensor[(1, 3, 224, 224), float32] span=from_string:55:20 */, Primitive=1) -> Tensor[(1, 3, 224, 224), float32] {
    multiply(%p0, %p0) /* ty=Tensor[(1, 3, 224, 224), float32] span=from_string:55:6 */
  } /* ty=fn (Tensor[(1, 3, 224, 224), float32]) -> Tensor[(1, 3, 224, 224), float32] span=from_string:57:9 */;
  %48 = %45(%30) /* ty=Tensor[(1, 3, 224, 224), float32] span=from_string:108:10 */;
  %49 = fn (%p03: Tensor[(1, 3, 224, 224), float32] /* ty=Tensor[(1, 3, 224, 224), float32] span=from_string:59:15 */, Primitive=1) -> Tensor[(1, 3, 224, 224), float32] {
    ones_like(%p03) /* ty=Tensor[(1, 3, 224, 224), float32] span=from_string:59:5 */
  } /* ty=fn (Tensor[(1, 3, 224, 224), float32]) -> Tensor[(1, 3, 224, 224), float32] span=from_string:61:9 */;
  %50 = %49(%48) /* ty=Tensor[(1, 3, 224, 224), float32] span=from_string:74:13 */;
  %51 = fn (%p013: Tensor[(1, 3, 224, 224), float32] /* ty=Tensor[(1, 3, 224, 224), float32] span=from_string:63:15 */, %p13: Tensor[(1, 3, 224, 224), float32] /* ty=Tensor[(1, 3, 224, 224), float32] span=from_string:63:22 */, Primitive=1) -> Tensor[(1, 3, 224, 224), float32] {
    multiply(%p013, %p13) /* ty=Tensor[(1, 3, 224, 224), float32] span=from_string:63:6 */
  } /* ty=fn (Tensor[(1, 3, 224, 224), float32], Tensor[(1, 3, 224, 224), float32]) -> Tensor[(1, 3, 224, 224), float32] span=from_string:65:9 */;
  %52 = %51(%50, %30) /* ty=Tensor[(1, 3, 224, 224), float32] span=from_string:110:15 */;
  %53 = fn (%p012: Tensor[(1, 3, 224, 224), float32] /* ty=Tensor[(1, 3, 224, 224), float32] span=from_string:67:23 */, %p12: Tensor[(1, 3, 224, 224), float32] /* ty=Tensor[(1, 3, 224, 224), float32] span=from_string:67:30 */, Primitive=1) -> Tensor[(1, 3, 224, 224), float32] {
    collapse_sum_like(%p012, %p12) /* ty=Tensor[(1, 3, 224, 224), float32] span=from_string:67:5 */
  } /* ty=fn (Tensor[(1, 3, 224, 224), float32], Tensor[(1, 3, 224, 224), float32]) -> Tensor[(1, 3, 224, 224), float32] span=from_string:73:9 */;
  %55 = fn (%p014: Tensor[(1, 3, 224, 224), float32] /* ty=Tensor[(1, 3, 224, 224), float32] span=from_string:70:21 */, %p14: Tensor[(1, 3, 224, 224), float32] /* ty=Tensor[(1, 3, 224, 224), float32] span=from_string:71:28 */, Primitive=1) -> Tensor[(1, 3, 224, 224), float32] {
    %54 = multiply(%p014, %p14) /* ty=Tensor[(1, 3, 224, 224), float32] span=from_string:71:23 */;
    collapse_sum_like(%54, %p14) /* ty=Tensor[(1, 3, 224, 224), float32] span=from_string:70:5 */
  } /* ty=fn (Tensor[(1, 3, 224, 224), float32], Tensor[(1, 3, 224, 224), float32]) -> Tensor[(1, 3, 224, 224), float32] span=from_string:74:9 */;
  %56 = %53(%52, %30) /* ty=Tensor[(1, 3, 224, 224), float32] span=from_string:80:18 */;
  %57 = %55(%50, %30) /* ty=Tensor[(1, 3, 224, 224), float32] span=from_string:80:23 */;
  %58 = fn (%p011: Tensor[(1, 3, 224, 224), float32] /* ty=Tensor[(1, 3, 224, 224), float32] span=from_string:76:22 */, %p11: Tensor[(1, 3, 224, 224), float32] /* ty=Tensor[(1, 3, 224, 224), float32] span=from_string:77:20 */, %p21: Tensor[(1, 3, 224, 224), float32] /* ty=Tensor[(1, 3, 224, 224), float32] span=from_string:78:14 */, Primitive=1) -> Tensor[(1, 3, 224, 224), float32] {
    %46 = zeros_like(%p011) /* ty=Tensor[(1, 3, 224, 224), float32] span=from_string:77:15 */;
    %47 = add(%46, %p11) /* ty=Tensor[(1, 3, 224, 224), float32] span=from_string:78:9 */;
    add(%47, %p21) /* ty=Tensor[(1, 3, 224, 224), float32] span=from_string:76:5 */
  } /* ty=fn (Tensor[(1, 3, 224, 224), float32], Tensor[(1, 3, 224, 224), float32], Tensor[(1, 3, 224, 224), float32]) -> Tensor[(1, 3, 224, 224), float32] span=from_string:80:9 */;
  %59 = %58(%30, %56, %57) /* ty=Tensor[(1, 3, 224, 224), float32] span=from_string:81:10 */;
  %60 = (%59,) /* ty=(Tensor[(1, 3, 224, 224), float32],) span=from_string:108:15 */;
  %64 = fn (%p016: Tensor[(1, 3, 224, 224), float32] /* ty=Tensor[(1, 3, 224, 224), float32] span=from_string:83:25 */, Primitive=1) -> Tensor[(1, 3, 222, 222), float32] {
    %62 = nn.avg_pool2d(%p016, pool_size=[3, 3], padding=[0, 0, 0, 0]) /* ty=Tensor[(1, 3, 222, 222), float32] span=from_string:84:24 */;
    %63 = qnn.quantize(%62, 0.5f /* ty=float32 span=from_string:84:33 */, 10 /* ty=int32 span=from_string:84:77 */, out_dtype="int8") /* ty=Tensor[(1, 3, 222, 222), int8] span=from_string:85:20 */;
    qnn.dequantize(%63, 2f /* ty=float32 span=from_string:85:27 */, 0 /* ty=int32 span=from_string:85:70 */) /* ty=Tensor[(1, 3, 222, 222), float32] span=from_string:83:5 */
  } /* ty=fn (Tensor[(1, 3, 224, 224), float32]) -> Tensor[(1, 3, 222, 222), float32] span=from_string:87:9 */;
  %65 = %64(%16) /* ty=Tensor[(1, 3, 222, 222), float32] span=from_string:109:13 */;
  %66 = fn (%p015: Tensor[(1, 3, 222, 222), float32] /* ty=Tensor[(1, 3, 222, 222), float32] span=from_string:89:19 */, Primitive=1) -> Tensor[(3, 1, 222, 222), float32] {
    %61 = reshape(%p015, newshape=[3, 1, 222, 222]) /* ty=Tensor[(3, 1, 222, 222), float32] span=from_string:90:9 */;
    erf(%61) /* ty=Tensor[(3, 1, 222, 222), float32] span=from_string:89:5 */
  } /* ty=fn (Tensor[(1, 3, 222, 222), float32]) -> Tensor[(3, 1, 222, 222), float32] span=from_string:109:9 */;
  %67 = fn (%p018: Tensor[(1, 3, 224, 224), float32] /* ty=Tensor[(1, 3, 224, 224), float32] span=from_string:93:20 */, Primitive=1) -> Tensor[(1, 3, 112, 112), float32] {
    nn.max_pool2d(%p018, pool_size=[2, 2], strides=[2, 2], padding=[0, 0, 0, 0]) /* ty=Tensor[(1, 3, 112, 112), float32] span=from_string:93:5 */
  } /* ty=fn (Tensor[(1, 3, 224, 224), float32]) -> Tensor[(1, 3, 112, 112), float32] span=from_string:95:9 */;
  %68 = %67(%52) /* ty=Tensor[(1, 3, 112, 112), float32] span=from_string:99:13 */;
  %69 = fn (%p017: Tensor[(1, 3, 112, 112), float32] /* ty=Tensor[(1, 3, 112, 112), float32] span=from_string:97:19 */, Primitive=1) -> Tensor[(1, 3, 224, 224), float32] {
    nn.upsampling(%p017, scale_h=2f, scale_w=2f) /* ty=Tensor[(1, 3, 224, 224), float32] span=from_string:97:5 */
  } /* ty=fn (Tensor[(1, 3, 112, 112), float32]) -> Tensor[(1, 3, 224, 224), float32] span=from_string:99:9 */;
  %70 = %69(%68) /* ty=Tensor[(1, 3, 224, 224), float32] span=from_string:110:10 */;
  %73 = fn (%p019: Tensor[(1, 3, 224, 224), int8] /* ty=Tensor[(1, 3, 224, 224), int8] span=from_string:101:26 */, Primitive=1) -> Tensor[(1, 3, 224, 224), int8] {
    %71 = qnn.dequantize(%p019, 0.626659f /* ty=float32 span=from_string:101:42 */, -128 /* ty=int32 span=from_string:101:89 */) /* ty=Tensor[(1, 3, 224, 224), float32] span=from_string:102:16 */;
    %72 = sqrt(%71) /* ty=Tensor[(1, 3, 224, 224), float32] span=from_string:103:18 */;
    qnn.quantize(%72, 0.13107f /* ty=float32 span=from_string:103:31 */, -128 /* ty=int32 span=from_string:103:78 */, out_dtype="int8") /* ty=Tensor[(1, 3, 224, 224), int8] span=from_string:101:5 */
  } /* ty=fn (Tensor[(1, 3, 224, 224), int8]) -> Tensor[(1, 3, 224, 224), int8] span=from_string:111:9 */;
  %74 = (%35, %37) /* ty=(Tensor[(1, 27, 112, 112), float32], Tensor[(1, 27, 112, 112), float32]) span=from_string:112:4 */;
  %75 = %42(%29) /* ty=Tensor[(1, 3, 224, 224), float32] span=from_string:112:9 */;
  %76 = %44(%31) /* ty=Tensor[(1, 9, 224, 224), float32] span=from_string:112:14 */;
  %77 = (%48, %60) /* ty=(Tensor[(1, 3, 224, 224), float32], (Tensor[(1, 3, 224, 224), float32],)) span=from_string:112:19 */;
  %78 = %66(%65) /* ty=Tensor[(3, 1, 222, 222), float32] span=from_string:112:24 */;
  %79 = (%70, %52) /* ty=(Tensor[(1, 3, 224, 224), float32], Tensor[(1, 3, 224, 224), float32]) span=from_string:112:149 */;
  %80 = %73(%x0) /* ty=Tensor[(1, 3, 224, 224), int8] span=from_string:112:154 */;
  (%74, %75, %76, %77, %78, meta[relay.Constant][0] /* ty=Tensor[(4), int32] span=from_string:112:34 */, 1f /* ty=float32 span=from_string:112:107 */, %79, %80) /* ty=((Tensor[(1, 27, 112, 112), float32], Tensor[(1, 27, 112, 112), float32]), Tensor[(1, 3, 224, 224), float32], Tensor[(1, 9, 224, 224), float32], (Tensor[(1, 3, 224, 224), float32], (Tensor[(1, 3, 224, 224), float32],)), Tensor[(3, 1, 222, 222), float32], Tensor[(4), int32], float32, (Tensor[(1, 3, 224, 224), float32], Tensor[(1, 3, 224, 224), float32]), Tensor[(1, 3, 224, 224), int8]) span=from_string:3:3 */
}

#[metadata]
{
  "root": 1, 
  "nodes": [
    {
      "type_key": ""
    }, 
    {
      "type_key": "Map", 
      "keys": [
        "relay.Constant"
      ], 
      "data": [2]
    }, 
    {
      "type_key": "Array", 
      "data": [3]
    }, 
    {
      "type_key": "relay.Constant", 
      "attrs": {
        "_checked_type_": "8", 
        "data": "0", 
        "span": "6", 
        "virtual_device_": "4"
      }
    }, 
    {
      "type_key": "VirtualDevice", 
      "attrs": {
        "device_type_int": "-1", 
        "memory_scope": "5", 
        "target": "0", 
        "virtual_device_id": "-1"
      }
    }, 
    {
      "type_key": "runtime.String"
    }, 
    {
      "type_key": "Span", 
      "attrs": {
        "column": "34", 
        "end_column": "52", 
        "end_line": "112", 
        "line": "112", 
        "source_name": "7"
      }
    }, 
    {
      "type_key": "SourceName", 
      "repr_str": "from_string"
    }, 
    {
      "type_key": "relay.TensorType", 
      "attrs": {
        "dtype": "int32", 
        "shape": "9", 
        "span": "11"
      }
    }, 
    {
      "type_key": "Array", 
      "data": [10]
    }, 
    {
      "type_key": "IntImm", 
      "attrs": {
        "dtype": "int32", 
        "span": "0", 
        "value": "4"
      }
    }, 
    {
      "type_key": "Span", 
      "attrs": {
        "column": "508", 
        "end_column": "528", 
        "end_line": "2", 
        "line": "2", 
        "source_name": "7"
      }
    }
  ], 
  "b64ndarrays": [
    "P6G0lvBAXt0AAAAAAAAAAAEAAAAAAAAAAQAAAAAgAQAEAAAAAAAAABAAAAAAAAAAAQAAAAkAAADgAAAA4AAAAA=="
  ], 
  "attrs": {"tvm_version": "0.13.0"}
}