#[version = "0.0.5"]
def @main(%x0: Tensor[(1, 3, 224, 224), int8] /* ty=Tensor[(1, 3, 224, 224), int8] span=from_string:78:30 */, %x1: Tensor[(9, 224, 224), float32] /* ty=Tensor[(9, 224, 224), float32] */, %x2: Tensor[(58), int32] /* ty=Tensor[(58), int32] */) -> ((Tensor[(1, 27, 112, 112), float32], Tensor[(1, 27, 112, 112), float32]), Tensor[(1, 3, 224, 224), float32], Tensor[(1, 9, 224, 224), float32], (Tensor[(1, 3, 224, 224), float32], (Tensor[(1, 3, 224, 224), float32],)), Tensor[(3, 1, 222, 222), float32], Tensor[(4), int32], float32, (Tensor[(1, 3, 224, 224), float32], Tensor[(1, 3, 224, 224), float32]), Tensor[(1, 3, 224, 224), int8]) {
  let %x_2: Tensor[(1, 3, 224, 224), float32] /* ty=Tensor[(1, 3, 224, 224), float32] span=from_string:62:29 */ = qnn.dequantize(%x0, 2f /* ty=float32 span=from_string:3:16 */, -12 /* ty=int32 span=from_string:4:17 */) /* ty=Tensor[(1, 3, 224, 224), float32] span=from_string:5:14 */;
  let %x_4: Tensor[(1, 3, 224, 224), float32] /* ty=Tensor[(1, 3, 224, 224), float32] span=from_string:44:25 */ = add(%x_2, 1f /* ty=float32 span=from_string:6:16 */) /* ty=Tensor[(1, 3, 224, 224), float32] span=from_string:7:14 */;
  let %x_6: Tensor[(1, 3, 224, 224), float32] /* ty=Tensor[(1, 3, 224, 224), float32] span=from_string:58:40 */ = add(%x_2, 1f /* ty=float32 span=from_string:8:16 */) /* ty=Tensor[(1, 3, 224, 224), float32] span=from_string:9:14 */;
  let %x_8: Tensor[(1, 3, 224, 224), float32] /* ty=Tensor[(1, 3, 224, 224), float32] span=from_string:12:27 */ = add(%x_2, 1f /* ty=float32 span=from_string:10:16 */) /* ty=Tensor[(1, 3, 224, 224), float32] span=from_string:11:14 */;
  let %x_9: (Tensor[(1, 3, 224, 224), float32], Tensor[(1, 3, 224, 224), float32], Tensor[(1, 3, 224, 224), float32]) /* ty=(Tensor[(1, 3, 224, 224), float32], Tensor[(1, 3, 224, 224), float32], Tensor[(1, 3, 224, 224), float32]) span=from_string:13:27 */ = (%x_4, %x_6, %x_8) /* ty=(Tensor[(1, 3, 224, 224), float32], Tensor[(1, 3, 224, 224), float32], Tensor[(1, 3, 224, 224), float32]) span=from_string:12:14 */;
  let %x_10: Tensor[(1, 9, 224, 224), float32] /* ty=Tensor[(1, 9, 224, 224), float32] span=from_string:15:19 */ = concatenate(%x_9, axis=1) /* ty=Tensor[(1, 9, 224, 224), float32] span=from_string:13:15 */;
  let %x_12: Tensor[(1, 9, 224, 224), float32] /* ty=Tensor[(1, 9, 224, 224), float32] span=from_string:36:16 */ = add(%x_10, 1f /* ty=float32 span=from_string:14:17 */) /* ty=Tensor[(1, 9, 224, 224), float32] span=from_string:15:15 */;
  let %x_14: Tensor[(1, 3, 224, 224), float32] /* ty=Tensor[(1, 3, 224, 224), float32] span=from_string:22:16 */ = add(%x_2, 1f /* ty=float32 span=from_string:16:17 */) /* ty=Tensor[(1, 3, 224, 224), float32] span=from_string:17:15 */;
  let %x_16: Tensor[(1, 3, 224, 224), float32] /* ty=Tensor[(1, 3, 224, 224), float32] span=from_string:22:23 */ = add(%x_2, 1f /* ty=float32 span=from_string:18:17 */) /* ty=Tensor[(1, 3, 224, 224), float32] span=from_string:19:15 */;
  let %x_18: Tensor[(1, 3, 224, 224), float32] /* ty=Tensor[(1, 3, 224, 224), float32] span=from_string:22:30 */ = add(%x_2, 1f /* ty=float32 span=from_string:20:17 */) /* ty=Tensor[(1, 3, 224, 224), float32] span=from_string:21:15 */;
  let %x_19: (Tensor[(1, 3, 224, 224), float32], Tensor[(1, 3, 224, 224), float32], Tensor[(1, 3, 224, 224), float32]) /* ty=(Tensor[(1, 3, 224, 224), float32], Tensor[(1, 3, 224, 224), float32], Tensor[(1, 3, 224, 224), float32]) span=from_string:23:27 */ = (%x_14, %x_16, %x_18) /* ty=(Tensor[(1, 3, 224, 224), float32], Tensor[(1, 3, 224, 224), float32], Tensor[(1, 3, 224, 224), float32]) span=from_string:22:15 */;
  let %x_20: Tensor[(1, 9, 224, 224), float32] /* ty=Tensor[(1, 9, 224, 224), float32] span=from_string:25:19 */ = concatenate(%x_19, axis=1) /* ty=Tensor[(1, 9, 224, 224), float32] span=from_string:23:15 */;
  let %x_22: Tensor[(1, 9, 224, 224), float32] /* ty=Tensor[(1, 9, 224, 224), float32] span=from_string:49:23 */ = add(%x_20, 1f /* ty=float32 span=from_string:24:17 */) /* ty=Tensor[(1, 9, 224, 224), float32] span=from_string:25:15 */;
  let %x_24: Tensor[(1, 3, 224, 224), float32] /* ty=Tensor[(1, 3, 224, 224), float32] span=from_string:32:16 */ = add(%x_2, 1f /* ty=float32 span=from_string:26:17 */) /* ty=Tensor[(1, 3, 224, 224), float32] span=from_string:27:15 */;
  let %x_26: Tensor[(1, 3, 224, 224), float32] /* ty=Tensor[(1, 3, 224, 224), float32] span=from_string:32:23 */ = add(%x_2, 1f /* ty=float32 span=from_string:28:17 */) /* ty=Tensor[(1, 3, 224, 224), float32] span=from_string:29:15 */;
  let %x_28: Tensor[(1, 3, 224, 224), float32] /* ty=Tensor[(1, 3, 224, 224), float32] span=from_string:32:30 */ = add(%x_2, 1f /* ty=float32 span=from_string:30:17 */) /* ty=Tensor[(1, 3, 224, 224), float32] span=from_string:31:15 */;
  let %x_29: (Tensor[(1, 3, 224, 224), float32], Tensor[(1, 3, 224, 224), float32], Tensor[(1, 3, 224, 224), float32]) /* ty=(Tensor[(1, 3, 224, 224), float32], Tensor[(1, 3, 224, 224), float32], Tensor[(1, 3, 224, 224), float32]) span=from_string:33:27 */ = (%x_24, %x_26, %x_28) /* ty=(Tensor[(1, 3, 224, 224), float32], Tensor[(1, 3, 224, 224), float32], Tensor[(1, 3, 224, 224), float32]) span=from_string:32:15 */;
  let %x_30: Tensor[(1, 9, 224, 224), float32] /* ty=Tensor[(1, 9, 224, 224), float32] span=from_string:35:19 */ = concatenate(%x_29, axis=1) /* ty=Tensor[(1, 9, 224, 224), float32] span=from_string:33:15 */;
  let %x_32: Tensor[(1, 9, 224, 224), float32] /* ty=Tensor[(1, 9, 224, 224), float32] span=from_string:36:30 */ = add(%x_30, 1f /* ty=float32 span=from_string:34:17 */) /* ty=Tensor[(1, 9, 224, 224), float32] span=from_string:35:15 */;
  let %x_33: (Tensor[(1, 9, 224, 224), float32], Tensor[(1, 9, 224, 224), float32], Tensor[(1, 9, 224, 224), float32]) /* ty=(Tensor[(1, 9, 224, 224), float32], Tensor[(1, 9, 224, 224), float32], Tensor[(1, 9, 224, 224), float32]) span=from_string:37:27 */ = (%x_12, %x_22, %x_32) /* ty=(Tensor[(1, 9, 224, 224), float32], Tensor[(1, 9, 224, 224), float32], Tensor[(1, 9, 224, 224), float32]) span=from_string:36:15 */;
  let %x_34: Tensor[(1, 27, 224, 224), float32] /* ty=Tensor[(1, 27, 224, 224), float32] span=from_string:38:30 */ = concatenate(%x_33, axis=1) /* ty=Tensor[(1, 27, 224, 224), float32] span=from_string:37:15 */;
  let %x_35: Tensor[(1, 27, 112, 112), float32] /* ty=Tensor[(1, 27, 112, 112), float32] span=from_string:40:19 */ = nn.max_pool2d(%x_34, pool_size=[2, 2], strides=[2, 2], padding=[0, 0, 0, 0]) /* ty=Tensor[(1, 27, 112, 112), float32] span=from_string:38:15 */;
  let %x_37: Tensor[(1, 27, 112, 112), float32] /* ty=Tensor[(1, 27, 112, 112), float32] span=from_string:43:16 */ = add(%x_35, 1f /* ty=float32 span=from_string:39:17 */) /* ty=Tensor[(1, 27, 112, 112), float32] span=from_string:40:15 */;
  let %x_39: Tensor[(1, 27, 112, 112), float32] /* ty=Tensor[(1, 27, 112, 112), float32] span=from_string:43:23 */ = add(%x_37, 1f /* ty=float32 span=from_string:41:17 */) /* ty=Tensor[(1, 27, 112, 112), float32] span=from_string:42:15 */;
  let %x_40: (Tensor[(1, 27, 112, 112), float32], Tensor[(1, 27, 112, 112), float32]) /* ty=(Tensor[(1, 27, 112, 112), float32], Tensor[(1, 27, 112, 112), float32]) span=from_string:83:16 */ = (%x_37, %x_39) /* ty=(Tensor[(1, 27, 112, 112), float32], Tensor[(1, 27, 112, 112), float32]) span=from_string:43:15 */;
  let %x_41: Tensor[(1, 224, 3, 224), float32] /* ty=Tensor[(1, 224, 3, 224), float32] span=from_string:45:32 */ = transpose(%x_4, axes=[0, 3, 1, 2]) /* ty=Tensor[(1, 224, 3, 224), float32] span=from_string:44:15 */;
  let %x_42: Tensor[(1, 56, 3, 224, 4), float32] /* ty=Tensor[(1, 56, 3, 224, 4), float32] span=from_string:46:23 */ = layout_transform(%x_41, src_layout="NCHW", dst_layout="NCHW4c") /* ty=Tensor[(1, 56, 3, 224, 4), float32] span=from_string:45:15 */;
  let %x_43: Tensor[(1, 56, 3, 224, 4), float32] /* ty=Tensor[(1, 56, 3, 224, 4), float32] span=from_string:47:32 */ = nn.relu(%x_42) /* ty=Tensor[(1, 56, 3, 224, 4), float32] span=from_string:46:15 */;
  let %x_44: Tensor[(1, 224, 3, 224), float32] /* ty=Tensor[(1, 224, 3, 224), float32] span=from_string:48:25 */ = layout_transform(%x_43, src_layout="NCHW4c", dst_layout="NCHW") /* ty=Tensor[(1, 224, 3, 224), float32] span=from_string:47:15 */;
  let %x_45: Tensor[(1, 3, 224, 224), float32] /* ty=Tensor[(1, 3, 224, 224), float32] span=from_string:83:23 */ = transpose(%x_44, axes=[0, 2, 3, 1]) /* ty=Tensor[(1, 3, 224, 224), float32] span=from_string:48:15 */;
  let %x_46: Tensor[(9, 224, 224), float32] /* ty=Tensor[(9, 224, 224), float32] span=from_string:50:23 */ = reshape(%x_22, newshape=[9, 224, 224]) /* ty=Tensor[(9, 224, 224), float32] span=from_string:49:15 */;
  let %x_47: Tensor[(1, 9, 224, 224), float32] /* ty=Tensor[(1, 9, 224, 224), float32] span=from_string:83:30 */ = reshape(%x_46, newshape=[1, 9, 224, 224]) /* ty=Tensor[(1, 9, 224, 224), float32] span=from_string:50:15 */;
  let %x_48: Tensor[(1, 3, 224, 224), float32] /* ty=Tensor[(1, 3, 224, 224), float32] span=from_string:61:16 */ = multiply(%x_6, %x_6) /* ty=Tensor[(1, 3, 224, 224), float32] span=from_string:51:16 */;
  let %x_49: Tensor[(1, 3, 224, 224), float32] /* ty=Tensor[(1, 3, 224, 224), float32] span=from_string:56:19 */ = zeros_like(%x_6) /* ty=Tensor[(1, 3, 224, 224), float32] span=from_string:52:15 */;
  let %x_50: Tensor[(1, 3, 224, 224), float32] /* ty=Tensor[(1, 3, 224, 224), float32] span=from_string:57:25 */ = ones_like(%x_48) /* ty=Tensor[(1, 3, 224, 224), float32] span=from_string:53:15 */;
  let %x_51: Tensor[(1, 3, 224, 224), float32] /* ty=Tensor[(1, 3, 224, 224), float32] span=from_string:75:23 */ = multiply(%x_50, %x_6) /* ty=Tensor[(1, 3, 224, 224), float32] span=from_string:54:16 */;
  let %x_52: Tensor[(1, 3, 224, 224), float32] /* ty=Tensor[(1, 3, 224, 224), float32] span=from_string:56:26 */ = collapse_sum_like(%x_51, %x_6) /* ty=Tensor[(1, 3, 224, 224), float32] span=from_string:55:15 */;
  let %x_53: Tensor[(1, 3, 224, 224), float32] /* ty=Tensor[(1, 3, 224, 224), float32] span=from_string:59:19 */ = add(%x_49, %x_52) /* ty=Tensor[(1, 3, 224, 224), float32] span=from_string:56:15 */;
  let %x_54: Tensor[(1, 3, 224, 224), float32] /* ty=Tensor[(1, 3, 224, 224), float32] span=from_string:58:33 */ = multiply(%x_50, %x_6) /* ty=Tensor[(1, 3, 224, 224), float32] span=from_string:57:16 */;
  let %x_55: Tensor[(1, 3, 224, 224), float32] /* ty=Tensor[(1, 3, 224, 224), float32] span=from_string:59:26 */ = collapse_sum_like(%x_54, %x_6) /* ty=Tensor[(1, 3, 224, 224), float32] span=from_string:58:15 */;
  let %x_56: Tensor[(1, 3, 224, 224), float32] /* ty=Tensor[(1, 3, 224, 224), float32] span=from_string:60:16 */ = add(%x_53, %x_55) /* ty=Tensor[(1, 3, 224, 224), float32] span=from_string:59:15 */;
  let %x_57: (Tensor[(1, 3, 224, 224), float32],) /* ty=(Tensor[(1, 3, 224, 224), float32],) span=from_string:61:23 */ = (%x_56,) /* ty=(Tensor[(1, 3, 224, 224), float32],) span=from_string:60:15 */;
  let %x_58: (Tensor[(1, 3, 224, 224), float32], (Tensor[(1, 3, 224, 224), float32],)) /* ty=(Tensor[(1, 3, 224, 224), float32], (Tensor[(1, 3, 224, 224), float32],)) span=from_string:83:37 */ = (%x_48, %x_57) /* ty=(Tensor[(1, 3, 224, 224), float32], (Tensor[(1, 3, 224, 224), float32],)) span=from_string:61:15 */;
  let %x_59: Tensor[(1, 3, 222, 222), float32] /* ty=Tensor[(1, 3, 222, 222), float32] span=from_string:65:28 */ = nn.avg_pool2d(%x_2, pool_size=[3, 3], padding=[0, 0, 0, 0]) /* ty=Tensor[(1, 3, 222, 222), float32] span=from_string:62:15 */;
  let %x_62: Tensor[(1, 3, 222, 222), int8] /* ty=Tensor[(1, 3, 222, 222), int8] span=from_string:68:30 */ = qnn.quantize(%x_59, 0.5f /* ty=float32 span=from_string:63:19 */, 10 /* ty=int32 span=from_string:64:17 */, out_dtype="int8") /* ty=Tensor[(1, 3, 222, 222), int8] span=from_string:65:15 */;
  let %x_65: Tensor[(1, 3, 222, 222), float32] /* ty=Tensor[(1, 3, 222, 222), float32] span=from_string:69:23 */ = qnn.dequantize(%x_62, 2f /* ty=float32 span=from_string:66:17 */, 0 /* ty=int32 span=from_string:67:16 */) /* ty=Tensor[(1, 3, 222, 222), float32] span=from_string:68:15 */;
  let %x_66: Tensor[(3, 1, 222, 222), float32] /* ty=Tensor[(3, 1, 222, 222), float32] span=from_string:70:24 */ = reshape(%x_65, newshape=[3, 1, 222, 222]) /* ty=Tensor[(3, 1, 222, 222), float32] span=from_string:69:15 */;
  let %x_67: Tensor[(3, 1, 222, 222), float32] /* ty=Tensor[(3, 1, 222, 222), float32] span=from_string:83:44 */ = fast_erf(%x_66) /* ty=Tensor[(3, 1, 222, 222), float32] span=from_string:70:15 */;
  let %x_70: Tensor[(1, 3, 112, 112), float32] /* ty=Tensor[(1, 3, 112, 112), float32] span=from_string:74:29 */ = nn.max_pool2d(%x_51, pool_size=[2, 2], strides=[2, 2], padding=[0, 0, 0, 0]) /* ty=Tensor[(1, 3, 112, 112), float32] span=from_string:73:15 */;
  let %x_71: Tensor[(1, 3, 224, 224), float32] /* ty=Tensor[(1, 3, 224, 224), float32] span=from_string:75:16 */ = nn.upsampling(%x_70, scale_h=2f, scale_w=2f) /* ty=Tensor[(1, 3, 224, 224), float32] span=from_string:74:15 */;
  let %x_72: (Tensor[(1, 3, 224, 224), float32], Tensor[(1, 3, 224, 224), float32]) /* ty=(Tensor[(1, 3, 224, 224), float32], Tensor[(1, 3, 224, 224), float32]) span=from_string:83:65 */ = (%x_71, %x_51) /* ty=(Tensor[(1, 3, 224, 224), float32], Tensor[(1, 3, 224, 224), float32]) span=from_string:75:15 */;
  let %x_75: Tensor[(1, 3, 224, 224), float32] /* ty=Tensor[(1, 3, 224, 224), float32] span=from_string:79:20 */ = qnn.dequantize(%x0, 0.626659f /* ty=float32 span=from_string:76:24 */, -128 /* ty=int32 span=from_string:77:19 */) /* ty=Tensor[(1, 3, 224, 224), float32] span=from_string:78:15 */;
  let %x_76: Tensor[(1, 3, 224, 224), float32] /* ty=Tensor[(1, 3, 224, 224), float32] span=from_string:82:28 */ = sqrt(%x_75) /* ty=Tensor[(1, 3, 224, 224), float32] span=from_string:79:15 */;
  let %x_79: Tensor[(1, 3, 224, 224), int8] /* ty=Tensor[(1, 3, 224, 224), int8] span=from_string:83:72 */ = qnn.quantize(%x_76, 0.13107f /* ty=float32 span=from_string:80:23 */, -128 /* ty=int32 span=from_string:81:19 */, out_dtype="int8") /* ty=Tensor[(1, 3, 224, 224), int8] span=from_string:82:15 */;
  let %x_80: ((Tensor[(1, 27, 112, 112), float32], Tensor[(1, 27, 112, 112), float32]), Tensor[(1, 3, 224, 224), float32], Tensor[(1, 9, 224, 224), float32], (Tensor[(1, 3, 224, 224), float32], (Tensor[(1, 3, 224, 224), float32],)), Tensor[(3, 1, 222, 222), float32], Tensor[(4), int32], float32, (Tensor[(1, 3, 224, 224), float32], Tensor[(1, 3, 224, 224), float32]), Tensor[(1, 3, 224, 224), int8]) /* ty=((Tensor[(1, 27, 112, 112), float32], Tensor[(1, 27, 112, 112), float32]), Tensor[(1, 3, 224, 224), float32], Tensor[(1, 9, 224, 224), float32], (Tensor[(1, 3, 224, 224), float32], (Tensor[(1, 3, 224, 224), float32],)), Tensor[(3, 1, 222, 222), float32], Tensor[(4), int32], float32, (Tensor[(1, 3, 224, 224), float32], Tensor[(1, 3, 224, 224), float32]), Tensor[(1, 3, 224, 224), int8]) span=from_string:84:3 */ = (%x_40, %x_45, %x_47, %x_58, %x_67, meta[relay.Constant][0] /* ty=Tensor[(4), int32] span=from_string:71:20 */, 1f /* ty=float32 span=from_string:72:17 */, %x_72, %x_79) /* ty=((Tensor[(1, 27, 112, 112), float32], Tensor[(1, 27, 112, 112), float32]), Tensor[(1, 3, 224, 224), float32], Tensor[(1, 9, 224, 224), float32], (Tensor[(1, 3, 224, 224), float32], (Tensor[(1, 3, 224, 224), float32],)), Tensor[(3, 1, 222, 222), float32], Tensor[(4), int32], float32, (Tensor[(1, 3, 224, 224), float32], Tensor[(1, 3, 224, 224), float32]), Tensor[(1, 3, 224, 224), int8]) span=from_string:83:15 */;
  %x_80
}

#[metadata]
{
  "root": 1, 
  "nodes": [
    {
      "type_key": ""
    }, 
    {
      "type_key": "Map", 
      "keys": [
        "relay.Constant"
      ], 
      "data": [2]
    }, 
    {
      "type_key": "Array", 
      "data": [3]
    }, 
    {
      "type_key": "relay.Constant", 
      "attrs": {
        "_checked_type_": "8", 
        "data": "0", 
        "span": "6", 
        "virtual_device_": "4"
      }
    }, 
    {
      "type_key": "VirtualDevice", 
      "attrs": {
        "device_type_int": "-1", 
        "memory_scope": "5", 
        "target": "0", 
        "virtual_device_id": "-1"
      }
    }, 
    {
      "type_key": "runtime.String"
    }, 
    {
      "type_key": "Span", 
      "attrs": {
        "column": "20", 
        "end_column": "38", 
        "end_line": "71", 
        "line": "71", 
        "source_name": "7"
      }
    }, 
    {
      "type_key": "SourceName", 
      "repr_str": "from_string"
    }, 
    {
      "type_key": "relay.TensorType", 
      "attrs": {
        "dtype": "int32", 
        "shape": "9", 
        "span": "0"
      }
    }, 
    {
      "type_key": "Array", 
      "data": [10]
    }, 
    {
      "type_key": "IntImm", 
      "attrs": {
        "dtype": "int32", 
        "span": "0", 
        "value": "4"
      }
    }
  ], 
  "b64ndarrays": [
    "P6G0lvBAXt0AAAAAAAAAAAEAAAAAAAAAAQAAAAAgAQAEAAAAAAAAABAAAAAAAAAAAQAAAAkAAADgAAAA4AAAAA=="
  ], 
  "attrs": {"tvm_version": "0.13.0"}
}