#[version = "0.0.5"]
def @main(%x0: Tensor[(1, 64, 56, 56), float32] /* ty=Tensor[(1, 64, 56, 56), float32] span=from_string:25:30 */, %x1: Tensor[(29, 64, 56, 56), float32] /* ty=Tensor[(29, 64, 56, 56), float32] span=from_string:3:14 */, %x2: Tensor[(30, 64, 56, 92), float32] /* ty=Tensor[(30, 64, 56, 92), float32] span=from_string:12:13 */, %x3: Tensor[(30, 64, 56, 20), float32] /* ty=Tensor[(30, 64, 56, 20), float32] span=from_string:23:13 */, %x4: Tensor[(64, 64, 3, 3), float32] /* ty=Tensor[(64, 64, 3, 3), float32] span=from_string:20:19 */) -> (Tensor[(1, 64, 1, 1), float32], Tensor[(30, 64, 56, 168), float32], Tensor[(30, 64, 56, 92), bfloat16], Tensor[(30, 64, 1, 1), float32], Tensor[(30, 64, 56, 56), float32], Tensor[(30, 64, 56, 20), float32], float32) {
  %0 = (%x0, %x1) /* ty=(Tensor[(1, 64, 56, 56), float32], Tensor[(29, 64, 56, 56), float32]) span=from_string:13:21 */;
  %1 = concatenate(%0);
  %2 = (%1, %x2) /* ty=(Tensor[(30, 64, 56, 56), float32], Tensor[(30, 64, 56, 92), float32]) span=from_string:6:20 */;
  %3 = concatenate(%2, axis=3);
  %4 = (%x3,) /* ty=(Tensor[(30, 64, 56, 20), float32],) span=from_string:8:20 */;
  %5 = concatenate(%4, axis=3);
  %6 = annotation.stop_fusion(%3);
  %7 = annotation.stop_fusion(%5);
  %8 = (%6, %7) /* ty=(Tensor[(30, 64, 56, 148), float32], Tensor[(30, 64, 56, 20), float32]) span=from_string:26:21 */;
  %9 = cast(%x2, dtype="bfloat16");
  %10 = concatenate(%0);
  %11 = annotation.stop_fusion(%10);
  %12 = (%11,) /* ty=(Tensor[(30, 64, 56, 56), float32],) span=from_string:16:21 */;
  %13 = concatenate(%12);
  %14 = ones_like(%13);
  %15 = add(%13, %14);
  %16 = nn.global_max_pool2d(%15);
  %17 = multiply(%x4, 2f /* ty=float32 span=from_string:20:26 */);
  %18 = nn.conv2d(%16, %17, padding=[1, 1, 1, 1], channels=64, kernel_size=[3, 3]);
  %19 = add(0f /* ty=float32 span=from_string:22:15 */, %18);
  %20 = add(%x3, 1f /* ty=float32 span=from_string:23:20 */);
  %21 = exp(%20);
  %22 = nn.global_max_pool2d(%x0);
  %23 = concatenate(%8, axis=3);
  %24 = clip(%9, a_min=-0.2f, a_max=0.4f);
  %25 = nn.relu(%19);
  %26 = erf(%15);
  %27 = squeeze(%21);
  (%22, %23, %24, %25, %26, %27, 2.71828f /* ty=float32 span=from_string:31:42 */) /* ty=(Tensor[(1, 64, 1, 1), float32], Tensor[(30, 64, 56, 168), float32], Tensor[(30, 64, 56, 92), bfloat16], Tensor[(30, 64, 1, 1), float32], Tensor[(30, 64, 56, 56), float32], Tensor[(30, 64, 56, 20), float32], float32) span=from_string:3:3 */
}
