#[version = "0.0.5"]
def @main(%x0: Tensor[(1, 5, 5, 4), float32] /* ty=Tensor[(1, 5, 5, 4), float32] span=from_string:14:11 */, %x1: Tensor[(0, 9, 4), float32] /* ty=Tensor[(0, 9, 4), float32] */, %x2: Tensor[(1, 5, 5, 4), float32] /* ty=Tensor[(1, 5, 5, 4), float32] span=from_string:32:13 */) -> (Tensor[(0, 9, 9, 4), float16], Tensor[(1, 5, 5, 4), float16], Tensor[(3), int32], Tensor[(1, 5, 5, 4), float16], Tensor[(1, 5, 5, 4), float16], (Tensor[(5, 5, 4, 1), float16], (Tensor[(5, 5, 4, 1), float16],)), int32) {
  %1 = fn (%p0: Tensor[(1, 5, 5, 4), float32] /* ty=Tensor[(1, 5, 5, 4), float32] span=from_string:4:15 */, Primitive=1) -> Tensor[(0, 9, 9, 4), float16] {
    %0 = cast(%p0, dtype="float16") /* ty=Tensor[(1, 5, 5, 4), float16] span=from_string:5:26 */;
    nn.batch_to_space_nd(%0, block_shape=[2, 2], crops=[[0, 1], [0, 1]]) /* ty=Tensor[(0, 9, 9, 4), float16] span=from_string:4:5 */
  } /* ty=fn (Tensor[(1, 5, 5, 4), float32]) -> Tensor[(0, 9, 9, 4), float16] span=from_string:7:8 */;
  %2 = %1(%x0) /* ty=Tensor[(0, 9, 9, 4), float16] span=from_string:78:12 */;
  %3 = fn (%p01: Tensor[(0, 9, 9, 4), float16] /* ty=Tensor[(0, 9, 9, 4), float16] span=from_string:9:13 */, Primitive=1, relay.reshape_only=1) -> Tensor[(0, 9, 9, 4), float16] {
    reshape(%p01, newshape=[0, 9, 9, 4]) /* ty=Tensor[(0, 9, 9, 4), float16] span=from_string:9:5 */
  } /* ty=fn (Tensor[(0, 9, 9, 4), float16]) -> Tensor[(0, 9, 9, 4), float16] span=from_string:78:9 */;
  %4 = fn (%p02: Tensor[(1, 5, 5, 4), float32] /* ty=Tensor[(1, 5, 5, 4), float32] span=from_string:12:9 */, Primitive=1) -> Tensor[(1, 5, 5, 4), float32] {
    erf(%p02) /* ty=Tensor[(1, 5, 5, 4), float32] span=from_string:12:5 */
  } /* ty=fn (Tensor[(1, 5, 5, 4), float32]) -> Tensor[(1, 5, 5, 4), float32] span=from_string:14:8 */;
  %5 = %4(%x0) /* ty=Tensor[(1, 5, 5, 4), float32] span=from_string:37:13 */;
  %6 = fn (%p03: Tensor[(1, 5, 5, 4), float32] /* ty=Tensor[(1, 5, 5, 4), float32] span=from_string:16:16 */, Primitive=1) -> Tensor[(1, 5, 5, 4), float32] {
    nn.softmax(%p03) /* ty=Tensor[(1, 5, 5, 4), float32] span=from_string:16:5 */
  } /* ty=fn (Tensor[(1, 5, 5, 4), float32]) -> Tensor[(1, 5, 5, 4), float32] span=from_string:18:8 */;
  %7 = %6(%5) /* ty=Tensor[(1, 5, 5, 4), float32] span=from_string:22:11 */;
  %8 = fn (%p05: Tensor[(1, 5, 5, 4), float32] /* ty=Tensor[(1, 5, 5, 4), float32] span=from_string:20:10 */, Primitive=1) -> Tensor[(1, 5, 5, 4), float16] {
    cast(%p05, dtype="float16") /* ty=Tensor[(1, 5, 5, 4), float16] span=from_string:20:5 */
  } /* ty=fn (Tensor[(1, 5, 5, 4), float32]) -> Tensor[(1, 5, 5, 4), float16] span=from_string:22:8 */;
  %9 = %8(%7) /* ty=Tensor[(1, 5, 5, 4), float16] span=from_string:80:13 */;
  %10 = fn (%p04: Tensor[(1, 5, 5, 4), float16] /* ty=Tensor[(1, 5, 5, 4), float16] span=from_string:24:5 */, Primitive=1) -> Tensor[(1, 5, 5, 4), float16] {
    %p04
  } /* ty=fn (Tensor[(1, 5, 5, 4), float16]) -> Tensor[(1, 5, 5, 4), float16] span=from_string:79:9 */;
  %11 = fn (%p06: Tensor[(1, 5, 5, 4), float16] /* ty=Tensor[(1, 5, 5, 4), float16] span=from_string:27:10 */, Primitive=1) -> Tensor[(1, 5, 5, 4), float16] {
    tanh(%p06) /* ty=Tensor[(1, 5, 5, 4), float16] span=from_string:27:5 */
  } /* ty=fn (Tensor[(1, 5, 5, 4), float16]) -> Tensor[(1, 5, 5, 4), float16] span=from_string:80:9 */;
  %13 = fn (%p08: Tensor[(1, 5, 5, 4), float32] /* ty=Tensor[(1, 5, 5, 4), float32] span=from_string:30:10 */, Primitive=1) -> Tensor[(1, 5, 5, 4), float16] {
    cast(%p08, dtype="float16") /* ty=Tensor[(1, 5, 5, 4), float16] span=from_string:30:5 */
  } /* ty=fn (Tensor[(1, 5, 5, 4), float32]) -> Tensor[(1, 5, 5, 4), float16] span=from_string:32:9 */;
  %14 = %13(%x2) /* ty=Tensor[(1, 5, 5, 4), float16] span=from_string:81:18 */;
  %15 = fn (%p07: Tensor[(1, 5, 5, 4), float32] /* ty=Tensor[(1, 5, 5, 4), float32] span=from_string:34:16 */, %p1: Tensor[(1, 5, 5, 4), float16] /* ty=Tensor[(1, 5, 5, 4), float16] span=from_string:35:19 */, Primitive=1) -> Tensor[(1, 5, 5, 4), float16] {
    %12 = cast(%p07, dtype="float16") /* ty=Tensor[(1, 5, 5, 4), float16] span=from_string:35:14 */;
    subtract(%12, %p1) /* ty=Tensor[(1, 5, 5, 4), float16] span=from_string:34:5 */
  } /* ty=fn (Tensor[(1, 5, 5, 4), float32], Tensor[(1, 5, 5, 4), float16]) -> Tensor[(1, 5, 5, 4), float16] span=from_string:37:9 */;
  %16 = %15(%5, %14) /* ty=Tensor[(1, 5, 5, 4), float16] span=from_string:81:13 */;
  %17 = fn (%p09: Tensor[(1, 5, 5, 4), float16] /* ty=Tensor[(1, 5, 5, 4), float16] span=from_string:39:15 */, %p11: Tensor[(1, 5, 5, 4), float16] /* ty=Tensor[(1, 5, 5, 4), float16] span=from_string:39:21 */, Primitive=1) -> Tensor[(1, 5, 5, 4), float16] {
    multiply(%p09, %p11) /* ty=Tensor[(1, 5, 5, 4), float16] span=from_string:39:6 */
  } /* ty=fn (Tensor[(1, 5, 5, 4), float16], Tensor[(1, 5, 5, 4), float16]) -> Tensor[(1, 5, 5, 4), float16] span=from_string:81:9 */;
  %18 = fn (%p010: Tensor[(1, 5, 5, 4), float16] /* ty=Tensor[(1, 5, 5, 4), float16] span=from_string:42:15 */, Primitive=1) -> Tensor[(5, 5, 4, 1), float16] {
    transpose(%p010, axes=[1, 2, 3, 0]) /* ty=Tensor[(5, 5, 4, 1), float16] span=from_string:42:5 */
  } /* ty=fn (Tensor[(1, 5, 5, 4), float16]) -> Tensor[(5, 5, 4, 1), float16] span=from_string:44:9 */;
  %19 = %18(%16) /* ty=Tensor[(5, 5, 4, 1), float16] span=from_string:48:13 */;
  %20 = fn (%p011: Tensor[(5, 5, 4, 1), float16] /* ty=Tensor[(5, 5, 4, 1), float16] span=from_string:46:13 */, Primitive=1) -> Tensor[(5, 5, 4, 1), float16] {
    nn.relu(%p011) /* ty=Tensor[(5, 5, 4, 1), float16] span=from_string:46:5 */
  } /* ty=fn (Tensor[(5, 5, 4, 1), float16]) -> Tensor[(5, 5, 4, 1), float16] span=from_string:48:9 */;
  %21 = %20(%19) /* ty=Tensor[(5, 5, 4, 1), float16] span=from_string:76:13 */;
  %22 = fn (%p012: Tensor[(5, 5, 4, 1), float16] /* ty=Tensor[(5, 5, 4, 1), float16] span=from_string:50:22 */, Primitive=1) -> Tensor[(5, 5, 4, 1), float16] {
    multiply(%p012, %p012) /* ty=Tensor[(5, 5, 4, 1), float16] span=from_string:50:6 */
  } /* ty=fn (Tensor[(5, 5, 4, 1), float16]) -> Tensor[(5, 5, 4, 1), float16] span=from_string:76:9 */;
  %23 = fn (Primitive=1) -> Tensor[(5, 5, 4, 1), float16] {
    ones(shape=[5, 5, 4, 1], dtype="float16") /* ty=Tensor[(5, 5, 4, 1), float16] span=from_string:53:5 */
  } /* ty=fn () -> Tensor[(5, 5, 4, 1), float16] span=from_string:55:9 */;
  %24 = %23() /* ty=Tensor[(5, 5, 4, 1), float16] span=from_string:66:13 */;
  %25 = fn (%p013: Tensor[(5, 5, 4, 1), float16] /* ty=Tensor[(5, 5, 4, 1), float16] span=from_string:57:15 */, %p12: Tensor[(5, 5, 4, 1), float16] /* ty=Tensor[(5, 5, 4, 1), float16] span=from_string:57:22 */, Primitive=1) -> Tensor[(5, 5, 4, 1), float16] {
    multiply(%p013, %p12) /* ty=Tensor[(5, 5, 4, 1), float16] span=from_string:57:6 */
  } /* ty=fn (Tensor[(5, 5, 4, 1), float16], Tensor[(5, 5, 4, 1), float16]) -> Tensor[(5, 5, 4, 1), float16] span=from_string:59:9 */;
  %26 = %25(%24, %21) /* ty=Tensor[(5, 5, 4, 1), float16] span=from_string:70:13 */;
  %27 = fn (%p014: Tensor[(5, 5, 4, 1), float16] /* ty=Tensor[(5, 5, 4, 1), float16] span=from_string:61:21 */, %p13: Tensor[(4), int32] /* ty=Tensor[(4), int32] span=from_string:61:28 */, Primitive=1) -> Tensor[(5, 5, 4, 1), float16] {
    collapse_sum_to(%p014, %p13, meta[relay.attrs.InitOpAttrs][0]) /* ty=Tensor[(5, 5, 4, 1), float16] span=from_string:61:5 */
  } /* ty=fn (Tensor[(5, 5, 4, 1), float16], Tensor[(4), int32]) -> Tensor[(5, 5, 4, 1), float16] span=from_string:70:9 */;
  %28 = fn (%p015: Tensor[(5, 5, 4, 1), float16] /* ty=Tensor[(5, 5, 4, 1), float16] span=from_string:64:15 */, %p14: Tensor[(5, 5, 4, 1), float16] /* ty=Tensor[(5, 5, 4, 1), float16] span=from_string:64:22 */, Primitive=1) -> Tensor[(5, 5, 4, 1), float16] {
    multiply(%p015, %p14) /* ty=Tensor[(5, 5, 4, 1), float16] span=from_string:64:6 */
  } /* ty=fn (Tensor[(5, 5, 4, 1), float16], Tensor[(5, 5, 4, 1), float16]) -> Tensor[(5, 5, 4, 1), float16] span=from_string:66:9 */;
  %29 = %28(%24, %21) /* ty=Tensor[(5, 5, 4, 1), float16] span=from_string:71:13 */;
  %30 = fn (%p016: Tensor[(5, 5, 4, 1), float16] /* ty=Tensor[(5, 5, 4, 1), float16] span=from_string:68:21 */, %p15: Tensor[(4), int32] /* ty=Tensor[(4), int32] span=from_string:68:28 */, Primitive=1) -> Tensor[(5, 5, 4, 1), float16] {
    collapse_sum_to(%p016, %p15, meta[relay.attrs.InitOpAttrs][1]) /* ty=Tensor[(5, 5, 4, 1), float16] span=from_string:68:5 */
  } /* ty=fn (Tensor[(5, 5, 4, 1), float16], Tensor[(4), int32]) -> Tensor[(5, 5, 4, 1), float16] span=from_string:71:9 */;
  %31 = %27(%26, meta[relay.Constant][1] /* ty=Tensor[(4), int32] span=from_string:70:23 */) /* ty=Tensor[(5, 5, 4, 1), float16] span=from_string:75:13 */;
  %32 = %30(%29, meta[relay.Constant][2] /* ty=Tensor[(4), int32] span=from_string:71:23 */) /* ty=Tensor[(5, 5, 4, 1), float16] span=from_string:75:18 */;
  %33 = fn (%p017: Tensor[(5, 5, 4, 1), float16] /* ty=Tensor[(5, 5, 4, 1), float16] span=from_string:73:9 */, %p16: Tensor[(5, 5, 4, 1), float16] /* ty=Tensor[(5, 5, 4, 1), float16] span=from_string:73:16 */, Primitive=1) -> Tensor[(5, 5, 4, 1), float16] {
    add(%p017, %p16) /* ty=Tensor[(5, 5, 4, 1), float16] span=from_string:73:5 */
  } /* ty=fn (Tensor[(5, 5, 4, 1), float16], Tensor[(5, 5, 4, 1), float16]) -> Tensor[(5, 5, 4, 1), float16] span=from_string:75:9 */;
  %34 = %33(%31, %32) /* ty=Tensor[(5, 5, 4, 1), float16] span=from_string:77:10 */;
  %35 = %22(%21) /* ty=Tensor[(5, 5, 4, 1), float16] span=from_string:82:10 */;
  %36 = (%34,) /* ty=(Tensor[(5, 5, 4, 1), float16],) span=from_string:82:15 */;
  %37 = %3(%2) /* ty=Tensor[(0, 9, 9, 4), float16] span=from_string:83:4 */;
  %38 = %10(%9) /* ty=Tensor[(1, 5, 5, 4), float16] span=from_string:83:9 */;
  %39 = %11(%9) /* ty=Tensor[(1, 5, 5, 4), float16] span=from_string:83:90 */;
  %40 = %17(%16, %14) /* ty=Tensor[(1, 5, 5, 4), float16] span=from_string:83:95 */;
  %41 = (%35, %36) /* ty=(Tensor[(5, 5, 4, 1), float16], (Tensor[(5, 5, 4, 1), float16],)) span=from_string:83:100 */;
  (%37, %38, meta[relay.Constant][0] /* ty=Tensor[(3), int32] span=from_string:83:19 */, %39, %40, %41, 2 /* ty=int32 span=from_string:83:106 */) /* ty=(Tensor[(0, 9, 9, 4), float16], Tensor[(1, 5, 5, 4), float16], Tensor[(3), int32], Tensor[(1, 5, 5, 4), float16], Tensor[(1, 5, 5, 4), float16], (Tensor[(5, 5, 4, 1), float16], (Tensor[(5, 5, 4, 1), float16],)), int32) span=from_string:3:3 */
}

#[metadata]
{
  "root": 1, 
  "nodes": [
    {
      "type_key": ""
    }, 
    {
      "type_key": "Map", 
      "keys": [
        "relay.attrs.InitOpAttrs", 
        "relay.Constant"
      ], 
      "data": [2, 11]
    }, 
    {
      "type_key": "Array", 
      "data": [3, 9]
    }, 
    {
      "type_key": "relay.attrs.InitOpAttrs", 
      "attrs": {
        "dtype": "float16", 
        "shape": "4"
      }
    }, 
    {
      "type_key": "Array", 
      "data": [5, 6, 7, 8]
    }, 
    {
      "type_key": "IntImm", 
      "attrs": {
        "dtype": "int32", 
        "span": "0", 
        "value": "5"
      }
    }, 
    {
      "type_key": "IntImm", 
      "attrs": {
        "dtype": "int32", 
        "span": "0", 
        "value": "5"
      }
    }, 
    {
      "type_key": "IntImm", 
      "attrs": {
        "dtype": "int32", 
        "span": "0", 
        "value": "4"
      }
    }, 
    {
      "type_key": "IntImm", 
      "attrs": {
        "dtype": "int32", 
        "span": "0", 
        "value": "1"
      }
    }, 
    {
      "type_key": "relay.attrs.InitOpAttrs", 
      "attrs": {
        "dtype": "float16", 
        "shape": "10"
      }
    }, 
    {
      "type_key": "Array", 
      "data": [5, 6, 7, 8]
    }, 
    {
      "type_key": "Array", 
      "data": [12, 21, 28]
    }, 
    {
      "type_key": "relay.Constant", 
      "attrs": {
        "_checked_type_": "17", 
        "data": "0", 
        "span": "15", 
        "virtual_device_": "13"
      }
    }, 
    {
      "type_key": "VirtualDevice", 
      "attrs": {
        "device_type_int": "-1", 
        "memory_scope": "14", 
        "target": "0", 
        "virtual_device_id": "-1"
      }
    }, 
    {
      "type_key": "runtime.String"
    }, 
    {
      "type_key": "Span", 
      "attrs": {
        "column": "19", 
        "end_column": "37", 
        "end_line": "83", 
        "line": "83", 
        "source_name": "16"
      }
    }, 
    {
      "type_key": "SourceName", 
      "repr_str": "from_string"
    }, 
    {
      "type_key": "relay.TensorType", 
      "attrs": {
        "dtype": "int32", 
        "shape": "18", 
        "span": "20"
      }
    }, 
    {
      "type_key": "Array", 
      "data": [19]
    }, 
    {
      "type_key": "IntImm", 
      "attrs": {
        "dtype": "int32", 
        "span": "0", 
        "value": "3"
      }
    }, 
    {
      "type_key": "Span", 
      "attrs": {
        "column": "343", 
        "end_column": "363", 
        "end_line": "2", 
        "line": "2", 
        "source_name": "16"
      }
    }, 
    {
      "type_key": "relay.Constant", 
      "attrs": {
        "_checked_type_": "25", 
        "data": "1", 
        "span": "24", 
        "virtual_device_": "22"
      }
    }, 
    {
      "type_key": "VirtualDevice", 
      "attrs": {
        "device_type_int": "-1", 
        "memory_scope": "23", 
        "target": "0", 
        "virtual_device_id": "-1"
      }
    }, 
    {
      "type_key": "runtime.String"
    }, 
    {
      "type_key": "Span", 
      "attrs": {
        "column": "23", 
        "end_column": "41", 
        "end_line": "70", 
        "line": "70", 
        "source_name": "16"
      }
    }, 
    {
      "type_key": "relay.TensorType", 
      "attrs": {
        "dtype": "int32", 
        "shape": "26", 
        "span": "0"
      }
    }, 
    {
      "type_key": "Array", 
      "data": [27]
    }, 
    {
      "type_key": "IntImm", 
      "attrs": {
        "dtype": "int32", 
        "span": "0", 
        "value": "4"
      }
    }, 
    {
      "type_key": "relay.Constant", 
      "attrs": {
        "_checked_type_": "30", 
        "data": "2", 
        "span": "29", 
        "virtual_device_": "22"
      }
    }, 
    {
      "type_key": "Span", 
      "attrs": {
        "column": "23", 
        "end_column": "41", 
        "end_line": "71", 
        "line": "71", 
        "source_name": "16"
      }
    }, 
    {
      "type_key": "relay.TensorType", 
      "attrs": {
        "dtype": "int32", 
        "shape": "31", 
        "span": "0"
      }
    }, 
    {
      "type_key": "Array", 
      "data": [32]
    }, 
    {
      "type_key": "IntImm", 
      "attrs": {
        "dtype": "int32", 
        "span": "0", 
        "value": "4"
      }
    }
  ], 
  "b64ndarrays": [
    "P6G0lvBAXt0AAAAAAAAAAAEAAAAAAAAAAQAAAAAgAQADAAAAAAAAAAwAAAAAAAAAAQAAAAEAAAABAAAA", 
    "P6G0lvBAXt0AAAAAAAAAAAEAAAAAAAAAAQAAAAAgAQAEAAAAAAAAABAAAAAAAAAABQAAAAUAAAAEAAAAAQAAAA==", 
    "P6G0lvBAXt0AAAAAAAAAAAEAAAAAAAAAAQAAAAAgAQAEAAAAAAAAABAAAAAAAAAABQAAAAUAAAAEAAAAAQAAAA=="
  ], 
  "attrs": {"tvm_version": "0.13.0"}
}