#[version = "0.0.5"]
def @main(%x0: Tensor[(1, 5, 5, 4), float32] /* ty=Tensor[(1, 5, 5, 4), float32] span=from_string:5:112 */, %x1: Tensor[(0, 9, 4), float32] /* ty=Tensor[(0, 9, 4), float32] */, %x2: Tensor[(1, 5, 5, 4), float32] /* ty=Tensor[(1, 5, 5, 4), float32] span=from_string:10:124 */) -> (Tensor[(0, 9, 9, 4), float32], Tensor[(1, 5, 5, 4), float16], Tensor[(3), int32], Tensor[(1, 5, 5, 4), float32], Tensor[(1, 5, 5, 4), float32], (Tensor[(5, 5, 4, 1), float32], (Tensor[(5, 5, 4, 1), float32],)), int32) {
  %0 = nn.batch_to_space_nd(%x0, block_shape=[2, 2], crops=[[0, 1], [0, 1]]) /* ty=Tensor[(0, 9, 9, 4), float32] span=from_string:3:107 */;
  %1 = erf(%x0) /* ty=Tensor[(1, 5, 5, 4), float32] span=from_string:5:108 */;
  %2 = nn.softmax(%1) /* ty=Tensor[(1, 5, 5, 4), float32] span=from_string:6:107 */;
  %3 = subtract(%1, %x2) /* ty=Tensor[(1, 5, 5, 4), float32] span=from_string:9:108 */;
  %4 = transpose(%3, axes=[1, 2, 3, 0]) /* ty=Tensor[(5, 5, 4, 1), float32] span=from_string:11:108 */;
  %5 = nn.relu(%4) /* ty=Tensor[(5, 5, 4, 1), float32] span=from_string:12:108 */;
  %6 = ones(shape=[5, 5, 4, 1], dtype="float32") /* ty=Tensor[(5, 5, 4, 1), float32] span=from_string:14:108 */;
  %7 = multiply(%6, %5) /* ty=Tensor[(5, 5, 4, 1), float32] span=from_string:18:109 */;
  %8 = collapse_sum_to(%7, meta[relay.Constant][1] /* ty=Tensor[(4), int32] span=from_string:17:137 */, meta[relay.attrs.InitOpAttrs][0]) /* ty=Tensor[(5, 5, 4, 1), float32] span=from_string:17:109 */;
  %9 = collapse_sum_to(%7, meta[relay.Constant][2] /* ty=Tensor[(4), int32] span=from_string:19:137 */, meta[relay.attrs.InitOpAttrs][1]) /* ty=Tensor[(5, 5, 4, 1), float32] span=from_string:19:109 */;
  %10 = add(%8, %9) /* ty=Tensor[(5, 5, 4, 1), float32] span=from_string:20:109 */;
  %11 = multiply(%5, %5) /* ty=Tensor[(5, 5, 4, 1), float32] span=from_string:13:110 */;
  %12 = (%10,) /* ty=(Tensor[(5, 5, 4, 1), float32],) span=from_string:21:115 */;
  %13 = reshape(%0, newshape=[0, 9, 9, 4]) /* ty=Tensor[(0, 9, 9, 4), float32] span=from_string:4:108 */;
  %14 = cast(%2, dtype="float16") /* ty=Tensor[(1, 5, 5, 4), float16] span=from_string:7:108 */;
  %15 = tanh(%2) /* ty=Tensor[(1, 5, 5, 4), float32] span=from_string:8:108 */;
  %16 = multiply(%3, %x2) /* ty=Tensor[(1, 5, 5, 4), float32] span=from_string:10:109 */;
  %17 = (%11, %12) /* ty=(Tensor[(5, 5, 4, 1), float32], (Tensor[(5, 5, 4, 1), float32],)) span=from_string:22:181 */;
  (%13, %14, meta[relay.Constant][0] /* ty=Tensor[(3), int32] span=from_string:23:507 */, %15, %16, %17, 2 /* ty=int32 span=from_string:23:597 */) /* ty=(Tensor[(0, 9, 9, 4), float32], Tensor[(1, 5, 5, 4), float16], Tensor[(3), int32], Tensor[(1, 5, 5, 4), float32], Tensor[(1, 5, 5, 4), float32], (Tensor[(5, 5, 4, 1), float32], (Tensor[(5, 5, 4, 1), float32],)), int32) span=from_string:23:489 */
}

#[metadata]
{
  "root": 1, 
  "nodes": [
    {
      "type_key": ""
    }, 
    {
      "type_key": "Map", 
      "keys": [
        "relay.attrs.InitOpAttrs", 
        "relay.Constant"
      ], 
      "data": [2, 11]
    }, 
    {
      "type_key": "Array", 
      "data": [3, 9]
    }, 
    {
      "type_key": "relay.attrs.InitOpAttrs", 
      "attrs": {
        "dtype": "", 
        "shape": "4"
      }
    }, 
    {
      "type_key": "Array", 
      "data": [5, 6, 7, 8]
    }, 
    {
      "type_key": "IntImm", 
      "attrs": {
        "dtype": "int32", 
        "span": "0", 
        "value": "5"
      }
    }, 
    {
      "type_key": "IntImm", 
      "attrs": {
        "dtype": "int32", 
        "span": "0", 
        "value": "5"
      }
    }, 
    {
      "type_key": "IntImm", 
      "attrs": {
        "dtype": "int32", 
        "span": "0", 
        "value": "4"
      }
    }, 
    {
      "type_key": "IntImm", 
      "attrs": {
        "dtype": "int32", 
        "span": "0", 
        "value": "1"
      }
    }, 
    {
      "type_key": "relay.attrs.InitOpAttrs", 
      "attrs": {
        "dtype": "", 
        "shape": "10"
      }
    }, 
    {
      "type_key": "Array", 
      "data": [5, 6, 7, 8]
    }, 
    {
      "type_key": "Array", 
      "data": [12, 21, 28]
    }, 
    {
      "type_key": "relay.Constant", 
      "attrs": {
        "_checked_type_": "17", 
        "data": "0", 
        "span": "15", 
        "virtual_device_": "13"
      }
    }, 
    {
      "type_key": "VirtualDevice", 
      "attrs": {
        "device_type_int": "-1", 
        "memory_scope": "14", 
        "target": "0", 
        "virtual_device_id": "-1"
      }
    }, 
    {
      "type_key": "runtime.String"
    }, 
    {
      "type_key": "Span", 
      "attrs": {
        "column": "507", 
        "end_column": "525", 
        "end_line": "23", 
        "line": "23", 
        "source_name": "16"
      }
    }, 
    {
      "type_key": "SourceName", 
      "repr_str": "from_string"
    }, 
    {
      "type_key": "relay.TensorType", 
      "attrs": {
        "dtype": "int32", 
        "shape": "18", 
        "span": "20"
      }
    }, 
    {
      "type_key": "Array", 
      "data": [19]
    }, 
    {
      "type_key": "IntImm", 
      "attrs": {
        "dtype": "int32", 
        "span": "0", 
        "value": "3"
      }
    }, 
    {
      "type_key": "Span", 
      "attrs": {
        "column": "344", 
        "end_column": "364", 
        "end_line": "2", 
        "line": "2", 
        "source_name": "16"
      }
    }, 
    {
      "type_key": "relay.Constant", 
      "attrs": {
        "_checked_type_": "25", 
        "data": "1", 
        "span": "24", 
        "virtual_device_": "22"
      }
    }, 
    {
      "type_key": "VirtualDevice", 
      "attrs": {
        "device_type_int": "-1", 
        "memory_scope": "23", 
        "target": "0", 
        "virtual_device_id": "-1"
      }
    }, 
    {
      "type_key": "runtime.String"
    }, 
    {
      "type_key": "Span", 
      "attrs": {
        "column": "137", 
        "end_column": "155", 
        "end_line": "17", 
        "line": "17", 
        "source_name": "16"
      }
    }, 
    {
      "type_key": "relay.TensorType", 
      "attrs": {
        "dtype": "int32", 
        "shape": "26", 
        "span": "0"
      }
    }, 
    {
      "type_key": "Array", 
      "data": [27]
    }, 
    {
      "type_key": "IntImm", 
      "attrs": {
        "dtype": "int32", 
        "span": "0", 
        "value": "4"
      }
    }, 
    {
      "type_key": "relay.Constant", 
      "attrs": {
        "_checked_type_": "30", 
        "data": "2", 
        "span": "29", 
        "virtual_device_": "22"
      }
    }, 
    {
      "type_key": "Span", 
      "attrs": {
        "column": "137", 
        "end_column": "155", 
        "end_line": "19", 
        "line": "19", 
        "source_name": "16"
      }
    }, 
    {
      "type_key": "relay.TensorType", 
      "attrs": {
        "dtype": "int32", 
        "shape": "31", 
        "span": "0"
      }
    }, 
    {
      "type_key": "Array", 
      "data": [32]
    }, 
    {
      "type_key": "IntImm", 
      "attrs": {
        "dtype": "int32", 
        "span": "0", 
        "value": "4"
      }
    }
  ], 
  "b64ndarrays": [
    "P6G0lvBAXt0AAAAAAAAAAAEAAAAAAAAAAQAAAAAgAQADAAAAAAAAAAwAAAAAAAAAAQAAAAEAAAABAAAA", 
    "P6G0lvBAXt0AAAAAAAAAAAEAAAAAAAAAAQAAAAAgAQAEAAAAAAAAABAAAAAAAAAABQAAAAUAAAAEAAAAAQAAAA==", 
    "P6G0lvBAXt0AAAAAAAAAAAEAAAAAAAAAAQAAAAAgAQAEAAAAAAAAABAAAAAAAAAABQAAAAUAAAAEAAAAAQAAAA=="
  ], 
  "attrs": {"tvm_version": "0.13.0"}
}