#[version = "0.0.5"]
def @main(%x0: Tensor[(1, 3, 224, 224), int8] /* ty=Tensor[(1, 3, 224, 224), int8] span=from_string:54:132 */, %x1: Tensor[(9, 224, 224), float32] /* ty=Tensor[(9, 224, 224), float32] */, %x2: Tensor[(58), int32] /* ty=Tensor[(58), int32] */) -> ((Tensor[(1, 27, 112, 112), float32], Tensor[(1, 27, 112, 112), float32]), Tensor[(1, 3, 224, 224), float32], Tensor[(1, 9, 224, 224), float32], (Tensor[(1, 3, 224, 224), float32], (Tensor[(1, 3, 224, 224), float32],)), Tensor[(3, 1, 222, 222), float32], Tensor[(4), int32], float32, (Tensor[(1, 3, 224, 224), float32], Tensor[(1, 3, 224, 224), float32]), Tensor[(1, 3, 224, 224), int8]) {
  let %x_2: Tensor[(1, 3, 224, 224), float32] /* ty=Tensor[(1, 3, 224, 224), float32] span=from_string:46:131 */ = qnn.dequantize(%x0, 2f /* ty=float32 span=from_string:3:138 */, -12 /* ty=int32 span=from_string:3:183 */) /* ty=Tensor[(1, 3, 224, 224), float32] span=from_string:3:116 */;
  let %x_4: Tensor[(1, 3, 224, 224), float32] /* ty=Tensor[(1, 3, 224, 224), float32] span=from_string:28:127 */ = add(%x_2, 1f /* ty=float32 span=from_string:4:128 */) /* ty=Tensor[(1, 3, 224, 224), float32] span=from_string:4:116 */;
  let %x_6: Tensor[(1, 3, 224, 224), float32] /* ty=Tensor[(1, 3, 224, 224), float32] span=from_string:42:142 */ = add(%x_2, 1f /* ty=float32 span=from_string:5:128 */) /* ty=Tensor[(1, 3, 224, 224), float32] span=from_string:5:116 */;
  let %x_8: Tensor[(1, 3, 224, 224), float32] /* ty=Tensor[(1, 3, 224, 224), float32] span=from_string:7:272 */ = add(%x_2, 1f /* ty=float32 span=from_string:6:127 */) /* ty=Tensor[(1, 3, 224, 224), float32] span=from_string:6:115 */;
  let %x_9: (Tensor[(1, 3, 224, 224), float32], Tensor[(1, 3, 224, 224), float32], Tensor[(1, 3, 224, 224), float32]) /* ty=(Tensor[(1, 3, 224, 224), float32], Tensor[(1, 3, 224, 224), float32], Tensor[(1, 3, 224, 224), float32]) span=from_string:8:128 */ = (%x_4, %x_6, %x_8) /* ty=(Tensor[(1, 3, 224, 224), float32], Tensor[(1, 3, 224, 224), float32], Tensor[(1, 3, 224, 224), float32]) span=from_string:7:259 */;
  let %x_10: Tensor[(1, 9, 224, 224), float32] /* ty=Tensor[(1, 9, 224, 224), float32] span=from_string:9:121 */ = concatenate(%x_9, axis=1) /* ty=Tensor[(1, 9, 224, 224), float32] span=from_string:8:116 */;
  let %x_12: Tensor[(1, 9, 224, 224), float32] /* ty=Tensor[(1, 9, 224, 224), float32] span=from_string:22:262 */ = add(%x_10, 1f /* ty=float32 span=from_string:9:130 */) /* ty=Tensor[(1, 9, 224, 224), float32] span=from_string:9:117 */;
  let %x_14: Tensor[(1, 3, 224, 224), float32] /* ty=Tensor[(1, 3, 224, 224), float32] span=from_string:13:262 */ = add(%x_2, 1f /* ty=float32 span=from_string:10:129 */) /* ty=Tensor[(1, 3, 224, 224), float32] span=from_string:10:117 */;
  let %x_16: Tensor[(1, 3, 224, 224), float32] /* ty=Tensor[(1, 3, 224, 224), float32] span=from_string:13:269 */ = add(%x_2, 1f /* ty=float32 span=from_string:11:129 */) /* ty=Tensor[(1, 3, 224, 224), float32] span=from_string:11:117 */;
  let %x_18: Tensor[(1, 3, 224, 224), float32] /* ty=Tensor[(1, 3, 224, 224), float32] span=from_string:13:276 */ = add(%x_2, 1f /* ty=float32 span=from_string:12:129 */) /* ty=Tensor[(1, 3, 224, 224), float32] span=from_string:12:117 */;
  let %x_19: (Tensor[(1, 3, 224, 224), float32], Tensor[(1, 3, 224, 224), float32], Tensor[(1, 3, 224, 224), float32]) /* ty=(Tensor[(1, 3, 224, 224), float32], Tensor[(1, 3, 224, 224), float32], Tensor[(1, 3, 224, 224), float32]) span=from_string:14:129 */ = (%x_14, %x_16, %x_18) /* ty=(Tensor[(1, 3, 224, 224), float32], Tensor[(1, 3, 224, 224), float32], Tensor[(1, 3, 224, 224), float32]) span=from_string:13:261 */;
  let %x_20: Tensor[(1, 9, 224, 224), float32] /* ty=Tensor[(1, 9, 224, 224), float32] span=from_string:15:121 */ = concatenate(%x_19, axis=1) /* ty=Tensor[(1, 9, 224, 224), float32] span=from_string:14:117 */;
  let %x_22: Tensor[(1, 9, 224, 224), float32] /* ty=Tensor[(1, 9, 224, 224), float32] span=from_string:33:119 */ = add(%x_20, 1f /* ty=float32 span=from_string:15:130 */) /* ty=Tensor[(1, 9, 224, 224), float32] span=from_string:15:117 */;
  let %x_24: Tensor[(1, 3, 224, 224), float32] /* ty=Tensor[(1, 3, 224, 224), float32] span=from_string:19:262 */ = add(%x_2, 1f /* ty=float32 span=from_string:16:129 */) /* ty=Tensor[(1, 3, 224, 224), float32] span=from_string:16:117 */;
  let %x_26: Tensor[(1, 3, 224, 224), float32] /* ty=Tensor[(1, 3, 224, 224), float32] span=from_string:19:269 */ = add(%x_2, 1f /* ty=float32 span=from_string:17:129 */) /* ty=Tensor[(1, 3, 224, 224), float32] span=from_string:17:117 */;
  let %x_28: Tensor[(1, 3, 224, 224), float32] /* ty=Tensor[(1, 3, 224, 224), float32] span=from_string:19:276 */ = add(%x_2, 1f /* ty=float32 span=from_string:18:129 */) /* ty=Tensor[(1, 3, 224, 224), float32] span=from_string:18:117 */;
  let %x_29: (Tensor[(1, 3, 224, 224), float32], Tensor[(1, 3, 224, 224), float32], Tensor[(1, 3, 224, 224), float32]) /* ty=(Tensor[(1, 3, 224, 224), float32], Tensor[(1, 3, 224, 224), float32], Tensor[(1, 3, 224, 224), float32]) span=from_string:20:129 */ = (%x_24, %x_26, %x_28) /* ty=(Tensor[(1, 3, 224, 224), float32], Tensor[(1, 3, 224, 224), float32], Tensor[(1, 3, 224, 224), float32]) span=from_string:19:261 */;
  let %x_30: Tensor[(1, 9, 224, 224), float32] /* ty=Tensor[(1, 9, 224, 224), float32] span=from_string:21:121 */ = concatenate(%x_29, axis=1) /* ty=Tensor[(1, 9, 224, 224), float32] span=from_string:20:117 */;
  let %x_32: Tensor[(1, 9, 224, 224), float32] /* ty=Tensor[(1, 9, 224, 224), float32] span=from_string:22:276 */ = add(%x_30, 1f /* ty=float32 span=from_string:21:130 */) /* ty=Tensor[(1, 9, 224, 224), float32] span=from_string:21:117 */;
  let %x_33: (Tensor[(1, 9, 224, 224), float32], Tensor[(1, 9, 224, 224), float32], Tensor[(1, 9, 224, 224), float32]) /* ty=(Tensor[(1, 9, 224, 224), float32], Tensor[(1, 9, 224, 224), float32], Tensor[(1, 9, 224, 224), float32]) span=from_string:23:131 */ = (%x_12, %x_22, %x_32) /* ty=(Tensor[(1, 9, 224, 224), float32], Tensor[(1, 9, 224, 224), float32], Tensor[(1, 9, 224, 224), float32]) span=from_string:22:261 */;
  let %x_34: Tensor[(1, 27, 224, 224), float32] /* ty=Tensor[(1, 27, 224, 224), float32] span=from_string:24:134 */ = concatenate(%x_33, axis=1) /* ty=Tensor[(1, 27, 224, 224), float32] span=from_string:23:119 */;
  let %x_35: Tensor[(1, 27, 112, 112), float32] /* ty=Tensor[(1, 27, 112, 112), float32] span=from_string:25:123 */ = nn.max_pool2d(%x_34, pool_size=[2, 2], strides=[2, 2], padding=[0, 0, 0, 0]) /* ty=Tensor[(1, 27, 112, 112), float32] span=from_string:24:119 */;
  let %x_37: Tensor[(1, 27, 112, 112), float32] /* ty=Tensor[(1, 27, 112, 112), float32] span=from_string:27:196 */ = add(%x_35, 1f /* ty=float32 span=from_string:25:132 */) /* ty=Tensor[(1, 27, 112, 112), float32] span=from_string:25:119 */;
  let %x_39: Tensor[(1, 27, 112, 112), float32] /* ty=Tensor[(1, 27, 112, 112), float32] span=from_string:27:203 */ = add(%x_37, 1f /* ty=float32 span=from_string:26:132 */) /* ty=Tensor[(1, 27, 112, 112), float32] span=from_string:26:119 */;
  let %x_40: (Tensor[(1, 27, 112, 112), float32], Tensor[(1, 27, 112, 112), float32]) /* ty=(Tensor[(1, 27, 112, 112), float32], Tensor[(1, 27, 112, 112), float32]) span=from_string:57:828 */ = (%x_37, %x_39) /* ty=(Tensor[(1, 27, 112, 112), float32], Tensor[(1, 27, 112, 112), float32]) span=from_string:27:195 */;
  let %x_41: Tensor[(1, 224, 3, 224), float32] /* ty=Tensor[(1, 224, 3, 224), float32] span=from_string:29:138 */ = transpose(%x_4, axes=[0, 3, 1, 2]) /* ty=Tensor[(1, 224, 3, 224), float32] span=from_string:28:117 */;
  let %x_42: Tensor[(1, 56, 3, 224, 4), float32] /* ty=Tensor[(1, 56, 3, 224, 4), float32] span=from_string:30:129 */ = layout_transform(%x_41, src_layout="NCHW", dst_layout="NCHW4c") /* ty=Tensor[(1, 56, 3, 224, 4), float32] span=from_string:29:121 */;
  let %x_43: Tensor[(1, 56, 3, 224, 4), float32] /* ty=Tensor[(1, 56, 3, 224, 4), float32] span=from_string:31:134 */ = nn.relu(%x_42) /* ty=Tensor[(1, 56, 3, 224, 4), float32] span=from_string:30:121 */;
  let %x_44: Tensor[(1, 224, 3, 224), float32] /* ty=Tensor[(1, 224, 3, 224), float32] span=from_string:32:127 */ = layout_transform(%x_43, src_layout="NCHW4c", dst_layout="NCHW") /* ty=Tensor[(1, 224, 3, 224), float32] span=from_string:31:117 */;
  let %x_45: Tensor[(1, 3, 224, 224), float32] /* ty=Tensor[(1, 3, 224, 224), float32] span=from_string:57:835 */ = transpose(%x_44, axes=[0, 2, 3, 1]) /* ty=Tensor[(1, 3, 224, 224), float32] span=from_string:32:117 */;
  let %x_46: Tensor[(9, 224, 224), float32] /* ty=Tensor[(9, 224, 224), float32] span=from_string:34:125 */ = reshape(%x_22, newshape=[9, 224, 224]) /* ty=Tensor[(9, 224, 224), float32] span=from_string:33:111 */;
  let %x_47: Tensor[(1, 9, 224, 224), float32] /* ty=Tensor[(1, 9, 224, 224), float32] span=from_string:57:842 */ = reshape(%x_46, newshape=[1, 9, 224, 224]) /* ty=Tensor[(1, 9, 224, 224), float32] span=from_string:34:117 */;
  let %x_48: Tensor[(1, 3, 224, 224), float32] /* ty=Tensor[(1, 3, 224, 224), float32] span=from_string:45:198 */ = multiply(%x_6, %x_6) /* ty=Tensor[(1, 3, 224, 224), float32] span=from_string:35:118 */;
  let %x_49: Tensor[(1, 3, 224, 224), float32] /* ty=Tensor[(1, 3, 224, 224), float32] span=from_string:40:121 */ = zeros_like(%x_6) /* ty=Tensor[(1, 3, 224, 224), float32] span=from_string:36:117 */;
  let %x_50: Tensor[(1, 3, 224, 224), float32] /* ty=Tensor[(1, 3, 224, 224), float32] span=from_string:41:127 */ = ones_like(%x_48) /* ty=Tensor[(1, 3, 224, 224), float32] span=from_string:37:117 */;
  let %x_51: Tensor[(1, 3, 224, 224), float32] /* ty=Tensor[(1, 3, 224, 224), float32] span=from_string:53:199 */ = multiply(%x_50, %x_6) /* ty=Tensor[(1, 3, 224, 224), float32] span=from_string:38:118 */;
  let %x_52: Tensor[(1, 3, 224, 224), float32] /* ty=Tensor[(1, 3, 224, 224), float32] span=from_string:40:128 */ = collapse_sum_like(%x_51, %x_6) /* ty=Tensor[(1, 3, 224, 224), float32] span=from_string:39:117 */;
  let %x_53: Tensor[(1, 3, 224, 224), float32] /* ty=Tensor[(1, 3, 224, 224), float32] span=from_string:43:121 */ = add(%x_49, %x_52) /* ty=Tensor[(1, 3, 224, 224), float32] span=from_string:40:117 */;
  let %x_54: Tensor[(1, 3, 224, 224), float32] /* ty=Tensor[(1, 3, 224, 224), float32] span=from_string:42:135 */ = multiply(%x_50, %x_6) /* ty=Tensor[(1, 3, 224, 224), float32] span=from_string:41:118 */;
  let %x_55: Tensor[(1, 3, 224, 224), float32] /* ty=Tensor[(1, 3, 224, 224), float32] span=from_string:43:128 */ = collapse_sum_like(%x_54, %x_6) /* ty=Tensor[(1, 3, 224, 224), float32] span=from_string:42:117 */;
  let %x_56: Tensor[(1, 3, 224, 224), float32] /* ty=Tensor[(1, 3, 224, 224), float32] span=from_string:44:124 */ = add(%x_53, %x_55) /* ty=Tensor[(1, 3, 224, 224), float32] span=from_string:43:117 */;
  let %x_57: (Tensor[(1, 3, 224, 224), float32],) /* ty=(Tensor[(1, 3, 224, 224), float32],) span=from_string:45:205 */ = (%x_56,) /* ty=(Tensor[(1, 3, 224, 224), float32],) span=from_string:44:123 */;
  let %x_58: (Tensor[(1, 3, 224, 224), float32], (Tensor[(1, 3, 224, 224), float32],)) /* ty=(Tensor[(1, 3, 224, 224), float32], (Tensor[(1, 3, 224, 224), float32],)) span=from_string:57:849 */ = (%x_48, %x_57) /* ty=(Tensor[(1, 3, 224, 224), float32], (Tensor[(1, 3, 224, 224), float32],)) span=from_string:45:197 */;
  let %x_59: Tensor[(1, 3, 222, 222), float32] /* ty=Tensor[(1, 3, 222, 222), float32] span=from_string:47:126 */ = nn.avg_pool2d(%x_2, pool_size=[3, 3], padding=[0, 0, 0, 0]) /* ty=Tensor[(1, 3, 222, 222), float32] span=from_string:46:117 */;
  let %x_62: Tensor[(1, 3, 222, 222), int8] /* ty=Tensor[(1, 3, 222, 222), int8] span=from_string:48:132 */ = qnn.quantize(%x_59, 0.5f /* ty=float32 span=from_string:47:137 */, 10 /* ty=int32 span=from_string:47:182 */, out_dtype="int8") /* ty=Tensor[(1, 3, 222, 222), int8] span=from_string:47:113 */;
  let %x_65: Tensor[(1, 3, 222, 222), float32] /* ty=Tensor[(1, 3, 222, 222), float32] span=from_string:49:125 */ = qnn.dequantize(%x_62, 2f /* ty=float32 span=from_string:48:141 */, 0 /* ty=int32 span=from_string:48:185 */) /* ty=Tensor[(1, 3, 222, 222), float32] span=from_string:48:117 */;
  let %x_66: Tensor[(3, 1, 222, 222), float32] /* ty=Tensor[(3, 1, 222, 222), float32] span=from_string:50:121 */ = reshape(%x_65, newshape=[3, 1, 222, 222]) /* ty=Tensor[(3, 1, 222, 222), float32] span=from_string:49:117 */;
  let %x_67: Tensor[(3, 1, 222, 222), float32] /* ty=Tensor[(3, 1, 222, 222), float32] span=from_string:57:856 */ = erf(%x_66) /* ty=Tensor[(3, 1, 222, 222), float32] span=from_string:50:117 */;
  let %x_70: Tensor[(1, 3, 112, 112), float32] /* ty=Tensor[(1, 3, 112, 112), float32] span=from_string:52:131 */ = nn.max_pool2d(%x_51, pool_size=[2, 2], strides=[2, 2], padding=[0, 0, 0, 0]) /* ty=Tensor[(1, 3, 112, 112), float32] span=from_string:51:117 */;
  let %x_71: Tensor[(1, 3, 224, 224), float32] /* ty=Tensor[(1, 3, 224, 224), float32] span=from_string:53:192 */ = nn.upsampling(%x_70, scale_h=2f, scale_w=2f) /* ty=Tensor[(1, 3, 224, 224), float32] span=from_string:52:117 */;
  let %x_72: (Tensor[(1, 3, 224, 224), float32], Tensor[(1, 3, 224, 224), float32]) /* ty=(Tensor[(1, 3, 224, 224), float32], Tensor[(1, 3, 224, 224), float32]) span=from_string:57:985 */ = (%x_71, %x_51) /* ty=(Tensor[(1, 3, 224, 224), float32], Tensor[(1, 3, 224, 224), float32]) span=from_string:53:191 */;
  let %x_75: Tensor[(1, 3, 224, 224), float32] /* ty=Tensor[(1, 3, 224, 224), float32] span=from_string:55:122 */ = qnn.dequantize(%x0, 0.626659f /* ty=float32 span=from_string:54:146 */, -128 /* ty=int32 span=from_string:54:193 */) /* ty=Tensor[(1, 3, 224, 224), float32] span=from_string:54:117 */;
  let %x_76: Tensor[(1, 3, 224, 224), float32] /* ty=Tensor[(1, 3, 224, 224), float32] span=from_string:56:126 */ = sqrt(%x_75) /* ty=Tensor[(1, 3, 224, 224), float32] span=from_string:55:117 */;
  let %x_79: Tensor[(1, 3, 224, 224), int8] /* ty=Tensor[(1, 3, 224, 224), int8] span=from_string:57:992 */ = qnn.quantize(%x_76, 0.13107f /* ty=float32 span=from_string:56:141 */, -128 /* ty=int32 span=from_string:56:188 */, out_dtype="int8") /* ty=Tensor[(1, 3, 224, 224), int8] span=from_string:56:113 */;
  let %x_80: ((Tensor[(1, 27, 112, 112), float32], Tensor[(1, 27, 112, 112), float32]), Tensor[(1, 3, 224, 224), float32], Tensor[(1, 9, 224, 224), float32], (Tensor[(1, 3, 224, 224), float32], (Tensor[(1, 3, 224, 224), float32],)), Tensor[(3, 1, 222, 222), float32], Tensor[(4), int32], float32, (Tensor[(1, 3, 224, 224), float32], Tensor[(1, 3, 224, 224), float32]), Tensor[(1, 3, 224, 224), int8]) /* ty=((Tensor[(1, 27, 112, 112), float32], Tensor[(1, 27, 112, 112), float32]), Tensor[(1, 3, 224, 224), float32], Tensor[(1, 9, 224, 224), float32], (Tensor[(1, 3, 224, 224), float32], (Tensor[(1, 3, 224, 224), float32],)), Tensor[(3, 1, 222, 222), float32], Tensor[(4), int32], float32, (Tensor[(1, 3, 224, 224), float32], Tensor[(1, 3, 224, 224), float32]), Tensor[(1, 3, 224, 224), int8]) span=from_string:58:3 */ = (%x_40, %x_45, %x_47, %x_58, %x_67, meta[relay.Constant][0] /* ty=Tensor[(4), int32] span=from_string:57:868 */, 1f /* ty=float32 span=from_string:57:942 */, %x_72, %x_79) /* ty=((Tensor[(1, 27, 112, 112), float32], Tensor[(1, 27, 112, 112), float32]), Tensor[(1, 3, 224, 224), float32], Tensor[(1, 9, 224, 224), float32], (Tensor[(1, 3, 224, 224), float32], (Tensor[(1, 3, 224, 224), float32],)), Tensor[(3, 1, 222, 222), float32], Tensor[(4), int32], float32, (Tensor[(1, 3, 224, 224), float32], Tensor[(1, 3, 224, 224), float32]), Tensor[(1, 3, 224, 224), int8]) span=from_string:57:827 */;
  %x_80
}

#[metadata]
{
  "root": 1, 
  "nodes": [
    {
      "type_key": ""
    }, 
    {
      "type_key": "Map", 
      "keys": [
        "relay.Constant"
      ], 
      "data": [2]
    }, 
    {
      "type_key": "Array", 
      "data": [3]
    }, 
    {
      "type_key": "relay.Constant", 
      "attrs": {
        "_checked_type_": "8", 
        "data": "0", 
        "span": "6", 
        "virtual_device_": "4"
      }
    }, 
    {
      "type_key": "VirtualDevice", 
      "attrs": {
        "device_type_int": "-1", 
        "memory_scope": "5", 
        "target": "0", 
        "virtual_device_id": "-1"
      }
    }, 
    {
      "type_key": "runtime.String"
    }, 
    {
      "type_key": "Span", 
      "attrs": {
        "column": "868", 
        "end_column": "886", 
        "end_line": "57", 
        "line": "57", 
        "source_name": "7"
      }
    }, 
    {
      "type_key": "SourceName", 
      "repr_str": "from_string"
    }, 
    {
      "type_key": "relay.TensorType", 
      "attrs": {
        "dtype": "int32", 
        "shape": "9", 
        "span": "11"
      }
    }, 
    {
      "type_key": "Array", 
      "data": [10]
    }, 
    {
      "type_key": "IntImm", 
      "attrs": {
        "dtype": "int32", 
        "span": "0", 
        "value": "4"
      }
    }, 
    {
      "type_key": "Span", 
      "attrs": {
        "column": "507", 
        "end_column": "527", 
        "end_line": "2", 
        "line": "2", 
        "source_name": "7"
      }
    }
  ], 
  "b64ndarrays": [
    "P6G0lvBAXt0AAAAAAAAAAAEAAAAAAAAAAQAAAAAgAQAEAAAAAAAAABAAAAAAAAAAAQAAAAkAAADgAAAA4AAAAA=="
  ], 
  "attrs": {"tvm_version": "0.13.0"}
}