#[version = "0.0.5"]
def @main(%x0: Tensor[(1, 128, 56, 56), float32] /* ty=Tensor[(1, 128, 56, 56), float32] span=from_string:26:13 */, %x1: Tensor[(64, 128, 3, 3), float32] /* ty=Tensor[(64, 128, 3, 3), float32] span=from_string:7:22 */) -> (Tensor[(1, 128, 56, 56), float32], Tensor[(1, 64, 56, 56), float32], Tensor[(1, 32, 56, 56, 4), float32], Tensor[(128, 56, 56), float32], Tensor[(1, 64, 56, 56), float32], Tensor[(56, 64, 56, 1), float32], Tensor[(1, 64, 56, 56), float32]) {
  %1 = fn (%p0: Tensor[(1, 128, 56, 56), float32] /* ty=Tensor[(1, 128, 56, 56), float32] */, Primitive=1) -> Tensor[(1, 128, 56, 56), float32] {
    %0 = ones_like(%p0) /* ty=Tensor[(1, 128, 56, 56), float32] span=from_string:26:18 */;
    add(%p0, %0) /* ty=Tensor[(1, 128, 56, 56), float32] span=from_string:33:4 */
  } /* ty=fn (Tensor[(1, 128, 56, 56), float32]) -> Tensor[(1, 128, 56, 56), float32] */;
  %3 = fn (%p04: Tensor[(1, 128, 56, 56), float32] /* ty=Tensor[(1, 128, 56, 56), float32] */, Primitive=1) -> Tensor[(1, 32, 56, 56, 4), float32] {
    layout_transform(%p04, src_layout="NCHW", dst_layout="NCHW4c") /* ty=Tensor[(1, 32, 56, 56, 4), float32] span=from_string:8:25 */
  } /* ty=fn (Tensor[(1, 128, 56, 56), float32]) -> Tensor[(1, 32, 56, 56, 4), float32] */;
  %4 = %3(%x0) /* ty=Tensor[(1, 32, 56, 56, 4), float32] */;
  %5 = fn (%p03: Tensor[(1, 32, 56, 56, 4), float32] /* ty=Tensor[(1, 32, 56, 56, 4), float32] */, Primitive=1) -> Tensor[(1, 128, 56, 56), float32] {
    %2 = layout_transform(%p03, src_layout="NCHW4c", dst_layout="NCHW") /* ty=Tensor[(1, 128, 56, 56), float32] span=from_string:6:16 */;
    nn.relu(%2) /* ty=Tensor[(1, 128, 56, 56), float32] span=from_string:10:12 */
  } /* ty=fn (Tensor[(1, 32, 56, 56, 4), float32]) -> Tensor[(1, 128, 56, 56), float32] */;
  %6 = %5(%4) /* ty=Tensor[(1, 128, 56, 56), float32] */;
  %7 = fn (%p02: Tensor[(1, 128, 56, 56), float32] /* ty=Tensor[(1, 128, 56, 56), float32] */, %p1: Tensor[(64, 128, 3, 3), float32] /* ty=Tensor[(64, 128, 3, 3), float32] */, Primitive=1) -> Tensor[(1, 64, 56, 56), float32] {
    nn.conv2d(%p02, %p1, padding=[1, 1, 1, 1], channels=64, kernel_size=[3, 3]) /* ty=Tensor[(1, 64, 56, 56), float32] span=from_string:27:17 */
  } /* ty=fn (Tensor[(1, 128, 56, 56), float32], Tensor[(64, 128, 3, 3), float32]) -> Tensor[(1, 64, 56, 56), float32] */;
  %8 = %7(%6, %x1) /* ty=Tensor[(1, 64, 56, 56), float32] */;
  %9 = fn (%p01: Tensor[(1, 64, 56, 56), float32] /* ty=Tensor[(1, 64, 56, 56), float32] */, Primitive=1) -> Tensor[(1, 64, 56, 56), float32] {
    nn.relu(%p01) /* ty=Tensor[(1, 64, 56, 56), float32] span=from_string:33:9 */
  } /* ty=fn (Tensor[(1, 64, 56, 56), float32]) -> Tensor[(1, 64, 56, 56), float32] */;
  %12 = fn (%p05: Tensor[(1, 32, 56, 56, 4), float32] /* ty=Tensor[(1, 32, 56, 56, 4), float32] */, Primitive=1) -> Tensor[(1, 32, 56, 56, 4), float32] {
    %10 = layout_transform(%p05, src_layout="NCHW4c", dst_layout="NCHW8c") /* ty=Tensor[(1, 16, 56, 56, 8), float32] span=from_string:9:25 */;
    %11 = layout_transform(%10, src_layout="NCHW8c", dst_layout="NCHW4c") /* ty=Tensor[(1, 32, 56, 56, 4), float32] span=from_string:28:17 */;
    nn.relu(%11) /* ty=Tensor[(1, 32, 56, 56, 4), float32] span=from_string:33:14 */
  } /* ty=fn (Tensor[(1, 32, 56, 56, 4), float32]) -> Tensor[(1, 32, 56, 56, 4), float32] */;
  %15 = fn (%p06: Tensor[(1, 128, 56, 56), float32] /* ty=Tensor[(1, 128, 56, 56), float32] */, Primitive=1) -> Tensor[(128, 56, 56), float32] {
    %13 = add(%p06, 1f /* ty=float32 span=from_string:10:18 */) /* ty=Tensor[(1, 128, 56, 56), float32] span=from_string:11:17 */;
    %14 = fast_exp(%13) /* ty=Tensor[(1, 128, 56, 56), float32] span=from_string:29:17 */;
    squeeze(%14) /* ty=Tensor[(128, 56, 56), float32] span=from_string:33:19 */
  } /* ty=fn (Tensor[(1, 128, 56, 56), float32]) -> Tensor[(128, 56, 56), float32] */;
  %19 = fn (%p09: Tensor[(1, 64, 56, 56), float32] /* ty=Tensor[(1, 64, 56, 56), float32] */, Primitive=1) -> Tensor[(1, 56, 64, 56), float32] {
    %18 = add(%p09, %p09) /* ty=Tensor[(1, 64, 56, 56), float32] span=from_string:13:19 */;
    transpose(%18, axes=[0, 3, 1, 2]) /* ty=Tensor[(1, 56, 64, 56), float32] span=from_string:19:19 */
  } /* ty=fn (Tensor[(1, 64, 56, 56), float32]) -> Tensor[(1, 56, 64, 56), float32] */;
  %20 = %19(%8) /* ty=Tensor[(1, 56, 64, 56), float32] */;
  %21 = fn (%p08: Tensor[(1, 56, 64, 56), float32] /* ty=Tensor[(1, 56, 64, 56), float32] */, Primitive=1) -> Tensor[(1, 56, 64, 56), float32] {
    %16 = layout_transform(%p08, src_layout="NCHW", dst_layout="NCHW4c") /* ty=Tensor[(1, 14, 64, 56, 4), float32] span=from_string:15:17 */;
    %17 = nn.relu(%16) /* ty=Tensor[(1, 14, 64, 56, 4), float32] span=from_string:16:26 */;
    layout_transform(%17, src_layout="NCHW4c", dst_layout="NCHW") /* ty=Tensor[(1, 56, 64, 56), float32] span=from_string:30:19 */
  } /* ty=fn (Tensor[(1, 56, 64, 56), float32]) -> Tensor[(1, 56, 64, 56), float32] */;
  %22 = %21(%20) /* ty=Tensor[(1, 56, 64, 56), float32] */;
  %23 = fn (%p07: Tensor[(1, 56, 64, 56), float32] /* ty=Tensor[(1, 56, 64, 56), float32] */, Primitive=1) -> Tensor[(1, 64, 56, 56), float32] {
    transpose(%p07, axes=[0, 2, 3, 1]) /* ty=Tensor[(1, 64, 56, 56), float32] span=from_string:33:24 */
  } /* ty=fn (Tensor[(1, 56, 64, 56), float32]) -> Tensor[(1, 64, 56, 56), float32] */;
  %26 = fn (%p010: Tensor[(1, 56, 64, 56), float32] /* ty=Tensor[(1, 56, 64, 56), float32] */, Primitive=1) -> Tensor[(56, 64, 56, 1), float32] {
    %24 = layout_transform(%p010, src_layout="NCHW", dst_layout="NHWC") /* ty=Tensor[(1, 64, 56, 56), float32] span=from_string:18:26 */;
    %25 = layout_transform(%24, src_layout="NHWC", dst_layout="CHWN") /* ty=Tensor[(56, 64, 56, 1), float32] span=from_string:31:17 */;
    nn.relu(%25) /* ty=Tensor[(56, 64, 56, 1), float32] span=from_string:33:29 */
  } /* ty=fn (Tensor[(1, 56, 64, 56), float32]) -> Tensor[(56, 64, 56, 1), float32] */;
  %34 = fn (%p011: Tensor[(1, 56, 64, 56), float32] /* ty=Tensor[(1, 56, 64, 56), float32] */, Primitive=1) -> Tensor[(1, 64, 56, 56), float32] {
    %27 = transpose(%p011, axes=[0, 2, 3, 1]) /* ty=Tensor[(1, 64, 56, 56), float32] span=from_string:20:26 */;
    %28 = layout_transform(%27, src_layout="NHWC", dst_layout="HWCN") /* ty=Tensor[(64, 56, 56, 1), float32] span=from_string:21:19 */;
    %29 = transpose(%28, axes=[3, 0, 1, 2]) /* ty=Tensor[(1, 64, 56, 56), float32] span=from_string:22:19 */;
    %30 = transpose(%29, axes=[0, 3, 1, 2]) /* ty=Tensor[(1, 56, 64, 56), float32] span=from_string:23:26 */;
    %31 = layout_transform(%30, src_layout="NCHW", dst_layout="NCHW4c") /* ty=Tensor[(1, 14, 64, 56, 4), float32] span=from_string:24:17 */;
    %32 = nn.relu(%31) /* ty=Tensor[(1, 14, 64, 56, 4), float32] span=from_string:25:26 */;
    %33 = layout_transform(%32, src_layout="NCHW4c", dst_layout="NCHW") /* ty=Tensor[(1, 56, 64, 56), float32] span=from_string:32:19 */;
    transpose(%33, axes=[0, 2, 3, 1]) /* ty=Tensor[(1, 64, 56, 56), float32] span=from_string:33:34 */
  } /* ty=fn (Tensor[(1, 56, 64, 56), float32]) -> Tensor[(1, 64, 56, 56), float32] */;
  %35 = %1(%x0) /* ty=Tensor[(1, 128, 56, 56), float32] */;
  %36 = %9(%8) /* ty=Tensor[(1, 64, 56, 56), float32] */;
  %37 = %12(%4) /* ty=Tensor[(1, 32, 56, 56, 4), float32] */;
  %38 = %15(%6) /* ty=Tensor[(128, 56, 56), float32] */;
  %39 = %23(%22) /* ty=Tensor[(1, 64, 56, 56), float32] */;
  %40 = %26(%22) /* ty=Tensor[(56, 64, 56, 1), float32] */;
  %41 = %34(%20) /* ty=Tensor[(1, 64, 56, 56), float32] */;
  (%35, %36, %37, %38, %39, %40, %41) /* ty=(Tensor[(1, 128, 56, 56), float32], Tensor[(1, 64, 56, 56), float32], Tensor[(1, 32, 56, 56, 4), float32], Tensor[(128, 56, 56), float32], Tensor[(1, 64, 56, 56), float32], Tensor[(56, 64, 56, 1), float32], Tensor[(1, 64, 56, 56), float32]) span=from_string:3:3 */
}
