#[version = "0.0.5"]
def @main(%x0: Tensor[(1, 3, 224, 224), int8] /* ty=Tensor[(1, 3, 224, 224), int8] span=from_string:40:21 */, %x1: Tensor[(1, 3, 224, 224), int8] /* ty=Tensor[(1, 3, 224, 224), int8] span=from_string:56:21 */, %x2: Tensor[(3, 3, 3, 3), float32] /* ty=Tensor[(3, 3, 3, 3), float32] span=from_string:27:25 */, %x3: Tensor[(3, 3, 1, 1), float32] /* ty=Tensor[(3, 3, 1, 1), float32] span=from_string:36:27 */, %x4: Tensor[(3, 3, 3, 3), float32] /* ty=Tensor[(3, 3, 3, 3), float32] span=from_string:64:21 */, %x5: Tensor[(1, 3, 224, 89), int8] /* ty=Tensor[(1, 3, 224, 89), int8] span=from_string:47:28 */, %x6: Tensor[(1, 3, 224, 32), int8] /* ty=Tensor[(1, 3, 224, 32), int8] span=from_string:47:33 */, %x7: Tensor[(1, 3, 224, 4), int8] /* ty=Tensor[(1, 3, 224, 4), int8] span=from_string:47:38 */, %x8: Tensor[(224), float32] /* ty=Tensor[(224), float32] span=from_string:68:45 */, %x9: Tensor[(224), float32] /* ty=Tensor[(224), float32] span=from_string:68:40 */, %x10: Tensor[(224), float32] /* ty=Tensor[(224), float32] span=from_string:68:34 */, %x11: Tensor[(224), float32] /* ty=Tensor[(224), float32] span=from_string:68:28 */) -> (Tensor[(1, 3, 224, 224), float16], Tensor[(1, 3, 224, 224), float32], Tensor[(1, 3, 224, 349), int8], Tensor[(1, 3, 224, 224), float32], Tensor[(3, 3, 3, 3), float32], Tensor[(1, 224, 3, 224), float32], Tensor[(1, 1, 3, 224, 224), int8]) {
  %0 = fn (%p02: Tensor[(1, 3, 224, 224), int8] /* ty=Tensor[(1, 3, 224, 224), int8] span=from_string:4:20 */, Primitive=1) -> Tensor[(1, 3, 224, 224), float32] {
    qnn.dequantize(%p02, 0.1f /* ty=float32 span=from_string:4:30 */, 0 /* ty=int32 span=from_string:4:72 */) /* ty=Tensor[(1, 3, 224, 224), float32] span=from_string:4:5 */
  } /* ty=fn (Tensor[(1, 3, 224, 224), int8]) -> Tensor[(1, 3, 224, 224), float32] span=from_string:3:3 */;
  %1 = %0(%x0) /* ty=Tensor[(1, 3, 224, 224), float32] span=from_string:6:14 */;
  %2 = fn (%p01: Tensor[(1, 3, 224, 224), float32] /* ty=Tensor[(1, 3, 224, 224), float32] span=from_string:8:16 */, Primitive=1) -> Tensor[(1, 3, 224, 224), float32] {
    nn.softmax(%p01) /* ty=Tensor[(1, 3, 224, 224), float32] span=from_string:8:5 */
  } /* ty=fn (Tensor[(1, 3, 224, 224), float32]) -> Tensor[(1, 3, 224, 224), float32] span=from_string:7:3 */;
  %3 = %2(%1) /* ty=Tensor[(1, 3, 224, 224), float32] span=from_string:10:14 */;
  %4 = fn (%p0: Tensor[(1, 3, 224, 224), float32] /* ty=Tensor[(1, 3, 224, 224), float32] span=from_string:12:10 */, Primitive=1) -> Tensor[(1, 3, 224, 224), float16] {
    cast(%p0, dtype="float16") /* ty=Tensor[(1, 3, 224, 224), float16] span=from_string:12:5 */
  } /* ty=fn (Tensor[(1, 3, 224, 224), float32]) -> Tensor[(1, 3, 224, 224), float16] span=from_string:11:3 */;
  %11 = fn (%p05: Tensor[(1, 3, 224, 224), float32] /* ty=Tensor[(1, 3, 224, 224), float32] span=from_string:17:14 */, Primitive=1) -> Tensor[(1, 3, 224, 224), float32] {
    %8 = zeros(shape=[1], dtype="float32") /* ty=Tensor[(1), float32] span=from_string:17:20 */;
    %9 = add(%p05, %8) /* ty=Tensor[(1, 3, 224, 224), float32] span=from_string:18:58 */;
    %10 = add(2f /* ty=float32 span=from_string:18:16 */, %9) /* ty=Tensor[(1, 3, 224, 224), float32] span=from_string:19:9 */;
    add(%10, 1f /* ty=float32 span=from_string:19:15 */) /* ty=Tensor[(1, 3, 224, 224), float32] span=from_string:16:5 */
  } /* ty=fn (Tensor[(1, 3, 224, 224), float32]) -> Tensor[(1, 3, 224, 224), float32] span=from_string:15:3 */;
  %12 = %11(%3) /* ty=Tensor[(1, 3, 224, 224), float32] span=from_string:21:14 */;
  %13 = fn (%p04: Tensor[(1, 3, 224, 224), float32] /* ty=Tensor[(1, 3, 224, 224), float32] span=from_string:23:20 */, %p11: Tensor[(3, 3, 3, 3), float32] /* ty=Tensor[(3, 3, 3, 3), float32] span=from_string:23:26 */, Primitive=1) -> Tensor[(1, 3, 224, 224), float32] {
    %6 = nn.conv2d(%p04, %p11, padding=[1, 1, 1, 1], channels=3, kernel_size=[3, 3]) /* ty=Tensor[(1, 3, 224, 224), float32] span=from_string:25:9 */;
    %7 = add(1f /* ty=float32 span=from_string:24:16 */, %6) /* ty=Tensor[(1, 3, 224, 224), float32] span=from_string:25:13 */;
    add(%6, %7) /* ty=Tensor[(1, 3, 224, 224), float32] span=from_string:23:5 */
  } /* ty=fn (Tensor[(1, 3, 224, 224), float32], Tensor[(3, 3, 3, 3), float32]) -> Tensor[(1, 3, 224, 224), float32] span=from_string:22:3 */;
  %14 = %13(%12, %x2) /* ty=Tensor[(1, 3, 224, 224), float32] span=from_string:27:14 */;
  %15 = fn (%p06: Tensor[(1, 3, 224, 224), float32] /* ty=Tensor[(1, 3, 224, 224), float32] span=from_string:29:15 */, %p12: Tensor[(3, 3, 3, 3), float32] /* ty=Tensor[(3, 3, 3, 3), float32] span=from_string:29:21 */, Primitive=1) -> Tensor[(1, 3, 224, 224), float32] {
    nn.conv2d(%p06, %p12, padding=[1, 1, 1, 1], channels=3, kernel_size=[3, 3]) /* ty=Tensor[(1, 3, 224, 224), float32] span=from_string:29:5 */
  } /* ty=fn (Tensor[(1, 3, 224, 224), float32], Tensor[(3, 3, 3, 3), float32]) -> Tensor[(1, 3, 224, 224), float32] span=from_string:28:3 */;
  %16 = %15(%14, %x4) /* ty=Tensor[(1, 3, 224, 224), float32] span=from_string:31:15 */;
  %17 = fn (%p03: Tensor[(1, 3, 224, 224), float32] /* ty=Tensor[(1, 3, 224, 224), float32] span=from_string:33:20 */, %p1: Tensor[(3, 3, 1, 1), float32] /* ty=Tensor[(3, 3, 1, 1), float32] span=from_string:33:26 */, %p2: Tensor[(1, 3, 224, 224), float32] /* ty=Tensor[(1, 3, 224, 224), float32] span=from_string:34:13 */, Primitive=1) -> Tensor[(1, 3, 224, 224), float32] {
    %5 = nn.conv2d(%p03, %p1, padding=[0, 0, 0, 0], channels=3, kernel_size=[1, 1]) /* ty=Tensor[(1, 3, 224, 224), float32] span=from_string:34:9 */;
    add(%5, %p2) /* ty=Tensor[(1, 3, 224, 224), float32] span=from_string:33:5 */
  } /* ty=fn (Tensor[(1, 3, 224, 224), float32], Tensor[(3, 3, 1, 1), float32], Tensor[(1, 3, 224, 224), float32]) -> Tensor[(1, 3, 224, 224), float32] span=from_string:32:3 */;
  %21 = fn (%p08: Tensor[(1, 3, 224, 224), int8] /* ty=Tensor[(1, 3, 224, 224), int8] span=from_string:38:14 */, %p14: Tensor[(1, 3, 224, 224), int8] /* ty=Tensor[(1, 3, 224, 224), int8] span=from_string:38:20 */, Primitive=1) -> Tensor[(1, 3, 224, 224), int8] {
    qnn.mul(%p08, %p14, 0.1f /* ty=float32 span=from_string:38:30 */, 0 /* ty=int32 span=from_string:38:73 */, 0.2f /* ty=float32 span=from_string:38:117 */, 0 /* ty=int32 span=from_string:38:161 */, 20f /* ty=float32 span=from_string:38:205 */, 0 /* ty=int32 span=from_string:38:249 */) /* ty=Tensor[(1, 3, 224, 224), int8] span=from_string:38:5 */
  } /* ty=fn (Tensor[(1, 3, 224, 224), int8], Tensor[(1, 3, 224, 224), int8]) -> Tensor[(1, 3, 224, 224), int8] span=from_string:37:3 */;
  %22 = %21(%x0, %x1) /* ty=Tensor[(1, 3, 224, 224), int8] span=from_string:40:15 */;
  %23 = fn (%p07: Tensor[(1, 3, 224, 224), int8] /* ty=Tensor[(1, 3, 224, 224), int8] span=from_string:42:11 */, %p13: Tensor[(1, 3, 224, 89), int8] /* ty=Tensor[(1, 3, 224, 89), int8] span=from_string:42:17 */, %p21: Tensor[(1, 3, 224, 32), int8] /* ty=Tensor[(1, 3, 224, 32), int8] span=from_string:42:23 */, %p3: Tensor[(1, 3, 224, 4), int8] /* ty=Tensor[(1, 3, 224, 4), int8] span=from_string:42:29 */, Primitive=1) -> Tensor[(1, 3, 224, 349), int8] {
    %18 = (%p07, %p13, %p21, %p3) /* ty=(Tensor[(1, 3, 224, 224), int8], Tensor[(1, 3, 224, 89), int8], Tensor[(1, 3, 224, 32), int8], Tensor[(1, 3, 224, 4), int8]) span=from_string:45:21 */;
    %19 = (0.5f /* ty=float32 span=from_string:43:15 */, 1.5f /* ty=float32 span=from_string:43:61 */, 2.5f /* ty=float32 span=from_string:43:107 */, 3.5f /* ty=float32 span=from_string:43:154 */) /* ty=(float32, float32, float32, float32) span=from_string:45:25 */;
    %20 = (0 /* ty=int32 span=from_string:44:12 */, 0 /* ty=int32 span=from_string:44:53 */, 0 /* ty=int32 span=from_string:44:94 */, 0 /* ty=int32 span=from_string:44:135 */) /* ty=(int32, int32, int32, int32) span=from_string:45:29 */;
    qnn.concatenate(%18, %19, %20, 3.5f /* ty=float32 span=from_string:45:37 */, 0 /* ty=int32 span=from_string:45:80 */, axis=-1) /* ty=Tensor[(1, 3, 224, 349), int8] span=from_string:42:5 */
  } /* ty=fn (Tensor[(1, 3, 224, 224), int8], Tensor[(1, 3, 224, 89), int8], Tensor[(1, 3, 224, 32), int8], Tensor[(1, 3, 224, 4), int8]) -> Tensor[(1, 3, 224, 349), int8] span=from_string:41:3 */;
  %29 = fn (%p010: Tensor[(1, 3, 224, 224), int8] /* ty=Tensor[(1, 3, 224, 224), int8] span=from_string:49:25 */, %p15: Tensor[(1, 3, 224, 224), float32] /* ty=Tensor[(1, 3, 224, 224), float32] span=from_string:50:21 */, Primitive=1) -> Tensor[(1, 224, 3, 224), float32] {
    %24 = qnn.dequantize(%p010, 0.2f /* ty=float32 span=from_string:49:36 */, 0 /* ty=int32 span=from_string:49:79 */) /* ty=Tensor[(1, 3, 224, 224), float32] span=from_string:50:27 */;
    %25 = multiply(%p15, %24) /* ty=Tensor[(1, 3, 224, 224), float32] span=from_string:51:28 */;
    %26 = layout_transform(%25, src_layout="NHWC", dst_layout="NCHW") /* ty=Tensor[(1, 224, 3, 224), float32] span=from_string:52:28 */;
    %27 = layout_transform(%26, src_layout="NCHW", dst_layout="NCHW4c") /* ty=Tensor[(1, 56, 3, 224, 4), float32] span=from_string:53:19 */;
    %28 = nn.relu(%27) /* ty=Tensor[(1, 56, 3, 224, 4), float32] span=from_string:54:22 */;
    layout_transform(%28, src_layout="NCHW4c", dst_layout="NCHW") /* ty=Tensor[(1, 224, 3, 224), float32] span=from_string:49:5 */
  } /* ty=fn (Tensor[(1, 3, 224, 224), int8], Tensor[(1, 3, 224, 224), float32]) -> Tensor[(1, 224, 3, 224), float32] span=from_string:48:3 */;
  %30 = %29(%x1, %1) /* ty=Tensor[(1, 224, 3, 224), float32] span=from_string:56:15 */;
  %31 = fn (%p09: Tensor[(1, 224, 3, 224), float32] /* ty=Tensor[(1, 224, 3, 224), float32] span=from_string:58:22 */, Primitive=1) -> Tensor[(1, 3, 224, 224), float32] {
    layout_transform(%p09, src_layout="NCHW", dst_layout="NHWC") /* ty=Tensor[(1, 3, 224, 224), float32] span=from_string:58:5 */
  } /* ty=fn (Tensor[(1, 224, 3, 224), float32]) -> Tensor[(1, 3, 224, 224), float32] span=from_string:57:3 */;
  %32 = fn (%p011: Tensor[(3, 3, 3, 3), float32] /* ty=Tensor[(3, 3, 3, 3), float32] span=from_string:62:53 */, Primitive=1) -> Tensor[(3, 3, 3, 3), float32] {
    add(2f /* ty=float32 span=from_string:62:11 */, %p011) /* ty=Tensor[(3, 3, 3, 3), float32] span=from_string:62:5 */
  } /* ty=fn (Tensor[(3, 3, 3, 3), float32]) -> Tensor[(3, 3, 3, 3), float32] span=from_string:61:3 */;
  %34 = fn (%p013: Tensor[(1, 224, 3, 224), float32] /* ty=Tensor[(1, 224, 3, 224), float32] span=from_string:66:19 */, %p16: Tensor[(224), float32] /* ty=Tensor[(224), float32] span=from_string:66:26 */, %p22: Tensor[(224), float32] /* ty=Tensor[(224), float32] span=from_string:66:32 */, %p31: Tensor[(224), float32] /* ty=Tensor[(224), float32] span=from_string:66:38 */, %p4: Tensor[(224), float32] /* ty=Tensor[(224), float32] span=from_string:66:44 */, Primitive=1) -> (Tensor[(1, 224, 3, 224), float32], Tensor[(224), float32], Tensor[(224), float32]) {
    nn.batch_norm(%p013, %p16, %p22, %p31, %p4) /* ty=(Tensor[(1, 224, 3, 224), float32], Tensor[(224), float32], Tensor[(224), float32]) span=from_string:66:5 */
  } /* ty=fn (Tensor[(1, 224, 3, 224), float32], Tensor[(224), float32], Tensor[(224), float32], Tensor[(224), float32], Tensor[(224), float32]) -> (Tensor[(1, 224, 3, 224), float32], Tensor[(224), float32], Tensor[(224), float32]) span=from_string:65:3 */;
  %35 = %34(%30, %x11, %x10, %x9, %x8) /* ty=(Tensor[(1, 224, 3, 224), float32], Tensor[(224), float32], Tensor[(224), float32]) span=from_string:68:15 */;
  %36 = fn (%p012: (Tensor[(1, 224, 3, 224), float32], Tensor[(224), float32], Tensor[(224), float32]) /* ty=(Tensor[(1, 224, 3, 224), float32], Tensor[(224), float32], Tensor[(224), float32]) span=from_string:70:11 */, Primitive=1) -> Tensor[(1, 224, 3, 224), float32] {
    %33 = %p012.0 /* ty=Tensor[(1, 224, 3, 224), float32] span=from_string:71:14 */;
    add(%33, %33) /* ty=Tensor[(1, 224, 3, 224), float32] span=from_string:70:5 */
  } /* ty=fn ((Tensor[(1, 224, 3, 224), float32], Tensor[(224), float32], Tensor[(224), float32])) -> Tensor[(1, 224, 3, 224), float32] span=from_string:69:3 */;
  %37 = fn (%p014: Tensor[(1, 3, 224, 224), int8] /* ty=Tensor[(1, 3, 224, 224), int8] span=from_string:75:17 */, Primitive=1, relay.reshape_only=1) -> Tensor[(1, 1, 3, 224, 224), int8] {
    expand_dims(%p014, axis=1) /* ty=Tensor[(1, 1, 3, 224, 224), int8] span=from_string:75:5 */
  } /* ty=fn (Tensor[(1, 3, 224, 224), int8]) -> Tensor[(1, 1, 3, 224, 224), int8] span=from_string:74:3 */;
  %38 = %4(%3) /* ty=Tensor[(1, 3, 224, 224), float16] span=from_string:14:14 */;
  %39 = %17(%14, %x3, %16) /* ty=Tensor[(1, 3, 224, 224), float32] span=from_string:36:15 */;
  %40 = %23(%22, %x5, %x6, %x7) /* ty=Tensor[(1, 3, 224, 349), int8] span=from_string:47:15 */;
  %41 = %31(%30) /* ty=Tensor[(1, 3, 224, 224), float32] span=from_string:60:15 */;
  %42 = %32(%x4) /* ty=Tensor[(3, 3, 3, 3), float32] span=from_string:64:15 */;
  %43 = %36(%35) /* ty=Tensor[(1, 224, 3, 224), float32] span=from_string:73:15 */;
  %44 = %37(%22) /* ty=Tensor[(1, 1, 3, 224, 224), int8] span=from_string:77:15 */;
  (%38, %39, %40, %41, %42, %43, %44) /* ty=(Tensor[(1, 3, 224, 224), float16], Tensor[(1, 3, 224, 224), float32], Tensor[(1, 3, 224, 349), int8], Tensor[(1, 3, 224, 224), float32], Tensor[(3, 3, 3, 3), float32], Tensor[(1, 224, 3, 224), float32], Tensor[(1, 1, 3, 224, 224), int8]) span=from_string:78:15 */
}
