#[version = "0.0.5"]
def @main(%x0: Tensor[(1, 3, 224, 224), int8] /* ty=Tensor[(1, 3, 224, 224), int8] span=from_string:9:118 */, %x1: Tensor[(1, 3, 224, 224), int8] /* ty=Tensor[(1, 3, 224, 224), int8] span=from_string:65:120 */, %x2: Tensor[(3, 3, 3, 3), float32] /* ty=Tensor[(3, 3, 3, 3), float32] span=from_string:38:125 */, %x3: Tensor[(3, 3, 1, 1), float32] /* ty=Tensor[(3, 3, 1, 1), float32] span=from_string:51:127 */, %x4: Tensor[(3, 3, 3, 3), float32] /* ty=Tensor[(3, 3, 3, 3), float32] span=from_string:135:119 */, %x5: Tensor[(1, 3, 224, 89), int8] /* ty=Tensor[(1, 3, 224, 89), int8] span=from_string:87:118 */, %x6: Tensor[(1, 3, 224, 32), int8] /* ty=Tensor[(1, 3, 224, 32), int8] span=from_string:93:118 */, %x7: Tensor[(1, 3, 224, 4), int8] /* ty=Tensor[(1, 3, 224, 4), int8] span=from_string:99:116 */, %x8: Tensor[(224), float32] /* ty=Tensor[(224), float32] span=from_string:139:244 */, %x9: Tensor[(224), float32] /* ty=Tensor[(224), float32] span=from_string:139:239 */, %x10: Tensor[(224), float32] /* ty=Tensor[(224), float32] span=from_string:139:233 */, %x11: Tensor[(224), float32] /* ty=Tensor[(224), float32] span=from_string:139:227 */) -> (Tensor[(1, 3, 224, 224), float16], Tensor[(1, 3, 224, 224), float32], Tensor[(1, 3, 224, 349), int8], Tensor[(1, 3, 224, 224), float32], Tensor[(3, 3, 3, 3), float32], Tensor[(1, 224, 3, 224), float32], Tensor[(1, 1, 3, 224, 224), int8]) {
  %0 = fn (%p0: Tensor[(1, 3, 224, 224), int8] /* ty=Tensor[(1, 3, 224, 224), int8] span=from_string:7:20 */, %p1: float32 /* ty=float32 span=from_string:7:25 */, %p2: int32 /* ty=int32 span=from_string:7:30 */, Primitive=1) -> Tensor[(1, 3, 224, 224), float32] {
    qnn.dequantize(%p0, %p1, %p2) /* ty=Tensor[(1, 3, 224, 224), float32] span=from_string:7:5 */
  } /* ty=fn (Tensor[(1, 3, 224, 224), int8], float32, int32) -> Tensor[(1, 3, 224, 224), float32] span=from_string:9:115 */;
  let %x_3: Tensor[(1, 3, 224, 224), float32] /* ty=Tensor[(1, 3, 224, 224), float32] span=from_string:69:120 */ = %0(%x0, 0.1f /* ty=float32 span=from_string:4:66 */, 0 /* ty=int32 span=from_string:5:61 */) /* ty=Tensor[(1, 3, 224, 224), float32] span=from_string:9:115 */;
  %1 = fn (%p01: Tensor[(1, 3, 224, 224), float32] /* ty=Tensor[(1, 3, 224, 224), float32] span=from_string:11:16 */, Primitive=1) -> Tensor[(1, 3, 224, 224), float32] {
    nn.softmax(%p01) /* ty=Tensor[(1, 3, 224, 224), float32] span=from_string:11:5 */
  } /* ty=fn (Tensor[(1, 3, 224, 224), float32]) -> Tensor[(1, 3, 224, 224), float32] span=from_string:13:115 */;
  let %x_4: Tensor[(1, 3, 224, 224), float32] /* ty=Tensor[(1, 3, 224, 224), float32] span=from_string:29:118 */ = %1(%x_3) /* ty=Tensor[(1, 3, 224, 224), float32] span=from_string:13:115 */;
  %2 = fn (Primitive=1) -> Tensor[(1), float32] {
    zeros(shape=[1], dtype="float32") /* ty=Tensor[(1), float32] span=from_string:15:5 */
  } /* ty=fn () -> Tensor[(1), float32] span=from_string:17:88 */;
  let %x_5: Tensor[(1), float32] /* ty=Tensor[(1), float32] span=from_string:21:125 */ = %2() /* ty=Tensor[(1), float32] span=from_string:17:88 */;
  %3 = fn (%p02: Tensor[(1, 3, 224, 224), float32] /* ty=Tensor[(1, 3, 224, 224), float32] span=from_string:19:9 */, %p11: Tensor[(1), float32] /* ty=Tensor[(1), float32] span=from_string:19:15 */, Primitive=1) -> Tensor[(1, 3, 224, 224), float32] {
    add(%p02, %p11) /* ty=Tensor[(1, 3, 224, 224), float32] span=from_string:19:5 */
  } /* ty=fn (Tensor[(1, 3, 224, 224), float32], Tensor[(1), float32]) -> Tensor[(1, 3, 224, 224), float32] span=from_string:21:116 */;
  let %x_6: Tensor[(1, 3, 224, 224), float32] /* ty=Tensor[(1, 3, 224, 224), float32] span=from_string:25:124 */ = %3(%x_4, %x_5) /* ty=Tensor[(1, 3, 224, 224), float32] span=from_string:21:116 */;
  %4 = fn (%p03: float32 /* ty=float32 span=from_string:23:9 */, %p12: Tensor[(1, 3, 224, 224), float32] /* ty=Tensor[(1, 3, 224, 224), float32] span=from_string:23:15 */, Primitive=1) -> Tensor[(1, 3, 224, 224), float32] {
    add(%p03, %p12) /* ty=Tensor[(1, 3, 224, 224), float32] span=from_string:23:5 */
  } /* ty=fn (float32, Tensor[(1, 3, 224, 224), float32]) -> Tensor[(1, 3, 224, 224), float32] span=from_string:25:115 */;
  let %x14: Tensor[(1, 3, 224, 224), float32] /* ty=Tensor[(1, 3, 224, 224), float32] span=from_string:34:118 */ = %4(2f /* ty=float32 span=from_string:3:66 */, %x_6) /* ty=Tensor[(1, 3, 224, 224), float32] span=from_string:25:115 */;
  %5 = fn (%p04: Tensor[(1, 3, 224, 224), float32] /* ty=Tensor[(1, 3, 224, 224), float32] span=from_string:27:10 */, Primitive=1) -> Tensor[(1, 3, 224, 224), float16] {
    cast(%p04, dtype="float16") /* ty=Tensor[(1, 3, 224, 224), float16] span=from_string:27:5 */
  } /* ty=fn (Tensor[(1, 3, 224, 224), float32]) -> Tensor[(1, 3, 224, 224), float16] span=from_string:29:115 */;
  let %x_7: Tensor[(1, 3, 224, 224), float16] /* ty=Tensor[(1, 3, 224, 224), float16] span=from_string:162:531 */ = %5(%x_4) /* ty=Tensor[(1, 3, 224, 224), float16] span=from_string:29:115 */;
  %6 = fn (%p05: Tensor[(1, 3, 224, 224), float32] /* ty=Tensor[(1, 3, 224, 224), float32] span=from_string:32:9 */, %p13: float32 /* ty=float32 span=from_string:32:15 */, Primitive=1) -> Tensor[(1, 3, 224, 224), float32] {
    add(%p05, %p13) /* ty=Tensor[(1, 3, 224, 224), float32] span=from_string:32:5 */
  } /* ty=fn (Tensor[(1, 3, 224, 224), float32], float32) -> Tensor[(1, 3, 224, 224), float32] span=from_string:34:115 */;
  let %x_9: Tensor[(1, 3, 224, 224), float32] /* ty=Tensor[(1, 3, 224, 224), float32] span=from_string:38:119 */ = %6(%x14, 1f /* ty=float32 span=from_string:30:65 */) /* ty=Tensor[(1, 3, 224, 224), float32] span=from_string:34:115 */;
  %7 = fn (%p06: Tensor[(1, 3, 224, 224), float32] /* ty=Tensor[(1, 3, 224, 224), float32] span=from_string:36:15 */, %p14: Tensor[(3, 3, 3, 3), float32] /* ty=Tensor[(3, 3, 3, 3), float32] span=from_string:36:21 */, Primitive=1) -> Tensor[(1, 3, 224, 224), float32] {
    nn.conv2d(%p06, %p14, padding=[1, 1, 1, 1], channels=3, kernel_size=[3, 3]) /* ty=Tensor[(1, 3, 224, 224), float32] span=from_string:36:5 */
  } /* ty=fn (Tensor[(1, 3, 224, 224), float32], Tensor[(3, 3, 3, 3), float32]) -> Tensor[(1, 3, 224, 224), float32] span=from_string:38:116 */;
  let %x_10: Tensor[(1, 3, 224, 224), float32] /* ty=Tensor[(1, 3, 224, 224), float32] span=from_string:47:119 */ = %7(%x_9, %x2) /* ty=Tensor[(1, 3, 224, 224), float32] span=from_string:38:116 */;
  %8 = fn (%p07: float32 /* ty=float32 span=from_string:41:9 */, %p15: Tensor[(1, 3, 224, 224), float32] /* ty=Tensor[(1, 3, 224, 224), float32] span=from_string:41:15 */, Primitive=1) -> Tensor[(1, 3, 224, 224), float32] {
    add(%p07, %p15) /* ty=Tensor[(1, 3, 224, 224), float32] span=from_string:41:5 */
  } /* ty=fn (float32, Tensor[(1, 3, 224, 224), float32]) -> Tensor[(1, 3, 224, 224), float32] span=from_string:43:116 */;
  let %x_12: Tensor[(1, 3, 224, 224), float32] /* ty=Tensor[(1, 3, 224, 224), float32] span=from_string:47:126 */ = %8(1f /* ty=float32 span=from_string:39:66 */, %x_10) /* ty=Tensor[(1, 3, 224, 224), float32] span=from_string:43:116 */;
  %9 = fn (%p08: Tensor[(1, 3, 224, 224), float32] /* ty=Tensor[(1, 3, 224, 224), float32] span=from_string:45:9 */, %p16: Tensor[(1, 3, 224, 224), float32] /* ty=Tensor[(1, 3, 224, 224), float32] span=from_string:45:15 */, Primitive=1) -> Tensor[(1, 3, 224, 224), float32] {
    add(%p08, %p16) /* ty=Tensor[(1, 3, 224, 224), float32] span=from_string:45:5 */
  } /* ty=fn (Tensor[(1, 3, 224, 224), float32], Tensor[(1, 3, 224, 224), float32]) -> Tensor[(1, 3, 224, 224), float32] span=from_string:47:116 */;
  let %x_13: Tensor[(1, 3, 224, 224), float32] /* ty=Tensor[(1, 3, 224, 224), float32] span=from_string:55:120 */ = %9(%x_10, %x_12) /* ty=Tensor[(1, 3, 224, 224), float32] span=from_string:47:116 */;
  %10 = fn (%p09: Tensor[(1, 3, 224, 224), float32] /* ty=Tensor[(1, 3, 224, 224), float32] span=from_string:49:15 */, %p17: Tensor[(3, 3, 1, 1), float32] /* ty=Tensor[(3, 3, 1, 1), float32] span=from_string:49:21 */, Primitive=1) -> Tensor[(1, 3, 224, 224), float32] {
    nn.conv2d(%p09, %p17, padding=[0, 0, 0, 0], channels=3, kernel_size=[1, 1]) /* ty=Tensor[(1, 3, 224, 224), float32] span=from_string:49:5 */
  } /* ty=fn (Tensor[(1, 3, 224, 224), float32], Tensor[(3, 3, 1, 1), float32]) -> Tensor[(1, 3, 224, 224), float32] span=from_string:51:116 */;
  let %x_14: Tensor[(1, 3, 224, 224), float32] /* ty=Tensor[(1, 3, 224, 224), float32] span=from_string:59:120 */ = %10(%x_13, %x3) /* ty=Tensor[(1, 3, 224, 224), float32] span=from_string:51:116 */;
  %11 = fn (%p010: Tensor[(1, 3, 224, 224), float32] /* ty=Tensor[(1, 3, 224, 224), float32] span=from_string:53:15 */, %p18: Tensor[(3, 3, 3, 3), float32] /* ty=Tensor[(3, 3, 3, 3), float32] span=from_string:53:22 */, Primitive=1) -> Tensor[(1, 3, 224, 224), float32] {
    nn.conv2d(%p010, %p18, padding=[1, 1, 1, 1], channels=3, kernel_size=[3, 3]) /* ty=Tensor[(1, 3, 224, 224), float32] span=from_string:53:5 */
  } /* ty=fn (Tensor[(1, 3, 224, 224), float32], Tensor[(3, 3, 3, 3), float32]) -> Tensor[(1, 3, 224, 224), float32] span=from_string:55:116 */;
  let %x_15: Tensor[(1, 3, 224, 224), float32] /* ty=Tensor[(1, 3, 224, 224), float32] span=from_string:59:127 */ = %11(%x_13, %x4) /* ty=Tensor[(1, 3, 224, 224), float32] span=from_string:55:116 */;
  %12 = fn (%p011: Tensor[(1, 3, 224, 224), float32] /* ty=Tensor[(1, 3, 224, 224), float32] span=from_string:57:9 */, %p19: Tensor[(1, 3, 224, 224), float32] /* ty=Tensor[(1, 3, 224, 224), float32] span=from_string:57:16 */, Primitive=1) -> Tensor[(1, 3, 224, 224), float32] {
    add(%p011, %p19) /* ty=Tensor[(1, 3, 224, 224), float32] span=from_string:57:5 */
  } /* ty=fn (Tensor[(1, 3, 224, 224), float32], Tensor[(1, 3, 224, 224), float32]) -> Tensor[(1, 3, 224, 224), float32] span=from_string:59:116 */;
  let %x_16: Tensor[(1, 3, 224, 224), float32] /* ty=Tensor[(1, 3, 224, 224), float32] span=from_string:162:537 */ = %12(%x_14, %x_15) /* ty=Tensor[(1, 3, 224, 224), float32] span=from_string:59:116 */;
  %13 = fn (%p012: Tensor[(1, 3, 224, 224), int8] /* ty=Tensor[(1, 3, 224, 224), int8] span=from_string:63:20 */, %p110: float32 /* ty=float32 span=from_string:63:27 */, %p21: int32 /* ty=int32 span=from_string:63:34 */, Primitive=1) -> Tensor[(1, 3, 224, 224), float32] {
    qnn.dequantize(%p012, %p110, %p21) /* ty=Tensor[(1, 3, 224, 224), float32] span=from_string:63:5 */
  } /* ty=fn (Tensor[(1, 3, 224, 224), int8], float32, int32) -> Tensor[(1, 3, 224, 224), float32] span=from_string:65:116 */;
  let %x_19: Tensor[(1, 3, 224, 224), float32] /* ty=Tensor[(1, 3, 224, 224), float32] span=from_string:69:126 */ = %13(%x1, 0.2f /* ty=float32 span=from_string:60:68 */, 0 /* ty=int32 span=from_string:61:63 */) /* ty=Tensor[(1, 3, 224, 224), float32] span=from_string:65:116 */;
  %14 = fn (%p013: Tensor[(1, 3, 224, 224), float32] /* ty=Tensor[(1, 3, 224, 224), float32] span=from_string:67:15 */, %p111: Tensor[(1, 3, 224, 224), float32] /* ty=Tensor[(1, 3, 224, 224), float32] span=from_string:67:22 */, Primitive=1) -> Tensor[(1, 3, 224, 224), float32] {
    multiply(%p013, %p111) /* ty=Tensor[(1, 3, 224, 224), float32] span=from_string:67:6 */
  } /* ty=fn (Tensor[(1, 3, 224, 224), float32], Tensor[(1, 3, 224, 224), float32]) -> Tensor[(1, 3, 224, 224), float32] span=from_string:69:116 */;
  let %x_20: Tensor[(1, 3, 224, 224), float32] /* ty=Tensor[(1, 3, 224, 224), float32] span=from_string:114:120 */ = %14(%x_3, %x_19) /* ty=Tensor[(1, 3, 224, 224), float32] span=from_string:69:116 */;
  %15 = fn (%p014: Tensor[(1, 3, 224, 224), float32] /* ty=Tensor[(1, 3, 224, 224), float32] span=from_string:73:18 */, %p112: float32 /* ty=float32 span=from_string:73:25 */, %p22: int32 /* ty=int32 span=from_string:73:32 */, Primitive=1) -> Tensor[(1, 3, 224, 224), int8] {
    qnn.quantize(%p014, %p112, %p22, out_dtype="int8") /* ty=Tensor[(1, 3, 224, 224), int8] span=from_string:73:5 */
  } /* ty=fn (Tensor[(1, 3, 224, 224), float32], float32, int32) -> Tensor[(1, 3, 224, 224), int8] span=from_string:75:112 */;
  let %x_23: Tensor[(1, 3, 224, 224), int8] /* ty=Tensor[(1, 3, 224, 224), int8] span=from_string:151:120 */ = %15(%x_20, 20f /* ty=float32 span=from_string:70:67 */, 0 /* ty=int32 span=from_string:71:63 */) /* ty=Tensor[(1, 3, 224, 224), int8] span=from_string:75:112 */;
  %16 = fn (%p015: Tensor[(1, 3, 224, 224), int8] /* ty=Tensor[(1, 3, 224, 224), int8] span=from_string:79:20 */, %p113: float32 /* ty=float32 span=from_string:79:27 */, %p23: int32 /* ty=int32 span=from_string:79:34 */, Primitive=1) -> Tensor[(1, 3, 224, 224), float32] {
    qnn.dequantize(%p015, %p113, %p23) /* ty=Tensor[(1, 3, 224, 224), float32] span=from_string:79:5 */
  } /* ty=fn (Tensor[(1, 3, 224, 224), int8], float32, int32) -> Tensor[(1, 3, 224, 224), float32] span=from_string:81:116 */;
  let %x_26: Tensor[(1, 3, 224, 224), float32] /* ty=Tensor[(1, 3, 224, 224), float32] span=from_string:100:323 */ = %16(%x_23, 0.5f /* ty=float32 span=from_string:76:68 */, 0 /* ty=int32 span=from_string:77:63 */) /* ty=Tensor[(1, 3, 224, 224), float32] span=from_string:81:116 */;
  %17 = fn (%p016: Tensor[(1, 3, 224, 89), int8] /* ty=Tensor[(1, 3, 224, 89), int8] span=from_string:85:20 */, %p114: float32 /* ty=float32 span=from_string:85:27 */, %p24: int32 /* ty=int32 span=from_string:85:34 */, Primitive=1) -> Tensor[(1, 3, 224, 89), float32] {
    qnn.dequantize(%p016, %p114, %p24) /* ty=Tensor[(1, 3, 224, 89), float32] span=from_string:85:5 */
  } /* ty=fn (Tensor[(1, 3, 224, 89), int8], float32, int32) -> Tensor[(1, 3, 224, 89), float32] span=from_string:87:114 */;
  let %x_29: Tensor[(1, 3, 224, 89), float32] /* ty=Tensor[(1, 3, 224, 89), float32] span=from_string:100:330 */ = %17(%x5, 1.5f /* ty=float32 span=from_string:82:68 */, 0 /* ty=int32 span=from_string:83:63 */) /* ty=Tensor[(1, 3, 224, 89), float32] span=from_string:87:114 */;
  %18 = fn (%p017: Tensor[(1, 3, 224, 32), int8] /* ty=Tensor[(1, 3, 224, 32), int8] span=from_string:91:20 */, %p115: float32 /* ty=float32 span=from_string:91:27 */, %p25: int32 /* ty=int32 span=from_string:91:34 */, Primitive=1) -> Tensor[(1, 3, 224, 32), float32] {
    qnn.dequantize(%p017, %p115, %p25) /* ty=Tensor[(1, 3, 224, 32), float32] span=from_string:91:5 */
  } /* ty=fn (Tensor[(1, 3, 224, 32), int8], float32, int32) -> Tensor[(1, 3, 224, 32), float32] span=from_string:93:114 */;
  let %x_32: Tensor[(1, 3, 224, 32), float32] /* ty=Tensor[(1, 3, 224, 32), float32] span=from_string:100:337 */ = %18(%x6, 2.5f /* ty=float32 span=from_string:88:68 */, 0 /* ty=int32 span=from_string:89:63 */) /* ty=Tensor[(1, 3, 224, 32), float32] span=from_string:93:114 */;
  %19 = fn (%p018: Tensor[(1, 3, 224, 4), int8] /* ty=Tensor[(1, 3, 224, 4), int8] span=from_string:97:20 */, %p116: float32 /* ty=float32 span=from_string:97:27 */, %p26: int32 /* ty=int32 span=from_string:97:34 */, Primitive=1) -> Tensor[(1, 3, 224, 4), float32] {
    qnn.dequantize(%p018, %p116, %p26) /* ty=Tensor[(1, 3, 224, 4), float32] span=from_string:97:5 */
  } /* ty=fn (Tensor[(1, 3, 224, 4), int8], float32, int32) -> Tensor[(1, 3, 224, 4), float32] span=from_string:99:112 */;
  let %x_35: Tensor[(1, 3, 224, 4), float32] /* ty=Tensor[(1, 3, 224, 4), float32] span=from_string:100:344 */ = %19(%x7, 3.5f /* ty=float32 span=from_string:94:68 */, 0 /* ty=int32 span=from_string:95:63 */) /* ty=Tensor[(1, 3, 224, 4), float32] span=from_string:99:112 */;
  let %x_36: (Tensor[(1, 3, 224, 224), float32], Tensor[(1, 3, 224, 89), float32], Tensor[(1, 3, 224, 32), float32], Tensor[(1, 3, 224, 4), float32]) /* ty=(Tensor[(1, 3, 224, 224), float32], Tensor[(1, 3, 224, 89), float32], Tensor[(1, 3, 224, 32), float32], Tensor[(1, 3, 224, 4), float32]) span=from_string:104:120 */ = (%x_26, %x_29, %x_32, %x_35) /* ty=(Tensor[(1, 3, 224, 224), float32], Tensor[(1, 3, 224, 89), float32], Tensor[(1, 3, 224, 32), float32], Tensor[(1, 3, 224, 4), float32]) span=from_string:100:322 */;
  %20 = fn (%p019: (Tensor[(1, 3, 224, 224), float32], Tensor[(1, 3, 224, 89), float32], Tensor[(1, 3, 224, 32), float32], Tensor[(1, 3, 224, 4), float32]) /* ty=(Tensor[(1, 3, 224, 224), float32], Tensor[(1, 3, 224, 89), float32], Tensor[(1, 3, 224, 32), float32], Tensor[(1, 3, 224, 4), float32]) span=from_string:102:17 */, Primitive=1) -> Tensor[(1, 3, 224, 349), float32] {
    concatenate(%p019, axis=-1) /* ty=Tensor[(1, 3, 224, 349), float32] span=from_string:102:5 */
  } /* ty=fn ((Tensor[(1, 3, 224, 224), float32], Tensor[(1, 3, 224, 89), float32], Tensor[(1, 3, 224, 32), float32], Tensor[(1, 3, 224, 4), float32])) -> Tensor[(1, 3, 224, 349), float32] span=from_string:104:116 */;
  let %x_37: Tensor[(1, 3, 224, 349), float32] /* ty=Tensor[(1, 3, 224, 349), float32] span=from_string:110:116 */ = %20(%x_36) /* ty=Tensor[(1, 3, 224, 349), float32] span=from_string:104:116 */;
  %21 = fn (%p020: Tensor[(1, 3, 224, 349), float32] /* ty=Tensor[(1, 3, 224, 349), float32] span=from_string:108:18 */, %p117: float32 /* ty=float32 span=from_string:108:25 */, %p27: int32 /* ty=int32 span=from_string:108:32 */, Primitive=1) -> Tensor[(1, 3, 224, 349), int8] {
    qnn.quantize(%p020, %p117, %p27, out_dtype="int8") /* ty=Tensor[(1, 3, 224, 349), int8] span=from_string:108:5 */
  } /* ty=fn (Tensor[(1, 3, 224, 349), float32], float32, int32) -> Tensor[(1, 3, 224, 349), int8] span=from_string:110:112 */;
  let %x_40: Tensor[(1, 3, 224, 349), int8] /* ty=Tensor[(1, 3, 224, 349), int8] span=from_string:162:544 */ = %21(%x_37, 3.5f /* ty=float32 span=from_string:105:68 */, 0 /* ty=int32 span=from_string:106:63 */) /* ty=Tensor[(1, 3, 224, 349), int8] span=from_string:110:112 */;
  %22 = fn (%p021: Tensor[(1, 3, 224, 224), float32] /* ty=Tensor[(1, 3, 224, 224), float32] span=from_string:112:22 */, Primitive=1) -> Tensor[(1, 224, 3, 224), float32] {
    layout_transform(%p021, src_layout="NHWC", dst_layout="NCHW") /* ty=Tensor[(1, 224, 3, 224), float32] span=from_string:112:5 */
  } /* ty=fn (Tensor[(1, 3, 224, 224), float32]) -> Tensor[(1, 224, 3, 224), float32] span=from_string:114:116 */;
  let %x_41: Tensor[(1, 224, 3, 224), float32] /* ty=Tensor[(1, 224, 3, 224), float32] span=from_string:118:124 */ = %22(%x_20) /* ty=Tensor[(1, 224, 3, 224), float32] span=from_string:114:116 */;
  %23 = fn (%p022: Tensor[(1, 224, 3, 224), float32] /* ty=Tensor[(1, 224, 3, 224), float32] span=from_string:116:22 */, Primitive=1) -> Tensor[(1, 56, 3, 224, 4), float32] {
    layout_transform(%p022, src_layout="NCHW", dst_layout="NCHW4c") /* ty=Tensor[(1, 56, 3, 224, 4), float32] span=from_string:116:5 */
  } /* ty=fn (Tensor[(1, 224, 3, 224), float32]) -> Tensor[(1, 56, 3, 224, 4), float32] span=from_string:118:120 */;
  let %x_42: Tensor[(1, 56, 3, 224, 4), float32] /* ty=Tensor[(1, 56, 3, 224, 4), float32] span=from_string:122:124 */ = %23(%x_41) /* ty=Tensor[(1, 56, 3, 224, 4), float32] span=from_string:118:120 */;
  %24 = fn (%p023: Tensor[(1, 56, 3, 224, 4), float32] /* ty=Tensor[(1, 56, 3, 224, 4), float32] span=from_string:120:13 */, Primitive=1) -> Tensor[(1, 56, 3, 224, 4), float32] {
    nn.relu(%p023) /* ty=Tensor[(1, 56, 3, 224, 4), float32] span=from_string:120:5 */
  } /* ty=fn (Tensor[(1, 56, 3, 224, 4), float32]) -> Tensor[(1, 56, 3, 224, 4), float32] span=from_string:122:120 */;
  let %x_43: Tensor[(1, 56, 3, 224, 4), float32] /* ty=Tensor[(1, 56, 3, 224, 4), float32] span=from_string:126:120 */ = %24(%x_42) /* ty=Tensor[(1, 56, 3, 224, 4), float32] span=from_string:122:120 */;
  %25 = fn (%p024: Tensor[(1, 56, 3, 224, 4), float32] /* ty=Tensor[(1, 56, 3, 224, 4), float32] span=from_string:124:22 */, Primitive=1) -> Tensor[(1, 224, 3, 224), float32] {
    layout_transform(%p024, src_layout="NCHW4c", dst_layout="NCHW") /* ty=Tensor[(1, 224, 3, 224), float32] span=from_string:124:5 */
  } /* ty=fn (Tensor[(1, 56, 3, 224, 4), float32]) -> Tensor[(1, 224, 3, 224), float32] span=from_string:126:116 */;
  let %x_44: Tensor[(1, 224, 3, 224), float32] /* ty=Tensor[(1, 224, 3, 224), float32] span=from_string:139:220 */ = %25(%x_43) /* ty=Tensor[(1, 224, 3, 224), float32] span=from_string:126:116 */;
  %26 = fn (%p025: Tensor[(1, 224, 3, 224), float32] /* ty=Tensor[(1, 224, 3, 224), float32] span=from_string:128:22 */, Primitive=1) -> Tensor[(1, 3, 224, 224), float32] {
    layout_transform(%p025, src_layout="NCHW", dst_layout="NHWC") /* ty=Tensor[(1, 3, 224, 224), float32] span=from_string:128:5 */
  } /* ty=fn (Tensor[(1, 224, 3, 224), float32]) -> Tensor[(1, 3, 224, 224), float32] span=from_string:130:116 */;
  let %x_45: Tensor[(1, 3, 224, 224), float32] /* ty=Tensor[(1, 3, 224, 224), float32] span=from_string:162:551 */ = %26(%x_44) /* ty=Tensor[(1, 3, 224, 224), float32] span=from_string:130:116 */;
  %27 = fn (%p026: float32 /* ty=float32 span=from_string:133:9 */, %p118: Tensor[(3, 3, 3, 3), float32] /* ty=Tensor[(3, 3, 3, 3), float32] span=from_string:133:16 */, Primitive=1) -> Tensor[(3, 3, 3, 3), float32] {
    add(%p026, %p118) /* ty=Tensor[(3, 3, 3, 3), float32] span=from_string:133:5 */
  } /* ty=fn (float32, Tensor[(3, 3, 3, 3), float32]) -> Tensor[(3, 3, 3, 3), float32] span=from_string:135:108 */;
  let %x_47: Tensor[(3, 3, 3, 3), float32] /* ty=Tensor[(3, 3, 3, 3), float32] span=from_string:162:558 */ = %27(2f /* ty=float32 span=from_string:131:66 */, %x4) /* ty=Tensor[(3, 3, 3, 3), float32] span=from_string:135:108 */;
  %28 = fn (%p027: Tensor[(1, 224, 3, 224), float32] /* ty=Tensor[(1, 224, 3, 224), float32] span=from_string:137:19 */, %p119: Tensor[(224), float32] /* ty=Tensor[(224), float32] span=from_string:137:26 */, %p28: Tensor[(224), float32] /* ty=Tensor[(224), float32] span=from_string:137:33 */, %p3: Tensor[(224), float32] /* ty=Tensor[(224), float32] span=from_string:137:39 */, %p4: Tensor[(224), float32] /* ty=Tensor[(224), float32] span=from_string:137:44 */, Primitive=1) -> (Tensor[(1, 224, 3, 224), float32], Tensor[(224), float32], Tensor[(224), float32]) {
    nn.batch_norm(%p027, %p119, %p28, %p3, %p4) /* ty=(Tensor[(1, 224, 3, 224), float32], Tensor[(224), float32], Tensor[(224), float32]) span=from_string:137:5 */
  } /* ty=fn (Tensor[(1, 224, 3, 224), float32], Tensor[(224), float32], Tensor[(224), float32], Tensor[(224), float32], Tensor[(224), float32]) -> (Tensor[(1, 224, 3, 224), float32], Tensor[(224), float32], Tensor[(224), float32]) span=from_string:139:216 */;
  let %x_48: (Tensor[(1, 224, 3, 224), float32], Tensor[(224), float32], Tensor[(224), float32]) /* ty=(Tensor[(1, 224, 3, 224), float32], Tensor[(224), float32], Tensor[(224), float32]) span=from_string:141:116 */ = %28(%x_44, %x11, %x10, %x9, %x8) /* ty=(Tensor[(1, 224, 3, 224), float32], Tensor[(224), float32], Tensor[(224), float32]) span=from_string:139:216 */;
  let %x_49: Tensor[(1, 224, 3, 224), float32] /* ty=Tensor[(1, 224, 3, 224), float32] span=from_string:145:120 */ = %x_48.0 /* ty=Tensor[(1, 224, 3, 224), float32] span=from_string:140:116 */;
  let %x_50: Tensor[(1, 224, 3, 224), float32] /* ty=Tensor[(1, 224, 3, 224), float32] span=from_string:145:127 */ = %x_48.0 /* ty=Tensor[(1, 224, 3, 224), float32] span=from_string:141:116 */;
  %29 = fn (%p028: Tensor[(1, 224, 3, 224), float32] /* ty=Tensor[(1, 224, 3, 224), float32] span=from_string:143:9 */, %p120: Tensor[(1, 224, 3, 224), float32] /* ty=Tensor[(1, 224, 3, 224), float32] span=from_string:143:16 */, Primitive=1) -> Tensor[(1, 224, 3, 224), float32] {
    add(%p028, %p120) /* ty=Tensor[(1, 224, 3, 224), float32] span=from_string:143:5 */
  } /* ty=fn (Tensor[(1, 224, 3, 224), float32], Tensor[(1, 224, 3, 224), float32]) -> Tensor[(1, 224, 3, 224), float32] span=from_string:145:116 */;
  let %x_51: Tensor[(1, 224, 3, 224), float32] /* ty=Tensor[(1, 224, 3, 224), float32] span=from_string:162:565 */ = %29(%x_49, %x_50) /* ty=Tensor[(1, 224, 3, 224), float32] span=from_string:145:116 */;
  %30 = fn (%p029: Tensor[(1, 3, 224, 224), int8] /* ty=Tensor[(1, 3, 224, 224), int8] span=from_string:149:20 */, %p121: float32 /* ty=float32 span=from_string:149:27 */, %p29: int32 /* ty=int32 span=from_string:149:34 */, Primitive=1) -> Tensor[(1, 3, 224, 224), float32] {
    qnn.dequantize(%p029, %p121, %p29) /* ty=Tensor[(1, 3, 224, 224), float32] span=from_string:149:5 */
  } /* ty=fn (Tensor[(1, 3, 224, 224), int8], float32, int32) -> Tensor[(1, 3, 224, 224), float32] span=from_string:151:116 */;
  let %x_54: Tensor[(1, 3, 224, 224), float32] /* ty=Tensor[(1, 3, 224, 224), float32] span=from_string:155:126 */ = %30(%x_23, 2f /* ty=float32 span=from_string:146:66 */, 0 /* ty=int32 span=from_string:147:63 */) /* ty=Tensor[(1, 3, 224, 224), float32] span=from_string:151:116 */;
  %31 = fn (%p030: Tensor[(1, 3, 224, 224), float32] /* ty=Tensor[(1, 3, 224, 224), float32] span=from_string:153:17 */, Primitive=1, relay.reshape_only=1) -> Tensor[(1, 1, 3, 224, 224), float32] {
    expand_dims(%p030, axis=1) /* ty=Tensor[(1, 1, 3, 224, 224), float32] span=from_string:153:5 */
  } /* ty=fn (Tensor[(1, 3, 224, 224), float32]) -> Tensor[(1, 1, 3, 224, 224), float32] span=from_string:155:122 */;
  let %x_55: Tensor[(1, 1, 3, 224, 224), float32] /* ty=Tensor[(1, 1, 3, 224, 224), float32] span=from_string:161:122 */ = %31(%x_54) /* ty=Tensor[(1, 1, 3, 224, 224), float32] span=from_string:155:122 */;
  %32 = fn (%p031: Tensor[(1, 1, 3, 224, 224), float32] /* ty=Tensor[(1, 1, 3, 224, 224), float32] span=from_string:159:18 */, %p122: float32 /* ty=float32 span=from_string:159:25 */, %p210: int32 /* ty=int32 span=from_string:159:32 */, Primitive=1) -> Tensor[(1, 1, 3, 224, 224), int8] {
    qnn.quantize(%p031, %p122, %p210, out_dtype="int8") /* ty=Tensor[(1, 1, 3, 224, 224), int8] span=from_string:159:5 */
  } /* ty=fn (Tensor[(1, 1, 3, 224, 224), float32], float32, int32) -> Tensor[(1, 1, 3, 224, 224), int8] span=from_string:161:118 */;
  let %x_58: Tensor[(1, 1, 3, 224, 224), int8] /* ty=Tensor[(1, 1, 3, 224, 224), int8] span=from_string:162:572 */ = %32(%x_55, 2f /* ty=float32 span=from_string:156:66 */, 0 /* ty=int32 span=from_string:157:63 */) /* ty=Tensor[(1, 1, 3, 224, 224), int8] span=from_string:161:118 */;
  let %x_59: (Tensor[(1, 3, 224, 224), float16], Tensor[(1, 3, 224, 224), float32], Tensor[(1, 3, 224, 349), int8], Tensor[(1, 3, 224, 224), float32], Tensor[(3, 3, 3, 3), float32], Tensor[(1, 224, 3, 224), float32], Tensor[(1, 1, 3, 224, 224), int8]) /* ty=(Tensor[(1, 3, 224, 224), float16], Tensor[(1, 3, 224, 224), float32], Tensor[(1, 3, 224, 349), int8], Tensor[(1, 3, 224, 224), float32], Tensor[(3, 3, 3, 3), float32], Tensor[(1, 224, 3, 224), float32], Tensor[(1, 1, 3, 224, 224), int8]) span=from_string:163:529 */ = (%x_7, %x_16, %x_40, %x_45, %x_47, %x_51, %x_58) /* ty=(Tensor[(1, 3, 224, 224), float16], Tensor[(1, 3, 224, 224), float32], Tensor[(1, 3, 224, 349), int8], Tensor[(1, 3, 224, 224), float32], Tensor[(3, 3, 3, 3), float32], Tensor[(1, 224, 3, 224), float32], Tensor[(1, 1, 3, 224, 224), int8]) span=from_string:162:530 */;
  let %x_60: (Tensor[(1, 3, 224, 224), float16], Tensor[(1, 3, 224, 224), float32], Tensor[(1, 3, 224, 349), int8], Tensor[(1, 3, 224, 224), float32], Tensor[(3, 3, 3, 3), float32], Tensor[(1, 224, 3, 224), float32], Tensor[(1, 1, 3, 224, 224), int8]) /* ty=(Tensor[(1, 3, 224, 224), float16], Tensor[(1, 3, 224, 224), float32], Tensor[(1, 3, 224, 349), int8], Tensor[(1, 3, 224, 224), float32], Tensor[(3, 3, 3, 3), float32], Tensor[(1, 224, 3, 224), float32], Tensor[(1, 1, 3, 224, 224), int8]) span=from_string:164:3 */ = %x_59;
  %x_60
}
