#[version = "0.0.5"]
def @main(%x0: Tensor[(1, 3, 224, 224), int8] /* ty=Tensor[(1, 3, 224, 224), int8] span=from_string:3:23 */, %x1: Tensor[(1, 3, 224, 224), int8] /* ty=Tensor[(1, 3, 224, 224), int8] span=from_string:14:24 */, %x2: Tensor[(3, 3, 3, 3), float32] /* ty=Tensor[(3, 3, 3, 3), float32] span=from_string:9:22 */, %x3: Tensor[(3, 3, 1, 1), float32] /* ty=Tensor[(3, 3, 1, 1), float32] span=from_string:12:22 */, %x4: Tensor[(3, 3, 3, 3), float32] /* ty=Tensor[(3, 3, 3, 3), float32] span=from_string:42:57 */, %x5: Tensor[(1, 3, 224, 89), int8] /* ty=Tensor[(1, 3, 224, 89), int8] span=from_string:18:24 */, %x6: Tensor[(1, 3, 224, 32), int8] /* ty=Tensor[(1, 3, 224, 32), int8] span=from_string:21:24 */, %x7: Tensor[(1, 3, 224, 4), int8] /* ty=Tensor[(1, 3, 224, 4), int8] span=from_string:22:24 */, %x8: Tensor[(224), float32] /* ty=Tensor[(224), float32] span=from_string:33:45 */, %x9: Tensor[(224), float32] /* ty=Tensor[(224), float32] span=from_string:33:40 */, %x10: Tensor[(224), float32] /* ty=Tensor[(224), float32] span=from_string:33:34 */, %x11: Tensor[(224), float32] /* ty=Tensor[(224), float32] span=from_string:33:28 */) -> (Tensor[(1, 3, 224, 224), float16], Tensor[(1, 3, 224, 224), float32], Tensor[(1, 3, 224, 349), int8], Tensor[(1, 3, 224, 224), float32], Tensor[(3, 3, 3, 3), float32], Tensor[(1, 224, 3, 224), float32], Tensor[(1, 1, 3, 224, 224), int8]) {
  %0 = qnn.dequantize(%x0, 0.1f /* ty=float32 span=from_string:3:32 */, 0 /* ty=int32 span=from_string:3:74 */) /* ty=Tensor[(1, 3, 224, 224), float32] span=from_string:15:19 */;
  %1 = nn.softmax(%0) /* ty=Tensor[(1, 3, 224, 224), float32] span=from_string:38:14 */;
  let %x14: Tensor[(1, 3, 224, 224), float32] /* ty=Tensor[(1, 3, 224, 224), float32] span=from_string:8:12 */ = add(2f /* ty=float32 span=from_string:7:120 */, %1) /* ty=Tensor[(1, 3, 224, 224), float32] span=from_string:7:114 */;
  %2 = add(%x14, 1f /* ty=float32 span=from_string:8:20 */) /* ty=Tensor[(1, 3, 224, 224), float32] span=from_string:9:18 */;
  %3 = nn.conv2d(%2, %x2, padding=[1, 1, 1, 1], channels=3, kernel_size=[3, 3]) /* ty=Tensor[(1, 3, 224, 224), float32] span=from_string:11:12 */;
  %4 = add(1f /* ty=float32 span=from_string:10:14 */, %3) /* ty=Tensor[(1, 3, 224, 224), float32] span=from_string:11:16 */;
  %5 = add(%3, %4) /* ty=Tensor[(1, 3, 224, 224), float32] span=from_string:13:18 */;
  %6 = nn.conv2d(%5, %x3, padding=[0, 0, 0, 0], channels=3, kernel_size=[1, 1]) /* ty=Tensor[(1, 3, 224, 224), float32] span=from_string:39:13 */;
  %7 = nn.conv2d(%5, %x4, padding=[1, 1, 1, 1], channels=3, kernel_size=[3, 3]) /* ty=Tensor[(1, 3, 224, 224), float32] span=from_string:39:17 */;
  %8 = qnn.dequantize(%x1, 0.2f /* ty=float32 span=from_string:14:33 */, 0 /* ty=int32 span=from_string:14:76 */) /* ty=Tensor[(1, 3, 224, 224), float32] span=from_string:15:23 */;
  %9 = multiply(%0, %8) /* ty=Tensor[(1, 3, 224, 224), float32] span=from_string:29:26 */;
  %10 = qnn.quantize(%9, 20f /* ty=float32 span=from_string:16:30 */, 0 /* ty=int32 span=from_string:16:73 */, out_dtype="int8") /* ty=Tensor[(1, 3, 224, 224), int8] span=from_string:36:24 */;
  %11 = qnn.dequantize(%10, 0.5f /* ty=float32 span=from_string:17:33 */, 0 /* ty=int32 span=from_string:17:76 */) /* ty=Tensor[(1, 3, 224, 224), float32] span=from_string:19:10 */;
  %12 = qnn.dequantize(%x5, 1.5f /* ty=float32 span=from_string:18:33 */, 0 /* ty=int32 span=from_string:18:76 */) /* ty=Tensor[(1, 3, 224, 89), float32] span=from_string:19:15 */;
  %13 = (%11, %12) /* ty=(Tensor[(1, 3, 224, 224), float32], Tensor[(1, 3, 224, 89), float32]) span=from_string:20:21 */;
  %14 = concatenate(%13, axis=-1) /* ty=Tensor[(1, 3, 224, 313), float32] span=from_string:25:32 */;
  %15 = qnn.dequantize(%x6, 2.5f /* ty=float32 span=from_string:21:33 */, 0 /* ty=int32 span=from_string:21:76 */) /* ty=Tensor[(1, 3, 224, 32), float32] span=from_string:23:10 */;
  %16 = qnn.dequantize(%x7, 3.5f /* ty=float32 span=from_string:22:33 */, 0 /* ty=int32 span=from_string:22:76 */) /* ty=Tensor[(1, 3, 224, 4), float32] span=from_string:23:15 */;
  %17 = (%15, %16) /* ty=(Tensor[(1, 3, 224, 32), float32], Tensor[(1, 3, 224, 4), float32]) span=from_string:24:21 */;
  %18 = concatenate(%17, axis=-1) /* ty=Tensor[(1, 3, 224, 36), float32] span=from_string:26:32 */;
  %19 = annotation.stop_fusion(%14) /* ty=Tensor[(1, 3, 224, 313), float32] span=from_string:27:10 */;
  %20 = annotation.stop_fusion(%18) /* ty=Tensor[(1, 3, 224, 36), float32] span=from_string:27:15 */;
  %21 = (%19, %20) /* ty=(Tensor[(1, 3, 224, 313), float32], Tensor[(1, 3, 224, 36), float32]) span=from_string:28:21 */;
  %22 = concatenate(%21, axis=-1) /* ty=Tensor[(1, 3, 224, 349), float32] span=from_string:40:22 */;
  %23 = layout_transform(%9, src_layout="NHWC", dst_layout="NCHW4c") /* ty=Tensor[(1, 56, 3, 224, 4), float32] */;
  %24 = nn.relu(%23) /* ty=Tensor[(1, 56, 3, 224, 4), float32] span=from_string:32:26 */;
  %25 = layout_transform(%24, src_layout="NCHW4c", dst_layout="NCHW") /* ty=Tensor[(1, 224, 3, 224), float32] span=from_string:41:26 */;
  %26 = nn.batch_norm(%25, %x11, %x10, %x9, %x8) /* ty=(Tensor[(1, 224, 3, 224), float32], Tensor[(224), float32], Tensor[(224), float32]) span=from_string:35:9 */;
  %27 = %26.0 /* ty=Tensor[(1, 224, 3, 224), float32] span=from_string:43:13 */;
  %28 = %26.0 /* ty=Tensor[(1, 224, 3, 224), float32] span=from_string:43:18 */;
  %29 = qnn.dequantize(%10, 2f /* ty=float32 span=from_string:36:31 */, 0 /* ty=int32 span=from_string:36:74 */) /* ty=Tensor[(1, 3, 224, 224), float32] span=from_string:37:21 */;
  %30 = expand_dims(%29, axis=1) /* ty=Tensor[(1, 1, 3, 224, 224), float32] span=from_string:44:22 */;
  %31 = cast(%1, dtype="float16") /* ty=Tensor[(1, 3, 224, 224), float16] span=from_string:45:4 */;
  %32 = add(%6, %7) /* ty=Tensor[(1, 3, 224, 224), float32] span=from_string:45:9 */;
  %33 = qnn.quantize(%22, 3.5f /* ty=float32 span=from_string:40:31 */, 0 /* ty=int32 span=from_string:40:74 */, out_dtype="int8") /* ty=Tensor[(1, 3, 224, 349), int8] span=from_string:45:14 */;
  %34 = layout_transform(%25, src_layout="NCHW", dst_layout="NHWC") /* ty=Tensor[(1, 3, 224, 224), float32] span=from_string:45:19 */;
  %35 = add(2f /* ty=float32 span=from_string:42:15 */, %x4) /* ty=Tensor[(3, 3, 3, 3), float32] span=from_string:45:24 */;
  %36 = add(%27, %28) /* ty=Tensor[(1, 224, 3, 224), float32] span=from_string:45:29 */;
  %37 = qnn.quantize(%30, 2f /* ty=float32 span=from_string:44:29 */, 0 /* ty=int32 span=from_string:44:72 */, out_dtype="int8") /* ty=Tensor[(1, 1, 3, 224, 224), int8] span=from_string:45:34 */;
  (%31, %32, %33, %34, %35, %36, %37) /* ty=(Tensor[(1, 3, 224, 224), float16], Tensor[(1, 3, 224, 224), float32], Tensor[(1, 3, 224, 349), int8], Tensor[(1, 3, 224, 224), float32], Tensor[(3, 3, 3, 3), float32], Tensor[(1, 224, 3, 224), float32], Tensor[(1, 1, 3, 224, 224), int8]) span=from_string:45:3 */
}
