#[version = "0.0.5"]
def @main(%x0: Tensor[(1, 3, 224, 224), int8] /* ty=Tensor[(1, 3, 224, 224), int8] span=from_string:9:119 */, %x1: Tensor[(1, 3, 224, 224), int8] /* ty=Tensor[(1, 3, 224, 224), int8] span=from_string:65:121 */, %x2: Tensor[(3, 3, 3, 3), float32] /* ty=Tensor[(3, 3, 3, 3), float32] span=from_string:38:126 */, %x3: Tensor[(3, 3, 1, 1), float32] /* ty=Tensor[(3, 3, 1, 1), float32] span=from_string:51:128 */, %x4: Tensor[(3, 3, 3, 3), float32] /* ty=Tensor[(3, 3, 3, 3), float32] span=from_string:135:120 */, %x5: Tensor[(1, 3, 224, 89), int8] /* ty=Tensor[(1, 3, 224, 89), int8] span=from_string:87:119 */, %x6: Tensor[(1, 3, 224, 32), int8] /* ty=Tensor[(1, 3, 224, 32), int8] span=from_string:93:119 */, %x7: Tensor[(1, 3, 224, 4), int8] /* ty=Tensor[(1, 3, 224, 4), int8] span=from_string:99:117 */, %x8: Tensor[(224), float32] /* ty=Tensor[(224), float32] span=from_string:139:245 */, %x9: Tensor[(224), float32] /* ty=Tensor[(224), float32] span=from_string:139:240 */, %x10: Tensor[(224), float32] /* ty=Tensor[(224), float32] span=from_string:139:234 */, %x11: Tensor[(224), float32] /* ty=Tensor[(224), float32] span=from_string:139:228 */) -> (Tensor[(1, 3, 224, 224), float16], Tensor[(1, 3, 224, 224), float32], Tensor[(1, 3, 224, 349), int8], Tensor[(1, 3, 224, 224), float32], Tensor[(3, 3, 3, 3), float32], Tensor[(1, 224, 3, 224), float32], Tensor[(1, 1, 3, 224, 224), int8]) {
  %0 = fn (%p0: Tensor[(1, 3, 224, 224), int8] /* ty=Tensor[(1, 3, 224, 224), int8] span=from_string:7:20 */, %p1: float32 /* ty=float32 span=from_string:7:25 */, %p2: int32 /* ty=int32 span=from_string:7:30 */, Primitive=1) -> Tensor[(1, 3, 224, 224), float32] {
    qnn.dequantize(%p0, %p1, %p2) /* ty=Tensor[(1, 3, 224, 224), float32] span=from_string:7:5 */
  } /* ty=fn (Tensor[(1, 3, 224, 224), int8], float32, int32) -> Tensor[(1, 3, 224, 224), float32] */;
  let %x_3: Tensor[(1, 3, 224, 224), float32] /* ty=Tensor[(1, 3, 224, 224), float32] span=from_string:69:121 */ = %0(%x0, 0.1f /* ty=float32 span=from_string:4:67 */, 0 /* ty=int32 span=from_string:5:62 */) /* ty=Tensor[(1, 3, 224, 224), float32] span=from_string:9:116 */;
  %1 = fn (%p01: Tensor[(1, 3, 224, 224), float32] /* ty=Tensor[(1, 3, 224, 224), float32] span=from_string:11:16 */, Primitive=1) -> Tensor[(1, 3, 224, 224), float32] {
    nn.softmax(%p01) /* ty=Tensor[(1, 3, 224, 224), float32] span=from_string:11:5 */
  } /* ty=fn (Tensor[(1, 3, 224, 224), float32]) -> Tensor[(1, 3, 224, 224), float32] */;
  let %x_4: Tensor[(1, 3, 224, 224), float32] /* ty=Tensor[(1, 3, 224, 224), float32] span=from_string:29:119 */ = %1(%x_3) /* ty=Tensor[(1, 3, 224, 224), float32] span=from_string:13:116 */;
  %2 = fn (Primitive=1) -> Tensor[(1), float32] {
    zeros(shape=[1], dtype="float32") /* ty=Tensor[(1), float32] span=from_string:15:5 */
  } /* ty=fn () -> Tensor[(1), float32] */;
  let %x_5: Tensor[(1), float32] /* ty=Tensor[(1), float32] span=from_string:21:125 */ = %2() /* ty=Tensor[(1), float32] span=from_string:17:89 */;
  %3 = fn (%p02: Tensor[(1, 3, 224, 224), float32] /* ty=Tensor[(1, 3, 224, 224), float32] span=from_string:19:9 */, %p11: Tensor[(1), float32] /* ty=Tensor[(1), float32] span=from_string:19:15 */, Primitive=1) -> Tensor[(1, 3, 224, 224), float32] {
    add(%p02, %p11) /* ty=Tensor[(1, 3, 224, 224), float32] span=from_string:19:5 */
  } /* ty=fn (Tensor[(1, 3, 224, 224), float32], Tensor[(1), float32]) -> Tensor[(1, 3, 224, 224), float32] */;
  let %x_6: Tensor[(1, 3, 224, 224), float32] /* ty=Tensor[(1, 3, 224, 224), float32] span=from_string:25:125 */ = %3(%x_4, %x_5) /* ty=Tensor[(1, 3, 224, 224), float32] span=from_string:21:116 */;
  %4 = fn (%p03: float32 /* ty=float32 span=from_string:23:9 */, %p12: Tensor[(1, 3, 224, 224), float32] /* ty=Tensor[(1, 3, 224, 224), float32] span=from_string:23:15 */, Primitive=1) -> Tensor[(1, 3, 224, 224), float32] {
    add(%p03, %p12) /* ty=Tensor[(1, 3, 224, 224), float32] span=from_string:23:5 */
  } /* ty=fn (float32, Tensor[(1, 3, 224, 224), float32]) -> Tensor[(1, 3, 224, 224), float32] */;
  let %x14: Tensor[(1, 3, 224, 224), float32] /* ty=Tensor[(1, 3, 224, 224), float32] span=from_string:34:119 */ = %4(2f /* ty=float32 span=from_string:3:66 */, %x_6) /* ty=Tensor[(1, 3, 224, 224), float32] span=from_string:25:116 */;
  %5 = fn (%p04: Tensor[(1, 3, 224, 224), float32] /* ty=Tensor[(1, 3, 224, 224), float32] span=from_string:27:10 */, Primitive=1) -> Tensor[(1, 3, 224, 224), float16] {
    cast(%p04, dtype="float16") /* ty=Tensor[(1, 3, 224, 224), float16] span=from_string:27:5 */
  } /* ty=fn (Tensor[(1, 3, 224, 224), float32]) -> Tensor[(1, 3, 224, 224), float16] */;
  let %x_7: Tensor[(1, 3, 224, 224), float16] /* ty=Tensor[(1, 3, 224, 224), float16] span=from_string:162:532 */ = %5(%x_4) /* ty=Tensor[(1, 3, 224, 224), float16] span=from_string:29:116 */;
  %6 = fn (%p05: Tensor[(1, 3, 224, 224), float32] /* ty=Tensor[(1, 3, 224, 224), float32] span=from_string:32:9 */, %p13: float32 /* ty=float32 span=from_string:32:15 */, Primitive=1) -> Tensor[(1, 3, 224, 224), float32] {
    add(%p05, %p13) /* ty=Tensor[(1, 3, 224, 224), float32] span=from_string:32:5 */
  } /* ty=fn (Tensor[(1, 3, 224, 224), float32], float32) -> Tensor[(1, 3, 224, 224), float32] */;
  let %x_9: Tensor[(1, 3, 224, 224), float32] /* ty=Tensor[(1, 3, 224, 224), float32] span=from_string:38:120 */ = %6(%x14, 1f /* ty=float32 span=from_string:30:66 */) /* ty=Tensor[(1, 3, 224, 224), float32] span=from_string:34:116 */;
  %7 = fn (%p06: Tensor[(1, 3, 224, 224), float32] /* ty=Tensor[(1, 3, 224, 224), float32] span=from_string:36:15 */, %p14: Tensor[(3, 3, 3, 3), float32] /* ty=Tensor[(3, 3, 3, 3), float32] span=from_string:36:21 */, Primitive=1) -> Tensor[(1, 3, 224, 224), float32] {
    nn.conv2d(%p06, %p14, padding=[1, 1, 1, 1], channels=3, kernel_size=[3, 3]) /* ty=Tensor[(1, 3, 224, 224), float32] span=from_string:36:5 */
  } /* ty=fn (Tensor[(1, 3, 224, 224), float32], Tensor[(3, 3, 3, 3), float32]) -> Tensor[(1, 3, 224, 224), float32] */;
  let %x_10: Tensor[(1, 3, 224, 224), float32] /* ty=Tensor[(1, 3, 224, 224), float32] span=from_string:47:120 */ = %7(%x_9, %x2) /* ty=Tensor[(1, 3, 224, 224), float32] span=from_string:38:117 */;
  %8 = fn (%p07: float32 /* ty=float32 span=from_string:41:9 */, %p15: Tensor[(1, 3, 224, 224), float32] /* ty=Tensor[(1, 3, 224, 224), float32] span=from_string:41:15 */, Primitive=1) -> Tensor[(1, 3, 224, 224), float32] {
    add(%p07, %p15) /* ty=Tensor[(1, 3, 224, 224), float32] span=from_string:41:5 */
  } /* ty=fn (float32, Tensor[(1, 3, 224, 224), float32]) -> Tensor[(1, 3, 224, 224), float32] */;
  let %x_12: Tensor[(1, 3, 224, 224), float32] /* ty=Tensor[(1, 3, 224, 224), float32] span=from_string:47:127 */ = %8(1f /* ty=float32 span=from_string:39:67 */, %x_10) /* ty=Tensor[(1, 3, 224, 224), float32] span=from_string:43:117 */;
  %9 = fn (%p08: Tensor[(1, 3, 224, 224), float32] /* ty=Tensor[(1, 3, 224, 224), float32] span=from_string:45:9 */, %p16: Tensor[(1, 3, 224, 224), float32] /* ty=Tensor[(1, 3, 224, 224), float32] span=from_string:45:15 */, Primitive=1) -> Tensor[(1, 3, 224, 224), float32] {
    add(%p08, %p16) /* ty=Tensor[(1, 3, 224, 224), float32] span=from_string:45:5 */
  } /* ty=fn (Tensor[(1, 3, 224, 224), float32], Tensor[(1, 3, 224, 224), float32]) -> Tensor[(1, 3, 224, 224), float32] */;
  let %x_13: Tensor[(1, 3, 224, 224), float32] /* ty=Tensor[(1, 3, 224, 224), float32] span=from_string:55:121 */ = %9(%x_10, %x_12) /* ty=Tensor[(1, 3, 224, 224), float32] span=from_string:47:117 */;
  %10 = fn (%p09: Tensor[(1, 3, 224, 224), float32] /* ty=Tensor[(1, 3, 224, 224), float32] span=from_string:49:15 */, %p17: Tensor[(3, 3, 1, 1), float32] /* ty=Tensor[(3, 3, 1, 1), float32] span=from_string:49:21 */, Primitive=1) -> Tensor[(1, 3, 224, 224), float32] {
    nn.conv2d(%p09, %p17, padding=[0, 0, 0, 0], channels=3, kernel_size=[1, 1]) /* ty=Tensor[(1, 3, 224, 224), float32] span=from_string:49:5 */
  } /* ty=fn (Tensor[(1, 3, 224, 224), float32], Tensor[(3, 3, 1, 1), float32]) -> Tensor[(1, 3, 224, 224), float32] */;
  let %x_14: Tensor[(1, 3, 224, 224), float32] /* ty=Tensor[(1, 3, 224, 224), float32] span=from_string:59:121 */ = %10(%x_13, %x3) /* ty=Tensor[(1, 3, 224, 224), float32] span=from_string:51:117 */;
  %11 = fn (%p010: Tensor[(1, 3, 224, 224), float32] /* ty=Tensor[(1, 3, 224, 224), float32] span=from_string:53:15 */, %p18: Tensor[(3, 3, 3, 3), float32] /* ty=Tensor[(3, 3, 3, 3), float32] span=from_string:53:22 */, Primitive=1) -> Tensor[(1, 3, 224, 224), float32] {
    nn.conv2d(%p010, %p18, padding=[1, 1, 1, 1], channels=3, kernel_size=[3, 3]) /* ty=Tensor[(1, 3, 224, 224), float32] span=from_string:53:5 */
  } /* ty=fn (Tensor[(1, 3, 224, 224), float32], Tensor[(3, 3, 3, 3), float32]) -> Tensor[(1, 3, 224, 224), float32] */;
  let %x_15: Tensor[(1, 3, 224, 224), float32] /* ty=Tensor[(1, 3, 224, 224), float32] span=from_string:59:128 */ = %11(%x_13, %x4) /* ty=Tensor[(1, 3, 224, 224), float32] span=from_string:55:117 */;
  %12 = fn (%p011: Tensor[(1, 3, 224, 224), float32] /* ty=Tensor[(1, 3, 224, 224), float32] span=from_string:57:9 */, %p19: Tensor[(1, 3, 224, 224), float32] /* ty=Tensor[(1, 3, 224, 224), float32] span=from_string:57:16 */, Primitive=1) -> Tensor[(1, 3, 224, 224), float32] {
    add(%p011, %p19) /* ty=Tensor[(1, 3, 224, 224), float32] span=from_string:57:5 */
  } /* ty=fn (Tensor[(1, 3, 224, 224), float32], Tensor[(1, 3, 224, 224), float32]) -> Tensor[(1, 3, 224, 224), float32] */;
  let %x_16: Tensor[(1, 3, 224, 224), float32] /* ty=Tensor[(1, 3, 224, 224), float32] span=from_string:162:538 */ = %12(%x_14, %x_15) /* ty=Tensor[(1, 3, 224, 224), float32] span=from_string:59:117 */;
  %13 = fn (%p012: Tensor[(1, 3, 224, 224), int8] /* ty=Tensor[(1, 3, 224, 224), int8] span=from_string:63:20 */, %p110: float32 /* ty=float32 span=from_string:63:27 */, %p21: int32 /* ty=int32 span=from_string:63:34 */, Primitive=1) -> Tensor[(1, 3, 224, 224), float32] {
    qnn.dequantize(%p012, %p110, %p21) /* ty=Tensor[(1, 3, 224, 224), float32] span=from_string:63:5 */
  } /* ty=fn (Tensor[(1, 3, 224, 224), int8], float32, int32) -> Tensor[(1, 3, 224, 224), float32] */;
  let %x_19: Tensor[(1, 3, 224, 224), float32] /* ty=Tensor[(1, 3, 224, 224), float32] span=from_string:69:127 */ = %13(%x1, 0.2f /* ty=float32 span=from_string:60:69 */, 0 /* ty=int32 span=from_string:61:64 */) /* ty=Tensor[(1, 3, 224, 224), float32] span=from_string:65:117 */;
  %14 = fn (%p013: Tensor[(1, 3, 224, 224), float32] /* ty=Tensor[(1, 3, 224, 224), float32] span=from_string:67:15 */, %p111: Tensor[(1, 3, 224, 224), float32] /* ty=Tensor[(1, 3, 224, 224), float32] span=from_string:67:22 */, Primitive=1) -> Tensor[(1, 3, 224, 224), float32] {
    multiply(%p013, %p111) /* ty=Tensor[(1, 3, 224, 224), float32] span=from_string:67:6 */
  } /* ty=fn (Tensor[(1, 3, 224, 224), float32], Tensor[(1, 3, 224, 224), float32]) -> Tensor[(1, 3, 224, 224), float32] */;
  let %x_20: Tensor[(1, 3, 224, 224), float32] /* ty=Tensor[(1, 3, 224, 224), float32] span=from_string:114:121 */ = %14(%x_3, %x_19) /* ty=Tensor[(1, 3, 224, 224), float32] span=from_string:69:117 */;
  %15 = fn (%p014: Tensor[(1, 3, 224, 224), float32] /* ty=Tensor[(1, 3, 224, 224), float32] span=from_string:73:18 */, %p112: float32 /* ty=float32 span=from_string:73:25 */, %p22: int32 /* ty=int32 span=from_string:73:32 */, Primitive=1) -> Tensor[(1, 3, 224, 224), int8] {
    qnn.quantize(%p014, %p112, %p22, out_dtype="int8") /* ty=Tensor[(1, 3, 224, 224), int8] span=from_string:73:5 */
  } /* ty=fn (Tensor[(1, 3, 224, 224), float32], float32, int32) -> Tensor[(1, 3, 224, 224), int8] */;
  let %x_23: Tensor[(1, 3, 224, 224), int8] /* ty=Tensor[(1, 3, 224, 224), int8] span=from_string:151:121 */ = %15(%x_20, 20f /* ty=float32 span=from_string:70:68 */, 0 /* ty=int32 span=from_string:71:64 */) /* ty=Tensor[(1, 3, 224, 224), int8] span=from_string:75:113 */;
  %16 = fn (%p015: Tensor[(1, 3, 224, 224), int8] /* ty=Tensor[(1, 3, 224, 224), int8] span=from_string:79:20 */, %p113: float32 /* ty=float32 span=from_string:79:27 */, %p23: int32 /* ty=int32 span=from_string:79:34 */, Primitive=1) -> Tensor[(1, 3, 224, 224), float32] {
    qnn.dequantize(%p015, %p113, %p23) /* ty=Tensor[(1, 3, 224, 224), float32] span=from_string:79:5 */
  } /* ty=fn (Tensor[(1, 3, 224, 224), int8], float32, int32) -> Tensor[(1, 3, 224, 224), float32] */;
  let %x_26: Tensor[(1, 3, 224, 224), float32] /* ty=Tensor[(1, 3, 224, 224), float32] span=from_string:100:324 */ = %16(%x_23, 0.5f /* ty=float32 span=from_string:76:69 */, 0 /* ty=int32 span=from_string:77:64 */) /* ty=Tensor[(1, 3, 224, 224), float32] span=from_string:81:117 */;
  %17 = fn (%p016: Tensor[(1, 3, 224, 89), int8] /* ty=Tensor[(1, 3, 224, 89), int8] span=from_string:85:20 */, %p114: float32 /* ty=float32 span=from_string:85:27 */, %p24: int32 /* ty=int32 span=from_string:85:34 */, Primitive=1) -> Tensor[(1, 3, 224, 89), float32] {
    qnn.dequantize(%p016, %p114, %p24) /* ty=Tensor[(1, 3, 224, 89), float32] span=from_string:85:5 */
  } /* ty=fn (Tensor[(1, 3, 224, 89), int8], float32, int32) -> Tensor[(1, 3, 224, 89), float32] */;
  let %x_29: Tensor[(1, 3, 224, 89), float32] /* ty=Tensor[(1, 3, 224, 89), float32] span=from_string:100:331 */ = %17(%x5, 1.5f /* ty=float32 span=from_string:82:69 */, 0 /* ty=int32 span=from_string:83:64 */) /* ty=Tensor[(1, 3, 224, 89), float32] span=from_string:87:115 */;
  %18 = fn (%p017: Tensor[(1, 3, 224, 32), int8] /* ty=Tensor[(1, 3, 224, 32), int8] span=from_string:91:20 */, %p115: float32 /* ty=float32 span=from_string:91:27 */, %p25: int32 /* ty=int32 span=from_string:91:34 */, Primitive=1) -> Tensor[(1, 3, 224, 32), float32] {
    qnn.dequantize(%p017, %p115, %p25) /* ty=Tensor[(1, 3, 224, 32), float32] span=from_string:91:5 */
  } /* ty=fn (Tensor[(1, 3, 224, 32), int8], float32, int32) -> Tensor[(1, 3, 224, 32), float32] */;
  let %x_32: Tensor[(1, 3, 224, 32), float32] /* ty=Tensor[(1, 3, 224, 32), float32] span=from_string:100:338 */ = %18(%x6, 2.5f /* ty=float32 span=from_string:88:69 */, 0 /* ty=int32 span=from_string:89:64 */) /* ty=Tensor[(1, 3, 224, 32), float32] span=from_string:93:115 */;
  %19 = fn (%p018: Tensor[(1, 3, 224, 4), int8] /* ty=Tensor[(1, 3, 224, 4), int8] span=from_string:97:20 */, %p116: float32 /* ty=float32 span=from_string:97:27 */, %p26: int32 /* ty=int32 span=from_string:97:34 */, Primitive=1) -> Tensor[(1, 3, 224, 4), float32] {
    qnn.dequantize(%p018, %p116, %p26) /* ty=Tensor[(1, 3, 224, 4), float32] span=from_string:97:5 */
  } /* ty=fn (Tensor[(1, 3, 224, 4), int8], float32, int32) -> Tensor[(1, 3, 224, 4), float32] */;
  let %x_35: Tensor[(1, 3, 224, 4), float32] /* ty=Tensor[(1, 3, 224, 4), float32] span=from_string:100:345 */ = %19(%x7, 3.5f /* ty=float32 span=from_string:94:69 */, 0 /* ty=int32 span=from_string:95:64 */) /* ty=Tensor[(1, 3, 224, 4), float32] span=from_string:99:113 */;
  let %x_36: (Tensor[(1, 3, 224, 224), float32], Tensor[(1, 3, 224, 89), float32], Tensor[(1, 3, 224, 32), float32], Tensor[(1, 3, 224, 4), float32]) /* ty=(Tensor[(1, 3, 224, 224), float32], Tensor[(1, 3, 224, 89), float32], Tensor[(1, 3, 224, 32), float32], Tensor[(1, 3, 224, 4), float32]) span=from_string:104:121 */ = (%x_26, %x_29, %x_32, %x_35) /* ty=(Tensor[(1, 3, 224, 224), float32], Tensor[(1, 3, 224, 89), float32], Tensor[(1, 3, 224, 32), float32], Tensor[(1, 3, 224, 4), float32]) span=from_string:100:323 */;
  %20 = fn (%p019: (Tensor[(1, 3, 224, 224), float32], Tensor[(1, 3, 224, 89), float32], Tensor[(1, 3, 224, 32), float32], Tensor[(1, 3, 224, 4), float32]) /* ty=(Tensor[(1, 3, 224, 224), float32], Tensor[(1, 3, 224, 89), float32], Tensor[(1, 3, 224, 32), float32], Tensor[(1, 3, 224, 4), float32]) span=from_string:102:17 */, Primitive=1) -> Tensor[(1, 3, 224, 349), float32] {
    concatenate(%p019, axis=-1) /* ty=Tensor[(1, 3, 224, 349), float32] span=from_string:102:5 */
  } /* ty=fn ((Tensor[(1, 3, 224, 224), float32], Tensor[(1, 3, 224, 89), float32], Tensor[(1, 3, 224, 32), float32], Tensor[(1, 3, 224, 4), float32])) -> Tensor[(1, 3, 224, 349), float32] */;
  let %x_37: Tensor[(1, 3, 224, 349), float32] /* ty=Tensor[(1, 3, 224, 349), float32] span=from_string:110:117 */ = %20(%x_36) /* ty=Tensor[(1, 3, 224, 349), float32] span=from_string:104:117 */;
  %21 = fn (%p020: Tensor[(1, 3, 224, 349), float32] /* ty=Tensor[(1, 3, 224, 349), float32] span=from_string:108:18 */, %p117: float32 /* ty=float32 span=from_string:108:25 */, %p27: int32 /* ty=int32 span=from_string:108:32 */, Primitive=1) -> Tensor[(1, 3, 224, 349), int8] {
    qnn.quantize(%p020, %p117, %p27, out_dtype="int8") /* ty=Tensor[(1, 3, 224, 349), int8] span=from_string:108:5 */
  } /* ty=fn (Tensor[(1, 3, 224, 349), float32], float32, int32) -> Tensor[(1, 3, 224, 349), int8] */;
  let %x_40: Tensor[(1, 3, 224, 349), int8] /* ty=Tensor[(1, 3, 224, 349), int8] span=from_string:162:545 */ = %21(%x_37, 3.5f /* ty=float32 span=from_string:105:69 */, 0 /* ty=int32 span=from_string:106:64 */) /* ty=Tensor[(1, 3, 224, 349), int8] span=from_string:110:113 */;
  %22 = fn (%p021: Tensor[(1, 3, 224, 224), float32] /* ty=Tensor[(1, 3, 224, 224), float32] span=from_string:112:22 */, Primitive=1) -> Tensor[(1, 224, 3, 224), float32] {
    layout_transform(%p021, src_layout="NHWC", dst_layout="NCHW") /* ty=Tensor[(1, 224, 3, 224), float32] span=from_string:112:5 */
  } /* ty=fn (Tensor[(1, 3, 224, 224), float32]) -> Tensor[(1, 224, 3, 224), float32] */;
  let %x_41: Tensor[(1, 224, 3, 224), float32] /* ty=Tensor[(1, 224, 3, 224), float32] span=from_string:118:125 */ = %22(%x_20) /* ty=Tensor[(1, 224, 3, 224), float32] span=from_string:114:117 */;
  %23 = fn (%p022: Tensor[(1, 224, 3, 224), float32] /* ty=Tensor[(1, 224, 3, 224), float32] span=from_string:116:22 */, Primitive=1) -> Tensor[(1, 56, 3, 224, 4), float32] {
    layout_transform(%p022, src_layout="NCHW", dst_layout="NCHW4c") /* ty=Tensor[(1, 56, 3, 224, 4), float32] span=from_string:116:5 */
  } /* ty=fn (Tensor[(1, 224, 3, 224), float32]) -> Tensor[(1, 56, 3, 224, 4), float32] */;
  let %x_42: Tensor[(1, 56, 3, 224, 4), float32] /* ty=Tensor[(1, 56, 3, 224, 4), float32] span=from_string:122:125 */ = %23(%x_41) /* ty=Tensor[(1, 56, 3, 224, 4), float32] span=from_string:118:121 */;
  %24 = fn (%p023: Tensor[(1, 56, 3, 224, 4), float32] /* ty=Tensor[(1, 56, 3, 224, 4), float32] span=from_string:120:13 */, Primitive=1) -> Tensor[(1, 56, 3, 224, 4), float32] {
    nn.relu(%p023) /* ty=Tensor[(1, 56, 3, 224, 4), float32] span=from_string:120:5 */
  } /* ty=fn (Tensor[(1, 56, 3, 224, 4), float32]) -> Tensor[(1, 56, 3, 224, 4), float32] */;
  let %x_43: Tensor[(1, 56, 3, 224, 4), float32] /* ty=Tensor[(1, 56, 3, 224, 4), float32] span=from_string:126:121 */ = %24(%x_42) /* ty=Tensor[(1, 56, 3, 224, 4), float32] span=from_string:122:121 */;
  %25 = fn (%p024: Tensor[(1, 56, 3, 224, 4), float32] /* ty=Tensor[(1, 56, 3, 224, 4), float32] span=from_string:124:22 */, Primitive=1) -> Tensor[(1, 224, 3, 224), float32] {
    layout_transform(%p024, src_layout="NCHW4c", dst_layout="NCHW") /* ty=Tensor[(1, 224, 3, 224), float32] span=from_string:124:5 */
  } /* ty=fn (Tensor[(1, 56, 3, 224, 4), float32]) -> Tensor[(1, 224, 3, 224), float32] */;
  let %x_44: Tensor[(1, 224, 3, 224), float32] /* ty=Tensor[(1, 224, 3, 224), float32] span=from_string:139:221 */ = %25(%x_43) /* ty=Tensor[(1, 224, 3, 224), float32] span=from_string:126:117 */;
  %26 = fn (%p025: Tensor[(1, 224, 3, 224), float32] /* ty=Tensor[(1, 224, 3, 224), float32] span=from_string:128:22 */, Primitive=1) -> Tensor[(1, 3, 224, 224), float32] {
    layout_transform(%p025, src_layout="NCHW", dst_layout="NHWC") /* ty=Tensor[(1, 3, 224, 224), float32] span=from_string:128:5 */
  } /* ty=fn (Tensor[(1, 224, 3, 224), float32]) -> Tensor[(1, 3, 224, 224), float32] */;
  let %x_45: Tensor[(1, 3, 224, 224), float32] /* ty=Tensor[(1, 3, 224, 224), float32] span=from_string:162:552 */ = %26(%x_44) /* ty=Tensor[(1, 3, 224, 224), float32] span=from_string:130:117 */;
  %27 = fn (%p026: float32 /* ty=float32 span=from_string:133:9 */, %p118: Tensor[(3, 3, 3, 3), float32] /* ty=Tensor[(3, 3, 3, 3), float32] span=from_string:133:16 */, Primitive=1) -> Tensor[(3, 3, 3, 3), float32] {
    add(%p026, %p118) /* ty=Tensor[(3, 3, 3, 3), float32] span=from_string:133:5 */
  } /* ty=fn (float32, Tensor[(3, 3, 3, 3), float32]) -> Tensor[(3, 3, 3, 3), float32] */;
  let %x_47: Tensor[(3, 3, 3, 3), float32] /* ty=Tensor[(3, 3, 3, 3), float32] span=from_string:162:559 */ = %27(2f /* ty=float32 span=from_string:131:67 */, %x4) /* ty=Tensor[(3, 3, 3, 3), float32] span=from_string:135:109 */;
  %28 = fn (%p027: Tensor[(1, 224, 3, 224), float32] /* ty=Tensor[(1, 224, 3, 224), float32] span=from_string:137:19 */, %p119: Tensor[(224), float32] /* ty=Tensor[(224), float32] span=from_string:137:26 */, %p28: Tensor[(224), float32] /* ty=Tensor[(224), float32] span=from_string:137:33 */, %p3: Tensor[(224), float32] /* ty=Tensor[(224), float32] span=from_string:137:39 */, %p4: Tensor[(224), float32] /* ty=Tensor[(224), float32] span=from_string:137:44 */, Primitive=1) -> (Tensor[(1, 224, 3, 224), float32], Tensor[(224), float32], Tensor[(224), float32]) {
    nn.batch_norm(%p027, %p119, %p28, %p3, %p4) /* ty=(Tensor[(1, 224, 3, 224), float32], Tensor[(224), float32], Tensor[(224), float32]) span=from_string:137:5 */
  } /* ty=fn (Tensor[(1, 224, 3, 224), float32], Tensor[(224), float32], Tensor[(224), float32], Tensor[(224), float32], Tensor[(224), float32]) -> (Tensor[(1, 224, 3, 224), float32], Tensor[(224), float32], Tensor[(224), float32]) */;
  let %x_48: (Tensor[(1, 224, 3, 224), float32], Tensor[(224), float32], Tensor[(224), float32]) /* ty=(Tensor[(1, 224, 3, 224), float32], Tensor[(224), float32], Tensor[(224), float32]) span=from_string:141:117 */ = %28(%x_44, %x11, %x10, %x9, %x8) /* ty=(Tensor[(1, 224, 3, 224), float32], Tensor[(224), float32], Tensor[(224), float32]) span=from_string:139:217 */;
  let %x_49: Tensor[(1, 224, 3, 224), float32] /* ty=Tensor[(1, 224, 3, 224), float32] span=from_string:145:121 */ = %x_48.0 /* ty=Tensor[(1, 224, 3, 224), float32] span=from_string:140:117 */;
  let %x_50: Tensor[(1, 224, 3, 224), float32] /* ty=Tensor[(1, 224, 3, 224), float32] span=from_string:145:128 */ = %x_48.0 /* ty=Tensor[(1, 224, 3, 224), float32] span=from_string:141:117 */;
  %29 = fn (%p028: Tensor[(1, 224, 3, 224), float32] /* ty=Tensor[(1, 224, 3, 224), float32] span=from_string:143:9 */, %p120: Tensor[(1, 224, 3, 224), float32] /* ty=Tensor[(1, 224, 3, 224), float32] span=from_string:143:16 */, Primitive=1) -> Tensor[(1, 224, 3, 224), float32] {
    add(%p028, %p120) /* ty=Tensor[(1, 224, 3, 224), float32] span=from_string:143:5 */
  } /* ty=fn (Tensor[(1, 224, 3, 224), float32], Tensor[(1, 224, 3, 224), float32]) -> Tensor[(1, 224, 3, 224), float32] */;
  let %x_51: Tensor[(1, 224, 3, 224), float32] /* ty=Tensor[(1, 224, 3, 224), float32] span=from_string:162:566 */ = %29(%x_49, %x_50) /* ty=Tensor[(1, 224, 3, 224), float32] span=from_string:145:117 */;
  %30 = fn (%p029: Tensor[(1, 3, 224, 224), int8] /* ty=Tensor[(1, 3, 224, 224), int8] span=from_string:149:20 */, %p121: float32 /* ty=float32 span=from_string:149:27 */, %p29: int32 /* ty=int32 span=from_string:149:34 */, Primitive=1) -> Tensor[(1, 3, 224, 224), float32] {
    qnn.dequantize(%p029, %p121, %p29) /* ty=Tensor[(1, 3, 224, 224), float32] span=from_string:149:5 */
  } /* ty=fn (Tensor[(1, 3, 224, 224), int8], float32, int32) -> Tensor[(1, 3, 224, 224), float32] */;
  let %x_54: Tensor[(1, 3, 224, 224), float32] /* ty=Tensor[(1, 3, 224, 224), float32] span=from_string:155:127 */ = %30(%x_23, 2f /* ty=float32 span=from_string:146:67 */, 0 /* ty=int32 span=from_string:147:64 */) /* ty=Tensor[(1, 3, 224, 224), float32] span=from_string:151:117 */;
  %31 = fn (%p030: Tensor[(1, 3, 224, 224), float32] /* ty=Tensor[(1, 3, 224, 224), float32] span=from_string:153:17 */, Primitive=1, relay.reshape_only=1) -> Tensor[(1, 1, 3, 224, 224), float32] {
    expand_dims(%p030, axis=1) /* ty=Tensor[(1, 1, 3, 224, 224), float32] span=from_string:153:5 */
  } /* ty=fn (Tensor[(1, 3, 224, 224), float32]) -> Tensor[(1, 1, 3, 224, 224), float32] */;
  let %x_55: Tensor[(1, 1, 3, 224, 224), float32] /* ty=Tensor[(1, 1, 3, 224, 224), float32] span=from_string:161:123 */ = %31(%x_54) /* ty=Tensor[(1, 1, 3, 224, 224), float32] span=from_string:155:123 */;
  %32 = fn (%p031: Tensor[(1, 1, 3, 224, 224), float32] /* ty=Tensor[(1, 1, 3, 224, 224), float32] span=from_string:159:18 */, %p122: float32 /* ty=float32 span=from_string:159:25 */, %p210: int32 /* ty=int32 span=from_string:159:32 */, Primitive=1) -> Tensor[(1, 1, 3, 224, 224), int8] {
    qnn.quantize(%p031, %p122, %p210, out_dtype="int8") /* ty=Tensor[(1, 1, 3, 224, 224), int8] span=from_string:159:5 */
  } /* ty=fn (Tensor[(1, 1, 3, 224, 224), float32], float32, int32) -> Tensor[(1, 1, 3, 224, 224), int8] */;
  let %x_58: Tensor[(1, 1, 3, 224, 224), int8] /* ty=Tensor[(1, 1, 3, 224, 224), int8] span=from_string:162:573 */ = %32(%x_55, 2f /* ty=float32 span=from_string:156:67 */, 0 /* ty=int32 span=from_string:157:64 */) /* ty=Tensor[(1, 1, 3, 224, 224), int8] span=from_string:161:119 */;
  let %x_59: (Tensor[(1, 3, 224, 224), float16], Tensor[(1, 3, 224, 224), float32], Tensor[(1, 3, 224, 349), int8], Tensor[(1, 3, 224, 224), float32], Tensor[(3, 3, 3, 3), float32], Tensor[(1, 224, 3, 224), float32], Tensor[(1, 1, 3, 224, 224), int8]) /* ty=(Tensor[(1, 3, 224, 224), float16], Tensor[(1, 3, 224, 224), float32], Tensor[(1, 3, 224, 349), int8], Tensor[(1, 3, 224, 224), float32], Tensor[(3, 3, 3, 3), float32], Tensor[(1, 224, 3, 224), float32], Tensor[(1, 1, 3, 224, 224), int8]) span=from_string:163:530 */ = (%x_7, %x_16, %x_40, %x_45, %x_47, %x_51, %x_58) /* ty=(Tensor[(1, 3, 224, 224), float16], Tensor[(1, 3, 224, 224), float32], Tensor[(1, 3, 224, 349), int8], Tensor[(1, 3, 224, 224), float32], Tensor[(3, 3, 3, 3), float32], Tensor[(1, 224, 3, 224), float32], Tensor[(1, 1, 3, 224, 224), int8]) span=from_string:162:531 */;
  let %x_60: (Tensor[(1, 3, 224, 224), float16], Tensor[(1, 3, 224, 224), float32], Tensor[(1, 3, 224, 349), int8], Tensor[(1, 3, 224, 224), float32], Tensor[(3, 3, 3, 3), float32], Tensor[(1, 224, 3, 224), float32], Tensor[(1, 1, 3, 224, 224), int8]) /* ty=(Tensor[(1, 3, 224, 224), float16], Tensor[(1, 3, 224, 224), float32], Tensor[(1, 3, 224, 349), int8], Tensor[(1, 3, 224, 224), float32], Tensor[(3, 3, 3, 3), float32], Tensor[(1, 224, 3, 224), float32], Tensor[(1, 1, 3, 224, 224), int8]) span=from_string:164:530 */ = %x_59;
  let %x_01: (Tensor[(1, 3, 224, 224), float16], Tensor[(1, 3, 224, 224), float32], Tensor[(1, 3, 224, 349), int8], Tensor[(1, 3, 224, 224), float32], Tensor[(3, 3, 3, 3), float32], Tensor[(1, 224, 3, 224), float32], Tensor[(1, 1, 3, 224, 224), int8]) /* ty=(Tensor[(1, 3, 224, 224), float16], Tensor[(1, 3, 224, 224), float32], Tensor[(1, 3, 224, 349), int8], Tensor[(1, 3, 224, 224), float32], Tensor[(3, 3, 3, 3), float32], Tensor[(1, 224, 3, 224), float32], Tensor[(1, 1, 3, 224, 224), int8]) span=from_string:165:531 */ = %x_60;
  let %x_110: (Tensor[(1, 3, 224, 224), float16], Tensor[(1, 3, 224, 224), float32], Tensor[(1, 3, 224, 349), int8], Tensor[(1, 3, 224, 224), float32], Tensor[(3, 3, 3, 3), float32], Tensor[(1, 224, 3, 224), float32], Tensor[(1, 1, 3, 224, 224), int8]) /* ty=(Tensor[(1, 3, 224, 224), float16], Tensor[(1, 3, 224, 224), float32], Tensor[(1, 3, 224, 349), int8], Tensor[(1, 3, 224, 224), float32], Tensor[(3, 3, 3, 3), float32], Tensor[(1, 224, 3, 224), float32], Tensor[(1, 1, 3, 224, 224), int8]) span=from_string:166:531 */ = %x_01;
  let %x_210: (Tensor[(1, 3, 224, 224), float16], Tensor[(1, 3, 224, 224), float32], Tensor[(1, 3, 224, 349), int8], Tensor[(1, 3, 224, 224), float32], Tensor[(3, 3, 3, 3), float32], Tensor[(1, 224, 3, 224), float32], Tensor[(1, 1, 3, 224, 224), int8]) /* ty=(Tensor[(1, 3, 224, 224), float16], Tensor[(1, 3, 224, 224), float32], Tensor[(1, 3, 224, 349), int8], Tensor[(1, 3, 224, 224), float32], Tensor[(3, 3, 3, 3), float32], Tensor[(1, 224, 3, 224), float32], Tensor[(1, 1, 3, 224, 224), int8]) span=from_string:167:531 */ = %x_110;
  let %x_310: (Tensor[(1, 3, 224, 224), float16], Tensor[(1, 3, 224, 224), float32], Tensor[(1, 3, 224, 349), int8], Tensor[(1, 3, 224, 224), float32], Tensor[(3, 3, 3, 3), float32], Tensor[(1, 224, 3, 224), float32], Tensor[(1, 1, 3, 224, 224), int8]) /* ty=(Tensor[(1, 3, 224, 224), float16], Tensor[(1, 3, 224, 224), float32], Tensor[(1, 3, 224, 349), int8], Tensor[(1, 3, 224, 224), float32], Tensor[(3, 3, 3, 3), float32], Tensor[(1, 224, 3, 224), float32], Tensor[(1, 1, 3, 224, 224), int8]) span=from_string:168:531 */ = %x_210;
  let %x_410: (Tensor[(1, 3, 224, 224), float16], Tensor[(1, 3, 224, 224), float32], Tensor[(1, 3, 224, 349), int8], Tensor[(1, 3, 224, 224), float32], Tensor[(3, 3, 3, 3), float32], Tensor[(1, 224, 3, 224), float32], Tensor[(1, 1, 3, 224, 224), int8]) /* ty=(Tensor[(1, 3, 224, 224), float16], Tensor[(1, 3, 224, 224), float32], Tensor[(1, 3, 224, 349), int8], Tensor[(1, 3, 224, 224), float32], Tensor[(3, 3, 3, 3), float32], Tensor[(1, 224, 3, 224), float32], Tensor[(1, 1, 3, 224, 224), int8]) span=from_string:169:531 */ = %x_310;
  let %x_510: (Tensor[(1, 3, 224, 224), float16], Tensor[(1, 3, 224, 224), float32], Tensor[(1, 3, 224, 349), int8], Tensor[(1, 3, 224, 224), float32], Tensor[(3, 3, 3, 3), float32], Tensor[(1, 224, 3, 224), float32], Tensor[(1, 1, 3, 224, 224), int8]) /* ty=(Tensor[(1, 3, 224, 224), float16], Tensor[(1, 3, 224, 224), float32], Tensor[(1, 3, 224, 349), int8], Tensor[(1, 3, 224, 224), float32], Tensor[(3, 3, 3, 3), float32], Tensor[(1, 224, 3, 224), float32], Tensor[(1, 1, 3, 224, 224), int8]) span=from_string:170:530 */ = %x_410;
  let %x_61: (Tensor[(1, 3, 224, 224), float16], Tensor[(1, 3, 224, 224), float32], Tensor[(1, 3, 224, 349), int8], Tensor[(1, 3, 224, 224), float32], Tensor[(3, 3, 3, 3), float32], Tensor[(1, 224, 3, 224), float32], Tensor[(1, 1, 3, 224, 224), int8]) /* ty=(Tensor[(1, 3, 224, 224), float16], Tensor[(1, 3, 224, 224), float32], Tensor[(1, 3, 224, 349), int8], Tensor[(1, 3, 224, 224), float32], Tensor[(3, 3, 3, 3), float32], Tensor[(1, 224, 3, 224), float32], Tensor[(1, 1, 3, 224, 224), int8]) span=from_string:171:530 */ = %x_510;
  let %x_71: (Tensor[(1, 3, 224, 224), float16], Tensor[(1, 3, 224, 224), float32], Tensor[(1, 3, 224, 349), int8], Tensor[(1, 3, 224, 224), float32], Tensor[(3, 3, 3, 3), float32], Tensor[(1, 224, 3, 224), float32], Tensor[(1, 1, 3, 224, 224), int8]) /* ty=(Tensor[(1, 3, 224, 224), float16], Tensor[(1, 3, 224, 224), float32], Tensor[(1, 3, 224, 349), int8], Tensor[(1, 3, 224, 224), float32], Tensor[(3, 3, 3, 3), float32], Tensor[(1, 224, 3, 224), float32], Tensor[(1, 1, 3, 224, 224), int8]) span=from_string:172:530 */ = %x_61;
  let %x_81: (Tensor[(1, 3, 224, 224), float16], Tensor[(1, 3, 224, 224), float32], Tensor[(1, 3, 224, 349), int8], Tensor[(1, 3, 224, 224), float32], Tensor[(3, 3, 3, 3), float32], Tensor[(1, 224, 3, 224), float32], Tensor[(1, 1, 3, 224, 224), int8]) /* ty=(Tensor[(1, 3, 224, 224), float16], Tensor[(1, 3, 224, 224), float32], Tensor[(1, 3, 224, 349), int8], Tensor[(1, 3, 224, 224), float32], Tensor[(3, 3, 3, 3), float32], Tensor[(1, 224, 3, 224), float32], Tensor[(1, 1, 3, 224, 224), int8]) span=from_string:173:530 */ = %x_71;
  let %x_91: (Tensor[(1, 3, 224, 224), float16], Tensor[(1, 3, 224, 224), float32], Tensor[(1, 3, 224, 349), int8], Tensor[(1, 3, 224, 224), float32], Tensor[(3, 3, 3, 3), float32], Tensor[(1, 224, 3, 224), float32], Tensor[(1, 1, 3, 224, 224), int8]) /* ty=(Tensor[(1, 3, 224, 224), float16], Tensor[(1, 3, 224, 224), float32], Tensor[(1, 3, 224, 349), int8], Tensor[(1, 3, 224, 224), float32], Tensor[(3, 3, 3, 3), float32], Tensor[(1, 224, 3, 224), float32], Tensor[(1, 1, 3, 224, 224), int8]) span=from_string:174:531 */ = %x_81;
  let %x_101: (Tensor[(1, 3, 224, 224), float16], Tensor[(1, 3, 224, 224), float32], Tensor[(1, 3, 224, 349), int8], Tensor[(1, 3, 224, 224), float32], Tensor[(3, 3, 3, 3), float32], Tensor[(1, 224, 3, 224), float32], Tensor[(1, 1, 3, 224, 224), int8]) /* ty=(Tensor[(1, 3, 224, 224), float16], Tensor[(1, 3, 224, 224), float32], Tensor[(1, 3, 224, 349), int8], Tensor[(1, 3, 224, 224), float32], Tensor[(3, 3, 3, 3), float32], Tensor[(1, 224, 3, 224), float32], Tensor[(1, 1, 3, 224, 224), int8]) span=from_string:175:531 */ = %x_91;
  let %x_111: (Tensor[(1, 3, 224, 224), float16], Tensor[(1, 3, 224, 224), float32], Tensor[(1, 3, 224, 349), int8], Tensor[(1, 3, 224, 224), float32], Tensor[(3, 3, 3, 3), float32], Tensor[(1, 224, 3, 224), float32], Tensor[(1, 1, 3, 224, 224), int8]) /* ty=(Tensor[(1, 3, 224, 224), float16], Tensor[(1, 3, 224, 224), float32], Tensor[(1, 3, 224, 349), int8], Tensor[(1, 3, 224, 224), float32], Tensor[(3, 3, 3, 3), float32], Tensor[(1, 224, 3, 224), float32], Tensor[(1, 1, 3, 224, 224), int8]) span=from_string:176:531 */ = %x_101;
  let %x_121: (Tensor[(1, 3, 224, 224), float16], Tensor[(1, 3, 224, 224), float32], Tensor[(1, 3, 224, 349), int8], Tensor[(1, 3, 224, 224), float32], Tensor[(3, 3, 3, 3), float32], Tensor[(1, 224, 3, 224), float32], Tensor[(1, 1, 3, 224, 224), int8]) /* ty=(Tensor[(1, 3, 224, 224), float16], Tensor[(1, 3, 224, 224), float32], Tensor[(1, 3, 224, 349), int8], Tensor[(1, 3, 224, 224), float32], Tensor[(3, 3, 3, 3), float32], Tensor[(1, 224, 3, 224), float32], Tensor[(1, 1, 3, 224, 224), int8]) span=from_string:177:531 */ = %x_111;
  let %x_131: (Tensor[(1, 3, 224, 224), float16], Tensor[(1, 3, 224, 224), float32], Tensor[(1, 3, 224, 349), int8], Tensor[(1, 3, 224, 224), float32], Tensor[(3, 3, 3, 3), float32], Tensor[(1, 224, 3, 224), float32], Tensor[(1, 1, 3, 224, 224), int8]) /* ty=(Tensor[(1, 3, 224, 224), float16], Tensor[(1, 3, 224, 224), float32], Tensor[(1, 3, 224, 349), int8], Tensor[(1, 3, 224, 224), float32], Tensor[(3, 3, 3, 3), float32], Tensor[(1, 224, 3, 224), float32], Tensor[(1, 1, 3, 224, 224), int8]) span=from_string:178:531 */ = %x_121;
  let %x_141: (Tensor[(1, 3, 224, 224), float16], Tensor[(1, 3, 224, 224), float32], Tensor[(1, 3, 224, 349), int8], Tensor[(1, 3, 224, 224), float32], Tensor[(3, 3, 3, 3), float32], Tensor[(1, 224, 3, 224), float32], Tensor[(1, 1, 3, 224, 224), int8]) /* ty=(Tensor[(1, 3, 224, 224), float16], Tensor[(1, 3, 224, 224), float32], Tensor[(1, 3, 224, 349), int8], Tensor[(1, 3, 224, 224), float32], Tensor[(3, 3, 3, 3), float32], Tensor[(1, 224, 3, 224), float32], Tensor[(1, 1, 3, 224, 224), int8]) span=from_string:179:531 */ = %x_131;
  let %x_151: (Tensor[(1, 3, 224, 224), float16], Tensor[(1, 3, 224, 224), float32], Tensor[(1, 3, 224, 349), int8], Tensor[(1, 3, 224, 224), float32], Tensor[(3, 3, 3, 3), float32], Tensor[(1, 224, 3, 224), float32], Tensor[(1, 1, 3, 224, 224), int8]) /* ty=(Tensor[(1, 3, 224, 224), float16], Tensor[(1, 3, 224, 224), float32], Tensor[(1, 3, 224, 349), int8], Tensor[(1, 3, 224, 224), float32], Tensor[(3, 3, 3, 3), float32], Tensor[(1, 224, 3, 224), float32], Tensor[(1, 1, 3, 224, 224), int8]) span=from_string:180:531 */ = %x_141;
  let %x_161: (Tensor[(1, 3, 224, 224), float16], Tensor[(1, 3, 224, 224), float32], Tensor[(1, 3, 224, 349), int8], Tensor[(1, 3, 224, 224), float32], Tensor[(3, 3, 3, 3), float32], Tensor[(1, 224, 3, 224), float32], Tensor[(1, 1, 3, 224, 224), int8]) /* ty=(Tensor[(1, 3, 224, 224), float16], Tensor[(1, 3, 224, 224), float32], Tensor[(1, 3, 224, 349), int8], Tensor[(1, 3, 224, 224), float32], Tensor[(3, 3, 3, 3), float32], Tensor[(1, 224, 3, 224), float32], Tensor[(1, 1, 3, 224, 224), int8]) span=from_string:181:531 */ = %x_151;
  let %x_171: (Tensor[(1, 3, 224, 224), float16], Tensor[(1, 3, 224, 224), float32], Tensor[(1, 3, 224, 349), int8], Tensor[(1, 3, 224, 224), float32], Tensor[(3, 3, 3, 3), float32], Tensor[(1, 224, 3, 224), float32], Tensor[(1, 1, 3, 224, 224), int8]) /* ty=(Tensor[(1, 3, 224, 224), float16], Tensor[(1, 3, 224, 224), float32], Tensor[(1, 3, 224, 349), int8], Tensor[(1, 3, 224, 224), float32], Tensor[(3, 3, 3, 3), float32], Tensor[(1, 224, 3, 224), float32], Tensor[(1, 1, 3, 224, 224), int8]) span=from_string:182:531 */ = %x_161;
  let %x_181: (Tensor[(1, 3, 224, 224), float16], Tensor[(1, 3, 224, 224), float32], Tensor[(1, 3, 224, 349), int8], Tensor[(1, 3, 224, 224), float32], Tensor[(3, 3, 3, 3), float32], Tensor[(1, 224, 3, 224), float32], Tensor[(1, 1, 3, 224, 224), int8]) /* ty=(Tensor[(1, 3, 224, 224), float16], Tensor[(1, 3, 224, 224), float32], Tensor[(1, 3, 224, 349), int8], Tensor[(1, 3, 224, 224), float32], Tensor[(3, 3, 3, 3), float32], Tensor[(1, 224, 3, 224), float32], Tensor[(1, 1, 3, 224, 224), int8]) span=from_string:183:531 */ = %x_171;
  let %x_191: (Tensor[(1, 3, 224, 224), float16], Tensor[(1, 3, 224, 224), float32], Tensor[(1, 3, 224, 349), int8], Tensor[(1, 3, 224, 224), float32], Tensor[(3, 3, 3, 3), float32], Tensor[(1, 224, 3, 224), float32], Tensor[(1, 1, 3, 224, 224), int8]) /* ty=(Tensor[(1, 3, 224, 224), float16], Tensor[(1, 3, 224, 224), float32], Tensor[(1, 3, 224, 349), int8], Tensor[(1, 3, 224, 224), float32], Tensor[(3, 3, 3, 3), float32], Tensor[(1, 224, 3, 224), float32], Tensor[(1, 1, 3, 224, 224), int8]) span=from_string:184:531 */ = %x_181;
  let %x_201: (Tensor[(1, 3, 224, 224), float16], Tensor[(1, 3, 224, 224), float32], Tensor[(1, 3, 224, 349), int8], Tensor[(1, 3, 224, 224), float32], Tensor[(3, 3, 3, 3), float32], Tensor[(1, 224, 3, 224), float32], Tensor[(1, 1, 3, 224, 224), int8]) /* ty=(Tensor[(1, 3, 224, 224), float16], Tensor[(1, 3, 224, 224), float32], Tensor[(1, 3, 224, 349), int8], Tensor[(1, 3, 224, 224), float32], Tensor[(3, 3, 3, 3), float32], Tensor[(1, 224, 3, 224), float32], Tensor[(1, 1, 3, 224, 224), int8]) span=from_string:185:531 */ = %x_191;
  let %x_211: (Tensor[(1, 3, 224, 224), float16], Tensor[(1, 3, 224, 224), float32], Tensor[(1, 3, 224, 349), int8], Tensor[(1, 3, 224, 224), float32], Tensor[(3, 3, 3, 3), float32], Tensor[(1, 224, 3, 224), float32], Tensor[(1, 1, 3, 224, 224), int8]) /* ty=(Tensor[(1, 3, 224, 224), float16], Tensor[(1, 3, 224, 224), float32], Tensor[(1, 3, 224, 349), int8], Tensor[(1, 3, 224, 224), float32], Tensor[(3, 3, 3, 3), float32], Tensor[(1, 224, 3, 224), float32], Tensor[(1, 1, 3, 224, 224), int8]) span=from_string:186:531 */ = %x_201;
  let %x_221: (Tensor[(1, 3, 224, 224), float16], Tensor[(1, 3, 224, 224), float32], Tensor[(1, 3, 224, 349), int8], Tensor[(1, 3, 224, 224), float32], Tensor[(3, 3, 3, 3), float32], Tensor[(1, 224, 3, 224), float32], Tensor[(1, 1, 3, 224, 224), int8]) /* ty=(Tensor[(1, 3, 224, 224), float16], Tensor[(1, 3, 224, 224), float32], Tensor[(1, 3, 224, 349), int8], Tensor[(1, 3, 224, 224), float32], Tensor[(3, 3, 3, 3), float32], Tensor[(1, 224, 3, 224), float32], Tensor[(1, 1, 3, 224, 224), int8]) span=from_string:187:531 */ = %x_211;
  let %x_231: (Tensor[(1, 3, 224, 224), float16], Tensor[(1, 3, 224, 224), float32], Tensor[(1, 3, 224, 349), int8], Tensor[(1, 3, 224, 224), float32], Tensor[(3, 3, 3, 3), float32], Tensor[(1, 224, 3, 224), float32], Tensor[(1, 1, 3, 224, 224), int8]) /* ty=(Tensor[(1, 3, 224, 224), float16], Tensor[(1, 3, 224, 224), float32], Tensor[(1, 3, 224, 349), int8], Tensor[(1, 3, 224, 224), float32], Tensor[(3, 3, 3, 3), float32], Tensor[(1, 224, 3, 224), float32], Tensor[(1, 1, 3, 224, 224), int8]) span=from_string:188:531 */ = %x_221;
  let %x_241: (Tensor[(1, 3, 224, 224), float16], Tensor[(1, 3, 224, 224), float32], Tensor[(1, 3, 224, 349), int8], Tensor[(1, 3, 224, 224), float32], Tensor[(3, 3, 3, 3), float32], Tensor[(1, 224, 3, 224), float32], Tensor[(1, 1, 3, 224, 224), int8]) /* ty=(Tensor[(1, 3, 224, 224), float16], Tensor[(1, 3, 224, 224), float32], Tensor[(1, 3, 224, 349), int8], Tensor[(1, 3, 224, 224), float32], Tensor[(3, 3, 3, 3), float32], Tensor[(1, 224, 3, 224), float32], Tensor[(1, 1, 3, 224, 224), int8]) span=from_string:189:531 */ = %x_231;
  let %x_251: (Tensor[(1, 3, 224, 224), float16], Tensor[(1, 3, 224, 224), float32], Tensor[(1, 3, 224, 349), int8], Tensor[(1, 3, 224, 224), float32], Tensor[(3, 3, 3, 3), float32], Tensor[(1, 224, 3, 224), float32], Tensor[(1, 1, 3, 224, 224), int8]) /* ty=(Tensor[(1, 3, 224, 224), float16], Tensor[(1, 3, 224, 224), float32], Tensor[(1, 3, 224, 349), int8], Tensor[(1, 3, 224, 224), float32], Tensor[(3, 3, 3, 3), float32], Tensor[(1, 224, 3, 224), float32], Tensor[(1, 1, 3, 224, 224), int8]) span=from_string:190:531 */ = %x_241;
  let %x_261: (Tensor[(1, 3, 224, 224), float16], Tensor[(1, 3, 224, 224), float32], Tensor[(1, 3, 224, 349), int8], Tensor[(1, 3, 224, 224), float32], Tensor[(3, 3, 3, 3), float32], Tensor[(1, 224, 3, 224), float32], Tensor[(1, 1, 3, 224, 224), int8]) /* ty=(Tensor[(1, 3, 224, 224), float16], Tensor[(1, 3, 224, 224), float32], Tensor[(1, 3, 224, 349), int8], Tensor[(1, 3, 224, 224), float32], Tensor[(3, 3, 3, 3), float32], Tensor[(1, 224, 3, 224), float32], Tensor[(1, 1, 3, 224, 224), int8]) span=from_string:191:531 */ = %x_251;
  let %x_271: (Tensor[(1, 3, 224, 224), float16], Tensor[(1, 3, 224, 224), float32], Tensor[(1, 3, 224, 349), int8], Tensor[(1, 3, 224, 224), float32], Tensor[(3, 3, 3, 3), float32], Tensor[(1, 224, 3, 224), float32], Tensor[(1, 1, 3, 224, 224), int8]) /* ty=(Tensor[(1, 3, 224, 224), float16], Tensor[(1, 3, 224, 224), float32], Tensor[(1, 3, 224, 349), int8], Tensor[(1, 3, 224, 224), float32], Tensor[(3, 3, 3, 3), float32], Tensor[(1, 224, 3, 224), float32], Tensor[(1, 1, 3, 224, 224), int8]) span=from_string:192:531 */ = %x_261;
  let %x_281: (Tensor[(1, 3, 224, 224), float16], Tensor[(1, 3, 224, 224), float32], Tensor[(1, 3, 224, 349), int8], Tensor[(1, 3, 224, 224), float32], Tensor[(3, 3, 3, 3), float32], Tensor[(1, 224, 3, 224), float32], Tensor[(1, 1, 3, 224, 224), int8]) /* ty=(Tensor[(1, 3, 224, 224), float16], Tensor[(1, 3, 224, 224), float32], Tensor[(1, 3, 224, 349), int8], Tensor[(1, 3, 224, 224), float32], Tensor[(3, 3, 3, 3), float32], Tensor[(1, 224, 3, 224), float32], Tensor[(1, 1, 3, 224, 224), int8]) span=from_string:193:531 */ = %x_271;
  let %x_291: (Tensor[(1, 3, 224, 224), float16], Tensor[(1, 3, 224, 224), float32], Tensor[(1, 3, 224, 349), int8], Tensor[(1, 3, 224, 224), float32], Tensor[(3, 3, 3, 3), float32], Tensor[(1, 224, 3, 224), float32], Tensor[(1, 1, 3, 224, 224), int8]) /* ty=(Tensor[(1, 3, 224, 224), float16], Tensor[(1, 3, 224, 224), float32], Tensor[(1, 3, 224, 349), int8], Tensor[(1, 3, 224, 224), float32], Tensor[(3, 3, 3, 3), float32], Tensor[(1, 224, 3, 224), float32], Tensor[(1, 1, 3, 224, 224), int8]) span=from_string:194:531 */ = %x_281;
  let %x_301: (Tensor[(1, 3, 224, 224), float16], Tensor[(1, 3, 224, 224), float32], Tensor[(1, 3, 224, 349), int8], Tensor[(1, 3, 224, 224), float32], Tensor[(3, 3, 3, 3), float32], Tensor[(1, 224, 3, 224), float32], Tensor[(1, 1, 3, 224, 224), int8]) /* ty=(Tensor[(1, 3, 224, 224), float16], Tensor[(1, 3, 224, 224), float32], Tensor[(1, 3, 224, 349), int8], Tensor[(1, 3, 224, 224), float32], Tensor[(3, 3, 3, 3), float32], Tensor[(1, 224, 3, 224), float32], Tensor[(1, 1, 3, 224, 224), int8]) span=from_string:195:531 */ = %x_291;
  let %x_311: (Tensor[(1, 3, 224, 224), float16], Tensor[(1, 3, 224, 224), float32], Tensor[(1, 3, 224, 349), int8], Tensor[(1, 3, 224, 224), float32], Tensor[(3, 3, 3, 3), float32], Tensor[(1, 224, 3, 224), float32], Tensor[(1, 1, 3, 224, 224), int8]) /* ty=(Tensor[(1, 3, 224, 224), float16], Tensor[(1, 3, 224, 224), float32], Tensor[(1, 3, 224, 349), int8], Tensor[(1, 3, 224, 224), float32], Tensor[(3, 3, 3, 3), float32], Tensor[(1, 224, 3, 224), float32], Tensor[(1, 1, 3, 224, 224), int8]) span=from_string:196:531 */ = %x_301;
  let %x_321: (Tensor[(1, 3, 224, 224), float16], Tensor[(1, 3, 224, 224), float32], Tensor[(1, 3, 224, 349), int8], Tensor[(1, 3, 224, 224), float32], Tensor[(3, 3, 3, 3), float32], Tensor[(1, 224, 3, 224), float32], Tensor[(1, 1, 3, 224, 224), int8]) /* ty=(Tensor[(1, 3, 224, 224), float16], Tensor[(1, 3, 224, 224), float32], Tensor[(1, 3, 224, 349), int8], Tensor[(1, 3, 224, 224), float32], Tensor[(3, 3, 3, 3), float32], Tensor[(1, 224, 3, 224), float32], Tensor[(1, 1, 3, 224, 224), int8]) span=from_string:197:531 */ = %x_311;
  let %x_331: (Tensor[(1, 3, 224, 224), float16], Tensor[(1, 3, 224, 224), float32], Tensor[(1, 3, 224, 349), int8], Tensor[(1, 3, 224, 224), float32], Tensor[(3, 3, 3, 3), float32], Tensor[(1, 224, 3, 224), float32], Tensor[(1, 1, 3, 224, 224), int8]) /* ty=(Tensor[(1, 3, 224, 224), float16], Tensor[(1, 3, 224, 224), float32], Tensor[(1, 3, 224, 349), int8], Tensor[(1, 3, 224, 224), float32], Tensor[(3, 3, 3, 3), float32], Tensor[(1, 224, 3, 224), float32], Tensor[(1, 1, 3, 224, 224), int8]) span=from_string:198:532 */ = %x_321;
  let %x_341: (Tensor[(1, 3, 224, 224), float16], Tensor[(1, 3, 224, 224), float32], Tensor[(1, 3, 224, 349), int8], Tensor[(1, 3, 224, 224), float32], Tensor[(3, 3, 3, 3), float32], Tensor[(1, 224, 3, 224), float32], Tensor[(1, 1, 3, 224, 224), int8]) /* ty=(Tensor[(1, 3, 224, 224), float16], Tensor[(1, 3, 224, 224), float32], Tensor[(1, 3, 224, 349), int8], Tensor[(1, 3, 224, 224), float32], Tensor[(3, 3, 3, 3), float32], Tensor[(1, 224, 3, 224), float32], Tensor[(1, 1, 3, 224, 224), int8]) span=from_string:199:532 */ = %x_331;
  let %x_351: (Tensor[(1, 3, 224, 224), float16], Tensor[(1, 3, 224, 224), float32], Tensor[(1, 3, 224, 349), int8], Tensor[(1, 3, 224, 224), float32], Tensor[(3, 3, 3, 3), float32], Tensor[(1, 224, 3, 224), float32], Tensor[(1, 1, 3, 224, 224), int8]) /* ty=(Tensor[(1, 3, 224, 224), float16], Tensor[(1, 3, 224, 224), float32], Tensor[(1, 3, 224, 349), int8], Tensor[(1, 3, 224, 224), float32], Tensor[(3, 3, 3, 3), float32], Tensor[(1, 224, 3, 224), float32], Tensor[(1, 1, 3, 224, 224), int8]) span=from_string:200:532 */ = %x_341;
  let %x_361: (Tensor[(1, 3, 224, 224), float16], Tensor[(1, 3, 224, 224), float32], Tensor[(1, 3, 224, 349), int8], Tensor[(1, 3, 224, 224), float32], Tensor[(3, 3, 3, 3), float32], Tensor[(1, 224, 3, 224), float32], Tensor[(1, 1, 3, 224, 224), int8]) /* ty=(Tensor[(1, 3, 224, 224), float16], Tensor[(1, 3, 224, 224), float32], Tensor[(1, 3, 224, 349), int8], Tensor[(1, 3, 224, 224), float32], Tensor[(3, 3, 3, 3), float32], Tensor[(1, 224, 3, 224), float32], Tensor[(1, 1, 3, 224, 224), int8]) span=from_string:201:532 */ = %x_351;
  let %x_371: (Tensor[(1, 3, 224, 224), float16], Tensor[(1, 3, 224, 224), float32], Tensor[(1, 3, 224, 349), int8], Tensor[(1, 3, 224, 224), float32], Tensor[(3, 3, 3, 3), float32], Tensor[(1, 224, 3, 224), float32], Tensor[(1, 1, 3, 224, 224), int8]) /* ty=(Tensor[(1, 3, 224, 224), float16], Tensor[(1, 3, 224, 224), float32], Tensor[(1, 3, 224, 349), int8], Tensor[(1, 3, 224, 224), float32], Tensor[(3, 3, 3, 3), float32], Tensor[(1, 224, 3, 224), float32], Tensor[(1, 1, 3, 224, 224), int8]) span=from_string:202:532 */ = %x_361;
  let %x_381: (Tensor[(1, 3, 224, 224), float16], Tensor[(1, 3, 224, 224), float32], Tensor[(1, 3, 224, 349), int8], Tensor[(1, 3, 224, 224), float32], Tensor[(3, 3, 3, 3), float32], Tensor[(1, 224, 3, 224), float32], Tensor[(1, 1, 3, 224, 224), int8]) /* ty=(Tensor[(1, 3, 224, 224), float16], Tensor[(1, 3, 224, 224), float32], Tensor[(1, 3, 224, 349), int8], Tensor[(1, 3, 224, 224), float32], Tensor[(3, 3, 3, 3), float32], Tensor[(1, 224, 3, 224), float32], Tensor[(1, 1, 3, 224, 224), int8]) span=from_string:203:532 */ = %x_371;
  let %x_391: (Tensor[(1, 3, 224, 224), float16], Tensor[(1, 3, 224, 224), float32], Tensor[(1, 3, 224, 349), int8], Tensor[(1, 3, 224, 224), float32], Tensor[(3, 3, 3, 3), float32], Tensor[(1, 224, 3, 224), float32], Tensor[(1, 1, 3, 224, 224), int8]) /* ty=(Tensor[(1, 3, 224, 224), float16], Tensor[(1, 3, 224, 224), float32], Tensor[(1, 3, 224, 349), int8], Tensor[(1, 3, 224, 224), float32], Tensor[(3, 3, 3, 3), float32], Tensor[(1, 224, 3, 224), float32], Tensor[(1, 1, 3, 224, 224), int8]) span=from_string:204:532 */ = %x_381;
  let %x_401: (Tensor[(1, 3, 224, 224), float16], Tensor[(1, 3, 224, 224), float32], Tensor[(1, 3, 224, 349), int8], Tensor[(1, 3, 224, 224), float32], Tensor[(3, 3, 3, 3), float32], Tensor[(1, 224, 3, 224), float32], Tensor[(1, 1, 3, 224, 224), int8]) /* ty=(Tensor[(1, 3, 224, 224), float16], Tensor[(1, 3, 224, 224), float32], Tensor[(1, 3, 224, 349), int8], Tensor[(1, 3, 224, 224), float32], Tensor[(3, 3, 3, 3), float32], Tensor[(1, 224, 3, 224), float32], Tensor[(1, 1, 3, 224, 224), int8]) span=from_string:205:532 */ = %x_391;
  let %x_411: (Tensor[(1, 3, 224, 224), float16], Tensor[(1, 3, 224, 224), float32], Tensor[(1, 3, 224, 349), int8], Tensor[(1, 3, 224, 224), float32], Tensor[(3, 3, 3, 3), float32], Tensor[(1, 224, 3, 224), float32], Tensor[(1, 1, 3, 224, 224), int8]) /* ty=(Tensor[(1, 3, 224, 224), float16], Tensor[(1, 3, 224, 224), float32], Tensor[(1, 3, 224, 349), int8], Tensor[(1, 3, 224, 224), float32], Tensor[(3, 3, 3, 3), float32], Tensor[(1, 224, 3, 224), float32], Tensor[(1, 1, 3, 224, 224), int8]) span=from_string:206:532 */ = %x_401;
  let %x_421: (Tensor[(1, 3, 224, 224), float16], Tensor[(1, 3, 224, 224), float32], Tensor[(1, 3, 224, 349), int8], Tensor[(1, 3, 224, 224), float32], Tensor[(3, 3, 3, 3), float32], Tensor[(1, 224, 3, 224), float32], Tensor[(1, 1, 3, 224, 224), int8]) /* ty=(Tensor[(1, 3, 224, 224), float16], Tensor[(1, 3, 224, 224), float32], Tensor[(1, 3, 224, 349), int8], Tensor[(1, 3, 224, 224), float32], Tensor[(3, 3, 3, 3), float32], Tensor[(1, 224, 3, 224), float32], Tensor[(1, 1, 3, 224, 224), int8]) span=from_string:207:532 */ = %x_411;
  let %x_431: (Tensor[(1, 3, 224, 224), float16], Tensor[(1, 3, 224, 224), float32], Tensor[(1, 3, 224, 349), int8], Tensor[(1, 3, 224, 224), float32], Tensor[(3, 3, 3, 3), float32], Tensor[(1, 224, 3, 224), float32], Tensor[(1, 1, 3, 224, 224), int8]) /* ty=(Tensor[(1, 3, 224, 224), float16], Tensor[(1, 3, 224, 224), float32], Tensor[(1, 3, 224, 349), int8], Tensor[(1, 3, 224, 224), float32], Tensor[(3, 3, 3, 3), float32], Tensor[(1, 224, 3, 224), float32], Tensor[(1, 1, 3, 224, 224), int8]) span=from_string:208:532 */ = %x_421;
  let %x_441: (Tensor[(1, 3, 224, 224), float16], Tensor[(1, 3, 224, 224), float32], Tensor[(1, 3, 224, 349), int8], Tensor[(1, 3, 224, 224), float32], Tensor[(3, 3, 3, 3), float32], Tensor[(1, 224, 3, 224), float32], Tensor[(1, 1, 3, 224, 224), int8]) /* ty=(Tensor[(1, 3, 224, 224), float16], Tensor[(1, 3, 224, 224), float32], Tensor[(1, 3, 224, 349), int8], Tensor[(1, 3, 224, 224), float32], Tensor[(3, 3, 3, 3), float32], Tensor[(1, 224, 3, 224), float32], Tensor[(1, 1, 3, 224, 224), int8]) span=from_string:209:532 */ = %x_431;
  let %x_451: (Tensor[(1, 3, 224, 224), float16], Tensor[(1, 3, 224, 224), float32], Tensor[(1, 3, 224, 349), int8], Tensor[(1, 3, 224, 224), float32], Tensor[(3, 3, 3, 3), float32], Tensor[(1, 224, 3, 224), float32], Tensor[(1, 1, 3, 224, 224), int8]) /* ty=(Tensor[(1, 3, 224, 224), float16], Tensor[(1, 3, 224, 224), float32], Tensor[(1, 3, 224, 349), int8], Tensor[(1, 3, 224, 224), float32], Tensor[(3, 3, 3, 3), float32], Tensor[(1, 224, 3, 224), float32], Tensor[(1, 1, 3, 224, 224), int8]) span=from_string:210:532 */ = %x_441;
  let %x_461: (Tensor[(1, 3, 224, 224), float16], Tensor[(1, 3, 224, 224), float32], Tensor[(1, 3, 224, 349), int8], Tensor[(1, 3, 224, 224), float32], Tensor[(3, 3, 3, 3), float32], Tensor[(1, 224, 3, 224), float32], Tensor[(1, 1, 3, 224, 224), int8]) /* ty=(Tensor[(1, 3, 224, 224), float16], Tensor[(1, 3, 224, 224), float32], Tensor[(1, 3, 224, 349), int8], Tensor[(1, 3, 224, 224), float32], Tensor[(3, 3, 3, 3), float32], Tensor[(1, 224, 3, 224), float32], Tensor[(1, 1, 3, 224, 224), int8]) span=from_string:211:532 */ = %x_451;
  let %x_471: (Tensor[(1, 3, 224, 224), float16], Tensor[(1, 3, 224, 224), float32], Tensor[(1, 3, 224, 349), int8], Tensor[(1, 3, 224, 224), float32], Tensor[(3, 3, 3, 3), float32], Tensor[(1, 224, 3, 224), float32], Tensor[(1, 1, 3, 224, 224), int8]) /* ty=(Tensor[(1, 3, 224, 224), float16], Tensor[(1, 3, 224, 224), float32], Tensor[(1, 3, 224, 349), int8], Tensor[(1, 3, 224, 224), float32], Tensor[(3, 3, 3, 3), float32], Tensor[(1, 224, 3, 224), float32], Tensor[(1, 1, 3, 224, 224), int8]) span=from_string:212:532 */ = %x_461;
  let %x_481: (Tensor[(1, 3, 224, 224), float16], Tensor[(1, 3, 224, 224), float32], Tensor[(1, 3, 224, 349), int8], Tensor[(1, 3, 224, 224), float32], Tensor[(3, 3, 3, 3), float32], Tensor[(1, 224, 3, 224), float32], Tensor[(1, 1, 3, 224, 224), int8]) /* ty=(Tensor[(1, 3, 224, 224), float16], Tensor[(1, 3, 224, 224), float32], Tensor[(1, 3, 224, 349), int8], Tensor[(1, 3, 224, 224), float32], Tensor[(3, 3, 3, 3), float32], Tensor[(1, 224, 3, 224), float32], Tensor[(1, 1, 3, 224, 224), int8]) span=from_string:213:532 */ = %x_471;
  let %x_491: (Tensor[(1, 3, 224, 224), float16], Tensor[(1, 3, 224, 224), float32], Tensor[(1, 3, 224, 349), int8], Tensor[(1, 3, 224, 224), float32], Tensor[(3, 3, 3, 3), float32], Tensor[(1, 224, 3, 224), float32], Tensor[(1, 1, 3, 224, 224), int8]) /* ty=(Tensor[(1, 3, 224, 224), float16], Tensor[(1, 3, 224, 224), float32], Tensor[(1, 3, 224, 349), int8], Tensor[(1, 3, 224, 224), float32], Tensor[(3, 3, 3, 3), float32], Tensor[(1, 224, 3, 224), float32], Tensor[(1, 1, 3, 224, 224), int8]) span=from_string:214:532 */ = %x_481;
  let %x_501: (Tensor[(1, 3, 224, 224), float16], Tensor[(1, 3, 224, 224), float32], Tensor[(1, 3, 224, 349), int8], Tensor[(1, 3, 224, 224), float32], Tensor[(3, 3, 3, 3), float32], Tensor[(1, 224, 3, 224), float32], Tensor[(1, 1, 3, 224, 224), int8]) /* ty=(Tensor[(1, 3, 224, 224), float16], Tensor[(1, 3, 224, 224), float32], Tensor[(1, 3, 224, 349), int8], Tensor[(1, 3, 224, 224), float32], Tensor[(3, 3, 3, 3), float32], Tensor[(1, 224, 3, 224), float32], Tensor[(1, 1, 3, 224, 224), int8]) span=from_string:215:532 */ = %x_491;
  let %x_511: (Tensor[(1, 3, 224, 224), float16], Tensor[(1, 3, 224, 224), float32], Tensor[(1, 3, 224, 349), int8], Tensor[(1, 3, 224, 224), float32], Tensor[(3, 3, 3, 3), float32], Tensor[(1, 224, 3, 224), float32], Tensor[(1, 1, 3, 224, 224), int8]) /* ty=(Tensor[(1, 3, 224, 224), float16], Tensor[(1, 3, 224, 224), float32], Tensor[(1, 3, 224, 349), int8], Tensor[(1, 3, 224, 224), float32], Tensor[(3, 3, 3, 3), float32], Tensor[(1, 224, 3, 224), float32], Tensor[(1, 1, 3, 224, 224), int8]) span=from_string:216:532 */ = %x_501;
  let %x_521: (Tensor[(1, 3, 224, 224), float16], Tensor[(1, 3, 224, 224), float32], Tensor[(1, 3, 224, 349), int8], Tensor[(1, 3, 224, 224), float32], Tensor[(3, 3, 3, 3), float32], Tensor[(1, 224, 3, 224), float32], Tensor[(1, 1, 3, 224, 224), int8]) /* ty=(Tensor[(1, 3, 224, 224), float16], Tensor[(1, 3, 224, 224), float32], Tensor[(1, 3, 224, 349), int8], Tensor[(1, 3, 224, 224), float32], Tensor[(3, 3, 3, 3), float32], Tensor[(1, 224, 3, 224), float32], Tensor[(1, 1, 3, 224, 224), int8]) span=from_string:217:532 */ = %x_511;
  let %x_531: (Tensor[(1, 3, 224, 224), float16], Tensor[(1, 3, 224, 224), float32], Tensor[(1, 3, 224, 349), int8], Tensor[(1, 3, 224, 224), float32], Tensor[(3, 3, 3, 3), float32], Tensor[(1, 224, 3, 224), float32], Tensor[(1, 1, 3, 224, 224), int8]) /* ty=(Tensor[(1, 3, 224, 224), float16], Tensor[(1, 3, 224, 224), float32], Tensor[(1, 3, 224, 349), int8], Tensor[(1, 3, 224, 224), float32], Tensor[(3, 3, 3, 3), float32], Tensor[(1, 224, 3, 224), float32], Tensor[(1, 1, 3, 224, 224), int8]) span=from_string:218:532 */ = %x_521;
  let %x_541: (Tensor[(1, 3, 224, 224), float16], Tensor[(1, 3, 224, 224), float32], Tensor[(1, 3, 224, 349), int8], Tensor[(1, 3, 224, 224), float32], Tensor[(3, 3, 3, 3), float32], Tensor[(1, 224, 3, 224), float32], Tensor[(1, 1, 3, 224, 224), int8]) /* ty=(Tensor[(1, 3, 224, 224), float16], Tensor[(1, 3, 224, 224), float32], Tensor[(1, 3, 224, 349), int8], Tensor[(1, 3, 224, 224), float32], Tensor[(3, 3, 3, 3), float32], Tensor[(1, 224, 3, 224), float32], Tensor[(1, 1, 3, 224, 224), int8]) span=from_string:219:532 */ = %x_531;
  let %x_551: (Tensor[(1, 3, 224, 224), float16], Tensor[(1, 3, 224, 224), float32], Tensor[(1, 3, 224, 349), int8], Tensor[(1, 3, 224, 224), float32], Tensor[(3, 3, 3, 3), float32], Tensor[(1, 224, 3, 224), float32], Tensor[(1, 1, 3, 224, 224), int8]) /* ty=(Tensor[(1, 3, 224, 224), float16], Tensor[(1, 3, 224, 224), float32], Tensor[(1, 3, 224, 349), int8], Tensor[(1, 3, 224, 224), float32], Tensor[(3, 3, 3, 3), float32], Tensor[(1, 224, 3, 224), float32], Tensor[(1, 1, 3, 224, 224), int8]) span=from_string:220:532 */ = %x_541;
  let %x_561: (Tensor[(1, 3, 224, 224), float16], Tensor[(1, 3, 224, 224), float32], Tensor[(1, 3, 224, 349), int8], Tensor[(1, 3, 224, 224), float32], Tensor[(3, 3, 3, 3), float32], Tensor[(1, 224, 3, 224), float32], Tensor[(1, 1, 3, 224, 224), int8]) /* ty=(Tensor[(1, 3, 224, 224), float16], Tensor[(1, 3, 224, 224), float32], Tensor[(1, 3, 224, 349), int8], Tensor[(1, 3, 224, 224), float32], Tensor[(3, 3, 3, 3), float32], Tensor[(1, 224, 3, 224), float32], Tensor[(1, 1, 3, 224, 224), int8]) span=from_string:221:532 */ = %x_551;
  let %x_571: (Tensor[(1, 3, 224, 224), float16], Tensor[(1, 3, 224, 224), float32], Tensor[(1, 3, 224, 349), int8], Tensor[(1, 3, 224, 224), float32], Tensor[(3, 3, 3, 3), float32], Tensor[(1, 224, 3, 224), float32], Tensor[(1, 1, 3, 224, 224), int8]) /* ty=(Tensor[(1, 3, 224, 224), float16], Tensor[(1, 3, 224, 224), float32], Tensor[(1, 3, 224, 349), int8], Tensor[(1, 3, 224, 224), float32], Tensor[(3, 3, 3, 3), float32], Tensor[(1, 224, 3, 224), float32], Tensor[(1, 1, 3, 224, 224), int8]) span=from_string:222:532 */ = %x_561;
  let %x_581: (Tensor[(1, 3, 224, 224), float16], Tensor[(1, 3, 224, 224), float32], Tensor[(1, 3, 224, 349), int8], Tensor[(1, 3, 224, 224), float32], Tensor[(3, 3, 3, 3), float32], Tensor[(1, 224, 3, 224), float32], Tensor[(1, 1, 3, 224, 224), int8]) /* ty=(Tensor[(1, 3, 224, 224), float16], Tensor[(1, 3, 224, 224), float32], Tensor[(1, 3, 224, 349), int8], Tensor[(1, 3, 224, 224), float32], Tensor[(3, 3, 3, 3), float32], Tensor[(1, 224, 3, 224), float32], Tensor[(1, 1, 3, 224, 224), int8]) span=from_string:223:532 */ = %x_571;
  let %x_591: (Tensor[(1, 3, 224, 224), float16], Tensor[(1, 3, 224, 224), float32], Tensor[(1, 3, 224, 349), int8], Tensor[(1, 3, 224, 224), float32], Tensor[(3, 3, 3, 3), float32], Tensor[(1, 224, 3, 224), float32], Tensor[(1, 1, 3, 224, 224), int8]) /* ty=(Tensor[(1, 3, 224, 224), float16], Tensor[(1, 3, 224, 224), float32], Tensor[(1, 3, 224, 349), int8], Tensor[(1, 3, 224, 224), float32], Tensor[(3, 3, 3, 3), float32], Tensor[(1, 224, 3, 224), float32], Tensor[(1, 1, 3, 224, 224), int8]) span=from_string:224:532 */ = %x_581;
  let %x_601: (Tensor[(1, 3, 224, 224), float16], Tensor[(1, 3, 224, 224), float32], Tensor[(1, 3, 224, 349), int8], Tensor[(1, 3, 224, 224), float32], Tensor[(3, 3, 3, 3), float32], Tensor[(1, 224, 3, 224), float32], Tensor[(1, 1, 3, 224, 224), int8]) /* ty=(Tensor[(1, 3, 224, 224), float16], Tensor[(1, 3, 224, 224), float32], Tensor[(1, 3, 224, 349), int8], Tensor[(1, 3, 224, 224), float32], Tensor[(3, 3, 3, 3), float32], Tensor[(1, 224, 3, 224), float32], Tensor[(1, 1, 3, 224, 224), int8]) span=from_string:225:531 */ = %x_591;
  let %x_611: (Tensor[(1, 3, 224, 224), float16], Tensor[(1, 3, 224, 224), float32], Tensor[(1, 3, 224, 349), int8], Tensor[(1, 3, 224, 224), float32], Tensor[(3, 3, 3, 3), float32], Tensor[(1, 224, 3, 224), float32], Tensor[(1, 1, 3, 224, 224), int8]) /* ty=(Tensor[(1, 3, 224, 224), float16], Tensor[(1, 3, 224, 224), float32], Tensor[(1, 3, 224, 349), int8], Tensor[(1, 3, 224, 224), float32], Tensor[(3, 3, 3, 3), float32], Tensor[(1, 224, 3, 224), float32], Tensor[(1, 1, 3, 224, 224), int8]) span=from_string:226:3 */ = %x_601;
  %x_611
}
