#[version = "0.0.5"]
def @main(%x0: Tensor[(1, 3, 224, 224), int8] /* ty=Tensor[(1, 3, 224, 224), int8] span=from_string:6:119 */, %x1: Tensor[(1, 3, 224, 224), int8] /* ty=Tensor[(1, 3, 224, 224), int8] span=from_string:58:121 */, %x2: Tensor[(3, 3, 3, 3), float32] /* ty=Tensor[(3, 3, 3, 3), float32] span=from_string:34:126 */, %x3: Tensor[(3, 3, 1, 1), float32] /* ty=Tensor[(3, 3, 1, 1), float32] span=from_string:46:128 */, %x4: Tensor[(3, 3, 3, 3), float32] /* ty=Tensor[(3, 3, 3, 3), float32] span=from_string:115:159 */, %x5: Tensor[(1, 3, 224, 89), int8] /* ty=Tensor[(1, 3, 224, 89), int8] span=from_string:74:120 */, %x6: Tensor[(1, 3, 224, 32), int8] /* ty=Tensor[(1, 3, 224, 32), int8] span=from_string:78:120 */, %x7: Tensor[(1, 3, 224, 4), int8] /* ty=Tensor[(1, 3, 224, 4), int8] span=from_string:82:118 */, %x8: Tensor[(224), float32] /* ty=Tensor[(224), float32] span=from_string:119:246 */, %x9: Tensor[(224), float32] /* ty=Tensor[(224), float32] span=from_string:119:241 */, %x10: Tensor[(224), float32] /* ty=Tensor[(224), float32] span=from_string:119:235 */, %x11: Tensor[(224), float32] /* ty=Tensor[(224), float32] span=from_string:119:229 */) -> (Tensor[(1, 3, 224, 224), float16], Tensor[(1, 3, 224, 224), float32], Tensor[(1, 3, 224, 349), int8], Tensor[(1, 3, 224, 224), float32], Tensor[(3, 3, 3, 3), float32], Tensor[(1, 224, 3, 224), float32], Tensor[(1, 1, 3, 224, 224), int8]) {
  %0 = fn (%p0: Tensor[(1, 3, 224, 224), int8] /* ty=Tensor[(1, 3, 224, 224), int8] span=from_string:4:20 */, %p1: float32 /* ty=float32 span=from_string:4:25 */, %p2: int32 /* ty=int32 span=from_string:4:30 */, Primitive=1) -> Tensor[(1, 3, 224, 224), float32] {
    qnn.dequantize(%p0, %p1, %p2) /* ty=Tensor[(1, 3, 224, 224), float32] span=from_string:4:5 */
  } /* ty=fn (Tensor[(1, 3, 224, 224), int8], float32, int32) -> Tensor[(1, 3, 224, 224), float32] span=from_string:6:116 */;
  let %x_3: Tensor[(1, 3, 224, 224), float32] /* ty=Tensor[(1, 3, 224, 224), float32] span=from_string:62:122 */ = %0(%x0, 0.1f /* ty=float32 span=from_string:6:128 */, 0 /* ty=int32 span=from_string:6:170 */) /* ty=Tensor[(1, 3, 224, 224), float32] span=from_string:6:116 */;
  %1 = fn (%p01: Tensor[(1, 3, 224, 224), float32] /* ty=Tensor[(1, 3, 224, 224), float32] span=from_string:8:16 */, Primitive=1) -> Tensor[(1, 3, 224, 224), float32] {
    nn.softmax(%p01) /* ty=Tensor[(1, 3, 224, 224), float32] span=from_string:8:5 */
  } /* ty=fn (Tensor[(1, 3, 224, 224), float32]) -> Tensor[(1, 3, 224, 224), float32] span=from_string:10:116 */;
  let %x_4: Tensor[(1, 3, 224, 224), float32] /* ty=Tensor[(1, 3, 224, 224), float32] span=from_string:26:120 */ = %1(%x_3) /* ty=Tensor[(1, 3, 224, 224), float32] span=from_string:10:116 */;
  %2 = fn (Primitive=1) -> Tensor[(1), float32] {
    zeros(shape=[1], dtype="float32") /* ty=Tensor[(1), float32] span=from_string:12:5 */
  } /* ty=fn () -> Tensor[(1), float32] span=from_string:14:90 */;
  let %x_5: Tensor[(1), float32] /* ty=Tensor[(1), float32] span=from_string:18:125 */ = %2() /* ty=Tensor[(1), float32] span=from_string:14:90 */;
  %3 = fn (%p02: Tensor[(1, 3, 224, 224), float32] /* ty=Tensor[(1, 3, 224, 224), float32] span=from_string:16:9 */, %p11: Tensor[(1), float32] /* ty=Tensor[(1), float32] span=from_string:16:15 */, Primitive=1) -> Tensor[(1, 3, 224, 224), float32] {
    add(%p02, %p11) /* ty=Tensor[(1, 3, 224, 224), float32] span=from_string:16:5 */
  } /* ty=fn (Tensor[(1, 3, 224, 224), float32], Tensor[(1), float32]) -> Tensor[(1, 3, 224, 224), float32] span=from_string:18:116 */;
  let %x_6: Tensor[(1, 3, 224, 224), float32] /* ty=Tensor[(1, 3, 224, 224), float32] span=from_string:22:162 */ = %3(%x_4, %x_5) /* ty=Tensor[(1, 3, 224, 224), float32] span=from_string:18:116 */;
  %4 = fn (%p03: float32 /* ty=float32 span=from_string:20:9 */, %p12: Tensor[(1, 3, 224, 224), float32] /* ty=Tensor[(1, 3, 224, 224), float32] span=from_string:20:15 */, Primitive=1) -> Tensor[(1, 3, 224, 224), float32] {
    add(%p03, %p12) /* ty=Tensor[(1, 3, 224, 224), float32] span=from_string:20:5 */
  } /* ty=fn (float32, Tensor[(1, 3, 224, 224), float32]) -> Tensor[(1, 3, 224, 224), float32] span=from_string:22:116 */;
  let %x14: Tensor[(1, 3, 224, 224), float32] /* ty=Tensor[(1, 3, 224, 224), float32] span=from_string:30:119 */ = %4(2f /* ty=float32 span=from_string:22:121 */, %x_6) /* ty=Tensor[(1, 3, 224, 224), float32] span=from_string:22:116 */;
  %5 = fn (%p04: Tensor[(1, 3, 224, 224), float32] /* ty=Tensor[(1, 3, 224, 224), float32] span=from_string:24:10 */, Primitive=1) -> Tensor[(1, 3, 224, 224), float16] {
    cast(%p04, dtype="float16") /* ty=Tensor[(1, 3, 224, 224), float16] span=from_string:24:5 */
  } /* ty=fn (Tensor[(1, 3, 224, 224), float32]) -> Tensor[(1, 3, 224, 224), float16] span=from_string:26:117 */;
  let %x_7: Tensor[(1, 3, 224, 224), float16] /* ty=Tensor[(1, 3, 224, 224), float16] span=from_string:138:533 */ = %5(%x_4) /* ty=Tensor[(1, 3, 224, 224), float16] span=from_string:26:117 */;
  %6 = fn (%p05: Tensor[(1, 3, 224, 224), float32] /* ty=Tensor[(1, 3, 224, 224), float32] span=from_string:28:9 */, %p13: float32 /* ty=float32 span=from_string:28:15 */, Primitive=1) -> Tensor[(1, 3, 224, 224), float32] {
    add(%p05, %p13) /* ty=Tensor[(1, 3, 224, 224), float32] span=from_string:28:5 */
  } /* ty=fn (Tensor[(1, 3, 224, 224), float32], float32) -> Tensor[(1, 3, 224, 224), float32] span=from_string:30:116 */;
  let %x_9: Tensor[(1, 3, 224, 224), float32] /* ty=Tensor[(1, 3, 224, 224), float32] span=from_string:34:120 */ = %6(%x14, 1f /* ty=float32 span=from_string:30:127 */) /* ty=Tensor[(1, 3, 224, 224), float32] span=from_string:30:116 */;
  %7 = fn (%p06: Tensor[(1, 3, 224, 224), float32] /* ty=Tensor[(1, 3, 224, 224), float32] span=from_string:32:15 */, %p14: Tensor[(3, 3, 3, 3), float32] /* ty=Tensor[(3, 3, 3, 3), float32] span=from_string:32:21 */, Primitive=1) -> Tensor[(1, 3, 224, 224), float32] {
    nn.conv2d(%p06, %p14, padding=[1, 1, 1, 1], channels=3, kernel_size=[3, 3]) /* ty=Tensor[(1, 3, 224, 224), float32] span=from_string:32:5 */
  } /* ty=fn (Tensor[(1, 3, 224, 224), float32], Tensor[(3, 3, 3, 3), float32]) -> Tensor[(1, 3, 224, 224), float32] span=from_string:34:117 */;
  let %x_10: Tensor[(1, 3, 224, 224), float32] /* ty=Tensor[(1, 3, 224, 224), float32] span=from_string:42:120 */ = %7(%x_9, %x2) /* ty=Tensor[(1, 3, 224, 224), float32] span=from_string:34:117 */;
  %8 = fn (%p07: float32 /* ty=float32 span=from_string:36:9 */, %p15: Tensor[(1, 3, 224, 224), float32] /* ty=Tensor[(1, 3, 224, 224), float32] span=from_string:36:15 */, Primitive=1) -> Tensor[(1, 3, 224, 224), float32] {
    add(%p07, %p15) /* ty=Tensor[(1, 3, 224, 224), float32] span=from_string:36:5 */
  } /* ty=fn (float32, Tensor[(1, 3, 224, 224), float32]) -> Tensor[(1, 3, 224, 224), float32] span=from_string:38:117 */;
  let %x_12: Tensor[(1, 3, 224, 224), float32] /* ty=Tensor[(1, 3, 224, 224), float32] span=from_string:42:127 */ = %8(1f /* ty=float32 span=from_string:38:122 */, %x_10) /* ty=Tensor[(1, 3, 224, 224), float32] span=from_string:38:117 */;
  %9 = fn (%p08: Tensor[(1, 3, 224, 224), float32] /* ty=Tensor[(1, 3, 224, 224), float32] span=from_string:40:9 */, %p16: Tensor[(1, 3, 224, 224), float32] /* ty=Tensor[(1, 3, 224, 224), float32] span=from_string:40:15 */, Primitive=1) -> Tensor[(1, 3, 224, 224), float32] {
    add(%p08, %p16) /* ty=Tensor[(1, 3, 224, 224), float32] span=from_string:40:5 */
  } /* ty=fn (Tensor[(1, 3, 224, 224), float32], Tensor[(1, 3, 224, 224), float32]) -> Tensor[(1, 3, 224, 224), float32] span=from_string:42:117 */;
  let %x_13: Tensor[(1, 3, 224, 224), float32] /* ty=Tensor[(1, 3, 224, 224), float32] span=from_string:50:121 */ = %9(%x_10, %x_12) /* ty=Tensor[(1, 3, 224, 224), float32] span=from_string:42:117 */;
  %10 = fn (%p09: Tensor[(1, 3, 224, 224), float32] /* ty=Tensor[(1, 3, 224, 224), float32] span=from_string:44:15 */, %p17: Tensor[(3, 3, 1, 1), float32] /* ty=Tensor[(3, 3, 1, 1), float32] span=from_string:44:21 */, Primitive=1) -> Tensor[(1, 3, 224, 224), float32] {
    nn.conv2d(%p09, %p17, padding=[0, 0, 0, 0], channels=3, kernel_size=[1, 1]) /* ty=Tensor[(1, 3, 224, 224), float32] span=from_string:44:5 */
  } /* ty=fn (Tensor[(1, 3, 224, 224), float32], Tensor[(3, 3, 1, 1), float32]) -> Tensor[(1, 3, 224, 224), float32] span=from_string:46:117 */;
  let %x_14: Tensor[(1, 3, 224, 224), float32] /* ty=Tensor[(1, 3, 224, 224), float32] span=from_string:54:122 */ = %10(%x_13, %x3) /* ty=Tensor[(1, 3, 224, 224), float32] span=from_string:46:117 */;
  %11 = fn (%p010: Tensor[(1, 3, 224, 224), float32] /* ty=Tensor[(1, 3, 224, 224), float32] span=from_string:48:15 */, %p18: Tensor[(3, 3, 3, 3), float32] /* ty=Tensor[(3, 3, 3, 3), float32] span=from_string:48:22 */, Primitive=1) -> Tensor[(1, 3, 224, 224), float32] {
    nn.conv2d(%p010, %p18, padding=[1, 1, 1, 1], channels=3, kernel_size=[3, 3]) /* ty=Tensor[(1, 3, 224, 224), float32] span=from_string:48:5 */
  } /* ty=fn (Tensor[(1, 3, 224, 224), float32], Tensor[(3, 3, 3, 3), float32]) -> Tensor[(1, 3, 224, 224), float32] span=from_string:50:117 */;
  let %x_15: Tensor[(1, 3, 224, 224), float32] /* ty=Tensor[(1, 3, 224, 224), float32] span=from_string:54:129 */ = %11(%x_13, %x4) /* ty=Tensor[(1, 3, 224, 224), float32] span=from_string:50:117 */;
  %12 = fn (%p011: Tensor[(1, 3, 224, 224), float32] /* ty=Tensor[(1, 3, 224, 224), float32] span=from_string:52:9 */, %p19: Tensor[(1, 3, 224, 224), float32] /* ty=Tensor[(1, 3, 224, 224), float32] span=from_string:52:16 */, Primitive=1) -> Tensor[(1, 3, 224, 224), float32] {
    add(%p011, %p19) /* ty=Tensor[(1, 3, 224, 224), float32] span=from_string:52:5 */
  } /* ty=fn (Tensor[(1, 3, 224, 224), float32], Tensor[(1, 3, 224, 224), float32]) -> Tensor[(1, 3, 224, 224), float32] span=from_string:54:118 */;
  let %x_16: Tensor[(1, 3, 224, 224), float32] /* ty=Tensor[(1, 3, 224, 224), float32] span=from_string:138:539 */ = %12(%x_14, %x_15) /* ty=Tensor[(1, 3, 224, 224), float32] span=from_string:54:118 */;
  %13 = fn (%p012: Tensor[(1, 3, 224, 224), int8] /* ty=Tensor[(1, 3, 224, 224), int8] span=from_string:56:20 */, %p110: float32 /* ty=float32 span=from_string:56:27 */, %p21: int32 /* ty=int32 span=from_string:56:34 */, Primitive=1) -> Tensor[(1, 3, 224, 224), float32] {
    qnn.dequantize(%p012, %p110, %p21) /* ty=Tensor[(1, 3, 224, 224), float32] span=from_string:56:5 */
  } /* ty=fn (Tensor[(1, 3, 224, 224), int8], float32, int32) -> Tensor[(1, 3, 224, 224), float32] span=from_string:58:117 */;
  let %x_19: Tensor[(1, 3, 224, 224), float32] /* ty=Tensor[(1, 3, 224, 224), float32] span=from_string:62:128 */ = %13(%x1, 0.2f /* ty=float32 span=from_string:58:130 */, 0 /* ty=int32 span=from_string:58:173 */) /* ty=Tensor[(1, 3, 224, 224), float32] span=from_string:58:117 */;
  %14 = fn (%p013: Tensor[(1, 3, 224, 224), float32] /* ty=Tensor[(1, 3, 224, 224), float32] span=from_string:60:15 */, %p111: Tensor[(1, 3, 224, 224), float32] /* ty=Tensor[(1, 3, 224, 224), float32] span=from_string:60:22 */, Primitive=1) -> Tensor[(1, 3, 224, 224), float32] {
    multiply(%p013, %p111) /* ty=Tensor[(1, 3, 224, 224), float32] span=from_string:60:6 */
  } /* ty=fn (Tensor[(1, 3, 224, 224), float32], Tensor[(1, 3, 224, 224), float32]) -> Tensor[(1, 3, 224, 224), float32] span=from_string:62:118 */;
  let %x_20: Tensor[(1, 3, 224, 224), float32] /* ty=Tensor[(1, 3, 224, 224), float32] span=from_string:95:122 */ = %14(%x_3, %x_19) /* ty=Tensor[(1, 3, 224, 224), float32] span=from_string:62:118 */;
  %15 = fn (%p014: Tensor[(1, 3, 224, 224), float32] /* ty=Tensor[(1, 3, 224, 224), float32] span=from_string:64:18 */, %p112: float32 /* ty=float32 span=from_string:64:25 */, %p22: int32 /* ty=int32 span=from_string:64:32 */, Primitive=1) -> Tensor[(1, 3, 224, 224), int8] {
    qnn.quantize(%p014, %p112, %p22, out_dtype="int8") /* ty=Tensor[(1, 3, 224, 224), int8] span=from_string:64:5 */
  } /* ty=fn (Tensor[(1, 3, 224, 224), float32], float32, int32) -> Tensor[(1, 3, 224, 224), int8] span=from_string:66:114 */;
  let %x_23: Tensor[(1, 3, 224, 224), int8] /* ty=Tensor[(1, 3, 224, 224), int8] span=from_string:129:122 */ = %15(%x_20, 20f /* ty=float32 span=from_string:66:128 */, 0 /* ty=int32 span=from_string:66:171 */) /* ty=Tensor[(1, 3, 224, 224), int8] span=from_string:66:114 */;
  %16 = fn (%p015: Tensor[(1, 3, 224, 224), int8] /* ty=Tensor[(1, 3, 224, 224), int8] span=from_string:68:20 */, %p113: float32 /* ty=float32 span=from_string:68:27 */, %p23: int32 /* ty=int32 span=from_string:68:34 */, Primitive=1) -> Tensor[(1, 3, 224, 224), float32] {
    qnn.dequantize(%p015, %p113, %p23) /* ty=Tensor[(1, 3, 224, 224), float32] span=from_string:68:5 */
  } /* ty=fn (Tensor[(1, 3, 224, 224), int8], float32, int32) -> Tensor[(1, 3, 224, 224), float32] span=from_string:70:118 */;
  let %x_26: Tensor[(1, 3, 224, 224), float32] /* ty=Tensor[(1, 3, 224, 224), float32] span=from_string:83:325 */ = %16(%x_23, 0.5f /* ty=float32 span=from_string:70:133 */, 0 /* ty=int32 span=from_string:70:176 */) /* ty=Tensor[(1, 3, 224, 224), float32] span=from_string:70:118 */;
  %17 = fn (%p016: Tensor[(1, 3, 224, 89), int8] /* ty=Tensor[(1, 3, 224, 89), int8] span=from_string:72:20 */, %p114: float32 /* ty=float32 span=from_string:72:27 */, %p24: int32 /* ty=int32 span=from_string:72:34 */, Primitive=1) -> Tensor[(1, 3, 224, 89), float32] {
    qnn.dequantize(%p016, %p114, %p24) /* ty=Tensor[(1, 3, 224, 89), float32] span=from_string:72:5 */
  } /* ty=fn (Tensor[(1, 3, 224, 89), int8], float32, int32) -> Tensor[(1, 3, 224, 89), float32] span=from_string:74:116 */;
  let %x_29: Tensor[(1, 3, 224, 89), float32] /* ty=Tensor[(1, 3, 224, 89), float32] span=from_string:83:332 */ = %17(%x5, 1.5f /* ty=float32 span=from_string:74:129 */, 0 /* ty=int32 span=from_string:74:172 */) /* ty=Tensor[(1, 3, 224, 89), float32] span=from_string:74:116 */;
  %18 = fn (%p017: Tensor[(1, 3, 224, 32), int8] /* ty=Tensor[(1, 3, 224, 32), int8] span=from_string:76:20 */, %p115: float32 /* ty=float32 span=from_string:76:27 */, %p25: int32 /* ty=int32 span=from_string:76:34 */, Primitive=1) -> Tensor[(1, 3, 224, 32), float32] {
    qnn.dequantize(%p017, %p115, %p25) /* ty=Tensor[(1, 3, 224, 32), float32] span=from_string:76:5 */
  } /* ty=fn (Tensor[(1, 3, 224, 32), int8], float32, int32) -> Tensor[(1, 3, 224, 32), float32] span=from_string:78:116 */;
  let %x_32: Tensor[(1, 3, 224, 32), float32] /* ty=Tensor[(1, 3, 224, 32), float32] span=from_string:83:339 */ = %18(%x6, 2.5f /* ty=float32 span=from_string:78:129 */, 0 /* ty=int32 span=from_string:78:172 */) /* ty=Tensor[(1, 3, 224, 32), float32] span=from_string:78:116 */;
  %19 = fn (%p018: Tensor[(1, 3, 224, 4), int8] /* ty=Tensor[(1, 3, 224, 4), int8] span=from_string:80:20 */, %p116: float32 /* ty=float32 span=from_string:80:27 */, %p26: int32 /* ty=int32 span=from_string:80:34 */, Primitive=1) -> Tensor[(1, 3, 224, 4), float32] {
    qnn.dequantize(%p018, %p116, %p26) /* ty=Tensor[(1, 3, 224, 4), float32] span=from_string:80:5 */
  } /* ty=fn (Tensor[(1, 3, 224, 4), int8], float32, int32) -> Tensor[(1, 3, 224, 4), float32] span=from_string:82:114 */;
  let %x_35: Tensor[(1, 3, 224, 4), float32] /* ty=Tensor[(1, 3, 224, 4), float32] span=from_string:83:346 */ = %19(%x7, 3.5f /* ty=float32 span=from_string:82:127 */, 0 /* ty=int32 span=from_string:82:170 */) /* ty=Tensor[(1, 3, 224, 4), float32] span=from_string:82:114 */;
  let %x_36: (Tensor[(1, 3, 224, 224), float32], Tensor[(1, 3, 224, 89), float32], Tensor[(1, 3, 224, 32), float32], Tensor[(1, 3, 224, 4), float32]) /* ty=(Tensor[(1, 3, 224, 224), float32], Tensor[(1, 3, 224, 89), float32], Tensor[(1, 3, 224, 32), float32], Tensor[(1, 3, 224, 4), float32]) span=from_string:87:122 */ = (%x_26, %x_29, %x_32, %x_35) /* ty=(Tensor[(1, 3, 224, 224), float32], Tensor[(1, 3, 224, 89), float32], Tensor[(1, 3, 224, 32), float32], Tensor[(1, 3, 224, 4), float32]) span=from_string:83:324 */;
  %20 = fn (%p019: (Tensor[(1, 3, 224, 224), float32], Tensor[(1, 3, 224, 89), float32], Tensor[(1, 3, 224, 32), float32], Tensor[(1, 3, 224, 4), float32]) /* ty=(Tensor[(1, 3, 224, 224), float32], Tensor[(1, 3, 224, 89), float32], Tensor[(1, 3, 224, 32), float32], Tensor[(1, 3, 224, 4), float32]) span=from_string:85:17 */, Primitive=1) -> Tensor[(1, 3, 224, 349), float32] {
    concatenate(%p019, axis=-1) /* ty=Tensor[(1, 3, 224, 349), float32] span=from_string:85:5 */
  } /* ty=fn ((Tensor[(1, 3, 224, 224), float32], Tensor[(1, 3, 224, 89), float32], Tensor[(1, 3, 224, 32), float32], Tensor[(1, 3, 224, 4), float32])) -> Tensor[(1, 3, 224, 349), float32] span=from_string:87:118 */;
  let %x_37: Tensor[(1, 3, 224, 349), float32] /* ty=Tensor[(1, 3, 224, 349), float32] span=from_string:91:118 */ = %20(%x_36) /* ty=Tensor[(1, 3, 224, 349), float32] span=from_string:87:118 */;
  %21 = fn (%p020: Tensor[(1, 3, 224, 349), float32] /* ty=Tensor[(1, 3, 224, 349), float32] span=from_string:89:18 */, %p117: float32 /* ty=float32 span=from_string:89:25 */, %p27: int32 /* ty=int32 span=from_string:89:32 */, Primitive=1) -> Tensor[(1, 3, 224, 349), int8] {
    qnn.quantize(%p020, %p117, %p27, out_dtype="int8") /* ty=Tensor[(1, 3, 224, 349), int8] span=from_string:89:5 */
  } /* ty=fn (Tensor[(1, 3, 224, 349), float32], float32, int32) -> Tensor[(1, 3, 224, 349), int8] span=from_string:91:114 */;
  let %x_40: Tensor[(1, 3, 224, 349), int8] /* ty=Tensor[(1, 3, 224, 349), int8] span=from_string:138:546 */ = %21(%x_37, 3.5f /* ty=float32 span=from_string:91:129 */, 0 /* ty=int32 span=from_string:91:173 */) /* ty=Tensor[(1, 3, 224, 349), int8] span=from_string:91:114 */;
  %22 = fn (%p021: Tensor[(1, 3, 224, 224), float32] /* ty=Tensor[(1, 3, 224, 224), float32] span=from_string:93:22 */, Primitive=1) -> Tensor[(1, 224, 3, 224), float32] {
    layout_transform(%p021, src_layout="NHWC", dst_layout="NCHW") /* ty=Tensor[(1, 224, 3, 224), float32] span=from_string:93:5 */
  } /* ty=fn (Tensor[(1, 3, 224, 224), float32]) -> Tensor[(1, 224, 3, 224), float32] span=from_string:95:118 */;
  let %x_41: Tensor[(1, 224, 3, 224), float32] /* ty=Tensor[(1, 224, 3, 224), float32] span=from_string:99:126 */ = %22(%x_20) /* ty=Tensor[(1, 224, 3, 224), float32] span=from_string:95:118 */;
  %23 = fn (%p022: Tensor[(1, 224, 3, 224), float32] /* ty=Tensor[(1, 224, 3, 224), float32] span=from_string:97:22 */, Primitive=1) -> Tensor[(1, 56, 3, 224, 4), float32] {
    layout_transform(%p022, src_layout="NCHW", dst_layout="NCHW4c") /* ty=Tensor[(1, 56, 3, 224, 4), float32] span=from_string:97:5 */
  } /* ty=fn (Tensor[(1, 224, 3, 224), float32]) -> Tensor[(1, 56, 3, 224, 4), float32] span=from_string:99:122 */;
  let %x_42: Tensor[(1, 56, 3, 224, 4), float32] /* ty=Tensor[(1, 56, 3, 224, 4), float32] span=from_string:103:126 */ = %23(%x_41) /* ty=Tensor[(1, 56, 3, 224, 4), float32] span=from_string:99:122 */;
  %24 = fn (%p023: Tensor[(1, 56, 3, 224, 4), float32] /* ty=Tensor[(1, 56, 3, 224, 4), float32] span=from_string:101:13 */, Primitive=1) -> Tensor[(1, 56, 3, 224, 4), float32] {
    nn.relu(%p023) /* ty=Tensor[(1, 56, 3, 224, 4), float32] span=from_string:101:5 */
  } /* ty=fn (Tensor[(1, 56, 3, 224, 4), float32]) -> Tensor[(1, 56, 3, 224, 4), float32] span=from_string:103:122 */;
  let %x_43: Tensor[(1, 56, 3, 224, 4), float32] /* ty=Tensor[(1, 56, 3, 224, 4), float32] span=from_string:107:122 */ = %24(%x_42) /* ty=Tensor[(1, 56, 3, 224, 4), float32] span=from_string:103:122 */;
  %25 = fn (%p024: Tensor[(1, 56, 3, 224, 4), float32] /* ty=Tensor[(1, 56, 3, 224, 4), float32] span=from_string:105:22 */, Primitive=1) -> Tensor[(1, 224, 3, 224), float32] {
    layout_transform(%p024, src_layout="NCHW4c", dst_layout="NCHW") /* ty=Tensor[(1, 224, 3, 224), float32] span=from_string:105:5 */
  } /* ty=fn (Tensor[(1, 56, 3, 224, 4), float32]) -> Tensor[(1, 224, 3, 224), float32] span=from_string:107:118 */;
  let %x_44: Tensor[(1, 224, 3, 224), float32] /* ty=Tensor[(1, 224, 3, 224), float32] span=from_string:119:222 */ = %25(%x_43) /* ty=Tensor[(1, 224, 3, 224), float32] span=from_string:107:118 */;
  %26 = fn (%p025: Tensor[(1, 224, 3, 224), float32] /* ty=Tensor[(1, 224, 3, 224), float32] span=from_string:109:22 */, Primitive=1) -> Tensor[(1, 3, 224, 224), float32] {
    layout_transform(%p025, src_layout="NCHW", dst_layout="NHWC") /* ty=Tensor[(1, 3, 224, 224), float32] span=from_string:109:5 */
  } /* ty=fn (Tensor[(1, 224, 3, 224), float32]) -> Tensor[(1, 3, 224, 224), float32] span=from_string:111:118 */;
  let %x_45: Tensor[(1, 3, 224, 224), float32] /* ty=Tensor[(1, 3, 224, 224), float32] span=from_string:138:553 */ = %26(%x_44) /* ty=Tensor[(1, 3, 224, 224), float32] span=from_string:111:118 */;
  %27 = fn (%p026: float32 /* ty=float32 span=from_string:113:9 */, %p118: Tensor[(3, 3, 3, 3), float32] /* ty=Tensor[(3, 3, 3, 3), float32] span=from_string:113:16 */, Primitive=1) -> Tensor[(3, 3, 3, 3), float32] {
    add(%p026, %p118) /* ty=Tensor[(3, 3, 3, 3), float32] span=from_string:113:5 */
  } /* ty=fn (float32, Tensor[(3, 3, 3, 3), float32]) -> Tensor[(3, 3, 3, 3), float32] span=from_string:115:110 */;
  let %x_47: Tensor[(3, 3, 3, 3), float32] /* ty=Tensor[(3, 3, 3, 3), float32] span=from_string:138:560 */ = %27(2f /* ty=float32 span=from_string:115:116 */, %x4) /* ty=Tensor[(3, 3, 3, 3), float32] span=from_string:115:110 */;
  %28 = fn (%p027: Tensor[(1, 224, 3, 224), float32] /* ty=Tensor[(1, 224, 3, 224), float32] span=from_string:117:19 */, %p119: Tensor[(224), float32] /* ty=Tensor[(224), float32] span=from_string:117:26 */, %p28: Tensor[(224), float32] /* ty=Tensor[(224), float32] span=from_string:117:33 */, %p3: Tensor[(224), float32] /* ty=Tensor[(224), float32] span=from_string:117:39 */, %p4: Tensor[(224), float32] /* ty=Tensor[(224), float32] span=from_string:117:44 */, Primitive=1) -> (Tensor[(1, 224, 3, 224), float32], Tensor[(224), float32], Tensor[(224), float32]) {
    nn.batch_norm(%p027, %p119, %p28, %p3, %p4) /* ty=(Tensor[(1, 224, 3, 224), float32], Tensor[(224), float32], Tensor[(224), float32]) span=from_string:117:5 */
  } /* ty=fn (Tensor[(1, 224, 3, 224), float32], Tensor[(224), float32], Tensor[(224), float32], Tensor[(224), float32], Tensor[(224), float32]) -> (Tensor[(1, 224, 3, 224), float32], Tensor[(224), float32], Tensor[(224), float32]) span=from_string:119:218 */;
  let %x_48: (Tensor[(1, 224, 3, 224), float32], Tensor[(224), float32], Tensor[(224), float32]) /* ty=(Tensor[(1, 224, 3, 224), float32], Tensor[(224), float32], Tensor[(224), float32]) span=from_string:121:118 */ = %28(%x_44, %x11, %x10, %x9, %x8) /* ty=(Tensor[(1, 224, 3, 224), float32], Tensor[(224), float32], Tensor[(224), float32]) span=from_string:119:218 */;
  let %x_49: Tensor[(1, 224, 3, 224), float32] /* ty=Tensor[(1, 224, 3, 224), float32] span=from_string:125:122 */ = %x_48.0 /* ty=Tensor[(1, 224, 3, 224), float32] span=from_string:120:118 */;
  let %x_50: Tensor[(1, 224, 3, 224), float32] /* ty=Tensor[(1, 224, 3, 224), float32] span=from_string:125:129 */ = %x_48.0 /* ty=Tensor[(1, 224, 3, 224), float32] span=from_string:121:118 */;
  %29 = fn (%p028: Tensor[(1, 224, 3, 224), float32] /* ty=Tensor[(1, 224, 3, 224), float32] span=from_string:123:9 */, %p120: Tensor[(1, 224, 3, 224), float32] /* ty=Tensor[(1, 224, 3, 224), float32] span=from_string:123:16 */, Primitive=1) -> Tensor[(1, 224, 3, 224), float32] {
    add(%p028, %p120) /* ty=Tensor[(1, 224, 3, 224), float32] span=from_string:123:5 */
  } /* ty=fn (Tensor[(1, 224, 3, 224), float32], Tensor[(1, 224, 3, 224), float32]) -> Tensor[(1, 224, 3, 224), float32] span=from_string:125:118 */;
  let %x_51: Tensor[(1, 224, 3, 224), float32] /* ty=Tensor[(1, 224, 3, 224), float32] span=from_string:138:567 */ = %29(%x_49, %x_50) /* ty=Tensor[(1, 224, 3, 224), float32] span=from_string:125:118 */;
  %30 = fn (%p029: Tensor[(1, 3, 224, 224), int8] /* ty=Tensor[(1, 3, 224, 224), int8] span=from_string:127:20 */, %p121: float32 /* ty=float32 span=from_string:127:27 */, %p29: int32 /* ty=int32 span=from_string:127:34 */, Primitive=1) -> Tensor[(1, 3, 224, 224), float32] {
    qnn.dequantize(%p029, %p121, %p29) /* ty=Tensor[(1, 3, 224, 224), float32] span=from_string:127:5 */
  } /* ty=fn (Tensor[(1, 3, 224, 224), int8], float32, int32) -> Tensor[(1, 3, 224, 224), float32] span=from_string:129:118 */;
  let %x_54: Tensor[(1, 3, 224, 224), float32] /* ty=Tensor[(1, 3, 224, 224), float32] span=from_string:133:128 */ = %30(%x_23, 2f /* ty=float32 span=from_string:129:131 */, 0 /* ty=int32 span=from_string:129:175 */) /* ty=Tensor[(1, 3, 224, 224), float32] span=from_string:129:118 */;
  %31 = fn (%p030: Tensor[(1, 3, 224, 224), float32] /* ty=Tensor[(1, 3, 224, 224), float32] span=from_string:131:17 */, Primitive=1, relay.reshape_only=1) -> Tensor[(1, 1, 3, 224, 224), float32] {
    expand_dims(%p030, axis=1) /* ty=Tensor[(1, 1, 3, 224, 224), float32] span=from_string:131:5 */
  } /* ty=fn (Tensor[(1, 3, 224, 224), float32]) -> Tensor[(1, 1, 3, 224, 224), float32] span=from_string:133:124 */;
  let %x_55: Tensor[(1, 1, 3, 224, 224), float32] /* ty=Tensor[(1, 1, 3, 224, 224), float32] span=from_string:137:124 */ = %31(%x_54) /* ty=Tensor[(1, 1, 3, 224, 224), float32] span=from_string:133:124 */;
  %32 = fn (%p031: Tensor[(1, 1, 3, 224, 224), float32] /* ty=Tensor[(1, 1, 3, 224, 224), float32] span=from_string:135:18 */, %p122: float32 /* ty=float32 span=from_string:135:25 */, %p210: int32 /* ty=int32 span=from_string:135:32 */, Primitive=1) -> Tensor[(1, 1, 3, 224, 224), int8] {
    qnn.quantize(%p031, %p122, %p210, out_dtype="int8") /* ty=Tensor[(1, 1, 3, 224, 224), int8] span=from_string:135:5 */
  } /* ty=fn (Tensor[(1, 1, 3, 224, 224), float32], float32, int32) -> Tensor[(1, 1, 3, 224, 224), int8] span=from_string:137:120 */;
  let %x_58: Tensor[(1, 1, 3, 224, 224), int8] /* ty=Tensor[(1, 1, 3, 224, 224), int8] span=from_string:138:574 */ = %32(%x_55, 2f /* ty=float32 span=from_string:137:133 */, 0 /* ty=int32 span=from_string:137:177 */) /* ty=Tensor[(1, 1, 3, 224, 224), int8] span=from_string:137:120 */;
  let %x_59: (Tensor[(1, 3, 224, 224), float16], Tensor[(1, 3, 224, 224), float32], Tensor[(1, 3, 224, 349), int8], Tensor[(1, 3, 224, 224), float32], Tensor[(3, 3, 3, 3), float32], Tensor[(1, 224, 3, 224), float32], Tensor[(1, 1, 3, 224, 224), int8]) /* ty=(Tensor[(1, 3, 224, 224), float16], Tensor[(1, 3, 224, 224), float32], Tensor[(1, 3, 224, 349), int8], Tensor[(1, 3, 224, 224), float32], Tensor[(3, 3, 3, 3), float32], Tensor[(1, 224, 3, 224), float32], Tensor[(1, 1, 3, 224, 224), int8]) span=from_string:139:532 */ = (%x_7, %x_16, %x_40, %x_45, %x_47, %x_51, %x_58) /* ty=(Tensor[(1, 3, 224, 224), float16], Tensor[(1, 3, 224, 224), float32], Tensor[(1, 3, 224, 349), int8], Tensor[(1, 3, 224, 224), float32], Tensor[(3, 3, 3, 3), float32], Tensor[(1, 224, 3, 224), float32], Tensor[(1, 1, 3, 224, 224), int8]) span=from_string:138:532 */;
  let %x_60: (Tensor[(1, 3, 224, 224), float16], Tensor[(1, 3, 224, 224), float32], Tensor[(1, 3, 224, 349), int8], Tensor[(1, 3, 224, 224), float32], Tensor[(3, 3, 3, 3), float32], Tensor[(1, 224, 3, 224), float32], Tensor[(1, 1, 3, 224, 224), int8]) /* ty=(Tensor[(1, 3, 224, 224), float16], Tensor[(1, 3, 224, 224), float32], Tensor[(1, 3, 224, 349), int8], Tensor[(1, 3, 224, 224), float32], Tensor[(3, 3, 3, 3), float32], Tensor[(1, 224, 3, 224), float32], Tensor[(1, 1, 3, 224, 224), int8]) span=from_string:140:532 */ = %x_59;
  let %x_01: (Tensor[(1, 3, 224, 224), float16], Tensor[(1, 3, 224, 224), float32], Tensor[(1, 3, 224, 349), int8], Tensor[(1, 3, 224, 224), float32], Tensor[(3, 3, 3, 3), float32], Tensor[(1, 224, 3, 224), float32], Tensor[(1, 1, 3, 224, 224), int8]) /* ty=(Tensor[(1, 3, 224, 224), float16], Tensor[(1, 3, 224, 224), float32], Tensor[(1, 3, 224, 349), int8], Tensor[(1, 3, 224, 224), float32], Tensor[(3, 3, 3, 3), float32], Tensor[(1, 224, 3, 224), float32], Tensor[(1, 1, 3, 224, 224), int8]) span=from_string:141:533 */ = %x_60;
  let %x_110: (Tensor[(1, 3, 224, 224), float16], Tensor[(1, 3, 224, 224), float32], Tensor[(1, 3, 224, 349), int8], Tensor[(1, 3, 224, 224), float32], Tensor[(3, 3, 3, 3), float32], Tensor[(1, 224, 3, 224), float32], Tensor[(1, 1, 3, 224, 224), int8]) /* ty=(Tensor[(1, 3, 224, 224), float16], Tensor[(1, 3, 224, 224), float32], Tensor[(1, 3, 224, 349), int8], Tensor[(1, 3, 224, 224), float32], Tensor[(3, 3, 3, 3), float32], Tensor[(1, 224, 3, 224), float32], Tensor[(1, 1, 3, 224, 224), int8]) span=from_string:142:533 */ = %x_01;
  let %x_210: (Tensor[(1, 3, 224, 224), float16], Tensor[(1, 3, 224, 224), float32], Tensor[(1, 3, 224, 349), int8], Tensor[(1, 3, 224, 224), float32], Tensor[(3, 3, 3, 3), float32], Tensor[(1, 224, 3, 224), float32], Tensor[(1, 1, 3, 224, 224), int8]) /* ty=(Tensor[(1, 3, 224, 224), float16], Tensor[(1, 3, 224, 224), float32], Tensor[(1, 3, 224, 349), int8], Tensor[(1, 3, 224, 224), float32], Tensor[(3, 3, 3, 3), float32], Tensor[(1, 224, 3, 224), float32], Tensor[(1, 1, 3, 224, 224), int8]) span=from_string:143:533 */ = %x_110;
  let %x_310: (Tensor[(1, 3, 224, 224), float16], Tensor[(1, 3, 224, 224), float32], Tensor[(1, 3, 224, 349), int8], Tensor[(1, 3, 224, 224), float32], Tensor[(3, 3, 3, 3), float32], Tensor[(1, 224, 3, 224), float32], Tensor[(1, 1, 3, 224, 224), int8]) /* ty=(Tensor[(1, 3, 224, 224), float16], Tensor[(1, 3, 224, 224), float32], Tensor[(1, 3, 224, 349), int8], Tensor[(1, 3, 224, 224), float32], Tensor[(3, 3, 3, 3), float32], Tensor[(1, 224, 3, 224), float32], Tensor[(1, 1, 3, 224, 224), int8]) span=from_string:144:533 */ = %x_210;
  let %x_410: (Tensor[(1, 3, 224, 224), float16], Tensor[(1, 3, 224, 224), float32], Tensor[(1, 3, 224, 349), int8], Tensor[(1, 3, 224, 224), float32], Tensor[(3, 3, 3, 3), float32], Tensor[(1, 224, 3, 224), float32], Tensor[(1, 1, 3, 224, 224), int8]) /* ty=(Tensor[(1, 3, 224, 224), float16], Tensor[(1, 3, 224, 224), float32], Tensor[(1, 3, 224, 349), int8], Tensor[(1, 3, 224, 224), float32], Tensor[(3, 3, 3, 3), float32], Tensor[(1, 224, 3, 224), float32], Tensor[(1, 1, 3, 224, 224), int8]) span=from_string:145:533 */ = %x_310;
  let %x_510: (Tensor[(1, 3, 224, 224), float16], Tensor[(1, 3, 224, 224), float32], Tensor[(1, 3, 224, 349), int8], Tensor[(1, 3, 224, 224), float32], Tensor[(3, 3, 3, 3), float32], Tensor[(1, 224, 3, 224), float32], Tensor[(1, 1, 3, 224, 224), int8]) /* ty=(Tensor[(1, 3, 224, 224), float16], Tensor[(1, 3, 224, 224), float32], Tensor[(1, 3, 224, 349), int8], Tensor[(1, 3, 224, 224), float32], Tensor[(3, 3, 3, 3), float32], Tensor[(1, 224, 3, 224), float32], Tensor[(1, 1, 3, 224, 224), int8]) span=from_string:146:532 */ = %x_410;
  let %x_61: (Tensor[(1, 3, 224, 224), float16], Tensor[(1, 3, 224, 224), float32], Tensor[(1, 3, 224, 349), int8], Tensor[(1, 3, 224, 224), float32], Tensor[(3, 3, 3, 3), float32], Tensor[(1, 224, 3, 224), float32], Tensor[(1, 1, 3, 224, 224), int8]) /* ty=(Tensor[(1, 3, 224, 224), float16], Tensor[(1, 3, 224, 224), float32], Tensor[(1, 3, 224, 349), int8], Tensor[(1, 3, 224, 224), float32], Tensor[(3, 3, 3, 3), float32], Tensor[(1, 224, 3, 224), float32], Tensor[(1, 1, 3, 224, 224), int8]) span=from_string:147:532 */ = %x_510;
  let %x_71: (Tensor[(1, 3, 224, 224), float16], Tensor[(1, 3, 224, 224), float32], Tensor[(1, 3, 224, 349), int8], Tensor[(1, 3, 224, 224), float32], Tensor[(3, 3, 3, 3), float32], Tensor[(1, 224, 3, 224), float32], Tensor[(1, 1, 3, 224, 224), int8]) /* ty=(Tensor[(1, 3, 224, 224), float16], Tensor[(1, 3, 224, 224), float32], Tensor[(1, 3, 224, 349), int8], Tensor[(1, 3, 224, 224), float32], Tensor[(3, 3, 3, 3), float32], Tensor[(1, 224, 3, 224), float32], Tensor[(1, 1, 3, 224, 224), int8]) span=from_string:148:532 */ = %x_61;
  let %x_81: (Tensor[(1, 3, 224, 224), float16], Tensor[(1, 3, 224, 224), float32], Tensor[(1, 3, 224, 349), int8], Tensor[(1, 3, 224, 224), float32], Tensor[(3, 3, 3, 3), float32], Tensor[(1, 224, 3, 224), float32], Tensor[(1, 1, 3, 224, 224), int8]) /* ty=(Tensor[(1, 3, 224, 224), float16], Tensor[(1, 3, 224, 224), float32], Tensor[(1, 3, 224, 349), int8], Tensor[(1, 3, 224, 224), float32], Tensor[(3, 3, 3, 3), float32], Tensor[(1, 224, 3, 224), float32], Tensor[(1, 1, 3, 224, 224), int8]) span=from_string:149:532 */ = %x_71;
  let %x_91: (Tensor[(1, 3, 224, 224), float16], Tensor[(1, 3, 224, 224), float32], Tensor[(1, 3, 224, 349), int8], Tensor[(1, 3, 224, 224), float32], Tensor[(3, 3, 3, 3), float32], Tensor[(1, 224, 3, 224), float32], Tensor[(1, 1, 3, 224, 224), int8]) /* ty=(Tensor[(1, 3, 224, 224), float16], Tensor[(1, 3, 224, 224), float32], Tensor[(1, 3, 224, 349), int8], Tensor[(1, 3, 224, 224), float32], Tensor[(3, 3, 3, 3), float32], Tensor[(1, 224, 3, 224), float32], Tensor[(1, 1, 3, 224, 224), int8]) span=from_string:150:533 */ = %x_81;
  let %x_101: (Tensor[(1, 3, 224, 224), float16], Tensor[(1, 3, 224, 224), float32], Tensor[(1, 3, 224, 349), int8], Tensor[(1, 3, 224, 224), float32], Tensor[(3, 3, 3, 3), float32], Tensor[(1, 224, 3, 224), float32], Tensor[(1, 1, 3, 224, 224), int8]) /* ty=(Tensor[(1, 3, 224, 224), float16], Tensor[(1, 3, 224, 224), float32], Tensor[(1, 3, 224, 349), int8], Tensor[(1, 3, 224, 224), float32], Tensor[(3, 3, 3, 3), float32], Tensor[(1, 224, 3, 224), float32], Tensor[(1, 1, 3, 224, 224), int8]) span=from_string:151:533 */ = %x_91;
  let %x_111: (Tensor[(1, 3, 224, 224), float16], Tensor[(1, 3, 224, 224), float32], Tensor[(1, 3, 224, 349), int8], Tensor[(1, 3, 224, 224), float32], Tensor[(3, 3, 3, 3), float32], Tensor[(1, 224, 3, 224), float32], Tensor[(1, 1, 3, 224, 224), int8]) /* ty=(Tensor[(1, 3, 224, 224), float16], Tensor[(1, 3, 224, 224), float32], Tensor[(1, 3, 224, 349), int8], Tensor[(1, 3, 224, 224), float32], Tensor[(3, 3, 3, 3), float32], Tensor[(1, 224, 3, 224), float32], Tensor[(1, 1, 3, 224, 224), int8]) span=from_string:152:533 */ = %x_101;
  let %x_121: (Tensor[(1, 3, 224, 224), float16], Tensor[(1, 3, 224, 224), float32], Tensor[(1, 3, 224, 349), int8], Tensor[(1, 3, 224, 224), float32], Tensor[(3, 3, 3, 3), float32], Tensor[(1, 224, 3, 224), float32], Tensor[(1, 1, 3, 224, 224), int8]) /* ty=(Tensor[(1, 3, 224, 224), float16], Tensor[(1, 3, 224, 224), float32], Tensor[(1, 3, 224, 349), int8], Tensor[(1, 3, 224, 224), float32], Tensor[(3, 3, 3, 3), float32], Tensor[(1, 224, 3, 224), float32], Tensor[(1, 1, 3, 224, 224), int8]) span=from_string:153:533 */ = %x_111;
  let %x_131: (Tensor[(1, 3, 224, 224), float16], Tensor[(1, 3, 224, 224), float32], Tensor[(1, 3, 224, 349), int8], Tensor[(1, 3, 224, 224), float32], Tensor[(3, 3, 3, 3), float32], Tensor[(1, 224, 3, 224), float32], Tensor[(1, 1, 3, 224, 224), int8]) /* ty=(Tensor[(1, 3, 224, 224), float16], Tensor[(1, 3, 224, 224), float32], Tensor[(1, 3, 224, 349), int8], Tensor[(1, 3, 224, 224), float32], Tensor[(3, 3, 3, 3), float32], Tensor[(1, 224, 3, 224), float32], Tensor[(1, 1, 3, 224, 224), int8]) span=from_string:154:533 */ = %x_121;
  let %x_141: (Tensor[(1, 3, 224, 224), float16], Tensor[(1, 3, 224, 224), float32], Tensor[(1, 3, 224, 349), int8], Tensor[(1, 3, 224, 224), float32], Tensor[(3, 3, 3, 3), float32], Tensor[(1, 224, 3, 224), float32], Tensor[(1, 1, 3, 224, 224), int8]) /* ty=(Tensor[(1, 3, 224, 224), float16], Tensor[(1, 3, 224, 224), float32], Tensor[(1, 3, 224, 349), int8], Tensor[(1, 3, 224, 224), float32], Tensor[(3, 3, 3, 3), float32], Tensor[(1, 224, 3, 224), float32], Tensor[(1, 1, 3, 224, 224), int8]) span=from_string:155:533 */ = %x_131;
  let %x_151: (Tensor[(1, 3, 224, 224), float16], Tensor[(1, 3, 224, 224), float32], Tensor[(1, 3, 224, 349), int8], Tensor[(1, 3, 224, 224), float32], Tensor[(3, 3, 3, 3), float32], Tensor[(1, 224, 3, 224), float32], Tensor[(1, 1, 3, 224, 224), int8]) /* ty=(Tensor[(1, 3, 224, 224), float16], Tensor[(1, 3, 224, 224), float32], Tensor[(1, 3, 224, 349), int8], Tensor[(1, 3, 224, 224), float32], Tensor[(3, 3, 3, 3), float32], Tensor[(1, 224, 3, 224), float32], Tensor[(1, 1, 3, 224, 224), int8]) span=from_string:156:533 */ = %x_141;
  let %x_161: (Tensor[(1, 3, 224, 224), float16], Tensor[(1, 3, 224, 224), float32], Tensor[(1, 3, 224, 349), int8], Tensor[(1, 3, 224, 224), float32], Tensor[(3, 3, 3, 3), float32], Tensor[(1, 224, 3, 224), float32], Tensor[(1, 1, 3, 224, 224), int8]) /* ty=(Tensor[(1, 3, 224, 224), float16], Tensor[(1, 3, 224, 224), float32], Tensor[(1, 3, 224, 349), int8], Tensor[(1, 3, 224, 224), float32], Tensor[(3, 3, 3, 3), float32], Tensor[(1, 224, 3, 224), float32], Tensor[(1, 1, 3, 224, 224), int8]) span=from_string:157:533 */ = %x_151;
  let %x_171: (Tensor[(1, 3, 224, 224), float16], Tensor[(1, 3, 224, 224), float32], Tensor[(1, 3, 224, 349), int8], Tensor[(1, 3, 224, 224), float32], Tensor[(3, 3, 3, 3), float32], Tensor[(1, 224, 3, 224), float32], Tensor[(1, 1, 3, 224, 224), int8]) /* ty=(Tensor[(1, 3, 224, 224), float16], Tensor[(1, 3, 224, 224), float32], Tensor[(1, 3, 224, 349), int8], Tensor[(1, 3, 224, 224), float32], Tensor[(3, 3, 3, 3), float32], Tensor[(1, 224, 3, 224), float32], Tensor[(1, 1, 3, 224, 224), int8]) span=from_string:158:533 */ = %x_161;
  let %x_181: (Tensor[(1, 3, 224, 224), float16], Tensor[(1, 3, 224, 224), float32], Tensor[(1, 3, 224, 349), int8], Tensor[(1, 3, 224, 224), float32], Tensor[(3, 3, 3, 3), float32], Tensor[(1, 224, 3, 224), float32], Tensor[(1, 1, 3, 224, 224), int8]) /* ty=(Tensor[(1, 3, 224, 224), float16], Tensor[(1, 3, 224, 224), float32], Tensor[(1, 3, 224, 349), int8], Tensor[(1, 3, 224, 224), float32], Tensor[(3, 3, 3, 3), float32], Tensor[(1, 224, 3, 224), float32], Tensor[(1, 1, 3, 224, 224), int8]) span=from_string:159:533 */ = %x_171;
  let %x_191: (Tensor[(1, 3, 224, 224), float16], Tensor[(1, 3, 224, 224), float32], Tensor[(1, 3, 224, 349), int8], Tensor[(1, 3, 224, 224), float32], Tensor[(3, 3, 3, 3), float32], Tensor[(1, 224, 3, 224), float32], Tensor[(1, 1, 3, 224, 224), int8]) /* ty=(Tensor[(1, 3, 224, 224), float16], Tensor[(1, 3, 224, 224), float32], Tensor[(1, 3, 224, 349), int8], Tensor[(1, 3, 224, 224), float32], Tensor[(3, 3, 3, 3), float32], Tensor[(1, 224, 3, 224), float32], Tensor[(1, 1, 3, 224, 224), int8]) span=from_string:160:533 */ = %x_181;
  let %x_201: (Tensor[(1, 3, 224, 224), float16], Tensor[(1, 3, 224, 224), float32], Tensor[(1, 3, 224, 349), int8], Tensor[(1, 3, 224, 224), float32], Tensor[(3, 3, 3, 3), float32], Tensor[(1, 224, 3, 224), float32], Tensor[(1, 1, 3, 224, 224), int8]) /* ty=(Tensor[(1, 3, 224, 224), float16], Tensor[(1, 3, 224, 224), float32], Tensor[(1, 3, 224, 349), int8], Tensor[(1, 3, 224, 224), float32], Tensor[(3, 3, 3, 3), float32], Tensor[(1, 224, 3, 224), float32], Tensor[(1, 1, 3, 224, 224), int8]) span=from_string:161:533 */ = %x_191;
  let %x_211: (Tensor[(1, 3, 224, 224), float16], Tensor[(1, 3, 224, 224), float32], Tensor[(1, 3, 224, 349), int8], Tensor[(1, 3, 224, 224), float32], Tensor[(3, 3, 3, 3), float32], Tensor[(1, 224, 3, 224), float32], Tensor[(1, 1, 3, 224, 224), int8]) /* ty=(Tensor[(1, 3, 224, 224), float16], Tensor[(1, 3, 224, 224), float32], Tensor[(1, 3, 224, 349), int8], Tensor[(1, 3, 224, 224), float32], Tensor[(3, 3, 3, 3), float32], Tensor[(1, 224, 3, 224), float32], Tensor[(1, 1, 3, 224, 224), int8]) span=from_string:162:533 */ = %x_201;
  let %x_221: (Tensor[(1, 3, 224, 224), float16], Tensor[(1, 3, 224, 224), float32], Tensor[(1, 3, 224, 349), int8], Tensor[(1, 3, 224, 224), float32], Tensor[(3, 3, 3, 3), float32], Tensor[(1, 224, 3, 224), float32], Tensor[(1, 1, 3, 224, 224), int8]) /* ty=(Tensor[(1, 3, 224, 224), float16], Tensor[(1, 3, 224, 224), float32], Tensor[(1, 3, 224, 349), int8], Tensor[(1, 3, 224, 224), float32], Tensor[(3, 3, 3, 3), float32], Tensor[(1, 224, 3, 224), float32], Tensor[(1, 1, 3, 224, 224), int8]) span=from_string:163:533 */ = %x_211;
  let %x_231: (Tensor[(1, 3, 224, 224), float16], Tensor[(1, 3, 224, 224), float32], Tensor[(1, 3, 224, 349), int8], Tensor[(1, 3, 224, 224), float32], Tensor[(3, 3, 3, 3), float32], Tensor[(1, 224, 3, 224), float32], Tensor[(1, 1, 3, 224, 224), int8]) /* ty=(Tensor[(1, 3, 224, 224), float16], Tensor[(1, 3, 224, 224), float32], Tensor[(1, 3, 224, 349), int8], Tensor[(1, 3, 224, 224), float32], Tensor[(3, 3, 3, 3), float32], Tensor[(1, 224, 3, 224), float32], Tensor[(1, 1, 3, 224, 224), int8]) span=from_string:164:533 */ = %x_221;
  let %x_241: (Tensor[(1, 3, 224, 224), float16], Tensor[(1, 3, 224, 224), float32], Tensor[(1, 3, 224, 349), int8], Tensor[(1, 3, 224, 224), float32], Tensor[(3, 3, 3, 3), float32], Tensor[(1, 224, 3, 224), float32], Tensor[(1, 1, 3, 224, 224), int8]) /* ty=(Tensor[(1, 3, 224, 224), float16], Tensor[(1, 3, 224, 224), float32], Tensor[(1, 3, 224, 349), int8], Tensor[(1, 3, 224, 224), float32], Tensor[(3, 3, 3, 3), float32], Tensor[(1, 224, 3, 224), float32], Tensor[(1, 1, 3, 224, 224), int8]) span=from_string:165:533 */ = %x_231;
  let %x_251: (Tensor[(1, 3, 224, 224), float16], Tensor[(1, 3, 224, 224), float32], Tensor[(1, 3, 224, 349), int8], Tensor[(1, 3, 224, 224), float32], Tensor[(3, 3, 3, 3), float32], Tensor[(1, 224, 3, 224), float32], Tensor[(1, 1, 3, 224, 224), int8]) /* ty=(Tensor[(1, 3, 224, 224), float16], Tensor[(1, 3, 224, 224), float32], Tensor[(1, 3, 224, 349), int8], Tensor[(1, 3, 224, 224), float32], Tensor[(3, 3, 3, 3), float32], Tensor[(1, 224, 3, 224), float32], Tensor[(1, 1, 3, 224, 224), int8]) span=from_string:166:533 */ = %x_241;
  let %x_261: (Tensor[(1, 3, 224, 224), float16], Tensor[(1, 3, 224, 224), float32], Tensor[(1, 3, 224, 349), int8], Tensor[(1, 3, 224, 224), float32], Tensor[(3, 3, 3, 3), float32], Tensor[(1, 224, 3, 224), float32], Tensor[(1, 1, 3, 224, 224), int8]) /* ty=(Tensor[(1, 3, 224, 224), float16], Tensor[(1, 3, 224, 224), float32], Tensor[(1, 3, 224, 349), int8], Tensor[(1, 3, 224, 224), float32], Tensor[(3, 3, 3, 3), float32], Tensor[(1, 224, 3, 224), float32], Tensor[(1, 1, 3, 224, 224), int8]) span=from_string:167:533 */ = %x_251;
  let %x_271: (Tensor[(1, 3, 224, 224), float16], Tensor[(1, 3, 224, 224), float32], Tensor[(1, 3, 224, 349), int8], Tensor[(1, 3, 224, 224), float32], Tensor[(3, 3, 3, 3), float32], Tensor[(1, 224, 3, 224), float32], Tensor[(1, 1, 3, 224, 224), int8]) /* ty=(Tensor[(1, 3, 224, 224), float16], Tensor[(1, 3, 224, 224), float32], Tensor[(1, 3, 224, 349), int8], Tensor[(1, 3, 224, 224), float32], Tensor[(3, 3, 3, 3), float32], Tensor[(1, 224, 3, 224), float32], Tensor[(1, 1, 3, 224, 224), int8]) span=from_string:168:533 */ = %x_261;
  let %x_281: (Tensor[(1, 3, 224, 224), float16], Tensor[(1, 3, 224, 224), float32], Tensor[(1, 3, 224, 349), int8], Tensor[(1, 3, 224, 224), float32], Tensor[(3, 3, 3, 3), float32], Tensor[(1, 224, 3, 224), float32], Tensor[(1, 1, 3, 224, 224), int8]) /* ty=(Tensor[(1, 3, 224, 224), float16], Tensor[(1, 3, 224, 224), float32], Tensor[(1, 3, 224, 349), int8], Tensor[(1, 3, 224, 224), float32], Tensor[(3, 3, 3, 3), float32], Tensor[(1, 224, 3, 224), float32], Tensor[(1, 1, 3, 224, 224), int8]) span=from_string:169:533 */ = %x_271;
  let %x_291: (Tensor[(1, 3, 224, 224), float16], Tensor[(1, 3, 224, 224), float32], Tensor[(1, 3, 224, 349), int8], Tensor[(1, 3, 224, 224), float32], Tensor[(3, 3, 3, 3), float32], Tensor[(1, 224, 3, 224), float32], Tensor[(1, 1, 3, 224, 224), int8]) /* ty=(Tensor[(1, 3, 224, 224), float16], Tensor[(1, 3, 224, 224), float32], Tensor[(1, 3, 224, 349), int8], Tensor[(1, 3, 224, 224), float32], Tensor[(3, 3, 3, 3), float32], Tensor[(1, 224, 3, 224), float32], Tensor[(1, 1, 3, 224, 224), int8]) span=from_string:170:533 */ = %x_281;
  let %x_301: (Tensor[(1, 3, 224, 224), float16], Tensor[(1, 3, 224, 224), float32], Tensor[(1, 3, 224, 349), int8], Tensor[(1, 3, 224, 224), float32], Tensor[(3, 3, 3, 3), float32], Tensor[(1, 224, 3, 224), float32], Tensor[(1, 1, 3, 224, 224), int8]) /* ty=(Tensor[(1, 3, 224, 224), float16], Tensor[(1, 3, 224, 224), float32], Tensor[(1, 3, 224, 349), int8], Tensor[(1, 3, 224, 224), float32], Tensor[(3, 3, 3, 3), float32], Tensor[(1, 224, 3, 224), float32], Tensor[(1, 1, 3, 224, 224), int8]) span=from_string:171:533 */ = %x_291;
  let %x_311: (Tensor[(1, 3, 224, 224), float16], Tensor[(1, 3, 224, 224), float32], Tensor[(1, 3, 224, 349), int8], Tensor[(1, 3, 224, 224), float32], Tensor[(3, 3, 3, 3), float32], Tensor[(1, 224, 3, 224), float32], Tensor[(1, 1, 3, 224, 224), int8]) /* ty=(Tensor[(1, 3, 224, 224), float16], Tensor[(1, 3, 224, 224), float32], Tensor[(1, 3, 224, 349), int8], Tensor[(1, 3, 224, 224), float32], Tensor[(3, 3, 3, 3), float32], Tensor[(1, 224, 3, 224), float32], Tensor[(1, 1, 3, 224, 224), int8]) span=from_string:172:533 */ = %x_301;
  let %x_321: (Tensor[(1, 3, 224, 224), float16], Tensor[(1, 3, 224, 224), float32], Tensor[(1, 3, 224, 349), int8], Tensor[(1, 3, 224, 224), float32], Tensor[(3, 3, 3, 3), float32], Tensor[(1, 224, 3, 224), float32], Tensor[(1, 1, 3, 224, 224), int8]) /* ty=(Tensor[(1, 3, 224, 224), float16], Tensor[(1, 3, 224, 224), float32], Tensor[(1, 3, 224, 349), int8], Tensor[(1, 3, 224, 224), float32], Tensor[(3, 3, 3, 3), float32], Tensor[(1, 224, 3, 224), float32], Tensor[(1, 1, 3, 224, 224), int8]) span=from_string:173:533 */ = %x_311;
  let %x_331: (Tensor[(1, 3, 224, 224), float16], Tensor[(1, 3, 224, 224), float32], Tensor[(1, 3, 224, 349), int8], Tensor[(1, 3, 224, 224), float32], Tensor[(3, 3, 3, 3), float32], Tensor[(1, 224, 3, 224), float32], Tensor[(1, 1, 3, 224, 224), int8]) /* ty=(Tensor[(1, 3, 224, 224), float16], Tensor[(1, 3, 224, 224), float32], Tensor[(1, 3, 224, 349), int8], Tensor[(1, 3, 224, 224), float32], Tensor[(3, 3, 3, 3), float32], Tensor[(1, 224, 3, 224), float32], Tensor[(1, 1, 3, 224, 224), int8]) span=from_string:174:533 */ = %x_321;
  let %x_341: (Tensor[(1, 3, 224, 224), float16], Tensor[(1, 3, 224, 224), float32], Tensor[(1, 3, 224, 349), int8], Tensor[(1, 3, 224, 224), float32], Tensor[(3, 3, 3, 3), float32], Tensor[(1, 224, 3, 224), float32], Tensor[(1, 1, 3, 224, 224), int8]) /* ty=(Tensor[(1, 3, 224, 224), float16], Tensor[(1, 3, 224, 224), float32], Tensor[(1, 3, 224, 349), int8], Tensor[(1, 3, 224, 224), float32], Tensor[(3, 3, 3, 3), float32], Tensor[(1, 224, 3, 224), float32], Tensor[(1, 1, 3, 224, 224), int8]) span=from_string:175:533 */ = %x_331;
  let %x_351: (Tensor[(1, 3, 224, 224), float16], Tensor[(1, 3, 224, 224), float32], Tensor[(1, 3, 224, 349), int8], Tensor[(1, 3, 224, 224), float32], Tensor[(3, 3, 3, 3), float32], Tensor[(1, 224, 3, 224), float32], Tensor[(1, 1, 3, 224, 224), int8]) /* ty=(Tensor[(1, 3, 224, 224), float16], Tensor[(1, 3, 224, 224), float32], Tensor[(1, 3, 224, 349), int8], Tensor[(1, 3, 224, 224), float32], Tensor[(3, 3, 3, 3), float32], Tensor[(1, 224, 3, 224), float32], Tensor[(1, 1, 3, 224, 224), int8]) span=from_string:176:533 */ = %x_341;
  let %x_361: (Tensor[(1, 3, 224, 224), float16], Tensor[(1, 3, 224, 224), float32], Tensor[(1, 3, 224, 349), int8], Tensor[(1, 3, 224, 224), float32], Tensor[(3, 3, 3, 3), float32], Tensor[(1, 224, 3, 224), float32], Tensor[(1, 1, 3, 224, 224), int8]) /* ty=(Tensor[(1, 3, 224, 224), float16], Tensor[(1, 3, 224, 224), float32], Tensor[(1, 3, 224, 349), int8], Tensor[(1, 3, 224, 224), float32], Tensor[(3, 3, 3, 3), float32], Tensor[(1, 224, 3, 224), float32], Tensor[(1, 1, 3, 224, 224), int8]) span=from_string:177:533 */ = %x_351;
  let %x_371: (Tensor[(1, 3, 224, 224), float16], Tensor[(1, 3, 224, 224), float32], Tensor[(1, 3, 224, 349), int8], Tensor[(1, 3, 224, 224), float32], Tensor[(3, 3, 3, 3), float32], Tensor[(1, 224, 3, 224), float32], Tensor[(1, 1, 3, 224, 224), int8]) /* ty=(Tensor[(1, 3, 224, 224), float16], Tensor[(1, 3, 224, 224), float32], Tensor[(1, 3, 224, 349), int8], Tensor[(1, 3, 224, 224), float32], Tensor[(3, 3, 3, 3), float32], Tensor[(1, 224, 3, 224), float32], Tensor[(1, 1, 3, 224, 224), int8]) span=from_string:178:533 */ = %x_361;
  let %x_381: (Tensor[(1, 3, 224, 224), float16], Tensor[(1, 3, 224, 224), float32], Tensor[(1, 3, 224, 349), int8], Tensor[(1, 3, 224, 224), float32], Tensor[(3, 3, 3, 3), float32], Tensor[(1, 224, 3, 224), float32], Tensor[(1, 1, 3, 224, 224), int8]) /* ty=(Tensor[(1, 3, 224, 224), float16], Tensor[(1, 3, 224, 224), float32], Tensor[(1, 3, 224, 349), int8], Tensor[(1, 3, 224, 224), float32], Tensor[(3, 3, 3, 3), float32], Tensor[(1, 224, 3, 224), float32], Tensor[(1, 1, 3, 224, 224), int8]) span=from_string:179:533 */ = %x_371;
  let %x_391: (Tensor[(1, 3, 224, 224), float16], Tensor[(1, 3, 224, 224), float32], Tensor[(1, 3, 224, 349), int8], Tensor[(1, 3, 224, 224), float32], Tensor[(3, 3, 3, 3), float32], Tensor[(1, 224, 3, 224), float32], Tensor[(1, 1, 3, 224, 224), int8]) /* ty=(Tensor[(1, 3, 224, 224), float16], Tensor[(1, 3, 224, 224), float32], Tensor[(1, 3, 224, 349), int8], Tensor[(1, 3, 224, 224), float32], Tensor[(3, 3, 3, 3), float32], Tensor[(1, 224, 3, 224), float32], Tensor[(1, 1, 3, 224, 224), int8]) span=from_string:180:533 */ = %x_381;
  let %x_401: (Tensor[(1, 3, 224, 224), float16], Tensor[(1, 3, 224, 224), float32], Tensor[(1, 3, 224, 349), int8], Tensor[(1, 3, 224, 224), float32], Tensor[(3, 3, 3, 3), float32], Tensor[(1, 224, 3, 224), float32], Tensor[(1, 1, 3, 224, 224), int8]) /* ty=(Tensor[(1, 3, 224, 224), float16], Tensor[(1, 3, 224, 224), float32], Tensor[(1, 3, 224, 349), int8], Tensor[(1, 3, 224, 224), float32], Tensor[(3, 3, 3, 3), float32], Tensor[(1, 224, 3, 224), float32], Tensor[(1, 1, 3, 224, 224), int8]) span=from_string:181:533 */ = %x_391;
  let %x_411: (Tensor[(1, 3, 224, 224), float16], Tensor[(1, 3, 224, 224), float32], Tensor[(1, 3, 224, 349), int8], Tensor[(1, 3, 224, 224), float32], Tensor[(3, 3, 3, 3), float32], Tensor[(1, 224, 3, 224), float32], Tensor[(1, 1, 3, 224, 224), int8]) /* ty=(Tensor[(1, 3, 224, 224), float16], Tensor[(1, 3, 224, 224), float32], Tensor[(1, 3, 224, 349), int8], Tensor[(1, 3, 224, 224), float32], Tensor[(3, 3, 3, 3), float32], Tensor[(1, 224, 3, 224), float32], Tensor[(1, 1, 3, 224, 224), int8]) span=from_string:182:533 */ = %x_401;
  let %x_421: (Tensor[(1, 3, 224, 224), float16], Tensor[(1, 3, 224, 224), float32], Tensor[(1, 3, 224, 349), int8], Tensor[(1, 3, 224, 224), float32], Tensor[(3, 3, 3, 3), float32], Tensor[(1, 224, 3, 224), float32], Tensor[(1, 1, 3, 224, 224), int8]) /* ty=(Tensor[(1, 3, 224, 224), float16], Tensor[(1, 3, 224, 224), float32], Tensor[(1, 3, 224, 349), int8], Tensor[(1, 3, 224, 224), float32], Tensor[(3, 3, 3, 3), float32], Tensor[(1, 224, 3, 224), float32], Tensor[(1, 1, 3, 224, 224), int8]) span=from_string:183:533 */ = %x_411;
  let %x_431: (Tensor[(1, 3, 224, 224), float16], Tensor[(1, 3, 224, 224), float32], Tensor[(1, 3, 224, 349), int8], Tensor[(1, 3, 224, 224), float32], Tensor[(3, 3, 3, 3), float32], Tensor[(1, 224, 3, 224), float32], Tensor[(1, 1, 3, 224, 224), int8]) /* ty=(Tensor[(1, 3, 224, 224), float16], Tensor[(1, 3, 224, 224), float32], Tensor[(1, 3, 224, 349), int8], Tensor[(1, 3, 224, 224), float32], Tensor[(3, 3, 3, 3), float32], Tensor[(1, 224, 3, 224), float32], Tensor[(1, 1, 3, 224, 224), int8]) span=from_string:184:533 */ = %x_421;
  let %x_441: (Tensor[(1, 3, 224, 224), float16], Tensor[(1, 3, 224, 224), float32], Tensor[(1, 3, 224, 349), int8], Tensor[(1, 3, 224, 224), float32], Tensor[(3, 3, 3, 3), float32], Tensor[(1, 224, 3, 224), float32], Tensor[(1, 1, 3, 224, 224), int8]) /* ty=(Tensor[(1, 3, 224, 224), float16], Tensor[(1, 3, 224, 224), float32], Tensor[(1, 3, 224, 349), int8], Tensor[(1, 3, 224, 224), float32], Tensor[(3, 3, 3, 3), float32], Tensor[(1, 224, 3, 224), float32], Tensor[(1, 1, 3, 224, 224), int8]) span=from_string:185:533 */ = %x_431;
  let %x_451: (Tensor[(1, 3, 224, 224), float16], Tensor[(1, 3, 224, 224), float32], Tensor[(1, 3, 224, 349), int8], Tensor[(1, 3, 224, 224), float32], Tensor[(3, 3, 3, 3), float32], Tensor[(1, 224, 3, 224), float32], Tensor[(1, 1, 3, 224, 224), int8]) /* ty=(Tensor[(1, 3, 224, 224), float16], Tensor[(1, 3, 224, 224), float32], Tensor[(1, 3, 224, 349), int8], Tensor[(1, 3, 224, 224), float32], Tensor[(3, 3, 3, 3), float32], Tensor[(1, 224, 3, 224), float32], Tensor[(1, 1, 3, 224, 224), int8]) span=from_string:186:533 */ = %x_441;
  let %x_461: (Tensor[(1, 3, 224, 224), float16], Tensor[(1, 3, 224, 224), float32], Tensor[(1, 3, 224, 349), int8], Tensor[(1, 3, 224, 224), float32], Tensor[(3, 3, 3, 3), float32], Tensor[(1, 224, 3, 224), float32], Tensor[(1, 1, 3, 224, 224), int8]) /* ty=(Tensor[(1, 3, 224, 224), float16], Tensor[(1, 3, 224, 224), float32], Tensor[(1, 3, 224, 349), int8], Tensor[(1, 3, 224, 224), float32], Tensor[(3, 3, 3, 3), float32], Tensor[(1, 224, 3, 224), float32], Tensor[(1, 1, 3, 224, 224), int8]) span=from_string:187:533 */ = %x_451;
  let %x_471: (Tensor[(1, 3, 224, 224), float16], Tensor[(1, 3, 224, 224), float32], Tensor[(1, 3, 224, 349), int8], Tensor[(1, 3, 224, 224), float32], Tensor[(3, 3, 3, 3), float32], Tensor[(1, 224, 3, 224), float32], Tensor[(1, 1, 3, 224, 224), int8]) /* ty=(Tensor[(1, 3, 224, 224), float16], Tensor[(1, 3, 224, 224), float32], Tensor[(1, 3, 224, 349), int8], Tensor[(1, 3, 224, 224), float32], Tensor[(3, 3, 3, 3), float32], Tensor[(1, 224, 3, 224), float32], Tensor[(1, 1, 3, 224, 224), int8]) span=from_string:188:533 */ = %x_461;
  let %x_481: (Tensor[(1, 3, 224, 224), float16], Tensor[(1, 3, 224, 224), float32], Tensor[(1, 3, 224, 349), int8], Tensor[(1, 3, 224, 224), float32], Tensor[(3, 3, 3, 3), float32], Tensor[(1, 224, 3, 224), float32], Tensor[(1, 1, 3, 224, 224), int8]) /* ty=(Tensor[(1, 3, 224, 224), float16], Tensor[(1, 3, 224, 224), float32], Tensor[(1, 3, 224, 349), int8], Tensor[(1, 3, 224, 224), float32], Tensor[(3, 3, 3, 3), float32], Tensor[(1, 224, 3, 224), float32], Tensor[(1, 1, 3, 224, 224), int8]) span=from_string:189:533 */ = %x_471;
  let %x_491: (Tensor[(1, 3, 224, 224), float16], Tensor[(1, 3, 224, 224), float32], Tensor[(1, 3, 224, 349), int8], Tensor[(1, 3, 224, 224), float32], Tensor[(3, 3, 3, 3), float32], Tensor[(1, 224, 3, 224), float32], Tensor[(1, 1, 3, 224, 224), int8]) /* ty=(Tensor[(1, 3, 224, 224), float16], Tensor[(1, 3, 224, 224), float32], Tensor[(1, 3, 224, 349), int8], Tensor[(1, 3, 224, 224), float32], Tensor[(3, 3, 3, 3), float32], Tensor[(1, 224, 3, 224), float32], Tensor[(1, 1, 3, 224, 224), int8]) span=from_string:190:533 */ = %x_481;
  let %x_501: (Tensor[(1, 3, 224, 224), float16], Tensor[(1, 3, 224, 224), float32], Tensor[(1, 3, 224, 349), int8], Tensor[(1, 3, 224, 224), float32], Tensor[(3, 3, 3, 3), float32], Tensor[(1, 224, 3, 224), float32], Tensor[(1, 1, 3, 224, 224), int8]) /* ty=(Tensor[(1, 3, 224, 224), float16], Tensor[(1, 3, 224, 224), float32], Tensor[(1, 3, 224, 349), int8], Tensor[(1, 3, 224, 224), float32], Tensor[(3, 3, 3, 3), float32], Tensor[(1, 224, 3, 224), float32], Tensor[(1, 1, 3, 224, 224), int8]) span=from_string:191:533 */ = %x_491;
  let %x_511: (Tensor[(1, 3, 224, 224), float16], Tensor[(1, 3, 224, 224), float32], Tensor[(1, 3, 224, 349), int8], Tensor[(1, 3, 224, 224), float32], Tensor[(3, 3, 3, 3), float32], Tensor[(1, 224, 3, 224), float32], Tensor[(1, 1, 3, 224, 224), int8]) /* ty=(Tensor[(1, 3, 224, 224), float16], Tensor[(1, 3, 224, 224), float32], Tensor[(1, 3, 224, 349), int8], Tensor[(1, 3, 224, 224), float32], Tensor[(3, 3, 3, 3), float32], Tensor[(1, 224, 3, 224), float32], Tensor[(1, 1, 3, 224, 224), int8]) span=from_string:192:533 */ = %x_501;
  let %x_521: (Tensor[(1, 3, 224, 224), float16], Tensor[(1, 3, 224, 224), float32], Tensor[(1, 3, 224, 349), int8], Tensor[(1, 3, 224, 224), float32], Tensor[(3, 3, 3, 3), float32], Tensor[(1, 224, 3, 224), float32], Tensor[(1, 1, 3, 224, 224), int8]) /* ty=(Tensor[(1, 3, 224, 224), float16], Tensor[(1, 3, 224, 224), float32], Tensor[(1, 3, 224, 349), int8], Tensor[(1, 3, 224, 224), float32], Tensor[(3, 3, 3, 3), float32], Tensor[(1, 224, 3, 224), float32], Tensor[(1, 1, 3, 224, 224), int8]) span=from_string:193:533 */ = %x_511;
  let %x_531: (Tensor[(1, 3, 224, 224), float16], Tensor[(1, 3, 224, 224), float32], Tensor[(1, 3, 224, 349), int8], Tensor[(1, 3, 224, 224), float32], Tensor[(3, 3, 3, 3), float32], Tensor[(1, 224, 3, 224), float32], Tensor[(1, 1, 3, 224, 224), int8]) /* ty=(Tensor[(1, 3, 224, 224), float16], Tensor[(1, 3, 224, 224), float32], Tensor[(1, 3, 224, 349), int8], Tensor[(1, 3, 224, 224), float32], Tensor[(3, 3, 3, 3), float32], Tensor[(1, 224, 3, 224), float32], Tensor[(1, 1, 3, 224, 224), int8]) span=from_string:194:533 */ = %x_521;
  let %x_541: (Tensor[(1, 3, 224, 224), float16], Tensor[(1, 3, 224, 224), float32], Tensor[(1, 3, 224, 349), int8], Tensor[(1, 3, 224, 224), float32], Tensor[(3, 3, 3, 3), float32], Tensor[(1, 224, 3, 224), float32], Tensor[(1, 1, 3, 224, 224), int8]) /* ty=(Tensor[(1, 3, 224, 224), float16], Tensor[(1, 3, 224, 224), float32], Tensor[(1, 3, 224, 349), int8], Tensor[(1, 3, 224, 224), float32], Tensor[(3, 3, 3, 3), float32], Tensor[(1, 224, 3, 224), float32], Tensor[(1, 1, 3, 224, 224), int8]) span=from_string:195:533 */ = %x_531;
  let %x_551: (Tensor[(1, 3, 224, 224), float16], Tensor[(1, 3, 224, 224), float32], Tensor[(1, 3, 224, 349), int8], Tensor[(1, 3, 224, 224), float32], Tensor[(3, 3, 3, 3), float32], Tensor[(1, 224, 3, 224), float32], Tensor[(1, 1, 3, 224, 224), int8]) /* ty=(Tensor[(1, 3, 224, 224), float16], Tensor[(1, 3, 224, 224), float32], Tensor[(1, 3, 224, 349), int8], Tensor[(1, 3, 224, 224), float32], Tensor[(3, 3, 3, 3), float32], Tensor[(1, 224, 3, 224), float32], Tensor[(1, 1, 3, 224, 224), int8]) span=from_string:196:533 */ = %x_541;
  let %x_561: (Tensor[(1, 3, 224, 224), float16], Tensor[(1, 3, 224, 224), float32], Tensor[(1, 3, 224, 349), int8], Tensor[(1, 3, 224, 224), float32], Tensor[(3, 3, 3, 3), float32], Tensor[(1, 224, 3, 224), float32], Tensor[(1, 1, 3, 224, 224), int8]) /* ty=(Tensor[(1, 3, 224, 224), float16], Tensor[(1, 3, 224, 224), float32], Tensor[(1, 3, 224, 349), int8], Tensor[(1, 3, 224, 224), float32], Tensor[(3, 3, 3, 3), float32], Tensor[(1, 224, 3, 224), float32], Tensor[(1, 1, 3, 224, 224), int8]) span=from_string:197:533 */ = %x_551;
  let %x_571: (Tensor[(1, 3, 224, 224), float16], Tensor[(1, 3, 224, 224), float32], Tensor[(1, 3, 224, 349), int8], Tensor[(1, 3, 224, 224), float32], Tensor[(3, 3, 3, 3), float32], Tensor[(1, 224, 3, 224), float32], Tensor[(1, 1, 3, 224, 224), int8]) /* ty=(Tensor[(1, 3, 224, 224), float16], Tensor[(1, 3, 224, 224), float32], Tensor[(1, 3, 224, 349), int8], Tensor[(1, 3, 224, 224), float32], Tensor[(3, 3, 3, 3), float32], Tensor[(1, 224, 3, 224), float32], Tensor[(1, 1, 3, 224, 224), int8]) span=from_string:198:533 */ = %x_561;
  let %x_581: (Tensor[(1, 3, 224, 224), float16], Tensor[(1, 3, 224, 224), float32], Tensor[(1, 3, 224, 349), int8], Tensor[(1, 3, 224, 224), float32], Tensor[(3, 3, 3, 3), float32], Tensor[(1, 224, 3, 224), float32], Tensor[(1, 1, 3, 224, 224), int8]) /* ty=(Tensor[(1, 3, 224, 224), float16], Tensor[(1, 3, 224, 224), float32], Tensor[(1, 3, 224, 349), int8], Tensor[(1, 3, 224, 224), float32], Tensor[(3, 3, 3, 3), float32], Tensor[(1, 224, 3, 224), float32], Tensor[(1, 1, 3, 224, 224), int8]) span=from_string:199:533 */ = %x_571;
  let %x_591: (Tensor[(1, 3, 224, 224), float16], Tensor[(1, 3, 224, 224), float32], Tensor[(1, 3, 224, 349), int8], Tensor[(1, 3, 224, 224), float32], Tensor[(3, 3, 3, 3), float32], Tensor[(1, 224, 3, 224), float32], Tensor[(1, 1, 3, 224, 224), int8]) /* ty=(Tensor[(1, 3, 224, 224), float16], Tensor[(1, 3, 224, 224), float32], Tensor[(1, 3, 224, 349), int8], Tensor[(1, 3, 224, 224), float32], Tensor[(3, 3, 3, 3), float32], Tensor[(1, 224, 3, 224), float32], Tensor[(1, 1, 3, 224, 224), int8]) span=from_string:200:533 */ = %x_581;
  let %x_601: (Tensor[(1, 3, 224, 224), float16], Tensor[(1, 3, 224, 224), float32], Tensor[(1, 3, 224, 349), int8], Tensor[(1, 3, 224, 224), float32], Tensor[(3, 3, 3, 3), float32], Tensor[(1, 224, 3, 224), float32], Tensor[(1, 1, 3, 224, 224), int8]) /* ty=(Tensor[(1, 3, 224, 224), float16], Tensor[(1, 3, 224, 224), float32], Tensor[(1, 3, 224, 349), int8], Tensor[(1, 3, 224, 224), float32], Tensor[(3, 3, 3, 3), float32], Tensor[(1, 224, 3, 224), float32], Tensor[(1, 1, 3, 224, 224), int8]) span=from_string:201:531 */ = %x_591;
  let %x_611: (Tensor[(1, 3, 224, 224), float16], Tensor[(1, 3, 224, 224), float32], Tensor[(1, 3, 224, 349), int8], Tensor[(1, 3, 224, 224), float32], Tensor[(3, 3, 3, 3), float32], Tensor[(1, 224, 3, 224), float32], Tensor[(1, 1, 3, 224, 224), int8]) /* ty=(Tensor[(1, 3, 224, 224), float16], Tensor[(1, 3, 224, 224), float32], Tensor[(1, 3, 224, 349), int8], Tensor[(1, 3, 224, 224), float32], Tensor[(3, 3, 3, 3), float32], Tensor[(1, 224, 3, 224), float32], Tensor[(1, 1, 3, 224, 224), int8]) span=from_string:202:3 */ = %x_601;
  %x_611
}
