#[version = "0.0.5"]
def @main(%x0: Tensor[(1, 3, 224, 224), int8] /* ty=Tensor[(1, 3, 224, 224), int8] span=from_string:38:13 */, %x1: Tensor[(1, 3, 224, 224), int8] /* ty=Tensor[(1, 3, 224, 224), int8] span=from_string:53:13 */, %x2: Tensor[(3, 3, 3, 3), float32] /* ty=Tensor[(3, 3, 3, 3), float32] span=from_string:26:18 */, %x3: Tensor[(3, 3, 1, 1), float32] /* ty=Tensor[(3, 3, 1, 1), float32] span=from_string:72:18 */, %x4: Tensor[(3, 3, 3, 3), float32] /* ty=Tensor[(3, 3, 3, 3), float32] span=from_string:75:13 */, %x5: Tensor[(1, 3, 224, 89), int8] /* ty=Tensor[(1, 3, 224, 89), int8] span=from_string:73:18 */, %x6: Tensor[(1, 3, 224, 32), int8] /* ty=Tensor[(1, 3, 224, 32), int8] span=from_string:73:23 */, %x7: Tensor[(1, 3, 224, 4), int8] /* ty=Tensor[(1, 3, 224, 4), int8] span=from_string:73:28 */, %x8: Tensor[(224), float32] /* ty=Tensor[(224), float32] span=from_string:63:35 */, %x9: Tensor[(224), float32] /* ty=Tensor[(224), float32] span=from_string:63:30 */, %x10: Tensor[(224), float32] /* ty=Tensor[(224), float32] span=from_string:63:24 */, %x11: Tensor[(224), float32] /* ty=Tensor[(224), float32] span=from_string:63:18 */) -> (Tensor[(1, 3, 224, 224), float16], Tensor[(1, 3, 224, 224), float32], Tensor[(1, 3, 224, 349), int8], Tensor[(1, 3, 224, 224), float32], Tensor[(3, 3, 3, 3), float32], Tensor[(1, 224, 3, 224), float32], Tensor[(1, 1, 3, 224, 224), int8]) {
  %0 = fn (%p02: Tensor[(1, 3, 224, 224), int8] /* ty=Tensor[(1, 3, 224, 224), int8] span=from_string:4:20 */, Primitive=1) -> Tensor[(1, 3, 224, 224), float32] {
    qnn.dequantize(%p02, 0.1f /* ty=float32 span=from_string:4:30 */, 0 /* ty=int32 span=from_string:4:72 */) /* ty=Tensor[(1, 3, 224, 224), float32] span=from_string:4:5 */
  } /* ty=fn (Tensor[(1, 3, 224, 224), int8]) -> Tensor[(1, 3, 224, 224), float32] span=from_string:6:8 */;
  %1 = %0(%x0) /* ty=Tensor[(1, 3, 224, 224), float32] span=from_string:53:18 */;
  %2 = fn (%p01: Tensor[(1, 3, 224, 224), float32] /* ty=Tensor[(1, 3, 224, 224), float32] span=from_string:8:16 */, Primitive=1) -> Tensor[(1, 3, 224, 224), float32] {
    nn.softmax(%p01) /* ty=Tensor[(1, 3, 224, 224), float32] span=from_string:8:5 */
  } /* ty=fn (Tensor[(1, 3, 224, 224), float32]) -> Tensor[(1, 3, 224, 224), float32] span=from_string:10:8 */;
  %3 = %2(%1) /* ty=Tensor[(1, 3, 224, 224), float32] span=from_string:71:12 */;
  %4 = fn (%p0: Tensor[(1, 3, 224, 224), float32] /* ty=Tensor[(1, 3, 224, 224), float32] span=from_string:12:10 */, Primitive=1) -> Tensor[(1, 3, 224, 224), float16] {
    cast(%p0, dtype="float16") /* ty=Tensor[(1, 3, 224, 224), float16] span=from_string:12:5 */
  } /* ty=fn (Tensor[(1, 3, 224, 224), float32]) -> Tensor[(1, 3, 224, 224), float16] span=from_string:71:9 */;
  %11 = fn (%p05: Tensor[(1, 3, 224, 224), float32] /* ty=Tensor[(1, 3, 224, 224), float32] span=from_string:16:14 */, Primitive=1) -> Tensor[(1, 3, 224, 224), float32] {
    %8 = zeros(shape=[1], dtype="float32") /* ty=Tensor[(1), float32] span=from_string:16:20 */;
    %9 = add(%p05, %8) /* ty=Tensor[(1, 3, 224, 224), float32] span=from_string:17:58 */;
    %10 = add(2f /* ty=float32 span=from_string:17:17 */, %9) /* ty=Tensor[(1, 3, 224, 224), float32] span=from_string:18:9 */;
    add(%10, 1f /* ty=float32 span=from_string:18:16 */) /* ty=Tensor[(1, 3, 224, 224), float32] span=from_string:15:5 */
  } /* ty=fn (Tensor[(1, 3, 224, 224), float32]) -> Tensor[(1, 3, 224, 224), float32] span=from_string:20:9 */;
  %12 = %11(%3) /* ty=Tensor[(1, 3, 224, 224), float32] span=from_string:26:13 */;
  %13 = fn (%p04: Tensor[(1, 3, 224, 224), float32] /* ty=Tensor[(1, 3, 224, 224), float32] span=from_string:22:20 */, %p11: Tensor[(3, 3, 3, 3), float32] /* ty=Tensor[(3, 3, 3, 3), float32] span=from_string:22:26 */, Primitive=1) -> Tensor[(1, 3, 224, 224), float32] {
    %6 = nn.conv2d(%p04, %p11, padding=[1, 1, 1, 1], channels=3, kernel_size=[3, 3]) /* ty=Tensor[(1, 3, 224, 224), float32] span=from_string:24:9 */;
    %7 = add(1f /* ty=float32 span=from_string:23:16 */, %6) /* ty=Tensor[(1, 3, 224, 224), float32] span=from_string:24:13 */;
    add(%6, %7) /* ty=Tensor[(1, 3, 224, 224), float32] span=from_string:22:5 */
  } /* ty=fn (Tensor[(1, 3, 224, 224), float32], Tensor[(3, 3, 3, 3), float32]) -> Tensor[(1, 3, 224, 224), float32] span=from_string:26:9 */;
  %14 = %13(%12, %x2) /* ty=Tensor[(1, 3, 224, 224), float32] span=from_string:72:13 */;
  %15 = fn (%p06: Tensor[(1, 3, 224, 224), float32] /* ty=Tensor[(1, 3, 224, 224), float32] span=from_string:28:15 */, %p12: Tensor[(3, 3, 3, 3), float32] /* ty=Tensor[(3, 3, 3, 3), float32] span=from_string:28:21 */, Primitive=1) -> Tensor[(1, 3, 224, 224), float32] {
    nn.conv2d(%p06, %p12, padding=[1, 1, 1, 1], channels=3, kernel_size=[3, 3]) /* ty=Tensor[(1, 3, 224, 224), float32] span=from_string:28:5 */
  } /* ty=fn (Tensor[(1, 3, 224, 224), float32], Tensor[(3, 3, 3, 3), float32]) -> Tensor[(1, 3, 224, 224), float32] span=from_string:30:9 */;
  %16 = %15(%14, %x4) /* ty=Tensor[(1, 3, 224, 224), float32] span=from_string:72:23 */;
  %17 = fn (%p03: Tensor[(1, 3, 224, 224), float32] /* ty=Tensor[(1, 3, 224, 224), float32] span=from_string:32:20 */, %p1: Tensor[(3, 3, 1, 1), float32] /* ty=Tensor[(3, 3, 1, 1), float32] span=from_string:32:26 */, %p2: Tensor[(1, 3, 224, 224), float32] /* ty=Tensor[(1, 3, 224, 224), float32] span=from_string:33:13 */, Primitive=1) -> Tensor[(1, 3, 224, 224), float32] {
    %5 = nn.conv2d(%p03, %p1, padding=[0, 0, 0, 0], channels=3, kernel_size=[1, 1]) /* ty=Tensor[(1, 3, 224, 224), float32] span=from_string:33:9 */;
    add(%5, %p2) /* ty=Tensor[(1, 3, 224, 224), float32] span=from_string:32:5 */
  } /* ty=fn (Tensor[(1, 3, 224, 224), float32], Tensor[(3, 3, 1, 1), float32], Tensor[(1, 3, 224, 224), float32]) -> Tensor[(1, 3, 224, 224), float32] span=from_string:72:9 */;
  %21 = fn (%p08: Tensor[(1, 3, 224, 224), int8] /* ty=Tensor[(1, 3, 224, 224), int8] span=from_string:36:14 */, %p14: Tensor[(1, 3, 224, 224), int8] /* ty=Tensor[(1, 3, 224, 224), int8] span=from_string:36:20 */, Primitive=1) -> Tensor[(1, 3, 224, 224), int8] {
    qnn.mul(%p08, %p14, 0.1f /* ty=float32 span=from_string:36:30 */, 0 /* ty=int32 span=from_string:36:73 */, 0.2f /* ty=float32 span=from_string:36:117 */, 0 /* ty=int32 span=from_string:36:161 */, 20f /* ty=float32 span=from_string:36:205 */, 0 /* ty=int32 span=from_string:36:249 */) /* ty=Tensor[(1, 3, 224, 224), int8] span=from_string:36:5 */
  } /* ty=fn (Tensor[(1, 3, 224, 224), int8], Tensor[(1, 3, 224, 224), int8]) -> Tensor[(1, 3, 224, 224), int8] span=from_string:38:9 */;
  %22 = %21(%x0, %x1) /* ty=Tensor[(1, 3, 224, 224), int8] span=from_string:77:13 */;
  %23 = fn (%p07: Tensor[(1, 3, 224, 224), int8] /* ty=Tensor[(1, 3, 224, 224), int8] span=from_string:40:12 */, %p13: Tensor[(1, 3, 224, 89), int8] /* ty=Tensor[(1, 3, 224, 89), int8] span=from_string:40:18 */, %p21: Tensor[(1, 3, 224, 32), int8] /* ty=Tensor[(1, 3, 224, 32), int8] span=from_string:40:24 */, %p3: Tensor[(1, 3, 224, 4), int8] /* ty=Tensor[(1, 3, 224, 4), int8] span=from_string:40:30 */, Primitive=1) -> Tensor[(1, 3, 224, 349), int8] {
    %18 = (%p07, %p13, %p21, %p3) /* ty=(Tensor[(1, 3, 224, 224), int8], Tensor[(1, 3, 224, 89), int8], Tensor[(1, 3, 224, 32), int8], Tensor[(1, 3, 224, 4), int8]) span=from_string:43:21 */;
    %19 = (0.5f /* ty=float32 span=from_string:41:16 */, 1.5f /* ty=float32 span=from_string:41:62 */, 2.5f /* ty=float32 span=from_string:41:108 */, 3.5f /* ty=float32 span=from_string:41:155 */) /* ty=(float32, float32, float32, float32) span=from_string:43:26 */;
    %20 = (0 /* ty=int32 span=from_string:42:13 */, 0 /* ty=int32 span=from_string:42:54 */, 0 /* ty=int32 span=from_string:42:95 */, 0 /* ty=int32 span=from_string:42:136 */) /* ty=(int32, int32, int32, int32) span=from_string:43:31 */;
    qnn.concatenate(%18, %19, %20, 3.5f /* ty=float32 span=from_string:43:40 */, 0 /* ty=int32 span=from_string:43:83 */, axis=-1) /* ty=Tensor[(1, 3, 224, 349), int8] span=from_string:40:5 */
  } /* ty=fn (Tensor[(1, 3, 224, 224), int8], Tensor[(1, 3, 224, 89), int8], Tensor[(1, 3, 224, 32), int8], Tensor[(1, 3, 224, 4), int8]) -> Tensor[(1, 3, 224, 349), int8] span=from_string:73:9 */;
  %29 = fn (%p010: Tensor[(1, 3, 224, 224), int8] /* ty=Tensor[(1, 3, 224, 224), int8] span=from_string:46:26 */, %p15: Tensor[(1, 3, 224, 224), float32] /* ty=Tensor[(1, 3, 224, 224), float32] span=from_string:47:21 */, Primitive=1) -> Tensor[(1, 224, 3, 224), float32] {
    %24 = qnn.dequantize(%p010, 0.2f /* ty=float32 span=from_string:46:37 */, 0 /* ty=int32 span=from_string:46:80 */) /* ty=Tensor[(1, 3, 224, 224), float32] span=from_string:47:27 */;
    %25 = multiply(%p15, %24) /* ty=Tensor[(1, 3, 224, 224), float32] span=from_string:48:28 */;
    %26 = layout_transform(%25, src_layout="NHWC", dst_layout="NCHW") /* ty=Tensor[(1, 224, 3, 224), float32] span=from_string:49:28 */;
    %27 = layout_transform(%26, src_layout="NCHW", dst_layout="NCHW4c") /* ty=Tensor[(1, 56, 3, 224, 4), float32] span=from_string:50:19 */;
    %28 = nn.relu(%27) /* ty=Tensor[(1, 56, 3, 224, 4), float32] span=from_string:51:22 */;
    layout_transform(%28, src_layout="NCHW4c", dst_layout="NCHW") /* ty=Tensor[(1, 224, 3, 224), float32] span=from_string:46:5 */
  } /* ty=fn (Tensor[(1, 3, 224, 224), int8], Tensor[(1, 3, 224, 224), float32]) -> Tensor[(1, 224, 3, 224), float32] span=from_string:53:9 */;
  %30 = %29(%x1, %1) /* ty=Tensor[(1, 224, 3, 224), float32] span=from_string:74:13 */;
  %31 = fn (%p09: Tensor[(1, 224, 3, 224), float32] /* ty=Tensor[(1, 224, 3, 224), float32] span=from_string:55:22 */, Primitive=1) -> Tensor[(1, 3, 224, 224), float32] {
    layout_transform(%p09, src_layout="NCHW", dst_layout="NHWC") /* ty=Tensor[(1, 3, 224, 224), float32] span=from_string:55:5 */
  } /* ty=fn (Tensor[(1, 224, 3, 224), float32]) -> Tensor[(1, 3, 224, 224), float32] span=from_string:74:9 */;
  %32 = fn (%p011: Tensor[(3, 3, 3, 3), float32] /* ty=Tensor[(3, 3, 3, 3), float32] span=from_string:58:53 */, Primitive=1) -> Tensor[(3, 3, 3, 3), float32] {
    add(2f /* ty=float32 span=from_string:58:11 */, %p011) /* ty=Tensor[(3, 3, 3, 3), float32] span=from_string:58:5 */
  } /* ty=fn (Tensor[(3, 3, 3, 3), float32]) -> Tensor[(3, 3, 3, 3), float32] span=from_string:75:9 */;
  %34 = fn (%p013: Tensor[(1, 224, 3, 224), float32] /* ty=Tensor[(1, 224, 3, 224), float32] span=from_string:61:19 */, %p16: Tensor[(224), float32] /* ty=Tensor[(224), float32] span=from_string:61:26 */, %p22: Tensor[(224), float32] /* ty=Tensor[(224), float32] span=from_string:61:32 */, %p31: Tensor[(224), float32] /* ty=Tensor[(224), float32] span=from_string:61:38 */, %p4: Tensor[(224), float32] /* ty=Tensor[(224), float32] span=from_string:61:44 */, Primitive=1) -> (Tensor[(1, 224, 3, 224), float32], Tensor[(224), float32], Tensor[(224), float32]) {
    nn.batch_norm(%p013, %p16, %p22, %p31, %p4) /* ty=(Tensor[(1, 224, 3, 224), float32], Tensor[(224), float32], Tensor[(224), float32]) span=from_string:61:5 */
  } /* ty=fn (Tensor[(1, 224, 3, 224), float32], Tensor[(224), float32], Tensor[(224), float32], Tensor[(224), float32], Tensor[(224), float32]) -> (Tensor[(1, 224, 3, 224), float32], Tensor[(224), float32], Tensor[(224), float32]) span=from_string:63:9 */;
  %35 = %34(%30, %x11, %x10, %x9, %x8) /* ty=(Tensor[(1, 224, 3, 224), float32], Tensor[(224), float32], Tensor[(224), float32]) span=from_string:76:13 */;
  %36 = fn (%p012: (Tensor[(1, 224, 3, 224), float32], Tensor[(224), float32], Tensor[(224), float32]) /* ty=(Tensor[(1, 224, 3, 224), float32], Tensor[(224), float32], Tensor[(224), float32]) span=from_string:65:11 */, Primitive=1) -> Tensor[(1, 224, 3, 224), float32] {
    %33 = %p012.0 /* ty=Tensor[(1, 224, 3, 224), float32] span=from_string:66:14 */;
    add(%33, %33) /* ty=Tensor[(1, 224, 3, 224), float32] span=from_string:65:5 */
  } /* ty=fn ((Tensor[(1, 224, 3, 224), float32], Tensor[(224), float32], Tensor[(224), float32])) -> Tensor[(1, 224, 3, 224), float32] span=from_string:76:9 */;
  %37 = fn (%p014: Tensor[(1, 3, 224, 224), int8] /* ty=Tensor[(1, 3, 224, 224), int8] span=from_string:69:17 */, Primitive=1, relay.reshape_only=1) -> Tensor[(1, 1, 3, 224, 224), int8] {
    expand_dims(%p014, axis=1) /* ty=Tensor[(1, 1, 3, 224, 224), int8] span=from_string:69:5 */
  } /* ty=fn (Tensor[(1, 3, 224, 224), int8]) -> Tensor[(1, 1, 3, 224, 224), int8] span=from_string:77:9 */;
  %38 = %4(%3) /* ty=Tensor[(1, 3, 224, 224), float16] span=from_string:78:4 */;
  %39 = %17(%14, %x3, %16) /* ty=Tensor[(1, 3, 224, 224), float32] span=from_string:78:9 */;
  %40 = %23(%22, %x5, %x6, %x7) /* ty=Tensor[(1, 3, 224, 349), int8] span=from_string:78:14 */;
  %41 = %31(%30) /* ty=Tensor[(1, 3, 224, 224), float32] span=from_string:78:19 */;
  %42 = %32(%x4) /* ty=Tensor[(3, 3, 3, 3), float32] span=from_string:78:24 */;
  %43 = %36(%35) /* ty=Tensor[(1, 224, 3, 224), float32] span=from_string:78:29 */;
  %44 = %37(%22) /* ty=Tensor[(1, 1, 3, 224, 224), int8] span=from_string:78:34 */;
  (%38, %39, %40, %41, %42, %43, %44) /* ty=(Tensor[(1, 3, 224, 224), float16], Tensor[(1, 3, 224, 224), float32], Tensor[(1, 3, 224, 349), int8], Tensor[(1, 3, 224, 224), float32], Tensor[(3, 3, 3, 3), float32], Tensor[(1, 224, 3, 224), float32], Tensor[(1, 1, 3, 224, 224), int8]) span=from_string:3:3 */
}
