#[version = "0.0.5"]
def @main(%x0: Tensor[(1, 3, 224, 224), int8] /* ty=Tensor[(1, 3, 224, 224), int8] span=from_string:14:18 */, %x1: Tensor[(1, 3, 224, 224), int8] /* ty=Tensor[(1, 3, 224, 224), int8] span=from_string:18:24 */, %x2: Tensor[(3, 3, 3, 3), float32] /* ty=Tensor[(3, 3, 3, 3), float32] span=from_string:9:22 */, %x3: Tensor[(3, 3, 1, 1), float32] /* ty=Tensor[(3, 3, 1, 1), float32] span=from_string:12:22 */, %x4: Tensor[(3, 3, 3, 3), float32] /* ty=Tensor[(3, 3, 3, 3), float32] span=from_string:30:57 */, %x5: Tensor[(1, 3, 224, 89), int8] /* ty=Tensor[(1, 3, 224, 89), int8] span=from_string:15:15 */, %x6: Tensor[(1, 3, 224, 32), int8] /* ty=Tensor[(1, 3, 224, 32), int8] span=from_string:15:20 */, %x7: Tensor[(1, 3, 224, 4), int8] /* ty=Tensor[(1, 3, 224, 4), int8] span=from_string:15:25 */, %x8: Tensor[(224), float32] /* ty=Tensor[(224), float32] span=from_string:24:45 */, %x9: Tensor[(224), float32] /* ty=Tensor[(224), float32] span=from_string:24:40 */, %x10: Tensor[(224), float32] /* ty=Tensor[(224), float32] span=from_string:24:34 */, %x11: Tensor[(224), float32] /* ty=Tensor[(224), float32] span=from_string:24:28 */) -> (Tensor[(1, 3, 224, 224), float16], Tensor[(1, 3, 224, 224), float32], Tensor[(1, 3, 224, 349), int8], Tensor[(1, 3, 224, 224), float32], Tensor[(3, 3, 3, 3), float32], Tensor[(1, 224, 3, 224), float32], Tensor[(1, 1, 3, 224, 224), int8]) {
  %0 = fn (%p02: Tensor[(1, 3, 224, 224), int8] /* ty=Tensor[(1, 3, 224, 224), int8] */, Primitive=1) -> Tensor[(1, 3, 224, 224), float32] {
    qnn.dequantize(%p02, 0.1f /* ty=float32 span=from_string:3:32 */, 0 /* ty=int32 span=from_string:3:74 */) /* ty=Tensor[(1, 3, 224, 224), float32] span=from_string:19:19 */
  } /* ty=fn (Tensor[(1, 3, 224, 224), int8]) -> Tensor[(1, 3, 224, 224), float32] */;
  %1 = %0(%x0) /* ty=Tensor[(1, 3, 224, 224), float32] */;
  %2 = fn (%p01: Tensor[(1, 3, 224, 224), float32] /* ty=Tensor[(1, 3, 224, 224), float32] */, Primitive=1) -> Tensor[(1, 3, 224, 224), float32] {
    nn.softmax(%p01) /* ty=Tensor[(1, 3, 224, 224), float32] span=from_string:26:14 */
  } /* ty=fn (Tensor[(1, 3, 224, 224), float32]) -> Tensor[(1, 3, 224, 224), float32] */;
  %3 = %2(%1) /* ty=Tensor[(1, 3, 224, 224), float32] */;
  %4 = fn (%p0: Tensor[(1, 3, 224, 224), float32] /* ty=Tensor[(1, 3, 224, 224), float32] */, Primitive=1) -> Tensor[(1, 3, 224, 224), float16] {
    cast(%p0, dtype="float16") /* ty=Tensor[(1, 3, 224, 224), float16] span=from_string:33:4 */
  } /* ty=fn (Tensor[(1, 3, 224, 224), float32]) -> Tensor[(1, 3, 224, 224), float16] */;
  %11 = fn (%p05: Tensor[(1, 3, 224, 224), float32] /* ty=Tensor[(1, 3, 224, 224), float32] */, Primitive=1) -> Tensor[(1, 3, 224, 224), float32] {
    %8 = zeros(shape=[1], dtype="float32") /* ty=Tensor[(1), float32] span=from_string:6:16 */;
    %9 = add(%p05, %8) /* ty=Tensor[(1, 3, 224, 224), float32] span=from_string:7:56 */;
    %10 = add(2f /* ty=float32 span=from_string:7:14 */, %9) /* ty=Tensor[(1, 3, 224, 224), float32] span=from_string:8:12 */;
    add(%10, 1f /* ty=float32 span=from_string:8:18 */) /* ty=Tensor[(1, 3, 224, 224), float32] span=from_string:9:18 */
  } /* ty=fn (Tensor[(1, 3, 224, 224), float32]) -> Tensor[(1, 3, 224, 224), float32] */;
  %12 = %11(%3) /* ty=Tensor[(1, 3, 224, 224), float32] */;
  %13 = fn (%p04: Tensor[(1, 3, 224, 224), float32] /* ty=Tensor[(1, 3, 224, 224), float32] */, %p11: Tensor[(3, 3, 3, 3), float32] /* ty=Tensor[(3, 3, 3, 3), float32] */, Primitive=1) -> Tensor[(1, 3, 224, 224), float32] {
    %6 = nn.conv2d(%p04, %p11, padding=[1, 1, 1, 1], channels=3, kernel_size=[3, 3]) /* ty=Tensor[(1, 3, 224, 224), float32] span=from_string:11:12 */;
    %7 = add(1f /* ty=float32 span=from_string:10:14 */, %6) /* ty=Tensor[(1, 3, 224, 224), float32] span=from_string:11:16 */;
    add(%6, %7) /* ty=Tensor[(1, 3, 224, 224), float32] span=from_string:13:19 */
  } /* ty=fn (Tensor[(1, 3, 224, 224), float32], Tensor[(3, 3, 3, 3), float32]) -> Tensor[(1, 3, 224, 224), float32] */;
  %14 = %13(%12, %x2) /* ty=Tensor[(1, 3, 224, 224), float32] */;
  %15 = fn (%p06: Tensor[(1, 3, 224, 224), float32] /* ty=Tensor[(1, 3, 224, 224), float32] */, %p12: Tensor[(3, 3, 3, 3), float32] /* ty=Tensor[(3, 3, 3, 3), float32] */, Primitive=1) -> Tensor[(1, 3, 224, 224), float32] {
    nn.conv2d(%p06, %p12, padding=[1, 1, 1, 1], channels=3, kernel_size=[3, 3]) /* ty=Tensor[(1, 3, 224, 224), float32] span=from_string:27:17 */
  } /* ty=fn (Tensor[(1, 3, 224, 224), float32], Tensor[(3, 3, 3, 3), float32]) -> Tensor[(1, 3, 224, 224), float32] */;
  %16 = %15(%14, %x4) /* ty=Tensor[(1, 3, 224, 224), float32] */;
  %17 = fn (%p03: Tensor[(1, 3, 224, 224), float32] /* ty=Tensor[(1, 3, 224, 224), float32] */, %p1: Tensor[(3, 3, 1, 1), float32] /* ty=Tensor[(3, 3, 1, 1), float32] */, %p2: Tensor[(1, 3, 224, 224), float32] /* ty=Tensor[(1, 3, 224, 224), float32] */, Primitive=1) -> Tensor[(1, 3, 224, 224), float32] {
    %5 = nn.conv2d(%p03, %p1, padding=[0, 0, 0, 0], channels=3, kernel_size=[1, 1]) /* ty=Tensor[(1, 3, 224, 224), float32] span=from_string:27:13 */;
    add(%5, %p2) /* ty=Tensor[(1, 3, 224, 224), float32] span=from_string:33:9 */
  } /* ty=fn (Tensor[(1, 3, 224, 224), float32], Tensor[(3, 3, 1, 1), float32], Tensor[(1, 3, 224, 224), float32]) -> Tensor[(1, 3, 224, 224), float32] */;
  %21 = fn (%p08: Tensor[(1, 3, 224, 224), int8] /* ty=Tensor[(1, 3, 224, 224), int8] */, %p14: Tensor[(1, 3, 224, 224), int8] /* ty=Tensor[(1, 3, 224, 224), int8] */, Primitive=1) -> Tensor[(1, 3, 224, 224), int8] {
    qnn.mul(%p08, %p14, 0.1f /* ty=float32 span=from_string:14:32 */, 0 /* ty=int32 span=from_string:14:75 */, 0.2f /* ty=float32 span=from_string:14:119 */, 0 /* ty=int32 span=from_string:14:163 */, 20f /* ty=float32 span=from_string:14:207 */, 0 /* ty=int32 span=from_string:14:251 */) /* ty=Tensor[(1, 3, 224, 224), int8] span=from_string:32:21 */
  } /* ty=fn (Tensor[(1, 3, 224, 224), int8], Tensor[(1, 3, 224, 224), int8]) -> Tensor[(1, 3, 224, 224), int8] */;
  %22 = %21(%x0, %x1) /* ty=Tensor[(1, 3, 224, 224), int8] */;
  %23 = fn (%p07: Tensor[(1, 3, 224, 224), int8] /* ty=Tensor[(1, 3, 224, 224), int8] */, %p13: Tensor[(1, 3, 224, 89), int8] /* ty=Tensor[(1, 3, 224, 89), int8] */, %p21: Tensor[(1, 3, 224, 32), int8] /* ty=Tensor[(1, 3, 224, 32), int8] */, %p3: Tensor[(1, 3, 224, 4), int8] /* ty=Tensor[(1, 3, 224, 4), int8] */, Primitive=1) -> Tensor[(1, 3, 224, 349), int8] {
    %18 = (%p07, %p13, %p21, %p3) /* ty=(Tensor[(1, 3, 224, 224), int8], Tensor[(1, 3, 224, 89), int8], Tensor[(1, 3, 224, 32), int8], Tensor[(1, 3, 224, 4), int8]) span=from_string:28:25 */;
    %19 = (0.5f /* ty=float32 span=from_string:16:14 */, 1.5f /* ty=float32 span=from_string:16:60 */, 2.5f /* ty=float32 span=from_string:16:106 */, 3.5f /* ty=float32 span=from_string:16:153 */) /* ty=(float32, float32, float32, float32) span=from_string:28:30 */;
    %20 = (0 /* ty=int32 span=from_string:17:11 */, 0 /* ty=int32 span=from_string:17:52 */, 0 /* ty=int32 span=from_string:17:93 */, 0 /* ty=int32 span=from_string:17:134 */) /* ty=(int32, int32, int32, int32) span=from_string:28:35 */;
    qnn.concatenate(%18, %19, %20, 3.5f /* ty=float32 span=from_string:28:44 */, 0 /* ty=int32 span=from_string:28:87 */, axis=-1) /* ty=Tensor[(1, 3, 224, 349), int8] span=from_string:33:14 */
  } /* ty=fn (Tensor[(1, 3, 224, 224), int8], Tensor[(1, 3, 224, 89), int8], Tensor[(1, 3, 224, 32), int8], Tensor[(1, 3, 224, 4), int8]) -> Tensor[(1, 3, 224, 349), int8] */;
  %29 = fn (%p010: Tensor[(1, 3, 224, 224), int8] /* ty=Tensor[(1, 3, 224, 224), int8] */, %p15: Tensor[(1, 3, 224, 224), float32] /* ty=Tensor[(1, 3, 224, 224), float32] */, Primitive=1) -> Tensor[(1, 224, 3, 224), float32] {
    %24 = qnn.dequantize(%p010, 0.2f /* ty=float32 span=from_string:18:33 */, 0 /* ty=int32 span=from_string:18:76 */) /* ty=Tensor[(1, 3, 224, 224), float32] span=from_string:19:23 */;
    %25 = multiply(%p15, %24) /* ty=Tensor[(1, 3, 224, 224), float32] span=from_string:20:26 */;
    %26 = layout_transform(%25, src_layout="NHWC", dst_layout="NCHW") /* ty=Tensor[(1, 224, 3, 224), float32] span=from_string:21:26 */;
    %27 = layout_transform(%26, src_layout="NCHW", dst_layout="NCHW4c") /* ty=Tensor[(1, 56, 3, 224, 4), float32] span=from_string:22:17 */;
    %28 = nn.relu(%27) /* ty=Tensor[(1, 56, 3, 224, 4), float32] span=from_string:23:26 */;
    layout_transform(%28, src_layout="NCHW4c", dst_layout="NCHW") /* ty=Tensor[(1, 224, 3, 224), float32] span=from_string:29:26 */
  } /* ty=fn (Tensor[(1, 3, 224, 224), int8], Tensor[(1, 3, 224, 224), float32]) -> Tensor[(1, 224, 3, 224), float32] */;
  %30 = %29(%x1, %1) /* ty=Tensor[(1, 224, 3, 224), float32] */;
  %31 = fn (%p09: Tensor[(1, 224, 3, 224), float32] /* ty=Tensor[(1, 224, 3, 224), float32] */, Primitive=1) -> Tensor[(1, 3, 224, 224), float32] {
    layout_transform(%p09, src_layout="NCHW", dst_layout="NHWC") /* ty=Tensor[(1, 3, 224, 224), float32] span=from_string:33:19 */
  } /* ty=fn (Tensor[(1, 224, 3, 224), float32]) -> Tensor[(1, 3, 224, 224), float32] */;
  %32 = fn (%p011: Tensor[(3, 3, 3, 3), float32] /* ty=Tensor[(3, 3, 3, 3), float32] */, Primitive=1) -> Tensor[(3, 3, 3, 3), float32] {
    add(2f /* ty=float32 span=from_string:30:15 */, %p011) /* ty=Tensor[(3, 3, 3, 3), float32] span=from_string:33:24 */
  } /* ty=fn (Tensor[(3, 3, 3, 3), float32]) -> Tensor[(3, 3, 3, 3), float32] */;
  %34 = fn (%p013: Tensor[(1, 224, 3, 224), float32] /* ty=Tensor[(1, 224, 3, 224), float32] */, %p16: Tensor[(224), float32] /* ty=Tensor[(224), float32] */, %p22: Tensor[(224), float32] /* ty=Tensor[(224), float32] */, %p31: Tensor[(224), float32] /* ty=Tensor[(224), float32] */, %p4: Tensor[(224), float32] /* ty=Tensor[(224), float32] */, Primitive=1) -> (Tensor[(1, 224, 3, 224), float32], Tensor[(224), float32], Tensor[(224), float32]) {
    nn.batch_norm(%p013, %p16, %p22, %p31, %p4) /* ty=(Tensor[(1, 224, 3, 224), float32], Tensor[(224), float32], Tensor[(224), float32]) span=from_string:25:9 */
  } /* ty=fn (Tensor[(1, 224, 3, 224), float32], Tensor[(224), float32], Tensor[(224), float32], Tensor[(224), float32], Tensor[(224), float32]) -> (Tensor[(1, 224, 3, 224), float32], Tensor[(224), float32], Tensor[(224), float32]) */;
  %35 = %34(%30, %x11, %x10, %x9, %x8) /* ty=(Tensor[(1, 224, 3, 224), float32], Tensor[(224), float32], Tensor[(224), float32]) */;
  %36 = fn (%p012: (Tensor[(1, 224, 3, 224), float32], Tensor[(224), float32], Tensor[(224), float32]) /* ty=(Tensor[(1, 224, 3, 224), float32], Tensor[(224), float32], Tensor[(224), float32]) */, Primitive=1) -> Tensor[(1, 224, 3, 224), float32] {
    %33 = %p012.0 /* ty=Tensor[(1, 224, 3, 224), float32] */;
    add(%33, %33) /* ty=Tensor[(1, 224, 3, 224), float32] span=from_string:33:29 */
  } /* ty=fn ((Tensor[(1, 224, 3, 224), float32], Tensor[(224), float32], Tensor[(224), float32])) -> Tensor[(1, 224, 3, 224), float32] */;
  %37 = fn (%p014: Tensor[(1, 3, 224, 224), int8] /* ty=Tensor[(1, 3, 224, 224), int8] */, Primitive=1, relay.reshape_only=1) -> Tensor[(1, 1, 3, 224, 224), int8] {
    expand_dims(%p014, axis=1) /* ty=Tensor[(1, 1, 3, 224, 224), int8] span=from_string:33:34 */
  } /* ty=fn (Tensor[(1, 3, 224, 224), int8]) -> Tensor[(1, 1, 3, 224, 224), int8] */;
  %38 = %4(%3) /* ty=Tensor[(1, 3, 224, 224), float16] */;
  %39 = %17(%14, %x3, %16) /* ty=Tensor[(1, 3, 224, 224), float32] */;
  %40 = %23(%22, %x5, %x6, %x7) /* ty=Tensor[(1, 3, 224, 349), int8] */;
  %41 = %31(%30) /* ty=Tensor[(1, 3, 224, 224), float32] */;
  %42 = %32(%x4) /* ty=Tensor[(3, 3, 3, 3), float32] */;
  %43 = %36(%35) /* ty=Tensor[(1, 224, 3, 224), float32] */;
  %44 = %37(%22) /* ty=Tensor[(1, 1, 3, 224, 224), int8] */;
  (%38, %39, %40, %41, %42, %43, %44) /* ty=(Tensor[(1, 3, 224, 224), float16], Tensor[(1, 3, 224, 224), float32], Tensor[(1, 3, 224, 349), int8], Tensor[(1, 3, 224, 224), float32], Tensor[(3, 3, 3, 3), float32], Tensor[(1, 224, 3, 224), float32], Tensor[(1, 1, 3, 224, 224), int8]) span=from_string:3:3 */
}
