#[version = "0.0.5"]
def @main(%x0: Tensor[(1, 3, 224, 224), int8] /* ty=Tensor[(1, 3, 224, 224), int8] span=from_string:43:118 */, %x1: Tensor[(1, 3, 224, 224), int8] /* ty=Tensor[(1, 3, 224, 224), int8] span=from_string:59:122 */, %x2: Tensor[(3, 3, 3, 3), float32] /* ty=Tensor[(3, 3, 3, 3), float32] span=from_string:30:127 */, %x3: Tensor[(3, 3, 1, 1), float32] /* ty=Tensor[(3, 3, 1, 1), float32] span=from_string:39:129 */, %x4: Tensor[(3, 3, 3, 3), float32] /* ty=Tensor[(3, 3, 3, 3), float32] span=from_string:67:114 */, %x5: Tensor[(1, 3, 224, 89), int8] /* ty=Tensor[(1, 3, 224, 89), int8] span=from_string:50:125 */, %x6: Tensor[(1, 3, 224, 32), int8] /* ty=Tensor[(1, 3, 224, 32), int8] span=from_string:50:130 */, %x7: Tensor[(1, 3, 224, 4), int8] /* ty=Tensor[(1, 3, 224, 4), int8] span=from_string:50:135 */, %x8: Tensor[(224), float32] /* ty=Tensor[(224), float32] span=from_string:71:246 */, %x9: Tensor[(224), float32] /* ty=Tensor[(224), float32] span=from_string:71:241 */, %x10: Tensor[(224), float32] /* ty=Tensor[(224), float32] span=from_string:71:235 */, %x11: Tensor[(224), float32] /* ty=Tensor[(224), float32] span=from_string:71:229 */) -> (Tensor[(1, 3, 224, 224), float16], Tensor[(1, 3, 224, 224), float32], Tensor[(1, 3, 224, 349), int8], Tensor[(1, 3, 224, 224), float32], Tensor[(3, 3, 3, 3), float32], Tensor[(1, 224, 3, 224), float32], Tensor[(1, 1, 3, 224, 224), int8]) {
  %0 = fn (%p02: Tensor[(1, 3, 224, 224), int8] /* ty=Tensor[(1, 3, 224, 224), int8] span=from_string:4:20 */, Primitive=1) -> Tensor[(1, 3, 224, 224), float32] {
    qnn.dequantize(%p02, 0.1f /* ty=float32 span=from_string:4:30 */, 0 /* ty=int32 span=from_string:4:72 */) /* ty=Tensor[(1, 3, 224, 224), float32] span=from_string:4:5 */
  } /* ty=fn (Tensor[(1, 3, 224, 224), int8]) -> Tensor[(1, 3, 224, 224), float32] span=from_string:3:3 */;
  %1 = %0(%x0) /* ty=Tensor[(1, 3, 224, 224), float32] span=from_string:6:115 */;
  %2 = fn (%p01: Tensor[(1, 3, 224, 224), float32] /* ty=Tensor[(1, 3, 224, 224), float32] span=from_string:8:16 */, Primitive=1) -> Tensor[(1, 3, 224, 224), float32] {
    nn.softmax(%p01) /* ty=Tensor[(1, 3, 224, 224), float32] span=from_string:8:5 */
  } /* ty=fn (Tensor[(1, 3, 224, 224), float32]) -> Tensor[(1, 3, 224, 224), float32] span=from_string:7:3 */;
  %3 = %2(%1) /* ty=Tensor[(1, 3, 224, 224), float32] span=from_string:10:115 */;
  %4 = fn (%p03: Tensor[(1, 3, 224, 224), float32] /* ty=Tensor[(1, 3, 224, 224), float32] span=from_string:18:10 */, Primitive=1) -> Tensor[(1, 3, 224, 224), float16] {
    cast(%p03, dtype="float16") /* ty=Tensor[(1, 3, 224, 224), float16] span=from_string:18:5 */
  } /* ty=fn (Tensor[(1, 3, 224, 224), float32]) -> Tensor[(1, 3, 224, 224), float16] span=from_string:17:3 */;
  %10 = fn (%p0: Tensor[(1, 3, 224, 224), float32] /* ty=Tensor[(1, 3, 224, 224), float32] span=from_string:13:14 */, Primitive=1) -> Tensor[(1, 3, 224, 224), float32] {
    %8 = zeros(shape=[1], dtype="float32") /* ty=Tensor[(1), float32] span=from_string:13:19 */;
    %9 = add(%p0, %8) /* ty=Tensor[(1, 3, 224, 224), float32] span=from_string:14:53 */;
    add(2f /* ty=float32 span=from_string:14:11 */, %9) /* ty=Tensor[(1, 3, 224, 224), float32] span=from_string:12:5 */
  } /* ty=fn (Tensor[(1, 3, 224, 224), float32]) -> Tensor[(1, 3, 224, 224), float32] span=from_string:11:3 */;
  %11 = %10(%3) /* ty=Tensor[(1, 3, 224, 224), float32] span=from_string:16:115 */;
  %12 = fn (%p06: Tensor[(1, 3, 224, 224), float32] /* ty=Tensor[(1, 3, 224, 224), float32] span=from_string:22:9 */, Primitive=1) -> Tensor[(1, 3, 224, 224), float32] {
    add(%p06, 1f /* ty=float32 span=from_string:22:17 */) /* ty=Tensor[(1, 3, 224, 224), float32] span=from_string:22:5 */
  } /* ty=fn (Tensor[(1, 3, 224, 224), float32]) -> Tensor[(1, 3, 224, 224), float32] span=from_string:21:3 */;
  %13 = %12(%11) /* ty=Tensor[(1, 3, 224, 224), float32] span=from_string:24:115 */;
  %14 = fn (%p05: Tensor[(1, 3, 224, 224), float32] /* ty=Tensor[(1, 3, 224, 224), float32] span=from_string:26:20 */, %p11: Tensor[(3, 3, 3, 3), float32] /* ty=Tensor[(3, 3, 3, 3), float32] span=from_string:26:26 */, Primitive=1) -> Tensor[(1, 3, 224, 224), float32] {
    %6 = nn.conv2d(%p05, %p11, padding=[1, 1, 1, 1], channels=3, kernel_size=[3, 3]) /* ty=Tensor[(1, 3, 224, 224), float32] span=from_string:28:9 */;
    %7 = add(1f /* ty=float32 span=from_string:27:16 */, %6) /* ty=Tensor[(1, 3, 224, 224), float32] span=from_string:28:13 */;
    add(%6, %7) /* ty=Tensor[(1, 3, 224, 224), float32] span=from_string:26:5 */
  } /* ty=fn (Tensor[(1, 3, 224, 224), float32], Tensor[(3, 3, 3, 3), float32]) -> Tensor[(1, 3, 224, 224), float32] span=from_string:25:3 */;
  %15 = %14(%13, %x2) /* ty=Tensor[(1, 3, 224, 224), float32] span=from_string:30:116 */;
  %16 = fn (%p07: Tensor[(1, 3, 224, 224), float32] /* ty=Tensor[(1, 3, 224, 224), float32] span=from_string:32:15 */, %p12: Tensor[(3, 3, 3, 3), float32] /* ty=Tensor[(3, 3, 3, 3), float32] span=from_string:32:21 */, Primitive=1) -> Tensor[(1, 3, 224, 224), float32] {
    nn.conv2d(%p07, %p12, padding=[1, 1, 1, 1], channels=3, kernel_size=[3, 3]) /* ty=Tensor[(1, 3, 224, 224), float32] span=from_string:32:5 */
  } /* ty=fn (Tensor[(1, 3, 224, 224), float32], Tensor[(3, 3, 3, 3), float32]) -> Tensor[(1, 3, 224, 224), float32] span=from_string:31:3 */;
  %17 = %16(%15, %x4) /* ty=Tensor[(1, 3, 224, 224), float32] span=from_string:34:116 */;
  %18 = fn (%p04: Tensor[(1, 3, 224, 224), float32] /* ty=Tensor[(1, 3, 224, 224), float32] span=from_string:36:20 */, %p1: Tensor[(3, 3, 1, 1), float32] /* ty=Tensor[(3, 3, 1, 1), float32] span=from_string:36:26 */, %p2: Tensor[(1, 3, 224, 224), float32] /* ty=Tensor[(1, 3, 224, 224), float32] span=from_string:37:13 */, Primitive=1) -> Tensor[(1, 3, 224, 224), float32] {
    %5 = nn.conv2d(%p04, %p1, padding=[0, 0, 0, 0], channels=3, kernel_size=[1, 1]) /* ty=Tensor[(1, 3, 224, 224), float32] span=from_string:37:9 */;
    add(%5, %p2) /* ty=Tensor[(1, 3, 224, 224), float32] span=from_string:36:5 */
  } /* ty=fn (Tensor[(1, 3, 224, 224), float32], Tensor[(3, 3, 1, 1), float32], Tensor[(1, 3, 224, 224), float32]) -> Tensor[(1, 3, 224, 224), float32] span=from_string:35:3 */;
  %22 = fn (%p09: Tensor[(1, 3, 224, 224), int8] /* ty=Tensor[(1, 3, 224, 224), int8] span=from_string:41:14 */, %p14: Tensor[(1, 3, 224, 224), int8] /* ty=Tensor[(1, 3, 224, 224), int8] span=from_string:41:20 */, Primitive=1) -> Tensor[(1, 3, 224, 224), int8] {
    qnn.mul(%p09, %p14, 0.1f /* ty=float32 span=from_string:41:30 */, 0 /* ty=int32 span=from_string:41:73 */, 0.2f /* ty=float32 span=from_string:41:117 */, 0 /* ty=int32 span=from_string:41:161 */, 20f /* ty=float32 span=from_string:41:205 */, 0 /* ty=int32 span=from_string:41:249 */) /* ty=Tensor[(1, 3, 224, 224), int8] span=from_string:41:5 */
  } /* ty=fn (Tensor[(1, 3, 224, 224), int8], Tensor[(1, 3, 224, 224), int8]) -> Tensor[(1, 3, 224, 224), int8] span=from_string:40:3 */;
  %23 = %22(%x0, %x1) /* ty=Tensor[(1, 3, 224, 224), int8] span=from_string:43:112 */;
  %24 = fn (%p08: Tensor[(1, 3, 224, 224), int8] /* ty=Tensor[(1, 3, 224, 224), int8] span=from_string:45:11 */, %p13: Tensor[(1, 3, 224, 89), int8] /* ty=Tensor[(1, 3, 224, 89), int8] span=from_string:45:17 */, %p21: Tensor[(1, 3, 224, 32), int8] /* ty=Tensor[(1, 3, 224, 32), int8] span=from_string:45:23 */, %p3: Tensor[(1, 3, 224, 4), int8] /* ty=Tensor[(1, 3, 224, 4), int8] span=from_string:45:29 */, Primitive=1) -> Tensor[(1, 3, 224, 349), int8] {
    %19 = (%p08, %p13, %p21, %p3) /* ty=(Tensor[(1, 3, 224, 224), int8], Tensor[(1, 3, 224, 89), int8], Tensor[(1, 3, 224, 32), int8], Tensor[(1, 3, 224, 4), int8]) span=from_string:48:21 */;
    %20 = (0.5f /* ty=float32 span=from_string:46:15 */, 1.5f /* ty=float32 span=from_string:46:61 */, 2.5f /* ty=float32 span=from_string:46:107 */, 3.5f /* ty=float32 span=from_string:46:154 */) /* ty=(float32, float32, float32, float32) span=from_string:48:25 */;
    %21 = (0 /* ty=int32 span=from_string:47:12 */, 0 /* ty=int32 span=from_string:47:53 */, 0 /* ty=int32 span=from_string:47:94 */, 0 /* ty=int32 span=from_string:47:135 */) /* ty=(int32, int32, int32, int32) span=from_string:48:29 */;
    qnn.concatenate(%19, %20, %21, 3.5f /* ty=float32 span=from_string:48:37 */, 0 /* ty=int32 span=from_string:48:80 */, axis=-1) /* ty=Tensor[(1, 3, 224, 349), int8] span=from_string:45:5 */
  } /* ty=fn (Tensor[(1, 3, 224, 224), int8], Tensor[(1, 3, 224, 89), int8], Tensor[(1, 3, 224, 32), int8], Tensor[(1, 3, 224, 4), int8]) -> Tensor[(1, 3, 224, 349), int8] span=from_string:44:3 */;
  %30 = fn (%p011: Tensor[(1, 3, 224, 224), int8] /* ty=Tensor[(1, 3, 224, 224), int8] span=from_string:52:25 */, %p15: Tensor[(1, 3, 224, 224), float32] /* ty=Tensor[(1, 3, 224, 224), float32] span=from_string:53:20 */, Primitive=1) -> Tensor[(1, 224, 3, 224), float32] {
    %25 = qnn.dequantize(%p011, 0.2f /* ty=float32 span=from_string:52:36 */, 0 /* ty=int32 span=from_string:52:79 */) /* ty=Tensor[(1, 3, 224, 224), float32] span=from_string:53:26 */;
    %26 = multiply(%p15, %25) /* ty=Tensor[(1, 3, 224, 224), float32] span=from_string:54:28 */;
    %27 = layout_transform(%26, src_layout="NHWC", dst_layout="NCHW") /* ty=Tensor[(1, 224, 3, 224), float32] span=from_string:55:28 */;
    %28 = layout_transform(%27, src_layout="NCHW", dst_layout="NCHW4c") /* ty=Tensor[(1, 56, 3, 224, 4), float32] span=from_string:56:19 */;
    %29 = nn.relu(%28) /* ty=Tensor[(1, 56, 3, 224, 4), float32] span=from_string:57:22 */;
    layout_transform(%29, src_layout="NCHW4c", dst_layout="NCHW") /* ty=Tensor[(1, 224, 3, 224), float32] span=from_string:52:5 */
  } /* ty=fn (Tensor[(1, 3, 224, 224), int8], Tensor[(1, 3, 224, 224), float32]) -> Tensor[(1, 224, 3, 224), float32] span=from_string:51:3 */;
  %31 = %30(%x1, %1) /* ty=Tensor[(1, 224, 3, 224), float32] span=from_string:59:116 */;
  %32 = fn (%p010: Tensor[(1, 224, 3, 224), float32] /* ty=Tensor[(1, 224, 3, 224), float32] span=from_string:61:22 */, Primitive=1) -> Tensor[(1, 3, 224, 224), float32] {
    layout_transform(%p010, src_layout="NCHW", dst_layout="NHWC") /* ty=Tensor[(1, 3, 224, 224), float32] span=from_string:61:5 */
  } /* ty=fn (Tensor[(1, 224, 3, 224), float32]) -> Tensor[(1, 3, 224, 224), float32] span=from_string:60:3 */;
  %33 = fn (%p012: Tensor[(3, 3, 3, 3), float32] /* ty=Tensor[(3, 3, 3, 3), float32] span=from_string:65:53 */, Primitive=1) -> Tensor[(3, 3, 3, 3), float32] {
    add(2f /* ty=float32 span=from_string:65:11 */, %p012) /* ty=Tensor[(3, 3, 3, 3), float32] span=from_string:65:5 */
  } /* ty=fn (Tensor[(3, 3, 3, 3), float32]) -> Tensor[(3, 3, 3, 3), float32] span=from_string:64:3 */;
  %36 = fn (%p014: Tensor[(1, 224, 3, 224), float32] /* ty=Tensor[(1, 224, 3, 224), float32] span=from_string:69:19 */, %p16: Tensor[(224), float32] /* ty=Tensor[(224), float32] span=from_string:69:26 */, %p22: Tensor[(224), float32] /* ty=Tensor[(224), float32] span=from_string:69:32 */, %p31: Tensor[(224), float32] /* ty=Tensor[(224), float32] span=from_string:69:38 */, %p4: Tensor[(224), float32] /* ty=Tensor[(224), float32] span=from_string:69:44 */, Primitive=1) -> (Tensor[(1, 224, 3, 224), float32], Tensor[(224), float32], Tensor[(224), float32]) {
    nn.batch_norm(%p014, %p16, %p22, %p31, %p4) /* ty=(Tensor[(1, 224, 3, 224), float32], Tensor[(224), float32], Tensor[(224), float32]) span=from_string:69:5 */
  } /* ty=fn (Tensor[(1, 224, 3, 224), float32], Tensor[(224), float32], Tensor[(224), float32], Tensor[(224), float32], Tensor[(224), float32]) -> (Tensor[(1, 224, 3, 224), float32], Tensor[(224), float32], Tensor[(224), float32]) span=from_string:68:3 */;
  %37 = %36(%31, %x11, %x10, %x9, %x8) /* ty=(Tensor[(1, 224, 3, 224), float32], Tensor[(224), float32], Tensor[(224), float32]) span=from_string:71:216 */;
  %38 = fn (%p013: (Tensor[(1, 224, 3, 224), float32], Tensor[(224), float32], Tensor[(224), float32]) /* ty=(Tensor[(1, 224, 3, 224), float32], Tensor[(224), float32], Tensor[(224), float32]) span=from_string:74:11 */, Primitive=1) -> Tensor[(1, 224, 3, 224), float32] {
    %34 = %p013.0 /* ty=Tensor[(1, 224, 3, 224), float32] span=from_string:75:9 */;
    %35 = %p013.0 /* ty=Tensor[(1, 224, 3, 224), float32] span=from_string:75:14 */;
    add(%34, %35) /* ty=Tensor[(1, 224, 3, 224), float32] span=from_string:73:5 */
  } /* ty=fn ((Tensor[(1, 224, 3, 224), float32], Tensor[(224), float32], Tensor[(224), float32])) -> Tensor[(1, 224, 3, 224), float32] span=from_string:72:3 */;
  %39 = fn (%p015: Tensor[(1, 3, 224, 224), int8] /* ty=Tensor[(1, 3, 224, 224), int8] span=from_string:79:17 */, Primitive=1, relay.reshape_only=1) -> Tensor[(1, 1, 3, 224, 224), int8] {
    expand_dims(%p015, axis=1) /* ty=Tensor[(1, 1, 3, 224, 224), int8] span=from_string:79:5 */
  } /* ty=fn (Tensor[(1, 3, 224, 224), int8]) -> Tensor[(1, 1, 3, 224, 224), int8] span=from_string:78:3 */;
  %40 = %4(%3) /* ty=Tensor[(1, 3, 224, 224), float16] span=from_string:20:115 */;
  %41 = %18(%15, %x3, %17) /* ty=Tensor[(1, 3, 224, 224), float32] span=from_string:39:116 */;
  %42 = %24(%23, %x5, %x6, %x7) /* ty=Tensor[(1, 3, 224, 349), int8] span=from_string:50:112 */;
  %43 = %32(%31) /* ty=Tensor[(1, 3, 224, 224), float32] span=from_string:63:116 */;
  %44 = %33(%x4) /* ty=Tensor[(3, 3, 3, 3), float32] span=from_string:67:108 */;
  %45 = %38(%37) /* ty=Tensor[(1, 224, 3, 224), float32] span=from_string:77:116 */;
  %46 = %39(%23) /* ty=Tensor[(1, 1, 3, 224, 224), int8] span=from_string:81:118 */;
  (%40, %41, %42, %43, %44, %45, %46) /* ty=(Tensor[(1, 3, 224, 224), float16], Tensor[(1, 3, 224, 224), float32], Tensor[(1, 3, 224, 349), int8], Tensor[(1, 3, 224, 224), float32], Tensor[(3, 3, 3, 3), float32], Tensor[(1, 224, 3, 224), float32], Tensor[(1, 1, 3, 224, 224), int8]) span=from_string:82:530 */
}
