#[version = "0.0.5"]
def @main(%x0: Tensor[(1, 3, 224, 224), int8] /* ty=Tensor[(1, 3, 224, 224), int8] span=from_string:3:130 */, %x1: Tensor[(1, 3, 224, 224), int8] /* ty=Tensor[(1, 3, 224, 224), int8] span=from_string:16:131 */, %x2: Tensor[(3, 3, 3, 3), float32] /* ty=Tensor[(3, 3, 3, 3), float32] span=from_string:10:132 */, %x3: Tensor[(3, 3, 1, 1), float32] /* ty=Tensor[(3, 3, 1, 1), float32] span=from_string:13:133 */, %x4: Tensor[(3, 3, 3, 3), float32] /* ty=Tensor[(3, 3, 3, 3), float32] span=from_string:31:156 */, %x5: Tensor[(1, 3, 224, 89), int8] /* ty=Tensor[(1, 3, 224, 89), int8] span=from_string:20:129 */, %x6: Tensor[(1, 3, 224, 32), int8] /* ty=Tensor[(1, 3, 224, 32), int8] span=from_string:21:129 */, %x7: Tensor[(1, 3, 224, 4), int8] /* ty=Tensor[(1, 3, 224, 4), int8] span=from_string:22:127 */, %x8: Tensor[(224), float32] /* ty=Tensor[(224), float32] span=from_string:32:254 */, %x9: Tensor[(224), float32] /* ty=Tensor[(224), float32] span=from_string:32:249 */, %x10: Tensor[(224), float32] /* ty=Tensor[(224), float32] span=from_string:32:243 */, %x11: Tensor[(224), float32] /* ty=Tensor[(224), float32] span=from_string:32:237 */) -> (Tensor[(1, 3, 224, 224), float16], Tensor[(1, 3, 224, 224), float32], Tensor[(1, 3, 224, 349), int8], Tensor[(1, 3, 224, 224), float32], Tensor[(3, 3, 3, 3), float32], Tensor[(1, 224, 3, 224), float32], Tensor[(1, 1, 3, 224, 224), int8]) {
  %0 = fn (%p0: Tensor[(1, 3, 224, 224), int8] /* ty=Tensor[(1, 3, 224, 224), int8] */, Primitive=1) -> Tensor[(1, 3, 224, 224), float32] {
    qnn.dequantize(%p0, 0.1f /* ty=float32 span=from_string:3:139 */, 0 /* ty=int32 span=from_string:3:181 */) /* ty=Tensor[(1, 3, 224, 224), float32] span=from_string:3:115 */
  } /* ty=fn (Tensor[(1, 3, 224, 224), int8]) -> Tensor[(1, 3, 224, 224), float32] */;
  let %x_3: Tensor[(1, 3, 224, 224), float32] /* ty=Tensor[(1, 3, 224, 224), float32] span=from_string:17:126 */ = %0(%x0) /* ty=Tensor[(1, 3, 224, 224), float32] */;
  %1 = fn (%p01: Tensor[(1, 3, 224, 224), float32] /* ty=Tensor[(1, 3, 224, 224), float32] */, Primitive=1) -> Tensor[(1, 3, 224, 224), float32] {
    nn.softmax(%p01) /* ty=Tensor[(1, 3, 224, 224), float32] span=from_string:4:115 */
  } /* ty=fn (Tensor[(1, 3, 224, 224), float32]) -> Tensor[(1, 3, 224, 224), float32] */;
  let %x_4: Tensor[(1, 3, 224, 224), float32] /* ty=Tensor[(1, 3, 224, 224), float32] span=from_string:8:120 */ = %1(%x_3) /* ty=Tensor[(1, 3, 224, 224), float32] */;
  %2 = fn (Primitive=1) -> Tensor[(1), float32] {
    zeros(shape=[1], dtype="float32") /* ty=Tensor[(1), float32] span=from_string:5:88 */
  } /* ty=fn () -> Tensor[(1), float32] */;
  let %x_5: Tensor[(1), float32] /* ty=Tensor[(1), float32] span=from_string:6:126 */ = %2() /* ty=Tensor[(1), float32] */;
  %3 = fn (%p02: Tensor[(1, 3, 224, 224), float32] /* ty=Tensor[(1, 3, 224, 224), float32] */, %p1: Tensor[(1), float32] /* ty=Tensor[(1), float32] */, Primitive=1) -> Tensor[(1, 3, 224, 224), float32] {
    add(%p02, %p1) /* ty=Tensor[(1, 3, 224, 224), float32] span=from_string:6:116 */
  } /* ty=fn (Tensor[(1, 3, 224, 224), float32], Tensor[(1), float32]) -> Tensor[(1, 3, 224, 224), float32] */;
  let %x_6: Tensor[(1, 3, 224, 224), float32] /* ty=Tensor[(1, 3, 224, 224), float32] span=from_string:7:162 */ = %3(%x_4, %x_5) /* ty=Tensor[(1, 3, 224, 224), float32] */;
  %4 = fn (%p03: Tensor[(1, 3, 224, 224), float32] /* ty=Tensor[(1, 3, 224, 224), float32] */, Primitive=1) -> Tensor[(1, 3, 224, 224), float32] {
    add(2f /* ty=float32 span=from_string:7:121 */, %p03) /* ty=Tensor[(1, 3, 224, 224), float32] span=from_string:7:115 */
  } /* ty=fn (Tensor[(1, 3, 224, 224), float32]) -> Tensor[(1, 3, 224, 224), float32] */;
  let %x14: Tensor[(1, 3, 224, 224), float32] /* ty=Tensor[(1, 3, 224, 224), float32] span=from_string:9:119 */ = %4(%x_6) /* ty=Tensor[(1, 3, 224, 224), float32] */;
  %5 = fn (%p04: Tensor[(1, 3, 224, 224), float32] /* ty=Tensor[(1, 3, 224, 224), float32] */, Primitive=1) -> Tensor[(1, 3, 224, 224), float16] {
    cast(%p04, dtype="float16") /* ty=Tensor[(1, 3, 224, 224), float16] span=from_string:8:115 */
  } /* ty=fn (Tensor[(1, 3, 224, 224), float32]) -> Tensor[(1, 3, 224, 224), float16] */;
  let %x_7: Tensor[(1, 3, 224, 224), float16] /* ty=Tensor[(1, 3, 224, 224), float16] span=from_string:39:531 */ = %5(%x_4) /* ty=Tensor[(1, 3, 224, 224), float16] */;
  %6 = fn (%p05: Tensor[(1, 3, 224, 224), float32] /* ty=Tensor[(1, 3, 224, 224), float32] */, Primitive=1) -> Tensor[(1, 3, 224, 224), float32] {
    add(%p05, 1f /* ty=float32 span=from_string:9:127 */) /* ty=Tensor[(1, 3, 224, 224), float32] span=from_string:9:115 */
  } /* ty=fn (Tensor[(1, 3, 224, 224), float32]) -> Tensor[(1, 3, 224, 224), float32] */;
  let %x_9: Tensor[(1, 3, 224, 224), float32] /* ty=Tensor[(1, 3, 224, 224), float32] span=from_string:10:126 */ = %6(%x14) /* ty=Tensor[(1, 3, 224, 224), float32] */;
  %7 = fn (%p06: Tensor[(1, 3, 224, 224), float32] /* ty=Tensor[(1, 3, 224, 224), float32] */, %p11: Tensor[(3, 3, 3, 3), float32] /* ty=Tensor[(3, 3, 3, 3), float32] */, Primitive=1) -> Tensor[(1, 3, 224, 224), float32] {
    nn.conv2d(%p06, %p11, padding=[1, 1, 1, 1], channels=3, kernel_size=[3, 3]) /* ty=Tensor[(1, 3, 224, 224), float32] span=from_string:10:116 */
  } /* ty=fn (Tensor[(1, 3, 224, 224), float32], Tensor[(3, 3, 3, 3), float32]) -> Tensor[(1, 3, 224, 224), float32] */;
  let %x_10: Tensor[(1, 3, 224, 224), float32] /* ty=Tensor[(1, 3, 224, 224), float32] span=from_string:12:120 */ = %7(%x_9, %x2) /* ty=Tensor[(1, 3, 224, 224), float32] */;
  %8 = fn (%p07: Tensor[(1, 3, 224, 224), float32] /* ty=Tensor[(1, 3, 224, 224), float32] */, Primitive=1) -> Tensor[(1, 3, 224, 224), float32] {
    add(1f /* ty=float32 span=from_string:11:122 */, %p07) /* ty=Tensor[(1, 3, 224, 224), float32] span=from_string:11:116 */
  } /* ty=fn (Tensor[(1, 3, 224, 224), float32]) -> Tensor[(1, 3, 224, 224), float32] */;
  let %x_12: Tensor[(1, 3, 224, 224), float32] /* ty=Tensor[(1, 3, 224, 224), float32] span=from_string:12:127 */ = %8(%x_10) /* ty=Tensor[(1, 3, 224, 224), float32] */;
  %9 = fn (%p08: Tensor[(1, 3, 224, 224), float32] /* ty=Tensor[(1, 3, 224, 224), float32] */, %p12: Tensor[(1, 3, 224, 224), float32] /* ty=Tensor[(1, 3, 224, 224), float32] */, Primitive=1) -> Tensor[(1, 3, 224, 224), float32] {
    add(%p08, %p12) /* ty=Tensor[(1, 3, 224, 224), float32] span=from_string:12:116 */
  } /* ty=fn (Tensor[(1, 3, 224, 224), float32], Tensor[(1, 3, 224, 224), float32]) -> Tensor[(1, 3, 224, 224), float32] */;
  let %x_13: Tensor[(1, 3, 224, 224), float32] /* ty=Tensor[(1, 3, 224, 224), float32] span=from_string:14:126 */ = %9(%x_10, %x_12) /* ty=Tensor[(1, 3, 224, 224), float32] */;
  %10 = fn (%p09: Tensor[(1, 3, 224, 224), float32] /* ty=Tensor[(1, 3, 224, 224), float32] */, %p13: Tensor[(3, 3, 1, 1), float32] /* ty=Tensor[(3, 3, 1, 1), float32] */, Primitive=1) -> Tensor[(1, 3, 224, 224), float32] {
    nn.conv2d(%p09, %p13, padding=[0, 0, 0, 0], channels=3, kernel_size=[1, 1]) /* ty=Tensor[(1, 3, 224, 224), float32] span=from_string:13:116 */
  } /* ty=fn (Tensor[(1, 3, 224, 224), float32], Tensor[(3, 3, 1, 1), float32]) -> Tensor[(1, 3, 224, 224), float32] */;
  let %x_14: Tensor[(1, 3, 224, 224), float32] /* ty=Tensor[(1, 3, 224, 224), float32] span=from_string:15:120 */ = %10(%x_13, %x3) /* ty=Tensor[(1, 3, 224, 224), float32] */;
  %11 = fn (%p010: Tensor[(1, 3, 224, 224), float32] /* ty=Tensor[(1, 3, 224, 224), float32] */, %p14: Tensor[(3, 3, 3, 3), float32] /* ty=Tensor[(3, 3, 3, 3), float32] */, Primitive=1) -> Tensor[(1, 3, 224, 224), float32] {
    nn.conv2d(%p010, %p14, padding=[1, 1, 1, 1], channels=3, kernel_size=[3, 3]) /* ty=Tensor[(1, 3, 224, 224), float32] span=from_string:14:116 */
  } /* ty=fn (Tensor[(1, 3, 224, 224), float32], Tensor[(3, 3, 3, 3), float32]) -> Tensor[(1, 3, 224, 224), float32] */;
  let %x_15: Tensor[(1, 3, 224, 224), float32] /* ty=Tensor[(1, 3, 224, 224), float32] span=from_string:15:127 */ = %11(%x_13, %x4) /* ty=Tensor[(1, 3, 224, 224), float32] */;
  %12 = fn (%p011: Tensor[(1, 3, 224, 224), float32] /* ty=Tensor[(1, 3, 224, 224), float32] */, %p15: Tensor[(1, 3, 224, 224), float32] /* ty=Tensor[(1, 3, 224, 224), float32] */, Primitive=1) -> Tensor[(1, 3, 224, 224), float32] {
    add(%p011, %p15) /* ty=Tensor[(1, 3, 224, 224), float32] span=from_string:15:116 */
  } /* ty=fn (Tensor[(1, 3, 224, 224), float32], Tensor[(1, 3, 224, 224), float32]) -> Tensor[(1, 3, 224, 224), float32] */;
  let %x_16: Tensor[(1, 3, 224, 224), float32] /* ty=Tensor[(1, 3, 224, 224), float32] span=from_string:39:537 */ = %12(%x_14, %x_15) /* ty=Tensor[(1, 3, 224, 224), float32] */;
  %13 = fn (%p012: Tensor[(1, 3, 224, 224), int8] /* ty=Tensor[(1, 3, 224, 224), int8] */, Primitive=1) -> Tensor[(1, 3, 224, 224), float32] {
    qnn.dequantize(%p012, 0.2f /* ty=float32 span=from_string:16:140 */, 0 /* ty=int32 span=from_string:16:183 */) /* ty=Tensor[(1, 3, 224, 224), float32] span=from_string:16:116 */
  } /* ty=fn (Tensor[(1, 3, 224, 224), int8]) -> Tensor[(1, 3, 224, 224), float32] */;
  let %x_19: Tensor[(1, 3, 224, 224), float32] /* ty=Tensor[(1, 3, 224, 224), float32] span=from_string:17:132 */ = %13(%x1) /* ty=Tensor[(1, 3, 224, 224), float32] */;
  %14 = fn (%p013: Tensor[(1, 3, 224, 224), float32] /* ty=Tensor[(1, 3, 224, 224), float32] */, %p16: Tensor[(1, 3, 224, 224), float32] /* ty=Tensor[(1, 3, 224, 224), float32] */, Primitive=1) -> Tensor[(1, 3, 224, 224), float32] {
    multiply(%p013, %p16) /* ty=Tensor[(1, 3, 224, 224), float32] span=from_string:17:117 */
  } /* ty=fn (Tensor[(1, 3, 224, 224), float32], Tensor[(1, 3, 224, 224), float32]) -> Tensor[(1, 3, 224, 224), float32] */;
  let %x_20: Tensor[(1, 3, 224, 224), float32] /* ty=Tensor[(1, 3, 224, 224), float32] span=from_string:26:133 */ = %14(%x_3, %x_19) /* ty=Tensor[(1, 3, 224, 224), float32] */;
  %15 = fn (%p014: Tensor[(1, 3, 224, 224), float32] /* ty=Tensor[(1, 3, 224, 224), float32] */, Primitive=1) -> Tensor[(1, 3, 224, 224), int8] {
    qnn.quantize(%p014, 20f /* ty=float32 span=from_string:18:135 */, 0 /* ty=int32 span=from_string:18:178 */, out_dtype="int8") /* ty=Tensor[(1, 3, 224, 224), int8] span=from_string:18:112 */
  } /* ty=fn (Tensor[(1, 3, 224, 224), float32]) -> Tensor[(1, 3, 224, 224), int8] */;
  let %x_23: Tensor[(1, 3, 224, 224), int8] /* ty=Tensor[(1, 3, 224, 224), int8] span=from_string:36:131 */ = %15(%x_20) /* ty=Tensor[(1, 3, 224, 224), int8] */;
  %16 = fn (%p015: Tensor[(1, 3, 224, 224), int8] /* ty=Tensor[(1, 3, 224, 224), int8] */, Primitive=1) -> Tensor[(1, 3, 224, 224), float32] {
    qnn.dequantize(%p015, 0.5f /* ty=float32 span=from_string:19:142 */, 0 /* ty=int32 span=from_string:19:185 */) /* ty=Tensor[(1, 3, 224, 224), float32] span=from_string:19:116 */
  } /* ty=fn (Tensor[(1, 3, 224, 224), int8]) -> Tensor[(1, 3, 224, 224), float32] */;
  let %x_26: Tensor[(1, 3, 224, 224), float32] /* ty=Tensor[(1, 3, 224, 224), float32] span=from_string:23:323 */ = %16(%x_23) /* ty=Tensor[(1, 3, 224, 224), float32] */;
  %17 = fn (%p016: Tensor[(1, 3, 224, 89), int8] /* ty=Tensor[(1, 3, 224, 89), int8] */, Primitive=1) -> Tensor[(1, 3, 224, 89), float32] {
    qnn.dequantize(%p016, 1.5f /* ty=float32 span=from_string:20:138 */, 0 /* ty=int32 span=from_string:20:181 */) /* ty=Tensor[(1, 3, 224, 89), float32] span=from_string:20:114 */
  } /* ty=fn (Tensor[(1, 3, 224, 89), int8]) -> Tensor[(1, 3, 224, 89), float32] */;
  let %x_29: Tensor[(1, 3, 224, 89), float32] /* ty=Tensor[(1, 3, 224, 89), float32] span=from_string:23:330 */ = %17(%x5) /* ty=Tensor[(1, 3, 224, 89), float32] */;
  %18 = fn (%p017: Tensor[(1, 3, 224, 32), int8] /* ty=Tensor[(1, 3, 224, 32), int8] */, Primitive=1) -> Tensor[(1, 3, 224, 32), float32] {
    qnn.dequantize(%p017, 2.5f /* ty=float32 span=from_string:21:138 */, 0 /* ty=int32 span=from_string:21:181 */) /* ty=Tensor[(1, 3, 224, 32), float32] span=from_string:21:114 */
  } /* ty=fn (Tensor[(1, 3, 224, 32), int8]) -> Tensor[(1, 3, 224, 32), float32] */;
  let %x_32: Tensor[(1, 3, 224, 32), float32] /* ty=Tensor[(1, 3, 224, 32), float32] span=from_string:23:337 */ = %18(%x6) /* ty=Tensor[(1, 3, 224, 32), float32] */;
  %19 = fn (%p018: Tensor[(1, 3, 224, 4), int8] /* ty=Tensor[(1, 3, 224, 4), int8] */, Primitive=1) -> Tensor[(1, 3, 224, 4), float32] {
    qnn.dequantize(%p018, 3.5f /* ty=float32 span=from_string:22:136 */, 0 /* ty=int32 span=from_string:22:179 */) /* ty=Tensor[(1, 3, 224, 4), float32] span=from_string:22:112 */
  } /* ty=fn (Tensor[(1, 3, 224, 4), int8]) -> Tensor[(1, 3, 224, 4), float32] */;
  let %x_35: Tensor[(1, 3, 224, 4), float32] /* ty=Tensor[(1, 3, 224, 4), float32] span=from_string:23:344 */ = %19(%x7) /* ty=Tensor[(1, 3, 224, 4), float32] */;
  let %x_36: (Tensor[(1, 3, 224, 224), float32], Tensor[(1, 3, 224, 89), float32], Tensor[(1, 3, 224, 32), float32], Tensor[(1, 3, 224, 4), float32]) /* ty=(Tensor[(1, 3, 224, 224), float32], Tensor[(1, 3, 224, 89), float32], Tensor[(1, 3, 224, 32), float32], Tensor[(1, 3, 224, 4), float32]) span=from_string:24:128 */ = (%x_26, %x_29, %x_32, %x_35) /* ty=(Tensor[(1, 3, 224, 224), float32], Tensor[(1, 3, 224, 89), float32], Tensor[(1, 3, 224, 32), float32], Tensor[(1, 3, 224, 4), float32]) span=from_string:23:322 */;
  %20 = fn (%p019: (Tensor[(1, 3, 224, 224), float32], Tensor[(1, 3, 224, 89), float32], Tensor[(1, 3, 224, 32), float32], Tensor[(1, 3, 224, 4), float32]) /* ty=(Tensor[(1, 3, 224, 224), float32], Tensor[(1, 3, 224, 89), float32], Tensor[(1, 3, 224, 32), float32], Tensor[(1, 3, 224, 4), float32]) */, Primitive=1) -> Tensor[(1, 3, 224, 349), float32] {
    concatenate(%p019, axis=-1) /* ty=Tensor[(1, 3, 224, 349), float32] span=from_string:24:116 */
  } /* ty=fn ((Tensor[(1, 3, 224, 224), float32], Tensor[(1, 3, 224, 89), float32], Tensor[(1, 3, 224, 32), float32], Tensor[(1, 3, 224, 4), float32])) -> Tensor[(1, 3, 224, 349), float32] */;
  let %x_37: Tensor[(1, 3, 224, 349), float32] /* ty=Tensor[(1, 3, 224, 349), float32] span=from_string:25:125 */ = %20(%x_36) /* ty=Tensor[(1, 3, 224, 349), float32] */;
  %21 = fn (%p020: Tensor[(1, 3, 224, 349), float32] /* ty=Tensor[(1, 3, 224, 349), float32] */, Primitive=1) -> Tensor[(1, 3, 224, 349), int8] {
    qnn.quantize(%p020, 3.5f /* ty=float32 span=from_string:25:136 */, 0 /* ty=int32 span=from_string:25:179 */, out_dtype="int8") /* ty=Tensor[(1, 3, 224, 349), int8] span=from_string:25:112 */
  } /* ty=fn (Tensor[(1, 3, 224, 349), float32]) -> Tensor[(1, 3, 224, 349), int8] */;
  let %x_40: Tensor[(1, 3, 224, 349), int8] /* ty=Tensor[(1, 3, 224, 349), int8] span=from_string:39:544 */ = %21(%x_37) /* ty=Tensor[(1, 3, 224, 349), int8] */;
  %22 = fn (%p021: Tensor[(1, 3, 224, 224), float32] /* ty=Tensor[(1, 3, 224, 224), float32] */, Primitive=1) -> Tensor[(1, 224, 3, 224), float32] {
    layout_transform(%p021, src_layout="NHWC", dst_layout="NCHW") /* ty=Tensor[(1, 224, 3, 224), float32] span=from_string:26:116 */
  } /* ty=fn (Tensor[(1, 3, 224, 224), float32]) -> Tensor[(1, 224, 3, 224), float32] */;
  let %x_41: Tensor[(1, 224, 3, 224), float32] /* ty=Tensor[(1, 224, 3, 224), float32] span=from_string:27:137 */ = %22(%x_20) /* ty=Tensor[(1, 224, 3, 224), float32] */;
  %23 = fn (%p022: Tensor[(1, 224, 3, 224), float32] /* ty=Tensor[(1, 224, 3, 224), float32] */, Primitive=1) -> Tensor[(1, 56, 3, 224, 4), float32] {
    layout_transform(%p022, src_layout="NCHW", dst_layout="NCHW4c") /* ty=Tensor[(1, 56, 3, 224, 4), float32] span=from_string:27:120 */
  } /* ty=fn (Tensor[(1, 224, 3, 224), float32]) -> Tensor[(1, 56, 3, 224, 4), float32] */;
  let %x_42: Tensor[(1, 56, 3, 224, 4), float32] /* ty=Tensor[(1, 56, 3, 224, 4), float32] span=from_string:28:128 */ = %23(%x_41) /* ty=Tensor[(1, 56, 3, 224, 4), float32] */;
  %24 = fn (%p023: Tensor[(1, 56, 3, 224, 4), float32] /* ty=Tensor[(1, 56, 3, 224, 4), float32] */, Primitive=1) -> Tensor[(1, 56, 3, 224, 4), float32] {
    nn.relu(%p023) /* ty=Tensor[(1, 56, 3, 224, 4), float32] span=from_string:28:120 */
  } /* ty=fn (Tensor[(1, 56, 3, 224, 4), float32]) -> Tensor[(1, 56, 3, 224, 4), float32] */;
  let %x_43: Tensor[(1, 56, 3, 224, 4), float32] /* ty=Tensor[(1, 56, 3, 224, 4), float32] span=from_string:29:133 */ = %24(%x_42) /* ty=Tensor[(1, 56, 3, 224, 4), float32] */;
  %25 = fn (%p024: Tensor[(1, 56, 3, 224, 4), float32] /* ty=Tensor[(1, 56, 3, 224, 4), float32] */, Primitive=1) -> Tensor[(1, 224, 3, 224), float32] {
    layout_transform(%p024, src_layout="NCHW4c", dst_layout="NCHW") /* ty=Tensor[(1, 224, 3, 224), float32] span=from_string:29:116 */
  } /* ty=fn (Tensor[(1, 56, 3, 224, 4), float32]) -> Tensor[(1, 224, 3, 224), float32] */;
  let %x_44: Tensor[(1, 224, 3, 224), float32] /* ty=Tensor[(1, 224, 3, 224), float32] span=from_string:32:230 */ = %25(%x_43) /* ty=Tensor[(1, 224, 3, 224), float32] */;
  %26 = fn (%p025: Tensor[(1, 224, 3, 224), float32] /* ty=Tensor[(1, 224, 3, 224), float32] */, Primitive=1) -> Tensor[(1, 3, 224, 224), float32] {
    layout_transform(%p025, src_layout="NCHW", dst_layout="NHWC") /* ty=Tensor[(1, 3, 224, 224), float32] span=from_string:30:116 */
  } /* ty=fn (Tensor[(1, 224, 3, 224), float32]) -> Tensor[(1, 3, 224, 224), float32] */;
  let %x_45: Tensor[(1, 3, 224, 224), float32] /* ty=Tensor[(1, 3, 224, 224), float32] span=from_string:39:551 */ = %26(%x_44) /* ty=Tensor[(1, 3, 224, 224), float32] */;
  %27 = fn (%p026: Tensor[(3, 3, 3, 3), float32] /* ty=Tensor[(3, 3, 3, 3), float32] */, Primitive=1) -> Tensor[(3, 3, 3, 3), float32] {
    add(2f /* ty=float32 span=from_string:31:114 */, %p026) /* ty=Tensor[(3, 3, 3, 3), float32] span=from_string:31:108 */
  } /* ty=fn (Tensor[(3, 3, 3, 3), float32]) -> Tensor[(3, 3, 3, 3), float32] */;
  let %x_47: Tensor[(3, 3, 3, 3), float32] /* ty=Tensor[(3, 3, 3, 3), float32] span=from_string:39:558 */ = %27(%x4) /* ty=Tensor[(3, 3, 3, 3), float32] */;
  %28 = fn (%p027: Tensor[(1, 224, 3, 224), float32] /* ty=Tensor[(1, 224, 3, 224), float32] */, %p17: Tensor[(224), float32] /* ty=Tensor[(224), float32] */, %p2: Tensor[(224), float32] /* ty=Tensor[(224), float32] */, %p3: Tensor[(224), float32] /* ty=Tensor[(224), float32] */, %p4: Tensor[(224), float32] /* ty=Tensor[(224), float32] */, Primitive=1) -> (Tensor[(1, 224, 3, 224), float32], Tensor[(224), float32], Tensor[(224), float32]) {
    nn.batch_norm(%p027, %p17, %p2, %p3, %p4) /* ty=(Tensor[(1, 224, 3, 224), float32], Tensor[(224), float32], Tensor[(224), float32]) span=from_string:32:216 */
  } /* ty=fn (Tensor[(1, 224, 3, 224), float32], Tensor[(224), float32], Tensor[(224), float32], Tensor[(224), float32], Tensor[(224), float32]) -> (Tensor[(1, 224, 3, 224), float32], Tensor[(224), float32], Tensor[(224), float32]) */;
  let %x_48: (Tensor[(1, 224, 3, 224), float32], Tensor[(224), float32], Tensor[(224), float32]) /* ty=(Tensor[(1, 224, 3, 224), float32], Tensor[(224), float32], Tensor[(224), float32]) span=from_string:34:116 */ = %28(%x_44, %x11, %x10, %x9, %x8) /* ty=(Tensor[(1, 224, 3, 224), float32], Tensor[(224), float32], Tensor[(224), float32]) */;
  let %x_49: Tensor[(1, 224, 3, 224), float32] /* ty=Tensor[(1, 224, 3, 224), float32] span=from_string:35:120 */ = %x_48.0 /* ty=Tensor[(1, 224, 3, 224), float32] span=from_string:33:116 */;
  let %x_50: Tensor[(1, 224, 3, 224), float32] /* ty=Tensor[(1, 224, 3, 224), float32] span=from_string:35:127 */ = %x_48.0 /* ty=Tensor[(1, 224, 3, 224), float32] span=from_string:34:116 */;
  %29 = fn (%p028: Tensor[(1, 224, 3, 224), float32] /* ty=Tensor[(1, 224, 3, 224), float32] */, %p18: Tensor[(1, 224, 3, 224), float32] /* ty=Tensor[(1, 224, 3, 224), float32] */, Primitive=1) -> Tensor[(1, 224, 3, 224), float32] {
    add(%p028, %p18) /* ty=Tensor[(1, 224, 3, 224), float32] span=from_string:35:116 */
  } /* ty=fn (Tensor[(1, 224, 3, 224), float32], Tensor[(1, 224, 3, 224), float32]) -> Tensor[(1, 224, 3, 224), float32] */;
  let %x_51: Tensor[(1, 224, 3, 224), float32] /* ty=Tensor[(1, 224, 3, 224), float32] span=from_string:39:565 */ = %29(%x_49, %x_50) /* ty=Tensor[(1, 224, 3, 224), float32] */;
  %30 = fn (%p029: Tensor[(1, 3, 224, 224), int8] /* ty=Tensor[(1, 3, 224, 224), int8] */, Primitive=1) -> Tensor[(1, 3, 224, 224), float32] {
    qnn.dequantize(%p029, 2f /* ty=float32 span=from_string:36:140 */, 0 /* ty=int32 span=from_string:36:183 */) /* ty=Tensor[(1, 3, 224, 224), float32] span=from_string:36:116 */
  } /* ty=fn (Tensor[(1, 3, 224, 224), int8]) -> Tensor[(1, 3, 224, 224), float32] */;
  let %x_54: Tensor[(1, 3, 224, 224), float32] /* ty=Tensor[(1, 3, 224, 224), float32] span=from_string:37:134 */ = %30(%x_23) /* ty=Tensor[(1, 3, 224, 224), float32] */;
  %31 = fn (%p030: Tensor[(1, 3, 224, 224), float32] /* ty=Tensor[(1, 3, 224, 224), float32] */, Primitive=1, relay.reshape_only=1) -> Tensor[(1, 1, 3, 224, 224), float32] {
    expand_dims(%p030, axis=1) /* ty=Tensor[(1, 1, 3, 224, 224), float32] span=from_string:37:122 */
  } /* ty=fn (Tensor[(1, 3, 224, 224), float32]) -> Tensor[(1, 1, 3, 224, 224), float32] */;
  let %x_55: Tensor[(1, 1, 3, 224, 224), float32] /* ty=Tensor[(1, 1, 3, 224, 224), float32] span=from_string:38:131 */ = %31(%x_54) /* ty=Tensor[(1, 1, 3, 224, 224), float32] */;
  %32 = fn (%p031: Tensor[(1, 1, 3, 224, 224), float32] /* ty=Tensor[(1, 1, 3, 224, 224), float32] */, Primitive=1) -> Tensor[(1, 1, 3, 224, 224), int8] {
    qnn.quantize(%p031, 2f /* ty=float32 span=from_string:38:140 */, 0 /* ty=int32 span=from_string:38:183 */, out_dtype="int8") /* ty=Tensor[(1, 1, 3, 224, 224), int8] span=from_string:38:118 */
  } /* ty=fn (Tensor[(1, 1, 3, 224, 224), float32]) -> Tensor[(1, 1, 3, 224, 224), int8] */;
  let %x_58: Tensor[(1, 1, 3, 224, 224), int8] /* ty=Tensor[(1, 1, 3, 224, 224), int8] span=from_string:39:572 */ = %32(%x_55) /* ty=Tensor[(1, 1, 3, 224, 224), int8] */;
  let %x_59: (Tensor[(1, 3, 224, 224), float16], Tensor[(1, 3, 224, 224), float32], Tensor[(1, 3, 224, 349), int8], Tensor[(1, 3, 224, 224), float32], Tensor[(3, 3, 3, 3), float32], Tensor[(1, 224, 3, 224), float32], Tensor[(1, 1, 3, 224, 224), int8]) /* ty=(Tensor[(1, 3, 224, 224), float16], Tensor[(1, 3, 224, 224), float32], Tensor[(1, 3, 224, 349), int8], Tensor[(1, 3, 224, 224), float32], Tensor[(3, 3, 3, 3), float32], Tensor[(1, 224, 3, 224), float32], Tensor[(1, 1, 3, 224, 224), int8]) span=from_string:40:529 */ = (%x_7, %x_16, %x_40, %x_45, %x_47, %x_51, %x_58) /* ty=(Tensor[(1, 3, 224, 224), float16], Tensor[(1, 3, 224, 224), float32], Tensor[(1, 3, 224, 349), int8], Tensor[(1, 3, 224, 224), float32], Tensor[(3, 3, 3, 3), float32], Tensor[(1, 224, 3, 224), float32], Tensor[(1, 1, 3, 224, 224), int8]) span=from_string:39:530 */;
  let %x_60: (Tensor[(1, 3, 224, 224), float16], Tensor[(1, 3, 224, 224), float32], Tensor[(1, 3, 224, 349), int8], Tensor[(1, 3, 224, 224), float32], Tensor[(3, 3, 3, 3), float32], Tensor[(1, 224, 3, 224), float32], Tensor[(1, 1, 3, 224, 224), int8]) /* ty=(Tensor[(1, 3, 224, 224), float16], Tensor[(1, 3, 224, 224), float32], Tensor[(1, 3, 224, 349), int8], Tensor[(1, 3, 224, 224), float32], Tensor[(3, 3, 3, 3), float32], Tensor[(1, 224, 3, 224), float32], Tensor[(1, 1, 3, 224, 224), int8]) span=from_string:41:3 */ = %x_59;
  %x_60
}
