#[version = "0.0.5"]
def @main(%x0: Tensor[(1), float32] /* ty=Tensor[(1), float32] span=from_string:6:91 */, %x1: float32 /* ty=float32 span=from_string:25:12 */) -> (Tensor[(1), float32], (float32, float32), float32, Tensor[(1), float32], Tensor[(1), int32], Tensor[(1), float32]) {
  %0 = fn (%p0: Tensor[(1), float32] /* ty=Tensor[(1), float32] span=from_string:4:52 */, Primitive=1) -> Tensor[(1), float32] {
    add(2f /* ty=float32 span=from_string:4:11 */, %p0) /* ty=Tensor[(1), float32] span=from_string:4:5 */
  } /* ty=fn (Tensor[(1), float32]) -> Tensor[(1), float32] span=from_string:6:88 */;
  let %x4: Tensor[(1), float32] /* ty=Tensor[(1), float32] span=from_string:27:12 */ = %0(%x0) /* ty=Tensor[(1), float32] span=from_string:6:88 */;
  %1 = fn (Primitive=1) -> Tensor[(1), float32] {
    ones(shape=[1], dtype="float32") /* ty=Tensor[(1), float32] span=from_string:8:5 */
  } /* ty=fn () -> Tensor[(1), float32] span=from_string:23:8 */;
  %3 = fn (%p01: float32 /* ty=float32 span=from_string:12:19 */, Primitive=1) -> float32 {
    %2 = subtract(2f /* ty=float32 span=from_string:11:21 */, %p01) /* ty=float32 span=from_string:12:15 */;
    multiply(%2, %p01) /* ty=float32 span=from_string:11:5 */
  } /* ty=fn (float32) -> float32 span=from_string:25:9 */;
  %4 = fn (Primitive=1) -> Tensor[(1), float32] {
    ones(shape=[1], dtype="float32") /* ty=Tensor[(1), float32] span=from_string:15:5 */
  } /* ty=fn () -> Tensor[(1), float32] span=from_string:26:9 */;
  %5 = fn (%p02: Tensor[(1), float32] /* ty=Tensor[(1), float32] span=from_string:19:14 */, Primitive=1) -> Tensor[(1), float32] {
    %p02
  } /* ty=fn (Tensor[(1), float32]) -> Tensor[(1), float32] span=from_string:27:9 */;
  %6 = %1() /* ty=Tensor[(1), float32] span=from_string:28:4 */;
  %7 = (2f /* ty=float32 span=from_string:24:12 */, 4f /* ty=float32 span=from_string:24:56 */) /* ty=(float32, float32) span=from_string:28:8 */;
  %8 = %3(%x1) /* ty=float32 span=from_string:28:13 */;
  %9 = %4() /* ty=Tensor[(1), float32] span=from_string:28:18 */;
  %10 = %5(%x4) /* ty=Tensor[(1), float32] span=from_string:28:99 */;
  (%6, %7, %8, %9, meta[relay.Constant][0] /* ty=Tensor[(1), int32] span=from_string:28:28 */, %10) /* ty=(Tensor[(1), float32], (float32, float32), float32, Tensor[(1), float32], Tensor[(1), int32], Tensor[(1), float32]) span=from_string:28:3 */
}

#[metadata]
{
  "root": 1, 
  "nodes": [
    {
      "type_key": ""
    }, 
    {
      "type_key": "Map", 
      "keys": [
        "relay.Constant"
      ], 
      "data": [2]
    }, 
    {
      "type_key": "Array", 
      "data": [3]
    }, 
    {
      "type_key": "relay.Constant", 
      "attrs": {
        "_checked_type_": "8", 
        "data": "0", 
        "span": "6", 
        "virtual_device_": "4"
      }
    }, 
    {
      "type_key": "VirtualDevice", 
      "attrs": {
        "device_type_int": "-1", 
        "memory_scope": "5", 
        "target": "0", 
        "virtual_device_id": "-1"
      }
    }, 
    {
      "type_key": "runtime.String"
    }, 
    {
      "type_key": "Span", 
      "attrs": {
        "column": "28", 
        "end_column": "46", 
        "end_line": "28", 
        "line": "28", 
        "source_name": "7"
      }
    }, 
    {
      "type_key": "SourceName", 
      "repr_str": "from_string"
    }, 
    {
      "type_key": "relay.TensorType", 
      "attrs": {
        "dtype": "int32", 
        "shape": "9", 
        "span": "11"
      }
    }, 
    {
      "type_key": "Array", 
      "data": [10]
    }, 
    {
      "type_key": "IntImm", 
      "attrs": {
        "dtype": "int32", 
        "span": "0", 
        "value": "1"
      }
    }, 
    {
      "type_key": "Span", 
      "attrs": {
        "column": "222", 
        "end_column": "242", 
        "end_line": "2", 
        "line": "2", 
        "source_name": "7"
      }
    }
  ], 
  "b64ndarrays": [
    "P6G0lvBAXt0AAAAAAAAAAAEAAAAAAAAAAQAAAAAgAQABAAAAAAAAAAQAAAAAAAAAAQAAAA=="
  ], 
  "attrs": {"tvm_version": "0.13.0"}
}