#[version = "0.0.5"]
def @main(%x0: Tensor[(1), float32] /* ty=Tensor[(1), float32] span=from_string:6:94 */, %x1: float32 /* ty=float32 span=from_string:16:69 */) -> (Tensor[(1), float16], (float32, float32), float16, Tensor[(1), float16], Tensor[(1), int32], Tensor[(1), float16]) {
  let %x_11: Tensor[(1), float16] /* ty=Tensor[(1), float16] span=from_string:7:93 */ = cast(%x0, dtype="float16") /* ty=Tensor[(1), float16] span=from_string:6:89 */;
  let %x_2: Tensor[(1), float16] /* ty=Tensor[(1), float16] span=from_string:8:98 */ = cast(%x_11, dtype="float16") /* ty=Tensor[(1), float16] span=from_string:7:88 */;
  let %x4: Tensor[(1), float16] /* ty=Tensor[(1), float16] span=from_string:23:94 */ = add(2f16 /* ty=float16 */, %x_2) /* ty=Tensor[(1), float16] span=from_string:8:88 */;
  let %x_3: Tensor[(1), float16] /* ty=Tensor[(1), float16] span=from_string:26:284 */ = ones(shape=[1], dtype="float16") /* ty=Tensor[(1), float16] span=from_string:9:90 */;
  let %x_6: (float32, float32) /* ty=(float32, float32) span=from_string:26:290 */ = (2f /* ty=float32 span=from_string:10:65 */, 4f /* ty=float32 span=from_string:11:65 */) /* ty=(float32, float32) span=from_string:12:86 */;
  let %x_31: float16 /* ty=float16 span=from_string:17:68 */ = cast(%x1, dtype="float16") /* ty=float16 span=from_string:16:64 */;
  let %x_9: float16 /* ty=float16 span=from_string:19:83 */ = cast(%x_31, dtype="float16") /* ty=float16 span=from_string:17:63 */;
  let %x_10: float16 /* ty=float16 span=from_string:19:76 */ = subtract(2f16 /* ty=float16 */, %x_9) /* ty=float16 span=from_string:18:64 */;
  let %x_111: float16 /* ty=float16 span=from_string:26:296 */ = multiply(%x_10, %x_9) /* ty=float16 span=from_string:19:67 */;
  let %x_12: Tensor[(1), float16] /* ty=Tensor[(1), float16] span=from_string:26:304 */ = ones(shape=[1], dtype="float16") /* ty=Tensor[(1), float16] span=from_string:20:91 */;
  let %x_14: Tensor[(1), float16] /* ty=Tensor[(1), float16] span=from_string:23:99 */ = zeros_like(%x4) /* ty=Tensor[(1), float16] span=from_string:22:90 */;
  let %x_15: Tensor[(1), float16] /* ty=Tensor[(1), float16] span=from_string:25:95 */ = add(%x4, %x_14) /* ty=Tensor[(1), float16] span=from_string:23:90 */;
  let %x_16: Tensor[(1), float16] /* ty=Tensor[(1), float16] span=from_string:25:102 */ = zeros(shape=[1], dtype="float16") /* ty=Tensor[(1), float16] span=from_string:24:91 */;
  let %x_17: Tensor[(1), float16] /* ty=Tensor[(1), float16] span=from_string:26:318 */ = add(%x_15, %x_16) /* ty=Tensor[(1), float16] span=from_string:25:91 */;
  let %x_18: (Tensor[(1), float16], (float32, float32), float16, Tensor[(1), float16], Tensor[(1), int32], Tensor[(1), float16]) /* ty=(Tensor[(1), float16], (float32, float32), float16, Tensor[(1), float16], Tensor[(1), int32], Tensor[(1), float16]) span=from_string:27:283 */ = (%x_3, %x_6, %x_111, %x_12, meta[relay.Constant][0] /* ty=Tensor[(1), int32] span=from_string:21:94 */, %x_17) /* ty=(Tensor[(1), float16], (float32, float32), float16, Tensor[(1), float16], Tensor[(1), int32], Tensor[(1), float16]) span=from_string:26:283 */;
  let %x_19: (Tensor[(1), float16], (float32, float32), float16, Tensor[(1), float16], Tensor[(1), int32], Tensor[(1), float16]) /* ty=(Tensor[(1), float16], (float32, float32), float16, Tensor[(1), float16], Tensor[(1), int32], Tensor[(1), float16]) span=from_string:28:283 */ = %x_18;
  let %x_41: (Tensor[(1), float16], (float32, float32), float16, Tensor[(1), float16], Tensor[(1), int32], Tensor[(1), float16]) /* ty=(Tensor[(1), float16], (float32, float32), float16, Tensor[(1), float16], Tensor[(1), int32], Tensor[(1), float16]) span=from_string:29:283 */ = %x_19;
  let %x_51: (Tensor[(1), float16], (float32, float32), float16, Tensor[(1), float16], Tensor[(1), int32], Tensor[(1), float16]) /* ty=(Tensor[(1), float16], (float32, float32), float16, Tensor[(1), float16], Tensor[(1), int32], Tensor[(1), float16]) span=from_string:30:283 */ = %x_41;
  let %x_61: (Tensor[(1), float16], (float32, float32), float16, Tensor[(1), float16], Tensor[(1), int32], Tensor[(1), float16]) /* ty=(Tensor[(1), float16], (float32, float32), float16, Tensor[(1), float16], Tensor[(1), int32], Tensor[(1), float16]) span=from_string:31:283 */ = %x_51;
  let %x_71: (Tensor[(1), float16], (float32, float32), float16, Tensor[(1), float16], Tensor[(1), int32], Tensor[(1), float16]) /* ty=(Tensor[(1), float16], (float32, float32), float16, Tensor[(1), float16], Tensor[(1), int32], Tensor[(1), float16]) span=from_string:32:283 */ = %x_61;
  let %x_81: (Tensor[(1), float16], (float32, float32), float16, Tensor[(1), float16], Tensor[(1), int32], Tensor[(1), float16]) /* ty=(Tensor[(1), float16], (float32, float32), float16, Tensor[(1), float16], Tensor[(1), int32], Tensor[(1), float16]) span=from_string:33:283 */ = %x_71;
  let %x_91: (Tensor[(1), float16], (float32, float32), float16, Tensor[(1), float16], Tensor[(1), int32], Tensor[(1), float16]) /* ty=(Tensor[(1), float16], (float32, float32), float16, Tensor[(1), float16], Tensor[(1), int32], Tensor[(1), float16]) span=from_string:34:284 */ = %x_81;
  let %x_101: (Tensor[(1), float16], (float32, float32), float16, Tensor[(1), float16], Tensor[(1), int32], Tensor[(1), float16]) /* ty=(Tensor[(1), float16], (float32, float32), float16, Tensor[(1), float16], Tensor[(1), int32], Tensor[(1), float16]) span=from_string:35:284 */ = %x_91;
  let %x_112: (Tensor[(1), float16], (float32, float32), float16, Tensor[(1), float16], Tensor[(1), int32], Tensor[(1), float16]) /* ty=(Tensor[(1), float16], (float32, float32), float16, Tensor[(1), float16], Tensor[(1), int32], Tensor[(1), float16]) span=from_string:36:284 */ = %x_101;
  let %x_121: (Tensor[(1), float16], (float32, float32), float16, Tensor[(1), float16], Tensor[(1), int32], Tensor[(1), float16]) /* ty=(Tensor[(1), float16], (float32, float32), float16, Tensor[(1), float16], Tensor[(1), int32], Tensor[(1), float16]) span=from_string:37:284 */ = %x_112;
  let %x_131: (Tensor[(1), float16], (float32, float32), float16, Tensor[(1), float16], Tensor[(1), int32], Tensor[(1), float16]) /* ty=(Tensor[(1), float16], (float32, float32), float16, Tensor[(1), float16], Tensor[(1), int32], Tensor[(1), float16]) span=from_string:38:284 */ = %x_121;
  let %x_141: (Tensor[(1), float16], (float32, float32), float16, Tensor[(1), float16], Tensor[(1), int32], Tensor[(1), float16]) /* ty=(Tensor[(1), float16], (float32, float32), float16, Tensor[(1), float16], Tensor[(1), int32], Tensor[(1), float16]) span=from_string:39:284 */ = %x_131;
  let %x_151: (Tensor[(1), float16], (float32, float32), float16, Tensor[(1), float16], Tensor[(1), int32], Tensor[(1), float16]) /* ty=(Tensor[(1), float16], (float32, float32), float16, Tensor[(1), float16], Tensor[(1), int32], Tensor[(1), float16]) span=from_string:40:284 */ = %x_141;
  let %x_161: (Tensor[(1), float16], (float32, float32), float16, Tensor[(1), float16], Tensor[(1), int32], Tensor[(1), float16]) /* ty=(Tensor[(1), float16], (float32, float32), float16, Tensor[(1), float16], Tensor[(1), int32], Tensor[(1), float16]) span=from_string:41:284 */ = %x_151;
  let %x_171: (Tensor[(1), float16], (float32, float32), float16, Tensor[(1), float16], Tensor[(1), int32], Tensor[(1), float16]) /* ty=(Tensor[(1), float16], (float32, float32), float16, Tensor[(1), float16], Tensor[(1), int32], Tensor[(1), float16]) span=from_string:42:284 */ = %x_161;
  let %x_181: (Tensor[(1), float16], (float32, float32), float16, Tensor[(1), float16], Tensor[(1), int32], Tensor[(1), float16]) /* ty=(Tensor[(1), float16], (float32, float32), float16, Tensor[(1), float16], Tensor[(1), int32], Tensor[(1), float16]) span=from_string:43:284 */ = %x_171;
  let %x_191: (Tensor[(1), float16], (float32, float32), float16, Tensor[(1), float16], Tensor[(1), int32], Tensor[(1), float16]) /* ty=(Tensor[(1), float16], (float32, float32), float16, Tensor[(1), float16], Tensor[(1), int32], Tensor[(1), float16]) span=from_string:44:283 */ = %x_181;
  let %x_20: (Tensor[(1), float16], (float32, float32), float16, Tensor[(1), float16], Tensor[(1), int32], Tensor[(1), float16]) /* ty=(Tensor[(1), float16], (float32, float32), float16, Tensor[(1), float16], Tensor[(1), int32], Tensor[(1), float16]) span=from_string:45:284 */ = %x_191;
  let %x_211: (Tensor[(1), float16], (float32, float32), float16, Tensor[(1), float16], Tensor[(1), int32], Tensor[(1), float16]) /* ty=(Tensor[(1), float16], (float32, float32), float16, Tensor[(1), float16], Tensor[(1), int32], Tensor[(1), float16]) span=from_string:46:283 */ = %x_20;
  let %x_22: (Tensor[(1), float16], (float32, float32), float16, Tensor[(1), float16], Tensor[(1), int32], Tensor[(1), float16]) /* ty=(Tensor[(1), float16], (float32, float32), float16, Tensor[(1), float16], Tensor[(1), int32], Tensor[(1), float16]) span=from_string:47:283 */ = %x_211;
  let %x_23: (Tensor[(1), float16], (float32, float32), float16, Tensor[(1), float16], Tensor[(1), int32], Tensor[(1), float16]) /* ty=(Tensor[(1), float16], (float32, float32), float16, Tensor[(1), float16], Tensor[(1), int32], Tensor[(1), float16]) span=from_string:48:281 */ = %x_22;
  let %x_24: (Tensor[(1), float16], (float32, float32), float16, Tensor[(1), float16], Tensor[(1), int32], Tensor[(1), float16]) /* ty=(Tensor[(1), float16], (float32, float32), float16, Tensor[(1), float16], Tensor[(1), int32], Tensor[(1), float16]) span=from_string:49:3 */ = %x_23;
  %x_24
}

#[metadata]
{
  "root": 1, 
  "nodes": [
    {
      "type_key": ""
    }, 
    {
      "type_key": "Map", 
      "keys": [
        "relay.Constant"
      ], 
      "data": [2]
    }, 
    {
      "type_key": "Array", 
      "data": [3]
    }, 
    {
      "type_key": "relay.Constant", 
      "attrs": {
        "_checked_type_": "8", 
        "data": "0", 
        "span": "6", 
        "virtual_device_": "4"
      }
    }, 
    {
      "type_key": "VirtualDevice", 
      "attrs": {
        "device_type_int": "-1", 
        "memory_scope": "5", 
        "target": "0", 
        "virtual_device_id": "-1"
      }
    }, 
    {
      "type_key": "runtime.String"
    }, 
    {
      "type_key": "Span", 
      "attrs": {
        "column": "94", 
        "end_column": "112", 
        "end_line": "21", 
        "line": "21", 
        "source_name": "7"
      }
    }, 
    {
      "type_key": "SourceName", 
      "repr_str": "from_string"
    }, 
    {
      "type_key": "relay.TensorType", 
      "attrs": {
        "dtype": "int32", 
        "shape": "9", 
        "span": "0"
      }
    }, 
    {
      "type_key": "Array", 
      "data": [10]
    }, 
    {
      "type_key": "IntImm", 
      "attrs": {
        "dtype": "int32", 
        "span": "0", 
        "value": "1"
      }
    }
  ], 
  "b64ndarrays": [
    "P6G0lvBAXt0AAAAAAAAAAAEAAAAAAAAAAQAAAAAgAQABAAAAAAAAAAQAAAAAAAAAAQAAAA=="
  ], 
  "attrs": {"tvm_version": "0.13.0"}
}