#[version = "0.0.5"]
def @main(%x0: Tensor[(1), float32] /* ty=Tensor[(1), float32] span=GeneratedSource:3:94 */, %x1: float32 /* ty=float32 span=GeneratedSource:8:68 */) -> (Tensor[(1), float16], (float32, float32), float16, Tensor[(1), float16], Tensor[(1), int32], Tensor[(1), float16]) {
  let %x_11: Tensor[(1), float16] /* ty=Tensor[(1), float16] span=GeneratedSource:4:94 */ = cast(%x0, dtype="float16") /* ty=Tensor[(1), float16] span=GeneratedSource:3:89 */;
  let %x_2: Tensor[(1), float16] /* ty=Tensor[(1), float16] span=GeneratedSource:5:137 */ = cast(%x_11, dtype="float16") /* ty=Tensor[(1), float16] span=GeneratedSource:4:89 */;
  let %x4: Tensor[(1), float16] /* ty=Tensor[(1), float16] span=GeneratedSource:14:94 */ = add(2f16 /* ty=float16 span=GeneratedSource:5:96 */, %x_2) /* ty=Tensor[(1), float16] span=GeneratedSource:5:88 */;
  let %x_3: Tensor[(1), float16] /* ty=Tensor[(1), float16] span=GeneratedSource:17:284 */ = ones(shape=[1], dtype="float16") /* ty=Tensor[(1), float16] span=GeneratedSource:6:90 */;
  let %x_6: (float32, float32) /* ty=(float32, float32) span=GeneratedSource:17:290 */ = (2f /* ty=float32 span=GeneratedSource:7:89 */, 4f /* ty=float32 span=GeneratedSource:7:132 */) /* ty=(float32, float32) span=GeneratedSource:7:86 */;
  let %x_31: float16 /* ty=float16 span=GeneratedSource:9:68 */ = cast(%x1, dtype="float16") /* ty=float16 span=GeneratedSource:8:63 */;
  let %x_9: float16 /* ty=float16 span=GeneratedSource:11:83 */ = cast(%x_31, dtype="float16") /* ty=float16 span=GeneratedSource:9:63 */;
  let %x_10: float16 /* ty=float16 span=GeneratedSource:11:76 */ = subtract(2f16 /* ty=float16 span=GeneratedSource:10:77 */, %x_9) /* ty=float16 span=GeneratedSource:10:64 */;
  let %x_111: float16 /* ty=float16 span=GeneratedSource:17:296 */ = multiply(%x_10, %x_9) /* ty=float16 span=GeneratedSource:11:67 */;
  let %x_12: Tensor[(1), float16] /* ty=Tensor[(1), float16] span=GeneratedSource:17:304 */ = ones(shape=[1], dtype="float16") /* ty=Tensor[(1), float16] span=GeneratedSource:12:91 */;
  let %x_14: Tensor[(1), float16] /* ty=Tensor[(1), float16] span=GeneratedSource:14:99 */ = zeros_like(%x4) /* ty=Tensor[(1), float16] span=GeneratedSource:13:90 */;
  let %x_15: Tensor[(1), float16] /* ty=Tensor[(1), float16] span=GeneratedSource:16:95 */ = add(%x4, %x_14) /* ty=Tensor[(1), float16] span=GeneratedSource:14:90 */;
  let %x_16: Tensor[(1), float16] /* ty=Tensor[(1), float16] span=GeneratedSource:16:102 */ = zeros(shape=[1], dtype="float16") /* ty=Tensor[(1), float16] span=GeneratedSource:15:91 */;
  let %x_17: Tensor[(1), float16] /* ty=Tensor[(1), float16] span=GeneratedSource:17:388 */ = add(%x_15, %x_16) /* ty=Tensor[(1), float16] span=GeneratedSource:16:91 */;
  let %x_18: (Tensor[(1), float16], (float32, float32), float16, Tensor[(1), float16], Tensor[(1), int32], Tensor[(1), float16]) /* ty=(Tensor[(1), float16], (float32, float32), float16, Tensor[(1), float16], Tensor[(1), int32], Tensor[(1), float16]) span=GeneratedSource:18:283 */ = (%x_3, %x_6, %x_111, %x_12, meta[relay.Constant][0] /* ty=Tensor[(1), int32] span=GeneratedSource:17:316 */, %x_17) /* ty=(Tensor[(1), float16], (float32, float32), float16, Tensor[(1), float16], Tensor[(1), int32], Tensor[(1), float16]) span=GeneratedSource:17:283 */;
  let %x_19: (Tensor[(1), float16], (float32, float32), float16, Tensor[(1), float16], Tensor[(1), int32], Tensor[(1), float16]) /* ty=(Tensor[(1), float16], (float32, float32), float16, Tensor[(1), float16], Tensor[(1), int32], Tensor[(1), float16]) span=GeneratedSource:19:283 */ = %x_18;
  let %x_41: (Tensor[(1), float16], (float32, float32), float16, Tensor[(1), float16], Tensor[(1), int32], Tensor[(1), float16]) /* ty=(Tensor[(1), float16], (float32, float32), float16, Tensor[(1), float16], Tensor[(1), int32], Tensor[(1), float16]) span=GeneratedSource:20:283 */ = %x_19;
  let %x_51: (Tensor[(1), float16], (float32, float32), float16, Tensor[(1), float16], Tensor[(1), int32], Tensor[(1), float16]) /* ty=(Tensor[(1), float16], (float32, float32), float16, Tensor[(1), float16], Tensor[(1), int32], Tensor[(1), float16]) span=GeneratedSource:21:283 */ = %x_41;
  let %x_61: (Tensor[(1), float16], (float32, float32), float16, Tensor[(1), float16], Tensor[(1), int32], Tensor[(1), float16]) /* ty=(Tensor[(1), float16], (float32, float32), float16, Tensor[(1), float16], Tensor[(1), int32], Tensor[(1), float16]) span=GeneratedSource:22:283 */ = %x_51;
  let %x_71: (Tensor[(1), float16], (float32, float32), float16, Tensor[(1), float16], Tensor[(1), int32], Tensor[(1), float16]) /* ty=(Tensor[(1), float16], (float32, float32), float16, Tensor[(1), float16], Tensor[(1), int32], Tensor[(1), float16]) span=GeneratedSource:23:283 */ = %x_61;
  let %x_81: (Tensor[(1), float16], (float32, float32), float16, Tensor[(1), float16], Tensor[(1), int32], Tensor[(1), float16]) /* ty=(Tensor[(1), float16], (float32, float32), float16, Tensor[(1), float16], Tensor[(1), int32], Tensor[(1), float16]) span=GeneratedSource:24:283 */ = %x_71;
  let %x_91: (Tensor[(1), float16], (float32, float32), float16, Tensor[(1), float16], Tensor[(1), int32], Tensor[(1), float16]) /* ty=(Tensor[(1), float16], (float32, float32), float16, Tensor[(1), float16], Tensor[(1), int32], Tensor[(1), float16]) span=GeneratedSource:25:284 */ = %x_81;
  let %x_101: (Tensor[(1), float16], (float32, float32), float16, Tensor[(1), float16], Tensor[(1), int32], Tensor[(1), float16]) /* ty=(Tensor[(1), float16], (float32, float32), float16, Tensor[(1), float16], Tensor[(1), int32], Tensor[(1), float16]) span=GeneratedSource:26:284 */ = %x_91;
  let %x_112: (Tensor[(1), float16], (float32, float32), float16, Tensor[(1), float16], Tensor[(1), int32], Tensor[(1), float16]) /* ty=(Tensor[(1), float16], (float32, float32), float16, Tensor[(1), float16], Tensor[(1), int32], Tensor[(1), float16]) span=GeneratedSource:27:284 */ = %x_101;
  let %x_121: (Tensor[(1), float16], (float32, float32), float16, Tensor[(1), float16], Tensor[(1), int32], Tensor[(1), float16]) /* ty=(Tensor[(1), float16], (float32, float32), float16, Tensor[(1), float16], Tensor[(1), int32], Tensor[(1), float16]) span=GeneratedSource:28:284 */ = %x_112;
  let %x_131: (Tensor[(1), float16], (float32, float32), float16, Tensor[(1), float16], Tensor[(1), int32], Tensor[(1), float16]) /* ty=(Tensor[(1), float16], (float32, float32), float16, Tensor[(1), float16], Tensor[(1), int32], Tensor[(1), float16]) span=GeneratedSource:29:284 */ = %x_121;
  let %x_141: (Tensor[(1), float16], (float32, float32), float16, Tensor[(1), float16], Tensor[(1), int32], Tensor[(1), float16]) /* ty=(Tensor[(1), float16], (float32, float32), float16, Tensor[(1), float16], Tensor[(1), int32], Tensor[(1), float16]) span=GeneratedSource:30:284 */ = %x_131;
  let %x_151: (Tensor[(1), float16], (float32, float32), float16, Tensor[(1), float16], Tensor[(1), int32], Tensor[(1), float16]) /* ty=(Tensor[(1), float16], (float32, float32), float16, Tensor[(1), float16], Tensor[(1), int32], Tensor[(1), float16]) span=GeneratedSource:31:284 */ = %x_141;
  let %x_161: (Tensor[(1), float16], (float32, float32), float16, Tensor[(1), float16], Tensor[(1), int32], Tensor[(1), float16]) /* ty=(Tensor[(1), float16], (float32, float32), float16, Tensor[(1), float16], Tensor[(1), int32], Tensor[(1), float16]) span=GeneratedSource:32:284 */ = %x_151;
  let %x_171: (Tensor[(1), float16], (float32, float32), float16, Tensor[(1), float16], Tensor[(1), int32], Tensor[(1), float16]) /* ty=(Tensor[(1), float16], (float32, float32), float16, Tensor[(1), float16], Tensor[(1), int32], Tensor[(1), float16]) span=GeneratedSource:33:284 */ = %x_161;
  let %x_181: (Tensor[(1), float16], (float32, float32), float16, Tensor[(1), float16], Tensor[(1), int32], Tensor[(1), float16]) /* ty=(Tensor[(1), float16], (float32, float32), float16, Tensor[(1), float16], Tensor[(1), int32], Tensor[(1), float16]) span=GeneratedSource:34:284 */ = %x_171;
  let %x_191: (Tensor[(1), float16], (float32, float32), float16, Tensor[(1), float16], Tensor[(1), int32], Tensor[(1), float16]) /* ty=(Tensor[(1), float16], (float32, float32), float16, Tensor[(1), float16], Tensor[(1), int32], Tensor[(1), float16]) span=GeneratedSource:35:283 */ = %x_181;
  let %x_20: (Tensor[(1), float16], (float32, float32), float16, Tensor[(1), float16], Tensor[(1), int32], Tensor[(1), float16]) /* ty=(Tensor[(1), float16], (float32, float32), float16, Tensor[(1), float16], Tensor[(1), int32], Tensor[(1), float16]) span=GeneratedSource:36:284 */ = %x_191;
  let %x_211: (Tensor[(1), float16], (float32, float32), float16, Tensor[(1), float16], Tensor[(1), int32], Tensor[(1), float16]) /* ty=(Tensor[(1), float16], (float32, float32), float16, Tensor[(1), float16], Tensor[(1), int32], Tensor[(1), float16]) span=GeneratedSource:37:283 */ = %x_20;
  let %x_22: (Tensor[(1), float16], (float32, float32), float16, Tensor[(1), float16], Tensor[(1), int32], Tensor[(1), float16]) /* ty=(Tensor[(1), float16], (float32, float32), float16, Tensor[(1), float16], Tensor[(1), int32], Tensor[(1), float16]) span=GeneratedSource:38:283 */ = %x_211;
  let %x_23: (Tensor[(1), float16], (float32, float32), float16, Tensor[(1), float16], Tensor[(1), int32], Tensor[(1), float16]) /* ty=(Tensor[(1), float16], (float32, float32), float16, Tensor[(1), float16], Tensor[(1), int32], Tensor[(1), float16]) span=GeneratedSource:39:281 */ = %x_22;
  let %x_24: (Tensor[(1), float16], (float32, float32), float16, Tensor[(1), float16], Tensor[(1), int32], Tensor[(1), float16]) /* ty=(Tensor[(1), float16], (float32, float32), float16, Tensor[(1), float16], Tensor[(1), int32], Tensor[(1), float16]) span=GeneratedSource:40:3 */ = %x_23;
  %x_24
}

#[metadata]
{
  "root": 1, 
  "nodes": [
    {
      "type_key": ""
    }, 
    {
      "type_key": "Map", 
      "keys": [
        "relay.Constant"
      ], 
      "data": [2]
    }, 
    {
      "type_key": "Array", 
      "data": [3]
    }, 
    {
      "type_key": "relay.Constant", 
      "attrs": {
        "_checked_type_": "8", 
        "data": "0", 
        "span": "6", 
        "virtual_device_": "4"
      }
    }, 
    {
      "type_key": "VirtualDevice", 
      "attrs": {
        "device_type_int": "-1", 
        "memory_scope": "5", 
        "target": "0", 
        "virtual_device_id": "-1"
      }
    }, 
    {
      "type_key": "runtime.String"
    }, 
    {
      "type_key": "Span", 
      "attrs": {
        "column": "316", 
        "end_column": "334", 
        "end_line": "17", 
        "line": "17", 
        "source_name": "7"
      }
    }, 
    {
      "type_key": "SourceName", 
      "repr_str": "GeneratedSource"
    }, 
    {
      "type_key": "relay.TensorType", 
      "attrs": {
        "dtype": "int32", 
        "shape": "9", 
        "span": "11"
      }
    }, 
    {
      "type_key": "Array", 
      "data": [10]
    }, 
    {
      "type_key": "IntImm", 
      "attrs": {
        "dtype": "int32", 
        "span": "0", 
        "value": "1"
      }
    }, 
    {
      "type_key": "Span", 
      "attrs": {
        "column": "221", 
        "end_column": "241", 
        "end_line": "2", 
        "line": "2", 
        "source_name": "7"
      }
    }
  ], 
  "b64ndarrays": [
    "P6G0lvBAXt0AAAAAAAAAAAEAAAAAAAAAAQAAAAAgAQABAAAAAAAAAAQAAAAAAAAAAQAAAA=="
  ], 
  "attrs": {"tvm_version": "0.13.0"}
}