#[version = "0.0.5"]
def @main(%x0: Tensor[(1), float32] /* ty=Tensor[(1), float32] span=from_string:3:134 */, %x1: float32 /* ty=float32 span=from_string:7:22 */) -> (Tensor[(1), float32], (float32, float32), float32, Tensor[(1), float32], Tensor[(1), int32], Tensor[(1), float32]) {
  %0 = fn (%p0: Tensor[(1), float32] /* ty=Tensor[(1), float32] */, Primitive=1) -> Tensor[(1), float32] {
    add(2f /* ty=float32 span=from_string:3:93 */, %p0) /* ty=Tensor[(1), float32] span=from_string:3:87 */
  } /* ty=fn (Tensor[(1), float32]) -> Tensor[(1), float32] */;
  let %x4: Tensor[(1), float32] /* ty=Tensor[(1), float32] span=from_string:9:96 */ = %0(%x0) /* ty=Tensor[(1), float32] */;
  %1 = fn (Primitive=1) -> Tensor[(1), float32] {
    ones(shape=[1], dtype="float32") /* ty=Tensor[(1), float32] span=from_string:9:4 */
  } /* ty=fn () -> Tensor[(1), float32] */;
  %3 = fn (%p01: float32 /* ty=float32 */, Primitive=1) -> float32 {
    %2 = subtract(2f /* ty=float32 span=from_string:4:19 */, %p01) /* ty=float32 span=from_string:7:18 */;
    multiply(%2, %p01) /* ty=float32 span=from_string:9:12 */
  } /* ty=fn (float32) -> float32 */;
  %4 = fn (Primitive=1) -> Tensor[(1), float32] {
    ones(shape=[1], dtype="float32") /* ty=Tensor[(1), float32] span=from_string:9:16 */
  } /* ty=fn () -> Tensor[(1), float32] */;
  %5 = %1() /* ty=Tensor[(1), float32] */;
  %6 = (2f /* ty=float32 span=from_string:6:11 */, 4f /* ty=float32 span=from_string:6:54 */) /* ty=(float32, float32) span=from_string:9:8 */;
  %7 = %3(%x1) /* ty=float32 */;
  %8 = %4() /* ty=Tensor[(1), float32] */;
  (%5, %6, %7, %8, meta[relay.Constant][0] /* ty=Tensor[(1), int32] span=from_string:9:25 */, %x4) /* ty=(Tensor[(1), float32], (float32, float32), float32, Tensor[(1), float32], Tensor[(1), int32], Tensor[(1), float32]) span=from_string:9:3 */
}

#[metadata]
{
  "root": 1, 
  "nodes": [
    {
      "type_key": ""
    }, 
    {
      "type_key": "Map", 
      "keys": [
        "relay.Constant"
      ], 
      "data": [2]
    }, 
    {
      "type_key": "Array", 
      "data": [3]
    }, 
    {
      "type_key": "relay.Constant", 
      "attrs": {
        "_checked_type_": "8", 
        "data": "0", 
        "span": "6", 
        "virtual_device_": "4"
      }
    }, 
    {
      "type_key": "VirtualDevice", 
      "attrs": {
        "device_type_int": "-1", 
        "memory_scope": "5", 
        "target": "0", 
        "virtual_device_id": "-1"
      }
    }, 
    {
      "type_key": "runtime.String"
    }, 
    {
      "type_key": "Span", 
      "attrs": {
        "column": "25", 
        "end_column": "43", 
        "end_line": "9", 
        "line": "9", 
        "source_name": "7"
      }
    }, 
    {
      "type_key": "SourceName", 
      "repr_str": "from_string"
    }, 
    {
      "type_key": "relay.TensorType", 
      "attrs": {
        "dtype": "int32", 
        "shape": "9", 
        "span": "11"
      }
    }, 
    {
      "type_key": "Array", 
      "data": [10]
    }, 
    {
      "type_key": "IntImm", 
      "attrs": {
        "dtype": "int32", 
        "span": "0", 
        "value": "1"
      }
    }, 
    {
      "type_key": "Span", 
      "attrs": {
        "column": "223", 
        "end_column": "243", 
        "end_line": "2", 
        "line": "2", 
        "source_name": "7"
      }
    }
  ], 
  "b64ndarrays": [
    "P6G0lvBAXt0AAAAAAAAAAAEAAAAAAAAAAQAAAAAgAQABAAAAAAAAAAQAAAAAAAAAAQAAAA=="
  ], 
  "attrs": {"tvm_version": "0.13.0"}
}