#[version = "0.0.5"]
def @main(%x0: Tensor[(4, 7), float32] /* ty=Tensor[(4, 7), float32] span=GeneratedSource:5:108 */, %x1: Tensor[(2, 7, 2), float32] /* ty=Tensor[(2, 7, 2), float32] span=GeneratedSource:14:125 */, %x2: Tensor[(14, 2), float32] /* ty=Tensor[(14, 2), float32] span=GeneratedSource:40:109 */, %x3: int32 /* ty=int32 span=GeneratedSource:21:111 */, %x4: int32 /* ty=int32 span=GeneratedSource:21:116 */, %x5: Tensor[(74, 7, 2), float32] /* ty=Tensor[(74, 7, 2), float32] span=GeneratedSource:32:172 */, %x6: Tensor[(16, 2), float32] /* ty=Tensor[(16, 2), float32] span=GeneratedSource:36:114 */, %x7: Tensor[(16), float32] /* ty=Tensor[(16), float32] span=GeneratedSource:37:111 */, %x8: Tensor[(1), float32] /* ty=Tensor[(1), float32] span=GeneratedSource:38:117 */, %x9: Tensor[(32, 2), float32] /* ty=Tensor[(32, 2), float32] span=GeneratedSource:40:114 */, %x10: Tensor[(32), float32] /* ty=Tensor[(32), float32] span=GeneratedSource:41:111 */, %x11: Tensor[(1), float32] /* ty=Tensor[(1), float32] span=GeneratedSource:42:117 */) -> (Tensor[(4, 7), float32], (Tensor[(2, 7, 2), float32], (Tensor[(2, 7, 2), float32],)), Tensor[(2, 7, 2), float32], Tensor[(6, 2), float32], Tensor[(2, 7, 2), float32], Tensor[(2, 7, 2), float32], Tensor[(76, 7, 2), float32], (Tensor[(1, 1, 224), float32], Tensor[(1, 1, 448), float32])) {
  let %x12: Tensor[(2, 7, 2), float32] /* ty=Tensor[(2, 7, 2), float32] span=GeneratedSource:17:169 */ = multiply(%x1, %x1) /* ty=Tensor[(2, 7, 2), float32] span=GeneratedSource:3:102 */;
  let %x13: Tensor[(2, 7, 2), float32] /* ty=Tensor[(2, 7, 2), float32] span=GeneratedSource:13:111 */ = ones_like(%x12) /* ty=Tensor[(2, 7, 2), float32] span=GeneratedSource:4:101 */;
  let %x_0: Tensor[(2, 7, 2), float32] /* ty=Tensor[(2, 7, 2), float32] span=GeneratedSource:6:102 */ = reshape(%x0, newshape=[2, 7, 2]) /* ty=Tensor[(2, 7, 2), float32] span=GeneratedSource:5:100 */;
  let %x_1: Tensor[(4, 7), float32] /* ty=Tensor[(4, 7), float32] span=GeneratedSource:7:108 */ = reshape(%x_0, newshape=[4, 7]) /* ty=Tensor[(4, 7), float32] span=GeneratedSource:6:94 */;
  let %x_2: Tensor[(2, 7, 2), float32] /* ty=Tensor[(2, 7, 2), float32] span=GeneratedSource:8:103 */ = reshape(%x_1, newshape=[2, 7, 2]) /* ty=Tensor[(2, 7, 2), float32] span=GeneratedSource:7:100 */;
  let %x_3: Tensor[(4, 7), float32] /* ty=Tensor[(4, 7), float32] span=GeneratedSource:45:623 */ = reshape(%x_2, newshape=[4, 7]) /* ty=Tensor[(4, 7), float32] span=GeneratedSource:8:95 */;
  let %x_4: Tensor[(2, 7, 2), float32] /* ty=Tensor[(2, 7, 2), float32] span=GeneratedSource:12:105 */ = zeros_like(%x1) /* ty=Tensor[(2, 7, 2), float32] span=GeneratedSource:9:101 */;
  let %x_5: Tensor[(2, 7, 2), float32] /* ty=Tensor[(2, 7, 2), float32] span=GeneratedSource:28:106 */ = multiply(%x13, %x1) /* ty=Tensor[(2, 7, 2), float32] span=GeneratedSource:10:102 */;
  let %x_6: Tensor[(2, 7, 2), float32] /* ty=Tensor[(2, 7, 2), float32] span=GeneratedSource:18:106 */ = collapse_sum_like(%x_5, %x1) /* ty=Tensor[(2, 7, 2), float32] span=GeneratedSource:11:101 */;
  let %x_7: Tensor[(2, 7, 2), float32] /* ty=Tensor[(2, 7, 2), float32] span=GeneratedSource:23:106 */ = add(%x_4, %x_6) /* ty=Tensor[(2, 7, 2), float32] span=GeneratedSource:12:101 */;
  let %x_8: Tensor[(2, 7, 2), float32] /* ty=Tensor[(2, 7, 2), float32] span=GeneratedSource:14:119 */ = multiply(%x13, %x1) /* ty=Tensor[(2, 7, 2), float32] span=GeneratedSource:13:102 */;
  let %x_9: Tensor[(2, 7, 2), float32] /* ty=Tensor[(2, 7, 2), float32] span=GeneratedSource:15:112 */ = collapse_sum_like(%x_8, %x1) /* ty=Tensor[(2, 7, 2), float32] span=GeneratedSource:14:101 */;
  let %x_10: Tensor[(2, 7, 2), float32] /* ty=Tensor[(2, 7, 2), float32] span=GeneratedSource:16:109 */ = add(%x_7, %x_9) /* ty=Tensor[(2, 7, 2), float32] span=GeneratedSource:15:102 */;
  let %x_11: (Tensor[(2, 7, 2), float32],) /* ty=(Tensor[(2, 7, 2), float32],) span=GeneratedSource:17:175 */ = (%x_10,) /* ty=(Tensor[(2, 7, 2), float32],) span=GeneratedSource:16:108 */;
  let %x_12: (Tensor[(2, 7, 2), float32], (Tensor[(2, 7, 2), float32],)) /* ty=(Tensor[(2, 7, 2), float32], (Tensor[(2, 7, 2), float32],)) span=GeneratedSource:45:629 */ = (%x12, %x_11) /* ty=(Tensor[(2, 7, 2), float32], (Tensor[(2, 7, 2), float32],)) span=GeneratedSource:17:168 */;
  let %x_13: Tensor[(14, 2), float32] /* ty=Tensor[(14, 2), float32] span=GeneratedSource:19:110 */ = reshape(%x_6, newshape=[14, 2]) /* ty=Tensor[(14, 2), float32] span=GeneratedSource:18:98 */;
  let %x_14: Tensor[(2, 7, 2), float32] /* ty=Tensor[(2, 7, 2), float32] span=GeneratedSource:45:636 */ = reshape(%x_13, newshape=[2, 7, 2]) /* ty=Tensor[(2, 7, 2), float32] span=GeneratedSource:19:102 */;
  let %x_15: Tensor[(2), int32] /* ty=Tensor[(2), int32] span=GeneratedSource:21:104 */ = meta[relay.Constant][0] /* ty=Tensor[(2), int32] span=GeneratedSource:20:93 */;
  let %x_16: Tensor[(6, 2), float32] /* ty=Tensor[(6, 2), float32] span=GeneratedSource:45:643 */ = one_hot(%x_15, %x3, %x4, depth=6, axis=0, dtype="float32") /* ty=Tensor[(6, 2), float32] span=GeneratedSource:21:96 */;
  let %x_17: float32 /* ty=float32 span=GeneratedSource:23:112 */ = 1f /* ty=float32 span=GeneratedSource:22:66 */;
  let %x_18: Tensor[(2, 7, 2), float32] /* ty=Tensor[(2, 7, 2), float32] span=GeneratedSource:24:125 */ = add(%x_7, %x_17) /* ty=Tensor[(2, 7, 2), float32] span=GeneratedSource:23:102 */;
  let %x_19: Tensor[(2, 7, 2), float32] /* ty=Tensor[(2, 7, 2), float32] span=GeneratedSource:32:165 */ = annotation.stop_fusion(%x_18) /* ty=Tensor[(2, 7, 2), float32] span=GeneratedSource:24:102 */;
  let %x_20: Tensor[(2, 7, 2), float32] /* ty=Tensor[(2, 7, 2), float32] span=GeneratedSource:26:119 */ = exp(%x_19) /* ty=Tensor[(2, 7, 2), float32] span=GeneratedSource:25:102 */;
  let %x_21: Tensor[(2, 7, 2), float32] /* ty=Tensor[(2, 7, 2), float32] span=GeneratedSource:45:650 */ = multiply(%x_20, %x_20) /* ty=Tensor[(2, 7, 2), float32] span=GeneratedSource:26:103 */;
  let %x_22: float32 /* ty=float32 span=GeneratedSource:28:112 */ = 1f /* ty=float32 span=GeneratedSource:27:66 */;
  let %x_23: Tensor[(2, 7, 2), float32] /* ty=Tensor[(2, 7, 2), float32] span=GeneratedSource:29:106 */ = add(%x_5, %x_22) /* ty=Tensor[(2, 7, 2), float32] span=GeneratedSource:28:102 */;
  let %x_24: Tensor[(2, 7, 2), float32] /* ty=Tensor[(2, 7, 2), float32] span=GeneratedSource:30:110 */ = exp(%x_23) /* ty=Tensor[(2, 7, 2), float32] span=GeneratedSource:29:102 */;
  let %x_25: Tensor[(2, 7, 2), float32] /* ty=Tensor[(2, 7, 2), float32] span=GeneratedSource:45:657 */ = squeeze(%x_24) /* ty=Tensor[(2, 7, 2), float32] span=GeneratedSource:30:102 */;
  let %x_26: float32 /* ty=float32 span=GeneratedSource:35:111 */ = 2f /* ty=float32 span=GeneratedSource:31:66 */;
  let %x_27: (Tensor[(2, 7, 2), float32], Tensor[(74, 7, 2), float32]) /* ty=(Tensor[(2, 7, 2), float32], Tensor[(74, 7, 2), float32]) span=GeneratedSource:33:116 */ = (%x_19, %x5) /* ty=(Tensor[(2, 7, 2), float32], Tensor[(74, 7, 2), float32]) span=GeneratedSource:32:164 */;
  let %x_28: Tensor[(76, 7, 2), float32] /* ty=Tensor[(76, 7, 2), float32] span=GeneratedSource:34:109 */ = concatenate(%x_27) /* ty=Tensor[(76, 7, 2), float32] span=GeneratedSource:33:104 */;
  let %x_29: Tensor[(76, 7, 2), float32] /* ty=Tensor[(76, 7, 2), float32] span=GeneratedSource:35:118 */ = sqrt(%x_28) /* ty=Tensor[(76, 7, 2), float32] span=GeneratedSource:34:104 */;
  let %x_30: Tensor[(76, 7, 2), float32] /* ty=Tensor[(76, 7, 2), float32] span=GeneratedSource:45:664 */ = divide(%x_26, %x_29) /* ty=Tensor[(76, 7, 2), float32] span=GeneratedSource:35:104 */;
  let %x_31: Tensor[(14, 16), float32] /* ty=Tensor[(14, 16), float32] span=GeneratedSource:37:104 */ = nn.dense(%x2, %x6, units=None) /* ty=Tensor[(14, 16), float32] span=GeneratedSource:36:100 */;
  let %x_32: Tensor[(14, 16), float32] /* ty=Tensor[(14, 16), float32] span=GeneratedSource:38:110 */ = add(%x_31, %x7) /* ty=Tensor[(14, 16), float32] span=GeneratedSource:37:100 */;
  let %x_33: Tensor[(14, 16), float32] /* ty=Tensor[(14, 16), float32] span=GeneratedSource:39:114 */ = multiply(%x_32, %x8) /* ty=Tensor[(14, 16), float32] span=GeneratedSource:38:101 */;
  let %x_34: Tensor[(1, 1, 224), float32] /* ty=Tensor[(1, 1, 224), float32] span=GeneratedSource:44:171 */ = reshape(%x_33, newshape=[1, 1, 224]) /* ty=Tensor[(1, 1, 224), float32] span=GeneratedSource:39:106 */;
  let %x_35: Tensor[(14, 32), float32] /* ty=Tensor[(14, 32), float32] span=GeneratedSource:41:104 */ = nn.dense(%x2, %x9, units=None) /* ty=Tensor[(14, 32), float32] span=GeneratedSource:40:100 */;
  let %x_36: Tensor[(14, 32), float32] /* ty=Tensor[(14, 32), float32] span=GeneratedSource:42:110 */ = add(%x_35, %x10) /* ty=Tensor[(14, 32), float32] span=GeneratedSource:41:100 */;
  let %x_37: Tensor[(14, 32), float32] /* ty=Tensor[(14, 32), float32] span=GeneratedSource:43:114 */ = multiply(%x_36, %x11) /* ty=Tensor[(14, 32), float32] span=GeneratedSource:42:101 */;
  let %x_38: Tensor[(1, 1, 448), float32] /* ty=Tensor[(1, 1, 448), float32] span=GeneratedSource:44:178 */ = reshape(%x_37, newshape=[1, 1, 448]) /* ty=Tensor[(1, 1, 448), float32] span=GeneratedSource:43:106 */;
  let %x_39: (Tensor[(1, 1, 224), float32], Tensor[(1, 1, 448), float32]) /* ty=(Tensor[(1, 1, 224), float32], Tensor[(1, 1, 448), float32]) span=GeneratedSource:45:671 */ = (%x_34, %x_38) /* ty=(Tensor[(1, 1, 224), float32], Tensor[(1, 1, 448), float32]) span=GeneratedSource:44:170 */;
  let %x_40: (Tensor[(4, 7), float32], (Tensor[(2, 7, 2), float32], (Tensor[(2, 7, 2), float32],)), Tensor[(2, 7, 2), float32], Tensor[(6, 2), float32], Tensor[(2, 7, 2), float32], Tensor[(2, 7, 2), float32], Tensor[(76, 7, 2), float32], (Tensor[(1, 1, 224), float32], Tensor[(1, 1, 448), float32])) /* ty=(Tensor[(4, 7), float32], (Tensor[(2, 7, 2), float32], (Tensor[(2, 7, 2), float32],)), Tensor[(2, 7, 2), float32], Tensor[(6, 2), float32], Tensor[(2, 7, 2), float32], Tensor[(2, 7, 2), float32], Tensor[(76, 7, 2), float32], (Tensor[(1, 1, 224), float32], Tensor[(1, 1, 448), float32])) span=GeneratedSource:46:622 */ = (%x_3, %x_12, %x_14, %x_16, %x_21, %x_25, %x_30, %x_39) /* ty=(Tensor[(4, 7), float32], (Tensor[(2, 7, 2), float32], (Tensor[(2, 7, 2), float32],)), Tensor[(2, 7, 2), float32], Tensor[(6, 2), float32], Tensor[(2, 7, 2), float32], Tensor[(2, 7, 2), float32], Tensor[(76, 7, 2), float32], (Tensor[(1, 1, 224), float32], Tensor[(1, 1, 448), float32])) span=GeneratedSource:45:622 */;
  let %x_41: (Tensor[(4, 7), float32], (Tensor[(2, 7, 2), float32], (Tensor[(2, 7, 2), float32],)), Tensor[(2, 7, 2), float32], Tensor[(6, 2), float32], Tensor[(2, 7, 2), float32], Tensor[(2, 7, 2), float32], Tensor[(76, 7, 2), float32], (Tensor[(1, 1, 224), float32], Tensor[(1, 1, 448), float32])) /* ty=(Tensor[(4, 7), float32], (Tensor[(2, 7, 2), float32], (Tensor[(2, 7, 2), float32],)), Tensor[(2, 7, 2), float32], Tensor[(6, 2), float32], Tensor[(2, 7, 2), float32], Tensor[(2, 7, 2), float32], Tensor[(76, 7, 2), float32], (Tensor[(1, 1, 224), float32], Tensor[(1, 1, 448), float32])) span=GeneratedSource:47:621 */ = %x_40;
  let %x_42: (Tensor[(4, 7), float32], (Tensor[(2, 7, 2), float32], (Tensor[(2, 7, 2), float32],)), Tensor[(2, 7, 2), float32], Tensor[(6, 2), float32], Tensor[(2, 7, 2), float32], Tensor[(2, 7, 2), float32], Tensor[(76, 7, 2), float32], (Tensor[(1, 1, 224), float32], Tensor[(1, 1, 448), float32])) /* ty=(Tensor[(4, 7), float32], (Tensor[(2, 7, 2), float32], (Tensor[(2, 7, 2), float32],)), Tensor[(2, 7, 2), float32], Tensor[(6, 2), float32], Tensor[(2, 7, 2), float32], Tensor[(2, 7, 2), float32], Tensor[(76, 7, 2), float32], (Tensor[(1, 1, 224), float32], Tensor[(1, 1, 448), float32])) span=GeneratedSource:48:3 */ = %x_41;
  %x_42
}

#[metadata]
{
  "root": 1, 
  "nodes": [
    {
      "type_key": ""
    }, 
    {
      "type_key": "Map", 
      "keys": [
        "relay.Constant"
      ], 
      "data": [2]
    }, 
    {
      "type_key": "Array", 
      "data": [3]
    }, 
    {
      "type_key": "relay.Constant", 
      "attrs": {
        "_checked_type_": "8", 
        "data": "0", 
        "span": "6", 
        "virtual_device_": "4"
      }
    }, 
    {
      "type_key": "VirtualDevice", 
      "attrs": {
        "device_type_int": "-1", 
        "memory_scope": "5", 
        "target": "0", 
        "virtual_device_id": "-1"
      }
    }, 
    {
      "type_key": "runtime.String"
    }, 
    {
      "type_key": "Span", 
      "attrs": {
        "column": "93", 
        "end_column": "111", 
        "end_line": "20", 
        "line": "20", 
        "source_name": "7"
      }
    }, 
    {
      "type_key": "SourceName", 
      "repr_str": "GeneratedSource"
    }, 
    {
      "type_key": "relay.TensorType", 
      "attrs": {
        "dtype": "int32", 
        "shape": "9", 
        "span": "0"
      }
    }, 
    {
      "type_key": "Array", 
      "data": [10]
    }, 
    {
      "type_key": "IntImm", 
      "attrs": {
        "dtype": "int32", 
        "span": "0", 
        "value": "2"
      }
    }
  ], 
  "b64ndarrays": [
    "P6G0lvBAXt0AAAAAAAAAAAEAAAAAAAAAAQAAAAAgAQACAAAAAAAAAAgAAAAAAAAABAAAAAcAAAA="
  ], 
  "attrs": {"tvm_version": "0.13.0"}
}