#[version = "0.0.5"]
def @main(%x0: Tensor[(10, 20), float32] /* ty=Tensor[(10, 20), float32] span=from_string:3:12 */, %x1: Tensor[(19, 20), float32] /* ty=Tensor[(19, 20), float32] span=from_string:12:17 */, %x2: Tensor[(10, 20), float32] /* ty=Tensor[(10, 20), float32] span=from_string:12:22 */, %x3: Tensor[(10), float32] /* ty=Tensor[(10), float32] span=from_string:13:17 */, %x4: Tensor[(10), float32] /* ty=Tensor[(10), float32] span=from_string:14:17 */, %x5: Tensor[(92, 20), float32] /* ty=Tensor[(92, 20), float32] span=from_string:18:23 */, %x6: Tensor[(59, 20), float32] /* ty=Tensor[(59, 20), float32] span=from_string:19:23 */, %x7: Tensor[(21, 10), float32] /* ty=Tensor[(21, 10), float32] span=from_string:22:23 */, %x8: Tensor[(21), float32] /* ty=Tensor[(21), float32] span=from_string:23:18 */, %x9: Tensor[(1), float32] /* ty=Tensor[(1), float32] span=from_string:24:24 */, %x10: Tensor[(42, 10), float32] /* ty=Tensor[(42, 10), float32] span=from_string:25:23 */, %x11: Tensor[(42), float32] /* ty=Tensor[(42), float32] span=from_string:26:18 */, %x12: Tensor[(1), float32] /* ty=Tensor[(1), float32] span=from_string:35:24 */, %x13: Tensor[(10, 59, 1), float32] /* ty=Tensor[(10, 59, 1), float32] */) -> (Tensor[(10, 20), float32], (Tensor[(19, 10), float32], Tensor[(19, 10), float32]), (Tensor[(10, 92, 1), float32], Tensor[(10, 59, 1), float32]), (Tensor[(1, 1, 399), float32], Tensor[(1, 1, 798), float32]), Tensor[(1), float32], int32) {
  %0 = add(%x0, 1f /* ty=float32 span=from_string:3:19 */);
  %1 = fast_exp(%0);
  %2 = squeeze(%1);
  %3 = add(%2, 1f /* ty=float32 span=from_string:6:18 */);
  %4 = fast_exp(%3);
  %5 = squeeze(%4);
  %6 = ones(shape=[1], dtype="float32");
  %7 = multiply(%6, %2);
  %8 = nn.dense(%x1, %7, units=None);
  %9 = nn.dense(%x1, %x2, units=None);
  %10 = add(%8, %x3);
  %11 = add(%9, %x4);
  %12 = add(%1, 1f /* ty=float32 span=from_string:15:19 */);
  %13 = fast_exp(%12);
  %14 = squeeze(%13);
  %15 = nn.dense(%14, %x5, units=None);
  %16 = nn.dense(%14, %x6, units=None);
  %17 = expand_dims(%15, axis=2);
  %18 = expand_dims(%16, axis=2);
  %19 = nn.dense(%10, %x7, units=None);
  %20 = add(%19, %x8);
  %21 = multiply(%20, %x9);
  %22 = nn.dense(%10, %x10, units=None);
  %23 = add(%22, %x11);
  %24 = multiply(%23, %x12);
  %25 = reshape(%21, newshape=[1, 1, 399]);
  %26 = reshape(%24, newshape=[1, 1, 798]);
  %27 = ones(shape=[1], dtype="float32");
  %28 = add(%5, %5);
  %29 = (%10, %11) /* ty=(Tensor[(19, 10), float32], Tensor[(19, 10), float32]) span=from_string:36:9 */;
  %30 = (%17, %18) /* ty=(Tensor[(10, 92, 1), float32], Tensor[(10, 59, 1), float32]) span=from_string:36:14 */;
  %31 = (%25, %26) /* ty=(Tensor[(1, 1, 399), float32], Tensor[(1, 1, 798), float32]) span=from_string:36:19 */;
  %32 = multiply(%27, %x12);
  (%28, %29, %30, %31, %32, 590 /* ty=int32 span=from_string:36:32 */) /* ty=(Tensor[(10, 20), float32], (Tensor[(19, 10), float32], Tensor[(19, 10), float32]), (Tensor[(10, 92, 1), float32], Tensor[(10, 59, 1), float32]), (Tensor[(1, 1, 399), float32], Tensor[(1, 1, 798), float32]), Tensor[(1), float32], int32) span=from_string:3:3 */
}
