#[version = "0.0.5"]
def @main(%x0: Tensor[(10, 20), float32] /* ty=Tensor[(10, 20), float32] span=from_string:3:13 */, %x1: Tensor[(19, 20), float32] /* ty=Tensor[(19, 20), float32] span=from_string:17:14 */, %x2: Tensor[(10, 20), float32] /* ty=Tensor[(10, 20), float32] span=from_string:21:14 */, %x3: Tensor[(10), float32] /* ty=Tensor[(10), float32] span=from_string:20:14 */, %x4: Tensor[(10), float32] /* ty=Tensor[(10), float32] span=from_string:23:14 */, %x5: Tensor[(92, 20), float32] /* ty=Tensor[(92, 20), float32] span=from_string:30:14 */, %x6: Tensor[(59, 20), float32] /* ty=Tensor[(59, 20), float32] span=from_string:32:14 */, %x7: Tensor[(21, 10), float32] /* ty=Tensor[(21, 10), float32] span=from_string:36:14 */, %x8: Tensor[(21), float32] /* ty=Tensor[(21), float32] span=from_string:38:14 */, %x9: Tensor[(1), float32] /* ty=Tensor[(1), float32] span=from_string:40:14 */, %x10: Tensor[(42, 10), float32] /* ty=Tensor[(42, 10), float32] span=from_string:42:14 */, %x11: Tensor[(42), float32] /* ty=Tensor[(42), float32] span=from_string:44:14 */, %x12: Tensor[(1), float32] /* ty=Tensor[(1), float32] span=from_string:54:24 */, %x13: Tensor[(10, 59, 1), float32] /* ty=Tensor[(10, 59, 1), float32] */) -> (Tensor[(10, 20), float32], (Tensor[(19, 10), float16], Tensor[(19, 10), float16]), (Tensor[(10, 92, 1), float16], Tensor[(10, 59, 1), float16]), (Tensor[(1, 1, 399), float16], Tensor[(1, 1, 798), float16]), Tensor[(1), float32], int32) {
  let %x_0 = cast(%x0, dtype="float16");
  let %x_1 = 1f /* ty=float32 span=from_string:4:15 */;
  let %x_2 = cast(%x_1, dtype="float16");
  let %x_3 = add(%x_0, %x_2);
  let %x_4 = cast(%x_3, dtype="float32");
  let %x_5 = exp(%x_4);
  let %x_6 = squeeze(%x_5);
  let %x_7 = 1f /* ty=float32 span=from_string:9:18 */;
  let %x_8 = add(%x_6, %x_7);
  let %x_9 = exp(%x_8);
  let %x_10 = squeeze(%x_9);
  let %x_11 = 2f /* ty=float32 span=from_string:50:25 */;
  let %x_12 = multiply(%x_10, %x_11);
  let %x_13 = cast(%x1, dtype="float16");
  let %x_14 = 1f /* ty=float32 span=from_string:12:15 */;
  let %x_15 = cast(%x_14, dtype="float16");
  let %x_16 = add(%x_0, %x_15);
  let %x_17 = cast(%x_16, dtype="float32");
  let %x_18 = exp(%x_17);
  let %x_19 = squeeze(%x_18);
  let %x_20 = cast(%x_19, dtype="float16");
  let %x_21 = nn.dense(%x_13, %x_20, units=None, out_dtype="float16");
  let %x_22 = cast(%x3, dtype="float16");
  let %x_23 = add(%x_21, %x_22);
  let %x_24 = cast(%x2, dtype="float16");
  let %x_25 = nn.dense(%x_13, %x_24, units=None, out_dtype="float16");
  let %x_26 = cast(%x4, dtype="float16");
  let %x_27 = add(%x_25, %x_26);
  let %x_28 = (%x_23, %x_27) /* ty=(Tensor[(19, 10), float16], Tensor[(19, 10), float16]) span=from_string:54:9 */;
  let %x_29 = 1f /* ty=float32 span=from_string:26:20 */;
  let %x_30 = add(%x_18, %x_29);
  let %x_31 = exp(%x_30);
  let %x_32 = squeeze(%x_31);
  let %x_33 = cast(%x_32, dtype="float16");
  let %x_34 = cast(%x5, dtype="float16");
  let %x_35 = nn.dense(%x_33, %x_34, units=None, out_dtype="float16");
  let %x_36 = expand_dims(%x_35, axis=2);
  let %x_37 = cast(%x6, dtype="float16");
  let %x_38 = nn.dense(%x_33, %x_37, units=None, out_dtype="float16");
  let %x_39 = expand_dims(%x_38, axis=2);
  let %x_40 = (%x_36, %x_39) /* ty=(Tensor[(10, 92, 1), float16], Tensor[(10, 59, 1), float16]) span=from_string:54:14 */;
  let %x_41 = cast(%x7, dtype="float16");
  let %x_42 = nn.dense(%x_23, %x_41, units=None, out_dtype="float16");
  let %x_43 = cast(%x8, dtype="float16");
  let %x_44 = add(%x_42, %x_43);
  let %x_45 = cast(%x9, dtype="float16");
  let %x_46 = multiply(%x_44, %x_45);
  let %x_47 = reshape(%x_46, newshape=[1, 1, 399]);
  let %x_48 = cast(%x10, dtype="float16");
  let %x_49 = nn.dense(%x_23, %x_48, units=None, out_dtype="float16");
  let %x_50 = cast(%x11, dtype="float16");
  let %x_51 = add(%x_49, %x_50);
  let %x_52 = cast(%x12, dtype="float16");
  let %x_53 = multiply(%x_51, %x_52);
  let %x_54 = reshape(%x_53, newshape=[1, 1, 798]);
  let %x_55 = (%x_47, %x_54) /* ty=(Tensor[(1, 1, 399), float16], Tensor[(1, 1, 798), float16]) span=from_string:54:19 */;
  let %x_56 = 590 /* ty=int32 span=from_string:54:33 */;
  let %x_57 = (%x_12, %x_28, %x_40, %x_55, %x12, %x_56) /* ty=(Tensor[(10, 20), float32], (Tensor[(19, 10), float16], Tensor[(19, 10), float16]), (Tensor[(10, 92, 1), float16], Tensor[(10, 59, 1), float16]), (Tensor[(1, 1, 399), float16], Tensor[(1, 1, 798), float16]), Tensor[(1), float32], int32) span=from_string:3:3 */;
  %x_57
}
