#[version = "0.0.5"]
def @main(%x0: Tensor[(10, 20), float32] /* ty=Tensor[(10, 20), float32] span=from_string:3:19 */, %x1: Tensor[(19, 20), float32] /* ty=Tensor[(19, 20), float32] span=from_string:16:20 */, %x2: Tensor[(10, 20), float32] /* ty=Tensor[(10, 20), float32] span=from_string:27:20 */, %x3: Tensor[(10), float32] /* ty=Tensor[(10), float32] span=from_string:25:20 */, %x4: Tensor[(10), float32] /* ty=Tensor[(10), float32] span=from_string:29:20 */, %x5: Tensor[(92, 20), float32] /* ty=Tensor[(92, 20), float32] span=from_string:37:20 */, %x6: Tensor[(59, 20), float32] /* ty=Tensor[(59, 20), float32] span=from_string:40:20 */, %x7: Tensor[(21, 10), float32] /* ty=Tensor[(21, 10), float32] span=from_string:44:20 */, %x8: Tensor[(21), float32] /* ty=Tensor[(21), float32] span=from_string:46:20 */, %x9: Tensor[(1), float32] /* ty=Tensor[(1), float32] span=from_string:48:20 */, %x10: Tensor[(42, 10), float32] /* ty=Tensor[(42, 10), float32] span=from_string:51:20 */, %x11: Tensor[(42), float32] /* ty=Tensor[(42), float32] span=from_string:53:20 */, %x12: Tensor[(1), float32] /* ty=Tensor[(1), float32] span=from_string:60:44 */, %x13: Tensor[(10, 59, 1), float32] /* ty=Tensor[(10, 59, 1), float32] */) -> (Tensor[(10, 20), float16], (Tensor[(19, 10), float16], Tensor[(19, 10), float16]), (Tensor[(10, 92, 1), float16], Tensor[(10, 59, 1), float16]), (Tensor[(1, 1, 399), float16], Tensor[(1, 1, 798), float16]), Tensor[(1), float32], int32) {
  %0 = cast(%x0, dtype="float16") /* ty=Tensor[(10, 20), float16] */;
  let %x_0: Tensor[(10, 20), float16] /* ty=Tensor[(10, 20), float16] span=from_string:19:19 */ = cast(%0, dtype="float16") /* ty=Tensor[(10, 20), float16] span=from_string:3:14 */;
  let %x_1: float32 /* ty=float32 span=from_string:5:19 */ = 1f /* ty=float32 span=from_string:4:16 */;
  %1 = cast(%x_1, dtype="float16") /* ty=float16 */;
  let %x_2: float16 /* ty=float16 span=from_string:6:24 */ = cast(%1, dtype="float16") /* ty=float16 span=from_string:5:14 */;
  let %x_3: Tensor[(10, 20), float16] /* ty=Tensor[(10, 20), float16] span=from_string:7:19 */ = add(%x_0, %x_2) /* ty=Tensor[(10, 20), float16] span=from_string:6:14 */;
  let %x_4: Tensor[(10, 20), float32] /* ty=Tensor[(10, 20), float32] span=from_string:8:18 */ = cast(%x_3, dtype="float32") /* ty=Tensor[(10, 20), float32] span=from_string:7:14 */;
  let %x_5: Tensor[(10, 20), float32] /* ty=Tensor[(10, 20), float32] span=from_string:9:22 */ = exp(%x_4) /* ty=Tensor[(10, 20), float32] span=from_string:8:14 */;
  %2 = cast(%x_5, dtype="float16") /* ty=Tensor[(10, 20), float16] */;
  let %x_6: Tensor[(10, 20), float16] /* ty=Tensor[(10, 20), float16] span=from_string:11:18 */ = squeeze(%2) /* ty=Tensor[(10, 20), float16] span=from_string:9:14 */;
  let %x_7: float32 /* ty=float32 span=from_string:11:24 */ = 1f /* ty=float32 span=from_string:10:16 */;
  %3 = cast(%x_7, dtype="float16") /* ty=float16 */;
  let %x_8: Tensor[(10, 20), float16] /* ty=Tensor[(10, 20), float16] span=from_string:12:18 */ = add(%x_6, %3) /* ty=Tensor[(10, 20), float16] span=from_string:11:14 */;
  %4 = cast(%x_8, dtype="float32") /* ty=Tensor[(10, 20), float32] */;
  let %x_9: Tensor[(10, 20), float32] /* ty=Tensor[(10, 20), float32] span=from_string:13:23 */ = exp(%4) /* ty=Tensor[(10, 20), float32] span=from_string:12:14 */;
  %5 = cast(%x_9, dtype="float16") /* ty=Tensor[(10, 20), float16] */;
  let %x_10: Tensor[(10, 20), float16] /* ty=Tensor[(10, 20), float16] span=from_string:15:25 */ = squeeze(%5) /* ty=Tensor[(10, 20), float16] span=from_string:13:15 */;
  let %x_11: float32 /* ty=float32 span=from_string:15:32 */ = 2f /* ty=float32 span=from_string:14:17 */;
  %6 = cast(%x_11, dtype="float16") /* ty=float16 */;
  let %x_12: Tensor[(10, 20), float16] /* ty=Tensor[(10, 20), float16] span=from_string:60:16 */ = multiply(%x_10, %6) /* ty=Tensor[(10, 20), float16] span=from_string:15:16 */;
  %7 = cast(%x1, dtype="float16") /* ty=Tensor[(19, 20), float16] */;
  let %x_13: Tensor[(19, 20), float16] /* ty=Tensor[(19, 20), float16] span=from_string:28:24 */ = cast(%7, dtype="float16") /* ty=Tensor[(19, 20), float16] span=from_string:16:15 */;
  let %x_14: float32 /* ty=float32 span=from_string:18:20 */ = 1f /* ty=float32 span=from_string:17:17 */;
  %8 = cast(%x_14, dtype="float16") /* ty=float16 */;
  let %x_15: float16 /* ty=float16 span=from_string:19:25 */ = cast(%8, dtype="float16") /* ty=float16 span=from_string:18:15 */;
  let %x_16: Tensor[(10, 20), float16] /* ty=Tensor[(10, 20), float16] span=from_string:20:20 */ = add(%x_0, %x_15) /* ty=Tensor[(10, 20), float16] span=from_string:19:15 */;
  let %x_17: Tensor[(10, 20), float32] /* ty=Tensor[(10, 20), float32] span=from_string:21:19 */ = cast(%x_16, dtype="float32") /* ty=Tensor[(10, 20), float32] span=from_string:20:15 */;
  let %x_18: Tensor[(10, 20), float32] /* ty=Tensor[(10, 20), float32] span=from_string:33:19 */ = exp(%x_17) /* ty=Tensor[(10, 20), float32] span=from_string:21:15 */;
  %9 = cast(%x_18, dtype="float16") /* ty=Tensor[(10, 20), float16] */;
  let %x_19: Tensor[(10, 20), float16] /* ty=Tensor[(10, 20), float16] span=from_string:23:20 */ = squeeze(%9) /* ty=Tensor[(10, 20), float16] span=from_string:22:15 */;
  let %x_20: Tensor[(10, 20), float16] /* ty=Tensor[(10, 20), float16] span=from_string:24:31 */ = cast(%x_19, dtype="float16") /* ty=Tensor[(10, 20), float16] span=from_string:23:15 */;
  let %x_21: Tensor[(19, 10), float16] /* ty=Tensor[(19, 10), float16] span=from_string:26:19 */ = nn.dense(%x_13, %x_20, units=None, out_dtype="float16") /* ty=Tensor[(19, 10), float16] span=from_string:24:15 */;
  %10 = cast(%x3, dtype="float16") /* ty=Tensor[(10), float16] */;
  let %x_22: Tensor[(10), float16] /* ty=Tensor[(10), float16] span=from_string:26:26 */ = cast(%10, dtype="float16") /* ty=Tensor[(10), float16] span=from_string:25:15 */;
  let %x_23: Tensor[(19, 10), float16] /* ty=Tensor[(19, 10), float16] span=from_string:52:24 */ = add(%x_21, %x_22) /* ty=Tensor[(19, 10), float16] span=from_string:26:15 */;
  %11 = cast(%x2, dtype="float16") /* ty=Tensor[(10, 20), float16] */;
  let %x_24: Tensor[(10, 20), float16] /* ty=Tensor[(10, 20), float16] span=from_string:28:31 */ = cast(%11, dtype="float16") /* ty=Tensor[(10, 20), float16] span=from_string:27:15 */;
  let %x_25: Tensor[(19, 10), float16] /* ty=Tensor[(19, 10), float16] span=from_string:30:19 */ = nn.dense(%x_13, %x_24, units=None, out_dtype="float16") /* ty=Tensor[(19, 10), float16] span=from_string:28:15 */;
  %12 = cast(%x4, dtype="float16") /* ty=Tensor[(10), float16] */;
  let %x_26: Tensor[(10), float16] /* ty=Tensor[(10), float16] span=from_string:30:26 */ = cast(%12, dtype="float16") /* ty=Tensor[(10), float16] span=from_string:29:15 */;
  let %x_27: Tensor[(19, 10), float16] /* ty=Tensor[(19, 10), float16] span=from_string:31:23 */ = add(%x_25, %x_26) /* ty=Tensor[(19, 10), float16] span=from_string:30:15 */;
  let %x_28: (Tensor[(19, 10), float16], Tensor[(19, 10), float16]) /* ty=(Tensor[(19, 10), float16], Tensor[(19, 10), float16]) span=from_string:60:23 */ = (%x_23, %x_27) /* ty=(Tensor[(19, 10), float16], Tensor[(19, 10), float16]) span=from_string:31:15 */;
  let %x_29: float32 /* ty=float32 span=from_string:33:26 */ = 1f /* ty=float32 span=from_string:32:17 */;
  %13 = cast(%x_29, dtype="float16") /* ty=float16 */;
  let %x_30: Tensor[(10, 20), float16] /* ty=Tensor[(10, 20), float16] span=from_string:34:19 */ = add(%9, %13) /* ty=Tensor[(10, 20), float16] span=from_string:33:15 */;
  %14 = cast(%x_30, dtype="float32") /* ty=Tensor[(10, 20), float32] */;
  let %x_31: Tensor[(10, 20), float32] /* ty=Tensor[(10, 20), float32] span=from_string:35:23 */ = exp(%14) /* ty=Tensor[(10, 20), float32] span=from_string:34:15 */;
  %15 = cast(%x_31, dtype="float16") /* ty=Tensor[(10, 20), float16] */;
  let %x_32: Tensor[(10, 20), float16] /* ty=Tensor[(10, 20), float16] span=from_string:36:20 */ = squeeze(%15) /* ty=Tensor[(10, 20), float16] span=from_string:35:15 */;
  let %x_33: Tensor[(10, 20), float16] /* ty=Tensor[(10, 20), float16] span=from_string:41:24 */ = cast(%x_32, dtype="float16") /* ty=Tensor[(10, 20), float16] span=from_string:36:15 */;
  %16 = cast(%x5, dtype="float16") /* ty=Tensor[(92, 20), float16] */;
  let %x_34: Tensor[(92, 20), float16] /* ty=Tensor[(92, 20), float16] span=from_string:38:31 */ = cast(%16, dtype="float16") /* ty=Tensor[(92, 20), float16] span=from_string:37:15 */;
  let %x_35: Tensor[(10, 92), float16] /* ty=Tensor[(10, 92), float16] span=from_string:39:27 */ = nn.dense(%x_33, %x_34, units=None, out_dtype="float16") /* ty=Tensor[(10, 92), float16] span=from_string:38:15 */;
  let %x_36: Tensor[(10, 92, 1), float16] /* ty=Tensor[(10, 92, 1), float16] span=from_string:43:16 */ = expand_dims(%x_35, axis=2) /* ty=Tensor[(10, 92, 1), float16] span=from_string:39:15 */;
  %17 = cast(%x6, dtype="float16") /* ty=Tensor[(59, 20), float16] */;
  let %x_37: Tensor[(59, 20), float16] /* ty=Tensor[(59, 20), float16] span=from_string:41:31 */ = cast(%17, dtype="float16") /* ty=Tensor[(59, 20), float16] span=from_string:40:15 */;
  let %x_38: Tensor[(10, 59), float16] /* ty=Tensor[(10, 59), float16] span=from_string:42:27 */ = nn.dense(%x_33, %x_37, units=None, out_dtype="float16") /* ty=Tensor[(10, 59), float16] span=from_string:41:15 */;
  let %x_39: Tensor[(10, 59, 1), float16] /* ty=Tensor[(10, 59, 1), float16] span=from_string:43:23 */ = expand_dims(%x_38, axis=2) /* ty=Tensor[(10, 59, 1), float16] span=from_string:42:15 */;
  let %x_40: (Tensor[(10, 92, 1), float16], Tensor[(10, 59, 1), float16]) /* ty=(Tensor[(10, 92, 1), float16], Tensor[(10, 59, 1), float16]) span=from_string:60:30 */ = (%x_36, %x_39) /* ty=(Tensor[(10, 92, 1), float16], Tensor[(10, 59, 1), float16]) span=from_string:43:15 */;
  %18 = cast(%x7, dtype="float16") /* ty=Tensor[(21, 10), float16] */;
  let %x_41: Tensor[(21, 10), float16] /* ty=Tensor[(21, 10), float16] span=from_string:45:31 */ = cast(%18, dtype="float16") /* ty=Tensor[(21, 10), float16] span=from_string:44:15 */;
  let %x_42: Tensor[(19, 21), float16] /* ty=Tensor[(19, 21), float16] span=from_string:47:19 */ = nn.dense(%x_23, %x_41, units=None, out_dtype="float16") /* ty=Tensor[(19, 21), float16] span=from_string:45:15 */;
  %19 = cast(%x8, dtype="float16") /* ty=Tensor[(21), float16] */;
  let %x_43: Tensor[(21), float16] /* ty=Tensor[(21), float16] span=from_string:47:26 */ = cast(%19, dtype="float16") /* ty=Tensor[(21), float16] span=from_string:46:15 */;
  let %x_44: Tensor[(19, 21), float16] /* ty=Tensor[(19, 21), float16] span=from_string:49:25 */ = add(%x_42, %x_43) /* ty=Tensor[(19, 21), float16] span=from_string:47:15 */;
  %20 = cast(%x9, dtype="float16") /* ty=Tensor[(1), float16] */;
  let %x_45: Tensor[(1), float16] /* ty=Tensor[(1), float16] span=from_string:49:32 */ = cast(%20, dtype="float16") /* ty=Tensor[(1), float16] span=from_string:48:15 */;
  let %x_46: Tensor[(19, 21), float16] /* ty=Tensor[(19, 21), float16] span=from_string:50:23 */ = multiply(%x_44, %x_45) /* ty=Tensor[(19, 21), float16] span=from_string:49:16 */;
  let %x_47: Tensor[(1, 1, 399), float16] /* ty=Tensor[(1, 1, 399), float16] span=from_string:58:16 */ = reshape(%x_46, newshape=[1, 1, 399]) /* ty=Tensor[(1, 1, 399), float16] span=from_string:50:15 */;
  %21 = cast(%x10, dtype="float16") /* ty=Tensor[(42, 10), float16] */;
  let %x_48: Tensor[(42, 10), float16] /* ty=Tensor[(42, 10), float16] span=from_string:52:31 */ = cast(%21, dtype="float16") /* ty=Tensor[(42, 10), float16] span=from_string:51:15 */;
  let %x_49: Tensor[(19, 42), float16] /* ty=Tensor[(19, 42), float16] span=from_string:54:19 */ = nn.dense(%x_23, %x_48, units=None, out_dtype="float16") /* ty=Tensor[(19, 42), float16] span=from_string:52:15 */;
  %22 = cast(%x11, dtype="float16") /* ty=Tensor[(42), float16] */;
  let %x_50: Tensor[(42), float16] /* ty=Tensor[(42), float16] span=from_string:54:26 */ = cast(%22, dtype="float16") /* ty=Tensor[(42), float16] span=from_string:53:15 */;
  let %x_51: Tensor[(19, 42), float16] /* ty=Tensor[(19, 42), float16] span=from_string:56:25 */ = add(%x_49, %x_50) /* ty=Tensor[(19, 42), float16] span=from_string:54:15 */;
  %23 = cast(%x12, dtype="float16") /* ty=Tensor[(1), float16] */;
  let %x_52: Tensor[(1), float16] /* ty=Tensor[(1), float16] span=from_string:56:32 */ = cast(%23, dtype="float16") /* ty=Tensor[(1), float16] span=from_string:55:15 */;
  let %x_53: Tensor[(19, 42), float16] /* ty=Tensor[(19, 42), float16] span=from_string:57:23 */ = multiply(%x_51, %x_52) /* ty=Tensor[(19, 42), float16] span=from_string:56:16 */;
  let %x_54: Tensor[(1, 1, 798), float16] /* ty=Tensor[(1, 1, 798), float16] span=from_string:58:23 */ = reshape(%x_53, newshape=[1, 1, 798]) /* ty=Tensor[(1, 1, 798), float16] span=from_string:57:15 */;
  let %x_55: (Tensor[(1, 1, 399), float16], Tensor[(1, 1, 798), float16]) /* ty=(Tensor[(1, 1, 399), float16], Tensor[(1, 1, 798), float16]) span=from_string:60:37 */ = (%x_47, %x_54) /* ty=(Tensor[(1, 1, 399), float16], Tensor[(1, 1, 798), float16]) span=from_string:58:15 */;
  let %x_56: int32 /* ty=int32 span=from_string:60:50 */ = 590 /* ty=int32 span=from_string:59:18 */;
  let %x_57: (Tensor[(10, 20), float16], (Tensor[(19, 10), float16], Tensor[(19, 10), float16]), (Tensor[(10, 92, 1), float16], Tensor[(10, 59, 1), float16]), (Tensor[(1, 1, 399), float16], Tensor[(1, 1, 798), float16]), Tensor[(1), float32], int32) /* ty=(Tensor[(10, 20), float16], (Tensor[(19, 10), float16], Tensor[(19, 10), float16]), (Tensor[(10, 92, 1), float16], Tensor[(10, 59, 1), float16]), (Tensor[(1, 1, 399), float16], Tensor[(1, 1, 798), float16]), Tensor[(1), float32], int32) span=from_string:61:3 */ = (%x_12, %x_28, %x_40, %x_55, %x12, %x_56) /* ty=(Tensor[(10, 20), float16], (Tensor[(19, 10), float16], Tensor[(19, 10), float16]), (Tensor[(10, 92, 1), float16], Tensor[(10, 59, 1), float16]), (Tensor[(1, 1, 399), float16], Tensor[(1, 1, 798), float16]), Tensor[(1), float32], int32) span=from_string:60:15 */;
  %x_57
}
