#[version = "0.0.5"]
def @main(%x0: Tensor[(10, 20), float32] /* ty=Tensor[(10, 20), float32] span=from_string:3:13 */, %x1: Tensor[(19, 20), float32] /* ty=Tensor[(19, 20), float32] span=from_string:23:13 */, %x2: Tensor[(10, 20), float32] /* ty=Tensor[(10, 20), float32] span=from_string:38:14 */, %x3: Tensor[(10), float32] /* ty=Tensor[(10), float32] span=from_string:35:14 */, %x4: Tensor[(10), float32] /* ty=Tensor[(10), float32] span=from_string:41:14 */, %x5: Tensor[(92, 20), float32] /* ty=Tensor[(92, 20), float32] span=from_string:53:14 */, %x6: Tensor[(59, 20), float32] /* ty=Tensor[(59, 20), float32] span=from_string:57:14 */, %x7: Tensor[(21, 10), float32] /* ty=Tensor[(21, 10), float32] span=from_string:62:14 */, %x8: Tensor[(21), float32] /* ty=Tensor[(21), float32] span=from_string:65:14 */, %x9: Tensor[(1), float32] /* ty=Tensor[(1), float32] span=from_string:68:14 */, %x10: Tensor[(42, 10), float32] /* ty=Tensor[(42, 10), float32] span=from_string:72:14 */, %x11: Tensor[(42), float32] /* ty=Tensor[(42), float32] span=from_string:75:14 */, %x12: Tensor[(1), float32] /* ty=Tensor[(1), float32] span=from_string:84:552 */, %x13: Tensor[(10, 59, 1), float32] /* ty=Tensor[(10, 59, 1), float32] */) -> (Tensor[(10, 20), float16], (Tensor[(19, 10), float16], Tensor[(19, 10), float16]), (Tensor[(10, 92, 1), float16], Tensor[(10, 59, 1), float16]), (Tensor[(1, 1, 399), float16], Tensor[(1, 1, 798), float16]), Tensor[(1), float32], int32) {
  %0 = cast(%x0, dtype="float16") /* ty=Tensor[(10, 20), float16] span=from_string:4:104 */;
  let %x_0: Tensor[(10, 20), float16] /* ty=Tensor[(10, 20), float16] span=from_string:28:104 */ = cast(%0, dtype="float16") /* ty=Tensor[(10, 20), float16] span=from_string:4:99 */;
  let %x_1: float32 /* ty=float32 span=from_string:6:13 */ = 1f /* ty=float32 span=from_string:5:64 */;
  %1 = cast(%x_1, dtype="float16") /* ty=float16 span=from_string:7:67 */;
  let %x_2: float16 /* ty=float16 span=from_string:8:108 */ = cast(%1, dtype="float16") /* ty=float16 span=from_string:7:62 */;
  let %x_3: Tensor[(10, 20), float16] /* ty=Tensor[(10, 20), float16] span=from_string:9:103 */ = add(%x_0, %x_2) /* ty=Tensor[(10, 20), float16] span=from_string:8:98 */;
  let %x_4: Tensor[(10, 20), float32] /* ty=Tensor[(10, 20), float32] span=from_string:10:102 */ = cast(%x_3, dtype="float32") /* ty=Tensor[(10, 20), float32] span=from_string:9:98 */;
  let %x_5: Tensor[(10, 20), float32] /* ty=Tensor[(10, 20), float32] span=from_string:11:13 */ = exp(%x_4) /* ty=Tensor[(10, 20), float32] span=from_string:10:98 */;
  %2 = cast(%x_5, dtype="float16") /* ty=Tensor[(10, 20), float16] span=from_string:12:107 */;
  let %x_6: Tensor[(10, 20), float16] /* ty=Tensor[(10, 20), float16] span=from_string:15:103 */ = squeeze(%2) /* ty=Tensor[(10, 20), float16] span=from_string:12:99 */;
  let %x_7: float32 /* ty=float32 span=from_string:14:13 */ = 1f /* ty=float32 span=from_string:13:65 */;
  %3 = cast(%x_7, dtype="float16") /* ty=float16 span=from_string:15:109 */;
  let %x_8: Tensor[(10, 20), float16] /* ty=Tensor[(10, 20), float16] span=from_string:16:13 */ = add(%x_6, %3) /* ty=Tensor[(10, 20), float16] span=from_string:15:99 */;
  %4 = cast(%x_8, dtype="float32") /* ty=Tensor[(10, 20), float32] span=from_string:17:103 */;
  let %x_9: Tensor[(10, 20), float32] /* ty=Tensor[(10, 20), float32] span=from_string:18:13 */ = exp(%4) /* ty=Tensor[(10, 20), float32] span=from_string:17:99 */;
  %5 = cast(%x_9, dtype="float16") /* ty=Tensor[(10, 20), float16] span=from_string:19:108 */;
  let %x_10: Tensor[(10, 20), float16] /* ty=Tensor[(10, 20), float16] span=from_string:22:110 */ = squeeze(%5) /* ty=Tensor[(10, 20), float16] span=from_string:19:100 */;
  let %x_11: float32 /* ty=float32 span=from_string:21:13 */ = 2f /* ty=float32 span=from_string:20:66 */;
  %6 = cast(%x_11, dtype="float16") /* ty=float16 span=from_string:22:117 */;
  let %x_12: Tensor[(10, 20), float16] /* ty=Tensor[(10, 20), float16] span=from_string:84:524 */ = multiply(%x_10, %6) /* ty=Tensor[(10, 20), float16] span=from_string:22:101 */;
  %7 = cast(%x1, dtype="float16") /* ty=Tensor[(19, 20), float16] span=from_string:24:105 */;
  let %x_13: Tensor[(19, 20), float16] /* ty=Tensor[(19, 20), float16] span=from_string:40:109 */ = cast(%7, dtype="float16") /* ty=Tensor[(19, 20), float16] span=from_string:24:100 */;
  let %x_14: float32 /* ty=float32 span=from_string:26:13 */ = 1f /* ty=float32 span=from_string:25:66 */;
  %8 = cast(%x_14, dtype="float16") /* ty=float16 span=from_string:27:69 */;
  let %x_15: float16 /* ty=float16 span=from_string:28:110 */ = cast(%8, dtype="float16") /* ty=float16 span=from_string:27:64 */;
  let %x_16: Tensor[(10, 20), float16] /* ty=Tensor[(10, 20), float16] span=from_string:29:105 */ = add(%x_0, %x_15) /* ty=Tensor[(10, 20), float16] span=from_string:28:100 */;
  let %x_17: Tensor[(10, 20), float32] /* ty=Tensor[(10, 20), float32] span=from_string:30:104 */ = cast(%x_16, dtype="float32") /* ty=Tensor[(10, 20), float32] span=from_string:29:100 */;
  let %x_18: Tensor[(10, 20), float32] /* ty=Tensor[(10, 20), float32] span=from_string:31:13 */ = exp(%x_17) /* ty=Tensor[(10, 20), float32] span=from_string:30:100 */;
  %9 = cast(%x_18, dtype="float16") /* ty=Tensor[(10, 20), float16] span=from_string:47:104 */;
  let %x_19: Tensor[(10, 20), float16] /* ty=Tensor[(10, 20), float16] span=from_string:33:105 */ = squeeze(%9) /* ty=Tensor[(10, 20), float16] span=from_string:32:100 */;
  let %x_20: Tensor[(10, 20), float16] /* ty=Tensor[(10, 20), float16] span=from_string:34:116 */ = cast(%x_19, dtype="float16") /* ty=Tensor[(10, 20), float16] span=from_string:33:100 */;
  let %x_21: Tensor[(19, 10), float16] /* ty=Tensor[(19, 10), float16] span=from_string:37:104 */ = nn.dense(%x_13, %x_20, units=None, out_dtype="float16") /* ty=Tensor[(19, 10), float16] span=from_string:34:100 */;
  %10 = cast(%x3, dtype="float16") /* ty=Tensor[(10), float16] span=from_string:36:97 */;
  let %x_22: Tensor[(10), float16] /* ty=Tensor[(10), float16] span=from_string:37:111 */ = cast(%10, dtype="float16") /* ty=Tensor[(10), float16] span=from_string:36:92 */;
  let %x_23: Tensor[(19, 10), float16] /* ty=Tensor[(19, 10), float16] span=from_string:74:109 */ = add(%x_21, %x_22) /* ty=Tensor[(19, 10), float16] span=from_string:37:100 */;
  %11 = cast(%x2, dtype="float16") /* ty=Tensor[(10, 20), float16] span=from_string:39:105 */;
  let %x_24: Tensor[(10, 20), float16] /* ty=Tensor[(10, 20), float16] span=from_string:40:116 */ = cast(%11, dtype="float16") /* ty=Tensor[(10, 20), float16] span=from_string:39:100 */;
  let %x_25: Tensor[(19, 10), float16] /* ty=Tensor[(19, 10), float16] span=from_string:43:104 */ = nn.dense(%x_13, %x_24, units=None, out_dtype="float16") /* ty=Tensor[(19, 10), float16] span=from_string:40:100 */;
  %12 = cast(%x4, dtype="float16") /* ty=Tensor[(10), float16] span=from_string:42:97 */;
  let %x_26: Tensor[(10), float16] /* ty=Tensor[(10), float16] span=from_string:43:111 */ = cast(%12, dtype="float16") /* ty=Tensor[(10), float16] span=from_string:42:92 */;
  let %x_27: Tensor[(19, 10), float16] /* ty=Tensor[(19, 10), float16] span=from_string:44:166 */ = add(%x_25, %x_26) /* ty=Tensor[(19, 10), float16] span=from_string:43:100 */;
  let %x_28: (Tensor[(19, 10), float16], Tensor[(19, 10), float16]) /* ty=(Tensor[(19, 10), float16], Tensor[(19, 10), float16]) span=from_string:84:531 */ = (%x_23, %x_27) /* ty=(Tensor[(19, 10), float16], Tensor[(19, 10), float16]) span=from_string:44:158 */;
  let %x_29: float32 /* ty=float32 span=from_string:46:14 */ = 1f /* ty=float32 span=from_string:45:66 */;
  %13 = cast(%x_29, dtype="float16") /* ty=float16 span=from_string:47:108 */;
  let %x_30: Tensor[(10, 20), float16] /* ty=Tensor[(10, 20), float16] span=from_string:48:14 */ = add(%9, %13) /* ty=Tensor[(10, 20), float16] span=from_string:47:100 */;
  %14 = cast(%x_30, dtype="float32") /* ty=Tensor[(10, 20), float32] span=from_string:49:104 */;
  let %x_31: Tensor[(10, 20), float32] /* ty=Tensor[(10, 20), float32] span=from_string:50:14 */ = exp(%14) /* ty=Tensor[(10, 20), float32] span=from_string:49:100 */;
  %15 = cast(%x_31, dtype="float16") /* ty=Tensor[(10, 20), float16] span=from_string:51:108 */;
  let %x_32: Tensor[(10, 20), float16] /* ty=Tensor[(10, 20), float16] span=from_string:52:105 */ = squeeze(%15) /* ty=Tensor[(10, 20), float16] span=from_string:51:100 */;
  let %x_33: Tensor[(10, 20), float16] /* ty=Tensor[(10, 20), float16] span=from_string:59:109 */ = cast(%x_32, dtype="float16") /* ty=Tensor[(10, 20), float16] span=from_string:52:100 */;
  %16 = cast(%x5, dtype="float16") /* ty=Tensor[(92, 20), float16] span=from_string:54:105 */;
  let %x_34: Tensor[(92, 20), float16] /* ty=Tensor[(92, 20), float16] span=from_string:55:116 */ = cast(%16, dtype="float16") /* ty=Tensor[(92, 20), float16] span=from_string:54:100 */;
  let %x_35: Tensor[(10, 92), float16] /* ty=Tensor[(10, 92), float16] span=from_string:56:118 */ = nn.dense(%x_33, %x_34, units=None, out_dtype="float16") /* ty=Tensor[(10, 92), float16] span=from_string:55:100 */;
  let %x_36: Tensor[(10, 92, 1), float16] /* ty=Tensor[(10, 92, 1), float16] span=from_string:61:171 */ = expand_dims(%x_35, axis=2) /* ty=Tensor[(10, 92, 1), float16] span=from_string:56:106 */;
  %17 = cast(%x6, dtype="float16") /* ty=Tensor[(59, 20), float16] span=from_string:58:105 */;
  let %x_37: Tensor[(59, 20), float16] /* ty=Tensor[(59, 20), float16] span=from_string:59:116 */ = cast(%17, dtype="float16") /* ty=Tensor[(59, 20), float16] span=from_string:58:100 */;
  let %x_38: Tensor[(10, 59), float16] /* ty=Tensor[(10, 59), float16] span=from_string:60:118 */ = nn.dense(%x_33, %x_37, units=None, out_dtype="float16") /* ty=Tensor[(10, 59), float16] span=from_string:59:100 */;
  let %x_39: Tensor[(10, 59, 1), float16] /* ty=Tensor[(10, 59, 1), float16] span=from_string:61:178 */ = expand_dims(%x_38, axis=2) /* ty=Tensor[(10, 59, 1), float16] span=from_string:60:106 */;
  let %x_40: (Tensor[(10, 92, 1), float16], Tensor[(10, 59, 1), float16]) /* ty=(Tensor[(10, 92, 1), float16], Tensor[(10, 59, 1), float16]) span=from_string:84:538 */ = (%x_36, %x_39) /* ty=(Tensor[(10, 92, 1), float16], Tensor[(10, 59, 1), float16]) span=from_string:61:170 */;
  %18 = cast(%x7, dtype="float16") /* ty=Tensor[(21, 10), float16] span=from_string:63:105 */;
  let %x_41: Tensor[(21, 10), float16] /* ty=Tensor[(21, 10), float16] span=from_string:64:116 */ = cast(%18, dtype="float16") /* ty=Tensor[(21, 10), float16] span=from_string:63:100 */;
  let %x_42: Tensor[(19, 21), float16] /* ty=Tensor[(19, 21), float16] span=from_string:67:104 */ = nn.dense(%x_23, %x_41, units=None, out_dtype="float16") /* ty=Tensor[(19, 21), float16] span=from_string:64:100 */;
  %19 = cast(%x8, dtype="float16") /* ty=Tensor[(21), float16] span=from_string:66:97 */;
  let %x_43: Tensor[(21), float16] /* ty=Tensor[(21), float16] span=from_string:67:111 */ = cast(%19, dtype="float16") /* ty=Tensor[(21), float16] span=from_string:66:92 */;
  let %x_44: Tensor[(19, 21), float16] /* ty=Tensor[(19, 21), float16] span=from_string:70:110 */ = add(%x_42, %x_43) /* ty=Tensor[(19, 21), float16] span=from_string:67:100 */;
  %20 = cast(%x9, dtype="float16") /* ty=Tensor[(1), float16] span=from_string:69:95 */;
  let %x_45: Tensor[(1), float16] /* ty=Tensor[(1), float16] span=from_string:70:117 */ = cast(%20, dtype="float16") /* ty=Tensor[(1), float16] span=from_string:69:90 */;
  let %x_46: Tensor[(19, 21), float16] /* ty=Tensor[(19, 21), float16] span=from_string:71:114 */ = multiply(%x_44, %x_45) /* ty=Tensor[(19, 21), float16] span=from_string:70:101 */;
  let %x_47: Tensor[(1, 1, 399), float16] /* ty=Tensor[(1, 1, 399), float16] span=from_string:82:171 */ = reshape(%x_46, newshape=[1, 1, 399]) /* ty=Tensor[(1, 1, 399), float16] span=from_string:71:106 */;
  %21 = cast(%x10, dtype="float16") /* ty=Tensor[(42, 10), float16] span=from_string:73:105 */;
  let %x_48: Tensor[(42, 10), float16] /* ty=Tensor[(42, 10), float16] span=from_string:74:116 */ = cast(%21, dtype="float16") /* ty=Tensor[(42, 10), float16] span=from_string:73:100 */;
  let %x_49: Tensor[(19, 42), float16] /* ty=Tensor[(19, 42), float16] span=from_string:77:104 */ = nn.dense(%x_23, %x_48, units=None, out_dtype="float16") /* ty=Tensor[(19, 42), float16] span=from_string:74:100 */;
  %22 = cast(%x11, dtype="float16") /* ty=Tensor[(42), float16] span=from_string:76:97 */;
  let %x_50: Tensor[(42), float16] /* ty=Tensor[(42), float16] span=from_string:77:111 */ = cast(%22, dtype="float16") /* ty=Tensor[(42), float16] span=from_string:76:92 */;
  let %x_51: Tensor[(19, 42), float16] /* ty=Tensor[(19, 42), float16] span=from_string:80:110 */ = add(%x_49, %x_50) /* ty=Tensor[(19, 42), float16] span=from_string:77:100 */;
  %23 = cast(%x12, dtype="float16") /* ty=Tensor[(1), float16] span=from_string:79:95 */;
  let %x_52: Tensor[(1), float16] /* ty=Tensor[(1), float16] span=from_string:80:117 */ = cast(%23, dtype="float16") /* ty=Tensor[(1), float16] span=from_string:79:90 */;
  let %x_53: Tensor[(19, 42), float16] /* ty=Tensor[(19, 42), float16] span=from_string:81:114 */ = multiply(%x_51, %x_52) /* ty=Tensor[(19, 42), float16] span=from_string:80:101 */;
  let %x_54: Tensor[(1, 1, 798), float16] /* ty=Tensor[(1, 1, 798), float16] span=from_string:82:178 */ = reshape(%x_53, newshape=[1, 1, 798]) /* ty=Tensor[(1, 1, 798), float16] span=from_string:81:106 */;
  let %x_55: (Tensor[(1, 1, 399), float16], Tensor[(1, 1, 798), float16]) /* ty=(Tensor[(1, 1, 399), float16], Tensor[(1, 1, 798), float16]) span=from_string:84:545 */ = (%x_47, %x_54) /* ty=(Tensor[(1, 1, 399), float16], Tensor[(1, 1, 798), float16]) span=from_string:82:170 */;
  let %x_56: int32 /* ty=int32 span=from_string:84:558 */ = 590 /* ty=int32 span=from_string:83:65 */;
  let %x_57: (Tensor[(10, 20), float16], (Tensor[(19, 10), float16], Tensor[(19, 10), float16]), (Tensor[(10, 92, 1), float16], Tensor[(10, 59, 1), float16]), (Tensor[(1, 1, 399), float16], Tensor[(1, 1, 798), float16]), Tensor[(1), float32], int32) /* ty=(Tensor[(10, 20), float16], (Tensor[(19, 10), float16], Tensor[(19, 10), float16]), (Tensor[(10, 92, 1), float16], Tensor[(10, 59, 1), float16]), (Tensor[(1, 1, 399), float16], Tensor[(1, 1, 798), float16]), Tensor[(1), float32], int32) span=from_string:85:3 */ = (%x_12, %x_28, %x_40, %x_55, %x12, %x_56) /* ty=(Tensor[(10, 20), float16], (Tensor[(19, 10), float16], Tensor[(19, 10), float16]), (Tensor[(10, 92, 1), float16], Tensor[(10, 59, 1), float16]), (Tensor[(1, 1, 399), float16], Tensor[(1, 1, 798), float16]), Tensor[(1), float32], int32) span=from_string:84:523 */;
  %x_57
}
