#[version = "0.0.5"]
def @main(%x0: Tensor[(10, 20), float32] /* ty=Tensor[(10, 20), float32] span=from_string:3:104 */, %x1: Tensor[(19, 20), float32] /* ty=Tensor[(19, 20), float32] span=from_string:23:106 */, %x2: Tensor[(10, 20), float32] /* ty=Tensor[(10, 20), float32] span=from_string:38:107 */, %x3: Tensor[(10), float32] /* ty=Tensor[(10), float32] span=from_string:35:98 */, %x4: Tensor[(10), float32] /* ty=Tensor[(10), float32] span=from_string:41:98 */, %x5: Tensor[(92, 20), float32] /* ty=Tensor[(92, 20), float32] span=from_string:53:107 */, %x6: Tensor[(59, 20), float32] /* ty=Tensor[(59, 20), float32] span=from_string:57:107 */, %x7: Tensor[(21, 10), float32] /* ty=Tensor[(21, 10), float32] span=from_string:62:107 */, %x8: Tensor[(21), float32] /* ty=Tensor[(21), float32] span=from_string:65:98 */, %x9: Tensor[(1), float32] /* ty=Tensor[(1), float32] span=from_string:68:96 */, %x10: Tensor[(42, 10), float32] /* ty=Tensor[(42, 10), float32] span=from_string:72:107 */, %x11: Tensor[(42), float32] /* ty=Tensor[(42), float32] span=from_string:75:98 */, %x12: Tensor[(1), float32] /* ty=Tensor[(1), float32] span=from_string:84:553 */, %x13: Tensor[(10, 59, 1), float32] /* ty=Tensor[(10, 59, 1), float32] */) -> (Tensor[(10, 20), float16], (Tensor[(19, 10), float16], Tensor[(19, 10), float16]), (Tensor[(10, 92, 1), float16], Tensor[(10, 59, 1), float16]), (Tensor[(1, 1, 399), float16], Tensor[(1, 1, 798), float16]), Tensor[(1), float32], int32) {
  let %x_0: Tensor[(10, 20), float16] /* ty=Tensor[(10, 20), float16] span=from_string:4:106 */ = cast(%x0, dtype="float16") /* ty=Tensor[(10, 20), float16] span=from_string:3:99 */;
  let %x_01: Tensor[(10, 20), float16] /* ty=Tensor[(10, 20), float16] span=from_string:28:105 */ = cast(%x_0, dtype="float16") /* ty=Tensor[(10, 20), float16] span=from_string:4:101 */;
  let %x_1: float32 /* ty=float32 span=from_string:6:68 */ = 1f /* ty=float32 span=from_string:5:64 */;
  let %x_11: float16 /* ty=float16 span=from_string:7:68 */ = cast(%x_1, dtype="float16") /* ty=float16 span=from_string:6:63 */;
  let %x_2: float16 /* ty=float16 span=from_string:8:110 */ = cast(%x_11, dtype="float16") /* ty=float16 span=from_string:7:63 */;
  let %x_3: Tensor[(10, 20), float16] /* ty=Tensor[(10, 20), float16] span=from_string:9:105 */ = add(%x_01, %x_2) /* ty=Tensor[(10, 20), float16] span=from_string:8:99 */;
  let %x_4: Tensor[(10, 20), float32] /* ty=Tensor[(10, 20), float32] span=from_string:10:108 */ = cast(%x_3, dtype="float32") /* ty=Tensor[(10, 20), float32] span=from_string:9:100 */;
  let %x_5: Tensor[(10, 20), float32] /* ty=Tensor[(10, 20), float32] span=from_string:11:106 */ = fast_exp(%x_4) /* ty=Tensor[(10, 20), float32] span=from_string:10:99 */;
  let %x_21: Tensor[(10, 20), float16] /* ty=Tensor[(10, 20), float16] span=from_string:12:108 */ = cast(%x_5, dtype="float16") /* ty=Tensor[(10, 20), float16] span=from_string:11:101 */;
  let %x_6: Tensor[(10, 20), float16] /* ty=Tensor[(10, 20), float16] span=from_string:15:103 */ = squeeze(%x_21) /* ty=Tensor[(10, 20), float16] span=from_string:12:100 */;
  let %x_7: float32 /* ty=float32 span=from_string:14:70 */ = 1f /* ty=float32 span=from_string:13:65 */;
  let %x_31: float16 /* ty=float16 span=from_string:15:109 */ = cast(%x_7, dtype="float16") /* ty=float16 span=from_string:14:65 */;
  let %x_8: Tensor[(10, 20), float16] /* ty=Tensor[(10, 20), float16] span=from_string:16:106 */ = add(%x_6, %x_31) /* ty=Tensor[(10, 20), float16] span=from_string:15:99 */;
  let %x_41: Tensor[(10, 20), float32] /* ty=Tensor[(10, 20), float32] span=from_string:17:108 */ = cast(%x_8, dtype="float32") /* ty=Tensor[(10, 20), float32] span=from_string:16:101 */;
  let %x_9: Tensor[(10, 20), float32] /* ty=Tensor[(10, 20), float32] span=from_string:18:106 */ = fast_exp(%x_41) /* ty=Tensor[(10, 20), float32] span=from_string:17:99 */;
  let %x_51: Tensor[(10, 20), float16] /* ty=Tensor[(10, 20), float16] span=from_string:19:109 */ = cast(%x_9, dtype="float16") /* ty=Tensor[(10, 20), float16] span=from_string:18:101 */;
  let %x_10: Tensor[(10, 20), float16] /* ty=Tensor[(10, 20), float16] span=from_string:22:111 */ = squeeze(%x_51) /* ty=Tensor[(10, 20), float16] span=from_string:19:101 */;
  let %x_111: float32 /* ty=float32 span=from_string:21:70 */ = 2f /* ty=float32 span=from_string:20:67 */;
  let %x_61: float16 /* ty=float16 span=from_string:22:118 */ = cast(%x_111, dtype="float16") /* ty=float16 span=from_string:21:65 */;
  let %x_12: Tensor[(10, 20), float16] /* ty=Tensor[(10, 20), float16] span=from_string:84:525 */ = multiply(%x_10, %x_61) /* ty=Tensor[(10, 20), float16] span=from_string:22:102 */;
  let %x_71: Tensor[(19, 20), float16] /* ty=Tensor[(19, 20), float16] span=from_string:24:106 */ = cast(%x1, dtype="float16") /* ty=Tensor[(19, 20), float16] span=from_string:23:101 */;
  let %x_13: Tensor[(19, 20), float16] /* ty=Tensor[(19, 20), float16] span=from_string:40:110 */ = cast(%x_71, dtype="float16") /* ty=Tensor[(19, 20), float16] span=from_string:24:101 */;
  let %x_14: float32 /* ty=float32 span=from_string:26:69 */ = 1f /* ty=float32 span=from_string:25:66 */;
  let %x_81: float16 /* ty=float16 span=from_string:27:70 */ = cast(%x_14, dtype="float16") /* ty=float16 span=from_string:26:64 */;
  let %x_15: float16 /* ty=float16 span=from_string:28:112 */ = cast(%x_81, dtype="float16") /* ty=float16 span=from_string:27:65 */;
  let %x_16: Tensor[(10, 20), float16] /* ty=Tensor[(10, 20), float16] span=from_string:29:106 */ = add(%x_01, %x_15) /* ty=Tensor[(10, 20), float16] span=from_string:28:101 */;
  let %x_17: Tensor[(10, 20), float32] /* ty=Tensor[(10, 20), float32] span=from_string:30:109 */ = cast(%x_16, dtype="float32") /* ty=Tensor[(10, 20), float32] span=from_string:29:101 */;
  let %x_18: Tensor[(10, 20), float32] /* ty=Tensor[(10, 20), float32] span=from_string:31:106 */ = fast_exp(%x_17) /* ty=Tensor[(10, 20), float32] span=from_string:30:100 */;
  let %x_91: Tensor[(10, 20), float16] /* ty=Tensor[(10, 20), float16] span=from_string:47:104 */ = cast(%x_18, dtype="float16") /* ty=Tensor[(10, 20), float16] span=from_string:31:101 */;
  let %x_19: Tensor[(10, 20), float16] /* ty=Tensor[(10, 20), float16] span=from_string:33:106 */ = squeeze(%x_91) /* ty=Tensor[(10, 20), float16] span=from_string:32:101 */;
  let %x_20: Tensor[(10, 20), float16] /* ty=Tensor[(10, 20), float16] span=from_string:34:118 */ = cast(%x_19, dtype="float16") /* ty=Tensor[(10, 20), float16] span=from_string:33:101 */;
  let %x_211: Tensor[(19, 10), float16] /* ty=Tensor[(19, 10), float16] span=from_string:37:105 */ = nn.dense(%x_13, %x_20, units=None, out_dtype="float16") /* ty=Tensor[(19, 10), float16] span=from_string:34:102 */;
  let %x_101: Tensor[(10), float16] /* ty=Tensor[(10), float16] span=from_string:36:98 */ = cast(%x3, dtype="float16") /* ty=Tensor[(10), float16] span=from_string:35:93 */;
  let %x_22: Tensor[(10), float16] /* ty=Tensor[(10), float16] span=from_string:37:113 */ = cast(%x_101, dtype="float16") /* ty=Tensor[(10), float16] span=from_string:36:93 */;
  let %x_23: Tensor[(19, 10), float16] /* ty=Tensor[(19, 10), float16] span=from_string:74:110 */ = add(%x_211, %x_22) /* ty=Tensor[(19, 10), float16] span=from_string:37:101 */;
  let %x_112: Tensor[(10, 20), float16] /* ty=Tensor[(10, 20), float16] span=from_string:39:106 */ = cast(%x2, dtype="float16") /* ty=Tensor[(10, 20), float16] span=from_string:38:102 */;
  let %x_24: Tensor[(10, 20), float16] /* ty=Tensor[(10, 20), float16] span=from_string:40:117 */ = cast(%x_112, dtype="float16") /* ty=Tensor[(10, 20), float16] span=from_string:39:101 */;
  let %x_25: Tensor[(19, 10), float16] /* ty=Tensor[(19, 10), float16] span=from_string:43:105 */ = nn.dense(%x_13, %x_24, units=None, out_dtype="float16") /* ty=Tensor[(19, 10), float16] span=from_string:40:101 */;
  let %x_121: Tensor[(10), float16] /* ty=Tensor[(10), float16] span=from_string:42:98 */ = cast(%x4, dtype="float16") /* ty=Tensor[(10), float16] span=from_string:41:93 */;
  let %x_26: Tensor[(10), float16] /* ty=Tensor[(10), float16] span=from_string:43:112 */ = cast(%x_121, dtype="float16") /* ty=Tensor[(10), float16] span=from_string:42:93 */;
  let %x_27: Tensor[(19, 10), float16] /* ty=Tensor[(19, 10), float16] span=from_string:44:167 */ = add(%x_25, %x_26) /* ty=Tensor[(19, 10), float16] span=from_string:43:101 */;
  let %x_28: (Tensor[(19, 10), float16], Tensor[(19, 10), float16]) /* ty=(Tensor[(19, 10), float16], Tensor[(19, 10), float16]) span=from_string:84:532 */ = (%x_23, %x_27) /* ty=(Tensor[(19, 10), float16], Tensor[(19, 10), float16]) span=from_string:44:159 */;
  let %x_29: float32 /* ty=float32 span=from_string:46:71 */ = 1f /* ty=float32 span=from_string:45:66 */;
  let %x_131: float16 /* ty=float16 span=from_string:47:111 */ = cast(%x_29, dtype="float16") /* ty=float16 span=from_string:46:66 */;
  let %x_30: Tensor[(10, 20), float16] /* ty=Tensor[(10, 20), float16] span=from_string:48:107 */ = add(%x_91, %x_131) /* ty=Tensor[(10, 20), float16] span=from_string:47:100 */;
  let %x_141: Tensor[(10, 20), float32] /* ty=Tensor[(10, 20), float32] span=from_string:49:110 */ = cast(%x_30, dtype="float32") /* ty=Tensor[(10, 20), float32] span=from_string:48:102 */;
  let %x_311: Tensor[(10, 20), float32] /* ty=Tensor[(10, 20), float32] span=from_string:50:107 */ = fast_exp(%x_141) /* ty=Tensor[(10, 20), float32] span=from_string:49:101 */;
  let %x_151: Tensor[(10, 20), float16] /* ty=Tensor[(10, 20), float16] span=from_string:51:109 */ = cast(%x_311, dtype="float16") /* ty=Tensor[(10, 20), float16] span=from_string:50:102 */;
  let %x_32: Tensor[(10, 20), float16] /* ty=Tensor[(10, 20), float16] span=from_string:52:106 */ = squeeze(%x_151) /* ty=Tensor[(10, 20), float16] span=from_string:51:101 */;
  let %x_33: Tensor[(10, 20), float16] /* ty=Tensor[(10, 20), float16] span=from_string:59:110 */ = cast(%x_32, dtype="float16") /* ty=Tensor[(10, 20), float16] span=from_string:52:101 */;
  let %x_161: Tensor[(92, 20), float16] /* ty=Tensor[(92, 20), float16] span=from_string:54:106 */ = cast(%x5, dtype="float16") /* ty=Tensor[(92, 20), float16] span=from_string:53:102 */;
  let %x_34: Tensor[(92, 20), float16] /* ty=Tensor[(92, 20), float16] span=from_string:55:117 */ = cast(%x_161, dtype="float16") /* ty=Tensor[(92, 20), float16] span=from_string:54:101 */;
  let %x_35: Tensor[(10, 92), float16] /* ty=Tensor[(10, 92), float16] span=from_string:56:119 */ = nn.dense(%x_33, %x_34, units=None, out_dtype="float16") /* ty=Tensor[(10, 92), float16] span=from_string:55:101 */;
  let %x_36: Tensor[(10, 92, 1), float16] /* ty=Tensor[(10, 92, 1), float16] span=from_string:61:172 */ = expand_dims(%x_35, axis=2) /* ty=Tensor[(10, 92, 1), float16] span=from_string:56:107 */;
  let %x_171: Tensor[(59, 20), float16] /* ty=Tensor[(59, 20), float16] span=from_string:58:106 */ = cast(%x6, dtype="float16") /* ty=Tensor[(59, 20), float16] span=from_string:57:102 */;
  let %x_37: Tensor[(59, 20), float16] /* ty=Tensor[(59, 20), float16] span=from_string:59:117 */ = cast(%x_171, dtype="float16") /* ty=Tensor[(59, 20), float16] span=from_string:58:101 */;
  let %x_38: Tensor[(10, 59), float16] /* ty=Tensor[(10, 59), float16] span=from_string:60:119 */ = nn.dense(%x_33, %x_37, units=None, out_dtype="float16") /* ty=Tensor[(10, 59), float16] span=from_string:59:101 */;
  let %x_39: Tensor[(10, 59, 1), float16] /* ty=Tensor[(10, 59, 1), float16] span=from_string:61:179 */ = expand_dims(%x_38, axis=2) /* ty=Tensor[(10, 59, 1), float16] span=from_string:60:107 */;
  let %x_40: (Tensor[(10, 92, 1), float16], Tensor[(10, 59, 1), float16]) /* ty=(Tensor[(10, 92, 1), float16], Tensor[(10, 59, 1), float16]) span=from_string:84:539 */ = (%x_36, %x_39) /* ty=(Tensor[(10, 92, 1), float16], Tensor[(10, 59, 1), float16]) span=from_string:61:171 */;
  let %x_181: Tensor[(21, 10), float16] /* ty=Tensor[(21, 10), float16] span=from_string:63:107 */ = cast(%x7, dtype="float16") /* ty=Tensor[(21, 10), float16] span=from_string:62:102 */;
  let %x_411: Tensor[(21, 10), float16] /* ty=Tensor[(21, 10), float16] span=from_string:64:117 */ = cast(%x_181, dtype="float16") /* ty=Tensor[(21, 10), float16] span=from_string:63:102 */;
  let %x_42: Tensor[(19, 21), float16] /* ty=Tensor[(19, 21), float16] span=from_string:67:105 */ = nn.dense(%x_23, %x_411, units=None, out_dtype="float16") /* ty=Tensor[(19, 21), float16] span=from_string:64:101 */;
  let %x_191: Tensor[(21), float16] /* ty=Tensor[(21), float16] span=from_string:66:98 */ = cast(%x8, dtype="float16") /* ty=Tensor[(21), float16] span=from_string:65:93 */;
  let %x_43: Tensor[(21), float16] /* ty=Tensor[(21), float16] span=from_string:67:112 */ = cast(%x_191, dtype="float16") /* ty=Tensor[(21), float16] span=from_string:66:93 */;
  let %x_44: Tensor[(19, 21), float16] /* ty=Tensor[(19, 21), float16] span=from_string:70:111 */ = add(%x_42, %x_43) /* ty=Tensor[(19, 21), float16] span=from_string:67:101 */;
  let %x_201: Tensor[(1), float16] /* ty=Tensor[(1), float16] span=from_string:69:96 */ = cast(%x9, dtype="float16") /* ty=Tensor[(1), float16] span=from_string:68:91 */;
  let %x_45: Tensor[(1), float16] /* ty=Tensor[(1), float16] span=from_string:70:118 */ = cast(%x_201, dtype="float16") /* ty=Tensor[(1), float16] span=from_string:69:91 */;
  let %x_46: Tensor[(19, 21), float16] /* ty=Tensor[(19, 21), float16] span=from_string:71:115 */ = multiply(%x_44, %x_45) /* ty=Tensor[(19, 21), float16] span=from_string:70:102 */;
  let %x_47: Tensor[(1, 1, 399), float16] /* ty=Tensor[(1, 1, 399), float16] span=from_string:82:172 */ = reshape(%x_46, newshape=[1, 1, 399]) /* ty=Tensor[(1, 1, 399), float16] span=from_string:71:107 */;
  let %x_212: Tensor[(42, 10), float16] /* ty=Tensor[(42, 10), float16] span=from_string:73:106 */ = cast(%x10, dtype="float16") /* ty=Tensor[(42, 10), float16] span=from_string:72:102 */;
  let %x_48: Tensor[(42, 10), float16] /* ty=Tensor[(42, 10), float16] span=from_string:74:117 */ = cast(%x_212, dtype="float16") /* ty=Tensor[(42, 10), float16] span=from_string:73:101 */;
  let %x_49: Tensor[(19, 42), float16] /* ty=Tensor[(19, 42), float16] span=from_string:77:106 */ = nn.dense(%x_23, %x_48, units=None, out_dtype="float16") /* ty=Tensor[(19, 42), float16] span=from_string:74:101 */;
  let %x_221: Tensor[(42), float16] /* ty=Tensor[(42), float16] span=from_string:76:98 */ = cast(%x11, dtype="float16") /* ty=Tensor[(42), float16] span=from_string:75:93 */;
  let %x_50: Tensor[(42), float16] /* ty=Tensor[(42), float16] span=from_string:77:113 */ = cast(%x_221, dtype="float16") /* ty=Tensor[(42), float16] span=from_string:76:93 */;
  let %x_511: Tensor[(19, 42), float16] /* ty=Tensor[(19, 42), float16] span=from_string:80:111 */ = add(%x_49, %x_50) /* ty=Tensor[(19, 42), float16] span=from_string:77:102 */;
  let %x_231: Tensor[(1), float16] /* ty=Tensor[(1), float16] span=from_string:79:96 */ = cast(%x12, dtype="float16") /* ty=Tensor[(1), float16] span=from_string:78:91 */;
  let %x_52: Tensor[(1), float16] /* ty=Tensor[(1), float16] span=from_string:80:119 */ = cast(%x_231, dtype="float16") /* ty=Tensor[(1), float16] span=from_string:79:91 */;
  let %x_53: Tensor[(19, 42), float16] /* ty=Tensor[(19, 42), float16] span=from_string:81:115 */ = multiply(%x_511, %x_52) /* ty=Tensor[(19, 42), float16] span=from_string:80:102 */;
  let %x_54: Tensor[(1, 1, 798), float16] /* ty=Tensor[(1, 1, 798), float16] span=from_string:82:179 */ = reshape(%x_53, newshape=[1, 1, 798]) /* ty=Tensor[(1, 1, 798), float16] span=from_string:81:107 */;
  let %x_55: (Tensor[(1, 1, 399), float16], Tensor[(1, 1, 798), float16]) /* ty=(Tensor[(1, 1, 399), float16], Tensor[(1, 1, 798), float16]) span=from_string:84:546 */ = (%x_47, %x_54) /* ty=(Tensor[(1, 1, 399), float16], Tensor[(1, 1, 798), float16]) span=from_string:82:171 */;
  let %x_56: int32 /* ty=int32 span=from_string:84:559 */ = 590 /* ty=int32 span=from_string:83:66 */;
  let %x_57: (Tensor[(10, 20), float16], (Tensor[(19, 10), float16], Tensor[(19, 10), float16]), (Tensor[(10, 92, 1), float16], Tensor[(10, 59, 1), float16]), (Tensor[(1, 1, 399), float16], Tensor[(1, 1, 798), float16]), Tensor[(1), float32], int32) /* ty=(Tensor[(10, 20), float16], (Tensor[(19, 10), float16], Tensor[(19, 10), float16]), (Tensor[(10, 92, 1), float16], Tensor[(10, 59, 1), float16]), (Tensor[(1, 1, 399), float16], Tensor[(1, 1, 798), float16]), Tensor[(1), float32], int32) span=from_string:85:525 */ = (%x_12, %x_28, %x_40, %x_55, %x12, %x_56) /* ty=(Tensor[(10, 20), float16], (Tensor[(19, 10), float16], Tensor[(19, 10), float16]), (Tensor[(10, 92, 1), float16], Tensor[(10, 59, 1), float16]), (Tensor[(1, 1, 399), float16], Tensor[(1, 1, 798), float16]), Tensor[(1), float32], int32) span=from_string:84:524 */;
  let %x_241: (Tensor[(10, 20), float16], (Tensor[(19, 10), float16], Tensor[(19, 10), float16]), (Tensor[(10, 92, 1), float16], Tensor[(10, 59, 1), float16]), (Tensor[(1, 1, 399), float16], Tensor[(1, 1, 798), float16]), Tensor[(1), float32], int32) /* ty=(Tensor[(10, 20), float16], (Tensor[(19, 10), float16], Tensor[(19, 10), float16]), (Tensor[(10, 92, 1), float16], Tensor[(10, 59, 1), float16]), (Tensor[(1, 1, 399), float16], Tensor[(1, 1, 798), float16]), Tensor[(1), float32], int32) span=from_string:86:525 */ = %x_57;
  let %x_251: (Tensor[(10, 20), float16], (Tensor[(19, 10), float16], Tensor[(19, 10), float16]), (Tensor[(10, 92, 1), float16], Tensor[(10, 59, 1), float16]), (Tensor[(1, 1, 399), float16], Tensor[(1, 1, 798), float16]), Tensor[(1), float32], int32) /* ty=(Tensor[(10, 20), float16], (Tensor[(19, 10), float16], Tensor[(19, 10), float16]), (Tensor[(10, 92, 1), float16], Tensor[(10, 59, 1), float16]), (Tensor[(1, 1, 399), float16], Tensor[(1, 1, 798), float16]), Tensor[(1), float32], int32) span=from_string:87:525 */ = %x_241;
  let %x_261: (Tensor[(10, 20), float16], (Tensor[(19, 10), float16], Tensor[(19, 10), float16]), (Tensor[(10, 92, 1), float16], Tensor[(10, 59, 1), float16]), (Tensor[(1, 1, 399), float16], Tensor[(1, 1, 798), float16]), Tensor[(1), float32], int32) /* ty=(Tensor[(10, 20), float16], (Tensor[(19, 10), float16], Tensor[(19, 10), float16]), (Tensor[(10, 92, 1), float16], Tensor[(10, 59, 1), float16]), (Tensor[(1, 1, 399), float16], Tensor[(1, 1, 798), float16]), Tensor[(1), float32], int32) span=from_string:88:525 */ = %x_251;
  let %x_271: (Tensor[(10, 20), float16], (Tensor[(19, 10), float16], Tensor[(19, 10), float16]), (Tensor[(10, 92, 1), float16], Tensor[(10, 59, 1), float16]), (Tensor[(1, 1, 399), float16], Tensor[(1, 1, 798), float16]), Tensor[(1), float32], int32) /* ty=(Tensor[(10, 20), float16], (Tensor[(19, 10), float16], Tensor[(19, 10), float16]), (Tensor[(10, 92, 1), float16], Tensor[(10, 59, 1), float16]), (Tensor[(1, 1, 399), float16], Tensor[(1, 1, 798), float16]), Tensor[(1), float32], int32) span=from_string:89:525 */ = %x_261;
  let %x_281: (Tensor[(10, 20), float16], (Tensor[(19, 10), float16], Tensor[(19, 10), float16]), (Tensor[(10, 92, 1), float16], Tensor[(10, 59, 1), float16]), (Tensor[(1, 1, 399), float16], Tensor[(1, 1, 798), float16]), Tensor[(1), float32], int32) /* ty=(Tensor[(10, 20), float16], (Tensor[(19, 10), float16], Tensor[(19, 10), float16]), (Tensor[(10, 92, 1), float16], Tensor[(10, 59, 1), float16]), (Tensor[(1, 1, 399), float16], Tensor[(1, 1, 798), float16]), Tensor[(1), float32], int32) span=from_string:90:525 */ = %x_271;
  let %x_291: (Tensor[(10, 20), float16], (Tensor[(19, 10), float16], Tensor[(19, 10), float16]), (Tensor[(10, 92, 1), float16], Tensor[(10, 59, 1), float16]), (Tensor[(1, 1, 399), float16], Tensor[(1, 1, 798), float16]), Tensor[(1), float32], int32) /* ty=(Tensor[(10, 20), float16], (Tensor[(19, 10), float16], Tensor[(19, 10), float16]), (Tensor[(10, 92, 1), float16], Tensor[(10, 59, 1), float16]), (Tensor[(1, 1, 399), float16], Tensor[(1, 1, 798), float16]), Tensor[(1), float32], int32) span=from_string:91:525 */ = %x_281;
  let %x_301: (Tensor[(10, 20), float16], (Tensor[(19, 10), float16], Tensor[(19, 10), float16]), (Tensor[(10, 92, 1), float16], Tensor[(10, 59, 1), float16]), (Tensor[(1, 1, 399), float16], Tensor[(1, 1, 798), float16]), Tensor[(1), float32], int32) /* ty=(Tensor[(10, 20), float16], (Tensor[(19, 10), float16], Tensor[(19, 10), float16]), (Tensor[(10, 92, 1), float16], Tensor[(10, 59, 1), float16]), (Tensor[(1, 1, 399), float16], Tensor[(1, 1, 798), float16]), Tensor[(1), float32], int32) span=from_string:92:525 */ = %x_291;
  let %x_312: (Tensor[(10, 20), float16], (Tensor[(19, 10), float16], Tensor[(19, 10), float16]), (Tensor[(10, 92, 1), float16], Tensor[(10, 59, 1), float16]), (Tensor[(1, 1, 399), float16], Tensor[(1, 1, 798), float16]), Tensor[(1), float32], int32) /* ty=(Tensor[(10, 20), float16], (Tensor[(19, 10), float16], Tensor[(19, 10), float16]), (Tensor[(10, 92, 1), float16], Tensor[(10, 59, 1), float16]), (Tensor[(1, 1, 399), float16], Tensor[(1, 1, 798), float16]), Tensor[(1), float32], int32) span=from_string:93:525 */ = %x_301;
  let %x_321: (Tensor[(10, 20), float16], (Tensor[(19, 10), float16], Tensor[(19, 10), float16]), (Tensor[(10, 92, 1), float16], Tensor[(10, 59, 1), float16]), (Tensor[(1, 1, 399), float16], Tensor[(1, 1, 798), float16]), Tensor[(1), float32], int32) /* ty=(Tensor[(10, 20), float16], (Tensor[(19, 10), float16], Tensor[(19, 10), float16]), (Tensor[(10, 92, 1), float16], Tensor[(10, 59, 1), float16]), (Tensor[(1, 1, 399), float16], Tensor[(1, 1, 798), float16]), Tensor[(1), float32], int32) span=from_string:94:525 */ = %x_312;
  let %x_331: (Tensor[(10, 20), float16], (Tensor[(19, 10), float16], Tensor[(19, 10), float16]), (Tensor[(10, 92, 1), float16], Tensor[(10, 59, 1), float16]), (Tensor[(1, 1, 399), float16], Tensor[(1, 1, 798), float16]), Tensor[(1), float32], int32) /* ty=(Tensor[(10, 20), float16], (Tensor[(19, 10), float16], Tensor[(19, 10), float16]), (Tensor[(10, 92, 1), float16], Tensor[(10, 59, 1), float16]), (Tensor[(1, 1, 399), float16], Tensor[(1, 1, 798), float16]), Tensor[(1), float32], int32) span=from_string:95:525 */ = %x_321;
  let %x_341: (Tensor[(10, 20), float16], (Tensor[(19, 10), float16], Tensor[(19, 10), float16]), (Tensor[(10, 92, 1), float16], Tensor[(10, 59, 1), float16]), (Tensor[(1, 1, 399), float16], Tensor[(1, 1, 798), float16]), Tensor[(1), float32], int32) /* ty=(Tensor[(10, 20), float16], (Tensor[(19, 10), float16], Tensor[(19, 10), float16]), (Tensor[(10, 92, 1), float16], Tensor[(10, 59, 1), float16]), (Tensor[(1, 1, 399), float16], Tensor[(1, 1, 798), float16]), Tensor[(1), float32], int32) span=from_string:96:525 */ = %x_331;
  let %x_351: (Tensor[(10, 20), float16], (Tensor[(19, 10), float16], Tensor[(19, 10), float16]), (Tensor[(10, 92, 1), float16], Tensor[(10, 59, 1), float16]), (Tensor[(1, 1, 399), float16], Tensor[(1, 1, 798), float16]), Tensor[(1), float32], int32) /* ty=(Tensor[(10, 20), float16], (Tensor[(19, 10), float16], Tensor[(19, 10), float16]), (Tensor[(10, 92, 1), float16], Tensor[(10, 59, 1), float16]), (Tensor[(1, 1, 399), float16], Tensor[(1, 1, 798), float16]), Tensor[(1), float32], int32) span=from_string:97:525 */ = %x_341;
  let %x_361: (Tensor[(10, 20), float16], (Tensor[(19, 10), float16], Tensor[(19, 10), float16]), (Tensor[(10, 92, 1), float16], Tensor[(10, 59, 1), float16]), (Tensor[(1, 1, 399), float16], Tensor[(1, 1, 798), float16]), Tensor[(1), float32], int32) /* ty=(Tensor[(10, 20), float16], (Tensor[(19, 10), float16], Tensor[(19, 10), float16]), (Tensor[(10, 92, 1), float16], Tensor[(10, 59, 1), float16]), (Tensor[(1, 1, 399), float16], Tensor[(1, 1, 798), float16]), Tensor[(1), float32], int32) span=from_string:98:525 */ = %x_351;
  let %x_371: (Tensor[(10, 20), float16], (Tensor[(19, 10), float16], Tensor[(19, 10), float16]), (Tensor[(10, 92, 1), float16], Tensor[(10, 59, 1), float16]), (Tensor[(1, 1, 399), float16], Tensor[(1, 1, 798), float16]), Tensor[(1), float32], int32) /* ty=(Tensor[(10, 20), float16], (Tensor[(19, 10), float16], Tensor[(19, 10), float16]), (Tensor[(10, 92, 1), float16], Tensor[(10, 59, 1), float16]), (Tensor[(1, 1, 399), float16], Tensor[(1, 1, 798), float16]), Tensor[(1), float32], int32) span=from_string:99:526 */ = %x_361;
  let %x_381: (Tensor[(10, 20), float16], (Tensor[(19, 10), float16], Tensor[(19, 10), float16]), (Tensor[(10, 92, 1), float16], Tensor[(10, 59, 1), float16]), (Tensor[(1, 1, 399), float16], Tensor[(1, 1, 798), float16]), Tensor[(1), float32], int32) /* ty=(Tensor[(10, 20), float16], (Tensor[(19, 10), float16], Tensor[(19, 10), float16]), (Tensor[(10, 92, 1), float16], Tensor[(10, 59, 1), float16]), (Tensor[(1, 1, 399), float16], Tensor[(1, 1, 798), float16]), Tensor[(1), float32], int32) span=from_string:100:526 */ = %x_371;
  let %x_391: (Tensor[(10, 20), float16], (Tensor[(19, 10), float16], Tensor[(19, 10), float16]), (Tensor[(10, 92, 1), float16], Tensor[(10, 59, 1), float16]), (Tensor[(1, 1, 399), float16], Tensor[(1, 1, 798), float16]), Tensor[(1), float32], int32) /* ty=(Tensor[(10, 20), float16], (Tensor[(19, 10), float16], Tensor[(19, 10), float16]), (Tensor[(10, 92, 1), float16], Tensor[(10, 59, 1), float16]), (Tensor[(1, 1, 399), float16], Tensor[(1, 1, 798), float16]), Tensor[(1), float32], int32) span=from_string:101:526 */ = %x_381;
  let %x_401: (Tensor[(10, 20), float16], (Tensor[(19, 10), float16], Tensor[(19, 10), float16]), (Tensor[(10, 92, 1), float16], Tensor[(10, 59, 1), float16]), (Tensor[(1, 1, 399), float16], Tensor[(1, 1, 798), float16]), Tensor[(1), float32], int32) /* ty=(Tensor[(10, 20), float16], (Tensor[(19, 10), float16], Tensor[(19, 10), float16]), (Tensor[(10, 92, 1), float16], Tensor[(10, 59, 1), float16]), (Tensor[(1, 1, 399), float16], Tensor[(1, 1, 798), float16]), Tensor[(1), float32], int32) span=from_string:102:526 */ = %x_391;
  let %x_412: (Tensor[(10, 20), float16], (Tensor[(19, 10), float16], Tensor[(19, 10), float16]), (Tensor[(10, 92, 1), float16], Tensor[(10, 59, 1), float16]), (Tensor[(1, 1, 399), float16], Tensor[(1, 1, 798), float16]), Tensor[(1), float32], int32) /* ty=(Tensor[(10, 20), float16], (Tensor[(19, 10), float16], Tensor[(19, 10), float16]), (Tensor[(10, 92, 1), float16], Tensor[(10, 59, 1), float16]), (Tensor[(1, 1, 399), float16], Tensor[(1, 1, 798), float16]), Tensor[(1), float32], int32) span=from_string:103:526 */ = %x_401;
  let %x_421: (Tensor[(10, 20), float16], (Tensor[(19, 10), float16], Tensor[(19, 10), float16]), (Tensor[(10, 92, 1), float16], Tensor[(10, 59, 1), float16]), (Tensor[(1, 1, 399), float16], Tensor[(1, 1, 798), float16]), Tensor[(1), float32], int32) /* ty=(Tensor[(10, 20), float16], (Tensor[(19, 10), float16], Tensor[(19, 10), float16]), (Tensor[(10, 92, 1), float16], Tensor[(10, 59, 1), float16]), (Tensor[(1, 1, 399), float16], Tensor[(1, 1, 798), float16]), Tensor[(1), float32], int32) span=from_string:104:526 */ = %x_412;
  let %x_431: (Tensor[(10, 20), float16], (Tensor[(19, 10), float16], Tensor[(19, 10), float16]), (Tensor[(10, 92, 1), float16], Tensor[(10, 59, 1), float16]), (Tensor[(1, 1, 399), float16], Tensor[(1, 1, 798), float16]), Tensor[(1), float32], int32) /* ty=(Tensor[(10, 20), float16], (Tensor[(19, 10), float16], Tensor[(19, 10), float16]), (Tensor[(10, 92, 1), float16], Tensor[(10, 59, 1), float16]), (Tensor[(1, 1, 399), float16], Tensor[(1, 1, 798), float16]), Tensor[(1), float32], int32) span=from_string:105:526 */ = %x_421;
  let %x_441: (Tensor[(10, 20), float16], (Tensor[(19, 10), float16], Tensor[(19, 10), float16]), (Tensor[(10, 92, 1), float16], Tensor[(10, 59, 1), float16]), (Tensor[(1, 1, 399), float16], Tensor[(1, 1, 798), float16]), Tensor[(1), float32], int32) /* ty=(Tensor[(10, 20), float16], (Tensor[(19, 10), float16], Tensor[(19, 10), float16]), (Tensor[(10, 92, 1), float16], Tensor[(10, 59, 1), float16]), (Tensor[(1, 1, 399), float16], Tensor[(1, 1, 798), float16]), Tensor[(1), float32], int32) span=from_string:106:526 */ = %x_431;
  let %x_451: (Tensor[(10, 20), float16], (Tensor[(19, 10), float16], Tensor[(19, 10), float16]), (Tensor[(10, 92, 1), float16], Tensor[(10, 59, 1), float16]), (Tensor[(1, 1, 399), float16], Tensor[(1, 1, 798), float16]), Tensor[(1), float32], int32) /* ty=(Tensor[(10, 20), float16], (Tensor[(19, 10), float16], Tensor[(19, 10), float16]), (Tensor[(10, 92, 1), float16], Tensor[(10, 59, 1), float16]), (Tensor[(1, 1, 399), float16], Tensor[(1, 1, 798), float16]), Tensor[(1), float32], int32) span=from_string:107:526 */ = %x_441;
  let %x_461: (Tensor[(10, 20), float16], (Tensor[(19, 10), float16], Tensor[(19, 10), float16]), (Tensor[(10, 92, 1), float16], Tensor[(10, 59, 1), float16]), (Tensor[(1, 1, 399), float16], Tensor[(1, 1, 798), float16]), Tensor[(1), float32], int32) /* ty=(Tensor[(10, 20), float16], (Tensor[(19, 10), float16], Tensor[(19, 10), float16]), (Tensor[(10, 92, 1), float16], Tensor[(10, 59, 1), float16]), (Tensor[(1, 1, 399), float16], Tensor[(1, 1, 798), float16]), Tensor[(1), float32], int32) span=from_string:108:526 */ = %x_451;
  let %x_471: (Tensor[(10, 20), float16], (Tensor[(19, 10), float16], Tensor[(19, 10), float16]), (Tensor[(10, 92, 1), float16], Tensor[(10, 59, 1), float16]), (Tensor[(1, 1, 399), float16], Tensor[(1, 1, 798), float16]), Tensor[(1), float32], int32) /* ty=(Tensor[(10, 20), float16], (Tensor[(19, 10), float16], Tensor[(19, 10), float16]), (Tensor[(10, 92, 1), float16], Tensor[(10, 59, 1), float16]), (Tensor[(1, 1, 399), float16], Tensor[(1, 1, 798), float16]), Tensor[(1), float32], int32) span=from_string:109:526 */ = %x_461;
  let %x_481: (Tensor[(10, 20), float16], (Tensor[(19, 10), float16], Tensor[(19, 10), float16]), (Tensor[(10, 92, 1), float16], Tensor[(10, 59, 1), float16]), (Tensor[(1, 1, 399), float16], Tensor[(1, 1, 798), float16]), Tensor[(1), float32], int32) /* ty=(Tensor[(10, 20), float16], (Tensor[(19, 10), float16], Tensor[(19, 10), float16]), (Tensor[(10, 92, 1), float16], Tensor[(10, 59, 1), float16]), (Tensor[(1, 1, 399), float16], Tensor[(1, 1, 798), float16]), Tensor[(1), float32], int32) span=from_string:110:526 */ = %x_471;
  let %x_491: (Tensor[(10, 20), float16], (Tensor[(19, 10), float16], Tensor[(19, 10), float16]), (Tensor[(10, 92, 1), float16], Tensor[(10, 59, 1), float16]), (Tensor[(1, 1, 399), float16], Tensor[(1, 1, 798), float16]), Tensor[(1), float32], int32) /* ty=(Tensor[(10, 20), float16], (Tensor[(19, 10), float16], Tensor[(19, 10), float16]), (Tensor[(10, 92, 1), float16], Tensor[(10, 59, 1), float16]), (Tensor[(1, 1, 399), float16], Tensor[(1, 1, 798), float16]), Tensor[(1), float32], int32) span=from_string:111:526 */ = %x_481;
  let %x_501: (Tensor[(10, 20), float16], (Tensor[(19, 10), float16], Tensor[(19, 10), float16]), (Tensor[(10, 92, 1), float16], Tensor[(10, 59, 1), float16]), (Tensor[(1, 1, 399), float16], Tensor[(1, 1, 798), float16]), Tensor[(1), float32], int32) /* ty=(Tensor[(10, 20), float16], (Tensor[(19, 10), float16], Tensor[(19, 10), float16]), (Tensor[(10, 92, 1), float16], Tensor[(10, 59, 1), float16]), (Tensor[(1, 1, 399), float16], Tensor[(1, 1, 798), float16]), Tensor[(1), float32], int32) span=from_string:112:526 */ = %x_491;
  let %x_512: (Tensor[(10, 20), float16], (Tensor[(19, 10), float16], Tensor[(19, 10), float16]), (Tensor[(10, 92, 1), float16], Tensor[(10, 59, 1), float16]), (Tensor[(1, 1, 399), float16], Tensor[(1, 1, 798), float16]), Tensor[(1), float32], int32) /* ty=(Tensor[(10, 20), float16], (Tensor[(19, 10), float16], Tensor[(19, 10), float16]), (Tensor[(10, 92, 1), float16], Tensor[(10, 59, 1), float16]), (Tensor[(1, 1, 399), float16], Tensor[(1, 1, 798), float16]), Tensor[(1), float32], int32) span=from_string:113:526 */ = %x_501;
  let %x_521: (Tensor[(10, 20), float16], (Tensor[(19, 10), float16], Tensor[(19, 10), float16]), (Tensor[(10, 92, 1), float16], Tensor[(10, 59, 1), float16]), (Tensor[(1, 1, 399), float16], Tensor[(1, 1, 798), float16]), Tensor[(1), float32], int32) /* ty=(Tensor[(10, 20), float16], (Tensor[(19, 10), float16], Tensor[(19, 10), float16]), (Tensor[(10, 92, 1), float16], Tensor[(10, 59, 1), float16]), (Tensor[(1, 1, 399), float16], Tensor[(1, 1, 798), float16]), Tensor[(1), float32], int32) span=from_string:114:526 */ = %x_512;
  let %x_531: (Tensor[(10, 20), float16], (Tensor[(19, 10), float16], Tensor[(19, 10), float16]), (Tensor[(10, 92, 1), float16], Tensor[(10, 59, 1), float16]), (Tensor[(1, 1, 399), float16], Tensor[(1, 1, 798), float16]), Tensor[(1), float32], int32) /* ty=(Tensor[(10, 20), float16], (Tensor[(19, 10), float16], Tensor[(19, 10), float16]), (Tensor[(10, 92, 1), float16], Tensor[(10, 59, 1), float16]), (Tensor[(1, 1, 399), float16], Tensor[(1, 1, 798), float16]), Tensor[(1), float32], int32) span=from_string:115:526 */ = %x_521;
  let %x_541: (Tensor[(10, 20), float16], (Tensor[(19, 10), float16], Tensor[(19, 10), float16]), (Tensor[(10, 92, 1), float16], Tensor[(10, 59, 1), float16]), (Tensor[(1, 1, 399), float16], Tensor[(1, 1, 798), float16]), Tensor[(1), float32], int32) /* ty=(Tensor[(10, 20), float16], (Tensor[(19, 10), float16], Tensor[(19, 10), float16]), (Tensor[(10, 92, 1), float16], Tensor[(10, 59, 1), float16]), (Tensor[(1, 1, 399), float16], Tensor[(1, 1, 798), float16]), Tensor[(1), float32], int32) span=from_string:116:526 */ = %x_531;
  let %x_551: (Tensor[(10, 20), float16], (Tensor[(19, 10), float16], Tensor[(19, 10), float16]), (Tensor[(10, 92, 1), float16], Tensor[(10, 59, 1), float16]), (Tensor[(1, 1, 399), float16], Tensor[(1, 1, 798), float16]), Tensor[(1), float32], int32) /* ty=(Tensor[(10, 20), float16], (Tensor[(19, 10), float16], Tensor[(19, 10), float16]), (Tensor[(10, 92, 1), float16], Tensor[(10, 59, 1), float16]), (Tensor[(1, 1, 399), float16], Tensor[(1, 1, 798), float16]), Tensor[(1), float32], int32) span=from_string:117:526 */ = %x_541;
  let %x_561: (Tensor[(10, 20), float16], (Tensor[(19, 10), float16], Tensor[(19, 10), float16]), (Tensor[(10, 92, 1), float16], Tensor[(10, 59, 1), float16]), (Tensor[(1, 1, 399), float16], Tensor[(1, 1, 798), float16]), Tensor[(1), float32], int32) /* ty=(Tensor[(10, 20), float16], (Tensor[(19, 10), float16], Tensor[(19, 10), float16]), (Tensor[(10, 92, 1), float16], Tensor[(10, 59, 1), float16]), (Tensor[(1, 1, 399), float16], Tensor[(1, 1, 798), float16]), Tensor[(1), float32], int32) span=from_string:118:526 */ = %x_551;
  let %x_571: (Tensor[(10, 20), float16], (Tensor[(19, 10), float16], Tensor[(19, 10), float16]), (Tensor[(10, 92, 1), float16], Tensor[(10, 59, 1), float16]), (Tensor[(1, 1, 399), float16], Tensor[(1, 1, 798), float16]), Tensor[(1), float32], int32) /* ty=(Tensor[(10, 20), float16], (Tensor[(19, 10), float16], Tensor[(19, 10), float16]), (Tensor[(10, 92, 1), float16], Tensor[(10, 59, 1), float16]), (Tensor[(1, 1, 399), float16], Tensor[(1, 1, 798), float16]), Tensor[(1), float32], int32) span=from_string:119:525 */ = %x_561;
  let %x_58: (Tensor[(10, 20), float16], (Tensor[(19, 10), float16], Tensor[(19, 10), float16]), (Tensor[(10, 92, 1), float16], Tensor[(10, 59, 1), float16]), (Tensor[(1, 1, 399), float16], Tensor[(1, 1, 798), float16]), Tensor[(1), float32], int32) /* ty=(Tensor[(10, 20), float16], (Tensor[(19, 10), float16], Tensor[(19, 10), float16]), (Tensor[(10, 92, 1), float16], Tensor[(10, 59, 1), float16]), (Tensor[(1, 1, 399), float16], Tensor[(1, 1, 798), float16]), Tensor[(1), float32], int32) span=from_string:120:525 */ = %x_571;
  let %x_59: (Tensor[(10, 20), float16], (Tensor[(19, 10), float16], Tensor[(19, 10), float16]), (Tensor[(10, 92, 1), float16], Tensor[(10, 59, 1), float16]), (Tensor[(1, 1, 399), float16], Tensor[(1, 1, 798), float16]), Tensor[(1), float32], int32) /* ty=(Tensor[(10, 20), float16], (Tensor[(19, 10), float16], Tensor[(19, 10), float16]), (Tensor[(10, 92, 1), float16], Tensor[(10, 59, 1), float16]), (Tensor[(1, 1, 399), float16], Tensor[(1, 1, 798), float16]), Tensor[(1), float32], int32) span=from_string:121:525 */ = %x_58;
  let %x_60: (Tensor[(10, 20), float16], (Tensor[(19, 10), float16], Tensor[(19, 10), float16]), (Tensor[(10, 92, 1), float16], Tensor[(10, 59, 1), float16]), (Tensor[(1, 1, 399), float16], Tensor[(1, 1, 798), float16]), Tensor[(1), float32], int32) /* ty=(Tensor[(10, 20), float16], (Tensor[(19, 10), float16], Tensor[(19, 10), float16]), (Tensor[(10, 92, 1), float16], Tensor[(10, 59, 1), float16]), (Tensor[(1, 1, 399), float16], Tensor[(1, 1, 798), float16]), Tensor[(1), float32], int32) span=from_string:122:526 */ = %x_59;
  let %x_611: (Tensor[(10, 20), float16], (Tensor[(19, 10), float16], Tensor[(19, 10), float16]), (Tensor[(10, 92, 1), float16], Tensor[(10, 59, 1), float16]), (Tensor[(1, 1, 399), float16], Tensor[(1, 1, 798), float16]), Tensor[(1), float32], int32) /* ty=(Tensor[(10, 20), float16], (Tensor[(19, 10), float16], Tensor[(19, 10), float16]), (Tensor[(10, 92, 1), float16], Tensor[(10, 59, 1), float16]), (Tensor[(1, 1, 399), float16], Tensor[(1, 1, 798), float16]), Tensor[(1), float32], int32) span=from_string:123:525 */ = %x_60;
  let %x_62: (Tensor[(10, 20), float16], (Tensor[(19, 10), float16], Tensor[(19, 10), float16]), (Tensor[(10, 92, 1), float16], Tensor[(10, 59, 1), float16]), (Tensor[(1, 1, 399), float16], Tensor[(1, 1, 798), float16]), Tensor[(1), float32], int32) /* ty=(Tensor[(10, 20), float16], (Tensor[(19, 10), float16], Tensor[(19, 10), float16]), (Tensor[(10, 92, 1), float16], Tensor[(10, 59, 1), float16]), (Tensor[(1, 1, 399), float16], Tensor[(1, 1, 798), float16]), Tensor[(1), float32], int32) span=from_string:124:525 */ = %x_611;
  let %x_63: (Tensor[(10, 20), float16], (Tensor[(19, 10), float16], Tensor[(19, 10), float16]), (Tensor[(10, 92, 1), float16], Tensor[(10, 59, 1), float16]), (Tensor[(1, 1, 399), float16], Tensor[(1, 1, 798), float16]), Tensor[(1), float32], int32) /* ty=(Tensor[(10, 20), float16], (Tensor[(19, 10), float16], Tensor[(19, 10), float16]), (Tensor[(10, 92, 1), float16], Tensor[(10, 59, 1), float16]), (Tensor[(1, 1, 399), float16], Tensor[(1, 1, 798), float16]), Tensor[(1), float32], int32) span=from_string:125:525 */ = %x_62;
  let %x_64: (Tensor[(10, 20), float16], (Tensor[(19, 10), float16], Tensor[(19, 10), float16]), (Tensor[(10, 92, 1), float16], Tensor[(10, 59, 1), float16]), (Tensor[(1, 1, 399), float16], Tensor[(1, 1, 798), float16]), Tensor[(1), float32], int32) /* ty=(Tensor[(10, 20), float16], (Tensor[(19, 10), float16], Tensor[(19, 10), float16]), (Tensor[(10, 92, 1), float16], Tensor[(10, 59, 1), float16]), (Tensor[(1, 1, 399), float16], Tensor[(1, 1, 798), float16]), Tensor[(1), float32], int32) span=from_string:126:525 */ = %x_63;
  let %x_65: (Tensor[(10, 20), float16], (Tensor[(19, 10), float16], Tensor[(19, 10), float16]), (Tensor[(10, 92, 1), float16], Tensor[(10, 59, 1), float16]), (Tensor[(1, 1, 399), float16], Tensor[(1, 1, 798), float16]), Tensor[(1), float32], int32) /* ty=(Tensor[(10, 20), float16], (Tensor[(19, 10), float16], Tensor[(19, 10), float16]), (Tensor[(10, 92, 1), float16], Tensor[(10, 59, 1), float16]), (Tensor[(1, 1, 399), float16], Tensor[(1, 1, 798), float16]), Tensor[(1), float32], int32) span=from_string:127:525 */ = %x_64;
  let %x_66: (Tensor[(10, 20), float16], (Tensor[(19, 10), float16], Tensor[(19, 10), float16]), (Tensor[(10, 92, 1), float16], Tensor[(10, 59, 1), float16]), (Tensor[(1, 1, 399), float16], Tensor[(1, 1, 798), float16]), Tensor[(1), float32], int32) /* ty=(Tensor[(10, 20), float16], (Tensor[(19, 10), float16], Tensor[(19, 10), float16]), (Tensor[(10, 92, 1), float16], Tensor[(10, 59, 1), float16]), (Tensor[(1, 1, 399), float16], Tensor[(1, 1, 798), float16]), Tensor[(1), float32], int32) span=from_string:128:525 */ = %x_65;
  let %x_67: (Tensor[(10, 20), float16], (Tensor[(19, 10), float16], Tensor[(19, 10), float16]), (Tensor[(10, 92, 1), float16], Tensor[(10, 59, 1), float16]), (Tensor[(1, 1, 399), float16], Tensor[(1, 1, 798), float16]), Tensor[(1), float32], int32) /* ty=(Tensor[(10, 20), float16], (Tensor[(19, 10), float16], Tensor[(19, 10), float16]), (Tensor[(10, 92, 1), float16], Tensor[(10, 59, 1), float16]), (Tensor[(1, 1, 399), float16], Tensor[(1, 1, 798), float16]), Tensor[(1), float32], int32) span=from_string:129:525 */ = %x_66;
  let %x_68: (Tensor[(10, 20), float16], (Tensor[(19, 10), float16], Tensor[(19, 10), float16]), (Tensor[(10, 92, 1), float16], Tensor[(10, 59, 1), float16]), (Tensor[(1, 1, 399), float16], Tensor[(1, 1, 798), float16]), Tensor[(1), float32], int32) /* ty=(Tensor[(10, 20), float16], (Tensor[(19, 10), float16], Tensor[(19, 10), float16]), (Tensor[(10, 92, 1), float16], Tensor[(10, 59, 1), float16]), (Tensor[(1, 1, 399), float16], Tensor[(1, 1, 798), float16]), Tensor[(1), float32], int32) span=from_string:130:525 */ = %x_67;
  let %x_69: (Tensor[(10, 20), float16], (Tensor[(19, 10), float16], Tensor[(19, 10), float16]), (Tensor[(10, 92, 1), float16], Tensor[(10, 59, 1), float16]), (Tensor[(1, 1, 399), float16], Tensor[(1, 1, 798), float16]), Tensor[(1), float32], int32) /* ty=(Tensor[(10, 20), float16], (Tensor[(19, 10), float16], Tensor[(19, 10), float16]), (Tensor[(10, 92, 1), float16], Tensor[(10, 59, 1), float16]), (Tensor[(1, 1, 399), float16], Tensor[(1, 1, 798), float16]), Tensor[(1), float32], int32) span=from_string:131:525 */ = %x_68;
  let %x_70: (Tensor[(10, 20), float16], (Tensor[(19, 10), float16], Tensor[(19, 10), float16]), (Tensor[(10, 92, 1), float16], Tensor[(10, 59, 1), float16]), (Tensor[(1, 1, 399), float16], Tensor[(1, 1, 798), float16]), Tensor[(1), float32], int32) /* ty=(Tensor[(10, 20), float16], (Tensor[(19, 10), float16], Tensor[(19, 10), float16]), (Tensor[(10, 92, 1), float16], Tensor[(10, 59, 1), float16]), (Tensor[(1, 1, 399), float16], Tensor[(1, 1, 798), float16]), Tensor[(1), float32], int32) span=from_string:132:526 */ = %x_69;
  let %x_711: (Tensor[(10, 20), float16], (Tensor[(19, 10), float16], Tensor[(19, 10), float16]), (Tensor[(10, 92, 1), float16], Tensor[(10, 59, 1), float16]), (Tensor[(1, 1, 399), float16], Tensor[(1, 1, 798), float16]), Tensor[(1), float32], int32) /* ty=(Tensor[(10, 20), float16], (Tensor[(19, 10), float16], Tensor[(19, 10), float16]), (Tensor[(10, 92, 1), float16], Tensor[(10, 59, 1), float16]), (Tensor[(1, 1, 399), float16], Tensor[(1, 1, 798), float16]), Tensor[(1), float32], int32) span=from_string:133:525 */ = %x_70;
  let %x_72: (Tensor[(10, 20), float16], (Tensor[(19, 10), float16], Tensor[(19, 10), float16]), (Tensor[(10, 92, 1), float16], Tensor[(10, 59, 1), float16]), (Tensor[(1, 1, 399), float16], Tensor[(1, 1, 798), float16]), Tensor[(1), float32], int32) /* ty=(Tensor[(10, 20), float16], (Tensor[(19, 10), float16], Tensor[(19, 10), float16]), (Tensor[(10, 92, 1), float16], Tensor[(10, 59, 1), float16]), (Tensor[(1, 1, 399), float16], Tensor[(1, 1, 798), float16]), Tensor[(1), float32], int32) span=from_string:134:525 */ = %x_711;
  let %x_73: (Tensor[(10, 20), float16], (Tensor[(19, 10), float16], Tensor[(19, 10), float16]), (Tensor[(10, 92, 1), float16], Tensor[(10, 59, 1), float16]), (Tensor[(1, 1, 399), float16], Tensor[(1, 1, 798), float16]), Tensor[(1), float32], int32) /* ty=(Tensor[(10, 20), float16], (Tensor[(19, 10), float16], Tensor[(19, 10), float16]), (Tensor[(10, 92, 1), float16], Tensor[(10, 59, 1), float16]), (Tensor[(1, 1, 399), float16], Tensor[(1, 1, 798), float16]), Tensor[(1), float32], int32) span=from_string:135:525 */ = %x_72;
  let %x_74: (Tensor[(10, 20), float16], (Tensor[(19, 10), float16], Tensor[(19, 10), float16]), (Tensor[(10, 92, 1), float16], Tensor[(10, 59, 1), float16]), (Tensor[(1, 1, 399), float16], Tensor[(1, 1, 798), float16]), Tensor[(1), float32], int32) /* ty=(Tensor[(10, 20), float16], (Tensor[(19, 10), float16], Tensor[(19, 10), float16]), (Tensor[(10, 92, 1), float16], Tensor[(10, 59, 1), float16]), (Tensor[(1, 1, 399), float16], Tensor[(1, 1, 798), float16]), Tensor[(1), float32], int32) span=from_string:136:525 */ = %x_73;
  let %x_75: (Tensor[(10, 20), float16], (Tensor[(19, 10), float16], Tensor[(19, 10), float16]), (Tensor[(10, 92, 1), float16], Tensor[(10, 59, 1), float16]), (Tensor[(1, 1, 399), float16], Tensor[(1, 1, 798), float16]), Tensor[(1), float32], int32) /* ty=(Tensor[(10, 20), float16], (Tensor[(19, 10), float16], Tensor[(19, 10), float16]), (Tensor[(10, 92, 1), float16], Tensor[(10, 59, 1), float16]), (Tensor[(1, 1, 399), float16], Tensor[(1, 1, 798), float16]), Tensor[(1), float32], int32) span=from_string:137:525 */ = %x_74;
  let %x_76: (Tensor[(10, 20), float16], (Tensor[(19, 10), float16], Tensor[(19, 10), float16]), (Tensor[(10, 92, 1), float16], Tensor[(10, 59, 1), float16]), (Tensor[(1, 1, 399), float16], Tensor[(1, 1, 798), float16]), Tensor[(1), float32], int32) /* ty=(Tensor[(10, 20), float16], (Tensor[(19, 10), float16], Tensor[(19, 10), float16]), (Tensor[(10, 92, 1), float16], Tensor[(10, 59, 1), float16]), (Tensor[(1, 1, 399), float16], Tensor[(1, 1, 798), float16]), Tensor[(1), float32], int32) span=from_string:138:525 */ = %x_75;
  let %x_77: (Tensor[(10, 20), float16], (Tensor[(19, 10), float16], Tensor[(19, 10), float16]), (Tensor[(10, 92, 1), float16], Tensor[(10, 59, 1), float16]), (Tensor[(1, 1, 399), float16], Tensor[(1, 1, 798), float16]), Tensor[(1), float32], int32) /* ty=(Tensor[(10, 20), float16], (Tensor[(19, 10), float16], Tensor[(19, 10), float16]), (Tensor[(10, 92, 1), float16], Tensor[(10, 59, 1), float16]), (Tensor[(1, 1, 399), float16], Tensor[(1, 1, 798), float16]), Tensor[(1), float32], int32) span=from_string:139:525 */ = %x_76;
  let %x_78: (Tensor[(10, 20), float16], (Tensor[(19, 10), float16], Tensor[(19, 10), float16]), (Tensor[(10, 92, 1), float16], Tensor[(10, 59, 1), float16]), (Tensor[(1, 1, 399), float16], Tensor[(1, 1, 798), float16]), Tensor[(1), float32], int32) /* ty=(Tensor[(10, 20), float16], (Tensor[(19, 10), float16], Tensor[(19, 10), float16]), (Tensor[(10, 92, 1), float16], Tensor[(10, 59, 1), float16]), (Tensor[(1, 1, 399), float16], Tensor[(1, 1, 798), float16]), Tensor[(1), float32], int32) span=from_string:140:525 */ = %x_77;
  let %x_79: (Tensor[(10, 20), float16], (Tensor[(19, 10), float16], Tensor[(19, 10), float16]), (Tensor[(10, 92, 1), float16], Tensor[(10, 59, 1), float16]), (Tensor[(1, 1, 399), float16], Tensor[(1, 1, 798), float16]), Tensor[(1), float32], int32) /* ty=(Tensor[(10, 20), float16], (Tensor[(19, 10), float16], Tensor[(19, 10), float16]), (Tensor[(10, 92, 1), float16], Tensor[(10, 59, 1), float16]), (Tensor[(1, 1, 399), float16], Tensor[(1, 1, 798), float16]), Tensor[(1), float32], int32) span=from_string:141:525 */ = %x_78;
  let %x_80: (Tensor[(10, 20), float16], (Tensor[(19, 10), float16], Tensor[(19, 10), float16]), (Tensor[(10, 92, 1), float16], Tensor[(10, 59, 1), float16]), (Tensor[(1, 1, 399), float16], Tensor[(1, 1, 798), float16]), Tensor[(1), float32], int32) /* ty=(Tensor[(10, 20), float16], (Tensor[(19, 10), float16], Tensor[(19, 10), float16]), (Tensor[(10, 92, 1), float16], Tensor[(10, 59, 1), float16]), (Tensor[(1, 1, 399), float16], Tensor[(1, 1, 798), float16]), Tensor[(1), float32], int32) span=from_string:142:525 */ = %x_79;
  let %x_811: (Tensor[(10, 20), float16], (Tensor[(19, 10), float16], Tensor[(19, 10), float16]), (Tensor[(10, 92, 1), float16], Tensor[(10, 59, 1), float16]), (Tensor[(1, 1, 399), float16], Tensor[(1, 1, 798), float16]), Tensor[(1), float32], int32) /* ty=(Tensor[(10, 20), float16], (Tensor[(19, 10), float16], Tensor[(19, 10), float16]), (Tensor[(10, 92, 1), float16], Tensor[(10, 59, 1), float16]), (Tensor[(1, 1, 399), float16], Tensor[(1, 1, 798), float16]), Tensor[(1), float32], int32) span=from_string:143:3 */ = %x_80;
  %x_811
}
