#[version = "0.0.5"]
def @main(%x0: Tensor[(10, 20), float32] /* ty=Tensor[(10, 20), float32] span=from_string:3:104 */, %x1: Tensor[(19, 20), float32] /* ty=Tensor[(19, 20), float32] span=from_string:16:106 */, %x2: Tensor[(10, 20), float32] /* ty=Tensor[(10, 20), float32] span=from_string:28:107 */, %x3: Tensor[(10), float32] /* ty=Tensor[(10), float32] span=from_string:25:98 */, %x4: Tensor[(10), float32] /* ty=Tensor[(10), float32] span=from_string:31:98 */, %x5: Tensor[(92, 20), float32] /* ty=Tensor[(92, 20), float32] span=from_string:41:107 */, %x6: Tensor[(59, 20), float32] /* ty=Tensor[(59, 20), float32] span=from_string:45:107 */, %x7: Tensor[(21, 10), float32] /* ty=Tensor[(21, 10), float32] span=from_string:50:107 */, %x8: Tensor[(21), float32] /* ty=Tensor[(21), float32] span=from_string:53:98 */, %x9: Tensor[(1), float32] /* ty=Tensor[(1), float32] span=from_string:56:96 */, %x10: Tensor[(42, 10), float32] /* ty=Tensor[(42, 10), float32] span=from_string:60:107 */, %x11: Tensor[(42), float32] /* ty=Tensor[(42), float32] span=from_string:63:98 */, %x12: Tensor[(1), float32] /* ty=Tensor[(1), float32] span=from_string:71:554 */, %x13: Tensor[(10, 59, 1), float32] /* ty=Tensor[(10, 59, 1), float32] */) -> (Tensor[(10, 20), float16], (Tensor[(19, 10), float16], Tensor[(19, 10), float16]), (Tensor[(10, 92, 1), float16], Tensor[(10, 59, 1), float16]), (Tensor[(1, 1, 399), float16], Tensor[(1, 1, 798), float16]), Tensor[(1), float32], int32) {
  let %x_0: Tensor[(10, 20), float16] /* ty=Tensor[(10, 20), float16] span=from_string:4:106 */ = cast(%x0, dtype="float16") /* ty=Tensor[(10, 20), float16] span=from_string:3:99 */;
  let %x_01: Tensor[(10, 20), float16] /* ty=Tensor[(10, 20), float16] span=from_string:18:105 */ = cast(%x_0, dtype="float16") /* ty=Tensor[(10, 20), float16] span=from_string:4:101 */;
  let %x_3: Tensor[(10, 20), float16] /* ty=Tensor[(10, 20), float16] span=from_string:6:104 */ = add(%x_01, 1f16 /* ty=float16 span=from_string:5:114 */) /* ty=Tensor[(10, 20), float16] span=from_string:5:99 */;
  let %x_4: Tensor[(10, 20), float32] /* ty=Tensor[(10, 20), float32] span=from_string:7:108 */ = cast(%x_3, dtype="float32") /* ty=Tensor[(10, 20), float32] span=from_string:6:99 */;
  let %x_5: Tensor[(10, 20), float32] /* ty=Tensor[(10, 20), float32] span=from_string:8:105 */ = fast_exp(%x_4) /* ty=Tensor[(10, 20), float32] span=from_string:7:99 */;
  let %x_21: Tensor[(10, 20), float16] /* ty=Tensor[(10, 20), float16] span=from_string:9:108 */ = cast(%x_5, dtype="float16") /* ty=Tensor[(10, 20), float16] span=from_string:8:100 */;
  let %x_6: Tensor[(10, 20), float16] /* ty=Tensor[(10, 20), float16] span=from_string:10:104 */ = squeeze(%x_21) /* ty=Tensor[(10, 20), float16] span=from_string:9:100 */;
  let %x_8: Tensor[(10, 20), float16] /* ty=Tensor[(10, 20), float16] span=from_string:11:106 */ = add(%x_6, 1f16 /* ty=float16 span=from_string:10:114 */) /* ty=Tensor[(10, 20), float16] span=from_string:10:100 */;
  let %x_41: Tensor[(10, 20), float32] /* ty=Tensor[(10, 20), float32] span=from_string:12:109 */ = cast(%x_8, dtype="float32") /* ty=Tensor[(10, 20), float32] span=from_string:11:101 */;
  let %x_9: Tensor[(10, 20), float32] /* ty=Tensor[(10, 20), float32] span=from_string:13:106 */ = fast_exp(%x_41) /* ty=Tensor[(10, 20), float32] span=from_string:12:100 */;
  let %x_51: Tensor[(10, 20), float16] /* ty=Tensor[(10, 20), float16] span=from_string:14:109 */ = cast(%x_9, dtype="float16") /* ty=Tensor[(10, 20), float16] span=from_string:13:101 */;
  let %x_10: Tensor[(10, 20), float16] /* ty=Tensor[(10, 20), float16] span=from_string:15:111 */ = squeeze(%x_51) /* ty=Tensor[(10, 20), float16] span=from_string:14:101 */;
  let %x_12: Tensor[(10, 20), float16] /* ty=Tensor[(10, 20), float16] span=from_string:71:526 */ = multiply(%x_10, 2f16 /* ty=float16 span=from_string:15:122 */) /* ty=Tensor[(10, 20), float16] span=from_string:15:102 */;
  let %x_71: Tensor[(19, 20), float16] /* ty=Tensor[(19, 20), float16] span=from_string:17:106 */ = cast(%x1, dtype="float16") /* ty=Tensor[(19, 20), float16] span=from_string:16:101 */;
  let %x_13: Tensor[(19, 20), float16] /* ty=Tensor[(19, 20), float16] span=from_string:30:110 */ = cast(%x_71, dtype="float16") /* ty=Tensor[(19, 20), float16] span=from_string:17:101 */;
  let %x_16: Tensor[(10, 20), float16] /* ty=Tensor[(10, 20), float16] span=from_string:19:106 */ = add(%x_01, 1f16 /* ty=float16 span=from_string:18:116 */) /* ty=Tensor[(10, 20), float16] span=from_string:18:101 */;
  let %x_17: Tensor[(10, 20), float32] /* ty=Tensor[(10, 20), float32] span=from_string:20:110 */ = cast(%x_16, dtype="float32") /* ty=Tensor[(10, 20), float32] span=from_string:19:101 */;
  let %x_18: Tensor[(10, 20), float32] /* ty=Tensor[(10, 20), float32] span=from_string:21:106 */ = fast_exp(%x_17) /* ty=Tensor[(10, 20), float32] span=from_string:20:101 */;
  let %x_91: Tensor[(10, 20), float16] /* ty=Tensor[(10, 20), float16] span=from_string:35:105 */ = cast(%x_18, dtype="float16") /* ty=Tensor[(10, 20), float16] span=from_string:21:101 */;
  let %x_19: Tensor[(10, 20), float16] /* ty=Tensor[(10, 20), float16] span=from_string:23:106 */ = squeeze(%x_91) /* ty=Tensor[(10, 20), float16] span=from_string:22:101 */;
  let %x_20: Tensor[(10, 20), float16] /* ty=Tensor[(10, 20), float16] span=from_string:24:118 */ = cast(%x_19, dtype="float16") /* ty=Tensor[(10, 20), float16] span=from_string:23:101 */;
  let %x_211: Tensor[(19, 10), float16] /* ty=Tensor[(19, 10), float16] span=from_string:27:105 */ = nn.dense(%x_13, %x_20, units=None, out_dtype="float16") /* ty=Tensor[(19, 10), float16] span=from_string:24:102 */;
  let %x_101: Tensor[(10), float16] /* ty=Tensor[(10), float16] span=from_string:26:98 */ = cast(%x3, dtype="float16") /* ty=Tensor[(10), float16] span=from_string:25:93 */;
  let %x_22: Tensor[(10), float16] /* ty=Tensor[(10), float16] span=from_string:27:113 */ = cast(%x_101, dtype="float16") /* ty=Tensor[(10), float16] span=from_string:26:93 */;
  let %x_23: Tensor[(19, 10), float16] /* ty=Tensor[(19, 10), float16] span=from_string:62:110 */ = add(%x_211, %x_22) /* ty=Tensor[(19, 10), float16] span=from_string:27:101 */;
  let %x_112: Tensor[(10, 20), float16] /* ty=Tensor[(10, 20), float16] span=from_string:29:106 */ = cast(%x2, dtype="float16") /* ty=Tensor[(10, 20), float16] span=from_string:28:102 */;
  let %x_24: Tensor[(10, 20), float16] /* ty=Tensor[(10, 20), float16] span=from_string:30:117 */ = cast(%x_112, dtype="float16") /* ty=Tensor[(10, 20), float16] span=from_string:29:101 */;
  let %x_25: Tensor[(19, 10), float16] /* ty=Tensor[(19, 10), float16] span=from_string:33:105 */ = nn.dense(%x_13, %x_24, units=None, out_dtype="float16") /* ty=Tensor[(19, 10), float16] span=from_string:30:101 */;
  let %x_121: Tensor[(10), float16] /* ty=Tensor[(10), float16] span=from_string:32:98 */ = cast(%x4, dtype="float16") /* ty=Tensor[(10), float16] span=from_string:31:93 */;
  let %x_26: Tensor[(10), float16] /* ty=Tensor[(10), float16] span=from_string:33:112 */ = cast(%x_121, dtype="float16") /* ty=Tensor[(10), float16] span=from_string:32:93 */;
  let %x_27: Tensor[(19, 10), float16] /* ty=Tensor[(19, 10), float16] span=from_string:34:167 */ = add(%x_25, %x_26) /* ty=Tensor[(19, 10), float16] span=from_string:33:101 */;
  let %x_28: (Tensor[(19, 10), float16], Tensor[(19, 10), float16]) /* ty=(Tensor[(19, 10), float16], Tensor[(19, 10), float16]) span=from_string:71:533 */ = (%x_23, %x_27) /* ty=(Tensor[(19, 10), float16], Tensor[(19, 10), float16]) span=from_string:34:159 */;
  let %x_30: Tensor[(10, 20), float16] /* ty=Tensor[(10, 20), float16] span=from_string:36:107 */ = add(%x_91, 1f16 /* ty=float16 span=from_string:35:116 */) /* ty=Tensor[(10, 20), float16] span=from_string:35:101 */;
  let %x_141: Tensor[(10, 20), float32] /* ty=Tensor[(10, 20), float32] span=from_string:37:111 */ = cast(%x_30, dtype="float32") /* ty=Tensor[(10, 20), float32] span=from_string:36:102 */;
  let %x_311: Tensor[(10, 20), float32] /* ty=Tensor[(10, 20), float32] span=from_string:38:107 */ = fast_exp(%x_141) /* ty=Tensor[(10, 20), float32] span=from_string:37:102 */;
  let %x_151: Tensor[(10, 20), float16] /* ty=Tensor[(10, 20), float16] span=from_string:39:109 */ = cast(%x_311, dtype="float16") /* ty=Tensor[(10, 20), float16] span=from_string:38:102 */;
  let %x_32: Tensor[(10, 20), float16] /* ty=Tensor[(10, 20), float16] span=from_string:40:106 */ = squeeze(%x_151) /* ty=Tensor[(10, 20), float16] span=from_string:39:101 */;
  let %x_33: Tensor[(10, 20), float16] /* ty=Tensor[(10, 20), float16] span=from_string:47:110 */ = cast(%x_32, dtype="float16") /* ty=Tensor[(10, 20), float16] span=from_string:40:101 */;
  let %x_161: Tensor[(92, 20), float16] /* ty=Tensor[(92, 20), float16] span=from_string:42:106 */ = cast(%x5, dtype="float16") /* ty=Tensor[(92, 20), float16] span=from_string:41:102 */;
  let %x_34: Tensor[(92, 20), float16] /* ty=Tensor[(92, 20), float16] span=from_string:43:117 */ = cast(%x_161, dtype="float16") /* ty=Tensor[(92, 20), float16] span=from_string:42:101 */;
  let %x_35: Tensor[(10, 92), float16] /* ty=Tensor[(10, 92), float16] span=from_string:44:119 */ = nn.dense(%x_33, %x_34, units=None, out_dtype="float16") /* ty=Tensor[(10, 92), float16] span=from_string:43:101 */;
  let %x_36: Tensor[(10, 92, 1), float16] /* ty=Tensor[(10, 92, 1), float16] span=from_string:49:172 */ = expand_dims(%x_35, axis=2) /* ty=Tensor[(10, 92, 1), float16] span=from_string:44:107 */;
  let %x_171: Tensor[(59, 20), float16] /* ty=Tensor[(59, 20), float16] span=from_string:46:106 */ = cast(%x6, dtype="float16") /* ty=Tensor[(59, 20), float16] span=from_string:45:102 */;
  let %x_37: Tensor[(59, 20), float16] /* ty=Tensor[(59, 20), float16] span=from_string:47:117 */ = cast(%x_171, dtype="float16") /* ty=Tensor[(59, 20), float16] span=from_string:46:101 */;
  let %x_38: Tensor[(10, 59), float16] /* ty=Tensor[(10, 59), float16] span=from_string:48:119 */ = nn.dense(%x_33, %x_37, units=None, out_dtype="float16") /* ty=Tensor[(10, 59), float16] span=from_string:47:101 */;
  let %x_39: Tensor[(10, 59, 1), float16] /* ty=Tensor[(10, 59, 1), float16] span=from_string:49:179 */ = expand_dims(%x_38, axis=2) /* ty=Tensor[(10, 59, 1), float16] span=from_string:48:107 */;
  let %x_40: (Tensor[(10, 92, 1), float16], Tensor[(10, 59, 1), float16]) /* ty=(Tensor[(10, 92, 1), float16], Tensor[(10, 59, 1), float16]) span=from_string:71:540 */ = (%x_36, %x_39) /* ty=(Tensor[(10, 92, 1), float16], Tensor[(10, 59, 1), float16]) span=from_string:49:171 */;
  let %x_181: Tensor[(21, 10), float16] /* ty=Tensor[(21, 10), float16] span=from_string:51:107 */ = cast(%x7, dtype="float16") /* ty=Tensor[(21, 10), float16] span=from_string:50:102 */;
  let %x_411: Tensor[(21, 10), float16] /* ty=Tensor[(21, 10), float16] span=from_string:52:117 */ = cast(%x_181, dtype="float16") /* ty=Tensor[(21, 10), float16] span=from_string:51:102 */;
  let %x_42: Tensor[(19, 21), float16] /* ty=Tensor[(19, 21), float16] span=from_string:55:105 */ = nn.dense(%x_23, %x_411, units=None, out_dtype="float16") /* ty=Tensor[(19, 21), float16] span=from_string:52:101 */;
  let %x_191: Tensor[(21), float16] /* ty=Tensor[(21), float16] span=from_string:54:98 */ = cast(%x8, dtype="float16") /* ty=Tensor[(21), float16] span=from_string:53:93 */;
  let %x_43: Tensor[(21), float16] /* ty=Tensor[(21), float16] span=from_string:55:112 */ = cast(%x_191, dtype="float16") /* ty=Tensor[(21), float16] span=from_string:54:93 */;
  let %x_44: Tensor[(19, 21), float16] /* ty=Tensor[(19, 21), float16] span=from_string:58:111 */ = add(%x_42, %x_43) /* ty=Tensor[(19, 21), float16] span=from_string:55:101 */;
  let %x_201: Tensor[(1), float16] /* ty=Tensor[(1), float16] span=from_string:57:96 */ = cast(%x9, dtype="float16") /* ty=Tensor[(1), float16] span=from_string:56:91 */;
  let %x_45: Tensor[(1), float16] /* ty=Tensor[(1), float16] span=from_string:58:118 */ = cast(%x_201, dtype="float16") /* ty=Tensor[(1), float16] span=from_string:57:91 */;
  let %x_46: Tensor[(19, 21), float16] /* ty=Tensor[(19, 21), float16] span=from_string:59:115 */ = multiply(%x_44, %x_45) /* ty=Tensor[(19, 21), float16] span=from_string:58:102 */;
  let %x_47: Tensor[(1, 1, 399), float16] /* ty=Tensor[(1, 1, 399), float16] span=from_string:70:172 */ = reshape(%x_46, newshape=[1, 1, 399]) /* ty=Tensor[(1, 1, 399), float16] span=from_string:59:107 */;
  let %x_212: Tensor[(42, 10), float16] /* ty=Tensor[(42, 10), float16] span=from_string:61:106 */ = cast(%x10, dtype="float16") /* ty=Tensor[(42, 10), float16] span=from_string:60:102 */;
  let %x_48: Tensor[(42, 10), float16] /* ty=Tensor[(42, 10), float16] span=from_string:62:117 */ = cast(%x_212, dtype="float16") /* ty=Tensor[(42, 10), float16] span=from_string:61:101 */;
  let %x_49: Tensor[(19, 42), float16] /* ty=Tensor[(19, 42), float16] span=from_string:65:106 */ = nn.dense(%x_23, %x_48, units=None, out_dtype="float16") /* ty=Tensor[(19, 42), float16] span=from_string:62:101 */;
  let %x_221: Tensor[(42), float16] /* ty=Tensor[(42), float16] span=from_string:64:98 */ = cast(%x11, dtype="float16") /* ty=Tensor[(42), float16] span=from_string:63:93 */;
  let %x_50: Tensor[(42), float16] /* ty=Tensor[(42), float16] span=from_string:65:113 */ = cast(%x_221, dtype="float16") /* ty=Tensor[(42), float16] span=from_string:64:93 */;
  let %x_511: Tensor[(19, 42), float16] /* ty=Tensor[(19, 42), float16] span=from_string:68:111 */ = add(%x_49, %x_50) /* ty=Tensor[(19, 42), float16] span=from_string:65:102 */;
  let %x_231: Tensor[(1), float16] /* ty=Tensor[(1), float16] span=from_string:67:96 */ = cast(%x12, dtype="float16") /* ty=Tensor[(1), float16] span=from_string:66:91 */;
  let %x_52: Tensor[(1), float16] /* ty=Tensor[(1), float16] span=from_string:68:119 */ = cast(%x_231, dtype="float16") /* ty=Tensor[(1), float16] span=from_string:67:91 */;
  let %x_53: Tensor[(19, 42), float16] /* ty=Tensor[(19, 42), float16] span=from_string:69:115 */ = multiply(%x_511, %x_52) /* ty=Tensor[(19, 42), float16] span=from_string:68:102 */;
  let %x_54: Tensor[(1, 1, 798), float16] /* ty=Tensor[(1, 1, 798), float16] span=from_string:70:179 */ = reshape(%x_53, newshape=[1, 1, 798]) /* ty=Tensor[(1, 1, 798), float16] span=from_string:69:107 */;
  let %x_55: (Tensor[(1, 1, 399), float16], Tensor[(1, 1, 798), float16]) /* ty=(Tensor[(1, 1, 399), float16], Tensor[(1, 1, 798), float16]) span=from_string:71:547 */ = (%x_47, %x_54) /* ty=(Tensor[(1, 1, 399), float16], Tensor[(1, 1, 798), float16]) span=from_string:70:171 */;
  let %x_57: (Tensor[(10, 20), float16], (Tensor[(19, 10), float16], Tensor[(19, 10), float16]), (Tensor[(10, 92, 1), float16], Tensor[(10, 59, 1), float16]), (Tensor[(1, 1, 399), float16], Tensor[(1, 1, 798), float16]), Tensor[(1), float32], int32) /* ty=(Tensor[(10, 20), float16], (Tensor[(19, 10), float16], Tensor[(19, 10), float16]), (Tensor[(10, 92, 1), float16], Tensor[(10, 59, 1), float16]), (Tensor[(1, 1, 399), float16], Tensor[(1, 1, 798), float16]), Tensor[(1), float32], int32) span=from_string:72:526 */ = (%x_12, %x_28, %x_40, %x_55, %x12, 590 /* ty=int32 span=from_string:71:563 */) /* ty=(Tensor[(10, 20), float16], (Tensor[(19, 10), float16], Tensor[(19, 10), float16]), (Tensor[(10, 92, 1), float16], Tensor[(10, 59, 1), float16]), (Tensor[(1, 1, 399), float16], Tensor[(1, 1, 798), float16]), Tensor[(1), float32], int32) span=from_string:71:525 */;
  let %x_241: (Tensor[(10, 20), float16], (Tensor[(19, 10), float16], Tensor[(19, 10), float16]), (Tensor[(10, 92, 1), float16], Tensor[(10, 59, 1), float16]), (Tensor[(1, 1, 399), float16], Tensor[(1, 1, 798), float16]), Tensor[(1), float32], int32) /* ty=(Tensor[(10, 20), float16], (Tensor[(19, 10), float16], Tensor[(19, 10), float16]), (Tensor[(10, 92, 1), float16], Tensor[(10, 59, 1), float16]), (Tensor[(1, 1, 399), float16], Tensor[(1, 1, 798), float16]), Tensor[(1), float32], int32) span=from_string:73:526 */ = %x_57;
  let %x_251: (Tensor[(10, 20), float16], (Tensor[(19, 10), float16], Tensor[(19, 10), float16]), (Tensor[(10, 92, 1), float16], Tensor[(10, 59, 1), float16]), (Tensor[(1, 1, 399), float16], Tensor[(1, 1, 798), float16]), Tensor[(1), float32], int32) /* ty=(Tensor[(10, 20), float16], (Tensor[(19, 10), float16], Tensor[(19, 10), float16]), (Tensor[(10, 92, 1), float16], Tensor[(10, 59, 1), float16]), (Tensor[(1, 1, 399), float16], Tensor[(1, 1, 798), float16]), Tensor[(1), float32], int32) span=from_string:74:526 */ = %x_241;
  let %x_261: (Tensor[(10, 20), float16], (Tensor[(19, 10), float16], Tensor[(19, 10), float16]), (Tensor[(10, 92, 1), float16], Tensor[(10, 59, 1), float16]), (Tensor[(1, 1, 399), float16], Tensor[(1, 1, 798), float16]), Tensor[(1), float32], int32) /* ty=(Tensor[(10, 20), float16], (Tensor[(19, 10), float16], Tensor[(19, 10), float16]), (Tensor[(10, 92, 1), float16], Tensor[(10, 59, 1), float16]), (Tensor[(1, 1, 399), float16], Tensor[(1, 1, 798), float16]), Tensor[(1), float32], int32) span=from_string:75:526 */ = %x_251;
  let %x_271: (Tensor[(10, 20), float16], (Tensor[(19, 10), float16], Tensor[(19, 10), float16]), (Tensor[(10, 92, 1), float16], Tensor[(10, 59, 1), float16]), (Tensor[(1, 1, 399), float16], Tensor[(1, 1, 798), float16]), Tensor[(1), float32], int32) /* ty=(Tensor[(10, 20), float16], (Tensor[(19, 10), float16], Tensor[(19, 10), float16]), (Tensor[(10, 92, 1), float16], Tensor[(10, 59, 1), float16]), (Tensor[(1, 1, 399), float16], Tensor[(1, 1, 798), float16]), Tensor[(1), float32], int32) span=from_string:76:526 */ = %x_261;
  let %x_281: (Tensor[(10, 20), float16], (Tensor[(19, 10), float16], Tensor[(19, 10), float16]), (Tensor[(10, 92, 1), float16], Tensor[(10, 59, 1), float16]), (Tensor[(1, 1, 399), float16], Tensor[(1, 1, 798), float16]), Tensor[(1), float32], int32) /* ty=(Tensor[(10, 20), float16], (Tensor[(19, 10), float16], Tensor[(19, 10), float16]), (Tensor[(10, 92, 1), float16], Tensor[(10, 59, 1), float16]), (Tensor[(1, 1, 399), float16], Tensor[(1, 1, 798), float16]), Tensor[(1), float32], int32) span=from_string:77:526 */ = %x_271;
  let %x_291: (Tensor[(10, 20), float16], (Tensor[(19, 10), float16], Tensor[(19, 10), float16]), (Tensor[(10, 92, 1), float16], Tensor[(10, 59, 1), float16]), (Tensor[(1, 1, 399), float16], Tensor[(1, 1, 798), float16]), Tensor[(1), float32], int32) /* ty=(Tensor[(10, 20), float16], (Tensor[(19, 10), float16], Tensor[(19, 10), float16]), (Tensor[(10, 92, 1), float16], Tensor[(10, 59, 1), float16]), (Tensor[(1, 1, 399), float16], Tensor[(1, 1, 798), float16]), Tensor[(1), float32], int32) span=from_string:78:526 */ = %x_281;
  let %x_301: (Tensor[(10, 20), float16], (Tensor[(19, 10), float16], Tensor[(19, 10), float16]), (Tensor[(10, 92, 1), float16], Tensor[(10, 59, 1), float16]), (Tensor[(1, 1, 399), float16], Tensor[(1, 1, 798), float16]), Tensor[(1), float32], int32) /* ty=(Tensor[(10, 20), float16], (Tensor[(19, 10), float16], Tensor[(19, 10), float16]), (Tensor[(10, 92, 1), float16], Tensor[(10, 59, 1), float16]), (Tensor[(1, 1, 399), float16], Tensor[(1, 1, 798), float16]), Tensor[(1), float32], int32) span=from_string:79:526 */ = %x_291;
  let %x_312: (Tensor[(10, 20), float16], (Tensor[(19, 10), float16], Tensor[(19, 10), float16]), (Tensor[(10, 92, 1), float16], Tensor[(10, 59, 1), float16]), (Tensor[(1, 1, 399), float16], Tensor[(1, 1, 798), float16]), Tensor[(1), float32], int32) /* ty=(Tensor[(10, 20), float16], (Tensor[(19, 10), float16], Tensor[(19, 10), float16]), (Tensor[(10, 92, 1), float16], Tensor[(10, 59, 1), float16]), (Tensor[(1, 1, 399), float16], Tensor[(1, 1, 798), float16]), Tensor[(1), float32], int32) span=from_string:80:526 */ = %x_301;
  let %x_321: (Tensor[(10, 20), float16], (Tensor[(19, 10), float16], Tensor[(19, 10), float16]), (Tensor[(10, 92, 1), float16], Tensor[(10, 59, 1), float16]), (Tensor[(1, 1, 399), float16], Tensor[(1, 1, 798), float16]), Tensor[(1), float32], int32) /* ty=(Tensor[(10, 20), float16], (Tensor[(19, 10), float16], Tensor[(19, 10), float16]), (Tensor[(10, 92, 1), float16], Tensor[(10, 59, 1), float16]), (Tensor[(1, 1, 399), float16], Tensor[(1, 1, 798), float16]), Tensor[(1), float32], int32) span=from_string:81:526 */ = %x_312;
  let %x_331: (Tensor[(10, 20), float16], (Tensor[(19, 10), float16], Tensor[(19, 10), float16]), (Tensor[(10, 92, 1), float16], Tensor[(10, 59, 1), float16]), (Tensor[(1, 1, 399), float16], Tensor[(1, 1, 798), float16]), Tensor[(1), float32], int32) /* ty=(Tensor[(10, 20), float16], (Tensor[(19, 10), float16], Tensor[(19, 10), float16]), (Tensor[(10, 92, 1), float16], Tensor[(10, 59, 1), float16]), (Tensor[(1, 1, 399), float16], Tensor[(1, 1, 798), float16]), Tensor[(1), float32], int32) span=from_string:82:526 */ = %x_321;
  let %x_341: (Tensor[(10, 20), float16], (Tensor[(19, 10), float16], Tensor[(19, 10), float16]), (Tensor[(10, 92, 1), float16], Tensor[(10, 59, 1), float16]), (Tensor[(1, 1, 399), float16], Tensor[(1, 1, 798), float16]), Tensor[(1), float32], int32) /* ty=(Tensor[(10, 20), float16], (Tensor[(19, 10), float16], Tensor[(19, 10), float16]), (Tensor[(10, 92, 1), float16], Tensor[(10, 59, 1), float16]), (Tensor[(1, 1, 399), float16], Tensor[(1, 1, 798), float16]), Tensor[(1), float32], int32) span=from_string:83:526 */ = %x_331;
  let %x_351: (Tensor[(10, 20), float16], (Tensor[(19, 10), float16], Tensor[(19, 10), float16]), (Tensor[(10, 92, 1), float16], Tensor[(10, 59, 1), float16]), (Tensor[(1, 1, 399), float16], Tensor[(1, 1, 798), float16]), Tensor[(1), float32], int32) /* ty=(Tensor[(10, 20), float16], (Tensor[(19, 10), float16], Tensor[(19, 10), float16]), (Tensor[(10, 92, 1), float16], Tensor[(10, 59, 1), float16]), (Tensor[(1, 1, 399), float16], Tensor[(1, 1, 798), float16]), Tensor[(1), float32], int32) span=from_string:84:526 */ = %x_341;
  let %x_361: (Tensor[(10, 20), float16], (Tensor[(19, 10), float16], Tensor[(19, 10), float16]), (Tensor[(10, 92, 1), float16], Tensor[(10, 59, 1), float16]), (Tensor[(1, 1, 399), float16], Tensor[(1, 1, 798), float16]), Tensor[(1), float32], int32) /* ty=(Tensor[(10, 20), float16], (Tensor[(19, 10), float16], Tensor[(19, 10), float16]), (Tensor[(10, 92, 1), float16], Tensor[(10, 59, 1), float16]), (Tensor[(1, 1, 399), float16], Tensor[(1, 1, 798), float16]), Tensor[(1), float32], int32) span=from_string:85:526 */ = %x_351;
  let %x_371: (Tensor[(10, 20), float16], (Tensor[(19, 10), float16], Tensor[(19, 10), float16]), (Tensor[(10, 92, 1), float16], Tensor[(10, 59, 1), float16]), (Tensor[(1, 1, 399), float16], Tensor[(1, 1, 798), float16]), Tensor[(1), float32], int32) /* ty=(Tensor[(10, 20), float16], (Tensor[(19, 10), float16], Tensor[(19, 10), float16]), (Tensor[(10, 92, 1), float16], Tensor[(10, 59, 1), float16]), (Tensor[(1, 1, 399), float16], Tensor[(1, 1, 798), float16]), Tensor[(1), float32], int32) span=from_string:86:526 */ = %x_361;
  let %x_381: (Tensor[(10, 20), float16], (Tensor[(19, 10), float16], Tensor[(19, 10), float16]), (Tensor[(10, 92, 1), float16], Tensor[(10, 59, 1), float16]), (Tensor[(1, 1, 399), float16], Tensor[(1, 1, 798), float16]), Tensor[(1), float32], int32) /* ty=(Tensor[(10, 20), float16], (Tensor[(19, 10), float16], Tensor[(19, 10), float16]), (Tensor[(10, 92, 1), float16], Tensor[(10, 59, 1), float16]), (Tensor[(1, 1, 399), float16], Tensor[(1, 1, 798), float16]), Tensor[(1), float32], int32) span=from_string:87:526 */ = %x_371;
  let %x_391: (Tensor[(10, 20), float16], (Tensor[(19, 10), float16], Tensor[(19, 10), float16]), (Tensor[(10, 92, 1), float16], Tensor[(10, 59, 1), float16]), (Tensor[(1, 1, 399), float16], Tensor[(1, 1, 798), float16]), Tensor[(1), float32], int32) /* ty=(Tensor[(10, 20), float16], (Tensor[(19, 10), float16], Tensor[(19, 10), float16]), (Tensor[(10, 92, 1), float16], Tensor[(10, 59, 1), float16]), (Tensor[(1, 1, 399), float16], Tensor[(1, 1, 798), float16]), Tensor[(1), float32], int32) span=from_string:88:526 */ = %x_381;
  let %x_401: (Tensor[(10, 20), float16], (Tensor[(19, 10), float16], Tensor[(19, 10), float16]), (Tensor[(10, 92, 1), float16], Tensor[(10, 59, 1), float16]), (Tensor[(1, 1, 399), float16], Tensor[(1, 1, 798), float16]), Tensor[(1), float32], int32) /* ty=(Tensor[(10, 20), float16], (Tensor[(19, 10), float16], Tensor[(19, 10), float16]), (Tensor[(10, 92, 1), float16], Tensor[(10, 59, 1), float16]), (Tensor[(1, 1, 399), float16], Tensor[(1, 1, 798), float16]), Tensor[(1), float32], int32) span=from_string:89:526 */ = %x_391;
  let %x_412: (Tensor[(10, 20), float16], (Tensor[(19, 10), float16], Tensor[(19, 10), float16]), (Tensor[(10, 92, 1), float16], Tensor[(10, 59, 1), float16]), (Tensor[(1, 1, 399), float16], Tensor[(1, 1, 798), float16]), Tensor[(1), float32], int32) /* ty=(Tensor[(10, 20), float16], (Tensor[(19, 10), float16], Tensor[(19, 10), float16]), (Tensor[(10, 92, 1), float16], Tensor[(10, 59, 1), float16]), (Tensor[(1, 1, 399), float16], Tensor[(1, 1, 798), float16]), Tensor[(1), float32], int32) span=from_string:90:526 */ = %x_401;
  let %x_421: (Tensor[(10, 20), float16], (Tensor[(19, 10), float16], Tensor[(19, 10), float16]), (Tensor[(10, 92, 1), float16], Tensor[(10, 59, 1), float16]), (Tensor[(1, 1, 399), float16], Tensor[(1, 1, 798), float16]), Tensor[(1), float32], int32) /* ty=(Tensor[(10, 20), float16], (Tensor[(19, 10), float16], Tensor[(19, 10), float16]), (Tensor[(10, 92, 1), float16], Tensor[(10, 59, 1), float16]), (Tensor[(1, 1, 399), float16], Tensor[(1, 1, 798), float16]), Tensor[(1), float32], int32) span=from_string:91:526 */ = %x_412;
  let %x_431: (Tensor[(10, 20), float16], (Tensor[(19, 10), float16], Tensor[(19, 10), float16]), (Tensor[(10, 92, 1), float16], Tensor[(10, 59, 1), float16]), (Tensor[(1, 1, 399), float16], Tensor[(1, 1, 798), float16]), Tensor[(1), float32], int32) /* ty=(Tensor[(10, 20), float16], (Tensor[(19, 10), float16], Tensor[(19, 10), float16]), (Tensor[(10, 92, 1), float16], Tensor[(10, 59, 1), float16]), (Tensor[(1, 1, 399), float16], Tensor[(1, 1, 798), float16]), Tensor[(1), float32], int32) span=from_string:92:526 */ = %x_421;
  let %x_441: (Tensor[(10, 20), float16], (Tensor[(19, 10), float16], Tensor[(19, 10), float16]), (Tensor[(10, 92, 1), float16], Tensor[(10, 59, 1), float16]), (Tensor[(1, 1, 399), float16], Tensor[(1, 1, 798), float16]), Tensor[(1), float32], int32) /* ty=(Tensor[(10, 20), float16], (Tensor[(19, 10), float16], Tensor[(19, 10), float16]), (Tensor[(10, 92, 1), float16], Tensor[(10, 59, 1), float16]), (Tensor[(1, 1, 399), float16], Tensor[(1, 1, 798), float16]), Tensor[(1), float32], int32) span=from_string:93:526 */ = %x_431;
  let %x_451: (Tensor[(10, 20), float16], (Tensor[(19, 10), float16], Tensor[(19, 10), float16]), (Tensor[(10, 92, 1), float16], Tensor[(10, 59, 1), float16]), (Tensor[(1, 1, 399), float16], Tensor[(1, 1, 798), float16]), Tensor[(1), float32], int32) /* ty=(Tensor[(10, 20), float16], (Tensor[(19, 10), float16], Tensor[(19, 10), float16]), (Tensor[(10, 92, 1), float16], Tensor[(10, 59, 1), float16]), (Tensor[(1, 1, 399), float16], Tensor[(1, 1, 798), float16]), Tensor[(1), float32], int32) span=from_string:94:526 */ = %x_441;
  let %x_461: (Tensor[(10, 20), float16], (Tensor[(19, 10), float16], Tensor[(19, 10), float16]), (Tensor[(10, 92, 1), float16], Tensor[(10, 59, 1), float16]), (Tensor[(1, 1, 399), float16], Tensor[(1, 1, 798), float16]), Tensor[(1), float32], int32) /* ty=(Tensor[(10, 20), float16], (Tensor[(19, 10), float16], Tensor[(19, 10), float16]), (Tensor[(10, 92, 1), float16], Tensor[(10, 59, 1), float16]), (Tensor[(1, 1, 399), float16], Tensor[(1, 1, 798), float16]), Tensor[(1), float32], int32) span=from_string:95:526 */ = %x_451;
  let %x_471: (Tensor[(10, 20), float16], (Tensor[(19, 10), float16], Tensor[(19, 10), float16]), (Tensor[(10, 92, 1), float16], Tensor[(10, 59, 1), float16]), (Tensor[(1, 1, 399), float16], Tensor[(1, 1, 798), float16]), Tensor[(1), float32], int32) /* ty=(Tensor[(10, 20), float16], (Tensor[(19, 10), float16], Tensor[(19, 10), float16]), (Tensor[(10, 92, 1), float16], Tensor[(10, 59, 1), float16]), (Tensor[(1, 1, 399), float16], Tensor[(1, 1, 798), float16]), Tensor[(1), float32], int32) span=from_string:96:526 */ = %x_461;
  let %x_481: (Tensor[(10, 20), float16], (Tensor[(19, 10), float16], Tensor[(19, 10), float16]), (Tensor[(10, 92, 1), float16], Tensor[(10, 59, 1), float16]), (Tensor[(1, 1, 399), float16], Tensor[(1, 1, 798), float16]), Tensor[(1), float32], int32) /* ty=(Tensor[(10, 20), float16], (Tensor[(19, 10), float16], Tensor[(19, 10), float16]), (Tensor[(10, 92, 1), float16], Tensor[(10, 59, 1), float16]), (Tensor[(1, 1, 399), float16], Tensor[(1, 1, 798), float16]), Tensor[(1), float32], int32) span=from_string:97:526 */ = %x_471;
  let %x_491: (Tensor[(10, 20), float16], (Tensor[(19, 10), float16], Tensor[(19, 10), float16]), (Tensor[(10, 92, 1), float16], Tensor[(10, 59, 1), float16]), (Tensor[(1, 1, 399), float16], Tensor[(1, 1, 798), float16]), Tensor[(1), float32], int32) /* ty=(Tensor[(10, 20), float16], (Tensor[(19, 10), float16], Tensor[(19, 10), float16]), (Tensor[(10, 92, 1), float16], Tensor[(10, 59, 1), float16]), (Tensor[(1, 1, 399), float16], Tensor[(1, 1, 798), float16]), Tensor[(1), float32], int32) span=from_string:98:526 */ = %x_481;
  let %x_501: (Tensor[(10, 20), float16], (Tensor[(19, 10), float16], Tensor[(19, 10), float16]), (Tensor[(10, 92, 1), float16], Tensor[(10, 59, 1), float16]), (Tensor[(1, 1, 399), float16], Tensor[(1, 1, 798), float16]), Tensor[(1), float32], int32) /* ty=(Tensor[(10, 20), float16], (Tensor[(19, 10), float16], Tensor[(19, 10), float16]), (Tensor[(10, 92, 1), float16], Tensor[(10, 59, 1), float16]), (Tensor[(1, 1, 399), float16], Tensor[(1, 1, 798), float16]), Tensor[(1), float32], int32) span=from_string:99:527 */ = %x_491;
  let %x_512: (Tensor[(10, 20), float16], (Tensor[(19, 10), float16], Tensor[(19, 10), float16]), (Tensor[(10, 92, 1), float16], Tensor[(10, 59, 1), float16]), (Tensor[(1, 1, 399), float16], Tensor[(1, 1, 798), float16]), Tensor[(1), float32], int32) /* ty=(Tensor[(10, 20), float16], (Tensor[(19, 10), float16], Tensor[(19, 10), float16]), (Tensor[(10, 92, 1), float16], Tensor[(10, 59, 1), float16]), (Tensor[(1, 1, 399), float16], Tensor[(1, 1, 798), float16]), Tensor[(1), float32], int32) span=from_string:100:527 */ = %x_501;
  let %x_521: (Tensor[(10, 20), float16], (Tensor[(19, 10), float16], Tensor[(19, 10), float16]), (Tensor[(10, 92, 1), float16], Tensor[(10, 59, 1), float16]), (Tensor[(1, 1, 399), float16], Tensor[(1, 1, 798), float16]), Tensor[(1), float32], int32) /* ty=(Tensor[(10, 20), float16], (Tensor[(19, 10), float16], Tensor[(19, 10), float16]), (Tensor[(10, 92, 1), float16], Tensor[(10, 59, 1), float16]), (Tensor[(1, 1, 399), float16], Tensor[(1, 1, 798), float16]), Tensor[(1), float32], int32) span=from_string:101:527 */ = %x_512;
  let %x_531: (Tensor[(10, 20), float16], (Tensor[(19, 10), float16], Tensor[(19, 10), float16]), (Tensor[(10, 92, 1), float16], Tensor[(10, 59, 1), float16]), (Tensor[(1, 1, 399), float16], Tensor[(1, 1, 798), float16]), Tensor[(1), float32], int32) /* ty=(Tensor[(10, 20), float16], (Tensor[(19, 10), float16], Tensor[(19, 10), float16]), (Tensor[(10, 92, 1), float16], Tensor[(10, 59, 1), float16]), (Tensor[(1, 1, 399), float16], Tensor[(1, 1, 798), float16]), Tensor[(1), float32], int32) span=from_string:102:527 */ = %x_521;
  let %x_541: (Tensor[(10, 20), float16], (Tensor[(19, 10), float16], Tensor[(19, 10), float16]), (Tensor[(10, 92, 1), float16], Tensor[(10, 59, 1), float16]), (Tensor[(1, 1, 399), float16], Tensor[(1, 1, 798), float16]), Tensor[(1), float32], int32) /* ty=(Tensor[(10, 20), float16], (Tensor[(19, 10), float16], Tensor[(19, 10), float16]), (Tensor[(10, 92, 1), float16], Tensor[(10, 59, 1), float16]), (Tensor[(1, 1, 399), float16], Tensor[(1, 1, 798), float16]), Tensor[(1), float32], int32) span=from_string:103:527 */ = %x_531;
  let %x_551: (Tensor[(10, 20), float16], (Tensor[(19, 10), float16], Tensor[(19, 10), float16]), (Tensor[(10, 92, 1), float16], Tensor[(10, 59, 1), float16]), (Tensor[(1, 1, 399), float16], Tensor[(1, 1, 798), float16]), Tensor[(1), float32], int32) /* ty=(Tensor[(10, 20), float16], (Tensor[(19, 10), float16], Tensor[(19, 10), float16]), (Tensor[(10, 92, 1), float16], Tensor[(10, 59, 1), float16]), (Tensor[(1, 1, 399), float16], Tensor[(1, 1, 798), float16]), Tensor[(1), float32], int32) span=from_string:104:527 */ = %x_541;
  let %x_561: (Tensor[(10, 20), float16], (Tensor[(19, 10), float16], Tensor[(19, 10), float16]), (Tensor[(10, 92, 1), float16], Tensor[(10, 59, 1), float16]), (Tensor[(1, 1, 399), float16], Tensor[(1, 1, 798), float16]), Tensor[(1), float32], int32) /* ty=(Tensor[(10, 20), float16], (Tensor[(19, 10), float16], Tensor[(19, 10), float16]), (Tensor[(10, 92, 1), float16], Tensor[(10, 59, 1), float16]), (Tensor[(1, 1, 399), float16], Tensor[(1, 1, 798), float16]), Tensor[(1), float32], int32) span=from_string:105:527 */ = %x_551;
  let %x_571: (Tensor[(10, 20), float16], (Tensor[(19, 10), float16], Tensor[(19, 10), float16]), (Tensor[(10, 92, 1), float16], Tensor[(10, 59, 1), float16]), (Tensor[(1, 1, 399), float16], Tensor[(1, 1, 798), float16]), Tensor[(1), float32], int32) /* ty=(Tensor[(10, 20), float16], (Tensor[(19, 10), float16], Tensor[(19, 10), float16]), (Tensor[(10, 92, 1), float16], Tensor[(10, 59, 1), float16]), (Tensor[(1, 1, 399), float16], Tensor[(1, 1, 798), float16]), Tensor[(1), float32], int32) span=from_string:106:526 */ = %x_561;
  let %x_58: (Tensor[(10, 20), float16], (Tensor[(19, 10), float16], Tensor[(19, 10), float16]), (Tensor[(10, 92, 1), float16], Tensor[(10, 59, 1), float16]), (Tensor[(1, 1, 399), float16], Tensor[(1, 1, 798), float16]), Tensor[(1), float32], int32) /* ty=(Tensor[(10, 20), float16], (Tensor[(19, 10), float16], Tensor[(19, 10), float16]), (Tensor[(10, 92, 1), float16], Tensor[(10, 59, 1), float16]), (Tensor[(1, 1, 399), float16], Tensor[(1, 1, 798), float16]), Tensor[(1), float32], int32) span=from_string:107:526 */ = %x_571;
  let %x_59: (Tensor[(10, 20), float16], (Tensor[(19, 10), float16], Tensor[(19, 10), float16]), (Tensor[(10, 92, 1), float16], Tensor[(10, 59, 1), float16]), (Tensor[(1, 1, 399), float16], Tensor[(1, 1, 798), float16]), Tensor[(1), float32], int32) /* ty=(Tensor[(10, 20), float16], (Tensor[(19, 10), float16], Tensor[(19, 10), float16]), (Tensor[(10, 92, 1), float16], Tensor[(10, 59, 1), float16]), (Tensor[(1, 1, 399), float16], Tensor[(1, 1, 798), float16]), Tensor[(1), float32], int32) span=from_string:108:526 */ = %x_58;
  let %x_60: (Tensor[(10, 20), float16], (Tensor[(19, 10), float16], Tensor[(19, 10), float16]), (Tensor[(10, 92, 1), float16], Tensor[(10, 59, 1), float16]), (Tensor[(1, 1, 399), float16], Tensor[(1, 1, 798), float16]), Tensor[(1), float32], int32) /* ty=(Tensor[(10, 20), float16], (Tensor[(19, 10), float16], Tensor[(19, 10), float16]), (Tensor[(10, 92, 1), float16], Tensor[(10, 59, 1), float16]), (Tensor[(1, 1, 399), float16], Tensor[(1, 1, 798), float16]), Tensor[(1), float32], int32) span=from_string:109:527 */ = %x_59;
  let %x_611: (Tensor[(10, 20), float16], (Tensor[(19, 10), float16], Tensor[(19, 10), float16]), (Tensor[(10, 92, 1), float16], Tensor[(10, 59, 1), float16]), (Tensor[(1, 1, 399), float16], Tensor[(1, 1, 798), float16]), Tensor[(1), float32], int32) /* ty=(Tensor[(10, 20), float16], (Tensor[(19, 10), float16], Tensor[(19, 10), float16]), (Tensor[(10, 92, 1), float16], Tensor[(10, 59, 1), float16]), (Tensor[(1, 1, 399), float16], Tensor[(1, 1, 798), float16]), Tensor[(1), float32], int32) span=from_string:110:526 */ = %x_60;
  let %x_62: (Tensor[(10, 20), float16], (Tensor[(19, 10), float16], Tensor[(19, 10), float16]), (Tensor[(10, 92, 1), float16], Tensor[(10, 59, 1), float16]), (Tensor[(1, 1, 399), float16], Tensor[(1, 1, 798), float16]), Tensor[(1), float32], int32) /* ty=(Tensor[(10, 20), float16], (Tensor[(19, 10), float16], Tensor[(19, 10), float16]), (Tensor[(10, 92, 1), float16], Tensor[(10, 59, 1), float16]), (Tensor[(1, 1, 399), float16], Tensor[(1, 1, 798), float16]), Tensor[(1), float32], int32) span=from_string:111:526 */ = %x_611;
  let %x_63: (Tensor[(10, 20), float16], (Tensor[(19, 10), float16], Tensor[(19, 10), float16]), (Tensor[(10, 92, 1), float16], Tensor[(10, 59, 1), float16]), (Tensor[(1, 1, 399), float16], Tensor[(1, 1, 798), float16]), Tensor[(1), float32], int32) /* ty=(Tensor[(10, 20), float16], (Tensor[(19, 10), float16], Tensor[(19, 10), float16]), (Tensor[(10, 92, 1), float16], Tensor[(10, 59, 1), float16]), (Tensor[(1, 1, 399), float16], Tensor[(1, 1, 798), float16]), Tensor[(1), float32], int32) span=from_string:112:526 */ = %x_62;
  let %x_64: (Tensor[(10, 20), float16], (Tensor[(19, 10), float16], Tensor[(19, 10), float16]), (Tensor[(10, 92, 1), float16], Tensor[(10, 59, 1), float16]), (Tensor[(1, 1, 399), float16], Tensor[(1, 1, 798), float16]), Tensor[(1), float32], int32) /* ty=(Tensor[(10, 20), float16], (Tensor[(19, 10), float16], Tensor[(19, 10), float16]), (Tensor[(10, 92, 1), float16], Tensor[(10, 59, 1), float16]), (Tensor[(1, 1, 399), float16], Tensor[(1, 1, 798), float16]), Tensor[(1), float32], int32) span=from_string:113:526 */ = %x_63;
  let %x_65: (Tensor[(10, 20), float16], (Tensor[(19, 10), float16], Tensor[(19, 10), float16]), (Tensor[(10, 92, 1), float16], Tensor[(10, 59, 1), float16]), (Tensor[(1, 1, 399), float16], Tensor[(1, 1, 798), float16]), Tensor[(1), float32], int32) /* ty=(Tensor[(10, 20), float16], (Tensor[(19, 10), float16], Tensor[(19, 10), float16]), (Tensor[(10, 92, 1), float16], Tensor[(10, 59, 1), float16]), (Tensor[(1, 1, 399), float16], Tensor[(1, 1, 798), float16]), Tensor[(1), float32], int32) span=from_string:114:526 */ = %x_64;
  let %x_66: (Tensor[(10, 20), float16], (Tensor[(19, 10), float16], Tensor[(19, 10), float16]), (Tensor[(10, 92, 1), float16], Tensor[(10, 59, 1), float16]), (Tensor[(1, 1, 399), float16], Tensor[(1, 1, 798), float16]), Tensor[(1), float32], int32) /* ty=(Tensor[(10, 20), float16], (Tensor[(19, 10), float16], Tensor[(19, 10), float16]), (Tensor[(10, 92, 1), float16], Tensor[(10, 59, 1), float16]), (Tensor[(1, 1, 399), float16], Tensor[(1, 1, 798), float16]), Tensor[(1), float32], int32) span=from_string:115:526 */ = %x_65;
  let %x_67: (Tensor[(10, 20), float16], (Tensor[(19, 10), float16], Tensor[(19, 10), float16]), (Tensor[(10, 92, 1), float16], Tensor[(10, 59, 1), float16]), (Tensor[(1, 1, 399), float16], Tensor[(1, 1, 798), float16]), Tensor[(1), float32], int32) /* ty=(Tensor[(10, 20), float16], (Tensor[(19, 10), float16], Tensor[(19, 10), float16]), (Tensor[(10, 92, 1), float16], Tensor[(10, 59, 1), float16]), (Tensor[(1, 1, 399), float16], Tensor[(1, 1, 798), float16]), Tensor[(1), float32], int32) span=from_string:116:526 */ = %x_66;
  let %x_68: (Tensor[(10, 20), float16], (Tensor[(19, 10), float16], Tensor[(19, 10), float16]), (Tensor[(10, 92, 1), float16], Tensor[(10, 59, 1), float16]), (Tensor[(1, 1, 399), float16], Tensor[(1, 1, 798), float16]), Tensor[(1), float32], int32) /* ty=(Tensor[(10, 20), float16], (Tensor[(19, 10), float16], Tensor[(19, 10), float16]), (Tensor[(10, 92, 1), float16], Tensor[(10, 59, 1), float16]), (Tensor[(1, 1, 399), float16], Tensor[(1, 1, 798), float16]), Tensor[(1), float32], int32) span=from_string:117:526 */ = %x_67;
  let %x_69: (Tensor[(10, 20), float16], (Tensor[(19, 10), float16], Tensor[(19, 10), float16]), (Tensor[(10, 92, 1), float16], Tensor[(10, 59, 1), float16]), (Tensor[(1, 1, 399), float16], Tensor[(1, 1, 798), float16]), Tensor[(1), float32], int32) /* ty=(Tensor[(10, 20), float16], (Tensor[(19, 10), float16], Tensor[(19, 10), float16]), (Tensor[(10, 92, 1), float16], Tensor[(10, 59, 1), float16]), (Tensor[(1, 1, 399), float16], Tensor[(1, 1, 798), float16]), Tensor[(1), float32], int32) span=from_string:118:526 */ = %x_68;
  let %x_70: (Tensor[(10, 20), float16], (Tensor[(19, 10), float16], Tensor[(19, 10), float16]), (Tensor[(10, 92, 1), float16], Tensor[(10, 59, 1), float16]), (Tensor[(1, 1, 399), float16], Tensor[(1, 1, 798), float16]), Tensor[(1), float32], int32) /* ty=(Tensor[(10, 20), float16], (Tensor[(19, 10), float16], Tensor[(19, 10), float16]), (Tensor[(10, 92, 1), float16], Tensor[(10, 59, 1), float16]), (Tensor[(1, 1, 399), float16], Tensor[(1, 1, 798), float16]), Tensor[(1), float32], int32) span=from_string:119:527 */ = %x_69;
  let %x_711: (Tensor[(10, 20), float16], (Tensor[(19, 10), float16], Tensor[(19, 10), float16]), (Tensor[(10, 92, 1), float16], Tensor[(10, 59, 1), float16]), (Tensor[(1, 1, 399), float16], Tensor[(1, 1, 798), float16]), Tensor[(1), float32], int32) /* ty=(Tensor[(10, 20), float16], (Tensor[(19, 10), float16], Tensor[(19, 10), float16]), (Tensor[(10, 92, 1), float16], Tensor[(10, 59, 1), float16]), (Tensor[(1, 1, 399), float16], Tensor[(1, 1, 798), float16]), Tensor[(1), float32], int32) span=from_string:120:526 */ = %x_70;
  let %x_72: (Tensor[(10, 20), float16], (Tensor[(19, 10), float16], Tensor[(19, 10), float16]), (Tensor[(10, 92, 1), float16], Tensor[(10, 59, 1), float16]), (Tensor[(1, 1, 399), float16], Tensor[(1, 1, 798), float16]), Tensor[(1), float32], int32) /* ty=(Tensor[(10, 20), float16], (Tensor[(19, 10), float16], Tensor[(19, 10), float16]), (Tensor[(10, 92, 1), float16], Tensor[(10, 59, 1), float16]), (Tensor[(1, 1, 399), float16], Tensor[(1, 1, 798), float16]), Tensor[(1), float32], int32) span=from_string:121:526 */ = %x_711;
  let %x_73: (Tensor[(10, 20), float16], (Tensor[(19, 10), float16], Tensor[(19, 10), float16]), (Tensor[(10, 92, 1), float16], Tensor[(10, 59, 1), float16]), (Tensor[(1, 1, 399), float16], Tensor[(1, 1, 798), float16]), Tensor[(1), float32], int32) /* ty=(Tensor[(10, 20), float16], (Tensor[(19, 10), float16], Tensor[(19, 10), float16]), (Tensor[(10, 92, 1), float16], Tensor[(10, 59, 1), float16]), (Tensor[(1, 1, 399), float16], Tensor[(1, 1, 798), float16]), Tensor[(1), float32], int32) span=from_string:122:526 */ = %x_72;
  let %x_74: (Tensor[(10, 20), float16], (Tensor[(19, 10), float16], Tensor[(19, 10), float16]), (Tensor[(10, 92, 1), float16], Tensor[(10, 59, 1), float16]), (Tensor[(1, 1, 399), float16], Tensor[(1, 1, 798), float16]), Tensor[(1), float32], int32) /* ty=(Tensor[(10, 20), float16], (Tensor[(19, 10), float16], Tensor[(19, 10), float16]), (Tensor[(10, 92, 1), float16], Tensor[(10, 59, 1), float16]), (Tensor[(1, 1, 399), float16], Tensor[(1, 1, 798), float16]), Tensor[(1), float32], int32) span=from_string:123:526 */ = %x_73;
  let %x_75: (Tensor[(10, 20), float16], (Tensor[(19, 10), float16], Tensor[(19, 10), float16]), (Tensor[(10, 92, 1), float16], Tensor[(10, 59, 1), float16]), (Tensor[(1, 1, 399), float16], Tensor[(1, 1, 798), float16]), Tensor[(1), float32], int32) /* ty=(Tensor[(10, 20), float16], (Tensor[(19, 10), float16], Tensor[(19, 10), float16]), (Tensor[(10, 92, 1), float16], Tensor[(10, 59, 1), float16]), (Tensor[(1, 1, 399), float16], Tensor[(1, 1, 798), float16]), Tensor[(1), float32], int32) span=from_string:124:526 */ = %x_74;
  let %x_76: (Tensor[(10, 20), float16], (Tensor[(19, 10), float16], Tensor[(19, 10), float16]), (Tensor[(10, 92, 1), float16], Tensor[(10, 59, 1), float16]), (Tensor[(1, 1, 399), float16], Tensor[(1, 1, 798), float16]), Tensor[(1), float32], int32) /* ty=(Tensor[(10, 20), float16], (Tensor[(19, 10), float16], Tensor[(19, 10), float16]), (Tensor[(10, 92, 1), float16], Tensor[(10, 59, 1), float16]), (Tensor[(1, 1, 399), float16], Tensor[(1, 1, 798), float16]), Tensor[(1), float32], int32) span=from_string:125:526 */ = %x_75;
  let %x_77: (Tensor[(10, 20), float16], (Tensor[(19, 10), float16], Tensor[(19, 10), float16]), (Tensor[(10, 92, 1), float16], Tensor[(10, 59, 1), float16]), (Tensor[(1, 1, 399), float16], Tensor[(1, 1, 798), float16]), Tensor[(1), float32], int32) /* ty=(Tensor[(10, 20), float16], (Tensor[(19, 10), float16], Tensor[(19, 10), float16]), (Tensor[(10, 92, 1), float16], Tensor[(10, 59, 1), float16]), (Tensor[(1, 1, 399), float16], Tensor[(1, 1, 798), float16]), Tensor[(1), float32], int32) span=from_string:126:526 */ = %x_76;
  let %x_78: (Tensor[(10, 20), float16], (Tensor[(19, 10), float16], Tensor[(19, 10), float16]), (Tensor[(10, 92, 1), float16], Tensor[(10, 59, 1), float16]), (Tensor[(1, 1, 399), float16], Tensor[(1, 1, 798), float16]), Tensor[(1), float32], int32) /* ty=(Tensor[(10, 20), float16], (Tensor[(19, 10), float16], Tensor[(19, 10), float16]), (Tensor[(10, 92, 1), float16], Tensor[(10, 59, 1), float16]), (Tensor[(1, 1, 399), float16], Tensor[(1, 1, 798), float16]), Tensor[(1), float32], int32) span=from_string:127:526 */ = %x_77;
  let %x_79: (Tensor[(10, 20), float16], (Tensor[(19, 10), float16], Tensor[(19, 10), float16]), (Tensor[(10, 92, 1), float16], Tensor[(10, 59, 1), float16]), (Tensor[(1, 1, 399), float16], Tensor[(1, 1, 798), float16]), Tensor[(1), float32], int32) /* ty=(Tensor[(10, 20), float16], (Tensor[(19, 10), float16], Tensor[(19, 10), float16]), (Tensor[(10, 92, 1), float16], Tensor[(10, 59, 1), float16]), (Tensor[(1, 1, 399), float16], Tensor[(1, 1, 798), float16]), Tensor[(1), float32], int32) span=from_string:128:526 */ = %x_78;
  let %x_80: (Tensor[(10, 20), float16], (Tensor[(19, 10), float16], Tensor[(19, 10), float16]), (Tensor[(10, 92, 1), float16], Tensor[(10, 59, 1), float16]), (Tensor[(1, 1, 399), float16], Tensor[(1, 1, 798), float16]), Tensor[(1), float32], int32) /* ty=(Tensor[(10, 20), float16], (Tensor[(19, 10), float16], Tensor[(19, 10), float16]), (Tensor[(10, 92, 1), float16], Tensor[(10, 59, 1), float16]), (Tensor[(1, 1, 399), float16], Tensor[(1, 1, 798), float16]), Tensor[(1), float32], int32) span=from_string:129:525 */ = %x_79;
  let %x_811: (Tensor[(10, 20), float16], (Tensor[(19, 10), float16], Tensor[(19, 10), float16]), (Tensor[(10, 92, 1), float16], Tensor[(10, 59, 1), float16]), (Tensor[(1, 1, 399), float16], Tensor[(1, 1, 798), float16]), Tensor[(1), float32], int32) /* ty=(Tensor[(10, 20), float16], (Tensor[(19, 10), float16], Tensor[(19, 10), float16]), (Tensor[(10, 92, 1), float16], Tensor[(10, 59, 1), float16]), (Tensor[(1, 1, 399), float16], Tensor[(1, 1, 798), float16]), Tensor[(1), float32], int32) span=from_string:130:3 */ = %x_80;
  %x_811
}
