#[version = "0.0.5"]
def @main(%x0: Tensor[(10, 20), float32] /* ty=Tensor[(10, 20), float32] span=from_string:3:13 */, %x1: Tensor[(19, 20), float32] /* ty=Tensor[(19, 20), float32] span=from_string:13:14 */, %x2: Tensor[(10, 20), float32] /* ty=Tensor[(10, 20), float32] span=from_string:17:14 */, %x3: Tensor[(10), float32] /* ty=Tensor[(10), float32] span=from_string:16:14 */, %x4: Tensor[(10), float32] /* ty=Tensor[(10), float32] span=from_string:19:14 */, %x5: Tensor[(92, 20), float32] /* ty=Tensor[(92, 20), float32] span=from_string:26:14 */, %x6: Tensor[(59, 20), float32] /* ty=Tensor[(59, 20), float32] span=from_string:28:14 */, %x7: Tensor[(21, 10), float32] /* ty=Tensor[(21, 10), float32] span=from_string:32:14 */, %x8: Tensor[(21), float32] /* ty=Tensor[(21), float32] span=from_string:34:14 */, %x9: Tensor[(1), float32] /* ty=Tensor[(1), float32] span=from_string:36:14 */, %x10: Tensor[(42, 10), float32] /* ty=Tensor[(42, 10), float32] span=from_string:38:14 */, %x11: Tensor[(42), float32] /* ty=Tensor[(42), float32] span=from_string:40:14 */, %x12: Tensor[(1), float32] /* ty=Tensor[(1), float32] span=from_string:42:14 */, %x13: Tensor[(10, 59, 1), float32] /* ty=Tensor[(10, 59, 1), float32] */) -> (Tensor[(10, 20), float16], (Tensor[(19, 10), float16], Tensor[(19, 10), float16]), (Tensor[(10, 92, 1), float16], Tensor[(10, 59, 1), float16]), (Tensor[(1, 1, 399), float16], Tensor[(1, 1, 798), float16]), Tensor[(1), float16], int32) {
  %0 = cast(%x0, dtype="float16");
  %1 = cast(1f /* ty=float32 span=from_string:4:15 */, dtype="float16");
  %2 = add(%0, %1);
  %3 = fast_exp(%2);
  %4 = squeeze(%3);
  %5 = cast(1f /* ty=float32 span=from_string:8:15 */, dtype="float16");
  %6 = add(%4, %5);
  %7 = fast_exp(%6);
  %8 = squeeze(%7);
  %9 = ones(shape=[1], dtype="float16");
  %10 = cast(%x1, dtype="float16");
  %11 = multiply(%9, %4);
  %12 = nn.dense(%10, %11, units=None, out_dtype="float16");
  %13 = cast(%x3, dtype="float16");
  %14 = cast(%x2, dtype="float16");
  %15 = nn.dense(%10, %14, units=None, out_dtype="float16");
  %16 = cast(%x4, dtype="float16");
  %17 = add(%12, %13);
  %18 = add(%15, %16);
  %19 = cast(1f /* ty=float32 span=from_string:22:16 */, dtype="float16");
  %20 = add(%3, %19);
  %21 = fast_exp(%20);
  %22 = squeeze(%21);
  %23 = cast(%x5, dtype="float16");
  %24 = nn.dense(%22, %23, units=None, out_dtype="float16");
  %25 = cast(%x6, dtype="float16");
  %26 = nn.dense(%22, %25, units=None, out_dtype="float16");
  %27 = expand_dims(%24, axis=2);
  %28 = expand_dims(%26, axis=2);
  %29 = cast(%x7, dtype="float16");
  %30 = nn.dense(%17, %29, units=None, out_dtype="float16");
  %31 = cast(%x8, dtype="float16");
  %32 = add(%30, %31);
  %33 = cast(%x9, dtype="float16");
  %34 = multiply(%32, %33);
  %35 = cast(%x10, dtype="float16");
  %36 = nn.dense(%17, %35, units=None, out_dtype="float16");
  %37 = cast(%x11, dtype="float16");
  %38 = add(%36, %37);
  %39 = cast(%x12, dtype="float16");
  %40 = multiply(%38, %39);
  %41 = reshape(%34, newshape=[1, 1, 399]);
  %42 = reshape(%40, newshape=[1, 1, 798]);
  %43 = ones(shape=[1], dtype="float16");
  %44 = add(%8, %8);
  %45 = (%17, %18) /* ty=(Tensor[(19, 10), float16], Tensor[(19, 10), float16]) span=from_string:52:9 */;
  %46 = (%27, %28) /* ty=(Tensor[(10, 92, 1), float16], Tensor[(10, 59, 1), float16]) span=from_string:52:14 */;
  %47 = (%41, %42) /* ty=(Tensor[(1, 1, 399), float16], Tensor[(1, 1, 798), float16]) span=from_string:52:19 */;
  %48 = multiply(%43, %39);
  (%44, %45, %46, %47, %48, 590 /* ty=int32 span=from_string:52:32 */) /* ty=(Tensor[(10, 20), float16], (Tensor[(19, 10), float16], Tensor[(19, 10), float16]), (Tensor[(10, 92, 1), float16], Tensor[(10, 59, 1), float16]), (Tensor[(1, 1, 399), float16], Tensor[(1, 1, 798), float16]), Tensor[(1), float16], int32) span=from_string:3:3 */
}
