#[version = "0.0.5"]
def @main(%x0: Tensor[(10, 20), float32] /* ty=Tensor[(10, 20), float32] span=from_string:3:102 */, %x1: Tensor[(19, 20), float32] /* ty=Tensor[(19, 20), float32] span=from_string:15:109 */, %x2: Tensor[(10, 20), float32] /* ty=Tensor[(10, 20), float32] span=from_string:15:114 */, %x3: Tensor[(10), float32] /* ty=Tensor[(10), float32] span=from_string:13:110 */, %x4: Tensor[(10), float32] /* ty=Tensor[(10), float32] span=from_string:16:110 */, %x5: Tensor[(92, 20), float32] /* ty=Tensor[(92, 20), float32] span=from_string:22:116 */, %x6: Tensor[(59, 20), float32] /* ty=Tensor[(59, 20), float32] span=from_string:24:116 */, %x7: Tensor[(21, 10), float32] /* ty=Tensor[(21, 10), float32] span=from_string:27:116 */, %x8: Tensor[(21), float32] /* ty=Tensor[(21), float32] span=from_string:28:110 */, %x9: Tensor[(1), float32] /* ty=Tensor[(1), float32] span=from_string:30:117 */, %x10: Tensor[(42, 10), float32] /* ty=Tensor[(42, 10), float32] span=from_string:32:116 */, %x11: Tensor[(42), float32] /* ty=Tensor[(42), float32] span=from_string:33:110 */, %x12: Tensor[(1), float32] /* ty=Tensor[(1), float32] span=from_string:39:107 */, %x13: Tensor[(10, 59, 1), float32] /* ty=Tensor[(10, 59, 1), float32] */) -> (Tensor[(10, 20), float32], (Tensor[(19, 10), float32], Tensor[(19, 10), float32]), (Tensor[(10, 92, 1), float32], Tensor[(10, 59, 1), float32]), (Tensor[(1, 1, 399), float32], Tensor[(1, 1, 798), float32]), Tensor[(1), float32], int32) {
  %0 = fn (%p0: Tensor[(10, 20), float32] /* ty=Tensor[(10, 20), float32] */, Primitive=1) -> Tensor[(10, 20), float32] {
    add(%p0, 1f /* ty=float32 span=from_string:3:109 */) /* ty=Tensor[(10, 20), float32] span=from_string:3:98 */
  } /* ty=fn (Tensor[(10, 20), float32]) -> Tensor[(10, 20), float32] */;
  let %x_1: Tensor[(10, 20), float32] /* ty=Tensor[(10, 20), float32] span=from_string:4:103 */ = %0(%x0) /* ty=Tensor[(10, 20), float32] */;
  %1 = fn (%p01: Tensor[(10, 20), float32] /* ty=Tensor[(10, 20), float32] */, Primitive=1) -> Tensor[(10, 20), float32] {
    exp(%p01) /* ty=Tensor[(10, 20), float32] span=from_string:4:99 */
  } /* ty=fn (Tensor[(10, 20), float32]) -> Tensor[(10, 20), float32] */;
  let %x_2: Tensor[(10, 20), float32] /* ty=Tensor[(10, 20), float32] span=from_string:19:104 */ = %1(%x_1) /* ty=Tensor[(10, 20), float32] */;
  %2 = fn (%p02: Tensor[(10, 20), float32] /* ty=Tensor[(10, 20), float32] */, Primitive=1, relay.reshape_only=1) -> Tensor[(10, 20), float32] {
    squeeze(%p02) /* ty=Tensor[(10, 20), float32] span=from_string:5:99 */
  } /* ty=fn (Tensor[(10, 20), float32]) -> Tensor[(10, 20), float32] */;
  let %x_3: Tensor[(10, 20), float32] /* ty=Tensor[(10, 20), float32] span=from_string:11:116 */ = %2(%x_2) /* ty=Tensor[(10, 20), float32] */;
  %3 = fn (%p03: Tensor[(10, 20), float32] /* ty=Tensor[(10, 20), float32] */, Primitive=1) -> Tensor[(10, 20), float32] {
    add(%p03, 1f /* ty=float32 span=from_string:6:110 */) /* ty=Tensor[(10, 20), float32] span=from_string:6:98 */
  } /* ty=fn (Tensor[(10, 20), float32]) -> Tensor[(10, 20), float32] */;
  let %x_5: Tensor[(10, 20), float32] /* ty=Tensor[(10, 20), float32] span=from_string:7:103 */ = %3(%x_3) /* ty=Tensor[(10, 20), float32] */;
  %4 = fn (%p04: Tensor[(10, 20), float32] /* ty=Tensor[(10, 20), float32] */, Primitive=1) -> Tensor[(10, 20), float32] {
    exp(%p04) /* ty=Tensor[(10, 20), float32] span=from_string:7:99 */
  } /* ty=fn (Tensor[(10, 20), float32]) -> Tensor[(10, 20), float32] */;
  let %x_6: Tensor[(10, 20), float32] /* ty=Tensor[(10, 20), float32] span=from_string:8:107 */ = %4(%x_5) /* ty=Tensor[(10, 20), float32] */;
  %5 = fn (%p05: Tensor[(10, 20), float32] /* ty=Tensor[(10, 20), float32] */, Primitive=1, relay.reshape_only=1) -> Tensor[(10, 20), float32] {
    squeeze(%p05) /* ty=Tensor[(10, 20), float32] span=from_string:8:99 */
  } /* ty=fn (Tensor[(10, 20), float32]) -> Tensor[(10, 20), float32] */;
  let %x_7: Tensor[(10, 20), float32] /* ty=Tensor[(10, 20), float32] span=from_string:9:109 */ = %5(%x_6) /* ty=Tensor[(10, 20), float32] */;
  %6 = fn (%p06: Tensor[(10, 20), float32] /* ty=Tensor[(10, 20), float32] */, Primitive=1) -> Tensor[(10, 20), float32] {
    add(%p06, %p06) /* ty=Tensor[(10, 20), float32] span=from_string:9:99 */
  } /* ty=fn (Tensor[(10, 20), float32]) -> Tensor[(10, 20), float32] */;
  let %x_8: Tensor[(10, 20), float32] /* ty=Tensor[(10, 20), float32] span=from_string:40:524 */ = %6(%x_7) /* ty=Tensor[(10, 20), float32] */;
  %7 = fn (Primitive=1) -> Tensor[(1), float32] {
    ones(shape=[1], dtype="float32") /* ty=Tensor[(1), float32] span=from_string:10:89 */
  } /* ty=fn () -> Tensor[(1), float32] */;
  let %x_9: Tensor[(1), float32] /* ty=Tensor[(1), float32] span=from_string:11:110 */ = %7() /* ty=Tensor[(1), float32] */;
  %8 = fn (%p07: Tensor[(1), float32] /* ty=Tensor[(1), float32] */, %p1: Tensor[(10, 20), float32] /* ty=Tensor[(10, 20), float32] */, Primitive=1) -> Tensor[(10, 20), float32] {
    multiply(%p07, %p1) /* ty=Tensor[(10, 20), float32] span=from_string:11:101 */
  } /* ty=fn (Tensor[(1), float32], Tensor[(10, 20), float32]) -> Tensor[(10, 20), float32] */;
  let %x_10: Tensor[(10, 20), float32] /* ty=Tensor[(10, 20), float32] span=from_string:12:114 */ = %8(%x_9, %x_3) /* ty=Tensor[(10, 20), float32] */;
  %9 = fn (%p08: Tensor[(19, 20), float32] /* ty=Tensor[(19, 20), float32] */, %p11: Tensor[(10, 20), float32] /* ty=Tensor[(10, 20), float32] */, Primitive=1) -> Tensor[(19, 10), float32] {
    nn.dense(%p08, %p11, units=None) /* ty=Tensor[(19, 10), float32] span=from_string:12:100 */
  } /* ty=fn (Tensor[(19, 20), float32], Tensor[(10, 20), float32]) -> Tensor[(19, 10), float32] */;
  let %x_11: Tensor[(19, 10), float32] /* ty=Tensor[(19, 10), float32] span=from_string:14:104 */ = %9(%x1, %x_10) /* ty=Tensor[(19, 10), float32] */;
  %10 = fn (%p09: Tensor[(10), float32] /* ty=Tensor[(10), float32] */, Primitive=1, relay.reshape_only=1) -> Tensor[(1, 10), float32] {
    expand_dims(%p09, axis=0) /* ty=Tensor[(1, 10), float32] span=from_string:13:98 */
  } /* ty=fn (Tensor[(10), float32]) -> Tensor[(1, 10), float32] */;
  let %x_12: Tensor[(1, 10), float32] /* ty=Tensor[(1, 10), float32] span=from_string:14:111 */ = %10(%x3) /* ty=Tensor[(1, 10), float32] */;
  %11 = fn (%p010: Tensor[(19, 10), float32] /* ty=Tensor[(19, 10), float32] */, %p12: Tensor[(1, 10), float32] /* ty=Tensor[(1, 10), float32] */, Primitive=1) -> Tensor[(19, 10), float32] {
    add(%p010, %p12) /* ty=Tensor[(19, 10), float32] span=from_string:14:100 */
  } /* ty=fn (Tensor[(19, 10), float32], Tensor[(1, 10), float32]) -> Tensor[(19, 10), float32] */;
  let %x_13: Tensor[(19, 10), float32] /* ty=Tensor[(19, 10), float32] span=from_string:32:109 */ = %11(%x_11, %x_12) /* ty=Tensor[(19, 10), float32] */;
  %12 = fn (%p011: Tensor[(19, 20), float32] /* ty=Tensor[(19, 20), float32] */, %p13: Tensor[(10, 20), float32] /* ty=Tensor[(10, 20), float32] */, Primitive=1) -> Tensor[(19, 10), float32] {
    nn.dense(%p011, %p13, units=None) /* ty=Tensor[(19, 10), float32] span=from_string:15:100 */
  } /* ty=fn (Tensor[(19, 20), float32], Tensor[(10, 20), float32]) -> Tensor[(19, 10), float32] */;
  let %x_14: Tensor[(19, 10), float32] /* ty=Tensor[(19, 10), float32] span=from_string:17:104 */ = %12(%x1, %x2) /* ty=Tensor[(19, 10), float32] */;
  %13 = fn (%p012: Tensor[(10), float32] /* ty=Tensor[(10), float32] */, Primitive=1, relay.reshape_only=1) -> Tensor[(1, 10), float32] {
    expand_dims(%p012, axis=0) /* ty=Tensor[(1, 10), float32] span=from_string:16:98 */
  } /* ty=fn (Tensor[(10), float32]) -> Tensor[(1, 10), float32] */;
  let %x_15: Tensor[(1, 10), float32] /* ty=Tensor[(1, 10), float32] span=from_string:17:111 */ = %13(%x4) /* ty=Tensor[(1, 10), float32] */;
  %14 = fn (%p013: Tensor[(19, 10), float32] /* ty=Tensor[(19, 10), float32] */, %p14: Tensor[(1, 10), float32] /* ty=Tensor[(1, 10), float32] */, Primitive=1) -> Tensor[(19, 10), float32] {
    add(%p013, %p14) /* ty=Tensor[(19, 10), float32] span=from_string:17:100 */
  } /* ty=fn (Tensor[(19, 10), float32], Tensor[(1, 10), float32]) -> Tensor[(19, 10), float32] */;
  let %x_16: Tensor[(19, 10), float32] /* ty=Tensor[(19, 10), float32] span=from_string:18:166 */ = %14(%x_14, %x_15) /* ty=Tensor[(19, 10), float32] */;
  let %x_17: (Tensor[(19, 10), float32], Tensor[(19, 10), float32]) /* ty=(Tensor[(19, 10), float32], Tensor[(19, 10), float32]) span=from_string:40:530 */ = (%x_13, %x_16) /* ty=(Tensor[(19, 10), float32], Tensor[(19, 10), float32]) span=from_string:18:158 */;
  %15 = fn (%p014: Tensor[(10, 20), float32] /* ty=Tensor[(10, 20), float32] */, Primitive=1) -> Tensor[(10, 20), float32] {
    add(%p014, 1f /* ty=float32 span=from_string:19:112 */) /* ty=Tensor[(10, 20), float32] span=from_string:19:100 */
  } /* ty=fn (Tensor[(10, 20), float32]) -> Tensor[(10, 20), float32] */;
  let %x_19: Tensor[(10, 20), float32] /* ty=Tensor[(10, 20), float32] span=from_string:20:104 */ = %15(%x_2) /* ty=Tensor[(10, 20), float32] */;
  %16 = fn (%p015: Tensor[(10, 20), float32] /* ty=Tensor[(10, 20), float32] */, Primitive=1) -> Tensor[(10, 20), float32] {
    exp(%p015) /* ty=Tensor[(10, 20), float32] span=from_string:20:100 */
  } /* ty=fn (Tensor[(10, 20), float32]) -> Tensor[(10, 20), float32] */;
  let %x_20: Tensor[(10, 20), float32] /* ty=Tensor[(10, 20), float32] span=from_string:21:108 */ = %16(%x_19) /* ty=Tensor[(10, 20), float32] */;
  %17 = fn (%p016: Tensor[(10, 20), float32] /* ty=Tensor[(10, 20), float32] */, Primitive=1, relay.reshape_only=1) -> Tensor[(10, 20), float32] {
    squeeze(%p016) /* ty=Tensor[(10, 20), float32] span=from_string:21:100 */
  } /* ty=fn (Tensor[(10, 20), float32]) -> Tensor[(10, 20), float32] */;
  let %x_21: Tensor[(10, 20), float32] /* ty=Tensor[(10, 20), float32] span=from_string:24:109 */ = %17(%x_20) /* ty=Tensor[(10, 20), float32] */;
  %18 = fn (%p017: Tensor[(10, 20), float32] /* ty=Tensor[(10, 20), float32] */, %p15: Tensor[(92, 20), float32] /* ty=Tensor[(92, 20), float32] */, Primitive=1) -> Tensor[(10, 92), float32] {
    nn.dense(%p017, %p15, units=None) /* ty=Tensor[(10, 92), float32] span=from_string:22:100 */
  } /* ty=fn (Tensor[(10, 20), float32], Tensor[(92, 20), float32]) -> Tensor[(10, 92), float32] */;
  let %x_22: Tensor[(10, 92), float32] /* ty=Tensor[(10, 92), float32] span=from_string:23:118 */ = %18(%x_21, %x5) /* ty=Tensor[(10, 92), float32] */;
  %19 = fn (%p018: Tensor[(10, 92), float32] /* ty=Tensor[(10, 92), float32] */, Primitive=1, relay.reshape_only=1) -> Tensor[(10, 92, 1), float32] {
    expand_dims(%p018, axis=2) /* ty=Tensor[(10, 92, 1), float32] span=from_string:23:106 */
  } /* ty=fn (Tensor[(10, 92), float32]) -> Tensor[(10, 92, 1), float32] */;
  let %x_23: Tensor[(10, 92, 1), float32] /* ty=Tensor[(10, 92, 1), float32] span=from_string:26:171 */ = %19(%x_22) /* ty=Tensor[(10, 92, 1), float32] */;
  %20 = fn (%p019: Tensor[(10, 20), float32] /* ty=Tensor[(10, 20), float32] */, %p16: Tensor[(59, 20), float32] /* ty=Tensor[(59, 20), float32] */, Primitive=1) -> Tensor[(10, 59), float32] {
    nn.dense(%p019, %p16, units=None) /* ty=Tensor[(10, 59), float32] span=from_string:24:100 */
  } /* ty=fn (Tensor[(10, 20), float32], Tensor[(59, 20), float32]) -> Tensor[(10, 59), float32] */;
  let %x_24: Tensor[(10, 59), float32] /* ty=Tensor[(10, 59), float32] span=from_string:25:118 */ = %20(%x_21, %x6) /* ty=Tensor[(10, 59), float32] */;
  %21 = fn (%p020: Tensor[(10, 59), float32] /* ty=Tensor[(10, 59), float32] */, Primitive=1, relay.reshape_only=1) -> Tensor[(10, 59, 1), float32] {
    expand_dims(%p020, axis=2) /* ty=Tensor[(10, 59, 1), float32] span=from_string:25:106 */
  } /* ty=fn (Tensor[(10, 59), float32]) -> Tensor[(10, 59, 1), float32] */;
  let %x_25: Tensor[(10, 59, 1), float32] /* ty=Tensor[(10, 59, 1), float32] span=from_string:26:178 */ = %21(%x_24) /* ty=Tensor[(10, 59, 1), float32] */;
  let %x_26: (Tensor[(10, 92, 1), float32], Tensor[(10, 59, 1), float32]) /* ty=(Tensor[(10, 92, 1), float32], Tensor[(10, 59, 1), float32]) span=from_string:40:537 */ = (%x_23, %x_25) /* ty=(Tensor[(10, 92, 1), float32], Tensor[(10, 59, 1), float32]) span=from_string:26:170 */;
  %22 = fn (%p021: Tensor[(19, 10), float32] /* ty=Tensor[(19, 10), float32] */, %p17: Tensor[(21, 10), float32] /* ty=Tensor[(21, 10), float32] */, Primitive=1) -> Tensor[(19, 21), float32] {
    nn.dense(%p021, %p17, units=None) /* ty=Tensor[(19, 21), float32] span=from_string:27:100 */
  } /* ty=fn (Tensor[(19, 10), float32], Tensor[(21, 10), float32]) -> Tensor[(19, 21), float32] */;
  let %x_27: Tensor[(19, 21), float32] /* ty=Tensor[(19, 21), float32] span=from_string:29:104 */ = %22(%x_13, %x7) /* ty=Tensor[(19, 21), float32] */;
  %23 = fn (%p022: Tensor[(21), float32] /* ty=Tensor[(21), float32] */, Primitive=1, relay.reshape_only=1) -> Tensor[(1, 21), float32] {
    expand_dims(%p022, axis=0) /* ty=Tensor[(1, 21), float32] span=from_string:28:98 */
  } /* ty=fn (Tensor[(21), float32]) -> Tensor[(1, 21), float32] */;
  let %x_28: Tensor[(1, 21), float32] /* ty=Tensor[(1, 21), float32] span=from_string:29:111 */ = %23(%x8) /* ty=Tensor[(1, 21), float32] */;
  %24 = fn (%p023: Tensor[(19, 21), float32] /* ty=Tensor[(19, 21), float32] */, %p18: Tensor[(1, 21), float32] /* ty=Tensor[(1, 21), float32] */, Primitive=1) -> Tensor[(19, 21), float32] {
    add(%p023, %p18) /* ty=Tensor[(19, 21), float32] span=from_string:29:100 */
  } /* ty=fn (Tensor[(19, 21), float32], Tensor[(1, 21), float32]) -> Tensor[(19, 21), float32] */;
  let %x_29: Tensor[(19, 21), float32] /* ty=Tensor[(19, 21), float32] span=from_string:30:110 */ = %24(%x_27, %x_28) /* ty=Tensor[(19, 21), float32] */;
  %25 = fn (%p024: Tensor[(19, 21), float32] /* ty=Tensor[(19, 21), float32] */, %p19: Tensor[(1), float32] /* ty=Tensor[(1), float32] */, Primitive=1) -> Tensor[(19, 21), float32] {
    multiply(%p024, %p19) /* ty=Tensor[(19, 21), float32] span=from_string:30:101 */
  } /* ty=fn (Tensor[(19, 21), float32], Tensor[(1), float32]) -> Tensor[(19, 21), float32] */;
  let %x_30: Tensor[(19, 21), float32] /* ty=Tensor[(19, 21), float32] span=from_string:31:114 */ = %25(%x_29, %x9) /* ty=Tensor[(19, 21), float32] */;
  %26 = fn (%p025: Tensor[(19, 21), float32] /* ty=Tensor[(19, 21), float32] */, Primitive=1, relay.reshape_only=1) -> Tensor[(1, 1, 399), float32] {
    reshape(%p025, newshape=[1, 1, 399]) /* ty=Tensor[(1, 1, 399), float32] span=from_string:31:106 */
  } /* ty=fn (Tensor[(19, 21), float32]) -> Tensor[(1, 1, 399), float32] */;
  let %x_31: Tensor[(1, 1, 399), float32] /* ty=Tensor[(1, 1, 399), float32] span=from_string:37:171 */ = %26(%x_30) /* ty=Tensor[(1, 1, 399), float32] */;
  %27 = fn (%p026: Tensor[(19, 10), float32] /* ty=Tensor[(19, 10), float32] */, %p110: Tensor[(42, 10), float32] /* ty=Tensor[(42, 10), float32] */, Primitive=1) -> Tensor[(19, 42), float32] {
    nn.dense(%p026, %p110, units=None) /* ty=Tensor[(19, 42), float32] span=from_string:32:100 */
  } /* ty=fn (Tensor[(19, 10), float32], Tensor[(42, 10), float32]) -> Tensor[(19, 42), float32] */;
  let %x_32: Tensor[(19, 42), float32] /* ty=Tensor[(19, 42), float32] span=from_string:34:104 */ = %27(%x_13, %x10) /* ty=Tensor[(19, 42), float32] */;
  %28 = fn (%p027: Tensor[(42), float32] /* ty=Tensor[(42), float32] */, Primitive=1, relay.reshape_only=1) -> Tensor[(1, 42), float32] {
    expand_dims(%p027, axis=0) /* ty=Tensor[(1, 42), float32] span=from_string:33:98 */
  } /* ty=fn (Tensor[(42), float32]) -> Tensor[(1, 42), float32] */;
  let %x_33: Tensor[(1, 42), float32] /* ty=Tensor[(1, 42), float32] span=from_string:34:111 */ = %28(%x11) /* ty=Tensor[(1, 42), float32] */;
  %29 = fn (%p028: Tensor[(19, 42), float32] /* ty=Tensor[(19, 42), float32] */, %p111: Tensor[(1, 42), float32] /* ty=Tensor[(1, 42), float32] */, Primitive=1) -> Tensor[(19, 42), float32] {
    add(%p028, %p111) /* ty=Tensor[(19, 42), float32] span=from_string:34:100 */
  } /* ty=fn (Tensor[(19, 42), float32], Tensor[(1, 42), float32]) -> Tensor[(19, 42), float32] */;
  let %x_34: Tensor[(19, 42), float32] /* ty=Tensor[(19, 42), float32] span=from_string:35:110 */ = %29(%x_32, %x_33) /* ty=Tensor[(19, 42), float32] */;
  %30 = fn (%p029: Tensor[(19, 42), float32] /* ty=Tensor[(19, 42), float32] */, %p112: Tensor[(1), float32] /* ty=Tensor[(1), float32] */, Primitive=1) -> Tensor[(19, 42), float32] {
    multiply(%p029, %p112) /* ty=Tensor[(19, 42), float32] span=from_string:35:101 */
  } /* ty=fn (Tensor[(19, 42), float32], Tensor[(1), float32]) -> Tensor[(19, 42), float32] */;
  let %x_35: Tensor[(19, 42), float32] /* ty=Tensor[(19, 42), float32] span=from_string:36:114 */ = %30(%x_34, %x12) /* ty=Tensor[(19, 42), float32] */;
  %31 = fn (%p030: Tensor[(19, 42), float32] /* ty=Tensor[(19, 42), float32] */, Primitive=1, relay.reshape_only=1) -> Tensor[(1, 1, 798), float32] {
    reshape(%p030, newshape=[1, 1, 798]) /* ty=Tensor[(1, 1, 798), float32] span=from_string:36:106 */
  } /* ty=fn (Tensor[(19, 42), float32]) -> Tensor[(1, 1, 798), float32] */;
  let %x_36: Tensor[(1, 1, 798), float32] /* ty=Tensor[(1, 1, 798), float32] span=from_string:37:178 */ = %31(%x_35) /* ty=Tensor[(1, 1, 798), float32] */;
  let %x_37: (Tensor[(1, 1, 399), float32], Tensor[(1, 1, 798), float32]) /* ty=(Tensor[(1, 1, 399), float32], Tensor[(1, 1, 798), float32]) span=from_string:40:544 */ = (%x_31, %x_36) /* ty=(Tensor[(1, 1, 399), float32], Tensor[(1, 1, 798), float32]) span=from_string:37:170 */;
  %32 = fn (Primitive=1) -> Tensor[(1), float32] {
    ones(shape=[1], dtype="float32") /* ty=Tensor[(1), float32] span=from_string:38:90 */
  } /* ty=fn () -> Tensor[(1), float32] */;
  let %x_38: Tensor[(1), float32] /* ty=Tensor[(1), float32] span=from_string:39:100 */ = %32() /* ty=Tensor[(1), float32] */;
  %33 = fn (%p031: Tensor[(1), float32] /* ty=Tensor[(1), float32] */, %p113: Tensor[(1), float32] /* ty=Tensor[(1), float32] */, Primitive=1) -> Tensor[(1), float32] {
    multiply(%p031, %p113) /* ty=Tensor[(1), float32] span=from_string:39:91 */
  } /* ty=fn (Tensor[(1), float32], Tensor[(1), float32]) -> Tensor[(1), float32] */;
  let %x_39: Tensor[(1), float32] /* ty=Tensor[(1), float32] span=from_string:40:551 */ = %33(%x_38, %x12) /* ty=Tensor[(1), float32] */;
  let %x_41: (Tensor[(10, 20), float32], (Tensor[(19, 10), float32], Tensor[(19, 10), float32]), (Tensor[(10, 92, 1), float32], Tensor[(10, 59, 1), float32]), (Tensor[(1, 1, 399), float32], Tensor[(1, 1, 798), float32]), Tensor[(1), float32], int32) /* ty=(Tensor[(10, 20), float32], (Tensor[(19, 10), float32], Tensor[(19, 10), float32]), (Tensor[(10, 92, 1), float32], Tensor[(10, 59, 1), float32]), (Tensor[(1, 1, 399), float32], Tensor[(1, 1, 798), float32]), Tensor[(1), float32], int32) span=from_string:41:3 */ = (%x_8, %x_17, %x_26, %x_37, %x_39, 590 /* ty=int32 span=from_string:40:561 */) /* ty=(Tensor[(10, 20), float32], (Tensor[(19, 10), float32], Tensor[(19, 10), float32]), (Tensor[(10, 92, 1), float32], Tensor[(10, 59, 1), float32]), (Tensor[(1, 1, 399), float32], Tensor[(1, 1, 798), float32]), Tensor[(1), float32], int32) span=from_string:40:523 */;
  %x_41
}
