#[version = "0.0.5"]
def @main(%x0: Tensor[(10, 20), float32] /* ty=Tensor[(10, 20), float32] span=from_string:6:103 */, %x1: Tensor[(19, 20), float32] /* ty=Tensor[(19, 20), float32] span=from_string:54:105 */, %x2: Tensor[(10, 20), float32] /* ty=Tensor[(10, 20), float32] span=from_string:54:110 */, %x3: Tensor[(10), float32] /* ty=Tensor[(10), float32] span=from_string:46:103 */, %x4: Tensor[(10), float32] /* ty=Tensor[(10), float32] span=from_string:58:103 */, %x5: Tensor[(92, 20), float32] /* ty=Tensor[(92, 20), float32] span=from_string:79:112 */, %x6: Tensor[(59, 20), float32] /* ty=Tensor[(59, 20), float32] span=from_string:87:112 */, %x7: Tensor[(21, 10), float32] /* ty=Tensor[(21, 10), float32] span=from_string:96:113 */, %x8: Tensor[(21), float32] /* ty=Tensor[(21), float32] span=from_string:100:104 */, %x9: Tensor[(1), float32] /* ty=Tensor[(1), float32] span=from_string:108:113 */, %x10: Tensor[(42, 10), float32] /* ty=Tensor[(42, 10), float32] span=from_string:116:113 */, %x11: Tensor[(42), float32] /* ty=Tensor[(42), float32] span=from_string:120:104 */, %x12: Tensor[(1), float32] /* ty=Tensor[(1), float32] span=from_string:141:103 */, %x13: Tensor[(10, 59, 1), float32] /* ty=Tensor[(10, 59, 1), float32] */) -> (Tensor[(10, 20), float32], (Tensor[(19, 10), float32], Tensor[(19, 10), float32]), (Tensor[(10, 92, 1), float32], Tensor[(10, 59, 1), float32]), (Tensor[(1, 1, 399), float32], Tensor[(1, 1, 798), float32]), Tensor[(1), float32], int32) {
  %0 = fn (%p0: Tensor[(10, 20), float32] /* ty=Tensor[(10, 20), float32] span=from_string:4:9 */, Primitive=1) -> Tensor[(10, 20), float32] {
    add(%p0, 1f /* ty=float32 span=from_string:4:16 */) /* ty=Tensor[(10, 20), float32] span=from_string:4:5 */
  } /* ty=fn (Tensor[(10, 20), float32]) -> Tensor[(10, 20), float32] span=from_string:6:100 */;
  let %x_1: Tensor[(10, 20), float32] /* ty=Tensor[(10, 20), float32] span=from_string:10:103 */ = %0(%x0) /* ty=Tensor[(10, 20), float32] span=from_string:6:100 */;
  %1 = fn (%p01: Tensor[(10, 20), float32] /* ty=Tensor[(10, 20), float32] span=from_string:8:14 */, Primitive=1) -> Tensor[(10, 20), float32] {
    fast_exp(%p01) /* ty=Tensor[(10, 20), float32] span=from_string:8:5 */
  } /* ty=fn (Tensor[(10, 20), float32]) -> Tensor[(10, 20), float32] span=from_string:10:100 */;
  let %x_2: Tensor[(10, 20), float32] /* ty=Tensor[(10, 20), float32] span=from_string:67:105 */ = %1(%x_1) /* ty=Tensor[(10, 20), float32] span=from_string:10:100 */;
  %2 = fn (%p02: Tensor[(10, 20), float32] /* ty=Tensor[(10, 20), float32] span=from_string:12:13 */, Primitive=1, relay.reshape_only=1) -> Tensor[(10, 20), float32] {
    squeeze(%p02) /* ty=Tensor[(10, 20), float32] span=from_string:12:5 */
  } /* ty=fn (Tensor[(10, 20), float32]) -> Tensor[(10, 20), float32] span=from_string:14:100 */;
  let %x_3: Tensor[(10, 20), float32] /* ty=Tensor[(10, 20), float32] span=from_string:38:110 */ = %2(%x_2) /* ty=Tensor[(10, 20), float32] span=from_string:14:100 */;
  %3 = fn (%p03: Tensor[(10, 20), float32] /* ty=Tensor[(10, 20), float32] span=from_string:16:9 */, Primitive=1) -> Tensor[(10, 20), float32] {
    add(%p03, 1f /* ty=float32 span=from_string:16:17 */) /* ty=Tensor[(10, 20), float32] span=from_string:16:5 */
  } /* ty=fn (Tensor[(10, 20), float32]) -> Tensor[(10, 20), float32] span=from_string:18:100 */;
  let %x_5: Tensor[(10, 20), float32] /* ty=Tensor[(10, 20), float32] span=from_string:22:103 */ = %3(%x_3) /* ty=Tensor[(10, 20), float32] span=from_string:18:100 */;
  %4 = fn (%p04: Tensor[(10, 20), float32] /* ty=Tensor[(10, 20), float32] span=from_string:20:14 */, Primitive=1) -> Tensor[(10, 20), float32] {
    fast_exp(%p04) /* ty=Tensor[(10, 20), float32] span=from_string:20:5 */
  } /* ty=fn (Tensor[(10, 20), float32]) -> Tensor[(10, 20), float32] span=from_string:22:100 */;
  let %x_6: Tensor[(10, 20), float32] /* ty=Tensor[(10, 20), float32] span=from_string:26:103 */ = %4(%x_5) /* ty=Tensor[(10, 20), float32] span=from_string:22:100 */;
  %5 = fn (%p05: Tensor[(10, 20), float32] /* ty=Tensor[(10, 20), float32] span=from_string:24:13 */, Primitive=1, relay.reshape_only=1) -> Tensor[(10, 20), float32] {
    squeeze(%p05) /* ty=Tensor[(10, 20), float32] span=from_string:24:5 */
  } /* ty=fn (Tensor[(10, 20), float32]) -> Tensor[(10, 20), float32] span=from_string:26:100 */;
  let %x_7: Tensor[(10, 20), float32] /* ty=Tensor[(10, 20), float32] span=from_string:30:104 */ = %5(%x_6) /* ty=Tensor[(10, 20), float32] span=from_string:26:100 */;
  %6 = fn (%p06: Tensor[(10, 20), float32] /* ty=Tensor[(10, 20), float32] span=from_string:28:15 */, Primitive=1) -> Tensor[(10, 20), float32] {
    add(%p06, %p06) /* ty=Tensor[(10, 20), float32] span=from_string:28:5 */
  } /* ty=fn (Tensor[(10, 20), float32]) -> Tensor[(10, 20), float32] span=from_string:30:101 */;
  let %x_8: Tensor[(10, 20), float32] /* ty=Tensor[(10, 20), float32] span=from_string:142:525 */ = %6(%x_7) /* ty=Tensor[(10, 20), float32] span=from_string:30:101 */;
  %7 = fn (Primitive=1) -> Tensor[(1), float32] {
    ones(shape=[1], dtype="float32") /* ty=Tensor[(1), float32] span=from_string:32:5 */
  } /* ty=fn () -> Tensor[(1), float32] span=from_string:34:90 */;
  let %x_9: Tensor[(1), float32] /* ty=Tensor[(1), float32] span=from_string:38:104 */ = %7() /* ty=Tensor[(1), float32] span=from_string:34:90 */;
  %8 = fn (%p07: Tensor[(1), float32] /* ty=Tensor[(1), float32] span=from_string:36:15 */, %p1: Tensor[(10, 20), float32] /* ty=Tensor[(10, 20), float32] span=from_string:36:21 */, Primitive=1) -> Tensor[(10, 20), float32] {
    multiply(%p07, %p1) /* ty=Tensor[(10, 20), float32] span=from_string:36:6 */
  } /* ty=fn (Tensor[(1), float32], Tensor[(10, 20), float32]) -> Tensor[(10, 20), float32] span=from_string:38:101 */;
  let %x_10: Tensor[(10, 20), float32] /* ty=Tensor[(10, 20), float32] span=from_string:42:109 */ = %8(%x_9, %x_3) /* ty=Tensor[(10, 20), float32] span=from_string:38:101 */;
  %9 = fn (%p08: Tensor[(19, 20), float32] /* ty=Tensor[(19, 20), float32] span=from_string:40:14 */, %p11: Tensor[(10, 20), float32] /* ty=Tensor[(10, 20), float32] span=from_string:40:20 */, Primitive=1) -> Tensor[(19, 10), float32] {
    nn.dense(%p08, %p11, units=None) /* ty=Tensor[(19, 10), float32] span=from_string:40:5 */
  } /* ty=fn (Tensor[(19, 20), float32], Tensor[(10, 20), float32]) -> Tensor[(19, 10), float32] span=from_string:42:101 */;
  let %x_11: Tensor[(19, 10), float32] /* ty=Tensor[(19, 10), float32] span=from_string:50:106 */ = %9(%x1, %x_10) /* ty=Tensor[(19, 10), float32] span=from_string:42:101 */;
  %10 = fn (%p09: Tensor[(10), float32] /* ty=Tensor[(10), float32] span=from_string:44:17 */, Primitive=1, relay.reshape_only=1) -> Tensor[(1, 10), float32] {
    expand_dims(%p09, axis=0) /* ty=Tensor[(1, 10), float32] span=from_string:44:5 */
  } /* ty=fn (Tensor[(10), float32]) -> Tensor[(1, 10), float32] span=from_string:46:99 */;
  let %x_12: Tensor[(1, 10), float32] /* ty=Tensor[(1, 10), float32] span=from_string:50:113 */ = %10(%x3) /* ty=Tensor[(1, 10), float32] span=from_string:46:99 */;
  %11 = fn (%p010: Tensor[(19, 10), float32] /* ty=Tensor[(19, 10), float32] span=from_string:48:9 */, %p12: Tensor[(1, 10), float32] /* ty=Tensor[(1, 10), float32] span=from_string:48:16 */, Primitive=1) -> Tensor[(19, 10), float32] {
    add(%p010, %p12) /* ty=Tensor[(19, 10), float32] span=from_string:48:5 */
  } /* ty=fn (Tensor[(19, 10), float32], Tensor[(1, 10), float32]) -> Tensor[(19, 10), float32] span=from_string:50:102 */;
  let %x_13: Tensor[(19, 10), float32] /* ty=Tensor[(19, 10), float32] span=from_string:116:106 */ = %11(%x_11, %x_12) /* ty=Tensor[(19, 10), float32] span=from_string:50:102 */;
  %12 = fn (%p011: Tensor[(19, 20), float32] /* ty=Tensor[(19, 20), float32] span=from_string:52:14 */, %p13: Tensor[(10, 20), float32] /* ty=Tensor[(10, 20), float32] span=from_string:52:21 */, Primitive=1) -> Tensor[(19, 10), float32] {
    nn.dense(%p011, %p13, units=None) /* ty=Tensor[(19, 10), float32] span=from_string:52:5 */
  } /* ty=fn (Tensor[(19, 20), float32], Tensor[(10, 20), float32]) -> Tensor[(19, 10), float32] span=from_string:54:101 */;
  let %x_14: Tensor[(19, 10), float32] /* ty=Tensor[(19, 10), float32] span=from_string:62:105 */ = %12(%x1, %x2) /* ty=Tensor[(19, 10), float32] span=from_string:54:101 */;
  %13 = fn (%p012: Tensor[(10), float32] /* ty=Tensor[(10), float32] span=from_string:56:17 */, Primitive=1, relay.reshape_only=1) -> Tensor[(1, 10), float32] {
    expand_dims(%p012, axis=0) /* ty=Tensor[(1, 10), float32] span=from_string:56:5 */
  } /* ty=fn (Tensor[(10), float32]) -> Tensor[(1, 10), float32] span=from_string:58:99 */;
  let %x_15: Tensor[(1, 10), float32] /* ty=Tensor[(1, 10), float32] span=from_string:62:112 */ = %13(%x4) /* ty=Tensor[(1, 10), float32] span=from_string:58:99 */;
  %14 = fn (%p013: Tensor[(19, 10), float32] /* ty=Tensor[(19, 10), float32] span=from_string:60:9 */, %p14: Tensor[(1, 10), float32] /* ty=Tensor[(1, 10), float32] span=from_string:60:16 */, Primitive=1) -> Tensor[(19, 10), float32] {
    add(%p013, %p14) /* ty=Tensor[(19, 10), float32] span=from_string:60:5 */
  } /* ty=fn (Tensor[(19, 10), float32], Tensor[(1, 10), float32]) -> Tensor[(19, 10), float32] span=from_string:62:101 */;
  let %x_16: Tensor[(19, 10), float32] /* ty=Tensor[(19, 10), float32] span=from_string:63:168 */ = %14(%x_14, %x_15) /* ty=Tensor[(19, 10), float32] span=from_string:62:101 */;
  let %x_17: (Tensor[(19, 10), float32], Tensor[(19, 10), float32]) /* ty=(Tensor[(19, 10), float32], Tensor[(19, 10), float32]) span=from_string:142:531 */ = (%x_13, %x_16) /* ty=(Tensor[(19, 10), float32], Tensor[(19, 10), float32]) span=from_string:63:160 */;
  %15 = fn (%p014: Tensor[(10, 20), float32] /* ty=Tensor[(10, 20), float32] span=from_string:65:9 */, Primitive=1) -> Tensor[(10, 20), float32] {
    add(%p014, 1f /* ty=float32 span=from_string:65:18 */) /* ty=Tensor[(10, 20), float32] span=from_string:65:5 */
  } /* ty=fn (Tensor[(10, 20), float32]) -> Tensor[(10, 20), float32] span=from_string:67:101 */;
  let %x_19: Tensor[(10, 20), float32] /* ty=Tensor[(10, 20), float32] span=from_string:71:105 */ = %15(%x_2) /* ty=Tensor[(10, 20), float32] span=from_string:67:101 */;
  %16 = fn (%p015: Tensor[(10, 20), float32] /* ty=Tensor[(10, 20), float32] span=from_string:69:14 */, Primitive=1) -> Tensor[(10, 20), float32] {
    fast_exp(%p015) /* ty=Tensor[(10, 20), float32] span=from_string:69:5 */
  } /* ty=fn (Tensor[(10, 20), float32]) -> Tensor[(10, 20), float32] span=from_string:71:101 */;
  let %x_20: Tensor[(10, 20), float32] /* ty=Tensor[(10, 20), float32] span=from_string:75:105 */ = %16(%x_19) /* ty=Tensor[(10, 20), float32] span=from_string:71:101 */;
  %17 = fn (%p016: Tensor[(10, 20), float32] /* ty=Tensor[(10, 20), float32] span=from_string:73:13 */, Primitive=1, relay.reshape_only=1) -> Tensor[(10, 20), float32] {
    squeeze(%p016) /* ty=Tensor[(10, 20), float32] span=from_string:73:5 */
  } /* ty=fn (Tensor[(10, 20), float32]) -> Tensor[(10, 20), float32] span=from_string:75:101 */;
  let %x_21: Tensor[(10, 20), float32] /* ty=Tensor[(10, 20), float32] span=from_string:87:105 */ = %17(%x_20) /* ty=Tensor[(10, 20), float32] span=from_string:75:101 */;
  %18 = fn (%p017: Tensor[(10, 20), float32] /* ty=Tensor[(10, 20), float32] span=from_string:77:14 */, %p15: Tensor[(92, 20), float32] /* ty=Tensor[(92, 20), float32] span=from_string:77:21 */, Primitive=1) -> Tensor[(10, 92), float32] {
    nn.dense(%p017, %p15, units=None) /* ty=Tensor[(10, 92), float32] span=from_string:77:5 */
  } /* ty=fn (Tensor[(10, 20), float32], Tensor[(92, 20), float32]) -> Tensor[(10, 92), float32] span=from_string:79:101 */;
  let %x_22: Tensor[(10, 92), float32] /* ty=Tensor[(10, 92), float32] span=from_string:83:111 */ = %18(%x_21, %x5) /* ty=Tensor[(10, 92), float32] span=from_string:79:101 */;
  %19 = fn (%p018: Tensor[(10, 92), float32] /* ty=Tensor[(10, 92), float32] span=from_string:81:17 */, Primitive=1, relay.reshape_only=1) -> Tensor[(10, 92, 1), float32] {
    expand_dims(%p018, axis=2) /* ty=Tensor[(10, 92, 1), float32] span=from_string:81:5 */
  } /* ty=fn (Tensor[(10, 92), float32]) -> Tensor[(10, 92, 1), float32] span=from_string:83:107 */;
  let %x_23: Tensor[(10, 92, 1), float32] /* ty=Tensor[(10, 92, 1), float32] span=from_string:92:173 */ = %19(%x_22) /* ty=Tensor[(10, 92, 1), float32] span=from_string:83:107 */;
  %20 = fn (%p019: Tensor[(10, 20), float32] /* ty=Tensor[(10, 20), float32] span=from_string:85:14 */, %p16: Tensor[(59, 20), float32] /* ty=Tensor[(59, 20), float32] span=from_string:85:21 */, Primitive=1) -> Tensor[(10, 59), float32] {
    nn.dense(%p019, %p16, units=None) /* ty=Tensor[(10, 59), float32] span=from_string:85:5 */
  } /* ty=fn (Tensor[(10, 20), float32], Tensor[(59, 20), float32]) -> Tensor[(10, 59), float32] span=from_string:87:101 */;
  let %x_24: Tensor[(10, 59), float32] /* ty=Tensor[(10, 59), float32] span=from_string:91:111 */ = %20(%x_21, %x6) /* ty=Tensor[(10, 59), float32] span=from_string:87:101 */;
  %21 = fn (%p020: Tensor[(10, 59), float32] /* ty=Tensor[(10, 59), float32] span=from_string:89:17 */, Primitive=1, relay.reshape_only=1) -> Tensor[(10, 59, 1), float32] {
    expand_dims(%p020, axis=2) /* ty=Tensor[(10, 59, 1), float32] span=from_string:89:5 */
  } /* ty=fn (Tensor[(10, 59), float32]) -> Tensor[(10, 59, 1), float32] span=from_string:91:107 */;
  let %x_25: Tensor[(10, 59, 1), float32] /* ty=Tensor[(10, 59, 1), float32] span=from_string:92:180 */ = %21(%x_24) /* ty=Tensor[(10, 59, 1), float32] span=from_string:91:107 */;
  let %x_26: (Tensor[(10, 92, 1), float32], Tensor[(10, 59, 1), float32]) /* ty=(Tensor[(10, 92, 1), float32], Tensor[(10, 59, 1), float32]) span=from_string:142:538 */ = (%x_23, %x_25) /* ty=(Tensor[(10, 92, 1), float32], Tensor[(10, 59, 1), float32]) span=from_string:92:172 */;
  %22 = fn (%p021: Tensor[(19, 10), float32] /* ty=Tensor[(19, 10), float32] span=from_string:94:14 */, %p17: Tensor[(21, 10), float32] /* ty=Tensor[(21, 10), float32] span=from_string:94:21 */, Primitive=1) -> Tensor[(19, 21), float32] {
    nn.dense(%p021, %p17, units=None) /* ty=Tensor[(19, 21), float32] span=from_string:94:5 */
  } /* ty=fn (Tensor[(19, 10), float32], Tensor[(21, 10), float32]) -> Tensor[(19, 21), float32] span=from_string:96:102 */;
  let %x_27: Tensor[(19, 21), float32] /* ty=Tensor[(19, 21), float32] span=from_string:104:106 */ = %22(%x_13, %x7) /* ty=Tensor[(19, 21), float32] span=from_string:96:102 */;
  %23 = fn (%p022: Tensor[(21), float32] /* ty=Tensor[(21), float32] span=from_string:98:17 */, Primitive=1, relay.reshape_only=1) -> Tensor[(1, 21), float32] {
    expand_dims(%p022, axis=0) /* ty=Tensor[(1, 21), float32] span=from_string:98:5 */
  } /* ty=fn (Tensor[(21), float32]) -> Tensor[(1, 21), float32] span=from_string:100:100 */;
  let %x_28: Tensor[(1, 21), float32] /* ty=Tensor[(1, 21), float32] span=from_string:104:113 */ = %23(%x8) /* ty=Tensor[(1, 21), float32] span=from_string:100:100 */;
  %24 = fn (%p023: Tensor[(19, 21), float32] /* ty=Tensor[(19, 21), float32] span=from_string:102:9 */, %p18: Tensor[(1, 21), float32] /* ty=Tensor[(1, 21), float32] span=from_string:102:16 */, Primitive=1) -> Tensor[(19, 21), float32] {
    add(%p023, %p18) /* ty=Tensor[(19, 21), float32] span=from_string:102:5 */
  } /* ty=fn (Tensor[(19, 21), float32], Tensor[(1, 21), float32]) -> Tensor[(19, 21), float32] span=from_string:104:102 */;
  let %x_29: Tensor[(19, 21), float32] /* ty=Tensor[(19, 21), float32] span=from_string:108:106 */ = %24(%x_27, %x_28) /* ty=Tensor[(19, 21), float32] span=from_string:104:102 */;
  %25 = fn (%p024: Tensor[(19, 21), float32] /* ty=Tensor[(19, 21), float32] span=from_string:106:15 */, %p19: Tensor[(1), float32] /* ty=Tensor[(1), float32] span=from_string:106:22 */, Primitive=1) -> Tensor[(19, 21), float32] {
    multiply(%p024, %p19) /* ty=Tensor[(19, 21), float32] span=from_string:106:6 */
  } /* ty=fn (Tensor[(19, 21), float32], Tensor[(1), float32]) -> Tensor[(19, 21), float32] span=from_string:108:102 */;
  let %x_30: Tensor[(19, 21), float32] /* ty=Tensor[(19, 21), float32] span=from_string:112:112 */ = %25(%x_29, %x9) /* ty=Tensor[(19, 21), float32] span=from_string:108:102 */;
  %26 = fn (%p025: Tensor[(19, 21), float32] /* ty=Tensor[(19, 21), float32] span=from_string:110:13 */, Primitive=1, relay.reshape_only=1) -> Tensor[(1, 1, 399), float32] {
    reshape(%p025, newshape=[1, 1, 399]) /* ty=Tensor[(1, 1, 399), float32] span=from_string:110:5 */
  } /* ty=fn (Tensor[(19, 21), float32]) -> Tensor[(1, 1, 399), float32] span=from_string:112:108 */;
  let %x_31: Tensor[(1, 1, 399), float32] /* ty=Tensor[(1, 1, 399), float32] span=from_string:133:173 */ = %26(%x_30) /* ty=Tensor[(1, 1, 399), float32] span=from_string:112:108 */;
  %27 = fn (%p026: Tensor[(19, 10), float32] /* ty=Tensor[(19, 10), float32] span=from_string:114:14 */, %p110: Tensor[(42, 10), float32] /* ty=Tensor[(42, 10), float32] span=from_string:114:21 */, Primitive=1) -> Tensor[(19, 42), float32] {
    nn.dense(%p026, %p110, units=None) /* ty=Tensor[(19, 42), float32] span=from_string:114:5 */
  } /* ty=fn (Tensor[(19, 10), float32], Tensor[(42, 10), float32]) -> Tensor[(19, 42), float32] span=from_string:116:102 */;
  let %x_32: Tensor[(19, 42), float32] /* ty=Tensor[(19, 42), float32] span=from_string:124:106 */ = %27(%x_13, %x10) /* ty=Tensor[(19, 42), float32] span=from_string:116:102 */;
  %28 = fn (%p027: Tensor[(42), float32] /* ty=Tensor[(42), float32] span=from_string:118:17 */, Primitive=1, relay.reshape_only=1) -> Tensor[(1, 42), float32] {
    expand_dims(%p027, axis=0) /* ty=Tensor[(1, 42), float32] span=from_string:118:5 */
  } /* ty=fn (Tensor[(42), float32]) -> Tensor[(1, 42), float32] span=from_string:120:100 */;
  let %x_33: Tensor[(1, 42), float32] /* ty=Tensor[(1, 42), float32] span=from_string:124:113 */ = %28(%x11) /* ty=Tensor[(1, 42), float32] span=from_string:120:100 */;
  %29 = fn (%p028: Tensor[(19, 42), float32] /* ty=Tensor[(19, 42), float32] span=from_string:122:9 */, %p111: Tensor[(1, 42), float32] /* ty=Tensor[(1, 42), float32] span=from_string:122:16 */, Primitive=1) -> Tensor[(19, 42), float32] {
    add(%p028, %p111) /* ty=Tensor[(19, 42), float32] span=from_string:122:5 */
  } /* ty=fn (Tensor[(19, 42), float32], Tensor[(1, 42), float32]) -> Tensor[(19, 42), float32] span=from_string:124:102 */;
  let %x_34: Tensor[(19, 42), float32] /* ty=Tensor[(19, 42), float32] span=from_string:128:106 */ = %29(%x_32, %x_33) /* ty=Tensor[(19, 42), float32] span=from_string:124:102 */;
  %30 = fn (%p029: Tensor[(19, 42), float32] /* ty=Tensor[(19, 42), float32] span=from_string:126:15 */, %p112: Tensor[(1), float32] /* ty=Tensor[(1), float32] span=from_string:126:22 */, Primitive=1) -> Tensor[(19, 42), float32] {
    multiply(%p029, %p112) /* ty=Tensor[(19, 42), float32] span=from_string:126:6 */
  } /* ty=fn (Tensor[(19, 42), float32], Tensor[(1), float32]) -> Tensor[(19, 42), float32] span=from_string:128:102 */;
  let %x_35: Tensor[(19, 42), float32] /* ty=Tensor[(19, 42), float32] span=from_string:132:112 */ = %30(%x_34, %x12) /* ty=Tensor[(19, 42), float32] span=from_string:128:102 */;
  %31 = fn (%p030: Tensor[(19, 42), float32] /* ty=Tensor[(19, 42), float32] span=from_string:130:13 */, Primitive=1, relay.reshape_only=1) -> Tensor[(1, 1, 798), float32] {
    reshape(%p030, newshape=[1, 1, 798]) /* ty=Tensor[(1, 1, 798), float32] span=from_string:130:5 */
  } /* ty=fn (Tensor[(19, 42), float32]) -> Tensor[(1, 1, 798), float32] span=from_string:132:108 */;
  let %x_36: Tensor[(1, 1, 798), float32] /* ty=Tensor[(1, 1, 798), float32] span=from_string:133:180 */ = %31(%x_35) /* ty=Tensor[(1, 1, 798), float32] span=from_string:132:108 */;
  let %x_37: (Tensor[(1, 1, 399), float32], Tensor[(1, 1, 798), float32]) /* ty=(Tensor[(1, 1, 399), float32], Tensor[(1, 1, 798), float32]) span=from_string:142:545 */ = (%x_31, %x_36) /* ty=(Tensor[(1, 1, 399), float32], Tensor[(1, 1, 798), float32]) span=from_string:133:172 */;
  %32 = fn (Primitive=1) -> Tensor[(1), float32] {
    ones(shape=[1], dtype="float32") /* ty=Tensor[(1), float32] span=from_string:135:5 */
  } /* ty=fn () -> Tensor[(1), float32] span=from_string:137:91 */;
  let %x_38: Tensor[(1), float32] /* ty=Tensor[(1), float32] span=from_string:141:96 */ = %32() /* ty=Tensor[(1), float32] span=from_string:137:91 */;
  %33 = fn (%p031: Tensor[(1), float32] /* ty=Tensor[(1), float32] span=from_string:139:15 */, %p113: Tensor[(1), float32] /* ty=Tensor[(1), float32] span=from_string:139:22 */, Primitive=1) -> Tensor[(1), float32] {
    multiply(%p031, %p113) /* ty=Tensor[(1), float32] span=from_string:139:6 */
  } /* ty=fn (Tensor[(1), float32], Tensor[(1), float32]) -> Tensor[(1), float32] span=from_string:141:92 */;
  let %x_39: Tensor[(1), float32] /* ty=Tensor[(1), float32] span=from_string:142:552 */ = %33(%x_38, %x12) /* ty=Tensor[(1), float32] span=from_string:141:92 */;
  let %x_41: (Tensor[(10, 20), float32], (Tensor[(19, 10), float32], Tensor[(19, 10), float32]), (Tensor[(10, 92, 1), float32], Tensor[(10, 59, 1), float32]), (Tensor[(1, 1, 399), float32], Tensor[(1, 1, 798), float32]), Tensor[(1), float32], int32) /* ty=(Tensor[(10, 20), float32], (Tensor[(19, 10), float32], Tensor[(19, 10), float32]), (Tensor[(10, 92, 1), float32], Tensor[(10, 59, 1), float32]), (Tensor[(1, 1, 399), float32], Tensor[(1, 1, 798), float32]), Tensor[(1), float32], int32) span=from_string:143:3 */ = (%x_8, %x_17, %x_26, %x_37, %x_39, 590 /* ty=int32 span=from_string:142:562 */) /* ty=(Tensor[(10, 20), float32], (Tensor[(19, 10), float32], Tensor[(19, 10), float32]), (Tensor[(10, 92, 1), float32], Tensor[(10, 59, 1), float32]), (Tensor[(1, 1, 399), float32], Tensor[(1, 1, 798), float32]), Tensor[(1), float32], int32) span=from_string:142:524 */;
  %x_41
}
