#[version = "0.0.5"]
def @main(%x0: Tensor[(10, 20), float32] /* ty=Tensor[(10, 20), float32] span=GeneratedSource:3:12 */, %x1: Tensor[(19, 20), float32] /* ty=Tensor[(19, 20), float32] span=GeneratedSource:12:17 */, %x2: Tensor[(10, 20), float32] /* ty=Tensor[(10, 20), float32] span=GeneratedSource:12:22 */, %x3: Tensor[(10), float32] /* ty=Tensor[(10), float32] span=GeneratedSource:13:17 */, %x4: Tensor[(10), float32] /* ty=Tensor[(10), float32] span=GeneratedSource:14:17 */, %x5: Tensor[(92, 20), float32] /* ty=Tensor[(92, 20), float32] span=GeneratedSource:18:23 */, %x6: Tensor[(59, 20), float32] /* ty=Tensor[(59, 20), float32] span=GeneratedSource:19:23 */, %x7: Tensor[(21, 10), float32] /* ty=Tensor[(21, 10), float32] span=GeneratedSource:22:23 */, %x8: Tensor[(21), float32] /* ty=Tensor[(21), float32] span=GeneratedSource:23:18 */, %x9: Tensor[(1), float32] /* ty=Tensor[(1), float32] span=GeneratedSource:24:24 */, %x10: Tensor[(42, 10), float32] /* ty=Tensor[(42, 10), float32] span=GeneratedSource:25:23 */, %x11: Tensor[(42), float32] /* ty=Tensor[(42), float32] span=GeneratedSource:26:18 */, %x12: Tensor[(1), float32] /* ty=Tensor[(1), float32] span=GeneratedSource:35:24 */, %x13: Tensor[(10, 59, 1), float32] /* ty=Tensor[(10, 59, 1), float32] */) -> (Tensor[(10, 20), float32], (Tensor[(19, 10), float32], Tensor[(19, 10), float32]), (Tensor[(10, 92, 1), float32], Tensor[(10, 59, 1), float32]), (Tensor[(1, 1, 399), float32], Tensor[(1, 1, 798), float32]), Tensor[(1), float32], int32) {
  %0 = add(%x0, 1f /* ty=float32 span=GeneratedSource:3:19 */) /* ty=Tensor[(10, 20), float32] span=GeneratedSource:4:12 */;
  %1 = exp(%0) /* ty=Tensor[(10, 20), float32] span=GeneratedSource:15:13 */;
  %2 = squeeze(%1) /* ty=Tensor[(10, 20), float32] span=GeneratedSource:10:22 */;
  %3 = add(%2, 1f /* ty=float32 span=GeneratedSource:6:18 */) /* ty=Tensor[(10, 20), float32] span=GeneratedSource:7:12 */;
  %4 = exp(%3) /* ty=Tensor[(10, 20), float32] span=GeneratedSource:8:16 */;
  %5 = squeeze(%4) /* ty=Tensor[(10, 20), float32] span=GeneratedSource:31:17 */;
  %6 = ones(shape=[1], dtype="float32") /* ty=Tensor[(1), float32] span=GeneratedSource:10:18 */;
  %7 = multiply(%6, %2) /* ty=Tensor[(10, 20), float32] span=GeneratedSource:11:22 */;
  %8 = nn.dense(%x1, %7, units=None) /* ty=Tensor[(19, 10), float32] span=GeneratedSource:13:13 */;
  %9 = nn.dense(%x1, %x2, units=None) /* ty=Tensor[(19, 10), float32] span=GeneratedSource:14:13 */;
  %10 = add(%8, %x3) /* ty=Tensor[(19, 10), float32] span=GeneratedSource:32:10 */;
  %11 = add(%9, %x4) /* ty=Tensor[(19, 10), float32] span=GeneratedSource:32:15 */;
  %12 = add(%1, 1f /* ty=float32 span=GeneratedSource:15:19 */) /* ty=Tensor[(10, 20), float32] span=GeneratedSource:16:13 */;
  %13 = exp(%12) /* ty=Tensor[(10, 20), float32] span=GeneratedSource:17:17 */;
  %14 = squeeze(%13) /* ty=Tensor[(10, 20), float32] span=GeneratedSource:19:18 */;
  %15 = nn.dense(%14, %x5, units=None) /* ty=Tensor[(10, 92), float32] span=GeneratedSource:20:21 */;
  %16 = nn.dense(%14, %x6, units=None) /* ty=Tensor[(10, 59), float32] span=GeneratedSource:21:21 */;
  %17 = expand_dims(%15, axis=2) /* ty=Tensor[(10, 92, 1), float32] span=GeneratedSource:33:10 */;
  %18 = expand_dims(%16, axis=2) /* ty=Tensor[(10, 59, 1), float32] span=GeneratedSource:33:15 */;
  %19 = nn.dense(%10, %x7, units=None) /* ty=Tensor[(19, 21), float32] span=GeneratedSource:23:13 */;
  %20 = add(%19, %x8) /* ty=Tensor[(19, 21), float32] span=GeneratedSource:24:19 */;
  %21 = multiply(%20, %x9) /* ty=Tensor[(19, 21), float32] span=GeneratedSource:28:17 */;
  %22 = nn.dense(%10, %x10, units=None) /* ty=Tensor[(19, 42), float32] span=GeneratedSource:26:13 */;
  %23 = add(%22, %x11) /* ty=Tensor[(19, 42), float32] span=GeneratedSource:27:19 */;
  %24 = multiply(%23, %x12) /* ty=Tensor[(19, 42), float32] span=GeneratedSource:29:17 */;
  %25 = reshape(%21, newshape=[1, 1, 399]) /* ty=Tensor[(1, 1, 399), float32] span=GeneratedSource:34:10 */;
  %26 = reshape(%24, newshape=[1, 1, 798]) /* ty=Tensor[(1, 1, 798), float32] span=GeneratedSource:34:15 */;
  %27 = ones(shape=[1], dtype="float32") /* ty=Tensor[(1), float32] span=GeneratedSource:35:19 */;
  %28 = add(%5, %5) /* ty=Tensor[(10, 20), float32] span=GeneratedSource:36:4 */;
  %29 = (%10, %11) /* ty=(Tensor[(19, 10), float32], Tensor[(19, 10), float32]) span=GeneratedSource:36:9 */;
  %30 = (%17, %18) /* ty=(Tensor[(10, 92, 1), float32], Tensor[(10, 59, 1), float32]) span=GeneratedSource:36:14 */;
  %31 = (%25, %26) /* ty=(Tensor[(1, 1, 399), float32], Tensor[(1, 1, 798), float32]) span=GeneratedSource:36:19 */;
  %32 = multiply(%27, %x12) /* ty=Tensor[(1), float32] span=GeneratedSource:36:24 */;
  (%28, %29, %30, %31, %32, 590 /* ty=int32 span=GeneratedSource:36:32 */) /* ty=(Tensor[(10, 20), float32], (Tensor[(19, 10), float32], Tensor[(19, 10), float32]), (Tensor[(10, 92, 1), float32], Tensor[(10, 59, 1), float32]), (Tensor[(1, 1, 399), float32], Tensor[(1, 1, 798), float32]), Tensor[(1), float32], int32) span=GeneratedSource:3:3 */
}
