#[version = "0.0.5"]
def @main(%x0: Tensor[(10, 20), float32] /* ty=Tensor[(10, 20), float32] span=from_string:3:12 */, %x1: Tensor[(19, 20), float32] /* ty=Tensor[(19, 20), float32] span=from_string:12:17 */, %x2: Tensor[(10, 20), float32] /* ty=Tensor[(10, 20), float32] span=from_string:12:22 */, %x3: Tensor[(10), float32] /* ty=Tensor[(10), float32] span=from_string:13:17 */, %x4: Tensor[(10), float32] /* ty=Tensor[(10), float32] span=from_string:14:17 */, %x5: Tensor[(92, 20), float32] /* ty=Tensor[(92, 20), float32] span=from_string:18:23 */, %x6: Tensor[(59, 20), float32] /* ty=Tensor[(59, 20), float32] span=from_string:19:23 */, %x7: Tensor[(21, 10), float32] /* ty=Tensor[(21, 10), float32] span=from_string:22:23 */, %x8: Tensor[(21), float32] /* ty=Tensor[(21), float32] span=from_string:23:18 */, %x9: Tensor[(1), float32] /* ty=Tensor[(1), float32] span=from_string:24:24 */, %x10: Tensor[(42, 10), float32] /* ty=Tensor[(42, 10), float32] span=from_string:25:23 */, %x11: Tensor[(42), float32] /* ty=Tensor[(42), float32] span=from_string:26:18 */, %x12: Tensor[(1), float32] /* ty=Tensor[(1), float32] span=from_string:35:24 */, %x13: Tensor[(10, 59, 1), float32] /* ty=Tensor[(10, 59, 1), float32] */) -> (Tensor[(10, 20), float32], (Tensor[(19, 10), float32], Tensor[(19, 10), float32]), (Tensor[(10, 92, 1), float32], Tensor[(10, 59, 1), float32]), (Tensor[(1, 1, 399), float32], Tensor[(1, 1, 798), float32]), Tensor[(1), float32], int32) {
  let %x_0 = 1f /* ty=float32 span=from_string:3:19 */;
  let %x_1 = add(%x0, %x_0);
  let %x_2 = exp(%x_1);
  let %x_3 = squeeze(%x_2);
  let %x_4 = 1f /* ty=float32 span=from_string:6:18 */;
  let %x_5 = add(%x_3, %x_4);
  let %x_6 = exp(%x_5);
  let %x_7 = squeeze(%x_6);
  let %x_8 = add(%x_7, %x_7);
  let %x_9 = ones(shape=[1], dtype="float32");
  let %x_10 = multiply(%x_9, %x_3);
  let %x_11 = nn.dense(%x1, %x_10, units=None);
  let %x_12 = add(%x_11, %x3);
  let %x_13 = nn.dense(%x1, %x2, units=None);
  let %x_14 = add(%x_13, %x4);
  let %x_15 = (%x_12, %x_14) /* ty=(Tensor[(19, 10), float32], Tensor[(19, 10), float32]) span=from_string:36:9 */;
  let %x_16 = 1f /* ty=float32 span=from_string:15:19 */;
  let %x_17 = add(%x_2, %x_16);
  let %x_18 = exp(%x_17);
  let %x_19 = squeeze(%x_18);
  let %x_20 = nn.dense(%x_19, %x5, units=None);
  let %x_21 = expand_dims(%x_20, axis=2);
  let %x_22 = nn.dense(%x_19, %x6, units=None);
  let %x_23 = expand_dims(%x_22, axis=2);
  let %x_24 = (%x_21, %x_23) /* ty=(Tensor[(10, 92, 1), float32], Tensor[(10, 59, 1), float32]) span=from_string:36:14 */;
  let %x_25 = nn.dense(%x_12, %x7, units=None);
  let %x_26 = add(%x_25, %x8);
  let %x_27 = multiply(%x_26, %x9);
  let %x_28 = reshape(%x_27, newshape=[1, 1, 399]);
  let %x_29 = nn.dense(%x_12, %x10, units=None);
  let %x_30 = add(%x_29, %x11);
  let %x_31 = multiply(%x_30, %x12);
  let %x_32 = reshape(%x_31, newshape=[1, 1, 798]);
  let %x_33 = (%x_28, %x_32) /* ty=(Tensor[(1, 1, 399), float32], Tensor[(1, 1, 798), float32]) span=from_string:36:19 */;
  let %x_34 = ones(shape=[1], dtype="float32");
  let %x_35 = multiply(%x_34, %x12);
  let %x_36 = 590 /* ty=int32 span=from_string:36:32 */;
  let %x_37 = (%x_8, %x_15, %x_24, %x_33, %x_35, %x_36) /* ty=(Tensor[(10, 20), float32], (Tensor[(19, 10), float32], Tensor[(19, 10), float32]), (Tensor[(10, 92, 1), float32], Tensor[(10, 59, 1), float32]), (Tensor[(1, 1, 399), float32], Tensor[(1, 1, 798), float32]), Tensor[(1), float32], int32) span=from_string:3:3 */;
  %x_37
}
