#[version = "0.0.5"]
def @main(%x0: Tensor[(10, 20), float32] /* ty=Tensor[(10, 20), float32] */, %x1: Tensor[(19, 20), float32] /* ty=Tensor[(19, 20), float32] */, %x2: Tensor[(10, 20), float32] /* ty=Tensor[(10, 20), float32] */, %x3: Tensor[(10), float32] /* ty=Tensor[(10), float32] */, %x4: Tensor[(10), float32] /* ty=Tensor[(10), float32] */, %x5: Tensor[(92, 20), float32] /* ty=Tensor[(92, 20), float32] */, %x6: Tensor[(59, 20), float32] /* ty=Tensor[(59, 20), float32] */, %x7: Tensor[(21, 10), float32] /* ty=Tensor[(21, 10), float32] */, %x8: Tensor[(21), float32] /* ty=Tensor[(21), float32] */, %x9: Tensor[(1), float32] /* ty=Tensor[(1), float32] */, %x10: Tensor[(42, 10), float32] /* ty=Tensor[(42, 10), float32] */, %x11: Tensor[(42), float32] /* ty=Tensor[(42), float32] */, %x12: Tensor[(1), float32] /* ty=Tensor[(1), float32] */, %x13: Tensor[(10, 59, 1), float32]) -> (Tensor[(10, 20), float32], (Tensor[(19, 10), float32], Tensor[(19, 10), float32]), (Tensor[(10, 92, 1), float32], Tensor[(10, 59, 1), float32]), (Tensor[(1, 1, 399), float32], Tensor[(1, 1, 798), float32]), Tensor[(1), float32], int32) {
  let %x_0 = 1f /* ty=float32 span=from_string:3:16 */;
  let %x_1 = add(%x0, %x_0);
  let %x_2 = exp(%x_1);
  let %x_3 = squeeze(%x_2);
  let %x_4 = 1f /* ty=float32 span=from_string:7:16 */;
  let %x_5 = add(%x_3, %x_4);
  let %x_6 = exp(%x_5);
  let %x_7 = squeeze(%x_6);
  let %x_8 = add(%x_7, %x_7);
  let %x_11 = meta[relay.Constant][0];
  let %x_12 = multiply(%x_11, %x_3);
  let %x_13 = nn.dense(%x1, %x_12, units=None);
  let %x_14 = add(%x_13, %x3);
  let %x_15 = nn.dense(%x1, %x2, units=None);
  let %x_16 = add(%x_15, %x4);
  let %x_17 = (%x_14, %x_16);
  let %x_18 = 1f /* ty=float32 span=from_string:19:17 */;
  let %x_19 = add(%x_2, %x_18);
  let %x_20 = exp(%x_19);
  let %x_21 = squeeze(%x_20);
  let %x_22 = nn.dense(%x_21, %x5, units=None);
  let %x_23 = expand_dims(%x_22, axis=2);
  let %x_24 = nn.dense(%x_21, %x6, units=None);
  let %x_25 = expand_dims(%x_24, axis=2);
  let %x_26 = (%x_23, %x_25);
  let %x_27 = nn.dense(%x_14, %x7, units=None);
  let %x_28 = add(%x_27, %x8);
  let %x_29 = multiply(%x_28, %x9);
  let %x_30 = reshape(%x_29, newshape=[1, 1, 399]);
  let %x_31 = nn.dense(%x_14, %x10, units=None);
  let %x_32 = add(%x_31, %x11);
  let %x_33 = multiply(%x_32, %x12);
  let %x_34 = reshape(%x_33, newshape=[1, 1, 798]);
  let %x_35 = (%x_30, %x_34);
  let %x_38 = meta[relay.Constant][1];
  let %x_39 = multiply(%x_38, %x12);
  let %x_40 = 590 /* ty=int32 span=from_string:39:18 */;
  let %x_41 = (%x_8, %x_17, %x_26, %x_35, %x_39, %x_40);
  %x_41
}

#[metadata]
{
  "root": 1, 
  "nodes": [
    {
      "type_key": ""
    }, 
    {
      "type_key": "Map", 
      "keys": [
        "relay.Constant"
      ], 
      "data": [2]
    }, 
    {
      "type_key": "Array", 
      "data": [3, 6]
    }, 
    {
      "type_key": "relay.Constant", 
      "attrs": {
        "_checked_type_": "0", 
        "data": "0", 
        "span": "0", 
        "virtual_device_": "4"
      }
    }, 
    {
      "type_key": "VirtualDevice", 
      "attrs": {
        "device_type_int": "-1", 
        "memory_scope": "5", 
        "target": "0", 
        "virtual_device_id": "-1"
      }
    }, 
    {
      "type_key": "runtime.String"
    }, 
    {
      "type_key": "relay.Constant", 
      "attrs": {
        "_checked_type_": "0", 
        "data": "1", 
        "span": "0", 
        "virtual_device_": "4"
      }
    }
  ], 
  "b64ndarrays": [
    "P6G0lvBAXt0AAAAAAAAAAAEAAAAAAAAAAQAAAAIgAQABAAAAAAAAAAQAAAAAAAAAAACAPw==", 
    "P6G0lvBAXt0AAAAAAAAAAAEAAAAAAAAAAQAAAAIgAQABAAAAAAAAAAQAAAAAAAAAAACAPw=="
  ], 
  "attrs": {"tvm_version": "0.13.0"}
}