#[version = "0.0.5"]
def @main(%x0: Tensor[(10, 20), float32] /* ty=Tensor[(10, 20), float32] span=from_string:4:102 */, %x1: Tensor[(19, 20), float32] /* ty=Tensor[(19, 20), float32] span=from_string:16:109 */, %x2: Tensor[(10, 20), float32] /* ty=Tensor[(10, 20), float32] span=from_string:16:114 */, %x3: Tensor[(10), float32] /* ty=Tensor[(10), float32] span=from_string:15:111 */, %x4: Tensor[(10), float32] /* ty=Tensor[(10), float32] span=from_string:17:111 */, %x5: Tensor[(92, 20), float32] /* ty=Tensor[(92, 20), float32] span=from_string:23:116 */, %x6: Tensor[(59, 20), float32] /* ty=Tensor[(59, 20), float32] span=from_string:25:116 */, %x7: Tensor[(21, 10), float32] /* ty=Tensor[(21, 10), float32] span=from_string:28:116 */, %x8: Tensor[(21), float32] /* ty=Tensor[(21), float32] span=from_string:29:111 */, %x9: Tensor[(1), float32] /* ty=Tensor[(1), float32] span=from_string:30:117 */, %x10: Tensor[(42, 10), float32] /* ty=Tensor[(42, 10), float32] span=from_string:32:116 */, %x11: Tensor[(42), float32] /* ty=Tensor[(42), float32] span=from_string:33:111 */, %x12: Tensor[(1), float32] /* ty=Tensor[(1), float32] span=from_string:38:107 */, %x13: Tensor[(10, 59, 1), float32] /* ty=Tensor[(10, 59, 1), float32] */) -> (Tensor[(10, 20), float32], (Tensor[(19, 10), float32], Tensor[(19, 10), float32]), (Tensor[(10, 92, 1), float32], Tensor[(10, 59, 1), float32]), (Tensor[(1, 1, 399), float32], Tensor[(1, 1, 798), float32]), Tensor[(1), float32], int32) {
  let %x_0: float32 /* ty=float32 span=from_string:4:107 */ = 1f /* ty=float32 span=from_string:3:64 */;
  let %x_1: Tensor[(10, 20), float32] /* ty=Tensor[(10, 20), float32] span=from_string:5:108 */ = add(%x0, %x_0) /* ty=Tensor[(10, 20), float32] span=from_string:4:98 */;
  let %x_2: Tensor[(10, 20), float32] /* ty=Tensor[(10, 20), float32] span=from_string:20:104 */ = fast_exp(%x_1) /* ty=Tensor[(10, 20), float32] span=from_string:5:99 */;
  let %x_3: Tensor[(10, 20), float32] /* ty=Tensor[(10, 20), float32] span=from_string:13:116 */ = squeeze(%x_2) /* ty=Tensor[(10, 20), float32] span=from_string:6:99 */;
  let %x_4: float32 /* ty=float32 span=from_string:8:108 */ = 1f /* ty=float32 span=from_string:7:64 */;
  let %x_5: Tensor[(10, 20), float32] /* ty=Tensor[(10, 20), float32] span=from_string:9:108 */ = add(%x_3, %x_4) /* ty=Tensor[(10, 20), float32] span=from_string:8:98 */;
  let %x_6: Tensor[(10, 20), float32] /* ty=Tensor[(10, 20), float32] span=from_string:10:107 */ = fast_exp(%x_5) /* ty=Tensor[(10, 20), float32] span=from_string:9:99 */;
  let %x_7: Tensor[(10, 20), float32] /* ty=Tensor[(10, 20), float32] span=from_string:11:109 */ = squeeze(%x_6) /* ty=Tensor[(10, 20), float32] span=from_string:10:99 */;
  let %x_8: Tensor[(10, 20), float32] /* ty=Tensor[(10, 20), float32] span=from_string:40:524 */ = add(%x_7, %x_7) /* ty=Tensor[(10, 20), float32] span=from_string:11:99 */;
  let %x_9: Tensor[(1), float32] /* ty=Tensor[(1), float32] span=from_string:13:110 */ = meta[relay.Constant][0] /* ty=Tensor[(1), float32] span=from_string:12:94 */;
  let %x_10: Tensor[(10, 20), float32] /* ty=Tensor[(10, 20), float32] span=from_string:14:114 */ = multiply(%x_9, %x_3) /* ty=Tensor[(10, 20), float32] span=from_string:13:101 */;
  let %x_11: Tensor[(19, 10), float32] /* ty=Tensor[(19, 10), float32] span=from_string:15:104 */ = nn.dense(%x1, %x_10, units=None) /* ty=Tensor[(19, 10), float32] span=from_string:14:100 */;
  let %x_12: Tensor[(19, 10), float32] /* ty=Tensor[(19, 10), float32] span=from_string:32:109 */ = add(%x_11, %x3) /* ty=Tensor[(19, 10), float32] span=from_string:15:100 */;
  let %x_13: Tensor[(19, 10), float32] /* ty=Tensor[(19, 10), float32] span=from_string:17:104 */ = nn.dense(%x1, %x2, units=None) /* ty=Tensor[(19, 10), float32] span=from_string:16:100 */;
  let %x_14: Tensor[(19, 10), float32] /* ty=Tensor[(19, 10), float32] span=from_string:18:166 */ = add(%x_13, %x4) /* ty=Tensor[(19, 10), float32] span=from_string:17:100 */;
  let %x_15: (Tensor[(19, 10), float32], Tensor[(19, 10), float32]) /* ty=(Tensor[(19, 10), float32], Tensor[(19, 10), float32]) span=from_string:40:530 */ = (%x_12, %x_14) /* ty=(Tensor[(19, 10), float32], Tensor[(19, 10), float32]) span=from_string:18:158 */;
  let %x_16: float32 /* ty=float32 span=from_string:20:110 */ = 1f /* ty=float32 span=from_string:19:66 */;
  let %x_17: Tensor[(10, 20), float32] /* ty=Tensor[(10, 20), float32] span=from_string:21:109 */ = add(%x_2, %x_16) /* ty=Tensor[(10, 20), float32] span=from_string:20:100 */;
  let %x_18: Tensor[(10, 20), float32] /* ty=Tensor[(10, 20), float32] span=from_string:22:108 */ = fast_exp(%x_17) /* ty=Tensor[(10, 20), float32] span=from_string:21:100 */;
  let %x_19: Tensor[(10, 20), float32] /* ty=Tensor[(10, 20), float32] span=from_string:25:109 */ = squeeze(%x_18) /* ty=Tensor[(10, 20), float32] span=from_string:22:100 */;
  let %x_20: Tensor[(10, 92), float32] /* ty=Tensor[(10, 92), float32] span=from_string:24:118 */ = nn.dense(%x_19, %x5, units=None) /* ty=Tensor[(10, 92), float32] span=from_string:23:100 */;
  let %x_21: Tensor[(10, 92, 1), float32] /* ty=Tensor[(10, 92, 1), float32] span=from_string:27:171 */ = expand_dims(%x_20, axis=2) /* ty=Tensor[(10, 92, 1), float32] span=from_string:24:106 */;
  let %x_22: Tensor[(10, 59), float32] /* ty=Tensor[(10, 59), float32] span=from_string:26:118 */ = nn.dense(%x_19, %x6, units=None) /* ty=Tensor[(10, 59), float32] span=from_string:25:100 */;
  let %x_23: Tensor[(10, 59, 1), float32] /* ty=Tensor[(10, 59, 1), float32] span=from_string:27:178 */ = expand_dims(%x_22, axis=2) /* ty=Tensor[(10, 59, 1), float32] span=from_string:26:106 */;
  let %x_24: (Tensor[(10, 92, 1), float32], Tensor[(10, 59, 1), float32]) /* ty=(Tensor[(10, 92, 1), float32], Tensor[(10, 59, 1), float32]) span=from_string:40:537 */ = (%x_21, %x_23) /* ty=(Tensor[(10, 92, 1), float32], Tensor[(10, 59, 1), float32]) span=from_string:27:170 */;
  let %x_25: Tensor[(19, 21), float32] /* ty=Tensor[(19, 21), float32] span=from_string:29:104 */ = nn.dense(%x_12, %x7, units=None) /* ty=Tensor[(19, 21), float32] span=from_string:28:100 */;
  let %x_26: Tensor[(19, 21), float32] /* ty=Tensor[(19, 21), float32] span=from_string:30:110 */ = add(%x_25, %x8) /* ty=Tensor[(19, 21), float32] span=from_string:29:100 */;
  let %x_27: Tensor[(19, 21), float32] /* ty=Tensor[(19, 21), float32] span=from_string:31:114 */ = multiply(%x_26, %x9) /* ty=Tensor[(19, 21), float32] span=from_string:30:101 */;
  let %x_28: Tensor[(1, 1, 399), float32] /* ty=Tensor[(1, 1, 399), float32] span=from_string:36:171 */ = reshape(%x_27, newshape=[1, 1, 399]) /* ty=Tensor[(1, 1, 399), float32] span=from_string:31:106 */;
  let %x_29: Tensor[(19, 42), float32] /* ty=Tensor[(19, 42), float32] span=from_string:33:104 */ = nn.dense(%x_12, %x10, units=None) /* ty=Tensor[(19, 42), float32] span=from_string:32:100 */;
  let %x_30: Tensor[(19, 42), float32] /* ty=Tensor[(19, 42), float32] span=from_string:34:110 */ = add(%x_29, %x11) /* ty=Tensor[(19, 42), float32] span=from_string:33:100 */;
  let %x_31: Tensor[(19, 42), float32] /* ty=Tensor[(19, 42), float32] span=from_string:35:114 */ = multiply(%x_30, %x12) /* ty=Tensor[(19, 42), float32] span=from_string:34:101 */;
  let %x_32: Tensor[(1, 1, 798), float32] /* ty=Tensor[(1, 1, 798), float32] span=from_string:36:178 */ = reshape(%x_31, newshape=[1, 1, 798]) /* ty=Tensor[(1, 1, 798), float32] span=from_string:35:106 */;
  let %x_33: (Tensor[(1, 1, 399), float32], Tensor[(1, 1, 798), float32]) /* ty=(Tensor[(1, 1, 399), float32], Tensor[(1, 1, 798), float32]) span=from_string:40:544 */ = (%x_28, %x_32) /* ty=(Tensor[(1, 1, 399), float32], Tensor[(1, 1, 798), float32]) span=from_string:36:170 */;
  let %x_34: Tensor[(1), float32] /* ty=Tensor[(1), float32] span=from_string:38:100 */ = meta[relay.Constant][1] /* ty=Tensor[(1), float32] span=from_string:37:95 */;
  let %x_35: Tensor[(1), float32] /* ty=Tensor[(1), float32] span=from_string:40:551 */ = multiply(%x_34, %x12) /* ty=Tensor[(1), float32] span=from_string:38:91 */;
  let %x_36: int32 /* ty=int32 span=from_string:40:558 */ = 590 /* ty=int32 span=from_string:39:65 */;
  let %x_37: (Tensor[(10, 20), float32], (Tensor[(19, 10), float32], Tensor[(19, 10), float32]), (Tensor[(10, 92, 1), float32], Tensor[(10, 59, 1), float32]), (Tensor[(1, 1, 399), float32], Tensor[(1, 1, 798), float32]), Tensor[(1), float32], int32) /* ty=(Tensor[(10, 20), float32], (Tensor[(19, 10), float32], Tensor[(19, 10), float32]), (Tensor[(10, 92, 1), float32], Tensor[(10, 59, 1), float32]), (Tensor[(1, 1, 399), float32], Tensor[(1, 1, 798), float32]), Tensor[(1), float32], int32) span=from_string:41:3 */ = (%x_8, %x_15, %x_24, %x_33, %x_35, %x_36) /* ty=(Tensor[(10, 20), float32], (Tensor[(19, 10), float32], Tensor[(19, 10), float32]), (Tensor[(10, 92, 1), float32], Tensor[(10, 59, 1), float32]), (Tensor[(1, 1, 399), float32], Tensor[(1, 1, 798), float32]), Tensor[(1), float32], int32) span=from_string:40:523 */;
  %x_37
}

#[metadata]
{
  "root": 1, 
  "nodes": [
    {
      "type_key": ""
    }, 
    {
      "type_key": "Map", 
      "keys": [
        "relay.Constant"
      ], 
      "data": [2]
    }, 
    {
      "type_key": "Array", 
      "data": [3, 11]
    }, 
    {
      "type_key": "relay.Constant", 
      "attrs": {
        "_checked_type_": "8", 
        "data": "0", 
        "span": "6", 
        "virtual_device_": "4"
      }
    }, 
    {
      "type_key": "VirtualDevice", 
      "attrs": {
        "device_type_int": "-1", 
        "memory_scope": "5", 
        "target": "0", 
        "virtual_device_id": "-1"
      }
    }, 
    {
      "type_key": "runtime.String"
    }, 
    {
      "type_key": "Span", 
      "attrs": {
        "column": "94", 
        "end_column": "112", 
        "end_line": "12", 
        "line": "12", 
        "source_name": "7"
      }
    }, 
    {
      "type_key": "SourceName", 
      "repr_str": "from_string"
    }, 
    {
      "type_key": "relay.TensorType", 
      "attrs": {
        "dtype": "float32", 
        "shape": "9", 
        "span": "0"
      }
    }, 
    {
      "type_key": "Array", 
      "data": [10]
    }, 
    {
      "type_key": "IntImm", 
      "attrs": {
        "dtype": "int32", 
        "span": "0", 
        "value": "1"
      }
    }, 
    {
      "type_key": "relay.Constant", 
      "attrs": {
        "_checked_type_": "13", 
        "data": "1", 
        "span": "12", 
        "virtual_device_": "4"
      }
    }, 
    {
      "type_key": "Span", 
      "attrs": {
        "column": "95", 
        "end_column": "113", 
        "end_line": "37", 
        "line": "37", 
        "source_name": "7"
      }
    }, 
    {
      "type_key": "relay.TensorType", 
      "attrs": {
        "dtype": "float32", 
        "shape": "14", 
        "span": "0"
      }
    }, 
    {
      "type_key": "Array", 
      "data": [15]
    }, 
    {
      "type_key": "IntImm", 
      "attrs": {
        "dtype": "int32", 
        "span": "0", 
        "value": "1"
      }
    }
  ], 
  "b64ndarrays": [
    "P6G0lvBAXt0AAAAAAAAAAAEAAAAAAAAAAQAAAAIgAQABAAAAAAAAAAQAAAAAAAAAAACAPw==", 
    "P6G0lvBAXt0AAAAAAAAAAAEAAAAAAAAAAQAAAAIgAQABAAAAAAAAAAQAAAAAAAAAAACAPw=="
  ], 
  "attrs": {"tvm_version": "0.13.0"}
}