#[version = "0.0.5"]
def @main(%x0: Tensor[(4, 7), float32] /* ty=Tensor[(4, 7), float32] span=from_string:3:16 */, %x1: Tensor[(2, 7, 2), float32] /* ty=Tensor[(2, 7, 2), float32] span=from_string:4:12 */, %x2: Tensor[(14, 2), float32] /* ty=Tensor[(14, 2), float32] */, %x3: Tensor[(52, 7, 2), float32] /* ty=Tensor[(52, 7, 2), float32] span=from_string:11:13 */) -> (Tensor[(4, 7), float32], Tensor[(2), int32], Tensor[(14, 2), float32], int32, int32, Tensor[(54, 7, 2), float32]) {
  %1 = fn (%p0: Tensor[(4, 7), float32] /* ty=Tensor[(4, 7), float32] */, Primitive=1, relay.reshape_only=1) -> Tensor[(4, 7), float32] {
    %0 = reshape(%p0, newshape=[2, 7, 2]) /* ty=Tensor[(2, 7, 2), float32] span=from_string:12:16 */;
    reshape(%0, newshape=[4, 7]) /* ty=Tensor[(4, 7), float32] span=from_string:15:4 */
  } /* ty=fn (Tensor[(4, 7), float32]) -> Tensor[(4, 7), float32] */;
  %3 = fn (%p02: Tensor[(2, 7, 2), float32] /* ty=Tensor[(2, 7, 2), float32] */, Primitive=1) -> Tensor[(2, 7, 2), float32] {
    %2 = erf(%p02) /* ty=Tensor[(2, 7, 2), float32] span=from_string:5:12 */;
    add(%2, 1f /* ty=float32 span=from_string:5:18 */) /* ty=Tensor[(2, 7, 2), float32] span=from_string:13:17 */
  } /* ty=fn (Tensor[(2, 7, 2), float32]) -> Tensor[(2, 7, 2), float32] */;
  %4 = %3(%x1) /* ty=Tensor[(2, 7, 2), float32] */;
  %5 = fn (%p01: Tensor[(2, 7, 2), float32] /* ty=Tensor[(2, 7, 2), float32] */, Primitive=1, relay.reshape_only=1) -> Tensor[(14, 2), float32] {
    reshape(%p01, newshape=[14, 2]) /* ty=Tensor[(14, 2), float32] span=from_string:15:61 */
  } /* ty=fn (Tensor[(2, 7, 2), float32]) -> Tensor[(14, 2), float32] */;
  %11 = fn (%p03: Tensor[(2, 7, 2), float32] /* ty=Tensor[(2, 7, 2), float32] */, %p1: Tensor[(52, 7, 2), float32] /* ty=Tensor[(52, 7, 2), float32] */, Primitive=1) -> Tensor[(54, 7, 2), float32] {
    %6 = exp(%p03) /* ty=Tensor[(2, 7, 2), float32] span=from_string:8:13 */;
    %7 = sqrt(%6) /* ty=Tensor[(2, 7, 2), float32] span=from_string:9:59 */;
    %8 = divide(2f /* ty=float32 span=from_string:9:17 */, %7) /* ty=Tensor[(2, 7, 2), float32] span=from_string:10:33 */;
    %9 = add(2f /* ty=float32 span=from_string:10:14 */, %8) /* ty=Tensor[(2, 7, 2), float32] span=from_string:11:9 */;
    %10 = (%9, %p1) /* ty=(Tensor[(2, 7, 2), float32], Tensor[(52, 7, 2), float32]) span=from_string:14:21 */;
    concatenate(%10) /* ty=Tensor[(54, 7, 2), float32] span=from_string:15:102 */
  } /* ty=fn (Tensor[(2, 7, 2), float32], Tensor[(52, 7, 2), float32]) -> Tensor[(54, 7, 2), float32] */;
  %12 = %1(%x0) /* ty=Tensor[(4, 7), float32] */;
  %13 = %5(%4) /* ty=Tensor[(14, 2), float32] */;
  %14 = %11(%4, %x3) /* ty=Tensor[(54, 7, 2), float32] */;
  (%12, meta[relay.Constant][0] /* ty=Tensor[(2), int32] span=from_string:15:13 */, %13, 2 /* ty=int32 span=from_string:15:67 */, 1 /* ty=int32 span=from_string:15:85 */, %14) /* ty=(Tensor[(4, 7), float32], Tensor[(2), int32], Tensor[(14, 2), float32], int32, int32, Tensor[(54, 7, 2), float32]) span=from_string:3:3 */
}

#[metadata]
{
  "root": 1, 
  "nodes": [
    {
      "type_key": ""
    }, 
    {
      "type_key": "Map", 
      "keys": [
        "relay.Constant"
      ], 
      "data": [2]
    }, 
    {
      "type_key": "Array", 
      "data": [3]
    }, 
    {
      "type_key": "relay.Constant", 
      "attrs": {
        "_checked_type_": "8", 
        "data": "0", 
        "span": "6", 
        "virtual_device_": "4"
      }
    }, 
    {
      "type_key": "VirtualDevice", 
      "attrs": {
        "device_type_int": "-1", 
        "memory_scope": "5", 
        "target": "0", 
        "virtual_device_id": "-1"
      }
    }, 
    {
      "type_key": "runtime.String"
    }, 
    {
      "type_key": "Span", 
      "attrs": {
        "column": "13", 
        "end_column": "31", 
        "end_line": "15", 
        "line": "15", 
        "source_name": "7"
      }
    }, 
    {
      "type_key": "SourceName", 
      "repr_str": "from_string"
    }, 
    {
      "type_key": "relay.TensorType", 
      "attrs": {
        "dtype": "int32", 
        "shape": "9", 
        "span": "11"
      }
    }, 
    {
      "type_key": "Array", 
      "data": [10]
    }, 
    {
      "type_key": "IntImm", 
      "attrs": {
        "dtype": "int32", 
        "span": "0", 
        "value": "2"
      }
    }, 
    {
      "type_key": "Span", 
      "attrs": {
        "column": "398", 
        "end_column": "418", 
        "end_line": "2", 
        "line": "2", 
        "source_name": "7"
      }
    }
  ], 
  "b64ndarrays": [
    "P6G0lvBAXt0AAAAAAAAAAAEAAAAAAAAAAQAAAAAgAQACAAAAAAAAAAgAAAAAAAAABAAAAAcAAAA="
  ], 
  "attrs": {"tvm_version": "0.13.0"}
}