#[version = "0.0.5"]
def @main(%x0: Tensor[(1, 16), float32] /* ty=Tensor[(1, 16), float32] span=from_string:14:100 */, %x1: Tensor[(16), float32] /* ty=Tensor[(16), float32] */) -> (Tensor[(1, 16), float16], float32, float32, float32, float32, float32, Tensor[(1, 16), float16], Tensor[(16), float16], Tensor[(2), int32]) {
  %1 = fn (%p0: Tensor[(1, 16), float32] /* ty=Tensor[(1, 16), float32] span=from_string:4:13 */, Primitive=1) -> Tensor[(1, 16), float16] {
    %0 = cast(%p0, dtype="float16") /* ty=Tensor[(1, 16), float16] */;
    nn.relu(%0) /* ty=Tensor[(1, 16), float16] span=from_string:4:5 */
  } /* ty=fn (Tensor[(1, 16), float32]) -> Tensor[(1, 16), float16] span=from_string:6:97 */;
  let %x_1: Tensor[(1, 16), float16] /* ty=Tensor[(1, 16), float16] span=from_string:10:100 */ = %1(%x0) /* ty=Tensor[(1, 16), float16] span=from_string:6:97 */;
  %4 = cast(%x_1, dtype="float32") /* ty=Tensor[(1, 16), float32] */;
  %5 = fn (%p01: Tensor[(1, 16), float32] /* ty=Tensor[(1, 16), float32] span=from_string:8:9 */, Primitive=1) -> Tensor[(1, 16), float16] {
    %2 = cast(%p01, dtype="float16") /* ty=Tensor[(1, 16), float16] */;
    %3 = cast(1f /* ty=float32 span=from_string:8:17 */, dtype="float16") /* ty=float16 */;
    add(%2, %3) /* ty=Tensor[(1, 16), float16] span=from_string:8:5 */
  } /* ty=fn (Tensor[(1, 16), float32]) -> Tensor[(1, 16), float16] span=from_string:10:97 */;
  let %x_3: Tensor[(1, 16), float16] /* ty=Tensor[(1, 16), float16] span=from_string:22:100 */ = %5(%4) /* ty=Tensor[(1, 16), float16] span=from_string:10:97 */;
  %7 = fn (%p02: Tensor[(1, 16), float32] /* ty=Tensor[(1, 16), float32] span=from_string:12:13 */, Primitive=1) -> Tensor[(1, 16), float16] {
    %6 = cast(%p02, dtype="float16") /* ty=Tensor[(1, 16), float16] */;
    nn.relu(%6) /* ty=Tensor[(1, 16), float16] span=from_string:12:5 */
  } /* ty=fn (Tensor[(1, 16), float32]) -> Tensor[(1, 16), float16] span=from_string:14:97 */;
  let %x_4: Tensor[(1, 16), float16] /* ty=Tensor[(1, 16), float16] span=from_string:18:101 */ = %7(%x0) /* ty=Tensor[(1, 16), float16] span=from_string:14:97 */;
  %10 = cast(%x_4, dtype="float32") /* ty=Tensor[(1, 16), float32] */;
  %11 = fn (%p03: Tensor[(1, 16), float32] /* ty=Tensor[(1, 16), float32] span=from_string:16:9 */, Primitive=1) -> Tensor[(1, 16), float16] {
    %8 = cast(%p03, dtype="float16") /* ty=Tensor[(1, 16), float16] */;
    %9 = cast(1f /* ty=float32 span=from_string:16:17 */, dtype="float16") /* ty=float16 */;
    add(%8, %9) /* ty=Tensor[(1, 16), float16] span=from_string:16:5 */
  } /* ty=fn (Tensor[(1, 16), float32]) -> Tensor[(1, 16), float16] span=from_string:18:98 */;
  let %x_6: Tensor[(1, 16), float16] /* ty=Tensor[(1, 16), float16] span=from_string:34:96 */ = %11(%10) /* ty=Tensor[(1, 16), float16] span=from_string:18:98 */;
  %14 = cast(%x_3, dtype="float32") /* ty=Tensor[(1, 16), float32] */;
  %15 = cast(%x_6, dtype="float32") /* ty=Tensor[(1, 16), float32] */;
  %16 = fn (%p04: Tensor[(1, 16), float32] /* ty=Tensor[(1, 16), float32] span=from_string:20:9 */, %p1: Tensor[(1, 16), float32] /* ty=Tensor[(1, 16), float32] span=from_string:20:15 */, Primitive=1) -> Tensor[(1, 16), float16] {
    %12 = cast(%p04, dtype="float16") /* ty=Tensor[(1, 16), float16] */;
    %13 = cast(%p1, dtype="float16") /* ty=Tensor[(1, 16), float16] */;
    add(%12, %13) /* ty=Tensor[(1, 16), float16] span=from_string:20:5 */
  } /* ty=fn (Tensor[(1, 16), float32], Tensor[(1, 16), float32]) -> Tensor[(1, 16), float16] span=from_string:22:97 */;
  let %x_7: Tensor[(1, 16), float16] /* ty=Tensor[(1, 16), float16] span=from_string:26:101 */ = %16(%14, %15) /* ty=Tensor[(1, 16), float16] span=from_string:22:97 */;
  %19 = cast(%x_7, dtype="float32") /* ty=Tensor[(1, 16), float32] */;
  %20 = fn (%p05: Tensor[(1, 16), float32] /* ty=Tensor[(1, 16), float32] span=from_string:24:53 */, Primitive=1) -> Tensor[(1, 16), float16] {
    %17 = cast(2f /* ty=float32 span=from_string:24:11 */, dtype="float16") /* ty=float16 */;
    %18 = cast(%p05, dtype="float16") /* ty=Tensor[(1, 16), float16] */;
    add(%17, %18) /* ty=Tensor[(1, 16), float16] span=from_string:24:5 */
  } /* ty=fn (Tensor[(1, 16), float32]) -> Tensor[(1, 16), float16] span=from_string:26:98 */;
  let %x_8: Tensor[(1, 16), float16] /* ty=Tensor[(1, 16), float16] span=from_string:35:334 */ = %20(%19) /* ty=Tensor[(1, 16), float16] span=from_string:26:98 */;
  %21 = fn (Primitive=1) -> Tensor[(1, 16), float16] {
    ones(shape=[1, 16], dtype="float16") /* ty=Tensor[(1, 16), float16] span=from_string:28:5 */
  } /* ty=fn () -> Tensor[(1, 16), float16] span=from_string:30:99 */;
  let %x_14: Tensor[(1, 16), float16] /* ty=Tensor[(1, 16), float16] span=from_string:35:577 */ = %21() /* ty=Tensor[(1, 16), float16] span=from_string:30:99 */;
  %23 = fn (%p06: Tensor[(1, 16), float32] /* ty=Tensor[(1, 16), float32] span=from_string:32:13 */, Primitive=1, relay.reshape_only=1) -> Tensor[(16), float16] {
    %22 = cast(%p06, dtype="float16") /* ty=Tensor[(1, 16), float16] */;
    reshape(%22, newshape=[16]) /* ty=Tensor[(16), float16] span=from_string:32:5 */
  } /* ty=fn (Tensor[(1, 16), float32]) -> Tensor[(16), float16] span=from_string:34:93 */;
  let %x_15: Tensor[(16), float16] /* ty=Tensor[(16), float16] span=from_string:35:584 */ = %23(%15) /* ty=Tensor[(16), float16] span=from_string:34:93 */;
  let %x_17: (Tensor[(1, 16), float16], float32, float32, float32, float32, float32, Tensor[(1, 16), float16], Tensor[(16), float16], Tensor[(2), int32]) /* ty=(Tensor[(1, 16), float16], float32, float32, float32, float32, float32, Tensor[(1, 16), float16], Tensor[(16), float16], Tensor[(2), int32]) span=from_string:36:333 */ = (%x_8, 4f /* ty=float32 span=from_string:35:342 */, 7.38906f /* ty=float32 span=from_string:35:393 */, 20.0855f /* ty=float32 span=from_string:35:444 */, 1f /* ty=float32 span=from_string:35:489 */, 6f /* ty=float32 span=from_string:35:534 */, %x_14, %x_15, meta[relay.Constant][0] /* ty=Tensor[(2), int32] span=from_string:35:596 */) /* ty=(Tensor[(1, 16), float16], float32, float32, float32, float32, float32, Tensor[(1, 16), float16], Tensor[(16), float16], Tensor[(2), int32]) span=from_string:35:333 */;
  let %x_01: (Tensor[(1, 16), float16], float32, float32, float32, float32, float32, Tensor[(1, 16), float16], Tensor[(16), float16], Tensor[(2), int32]) /* ty=(Tensor[(1, 16), float16], float32, float32, float32, float32, float32, Tensor[(1, 16), float16], Tensor[(16), float16], Tensor[(2), int32]) span=from_string:37:333 */ = %x_17;
  let %x_18: (Tensor[(1, 16), float16], float32, float32, float32, float32, float32, Tensor[(1, 16), float16], Tensor[(16), float16], Tensor[(2), int32]) /* ty=(Tensor[(1, 16), float16], float32, float32, float32, float32, float32, Tensor[(1, 16), float16], Tensor[(16), float16], Tensor[(2), int32]) span=from_string:38:333 */ = %x_01;
  let %x_21: (Tensor[(1, 16), float16], float32, float32, float32, float32, float32, Tensor[(1, 16), float16], Tensor[(16), float16], Tensor[(2), int32]) /* ty=(Tensor[(1, 16), float16], float32, float32, float32, float32, float32, Tensor[(1, 16), float16], Tensor[(16), float16], Tensor[(2), int32]) span=from_string:39:333 */ = %x_18;
  let %x_31: (Tensor[(1, 16), float16], float32, float32, float32, float32, float32, Tensor[(1, 16), float16], Tensor[(16), float16], Tensor[(2), int32]) /* ty=(Tensor[(1, 16), float16], float32, float32, float32, float32, float32, Tensor[(1, 16), float16], Tensor[(16), float16], Tensor[(2), int32]) span=from_string:40:333 */ = %x_21;
  let %x_41: (Tensor[(1, 16), float16], float32, float32, float32, float32, float32, Tensor[(1, 16), float16], Tensor[(16), float16], Tensor[(2), int32]) /* ty=(Tensor[(1, 16), float16], float32, float32, float32, float32, float32, Tensor[(1, 16), float16], Tensor[(16), float16], Tensor[(2), int32]) span=from_string:41:333 */ = %x_31;
  let %x_51: (Tensor[(1, 16), float16], float32, float32, float32, float32, float32, Tensor[(1, 16), float16], Tensor[(16), float16], Tensor[(2), int32]) /* ty=(Tensor[(1, 16), float16], float32, float32, float32, float32, float32, Tensor[(1, 16), float16], Tensor[(16), float16], Tensor[(2), int32]) span=from_string:42:333 */ = %x_41;
  let %x_61: (Tensor[(1, 16), float16], float32, float32, float32, float32, float32, Tensor[(1, 16), float16], Tensor[(16), float16], Tensor[(2), int32]) /* ty=(Tensor[(1, 16), float16], float32, float32, float32, float32, float32, Tensor[(1, 16), float16], Tensor[(16), float16], Tensor[(2), int32]) span=from_string:43:333 */ = %x_51;
  let %x_71: (Tensor[(1, 16), float16], float32, float32, float32, float32, float32, Tensor[(1, 16), float16], Tensor[(16), float16], Tensor[(2), int32]) /* ty=(Tensor[(1, 16), float16], float32, float32, float32, float32, float32, Tensor[(1, 16), float16], Tensor[(16), float16], Tensor[(2), int32]) span=from_string:44:333 */ = %x_61;
  let %x_81: (Tensor[(1, 16), float16], float32, float32, float32, float32, float32, Tensor[(1, 16), float16], Tensor[(16), float16], Tensor[(2), int32]) /* ty=(Tensor[(1, 16), float16], float32, float32, float32, float32, float32, Tensor[(1, 16), float16], Tensor[(16), float16], Tensor[(2), int32]) span=from_string:45:333 */ = %x_71;
  let %x_91: (Tensor[(1, 16), float16], float32, float32, float32, float32, float32, Tensor[(1, 16), float16], Tensor[(16), float16], Tensor[(2), int32]) /* ty=(Tensor[(1, 16), float16], float32, float32, float32, float32, float32, Tensor[(1, 16), float16], Tensor[(16), float16], Tensor[(2), int32]) span=from_string:46:334 */ = %x_81;
  let %x_101: (Tensor[(1, 16), float16], float32, float32, float32, float32, float32, Tensor[(1, 16), float16], Tensor[(16), float16], Tensor[(2), int32]) /* ty=(Tensor[(1, 16), float16], float32, float32, float32, float32, float32, Tensor[(1, 16), float16], Tensor[(16), float16], Tensor[(2), int32]) span=from_string:47:334 */ = %x_91;
  let %x_111: (Tensor[(1, 16), float16], float32, float32, float32, float32, float32, Tensor[(1, 16), float16], Tensor[(16), float16], Tensor[(2), int32]) /* ty=(Tensor[(1, 16), float16], float32, float32, float32, float32, float32, Tensor[(1, 16), float16], Tensor[(16), float16], Tensor[(2), int32]) span=from_string:48:334 */ = %x_101;
  let %x_121: (Tensor[(1, 16), float16], float32, float32, float32, float32, float32, Tensor[(1, 16), float16], Tensor[(16), float16], Tensor[(2), int32]) /* ty=(Tensor[(1, 16), float16], float32, float32, float32, float32, float32, Tensor[(1, 16), float16], Tensor[(16), float16], Tensor[(2), int32]) span=from_string:49:334 */ = %x_111;
  let %x_131: (Tensor[(1, 16), float16], float32, float32, float32, float32, float32, Tensor[(1, 16), float16], Tensor[(16), float16], Tensor[(2), int32]) /* ty=(Tensor[(1, 16), float16], float32, float32, float32, float32, float32, Tensor[(1, 16), float16], Tensor[(16), float16], Tensor[(2), int32]) span=from_string:50:334 */ = %x_121;
  let %x_141: (Tensor[(1, 16), float16], float32, float32, float32, float32, float32, Tensor[(1, 16), float16], Tensor[(16), float16], Tensor[(2), int32]) /* ty=(Tensor[(1, 16), float16], float32, float32, float32, float32, float32, Tensor[(1, 16), float16], Tensor[(16), float16], Tensor[(2), int32]) span=from_string:51:334 */ = %x_131;
  let %x_151: (Tensor[(1, 16), float16], float32, float32, float32, float32, float32, Tensor[(1, 16), float16], Tensor[(16), float16], Tensor[(2), int32]) /* ty=(Tensor[(1, 16), float16], float32, float32, float32, float32, float32, Tensor[(1, 16), float16], Tensor[(16), float16], Tensor[(2), int32]) span=from_string:52:334 */ = %x_141;
  let %x_161: (Tensor[(1, 16), float16], float32, float32, float32, float32, float32, Tensor[(1, 16), float16], Tensor[(16), float16], Tensor[(2), int32]) /* ty=(Tensor[(1, 16), float16], float32, float32, float32, float32, float32, Tensor[(1, 16), float16], Tensor[(16), float16], Tensor[(2), int32]) span=from_string:53:332 */ = %x_151;
  let %x_171: (Tensor[(1, 16), float16], float32, float32, float32, float32, float32, Tensor[(1, 16), float16], Tensor[(16), float16], Tensor[(2), int32]) /* ty=(Tensor[(1, 16), float16], float32, float32, float32, float32, float32, Tensor[(1, 16), float16], Tensor[(16), float16], Tensor[(2), int32]) span=from_string:54:3 */ = %x_161;
  %x_171
}

#[metadata]
{
  "root": 1, 
  "nodes": [
    {
      "type_key": ""
    }, 
    {
      "type_key": "Map", 
      "keys": [
        "relay.Constant"
      ], 
      "data": [2]
    }, 
    {
      "type_key": "Array", 
      "data": [3]
    }, 
    {
      "type_key": "relay.Constant", 
      "attrs": {
        "_checked_type_": "8", 
        "data": "0", 
        "span": "6", 
        "virtual_device_": "4"
      }
    }, 
    {
      "type_key": "VirtualDevice", 
      "attrs": {
        "device_type_int": "-1", 
        "memory_scope": "5", 
        "target": "0", 
        "virtual_device_id": "-1"
      }
    }, 
    {
      "type_key": "runtime.String"
    }, 
    {
      "type_key": "Span", 
      "attrs": {
        "column": "596", 
        "end_column": "614", 
        "end_line": "35", 
        "line": "35", 
        "source_name": "7"
      }
    }, 
    {
      "type_key": "SourceName", 
      "repr_str": "from_string"
    }, 
    {
      "type_key": "relay.TensorType", 
      "attrs": {
        "dtype": "int32", 
        "shape": "9", 
        "span": "11"
      }
    }, 
    {
      "type_key": "Array", 
      "data": [10]
    }, 
    {
      "type_key": "IntImm", 
      "attrs": {
        "dtype": "int32", 
        "span": "0", 
        "value": "2"
      }
    }, 
    {
      "type_key": "Span", 
      "attrs": {
        "column": "283", 
        "end_column": "303", 
        "end_line": "2", 
        "line": "2", 
        "source_name": "7"
      }
    }
  ], 
  "b64ndarrays": [
    "P6G0lvBAXt0AAAAAAAAAAAEAAAAAAAAAAQAAAAAgAQACAAAAAAAAAAgAAAAAAAAAAQAAABAAAAA="
  ], 
  "attrs": {"tvm_version": "0.13.0"}
}