#[version = "0.0.5"]
def @main(%x0: Tensor[(1, 16), float32] /* ty=Tensor[(1, 16), float32] span=from_string:3:101 */, %x1: Tensor[(16), float32] /* ty=Tensor[(16), float32] */) -> (Tensor[(1, 16), float16], float32, float32, float32, float32, float32, Tensor[(1, 16), float16], Tensor[(16), float16], Tensor[(2), int32]) {
  %0 = fn (%p0: Tensor[(1, 16), float32] /* ty=Tensor[(1, 16), float32] */, Primitive=1) -> Tensor[(1, 16), float16] {
    cast(%p0, dtype="float16") /* ty=Tensor[(1, 16), float16] span=from_string:3:96 */
  } /* ty=fn (Tensor[(1, 16), float32]) -> Tensor[(1, 16), float16] */;
  let %x_2: Tensor[(1, 16), float16] /* ty=Tensor[(1, 16), float16] span=from_string:4:104 */ = %0(%x0) /* ty=Tensor[(1, 16), float16] */;
  %1 = fn (%p01: Tensor[(1, 16), float16] /* ty=Tensor[(1, 16), float16] */, Primitive=1) -> Tensor[(1, 16), float16] {
    nn.relu(%p01) /* ty=Tensor[(1, 16), float16] span=from_string:4:96 */
  } /* ty=fn (Tensor[(1, 16), float16]) -> Tensor[(1, 16), float16] */;
  let %x_3: Tensor[(1, 16), float16] /* ty=Tensor[(1, 16), float16] span=from_string:5:101 */ = %1(%x_2) /* ty=Tensor[(1, 16), float16] */;
  %2 = fn (%p02: Tensor[(1, 16), float16] /* ty=Tensor[(1, 16), float16] */, %p1: float16 /* ty=float16 */, Primitive=1) -> Tensor[(1, 16), float16] {
    add(%p02, %p1) /* ty=Tensor[(1, 16), float16] span=from_string:5:97 */
  } /* ty=fn (Tensor[(1, 16), float16], float16) -> Tensor[(1, 16), float16] */;
  let %x_6: Tensor[(1, 16), float16] /* ty=Tensor[(1, 16), float16] span=from_string:9:100 */ = %2(%x_3, 1f16 /* ty=float16 span=from_string:5:111 */) /* ty=Tensor[(1, 16), float16] */;
  %3 = fn (%p03: Tensor[(1, 16), float16] /* ty=Tensor[(1, 16), float16] */, Primitive=1) -> Tensor[(1, 16), float16] {
    add(%p03, %p03) /* ty=Tensor[(1, 16), float16] span=from_string:6:97 */
  } /* ty=fn (Tensor[(1, 16), float16]) -> Tensor[(1, 16), float16] */;
  let %x_7: Tensor[(1, 16), float16] /* ty=Tensor[(1, 16), float16] span=from_string:7:124 */ = %3(%x_6) /* ty=Tensor[(1, 16), float16] */;
  %4 = fn (%p04: float16 /* ty=float16 */, %p11: Tensor[(1, 16), float16] /* ty=Tensor[(1, 16), float16] */, Primitive=1) -> Tensor[(1, 16), float16] {
    add(%p04, %p11) /* ty=Tensor[(1, 16), float16] span=from_string:7:97 */
  } /* ty=fn (float16, Tensor[(1, 16), float16]) -> Tensor[(1, 16), float16] */;
  let %x_8: Tensor[(1, 16), float16] /* ty=Tensor[(1, 16), float16] span=from_string:10:332 */ = %4(2f16 /* ty=float16 span=from_string:7:105 */, %x_7) /* ty=Tensor[(1, 16), float16] */;
  %5 = fn (Primitive=1) -> Tensor[(1, 16), float16] {
    ones(shape=[1, 16], dtype="float16") /* ty=Tensor[(1, 16), float16] span=from_string:8:98 */
  } /* ty=fn () -> Tensor[(1, 16), float16] */;
  let %x_14: Tensor[(1, 16), float16] /* ty=Tensor[(1, 16), float16] span=from_string:10:570 */ = %5() /* ty=Tensor[(1, 16), float16] */;
  %6 = fn (%p05: Tensor[(1, 16), float16] /* ty=Tensor[(1, 16), float16] */, Primitive=1, relay.reshape_only=1) -> Tensor[(16), float16] {
    reshape(%p05, newshape=[16]) /* ty=Tensor[(16), float16] span=from_string:9:92 */
  } /* ty=fn (Tensor[(1, 16), float16]) -> Tensor[(16), float16] */;
  let %x_15: Tensor[(16), float16] /* ty=Tensor[(16), float16] span=from_string:10:577 */ = %6(%x_6) /* ty=Tensor[(16), float16] */;
  let %x_17: (Tensor[(1, 16), float16], float32, float32, float32, float32, float32, Tensor[(1, 16), float16], Tensor[(16), float16], Tensor[(2), int32]) /* ty=(Tensor[(1, 16), float16], float32, float32, float32, float32, float32, Tensor[(1, 16), float16], Tensor[(16), float16], Tensor[(2), int32]) span=from_string:11:3 */ = (%x_8, 4f /* ty=float32 span=from_string:10:340 */, 7.38906f /* ty=float32 span=from_string:10:390 */, 20.0855f /* ty=float32 span=from_string:10:440 */, 1f /* ty=float32 span=from_string:10:484 */, 6f /* ty=float32 span=from_string:10:528 */, %x_14, %x_15, meta[relay.Constant][0] /* ty=Tensor[(2), int32] span=from_string:10:589 */) /* ty=(Tensor[(1, 16), float16], float32, float32, float32, float32, float32, Tensor[(1, 16), float16], Tensor[(16), float16], Tensor[(2), int32]) span=from_string:10:331 */;
  %x_17
}

#[metadata]
{
  "root": 1, 
  "nodes": [
    {
      "type_key": ""
    }, 
    {
      "type_key": "Map", 
      "keys": [
        "relay.Constant"
      ], 
      "data": [2]
    }, 
    {
      "type_key": "Array", 
      "data": [3]
    }, 
    {
      "type_key": "relay.Constant", 
      "attrs": {
        "_checked_type_": "8", 
        "data": "0", 
        "span": "6", 
        "virtual_device_": "4"
      }
    }, 
    {
      "type_key": "VirtualDevice", 
      "attrs": {
        "device_type_int": "-1", 
        "memory_scope": "5", 
        "target": "0", 
        "virtual_device_id": "-1"
      }
    }, 
    {
      "type_key": "runtime.String"
    }, 
    {
      "type_key": "Span", 
      "attrs": {
        "column": "589", 
        "end_column": "607", 
        "end_line": "10", 
        "line": "10", 
        "source_name": "7"
      }
    }, 
    {
      "type_key": "SourceName", 
      "repr_str": "from_string"
    }, 
    {
      "type_key": "relay.TensorType", 
      "attrs": {
        "dtype": "int32", 
        "shape": "9", 
        "span": "11"
      }
    }, 
    {
      "type_key": "Array", 
      "data": [10]
    }, 
    {
      "type_key": "IntImm", 
      "attrs": {
        "dtype": "int32", 
        "span": "0", 
        "value": "2"
      }
    }, 
    {
      "type_key": "Span", 
      "attrs": {
        "column": "282", 
        "end_column": "302", 
        "end_line": "2", 
        "line": "2", 
        "source_name": "7"
      }
    }
  ], 
  "b64ndarrays": [
    "P6G0lvBAXt0AAAAAAAAAAAEAAAAAAAAAAQAAAAAgAQACAAAAAAAAAAgAAAAAAAAAAQAAABAAAAA="
  ], 
  "attrs": {"tvm_version": "0.13.0"}
}