#[version = "0.0.5"]
def @main(%x0: Tensor[(1, 16), float32] /* ty=Tensor[(1, 16), float32] span=from_string:4:13 */, %x1: Tensor[(16), float32] /* ty=Tensor[(16), float32] */) -> (Tensor[(1, 16), float16], float32, float32, float32, float32, float32, Tensor[(1, 16), float16], Tensor[(16), float16], Tensor[(2), int32]) {
  %0 = cast(%x0, dtype="float16") /* ty=Tensor[(1, 16), float16] span=from_string:9:104 */;
  %1 = nn.relu(%0) /* ty=Tensor[(1, 16), float16] span=from_string:5:96 */;
  %2 = cast(1f /* ty=float32 span=from_string:6:64 */, dtype="float16") /* ty=float16 span=from_string:8:107 */;
  %3 = nn.relu(%0) /* ty=Tensor[(1, 16), float16] span=from_string:9:96 */;
  %4 = cast(1f /* ty=float32 span=from_string:10:64 */, dtype="float16") /* ty=float16 span=from_string:12:107 */;
  %5 = add(%1, %2) /* ty=Tensor[(1, 16), float16] span=from_string:8:97 */;
  %6 = add(%3, %4) /* ty=Tensor[(1, 16), float16] span=from_string:12:97 */;
  %7 = cast(2f /* ty=float32 span=from_string:3:65 */, dtype="float16") /* ty=float16 span=from_string:15:100 */;
  %8 = add(%5, %6) /* ty=Tensor[(1, 16), float16] span=from_string:13:98 */;
  %9 = add(%7, %8) /* ty=Tensor[(1, 16), float16] span=from_string:15:96 */;
  %10 = ones(shape=[1, 16], dtype="float16") /* ty=Tensor[(1, 16), float16] span=from_string:21:98 */;
  %11 = reshape(%6, newshape=[16]) /* ty=Tensor[(16), float16] span=from_string:22:92 */;
  (%9, 4f /* ty=float32 span=from_string:16:65 */, 7.38906f /* ty=float32 span=from_string:17:71 */, 20.0855f /* ty=float32 span=from_string:18:72 */, 1f /* ty=float32 span=from_string:19:66 */, 6f /* ty=float32 span=from_string:20:66 */, %10, %11, meta[relay.Constant][0] /* ty=Tensor[(2), int32] span=from_string:23:93 */) /* ty=(Tensor[(1, 16), float16], float32, float32, float32, float32, float32, Tensor[(1, 16), float16], Tensor[(16), float16], Tensor[(2), int32]) span=from_string:24:332 */
}

#[metadata]
{
  "root": 1, 
  "nodes": [
    {
      "type_key": ""
    }, 
    {
      "type_key": "Map", 
      "keys": [
        "relay.Constant"
      ], 
      "data": [2]
    }, 
    {
      "type_key": "Array", 
      "data": [3]
    }, 
    {
      "type_key": "relay.Constant", 
      "attrs": {
        "_checked_type_": "8", 
        "data": "0", 
        "span": "6", 
        "virtual_device_": "4"
      }
    }, 
    {
      "type_key": "VirtualDevice", 
      "attrs": {
        "device_type_int": "-1", 
        "memory_scope": "5", 
        "target": "0", 
        "virtual_device_id": "-1"
      }
    }, 
    {
      "type_key": "runtime.String"
    }, 
    {
      "type_key": "Span", 
      "attrs": {
        "column": "93", 
        "end_column": "111", 
        "end_line": "23", 
        "line": "23", 
        "source_name": "7"
      }
    }, 
    {
      "type_key": "SourceName", 
      "repr_str": "from_string"
    }, 
    {
      "type_key": "relay.TensorType", 
      "attrs": {
        "dtype": "int32", 
        "shape": "9", 
        "span": "0"
      }
    }, 
    {
      "type_key": "Array", 
      "data": [10]
    }, 
    {
      "type_key": "IntImm", 
      "attrs": {
        "dtype": "int32", 
        "span": "0", 
        "value": "2"
      }
    }
  ], 
  "b64ndarrays": [
    "P6G0lvBAXt0AAAAAAAAAAAEAAAAAAAAAAQAAAAAgAQACAAAAAAAAAAgAAAAAAAAAAQAAABAAAAA="
  ], 
  "attrs": {"tvm_version": "0.13.0"}
}