#[version = "0.0.5"]
def @main(%x0: Tensor[(1, 16), float32] /* ty=Tensor[(1, 16), float32] span=from_string:6:11 */, %x1: Tensor[(16), float32] /* ty=Tensor[(16), float32] */) -> (Tensor[(1, 16), float16], float32, float32, float32, float32, float32, Tensor[(1, 16), float16], Tensor[(16), float16], Tensor[(2), int32]) {
  %8 = fn (%p01: Tensor[(1, 16), float32] /* ty=Tensor[(1, 16), float32] span=from_string:4:10 */, Primitive=1) -> Tensor[(1, 16), float16] {
    cast(%p01, dtype="float16") /* ty=Tensor[(1, 16), float16] span=from_string:4:5 */
  } /* ty=fn (Tensor[(1, 16), float32]) -> Tensor[(1, 16), float16] */;
  %9 = %8(%x0) /* ty=Tensor[(1, 16), float16] span=from_string:31:13 */;
  %10 = fn (%p0: Tensor[(1, 16), float16] /* ty=Tensor[(1, 16), float16] span=from_string:9:15 */, %p1: float16 /* ty=float16 span=from_string:15:24 */, Primitive=1) -> Tensor[(1, 16), float16] {
    %0 = cast(2f /* ty=float32 span=from_string:8:17 */, dtype="float16") /* ty=float16 span=from_string:14:15 */;
    %1 = cast(%p0, dtype="float16") /* ty=Tensor[(1, 16), float16] span=from_string:11:18 */;
    %2 = cast(1f /* ty=float32 span=from_string:10:17 */, dtype="float16") /* ty=float16 span=from_string:12:15 */;
    %3 = nn.relu(%1) /* ty=Tensor[(1, 16), float16] span=from_string:13:14 */;
    %4 = cast(%2, dtype="float16") /* ty=float16 span=from_string:13:18 */;
    %5 = add(%3, %4) /* ty=Tensor[(1, 16), float16] span=from_string:15:20 */;
    %6 = cast(%0, dtype="float16") /* ty=float16 span=from_string:16:9 */;
    %7 = multiply(%5, %p1) /* ty=Tensor[(1, 16), float16] span=from_string:16:13 */;
    add(%6, %7) /* ty=Tensor[(1, 16), float16] span=from_string:8:5 */
  } /* ty=fn (Tensor[(1, 16), float16], float16) -> Tensor[(1, 16), float16] */;
  %11 = fn (Primitive=1) -> Tensor[(1, 16), float16] {
    ones(shape=[1, 16], dtype="float16") /* ty=Tensor[(1, 16), float16] span=from_string:19:5 */
  } /* ty=fn () -> Tensor[(1, 16), float16] */;
  %17 = fn (%p02: Tensor[(1, 16), float16] /* ty=Tensor[(1, 16), float16] span=from_string:22:16 */, Primitive=1) -> Tensor[(16), float16] {
    %12 = cast(%p02, dtype="float16") /* ty=Tensor[(1, 16), float16] span=from_string:24:19 */;
    %13 = cast(1f /* ty=float32 span=from_string:23:18 */, dtype="float16") /* ty=float16 span=from_string:25:16 */;
    %14 = nn.relu(%12) /* ty=Tensor[(1, 16), float16] span=from_string:26:15 */;
    %15 = cast(%13, dtype="float16") /* ty=float16 span=from_string:26:20 */;
    %16 = add(%14, %15) /* ty=Tensor[(1, 16), float16] span=from_string:27:13 */;
    reshape(%16, newshape=[16]) /* ty=Tensor[(16), float16] span=from_string:22:5 */
  } /* ty=fn (Tensor[(1, 16), float16]) -> Tensor[(16), float16] */;
  %18 = %10(%9, 2f16 /* ty=float16 span=from_string:29:21 */) /* ty=Tensor[(1, 16), float16] span=from_string:32:4 */;
  %19 = %11() /* ty=Tensor[(1, 16), float16] span=from_string:32:244 */;
  %20 = %17(%9) /* ty=Tensor[(16), float16] span=from_string:32:249 */;
  (%18, 4f /* ty=float32 span=from_string:32:11 */, 7.38906f /* ty=float32 span=from_string:32:61 */, 20.0855f /* ty=float32 span=from_string:32:111 */, 1f /* ty=float32 span=from_string:32:156 */, 6f /* ty=float32 span=from_string:32:201 */, %19, %20, meta[relay.Constant][0] /* ty=Tensor[(2), int32] span=from_string:32:259 */) /* ty=(Tensor[(1, 16), float16], float32, float32, float32, float32, float32, Tensor[(1, 16), float16], Tensor[(16), float16], Tensor[(2), int32]) span=from_string:3:3 */
}

#[metadata]
{
  "root": 1, 
  "nodes": [
    {
      "type_key": ""
    }, 
    {
      "type_key": "Map", 
      "keys": [
        "relay.Constant"
      ], 
      "data": [2]
    }, 
    {
      "type_key": "Array", 
      "data": [3]
    }, 
    {
      "type_key": "relay.Constant", 
      "attrs": {
        "_checked_type_": "8", 
        "data": "0", 
        "span": "6", 
        "virtual_device_": "4"
      }
    }, 
    {
      "type_key": "VirtualDevice", 
      "attrs": {
        "device_type_int": "-1", 
        "memory_scope": "5", 
        "target": "0", 
        "virtual_device_id": "-1"
      }
    }, 
    {
      "type_key": "runtime.String"
    }, 
    {
      "type_key": "Span", 
      "attrs": {
        "column": "259", 
        "end_column": "277", 
        "end_line": "32", 
        "line": "32", 
        "source_name": "7"
      }
    }, 
    {
      "type_key": "SourceName", 
      "repr_str": "from_string"
    }, 
    {
      "type_key": "relay.TensorType", 
      "attrs": {
        "dtype": "int32", 
        "shape": "9", 
        "span": "0"
      }
    }, 
    {
      "type_key": "Array", 
      "data": [10]
    }, 
    {
      "type_key": "IntImm", 
      "attrs": {
        "dtype": "int32", 
        "span": "0", 
        "value": "2"
      }
    }
  ], 
  "b64ndarrays": [
    "P6G0lvBAXt0AAAAAAAAAAAEAAAAAAAAAAQAAAAAgAQACAAAAAAAAAAgAAAAAAAAAAQAAABAAAAA="
  ], 
  "attrs": {"tvm_version": "0.13.0"}
}