#[version = "0.0.5"]
def @main(%x0: Tensor[(1, 16), float32] /* ty=Tensor[(1, 16), float32] span=from_string:6:100 */, %x1: Tensor[(16), float32] /* ty=Tensor[(16), float32] */) -> (Tensor[(1, 16), float16], float32, float32, float32, float32, float32, Tensor[(1, 16), float16], Tensor[(16), float16], Tensor[(2), int32]) {
  %0 = fn (%p0: Tensor[(1, 16), float32] /* ty=Tensor[(1, 16), float32] span=from_string:4:10 */, Primitive=1) -> Tensor[(1, 16), float16] {
    cast(%p0, dtype="float16") /* ty=Tensor[(1, 16), float16] span=from_string:4:5 */
  } /* ty=fn (Tensor[(1, 16), float32]) -> Tensor[(1, 16), float16] span=from_string:6:97 */;
  let %x_2: Tensor[(1, 16), float16] /* ty=Tensor[(1, 16), float16] span=from_string:10:100 */ = %0(%x0) /* ty=Tensor[(1, 16), float16] span=from_string:6:97 */;
  %1 = fn (%p01: Tensor[(1, 16), float16] /* ty=Tensor[(1, 16), float16] span=from_string:8:13 */, Primitive=1) -> Tensor[(1, 16), float16] {
    nn.relu(%p01) /* ty=Tensor[(1, 16), float16] span=from_string:8:5 */
  } /* ty=fn (Tensor[(1, 16), float16]) -> Tensor[(1, 16), float16] span=from_string:10:97 */;
  let %x_3: Tensor[(1, 16), float16] /* ty=Tensor[(1, 16), float16] span=from_string:14:100 */ = %1(%x_2) /* ty=Tensor[(1, 16), float16] span=from_string:10:97 */;
  %2 = fn (%p02: Tensor[(1, 16), float16] /* ty=Tensor[(1, 16), float16] span=from_string:12:9 */, %p1: float16 /* ty=float16 span=from_string:12:15 */, Primitive=1) -> Tensor[(1, 16), float16] {
    add(%p02, %p1) /* ty=Tensor[(1, 16), float16] span=from_string:12:5 */
  } /* ty=fn (Tensor[(1, 16), float16], float16) -> Tensor[(1, 16), float16] span=from_string:14:97 */;
  let %x_6: Tensor[(1, 16), float16] /* ty=Tensor[(1, 16), float16] span=from_string:30:96 */ = %2(%x_3, 1f16 /* ty=float16 span=from_string:14:110 */) /* ty=Tensor[(1, 16), float16] span=from_string:14:97 */;
  %3 = fn (%p03: Tensor[(1, 16), float16] /* ty=Tensor[(1, 16), float16] span=from_string:16:15 */, Primitive=1) -> Tensor[(1, 16), float16] {
    add(%p03, %p03) /* ty=Tensor[(1, 16), float16] span=from_string:16:5 */
  } /* ty=fn (Tensor[(1, 16), float16]) -> Tensor[(1, 16), float16] span=from_string:18:97 */;
  let %x_7: Tensor[(1, 16), float16] /* ty=Tensor[(1, 16), float16] span=from_string:22:147 */ = %3(%x_6) /* ty=Tensor[(1, 16), float16] span=from_string:18:97 */;
  %4 = fn (%p04: float16 /* ty=float16 span=from_string:20:9 */, %p11: Tensor[(1, 16), float16] /* ty=Tensor[(1, 16), float16] span=from_string:20:15 */, Primitive=1) -> Tensor[(1, 16), float16] {
    add(%p04, %p11) /* ty=Tensor[(1, 16), float16] span=from_string:20:5 */
  } /* ty=fn (float16, Tensor[(1, 16), float16]) -> Tensor[(1, 16), float16] span=from_string:22:98 */;
  let %x_8: Tensor[(1, 16), float16] /* ty=Tensor[(1, 16), float16] span=from_string:31:332 */ = %4(2f16 /* ty=float16 span=from_string:22:105 */, %x_7) /* ty=Tensor[(1, 16), float16] span=from_string:22:98 */;
  %5 = fn (Primitive=1) -> Tensor[(1, 16), float16] {
    ones(shape=[1, 16], dtype="float16") /* ty=Tensor[(1, 16), float16] span=from_string:24:5 */
  } /* ty=fn () -> Tensor[(1, 16), float16] span=from_string:26:99 */;
  let %x_14: Tensor[(1, 16), float16] /* ty=Tensor[(1, 16), float16] span=from_string:31:575 */ = %5() /* ty=Tensor[(1, 16), float16] span=from_string:26:99 */;
  %6 = fn (%p05: Tensor[(1, 16), float16] /* ty=Tensor[(1, 16), float16] span=from_string:28:13 */, Primitive=1, relay.reshape_only=1) -> Tensor[(16), float16] {
    reshape(%p05, newshape=[16]) /* ty=Tensor[(16), float16] span=from_string:28:5 */
  } /* ty=fn (Tensor[(1, 16), float16]) -> Tensor[(16), float16] span=from_string:30:93 */;
  let %x_15: Tensor[(16), float16] /* ty=Tensor[(16), float16] span=from_string:31:582 */ = %6(%x_6) /* ty=Tensor[(16), float16] span=from_string:30:93 */;
  let %x_17: (Tensor[(1, 16), float16], float32, float32, float32, float32, float32, Tensor[(1, 16), float16], Tensor[(16), float16], Tensor[(2), int32]) /* ty=(Tensor[(1, 16), float16], float32, float32, float32, float32, float32, Tensor[(1, 16), float16], Tensor[(16), float16], Tensor[(2), int32]) span=from_string:32:3 */ = (%x_8, 4f /* ty=float32 span=from_string:31:340 */, 7.38906f /* ty=float32 span=from_string:31:391 */, 20.0855f /* ty=float32 span=from_string:31:442 */, 1f /* ty=float32 span=from_string:31:487 */, 6f /* ty=float32 span=from_string:31:532 */, %x_14, %x_15, meta[relay.Constant][0] /* ty=Tensor[(2), int32] span=from_string:31:594 */) /* ty=(Tensor[(1, 16), float16], float32, float32, float32, float32, float32, Tensor[(1, 16), float16], Tensor[(16), float16], Tensor[(2), int32]) span=from_string:31:331 */;
  %x_17
}

#[metadata]
{
  "root": 1, 
  "nodes": [
    {
      "type_key": ""
    }, 
    {
      "type_key": "Map", 
      "keys": [
        "relay.Constant"
      ], 
      "data": [2]
    }, 
    {
      "type_key": "Array", 
      "data": [3]
    }, 
    {
      "type_key": "relay.Constant", 
      "attrs": {
        "_checked_type_": "8", 
        "data": "0", 
        "span": "6", 
        "virtual_device_": "4"
      }
    }, 
    {
      "type_key": "VirtualDevice", 
      "attrs": {
        "device_type_int": "-1", 
        "memory_scope": "5", 
        "target": "0", 
        "virtual_device_id": "-1"
      }
    }, 
    {
      "type_key": "runtime.String"
    }, 
    {
      "type_key": "Span", 
      "attrs": {
        "column": "594", 
        "end_column": "612", 
        "end_line": "31", 
        "line": "31", 
        "source_name": "7"
      }
    }, 
    {
      "type_key": "SourceName", 
      "repr_str": "from_string"
    }, 
    {
      "type_key": "relay.TensorType", 
      "attrs": {
        "dtype": "int32", 
        "shape": "9", 
        "span": "11"
      }
    }, 
    {
      "type_key": "Array", 
      "data": [10]
    }, 
    {
      "type_key": "IntImm", 
      "attrs": {
        "dtype": "int32", 
        "span": "0", 
        "value": "2"
      }
    }, 
    {
      "type_key": "Span", 
      "attrs": {
        "column": "283", 
        "end_column": "303", 
        "end_line": "2", 
        "line": "2", 
        "source_name": "7"
      }
    }
  ], 
  "b64ndarrays": [
    "P6G0lvBAXt0AAAAAAAAAAAEAAAAAAAAAAQAAAAAgAQACAAAAAAAAAAgAAAAAAAAAAQAAABAAAAA="
  ], 
  "attrs": {"tvm_version": "0.13.0"}
}