#[version = "0.0.5"]
def @main(%x0: Tensor[(1, 16), float32] /* ty=Tensor[(1, 16), float32] span=from_string:3:13 */, %x1: Tensor[(16), float32] /* ty=Tensor[(16), float32] */) -> (Tensor[(1, 16), float16], float32, float32, float32, float32, float32, Tensor[(1, 16), float16], Tensor[(16), float16], Tensor[(2), int32]) {
  %0 = cast(%x0, dtype="float16") /* ty=Tensor[(1, 16), float16] span=from_string:7:105 */;
  %1 = nn.relu(%0) /* ty=Tensor[(1, 16), float16] span=from_string:4:97 */;
  %2 = cast(1f /* ty=float32 span=from_string:5:15 */, dtype="float16") /* ty=float16 span=from_string:6:107 */;
  %3 = nn.relu(%0) /* ty=Tensor[(1, 16), float16] span=from_string:7:97 */;
  %4 = cast(1f /* ty=float32 span=from_string:8:15 */, dtype="float16") /* ty=float16 span=from_string:9:108 */;
  %5 = add(%1, %2) /* ty=Tensor[(1, 16), float16] span=from_string:6:97 */;
  %6 = add(%3, %4) /* ty=Tensor[(1, 16), float16] span=from_string:9:98 */;
  %7 = cast(2f /* ty=float32 span=from_string:11:15 */, dtype="float16") /* ty=float16 span=from_string:12:102 */;
  %8 = add(%5, %6) /* ty=Tensor[(1, 16), float16] span=from_string:10:97 */;
  %9 = add(%7, %8) /* ty=Tensor[(1, 16), float16] span=from_string:12:98 */;
  %10 = ones(shape=[1, 16], dtype="float16") /* ty=Tensor[(1, 16), float16] span=from_string:13:99 */;
  %11 = reshape(%6, newshape=[16]) /* ty=Tensor[(16), float16] span=from_string:14:93 */;
  (%9, 4f /* ty=float32 span=from_string:15:340 */, 7.38906f /* ty=float32 span=from_string:15:391 */, 20.0855f /* ty=float32 span=from_string:15:442 */, 1f /* ty=float32 span=from_string:15:487 */, 6f /* ty=float32 span=from_string:15:532 */, %10, %11, meta[relay.Constant][0] /* ty=Tensor[(2), int32] span=from_string:15:594 */) /* ty=(Tensor[(1, 16), float16], float32, float32, float32, float32, float32, Tensor[(1, 16), float16], Tensor[(16), float16], Tensor[(2), int32]) span=from_string:15:331 */
}

#[metadata]
{
  "root": 1, 
  "nodes": [
    {
      "type_key": ""
    }, 
    {
      "type_key": "Map", 
      "keys": [
        "relay.Constant"
      ], 
      "data": [2]
    }, 
    {
      "type_key": "Array", 
      "data": [3]
    }, 
    {
      "type_key": "relay.Constant", 
      "attrs": {
        "_checked_type_": "8", 
        "data": "0", 
        "span": "6", 
        "virtual_device_": "4"
      }
    }, 
    {
      "type_key": "VirtualDevice", 
      "attrs": {
        "device_type_int": "-1", 
        "memory_scope": "5", 
        "target": "0", 
        "virtual_device_id": "-1"
      }
    }, 
    {
      "type_key": "runtime.String"
    }, 
    {
      "type_key": "Span", 
      "attrs": {
        "column": "594", 
        "end_column": "612", 
        "end_line": "15", 
        "line": "15", 
        "source_name": "7"
      }
    }, 
    {
      "type_key": "SourceName", 
      "repr_str": "from_string"
    }, 
    {
      "type_key": "relay.TensorType", 
      "attrs": {
        "dtype": "int32", 
        "shape": "9", 
        "span": "11"
      }
    }, 
    {
      "type_key": "Array", 
      "data": [10]
    }, 
    {
      "type_key": "IntImm", 
      "attrs": {
        "dtype": "int32", 
        "span": "0", 
        "value": "2"
      }
    }, 
    {
      "type_key": "Span", 
      "attrs": {
        "column": "283", 
        "end_column": "303", 
        "end_line": "2", 
        "line": "2", 
        "source_name": "7"
      }
    }
  ], 
  "b64ndarrays": [
    "P6G0lvBAXt0AAAAAAAAAAAEAAAAAAAAAAQAAAAAgAQACAAAAAAAAAAgAAAAAAAAAAQAAABAAAAA="
  ], 
  "attrs": {"tvm_version": "0.13.0"}
}