#[version = "0.0.5"]
def @main(%x0: Tensor[(1, 16), float32] /* ty=Tensor[(1, 16), float32] span=from_string:14:101 */, %x1: Tensor[(16), float32] /* ty=Tensor[(16), float32] */) -> (Tensor[(1, 16), float32], float32, float32, float32, float32, float32, Tensor[(1, 16), float32], Tensor[(16), float32], Tensor[(2), int32]) {
  let %x_0 = fn (%p0: Tensor[(1, 16), float32] /* ty=Tensor[(1, 16), float32] span=from_string:4:13 */, Primitive=1) -> Tensor[(1, 16), float32] {
    nn.relu(%p0) /* ty=Tensor[(1, 16), float32] span=from_string:4:5 */
  } /* ty=fn (Tensor[(1, 16), float32]) -> Tensor[(1, 16), float32] span=from_string:6:98 */;
  let %x_1: Tensor[(1, 16), float32] /* ty=Tensor[(1, 16), float32] span=from_string:10:101 */ = %x_0(%x0);
  let %x_11 = fn (%p01: Tensor[(1, 16), float32] /* ty=Tensor[(1, 16), float32] span=from_string:8:9 */, Primitive=1) -> Tensor[(1, 16), float32] {
    add(%p01, 1f /* ty=float32 span=from_string:8:17 */) /* ty=Tensor[(1, 16), float32] span=from_string:8:5 */
  } /* ty=fn (Tensor[(1, 16), float32]) -> Tensor[(1, 16), float32] span=from_string:10:98 */;
  let %x_3: Tensor[(1, 16), float32] /* ty=Tensor[(1, 16), float32] span=from_string:22:101 */ = %x_11(%x_1);
  let %x_2 = fn (%p02: Tensor[(1, 16), float32] /* ty=Tensor[(1, 16), float32] span=from_string:12:13 */, Primitive=1) -> Tensor[(1, 16), float32] {
    nn.relu(%p02) /* ty=Tensor[(1, 16), float32] span=from_string:12:5 */
  } /* ty=fn (Tensor[(1, 16), float32]) -> Tensor[(1, 16), float32] span=from_string:14:98 */;
  let %x_4: Tensor[(1, 16), float32] /* ty=Tensor[(1, 16), float32] span=from_string:18:100 */ = %x_2(%x0);
  let %x_31 = fn (%p03: Tensor[(1, 16), float32] /* ty=Tensor[(1, 16), float32] span=from_string:16:9 */, Primitive=1) -> Tensor[(1, 16), float32] {
    add(%p03, 1f /* ty=float32 span=from_string:16:17 */) /* ty=Tensor[(1, 16), float32] span=from_string:16:5 */
  } /* ty=fn (Tensor[(1, 16), float32]) -> Tensor[(1, 16), float32] span=from_string:18:97 */;
  let %x_6: Tensor[(1, 16), float32] /* ty=Tensor[(1, 16), float32] span=from_string:34:96 */ = %x_31(%x_4);
  let %x_41 = fn (%p04: Tensor[(1, 16), float32] /* ty=Tensor[(1, 16), float32] span=from_string:20:9 */, %p1: Tensor[(1, 16), float32] /* ty=Tensor[(1, 16), float32] span=from_string:20:15 */, Primitive=1) -> Tensor[(1, 16), float32] {
    add(%p04, %p1) /* ty=Tensor[(1, 16), float32] span=from_string:20:5 */
  } /* ty=fn (Tensor[(1, 16), float32], Tensor[(1, 16), float32]) -> Tensor[(1, 16), float32] span=from_string:22:98 */;
  let %x_7: Tensor[(1, 16), float32] /* ty=Tensor[(1, 16), float32] span=from_string:26:101 */ = %x_41(%x_3, %x_6);
  let %x_5 = fn (%p05: Tensor[(1, 16), float32] /* ty=Tensor[(1, 16), float32] span=from_string:24:53 */, Primitive=1) -> Tensor[(1, 16), float32] {
    add(2f /* ty=float32 span=from_string:24:11 */, %p05) /* ty=Tensor[(1, 16), float32] span=from_string:24:5 */
  } /* ty=fn (Tensor[(1, 16), float32]) -> Tensor[(1, 16), float32] span=from_string:26:98 */;
  let %x_8: Tensor[(1, 16), float32] /* ty=Tensor[(1, 16), float32] span=from_string:35:332 */ = %x_5(%x_7);
  let %x_61 = fn (Primitive=1) -> Tensor[(1, 16), float32] {
    ones(shape=[1, 16], dtype="float32") /* ty=Tensor[(1, 16), float32] span=from_string:28:5 */
  } /* ty=fn () -> Tensor[(1, 16), float32] span=from_string:30:99 */;
  let %x_14: Tensor[(1, 16), float32] /* ty=Tensor[(1, 16), float32] span=from_string:35:575 */ = %x_61();
  let %x_71 = fn (%p06: Tensor[(1, 16), float32] /* ty=Tensor[(1, 16), float32] span=from_string:32:13 */, Primitive=1, relay.reshape_only=1) -> Tensor[(16), float32] {
    reshape(%p06, newshape=[16]) /* ty=Tensor[(16), float32] span=from_string:32:5 */
  } /* ty=fn (Tensor[(1, 16), float32]) -> Tensor[(16), float32] span=from_string:34:93 */;
  let %x_15: Tensor[(16), float32] /* ty=Tensor[(16), float32] span=from_string:35:582 */ = %x_71(%x_6);
  let %x_81 = 4f /* ty=float32 span=from_string:35:340 */;
  let %x_9 = 7.38906f /* ty=float32 span=from_string:35:391 */;
  let %x_10 = 20.0855f /* ty=float32 span=from_string:35:442 */;
  let %x_111 = 1f /* ty=float32 span=from_string:35:487 */;
  let %x_12 = 6f /* ty=float32 span=from_string:35:532 */;
  let %x_13 = meta[relay.Constant][0] /* ty=Tensor[(2), int32] span=from_string:35:594 */;
  let %x_17: (Tensor[(1, 16), float32], float32, float32, float32, float32, float32, Tensor[(1, 16), float32], Tensor[(16), float32], Tensor[(2), int32]) /* ty=(Tensor[(1, 16), float32], float32, float32, float32, float32, float32, Tensor[(1, 16), float32], Tensor[(16), float32], Tensor[(2), int32]) span=from_string:36:3 */ = (%x_8, %x_81, %x_9, %x_10, %x_111, %x_12, %x_14, %x_15, %x_13) /* ty=(Tensor[(1, 16), float32], float32, float32, float32, float32, float32, Tensor[(1, 16), float32], Tensor[(16), float32], Tensor[(2), int32]) span=from_string:35:331 */;
  let %x_141 = %x_17;
  let %x_151 = %x_141;
  let %x_16 = %x_151;
  let %x_171 = %x_16;
  let %x_18 = %x_171;
  let %x_19 = %x_18;
  let %x_20 = %x_19;
  let %x_21 = %x_20;
  let %x_22 = %x_21;
  %x_22
}

#[metadata]
{
  "root": 1, 
  "nodes": [
    {
      "type_key": ""
    }, 
    {
      "type_key": "Map", 
      "keys": [
        "relay.Constant"
      ], 
      "data": [2]
    }, 
    {
      "type_key": "Array", 
      "data": [3]
    }, 
    {
      "type_key": "relay.Constant", 
      "attrs": {
        "_checked_type_": "8", 
        "data": "0", 
        "span": "6", 
        "virtual_device_": "4"
      }
    }, 
    {
      "type_key": "VirtualDevice", 
      "attrs": {
        "device_type_int": "-1", 
        "memory_scope": "5", 
        "target": "0", 
        "virtual_device_id": "-1"
      }
    }, 
    {
      "type_key": "runtime.String"
    }, 
    {
      "type_key": "Span", 
      "attrs": {
        "column": "594", 
        "end_column": "612", 
        "end_line": "35", 
        "line": "35", 
        "source_name": "7"
      }
    }, 
    {
      "type_key": "SourceName", 
      "repr_str": "from_string"
    }, 
    {
      "type_key": "relay.TensorType", 
      "attrs": {
        "dtype": "int32", 
        "shape": "9", 
        "span": "11"
      }
    }, 
    {
      "type_key": "Array", 
      "data": [10]
    }, 
    {
      "type_key": "IntImm", 
      "attrs": {
        "dtype": "int32", 
        "span": "0", 
        "value": "2"
      }
    }, 
    {
      "type_key": "Span", 
      "attrs": {
        "column": "284", 
        "end_column": "304", 
        "end_line": "2", 
        "line": "2", 
        "source_name": "7"
      }
    }
  ], 
  "b64ndarrays": [
    "P6G0lvBAXt0AAAAAAAAAAAEAAAAAAAAAAQAAAAAgAQACAAAAAAAAAAgAAAAAAAAAAQAAABAAAAA="
  ], 
  "attrs": {"tvm_version": "0.13.0"}
}