#[version = "0.0.5"]
def @main(%x0: Tensor[(1, 16), float32] /* ty=Tensor[(1, 16), float32] span=from_string:5:19 */, %x1: Tensor[(16), float32] /* ty=Tensor[(16), float32] */) -> (Tensor[(1, 16), float16], float32, float32, float32, float32, float32, Tensor[(1, 16), float16], Tensor[(16), float16], Tensor[(2), int32]) {
  let %x_2: Tensor[(1, 16), float16] /* ty=Tensor[(1, 16), float16] span=from_string:10:22 */ = cast(%x0, dtype="float16") /* ty=Tensor[(1, 16), float16] span=from_string:5:14 */;
  let %x_3: Tensor[(1, 16), float16] /* ty=Tensor[(1, 16), float16] span=from_string:9:18 */ = nn.relu(%x_2) /* ty=Tensor[(1, 16), float16] span=from_string:6:14 */;
  let %x_6: Tensor[(1, 16), float16] /* ty=Tensor[(1, 16), float16] span=from_string:14:19 */ = add(%x_3, 1f16 /* ty=float16 */) /* ty=Tensor[(1, 16), float16] span=from_string:9:14 */;
  let %x_7: Tensor[(1, 16), float16] /* ty=Tensor[(1, 16), float16] span=from_string:13:19 */ = nn.relu(%x_2) /* ty=Tensor[(1, 16), float16] span=from_string:10:14 */;
  let %x_10: Tensor[(1, 16), float16] /* ty=Tensor[(1, 16), float16] span=from_string:22:23 */ = add(%x_7, 1f16 /* ty=float16 */) /* ty=Tensor[(1, 16), float16] span=from_string:13:15 */;
  let %x_11: Tensor[(1, 16), float16] /* ty=Tensor[(1, 16), float16] span=from_string:15:25 */ = add(%x_6, %x_10) /* ty=Tensor[(1, 16), float16] span=from_string:14:15 */;
  let %x_12: Tensor[(1, 16), float16] /* ty=Tensor[(1, 16), float16] span=from_string:24:16 */ = add(2f16 /* ty=float16 */, %x_11) /* ty=Tensor[(1, 16), float16] span=from_string:15:15 */;
  let %x_18: Tensor[(1, 16), float16] /* ty=Tensor[(1, 16), float16] span=from_string:24:58 */ = ones(shape=[1, 16], dtype="float16") /* ty=Tensor[(1, 16), float16] span=from_string:21:15 */;
  let %x_19: Tensor[(16), float16] /* ty=Tensor[(16), float16] span=from_string:24:65 */ = reshape(%x_10, newshape=[16]) /* ty=Tensor[(16), float16] span=from_string:22:15 */;
  let %x_21: (Tensor[(1, 16), float16], float32, float32, float32, float32, float32, Tensor[(1, 16), float16], Tensor[(16), float16], Tensor[(2), int32]) /* ty=(Tensor[(1, 16), float16], float32, float32, float32, float32, float32, Tensor[(1, 16), float16], Tensor[(16), float16], Tensor[(2), int32]) span=from_string:25:3 */ = (%x_12, 4f /* ty=float32 span=from_string:16:17 */, 7.38906f /* ty=float32 span=from_string:17:23 */, 20.0855f /* ty=float32 span=from_string:18:23 */, 1f /* ty=float32 span=from_string:19:17 */, 6f /* ty=float32 span=from_string:20:17 */, %x_18, %x_19, meta[relay.Constant][0] /* ty=Tensor[(2), int32] span=from_string:23:20 */) /* ty=(Tensor[(1, 16), float16], float32, float32, float32, float32, float32, Tensor[(1, 16), float16], Tensor[(16), float16], Tensor[(2), int32]) span=from_string:24:15 */;
  %x_21
}

#[metadata]
{
  "root": 1, 
  "nodes": [
    {
      "type_key": ""
    }, 
    {
      "type_key": "Map", 
      "keys": [
        "relay.Constant"
      ], 
      "data": [2]
    }, 
    {
      "type_key": "Array", 
      "data": [3]
    }, 
    {
      "type_key": "relay.Constant", 
      "attrs": {
        "_checked_type_": "8", 
        "data": "0", 
        "span": "6", 
        "virtual_device_": "4"
      }
    }, 
    {
      "type_key": "VirtualDevice", 
      "attrs": {
        "device_type_int": "-1", 
        "memory_scope": "5", 
        "target": "0", 
        "virtual_device_id": "-1"
      }
    }, 
    {
      "type_key": "runtime.String"
    }, 
    {
      "type_key": "Span", 
      "attrs": {
        "column": "20", 
        "end_column": "38", 
        "end_line": "23", 
        "line": "23", 
        "source_name": "7"
      }
    }, 
    {
      "type_key": "SourceName", 
      "repr_str": "from_string"
    }, 
    {
      "type_key": "relay.TensorType", 
      "attrs": {
        "dtype": "int32", 
        "shape": "9", 
        "span": "0"
      }
    }, 
    {
      "type_key": "Array", 
      "data": [10]
    }, 
    {
      "type_key": "IntImm", 
      "attrs": {
        "dtype": "int32", 
        "span": "0", 
        "value": "2"
      }
    }
  ], 
  "b64ndarrays": [
    "P6G0lvBAXt0AAAAAAAAAAAEAAAAAAAAAAQAAAAAgAQACAAAAAAAAAAgAAAAAAAAAAQAAABAAAAA="
  ], 
  "attrs": {"tvm_version": "0.13.0"}
}