#[version = "0.0.5"]
def @main(%x0: Tensor[(1, 16), float32] /* ty=Tensor[(1, 16), float32] span=from_string:6:13 */, %x1: Tensor[(16), float32] /* ty=Tensor[(16), float32] */) -> (Tensor[(1, 16), float16], float32, float32, float32, float32, float32, Tensor[(1, 16), float16], Tensor[(16), float16], Tensor[(2), int32]) {
  %0 = cast(%x0, dtype="float16") /* ty=Tensor[(1, 16), float16] span=from_string:7:103 */;
  let %x_2: Tensor[(1, 16), float16] /* ty=Tensor[(1, 16), float16] span=from_string:8:16 */ = cast(%0, dtype="float16") /* ty=Tensor[(1, 16), float16] span=from_string:7:98 */;
  %1 = nn.relu(%x_2) /* ty=Tensor[(1, 16), float16] span=from_string:14:98 */;
  let %x_3: Tensor[(1, 16), float16] /* ty=Tensor[(1, 16), float16] span=from_string:13:102 */ = %1;
  let %x_6: Tensor[(1, 16), float16] /* ty=Tensor[(1, 16), float16] span=from_string:19:103 */ = add(%x_3, 1f16 /* ty=float16 */) /* ty=Tensor[(1, 16), float16] span=from_string:13:98 */;
  let %x_7: Tensor[(1, 16), float16] /* ty=Tensor[(1, 16), float16] span=from_string:18:103 */ = %1;
  let %x_10: Tensor[(1, 16), float16] /* ty=Tensor[(1, 16), float16] span=from_string:27:101 */ = add(%x_7, 1f16 /* ty=float16 */) /* ty=Tensor[(1, 16), float16] span=from_string:18:99 */;
  let %x_11: Tensor[(1, 16), float16] /* ty=Tensor[(1, 16), float16] span=from_string:20:109 */ = add(%x_6, %x_10) /* ty=Tensor[(1, 16), float16] span=from_string:19:99 */;
  let %x_12: Tensor[(1, 16), float16] /* ty=Tensor[(1, 16), float16] span=from_string:29:332 */ = add(2f16 /* ty=float16 */, %x_11) /* ty=Tensor[(1, 16), float16] span=from_string:20:99 */;
  let %x_18: Tensor[(1, 16), float16] /* ty=Tensor[(1, 16), float16] span=from_string:29:374 */ = ones(shape=[1, 16], dtype="float16") /* ty=Tensor[(1, 16), float16] span=from_string:26:99 */;
  let %x_19: Tensor[(16), float16] /* ty=Tensor[(16), float16] span=from_string:29:381 */ = reshape(%x_10, newshape=[16]) /* ty=Tensor[(16), float16] span=from_string:27:93 */;
  let %x_21: (Tensor[(1, 16), float16], float32, float32, float32, float32, float32, Tensor[(1, 16), float16], Tensor[(16), float16], Tensor[(2), int32]) /* ty=(Tensor[(1, 16), float16], float32, float32, float32, float32, float32, Tensor[(1, 16), float16], Tensor[(16), float16], Tensor[(2), int32]) span=from_string:30:3 */ = (%x_12, 4f /* ty=float32 span=from_string:21:67 */, 7.38906f /* ty=float32 span=from_string:22:73 */, 20.0855f /* ty=float32 span=from_string:23:73 */, 1f /* ty=float32 span=from_string:24:67 */, 6f /* ty=float32 span=from_string:25:67 */, %x_18, %x_19, meta[relay.Constant][0] /* ty=Tensor[(2), int32] span=from_string:28:94 */) /* ty=(Tensor[(1, 16), float16], float32, float32, float32, float32, float32, Tensor[(1, 16), float16], Tensor[(16), float16], Tensor[(2), int32]) span=from_string:29:331 */;
  %x_21
}

#[metadata]
{
  "root": 1, 
  "nodes": [
    {
      "type_key": ""
    }, 
    {
      "type_key": "Map", 
      "keys": [
        "relay.Constant"
      ], 
      "data": [2]
    }, 
    {
      "type_key": "Array", 
      "data": [3]
    }, 
    {
      "type_key": "relay.Constant", 
      "attrs": {
        "_checked_type_": "8", 
        "data": "0", 
        "span": "6", 
        "virtual_device_": "4"
      }
    }, 
    {
      "type_key": "VirtualDevice", 
      "attrs": {
        "device_type_int": "-1", 
        "memory_scope": "5", 
        "target": "0", 
        "virtual_device_id": "-1"
      }
    }, 
    {
      "type_key": "runtime.String"
    }, 
    {
      "type_key": "Span", 
      "attrs": {
        "column": "94", 
        "end_column": "112", 
        "end_line": "28", 
        "line": "28", 
        "source_name": "7"
      }
    }, 
    {
      "type_key": "SourceName", 
      "repr_str": "from_string"
    }, 
    {
      "type_key": "relay.TensorType", 
      "attrs": {
        "dtype": "int32", 
        "shape": "9", 
        "span": "0"
      }
    }, 
    {
      "type_key": "Array", 
      "data": [10]
    }, 
    {
      "type_key": "IntImm", 
      "attrs": {
        "dtype": "int32", 
        "span": "0", 
        "value": "2"
      }
    }
  ], 
  "b64ndarrays": [
    "P6G0lvBAXt0AAAAAAAAAAAEAAAAAAAAAAQAAAAAgAQACAAAAAAAAAAgAAAAAAAAAAQAAABAAAAA="
  ], 
  "attrs": {"tvm_version": "0.13.0"}
}