#[version = "0.0.5"]
def @main(%x0: Tensor[(1, 16), float32] /* ty=Tensor[(1, 16), float32] span=from_string:6:20 */, %x1: Tensor[(16), float32] /* ty=Tensor[(16), float32] */) -> (Tensor[(1, 16), float16], float32, float32, float32, float32, float32, Tensor[(1, 16), float16], Tensor[(16), float16], Tensor[(2), int32]) {
  %0 = cast(2f /* ty=float32 span=from_string:3:64 */, dtype="float16") /* ty=float16 span=from_string:4:15 */;
  %1 = cast(%x0, dtype="float16") /* ty=Tensor[(1, 16), float16] span=from_string:6:15 */;
  %2 = cast(%1, dtype="float16") /* ty=Tensor[(1, 16), float16] span=from_string:7:96 */;
  %3 = cast(1f /* ty=float32 span=from_string:10:65 */, dtype="float16") /* ty=float16 span=from_string:11:15 */;
  %4 = nn.relu(%2) /* ty=Tensor[(1, 16), float16] span=from_string:8:98 */;
  %5 = cast(%3, dtype="float16") /* ty=float16 span=from_string:12:64 */;
  %6 = cast(1f /* ty=float32 span=from_string:14:65 */, dtype="float16") /* ty=float16 span=from_string:15:15 */;
  %7 = cast(%6, dtype="float16") /* ty=float16 span=from_string:16:64 */;
  %8 = add(%4, %5) /* ty=Tensor[(1, 16), float16] span=from_string:13:98 */;
  %9 = add(%4, %7) /* ty=Tensor[(1, 16), float16] span=from_string:17:99 */;
  %10 = cast(%0, dtype="float16") /* ty=float16 span=from_string:5:64 */;
  %11 = add(%8, %9) /* ty=Tensor[(1, 16), float16] span=from_string:18:100 */;
  %12 = add(%10, %11) /* ty=Tensor[(1, 16), float16] span=from_string:19:99 */;
  %13 = ones(shape=[1, 16], dtype="float16") /* ty=Tensor[(1, 16), float16] span=from_string:25:99 */;
  %14 = reshape(%9, newshape=[16]) /* ty=Tensor[(16), float16] span=from_string:26:93 */;
  (%12, 4f /* ty=float32 span=from_string:20:67 */, 7.38906f /* ty=float32 span=from_string:21:73 */, 20.0855f /* ty=float32 span=from_string:22:73 */, 1f /* ty=float32 span=from_string:23:67 */, 6f /* ty=float32 span=from_string:24:67 */, %13, %14, meta[relay.Constant][0] /* ty=Tensor[(2), int32] span=from_string:27:94 */) /* ty=(Tensor[(1, 16), float16], float32, float32, float32, float32, float32, Tensor[(1, 16), float16], Tensor[(16), float16], Tensor[(2), int32]) span=from_string:28:332 */
}

#[metadata]
{
  "root": 1, 
  "nodes": [
    {
      "type_key": ""
    }, 
    {
      "type_key": "Map", 
      "keys": [
        "relay.Constant"
      ], 
      "data": [2]
    }, 
    {
      "type_key": "Array", 
      "data": [3]
    }, 
    {
      "type_key": "relay.Constant", 
      "attrs": {
        "_checked_type_": "8", 
        "data": "0", 
        "span": "6", 
        "virtual_device_": "4"
      }
    }, 
    {
      "type_key": "VirtualDevice", 
      "attrs": {
        "device_type_int": "-1", 
        "memory_scope": "5", 
        "target": "0", 
        "virtual_device_id": "-1"
      }
    }, 
    {
      "type_key": "runtime.String"
    }, 
    {
      "type_key": "Span", 
      "attrs": {
        "column": "94", 
        "end_column": "112", 
        "end_line": "27", 
        "line": "27", 
        "source_name": "7"
      }
    }, 
    {
      "type_key": "SourceName", 
      "repr_str": "from_string"
    }, 
    {
      "type_key": "relay.TensorType", 
      "attrs": {
        "dtype": "int32", 
        "shape": "9", 
        "span": "0"
      }
    }, 
    {
      "type_key": "Array", 
      "data": [10]
    }, 
    {
      "type_key": "IntImm", 
      "attrs": {
        "dtype": "int32", 
        "span": "0", 
        "value": "2"
      }
    }
  ], 
  "b64ndarrays": [
    "P6G0lvBAXt0AAAAAAAAAAAEAAAAAAAAAAQAAAAAgAQACAAAAAAAAAAgAAAAAAAAAAQAAABAAAAA="
  ], 
  "attrs": {"tvm_version": "0.13.0"}
}