#[version = "0.0.5"]
def @main(%x0: Tensor[(10, 10), float32] /* ty=Tensor[(10, 10), float32] span=from_string:3:104 */, %x1: Tensor[(65, 10), float32] /* ty=Tensor[(65, 10), float32] span=from_string:21:106 */, %x2: Tensor[(10, 10), float32] /* ty=Tensor[(10, 10), float32] span=from_string:27:106 */, %x3: Tensor[(10), float32] /* ty=Tensor[(10), float32] span=from_string:24:97 */, %x4: Tensor[(10), float32] /* ty=Tensor[(10), float32] span=from_string:30:97 */, %x5: Tensor[(12, 10), float32] /* ty=Tensor[(12, 10), float32] span=from_string:34:107 */, %x6: Tensor[(12), float32] /* ty=Tensor[(12), float32] span=from_string:37:98 */, %x7: Tensor[(1), float32] /* ty=Tensor[(1), float32] span=from_string:40:96 */, %x8: Tensor[(24, 10), float32] /* ty=Tensor[(24, 10), float32] span=from_string:10:106 */, %x9: Tensor[(24), float32] /* ty=Tensor[(24), float32] span=from_string:13:97 */, %x10: Tensor[(1), float32] /* ty=Tensor[(1), float32] span=from_string:16:95 */, %x11: Tensor[(14, 30), float32] /* ty=Tensor[(14, 30), float32] span=from_string:54:107 */, %x12: Tensor[(42, 24), float32] /* ty=Tensor[(42, 24), float32] span=from_string:65:107 */, %x13: Tensor[(10, 24), float32] /* ty=Tensor[(10, 24), float32] span=from_string:75:107 */, %x14: Tensor[(10), float32] /* ty=Tensor[(10), float32] span=from_string:68:98 */, %x15: Tensor[(10), float32] /* ty=Tensor[(10), float32] span=from_string:78:98 */, %x16: Tensor[(1), float32] /* ty=Tensor[(1), float32] span=from_string:71:96 */, %x17: Tensor[(1), float32] /* ty=Tensor[(1), float32] span=from_string:81:96 */) -> ((Tensor[(65, 10), float16], Tensor[(65, 10), float16]), (Tensor[(1, 1, 120), float16], Tensor[(1, 1, 240), float16]), (Tensor[(10, 24), float16], (Tensor[(10, 24), float16],)), Tensor[(1), float16], Tensor[(14, 65), float16], Tensor[(65, 10), float16], (Tensor[(1, 1, 420), float16], Tensor[(1, 1, 420), float16])) {
  let %x_0: Tensor[(10, 10), float16] /* ty=Tensor[(10, 10), float16] span=from_string:4:106 */ = cast(%x0, dtype="float16") /* ty=Tensor[(10, 10), float16] span=from_string:3:99 */;
  let %x_01: Tensor[(10, 10), float16] /* ty=Tensor[(10, 10), float16] span=from_string:23:117 */ = cast(%x_0, dtype="float16") /* ty=Tensor[(10, 10), float16] span=from_string:4:101 */;
  let %x_1: Tensor[(10, 10), float16] /* ty=Tensor[(10, 10), float16] span=from_string:6:103 */ = nn.relu(%x_01) /* ty=Tensor[(10, 10), float16] span=from_string:5:99 */;
  let %x_4: Tensor[(10, 10), float16] /* ty=Tensor[(10, 10), float16] span=from_string:9:104 */ = add(%x_1, 1f16 /* ty=float16 span=from_string:6:113 */) /* ty=Tensor[(10, 10), float16] span=from_string:6:99 */;
  let %x_5: Tensor[(10, 10), float16] /* ty=Tensor[(10, 10), float16] span=from_string:8:103 */ = nn.relu(%x_01) /* ty=Tensor[(10, 10), float16] span=from_string:7:99 */;
  let %x_8: Tensor[(10, 10), float16] /* ty=Tensor[(10, 10), float16] span=from_string:9:110 */ = add(%x_5, 1f16 /* ty=float16 span=from_string:8:113 */) /* ty=Tensor[(10, 10), float16] span=from_string:8:99 */;
  let %x_9: Tensor[(10, 10), float16] /* ty=Tensor[(10, 10), float16] span=from_string:36:110 */ = add(%x_4, %x_8) /* ty=Tensor[(10, 10), float16] span=from_string:9:100 */;
  let %x_31: Tensor[(24, 10), float16] /* ty=Tensor[(24, 10), float16] span=from_string:11:106 */ = cast(%x8, dtype="float16") /* ty=Tensor[(24, 10), float16] span=from_string:10:101 */;
  let %x_10: Tensor[(24, 10), float16] /* ty=Tensor[(24, 10), float16] span=from_string:12:117 */ = cast(%x_31, dtype="float16") /* ty=Tensor[(24, 10), float16] span=from_string:11:101 */;
  let %x_111: Tensor[(10, 24), float16] /* ty=Tensor[(10, 24), float16] span=from_string:15:105 */ = nn.dense(%x_9, %x_10, units=None, out_dtype="float16") /* ty=Tensor[(10, 24), float16] span=from_string:12:102 */;
  let %x_41: Tensor[(24), float16] /* ty=Tensor[(24), float16] span=from_string:14:98 */ = cast(%x9, dtype="float16") /* ty=Tensor[(24), float16] span=from_string:13:92 */;
  let %x_12: Tensor[(24), float16] /* ty=Tensor[(24), float16] span=from_string:15:113 */ = cast(%x_41, dtype="float16") /* ty=Tensor[(24), float16] span=from_string:14:93 */;
  let %x_13: Tensor[(10, 24), float16] /* ty=Tensor[(10, 24), float16] span=from_string:18:111 */ = add(%x_111, %x_12) /* ty=Tensor[(10, 24), float16] span=from_string:15:101 */;
  let %x_51: Tensor[(1), float16] /* ty=Tensor[(1), float16] span=from_string:17:95 */ = cast(%x10, dtype="float16") /* ty=Tensor[(1), float16] span=from_string:16:90 */;
  let %x_14: Tensor[(1), float16] /* ty=Tensor[(1), float16] span=from_string:53:95 */ = cast(%x_51, dtype="float16") /* ty=Tensor[(1), float16] span=from_string:17:90 */;
  let %x_15: Tensor[(10, 24), float16] /* ty=Tensor[(10, 24), float16] span=from_string:48:117 */ = multiply(%x_13, %x_14) /* ty=Tensor[(10, 24), float16] span=from_string:18:102 */;
  let %x18: Tensor[(10, 24), float16] /* ty=Tensor[(10, 24), float16] span=from_string:52:166 */ = multiply(%x_15, %x_15) /* ty=Tensor[(10, 24), float16] span=from_string:19:101 */;
  let %x19: Tensor[(10, 24), float16] /* ty=Tensor[(10, 24), float16] span=from_string:48:111 */ = ones(shape=[10, 24], dtype="float16") /* ty=Tensor[(10, 24), float16] span=from_string:20:100 */;
  let %x_61: Tensor[(65, 10), float16] /* ty=Tensor[(65, 10), float16] span=from_string:22:106 */ = cast(%x1, dtype="float16") /* ty=Tensor[(65, 10), float16] span=from_string:21:101 */;
  let %x_16: Tensor[(65, 10), float16] /* ty=Tensor[(65, 10), float16] span=from_string:29:111 */ = cast(%x_61, dtype="float16") /* ty=Tensor[(65, 10), float16] span=from_string:22:101 */;
  let %x_17: Tensor[(65, 10), float16] /* ty=Tensor[(65, 10), float16] span=from_string:26:105 */ = nn.dense(%x_16, %x_01, units=None, out_dtype="float16") /* ty=Tensor[(65, 10), float16] span=from_string:23:101 */;
  let %x_71: Tensor[(10), float16] /* ty=Tensor[(10), float16] span=from_string:25:98 */ = cast(%x3, dtype="float16") /* ty=Tensor[(10), float16] span=from_string:24:92 */;
  let %x_18: Tensor[(10), float16] /* ty=Tensor[(10), float16] span=from_string:26:112 */ = cast(%x_71, dtype="float16") /* ty=Tensor[(10), float16] span=from_string:25:93 */;
  let %x_19: Tensor[(65, 10), float16] /* ty=Tensor[(65, 10), float16] span=from_string:33:160 */ = add(%x_17, %x_18) /* ty=Tensor[(65, 10), float16] span=from_string:26:101 */;
  let %x_81: Tensor[(10, 10), float16] /* ty=Tensor[(10, 10), float16] span=from_string:28:106 */ = cast(%x2, dtype="float16") /* ty=Tensor[(10, 10), float16] span=from_string:27:101 */;
  let %x_20: Tensor[(10, 10), float16] /* ty=Tensor[(10, 10), float16] span=from_string:29:118 */ = cast(%x_81, dtype="float16") /* ty=Tensor[(10, 10), float16] span=from_string:28:101 */;
  let %x_211: Tensor[(65, 10), float16] /* ty=Tensor[(65, 10), float16] span=from_string:58:106 */ = nn.dense(%x_16, %x_20, units=None, out_dtype="float16") /* ty=Tensor[(65, 10), float16] span=from_string:29:102 */;
  let %x_91: Tensor[(10), float16] /* ty=Tensor[(10), float16] span=from_string:31:98 */ = cast(%x4, dtype="float16") /* ty=Tensor[(10), float16] span=from_string:30:92 */;
  let %x_22: Tensor[(10), float16] /* ty=Tensor[(10), float16] span=from_string:32:113 */ = cast(%x_91, dtype="float16") /* ty=Tensor[(10), float16] span=from_string:31:93 */;
  let %x_23: Tensor[(65, 10), float16] /* ty=Tensor[(65, 10), float16] span=from_string:33:167 */ = add(%x_211, %x_22) /* ty=Tensor[(65, 10), float16] span=from_string:32:101 */;
  let %x_24: (Tensor[(65, 10), float16], Tensor[(65, 10), float16]) /* ty=(Tensor[(65, 10), float16], Tensor[(65, 10), float16]) span=from_string:86:683 */ = (%x_19, %x_23) /* ty=(Tensor[(65, 10), float16], Tensor[(65, 10), float16]) span=from_string:33:159 */;
  let %x_101: Tensor[(12, 10), float16] /* ty=Tensor[(12, 10), float16] span=from_string:35:106 */ = cast(%x5, dtype="float16") /* ty=Tensor[(12, 10), float16] span=from_string:34:102 */;
  let %x_25: Tensor[(12, 10), float16] /* ty=Tensor[(12, 10), float16] span=from_string:36:116 */ = cast(%x_101, dtype="float16") /* ty=Tensor[(12, 10), float16] span=from_string:35:101 */;
  let %x_26: Tensor[(10, 12), float16] /* ty=Tensor[(10, 12), float16] span=from_string:39:105 */ = nn.dense(%x_9, %x_25, units=None, out_dtype="float16") /* ty=Tensor[(10, 12), float16] span=from_string:36:101 */;
  let %x_112: Tensor[(12), float16] /* ty=Tensor[(12), float16] span=from_string:38:98 */ = cast(%x6, dtype="float16") /* ty=Tensor[(12), float16] span=from_string:37:93 */;
  let %x_27: Tensor[(12), float16] /* ty=Tensor[(12), float16] span=from_string:39:112 */ = cast(%x_112, dtype="float16") /* ty=Tensor[(12), float16] span=from_string:38:93 */;
  let %x_28: Tensor[(10, 12), float16] /* ty=Tensor[(10, 12), float16] span=from_string:42:111 */ = add(%x_26, %x_27) /* ty=Tensor[(10, 12), float16] span=from_string:39:101 */;
  let %x_121: Tensor[(1), float16] /* ty=Tensor[(1), float16] span=from_string:41:96 */ = cast(%x7, dtype="float16") /* ty=Tensor[(1), float16] span=from_string:40:91 */;
  let %x_29: Tensor[(1), float16] /* ty=Tensor[(1), float16] span=from_string:42:118 */ = cast(%x_121, dtype="float16") /* ty=Tensor[(1), float16] span=from_string:41:91 */;
  let %x_30: Tensor[(10, 12), float16] /* ty=Tensor[(10, 12), float16] span=from_string:43:116 */ = multiply(%x_28, %x_29) /* ty=Tensor[(10, 12), float16] span=from_string:42:102 */;
  let %x_311: Tensor[(1, 1, 120), float16] /* ty=Tensor[(1, 1, 120), float16] span=from_string:45:172 */ = reshape(%x_30, newshape=[1, 1, 120]) /* ty=Tensor[(1, 1, 120), float16] span=from_string:43:108 */;
  let %x_32: Tensor[(1, 1, 240), float16] /* ty=Tensor[(1, 1, 240), float16] span=from_string:45:180 */ = reshape(%x_15, newshape=[1, 1, 240]) /* ty=Tensor[(1, 1, 240), float16] span=from_string:44:107 */;
  let %x_33: (Tensor[(1, 1, 120), float16], Tensor[(1, 1, 240), float16]) /* ty=(Tensor[(1, 1, 120), float16], Tensor[(1, 1, 240), float16]) span=from_string:86:690 */ = (%x_311, %x_32) /* ty=(Tensor[(1, 1, 120), float16], Tensor[(1, 1, 240), float16]) span=from_string:45:171 */;
  let %x_34: Tensor[(10, 24), float16] /* ty=Tensor[(10, 24), float16] span=from_string:67:117 */ = multiply(%x19, %x_15) /* ty=Tensor[(10, 24), float16] span=from_string:46:102 */;
  let %x_36: Tensor[(10, 24), float16] /* ty=Tensor[(10, 24), float16] span=from_string:50:105 */ = collapse_sum_to(%x_34, meta[relay.Constant][0] /* ty=Tensor[(2), int32] span=from_string:47:129 */, meta[relay.attrs.InitOpAttrs][0]) /* ty=Tensor[(10, 24), float16] span=from_string:47:101 */;
  let %x_37: Tensor[(10, 24), float16] /* ty=Tensor[(10, 24), float16] span=from_string:49:117 */ = multiply(%x19, %x_15) /* ty=Tensor[(10, 24), float16] span=from_string:48:102 */;
  let %x_39: Tensor[(10, 24), float16] /* ty=Tensor[(10, 24), float16] span=from_string:50:112 */ = collapse_sum_to(%x_37, meta[relay.Constant][1] /* ty=Tensor[(2), int32] span=from_string:49:129 */, meta[relay.attrs.InitOpAttrs][1]) /* ty=Tensor[(10, 24), float16] span=from_string:49:101 */;
  let %x_40: Tensor[(10, 24), float16] /* ty=Tensor[(10, 24), float16] span=from_string:51:109 */ = add(%x_36, %x_39) /* ty=Tensor[(10, 24), float16] span=from_string:50:101 */;
  let %x_411: (Tensor[(10, 24), float16],) /* ty=(Tensor[(10, 24), float16],) span=from_string:52:172 */ = (%x_40,) /* ty=(Tensor[(10, 24), float16],) span=from_string:51:108 */;
  let %x_42: (Tensor[(10, 24), float16], (Tensor[(10, 24), float16],)) /* ty=(Tensor[(10, 24), float16], (Tensor[(10, 24), float16],)) span=from_string:86:697 */ = (%x18, %x_411) /* ty=(Tensor[(10, 24), float16], (Tensor[(10, 24), float16],)) span=from_string:52:165 */;
  let %x_45: Tensor[(1), float16] /* ty=Tensor[(1), float16] span=from_string:86:704 */ = add(%x_14, 1f16 /* ty=float16 span=from_string:53:106 */) /* ty=Tensor[(1), float16] span=from_string:53:91 */;
  let %x_141: Tensor[(14, 30), float16] /* ty=Tensor[(14, 30), float16] span=from_string:55:106 */ = cast(%x11, dtype="float16") /* ty=Tensor[(14, 30), float16] span=from_string:54:102 */;
  let %x_46: Tensor[(14, 30), float16] /* ty=Tensor[(14, 30), float16] span=from_string:56:219 */ = cast(%x_141, dtype="float16") /* ty=Tensor[(14, 30), float16] span=from_string:55:101 */;
  let %x_47: (Tensor[(14, 10), float16], Tensor[(14, 10), float16], Tensor[(14, 10), float16]) /* ty=(Tensor[(14, 10), float16], Tensor[(14, 10), float16], Tensor[(14, 10), float16]) span=from_string:57:101 */ = split(%x_46, indices_or_sections=3, axis=1) /* ty=(Tensor[(14, 10), float16], Tensor[(14, 10), float16], Tensor[(14, 10), float16]) span=from_string:56:213 */;
  let %x_48: Tensor[(14, 10), float16] /* ty=Tensor[(14, 10), float16] span=from_string:59:110 */ = %x_47.0 /* ty=Tensor[(14, 10), float16] span=from_string:57:101 */;
  let %x_511: Tensor[(65, 10), float16] /* ty=Tensor[(65, 10), float16] span=from_string:60:108 */ = add(%x_211, 1f16 /* ty=float16 span=from_string:58:118 */) /* ty=Tensor[(65, 10), float16] span=from_string:58:102 */;
  let %x_52: Tensor[(14, 65), float16] /* ty=Tensor[(14, 65), float16] span=from_string:86:711 */ = nn.dense(%x_48, %x_511, units=None, out_dtype="float16") /* ty=Tensor[(14, 65), float16] span=from_string:59:101 */;
  let %x_53: Tensor[(65, 10), bfloat16] /* ty=Tensor[(65, 10), bfloat16] span=from_string:61:107 */ = cast(%x_511, dtype="bfloat16") /* ty=Tensor[(65, 10), bfloat16] span=from_string:60:103 */;
  let %x_161: Tensor[(65, 10), float16] /* ty=Tensor[(65, 10), float16] span=from_string:62:106 */ = cast(%x_53, dtype="float16") /* ty=Tensor[(65, 10), float16] span=from_string:61:102 */;
  let %x_54: Tensor[(65, 10), float32] /* ty=Tensor[(65, 10), float32] span=from_string:63:107 */ = cast(%x_161, dtype="float32") /* ty=Tensor[(65, 10), float32] span=from_string:62:101 */;
  let %x_171: Tensor[(65, 10), float16] /* ty=Tensor[(65, 10), float16] span=from_string:64:106 */ = cast(%x_54, dtype="float16") /* ty=Tensor[(65, 10), float16] span=from_string:63:102 */;
  let %x_55: Tensor[(65, 10), float16] /* ty=Tensor[(65, 10), float16] span=from_string:86:718 */ = clip(%x_171, a_min=-0.2f, a_max=0.4f) /* ty=Tensor[(65, 10), float16] span=from_string:64:101 */;
  let %x_181: Tensor[(42, 24), float16] /* ty=Tensor[(42, 24), float16] span=from_string:66:106 */ = cast(%x12, dtype="float16") /* ty=Tensor[(42, 24), float16] span=from_string:65:102 */;
  let %x_56: Tensor[(42, 24), float16] /* ty=Tensor[(42, 24), float16] span=from_string:77:110 */ = cast(%x_181, dtype="float16") /* ty=Tensor[(42, 24), float16] span=from_string:66:101 */;
  let %x_57: Tensor[(42, 10), float16] /* ty=Tensor[(42, 10), float16] span=from_string:70:105 */ = nn.dense(%x_56, %x_34, units=None, out_dtype="float16") /* ty=Tensor[(42, 10), float16] span=from_string:67:101 */;
  let %x_191: Tensor[(10), float16] /* ty=Tensor[(10), float16] span=from_string:69:98 */ = cast(%x14, dtype="float16") /* ty=Tensor[(10), float16] span=from_string:68:93 */;
  let %x_58: Tensor[(10), float16] /* ty=Tensor[(10), float16] span=from_string:70:112 */ = cast(%x_191, dtype="float16") /* ty=Tensor[(10), float16] span=from_string:69:93 */;
  let %x_59: Tensor[(42, 10), float16] /* ty=Tensor[(42, 10), float16] span=from_string:73:112 */ = add(%x_57, %x_58) /* ty=Tensor[(42, 10), float16] span=from_string:70:101 */;
  let %x_201: Tensor[(1), float16] /* ty=Tensor[(1), float16] span=from_string:72:96 */ = cast(%x16, dtype="float16") /* ty=Tensor[(1), float16] span=from_string:71:91 */;
  let %x_60: Tensor[(1), float16] /* ty=Tensor[(1), float16] span=from_string:73:119 */ = cast(%x_201, dtype="float16") /* ty=Tensor[(1), float16] span=from_string:72:91 */;
  let %x_611: Tensor[(42, 10), float16] /* ty=Tensor[(42, 10), float16] span=from_string:74:115 */ = multiply(%x_59, %x_60) /* ty=Tensor[(42, 10), float16] span=from_string:73:103 */;
  let %x_62: Tensor[(1, 1, 420), float16] /* ty=Tensor[(1, 1, 420), float16] span=from_string:85:172 */ = reshape(%x_611, newshape=[1, 1, -1]) /* ty=Tensor[(1, 1, 420), float16] span=from_string:74:107 */;
  let %x_212: Tensor[(10, 24), float16] /* ty=Tensor[(10, 24), float16] span=from_string:76:106 */ = cast(%x13, dtype="float16") /* ty=Tensor[(10, 24), float16] span=from_string:75:102 */;
  let %x_63: Tensor[(10, 24), float16] /* ty=Tensor[(10, 24), float16] span=from_string:77:117 */ = cast(%x_212, dtype="float16") /* ty=Tensor[(10, 24), float16] span=from_string:76:101 */;
  let %x_64: Tensor[(42, 10), float16] /* ty=Tensor[(42, 10), float16] span=from_string:80:105 */ = nn.dense(%x_56, %x_63, units=None, out_dtype="float16") /* ty=Tensor[(42, 10), float16] span=from_string:77:101 */;
  let %x_221: Tensor[(10), float16] /* ty=Tensor[(10), float16] span=from_string:79:98 */ = cast(%x15, dtype="float16") /* ty=Tensor[(10), float16] span=from_string:78:93 */;
  let %x_65: Tensor[(10), float16] /* ty=Tensor[(10), float16] span=from_string:80:112 */ = cast(%x_221, dtype="float16") /* ty=Tensor[(10), float16] span=from_string:79:93 */;
  let %x_66: Tensor[(42, 10), float16] /* ty=Tensor[(42, 10), float16] span=from_string:83:111 */ = add(%x_64, %x_65) /* ty=Tensor[(42, 10), float16] span=from_string:80:101 */;
  let %x_231: Tensor[(1), float16] /* ty=Tensor[(1), float16] span=from_string:82:96 */ = cast(%x17, dtype="float16") /* ty=Tensor[(1), float16] span=from_string:81:91 */;
  let %x_67: Tensor[(1), float16] /* ty=Tensor[(1), float16] span=from_string:83:118 */ = cast(%x_231, dtype="float16") /* ty=Tensor[(1), float16] span=from_string:82:91 */;
  let %x_68: Tensor[(42, 10), float16] /* ty=Tensor[(42, 10), float16] span=from_string:84:115 */ = multiply(%x_66, %x_67) /* ty=Tensor[(42, 10), float16] span=from_string:83:102 */;
  let %x_69: Tensor[(1, 1, 420), float16] /* ty=Tensor[(1, 1, 420), float16] span=from_string:85:179 */ = reshape(%x_68, newshape=[1, 1, -1]) /* ty=Tensor[(1, 1, 420), float16] span=from_string:84:107 */;
  let %x_70: (Tensor[(1, 1, 420), float16], Tensor[(1, 1, 420), float16]) /* ty=(Tensor[(1, 1, 420), float16], Tensor[(1, 1, 420), float16]) span=from_string:86:725 */ = (%x_62, %x_69) /* ty=(Tensor[(1, 1, 420), float16], Tensor[(1, 1, 420), float16]) span=from_string:85:171 */;
  let %x_711: ((Tensor[(65, 10), float16], Tensor[(65, 10), float16]), (Tensor[(1, 1, 120), float16], Tensor[(1, 1, 240), float16]), (Tensor[(10, 24), float16], (Tensor[(10, 24), float16],)), Tensor[(1), float16], Tensor[(14, 65), float16], Tensor[(65, 10), float16], (Tensor[(1, 1, 420), float16], Tensor[(1, 1, 420), float16])) /* ty=((Tensor[(65, 10), float16], Tensor[(65, 10), float16]), (Tensor[(1, 1, 120), float16], Tensor[(1, 1, 240), float16]), (Tensor[(10, 24), float16], (Tensor[(10, 24), float16],)), Tensor[(1), float16], Tensor[(14, 65), float16], Tensor[(65, 10), float16], (Tensor[(1, 1, 420), float16], Tensor[(1, 1, 420), float16])) span=from_string:87:681 */ = (%x_24, %x_33, %x_42, %x_45, %x_52, %x_55, %x_70) /* ty=((Tensor[(65, 10), float16], Tensor[(65, 10), float16]), (Tensor[(1, 1, 120), float16], Tensor[(1, 1, 240), float16]), (Tensor[(10, 24), float16], (Tensor[(10, 24), float16],)), Tensor[(1), float16], Tensor[(14, 65), float16], Tensor[(65, 10), float16], (Tensor[(1, 1, 420), float16], Tensor[(1, 1, 420), float16])) span=from_string:86:682 */;
  let %x_72: ((Tensor[(65, 10), float16], Tensor[(65, 10), float16]), (Tensor[(1, 1, 120), float16], Tensor[(1, 1, 240), float16]), (Tensor[(10, 24), float16], (Tensor[(10, 24), float16],)), Tensor[(1), float16], Tensor[(14, 65), float16], Tensor[(65, 10), float16], (Tensor[(1, 1, 420), float16], Tensor[(1, 1, 420), float16])) /* ty=((Tensor[(65, 10), float16], Tensor[(65, 10), float16]), (Tensor[(1, 1, 120), float16], Tensor[(1, 1, 240), float16]), (Tensor[(10, 24), float16], (Tensor[(10, 24), float16],)), Tensor[(1), float16], Tensor[(14, 65), float16], Tensor[(65, 10), float16], (Tensor[(1, 1, 420), float16], Tensor[(1, 1, 420), float16])) span=from_string:88:681 */ = %x_711;
  let %x_73: ((Tensor[(65, 10), float16], Tensor[(65, 10), float16]), (Tensor[(1, 1, 120), float16], Tensor[(1, 1, 240), float16]), (Tensor[(10, 24), float16], (Tensor[(10, 24), float16],)), Tensor[(1), float16], Tensor[(14, 65), float16], Tensor[(65, 10), float16], (Tensor[(1, 1, 420), float16], Tensor[(1, 1, 420), float16])) /* ty=((Tensor[(65, 10), float16], Tensor[(65, 10), float16]), (Tensor[(1, 1, 120), float16], Tensor[(1, 1, 240), float16]), (Tensor[(10, 24), float16], (Tensor[(10, 24), float16],)), Tensor[(1), float16], Tensor[(14, 65), float16], Tensor[(65, 10), float16], (Tensor[(1, 1, 420), float16], Tensor[(1, 1, 420), float16])) span=from_string:89:682 */ = %x_72;
  let %x_241: ((Tensor[(65, 10), float16], Tensor[(65, 10), float16]), (Tensor[(1, 1, 120), float16], Tensor[(1, 1, 240), float16]), (Tensor[(10, 24), float16], (Tensor[(10, 24), float16],)), Tensor[(1), float16], Tensor[(14, 65), float16], Tensor[(65, 10), float16], (Tensor[(1, 1, 420), float16], Tensor[(1, 1, 420), float16])) /* ty=((Tensor[(65, 10), float16], Tensor[(65, 10), float16]), (Tensor[(1, 1, 120), float16], Tensor[(1, 1, 240), float16]), (Tensor[(10, 24), float16], (Tensor[(10, 24), float16],)), Tensor[(1), float16], Tensor[(14, 65), float16], Tensor[(65, 10), float16], (Tensor[(1, 1, 420), float16], Tensor[(1, 1, 420), float16])) span=from_string:90:682 */ = %x_73;
  let %x_251: ((Tensor[(65, 10), float16], Tensor[(65, 10), float16]), (Tensor[(1, 1, 120), float16], Tensor[(1, 1, 240), float16]), (Tensor[(10, 24), float16], (Tensor[(10, 24), float16],)), Tensor[(1), float16], Tensor[(14, 65), float16], Tensor[(65, 10), float16], (Tensor[(1, 1, 420), float16], Tensor[(1, 1, 420), float16])) /* ty=((Tensor[(65, 10), float16], Tensor[(65, 10), float16]), (Tensor[(1, 1, 120), float16], Tensor[(1, 1, 240), float16]), (Tensor[(10, 24), float16], (Tensor[(10, 24), float16],)), Tensor[(1), float16], Tensor[(14, 65), float16], Tensor[(65, 10), float16], (Tensor[(1, 1, 420), float16], Tensor[(1, 1, 420), float16])) span=from_string:91:682 */ = %x_241;
  let %x_261: ((Tensor[(65, 10), float16], Tensor[(65, 10), float16]), (Tensor[(1, 1, 120), float16], Tensor[(1, 1, 240), float16]), (Tensor[(10, 24), float16], (Tensor[(10, 24), float16],)), Tensor[(1), float16], Tensor[(14, 65), float16], Tensor[(65, 10), float16], (Tensor[(1, 1, 420), float16], Tensor[(1, 1, 420), float16])) /* ty=((Tensor[(65, 10), float16], Tensor[(65, 10), float16]), (Tensor[(1, 1, 120), float16], Tensor[(1, 1, 240), float16]), (Tensor[(10, 24), float16], (Tensor[(10, 24), float16],)), Tensor[(1), float16], Tensor[(14, 65), float16], Tensor[(65, 10), float16], (Tensor[(1, 1, 420), float16], Tensor[(1, 1, 420), float16])) span=from_string:92:682 */ = %x_251;
  let %x_271: ((Tensor[(65, 10), float16], Tensor[(65, 10), float16]), (Tensor[(1, 1, 120), float16], Tensor[(1, 1, 240), float16]), (Tensor[(10, 24), float16], (Tensor[(10, 24), float16],)), Tensor[(1), float16], Tensor[(14, 65), float16], Tensor[(65, 10), float16], (Tensor[(1, 1, 420), float16], Tensor[(1, 1, 420), float16])) /* ty=((Tensor[(65, 10), float16], Tensor[(65, 10), float16]), (Tensor[(1, 1, 120), float16], Tensor[(1, 1, 240), float16]), (Tensor[(10, 24), float16], (Tensor[(10, 24), float16],)), Tensor[(1), float16], Tensor[(14, 65), float16], Tensor[(65, 10), float16], (Tensor[(1, 1, 420), float16], Tensor[(1, 1, 420), float16])) span=from_string:93:682 */ = %x_261;
  let %x_281: ((Tensor[(65, 10), float16], Tensor[(65, 10), float16]), (Tensor[(1, 1, 120), float16], Tensor[(1, 1, 240), float16]), (Tensor[(10, 24), float16], (Tensor[(10, 24), float16],)), Tensor[(1), float16], Tensor[(14, 65), float16], Tensor[(65, 10), float16], (Tensor[(1, 1, 420), float16], Tensor[(1, 1, 420), float16])) /* ty=((Tensor[(65, 10), float16], Tensor[(65, 10), float16]), (Tensor[(1, 1, 120), float16], Tensor[(1, 1, 240), float16]), (Tensor[(10, 24), float16], (Tensor[(10, 24), float16],)), Tensor[(1), float16], Tensor[(14, 65), float16], Tensor[(65, 10), float16], (Tensor[(1, 1, 420), float16], Tensor[(1, 1, 420), float16])) span=from_string:94:682 */ = %x_271;
  let %x_291: ((Tensor[(65, 10), float16], Tensor[(65, 10), float16]), (Tensor[(1, 1, 120), float16], Tensor[(1, 1, 240), float16]), (Tensor[(10, 24), float16], (Tensor[(10, 24), float16],)), Tensor[(1), float16], Tensor[(14, 65), float16], Tensor[(65, 10), float16], (Tensor[(1, 1, 420), float16], Tensor[(1, 1, 420), float16])) /* ty=((Tensor[(65, 10), float16], Tensor[(65, 10), float16]), (Tensor[(1, 1, 120), float16], Tensor[(1, 1, 240), float16]), (Tensor[(10, 24), float16], (Tensor[(10, 24), float16],)), Tensor[(1), float16], Tensor[(14, 65), float16], Tensor[(65, 10), float16], (Tensor[(1, 1, 420), float16], Tensor[(1, 1, 420), float16])) span=from_string:95:682 */ = %x_281;
  let %x_301: ((Tensor[(65, 10), float16], Tensor[(65, 10), float16]), (Tensor[(1, 1, 120), float16], Tensor[(1, 1, 240), float16]), (Tensor[(10, 24), float16], (Tensor[(10, 24), float16],)), Tensor[(1), float16], Tensor[(14, 65), float16], Tensor[(65, 10), float16], (Tensor[(1, 1, 420), float16], Tensor[(1, 1, 420), float16])) /* ty=((Tensor[(65, 10), float16], Tensor[(65, 10), float16]), (Tensor[(1, 1, 120), float16], Tensor[(1, 1, 240), float16]), (Tensor[(10, 24), float16], (Tensor[(10, 24), float16],)), Tensor[(1), float16], Tensor[(14, 65), float16], Tensor[(65, 10), float16], (Tensor[(1, 1, 420), float16], Tensor[(1, 1, 420), float16])) span=from_string:96:682 */ = %x_291;
  let %x_312: ((Tensor[(65, 10), float16], Tensor[(65, 10), float16]), (Tensor[(1, 1, 120), float16], Tensor[(1, 1, 240), float16]), (Tensor[(10, 24), float16], (Tensor[(10, 24), float16],)), Tensor[(1), float16], Tensor[(14, 65), float16], Tensor[(65, 10), float16], (Tensor[(1, 1, 420), float16], Tensor[(1, 1, 420), float16])) /* ty=((Tensor[(65, 10), float16], Tensor[(65, 10), float16]), (Tensor[(1, 1, 120), float16], Tensor[(1, 1, 240), float16]), (Tensor[(10, 24), float16], (Tensor[(10, 24), float16],)), Tensor[(1), float16], Tensor[(14, 65), float16], Tensor[(65, 10), float16], (Tensor[(1, 1, 420), float16], Tensor[(1, 1, 420), float16])) span=from_string:97:682 */ = %x_301;
  let %x_321: ((Tensor[(65, 10), float16], Tensor[(65, 10), float16]), (Tensor[(1, 1, 120), float16], Tensor[(1, 1, 240), float16]), (Tensor[(10, 24), float16], (Tensor[(10, 24), float16],)), Tensor[(1), float16], Tensor[(14, 65), float16], Tensor[(65, 10), float16], (Tensor[(1, 1, 420), float16], Tensor[(1, 1, 420), float16])) /* ty=((Tensor[(65, 10), float16], Tensor[(65, 10), float16]), (Tensor[(1, 1, 120), float16], Tensor[(1, 1, 240), float16]), (Tensor[(10, 24), float16], (Tensor[(10, 24), float16],)), Tensor[(1), float16], Tensor[(14, 65), float16], Tensor[(65, 10), float16], (Tensor[(1, 1, 420), float16], Tensor[(1, 1, 420), float16])) span=from_string:98:682 */ = %x_312;
  let %x_331: ((Tensor[(65, 10), float16], Tensor[(65, 10), float16]), (Tensor[(1, 1, 120), float16], Tensor[(1, 1, 240), float16]), (Tensor[(10, 24), float16], (Tensor[(10, 24), float16],)), Tensor[(1), float16], Tensor[(14, 65), float16], Tensor[(65, 10), float16], (Tensor[(1, 1, 420), float16], Tensor[(1, 1, 420), float16])) /* ty=((Tensor[(65, 10), float16], Tensor[(65, 10), float16]), (Tensor[(1, 1, 120), float16], Tensor[(1, 1, 240), float16]), (Tensor[(10, 24), float16], (Tensor[(10, 24), float16],)), Tensor[(1), float16], Tensor[(14, 65), float16], Tensor[(65, 10), float16], (Tensor[(1, 1, 420), float16], Tensor[(1, 1, 420), float16])) span=from_string:99:683 */ = %x_321;
  let %x_341: ((Tensor[(65, 10), float16], Tensor[(65, 10), float16]), (Tensor[(1, 1, 120), float16], Tensor[(1, 1, 240), float16]), (Tensor[(10, 24), float16], (Tensor[(10, 24), float16],)), Tensor[(1), float16], Tensor[(14, 65), float16], Tensor[(65, 10), float16], (Tensor[(1, 1, 420), float16], Tensor[(1, 1, 420), float16])) /* ty=((Tensor[(65, 10), float16], Tensor[(65, 10), float16]), (Tensor[(1, 1, 120), float16], Tensor[(1, 1, 240), float16]), (Tensor[(10, 24), float16], (Tensor[(10, 24), float16],)), Tensor[(1), float16], Tensor[(14, 65), float16], Tensor[(65, 10), float16], (Tensor[(1, 1, 420), float16], Tensor[(1, 1, 420), float16])) span=from_string:100:683 */ = %x_331;
  let %x_351: ((Tensor[(65, 10), float16], Tensor[(65, 10), float16]), (Tensor[(1, 1, 120), float16], Tensor[(1, 1, 240), float16]), (Tensor[(10, 24), float16], (Tensor[(10, 24), float16],)), Tensor[(1), float16], Tensor[(14, 65), float16], Tensor[(65, 10), float16], (Tensor[(1, 1, 420), float16], Tensor[(1, 1, 420), float16])) /* ty=((Tensor[(65, 10), float16], Tensor[(65, 10), float16]), (Tensor[(1, 1, 120), float16], Tensor[(1, 1, 240), float16]), (Tensor[(10, 24), float16], (Tensor[(10, 24), float16],)), Tensor[(1), float16], Tensor[(14, 65), float16], Tensor[(65, 10), float16], (Tensor[(1, 1, 420), float16], Tensor[(1, 1, 420), float16])) span=from_string:101:683 */ = %x_341;
  let %x_361: ((Tensor[(65, 10), float16], Tensor[(65, 10), float16]), (Tensor[(1, 1, 120), float16], Tensor[(1, 1, 240), float16]), (Tensor[(10, 24), float16], (Tensor[(10, 24), float16],)), Tensor[(1), float16], Tensor[(14, 65), float16], Tensor[(65, 10), float16], (Tensor[(1, 1, 420), float16], Tensor[(1, 1, 420), float16])) /* ty=((Tensor[(65, 10), float16], Tensor[(65, 10), float16]), (Tensor[(1, 1, 120), float16], Tensor[(1, 1, 240), float16]), (Tensor[(10, 24), float16], (Tensor[(10, 24), float16],)), Tensor[(1), float16], Tensor[(14, 65), float16], Tensor[(65, 10), float16], (Tensor[(1, 1, 420), float16], Tensor[(1, 1, 420), float16])) span=from_string:102:683 */ = %x_351;
  let %x_371: ((Tensor[(65, 10), float16], Tensor[(65, 10), float16]), (Tensor[(1, 1, 120), float16], Tensor[(1, 1, 240), float16]), (Tensor[(10, 24), float16], (Tensor[(10, 24), float16],)), Tensor[(1), float16], Tensor[(14, 65), float16], Tensor[(65, 10), float16], (Tensor[(1, 1, 420), float16], Tensor[(1, 1, 420), float16])) /* ty=((Tensor[(65, 10), float16], Tensor[(65, 10), float16]), (Tensor[(1, 1, 120), float16], Tensor[(1, 1, 240), float16]), (Tensor[(10, 24), float16], (Tensor[(10, 24), float16],)), Tensor[(1), float16], Tensor[(14, 65), float16], Tensor[(65, 10), float16], (Tensor[(1, 1, 420), float16], Tensor[(1, 1, 420), float16])) span=from_string:103:683 */ = %x_361;
  let %x_381: ((Tensor[(65, 10), float16], Tensor[(65, 10), float16]), (Tensor[(1, 1, 120), float16], Tensor[(1, 1, 240), float16]), (Tensor[(10, 24), float16], (Tensor[(10, 24), float16],)), Tensor[(1), float16], Tensor[(14, 65), float16], Tensor[(65, 10), float16], (Tensor[(1, 1, 420), float16], Tensor[(1, 1, 420), float16])) /* ty=((Tensor[(65, 10), float16], Tensor[(65, 10), float16]), (Tensor[(1, 1, 120), float16], Tensor[(1, 1, 240), float16]), (Tensor[(10, 24), float16], (Tensor[(10, 24), float16],)), Tensor[(1), float16], Tensor[(14, 65), float16], Tensor[(65, 10), float16], (Tensor[(1, 1, 420), float16], Tensor[(1, 1, 420), float16])) span=from_string:104:683 */ = %x_371;
  let %x_391: ((Tensor[(65, 10), float16], Tensor[(65, 10), float16]), (Tensor[(1, 1, 120), float16], Tensor[(1, 1, 240), float16]), (Tensor[(10, 24), float16], (Tensor[(10, 24), float16],)), Tensor[(1), float16], Tensor[(14, 65), float16], Tensor[(65, 10), float16], (Tensor[(1, 1, 420), float16], Tensor[(1, 1, 420), float16])) /* ty=((Tensor[(65, 10), float16], Tensor[(65, 10), float16]), (Tensor[(1, 1, 120), float16], Tensor[(1, 1, 240), float16]), (Tensor[(10, 24), float16], (Tensor[(10, 24), float16],)), Tensor[(1), float16], Tensor[(14, 65), float16], Tensor[(65, 10), float16], (Tensor[(1, 1, 420), float16], Tensor[(1, 1, 420), float16])) span=from_string:105:683 */ = %x_381;
  let %x_401: ((Tensor[(65, 10), float16], Tensor[(65, 10), float16]), (Tensor[(1, 1, 120), float16], Tensor[(1, 1, 240), float16]), (Tensor[(10, 24), float16], (Tensor[(10, 24), float16],)), Tensor[(1), float16], Tensor[(14, 65), float16], Tensor[(65, 10), float16], (Tensor[(1, 1, 420), float16], Tensor[(1, 1, 420), float16])) /* ty=((Tensor[(65, 10), float16], Tensor[(65, 10), float16]), (Tensor[(1, 1, 120), float16], Tensor[(1, 1, 240), float16]), (Tensor[(10, 24), float16], (Tensor[(10, 24), float16],)), Tensor[(1), float16], Tensor[(14, 65), float16], Tensor[(65, 10), float16], (Tensor[(1, 1, 420), float16], Tensor[(1, 1, 420), float16])) span=from_string:106:683 */ = %x_391;
  let %x_412: ((Tensor[(65, 10), float16], Tensor[(65, 10), float16]), (Tensor[(1, 1, 120), float16], Tensor[(1, 1, 240), float16]), (Tensor[(10, 24), float16], (Tensor[(10, 24), float16],)), Tensor[(1), float16], Tensor[(14, 65), float16], Tensor[(65, 10), float16], (Tensor[(1, 1, 420), float16], Tensor[(1, 1, 420), float16])) /* ty=((Tensor[(65, 10), float16], Tensor[(65, 10), float16]), (Tensor[(1, 1, 120), float16], Tensor[(1, 1, 240), float16]), (Tensor[(10, 24), float16], (Tensor[(10, 24), float16],)), Tensor[(1), float16], Tensor[(14, 65), float16], Tensor[(65, 10), float16], (Tensor[(1, 1, 420), float16], Tensor[(1, 1, 420), float16])) span=from_string:107:683 */ = %x_401;
  let %x_421: ((Tensor[(65, 10), float16], Tensor[(65, 10), float16]), (Tensor[(1, 1, 120), float16], Tensor[(1, 1, 240), float16]), (Tensor[(10, 24), float16], (Tensor[(10, 24), float16],)), Tensor[(1), float16], Tensor[(14, 65), float16], Tensor[(65, 10), float16], (Tensor[(1, 1, 420), float16], Tensor[(1, 1, 420), float16])) /* ty=((Tensor[(65, 10), float16], Tensor[(65, 10), float16]), (Tensor[(1, 1, 120), float16], Tensor[(1, 1, 240), float16]), (Tensor[(10, 24), float16], (Tensor[(10, 24), float16],)), Tensor[(1), float16], Tensor[(14, 65), float16], Tensor[(65, 10), float16], (Tensor[(1, 1, 420), float16], Tensor[(1, 1, 420), float16])) span=from_string:108:683 */ = %x_412;
  let %x_431: ((Tensor[(65, 10), float16], Tensor[(65, 10), float16]), (Tensor[(1, 1, 120), float16], Tensor[(1, 1, 240), float16]), (Tensor[(10, 24), float16], (Tensor[(10, 24), float16],)), Tensor[(1), float16], Tensor[(14, 65), float16], Tensor[(65, 10), float16], (Tensor[(1, 1, 420), float16], Tensor[(1, 1, 420), float16])) /* ty=((Tensor[(65, 10), float16], Tensor[(65, 10), float16]), (Tensor[(1, 1, 120), float16], Tensor[(1, 1, 240), float16]), (Tensor[(10, 24), float16], (Tensor[(10, 24), float16],)), Tensor[(1), float16], Tensor[(14, 65), float16], Tensor[(65, 10), float16], (Tensor[(1, 1, 420), float16], Tensor[(1, 1, 420), float16])) span=from_string:109:683 */ = %x_421;
  let %x_441: ((Tensor[(65, 10), float16], Tensor[(65, 10), float16]), (Tensor[(1, 1, 120), float16], Tensor[(1, 1, 240), float16]), (Tensor[(10, 24), float16], (Tensor[(10, 24), float16],)), Tensor[(1), float16], Tensor[(14, 65), float16], Tensor[(65, 10), float16], (Tensor[(1, 1, 420), float16], Tensor[(1, 1, 420), float16])) /* ty=((Tensor[(65, 10), float16], Tensor[(65, 10), float16]), (Tensor[(1, 1, 120), float16], Tensor[(1, 1, 240), float16]), (Tensor[(10, 24), float16], (Tensor[(10, 24), float16],)), Tensor[(1), float16], Tensor[(14, 65), float16], Tensor[(65, 10), float16], (Tensor[(1, 1, 420), float16], Tensor[(1, 1, 420), float16])) span=from_string:110:683 */ = %x_431;
  let %x_451: ((Tensor[(65, 10), float16], Tensor[(65, 10), float16]), (Tensor[(1, 1, 120), float16], Tensor[(1, 1, 240), float16]), (Tensor[(10, 24), float16], (Tensor[(10, 24), float16],)), Tensor[(1), float16], Tensor[(14, 65), float16], Tensor[(65, 10), float16], (Tensor[(1, 1, 420), float16], Tensor[(1, 1, 420), float16])) /* ty=((Tensor[(65, 10), float16], Tensor[(65, 10), float16]), (Tensor[(1, 1, 120), float16], Tensor[(1, 1, 240), float16]), (Tensor[(10, 24), float16], (Tensor[(10, 24), float16],)), Tensor[(1), float16], Tensor[(14, 65), float16], Tensor[(65, 10), float16], (Tensor[(1, 1, 420), float16], Tensor[(1, 1, 420), float16])) span=from_string:111:683 */ = %x_441;
  let %x_461: ((Tensor[(65, 10), float16], Tensor[(65, 10), float16]), (Tensor[(1, 1, 120), float16], Tensor[(1, 1, 240), float16]), (Tensor[(10, 24), float16], (Tensor[(10, 24), float16],)), Tensor[(1), float16], Tensor[(14, 65), float16], Tensor[(65, 10), float16], (Tensor[(1, 1, 420), float16], Tensor[(1, 1, 420), float16])) /* ty=((Tensor[(65, 10), float16], Tensor[(65, 10), float16]), (Tensor[(1, 1, 120), float16], Tensor[(1, 1, 240), float16]), (Tensor[(10, 24), float16], (Tensor[(10, 24), float16],)), Tensor[(1), float16], Tensor[(14, 65), float16], Tensor[(65, 10), float16], (Tensor[(1, 1, 420), float16], Tensor[(1, 1, 420), float16])) span=from_string:112:683 */ = %x_451;
  let %x_471: ((Tensor[(65, 10), float16], Tensor[(65, 10), float16]), (Tensor[(1, 1, 120), float16], Tensor[(1, 1, 240), float16]), (Tensor[(10, 24), float16], (Tensor[(10, 24), float16],)), Tensor[(1), float16], Tensor[(14, 65), float16], Tensor[(65, 10), float16], (Tensor[(1, 1, 420), float16], Tensor[(1, 1, 420), float16])) /* ty=((Tensor[(65, 10), float16], Tensor[(65, 10), float16]), (Tensor[(1, 1, 120), float16], Tensor[(1, 1, 240), float16]), (Tensor[(10, 24), float16], (Tensor[(10, 24), float16],)), Tensor[(1), float16], Tensor[(14, 65), float16], Tensor[(65, 10), float16], (Tensor[(1, 1, 420), float16], Tensor[(1, 1, 420), float16])) span=from_string:113:683 */ = %x_461;
  let %x_481: ((Tensor[(65, 10), float16], Tensor[(65, 10), float16]), (Tensor[(1, 1, 120), float16], Tensor[(1, 1, 240), float16]), (Tensor[(10, 24), float16], (Tensor[(10, 24), float16],)), Tensor[(1), float16], Tensor[(14, 65), float16], Tensor[(65, 10), float16], (Tensor[(1, 1, 420), float16], Tensor[(1, 1, 420), float16])) /* ty=((Tensor[(65, 10), float16], Tensor[(65, 10), float16]), (Tensor[(1, 1, 120), float16], Tensor[(1, 1, 240), float16]), (Tensor[(10, 24), float16], (Tensor[(10, 24), float16],)), Tensor[(1), float16], Tensor[(14, 65), float16], Tensor[(65, 10), float16], (Tensor[(1, 1, 420), float16], Tensor[(1, 1, 420), float16])) span=from_string:114:683 */ = %x_471;
  let %x_491: ((Tensor[(65, 10), float16], Tensor[(65, 10), float16]), (Tensor[(1, 1, 120), float16], Tensor[(1, 1, 240), float16]), (Tensor[(10, 24), float16], (Tensor[(10, 24), float16],)), Tensor[(1), float16], Tensor[(14, 65), float16], Tensor[(65, 10), float16], (Tensor[(1, 1, 420), float16], Tensor[(1, 1, 420), float16])) /* ty=((Tensor[(65, 10), float16], Tensor[(65, 10), float16]), (Tensor[(1, 1, 120), float16], Tensor[(1, 1, 240), float16]), (Tensor[(10, 24), float16], (Tensor[(10, 24), float16],)), Tensor[(1), float16], Tensor[(14, 65), float16], Tensor[(65, 10), float16], (Tensor[(1, 1, 420), float16], Tensor[(1, 1, 420), float16])) span=from_string:115:683 */ = %x_481;
  let %x_501: ((Tensor[(65, 10), float16], Tensor[(65, 10), float16]), (Tensor[(1, 1, 120), float16], Tensor[(1, 1, 240), float16]), (Tensor[(10, 24), float16], (Tensor[(10, 24), float16],)), Tensor[(1), float16], Tensor[(14, 65), float16], Tensor[(65, 10), float16], (Tensor[(1, 1, 420), float16], Tensor[(1, 1, 420), float16])) /* ty=((Tensor[(65, 10), float16], Tensor[(65, 10), float16]), (Tensor[(1, 1, 120), float16], Tensor[(1, 1, 240), float16]), (Tensor[(10, 24), float16], (Tensor[(10, 24), float16],)), Tensor[(1), float16], Tensor[(14, 65), float16], Tensor[(65, 10), float16], (Tensor[(1, 1, 420), float16], Tensor[(1, 1, 420), float16])) span=from_string:116:683 */ = %x_491;
  let %x_512: ((Tensor[(65, 10), float16], Tensor[(65, 10), float16]), (Tensor[(1, 1, 120), float16], Tensor[(1, 1, 240), float16]), (Tensor[(10, 24), float16], (Tensor[(10, 24), float16],)), Tensor[(1), float16], Tensor[(14, 65), float16], Tensor[(65, 10), float16], (Tensor[(1, 1, 420), float16], Tensor[(1, 1, 420), float16])) /* ty=((Tensor[(65, 10), float16], Tensor[(65, 10), float16]), (Tensor[(1, 1, 120), float16], Tensor[(1, 1, 240), float16]), (Tensor[(10, 24), float16], (Tensor[(10, 24), float16],)), Tensor[(1), float16], Tensor[(14, 65), float16], Tensor[(65, 10), float16], (Tensor[(1, 1, 420), float16], Tensor[(1, 1, 420), float16])) span=from_string:117:683 */ = %x_501;
  let %x_521: ((Tensor[(65, 10), float16], Tensor[(65, 10), float16]), (Tensor[(1, 1, 120), float16], Tensor[(1, 1, 240), float16]), (Tensor[(10, 24), float16], (Tensor[(10, 24), float16],)), Tensor[(1), float16], Tensor[(14, 65), float16], Tensor[(65, 10), float16], (Tensor[(1, 1, 420), float16], Tensor[(1, 1, 420), float16])) /* ty=((Tensor[(65, 10), float16], Tensor[(65, 10), float16]), (Tensor[(1, 1, 120), float16], Tensor[(1, 1, 240), float16]), (Tensor[(10, 24), float16], (Tensor[(10, 24), float16],)), Tensor[(1), float16], Tensor[(14, 65), float16], Tensor[(65, 10), float16], (Tensor[(1, 1, 420), float16], Tensor[(1, 1, 420), float16])) span=from_string:118:683 */ = %x_512;
  let %x_531: ((Tensor[(65, 10), float16], Tensor[(65, 10), float16]), (Tensor[(1, 1, 120), float16], Tensor[(1, 1, 240), float16]), (Tensor[(10, 24), float16], (Tensor[(10, 24), float16],)), Tensor[(1), float16], Tensor[(14, 65), float16], Tensor[(65, 10), float16], (Tensor[(1, 1, 420), float16], Tensor[(1, 1, 420), float16])) /* ty=((Tensor[(65, 10), float16], Tensor[(65, 10), float16]), (Tensor[(1, 1, 120), float16], Tensor[(1, 1, 240), float16]), (Tensor[(10, 24), float16], (Tensor[(10, 24), float16],)), Tensor[(1), float16], Tensor[(14, 65), float16], Tensor[(65, 10), float16], (Tensor[(1, 1, 420), float16], Tensor[(1, 1, 420), float16])) span=from_string:119:683 */ = %x_521;
  let %x_541: ((Tensor[(65, 10), float16], Tensor[(65, 10), float16]), (Tensor[(1, 1, 120), float16], Tensor[(1, 1, 240), float16]), (Tensor[(10, 24), float16], (Tensor[(10, 24), float16],)), Tensor[(1), float16], Tensor[(14, 65), float16], Tensor[(65, 10), float16], (Tensor[(1, 1, 420), float16], Tensor[(1, 1, 420), float16])) /* ty=((Tensor[(65, 10), float16], Tensor[(65, 10), float16]), (Tensor[(1, 1, 120), float16], Tensor[(1, 1, 240), float16]), (Tensor[(10, 24), float16], (Tensor[(10, 24), float16],)), Tensor[(1), float16], Tensor[(14, 65), float16], Tensor[(65, 10), float16], (Tensor[(1, 1, 420), float16], Tensor[(1, 1, 420), float16])) span=from_string:120:683 */ = %x_531;
  let %x_551: ((Tensor[(65, 10), float16], Tensor[(65, 10), float16]), (Tensor[(1, 1, 120), float16], Tensor[(1, 1, 240), float16]), (Tensor[(10, 24), float16], (Tensor[(10, 24), float16],)), Tensor[(1), float16], Tensor[(14, 65), float16], Tensor[(65, 10), float16], (Tensor[(1, 1, 420), float16], Tensor[(1, 1, 420), float16])) /* ty=((Tensor[(65, 10), float16], Tensor[(65, 10), float16]), (Tensor[(1, 1, 120), float16], Tensor[(1, 1, 240), float16]), (Tensor[(10, 24), float16], (Tensor[(10, 24), float16],)), Tensor[(1), float16], Tensor[(14, 65), float16], Tensor[(65, 10), float16], (Tensor[(1, 1, 420), float16], Tensor[(1, 1, 420), float16])) span=from_string:121:683 */ = %x_541;
  let %x_561: ((Tensor[(65, 10), float16], Tensor[(65, 10), float16]), (Tensor[(1, 1, 120), float16], Tensor[(1, 1, 240), float16]), (Tensor[(10, 24), float16], (Tensor[(10, 24), float16],)), Tensor[(1), float16], Tensor[(14, 65), float16], Tensor[(65, 10), float16], (Tensor[(1, 1, 420), float16], Tensor[(1, 1, 420), float16])) /* ty=((Tensor[(65, 10), float16], Tensor[(65, 10), float16]), (Tensor[(1, 1, 120), float16], Tensor[(1, 1, 240), float16]), (Tensor[(10, 24), float16], (Tensor[(10, 24), float16],)), Tensor[(1), float16], Tensor[(14, 65), float16], Tensor[(65, 10), float16], (Tensor[(1, 1, 420), float16], Tensor[(1, 1, 420), float16])) span=from_string:122:683 */ = %x_551;
  let %x_571: ((Tensor[(65, 10), float16], Tensor[(65, 10), float16]), (Tensor[(1, 1, 120), float16], Tensor[(1, 1, 240), float16]), (Tensor[(10, 24), float16], (Tensor[(10, 24), float16],)), Tensor[(1), float16], Tensor[(14, 65), float16], Tensor[(65, 10), float16], (Tensor[(1, 1, 420), float16], Tensor[(1, 1, 420), float16])) /* ty=((Tensor[(65, 10), float16], Tensor[(65, 10), float16]), (Tensor[(1, 1, 120), float16], Tensor[(1, 1, 240), float16]), (Tensor[(10, 24), float16], (Tensor[(10, 24), float16],)), Tensor[(1), float16], Tensor[(14, 65), float16], Tensor[(65, 10), float16], (Tensor[(1, 1, 420), float16], Tensor[(1, 1, 420), float16])) span=from_string:123:683 */ = %x_561;
  let %x_581: ((Tensor[(65, 10), float16], Tensor[(65, 10), float16]), (Tensor[(1, 1, 120), float16], Tensor[(1, 1, 240), float16]), (Tensor[(10, 24), float16], (Tensor[(10, 24), float16],)), Tensor[(1), float16], Tensor[(14, 65), float16], Tensor[(65, 10), float16], (Tensor[(1, 1, 420), float16], Tensor[(1, 1, 420), float16])) /* ty=((Tensor[(65, 10), float16], Tensor[(65, 10), float16]), (Tensor[(1, 1, 120), float16], Tensor[(1, 1, 240), float16]), (Tensor[(10, 24), float16], (Tensor[(10, 24), float16],)), Tensor[(1), float16], Tensor[(14, 65), float16], Tensor[(65, 10), float16], (Tensor[(1, 1, 420), float16], Tensor[(1, 1, 420), float16])) span=from_string:124:683 */ = %x_571;
  let %x_591: ((Tensor[(65, 10), float16], Tensor[(65, 10), float16]), (Tensor[(1, 1, 120), float16], Tensor[(1, 1, 240), float16]), (Tensor[(10, 24), float16], (Tensor[(10, 24), float16],)), Tensor[(1), float16], Tensor[(14, 65), float16], Tensor[(65, 10), float16], (Tensor[(1, 1, 420), float16], Tensor[(1, 1, 420), float16])) /* ty=((Tensor[(65, 10), float16], Tensor[(65, 10), float16]), (Tensor[(1, 1, 120), float16], Tensor[(1, 1, 240), float16]), (Tensor[(10, 24), float16], (Tensor[(10, 24), float16],)), Tensor[(1), float16], Tensor[(14, 65), float16], Tensor[(65, 10), float16], (Tensor[(1, 1, 420), float16], Tensor[(1, 1, 420), float16])) span=from_string:125:683 */ = %x_581;
  let %x_601: ((Tensor[(65, 10), float16], Tensor[(65, 10), float16]), (Tensor[(1, 1, 120), float16], Tensor[(1, 1, 240), float16]), (Tensor[(10, 24), float16], (Tensor[(10, 24), float16],)), Tensor[(1), float16], Tensor[(14, 65), float16], Tensor[(65, 10), float16], (Tensor[(1, 1, 420), float16], Tensor[(1, 1, 420), float16])) /* ty=((Tensor[(65, 10), float16], Tensor[(65, 10), float16]), (Tensor[(1, 1, 120), float16], Tensor[(1, 1, 240), float16]), (Tensor[(10, 24), float16], (Tensor[(10, 24), float16],)), Tensor[(1), float16], Tensor[(14, 65), float16], Tensor[(65, 10), float16], (Tensor[(1, 1, 420), float16], Tensor[(1, 1, 420), float16])) span=from_string:126:683 */ = %x_591;
  let %x_612: ((Tensor[(65, 10), float16], Tensor[(65, 10), float16]), (Tensor[(1, 1, 120), float16], Tensor[(1, 1, 240), float16]), (Tensor[(10, 24), float16], (Tensor[(10, 24), float16],)), Tensor[(1), float16], Tensor[(14, 65), float16], Tensor[(65, 10), float16], (Tensor[(1, 1, 420), float16], Tensor[(1, 1, 420), float16])) /* ty=((Tensor[(65, 10), float16], Tensor[(65, 10), float16]), (Tensor[(1, 1, 120), float16], Tensor[(1, 1, 240), float16]), (Tensor[(10, 24), float16], (Tensor[(10, 24), float16],)), Tensor[(1), float16], Tensor[(14, 65), float16], Tensor[(65, 10), float16], (Tensor[(1, 1, 420), float16], Tensor[(1, 1, 420), float16])) span=from_string:127:683 */ = %x_601;
  let %x_621: ((Tensor[(65, 10), float16], Tensor[(65, 10), float16]), (Tensor[(1, 1, 120), float16], Tensor[(1, 1, 240), float16]), (Tensor[(10, 24), float16], (Tensor[(10, 24), float16],)), Tensor[(1), float16], Tensor[(14, 65), float16], Tensor[(65, 10), float16], (Tensor[(1, 1, 420), float16], Tensor[(1, 1, 420), float16])) /* ty=((Tensor[(65, 10), float16], Tensor[(65, 10), float16]), (Tensor[(1, 1, 120), float16], Tensor[(1, 1, 240), float16]), (Tensor[(10, 24), float16], (Tensor[(10, 24), float16],)), Tensor[(1), float16], Tensor[(14, 65), float16], Tensor[(65, 10), float16], (Tensor[(1, 1, 420), float16], Tensor[(1, 1, 420), float16])) span=from_string:128:683 */ = %x_612;
  let %x_631: ((Tensor[(65, 10), float16], Tensor[(65, 10), float16]), (Tensor[(1, 1, 120), float16], Tensor[(1, 1, 240), float16]), (Tensor[(10, 24), float16], (Tensor[(10, 24), float16],)), Tensor[(1), float16], Tensor[(14, 65), float16], Tensor[(65, 10), float16], (Tensor[(1, 1, 420), float16], Tensor[(1, 1, 420), float16])) /* ty=((Tensor[(65, 10), float16], Tensor[(65, 10), float16]), (Tensor[(1, 1, 120), float16], Tensor[(1, 1, 240), float16]), (Tensor[(10, 24), float16], (Tensor[(10, 24), float16],)), Tensor[(1), float16], Tensor[(14, 65), float16], Tensor[(65, 10), float16], (Tensor[(1, 1, 420), float16], Tensor[(1, 1, 420), float16])) span=from_string:129:683 */ = %x_621;
  let %x_641: ((Tensor[(65, 10), float16], Tensor[(65, 10), float16]), (Tensor[(1, 1, 120), float16], Tensor[(1, 1, 240), float16]), (Tensor[(10, 24), float16], (Tensor[(10, 24), float16],)), Tensor[(1), float16], Tensor[(14, 65), float16], Tensor[(65, 10), float16], (Tensor[(1, 1, 420), float16], Tensor[(1, 1, 420), float16])) /* ty=((Tensor[(65, 10), float16], Tensor[(65, 10), float16]), (Tensor[(1, 1, 120), float16], Tensor[(1, 1, 240), float16]), (Tensor[(10, 24), float16], (Tensor[(10, 24), float16],)), Tensor[(1), float16], Tensor[(14, 65), float16], Tensor[(65, 10), float16], (Tensor[(1, 1, 420), float16], Tensor[(1, 1, 420), float16])) span=from_string:130:683 */ = %x_631;
  let %x_651: ((Tensor[(65, 10), float16], Tensor[(65, 10), float16]), (Tensor[(1, 1, 120), float16], Tensor[(1, 1, 240), float16]), (Tensor[(10, 24), float16], (Tensor[(10, 24), float16],)), Tensor[(1), float16], Tensor[(14, 65), float16], Tensor[(65, 10), float16], (Tensor[(1, 1, 420), float16], Tensor[(1, 1, 420), float16])) /* ty=((Tensor[(65, 10), float16], Tensor[(65, 10), float16]), (Tensor[(1, 1, 120), float16], Tensor[(1, 1, 240), float16]), (Tensor[(10, 24), float16], (Tensor[(10, 24), float16],)), Tensor[(1), float16], Tensor[(14, 65), float16], Tensor[(65, 10), float16], (Tensor[(1, 1, 420), float16], Tensor[(1, 1, 420), float16])) span=from_string:131:683 */ = %x_641;
  let %x_661: ((Tensor[(65, 10), float16], Tensor[(65, 10), float16]), (Tensor[(1, 1, 120), float16], Tensor[(1, 1, 240), float16]), (Tensor[(10, 24), float16], (Tensor[(10, 24), float16],)), Tensor[(1), float16], Tensor[(14, 65), float16], Tensor[(65, 10), float16], (Tensor[(1, 1, 420), float16], Tensor[(1, 1, 420), float16])) /* ty=((Tensor[(65, 10), float16], Tensor[(65, 10), float16]), (Tensor[(1, 1, 120), float16], Tensor[(1, 1, 240), float16]), (Tensor[(10, 24), float16], (Tensor[(10, 24), float16],)), Tensor[(1), float16], Tensor[(14, 65), float16], Tensor[(65, 10), float16], (Tensor[(1, 1, 420), float16], Tensor[(1, 1, 420), float16])) span=from_string:132:683 */ = %x_651;
  let %x_671: ((Tensor[(65, 10), float16], Tensor[(65, 10), float16]), (Tensor[(1, 1, 120), float16], Tensor[(1, 1, 240), float16]), (Tensor[(10, 24), float16], (Tensor[(10, 24), float16],)), Tensor[(1), float16], Tensor[(14, 65), float16], Tensor[(65, 10), float16], (Tensor[(1, 1, 420), float16], Tensor[(1, 1, 420), float16])) /* ty=((Tensor[(65, 10), float16], Tensor[(65, 10), float16]), (Tensor[(1, 1, 120), float16], Tensor[(1, 1, 240), float16]), (Tensor[(10, 24), float16], (Tensor[(10, 24), float16],)), Tensor[(1), float16], Tensor[(14, 65), float16], Tensor[(65, 10), float16], (Tensor[(1, 1, 420), float16], Tensor[(1, 1, 420), float16])) span=from_string:133:683 */ = %x_661;
  let %x_681: ((Tensor[(65, 10), float16], Tensor[(65, 10), float16]), (Tensor[(1, 1, 120), float16], Tensor[(1, 1, 240), float16]), (Tensor[(10, 24), float16], (Tensor[(10, 24), float16],)), Tensor[(1), float16], Tensor[(14, 65), float16], Tensor[(65, 10), float16], (Tensor[(1, 1, 420), float16], Tensor[(1, 1, 420), float16])) /* ty=((Tensor[(65, 10), float16], Tensor[(65, 10), float16]), (Tensor[(1, 1, 120), float16], Tensor[(1, 1, 240), float16]), (Tensor[(10, 24), float16], (Tensor[(10, 24), float16],)), Tensor[(1), float16], Tensor[(14, 65), float16], Tensor[(65, 10), float16], (Tensor[(1, 1, 420), float16], Tensor[(1, 1, 420), float16])) span=from_string:134:683 */ = %x_671;
  let %x_691: ((Tensor[(65, 10), float16], Tensor[(65, 10), float16]), (Tensor[(1, 1, 120), float16], Tensor[(1, 1, 240), float16]), (Tensor[(10, 24), float16], (Tensor[(10, 24), float16],)), Tensor[(1), float16], Tensor[(14, 65), float16], Tensor[(65, 10), float16], (Tensor[(1, 1, 420), float16], Tensor[(1, 1, 420), float16])) /* ty=((Tensor[(65, 10), float16], Tensor[(65, 10), float16]), (Tensor[(1, 1, 120), float16], Tensor[(1, 1, 240), float16]), (Tensor[(10, 24), float16], (Tensor[(10, 24), float16],)), Tensor[(1), float16], Tensor[(14, 65), float16], Tensor[(65, 10), float16], (Tensor[(1, 1, 420), float16], Tensor[(1, 1, 420), float16])) span=from_string:135:683 */ = %x_681;
  let %x_701: ((Tensor[(65, 10), float16], Tensor[(65, 10), float16]), (Tensor[(1, 1, 120), float16], Tensor[(1, 1, 240), float16]), (Tensor[(10, 24), float16], (Tensor[(10, 24), float16],)), Tensor[(1), float16], Tensor[(14, 65), float16], Tensor[(65, 10), float16], (Tensor[(1, 1, 420), float16], Tensor[(1, 1, 420), float16])) /* ty=((Tensor[(65, 10), float16], Tensor[(65, 10), float16]), (Tensor[(1, 1, 120), float16], Tensor[(1, 1, 240), float16]), (Tensor[(10, 24), float16], (Tensor[(10, 24), float16],)), Tensor[(1), float16], Tensor[(14, 65), float16], Tensor[(65, 10), float16], (Tensor[(1, 1, 420), float16], Tensor[(1, 1, 420), float16])) span=from_string:136:683 */ = %x_691;
  let %x_712: ((Tensor[(65, 10), float16], Tensor[(65, 10), float16]), (Tensor[(1, 1, 120), float16], Tensor[(1, 1, 240), float16]), (Tensor[(10, 24), float16], (Tensor[(10, 24), float16],)), Tensor[(1), float16], Tensor[(14, 65), float16], Tensor[(65, 10), float16], (Tensor[(1, 1, 420), float16], Tensor[(1, 1, 420), float16])) /* ty=((Tensor[(65, 10), float16], Tensor[(65, 10), float16]), (Tensor[(1, 1, 120), float16], Tensor[(1, 1, 240), float16]), (Tensor[(10, 24), float16], (Tensor[(10, 24), float16],)), Tensor[(1), float16], Tensor[(14, 65), float16], Tensor[(65, 10), float16], (Tensor[(1, 1, 420), float16], Tensor[(1, 1, 420), float16])) span=from_string:137:683 */ = %x_701;
  let %x_721: ((Tensor[(65, 10), float16], Tensor[(65, 10), float16]), (Tensor[(1, 1, 120), float16], Tensor[(1, 1, 240), float16]), (Tensor[(10, 24), float16], (Tensor[(10, 24), float16],)), Tensor[(1), float16], Tensor[(14, 65), float16], Tensor[(65, 10), float16], (Tensor[(1, 1, 420), float16], Tensor[(1, 1, 420), float16])) /* ty=((Tensor[(65, 10), float16], Tensor[(65, 10), float16]), (Tensor[(1, 1, 120), float16], Tensor[(1, 1, 240), float16]), (Tensor[(10, 24), float16], (Tensor[(10, 24), float16],)), Tensor[(1), float16], Tensor[(14, 65), float16], Tensor[(65, 10), float16], (Tensor[(1, 1, 420), float16], Tensor[(1, 1, 420), float16])) span=from_string:138:683 */ = %x_712;
  let %x_731: ((Tensor[(65, 10), float16], Tensor[(65, 10), float16]), (Tensor[(1, 1, 120), float16], Tensor[(1, 1, 240), float16]), (Tensor[(10, 24), float16], (Tensor[(10, 24), float16],)), Tensor[(1), float16], Tensor[(14, 65), float16], Tensor[(65, 10), float16], (Tensor[(1, 1, 420), float16], Tensor[(1, 1, 420), float16])) /* ty=((Tensor[(65, 10), float16], Tensor[(65, 10), float16]), (Tensor[(1, 1, 120), float16], Tensor[(1, 1, 240), float16]), (Tensor[(10, 24), float16], (Tensor[(10, 24), float16],)), Tensor[(1), float16], Tensor[(14, 65), float16], Tensor[(65, 10), float16], (Tensor[(1, 1, 420), float16], Tensor[(1, 1, 420), float16])) span=from_string:139:682 */ = %x_721;
  let %x_74: ((Tensor[(65, 10), float16], Tensor[(65, 10), float16]), (Tensor[(1, 1, 120), float16], Tensor[(1, 1, 240), float16]), (Tensor[(10, 24), float16], (Tensor[(10, 24), float16],)), Tensor[(1), float16], Tensor[(14, 65), float16], Tensor[(65, 10), float16], (Tensor[(1, 1, 420), float16], Tensor[(1, 1, 420), float16])) /* ty=((Tensor[(65, 10), float16], Tensor[(65, 10), float16]), (Tensor[(1, 1, 120), float16], Tensor[(1, 1, 240), float16]), (Tensor[(10, 24), float16], (Tensor[(10, 24), float16],)), Tensor[(1), float16], Tensor[(14, 65), float16], Tensor[(65, 10), float16], (Tensor[(1, 1, 420), float16], Tensor[(1, 1, 420), float16])) span=from_string:140:682 */ = %x_731;
  let %x_75: ((Tensor[(65, 10), float16], Tensor[(65, 10), float16]), (Tensor[(1, 1, 120), float16], Tensor[(1, 1, 240), float16]), (Tensor[(10, 24), float16], (Tensor[(10, 24), float16],)), Tensor[(1), float16], Tensor[(14, 65), float16], Tensor[(65, 10), float16], (Tensor[(1, 1, 420), float16], Tensor[(1, 1, 420), float16])) /* ty=((Tensor[(65, 10), float16], Tensor[(65, 10), float16]), (Tensor[(1, 1, 120), float16], Tensor[(1, 1, 240), float16]), (Tensor[(10, 24), float16], (Tensor[(10, 24), float16],)), Tensor[(1), float16], Tensor[(14, 65), float16], Tensor[(65, 10), float16], (Tensor[(1, 1, 420), float16], Tensor[(1, 1, 420), float16])) span=from_string:141:682 */ = %x_74;
  let %x_76: ((Tensor[(65, 10), float16], Tensor[(65, 10), float16]), (Tensor[(1, 1, 120), float16], Tensor[(1, 1, 240), float16]), (Tensor[(10, 24), float16], (Tensor[(10, 24), float16],)), Tensor[(1), float16], Tensor[(14, 65), float16], Tensor[(65, 10), float16], (Tensor[(1, 1, 420), float16], Tensor[(1, 1, 420), float16])) /* ty=((Tensor[(65, 10), float16], Tensor[(65, 10), float16]), (Tensor[(1, 1, 120), float16], Tensor[(1, 1, 240), float16]), (Tensor[(10, 24), float16], (Tensor[(10, 24), float16],)), Tensor[(1), float16], Tensor[(14, 65), float16], Tensor[(65, 10), float16], (Tensor[(1, 1, 420), float16], Tensor[(1, 1, 420), float16])) span=from_string:142:682 */ = %x_75;
  let %x_77: ((Tensor[(65, 10), float16], Tensor[(65, 10), float16]), (Tensor[(1, 1, 120), float16], Tensor[(1, 1, 240), float16]), (Tensor[(10, 24), float16], (Tensor[(10, 24), float16],)), Tensor[(1), float16], Tensor[(14, 65), float16], Tensor[(65, 10), float16], (Tensor[(1, 1, 420), float16], Tensor[(1, 1, 420), float16])) /* ty=((Tensor[(65, 10), float16], Tensor[(65, 10), float16]), (Tensor[(1, 1, 120), float16], Tensor[(1, 1, 240), float16]), (Tensor[(10, 24), float16], (Tensor[(10, 24), float16],)), Tensor[(1), float16], Tensor[(14, 65), float16], Tensor[(65, 10), float16], (Tensor[(1, 1, 420), float16], Tensor[(1, 1, 420), float16])) span=from_string:143:682 */ = %x_76;
  let %x_78: ((Tensor[(65, 10), float16], Tensor[(65, 10), float16]), (Tensor[(1, 1, 120), float16], Tensor[(1, 1, 240), float16]), (Tensor[(10, 24), float16], (Tensor[(10, 24), float16],)), Tensor[(1), float16], Tensor[(14, 65), float16], Tensor[(65, 10), float16], (Tensor[(1, 1, 420), float16], Tensor[(1, 1, 420), float16])) /* ty=((Tensor[(65, 10), float16], Tensor[(65, 10), float16]), (Tensor[(1, 1, 120), float16], Tensor[(1, 1, 240), float16]), (Tensor[(10, 24), float16], (Tensor[(10, 24), float16],)), Tensor[(1), float16], Tensor[(14, 65), float16], Tensor[(65, 10), float16], (Tensor[(1, 1, 420), float16], Tensor[(1, 1, 420), float16])) span=from_string:144:682 */ = %x_77;
  let %x_79: ((Tensor[(65, 10), float16], Tensor[(65, 10), float16]), (Tensor[(1, 1, 120), float16], Tensor[(1, 1, 240), float16]), (Tensor[(10, 24), float16], (Tensor[(10, 24), float16],)), Tensor[(1), float16], Tensor[(14, 65), float16], Tensor[(65, 10), float16], (Tensor[(1, 1, 420), float16], Tensor[(1, 1, 420), float16])) /* ty=((Tensor[(65, 10), float16], Tensor[(65, 10), float16]), (Tensor[(1, 1, 120), float16], Tensor[(1, 1, 240), float16]), (Tensor[(10, 24), float16], (Tensor[(10, 24), float16],)), Tensor[(1), float16], Tensor[(14, 65), float16], Tensor[(65, 10), float16], (Tensor[(1, 1, 420), float16], Tensor[(1, 1, 420), float16])) span=from_string:145:682 */ = %x_78;
  let %x_80: ((Tensor[(65, 10), float16], Tensor[(65, 10), float16]), (Tensor[(1, 1, 120), float16], Tensor[(1, 1, 240), float16]), (Tensor[(10, 24), float16], (Tensor[(10, 24), float16],)), Tensor[(1), float16], Tensor[(14, 65), float16], Tensor[(65, 10), float16], (Tensor[(1, 1, 420), float16], Tensor[(1, 1, 420), float16])) /* ty=((Tensor[(65, 10), float16], Tensor[(65, 10), float16]), (Tensor[(1, 1, 120), float16], Tensor[(1, 1, 240), float16]), (Tensor[(10, 24), float16], (Tensor[(10, 24), float16],)), Tensor[(1), float16], Tensor[(14, 65), float16], Tensor[(65, 10), float16], (Tensor[(1, 1, 420), float16], Tensor[(1, 1, 420), float16])) span=from_string:146:683 */ = %x_79;
  let %x_811: ((Tensor[(65, 10), float16], Tensor[(65, 10), float16]), (Tensor[(1, 1, 120), float16], Tensor[(1, 1, 240), float16]), (Tensor[(10, 24), float16], (Tensor[(10, 24), float16],)), Tensor[(1), float16], Tensor[(14, 65), float16], Tensor[(65, 10), float16], (Tensor[(1, 1, 420), float16], Tensor[(1, 1, 420), float16])) /* ty=((Tensor[(65, 10), float16], Tensor[(65, 10), float16]), (Tensor[(1, 1, 120), float16], Tensor[(1, 1, 240), float16]), (Tensor[(10, 24), float16], (Tensor[(10, 24), float16],)), Tensor[(1), float16], Tensor[(14, 65), float16], Tensor[(65, 10), float16], (Tensor[(1, 1, 420), float16], Tensor[(1, 1, 420), float16])) span=from_string:147:682 */ = %x_80;
  let %x_82: ((Tensor[(65, 10), float16], Tensor[(65, 10), float16]), (Tensor[(1, 1, 120), float16], Tensor[(1, 1, 240), float16]), (Tensor[(10, 24), float16], (Tensor[(10, 24), float16],)), Tensor[(1), float16], Tensor[(14, 65), float16], Tensor[(65, 10), float16], (Tensor[(1, 1, 420), float16], Tensor[(1, 1, 420), float16])) /* ty=((Tensor[(65, 10), float16], Tensor[(65, 10), float16]), (Tensor[(1, 1, 120), float16], Tensor[(1, 1, 240), float16]), (Tensor[(10, 24), float16], (Tensor[(10, 24), float16],)), Tensor[(1), float16], Tensor[(14, 65), float16], Tensor[(65, 10), float16], (Tensor[(1, 1, 420), float16], Tensor[(1, 1, 420), float16])) span=from_string:148:682 */ = %x_811;
  let %x_83: ((Tensor[(65, 10), float16], Tensor[(65, 10), float16]), (Tensor[(1, 1, 120), float16], Tensor[(1, 1, 240), float16]), (Tensor[(10, 24), float16], (Tensor[(10, 24), float16],)), Tensor[(1), float16], Tensor[(14, 65), float16], Tensor[(65, 10), float16], (Tensor[(1, 1, 420), float16], Tensor[(1, 1, 420), float16])) /* ty=((Tensor[(65, 10), float16], Tensor[(65, 10), float16]), (Tensor[(1, 1, 120), float16], Tensor[(1, 1, 240), float16]), (Tensor[(10, 24), float16], (Tensor[(10, 24), float16],)), Tensor[(1), float16], Tensor[(14, 65), float16], Tensor[(65, 10), float16], (Tensor[(1, 1, 420), float16], Tensor[(1, 1, 420), float16])) span=from_string:149:682 */ = %x_82;
  let %x_84: ((Tensor[(65, 10), float16], Tensor[(65, 10), float16]), (Tensor[(1, 1, 120), float16], Tensor[(1, 1, 240), float16]), (Tensor[(10, 24), float16], (Tensor[(10, 24), float16],)), Tensor[(1), float16], Tensor[(14, 65), float16], Tensor[(65, 10), float16], (Tensor[(1, 1, 420), float16], Tensor[(1, 1, 420), float16])) /* ty=((Tensor[(65, 10), float16], Tensor[(65, 10), float16]), (Tensor[(1, 1, 120), float16], Tensor[(1, 1, 240), float16]), (Tensor[(10, 24), float16], (Tensor[(10, 24), float16],)), Tensor[(1), float16], Tensor[(14, 65), float16], Tensor[(65, 10), float16], (Tensor[(1, 1, 420), float16], Tensor[(1, 1, 420), float16])) span=from_string:150:682 */ = %x_83;
  let %x_85: ((Tensor[(65, 10), float16], Tensor[(65, 10), float16]), (Tensor[(1, 1, 120), float16], Tensor[(1, 1, 240), float16]), (Tensor[(10, 24), float16], (Tensor[(10, 24), float16],)), Tensor[(1), float16], Tensor[(14, 65), float16], Tensor[(65, 10), float16], (Tensor[(1, 1, 420), float16], Tensor[(1, 1, 420), float16])) /* ty=((Tensor[(65, 10), float16], Tensor[(65, 10), float16]), (Tensor[(1, 1, 120), float16], Tensor[(1, 1, 240), float16]), (Tensor[(10, 24), float16], (Tensor[(10, 24), float16],)), Tensor[(1), float16], Tensor[(14, 65), float16], Tensor[(65, 10), float16], (Tensor[(1, 1, 420), float16], Tensor[(1, 1, 420), float16])) span=from_string:151:682 */ = %x_84;
  let %x_86: ((Tensor[(65, 10), float16], Tensor[(65, 10), float16]), (Tensor[(1, 1, 120), float16], Tensor[(1, 1, 240), float16]), (Tensor[(10, 24), float16], (Tensor[(10, 24), float16],)), Tensor[(1), float16], Tensor[(14, 65), float16], Tensor[(65, 10), float16], (Tensor[(1, 1, 420), float16], Tensor[(1, 1, 420), float16])) /* ty=((Tensor[(65, 10), float16], Tensor[(65, 10), float16]), (Tensor[(1, 1, 120), float16], Tensor[(1, 1, 240), float16]), (Tensor[(10, 24), float16], (Tensor[(10, 24), float16],)), Tensor[(1), float16], Tensor[(14, 65), float16], Tensor[(65, 10), float16], (Tensor[(1, 1, 420), float16], Tensor[(1, 1, 420), float16])) span=from_string:152:682 */ = %x_85;
  let %x_87: ((Tensor[(65, 10), float16], Tensor[(65, 10), float16]), (Tensor[(1, 1, 120), float16], Tensor[(1, 1, 240), float16]), (Tensor[(10, 24), float16], (Tensor[(10, 24), float16],)), Tensor[(1), float16], Tensor[(14, 65), float16], Tensor[(65, 10), float16], (Tensor[(1, 1, 420), float16], Tensor[(1, 1, 420), float16])) /* ty=((Tensor[(65, 10), float16], Tensor[(65, 10), float16]), (Tensor[(1, 1, 120), float16], Tensor[(1, 1, 240), float16]), (Tensor[(10, 24), float16], (Tensor[(10, 24), float16],)), Tensor[(1), float16], Tensor[(14, 65), float16], Tensor[(65, 10), float16], (Tensor[(1, 1, 420), float16], Tensor[(1, 1, 420), float16])) span=from_string:153:682 */ = %x_86;
  let %x_88: ((Tensor[(65, 10), float16], Tensor[(65, 10), float16]), (Tensor[(1, 1, 120), float16], Tensor[(1, 1, 240), float16]), (Tensor[(10, 24), float16], (Tensor[(10, 24), float16],)), Tensor[(1), float16], Tensor[(14, 65), float16], Tensor[(65, 10), float16], (Tensor[(1, 1, 420), float16], Tensor[(1, 1, 420), float16])) /* ty=((Tensor[(65, 10), float16], Tensor[(65, 10), float16]), (Tensor[(1, 1, 120), float16], Tensor[(1, 1, 240), float16]), (Tensor[(10, 24), float16], (Tensor[(10, 24), float16],)), Tensor[(1), float16], Tensor[(14, 65), float16], Tensor[(65, 10), float16], (Tensor[(1, 1, 420), float16], Tensor[(1, 1, 420), float16])) span=from_string:154:682 */ = %x_87;
  let %x_89: ((Tensor[(65, 10), float16], Tensor[(65, 10), float16]), (Tensor[(1, 1, 120), float16], Tensor[(1, 1, 240), float16]), (Tensor[(10, 24), float16], (Tensor[(10, 24), float16],)), Tensor[(1), float16], Tensor[(14, 65), float16], Tensor[(65, 10), float16], (Tensor[(1, 1, 420), float16], Tensor[(1, 1, 420), float16])) /* ty=((Tensor[(65, 10), float16], Tensor[(65, 10), float16]), (Tensor[(1, 1, 120), float16], Tensor[(1, 1, 240), float16]), (Tensor[(10, 24), float16], (Tensor[(10, 24), float16],)), Tensor[(1), float16], Tensor[(14, 65), float16], Tensor[(65, 10), float16], (Tensor[(1, 1, 420), float16], Tensor[(1, 1, 420), float16])) span=from_string:155:682 */ = %x_88;
  let %x_90: ((Tensor[(65, 10), float16], Tensor[(65, 10), float16]), (Tensor[(1, 1, 120), float16], Tensor[(1, 1, 240), float16]), (Tensor[(10, 24), float16], (Tensor[(10, 24), float16],)), Tensor[(1), float16], Tensor[(14, 65), float16], Tensor[(65, 10), float16], (Tensor[(1, 1, 420), float16], Tensor[(1, 1, 420), float16])) /* ty=((Tensor[(65, 10), float16], Tensor[(65, 10), float16]), (Tensor[(1, 1, 120), float16], Tensor[(1, 1, 240), float16]), (Tensor[(10, 24), float16], (Tensor[(10, 24), float16],)), Tensor[(1), float16], Tensor[(14, 65), float16], Tensor[(65, 10), float16], (Tensor[(1, 1, 420), float16], Tensor[(1, 1, 420), float16])) span=from_string:156:683 */ = %x_89;
  let %x_911: ((Tensor[(65, 10), float16], Tensor[(65, 10), float16]), (Tensor[(1, 1, 120), float16], Tensor[(1, 1, 240), float16]), (Tensor[(10, 24), float16], (Tensor[(10, 24), float16],)), Tensor[(1), float16], Tensor[(14, 65), float16], Tensor[(65, 10), float16], (Tensor[(1, 1, 420), float16], Tensor[(1, 1, 420), float16])) /* ty=((Tensor[(65, 10), float16], Tensor[(65, 10), float16]), (Tensor[(1, 1, 120), float16], Tensor[(1, 1, 240), float16]), (Tensor[(10, 24), float16], (Tensor[(10, 24), float16],)), Tensor[(1), float16], Tensor[(14, 65), float16], Tensor[(65, 10), float16], (Tensor[(1, 1, 420), float16], Tensor[(1, 1, 420), float16])) span=from_string:157:682 */ = %x_90;
  let %x_92: ((Tensor[(65, 10), float16], Tensor[(65, 10), float16]), (Tensor[(1, 1, 120), float16], Tensor[(1, 1, 240), float16]), (Tensor[(10, 24), float16], (Tensor[(10, 24), float16],)), Tensor[(1), float16], Tensor[(14, 65), float16], Tensor[(65, 10), float16], (Tensor[(1, 1, 420), float16], Tensor[(1, 1, 420), float16])) /* ty=((Tensor[(65, 10), float16], Tensor[(65, 10), float16]), (Tensor[(1, 1, 120), float16], Tensor[(1, 1, 240), float16]), (Tensor[(10, 24), float16], (Tensor[(10, 24), float16],)), Tensor[(1), float16], Tensor[(14, 65), float16], Tensor[(65, 10), float16], (Tensor[(1, 1, 420), float16], Tensor[(1, 1, 420), float16])) span=from_string:158:682 */ = %x_911;
  let %x_93: ((Tensor[(65, 10), float16], Tensor[(65, 10), float16]), (Tensor[(1, 1, 120), float16], Tensor[(1, 1, 240), float16]), (Tensor[(10, 24), float16], (Tensor[(10, 24), float16],)), Tensor[(1), float16], Tensor[(14, 65), float16], Tensor[(65, 10), float16], (Tensor[(1, 1, 420), float16], Tensor[(1, 1, 420), float16])) /* ty=((Tensor[(65, 10), float16], Tensor[(65, 10), float16]), (Tensor[(1, 1, 120), float16], Tensor[(1, 1, 240), float16]), (Tensor[(10, 24), float16], (Tensor[(10, 24), float16],)), Tensor[(1), float16], Tensor[(14, 65), float16], Tensor[(65, 10), float16], (Tensor[(1, 1, 420), float16], Tensor[(1, 1, 420), float16])) span=from_string:159:682 */ = %x_92;
  let %x_94: ((Tensor[(65, 10), float16], Tensor[(65, 10), float16]), (Tensor[(1, 1, 120), float16], Tensor[(1, 1, 240), float16]), (Tensor[(10, 24), float16], (Tensor[(10, 24), float16],)), Tensor[(1), float16], Tensor[(14, 65), float16], Tensor[(65, 10), float16], (Tensor[(1, 1, 420), float16], Tensor[(1, 1, 420), float16])) /* ty=((Tensor[(65, 10), float16], Tensor[(65, 10), float16]), (Tensor[(1, 1, 120), float16], Tensor[(1, 1, 240), float16]), (Tensor[(10, 24), float16], (Tensor[(10, 24), float16],)), Tensor[(1), float16], Tensor[(14, 65), float16], Tensor[(65, 10), float16], (Tensor[(1, 1, 420), float16], Tensor[(1, 1, 420), float16])) span=from_string:160:682 */ = %x_93;
  let %x_95: ((Tensor[(65, 10), float16], Tensor[(65, 10), float16]), (Tensor[(1, 1, 120), float16], Tensor[(1, 1, 240), float16]), (Tensor[(10, 24), float16], (Tensor[(10, 24), float16],)), Tensor[(1), float16], Tensor[(14, 65), float16], Tensor[(65, 10), float16], (Tensor[(1, 1, 420), float16], Tensor[(1, 1, 420), float16])) /* ty=((Tensor[(65, 10), float16], Tensor[(65, 10), float16]), (Tensor[(1, 1, 120), float16], Tensor[(1, 1, 240), float16]), (Tensor[(10, 24), float16], (Tensor[(10, 24), float16],)), Tensor[(1), float16], Tensor[(14, 65), float16], Tensor[(65, 10), float16], (Tensor[(1, 1, 420), float16], Tensor[(1, 1, 420), float16])) span=from_string:161:682 */ = %x_94;
  let %x_96: ((Tensor[(65, 10), float16], Tensor[(65, 10), float16]), (Tensor[(1, 1, 120), float16], Tensor[(1, 1, 240), float16]), (Tensor[(10, 24), float16], (Tensor[(10, 24), float16],)), Tensor[(1), float16], Tensor[(14, 65), float16], Tensor[(65, 10), float16], (Tensor[(1, 1, 420), float16], Tensor[(1, 1, 420), float16])) /* ty=((Tensor[(65, 10), float16], Tensor[(65, 10), float16]), (Tensor[(1, 1, 120), float16], Tensor[(1, 1, 240), float16]), (Tensor[(10, 24), float16], (Tensor[(10, 24), float16],)), Tensor[(1), float16], Tensor[(14, 65), float16], Tensor[(65, 10), float16], (Tensor[(1, 1, 420), float16], Tensor[(1, 1, 420), float16])) span=from_string:162:682 */ = %x_95;
  let %x_97: ((Tensor[(65, 10), float16], Tensor[(65, 10), float16]), (Tensor[(1, 1, 120), float16], Tensor[(1, 1, 240), float16]), (Tensor[(10, 24), float16], (Tensor[(10, 24), float16],)), Tensor[(1), float16], Tensor[(14, 65), float16], Tensor[(65, 10), float16], (Tensor[(1, 1, 420), float16], Tensor[(1, 1, 420), float16])) /* ty=((Tensor[(65, 10), float16], Tensor[(65, 10), float16]), (Tensor[(1, 1, 120), float16], Tensor[(1, 1, 240), float16]), (Tensor[(10, 24), float16], (Tensor[(10, 24), float16],)), Tensor[(1), float16], Tensor[(14, 65), float16], Tensor[(65, 10), float16], (Tensor[(1, 1, 420), float16], Tensor[(1, 1, 420), float16])) span=from_string:163:682 */ = %x_96;
  let %x_98: ((Tensor[(65, 10), float16], Tensor[(65, 10), float16]), (Tensor[(1, 1, 120), float16], Tensor[(1, 1, 240), float16]), (Tensor[(10, 24), float16], (Tensor[(10, 24), float16],)), Tensor[(1), float16], Tensor[(14, 65), float16], Tensor[(65, 10), float16], (Tensor[(1, 1, 420), float16], Tensor[(1, 1, 420), float16])) /* ty=((Tensor[(65, 10), float16], Tensor[(65, 10), float16]), (Tensor[(1, 1, 120), float16], Tensor[(1, 1, 240), float16]), (Tensor[(10, 24), float16], (Tensor[(10, 24), float16],)), Tensor[(1), float16], Tensor[(14, 65), float16], Tensor[(65, 10), float16], (Tensor[(1, 1, 420), float16], Tensor[(1, 1, 420), float16])) span=from_string:164:680 */ = %x_97;
  let %x_99: ((Tensor[(65, 10), float16], Tensor[(65, 10), float16]), (Tensor[(1, 1, 120), float16], Tensor[(1, 1, 240), float16]), (Tensor[(10, 24), float16], (Tensor[(10, 24), float16],)), Tensor[(1), float16], Tensor[(14, 65), float16], Tensor[(65, 10), float16], (Tensor[(1, 1, 420), float16], Tensor[(1, 1, 420), float16])) /* ty=((Tensor[(65, 10), float16], Tensor[(65, 10), float16]), (Tensor[(1, 1, 120), float16], Tensor[(1, 1, 240), float16]), (Tensor[(10, 24), float16], (Tensor[(10, 24), float16],)), Tensor[(1), float16], Tensor[(14, 65), float16], Tensor[(65, 10), float16], (Tensor[(1, 1, 420), float16], Tensor[(1, 1, 420), float16])) span=from_string:165:3 */ = %x_98;
  %x_99
}

#[metadata]
{
  "root": 1, 
  "nodes": [
    {
      "type_key": ""
    }, 
    {
      "type_key": "Map", 
      "keys": [
        "relay.attrs.InitOpAttrs", 
        "relay.Constant"
      ], 
      "data": [2, 9]
    }, 
    {
      "type_key": "Array", 
      "data": [3, 7]
    }, 
    {
      "type_key": "relay.attrs.InitOpAttrs", 
      "attrs": {
        "dtype": "float16", 
        "shape": "4"
      }
    }, 
    {
      "type_key": "Array", 
      "data": [5, 6]
    }, 
    {
      "type_key": "IntImm", 
      "attrs": {
        "dtype": "int32", 
        "span": "0", 
        "value": "10"
      }
    }, 
    {
      "type_key": "IntImm", 
      "attrs": {
        "dtype": "int32", 
        "span": "0", 
        "value": "24"
      }
    }, 
    {
      "type_key": "relay.attrs.InitOpAttrs", 
      "attrs": {
        "dtype": "float16", 
        "shape": "8"
      }
    }, 
    {
      "type_key": "Array", 
      "data": [5, 6]
    }, 
    {
      "type_key": "Array", 
      "data": [10, 18]
    }, 
    {
      "type_key": "relay.Constant", 
      "attrs": {
        "_checked_type_": "15", 
        "data": "0", 
        "span": "13", 
        "virtual_device_": "11"
      }
    }, 
    {
      "type_key": "VirtualDevice", 
      "attrs": {
        "device_type_int": "-1", 
        "memory_scope": "12", 
        "target": "0", 
        "virtual_device_id": "-1"
      }
    }, 
    {
      "type_key": "runtime.String"
    }, 
    {
      "type_key": "Span", 
      "attrs": {
        "column": "129", 
        "end_column": "147", 
        "end_line": "47", 
        "line": "47", 
        "source_name": "14"
      }
    }, 
    {
      "type_key": "SourceName", 
      "repr_str": "from_string"
    }, 
    {
      "type_key": "relay.TensorType", 
      "attrs": {
        "dtype": "int32", 
        "shape": "16", 
        "span": "0"
      }
    }, 
    {
      "type_key": "Array", 
      "data": [17]
    }, 
    {
      "type_key": "IntImm", 
      "attrs": {
        "dtype": "int32", 
        "span": "0", 
        "value": "2"
      }
    }, 
    {
      "type_key": "relay.Constant", 
      "attrs": {
        "_checked_type_": "20", 
        "data": "1", 
        "span": "19", 
        "virtual_device_": "11"
      }
    }, 
    {
      "type_key": "Span", 
      "attrs": {
        "column": "129", 
        "end_column": "147", 
        "end_line": "49", 
        "line": "49", 
        "source_name": "14"
      }
    }, 
    {
      "type_key": "relay.TensorType", 
      "attrs": {
        "dtype": "int32", 
        "shape": "21", 
        "span": "0"
      }
    }, 
    {
      "type_key": "Array", 
      "data": [22]
    }, 
    {
      "type_key": "IntImm", 
      "attrs": {
        "dtype": "int32", 
        "span": "0", 
        "value": "2"
      }
    }
  ], 
  "b64ndarrays": [
    "P6G0lvBAXt0AAAAAAAAAAAEAAAAAAAAAAQAAAAAgAQACAAAAAAAAAAgAAAAAAAAACgAAABgAAAA=", 
    "P6G0lvBAXt0AAAAAAAAAAAEAAAAAAAAAAQAAAAAgAQACAAAAAAAAAAgAAAAAAAAACgAAABgAAAA="
  ], 
  "attrs": {"tvm_version": "0.13.0"}
}