#[version = "0.0.5"]
def @main(%x0: Tensor[(10, 10), float32] /* ty=Tensor[(10, 10), float32] span=from_string:14:22 */, %x1: Tensor[(65, 10), float32] /* ty=Tensor[(65, 10), float32] span=from_string:16:18 */, %x2: Tensor[(10, 10), float32] /* ty=Tensor[(10, 10), float32] span=from_string:16:23 */, %x3: Tensor[(10), float32] /* ty=Tensor[(10), float32] span=from_string:15:21 */, %x4: Tensor[(10), float32] /* ty=Tensor[(10), float32] span=from_string:17:21 */, %x5: Tensor[(12, 10), float32] /* ty=Tensor[(12, 10), float32] span=from_string:20:22 */, %x6: Tensor[(12), float32] /* ty=Tensor[(12), float32] span=from_string:21:21 */, %x7: Tensor[(1), float32] /* ty=Tensor[(1), float32] span=from_string:23:24 */, %x8: Tensor[(24, 10), float32] /* ty=Tensor[(24, 10), float32] span=from_string:8:21 */, %x9: Tensor[(24), float32] /* ty=Tensor[(24), float32] span=from_string:9:20 */, %x10: Tensor[(1), float32] /* ty=Tensor[(1), float32] span=from_string:49:13 */, %x11: Tensor[(14, 30), float32] /* ty=Tensor[(14, 30), float32] span=from_string:32:15 */, %x12: Tensor[(42, 24), float32] /* ty=Tensor[(42, 24), float32] span=from_string:40:18 */, %x13: Tensor[(10, 24), float32] /* ty=Tensor[(10, 24), float32] span=from_string:40:24 */, %x14: Tensor[(10), float32] /* ty=Tensor[(10), float32] span=from_string:37:21 */, %x15: Tensor[(10), float32] /* ty=Tensor[(10), float32] span=from_string:41:21 */, %x16: Tensor[(1), float32] /* ty=Tensor[(1), float32] span=from_string:39:24 */, %x17: Tensor[(1), float32] /* ty=Tensor[(1), float32] span=from_string:43:24 */) -> ((Tensor[(65, 10), float32], Tensor[(65, 10), float32]), (Tensor[(1, 1, 120), float32], Tensor[(1, 1, 240), float32]), (Tensor[(10, 24), float32], (Tensor[(10, 24), float32],)), Tensor[(1), float32], Tensor[(14, 65), float32], Tensor[(65, 10), bfloat16], (Tensor[(1, 1, 420), float32], Tensor[(1, 1, 420), float32])) {
  %0 = nn.relu(%x0) /* ty=Tensor[(10, 10), float32] span=from_string:5:12 */;
  %1 = add(%0, 1f /* ty=float32 span=from_string:5:18 */) /* ty=Tensor[(10, 10), float32] span=from_string:7:12 */;
  %2 = add(%1, %1) /* ty=Tensor[(10, 10), float32] span=from_string:20:18 */;
  %3 = nn.dense(%2, %x8, units=None) /* ty=Tensor[(10, 24), float32] span=from_string:10:12 */;
  %4 = expand_dims(%x9, axis=0) /* ty=Tensor[(1, 24), float32] span=from_string:10:16 */;
  %5 = add(%3, %4) /* ty=Tensor[(10, 24), float32] span=from_string:11:18 */;
  %6 = multiply(%5, %x10) /* ty=Tensor[(10, 24), float32] span=from_string:27:25 */;
  let %x18: Tensor[(10, 24), float32] /* ty=Tensor[(10, 24), float32] span=from_string:48:10 */ = multiply(%6, %6) /* ty=Tensor[(10, 24), float32] span=from_string:12:100 */;
  let %x19: Tensor[(10, 24), float32] /* ty=Tensor[(10, 24), float32] span=from_string:27:19 */ = ones(shape=[10, 24], dtype="float32") /* ty=Tensor[(10, 24), float32] span=from_string:13:99 */;
  %7 = nn.dense(%x1, %x0, units=None) /* ty=Tensor[(65, 10), float32] span=from_string:18:13 */;
  %8 = expand_dims(%x3, axis=0) /* ty=Tensor[(1, 10), float32] span=from_string:18:17 */;
  %9 = nn.dense(%x1, %x2, units=None) /* ty=Tensor[(65, 10), float32] span=from_string:34:13 */;
  %10 = expand_dims(%x4, axis=0) /* ty=Tensor[(1, 10), float32] span=from_string:19:18 */;
  %11 = add(%7, %8) /* ty=Tensor[(65, 10), float32] span=from_string:46:10 */;
  %12 = add(%9, %10) /* ty=Tensor[(65, 10), float32] span=from_string:46:15 */;
  %13 = nn.dense(%2, %x5, units=None) /* ty=Tensor[(10, 12), float32] span=from_string:22:13 */;
  %14 = expand_dims(%x6, axis=0) /* ty=Tensor[(1, 12), float32] span=from_string:22:18 */;
  %15 = add(%13, %14) /* ty=Tensor[(10, 12), float32] span=from_string:23:19 */;
  %16 = multiply(%15, %x7) /* ty=Tensor[(10, 12), float32] span=from_string:24:17 */;
  %17 = reshape(%16, newshape=[1, 1, 120]) /* ty=Tensor[(1, 1, 120), float32] span=from_string:47:10 */;
  %18 = reshape(%6, newshape=[1, 1, 240]) /* ty=Tensor[(1, 1, 240), float32] span=from_string:47:15 */;
  %19 = multiply(%x19, %6) /* ty=Tensor[(10, 24), float32] span=from_string:36:24 */;
  %20 = collapse_sum_to(%19, meta[relay.Constant][0] /* ty=Tensor[(2), int32] span=from_string:28:35 */, meta[relay.attrs.InitOpAttrs][0]) /* ty=Tensor[(10, 24), float32] span=from_string:30:13 */;
  %21 = collapse_sum_to(%19, meta[relay.Constant][1] /* ty=Tensor[(2), int32] span=from_string:29:35 */, meta[relay.attrs.InitOpAttrs][1]) /* ty=Tensor[(10, 24), float32] span=from_string:30:18 */;
  %22 = add(%20, %21) /* ty=Tensor[(10, 24), float32] span=from_string:31:10 */;
  %23 = (%22,) /* ty=(Tensor[(10, 24), float32],) span=from_string:48:16 */;
  %24 = split(%x11, indices_or_sections=3, axis=1) /* ty=(Tensor[(14, 10), float32], Tensor[(14, 10), float32], Tensor[(14, 10), float32]) span=from_string:33:9 */;
  %25 = %24.0 /* ty=Tensor[(14, 10), float32] span=from_string:50:18 */;
  %26 = add(%9, 1f /* ty=float32 span=from_string:34:20 */) /* ty=Tensor[(65, 10), float32] span=from_string:50:23 */;
  %27 = cast(%26, dtype="bfloat16") /* ty=Tensor[(65, 10), bfloat16] span=from_string:51:14 */;
  %28 = nn.dense(%x12, %19, units=None) /* ty=Tensor[(42, 10), float32] span=from_string:38:13 */;
  %29 = expand_dims(%x14, axis=0) /* ty=Tensor[(1, 10), float32] span=from_string:38:18 */;
  %30 = add(%28, %29) /* ty=Tensor[(42, 10), float32] span=from_string:39:19 */;
  %31 = multiply(%30, %x16) /* ty=Tensor[(42, 10), float32] span=from_string:44:17 */;
  %32 = nn.dense(%x12, %x13, units=None) /* ty=Tensor[(42, 10), float32] span=from_string:42:13 */;
  %33 = expand_dims(%x15, axis=0) /* ty=Tensor[(1, 10), float32] span=from_string:42:18 */;
  %34 = add(%32, %33) /* ty=Tensor[(42, 10), float32] span=from_string:43:19 */;
  %35 = multiply(%34, %x17) /* ty=Tensor[(42, 10), float32] span=from_string:45:17 */;
  %36 = reshape(%31, newshape=[1, 1, -1]) /* ty=Tensor[(1, 1, 420), float32] span=from_string:52:10 */;
  %37 = reshape(%35, newshape=[1, 1, -1]) /* ty=Tensor[(1, 1, 420), float32] span=from_string:52:15 */;
  %38 = (%11, %12) /* ty=(Tensor[(65, 10), float32], Tensor[(65, 10), float32]) span=from_string:53:4 */;
  %39 = (%17, %18) /* ty=(Tensor[(1, 1, 120), float32], Tensor[(1, 1, 240), float32]) span=from_string:53:9 */;
  %40 = (%x18, %23) /* ty=(Tensor[(10, 24), float32], (Tensor[(10, 24), float32],)) span=from_string:53:14 */;
  %41 = add(%x10, 1f /* ty=float32 span=from_string:49:21 */) /* ty=Tensor[(1), float32] span=from_string:53:19 */;
  %42 = nn.dense(%25, %26, units=None) /* ty=Tensor[(14, 65), float32] span=from_string:53:24 */;
  %43 = clip(%27, a_min=-0.2f, a_max=0.4f) /* ty=Tensor[(65, 10), bfloat16] span=from_string:53:29 */;
  %44 = (%36, %37) /* ty=(Tensor[(1, 1, 420), float32], Tensor[(1, 1, 420), float32]) span=from_string:53:34 */;
  (%38, %39, %40, %41, %42, %43, %44) /* ty=((Tensor[(65, 10), float32], Tensor[(65, 10), float32]), (Tensor[(1, 1, 120), float32], Tensor[(1, 1, 240), float32]), (Tensor[(10, 24), float32], (Tensor[(10, 24), float32],)), Tensor[(1), float32], Tensor[(14, 65), float32], Tensor[(65, 10), bfloat16], (Tensor[(1, 1, 420), float32], Tensor[(1, 1, 420), float32])) span=from_string:53:3 */
}

#[metadata]
{
  "root": 1, 
  "nodes": [
    {
      "type_key": ""
    }, 
    {
      "type_key": "Map", 
      "keys": [
        "relay.attrs.InitOpAttrs", 
        "relay.Constant"
      ], 
      "data": [2, 9]
    }, 
    {
      "type_key": "Array", 
      "data": [3, 7]
    }, 
    {
      "type_key": "relay.attrs.InitOpAttrs", 
      "attrs": {
        "dtype": "", 
        "shape": "4"
      }
    }, 
    {
      "type_key": "Array", 
      "data": [5, 6]
    }, 
    {
      "type_key": "IntImm", 
      "attrs": {
        "dtype": "int32", 
        "span": "0", 
        "value": "10"
      }
    }, 
    {
      "type_key": "IntImm", 
      "attrs": {
        "dtype": "int32", 
        "span": "0", 
        "value": "24"
      }
    }, 
    {
      "type_key": "relay.attrs.InitOpAttrs", 
      "attrs": {
        "dtype": "", 
        "shape": "8"
      }
    }, 
    {
      "type_key": "Array", 
      "data": [5, 6]
    }, 
    {
      "type_key": "Array", 
      "data": [10, 18]
    }, 
    {
      "type_key": "relay.Constant", 
      "attrs": {
        "_checked_type_": "15", 
        "data": "0", 
        "span": "13", 
        "virtual_device_": "11"
      }
    }, 
    {
      "type_key": "VirtualDevice", 
      "attrs": {
        "device_type_int": "-1", 
        "memory_scope": "12", 
        "target": "0", 
        "virtual_device_id": "-1"
      }
    }, 
    {
      "type_key": "runtime.String"
    }, 
    {
      "type_key": "Span", 
      "attrs": {
        "column": "35", 
        "end_column": "53", 
        "end_line": "28", 
        "line": "28", 
        "source_name": "14"
      }
    }, 
    {
      "type_key": "SourceName", 
      "repr_str": "from_string"
    }, 
    {
      "type_key": "relay.TensorType", 
      "attrs": {
        "dtype": "int32", 
        "shape": "16", 
        "span": "0"
      }
    }, 
    {
      "type_key": "Array", 
      "data": [17]
    }, 
    {
      "type_key": "IntImm", 
      "attrs": {
        "dtype": "int32", 
        "span": "0", 
        "value": "2"
      }
    }, 
    {
      "type_key": "relay.Constant", 
      "attrs": {
        "_checked_type_": "20", 
        "data": "1", 
        "span": "19", 
        "virtual_device_": "11"
      }
    }, 
    {
      "type_key": "Span", 
      "attrs": {
        "column": "35", 
        "end_column": "53", 
        "end_line": "29", 
        "line": "29", 
        "source_name": "14"
      }
    }, 
    {
      "type_key": "relay.TensorType", 
      "attrs": {
        "dtype": "int32", 
        "shape": "21", 
        "span": "0"
      }
    }, 
    {
      "type_key": "Array", 
      "data": [22]
    }, 
    {
      "type_key": "IntImm", 
      "attrs": {
        "dtype": "int32", 
        "span": "0", 
        "value": "2"
      }
    }
  ], 
  "b64ndarrays": [
    "P6G0lvBAXt0AAAAAAAAAAAEAAAAAAAAAAQAAAAAgAQACAAAAAAAAAAgAAAAAAAAACgAAABgAAAA=", 
    "P6G0lvBAXt0AAAAAAAAAAAEAAAAAAAAAAQAAAAAgAQACAAAAAAAAAAgAAAAAAAAACgAAABgAAAA="
  ], 
  "attrs": {"tvm_version": "0.13.0"}
}