#[version = "0.0.5"]
def @main(%x0: Tensor[(10, 10), float32] /* ty=Tensor[(10, 10), float32] span=from_string:4:12 */, %x1: Tensor[(65, 10), float32] /* ty=Tensor[(65, 10), float32] span=from_string:18:18 */, %x2: Tensor[(10, 10), float32] /* ty=Tensor[(10, 10), float32] span=from_string:18:23 */, %x3: Tensor[(10), float32] /* ty=Tensor[(10), float32] span=from_string:17:21 */, %x4: Tensor[(10), float32] /* ty=Tensor[(10), float32] span=from_string:19:21 */, %x5: Tensor[(12, 10), float32] /* ty=Tensor[(12, 10), float32] span=from_string:22:22 */, %x6: Tensor[(12), float32] /* ty=Tensor[(12), float32] span=from_string:23:21 */, %x7: Tensor[(1), float32] /* ty=Tensor[(1), float32] span=from_string:25:24 */, %x8: Tensor[(24, 10), float32] /* ty=Tensor[(24, 10), float32] span=from_string:10:21 */, %x9: Tensor[(24), float32] /* ty=Tensor[(24), float32] span=from_string:11:20 */, %x10: Tensor[(1), float32] /* ty=Tensor[(1), float32] span=from_string:55:13 */, %x11: Tensor[(14, 30), float32] /* ty=Tensor[(14, 30), float32] span=from_string:37:15 */, %x12: Tensor[(42, 24), float32] /* ty=Tensor[(42, 24), float32] span=from_string:46:18 */, %x13: Tensor[(10, 24), float32] /* ty=Tensor[(10, 24), float32] span=from_string:46:24 */, %x14: Tensor[(10), float32] /* ty=Tensor[(10), float32] span=from_string:43:21 */, %x15: Tensor[(10), float32] /* ty=Tensor[(10), float32] span=from_string:47:21 */, %x16: Tensor[(1), float32] /* ty=Tensor[(1), float32] span=from_string:45:24 */, %x17: Tensor[(1), float32] /* ty=Tensor[(1), float32] span=from_string:49:24 */) -> ((Tensor[(65, 10), float32], Tensor[(65, 10), float32]), (Tensor[(1, 1, 120), float32], Tensor[(1, 1, 240), float32]), (Tensor[(10, 24), float32], (Tensor[(10, 24), float32],)), Tensor[(1), float32], Tensor[(14, 65), float32], Tensor[(65, 10), bfloat16], (Tensor[(1, 1, 420), float32], Tensor[(1, 1, 420), float32])) {
  let %x_0 = zeros_like(%x0);
  let %x_1 = add(%x0, %x_0);
  let %x_2 = nn.relu(%x_1);
  let %x_3 = 1f /* ty=float32 span=from_string:7:18 */;
  let %x_4 = add(%x_2, %x_3);
  let %x_5 = nn.relu(%x_1);
  let %x_6 = 1f /* ty=float32 span=from_string:8:18 */;
  let %x_7 = add(%x_5, %x_6);
  let %x_8 = add(%x_4, %x_7);
  let %x_9 = nn.dense(%x_8, %x8, units=None);
  let %x_10 = expand_dims(%x9, axis=0);
  let %x_11 = add(%x_9, %x_10);
  let %x_12 = multiply(%x_11, %x10);
  let %x18: Tensor[(10, 24), float32] /* ty=Tensor[(10, 24), float32] span=from_string:54:10 */ = multiply(%x_12, %x_12);
  let %x19: Tensor[(10, 24), float32] /* ty=Tensor[(10, 24), float32] span=from_string:31:19 */ = ones_like(%x18);
  let %x_13 = nn.dense(%x1, %x_1, units=None);
  let %x_14 = expand_dims(%x3, axis=0);
  let %x_15 = add(%x_13, %x_14);
  let %x_16 = nn.dense(%x1, %x2, units=None);
  let %x_17 = expand_dims(%x4, axis=0);
  let %x_18 = add(%x_16, %x_17);
  let %x_19 = (%x_15, %x_18) /* ty=(Tensor[(65, 10), float32], Tensor[(65, 10), float32]) span=from_string:59:4 */;
  let %x_20 = nn.dense(%x_8, %x5, units=None);
  let %x_21 = expand_dims(%x6, axis=0);
  let %x_22 = add(%x_20, %x_21);
  let %x_23 = multiply(%x_22, %x7);
  let %x_24 = reshape(%x_23, newshape=[1, 1, 120]);
  let %x_25 = reshape(%x_12, newshape=[1, 1, 240]);
  let %x_26 = (%x_24, %x_25) /* ty=(Tensor[(1, 1, 120), float32], Tensor[(1, 1, 240), float32]) span=from_string:59:9 */;
  let %x_27 = zeros_like(%x_12);
  let %x_28 = multiply(%x19, %x_12);
  let %x_29 = collapse_sum_like(%x_28, %x_12);
  let %x_30 = add(%x_27, %x_29);
  let %x_31 = multiply(%x19, %x_12);
  let %x_32 = collapse_sum_like(%x_31, %x_12);
  let %x_33 = add(%x_30, %x_32);
  let %x_34 = (%x_33,) /* ty=(Tensor[(10, 24), float32],) span=from_string:54:16 */;
  let %x_35 = (%x18, %x_34) /* ty=(Tensor[(10, 24), float32], (Tensor[(10, 24), float32],)) span=from_string:59:14 */;
  let %x_36 = ones(shape=[1], dtype="float32");
  let %x_37 = add(%x10, %x_36);
  let %x_38 = split(%x11, indices_or_sections=3, axis=1);
  let %x_39 = %x_38.0;
  let %x_40 = ones_like(%x_16);
  let %x_41 = add(%x_16, %x_40);
  let %x_42 = nn.dense(%x_39, %x_41, units=None);
  let %x_43 = cast(%x_41, dtype="bfloat16");
  let %x_44 = clip(%x_43, a_min=-0.2f, a_max=0.4f);
  let %x_45 = nn.dense(%x12, %x_28, units=None);
  let %x_46 = expand_dims(%x14, axis=0);
  let %x_47 = add(%x_45, %x_46);
  let %x_48 = multiply(%x_47, %x16);
  let %x_49 = reshape(%x_48, newshape=[1, 1, -1]);
  let %x_50 = nn.dense(%x12, %x13, units=None);
  let %x_51 = expand_dims(%x15, axis=0);
  let %x_52 = add(%x_50, %x_51);
  let %x_53 = multiply(%x_52, %x17);
  let %x_54 = reshape(%x_53, newshape=[1, 1, -1]);
  let %x_55 = (%x_49, %x_54) /* ty=(Tensor[(1, 1, 420), float32], Tensor[(1, 1, 420), float32]) span=from_string:59:34 */;
  let %x_56 = (%x_19, %x_26, %x_35, %x_37, %x_42, %x_44, %x_55) /* ty=((Tensor[(65, 10), float32], Tensor[(65, 10), float32]), (Tensor[(1, 1, 120), float32], Tensor[(1, 1, 240), float32]), (Tensor[(10, 24), float32], (Tensor[(10, 24), float32],)), Tensor[(1), float32], Tensor[(14, 65), float32], Tensor[(65, 10), bfloat16], (Tensor[(1, 1, 420), float32], Tensor[(1, 1, 420), float32])) span=from_string:59:3 */;
  let %x_57 = %x_56;
  let %x_58 = %x_57;
  %x_58
}
