#[version = "0.0.5"]
def @main(%x0: Tensor[(10, 10), float32] /* ty=Tensor[(10, 10), float32] span=from_string:13:22 */, %x1: Tensor[(65, 10), float32] /* ty=Tensor[(65, 10), float32] span=from_string:14:17 */, %x2: Tensor[(10, 10), float32] /* ty=Tensor[(10, 10), float32] span=from_string:14:22 */, %x3: Tensor[(10), float32] /* ty=Tensor[(10), float32] span=from_string:15:17 */, %x4: Tensor[(10), float32] /* ty=Tensor[(10), float32] span=from_string:16:17 */, %x5: Tensor[(12, 10), float32] /* ty=Tensor[(12, 10), float32] span=from_string:17:22 */, %x6: Tensor[(12), float32] /* ty=Tensor[(12), float32] span=from_string:18:18 */, %x7: Tensor[(1), float32] /* ty=Tensor[(1), float32] span=from_string:19:24 */, %x8: Tensor[(24, 10), float32] /* ty=Tensor[(24, 10), float32] span=from_string:8:21 */, %x9: Tensor[(24), float32] /* ty=Tensor[(24), float32] span=from_string:9:16 */, %x10: Tensor[(1), float32] /* ty=Tensor[(1), float32] span=from_string:43:13 */, %x11: Tensor[(14, 30), float32] /* ty=Tensor[(14, 30), float32] span=from_string:28:15 */, %x12: Tensor[(42, 24), float32] /* ty=Tensor[(42, 24), float32] span=from_string:35:18 */, %x13: Tensor[(10, 24), float32] /* ty=Tensor[(10, 24), float32] span=from_string:35:24 */, %x14: Tensor[(10), float32] /* ty=Tensor[(10), float32] span=from_string:33:18 */, %x15: Tensor[(10), float32] /* ty=Tensor[(10), float32] span=from_string:36:18 */, %x16: Tensor[(1), float32] /* ty=Tensor[(1), float32] span=from_string:34:24 */, %x17: Tensor[(1), float32] /* ty=Tensor[(1), float32] span=from_string:37:24 */) -> ((Tensor[(65, 10), float32], Tensor[(65, 10), float32]), (Tensor[(1, 1, 120), float32], Tensor[(1, 1, 240), float32]), (Tensor[(10, 24), float32], (Tensor[(10, 24), float32],)), Tensor[(1), float32], Tensor[(14, 65), float32], Tensor[(65, 10), bfloat16], (Tensor[(1, 1, 420), float32], Tensor[(1, 1, 420), float32])) {
  %0 = nn.relu(%x0) /* ty=Tensor[(10, 10), float32] span=from_string:5:12 */;
  %1 = nn.relu(%x0) /* ty=Tensor[(10, 10), float32] span=from_string:6:12 */;
  %2 = add(%0, 1f /* ty=float32 span=from_string:5:18 */) /* ty=Tensor[(10, 10), float32] span=from_string:7:12 */;
  %3 = add(%1, 1f /* ty=float32 span=from_string:6:18 */) /* ty=Tensor[(10, 10), float32] span=from_string:7:16 */;
  %4 = add(%2, %3) /* ty=Tensor[(10, 10), float32] span=from_string:17:18 */;
  %5 = nn.dense(%4, %x8, units=None) /* ty=Tensor[(10, 24), float32] span=from_string:9:12 */;
  %6 = add(%5, %x9) /* ty=Tensor[(10, 24), float32] span=from_string:10:18 */;
  %7 = multiply(%6, %x10) /* ty=Tensor[(10, 24), float32] span=from_string:23:25 */;
  let %x18: Tensor[(10, 24), float32] /* ty=Tensor[(10, 24), float32] span=from_string:42:10 */ = multiply(%7, %7) /* ty=Tensor[(10, 24), float32] span=from_string:11:100 */;
  let %x19: Tensor[(10, 24), float32] /* ty=Tensor[(10, 24), float32] span=from_string:23:19 */ = ones(shape=[10, 24], dtype="float32") /* ty=Tensor[(10, 24), float32] span=from_string:12:99 */;
  %8 = nn.dense(%x1, %x0, units=None) /* ty=Tensor[(65, 10), float32] span=from_string:15:13 */;
  %9 = nn.dense(%x1, %x2, units=None) /* ty=Tensor[(65, 10), float32] span=from_string:30:13 */;
  %10 = add(%8, %x3) /* ty=Tensor[(65, 10), float32] span=from_string:40:10 */;
  %11 = add(%9, %x4) /* ty=Tensor[(65, 10), float32] span=from_string:40:15 */;
  %12 = nn.dense(%4, %x5, units=None) /* ty=Tensor[(10, 12), float32] span=from_string:18:13 */;
  %13 = add(%12, %x6) /* ty=Tensor[(10, 12), float32] span=from_string:19:19 */;
  %14 = multiply(%13, %x7) /* ty=Tensor[(10, 12), float32] span=from_string:20:17 */;
  %15 = reshape(%14, newshape=[1, 1, 120]) /* ty=Tensor[(1, 1, 120), float32] span=from_string:41:10 */;
  %16 = reshape(%7, newshape=[1, 1, 240]) /* ty=Tensor[(1, 1, 240), float32] span=from_string:41:15 */;
  %17 = multiply(%x19, %7) /* ty=Tensor[(10, 24), float32] span=from_string:32:24 */;
  %18 = multiply(%x19, %7) /* ty=Tensor[(10, 24), float32] span=from_string:25:25 */;
  %19 = collapse_sum_to(%17, meta[relay.Constant][0] /* ty=Tensor[(2), int32] span=from_string:24:35 */, meta[relay.attrs.InitOpAttrs][0]) /* ty=Tensor[(10, 24), float32] span=from_string:26:13 */;
  %20 = collapse_sum_to(%18, meta[relay.Constant][1] /* ty=Tensor[(2), int32] span=from_string:25:35 */, meta[relay.attrs.InitOpAttrs][1]) /* ty=Tensor[(10, 24), float32] span=from_string:26:18 */;
  %21 = add(%19, %20) /* ty=Tensor[(10, 24), float32] span=from_string:27:10 */;
  %22 = (%21,) /* ty=(Tensor[(10, 24), float32],) span=from_string:42:16 */;
  %23 = split(%x11, indices_or_sections=3, axis=1) /* ty=(Tensor[(14, 10), float32], Tensor[(14, 10), float32], Tensor[(14, 10), float32]) span=from_string:29:9 */;
  %24 = %23.0 /* ty=Tensor[(14, 10), float32] span=from_string:44:18 */;
  %25 = add(%9, 1f /* ty=float32 span=from_string:30:19 */) /* ty=Tensor[(65, 10), float32] span=from_string:44:23 */;
  %26 = cast(%25, dtype="bfloat16") /* ty=Tensor[(65, 10), bfloat16] span=from_string:45:14 */;
  %27 = nn.dense(%x12, %17, units=None) /* ty=Tensor[(42, 10), float32] span=from_string:33:13 */;
  %28 = add(%27, %x14) /* ty=Tensor[(42, 10), float32] span=from_string:34:19 */;
  %29 = multiply(%28, %x16) /* ty=Tensor[(42, 10), float32] span=from_string:38:17 */;
  %30 = nn.dense(%x12, %x13, units=None) /* ty=Tensor[(42, 10), float32] span=from_string:36:13 */;
  %31 = add(%30, %x15) /* ty=Tensor[(42, 10), float32] span=from_string:37:19 */;
  %32 = multiply(%31, %x17) /* ty=Tensor[(42, 10), float32] span=from_string:39:17 */;
  %33 = reshape(%29, newshape=[1, 1, -1]) /* ty=Tensor[(1, 1, 420), float32] span=from_string:46:10 */;
  %34 = reshape(%32, newshape=[1, 1, -1]) /* ty=Tensor[(1, 1, 420), float32] span=from_string:46:15 */;
  %35 = (%10, %11) /* ty=(Tensor[(65, 10), float32], Tensor[(65, 10), float32]) span=from_string:47:4 */;
  %36 = (%15, %16) /* ty=(Tensor[(1, 1, 120), float32], Tensor[(1, 1, 240), float32]) span=from_string:47:9 */;
  %37 = (%x18, %22) /* ty=(Tensor[(10, 24), float32], (Tensor[(10, 24), float32],)) span=from_string:47:14 */;
  %38 = add(%x10, 1f /* ty=float32 span=from_string:43:21 */) /* ty=Tensor[(1), float32] span=from_string:47:19 */;
  %39 = nn.dense(%24, %25, units=None) /* ty=Tensor[(14, 65), float32] span=from_string:47:24 */;
  %40 = clip(%26, a_min=-0.2f, a_max=0.4f) /* ty=Tensor[(65, 10), bfloat16] span=from_string:47:29 */;
  %41 = (%33, %34) /* ty=(Tensor[(1, 1, 420), float32], Tensor[(1, 1, 420), float32]) span=from_string:47:34 */;
  (%35, %36, %37, %38, %39, %40, %41) /* ty=((Tensor[(65, 10), float32], Tensor[(65, 10), float32]), (Tensor[(1, 1, 120), float32], Tensor[(1, 1, 240), float32]), (Tensor[(10, 24), float32], (Tensor[(10, 24), float32],)), Tensor[(1), float32], Tensor[(14, 65), float32], Tensor[(65, 10), bfloat16], (Tensor[(1, 1, 420), float32], Tensor[(1, 1, 420), float32])) span=from_string:47:3 */
}

#[metadata]
{
  "root": 1, 
  "nodes": [
    {
      "type_key": ""
    }, 
    {
      "type_key": "Map", 
      "keys": [
        "relay.attrs.InitOpAttrs", 
        "relay.Constant"
      ], 
      "data": [2, 9]
    }, 
    {
      "type_key": "Array", 
      "data": [3, 7]
    }, 
    {
      "type_key": "relay.attrs.InitOpAttrs", 
      "attrs": {
        "dtype": "", 
        "shape": "4"
      }
    }, 
    {
      "type_key": "Array", 
      "data": [5, 6]
    }, 
    {
      "type_key": "IntImm", 
      "attrs": {
        "dtype": "int32", 
        "span": "0", 
        "value": "10"
      }
    }, 
    {
      "type_key": "IntImm", 
      "attrs": {
        "dtype": "int32", 
        "span": "0", 
        "value": "24"
      }
    }, 
    {
      "type_key": "relay.attrs.InitOpAttrs", 
      "attrs": {
        "dtype": "", 
        "shape": "8"
      }
    }, 
    {
      "type_key": "Array", 
      "data": [5, 6]
    }, 
    {
      "type_key": "Array", 
      "data": [10, 18]
    }, 
    {
      "type_key": "relay.Constant", 
      "attrs": {
        "_checked_type_": "15", 
        "data": "0", 
        "span": "13", 
        "virtual_device_": "11"
      }
    }, 
    {
      "type_key": "VirtualDevice", 
      "attrs": {
        "device_type_int": "-1", 
        "memory_scope": "12", 
        "target": "0", 
        "virtual_device_id": "-1"
      }
    }, 
    {
      "type_key": "runtime.String"
    }, 
    {
      "type_key": "Span", 
      "attrs": {
        "column": "35", 
        "end_column": "53", 
        "end_line": "24", 
        "line": "24", 
        "source_name": "14"
      }
    }, 
    {
      "type_key": "SourceName", 
      "repr_str": "from_string"
    }, 
    {
      "type_key": "relay.TensorType", 
      "attrs": {
        "dtype": "int32", 
        "shape": "16", 
        "span": "0"
      }
    }, 
    {
      "type_key": "Array", 
      "data": [17]
    }, 
    {
      "type_key": "IntImm", 
      "attrs": {
        "dtype": "int32", 
        "span": "0", 
        "value": "2"
      }
    }, 
    {
      "type_key": "relay.Constant", 
      "attrs": {
        "_checked_type_": "20", 
        "data": "1", 
        "span": "19", 
        "virtual_device_": "11"
      }
    }, 
    {
      "type_key": "Span", 
      "attrs": {
        "column": "35", 
        "end_column": "53", 
        "end_line": "25", 
        "line": "25", 
        "source_name": "14"
      }
    }, 
    {
      "type_key": "relay.TensorType", 
      "attrs": {
        "dtype": "int32", 
        "shape": "21", 
        "span": "0"
      }
    }, 
    {
      "type_key": "Array", 
      "data": [22]
    }, 
    {
      "type_key": "IntImm", 
      "attrs": {
        "dtype": "int32", 
        "span": "0", 
        "value": "2"
      }
    }
  ], 
  "b64ndarrays": [
    "P6G0lvBAXt0AAAAAAAAAAAEAAAAAAAAAAQAAAAAgAQACAAAAAAAAAAgAAAAAAAAACgAAABgAAAA=", 
    "P6G0lvBAXt0AAAAAAAAAAAEAAAAAAAAAAQAAAAAgAQACAAAAAAAAAAgAAAAAAAAACgAAABgAAAA="
  ], 
  "attrs": {"tvm_version": "0.13.0"}
}