#[version = "0.0.5"]
def @main(%x0: Tensor[(1, 16, 16, 16), float32] /* ty=Tensor[(1, 16, 16, 16), float32] span=from_string:13:13 */, %x1: Tensor[(64, 16, 3, 3), float32] /* ty=Tensor[(64, 16, 3, 3), float32] span=from_string:3:13 */, %x2: Tensor[(64, 64, 3, 3), float32] /* ty=Tensor[(64, 64, 3, 3), float32] span=from_string:16:14 */, %x3: Tensor[(64, 16, 3, 3), float32] /* ty=Tensor[(64, 16, 3, 3), float32] span=from_string:35:14 */) -> (Tensor[(1, 64, 16, 16), float16], Tensor[(1, 16, 16, 64), float16], Tensor[(1, 16, 16, 16), float32], Tensor[(1, 64, 16, 16), float16], float32, Tensor[(64, 48, 16), float16], Tensor[(64, 64, 16, 1), float16]) {
  %0 = cast(%x1, dtype="float16") /* ty=Tensor[(64, 16, 3, 3), float16] span=from_string:5:13 */;
  %1 = zeros(shape=[1, 16, 16, 16], dtype="float16") /* ty=Tensor[(1, 16, 16, 16), float16] span=from_string:14:14 */;
  %2 = cast(%0, dtype="float16") /* ty=Tensor[(64, 16, 3, 3), float16] span=from_string:6:22 */;
  %3 = nn.conv2d(%1, %2, padding=[1, 1, 1, 1], channels=64, kernel_size=[3, 3], out_dtype="float16") /* ty=Tensor[(1, 64, 16, 16), float16] span=from_string:8:16 */;
  %4 = nn.relu(%3) /* ty=Tensor[(1, 64, 16, 16), float16] span=from_string:21:19 */;
  %5 = add(%4, 1f16 /* ty=float16 */) /* ty=Tensor[(1, 64, 16, 16), float16] span=from_string:39:17 */;
  %6 = nn.relu(%4) /* ty=Tensor[(1, 64, 16, 16), float16] span=from_string:12:18 */;
  %7 = transpose(%6, axes=[1, 3, 2, 0]) /* ty=Tensor[(64, 16, 16, 1), float16] span=from_string:40:19 */;
  %8 = exp(%x0) /* ty=Tensor[(1, 16, 16, 16), float32] span=from_string:15:13 */;
  %9 = cast(%1, dtype="float32") /* ty=Tensor[(1, 16, 16, 16), float32] span=from_string:15:18 */;
  %10 = add(%8, %9) /* ty=Tensor[(1, 16, 16, 16), float32] span=from_string:41:19 */;
  %11 = cast(%x2, dtype="float16") /* ty=Tensor[(64, 64, 3, 3), float16] span=from_string:18:14 */;
  %12 = cast(%11, dtype="float16") /* ty=Tensor[(64, 64, 3, 3), float16] span=from_string:20:19 */;
  %13 = multiply(%12, 2f16 /* ty=float16 */) /* ty=Tensor[(64, 64, 3, 3), float16] span=from_string:21:23 */;
  %14 = nn.conv2d(%4, %13, padding=[1, 1, 1, 1], channels=64, kernel_size=[3, 3], out_dtype="float16") /* ty=Tensor[(1, 64, 16, 16), float16] span=from_string:42:17 */;
  %15 = squeeze(%14) /* ty=Tensor[(64, 16, 16), float16] span=from_string:24:13 */;
  %16 = squeeze(%15) /* ty=Tensor[(64, 16, 16), float16] span=from_string:25:13 */;
  %17 = add(%15, 1f16 /* ty=float16 */) /* ty=Tensor[(64, 16, 16), float16] span=from_string:28:10 */;
  %18 = add(%16, 2f16 /* ty=float16 */) /* ty=Tensor[(64, 16, 16), float16] span=from_string:26:15 */;
  %19 = (%17, %18) /* ty=(Tensor[(64, 16, 16), float16], Tensor[(64, 16, 16), float16]) span=from_string:27:21 */;
  %20 = concatenate(%19, axis=1) /* ty=Tensor[(64, 32, 16), float16] span=from_string:30:32 */;
  %21 = (%17,) /* ty=(Tensor[(64, 16, 16), float16],) span=from_string:29:21 */;
  %22 = concatenate(%21, axis=1) /* ty=Tensor[(64, 16, 16), float16] span=from_string:31:32 */;
  %23 = annotation.stop_fusion(%20) /* ty=Tensor[(64, 32, 16), float16] span=from_string:32:10 */;
  %24 = annotation.stop_fusion(%22) /* ty=Tensor[(64, 16, 16), float16] span=from_string:32:15 */;
  %25 = (%23, %24) /* ty=(Tensor[(64, 32, 16), float16], Tensor[(64, 16, 16), float16]) span=from_string:33:21 */;
  %26 = concatenate(%25, axis=1) /* ty=Tensor[(64, 48, 16), float16] span=from_string:34:17 */;
  %27 = squeeze(%26) /* ty=Tensor[(64, 48, 16), float16] span=from_string:43:13 */;
  %28 = cast(%x3, dtype="float16") /* ty=Tensor[(64, 16, 3, 3), float16] span=from_string:36:14 */;
  %29 = cast(%28, dtype="float16") /* ty=Tensor[(64, 16, 3, 3), float16] span=from_string:37:19 */;
  %30 = multiply(%29, 2f16 /* ty=float16 */) /* ty=Tensor[(64, 16, 3, 3), float16] span=from_string:38:23 */;
  %31 = nn.conv2d(%7, %30, padding=[1, 1, 1, 1], channels=64, kernel_size=[3, 3], out_dtype="float16") /* ty=Tensor[(64, 64, 16, 1), float16] span=from_string:44:17 */;
  %32 = add(%5, %5) /* ty=Tensor[(1, 64, 16, 16), float16] span=from_string:45:4 */;
  %33 = transpose(%7, axes=None) /* ty=Tensor[(1, 16, 16, 64), float16] span=from_string:45:9 */;
  %34 = transpose(%10, axes=[0, 2, 3, 1]) /* ty=Tensor[(1, 16, 16, 16), float32] span=from_string:45:14 */;
  %35 = nn.relu(%14) /* ty=Tensor[(1, 64, 16, 16), float16] span=from_string:45:19 */;
  %36 = add(%27, 1f16 /* ty=float16 */) /* ty=Tensor[(64, 48, 16), float16] span=from_string:45:68 */;
  %37 = nn.relu(%31) /* ty=Tensor[(64, 64, 16, 1), float16] span=from_string:45:73 */;
  (%32, %33, %34, %35, 0f /* ty=float32 span=from_string:45:26 */, %36, %37) /* ty=(Tensor[(1, 64, 16, 16), float16], Tensor[(1, 16, 16, 64), float16], Tensor[(1, 16, 16, 16), float32], Tensor[(1, 64, 16, 16), float16], float32, Tensor[(64, 48, 16), float16], Tensor[(64, 64, 16, 1), float16]) span=from_string:3:3 */
}
