#[version = "0.0.5"]
def @main(%x0: Tensor[(1, 16, 16, 16), float32] /* ty=Tensor[(1, 16, 16, 16), float32] span=from_string:11:12 */, %x1: Tensor[(64, 16, 3, 3), float32] /* ty=Tensor[(64, 16, 3, 3), float32] span=from_string:4:13 */, %x2: Tensor[(64, 64, 3, 3), float32] /* ty=Tensor[(64, 64, 3, 3), float32] span=from_string:14:14 */, %x3: Tensor[(64, 16, 3, 3), float32] /* ty=Tensor[(64, 16, 3, 3), float32] span=from_string:25:14 */) -> (Tensor[(1, 64, 16, 16), float16], Tensor[(1, 16, 16, 64), float16], Tensor[(1, 16, 16, 16), float32], Tensor[(1, 64, 16, 16), float16], float32, Tensor[(64, 48, 16), float16], Tensor[(64, 64, 16, 1), float16]) {
  %0 = cast(%x1, dtype="float16") /* ty=Tensor[(64, 16, 3, 3), float16] */;
  %1 = zeros(shape=[1, 16, 16, 16], dtype="float16") /* ty=Tensor[(1, 16, 16, 16), float16] span=from_string:12:13 */;
  %2 = cast(%0, dtype="float16") /* ty=Tensor[(64, 16, 3, 3), float16] span=from_string:5:22 */;
  %3 = nn.conv2d(%1, %2, padding=[1, 1, 1, 1], channels=64, kernel_size=[3, 3], out_dtype="float16") /* ty=Tensor[(1, 64, 16, 16), float16] span=from_string:6:16 */;
  %4 = cast(1f /* ty=float32 span=from_string:7:15 */, dtype="float16") /* ty=float16 */;
  %5 = nn.relu(%3) /* ty=Tensor[(1, 64, 16, 16), float16] span=from_string:17:19 */;
  %6 = cast(%4, dtype="float16") /* ty=float16 span=from_string:32:18 */;
  %7 = add(%5, %6) /* ty=Tensor[(1, 64, 16, 16), float16] span=from_string:28:17 */;
  %8 = nn.relu(%5) /* ty=Tensor[(1, 64, 16, 16), float16] span=from_string:10:18 */;
  %9 = transpose(%8, axes=[1, 3, 2, 0]) /* ty=Tensor[(64, 16, 16, 1), float16] span=from_string:29:19 */;
  %10 = exp(%x0) /* ty=Tensor[(1, 16, 16, 16), float32] span=from_string:13:13 */;
  %11 = cast(%1, dtype="float32") /* ty=Tensor[(1, 16, 16, 16), float32] span=from_string:13:17 */;
  %12 = add(%10, %11) /* ty=Tensor[(1, 16, 16, 16), float32] span=from_string:30:19 */;
  %13 = cast(%x2, dtype="float16") /* ty=Tensor[(64, 64, 3, 3), float16] */;
  %14 = cast(2f /* ty=float32 span=from_string:15:16 */, dtype="float16") /* ty=float16 */;
  %15 = cast(%13, dtype="float16") /* ty=Tensor[(64, 64, 3, 3), float16] span=from_string:16:19 */;
  %16 = cast(%14, dtype="float16") /* ty=float16 span=from_string:26:24 */;
  %17 = multiply(%15, %16) /* ty=Tensor[(64, 64, 3, 3), float16] span=from_string:17:23 */;
  %18 = nn.conv2d(%5, %17, padding=[1, 1, 1, 1], channels=64, kernel_size=[3, 3], out_dtype="float16") /* ty=Tensor[(1, 64, 16, 16), float16] span=from_string:31:17 */;
  %19 = squeeze(%18) /* ty=Tensor[(64, 16, 16), float16] span=from_string:20:13 */;
  %20 = squeeze(%19) /* ty=Tensor[(64, 16, 16), float16] span=from_string:21:13 */;
  %21 = add(%19, %6) /* ty=Tensor[(64, 16, 16), float16] span=from_string:22:20 */;
  %22 = add(%20, %16) /* ty=Tensor[(64, 16, 16), float16] span=from_string:22:15 */;
  %23 = (%21, %22, %21) /* ty=(Tensor[(64, 16, 16), float16], Tensor[(64, 16, 16), float16], Tensor[(64, 16, 16), float16]) span=from_string:23:21 */;
  %24 = concatenate(%23, axis=1) /* ty=Tensor[(64, 48, 16), float16] span=from_string:24:17 */;
  %25 = squeeze(%24) /* ty=Tensor[(64, 48, 16), float16] span=from_string:32:13 */;
  %26 = cast(%x3, dtype="float16") /* ty=Tensor[(64, 16, 3, 3), float16] */;
  %27 = cast(%26, dtype="float16") /* ty=Tensor[(64, 16, 3, 3), float16] span=from_string:26:19 */;
  %28 = multiply(%27, %16) /* ty=Tensor[(64, 16, 3, 3), float16] span=from_string:27:23 */;
  %29 = nn.conv2d(%9, %28, padding=[1, 1, 1, 1], channels=64, kernel_size=[3, 3], out_dtype="float16") /* ty=Tensor[(64, 64, 16, 1), float16] span=from_string:33:17 */;
  %30 = add(%7, %7) /* ty=Tensor[(1, 64, 16, 16), float16] span=from_string:34:4 */;
  %31 = transpose(%9, axes=None) /* ty=Tensor[(1, 16, 16, 64), float16] span=from_string:34:9 */;
  %32 = transpose(%12, axes=[0, 2, 3, 1]) /* ty=Tensor[(1, 16, 16, 16), float32] span=from_string:34:14 */;
  %33 = nn.relu(%18) /* ty=Tensor[(1, 64, 16, 16), float16] span=from_string:34:19 */;
  %34 = add(%25, %6) /* ty=Tensor[(64, 48, 16), float16] span=from_string:34:68 */;
  %35 = nn.relu(%29) /* ty=Tensor[(64, 64, 16, 1), float16] span=from_string:34:73 */;
  (%30, %31, %32, %33, 0f /* ty=float32 span=from_string:34:26 */, %34, %35) /* ty=(Tensor[(1, 64, 16, 16), float16], Tensor[(1, 16, 16, 64), float16], Tensor[(1, 16, 16, 16), float32], Tensor[(1, 64, 16, 16), float16], float32, Tensor[(64, 48, 16), float16], Tensor[(64, 64, 16, 1), float16]) span=from_string:3:3 */
}
