#[version = "0.0.5"]
def @main(%x0: Tensor[(1, 16, 16, 16), float32] /* ty=Tensor[(1, 16, 16, 16), float32] span=from_string:13:13 */, %x1: Tensor[(64, 16, 3, 3), float32] /* ty=Tensor[(64, 16, 3, 3), float32] span=from_string:4:13 */, %x2: Tensor[(64, 64, 3, 3), float32] /* ty=Tensor[(64, 64, 3, 3), float32] span=from_string:16:14 */, %x3: Tensor[(64, 16, 3, 3), float32] /* ty=Tensor[(64, 16, 3, 3), float32] span=from_string:32:14 */) -> (Tensor[(1, 64, 16, 16), float16], Tensor[(1, 16, 16, 64), float16], Tensor[(1, 16, 16, 16), float32], Tensor[(1, 64, 16, 16), float16], float32, Tensor[(64, 48, 16), float16], Tensor[(64, 64, 16, 1), float16]) {
  %0 = cast(%x1, dtype="float16") /* ty=Tensor[(64, 16, 3, 3), float16] */;
  %1 = zeros(shape=[1, 16, 16, 16], dtype="float16") /* ty=Tensor[(1, 16, 16, 16), float16] span=from_string:14:14 */;
  %2 = cast(%0, dtype="float16") /* ty=Tensor[(64, 16, 3, 3), float16] span=from_string:5:22 */;
  %3 = nn.conv2d(%1, %2, padding=[1, 1, 1, 1], channels=64, kernel_size=[3, 3], out_dtype="float16") /* ty=Tensor[(1, 64, 16, 16), float16] span=from_string:6:16 */;
  %4 = cast(1f /* ty=float32 span=from_string:7:15 */, dtype="float16") /* ty=float16 */;
  %5 = nn.relu(%3) /* ty=Tensor[(1, 64, 16, 16), float16] span=from_string:19:19 */;
  %6 = cast(%4, dtype="float16") /* ty=float16 span=from_string:9:16 */;
  %7 = cast(1f /* ty=float32 span=from_string:8:15 */, dtype="float16") /* ty=float16 */;
  %8 = cast(%7, dtype="float16") /* ty=float16 span=from_string:10:16 */;
  %9 = add(%5, %6) /* ty=Tensor[(1, 64, 16, 16), float16] span=from_string:36:13 */;
  %10 = add(%5, %8) /* ty=Tensor[(1, 64, 16, 16), float16] span=from_string:36:17 */;
  %11 = nn.relu(%5) /* ty=Tensor[(1, 64, 16, 16), float16] span=from_string:12:18 */;
  %12 = transpose(%11, axes=[1, 3, 2, 0]) /* ty=Tensor[(64, 16, 16, 1), float16] span=from_string:37:19 */;
  %13 = exp(%x0) /* ty=Tensor[(1, 16, 16, 16), float32] span=from_string:15:13 */;
  %14 = cast(%1, dtype="float32") /* ty=Tensor[(1, 16, 16, 16), float32] span=from_string:15:18 */;
  %15 = add(%13, %14) /* ty=Tensor[(1, 16, 16, 16), float32] span=from_string:38:19 */;
  %16 = cast(%x2, dtype="float16") /* ty=Tensor[(64, 64, 3, 3), float16] */;
  %17 = cast(2f /* ty=float32 span=from_string:17:16 */, dtype="float16") /* ty=float16 */;
  %18 = cast(%16, dtype="float16") /* ty=Tensor[(64, 64, 3, 3), float16] span=from_string:18:19 */;
  %19 = cast(%17, dtype="float16") /* ty=float16 span=from_string:18:24 */;
  %20 = multiply(%18, %19) /* ty=Tensor[(64, 64, 3, 3), float16] span=from_string:19:23 */;
  %21 = nn.conv2d(%5, %20, padding=[1, 1, 1, 1], channels=64, kernel_size=[3, 3], out_dtype="float16") /* ty=Tensor[(1, 64, 16, 16), float16] span=from_string:39:17 */;
  %22 = cast(1f /* ty=float32 span=from_string:21:16 */, dtype="float16") /* ty=float16 */;
  %23 = squeeze(%21) /* ty=Tensor[(64, 16, 16), float16] span=from_string:27:13 */;
  %24 = cast(%22, dtype="float16") /* ty=float16 span=from_string:25:18 */;
  %25 = cast(2f /* ty=float32 span=from_string:23:16 */, dtype="float16") /* ty=float16 */;
  %26 = squeeze(%23) /* ty=Tensor[(64, 16, 16), float16] span=from_string:26:13 */;
  %27 = cast(%25, dtype="float16") /* ty=float16 span=from_string:26:18 */;
  %28 = cast(1f /* ty=float32 span=from_string:24:16 */, dtype="float16") /* ty=float16 */;
  %29 = cast(%28, dtype="float16") /* ty=float16 span=from_string:27:18 */;
  %30 = add(%23, %24) /* ty=Tensor[(64, 16, 16), float16] span=from_string:28:10 */;
  %31 = add(%26, %27) /* ty=Tensor[(64, 16, 16), float16] span=from_string:28:15 */;
  %32 = add(%23, %29) /* ty=Tensor[(64, 16, 16), float16] span=from_string:28:20 */;
  %33 = (%30, %31, %32) /* ty=(Tensor[(64, 16, 16), float16], Tensor[(64, 16, 16), float16], Tensor[(64, 16, 16), float16]) span=from_string:29:21 */;
  %34 = concatenate(%33, axis=1) /* ty=Tensor[(64, 48, 16), float16] span=from_string:30:17 */;
  %35 = cast(1f /* ty=float32 span=from_string:31:16 */, dtype="float16") /* ty=float16 */;
  %36 = squeeze(%34) /* ty=Tensor[(64, 48, 16), float16] span=from_string:40:13 */;
  %37 = cast(%35, dtype="float16") /* ty=float16 span=from_string:40:18 */;
  %38 = cast(%x3, dtype="float16") /* ty=Tensor[(64, 16, 3, 3), float16] */;
  %39 = cast(2f /* ty=float32 span=from_string:33:16 */, dtype="float16") /* ty=float16 */;
  %40 = cast(%38, dtype="float16") /* ty=Tensor[(64, 16, 3, 3), float16] span=from_string:34:19 */;
  %41 = cast(%39, dtype="float16") /* ty=float16 span=from_string:34:24 */;
  %42 = multiply(%40, %41) /* ty=Tensor[(64, 16, 3, 3), float16] span=from_string:35:23 */;
  %43 = nn.conv2d(%12, %42, padding=[1, 1, 1, 1], channels=64, kernel_size=[3, 3], out_dtype="float16") /* ty=Tensor[(64, 64, 16, 1), float16] span=from_string:41:17 */;
  %44 = add(%9, %10) /* ty=Tensor[(1, 64, 16, 16), float16] span=from_string:42:4 */;
  %45 = transpose(%12, axes=None) /* ty=Tensor[(1, 16, 16, 64), float16] span=from_string:42:9 */;
  %46 = transpose(%15, axes=[0, 2, 3, 1]) /* ty=Tensor[(1, 16, 16, 16), float32] span=from_string:42:14 */;
  %47 = nn.relu(%21) /* ty=Tensor[(1, 64, 16, 16), float16] span=from_string:42:19 */;
  %48 = add(%36, %37) /* ty=Tensor[(64, 48, 16), float16] span=from_string:42:68 */;
  %49 = nn.relu(%43) /* ty=Tensor[(64, 64, 16, 1), float16] span=from_string:42:73 */;
  (%44, %45, %46, %47, 0f /* ty=float32 span=from_string:42:26 */, %48, %49) /* ty=(Tensor[(1, 64, 16, 16), float16], Tensor[(1, 16, 16, 64), float16], Tensor[(1, 16, 16, 16), float32], Tensor[(1, 64, 16, 16), float16], float32, Tensor[(64, 48, 16), float16], Tensor[(64, 64, 16, 1), float16]) span=from_string:3:3 */
}
