#[version = "0.0.5"]
def @main(%x0: Tensor[(1, 16, 16, 16), float32] /* ty=Tensor[(1, 16, 16, 16), float32] span=from_string:19:118 */, %x1: Tensor[(64, 16, 3, 3), float32] /* ty=Tensor[(64, 16, 3, 3), float32] span=from_string:4:115 */, %x2: Tensor[(64, 64, 3, 3), float32] /* ty=Tensor[(64, 64, 3, 3), float32] span=from_string:24:117 */, %x3: Tensor[(64, 16, 3, 3), float32] /* ty=Tensor[(64, 16, 3, 3), float32] span=from_string:48:117 */) -> (Tensor[(1, 64, 16, 16), float16], Tensor[(1, 16, 16, 64), float16], Tensor[(1, 16, 16, 16), float32], Tensor[(1, 64, 16, 16), float16], float32, Tensor[(64, 48, 16), float16], Tensor[(64, 64, 16, 1), float16]) {
  %0 = fn (Primitive=1) -> Tensor[(1, 16, 16, 16), float16] {
    zeros(shape=[1, 16, 16, 16], dtype="float16") /* ty=Tensor[(1, 16, 16, 16), float16] span=from_string:3:113 */
  } /* ty=fn () -> Tensor[(1, 16, 16, 16), float16] */;
  let %x_0: Tensor[(1, 16, 16, 16), float16] /* ty=Tensor[(1, 16, 16, 16), float16] span=from_string:20:119 */ = %0() /* ty=Tensor[(1, 16, 16, 16), float16] */;
  %1 = fn (%p0: Tensor[(64, 16, 3, 3), float32] /* ty=Tensor[(64, 16, 3, 3), float32] */, Primitive=1) -> Tensor[(64, 16, 3, 3), float16] {
    cast(%p0, dtype="float16") /* ty=Tensor[(64, 16, 3, 3), float16] span=from_string:4:110 */
  } /* ty=fn (Tensor[(64, 16, 3, 3), float32]) -> Tensor[(64, 16, 3, 3), float16] */;
  let %x_1: Tensor[(64, 16, 3, 3), float16] /* ty=Tensor[(64, 16, 3, 3), float16] span=from_string:5:129 */ = %1(%x1) /* ty=Tensor[(64, 16, 3, 3), float16] */;
  %2 = fn (%p01: Tensor[(1, 16, 16, 16), float16] /* ty=Tensor[(1, 16, 16, 16), float16] */, %p1: Tensor[(64, 16, 3, 3), float16] /* ty=Tensor[(64, 16, 3, 3), float16] */, Primitive=1) -> Tensor[(1, 64, 16, 16), float16] {
    nn.conv2d(%p01, %p1, padding=[1, 1, 1, 1], channels=64, kernel_size=[3, 3], out_dtype="float16") /* ty=Tensor[(1, 64, 16, 16), float16] span=from_string:5:113 */
  } /* ty=fn (Tensor[(1, 16, 16, 16), float16], Tensor[(64, 16, 3, 3), float16]) -> Tensor[(1, 64, 16, 16), float16] */;
  let %x_2: Tensor[(1, 64, 16, 16), float16] /* ty=Tensor[(1, 64, 16, 16), float16] span=from_string:6:16 */ = %2(%x_0, %x_1) /* ty=Tensor[(1, 64, 16, 16), float16] */;
  %3 = fn (%p02: Tensor[(1, 64, 16, 16), float16] /* ty=Tensor[(1, 64, 16, 16), float16] */, Primitive=1) -> Tensor[(1, 64, 16, 16), float16] {
    nn.relu(%p02) /* ty=Tensor[(1, 64, 16, 16), float16] span=from_string:23:114 */
  } /* ty=fn (Tensor[(1, 64, 16, 16), float16]) -> Tensor[(1, 64, 16, 16), float16] */;
  %4 = %3(%x_2) /* ty=Tensor[(1, 64, 16, 16), float16] */;
  let %x_3: Tensor[(1, 64, 16, 16), float16] /* ty=Tensor[(1, 64, 16, 16), float16] span=from_string:16:122 */ = %4;
  let %x_4: float32 /* ty=float32 span=from_string:9:67 */ = 1f /* ty=float32 span=from_string:8:64 */;
  %5 = fn (%p03: float32 /* ty=float32 */, Primitive=1) -> float16 {
    cast(%p03, dtype="float16") /* ty=float16 span=from_string:9:62 */
  } /* ty=fn (float32) -> float16 */;
  let %x_5: float16 /* ty=float16 span=from_string:10:123 */ = %5(%x_4) /* ty=float16 */;
  %6 = fn (%p04: Tensor[(1, 64, 16, 16), float16] /* ty=Tensor[(1, 64, 16, 16), float16] */, %p11: float16 /* ty=float16 */, Primitive=1) -> Tensor[(1, 64, 16, 16), float16] {
    add(%p04, %p11) /* ty=Tensor[(1, 64, 16, 16), float16] span=from_string:10:113 */
  } /* ty=fn (Tensor[(1, 64, 16, 16), float16], float16) -> Tensor[(1, 64, 16, 16), float16] */;
  let %x_6: Tensor[(1, 64, 16, 16), float16] /* ty=Tensor[(1, 64, 16, 16), float16] span=from_string:15:118 */ = %6(%x_3, %x_5) /* ty=Tensor[(1, 64, 16, 16), float16] */;
  let %x_7: Tensor[(1, 64, 16, 16), float16] /* ty=Tensor[(1, 64, 16, 16), float16] span=from_string:14:118 */ = %4;
  let %x_8: float32 /* ty=float32 span=from_string:13:68 */ = 1f /* ty=float32 span=from_string:12:65 */;
  %7 = fn (%p05: float32 /* ty=float32 */, Primitive=1) -> float16 {
    cast(%p05, dtype="float16") /* ty=float16 span=from_string:13:63 */
  } /* ty=fn (float32) -> float16 */;
  let %x_9: float16 /* ty=float16 span=from_string:14:124 */ = %7(%x_8) /* ty=float16 */;
  %8 = fn (%p06: Tensor[(1, 64, 16, 16), float16] /* ty=Tensor[(1, 64, 16, 16), float16] */, %p12: float16 /* ty=float16 */, Primitive=1) -> Tensor[(1, 64, 16, 16), float16] {
    add(%p06, %p12) /* ty=Tensor[(1, 64, 16, 16), float16] span=from_string:14:114 */
  } /* ty=fn (Tensor[(1, 64, 16, 16), float16], float16) -> Tensor[(1, 64, 16, 16), float16] */;
  let %x_10: Tensor[(1, 64, 16, 16), float16] /* ty=Tensor[(1, 64, 16, 16), float16] span=from_string:15:124 */ = %8(%x_7, %x_9) /* ty=Tensor[(1, 64, 16, 16), float16] */;
  %9 = fn (%p07: Tensor[(1, 64, 16, 16), float16] /* ty=Tensor[(1, 64, 16, 16), float16] */, %p13: Tensor[(1, 64, 16, 16), float16] /* ty=Tensor[(1, 64, 16, 16), float16] */, Primitive=1) -> Tensor[(1, 64, 16, 16), float16] {
    add(%p07, %p13) /* ty=Tensor[(1, 64, 16, 16), float16] span=from_string:15:114 */
  } /* ty=fn (Tensor[(1, 64, 16, 16), float16], Tensor[(1, 64, 16, 16), float16]) -> Tensor[(1, 64, 16, 16), float16] */;
  let %x_11: Tensor[(1, 64, 16, 16), float16] /* ty=Tensor[(1, 64, 16, 16), float16] span=from_string:54:470 */ = %9(%x_6, %x_10) /* ty=Tensor[(1, 64, 16, 16), float16] */;
  %10 = fn (%p08: Tensor[(1, 64, 16, 16), float16] /* ty=Tensor[(1, 64, 16, 16), float16] */, Primitive=1) -> Tensor[(1, 64, 16, 16), float16] {
    nn.relu(%p08) /* ty=Tensor[(1, 64, 16, 16), float16] span=from_string:16:114 */
  } /* ty=fn (Tensor[(1, 64, 16, 16), float16]) -> Tensor[(1, 64, 16, 16), float16] */;
  let %x_12: Tensor[(1, 64, 16, 16), float16] /* ty=Tensor[(1, 64, 16, 16), float16] span=from_string:17:124 */ = %10(%x_3) /* ty=Tensor[(1, 64, 16, 16), float16] */;
  %11 = fn (%p09: Tensor[(1, 64, 16, 16), float16] /* ty=Tensor[(1, 64, 16, 16), float16] */, Primitive=1) -> Tensor[(64, 16, 16, 1), float16] {
    transpose(%p09, axes=[1, 3, 2, 0]) /* ty=Tensor[(64, 16, 16, 1), float16] span=from_string:17:114 */
  } /* ty=fn (Tensor[(1, 64, 16, 16), float16]) -> Tensor[(64, 16, 16, 1), float16] */;
  let %x_13: Tensor[(64, 16, 16, 1), float16] /* ty=Tensor[(64, 16, 16, 1), float16] span=from_string:52:124 */ = %11(%x_12) /* ty=Tensor[(64, 16, 16, 1), float16] */;
  %12 = fn (%p010: Tensor[(64, 16, 16, 1), float16] /* ty=Tensor[(64, 16, 16, 1), float16] */, Primitive=1) -> Tensor[(1, 16, 16, 64), float16] {
    transpose(%p010, axes=None) /* ty=Tensor[(1, 16, 16, 64), float16] span=from_string:18:114 */
  } /* ty=fn (Tensor[(64, 16, 16, 1), float16]) -> Tensor[(1, 16, 16, 64), float16] */;
  let %x_14: Tensor[(1, 16, 16, 64), float16] /* ty=Tensor[(1, 16, 16, 64), float16] span=from_string:54:477 */ = %12(%x_13) /* ty=Tensor[(1, 16, 16, 64), float16] */;
  %13 = fn (%p011: Tensor[(1, 16, 16, 16), float32] /* ty=Tensor[(1, 16, 16, 16), float32] */, Primitive=1) -> Tensor[(1, 16, 16, 16), float32] {
    exp(%p011) /* ty=Tensor[(1, 16, 16, 16), float32] span=from_string:19:114 */
  } /* ty=fn (Tensor[(1, 16, 16, 16), float32]) -> Tensor[(1, 16, 16, 16), float32] */;
  let %x_15: Tensor[(1, 16, 16, 16), float32] /* ty=Tensor[(1, 16, 16, 16), float32] span=from_string:21:118 */ = %13(%x0) /* ty=Tensor[(1, 16, 16, 16), float32] */;
  %14 = fn (%p012: Tensor[(1, 16, 16, 16), float16] /* ty=Tensor[(1, 16, 16, 16), float16] */, Primitive=1) -> Tensor[(1, 16, 16, 16), float32] {
    cast(%p012, dtype="float32") /* ty=Tensor[(1, 16, 16, 16), float32] span=from_string:20:114 */
  } /* ty=fn (Tensor[(1, 16, 16, 16), float16]) -> Tensor[(1, 16, 16, 16), float32] */;
  let %x_16: Tensor[(1, 16, 16, 16), float32] /* ty=Tensor[(1, 16, 16, 16), float32] span=from_string:21:125 */ = %14(%x_0) /* ty=Tensor[(1, 16, 16, 16), float32] */;
  %15 = fn (%p013: Tensor[(1, 16, 16, 16), float32] /* ty=Tensor[(1, 16, 16, 16), float32] */, %p14: Tensor[(1, 16, 16, 16), float32] /* ty=Tensor[(1, 16, 16, 16), float32] */, Primitive=1) -> Tensor[(1, 16, 16, 16), float32] {
    add(%p013, %p14) /* ty=Tensor[(1, 16, 16, 16), float32] span=from_string:21:114 */
  } /* ty=fn (Tensor[(1, 16, 16, 16), float32], Tensor[(1, 16, 16, 16), float32]) -> Tensor[(1, 16, 16, 16), float32] */;
  let %x_17: Tensor[(1, 16, 16, 16), float32] /* ty=Tensor[(1, 16, 16, 16), float32] span=from_string:22:124 */ = %15(%x_15, %x_16) /* ty=Tensor[(1, 16, 16, 16), float32] */;
  %16 = fn (%p014: Tensor[(1, 16, 16, 16), float32] /* ty=Tensor[(1, 16, 16, 16), float32] */, Primitive=1) -> Tensor[(1, 16, 16, 16), float32] {
    transpose(%p014, axes=[0, 2, 3, 1]) /* ty=Tensor[(1, 16, 16, 16), float32] span=from_string:22:114 */
  } /* ty=fn (Tensor[(1, 16, 16, 16), float32]) -> Tensor[(1, 16, 16, 16), float32] */;
  let %x_18: Tensor[(1, 16, 16, 16), float32] /* ty=Tensor[(1, 16, 16, 16), float32] span=from_string:54:484 */ = %16(%x_17) /* ty=Tensor[(1, 16, 16, 16), float32] */;
  let %x_19: Tensor[(1, 64, 16, 16), float16] /* ty=Tensor[(1, 64, 16, 16), float16] span=from_string:28:124 */ = %4;
  %17 = fn (%p015: Tensor[(64, 64, 3, 3), float32] /* ty=Tensor[(64, 64, 3, 3), float32] */, Primitive=1) -> Tensor[(64, 64, 3, 3), float16] {
    cast(%p015, dtype="float16") /* ty=Tensor[(64, 64, 3, 3), float16] span=from_string:24:112 */
  } /* ty=fn (Tensor[(64, 64, 3, 3), float32]) -> Tensor[(64, 64, 3, 3), float16] */;
  let %x_20: Tensor[(64, 64, 3, 3), float16] /* ty=Tensor[(64, 64, 3, 3), float16] span=from_string:27:122 */ = %17(%x2) /* ty=Tensor[(64, 64, 3, 3), float16] */;
  let %x_21: float32 /* ty=float32 span=from_string:26:69 */ = 2f /* ty=float32 span=from_string:25:66 */;
  %18 = fn (%p016: float32 /* ty=float32 */, Primitive=1) -> float16 {
    cast(%p016, dtype="float16") /* ty=float16 span=from_string:26:64 */
  } /* ty=fn (float32) -> float16 */;
  let %x_22: float16 /* ty=float16 span=from_string:27:129 */ = %18(%x_21) /* ty=float16 */;
  %19 = fn (%p017: Tensor[(64, 64, 3, 3), float16] /* ty=Tensor[(64, 64, 3, 3), float16] */, %p15: float16 /* ty=float16 */, Primitive=1) -> Tensor[(64, 64, 3, 3), float16] {
    multiply(%p017, %p15) /* ty=Tensor[(64, 64, 3, 3), float16] span=from_string:27:113 */
  } /* ty=fn (Tensor[(64, 64, 3, 3), float16], float16) -> Tensor[(64, 64, 3, 3), float16] */;
  let %x_23: Tensor[(64, 64, 3, 3), float16] /* ty=Tensor[(64, 64, 3, 3), float16] span=from_string:28:131 */ = %19(%x_20, %x_22) /* ty=Tensor[(64, 64, 3, 3), float16] */;
  %20 = fn (%p018: Tensor[(1, 64, 16, 16), float16] /* ty=Tensor[(1, 64, 16, 16), float16] */, %p16: Tensor[(64, 64, 3, 3), float16] /* ty=Tensor[(64, 64, 3, 3), float16] */, Primitive=1) -> Tensor[(1, 64, 16, 16), float16] {
    nn.conv2d(%p018, %p16, padding=[1, 1, 1, 1], channels=64, kernel_size=[3, 3], out_dtype="float16") /* ty=Tensor[(1, 64, 16, 16), float16] span=from_string:28:114 */
  } /* ty=fn (Tensor[(1, 64, 16, 16), float16], Tensor[(64, 64, 3, 3), float16]) -> Tensor[(1, 64, 16, 16), float16] */;
  let %x_24: Tensor[(1, 64, 16, 16), float16] /* ty=Tensor[(1, 64, 16, 16), float16] span=from_string:31:116 */ = %20(%x_19, %x_23) /* ty=Tensor[(1, 64, 16, 16), float16] */;
  %21 = fn (%p019: Tensor[(1, 64, 16, 16), float16] /* ty=Tensor[(1, 64, 16, 16), float16] */, Primitive=1) -> Tensor[(1, 64, 16, 16), float16] {
    nn.relu(%p019) /* ty=Tensor[(1, 64, 16, 16), float16] span=from_string:29:114 */
  } /* ty=fn (Tensor[(1, 64, 16, 16), float16]) -> Tensor[(1, 64, 16, 16), float16] */;
  let %x_25: Tensor[(1, 64, 16, 16), float16] /* ty=Tensor[(1, 64, 16, 16), float16] span=from_string:54:491 */ = %21(%x_24) /* ty=Tensor[(1, 64, 16, 16), float16] */;
  let %x_26: float32 /* ty=float32 span=from_string:54:498 */ = 0f /* ty=float32 span=from_string:30:66 */;
  %22 = fn (%p020: Tensor[(1, 64, 16, 16), float16] /* ty=Tensor[(1, 64, 16, 16), float16] */, Primitive=1, relay.reshape_only=1) -> Tensor[(64, 16, 16), float16] {
    squeeze(%p020) /* ty=Tensor[(64, 16, 16), float16] span=from_string:31:108 */
  } /* ty=fn (Tensor[(1, 64, 16, 16), float16]) -> Tensor[(64, 16, 16), float16] */;
  let %x_27: Tensor[(64, 16, 16), float16] /* ty=Tensor[(64, 16, 16), float16] span=from_string:41:112 */ = %22(%x_24) /* ty=Tensor[(64, 16, 16), float16] */;
  let %x_28: float32 /* ty=float32 span=from_string:33:69 */ = 1f /* ty=float32 span=from_string:32:66 */;
  %23 = fn (%p021: float32 /* ty=float32 */, Primitive=1) -> float16 {
    cast(%p021, dtype="float16") /* ty=float16 span=from_string:33:64 */
  } /* ty=fn (float32) -> float16 */;
  let %x_29: float16 /* ty=float16 span=from_string:34:119 */ = %23(%x_28) /* ty=float16 */;
  %24 = fn (%p022: Tensor[(64, 16, 16), float16] /* ty=Tensor[(64, 16, 16), float16] */, %p17: float16 /* ty=float16 */, Primitive=1) -> Tensor[(64, 16, 16), float16] {
    add(%p022, %p17) /* ty=Tensor[(64, 16, 16), float16] span=from_string:34:108 */
  } /* ty=fn (Tensor[(64, 16, 16), float16], float16) -> Tensor[(64, 16, 16), float16] */;
  let %x_30: Tensor[(64, 16, 16), float16] /* ty=Tensor[(64, 16, 16), float16] span=from_string:42:237 */ = %24(%x_27, %x_29) /* ty=Tensor[(64, 16, 16), float16] */;
  %25 = fn (%p023: Tensor[(64, 16, 16), float16] /* ty=Tensor[(64, 16, 16), float16] */, Primitive=1, relay.reshape_only=1) -> Tensor[(64, 16, 16), float16] {
    squeeze(%p023) /* ty=Tensor[(64, 16, 16), float16] span=from_string:35:108 */
  } /* ty=fn (Tensor[(64, 16, 16), float16]) -> Tensor[(64, 16, 16), float16] */;
  let %x_31: Tensor[(64, 16, 16), float16] /* ty=Tensor[(64, 16, 16), float16] span=from_string:38:112 */ = %25(%x_27) /* ty=Tensor[(64, 16, 16), float16] */;
  let %x_32: float32 /* ty=float32 span=from_string:37:69 */ = 2f /* ty=float32 span=from_string:36:66 */;
  %26 = fn (%p024: float32 /* ty=float32 */, Primitive=1) -> float16 {
    cast(%p024, dtype="float16") /* ty=float16 span=from_string:37:64 */
  } /* ty=fn (float32) -> float16 */;
  let %x_33: float16 /* ty=float16 span=from_string:38:119 */ = %26(%x_32) /* ty=float16 */;
  %27 = fn (%p025: Tensor[(64, 16, 16), float16] /* ty=Tensor[(64, 16, 16), float16] */, %p18: float16 /* ty=float16 */, Primitive=1) -> Tensor[(64, 16, 16), float16] {
    add(%p025, %p18) /* ty=Tensor[(64, 16, 16), float16] span=from_string:38:108 */
  } /* ty=fn (Tensor[(64, 16, 16), float16], float16) -> Tensor[(64, 16, 16), float16] */;
  let %x_34: Tensor[(64, 16, 16), float16] /* ty=Tensor[(64, 16, 16), float16] span=from_string:42:244 */ = %27(%x_31, %x_33) /* ty=Tensor[(64, 16, 16), float16] */;
  let %x_35: float32 /* ty=float32 span=from_string:40:69 */ = 1f /* ty=float32 span=from_string:39:66 */;
  %28 = fn (%p026: float32 /* ty=float32 */, Primitive=1) -> float16 {
    cast(%p026, dtype="float16") /* ty=float16 span=from_string:40:64 */
  } /* ty=fn (float32) -> float16 */;
  let %x_36: float16 /* ty=float16 span=from_string:41:119 */ = %28(%x_35) /* ty=float16 */;
  %29 = fn (%p027: Tensor[(64, 16, 16), float16] /* ty=Tensor[(64, 16, 16), float16] */, %p19: float16 /* ty=float16 */, Primitive=1) -> Tensor[(64, 16, 16), float16] {
    add(%p027, %p19) /* ty=Tensor[(64, 16, 16), float16] span=from_string:41:108 */
  } /* ty=fn (Tensor[(64, 16, 16), float16], float16) -> Tensor[(64, 16, 16), float16] */;
  let %x_37: Tensor[(64, 16, 16), float16] /* ty=Tensor[(64, 16, 16), float16] span=from_string:42:251 */ = %29(%x_27, %x_36) /* ty=Tensor[(64, 16, 16), float16] */;
  let %x_38: (Tensor[(64, 16, 16), float16], Tensor[(64, 16, 16), float16], Tensor[(64, 16, 16), float16]) /* ty=(Tensor[(64, 16, 16), float16], Tensor[(64, 16, 16), float16], Tensor[(64, 16, 16), float16]) span=from_string:43:120 */ = (%x_30, %x_34, %x_37) /* ty=(Tensor[(64, 16, 16), float16], Tensor[(64, 16, 16), float16], Tensor[(64, 16, 16), float16]) span=from_string:42:236 */;
  %30 = fn (%p028: (Tensor[(64, 16, 16), float16], Tensor[(64, 16, 16), float16], Tensor[(64, 16, 16), float16]) /* ty=(Tensor[(64, 16, 16), float16], Tensor[(64, 16, 16), float16], Tensor[(64, 16, 16), float16]) */, Primitive=1) -> Tensor[(64, 48, 16), float16] {
    concatenate(%p028, axis=1) /* ty=Tensor[(64, 48, 16), float16] span=from_string:43:108 */
  } /* ty=fn ((Tensor[(64, 16, 16), float16], Tensor[(64, 16, 16), float16], Tensor[(64, 16, 16), float16])) -> Tensor[(64, 48, 16), float16] */;
  let %x_39: Tensor[(64, 48, 16), float16] /* ty=Tensor[(64, 48, 16), float16] span=from_string:44:116 */ = %30(%x_38) /* ty=Tensor[(64, 48, 16), float16] */;
  %31 = fn (%p029: Tensor[(64, 48, 16), float16] /* ty=Tensor[(64, 48, 16), float16] */, Primitive=1, relay.reshape_only=1) -> Tensor[(64, 48, 16), float16] {
    squeeze(%p029) /* ty=Tensor[(64, 48, 16), float16] span=from_string:44:108 */
  } /* ty=fn (Tensor[(64, 48, 16), float16]) -> Tensor[(64, 48, 16), float16] */;
  let %x_40: Tensor[(64, 48, 16), float16] /* ty=Tensor[(64, 48, 16), float16] span=from_string:47:112 */ = %31(%x_39) /* ty=Tensor[(64, 48, 16), float16] */;
  let %x_41: float32 /* ty=float32 span=from_string:46:69 */ = 1f /* ty=float32 span=from_string:45:66 */;
  %32 = fn (%p030: float32 /* ty=float32 */, Primitive=1) -> float16 {
    cast(%p030, dtype="float16") /* ty=float16 span=from_string:46:64 */
  } /* ty=fn (float32) -> float16 */;
  let %x_42: float16 /* ty=float16 span=from_string:47:119 */ = %32(%x_41) /* ty=float16 */;
  %33 = fn (%p031: Tensor[(64, 48, 16), float16] /* ty=Tensor[(64, 48, 16), float16] */, %p110: float16 /* ty=float16 */, Primitive=1) -> Tensor[(64, 48, 16), float16] {
    add(%p031, %p110) /* ty=Tensor[(64, 48, 16), float16] span=from_string:47:108 */
  } /* ty=fn (Tensor[(64, 48, 16), float16], float16) -> Tensor[(64, 48, 16), float16] */;
  let %x_43: Tensor[(64, 48, 16), float16] /* ty=Tensor[(64, 48, 16), float16] span=from_string:54:505 */ = %33(%x_40, %x_42) /* ty=Tensor[(64, 48, 16), float16] */;
  %34 = fn (%p032: Tensor[(64, 16, 3, 3), float32] /* ty=Tensor[(64, 16, 3, 3), float32] */, Primitive=1) -> Tensor[(64, 16, 3, 3), float16] {
    cast(%p032, dtype="float16") /* ty=Tensor[(64, 16, 3, 3), float16] span=from_string:48:112 */
  } /* ty=fn (Tensor[(64, 16, 3, 3), float32]) -> Tensor[(64, 16, 3, 3), float16] */;
  let %x_44: Tensor[(64, 16, 3, 3), float16] /* ty=Tensor[(64, 16, 3, 3), float16] span=from_string:51:122 */ = %34(%x3) /* ty=Tensor[(64, 16, 3, 3), float16] */;
  let %x_45: float32 /* ty=float32 span=from_string:50:69 */ = 2f /* ty=float32 span=from_string:49:66 */;
  %35 = fn (%p033: float32 /* ty=float32 */, Primitive=1) -> float16 {
    cast(%p033, dtype="float16") /* ty=float16 span=from_string:50:64 */
  } /* ty=fn (float32) -> float16 */;
  let %x_46: float16 /* ty=float16 span=from_string:51:129 */ = %35(%x_45) /* ty=float16 */;
  %36 = fn (%p034: Tensor[(64, 16, 3, 3), float16] /* ty=Tensor[(64, 16, 3, 3), float16] */, %p111: float16 /* ty=float16 */, Primitive=1) -> Tensor[(64, 16, 3, 3), float16] {
    multiply(%p034, %p111) /* ty=Tensor[(64, 16, 3, 3), float16] span=from_string:51:113 */
  } /* ty=fn (Tensor[(64, 16, 3, 3), float16], float16) -> Tensor[(64, 16, 3, 3), float16] */;
  let %x_47: Tensor[(64, 16, 3, 3), float16] /* ty=Tensor[(64, 16, 3, 3), float16] span=from_string:52:131 */ = %36(%x_44, %x_46) /* ty=Tensor[(64, 16, 3, 3), float16] */;
  %37 = fn (%p035: Tensor[(64, 16, 16, 1), float16] /* ty=Tensor[(64, 16, 16, 1), float16] */, %p112: Tensor[(64, 16, 3, 3), float16] /* ty=Tensor[(64, 16, 3, 3), float16] */, Primitive=1) -> Tensor[(64, 64, 16, 1), float16] {
    nn.conv2d(%p035, %p112, padding=[1, 1, 1, 1], channels=64, kernel_size=[3, 3], out_dtype="float16") /* ty=Tensor[(64, 64, 16, 1), float16] span=from_string:52:114 */
  } /* ty=fn (Tensor[(64, 16, 16, 1), float16], Tensor[(64, 16, 3, 3), float16]) -> Tensor[(64, 64, 16, 1), float16] */;
  let %x_48: Tensor[(64, 64, 16, 1), float16] /* ty=Tensor[(64, 64, 16, 1), float16] span=from_string:53:122 */ = %37(%x_13, %x_47) /* ty=Tensor[(64, 64, 16, 1), float16] */;
  %38 = fn (%p036: Tensor[(64, 64, 16, 1), float16] /* ty=Tensor[(64, 64, 16, 1), float16] */, Primitive=1) -> Tensor[(64, 64, 16, 1), float16] {
    nn.relu(%p036) /* ty=Tensor[(64, 64, 16, 1), float16] span=from_string:53:114 */
  } /* ty=fn (Tensor[(64, 64, 16, 1), float16]) -> Tensor[(64, 64, 16, 1), float16] */;
  let %x_49: Tensor[(64, 64, 16, 1), float16] /* ty=Tensor[(64, 64, 16, 1), float16] span=from_string:54:512 */ = %38(%x_48) /* ty=Tensor[(64, 64, 16, 1), float16] */;
  let %x_50: (Tensor[(1, 64, 16, 16), float16], Tensor[(1, 16, 16, 64), float16], Tensor[(1, 16, 16, 16), float32], Tensor[(1, 64, 16, 16), float16], float32, Tensor[(64, 48, 16), float16], Tensor[(64, 64, 16, 1), float16]) /* ty=(Tensor[(1, 64, 16, 16), float16], Tensor[(1, 16, 16, 64), float16], Tensor[(1, 16, 16, 16), float32], Tensor[(1, 64, 16, 16), float16], float32, Tensor[(64, 48, 16), float16], Tensor[(64, 64, 16, 1), float16]) span=from_string:55:3 */ = (%x_11, %x_14, %x_18, %x_25, %x_26, %x_43, %x_49) /* ty=(Tensor[(1, 64, 16, 16), float16], Tensor[(1, 16, 16, 64), float16], Tensor[(1, 16, 16, 16), float32], Tensor[(1, 64, 16, 16), float16], float32, Tensor[(64, 48, 16), float16], Tensor[(64, 64, 16, 1), float16]) span=from_string:54:469 */;
  %x_50
}
