#[version = "0.0.5"]
def @main(%x0: Tensor[(1, 16, 16, 16), float32] /* ty=Tensor[(1, 16, 16, 16), float32] span=from_string:13:13 */, %x1: Tensor[(64, 16, 3, 3), float32] /* ty=Tensor[(64, 16, 3, 3), float32] span=from_string:3:13 */, %x2: Tensor[(64, 64, 3, 3), float32] /* ty=Tensor[(64, 64, 3, 3), float32] span=from_string:18:14 */, %x3: Tensor[(64, 16, 3, 3), float32] /* ty=Tensor[(64, 16, 3, 3), float32] span=from_string:31:14 */) -> (Tensor[(1, 64, 16, 16), float16], Tensor[(1, 16, 16, 64), float16], Tensor[(1, 16, 16, 16), float16], Tensor[(1, 64, 16, 16), float16], float32, Tensor[(64, 48, 16), float16], Tensor[(64, 64, 16, 1), float16]) {
  let %x_0 = zeros(shape=[1, 16, 16, 16], dtype="float16");
  let %x_1 = cast(%x1, dtype="float16");
  let %x_2 = cast(%x_1, dtype="float16");
  let %x_3 = nn.conv2d(%x_0, %x_2, padding=[1, 1, 1, 1], channels=64, kernel_size=[3, 3], out_dtype="float16");
  let %x_4 = nn.relu(%x_3);
  let %x_5 = 1f16 /* ty=float16 span=from_string:9:20 */;
  let %x_6 = add(%x_4, %x_5);
  let %x_7 = nn.relu(%x_3);
  let %x_8 = 1f16 /* ty=float16 span=from_string:10:20 */;
  let %x_9 = add(%x_7, %x_8);
  let %x_10 = add(%x_6, %x_9);
  let %x_11 = nn.relu(%x_4);
  let %x_12 = transpose(%x_11, axes=[1, 3, 2, 0]);
  let %x_13 = transpose(%x_12, axes=None);
  let %x_14 = exp(%x0);
  let %x_15 = cast(%x_14, dtype="float16");
  let %x_16 = cast(%x_0, dtype="float32");
  let %x_17 = cast(%x_16, dtype="float16");
  let %x_18 = add(%x_15, %x_17);
  let %x_19 = transpose(%x_18, axes=[0, 2, 3, 1]);
  let %x_20 = nn.relu(%x_3);
  let %x_21 = cast(%x2, dtype="float16");
  let %x_22 = cast(%x_21, dtype="float16");
  let %x_23 = 2f16 /* ty=float16 span=from_string:21:28 */;
  let %x_24 = multiply(%x_22, %x_23);
  let %x_25 = nn.conv2d(%x_20, %x_24, padding=[1, 1, 1, 1], channels=64, kernel_size=[3, 3], out_dtype="float16");
  let %x_26 = nn.relu(%x_25);
  let %x_27 = 0f /* ty=float32 span=from_string:41:26 */;
  let %x_28 = squeeze(%x_25);
  let %x_29 = 1f16 /* ty=float16 span=from_string:25:22 */;
  let %x_30 = add(%x_28, %x_29);
  let %x_31 = squeeze(%x_28);
  let %x_32 = 2f16 /* ty=float16 span=from_string:26:22 */;
  let %x_33 = add(%x_31, %x_32);
  let %x_34 = 1f16 /* ty=float16 span=from_string:27:22 */;
  let %x_35 = add(%x_28, %x_34);
  let %x_36 = (%x_30, %x_33, %x_35) /* ty=(Tensor[(64, 16, 16), float16], Tensor[(64, 16, 16), float16], Tensor[(64, 16, 16), float16]) span=from_string:29:21 */;
  let %x_37 = concatenate(%x_36, axis=1);
  let %x_38 = squeeze(%x_37);
  let %x_39 = 1f16 /* ty=float16 span=from_string:39:22 */;
  let %x_40 = add(%x_38, %x_39);
  let %x_41 = cast(%x3, dtype="float16");
  let %x_42 = cast(%x_41, dtype="float16");
  let %x_43 = 2f16 /* ty=float16 span=from_string:33:28 */;
  let %x_44 = multiply(%x_42, %x_43);
  let %x_45 = nn.conv2d(%x_12, %x_44, padding=[1, 1, 1, 1], channels=64, kernel_size=[3, 3], out_dtype="float16");
  let %x_46 = nn.relu(%x_45);
  let %x_47 = (%x_10, %x_13, %x_19, %x_26, %x_27, %x_40, %x_46) /* ty=(Tensor[(1, 64, 16, 16), float16], Tensor[(1, 16, 16, 64), float16], Tensor[(1, 16, 16, 16), float16], Tensor[(1, 64, 16, 16), float16], float32, Tensor[(64, 48, 16), float16], Tensor[(64, 64, 16, 1), float16]) span=from_string:3:3 */;
  %x_47
}
