#[version = "0.0.5"]
def @main(%x0: Tensor[(1, 16, 16, 16), float32] /* ty=Tensor[(1, 16, 16, 16), float32] span=from_string:11:12 */, %x1: Tensor[(64, 16, 3, 3), float32] /* ty=Tensor[(64, 16, 3, 3), float32] span=from_string:4:13 */, %x2: Tensor[(64, 64, 3, 3), float32] /* ty=Tensor[(64, 64, 3, 3), float32] span=from_string:14:14 */, %x3: Tensor[(64, 16, 3, 3), float32] /* ty=Tensor[(64, 16, 3, 3), float32] span=from_string:25:14 */) -> (Tensor[(1, 64, 16, 16), float16], Tensor[(1, 16, 16, 64), float16], Tensor[(1, 16, 16, 16), float32], Tensor[(1, 64, 16, 16), float16], float32, Tensor[(64, 48, 16), float16], Tensor[(64, 64, 16, 1), float16]) {
  %0 = zeros(shape=[1, 16, 16, 16], dtype="float16");
  %1 = cast(%x1, dtype="float16");
  %2 = nn.conv2d(%0, %1, padding=[1, 1, 1, 1], channels=64, kernel_size=[3, 3], out_dtype="float16");
  %3 = nn.relu(%2);
  %4 = add(%3, 1f16 /* ty=float16 span=from_string:7:20 */);
  %5 = add(%3, 1f16 /* ty=float16 span=from_string:8:20 */);
  %6 = nn.relu(%3);
  %7 = transpose(%6, axes=[1, 3, 2, 0]);
  %8 = exp(%x0);
  %9 = cast(%0, dtype="float32");
  %10 = add(%8, %9);
  %11 = cast(%x2, dtype="float16");
  %12 = multiply(%11, 2f16 /* ty=float16 span=from_string:15:28 */);
  %13 = nn.conv2d(%3, %12, padding=[1, 1, 1, 1], channels=64, kernel_size=[3, 3], out_dtype="float16");
  %14 = squeeze(%13);
  %15 = squeeze(%14);
  %16 = add(%14, 1f16 /* ty=float16 span=from_string:19:22 */);
  %17 = add(%15, 2f16 /* ty=float16 span=from_string:20:22 */);
  %18 = add(%14, 1f16 /* ty=float16 span=from_string:21:22 */);
  %19 = (%16, %17, %18) /* ty=(Tensor[(64, 16, 16), float16], Tensor[(64, 16, 16), float16], Tensor[(64, 16, 16), float16]) span=from_string:23:21 */;
  %20 = concatenate(%19, axis=1);
  %21 = squeeze(%20);
  %22 = cast(%x3, dtype="float16");
  %23 = multiply(%22, 2f16 /* ty=float16 span=from_string:26:28 */);
  %24 = nn.conv2d(%7, %23, padding=[1, 1, 1, 1], channels=64, kernel_size=[3, 3], out_dtype="float16");
  %25 = add(%4, %5);
  %26 = transpose(%7, axes=None);
  %27 = transpose(%10, axes=[0, 2, 3, 1]);
  %28 = nn.relu(%13);
  %29 = add(%21, 1f16 /* ty=float16 span=from_string:32:22 */);
  %30 = nn.relu(%24);
  (%25, %26, %27, %28, 0f /* ty=float32 span=from_string:34:26 */, %29, %30) /* ty=(Tensor[(1, 64, 16, 16), float16], Tensor[(1, 16, 16, 64), float16], Tensor[(1, 16, 16, 16), float32], Tensor[(1, 64, 16, 16), float16], float32, Tensor[(64, 48, 16), float16], Tensor[(64, 64, 16, 1), float16]) span=from_string:3:3 */
}
