#[version = "0.0.5"]
def @main(%x0: Tensor[(1, 16, 16, 16), float32] /* ty=Tensor[(1, 16, 16, 16), float32] span=from_string:16:13 */, %x1: Tensor[(64, 16, 3, 3), float32] /* ty=Tensor[(64, 16, 3, 3), float32] span=from_string:3:13 */, %x2: Tensor[(64, 64, 3, 3), float32] /* ty=Tensor[(64, 64, 3, 3), float32] span=from_string:19:14 */, %x3: Tensor[(64, 16, 3, 3), float32] /* ty=Tensor[(64, 16, 3, 3), float32] span=from_string:41:14 */) -> (Tensor[(1, 64, 16, 16), float16], Tensor[(1, 16, 16, 64), float16], Tensor[(1, 16, 16, 16), float32], Tensor[(1, 64, 16, 16), float16], float32, Tensor[(64, 48, 16), float16], Tensor[(64, 64, 16, 1), float16]) {
  %0 = cast(%x1, dtype="float16") /* ty=Tensor[(64, 16, 3, 3), float16] span=from_string:5:13 */;
  %1 = zeros(shape=[1, 16, 16, 16], dtype="float16") /* ty=Tensor[(1, 16, 16, 16), float16] span=from_string:17:14 */;
  %2 = cast(%0, dtype="float16") /* ty=Tensor[(64, 16, 3, 3), float16] span=from_string:6:22 */;
  %3 = nn.conv2d(%1, %2, padding=[1, 1, 1, 1], channels=64, kernel_size=[3, 3], out_dtype="float16") /* ty=Tensor[(1, 64, 16, 16), float16] span=from_string:8:16 */;
  %4 = nn.relu(%3) /* ty=Tensor[(1, 64, 16, 16), float16] span=from_string:24:19 */;
  %5 = add(%4, 1f16 /* ty=float16 */) /* ty=Tensor[(1, 64, 16, 16), float16] span=from_string:47:13 */;
  %6 = add(%4, 1f16 /* ty=float16 */) /* ty=Tensor[(1, 64, 16, 16), float16] span=from_string:47:17 */;
  %7 = nn.relu(%4) /* ty=Tensor[(1, 64, 16, 16), float16] span=from_string:15:19 */;
  %8 = transpose(%7, axes=[1, 3, 2, 0]) /* ty=Tensor[(64, 16, 16, 1), float16] span=from_string:48:19 */;
  %9 = exp(%x0) /* ty=Tensor[(1, 16, 16, 16), float32] span=from_string:18:13 */;
  %10 = cast(%1, dtype="float32") /* ty=Tensor[(1, 16, 16, 16), float32] span=from_string:18:18 */;
  %11 = add(%9, %10) /* ty=Tensor[(1, 16, 16, 16), float32] span=from_string:49:19 */;
  %12 = cast(%x2, dtype="float16") /* ty=Tensor[(64, 64, 3, 3), float16] span=from_string:21:14 */;
  %13 = cast(%12, dtype="float16") /* ty=Tensor[(64, 64, 3, 3), float16] span=from_string:23:19 */;
  %14 = multiply(%13, 2f16 /* ty=float16 */) /* ty=Tensor[(64, 64, 3, 3), float16] span=from_string:24:23 */;
  %15 = nn.conv2d(%4, %14, padding=[1, 1, 1, 1], channels=64, kernel_size=[3, 3], out_dtype="float16") /* ty=Tensor[(1, 64, 16, 16), float16] span=from_string:50:17 */;
  %16 = squeeze(%15) /* ty=Tensor[(64, 16, 16), float16] span=from_string:35:13 */;
  %17 = squeeze(%16) /* ty=Tensor[(64, 16, 16), float16] span=from_string:34:13 */;
  %18 = add(%16, 1f16 /* ty=float16 */) /* ty=Tensor[(64, 16, 16), float16] span=from_string:36:10 */;
  %19 = add(%17, 2f16 /* ty=float16 */) /* ty=Tensor[(64, 16, 16), float16] span=from_string:36:15 */;
  %20 = add(%16, 1f16 /* ty=float16 */) /* ty=Tensor[(64, 16, 16), float16] span=from_string:36:20 */;
  %21 = (%18, %19, %20) /* ty=(Tensor[(64, 16, 16), float16], Tensor[(64, 16, 16), float16], Tensor[(64, 16, 16), float16]) span=from_string:37:21 */;
  %22 = concatenate(%21, axis=1) /* ty=Tensor[(64, 48, 16), float16] span=from_string:39:17 */;
  %23 = squeeze(%22) /* ty=Tensor[(64, 48, 16), float16] span=from_string:51:13 */;
  %24 = cast(%x3, dtype="float16") /* ty=Tensor[(64, 16, 3, 3), float16] span=from_string:43:14 */;
  %25 = cast(%24, dtype="float16") /* ty=Tensor[(64, 16, 3, 3), float16] span=from_string:45:19 */;
  %26 = multiply(%25, 2f16 /* ty=float16 */) /* ty=Tensor[(64, 16, 3, 3), float16] span=from_string:46:24 */;
  %27 = nn.conv2d(%8, %26, padding=[1, 1, 1, 1], channels=64, kernel_size=[3, 3], out_dtype="float16") /* ty=Tensor[(64, 64, 16, 1), float16] span=from_string:52:17 */;
  %28 = add(%5, %6) /* ty=Tensor[(1, 64, 16, 16), float16] span=from_string:53:4 */;
  %29 = transpose(%8, axes=None) /* ty=Tensor[(1, 16, 16, 64), float16] span=from_string:53:9 */;
  %30 = transpose(%11, axes=[0, 2, 3, 1]) /* ty=Tensor[(1, 16, 16, 16), float32] span=from_string:53:14 */;
  %31 = nn.relu(%15) /* ty=Tensor[(1, 64, 16, 16), float16] span=from_string:53:19 */;
  %32 = add(%23, 1f16 /* ty=float16 */) /* ty=Tensor[(64, 48, 16), float16] span=from_string:53:68 */;
  %33 = nn.relu(%27) /* ty=Tensor[(64, 64, 16, 1), float16] span=from_string:53:73 */;
  (%28, %29, %30, %31, 0f /* ty=float32 span=from_string:53:26 */, %32, %33) /* ty=(Tensor[(1, 64, 16, 16), float16], Tensor[(1, 16, 16, 64), float16], Tensor[(1, 16, 16, 16), float32], Tensor[(1, 64, 16, 16), float16], float32, Tensor[(64, 48, 16), float16], Tensor[(64, 64, 16, 1), float16]) span=from_string:3:3 */
}
