#[version = "0.0.5"]
def @main(%x0: Tensor[(1, 16, 16, 16), float32] /* ty=Tensor[(1, 16, 16, 16), float32] span=from_string:56:119 */, %x1: Tensor[(64, 16, 3, 3), float32] /* ty=Tensor[(64, 16, 3, 3), float32] span=from_string:10:115 */, %x2: Tensor[(64, 64, 3, 3), float32] /* ty=Tensor[(64, 64, 3, 3), float32] span=from_string:73:117 */, %x3: Tensor[(64, 16, 3, 3), float32] /* ty=Tensor[(64, 16, 3, 3), float32] span=from_string:142:118 */) -> (Tensor[(1, 64, 16, 16), float16], Tensor[(1, 16, 16, 64), float16], Tensor[(1, 16, 16, 16), float32], Tensor[(1, 64, 16, 16), float16], float32, Tensor[(64, 48, 16), float16], Tensor[(64, 64, 16, 1), float16]) {
  %0 = fn (Primitive=1) -> Tensor[(1, 16, 16, 16), float16] {
    zeros(shape=[1, 16, 16, 16], dtype="float16") /* ty=Tensor[(1, 16, 16, 16), float16] span=from_string:4:5 */
  } /* ty=fn () -> Tensor[(1, 16, 16, 16), float16] span=from_string:6:114 */;
  let %x_0: Tensor[(1, 16, 16, 16), float16] /* ty=Tensor[(1, 16, 16, 16), float16] span=from_string:60:119 */ = %0() /* ty=Tensor[(1, 16, 16, 16), float16] span=from_string:6:114 */;
  %1 = fn (%p0: Tensor[(64, 16, 3, 3), float32] /* ty=Tensor[(64, 16, 3, 3), float32] span=from_string:8:10 */, Primitive=1) -> Tensor[(64, 16, 3, 3), float16] {
    cast(%p0, dtype="float16") /* ty=Tensor[(64, 16, 3, 3), float16] span=from_string:8:5 */
  } /* ty=fn (Tensor[(64, 16, 3, 3), float32]) -> Tensor[(64, 16, 3, 3), float16] span=from_string:10:112 */;
  let %x_1: Tensor[(64, 16, 3, 3), float16] /* ty=Tensor[(64, 16, 3, 3), float16] span=from_string:14:122 */ = %1(%x1) /* ty=Tensor[(64, 16, 3, 3), float16] span=from_string:10:112 */;
  %2 = fn (%p01: Tensor[(1, 16, 16, 16), float16] /* ty=Tensor[(1, 16, 16, 16), float16] span=from_string:12:15 */, %p1: Tensor[(64, 16, 3, 3), float16] /* ty=Tensor[(64, 16, 3, 3), float16] span=from_string:12:21 */, Primitive=1) -> Tensor[(1, 64, 16, 16), float16] {
    nn.conv2d(%p01, %p1, padding=[1, 1, 1, 1], channels=64, kernel_size=[3, 3], out_dtype="float16") /* ty=Tensor[(1, 64, 16, 16), float16] span=from_string:12:5 */
  } /* ty=fn (Tensor[(1, 16, 16, 16), float16], Tensor[(64, 16, 3, 3), float16]) -> Tensor[(1, 64, 16, 16), float16] span=from_string:14:113 */;
  let %x_2: Tensor[(1, 64, 16, 16), float16] /* ty=Tensor[(1, 64, 16, 16), float16] span=from_string:18:11 */ = %2(%x_0, %x_1) /* ty=Tensor[(1, 64, 16, 16), float16] span=from_string:14:113 */;
  %3 = fn (%p02: Tensor[(1, 64, 16, 16), float16] /* ty=Tensor[(1, 64, 16, 16), float16] span=from_string:16:13 */, Primitive=1) -> Tensor[(1, 64, 16, 16), float16] {
    nn.relu(%p02) /* ty=Tensor[(1, 64, 16, 16), float16] span=from_string:16:5 */
  } /* ty=fn (Tensor[(1, 64, 16, 16), float16]) -> Tensor[(1, 64, 16, 16), float16] span=from_string:18:8 */;
  %4 = %3(%x_2) /* ty=Tensor[(1, 64, 16, 16), float16] span=from_string:69:115 */;
  let %x_3: Tensor[(1, 64, 16, 16), float16] /* ty=Tensor[(1, 64, 16, 16), float16] span=from_string:44:119 */ = %4;
  %5 = fn (%p03: float32 /* ty=float32 span=from_string:21:10 */, Primitive=1) -> float16 {
    cast(%p03, dtype="float16") /* ty=float16 span=from_string:21:5 */
  } /* ty=fn (float32) -> float16 span=from_string:23:64 */;
  let %x_5: float16 /* ty=float16 span=from_string:27:123 */ = %5(1f /* ty=float32 span=from_string:23:69 */) /* ty=float16 span=from_string:23:64 */;
  %6 = fn (%p04: Tensor[(1, 64, 16, 16), float16] /* ty=Tensor[(1, 64, 16, 16), float16] span=from_string:25:9 */, %p11: float16 /* ty=float16 span=from_string:25:15 */, Primitive=1) -> Tensor[(1, 64, 16, 16), float16] {
    add(%p04, %p11) /* ty=Tensor[(1, 64, 16, 16), float16] span=from_string:25:5 */
  } /* ty=fn (Tensor[(1, 64, 16, 16), float16], float16) -> Tensor[(1, 64, 16, 16), float16] span=from_string:27:114 */;
  let %x_6: Tensor[(1, 64, 16, 16), float16] /* ty=Tensor[(1, 64, 16, 16), float16] span=from_string:40:119 */ = %6(%x_3, %x_5) /* ty=Tensor[(1, 64, 16, 16), float16] span=from_string:27:114 */;
  let %x_7: Tensor[(1, 64, 16, 16), float16] /* ty=Tensor[(1, 64, 16, 16), float16] span=from_string:36:118 */ = %4;
  %7 = fn (%p05: float32 /* ty=float32 span=from_string:30:10 */, Primitive=1) -> float16 {
    cast(%p05, dtype="float16") /* ty=float16 span=from_string:30:5 */
  } /* ty=fn (float32) -> float16 span=from_string:32:64 */;
  let %x_9: float16 /* ty=float16 span=from_string:36:124 */ = %7(1f /* ty=float32 span=from_string:32:69 */) /* ty=float16 span=from_string:32:64 */;
  %8 = fn (%p06: Tensor[(1, 64, 16, 16), float16] /* ty=Tensor[(1, 64, 16, 16), float16] span=from_string:34:9 */, %p12: float16 /* ty=float16 span=from_string:34:15 */, Primitive=1) -> Tensor[(1, 64, 16, 16), float16] {
    add(%p06, %p12) /* ty=Tensor[(1, 64, 16, 16), float16] span=from_string:34:5 */
  } /* ty=fn (Tensor[(1, 64, 16, 16), float16], float16) -> Tensor[(1, 64, 16, 16), float16] span=from_string:36:115 */;
  let %x_10: Tensor[(1, 64, 16, 16), float16] /* ty=Tensor[(1, 64, 16, 16), float16] span=from_string:40:125 */ = %8(%x_7, %x_9) /* ty=Tensor[(1, 64, 16, 16), float16] span=from_string:36:115 */;
  %9 = fn (%p07: Tensor[(1, 64, 16, 16), float16] /* ty=Tensor[(1, 64, 16, 16), float16] span=from_string:38:9 */, %p13: Tensor[(1, 64, 16, 16), float16] /* ty=Tensor[(1, 64, 16, 16), float16] span=from_string:38:15 */, Primitive=1) -> Tensor[(1, 64, 16, 16), float16] {
    add(%p07, %p13) /* ty=Tensor[(1, 64, 16, 16), float16] span=from_string:38:5 */
  } /* ty=fn (Tensor[(1, 64, 16, 16), float16], Tensor[(1, 64, 16, 16), float16]) -> Tensor[(1, 64, 16, 16), float16] span=from_string:40:116 */;
  let %x_11: Tensor[(1, 64, 16, 16), float16] /* ty=Tensor[(1, 64, 16, 16), float16] span=from_string:159:471 */ = %9(%x_6, %x_10) /* ty=Tensor[(1, 64, 16, 16), float16] span=from_string:40:116 */;
  %10 = fn (%p08: Tensor[(1, 64, 16, 16), float16] /* ty=Tensor[(1, 64, 16, 16), float16] span=from_string:42:13 */, Primitive=1) -> Tensor[(1, 64, 16, 16), float16] {
    nn.relu(%p08) /* ty=Tensor[(1, 64, 16, 16), float16] span=from_string:42:5 */
  } /* ty=fn (Tensor[(1, 64, 16, 16), float16]) -> Tensor[(1, 64, 16, 16), float16] span=from_string:44:115 */;
  let %x_12: Tensor[(1, 64, 16, 16), float16] /* ty=Tensor[(1, 64, 16, 16), float16] span=from_string:48:120 */ = %10(%x_3) /* ty=Tensor[(1, 64, 16, 16), float16] span=from_string:44:115 */;
  %11 = fn (%p09: Tensor[(1, 64, 16, 16), float16] /* ty=Tensor[(1, 64, 16, 16), float16] span=from_string:46:15 */, Primitive=1) -> Tensor[(64, 16, 16, 1), float16] {
    transpose(%p09, axes=[1, 3, 2, 0]) /* ty=Tensor[(64, 16, 16, 1), float16] span=from_string:46:5 */
  } /* ty=fn (Tensor[(1, 64, 16, 16), float16]) -> Tensor[(64, 16, 16, 1), float16] span=from_string:48:116 */;
  let %x_13: Tensor[(64, 16, 16, 1), float16] /* ty=Tensor[(64, 16, 16, 1), float16] span=from_string:154:120 */ = %11(%x_12) /* ty=Tensor[(64, 16, 16, 1), float16] span=from_string:48:116 */;
  %12 = fn (%p010: Tensor[(64, 16, 16, 1), float16] /* ty=Tensor[(64, 16, 16, 1), float16] span=from_string:50:15 */, Primitive=1) -> Tensor[(1, 16, 16, 64), float16] {
    transpose(%p010, axes=None) /* ty=Tensor[(1, 16, 16, 64), float16] span=from_string:50:5 */
  } /* ty=fn (Tensor[(64, 16, 16, 1), float16]) -> Tensor[(1, 16, 16, 64), float16] span=from_string:52:116 */;
  let %x_14: Tensor[(1, 16, 16, 64), float16] /* ty=Tensor[(1, 16, 16, 64), float16] span=from_string:159:478 */ = %12(%x_13) /* ty=Tensor[(1, 16, 16, 64), float16] span=from_string:52:116 */;
  %13 = fn (%p011: Tensor[(1, 16, 16, 16), float32] /* ty=Tensor[(1, 16, 16, 16), float32] span=from_string:54:9 */, Primitive=1) -> Tensor[(1, 16, 16, 16), float32] {
    exp(%p011) /* ty=Tensor[(1, 16, 16, 16), float32] span=from_string:54:5 */
  } /* ty=fn (Tensor[(1, 16, 16, 16), float32]) -> Tensor[(1, 16, 16, 16), float32] span=from_string:56:115 */;
  let %x_15: Tensor[(1, 16, 16, 16), float32] /* ty=Tensor[(1, 16, 16, 16), float32] span=from_string:64:119 */ = %13(%x0) /* ty=Tensor[(1, 16, 16, 16), float32] span=from_string:56:115 */;
  %14 = fn (%p012: Tensor[(1, 16, 16, 16), float16] /* ty=Tensor[(1, 16, 16, 16), float16] span=from_string:58:10 */, Primitive=1) -> Tensor[(1, 16, 16, 16), float32] {
    cast(%p012, dtype="float32") /* ty=Tensor[(1, 16, 16, 16), float32] span=from_string:58:5 */
  } /* ty=fn (Tensor[(1, 16, 16, 16), float16]) -> Tensor[(1, 16, 16, 16), float32] span=from_string:60:115 */;
  let %x_16: Tensor[(1, 16, 16, 16), float32] /* ty=Tensor[(1, 16, 16, 16), float32] span=from_string:64:126 */ = %14(%x_0) /* ty=Tensor[(1, 16, 16, 16), float32] span=from_string:60:115 */;
  %15 = fn (%p013: Tensor[(1, 16, 16, 16), float32] /* ty=Tensor[(1, 16, 16, 16), float32] span=from_string:62:9 */, %p14: Tensor[(1, 16, 16, 16), float32] /* ty=Tensor[(1, 16, 16, 16), float32] span=from_string:62:16 */, Primitive=1) -> Tensor[(1, 16, 16, 16), float32] {
    add(%p013, %p14) /* ty=Tensor[(1, 16, 16, 16), float32] span=from_string:62:5 */
  } /* ty=fn (Tensor[(1, 16, 16, 16), float32], Tensor[(1, 16, 16, 16), float32]) -> Tensor[(1, 16, 16, 16), float32] span=from_string:64:115 */;
  let %x_17: Tensor[(1, 16, 16, 16), float32] /* ty=Tensor[(1, 16, 16, 16), float32] span=from_string:68:120 */ = %15(%x_15, %x_16) /* ty=Tensor[(1, 16, 16, 16), float32] span=from_string:64:115 */;
  %16 = fn (%p014: Tensor[(1, 16, 16, 16), float32] /* ty=Tensor[(1, 16, 16, 16), float32] span=from_string:66:15 */, Primitive=1) -> Tensor[(1, 16, 16, 16), float32] {
    transpose(%p014, axes=[0, 2, 3, 1]) /* ty=Tensor[(1, 16, 16, 16), float32] span=from_string:66:5 */
  } /* ty=fn (Tensor[(1, 16, 16, 16), float32]) -> Tensor[(1, 16, 16, 16), float32] span=from_string:68:116 */;
  let %x_18: Tensor[(1, 16, 16, 16), float32] /* ty=Tensor[(1, 16, 16, 16), float32] span=from_string:159:485 */ = %16(%x_17) /* ty=Tensor[(1, 16, 16, 16), float32] span=from_string:68:116 */;
  let %x_19: Tensor[(1, 64, 16, 16), float16] /* ty=Tensor[(1, 64, 16, 16), float16] span=from_string:85:119 */ = %4;
  %17 = fn (%p015: Tensor[(64, 64, 3, 3), float32] /* ty=Tensor[(64, 64, 3, 3), float32] span=from_string:71:10 */, Primitive=1) -> Tensor[(64, 64, 3, 3), float16] {
    cast(%p015, dtype="float16") /* ty=Tensor[(64, 64, 3, 3), float16] span=from_string:71:5 */
  } /* ty=fn (Tensor[(64, 64, 3, 3), float32]) -> Tensor[(64, 64, 3, 3), float16] span=from_string:73:113 */;
  let %x_20: Tensor[(64, 64, 3, 3), float16] /* ty=Tensor[(64, 64, 3, 3), float16] span=from_string:81:117 */ = %17(%x2) /* ty=Tensor[(64, 64, 3, 3), float16] span=from_string:73:113 */;
  %18 = fn (%p016: float32 /* ty=float32 span=from_string:75:10 */, Primitive=1) -> float16 {
    cast(%p016, dtype="float16") /* ty=float16 span=from_string:75:5 */
  } /* ty=fn (float32) -> float16 span=from_string:77:65 */;
  let %x_22: float16 /* ty=float16 span=from_string:81:124 */ = %18(2f /* ty=float32 span=from_string:77:71 */) /* ty=float16 span=from_string:77:65 */;
  %19 = fn (%p017: Tensor[(64, 64, 3, 3), float16] /* ty=Tensor[(64, 64, 3, 3), float16] span=from_string:79:15 */, %p15: float16 /* ty=float16 span=from_string:79:22 */, Primitive=1) -> Tensor[(64, 64, 3, 3), float16] {
    multiply(%p017, %p15) /* ty=Tensor[(64, 64, 3, 3), float16] span=from_string:79:6 */
  } /* ty=fn (Tensor[(64, 64, 3, 3), float16], float16) -> Tensor[(64, 64, 3, 3), float16] span=from_string:81:113 */;
  let %x_23: Tensor[(64, 64, 3, 3), float16] /* ty=Tensor[(64, 64, 3, 3), float16] span=from_string:85:126 */ = %19(%x_20, %x_22) /* ty=Tensor[(64, 64, 3, 3), float16] span=from_string:81:113 */;
  %20 = fn (%p018: Tensor[(1, 64, 16, 16), float16] /* ty=Tensor[(1, 64, 16, 16), float16] span=from_string:83:15 */, %p16: Tensor[(64, 64, 3, 3), float16] /* ty=Tensor[(64, 64, 3, 3), float16] span=from_string:83:22 */, Primitive=1) -> Tensor[(1, 64, 16, 16), float16] {
    nn.conv2d(%p018, %p16, padding=[1, 1, 1, 1], channels=64, kernel_size=[3, 3], out_dtype="float16") /* ty=Tensor[(1, 64, 16, 16), float16] span=from_string:83:5 */
  } /* ty=fn (Tensor[(1, 64, 16, 16), float16], Tensor[(64, 64, 3, 3), float16]) -> Tensor[(1, 64, 16, 16), float16] span=from_string:85:115 */;
  let %x_24: Tensor[(1, 64, 16, 16), float16] /* ty=Tensor[(1, 64, 16, 16), float16] span=from_string:93:114 */ = %20(%x_19, %x_23) /* ty=Tensor[(1, 64, 16, 16), float16] span=from_string:85:115 */;
  %21 = fn (%p019: Tensor[(1, 64, 16, 16), float16] /* ty=Tensor[(1, 64, 16, 16), float16] span=from_string:87:13 */, Primitive=1) -> Tensor[(1, 64, 16, 16), float16] {
    nn.relu(%p019) /* ty=Tensor[(1, 64, 16, 16), float16] span=from_string:87:5 */
  } /* ty=fn (Tensor[(1, 64, 16, 16), float16]) -> Tensor[(1, 64, 16, 16), float16] span=from_string:89:116 */;
  let %x_25: Tensor[(1, 64, 16, 16), float16] /* ty=Tensor[(1, 64, 16, 16), float16] span=from_string:159:492 */ = %21(%x_24) /* ty=Tensor[(1, 64, 16, 16), float16] span=from_string:89:116 */;
  %22 = fn (%p020: Tensor[(1, 64, 16, 16), float16] /* ty=Tensor[(1, 64, 16, 16), float16] span=from_string:91:13 */, Primitive=1, relay.reshape_only=1) -> Tensor[(64, 16, 16), float16] {
    squeeze(%p020) /* ty=Tensor[(64, 16, 16), float16] span=from_string:91:5 */
  } /* ty=fn (Tensor[(1, 64, 16, 16), float16]) -> Tensor[(64, 16, 16), float16] span=from_string:93:110 */;
  let %x_27: Tensor[(64, 16, 16), float16] /* ty=Tensor[(64, 16, 16), float16] span=from_string:121:114 */ = %22(%x_24) /* ty=Tensor[(64, 16, 16), float16] span=from_string:93:110 */;
  %23 = fn (%p021: float32 /* ty=float32 span=from_string:95:10 */, Primitive=1) -> float16 {
    cast(%p021, dtype="float16") /* ty=float16 span=from_string:95:5 */
  } /* ty=fn (float32) -> float16 span=from_string:97:66 */;
  let %x_29: float16 /* ty=float16 span=from_string:101:121 */ = %23(1f /* ty=float32 span=from_string:97:72 */) /* ty=float16 span=from_string:97:66 */;
  %24 = fn (%p022: Tensor[(64, 16, 16), float16] /* ty=Tensor[(64, 16, 16), float16] span=from_string:99:9 */, %p17: float16 /* ty=float16 span=from_string:99:16 */, Primitive=1) -> Tensor[(64, 16, 16), float16] {
    add(%p022, %p17) /* ty=Tensor[(64, 16, 16), float16] span=from_string:99:5 */
  } /* ty=fn (Tensor[(64, 16, 16), float16], float16) -> Tensor[(64, 16, 16), float16] span=from_string:101:110 */;
  let %x_30: Tensor[(64, 16, 16), float16] /* ty=Tensor[(64, 16, 16), float16] span=from_string:122:239 */ = %24(%x_27, %x_29) /* ty=Tensor[(64, 16, 16), float16] span=from_string:101:110 */;
  %25 = fn (%p023: Tensor[(64, 16, 16), float16] /* ty=Tensor[(64, 16, 16), float16] span=from_string:103:13 */, Primitive=1, relay.reshape_only=1) -> Tensor[(64, 16, 16), float16] {
    squeeze(%p023) /* ty=Tensor[(64, 16, 16), float16] span=from_string:103:5 */
  } /* ty=fn (Tensor[(64, 16, 16), float16]) -> Tensor[(64, 16, 16), float16] span=from_string:105:110 */;
  let %x_31: Tensor[(64, 16, 16), float16] /* ty=Tensor[(64, 16, 16), float16] span=from_string:113:114 */ = %25(%x_27) /* ty=Tensor[(64, 16, 16), float16] span=from_string:105:110 */;
  %26 = fn (%p024: float32 /* ty=float32 span=from_string:107:10 */, Primitive=1) -> float16 {
    cast(%p024, dtype="float16") /* ty=float16 span=from_string:107:5 */
  } /* ty=fn (float32) -> float16 span=from_string:109:66 */;
  let %x_33: float16 /* ty=float16 span=from_string:113:121 */ = %26(2f /* ty=float32 span=from_string:109:72 */) /* ty=float16 span=from_string:109:66 */;
  %27 = fn (%p025: Tensor[(64, 16, 16), float16] /* ty=Tensor[(64, 16, 16), float16] span=from_string:111:9 */, %p18: float16 /* ty=float16 span=from_string:111:16 */, Primitive=1) -> Tensor[(64, 16, 16), float16] {
    add(%p025, %p18) /* ty=Tensor[(64, 16, 16), float16] span=from_string:111:5 */
  } /* ty=fn (Tensor[(64, 16, 16), float16], float16) -> Tensor[(64, 16, 16), float16] span=from_string:113:110 */;
  let %x_34: Tensor[(64, 16, 16), float16] /* ty=Tensor[(64, 16, 16), float16] span=from_string:122:246 */ = %27(%x_31, %x_33) /* ty=Tensor[(64, 16, 16), float16] span=from_string:113:110 */;
  %28 = fn (%p026: float32 /* ty=float32 span=from_string:115:10 */, Primitive=1) -> float16 {
    cast(%p026, dtype="float16") /* ty=float16 span=from_string:115:5 */
  } /* ty=fn (float32) -> float16 span=from_string:117:66 */;
  let %x_36: float16 /* ty=float16 span=from_string:121:121 */ = %28(1f /* ty=float32 span=from_string:117:72 */) /* ty=float16 span=from_string:117:66 */;
  %29 = fn (%p027: Tensor[(64, 16, 16), float16] /* ty=Tensor[(64, 16, 16), float16] span=from_string:119:9 */, %p19: float16 /* ty=float16 span=from_string:119:16 */, Primitive=1) -> Tensor[(64, 16, 16), float16] {
    add(%p027, %p19) /* ty=Tensor[(64, 16, 16), float16] span=from_string:119:5 */
  } /* ty=fn (Tensor[(64, 16, 16), float16], float16) -> Tensor[(64, 16, 16), float16] span=from_string:121:110 */;
  let %x_37: Tensor[(64, 16, 16), float16] /* ty=Tensor[(64, 16, 16), float16] span=from_string:122:253 */ = %29(%x_27, %x_36) /* ty=Tensor[(64, 16, 16), float16] span=from_string:121:110 */;
  let %x_38: (Tensor[(64, 16, 16), float16], Tensor[(64, 16, 16), float16], Tensor[(64, 16, 16), float16]) /* ty=(Tensor[(64, 16, 16), float16], Tensor[(64, 16, 16), float16], Tensor[(64, 16, 16), float16]) span=from_string:126:114 */ = (%x_30, %x_34, %x_37) /* ty=(Tensor[(64, 16, 16), float16], Tensor[(64, 16, 16), float16], Tensor[(64, 16, 16), float16]) span=from_string:122:238 */;
  %30 = fn (%p028: (Tensor[(64, 16, 16), float16], Tensor[(64, 16, 16), float16], Tensor[(64, 16, 16), float16]) /* ty=(Tensor[(64, 16, 16), float16], Tensor[(64, 16, 16), float16], Tensor[(64, 16, 16), float16]) span=from_string:124:17 */, Primitive=1) -> Tensor[(64, 48, 16), float16] {
    concatenate(%p028, axis=1) /* ty=Tensor[(64, 48, 16), float16] span=from_string:124:5 */
  } /* ty=fn ((Tensor[(64, 16, 16), float16], Tensor[(64, 16, 16), float16], Tensor[(64, 16, 16), float16])) -> Tensor[(64, 48, 16), float16] span=from_string:126:110 */;
  let %x_39: Tensor[(64, 48, 16), float16] /* ty=Tensor[(64, 48, 16), float16] span=from_string:130:114 */ = %30(%x_38) /* ty=Tensor[(64, 48, 16), float16] span=from_string:126:110 */;
  %31 = fn (%p029: Tensor[(64, 48, 16), float16] /* ty=Tensor[(64, 48, 16), float16] span=from_string:128:13 */, Primitive=1, relay.reshape_only=1) -> Tensor[(64, 48, 16), float16] {
    squeeze(%p029) /* ty=Tensor[(64, 48, 16), float16] span=from_string:128:5 */
  } /* ty=fn (Tensor[(64, 48, 16), float16]) -> Tensor[(64, 48, 16), float16] span=from_string:130:110 */;
  let %x_40: Tensor[(64, 48, 16), float16] /* ty=Tensor[(64, 48, 16), float16] span=from_string:138:114 */ = %31(%x_39) /* ty=Tensor[(64, 48, 16), float16] span=from_string:130:110 */;
  %32 = fn (%p030: float32 /* ty=float32 span=from_string:132:10 */, Primitive=1) -> float16 {
    cast(%p030, dtype="float16") /* ty=float16 span=from_string:132:5 */
  } /* ty=fn (float32) -> float16 span=from_string:134:66 */;
  let %x_42: float16 /* ty=float16 span=from_string:138:121 */ = %32(1f /* ty=float32 span=from_string:134:72 */) /* ty=float16 span=from_string:134:66 */;
  %33 = fn (%p031: Tensor[(64, 48, 16), float16] /* ty=Tensor[(64, 48, 16), float16] span=from_string:136:9 */, %p110: float16 /* ty=float16 span=from_string:136:16 */, Primitive=1) -> Tensor[(64, 48, 16), float16] {
    add(%p031, %p110) /* ty=Tensor[(64, 48, 16), float16] span=from_string:136:5 */
  } /* ty=fn (Tensor[(64, 48, 16), float16], float16) -> Tensor[(64, 48, 16), float16] span=from_string:138:110 */;
  let %x_43: Tensor[(64, 48, 16), float16] /* ty=Tensor[(64, 48, 16), float16] span=from_string:159:543 */ = %33(%x_40, %x_42) /* ty=Tensor[(64, 48, 16), float16] span=from_string:138:110 */;
  %34 = fn (%p032: Tensor[(64, 16, 3, 3), float32] /* ty=Tensor[(64, 16, 3, 3), float32] span=from_string:140:10 */, Primitive=1) -> Tensor[(64, 16, 3, 3), float16] {
    cast(%p032, dtype="float16") /* ty=Tensor[(64, 16, 3, 3), float16] span=from_string:140:5 */
  } /* ty=fn (Tensor[(64, 16, 3, 3), float32]) -> Tensor[(64, 16, 3, 3), float16] span=from_string:142:114 */;
  let %x_44: Tensor[(64, 16, 3, 3), float16] /* ty=Tensor[(64, 16, 3, 3), float16] span=from_string:150:118 */ = %34(%x3) /* ty=Tensor[(64, 16, 3, 3), float16] span=from_string:142:114 */;
  %35 = fn (%p033: float32 /* ty=float32 span=from_string:144:10 */, Primitive=1) -> float16 {
    cast(%p033, dtype="float16") /* ty=float16 span=from_string:144:5 */
  } /* ty=fn (float32) -> float16 span=from_string:146:66 */;
  let %x_46: float16 /* ty=float16 span=from_string:150:125 */ = %35(2f /* ty=float32 span=from_string:146:72 */) /* ty=float16 span=from_string:146:66 */;
  %36 = fn (%p034: Tensor[(64, 16, 3, 3), float16] /* ty=Tensor[(64, 16, 3, 3), float16] span=from_string:148:15 */, %p111: float16 /* ty=float16 span=from_string:148:22 */, Primitive=1) -> Tensor[(64, 16, 3, 3), float16] {
    multiply(%p034, %p111) /* ty=Tensor[(64, 16, 3, 3), float16] span=from_string:148:6 */
  } /* ty=fn (Tensor[(64, 16, 3, 3), float16], float16) -> Tensor[(64, 16, 3, 3), float16] span=from_string:150:114 */;
  let %x_47: Tensor[(64, 16, 3, 3), float16] /* ty=Tensor[(64, 16, 3, 3), float16] span=from_string:154:127 */ = %36(%x_44, %x_46) /* ty=Tensor[(64, 16, 3, 3), float16] span=from_string:150:114 */;
  %37 = fn (%p035: Tensor[(64, 16, 16, 1), float16] /* ty=Tensor[(64, 16, 16, 1), float16] span=from_string:152:15 */, %p112: Tensor[(64, 16, 3, 3), float16] /* ty=Tensor[(64, 16, 3, 3), float16] span=from_string:152:22 */, Primitive=1) -> Tensor[(64, 64, 16, 1), float16] {
    nn.conv2d(%p035, %p112, padding=[1, 1, 1, 1], channels=64, kernel_size=[3, 3], out_dtype="float16") /* ty=Tensor[(64, 64, 16, 1), float16] span=from_string:152:5 */
  } /* ty=fn (Tensor[(64, 16, 16, 1), float16], Tensor[(64, 16, 3, 3), float16]) -> Tensor[(64, 64, 16, 1), float16] span=from_string:154:116 */;
  let %x_48: Tensor[(64, 64, 16, 1), float16] /* ty=Tensor[(64, 64, 16, 1), float16] span=from_string:158:120 */ = %37(%x_13, %x_47) /* ty=Tensor[(64, 64, 16, 1), float16] span=from_string:154:116 */;
  %38 = fn (%p036: Tensor[(64, 64, 16, 1), float16] /* ty=Tensor[(64, 64, 16, 1), float16] span=from_string:156:13 */, Primitive=1) -> Tensor[(64, 64, 16, 1), float16] {
    nn.relu(%p036) /* ty=Tensor[(64, 64, 16, 1), float16] span=from_string:156:5 */
  } /* ty=fn (Tensor[(64, 64, 16, 1), float16]) -> Tensor[(64, 64, 16, 1), float16] span=from_string:158:116 */;
  let %x_49: Tensor[(64, 64, 16, 1), float16] /* ty=Tensor[(64, 64, 16, 1), float16] span=from_string:159:550 */ = %38(%x_48) /* ty=Tensor[(64, 64, 16, 1), float16] span=from_string:158:116 */;
  let %x_50: (Tensor[(1, 64, 16, 16), float16], Tensor[(1, 16, 16, 64), float16], Tensor[(1, 16, 16, 16), float32], Tensor[(1, 64, 16, 16), float16], float32, Tensor[(64, 48, 16), float16], Tensor[(64, 64, 16, 1), float16]) /* ty=(Tensor[(1, 64, 16, 16), float16], Tensor[(1, 16, 16, 64), float16], Tensor[(1, 16, 16, 16), float32], Tensor[(1, 64, 16, 16), float16], float32, Tensor[(64, 48, 16), float16], Tensor[(64, 64, 16, 1), float16]) span=from_string:160:3 */ = (%x_11, %x_14, %x_18, %x_25, 0f /* ty=float32 span=from_string:159:501 */, %x_43, %x_49) /* ty=(Tensor[(1, 64, 16, 16), float16], Tensor[(1, 16, 16, 64), float16], Tensor[(1, 16, 16, 16), float32], Tensor[(1, 64, 16, 16), float16], float32, Tensor[(64, 48, 16), float16], Tensor[(64, 64, 16, 1), float16]) span=from_string:159:470 */;
  %x_50
}
