#[version = "0.0.5"]
def @main(%x0: Tensor[(1, 16, 16, 16), float32] /* ty=Tensor[(1, 16, 16, 16), float32] span=from_string:7:11 */, %x1: Tensor[(64, 16, 3, 3), float32] /* ty=Tensor[(64, 16, 3, 3), float32] span=from_string:15:12 */, %x2: Tensor[(64, 64, 3, 3), float32] /* ty=Tensor[(64, 64, 3, 3), float32] span=from_string:58:13 */, %x3: Tensor[(64, 16, 3, 3), float32] /* ty=Tensor[(64, 16, 3, 3), float32] span=from_string:90:13 */) -> (Tensor[(1, 64, 16, 16), float16], Tensor[(1, 16, 16, 64), float16], Tensor[(1, 16, 16, 16), float16], Tensor[(1, 64, 16, 16), float16], float32, Tensor[(64, 48, 16), float16], Tensor[(64, 64, 16, 1), float16]) {
  %5 = fn (%p04: Tensor[(1, 16, 16, 16), float32] /* ty=Tensor[(1, 16, 16, 16), float32] span=from_string:4:15 */, Primitive=1) -> Tensor[(1, 16, 16, 16), float16] {
    %4 = cast(%p04, dtype="float16") /* ty=Tensor[(1, 16, 16, 16), float16] span=from_string:5:14 */;
    fast_exp(%4) /* ty=Tensor[(1, 16, 16, 16), float16] span=from_string:4:5 */
  } /* ty=fn (Tensor[(1, 16, 16, 16), float32]) -> Tensor[(1, 16, 16, 16), float16] span=from_string:7:8 */;
  %6 = %5(%x0) /* ty=Tensor[(1, 16, 16, 16), float16] span=from_string:99:13 */;
  %7 = fn (%p03: Tensor[(1, 16, 16, 16), float16] /* ty=Tensor[(1, 16, 16, 16), float16] span=from_string:9:16 */, Primitive=1) -> Tensor[(1, 16, 16, 16), float16] {
    zeros_like(%p03) /* ty=Tensor[(1, 16, 16, 16), float16] span=from_string:9:5 */
  } /* ty=fn (Tensor[(1, 16, 16, 16), float16]) -> Tensor[(1, 16, 16, 16), float16] span=from_string:14:9 */;
  %8 = fn (%p05: Tensor[(64, 16, 3, 3), float32] /* ty=Tensor[(64, 16, 3, 3), float32] span=from_string:12:10 */, Primitive=1) -> Tensor[(64, 16, 3, 3), float16] {
    cast(%p05, dtype="float16") /* ty=Tensor[(64, 16, 3, 3), float16] span=from_string:12:5 */
  } /* ty=fn (Tensor[(64, 16, 3, 3), float32]) -> Tensor[(64, 16, 3, 3), float16] span=from_string:15:9 */;
  %9 = %7(%6) /* ty=Tensor[(1, 16, 16, 16), float16] span=from_string:99:17 */;
  %10 = %8(%x1) /* ty=Tensor[(64, 16, 3, 3), float16] span=from_string:19:18 */;
  %11 = fn (%p02: Tensor[(1, 16, 16, 16), float16] /* ty=Tensor[(1, 16, 16, 16), float16] span=from_string:17:15 */, %p11: Tensor[(64, 16, 3, 3), float16] /* ty=Tensor[(64, 16, 3, 3), float16] span=from_string:17:21 */, Primitive=1) -> Tensor[(1, 64, 16, 16), float16] {
    nn.conv2d(%p02, %p11, padding=[1, 1, 1, 1], channels=64, kernel_size=[3, 3], out_dtype="float16") /* ty=Tensor[(1, 64, 16, 16), float16] span=from_string:17:5 */
  } /* ty=fn (Tensor[(1, 16, 16, 16), float16], Tensor[(64, 16, 3, 3), float16]) -> Tensor[(1, 64, 16, 16), float16] span=from_string:19:9 */;
  %12 = %11(%9, %10) /* ty=Tensor[(1, 64, 16, 16), float16] span=from_string:97:18 */;
  %13 = fn (%p01: Tensor[(1, 64, 16, 16), float16] /* ty=Tensor[(1, 64, 16, 16), float16] span=from_string:21:13 */, Primitive=1) -> Tensor[(1, 64, 16, 16), float16] {
    nn.relu(%p01) /* ty=Tensor[(1, 64, 16, 16), float16] span=from_string:21:5 */
  } /* ty=fn (Tensor[(1, 64, 16, 16), float16]) -> Tensor[(1, 64, 16, 16), float16] span=from_string:23:9 */;
  %14 = %13(%12) /* ty=Tensor[(1, 64, 16, 16), float16] span=from_string:97:13 */;
  %15 = fn (%p0: Tensor[(1, 64, 16, 16), float16] /* ty=Tensor[(1, 64, 16, 16), float16] span=from_string:28:14 */, %p1: Tensor[(1, 64, 16, 16), float16] /* ty=Tensor[(1, 64, 16, 16), float16] span=from_string:26:18 */, Primitive=1) -> Tensor[(1, 64, 16, 16), float16] {
    %0 = cast(1f /* ty=float32 span=from_string:25:17 */, dtype="float16") /* ty=float16 span=from_string:28:19 */;
    %1 = nn.relu(%p1) /* ty=Tensor[(1, 64, 16, 16), float16] span=from_string:29:14 */;
    %2 = add(%p0, %0) /* ty=Tensor[(1, 64, 16, 16), float16] span=from_string:30:9 */;
    %3 = add(%1, %0) /* ty=Tensor[(1, 64, 16, 16), float16] span=from_string:30:13 */;
    add(%2, %3) /* ty=Tensor[(1, 64, 16, 16), float16] span=from_string:25:5 */
  } /* ty=fn (Tensor[(1, 64, 16, 16), float16], Tensor[(1, 64, 16, 16), float16]) -> Tensor[(1, 64, 16, 16), float16] span=from_string:97:9 */;
  %20 = fn (%p07: Tensor[(1, 64, 16, 16), float16] /* ty=Tensor[(1, 64, 16, 16), float16] span=from_string:33:19 */, Primitive=1) -> Tensor[(64, 16, 16, 1), float16] {
    %16 = nn.relu(%p07) /* ty=Tensor[(1, 64, 16, 16), float16] span=from_string:34:21 */;
    %17 = transpose(%16, axes=None) /* ty=Tensor[(16, 16, 64, 1), float16] span=from_string:35:21 */;
    %18 = transpose(%17, axes=None) /* ty=Tensor[(1, 64, 16, 16), float16] span=from_string:36:21 */;
    %19 = transpose(%18, axes=[0, 2, -1, 1]) /* ty=Tensor[(1, 16, 16, 64), float16] span=from_string:37:15 */;
    transpose(%19, axes=None) /* ty=Tensor[(64, 16, 16, 1), float16] span=from_string:33:5 */
  } /* ty=fn (Tensor[(1, 64, 16, 16), float16]) -> Tensor[(64, 16, 16, 1), float16] span=from_string:39:9 */;
  %21 = %20(%14) /* ty=Tensor[(64, 16, 16, 1), float16] span=from_string:102:13 */;
  %22 = fn (%p06: Tensor[(64, 16, 16, 1), float16] /* ty=Tensor[(64, 16, 16, 1), float16] span=from_string:41:15 */, Primitive=1) -> Tensor[(1, 16, 16, 64), float16] {
    transpose(%p06, axes=None) /* ty=Tensor[(1, 16, 16, 64), float16] span=from_string:41:5 */
  } /* ty=fn (Tensor[(64, 16, 16, 1), float16]) -> Tensor[(1, 16, 16, 64), float16] span=from_string:98:9 */;
  %26 = fn (%p08: Tensor[(1, 16, 16, 16), float16] /* ty=Tensor[(1, 16, 16, 16), float16] span=from_string:44:15 */, %p12: Tensor[(1, 16, 16, 16), float16] /* ty=Tensor[(1, 16, 16, 16), float16] span=from_string:44:21 */, Primitive=1) -> Tensor[(1, 16, 16, 16), float16] {
    %23 = add(%p08, %p12) /* ty=Tensor[(1, 16, 16, 16), float16] span=from_string:45:21 */;
    %24 = transpose(%23, axes=[0, 2, 3, 1]) /* ty=Tensor[(1, 16, 16, 16), float16] span=from_string:46:28 */;
    %25 = layout_transform(%24, src_layout="NHWC", dst_layout="HWCN") /* ty=Tensor[(16, 16, 16, 1), float16] span=from_string:47:15 */;
    transpose(%25, axes=[3, 0, 1, 2]) /* ty=Tensor[(1, 16, 16, 16), float16] span=from_string:44:5 */
  } /* ty=fn (Tensor[(1, 16, 16, 16), float16], Tensor[(1, 16, 16, 16), float16]) -> Tensor[(1, 16, 16, 16), float16] span=from_string:99:9 */;
  %29 = fn (%p011: Tensor[(1, 64, 16, 16), float16] /* ty=Tensor[(1, 64, 16, 16), float16] span=from_string:50:13 */, Primitive=1) -> Tensor[(1, 64, 16, 16), float16] {
    nn.relu(%p011) /* ty=Tensor[(1, 64, 16, 16), float16] span=from_string:50:5 */
  } /* ty=fn (Tensor[(1, 64, 16, 16), float16]) -> Tensor[(1, 64, 16, 16), float16] span=from_string:57:9 */;
  %32 = fn (%p012: Tensor[(64, 64, 3, 3), float32] /* ty=Tensor[(64, 64, 3, 3), float32] span=from_string:53:16 */, Primitive=1) -> Tensor[(64, 64, 3, 3), float16] {
    %30 = cast(%p012, dtype="float16") /* ty=Tensor[(64, 64, 3, 3), float16] span=from_string:55:15 */;
    %31 = cast(2f /* ty=float32 span=from_string:54:18 */, dtype="float16") /* ty=float16 span=from_string:55:20 */;
    multiply(%30, %31) /* ty=Tensor[(64, 64, 3, 3), float16] span=from_string:53:5 */
  } /* ty=fn (Tensor[(64, 64, 3, 3), float32]) -> Tensor[(64, 64, 3, 3), float16] span=from_string:58:9 */;
  %33 = %29(%12) /* ty=Tensor[(1, 64, 16, 16), float16] span=from_string:64:13 */;
  %34 = %32(%x2) /* ty=Tensor[(64, 64, 3, 3), float16] span=from_string:64:18 */;
  %35 = fn (%p010: Tensor[(1, 64, 16, 16), float16] /* ty=Tensor[(1, 64, 16, 16), float16] span=from_string:61:21 */, %p13: Tensor[(64, 64, 3, 3), float16] /* ty=Tensor[(64, 64, 3, 3), float16] span=from_string:61:28 */, Primitive=1) -> Tensor[(1, 64, 16, 16), float16] {
    %27 = cast(0f /* ty=float32 span=from_string:60:18 */, dtype="float16") /* ty=float16 span=from_string:62:9 */;
    %28 = nn.conv2d(%p010, %p13, padding=[1, 1, 1, 1], channels=64, kernel_size=[3, 3], out_dtype="float16") /* ty=Tensor[(1, 64, 16, 16), float16] span=from_string:62:14 */;
    add(%27, %28) /* ty=Tensor[(1, 64, 16, 16), float16] span=from_string:60:5 */
  } /* ty=fn (Tensor[(1, 64, 16, 16), float16], Tensor[(64, 64, 3, 3), float16]) -> Tensor[(1, 64, 16, 16), float16] span=from_string:64:9 */;
  %36 = %35(%33, %34) /* ty=Tensor[(1, 64, 16, 16), float16] span=from_string:101:13 */;
  %37 = fn (%p09: Tensor[(1, 64, 16, 16), float16] /* ty=Tensor[(1, 64, 16, 16), float16] span=from_string:66:13 */, Primitive=1) -> Tensor[(1, 64, 16, 16), float16] {
    nn.relu(%p09) /* ty=Tensor[(1, 64, 16, 16), float16] span=from_string:66:5 */
  } /* ty=fn (Tensor[(1, 64, 16, 16), float16]) -> Tensor[(1, 64, 16, 16), float16] span=from_string:100:9 */;
  %46 = fn (%p013: Tensor[(1, 64, 16, 16), float16] /* ty=Tensor[(1, 64, 16, 16), float16] span=from_string:69:19 */, Primitive=1) -> Tensor[(64, 48, 16), float16] {
    %38 = squeeze(%p013) /* ty=Tensor[(64, 16, 16), float16] span=from_string:78:15 */;
    %39 = squeeze(%38) /* ty=Tensor[(64, 16, 16), float16] span=from_string:73:15 */;
    %40 = add(%39, %0) /* ty=Tensor[(64, 16, 16), float16] span=from_string:77:15 */;
    %41 = add(%38, %0) /* ty=Tensor[(64, 16, 16), float16] span=from_string:79:12 */;
    %42 = add(%40, %0) /* ty=Tensor[(64, 16, 16), float16] span=from_string:79:17 */;
    %43 = (%41, %42, %41) /* ty=(Tensor[(64, 16, 16), float16], Tensor[(64, 16, 16), float16], Tensor[(64, 16, 16), float16]) span=from_string:80:23 */;
    %44 = concatenate(%43, axis=1) /* ty=Tensor[(64, 48, 16), float16] span=from_string:81:19 */;
    %45 = squeeze(%44) /* ty=Tensor[(64, 48, 16), float16] span=from_string:83:9 */;
    add(%45, %0) /* ty=Tensor[(64, 48, 16), float16] span=from_string:69:5 */
  } /* ty=fn (Tensor[(1, 64, 16, 16), float16]) -> Tensor[(64, 48, 16), float16] span=from_string:101:9 */;
  %50 = fn (%p015: Tensor[(64, 16, 3, 3), float32] /* ty=Tensor[(64, 16, 3, 3), float32] span=from_string:86:16 */, Primitive=1) -> Tensor[(64, 16, 3, 3), float16] {
    %49 = cast(%p015, dtype="float16") /* ty=Tensor[(64, 16, 3, 3), float16] span=from_string:88:15 */;
    multiply(%49, %31) /* ty=Tensor[(64, 16, 3, 3), float16] span=from_string:86:5 */
  } /* ty=fn (Tensor[(64, 16, 3, 3), float32]) -> Tensor[(64, 16, 3, 3), float16] span=from_string:90:9 */;
  %51 = %50(%x3) /* ty=Tensor[(64, 16, 3, 3), float16] span=from_string:102:18 */;
  %52 = fn (%p014: Tensor[(64, 16, 16, 1), float16] /* ty=Tensor[(64, 16, 16, 1), float16] span=from_string:93:21 */, %p14: Tensor[(64, 16, 3, 3), float16] /* ty=Tensor[(64, 16, 3, 3), float16] span=from_string:93:28 */, Primitive=1) -> Tensor[(64, 64, 16, 1), float16] {
    %47 = nn.conv2d(%p014, %p14, padding=[1, 1, 1, 1], channels=64, kernel_size=[3, 3], out_dtype="float16") /* ty=Tensor[(64, 64, 16, 1), float16] span=from_string:94:20 */;
    %48 = add(%27, %47) /* ty=Tensor[(64, 64, 16, 1), float16] span=from_string:95:13 */;
    nn.relu(%48) /* ty=Tensor[(64, 64, 16, 1), float16] span=from_string:92:5 */
  } /* ty=fn (Tensor[(64, 16, 16, 1), float16], Tensor[(64, 16, 3, 3), float16]) -> Tensor[(64, 64, 16, 1), float16] span=from_string:102:9 */;
  %53 = %15(%14, %12) /* ty=Tensor[(1, 64, 16, 16), float16] span=from_string:103:4 */;
  %54 = %22(%21) /* ty=Tensor[(1, 16, 16, 64), float16] span=from_string:103:9 */;
  %55 = %26(%6, %9) /* ty=Tensor[(1, 16, 16, 16), float16] span=from_string:103:14 */;
  %56 = %37(%36) /* ty=Tensor[(1, 64, 16, 16), float16] span=from_string:103:19 */;
  %57 = %46(%36) /* ty=Tensor[(64, 48, 16), float16] span=from_string:103:68 */;
  %58 = %52(%21, %51) /* ty=Tensor[(64, 64, 16, 1), float16] span=from_string:103:73 */;
  (%53, %54, %55, %56, 0f /* ty=float32 span=from_string:103:26 */, %57, %58) /* ty=(Tensor[(1, 64, 16, 16), float16], Tensor[(1, 16, 16, 64), float16], Tensor[(1, 16, 16, 16), float16], Tensor[(1, 64, 16, 16), float16], float32, Tensor[(64, 48, 16), float16], Tensor[(64, 64, 16, 1), float16]) span=from_string:3:3 */
}
