#[version = "0.0.5"]
def @main(%x0: Tensor[(1, 16, 16, 16), float32] /* ty=Tensor[(1, 16, 16, 16), float32] span=from_string:3:17 */, %x1: Tensor[(64, 16, 3, 3), float32] /* ty=Tensor[(64, 16, 3, 3), float32] span=from_string:5:22 */, %x2: Tensor[(64, 64, 3, 3), float32] /* ty=Tensor[(64, 64, 3, 3), float32] span=from_string:19:19 */, %x3: Tensor[(64, 16, 3, 3), float32] /* ty=Tensor[(64, 16, 3, 3), float32] span=from_string:37:19 */) -> (Tensor[(1, 64, 16, 16), float16], Tensor[(1, 16, 16, 64), float16], Tensor[(1, 16, 16, 16), float16], Tensor[(1, 64, 16, 16), float16], float32, Tensor[(64, 48, 16), float16], Tensor[(64, 64, 16, 1), float16]) {
  %0 = cast(%x0, dtype="float16") /* ty=Tensor[(1, 16, 16, 16), float16] */;
  %1 = fast_exp(%0) /* ty=Tensor[(1, 16, 16, 16), float16] span=from_string:15:13 */;
  %2 = zeros_like(%1) /* ty=Tensor[(1, 16, 16, 16), float16] span=from_string:15:17 */;
  %3 = cast(%x1, dtype="float16") /* ty=Tensor[(64, 16, 3, 3), float16] */;
  %4 = nn.conv2d(%2, %3, padding=[1, 1, 1, 1], channels=64, kernel_size=[3, 3], out_dtype="float16") /* ty=Tensor[(1, 64, 16, 16), float16] span=from_string:18:17 */;
  %5 = nn.relu(%4) /* ty=Tensor[(1, 64, 16, 16), float16] span=from_string:10:16 */;
  %6 = cast(1f /* ty=float32 span=from_string:8:18 */, dtype="float16") /* ty=float16 */;
  %7 = nn.relu(%4) /* ty=Tensor[(1, 64, 16, 16), float16] span=from_string:9:12 */;
  %8 = cast(1f /* ty=float32 span=from_string:9:18 */, dtype="float16") /* ty=float16 */;
  %9 = add(%5, %6) /* ty=Tensor[(1, 64, 16, 16), float16] span=from_string:40:13 */;
  %10 = add(%7, %8) /* ty=Tensor[(1, 64, 16, 16), float16] span=from_string:40:17 */;
  %11 = nn.relu(%5) /* ty=Tensor[(1, 64, 16, 16), float16] span=from_string:11:18 */;
  %12 = transpose(%11, axes=None) /* ty=Tensor[(16, 16, 64, 1), float16] span=from_string:12:18 */;
  %13 = transpose(%12, axes=None) /* ty=Tensor[(1, 64, 16, 16), float16] span=from_string:13:19 */;
  %14 = transpose(%13, axes=[0, 2, -1, 1]) /* ty=Tensor[(1, 16, 16, 64), float16] span=from_string:14:19 */;
  %15 = transpose(%14, axes=None) /* ty=Tensor[(64, 16, 16, 1), float16] span=from_string:41:19 */;
  %16 = add(%1, %2) /* ty=Tensor[(1, 16, 16, 16), float16] span=from_string:16:19 */;
  %17 = transpose(%16, axes=[0, 2, 3, 1]) /* ty=Tensor[(1, 16, 16, 16), float16] span=from_string:17:26 */;
  %18 = layout_transform(%17, src_layout="NHWC", dst_layout="HWCN") /* ty=Tensor[(16, 16, 16, 1), float16] span=from_string:42:19 */;
  %19 = cast(%x2, dtype="float16") /* ty=Tensor[(64, 64, 3, 3), float16] */;
  %20 = cast(2f /* ty=float32 span=from_string:19:26 */, dtype="float16") /* ty=float16 */;
  %21 = nn.relu(%4) /* ty=Tensor[(1, 64, 16, 16), float16] span=from_string:20:19 */;
  %22 = multiply(%19, %20) /* ty=Tensor[(64, 64, 3, 3), float16] span=from_string:20:24 */;
  %23 = cast(0f /* ty=float32 span=from_string:21:15 */, dtype="float16") /* ty=float16 */;
  %24 = nn.conv2d(%21, %22, padding=[1, 1, 1, 1], channels=64, kernel_size=[3, 3], out_dtype="float16") /* ty=Tensor[(1, 64, 16, 16), float16] span=from_string:21:57 */;
  %25 = add(%23, %24) /* ty=Tensor[(1, 64, 16, 16), float16] span=from_string:43:17 */;
  %26 = squeeze(%25) /* ty=Tensor[(64, 16, 16), float16] span=from_string:29:13 */;
  %27 = cast(1f /* ty=float32 span=from_string:25:20 */, dtype="float16") /* ty=float16 */;
  %28 = squeeze(%26) /* ty=Tensor[(64, 16, 16), float16] span=from_string:24:13 */;
  %29 = cast(1f /* ty=float32 span=from_string:24:20 */, dtype="float16") /* ty=float16 */;
  %30 = add(%28, %29) /* ty=Tensor[(64, 16, 16), float16] span=from_string:26:13 */;
  %31 = cast(1f /* ty=float32 span=from_string:26:20 */, dtype="float16") /* ty=float16 */;
  %32 = add(%26, %27) /* ty=Tensor[(64, 16, 16), float16] span=from_string:27:10 */;
  %33 = add(%30, %31) /* ty=Tensor[(64, 16, 16), float16] span=from_string:27:15 */;
  %34 = (%32, %33) /* ty=(Tensor[(64, 16, 16), float16], Tensor[(64, 16, 16), float16]) span=from_string:28:21 */;
  %35 = concatenate(%34, axis=1) /* ty=Tensor[(64, 32, 16), float16] span=from_string:32:32 */;
  %36 = cast(1f /* ty=float32 span=from_string:29:20 */, dtype="float16") /* ty=float16 */;
  %37 = add(%26, %36) /* ty=Tensor[(64, 16, 16), float16] span=from_string:30:10 */;
  %38 = (%37,) /* ty=(Tensor[(64, 16, 16), float16],) span=from_string:31:21 */;
  %39 = concatenate(%38, axis=1) /* ty=Tensor[(64, 16, 16), float16] span=from_string:33:32 */;
  %40 = annotation.stop_fusion(%35) /* ty=Tensor[(64, 32, 16), float16] span=from_string:34:10 */;
  %41 = annotation.stop_fusion(%39) /* ty=Tensor[(64, 16, 16), float16] span=from_string:34:15 */;
  %42 = (%40, %41) /* ty=(Tensor[(64, 32, 16), float16], Tensor[(64, 16, 16), float16]) span=from_string:35:21 */;
  %43 = concatenate(%42, axis=1) /* ty=Tensor[(64, 48, 16), float16] span=from_string:36:17 */;
  %44 = squeeze(%43) /* ty=Tensor[(64, 48, 16), float16] span=from_string:44:13 */;
  %45 = cast(1f /* ty=float32 span=from_string:44:20 */, dtype="float16") /* ty=float16 */;
  %46 = cast(%x3, dtype="float16") /* ty=Tensor[(64, 16, 3, 3), float16] */;
  %47 = cast(2f /* ty=float32 span=from_string:37:26 */, dtype="float16") /* ty=float16 */;
  %48 = multiply(%46, %47) /* ty=Tensor[(64, 16, 3, 3), float16] span=from_string:38:24 */;
  %49 = cast(0f /* ty=float32 span=from_string:39:15 */, dtype="float16") /* ty=float16 */;
  %50 = nn.conv2d(%15, %48, padding=[1, 1, 1, 1], channels=64, kernel_size=[3, 3], out_dtype="float16") /* ty=Tensor[(64, 64, 16, 1), float16] span=from_string:39:57 */;
  %51 = add(%49, %50) /* ty=Tensor[(64, 64, 16, 1), float16] span=from_string:45:17 */;
  %52 = add(%9, %10) /* ty=Tensor[(1, 64, 16, 16), float16] span=from_string:46:4 */;
  %53 = transpose(%15, axes=None) /* ty=Tensor[(1, 16, 16, 64), float16] span=from_string:46:9 */;
  %54 = transpose(%18, axes=[3, 0, 1, 2]) /* ty=Tensor[(1, 16, 16, 16), float16] span=from_string:46:14 */;
  %55 = nn.relu(%25) /* ty=Tensor[(1, 64, 16, 16), float16] span=from_string:46:19 */;
  %56 = add(%44, %45) /* ty=Tensor[(64, 48, 16), float16] span=from_string:46:68 */;
  %57 = nn.relu(%51) /* ty=Tensor[(64, 64, 16, 1), float16] span=from_string:46:73 */;
  (%52, %53, %54, %55, 0f /* ty=float32 span=from_string:46:26 */, %56, %57) /* ty=(Tensor[(1, 64, 16, 16), float16], Tensor[(1, 16, 16, 64), float16], Tensor[(1, 16, 16, 16), float16], Tensor[(1, 64, 16, 16), float16], float32, Tensor[(64, 48, 16), float16], Tensor[(64, 64, 16, 1), float16]) span=from_string:3:3 */
}
