#[version = "0.0.5"]
def @main(%x0: Tensor[(1, 16, 16, 16), float32] /* ty=Tensor[(1, 16, 16, 16), float32] span=from_string:11:12 */, %x1: Tensor[(64, 16, 3, 3), float32] /* ty=Tensor[(64, 16, 3, 3), float32] span=from_string:4:13 */, %x2: Tensor[(64, 64, 3, 3), float32] /* ty=Tensor[(64, 64, 3, 3), float32] span=from_string:14:14 */, %x3: Tensor[(64, 16, 3, 3), float32] /* ty=Tensor[(64, 16, 3, 3), float32] span=from_string:31:14 */) -> (Tensor[(1, 64, 16, 16), float16], Tensor[(1, 16, 16, 64), float16], Tensor[(1, 16, 16, 16), float32], Tensor[(1, 64, 16, 16), float16], float32, Tensor[(64, 48, 16), float16], Tensor[(64, 64, 16, 1), float16]) {
  %0 = cast(%x1, dtype="float16") /* ty=Tensor[(64, 16, 3, 3), float16] */;
  %1 = zeros(shape=[1, 16, 16, 16], dtype="float16") /* ty=Tensor[(1, 16, 16, 16), float16] span=from_string:12:13 */;
  %2 = cast(%0, dtype="float16") /* ty=Tensor[(64, 16, 3, 3), float16] span=from_string:5:22 */;
  %3 = nn.conv2d(%1, %2, padding=[1, 1, 1, 1], channels=64, kernel_size=[3, 3], out_dtype="float16") /* ty=Tensor[(1, 64, 16, 16), float16] span=from_string:6:16 */;
  %4 = cast(1f /* ty=float32 span=from_string:7:15 */, dtype="float16") /* ty=float16 */;
  %5 = nn.relu(%3) /* ty=Tensor[(1, 64, 16, 16), float16] span=from_string:17:19 */;
  %6 = cast(%4, dtype="float16") /* ty=float16 span=from_string:38:18 */;
  %7 = add(%5, %6) /* ty=Tensor[(1, 64, 16, 16), float16] span=from_string:34:17 */;
  %8 = nn.relu(%5) /* ty=Tensor[(1, 64, 16, 16), float16] span=from_string:10:18 */;
  %9 = transpose(%8, axes=[1, 3, 2, 0]) /* ty=Tensor[(64, 16, 16, 1), float16] span=from_string:35:19 */;
  %10 = exp(%x0) /* ty=Tensor[(1, 16, 16, 16), float32] span=from_string:13:13 */;
  %11 = cast(%1, dtype="float32") /* ty=Tensor[(1, 16, 16, 16), float32] span=from_string:13:17 */;
  %12 = add(%10, %11) /* ty=Tensor[(1, 16, 16, 16), float32] span=from_string:36:19 */;
  %13 = cast(%x2, dtype="float16") /* ty=Tensor[(64, 64, 3, 3), float16] */;
  %14 = cast(2f /* ty=float32 span=from_string:15:16 */, dtype="float16") /* ty=float16 */;
  %15 = cast(%13, dtype="float16") /* ty=Tensor[(64, 64, 3, 3), float16] span=from_string:16:19 */;
  %16 = cast(%14, dtype="float16") /* ty=float16 span=from_string:32:24 */;
  %17 = multiply(%15, %16) /* ty=Tensor[(64, 64, 3, 3), float16] span=from_string:17:23 */;
  %18 = nn.conv2d(%5, %17, padding=[1, 1, 1, 1], channels=64, kernel_size=[3, 3], out_dtype="float16") /* ty=Tensor[(1, 64, 16, 16), float16] span=from_string:37:17 */;
  %19 = squeeze(%18) /* ty=Tensor[(64, 16, 16), float16] span=from_string:20:13 */;
  %20 = squeeze(%19) /* ty=Tensor[(64, 16, 16), float16] span=from_string:21:13 */;
  %21 = add(%19, %6) /* ty=Tensor[(64, 16, 16), float16] span=from_string:24:10 */;
  %22 = add(%20, %16) /* ty=Tensor[(64, 16, 16), float16] span=from_string:22:15 */;
  %23 = (%21, %22) /* ty=(Tensor[(64, 16, 16), float16], Tensor[(64, 16, 16), float16]) span=from_string:23:21 */;
  %24 = concatenate(%23, axis=1) /* ty=Tensor[(64, 32, 16), float16] span=from_string:26:32 */;
  %25 = (%21,) /* ty=(Tensor[(64, 16, 16), float16],) span=from_string:25:21 */;
  %26 = concatenate(%25, axis=1) /* ty=Tensor[(64, 16, 16), float16] span=from_string:27:32 */;
  %27 = annotation.stop_fusion(%24) /* ty=Tensor[(64, 32, 16), float16] span=from_string:28:10 */;
  %28 = annotation.stop_fusion(%26) /* ty=Tensor[(64, 16, 16), float16] span=from_string:28:15 */;
  %29 = (%27, %28) /* ty=(Tensor[(64, 32, 16), float16], Tensor[(64, 16, 16), float16]) span=from_string:29:21 */;
  %30 = concatenate(%29, axis=1) /* ty=Tensor[(64, 48, 16), float16] span=from_string:30:17 */;
  %31 = squeeze(%30) /* ty=Tensor[(64, 48, 16), float16] span=from_string:38:13 */;
  %32 = cast(%x3, dtype="float16") /* ty=Tensor[(64, 16, 3, 3), float16] */;
  %33 = cast(%32, dtype="float16") /* ty=Tensor[(64, 16, 3, 3), float16] span=from_string:32:19 */;
  %34 = multiply(%33, %16) /* ty=Tensor[(64, 16, 3, 3), float16] span=from_string:33:23 */;
  %35 = nn.conv2d(%9, %34, padding=[1, 1, 1, 1], channels=64, kernel_size=[3, 3], out_dtype="float16") /* ty=Tensor[(64, 64, 16, 1), float16] span=from_string:39:17 */;
  %36 = add(%7, %7) /* ty=Tensor[(1, 64, 16, 16), float16] span=from_string:40:4 */;
  %37 = transpose(%9, axes=None) /* ty=Tensor[(1, 16, 16, 64), float16] span=from_string:40:9 */;
  %38 = transpose(%12, axes=[0, 2, 3, 1]) /* ty=Tensor[(1, 16, 16, 16), float32] span=from_string:40:14 */;
  %39 = nn.relu(%18) /* ty=Tensor[(1, 64, 16, 16), float16] span=from_string:40:19 */;
  %40 = add(%31, %6) /* ty=Tensor[(64, 48, 16), float16] span=from_string:40:68 */;
  %41 = nn.relu(%35) /* ty=Tensor[(64, 64, 16, 1), float16] span=from_string:40:73 */;
  (%36, %37, %38, %39, 0f /* ty=float32 span=from_string:40:26 */, %40, %41) /* ty=(Tensor[(1, 64, 16, 16), float16], Tensor[(1, 16, 16, 64), float16], Tensor[(1, 16, 16, 16), float32], Tensor[(1, 64, 16, 16), float16], float32, Tensor[(64, 48, 16), float16], Tensor[(64, 64, 16, 1), float16]) span=from_string:3:3 */
}
