#[version = "0.0.5"]
def @main(%x0: Tensor[(1, 16, 16, 16), float32] /* ty=Tensor[(1, 16, 16, 16), float32] span=from_string:3:17 */, %x1: Tensor[(64, 16, 3, 3), float32] /* ty=Tensor[(64, 16, 3, 3), float32] span=from_string:6:13 */, %x2: Tensor[(64, 64, 3, 3), float32] /* ty=Tensor[(64, 64, 3, 3), float32] span=from_string:19:14 */, %x3: Tensor[(64, 16, 3, 3), float32] /* ty=Tensor[(64, 16, 3, 3), float32] span=from_string:37:14 */) -> (Tensor[(1, 64, 16, 16), float16], Tensor[(1, 16, 16, 64), float16], Tensor[(1, 16, 16, 16), float32], Tensor[(1, 64, 16, 16), float16], float32, Tensor[(64, 48, 16), float16], Tensor[(64, 64, 16, 1), float16]) {
  let %x_0 = fast_exp(%x0);
  let %x_1 = zeros_like(%x_0);
  let %x_2 = cast(%x_1, dtype="float16");
  let %x_3 = cast(%x1, dtype="float16");
  let %x_4 = nn.conv2d(%x_2, %x_3, padding=[1, 1, 1, 1], channels=64, kernel_size=[3, 3], out_dtype="float16");
  let %x_5 = nn.relu(%x_4);
  let %x_6 = 1f /* ty=float32 span=from_string:9:15 */;
  let %x_7 = cast(%x_6, dtype="float16");
  let %x_8 = add(%x_5, %x_7);
  let %x_9 = add(%x_8, %x_8);
  let %x_10 = nn.relu(%x_5);
  let %x_11 = transpose(%x_10, axes=None);
  let %x_12 = transpose(%x_11, axes=None);
  let %x_13 = transpose(%x_12, axes=[0, 2, -1, 1]);
  let %x_14 = transpose(%x_13, axes=None);
  let %x_15 = transpose(%x_14, axes=None);
  let %x_16 = add(%x_0, %x_1);
  let %x_17 = transpose(%x_16, axes=[0, 2, 3, 1]);
  let %x_18 = layout_transform(%x_17, src_layout="NHWC", dst_layout="HWCN");
  let %x_19 = transpose(%x_18, axes=[3, 0, 1, 2]);
  let %x_20 = 0f /* ty=float32 span=from_string:22:16 */;
  let %x_21 = cast(%x_20, dtype="float16");
  let %x_22 = cast(%x2, dtype="float16");
  let %x_23 = 2f /* ty=float32 span=from_string:20:16 */;
  let %x_24 = cast(%x_23, dtype="float16");
  let %x_25 = multiply(%x_22, %x_24);
  let %x_26 = nn.conv2d(%x_5, %x_25, padding=[1, 1, 1, 1], channels=64, kernel_size=[3, 3], out_dtype="float16");
  let %x_27 = add(%x_21, %x_26);
  let %x_28 = nn.relu(%x_27);
  let %x_29 = 0f /* ty=float32 span=from_string:49:26 */;
  let %x_30 = squeeze(%x_27);
  let %x_31 = 1f /* ty=float32 span=from_string:26:16 */;
  let %x_32 = cast(%x_31, dtype="float16");
  let %x_33 = add(%x_30, %x_32);
  let %x_34 = squeeze(%x_30);
  let %x_35 = 1f /* ty=float32 span=from_string:28:16 */;
  let %x_36 = cast(%x_35, dtype="float16");
  let %x_37 = add(%x_34, %x_36);
  let %x_38 = 1f /* ty=float32 span=from_string:30:16 */;
  let %x_39 = cast(%x_38, dtype="float16");
  let %x_40 = add(%x_37, %x_39);
  let %x_41 = (%x_33, %x_40, %x_33) /* ty=(Tensor[(64, 16, 16), float16], Tensor[(64, 16, 16), float16], Tensor[(64, 16, 16), float16]) span=from_string:34:21 */;
  let %x_42 = concatenate(%x_41, axis=1);
  let %x_43 = squeeze(%x_42);
  let %x_44 = 1f /* ty=float32 span=from_string:36:16 */;
  let %x_45 = cast(%x_44, dtype="float16");
  let %x_46 = add(%x_43, %x_45);
  let %x_47 = 0f /* ty=float32 span=from_string:40:16 */;
  let %x_48 = cast(%x_47, dtype="float16");
  let %x_49 = cast(%x3, dtype="float16");
  let %x_50 = 2f /* ty=float32 span=from_string:38:16 */;
  let %x_51 = cast(%x_50, dtype="float16");
  let %x_52 = multiply(%x_49, %x_51);
  let %x_53 = nn.conv2d(%x_14, %x_52, padding=[1, 1, 1, 1], channels=64, kernel_size=[3, 3], out_dtype="float16");
  let %x_54 = add(%x_48, %x_53);
  let %x_55 = nn.relu(%x_54);
  let %x_56 = (%x_9, %x_15, %x_19, %x_28, %x_29, %x_46, %x_55) /* ty=(Tensor[(1, 64, 16, 16), float16], Tensor[(1, 16, 16, 64), float16], Tensor[(1, 16, 16, 16), float32], Tensor[(1, 64, 16, 16), float16], float32, Tensor[(64, 48, 16), float16], Tensor[(64, 64, 16, 1), float16]) span=from_string:3:3 */;
  %x_56
}
