#[version = "0.0.5"]
def @main(%x0: Tensor[(1, 128, 56, 56), float32] /* ty=Tensor[(1, 128, 56, 56), float32] span=from_string:62:12 */, %x1: Tensor[(64, 128, 3, 3), float32] /* ty=Tensor[(64, 128, 3, 3), float32] span=from_string:19:15 */) -> (Tensor[(1, 128, 56, 56), float32], Tensor[(1, 64, 56, 56), float32], Tensor[(1, 32, 56, 56, 4), float32], Tensor[(128, 56, 56), float32], Tensor[(1, 64, 56, 56), float32], Tensor[(56, 64, 56, 1), float32], Tensor[(1, 64, 56, 56), float32]) {
  %1 = fn (%p0: Tensor[(1, 128, 56, 56), float32] /* ty=Tensor[(1, 128, 56, 56), float32] span=from_string:5:9 */, Primitive=1) -> Tensor[(1, 128, 56, 56), float32] {
    %0 = ones_like(%p0) /* ty=Tensor[(1, 128, 56, 56), float32] span=from_string:5:14 */;
    add(%p0, %0) /* ty=Tensor[(1, 128, 56, 56), float32] span=from_string:4:5 */
  } /* ty=fn (Tensor[(1, 128, 56, 56), float32]) -> Tensor[(1, 128, 56, 56), float32] */;
  %3 = fn (%p04: Tensor[(1, 128, 56, 56), float32] /* ty=Tensor[(1, 128, 56, 56), float32] span=from_string:8:22 */, Primitive=1) -> Tensor[(1, 32, 56, 56, 4), float32] {
    layout_transform(%p04, src_layout="NCHW", dst_layout="NCHW4c") /* ty=Tensor[(1, 32, 56, 56, 4), float32] span=from_string:8:5 */
  } /* ty=fn (Tensor[(1, 128, 56, 56), float32]) -> Tensor[(1, 32, 56, 56, 4), float32] */;
  %4 = %3(%x0) /* ty=Tensor[(1, 32, 56, 56, 4), float32] span=from_string:64:13 */;
  %5 = fn (%p03: Tensor[(1, 32, 56, 56, 4), float32] /* ty=Tensor[(1, 32, 56, 56, 4), float32] span=from_string:12:27 */, Primitive=1) -> Tensor[(1, 128, 56, 56), float32] {
    %2 = layout_transform(%p03, src_layout="NCHW4c", dst_layout="NCHW") /* ty=Tensor[(1, 128, 56, 56), float32] span=from_string:13:13 */;
    nn.relu(%2) /* ty=Tensor[(1, 128, 56, 56), float32] span=from_string:12:5 */
  } /* ty=fn (Tensor[(1, 32, 56, 56, 4), float32]) -> Tensor[(1, 128, 56, 56), float32] */;
  %6 = %5(%4) /* ty=Tensor[(1, 128, 56, 56), float32] span=from_string:65:13 */;
  %7 = fn (%p02: Tensor[(1, 128, 56, 56), float32] /* ty=Tensor[(1, 128, 56, 56), float32] span=from_string:17:15 */, %p1: Tensor[(64, 128, 3, 3), float32] /* ty=Tensor[(64, 128, 3, 3), float32] span=from_string:17:21 */, Primitive=1) -> Tensor[(1, 64, 56, 56), float32] {
    nn.conv2d(%p02, %p1, padding=[1, 1, 1, 1], channels=64, kernel_size=[3, 3]) /* ty=Tensor[(1, 64, 56, 56), float32] span=from_string:17:5 */
  } /* ty=fn (Tensor[(1, 128, 56, 56), float32], Tensor[(64, 128, 3, 3), float32]) -> Tensor[(1, 64, 56, 56), float32] */;
  %8 = %7(%6, %x1) /* ty=Tensor[(1, 64, 56, 56), float32] span=from_string:63:12 */;
  %9 = fn (%p01: Tensor[(1, 64, 56, 56), float32] /* ty=Tensor[(1, 64, 56, 56), float32] span=from_string:21:13 */, Primitive=1) -> Tensor[(1, 64, 56, 56), float32] {
    nn.relu(%p01) /* ty=Tensor[(1, 64, 56, 56), float32] span=from_string:21:5 */
  } /* ty=fn (Tensor[(1, 64, 56, 56), float32]) -> Tensor[(1, 64, 56, 56), float32] */;
  %12 = fn (%p05: Tensor[(1, 32, 56, 56, 4), float32] /* ty=Tensor[(1, 32, 56, 56, 4), float32] span=from_string:24:28 */, Primitive=1) -> Tensor[(1, 32, 56, 56, 4), float32] {
    %10 = layout_transform(%p05, src_layout="NCHW4c", dst_layout="NCHW8c") /* ty=Tensor[(1, 16, 56, 56, 8), float32] span=from_string:25:28 */;
    %11 = layout_transform(%10, src_layout="NCHW8c", dst_layout="NCHW4c") /* ty=Tensor[(1, 32, 56, 56, 4), float32] span=from_string:26:13 */;
    nn.relu(%11) /* ty=Tensor[(1, 32, 56, 56, 4), float32] span=from_string:24:5 */
  } /* ty=fn (Tensor[(1, 32, 56, 56, 4), float32]) -> Tensor[(1, 32, 56, 56, 4), float32] */;
  %15 = fn (%p06: Tensor[(1, 128, 56, 56), float32] /* ty=Tensor[(1, 128, 56, 56), float32] span=from_string:29:15 */, Primitive=1) -> Tensor[(128, 56, 56), float32] {
    %13 = add(%p06, 1f /* ty=float32 span=from_string:29:23 */) /* ty=Tensor[(1, 128, 56, 56), float32] span=from_string:30:15 */;
    %14 = exp(%13) /* ty=Tensor[(1, 128, 56, 56), float32] span=from_string:31:13 */;
    squeeze(%14) /* ty=Tensor[(128, 56, 56), float32] span=from_string:29:5 */
  } /* ty=fn (Tensor[(1, 128, 56, 56), float32]) -> Tensor[(128, 56, 56), float32] */;
  %19 = fn (%p09: Tensor[(1, 64, 56, 56), float32] /* ty=Tensor[(1, 64, 56, 56), float32] span=from_string:34:21 */, Primitive=1) -> Tensor[(1, 56, 64, 56), float32] {
    %18 = add(%p09, %p09) /* ty=Tensor[(1, 64, 56, 56), float32] span=from_string:35:15 */;
    transpose(%18, axes=[0, 3, 1, 2]) /* ty=Tensor[(1, 56, 64, 56), float32] span=from_string:34:5 */
  } /* ty=fn (Tensor[(1, 64, 56, 56), float32]) -> Tensor[(1, 56, 64, 56), float32] */;
  %20 = %19(%8) /* ty=Tensor[(1, 56, 64, 56), float32] span=from_string:68:13 */;
  %21 = fn (%p08: Tensor[(1, 56, 64, 56), float32] /* ty=Tensor[(1, 56, 64, 56), float32] span=from_string:39:28 */, Primitive=1) -> Tensor[(1, 56, 64, 56), float32] {
    %16 = layout_transform(%p08, src_layout="NCHW", dst_layout="NCHW4c") /* ty=Tensor[(1, 14, 64, 56, 4), float32] span=from_string:40:19 */;
    %17 = nn.relu(%16) /* ty=Tensor[(1, 14, 64, 56, 4), float32] span=from_string:41:22 */;
    layout_transform(%17, src_layout="NCHW4c", dst_layout="NCHW") /* ty=Tensor[(1, 56, 64, 56), float32] span=from_string:39:5 */
  } /* ty=fn (Tensor[(1, 56, 64, 56), float32]) -> Tensor[(1, 56, 64, 56), float32] */;
  %22 = %21(%20) /* ty=Tensor[(1, 56, 64, 56), float32] span=from_string:67:13 */;
  %23 = fn (%p07: Tensor[(1, 56, 64, 56), float32] /* ty=Tensor[(1, 56, 64, 56), float32] span=from_string:45:15 */, Primitive=1) -> Tensor[(1, 64, 56, 56), float32] {
    transpose(%p07, axes=[0, 2, 3, 1]) /* ty=Tensor[(1, 64, 56, 56), float32] span=from_string:45:5 */
  } /* ty=fn (Tensor[(1, 56, 64, 56), float32]) -> Tensor[(1, 64, 56, 56), float32] */;
  %26 = fn (%p010: Tensor[(1, 56, 64, 56), float32] /* ty=Tensor[(1, 56, 64, 56), float32] span=from_string:48:28 */, Primitive=1) -> Tensor[(56, 64, 56, 1), float32] {
    %24 = layout_transform(%p010, src_layout="NCHW", dst_layout="NHWC") /* ty=Tensor[(1, 64, 56, 56), float32] span=from_string:49:28 */;
    %25 = layout_transform(%24, src_layout="NHWC", dst_layout="CHWN") /* ty=Tensor[(56, 64, 56, 1), float32] span=from_string:50:13 */;
    nn.relu(%25) /* ty=Tensor[(56, 64, 56, 1), float32] span=from_string:48:5 */
  } /* ty=fn (Tensor[(1, 56, 64, 56), float32]) -> Tensor[(56, 64, 56, 1), float32] */;
  %34 = fn (%p011: Tensor[(1, 56, 64, 56), float32] /* ty=Tensor[(1, 56, 64, 56), float32] span=from_string:53:21 */, Primitive=1) -> Tensor[(1, 64, 56, 56), float32] {
    %27 = transpose(%p011, axes=[0, 2, 3, 1]) /* ty=Tensor[(1, 64, 56, 56), float32] span=from_string:54:28 */;
    %28 = layout_transform(%27, src_layout="NHWC", dst_layout="HWCN") /* ty=Tensor[(64, 56, 56, 1), float32] span=from_string:55:21 */;
    %29 = transpose(%28, axes=[3, 0, 1, 2]) /* ty=Tensor[(1, 64, 56, 56), float32] span=from_string:56:21 */;
    %30 = transpose(%29, axes=[0, 3, 1, 2]) /* ty=Tensor[(1, 56, 64, 56), float32] span=from_string:57:28 */;
    %31 = layout_transform(%30, src_layout="NCHW", dst_layout="NCHW4c") /* ty=Tensor[(1, 14, 64, 56, 4), float32] span=from_string:58:19 */;
    %32 = nn.relu(%31) /* ty=Tensor[(1, 14, 64, 56, 4), float32] span=from_string:59:28 */;
    %33 = layout_transform(%32, src_layout="NCHW4c", dst_layout="NCHW") /* ty=Tensor[(1, 56, 64, 56), float32] span=from_string:60:15 */;
    transpose(%33, axes=[0, 2, 3, 1]) /* ty=Tensor[(1, 64, 56, 56), float32] span=from_string:53:5 */
  } /* ty=fn (Tensor[(1, 56, 64, 56), float32]) -> Tensor[(1, 64, 56, 56), float32] */;
  %35 = %1(%x0) /* ty=Tensor[(1, 128, 56, 56), float32] span=from_string:69:4 */;
  %36 = %9(%8) /* ty=Tensor[(1, 64, 56, 56), float32] span=from_string:69:9 */;
  %37 = %12(%4) /* ty=Tensor[(1, 32, 56, 56, 4), float32] span=from_string:69:14 */;
  %38 = %15(%6) /* ty=Tensor[(128, 56, 56), float32] span=from_string:69:19 */;
  %39 = %23(%22) /* ty=Tensor[(1, 64, 56, 56), float32] span=from_string:69:24 */;
  %40 = %26(%22) /* ty=Tensor[(56, 64, 56, 1), float32] span=from_string:69:29 */;
  %41 = %34(%20) /* ty=Tensor[(1, 64, 56, 56), float32] span=from_string:69:34 */;
  (%35, %36, %37, %38, %39, %40, %41) /* ty=(Tensor[(1, 128, 56, 56), float32], Tensor[(1, 64, 56, 56), float32], Tensor[(1, 32, 56, 56, 4), float32], Tensor[(128, 56, 56), float32], Tensor[(1, 64, 56, 56), float32], Tensor[(56, 64, 56, 1), float32], Tensor[(1, 64, 56, 56), float32]) span=from_string:3:3 */
}
