#[version = "0.0.5"]
def @main(%x0: Tensor[(1, 224, 224, 3), int8] /* ty=Tensor[(1, 224, 224, 3), int8] span=from_string:34:30 */, %x1: Tensor[(16, 3, 5, 5), int8] /* ty=Tensor[(16, 3, 5, 5), int8] span=from_string:22:30 */, %x2: Tensor[(16), int32] /* ty=Tensor[(16), int32] span=from_string:3:88 */, %x3: Tensor[(84), int32] /* ty=Tensor[(84), int32] span=from_string:4:65 */) -> (Tensor[(1, 16, 220, 220), int8], Tensor[(16, 3, 3, 3), int8], Tensor[(16), int32], Tensor[(1, 16, 220, 220), float32], Tensor[(84), int32], Tensor[(1, 3, 1, 1), float32], Tensor[(16), float16], Tensor[(1, 224, 224, 3), int8], Tensor[(16, 3, 5, 5), float32], float32) {
  let %x4: Tensor[(16), int32] /* ty=Tensor[(16), int32] span=from_string:42:30 */ = %x2;
  let %x5: Tensor[(84), int32] /* ty=Tensor[(84), int32] */ = %x3;
  let %x_0: float32 /* ty=float32 span=from_string:7:34 */ = 2f /* ty=float32 span=from_string:5:16 */;
  let %x_1: int32 /* ty=int32 span=from_string:7:40 */ = 0 /* ty=int32 span=from_string:6:15 */;
  let %x_2: Tensor[(1, 224, 224, 3), float32] /* ty=Tensor[(1, 224, 224, 3), float32] span=from_string:8:24 */ = qnn.dequantize(%x0, %x_0, %x_1);
  let %x_3: Tensor[(1, 3, 224, 224), float32] /* ty=Tensor[(1, 3, 224, 224), float32] span=from_string:29:36 */ = transpose(%x_2, axes=[0, 3, 1, 2]);
  let %x_4: float32 /* ty=float32 span=from_string:11:34 */ = 0.5f /* ty=float32 span=from_string:9:18 */;
  let %x_5: int32 /* ty=int32 span=from_string:11:40 */ = 0 /* ty=int32 span=from_string:10:15 */;
  let %x_6: Tensor[(16, 3, 5, 5), float32] /* ty=Tensor[(16, 3, 5, 5), float32] span=from_string:12:30 */ = qnn.dequantize(%x1, %x_4, %x_5);
  let %x_7: Tensor[(1, 16, 220, 220), float32] /* ty=Tensor[(1, 16, 220, 220), float32] span=from_string:16:27 */ = nn.conv2d(%x_3, %x_6, padding=[0, 0, 0, 0], kernel_size=[5, 5]);
  let %x_8: float32 /* ty=float32 span=from_string:15:35 */ = 2f /* ty=float32 span=from_string:13:16 */;
  let %x_9: int32 /* ty=int32 span=from_string:15:41 */ = 0 /* ty=int32 span=from_string:14:15 */;
  let %x_10: Tensor[(16), float32] /* ty=Tensor[(16), float32] span=from_string:30:26 */ = qnn.dequantize(%x4, %x_8, %x_9);
  let %x_11: Tensor[(1, 16, 220, 220), float32] /* ty=Tensor[(1, 16, 220, 220), float32] span=from_string:19:28 */ = nn.bias_add(%x_7, %x_10);
  let %x_12: float32 /* ty=float32 span=from_string:19:35 */ = 1f /* ty=float32 span=from_string:17:17 */;
  let %x_13: int32 /* ty=int32 span=from_string:19:42 */ = 0 /* ty=int32 span=from_string:18:16 */;
  let %x_14: Tensor[(1, 16, 220, 220), int8] /* ty=Tensor[(1, 16, 220, 220), int8] span=from_string:42:16 */ = qnn.quantize(%x_11, %x_12, %x_13, out_dtype="int8");
  let %x_15: float32 /* ty=float32 span=from_string:22:35 */ = 2f /* ty=float32 span=from_string:20:17 */;
  let %x_16: int32 /* ty=int32 span=from_string:22:42 */ = -12 /* ty=int32 span=from_string:21:18 */;
  let %x_17: Tensor[(16, 3, 5, 5), float32] /* ty=Tensor[(16, 3, 5, 5), float32] span=from_string:39:21 */ = qnn.dequantize(%x1, %x_15, %x_16);
  let %x_18: Tensor[(16, 3, 3, 3), float32] /* ty=Tensor[(16, 3, 3, 3), float32] span=from_string:26:28 */ = nn.avg_pool2d(%x_17, pool_size=[3, 3], padding=[0, 0, 0, 0]);
  let %x_19: float32 /* ty=float32 span=from_string:26:35 */ = 0.5f /* ty=float32 span=from_string:24:19 */;
  let %x_20: int32 /* ty=int32 span=from_string:26:42 */ = 10 /* ty=int32 span=from_string:25:17 */;
  let %x_21: Tensor[(16, 3, 3, 3), int8] /* ty=Tensor[(16, 3, 3, 3), int8] span=from_string:42:23 */ = qnn.quantize(%x_18, %x_19, %x_20, out_dtype="int8");
  let %x_22: Tensor[(1, 16, 220, 220), float32] /* ty=Tensor[(1, 16, 220, 220), float32] span=from_string:42:35 */ = ones(shape=[1, 16, 220, 220], dtype="float32");
  let %x_23: Tensor[(84), int32] /* ty=Tensor[(84), int32] span=from_string:42:42 */ = zeros(shape=[84], dtype="int32");
  let %x_24: Tensor[(1, 3, 1, 1), float32] /* ty=Tensor[(1, 3, 1, 1), float32] span=from_string:42:49 */ = nn.global_max_pool2d(%x_3);
  let %x_25: Tensor[(16), float32] /* ty=Tensor[(16), float32] span=from_string:31:20 */ = nn.softmax(%x_10);
  let %x_26: Tensor[(16), float16] /* ty=Tensor[(16), float16] span=from_string:42:56 */ = cast(%x_25, dtype="float16");
  let %x_27: float32 /* ty=float32 span=from_string:34:35 */ = 0.1f /* ty=float32 span=from_string:32:19 */;
  let %x_28: int32 /* ty=int32 span=from_string:34:42 */ = 10 /* ty=int32 span=from_string:33:17 */;
  let %x_29: Tensor[(1, 224, 224, 3), float32] /* ty=Tensor[(1, 224, 224, 3), float32] span=from_string:37:28 */ = qnn.dequantize(%x0, %x_27, %x_28);
  let %x_30: float32 /* ty=float32 span=from_string:37:35 */ = 0.1f /* ty=float32 span=from_string:35:19 */;
  let %x_31: int32 /* ty=int32 span=from_string:37:42 */ = 10 /* ty=int32 span=from_string:36:17 */;
  let %x_32: Tensor[(1, 224, 224, 3), int8] /* ty=Tensor[(1, 224, 224, 3), int8] span=from_string:42:63 */ = qnn.quantize(%x_29, %x_30, %x_31, out_dtype="int8");
  let %x_33: float32 /* ty=float32 span=from_string:40:25 */ = 2f /* ty=float32 span=from_string:38:17 */;
  let %x_34: Tensor[(16, 3, 5, 5), float32] /* ty=Tensor[(16, 3, 5, 5), float32] span=from_string:40:32 */ = rsqrt(%x_17);
  let %x_35: Tensor[(16, 3, 5, 5), float32] /* ty=Tensor[(16, 3, 5, 5), float32] span=from_string:42:70 */ = multiply(%x_33, %x_34);
  let %x_36: float32 /* ty=float32 span=from_string:42:77 */ = 4f /* ty=float32 span=from_string:41:17 */;
  let %x_37: (Tensor[(1, 16, 220, 220), int8], Tensor[(16, 3, 3, 3), int8], Tensor[(16), int32], Tensor[(1, 16, 220, 220), float32], Tensor[(84), int32], Tensor[(1, 3, 1, 1), float32], Tensor[(16), float16], Tensor[(1, 224, 224, 3), int8], Tensor[(16, 3, 5, 5), float32], float32) /* ty=(Tensor[(1, 16, 220, 220), int8], Tensor[(16, 3, 3, 3), int8], Tensor[(16), int32], Tensor[(1, 16, 220, 220), float32], Tensor[(84), int32], Tensor[(1, 3, 1, 1), float32], Tensor[(16), float16], Tensor[(1, 224, 224, 3), int8], Tensor[(16, 3, 5, 5), float32], float32) span=from_string:43:15 */ = (%x_14, %x_21, %x4, %x_22, %x_23, %x_24, %x_26, %x_32, %x_35, %x_36) /* ty=(Tensor[(1, 16, 220, 220), int8], Tensor[(16, 3, 3, 3), int8], Tensor[(16), int32], Tensor[(1, 16, 220, 220), float32], Tensor[(84), int32], Tensor[(1, 3, 1, 1), float32], Tensor[(16), float16], Tensor[(1, 224, 224, 3), int8], Tensor[(16, 3, 5, 5), float32], float32) span=from_string:42:15 */;
  let %x_38: (Tensor[(1, 16, 220, 220), int8], Tensor[(16, 3, 3, 3), int8], Tensor[(16), int32], Tensor[(1, 16, 220, 220), float32], Tensor[(84), int32], Tensor[(1, 3, 1, 1), float32], Tensor[(16), float16], Tensor[(1, 224, 224, 3), int8], Tensor[(16, 3, 5, 5), float32], float32) /* ty=(Tensor[(1, 16, 220, 220), int8], Tensor[(16, 3, 3, 3), int8], Tensor[(16), int32], Tensor[(1, 16, 220, 220), float32], Tensor[(84), int32], Tensor[(1, 3, 1, 1), float32], Tensor[(16), float16], Tensor[(1, 224, 224, 3), int8], Tensor[(16, 3, 5, 5), float32], float32) span=from_string:44:15 */ = %x_37;
  let %x_39: (Tensor[(1, 16, 220, 220), int8], Tensor[(16, 3, 3, 3), int8], Tensor[(16), int32], Tensor[(1, 16, 220, 220), float32], Tensor[(84), int32], Tensor[(1, 3, 1, 1), float32], Tensor[(16), float16], Tensor[(1, 224, 224, 3), int8], Tensor[(16, 3, 5, 5), float32], float32) /* ty=(Tensor[(1, 16, 220, 220), int8], Tensor[(16, 3, 3, 3), int8], Tensor[(16), int32], Tensor[(1, 16, 220, 220), float32], Tensor[(84), int32], Tensor[(1, 3, 1, 1), float32], Tensor[(16), float16], Tensor[(1, 224, 224, 3), int8], Tensor[(16, 3, 5, 5), float32], float32) span=from_string:45:3 */ = %x_38;
  %x_39
}
