#[version = "0.0.5"]
def @main(%x0: Tensor[(1, 224, 224, 3), int8] /* ty=Tensor[(1, 224, 224, 3), int8] span=from_string:56:13 */, %x1: Tensor[(16, 3, 5, 5), int8] /* ty=Tensor[(16, 3, 5, 5), int8] span=from_string:24:13 */, %x2: Tensor[(16), int32] /* ty=Tensor[(16), int32] span=from_string:58:14 */, %x3: Tensor[(84), int32] /* ty=Tensor[(84), int32] span=from_string:53:13 */) -> (Tensor[(1, 16, 220, 220), int8], Tensor[(16, 3, 3, 3), int8], Tensor[(16), int32], Tensor[(1, 16, 220, 220), float32], Tensor[(84), int32], Tensor[(1, 3, 1, 1), float32], Tensor[(16), float16], Tensor[(1, 224, 224, 3), int8], Tensor[(16, 3, 5, 5), float32], float32) {
  %3 = fn (%p01: Tensor[(1, 224, 224, 3), int8] /* ty=Tensor[(1, 224, 224, 3), int8] span=from_string:4:25 */, Primitive=1) -> Tensor[(1, 3, 224, 224), float32] {
    %2 = qnn.dequantize(%p01, 2f /* ty=float32 span=from_string:4:33 */, 0 /* ty=int32 span=from_string:4:75 */) /* ty=Tensor[(1, 224, 224, 3), float32] span=from_string:5:15 */;
    transpose(%2, axes=[0, 3, 1, 2]) /* ty=Tensor[(1, 3, 224, 224), float32] span=from_string:4:5 */
  } /* ty=fn (Tensor[(1, 224, 224, 3), int8]) -> Tensor[(1, 3, 224, 224), float32] span=from_string:13:8 */;
  %4 = fn (%p02: Tensor[(16, 3, 5, 5), int8] /* ty=Tensor[(16, 3, 5, 5), int8] span=from_string:8:20 */, Primitive=1) -> Tensor[(16, 3, 5, 5), float32] {
    qnn.dequantize(%p02, 0.5f /* ty=float32 span=from_string:8:30 */, 0 /* ty=int32 span=from_string:8:72 */) /* ty=Tensor[(16, 3, 5, 5), float32] span=from_string:8:5 */
  } /* ty=fn (Tensor[(16, 3, 5, 5), int8]) -> Tensor[(16, 3, 5, 5), float32] span=from_string:14:8 */;
  %5 = fn (%p03: Tensor[(16), int32] /* ty=Tensor[(16), int32] span=from_string:11:20 */, Primitive=1) -> Tensor[(16), float32] {
    qnn.dequantize(%p03, 2f /* ty=float32 span=from_string:11:28 */, 0 /* ty=int32 span=from_string:11:71 */) /* ty=Tensor[(16), float32] span=from_string:11:5 */
  } /* ty=fn (Tensor[(16), int32]) -> Tensor[(16), float32] span=from_string:15:8 */;
  %6 = %3(%x0) /* ty=Tensor[(1, 3, 224, 224), float32] span=from_string:54:13 */;
  %7 = %4(%x1) /* ty=Tensor[(16, 3, 5, 5), float32] span=from_string:50:16 */;
  %8 = %5(%x2) /* ty=Tensor[(16), float32] span=from_string:55:13 */;
  %9 = fn (%p0: Tensor[(1, 3, 224, 224), float32] /* ty=Tensor[(1, 3, 224, 224), float32] span=from_string:17:20 */, %p1: Tensor[(16, 3, 5, 5), float32] /* ty=Tensor[(16, 3, 5, 5), float32] span=from_string:17:25 */, %p2: Tensor[(16), float32] /* ty=Tensor[(16), float32] span=from_string:18:26 */, Primitive=1) -> Tensor[(1, 16, 220, 220), int8] {
    %0 = nn.conv2d(%p0, %p1, padding=[0, 0, 0, 0], kernel_size=[5, 5]) /* ty=Tensor[(1, 16, 220, 220), float32] span=from_string:18:22 */;
    %1 = nn.bias_add(%0, %p2) /* ty=Tensor[(1, 16, 220, 220), float32] span=from_string:19:18 */;
    qnn.quantize(%1, 1f /* ty=float32 span=from_string:19:24 */, 0 /* ty=int32 span=from_string:19:67 */, out_dtype="int8") /* ty=Tensor[(1, 16, 220, 220), int8] span=from_string:17:5 */
  } /* ty=fn (Tensor[(1, 3, 224, 224), float32], Tensor[(16, 3, 5, 5), float32], Tensor[(16), float32]) -> Tensor[(1, 16, 220, 220), int8] span=from_string:50:9 */;
  %11 = fn (%p05: Tensor[(16, 3, 5, 5), int8] /* ty=Tensor[(16, 3, 5, 5), int8] span=from_string:22:20 */, Primitive=1) -> Tensor[(16, 3, 5, 5), float32] {
    qnn.dequantize(%p05, 2f /* ty=float32 span=from_string:22:28 */, -12 /* ty=int32 span=from_string:22:73 */) /* ty=Tensor[(16, 3, 5, 5), float32] span=from_string:22:5 */
  } /* ty=fn (Tensor[(16, 3, 5, 5), int8]) -> Tensor[(16, 3, 5, 5), float32] span=from_string:24:9 */;
  %12 = %11(%x1) /* ty=Tensor[(16, 3, 5, 5), float32] span=from_string:57:13 */;
  %13 = fn (%p04: Tensor[(16, 3, 5, 5), float32] /* ty=Tensor[(16, 3, 5, 5), float32] span=from_string:26:25 */, Primitive=1) -> Tensor[(16, 3, 3, 3), int8] {
    %10 = nn.avg_pool2d(%p04, pool_size=[3, 3], padding=[0, 0, 0, 0]) /* ty=Tensor[(16, 3, 3, 3), float32] span=from_string:27:18 */;
    qnn.quantize(%10, 0.5f /* ty=float32 span=from_string:27:27 */, 10 /* ty=int32 span=from_string:27:71 */, out_dtype="int8") /* ty=Tensor[(16, 3, 3, 3), int8] span=from_string:26:5 */
  } /* ty=fn (Tensor[(16, 3, 5, 5), float32]) -> Tensor[(16, 3, 3, 3), int8] span=from_string:51:9 */;
  %14 = fn (Primitive=1) -> Tensor[(1, 16, 220, 220), float32] {
    ones(shape=[1, 16, 220, 220], dtype="float32") /* ty=Tensor[(1, 16, 220, 220), float32] span=from_string:30:5 */
  } /* ty=fn () -> Tensor[(1, 16, 220, 220), float32] span=from_string:52:9 */;
  %15 = fn (%p06: Tensor[(84), int32] /* ty=Tensor[(84), int32] */, Primitive=1) -> Tensor[(84), int32] {
    zeros(shape=[84], dtype="int32") /* ty=Tensor[(84), int32] span=from_string:33:5 */
  } /* ty=fn (Tensor[(84), int32]) -> Tensor[(84), int32] span=from_string:53:9 */;
  %16 = fn (%p07: Tensor[(1, 3, 224, 224), float32] /* ty=Tensor[(1, 3, 224, 224), float32] span=from_string:36:26 */, Primitive=1) -> Tensor[(1, 3, 1, 1), float32] {
    nn.global_max_pool2d(%p07) /* ty=Tensor[(1, 3, 1, 1), float32] span=from_string:36:5 */
  } /* ty=fn (Tensor[(1, 3, 224, 224), float32]) -> Tensor[(1, 3, 1, 1), float32] span=from_string:54:9 */;
  %18 = fn (%p08: Tensor[(16), float32] /* ty=Tensor[(16), float32] span=from_string:39:22 */, Primitive=1) -> Tensor[(16), float16] {
    %17 = nn.softmax(%p08) /* ty=Tensor[(16), float32] span=from_string:40:10 */;
    cast(%17, dtype="float16") /* ty=Tensor[(16), float16] span=from_string:39:5 */
  } /* ty=fn (Tensor[(16), float32]) -> Tensor[(16), float16] span=from_string:55:9 */;
  %19 = fn (%p09: Tensor[(1, 224, 224, 3), int8] /* ty=Tensor[(1, 224, 224, 3), int8] span=from_string:43:26 */, Primitive=1) -> Tensor[(1, 224, 224, 3), int8] {
    %p09
  } /* ty=fn (Tensor[(1, 224, 224, 3), int8]) -> Tensor[(1, 224, 224, 3), int8] span=from_string:56:9 */;
  %21 = fn (%p010: Tensor[(16, 3, 5, 5), float32] /* ty=Tensor[(16, 3, 5, 5), float32] span=from_string:47:17 */, Primitive=1) -> Tensor[(16, 3, 5, 5), float32] {
    %20 = rsqrt(%p010) /* ty=Tensor[(16, 3, 5, 5), float32] span=from_string:48:59 */;
    multiply(2f /* ty=float32 span=from_string:48:17 */, %20) /* ty=Tensor[(16, 3, 5, 5), float32] span=from_string:47:5 */
  } /* ty=fn (Tensor[(16, 3, 5, 5), float32]) -> Tensor[(16, 3, 5, 5), float32] span=from_string:57:9 */;
  %22 = %9(%6, %7, %8) /* ty=Tensor[(1, 16, 220, 220), int8] span=from_string:58:4 */;
  %23 = %13(%12) /* ty=Tensor[(16, 3, 3, 3), int8] span=from_string:58:9 */;
  %24 = %14() /* ty=Tensor[(1, 16, 220, 220), float32] span=from_string:58:19 */;
  %25 = %15(%x3) /* ty=Tensor[(84), int32] span=from_string:58:24 */;
  %26 = %16(%6) /* ty=Tensor[(1, 3, 1, 1), float32] span=from_string:58:29 */;
  %27 = %18(%8) /* ty=Tensor[(16), float16] span=from_string:58:34 */;
  %28 = %19(%x0) /* ty=Tensor[(1, 224, 224, 3), int8] span=from_string:58:39 */;
  %29 = %21(%12) /* ty=Tensor[(16, 3, 5, 5), float32] span=from_string:58:44 */;
  (%22, %23, %x2, %24, %25, %26, %27, %28, %29, 4f /* ty=float32 span=from_string:58:51 */) /* ty=(Tensor[(1, 16, 220, 220), int8], Tensor[(16, 3, 3, 3), int8], Tensor[(16), int32], Tensor[(1, 16, 220, 220), float32], Tensor[(84), int32], Tensor[(1, 3, 1, 1), float32], Tensor[(16), float16], Tensor[(1, 224, 224, 3), int8], Tensor[(16, 3, 5, 5), float32], float32) span=from_string:3:3 */
}
