#[version = "0.0.5"]
def @main(%x0: Tensor[(1, 64, 56, 56), float32] /* ty=Tensor[(1, 64, 56, 56), float32] span=GeneratedSource:11:11 */, %x1: Tensor[(64, 64, 3, 3), float32] /* ty=Tensor[(64, 64, 3, 3), float32] span=GeneratedSource:63:13 */, %x2: Tensor[(4096, 3, 3), float32] /* ty=Tensor[(4096, 3, 3), float32] */, %x3: Tensor[(1, 64, 56, 56), float32] /* ty=Tensor[(1, 64, 56, 56), float32] */, %x4: float32 /* ty=float32 span=GeneratedSource:62:13 */, %x5: Tensor[(4, 64, 3, 3), float32] /* ty=Tensor[(4, 64, 3, 3), float32] span=GeneratedSource:63:18 */) -> (Tensor[(1, 128, 56, 56), float16], float32, Tensor[(64, 64, 3, 3), float16], Tensor[(64, 64, 3, 3), float16], Tensor[(1, 64, 56, 56), float16], Tensor[(4), int32], Tensor[(68, 64, 3, 3), float32], bool) {
  %4 = fn (%p04: Tensor[(1, 64, 56, 56), float32] /* ty=Tensor[(1, 64, 56, 56), float32] span=GeneratedSource:4:10 */, Primitive=1) -> Tensor[(1, 64, 56, 56), float16] {
    cast(%p04, dtype="float16") /* ty=Tensor[(1, 64, 56, 56), float16] span=GeneratedSource:4:5 */
  } /* ty=fn (Tensor[(1, 64, 56, 56), float32]) -> Tensor[(1, 64, 56, 56), float16] span=GeneratedSource:11:8 */;
  %7 = fn (%p05: Tensor[(64, 64, 3, 3), float32] /* ty=Tensor[(64, 64, 3, 3), float32] span=GeneratedSource:7:15 */, Primitive=1) -> Tensor[(64, 64, 3, 3), float16] {
    %5 = cast(%p05, dtype="float16") /* ty=Tensor[(64, 64, 3, 3), float16] span=GeneratedSource:9:15 */;
    %6 = cast(2f /* ty=float32 span=GeneratedSource:8:17 */, dtype="float16") /* ty=float16 span=GeneratedSource:9:19 */;
    multiply(%5, %6) /* ty=Tensor[(64, 64, 3, 3), float16] span=GeneratedSource:7:5 */
  } /* ty=fn (Tensor[(64, 64, 3, 3), float32]) -> Tensor[(64, 64, 3, 3), float16] span=GeneratedSource:12:8 */;
  %8 = %4(%x0) /* ty=Tensor[(1, 64, 56, 56), float16] span=GeneratedSource:17:13 */;
  %9 = %7(%x1) /* ty=Tensor[(64, 64, 3, 3), float16] span=GeneratedSource:59:18 */;
  %10 = fn (%p03: Tensor[(1, 64, 56, 56), float16] /* ty=Tensor[(1, 64, 56, 56), float16] span=GeneratedSource:14:20 */, %p11: Tensor[(64, 64, 3, 3), float16] /* ty=Tensor[(64, 64, 3, 3), float16] span=GeneratedSource:14:26 */, Primitive=1) -> Tensor[(1, 64, 56, 56), float16] {
    %3 = nn.conv2d(%p03, %p11, padding=[1, 1, 1, 1], channels=64, kernel_size=[3, 3], out_dtype="float16") /* ty=Tensor[(1, 64, 56, 56), float16] span=GeneratedSource:15:13 */;
    nn.relu(%3) /* ty=Tensor[(1, 64, 56, 56), float16] span=GeneratedSource:14:5 */
  } /* ty=fn (Tensor[(1, 64, 56, 56), float16], Tensor[(64, 64, 3, 3), float16]) -> Tensor[(1, 64, 56, 56), float16] span=GeneratedSource:17:9 */;
  %11 = %10(%8, %9) /* ty=Tensor[(1, 64, 56, 56), float16] span=GeneratedSource:58:18 */;
  %12 = fn (%p02: Tensor[(1, 64, 56, 56), float16] /* ty=Tensor[(1, 64, 56, 56), float16] span=GeneratedSource:19:20 */, Primitive=1) -> Tensor[(1, 64, 28, 28), float16] {
    nn.max_pool2d(%p02, pool_size=[2, 2], strides=[2, 2], padding=[0, 0, 0, 0]) /* ty=Tensor[(1, 64, 28, 28), float16] span=GeneratedSource:19:5 */
  } /* ty=fn (Tensor[(1, 64, 56, 56), float16]) -> Tensor[(1, 64, 28, 28), float16] span=GeneratedSource:21:9 */;
  %13 = %12(%11) /* ty=Tensor[(1, 64, 28, 28), float16] span=GeneratedSource:25:13 */;
  %14 = fn (%p01: Tensor[(1, 64, 28, 28), float16] /* ty=Tensor[(1, 64, 28, 28), float16] span=GeneratedSource:23:19 */, Primitive=1) -> Tensor[(1, 64, 56, 56), float16] {
    nn.upsampling(%p01, scale_h=2f, scale_w=2f) /* ty=Tensor[(1, 64, 56, 56), float16] span=GeneratedSource:23:5 */
  } /* ty=fn (Tensor[(1, 64, 28, 28), float16]) -> Tensor[(1, 64, 56, 56), float16] span=GeneratedSource:25:9 */;
  %15 = %14(%13) /* ty=Tensor[(1, 64, 56, 56), float16] span=GeneratedSource:61:13 */;
  %16 = fn (%p0: Tensor[(1, 64, 56, 56), float16] /* ty=Tensor[(1, 64, 56, 56), float16] span=GeneratedSource:27:11 */, %p1: Tensor[(1, 64, 56, 56), float16] /* ty=Tensor[(1, 64, 56, 56), float16] span=GeneratedSource:27:16 */, Primitive=1) -> Tensor[(1, 128, 56, 56), float16] {
    %0 = (%p0, %p1) /* ty=(Tensor[(1, 64, 56, 56), float16], Tensor[(1, 64, 56, 56), float16]) span=GeneratedSource:28:22 */;
    %1 = concatenate(%0, axis=1) /* ty=Tensor[(1, 128, 56, 56), float16] span=GeneratedSource:30:9 */;
    %2 = cast(1f /* ty=float32 span=GeneratedSource:29:17 */, dtype="float16") /* ty=float16 span=GeneratedSource:30:13 */;
    add(%1, %2) /* ty=Tensor[(1, 128, 56, 56), float16] span=GeneratedSource:27:5 */
  } /* ty=fn (Tensor[(1, 64, 56, 56), float16], Tensor[(1, 64, 56, 56), float16]) -> Tensor[(1, 128, 56, 56), float16] span=GeneratedSource:58:9 */;
  %22 = fn (%p07: Tensor[(64, 64, 3, 3), float16] /* ty=Tensor[(64, 64, 3, 3), float16] span=GeneratedSource:33:13 */, Primitive=1) -> Tensor[(64, 64, 3, 3), float16] {
    nn.relu(%p07) /* ty=Tensor[(64, 64, 3, 3), float16] span=GeneratedSource:33:5 */
  } /* ty=fn (Tensor[(64, 64, 3, 3), float16]) -> Tensor[(64, 64, 3, 3), float16] span=GeneratedSource:35:9 */;
  %23 = %22(%9) /* ty=Tensor[(64, 64, 3, 3), float16] span=GeneratedSource:60:13 */;
  %24 = fn (%p06: Tensor[(64, 64, 3, 3), float16] /* ty=Tensor[(64, 64, 3, 3), float16] span=GeneratedSource:40:15 */, %p12: Tensor[(64, 64, 3, 3), float16] /* ty=Tensor[(64, 64, 3, 3), float16] span=GeneratedSource:38:19 */, Primitive=1) -> Tensor[(64, 64, 3, 3), float16] {
    %17 = cast(1f /* ty=float32 span=GeneratedSource:37:18 */, dtype="float16") /* ty=float16 span=GeneratedSource:40:21 */;
    %18 = nn.relu(%p12) /* ty=Tensor[(64, 64, 3, 3), float16] span=GeneratedSource:41:15 */;
    %19 = cast(1f /* ty=float32 span=GeneratedSource:39:18 */, dtype="float16") /* ty=float16 span=GeneratedSource:41:20 */;
    %20 = add(%p06, %17) /* ty=Tensor[(64, 64, 3, 3), float16] span=GeneratedSource:42:9 */;
    %21 = add(%18, %19) /* ty=Tensor[(64, 64, 3, 3), float16] span=GeneratedSource:42:14 */;
    add(%20, %21) /* ty=Tensor[(64, 64, 3, 3), float16] span=GeneratedSource:37:5 */
  } /* ty=fn (Tensor[(64, 64, 3, 3), float16], Tensor[(64, 64, 3, 3), float16]) -> Tensor[(64, 64, 3, 3), float16] span=GeneratedSource:59:9 */;
  %25 = fn (%p08: Tensor[(64, 64, 3, 3), float16] /* ty=Tensor[(64, 64, 3, 3), float16] span=GeneratedSource:45:13 */, Primitive=1, relay.reshape_only=1) -> Tensor[(64, 64, 3, 3), float16] {
    reshape(%p08, newshape=[64, 64, 3, 3]) /* ty=Tensor[(64, 64, 3, 3), float16] span=GeneratedSource:45:5 */
  } /* ty=fn (Tensor[(64, 64, 3, 3), float16]) -> Tensor[(64, 64, 3, 3), float16] span=GeneratedSource:60:9 */;
  %26 = fn (%p09: Tensor[(1, 64, 56, 56), float16] /* ty=Tensor[(1, 64, 56, 56), float16] span=GeneratedSource:48:13 */, Primitive=1) -> Tensor[(1, 64, 56, 56), float16] {
    nn.relu(%p09) /* ty=Tensor[(1, 64, 56, 56), float16] span=GeneratedSource:48:5 */
  } /* ty=fn (Tensor[(1, 64, 56, 56), float16]) -> Tensor[(1, 64, 56, 56), float16] span=GeneratedSource:61:9 */;
  %28 = fn (%p010: float32 /* ty=float32 span=GeneratedSource:51:16 */, Primitive=1) -> Tensor[(4), int32] {
    %27 = cast(%p010, dtype="float16") /* ty=float16 span=GeneratedSource:52:10 */;
    full(%27, shape=[4], dtype="int32") /* ty=Tensor[(4), int32] span=GeneratedSource:51:5 */
  } /* ty=fn (float32) -> Tensor[(4), int32] span=GeneratedSource:62:9 */;
  %30 = fn (%p011: Tensor[(64, 64, 3, 3), float32] /* ty=Tensor[(64, 64, 3, 3), float32] span=GeneratedSource:55:12 */, %p13: Tensor[(4, 64, 3, 3), float32] /* ty=Tensor[(4, 64, 3, 3), float32] span=GeneratedSource:55:19 */, Primitive=1) -> Tensor[(68, 64, 3, 3), float32] {
    %29 = (%p011, %p13) /* ty=(Tensor[(64, 64, 3, 3), float32], Tensor[(4, 64, 3, 3), float32]) span=GeneratedSource:56:17 */;
    concatenate(%29) /* ty=Tensor[(68, 64, 3, 3), float32] span=GeneratedSource:55:5 */
  } /* ty=fn (Tensor[(64, 64, 3, 3), float32], Tensor[(4, 64, 3, 3), float32]) -> Tensor[(68, 64, 3, 3), float32] span=GeneratedSource:63:9 */;
  %31 = %16(%15, %11) /* ty=Tensor[(1, 128, 56, 56), float16] span=GeneratedSource:64:4 */;
  %32 = %24(%23, %9) /* ty=Tensor[(64, 64, 3, 3), float16] span=GeneratedSource:64:53 */;
  %33 = %25(%23) /* ty=Tensor[(64, 64, 3, 3), float16] span=GeneratedSource:64:58 */;
  %34 = %26(%15) /* ty=Tensor[(1, 64, 56, 56), float16] span=GeneratedSource:64:63 */;
  %35 = %28(%x4) /* ty=Tensor[(4), int32] span=GeneratedSource:64:68 */;
  %36 = %30(%x1, %x5) /* ty=Tensor[(68, 64, 3, 3), float32] span=GeneratedSource:64:73 */;
  (%31, 2f /* ty=float32 span=GeneratedSource:64:11 */, %32, %33, %34, %35, %36, False /* ty=bool span=GeneratedSource:64:78 */) /* ty=(Tensor[(1, 128, 56, 56), float16], float32, Tensor[(64, 64, 3, 3), float16], Tensor[(64, 64, 3, 3), float16], Tensor[(1, 64, 56, 56), float16], Tensor[(4), int32], Tensor[(68, 64, 3, 3), float32], bool) span=GeneratedSource:3:3 */
}
