#[version = "0.0.5"]
def @main(%x0: Tensor[(1, 64, 56, 56), float32] /* ty=Tensor[(1, 64, 56, 56), float32] span=from_string:5:13 */, %x1: Tensor[(64, 64, 3, 3), float32] /* ty=Tensor[(64, 64, 3, 3), float32] span=from_string:23:10 */, %x2: Tensor[(4096, 3, 3), float32] /* ty=Tensor[(4096, 3, 3), float32] */, %x3: Tensor[(1, 64, 56, 56), float32] /* ty=Tensor[(1, 64, 56, 56), float32] */, %x4: float32 /* ty=float32 span=from_string:22:14 */, %x5: Tensor[(4, 64, 3, 3), float32] /* ty=Tensor[(4, 64, 3, 3), float32] span=from_string:23:15 */) -> (Tensor[(1, 128, 56, 56), float16], float32, Tensor[(64, 64, 3, 3), float16], Tensor[(64, 64, 3, 3), float16], Tensor[(1, 64, 56, 56), float16], Tensor[(4), int32], Tensor[(68, 64, 3, 3), float32], bool) {
  %6 = fn (%p04: Tensor[(1, 64, 56, 56), float32] /* ty=Tensor[(1, 64, 56, 56), float32] */, Primitive=1) -> Tensor[(1, 64, 56, 56), float16] {
    cast(%p04, dtype="float16") /* ty=Tensor[(1, 64, 56, 56), float16] span=from_string:8:18 */
  } /* ty=fn (Tensor[(1, 64, 56, 56), float32]) -> Tensor[(1, 64, 56, 56), float16] */;
  %9 = fn (%p05: Tensor[(64, 64, 3, 3), float32] /* ty=Tensor[(64, 64, 3, 3), float32] */, Primitive=1) -> Tensor[(64, 64, 3, 3), float16] {
    %7 = cast(%p05, dtype="float16") /* ty=Tensor[(64, 64, 3, 3), float16] span=from_string:6:18 */;
    %8 = cast(2f /* ty=float32 span=from_string:4:15 */, dtype="float16") /* ty=float16 span=from_string:6:22 */;
    multiply(%7, %8) /* ty=Tensor[(64, 64, 3, 3), float16] span=from_string:18:17 */
  } /* ty=fn (Tensor[(64, 64, 3, 3), float32]) -> Tensor[(64, 64, 3, 3), float16] */;
  %10 = %6(%x0) /* ty=Tensor[(1, 64, 56, 56), float16] */;
  %11 = %9(%x1) /* ty=Tensor[(64, 64, 3, 3), float16] */;
  %12 = fn (%p03: Tensor[(1, 64, 56, 56), float16] /* ty=Tensor[(1, 64, 56, 56), float16] */, %p11: Tensor[(64, 64, 3, 3), float16] /* ty=Tensor[(64, 64, 3, 3), float16] */, Primitive=1) -> Tensor[(1, 64, 56, 56), float16] {
    %3 = cast(0f /* ty=float32 span=from_string:7:15 */, dtype="float16") /* ty=float16 span=from_string:9:12 */;
    %4 = nn.conv2d(%p03, %p11, padding=[1, 1, 1, 1], channels=64, kernel_size=[3, 3], out_dtype="float16") /* ty=Tensor[(1, 64, 56, 56), float16] span=from_string:9:16 */;
    %5 = add(%3, %4) /* ty=Tensor[(1, 64, 56, 56), float16] span=from_string:10:16 */;
    nn.relu(%5) /* ty=Tensor[(1, 64, 56, 56), float16] span=from_string:13:14 */
  } /* ty=fn (Tensor[(1, 64, 56, 56), float16], Tensor[(64, 64, 3, 3), float16]) -> Tensor[(1, 64, 56, 56), float16] */;
  %13 = %12(%10, %11) /* ty=Tensor[(1, 64, 56, 56), float16] */;
  %14 = fn (%p02: Tensor[(1, 64, 56, 56), float16] /* ty=Tensor[(1, 64, 56, 56), float16] */, Primitive=1) -> Tensor[(1, 64, 28, 28), float16] {
    nn.max_pool2d(%p02, pool_size=[2, 2], strides=[2, 2], padding=[0, 0, 0, 0]) /* ty=Tensor[(1, 64, 28, 28), float16] span=from_string:12:22 */
  } /* ty=fn (Tensor[(1, 64, 56, 56), float16]) -> Tensor[(1, 64, 28, 28), float16] */;
  %15 = %14(%13) /* ty=Tensor[(1, 64, 28, 28), float16] */;
  %16 = fn (%p01: Tensor[(1, 64, 28, 28), float16] /* ty=Tensor[(1, 64, 28, 28), float16] */, Primitive=1) -> Tensor[(1, 64, 56, 56), float16] {
    nn.upsampling(%p01, scale_h=2f, scale_w=2f) /* ty=Tensor[(1, 64, 56, 56), float16] span=from_string:27:17 */
  } /* ty=fn (Tensor[(1, 64, 28, 28), float16]) -> Tensor[(1, 64, 56, 56), float16] */;
  %17 = %16(%15) /* ty=Tensor[(1, 64, 56, 56), float16] */;
  %18 = fn (%p0: Tensor[(1, 64, 56, 56), float16] /* ty=Tensor[(1, 64, 56, 56), float16] */, %p1: Tensor[(1, 64, 56, 56), float16] /* ty=Tensor[(1, 64, 56, 56), float16] */, Primitive=1) -> Tensor[(1, 128, 56, 56), float16] {
    %0 = (%p0, %p1) /* ty=(Tensor[(1, 64, 56, 56), float16], Tensor[(1, 64, 56, 56), float16]) span=from_string:14:21 */;
    %1 = concatenate(%0, axis=1) /* ty=Tensor[(1, 128, 56, 56), float16] span=from_string:24:13 */;
    %2 = cast(1f /* ty=float32 span=from_string:15:16 */, dtype="float16") /* ty=float16 span=from_string:24:18 */;
    add(%1, %2) /* ty=Tensor[(1, 128, 56, 56), float16] span=from_string:30:4 */
  } /* ty=fn (Tensor[(1, 64, 56, 56), float16], Tensor[(1, 64, 56, 56), float16]) -> Tensor[(1, 128, 56, 56), float16] */;
  %24 = fn (%p07: Tensor[(64, 64, 3, 3), float16] /* ty=Tensor[(64, 64, 3, 3), float16] */, Primitive=1) -> Tensor[(64, 64, 3, 3), float16] {
    nn.relu(%p07) /* ty=Tensor[(64, 64, 3, 3), float16] span=from_string:26:17 */
  } /* ty=fn (Tensor[(64, 64, 3, 3), float16]) -> Tensor[(64, 64, 3, 3), float16] */;
  %25 = %24(%11) /* ty=Tensor[(64, 64, 3, 3), float16] */;
  %26 = fn (%p06: Tensor[(64, 64, 3, 3), float16] /* ty=Tensor[(64, 64, 3, 3), float16] */, %p12: Tensor[(64, 64, 3, 3), float16] /* ty=Tensor[(64, 64, 3, 3), float16] */, Primitive=1) -> Tensor[(64, 64, 3, 3), float16] {
    %19 = cast(1f /* ty=float32 span=from_string:17:16 */, dtype="float16") /* ty=float16 span=from_string:20:18 */;
    %20 = nn.relu(%p12) /* ty=Tensor[(64, 64, 3, 3), float16] span=from_string:21:13 */;
    %21 = cast(1f /* ty=float32 span=from_string:19:16 */, dtype="float16") /* ty=float16 span=from_string:21:18 */;
    %22 = add(%p06, %19) /* ty=Tensor[(64, 64, 3, 3), float16] span=from_string:25:13 */;
    %23 = add(%20, %21) /* ty=Tensor[(64, 64, 3, 3), float16] span=from_string:25:18 */;
    add(%22, %23) /* ty=Tensor[(64, 64, 3, 3), float16] span=from_string:30:53 */
  } /* ty=fn (Tensor[(64, 64, 3, 3), float16], Tensor[(64, 64, 3, 3), float16]) -> Tensor[(64, 64, 3, 3), float16] */;
  %27 = fn (%p08: Tensor[(64, 64, 3, 3), float16] /* ty=Tensor[(64, 64, 3, 3), float16] */, Primitive=1, relay.reshape_only=1) -> Tensor[(64, 64, 3, 3), float16] {
    reshape(%p08, newshape=[64, 64, 3, 3]) /* ty=Tensor[(64, 64, 3, 3), float16] span=from_string:30:58 */
  } /* ty=fn (Tensor[(64, 64, 3, 3), float16]) -> Tensor[(64, 64, 3, 3), float16] */;
  %28 = fn (%p09: Tensor[(1, 64, 56, 56), float16] /* ty=Tensor[(1, 64, 56, 56), float16] */, Primitive=1) -> Tensor[(1, 64, 56, 56), float16] {
    nn.relu(%p09) /* ty=Tensor[(1, 64, 56, 56), float16] span=from_string:30:63 */
  } /* ty=fn (Tensor[(1, 64, 56, 56), float16]) -> Tensor[(1, 64, 56, 56), float16] */;
  %30 = fn (%p010: float32 /* ty=float32 */, Primitive=1) -> Tensor[(4), int32] {
    %29 = cast(%p010, dtype="float16") /* ty=float16 span=from_string:28:14 */;
    full(%29, shape=[4], dtype="int32") /* ty=Tensor[(4), int32] span=from_string:30:68 */
  } /* ty=fn (float32) -> Tensor[(4), int32] */;
  %32 = fn (%p011: Tensor[(64, 64, 3, 3), float32] /* ty=Tensor[(64, 64, 3, 3), float32] */, %p13: Tensor[(4, 64, 3, 3), float32] /* ty=Tensor[(4, 64, 3, 3), float32] */, Primitive=1) -> Tensor[(68, 64, 3, 3), float32] {
    %31 = (%p011, %p13) /* ty=(Tensor[(64, 64, 3, 3), float32], Tensor[(4, 64, 3, 3), float32]) span=from_string:29:21 */;
    concatenate(%31) /* ty=Tensor[(68, 64, 3, 3), float32] span=from_string:30:73 */
  } /* ty=fn (Tensor[(64, 64, 3, 3), float32], Tensor[(4, 64, 3, 3), float32]) -> Tensor[(68, 64, 3, 3), float32] */;
  %33 = %18(%17, %13) /* ty=Tensor[(1, 128, 56, 56), float16] */;
  %34 = %26(%25, %11) /* ty=Tensor[(64, 64, 3, 3), float16] */;
  %35 = %27(%25) /* ty=Tensor[(64, 64, 3, 3), float16] */;
  %36 = %28(%17) /* ty=Tensor[(1, 64, 56, 56), float16] */;
  %37 = %30(%x4) /* ty=Tensor[(4), int32] */;
  %38 = %32(%x1, %x5) /* ty=Tensor[(68, 64, 3, 3), float32] */;
  (%33, 2f /* ty=float32 span=from_string:30:11 */, %34, %35, %36, %37, %38, False /* ty=bool span=from_string:30:78 */) /* ty=(Tensor[(1, 128, 56, 56), float16], float32, Tensor[(64, 64, 3, 3), float16], Tensor[(64, 64, 3, 3), float16], Tensor[(1, 64, 56, 56), float16], Tensor[(4), int32], Tensor[(68, 64, 3, 3), float32], bool) span=from_string:3:3 */
}
