#[version = "0.0.5"]
def @main(%x0: Tensor[(1, 16, 64, 64), float32] /* ty=Tensor[(1, 16, 64, 64), float32] span=from_string:26:25 */, %x1: Tensor[(16, 16, 3, 3), float32] /* ty=Tensor[(16, 16, 3, 3), float32] span=from_string:55:28 */, %x2: Tensor[(16, 16, 3, 3), float32] /* ty=Tensor[(16, 16, 3, 3), float32] span=from_string:60:28 */, %x3: Tensor[(16, 32, 3, 3), float32] /* ty=Tensor[(16, 32, 3, 3), float32] span=from_string:77:28 */, %x4: Tensor[(16, 32, 3, 3), float32] /* ty=Tensor[(16, 32, 3, 3), float32] span=from_string:72:28 */) -> (Tensor[(1, 32, 64, 64), float32], Tensor[(1, 16, 32, 32), float32], Tensor[(1, 32, 64, 64), float32], Tensor[(1, 32, 32, 32), float32], Tensor[(16, 32, 32, 1), float32], Tensor[(32, 32, 16, 1), float32], float32, Tensor[(32, 32, 16), float32], (Tensor[(1, 16, 64, 64), float32], (Tensor[(1, 16, 64, 64), float32],))) {
  let %x_0: fn (Tensor[(1, 16, 64, 64), float32]) -> Tensor[(1, 16, 32, 32), float32] /* ty=fn (Tensor[(1, 16, 64, 64), float32]) -> Tensor[(1, 16, 32, 32), float32] span=from_string:6:14 */ = fn (%p02: Tensor[(1, 16, 64, 64), float32] /* ty=Tensor[(1, 16, 64, 64), float32] span=from_string:4:20 */, Primitive=1) -> Tensor[(1, 16, 32, 32), float32] {
    nn.max_pool2d(%p02, pool_size=[2, 2], strides=[2, 2], padding=[0, 0, 0, 0]) /* ty=Tensor[(1, 16, 32, 32), float32] span=from_string:4:5 */
  } /* ty=fn (Tensor[(1, 16, 64, 64), float32]) -> Tensor[(1, 16, 32, 32), float32] span=from_string:3:3 */;
  let %x_1: Tensor[(1, 16, 32, 32), float32] /* ty=Tensor[(1, 16, 32, 32), float32] span=from_string:35:21 */ = %x_0(%x0);
  let %x_2: fn (Tensor[(1, 16, 32, 32), float32]) -> Tensor[(1, 16, 64, 64), float32] /* ty=fn (Tensor[(1, 16, 32, 32), float32]) -> Tensor[(1, 16, 64, 64), float32] span=from_string:10:14 */ = fn (%p01: Tensor[(1, 16, 32, 32), float32] /* ty=Tensor[(1, 16, 32, 32), float32] span=from_string:8:19 */, Primitive=1) -> Tensor[(1, 16, 64, 64), float32] {
    nn.upsampling(%p01, scale_h=2f, scale_w=2f) /* ty=Tensor[(1, 16, 64, 64), float32] span=from_string:8:5 */
  } /* ty=fn (Tensor[(1, 16, 32, 32), float32]) -> Tensor[(1, 16, 64, 64), float32] span=from_string:7:3 */;
  let %x_3: Tensor[(1, 16, 64, 64), float32] /* ty=Tensor[(1, 16, 64, 64), float32] span=from_string:119:21 */ = %x_2(%x_1);
  let %x_4: fn (Tensor[(1, 16, 64, 64), float32]) -> Tensor[(1, 16, 64, 64), float32] /* ty=fn (Tensor[(1, 16, 64, 64), float32]) -> Tensor[(1, 16, 64, 64), float32] span=from_string:14:113 */ = fn (%p0: Tensor[(1, 16, 64, 64), float32] /* ty=Tensor[(1, 16, 64, 64), float32] span=from_string:12:20 */, Primitive=1) -> Tensor[(1, 16, 64, 64), float32] {
    multiply(%p0, %p0) /* ty=Tensor[(1, 16, 64, 64), float32] span=from_string:12:6 */
  } /* ty=fn (Tensor[(1, 16, 64, 64), float32]) -> Tensor[(1, 16, 64, 64), float32] span=from_string:11:3 */;
  let %x5: Tensor[(1, 16, 64, 64), float32] /* ty=Tensor[(1, 16, 64, 64), float32] span=from_string:121:16 */ = %x_4(%x_3);
  let %x_5: fn (Tensor[(1, 16, 64, 64), float32]) -> Tensor[(1, 16, 64, 64), float32] /* ty=fn (Tensor[(1, 16, 64, 64), float32]) -> Tensor[(1, 16, 64, 64), float32] span=from_string:18:113 */ = fn (%p03: Tensor[(1, 16, 64, 64), float32] /* ty=Tensor[(1, 16, 64, 64), float32] span=from_string:16:15 */, Primitive=1) -> Tensor[(1, 16, 64, 64), float32] {
    ones_like(%p03) /* ty=Tensor[(1, 16, 64, 64), float32] span=from_string:16:5 */
  } /* ty=fn (Tensor[(1, 16, 64, 64), float32]) -> Tensor[(1, 16, 64, 64), float32] span=from_string:15:3 */;
  let %x6: Tensor[(1, 16, 64, 64), float32] /* ty=Tensor[(1, 16, 64, 64), float32] span=from_string:113:21 */ = %x_5(%x5);
  let %x_6: fn (Tensor[(1, 16, 64, 64), float32], Tensor[(1, 16, 64, 64), float32]) -> Tensor[(1, 32, 64, 64), float32] /* ty=fn (Tensor[(1, 16, 64, 64), float32], Tensor[(1, 16, 64, 64), float32]) -> Tensor[(1, 32, 64, 64), float32] span=from_string:26:14 */ = fn (%p05: Tensor[(1, 16, 64, 64), float32] /* ty=Tensor[(1, 16, 64, 64), float32] span=from_string:20:11 */, %p1: Tensor[(1, 16, 64, 64), float32] /* ty=Tensor[(1, 16, 64, 64), float32] span=from_string:20:17 */, Primitive=1) -> Tensor[(1, 32, 64, 64), float32] {
    %0 = (%p05, %p1) /* ty=(Tensor[(1, 16, 64, 64), float32], Tensor[(1, 16, 64, 64), float32]) span=from_string:21:22 */;
    %1 = concatenate(%0, axis=1) /* ty=Tensor[(1, 32, 64, 64), float32] span=from_string:22:33 */;
    %2 = annotation.stop_fusion(%1) /* ty=Tensor[(1, 32, 64, 64), float32] span=from_string:23:11 */;
    %3 = (%2,) /* ty=(Tensor[(1, 32, 64, 64), float32],) span=from_string:24:17 */;
    concatenate(%3, axis=1) /* ty=Tensor[(1, 32, 64, 64), float32] span=from_string:20:5 */
  } /* ty=fn (Tensor[(1, 16, 64, 64), float32], Tensor[(1, 16, 64, 64), float32]) -> Tensor[(1, 32, 64, 64), float32] span=from_string:19:3 */;
  let %x_7: Tensor[(1, 32, 64, 64), float32] /* ty=Tensor[(1, 32, 64, 64), float32] span=from_string:50:21 */ = %x_6(%x_3, %x0);
  let %x_8: fn (Tensor[(1, 32, 64, 64), float32]) -> Tensor[(1, 32, 64, 64), float32] /* ty=fn (Tensor[(1, 32, 64, 64), float32]) -> Tensor[(1, 32, 64, 64), float32] span=from_string:30:14 */ = fn (%p04: Tensor[(1, 32, 64, 64), float32] /* ty=Tensor[(1, 32, 64, 64), float32] span=from_string:28:9 */, Primitive=1) -> Tensor[(1, 32, 64, 64), float32] {
    add(%p04, 1f /* ty=float32 span=from_string:28:17 */) /* ty=Tensor[(1, 32, 64, 64), float32] span=from_string:28:5 */
  } /* ty=fn (Tensor[(1, 32, 64, 64), float32]) -> Tensor[(1, 32, 64, 64), float32] span=from_string:27:3 */;
  let %x_9: Tensor[(1, 32, 64, 64), float32] /* ty=Tensor[(1, 32, 64, 64), float32] span=from_string:122:16 */ = %x_8(%x_7);
  let %x_10: fn (Tensor[(1, 16, 32, 32), float32]) -> Tensor[(1, 16, 32, 32), float32] /* ty=fn (Tensor[(1, 16, 32, 32), float32]) -> Tensor[(1, 16, 32, 32), float32] span=from_string:35:15 */ = fn (%p08: Tensor[(1, 16, 32, 32), float32] /* ty=Tensor[(1, 16, 32, 32), float32] span=from_string:32:15 */, Primitive=1) -> Tensor[(1, 16, 32, 32), float32] {
    %4 = tanh(%p08) /* ty=Tensor[(1, 16, 32, 32), float32] span=from_string:33:13 */;
    nn.relu(%4) /* ty=Tensor[(1, 16, 32, 32), float32] span=from_string:32:5 */
  } /* ty=fn (Tensor[(1, 16, 32, 32), float32]) -> Tensor[(1, 16, 32, 32), float32] span=from_string:31:3 */;
  let %x_11: Tensor[(1, 16, 32, 32), float32] /* ty=Tensor[(1, 16, 32, 32), float32] span=from_string:60:21 */ = %x_10(%x_1);
  let %x_12: fn (Tensor[(1, 16, 32, 32), float32]) -> Tensor[(32, 32, 16, 1), float32] /* ty=fn (Tensor[(1, 16, 32, 32), float32]) -> Tensor[(32, 32, 16, 1), float32] span=from_string:40:15 */ = fn (%p07: Tensor[(1, 16, 32, 32), float32] /* ty=Tensor[(1, 16, 32, 32), float32] span=from_string:37:20 */, Primitive=1) -> Tensor[(32, 32, 16, 1), float32] {
    %5 = transpose(%p07, axes=[0, 2, 3, 1]) /* ty=Tensor[(1, 32, 32, 16), float32] span=from_string:38:15 */;
    transpose(%5, axes=[1, 2, 3, 0]) /* ty=Tensor[(32, 32, 16, 1), float32] span=from_string:37:5 */
  } /* ty=fn (Tensor[(1, 16, 32, 32), float32]) -> Tensor[(32, 32, 16, 1), float32] span=from_string:36:3 */;
  let %x_13: Tensor[(32, 32, 16, 1), float32] /* ty=Tensor[(32, 32, 16, 1), float32] span=from_string:97:21 */ = %x_12(%x_11);
  let %x_14: fn (Tensor[(32, 32, 16, 1), float32]) -> Tensor[(1, 16, 32, 32), float32] /* ty=fn (Tensor[(32, 32, 16, 1), float32]) -> Tensor[(1, 16, 32, 32), float32] span=from_string:44:15 */ = fn (%p06: Tensor[(32, 32, 16, 1), float32] /* ty=Tensor[(32, 32, 16, 1), float32] span=from_string:42:15 */, Primitive=1) -> Tensor[(1, 16, 32, 32), float32] {
    transpose(%p06, axes=[3, 2, 0, 1]) /* ty=Tensor[(1, 16, 32, 32), float32] span=from_string:42:5 */
  } /* ty=fn (Tensor[(32, 32, 16, 1), float32]) -> Tensor[(1, 16, 32, 32), float32] span=from_string:41:3 */;
  let %x_15: Tensor[(1, 16, 32, 32), float32] /* ty=Tensor[(1, 16, 32, 32), float32] span=from_string:122:22 */ = %x_14(%x_13);
  let %x_16: fn (Tensor[(1, 32, 64, 64), float32]) -> Tensor[(1, 32, 64, 64), float32] /* ty=fn (Tensor[(1, 32, 64, 64), float32]) -> Tensor[(1, 32, 64, 64), float32] span=from_string:50:15 */ = fn (%p09: Tensor[(1, 32, 64, 64), float32] /* ty=Tensor[(1, 32, 64, 64), float32] span=from_string:46:27 */, Primitive=1) -> Tensor[(1, 32, 64, 64), float32] {
    %6 = layout_transform(%p09, src_layout="NCHW", dst_layout="NCHW4c") /* ty=Tensor[(1, 8, 64, 64, 4), float32] span=from_string:47:27 */;
    %7 = layout_transform(%6, src_layout="NCHW4c", dst_layout="NCHW") /* ty=Tensor[(1, 32, 64, 64), float32] span=from_string:48:13 */;
    nn.relu(%7) /* ty=Tensor[(1, 32, 64, 64), float32] span=from_string:46:5 */
  } /* ty=fn (Tensor[(1, 32, 64, 64), float32]) -> Tensor[(1, 32, 64, 64), float32] span=from_string:45:3 */;
  let %x_17: Tensor[(1, 32, 64, 64), float32] /* ty=Tensor[(1, 32, 64, 64), float32] span=from_string:122:29 */ = %x_16(%x_7);
  let %x_18: fn (Tensor[(1, 16, 32, 32), float32], Tensor[(16, 16, 3, 3), float32]) -> Tensor[(1, 16, 32, 32), float32] /* ty=fn (Tensor[(1, 16, 32, 32), float32], Tensor[(16, 16, 3, 3), float32]) -> Tensor[(1, 16, 32, 32), float32] span=from_string:55:15 */ = fn (%p013: Tensor[(1, 16, 32, 32), float32] /* ty=Tensor[(1, 16, 32, 32), float32] span=from_string:52:20 */, %p14: Tensor[(16, 16, 3, 3), float32] /* ty=Tensor[(16, 16, 3, 3), float32] span=from_string:52:27 */, Primitive=1) -> Tensor[(1, 16, 32, 32), float32] {
    %8 = nn.conv2d(%p013, %p14, padding=[1, 1, 1, 1], channels=16, kernel_size=[3, 3]) /* ty=Tensor[(1, 16, 32, 32), float32] span=from_string:53:13 */;
    nn.relu(%8) /* ty=Tensor[(1, 16, 32, 32), float32] span=from_string:52:5 */
  } /* ty=fn (Tensor[(1, 16, 32, 32), float32], Tensor[(16, 16, 3, 3), float32]) -> Tensor[(1, 16, 32, 32), float32] span=from_string:51:3 */;
  let %x_19: Tensor[(1, 16, 32, 32), float32] /* ty=Tensor[(1, 16, 32, 32), float32] span=from_string:68:21 */ = %x_18(%x_11, %x1);
  let %x_20: fn (Tensor[(1, 16, 32, 32), float32], Tensor[(16, 16, 3, 3), float32]) -> Tensor[(1, 16, 32, 32), float32] /* ty=fn (Tensor[(1, 16, 32, 32), float32], Tensor[(16, 16, 3, 3), float32]) -> Tensor[(1, 16, 32, 32), float32] span=from_string:60:15 */ = fn (%p014: Tensor[(1, 16, 32, 32), float32] /* ty=Tensor[(1, 16, 32, 32), float32] span=from_string:57:20 */, %p15: Tensor[(16, 16, 3, 3), float32] /* ty=Tensor[(16, 16, 3, 3), float32] span=from_string:57:27 */, Primitive=1) -> Tensor[(1, 16, 32, 32), float32] {
    %9 = nn.conv2d(%p014, %p15, padding=[1, 1, 1, 1], channels=16, kernel_size=[3, 3]) /* ty=Tensor[(1, 16, 32, 32), float32] span=from_string:58:13 */;
    nn.relu(%9) /* ty=Tensor[(1, 16, 32, 32), float32] span=from_string:57:5 */
  } /* ty=fn (Tensor[(1, 16, 32, 32), float32], Tensor[(16, 16, 3, 3), float32]) -> Tensor[(1, 16, 32, 32), float32] span=from_string:56:3 */;
  let %x_21: Tensor[(1, 16, 32, 32), float32] /* ty=Tensor[(1, 16, 32, 32), float32] span=from_string:68:28 */ = %x_20(%x_11, %x2);
  let %x_22: fn (Tensor[(1, 16, 32, 32), float32], Tensor[(1, 16, 32, 32), float32]) -> Tensor[(1, 32, 32, 32), float32] /* ty=fn (Tensor[(1, 16, 32, 32), float32], Tensor[(1, 16, 32, 32), float32]) -> Tensor[(1, 32, 32, 32), float32] span=from_string:68:15 */ = fn (%p012: Tensor[(1, 16, 32, 32), float32] /* ty=Tensor[(1, 16, 32, 32), float32] span=from_string:62:12 */, %p13: Tensor[(1, 16, 32, 32), float32] /* ty=Tensor[(1, 16, 32, 32), float32] span=from_string:62:19 */, Primitive=1) -> Tensor[(1, 32, 32, 32), float32] {
    %10 = (%p012, %p13) /* ty=(Tensor[(1, 16, 32, 32), float32], Tensor[(1, 16, 32, 32), float32]) span=from_string:63:23 */;
    %11 = concatenate(%10, axis=1) /* ty=Tensor[(1, 32, 32, 32), float32] span=from_string:64:34 */;
    %12 = annotation.stop_fusion(%11) /* ty=Tensor[(1, 32, 32, 32), float32] span=from_string:65:12 */;
    %13 = (%12,) /* ty=(Tensor[(1, 32, 32, 32), float32],) span=from_string:66:17 */;
    concatenate(%13, axis=1) /* ty=Tensor[(1, 32, 32, 32), float32] span=from_string:62:5 */
  } /* ty=fn (Tensor[(1, 16, 32, 32), float32], Tensor[(1, 16, 32, 32), float32]) -> Tensor[(1, 32, 32, 32), float32] span=from_string:61:3 */;
  let %x_23: Tensor[(1, 32, 32, 32), float32] /* ty=Tensor[(1, 32, 32, 32), float32] span=from_string:77:21 */ = %x_22(%x_19, %x_21);
  let %x_24: fn (Tensor[(1, 32, 32, 32), float32], Tensor[(16, 32, 3, 3), float32]) -> Tensor[(1, 16, 32, 32), float32] /* ty=fn (Tensor[(1, 32, 32, 32), float32], Tensor[(16, 32, 3, 3), float32]) -> Tensor[(1, 16, 32, 32), float32] span=from_string:72:15 */ = fn (%p011: Tensor[(1, 32, 32, 32), float32] /* ty=Tensor[(1, 32, 32, 32), float32] span=from_string:70:15 */, %p12: Tensor[(16, 32, 3, 3), float32] /* ty=Tensor[(16, 32, 3, 3), float32] span=from_string:70:22 */, Primitive=1) -> Tensor[(1, 16, 32, 32), float32] {
    nn.conv2d(%p011, %p12, padding=[1, 1, 1, 1], channels=16, kernel_size=[3, 3]) /* ty=Tensor[(1, 16, 32, 32), float32] span=from_string:70:5 */
  } /* ty=fn (Tensor[(1, 32, 32, 32), float32], Tensor[(16, 32, 3, 3), float32]) -> Tensor[(1, 16, 32, 32), float32] span=from_string:69:3 */;
  let %x_25: Tensor[(1, 16, 32, 32), float32] /* ty=Tensor[(1, 16, 32, 32), float32] span=from_string:92:21 */ = %x_24(%x_23, %x4);
  let %x_26: fn (Tensor[(1, 32, 32, 32), float32], Tensor[(16, 32, 3, 3), float32]) -> Tensor[(1, 16, 32, 32), float32] /* ty=fn (Tensor[(1, 32, 32, 32), float32], Tensor[(16, 32, 3, 3), float32]) -> Tensor[(1, 16, 32, 32), float32] span=from_string:77:15 */ = fn (%p015: Tensor[(1, 32, 32, 32), float32] /* ty=Tensor[(1, 32, 32, 32), float32] span=from_string:74:21 */, %p16: Tensor[(16, 32, 3, 3), float32] /* ty=Tensor[(16, 32, 3, 3), float32] span=from_string:74:28 */, Primitive=1) -> Tensor[(1, 16, 32, 32), float32] {
    %14 = nn.conv2d(%p015, %p16, padding=[1, 1, 1, 1], channels=16, kernel_size=[3, 3]) /* ty=Tensor[(1, 16, 32, 32), float32] span=from_string:75:13 */;
    nn.relu(%14) /* ty=Tensor[(1, 16, 32, 32), float32] span=from_string:74:5 */
  } /* ty=fn (Tensor[(1, 32, 32, 32), float32], Tensor[(16, 32, 3, 3), float32]) -> Tensor[(1, 16, 32, 32), float32] span=from_string:73:3 */;
  let %x_27: Tensor[(1, 16, 32, 32), float32] /* ty=Tensor[(1, 16, 32, 32), float32] span=from_string:86:28 */ = %x_26(%x_23, %x3);
  let %x_28: fn (Tensor[(1, 16, 32, 32), float32], Tensor[(1, 16, 32, 32), float32]) -> Tensor[(1, 32, 32, 32), float32] /* ty=fn (Tensor[(1, 16, 32, 32), float32], Tensor[(1, 16, 32, 32), float32]) -> Tensor[(1, 32, 32, 32), float32] span=from_string:86:15 */ = fn (%p010: Tensor[(1, 16, 32, 32), float32] /* ty=Tensor[(1, 16, 32, 32), float32] span=from_string:79:19 */, %p11: Tensor[(1, 16, 32, 32), float32] /* ty=Tensor[(1, 16, 32, 32), float32] span=from_string:80:12 */, Primitive=1) -> Tensor[(1, 32, 32, 32), float32] {
    %15 = nn.relu(%p010) /* ty=Tensor[(1, 16, 32, 32), float32] span=from_string:80:18 */;
    %16 = (%p11, %15) /* ty=(Tensor[(1, 16, 32, 32), float32], Tensor[(1, 16, 32, 32), float32]) span=from_string:81:23 */;
    %17 = concatenate(%16, axis=1) /* ty=Tensor[(1, 32, 32, 32), float32] span=from_string:82:34 */;
    %18 = annotation.stop_fusion(%17) /* ty=Tensor[(1, 32, 32, 32), float32] span=from_string:83:12 */;
    %19 = (%18,) /* ty=(Tensor[(1, 32, 32, 32), float32],) span=from_string:84:17 */;
    concatenate(%19, axis=1) /* ty=Tensor[(1, 32, 32, 32), float32] span=from_string:79:5 */
  } /* ty=fn (Tensor[(1, 16, 32, 32), float32], Tensor[(1, 16, 32, 32), float32]) -> Tensor[(1, 32, 32, 32), float32] span=from_string:78:3 */;
  let %x_29: Tensor[(1, 32, 32, 32), float32] /* ty=Tensor[(1, 32, 32, 32), float32] span=from_string:122:36 */ = %x_28(%x_25, %x_27);
  let %x_30: fn (Tensor[(1, 16, 32, 32), float32]) -> Tensor[(16, 32, 32, 1), float32] /* ty=fn (Tensor[(1, 16, 32, 32), float32]) -> Tensor[(16, 32, 32, 1), float32] span=from_string:92:15 */ = fn (%p016: Tensor[(1, 16, 32, 32), float32] /* ty=Tensor[(1, 16, 32, 32), float32] span=from_string:88:28 */, Primitive=1) -> Tensor[(16, 32, 32, 1), float32] {
    %20 = layout_transform(%p016, src_layout="NCHW", dst_layout="NHWC") /* ty=Tensor[(1, 32, 32, 16), float32] span=from_string:89:28 */;
    %21 = layout_transform(%20, src_layout="NHWC", dst_layout="CHWN") /* ty=Tensor[(16, 32, 32, 1), float32] span=from_string:90:13 */;
    nn.relu(%21) /* ty=Tensor[(16, 32, 32, 1), float32] span=from_string:88:5 */
  } /* ty=fn (Tensor[(1, 16, 32, 32), float32]) -> Tensor[(16, 32, 32, 1), float32] span=from_string:87:3 */;
  let %x_31: Tensor[(16, 32, 32, 1), float32] /* ty=Tensor[(16, 32, 32, 1), float32] span=from_string:122:43 */ = %x_30(%x_25);
  let %x_32: fn (Tensor[(32, 32, 16, 1), float32]) -> Tensor[(32, 32, 16, 1), float32] /* ty=fn (Tensor[(32, 32, 16, 1), float32]) -> Tensor[(32, 32, 16, 1), float32] span=from_string:97:15 */ = fn (%p018: Tensor[(32, 32, 16, 1), float32] /* ty=Tensor[(32, 32, 16, 1), float32] span=from_string:94:19 */, Primitive=1) -> Tensor[(32, 32, 16, 1), float32] {
    %22 = nn.relu(%p018) /* ty=Tensor[(32, 32, 16, 1), float32] span=from_string:95:9 */;
    add(%22, 1f /* ty=float32 span=from_string:95:16 */) /* ty=Tensor[(32, 32, 16, 1), float32] span=from_string:94:5 */
  } /* ty=fn (Tensor[(32, 32, 16, 1), float32]) -> Tensor[(32, 32, 16, 1), float32] span=from_string:93:3 */;
  let %x_33: Tensor[(32, 32, 16, 1), float32] /* ty=Tensor[(32, 32, 16, 1), float32] span=from_string:108:21 */ = %x_32(%x_13);
  let %x_34: fn (Tensor[(32, 32, 16, 1), float32]) -> Tensor[(32, 32, 16, 1), float32] /* ty=fn (Tensor[(32, 32, 16, 1), float32]) -> Tensor[(32, 32, 16, 1), float32] span=from_string:101:15 */ = fn (%p017: Tensor[(32, 32, 16, 1), float32] /* ty=Tensor[(32, 32, 16, 1), float32] span=from_string:99:16 */, Primitive=1) -> Tensor[(32, 32, 16, 1), float32] {
    add(%p017, %p017) /* ty=Tensor[(32, 32, 16, 1), float32] span=from_string:99:5 */
  } /* ty=fn (Tensor[(32, 32, 16, 1), float32]) -> Tensor[(32, 32, 16, 1), float32] span=from_string:98:3 */;
  let %x_35: Tensor[(32, 32, 16, 1), float32] /* ty=Tensor[(32, 32, 16, 1), float32] span=from_string:122:50 */ = %x_34(%x_33);
  let %x_36: float32 /* ty=float32 span=from_string:122:57 */ = 2f /* ty=float32 span=from_string:102:17 */;
  let %x_37: fn (Tensor[(32, 32, 16, 1), float32]) -> Tensor[(32, 32, 16), float32] /* ty=fn (Tensor[(32, 32, 16, 1), float32]) -> Tensor[(32, 32, 16), float32] span=from_string:108:15 */ = fn (%p019: Tensor[(32, 32, 16, 1), float32] /* ty=Tensor[(32, 32, 16, 1), float32] span=from_string:104:15 */, Primitive=1) -> Tensor[(32, 32, 16), float32] {
    %23 = add(%p019, 1f /* ty=float32 span=from_string:104:24 */) /* ty=Tensor[(32, 32, 16, 1), float32] span=from_string:105:15 */;
    %24 = exp(%23) /* ty=Tensor[(32, 32, 16, 1), float32] span=from_string:106:13 */;
    squeeze(%24) /* ty=Tensor[(32, 32, 16), float32] span=from_string:104:5 */
  } /* ty=fn (Tensor[(32, 32, 16, 1), float32]) -> Tensor[(32, 32, 16), float32] span=from_string:103:3 */;
  let %x_38: Tensor[(32, 32, 16), float32] /* ty=Tensor[(32, 32, 16), float32] span=from_string:122:64 */ = %x_37(%x_33);
  let %x_39: fn (Tensor[(1, 16, 64, 64), float32], Tensor[(1, 16, 64, 64), float32]) -> Tensor[(1, 16, 64, 64), float32] /* ty=fn (Tensor[(1, 16, 64, 64), float32], Tensor[(1, 16, 64, 64), float32]) -> Tensor[(1, 16, 64, 64), float32] span=from_string:113:15 */ = fn (%p021: Tensor[(1, 16, 64, 64), float32] /* ty=Tensor[(1, 16, 64, 64), float32] span=from_string:110:21 */, %p18: Tensor[(1, 16, 64, 64), float32] /* ty=Tensor[(1, 16, 64, 64), float32] span=from_string:111:28 */, Primitive=1) -> Tensor[(1, 16, 64, 64), float32] {
    %25 = multiply(%p021, %p18) /* ty=Tensor[(1, 16, 64, 64), float32] span=from_string:111:23 */;
    collapse_sum_like(%25, %p18) /* ty=Tensor[(1, 16, 64, 64), float32] span=from_string:110:5 */
  } /* ty=fn (Tensor[(1, 16, 64, 64), float32], Tensor[(1, 16, 64, 64), float32]) -> Tensor[(1, 16, 64, 64), float32] span=from_string:109:3 */;
  let %x_40: Tensor[(1, 16, 64, 64), float32] /* ty=Tensor[(1, 16, 64, 64), float32] span=from_string:119:27 */ = %x_39(%x6, %x_3);
  let %x_41: fn (Tensor[(1, 16, 64, 64), float32], Tensor[(1, 16, 64, 64), float32]) -> Tensor[(1, 16, 64, 64), float32] /* ty=fn (Tensor[(1, 16, 64, 64), float32], Tensor[(1, 16, 64, 64), float32]) -> Tensor[(1, 16, 64, 64), float32] span=from_string:119:15 */ = fn (%p020: Tensor[(1, 16, 64, 64), float32] /* ty=Tensor[(1, 16, 64, 64), float32] span=from_string:115:22 */, %p17: Tensor[(1, 16, 64, 64), float32] /* ty=Tensor[(1, 16, 64, 64), float32] span=from_string:117:14 */, Primitive=1) -> Tensor[(1, 16, 64, 64), float32] {
    %26 = zeros_like(%p020) /* ty=Tensor[(1, 16, 64, 64), float32] span=from_string:116:15 */;
    %27 = add(%26, %p17) /* ty=Tensor[(1, 16, 64, 64), float32] span=from_string:117:9 */;
    add(%27, %p17) /* ty=Tensor[(1, 16, 64, 64), float32] span=from_string:115:5 */
  } /* ty=fn (Tensor[(1, 16, 64, 64), float32], Tensor[(1, 16, 64, 64), float32]) -> Tensor[(1, 16, 64, 64), float32] span=from_string:114:3 */;
  let %x_42: Tensor[(1, 16, 64, 64), float32] /* ty=Tensor[(1, 16, 64, 64), float32] span=from_string:120:16 */ = %x_41(%x_3, %x_40);
  let %x_43: (Tensor[(1, 16, 64, 64), float32],) /* ty=(Tensor[(1, 16, 64, 64), float32],) span=from_string:121:21 */ = (%x_42,) /* ty=(Tensor[(1, 16, 64, 64), float32],) span=from_string:120:15 */;
  let %x_44: (Tensor[(1, 16, 64, 64), float32], (Tensor[(1, 16, 64, 64), float32],)) /* ty=(Tensor[(1, 16, 64, 64), float32], (Tensor[(1, 16, 64, 64), float32],)) span=from_string:122:71 */ = (%x5, %x_43) /* ty=(Tensor[(1, 16, 64, 64), float32], (Tensor[(1, 16, 64, 64), float32],)) span=from_string:121:15 */;
  let %x_45: (Tensor[(1, 32, 64, 64), float32], Tensor[(1, 16, 32, 32), float32], Tensor[(1, 32, 64, 64), float32], Tensor[(1, 32, 32, 32), float32], Tensor[(16, 32, 32, 1), float32], Tensor[(32, 32, 16, 1), float32], float32, Tensor[(32, 32, 16), float32], (Tensor[(1, 16, 64, 64), float32], (Tensor[(1, 16, 64, 64), float32],))) /* ty=(Tensor[(1, 32, 64, 64), float32], Tensor[(1, 16, 32, 32), float32], Tensor[(1, 32, 64, 64), float32], Tensor[(1, 32, 32, 32), float32], Tensor[(16, 32, 32, 1), float32], Tensor[(32, 32, 16, 1), float32], float32, Tensor[(32, 32, 16), float32], (Tensor[(1, 16, 64, 64), float32], (Tensor[(1, 16, 64, 64), float32],))) span=from_string:123:15 */ = (%x_9, %x_15, %x_17, %x_29, %x_31, %x_35, %x_36, %x_38, %x_44) /* ty=(Tensor[(1, 32, 64, 64), float32], Tensor[(1, 16, 32, 32), float32], Tensor[(1, 32, 64, 64), float32], Tensor[(1, 32, 32, 32), float32], Tensor[(16, 32, 32, 1), float32], Tensor[(32, 32, 16, 1), float32], float32, Tensor[(32, 32, 16), float32], (Tensor[(1, 16, 64, 64), float32], (Tensor[(1, 16, 64, 64), float32],))) span=from_string:122:15 */;
  let %x_46: (Tensor[(1, 32, 64, 64), float32], Tensor[(1, 16, 32, 32), float32], Tensor[(1, 32, 64, 64), float32], Tensor[(1, 32, 32, 32), float32], Tensor[(16, 32, 32, 1), float32], Tensor[(32, 32, 16, 1), float32], float32, Tensor[(32, 32, 16), float32], (Tensor[(1, 16, 64, 64), float32], (Tensor[(1, 16, 64, 64), float32],))) /* ty=(Tensor[(1, 32, 64, 64), float32], Tensor[(1, 16, 32, 32), float32], Tensor[(1, 32, 64, 64), float32], Tensor[(1, 32, 32, 32), float32], Tensor[(16, 32, 32, 1), float32], Tensor[(32, 32, 16, 1), float32], float32, Tensor[(32, 32, 16), float32], (Tensor[(1, 16, 64, 64), float32], (Tensor[(1, 16, 64, 64), float32],))) span=from_string:124:15 */ = %x_45;
  let %x_47: (Tensor[(1, 32, 64, 64), float32], Tensor[(1, 16, 32, 32), float32], Tensor[(1, 32, 64, 64), float32], Tensor[(1, 32, 32, 32), float32], Tensor[(16, 32, 32, 1), float32], Tensor[(32, 32, 16, 1), float32], float32, Tensor[(32, 32, 16), float32], (Tensor[(1, 16, 64, 64), float32], (Tensor[(1, 16, 64, 64), float32],))) /* ty=(Tensor[(1, 32, 64, 64), float32], Tensor[(1, 16, 32, 32), float32], Tensor[(1, 32, 64, 64), float32], Tensor[(1, 32, 32, 32), float32], Tensor[(16, 32, 32, 1), float32], Tensor[(32, 32, 16, 1), float32], float32, Tensor[(32, 32, 16), float32], (Tensor[(1, 16, 64, 64), float32], (Tensor[(1, 16, 64, 64), float32],))) span=from_string:125:3 */ = %x_46;
  let %x_01 = %x_47;
  let %x_110 = %x_01;
  let %x_210 = %x_110;
  let %x_310 = %x_210;
  let %x_48 = %x_310;
  let %x_51 = %x_48;
  let %x_61 = %x_51;
  let %x_71 = %x_61;
  let %x_81 = %x_71;
  let %x_91 = %x_81;
  let %x_101 = %x_91;
  let %x_111 = %x_101;
  let %x_121 = %x_111;
  let %x_131 = %x_121;
  let %x_141 = %x_131;
  let %x_151 = %x_141;
  let %x_161 = %x_151;
  let %x_171 = %x_161;
  let %x_181 = %x_171;
  let %x_191 = %x_181;
  let %x_201 = %x_191;
  let %x_211 = %x_201;
  let %x_221 = %x_211;
  let %x_231 = %x_221;
  let %x_241 = %x_231;
  let %x_251 = %x_241;
  let %x_261 = %x_251;
  let %x_271 = %x_261;
  let %x_281 = %x_271;
  let %x_291 = %x_281;
  let %x_301 = %x_291;
  let %x_311 = %x_301;
  let %x_321 = %x_311;
  let %x_331 = %x_321;
  let %x_341 = %x_331;
  let %x_351 = %x_341;
  let %x_361 = %x_351;
  let %x_371 = %x_361;
  let %x_381 = %x_371;
  let %x_391 = %x_381;
  let %x_401 = %x_391;
  let %x_411 = %x_401;
  let %x_421 = %x_411;
  let %x_431 = %x_421;
  let %x_441 = %x_431;
  let %x_451 = %x_441;
  let %x_461 = %x_451;
  let %x_471 = %x_461;
  let %x_481 = %x_471;
  let %x_49 = %x_481;
  %x_49
}
