#[version = "0.0.5"]
def @main(%x0: Tensor[(1, 16, 64, 64), float32] /* ty=Tensor[(1, 16, 64, 64), float32] span=from_string:18:15 */, %x1: Tensor[(16, 16, 3, 3), float32] /* ty=Tensor[(16, 16, 3, 3), float32] span=from_string:45:18 */, %x2: Tensor[(16, 16, 3, 3), float32] /* ty=Tensor[(16, 16, 3, 3), float32] span=from_string:46:18 */, %x3: Tensor[(16, 32, 3, 3), float32] /* ty=Tensor[(16, 32, 3, 3), float32] span=from_string:63:18 */, %x4: Tensor[(16, 32, 3, 3), float32] /* ty=Tensor[(16, 32, 3, 3), float32] span=from_string:62:18 */) -> (Tensor[(1, 32, 64, 64), float32], Tensor[(1, 16, 32, 32), float32], Tensor[(1, 32, 64, 64), float32], Tensor[(1, 32, 32, 32), float32], Tensor[(16, 32, 32, 1), float32], Tensor[(32, 32, 16, 1), float32], float32, Tensor[(32, 32, 16), float32], (Tensor[(1, 16, 64, 64), float32], (Tensor[(1, 16, 64, 64), float32],))) {
  %4 = fn (%p02: Tensor[(1, 16, 64, 64), float32] /* ty=Tensor[(1, 16, 64, 64), float32] span=from_string:4:20 */, Primitive=1) -> Tensor[(1, 16, 32, 32), float32] {
    nn.max_pool2d(%p02, pool_size=[2, 2], strides=[2, 2], padding=[0, 0, 0, 0]) /* ty=Tensor[(1, 16, 32, 32), float32] span=from_string:4:5 */
  } /* ty=fn (Tensor[(1, 16, 64, 64), float32]) -> Tensor[(1, 16, 32, 32), float32] span=from_string:6:8 */;
  %5 = %4(%x0) /* ty=Tensor[(1, 16, 32, 32), float32] span=from_string:26:13 */;
  %6 = fn (%p01: Tensor[(1, 16, 32, 32), float32] /* ty=Tensor[(1, 16, 32, 32), float32] span=from_string:8:19 */, Primitive=1) -> Tensor[(1, 16, 64, 64), float32] {
    nn.upsampling(%p01, scale_h=2f, scale_w=2f) /* ty=Tensor[(1, 16, 64, 64), float32] span=from_string:8:5 */
  } /* ty=fn (Tensor[(1, 16, 32, 32), float32]) -> Tensor[(1, 16, 64, 64), float32] span=from_string:10:8 */;
  %7 = %6(%5) /* ty=Tensor[(1, 16, 64, 64), float32] span=from_string:105:13 */;
  %8 = fn (%p05: Tensor[(1, 16, 64, 64), float32] /* ty=Tensor[(1, 16, 64, 64), float32] span=from_string:12:11 */, %p1: Tensor[(1, 16, 64, 64), float32] /* ty=Tensor[(1, 16, 64, 64), float32] span=from_string:12:17 */, Primitive=1) -> Tensor[(1, 32, 64, 64), float32] {
    %0 = (%p05, %p1) /* ty=(Tensor[(1, 16, 64, 64), float32], Tensor[(1, 16, 64, 64), float32]) span=from_string:13:22 */;
    %1 = concatenate(%0, axis=1) /* ty=Tensor[(1, 32, 64, 64), float32] span=from_string:14:33 */;
    %2 = annotation.stop_fusion(%1) /* ty=Tensor[(1, 32, 64, 64), float32] span=from_string:15:11 */;
    %3 = (%2,) /* ty=(Tensor[(1, 32, 64, 64), float32],) span=from_string:16:17 */;
    concatenate(%3, axis=1) /* ty=Tensor[(1, 32, 64, 64), float32] span=from_string:12:5 */
  } /* ty=fn (Tensor[(1, 16, 64, 64), float32], Tensor[(1, 16, 64, 64), float32]) -> Tensor[(1, 32, 64, 64), float32] span=from_string:18:8 */;
  %9 = %8(%7, %x0) /* ty=Tensor[(1, 32, 64, 64), float32] span=from_string:109:13 */;
  %10 = fn (%p04: Tensor[(1, 32, 64, 64), float32] /* ty=Tensor[(1, 32, 64, 64), float32] span=from_string:20:9 */, Primitive=1) -> Tensor[(1, 32, 64, 64), float32] {
    add(%p04, 1f /* ty=float32 span=from_string:20:17 */) /* ty=Tensor[(1, 32, 64, 64), float32] span=from_string:20:5 */
  } /* ty=fn (Tensor[(1, 32, 64, 64), float32]) -> Tensor[(1, 32, 64, 64), float32] span=from_string:107:9 */;
  %12 = fn (%p08: Tensor[(1, 16, 32, 32), float32] /* ty=Tensor[(1, 16, 32, 32), float32] span=from_string:23:16 */, Primitive=1) -> Tensor[(1, 16, 32, 32), float32] {
    %11 = tanh(%p08) /* ty=Tensor[(1, 16, 32, 32), float32] span=from_string:24:13 */;
    nn.relu(%11) /* ty=Tensor[(1, 16, 32, 32), float32] span=from_string:23:5 */
  } /* ty=fn (Tensor[(1, 16, 32, 32), float32]) -> Tensor[(1, 16, 32, 32), float32] span=from_string:26:9 */;
  %13 = %12(%5) /* ty=Tensor[(1, 16, 32, 32), float32] span=from_string:46:13 */;
  %14 = fn (%p07: Tensor[(1, 16, 32, 32), float32] /* ty=Tensor[(1, 16, 32, 32), float32] span=from_string:28:15 */, Primitive=1) -> Tensor[(32, 32, 16, 1), float32] {
    transpose(%p07, axes=[2, 3, 1, 0]) /* ty=Tensor[(32, 32, 16, 1), float32] span=from_string:28:5 */
  } /* ty=fn (Tensor[(1, 16, 32, 32), float32]) -> Tensor[(32, 32, 16, 1), float32] span=from_string:30:9 */;
  %15 = %14(%13) /* ty=Tensor[(32, 32, 16, 1), float32] span=from_string:108:13 */;
  %16 = fn (%p06: Tensor[(32, 32, 16, 1), float32] /* ty=Tensor[(32, 32, 16, 1), float32] span=from_string:32:15 */, Primitive=1) -> Tensor[(1, 16, 32, 32), float32] {
    transpose(%p06, axes=[3, 2, 0, 1]) /* ty=Tensor[(1, 16, 32, 32), float32] span=from_string:32:5 */
  } /* ty=fn (Tensor[(32, 32, 16, 1), float32]) -> Tensor[(1, 16, 32, 32), float32] span=from_string:108:9 */;
  %17 = fn (%p09: Tensor[(1, 32, 64, 64), float32] /* ty=Tensor[(1, 32, 64, 64), float32] span=from_string:35:13 */, Primitive=1) -> Tensor[(1, 32, 64, 64), float32] {
    nn.relu(%p09) /* ty=Tensor[(1, 32, 64, 64), float32] span=from_string:35:5 */
  } /* ty=fn (Tensor[(1, 32, 64, 64), float32]) -> Tensor[(1, 32, 64, 64), float32] span=from_string:109:9 */;
  %28 = fn (%p013: Tensor[(1, 16, 32, 32), float32] /* ty=Tensor[(1, 16, 32, 32), float32] span=from_string:38:21 */, %p14: Tensor[(16, 16, 3, 3), float32] /* ty=Tensor[(16, 16, 3, 3), float32] span=from_string:38:28 */, Primitive=1) -> Tensor[(1, 16, 32, 32), float32] {
    %27 = nn.conv2d(%p013, %p14, padding=[1, 1, 1, 1], channels=16, kernel_size=[3, 3]) /* ty=Tensor[(1, 16, 32, 32), float32] span=from_string:39:13 */;
    nn.relu(%27) /* ty=Tensor[(1, 16, 32, 32), float32] span=from_string:38:5 */
  } /* ty=fn (Tensor[(1, 16, 32, 32), float32], Tensor[(16, 16, 3, 3), float32]) -> Tensor[(1, 16, 32, 32), float32] span=from_string:45:9 */;
  %30 = fn (%p014: Tensor[(1, 16, 32, 32), float32] /* ty=Tensor[(1, 16, 32, 32), float32] span=from_string:42:21 */, %p15: Tensor[(16, 16, 3, 3), float32] /* ty=Tensor[(16, 16, 3, 3), float32] span=from_string:42:28 */, Primitive=1) -> Tensor[(1, 16, 32, 32), float32] {
    %29 = nn.conv2d(%p014, %p15, padding=[1, 1, 1, 1], channels=16, kernel_size=[3, 3]) /* ty=Tensor[(1, 16, 32, 32), float32] span=from_string:43:13 */;
    nn.relu(%29) /* ty=Tensor[(1, 16, 32, 32), float32] span=from_string:42:5 */
  } /* ty=fn (Tensor[(1, 16, 32, 32), float32], Tensor[(16, 16, 3, 3), float32]) -> Tensor[(1, 16, 32, 32), float32] span=from_string:46:9 */;
  %31 = %28(%13, %x1) /* ty=Tensor[(1, 16, 32, 32), float32] span=from_string:54:13 */;
  %32 = %30(%13, %x2) /* ty=Tensor[(1, 16, 32, 32), float32] span=from_string:54:18 */;
  %33 = fn (%p012: Tensor[(1, 16, 32, 32), float32] /* ty=Tensor[(1, 16, 32, 32), float32] span=from_string:48:12 */, %p13: Tensor[(1, 16, 32, 32), float32] /* ty=Tensor[(1, 16, 32, 32), float32] span=from_string:48:19 */, Primitive=1) -> Tensor[(1, 32, 32, 32), float32] {
    %23 = (%p012, %p13) /* ty=(Tensor[(1, 16, 32, 32), float32], Tensor[(1, 16, 32, 32), float32]) span=from_string:49:23 */;
    %24 = concatenate(%23, axis=1) /* ty=Tensor[(1, 32, 32, 32), float32] span=from_string:50:34 */;
    %25 = annotation.stop_fusion(%24) /* ty=Tensor[(1, 32, 32, 32), float32] span=from_string:51:12 */;
    %26 = (%25,) /* ty=(Tensor[(1, 32, 32, 32), float32],) span=from_string:52:17 */;
    concatenate(%26, axis=1) /* ty=Tensor[(1, 32, 32, 32), float32] span=from_string:48:5 */
  } /* ty=fn (Tensor[(1, 16, 32, 32), float32], Tensor[(1, 16, 32, 32), float32]) -> Tensor[(1, 32, 32, 32), float32] span=from_string:54:9 */;
  %34 = %33(%31, %32) /* ty=Tensor[(1, 32, 32, 32), float32] span=from_string:63:13 */;
  %35 = fn (%p011: Tensor[(1, 32, 32, 32), float32] /* ty=Tensor[(1, 32, 32, 32), float32] span=from_string:56:15 */, %p12: Tensor[(16, 32, 3, 3), float32] /* ty=Tensor[(16, 32, 3, 3), float32] span=from_string:56:22 */, Primitive=1) -> Tensor[(1, 16, 32, 32), float32] {
    nn.conv2d(%p011, %p12, padding=[1, 1, 1, 1], channels=16, kernel_size=[3, 3]) /* ty=Tensor[(1, 16, 32, 32), float32] span=from_string:56:5 */
  } /* ty=fn (Tensor[(1, 32, 32, 32), float32], Tensor[(16, 32, 3, 3), float32]) -> Tensor[(1, 16, 32, 32), float32] span=from_string:62:9 */;
  %37 = fn (%p015: Tensor[(1, 32, 32, 32), float32] /* ty=Tensor[(1, 32, 32, 32), float32] span=from_string:59:21 */, %p16: Tensor[(16, 32, 3, 3), float32] /* ty=Tensor[(16, 32, 3, 3), float32] span=from_string:59:28 */, Primitive=1) -> Tensor[(1, 16, 32, 32), float32] {
    %36 = nn.conv2d(%p015, %p16, padding=[1, 1, 1, 1], channels=16, kernel_size=[3, 3]) /* ty=Tensor[(1, 16, 32, 32), float32] span=from_string:60:13 */;
    nn.relu(%36) /* ty=Tensor[(1, 16, 32, 32), float32] span=from_string:59:5 */
  } /* ty=fn (Tensor[(1, 32, 32, 32), float32], Tensor[(16, 32, 3, 3), float32]) -> Tensor[(1, 16, 32, 32), float32] span=from_string:63:9 */;
  %38 = %35(%34, %x4) /* ty=Tensor[(1, 16, 32, 32), float32] span=from_string:111:13 */;
  %39 = %37(%34, %x3) /* ty=Tensor[(1, 16, 32, 32), float32] span=from_string:110:18 */;
  %40 = fn (%p010: Tensor[(1, 16, 32, 32), float32] /* ty=Tensor[(1, 16, 32, 32), float32] span=from_string:65:19 */, %p11: Tensor[(1, 16, 32, 32), float32] /* ty=Tensor[(1, 16, 32, 32), float32] span=from_string:66:12 */, Primitive=1) -> Tensor[(1, 32, 32, 32), float32] {
    %18 = nn.relu(%p010) /* ty=Tensor[(1, 16, 32, 32), float32] span=from_string:66:18 */;
    %19 = (%p11, %18) /* ty=(Tensor[(1, 16, 32, 32), float32], Tensor[(1, 16, 32, 32), float32]) span=from_string:67:23 */;
    %20 = concatenate(%19, axis=1) /* ty=Tensor[(1, 32, 32, 32), float32] span=from_string:68:34 */;
    %21 = annotation.stop_fusion(%20) /* ty=Tensor[(1, 32, 32, 32), float32] span=from_string:69:12 */;
    %22 = (%21,) /* ty=(Tensor[(1, 32, 32, 32), float32],) span=from_string:70:17 */;
    concatenate(%22, axis=1) /* ty=Tensor[(1, 32, 32, 32), float32] span=from_string:65:5 */
  } /* ty=fn (Tensor[(1, 16, 32, 32), float32], Tensor[(1, 16, 32, 32), float32]) -> Tensor[(1, 32, 32, 32), float32] span=from_string:110:9 */;
  %42 = fn (%p016: Tensor[(1, 16, 32, 32), float32] /* ty=Tensor[(1, 16, 32, 32), float32] span=from_string:73:21 */, Primitive=1) -> Tensor[(16, 32, 32, 1), float32] {
    %41 = transpose(%p016, axes=[1, 2, 3, 0]) /* ty=Tensor[(16, 32, 32, 1), float32] span=from_string:74:13 */;
    nn.relu(%41) /* ty=Tensor[(16, 32, 32, 1), float32] span=from_string:73:5 */
  } /* ty=fn (Tensor[(1, 16, 32, 32), float32]) -> Tensor[(16, 32, 32, 1), float32] span=from_string:111:9 */;
  %44 = fn (%p018: Tensor[(32, 32, 16, 1), float32] /* ty=Tensor[(32, 32, 16, 1), float32] span=from_string:77:19 */, Primitive=1) -> Tensor[(32, 32, 16, 1), float32] {
    %43 = nn.relu(%p018) /* ty=Tensor[(32, 32, 16, 1), float32] span=from_string:78:9 */;
    add(%43, 1f /* ty=float32 span=from_string:78:16 */) /* ty=Tensor[(32, 32, 16, 1), float32] span=from_string:77:5 */
  } /* ty=fn (Tensor[(32, 32, 16, 1), float32]) -> Tensor[(32, 32, 16, 1), float32] span=from_string:80:9 */;
  %45 = %44(%15) /* ty=Tensor[(32, 32, 16, 1), float32] span=from_string:113:13 */;
  %46 = fn (%p017: Tensor[(32, 32, 16, 1), float32] /* ty=Tensor[(32, 32, 16, 1), float32] span=from_string:82:15 */, Primitive=1) -> Tensor[(32, 32, 16, 1), float32] {
    multiply(%p017, 2f /* ty=float32 span=from_string:82:24 */) /* ty=Tensor[(32, 32, 16, 1), float32] span=from_string:82:6 */
  } /* ty=fn (Tensor[(32, 32, 16, 1), float32]) -> Tensor[(32, 32, 16, 1), float32] span=from_string:112:9 */;
  %49 = fn (%p019: Tensor[(32, 32, 16, 1), float32] /* ty=Tensor[(32, 32, 16, 1), float32] span=from_string:85:15 */, Primitive=1) -> Tensor[(32, 32, 16), float32] {
    %47 = add(%p019, 1f /* ty=float32 span=from_string:85:24 */) /* ty=Tensor[(32, 32, 16, 1), float32] span=from_string:86:15 */;
    %48 = exp(%47) /* ty=Tensor[(32, 32, 16, 1), float32] span=from_string:87:13 */;
    squeeze(%48) /* ty=Tensor[(32, 32, 16), float32] span=from_string:85:5 */
  } /* ty=fn (Tensor[(32, 32, 16, 1), float32]) -> Tensor[(32, 32, 16), float32] span=from_string:113:9 */;
  %50 = fn (%p0: Tensor[(1, 16, 64, 64), float32] /* ty=Tensor[(1, 16, 64, 64), float32] span=from_string:90:20 */, Primitive=1) -> Tensor[(1, 16, 64, 64), float32] {
    multiply(%p0, %p0) /* ty=Tensor[(1, 16, 64, 64), float32] span=from_string:90:6 */
  } /* ty=fn (Tensor[(1, 16, 64, 64), float32]) -> Tensor[(1, 16, 64, 64), float32] span=from_string:92:9 */;
  %52 = %50(%7) /* ty=Tensor[(1, 16, 64, 64), float32] span=from_string:114:10 */;
  %53 = fn (%p03: Tensor[(1, 16, 64, 64), float32] /* ty=Tensor[(1, 16, 64, 64), float32] */, Primitive=1) -> Tensor[(1, 16, 64, 64), float32] {
    ones(shape=[1, 16, 64, 64], dtype="float32") /* ty=Tensor[(1, 16, 64, 64), float32] span=from_string:94:5 */
  } /* ty=fn (Tensor[(1, 16, 64, 64), float32]) -> Tensor[(1, 16, 64, 64), float32] span=from_string:96:9 */;
  %54 = %53(%52) /* ty=Tensor[(1, 16, 64, 64), float32] span=from_string:101:13 */;
  %55 = fn (%p021: Tensor[(1, 16, 64, 64), float32] /* ty=Tensor[(1, 16, 64, 64), float32] span=from_string:98:21 */, %p18: Tensor[(1, 16, 64, 64), float32] /* ty=Tensor[(1, 16, 64, 64), float32] span=from_string:98:28 */, Primitive=1) -> Tensor[(1, 16, 64, 64), float32] {
    %51 = multiply(%p021, %p18) /* ty=Tensor[(1, 16, 64, 64), float32] span=from_string:99:21 */;
    collapse_sum_to(%51, meta[relay.Constant][0] /* ty=Tensor[(4), int32] span=from_string:99:31 */, meta[relay.attrs.InitOpAttrs][0]) /* ty=Tensor[(1, 16, 64, 64), float32] span=from_string:98:5 */
  } /* ty=fn (Tensor[(1, 16, 64, 64), float32], Tensor[(1, 16, 64, 64), float32]) -> Tensor[(1, 16, 64, 64), float32] span=from_string:101:9 */;
  %56 = %55(%54, %7) /* ty=Tensor[(1, 16, 64, 64), float32] span=from_string:105:17 */;
  %57 = fn (%p020: Tensor[(1, 16, 64, 64), float32] /* ty=Tensor[(1, 16, 64, 64), float32] */, %p17: Tensor[(1, 16, 64, 64), float32] /* ty=Tensor[(1, 16, 64, 64), float32] span=from_string:103:15 */, Primitive=1) -> Tensor[(1, 16, 64, 64), float32] {
    multiply(%p17, 2f /* ty=float32 span=from_string:103:23 */) /* ty=Tensor[(1, 16, 64, 64), float32] span=from_string:103:6 */
  } /* ty=fn (Tensor[(1, 16, 64, 64), float32], Tensor[(1, 16, 64, 64), float32]) -> Tensor[(1, 16, 64, 64), float32] span=from_string:105:9 */;
  %58 = %57(%7, %56) /* ty=Tensor[(1, 16, 64, 64), float32] span=from_string:106:10 */;
  %59 = (%58,) /* ty=(Tensor[(1, 16, 64, 64), float32],) span=from_string:114:15 */;
  %60 = %10(%9) /* ty=Tensor[(1, 32, 64, 64), float32] span=from_string:115:4 */;
  %61 = %16(%15) /* ty=Tensor[(1, 16, 32, 32), float32] span=from_string:115:9 */;
  %62 = %17(%9) /* ty=Tensor[(1, 32, 64, 64), float32] span=from_string:115:14 */;
  %63 = %40(%38, %39) /* ty=Tensor[(1, 32, 32, 32), float32] span=from_string:115:19 */;
  %64 = %42(%38) /* ty=Tensor[(16, 32, 32, 1), float32] span=from_string:115:24 */;
  %65 = %46(%45) /* ty=Tensor[(32, 32, 16, 1), float32] span=from_string:115:29 */;
  %66 = %49(%45) /* ty=Tensor[(32, 32, 16), float32] span=from_string:115:79 */;
  %67 = (%52, %59) /* ty=(Tensor[(1, 16, 64, 64), float32], (Tensor[(1, 16, 64, 64), float32],)) span=from_string:115:84 */;
  (%60, %61, %62, %63, %64, %65, 2f /* ty=float32 span=from_string:115:36 */, %66, %67) /* ty=(Tensor[(1, 32, 64, 64), float32], Tensor[(1, 16, 32, 32), float32], Tensor[(1, 32, 64, 64), float32], Tensor[(1, 32, 32, 32), float32], Tensor[(16, 32, 32, 1), float32], Tensor[(32, 32, 16, 1), float32], float32, Tensor[(32, 32, 16), float32], (Tensor[(1, 16, 64, 64), float32], (Tensor[(1, 16, 64, 64), float32],))) span=from_string:3:3 */
}

#[metadata]
{
  "root": 1, 
  "nodes": [
    {
      "type_key": ""
    }, 
    {
      "type_key": "Map", 
      "keys": [
        "relay.attrs.InitOpAttrs", 
        "relay.Constant"
      ], 
      "data": [2, 9]
    }, 
    {
      "type_key": "Array", 
      "data": [3]
    }, 
    {
      "type_key": "relay.attrs.InitOpAttrs", 
      "attrs": {
        "dtype": "", 
        "shape": "4"
      }
    }, 
    {
      "type_key": "Array", 
      "data": [5, 6, 7, 8]
    }, 
    {
      "type_key": "IntImm", 
      "attrs": {
        "dtype": "int32", 
        "span": "0", 
        "value": "1"
      }
    }, 
    {
      "type_key": "IntImm", 
      "attrs": {
        "dtype": "int32", 
        "span": "0", 
        "value": "16"
      }
    }, 
    {
      "type_key": "IntImm", 
      "attrs": {
        "dtype": "int32", 
        "span": "0", 
        "value": "64"
      }
    }, 
    {
      "type_key": "IntImm", 
      "attrs": {
        "dtype": "int32", 
        "span": "0", 
        "value": "64"
      }
    }, 
    {
      "type_key": "Array", 
      "data": [10]
    }, 
    {
      "type_key": "relay.Constant", 
      "attrs": {
        "_checked_type_": "15", 
        "data": "0", 
        "span": "13", 
        "virtual_device_": "11"
      }
    }, 
    {
      "type_key": "VirtualDevice", 
      "attrs": {
        "device_type_int": "-1", 
        "memory_scope": "12", 
        "target": "0", 
        "virtual_device_id": "-1"
      }
    }, 
    {
      "type_key": "runtime.String"
    }, 
    {
      "type_key": "Span", 
      "attrs": {
        "column": "31", 
        "end_column": "49", 
        "end_line": "99", 
        "line": "99", 
        "source_name": "14"
      }
    }, 
    {
      "type_key": "SourceName", 
      "repr_str": "from_string"
    }, 
    {
      "type_key": "relay.TensorType", 
      "attrs": {
        "dtype": "int32", 
        "shape": "16", 
        "span": "0"
      }
    }, 
    {
      "type_key": "Array", 
      "data": [17]
    }, 
    {
      "type_key": "IntImm", 
      "attrs": {
        "dtype": "int32", 
        "span": "0", 
        "value": "4"
      }
    }
  ], 
  "b64ndarrays": [
    "P6G0lvBAXt0AAAAAAAAAAAEAAAAAAAAAAQAAAAAgAQAEAAAAAAAAABAAAAAAAAAAAQAAABAAAABAAAAAQAAAAA=="
  ], 
  "attrs": {"tvm_version": "0.13.0"}
}