#[version = "0.0.5"]
def @main(%x0: Tensor[(1, 16, 64, 64), float32] /* ty=Tensor[(1, 16, 64, 64), float32] span=from_string:23:124 */, %x1: Tensor[(16, 16, 3, 3), float32] /* ty=Tensor[(16, 16, 3, 3), float32] span=from_string:49:127 */, %x2: Tensor[(16, 16, 3, 3), float32] /* ty=Tensor[(16, 16, 3, 3), float32] span=from_string:54:127 */, %x3: Tensor[(16, 32, 3, 3), float32] /* ty=Tensor[(16, 32, 3, 3), float32] span=from_string:68:127 */, %x4: Tensor[(16, 32, 3, 3), float32] /* ty=Tensor[(16, 32, 3, 3), float32] span=from_string:63:127 */) -> (Tensor[(1, 32, 64, 64), float32], Tensor[(1, 16, 32, 32), float32], Tensor[(1, 32, 64, 64), float32], Tensor[(1, 32, 32, 32), float32], Tensor[(16, 32, 32, 1), float32], Tensor[(32, 32, 16, 1), float32], float32, Tensor[(32, 32, 16), float32], (Tensor[(1, 16, 64, 64), float32], (Tensor[(1, 16, 64, 64), float32],))) {
  %1 = fn (%p02: Tensor[(1, 16, 64, 64), float32] /* ty=Tensor[(1, 16, 64, 64), float32] span=from_string:4:20 */, Primitive=1) -> Tensor[(1, 16, 32, 32), float32] {
    nn.max_pool2d(%p02, pool_size=[2, 2], strides=[2, 2], padding=[0, 0, 0, 0]) /* ty=Tensor[(1, 16, 32, 32), float32] span=from_string:4:5 */
  } /* ty=fn (Tensor[(1, 16, 64, 64), float32]) -> Tensor[(1, 16, 32, 32), float32] span=from_string:3:3 */;
  %2 = %1(%x0) /* ty=Tensor[(1, 16, 32, 32), float32] span=from_string:6:113 */;
  %3 = fn (%p01: Tensor[(1, 16, 32, 32), float32] /* ty=Tensor[(1, 16, 32, 32), float32] span=from_string:8:19 */, Primitive=1) -> Tensor[(1, 16, 64, 64), float32] {
    nn.upsampling(%p01, scale_h=2f, scale_w=2f) /* ty=Tensor[(1, 16, 64, 64), float32] span=from_string:8:5 */
  } /* ty=fn (Tensor[(1, 16, 32, 32), float32]) -> Tensor[(1, 16, 64, 64), float32] span=from_string:7:3 */;
  %4 = %3(%2) /* ty=Tensor[(1, 16, 64, 64), float32] span=from_string:10:114 */;
  %5 = fn (%p05: Tensor[(1, 16, 64, 64), float32] /* ty=Tensor[(1, 16, 64, 64), float32] span=from_string:20:11 */, %p1: Tensor[(1, 16, 64, 64), float32] /* ty=Tensor[(1, 16, 64, 64), float32] span=from_string:20:17 */, Primitive=1) -> Tensor[(1, 32, 64, 64), float32] {
    %0 = (%p05, %p1) /* ty=(Tensor[(1, 16, 64, 64), float32], Tensor[(1, 16, 64, 64), float32]) span=from_string:21:17 */;
    concatenate(%0, axis=1) /* ty=Tensor[(1, 32, 64, 64), float32] span=from_string:20:5 */
  } /* ty=fn (Tensor[(1, 16, 64, 64), float32], Tensor[(1, 16, 64, 64), float32]) -> Tensor[(1, 32, 64, 64), float32] span=from_string:19:3 */;
  %6 = %5(%4, %x0) /* ty=Tensor[(1, 32, 64, 64), float32] span=from_string:23:113 */;
  %7 = fn (%p04: Tensor[(1, 32, 64, 64), float32] /* ty=Tensor[(1, 32, 64, 64), float32] span=from_string:25:9 */, Primitive=1) -> Tensor[(1, 32, 64, 64), float32] {
    add(%p04, 1f /* ty=float32 span=from_string:25:17 */) /* ty=Tensor[(1, 32, 64, 64), float32] span=from_string:25:5 */
  } /* ty=fn (Tensor[(1, 32, 64, 64), float32]) -> Tensor[(1, 32, 64, 64), float32] span=from_string:24:3 */;
  %9 = fn (%p08: Tensor[(1, 16, 32, 32), float32] /* ty=Tensor[(1, 16, 32, 32), float32] span=from_string:29:15 */, Primitive=1) -> Tensor[(1, 16, 32, 32), float32] {
    %8 = tanh(%p08) /* ty=Tensor[(1, 16, 32, 32), float32] span=from_string:30:13 */;
    nn.relu(%8) /* ty=Tensor[(1, 16, 32, 32), float32] span=from_string:29:5 */
  } /* ty=fn (Tensor[(1, 16, 32, 32), float32]) -> Tensor[(1, 16, 32, 32), float32] span=from_string:28:3 */;
  %10 = %9(%2) /* ty=Tensor[(1, 16, 32, 32), float32] span=from_string:32:114 */;
  %11 = fn (%p07: Tensor[(1, 16, 32, 32), float32] /* ty=Tensor[(1, 16, 32, 32), float32] span=from_string:34:15 */, Primitive=1) -> Tensor[(32, 32, 16, 1), float32] {
    transpose(%p07, axes=[2, 3, 1, 0]) /* ty=Tensor[(32, 32, 16, 1), float32] span=from_string:34:5 */
  } /* ty=fn (Tensor[(1, 16, 32, 32), float32]) -> Tensor[(32, 32, 16, 1), float32] span=from_string:33:3 */;
  %12 = %11(%10) /* ty=Tensor[(32, 32, 16, 1), float32] span=from_string:36:114 */;
  %13 = fn (%p06: Tensor[(32, 32, 16, 1), float32] /* ty=Tensor[(32, 32, 16, 1), float32] span=from_string:38:15 */, Primitive=1) -> Tensor[(1, 16, 32, 32), float32] {
    transpose(%p06, axes=[3, 2, 0, 1]) /* ty=Tensor[(1, 16, 32, 32), float32] span=from_string:38:5 */
  } /* ty=fn (Tensor[(32, 32, 16, 1), float32]) -> Tensor[(1, 16, 32, 32), float32] span=from_string:37:3 */;
  %14 = fn (%p09: Tensor[(1, 32, 64, 64), float32] /* ty=Tensor[(1, 32, 64, 64), float32] span=from_string:42:13 */, Primitive=1) -> Tensor[(1, 32, 64, 64), float32] {
    nn.relu(%p09) /* ty=Tensor[(1, 32, 64, 64), float32] span=from_string:42:5 */
  } /* ty=fn (Tensor[(1, 32, 64, 64), float32]) -> Tensor[(1, 32, 64, 64), float32] span=from_string:41:3 */;
  %19 = fn (%p013: Tensor[(1, 16, 32, 32), float32] /* ty=Tensor[(1, 16, 32, 32), float32] span=from_string:46:20 */, %p14: Tensor[(16, 16, 3, 3), float32] /* ty=Tensor[(16, 16, 3, 3), float32] span=from_string:46:27 */, Primitive=1) -> Tensor[(1, 16, 32, 32), float32] {
    %18 = nn.conv2d(%p013, %p14, padding=[1, 1, 1, 1], channels=16, kernel_size=[3, 3]) /* ty=Tensor[(1, 16, 32, 32), float32] span=from_string:47:13 */;
    nn.relu(%18) /* ty=Tensor[(1, 16, 32, 32), float32] span=from_string:46:5 */
  } /* ty=fn (Tensor[(1, 16, 32, 32), float32], Tensor[(16, 16, 3, 3), float32]) -> Tensor[(1, 16, 32, 32), float32] span=from_string:45:3 */;
  %21 = fn (%p014: Tensor[(1, 16, 32, 32), float32] /* ty=Tensor[(1, 16, 32, 32), float32] span=from_string:51:20 */, %p15: Tensor[(16, 16, 3, 3), float32] /* ty=Tensor[(16, 16, 3, 3), float32] span=from_string:51:27 */, Primitive=1) -> Tensor[(1, 16, 32, 32), float32] {
    %20 = nn.conv2d(%p014, %p15, padding=[1, 1, 1, 1], channels=16, kernel_size=[3, 3]) /* ty=Tensor[(1, 16, 32, 32), float32] span=from_string:52:13 */;
    nn.relu(%20) /* ty=Tensor[(1, 16, 32, 32), float32] span=from_string:51:5 */
  } /* ty=fn (Tensor[(1, 16, 32, 32), float32], Tensor[(16, 16, 3, 3), float32]) -> Tensor[(1, 16, 32, 32), float32] span=from_string:50:3 */;
  %22 = %19(%10, %x1) /* ty=Tensor[(1, 16, 32, 32), float32] span=from_string:49:114 */;
  %23 = %21(%10, %x2) /* ty=Tensor[(1, 16, 32, 32), float32] span=from_string:54:114 */;
  %24 = fn (%p012: Tensor[(1, 16, 32, 32), float32] /* ty=Tensor[(1, 16, 32, 32), float32] span=from_string:56:11 */, %p13: Tensor[(1, 16, 32, 32), float32] /* ty=Tensor[(1, 16, 32, 32), float32] span=from_string:56:18 */, Primitive=1) -> Tensor[(1, 32, 32, 32), float32] {
    %17 = (%p012, %p13) /* ty=(Tensor[(1, 16, 32, 32), float32], Tensor[(1, 16, 32, 32), float32]) span=from_string:57:17 */;
    concatenate(%17, axis=1) /* ty=Tensor[(1, 32, 32, 32), float32] span=from_string:56:5 */
  } /* ty=fn (Tensor[(1, 16, 32, 32), float32], Tensor[(1, 16, 32, 32), float32]) -> Tensor[(1, 32, 32, 32), float32] span=from_string:55:3 */;
  %25 = %24(%22, %23) /* ty=Tensor[(1, 32, 32, 32), float32] span=from_string:59:114 */;
  %26 = fn (%p011: Tensor[(1, 32, 32, 32), float32] /* ty=Tensor[(1, 32, 32, 32), float32] span=from_string:61:15 */, %p12: Tensor[(16, 32, 3, 3), float32] /* ty=Tensor[(16, 32, 3, 3), float32] span=from_string:61:22 */, Primitive=1) -> Tensor[(1, 16, 32, 32), float32] {
    nn.conv2d(%p011, %p12, padding=[1, 1, 1, 1], channels=16, kernel_size=[3, 3]) /* ty=Tensor[(1, 16, 32, 32), float32] span=from_string:61:5 */
  } /* ty=fn (Tensor[(1, 32, 32, 32), float32], Tensor[(16, 32, 3, 3), float32]) -> Tensor[(1, 16, 32, 32), float32] span=from_string:60:3 */;
  %28 = fn (%p015: Tensor[(1, 32, 32, 32), float32] /* ty=Tensor[(1, 32, 32, 32), float32] span=from_string:65:20 */, %p16: Tensor[(16, 32, 3, 3), float32] /* ty=Tensor[(16, 32, 3, 3), float32] span=from_string:65:27 */, Primitive=1) -> Tensor[(1, 16, 32, 32), float32] {
    %27 = nn.conv2d(%p015, %p16, padding=[1, 1, 1, 1], channels=16, kernel_size=[3, 3]) /* ty=Tensor[(1, 16, 32, 32), float32] span=from_string:66:13 */;
    nn.relu(%27) /* ty=Tensor[(1, 16, 32, 32), float32] span=from_string:65:5 */
  } /* ty=fn (Tensor[(1, 32, 32, 32), float32], Tensor[(16, 32, 3, 3), float32]) -> Tensor[(1, 16, 32, 32), float32] span=from_string:64:3 */;
  %29 = %26(%25, %x4) /* ty=Tensor[(1, 16, 32, 32), float32] span=from_string:63:114 */;
  %30 = %28(%25, %x3) /* ty=Tensor[(1, 16, 32, 32), float32] span=from_string:68:114 */;
  %31 = fn (%p010: Tensor[(1, 16, 32, 32), float32] /* ty=Tensor[(1, 16, 32, 32), float32] span=from_string:70:18 */, %p11: Tensor[(1, 16, 32, 32), float32] /* ty=Tensor[(1, 16, 32, 32), float32] span=from_string:71:11 */, Primitive=1) -> Tensor[(1, 32, 32, 32), float32] {
    %15 = nn.relu(%p010) /* ty=Tensor[(1, 16, 32, 32), float32] span=from_string:71:17 */;
    %16 = (%p11, %15) /* ty=(Tensor[(1, 16, 32, 32), float32], Tensor[(1, 16, 32, 32), float32]) span=from_string:72:17 */;
    concatenate(%16, axis=1) /* ty=Tensor[(1, 32, 32, 32), float32] span=from_string:70:5 */
  } /* ty=fn (Tensor[(1, 16, 32, 32), float32], Tensor[(1, 16, 32, 32), float32]) -> Tensor[(1, 32, 32, 32), float32] span=from_string:69:3 */;
  %33 = fn (%p016: Tensor[(1, 16, 32, 32), float32] /* ty=Tensor[(1, 16, 32, 32), float32] span=from_string:76:20 */, Primitive=1) -> Tensor[(16, 32, 32, 1), float32] {
    %32 = transpose(%p016, axes=[1, 2, 3, 0]) /* ty=Tensor[(16, 32, 32, 1), float32] span=from_string:77:13 */;
    nn.relu(%32) /* ty=Tensor[(16, 32, 32, 1), float32] span=from_string:76:5 */
  } /* ty=fn (Tensor[(1, 16, 32, 32), float32]) -> Tensor[(16, 32, 32, 1), float32] span=from_string:75:3 */;
  %35 = fn (%p018: Tensor[(32, 32, 16, 1), float32] /* ty=Tensor[(32, 32, 16, 1), float32] span=from_string:81:18 */, Primitive=1) -> Tensor[(32, 32, 16, 1), float32] {
    %34 = nn.relu(%p018) /* ty=Tensor[(32, 32, 16, 1), float32] span=from_string:82:9 */;
    add(%34, 1f /* ty=float32 span=from_string:82:15 */) /* ty=Tensor[(32, 32, 16, 1), float32] span=from_string:81:5 */
  } /* ty=fn (Tensor[(32, 32, 16, 1), float32]) -> Tensor[(32, 32, 16, 1), float32] span=from_string:80:3 */;
  %36 = %35(%12) /* ty=Tensor[(32, 32, 16, 1), float32] span=from_string:84:114 */;
  %37 = fn (%p017: Tensor[(32, 32, 16, 1), float32] /* ty=Tensor[(32, 32, 16, 1), float32] span=from_string:86:15 */, Primitive=1) -> Tensor[(32, 32, 16, 1), float32] {
    multiply(%p017, 2f /* ty=float32 span=from_string:86:24 */) /* ty=Tensor[(32, 32, 16, 1), float32] span=from_string:86:6 */
  } /* ty=fn (Tensor[(32, 32, 16, 1), float32]) -> Tensor[(32, 32, 16, 1), float32] span=from_string:85:3 */;
  %40 = fn (%p019: Tensor[(32, 32, 16, 1), float32] /* ty=Tensor[(32, 32, 16, 1), float32] span=from_string:91:15 */, Primitive=1) -> Tensor[(32, 32, 16), float32] {
    %38 = add(%p019, 1f /* ty=float32 span=from_string:91:24 */) /* ty=Tensor[(32, 32, 16, 1), float32] span=from_string:92:15 */;
    %39 = exp(%38) /* ty=Tensor[(32, 32, 16, 1), float32] span=from_string:93:13 */;
    squeeze(%39) /* ty=Tensor[(32, 32, 16), float32] span=from_string:91:5 */
  } /* ty=fn (Tensor[(32, 32, 16, 1), float32]) -> Tensor[(32, 32, 16), float32] span=from_string:90:3 */;
  %41 = fn (%p0: Tensor[(1, 16, 64, 64), float32] /* ty=Tensor[(1, 16, 64, 64), float32] span=from_string:12:20 */, Primitive=1) -> Tensor[(1, 16, 64, 64), float32] {
    multiply(%p0, %p0) /* ty=Tensor[(1, 16, 64, 64), float32] span=from_string:12:6 */
  } /* ty=fn (Tensor[(1, 16, 64, 64), float32]) -> Tensor[(1, 16, 64, 64), float32] span=from_string:11:3 */;
  %43 = %41(%4) /* ty=Tensor[(1, 16, 64, 64), float32] span=from_string:14:113 */;
  %44 = fn (%p03: Tensor[(1, 16, 64, 64), float32] /* ty=Tensor[(1, 16, 64, 64), float32] */, Primitive=1) -> Tensor[(1, 16, 64, 64), float32] {
    ones(shape=[1, 16, 64, 64], dtype="float32") /* ty=Tensor[(1, 16, 64, 64), float32] span=from_string:16:5 */
  } /* ty=fn (Tensor[(1, 16, 64, 64), float32]) -> Tensor[(1, 16, 64, 64), float32] span=from_string:15:3 */;
  %45 = %44(%43) /* ty=Tensor[(1, 16, 64, 64), float32] span=from_string:18:113 */;
  %46 = fn (%p021: Tensor[(1, 16, 64, 64), float32] /* ty=Tensor[(1, 16, 64, 64), float32] span=from_string:97:21 */, %p18: Tensor[(1, 16, 64, 64), float32] /* ty=Tensor[(1, 16, 64, 64), float32] span=from_string:97:28 */, Primitive=1) -> Tensor[(1, 16, 64, 64), float32] {
    %42 = multiply(%p021, %p18) /* ty=Tensor[(1, 16, 64, 64), float32] span=from_string:98:21 */;
    collapse_sum_to(%42, meta[relay.Constant][0] /* ty=Tensor[(4), int32] span=from_string:98:31 */, meta[relay.attrs.InitOpAttrs][0]) /* ty=Tensor[(1, 16, 64, 64), float32] span=from_string:97:5 */
  } /* ty=fn (Tensor[(1, 16, 64, 64), float32], Tensor[(1, 16, 64, 64), float32]) -> Tensor[(1, 16, 64, 64), float32] span=from_string:96:3 */;
  %47 = %46(%45, %4) /* ty=Tensor[(1, 16, 64, 64), float32] span=from_string:100:115 */;
  %48 = fn (%p020: Tensor[(1, 16, 64, 64), float32] /* ty=Tensor[(1, 16, 64, 64), float32] */, %p17: Tensor[(1, 16, 64, 64), float32] /* ty=Tensor[(1, 16, 64, 64), float32] span=from_string:102:15 */, Primitive=1) -> Tensor[(1, 16, 64, 64), float32] {
    multiply(%p17, 2f /* ty=float32 span=from_string:102:23 */) /* ty=Tensor[(1, 16, 64, 64), float32] span=from_string:102:6 */
  } /* ty=fn (Tensor[(1, 16, 64, 64), float32], Tensor[(1, 16, 64, 64), float32]) -> Tensor[(1, 16, 64, 64), float32] span=from_string:101:3 */;
  %49 = %48(%4, %47) /* ty=Tensor[(1, 16, 64, 64), float32] span=from_string:104:115 */;
  %50 = (%49,) /* ty=(Tensor[(1, 16, 64, 64), float32],) span=from_string:105:121 */;
  %51 = %7(%6) /* ty=Tensor[(1, 32, 64, 64), float32] span=from_string:27:114 */;
  %52 = %13(%12) /* ty=Tensor[(1, 16, 32, 32), float32] span=from_string:40:115 */;
  %53 = %14(%6) /* ty=Tensor[(1, 32, 64, 64), float32] span=from_string:44:115 */;
  %54 = %31(%29, %30) /* ty=Tensor[(1, 32, 32, 32), float32] span=from_string:74:115 */;
  %55 = %33(%29) /* ty=Tensor[(16, 32, 32, 1), float32] span=from_string:79:115 */;
  %56 = %37(%36) /* ty=Tensor[(32, 32, 16, 1), float32] span=from_string:88:115 */;
  %57 = %40(%36) /* ty=Tensor[(32, 32, 16), float32] span=from_string:95:109 */;
  %58 = (%43, %50) /* ty=(Tensor[(1, 16, 64, 64), float32], (Tensor[(1, 16, 64, 64), float32],)) span=from_string:106:193 */;
  (%51, %52, %53, %54, %55, %56, 2f /* ty=float32 span=from_string:89:67 */, %57, %58) /* ty=(Tensor[(1, 32, 64, 64), float32], Tensor[(1, 16, 32, 32), float32], Tensor[(1, 32, 64, 64), float32], Tensor[(1, 32, 32, 32), float32], Tensor[(16, 32, 32, 1), float32], Tensor[(32, 32, 16, 1), float32], float32, Tensor[(32, 32, 16), float32], (Tensor[(1, 16, 64, 64), float32], (Tensor[(1, 16, 64, 64), float32],))) span=from_string:107:685 */
}

#[metadata]
{
  "root": 1, 
  "nodes": [
    {
      "type_key": ""
    }, 
    {
      "type_key": "Map", 
      "keys": [
        "relay.attrs.InitOpAttrs", 
        "relay.Constant"
      ], 
      "data": [2, 9]
    }, 
    {
      "type_key": "Array", 
      "data": [3]
    }, 
    {
      "type_key": "relay.attrs.InitOpAttrs", 
      "attrs": {
        "dtype": "", 
        "shape": "4"
      }
    }, 
    {
      "type_key": "Array", 
      "data": [5, 6, 7, 8]
    }, 
    {
      "type_key": "IntImm", 
      "attrs": {
        "dtype": "int32", 
        "span": "0", 
        "value": "1"
      }
    }, 
    {
      "type_key": "IntImm", 
      "attrs": {
        "dtype": "int32", 
        "span": "0", 
        "value": "16"
      }
    }, 
    {
      "type_key": "IntImm", 
      "attrs": {
        "dtype": "int32", 
        "span": "0", 
        "value": "64"
      }
    }, 
    {
      "type_key": "IntImm", 
      "attrs": {
        "dtype": "int32", 
        "span": "0", 
        "value": "64"
      }
    }, 
    {
      "type_key": "Array", 
      "data": [10]
    }, 
    {
      "type_key": "relay.Constant", 
      "attrs": {
        "_checked_type_": "15", 
        "data": "0", 
        "span": "13", 
        "virtual_device_": "11"
      }
    }, 
    {
      "type_key": "VirtualDevice", 
      "attrs": {
        "device_type_int": "-1", 
        "memory_scope": "12", 
        "target": "0", 
        "virtual_device_id": "-1"
      }
    }, 
    {
      "type_key": "runtime.String"
    }, 
    {
      "type_key": "Span", 
      "attrs": {
        "column": "31", 
        "end_column": "49", 
        "end_line": "98", 
        "line": "98", 
        "source_name": "14"
      }
    }, 
    {
      "type_key": "SourceName", 
      "repr_str": "from_string"
    }, 
    {
      "type_key": "relay.TensorType", 
      "attrs": {
        "dtype": "int32", 
        "shape": "16", 
        "span": "0"
      }
    }, 
    {
      "type_key": "Array", 
      "data": [17]
    }, 
    {
      "type_key": "IntImm", 
      "attrs": {
        "dtype": "int32", 
        "span": "0", 
        "value": "4"
      }
    }
  ], 
  "b64ndarrays": [
    "P6G0lvBAXt0AAAAAAAAAAAEAAAAAAAAAAQAAAAAgAQAEAAAAAAAAABAAAAAAAAAAAQAAABAAAABAAAAAQAAAAA=="
  ], 
  "attrs": {"tvm_version": "0.13.0"}
}