#[version = "0.0.5"]
def @main(%x0: Tensor[(1, 16, 64, 64), float32] /* ty=Tensor[(1, 16, 64, 64), float32] span=from_string:26:124 */, %x1: Tensor[(16, 16, 3, 3), float32] /* ty=Tensor[(16, 16, 3, 3), float32] span=from_string:52:127 */, %x2: Tensor[(16, 16, 3, 3), float32] /* ty=Tensor[(16, 16, 3, 3), float32] span=from_string:57:127 */, %x3: Tensor[(16, 32, 3, 3), float32] /* ty=Tensor[(16, 32, 3, 3), float32] span=from_string:74:127 */, %x4: Tensor[(16, 32, 3, 3), float32] /* ty=Tensor[(16, 32, 3, 3), float32] span=from_string:69:127 */) -> (Tensor[(1, 32, 64, 64), float32], Tensor[(1, 16, 32, 32), float32], Tensor[(1, 32, 64, 64), float32], Tensor[(1, 32, 32, 32), float32], Tensor[(16, 32, 32, 1), float32], Tensor[(32, 32, 16, 1), float32], float32, Tensor[(32, 32, 16), float32], (Tensor[(1, 16, 64, 64), float32], (Tensor[(1, 16, 64, 64), float32],))) {
  %4 = fn (%p02: Tensor[(1, 16, 64, 64), float32] /* ty=Tensor[(1, 16, 64, 64), float32] span=from_string:4:20 */, Primitive=1) -> Tensor[(1, 16, 32, 32), float32] {
    nn.max_pool2d(%p02, pool_size=[2, 2], strides=[2, 2], padding=[0, 0, 0, 0]) /* ty=Tensor[(1, 16, 32, 32), float32] span=from_string:4:5 */
  } /* ty=fn (Tensor[(1, 16, 64, 64), float32]) -> Tensor[(1, 16, 32, 32), float32] span=from_string:3:3 */;
  %5 = %4(%x0) /* ty=Tensor[(1, 16, 32, 32), float32] span=from_string:6:113 */;
  %6 = fn (%p01: Tensor[(1, 16, 32, 32), float32] /* ty=Tensor[(1, 16, 32, 32), float32] span=from_string:8:19 */, Primitive=1) -> Tensor[(1, 16, 64, 64), float32] {
    nn.upsampling(%p01, scale_h=2f, scale_w=2f) /* ty=Tensor[(1, 16, 64, 64), float32] span=from_string:8:5 */
  } /* ty=fn (Tensor[(1, 16, 32, 32), float32]) -> Tensor[(1, 16, 64, 64), float32] span=from_string:7:3 */;
  %7 = %6(%5) /* ty=Tensor[(1, 16, 64, 64), float32] span=from_string:10:114 */;
  %8 = fn (%p05: Tensor[(1, 16, 64, 64), float32] /* ty=Tensor[(1, 16, 64, 64), float32] span=from_string:20:11 */, %p1: Tensor[(1, 16, 64, 64), float32] /* ty=Tensor[(1, 16, 64, 64), float32] span=from_string:20:17 */, Primitive=1) -> Tensor[(1, 32, 64, 64), float32] {
    %0 = (%p05, %p1) /* ty=(Tensor[(1, 16, 64, 64), float32], Tensor[(1, 16, 64, 64), float32]) span=from_string:21:22 */;
    %1 = concatenate(%0, axis=1) /* ty=Tensor[(1, 32, 64, 64), float32] span=from_string:22:33 */;
    %2 = annotation.stop_fusion(%1) /* ty=Tensor[(1, 32, 64, 64), float32] span=from_string:23:11 */;
    %3 = (%2,) /* ty=(Tensor[(1, 32, 64, 64), float32],) span=from_string:24:17 */;
    concatenate(%3, axis=1) /* ty=Tensor[(1, 32, 64, 64), float32] span=from_string:20:5 */
  } /* ty=fn (Tensor[(1, 16, 64, 64), float32], Tensor[(1, 16, 64, 64), float32]) -> Tensor[(1, 32, 64, 64), float32] span=from_string:19:3 */;
  %9 = %8(%7, %x0) /* ty=Tensor[(1, 32, 64, 64), float32] span=from_string:26:113 */;
  %10 = fn (%p04: Tensor[(1, 32, 64, 64), float32] /* ty=Tensor[(1, 32, 64, 64), float32] span=from_string:28:9 */, Primitive=1) -> Tensor[(1, 32, 64, 64), float32] {
    add(%p04, 1f /* ty=float32 span=from_string:28:17 */) /* ty=Tensor[(1, 32, 64, 64), float32] span=from_string:28:5 */
  } /* ty=fn (Tensor[(1, 32, 64, 64), float32]) -> Tensor[(1, 32, 64, 64), float32] span=from_string:27:3 */;
  %12 = fn (%p08: Tensor[(1, 16, 32, 32), float32] /* ty=Tensor[(1, 16, 32, 32), float32] span=from_string:32:15 */, Primitive=1) -> Tensor[(1, 16, 32, 32), float32] {
    %11 = tanh(%p08) /* ty=Tensor[(1, 16, 32, 32), float32] span=from_string:33:13 */;
    nn.relu(%11) /* ty=Tensor[(1, 16, 32, 32), float32] span=from_string:32:5 */
  } /* ty=fn (Tensor[(1, 16, 32, 32), float32]) -> Tensor[(1, 16, 32, 32), float32] span=from_string:31:3 */;
  %13 = %12(%5) /* ty=Tensor[(1, 16, 32, 32), float32] span=from_string:35:114 */;
  %14 = fn (%p07: Tensor[(1, 16, 32, 32), float32] /* ty=Tensor[(1, 16, 32, 32), float32] span=from_string:37:15 */, Primitive=1) -> Tensor[(32, 32, 16, 1), float32] {
    transpose(%p07, axes=[2, 3, 1, 0]) /* ty=Tensor[(32, 32, 16, 1), float32] span=from_string:37:5 */
  } /* ty=fn (Tensor[(1, 16, 32, 32), float32]) -> Tensor[(32, 32, 16, 1), float32] span=from_string:36:3 */;
  %15 = %14(%13) /* ty=Tensor[(32, 32, 16, 1), float32] span=from_string:39:114 */;
  %16 = fn (%p06: Tensor[(32, 32, 16, 1), float32] /* ty=Tensor[(32, 32, 16, 1), float32] span=from_string:41:15 */, Primitive=1) -> Tensor[(1, 16, 32, 32), float32] {
    transpose(%p06, axes=[3, 2, 0, 1]) /* ty=Tensor[(1, 16, 32, 32), float32] span=from_string:41:5 */
  } /* ty=fn (Tensor[(32, 32, 16, 1), float32]) -> Tensor[(1, 16, 32, 32), float32] span=from_string:40:3 */;
  %17 = fn (%p09: Tensor[(1, 32, 64, 64), float32] /* ty=Tensor[(1, 32, 64, 64), float32] span=from_string:45:13 */, Primitive=1) -> Tensor[(1, 32, 64, 64), float32] {
    nn.relu(%p09) /* ty=Tensor[(1, 32, 64, 64), float32] span=from_string:45:5 */
  } /* ty=fn (Tensor[(1, 32, 64, 64), float32]) -> Tensor[(1, 32, 64, 64), float32] span=from_string:44:3 */;
  %28 = fn (%p013: Tensor[(1, 16, 32, 32), float32] /* ty=Tensor[(1, 16, 32, 32), float32] span=from_string:49:20 */, %p14: Tensor[(16, 16, 3, 3), float32] /* ty=Tensor[(16, 16, 3, 3), float32] span=from_string:49:27 */, Primitive=1) -> Tensor[(1, 16, 32, 32), float32] {
    %27 = nn.conv2d(%p013, %p14, padding=[1, 1, 1, 1], channels=16, kernel_size=[3, 3]) /* ty=Tensor[(1, 16, 32, 32), float32] span=from_string:50:13 */;
    nn.relu(%27) /* ty=Tensor[(1, 16, 32, 32), float32] span=from_string:49:5 */
  } /* ty=fn (Tensor[(1, 16, 32, 32), float32], Tensor[(16, 16, 3, 3), float32]) -> Tensor[(1, 16, 32, 32), float32] span=from_string:48:3 */;
  %30 = fn (%p014: Tensor[(1, 16, 32, 32), float32] /* ty=Tensor[(1, 16, 32, 32), float32] span=from_string:54:20 */, %p15: Tensor[(16, 16, 3, 3), float32] /* ty=Tensor[(16, 16, 3, 3), float32] span=from_string:54:27 */, Primitive=1) -> Tensor[(1, 16, 32, 32), float32] {
    %29 = nn.conv2d(%p014, %p15, padding=[1, 1, 1, 1], channels=16, kernel_size=[3, 3]) /* ty=Tensor[(1, 16, 32, 32), float32] span=from_string:55:13 */;
    nn.relu(%29) /* ty=Tensor[(1, 16, 32, 32), float32] span=from_string:54:5 */
  } /* ty=fn (Tensor[(1, 16, 32, 32), float32], Tensor[(16, 16, 3, 3), float32]) -> Tensor[(1, 16, 32, 32), float32] span=from_string:53:3 */;
  %31 = %28(%13, %x1) /* ty=Tensor[(1, 16, 32, 32), float32] span=from_string:52:114 */;
  %32 = %30(%13, %x2) /* ty=Tensor[(1, 16, 32, 32), float32] span=from_string:57:114 */;
  %33 = fn (%p012: Tensor[(1, 16, 32, 32), float32] /* ty=Tensor[(1, 16, 32, 32), float32] span=from_string:59:11 */, %p13: Tensor[(1, 16, 32, 32), float32] /* ty=Tensor[(1, 16, 32, 32), float32] span=from_string:59:18 */, Primitive=1) -> Tensor[(1, 32, 32, 32), float32] {
    %23 = (%p012, %p13) /* ty=(Tensor[(1, 16, 32, 32), float32], Tensor[(1, 16, 32, 32), float32]) span=from_string:60:22 */;
    %24 = concatenate(%23, axis=1) /* ty=Tensor[(1, 32, 32, 32), float32] span=from_string:61:33 */;
    %25 = annotation.stop_fusion(%24) /* ty=Tensor[(1, 32, 32, 32), float32] span=from_string:62:12 */;
    %26 = (%25,) /* ty=(Tensor[(1, 32, 32, 32), float32],) span=from_string:63:17 */;
    concatenate(%26, axis=1) /* ty=Tensor[(1, 32, 32, 32), float32] span=from_string:59:5 */
  } /* ty=fn (Tensor[(1, 16, 32, 32), float32], Tensor[(1, 16, 32, 32), float32]) -> Tensor[(1, 32, 32, 32), float32] span=from_string:58:3 */;
  %34 = %33(%31, %32) /* ty=Tensor[(1, 32, 32, 32), float32] span=from_string:65:114 */;
  %35 = fn (%p011: Tensor[(1, 32, 32, 32), float32] /* ty=Tensor[(1, 32, 32, 32), float32] span=from_string:67:15 */, %p12: Tensor[(16, 32, 3, 3), float32] /* ty=Tensor[(16, 32, 3, 3), float32] span=from_string:67:22 */, Primitive=1) -> Tensor[(1, 16, 32, 32), float32] {
    nn.conv2d(%p011, %p12, padding=[1, 1, 1, 1], channels=16, kernel_size=[3, 3]) /* ty=Tensor[(1, 16, 32, 32), float32] span=from_string:67:5 */
  } /* ty=fn (Tensor[(1, 32, 32, 32), float32], Tensor[(16, 32, 3, 3), float32]) -> Tensor[(1, 16, 32, 32), float32] span=from_string:66:3 */;
  %37 = fn (%p015: Tensor[(1, 32, 32, 32), float32] /* ty=Tensor[(1, 32, 32, 32), float32] span=from_string:71:21 */, %p16: Tensor[(16, 32, 3, 3), float32] /* ty=Tensor[(16, 32, 3, 3), float32] span=from_string:71:28 */, Primitive=1) -> Tensor[(1, 16, 32, 32), float32] {
    %36 = nn.conv2d(%p015, %p16, padding=[1, 1, 1, 1], channels=16, kernel_size=[3, 3]) /* ty=Tensor[(1, 16, 32, 32), float32] span=from_string:72:13 */;
    nn.relu(%36) /* ty=Tensor[(1, 16, 32, 32), float32] span=from_string:71:5 */
  } /* ty=fn (Tensor[(1, 32, 32, 32), float32], Tensor[(16, 32, 3, 3), float32]) -> Tensor[(1, 16, 32, 32), float32] span=from_string:70:3 */;
  %38 = %35(%34, %x4) /* ty=Tensor[(1, 16, 32, 32), float32] span=from_string:69:114 */;
  %39 = %37(%34, %x3) /* ty=Tensor[(1, 16, 32, 32), float32] span=from_string:74:114 */;
  %40 = fn (%p010: Tensor[(1, 16, 32, 32), float32] /* ty=Tensor[(1, 16, 32, 32), float32] span=from_string:76:19 */, %p11: Tensor[(1, 16, 32, 32), float32] /* ty=Tensor[(1, 16, 32, 32), float32] span=from_string:77:12 */, Primitive=1) -> Tensor[(1, 32, 32, 32), float32] {
    %18 = nn.relu(%p010) /* ty=Tensor[(1, 16, 32, 32), float32] span=from_string:77:18 */;
    %19 = (%p11, %18) /* ty=(Tensor[(1, 16, 32, 32), float32], Tensor[(1, 16, 32, 32), float32]) span=from_string:78:23 */;
    %20 = concatenate(%19, axis=1) /* ty=Tensor[(1, 32, 32, 32), float32] span=from_string:79:34 */;
    %21 = annotation.stop_fusion(%20) /* ty=Tensor[(1, 32, 32, 32), float32] span=from_string:80:12 */;
    %22 = (%21,) /* ty=(Tensor[(1, 32, 32, 32), float32],) span=from_string:81:17 */;
    concatenate(%22, axis=1) /* ty=Tensor[(1, 32, 32, 32), float32] span=from_string:76:5 */
  } /* ty=fn (Tensor[(1, 16, 32, 32), float32], Tensor[(1, 16, 32, 32), float32]) -> Tensor[(1, 32, 32, 32), float32] span=from_string:75:3 */;
  %42 = fn (%p016: Tensor[(1, 16, 32, 32), float32] /* ty=Tensor[(1, 16, 32, 32), float32] span=from_string:85:21 */, Primitive=1) -> Tensor[(16, 32, 32, 1), float32] {
    %41 = transpose(%p016, axes=[1, 2, 3, 0]) /* ty=Tensor[(16, 32, 32, 1), float32] span=from_string:86:13 */;
    nn.relu(%41) /* ty=Tensor[(16, 32, 32, 1), float32] span=from_string:85:5 */
  } /* ty=fn (Tensor[(1, 16, 32, 32), float32]) -> Tensor[(16, 32, 32, 1), float32] span=from_string:84:3 */;
  %44 = fn (%p018: Tensor[(32, 32, 16, 1), float32] /* ty=Tensor[(32, 32, 16, 1), float32] span=from_string:90:19 */, Primitive=1) -> Tensor[(32, 32, 16, 1), float32] {
    %43 = nn.relu(%p018) /* ty=Tensor[(32, 32, 16, 1), float32] span=from_string:91:9 */;
    add(%43, 1f /* ty=float32 span=from_string:91:16 */) /* ty=Tensor[(32, 32, 16, 1), float32] span=from_string:90:5 */
  } /* ty=fn (Tensor[(32, 32, 16, 1), float32]) -> Tensor[(32, 32, 16, 1), float32] span=from_string:89:3 */;
  %45 = %44(%15) /* ty=Tensor[(32, 32, 16, 1), float32] span=from_string:93:115 */;
  %46 = fn (%p017: Tensor[(32, 32, 16, 1), float32] /* ty=Tensor[(32, 32, 16, 1), float32] span=from_string:95:15 */, Primitive=1) -> Tensor[(32, 32, 16, 1), float32] {
    multiply(%p017, 2f /* ty=float32 span=from_string:95:24 */) /* ty=Tensor[(32, 32, 16, 1), float32] span=from_string:95:6 */
  } /* ty=fn (Tensor[(32, 32, 16, 1), float32]) -> Tensor[(32, 32, 16, 1), float32] span=from_string:94:3 */;
  %49 = fn (%p019: Tensor[(32, 32, 16, 1), float32] /* ty=Tensor[(32, 32, 16, 1), float32] span=from_string:100:15 */, Primitive=1) -> Tensor[(32, 32, 16), float32] {
    %47 = add(%p019, 1f /* ty=float32 span=from_string:100:24 */) /* ty=Tensor[(32, 32, 16, 1), float32] span=from_string:101:15 */;
    %48 = exp(%47) /* ty=Tensor[(32, 32, 16, 1), float32] span=from_string:102:13 */;
    squeeze(%48) /* ty=Tensor[(32, 32, 16), float32] span=from_string:100:5 */
  } /* ty=fn (Tensor[(32, 32, 16, 1), float32]) -> Tensor[(32, 32, 16), float32] span=from_string:99:3 */;
  %50 = fn (%p0: Tensor[(1, 16, 64, 64), float32] /* ty=Tensor[(1, 16, 64, 64), float32] span=from_string:12:20 */, Primitive=1) -> Tensor[(1, 16, 64, 64), float32] {
    multiply(%p0, %p0) /* ty=Tensor[(1, 16, 64, 64), float32] span=from_string:12:6 */
  } /* ty=fn (Tensor[(1, 16, 64, 64), float32]) -> Tensor[(1, 16, 64, 64), float32] span=from_string:11:3 */;
  %52 = %50(%7) /* ty=Tensor[(1, 16, 64, 64), float32] span=from_string:14:113 */;
  %53 = fn (%p03: Tensor[(1, 16, 64, 64), float32] /* ty=Tensor[(1, 16, 64, 64), float32] */, Primitive=1) -> Tensor[(1, 16, 64, 64), float32] {
    ones(shape=[1, 16, 64, 64], dtype="float32") /* ty=Tensor[(1, 16, 64, 64), float32] span=from_string:16:5 */
  } /* ty=fn (Tensor[(1, 16, 64, 64), float32]) -> Tensor[(1, 16, 64, 64), float32] span=from_string:15:3 */;
  %54 = %53(%52) /* ty=Tensor[(1, 16, 64, 64), float32] span=from_string:18:113 */;
  %55 = fn (%p021: Tensor[(1, 16, 64, 64), float32] /* ty=Tensor[(1, 16, 64, 64), float32] span=from_string:106:21 */, %p18: Tensor[(1, 16, 64, 64), float32] /* ty=Tensor[(1, 16, 64, 64), float32] span=from_string:106:28 */, Primitive=1) -> Tensor[(1, 16, 64, 64), float32] {
    %51 = multiply(%p021, %p18) /* ty=Tensor[(1, 16, 64, 64), float32] span=from_string:107:21 */;
    collapse_sum_to(%51, meta[relay.Constant][0] /* ty=Tensor[(4), int32] span=from_string:107:31 */, meta[relay.attrs.InitOpAttrs][0]) /* ty=Tensor[(1, 16, 64, 64), float32] span=from_string:106:5 */
  } /* ty=fn (Tensor[(1, 16, 64, 64), float32], Tensor[(1, 16, 64, 64), float32]) -> Tensor[(1, 16, 64, 64), float32] span=from_string:105:3 */;
  %56 = %55(%54, %7) /* ty=Tensor[(1, 16, 64, 64), float32] span=from_string:109:115 */;
  %57 = fn (%p020: Tensor[(1, 16, 64, 64), float32] /* ty=Tensor[(1, 16, 64, 64), float32] */, %p17: Tensor[(1, 16, 64, 64), float32] /* ty=Tensor[(1, 16, 64, 64), float32] span=from_string:111:15 */, Primitive=1) -> Tensor[(1, 16, 64, 64), float32] {
    multiply(%p17, 2f /* ty=float32 span=from_string:111:23 */) /* ty=Tensor[(1, 16, 64, 64), float32] span=from_string:111:6 */
  } /* ty=fn (Tensor[(1, 16, 64, 64), float32], Tensor[(1, 16, 64, 64), float32]) -> Tensor[(1, 16, 64, 64), float32] span=from_string:110:3 */;
  %58 = %57(%7, %56) /* ty=Tensor[(1, 16, 64, 64), float32] span=from_string:113:115 */;
  %59 = (%58,) /* ty=(Tensor[(1, 16, 64, 64), float32],) span=from_string:114:121 */;
  %60 = %10(%9) /* ty=Tensor[(1, 32, 64, 64), float32] span=from_string:30:114 */;
  %61 = %16(%15) /* ty=Tensor[(1, 16, 32, 32), float32] span=from_string:43:115 */;
  %62 = %17(%9) /* ty=Tensor[(1, 32, 64, 64), float32] span=from_string:47:115 */;
  %63 = %40(%38, %39) /* ty=Tensor[(1, 32, 32, 32), float32] span=from_string:83:115 */;
  %64 = %42(%38) /* ty=Tensor[(16, 32, 32, 1), float32] span=from_string:88:115 */;
  %65 = %46(%45) /* ty=Tensor[(32, 32, 16, 1), float32] span=from_string:97:115 */;
  %66 = %49(%45) /* ty=Tensor[(32, 32, 16), float32] span=from_string:104:109 */;
  %67 = (%52, %59) /* ty=(Tensor[(1, 16, 64, 64), float32], (Tensor[(1, 16, 64, 64), float32],)) span=from_string:115:193 */;
  (%60, %61, %62, %63, %64, %65, 2f /* ty=float32 span=from_string:98:67 */, %66, %67) /* ty=(Tensor[(1, 32, 64, 64), float32], Tensor[(1, 16, 32, 32), float32], Tensor[(1, 32, 64, 64), float32], Tensor[(1, 32, 32, 32), float32], Tensor[(16, 32, 32, 1), float32], Tensor[(32, 32, 16, 1), float32], float32, Tensor[(32, 32, 16), float32], (Tensor[(1, 16, 64, 64), float32], (Tensor[(1, 16, 64, 64), float32],))) span=from_string:116:685 */
}

#[metadata]
{
  "root": 1, 
  "nodes": [
    {
      "type_key": ""
    }, 
    {
      "type_key": "Map", 
      "keys": [
        "relay.attrs.InitOpAttrs", 
        "relay.Constant"
      ], 
      "data": [2, 9]
    }, 
    {
      "type_key": "Array", 
      "data": [3]
    }, 
    {
      "type_key": "relay.attrs.InitOpAttrs", 
      "attrs": {
        "dtype": "", 
        "shape": "4"
      }
    }, 
    {
      "type_key": "Array", 
      "data": [5, 6, 7, 8]
    }, 
    {
      "type_key": "IntImm", 
      "attrs": {
        "dtype": "int32", 
        "span": "0", 
        "value": "1"
      }
    }, 
    {
      "type_key": "IntImm", 
      "attrs": {
        "dtype": "int32", 
        "span": "0", 
        "value": "16"
      }
    }, 
    {
      "type_key": "IntImm", 
      "attrs": {
        "dtype": "int32", 
        "span": "0", 
        "value": "64"
      }
    }, 
    {
      "type_key": "IntImm", 
      "attrs": {
        "dtype": "int32", 
        "span": "0", 
        "value": "64"
      }
    }, 
    {
      "type_key": "Array", 
      "data": [10]
    }, 
    {
      "type_key": "relay.Constant", 
      "attrs": {
        "_checked_type_": "15", 
        "data": "0", 
        "span": "13", 
        "virtual_device_": "11"
      }
    }, 
    {
      "type_key": "VirtualDevice", 
      "attrs": {
        "device_type_int": "-1", 
        "memory_scope": "12", 
        "target": "0", 
        "virtual_device_id": "-1"
      }
    }, 
    {
      "type_key": "runtime.String"
    }, 
    {
      "type_key": "Span", 
      "attrs": {
        "column": "31", 
        "end_column": "49", 
        "end_line": "107", 
        "line": "107", 
        "source_name": "14"
      }
    }, 
    {
      "type_key": "SourceName", 
      "repr_str": "from_string"
    }, 
    {
      "type_key": "relay.TensorType", 
      "attrs": {
        "dtype": "int32", 
        "shape": "16", 
        "span": "0"
      }
    }, 
    {
      "type_key": "Array", 
      "data": [17]
    }, 
    {
      "type_key": "IntImm", 
      "attrs": {
        "dtype": "int32", 
        "span": "0", 
        "value": "4"
      }
    }
  ], 
  "b64ndarrays": [
    "P6G0lvBAXt0AAAAAAAAAAAEAAAAAAAAAAQAAAAAgAQAEAAAAAAAAABAAAAAAAAAAAQAAABAAAABAAAAAQAAAAA=="
  ], 
  "attrs": {"tvm_version": "0.13.0"}
}