#[version = "0.0.5"]
def @main(%x0: Tensor[(10, 20), float32] /* ty=Tensor[(10, 20), float32] span=from_string:3:12 */, %x1: Tensor[(12, 20), float32] /* ty=Tensor[(12, 20), float32] span=from_string:16:23 */, %x2: Tensor[(12), float32] /* ty=Tensor[(12), float32] span=from_string:9:16 */, %x3: Tensor[(1), float32] /* ty=Tensor[(1), float32] span=from_string:36:13 */, %x4: Tensor[(24, 20), float32] /* ty=Tensor[(24, 20), float32] span=from_string:11:21 */, %x5: Tensor[(24), float32] /* ty=Tensor[(24), float32] span=from_string:12:16 */, %x6: Tensor[(1), float32] /* ty=Tensor[(1), float32] span=from_string:13:23 */, %x7: Tensor[(70, 20), float32] /* ty=Tensor[(70, 20), float32] span=from_string:19:18 */, %x8: Tensor[(12, 20), float32] /* ty=Tensor[(12, 20), float32] span=from_string:19:23 */, %x9: Tensor[(12), float32] /* ty=Tensor[(12), float32] span=from_string:17:18 */, %x10: Tensor[(12), float32] /* ty=Tensor[(12), float32] span=from_string:20:18 */, %x11: Tensor[(1), float32] /* ty=Tensor[(1), float32] span=from_string:25:17 */, %x12: Tensor[(1), float32] /* ty=Tensor[(1), float32] span=from_string:21:24 */, %x13: Tensor[(45, 24), float32] /* ty=Tensor[(45, 24), float32] span=from_string:30:14 */, %x14: Tensor[(1320), float32] /* ty=Tensor[(1320), float32] */) -> (Tensor[(10, 20), float32], (Tensor[(1, 1, 120), float32], Tensor[(1, 1, 240), float32]), (Tensor[(1, 1, 840), float32], Tensor[(1, 1, 840), float32]), Tensor[(1), float32], Tensor[(1), float32], Tensor[(70, 12), float32], Tensor[(1320), float32]) {
  %0 = add(%x0, 1f /* ty=float32 span=from_string:3:19 */);
  %1 = annotation.stop_fusion(%0);
  %2 = add(2f /* ty=float32 span=from_string:5:14 */, %1);
  %3 = ones_like(%2);
  %4 = fast_exp(%1);
  %5 = nn.dense(%4, %x1, units=None);
  %6 = add(%5, %x2);
  %7 = multiply(%6, %x3);
  %8 = nn.dense(%4, %x4, units=None);
  %9 = add(%8, %x5);
  %10 = multiply(%9, %x6);
  %11 = reshape(%7, newshape=[1, 1, 120]);
  %12 = reshape(%10, newshape=[1, 1, 240]);
  %13 = nn.dense(%x7, %x1, units=None);
  %14 = add(%13, %x9);
  %15 = multiply(%14, %x11);
  %16 = nn.dense(%x7, %x8, units=None);
  %17 = add(%16, %x10);
  %18 = multiply(%17, %x12);
  %19 = reshape(%15, newshape=[1, 1, -1]);
  %20 = reshape(%18, newshape=[1, 1, -1]);
  %21 = nn.relu(%x11);
  %22 = nn.relu(%x11);
  %23 = add(%21, 1f /* ty=float32 span=from_string:26:20 */);
  %24 = add(%22, 1f /* ty=float32 span=from_string:27:20 */);
  %25 = ones_like(%x3);
  %26 = ones(shape=[1], dtype="float32");
  %27 = (%8, %x13) /* ty=(Tensor[(10, 24), float32], Tensor[(45, 24), float32]) span=from_string:31:21 */;
  %28 = concatenate(%27);
  %29 = add(%2, %3);
  %30 = (%11, %12) /* ty=(Tensor[(1, 1, 120), float32], Tensor[(1, 1, 240), float32]) span=from_string:39:9 */;
  %31 = (%19, %20) /* ty=(Tensor[(1, 1, 840), float32], Tensor[(1, 1, 840), float32]) span=from_string:39:14 */;
  %32 = add(%23, %24);
  %33 = add(%x3, %25);
  %34 = multiply(%26, %14);
  %35 = reshape(%28, newshape=[1320]);
  (%29, %30, %31, %32, %33, %34, %35) /* ty=(Tensor[(10, 20), float32], (Tensor[(1, 1, 120), float32], Tensor[(1, 1, 240), float32]), (Tensor[(1, 1, 840), float32], Tensor[(1, 1, 840), float32]), Tensor[(1), float32], Tensor[(1), float32], Tensor[(70, 12), float32], Tensor[(1320), float32]) span=from_string:3:3 */
}
