#[version = "0.0.5"]
def @main(%x0: Tensor[(10, 20), float32] /* ty=Tensor[(10, 20), float32] span=from_string:6:11 */, %x1: Tensor[(12, 20), float32] /* ty=Tensor[(12, 20), float32] span=from_string:40:18 */, %x2: Tensor[(12), float32] /* ty=Tensor[(12), float32] span=from_string:21:21 */, %x3: Tensor[(1), float32] /* ty=Tensor[(1), float32] span=from_string:80:13 */, %x4: Tensor[(24, 20), float32] /* ty=Tensor[(24, 20), float32] span=from_string:28:17 */, %x5: Tensor[(24), float32] /* ty=Tensor[(24), float32] span=from_string:35:18 */, %x6: Tensor[(1), float32] /* ty=Tensor[(1), float32] span=from_string:35:23 */, %x7: Tensor[(70, 20), float32] /* ty=Tensor[(70, 20), float32] span=from_string:50:13 */, %x8: Tensor[(12, 20), float32] /* ty=Tensor[(12, 20), float32] span=from_string:50:18 */, %x9: Tensor[(12), float32] /* ty=Tensor[(12), float32] span=from_string:40:23 */, %x10: Tensor[(12), float32] /* ty=Tensor[(12), float32] span=from_string:50:23 */, %x11: Tensor[(1), float32] /* ty=Tensor[(1), float32] span=from_string:79:13 */, %x12: Tensor[(1), float32] /* ty=Tensor[(1), float32] span=from_string:50:29 */, %x13: Tensor[(45, 24), float32] /* ty=Tensor[(45, 24), float32] span=from_string:82:18 */, %x14: Tensor[(1320), float32] /* ty=Tensor[(1320), float32] */) -> (Tensor[(10, 20), float32], (Tensor[(1, 1, 120), float32], Tensor[(1, 1, 240), float32]), (Tensor[(1, 1, 840), float32], Tensor[(1, 1, 840), float32]), Tensor[(1), float32], Tensor[(1), float32], Tensor[(70, 12), float32], Tensor[(1320), float32]) {
  %2 = fn (%p01: Tensor[(10, 20), float32] /* ty=Tensor[(10, 20), float32] span=from_string:4:9 */, Primitive=1) -> Tensor[(10, 20), float32] {
    add(%p01, 1f /* ty=float32 span=from_string:4:17 */)
  } /* ty=fn (Tensor[(10, 20), float32]) -> Tensor[(10, 20), float32] span=from_string:6:8 */;
  %3 = %2(%x0);
  %4 = fn (%p0: Tensor[(10, 20), float32] /* ty=Tensor[(10, 20), float32] span=from_string:8:57 */, Primitive=1) -> Tensor[(10, 20), float32] {
    %0 = add(2f /* ty=float32 span=from_string:8:16 */, %p0);
    %1 = ones_like(%0);
    add(%0, %1)
  } /* ty=fn (Tensor[(10, 20), float32]) -> Tensor[(10, 20), float32] span=from_string:76:9 */;
  %7 = fn (%p04: Tensor[(10, 20), float32] /* ty=Tensor[(10, 20), float32] span=from_string:13:14 */, Primitive=1) -> Tensor[(10, 20), float32] {
    fast_exp(%p04)
  } /* ty=fn (Tensor[(10, 20), float32]) -> Tensor[(10, 20), float32] span=from_string:15:8 */;
  %8 = %7(%3);
  %9 = fn (%p03: Tensor[(10, 20), float32] /* ty=Tensor[(10, 20), float32] span=from_string:17:19 */, %p1: Tensor[(12, 20), float32] /* ty=Tensor[(12, 20), float32] span=from_string:17:25 */, %p2: Tensor[(12), float32] /* ty=Tensor[(12), float32] span=from_string:18:18 */, %p3: Tensor[(1), float32] /* ty=Tensor[(1), float32] span=from_string:19:19 */, Primitive=1) -> Tensor[(10, 12), float32] {
    %5 = nn.dense(%p03, %p1, units=None);
    %6 = add(%5, %p2);
    multiply(%6, %p3)
  } /* ty=fn (Tensor[(10, 20), float32], Tensor[(12, 20), float32], Tensor[(12), float32], Tensor[(1), float32]) -> Tensor[(10, 12), float32] span=from_string:21:9 */;
  %10 = %9(%8, %x1, %x2, %x3);
  %11 = fn (%p02: Tensor[(10, 12), float32] /* ty=Tensor[(10, 12), float32] span=from_string:23:13 */, Primitive=1, relay.reshape_only=1) -> Tensor[(1, 1, 120), float32] {
    reshape(%p02, newshape=[1, 1, 120])
  } /* ty=fn (Tensor[(10, 12), float32]) -> Tensor[(1, 1, 120), float32] span=from_string:34:9 */;
  %14 = fn (%p06: Tensor[(10, 20), float32] /* ty=Tensor[(10, 20), float32] span=from_string:26:14 */, %p12: Tensor[(24, 20), float32] /* ty=Tensor[(24, 20), float32] span=from_string:26:20 */, Primitive=1) -> Tensor[(10, 24), float32] {
    nn.dense(%p06, %p12, units=None)
  } /* ty=fn (Tensor[(10, 20), float32], Tensor[(24, 20), float32]) -> Tensor[(10, 24), float32] span=from_string:28:9 */;
  %15 = %14(%8, %x4);
  %16 = fn (%p05: Tensor[(10, 24), float32] /* ty=Tensor[(10, 24), float32] span=from_string:30:15 */, %p11: Tensor[(24), float32] /* ty=Tensor[(24), float32] span=from_string:30:21 */, %p21: Tensor[(1), float32] /* ty=Tensor[(1), float32] span=from_string:31:26 */, Primitive=1) -> Tensor[(1, 1, 240), float32] {
    %12 = add(%p05, %p11);
    %13 = multiply(%12, %p21);
    reshape(%13, newshape=[1, 1, 240])
  } /* ty=fn (Tensor[(10, 24), float32], Tensor[(24), float32], Tensor[(1), float32]) -> Tensor[(1, 1, 240), float32] span=from_string:35:9 */;
  %17 = %11(%10);
  %18 = %16(%15, %x5, %x6);
  %21 = fn (%p08: Tensor[(70, 20), float32] /* ty=Tensor[(70, 20), float32] span=from_string:37:20 */, %p14: Tensor[(12, 20), float32] /* ty=Tensor[(12, 20), float32] span=from_string:37:26 */, %p22: Tensor[(12), float32] /* ty=Tensor[(12), float32] span=from_string:38:14 */, Primitive=1) -> Tensor[(70, 12), float32] {
    %20 = nn.dense(%p08, %p14, units=None);
    add(%20, %p22)
  } /* ty=fn (Tensor[(70, 20), float32], Tensor[(12, 20), float32], Tensor[(12), float32]) -> Tensor[(70, 12), float32] span=from_string:40:9 */;
  %22 = %21(%x7, %x1, %x9);
  %23 = fn (%p07: Tensor[(70, 12), float32] /* ty=Tensor[(70, 12), float32] span=from_string:42:21 */, %p13: Tensor[(1), float32] /* ty=Tensor[(1), float32] span=from_string:42:27 */, Primitive=1) -> Tensor[(1, 1, 840), float32] {
    %19 = multiply(%p07, %p13);
    reshape(%19, newshape=[1, 1, -1])
  } /* ty=fn (Tensor[(70, 12), float32], Tensor[(1), float32]) -> Tensor[(1, 1, 840), float32] span=from_string:54:9 */;
  %26 = fn (%p010: Tensor[(70, 20), float32] /* ty=Tensor[(70, 20), float32] span=from_string:46:20 */, %p15: Tensor[(12, 20), float32] /* ty=Tensor[(12, 20), float32] span=from_string:46:27 */, %p23: Tensor[(12), float32] /* ty=Tensor[(12), float32] span=from_string:47:20 */, %p31: Tensor[(1), float32] /* ty=Tensor[(1), float32] span=from_string:48:20 */, Primitive=1) -> Tensor[(70, 12), float32] {
    %24 = nn.dense(%p010, %p15, units=None);
    %25 = add(%24, %p23);
    multiply(%25, %p31)
  } /* ty=fn (Tensor[(70, 20), float32], Tensor[(12, 20), float32], Tensor[(12), float32], Tensor[(1), float32]) -> Tensor[(70, 12), float32] span=from_string:50:9 */;
  %27 = %26(%x7, %x8, %x10, %x12);
  %28 = fn (%p09: Tensor[(70, 12), float32] /* ty=Tensor[(70, 12), float32] span=from_string:52:13 */, Primitive=1, relay.reshape_only=1) -> Tensor[(1, 1, 840), float32] {
    reshape(%p09, newshape=[1, 1, -1])
  } /* ty=fn (Tensor[(70, 12), float32]) -> Tensor[(1, 1, 840), float32] span=from_string:55:9 */;
  %29 = %23(%22, %x11);
  %30 = %28(%27);
  %35 = fn (%p011: Tensor[(1), float32] /* ty=Tensor[(1), float32] span=from_string:58:19 */, Primitive=1) -> Tensor[(1), float32] {
    %31 = nn.relu(%p011);
    %32 = nn.relu(%p011);
    %33 = add(%31, 1f /* ty=float32 span=from_string:59:22 */);
    %34 = add(%32, 1f /* ty=float32 span=from_string:60:22 */);
    add(%33, %34)
  } /* ty=fn (Tensor[(1), float32]) -> Tensor[(1), float32] span=from_string:79:9 */;
  %37 = fn (%p012: Tensor[(1), float32] /* ty=Tensor[(1), float32] span=from_string:65:9 */, Primitive=1) -> Tensor[(1), float32] {
    %36 = ones_like(%p012);
    add(%p012, %36)
  } /* ty=fn (Tensor[(1), float32]) -> Tensor[(1), float32] span=from_string:80:9 */;
  %39 = fn (%p013: Tensor[(70, 12), float32] /* ty=Tensor[(70, 12), float32] span=from_string:69:20 */, Primitive=1) -> Tensor[(70, 12), float32] {
    %38 = ones(shape=[1], dtype="float32");
    multiply(%38, %p013)
  } /* ty=fn (Tensor[(70, 12), float32]) -> Tensor[(70, 12), float32] span=from_string:81:9 */;
  %42 = fn (%p014: Tensor[(10, 24), float32] /* ty=Tensor[(10, 24), float32] span=from_string:72:12 */, %p16: Tensor[(45, 24), float32] /* ty=Tensor[(45, 24), float32] span=from_string:72:19 */, Primitive=1) -> Tensor[(1320), float32] {
    %40 = (%p014, %p16) /* ty=(Tensor[(10, 24), float32], Tensor[(45, 24), float32]) span=from_string:73:23 */;
    %41 = concatenate(%40);
    reshape(%41, newshape=[1320])
  } /* ty=fn (Tensor[(10, 24), float32], Tensor[(45, 24), float32]) -> Tensor[(1320), float32] span=from_string:82:9 */;
  %43 = %4(%3);
  %44 = (%17, %18) /* ty=(Tensor[(1, 1, 120), float32], Tensor[(1, 1, 240), float32]) span=from_string:83:9 */;
  %45 = (%29, %30) /* ty=(Tensor[(1, 1, 840), float32], Tensor[(1, 1, 840), float32]) span=from_string:83:14 */;
  %46 = %35(%x11);
  %47 = %37(%x3);
  %48 = %39(%22);
  %49 = %42(%15, %x13);
  (%43, %44, %45, %46, %47, %48, %49) /* ty=(Tensor[(10, 20), float32], (Tensor[(1, 1, 120), float32], Tensor[(1, 1, 240), float32]), (Tensor[(1, 1, 840), float32], Tensor[(1, 1, 840), float32]), Tensor[(1), float32], Tensor[(1), float32], Tensor[(70, 12), float32], Tensor[(1320), float32]) span=from_string:3:3 */
}
