#[version = "0.0.5"]
def @main(%x0: Tensor[(10, 20), float32] /* ty=Tensor[(10, 20), float32] span=from_string:3:12 */, %x1: Tensor[(12, 20), float32] /* ty=Tensor[(12, 20), float32] span=from_string:16:23 */, %x2: Tensor[(12), float32] /* ty=Tensor[(12), float32] span=from_string:9:16 */, %x3: Tensor[(1), float32] /* ty=Tensor[(1), float32] span=from_string:36:13 */, %x4: Tensor[(24, 20), float32] /* ty=Tensor[(24, 20), float32] span=from_string:11:21 */, %x5: Tensor[(24), float32] /* ty=Tensor[(24), float32] span=from_string:12:16 */, %x6: Tensor[(1), float32] /* ty=Tensor[(1), float32] span=from_string:13:23 */, %x7: Tensor[(70, 20), float32] /* ty=Tensor[(70, 20), float32] span=from_string:19:18 */, %x8: Tensor[(12, 20), float32] /* ty=Tensor[(12, 20), float32] span=from_string:19:23 */, %x9: Tensor[(12), float32] /* ty=Tensor[(12), float32] span=from_string:17:18 */, %x10: Tensor[(12), float32] /* ty=Tensor[(12), float32] span=from_string:20:18 */, %x11: Tensor[(1), float32] /* ty=Tensor[(1), float32] span=from_string:25:17 */, %x12: Tensor[(1), float32] /* ty=Tensor[(1), float32] span=from_string:21:24 */, %x13: Tensor[(45, 24), float32] /* ty=Tensor[(45, 24), float32] span=from_string:30:14 */, %x14: Tensor[(1320), float32] /* ty=Tensor[(1320), float32] */) -> (Tensor[(10, 20), float16], (Tensor[(1, 1, 120), float16], Tensor[(1, 1, 240), float16]), (Tensor[(1, 1, 840), float16], Tensor[(1, 1, 840), float16]), Tensor[(1), float16], Tensor[(1), float16], Tensor[(70, 12), float16], Tensor[(1320), float32]) {
  %0 = cast(%x0, dtype="float16") /* ty=Tensor[(10, 20), float16] */;
  %1 = cast(1f /* ty=float32 span=from_string:3:19 */, dtype="float16") /* ty=float16 */;
  %2 = add(%0, %1) /* ty=Tensor[(10, 20), float16] span=from_string:4:31 */;
  %3 = cast(2f /* ty=float32 span=from_string:5:14 */, dtype="float16") /* ty=float16 */;
  %4 = annotation.stop_fusion(%2) /* ty=Tensor[(10, 20), float16] span=from_string:7:17 */;
  %5 = add(%3, %4) /* ty=Tensor[(10, 20), float16] span=from_string:32:13 */;
  %6 = ones_like(%5) /* ty=Tensor[(10, 20), float16] span=from_string:32:17 */;
  %7 = fast_exp(%4) /* ty=Tensor[(10, 20), float16] span=from_string:11:17 */;
  %8 = cast(%x1, dtype="float16") /* ty=Tensor[(12, 20), float16] */;
  %9 = nn.dense(%7, %8, units=None, out_dtype="float16") /* ty=Tensor[(10, 12), float16] span=from_string:9:12 */;
  %10 = cast(%x2, dtype="float16") /* ty=Tensor[(12), float16] */;
  %11 = add(%9, %10) /* ty=Tensor[(10, 12), float16] span=from_string:10:18 */;
  %12 = cast(%x3, dtype="float16") /* ty=Tensor[(1), float16] */;
  %13 = multiply(%11, %12) /* ty=Tensor[(10, 12), float16] span=from_string:14:17 */;
  %14 = cast(%x4, dtype="float16") /* ty=Tensor[(24, 20), float16] */;
  %15 = nn.dense(%7, %14, units=None, out_dtype="float16") /* ty=Tensor[(10, 24), float16] span=from_string:30:10 */;
  %16 = cast(%x5, dtype="float16") /* ty=Tensor[(24), float16] */;
  %17 = add(%15, %16) /* ty=Tensor[(10, 24), float16] span=from_string:13:19 */;
  %18 = cast(%x6, dtype="float16") /* ty=Tensor[(1), float16] */;
  %19 = multiply(%17, %18) /* ty=Tensor[(10, 24), float16] span=from_string:15:17 */;
  %20 = reshape(%13, newshape=[1, 1, 120]) /* ty=Tensor[(1, 1, 120), float16] span=from_string:33:10 */;
  %21 = reshape(%19, newshape=[1, 1, 240]) /* ty=Tensor[(1, 1, 240), float16] span=from_string:33:15 */;
  %22 = cast(%x7, dtype="float16") /* ty=Tensor[(70, 20), float16] */;
  %23 = nn.dense(%22, %8, units=None, out_dtype="float16") /* ty=Tensor[(70, 12), float16] span=from_string:17:13 */;
  %24 = cast(%x9, dtype="float16") /* ty=Tensor[(12), float16] */;
  %25 = add(%23, %24) /* ty=Tensor[(70, 12), float16] span=from_string:37:24 */;
  %26 = cast(%x11, dtype="float16") /* ty=Tensor[(1), float16] */;
  %27 = multiply(%25, %26) /* ty=Tensor[(70, 12), float16] span=from_string:22:17 */;
  %28 = cast(%x8, dtype="float16") /* ty=Tensor[(12, 20), float16] */;
  %29 = nn.dense(%22, %28, units=None, out_dtype="float16") /* ty=Tensor[(70, 12), float16] span=from_string:20:13 */;
  %30 = cast(%x10, dtype="float16") /* ty=Tensor[(12), float16] */;
  %31 = add(%29, %30) /* ty=Tensor[(70, 12), float16] span=from_string:21:19 */;
  %32 = cast(%x12, dtype="float16") /* ty=Tensor[(1), float16] */;
  %33 = multiply(%31, %32) /* ty=Tensor[(70, 12), float16] span=from_string:23:17 */;
  %34 = reshape(%27, newshape=[1, 1, -1]) /* ty=Tensor[(1, 1, 840), float16] span=from_string:34:10 */;
  %35 = reshape(%33, newshape=[1, 1, -1]) /* ty=Tensor[(1, 1, 840), float16] span=from_string:34:15 */;
  %36 = nn.relu(%26) /* ty=Tensor[(1), float16] span=from_string:26:13 */;
  %37 = cast(1f /* ty=float32 span=from_string:26:20 */, dtype="float16") /* ty=float16 */;
  %38 = nn.relu(%26) /* ty=Tensor[(1), float16] span=from_string:27:13 */;
  %39 = cast(1f /* ty=float32 span=from_string:27:20 */, dtype="float16") /* ty=float16 */;
  %40 = add(%36, %37) /* ty=Tensor[(1), float16] span=from_string:35:13 */;
  %41 = add(%38, %39) /* ty=Tensor[(1), float16] span=from_string:35:18 */;
  %42 = ones_like(%12) /* ty=Tensor[(1), float16] span=from_string:36:18 */;
  %43 = ones(shape=[1], dtype="float16") /* ty=Tensor[(1), float16] span=from_string:37:19 */;
  %44 = (%15, %x13) /* ty=(Tensor[(10, 24), float16], Tensor[(45, 24), float32]) span=from_string:31:21 */;
  %45 = %44.0 /* ty=Tensor[(10, 24), float16] */;
  %46 = cast(%45, dtype="float32") /* ty=Tensor[(10, 24), float32] */;
  %47 = %44.1 /* ty=Tensor[(45, 24), float32] */;
  %48 = (%46, %47) /* ty=(Tensor[(10, 24), float32], Tensor[(45, 24), float32]) */;
  %49 = concatenate(%48) /* ty=Tensor[(55, 24), float32] span=from_string:38:17 */;
  %50 = add(%5, %6) /* ty=Tensor[(10, 20), float16] span=from_string:39:4 */;
  %51 = (%20, %21) /* ty=(Tensor[(1, 1, 120), float16], Tensor[(1, 1, 240), float16]) span=from_string:39:9 */;
  %52 = (%34, %35) /* ty=(Tensor[(1, 1, 840), float16], Tensor[(1, 1, 840), float16]) span=from_string:39:14 */;
  %53 = add(%40, %41) /* ty=Tensor[(1), float16] span=from_string:39:19 */;
  %54 = add(%12, %42) /* ty=Tensor[(1), float16] span=from_string:39:24 */;
  %55 = multiply(%43, %25) /* ty=Tensor[(70, 12), float16] span=from_string:39:29 */;
  %56 = reshape(%49, newshape=[1320]) /* ty=Tensor[(1320), float32] span=from_string:39:34 */;
  (%50, %51, %52, %53, %54, %55, %56) /* ty=(Tensor[(10, 20), float16], (Tensor[(1, 1, 120), float16], Tensor[(1, 1, 240), float16]), (Tensor[(1, 1, 840), float16], Tensor[(1, 1, 840), float16]), Tensor[(1), float16], Tensor[(1), float16], Tensor[(70, 12), float16], Tensor[(1320), float32]) span=from_string:3:3 */
}
