#[version = "0.0.5"]
def @main(%x0: Tensor[(10, 20), float32] /* ty=Tensor[(10, 20), float32] span=from_string:3:13 */, %x1: Tensor[(12, 20), float32] /* ty=Tensor[(12, 20), float32] span=from_string:11:13 */, %x2: Tensor[(12), float32] /* ty=Tensor[(12), float32] span=from_string:13:14 */, %x3: Tensor[(1), float32] /* ty=Tensor[(1), float32] span=from_string:15:14 */, %x4: Tensor[(24, 20), float32] /* ty=Tensor[(24, 20), float32] span=from_string:17:14 */, %x5: Tensor[(24), float32] /* ty=Tensor[(24), float32] span=from_string:19:14 */, %x6: Tensor[(1), float32] /* ty=Tensor[(1), float32] span=from_string:21:14 */, %x7: Tensor[(70, 20), float32] /* ty=Tensor[(70, 20), float32] span=from_string:25:14 */, %x8: Tensor[(12, 20), float32] /* ty=Tensor[(12, 20), float32] span=from_string:31:14 */, %x9: Tensor[(12), float32] /* ty=Tensor[(12), float32] span=from_string:27:14 */, %x10: Tensor[(12), float32] /* ty=Tensor[(12), float32] span=from_string:33:14 */, %x11: Tensor[(1), float32] /* ty=Tensor[(1), float32] span=from_string:29:14 */, %x12: Tensor[(1), float32] /* ty=Tensor[(1), float32] span=from_string:35:14 */, %x13: Tensor[(45, 24), float32] /* ty=Tensor[(45, 24), float32] span=from_string:47:15 */, %x14: Tensor[(1320), float32] /* ty=Tensor[(1320), float32] */) -> (Tensor[(10, 20), float16], (Tensor[(1, 1, 120), float16], Tensor[(1, 1, 240), float16]), (Tensor[(1, 1, 840), float16], Tensor[(1, 1, 840), float16]), Tensor[(1), float16], Tensor[(1), float16], Tensor[(70, 12), float16], Tensor[(1320), float32]) {
  %0 = cast(%x0, dtype="float16") /* ty=Tensor[(10, 20), float16] span=from_string:5:12 */;
  %1 = cast(1f /* ty=float32 span=from_string:4:15 */, dtype="float16") /* ty=float16 span=from_string:5:16 */;
  %2 = add(%0, %1) /* ty=Tensor[(10, 20), float16] span=from_string:7:31 */;
  %3 = cast(2f /* ty=float32 span=from_string:6:15 */, dtype="float16") /* ty=float16 span=from_string:8:12 */;
  %4 = annotation.stop_fusion(%2) /* ty=Tensor[(10, 20), float16] span=from_string:10:17 */;
  %5 = add(%3, %4) /* ty=Tensor[(10, 20), float16] span=from_string:53:13 */;
  %6 = ones_like(%5) /* ty=Tensor[(10, 20), float16] span=from_string:53:17 */;
  %7 = fast_exp(%4) /* ty=Tensor[(10, 20), float16] span=from_string:18:18 */;
  %8 = cast(%x1, dtype="float16") /* ty=Tensor[(12, 20), float16] span=from_string:26:23 */;
  %9 = nn.dense(%7, %8, units=None, out_dtype="float16") /* ty=Tensor[(10, 12), float16] span=from_string:14:13 */;
  %10 = cast(%x2, dtype="float16") /* ty=Tensor[(12), float16] span=from_string:14:17 */;
  %11 = add(%9, %10) /* ty=Tensor[(10, 12), float16] span=from_string:16:19 */;
  %12 = cast(%x3, dtype="float16") /* ty=Tensor[(1), float16] span=from_string:57:13 */;
  %13 = multiply(%11, %12) /* ty=Tensor[(10, 12), float16] span=from_string:23:17 */;
  %14 = cast(%x4, dtype="float16") /* ty=Tensor[(24, 20), float16] span=from_string:18:22 */;
  %15 = nn.dense(%7, %14, units=None, out_dtype="float16") /* ty=Tensor[(10, 24), float16] span=from_string:47:10 */;
  %16 = cast(%x5, dtype="float16") /* ty=Tensor[(24), float16] span=from_string:20:18 */;
  %17 = add(%15, %16) /* ty=Tensor[(10, 24), float16] span=from_string:22:19 */;
  %18 = cast(%x6, dtype="float16") /* ty=Tensor[(1), float16] span=from_string:22:24 */;
  %19 = multiply(%17, %18) /* ty=Tensor[(10, 24), float16] span=from_string:24:17 */;
  %20 = reshape(%13, newshape=[1, 1, 120]) /* ty=Tensor[(1, 1, 120), float16] span=from_string:54:10 */;
  %21 = reshape(%19, newshape=[1, 1, 240]) /* ty=Tensor[(1, 1, 240), float16] span=from_string:54:15 */;
  %22 = cast(%x7, dtype="float16") /* ty=Tensor[(70, 20), float16] span=from_string:32:18 */;
  %23 = nn.dense(%22, %8, units=None, out_dtype="float16") /* ty=Tensor[(70, 12), float16] span=from_string:28:13 */;
  %24 = cast(%x9, dtype="float16") /* ty=Tensor[(12), float16] span=from_string:28:18 */;
  %25 = add(%23, %24) /* ty=Tensor[(70, 12), float16] span=from_string:58:24 */;
  %26 = cast(%x11, dtype="float16") /* ty=Tensor[(1), float16] span=from_string:41:17 */;
  %27 = multiply(%25, %26) /* ty=Tensor[(70, 12), float16] span=from_string:37:17 */;
  %28 = cast(%x8, dtype="float16") /* ty=Tensor[(12, 20), float16] span=from_string:32:23 */;
  %29 = nn.dense(%22, %28, units=None, out_dtype="float16") /* ty=Tensor[(70, 12), float16] span=from_string:34:13 */;
  %30 = cast(%x10, dtype="float16") /* ty=Tensor[(12), float16] span=from_string:34:18 */;
  %31 = add(%29, %30) /* ty=Tensor[(70, 12), float16] span=from_string:36:19 */;
  %32 = cast(%x12, dtype="float16") /* ty=Tensor[(1), float16] span=from_string:36:24 */;
  %33 = multiply(%31, %32) /* ty=Tensor[(70, 12), float16] span=from_string:38:17 */;
  %34 = reshape(%27, newshape=[1, 1, -1]) /* ty=Tensor[(1, 1, 840), float16] span=from_string:55:10 */;
  %35 = reshape(%33, newshape=[1, 1, -1]) /* ty=Tensor[(1, 1, 840), float16] span=from_string:55:15 */;
  %36 = nn.relu(%26) /* ty=Tensor[(1), float16] span=from_string:43:13 */;
  %37 = cast(1f /* ty=float32 span=from_string:40:16 */, dtype="float16") /* ty=float16 span=from_string:43:18 */;
  %38 = nn.relu(%26) /* ty=Tensor[(1), float16] span=from_string:44:13 */;
  %39 = cast(1f /* ty=float32 span=from_string:42:16 */, dtype="float16") /* ty=float16 span=from_string:44:18 */;
  %40 = add(%36, %37) /* ty=Tensor[(1), float16] span=from_string:56:13 */;
  %41 = add(%38, %39) /* ty=Tensor[(1), float16] span=from_string:56:18 */;
  %42 = ones_like(%12) /* ty=Tensor[(1), float16] span=from_string:57:18 */;
  %43 = ones(shape=[1], dtype="float16") /* ty=Tensor[(1), float16] span=from_string:58:19 */;
  %44 = (%15, %x13) /* ty=(Tensor[(10, 24), float16], Tensor[(45, 24), float32]) span=from_string:50:9 */;
  %45 = %44.0 /* ty=Tensor[(10, 24), float16] span=from_string:49:14 */;
  %46 = cast(%45, dtype="float32") /* ty=Tensor[(10, 24), float32] span=from_string:51:10 */;
  %47 = %44.1 /* ty=Tensor[(45, 24), float32] span=from_string:51:15 */;
  %48 = (%46, %47) /* ty=(Tensor[(10, 24), float32], Tensor[(45, 24), float32]) span=from_string:52:21 */;
  %49 = concatenate(%48) /* ty=Tensor[(55, 24), float32] span=from_string:59:17 */;
  %50 = add(%5, %6) /* ty=Tensor[(10, 20), float16] span=from_string:60:4 */;
  %51 = (%20, %21) /* ty=(Tensor[(1, 1, 120), float16], Tensor[(1, 1, 240), float16]) span=from_string:60:9 */;
  %52 = (%34, %35) /* ty=(Tensor[(1, 1, 840), float16], Tensor[(1, 1, 840), float16]) span=from_string:60:14 */;
  %53 = add(%40, %41) /* ty=Tensor[(1), float16] span=from_string:60:19 */;
  %54 = add(%12, %42) /* ty=Tensor[(1), float16] span=from_string:60:24 */;
  %55 = multiply(%43, %25) /* ty=Tensor[(70, 12), float16] span=from_string:60:29 */;
  %56 = reshape(%49, newshape=[1320]) /* ty=Tensor[(1320), float32] span=from_string:60:34 */;
  (%50, %51, %52, %53, %54, %55, %56) /* ty=(Tensor[(10, 20), float16], (Tensor[(1, 1, 120), float16], Tensor[(1, 1, 240), float16]), (Tensor[(1, 1, 840), float16], Tensor[(1, 1, 840), float16]), Tensor[(1), float16], Tensor[(1), float16], Tensor[(70, 12), float16], Tensor[(1320), float32]) span=from_string:3:3 */
}
