#[version = "0.0.5"]
def @main(%x0: Tensor[(3, 1), float32] /* ty=Tensor[(3, 1), float32] span=from_string:8:21 */, %x1: Tensor[(3, 3), float32] /* ty=Tensor[(3, 3), float32] */, %x2: Tensor[(3, 1), float32] /* ty=Tensor[(3, 1), float32] span=from_string:10:22 */, %x3: Tensor[(50), float32] /* ty=Tensor[(50), float32] */, %x4: Tensor[(3, 55), float32] /* ty=Tensor[(3, 55), float32] */, %x5: float32 /* ty=float32 span=from_string:14:14 */) -> (Tensor[(3, 3), float32], Tensor[(3, 3), float32], Tensor[(3, 1), float32], Tensor[(2), int32], Tensor[(3, 1), bfloat16], Tensor[(50), float32], Tensor[(3, 55), float32], Tensor[(2), int32]) {
  %0 = fn (%p0: Tensor[(3, 1), float32] /* ty=Tensor[(3, 1), float32] */, Primitive=1) -> Tensor[(3, 3), float32] {
    broadcast_to(%p0, shape=[3, 3]) /* ty=Tensor[(3, 3), float32] span=from_string:15:4 */
  } /* ty=fn (Tensor[(3, 1), float32]) -> Tensor[(3, 3), float32] */;
  %1 = fn (Primitive=1) -> Tensor[(3, 3), float32] {
    ones(shape=[3, 3], dtype="float32") /* ty=Tensor[(3, 3), float32] span=from_string:15:8 */
  } /* ty=fn () -> Tensor[(3, 3), float32] */;
  %3 = fn (%p02: Tensor[(3, 1), float32] /* ty=Tensor[(3, 1), float32] */, %p11: Tensor[(3, 1), float32] /* ty=Tensor[(3, 1), float32] */, Primitive=1) -> Tensor[(3, 1), float32] {
    %2 = fast_erf(%p02) /* ty=Tensor[(3, 1), float32] span=from_string:4:17 */;
    subtract(%2, %p11) /* ty=Tensor[(3, 1), float32] span=from_string:10:18 */
  } /* ty=fn (Tensor[(3, 1), float32], Tensor[(3, 1), float32]) -> Tensor[(3, 1), float32] */;
  %4 = %3(%x0, %x2) /* ty=Tensor[(3, 1), float32] */;
  %5 = fn (%p01: Tensor[(3, 1), float32] /* ty=Tensor[(3, 1), float32] */, %p1: Tensor[(3, 1), float32] /* ty=Tensor[(3, 1), float32] */, Primitive=1) -> Tensor[(3, 1), float32] {
    multiply(%p01, %p1) /* ty=Tensor[(3, 1), float32] span=from_string:15:12 */
  } /* ty=fn (Tensor[(3, 1), float32], Tensor[(3, 1), float32]) -> Tensor[(3, 1), float32] */;
  %7 = fn (Primitive=1) -> Tensor[(1), float32] {
    ones(shape=[1], dtype="float32") /* ty=Tensor[(1), float32] span=from_string:12:21 */
  } /* ty=fn () -> Tensor[(1), float32] */;
  %8 = %7() /* ty=Tensor[(1), float32] */;
  %9 = fn (%p04: Tensor[(1), float32] /* ty=Tensor[(1), float32] */, %p12: Tensor[(3, 1), float32] /* ty=Tensor[(3, 1), float32] */, Primitive=1) -> Tensor[(3, 1), float32] {
    multiply(%p04, %p12) /* ty=Tensor[(3, 1), float32] span=from_string:13:22 */
  } /* ty=fn (Tensor[(1), float32], Tensor[(3, 1), float32]) -> Tensor[(3, 1), float32] */;
  %10 = %9(%8, %4) /* ty=Tensor[(3, 1), float32] */;
  %11 = fn (%p03: Tensor[(3, 1), float32] /* ty=Tensor[(3, 1), float32] */, Primitive=1) -> Tensor[(3, 1), bfloat16] {
    %6 = cast(%p03, dtype="bfloat16") /* ty=Tensor[(3, 1), bfloat16] span=from_string:11:13 */;
    clip(%6, a_min=-0.2f, a_max=0.4f) /* ty=Tensor[(3, 1), bfloat16] span=from_string:15:92 */
  } /* ty=fn (Tensor[(3, 1), float32]) -> Tensor[(3, 1), bfloat16] */;
  %12 = fn (%p05: Tensor[(1), float32] /* ty=Tensor[(1), float32] */, Primitive=1) -> Tensor[(50), float32] {
    broadcast_to(%p05, shape=[50]) /* ty=Tensor[(50), float32] span=from_string:15:96 */
  } /* ty=fn (Tensor[(1), float32]) -> Tensor[(50), float32] */;
  %13 = fn (%p06: Tensor[(3, 1), float32] /* ty=Tensor[(3, 1), float32] */, Primitive=1) -> Tensor[(3, 55), float32] {
    broadcast_to(%p06, shape=[3, 55]) /* ty=Tensor[(3, 55), float32] span=from_string:15:100 */
  } /* ty=fn (Tensor[(3, 1), float32]) -> Tensor[(3, 55), float32] */;
  %14 = fn (%p07: float32 /* ty=float32 */, Primitive=1) -> Tensor[(2), int32] {
    full(%p07, shape=[2], dtype="int32") /* ty=Tensor[(2), int32] span=from_string:15:105 */
  } /* ty=fn (float32) -> Tensor[(2), int32] */;
  %15 = %0(%x0) /* ty=Tensor[(3, 3), float32] */;
  %16 = %1() /* ty=Tensor[(3, 3), float32] */;
  %17 = %5(%4, %x2) /* ty=Tensor[(3, 1), float32] */;
  %18 = %11(%10) /* ty=Tensor[(3, 1), bfloat16] */;
  %19 = %12(%8) /* ty=Tensor[(50), float32] */;
  %20 = %13(%10) /* ty=Tensor[(3, 55), float32] */;
  %21 = %14(%x5) /* ty=Tensor[(2), int32] */;
  (%15, %16, %17, meta[relay.Constant][0] /* ty=Tensor[(2), int32] span=from_string:15:21 */, %18, %19, %20, %21) /* ty=(Tensor[(3, 3), float32], Tensor[(3, 3), float32], Tensor[(3, 1), float32], Tensor[(2), int32], Tensor[(3, 1), bfloat16], Tensor[(50), float32], Tensor[(3, 55), float32], Tensor[(2), int32]) span=from_string:3:3 */
}

#[metadata]
{
  "root": 1, 
  "nodes": [
    {
      "type_key": ""
    }, 
    {
      "type_key": "Map", 
      "keys": [
        "relay.Constant"
      ], 
      "data": [2]
    }, 
    {
      "type_key": "Array", 
      "data": [3]
    }, 
    {
      "type_key": "relay.Constant", 
      "attrs": {
        "_checked_type_": "8", 
        "data": "0", 
        "span": "6", 
        "virtual_device_": "4"
      }
    }, 
    {
      "type_key": "VirtualDevice", 
      "attrs": {
        "device_type_int": "-1", 
        "memory_scope": "5", 
        "target": "0", 
        "virtual_device_id": "-1"
      }
    }, 
    {
      "type_key": "runtime.String"
    }, 
    {
      "type_key": "Span", 
      "attrs": {
        "column": "21", 
        "end_column": "39", 
        "end_line": "15", 
        "line": "15", 
        "source_name": "7"
      }
    }, 
    {
      "type_key": "SourceName", 
      "repr_str": "from_string"
    }, 
    {
      "type_key": "relay.TensorType", 
      "attrs": {
        "dtype": "int32", 
        "shape": "9", 
        "span": "11"
      }
    }, 
    {
      "type_key": "Array", 
      "data": [10]
    }, 
    {
      "type_key": "IntImm", 
      "attrs": {
        "dtype": "int32", 
        "span": "0", 
        "value": "2"
      }
    }, 
    {
      "type_key": "Span", 
      "attrs": {
        "column": "503", 
        "end_column": "523", 
        "end_line": "2", 
        "line": "2", 
        "source_name": "7"
      }
    }
  ], 
  "b64ndarrays": [
    "P6G0lvBAXt0AAAAAAAAAAAEAAAAAAAAAAQAAAAAgAQACAAAAAAAAAAgAAAAAAAAAAwAAAAMAAAA="
  ], 
  "attrs": {"tvm_version": "0.13.0"}
}