#[version = "0.0.5"]
def @main(%x0: Tensor[(1, 3, 100, 100), float32] /* ty=Tensor[(1, 3, 100, 100), float32] span=from_string:11:128 */, %x1: Tensor[(3, 100, 100), float32] /* ty=Tensor[(3, 100, 100), float32] */, %x2: Tensor[(64, 3, 3, 3), float32] /* ty=Tensor[(64, 3, 3, 3), float32] span=from_string:17:126 */, %x3: Tensor[(64, 100, 100), float32] /* ty=Tensor[(64, 100, 100), float32] */) -> (Tensor[(1, 3, 100, 100), float32], Tensor[(3), int32], Tensor[(3), uint8], Tensor[(1, 64, 100, 100), float32], float32, Tensor[(64, 3, 3, 3), float32], Tensor[(1, 64, 100, 100), float16], Tensor[(1, 64, 100, 100), float32]) {
  %0 = fn (%p0: Tensor[(1, 3, 100, 100), float32] /* ty=Tensor[(1, 3, 100, 100), float32] */, Primitive=1) -> Tensor[(1, 3, 100, 100), float32] {
    add(%p0, %p0) /* ty=Tensor[(1, 3, 100, 100), float32] span=from_string:3:114 */
  } /* ty=fn (Tensor[(1, 3, 100, 100), float32]) -> Tensor[(1, 3, 100, 100), float32] */;
  let %x_0: Tensor[(1, 3, 100, 100), float32] /* ty=Tensor[(1, 3, 100, 100), float32] span=from_string:4:116 */ = %0(%x0) /* ty=Tensor[(1, 3, 100, 100), float32] */;
  %1 = fn (%p01: Tensor[(1, 3, 100, 100), float32] /* ty=Tensor[(1, 3, 100, 100), float32] */, Primitive=1, relay.reshape_only=1) -> Tensor[(3, 100, 100), float32] {
    reshape(%p01, newshape=[3, 100, 100]) /* ty=Tensor[(3, 100, 100), float32] span=from_string:4:108 */
  } /* ty=fn (Tensor[(1, 3, 100, 100), float32]) -> Tensor[(3, 100, 100), float32] */;
  let %x_1: Tensor[(3, 100, 100), float32] /* ty=Tensor[(3, 100, 100), float32] span=from_string:5:122 */ = %1(%x_0) /* ty=Tensor[(3, 100, 100), float32] */;
  %2 = fn (%p02: Tensor[(3, 100, 100), float32] /* ty=Tensor[(3, 100, 100), float32] */, Primitive=1, relay.reshape_only=1) -> Tensor[(1, 3, 100, 100), float32] {
    reshape(%p02, newshape=[1, 3, 100, 100]) /* ty=Tensor[(1, 3, 100, 100), float32] span=from_string:5:114 */
  } /* ty=fn (Tensor[(3, 100, 100), float32]) -> Tensor[(1, 3, 100, 100), float32] */;
  let %x_2: Tensor[(1, 3, 100, 100), float32] /* ty=Tensor[(1, 3, 100, 100), float32] span=from_string:6:116 */ = %2(%x_1) /* ty=Tensor[(1, 3, 100, 100), float32] */;
  %3 = fn (%p03: Tensor[(1, 3, 100, 100), float32] /* ty=Tensor[(1, 3, 100, 100), float32] */, Primitive=1, relay.reshape_only=1) -> Tensor[(3, 100, 100), float32] {
    reshape(%p03, newshape=[3, 100, 100]) /* ty=Tensor[(3, 100, 100), float32] span=from_string:6:108 */
  } /* ty=fn (Tensor[(1, 3, 100, 100), float32]) -> Tensor[(3, 100, 100), float32] */;
  let %x_3: Tensor[(3, 100, 100), float32] /* ty=Tensor[(3, 100, 100), float32] span=from_string:7:123 */ = %3(%x_2) /* ty=Tensor[(3, 100, 100), float32] */;
  %4 = fn (%p04: Tensor[(3, 100, 100), float32] /* ty=Tensor[(3, 100, 100), float32] */, Primitive=1, relay.reshape_only=1) -> Tensor[(1, 3, 100, 100), float32] {
    reshape(%p04, newshape=[1, 3, 100, 100]) /* ty=Tensor[(1, 3, 100, 100), float32] span=from_string:7:115 */
  } /* ty=fn (Tensor[(3, 100, 100), float32]) -> Tensor[(1, 3, 100, 100), float32] */;
  let %x_4: Tensor[(1, 3, 100, 100), float32] /* ty=Tensor[(1, 3, 100, 100), float32] span=from_string:25:500 */ = %4(%x_3) /* ty=Tensor[(1, 3, 100, 100), float32] */;
  %5 = fn (%p05: Tensor[(3), uint8] /* ty=Tensor[(3), uint8] */, Primitive=1) -> Tensor[(3), float32] {
    qnn.dequantize(%p05, 2f /* ty=float32 span=from_string:8:181 */, 114 /* ty=int32 span=from_string:8:226 */) /* ty=Tensor[(3), float32] span=from_string:8:89 */
  } /* ty=fn (Tensor[(3), uint8]) -> Tensor[(3), float32] */;
  let %x_9: Tensor[(3), float32] /* ty=Tensor[(3), float32] span=from_string:9:98 */ = %5(meta[relay.Constant][0] /* ty=Tensor[(3), uint8] span=from_string:8:109 */) /* ty=Tensor[(3), float32] */;
  %6 = fn (%p06: Tensor[(3), float32] /* ty=Tensor[(3), float32] */, Primitive=1) -> Tensor[(3), float32] {
    nn.relu(%p06) /* ty=Tensor[(3), float32] span=from_string:9:90 */
  } /* ty=fn (Tensor[(3), float32]) -> Tensor[(3), float32] */;
  let %x_10: Tensor[(3), float32] /* ty=Tensor[(3), float32] span=from_string:10:99 */ = %6(%x_9) /* ty=Tensor[(3), float32] */;
  %7 = fn (%p07: Tensor[(3), float32] /* ty=Tensor[(3), float32] */, Primitive=1) -> Tensor[(3), uint8] {
    qnn.quantize(%p07, 2f /* ty=float32 span=from_string:10:108 */, 114 /* ty=int32 span=from_string:10:153 */, out_dtype="uint8") /* ty=Tensor[(3), uint8] span=from_string:10:86 */
  } /* ty=fn (Tensor[(3), float32]) -> Tensor[(3), uint8] */;
  let %x_13: Tensor[(3), uint8] /* ty=Tensor[(3), uint8] span=from_string:25:581 */ = %7(%x_10) /* ty=Tensor[(3), uint8] */;
  %8 = fn (%p08: Tensor[(1, 3, 100, 100), float32] /* ty=Tensor[(1, 3, 100, 100), float32] */, %p1: Tensor[(64, 3, 3, 3), float32] /* ty=Tensor[(64, 3, 3, 3), float32] */, Primitive=1) -> Tensor[(1, 64, 100, 100), float32] {
    nn.conv2d(%p08, %p1, padding=[1, 1, 1, 1], channels=64, kernel_size=[3, 3]) /* ty=Tensor[(1, 64, 100, 100), float32] span=from_string:11:118 */
  } /* ty=fn (Tensor[(1, 3, 100, 100), float32], Tensor[(64, 3, 3, 3), float32]) -> Tensor[(1, 64, 100, 100), float32] */;
  let %x_14: Tensor[(1, 64, 100, 100), float32] /* ty=Tensor[(1, 64, 100, 100), float32] span=from_string:18:134 */ = %8(%x0, %x2) /* ty=Tensor[(1, 64, 100, 100), float32] */;
  %9 = fn (%p09: Tensor[(1, 64, 100, 100), float32] /* ty=Tensor[(1, 64, 100, 100), float32] */, Primitive=1) -> Tensor[(1, 64, 100, 100), float32] {
    nn.relu(%p09) /* ty=Tensor[(1, 64, 100, 100), float32] span=from_string:12:118 */
  } /* ty=fn (Tensor[(1, 64, 100, 100), float32]) -> Tensor[(1, 64, 100, 100), float32] */;
  let %x_15: Tensor[(1, 64, 100, 100), float32] /* ty=Tensor[(1, 64, 100, 100), float32] span=from_string:13:120 */ = %9(%x_14) /* ty=Tensor[(1, 64, 100, 100), float32] */;
  %10 = fn (%p010: Tensor[(1, 64, 100, 100), float32] /* ty=Tensor[(1, 64, 100, 100), float32] */, Primitive=1, relay.reshape_only=1) -> Tensor[(64, 100, 100), float32] {
    reshape(%p010, newshape=[64, 100, 100]) /* ty=Tensor[(64, 100, 100), float32] span=from_string:13:112 */
  } /* ty=fn (Tensor[(1, 64, 100, 100), float32]) -> Tensor[(64, 100, 100), float32] */;
  let %x_16: Tensor[(64, 100, 100), float32] /* ty=Tensor[(64, 100, 100), float32] span=from_string:14:126 */ = %10(%x_15) /* ty=Tensor[(64, 100, 100), float32] */;
  %11 = fn (%p011: Tensor[(64, 100, 100), float32] /* ty=Tensor[(64, 100, 100), float32] */, Primitive=1, relay.reshape_only=1) -> Tensor[(1, 64, 100, 100), float32] {
    reshape(%p011, newshape=[1, 64, 100, 100]) /* ty=Tensor[(1, 64, 100, 100), float32] span=from_string:14:118 */
  } /* ty=fn (Tensor[(64, 100, 100), float32]) -> Tensor[(1, 64, 100, 100), float32] */;
  let %x_17: Tensor[(1, 64, 100, 100), float32] /* ty=Tensor[(1, 64, 100, 100), float32] span=from_string:15:120 */ = %11(%x_16) /* ty=Tensor[(1, 64, 100, 100), float32] */;
  %12 = fn (%p012: Tensor[(1, 64, 100, 100), float32] /* ty=Tensor[(1, 64, 100, 100), float32] */, Primitive=1, relay.reshape_only=1) -> Tensor[(64, 100, 100), float32] {
    reshape(%p012, newshape=[64, 100, 100]) /* ty=Tensor[(64, 100, 100), float32] span=from_string:15:112 */
  } /* ty=fn (Tensor[(1, 64, 100, 100), float32]) -> Tensor[(64, 100, 100), float32] */;
  let %x_18: Tensor[(64, 100, 100), float32] /* ty=Tensor[(64, 100, 100), float32] span=from_string:16:126 */ = %12(%x_17) /* ty=Tensor[(64, 100, 100), float32] */;
  %13 = fn (%p013: Tensor[(64, 100, 100), float32] /* ty=Tensor[(64, 100, 100), float32] */, Primitive=1, relay.reshape_only=1) -> Tensor[(1, 64, 100, 100), float32] {
    reshape(%p013, newshape=[1, 64, 100, 100]) /* ty=Tensor[(1, 64, 100, 100), float32] span=from_string:16:118 */
  } /* ty=fn (Tensor[(64, 100, 100), float32]) -> Tensor[(1, 64, 100, 100), float32] */;
  let %x_19: Tensor[(1, 64, 100, 100), float32] /* ty=Tensor[(1, 64, 100, 100), float32] span=from_string:25:588 */ = %13(%x_18) /* ty=Tensor[(1, 64, 100, 100), float32] */;
  %14 = fn (%p014: Tensor[(64, 3, 3, 3), float32] /* ty=Tensor[(64, 3, 3, 3), float32] */, Primitive=1) -> Tensor[(64, 3, 3, 3), float32] {
    nn.fast_softmax(%p014) /* ty=Tensor[(64, 3, 3, 3), float32] span=from_string:17:110 */
  } /* ty=fn (Tensor[(64, 3, 3, 3), float32]) -> Tensor[(64, 3, 3, 3), float32] */;
  let %x_21: Tensor[(64, 3, 3, 3), float32] /* ty=Tensor[(64, 3, 3, 3), float32] span=from_string:25:639 */ = %14(%x2) /* ty=Tensor[(64, 3, 3, 3), float32] */;
  %15 = fn (%p015: Tensor[(1, 64, 100, 100), float32] /* ty=Tensor[(1, 64, 100, 100), float32] */, Primitive=1) -> Tensor[(1, 64, 100, 100), float32] {
    nn.fast_softmax(%p015) /* ty=Tensor[(1, 64, 100, 100), float32] span=from_string:18:118 */
  } /* ty=fn (Tensor[(1, 64, 100, 100), float32]) -> Tensor[(1, 64, 100, 100), float32] */;
  let %x_22: Tensor[(1, 64, 100, 100), float32] /* ty=Tensor[(1, 64, 100, 100), float32] span=from_string:20:135 */ = %15(%x_14) /* ty=Tensor[(1, 64, 100, 100), float32] */;
  %16 = fn (%p016: Tensor[(1, 64, 100, 100), float32] /* ty=Tensor[(1, 64, 100, 100), float32] */, Primitive=1) -> Tensor[(1, 64, 100, 100), float16] {
    cast(%p016, dtype="float16") /* ty=Tensor[(1, 64, 100, 100), float16] span=from_string:19:118 */
  } /* ty=fn (Tensor[(1, 64, 100, 100), float32]) -> Tensor[(1, 64, 100, 100), float16] */;
  let %x_23: Tensor[(1, 64, 100, 100), float16] /* ty=Tensor[(1, 64, 100, 100), float16] span=from_string:25:646 */ = %16(%x_22) /* ty=Tensor[(1, 64, 100, 100), float16] */;
  %17 = fn (%p017: Tensor[(1, 64, 100, 100), float32] /* ty=Tensor[(1, 64, 100, 100), float32] */, Primitive=1) -> Tensor[(1, 100, 64, 100), float32] {
    layout_transform(%p017, src_layout="NHWC", dst_layout="NCHW") /* ty=Tensor[(1, 100, 64, 100), float32] span=from_string:20:118 */
  } /* ty=fn (Tensor[(1, 64, 100, 100), float32]) -> Tensor[(1, 100, 64, 100), float32] */;
  let %x_24: Tensor[(1, 100, 64, 100), float32] /* ty=Tensor[(1, 100, 64, 100), float32] span=from_string:21:139 */ = %17(%x_22) /* ty=Tensor[(1, 100, 64, 100), float32] */;
  %18 = fn (%p018: Tensor[(1, 100, 64, 100), float32] /* ty=Tensor[(1, 100, 64, 100), float32] */, Primitive=1) -> Tensor[(1, 25, 64, 100, 4), float32] {
    layout_transform(%p018, src_layout="NCHW", dst_layout="NCHW4c") /* ty=Tensor[(1, 25, 64, 100, 4), float32] span=from_string:21:122 */
  } /* ty=fn (Tensor[(1, 100, 64, 100), float32]) -> Tensor[(1, 25, 64, 100, 4), float32] */;
  let %x_25: Tensor[(1, 25, 64, 100, 4), float32] /* ty=Tensor[(1, 25, 64, 100, 4), float32] span=from_string:22:130 */ = %18(%x_24) /* ty=Tensor[(1, 25, 64, 100, 4), float32] */;
  %19 = fn (%p019: Tensor[(1, 25, 64, 100, 4), float32] /* ty=Tensor[(1, 25, 64, 100, 4), float32] */, Primitive=1) -> Tensor[(1, 25, 64, 100, 4), float32] {
    nn.relu(%p019) /* ty=Tensor[(1, 25, 64, 100, 4), float32] span=from_string:22:122 */
  } /* ty=fn (Tensor[(1, 25, 64, 100, 4), float32]) -> Tensor[(1, 25, 64, 100, 4), float32] */;
  let %x_26: Tensor[(1, 25, 64, 100, 4), float32] /* ty=Tensor[(1, 25, 64, 100, 4), float32] span=from_string:23:135 */ = %19(%x_25) /* ty=Tensor[(1, 25, 64, 100, 4), float32] */;
  %20 = fn (%p020: Tensor[(1, 25, 64, 100, 4), float32] /* ty=Tensor[(1, 25, 64, 100, 4), float32] */, Primitive=1) -> Tensor[(1, 100, 64, 100), float32] {
    layout_transform(%p020, src_layout="NCHW4c", dst_layout="NCHW") /* ty=Tensor[(1, 100, 64, 100), float32] span=from_string:23:118 */
  } /* ty=fn (Tensor[(1, 25, 64, 100, 4), float32]) -> Tensor[(1, 100, 64, 100), float32] */;
  let %x_27: Tensor[(1, 100, 64, 100), float32] /* ty=Tensor[(1, 100, 64, 100), float32] span=from_string:24:135 */ = %20(%x_26) /* ty=Tensor[(1, 100, 64, 100), float32] */;
  %21 = fn (%p021: Tensor[(1, 100, 64, 100), float32] /* ty=Tensor[(1, 100, 64, 100), float32] */, Primitive=1) -> Tensor[(1, 64, 100, 100), float32] {
    layout_transform(%p021, src_layout="NCHW", dst_layout="NHWC") /* ty=Tensor[(1, 64, 100, 100), float32] span=from_string:24:118 */
  } /* ty=fn (Tensor[(1, 100, 64, 100), float32]) -> Tensor[(1, 64, 100, 100), float32] */;
  let %x_28: Tensor[(1, 64, 100, 100), float32] /* ty=Tensor[(1, 64, 100, 100), float32] span=from_string:25:653 */ = %21(%x_27) /* ty=Tensor[(1, 64, 100, 100), float32] */;
  let %x_29: (Tensor[(1, 3, 100, 100), float32], Tensor[(3), int32], Tensor[(3), uint8], Tensor[(1, 64, 100, 100), float32], float32, Tensor[(64, 3, 3, 3), float32], Tensor[(1, 64, 100, 100), float16], Tensor[(1, 64, 100, 100), float32]) /* ty=(Tensor[(1, 3, 100, 100), float32], Tensor[(3), int32], Tensor[(3), uint8], Tensor[(1, 64, 100, 100), float32], float32, Tensor[(64, 3, 3, 3), float32], Tensor[(1, 64, 100, 100), float16], Tensor[(1, 64, 100, 100), float32]) span=from_string:26:3 */ = (%x_4, meta[relay.Constant][1] /* ty=Tensor[(3), int32] span=from_string:25:511 */, %x_13, %x_19, 6f /* ty=float32 span=from_string:25:597 */, %x_21, %x_23, %x_28) /* ty=(Tensor[(1, 3, 100, 100), float32], Tensor[(3), int32], Tensor[(3), uint8], Tensor[(1, 64, 100, 100), float32], float32, Tensor[(64, 3, 3, 3), float32], Tensor[(1, 64, 100, 100), float16], Tensor[(1, 64, 100, 100), float32]) span=from_string:25:499 */;
  %x_29
}

#[metadata]
{
  "root": 1, 
  "nodes": [
    {
      "type_key": ""
    }, 
    {
      "type_key": "Map", 
      "keys": [
        "relay.Constant"
      ], 
      "data": [2]
    }, 
    {
      "type_key": "Array", 
      "data": [3, 11]
    }, 
    {
      "type_key": "relay.Constant", 
      "attrs": {
        "_checked_type_": "8", 
        "data": "0", 
        "span": "6", 
        "virtual_device_": "4"
      }
    }, 
    {
      "type_key": "VirtualDevice", 
      "attrs": {
        "device_type_int": "-1", 
        "memory_scope": "5", 
        "target": "0", 
        "virtual_device_id": "-1"
      }
    }, 
    {
      "type_key": "runtime.String"
    }, 
    {
      "type_key": "Span", 
      "attrs": {
        "column": "109", 
        "end_column": "127", 
        "end_line": "8", 
        "line": "8", 
        "source_name": "7"
      }
    }, 
    {
      "type_key": "SourceName", 
      "repr_str": "from_string"
    }, 
    {
      "type_key": "relay.TensorType", 
      "attrs": {
        "dtype": "uint8", 
        "shape": "9", 
        "span": "0"
      }
    }, 
    {
      "type_key": "Array", 
      "data": [10]
    }, 
    {
      "type_key": "IntImm", 
      "attrs": {
        "dtype": "int32", 
        "span": "0", 
        "value": "3"
      }
    }, 
    {
      "type_key": "relay.Constant", 
      "attrs": {
        "_checked_type_": "13", 
        "data": "1", 
        "span": "12", 
        "virtual_device_": "4"
      }
    }, 
    {
      "type_key": "Span", 
      "attrs": {
        "column": "511", 
        "end_column": "529", 
        "end_line": "25", 
        "line": "25", 
        "source_name": "7"
      }
    }, 
    {
      "type_key": "relay.TensorType", 
      "attrs": {
        "dtype": "int32", 
        "shape": "14", 
        "span": "16"
      }
    }, 
    {
      "type_key": "Array", 
      "data": [15]
    }, 
    {
      "type_key": "IntImm", 
      "attrs": {
        "dtype": "int32", 
        "span": "0", 
        "value": "3"
      }
    }, 
    {
      "type_key": "Span", 
      "attrs": {
        "column": "413", 
        "end_column": "433", 
        "end_line": "2", 
        "line": "2", 
        "source_name": "7"
      }
    }
  ], 
  "b64ndarrays": [
    "P6G0lvBAXt0AAAAAAAAAAAEAAAAAAAAAAQAAAAEIAQADAAAAAAAAAAMAAAAAAAAAA2Rk", 
    "P6G0lvBAXt0AAAAAAAAAAAEAAAAAAAAAAQAAAAAgAQADAAAAAAAAAAwAAAAAAAAAAwAAAGQAAABkAAAA"
  ], 
  "attrs": {"tvm_version": "0.13.0"}
}