#[version = "0.0.5"]
def @main(%x0: Tensor[(1, 3, 100, 100), float32] /* ty=Tensor[(1, 3, 100, 100), float32] span=from_string:17:25 */, %x1: Tensor[(3, 100, 100), float32] /* ty=Tensor[(3, 100, 100), float32] */, %x2: Tensor[(64, 3, 3, 3), float32] /* ty=Tensor[(64, 3, 3, 3), float32] span=from_string:24:26 */, %x3: Tensor[(64, 100, 100), float32] /* ty=Tensor[(64, 100, 100), float32] */) -> (Tensor[(1, 3, 100, 100), float32], Tensor[(3), int32], Tensor[(3), uint8], Tensor[(1, 64, 100, 100), float32], float32, Tensor[(64, 3, 3, 3), float32], Tensor[(1, 64, 100, 100), float16], Tensor[(1, 64, 100, 100), float32]) {
  let %x_0: Tensor[(1, 3, 100, 100), float32] /* ty=Tensor[(1, 3, 100, 100), float32] span=from_string:4:22 */ = add(%x0, %x0) /* ty=Tensor[(1, 3, 100, 100), float32] span=from_string:3:14 */;
  let %x_1: Tensor[(3, 100, 100), float32] /* ty=Tensor[(3, 100, 100), float32] span=from_string:5:22 */ = reshape(%x_0, newshape=[3, 100, 100]) /* ty=Tensor[(3, 100, 100), float32] span=from_string:4:14 */;
  let %x_2: Tensor[(1, 3, 100, 100), float32] /* ty=Tensor[(1, 3, 100, 100), float32] span=from_string:6:22 */ = reshape(%x_1, newshape=[1, 3, 100, 100]) /* ty=Tensor[(1, 3, 100, 100), float32] span=from_string:5:14 */;
  let %x_3: Tensor[(3, 100, 100), float32] /* ty=Tensor[(3, 100, 100), float32] span=from_string:7:22 */ = reshape(%x_2, newshape=[3, 100, 100]) /* ty=Tensor[(3, 100, 100), float32] span=from_string:6:14 */;
  let %x_4: Tensor[(1, 3, 100, 100), float32] /* ty=Tensor[(1, 3, 100, 100), float32] span=from_string:32:16 */ = reshape(%x_3, newshape=[1, 3, 100, 100]) /* ty=Tensor[(1, 3, 100, 100), float32] span=from_string:7:14 */;
  let %x_5: Tensor[(3), int32] /* ty=Tensor[(3), int32] span=from_string:32:22 */ = meta[relay.Constant][0] /* ty=Tensor[(3), int32] span=from_string:8:19 */;
  let %x_6: Tensor[(3), uint8] /* ty=Tensor[(3), uint8] span=from_string:12:29 */ = meta[relay.Constant][1] /* ty=Tensor[(3), uint8] span=from_string:9:19 */;
  let %x_7: float32 /* ty=float32 span=from_string:12:35 */ = 2f /* ty=float32 span=from_string:10:16 */;
  let %x_8: int32 /* ty=int32 span=from_string:12:41 */ = 114 /* ty=int32 span=from_string:11:17 */;
  let %x_9: Tensor[(3), float32] /* ty=Tensor[(3), float32] span=from_string:13:23 */ = qnn.dequantize(%x_6, %x_7, %x_8) /* ty=Tensor[(3), float32] span=from_string:12:14 */;
  let %x_10: Tensor[(3), float32] /* ty=Tensor[(3), float32] span=from_string:16:28 */ = nn.relu(%x_9) /* ty=Tensor[(3), float32] span=from_string:13:15 */;
  let %x_11: float32 /* ty=float32 span=from_string:16:35 */ = 2f /* ty=float32 span=from_string:14:17 */;
  let %x_12: int32 /* ty=int32 span=from_string:16:42 */ = 114 /* ty=int32 span=from_string:15:18 */;
  let %x_13: Tensor[(3), uint8] /* ty=Tensor[(3), uint8] span=from_string:32:28 */ = qnn.quantize(%x_10, %x_11, %x_12, out_dtype="uint8") /* ty=Tensor[(3), uint8] span=from_string:16:15 */;
  let %x_14: Tensor[(1, 64, 100, 100), float32] /* ty=Tensor[(1, 64, 100, 100), float32] span=from_string:25:26 */ = nn.conv2d(%x0, %x2, padding=[1, 1, 1, 1], channels=64, kernel_size=[3, 3]) /* ty=Tensor[(1, 64, 100, 100), float32] span=from_string:17:15 */;
  let %x_15: Tensor[(1, 64, 100, 100), float32] /* ty=Tensor[(1, 64, 100, 100), float32] span=from_string:19:23 */ = nn.relu(%x_14) /* ty=Tensor[(1, 64, 100, 100), float32] span=from_string:18:15 */;
  let %x_16: Tensor[(64, 100, 100), float32] /* ty=Tensor[(64, 100, 100), float32] span=from_string:20:23 */ = reshape(%x_15, newshape=[64, 100, 100]) /* ty=Tensor[(64, 100, 100), float32] span=from_string:19:15 */;
  let %x_17: Tensor[(1, 64, 100, 100), float32] /* ty=Tensor[(1, 64, 100, 100), float32] span=from_string:21:23 */ = reshape(%x_16, newshape=[1, 64, 100, 100]) /* ty=Tensor[(1, 64, 100, 100), float32] span=from_string:20:15 */;
  let %x_18: Tensor[(64, 100, 100), float32] /* ty=Tensor[(64, 100, 100), float32] span=from_string:22:23 */ = reshape(%x_17, newshape=[64, 100, 100]) /* ty=Tensor[(64, 100, 100), float32] span=from_string:21:15 */;
  let %x_19: Tensor[(1, 64, 100, 100), float32] /* ty=Tensor[(1, 64, 100, 100), float32] span=from_string:32:35 */ = reshape(%x_18, newshape=[1, 64, 100, 100]) /* ty=Tensor[(1, 64, 100, 100), float32] span=from_string:22:15 */;
  let %x_20: float32 /* ty=float32 span=from_string:32:42 */ = 6f /* ty=float32 span=from_string:23:17 */;
  let %x_21: Tensor[(64, 3, 3, 3), float32] /* ty=Tensor[(64, 3, 3, 3), float32] span=from_string:32:49 */ = nn.softmax(%x2) /* ty=Tensor[(64, 3, 3, 3), float32] span=from_string:24:15 */;
  let %x_22: Tensor[(1, 64, 100, 100), float32] /* ty=Tensor[(1, 64, 100, 100), float32] span=from_string:27:32 */ = nn.softmax(%x_14) /* ty=Tensor[(1, 64, 100, 100), float32] span=from_string:25:15 */;
  let %x_23: Tensor[(1, 64, 100, 100), float16] /* ty=Tensor[(1, 64, 100, 100), float16] span=from_string:32:56 */ = cast(%x_22, dtype="float16") /* ty=Tensor[(1, 64, 100, 100), float16] span=from_string:26:15 */;
  let %x_24: Tensor[(1, 100, 64, 100), float32] /* ty=Tensor[(1, 100, 64, 100), float32] span=from_string:28:32 */ = layout_transform(%x_22, src_layout="NHWC", dst_layout="NCHW") /* ty=Tensor[(1, 100, 64, 100), float32] span=from_string:27:15 */;
  let %x_25: Tensor[(1, 25, 64, 100, 4), float32] /* ty=Tensor[(1, 25, 64, 100, 4), float32] span=from_string:29:23 */ = layout_transform(%x_24, src_layout="NCHW", dst_layout="NCHW4c") /* ty=Tensor[(1, 25, 64, 100, 4), float32] span=from_string:28:15 */;
  let %x_26: Tensor[(1, 25, 64, 100, 4), float32] /* ty=Tensor[(1, 25, 64, 100, 4), float32] span=from_string:30:32 */ = nn.relu(%x_25) /* ty=Tensor[(1, 25, 64, 100, 4), float32] span=from_string:29:15 */;
  let %x_27: Tensor[(1, 100, 64, 100), float32] /* ty=Tensor[(1, 100, 64, 100), float32] span=from_string:31:32 */ = layout_transform(%x_26, src_layout="NCHW4c", dst_layout="NCHW") /* ty=Tensor[(1, 100, 64, 100), float32] span=from_string:30:15 */;
  let %x_28: Tensor[(1, 64, 100, 100), float32] /* ty=Tensor[(1, 64, 100, 100), float32] span=from_string:32:63 */ = layout_transform(%x_27, src_layout="NCHW", dst_layout="NHWC") /* ty=Tensor[(1, 64, 100, 100), float32] span=from_string:31:15 */;
  let %x_29: (Tensor[(1, 3, 100, 100), float32], Tensor[(3), int32], Tensor[(3), uint8], Tensor[(1, 64, 100, 100), float32], float32, Tensor[(64, 3, 3, 3), float32], Tensor[(1, 64, 100, 100), float16], Tensor[(1, 64, 100, 100), float32]) /* ty=(Tensor[(1, 3, 100, 100), float32], Tensor[(3), int32], Tensor[(3), uint8], Tensor[(1, 64, 100, 100), float32], float32, Tensor[(64, 3, 3, 3), float32], Tensor[(1, 64, 100, 100), float16], Tensor[(1, 64, 100, 100), float32]) span=from_string:33:3 */ = (%x_4, %x_5, %x_13, %x_19, %x_20, %x_21, %x_23, %x_28) /* ty=(Tensor[(1, 3, 100, 100), float32], Tensor[(3), int32], Tensor[(3), uint8], Tensor[(1, 64, 100, 100), float32], float32, Tensor[(64, 3, 3, 3), float32], Tensor[(1, 64, 100, 100), float16], Tensor[(1, 64, 100, 100), float32]) span=from_string:32:15 */;
  %x_29
}

#[metadata]
{
  "root": 1, 
  "nodes": [
    {
      "type_key": ""
    }, 
    {
      "type_key": "Map", 
      "keys": [
        "relay.Constant"
      ], 
      "data": [2]
    }, 
    {
      "type_key": "Array", 
      "data": [3, 11]
    }, 
    {
      "type_key": "relay.Constant", 
      "attrs": {
        "_checked_type_": "8", 
        "data": "0", 
        "span": "6", 
        "virtual_device_": "4"
      }
    }, 
    {
      "type_key": "VirtualDevice", 
      "attrs": {
        "device_type_int": "-1", 
        "memory_scope": "5", 
        "target": "0", 
        "virtual_device_id": "-1"
      }
    }, 
    {
      "type_key": "runtime.String"
    }, 
    {
      "type_key": "Span", 
      "attrs": {
        "column": "19", 
        "end_column": "37", 
        "end_line": "8", 
        "line": "8", 
        "source_name": "7"
      }
    }, 
    {
      "type_key": "SourceName", 
      "repr_str": "from_string"
    }, 
    {
      "type_key": "relay.TensorType", 
      "attrs": {
        "dtype": "int32", 
        "shape": "9", 
        "span": "0"
      }
    }, 
    {
      "type_key": "Array", 
      "data": [10]
    }, 
    {
      "type_key": "IntImm", 
      "attrs": {
        "dtype": "int32", 
        "span": "0", 
        "value": "3"
      }
    }, 
    {
      "type_key": "relay.Constant", 
      "attrs": {
        "_checked_type_": "13", 
        "data": "1", 
        "span": "12", 
        "virtual_device_": "4"
      }
    }, 
    {
      "type_key": "Span", 
      "attrs": {
        "column": "19", 
        "end_column": "37", 
        "end_line": "9", 
        "line": "9", 
        "source_name": "7"
      }
    }, 
    {
      "type_key": "relay.TensorType", 
      "attrs": {
        "dtype": "uint8", 
        "shape": "14", 
        "span": "0"
      }
    }, 
    {
      "type_key": "Array", 
      "data": [15]
    }, 
    {
      "type_key": "IntImm", 
      "attrs": {
        "dtype": "int32", 
        "span": "0", 
        "value": "3"
      }
    }
  ], 
  "b64ndarrays": [
    "P6G0lvBAXt0AAAAAAAAAAAEAAAAAAAAAAQAAAAAgAQADAAAAAAAAAAwAAAAAAAAAAwAAAGQAAABkAAAA", 
    "P6G0lvBAXt0AAAAAAAAAAAEAAAAAAAAAAQAAAAEIAQADAAAAAAAAAAMAAAAAAAAAA2Rk"
  ], 
  "attrs": {"tvm_version": "0.13.0"}
}