#[version = "0.0.5"]
def @main(%x0: Tensor[(1, 3, 100, 100), float32] /* ty=Tensor[(1, 3, 100, 100), float32] span=from_string:38:122 */, %x1: Tensor[(3, 100, 100), float32] /* ty=Tensor[(3, 100, 100), float32] */, %x2: Tensor[(64, 3, 3, 3), float32] /* ty=Tensor[(64, 3, 3, 3), float32] span=from_string:62:115 */, %x3: Tensor[(64, 100, 100), float32] /* ty=Tensor[(64, 100, 100), float32] */) -> (Tensor[(1, 3, 100, 100), float32], Tensor[(3), int32], Tensor[(3), uint8], Tensor[(1, 64, 100, 100), float32], float32, Tensor[(64, 3, 3, 3), float32], Tensor[(1, 64, 100, 100), float16], Tensor[(1, 64, 100, 100), float32]) {
  %0 = fn (%p0: Tensor[(1, 3, 100, 100), float32] /* ty=Tensor[(1, 3, 100, 100), float32] span=from_string:4:14 */, Primitive=1) -> Tensor[(1, 3, 100, 100), float32] {
    add(%p0, %p0) /* ty=Tensor[(1, 3, 100, 100), float32] span=from_string:4:5 */
  } /* ty=fn (Tensor[(1, 3, 100, 100), float32]) -> Tensor[(1, 3, 100, 100), float32] span=from_string:6:115 */;
  let %x_0: Tensor[(1, 3, 100, 100), float32] /* ty=Tensor[(1, 3, 100, 100), float32] span=from_string:10:112 */ = %0(%x0) /* ty=Tensor[(1, 3, 100, 100), float32] span=from_string:6:115 */;
  %1 = fn (%p01: Tensor[(1, 3, 100, 100), float32] /* ty=Tensor[(1, 3, 100, 100), float32] span=from_string:8:13 */, Primitive=1, relay.reshape_only=1) -> Tensor[(3, 100, 100), float32] {
    reshape(%p01, newshape=[3, 100, 100]) /* ty=Tensor[(3, 100, 100), float32] span=from_string:8:5 */
  } /* ty=fn (Tensor[(1, 3, 100, 100), float32]) -> Tensor[(3, 100, 100), float32] span=from_string:10:109 */;
  let %x_1: Tensor[(3, 100, 100), float32] /* ty=Tensor[(3, 100, 100), float32] span=from_string:14:118 */ = %1(%x_0) /* ty=Tensor[(3, 100, 100), float32] span=from_string:10:109 */;
  %2 = fn (%p02: Tensor[(3, 100, 100), float32] /* ty=Tensor[(3, 100, 100), float32] span=from_string:12:13 */, Primitive=1, relay.reshape_only=1) -> Tensor[(1, 3, 100, 100), float32] {
    reshape(%p02, newshape=[1, 3, 100, 100]) /* ty=Tensor[(1, 3, 100, 100), float32] span=from_string:12:5 */
  } /* ty=fn (Tensor[(3, 100, 100), float32]) -> Tensor[(1, 3, 100, 100), float32] span=from_string:14:115 */;
  let %x_2: Tensor[(1, 3, 100, 100), float32] /* ty=Tensor[(1, 3, 100, 100), float32] span=from_string:18:112 */ = %2(%x_1) /* ty=Tensor[(1, 3, 100, 100), float32] span=from_string:14:115 */;
  %3 = fn (%p03: Tensor[(1, 3, 100, 100), float32] /* ty=Tensor[(1, 3, 100, 100), float32] span=from_string:16:13 */, Primitive=1, relay.reshape_only=1) -> Tensor[(3, 100, 100), float32] {
    reshape(%p03, newshape=[3, 100, 100]) /* ty=Tensor[(3, 100, 100), float32] span=from_string:16:5 */
  } /* ty=fn (Tensor[(1, 3, 100, 100), float32]) -> Tensor[(3, 100, 100), float32] span=from_string:18:109 */;
  let %x_3: Tensor[(3, 100, 100), float32] /* ty=Tensor[(3, 100, 100), float32] span=from_string:22:119 */ = %3(%x_2) /* ty=Tensor[(3, 100, 100), float32] span=from_string:18:109 */;
  %4 = fn (%p04: Tensor[(3, 100, 100), float32] /* ty=Tensor[(3, 100, 100), float32] span=from_string:20:13 */, Primitive=1, relay.reshape_only=1) -> Tensor[(1, 3, 100, 100), float32] {
    reshape(%p04, newshape=[1, 3, 100, 100]) /* ty=Tensor[(1, 3, 100, 100), float32] span=from_string:20:5 */
  } /* ty=fn (Tensor[(3, 100, 100), float32]) -> Tensor[(1, 3, 100, 100), float32] span=from_string:22:116 */;
  let %x_4: Tensor[(1, 3, 100, 100), float32] /* ty=Tensor[(1, 3, 100, 100), float32] span=from_string:91:500 */ = %4(%x_3) /* ty=Tensor[(1, 3, 100, 100), float32] span=from_string:22:116 */;
  %5 = fn (%p05: Tensor[(3), uint8] /* ty=Tensor[(3), uint8] span=from_string:24:20 */, Primitive=1) -> Tensor[(3), float32] {
    qnn.dequantize(%p05, 2f /* ty=float32 span=from_string:24:28 */, 114 /* ty=int32 span=from_string:24:73 */) /* ty=Tensor[(3), float32] span=from_string:24:5 */
  } /* ty=fn (Tensor[(3), uint8]) -> Tensor[(3), float32] span=from_string:26:88 */;
  let %x_9: Tensor[(3), float32] /* ty=Tensor[(3), float32] span=from_string:30:94 */ = %5(meta[relay.Constant][0] /* ty=Tensor[(3), uint8] span=from_string:26:96 */) /* ty=Tensor[(3), float32] span=from_string:26:88 */;
  %6 = fn (%p06: Tensor[(3), float32] /* ty=Tensor[(3), float32] span=from_string:28:13 */, Primitive=1) -> Tensor[(3), float32] {
    nn.relu(%p06) /* ty=Tensor[(3), float32] span=from_string:28:5 */
  } /* ty=fn (Tensor[(3), float32]) -> Tensor[(3), float32] span=from_string:30:91 */;
  let %x_10: Tensor[(3), float32] /* ty=Tensor[(3), float32] span=from_string:34:90 */ = %6(%x_9) /* ty=Tensor[(3), float32] span=from_string:30:91 */;
  %7 = fn (%p07: Tensor[(3), float32] /* ty=Tensor[(3), float32] span=from_string:32:18 */, Primitive=1) -> Tensor[(3), uint8] {
    qnn.quantize(%p07, 2f /* ty=float32 span=from_string:32:26 */, 114 /* ty=int32 span=from_string:32:72 */, out_dtype="uint8") /* ty=Tensor[(3), uint8] span=from_string:32:5 */
  } /* ty=fn (Tensor[(3), float32]) -> Tensor[(3), uint8] span=from_string:34:87 */;
  let %x_13: Tensor[(3), uint8] /* ty=Tensor[(3), uint8] span=from_string:91:583 */ = %7(%x_10) /* ty=Tensor[(3), uint8] span=from_string:34:87 */;
  %8 = fn (%p08: Tensor[(1, 3, 100, 100), float32] /* ty=Tensor[(1, 3, 100, 100), float32] span=from_string:36:15 */, %p1: Tensor[(64, 3, 3, 3), float32] /* ty=Tensor[(64, 3, 3, 3), float32] span=from_string:36:21 */, Primitive=1) -> Tensor[(1, 64, 100, 100), float32] {
    nn.conv2d(%p08, %p1, padding=[1, 1, 1, 1], channels=64, kernel_size=[3, 3]) /* ty=Tensor[(1, 64, 100, 100), float32] span=from_string:36:5 */
  } /* ty=fn (Tensor[(1, 3, 100, 100), float32], Tensor[(64, 3, 3, 3), float32]) -> Tensor[(1, 64, 100, 100), float32] span=from_string:38:119 */;
  let %x_14: Tensor[(1, 64, 100, 100), float32] /* ty=Tensor[(1, 64, 100, 100), float32] span=from_string:66:123 */ = %8(%x0, %x2) /* ty=Tensor[(1, 64, 100, 100), float32] span=from_string:38:119 */;
  %9 = fn (%p09: Tensor[(1, 64, 100, 100), float32] /* ty=Tensor[(1, 64, 100, 100), float32] span=from_string:40:13 */, Primitive=1) -> Tensor[(1, 64, 100, 100), float32] {
    nn.relu(%p09) /* ty=Tensor[(1, 64, 100, 100), float32] span=from_string:40:5 */
  } /* ty=fn (Tensor[(1, 64, 100, 100), float32]) -> Tensor[(1, 64, 100, 100), float32] span=from_string:42:119 */;
  let %x_15: Tensor[(1, 64, 100, 100), float32] /* ty=Tensor[(1, 64, 100, 100), float32] span=from_string:46:117 */ = %9(%x_14) /* ty=Tensor[(1, 64, 100, 100), float32] span=from_string:42:119 */;
  %10 = fn (%p010: Tensor[(1, 64, 100, 100), float32] /* ty=Tensor[(1, 64, 100, 100), float32] span=from_string:44:13 */, Primitive=1, relay.reshape_only=1) -> Tensor[(64, 100, 100), float32] {
    reshape(%p010, newshape=[64, 100, 100]) /* ty=Tensor[(64, 100, 100), float32] span=from_string:44:5 */
  } /* ty=fn (Tensor[(1, 64, 100, 100), float32]) -> Tensor[(64, 100, 100), float32] span=from_string:46:113 */;
  let %x_16: Tensor[(64, 100, 100), float32] /* ty=Tensor[(64, 100, 100), float32] span=from_string:50:123 */ = %10(%x_15) /* ty=Tensor[(64, 100, 100), float32] span=from_string:46:113 */;
  %11 = fn (%p011: Tensor[(64, 100, 100), float32] /* ty=Tensor[(64, 100, 100), float32] span=from_string:48:13 */, Primitive=1, relay.reshape_only=1) -> Tensor[(1, 64, 100, 100), float32] {
    reshape(%p011, newshape=[1, 64, 100, 100]) /* ty=Tensor[(1, 64, 100, 100), float32] span=from_string:48:5 */
  } /* ty=fn (Tensor[(64, 100, 100), float32]) -> Tensor[(1, 64, 100, 100), float32] span=from_string:50:119 */;
  let %x_17: Tensor[(1, 64, 100, 100), float32] /* ty=Tensor[(1, 64, 100, 100), float32] span=from_string:54:117 */ = %11(%x_16) /* ty=Tensor[(1, 64, 100, 100), float32] span=from_string:50:119 */;
  %12 = fn (%p012: Tensor[(1, 64, 100, 100), float32] /* ty=Tensor[(1, 64, 100, 100), float32] span=from_string:52:13 */, Primitive=1, relay.reshape_only=1) -> Tensor[(64, 100, 100), float32] {
    reshape(%p012, newshape=[64, 100, 100]) /* ty=Tensor[(64, 100, 100), float32] span=from_string:52:5 */
  } /* ty=fn (Tensor[(1, 64, 100, 100), float32]) -> Tensor[(64, 100, 100), float32] span=from_string:54:113 */;
  let %x_18: Tensor[(64, 100, 100), float32] /* ty=Tensor[(64, 100, 100), float32] span=from_string:58:123 */ = %12(%x_17) /* ty=Tensor[(64, 100, 100), float32] span=from_string:54:113 */;
  %13 = fn (%p013: Tensor[(64, 100, 100), float32] /* ty=Tensor[(64, 100, 100), float32] span=from_string:56:13 */, Primitive=1, relay.reshape_only=1) -> Tensor[(1, 64, 100, 100), float32] {
    reshape(%p013, newshape=[1, 64, 100, 100]) /* ty=Tensor[(1, 64, 100, 100), float32] span=from_string:56:5 */
  } /* ty=fn (Tensor[(64, 100, 100), float32]) -> Tensor[(1, 64, 100, 100), float32] span=from_string:58:119 */;
  let %x_19: Tensor[(1, 64, 100, 100), float32] /* ty=Tensor[(1, 64, 100, 100), float32] span=from_string:91:590 */ = %13(%x_18) /* ty=Tensor[(1, 64, 100, 100), float32] span=from_string:58:119 */;
  %14 = fn (%p014: Tensor[(64, 3, 3, 3), float32] /* ty=Tensor[(64, 3, 3, 3), float32] span=from_string:60:16 */, Primitive=1) -> Tensor[(64, 3, 3, 3), float32] {
    nn.softmax(%p014) /* ty=Tensor[(64, 3, 3, 3), float32] span=from_string:60:5 */
  } /* ty=fn (Tensor[(64, 3, 3, 3), float32]) -> Tensor[(64, 3, 3, 3), float32] span=from_string:62:111 */;
  let %x_21: Tensor[(64, 3, 3, 3), float32] /* ty=Tensor[(64, 3, 3, 3), float32] span=from_string:91:642 */ = %14(%x2) /* ty=Tensor[(64, 3, 3, 3), float32] span=from_string:62:111 */;
  %15 = fn (%p015: Tensor[(1, 64, 100, 100), float32] /* ty=Tensor[(1, 64, 100, 100), float32] span=from_string:64:16 */, Primitive=1) -> Tensor[(1, 64, 100, 100), float32] {
    nn.softmax(%p015) /* ty=Tensor[(1, 64, 100, 100), float32] span=from_string:64:5 */
  } /* ty=fn (Tensor[(1, 64, 100, 100), float32]) -> Tensor[(1, 64, 100, 100), float32] span=from_string:66:119 */;
  let %x_22: Tensor[(1, 64, 100, 100), float32] /* ty=Tensor[(1, 64, 100, 100), float32] span=from_string:74:123 */ = %15(%x_14) /* ty=Tensor[(1, 64, 100, 100), float32] span=from_string:66:119 */;
  %16 = fn (%p016: Tensor[(1, 64, 100, 100), float32] /* ty=Tensor[(1, 64, 100, 100), float32] span=from_string:68:10 */, Primitive=1) -> Tensor[(1, 64, 100, 100), float16] {
    cast(%p016, dtype="float16") /* ty=Tensor[(1, 64, 100, 100), float16] span=from_string:68:5 */
  } /* ty=fn (Tensor[(1, 64, 100, 100), float32]) -> Tensor[(1, 64, 100, 100), float16] span=from_string:70:119 */;
  let %x_23: Tensor[(1, 64, 100, 100), float16] /* ty=Tensor[(1, 64, 100, 100), float16] span=from_string:91:649 */ = %16(%x_22) /* ty=Tensor[(1, 64, 100, 100), float16] span=from_string:70:119 */;
  %17 = fn (%p017: Tensor[(1, 64, 100, 100), float32] /* ty=Tensor[(1, 64, 100, 100), float32] span=from_string:72:22 */, Primitive=1) -> Tensor[(1, 100, 64, 100), float32] {
    layout_transform(%p017, src_layout="NHWC", dst_layout="NCHW") /* ty=Tensor[(1, 100, 64, 100), float32] span=from_string:72:5 */
  } /* ty=fn (Tensor[(1, 64, 100, 100), float32]) -> Tensor[(1, 100, 64, 100), float32] span=from_string:74:119 */;
  let %x_24: Tensor[(1, 100, 64, 100), float32] /* ty=Tensor[(1, 100, 64, 100), float32] span=from_string:78:127 */ = %17(%x_22) /* ty=Tensor[(1, 100, 64, 100), float32] span=from_string:74:119 */;
  %18 = fn (%p018: Tensor[(1, 100, 64, 100), float32] /* ty=Tensor[(1, 100, 64, 100), float32] span=from_string:76:22 */, Primitive=1) -> Tensor[(1, 25, 64, 100, 4), float32] {
    layout_transform(%p018, src_layout="NCHW", dst_layout="NCHW4c") /* ty=Tensor[(1, 25, 64, 100, 4), float32] span=from_string:76:5 */
  } /* ty=fn (Tensor[(1, 100, 64, 100), float32]) -> Tensor[(1, 25, 64, 100, 4), float32] span=from_string:78:123 */;
  let %x_25: Tensor[(1, 25, 64, 100, 4), float32] /* ty=Tensor[(1, 25, 64, 100, 4), float32] span=from_string:82:127 */ = %18(%x_24) /* ty=Tensor[(1, 25, 64, 100, 4), float32] span=from_string:78:123 */;
  %19 = fn (%p019: Tensor[(1, 25, 64, 100, 4), float32] /* ty=Tensor[(1, 25, 64, 100, 4), float32] span=from_string:80:13 */, Primitive=1) -> Tensor[(1, 25, 64, 100, 4), float32] {
    nn.relu(%p019) /* ty=Tensor[(1, 25, 64, 100, 4), float32] span=from_string:80:5 */
  } /* ty=fn (Tensor[(1, 25, 64, 100, 4), float32]) -> Tensor[(1, 25, 64, 100, 4), float32] span=from_string:82:123 */;
  let %x_26: Tensor[(1, 25, 64, 100, 4), float32] /* ty=Tensor[(1, 25, 64, 100, 4), float32] span=from_string:86:123 */ = %19(%x_25) /* ty=Tensor[(1, 25, 64, 100, 4), float32] span=from_string:82:123 */;
  %20 = fn (%p020: Tensor[(1, 25, 64, 100, 4), float32] /* ty=Tensor[(1, 25, 64, 100, 4), float32] span=from_string:84:22 */, Primitive=1) -> Tensor[(1, 100, 64, 100), float32] {
    layout_transform(%p020, src_layout="NCHW4c", dst_layout="NCHW") /* ty=Tensor[(1, 100, 64, 100), float32] span=from_string:84:5 */
  } /* ty=fn (Tensor[(1, 25, 64, 100, 4), float32]) -> Tensor[(1, 100, 64, 100), float32] span=from_string:86:119 */;
  let %x_27: Tensor[(1, 100, 64, 100), float32] /* ty=Tensor[(1, 100, 64, 100), float32] span=from_string:90:123 */ = %20(%x_26) /* ty=Tensor[(1, 100, 64, 100), float32] span=from_string:86:119 */;
  %21 = fn (%p021: Tensor[(1, 100, 64, 100), float32] /* ty=Tensor[(1, 100, 64, 100), float32] span=from_string:88:22 */, Primitive=1) -> Tensor[(1, 64, 100, 100), float32] {
    layout_transform(%p021, src_layout="NCHW", dst_layout="NHWC") /* ty=Tensor[(1, 64, 100, 100), float32] span=from_string:88:5 */
  } /* ty=fn (Tensor[(1, 100, 64, 100), float32]) -> Tensor[(1, 64, 100, 100), float32] span=from_string:90:119 */;
  let %x_28: Tensor[(1, 64, 100, 100), float32] /* ty=Tensor[(1, 64, 100, 100), float32] span=from_string:91:656 */ = %21(%x_27) /* ty=Tensor[(1, 64, 100, 100), float32] span=from_string:90:119 */;
  let %x_29: (Tensor[(1, 3, 100, 100), float32], Tensor[(3), int32], Tensor[(3), uint8], Tensor[(1, 64, 100, 100), float32], float32, Tensor[(64, 3, 3, 3), float32], Tensor[(1, 64, 100, 100), float16], Tensor[(1, 64, 100, 100), float32]) /* ty=(Tensor[(1, 3, 100, 100), float32], Tensor[(3), int32], Tensor[(3), uint8], Tensor[(1, 64, 100, 100), float32], float32, Tensor[(64, 3, 3, 3), float32], Tensor[(1, 64, 100, 100), float16], Tensor[(1, 64, 100, 100), float32]) span=from_string:92:3 */ = (%x_4, meta[relay.Constant][1] /* ty=Tensor[(3), int32] span=from_string:91:511 */, %x_13, %x_19, 6f /* ty=float32 span=from_string:91:599 */, %x_21, %x_23, %x_28) /* ty=(Tensor[(1, 3, 100, 100), float32], Tensor[(3), int32], Tensor[(3), uint8], Tensor[(1, 64, 100, 100), float32], float32, Tensor[(64, 3, 3, 3), float32], Tensor[(1, 64, 100, 100), float16], Tensor[(1, 64, 100, 100), float32]) span=from_string:91:499 */;
  %x_29
}

#[metadata]
{
  "root": 1, 
  "nodes": [
    {
      "type_key": ""
    }, 
    {
      "type_key": "Map", 
      "keys": [
        "relay.Constant"
      ], 
      "data": [2]
    }, 
    {
      "type_key": "Array", 
      "data": [3, 11]
    }, 
    {
      "type_key": "relay.Constant", 
      "attrs": {
        "_checked_type_": "8", 
        "data": "0", 
        "span": "6", 
        "virtual_device_": "4"
      }
    }, 
    {
      "type_key": "VirtualDevice", 
      "attrs": {
        "device_type_int": "-1", 
        "memory_scope": "5", 
        "target": "0", 
        "virtual_device_id": "-1"
      }
    }, 
    {
      "type_key": "runtime.String"
    }, 
    {
      "type_key": "Span", 
      "attrs": {
        "column": "96", 
        "end_column": "114", 
        "end_line": "26", 
        "line": "26", 
        "source_name": "7"
      }
    }, 
    {
      "type_key": "SourceName", 
      "repr_str": "from_string"
    }, 
    {
      "type_key": "relay.TensorType", 
      "attrs": {
        "dtype": "uint8", 
        "shape": "9", 
        "span": "0"
      }
    }, 
    {
      "type_key": "Array", 
      "data": [10]
    }, 
    {
      "type_key": "IntImm", 
      "attrs": {
        "dtype": "int32", 
        "span": "0", 
        "value": "3"
      }
    }, 
    {
      "type_key": "relay.Constant", 
      "attrs": {
        "_checked_type_": "13", 
        "data": "1", 
        "span": "12", 
        "virtual_device_": "4"
      }
    }, 
    {
      "type_key": "Span", 
      "attrs": {
        "column": "511", 
        "end_column": "529", 
        "end_line": "91", 
        "line": "91", 
        "source_name": "7"
      }
    }, 
    {
      "type_key": "relay.TensorType", 
      "attrs": {
        "dtype": "int32", 
        "shape": "14", 
        "span": "16"
      }
    }, 
    {
      "type_key": "Array", 
      "data": [15]
    }, 
    {
      "type_key": "IntImm", 
      "attrs": {
        "dtype": "int32", 
        "span": "0", 
        "value": "3"
      }
    }, 
    {
      "type_key": "Span", 
      "attrs": {
        "column": "415", 
        "end_column": "435", 
        "end_line": "2", 
        "line": "2", 
        "source_name": "7"
      }
    }
  ], 
  "b64ndarrays": [
    "P6G0lvBAXt0AAAAAAAAAAAEAAAAAAAAAAQAAAAEIAQADAAAAAAAAAAMAAAAAAAAAA2Rk", 
    "P6G0lvBAXt0AAAAAAAAAAAEAAAAAAAAAAQAAAAAgAQADAAAAAAAAAAwAAAAAAAAAAwAAAGQAAABkAAAA"
  ], 
  "attrs": {"tvm_version": "0.13.0"}
}