#[version = "0.0.5"]
def @main(%x0: Tensor[(3, 1), float32] /* ty=Tensor[(3, 1), float32] span=from_string:42:12 */, %x1: Tensor[(3, 3), float32] /* ty=Tensor[(3, 3), float32] */, %x2: Tensor[(3, 1), float32] /* ty=Tensor[(3, 1), float32] span=from_string:44:16 */, %x3: Tensor[(50), float32] /* ty=Tensor[(50), float32] */, %x4: Tensor[(3, 55), float32] /* ty=Tensor[(3, 55), float32] */, %x5: float32 /* ty=float32 span=from_string:48:13 */) -> (Tensor[(3, 3), float16], Tensor[(3, 3), float16], Tensor[(3, 1), float32], Tensor[(2), int32], Tensor[(3, 1), float32], Tensor[(50), float16], Tensor[(3, 55), float32], Tensor[(2), int32]) {
  %1 = fn (%p0: Tensor[(3, 1), float32] /* ty=Tensor[(3, 1), float32] span=from_string:4:15 */, Primitive=1) -> Tensor[(3, 3), float16] {
    %0 = cast(%p0, dtype="float16") /* ty=Tensor[(3, 1), float16] span=from_string:5:18 */;
    broadcast_to(%0, shape=[3, 3], dtype="float16") /* ty=Tensor[(3, 3), float16] span=from_string:4:5 */
  } /* ty=fn (Tensor[(3, 1), float32]) -> Tensor[(3, 3), float16] span=from_string:42:9 */;
  %2 = fn (Primitive=1) -> Tensor[(3, 3), float16] {
    ones(shape=[3, 3], dtype="float16") /* ty=Tensor[(3, 3), float16] span=from_string:8:5 */
  } /* ty=fn () -> Tensor[(3, 3), float16] span=from_string:43:9 */;
  %4 = fn (%p02: Tensor[(3, 1), float32] /* ty=Tensor[(3, 1), float32] span=from_string:11:14 */, %p11: Tensor[(3, 1), float32] /* ty=Tensor[(3, 1), float32] span=from_string:12:18 */, Primitive=1) -> Tensor[(3, 1), float32] {
    %3 = erf(%p02) /* ty=Tensor[(3, 1), float32] span=from_string:12:14 */;
    subtract(%3, %p11) /* ty=Tensor[(3, 1), float32] span=from_string:11:5 */
  } /* ty=fn (Tensor[(3, 1), float32], Tensor[(3, 1), float32]) -> Tensor[(3, 1), float32] span=from_string:14:8 */;
  %5 = %4(%x0, %x2) /* ty=Tensor[(3, 1), float32] span=from_string:44:12 */;
  %6 = fn (%p01: Tensor[(3, 1), float32] /* ty=Tensor[(3, 1), float32] span=from_string:16:15 */, %p1: Tensor[(3, 1), float32] /* ty=Tensor[(3, 1), float32] span=from_string:16:21 */, Primitive=1) -> Tensor[(3, 1), float32] {
    multiply(%p01, %p1) /* ty=Tensor[(3, 1), float32] span=from_string:16:6 */
  } /* ty=fn (Tensor[(3, 1), float32], Tensor[(3, 1), float32]) -> Tensor[(3, 1), float32] span=from_string:44:9 */;
  %10 = fn (Primitive=1) -> Tensor[(1), float16] {
    ones(shape=[1], dtype="float16") /* ty=Tensor[(1), float16] span=from_string:19:5 */
  } /* ty=fn () -> Tensor[(1), float16] span=from_string:21:9 */;
  %11 = %10() /* ty=Tensor[(1), float16] span=from_string:46:13 */;
  %12 = fn (%p04: Tensor[(1), float16] /* ty=Tensor[(1), float16] span=from_string:23:15 */, %p12: Tensor[(3, 1), float32] /* ty=Tensor[(3, 1), float32] span=from_string:24:19 */, Primitive=1) -> Tensor[(3, 1), float32] {
    %9 = cast(%p04, dtype="float32") /* ty=Tensor[(1), float32] span=from_string:24:15 */;
    multiply(%9, %p12) /* ty=Tensor[(3, 1), float32] span=from_string:23:5 */
  } /* ty=fn (Tensor[(1), float16], Tensor[(3, 1), float32]) -> Tensor[(3, 1), float32] span=from_string:26:9 */;
  %13 = %12(%11, %5) /* ty=Tensor[(3, 1), float32] span=from_string:47:13 */;
  %14 = fn (%p03: Tensor[(3, 1), float32] /* ty=Tensor[(3, 1), float32] span=from_string:28:15 */, Primitive=1) -> Tensor[(3, 1), float32] {
    %7 = cast(%p03, dtype="bfloat16") /* ty=Tensor[(3, 1), bfloat16] span=from_string:29:15 */;
    %8 = cast(%7, dtype="float32") /* ty=Tensor[(3, 1), float32] span=from_string:30:10 */;
    clip(%8, a_min=-0.2f, a_max=0.4f) /* ty=Tensor[(3, 1), float32] span=from_string:28:5 */
  } /* ty=fn (Tensor[(3, 1), float32]) -> Tensor[(3, 1), float32] span=from_string:45:9 */;
  %15 = fn (%p05: Tensor[(1), float16] /* ty=Tensor[(1), float16] span=from_string:33:18 */, Primitive=1) -> Tensor[(50), float16] {
    broadcast_to(%p05, shape=[50], dtype="float16") /* ty=Tensor[(50), float16] span=from_string:33:5 */
  } /* ty=fn (Tensor[(1), float16]) -> Tensor[(50), float16] span=from_string:46:9 */;
  %16 = fn (%p06: Tensor[(3, 1), float32] /* ty=Tensor[(3, 1), float32] span=from_string:36:18 */, Primitive=1) -> Tensor[(3, 55), float32] {
    broadcast_to(%p06, shape=[3, 55]) /* ty=Tensor[(3, 55), float32] span=from_string:36:5 */
  } /* ty=fn (Tensor[(3, 1), float32]) -> Tensor[(3, 55), float32] span=from_string:47:9 */;
  %18 = fn (%p07: float32 /* ty=float32 span=from_string:39:16 */, %p13: Tensor[(2), int32] /* ty=Tensor[(2), int32] span=from_string:40:15 */, Primitive=1) -> Tensor[(2), int32] {
    %17 = cast(%p07, dtype="float16") /* ty=float16 span=from_string:40:21 */;
    full(%17, shape=[2], dtype="int32") /* ty=Tensor[(2), int32] */
  } /* ty=fn (float32, Tensor[(2), int32]) -> Tensor[(2), int32] span=from_string:48:9 */;
  %19 = %1(%x0) /* ty=Tensor[(3, 3), float16] span=from_string:49:4 */;
  %20 = %2() /* ty=Tensor[(3, 3), float16] span=from_string:49:9 */;
  %21 = %6(%5, %x2) /* ty=Tensor[(3, 1), float32] span=from_string:49:14 */;
  %22 = %14(%13) /* ty=Tensor[(3, 1), float32] span=from_string:49:95 */;
  %23 = %15(%11) /* ty=Tensor[(50), float16] span=from_string:49:100 */;
  %24 = %16(%13) /* ty=Tensor[(3, 55), float32] span=from_string:49:105 */;
  %25 = %18(%x5, meta[relay.Constant][1] /* ty=Tensor[(2), int32] span=from_string:48:23 */) /* ty=Tensor[(2), int32] span=from_string:49:110 */;
  (%19, %20, %21, meta[relay.Constant][0] /* ty=Tensor[(2), int32] span=from_string:49:24 */, %22, %23, %24, %25) /* ty=(Tensor[(3, 3), float16], Tensor[(3, 3), float16], Tensor[(3, 1), float32], Tensor[(2), int32], Tensor[(3, 1), float32], Tensor[(50), float16], Tensor[(3, 55), float32], Tensor[(2), int32]) span=from_string:3:3 */
}

#[metadata]
{
  "root": 1, 
  "nodes": [
    {
      "type_key": ""
    }, 
    {
      "type_key": "Map", 
      "keys": [
        "relay.Constant"
      ], 
      "data": [2]
    }, 
    {
      "type_key": "Array", 
      "data": [3, 12]
    }, 
    {
      "type_key": "relay.Constant", 
      "attrs": {
        "_checked_type_": "8", 
        "data": "0", 
        "span": "6", 
        "virtual_device_": "4"
      }
    }, 
    {
      "type_key": "VirtualDevice", 
      "attrs": {
        "device_type_int": "-1", 
        "memory_scope": "5", 
        "target": "0", 
        "virtual_device_id": "-1"
      }
    }, 
    {
      "type_key": "runtime.String"
    }, 
    {
      "type_key": "Span", 
      "attrs": {
        "column": "24", 
        "end_column": "42", 
        "end_line": "49", 
        "line": "49", 
        "source_name": "7"
      }
    }, 
    {
      "type_key": "SourceName", 
      "repr_str": "from_string"
    }, 
    {
      "type_key": "relay.TensorType", 
      "attrs": {
        "dtype": "int32", 
        "shape": "9", 
        "span": "11"
      }
    }, 
    {
      "type_key": "Array", 
      "data": [10]
    }, 
    {
      "type_key": "IntImm", 
      "attrs": {
        "dtype": "int32", 
        "span": "0", 
        "value": "2"
      }
    }, 
    {
      "type_key": "Span", 
      "attrs": {
        "column": "503", 
        "end_column": "523", 
        "end_line": "2", 
        "line": "2", 
        "source_name": "7"
      }
    }, 
    {
      "type_key": "relay.Constant", 
      "attrs": {
        "_checked_type_": "14", 
        "data": "1", 
        "span": "13", 
        "virtual_device_": "4"
      }
    }, 
    {
      "type_key": "Span", 
      "attrs": {
        "column": "23", 
        "end_column": "41", 
        "end_line": "48", 
        "line": "48", 
        "source_name": "7"
      }
    }, 
    {
      "type_key": "relay.TensorType", 
      "attrs": {
        "dtype": "int32", 
        "shape": "15", 
        "span": "0"
      }
    }, 
    {
      "type_key": "Array", 
      "data": [16]
    }, 
    {
      "type_key": "IntImm", 
      "attrs": {
        "dtype": "int32", 
        "span": "0", 
        "value": "2"
      }
    }
  ], 
  "b64ndarrays": [
    "P6G0lvBAXt0AAAAAAAAAAAEAAAAAAAAAAQAAAAAgAQACAAAAAAAAAAgAAAAAAAAAAwAAAAMAAAA=", 
    "P6G0lvBAXt0AAAAAAAAAAAEAAAAAAAAAAQAAAAAgAQACAAAAAAAAAAgAAAAAAAAAAwAAADcAAAA="
  ], 
  "attrs": {"tvm_version": "0.13.0"}
}