#[version = "0.0.5"]
def @main(%x0: Tensor[(3, 1), float32] /* ty=Tensor[(3, 1), float32] span=from_string:18:101 */, %x1: Tensor[(3, 3), float32] /* ty=Tensor[(3, 3), float32] */, %x2: Tensor[(3, 1), float32] /* ty=Tensor[(3, 1), float32] span=from_string:26:109 */, %x3: Tensor[(50), float32] /* ty=Tensor[(50), float32] */, %x4: Tensor[(3, 55), float32] /* ty=Tensor[(3, 55), float32] */, %x5: float32 /* ty=float32 span=from_string:62:71 */) -> (Tensor[(3, 3), float16], Tensor[(3, 3), float16], Tensor[(3, 1), float32], Tensor[(2), int32], Tensor[(3, 1), float32], Tensor[(50), float16], Tensor[(3, 55), float32], Tensor[(2), int32]) {
  %0 = fn (%p0: Tensor[(3, 1), float32] /* ty=Tensor[(3, 1), float32] span=from_string:4:10 */, Primitive=1) -> Tensor[(3, 1), float16] {
    cast(%p0, dtype="float16") /* ty=Tensor[(3, 1), float16] span=from_string:4:5 */
  } /* ty=fn (Tensor[(3, 1), float32]) -> Tensor[(3, 1), float16] span=from_string:3:3 */;
  %1 = %0(%x0) /* ty=Tensor[(3, 1), float16] span=from_string:6:96 */;
  %2 = fn (%p01: Tensor[(3, 1), float16] /* ty=Tensor[(3, 1), float16] span=from_string:8:18 */, Primitive=1) -> Tensor[(3, 3), float16] {
    broadcast_to(%p01, shape=[3, 3], dtype="float16") /* ty=Tensor[(3, 3), float16] span=from_string:8:5 */
  } /* ty=fn (Tensor[(3, 1), float16]) -> Tensor[(3, 3), float16] span=from_string:7:3 */;
  %3 = fn (Primitive=1) -> Tensor[(3, 3), float16] {
    ones(shape=[3, 3], dtype="float16") /* ty=Tensor[(3, 3), float16] span=from_string:12:5 */
  } /* ty=fn () -> Tensor[(3, 3), float16] span=from_string:11:3 */;
  %4 = fn (%p02: Tensor[(3, 1), float32] /* ty=Tensor[(3, 1), float32] span=from_string:16:9 */, Primitive=1) -> Tensor[(3, 1), float32] {
    erf(%p02) /* ty=Tensor[(3, 1), float32] span=from_string:16:5 */
  } /* ty=fn (Tensor[(3, 1), float32]) -> Tensor[(3, 1), float32] span=from_string:15:3 */;
  %5 = %4(%x0) /* ty=Tensor[(3, 1), float32] span=from_string:18:96 */;
  %6 = fn (%p03: Tensor[(3, 1), float32] /* ty=Tensor[(3, 1), float32] span=from_string:20:14 */, %p1: Tensor[(3, 1), float32] /* ty=Tensor[(3, 1), float32] span=from_string:20:20 */, Primitive=1) -> Tensor[(3, 1), float32] {
    subtract(%p03, %p1) /* ty=Tensor[(3, 1), float32] span=from_string:20:5 */
  } /* ty=fn (Tensor[(3, 1), float32], Tensor[(3, 1), float32]) -> Tensor[(3, 1), float32] span=from_string:19:3 */;
  %7 = %6(%5, %x2) /* ty=Tensor[(3, 1), float32] span=from_string:22:97 */;
  %8 = fn (%p04: Tensor[(3, 1), float32] /* ty=Tensor[(3, 1), float32] span=from_string:24:15 */, %p11: Tensor[(3, 1), float32] /* ty=Tensor[(3, 1), float32] span=from_string:24:21 */, Primitive=1) -> Tensor[(3, 1), float32] {
    multiply(%p04, %p11) /* ty=Tensor[(3, 1), float32] span=from_string:24:6 */
  } /* ty=fn (Tensor[(3, 1), float32], Tensor[(3, 1), float32]) -> Tensor[(3, 1), float32] span=from_string:23:3 */;
  %9 = fn (Primitive=1) -> Tensor[(1), float16] {
    ones(shape=[1], dtype="float16") /* ty=Tensor[(1), float16] span=from_string:28:5 */
  } /* ty=fn () -> Tensor[(1), float16] span=from_string:27:3 */;
  %10 = %9() /* ty=Tensor[(1), float16] span=from_string:30:89 */;
  %11 = fn (%p05: Tensor[(1), float16] /* ty=Tensor[(1), float16] span=from_string:32:10 */, Primitive=1) -> Tensor[(1), float32] {
    cast(%p05, dtype="float32") /* ty=Tensor[(1), float32] span=from_string:32:5 */
  } /* ty=fn (Tensor[(1), float16]) -> Tensor[(1), float32] span=from_string:31:3 */;
  %12 = %11(%10) /* ty=Tensor[(1), float32] span=from_string:34:89 */;
  %13 = fn (%p06: Tensor[(1), float32] /* ty=Tensor[(1), float32] span=from_string:36:15 */, %p12: Tensor[(3, 1), float32] /* ty=Tensor[(3, 1), float32] span=from_string:36:21 */, Primitive=1) -> Tensor[(3, 1), float32] {
    multiply(%p06, %p12) /* ty=Tensor[(3, 1), float32] span=from_string:36:6 */
  } /* ty=fn (Tensor[(1), float32], Tensor[(3, 1), float32]) -> Tensor[(3, 1), float32] span=from_string:35:3 */;
  %14 = %13(%12, %7) /* ty=Tensor[(3, 1), float32] span=from_string:38:96 */;
  %15 = fn (%p07: Tensor[(3, 1), float32] /* ty=Tensor[(3, 1), float32] span=from_string:40:10 */, Primitive=1) -> Tensor[(3, 1), bfloat16] {
    cast(%p07, dtype="bfloat16") /* ty=Tensor[(3, 1), bfloat16] span=from_string:40:5 */
  } /* ty=fn (Tensor[(3, 1), float32]) -> Tensor[(3, 1), bfloat16] span=from_string:39:3 */;
  %16 = %15(%14) /* ty=Tensor[(3, 1), bfloat16] span=from_string:42:99 */;
  %17 = fn (%p08: Tensor[(3, 1), bfloat16] /* ty=Tensor[(3, 1), bfloat16] span=from_string:44:10 */, Primitive=1) -> Tensor[(3, 1), float32] {
    cast(%p08, dtype="float32") /* ty=Tensor[(3, 1), float32] span=from_string:44:5 */
  } /* ty=fn (Tensor[(3, 1), bfloat16]) -> Tensor[(3, 1), float32] span=from_string:43:3 */;
  %18 = %17(%16) /* ty=Tensor[(3, 1), float32] span=from_string:46:98 */;
  %19 = fn (%p09: Tensor[(3, 1), float32] /* ty=Tensor[(3, 1), float32] span=from_string:48:10 */, Primitive=1) -> Tensor[(3, 1), float32] {
    clip(%p09, a_min=-0.2f, a_max=0.4f) /* ty=Tensor[(3, 1), float32] span=from_string:48:5 */
  } /* ty=fn (Tensor[(3, 1), float32]) -> Tensor[(3, 1), float32] span=from_string:47:3 */;
  %20 = fn (%p010: Tensor[(1), float16] /* ty=Tensor[(1), float16] span=from_string:52:18 */, Primitive=1) -> Tensor[(50), float16] {
    broadcast_to(%p010, shape=[50], dtype="float16") /* ty=Tensor[(50), float16] span=from_string:52:5 */
  } /* ty=fn (Tensor[(1), float16]) -> Tensor[(50), float16] span=from_string:51:3 */;
  %21 = fn (%p011: Tensor[(3, 1), float32] /* ty=Tensor[(3, 1), float32] span=from_string:56:18 */, Primitive=1) -> Tensor[(3, 55), float32] {
    broadcast_to(%p011, shape=[3, 55]) /* ty=Tensor[(3, 55), float32] span=from_string:56:5 */
  } /* ty=fn (Tensor[(3, 1), float32]) -> Tensor[(3, 55), float32] span=from_string:55:3 */;
  %22 = fn (%p012: float32 /* ty=float32 span=from_string:60:10 */, Primitive=1) -> float16 {
    cast(%p012, dtype="float16") /* ty=float16 span=from_string:60:5 */
  } /* ty=fn (float32) -> float16 span=from_string:59:3 */;
  %23 = %22(%x5) /* ty=float16 span=from_string:62:64 */;
  %24 = fn (%p013: float16 /* ty=float16 span=from_string:64:10 */, Primitive=1) -> Tensor[(2), int32] {
    full(%p013, shape=[2], dtype="int32") /* ty=Tensor[(2), int32] span=from_string:64:5 */
  } /* ty=fn (float16) -> Tensor[(2), int32] span=from_string:63:3 */;
  %25 = %2(%1) /* ty=Tensor[(3, 3), float16] span=from_string:10:97 */;
  %26 = %3() /* ty=Tensor[(3, 3), float16] span=from_string:14:97 */;
  %27 = %8(%7, %x2) /* ty=Tensor[(3, 1), float32] span=from_string:26:97 */;
  %28 = %19(%18) /* ty=Tensor[(3, 1), float32] span=from_string:50:97 */;
  %29 = %20(%10) /* ty=Tensor[(50), float16] span=from_string:54:93 */;
  %30 = %21(%14) /* ty=Tensor[(3, 55), float32] span=from_string:58:99 */;
  %31 = %24(%23) /* ty=Tensor[(2), int32] span=from_string:66:89 */;
  (%25, %26, %27, meta[relay.Constant][0] /* ty=Tensor[(2), int32] span=from_string:67:21 */, %28, %29, %30, %31) /* ty=(Tensor[(3, 3), float16], Tensor[(3, 3), float16], Tensor[(3, 1), float32], Tensor[(2), int32], Tensor[(3, 1), float32], Tensor[(50), float16], Tensor[(3, 55), float32], Tensor[(2), int32]) span=from_string:68:431 */
}

#[metadata]
{
  "root": 1, 
  "nodes": [
    {
      "type_key": ""
    }, 
    {
      "type_key": "Map", 
      "keys": [
        "relay.Constant"
      ], 
      "data": [2]
    }, 
    {
      "type_key": "Array", 
      "data": [3]
    }, 
    {
      "type_key": "relay.Constant", 
      "attrs": {
        "_checked_type_": "8", 
        "data": "0", 
        "span": "6", 
        "virtual_device_": "4"
      }
    }, 
    {
      "type_key": "VirtualDevice", 
      "attrs": {
        "device_type_int": "-1", 
        "memory_scope": "5", 
        "target": "0", 
        "virtual_device_id": "-1"
      }
    }, 
    {
      "type_key": "runtime.String"
    }, 
    {
      "type_key": "Span", 
      "attrs": {
        "column": "21", 
        "end_column": "39", 
        "end_line": "67", 
        "line": "67", 
        "source_name": "7"
      }
    }, 
    {
      "type_key": "SourceName", 
      "repr_str": "from_string"
    }, 
    {
      "type_key": "relay.TensorType", 
      "attrs": {
        "dtype": "int32", 
        "shape": "9", 
        "span": "0"
      }
    }, 
    {
      "type_key": "Array", 
      "data": [10]
    }, 
    {
      "type_key": "IntImm", 
      "attrs": {
        "dtype": "int32", 
        "span": "0", 
        "value": "2"
      }
    }
  ], 
  "b64ndarrays": [
    "P6G0lvBAXt0AAAAAAAAAAAEAAAAAAAAAAQAAAAAgAQACAAAAAAAAAAgAAAAAAAAAAwAAAAMAAAA="
  ], 
  "attrs": {"tvm_version": "0.13.0"}
}