#[version = "0.0.5"]
def @main(%x0: Tensor[(3, 1), float32] /* ty=Tensor[(3, 1), float32] span=from_string:7:98 */, %x1: Tensor[(3, 3), float32] /* ty=Tensor[(3, 3), float32] */, %x2: Tensor[(3, 1), float32] /* ty=Tensor[(3, 1), float32] span=from_string:10:19 */, %x3: Tensor[(50), float32] /* ty=Tensor[(50), float32] */, %x4: Tensor[(3, 55), float32] /* ty=Tensor[(3, 55), float32] */, %x5: float32 /* ty=float32 span=from_string:22:20 */) -> (Tensor[(3, 3), float16], Tensor[(3, 3), float16], Tensor[(3, 1), float16], Tensor[(2), int32], Tensor[(3, 1), float16], Tensor[(50), float16], Tensor[(3, 55), float16], Tensor[(2), int32]) {
  let %x_0: Tensor[(3, 1), float16] /* ty=Tensor[(3, 1), float16] span=from_string:4:19 */ = cast(%x0, dtype="float16") /* ty=Tensor[(3, 1), float16] span=from_string:3:14 */;
  let %x_1: Tensor[(3, 1), float16] /* ty=Tensor[(3, 1), float16] span=from_string:5:110 */ = cast(%x_0, dtype="float16") /* ty=Tensor[(3, 1), float16] span=from_string:4:14 */;
  let %x_01: Tensor[(3, 3), float16] /* ty=Tensor[(3, 3), float16] span=from_string:26:432 */ = broadcast_to(%x_1, shape=[3, 3], dtype="float16") /* ty=Tensor[(3, 3), float16] span=from_string:5:97 */;
  let %x_11: Tensor[(3, 3), float16] /* ty=Tensor[(3, 3), float16] span=from_string:26:439 */ = ones(shape=[3, 3], dtype="float16") /* ty=Tensor[(3, 3), float16] span=from_string:6:97 */;
  let %x_2: Tensor[(3, 1), float32] /* ty=Tensor[(3, 1), float32] span=from_string:8:20 */ = erf(%x0) /* ty=Tensor[(3, 1), float32] span=from_string:7:94 */;
  let %x_21: Tensor[(3, 1), float16] /* ty=Tensor[(3, 1), float16] span=from_string:9:19 */ = cast(%x_2, dtype="float16") /* ty=Tensor[(3, 1), float16] span=from_string:8:15 */;
  let %x_3: Tensor[(3, 1), float16] /* ty=Tensor[(3, 1), float16] span=from_string:12:106 */ = cast(%x_21, dtype="float16") /* ty=Tensor[(3, 1), float16] span=from_string:9:14 */;
  let %x_4: Tensor[(3, 1), float16] /* ty=Tensor[(3, 1), float16] span=from_string:11:19 */ = cast(%x2, dtype="float16") /* ty=Tensor[(3, 1), float16] span=from_string:10:14 */;
  let %x_5: Tensor[(3, 1), float16] /* ty=Tensor[(3, 1), float16] span=from_string:13:114 */ = cast(%x_4, dtype="float16") /* ty=Tensor[(3, 1), float16] span=from_string:11:14 */;
  let %x_31: Tensor[(3, 1), float16] /* ty=Tensor[(3, 1), float16] span=from_string:15:112 */ = subtract(%x_3, %x_5) /* ty=Tensor[(3, 1), float16] span=from_string:12:97 */;
  let %x_41: Tensor[(3, 1), float16] /* ty=Tensor[(3, 1), float16] span=from_string:26:446 */ = multiply(%x_31, %x_5) /* ty=Tensor[(3, 1), float16] span=from_string:13:98 */;
  let %x_6: Tensor[(1), float16] /* ty=Tensor[(1), float16] span=from_string:20:106 */ = ones(shape=[1], dtype="float16") /* ty=Tensor[(1), float16] span=from_string:14:90 */;
  let %x_7: Tensor[(3, 1), float16] /* ty=Tensor[(3, 1), float16] span=from_string:21:113 */ = multiply(%x_6, %x_31) /* ty=Tensor[(3, 1), float16] span=from_string:15:97 */;
  let %x_8: Tensor[(3, 1), bfloat16] /* ty=Tensor[(3, 1), bfloat16] span=from_string:17:20 */ = cast(%x_7, dtype="bfloat16") /* ty=Tensor[(3, 1), bfloat16] span=from_string:16:97 */;
  let %x_61: Tensor[(3, 1), float16] /* ty=Tensor[(3, 1), float16] span=from_string:18:20 */ = cast(%x_8, dtype="float16") /* ty=Tensor[(3, 1), float16] span=from_string:17:15 */;
  let %x_71: Tensor[(3, 1), float16] /* ty=Tensor[(3, 1), float16] span=from_string:19:101 */ = cast(%x_61, dtype="float16") /* ty=Tensor[(3, 1), float16] span=from_string:18:15 */;
  let %x_9: Tensor[(3, 1), float16] /* ty=Tensor[(3, 1), float16] span=from_string:26:461 */ = clip(%x_71, a_min=-0.2f, a_max=0.4f) /* ty=Tensor[(3, 1), float16] span=from_string:19:96 */;
  let %x_10: Tensor[(50), float16] /* ty=Tensor[(50), float16] span=from_string:26:467 */ = broadcast_to(%x_6, shape=[50], dtype="float16") /* ty=Tensor[(50), float16] span=from_string:20:93 */;
  let %x_111: Tensor[(3, 55), float16] /* ty=Tensor[(3, 55), float16] span=from_string:26:474 */ = broadcast_to(%x_7, shape=[3, 55], dtype="float16") /* ty=Tensor[(3, 55), float16] span=from_string:21:100 */;
  let %x_81: float16 /* ty=float16 span=from_string:23:20 */ = cast(%x5, dtype="float16") /* ty=float16 span=from_string:22:15 */;
  let %x_91: float16 /* ty=float16 span=from_string:24:94 */ = cast(%x_81, dtype="float16") /* ty=float16 span=from_string:23:15 */;
  let %x_12: Tensor[(2), int32] /* ty=Tensor[(2), int32] span=from_string:26:482 */ = full(%x_91, shape=[2], dtype="int32") /* ty=Tensor[(2), int32] span=from_string:24:89 */;
  let %x_13: (Tensor[(3, 3), float16], Tensor[(3, 3), float16], Tensor[(3, 1), float16], Tensor[(2), int32], Tensor[(3, 1), float16], Tensor[(50), float16], Tensor[(3, 55), float16], Tensor[(2), int32]) /* ty=(Tensor[(3, 3), float16], Tensor[(3, 3), float16], Tensor[(3, 1), float16], Tensor[(2), int32], Tensor[(3, 1), float16], Tensor[(50), float16], Tensor[(3, 55), float16], Tensor[(2), int32]) span=from_string:27:16 */ = (%x_01, %x_11, %x_41, meta[relay.Constant][0] /* ty=Tensor[(2), int32] span=from_string:25:21 */, %x_9, %x_10, %x_111, %x_12) /* ty=(Tensor[(3, 3), float16], Tensor[(3, 3), float16], Tensor[(3, 1), float16], Tensor[(2), int32], Tensor[(3, 1), float16], Tensor[(50), float16], Tensor[(3, 55), float16], Tensor[(2), int32]) span=from_string:26:431 */;
  let %x_112: (Tensor[(3, 3), float16], Tensor[(3, 3), float16], Tensor[(3, 1), float16], Tensor[(2), int32], Tensor[(3, 1), float16], Tensor[(50), float16], Tensor[(3, 55), float16], Tensor[(2), int32]) /* ty=(Tensor[(3, 3), float16], Tensor[(3, 3), float16], Tensor[(3, 1), float16], Tensor[(2), int32], Tensor[(3, 1), float16], Tensor[(50), float16], Tensor[(3, 55), float16], Tensor[(2), int32]) span=from_string:28:16 */ = %x_13;
  let %x_121: (Tensor[(3, 3), float16], Tensor[(3, 3), float16], Tensor[(3, 1), float16], Tensor[(2), int32], Tensor[(3, 1), float16], Tensor[(50), float16], Tensor[(3, 55), float16], Tensor[(2), int32]) /* ty=(Tensor[(3, 3), float16], Tensor[(3, 3), float16], Tensor[(3, 1), float16], Tensor[(2), int32], Tensor[(3, 1), float16], Tensor[(50), float16], Tensor[(3, 55), float16], Tensor[(2), int32]) span=from_string:29:16 */ = %x_112;
  let %x_131: (Tensor[(3, 3), float16], Tensor[(3, 3), float16], Tensor[(3, 1), float16], Tensor[(2), int32], Tensor[(3, 1), float16], Tensor[(50), float16], Tensor[(3, 55), float16], Tensor[(2), int32]) /* ty=(Tensor[(3, 3), float16], Tensor[(3, 3), float16], Tensor[(3, 1), float16], Tensor[(2), int32], Tensor[(3, 1), float16], Tensor[(50), float16], Tensor[(3, 55), float16], Tensor[(2), int32]) span=from_string:30:15 */ = %x_121;
  let %x_14: (Tensor[(3, 3), float16], Tensor[(3, 3), float16], Tensor[(3, 1), float16], Tensor[(2), int32], Tensor[(3, 1), float16], Tensor[(50), float16], Tensor[(3, 55), float16], Tensor[(2), int32]) /* ty=(Tensor[(3, 3), float16], Tensor[(3, 3), float16], Tensor[(3, 1), float16], Tensor[(2), int32], Tensor[(3, 1), float16], Tensor[(50), float16], Tensor[(3, 55), float16], Tensor[(2), int32]) span=from_string:31:15 */ = %x_131;
  let %x_15: (Tensor[(3, 3), float16], Tensor[(3, 3), float16], Tensor[(3, 1), float16], Tensor[(2), int32], Tensor[(3, 1), float16], Tensor[(50), float16], Tensor[(3, 55), float16], Tensor[(2), int32]) /* ty=(Tensor[(3, 3), float16], Tensor[(3, 3), float16], Tensor[(3, 1), float16], Tensor[(2), int32], Tensor[(3, 1), float16], Tensor[(50), float16], Tensor[(3, 55), float16], Tensor[(2), int32]) span=from_string:32:15 */ = %x_14;
  let %x_16: (Tensor[(3, 3), float16], Tensor[(3, 3), float16], Tensor[(3, 1), float16], Tensor[(2), int32], Tensor[(3, 1), float16], Tensor[(50), float16], Tensor[(3, 55), float16], Tensor[(2), int32]) /* ty=(Tensor[(3, 3), float16], Tensor[(3, 3), float16], Tensor[(3, 1), float16], Tensor[(2), int32], Tensor[(3, 1), float16], Tensor[(50), float16], Tensor[(3, 55), float16], Tensor[(2), int32]) span=from_string:33:15 */ = %x_15;
  let %x_17: (Tensor[(3, 3), float16], Tensor[(3, 3), float16], Tensor[(3, 1), float16], Tensor[(2), int32], Tensor[(3, 1), float16], Tensor[(50), float16], Tensor[(3, 55), float16], Tensor[(2), int32]) /* ty=(Tensor[(3, 3), float16], Tensor[(3, 3), float16], Tensor[(3, 1), float16], Tensor[(2), int32], Tensor[(3, 1), float16], Tensor[(50), float16], Tensor[(3, 55), float16], Tensor[(2), int32]) span=from_string:34:15 */ = %x_16;
  let %x_18: (Tensor[(3, 3), float16], Tensor[(3, 3), float16], Tensor[(3, 1), float16], Tensor[(2), int32], Tensor[(3, 1), float16], Tensor[(50), float16], Tensor[(3, 55), float16], Tensor[(2), int32]) /* ty=(Tensor[(3, 3), float16], Tensor[(3, 3), float16], Tensor[(3, 1), float16], Tensor[(2), int32], Tensor[(3, 1), float16], Tensor[(50), float16], Tensor[(3, 55), float16], Tensor[(2), int32]) span=from_string:35:15 */ = %x_17;
  let %x_19: (Tensor[(3, 3), float16], Tensor[(3, 3), float16], Tensor[(3, 1), float16], Tensor[(2), int32], Tensor[(3, 1), float16], Tensor[(50), float16], Tensor[(3, 55), float16], Tensor[(2), int32]) /* ty=(Tensor[(3, 3), float16], Tensor[(3, 3), float16], Tensor[(3, 1), float16], Tensor[(2), int32], Tensor[(3, 1), float16], Tensor[(50), float16], Tensor[(3, 55), float16], Tensor[(2), int32]) span=from_string:36:15 */ = %x_18;
  let %x_20: (Tensor[(3, 3), float16], Tensor[(3, 3), float16], Tensor[(3, 1), float16], Tensor[(2), int32], Tensor[(3, 1), float16], Tensor[(50), float16], Tensor[(3, 55), float16], Tensor[(2), int32]) /* ty=(Tensor[(3, 3), float16], Tensor[(3, 3), float16], Tensor[(3, 1), float16], Tensor[(2), int32], Tensor[(3, 1), float16], Tensor[(50), float16], Tensor[(3, 55), float16], Tensor[(2), int32]) span=from_string:37:16 */ = %x_19;
  let %x_211: (Tensor[(3, 3), float16], Tensor[(3, 3), float16], Tensor[(3, 1), float16], Tensor[(2), int32], Tensor[(3, 1), float16], Tensor[(50), float16], Tensor[(3, 55), float16], Tensor[(2), int32]) /* ty=(Tensor[(3, 3), float16], Tensor[(3, 3), float16], Tensor[(3, 1), float16], Tensor[(2), int32], Tensor[(3, 1), float16], Tensor[(50), float16], Tensor[(3, 55), float16], Tensor[(2), int32]) span=from_string:38:15 */ = %x_20;
  let %x_22: (Tensor[(3, 3), float16], Tensor[(3, 3), float16], Tensor[(3, 1), float16], Tensor[(2), int32], Tensor[(3, 1), float16], Tensor[(50), float16], Tensor[(3, 55), float16], Tensor[(2), int32]) /* ty=(Tensor[(3, 3), float16], Tensor[(3, 3), float16], Tensor[(3, 1), float16], Tensor[(2), int32], Tensor[(3, 1), float16], Tensor[(50), float16], Tensor[(3, 55), float16], Tensor[(2), int32]) span=from_string:39:15 */ = %x_211;
  let %x_23: (Tensor[(3, 3), float16], Tensor[(3, 3), float16], Tensor[(3, 1), float16], Tensor[(2), int32], Tensor[(3, 1), float16], Tensor[(50), float16], Tensor[(3, 55), float16], Tensor[(2), int32]) /* ty=(Tensor[(3, 3), float16], Tensor[(3, 3), float16], Tensor[(3, 1), float16], Tensor[(2), int32], Tensor[(3, 1), float16], Tensor[(50), float16], Tensor[(3, 55), float16], Tensor[(2), int32]) span=from_string:40:3 */ = %x_22;
  %x_23
}

#[metadata]
{
  "root": 1, 
  "nodes": [
    {
      "type_key": ""
    }, 
    {
      "type_key": "Map", 
      "keys": [
        "relay.Constant"
      ], 
      "data": [2]
    }, 
    {
      "type_key": "Array", 
      "data": [3]
    }, 
    {
      "type_key": "relay.Constant", 
      "attrs": {
        "_checked_type_": "8", 
        "data": "0", 
        "span": "6", 
        "virtual_device_": "4"
      }
    }, 
    {
      "type_key": "VirtualDevice", 
      "attrs": {
        "device_type_int": "-1", 
        "memory_scope": "5", 
        "target": "0", 
        "virtual_device_id": "-1"
      }
    }, 
    {
      "type_key": "runtime.String"
    }, 
    {
      "type_key": "Span", 
      "attrs": {
        "column": "21", 
        "end_column": "39", 
        "end_line": "25", 
        "line": "25", 
        "source_name": "7"
      }
    }, 
    {
      "type_key": "SourceName", 
      "repr_str": "from_string"
    }, 
    {
      "type_key": "relay.TensorType", 
      "attrs": {
        "dtype": "int32", 
        "shape": "9", 
        "span": "0"
      }
    }, 
    {
      "type_key": "Array", 
      "data": [10]
    }, 
    {
      "type_key": "IntImm", 
      "attrs": {
        "dtype": "int32", 
        "span": "0", 
        "value": "2"
      }
    }
  ], 
  "b64ndarrays": [
    "P6G0lvBAXt0AAAAAAAAAAAEAAAAAAAAAAQAAAAAgAQACAAAAAAAAAAgAAAAAAAAAAwAAAAMAAAA="
  ], 
  "attrs": {"tvm_version": "0.13.0"}
}