#[version = "0.0.5"]
def @main(%x0: Tensor[(3, 1), float32] /* ty=Tensor[(3, 1), float32] span=from_string:18:97 */, %x1: Tensor[(3, 3), float32] /* ty=Tensor[(3, 3), float32] */, %x2: Tensor[(3, 1), float32] /* ty=Tensor[(3, 1), float32] span=from_string:26:104 */, %x3: Tensor[(50), float32] /* ty=Tensor[(50), float32] */, %x4: Tensor[(3, 55), float32] /* ty=Tensor[(3, 55), float32] */, %x5: float32 /* ty=float32 span=from_string:64:68 */) -> (Tensor[(3, 3), float16], Tensor[(3, 3), float16], Tensor[(3, 1), float32], Tensor[(2), int32], Tensor[(3, 1), float32], Tensor[(50), float16], Tensor[(3, 55), float32], Tensor[(2), int32]) {
  %0 = fn (%p0: Tensor[(3, 1), float32] /* ty=Tensor[(3, 1), float32] span=from_string:4:10 */, Primitive=1) -> Tensor[(3, 1), float16] {
    cast(%p0, dtype="float16") /* ty=Tensor[(3, 1), float16] span=from_string:4:5 */
  } /* ty=fn (Tensor[(3, 1), float32]) -> Tensor[(3, 1), float16] span=from_string:6:94 */;
  let %x_0: Tensor[(3, 1), float16] /* ty=Tensor[(3, 1), float16] span=from_string:10:98 */ = %0(%x0) /* ty=Tensor[(3, 1), float16] span=from_string:6:94 */;
  %1 = fn (%p01: Tensor[(3, 1), float16] /* ty=Tensor[(3, 1), float16] span=from_string:8:18 */, Primitive=1) -> Tensor[(3, 3), float16] {
    broadcast_to(%p01, shape=[3, 3], dtype="float16") /* ty=Tensor[(3, 3), float16] span=from_string:8:5 */
  } /* ty=fn (Tensor[(3, 1), float16]) -> Tensor[(3, 3), float16] span=from_string:10:95 */;
  let %x_1: Tensor[(3, 3), float16] /* ty=Tensor[(3, 3), float16] span=from_string:69:432 */ = %1(%x_0) /* ty=Tensor[(3, 3), float16] span=from_string:10:95 */;
  %2 = fn (Primitive=1) -> Tensor[(3, 3), float16] {
    ones(shape=[3, 3], dtype="float16") /* ty=Tensor[(3, 3), float16] span=from_string:12:5 */
  } /* ty=fn () -> Tensor[(3, 3), float16] span=from_string:14:95 */;
  let %x_2: Tensor[(3, 3), float16] /* ty=Tensor[(3, 3), float16] span=from_string:69:438 */ = %2() /* ty=Tensor[(3, 3), float16] span=from_string:14:95 */;
  %3 = fn (%p02: Tensor[(3, 1), float32] /* ty=Tensor[(3, 1), float32] span=from_string:16:9 */, Primitive=1) -> Tensor[(3, 1), float32] {
    erf(%p02) /* ty=Tensor[(3, 1), float32] span=from_string:16:5 */
  } /* ty=fn (Tensor[(3, 1), float32]) -> Tensor[(3, 1), float32] span=from_string:18:94 */;
  let %x_3: Tensor[(3, 1), float32] /* ty=Tensor[(3, 1), float32] span=from_string:22:98 */ = %3(%x0) /* ty=Tensor[(3, 1), float32] span=from_string:18:94 */;
  %4 = fn (%p03: Tensor[(3, 1), float32] /* ty=Tensor[(3, 1), float32] span=from_string:20:14 */, %p1: Tensor[(3, 1), float32] /* ty=Tensor[(3, 1), float32] span=from_string:20:20 */, Primitive=1) -> Tensor[(3, 1), float32] {
    subtract(%p03, %p1) /* ty=Tensor[(3, 1), float32] span=from_string:20:5 */
  } /* ty=fn (Tensor[(3, 1), float32], Tensor[(3, 1), float32]) -> Tensor[(3, 1), float32] span=from_string:22:95 */;
  let %x_4: Tensor[(3, 1), float32] /* ty=Tensor[(3, 1), float32] span=from_string:39:104 */ = %4(%x_3, %x2) /* ty=Tensor[(3, 1), float32] span=from_string:22:95 */;
  %5 = fn (%p04: Tensor[(3, 1), float32] /* ty=Tensor[(3, 1), float32] span=from_string:24:15 */, %p11: Tensor[(3, 1), float32] /* ty=Tensor[(3, 1), float32] span=from_string:24:21 */, Primitive=1) -> Tensor[(3, 1), float32] {
    multiply(%p04, %p11) /* ty=Tensor[(3, 1), float32] span=from_string:24:6 */
  } /* ty=fn (Tensor[(3, 1), float32], Tensor[(3, 1), float32]) -> Tensor[(3, 1), float32] span=from_string:26:95 */;
  let %x_5: Tensor[(3, 1), float32] /* ty=Tensor[(3, 1), float32] span=from_string:69:444 */ = %5(%x_4, %x2) /* ty=Tensor[(3, 1), float32] span=from_string:26:95 */;
  let %x_6: Tensor[(2), int32] /* ty=Tensor[(2), int32] span=from_string:69:450 */ = meta[relay.Constant][0] /* ty=Tensor[(2), int32] span=from_string:27:92 */;
  %6 = fn (Primitive=1) -> Tensor[(1), float16] {
    ones(shape=[1], dtype="float16") /* ty=Tensor[(1), float16] span=from_string:29:5 */
  } /* ty=fn () -> Tensor[(1), float16] span=from_string:31:89 */;
  let %x_7: Tensor[(1), float16] /* ty=Tensor[(1), float16] span=from_string:55:96 */ = %6() /* ty=Tensor[(1), float16] span=from_string:31:89 */;
  %7 = fn (%p05: Tensor[(1), float16] /* ty=Tensor[(1), float16] span=from_string:33:10 */, Primitive=1) -> Tensor[(1), float32] {
    cast(%p05, dtype="float32") /* ty=Tensor[(1), float32] span=from_string:33:5 */
  } /* ty=fn (Tensor[(1), float16]) -> Tensor[(1), float32] span=from_string:35:89 */;
  let %x_8: Tensor[(1), float32] /* ty=Tensor[(1), float32] span=from_string:39:98 */ = %7(%x_7) /* ty=Tensor[(1), float32] span=from_string:35:89 */;
  %8 = fn (%p06: Tensor[(1), float32] /* ty=Tensor[(1), float32] span=from_string:37:15 */, %p12: Tensor[(3, 1), float32] /* ty=Tensor[(3, 1), float32] span=from_string:37:21 */, Primitive=1) -> Tensor[(3, 1), float32] {
    multiply(%p06, %p12) /* ty=Tensor[(3, 1), float32] span=from_string:37:6 */
  } /* ty=fn (Tensor[(1), float32], Tensor[(3, 1), float32]) -> Tensor[(3, 1), float32] span=from_string:39:95 */;
  let %x_9: Tensor[(3, 1), float32] /* ty=Tensor[(3, 1), float32] span=from_string:59:102 */ = %8(%x_8, %x_4) /* ty=Tensor[(3, 1), float32] span=from_string:39:95 */;
  %9 = fn (%p07: Tensor[(3, 1), float32] /* ty=Tensor[(3, 1), float32] span=from_string:41:10 */, Primitive=1) -> Tensor[(3, 1), bfloat16] {
    cast(%p07, dtype="bfloat16") /* ty=Tensor[(3, 1), bfloat16] span=from_string:41:5 */
  } /* ty=fn (Tensor[(3, 1), float32]) -> Tensor[(3, 1), bfloat16] span=from_string:43:98 */;
  let %x_10: Tensor[(3, 1), bfloat16] /* ty=Tensor[(3, 1), bfloat16] span=from_string:47:100 */ = %9(%x_9) /* ty=Tensor[(3, 1), bfloat16] span=from_string:43:98 */;
  %10 = fn (%p08: Tensor[(3, 1), bfloat16] /* ty=Tensor[(3, 1), bfloat16] span=from_string:45:10 */, Primitive=1) -> Tensor[(3, 1), float32] {
    cast(%p08, dtype="float32") /* ty=Tensor[(3, 1), float32] span=from_string:45:5 */
  } /* ty=fn (Tensor[(3, 1), bfloat16]) -> Tensor[(3, 1), float32] span=from_string:47:96 */;
  let %x_11: Tensor[(3, 1), float32] /* ty=Tensor[(3, 1), float32] span=from_string:51:100 */ = %10(%x_10) /* ty=Tensor[(3, 1), float32] span=from_string:47:96 */;
  %11 = fn (%p09: Tensor[(3, 1), float32] /* ty=Tensor[(3, 1), float32] span=from_string:49:10 */, Primitive=1) -> Tensor[(3, 1), float32] {
    clip(%p09, a_min=-0.2f, a_max=0.4f) /* ty=Tensor[(3, 1), float32] span=from_string:49:5 */
  } /* ty=fn (Tensor[(3, 1), float32]) -> Tensor[(3, 1), float32] span=from_string:51:96 */;
  let %x_12: Tensor[(3, 1), float32] /* ty=Tensor[(3, 1), float32] span=from_string:69:456 */ = %11(%x_11) /* ty=Tensor[(3, 1), float32] span=from_string:51:96 */;
  %12 = fn (%p010: Tensor[(1), float16] /* ty=Tensor[(1), float16] span=from_string:53:18 */, Primitive=1) -> Tensor[(50), float16] {
    broadcast_to(%p010, shape=[50], dtype="float16") /* ty=Tensor[(50), float16] span=from_string:53:5 */
  } /* ty=fn (Tensor[(1), float16]) -> Tensor[(50), float16] span=from_string:55:92 */;
  let %x_13: Tensor[(50), float16] /* ty=Tensor[(50), float16] span=from_string:69:463 */ = %12(%x_7) /* ty=Tensor[(50), float16] span=from_string:55:92 */;
  %13 = fn (%p011: Tensor[(3, 1), float32] /* ty=Tensor[(3, 1), float32] span=from_string:57:18 */, Primitive=1) -> Tensor[(3, 55), float32] {
    broadcast_to(%p011, shape=[3, 55]) /* ty=Tensor[(3, 55), float32] span=from_string:57:5 */
  } /* ty=fn (Tensor[(3, 1), float32]) -> Tensor[(3, 55), float32] span=from_string:59:98 */;
  let %x_14: Tensor[(3, 55), float32] /* ty=Tensor[(3, 55), float32] span=from_string:69:470 */ = %13(%x_9) /* ty=Tensor[(3, 55), float32] span=from_string:59:98 */;
  let %x_15: Tensor[(2), int32] /* ty=Tensor[(2), int32] span=from_string:68:92 */ = meta[relay.Constant][1] /* ty=Tensor[(2), int32] span=from_string:60:93 */;
  %14 = fn (%p012: float32 /* ty=float32 span=from_string:62:10 */, Primitive=1) -> float16 {
    cast(%p012, dtype="float16") /* ty=float16 span=from_string:62:5 */
  } /* ty=fn (float32) -> float16 span=from_string:64:64 */;
  let %x_16: float16 /* ty=float16 span=from_string:68:99 */ = %14(%x5) /* ty=float16 span=from_string:64:64 */;
  %15 = fn (%p013: Tensor[(2), int32] /* ty=Tensor[(2), int32] span=from_string:66:15 */, %p13: float16 /* ty=float16 span=from_string:66:22 */, Primitive=1) -> Tensor[(2), int32] {
    full(%p13, shape=[2], dtype="int32") /* ty=Tensor[(2), int32] */
  } /* ty=fn (Tensor[(2), int32], float16) -> Tensor[(2), int32] span=from_string:68:88 */;
  let %x_17: Tensor[(2), int32] /* ty=Tensor[(2), int32] span=from_string:69:477 */ = %15(%x_15, %x_16) /* ty=Tensor[(2), int32] span=from_string:68:88 */;
  let %x_18: (Tensor[(3, 3), float16], Tensor[(3, 3), float16], Tensor[(3, 1), float32], Tensor[(2), int32], Tensor[(3, 1), float32], Tensor[(50), float16], Tensor[(3, 55), float32], Tensor[(2), int32]) /* ty=(Tensor[(3, 3), float16], Tensor[(3, 3), float16], Tensor[(3, 1), float32], Tensor[(2), int32], Tensor[(3, 1), float32], Tensor[(50), float16], Tensor[(3, 55), float32], Tensor[(2), int32]) span=from_string:70:3 */ = (%x_1, %x_2, %x_5, %x_6, %x_12, %x_13, %x_14, %x_17) /* ty=(Tensor[(3, 3), float16], Tensor[(3, 3), float16], Tensor[(3, 1), float32], Tensor[(2), int32], Tensor[(3, 1), float32], Tensor[(50), float16], Tensor[(3, 55), float32], Tensor[(2), int32]) span=from_string:69:431 */;
  %x_18
}

#[metadata]
{
  "root": 1, 
  "nodes": [
    {
      "type_key": ""
    }, 
    {
      "type_key": "Map", 
      "keys": [
        "relay.Constant"
      ], 
      "data": [2]
    }, 
    {
      "type_key": "Array", 
      "data": [3, 11]
    }, 
    {
      "type_key": "relay.Constant", 
      "attrs": {
        "_checked_type_": "8", 
        "data": "0", 
        "span": "6", 
        "virtual_device_": "4"
      }
    }, 
    {
      "type_key": "VirtualDevice", 
      "attrs": {
        "device_type_int": "-1", 
        "memory_scope": "5", 
        "target": "0", 
        "virtual_device_id": "-1"
      }
    }, 
    {
      "type_key": "runtime.String"
    }, 
    {
      "type_key": "Span", 
      "attrs": {
        "column": "92", 
        "end_column": "110", 
        "end_line": "27", 
        "line": "27", 
        "source_name": "7"
      }
    }, 
    {
      "type_key": "SourceName", 
      "repr_str": "from_string"
    }, 
    {
      "type_key": "relay.TensorType", 
      "attrs": {
        "dtype": "int32", 
        "shape": "9", 
        "span": "0"
      }
    }, 
    {
      "type_key": "Array", 
      "data": [10]
    }, 
    {
      "type_key": "IntImm", 
      "attrs": {
        "dtype": "int32", 
        "span": "0", 
        "value": "2"
      }
    }, 
    {
      "type_key": "relay.Constant", 
      "attrs": {
        "_checked_type_": "13", 
        "data": "1", 
        "span": "12", 
        "virtual_device_": "4"
      }
    }, 
    {
      "type_key": "Span", 
      "attrs": {
        "column": "93", 
        "end_column": "111", 
        "end_line": "60", 
        "line": "60", 
        "source_name": "7"
      }
    }, 
    {
      "type_key": "relay.TensorType", 
      "attrs": {
        "dtype": "int32", 
        "shape": "14", 
        "span": "0"
      }
    }, 
    {
      "type_key": "Array", 
      "data": [15]
    }, 
    {
      "type_key": "IntImm", 
      "attrs": {
        "dtype": "int32", 
        "span": "0", 
        "value": "2"
      }
    }
  ], 
  "b64ndarrays": [
    "P6G0lvBAXt0AAAAAAAAAAAEAAAAAAAAAAQAAAAAgAQACAAAAAAAAAAgAAAAAAAAAAwAAAAMAAAA=", 
    "P6G0lvBAXt0AAAAAAAAAAAEAAAAAAAAAAQAAAAAgAQACAAAAAAAAAAgAAAAAAAAAAwAAADcAAAA="
  ], 
  "attrs": {"tvm_version": "0.13.0"}
}