#[version = "0.0.5"]
def @main(%x0: Tensor[(3, 1), float32] /* ty=Tensor[(3, 1), float32] span=from_string:57:12 */, %x1: Tensor[(3, 3), float32] /* ty=Tensor[(3, 3), float32] */, %x2: Tensor[(3, 1), float32] /* ty=Tensor[(3, 1), float32] span=from_string:19:12 */, %x3: Tensor[(50), float32] /* ty=Tensor[(50), float32] */, %x4: Tensor[(3, 55), float32] /* ty=Tensor[(3, 55), float32] */, %x5: float32 /* ty=float32 span=from_string:63:13 */) -> (Tensor[(3, 3), float16], Tensor[(3, 3), float16], Tensor[(3, 1), float16], Tensor[(2), int32], Tensor[(3, 1), float16], Tensor[(50), float16], Tensor[(3, 55), float16], Tensor[(2), int32]) {
  let %x_0 = fn (%p0: Tensor[(3, 1), float32] /* ty=Tensor[(3, 1), float32] span=from_string:4:15 */, Primitive=1) -> Tensor[(3, 3), float16] {
    %0 = cast(%p0, dtype="float16") /* ty=Tensor[(3, 1), float16] span=from_string:5:15 */;
    %1 = cast(%0, dtype="float16") /* ty=Tensor[(3, 1), float16] span=from_string:6:18 */;
    broadcast_to(%1, shape=[3, 3], dtype="float16") /* ty=Tensor[(3, 3), float16] span=from_string:4:5 */
  } /* ty=fn (Tensor[(3, 1), float32]) -> Tensor[(3, 3), float16] span=from_string:57:9 */;
  let %x_1 = %x_0(%x0);
  let %x_2 = fn (Primitive=1) -> Tensor[(3, 3), float16] {
    ones(shape=[3, 3], dtype="float16") /* ty=Tensor[(3, 3), float16] span=from_string:9:5 */
  } /* ty=fn () -> Tensor[(3, 3), float16] span=from_string:58:9 */;
  let %x_3 = %x_2();
  let %x_4 = fn (%p01: Tensor[(3, 1), float32] /* ty=Tensor[(3, 1), float32] span=from_string:12:9 */, Primitive=1) -> Tensor[(3, 1), float32] {
    erf(%p01) /* ty=Tensor[(3, 1), float32] span=from_string:12:5 */
  } /* ty=fn (Tensor[(3, 1), float32]) -> Tensor[(3, 1), float32] span=from_string:18:8 */;
  let %x_5 = %x_4(%x0);
  let %x_6 = fn (%p03: Tensor[(3, 1), float32] /* ty=Tensor[(3, 1), float32] span=from_string:15:15 */, Primitive=1) -> Tensor[(3, 1), float16] {
    %2 = cast(%p03, dtype="float16") /* ty=Tensor[(3, 1), float16] span=from_string:16:10 */;
    cast(%2, dtype="float16") /* ty=Tensor[(3, 1), float16] span=from_string:15:5 */
  } /* ty=fn (Tensor[(3, 1), float32]) -> Tensor[(3, 1), float16] span=from_string:19:9 */;
  let %x_7 = %x_6(%x2);
  let %x_8 = fn (%p02: Tensor[(3, 1), float32] /* ty=Tensor[(3, 1), float32] span=from_string:21:15 */, %p1: Tensor[(3, 1), float16] /* ty=Tensor[(3, 1), float16] span=from_string:23:18 */, Primitive=1) -> Tensor[(3, 1), float16] {
    %3 = cast(%p02, dtype="float16") /* ty=Tensor[(3, 1), float16] span=from_string:22:15 */;
    %4 = cast(%3, dtype="float16") /* ty=Tensor[(3, 1), float16] span=from_string:23:14 */;
    subtract(%4, %p1) /* ty=Tensor[(3, 1), float16] span=from_string:21:5 */
  } /* ty=fn (Tensor[(3, 1), float32], Tensor[(3, 1), float16]) -> Tensor[(3, 1), float16] span=from_string:25:9 */;
  let %x_9 = %x_8(%x_5, %x_7);
  let %x_10 = fn (%p04: Tensor[(3, 1), float16] /* ty=Tensor[(3, 1), float16] span=from_string:27:15 */, %p11: Tensor[(3, 1), float16] /* ty=Tensor[(3, 1), float16] span=from_string:27:21 */, Primitive=1) -> Tensor[(3, 1), float16] {
    multiply(%p04, %p11) /* ty=Tensor[(3, 1), float16] span=from_string:27:6 */
  } /* ty=fn (Tensor[(3, 1), float16], Tensor[(3, 1), float16]) -> Tensor[(3, 1), float16] span=from_string:59:9 */;
  let %x_11 = %x_10(%x_9, %x_7);
  let %x_12 = meta[relay.Constant][0] /* ty=Tensor[(2), int32] span=from_string:64:24 */;
  let %x_13 = fn (Primitive=1) -> Tensor[(1), float16] {
    ones(shape=[1], dtype="float16") /* ty=Tensor[(1), float16] span=from_string:30:5 */
  } /* ty=fn () -> Tensor[(1), float16] span=from_string:32:9 */;
  let %x_14 = %x_13();
  let %x_15 = fn (%p05: Tensor[(1), float16] /* ty=Tensor[(1), float16] span=from_string:34:15 */, %p12: Tensor[(3, 1), float16] /* ty=Tensor[(3, 1), float16] span=from_string:34:21 */, Primitive=1) -> Tensor[(3, 1), float16] {
    multiply(%p05, %p12) /* ty=Tensor[(3, 1), float16] span=from_string:34:6 */
  } /* ty=fn (Tensor[(1), float16], Tensor[(3, 1), float16]) -> Tensor[(3, 1), float16] span=from_string:36:9 */;
  let %x_16 = %x_15(%x_14, %x_9);
  let %x_17 = fn (%p06: Tensor[(3, 1), float16] /* ty=Tensor[(3, 1), float16] span=from_string:38:10 */, Primitive=1) -> Tensor[(3, 1), bfloat16] {
    cast(%p06, dtype="bfloat16") /* ty=Tensor[(3, 1), bfloat16] span=from_string:38:5 */
  } /* ty=fn (Tensor[(3, 1), float16]) -> Tensor[(3, 1), bfloat16] span=from_string:40:9 */;
  let %x_18 = %x_17(%x_16);
  let %x_19 = fn (%p07: Tensor[(3, 1), bfloat16] /* ty=Tensor[(3, 1), bfloat16] span=from_string:42:16 */, Primitive=1) -> Tensor[(3, 1), float16] {
    %5 = cast(%p07, dtype="float16") /* ty=Tensor[(3, 1), float16] span=from_string:43:16 */;
    %6 = cast(%5, dtype="float16") /* ty=Tensor[(3, 1), float16] span=from_string:44:10 */;
    clip(%6, a_min=-0.2f, a_max=0.4f) /* ty=Tensor[(3, 1), float16] span=from_string:42:5 */
  } /* ty=fn (Tensor[(3, 1), bfloat16]) -> Tensor[(3, 1), float16] span=from_string:60:9 */;
  let %x_20 = %x_19(%x_18);
  let %x_21 = fn (%p08: Tensor[(1), float16] /* ty=Tensor[(1), float16] span=from_string:47:18 */, Primitive=1) -> Tensor[(50), float16] {
    broadcast_to(%p08, shape=[50], dtype="float16") /* ty=Tensor[(50), float16] span=from_string:47:5 */
  } /* ty=fn (Tensor[(1), float16]) -> Tensor[(50), float16] span=from_string:61:9 */;
  let %x_22 = %x_21(%x_14);
  let %x_23 = fn (%p09: Tensor[(3, 1), float16] /* ty=Tensor[(3, 1), float16] span=from_string:50:18 */, Primitive=1) -> Tensor[(3, 55), float16] {
    broadcast_to(%p09, shape=[3, 55], dtype="float16") /* ty=Tensor[(3, 55), float16] span=from_string:50:5 */
  } /* ty=fn (Tensor[(3, 1), float16]) -> Tensor[(3, 55), float16] span=from_string:62:9 */;
  let %x_24 = %x_23(%x_16);
  let %x_25 = fn (%p010: float32 /* ty=float32 span=from_string:53:16 */, Primitive=1) -> Tensor[(2), int32] {
    %7 = cast(%p010, dtype="float16") /* ty=float16 span=from_string:54:16 */;
    %8 = cast(%7, dtype="float16") /* ty=float16 span=from_string:55:10 */;
    full(%8, shape=[2], dtype="int32") /* ty=Tensor[(2), int32] span=from_string:53:5 */
  } /* ty=fn (float32) -> Tensor[(2), int32] span=from_string:63:9 */;
  let %x_26 = %x_25(%x5);
  let %x_27 = (%x_1, %x_3, %x_11, %x_12, %x_20, %x_22, %x_24, %x_26) /* ty=(Tensor[(3, 3), float16], Tensor[(3, 3), float16], Tensor[(3, 1), float16], Tensor[(2), int32], Tensor[(3, 1), float16], Tensor[(50), float16], Tensor[(3, 55), float16], Tensor[(2), int32]) span=from_string:3:3 */;
  %x_27
}

#[metadata]
{
  "root": 1, 
  "nodes": [
    {
      "type_key": ""
    }, 
    {
      "type_key": "Map", 
      "keys": [
        "relay.Constant"
      ], 
      "data": [2]
    }, 
    {
      "type_key": "Array", 
      "data": [3]
    }, 
    {
      "type_key": "relay.Constant", 
      "attrs": {
        "_checked_type_": "8", 
        "data": "0", 
        "span": "6", 
        "virtual_device_": "4"
      }
    }, 
    {
      "type_key": "VirtualDevice", 
      "attrs": {
        "device_type_int": "-1", 
        "memory_scope": "5", 
        "target": "0", 
        "virtual_device_id": "-1"
      }
    }, 
    {
      "type_key": "runtime.String"
    }, 
    {
      "type_key": "Span", 
      "attrs": {
        "column": "24", 
        "end_column": "42", 
        "end_line": "64", 
        "line": "64", 
        "source_name": "7"
      }
    }, 
    {
      "type_key": "SourceName", 
      "repr_str": "from_string"
    }, 
    {
      "type_key": "relay.TensorType", 
      "attrs": {
        "dtype": "int32", 
        "shape": "9", 
        "span": "11"
      }
    }, 
    {
      "type_key": "Array", 
      "data": [10]
    }, 
    {
      "type_key": "IntImm", 
      "attrs": {
        "dtype": "int32", 
        "span": "0", 
        "value": "2"
      }
    }, 
    {
      "type_key": "Span", 
      "attrs": {
        "column": "504", 
        "end_column": "524", 
        "end_line": "2", 
        "line": "2", 
        "source_name": "7"
      }
    }
  ], 
  "b64ndarrays": [
    "P6G0lvBAXt0AAAAAAAAAAAEAAAAAAAAAAQAAAAAgAQACAAAAAAAAAAgAAAAAAAAAAwAAAAMAAAA="
  ], 
  "attrs": {"tvm_version": "0.13.0"}
}