#[version = "0.0.5"]
def @main(%x0: Tensor[(3, 1), float32] /* ty=Tensor[(3, 1), float32] span=from_string:7:18 */, %x1: Tensor[(3, 3), float32] /* ty=Tensor[(3, 3), float32] */, %x2: Tensor[(3, 1), float32] /* ty=Tensor[(3, 1), float32] span=from_string:9:19 */, %x3: Tensor[(50), float32] /* ty=Tensor[(50), float32] */, %x4: Tensor[(3, 55), float32] /* ty=Tensor[(3, 55), float32] */, %x5: float32 /* ty=float32 span=from_string:22:20 */) -> (Tensor[(3, 3), float16], Tensor[(3, 3), float16], Tensor[(3, 1), float16], Tensor[(2), int32], Tensor[(3, 1), float16], Tensor[(50), float16], Tensor[(3, 55), float16], Tensor[(2), int32]) {
  let %x_0: Tensor[(3, 1), float16] /* ty=Tensor[(3, 1), float16] span=from_string:4:19 */ = cast(%x0, dtype="float16") /* ty=Tensor[(3, 1), float16] span=from_string:3:14 */;
  let %x_1: Tensor[(3, 1), float16] /* ty=Tensor[(3, 1), float16] span=from_string:5:27 */ = cast(%x_0, dtype="float16") /* ty=Tensor[(3, 1), float16] span=from_string:4:14 */;
  let %x_2: Tensor[(3, 3), float16] /* ty=Tensor[(3, 3), float16] span=from_string:25:16 */ = broadcast_to(%x_1, shape=[3, 3], dtype="float16") /* ty=Tensor[(3, 3), float16] span=from_string:5:14 */;
  let %x_3: Tensor[(3, 3), float16] /* ty=Tensor[(3, 3), float16] span=from_string:25:22 */ = ones(shape=[3, 3], dtype="float16") /* ty=Tensor[(3, 3), float16] span=from_string:6:14 */;
  let %x_4: Tensor[(3, 1), float32] /* ty=Tensor[(3, 1), float32] span=from_string:8:19 */ = erf(%x0) /* ty=Tensor[(3, 1), float32] span=from_string:7:14 */;
  let %x_5: Tensor[(3, 1), float16] /* ty=Tensor[(3, 1), float16] span=from_string:11:23 */ = cast(%x_4, dtype="float16") /* ty=Tensor[(3, 1), float16] span=from_string:8:14 */;
  let %x_6: Tensor[(3, 1), float16] /* ty=Tensor[(3, 1), float16] span=from_string:10:19 */ = cast(%x2, dtype="float16") /* ty=Tensor[(3, 1), float16] span=from_string:9:14 */;
  let %x_7: Tensor[(3, 1), float16] /* ty=Tensor[(3, 1), float16] span=from_string:12:30 */ = cast(%x_6, dtype="float16") /* ty=Tensor[(3, 1), float16] span=from_string:10:14 */;
  let %x_8: Tensor[(3, 1), float16] /* ty=Tensor[(3, 1), float16] span=from_string:15:32 */ = subtract(%x_5, %x_7) /* ty=Tensor[(3, 1), float16] span=from_string:11:14 */;
  let %x_9: Tensor[(3, 1), float16] /* ty=Tensor[(3, 1), float16] span=from_string:25:28 */ = multiply(%x_8, %x_7) /* ty=Tensor[(3, 1), float16] span=from_string:12:15 */;
  let %x_11: Tensor[(1), float16] /* ty=Tensor[(1), float16] span=from_string:20:28 */ = ones(shape=[1], dtype="float16") /* ty=Tensor[(1), float16] span=from_string:14:15 */;
  let %x_12: Tensor[(3, 1), float16] /* ty=Tensor[(3, 1), float16] span=from_string:21:28 */ = multiply(%x_11, %x_8) /* ty=Tensor[(3, 1), float16] span=from_string:15:16 */;
  let %x_13: Tensor[(3, 1), bfloat16] /* ty=Tensor[(3, 1), bfloat16] span=from_string:17:20 */ = cast(%x_12, dtype="bfloat16") /* ty=Tensor[(3, 1), bfloat16] span=from_string:16:15 */;
  let %x_14: Tensor[(3, 1), float32] /* ty=Tensor[(3, 1), float32] span=from_string:18:20 */ = cast(%x_13, dtype="float32") /* ty=Tensor[(3, 1), float32] span=from_string:17:15 */;
  let %x_15: Tensor[(3, 1), float16] /* ty=Tensor[(3, 1), float16] span=from_string:19:20 */ = cast(%x_14, dtype="float16") /* ty=Tensor[(3, 1), float16] span=from_string:18:15 */;
  let %x_16: Tensor[(3, 1), float16] /* ty=Tensor[(3, 1), float16] span=from_string:25:41 */ = clip(%x_15, a_min=-0.2f, a_max=0.4f) /* ty=Tensor[(3, 1), float16] span=from_string:19:15 */;
  let %x_17: Tensor[(50), float16] /* ty=Tensor[(50), float16] span=from_string:25:48 */ = broadcast_to(%x_11, shape=[50], dtype="float16") /* ty=Tensor[(50), float16] span=from_string:20:15 */;
  let %x_18: Tensor[(3, 55), float16] /* ty=Tensor[(3, 55), float16] span=from_string:25:55 */ = broadcast_to(%x_12, shape=[3, 55], dtype="float16") /* ty=Tensor[(3, 55), float16] span=from_string:21:15 */;
  let %x_19: float16 /* ty=float16 span=from_string:23:20 */ = cast(%x5, dtype="float16") /* ty=float16 span=from_string:22:15 */;
  let %x_20: float16 /* ty=float16 span=from_string:24:20 */ = cast(%x_19, dtype="float16") /* ty=float16 span=from_string:23:15 */;
  let %x_21: Tensor[(2), int32] /* ty=Tensor[(2), int32] span=from_string:25:62 */ = full(%x_20, shape=[2], dtype="int32") /* ty=Tensor[(2), int32] span=from_string:24:15 */;
  let %x_22: (Tensor[(3, 3), float16], Tensor[(3, 3), float16], Tensor[(3, 1), float16], Tensor[(2), int32], Tensor[(3, 1), float16], Tensor[(50), float16], Tensor[(3, 55), float16], Tensor[(2), int32]) /* ty=(Tensor[(3, 3), float16], Tensor[(3, 3), float16], Tensor[(3, 1), float16], Tensor[(2), int32], Tensor[(3, 1), float16], Tensor[(50), float16], Tensor[(3, 55), float16], Tensor[(2), int32]) span=from_string:26:3 */ = (%x_2, %x_3, %x_9, meta[relay.Constant][0] /* ty=Tensor[(2), int32] span=from_string:13:20 */, %x_16, %x_17, %x_18, %x_21) /* ty=(Tensor[(3, 3), float16], Tensor[(3, 3), float16], Tensor[(3, 1), float16], Tensor[(2), int32], Tensor[(3, 1), float16], Tensor[(50), float16], Tensor[(3, 55), float16], Tensor[(2), int32]) span=from_string:25:15 */;
  %x_22
}

#[metadata]
{
  "root": 1, 
  "nodes": [
    {
      "type_key": ""
    }, 
    {
      "type_key": "Map", 
      "keys": [
        "relay.Constant"
      ], 
      "data": [2]
    }, 
    {
      "type_key": "Array", 
      "data": [3]
    }, 
    {
      "type_key": "relay.Constant", 
      "attrs": {
        "_checked_type_": "8", 
        "data": "0", 
        "span": "6", 
        "virtual_device_": "4"
      }
    }, 
    {
      "type_key": "VirtualDevice", 
      "attrs": {
        "device_type_int": "-1", 
        "memory_scope": "5", 
        "target": "0", 
        "virtual_device_id": "-1"
      }
    }, 
    {
      "type_key": "runtime.String"
    }, 
    {
      "type_key": "Span", 
      "attrs": {
        "column": "20", 
        "end_column": "38", 
        "end_line": "13", 
        "line": "13", 
        "source_name": "7"
      }
    }, 
    {
      "type_key": "SourceName", 
      "repr_str": "from_string"
    }, 
    {
      "type_key": "relay.TensorType", 
      "attrs": {
        "dtype": "int32", 
        "shape": "9", 
        "span": "0"
      }
    }, 
    {
      "type_key": "Array", 
      "data": [10]
    }, 
    {
      "type_key": "IntImm", 
      "attrs": {
        "dtype": "int32", 
        "span": "0", 
        "value": "2"
      }
    }
  ], 
  "b64ndarrays": [
    "P6G0lvBAXt0AAAAAAAAAAAEAAAAAAAAAAQAAAAAgAQACAAAAAAAAAAgAAAAAAAAAAwAAAAMAAAA="
  ], 
  "attrs": {"tvm_version": "0.13.0"}
}