#[version = "0.0.5"]
def @main(%x0: Tensor[(1, 64, 56, 56), float32] /* ty=Tensor[(1, 64, 56, 56), float32] span=from_string:5:13 */, %x1: Tensor[(64, 64, 3, 3), float32] /* ty=Tensor[(64, 64, 3, 3), float32] span=from_string:26:10 */, %x2: Tensor[(4096, 3, 3), float32] /* ty=Tensor[(4096, 3, 3), float32] */, %x3: Tensor[(1, 64, 56, 56), float32] /* ty=Tensor[(1, 64, 56, 56), float32] */, %x4: float32 /* ty=float32 span=from_string:25:14 */, %x5: Tensor[(4, 64, 3, 3), float32] /* ty=Tensor[(4, 64, 3, 3), float32] span=from_string:26:15 */) -> (Tensor[(1, 128, 56, 56), float16], float32, Tensor[(64, 64, 3, 3), float16], Tensor[(64, 64, 3, 3), float16], Tensor[(1, 64, 56, 56), float16], Tensor[(4), int32], Tensor[(68, 64, 3, 3), float32], bool) {
  %0 = cast(%x1, dtype="float16") /* ty=Tensor[(64, 64, 3, 3), float16] span=from_string:6:18 */;
  %1 = cast(2f /* ty=float32 span=from_string:4:15 */, dtype="float16") /* ty=float16 span=from_string:6:22 */;
  %2 = cast(%x0, dtype="float16") /* ty=Tensor[(1, 64, 56, 56), float16] span=from_string:8:18 */;
  %3 = multiply(%0, %1) /* ty=Tensor[(64, 64, 3, 3), float16] span=from_string:18:17 */;
  %4 = cast(0f /* ty=float32 span=from_string:7:15 */, dtype="float16") /* ty=float16 span=from_string:9:12 */;
  %5 = nn.conv2d(%2, %3, padding=[1, 1, 1, 1], channels=64, kernel_size=[3, 3], out_dtype="float16") /* ty=Tensor[(1, 64, 56, 56), float16] span=from_string:9:16 */;
  %6 = add(%4, %5) /* ty=Tensor[(1, 64, 56, 56), float16] span=from_string:10:16 */;
  %7 = nn.relu(%6) /* ty=Tensor[(1, 64, 56, 56), float16] span=from_string:13:14 */;
  %8 = nn.max_pool2d(%7, pool_size=[2, 2], strides=[2, 2], padding=[0, 0, 0, 0]) /* ty=Tensor[(1, 64, 28, 28), float16] span=from_string:12:22 */;
  %9 = nn.upsampling(%8, scale_h=2f, scale_w=2f) /* ty=Tensor[(1, 64, 56, 56), float16] span=from_string:23:26 */;
  %10 = (%9, %7) /* ty=(Tensor[(1, 64, 56, 56), float16], Tensor[(1, 64, 56, 56), float16]) span=from_string:14:21 */;
  %11 = concatenate(%10, axis=1) /* ty=Tensor[(1, 128, 56, 56), float16] span=from_string:27:13 */;
  %12 = cast(1f /* ty=float32 span=from_string:15:16 */, dtype="float16") /* ty=float16 span=from_string:27:18 */;
  %13 = nn.relu(%3) /* ty=Tensor[(64, 64, 3, 3), float16] span=from_string:22:17 */;
  %14 = add(%13, %12) /* ty=Tensor[(64, 64, 3, 3), float16] span=from_string:28:13 */;
  %15 = reshape(%13, newshape=[4096, 3, 3]) /* ty=Tensor[(4096, 3, 3), float16] span=from_string:29:17 */;
  %16 = layout_transform(%9, src_layout="NCHW", dst_layout="NHWC") /* ty=Tensor[(1, 56, 56, 64), float16] span=from_string:24:26 */;
  %17 = layout_transform(%16, src_layout="NHWC", dst_layout="NCHW") /* ty=Tensor[(1, 64, 56, 56), float16] span=from_string:30:17 */;
  %18 = cast(%x4, dtype="float16") /* ty=float16 span=from_string:31:95 */;
  %19 = (%x1, %x5) /* ty=(Tensor[(64, 64, 3, 3), float32], Tensor[(4, 64, 3, 3), float32]) span=from_string:32:21 */;
  %20 = add(%11, %12) /* ty=Tensor[(1, 128, 56, 56), float16] span=from_string:33:4 */;
  %21 = add(%14, %14) /* ty=Tensor[(64, 64, 3, 3), float16] span=from_string:33:53 */;
  %22 = reshape(%15, newshape=[64, 64, 3, 3]) /* ty=Tensor[(64, 64, 3, 3), float16] span=from_string:33:58 */;
  %23 = nn.relu(%17) /* ty=Tensor[(1, 64, 56, 56), float16] span=from_string:33:63 */;
  %24 = full_like(meta[relay.Constant][0] /* ty=Tensor[(4), int32] span=from_string:31:24 */, %18) /* ty=Tensor[(4), int32] span=from_string:33:68 */;
  %25 = concatenate(%19) /* ty=Tensor[(68, 64, 3, 3), float32] span=from_string:33:73 */;
  (%20, 2f /* ty=float32 span=from_string:33:11 */, %21, %22, %23, %24, %25, False /* ty=bool span=from_string:33:78 */) /* ty=(Tensor[(1, 128, 56, 56), float16], float32, Tensor[(64, 64, 3, 3), float16], Tensor[(64, 64, 3, 3), float16], Tensor[(1, 64, 56, 56), float16], Tensor[(4), int32], Tensor[(68, 64, 3, 3), float32], bool) span=from_string:3:3 */
}

#[metadata]
{
  "root": 1, 
  "nodes": [
    {
      "type_key": ""
    }, 
    {
      "type_key": "Map", 
      "keys": [
        "relay.Constant"
      ], 
      "data": [2]
    }, 
    {
      "type_key": "Array", 
      "data": [3]
    }, 
    {
      "type_key": "relay.Constant", 
      "attrs": {
        "_checked_type_": "8", 
        "data": "0", 
        "span": "6", 
        "virtual_device_": "4"
      }
    }, 
    {
      "type_key": "VirtualDevice", 
      "attrs": {
        "device_type_int": "-1", 
        "memory_scope": "5", 
        "target": "0", 
        "virtual_device_id": "-1"
      }
    }, 
    {
      "type_key": "runtime.String"
    }, 
    {
      "type_key": "Span", 
      "attrs": {
        "column": "24", 
        "end_column": "42", 
        "end_line": "31", 
        "line": "31", 
        "source_name": "7"
      }
    }, 
    {
      "type_key": "SourceName", 
      "repr_str": "from_string"
    }, 
    {
      "type_key": "relay.TensorType", 
      "attrs": {
        "dtype": "int32", 
        "shape": "9", 
        "span": "0"
      }
    }, 
    {
      "type_key": "Array", 
      "data": [10]
    }, 
    {
      "type_key": "IntImm", 
      "attrs": {
        "dtype": "int32", 
        "span": "0", 
        "value": "4"
      }
    }
  ], 
  "b64ndarrays": [
    "P6G0lvBAXt0AAAAAAAAAAAEAAAAAAAAAAQAAAAAgAQAEAAAAAAAAABAAAAAAAAAAQAAAAEAAAAADAAAAAwAAAA=="
  ], 
  "attrs": {"tvm_version": "0.13.0"}
}