#[version = "0.0.5"]
def @main(%x0: Tensor[(1, 64, 56, 56), float32] /* ty=Tensor[(1, 64, 56, 56), float32] span=from_string:4:127 */, %x1: Tensor[(64, 64, 3, 3), float32] /* ty=Tensor[(64, 64, 3, 3), float32] span=from_string:23:186 */, %x2: Tensor[(4096, 3, 3), float32] /* ty=Tensor[(4096, 3, 3), float32] */, %x3: Tensor[(1, 64, 56, 56), float32] /* ty=Tensor[(1, 64, 56, 56), float32] */, %x4: float32 /* ty=float32 span=from_string:22:98 */, %x5: Tensor[(4, 64, 3, 3), float32] /* ty=Tensor[(4, 64, 3, 3), float32] span=from_string:23:191 */) -> (Tensor[(1, 128, 56, 56), float32], float32, Tensor[(64, 64, 3, 3), float32], Tensor[(64, 64, 3, 3), float32], Tensor[(1, 64, 56, 56), float32], Tensor[(4), int32], Tensor[(68, 64, 3, 3), float32], bool) {
  let %x_2: Tensor[(64, 64, 3, 3), float32] /* ty=Tensor[(64, 64, 3, 3), float32] span=from_string:14:125 */ = multiply(%x1, 2f /* ty=float32 span=from_string:3:133 */) /* ty=Tensor[(64, 64, 3, 3), float32] span=from_string:3:117 */;
  let %x_3: Tensor[(1, 64, 56, 56), float32] /* ty=Tensor[(1, 64, 56, 56), float32] span=from_string:5:117 */ = nn.conv2d(%x0, %x_2, padding=[1, 1, 1, 1], channels=64, kernel_size=[3, 3]) /* ty=Tensor[(1, 64, 56, 56), float32] span=from_string:4:117 */;
  let %x_4: Tensor[(1, 64, 56, 56), float32] /* ty=Tensor[(1, 64, 56, 56), float32] span=from_string:6:125 */ = %x_3;
  let %x_5: Tensor[(1, 64, 56, 56), float32] /* ty=Tensor[(1, 64, 56, 56), float32] span=from_string:9:197 */ = nn.relu(%x_4) /* ty=Tensor[(1, 64, 56, 56), float32] span=from_string:6:117 */;
  let %x_6: Tensor[(1, 64, 28, 28), float32] /* ty=Tensor[(1, 64, 28, 28), float32] span=from_string:8:132 */ = nn.max_pool2d(%x_5, pool_size=[2, 2], strides=[2, 2], padding=[0, 0, 0, 0]) /* ty=Tensor[(1, 64, 28, 28), float32] span=from_string:7:117 */;
  let %x_7: Tensor[(1, 64, 56, 56), float32] /* ty=Tensor[(1, 64, 56, 56), float32] span=from_string:19:136 */ = nn.upsampling(%x_6, scale_h=2f, scale_w=2f) /* ty=Tensor[(1, 64, 56, 56), float32] span=from_string:8:118 */;
  let %x_8: (Tensor[(1, 64, 56, 56), float32], Tensor[(1, 64, 56, 56), float32]) /* ty=(Tensor[(1, 64, 56, 56), float32], Tensor[(1, 64, 56, 56), float32]) span=from_string:10:132 */ = (%x_7, %x_5) /* ty=(Tensor[(1, 64, 56, 56), float32], Tensor[(1, 64, 56, 56), float32]) span=from_string:9:190 */;
  let %x_9: Tensor[(1, 128, 56, 56), float32] /* ty=Tensor[(1, 128, 56, 56), float32] span=from_string:11:125 */ = concatenate(%x_8, axis=1) /* ty=Tensor[(1, 128, 56, 56), float32] span=from_string:10:120 */;
  let %x_11: Tensor[(1, 128, 56, 56), float32] /* ty=Tensor[(1, 128, 56, 56), float32] span=from_string:25:462 */ = add(%x_9, 1f /* ty=float32 span=from_string:11:133 */) /* ty=Tensor[(1, 128, 56, 56), float32] span=from_string:11:121 */;
  let %x_13: Tensor[(64, 64, 3, 3), float32] /* ty=Tensor[(64, 64, 3, 3), float32] span=from_string:17:121 */ = nn.relu(%x_2) /* ty=Tensor[(64, 64, 3, 3), float32] span=from_string:12:117 */;
  let %x_15: Tensor[(64, 64, 3, 3), float32] /* ty=Tensor[(64, 64, 3, 3), float32] span=from_string:16:121 */ = add(%x_13, 1f /* ty=float32 span=from_string:13:130 */) /* ty=Tensor[(64, 64, 3, 3), float32] span=from_string:13:117 */;
  let %x_16: Tensor[(64, 64, 3, 3), float32] /* ty=Tensor[(64, 64, 3, 3), float32] span=from_string:15:121 */ = nn.relu(%x_2) /* ty=Tensor[(64, 64, 3, 3), float32] span=from_string:14:117 */;
  let %x_18: Tensor[(64, 64, 3, 3), float32] /* ty=Tensor[(64, 64, 3, 3), float32] span=from_string:16:128 */ = add(%x_16, 1f /* ty=float32 span=from_string:15:130 */) /* ty=Tensor[(64, 64, 3, 3), float32] span=from_string:15:117 */;
  let %x_19: Tensor[(64, 64, 3, 3), float32] /* ty=Tensor[(64, 64, 3, 3), float32] span=from_string:25:518 */ = add(%x_15, %x_18) /* ty=Tensor[(64, 64, 3, 3), float32] span=from_string:16:117 */;
  let %x_20: Tensor[(4096, 3, 3), float32] /* ty=Tensor[(4096, 3, 3), float32] span=from_string:18:125 */ = reshape(%x_13, newshape=[4096, 3, 3]) /* ty=Tensor[(4096, 3, 3), float32] span=from_string:17:113 */;
  let %x_21: Tensor[(64, 64, 3, 3), float32] /* ty=Tensor[(64, 64, 3, 3), float32] span=from_string:25:525 */ = reshape(%x_20, newshape=[64, 64, 3, 3]) /* ty=Tensor[(64, 64, 3, 3), float32] span=from_string:18:117 */;
  let %x_22: Tensor[(1, 56, 56, 64), float32] /* ty=Tensor[(1, 56, 56, 64), float32] span=from_string:20:136 */ = layout_transform(%x_7, src_layout="NCHW", dst_layout="NHWC") /* ty=Tensor[(1, 56, 56, 64), float32] span=from_string:19:119 */;
  let %x_23: Tensor[(1, 64, 56, 56), float32] /* ty=Tensor[(1, 64, 56, 56), float32] span=from_string:21:127 */ = layout_transform(%x_22, src_layout="NHWC", dst_layout="NCHW") /* ty=Tensor[(1, 64, 56, 56), float32] span=from_string:20:119 */;
  let %x_24: Tensor[(1, 64, 56, 56), float32] /* ty=Tensor[(1, 64, 56, 56), float32] span=from_string:25:532 */ = nn.relu(%x_23) /* ty=Tensor[(1, 64, 56, 56), float32] span=from_string:21:119 */;
  let %x_26: Tensor[(4), int32] /* ty=Tensor[(4), int32] span=from_string:25:539 */ = full(%x4, shape=[4], dtype="int32") /* ty=Tensor[(4), int32] span=from_string:22:93 */;
  let %x_27: (Tensor[(64, 64, 3, 3), float32], Tensor[(4, 64, 3, 3), float32]) /* ty=(Tensor[(64, 64, 3, 3), float32], Tensor[(4, 64, 3, 3), float32]) span=from_string:24:129 */ = (%x1, %x5) /* ty=(Tensor[(64, 64, 3, 3), float32], Tensor[(4, 64, 3, 3), float32]) span=from_string:23:185 */;
  let %x_28: Tensor[(68, 64, 3, 3), float32] /* ty=Tensor[(68, 64, 3, 3), float32] span=from_string:25:546 */ = concatenate(%x_27) /* ty=Tensor[(68, 64, 3, 3), float32] span=from_string:24:117 */;
  let %x_30: (Tensor[(1, 128, 56, 56), float32], float32, Tensor[(64, 64, 3, 3), float32], Tensor[(64, 64, 3, 3), float32], Tensor[(1, 64, 56, 56), float32], Tensor[(4), int32], Tensor[(68, 64, 3, 3), float32], bool) /* ty=(Tensor[(1, 128, 56, 56), float32], float32, Tensor[(64, 64, 3, 3), float32], Tensor[(64, 64, 3, 3), float32], Tensor[(1, 64, 56, 56), float32], Tensor[(4), int32], Tensor[(68, 64, 3, 3), float32], bool) span=from_string:26:3 */ = (%x_11, 2f /* ty=float32 span=from_string:25:471 */, %x_19, %x_21, %x_24, %x_26, %x_28, False /* ty=bool span=from_string:25:553 */) /* ty=(Tensor[(1, 128, 56, 56), float32], float32, Tensor[(64, 64, 3, 3), float32], Tensor[(64, 64, 3, 3), float32], Tensor[(1, 64, 56, 56), float32], Tensor[(4), int32], Tensor[(68, 64, 3, 3), float32], bool) span=from_string:25:461 */;
  %x_30
}
