#[version = "0.0.5"]
def @main(%x0: Tensor[(2, 32), float32] /* ty=Tensor[(2, 32), float32] span=from_string:7:23 */, %x1: Tensor[(16, 32), float32] /* ty=Tensor[(16, 32), float32] span=from_string:30:19 */, %x2: Tensor[(8, 32), float32] /* ty=Tensor[(8, 32), float32] span=from_string:16:31 */, %x3: Tensor[(2, 11, 1), float32] /* ty=Tensor[(2, 11, 1), float32] span=from_string:27:31 */, %x4: Tensor[(2, 16, 1), float32] /* ty=Tensor[(2, 16, 1), float32] span=from_string:26:36 */, %x5: Tensor[(2, 16, 1), float32] /* ty=Tensor[(2, 16, 1), float32] span=from_string:27:36 */, %x6: Tensor[(5, 32), float32] /* ty=Tensor[(5, 32), float32] span=from_string:33:24 */, %x7: float32 /* ty=float32 span=from_string:32:26 */, %x8: Tensor[(32, 32), float32] /* ty=Tensor[(32, 32), float32] span=from_string:33:29 */, %x9: float32 /* ty=float32 span=from_string:34:26 */, %x10: Tensor[(72, 26), int32] /* ty=Tensor[(72, 26), int32] */) -> ((Tensor[(2, 16, 1), float32], Tensor[(2, 8, 1), float32]), Tensor[(2, 16), float32], (Tensor[(8, 32), float32], (Tensor[(8, 32), float32],)), (Tensor[(2, 11, 16), float32], Tensor[(2, 11, 16), float32], Tensor[(2, 11, 16), float32]), (Tensor[(5, 16), float32], Tensor[(5, 32), float32]), Tensor[(2, 8), float32], Tensor[(8, 32), int32], Tensor[(16, 32), float32]) {
  %0 = nn.dense(%x0, %x1, units=None) /* ty=Tensor[(2, 16), float32] span=from_string:5:14 */;
  %1 = nn.dense(%x0, %x2, units=None) /* ty=Tensor[(2, 8), float32] span=from_string:7:14 */;
  %2 = expand_dims(%0, axis=2) /* ty=Tensor[(2, 16, 1), float32] span=from_string:6:14 */;
  %3 = expand_dims(%1, axis=2) /* ty=Tensor[(2, 8, 1), float32] span=from_string:8:14 */;
  %4 = multiply(meta[relay.Constant][1] /* ty=Tensor[(8, 32), float32] span=from_string:4:19 */, %x2) /* ty=Tensor[(8, 32), float32] span=from_string:12:16 */;
  %5 = collapse_sum_to(%4, meta[relay.Constant][2] /* ty=Tensor[(2), int32] span=from_string:13:20 */, meta[relay.attrs.InitOpAttrs][0]) /* ty=Tensor[(8, 32), float32] span=from_string:14:15 */;
  %6 = multiply(meta[relay.Constant][1] /* ty=Tensor[(8, 32), float32] span=from_string:4:19 */, %x2) /* ty=Tensor[(8, 32), float32] span=from_string:16:16 */;
  %7 = add(meta[relay.Constant][0] /* ty=Tensor[(8, 32), float32] span=from_string:11:20 */, %5) /* ty=Tensor[(8, 32), float32] span=from_string:15:15 */;
  %8 = collapse_sum_to(%6, meta[relay.Constant][3] /* ty=Tensor[(2), int32] span=from_string:17:20 */, meta[relay.attrs.InitOpAttrs][1]) /* ty=Tensor[(8, 32), float32] span=from_string:18:15 */;
  %9 = add(%7, %8) /* ty=Tensor[(8, 32), float32] span=from_string:19:15 */;
  %10 = multiply(%x2, %x2) /* ty=Tensor[(8, 32), float32] span=from_string:3:15 */;
  %11 = (%9,) /* ty=(Tensor[(8, 32), float32],) span=from_string:20:15 */;
  %12 = sqrt(%2) /* ty=Tensor[(2, 16, 1), float32] span=from_string:23:15 */;
  %13 = divide(2f /* ty=float32 span=from_string:22:17 */, %12) /* ty=Tensor[(2, 16, 1), float32] span=from_string:24:15 */;
  %14 = nn.batch_matmul(%x3, %13, transpose_b=True) /* ty=Tensor[(2, 11, 16), float32] span=from_string:25:15 */;
  %15 = nn.batch_matmul(%x3, %x4, transpose_b=True) /* ty=Tensor[(2, 11, 16), float32] span=from_string:26:15 */;
  %16 = nn.batch_matmul(%x3, %x5, transpose_b=True) /* ty=Tensor[(2, 11, 16), float32] span=from_string:27:15 */;
  %17 = add(%x1, 1f /* ty=float32 span=from_string:29:17 */) /* ty=Tensor[(16, 32), float32] span=from_string:30:15 */;
  %18 = nn.dense(%x6, %17, units=None) /* ty=Tensor[(5, 16), float32] span=from_string:31:15 */;
  %19 = nn.dense(%x6, %x8, units=None) /* ty=Tensor[(5, 32), float32] span=from_string:33:15 */;
  %20 = add(%18, %x7) /* ty=Tensor[(5, 16), float32] span=from_string:32:15 */;
  %21 = add(%19, %x9) /* ty=Tensor[(5, 32), float32] span=from_string:34:15 */;
  %22 = (%2, %3) /* ty=(Tensor[(2, 16, 1), float32], Tensor[(2, 8, 1), float32]) span=from_string:9:14 */;
  %23 = nn.softmax(%0) /* ty=Tensor[(2, 16), float32] span=from_string:10:14 */;
  %24 = (%10, %11) /* ty=(Tensor[(8, 32), float32], (Tensor[(8, 32), float32],)) span=from_string:21:15 */;
  %25 = (%14, %15, %16) /* ty=(Tensor[(2, 11, 16), float32], Tensor[(2, 11, 16), float32], Tensor[(2, 11, 16), float32]) span=from_string:28:15 */;
  %26 = (%20, %21) /* ty=(Tensor[(5, 16), float32], Tensor[(5, 32), float32]) span=from_string:35:15 */;
  %27 = nn.softmax(%1) /* ty=Tensor[(2, 8), float32] span=from_string:36:15 */;
  (%22, %23, %24, %25, %26, %27, meta[relay.Constant][4] /* ty=Tensor[(8, 32), int32] span=from_string:37:20 */, meta[relay.Constant][5] /* ty=Tensor[(16, 32), float32] span=from_string:38:20 */) /* ty=((Tensor[(2, 16, 1), float32], Tensor[(2, 8, 1), float32]), Tensor[(2, 16), float32], (Tensor[(8, 32), float32], (Tensor[(8, 32), float32],)), (Tensor[(2, 11, 16), float32], Tensor[(2, 11, 16), float32], Tensor[(2, 11, 16), float32]), (Tensor[(5, 16), float32], Tensor[(5, 32), float32]), Tensor[(2, 8), float32], Tensor[(8, 32), int32], Tensor[(16, 32), float32]) span=from_string:39:15 */
}

#[metadata]
{
  "root": 1, 
  "nodes": [
    {
      "type_key": ""
    }, 
    {
      "type_key": "Map", 
      "keys": [
        "relay.attrs.InitOpAttrs", 
        "relay.Constant"
      ], 
      "data": [2, 9]
    }, 
    {
      "type_key": "Array", 
      "data": [3, 7]
    }, 
    {
      "type_key": "relay.attrs.InitOpAttrs", 
      "attrs": {
        "dtype": "", 
        "shape": "4"
      }
    }, 
    {
      "type_key": "Array", 
      "data": [5, 6]
    }, 
    {
      "type_key": "IntImm", 
      "attrs": {
        "dtype": "int32", 
        "span": "0", 
        "value": "8"
      }
    }, 
    {
      "type_key": "IntImm", 
      "attrs": {
        "dtype": "int32", 
        "span": "0", 
        "value": "32"
      }
    }, 
    {
      "type_key": "relay.attrs.InitOpAttrs", 
      "attrs": {
        "dtype": "", 
        "shape": "8"
      }
    }, 
    {
      "type_key": "Array", 
      "data": [5, 6]
    }, 
    {
      "type_key": "Array", 
      "data": [10, 19, 25, 32, 37, 43]
    }, 
    {
      "type_key": "relay.Constant", 
      "attrs": {
        "_checked_type_": "15", 
        "data": "0", 
        "span": "13", 
        "virtual_device_": "11"
      }
    }, 
    {
      "type_key": "VirtualDevice", 
      "attrs": {
        "device_type_int": "-1", 
        "memory_scope": "12", 
        "target": "0", 
        "virtual_device_id": "-1"
      }
    }, 
    {
      "type_key": "runtime.String"
    }, 
    {
      "type_key": "Span", 
      "attrs": {
        "column": "20", 
        "end_column": "38", 
        "end_line": "11", 
        "line": "11", 
        "source_name": "14"
      }
    }, 
    {
      "type_key": "SourceName", 
      "repr_str": "from_string"
    }, 
    {
      "type_key": "relay.TensorType", 
      "attrs": {
        "dtype": "float32", 
        "shape": "16", 
        "span": "0"
      }
    }, 
    {
      "type_key": "Array", 
      "data": [17, 18]
    }, 
    {
      "type_key": "IntImm", 
      "attrs": {
        "dtype": "int32", 
        "span": "0", 
        "value": "8"
      }
    }, 
    {
      "type_key": "IntImm", 
      "attrs": {
        "dtype": "int32", 
        "span": "0", 
        "value": "32"
      }
    }, 
    {
      "type_key": "relay.Constant", 
      "attrs": {
        "_checked_type_": "21", 
        "data": "1", 
        "span": "20", 
        "virtual_device_": "11"
      }
    }, 
    {
      "type_key": "Span", 
      "attrs": {
        "column": "19", 
        "end_column": "37", 
        "end_line": "4", 
        "line": "4", 
        "source_name": "14"
      }
    }, 
    {
      "type_key": "relay.TensorType", 
      "attrs": {
        "dtype": "float32", 
        "shape": "22", 
        "span": "0"
      }
    }, 
    {
      "type_key": "Array", 
      "data": [23, 24]
    }, 
    {
      "type_key": "IntImm", 
      "attrs": {
        "dtype": "int32", 
        "span": "0", 
        "value": "8"
      }
    }, 
    {
      "type_key": "IntImm", 
      "attrs": {
        "dtype": "int32", 
        "span": "0", 
        "value": "32"
      }
    }, 
    {
      "type_key": "relay.Constant", 
      "attrs": {
        "_checked_type_": "29", 
        "data": "2", 
        "span": "28", 
        "virtual_device_": "26"
      }
    }, 
    {
      "type_key": "VirtualDevice", 
      "attrs": {
        "device_type_int": "-1", 
        "memory_scope": "27", 
        "target": "0", 
        "virtual_device_id": "-1"
      }
    }, 
    {
      "type_key": "runtime.String"
    }, 
    {
      "type_key": "Span", 
      "attrs": {
        "column": "20", 
        "end_column": "38", 
        "end_line": "13", 
        "line": "13", 
        "source_name": "14"
      }
    }, 
    {
      "type_key": "relay.TensorType", 
      "attrs": {
        "dtype": "int32", 
        "shape": "30", 
        "span": "0"
      }
    }, 
    {
      "type_key": "Array", 
      "data": [31]
    }, 
    {
      "type_key": "IntImm", 
      "attrs": {
        "dtype": "int32", 
        "span": "0", 
        "value": "2"
      }
    }, 
    {
      "type_key": "relay.Constant", 
      "attrs": {
        "_checked_type_": "34", 
        "data": "3", 
        "span": "33", 
        "virtual_device_": "26"
      }
    }, 
    {
      "type_key": "Span", 
      "attrs": {
        "column": "20", 
        "end_column": "38", 
        "end_line": "17", 
        "line": "17", 
        "source_name": "14"
      }
    }, 
    {
      "type_key": "relay.TensorType", 
      "attrs": {
        "dtype": "int32", 
        "shape": "35", 
        "span": "0"
      }
    }, 
    {
      "type_key": "Array", 
      "data": [36]
    }, 
    {
      "type_key": "IntImm", 
      "attrs": {
        "dtype": "int32", 
        "span": "0", 
        "value": "2"
      }
    }, 
    {
      "type_key": "relay.Constant", 
      "attrs": {
        "_checked_type_": "39", 
        "data": "4", 
        "span": "38", 
        "virtual_device_": "11"
      }
    }, 
    {
      "type_key": "Span", 
      "attrs": {
        "column": "20", 
        "end_column": "38", 
        "end_line": "37", 
        "line": "37", 
        "source_name": "14"
      }
    }, 
    {
      "type_key": "relay.TensorType", 
      "attrs": {
        "dtype": "int32", 
        "shape": "40", 
        "span": "0"
      }
    }, 
    {
      "type_key": "Array", 
      "data": [41, 42]
    }, 
    {
      "type_key": "IntImm", 
      "attrs": {
        "dtype": "int32", 
        "span": "0", 
        "value": "8"
      }
    }, 
    {
      "type_key": "IntImm", 
      "attrs": {
        "dtype": "int32", 
        "span": "0", 
        "value": "32"
      }
    }, 
    {
      "type_key": "relay.Constant", 
      "attrs": {
        "_checked_type_": "45", 
        "data": "5", 
        "span": "44", 
        "virtual_device_": "11"
      }
    }, 
    {
      "type_key": "Span", 
      "attrs": {
        "column": "20", 
        "end_column": "38", 
        "end_line": "38", 
        "line": "38", 
        "source_name": "14"
      }
    }, 
    {
      "type_key": "relay.TensorType", 
      "attrs": {
        "dtype": "float32", 
        "shape": "46", 
        "span": "0"
      }
    }, 
    {
      "type_key": "Array", 
      "data": [47, 48]
    }, 
    {
      "type_key": "IntImm", 
      "attrs": {
        "dtype": "int32", 
        "span": "0", 
        "value": "16"
      }
    }, 
    {
      "type_key": "IntImm", 
      "attrs": {
        "dtype": "int32", 
        "span": "0", 
        "value": "32"
      }
    }
  ], 
  "b64ndarrays": [
    "…", 
    "…", 
    "P6G0lvBAXt0AAAAAAAAAAAEAAAAAAAAAAQAAAAAgAQACAAAAAAAAAAgAAAAAAAAACAAAACAAAAA=", 
    "P6G0lvBAXt0AAAAAAAAAAAEAAAAAAAAAAQAAAAAgAQACAAAAAAAAAAgAAAAAAAAACAAAACAAAAA=", 
    "…", 
    "…"
  ], 
  "attrs": {"tvm_version": "0.13.0"}
}