#[version = "0.0.5"]
def @main(%x0: Tensor[(2, 32), float32] /* ty=Tensor[(2, 32), float32] span=from_string:22:103 */, %x1: Tensor[(16, 32), float32] /* ty=Tensor[(16, 32), float32] span=from_string:88:108 */, %x2: Tensor[(8, 32), float32] /* ty=Tensor[(8, 32), float32] span=from_string:55:114 */, %x3: Tensor[(2, 11, 1), float32] /* ty=Tensor[(2, 11, 1), float32] span=from_string:82:114 */, %x4: Tensor[(2, 16, 1), float32] /* ty=Tensor[(2, 16, 1), float32] span=from_string:78:119 */, %x5: Tensor[(2, 16, 1), float32] /* ty=Tensor[(2, 16, 1), float32] span=from_string:82:119 */, %x6: Tensor[(5, 32), float32] /* ty=Tensor[(5, 32), float32] span=from_string:100:107 */, %x7: float32 /* ty=float32 span=from_string:96:114 */, %x8: Tensor[(32, 32), float32] /* ty=Tensor[(32, 32), float32] span=from_string:100:112 */, %x9: float32 /* ty=float32 span=from_string:104:114 */, %x10: Tensor[(72, 26), int32] /* ty=Tensor[(72, 26), int32] span=from_string:113:111 */) -> ((Tensor[(2, 16, 1), float32], Tensor[(2, 8, 1), float32]), Tensor[(2, 16), float32], (Tensor[(8, 32), float32], (Tensor[(8, 32), float32],)), (Tensor[(2, 11, 16), float32], Tensor[(2, 11, 16), float32], Tensor[(2, 11, 16), float32]), (Tensor[(5, 16), float32], Tensor[(5, 32), float32]), Tensor[(2, 8), float32], Tensor[(8, 32), int32], Tensor[(16, 32), float32]) {
  %0 = fn (%p02: Tensor[(2, 32), float32] /* ty=Tensor[(2, 32), float32] span=from_string:12:14 */, %p1: Tensor[(16, 32), float32] /* ty=Tensor[(16, 32), float32] span=from_string:12:20 */, Primitive=1) -> Tensor[(2, 16), float32] {
    nn.dense(%p02, %p1, units=None) /* ty=Tensor[(2, 16), float32] span=from_string:12:5 */
  } /* ty=fn (Tensor[(2, 32), float32], Tensor[(16, 32), float32]) -> Tensor[(2, 16), float32] span=from_string:11:3 */;
  %1 = %0(%x0, %x1) /* ty=Tensor[(2, 16), float32] span=from_string:14:99 */;
  %2 = fn (%p03: Tensor[(2, 16), float32] /* ty=Tensor[(2, 16), float32] span=from_string:16:17 */, Primitive=1, relay.reshape_only=1) -> Tensor[(2, 16, 1), float32] {
    expand_dims(%p03, axis=2) /* ty=Tensor[(2, 16, 1), float32] span=from_string:16:5 */
  } /* ty=fn (Tensor[(2, 16), float32]) -> Tensor[(2, 16, 1), float32] span=from_string:15:3 */;
  %3 = fn (%p04: Tensor[(2, 32), float32] /* ty=Tensor[(2, 32), float32] span=from_string:20:14 */, %p11: Tensor[(8, 32), float32] /* ty=Tensor[(8, 32), float32] span=from_string:20:20 */, Primitive=1) -> Tensor[(2, 8), float32] {
    nn.dense(%p04, %p11, units=None) /* ty=Tensor[(2, 8), float32] span=from_string:20:5 */
  } /* ty=fn (Tensor[(2, 32), float32], Tensor[(8, 32), float32]) -> Tensor[(2, 8), float32] span=from_string:19:3 */;
  %4 = %3(%x0, %x2) /* ty=Tensor[(2, 8), float32] span=from_string:22:98 */;
  %5 = fn (%p05: Tensor[(2, 8), float32] /* ty=Tensor[(2, 8), float32] span=from_string:24:17 */, Primitive=1, relay.reshape_only=1) -> Tensor[(2, 8, 1), float32] {
    expand_dims(%p05, axis=2) /* ty=Tensor[(2, 8, 1), float32] span=from_string:24:5 */
  } /* ty=fn (Tensor[(2, 8), float32]) -> Tensor[(2, 8, 1), float32] span=from_string:23:3 */;
  %6 = %2(%1) /* ty=Tensor[(2, 16, 1), float32] span=from_string:18:105 */;
  %7 = %5(%4) /* ty=Tensor[(2, 8, 1), float32] span=from_string:26:103 */;
  %8 = fn (%p06: Tensor[(2, 16), float32] /* ty=Tensor[(2, 16), float32] span=from_string:29:16 */, Primitive=1) -> Tensor[(2, 16), float32] {
    nn.softmax(%p06) /* ty=Tensor[(2, 16), float32] span=from_string:29:5 */
  } /* ty=fn (Tensor[(2, 16), float32]) -> Tensor[(2, 16), float32] span=from_string:28:3 */;
  %9 = fn (%p0: Tensor[(8, 32), float32] /* ty=Tensor[(8, 32), float32] span=from_string:4:20 */, Primitive=1) -> Tensor[(8, 32), float32] {
    multiply(%p0, %p0) /* ty=Tensor[(8, 32), float32] span=from_string:4:6 */
  } /* ty=fn (Tensor[(8, 32), float32]) -> Tensor[(8, 32), float32] span=from_string:3:3 */;
  %10 = fn (%p07: Tensor[(8, 32), float32] /* ty=Tensor[(8, 32), float32] */, Primitive=1) -> Tensor[(8, 32), float32] {
    zeros(shape=[8, 32], dtype="float32") /* ty=Tensor[(8, 32), float32] span=from_string:33:5 */
  } /* ty=fn (Tensor[(8, 32), float32]) -> Tensor[(8, 32), float32] span=from_string:32:3 */;
  %11 = %9(%x2) /* ty=Tensor[(8, 32), float32] span=from_string:6:98 */;
  %12 = fn (%p01: Tensor[(8, 32), float32] /* ty=Tensor[(8, 32), float32] */, Primitive=1) -> Tensor[(8, 32), float32] {
    ones(shape=[8, 32], dtype="float32") /* ty=Tensor[(8, 32), float32] span=from_string:8:5 */
  } /* ty=fn (Tensor[(8, 32), float32]) -> Tensor[(8, 32), float32] span=from_string:7:3 */;
  %13 = %12(%11) /* ty=Tensor[(8, 32), float32] span=from_string:10:99 */;
  %14 = fn (%p08: Tensor[(8, 32), float32] /* ty=Tensor[(8, 32), float32] span=from_string:37:15 */, %p12: Tensor[(8, 32), float32] /* ty=Tensor[(8, 32), float32] span=from_string:37:21 */, Primitive=1) -> Tensor[(8, 32), float32] {
    multiply(%p08, %p12) /* ty=Tensor[(8, 32), float32] span=from_string:37:6 */
  } /* ty=fn (Tensor[(8, 32), float32], Tensor[(8, 32), float32]) -> Tensor[(8, 32), float32] span=from_string:36:3 */;
  %15 = %14(%13, %x2) /* ty=Tensor[(8, 32), float32] span=from_string:39:99 */;
  %16 = fn (%p09: Tensor[(8, 32), float32] /* ty=Tensor[(8, 32), float32] span=from_string:41:21 */, %p13: Tensor[(8, 32), float32] /* ty=Tensor[(8, 32), float32] */, Primitive=1) -> Tensor[(8, 32), float32] {
    collapse_sum_to(%p09, meta[relay.Constant][0] /* ty=Tensor[(2), int32] span=from_string:41:32 */, meta[relay.attrs.InitOpAttrs][0]) /* ty=Tensor[(8, 32), float32] span=from_string:41:5 */
  } /* ty=fn (Tensor[(8, 32), float32], Tensor[(8, 32), float32]) -> Tensor[(8, 32), float32] span=from_string:40:3 */;
  %17 = %10(%x2) /* ty=Tensor[(8, 32), float32] span=from_string:35:99 */;
  %18 = %16(%15, %x2) /* ty=Tensor[(8, 32), float32] span=from_string:43:99 */;
  %19 = fn (%p010: Tensor[(8, 32), float32] /* ty=Tensor[(8, 32), float32] span=from_string:45:9 */, %p14: Tensor[(8, 32), float32] /* ty=Tensor[(8, 32), float32] span=from_string:45:16 */, Primitive=1) -> Tensor[(8, 32), float32] {
    add(%p010, %p14) /* ty=Tensor[(8, 32), float32] span=from_string:45:5 */
  } /* ty=fn (Tensor[(8, 32), float32], Tensor[(8, 32), float32]) -> Tensor[(8, 32), float32] span=from_string:44:3 */;
  %20 = fn (%p011: Tensor[(8, 32), float32] /* ty=Tensor[(8, 32), float32] span=from_string:49:15 */, %p15: Tensor[(8, 32), float32] /* ty=Tensor[(8, 32), float32] span=from_string:49:22 */, Primitive=1) -> Tensor[(8, 32), float32] {
    multiply(%p011, %p15) /* ty=Tensor[(8, 32), float32] span=from_string:49:6 */
  } /* ty=fn (Tensor[(8, 32), float32], Tensor[(8, 32), float32]) -> Tensor[(8, 32), float32] span=from_string:48:3 */;
  %21 = %20(%13, %x2) /* ty=Tensor[(8, 32), float32] span=from_string:51:100 */;
  %22 = fn (%p012: Tensor[(8, 32), float32] /* ty=Tensor[(8, 32), float32] span=from_string:53:21 */, %p16: Tensor[(8, 32), float32] /* ty=Tensor[(8, 32), float32] */, Primitive=1) -> Tensor[(8, 32), float32] {
    collapse_sum_to(%p012, meta[relay.Constant][1] /* ty=Tensor[(2), int32] span=from_string:53:33 */, meta[relay.attrs.InitOpAttrs][1]) /* ty=Tensor[(8, 32), float32] span=from_string:53:5 */
  } /* ty=fn (Tensor[(8, 32), float32], Tensor[(8, 32), float32]) -> Tensor[(8, 32), float32] span=from_string:52:3 */;
  %23 = %19(%17, %18) /* ty=Tensor[(8, 32), float32] span=from_string:47:99 */;
  %24 = %22(%21, %x2) /* ty=Tensor[(8, 32), float32] span=from_string:55:100 */;
  %25 = fn (%p013: Tensor[(8, 32), float32] /* ty=Tensor[(8, 32), float32] span=from_string:57:9 */, %p17: Tensor[(8, 32), float32] /* ty=Tensor[(8, 32), float32] span=from_string:57:16 */, Primitive=1) -> Tensor[(8, 32), float32] {
    add(%p013, %p17) /* ty=Tensor[(8, 32), float32] span=from_string:57:5 */
  } /* ty=fn (Tensor[(8, 32), float32], Tensor[(8, 32), float32]) -> Tensor[(8, 32), float32] span=from_string:56:3 */;
  %26 = %25(%23, %24) /* ty=Tensor[(8, 32), float32] span=from_string:59:100 */;
  %27 = (%26,) /* ty=(Tensor[(8, 32), float32],) span=from_string:60:106 */;
  %28 = fn (%p014: Tensor[(2, 16, 1), float32] /* ty=Tensor[(2, 16, 1), float32] span=from_string:63:10 */, Primitive=1) -> Tensor[(2, 16, 1), float32] {
    sqrt(%p014) /* ty=Tensor[(2, 16, 1), float32] span=from_string:63:5 */
  } /* ty=fn (Tensor[(2, 16, 1), float32]) -> Tensor[(2, 16, 1), float32] span=from_string:62:3 */;
  %29 = %28(%6) /* ty=Tensor[(2, 16, 1), float32] span=from_string:65:105 */;
  %30 = fn (%p015: float32 /* ty=float32 span=from_string:68:12 */, %p18: Tensor[(2, 16, 1), float32] /* ty=Tensor[(2, 16, 1), float32] span=from_string:68:19 */, Primitive=1) -> Tensor[(2, 16, 1), float32] {
    divide(%p015, %p18) /* ty=Tensor[(2, 16, 1), float32] span=from_string:68:5 */
  } /* ty=fn (float32, Tensor[(2, 16, 1), float32]) -> Tensor[(2, 16, 1), float32] span=from_string:67:3 */;
  %31 = %30(2f /* ty=float32 span=from_string:66:67 */, %29) /* ty=Tensor[(2, 16, 1), float32] span=from_string:70:105 */;
  %32 = fn (%p016: Tensor[(2, 11, 1), float32] /* ty=Tensor[(2, 11, 1), float32] span=from_string:72:21 */, %p19: Tensor[(2, 16, 1), float32] /* ty=Tensor[(2, 16, 1), float32] span=from_string:72:28 */, Primitive=1) -> Tensor[(2, 11, 16), float32] {
    nn.batch_matmul(%p016, %p19, transpose_b=True) /* ty=Tensor[(2, 11, 16), float32] span=from_string:72:5 */
  } /* ty=fn (Tensor[(2, 11, 1), float32], Tensor[(2, 16, 1), float32]) -> Tensor[(2, 11, 16), float32] span=from_string:71:3 */;
  %33 = fn (%p017: Tensor[(2, 11, 1), float32] /* ty=Tensor[(2, 11, 1), float32] span=from_string:76:21 */, %p110: Tensor[(2, 16, 1), float32] /* ty=Tensor[(2, 16, 1), float32] span=from_string:76:28 */, Primitive=1) -> Tensor[(2, 11, 16), float32] {
    nn.batch_matmul(%p017, %p110, transpose_b=True) /* ty=Tensor[(2, 11, 16), float32] span=from_string:76:5 */
  } /* ty=fn (Tensor[(2, 11, 1), float32], Tensor[(2, 16, 1), float32]) -> Tensor[(2, 11, 16), float32] span=from_string:75:3 */;
  %34 = fn (%p018: Tensor[(2, 11, 1), float32] /* ty=Tensor[(2, 11, 1), float32] span=from_string:80:21 */, %p111: Tensor[(2, 16, 1), float32] /* ty=Tensor[(2, 16, 1), float32] span=from_string:80:28 */, Primitive=1) -> Tensor[(2, 11, 16), float32] {
    nn.batch_matmul(%p018, %p111, transpose_b=True) /* ty=Tensor[(2, 11, 16), float32] span=from_string:80:5 */
  } /* ty=fn (Tensor[(2, 11, 1), float32], Tensor[(2, 16, 1), float32]) -> Tensor[(2, 11, 16), float32] span=from_string:79:3 */;
  %35 = %32(%x3, %31) /* ty=Tensor[(2, 11, 16), float32] span=from_string:74:107 */;
  %36 = %33(%x3, %x4) /* ty=Tensor[(2, 11, 16), float32] span=from_string:78:107 */;
  %37 = %34(%x3, %x5) /* ty=Tensor[(2, 11, 16), float32] span=from_string:82:107 */;
  %38 = fn (%p019: Tensor[(16, 32), float32] /* ty=Tensor[(16, 32), float32] span=from_string:86:9 */, %p112: float32 /* ty=float32 span=from_string:86:16 */, Primitive=1) -> Tensor[(16, 32), float32] {
    add(%p019, %p112) /* ty=Tensor[(16, 32), float32] span=from_string:86:5 */
  } /* ty=fn (Tensor[(16, 32), float32], float32) -> Tensor[(16, 32), float32] span=from_string:85:3 */;
  %39 = %38(%x1, 1f /* ty=float32 span=from_string:84:68 */) /* ty=Tensor[(16, 32), float32] span=from_string:88:101 */;
  %40 = fn (%p020: Tensor[(5, 32), float32] /* ty=Tensor[(5, 32), float32] span=from_string:90:14 */, %p113: Tensor[(16, 32), float32] /* ty=Tensor[(16, 32), float32] span=from_string:90:21 */, Primitive=1) -> Tensor[(5, 16), float32] {
    nn.dense(%p020, %p113, units=None) /* ty=Tensor[(5, 16), float32] span=from_string:90:5 */
  } /* ty=fn (Tensor[(5, 32), float32], Tensor[(16, 32), float32]) -> Tensor[(5, 16), float32] span=from_string:89:3 */;
  %41 = %40(%x6, %39) /* ty=Tensor[(5, 16), float32] span=from_string:92:99 */;
  %42 = fn (%p021: Tensor[(5, 16), float32] /* ty=Tensor[(5, 16), float32] span=from_string:94:9 */, %p114: float32 /* ty=float32 span=from_string:94:16 */, Primitive=1) -> Tensor[(5, 16), float32] {
    add(%p021, %p114) /* ty=Tensor[(5, 16), float32] span=from_string:94:5 */
  } /* ty=fn (Tensor[(5, 16), float32], float32) -> Tensor[(5, 16), float32] span=from_string:93:3 */;
  %43 = fn (%p022: Tensor[(5, 32), float32] /* ty=Tensor[(5, 32), float32] span=from_string:98:14 */, %p115: Tensor[(32, 32), float32] /* ty=Tensor[(32, 32), float32] span=from_string:98:21 */, Primitive=1) -> Tensor[(5, 32), float32] {
    nn.dense(%p022, %p115, units=None) /* ty=Tensor[(5, 32), float32] span=from_string:98:5 */
  } /* ty=fn (Tensor[(5, 32), float32], Tensor[(32, 32), float32]) -> Tensor[(5, 32), float32] span=from_string:97:3 */;
  %44 = %43(%x6, %x8) /* ty=Tensor[(5, 32), float32] span=from_string:100:100 */;
  %45 = fn (%p023: Tensor[(5, 32), float32] /* ty=Tensor[(5, 32), float32] span=from_string:102:9 */, %p116: float32 /* ty=float32 span=from_string:102:16 */, Primitive=1) -> Tensor[(5, 32), float32] {
    add(%p023, %p116) /* ty=Tensor[(5, 32), float32] span=from_string:102:5 */
  } /* ty=fn (Tensor[(5, 32), float32], float32) -> Tensor[(5, 32), float32] span=from_string:101:3 */;
  %46 = %42(%41, %x7) /* ty=Tensor[(5, 16), float32] span=from_string:96:100 */;
  %47 = %45(%44, %x9) /* ty=Tensor[(5, 32), float32] span=from_string:104:100 */;
  %48 = fn (%p024: Tensor[(2, 8), float32] /* ty=Tensor[(2, 8), float32] span=from_string:107:16 */, Primitive=1) -> Tensor[(2, 8), float32] {
    nn.softmax(%p024) /* ty=Tensor[(2, 8), float32] span=from_string:107:5 */
  } /* ty=fn (Tensor[(2, 8), float32]) -> Tensor[(2, 8), float32] span=from_string:106:3 */;
  %49 = fn (%p025: Tensor[(8, 32), float32] /* ty=Tensor[(8, 32), float32] span=from_string:111:10 */, %p117: Tensor[(72, 26), int32] /* ty=Tensor[(72, 26), int32] */, Primitive=1) -> Tensor[(8, 32), int32] {
    cast(%p025, dtype="int32") /* ty=Tensor[(8, 32), int32] span=from_string:111:5 */
  } /* ty=fn (Tensor[(8, 32), float32], Tensor[(72, 26), int32]) -> Tensor[(8, 32), int32] span=from_string:110:3 */;
  %50 = fn (Primitive=1) -> Tensor[(16, 32), float32] {
    ones(shape=[16, 32], dtype="float32") /* ty=Tensor[(16, 32), float32] span=from_string:115:5 */
  } /* ty=fn () -> Tensor[(16, 32), float32] span=from_string:114:3 */;
  %51 = (%6, %7) /* ty=(Tensor[(2, 16, 1), float32], Tensor[(2, 8, 1), float32]) span=from_string:27:166 */;
  %52 = %8(%1) /* ty=Tensor[(2, 16), float32] span=from_string:31:100 */;
  %53 = (%11, %27) /* ty=(Tensor[(8, 32), float32], (Tensor[(8, 32), float32],)) span=from_string:61:162 */;
  %54 = (%35, %36, %37) /* ty=(Tensor[(2, 11, 16), float32], Tensor[(2, 11, 16), float32], Tensor[(2, 11, 16), float32]) span=from_string:83:233 */;
  %55 = (%46, %47) /* ty=(Tensor[(5, 16), float32], Tensor[(5, 32), float32]) span=from_string:105:156 */;
  %56 = %48(%4) /* ty=Tensor[(2, 8), float32] span=from_string:109:98 */;
  %57 = %49(%13, %x10) /* ty=Tensor[(8, 32), int32] span=from_string:113:98 */;
  %58 = %50() /* ty=Tensor[(16, 32), float32] span=from_string:117:103 */;
  (%51, %52, %53, %54, %55, %56, %57, %58) /* ty=((Tensor[(2, 16, 1), float32], Tensor[(2, 8, 1), float32]), Tensor[(2, 16), float32], (Tensor[(8, 32), float32], (Tensor[(8, 32), float32],)), (Tensor[(2, 11, 16), float32], Tensor[(2, 11, 16), float32], Tensor[(2, 11, 16), float32]), (Tensor[(5, 16), float32], Tensor[(5, 32), float32]), Tensor[(2, 8), float32], Tensor[(8, 32), int32], Tensor[(16, 32), float32]) span=from_string:118:782 */
}

#[metadata]
{
  "root": 1, 
  "nodes": [
    {
      "type_key": ""
    }, 
    {
      "type_key": "Map", 
      "keys": [
        "relay.attrs.InitOpAttrs", 
        "relay.Constant"
      ], 
      "data": [2, 9]
    }, 
    {
      "type_key": "Array", 
      "data": [3, 7]
    }, 
    {
      "type_key": "relay.attrs.InitOpAttrs", 
      "attrs": {
        "dtype": "", 
        "shape": "4"
      }
    }, 
    {
      "type_key": "Array", 
      "data": [5, 6]
    }, 
    {
      "type_key": "IntImm", 
      "attrs": {
        "dtype": "int32", 
        "span": "0", 
        "value": "8"
      }
    }, 
    {
      "type_key": "IntImm", 
      "attrs": {
        "dtype": "int32", 
        "span": "0", 
        "value": "32"
      }
    }, 
    {
      "type_key": "relay.attrs.InitOpAttrs", 
      "attrs": {
        "dtype": "", 
        "shape": "8"
      }
    }, 
    {
      "type_key": "Array", 
      "data": [5, 6]
    }, 
    {
      "type_key": "Array", 
      "data": [10, 18]
    }, 
    {
      "type_key": "relay.Constant", 
      "attrs": {
        "_checked_type_": "15", 
        "data": "0", 
        "span": "13", 
        "virtual_device_": "11"
      }
    }, 
    {
      "type_key": "VirtualDevice", 
      "attrs": {
        "device_type_int": "-1", 
        "memory_scope": "12", 
        "target": "0", 
        "virtual_device_id": "-1"
      }
    }, 
    {
      "type_key": "runtime.String"
    }, 
    {
      "type_key": "Span", 
      "attrs": {
        "column": "32", 
        "end_column": "50", 
        "end_line": "41", 
        "line": "41", 
        "source_name": "14"
      }
    }, 
    {
      "type_key": "SourceName", 
      "repr_str": "from_string"
    }, 
    {
      "type_key": "relay.TensorType", 
      "attrs": {
        "dtype": "int32", 
        "shape": "16", 
        "span": "0"
      }
    }, 
    {
      "type_key": "Array", 
      "data": [17]
    }, 
    {
      "type_key": "IntImm", 
      "attrs": {
        "dtype": "int32", 
        "span": "0", 
        "value": "2"
      }
    }, 
    {
      "type_key": "relay.Constant", 
      "attrs": {
        "_checked_type_": "20", 
        "data": "1", 
        "span": "19", 
        "virtual_device_": "11"
      }
    }, 
    {
      "type_key": "Span", 
      "attrs": {
        "column": "33", 
        "end_column": "51", 
        "end_line": "53", 
        "line": "53", 
        "source_name": "14"
      }
    }, 
    {
      "type_key": "relay.TensorType", 
      "attrs": {
        "dtype": "int32", 
        "shape": "21", 
        "span": "0"
      }
    }, 
    {
      "type_key": "Array", 
      "data": [22]
    }, 
    {
      "type_key": "IntImm", 
      "attrs": {
        "dtype": "int32", 
        "span": "0", 
        "value": "2"
      }
    }
  ], 
  "b64ndarrays": [
    "P6G0lvBAXt0AAAAAAAAAAAEAAAAAAAAAAQAAAAAgAQACAAAAAAAAAAgAAAAAAAAACAAAACAAAAA=", 
    "P6G0lvBAXt0AAAAAAAAAAAEAAAAAAAAAAQAAAAAgAQACAAAAAAAAAAgAAAAAAAAACAAAACAAAAA="
  ], 
  "attrs": {"tvm_version": "0.13.0"}
}