#[version = "0.0.5"]
def @main(%x0: Tensor[(2, 32), float32] /* ty=Tensor[(2, 32), float32] span=from_string:4:17 */, %x1: Tensor[(16, 32), float32] /* ty=Tensor[(16, 32), float32] span=from_string:24:13 */, %x2: Tensor[(8, 32), float32] /* ty=Tensor[(8, 32), float32] span=from_string:14:24 */, %x3: Tensor[(2, 11, 1), float32] /* ty=Tensor[(2, 11, 1), float32] span=from_string:20:25 */, %x4: Tensor[(2, 16, 1), float32] /* ty=Tensor[(2, 16, 1), float32] span=from_string:18:15 */, %x5: Tensor[(2, 16, 1), float32] /* ty=Tensor[(2, 16, 1), float32] span=from_string:18:20 */, %x6: Tensor[(5, 32), float32] /* ty=Tensor[(5, 32), float32] span=from_string:26:18 */, %x7: float32 /* ty=float32 span=from_string:27:18 */, %x8: Tensor[(32, 32), float32] /* ty=Tensor[(32, 32), float32] span=from_string:26:23 */, %x9: float32 /* ty=float32 span=from_string:28:18 */, %x10: Tensor[(72, 26), int32] /* ty=Tensor[(72, 26), int32] */) -> ((Tensor[(2, 16, 1), float16], Tensor[(2, 8, 1), float16]), Tensor[(2, 16), float32], (Tensor[(8, 32), float16], (Tensor[(8, 32), float16],)), (Tensor[(2, 11, 16), float16], Tensor[(2, 11, 16), float16], Tensor[(2, 11, 16), float16]), (Tensor[(5, 16), float16], Tensor[(5, 32), float16]), Tensor[(2, 8), float32], Tensor[(8, 32), int32], Tensor[(16, 32), float16]) {
  %0 = cast(%x0, dtype="float16") /* ty=Tensor[(2, 32), float16] */;
  %1 = cast(%x1, dtype="float16") /* ty=Tensor[(16, 32), float16] */;
  %2 = nn.dense(%0, %1, units=None, out_dtype="float16") /* ty=Tensor[(2, 16), float16] span=from_string:30:20 */;
  %3 = cast(%x2, dtype="float16") /* ty=Tensor[(8, 32), float16] */;
  %4 = nn.dense(%0, %3, units=None, out_dtype="float16") /* ty=Tensor[(2, 8), float16] span=from_string:34:20 */;
  %5 = expand_dims(%2, axis=2) /* ty=Tensor[(2, 16, 1), float16] span=from_string:29:10 */;
  %6 = expand_dims(%4, axis=2) /* ty=Tensor[(2, 8, 1), float16] span=from_string:29:14 */;
  %7 = cast(%2, dtype="float32") /* ty=Tensor[(2, 16), float32] */;
  %8 = ones(shape=[8, 32], dtype="float16") /* ty=Tensor[(8, 32), float16] span=from_string:35:14 */;
  %9 = multiply(%8, %3) /* ty=Tensor[(8, 32), float16] span=from_string:12:24 */;
  %10 = zeros(shape=[8, 32], dtype="float16") /* ty=Tensor[(8, 32), float16] span=from_string:11:12 */;
  %11 = collapse_sum_to(%9, meta[relay.Constant][0] /* ty=Tensor[(2), int32] span=from_string:10:33 */, meta[relay.attrs.InitOpAttrs][0]) /* ty=Tensor[(8, 32), float16] span=from_string:11:16 */;
  %12 = add(%10, %11) /* ty=Tensor[(8, 32), float16] span=from_string:13:13 */;
  %13 = collapse_sum_to(%9, meta[relay.Constant][1] /* ty=Tensor[(2), int32] span=from_string:12:33 */, meta[relay.attrs.InitOpAttrs][1]) /* ty=Tensor[(8, 32), float16] span=from_string:13:17 */;
  %14 = add(%12, %13) /* ty=Tensor[(8, 32), float16] span=from_string:15:10 */;
  %15 = multiply(%3, %3) /* ty=Tensor[(8, 32), float16] span=from_string:31:10 */;
  %16 = (%14,) /* ty=(Tensor[(8, 32), float16],) span=from_string:31:15 */;
  %17 = cast(2f /* ty=float32 span=from_string:17:18 */, dtype="float16") /* ty=float16 */;
  %18 = sqrt(%5) /* ty=Tensor[(2, 16, 1), float16] span=from_string:17:60 */;
  %19 = divide(%17, %18) /* ty=Tensor[(2, 16, 1), float16] span=from_string:18:10 */;
  %20 = (%19, %x4, %x5) /* ty=(Tensor[(2, 16, 1), float16], Tensor[(2, 16, 1), float32], Tensor[(2, 16, 1), float32]) span=from_string:19:21 */;
  %21 = %20.0 /* ty=Tensor[(2, 16, 1), float16] */;
  %22 = cast(%21, dtype="float32") /* ty=Tensor[(2, 16, 1), float32] */;
  %23 = %20.1 /* ty=Tensor[(2, 16, 1), float32] */;
  %24 = %20.2 /* ty=Tensor[(2, 16, 1), float32] */;
  %25 = (%22, %23, %24) /* ty=(Tensor[(2, 16, 1), float32], Tensor[(2, 16, 1), float32], Tensor[(2, 16, 1), float32]) */;
  %26 = concatenate(%25, axis=1) /* ty=Tensor[(2, 48, 1), float32] span=from_string:20:30 */;
  %27 = cast(%x3, dtype="float16") /* ty=Tensor[(2, 11, 1), float16] */;
  %28 = cast(%26, dtype="float16") /* ty=Tensor[(2, 48, 1), float16] */;
  %29 = nn.batch_matmul(%27, %28, out_dtype="float16", transpose_b=True) /* ty=Tensor[(2, 11, 48), float16] span=from_string:23:23 */;
  %30 = strided_slice(%29, begin=[0, 0, 0], end=[-1, -1, 16], strides=[1, 1, 1], slice_mode="size", axes=None) /* ty=Tensor[(2, 11, 16), float16] span=from_string:32:10 */;
  %31 = strided_slice(%29, begin=[0, 0, 16], end=[-1, -1, 16], strides=[1, 1, 1], slice_mode="size", axes=None) /* ty=Tensor[(2, 11, 16), float16] span=from_string:32:15 */;
  %32 = strided_slice(%29, begin=[0, 0, 32], end=[-1, -1, 16], strides=[1, 1, 1], slice_mode="size", axes=None) /* ty=Tensor[(2, 11, 16), float16] span=from_string:32:20 */;
  %33 = cast(1f /* ty=float32 span=from_string:24:20 */, dtype="float16") /* ty=float16 */;
  %34 = cast(%x6, dtype="float16") /* ty=Tensor[(5, 32), float16] */;
  %35 = add(%1, %33) /* ty=Tensor[(16, 32), float16] span=from_string:25:23 */;
  %36 = nn.dense(%34, %35, units=None, out_dtype="float16") /* ty=Tensor[(5, 16), float16] span=from_string:27:13 */;
  %37 = cast(%x7, dtype="float16") /* ty=float16 */;
  %38 = cast(%x8, dtype="float16") /* ty=Tensor[(32, 32), float16] */;
  %39 = nn.dense(%34, %38, units=None, out_dtype="float16") /* ty=Tensor[(5, 32), float16] span=from_string:28:13 */;
  %40 = cast(%x9, dtype="float16") /* ty=float16 */;
  %41 = add(%36, %37) /* ty=Tensor[(5, 16), float16] span=from_string:33:10 */;
  %42 = add(%39, %40) /* ty=Tensor[(5, 32), float16] span=from_string:33:15 */;
  %43 = cast(%4, dtype="float32") /* ty=Tensor[(2, 8), float32] */;
  %44 = (%5, %6) /* ty=(Tensor[(2, 16, 1), float16], Tensor[(2, 8, 1), float16]) span=from_string:37:4 */;
  %45 = nn.softmax(%7) /* ty=Tensor[(2, 16), float32] span=from_string:37:9 */;
  %46 = (%15, %16) /* ty=(Tensor[(8, 32), float16], (Tensor[(8, 32), float16],)) span=from_string:37:14 */;
  %47 = (%30, %31, %32) /* ty=(Tensor[(2, 11, 16), float16], Tensor[(2, 11, 16), float16], Tensor[(2, 11, 16), float16]) span=from_string:37:19 */;
  %48 = (%41, %42) /* ty=(Tensor[(5, 16), float16], Tensor[(5, 32), float16]) span=from_string:37:24 */;
  %49 = nn.softmax(%43) /* ty=Tensor[(2, 8), float32] span=from_string:37:29 */;
  %50 = cast(%8, dtype="int32") /* ty=Tensor[(8, 32), int32] span=from_string:37:34 */;
  %51 = ones(shape=[16, 32], dtype="float16") /* ty=Tensor[(16, 32), float16] span=from_string:37:39 */;
  (%44, %45, %46, %47, %48, %49, %50, %51) /* ty=((Tensor[(2, 16, 1), float16], Tensor[(2, 8, 1), float16]), Tensor[(2, 16), float32], (Tensor[(8, 32), float16], (Tensor[(8, 32), float16],)), (Tensor[(2, 11, 16), float16], Tensor[(2, 11, 16), float16], Tensor[(2, 11, 16), float16]), (Tensor[(5, 16), float16], Tensor[(5, 32), float16]), Tensor[(2, 8), float32], Tensor[(8, 32), int32], Tensor[(16, 32), float16]) span=from_string:3:3 */
}

#[metadata]
{
  "root": 1, 
  "nodes": [
    {
      "type_key": ""
    }, 
    {
      "type_key": "Map", 
      "keys": [
        "relay.attrs.InitOpAttrs", 
        "relay.Constant"
      ], 
      "data": [2, 9]
    }, 
    {
      "type_key": "Array", 
      "data": [3, 7]
    }, 
    {
      "type_key": "relay.attrs.InitOpAttrs", 
      "attrs": {
        "dtype": "float16", 
        "shape": "4"
      }
    }, 
    {
      "type_key": "Array", 
      "data": [5, 6]
    }, 
    {
      "type_key": "IntImm", 
      "attrs": {
        "dtype": "int32", 
        "span": "0", 
        "value": "8"
      }
    }, 
    {
      "type_key": "IntImm", 
      "attrs": {
        "dtype": "int32", 
        "span": "0", 
        "value": "32"
      }
    }, 
    {
      "type_key": "relay.attrs.InitOpAttrs", 
      "attrs": {
        "dtype": "float16", 
        "shape": "8"
      }
    }, 
    {
      "type_key": "Array", 
      "data": [5, 6]
    }, 
    {
      "type_key": "Array", 
      "data": [10, 18]
    }, 
    {
      "type_key": "relay.Constant", 
      "attrs": {
        "_checked_type_": "15", 
        "data": "0", 
        "span": "13", 
        "virtual_device_": "11"
      }
    }, 
    {
      "type_key": "VirtualDevice", 
      "attrs": {
        "device_type_int": "-1", 
        "memory_scope": "12", 
        "target": "0", 
        "virtual_device_id": "-1"
      }
    }, 
    {
      "type_key": "runtime.String"
    }, 
    {
      "type_key": "Span", 
      "attrs": {
        "column": "33", 
        "end_column": "51", 
        "end_line": "10", 
        "line": "10", 
        "source_name": "14"
      }
    }, 
    {
      "type_key": "SourceName", 
      "repr_str": "from_string"
    }, 
    {
      "type_key": "relay.TensorType", 
      "attrs": {
        "dtype": "int32", 
        "shape": "16", 
        "span": "0"
      }
    }, 
    {
      "type_key": "Array", 
      "data": [17]
    }, 
    {
      "type_key": "IntImm", 
      "attrs": {
        "dtype": "int32", 
        "span": "0", 
        "value": "2"
      }
    }, 
    {
      "type_key": "relay.Constant", 
      "attrs": {
        "_checked_type_": "20", 
        "data": "1", 
        "span": "19", 
        "virtual_device_": "11"
      }
    }, 
    {
      "type_key": "Span", 
      "attrs": {
        "column": "33", 
        "end_column": "51", 
        "end_line": "12", 
        "line": "12", 
        "source_name": "14"
      }
    }, 
    {
      "type_key": "relay.TensorType", 
      "attrs": {
        "dtype": "int32", 
        "shape": "21", 
        "span": "0"
      }
    }, 
    {
      "type_key": "Array", 
      "data": [22]
    }, 
    {
      "type_key": "IntImm", 
      "attrs": {
        "dtype": "int32", 
        "span": "0", 
        "value": "2"
      }
    }
  ], 
  "b64ndarrays": [
    "P6G0lvBAXt0AAAAAAAAAAAEAAAAAAAAAAQAAAAAgAQACAAAAAAAAAAgAAAAAAAAACAAAACAAAAA=", 
    "P6G0lvBAXt0AAAAAAAAAAAEAAAAAAAAAAQAAAAAgAQACAAAAAAAAAAgAAAAAAAAACAAAACAAAAA="
  ], 
  "attrs": {"tvm_version": "0.13.0"}
}