#[version = "0.0.5"]
def @main(%x0: Tensor[(2, 32), float32] /* ty=Tensor[(2, 32), float32] span=from_string:22:100 */, %x1: Tensor[(16, 32), float32] /* ty=Tensor[(16, 32), float32] span=from_string:86:105 */, %x2: Tensor[(8, 32), float32] /* ty=Tensor[(8, 32), float32] span=from_string:55:110 */, %x3: Tensor[(2, 11, 1), float32] /* ty=Tensor[(2, 11, 1), float32] span=from_string:81:111 */, %x4: Tensor[(2, 16, 1), float32] /* ty=Tensor[(2, 16, 1), float32] span=from_string:77:116 */, %x5: Tensor[(2, 16, 1), float32] /* ty=Tensor[(2, 16, 1), float32] span=from_string:81:116 */, %x6: Tensor[(5, 32), float32] /* ty=Tensor[(5, 32), float32] span=from_string:98:104 */, %x7: float32 /* ty=float32 span=from_string:94:111 */, %x8: Tensor[(32, 32), float32] /* ty=Tensor[(32, 32), float32] span=from_string:98:109 */, %x9: float32 /* ty=float32 span=from_string:102:111 */, %x10: Tensor[(72, 26), int32] /* ty=Tensor[(72, 26), int32] span=from_string:111:108 */) -> ((Tensor[(2, 16, 1), float32], Tensor[(2, 8, 1), float32]), Tensor[(2, 16), float32], (Tensor[(8, 32), float32], (Tensor[(8, 32), float32],)), (Tensor[(2, 11, 16), float32], Tensor[(2, 11, 16), float32], Tensor[(2, 11, 16), float32]), (Tensor[(5, 16), float32], Tensor[(5, 32), float32]), Tensor[(2, 8), float32], Tensor[(8, 32), int32], Tensor[(16, 32), float32]) {
  let %x_0 = fn (%p0: Tensor[(8, 32), float32] /* ty=Tensor[(8, 32), float32] span=from_string:4:20 */, Primitive=1) -> Tensor[(8, 32), float32] {
    multiply(%p0, %p0) /* ty=Tensor[(8, 32), float32] span=from_string:4:6 */
  } /* ty=fn (Tensor[(8, 32), float32]) -> Tensor[(8, 32), float32] span=from_string:6:98 */;
  let %x11: Tensor[(8, 32), float32] /* ty=Tensor[(8, 32), float32] span=from_string:61:163 */ = %x_0(%x2);
  let %x_1 = fn (%p01: Tensor[(8, 32), float32] /* ty=Tensor[(8, 32), float32] span=from_string:8:15 */, Primitive=1) -> Tensor[(8, 32), float32] {
    ones_like(%p01) /* ty=Tensor[(8, 32), float32] span=from_string:8:5 */
  } /* ty=fn (Tensor[(8, 32), float32]) -> Tensor[(8, 32), float32] span=from_string:10:99 */;
  let %x12: Tensor[(8, 32), float32] /* ty=Tensor[(8, 32), float32] span=from_string:111:102 */ = %x_1(%x11);
  let %x_2 = fn (%p02: Tensor[(2, 32), float32] /* ty=Tensor[(2, 32), float32] span=from_string:12:14 */, %p1: Tensor[(16, 32), float32] /* ty=Tensor[(16, 32), float32] span=from_string:12:20 */, Primitive=1) -> Tensor[(2, 16), float32] {
    nn.dense(%p02, %p1, units=None) /* ty=Tensor[(2, 16), float32] span=from_string:12:5 */
  } /* ty=fn (Tensor[(2, 32), float32], Tensor[(16, 32), float32]) -> Tensor[(2, 16), float32] span=from_string:14:98 */;
  let %x_01: Tensor[(2, 16), float32] /* ty=Tensor[(2, 16), float32] span=from_string:31:102 */ = %x_2(%x0, %x1);
  let %x_3 = fn (%p03: Tensor[(2, 16), float32] /* ty=Tensor[(2, 16), float32] span=from_string:16:17 */, Primitive=1, relay.reshape_only=1) -> Tensor[(2, 16, 1), float32] {
    expand_dims(%p03, axis=2) /* ty=Tensor[(2, 16, 1), float32] span=from_string:16:5 */
  } /* ty=fn (Tensor[(2, 16), float32]) -> Tensor[(2, 16, 1), float32] span=from_string:18:104 */;
  let %x_11: Tensor[(2, 16, 1), float32] /* ty=Tensor[(2, 16, 1), float32] span=from_string:65:109 */ = %x_3(%x_01);
  let %x_4 = fn (%p04: Tensor[(2, 32), float32] /* ty=Tensor[(2, 32), float32] span=from_string:20:14 */, %p11: Tensor[(8, 32), float32] /* ty=Tensor[(8, 32), float32] span=from_string:20:20 */, Primitive=1) -> Tensor[(2, 8), float32] {
    nn.dense(%p04, %p11, units=None) /* ty=Tensor[(2, 8), float32] span=from_string:20:5 */
  } /* ty=fn (Tensor[(2, 32), float32], Tensor[(8, 32), float32]) -> Tensor[(2, 8), float32] span=from_string:22:97 */;
  let %x_21: Tensor[(2, 8), float32] /* ty=Tensor[(2, 8), float32] span=from_string:107:102 */ = %x_4(%x0, %x2);
  let %x_5 = fn (%p05: Tensor[(2, 8), float32] /* ty=Tensor[(2, 8), float32] span=from_string:24:17 */, Primitive=1, relay.reshape_only=1) -> Tensor[(2, 8, 1), float32] {
    expand_dims(%p05, axis=2) /* ty=Tensor[(2, 8, 1), float32] span=from_string:24:5 */
  } /* ty=fn (Tensor[(2, 8), float32]) -> Tensor[(2, 8, 1), float32] span=from_string:26:102 */;
  let %x_31: Tensor[(2, 8, 1), float32] /* ty=Tensor[(2, 8, 1), float32] span=from_string:27:172 */ = %x_5(%x_21);
  let %x_41: (Tensor[(2, 16, 1), float32], Tensor[(2, 8, 1), float32]) /* ty=(Tensor[(2, 16, 1), float32], Tensor[(2, 8, 1), float32]) span=from_string:116:783 */ = (%x_11, %x_31) /* ty=(Tensor[(2, 16, 1), float32], Tensor[(2, 8, 1), float32]) span=from_string:27:165 */;
  let %x_6 = fn (%p06: Tensor[(2, 16), float32] /* ty=Tensor[(2, 16), float32] span=from_string:29:16 */, Primitive=1) -> Tensor[(2, 16), float32] {
    nn.softmax(%p06) /* ty=Tensor[(2, 16), float32] span=from_string:29:5 */
  } /* ty=fn (Tensor[(2, 16), float32]) -> Tensor[(2, 16), float32] span=from_string:31:99 */;
  let %x_51: Tensor[(2, 16), float32] /* ty=Tensor[(2, 16), float32] span=from_string:116:789 */ = %x_6(%x_01);
  let %x_7 = fn (%p07: Tensor[(8, 32), float32] /* ty=Tensor[(8, 32), float32] span=from_string:33:16 */, Primitive=1) -> Tensor[(8, 32), float32] {
    zeros_like(%p07) /* ty=Tensor[(8, 32), float32] span=from_string:33:5 */
  } /* ty=fn (Tensor[(8, 32), float32]) -> Tensor[(8, 32), float32] span=from_string:35:98 */;
  let %x_61: Tensor[(8, 32), float32] /* ty=Tensor[(8, 32), float32] span=from_string:47:102 */ = %x_7(%x2);
  let %x_8 = fn (%p08: Tensor[(8, 32), float32] /* ty=Tensor[(8, 32), float32] span=from_string:37:15 */, %p12: Tensor[(8, 32), float32] /* ty=Tensor[(8, 32), float32] span=from_string:37:21 */, Primitive=1) -> Tensor[(8, 32), float32] {
    multiply(%p08, %p12) /* ty=Tensor[(8, 32), float32] span=from_string:37:6 */
  } /* ty=fn (Tensor[(8, 32), float32], Tensor[(8, 32), float32]) -> Tensor[(8, 32), float32] span=from_string:39:98 */;
  let %x_71: Tensor[(8, 32), float32] /* ty=Tensor[(8, 32), float32] span=from_string:43:101 */ = %x_8(%x12, %x2);
  let %x_9 = fn (%p09: Tensor[(8, 32), float32] /* ty=Tensor[(8, 32), float32] span=from_string:41:23 */, %p13: Tensor[(8, 32), float32] /* ty=Tensor[(8, 32), float32] span=from_string:41:29 */, Primitive=1) -> Tensor[(8, 32), float32] {
    collapse_sum_like(%p09, %p13) /* ty=Tensor[(8, 32), float32] span=from_string:41:5 */
  } /* ty=fn (Tensor[(8, 32), float32], Tensor[(8, 32), float32]) -> Tensor[(8, 32), float32] span=from_string:43:98 */;
  let %x_81: Tensor[(8, 32), float32] /* ty=Tensor[(8, 32), float32] span=from_string:47:108 */ = %x_9(%x_71, %x2);
  let %x_10 = fn (%p010: Tensor[(8, 32), float32] /* ty=Tensor[(8, 32), float32] span=from_string:45:9 */, %p14: Tensor[(8, 32), float32] /* ty=Tensor[(8, 32), float32] span=from_string:45:16 */, Primitive=1) -> Tensor[(8, 32), float32] {
    add(%p010, %p14) /* ty=Tensor[(8, 32), float32] span=from_string:45:5 */
  } /* ty=fn (Tensor[(8, 32), float32], Tensor[(8, 32), float32]) -> Tensor[(8, 32), float32] span=from_string:47:98 */;
  let %x_91: Tensor[(8, 32), float32] /* ty=Tensor[(8, 32), float32] span=from_string:59:103 */ = %x_10(%x_61, %x_81);
  let %x_111 = fn (%p011: Tensor[(8, 32), float32] /* ty=Tensor[(8, 32), float32] span=from_string:49:15 */, %p15: Tensor[(8, 32), float32] /* ty=Tensor[(8, 32), float32] span=from_string:49:22 */, Primitive=1) -> Tensor[(8, 32), float32] {
    multiply(%p011, %p15) /* ty=Tensor[(8, 32), float32] span=from_string:49:6 */
  } /* ty=fn (Tensor[(8, 32), float32], Tensor[(8, 32), float32]) -> Tensor[(8, 32), float32] span=from_string:51:99 */;
  let %x_101: Tensor[(8, 32), float32] /* ty=Tensor[(8, 32), float32] span=from_string:55:103 */ = %x_111(%x12, %x2);
  let %x_12 = fn (%p012: Tensor[(8, 32), float32] /* ty=Tensor[(8, 32), float32] span=from_string:53:23 */, %p16: Tensor[(8, 32), float32] /* ty=Tensor[(8, 32), float32] span=from_string:53:30 */, Primitive=1) -> Tensor[(8, 32), float32] {
    collapse_sum_like(%p012, %p16) /* ty=Tensor[(8, 32), float32] span=from_string:53:5 */
  } /* ty=fn (Tensor[(8, 32), float32], Tensor[(8, 32), float32]) -> Tensor[(8, 32), float32] span=from_string:55:99 */;
  let %x_112: Tensor[(8, 32), float32] /* ty=Tensor[(8, 32), float32] span=from_string:59:109 */ = %x_12(%x_101, %x2);
  let %x_13 = fn (%p013: Tensor[(8, 32), float32] /* ty=Tensor[(8, 32), float32] span=from_string:57:9 */, %p17: Tensor[(8, 32), float32] /* ty=Tensor[(8, 32), float32] span=from_string:57:16 */, Primitive=1) -> Tensor[(8, 32), float32] {
    add(%p013, %p17) /* ty=Tensor[(8, 32), float32] span=from_string:57:5 */
  } /* ty=fn (Tensor[(8, 32), float32], Tensor[(8, 32), float32]) -> Tensor[(8, 32), float32] span=from_string:59:99 */;
  let %x_121: Tensor[(8, 32), float32] /* ty=Tensor[(8, 32), float32] span=from_string:60:106 */ = %x_13(%x_91, %x_112);
  let %x_131: (Tensor[(8, 32), float32],) /* ty=(Tensor[(8, 32), float32],) span=from_string:61:169 */ = (%x_121,) /* ty=(Tensor[(8, 32), float32],) span=from_string:60:105 */;
  let %x_14: (Tensor[(8, 32), float32], (Tensor[(8, 32), float32],)) /* ty=(Tensor[(8, 32), float32], (Tensor[(8, 32), float32],)) span=from_string:116:795 */ = (%x11, %x_131) /* ty=(Tensor[(8, 32), float32], (Tensor[(8, 32), float32],)) span=from_string:61:162 */;
  let %x_141 = fn (%p014: Tensor[(2, 16, 1), float32] /* ty=Tensor[(2, 16, 1), float32] span=from_string:63:10 */, Primitive=1) -> Tensor[(2, 16, 1), float32] {
    sqrt(%p014) /* ty=Tensor[(2, 16, 1), float32] span=from_string:63:5 */
  } /* ty=fn (Tensor[(2, 16, 1), float32]) -> Tensor[(2, 16, 1), float32] span=from_string:65:105 */;
  let %x_16: Tensor[(2, 16, 1), float32] /* ty=Tensor[(2, 16, 1), float32] span=from_string:69:153 */ = %x_141(%x_11);
  let %x_15 = 2f /* ty=float32 span=from_string:69:111 */;
  let %x_161 = fn (%p015: float32 /* ty=float32 span=from_string:67:12 */, %p18: Tensor[(2, 16, 1), float32] /* ty=Tensor[(2, 16, 1), float32] span=from_string:67:19 */, Primitive=1) -> Tensor[(2, 16, 1), float32] {
    divide(%p015, %p18) /* ty=Tensor[(2, 16, 1), float32] span=from_string:67:5 */
  } /* ty=fn (float32, Tensor[(2, 16, 1), float32]) -> Tensor[(2, 16, 1), float32] span=from_string:69:105 */;
  let %x_17: Tensor[(2, 16, 1), float32] /* ty=Tensor[(2, 16, 1), float32] span=from_string:73:116 */ = %x_161(%x_15, %x_16);
  let %x_171 = fn (%p016: Tensor[(2, 11, 1), float32] /* ty=Tensor[(2, 11, 1), float32] span=from_string:71:21 */, %p19: Tensor[(2, 16, 1), float32] /* ty=Tensor[(2, 16, 1), float32] span=from_string:71:28 */, Primitive=1) -> Tensor[(2, 11, 16), float32] {
    nn.batch_matmul(%p016, %p19, transpose_b=True) /* ty=Tensor[(2, 11, 16), float32] span=from_string:71:5 */
  } /* ty=fn (Tensor[(2, 11, 1), float32], Tensor[(2, 16, 1), float32]) -> Tensor[(2, 11, 16), float32] span=from_string:73:107 */;
  let %x_18: Tensor[(2, 11, 16), float32] /* ty=Tensor[(2, 11, 16), float32] span=from_string:82:233 */ = %x_171(%x3, %x_17);
  let %x_181 = fn (%p017: Tensor[(2, 11, 1), float32] /* ty=Tensor[(2, 11, 1), float32] span=from_string:75:21 */, %p110: Tensor[(2, 16, 1), float32] /* ty=Tensor[(2, 16, 1), float32] span=from_string:75:28 */, Primitive=1) -> Tensor[(2, 11, 16), float32] {
    nn.batch_matmul(%p017, %p110, transpose_b=True) /* ty=Tensor[(2, 11, 16), float32] span=from_string:75:5 */
  } /* ty=fn (Tensor[(2, 11, 1), float32], Tensor[(2, 16, 1), float32]) -> Tensor[(2, 11, 16), float32] span=from_string:77:107 */;
  let %x_19: Tensor[(2, 11, 16), float32] /* ty=Tensor[(2, 11, 16), float32] span=from_string:82:240 */ = %x_181(%x3, %x4);
  let %x_191 = fn (%p018: Tensor[(2, 11, 1), float32] /* ty=Tensor[(2, 11, 1), float32] span=from_string:79:21 */, %p111: Tensor[(2, 16, 1), float32] /* ty=Tensor[(2, 16, 1), float32] span=from_string:79:28 */, Primitive=1) -> Tensor[(2, 11, 16), float32] {
    nn.batch_matmul(%p018, %p111, transpose_b=True) /* ty=Tensor[(2, 11, 16), float32] span=from_string:79:5 */
  } /* ty=fn (Tensor[(2, 11, 1), float32], Tensor[(2, 16, 1), float32]) -> Tensor[(2, 11, 16), float32] span=from_string:81:107 */;
  let %x_20: Tensor[(2, 11, 16), float32] /* ty=Tensor[(2, 11, 16), float32] span=from_string:82:247 */ = %x_191(%x3, %x5);
  let %x_211: (Tensor[(2, 11, 16), float32], Tensor[(2, 11, 16), float32], Tensor[(2, 11, 16), float32]) /* ty=(Tensor[(2, 11, 16), float32], Tensor[(2, 11, 16), float32], Tensor[(2, 11, 16), float32]) span=from_string:116:802 */ = (%x_18, %x_19, %x_20) /* ty=(Tensor[(2, 11, 16), float32], Tensor[(2, 11, 16), float32], Tensor[(2, 11, 16), float32]) span=from_string:82:232 */;
  let %x_201 = 1f /* ty=float32 span=from_string:86:112 */;
  let %x_212 = fn (%p019: Tensor[(16, 32), float32] /* ty=Tensor[(16, 32), float32] span=from_string:84:9 */, %p112: float32 /* ty=float32 span=from_string:84:16 */, Primitive=1) -> Tensor[(16, 32), float32] {
    add(%p019, %p112) /* ty=Tensor[(16, 32), float32] span=from_string:84:5 */
  } /* ty=fn (Tensor[(16, 32), float32], float32) -> Tensor[(16, 32), float32] span=from_string:86:101 */;
  let %x_23: Tensor[(16, 32), float32] /* ty=Tensor[(16, 32), float32] span=from_string:90:108 */ = %x_212(%x1, %x_201);
  let %x_22 = fn (%p020: Tensor[(5, 32), float32] /* ty=Tensor[(5, 32), float32] span=from_string:88:14 */, %p113: Tensor[(16, 32), float32] /* ty=Tensor[(16, 32), float32] span=from_string:88:21 */, Primitive=1) -> Tensor[(5, 16), float32] {
    nn.dense(%p020, %p113, units=None) /* ty=Tensor[(5, 16), float32] span=from_string:88:5 */
  } /* ty=fn (Tensor[(5, 32), float32], Tensor[(16, 32), float32]) -> Tensor[(5, 16), float32] span=from_string:90:99 */;
  let %x_24: Tensor[(5, 16), float32] /* ty=Tensor[(5, 16), float32] span=from_string:94:104 */ = %x_22(%x6, %x_23);
  let %x_231 = fn (%p021: Tensor[(5, 16), float32] /* ty=Tensor[(5, 16), float32] span=from_string:92:9 */, %p114: float32 /* ty=float32 span=from_string:92:16 */, Primitive=1) -> Tensor[(5, 16), float32] {
    add(%p021, %p114) /* ty=Tensor[(5, 16), float32] span=from_string:92:5 */
  } /* ty=fn (Tensor[(5, 16), float32], float32) -> Tensor[(5, 16), float32] span=from_string:94:100 */;
  let %x_25: Tensor[(5, 16), float32] /* ty=Tensor[(5, 16), float32] span=from_string:103:157 */ = %x_231(%x_24, %x7);
  let %x_241 = fn (%p022: Tensor[(5, 32), float32] /* ty=Tensor[(5, 32), float32] span=from_string:96:14 */, %p115: Tensor[(32, 32), float32] /* ty=Tensor[(32, 32), float32] span=from_string:96:21 */, Primitive=1) -> Tensor[(5, 32), float32] {
    nn.dense(%p022, %p115, units=None) /* ty=Tensor[(5, 32), float32] span=from_string:96:5 */
  } /* ty=fn (Tensor[(5, 32), float32], Tensor[(32, 32), float32]) -> Tensor[(5, 32), float32] span=from_string:98:100 */;
  let %x_26: Tensor[(5, 32), float32] /* ty=Tensor[(5, 32), float32] span=from_string:102:104 */ = %x_241(%x6, %x8);
  let %x_251 = fn (%p023: Tensor[(5, 32), float32] /* ty=Tensor[(5, 32), float32] span=from_string:100:9 */, %p116: float32 /* ty=float32 span=from_string:100:16 */, Primitive=1) -> Tensor[(5, 32), float32] {
    add(%p023, %p116) /* ty=Tensor[(5, 32), float32] span=from_string:100:5 */
  } /* ty=fn (Tensor[(5, 32), float32], float32) -> Tensor[(5, 32), float32] span=from_string:102:100 */;
  let %x_27: Tensor[(5, 32), float32] /* ty=Tensor[(5, 32), float32] span=from_string:103:164 */ = %x_251(%x_26, %x9);
  let %x_28: (Tensor[(5, 16), float32], Tensor[(5, 32), float32]) /* ty=(Tensor[(5, 16), float32], Tensor[(5, 32), float32]) span=from_string:116:809 */ = (%x_25, %x_27) /* ty=(Tensor[(5, 16), float32], Tensor[(5, 32), float32]) span=from_string:103:156 */;
  let %x_261 = fn (%p024: Tensor[(2, 8), float32] /* ty=Tensor[(2, 8), float32] span=from_string:105:16 */, Primitive=1) -> Tensor[(2, 8), float32] {
    nn.softmax(%p024) /* ty=Tensor[(2, 8), float32] span=from_string:105:5 */
  } /* ty=fn (Tensor[(2, 8), float32]) -> Tensor[(2, 8), float32] span=from_string:107:98 */;
  let %x_29: Tensor[(2, 8), float32] /* ty=Tensor[(2, 8), float32] span=from_string:116:816 */ = %x_261(%x_21);
  let %x_271 = fn (%p025: Tensor[(8, 32), float32] /* ty=Tensor[(8, 32), float32] span=from_string:109:15 */, %p117: Tensor[(72, 26), int32] /* ty=Tensor[(72, 26), int32] span=from_string:109:22 */, Primitive=1) -> Tensor[(8, 32), int32] {
    cast_like(%p025, %p117) /* ty=Tensor[(8, 32), int32] span=from_string:109:5 */
  } /* ty=fn (Tensor[(8, 32), float32], Tensor[(72, 26), int32]) -> Tensor[(8, 32), int32] span=from_string:111:98 */;
  let %x_30: Tensor[(8, 32), int32] /* ty=Tensor[(8, 32), int32] span=from_string:116:823 */ = %x_271(%x12, %x10);
  let %x_281 = fn (Primitive=1) -> Tensor[(16, 32), float32] {
    ones(shape=[16, 32], dtype="float32") /* ty=Tensor[(16, 32), float32] span=from_string:113:5 */
  } /* ty=fn () -> Tensor[(16, 32), float32] span=from_string:115:102 */;
  let %x_311: Tensor[(16, 32), float32] /* ty=Tensor[(16, 32), float32] span=from_string:116:830 */ = %x_281();
  let %x_32: ((Tensor[(2, 16, 1), float32], Tensor[(2, 8, 1), float32]), Tensor[(2, 16), float32], (Tensor[(8, 32), float32], (Tensor[(8, 32), float32],)), (Tensor[(2, 11, 16), float32], Tensor[(2, 11, 16), float32], Tensor[(2, 11, 16), float32]), (Tensor[(5, 16), float32], Tensor[(5, 32), float32]), Tensor[(2, 8), float32], Tensor[(8, 32), int32], Tensor[(16, 32), float32]) /* ty=((Tensor[(2, 16, 1), float32], Tensor[(2, 8, 1), float32]), Tensor[(2, 16), float32], (Tensor[(8, 32), float32], (Tensor[(8, 32), float32],)), (Tensor[(2, 11, 16), float32], Tensor[(2, 11, 16), float32], Tensor[(2, 11, 16), float32]), (Tensor[(5, 16), float32], Tensor[(5, 32), float32]), Tensor[(2, 8), float32], Tensor[(8, 32), int32], Tensor[(16, 32), float32]) span=from_string:117:782 */ = (%x_41, %x_51, %x_14, %x_211, %x_28, %x_29, %x_30, %x_311) /* ty=((Tensor[(2, 16, 1), float32], Tensor[(2, 8, 1), float32]), Tensor[(2, 16), float32], (Tensor[(8, 32), float32], (Tensor[(8, 32), float32],)), (Tensor[(2, 11, 16), float32], Tensor[(2, 11, 16), float32], Tensor[(2, 11, 16), float32]), (Tensor[(5, 16), float32], Tensor[(5, 32), float32]), Tensor[(2, 8), float32], Tensor[(8, 32), int32], Tensor[(16, 32), float32]) span=from_string:116:782 */;
  let %x_33: ((Tensor[(2, 16, 1), float32], Tensor[(2, 8, 1), float32]), Tensor[(2, 16), float32], (Tensor[(8, 32), float32], (Tensor[(8, 32), float32],)), (Tensor[(2, 11, 16), float32], Tensor[(2, 11, 16), float32], Tensor[(2, 11, 16), float32]), (Tensor[(5, 16), float32], Tensor[(5, 32), float32]), Tensor[(2, 8), float32], Tensor[(8, 32), int32], Tensor[(16, 32), float32]) /* ty=((Tensor[(2, 16, 1), float32], Tensor[(2, 8, 1), float32]), Tensor[(2, 16), float32], (Tensor[(8, 32), float32], (Tensor[(8, 32), float32],)), (Tensor[(2, 11, 16), float32], Tensor[(2, 11, 16), float32], Tensor[(2, 11, 16), float32]), (Tensor[(5, 16), float32], Tensor[(5, 32), float32]), Tensor[(2, 8), float32], Tensor[(8, 32), int32], Tensor[(16, 32), float32]) span=from_string:118:780 */ = %x_32;
  let %x_34: ((Tensor[(2, 16, 1), float32], Tensor[(2, 8, 1), float32]), Tensor[(2, 16), float32], (Tensor[(8, 32), float32], (Tensor[(8, 32), float32],)), (Tensor[(2, 11, 16), float32], Tensor[(2, 11, 16), float32], Tensor[(2, 11, 16), float32]), (Tensor[(5, 16), float32], Tensor[(5, 32), float32]), Tensor[(2, 8), float32], Tensor[(8, 32), int32], Tensor[(16, 32), float32]) /* ty=((Tensor[(2, 16, 1), float32], Tensor[(2, 8, 1), float32]), Tensor[(2, 16), float32], (Tensor[(8, 32), float32], (Tensor[(8, 32), float32],)), (Tensor[(2, 11, 16), float32], Tensor[(2, 11, 16), float32], Tensor[(2, 11, 16), float32]), (Tensor[(5, 16), float32], Tensor[(5, 32), float32]), Tensor[(2, 8), float32], Tensor[(8, 32), int32], Tensor[(16, 32), float32]) span=from_string:119:3 */ = %x_33;
  let %x_291 = %x_34;
  let %x_301 = %x_291;
  let %x_312 = %x_301;
  let %x_321 = %x_312;
  let %x_331 = %x_321;
  let %x_341 = %x_331;
  let %x_35 = %x_341;
  let %x_36 = %x_35;
  let %x_37 = %x_36;
  let %x_38 = %x_37;
  let %x_39 = %x_38;
  let %x_40 = %x_39;
  let %x_411 = %x_40;
  let %x_42 = %x_411;
  let %x_43 = %x_42;
  let %x_44 = %x_43;
  let %x_45 = %x_44;
  let %x_46 = %x_45;
  let %x_47 = %x_46;
  let %x_48 = %x_47;
  let %x_49 = %x_48;
  let %x_50 = %x_49;
  let %x_511 = %x_50;
  let %x_52 = %x_511;
  let %x_53 = %x_52;
  let %x_54 = %x_53;
  let %x_55 = %x_54;
  let %x_56 = %x_55;
  let %x_57 = %x_56;
  let %x_58 = %x_57;
  let %x_59 = %x_58;
  let %x_60 = %x_59;
  let %x_611 = %x_60;
  let %x_62 = %x_611;
  let %x_63 = %x_62;
  %x_63
}
