#[version = "0.0.5"]
def @main(%x0: Tensor[(2, 32), float32] /* ty=Tensor[(2, 32), float32] span=from_string:13:11 */, %x1: Tensor[(16, 32), float32] /* ty=Tensor[(16, 32), float32] span=from_string:82:13 */, %x2: Tensor[(8, 32), float32] /* ty=Tensor[(8, 32), float32] span=from_string:53:18 */, %x3: Tensor[(2, 11, 1), float32] /* ty=Tensor[(2, 11, 1), float32] span=from_string:78:13 */, %x4: Tensor[(2, 16, 1), float32] /* ty=Tensor[(2, 16, 1), float32] span=from_string:77:18 */, %x5: Tensor[(2, 16, 1), float32] /* ty=Tensor[(2, 16, 1), float32] span=from_string:78:18 */, %x6: Tensor[(5, 32), float32] /* ty=Tensor[(5, 32), float32] span=from_string:93:13 */, %x7: float32 /* ty=float32 span=from_string:97:18 */, %x8: Tensor[(32, 32), float32] /* ty=Tensor[(32, 32), float32] span=from_string:93:18 */, %x9: float32 /* ty=float32 span=from_string:98:18 */, %x10: Tensor[(72, 26), int32] /* ty=Tensor[(72, 26), int32] span=from_string:114:18 */) -> ((Tensor[(2, 16, 1), float32], Tensor[(2, 8, 1), float32]), Tensor[(2, 16), float32], (Tensor[(8, 32), float32], (Tensor[(8, 32), float32],)), (Tensor[(2, 11, 16), float32], Tensor[(2, 11, 16), float32], Tensor[(2, 11, 16), float32]), (Tensor[(5, 16), float32], Tensor[(5, 32), float32]), Tensor[(2, 8), float32], Tensor[(8, 32), int32], Tensor[(16, 32), float32]) {
  %0 = fn (%p02: Tensor[(2, 32), float32] /* ty=Tensor[(2, 32), float32] span=from_string:4:14 */, %p1: Tensor[(16, 32), float32] /* ty=Tensor[(16, 32), float32] span=from_string:4:20 */, Primitive=1) -> Tensor[(2, 16), float32] {
    nn.dense(%p02, %p1, units=None) /* ty=Tensor[(2, 16), float32] span=from_string:4:5 */
  } /* ty=fn (Tensor[(2, 32), float32], Tensor[(16, 32), float32]) -> Tensor[(2, 16), float32] span=from_string:6:8 */;
  %1 = %0(%x0, %x1) /* ty=Tensor[(2, 16), float32] span=from_string:109:12 */;
  %2 = fn (%p03: Tensor[(2, 16), float32] /* ty=Tensor[(2, 16), float32] span=from_string:8:17 */, Primitive=1, relay.reshape_only=1) -> Tensor[(2, 16, 1), float32] {
    expand_dims(%p03, axis=2) /* ty=Tensor[(2, 16, 1), float32] span=from_string:8:5 */
  } /* ty=fn (Tensor[(2, 16), float32]) -> Tensor[(2, 16, 1), float32] span=from_string:17:8 */;
  %3 = fn (%p04: Tensor[(2, 32), float32] /* ty=Tensor[(2, 32), float32] span=from_string:11:14 */, %p11: Tensor[(8, 32), float32] /* ty=Tensor[(8, 32), float32] span=from_string:11:20 */, Primitive=1) -> Tensor[(2, 8), float32] {
    nn.dense(%p04, %p11, units=None) /* ty=Tensor[(2, 8), float32] span=from_string:11:5 */
  } /* ty=fn (Tensor[(2, 32), float32], Tensor[(8, 32), float32]) -> Tensor[(2, 8), float32] span=from_string:13:8 */;
  %4 = %3(%x0, %x2) /* ty=Tensor[(2, 8), float32] span=from_string:113:13 */;
  %5 = fn (%p05: Tensor[(2, 8), float32] /* ty=Tensor[(2, 8), float32] span=from_string:15:17 */, Primitive=1, relay.reshape_only=1) -> Tensor[(2, 8, 1), float32] {
    expand_dims(%p05, axis=2) /* ty=Tensor[(2, 8, 1), float32] span=from_string:15:5 */
  } /* ty=fn (Tensor[(2, 8), float32]) -> Tensor[(2, 8, 1), float32] span=from_string:18:8 */;
  %6 = %2(%1) /* ty=Tensor[(2, 16, 1), float32] span=from_string:108:10 */;
  %7 = %5(%4) /* ty=Tensor[(2, 8, 1), float32] span=from_string:108:14 */;
  %8 = fn (%p06: Tensor[(2, 16), float32] /* ty=Tensor[(2, 16), float32] span=from_string:20:16 */, Primitive=1) -> Tensor[(2, 16), float32] {
    nn.softmax(%p06) /* ty=Tensor[(2, 16), float32] span=from_string:20:5 */
  } /* ty=fn (Tensor[(2, 16), float32]) -> Tensor[(2, 16), float32] span=from_string:109:9 */;
  %9 = fn (%p0: Tensor[(8, 32), float32] /* ty=Tensor[(8, 32), float32] span=from_string:23:20 */, Primitive=1) -> Tensor[(8, 32), float32] {
    multiply(%p0, %p0) /* ty=Tensor[(8, 32), float32] span=from_string:23:6 */
  } /* ty=fn (Tensor[(8, 32), float32]) -> Tensor[(8, 32), float32] span=from_string:28:9 */;
  %10 = fn (%p07: Tensor[(8, 32), float32] /* ty=Tensor[(8, 32), float32] span=from_string:26:16 */, Primitive=1) -> Tensor[(8, 32), float32] {
    zeros(shape=[8, 32], dtype="float32") /* ty=Tensor[(8, 32), float32] */
  } /* ty=fn (Tensor[(8, 32), float32]) -> Tensor[(8, 32), float32] span=from_string:40:9 */;
  %11 = %9(%x2) /* ty=Tensor[(8, 32), float32] span=from_string:110:10 */;
  %12 = fn (%p01: Tensor[(8, 32), float32] /* ty=Tensor[(8, 32), float32] span=from_string:30:15 */, Primitive=1) -> Tensor[(8, 32), float32] {
    ones(shape=[8, 32], dtype="float32") /* ty=Tensor[(8, 32), float32] */
  } /* ty=fn (Tensor[(8, 32), float32]) -> Tensor[(8, 32), float32] span=from_string:32:9 */;
  %13 = %12(%11) /* ty=Tensor[(8, 32), float32] span=from_string:114:13 */;
  %14 = fn (%p08: Tensor[(8, 32), float32] /* ty=Tensor[(8, 32), float32] span=from_string:34:15 */, %p12: Tensor[(8, 32), float32] /* ty=Tensor[(8, 32), float32] span=from_string:34:21 */, Primitive=1) -> Tensor[(8, 32), float32] {
    multiply(%p08, %p12) /* ty=Tensor[(8, 32), float32] span=from_string:34:6 */
  } /* ty=fn (Tensor[(8, 32), float32], Tensor[(8, 32), float32]) -> Tensor[(8, 32), float32] span=from_string:36:9 */;
  %15 = %14(%13, %x2) /* ty=Tensor[(8, 32), float32] span=from_string:41:13 */;
  %16 = fn (%p09: Tensor[(8, 32), float32] /* ty=Tensor[(8, 32), float32] span=from_string:38:23 */, %p13: Tensor[(8, 32), float32] /* ty=Tensor[(8, 32), float32] span=from_string:38:29 */, Primitive=1) -> Tensor[(8, 32), float32] {
    collapse_sum_to(%p09, meta[relay.Constant][0] /* ty=Tensor[(2), int32] */, meta[relay.attrs.InitOpAttrs][0]) /* ty=Tensor[(8, 32), float32] */
  } /* ty=fn (Tensor[(8, 32), float32], Tensor[(8, 32), float32]) -> Tensor[(8, 32), float32] span=from_string:41:9 */;
  %17 = %10(%x2) /* ty=Tensor[(8, 32), float32] span=from_string:52:13 */;
  %18 = %16(%15, %x2) /* ty=Tensor[(8, 32), float32] span=from_string:52:18 */;
  %19 = fn (%p010: Tensor[(8, 32), float32] /* ty=Tensor[(8, 32), float32] span=from_string:43:9 */, %p14: Tensor[(8, 32), float32] /* ty=Tensor[(8, 32), float32] span=from_string:43:16 */, Primitive=1) -> Tensor[(8, 32), float32] {
    add(%p010, %p14) /* ty=Tensor[(8, 32), float32] span=from_string:43:5 */
  } /* ty=fn (Tensor[(8, 32), float32], Tensor[(8, 32), float32]) -> Tensor[(8, 32), float32] span=from_string:52:9 */;
  %20 = fn (%p011: Tensor[(8, 32), float32] /* ty=Tensor[(8, 32), float32] span=from_string:46:15 */, %p15: Tensor[(8, 32), float32] /* ty=Tensor[(8, 32), float32] span=from_string:46:22 */, Primitive=1) -> Tensor[(8, 32), float32] {
    multiply(%p011, %p15) /* ty=Tensor[(8, 32), float32] span=from_string:46:6 */
  } /* ty=fn (Tensor[(8, 32), float32], Tensor[(8, 32), float32]) -> Tensor[(8, 32), float32] span=from_string:48:9 */;
  %21 = %20(%13, %x2) /* ty=Tensor[(8, 32), float32] span=from_string:53:13 */;
  %22 = fn (%p012: Tensor[(8, 32), float32] /* ty=Tensor[(8, 32), float32] span=from_string:50:23 */, %p16: Tensor[(8, 32), float32] /* ty=Tensor[(8, 32), float32] span=from_string:50:30 */, Primitive=1) -> Tensor[(8, 32), float32] {
    collapse_sum_to(%p012, meta[relay.Constant][1] /* ty=Tensor[(2), int32] */, meta[relay.attrs.InitOpAttrs][1]) /* ty=Tensor[(8, 32), float32] */
  } /* ty=fn (Tensor[(8, 32), float32], Tensor[(8, 32), float32]) -> Tensor[(8, 32), float32] span=from_string:53:9 */;
  %23 = %19(%17, %18) /* ty=Tensor[(8, 32), float32] span=from_string:57:13 */;
  %24 = %22(%21, %x2) /* ty=Tensor[(8, 32), float32] span=from_string:57:18 */;
  %25 = fn (%p013: Tensor[(8, 32), float32] /* ty=Tensor[(8, 32), float32] span=from_string:55:9 */, %p17: Tensor[(8, 32), float32] /* ty=Tensor[(8, 32), float32] span=from_string:55:16 */, Primitive=1) -> Tensor[(8, 32), float32] {
    add(%p013, %p17) /* ty=Tensor[(8, 32), float32] span=from_string:55:5 */
  } /* ty=fn (Tensor[(8, 32), float32], Tensor[(8, 32), float32]) -> Tensor[(8, 32), float32] span=from_string:57:9 */;
  %26 = %25(%23, %24) /* ty=Tensor[(8, 32), float32] span=from_string:58:10 */;
  %27 = (%26,) /* ty=(Tensor[(8, 32), float32],) span=from_string:110:15 */;
  %28 = fn (%p014: Tensor[(2, 16, 1), float32] /* ty=Tensor[(2, 16, 1), float32] span=from_string:60:10 */, Primitive=1) -> Tensor[(2, 16, 1), float32] {
    sqrt(%p014) /* ty=Tensor[(2, 16, 1), float32] span=from_string:60:5 */
  } /* ty=fn (Tensor[(2, 16, 1), float32]) -> Tensor[(2, 16, 1), float32] span=from_string:62:9 */;
  %29 = %28(%6) /* ty=Tensor[(2, 16, 1), float32] span=from_string:66:57 */;
  %30 = fn (%p015: float32 /* ty=float32 span=from_string:64:12 */, %p18: Tensor[(2, 16, 1), float32] /* ty=Tensor[(2, 16, 1), float32] span=from_string:64:19 */, Primitive=1) -> Tensor[(2, 16, 1), float32] {
    divide(%p015, %p18) /* ty=Tensor[(2, 16, 1), float32] span=from_string:64:5 */
  } /* ty=fn (float32, Tensor[(2, 16, 1), float32]) -> Tensor[(2, 16, 1), float32] span=from_string:66:9 */;
  %31 = %30(2f /* ty=float32 span=from_string:66:15 */, %29) /* ty=Tensor[(2, 16, 1), float32] span=from_string:76:18 */;
  %32 = fn (%p016: Tensor[(2, 11, 1), float32] /* ty=Tensor[(2, 11, 1), float32] span=from_string:68:21 */, %p19: Tensor[(2, 16, 1), float32] /* ty=Tensor[(2, 16, 1), float32] span=from_string:68:28 */, Primitive=1) -> Tensor[(2, 11, 16), float32] {
    nn.batch_matmul(%p016, %p19, transpose_b=True) /* ty=Tensor[(2, 11, 16), float32] span=from_string:68:5 */
  } /* ty=fn (Tensor[(2, 11, 1), float32], Tensor[(2, 16, 1), float32]) -> Tensor[(2, 11, 16), float32] span=from_string:76:9 */;
  %33 = fn (%p017: Tensor[(2, 11, 1), float32] /* ty=Tensor[(2, 11, 1), float32] span=from_string:71:21 */, %p110: Tensor[(2, 16, 1), float32] /* ty=Tensor[(2, 16, 1), float32] span=from_string:71:28 */, Primitive=1) -> Tensor[(2, 11, 16), float32] {
    nn.batch_matmul(%p017, %p110, transpose_b=True) /* ty=Tensor[(2, 11, 16), float32] span=from_string:71:5 */
  } /* ty=fn (Tensor[(2, 11, 1), float32], Tensor[(2, 16, 1), float32]) -> Tensor[(2, 11, 16), float32] span=from_string:77:9 */;
  %34 = fn (%p018: Tensor[(2, 11, 1), float32] /* ty=Tensor[(2, 11, 1), float32] span=from_string:74:21 */, %p111: Tensor[(2, 16, 1), float32] /* ty=Tensor[(2, 16, 1), float32] span=from_string:74:28 */, Primitive=1) -> Tensor[(2, 11, 16), float32] {
    nn.batch_matmul(%p018, %p111, transpose_b=True) /* ty=Tensor[(2, 11, 16), float32] span=from_string:74:5 */
  } /* ty=fn (Tensor[(2, 11, 1), float32], Tensor[(2, 16, 1), float32]) -> Tensor[(2, 11, 16), float32] span=from_string:78:9 */;
  %35 = %32(%x3, %31) /* ty=Tensor[(2, 11, 16), float32] span=from_string:111:10 */;
  %36 = %33(%x3, %x4) /* ty=Tensor[(2, 11, 16), float32] span=from_string:111:15 */;
  %37 = %34(%x3, %x5) /* ty=Tensor[(2, 11, 16), float32] span=from_string:111:20 */;
  %38 = fn (%p019: Tensor[(16, 32), float32] /* ty=Tensor[(16, 32), float32] span=from_string:80:9 */, %p112: float32 /* ty=float32 span=from_string:80:16 */, Primitive=1) -> Tensor[(16, 32), float32] {
    add(%p019, %p112) /* ty=Tensor[(16, 32), float32] span=from_string:80:5 */
  } /* ty=fn (Tensor[(16, 32), float32], float32) -> Tensor[(16, 32), float32] span=from_string:82:9 */;
  %39 = %38(%x1, 1f /* ty=float32 span=from_string:82:20 */) /* ty=Tensor[(16, 32), float32] span=from_string:86:18 */;
  %40 = fn (%p020: Tensor[(5, 32), float32] /* ty=Tensor[(5, 32), float32] span=from_string:84:14 */, %p113: Tensor[(16, 32), float32] /* ty=Tensor[(16, 32), float32] span=from_string:84:21 */, Primitive=1) -> Tensor[(5, 16), float32] {
    nn.dense(%p020, %p113, units=None) /* ty=Tensor[(5, 16), float32] span=from_string:84:5 */
  } /* ty=fn (Tensor[(5, 32), float32], Tensor[(16, 32), float32]) -> Tensor[(5, 16), float32] span=from_string:86:9 */;
  %41 = %40(%x6, %39) /* ty=Tensor[(5, 16), float32] span=from_string:97:13 */;
  %42 = fn (%p021: Tensor[(5, 16), float32] /* ty=Tensor[(5, 16), float32] span=from_string:88:9 */, %p114: float32 /* ty=float32 span=from_string:88:16 */, Primitive=1) -> Tensor[(5, 16), float32] {
    add(%p021, %p114) /* ty=Tensor[(5, 16), float32] span=from_string:88:5 */
  } /* ty=fn (Tensor[(5, 16), float32], float32) -> Tensor[(5, 16), float32] span=from_string:97:9 */;
  %43 = fn (%p022: Tensor[(5, 32), float32] /* ty=Tensor[(5, 32), float32] span=from_string:91:14 */, %p115: Tensor[(32, 32), float32] /* ty=Tensor[(32, 32), float32] span=from_string:91:21 */, Primitive=1) -> Tensor[(5, 32), float32] {
    nn.dense(%p022, %p115, units=None) /* ty=Tensor[(5, 32), float32] span=from_string:91:5 */
  } /* ty=fn (Tensor[(5, 32), float32], Tensor[(32, 32), float32]) -> Tensor[(5, 32), float32] span=from_string:93:9 */;
  %44 = %43(%x6, %x8) /* ty=Tensor[(5, 32), float32] span=from_string:98:13 */;
  %45 = fn (%p023: Tensor[(5, 32), float32] /* ty=Tensor[(5, 32), float32] span=from_string:95:9 */, %p116: float32 /* ty=float32 span=from_string:95:16 */, Primitive=1) -> Tensor[(5, 32), float32] {
    add(%p023, %p116) /* ty=Tensor[(5, 32), float32] span=from_string:95:5 */
  } /* ty=fn (Tensor[(5, 32), float32], float32) -> Tensor[(5, 32), float32] span=from_string:98:9 */;
  %46 = %42(%41, %x7) /* ty=Tensor[(5, 16), float32] span=from_string:112:10 */;
  %47 = %45(%44, %x9) /* ty=Tensor[(5, 32), float32] span=from_string:112:15 */;
  %48 = fn (%p024: Tensor[(2, 8), float32] /* ty=Tensor[(2, 8), float32] span=from_string:100:16 */, Primitive=1) -> Tensor[(2, 8), float32] {
    nn.softmax(%p024) /* ty=Tensor[(2, 8), float32] span=from_string:100:5 */
  } /* ty=fn (Tensor[(2, 8), float32]) -> Tensor[(2, 8), float32] span=from_string:113:9 */;
  %49 = fn (%p025: Tensor[(8, 32), float32] /* ty=Tensor[(8, 32), float32] span=from_string:103:15 */, %p117: Tensor[(72, 26), int32] /* ty=Tensor[(72, 26), int32] span=from_string:103:22 */, Primitive=1) -> Tensor[(8, 32), int32] {
    cast(%p025, dtype="int32") /* ty=Tensor[(8, 32), int32] */
  } /* ty=fn (Tensor[(8, 32), float32], Tensor[(72, 26), int32]) -> Tensor[(8, 32), int32] span=from_string:114:9 */;
  %50 = fn (Primitive=1) -> Tensor[(16, 32), float32] {
    ones(shape=[16, 32], dtype="float32") /* ty=Tensor[(16, 32), float32] span=from_string:106:5 */
  } /* ty=fn () -> Tensor[(16, 32), float32] span=from_string:115:9 */;
  %51 = (%6, %7) /* ty=(Tensor[(2, 16, 1), float32], Tensor[(2, 8, 1), float32]) span=from_string:116:4 */;
  %52 = %8(%1) /* ty=Tensor[(2, 16), float32] span=from_string:116:9 */;
  %53 = (%11, %27) /* ty=(Tensor[(8, 32), float32], (Tensor[(8, 32), float32],)) span=from_string:116:14 */;
  %54 = (%35, %36, %37) /* ty=(Tensor[(2, 11, 16), float32], Tensor[(2, 11, 16), float32], Tensor[(2, 11, 16), float32]) span=from_string:116:19 */;
  %55 = (%46, %47) /* ty=(Tensor[(5, 16), float32], Tensor[(5, 32), float32]) span=from_string:116:24 */;
  %56 = %48(%4) /* ty=Tensor[(2, 8), float32] span=from_string:116:29 */;
  %57 = %49(%13, %x10) /* ty=Tensor[(8, 32), int32] span=from_string:116:34 */;
  %58 = %50() /* ty=Tensor[(16, 32), float32] span=from_string:116:39 */;
  (%51, %52, %53, %54, %55, %56, %57, %58) /* ty=((Tensor[(2, 16, 1), float32], Tensor[(2, 8, 1), float32]), Tensor[(2, 16), float32], (Tensor[(8, 32), float32], (Tensor[(8, 32), float32],)), (Tensor[(2, 11, 16), float32], Tensor[(2, 11, 16), float32], Tensor[(2, 11, 16), float32]), (Tensor[(5, 16), float32], Tensor[(5, 32), float32]), Tensor[(2, 8), float32], Tensor[(8, 32), int32], Tensor[(16, 32), float32]) span=from_string:3:3 */
}

#[metadata]
{
  "root": 1, 
  "nodes": [
    {
      "type_key": ""
    }, 
    {
      "type_key": "Map", 
      "keys": [
        "relay.attrs.InitOpAttrs", 
        "relay.Constant"
      ], 
      "data": [2, 9]
    }, 
    {
      "type_key": "Array", 
      "data": [3, 7]
    }, 
    {
      "type_key": "relay.attrs.InitOpAttrs", 
      "attrs": {
        "dtype": "", 
        "shape": "4"
      }
    }, 
    {
      "type_key": "Array", 
      "data": [5, 6]
    }, 
    {
      "type_key": "IntImm", 
      "attrs": {
        "dtype": "int32", 
        "span": "0", 
        "value": "8"
      }
    }, 
    {
      "type_key": "IntImm", 
      "attrs": {
        "dtype": "int32", 
        "span": "0", 
        "value": "32"
      }
    }, 
    {
      "type_key": "relay.attrs.InitOpAttrs", 
      "attrs": {
        "dtype": "", 
        "shape": "8"
      }
    }, 
    {
      "type_key": "Array", 
      "data": [5, 6]
    }, 
    {
      "type_key": "Array", 
      "data": [10, 16]
    }, 
    {
      "type_key": "relay.Constant", 
      "attrs": {
        "_checked_type_": "13", 
        "data": "0", 
        "span": "0", 
        "virtual_device_": "11"
      }
    }, 
    {
      "type_key": "VirtualDevice", 
      "attrs": {
        "device_type_int": "-1", 
        "memory_scope": "12", 
        "target": "0", 
        "virtual_device_id": "-1"
      }
    }, 
    {
      "type_key": "runtime.String"
    }, 
    {
      "type_key": "relay.TensorType", 
      "attrs": {
        "dtype": "int32", 
        "shape": "14", 
        "span": "0"
      }
    }, 
    {
      "type_key": "Array", 
      "data": [15]
    }, 
    {
      "type_key": "IntImm", 
      "attrs": {
        "dtype": "int32", 
        "span": "0", 
        "value": "2"
      }
    }, 
    {
      "type_key": "relay.Constant", 
      "attrs": {
        "_checked_type_": "17", 
        "data": "1", 
        "span": "0", 
        "virtual_device_": "11"
      }
    }, 
    {
      "type_key": "relay.TensorType", 
      "attrs": {
        "dtype": "int32", 
        "shape": "18", 
        "span": "0"
      }
    }, 
    {
      "type_key": "Array", 
      "data": [19]
    }, 
    {
      "type_key": "IntImm", 
      "attrs": {
        "dtype": "int32", 
        "span": "0", 
        "value": "2"
      }
    }
  ], 
  "b64ndarrays": [
    "P6G0lvBAXt0AAAAAAAAAAAEAAAAAAAAAAQAAAAAgAQACAAAAAAAAAAgAAAAAAAAACAAAACAAAAA=", 
    "P6G0lvBAXt0AAAAAAAAAAAEAAAAAAAAAAQAAAAAgAQACAAAAAAAAAAgAAAAAAAAACAAAACAAAAA="
  ], 
  "attrs": {"tvm_version": "0.13.0"}
}