#[version = "0.0.5"]
def @main(%x0: Tensor[(2, 32), float32] /* ty=Tensor[(2, 32), float32] span=from_string:7:17 */, %x1: Tensor[(16, 32), float32] /* ty=Tensor[(16, 32), float32] span=from_string:24:13 */, %x2: Tensor[(8, 32), float32] /* ty=Tensor[(8, 32), float32] span=from_string:12:30 */, %x3: Tensor[(2, 11, 1), float32] /* ty=Tensor[(2, 11, 1), float32] span=from_string:20:25 */, %x4: Tensor[(2, 16, 1), float32] /* ty=Tensor[(2, 16, 1), float32] span=from_string:18:15 */, %x5: Tensor[(2, 16, 1), float32] /* ty=Tensor[(2, 16, 1), float32] span=from_string:18:20 */, %x6: Tensor[(5, 32), float32] /* ty=Tensor[(5, 32), float32] span=from_string:26:18 */, %x7: float32 /* ty=float32 span=from_string:27:18 */, %x8: Tensor[(32, 32), float32] /* ty=Tensor[(32, 32), float32] span=from_string:26:23 */, %x9: float32 /* ty=float32 span=from_string:28:18 */, %x10: Tensor[(72, 26), int32] /* ty=Tensor[(72, 26), int32] span=from_string:35:23 */) -> ((Tensor[(2, 16, 1), float16], Tensor[(2, 8, 1), float16]), Tensor[(2, 16), float32], (Tensor[(8, 32), float16], (Tensor[(8, 32), float16],)), (Tensor[(2, 11, 16), float16], Tensor[(2, 11, 16), float16], Tensor[(2, 11, 16), float16]), (Tensor[(5, 16), float16], Tensor[(5, 32), float16]), Tensor[(2, 8), float32], Tensor[(8, 32), int32], Tensor[(16, 32), float16]) {
  %0 = cast(%x2, dtype="float16") /* ty=Tensor[(8, 32), float16] */;
  let %x11: Tensor[(8, 32), float16] /* ty=Tensor[(8, 32), float16] span=from_string:31:10 */ = multiply(%0, %0) /* ty=Tensor[(8, 32), float16] span=from_string:3:98 */;
  %1 = ones_like(%x11) /* ty=Tensor[(8, 32), float16] span=from_string:35:19 */;
  let %x12: Tensor[(8, 32), float16] /* ty=Tensor[(8, 32), float16] span=from_string:10:18 */ = %1;
  %2 = cast(%x0, dtype="float16") /* ty=Tensor[(2, 32), float16] */;
  %3 = cast(%x1, dtype="float16") /* ty=Tensor[(16, 32), float16] */;
  %4 = nn.dense(%2, %3, units=None, out_dtype="float16") /* ty=Tensor[(2, 16), float16] span=from_string:30:20 */;
  %5 = nn.dense(%2, %0, units=None, out_dtype="float16") /* ty=Tensor[(2, 8), float16] span=from_string:34:20 */;
  %6 = expand_dims(%4, axis=2) /* ty=Tensor[(2, 16, 1), float16] span=from_string:29:10 */;
  %7 = expand_dims(%5, axis=2) /* ty=Tensor[(2, 8, 1), float16] span=from_string:29:14 */;
  %8 = cast(%4, dtype="float32") /* ty=Tensor[(2, 16), float32] */;
  %9 = multiply(%x12, %0) /* ty=Tensor[(8, 32), float16] span=from_string:12:26 */;
  %10 = zeros_like(%0) /* ty=Tensor[(8, 32), float16] span=from_string:13:12 */;
  %11 = collapse_sum_like(%9, %0) /* ty=Tensor[(8, 32), float16] span=from_string:14:16 */;
  %12 = add(%10, %11) /* ty=Tensor[(8, 32), float16] span=from_string:14:12 */;
  %13 = add(%12, %11) /* ty=Tensor[(8, 32), float16] span=from_string:15:10 */;
  %14 = (%13,) /* ty=(Tensor[(8, 32), float16],) span=from_string:31:16 */;
  %15 = cast(2f /* ty=float32 span=from_string:17:18 */, dtype="float16") /* ty=float16 */;
  %16 = sqrt(%6) /* ty=Tensor[(2, 16, 1), float16] span=from_string:17:60 */;
  %17 = divide(%15, %16) /* ty=Tensor[(2, 16, 1), float16] span=from_string:18:10 */;
  %18 = (%17, %x4, %x5) /* ty=(Tensor[(2, 16, 1), float16], Tensor[(2, 16, 1), float32], Tensor[(2, 16, 1), float32]) span=from_string:19:21 */;
  %19 = %18.0 /* ty=Tensor[(2, 16, 1), float16] */;
  %20 = cast(%19, dtype="float32") /* ty=Tensor[(2, 16, 1), float32] */;
  %21 = %18.1 /* ty=Tensor[(2, 16, 1), float32] */;
  %22 = %18.2 /* ty=Tensor[(2, 16, 1), float32] */;
  %23 = (%20, %21, %22) /* ty=(Tensor[(2, 16, 1), float32], Tensor[(2, 16, 1), float32], Tensor[(2, 16, 1), float32]) */;
  %24 = concatenate(%23, axis=1) /* ty=Tensor[(2, 48, 1), float32] span=from_string:20:30 */;
  %25 = cast(%x3, dtype="float16") /* ty=Tensor[(2, 11, 1), float16] */;
  %26 = cast(%24, dtype="float16") /* ty=Tensor[(2, 48, 1), float16] */;
  %27 = nn.batch_matmul(%25, %26, out_dtype="float16", transpose_b=True) /* ty=Tensor[(2, 11, 48), float16] span=from_string:23:23 */;
  %28 = strided_slice(%27, begin=[0, 0, 0], end=[-1, -1, 16], strides=[1, 1, 1], slice_mode="size", axes=None) /* ty=Tensor[(2, 11, 16), float16] span=from_string:32:10 */;
  %29 = strided_slice(%27, begin=[0, 0, 16], end=[-1, -1, 16], strides=[1, 1, 1], slice_mode="size", axes=None) /* ty=Tensor[(2, 11, 16), float16] span=from_string:32:15 */;
  %30 = strided_slice(%27, begin=[0, 0, 32], end=[-1, -1, 16], strides=[1, 1, 1], slice_mode="size", axes=None) /* ty=Tensor[(2, 11, 16), float16] span=from_string:32:20 */;
  %31 = cast(1f /* ty=float32 span=from_string:24:20 */, dtype="float16") /* ty=float16 */;
  %32 = cast(%x6, dtype="float16") /* ty=Tensor[(5, 32), float16] */;
  %33 = add(%3, %31) /* ty=Tensor[(16, 32), float16] span=from_string:25:23 */;
  %34 = nn.dense(%32, %33, units=None, out_dtype="float16") /* ty=Tensor[(5, 16), float16] span=from_string:27:13 */;
  %35 = cast(%x7, dtype="float16") /* ty=float16 */;
  %36 = cast(%x8, dtype="float16") /* ty=Tensor[(32, 32), float16] */;
  %37 = nn.dense(%32, %36, units=None, out_dtype="float16") /* ty=Tensor[(5, 32), float16] span=from_string:28:13 */;
  %38 = cast(%x9, dtype="float16") /* ty=float16 */;
  %39 = add(%34, %35) /* ty=Tensor[(5, 16), float16] span=from_string:33:10 */;
  %40 = add(%37, %38) /* ty=Tensor[(5, 32), float16] span=from_string:33:15 */;
  %41 = cast(%5, dtype="float32") /* ty=Tensor[(2, 8), float32] */;
  %42 = (%6, %7) /* ty=(Tensor[(2, 16, 1), float16], Tensor[(2, 8, 1), float16]) span=from_string:37:4 */;
  %43 = nn.softmax(%8) /* ty=Tensor[(2, 16), float32] span=from_string:37:9 */;
  %44 = (%x11, %14) /* ty=(Tensor[(8, 32), float16], (Tensor[(8, 32), float16],)) span=from_string:37:14 */;
  %45 = (%28, %29, %30) /* ty=(Tensor[(2, 11, 16), float16], Tensor[(2, 11, 16), float16], Tensor[(2, 11, 16), float16]) span=from_string:37:19 */;
  %46 = (%39, %40) /* ty=(Tensor[(5, 16), float16], Tensor[(5, 32), float16]) span=from_string:37:24 */;
  %47 = nn.softmax(%41) /* ty=Tensor[(2, 8), float32] span=from_string:37:29 */;
  %48 = cast_like(%1, %x10) /* ty=Tensor[(8, 32), int32] span=from_string:37:34 */;
  %49 = ones(shape=[16, 32], dtype="float16") /* ty=Tensor[(16, 32), float16] span=from_string:37:39 */;
  (%42, %43, %44, %45, %46, %47, %48, %49) /* ty=((Tensor[(2, 16, 1), float16], Tensor[(2, 8, 1), float16]), Tensor[(2, 16), float32], (Tensor[(8, 32), float16], (Tensor[(8, 32), float16],)), (Tensor[(2, 11, 16), float16], Tensor[(2, 11, 16), float16], Tensor[(2, 11, 16), float16]), (Tensor[(5, 16), float16], Tensor[(5, 32), float16]), Tensor[(2, 8), float32], Tensor[(8, 32), int32], Tensor[(16, 32), float16]) span=from_string:37:3 */
}
