#[version = "0.0.5"]
def @main(%x0: Tensor[(3, 3, 5), float32] /* ty=Tensor[(3, 3, 5), float32] span=from_string:3:13 */, %x1: Tensor[(3, 3, 3), int32] /* ty=Tensor[(3, 3, 3), int32] span=from_string:24:117 */, %x2: Tensor[(3, 3, 5), float32] /* ty=Tensor[(3, 3, 5), float32] span=from_string:6:13 */, %x3: Tensor[(5), float32] /* ty=Tensor[(5), float32] */, %x4: Tensor[(5), float32] /* ty=Tensor[(5), float32] span=from_string:16:13 */, %x5: Tensor[(5), float32] /* ty=Tensor[(5), float32] span=from_string:19:13 */, %x6: Tensor[(5), float32] /* ty=Tensor[(5), float32] */, %x7: Tensor[(10), int32] /* ty=Tensor[(10), int32] */, %x8: int32 /* ty=int32 span=from_string:24:122 */, %x9: int32 /* ty=int32 span=from_string:24:127 */) -> (Tensor[(3, 3, 5), int32], Tensor[(3, 3, 5), float16], Tensor[(3, 3, 5), float16], Tensor[(3, 3, 5), float16], Tensor[(3, 3, 5), float16], int32, Tensor[(5), int32], Tensor[(6, 3, 3, 3), float32]) {
  %0 = cast(%x0, dtype="float16") /* ty=Tensor[(3, 3, 5), float16] */;
  %1 = cast(%0, dtype="float16") /* ty=Tensor[(3, 3, 5), float16] span=from_string:4:106 */;
  let %x_0: Tensor[(3, 3, 5), float16] /* ty=Tensor[(3, 3, 5), float16] span=from_string:8:112 */ = cast(%1, dtype="float16") /* ty=Tensor[(3, 3, 5), float16] span=from_string:4:101 */;
  let %x_01: Tensor[(3, 3, 5), int32] /* ty=Tensor[(3, 3, 5), int32] span=from_string:25:450 */ = cast(%x_0, dtype="int32") /* ty=Tensor[(3, 3, 5), int32] span=from_string:5:101 */;
  %2 = cast(%x2, dtype="float16") /* ty=Tensor[(3, 3, 5), float16] */;
  %3 = cast(%2, dtype="float16") /* ty=Tensor[(3, 3, 5), float16] span=from_string:7:107 */;
  let %x_1: Tensor[(3, 3, 5), float16] /* ty=Tensor[(3, 3, 5), float16] span=from_string:15:119 */ = cast(%3, dtype="float16") /* ty=Tensor[(3, 3, 5), float16] span=from_string:7:102 */;
  let %x_11: Tensor[(3, 3, 5), float16] /* ty=Tensor[(3, 3, 5), float16] span=from_string:15:112 */ = subtract(%x_0, %x_1) /* ty=Tensor[(3, 3, 5), float16] span=from_string:8:103 */;
  let %x_3: Tensor[(3, 3, 5), float16] /* ty=Tensor[(3, 3, 5), float16] span=from_string:22:107 */ = add(%x_11, 1f16 /* ty=float16 span=from_string:9:117 */) /* ty=Tensor[(3, 3, 5), float16] span=from_string:9:102 */;
  let %x_31: Tensor[(3, 3, 5), float32] /* ty=Tensor[(3, 3, 5), float32] span=from_string:11:106 */ = cast(%x_3, dtype="float32") /* ty=Tensor[(3, 3, 5), float32] span=from_string:10:102 */;
  let %x_4: Tensor[(3, 3, 5), float32] /* ty=Tensor[(3, 3, 5), float32] span=from_string:12:13 */ = exp(%x_31) /* ty=Tensor[(3, 3, 5), float32] span=from_string:11:102 */;
  %4 = cast(%x_4, dtype="float16") /* ty=Tensor[(3, 3, 5), float16] */;
  %5 = cast(%4, dtype="float16") /* ty=Tensor[(3, 3, 5), float16] span=from_string:13:108 */;
  let %x_41: Tensor[(3, 3, 5), float16] /* ty=Tensor[(3, 3, 5), float16] span=from_string:14:110 */ = cast(%5, dtype="float16") /* ty=Tensor[(3, 3, 5), float16] span=from_string:13:103 */;
  let %x_5: Tensor[(3, 3, 5), float16] /* ty=Tensor[(3, 3, 5), float16] span=from_string:25:457 */ = squeeze(%x_41) /* ty=Tensor[(3, 3, 5), float16] span=from_string:14:102 */;
  let %x_6: Tensor[(3, 3, 5), float16] /* ty=Tensor[(3, 3, 5), float16] span=from_string:25:463 */ = multiply(%x_11, %x_1) /* ty=Tensor[(3, 3, 5), float16] span=from_string:15:103 */;
  %6 = cast(%x4, dtype="float16") /* ty=Tensor[(5), float16] */;
  %7 = cast(%6, dtype="float16") /* ty=Tensor[(5), float16] span=from_string:17:96 */;
  let %x_51: Tensor[(5), float16] /* ty=Tensor[(5), float16] span=from_string:18:115 */ = cast(%7, dtype="float16") /* ty=Tensor[(5), float16] span=from_string:17:91 */;
  let %x_7: Tensor[(3, 3, 5), float16] /* ty=Tensor[(3, 3, 5), float16] span=from_string:25:469 */ = broadcast_to(%x_51, shape=[3, 3, 5], dtype="float16") /* ty=Tensor[(3, 3, 5), float16] span=from_string:18:102 */;
  %8 = cast(%x5, dtype="float16") /* ty=Tensor[(5), float16] */;
  %9 = cast(%8, dtype="float16") /* ty=Tensor[(5), float16] span=from_string:20:96 */;
  let %x_61: Tensor[(5), float16] /* ty=Tensor[(5), float16] span=from_string:21:115 */ = cast(%9, dtype="float16") /* ty=Tensor[(5), float16] span=from_string:20:91 */;
  let %x_8: Tensor[(3, 3, 5), float16] /* ty=Tensor[(3, 3, 5), float16] span=from_string:25:475 */ = broadcast_to(%x_61, shape=[3, 3, 5], dtype="float16") /* ty=Tensor[(3, 3, 5), float16] span=from_string:21:102 */;
  let %x_111: Tensor[(5), float16] /* ty=Tensor[(5), float16] span=from_string:23:94 */ = collapse_sum_to(%x_3, meta[relay.Constant][0] /* ty=Tensor[(1), int32] span=from_string:22:118 */, meta[relay.attrs.InitOpAttrs][0]) /* ty=Tensor[(5), float16] span=from_string:22:91 */;
  let %x_12: Tensor[(5), int32] /* ty=Tensor[(5), int32] span=from_string:25:523 */ = cast(%x_111, dtype="int32") /* ty=Tensor[(5), int32] span=from_string:23:89 */;
  let %x_13: Tensor[(6, 3, 3, 3), float32] /* ty=Tensor[(6, 3, 3, 3), float32] span=from_string:25:530 */ = one_hot(%x1, %x8, %x9, depth=6, axis=0, dtype="float32") /* ty=Tensor[(6, 3, 3, 3), float32] span=from_string:24:109 */;
  let %x_14: (Tensor[(3, 3, 5), int32], Tensor[(3, 3, 5), float16], Tensor[(3, 3, 5), float16], Tensor[(3, 3, 5), float16], Tensor[(3, 3, 5), float16], int32, Tensor[(5), int32], Tensor[(6, 3, 3, 3), float32]) /* ty=(Tensor[(3, 3, 5), int32], Tensor[(3, 3, 5), float16], Tensor[(3, 3, 5), float16], Tensor[(3, 3, 5), float16], Tensor[(3, 3, 5), float16], int32, Tensor[(5), int32], Tensor[(6, 3, 3, 3), float32]) span=from_string:26:449 */ = (%x_01, %x_5, %x_6, %x_7, %x_8, 5 /* ty=int32 span=from_string:25:482 */, %x_12, %x_13) /* ty=(Tensor[(3, 3, 5), int32], Tensor[(3, 3, 5), float16], Tensor[(3, 3, 5), float16], Tensor[(3, 3, 5), float16], Tensor[(3, 3, 5), float16], int32, Tensor[(5), int32], Tensor[(6, 3, 3, 3), float32]) span=from_string:25:449 */;
  let %x_71: (Tensor[(3, 3, 5), int32], Tensor[(3, 3, 5), float16], Tensor[(3, 3, 5), float16], Tensor[(3, 3, 5), float16], Tensor[(3, 3, 5), float16], int32, Tensor[(5), int32], Tensor[(6, 3, 3, 3), float32]) /* ty=(Tensor[(3, 3, 5), int32], Tensor[(3, 3, 5), float16], Tensor[(3, 3, 5), float16], Tensor[(3, 3, 5), float16], Tensor[(3, 3, 5), float16], int32, Tensor[(5), int32], Tensor[(6, 3, 3, 3), float32]) span=from_string:27:449 */ = %x_14;
  let %x_81: (Tensor[(3, 3, 5), int32], Tensor[(3, 3, 5), float16], Tensor[(3, 3, 5), float16], Tensor[(3, 3, 5), float16], Tensor[(3, 3, 5), float16], int32, Tensor[(5), int32], Tensor[(6, 3, 3, 3), float32]) /* ty=(Tensor[(3, 3, 5), int32], Tensor[(3, 3, 5), float16], Tensor[(3, 3, 5), float16], Tensor[(3, 3, 5), float16], Tensor[(3, 3, 5), float16], int32, Tensor[(5), int32], Tensor[(6, 3, 3, 3), float32]) span=from_string:28:449 */ = %x_71;
  let %x_91: (Tensor[(3, 3, 5), int32], Tensor[(3, 3, 5), float16], Tensor[(3, 3, 5), float16], Tensor[(3, 3, 5), float16], Tensor[(3, 3, 5), float16], int32, Tensor[(5), int32], Tensor[(6, 3, 3, 3), float32]) /* ty=(Tensor[(3, 3, 5), int32], Tensor[(3, 3, 5), float16], Tensor[(3, 3, 5), float16], Tensor[(3, 3, 5), float16], Tensor[(3, 3, 5), float16], int32, Tensor[(5), int32], Tensor[(6, 3, 3, 3), float32]) span=from_string:29:450 */ = %x_81;
  let %x_101: (Tensor[(3, 3, 5), int32], Tensor[(3, 3, 5), float16], Tensor[(3, 3, 5), float16], Tensor[(3, 3, 5), float16], Tensor[(3, 3, 5), float16], int32, Tensor[(5), int32], Tensor[(6, 3, 3, 3), float32]) /* ty=(Tensor[(3, 3, 5), int32], Tensor[(3, 3, 5), float16], Tensor[(3, 3, 5), float16], Tensor[(3, 3, 5), float16], Tensor[(3, 3, 5), float16], int32, Tensor[(5), int32], Tensor[(6, 3, 3, 3), float32]) span=from_string:30:450 */ = %x_91;
  let %x_112: (Tensor[(3, 3, 5), int32], Tensor[(3, 3, 5), float16], Tensor[(3, 3, 5), float16], Tensor[(3, 3, 5), float16], Tensor[(3, 3, 5), float16], int32, Tensor[(5), int32], Tensor[(6, 3, 3, 3), float32]) /* ty=(Tensor[(3, 3, 5), int32], Tensor[(3, 3, 5), float16], Tensor[(3, 3, 5), float16], Tensor[(3, 3, 5), float16], Tensor[(3, 3, 5), float16], int32, Tensor[(5), int32], Tensor[(6, 3, 3, 3), float32]) span=from_string:31:450 */ = %x_101;
  let %x_121: (Tensor[(3, 3, 5), int32], Tensor[(3, 3, 5), float16], Tensor[(3, 3, 5), float16], Tensor[(3, 3, 5), float16], Tensor[(3, 3, 5), float16], int32, Tensor[(5), int32], Tensor[(6, 3, 3, 3), float32]) /* ty=(Tensor[(3, 3, 5), int32], Tensor[(3, 3, 5), float16], Tensor[(3, 3, 5), float16], Tensor[(3, 3, 5), float16], Tensor[(3, 3, 5), float16], int32, Tensor[(5), int32], Tensor[(6, 3, 3, 3), float32]) span=from_string:32:450 */ = %x_112;
  let %x_131: (Tensor[(3, 3, 5), int32], Tensor[(3, 3, 5), float16], Tensor[(3, 3, 5), float16], Tensor[(3, 3, 5), float16], Tensor[(3, 3, 5), float16], int32, Tensor[(5), int32], Tensor[(6, 3, 3, 3), float32]) /* ty=(Tensor[(3, 3, 5), int32], Tensor[(3, 3, 5), float16], Tensor[(3, 3, 5), float16], Tensor[(3, 3, 5), float16], Tensor[(3, 3, 5), float16], int32, Tensor[(5), int32], Tensor[(6, 3, 3, 3), float32]) span=from_string:33:450 */ = %x_121;
  let %x_141: (Tensor[(3, 3, 5), int32], Tensor[(3, 3, 5), float16], Tensor[(3, 3, 5), float16], Tensor[(3, 3, 5), float16], Tensor[(3, 3, 5), float16], int32, Tensor[(5), int32], Tensor[(6, 3, 3, 3), float32]) /* ty=(Tensor[(3, 3, 5), int32], Tensor[(3, 3, 5), float16], Tensor[(3, 3, 5), float16], Tensor[(3, 3, 5), float16], Tensor[(3, 3, 5), float16], int32, Tensor[(5), int32], Tensor[(6, 3, 3, 3), float32]) span=from_string:34:449 */ = %x_131;
  let %x_15: (Tensor[(3, 3, 5), int32], Tensor[(3, 3, 5), float16], Tensor[(3, 3, 5), float16], Tensor[(3, 3, 5), float16], Tensor[(3, 3, 5), float16], int32, Tensor[(5), int32], Tensor[(6, 3, 3, 3), float32]) /* ty=(Tensor[(3, 3, 5), int32], Tensor[(3, 3, 5), float16], Tensor[(3, 3, 5), float16], Tensor[(3, 3, 5), float16], Tensor[(3, 3, 5), float16], int32, Tensor[(5), int32], Tensor[(6, 3, 3, 3), float32]) span=from_string:35:449 */ = %x_141;
  let %x_16: (Tensor[(3, 3, 5), int32], Tensor[(3, 3, 5), float16], Tensor[(3, 3, 5), float16], Tensor[(3, 3, 5), float16], Tensor[(3, 3, 5), float16], int32, Tensor[(5), int32], Tensor[(6, 3, 3, 3), float32]) /* ty=(Tensor[(3, 3, 5), int32], Tensor[(3, 3, 5), float16], Tensor[(3, 3, 5), float16], Tensor[(3, 3, 5), float16], Tensor[(3, 3, 5), float16], int32, Tensor[(5), int32], Tensor[(6, 3, 3, 3), float32]) span=from_string:36:449 */ = %x_15;
  let %x_17: (Tensor[(3, 3, 5), int32], Tensor[(3, 3, 5), float16], Tensor[(3, 3, 5), float16], Tensor[(3, 3, 5), float16], Tensor[(3, 3, 5), float16], int32, Tensor[(5), int32], Tensor[(6, 3, 3, 3), float32]) /* ty=(Tensor[(3, 3, 5), int32], Tensor[(3, 3, 5), float16], Tensor[(3, 3, 5), float16], Tensor[(3, 3, 5), float16], Tensor[(3, 3, 5), float16], int32, Tensor[(5), int32], Tensor[(6, 3, 3, 3), float32]) span=from_string:37:449 */ = %x_16;
  let %x_18: (Tensor[(3, 3, 5), int32], Tensor[(3, 3, 5), float16], Tensor[(3, 3, 5), float16], Tensor[(3, 3, 5), float16], Tensor[(3, 3, 5), float16], int32, Tensor[(5), int32], Tensor[(6, 3, 3, 3), float32]) /* ty=(Tensor[(3, 3, 5), int32], Tensor[(3, 3, 5), float16], Tensor[(3, 3, 5), float16], Tensor[(3, 3, 5), float16], Tensor[(3, 3, 5), float16], int32, Tensor[(5), int32], Tensor[(6, 3, 3, 3), float32]) span=from_string:38:449 */ = %x_17;
  let %x_19: (Tensor[(3, 3, 5), int32], Tensor[(3, 3, 5), float16], Tensor[(3, 3, 5), float16], Tensor[(3, 3, 5), float16], Tensor[(3, 3, 5), float16], int32, Tensor[(5), int32], Tensor[(6, 3, 3, 3), float32]) /* ty=(Tensor[(3, 3, 5), int32], Tensor[(3, 3, 5), float16], Tensor[(3, 3, 5), float16], Tensor[(3, 3, 5), float16], Tensor[(3, 3, 5), float16], int32, Tensor[(5), int32], Tensor[(6, 3, 3, 3), float32]) span=from_string:39:449 */ = %x_18;
  let %x_20: (Tensor[(3, 3, 5), int32], Tensor[(3, 3, 5), float16], Tensor[(3, 3, 5), float16], Tensor[(3, 3, 5), float16], Tensor[(3, 3, 5), float16], int32, Tensor[(5), int32], Tensor[(6, 3, 3, 3), float32]) /* ty=(Tensor[(3, 3, 5), int32], Tensor[(3, 3, 5), float16], Tensor[(3, 3, 5), float16], Tensor[(3, 3, 5), float16], Tensor[(3, 3, 5), float16], int32, Tensor[(5), int32], Tensor[(6, 3, 3, 3), float32]) span=from_string:40:448 */ = %x_19;
  let %x_211: (Tensor[(3, 3, 5), int32], Tensor[(3, 3, 5), float16], Tensor[(3, 3, 5), float16], Tensor[(3, 3, 5), float16], Tensor[(3, 3, 5), float16], int32, Tensor[(5), int32], Tensor[(6, 3, 3, 3), float32]) /* ty=(Tensor[(3, 3, 5), int32], Tensor[(3, 3, 5), float16], Tensor[(3, 3, 5), float16], Tensor[(3, 3, 5), float16], Tensor[(3, 3, 5), float16], int32, Tensor[(5), int32], Tensor[(6, 3, 3, 3), float32]) span=from_string:41:3 */ = %x_20;
  %x_211
}

#[metadata]
{
  "root": 1, 
  "nodes": [
    {
      "type_key": ""
    }, 
    {
      "type_key": "Map", 
      "keys": [
        "relay.attrs.InitOpAttrs", 
        "relay.Constant"
      ], 
      "data": [2, 6]
    }, 
    {
      "type_key": "Array", 
      "data": [3]
    }, 
    {
      "type_key": "relay.attrs.InitOpAttrs", 
      "attrs": {
        "dtype": "float16", 
        "shape": "4"
      }
    }, 
    {
      "type_key": "Array", 
      "data": [5]
    }, 
    {
      "type_key": "IntImm", 
      "attrs": {
        "dtype": "int32", 
        "span": "0", 
        "value": "5"
      }
    }, 
    {
      "type_key": "Array", 
      "data": [7]
    }, 
    {
      "type_key": "relay.Constant", 
      "attrs": {
        "_checked_type_": "12", 
        "data": "0", 
        "span": "10", 
        "virtual_device_": "8"
      }
    }, 
    {
      "type_key": "VirtualDevice", 
      "attrs": {
        "device_type_int": "-1", 
        "memory_scope": "9", 
        "target": "0", 
        "virtual_device_id": "-1"
      }
    }, 
    {
      "type_key": "runtime.String"
    }, 
    {
      "type_key": "Span", 
      "attrs": {
        "column": "118", 
        "end_column": "136", 
        "end_line": "22", 
        "line": "22", 
        "source_name": "11"
      }
    }, 
    {
      "type_key": "SourceName", 
      "repr_str": "from_string"
    }, 
    {
      "type_key": "relay.TensorType", 
      "attrs": {
        "dtype": "int32", 
        "shape": "13", 
        "span": "0"
      }
    }, 
    {
      "type_key": "Array", 
      "data": [14]
    }, 
    {
      "type_key": "IntImm", 
      "attrs": {
        "dtype": "int32", 
        "span": "0", 
        "value": "1"
      }
    }
  ], 
  "b64ndarrays": [
    "P6G0lvBAXt0AAAAAAAAAAAEAAAAAAAAAAQAAAAAgAQABAAAAAAAAAAQAAAAAAAAABQAAAA=="
  ], 
  "attrs": {"tvm_version": "0.13.0"}
}