#[version = "0.0.5"]
def @main(%x0: Tensor[(3, 3, 5), float32] /* ty=Tensor[(3, 3, 5), float32] span=from_string:6:105 */, %x1: Tensor[(3, 3, 3), int32] /* ty=Tensor[(3, 3, 3), int32] span=from_string:78:113 */, %x2: Tensor[(3, 3, 5), float32] /* ty=Tensor[(3, 3, 5), float32] span=from_string:14:105 */, %x3: Tensor[(5), float32] /* ty=Tensor[(5), float32] span=from_string:66:95 */, %x4: Tensor[(5), float32] /* ty=Tensor[(5), float32] span=from_string:54:95 */, %x5: Tensor[(5), float32] /* ty=Tensor[(5), float32] span=from_string:62:107 */, %x6: Tensor[(5), float32] /* ty=Tensor[(5), float32] */, %x7: Tensor[(10), int32] /* ty=Tensor[(10), int32] span=from_string:74:100 */, %x8: int32 /* ty=int32 span=from_string:78:118 */, %x9: int32 /* ty=int32 span=from_string:78:123 */) -> (Tensor[(3, 3, 5), int32], Tensor[(3, 3, 5), float32], Tensor[(3, 3, 5), float16], Tensor[(3, 3, 5), float16], Tensor[(3, 3, 5), float32], int32, Tensor[(5), int32], Tensor[(6, 3, 3, 3), float32]) {
  %0 = fn (%p0: Tensor[(3, 3, 5), float32] /* ty=Tensor[(3, 3, 5), float32] span=from_string:4:10 */, Primitive=1) -> Tensor[(3, 3, 5), float16] {
    cast(%p0, dtype="float16") /* ty=Tensor[(3, 3, 5), float16] span=from_string:4:5 */
  } /* ty=fn (Tensor[(3, 3, 5), float32]) -> Tensor[(3, 3, 5), float16] span=from_string:6:102 */;
  let %x_0: Tensor[(3, 3, 5), float16] /* ty=Tensor[(3, 3, 5), float16] span=from_string:18:105 */ = %0(%x0) /* ty=Tensor[(3, 3, 5), float16] span=from_string:6:102 */;
  %1 = fn (%p01: Tensor[(3, 3, 5), float16] /* ty=Tensor[(3, 3, 5), float16] span=from_string:8:15 */, %p1: Tensor[(3, 3, 3), int32] /* ty=Tensor[(3, 3, 3), int32] span=from_string:8:21 */, Primitive=1) -> Tensor[(3, 3, 5), int32] {
    cast_like(%p01, %p1) /* ty=Tensor[(3, 3, 5), int32] span=from_string:8:5 */
  } /* ty=fn (Tensor[(3, 3, 5), float16], Tensor[(3, 3, 3), int32]) -> Tensor[(3, 3, 5), int32] span=from_string:10:100 */;
  let %x_1: Tensor[(3, 3, 5), int32] /* ty=Tensor[(3, 3, 5), int32] span=from_string:79:448 */ = %1(%x_0, %x1) /* ty=Tensor[(3, 3, 5), int32] span=from_string:10:100 */;
  %2 = fn (%p02: Tensor[(3, 3, 5), float32] /* ty=Tensor[(3, 3, 5), float32] span=from_string:12:10 */, Primitive=1) -> Tensor[(3, 3, 5), float16] {
    cast(%p02, dtype="float16") /* ty=Tensor[(3, 3, 5), float16] span=from_string:12:5 */
  } /* ty=fn (Tensor[(3, 3, 5), float32]) -> Tensor[(3, 3, 5), float16] span=from_string:14:102 */;
  let %x_2: Tensor[(3, 3, 5), float16] /* ty=Tensor[(3, 3, 5), float16] span=from_string:42:112 */ = %2(%x2) /* ty=Tensor[(3, 3, 5), float16] span=from_string:14:102 */;
  %3 = fn (%p03: Tensor[(3, 3, 5), float16] /* ty=Tensor[(3, 3, 5), float16] span=from_string:16:14 */, %p11: Tensor[(3, 3, 5), float16] /* ty=Tensor[(3, 3, 5), float16] span=from_string:16:20 */, Primitive=1) -> Tensor[(3, 3, 5), float16] {
    subtract(%p03, %p11) /* ty=Tensor[(3, 3, 5), float16] span=from_string:16:5 */
  } /* ty=fn (Tensor[(3, 3, 5), float16], Tensor[(3, 3, 5), float16]) -> Tensor[(3, 3, 5), float16] span=from_string:18:102 */;
  let %x_3: Tensor[(3, 3, 5), float16] /* ty=Tensor[(3, 3, 5), float16] span=from_string:42:106 */ = %3(%x_0, %x_2) /* ty=Tensor[(3, 3, 5), float16] span=from_string:18:102 */;
  %4 = fn (%p04: float32 /* ty=float32 span=from_string:20:10 */, Primitive=1) -> float16 {
    cast(%p04, dtype="float16") /* ty=float16 span=from_string:20:5 */
  } /* ty=fn (float32) -> float16 span=from_string:22:64 */;
  let %x_5: float16 /* ty=float16 span=from_string:26:110 */ = %4(1f /* ty=float32 span=from_string:22:69 */) /* ty=float16 span=from_string:22:64 */;
  %5 = fn (%p05: Tensor[(3, 3, 5), float16] /* ty=Tensor[(3, 3, 5), float16] span=from_string:24:9 */, %p12: float16 /* ty=float16 span=from_string:24:15 */, Primitive=1) -> Tensor[(3, 3, 5), float16] {
    add(%p05, %p12) /* ty=Tensor[(3, 3, 5), float16] span=from_string:24:5 */
  } /* ty=fn (Tensor[(3, 3, 5), float16], float16) -> Tensor[(3, 3, 5), float16] span=from_string:26:101 */;
  let %x_6: Tensor[(3, 3, 5), float16] /* ty=Tensor[(3, 3, 5), float16] span=from_string:70:94 */ = %5(%x_3, %x_5) /* ty=Tensor[(3, 3, 5), float16] span=from_string:26:101 */;
  %6 = fn (%p06: Tensor[(3, 3, 5), float16] /* ty=Tensor[(3, 3, 5), float16] span=from_string:28:10 */, Primitive=1) -> Tensor[(3, 3, 5), float32] {
    cast(%p06, dtype="float32") /* ty=Tensor[(3, 3, 5), float32] span=from_string:28:5 */
  } /* ty=fn (Tensor[(3, 3, 5), float16]) -> Tensor[(3, 3, 5), float32] span=from_string:30:102 */;
  let %x_7: Tensor[(3, 3, 5), float32] /* ty=Tensor[(3, 3, 5), float32] span=from_string:34:105 */ = %6(%x_6) /* ty=Tensor[(3, 3, 5), float32] span=from_string:30:102 */;
  %7 = fn (%p07: Tensor[(3, 3, 5), float32] /* ty=Tensor[(3, 3, 5), float32] span=from_string:32:9 */, Primitive=1) -> Tensor[(3, 3, 5), float32] {
    exp(%p07) /* ty=Tensor[(3, 3, 5), float32] span=from_string:32:5 */
  } /* ty=fn (Tensor[(3, 3, 5), float32]) -> Tensor[(3, 3, 5), float32] span=from_string:34:102 */;
  let %x_8: Tensor[(3, 3, 5), float32] /* ty=Tensor[(3, 3, 5), float32] span=from_string:62:112 */ = %7(%x_7) /* ty=Tensor[(3, 3, 5), float32] span=from_string:34:102 */;
  %8 = fn (%p08: Tensor[(3, 3, 5), float32] /* ty=Tensor[(3, 3, 5), float32] span=from_string:36:13 */, Primitive=1, relay.reshape_only=1) -> Tensor[(3, 3, 5), float32] {
    squeeze(%p08) /* ty=Tensor[(3, 3, 5), float32] span=from_string:36:5 */
  } /* ty=fn (Tensor[(3, 3, 5), float32]) -> Tensor[(3, 3, 5), float32] span=from_string:38:102 */;
  let %x_9: Tensor[(3, 3, 5), float32] /* ty=Tensor[(3, 3, 5), float32] span=from_string:79:454 */ = %8(%x_8) /* ty=Tensor[(3, 3, 5), float32] span=from_string:38:102 */;
  %9 = fn (%p09: Tensor[(3, 3, 5), float16] /* ty=Tensor[(3, 3, 5), float16] span=from_string:40:15 */, %p13: Tensor[(3, 3, 5), float16] /* ty=Tensor[(3, 3, 5), float16] span=from_string:40:21 */, Primitive=1) -> Tensor[(3, 3, 5), float16] {
    multiply(%p09, %p13) /* ty=Tensor[(3, 3, 5), float16] span=from_string:40:6 */
  } /* ty=fn (Tensor[(3, 3, 5), float16], Tensor[(3, 3, 5), float16]) -> Tensor[(3, 3, 5), float16] span=from_string:42:103 */;
  let %x_10: Tensor[(3, 3, 5), float16] /* ty=Tensor[(3, 3, 5), float16] span=from_string:50:107 */ = %9(%x_3, %x_2) /* ty=Tensor[(3, 3, 5), float16] span=from_string:42:103 */;
  %10 = fn (%p010: Tensor[(3, 3, 5), float16] /* ty=Tensor[(3, 3, 5), float16] span=from_string:44:16 */, Primitive=1) -> Tensor[(3, 3, 5), float16] {
    zeros_like(%p010) /* ty=Tensor[(3, 3, 5), float16] span=from_string:44:5 */
  } /* ty=fn (Tensor[(3, 3, 5), float16]) -> Tensor[(3, 3, 5), float16] span=from_string:46:103 */;
  let %x_11: Tensor[(3, 3, 5), float16] /* ty=Tensor[(3, 3, 5), float16] span=from_string:58:114 */ = %10(%x_10) /* ty=Tensor[(3, 3, 5), float16] span=from_string:46:103 */;
  %11 = fn (%p011: Tensor[(3, 3, 5), float16] /* ty=Tensor[(3, 3, 5), float16] span=from_string:48:9 */, %p14: Tensor[(3, 3, 5), float16] /* ty=Tensor[(3, 3, 5), float16] span=from_string:48:16 */, Primitive=1) -> Tensor[(3, 3, 5), float16] {
    add(%p011, %p14) /* ty=Tensor[(3, 3, 5), float16] span=from_string:48:5 */
  } /* ty=fn (Tensor[(3, 3, 5), float16], Tensor[(3, 3, 5), float16]) -> Tensor[(3, 3, 5), float16] span=from_string:50:103 */;
  let %x_12: Tensor[(3, 3, 5), float16] /* ty=Tensor[(3, 3, 5), float16] span=from_string:79:460 */ = %11(%x_10, %x_11) /* ty=Tensor[(3, 3, 5), float16] span=from_string:50:103 */;
  %12 = fn (%p012: Tensor[(5), float32] /* ty=Tensor[(5), float32] span=from_string:52:10 */, Primitive=1) -> Tensor[(5), float16] {
    cast(%p012, dtype="float16") /* ty=Tensor[(5), float16] span=from_string:52:5 */
  } /* ty=fn (Tensor[(5), float32]) -> Tensor[(5), float16] span=from_string:54:91 */;
  let %x_13: Tensor[(5), float16] /* ty=Tensor[(5), float16] span=from_string:58:107 */ = %12(%x4) /* ty=Tensor[(5), float16] span=from_string:54:91 */;
  %13 = fn (%p013: Tensor[(5), float16] /* ty=Tensor[(5), float16] span=from_string:56:23 */, %p15: Tensor[(3, 3, 5), float16] /* ty=Tensor[(3, 3, 5), float16] span=from_string:56:30 */, Primitive=1) -> Tensor[(3, 3, 5), float16] {
    broadcast_to_like(%p013, %p15) /* ty=Tensor[(3, 3, 5), float16] span=from_string:56:5 */
  } /* ty=fn (Tensor[(5), float16], Tensor[(3, 3, 5), float16]) -> Tensor[(3, 3, 5), float16] span=from_string:58:103 */;
  let %x_14: Tensor[(3, 3, 5), float16] /* ty=Tensor[(3, 3, 5), float16] span=from_string:79:467 */ = %13(%x_13, %x_11) /* ty=Tensor[(3, 3, 5), float16] span=from_string:58:103 */;
  %14 = fn (%p014: Tensor[(5), float32] /* ty=Tensor[(5), float32] span=from_string:60:23 */, %p16: Tensor[(3, 3, 5), float32] /* ty=Tensor[(3, 3, 5), float32] span=from_string:60:30 */, Primitive=1) -> Tensor[(3, 3, 5), float32] {
    broadcast_to_like(%p014, %p16) /* ty=Tensor[(3, 3, 5), float32] span=from_string:60:5 */
  } /* ty=fn (Tensor[(5), float32], Tensor[(3, 3, 5), float32]) -> Tensor[(3, 3, 5), float32] span=from_string:62:103 */;
  let %x_15: Tensor[(3, 3, 5), float32] /* ty=Tensor[(3, 3, 5), float32] span=from_string:79:474 */ = %14(%x5, %x_8) /* ty=Tensor[(3, 3, 5), float32] span=from_string:62:103 */;
  %15 = fn (%p015: Tensor[(5), float32] /* ty=Tensor[(5), float32] span=from_string:64:10 */, Primitive=1) -> Tensor[(5), float16] {
    cast(%p015, dtype="float16") /* ty=Tensor[(5), float16] span=from_string:64:5 */
  } /* ty=fn (Tensor[(5), float32]) -> Tensor[(5), float16] span=from_string:66:91 */;
  let %x_17: Tensor[(5), float16] /* ty=Tensor[(5), float16] span=from_string:70:100 */ = %15(%x3) /* ty=Tensor[(5), float16] span=from_string:66:91 */;
  %16 = fn (%p016: Tensor[(3, 3, 5), float16] /* ty=Tensor[(3, 3, 5), float16] span=from_string:68:23 */, %p17: Tensor[(5), float16] /* ty=Tensor[(5), float16] span=from_string:68:30 */, Primitive=1) -> Tensor[(5), float16] {
    collapse_sum_like(%p016, %p17) /* ty=Tensor[(5), float16] span=from_string:68:5 */
  } /* ty=fn (Tensor[(3, 3, 5), float16], Tensor[(5), float16]) -> Tensor[(5), float16] span=from_string:70:90 */;
  let %x_18: Tensor[(5), float16] /* ty=Tensor[(5), float16] span=from_string:74:93 */ = %16(%x_6, %x_17) /* ty=Tensor[(5), float16] span=from_string:70:90 */;
  %17 = fn (%p017: Tensor[(5), float16] /* ty=Tensor[(5), float16] span=from_string:72:15 */, %p18: Tensor[(10), int32] /* ty=Tensor[(10), int32] span=from_string:72:22 */, Primitive=1) -> Tensor[(5), int32] {
    cast_like(%p017, %p18) /* ty=Tensor[(5), int32] span=from_string:72:5 */
  } /* ty=fn (Tensor[(5), float16], Tensor[(10), int32]) -> Tensor[(5), int32] span=from_string:74:89 */;
  let %x_19: Tensor[(5), int32] /* ty=Tensor[(5), int32] span=from_string:79:523 */ = %17(%x_18, %x7) /* ty=Tensor[(5), int32] span=from_string:74:89 */;
  %18 = fn (%p018: Tensor[(3, 3, 3), int32] /* ty=Tensor[(3, 3, 3), int32] span=from_string:76:13 */, %p19: int32 /* ty=int32 span=from_string:76:20 */, %p2: int32 /* ty=int32 span=from_string:76:26 */, Primitive=1) -> Tensor[(6, 3, 3, 3), float32] {
    one_hot(%p018, %p19, %p2, depth=6, axis=0, dtype="float32") /* ty=Tensor[(6, 3, 3, 3), float32] span=from_string:76:5 */
  } /* ty=fn (Tensor[(3, 3, 3), int32], int32, int32) -> Tensor[(6, 3, 3, 3), float32] span=from_string:78:109 */;
  let %x_20: Tensor[(6, 3, 3, 3), float32] /* ty=Tensor[(6, 3, 3, 3), float32] span=from_string:79:530 */ = %18(%x1, %x8, %x9) /* ty=Tensor[(6, 3, 3, 3), float32] span=from_string:78:109 */;
  let %x_21: (Tensor[(3, 3, 5), int32], Tensor[(3, 3, 5), float32], Tensor[(3, 3, 5), float16], Tensor[(3, 3, 5), float16], Tensor[(3, 3, 5), float32], int32, Tensor[(5), int32], Tensor[(6, 3, 3, 3), float32]) /* ty=(Tensor[(3, 3, 5), int32], Tensor[(3, 3, 5), float32], Tensor[(3, 3, 5), float16], Tensor[(3, 3, 5), float16], Tensor[(3, 3, 5), float32], int32, Tensor[(5), int32], Tensor[(6, 3, 3, 3), float32]) span=from_string:80:3 */ = (%x_1, %x_9, %x_12, %x_14, %x_15, 5 /* ty=int32 span=from_string:79:482 */, %x_19, %x_20) /* ty=(Tensor[(3, 3, 5), int32], Tensor[(3, 3, 5), float32], Tensor[(3, 3, 5), float16], Tensor[(3, 3, 5), float16], Tensor[(3, 3, 5), float32], int32, Tensor[(5), int32], Tensor[(6, 3, 3, 3), float32]) span=from_string:79:447 */;
  %x_21
}
