#[version = "0.0.5"]
def @main(%x0: Tensor[(3, 3, 5), float32] /* ty=Tensor[(3, 3, 5), float32] span=from_string:6:104 */, %x1: Tensor[(3, 3, 3), int32] /* ty=Tensor[(3, 3, 3), int32] span=from_string:74:113 */, %x2: Tensor[(3, 3, 5), float32] /* ty=Tensor[(3, 3, 5), float32] span=from_string:14:105 */, %x3: Tensor[(5), float32] /* ty=Tensor[(5), float32] span=from_string:62:71 */, %x4: Tensor[(5), float32] /* ty=Tensor[(5), float32] span=from_string:50:95 */, %x5: Tensor[(5), float32] /* ty=Tensor[(5), float32] span=from_string:58:107 */, %x6: Tensor[(5), float32] /* ty=Tensor[(5), float32] */, %x7: Tensor[(10), int32] /* ty=Tensor[(10), int32] */, %x8: int32 /* ty=int32 span=from_string:74:118 */, %x9: int32 /* ty=int32 span=from_string:74:123 */) -> (Tensor[(3, 3, 5), int32], Tensor[(3, 3, 5), float32], Tensor[(3, 3, 5), float16], Tensor[(3, 3, 5), float16], Tensor[(3, 3, 5), float32], int32, Tensor[(5), int32], Tensor[(6, 3, 3, 3), float32]) {
  let %x_0 = fn (%p0: Tensor[(3, 3, 5), float32] /* ty=Tensor[(3, 3, 5), float32] span=from_string:4:10 */, Primitive=1) -> Tensor[(3, 3, 5), float16] {
    cast(%p0, dtype="float16") /* ty=Tensor[(3, 3, 5), float16] span=from_string:4:5 */
  } /* ty=fn (Tensor[(3, 3, 5), float32]) -> Tensor[(3, 3, 5), float16] span=from_string:6:101 */;
  let %x_01: Tensor[(3, 3, 5), float16] /* ty=Tensor[(3, 3, 5), float16] span=from_string:18:105 */ = %x_0(%x0);
  let %x_1 = fn (%p01: Tensor[(3, 3, 5), float16] /* ty=Tensor[(3, 3, 5), float16] span=from_string:8:10 */, Primitive=1) -> Tensor[(3, 3, 5), int32] {
    cast(%p01, dtype="int32") /* ty=Tensor[(3, 3, 5), int32] span=from_string:8:5 */
  } /* ty=fn (Tensor[(3, 3, 5), float16]) -> Tensor[(3, 3, 5), int32] span=from_string:10:100 */;
  let %x_11: Tensor[(3, 3, 5), int32] /* ty=Tensor[(3, 3, 5), int32] span=from_string:75:448 */ = %x_1(%x_01);
  let %x_2 = fn (%p02: Tensor[(3, 3, 5), float32] /* ty=Tensor[(3, 3, 5), float32] span=from_string:12:10 */, Primitive=1) -> Tensor[(3, 3, 5), float16] {
    cast(%p02, dtype="float16") /* ty=Tensor[(3, 3, 5), float16] span=from_string:12:5 */
  } /* ty=fn (Tensor[(3, 3, 5), float32]) -> Tensor[(3, 3, 5), float16] span=from_string:14:102 */;
  let %x_21: Tensor[(3, 3, 5), float16] /* ty=Tensor[(3, 3, 5), float16] span=from_string:38:112 */ = %x_2(%x2);
  let %x_3 = fn (%p03: Tensor[(3, 3, 5), float16] /* ty=Tensor[(3, 3, 5), float16] span=from_string:16:14 */, %p1: Tensor[(3, 3, 5), float16] /* ty=Tensor[(3, 3, 5), float16] span=from_string:16:20 */, Primitive=1) -> Tensor[(3, 3, 5), float16] {
    subtract(%p03, %p1) /* ty=Tensor[(3, 3, 5), float16] span=from_string:16:5 */
  } /* ty=fn (Tensor[(3, 3, 5), float16], Tensor[(3, 3, 5), float16]) -> Tensor[(3, 3, 5), float16] span=from_string:18:102 */;
  let %x_31: Tensor[(3, 3, 5), float16] /* ty=Tensor[(3, 3, 5), float16] span=from_string:38:106 */ = %x_3(%x_01, %x_21);
  let %x_4 = 1f16 /* ty=float16 span=from_string:22:115 */;
  let %x_5 = fn (%p04: Tensor[(3, 3, 5), float16] /* ty=Tensor[(3, 3, 5), float16] span=from_string:20:9 */, %p11: float16 /* ty=float16 span=from_string:20:15 */, Primitive=1) -> Tensor[(3, 3, 5), float16] {
    add(%p04, %p11) /* ty=Tensor[(3, 3, 5), float16] span=from_string:20:5 */
  } /* ty=fn (Tensor[(3, 3, 5), float16], float16) -> Tensor[(3, 3, 5), float16] span=from_string:22:102 */;
  let %x_9: Tensor[(3, 3, 5), float16] /* ty=Tensor[(3, 3, 5), float16] span=from_string:66:94 */ = %x_5(%x_31, %x_4);
  let %x_6 = fn (%p05: Tensor[(3, 3, 5), float16] /* ty=Tensor[(3, 3, 5), float16] span=from_string:24:10 */, Primitive=1) -> Tensor[(3, 3, 5), float32] {
    cast(%p05, dtype="float32") /* ty=Tensor[(3, 3, 5), float32] span=from_string:24:5 */
  } /* ty=fn (Tensor[(3, 3, 5), float16]) -> Tensor[(3, 3, 5), float32] span=from_string:26:102 */;
  let %x_10: Tensor[(3, 3, 5), float32] /* ty=Tensor[(3, 3, 5), float32] span=from_string:30:106 */ = %x_6(%x_9);
  let %x_7 = fn (%p06: Tensor[(3, 3, 5), float32] /* ty=Tensor[(3, 3, 5), float32] span=from_string:28:9 */, Primitive=1) -> Tensor[(3, 3, 5), float32] {
    exp(%p06) /* ty=Tensor[(3, 3, 5), float32] span=from_string:28:5 */
  } /* ty=fn (Tensor[(3, 3, 5), float32]) -> Tensor[(3, 3, 5), float32] span=from_string:30:103 */;
  let %x_111: Tensor[(3, 3, 5), float32] /* ty=Tensor[(3, 3, 5), float32] span=from_string:34:106 */ = %x_7(%x_10);
  let %x_8 = fn (%p07: Tensor[(3, 3, 5), float32] /* ty=Tensor[(3, 3, 5), float32] span=from_string:32:13 */, Primitive=1, relay.reshape_only=1) -> Tensor[(3, 3, 5), float32] {
    squeeze(%p07) /* ty=Tensor[(3, 3, 5), float32] span=from_string:32:5 */
  } /* ty=fn (Tensor[(3, 3, 5), float32]) -> Tensor[(3, 3, 5), float32] span=from_string:34:103 */;
  let %x_12: Tensor[(3, 3, 5), float32] /* ty=Tensor[(3, 3, 5), float32] span=from_string:75:454 */ = %x_8(%x_111);
  let %x_91 = fn (%p08: Tensor[(3, 3, 5), float16] /* ty=Tensor[(3, 3, 5), float16] span=from_string:36:15 */, %p12: Tensor[(3, 3, 5), float16] /* ty=Tensor[(3, 3, 5), float16] span=from_string:36:21 */, Primitive=1) -> Tensor[(3, 3, 5), float16] {
    multiply(%p08, %p12) /* ty=Tensor[(3, 3, 5), float16] span=from_string:36:6 */
  } /* ty=fn (Tensor[(3, 3, 5), float16], Tensor[(3, 3, 5), float16]) -> Tensor[(3, 3, 5), float16] span=from_string:38:103 */;
  let %x_13: Tensor[(3, 3, 5), float16] /* ty=Tensor[(3, 3, 5), float16] span=from_string:46:107 */ = %x_91(%x_31, %x_21);
  let %x_101 = fn (Primitive=1) -> Tensor[(3, 3, 5), float16] {
    zeros(shape=[3, 3, 5], dtype="float16") /* ty=Tensor[(3, 3, 5), float16] span=from_string:40:5 */
  } /* ty=fn () -> Tensor[(3, 3, 5), float16] span=from_string:42:103 */;
  let %x_14: Tensor[(3, 3, 5), float16] /* ty=Tensor[(3, 3, 5), float16] span=from_string:46:114 */ = %x_101();
  let %x_112 = fn (%p09: Tensor[(3, 3, 5), float16] /* ty=Tensor[(3, 3, 5), float16] span=from_string:44:9 */, %p13: Tensor[(3, 3, 5), float16] /* ty=Tensor[(3, 3, 5), float16] span=from_string:44:15 */, Primitive=1) -> Tensor[(3, 3, 5), float16] {
    add(%p09, %p13) /* ty=Tensor[(3, 3, 5), float16] span=from_string:44:5 */
  } /* ty=fn (Tensor[(3, 3, 5), float16], Tensor[(3, 3, 5), float16]) -> Tensor[(3, 3, 5), float16] span=from_string:46:103 */;
  let %x_15: Tensor[(3, 3, 5), float16] /* ty=Tensor[(3, 3, 5), float16] span=from_string:75:461 */ = %x_112(%x_13, %x_14);
  let %x_121 = fn (%p010: Tensor[(5), float32] /* ty=Tensor[(5), float32] span=from_string:48:10 */, Primitive=1) -> Tensor[(5), float16] {
    cast(%p010, dtype="float16") /* ty=Tensor[(5), float16] span=from_string:48:5 */
  } /* ty=fn (Tensor[(5), float32]) -> Tensor[(5), float16] span=from_string:50:91 */;
  let %x_16: Tensor[(5), float16] /* ty=Tensor[(5), float16] span=from_string:54:107 */ = %x_121(%x4);
  let %x_131 = fn (%p011: Tensor[(5), float16] /* ty=Tensor[(5), float16] span=from_string:52:18 */, Primitive=1) -> Tensor[(3, 3, 5), float16] {
    broadcast_to(%p011, shape=[3, 3, 5]) /* ty=Tensor[(3, 3, 5), float16] span=from_string:52:5 */
  } /* ty=fn (Tensor[(5), float16]) -> Tensor[(3, 3, 5), float16] span=from_string:54:103 */;
  let %x_17: Tensor[(3, 3, 5), float16] /* ty=Tensor[(3, 3, 5), float16] span=from_string:75:468 */ = %x_131(%x_16);
  let %x_141 = fn (%p012: Tensor[(5), float32] /* ty=Tensor[(5), float32] span=from_string:56:18 */, Primitive=1) -> Tensor[(3, 3, 5), float32] {
    broadcast_to(%p012, shape=[3, 3, 5]) /* ty=Tensor[(3, 3, 5), float32] span=from_string:56:5 */
  } /* ty=fn (Tensor[(5), float32]) -> Tensor[(3, 3, 5), float32] span=from_string:58:103 */;
  let %x_18: Tensor[(3, 3, 5), float32] /* ty=Tensor[(3, 3, 5), float32] span=from_string:75:475 */ = %x_141(%x5);
  let %x_151 = fn (%p013: Tensor[(5), float32] /* ty=Tensor[(5), float32] span=from_string:60:10 */, Primitive=1) -> Tensor[(5), float16] {
    cast(%p013, dtype="float16") /* ty=Tensor[(5), float16] span=from_string:60:5 */
  } /* ty=fn (Tensor[(5), float32]) -> Tensor[(5), float16] span=from_string:62:67 */;
  let %x_20: Tensor[(5), float16] /* ty=Tensor[(5), float16] */ = %x_151(%x3);
  let %x_161 = meta[relay.Constant][0] /* ty=Tensor[(1), int32] span=from_string:66:105 */;
  let %x_171 = fn (%p014: Tensor[(3, 3, 5), float16] /* ty=Tensor[(3, 3, 5), float16] span=from_string:64:21 */, %p14: Tensor[(1), int32] /* ty=Tensor[(1), int32] span=from_string:64:28 */, Primitive=1) -> Tensor[(5), float16] {
    collapse_sum_to(%p014, %p14, meta[relay.attrs.InitOpAttrs][0]) /* ty=Tensor[(5), float16] span=from_string:64:5 */
  } /* ty=fn (Tensor[(3, 3, 5), float16], Tensor[(1), int32]) -> Tensor[(5), float16] span=from_string:66:90 */;
  let %x_211: Tensor[(5), float16] /* ty=Tensor[(5), float16] span=from_string:70:93 */ = %x_171(%x_9, %x_161);
  let %x_181 = fn (%p015: Tensor[(5), float16] /* ty=Tensor[(5), float16] span=from_string:68:10 */, Primitive=1) -> Tensor[(5), int32] {
    cast(%p015, dtype="int32") /* ty=Tensor[(5), int32] span=from_string:68:5 */
  } /* ty=fn (Tensor[(5), float16]) -> Tensor[(5), int32] span=from_string:70:89 */;
  let %x_22: Tensor[(5), int32] /* ty=Tensor[(5), int32] span=from_string:75:524 */ = %x_181(%x_211);
  let %x_19 = fn (%p016: Tensor[(3, 3, 3), int32] /* ty=Tensor[(3, 3, 3), int32] span=from_string:72:13 */, %p15: int32 /* ty=int32 span=from_string:72:20 */, %p2: int32 /* ty=int32 span=from_string:72:26 */, Primitive=1) -> Tensor[(6, 3, 3, 3), float32] {
    one_hot(%p016, %p15, %p2, depth=6, axis=0, dtype="float32") /* ty=Tensor[(6, 3, 3, 3), float32] span=from_string:72:5 */
  } /* ty=fn (Tensor[(3, 3, 3), int32], int32, int32) -> Tensor[(6, 3, 3, 3), float32] span=from_string:74:109 */;
  let %x_23: Tensor[(6, 3, 3, 3), float32] /* ty=Tensor[(6, 3, 3, 3), float32] span=from_string:75:531 */ = %x_19(%x1, %x8, %x9);
  let %x_201 = 5 /* ty=int32 span=from_string:75:483 */;
  let %x_24: (Tensor[(3, 3, 5), int32], Tensor[(3, 3, 5), float32], Tensor[(3, 3, 5), float16], Tensor[(3, 3, 5), float16], Tensor[(3, 3, 5), float32], int32, Tensor[(5), int32], Tensor[(6, 3, 3, 3), float32]) /* ty=(Tensor[(3, 3, 5), int32], Tensor[(3, 3, 5), float32], Tensor[(3, 3, 5), float16], Tensor[(3, 3, 5), float16], Tensor[(3, 3, 5), float32], int32, Tensor[(5), int32], Tensor[(6, 3, 3, 3), float32]) span=from_string:76:3 */ = (%x_11, %x_12, %x_15, %x_17, %x_18, %x_201, %x_22, %x_23) /* ty=(Tensor[(3, 3, 5), int32], Tensor[(3, 3, 5), float32], Tensor[(3, 3, 5), float16], Tensor[(3, 3, 5), float16], Tensor[(3, 3, 5), float32], int32, Tensor[(5), int32], Tensor[(6, 3, 3, 3), float32]) span=from_string:75:447 */;
  let %x_212 = %x_24;
  let %x_221 = %x_212;
  let %x_231 = %x_221;
  let %x_241 = %x_231;
  let %x_25 = %x_241;
  let %x_26 = %x_25;
  let %x_27 = %x_26;
  let %x_28 = %x_27;
  let %x_29 = %x_28;
  let %x_30 = %x_29;
  let %x_311 = %x_30;
  let %x_32 = %x_311;
  let %x_33 = %x_32;
  let %x_34 = %x_33;
  let %x_35 = %x_34;
  let %x_36 = %x_35;
  let %x_37 = %x_36;
  let %x_38 = %x_37;
  let %x_39 = %x_38;
  %x_39
}

#[metadata]
{
  "root": 1, 
  "nodes": [
    {
      "type_key": ""
    }, 
    {
      "type_key": "Map", 
      "keys": [
        "relay.attrs.InitOpAttrs", 
        "relay.Constant"
      ], 
      "data": [2, 6]
    }, 
    {
      "type_key": "Array", 
      "data": [3]
    }, 
    {
      "type_key": "relay.attrs.InitOpAttrs", 
      "attrs": {
        "dtype": "", 
        "shape": "4"
      }
    }, 
    {
      "type_key": "Array", 
      "data": [5]
    }, 
    {
      "type_key": "IntImm", 
      "attrs": {
        "dtype": "int32", 
        "span": "0", 
        "value": "5"
      }
    }, 
    {
      "type_key": "Array", 
      "data": [7]
    }, 
    {
      "type_key": "relay.Constant", 
      "attrs": {
        "_checked_type_": "12", 
        "data": "0", 
        "span": "10", 
        "virtual_device_": "8"
      }
    }, 
    {
      "type_key": "VirtualDevice", 
      "attrs": {
        "device_type_int": "-1", 
        "memory_scope": "9", 
        "target": "0", 
        "virtual_device_id": "-1"
      }
    }, 
    {
      "type_key": "runtime.String"
    }, 
    {
      "type_key": "Span", 
      "attrs": {
        "column": "105", 
        "end_column": "123", 
        "end_line": "66", 
        "line": "66", 
        "source_name": "11"
      }
    }, 
    {
      "type_key": "SourceName", 
      "repr_str": "from_string"
    }, 
    {
      "type_key": "relay.TensorType", 
      "attrs": {
        "dtype": "int32", 
        "shape": "13", 
        "span": "0"
      }
    }, 
    {
      "type_key": "Array", 
      "data": [14]
    }, 
    {
      "type_key": "IntImm", 
      "attrs": {
        "dtype": "int32", 
        "span": "0", 
        "value": "1"
      }
    }
  ], 
  "b64ndarrays": [
    "P6G0lvBAXt0AAAAAAAAAAAEAAAAAAAAAAQAAAAAgAQABAAAAAAAAAAQAAAAAAAAABQAAAA=="
  ], 
  "attrs": {"tvm_version": "0.13.0"}
}