#[version = "0.0.5"]
def @main(%x0: Tensor[(3, 3, 5), float32] /* ty=Tensor[(3, 3, 5), float32] span=from_string:3:13 */, %x1: Tensor[(3, 3, 3), int32] /* ty=Tensor[(3, 3, 3), int32] span=from_string:26:117 */, %x2: Tensor[(3, 3, 5), float32] /* ty=Tensor[(3, 3, 5), float32] span=from_string:6:13 */, %x3: Tensor[(5), float32] /* ty=Tensor[(5), float32] span=from_string:22:13 */, %x4: Tensor[(5), float32] /* ty=Tensor[(5), float32] span=from_string:17:13 */, %x5: Tensor[(5), float32] /* ty=Tensor[(5), float32] span=from_string:20:13 */, %x6: Tensor[(5), float32] /* ty=Tensor[(5), float32] */, %x7: Tensor[(10), int32] /* ty=Tensor[(10), int32] */, %x8: int32 /* ty=int32 span=from_string:26:122 */, %x9: int32 /* ty=int32 span=from_string:26:127 */) -> (Tensor[(3, 3, 5), int32], Tensor[(3, 3, 5), float16], Tensor[(3, 3, 5), float16], Tensor[(3, 3, 5), float16], Tensor[(3, 3, 5), float16], int32, Tensor[(5), int32], Tensor[(6, 3, 3, 3), float32]) {
  %0 = cast(%x0, dtype="float16") /* ty=Tensor[(3, 3, 5), float16] span=from_string:4:106 */;
  %1 = cast(%0, dtype="float16") /* ty=Tensor[(3, 3, 5), float16] span=from_string:4:101 */;
  %2 = cast(%x2, dtype="float16") /* ty=Tensor[(3, 3, 5), float16] span=from_string:7:107 */;
  %3 = cast(%2, dtype="float16") /* ty=Tensor[(3, 3, 5), float16] span=from_string:7:102 */;
  %4 = subtract(%1, %3) /* ty=Tensor[(3, 3, 5), float16] span=from_string:8:102 */;
  %5 = add(%4, 1f16 /* ty=float16 span=from_string:9:116 */) /* ty=Tensor[(3, 3, 5), float16] span=from_string:9:102 */;
  %6 = cast(%5, dtype="float32") /* ty=Tensor[(3, 3, 5), float32] span=from_string:10:102 */;
  %7 = exp(%6) /* ty=Tensor[(3, 3, 5), float32] span=from_string:11:101 */;
  %8 = cast(%7, dtype="float16") /* ty=Tensor[(3, 3, 5), float16] span=from_string:13:110 */;
  %9 = multiply(%4, %3) /* ty=Tensor[(3, 3, 5), float16] span=from_string:14:104 */;
  %10 = zeros(shape=[3, 3, 5], dtype="float16") /* ty=Tensor[(3, 3, 5), float16] span=from_string:15:103 */;
  %11 = cast(%x4, dtype="float16") /* ty=Tensor[(5), float16] span=from_string:18:96 */;
  %12 = cast(%11, dtype="float16") /* ty=Tensor[(5), float16] span=from_string:18:91 */;
  %13 = cast(%x5, dtype="float16") /* ty=Tensor[(5), float16] span=from_string:21:116 */;
  %14 = collapse_sum_to(%5, meta[relay.Constant][0] /* ty=Tensor[(1), int32] span=from_string:24:117 */, meta[relay.attrs.InitOpAttrs][0]) /* ty=Tensor[(5), float16] span=from_string:24:90 */;
  %15 = cast(%1, dtype="int32") /* ty=Tensor[(3, 3, 5), int32] span=from_string:5:100 */;
  %16 = squeeze(%8) /* ty=Tensor[(3, 3, 5), float16] span=from_string:13:102 */;
  %17 = add(%9, %10) /* ty=Tensor[(3, 3, 5), float16] span=from_string:16:103 */;
  %18 = broadcast_to(%12, shape=[3, 3, 5], dtype="float16") /* ty=Tensor[(3, 3, 5), float16] span=from_string:19:103 */;
  %19 = broadcast_to(%13, shape=[3, 3, 5], dtype="float16") /* ty=Tensor[(3, 3, 5), float16] span=from_string:21:103 */;
  %20 = cast(%14, dtype="int32") /* ty=Tensor[(5), int32] span=from_string:25:89 */;
  %21 = one_hot(%x1, %x8, %x9, depth=6, axis=0, dtype="float32") /* ty=Tensor[(6, 3, 3, 3), float32] span=from_string:26:109 */;
  (%15, %16, %17, %18, %19, 5 /* ty=int32 span=from_string:27:485 */, %20, %21) /* ty=(Tensor[(3, 3, 5), int32], Tensor[(3, 3, 5), float16], Tensor[(3, 3, 5), float16], Tensor[(3, 3, 5), float16], Tensor[(3, 3, 5), float16], int32, Tensor[(5), int32], Tensor[(6, 3, 3, 3), float32]) span=from_string:27:450 */
}

#[metadata]
{
  "root": 1, 
  "nodes": [
    {
      "type_key": ""
    }, 
    {
      "type_key": "Map", 
      "keys": [
        "relay.attrs.InitOpAttrs", 
        "relay.Constant"
      ], 
      "data": [2, 6]
    }, 
    {
      "type_key": "Array", 
      "data": [3]
    }, 
    {
      "type_key": "relay.attrs.InitOpAttrs", 
      "attrs": {
        "dtype": "float16", 
        "shape": "4"
      }
    }, 
    {
      "type_key": "Array", 
      "data": [5]
    }, 
    {
      "type_key": "IntImm", 
      "attrs": {
        "dtype": "int32", 
        "span": "0", 
        "value": "5"
      }
    }, 
    {
      "type_key": "Array", 
      "data": [7]
    }, 
    {
      "type_key": "relay.Constant", 
      "attrs": {
        "_checked_type_": "12", 
        "data": "0", 
        "span": "10", 
        "virtual_device_": "8"
      }
    }, 
    {
      "type_key": "VirtualDevice", 
      "attrs": {
        "device_type_int": "-1", 
        "memory_scope": "9", 
        "target": "0", 
        "virtual_device_id": "-1"
      }
    }, 
    {
      "type_key": "runtime.String"
    }, 
    {
      "type_key": "Span", 
      "attrs": {
        "column": "117", 
        "end_column": "135", 
        "end_line": "24", 
        "line": "24", 
        "source_name": "11"
      }
    }, 
    {
      "type_key": "SourceName", 
      "repr_str": "from_string"
    }, 
    {
      "type_key": "relay.TensorType", 
      "attrs": {
        "dtype": "int32", 
        "shape": "13", 
        "span": "0"
      }
    }, 
    {
      "type_key": "Array", 
      "data": [14]
    }, 
    {
      "type_key": "IntImm", 
      "attrs": {
        "dtype": "int32", 
        "span": "0", 
        "value": "1"
      }
    }
  ], 
  "b64ndarrays": [
    "P6G0lvBAXt0AAAAAAAAAAAEAAAAAAAAAAQAAAAAgAQABAAAAAAAAAAQAAAAAAAAABQAAAA=="
  ], 
  "attrs": {"tvm_version": "0.13.0"}
}