#[version = "0.0.5"]
def @main(%x0: Tensor[(3, 3, 5), float32] /* ty=Tensor[(3, 3, 5), float32] span=from_string:3:106 */, %x1: Tensor[(3, 3, 3), int32] /* ty=Tensor[(3, 3, 3), int32] span=from_string:20:117 */, %x2: Tensor[(3, 3, 5), float32] /* ty=Tensor[(3, 3, 5), float32] span=from_string:5:107 */, %x3: Tensor[(5), float32] /* ty=Tensor[(5), float32] span=from_string:17:96 */, %x4: Tensor[(5), float32] /* ty=Tensor[(5), float32] span=from_string:14:96 */, %x5: Tensor[(5), float32] /* ty=Tensor[(5), float32] span=from_string:16:121 */, %x6: Tensor[(5), float32] /* ty=Tensor[(5), float32] */, %x7: Tensor[(10), int32] /* ty=Tensor[(10), int32] span=from_string:19:106 */, %x8: int32 /* ty=int32 span=from_string:20:122 */, %x9: int32 /* ty=int32 span=from_string:20:127 */) -> (Tensor[(3, 3, 5), int32], Tensor[(3, 3, 5), float32], Tensor[(3, 3, 5), float16], Tensor[(3, 3, 5), float16], Tensor[(3, 3, 5), float32], int32, Tensor[(5), int32], Tensor[(6, 3, 3, 3), float32]) {
  %0 = cast(%x0, dtype="float16") /* ty=Tensor[(3, 3, 5), float16] span=from_string:3:101 */;
  %1 = cast(%x2, dtype="float16") /* ty=Tensor[(3, 3, 5), float16] span=from_string:5:102 */;
  %2 = subtract(%0, %1) /* ty=Tensor[(3, 3, 5), float16] span=from_string:6:102 */;
  %3 = add(%2, 1f16 /* ty=float16 span=from_string:7:116 */) /* ty=Tensor[(3, 3, 5), float16] span=from_string:7:102 */;
  %4 = cast(%3, dtype="float32") /* ty=Tensor[(3, 3, 5), float32] span=from_string:8:103 */;
  %5 = exp(%4) /* ty=Tensor[(3, 3, 5), float32] span=from_string:9:103 */;
  %6 = multiply(%2, %1) /* ty=Tensor[(3, 3, 5), float16] span=from_string:11:104 */;
  %7 = zeros_like(%6) /* ty=Tensor[(3, 3, 5), float16] span=from_string:12:103 */;
  %8 = cast(%x4, dtype="float16") /* ty=Tensor[(5), float16] span=from_string:14:91 */;
  %9 = cast(%x3, dtype="float16") /* ty=Tensor[(5), float16] span=from_string:17:91 */;
  %10 = collapse_sum_like(%3, %9) /* ty=Tensor[(5), float16] span=from_string:18:90 */;
  %11 = cast_like(%0, %x1) /* ty=Tensor[(3, 3, 5), int32] span=from_string:4:100 */;
  %12 = squeeze(%5) /* ty=Tensor[(3, 3, 5), float32] span=from_string:10:103 */;
  %13 = add(%6, %7) /* ty=Tensor[(3, 3, 5), float16] span=from_string:13:103 */;
  %14 = broadcast_to_like(%8, %7) /* ty=Tensor[(3, 3, 5), float16] span=from_string:15:103 */;
  %15 = broadcast_to_like(%x5, %5) /* ty=Tensor[(3, 3, 5), float32] span=from_string:16:103 */;
  %16 = cast_like(%10, %x7) /* ty=Tensor[(5), int32] span=from_string:19:89 */;
  %17 = one_hot(%x1, %x8, %x9, depth=6, axis=0, dtype="float32") /* ty=Tensor[(6, 3, 3, 3), float32] span=from_string:20:109 */;
  (%11, %12, %13, %14, %15, 5 /* ty=int32 span=from_string:21:484 */, %16, %17) /* ty=(Tensor[(3, 3, 5), int32], Tensor[(3, 3, 5), float32], Tensor[(3, 3, 5), float16], Tensor[(3, 3, 5), float16], Tensor[(3, 3, 5), float32], int32, Tensor[(5), int32], Tensor[(6, 3, 3, 3), float32]) span=from_string:21:448 */
}
