#[version = "0.0.5"]
def @main(%x0: Tensor[(3, 3, 5), float32] /* ty=Tensor[(3, 3, 5), float32] span=from_string:3:13 */, %x1: Tensor[(3, 3, 3), int32] /* ty=Tensor[(3, 3, 3), int32] span=from_string:27:116 */, %x2: Tensor[(3, 3, 5), float32] /* ty=Tensor[(3, 3, 5), float32] span=from_string:6:13 */, %x3: Tensor[(5), float32] /* ty=Tensor[(5), float32] span=from_string:23:13 */, %x4: Tensor[(5), float32] /* ty=Tensor[(5), float32] span=from_string:18:13 */, %x5: Tensor[(5), float32] /* ty=Tensor[(5), float32] span=from_string:21:13 */, %x6: Tensor[(5), float32] /* ty=Tensor[(5), float32] */, %x7: Tensor[(10), int32] /* ty=Tensor[(10), int32] span=from_string:26:105 */, %x8: int32 /* ty=int32 span=from_string:27:121 */, %x9: int32 /* ty=int32 span=from_string:27:126 */) -> (Tensor[(3, 3, 5), int32], Tensor[(3, 3, 5), float16], Tensor[(3, 3, 5), float16], Tensor[(3, 3, 5), float16], Tensor[(3, 3, 5), float16], int32, Tensor[(5), int32], Tensor[(6, 3, 3, 3), float32]) {
  let %x_0 = cast(%x0, dtype="float16");
  let %x_01: Tensor[(3, 3, 5), float16] /* ty=Tensor[(3, 3, 5), float16] span=from_string:8:110 */ = cast(%x_0, dtype="float16");
  let %x_1: Tensor[(3, 3, 5), int32] /* ty=Tensor[(3, 3, 5), int32] span=from_string:29:448 */ = cast_like(%x_01, %x1);
  let %x_11 = cast(%x2, dtype="float16");
  let %x_2: Tensor[(3, 3, 5), float16] /* ty=Tensor[(3, 3, 5), float16] span=from_string:15:117 */ = cast(%x_11, dtype="float16");
  let %x_3: Tensor[(3, 3, 5), float16] /* ty=Tensor[(3, 3, 5), float16] span=from_string:15:111 */ = subtract(%x_01, %x_2);
  let %x_4: float16 /* ty=float16 span=from_string:10:111 */ = 1f16 /* ty=float16 span=from_string:9:66 */;
  let %x_5: Tensor[(3, 3, 5), float16] /* ty=Tensor[(3, 3, 5), float16] span=from_string:25:108 */ = add(%x_3, %x_4);
  let %x_6: Tensor[(3, 3, 5), float32] /* ty=Tensor[(3, 3, 5), float32] span=from_string:12:105 */ = cast(%x_5, dtype="float32");
  let %x_7: Tensor[(3, 3, 5), float32] /* ty=Tensor[(3, 3, 5), float32] span=from_string:13:13 */ = exp(%x_6);
  let %x_21 = cast(%x_7, dtype="float16");
  let %x_8: Tensor[(3, 3, 5), float16] /* ty=Tensor[(3, 3, 5), float16] span=from_string:29:454 */ = squeeze(%x_21);
  let %x_9: Tensor[(3, 3, 5), float16] /* ty=Tensor[(3, 3, 5), float16] span=from_string:17:106 */ = multiply(%x_3, %x_2);
  let %x_10: Tensor[(3, 3, 5), float16] /* ty=Tensor[(3, 3, 5), float16] span=from_string:20:127 */ = zeros_like(%x_9);
  let %x_111: Tensor[(3, 3, 5), float16] /* ty=Tensor[(3, 3, 5), float16] span=from_string:29:460 */ = add(%x_9, %x_10);
  let %x_31 = cast(%x4, dtype="float16");
  let %x_12: Tensor[(5), float16] /* ty=Tensor[(5), float16] span=from_string:20:120 */ = cast(%x_31, dtype="float16");
  let %x_13: Tensor[(3, 3, 5), float16] /* ty=Tensor[(3, 3, 5), float16] span=from_string:29:467 */ = broadcast_to_like(%x_12, %x_10);
  let %x_41 = cast(%x5, dtype="float16");
  let %x_14: Tensor[(3, 3, 5), float16] /* ty=Tensor[(3, 3, 5), float16] span=from_string:29:474 */ = broadcast_to_like(%x_41, %x_21);
  let %x_51 = cast(%x3, dtype="float16");
  let %x_15: Tensor[(5), float16] /* ty=Tensor[(5), float16] span=from_string:25:114 */ = cast(%x_51, dtype="float16");
  let %x_16: Tensor[(5), float16] /* ty=Tensor[(5), float16] span=from_string:26:98 */ = collapse_sum_like(%x_5, %x_15);
  let %x_17: Tensor[(5), int32] /* ty=Tensor[(5), int32] span=from_string:29:488 */ = cast_like(%x_16, %x7);
  let %x_18: Tensor[(6, 3, 3, 3), float32] /* ty=Tensor[(6, 3, 3, 3), float32] span=from_string:29:495 */ = one_hot(%x1, %x8, %x9, depth=6, axis=0, dtype="float32");
  let %x_19: int32 /* ty=int32 span=from_string:29:481 */ = 5 /* ty=int32 span=from_string:28:63 */;
  let %x_20: (Tensor[(3, 3, 5), int32], Tensor[(3, 3, 5), float16], Tensor[(3, 3, 5), float16], Tensor[(3, 3, 5), float16], Tensor[(3, 3, 5), float16], int32, Tensor[(5), int32], Tensor[(6, 3, 3, 3), float32]) /* ty=(Tensor[(3, 3, 5), int32], Tensor[(3, 3, 5), float16], Tensor[(3, 3, 5), float16], Tensor[(3, 3, 5), float16], Tensor[(3, 3, 5), float16], int32, Tensor[(5), int32], Tensor[(6, 3, 3, 3), float32]) span=from_string:30:3 */ = (%x_1, %x_8, %x_111, %x_13, %x_14, %x_19, %x_17, %x_18) /* ty=(Tensor[(3, 3, 5), int32], Tensor[(3, 3, 5), float16], Tensor[(3, 3, 5), float16], Tensor[(3, 3, 5), float16], Tensor[(3, 3, 5), float16], int32, Tensor[(5), int32], Tensor[(6, 3, 3, 3), float32]) span=from_string:29:447 */;
  let %x_61 = %x_20;
  let %x_71 = %x_61;
  let %x_81 = %x_71;
  let %x_91 = %x_81;
  let %x_101 = %x_91;
  let %x_112 = %x_101;
  let %x_121 = %x_112;
  let %x_131 = %x_121;
  let %x_141 = %x_131;
  let %x_151 = %x_141;
  let %x_161 = %x_151;
  let %x_171 = %x_161;
  let %x_181 = %x_171;
  let %x_191 = %x_181;
  let %x_201 = %x_191;
  let %x_211 = %x_201;
  let %x_22 = %x_211;
  let %x_23 = %x_22;
  let %x_24 = %x_23;
  let %x_25 = %x_24;
  let %x_26 = %x_25;
  %x_26
}
