#[version = "0.0.5"]
def @main(%x0: Tensor[(3, 3, 5), float32] /* ty=Tensor[(3, 3, 5), float32] span=from_string:7:11 */, %x1: Tensor[(3, 3, 3), int32] /* ty=Tensor[(3, 3, 3), int32] span=from_string:63:13 */, %x2: Tensor[(3, 3, 5), float32] /* ty=Tensor[(3, 3, 5), float32] span=from_string:15:11 */, %x3: Tensor[(5), float32] /* ty=Tensor[(5), float32] */, %x4: Tensor[(5), float32] /* ty=Tensor[(5), float32] span=from_string:60:13 */, %x5: Tensor[(5), float32] /* ty=Tensor[(5), float32] span=from_string:61:13 */, %x6: Tensor[(5), float32] /* ty=Tensor[(5), float32] */, %x7: Tensor[(10), int32] /* ty=Tensor[(10), int32] */, %x8: int32 /* ty=int32 span=from_string:63:18 */, %x9: int32 /* ty=int32 span=from_string:63:23 */) -> (Tensor[(3, 3, 5), int32], Tensor[(3, 3, 5), float16], Tensor[(3, 3, 5), float16], Tensor[(3, 3, 5), float16], Tensor[(3, 3, 5), float16], int32, Tensor[(5), int32], Tensor[(6, 3, 3, 3), float32]) {
  %1 = fn (%p01: Tensor[(3, 3, 5), float32] /* ty=Tensor[(3, 3, 5), float32] span=from_string:4:15 */, Primitive=1) -> Tensor[(3, 3, 5), float16] {
    %0 = cast(%p01, dtype="float16") /* ty=Tensor[(3, 3, 5), float16] span=from_string:5:10 */;
    cast(%0, dtype="float16") /* ty=Tensor[(3, 3, 5), float16] span=from_string:4:5 */
  } /* ty=fn (Tensor[(3, 3, 5), float32]) -> Tensor[(3, 3, 5), float16] span=from_string:7:8 */;
  %2 = %1(%x0) /* ty=Tensor[(3, 3, 5), float16] span=from_string:57:12 */;
  %3 = fn (%p0: Tensor[(3, 3, 5), float16] /* ty=Tensor[(3, 3, 5), float16] span=from_string:9:10 */, Primitive=1) -> Tensor[(3, 3, 5), int32] {
    cast(%p0, dtype="int32") /* ty=Tensor[(3, 3, 5), int32] span=from_string:9:5 */
  } /* ty=fn (Tensor[(3, 3, 5), float16]) -> Tensor[(3, 3, 5), int32] span=from_string:57:9 */;
  %8 = fn (%p03: Tensor[(3, 3, 5), float32] /* ty=Tensor[(3, 3, 5), float32] span=from_string:12:15 */, Primitive=1) -> Tensor[(3, 3, 5), float16] {
    %7 = cast(%p03, dtype="float16") /* ty=Tensor[(3, 3, 5), float16] span=from_string:13:10 */;
    cast(%7, dtype="float16") /* ty=Tensor[(3, 3, 5), float16] span=from_string:12:5 */
  } /* ty=fn (Tensor[(3, 3, 5), float32]) -> Tensor[(3, 3, 5), float16] span=from_string:15:8 */;
  %9 = %8(%x2) /* ty=Tensor[(3, 3, 5), float16] span=from_string:59:18 */;
  %10 = fn (%p02: Tensor[(3, 3, 5), float16] /* ty=Tensor[(3, 3, 5), float16] span=from_string:17:14 */, %p1: Tensor[(3, 3, 5), float16] /* ty=Tensor[(3, 3, 5), float16] span=from_string:17:20 */, Primitive=1) -> Tensor[(3, 3, 5), float16] {
    subtract(%p02, %p1) /* ty=Tensor[(3, 3, 5), float16] span=from_string:17:5 */
  } /* ty=fn (Tensor[(3, 3, 5), float16], Tensor[(3, 3, 5), float16]) -> Tensor[(3, 3, 5), float16] span=from_string:19:9 */;
  %11 = %10(%2, %9) /* ty=Tensor[(3, 3, 5), float16] span=from_string:59:13 */;
  %12 = fn (%p04: Tensor[(3, 3, 5), float16] /* ty=Tensor[(3, 3, 5), float16] span=from_string:21:9 */, %p11: float16 /* ty=float16 span=from_string:21:15 */, Primitive=1) -> Tensor[(3, 3, 5), float16] {
    add(%p04, %p11) /* ty=Tensor[(3, 3, 5), float16] span=from_string:21:5 */
  } /* ty=fn (Tensor[(3, 3, 5), float16], float16) -> Tensor[(3, 3, 5), float16] span=from_string:23:9 */;
  %13 = %12(%11, 1f16 /* ty=float16 span=from_string:23:22 */) /* ty=Tensor[(3, 3, 5), float16] span=from_string:50:13 */;
  %14 = fn (%p05: Tensor[(3, 3, 5), float16] /* ty=Tensor[(3, 3, 5), float16] span=from_string:25:15 */, Primitive=1) -> Tensor[(3, 3, 5), float32] {
    %6 = cast(%p05, dtype="float32") /* ty=Tensor[(3, 3, 5), float32] span=from_string:26:9 */;
    exp(%6) /* ty=Tensor[(3, 3, 5), float32] span=from_string:25:5 */
  } /* ty=fn (Tensor[(3, 3, 5), float16]) -> Tensor[(3, 3, 5), float32] span=from_string:28:9 */;
  %15 = %14(%13) /* ty=Tensor[(3, 3, 5), float32] span=from_string:58:13 */;
  %16 = fn (%p06: Tensor[(3, 3, 5), float32] /* ty=Tensor[(3, 3, 5), float32] span=from_string:30:15 */, Primitive=1) -> Tensor[(3, 3, 5), float16] {
    %4 = cast(%p06, dtype="float16") /* ty=Tensor[(3, 3, 5), float16] span=from_string:31:15 */;
    %5 = cast(%4, dtype="float16") /* ty=Tensor[(3, 3, 5), float16] span=from_string:32:13 */;
    squeeze(%5) /* ty=Tensor[(3, 3, 5), float16] span=from_string:30:5 */
  } /* ty=fn (Tensor[(3, 3, 5), float32]) -> Tensor[(3, 3, 5), float16] span=from_string:58:9 */;
  %17 = fn (%p07: Tensor[(3, 3, 5), float16] /* ty=Tensor[(3, 3, 5), float16] span=from_string:35:15 */, %p12: Tensor[(3, 3, 5), float16] /* ty=Tensor[(3, 3, 5), float16] span=from_string:35:21 */, Primitive=1) -> Tensor[(3, 3, 5), float16] {
    multiply(%p07, %p12) /* ty=Tensor[(3, 3, 5), float16] span=from_string:35:6 */
  } /* ty=fn (Tensor[(3, 3, 5), float16], Tensor[(3, 3, 5), float16]) -> Tensor[(3, 3, 5), float16] span=from_string:59:9 */;
  %20 = fn (%p08: Tensor[(5), float32] /* ty=Tensor[(5), float32] span=from_string:38:16 */, Primitive=1) -> Tensor[(3, 3, 5), float16] {
    %18 = cast(%p08, dtype="float16") /* ty=Tensor[(5), float16] span=from_string:39:16 */;
    %19 = cast(%18, dtype="float16") /* ty=Tensor[(5), float16] span=from_string:40:18 */;
    broadcast_to(%19, shape=[3, 3, 5], dtype="float16") /* ty=Tensor[(3, 3, 5), float16] span=from_string:38:5 */
  } /* ty=fn (Tensor[(5), float32]) -> Tensor[(3, 3, 5), float16] span=from_string:60:9 */;
  %23 = fn (%p09: Tensor[(5), float32] /* ty=Tensor[(5), float32] span=from_string:43:16 */, Primitive=1) -> Tensor[(3, 3, 5), float16] {
    %21 = cast(%p09, dtype="float16") /* ty=Tensor[(5), float16] span=from_string:44:16 */;
    %22 = cast(%21, dtype="float16") /* ty=Tensor[(5), float16] span=from_string:45:18 */;
    broadcast_to(%22, shape=[3, 3, 5], dtype="float16") /* ty=Tensor[(3, 3, 5), float16] span=from_string:43:5 */
  } /* ty=fn (Tensor[(5), float32]) -> Tensor[(3, 3, 5), float16] span=from_string:61:9 */;
  %24 = fn (%p010: Tensor[(3, 3, 5), float16] /* ty=Tensor[(3, 3, 5), float16] span=from_string:48:21 */, %p13: Tensor[(1), int32] /* ty=Tensor[(1), int32] span=from_string:48:28 */, Primitive=1) -> Tensor[(5), float16] {
    collapse_sum_to(%p010, %p13, meta[relay.attrs.InitOpAttrs][0]) /* ty=Tensor[(5), float16] span=from_string:48:5 */
  } /* ty=fn (Tensor[(3, 3, 5), float16], Tensor[(1), int32]) -> Tensor[(5), float16] span=from_string:50:9 */;
  %25 = %24(%13, meta[relay.Constant][0] /* ty=Tensor[(1), int32] span=from_string:50:23 */) /* ty=Tensor[(5), float16] span=from_string:62:13 */;
  %26 = fn (%p011: Tensor[(5), float16] /* ty=Tensor[(5), float16] span=from_string:52:10 */, Primitive=1) -> Tensor[(5), int32] {
    cast(%p011, dtype="int32") /* ty=Tensor[(5), int32] span=from_string:52:5 */
  } /* ty=fn (Tensor[(5), float16]) -> Tensor[(5), int32] span=from_string:62:9 */;
  %27 = fn (%p012: Tensor[(3, 3, 3), int32] /* ty=Tensor[(3, 3, 3), int32] span=from_string:55:13 */, %p14: int32 /* ty=int32 span=from_string:55:20 */, %p2: int32 /* ty=int32 span=from_string:55:26 */, Primitive=1) -> Tensor[(6, 3, 3, 3), float32] {
    one_hot(%p012, %p14, %p2, depth=6, axis=0, dtype="float32") /* ty=Tensor[(6, 3, 3, 3), float32] span=from_string:55:5 */
  } /* ty=fn (Tensor[(3, 3, 3), int32], int32, int32) -> Tensor[(6, 3, 3, 3), float32] span=from_string:63:9 */;
  %28 = %3(%2) /* ty=Tensor[(3, 3, 5), int32] span=from_string:64:4 */;
  %29 = %16(%15) /* ty=Tensor[(3, 3, 5), float16] span=from_string:64:9 */;
  %30 = %17(%11, %9) /* ty=Tensor[(3, 3, 5), float16] span=from_string:64:14 */;
  %31 = %20(%x4) /* ty=Tensor[(3, 3, 5), float16] span=from_string:64:19 */;
  %32 = %23(%x5) /* ty=Tensor[(3, 3, 5), float16] span=from_string:64:24 */;
  %33 = %26(%25) /* ty=Tensor[(5), int32] span=from_string:64:71 */;
  %34 = %27(%x1, %x8, %x9) /* ty=Tensor[(6, 3, 3, 3), float32] span=from_string:64:76 */;
  (%28, %29, %30, %31, %32, 5 /* ty=int32 span=from_string:64:30 */, %33, %34) /* ty=(Tensor[(3, 3, 5), int32], Tensor[(3, 3, 5), float16], Tensor[(3, 3, 5), float16], Tensor[(3, 3, 5), float16], Tensor[(3, 3, 5), float16], int32, Tensor[(5), int32], Tensor[(6, 3, 3, 3), float32]) span=from_string:3:3 */
}

#[metadata]
{
  "root": 1, 
  "nodes": [
    {
      "type_key": ""
    }, 
    {
      "type_key": "Map", 
      "keys": [
        "relay.Constant", 
        "relay.attrs.InitOpAttrs"
      ], 
      "data": [2, 11]
    }, 
    {
      "type_key": "Array", 
      "data": [3]
    }, 
    {
      "type_key": "relay.Constant", 
      "attrs": {
        "_checked_type_": "8", 
        "data": "0", 
        "span": "6", 
        "virtual_device_": "4"
      }
    }, 
    {
      "type_key": "VirtualDevice", 
      "attrs": {
        "device_type_int": "-1", 
        "memory_scope": "5", 
        "target": "0", 
        "virtual_device_id": "-1"
      }
    }, 
    {
      "type_key": "runtime.String"
    }, 
    {
      "type_key": "Span", 
      "attrs": {
        "column": "23", 
        "end_column": "41", 
        "end_line": "50", 
        "line": "50", 
        "source_name": "7"
      }
    }, 
    {
      "type_key": "SourceName", 
      "repr_str": "from_string"
    }, 
    {
      "type_key": "relay.TensorType", 
      "attrs": {
        "dtype": "int32", 
        "shape": "9", 
        "span": "0"
      }
    }, 
    {
      "type_key": "Array", 
      "data": [10]
    }, 
    {
      "type_key": "IntImm", 
      "attrs": {
        "dtype": "int32", 
        "span": "0", 
        "value": "1"
      }
    }, 
    {
      "type_key": "Array", 
      "data": [12]
    }, 
    {
      "type_key": "relay.attrs.InitOpAttrs", 
      "attrs": {
        "dtype": "float16", 
        "shape": "13"
      }
    }, 
    {
      "type_key": "Array", 
      "data": [14]
    }, 
    {
      "type_key": "IntImm", 
      "attrs": {
        "dtype": "int32", 
        "span": "0", 
        "value": "5"
      }
    }
  ], 
  "b64ndarrays": [
    "P6G0lvBAXt0AAAAAAAAAAAEAAAAAAAAAAQAAAAAgAQABAAAAAAAAAAQAAAAAAAAABQAAAA=="
  ], 
  "attrs": {"tvm_version": "0.13.0"}
}