#[version = "0.0.5"]
def @main(%x0: Tensor[(3, 3, 5), float32] /* ty=Tensor[(3, 3, 5), float32] span=from_string:3:105 */, %x1: Tensor[(3, 3, 3), int32] /* ty=Tensor[(3, 3, 3), int32] span=from_string:20:116 */, %x2: Tensor[(3, 3, 5), float32] /* ty=Tensor[(3, 3, 5), float32] span=from_string:5:106 */, %x3: Tensor[(5), float32] /* ty=Tensor[(5), float32] span=from_string:17:95 */, %x4: Tensor[(5), float32] /* ty=Tensor[(5), float32] span=from_string:14:95 */, %x5: Tensor[(5), float32] /* ty=Tensor[(5), float32] span=from_string:16:120 */, %x6: Tensor[(5), float32] /* ty=Tensor[(5), float32] */, %x7: Tensor[(10), int32] /* ty=Tensor[(10), int32] span=from_string:19:105 */, %x8: int32 /* ty=int32 span=from_string:20:121 */, %x9: int32 /* ty=int32 span=from_string:20:126 */) -> (Tensor[(3, 3, 5), int32], Tensor[(3, 3, 5), float32], Tensor[(3, 3, 5), float16], Tensor[(3, 3, 5), float16], Tensor[(3, 3, 5), float32], int32, Tensor[(5), int32], Tensor[(6, 3, 3, 3), float32]) {
  %0 = fn (%p0: Tensor[(3, 3, 5), float32] /* ty=Tensor[(3, 3, 5), float32] */, Primitive=1) -> Tensor[(3, 3, 5), float16] {
    cast(%p0, dtype="float16") /* ty=Tensor[(3, 3, 5), float16] span=from_string:3:100 */
  } /* ty=fn (Tensor[(3, 3, 5), float32]) -> Tensor[(3, 3, 5), float16] */;
  let %x_0: Tensor[(3, 3, 5), float16] /* ty=Tensor[(3, 3, 5), float16] span=from_string:6:110 */ = %0(%x0) /* ty=Tensor[(3, 3, 5), float16] */;
  %1 = fn (%p01: Tensor[(3, 3, 5), float16] /* ty=Tensor[(3, 3, 5), float16] */, %p1: Tensor[(3, 3, 3), int32] /* ty=Tensor[(3, 3, 3), int32] */, Primitive=1) -> Tensor[(3, 3, 5), int32] {
    cast_like(%p01, %p1) /* ty=Tensor[(3, 3, 5), int32] span=from_string:4:99 */
  } /* ty=fn (Tensor[(3, 3, 5), float16], Tensor[(3, 3, 3), int32]) -> Tensor[(3, 3, 5), int32] */;
  let %x_1: Tensor[(3, 3, 5), int32] /* ty=Tensor[(3, 3, 5), int32] span=from_string:21:448 */ = %1(%x_0, %x1) /* ty=Tensor[(3, 3, 5), int32] */;
  %2 = fn (%p02: Tensor[(3, 3, 5), float32] /* ty=Tensor[(3, 3, 5), float32] */, Primitive=1) -> Tensor[(3, 3, 5), float16] {
    cast(%p02, dtype="float16") /* ty=Tensor[(3, 3, 5), float16] span=from_string:5:101 */
  } /* ty=fn (Tensor[(3, 3, 5), float32]) -> Tensor[(3, 3, 5), float16] */;
  let %x_2: Tensor[(3, 3, 5), float16] /* ty=Tensor[(3, 3, 5), float16] span=from_string:11:118 */ = %2(%x2) /* ty=Tensor[(3, 3, 5), float16] */;
  %3 = fn (%p03: Tensor[(3, 3, 5), float16] /* ty=Tensor[(3, 3, 5), float16] */, %p11: Tensor[(3, 3, 5), float16] /* ty=Tensor[(3, 3, 5), float16] */, Primitive=1) -> Tensor[(3, 3, 5), float16] {
    subtract(%p03, %p11) /* ty=Tensor[(3, 3, 5), float16] span=from_string:6:101 */
  } /* ty=fn (Tensor[(3, 3, 5), float16], Tensor[(3, 3, 5), float16]) -> Tensor[(3, 3, 5), float16] */;
  let %x_3: Tensor[(3, 3, 5), float16] /* ty=Tensor[(3, 3, 5), float16] span=from_string:11:112 */ = %3(%x_0, %x_2) /* ty=Tensor[(3, 3, 5), float16] */;
  %4 = fn (%p04: Tensor[(3, 3, 5), float16] /* ty=Tensor[(3, 3, 5), float16] */, %p12: float16 /* ty=float16 */, Primitive=1) -> Tensor[(3, 3, 5), float16] {
    add(%p04, %p12) /* ty=Tensor[(3, 3, 5), float16] span=from_string:7:101 */
  } /* ty=fn (Tensor[(3, 3, 5), float16], float16) -> Tensor[(3, 3, 5), float16] */;
  let %x_6: Tensor[(3, 3, 5), float16] /* ty=Tensor[(3, 3, 5), float16] span=from_string:18:108 */ = %4(%x_3, 1f16 /* ty=float16 span=from_string:7:115 */) /* ty=Tensor[(3, 3, 5), float16] */;
  %5 = fn (%p05: Tensor[(3, 3, 5), float16] /* ty=Tensor[(3, 3, 5), float16] */, Primitive=1) -> Tensor[(3, 3, 5), float32] {
    cast(%p05, dtype="float32") /* ty=Tensor[(3, 3, 5), float32] span=from_string:8:101 */
  } /* ty=fn (Tensor[(3, 3, 5), float16]) -> Tensor[(3, 3, 5), float32] */;
  let %x_7: Tensor[(3, 3, 5), float32] /* ty=Tensor[(3, 3, 5), float32] span=from_string:9:105 */ = %5(%x_6) /* ty=Tensor[(3, 3, 5), float32] */;
  %6 = fn (%p06: Tensor[(3, 3, 5), float32] /* ty=Tensor[(3, 3, 5), float32] */, Primitive=1) -> Tensor[(3, 3, 5), float32] {
    exp(%p06) /* ty=Tensor[(3, 3, 5), float32] span=from_string:9:101 */
  } /* ty=fn (Tensor[(3, 3, 5), float32]) -> Tensor[(3, 3, 5), float32] */;
  let %x_8: Tensor[(3, 3, 5), float32] /* ty=Tensor[(3, 3, 5), float32] span=from_string:16:125 */ = %6(%x_7) /* ty=Tensor[(3, 3, 5), float32] */;
  %7 = fn (%p07: Tensor[(3, 3, 5), float32] /* ty=Tensor[(3, 3, 5), float32] */, Primitive=1, relay.reshape_only=1) -> Tensor[(3, 3, 5), float32] {
    squeeze(%p07) /* ty=Tensor[(3, 3, 5), float32] span=from_string:10:101 */
  } /* ty=fn (Tensor[(3, 3, 5), float32]) -> Tensor[(3, 3, 5), float32] */;
  let %x_9: Tensor[(3, 3, 5), float32] /* ty=Tensor[(3, 3, 5), float32] span=from_string:21:454 */ = %7(%x_8) /* ty=Tensor[(3, 3, 5), float32] */;
  %8 = fn (%p08: Tensor[(3, 3, 5), float16] /* ty=Tensor[(3, 3, 5), float16] */, %p13: Tensor[(3, 3, 5), float16] /* ty=Tensor[(3, 3, 5), float16] */, Primitive=1) -> Tensor[(3, 3, 5), float16] {
    multiply(%p08, %p13) /* ty=Tensor[(3, 3, 5), float16] span=from_string:11:103 */
  } /* ty=fn (Tensor[(3, 3, 5), float16], Tensor[(3, 3, 5), float16]) -> Tensor[(3, 3, 5), float16] */;
  let %x_10: Tensor[(3, 3, 5), float16] /* ty=Tensor[(3, 3, 5), float16] span=from_string:13:106 */ = %8(%x_3, %x_2) /* ty=Tensor[(3, 3, 5), float16] */;
  %9 = fn (%p09: Tensor[(3, 3, 5), float16] /* ty=Tensor[(3, 3, 5), float16] */, Primitive=1) -> Tensor[(3, 3, 5), float16] {
    zeros_like(%p09) /* ty=Tensor[(3, 3, 5), float16] span=from_string:12:102 */
  } /* ty=fn (Tensor[(3, 3, 5), float16]) -> Tensor[(3, 3, 5), float16] */;
  let %x_11: Tensor[(3, 3, 5), float16] /* ty=Tensor[(3, 3, 5), float16] span=from_string:15:127 */ = %9(%x_10) /* ty=Tensor[(3, 3, 5), float16] */;
  %10 = fn (%p010: Tensor[(3, 3, 5), float16] /* ty=Tensor[(3, 3, 5), float16] */, %p14: Tensor[(3, 3, 5), float16] /* ty=Tensor[(3, 3, 5), float16] */, Primitive=1) -> Tensor[(3, 3, 5), float16] {
    add(%p010, %p14) /* ty=Tensor[(3, 3, 5), float16] span=from_string:13:102 */
  } /* ty=fn (Tensor[(3, 3, 5), float16], Tensor[(3, 3, 5), float16]) -> Tensor[(3, 3, 5), float16] */;
  let %x_12: Tensor[(3, 3, 5), float16] /* ty=Tensor[(3, 3, 5), float16] span=from_string:21:460 */ = %10(%x_10, %x_11) /* ty=Tensor[(3, 3, 5), float16] */;
  %11 = fn (%p011: Tensor[(5), float32] /* ty=Tensor[(5), float32] */, Primitive=1) -> Tensor[(5), float16] {
    cast(%p011, dtype="float16") /* ty=Tensor[(5), float16] span=from_string:14:90 */
  } /* ty=fn (Tensor[(5), float32]) -> Tensor[(5), float16] */;
  let %x_13: Tensor[(5), float16] /* ty=Tensor[(5), float16] span=from_string:15:120 */ = %11(%x4) /* ty=Tensor[(5), float16] */;
  %12 = fn (%p012: Tensor[(5), float16] /* ty=Tensor[(5), float16] */, %p15: Tensor[(3, 3, 5), float16] /* ty=Tensor[(3, 3, 5), float16] */, Primitive=1) -> Tensor[(3, 3, 5), float16] {
    broadcast_to_like(%p012, %p15) /* ty=Tensor[(3, 3, 5), float16] span=from_string:15:102 */
  } /* ty=fn (Tensor[(5), float16], Tensor[(3, 3, 5), float16]) -> Tensor[(3, 3, 5), float16] */;
  let %x_14: Tensor[(3, 3, 5), float16] /* ty=Tensor[(3, 3, 5), float16] span=from_string:21:467 */ = %12(%x_13, %x_11) /* ty=Tensor[(3, 3, 5), float16] */;
  %13 = fn (%p013: Tensor[(5), float32] /* ty=Tensor[(5), float32] */, %p16: Tensor[(3, 3, 5), float32] /* ty=Tensor[(3, 3, 5), float32] */, Primitive=1) -> Tensor[(3, 3, 5), float32] {
    broadcast_to_like(%p013, %p16) /* ty=Tensor[(3, 3, 5), float32] span=from_string:16:102 */
  } /* ty=fn (Tensor[(5), float32], Tensor[(3, 3, 5), float32]) -> Tensor[(3, 3, 5), float32] */;
  let %x_15: Tensor[(3, 3, 5), float32] /* ty=Tensor[(3, 3, 5), float32] span=from_string:21:474 */ = %13(%x5, %x_8) /* ty=Tensor[(3, 3, 5), float32] */;
  %14 = fn (%p014: Tensor[(5), float32] /* ty=Tensor[(5), float32] */, Primitive=1) -> Tensor[(5), float16] {
    cast(%p014, dtype="float16") /* ty=Tensor[(5), float16] span=from_string:17:90 */
  } /* ty=fn (Tensor[(5), float32]) -> Tensor[(5), float16] */;
  let %x_17: Tensor[(5), float16] /* ty=Tensor[(5), float16] span=from_string:18:114 */ = %14(%x3) /* ty=Tensor[(5), float16] */;
  %15 = fn (%p015: Tensor[(3, 3, 5), float16] /* ty=Tensor[(3, 3, 5), float16] */, %p17: Tensor[(5), float16] /* ty=Tensor[(5), float16] */, Primitive=1) -> Tensor[(5), float16] {
    collapse_sum_like(%p015, %p17) /* ty=Tensor[(5), float16] span=from_string:18:90 */
  } /* ty=fn (Tensor[(3, 3, 5), float16], Tensor[(5), float16]) -> Tensor[(5), float16] */;
  let %x_18: Tensor[(5), float16] /* ty=Tensor[(5), float16] span=from_string:19:98 */ = %15(%x_6, %x_17) /* ty=Tensor[(5), float16] */;
  %16 = fn (%p016: Tensor[(5), float16] /* ty=Tensor[(5), float16] */, %p18: Tensor[(10), int32] /* ty=Tensor[(10), int32] */, Primitive=1) -> Tensor[(5), int32] {
    cast_like(%p016, %p18) /* ty=Tensor[(5), int32] span=from_string:19:88 */
  } /* ty=fn (Tensor[(5), float16], Tensor[(10), int32]) -> Tensor[(5), int32] */;
  let %x_19: Tensor[(5), int32] /* ty=Tensor[(5), int32] span=from_string:21:522 */ = %16(%x_18, %x7) /* ty=Tensor[(5), int32] */;
  %17 = fn (%p017: Tensor[(3, 3, 3), int32] /* ty=Tensor[(3, 3, 3), int32] */, %p19: int32 /* ty=int32 */, %p2: int32 /* ty=int32 */, Primitive=1) -> Tensor[(6, 3, 3, 3), float32] {
    one_hot(%p017, %p19, %p2, depth=6, axis=0, dtype="float32") /* ty=Tensor[(6, 3, 3, 3), float32] span=from_string:20:108 */
  } /* ty=fn (Tensor[(3, 3, 3), int32], int32, int32) -> Tensor[(6, 3, 3, 3), float32] */;
  let %x_20: Tensor[(6, 3, 3, 3), float32] /* ty=Tensor[(6, 3, 3, 3), float32] span=from_string:21:529 */ = %17(%x1, %x8, %x9) /* ty=Tensor[(6, 3, 3, 3), float32] */;
  let %x_21: (Tensor[(3, 3, 5), int32], Tensor[(3, 3, 5), float32], Tensor[(3, 3, 5), float16], Tensor[(3, 3, 5), float16], Tensor[(3, 3, 5), float32], int32, Tensor[(5), int32], Tensor[(6, 3, 3, 3), float32]) /* ty=(Tensor[(3, 3, 5), int32], Tensor[(3, 3, 5), float32], Tensor[(3, 3, 5), float16], Tensor[(3, 3, 5), float16], Tensor[(3, 3, 5), float32], int32, Tensor[(5), int32], Tensor[(6, 3, 3, 3), float32]) span=from_string:22:3 */ = (%x_1, %x_9, %x_12, %x_14, %x_15, 5 /* ty=int32 span=from_string:21:482 */, %x_19, %x_20) /* ty=(Tensor[(3, 3, 5), int32], Tensor[(3, 3, 5), float32], Tensor[(3, 3, 5), float16], Tensor[(3, 3, 5), float16], Tensor[(3, 3, 5), float32], int32, Tensor[(5), int32], Tensor[(6, 3, 3, 3), float32]) span=from_string:21:447 */;
  %x_21
}
