#[version = "0.0.5"]
def @main(%x0: Tensor[(3, 3, 5), float32] /* ty=Tensor[(3, 3, 5), float32] span=from_string:3:13 */, %x1: Tensor[(3, 3, 3), int32] /* ty=Tensor[(3, 3, 3), int32] span=from_string:21:17 */, %x2: Tensor[(3, 3, 5), float32] /* ty=Tensor[(3, 3, 5), float32] span=from_string:4:13 */, %x3: Tensor[(5), float32] /* ty=Tensor[(5), float32] span=from_string:13:14 */, %x4: Tensor[(5), float32] /* ty=Tensor[(5), float32] span=from_string:12:13 */, %x5: Tensor[(5), float32] /* ty=Tensor[(5), float32] span=from_string:19:27 */, %x6: Tensor[(5), float32] /* ty=Tensor[(5), float32] */, %x7: Tensor[(10), int32] /* ty=Tensor[(10), int32] span=from_string:20:24 */, %x8: int32 /* ty=int32 span=from_string:21:22 */, %x9: int32 /* ty=int32 span=from_string:21:27 */) -> (Tensor[(3, 3, 5), int32], Tensor[(3, 3, 5), float32], Tensor[(3, 3, 5), float16], Tensor[(3, 3, 5), float16], Tensor[(3, 3, 5), float32], int32, Tensor[(5), int32], Tensor[(6, 3, 3, 3), float32]) {
  %0 = cast(%x0, dtype="float16") /* ty=Tensor[(3, 3, 5), float16] span=from_string:15:19 */;
  %1 = cast(%x2, dtype="float16") /* ty=Tensor[(3, 3, 5), float16] span=from_string:10:22 */;
  %2 = subtract(%0, %1) /* ty=Tensor[(3, 3, 5), float16] span=from_string:10:18 */;
  %3 = add(%2, 1f16 /* ty=float16 */) /* ty=Tensor[(3, 3, 5), float16] span=from_string:14:27 */;
  %4 = cast(%3, dtype="float32") /* ty=Tensor[(3, 3, 5), float32] span=from_string:9:12 */;
  %5 = exp(%4) /* ty=Tensor[(3, 3, 5), float32] span=from_string:19:32 */;
  %6 = multiply(%2, %1) /* ty=Tensor[(3, 3, 5), float16] span=from_string:17:13 */;
  %7 = zeros_like(%6) /* ty=Tensor[(3, 3, 5), float16] span=from_string:18:31 */;
  %8 = cast(%x4, dtype="float16") /* ty=Tensor[(5), float16] span=from_string:18:27 */;
  %9 = cast(%x3, dtype="float16") /* ty=Tensor[(5), float16] span=from_string:14:31 */;
  %10 = collapse_sum_like(%3, %9) /* ty=Tensor[(5), float16] span=from_string:20:19 */;
  %11 = cast_like(%0, %x1) /* ty=Tensor[(3, 3, 5), int32] span=from_string:22:4 */;
  %12 = squeeze(%5) /* ty=Tensor[(3, 3, 5), float32] span=from_string:22:9 */;
  %13 = add(%6, %7) /* ty=Tensor[(3, 3, 5), float16] span=from_string:22:14 */;
  %14 = broadcast_to_like(%8, %7) /* ty=Tensor[(3, 3, 5), float16] span=from_string:22:19 */;
  %15 = broadcast_to_like(%x5, %5) /* ty=Tensor[(3, 3, 5), float32] span=from_string:22:24 */;
  %16 = cast_like(%10, %x7) /* ty=Tensor[(5), int32] span=from_string:22:70 */;
  %17 = one_hot(%x1, %x8, %x9, depth=6, axis=0, dtype="float32") /* ty=Tensor[(6, 3, 3, 3), float32] span=from_string:22:75 */;
  (%11, %12, %13, %14, %15, 5 /* ty=int32 span=from_string:22:30 */, %16, %17) /* ty=(Tensor[(3, 3, 5), int32], Tensor[(3, 3, 5), float32], Tensor[(3, 3, 5), float16], Tensor[(3, 3, 5), float16], Tensor[(3, 3, 5), float32], int32, Tensor[(5), int32], Tensor[(6, 3, 3, 3), float32]) span=from_string:3:3 */
}
