#[version = "0.0.5"]
def @main(%x0: Tensor[(3, 3, 5), float32] /* ty=Tensor[(3, 3, 5), float32] span=from_string:3:13 */, %x1: Tensor[(3, 3, 3), int32] /* ty=Tensor[(3, 3, 3), int32] span=from_string:29:116 */, %x2: Tensor[(3, 3, 5), float32] /* ty=Tensor[(3, 3, 5), float32] span=from_string:6:13 */, %x3: Tensor[(5), float32] /* ty=Tensor[(5), float32] span=from_string:25:13 */, %x4: Tensor[(5), float32] /* ty=Tensor[(5), float32] span=from_string:19:13 */, %x5: Tensor[(5), float32] /* ty=Tensor[(5), float32] span=from_string:22:13 */, %x6: Tensor[(5), float32] /* ty=Tensor[(5), float32] */, %x7: Tensor[(10), int32] /* ty=Tensor[(10), int32] span=from_string:28:105 */, %x8: int32 /* ty=int32 span=from_string:29:121 */, %x9: int32 /* ty=int32 span=from_string:29:126 */) -> (Tensor[(3, 3, 5), int32], Tensor[(3, 3, 5), float16], Tensor[(3, 3, 5), float16], Tensor[(3, 3, 5), float16], Tensor[(3, 3, 5), float16], int32, Tensor[(5), int32], Tensor[(6, 3, 3, 3), float32]) {
  %0 = cast(%x0, dtype="float16") /* ty=Tensor[(3, 3, 5), float16] span=from_string:4:105 */;
  let %x_0: Tensor[(3, 3, 5), float16] /* ty=Tensor[(3, 3, 5), float16] span=from_string:8:110 */ = cast(%0, dtype="float16") /* ty=Tensor[(3, 3, 5), float16] span=from_string:4:100 */;
  let %x_1: Tensor[(3, 3, 5), int32] /* ty=Tensor[(3, 3, 5), int32] span=from_string:30:448 */ = cast_like(%x_0, %x1) /* ty=Tensor[(3, 3, 5), int32] span=from_string:5:99 */;
  %1 = cast(%x2, dtype="float16") /* ty=Tensor[(3, 3, 5), float16] span=from_string:7:106 */;
  let %x_2: Tensor[(3, 3, 5), float16] /* ty=Tensor[(3, 3, 5), float16] span=from_string:16:118 */ = cast(%1, dtype="float16") /* ty=Tensor[(3, 3, 5), float16] span=from_string:7:101 */;
  let %x_3: Tensor[(3, 3, 5), float16] /* ty=Tensor[(3, 3, 5), float16] span=from_string:16:112 */ = subtract(%x_0, %x_2) /* ty=Tensor[(3, 3, 5), float16] span=from_string:8:101 */;
  let %x_9: Tensor[(3, 3, 5), float16] /* ty=Tensor[(3, 3, 5), float16] span=from_string:27:108 */ = add(%x_3, 1f16 /* ty=float16 span=from_string:10:66 */) /* ty=Tensor[(3, 3, 5), float16] span=from_string:11:101 */;
  let %x_10: Tensor[(3, 3, 5), float32] /* ty=Tensor[(3, 3, 5), float32] span=from_string:13:106 */ = cast(%x_9, dtype="float32") /* ty=Tensor[(3, 3, 5), float32] span=from_string:12:102 */;
  let %x_11: Tensor[(3, 3, 5), float32] /* ty=Tensor[(3, 3, 5), float32] span=from_string:14:13 */ = exp(%x_10) /* ty=Tensor[(3, 3, 5), float32] span=from_string:13:102 */;
  %2 = cast(%x_11, dtype="float16") /* ty=Tensor[(3, 3, 5), float16] span=from_string:23:124 */;
  let %x_12: Tensor[(3, 3, 5), float16] /* ty=Tensor[(3, 3, 5), float16] span=from_string:30:454 */ = squeeze(%2) /* ty=Tensor[(3, 3, 5), float16] span=from_string:15:102 */;
  let %x_13: Tensor[(3, 3, 5), float16] /* ty=Tensor[(3, 3, 5), float16] span=from_string:18:106 */ = multiply(%x_3, %x_2) /* ty=Tensor[(3, 3, 5), float16] span=from_string:16:103 */;
  let %x_14: Tensor[(3, 3, 5), float16] /* ty=Tensor[(3, 3, 5), float16] span=from_string:21:127 */ = zeros_like(%x_13) /* ty=Tensor[(3, 3, 5), float16] span=from_string:17:102 */;
  let %x_15: Tensor[(3, 3, 5), float16] /* ty=Tensor[(3, 3, 5), float16] span=from_string:30:461 */ = add(%x_13, %x_14) /* ty=Tensor[(3, 3, 5), float16] span=from_string:18:102 */;
  %3 = cast(%x4, dtype="float16") /* ty=Tensor[(5), float16] span=from_string:20:95 */;
  let %x_16: Tensor[(5), float16] /* ty=Tensor[(5), float16] span=from_string:21:120 */ = cast(%3, dtype="float16") /* ty=Tensor[(5), float16] span=from_string:20:90 */;
  let %x_17: Tensor[(3, 3, 5), float16] /* ty=Tensor[(3, 3, 5), float16] span=from_string:30:468 */ = broadcast_to_like(%x_16, %x_14) /* ty=Tensor[(3, 3, 5), float16] span=from_string:21:102 */;
  %4 = cast(%x5, dtype="float16") /* ty=Tensor[(5), float16] span=from_string:23:120 */;
  let %x_18: Tensor[(3, 3, 5), float16] /* ty=Tensor[(3, 3, 5), float16] span=from_string:30:475 */ = broadcast_to_like(%4, %2) /* ty=Tensor[(3, 3, 5), float16] span=from_string:23:102 */;
  %5 = cast(%x3, dtype="float16") /* ty=Tensor[(5), float16] span=from_string:26:95 */;
  let %x_20: Tensor[(5), float16] /* ty=Tensor[(5), float16] span=from_string:27:114 */ = cast(%5, dtype="float16") /* ty=Tensor[(5), float16] span=from_string:26:90 */;
  let %x_21: Tensor[(5), float16] /* ty=Tensor[(5), float16] span=from_string:28:98 */ = collapse_sum_like(%x_9, %x_20) /* ty=Tensor[(5), float16] span=from_string:27:90 */;
  let %x_22: Tensor[(5), int32] /* ty=Tensor[(5), int32] span=from_string:30:489 */ = cast_like(%x_21, %x7) /* ty=Tensor[(5), int32] span=from_string:28:88 */;
  let %x_23: Tensor[(6, 3, 3, 3), float32] /* ty=Tensor[(6, 3, 3, 3), float32] span=from_string:30:496 */ = one_hot(%x1, %x8, %x9, depth=6, axis=0, dtype="float32") /* ty=Tensor[(6, 3, 3, 3), float32] span=from_string:29:108 */;
  let %x_24: (Tensor[(3, 3, 5), int32], Tensor[(3, 3, 5), float16], Tensor[(3, 3, 5), float16], Tensor[(3, 3, 5), float16], Tensor[(3, 3, 5), float16], int32, Tensor[(5), int32], Tensor[(6, 3, 3, 3), float32]) /* ty=(Tensor[(3, 3, 5), int32], Tensor[(3, 3, 5), float16], Tensor[(3, 3, 5), float16], Tensor[(3, 3, 5), float16], Tensor[(3, 3, 5), float16], int32, Tensor[(5), int32], Tensor[(6, 3, 3, 3), float32]) span=from_string:31:3 */ = (%x_1, %x_12, %x_15, %x_17, %x_18, 5 /* ty=int32 span=from_string:24:63 */, %x_22, %x_23) /* ty=(Tensor[(3, 3, 5), int32], Tensor[(3, 3, 5), float16], Tensor[(3, 3, 5), float16], Tensor[(3, 3, 5), float16], Tensor[(3, 3, 5), float16], int32, Tensor[(5), int32], Tensor[(6, 3, 3, 3), float32]) span=from_string:30:447 */;
  %x_24
}
