#[version = "0.0.5"]
def @main(%x0: Tensor[(3, 3, 5), float32] /* ty=Tensor[(3, 3, 5), float32] span=from_string:6:105 */, %x1: Tensor[(3, 3, 3), int32] /* ty=Tensor[(3, 3, 3), int32] span=from_string:74:113 */, %x2: Tensor[(3, 3, 5), float32] /* ty=Tensor[(3, 3, 5), float32] span=from_string:14:105 */, %x3: Tensor[(5), float32] /* ty=Tensor[(5), float32] span=from_string:62:95 */, %x4: Tensor[(5), float32] /* ty=Tensor[(5), float32] span=from_string:50:95 */, %x5: Tensor[(5), float32] /* ty=Tensor[(5), float32] span=from_string:58:107 */, %x6: Tensor[(5), float32] /* ty=Tensor[(5), float32] */, %x7: Tensor[(10), int32] /* ty=Tensor[(10), int32] span=from_string:70:100 */, %x8: int32 /* ty=int32 span=from_string:74:118 */, %x9: int32 /* ty=int32 span=from_string:74:123 */) -> (Tensor[(3, 3, 5), int32], Tensor[(3, 3, 5), float32], Tensor[(3, 3, 5), float16], Tensor[(3, 3, 5), float16], Tensor[(3, 3, 5), float32], int32, Tensor[(5), int32], Tensor[(6, 3, 3, 3), float32]) {
  %0 = fn (%p0: Tensor[(3, 3, 5), float32] /* ty=Tensor[(3, 3, 5), float32] span=from_string:4:10 */, Primitive=1) -> Tensor[(3, 3, 5), float16] {
    cast(%p0, dtype="float16") /* ty=Tensor[(3, 3, 5), float16] span=from_string:4:5 */
  } /* ty=fn (Tensor[(3, 3, 5), float32]) -> Tensor[(3, 3, 5), float16] span=from_string:6:102 */;
  let %x_0: Tensor[(3, 3, 5), float16] /* ty=Tensor[(3, 3, 5), float16] span=from_string:18:105 */ = %0(%x0) /* ty=Tensor[(3, 3, 5), float16] span=from_string:6:102 */;
  %1 = fn (%p01: Tensor[(3, 3, 5), float16] /* ty=Tensor[(3, 3, 5), float16] span=from_string:8:15 */, %p1: Tensor[(3, 3, 3), int32] /* ty=Tensor[(3, 3, 3), int32] span=from_string:8:21 */, Primitive=1) -> Tensor[(3, 3, 5), int32] {
    cast_like(%p01, %p1) /* ty=Tensor[(3, 3, 5), int32] span=from_string:8:5 */
  } /* ty=fn (Tensor[(3, 3, 5), float16], Tensor[(3, 3, 3), int32]) -> Tensor[(3, 3, 5), int32] span=from_string:10:100 */;
  let %x_1: Tensor[(3, 3, 5), int32] /* ty=Tensor[(3, 3, 5), int32] span=from_string:75:448 */ = %1(%x_0, %x1) /* ty=Tensor[(3, 3, 5), int32] span=from_string:10:100 */;
  %2 = fn (%p02: Tensor[(3, 3, 5), float32] /* ty=Tensor[(3, 3, 5), float32] span=from_string:12:10 */, Primitive=1) -> Tensor[(3, 3, 5), float16] {
    cast(%p02, dtype="float16") /* ty=Tensor[(3, 3, 5), float16] span=from_string:12:5 */
  } /* ty=fn (Tensor[(3, 3, 5), float32]) -> Tensor[(3, 3, 5), float16] span=from_string:14:102 */;
  let %x_2: Tensor[(3, 3, 5), float16] /* ty=Tensor[(3, 3, 5), float16] span=from_string:38:112 */ = %2(%x2) /* ty=Tensor[(3, 3, 5), float16] span=from_string:14:102 */;
  %3 = fn (%p03: Tensor[(3, 3, 5), float16] /* ty=Tensor[(3, 3, 5), float16] span=from_string:16:14 */, %p11: Tensor[(3, 3, 5), float16] /* ty=Tensor[(3, 3, 5), float16] span=from_string:16:20 */, Primitive=1) -> Tensor[(3, 3, 5), float16] {
    subtract(%p03, %p11) /* ty=Tensor[(3, 3, 5), float16] span=from_string:16:5 */
  } /* ty=fn (Tensor[(3, 3, 5), float16], Tensor[(3, 3, 5), float16]) -> Tensor[(3, 3, 5), float16] span=from_string:18:102 */;
  let %x_3: Tensor[(3, 3, 5), float16] /* ty=Tensor[(3, 3, 5), float16] span=from_string:38:106 */ = %3(%x_0, %x_2) /* ty=Tensor[(3, 3, 5), float16] span=from_string:18:102 */;
  %4 = fn (%p04: Tensor[(3, 3, 5), float16] /* ty=Tensor[(3, 3, 5), float16] span=from_string:20:9 */, %p12: float16 /* ty=float16 span=from_string:20:15 */, Primitive=1) -> Tensor[(3, 3, 5), float16] {
    add(%p04, %p12) /* ty=Tensor[(3, 3, 5), float16] span=from_string:20:5 */
  } /* ty=fn (Tensor[(3, 3, 5), float16], float16) -> Tensor[(3, 3, 5), float16] span=from_string:22:101 */;
  let %x_9: Tensor[(3, 3, 5), float16] /* ty=Tensor[(3, 3, 5), float16] span=from_string:66:94 */ = %4(%x_3, 1f16 /* ty=float16 span=from_string:22:114 */) /* ty=Tensor[(3, 3, 5), float16] span=from_string:22:101 */;
  %5 = fn (%p05: Tensor[(3, 3, 5), float16] /* ty=Tensor[(3, 3, 5), float16] span=from_string:24:10 */, Primitive=1) -> Tensor[(3, 3, 5), float32] {
    cast(%p05, dtype="float32") /* ty=Tensor[(3, 3, 5), float32] span=from_string:24:5 */
  } /* ty=fn (Tensor[(3, 3, 5), float16]) -> Tensor[(3, 3, 5), float32] span=from_string:26:103 */;
  let %x_10: Tensor[(3, 3, 5), float32] /* ty=Tensor[(3, 3, 5), float32] span=from_string:30:106 */ = %5(%x_9) /* ty=Tensor[(3, 3, 5), float32] span=from_string:26:103 */;
  %6 = fn (%p06: Tensor[(3, 3, 5), float32] /* ty=Tensor[(3, 3, 5), float32] span=from_string:28:9 */, Primitive=1) -> Tensor[(3, 3, 5), float32] {
    exp(%p06) /* ty=Tensor[(3, 3, 5), float32] span=from_string:28:5 */
  } /* ty=fn (Tensor[(3, 3, 5), float32]) -> Tensor[(3, 3, 5), float32] span=from_string:30:103 */;
  let %x_11: Tensor[(3, 3, 5), float32] /* ty=Tensor[(3, 3, 5), float32] span=from_string:58:112 */ = %6(%x_10) /* ty=Tensor[(3, 3, 5), float32] span=from_string:30:103 */;
  %7 = fn (%p07: Tensor[(3, 3, 5), float32] /* ty=Tensor[(3, 3, 5), float32] span=from_string:32:13 */, Primitive=1, relay.reshape_only=1) -> Tensor[(3, 3, 5), float32] {
    squeeze(%p07) /* ty=Tensor[(3, 3, 5), float32] span=from_string:32:5 */
  } /* ty=fn (Tensor[(3, 3, 5), float32]) -> Tensor[(3, 3, 5), float32] span=from_string:34:103 */;
  let %x_12: Tensor[(3, 3, 5), float32] /* ty=Tensor[(3, 3, 5), float32] span=from_string:75:454 */ = %7(%x_11) /* ty=Tensor[(3, 3, 5), float32] span=from_string:34:103 */;
  %8 = fn (%p08: Tensor[(3, 3, 5), float16] /* ty=Tensor[(3, 3, 5), float16] span=from_string:36:15 */, %p13: Tensor[(3, 3, 5), float16] /* ty=Tensor[(3, 3, 5), float16] span=from_string:36:21 */, Primitive=1) -> Tensor[(3, 3, 5), float16] {
    multiply(%p08, %p13) /* ty=Tensor[(3, 3, 5), float16] span=from_string:36:6 */
  } /* ty=fn (Tensor[(3, 3, 5), float16], Tensor[(3, 3, 5), float16]) -> Tensor[(3, 3, 5), float16] span=from_string:38:103 */;
  let %x_13: Tensor[(3, 3, 5), float16] /* ty=Tensor[(3, 3, 5), float16] span=from_string:46:107 */ = %8(%x_3, %x_2) /* ty=Tensor[(3, 3, 5), float16] span=from_string:38:103 */;
  %9 = fn (%p09: Tensor[(3, 3, 5), float16] /* ty=Tensor[(3, 3, 5), float16] span=from_string:40:16 */, Primitive=1) -> Tensor[(3, 3, 5), float16] {
    zeros_like(%p09) /* ty=Tensor[(3, 3, 5), float16] span=from_string:40:5 */
  } /* ty=fn (Tensor[(3, 3, 5), float16]) -> Tensor[(3, 3, 5), float16] span=from_string:42:103 */;
  let %x_14: Tensor[(3, 3, 5), float16] /* ty=Tensor[(3, 3, 5), float16] span=from_string:54:114 */ = %9(%x_13) /* ty=Tensor[(3, 3, 5), float16] span=from_string:42:103 */;
  %10 = fn (%p010: Tensor[(3, 3, 5), float16] /* ty=Tensor[(3, 3, 5), float16] span=from_string:44:9 */, %p14: Tensor[(3, 3, 5), float16] /* ty=Tensor[(3, 3, 5), float16] span=from_string:44:16 */, Primitive=1) -> Tensor[(3, 3, 5), float16] {
    add(%p010, %p14) /* ty=Tensor[(3, 3, 5), float16] span=from_string:44:5 */
  } /* ty=fn (Tensor[(3, 3, 5), float16], Tensor[(3, 3, 5), float16]) -> Tensor[(3, 3, 5), float16] span=from_string:46:103 */;
  let %x_15: Tensor[(3, 3, 5), float16] /* ty=Tensor[(3, 3, 5), float16] span=from_string:75:461 */ = %10(%x_13, %x_14) /* ty=Tensor[(3, 3, 5), float16] span=from_string:46:103 */;
  %11 = fn (%p011: Tensor[(5), float32] /* ty=Tensor[(5), float32] span=from_string:48:10 */, Primitive=1) -> Tensor[(5), float16] {
    cast(%p011, dtype="float16") /* ty=Tensor[(5), float16] span=from_string:48:5 */
  } /* ty=fn (Tensor[(5), float32]) -> Tensor[(5), float16] span=from_string:50:91 */;
  let %x_16: Tensor[(5), float16] /* ty=Tensor[(5), float16] span=from_string:54:107 */ = %11(%x4) /* ty=Tensor[(5), float16] span=from_string:50:91 */;
  %12 = fn (%p012: Tensor[(5), float16] /* ty=Tensor[(5), float16] span=from_string:52:23 */, %p15: Tensor[(3, 3, 5), float16] /* ty=Tensor[(3, 3, 5), float16] span=from_string:52:30 */, Primitive=1) -> Tensor[(3, 3, 5), float16] {
    broadcast_to_like(%p012, %p15) /* ty=Tensor[(3, 3, 5), float16] span=from_string:52:5 */
  } /* ty=fn (Tensor[(5), float16], Tensor[(3, 3, 5), float16]) -> Tensor[(3, 3, 5), float16] span=from_string:54:103 */;
  let %x_17: Tensor[(3, 3, 5), float16] /* ty=Tensor[(3, 3, 5), float16] span=from_string:75:468 */ = %12(%x_16, %x_14) /* ty=Tensor[(3, 3, 5), float16] span=from_string:54:103 */;
  %13 = fn (%p013: Tensor[(5), float32] /* ty=Tensor[(5), float32] span=from_string:56:23 */, %p16: Tensor[(3, 3, 5), float32] /* ty=Tensor[(3, 3, 5), float32] span=from_string:56:30 */, Primitive=1) -> Tensor[(3, 3, 5), float32] {
    broadcast_to_like(%p013, %p16) /* ty=Tensor[(3, 3, 5), float32] span=from_string:56:5 */
  } /* ty=fn (Tensor[(5), float32], Tensor[(3, 3, 5), float32]) -> Tensor[(3, 3, 5), float32] span=from_string:58:103 */;
  let %x_18: Tensor[(3, 3, 5), float32] /* ty=Tensor[(3, 3, 5), float32] span=from_string:75:475 */ = %13(%x5, %x_11) /* ty=Tensor[(3, 3, 5), float32] span=from_string:58:103 */;
  %14 = fn (%p014: Tensor[(5), float32] /* ty=Tensor[(5), float32] span=from_string:60:10 */, Primitive=1) -> Tensor[(5), float16] {
    cast(%p014, dtype="float16") /* ty=Tensor[(5), float16] span=from_string:60:5 */
  } /* ty=fn (Tensor[(5), float32]) -> Tensor[(5), float16] span=from_string:62:91 */;
  let %x_20: Tensor[(5), float16] /* ty=Tensor[(5), float16] span=from_string:66:100 */ = %14(%x3) /* ty=Tensor[(5), float16] span=from_string:62:91 */;
  %15 = fn (%p015: Tensor[(3, 3, 5), float16] /* ty=Tensor[(3, 3, 5), float16] span=from_string:64:23 */, %p17: Tensor[(5), float16] /* ty=Tensor[(5), float16] span=from_string:64:30 */, Primitive=1) -> Tensor[(5), float16] {
    collapse_sum_like(%p015, %p17) /* ty=Tensor[(5), float16] span=from_string:64:5 */
  } /* ty=fn (Tensor[(3, 3, 5), float16], Tensor[(5), float16]) -> Tensor[(5), float16] span=from_string:66:90 */;
  let %x_21: Tensor[(5), float16] /* ty=Tensor[(5), float16] span=from_string:70:93 */ = %15(%x_9, %x_20) /* ty=Tensor[(5), float16] span=from_string:66:90 */;
  %16 = fn (%p016: Tensor[(5), float16] /* ty=Tensor[(5), float16] span=from_string:68:15 */, %p18: Tensor[(10), int32] /* ty=Tensor[(10), int32] span=from_string:68:22 */, Primitive=1) -> Tensor[(5), int32] {
    cast_like(%p016, %p18) /* ty=Tensor[(5), int32] span=from_string:68:5 */
  } /* ty=fn (Tensor[(5), float16], Tensor[(10), int32]) -> Tensor[(5), int32] span=from_string:70:89 */;
  let %x_22: Tensor[(5), int32] /* ty=Tensor[(5), int32] span=from_string:75:523 */ = %16(%x_21, %x7) /* ty=Tensor[(5), int32] span=from_string:70:89 */;
  %17 = fn (%p017: Tensor[(3, 3, 3), int32] /* ty=Tensor[(3, 3, 3), int32] span=from_string:72:13 */, %p19: int32 /* ty=int32 span=from_string:72:20 */, %p2: int32 /* ty=int32 span=from_string:72:26 */, Primitive=1) -> Tensor[(6, 3, 3, 3), float32] {
    one_hot(%p017, %p19, %p2, depth=6, axis=0, dtype="float32") /* ty=Tensor[(6, 3, 3, 3), float32] span=from_string:72:5 */
  } /* ty=fn (Tensor[(3, 3, 3), int32], int32, int32) -> Tensor[(6, 3, 3, 3), float32] span=from_string:74:109 */;
  let %x_23: Tensor[(6, 3, 3, 3), float32] /* ty=Tensor[(6, 3, 3, 3), float32] span=from_string:75:530 */ = %17(%x1, %x8, %x9) /* ty=Tensor[(6, 3, 3, 3), float32] span=from_string:74:109 */;
  let %x_24: (Tensor[(3, 3, 5), int32], Tensor[(3, 3, 5), float32], Tensor[(3, 3, 5), float16], Tensor[(3, 3, 5), float16], Tensor[(3, 3, 5), float32], int32, Tensor[(5), int32], Tensor[(6, 3, 3, 3), float32]) /* ty=(Tensor[(3, 3, 5), int32], Tensor[(3, 3, 5), float32], Tensor[(3, 3, 5), float16], Tensor[(3, 3, 5), float16], Tensor[(3, 3, 5), float32], int32, Tensor[(5), int32], Tensor[(6, 3, 3, 3), float32]) span=from_string:76:3 */ = (%x_1, %x_12, %x_15, %x_17, %x_18, 5 /* ty=int32 span=from_string:75:483 */, %x_22, %x_23) /* ty=(Tensor[(3, 3, 5), int32], Tensor[(3, 3, 5), float32], Tensor[(3, 3, 5), float16], Tensor[(3, 3, 5), float16], Tensor[(3, 3, 5), float32], int32, Tensor[(5), int32], Tensor[(6, 3, 3, 3), float32]) span=from_string:75:447 */;
  %x_24
}
