#[version = "0.0.5"]
def @main(%x0: Tensor[(3, 3, 5), float32] /* ty=Tensor[(3, 3, 5), float32] span=from_string:3:13 */, %x1: Tensor[(3, 3, 3), int32] /* ty=Tensor[(3, 3, 3), int32] span=from_string:26:117 */, %x2: Tensor[(3, 3, 5), float32] /* ty=Tensor[(3, 3, 5), float32] span=from_string:6:13 */, %x3: Tensor[(5), float32] /* ty=Tensor[(5), float32] span=from_string:22:13 */, %x4: Tensor[(5), float32] /* ty=Tensor[(5), float32] span=from_string:17:13 */, %x5: Tensor[(5), float32] /* ty=Tensor[(5), float32] span=from_string:20:13 */, %x6: Tensor[(5), float32] /* ty=Tensor[(5), float32] */, %x7: Tensor[(10), int32] /* ty=Tensor[(10), int32] span=from_string:25:106 */, %x8: int32 /* ty=int32 span=from_string:26:122 */, %x9: int32 /* ty=int32 span=from_string:26:127 */) -> (Tensor[(3, 3, 5), int32], Tensor[(3, 3, 5), float16], Tensor[(3, 3, 5), float16], Tensor[(3, 3, 5), float16], Tensor[(3, 3, 5), float16], int32, Tensor[(5), int32], Tensor[(6, 3, 3, 3), float32]) {
  %0 = cast(%x0, dtype="float16") /* ty=Tensor[(3, 3, 5), float16] span=from_string:4:106 */;
  let %x_0: Tensor[(3, 3, 5), float16] /* ty=Tensor[(3, 3, 5), float16] span=from_string:8:111 */ = cast(%0, dtype="float16") /* ty=Tensor[(3, 3, 5), float16] span=from_string:4:101 */;
  let %x_1: Tensor[(3, 3, 5), int32] /* ty=Tensor[(3, 3, 5), int32] span=from_string:27:448 */ = cast_like(%x_0, %x1) /* ty=Tensor[(3, 3, 5), int32] span=from_string:5:100 */;
  %1 = cast(%x2, dtype="float16") /* ty=Tensor[(3, 3, 5), float16] span=from_string:7:107 */;
  let %x_2: Tensor[(3, 3, 5), float16] /* ty=Tensor[(3, 3, 5), float16] span=from_string:14:119 */ = cast(%1, dtype="float16") /* ty=Tensor[(3, 3, 5), float16] span=from_string:7:102 */;
  let %x_3: Tensor[(3, 3, 5), float16] /* ty=Tensor[(3, 3, 5), float16] span=from_string:14:113 */ = subtract(%x_0, %x_2) /* ty=Tensor[(3, 3, 5), float16] span=from_string:8:102 */;
  let %x_9: Tensor[(3, 3, 5), float16] /* ty=Tensor[(3, 3, 5), float16] span=from_string:24:108 */ = add(%x_3, 1f16 /* ty=float16 span=from_string:9:116 */) /* ty=Tensor[(3, 3, 5), float16] span=from_string:9:102 */;
  let %x_10: Tensor[(3, 3, 5), float32] /* ty=Tensor[(3, 3, 5), float32] span=from_string:11:106 */ = cast(%x_9, dtype="float32") /* ty=Tensor[(3, 3, 5), float32] span=from_string:10:103 */;
  let %x_11: Tensor[(3, 3, 5), float32] /* ty=Tensor[(3, 3, 5), float32] span=from_string:12:13 */ = exp(%x_10) /* ty=Tensor[(3, 3, 5), float32] span=from_string:11:102 */;
  %2 = cast(%x_11, dtype="float16") /* ty=Tensor[(3, 3, 5), float16] span=from_string:21:125 */;
  let %x_12: Tensor[(3, 3, 5), float16] /* ty=Tensor[(3, 3, 5), float16] span=from_string:27:454 */ = squeeze(%2) /* ty=Tensor[(3, 3, 5), float16] span=from_string:13:103 */;
  let %x_13: Tensor[(3, 3, 5), float16] /* ty=Tensor[(3, 3, 5), float16] span=from_string:16:107 */ = multiply(%x_3, %x_2) /* ty=Tensor[(3, 3, 5), float16] span=from_string:14:104 */;
  let %x_14: Tensor[(3, 3, 5), float16] /* ty=Tensor[(3, 3, 5), float16] span=from_string:19:128 */ = zeros_like(%x_13) /* ty=Tensor[(3, 3, 5), float16] span=from_string:15:103 */;
  let %x_15: Tensor[(3, 3, 5), float16] /* ty=Tensor[(3, 3, 5), float16] span=from_string:27:461 */ = add(%x_13, %x_14) /* ty=Tensor[(3, 3, 5), float16] span=from_string:16:103 */;
  %3 = cast(%x4, dtype="float16") /* ty=Tensor[(5), float16] span=from_string:18:96 */;
  let %x_16: Tensor[(5), float16] /* ty=Tensor[(5), float16] span=from_string:19:121 */ = cast(%3, dtype="float16") /* ty=Tensor[(5), float16] span=from_string:18:91 */;
  let %x_17: Tensor[(3, 3, 5), float16] /* ty=Tensor[(3, 3, 5), float16] span=from_string:27:468 */ = broadcast_to_like(%x_16, %x_14) /* ty=Tensor[(3, 3, 5), float16] span=from_string:19:103 */;
  %4 = cast(%x5, dtype="float16") /* ty=Tensor[(5), float16] span=from_string:21:121 */;
  let %x_18: Tensor[(3, 3, 5), float16] /* ty=Tensor[(3, 3, 5), float16] span=from_string:27:475 */ = broadcast_to_like(%4, %2) /* ty=Tensor[(3, 3, 5), float16] span=from_string:21:103 */;
  %5 = cast(%x3, dtype="float16") /* ty=Tensor[(5), float16] span=from_string:23:96 */;
  let %x_20: Tensor[(5), float16] /* ty=Tensor[(5), float16] span=from_string:24:114 */ = cast(%5, dtype="float16") /* ty=Tensor[(5), float16] span=from_string:23:91 */;
  let %x_21: Tensor[(5), float16] /* ty=Tensor[(5), float16] span=from_string:25:99 */ = collapse_sum_like(%x_9, %x_20) /* ty=Tensor[(5), float16] span=from_string:24:90 */;
  let %x_22: Tensor[(5), int32] /* ty=Tensor[(5), int32] span=from_string:27:523 */ = cast_like(%x_21, %x7) /* ty=Tensor[(5), int32] span=from_string:25:89 */;
  let %x_23: Tensor[(6, 3, 3, 3), float32] /* ty=Tensor[(6, 3, 3, 3), float32] span=from_string:27:530 */ = one_hot(%x1, %x8, %x9, depth=6, axis=0, dtype="float32") /* ty=Tensor[(6, 3, 3, 3), float32] span=from_string:26:109 */;
  let %x_24: (Tensor[(3, 3, 5), int32], Tensor[(3, 3, 5), float16], Tensor[(3, 3, 5), float16], Tensor[(3, 3, 5), float16], Tensor[(3, 3, 5), float16], int32, Tensor[(5), int32], Tensor[(6, 3, 3, 3), float32]) /* ty=(Tensor[(3, 3, 5), int32], Tensor[(3, 3, 5), float16], Tensor[(3, 3, 5), float16], Tensor[(3, 3, 5), float16], Tensor[(3, 3, 5), float16], int32, Tensor[(5), int32], Tensor[(6, 3, 3, 3), float32]) span=from_string:28:3 */ = (%x_1, %x_12, %x_15, %x_17, %x_18, 5 /* ty=int32 span=from_string:27:483 */, %x_22, %x_23) /* ty=(Tensor[(3, 3, 5), int32], Tensor[(3, 3, 5), float16], Tensor[(3, 3, 5), float16], Tensor[(3, 3, 5), float16], Tensor[(3, 3, 5), float16], int32, Tensor[(5), int32], Tensor[(6, 3, 3, 3), float32]) span=from_string:27:447 */;
  %x_24
}
