#[version = "0.0.5"]
def @main(%x0: Tensor[(3, 3, 5), float32] /* ty=Tensor[(3, 3, 5), float32] span=from_string:3:107 */, %x1: Tensor[(3, 3, 3), int32] /* ty=Tensor[(3, 3, 3), int32] span=from_string:23:117 */, %x2: Tensor[(3, 3, 5), float32] /* ty=Tensor[(3, 3, 5), float32] span=from_string:5:107 */, %x3: Tensor[(5), float32] /* ty=Tensor[(5), float32] span=from_string:20:96 */, %x4: Tensor[(5), float32] /* ty=Tensor[(5), float32] span=from_string:16:96 */, %x5: Tensor[(5), float32] /* ty=Tensor[(5), float32] span=from_string:18:121 */, %x6: Tensor[(5), float32] /* ty=Tensor[(5), float32] */, %x7: Tensor[(10), int32] /* ty=Tensor[(10), int32] span=from_string:22:106 */, %x8: int32 /* ty=int32 span=from_string:23:122 */, %x9: int32 /* ty=int32 span=from_string:23:127 */) -> (Tensor[(3, 3, 5), int32], Tensor[(3, 3, 5), float32], Tensor[(3, 3, 5), float16], Tensor[(3, 3, 5), float16], Tensor[(3, 3, 5), float32], int32, Tensor[(5), int32], Tensor[(6, 3, 3, 3), float32]) {
  let %x_0: Tensor[(3, 3, 5), float16] /* ty=Tensor[(3, 3, 5), float16] span=from_string:6:111 */ = cast(%x0, dtype="float16");
  let %x_1: Tensor[(3, 3, 5), int32] /* ty=Tensor[(3, 3, 5), int32] span=from_string:24:448 */ = cast_like(%x_0, %x1);
  let %x_2: Tensor[(3, 3, 5), float16] /* ty=Tensor[(3, 3, 5), float16] span=from_string:13:119 */ = cast(%x2, dtype="float16");
  let %x_3: Tensor[(3, 3, 5), float16] /* ty=Tensor[(3, 3, 5), float16] span=from_string:13:113 */ = subtract(%x_0, %x_2);
  let %x_4: float32 /* ty=float32 span=from_string:8:69 */ = 1f /* ty=float32 span=from_string:7:65 */;
  let %x_5: float16 /* ty=float16 span=from_string:9:111 */ = cast(%x_4, dtype="float16");
  let %x_6: Tensor[(3, 3, 5), float16] /* ty=Tensor[(3, 3, 5), float16] span=from_string:21:108 */ = add(%x_3, %x_5);
  let %x_7: Tensor[(3, 3, 5), float32] /* ty=Tensor[(3, 3, 5), float32] span=from_string:11:106 */ = cast(%x_6, dtype="float32");
  let %x_8: Tensor[(3, 3, 5), float32] /* ty=Tensor[(3, 3, 5), float32] span=from_string:18:126 */ = exp(%x_7);
  let %x_9: Tensor[(3, 3, 5), float32] /* ty=Tensor[(3, 3, 5), float32] span=from_string:24:454 */ = squeeze(%x_8);
  let %x_10: Tensor[(3, 3, 5), float16] /* ty=Tensor[(3, 3, 5), float16] span=from_string:15:107 */ = multiply(%x_3, %x_2);
  let %x_11: Tensor[(3, 3, 5), float16] /* ty=Tensor[(3, 3, 5), float16] span=from_string:17:128 */ = zeros_like(%x_10);
  let %x_12: Tensor[(3, 3, 5), float16] /* ty=Tensor[(3, 3, 5), float16] span=from_string:24:460 */ = add(%x_10, %x_11);
  let %x_13: Tensor[(5), float16] /* ty=Tensor[(5), float16] span=from_string:17:121 */ = cast(%x4, dtype="float16");
  let %x_14: Tensor[(3, 3, 5), float16] /* ty=Tensor[(3, 3, 5), float16] span=from_string:24:467 */ = broadcast_to_like(%x_13, %x_11);
  let %x_15: Tensor[(3, 3, 5), float32] /* ty=Tensor[(3, 3, 5), float32] span=from_string:24:474 */ = broadcast_to_like(%x5, %x_8);
  let %x_16: int32 /* ty=int32 span=from_string:24:481 */ = 5 /* ty=int32 span=from_string:19:64 */;
  let %x_17: Tensor[(5), float16] /* ty=Tensor[(5), float16] span=from_string:21:114 */ = cast(%x3, dtype="float16");
  let %x_18: Tensor[(5), float16] /* ty=Tensor[(5), float16] span=from_string:22:99 */ = collapse_sum_like(%x_6, %x_17);
  let %x_19: Tensor[(5), int32] /* ty=Tensor[(5), int32] span=from_string:24:488 */ = cast_like(%x_18, %x7);
  let %x_20: Tensor[(6, 3, 3, 3), float32] /* ty=Tensor[(6, 3, 3, 3), float32] span=from_string:24:495 */ = one_hot(%x1, %x8, %x9, depth=6, axis=0, dtype="float32");
  let %x_21: (Tensor[(3, 3, 5), int32], Tensor[(3, 3, 5), float32], Tensor[(3, 3, 5), float16], Tensor[(3, 3, 5), float16], Tensor[(3, 3, 5), float32], int32, Tensor[(5), int32], Tensor[(6, 3, 3, 3), float32]) /* ty=(Tensor[(3, 3, 5), int32], Tensor[(3, 3, 5), float32], Tensor[(3, 3, 5), float16], Tensor[(3, 3, 5), float16], Tensor[(3, 3, 5), float32], int32, Tensor[(5), int32], Tensor[(6, 3, 3, 3), float32]) span=from_string:25:3 */ = (%x_1, %x_9, %x_12, %x_14, %x_15, %x_16, %x_19, %x_20) /* ty=(Tensor[(3, 3, 5), int32], Tensor[(3, 3, 5), float32], Tensor[(3, 3, 5), float16], Tensor[(3, 3, 5), float16], Tensor[(3, 3, 5), float32], int32, Tensor[(5), int32], Tensor[(6, 3, 3, 3), float32]) span=from_string:24:447 */;
  let %x_01 = %x_21;
  let %x_110 = %x_01;
  let %x_22 = %x_110;
  let %x_31 = %x_22;
  let %x_41 = %x_31;
  let %x_51 = %x_41;
  let %x_61 = %x_51;
  let %x_71 = %x_61;
  let %x_81 = %x_71;
  let %x_91 = %x_81;
  let %x_101 = %x_91;
  let %x_111 = %x_101;
  let %x_121 = %x_111;
  let %x_131 = %x_121;
  let %x_141 = %x_131;
  let %x_151 = %x_141;
  let %x_161 = %x_151;
  let %x_171 = %x_161;
  let %x_181 = %x_171;
  let %x_191 = %x_181;
  let %x_201 = %x_191;
  let %x_211 = %x_201;
  %x_211
}
