#[version = "0.0.5"]
def @main(%x0: Tensor[(1, 3, 224, 224), int8] /* ty=Tensor[(1, 3, 224, 224), int8] span=from_string:16:24 */) -> (Tensor[(1, 3, 224, 112), float32], Tensor[(1, 112, 3, 224), float32], int32, Tensor[(1, 3, 4, 2), int8], Tensor[(1, 3, 224, 224), int32], Tensor[(1, 28, 3, 224, 4), float32], Tensor[(1, 6, 224, 112), float32]) {
  %0 = qnn.dequantize(%x0, 2f /* ty=float32 span=from_string:3:30 */, 0 /* ty=int32 span=from_string:3:72 */) /* ty=Tensor[(1, 3, 224, 224), float32] span=from_string:4:14 */;
  %1 = split(%0, indices_or_sections=2, axis=3) /* ty=(Tensor[(1, 3, 224, 112), float32], Tensor[(1, 3, 224, 112), float32]) span=from_string:5:8 */;
  %2 = %1.0 /* ty=Tensor[(1, 3, 224, 112), float32] span=from_string:9:21 */;
  %3 = transpose(%2, axes=[0, 3, 1, 2]) /* ty=Tensor[(1, 112, 3, 224), float32] span=from_string:24:13 */;
  %4 = layout_transform(%3, src_layout="NCHW", dst_layout="NCHW4c") /* ty=Tensor[(1, 28, 3, 224, 4), float32] span=from_string:27:17 */;
  %5 = nn.relu(%4) /* ty=Tensor[(1, 28, 3, 224, 4), float32] span=from_string:23:26 */;
  %6 = qnn.quantize(%2, 2f /* ty=float32 span=from_string:9:27 */, 0 /* ty=int32 span=from_string:9:70 */, out_dtype="int8") /* ty=Tensor[(1, 3, 224, 112), int8] span=from_string:10:23 */;
  %7 = qnn.dequantize(%6, 2f /* ty=float32 span=from_string:10:29 */, 0 /* ty=int32 span=from_string:10:72 */) /* ty=Tensor[(1, 3, 224, 112), float32] span=from_string:21:15 */;
  %8 = image.resize2d(%7, size=[4, 4], roi=[0f, 0f, 0f, 0f], rounding_method="") /* ty=Tensor[(1, 3, 4, 4), float32] span=from_string:12:21 */;
  %9 = qnn.quantize(%8, 2f /* ty=float32 span=from_string:12:27 */, 0 /* ty=int32 span=from_string:12:70 */, out_dtype="int8") /* ty=Tensor[(1, 3, 4, 4), int8] span=from_string:13:24 */;
  %10 = qnn.dequantize(%9, 2f /* ty=float32 span=from_string:13:30 */, 0 /* ty=int32 span=from_string:13:73 */) /* ty=Tensor[(1, 3, 4, 4), float32] span=from_string:14:15 */;
  %11 = split(%10, indices_or_sections=2, axis=3) /* ty=(Tensor[(1, 3, 4, 2), float32], Tensor[(1, 3, 4, 2), float32]) span=from_string:15:9 */;
  %12 = %11.0 /* ty=Tensor[(1, 3, 4, 2), float32] span=from_string:25:22 */;
  %13 = qnn.dequantize(%x0, 2f /* ty=float32 span=from_string:16:31 */, 0 /* ty=int32 span=from_string:16:74 */) /* ty=Tensor[(1, 3, 224, 224), float32] span=from_string:17:14 */;
  %14 = topk(%13, k=1, axis=0, ret_type="values", is_ascend=True, dtype="float32") /* ty=Tensor[(1, 3, 224, 224), float32] span=from_string:18:22 */;
  %15 = qnn.quantize(%14, 2f /* ty=float32 span=from_string:18:29 */, 0 /* ty=int32 span=from_string:18:72 */, out_dtype="int8") /* ty=Tensor[(1, 3, 224, 224), int8] span=from_string:26:17 */;
  %16 = nn.max_pool2d(%7, pool_size=[2, 2], strides=[2, 2], padding=[0, 0, 0, 0]) /* ty=Tensor[(1, 3, 112, 56), float32] span=from_string:20:23 */;
  %17 = nn.upsampling(%16, scale_h=2f, scale_w=2f) /* ty=Tensor[(1, 3, 224, 112), float32] span=from_string:21:10 */;
  %18 = (%17, %7) /* ty=(Tensor[(1, 3, 224, 112), float32], Tensor[(1, 3, 224, 112), float32]) span=from_string:22:21 */;
  %19 = concatenate(%18, axis=1) /* ty=Tensor[(1, 6, 224, 112), float32] */;
  %20 = annotation.stop_fusion(%19) /* ty=Tensor[(1, 6, 224, 112), float32] */;
  %21 = (%20,) /* ty=(Tensor[(1, 6, 224, 112), float32],) span=from_string:22:21 */;
  %22 = concatenate(%21, axis=1) /* ty=Tensor[(1, 6, 224, 112), float32] */;
  %23 = layout_transform(%5, src_layout="NCHW4c", dst_layout="NHWC") /* ty=Tensor[(1, 3, 224, 112), float32] span=from_string:29:4 */;
  %24 = exp(%3) /* ty=Tensor[(1, 112, 3, 224), float32] span=from_string:29:9 */;
  %25 = qnn.quantize(%12, 2f /* ty=float32 span=from_string:25:29 */, 0 /* ty=int32 span=from_string:25:72 */, out_dtype="int8") /* ty=Tensor[(1, 3, 4, 2), int8] span=from_string:29:55 */;
  %26 = argsort(%15, axis=1, dtype="int32") /* ty=Tensor[(1, 3, 224, 224), int32] span=from_string:29:60 */;
  %27 = nn.relu(%4) /* ty=Tensor[(1, 28, 3, 224, 4), float32] span=from_string:29:65 */;
  %28 = add(%22, 1f /* ty=float32 span=from_string:28:20 */) /* ty=Tensor[(1, 6, 224, 112), float32] span=from_string:29:70 */;
  (%23, %24, 2 /* ty=int32 span=from_string:29:15 */, %25, %26, %27, %28) /* ty=(Tensor[(1, 3, 224, 112), float32], Tensor[(1, 112, 3, 224), float32], int32, Tensor[(1, 3, 4, 2), int8], Tensor[(1, 3, 224, 224), int32], Tensor[(1, 28, 3, 224, 4), float32], Tensor[(1, 6, 224, 112), float32]) span=from_string:3:3 */
}
