#[version = "0.0.5"]
def @main(%x0: Tensor[(1, 3, 224, 224), int8] /* ty=Tensor[(1, 3, 224, 224), int8] span=from_string:3:23 */) -> (Tensor[(1, 3, 224, 112), float32], Tensor[(1, 112, 3, 224), float32], int32, Tensor[(1, 3, 4, 2), int8], Tensor[(1, 3, 224, 224), int32], Tensor[(1, 28, 3, 224, 4), float32], Tensor[(1, 6, 224, 112), float32]) {
  %0 = qnn.dequantize(%x0, 2f /* ty=float32 span=from_string:3:30 */, 0 /* ty=int32 span=from_string:3:72 */) /* ty=Tensor[(1, 3, 224, 224), float32] span=from_string:17:14 */;
  %1 = split(%0, indices_or_sections=2, axis=3) /* ty=(Tensor[(1, 3, 224, 112), float32], Tensor[(1, 3, 224, 112), float32]) span=from_string:5:8 */;
  %2 = %1.0 /* ty=Tensor[(1, 3, 224, 112), float32] span=from_string:10:21 */;
  %3 = transpose(%2, axes=[0, 3, 1, 2]) /* ty=Tensor[(1, 112, 3, 224), float32] span=from_string:30:13 */;
  %4 = layout_transform(%3, src_layout="NCHW", dst_layout="NCHW4c") /* ty=Tensor[(1, 28, 3, 224, 4), float32] span=from_string:20:26 */;
  %5 = nn.relu(%4) /* ty=Tensor[(1, 28, 3, 224, 4), float32] span=from_string:9:25 */;
  %6 = layout_transform(%5, src_layout="NCHW4c", dst_layout="NCHW") /* ty=Tensor[(1, 112, 3, 224), float32] span=from_string:29:19 */;
  %7 = split(%x0, indices_or_sections=2, axis=3) /* ty=(Tensor[(1, 3, 224, 112), int8], Tensor[(1, 3, 224, 112), int8]) span=from_string:5:8 */;
  %8 = %7.0 /* ty=Tensor[(1, 3, 224, 112), int8] span=from_string:10:21 */;
  %9 = image.resize2d(%8, size=[4, 4], roi=[0f, 0f, 0f, 0f], rounding_method="") /* ty=Tensor[(1, 3, 4, 4), int8] span=from_string:13:22 */;
  %10 = split(%9, indices_or_sections=2, axis=3) /* ty=(Tensor[(1, 3, 4, 2), int8], Tensor[(1, 3, 4, 2), int8]) span=from_string:16:9 */;
  %11 = topk(%x0, k=1, axis=0, ret_type="values", is_ascend=True, dtype="float32") /* ty=Tensor[(1, 3, 224, 224), int8] span=from_string:18:22 */;
  %12 = qnn.dequantize(%11, 2f /* ty=float32 span=from_string:19:31 */, 0 /* ty=int32 span=from_string:19:74 */) /* ty=Tensor[(1, 3, 224, 224), float32] span=from_string:32:17 */;
  %13 = layout_transform(%4, src_layout="NCHW4c", dst_layout="NCHW8c") /* ty=Tensor[(1, 14, 3, 224, 8), float32] span=from_string:21:26 */;
  %14 = layout_transform(%13, src_layout="NCHW8c", dst_layout="NCHW4c") /* ty=Tensor[(1, 28, 3, 224, 4), float32] span=from_string:33:17 */;
  %15 = qnn.dequantize(%8, 2f /* ty=float32 span=from_string:11:29 */, 0 /* ty=int32 span=from_string:11:72 */) /* ty=Tensor[(1, 3, 224, 112), float32] span=from_string:24:15 */;
  %16 = nn.max_pool2d(%15, pool_size=[2, 2], strides=[2, 2], padding=[0, 0, 0, 0]) /* ty=Tensor[(1, 3, 112, 56), float32] span=from_string:23:23 */;
  %17 = nn.upsampling(%16, scale_h=2f, scale_w=2f) /* ty=Tensor[(1, 3, 224, 112), float32] span=from_string:24:10 */;
  %18 = (%17, %15) /* ty=(Tensor[(1, 3, 224, 112), float32], Tensor[(1, 3, 224, 112), float32]) span=from_string:25:21 */;
  %19 = concatenate(%18, axis=1) /* ty=Tensor[(1, 6, 224, 112), float32] span=from_string:26:32 */;
  %20 = annotation.stop_fusion(%19) /* ty=Tensor[(1, 6, 224, 112), float32] span=from_string:27:10 */;
  %21 = (%20,) /* ty=(Tensor[(1, 6, 224, 112), float32],) span=from_string:28:21 */;
  %22 = concatenate(%21, axis=1) /* ty=Tensor[(1, 6, 224, 112), float32] span=from_string:34:13 */;
  %23 = transpose(%6, axes=[0, 2, 3, 1]) /* ty=Tensor[(1, 3, 224, 112), float32] span=from_string:35:4 */;
  %24 = exp(%3) /* ty=Tensor[(1, 112, 3, 224), float32] span=from_string:35:9 */;
  %25 = %10.0 /* ty=Tensor[(1, 3, 4, 2), int8] span=from_string:31:22 */;
  %26 = argsort(%12, axis=1, dtype="int32") /* ty=Tensor[(1, 3, 224, 224), int32] span=from_string:35:60 */;
  %27 = nn.relu(%14) /* ty=Tensor[(1, 28, 3, 224, 4), float32] span=from_string:35:65 */;
  %28 = add(%22, 1f /* ty=float32 span=from_string:34:20 */) /* ty=Tensor[(1, 6, 224, 112), float32] span=from_string:35:70 */;
  (%23, %24, 2 /* ty=int32 span=from_string:35:15 */, %25, %26, %27, %28) /* ty=(Tensor[(1, 3, 224, 112), float32], Tensor[(1, 112, 3, 224), float32], int32, Tensor[(1, 3, 4, 2), int8], Tensor[(1, 3, 224, 224), int32], Tensor[(1, 28, 3, 224, 4), float32], Tensor[(1, 6, 224, 112), float32]) span=from_string:3:3 */
}
