#[version = "0.0.5"]
def @main(%x0: Tensor[(1, 3, 224, 224), int8] /* ty=Tensor[(1, 3, 224, 224), int8] span=from_string:13:14 */) -> (Tensor[(1, 3, 224, 112), float32], Tensor[(1, 112, 3, 224), float32], int32, Tensor[(1, 3, 4, 2), int8], Tensor[(1, 3, 224, 224), int32], Tensor[(1, 28, 3, 224, 4), float32], Tensor[(1, 6, 224, 112), float32]) {
  %0 = qnn.dequantize(%x0, 2f /* ty=float32 span=from_string:3:30 */, 0 /* ty=int32 span=from_string:3:72 */) /* ty=Tensor[(1, 3, 224, 224), float32] span=from_string:4:14 */;
  %1 = split(%0, indices_or_sections=2, axis=3) /* ty=(Tensor[(1, 3, 224, 112), float32], Tensor[(1, 3, 224, 112), float32]) span=from_string:5:8 */;
  %2 = %1.0 /* ty=Tensor[(1, 3, 224, 112), float32] span=from_string:6:18 */;
  %3 = transpose(%2, axes=[0, 3, 1, 2]) /* ty=Tensor[(1, 112, 3, 224), float32] span=from_string:20:13 */;
  %4 = layout_transform(%3, src_layout="NCHW", dst_layout="NCHW4c") /* ty=Tensor[(1, 28, 3, 224, 4), float32] span=from_string:23:17 */;
  %5 = nn.relu(%4) /* ty=Tensor[(1, 28, 3, 224, 4), float32] span=from_string:19:26 */;
  %6 = split(%x0, indices_or_sections=2, axis=3) /* ty=(Tensor[(1, 3, 224, 112), int8], Tensor[(1, 3, 224, 112), int8]) span=from_string:10:8 */;
  %7 = %6.0 /* ty=Tensor[(1, 3, 224, 112), int8] span=from_string:14:24 */;
  %8 = image.resize2d(%7, size=[4, 4], roi=[0f, 0f, 0f, 0f], rounding_method="") /* ty=Tensor[(1, 3, 4, 4), int8] span=from_string:12:14 */;
  %9 = split(%8, indices_or_sections=2, axis=3) /* ty=(Tensor[(1, 3, 4, 2), int8], Tensor[(1, 3, 4, 2), int8]) span=from_string:21:9 */;
  %10 = topk(%x0, k=1, axis=0, ret_type="values", is_ascend=True, dtype="float32") /* ty=Tensor[(1, 3, 224, 224), int8] span=from_string:22:17 */;
  %11 = qnn.dequantize(%7, 2f /* ty=float32 span=from_string:14:30 */, 0 /* ty=int32 span=from_string:14:73 */) /* ty=Tensor[(1, 3, 224, 112), float32] span=from_string:17:15 */;
  %12 = nn.max_pool2d(%11, pool_size=[2, 2], strides=[2, 2], padding=[0, 0, 0, 0]) /* ty=Tensor[(1, 3, 112, 56), float32] span=from_string:16:23 */;
  %13 = nn.upsampling(%12, scale_h=2f, scale_w=2f) /* ty=Tensor[(1, 3, 224, 112), float32] span=from_string:17:10 */;
  %14 = (%13, %11) /* ty=(Tensor[(1, 3, 224, 112), float32], Tensor[(1, 3, 224, 112), float32]) span=from_string:18:21 */;
  %15 = concatenate(%14, axis=1) /* ty=Tensor[(1, 6, 224, 112), float32] span=from_string:24:13 */;
  %16 = layout_transform(%5, src_layout="NCHW4c", dst_layout="NHWC") /* ty=Tensor[(1, 3, 224, 112), float32] span=from_string:25:4 */;
  %17 = exp(%3) /* ty=Tensor[(1, 112, 3, 224), float32] span=from_string:25:9 */;
  %18 = %9.0 /* ty=Tensor[(1, 3, 4, 2), int8] span=from_string:25:55 */;
  %19 = argsort(%10, axis=1, dtype="int32") /* ty=Tensor[(1, 3, 224, 224), int32] span=from_string:25:60 */;
  %20 = add(%15, 1f /* ty=float32 span=from_string:24:20 */) /* ty=Tensor[(1, 6, 224, 112), float32] span=from_string:25:70 */;
  (%16, %17, 2 /* ty=int32 span=from_string:25:15 */, %18, %19, %5, %20) /* ty=(Tensor[(1, 3, 224, 112), float32], Tensor[(1, 112, 3, 224), float32], int32, Tensor[(1, 3, 4, 2), int8], Tensor[(1, 3, 224, 224), int32], Tensor[(1, 28, 3, 224, 4), float32], Tensor[(1, 6, 224, 112), float32]) span=from_string:3:3 */
}
