#[version = "0.0.5"]
def @main(%x0: Tensor[(1, 3, 224, 224), int8] /* ty=Tensor[(1, 3, 224, 224), int8] span=from_string:35:136 */) -> (Tensor[(1, 3, 224, 112), float32], Tensor[(1, 112, 3, 224), float32], int32, Tensor[(1, 3, 4, 2), int8], Tensor[(1, 3, 224, 224), int32], Tensor[(1, 28, 3, 224, 4), float32], Tensor[(1, 6, 224, 112), float32]) {
  let %x_0: float32 /* ty=float32 span=from_string:5:139 */ = 2f /* ty=float32 span=from_string:3:69 */;
  let %x_1: int32 /* ty=int32 span=from_string:5:145 */ = 0 /* ty=int32 span=from_string:4:66 */;
  let %x_2: Tensor[(1, 3, 224, 224), float32] /* ty=Tensor[(1, 3, 224, 224), float32] span=from_string:6:199 */ = qnn.dequantize(%x0, %x_0, %x_1) /* ty=Tensor[(1, 3, 224, 224), float32] span=from_string:5:119 */;
  let %x_3: (Tensor[(1, 3, 224, 112), float32], Tensor[(1, 3, 224, 112), float32]) /* ty=(Tensor[(1, 3, 224, 112), float32], Tensor[(1, 3, 224, 112), float32]) span=from_string:7:120 */ = split(%x_2, indices_or_sections=2, axis=3) /* ty=(Tensor[(1, 3, 224, 112), float32], Tensor[(1, 3, 224, 112), float32]) span=from_string:6:193 */;
  let %x_4: Tensor[(1, 3, 224, 112), float32] /* ty=Tensor[(1, 3, 224, 112), float32] span=from_string:17:130 */ = %x_3.0 /* ty=Tensor[(1, 3, 224, 112), float32] span=from_string:7:120 */;
  let %x_5: Tensor[(1, 112, 3, 224), float32] /* ty=Tensor[(1, 112, 3, 224), float32] span=from_string:13:125 */ = transpose(%x_4, axes=[0, 3, 1, 2]) /* ty=Tensor[(1, 112, 3, 224), float32] span=from_string:8:120 */;
  let %x_6: Tensor[(1, 28, 3, 224, 4), float32] /* ty=Tensor[(1, 28, 3, 224, 4), float32] span=from_string:44:142 */ = layout_transform(%x_5, src_layout="NCHW", dst_layout="NCHW4c") /* ty=Tensor[(1, 28, 3, 224, 4), float32] span=from_string:9:124 */;
  let %x_7: Tensor[(1, 28, 3, 224, 4), float32] /* ty=Tensor[(1, 28, 3, 224, 4), float32] span=from_string:11:137 */ = nn.relu(%x_6) /* ty=Tensor[(1, 28, 3, 224, 4), float32] span=from_string:10:124 */;
  let %x_8: Tensor[(1, 112, 3, 224), float32] /* ty=Tensor[(1, 112, 3, 224), float32] span=from_string:12:130 */ = layout_transform(%x_7, src_layout="NCHW4c", dst_layout="NCHW") /* ty=Tensor[(1, 112, 3, 224), float32] span=from_string:11:120 */;
  let %x_9: Tensor[(1, 3, 224, 112), float32] /* ty=Tensor[(1, 3, 224, 112), float32] span=from_string:56:480 */ = transpose(%x_8, axes=[0, 2, 3, 1]) /* ty=Tensor[(1, 3, 224, 112), float32] span=from_string:12:120 */;
  let %x_10: Tensor[(1, 112, 3, 224), float32] /* ty=Tensor[(1, 112, 3, 224), float32] span=from_string:56:486 */ = exp(%x_5) /* ty=Tensor[(1, 112, 3, 224), float32] span=from_string:13:121 */;
  let %x_11: int32 /* ty=int32 span=from_string:56:493 */ = 2 /* ty=int32 span=from_string:14:68 */;
  let %x_12: float32 /* ty=float32 span=from_string:17:136 */ = 2f /* ty=float32 span=from_string:15:71 */;
  let %x_13: int32 /* ty=int32 span=from_string:17:143 */ = 0 /* ty=int32 span=from_string:16:68 */;
  let %x_14: Tensor[(1, 3, 224, 112), int8] /* ty=Tensor[(1, 3, 224, 112), int8] span=from_string:20:136 */ = qnn.quantize(%x_4, %x_12, %x_13, out_dtype="int8") /* ty=Tensor[(1, 3, 224, 112), int8] span=from_string:17:117 */;
  let %x_15: float32 /* ty=float32 span=from_string:20:143 */ = 2f /* ty=float32 span=from_string:18:71 */;
  let %x_16: int32 /* ty=int32 span=from_string:20:150 */ = 0 /* ty=int32 span=from_string:19:68 */;
  let %x_17: Tensor[(1, 3, 224, 112), float32] /* ty=Tensor[(1, 3, 224, 112), float32] span=from_string:49:203 */ = qnn.dequantize(%x_14, %x_15, %x_16) /* ty=Tensor[(1, 3, 224, 112), float32] span=from_string:20:121 */;
  let %x_18: Tensor[(1, 3, 4, 4), float32] /* ty=Tensor[(1, 3, 4, 4), float32] span=from_string:24:122 */ = image.resize2d(%x_17, size=[4, 4], roi=[0f, 0f, 0f, 0f], rounding_method="") /* ty=Tensor[(1, 3, 4, 4), float32] span=from_string:21:114 */;
  let %x_19: float32 /* ty=float32 span=from_string:24:129 */ = 2f /* ty=float32 span=from_string:22:71 */;
  let %x_20: int32 /* ty=int32 span=from_string:24:136 */ = 0 /* ty=int32 span=from_string:23:68 */;
  let %x_21: Tensor[(1, 3, 4, 4), int8] /* ty=Tensor[(1, 3, 4, 4), int8] span=from_string:27:128 */ = qnn.quantize(%x_18, %x_19, %x_20, out_dtype="int8") /* ty=Tensor[(1, 3, 4, 4), int8] span=from_string:24:109 */;
  let %x_22: float32 /* ty=float32 span=from_string:27:135 */ = 2f /* ty=float32 span=from_string:25:71 */;
  let %x_23: int32 /* ty=int32 span=from_string:27:142 */ = 0 /* ty=int32 span=from_string:26:68 */;
  let %x_24: Tensor[(1, 3, 4, 4), float32] /* ty=Tensor[(1, 3, 4, 4), float32] span=from_string:28:185 */ = qnn.dequantize(%x_21, %x_22, %x_23) /* ty=Tensor[(1, 3, 4, 4), float32] span=from_string:27:113 */;
  let %x_25: (Tensor[(1, 3, 4, 2), float32], Tensor[(1, 3, 4, 2), float32]) /* ty=(Tensor[(1, 3, 4, 2), float32], Tensor[(1, 3, 4, 2), float32]) span=from_string:29:113 */ = split(%x_24, indices_or_sections=2, axis=3) /* ty=(Tensor[(1, 3, 4, 2), float32], Tensor[(1, 3, 4, 2), float32]) span=from_string:28:179 */;
  let %x_26: Tensor[(1, 3, 4, 2), float32] /* ty=Tensor[(1, 3, 4, 2), float32] span=from_string:32:122 */ = %x_25.0 /* ty=Tensor[(1, 3, 4, 2), float32] span=from_string:29:113 */;
  let %x_27: float32 /* ty=float32 span=from_string:32:129 */ = 2f /* ty=float32 span=from_string:30:71 */;
  let %x_28: int32 /* ty=int32 span=from_string:32:136 */ = 0 /* ty=int32 span=from_string:31:68 */;
  let %x_29: Tensor[(1, 3, 4, 2), int8] /* ty=Tensor[(1, 3, 4, 2), int8] span=from_string:56:500 */ = qnn.quantize(%x_26, %x_27, %x_28, out_dtype="int8") /* ty=Tensor[(1, 3, 4, 2), int8] span=from_string:32:109 */;
  let %x_30: float32 /* ty=float32 span=from_string:35:141 */ = 2f /* ty=float32 span=from_string:33:71 */;
  let %x_31: int32 /* ty=int32 span=from_string:35:148 */ = 0 /* ty=int32 span=from_string:34:68 */;
  let %x_32: Tensor[(1, 3, 224, 224), float32] /* ty=Tensor[(1, 3, 224, 224), float32] span=from_string:36:126 */ = qnn.dequantize(%x0, %x_30, %x_31) /* ty=Tensor[(1, 3, 224, 224), float32] span=from_string:35:121 */;
  let %x_33: Tensor[(1, 3, 224, 224), float32] /* ty=Tensor[(1, 3, 224, 224), float32] span=from_string:39:130 */ = topk(%x_32, k=1, axis=0, ret_type="values", is_ascend=True, dtype="float32") /* ty=Tensor[(1, 3, 224, 224), float32] span=from_string:36:121 */;
  let %x_34: float32 /* ty=float32 span=from_string:39:137 */ = 2f /* ty=float32 span=from_string:37:71 */;
  let %x_35: int32 /* ty=int32 span=from_string:39:144 */ = 0 /* ty=int32 span=from_string:38:68 */;
  let %x_36: Tensor[(1, 3, 224, 224), int8] /* ty=Tensor[(1, 3, 224, 224), int8] span=from_string:42:136 */ = qnn.quantize(%x_33, %x_34, %x_35, out_dtype="int8") /* ty=Tensor[(1, 3, 224, 224), int8] span=from_string:39:117 */;
  let %x_37: float32 /* ty=float32 span=from_string:42:143 */ = 2f /* ty=float32 span=from_string:40:71 */;
  let %x_38: int32 /* ty=int32 span=from_string:42:150 */ = 0 /* ty=int32 span=from_string:41:68 */;
  let %x_39: Tensor[(1, 3, 224, 224), float32] /* ty=Tensor[(1, 3, 224, 224), float32] span=from_string:43:127 */ = qnn.dequantize(%x_36, %x_37, %x_38) /* ty=Tensor[(1, 3, 224, 224), float32] span=from_string:42:121 */;
  let %x_40: Tensor[(1, 3, 224, 224), int32] /* ty=Tensor[(1, 3, 224, 224), int32] span=from_string:56:507 */ = argsort(%x_39, axis=1, dtype="int32") /* ty=Tensor[(1, 3, 224, 224), int32] span=from_string:43:119 */;
  let %x_41: Tensor[(1, 14, 3, 224, 8), float32] /* ty=Tensor[(1, 14, 3, 224, 8), float32] span=from_string:45:142 */ = layout_transform(%x_6, src_layout="NCHW4c", dst_layout="NCHW8c") /* ty=Tensor[(1, 14, 3, 224, 8), float32] span=from_string:44:125 */;
  let %x_42: Tensor[(1, 28, 3, 224, 4), float32] /* ty=Tensor[(1, 28, 3, 224, 4), float32] span=from_string:46:133 */ = layout_transform(%x_41, src_layout="NCHW8c", dst_layout="NCHW4c") /* ty=Tensor[(1, 28, 3, 224, 4), float32] span=from_string:45:125 */;
  let %x_43: Tensor[(1, 28, 3, 224, 4), float32] /* ty=Tensor[(1, 28, 3, 224, 4), float32] span=from_string:56:514 */ = nn.relu(%x_42) /* ty=Tensor[(1, 28, 3, 224, 4), float32] span=from_string:46:125 */;
  let %x_44: Tensor[(1, 3, 112, 56), float32] /* ty=Tensor[(1, 3, 112, 56), float32] span=from_string:48:135 */ = nn.max_pool2d(%x_17, pool_size=[2, 2], strides=[2, 2], padding=[0, 0, 0, 0]) /* ty=Tensor[(1, 3, 112, 56), float32] span=from_string:47:119 */;
  let %x_45: Tensor[(1, 3, 224, 112), float32] /* ty=Tensor[(1, 3, 224, 112), float32] span=from_string:49:196 */ = nn.upsampling(%x_44, scale_h=2f, scale_w=2f) /* ty=Tensor[(1, 3, 224, 112), float32] span=from_string:48:121 */;
  let %x_46: (Tensor[(1, 3, 224, 112), float32], Tensor[(1, 3, 224, 112), float32]) /* ty=(Tensor[(1, 3, 224, 112), float32], Tensor[(1, 3, 224, 112), float32]) span=from_string:50:133 */ = (%x_45, %x_17) /* ty=(Tensor[(1, 3, 224, 112), float32], Tensor[(1, 3, 224, 112), float32]) span=from_string:49:195 */;
  let %x_47: Tensor[(1, 6, 224, 112), float32] /* ty=Tensor[(1, 6, 224, 112), float32] span=from_string:51:144 */ = concatenate(%x_46, axis=1) /* ty=Tensor[(1, 6, 224, 112), float32] span=from_string:50:121 */;
  let %x_48: Tensor[(1, 6, 224, 112), float32] /* ty=Tensor[(1, 6, 224, 112), float32] span=from_string:52:128 */ = annotation.stop_fusion(%x_47) /* ty=Tensor[(1, 6, 224, 112), float32] span=from_string:51:121 */;
  let %x_49: (Tensor[(1, 6, 224, 112), float32],) /* ty=(Tensor[(1, 6, 224, 112), float32],) span=from_string:53:133 */ = (%x_48,) /* ty=(Tensor[(1, 6, 224, 112), float32],) span=from_string:52:127 */;
  let %x_50: Tensor[(1, 6, 224, 112), float32] /* ty=Tensor[(1, 6, 224, 112), float32] span=from_string:55:125 */ = concatenate(%x_49, axis=1) /* ty=Tensor[(1, 6, 224, 112), float32] span=from_string:53:121 */;
  let %x_51: float32 /* ty=float32 span=from_string:55:132 */ = 1f /* ty=float32 span=from_string:54:71 */;
  let %x_52: Tensor[(1, 6, 224, 112), float32] /* ty=Tensor[(1, 6, 224, 112), float32] span=from_string:56:521 */ = add(%x_50, %x_51) /* ty=Tensor[(1, 6, 224, 112), float32] span=from_string:55:121 */;
  let %x_53: (Tensor[(1, 3, 224, 112), float32], Tensor[(1, 112, 3, 224), float32], int32, Tensor[(1, 3, 4, 2), int8], Tensor[(1, 3, 224, 224), int32], Tensor[(1, 28, 3, 224, 4), float32], Tensor[(1, 6, 224, 112), float32]) /* ty=(Tensor[(1, 3, 224, 112), float32], Tensor[(1, 112, 3, 224), float32], int32, Tensor[(1, 3, 4, 2), int8], Tensor[(1, 3, 224, 224), int32], Tensor[(1, 28, 3, 224, 4), float32], Tensor[(1, 6, 224, 112), float32]) span=from_string:57:3 */ = (%x_9, %x_10, %x_11, %x_29, %x_40, %x_43, %x_52) /* ty=(Tensor[(1, 3, 224, 112), float32], Tensor[(1, 112, 3, 224), float32], int32, Tensor[(1, 3, 4, 2), int8], Tensor[(1, 3, 224, 224), int32], Tensor[(1, 28, 3, 224, 4), float32], Tensor[(1, 6, 224, 112), float32]) span=from_string:56:479 */;
  %x_53
}
