#[version = "0.0.5"]
def @main(%x0: Tensor[(1, 3, 224, 224), int8] /* ty=Tensor[(1, 3, 224, 224), int8] span=from_string:20:132 */) -> (Tensor[(1, 3, 224, 112), float32], Tensor[(1, 112, 3, 224), float32], int32, Tensor[(1, 3, 4, 2), int8], Tensor[(1, 3, 224, 224), int32], Tensor[(1, 28, 3, 224, 4), float32], Tensor[(1, 6, 224, 112), float32]) {
  let %x_2: Tensor[(1, 3, 224, 224), float32] /* ty=Tensor[(1, 3, 224, 224), float32] span=from_string:4:195 */ = qnn.dequantize(%x0, 2f /* ty=float32 span=from_string:3:137 */, 0 /* ty=int32 span=from_string:3:180 */) /* ty=Tensor[(1, 3, 224, 224), float32] span=from_string:3:115 */;
  let %x_3: (Tensor[(1, 3, 224, 112), float32], Tensor[(1, 3, 224, 112), float32]) /* ty=(Tensor[(1, 3, 224, 112), float32], Tensor[(1, 3, 224, 112), float32]) span=from_string:5:116 */ = split(%x_2, indices_or_sections=2, axis=3) /* ty=(Tensor[(1, 3, 224, 112), float32], Tensor[(1, 3, 224, 112), float32]) span=from_string:4:189 */;
  let %x_4: Tensor[(1, 3, 224, 112), float32] /* ty=Tensor[(1, 3, 224, 112), float32] span=from_string:12:126 */ = %x_3.0 /* ty=Tensor[(1, 3, 224, 112), float32] span=from_string:5:116 */;
  let %x_5: Tensor[(1, 112, 3, 224), float32] /* ty=Tensor[(1, 112, 3, 224), float32] span=from_string:11:121 */ = transpose(%x_4, axes=[0, 3, 1, 2]) /* ty=Tensor[(1, 112, 3, 224), float32] span=from_string:6:116 */;
  let %x_6: Tensor[(1, 28, 3, 224, 4), float32] /* ty=Tensor[(1, 28, 3, 224, 4), float32] span=from_string:25:138 */ = layout_transform(%x_5, src_layout="NCHW", dst_layout="NCHW4c") /* ty=Tensor[(1, 28, 3, 224, 4), float32] span=from_string:7:120 */;
  let %x_7: Tensor[(1, 28, 3, 224, 4), float32] /* ty=Tensor[(1, 28, 3, 224, 4), float32] span=from_string:9:133 */ = nn.relu(%x_6) /* ty=Tensor[(1, 28, 3, 224, 4), float32] span=from_string:8:119 */;
  let %x_8: Tensor[(1, 112, 3, 224), float32] /* ty=Tensor[(1, 112, 3, 224), float32] span=from_string:10:126 */ = layout_transform(%x_7, src_layout="NCHW4c", dst_layout="NCHW") /* ty=Tensor[(1, 112, 3, 224), float32] span=from_string:9:116 */;
  let %x_9: Tensor[(1, 3, 224, 112), float32] /* ty=Tensor[(1, 3, 224, 112), float32] span=from_string:36:476 */ = transpose(%x_8, axes=[0, 2, 3, 1]) /* ty=Tensor[(1, 3, 224, 112), float32] span=from_string:10:116 */;
  let %x_10: Tensor[(1, 112, 3, 224), float32] /* ty=Tensor[(1, 112, 3, 224), float32] span=from_string:36:482 */ = exp(%x_5) /* ty=Tensor[(1, 112, 3, 224), float32] span=from_string:11:117 */;
  let %x_14: Tensor[(1, 3, 224, 112), int8] /* ty=Tensor[(1, 3, 224, 112), int8] span=from_string:13:132 */ = qnn.quantize(%x_4, 2f /* ty=float32 span=from_string:12:134 */, 0 /* ty=int32 span=from_string:12:178 */, out_dtype="int8") /* ty=Tensor[(1, 3, 224, 112), int8] span=from_string:12:113 */;
  let %x_17: Tensor[(1, 3, 224, 112), float32] /* ty=Tensor[(1, 3, 224, 112), float32] span=from_string:30:199 */ = qnn.dequantize(%x_14, 2f /* ty=float32 span=from_string:13:141 */, 0 /* ty=int32 span=from_string:13:185 */) /* ty=Tensor[(1, 3, 224, 112), float32] span=from_string:13:117 */;
  let %x_18: Tensor[(1, 3, 4, 4), float32] /* ty=Tensor[(1, 3, 4, 4), float32] span=from_string:15:118 */ = image.resize2d(%x_17, size=[4, 4], roi=[0f, 0f, 0f, 0f], rounding_method="") /* ty=Tensor[(1, 3, 4, 4), float32] span=from_string:14:110 */;
  let %x_21: Tensor[(1, 3, 4, 4), int8] /* ty=Tensor[(1, 3, 4, 4), int8] span=from_string:16:124 */ = qnn.quantize(%x_18, 2f /* ty=float32 span=from_string:15:127 */, 0 /* ty=int32 span=from_string:15:171 */, out_dtype="int8") /* ty=Tensor[(1, 3, 4, 4), int8] span=from_string:15:105 */;
  let %x_24: Tensor[(1, 3, 4, 4), float32] /* ty=Tensor[(1, 3, 4, 4), float32] span=from_string:17:181 */ = qnn.dequantize(%x_21, 2f /* ty=float32 span=from_string:16:133 */, 0 /* ty=int32 span=from_string:16:177 */) /* ty=Tensor[(1, 3, 4, 4), float32] span=from_string:16:109 */;
  let %x_25: (Tensor[(1, 3, 4, 2), float32], Tensor[(1, 3, 4, 2), float32]) /* ty=(Tensor[(1, 3, 4, 2), float32], Tensor[(1, 3, 4, 2), float32]) span=from_string:18:109 */ = split(%x_24, indices_or_sections=2, axis=3) /* ty=(Tensor[(1, 3, 4, 2), float32], Tensor[(1, 3, 4, 2), float32]) span=from_string:17:175 */;
  let %x_26: Tensor[(1, 3, 4, 2), float32] /* ty=Tensor[(1, 3, 4, 2), float32] span=from_string:19:118 */ = %x_25.0 /* ty=Tensor[(1, 3, 4, 2), float32] span=from_string:18:109 */;
  let %x_29: Tensor[(1, 3, 4, 2), int8] /* ty=Tensor[(1, 3, 4, 2), int8] span=from_string:36:531 */ = qnn.quantize(%x_26, 2f /* ty=float32 span=from_string:19:127 */, 0 /* ty=int32 span=from_string:19:171 */, out_dtype="int8") /* ty=Tensor[(1, 3, 4, 2), int8] span=from_string:19:105 */;
  let %x_32: Tensor[(1, 3, 224, 224), float32] /* ty=Tensor[(1, 3, 224, 224), float32] span=from_string:21:122 */ = qnn.dequantize(%x0, 2f /* ty=float32 span=from_string:20:139 */, 0 /* ty=int32 span=from_string:20:183 */) /* ty=Tensor[(1, 3, 224, 224), float32] span=from_string:20:117 */;
  let %x_33: Tensor[(1, 3, 224, 224), float32] /* ty=Tensor[(1, 3, 224, 224), float32] span=from_string:22:126 */ = topk(%x_32, k=1, axis=0, ret_type="values", is_ascend=True, dtype="float32") /* ty=Tensor[(1, 3, 224, 224), float32] span=from_string:21:117 */;
  let %x_36: Tensor[(1, 3, 224, 224), int8] /* ty=Tensor[(1, 3, 224, 224), int8] span=from_string:23:132 */ = qnn.quantize(%x_33, 2f /* ty=float32 span=from_string:22:135 */, 0 /* ty=int32 span=from_string:22:179 */, out_dtype="int8") /* ty=Tensor[(1, 3, 224, 224), int8] span=from_string:22:113 */;
  let %x_39: Tensor[(1, 3, 224, 224), float32] /* ty=Tensor[(1, 3, 224, 224), float32] span=from_string:24:123 */ = qnn.dequantize(%x_36, 2f /* ty=float32 span=from_string:23:141 */, 0 /* ty=int32 span=from_string:23:185 */) /* ty=Tensor[(1, 3, 224, 224), float32] span=from_string:23:117 */;
  let %x_40: Tensor[(1, 3, 224, 224), int32] /* ty=Tensor[(1, 3, 224, 224), int32] span=from_string:36:538 */ = argsort(%x_39, axis=1, dtype="int32") /* ty=Tensor[(1, 3, 224, 224), int32] span=from_string:24:115 */;
  let %x_41: Tensor[(1, 14, 3, 224, 8), float32] /* ty=Tensor[(1, 14, 3, 224, 8), float32] span=from_string:26:138 */ = layout_transform(%x_6, src_layout="NCHW4c", dst_layout="NCHW8c") /* ty=Tensor[(1, 14, 3, 224, 8), float32] span=from_string:25:121 */;
  let %x_42: Tensor[(1, 28, 3, 224, 4), float32] /* ty=Tensor[(1, 28, 3, 224, 4), float32] span=from_string:27:129 */ = layout_transform(%x_41, src_layout="NCHW8c", dst_layout="NCHW4c") /* ty=Tensor[(1, 28, 3, 224, 4), float32] span=from_string:26:121 */;
  let %x_43: Tensor[(1, 28, 3, 224, 4), float32] /* ty=Tensor[(1, 28, 3, 224, 4), float32] span=from_string:36:545 */ = nn.relu(%x_42) /* ty=Tensor[(1, 28, 3, 224, 4), float32] span=from_string:27:121 */;
  let %x_44: Tensor[(1, 3, 112, 56), float32] /* ty=Tensor[(1, 3, 112, 56), float32] span=from_string:29:131 */ = nn.max_pool2d(%x_17, pool_size=[2, 2], strides=[2, 2], padding=[0, 0, 0, 0]) /* ty=Tensor[(1, 3, 112, 56), float32] span=from_string:28:115 */;
  let %x_45: Tensor[(1, 3, 224, 112), float32] /* ty=Tensor[(1, 3, 224, 112), float32] span=from_string:30:192 */ = nn.upsampling(%x_44, scale_h=2f, scale_w=2f) /* ty=Tensor[(1, 3, 224, 112), float32] span=from_string:29:117 */;
  let %x_46: (Tensor[(1, 3, 224, 112), float32], Tensor[(1, 3, 224, 112), float32]) /* ty=(Tensor[(1, 3, 224, 112), float32], Tensor[(1, 3, 224, 112), float32]) span=from_string:31:129 */ = (%x_45, %x_17) /* ty=(Tensor[(1, 3, 224, 112), float32], Tensor[(1, 3, 224, 112), float32]) span=from_string:30:191 */;
  let %x_47: Tensor[(1, 6, 224, 112), float32] /* ty=Tensor[(1, 6, 224, 112), float32] span=from_string:32:140 */ = concatenate(%x_46, axis=1) /* ty=Tensor[(1, 6, 224, 112), float32] span=from_string:31:117 */;
  let %x_48: Tensor[(1, 6, 224, 112), float32] /* ty=Tensor[(1, 6, 224, 112), float32] span=from_string:33:124 */ = annotation.stop_fusion(%x_47) /* ty=Tensor[(1, 6, 224, 112), float32] span=from_string:32:117 */;
  let %x_49: (Tensor[(1, 6, 224, 112), float32],) /* ty=(Tensor[(1, 6, 224, 112), float32],) span=from_string:34:129 */ = (%x_48,) /* ty=(Tensor[(1, 6, 224, 112), float32],) span=from_string:33:123 */;
  let %x_50: Tensor[(1, 6, 224, 112), float32] /* ty=Tensor[(1, 6, 224, 112), float32] span=from_string:35:121 */ = concatenate(%x_49, axis=1) /* ty=Tensor[(1, 6, 224, 112), float32] span=from_string:34:117 */;
  let %x_52: Tensor[(1, 6, 224, 112), float32] /* ty=Tensor[(1, 6, 224, 112), float32] span=from_string:36:552 */ = add(%x_50, 1f /* ty=float32 span=from_string:35:130 */) /* ty=Tensor[(1, 6, 224, 112), float32] span=from_string:35:117 */;
  let %x_53: (Tensor[(1, 3, 224, 112), float32], Tensor[(1, 112, 3, 224), float32], int32, Tensor[(1, 3, 4, 2), int8], Tensor[(1, 3, 224, 224), int32], Tensor[(1, 28, 3, 224, 4), float32], Tensor[(1, 6, 224, 112), float32]) /* ty=(Tensor[(1, 3, 224, 112), float32], Tensor[(1, 112, 3, 224), float32], int32, Tensor[(1, 3, 4, 2), int8], Tensor[(1, 3, 224, 224), int32], Tensor[(1, 28, 3, 224, 4), float32], Tensor[(1, 6, 224, 112), float32]) span=from_string:37:3 */ = (%x_9, %x_10, 2 /* ty=int32 span=from_string:36:490 */, %x_29, %x_40, %x_43, %x_52) /* ty=(Tensor[(1, 3, 224, 112), float32], Tensor[(1, 112, 3, 224), float32], int32, Tensor[(1, 3, 4, 2), int8], Tensor[(1, 3, 224, 224), int32], Tensor[(1, 28, 3, 224, 4), float32], Tensor[(1, 6, 224, 112), float32]) span=from_string:36:475 */;
  %x_53
}
