#[version = "0.0.5"]
def @main(%x0: Tensor[(1, 16, 16, 16), float32] /* ty=Tensor[(1, 16, 16, 16), float32] span=from_string:14:13 */, %x1: Tensor[(64, 16, 3, 3), float32] /* ty=Tensor[(64, 16, 3, 3), float32] span=from_string:4:13 */, %x2: Tensor[(64, 64, 3, 3), float32] /* ty=Tensor[(64, 64, 3, 3), float32] span=from_string:17:14 */, %x3: Tensor[(64, 16, 3, 3), float32] /* ty=Tensor[(64, 16, 3, 3), float32] span=from_string:34:14 */) -> (Tensor[(1, 64, 16, 16), float16], Tensor[(1, 16, 16, 64), float16], Tensor[(1, 16, 16, 16), float32], Tensor[(1, 64, 16, 16), float16], float32, Tensor[(64, 48, 16), float16], Tensor[(64, 64, 16, 1), float16]) {
  let %x_0 = zeros(shape=[1, 16, 16, 16], dtype="float16");
  let %x_1 = cast(%x1, dtype="float16");
  let %x_2 = nn.conv2d(%x_0, %x_1, padding=[1, 1, 1, 1], channels=64, kernel_size=[3, 3], out_dtype="float16");
  let %x_3 = nn.relu(%x_2);
  let %x_4 = 1f /* ty=float32 span=from_string:7:15 */;
  let %x_5 = cast(%x_4, dtype="float16");
  let %x_6 = add(%x_3, %x_5);
  let %x_7 = nn.relu(%x_2);
  let %x_8 = 1f /* ty=float32 span=from_string:9:15 */;
  let %x_9 = cast(%x_8, dtype="float16");
  let %x_10 = add(%x_7, %x_9);
  let %x_11 = add(%x_6, %x_10);
  let %x_12 = nn.relu(%x_3);
  let %x_13 = transpose(%x_12, axes=[1, 3, 2, 0]);
  let %x_14 = transpose(%x_13, axes=None);
  let %x_15 = exp(%x0);
  let %x_16 = cast(%x_0, dtype="float32");
  let %x_17 = add(%x_15, %x_16);
  let %x_18 = transpose(%x_17, axes=[0, 2, 3, 1]);
  let %x_19 = nn.relu(%x_2);
  let %x_20 = cast(%x2, dtype="float16");
  let %x_21 = 2f /* ty=float32 span=from_string:18:16 */;
  let %x_22 = cast(%x_21, dtype="float16");
  let %x_23 = multiply(%x_20, %x_22);
  let %x_24 = nn.conv2d(%x_19, %x_23, padding=[1, 1, 1, 1], channels=64, kernel_size=[3, 3], out_dtype="float16");
  let %x_25 = nn.relu(%x_24);
  let %x_26 = 0f /* ty=float32 span=from_string:44:26 */;
  let %x_27 = squeeze(%x_24);
  let %x_28 = 1f /* ty=float32 span=from_string:23:16 */;
  let %x_29 = cast(%x_28, dtype="float16");
  let %x_30 = add(%x_27, %x_29);
  let %x_31 = squeeze(%x_27);
  let %x_32 = 2f /* ty=float32 span=from_string:25:16 */;
  let %x_33 = cast(%x_32, dtype="float16");
  let %x_34 = add(%x_31, %x_33);
  let %x_35 = 1f /* ty=float32 span=from_string:26:16 */;
  let %x_36 = cast(%x_35, dtype="float16");
  let %x_37 = add(%x_27, %x_36);
  let %x_38 = (%x_30, %x_34, %x_37) /* ty=(Tensor[(64, 16, 16), float16], Tensor[(64, 16, 16), float16], Tensor[(64, 16, 16), float16]) span=from_string:31:21 */;
  let %x_39 = concatenate(%x_38, axis=1);
  let %x_40 = squeeze(%x_39);
  let %x_41 = 1f /* ty=float32 span=from_string:33:16 */;
  let %x_42 = cast(%x_41, dtype="float16");
  let %x_43 = add(%x_40, %x_42);
  let %x_44 = cast(%x3, dtype="float16");
  let %x_45 = 2f /* ty=float32 span=from_string:35:16 */;
  let %x_46 = cast(%x_45, dtype="float16");
  let %x_47 = multiply(%x_44, %x_46);
  let %x_48 = nn.conv2d(%x_13, %x_47, padding=[1, 1, 1, 1], channels=64, kernel_size=[3, 3], out_dtype="float16");
  let %x_49 = nn.relu(%x_48);
  let %x_50 = (%x_11, %x_14, %x_18, %x_25, %x_26, %x_43, %x_49) /* ty=(Tensor[(1, 64, 16, 16), float16], Tensor[(1, 16, 16, 64), float16], Tensor[(1, 16, 16, 16), float32], Tensor[(1, 64, 16, 16), float16], float32, Tensor[(64, 48, 16), float16], Tensor[(64, 64, 16, 1), float16]) span=from_string:3:3 */;
  %x_50
}
