#[version = "0.0.5"]
def @main(%x0: Tensor[(1, 16, 16, 16), float32] /* ty=Tensor[(1, 16, 16, 16), float32] span=from_string:3:13 */, %x1: Tensor[(64, 16, 3, 3), float32] /* ty=Tensor[(64, 16, 3, 3), float32] span=from_string:6:13 */, %x2: Tensor[(64, 64, 3, 3), float32] /* ty=Tensor[(64, 64, 3, 3), float32] span=from_string:22:14 */, %x3: Tensor[(64, 16, 3, 3), float32] /* ty=Tensor[(64, 16, 3, 3), float32] span=from_string:43:14 */) -> (Tensor[(1, 64, 16, 16), float16], Tensor[(1, 16, 16, 64), float16], Tensor[(1, 16, 16, 16), float16], Tensor[(1, 64, 16, 16), float16], float32, Tensor[(64, 48, 16), float16], Tensor[(64, 64, 16, 1), float16]) {
  %0 = cast(%x0, dtype="float16");
  %1 = fast_exp(%0);
  %2 = zeros_like(%1);
  %3 = cast(%x1, dtype="float16");
  %4 = nn.conv2d(%2, %3, padding=[1, 1, 1, 1], channels=64, kernel_size=[3, 3], out_dtype="float16");
  %5 = nn.relu(%4);
  %6 = cast(1f /* ty=float32 span=from_string:9:15 */, dtype="float16");
  %7 = nn.relu(%4);
  %8 = cast(1f /* ty=float32 span=from_string:11:15 */, dtype="float16");
  %9 = add(%5, %6);
  %10 = add(%7, %8);
  %11 = nn.relu(%5);
  %12 = transpose(%11, axes=None);
  %13 = transpose(%12, axes=None);
  %14 = transpose(%13, axes=[0, 2, -1, 1]);
  %15 = transpose(%14, axes=None);
  %16 = add(%1, %2);
  %17 = transpose(%16, axes=[0, 2, 3, 1]);
  %18 = layout_transform(%17, src_layout="NHWC", dst_layout="HWCN");
  %19 = cast(%x2, dtype="float16");
  %20 = cast(2f /* ty=float32 span=from_string:23:16 */, dtype="float16");
  %21 = nn.relu(%4);
  %22 = multiply(%19, %20);
  %23 = cast(0f /* ty=float32 span=from_string:26:16 */, dtype="float16");
  %24 = nn.conv2d(%21, %22, padding=[1, 1, 1, 1], channels=64, kernel_size=[3, 3], out_dtype="float16");
  %25 = add(%23, %24);
  %26 = squeeze(%25);
  %27 = cast(1f /* ty=float32 span=from_string:30:16 */, dtype="float16");
  %28 = squeeze(%26);
  %29 = cast(1f /* ty=float32 span=from_string:32:16 */, dtype="float16");
  %30 = add(%28, %29);
  %31 = cast(1f /* ty=float32 span=from_string:34:16 */, dtype="float16");
  %32 = cast(1f /* ty=float32 span=from_string:35:16 */, dtype="float16");
  %33 = add(%26, %27);
  %34 = add(%30, %31);
  %35 = add(%26, %32);
  %36 = (%33, %34, %35) /* ty=(Tensor[(64, 16, 16), float16], Tensor[(64, 16, 16), float16], Tensor[(64, 16, 16), float16]) span=from_string:40:21 */;
  %37 = concatenate(%36, axis=1);
  %38 = squeeze(%37);
  %39 = cast(1f /* ty=float32 span=from_string:42:16 */, dtype="float16");
  %40 = cast(%x3, dtype="float16");
  %41 = cast(2f /* ty=float32 span=from_string:44:16 */, dtype="float16");
  %42 = multiply(%40, %41);
  %43 = cast(0f /* ty=float32 span=from_string:46:16 */, dtype="float16");
  %44 = nn.conv2d(%15, %42, padding=[1, 1, 1, 1], channels=64, kernel_size=[3, 3], out_dtype="float16");
  %45 = add(%43, %44);
  %46 = add(%9, %10);
  %47 = transpose(%15, axes=None);
  %48 = transpose(%18, axes=[3, 0, 1, 2]);
  %49 = nn.relu(%25);
  %50 = add(%38, %39);
  %51 = nn.relu(%45);
  (%46, %47, %48, %49, 0f /* ty=float32 span=from_string:55:26 */, %50, %51) /* ty=(Tensor[(1, 64, 16, 16), float16], Tensor[(1, 16, 16, 64), float16], Tensor[(1, 16, 16, 16), float16], Tensor[(1, 64, 16, 16), float16], float32, Tensor[(64, 48, 16), float16], Tensor[(64, 64, 16, 1), float16]) span=from_string:3:3 */
}
