#[version = "0.0.5"]
def @main(%x0: Tensor[(1, 16, 16, 16), float32] /* ty=Tensor[(1, 16, 16, 16), float32] span=from_string:11:17 */, %x1: Tensor[(64, 16, 3, 3), float32] /* ty=Tensor[(64, 16, 3, 3), float32] span=from_string:4:22 */, %x2: Tensor[(64, 64, 3, 3), float32] /* ty=Tensor[(64, 64, 3, 3), float32] span=from_string:14:19 */, %x3: Tensor[(64, 16, 3, 3), float32] /* ty=Tensor[(64, 16, 3, 3), float32] span=from_string:24:19 */) -> (Tensor[(1, 64, 16, 16), float32], Tensor[(1, 16, 16, 64), float32], Tensor[(1, 16, 16, 16), float32], Tensor[(1, 64, 16, 16), float32], float32, Tensor[(64, 48, 16), float32], Tensor[(64, 64, 16, 1), float32]) {
  %0 = zeros(shape=[1, 16, 16, 16], dtype="float32");
  %1 = nn.conv2d(%0, %x1, padding=[1, 1, 1, 1], channels=64, kernel_size=[3, 3]);
  %2 = nn.relu(%1);
  %3 = nn.relu(%1);
  %4 = add(%2, 1f /* ty=float32 span=from_string:7:18 */);
  %5 = add(%3, 1f /* ty=float32 span=from_string:8:18 */);
  %6 = nn.relu(%2);
  %7 = transpose(%6, axes=[1, 3, 2, 0]);
  %8 = fast_exp(%x0);
  %9 = add(%8, %0);
  %10 = nn.relu(%1);
  %11 = multiply(%x2, 2f /* ty=float32 span=from_string:14:26 */);
  %12 = nn.conv2d(%10, %11, padding=[1, 1, 1, 1], channels=64, kernel_size=[3, 3]);
  %13 = squeeze(%12);
  %14 = squeeze(%13);
  %15 = add(%13, 1f /* ty=float32 span=from_string:18:20 */);
  %16 = add(%14, 2f /* ty=float32 span=from_string:19:20 */);
  %17 = add(%13, 1f /* ty=float32 span=from_string:20:20 */);
  %18 = (%15, %16, %17) /* ty=(Tensor[(64, 16, 16), float32], Tensor[(64, 16, 16), float32], Tensor[(64, 16, 16), float32]) span=from_string:22:21 */;
  %19 = concatenate(%18, axis=1);
  %20 = squeeze(%19);
  %21 = multiply(%x3, 2f /* ty=float32 span=from_string:24:26 */);
  %22 = nn.conv2d(%7, %21, padding=[1, 1, 1, 1], channels=64, kernel_size=[3, 3]);
  %23 = add(%4, %5);
  %24 = transpose(%7, axes=None);
  %25 = transpose(%9, axes=[0, 2, 3, 1]);
  %26 = nn.relu(%12);
  %27 = add(%20, 1f /* ty=float32 span=from_string:30:20 */);
  %28 = nn.relu(%22);
  (%23, %24, %25, %26, 0f /* ty=float32 span=from_string:32:26 */, %27, %28) /* ty=(Tensor[(1, 64, 16, 16), float32], Tensor[(1, 16, 16, 64), float32], Tensor[(1, 16, 16, 16), float32], Tensor[(1, 64, 16, 16), float32], float32, Tensor[(64, 48, 16), float32], Tensor[(64, 64, 16, 1), float32]) span=from_string:3:3 */
}
