#[version = "0.0.5"]
def @main(%x0: Tensor[(1), float32] /* ty=Tensor[(1), float32] span=GeneratedSource:4:13 */, %x1: float32 /* ty=float32 span=GeneratedSource:6:13 */) -> (Tensor[(1), float16], (float32, float32), float16, Tensor[(1), float16], Tensor[(1), int32], Tensor[(1), float16]) {
  %0 = cast(2f /* ty=float32 span=GeneratedSource:3:15 */, dtype="float16") /* ty=float16 span=GeneratedSource:7:17 */;
  %1 = cast(%x0, dtype="float16") /* ty=Tensor[(1), float16] span=GeneratedSource:5:95 */;
  let %x4: Tensor[(1), float16] /* ty=Tensor[(1), float16] span=GeneratedSource:9:12 */ = add(%0, %1) /* ty=Tensor[(1), float16] span=GeneratedSource:5:87 */;
  %2 = cast(%x1, dtype="float16") /* ty=float16 span=GeneratedSource:13:22 */;
  %3 = subtract(%0, %2) /* ty=float16 span=GeneratedSource:13:18 */;
  %4 = zeros_like(%x4) /* ty=Tensor[(1), float16] span=GeneratedSource:9:17 */;
  %5 = add(%x4, %4) /* ty=Tensor[(1), float16] span=GeneratedSource:15:13 */;
  %6 = zeros(shape=[1], dtype="float16") /* ty=Tensor[(1), float16] span=GeneratedSource:15:17 */;
  %7 = ones(shape=[1], dtype="float16") /* ty=Tensor[(1), float16] span=GeneratedSource:16:4 */;
  %8 = (2f /* ty=float32 span=GeneratedSource:12:11 */, 4f /* ty=float32 span=GeneratedSource:12:55 */) /* ty=(float32, float32) span=GeneratedSource:16:8 */;
  %9 = multiply(%3, %2) /* ty=float16 span=GeneratedSource:16:12 */;
  %10 = ones(shape=[1], dtype="float16") /* ty=Tensor[(1), float16] span=GeneratedSource:16:16 */;
  %11 = add(%5, %6) /* ty=Tensor[(1), float16] span=GeneratedSource:16:97 */;
  (%7, %8, %9, %10, meta[relay.Constant][0] /* ty=Tensor[(1), int32] span=GeneratedSource:16:26 */, %11) /* ty=(Tensor[(1), float16], (float32, float32), float16, Tensor[(1), float16], Tensor[(1), int32], Tensor[(1), float16]) span=GeneratedSource:16:3 */
}

#[metadata]
{
  "root": 1, 
  "nodes": [
    {
      "type_key": ""
    }, 
    {
      "type_key": "Map", 
      "keys": [
        "relay.Constant"
      ], 
      "data": [2]
    }, 
    {
      "type_key": "Array", 
      "data": [3]
    }, 
    {
      "type_key": "relay.Constant", 
      "attrs": {
        "_checked_type_": "8", 
        "data": "0", 
        "span": "6", 
        "virtual_device_": "4"
      }
    }, 
    {
      "type_key": "VirtualDevice", 
      "attrs": {
        "device_type_int": "-1", 
        "memory_scope": "5", 
        "target": "0", 
        "virtual_device_id": "-1"
      }
    }, 
    {
      "type_key": "runtime.String"
    }, 
    {
      "type_key": "Span", 
      "attrs": {
        "column": "26", 
        "end_column": "44", 
        "end_line": "16", 
        "line": "16", 
        "source_name": "7"
      }
    }, 
    {
      "type_key": "SourceName", 
      "repr_str": "GeneratedSource"
    }, 
    {
      "type_key": "relay.TensorType", 
      "attrs": {
        "dtype": "int32", 
        "shape": "9", 
        "span": "11"
      }
    }, 
    {
      "type_key": "Array", 
      "data": [10]
    }, 
    {
      "type_key": "IntImm", 
      "attrs": {
        "dtype": "int32", 
        "span": "0", 
        "value": "1"
      }
    }, 
    {
      "type_key": "Span", 
      "attrs": {
        "column": "221", 
        "end_column": "241", 
        "end_line": "2", 
        "line": "2", 
        "source_name": "7"
      }
    }
  ], 
  "b64ndarrays": [
    "P6G0lvBAXt0AAAAAAAAAAAEAAAAAAAAAAQAAAAAgAQABAAAAAAAAAAQAAAAAAAAAAQAAAA=="
  ], 
  "attrs": {"tvm_version": "0.13.0"}
}