#[version = "0.0.5"]
def @main(%x0: Tensor[(1), float32] /* ty=Tensor[(1), float32] span=from_string:14:20 */, %x1: float32 /* ty=float32 span=from_string:8:19 */) -> (Tensor[(1), float16], (float32, float32), float16, Tensor[(1), float16], Tensor[(1), int32], Tensor[(1), float16]) {
  %0 = cast(%x1, dtype="float16") /* ty=float16 span=from_string:8:14 */;
  %1 = subtract(2f16 /* ty=float16 span=from_string:7:18 */, %0) /* ty=float16 span=from_string:9:14 */;
  %2 = cast(%x0, dtype="float16") /* ty=Tensor[(1), float16] span=from_string:14:15 */;
  %3 = add(2f16 /* ty=float16 span=from_string:13:19 */, %2) /* ty=Tensor[(1), float16] span=from_string:15:15 */;
  %4 = cast(%3, dtype="float32") /* ty=Tensor[(1), float32] span=from_string:16:15 */;
  %5 = cast(%4, dtype="float16") /* ty=Tensor[(1), float16] span=from_string:17:15 */;
  %6 = zeros_like(%5) /* ty=Tensor[(1), float16] span=from_string:18:15 */;
  %7 = add(%5, %6) /* ty=Tensor[(1), float16] span=from_string:19:15 */;
  %8 = zeros(shape=[1], dtype="float16") /* ty=Tensor[(1), float16] span=from_string:20:15 */;
  %9 = ones(shape=[1], dtype="float16") /* ty=Tensor[(1), float16] span=from_string:3:14 */;
  %10 = (2f /* ty=float32 span=from_string:4:16 */, 4f /* ty=float32 span=from_string:5:16 */) /* ty=(float32, float32) span=from_string:6:14 */;
  %11 = multiply(%1, %0) /* ty=float16 span=from_string:10:15 */;
  %12 = ones(shape=[1], dtype="float16") /* ty=Tensor[(1), float16] span=from_string:11:14 */;
  %13 = add(%7, %8) /* ty=Tensor[(1), float16] span=from_string:21:15 */;
  (%9, %10, %11, %12, meta[relay.Constant][0] /* ty=Tensor[(1), int32] span=from_string:12:19 */, %13) /* ty=(Tensor[(1), float16], (float32, float32), float16, Tensor[(1), float16], Tensor[(1), int32], Tensor[(1), float16]) span=from_string:22:15 */
}

#[metadata]
{
  "root": 1, 
  "nodes": [
    {
      "type_key": ""
    }, 
    {
      "type_key": "Map", 
      "keys": [
        "relay.Constant"
      ], 
      "data": [2]
    }, 
    {
      "type_key": "Array", 
      "data": [3]
    }, 
    {
      "type_key": "relay.Constant", 
      "attrs": {
        "_checked_type_": "8", 
        "data": "0", 
        "span": "6", 
        "virtual_device_": "4"
      }
    }, 
    {
      "type_key": "VirtualDevice", 
      "attrs": {
        "device_type_int": "-1", 
        "memory_scope": "5", 
        "target": "0", 
        "virtual_device_id": "-1"
      }
    }, 
    {
      "type_key": "runtime.String"
    }, 
    {
      "type_key": "Span", 
      "attrs": {
        "column": "19", 
        "end_column": "37", 
        "end_line": "12", 
        "line": "12", 
        "source_name": "7"
      }
    }, 
    {
      "type_key": "SourceName", 
      "repr_str": "from_string"
    }, 
    {
      "type_key": "relay.TensorType", 
      "attrs": {
        "dtype": "int32", 
        "shape": "9", 
        "span": "0"
      }
    }, 
    {
      "type_key": "Array", 
      "data": [10]
    }, 
    {
      "type_key": "IntImm", 
      "attrs": {
        "dtype": "int32", 
        "span": "0", 
        "value": "1"
      }
    }
  ], 
  "b64ndarrays": [
    "P6G0lvBAXt0AAAAAAAAAAAEAAAAAAAAAAQAAAAAgAQABAAAAAAAAAAQAAAAAAAAAAQAAAA=="
  ], 
  "attrs": {"tvm_version": "0.13.0"}
}