#[version = "0.0.5"]
def @main(%x0: Tensor[(1), float32] /* ty=Tensor[(1), float32] span=from_string:19:13 */, %x1: float32 /* ty=float32 span=from_string:30:12 */) -> (Tensor[(1), float16], (float32, float32), float16, Tensor[(1), float16], Tensor[(1), int32], Tensor[(1), float16]) {
  %0 = fn (Primitive=1) -> Tensor[(1), float16] {
    ones(shape=[1], dtype="float16") /* ty=Tensor[(1), float16] span=from_string:4:5 */
  } /* ty=fn () -> Tensor[(1), float16] span=from_string:28:9 */;
  %4 = fn (%p01: float32 /* ty=float32 span=from_string:8:15 */, Primitive=1) -> float16 {
    %1 = cast(2f /* ty=float32 span=from_string:7:17 */, dtype="float16") /* ty=float16 span=from_string:17:9 */;
    %2 = cast(%p01, dtype="float16") /* ty=float16 span=from_string:10:19 */;
    %3 = subtract(%1, %2) /* ty=float16 span=from_string:10:15 */;
    multiply(%3, %2) /* ty=float16 span=from_string:7:5 */
  } /* ty=fn (float32) -> float16 span=from_string:30:9 */;
  %5 = fn (Primitive=1) -> Tensor[(1), float16] {
    ones(shape=[1], dtype="float16") /* ty=Tensor[(1), float16] span=from_string:13:5 */
  } /* ty=fn () -> Tensor[(1), float16] span=from_string:31:9 */;
  %7 = fn (%p0: Tensor[(1), float32] /* ty=Tensor[(1), float32] span=from_string:16:16 */, Primitive=1) -> Tensor[(1), float16] {
    %6 = cast(%p0, dtype="float16") /* ty=Tensor[(1), float16] span=from_string:17:13 */;
    add(%1, %6) /* ty=Tensor[(1), float16] span=from_string:16:5 */
  } /* ty=fn (Tensor[(1), float32]) -> Tensor[(1), float16] span=from_string:19:9 */;
  %8 = %7(%x0) /* ty=Tensor[(1), float16] span=from_string:20:14 */;
  %9 = cast(%8, dtype="float32") /* ty=Tensor[(1), float32] span=from_string:32:13 */;
  %10 = fn (%p02: Tensor[(1), float32] /* ty=Tensor[(1), float32] span=from_string:22:15 */, Primitive=1) -> Tensor[(1), float16] {
    cast(%p02, dtype="float16") /* ty=Tensor[(1), float16] span=from_string:24:14 */
  } /* ty=fn (Tensor[(1), float32]) -> Tensor[(1), float16] span=from_string:32:9 */;
  %11 = %0() /* ty=Tensor[(1), float16] span=from_string:33:4 */;
  %12 = (2f /* ty=float32 span=from_string:29:12 */, 4f /* ty=float32 span=from_string:29:56 */) /* ty=(float32, float32) span=from_string:33:9 */;
  %13 = %4(%x1) /* ty=float16 span=from_string:33:14 */;
  %14 = %5() /* ty=Tensor[(1), float16] span=from_string:33:19 */;
  %15 = %10(%9) /* ty=Tensor[(1), float16] span=from_string:33:100 */;
  (%11, %12, %13, %14, meta[relay.Constant][0] /* ty=Tensor[(1), int32] span=from_string:33:29 */, %15) /* ty=(Tensor[(1), float16], (float32, float32), float16, Tensor[(1), float16], Tensor[(1), int32], Tensor[(1), float16]) span=from_string:3:3 */
}

#[metadata]
{
  "root": 1, 
  "nodes": [
    {
      "type_key": ""
    }, 
    {
      "type_key": "Map", 
      "keys": [
        "relay.Constant"
      ], 
      "data": [2]
    }, 
    {
      "type_key": "Array", 
      "data": [3]
    }, 
    {
      "type_key": "relay.Constant", 
      "attrs": {
        "_checked_type_": "8", 
        "data": "0", 
        "span": "6", 
        "virtual_device_": "4"
      }
    }, 
    {
      "type_key": "VirtualDevice", 
      "attrs": {
        "device_type_int": "-1", 
        "memory_scope": "5", 
        "target": "0", 
        "virtual_device_id": "-1"
      }
    }, 
    {
      "type_key": "runtime.String"
    }, 
    {
      "type_key": "Span", 
      "attrs": {
        "column": "29", 
        "end_column": "47", 
        "end_line": "33", 
        "line": "33", 
        "source_name": "7"
      }
    }, 
    {
      "type_key": "SourceName", 
      "repr_str": "from_string"
    }, 
    {
      "type_key": "relay.TensorType", 
      "attrs": {
        "dtype": "int32", 
        "shape": "9", 
        "span": "11"
      }
    }, 
    {
      "type_key": "Array", 
      "data": [10]
    }, 
    {
      "type_key": "IntImm", 
      "attrs": {
        "dtype": "int32", 
        "span": "0", 
        "value": "1"
      }
    }, 
    {
      "type_key": "Span", 
      "attrs": {
        "column": "223", 
        "end_column": "243", 
        "end_line": "2", 
        "line": "2", 
        "source_name": "7"
      }
    }
  ], 
  "b64ndarrays": [
    "P6G0lvBAXt0AAAAAAAAAAAEAAAAAAAAAAQAAAAAgAQABAAAAAAAAAAQAAAAAAAAAAQAAAA=="
  ], 
  "attrs": {"tvm_version": "0.13.0"}
}