#[version = "0.0.5"]
def @main(%x0: Tensor[(1), float32] /* ty=Tensor[(1), float32] span=from_string:8:91 */, %x1: float32 /* ty=float32 span=from_string:31:12 */) -> (Tensor[(1), float16], (float32, float32), float16, Tensor[(1), float16], Tensor[(1), int32], Tensor[(1), float16]) {
  %2 = fn (%p0: Tensor[(1), float32] /* ty=Tensor[(1), float32] span=from_string:5:15 */, Primitive=1) -> Tensor[(1), float16] {
    %0 = cast(2f /* ty=float32 span=from_string:4:17 */, dtype="float16") /* ty=float16 span=from_string:6:9 */;
    %1 = cast(%p0, dtype="float16") /* ty=Tensor[(1), float16] span=from_string:6:13 */;
    add(%0, %1) /* ty=Tensor[(1), float16] span=from_string:4:5 */
  } /* ty=fn (Tensor[(1), float32]) -> Tensor[(1), float16] span=from_string:8:88 */;
  let %x4: Tensor[(1), float16] /* ty=Tensor[(1), float16] span=from_string:21:14 */ = %2(%x0) /* ty=Tensor[(1), float16] span=from_string:8:88 */;
  %3 = fn (Primitive=1) -> Tensor[(1), float16] {
    ones(shape=[1], dtype="float16") /* ty=Tensor[(1), float16] span=from_string:10:5 */
  } /* ty=fn () -> Tensor[(1), float16] span=from_string:29:9 */;
  %7 = fn (%p01: float32 /* ty=float32 span=from_string:14:15 */, Primitive=1) -> float16 {
    %4 = cast(2f /* ty=float32 span=from_string:13:17 */, dtype="float16") /* ty=float16 span=from_string:15:19 */;
    %5 = cast(%p01, dtype="float16") /* ty=float16 span=from_string:16:19 */;
    %6 = subtract(%4, %5) /* ty=float16 span=from_string:16:15 */;
    multiply(%6, %5) /* ty=float16 span=from_string:13:5 */
  } /* ty=fn (float32) -> float16 span=from_string:31:9 */;
  %8 = fn (Primitive=1) -> Tensor[(1), float16] {
    ones(shape=[1], dtype="float16") /* ty=Tensor[(1), float16] span=from_string:19:5 */
  } /* ty=fn () -> Tensor[(1), float16] span=from_string:32:9 */;
  %13 = fn (%p03: Tensor[(1), float16] /* ty=Tensor[(1), float16] */, Primitive=1) -> Tensor[(1), float32] {
    cast(%p03, dtype="float32") /* ty=Tensor[(1), float32] span=from_string:33:13 */
  } /* ty=fn (Tensor[(1), float16]) -> Tensor[(1), float32] */;
  %14 = %13(%x4) /* ty=Tensor[(1), float32] */;
  %15 = fn (%p02: Tensor[(1), float32] /* ty=Tensor[(1), float32] span=from_string:23:15 */, Primitive=1) -> Tensor[(1), float16] {
    %9 = cast(%p02, dtype="float16") /* ty=Tensor[(1), float16] span=from_string:25:15 */;
    %10 = zeros_like(%9) /* ty=Tensor[(1), float16] span=from_string:25:19 */;
    %11 = add(%9, %10) /* ty=Tensor[(1), float16] span=from_string:27:9 */;
    %12 = zeros(shape=[1], dtype="float16") /* ty=Tensor[(1), float16] span=from_string:27:14 */;
    add(%11, %12) /* ty=Tensor[(1), float16] span=from_string:23:5 */
  } /* ty=fn (Tensor[(1), float32]) -> Tensor[(1), float16] span=from_string:33:9 */;
  %16 = %3() /* ty=Tensor[(1), float16] span=from_string:34:4 */;
  %17 = (2f /* ty=float32 span=from_string:30:12 */, 4f /* ty=float32 span=from_string:30:56 */) /* ty=(float32, float32) span=from_string:34:9 */;
  %18 = %7(%x1) /* ty=float16 span=from_string:34:14 */;
  %19 = %8() /* ty=Tensor[(1), float16] span=from_string:34:19 */;
  %20 = %15(%14) /* ty=Tensor[(1), float16] span=from_string:34:100 */;
  (%16, %17, %18, %19, meta[relay.Constant][0] /* ty=Tensor[(1), int32] span=from_string:34:29 */, %20) /* ty=(Tensor[(1), float16], (float32, float32), float16, Tensor[(1), float16], Tensor[(1), int32], Tensor[(1), float16]) span=from_string:34:3 */
}

#[metadata]
{
  "root": 1, 
  "nodes": [
    {
      "type_key": ""
    }, 
    {
      "type_key": "Map", 
      "keys": [
        "relay.Constant"
      ], 
      "data": [2]
    }, 
    {
      "type_key": "Array", 
      "data": [3]
    }, 
    {
      "type_key": "relay.Constant", 
      "attrs": {
        "_checked_type_": "8", 
        "data": "0", 
        "span": "6", 
        "virtual_device_": "4"
      }
    }, 
    {
      "type_key": "VirtualDevice", 
      "attrs": {
        "device_type_int": "-1", 
        "memory_scope": "5", 
        "target": "0", 
        "virtual_device_id": "-1"
      }
    }, 
    {
      "type_key": "runtime.String"
    }, 
    {
      "type_key": "Span", 
      "attrs": {
        "column": "29", 
        "end_column": "47", 
        "end_line": "34", 
        "line": "34", 
        "source_name": "7"
      }
    }, 
    {
      "type_key": "SourceName", 
      "repr_str": "from_string"
    }, 
    {
      "type_key": "relay.TensorType", 
      "attrs": {
        "dtype": "int32", 
        "shape": "9", 
        "span": "11"
      }
    }, 
    {
      "type_key": "Array", 
      "data": [10]
    }, 
    {
      "type_key": "IntImm", 
      "attrs": {
        "dtype": "int32", 
        "span": "0", 
        "value": "1"
      }
    }, 
    {
      "type_key": "Span", 
      "attrs": {
        "column": "222", 
        "end_column": "242", 
        "end_line": "2", 
        "line": "2", 
        "source_name": "7"
      }
    }
  ], 
  "b64ndarrays": [
    "P6G0lvBAXt0AAAAAAAAAAAEAAAAAAAAAAQAAAAAgAQABAAAAAAAAAAQAAAAAAAAAAQAAAA=="
  ], 
  "attrs": {"tvm_version": "0.13.0"}
}