#[version = "0.0.5"]
def @main(%x0: Tensor[(1), float32] /* ty=Tensor[(1), float32] span=from_string:7:90 */, %x1: float32 /* ty=float32 span=from_string:27:12 */) -> (Tensor[(1), float16], (float32, float32), float16, Tensor[(1), float16], Tensor[(1), int32], Tensor[(1), float16]) {
  %1 = fn (%p0: Tensor[(1), float32] /* ty=Tensor[(1), float32] span=from_string:4:15 */, %p1: float16 /* ty=float16 span=from_string:5:9 */, Primitive=1) -> Tensor[(1), float16] {
    %0 = cast(%p0, dtype="float16") /* ty=Tensor[(1), float16] span=from_string:5:14 */;
    add(%p1, %0) /* ty=Tensor[(1), float16] span=from_string:4:5 */
  } /* ty=fn (Tensor[(1), float32], float16) -> Tensor[(1), float16] span=from_string:7:87 */;
  let %x4: Tensor[(1), float16] /* ty=Tensor[(1), float16] span=from_string:29:13 */ = %1(%x0, 2f16 /* ty=float16 span=from_string:7:99 */) /* ty=Tensor[(1), float16] span=from_string:7:87 */;
  %2 = fn (Primitive=1) -> Tensor[(1), float16] {
    ones(shape=[1], dtype="float16") /* ty=Tensor[(1), float16] span=from_string:9:5 */
  } /* ty=fn () -> Tensor[(1), float16] span=from_string:25:9 */;
  %5 = fn (%p01: float32 /* ty=float32 span=from_string:12:15 */, %p11: float16 /* ty=float16 span=from_string:13:19 */, Primitive=1) -> float16 {
    %3 = cast(%p01, dtype="float16") /* ty=float16 span=from_string:14:19 */;
    %4 = subtract(%p11, %3) /* ty=float16 span=from_string:14:15 */;
    multiply(%4, %3) /* ty=float16 span=from_string:12:5 */
  } /* ty=fn (float32, float16) -> float16 span=from_string:27:9 */;
  %6 = fn (Primitive=1) -> Tensor[(1), float16] {
    ones(shape=[1], dtype="float16") /* ty=Tensor[(1), float16] span=from_string:17:5 */
  } /* ty=fn () -> Tensor[(1), float16] span=from_string:28:9 */;
  %7 = fn (%p02: Tensor[(1), float16] /* ty=Tensor[(1), float16] span=from_string:21:14 */, Primitive=1) -> Tensor[(1), float16] {
    %p02
  } /* ty=fn (Tensor[(1), float16]) -> Tensor[(1), float16] span=from_string:29:9 */;
  %8 = %2() /* ty=Tensor[(1), float16] span=from_string:30:4 */;
  %9 = (2f /* ty=float32 span=from_string:26:12 */, 4f /* ty=float32 span=from_string:26:56 */) /* ty=(float32, float32) span=from_string:30:9 */;
  %10 = %5(%x1, 2f16 /* ty=float16 span=from_string:27:21 */) /* ty=float16 span=from_string:30:14 */;
  %11 = %6() /* ty=Tensor[(1), float16] span=from_string:30:19 */;
  %12 = %7(%x4) /* ty=Tensor[(1), float16] span=from_string:30:100 */;
  (%8, %9, %10, %11, meta[relay.Constant][0] /* ty=Tensor[(1), int32] span=from_string:30:29 */, %12) /* ty=(Tensor[(1), float16], (float32, float32), float16, Tensor[(1), float16], Tensor[(1), int32], Tensor[(1), float16]) span=from_string:30:3 */
}

#[metadata]
{
  "root": 1, 
  "nodes": [
    {
      "type_key": ""
    }, 
    {
      "type_key": "Map", 
      "keys": [
        "relay.Constant"
      ], 
      "data": [2]
    }, 
    {
      "type_key": "Array", 
      "data": [3]
    }, 
    {
      "type_key": "relay.Constant", 
      "attrs": {
        "_checked_type_": "8", 
        "data": "0", 
        "span": "6", 
        "virtual_device_": "4"
      }
    }, 
    {
      "type_key": "VirtualDevice", 
      "attrs": {
        "device_type_int": "-1", 
        "memory_scope": "5", 
        "target": "0", 
        "virtual_device_id": "-1"
      }
    }, 
    {
      "type_key": "runtime.String"
    }, 
    {
      "type_key": "Span", 
      "attrs": {
        "column": "29", 
        "end_column": "47", 
        "end_line": "30", 
        "line": "30", 
        "source_name": "7"
      }
    }, 
    {
      "type_key": "SourceName", 
      "repr_str": "from_string"
    }, 
    {
      "type_key": "relay.TensorType", 
      "attrs": {
        "dtype": "int32", 
        "shape": "9", 
        "span": "11"
      }
    }, 
    {
      "type_key": "Array", 
      "data": [10]
    }, 
    {
      "type_key": "IntImm", 
      "attrs": {
        "dtype": "int32", 
        "span": "0", 
        "value": "1"
      }
    }, 
    {
      "type_key": "Span", 
      "attrs": {
        "column": "221", 
        "end_column": "241", 
        "end_line": "2", 
        "line": "2", 
        "source_name": "7"
      }
    }
  ], 
  "b64ndarrays": [
    "P6G0lvBAXt0AAAAAAAAAAAEAAAAAAAAAAQAAAAAgAQABAAAAAAAAAAQAAAAAAAAAAQAAAA=="
  ], 
  "attrs": {"tvm_version": "0.13.0"}
}