#[version = "0.0.5"]
def @main(%x0: Tensor[(1), float32] /* ty=Tensor[(1), float32] span=from_string:14:20 */, %x1: float32 /* ty=float32 span=from_string:9:19 */) -> (Tensor[(1), float16], (float32, float32), float16, Tensor[(1), float16], Tensor[(1), int32], Tensor[(1), float16]) {
  let %x_0: Tensor[(1), float16] /* ty=Tensor[(1), float16] span=from_string:22:16 */ = ones(shape=[1], dtype="float16") /* ty=Tensor[(1), float16] span=from_string:3:14 */;
  let %x_1: float32 /* ty=float32 span=from_string:6:15 */ = 2f /* ty=float32 span=from_string:4:16 */;
  let %x_2: float32 /* ty=float32 span=from_string:6:21 */ = 4f /* ty=float32 span=from_string:5:16 */;
  let %x_3: (float32, float32) /* ty=(float32, float32) span=from_string:22:22 */ = (%x_1, %x_2) /* ty=(float32, float32) span=from_string:6:14 */;
  let %x_4: float32 /* ty=float32 span=from_string:8:19 */ = 2f /* ty=float32 span=from_string:7:16 */;
  let %x_5: float16 /* ty=float16 span=from_string:15:19 */ = cast(%x_4, dtype="float16") /* ty=float16 span=from_string:8:14 */;
  let %x_6: float16 /* ty=float16 span=from_string:11:30 */ = cast(%x1, dtype="float16") /* ty=float16 span=from_string:9:14 */;
  let %x_7: float16 /* ty=float16 span=from_string:11:24 */ = subtract(%x_5, %x_6) /* ty=float16 span=from_string:10:14 */;
  let %x_8: float16 /* ty=float16 span=from_string:22:28 */ = multiply(%x_7, %x_6) /* ty=float16 span=from_string:11:15 */;
  let %x_9: Tensor[(1), float16] /* ty=Tensor[(1), float16] span=from_string:22:34 */ = ones(shape=[1], dtype="float16") /* ty=Tensor[(1), float16] span=from_string:12:14 */;
  let %x_10: Tensor[(1), int32] /* ty=Tensor[(1), int32] span=from_string:22:40 */ = meta[relay.Constant][0] /* ty=Tensor[(1), int32] span=from_string:13:20 */;
  let %x_11: Tensor[(1), float16] /* ty=Tensor[(1), float16] span=from_string:15:25 */ = cast(%x0, dtype="float16") /* ty=Tensor[(1), float16] span=from_string:14:15 */;
  let %x_12: Tensor[(1), float16] /* ty=Tensor[(1), float16] span=from_string:16:20 */ = add(%x_5, %x_11) /* ty=Tensor[(1), float16] span=from_string:15:15 */;
  let %x_13: Tensor[(1), float32] /* ty=Tensor[(1), float32] span=from_string:17:20 */ = cast(%x_12, dtype="float32") /* ty=Tensor[(1), float32] span=from_string:16:15 */;
  let %x_14: Tensor[(1), float16] /* ty=Tensor[(1), float16] span=from_string:19:19 */ = cast(%x_13, dtype="float16") /* ty=Tensor[(1), float16] span=from_string:17:15 */;
  let %x_15: Tensor[(1), float16] /* ty=Tensor[(1), float16] span=from_string:19:26 */ = zeros(shape=[1], dtype="float16") /* ty=Tensor[(1), float16] */;
  let %x_16: Tensor[(1), float16] /* ty=Tensor[(1), float16] span=from_string:21:19 */ = add(%x_14, %x_15) /* ty=Tensor[(1), float16] span=from_string:19:15 */;
  let %x_17: Tensor[(1), float16] /* ty=Tensor[(1), float16] span=from_string:21:26 */ = zeros(shape=[1], dtype="float16") /* ty=Tensor[(1), float16] span=from_string:20:15 */;
  let %x_18: Tensor[(1), float16] /* ty=Tensor[(1), float16] span=from_string:22:47 */ = add(%x_16, %x_17) /* ty=Tensor[(1), float16] span=from_string:21:15 */;
  let %x_19: (Tensor[(1), float16], (float32, float32), float16, Tensor[(1), float16], Tensor[(1), int32], Tensor[(1), float16]) /* ty=(Tensor[(1), float16], (float32, float32), float16, Tensor[(1), float16], Tensor[(1), int32], Tensor[(1), float16]) span=from_string:23:3 */ = (%x_0, %x_3, %x_8, %x_9, %x_10, %x_18) /* ty=(Tensor[(1), float16], (float32, float32), float16, Tensor[(1), float16], Tensor[(1), int32], Tensor[(1), float16]) span=from_string:22:15 */;
  %x_19
}

#[metadata]
{
  "root": 1, 
  "nodes": [
    {
      "type_key": ""
    }, 
    {
      "type_key": "Map", 
      "keys": [
        "relay.Constant"
      ], 
      "data": [2]
    }, 
    {
      "type_key": "Array", 
      "data": [3]
    }, 
    {
      "type_key": "relay.Constant", 
      "attrs": {
        "_checked_type_": "8", 
        "data": "0", 
        "span": "6", 
        "virtual_device_": "4"
      }
    }, 
    {
      "type_key": "VirtualDevice", 
      "attrs": {
        "device_type_int": "-1", 
        "memory_scope": "5", 
        "target": "0", 
        "virtual_device_id": "-1"
      }
    }, 
    {
      "type_key": "runtime.String"
    }, 
    {
      "type_key": "Span", 
      "attrs": {
        "column": "20", 
        "end_column": "38", 
        "end_line": "13", 
        "line": "13", 
        "source_name": "7"
      }
    }, 
    {
      "type_key": "SourceName", 
      "repr_str": "from_string"
    }, 
    {
      "type_key": "relay.TensorType", 
      "attrs": {
        "dtype": "int32", 
        "shape": "9", 
        "span": "0"
      }
    }, 
    {
      "type_key": "Array", 
      "data": [10]
    }, 
    {
      "type_key": "IntImm", 
      "attrs": {
        "dtype": "int32", 
        "span": "0", 
        "value": "1"
      }
    }
  ], 
  "b64ndarrays": [
    "P6G0lvBAXt0AAAAAAAAAAAEAAAAAAAAAAQAAAAAgAQABAAAAAAAAAAQAAAAAAAAAAQAAAA=="
  ], 
  "attrs": {"tvm_version": "0.13.0"}
}