#[version = "0.0.5"]
def @main(%x0: Tensor[(1), float32] /* ty=Tensor[(1), float32] span=from_string:8:13 */, %x1: float32 /* ty=float32 span=from_string:4:13 */) -> (Tensor[(1), float16], (float32, float32), float16, Tensor[(1), float16], Tensor[(1), int32], Tensor[(1), float16]) {
  %0 = fn (Primitive=1) -> Tensor[(1), float16] {
    ones(shape=[1], dtype="float16") /* ty=Tensor[(1), float16] span=from_string:15:4 */
  } /* ty=fn () -> Tensor[(1), float16] */;
  %5 = fn (Primitive=1) -> float16 {
    %4 = cast(2f /* ty=float32 span=from_string:3:15 */, dtype="float16") /* ty=float16 span=from_string:5:13 */;
    cast(%4, dtype="float16") /* ty=float16 span=from_string:14:13 */
  } /* ty=fn () -> float16 */;
  %6 = %5() /* ty=float16 */;
  %7 = fn (%p0: float32 /* ty=float32 */, %p1: float16 /* ty=float16 */, Primitive=1) -> float16 {
    %1 = cast(%p0, dtype="float16") /* ty=float16 span=from_string:6:13 */;
    %2 = cast(%1, dtype="float16") /* ty=float16 span=from_string:12:22 */;
    %3 = subtract(%p1, %2) /* ty=float16 span=from_string:12:18 */;
    multiply(%3, %2) /* ty=float16 span=from_string:15:12 */
  } /* ty=fn (float32, float16) -> float16 */;
  %8 = fn (Primitive=1) -> Tensor[(1), float16] {
    ones(shape=[1], dtype="float16") /* ty=Tensor[(1), float16] span=from_string:15:16 */
  } /* ty=fn () -> Tensor[(1), float16] */;
  %11 = fn (%p01: Tensor[(1), float32] /* ty=Tensor[(1), float32] */, %p11: float16 /* ty=float16 */, Primitive=1) -> Tensor[(1), float16] {
    %9 = cast(%p01, dtype="float16") /* ty=Tensor[(1), float16] span=from_string:9:13 */;
    %10 = cast(%9, dtype="float16") /* ty=Tensor[(1), float16] span=from_string:14:17 */;
    add(%p11, %10) /* ty=Tensor[(1), float16] span=from_string:15:97 */
  } /* ty=fn (Tensor[(1), float32], float16) -> Tensor[(1), float16] */;
  %12 = %0() /* ty=Tensor[(1), float16] */;
  %13 = (2f /* ty=float32 span=from_string:11:11 */, 4f /* ty=float32 span=from_string:11:54 */) /* ty=(float32, float32) span=from_string:15:8 */;
  %14 = %7(%x1, %6) /* ty=float16 */;
  %15 = %8() /* ty=Tensor[(1), float16] */;
  %16 = %11(%x0, %6) /* ty=Tensor[(1), float16] */;
  (%12, %13, %14, %15, meta[relay.Constant][0] /* ty=Tensor[(1), int32] span=from_string:15:26 */, %16) /* ty=(Tensor[(1), float16], (float32, float32), float16, Tensor[(1), float16], Tensor[(1), int32], Tensor[(1), float16]) span=from_string:3:3 */
}

#[metadata]
{
  "root": 1, 
  "nodes": [
    {
      "type_key": ""
    }, 
    {
      "type_key": "Map", 
      "keys": [
        "relay.Constant"
      ], 
      "data": [2]
    }, 
    {
      "type_key": "Array", 
      "data": [3]
    }, 
    {
      "type_key": "relay.Constant", 
      "attrs": {
        "_checked_type_": "8", 
        "data": "0", 
        "span": "6", 
        "virtual_device_": "4"
      }
    }, 
    {
      "type_key": "VirtualDevice", 
      "attrs": {
        "device_type_int": "-1", 
        "memory_scope": "5", 
        "target": "0", 
        "virtual_device_id": "-1"
      }
    }, 
    {
      "type_key": "runtime.String"
    }, 
    {
      "type_key": "Span", 
      "attrs": {
        "column": "26", 
        "end_column": "44", 
        "end_line": "15", 
        "line": "15", 
        "source_name": "7"
      }
    }, 
    {
      "type_key": "SourceName", 
      "repr_str": "from_string"
    }, 
    {
      "type_key": "relay.TensorType", 
      "attrs": {
        "dtype": "int32", 
        "shape": "9", 
        "span": "11"
      }
    }, 
    {
      "type_key": "Array", 
      "data": [10]
    }, 
    {
      "type_key": "IntImm", 
      "attrs": {
        "dtype": "int32", 
        "span": "0", 
        "value": "1"
      }
    }, 
    {
      "type_key": "Span", 
      "attrs": {
        "column": "221", 
        "end_column": "241", 
        "end_line": "2", 
        "line": "2", 
        "source_name": "7"
      }
    }
  ], 
  "b64ndarrays": [
    "P6G0lvBAXt0AAAAAAAAAAAEAAAAAAAAAAQAAAAAgAQABAAAAAAAAAAQAAAAAAAAAAQAAAA=="
  ], 
  "attrs": {"tvm_version": "0.13.0"}
}