#[version = "0.0.5"]
def @main(%x0: Tensor[(1), float32] /* ty=Tensor[(1), float32] span=from_string:13:91 */, %x1: float32 /* ty=float32 span=from_string:34:13 */) -> (Tensor[(1), float16], (float32, float32), float16, Tensor[(1), float16], Tensor[(1), int32], Tensor[(1), float16]) {
  %1 = fn (Primitive=1) -> float16 {
    cast(2f /* ty=float32 span=from_string:4:17 */, dtype="float16") /* ty=float16 span=from_string:5:10 */
  } /* ty=fn () -> float16 span=from_string:7:8 */;
  %2 = %1() /* ty=float16 span=from_string:34:18 */;
  %3 = fn (%p0: Tensor[(1), float32] /* ty=Tensor[(1), float32] span=from_string:9:15 */, %p1: float16 /* ty=float16 span=from_string:11:9 */, Primitive=1) -> Tensor[(1), float16] {
    %0 = cast(%p0, dtype="float16") /* ty=Tensor[(1), float16] span=from_string:10:15 */;
    add(%p1, %0) /* ty=Tensor[(1), float16] span=from_string:9:5 */
  } /* ty=fn (Tensor[(1), float32], float16) -> Tensor[(1), float16] span=from_string:13:88 */;
  let %x4: Tensor[(1), float16] /* ty=Tensor[(1), float16] span=from_string:36:13 */ = %3(%x0, %2) /* ty=Tensor[(1), float16] span=from_string:13:88 */;
  %4 = fn (Primitive=1) -> Tensor[(1), float16] {
    ones(shape=[1], dtype="float16") /* ty=Tensor[(1), float16] span=from_string:15:5 */
  } /* ty=fn () -> Tensor[(1), float16] span=from_string:32:9 */;
  %7 = fn (%p01: float32 /* ty=float32 span=from_string:18:15 */, %p11: float16 /* ty=float16 span=from_string:20:19 */, Primitive=1) -> float16 {
    %5 = cast(%p01, dtype="float16") /* ty=float16 span=from_string:19:15 */;
    %6 = subtract(%p11, %5) /* ty=float16 span=from_string:21:15 */;
    multiply(%6, %5) /* ty=float16 span=from_string:18:5 */
  } /* ty=fn (float32, float16) -> float16 span=from_string:34:9 */;
  %8 = fn (Primitive=1) -> Tensor[(1), float16] {
    ones(shape=[1], dtype="float16") /* ty=Tensor[(1), float16] span=from_string:24:5 */
  } /* ty=fn () -> Tensor[(1), float16] span=from_string:35:9 */;
  %9 = fn (%p02: Tensor[(1), float16] /* ty=Tensor[(1), float16] span=from_string:28:15 */, Primitive=1) -> Tensor[(1), float16] {
    %p02
  } /* ty=fn (Tensor[(1), float16]) -> Tensor[(1), float16] span=from_string:36:9 */;
  %10 = %4() /* ty=Tensor[(1), float16] span=from_string:37:4 */;
  %11 = (2f /* ty=float32 span=from_string:33:12 */, 4f /* ty=float32 span=from_string:33:56 */) /* ty=(float32, float32) span=from_string:37:9 */;
  %12 = %7(%x1, %2) /* ty=float16 span=from_string:37:14 */;
  %13 = %8() /* ty=Tensor[(1), float16] span=from_string:37:19 */;
  %14 = %9(%x4) /* ty=Tensor[(1), float16] span=from_string:37:100 */;
  (%10, %11, %12, %13, meta[relay.Constant][0] /* ty=Tensor[(1), int32] span=from_string:37:29 */, %14) /* ty=(Tensor[(1), float16], (float32, float32), float16, Tensor[(1), float16], Tensor[(1), int32], Tensor[(1), float16]) span=from_string:37:3 */
}

#[metadata]
{
  "root": 1, 
  "nodes": [
    {
      "type_key": ""
    }, 
    {
      "type_key": "Map", 
      "keys": [
        "relay.Constant"
      ], 
      "data": [2]
    }, 
    {
      "type_key": "Array", 
      "data": [3]
    }, 
    {
      "type_key": "relay.Constant", 
      "attrs": {
        "_checked_type_": "8", 
        "data": "0", 
        "span": "6", 
        "virtual_device_": "4"
      }
    }, 
    {
      "type_key": "VirtualDevice", 
      "attrs": {
        "device_type_int": "-1", 
        "memory_scope": "5", 
        "target": "0", 
        "virtual_device_id": "-1"
      }
    }, 
    {
      "type_key": "runtime.String"
    }, 
    {
      "type_key": "Span", 
      "attrs": {
        "column": "29", 
        "end_column": "47", 
        "end_line": "37", 
        "line": "37", 
        "source_name": "7"
      }
    }, 
    {
      "type_key": "SourceName", 
      "repr_str": "from_string"
    }, 
    {
      "type_key": "relay.TensorType", 
      "attrs": {
        "dtype": "int32", 
        "shape": "9", 
        "span": "11"
      }
    }, 
    {
      "type_key": "Array", 
      "data": [10]
    }, 
    {
      "type_key": "IntImm", 
      "attrs": {
        "dtype": "int32", 
        "span": "0", 
        "value": "1"
      }
    }, 
    {
      "type_key": "Span", 
      "attrs": {
        "column": "221", 
        "end_column": "241", 
        "end_line": "2", 
        "line": "2", 
        "source_name": "7"
      }
    }
  ], 
  "b64ndarrays": [
    "P6G0lvBAXt0AAAAAAAAAAAEAAAAAAAAAAQAAAAAgAQABAAAAAAAAAAQAAAAAAAAAAQAAAA=="
  ], 
  "attrs": {"tvm_version": "0.13.0"}
}