#[version = "0.0.5"]
def @main(%x0: Tensor[(1), float32] /* ty=Tensor[(1), float32] span=from_string:35:13 */, %x1: float32 /* ty=float32 span=from_string:33:12 */) -> (Tensor[(1), float16], (float32, float32), float16, Tensor[(1), float16], Tensor[(1), int32], Tensor[(1), float16]) {
  %0 = fn (Primitive=1) -> Tensor[(1), float16] {
    ones(shape=[1], dtype="float16") /* ty=Tensor[(1), float16] span=from_string:4:5 */
  } /* ty=fn () -> Tensor[(1), float16] span=from_string:31:9 */;
  %5 = fn (Primitive=1) -> float16 {
    %4 = cast(2f /* ty=float32 span=from_string:7:17 */, dtype="float16") /* ty=float16 span=from_string:8:10 */;
    cast(%4, dtype="float16") /* ty=float16 span=from_string:7:5 */
  } /* ty=fn () -> float16 span=from_string:10:8 */;
  %6 = %5() /* ty=float16 span=from_string:35:18 */;
  %7 = fn (%p0: float32 /* ty=float32 span=from_string:12:15 */, %p1: float16 /* ty=float16 span=from_string:14:19 */, Primitive=1) -> float16 {
    %1 = cast(%p0, dtype="float16") /* ty=float16 span=from_string:13:15 */;
    %2 = cast(%1, dtype="float16") /* ty=float16 span=from_string:15:19 */;
    %3 = subtract(%p1, %2) /* ty=float16 span=from_string:15:15 */;
    multiply(%3, %2) /* ty=float16 span=from_string:12:5 */
  } /* ty=fn (float32, float16) -> float16 span=from_string:33:9 */;
  %8 = fn (Primitive=1) -> Tensor[(1), float16] {
    ones(shape=[1], dtype="float16") /* ty=Tensor[(1), float16] span=from_string:18:5 */
  } /* ty=fn () -> Tensor[(1), float16] span=from_string:34:9 */;
  %17 = fn (%p01: Tensor[(1), float32] /* ty=Tensor[(1), float32] span=from_string:21:15 */, %p11: float16 /* ty=float16 span=from_string:23:15 */, Primitive=1) -> Tensor[(1), float16] {
    %9 = cast(%p01, dtype="float16") /* ty=Tensor[(1), float16] span=from_string:22:16 */;
    %10 = cast(%9, dtype="float16") /* ty=Tensor[(1), float16] span=from_string:23:21 */;
    %11 = add(%p11, %10) /* ty=Tensor[(1), float16] span=from_string:24:16 */;
    %12 = cast(%11, dtype="float32") /* ty=Tensor[(1), float32] span=from_string:25:16 */;
    %13 = cast(%12, dtype="float16") /* ty=Tensor[(1), float16] span=from_string:27:15 */;
    %14 = zeros_like(%13) /* ty=Tensor[(1), float16] span=from_string:27:20 */;
    %15 = add(%13, %14) /* ty=Tensor[(1), float16] span=from_string:29:9 */;
    %16 = zeros(shape=[1], dtype="float16") /* ty=Tensor[(1), float16] span=from_string:29:14 */;
    add(%15, %16) /* ty=Tensor[(1), float16] span=from_string:21:5 */
  } /* ty=fn (Tensor[(1), float32], float16) -> Tensor[(1), float16] span=from_string:35:9 */;
  %18 = %0() /* ty=Tensor[(1), float16] span=from_string:36:4 */;
  %19 = (2f /* ty=float32 span=from_string:32:12 */, 4f /* ty=float32 span=from_string:32:56 */) /* ty=(float32, float32) span=from_string:36:9 */;
  %20 = %7(%x1, %6) /* ty=float16 span=from_string:36:14 */;
  %21 = %8() /* ty=Tensor[(1), float16] span=from_string:36:19 */;
  %22 = %17(%x0, %6) /* ty=Tensor[(1), float16] span=from_string:36:100 */;
  (%18, %19, %20, %21, meta[relay.Constant][0] /* ty=Tensor[(1), int32] span=from_string:36:29 */, %22) /* ty=(Tensor[(1), float16], (float32, float32), float16, Tensor[(1), float16], Tensor[(1), int32], Tensor[(1), float16]) span=from_string:3:3 */
}

#[metadata]
{
  "root": 1, 
  "nodes": [
    {
      "type_key": ""
    }, 
    {
      "type_key": "Map", 
      "keys": [
        "relay.Constant"
      ], 
      "data": [2]
    }, 
    {
      "type_key": "Array", 
      "data": [3]
    }, 
    {
      "type_key": "relay.Constant", 
      "attrs": {
        "_checked_type_": "8", 
        "data": "0", 
        "span": "6", 
        "virtual_device_": "4"
      }
    }, 
    {
      "type_key": "VirtualDevice", 
      "attrs": {
        "device_type_int": "-1", 
        "memory_scope": "5", 
        "target": "0", 
        "virtual_device_id": "-1"
      }
    }, 
    {
      "type_key": "runtime.String"
    }, 
    {
      "type_key": "Span", 
      "attrs": {
        "column": "29", 
        "end_column": "47", 
        "end_line": "36", 
        "line": "36", 
        "source_name": "7"
      }
    }, 
    {
      "type_key": "SourceName", 
      "repr_str": "from_string"
    }, 
    {
      "type_key": "relay.TensorType", 
      "attrs": {
        "dtype": "int32", 
        "shape": "9", 
        "span": "11"
      }
    }, 
    {
      "type_key": "Array", 
      "data": [10]
    }, 
    {
      "type_key": "IntImm", 
      "attrs": {
        "dtype": "int32", 
        "span": "0", 
        "value": "1"
      }
    }, 
    {
      "type_key": "Span", 
      "attrs": {
        "column": "221", 
        "end_column": "241", 
        "end_line": "2", 
        "line": "2", 
        "source_name": "7"
      }
    }
  ], 
  "b64ndarrays": [
    "P6G0lvBAXt0AAAAAAAAAAAEAAAAAAAAAAQAAAAAgAQABAAAAAAAAAAQAAAAAAAAAAQAAAA=="
  ], 
  "attrs": {"tvm_version": "0.13.0"}
}