#[version = "0.0.5"]
def @main(%x0: Tensor[(1), float32] /* ty=Tensor[(1), float32] span=from_string:3:113 */, %x1: float32 /* ty=float32 span=from_string:10:22 */) -> (Tensor[(1), float16], (float32, float32), float16, Tensor[(1), float16], Tensor[(1), int32], Tensor[(1), float16]) {
  %0 = cast(2f /* ty=float32 span=from_string:3:94 */, dtype="float16") /* ty=float16 */;
  %1 = cast(%x0, dtype="float16") /* ty=Tensor[(1), float16] */;
  let %x4: Tensor[(1), float16] /* ty=Tensor[(1), float16] span=from_string:6:12 */ = add(%0, %1) /* ty=Tensor[(1), float16] span=from_string:3:88 */;
  %2 = cast(2f /* ty=float32 span=from_string:4:19 */, dtype="float16") /* ty=float16 */;
  %3 = cast(%x1, dtype="float16") /* ty=float16 */;
  %4 = subtract(%2, %3) /* ty=float16 span=from_string:10:18 */;
  %5 = zeros_like(%x4) /* ty=Tensor[(1), float16] span=from_string:6:17 */;
  %6 = add(%x4, %5) /* ty=Tensor[(1), float16] span=from_string:12:12 */;
  %7 = zeros(shape=[1], dtype="float16") /* ty=Tensor[(1), float16] span=from_string:12:16 */;
  %8 = ones(shape=[1], dtype="float16") /* ty=Tensor[(1), float16] span=from_string:13:4 */;
  %9 = (2f /* ty=float32 span=from_string:9:11 */, 4f /* ty=float32 span=from_string:9:32 */) /* ty=(float32, float32) span=from_string:13:8 */;
  %10 = multiply(%4, %3) /* ty=float16 span=from_string:13:12 */;
  %11 = ones(shape=[1], dtype="float16") /* ty=Tensor[(1), float16] span=from_string:13:16 */;
  %12 = add(%6, %7) /* ty=Tensor[(1), float16] span=from_string:13:73 */;
  (%8, %9, %10, %11, meta[relay.Constant][0] /* ty=Tensor[(1), int32] span=from_string:13:25 */, %12) /* ty=(Tensor[(1), float16], (float32, float32), float16, Tensor[(1), float16], Tensor[(1), int32], Tensor[(1), float16]) span=from_string:13:3 */
}

#[metadata]
{
  "root": 1, 
  "nodes": [
    {
      "type_key": ""
    }, 
    {
      "type_key": "Map", 
      "keys": [
        "relay.Constant"
      ], 
      "data": [2]
    }, 
    {
      "type_key": "Array", 
      "data": [3]
    }, 
    {
      "type_key": "relay.Constant", 
      "attrs": {
        "_checked_type_": "8", 
        "data": "0", 
        "span": "6", 
        "virtual_device_": "4"
      }
    }, 
    {
      "type_key": "VirtualDevice", 
      "attrs": {
        "device_type_int": "-1", 
        "memory_scope": "5", 
        "target": "0", 
        "virtual_device_id": "-1"
      }
    }, 
    {
      "type_key": "runtime.String"
    }, 
    {
      "type_key": "Span", 
      "attrs": {
        "column": "25", 
        "end_column": "43", 
        "end_line": "13", 
        "line": "13", 
        "source_name": "7"
      }
    }, 
    {
      "type_key": "SourceName", 
      "repr_str": "from_string"
    }, 
    {
      "type_key": "relay.TensorType", 
      "attrs": {
        "dtype": "int32", 
        "shape": "9", 
        "span": "0"
      }
    }, 
    {
      "type_key": "Array", 
      "data": [10]
    }, 
    {
      "type_key": "IntImm", 
      "attrs": {
        "dtype": "int32", 
        "span": "0", 
        "value": "1"
      }
    }
  ], 
  "b64ndarrays": [
    "P6G0lvBAXt0AAAAAAAAAAAEAAAAAAAAAAQAAAAAgAQABAAAAAAAAAAQAAAAAAAAAAQAAAA=="
  ], 
  "attrs": {"tvm_version": "0.13.0"}
}