#[version = "0.0.5"]
def @main(%x0: Tensor[(1), float32] /* ty=Tensor[(1), float32] span=from_string:20:13 */, %x1: float32 /* ty=float32 span=from_string:31:12 */) -> (Tensor[(1), float16], (float32, float32), float16, Tensor[(1), float16], Tensor[(1), int32], Tensor[(1), float16]) {
  %0 = cast(2f /* ty=float32 span=from_string:7:17 */, dtype="float16") /* ty=float16 span=from_string:9:19 */;
  %1 = cast(%x1, dtype="float16") /* ty=float16 span=from_string:10:19 */;
  %2 = subtract(%0, %1) /* ty=float16 span=from_string:10:15 */;
  %3 = cast(2f /* ty=float32 span=from_string:16:18 */, dtype="float16") /* ty=float16 span=from_string:18:9 */;
  %4 = cast(%x0, dtype="float16") /* ty=Tensor[(1), float16] span=from_string:18:14 */;
  %5 = add(%3, %4) /* ty=Tensor[(1), float16] span=from_string:16:5 */;
  %6 = cast(%5, dtype="float32") /* ty=Tensor[(1), float32] span=from_string:33:13 */;
  %7 = cast(%6, dtype="float16") /* ty=Tensor[(1), float16] span=from_string:25:14 */;
  %8 = zeros_like(%7) /* ty=Tensor[(1), float16] span=from_string:25:18 */;
  %9 = add(%7, %8) /* ty=Tensor[(1), float16] span=from_string:27:9 */;
  %10 = zeros(shape=[1], dtype="float16") /* ty=Tensor[(1), float16] span=from_string:27:13 */;
  %11 = ones(shape=[1], dtype="float16") /* ty=Tensor[(1), float16] span=from_string:4:5 */;
  %12 = (2f /* ty=float32 span=from_string:30:12 */, 4f /* ty=float32 span=from_string:30:56 */) /* ty=(float32, float32) span=from_string:34:9 */;
  %13 = multiply(%2, %1) /* ty=float16 span=from_string:7:5 */;
  %14 = ones(shape=[1], dtype="float16") /* ty=Tensor[(1), float16] span=from_string:13:5 */;
  %15 = add(%9, %10) /* ty=Tensor[(1), float16] span=from_string:23:5 */;
  (%11, %12, %13, %14, meta[relay.Constant][0] /* ty=Tensor[(1), int32] span=from_string:34:29 */, %15) /* ty=(Tensor[(1), float16], (float32, float32), float16, Tensor[(1), float16], Tensor[(1), int32], Tensor[(1), float16]) span=from_string:3:3 */
}

#[metadata]
{
  "root": 1, 
  "nodes": [
    {
      "type_key": ""
    }, 
    {
      "type_key": "Map", 
      "keys": [
        "relay.Constant"
      ], 
      "data": [2]
    }, 
    {
      "type_key": "Array", 
      "data": [3]
    }, 
    {
      "type_key": "relay.Constant", 
      "attrs": {
        "_checked_type_": "8", 
        "data": "0", 
        "span": "6", 
        "virtual_device_": "4"
      }
    }, 
    {
      "type_key": "VirtualDevice", 
      "attrs": {
        "device_type_int": "-1", 
        "memory_scope": "5", 
        "target": "0", 
        "virtual_device_id": "-1"
      }
    }, 
    {
      "type_key": "runtime.String"
    }, 
    {
      "type_key": "Span", 
      "attrs": {
        "column": "29", 
        "end_column": "47", 
        "end_line": "34", 
        "line": "34", 
        "source_name": "7"
      }
    }, 
    {
      "type_key": "SourceName", 
      "repr_str": "from_string"
    }, 
    {
      "type_key": "relay.TensorType", 
      "attrs": {
        "dtype": "int32", 
        "shape": "9", 
        "span": "11"
      }
    }, 
    {
      "type_key": "Array", 
      "data": [10]
    }, 
    {
      "type_key": "IntImm", 
      "attrs": {
        "dtype": "int32", 
        "span": "0", 
        "value": "1"
      }
    }, 
    {
      "type_key": "Span", 
      "attrs": {
        "column": "222", 
        "end_column": "242", 
        "end_line": "2", 
        "line": "2", 
        "source_name": "7"
      }
    }
  ], 
  "b64ndarrays": [
    "P6G0lvBAXt0AAAAAAAAAAAEAAAAAAAAAAQAAAAAgAQABAAAAAAAAAAQAAAAAAAAAAQAAAA=="
  ], 
  "attrs": {"tvm_version": "0.13.0"}
}