#[version = "0.0.5"]
def @main(%x0: Tensor[(1), float32] /* ty=Tensor[(1), float32] span=from_string:6:19 */, %x1: float32 /* ty=float32 span=from_string:16:20 */) -> (Tensor[(1), float16], (float32, float32), float16, Tensor[(1), float16], Tensor[(1), int32], Tensor[(1), float16]) {
  let %x_0: float32 /* ty=float32 span=from_string:4:19 */ = 2f /* ty=float32 span=from_string:3:16 */;
  let %x_1: float16 /* ty=float16 span=from_string:5:19 */ = cast(%x_0, dtype="float16") /* ty=float16 span=from_string:4:14 */;
  let %x_2: float16 /* ty=float16 span=from_string:8:92 */ = cast(%x_1, dtype="float16") /* ty=float16 span=from_string:5:14 */;
  let %x_3: Tensor[(1), float16] /* ty=Tensor[(1), float16] span=from_string:7:19 */ = cast(%x0, dtype="float16") /* ty=Tensor[(1), float16] span=from_string:6:14 */;
  let %x_4: Tensor[(1), float16] /* ty=Tensor[(1), float16] span=from_string:8:98 */ = cast(%x_3, dtype="float16") /* ty=Tensor[(1), float16] span=from_string:7:14 */;
  let %x4: Tensor[(1), float16] /* ty=Tensor[(1), float16] span=from_string:23:19 */ = add(%x_2, %x_4) /* ty=Tensor[(1), float16] span=from_string:8:88 */;
  let %x_5: Tensor[(1), float16] /* ty=Tensor[(1), float16] span=from_string:26:16 */ = ones(shape=[1], dtype="float16") /* ty=Tensor[(1), float16] span=from_string:9:14 */;
  let %x_6: float32 /* ty=float32 span=from_string:12:15 */ = 2f /* ty=float32 span=from_string:10:16 */;
  let %x_7: float32 /* ty=float32 span=from_string:12:21 */ = 4f /* ty=float32 span=from_string:11:16 */;
  let %x_8: (float32, float32) /* ty=(float32, float32) span=from_string:26:22 */ = (%x_6, %x_7) /* ty=(float32, float32) span=from_string:12:14 */;
  let %x_9: float32 /* ty=float32 span=from_string:14:20 */ = 2f /* ty=float32 span=from_string:13:16 */;
  let %x_10: float16 /* ty=float16 span=from_string:15:20 */ = cast(%x_9, dtype="float16") /* ty=float16 span=from_string:14:15 */;
  let %x_11: float16 /* ty=float16 span=from_string:18:24 */ = cast(%x_10, dtype="float16") /* ty=float16 span=from_string:15:15 */;
  let %x_12: float16 /* ty=float16 span=from_string:17:20 */ = cast(%x1, dtype="float16") /* ty=float16 span=from_string:16:15 */;
  let %x_13: float16 /* ty=float16 span=from_string:19:32 */ = cast(%x_12, dtype="float16") /* ty=float16 span=from_string:17:15 */;
  let %x_14: float16 /* ty=float16 span=from_string:19:25 */ = subtract(%x_11, %x_13) /* ty=float16 span=from_string:18:15 */;
  let %x_15: float16 /* ty=float16 span=from_string:26:28 */ = multiply(%x_14, %x_13) /* ty=float16 span=from_string:19:16 */;
  let %x_16: Tensor[(1), float16] /* ty=Tensor[(1), float16] span=from_string:26:35 */ = ones(shape=[1], dtype="float16") /* ty=Tensor[(1), float16] span=from_string:20:15 */;
  let %x_17: Tensor[(1), int32] /* ty=Tensor[(1), int32] span=from_string:26:42 */ = meta[relay.Constant][0] /* ty=Tensor[(1), int32] span=from_string:21:20 */;
  let %x_18: Tensor[(1), float16] /* ty=Tensor[(1), float16] span=from_string:23:24 */ = zeros_like(%x4) /* ty=Tensor[(1), float16] span=from_string:22:15 */;
  let %x_19: Tensor[(1), float16] /* ty=Tensor[(1), float16] span=from_string:25:19 */ = add(%x4, %x_18) /* ty=Tensor[(1), float16] span=from_string:23:15 */;
  let %x_20: Tensor[(1), float16] /* ty=Tensor[(1), float16] span=from_string:25:26 */ = zeros(shape=[1], dtype="float16") /* ty=Tensor[(1), float16] span=from_string:24:15 */;
  let %x_21: Tensor[(1), float16] /* ty=Tensor[(1), float16] span=from_string:26:49 */ = add(%x_19, %x_20) /* ty=Tensor[(1), float16] span=from_string:25:15 */;
  let %x_22: (Tensor[(1), float16], (float32, float32), float16, Tensor[(1), float16], Tensor[(1), int32], Tensor[(1), float16]) /* ty=(Tensor[(1), float16], (float32, float32), float16, Tensor[(1), float16], Tensor[(1), int32], Tensor[(1), float16]) span=from_string:27:15 */ = (%x_5, %x_8, %x_15, %x_16, %x_17, %x_21) /* ty=(Tensor[(1), float16], (float32, float32), float16, Tensor[(1), float16], Tensor[(1), int32], Tensor[(1), float16]) span=from_string:26:15 */;
  let %x_23: (Tensor[(1), float16], (float32, float32), float16, Tensor[(1), float16], Tensor[(1), int32], Tensor[(1), float16]) /* ty=(Tensor[(1), float16], (float32, float32), float16, Tensor[(1), float16], Tensor[(1), int32], Tensor[(1), float16]) span=from_string:28:3 */ = %x_22;
  %x_23
}

#[metadata]
{
  "root": 1, 
  "nodes": [
    {
      "type_key": ""
    }, 
    {
      "type_key": "Map", 
      "keys": [
        "relay.Constant"
      ], 
      "data": [2]
    }, 
    {
      "type_key": "Array", 
      "data": [3]
    }, 
    {
      "type_key": "relay.Constant", 
      "attrs": {
        "_checked_type_": "8", 
        "data": "0", 
        "span": "6", 
        "virtual_device_": "4"
      }
    }, 
    {
      "type_key": "VirtualDevice", 
      "attrs": {
        "device_type_int": "-1", 
        "memory_scope": "5", 
        "target": "0", 
        "virtual_device_id": "-1"
      }
    }, 
    {
      "type_key": "runtime.String"
    }, 
    {
      "type_key": "Span", 
      "attrs": {
        "column": "20", 
        "end_column": "38", 
        "end_line": "21", 
        "line": "21", 
        "source_name": "7"
      }
    }, 
    {
      "type_key": "SourceName", 
      "repr_str": "from_string"
    }, 
    {
      "type_key": "relay.TensorType", 
      "attrs": {
        "dtype": "int32", 
        "shape": "9", 
        "span": "0"
      }
    }, 
    {
      "type_key": "Array", 
      "data": [10]
    }, 
    {
      "type_key": "IntImm", 
      "attrs": {
        "dtype": "int32", 
        "span": "0", 
        "value": "1"
      }
    }
  ], 
  "b64ndarrays": [
    "P6G0lvBAXt0AAAAAAAAAAAEAAAAAAAAAAQAAAAAgAQABAAAAAAAAAAQAAAAAAAAAAQAAAA=="
  ], 
  "attrs": {"tvm_version": "0.13.0"}
}