#[version = "0.0.5"]
def @main(%x0: Tensor[(1), float32] /* ty=Tensor[(1), float32] span=from_string:24:12 */, %x1: float32 /* ty=float32 span=from_string:22:12 */) -> (Tensor[(1), float16], (float32, float32), float16, Tensor[(1), float16], Tensor[(1), int32], Tensor[(1), float16]) {
  %0 = fn (Primitive=1) -> Tensor[(1), float16] {
    ones(shape=[1], dtype="float16") /* ty=Tensor[(1), float16] span=from_string:4:5 */
  } /* ty=fn () -> Tensor[(1), float16] span=from_string:20:8 */;
  %6 = fn (%p0: float32 /* ty=float32 span=from_string:8:15 */, Primitive=1) -> float16 {
    %1 = cast(2f /* ty=float32 span=from_string:7:17 */, dtype="float16") /* ty=float16 */;
    %2 = cast(%p0, dtype="float16") /* ty=float16 */;
    %3 = cast(%1, dtype="float16") /* ty=float16 span=from_string:9:19 */;
    %4 = cast(%2, dtype="float16") /* ty=float16 span=from_string:10:19 */;
    %5 = subtract(%3, %4) /* ty=float16 span=from_string:10:15 */;
    multiply(%5, %4) /* ty=float16 span=from_string:7:5 */
  } /* ty=fn (float32) -> float16 span=from_string:22:9 */;
  %7 = fn (Primitive=1) -> Tensor[(1), float16] {
    ones(shape=[1], dtype="float16") /* ty=Tensor[(1), float16] span=from_string:13:5 */
  } /* ty=fn () -> Tensor[(1), float16] span=from_string:23:9 */;
  %12 = fn (%p01: Tensor[(1), float32] /* ty=Tensor[(1), float32] span=from_string:17:15 */, Primitive=1) -> Tensor[(1), float16] {
    %8 = cast(2f /* ty=float32 span=from_string:16:17 */, dtype="float16") /* ty=float16 */;
    %9 = cast(%p01, dtype="float16") /* ty=Tensor[(1), float16] */;
    %10 = cast(%8, dtype="float16") /* ty=float16 span=from_string:18:9 */;
    %11 = cast(%9, dtype="float16") /* ty=Tensor[(1), float16] span=from_string:18:13 */;
    add(%10, %11) /* ty=Tensor[(1), float16] span=from_string:16:5 */
  } /* ty=fn (Tensor[(1), float32]) -> Tensor[(1), float16] span=from_string:24:9 */;
  %13 = %0() /* ty=Tensor[(1), float16] span=from_string:25:4 */;
  %14 = (2f /* ty=float32 span=from_string:21:12 */, 4f /* ty=float32 span=from_string:21:55 */) /* ty=(float32, float32) span=from_string:25:8 */;
  %15 = %6(%x1) /* ty=float16 span=from_string:25:13 */;
  %16 = %7() /* ty=Tensor[(1), float16] span=from_string:25:18 */;
  %17 = %12(%x0) /* ty=Tensor[(1), float16] span=from_string:25:99 */;
  (%13, %14, %15, %16, meta[relay.Constant][0] /* ty=Tensor[(1), int32] span=from_string:25:28 */, %17) /* ty=(Tensor[(1), float16], (float32, float32), float16, Tensor[(1), float16], Tensor[(1), int32], Tensor[(1), float16]) span=from_string:3:3 */
}

#[metadata]
{
  "root": 1, 
  "nodes": [
    {
      "type_key": ""
    }, 
    {
      "type_key": "Map", 
      "keys": [
        "relay.Constant"
      ], 
      "data": [2]
    }, 
    {
      "type_key": "Array", 
      "data": [3]
    }, 
    {
      "type_key": "relay.Constant", 
      "attrs": {
        "_checked_type_": "8", 
        "data": "0", 
        "span": "6", 
        "virtual_device_": "4"
      }
    }, 
    {
      "type_key": "VirtualDevice", 
      "attrs": {
        "device_type_int": "-1", 
        "memory_scope": "5", 
        "target": "0", 
        "virtual_device_id": "-1"
      }
    }, 
    {
      "type_key": "runtime.String"
    }, 
    {
      "type_key": "Span", 
      "attrs": {
        "column": "28", 
        "end_column": "46", 
        "end_line": "25", 
        "line": "25", 
        "source_name": "7"
      }
    }, 
    {
      "type_key": "SourceName", 
      "repr_str": "from_string"
    }, 
    {
      "type_key": "relay.TensorType", 
      "attrs": {
        "dtype": "int32", 
        "shape": "9", 
        "span": "0"
      }
    }, 
    {
      "type_key": "Array", 
      "data": [10]
    }, 
    {
      "type_key": "IntImm", 
      "attrs": {
        "dtype": "int32", 
        "span": "0", 
        "value": "1"
      }
    }
  ], 
  "b64ndarrays": [
    "P6G0lvBAXt0AAAAAAAAAAAEAAAAAAAAAAQAAAAAgAQABAAAAAAAAAAQAAAAAAAAAAQAAAA=="
  ], 
  "attrs": {"tvm_version": "0.13.0"}
}