#[version = "0.0.5"]
def @main(%x0: Tensor[(1), float32] /* ty=Tensor[(1), float32] span=from_string:24:13 */, %x1: float32 /* ty=float32 span=from_string:36:12 */) -> (Tensor[(1), float16], (float32, float32), float16, Tensor[(1), float16], Tensor[(1), int32], Tensor[(1), float16]) {
  %0 = fn (Primitive=1) -> Tensor[(1), float16] {
    ones(shape=[1], dtype="float16") /* ty=Tensor[(1), float16] span=from_string:4:5 */
  } /* ty=fn () -> Tensor[(1), float16] span=from_string:34:9 */;
  %6 = fn (%p01: float32 /* ty=float32 span=from_string:8:15 */, Primitive=1) -> float16 {
    %1 = cast(2f /* ty=float32 span=from_string:7:17 */, dtype="float16") /* ty=float16 span=from_string:9:15 */;
    %2 = cast(%p01, dtype="float16") /* ty=float16 span=from_string:10:15 */;
    %3 = cast(%1, dtype="float16") /* ty=float16 span=from_string:11:19 */;
    %4 = cast(%2, dtype="float16") /* ty=float16 span=from_string:12:19 */;
    %5 = subtract(%3, %4) /* ty=float16 span=from_string:12:15 */;
    multiply(%5, %4) /* ty=float16 span=from_string:7:5 */
  } /* ty=fn (float32) -> float16 span=from_string:36:9 */;
  %7 = fn (Primitive=1) -> Tensor[(1), float16] {
    ones(shape=[1], dtype="float16") /* ty=Tensor[(1), float16] span=from_string:15:5 */
  } /* ty=fn () -> Tensor[(1), float16] span=from_string:37:9 */;
  %17 = fn (%p03: Tensor[(1), float32] /* ty=Tensor[(1), float32] span=from_string:19:16 */, Primitive=1) -> Tensor[(1), float16] {
    %13 = cast(2f /* ty=float32 span=from_string:18:18 */, dtype="float16") /* ty=float16 span=from_string:20:16 */;
    %14 = cast(%p03, dtype="float16") /* ty=Tensor[(1), float16] span=from_string:21:16 */;
    %15 = cast(%13, dtype="float16") /* ty=float16 span=from_string:22:9 */;
    %16 = cast(%14, dtype="float16") /* ty=Tensor[(1), float16] span=from_string:22:14 */;
    add(%15, %16) /* ty=Tensor[(1), float16] span=from_string:18:5 */
  } /* ty=fn (Tensor[(1), float32]) -> Tensor[(1), float16] span=from_string:24:9 */;
  %18 = %17(%x0) /* ty=Tensor[(1), float16] span=from_string:25:14 */;
  %19 = fn (%p0: Tensor[(1), float16] /* ty=Tensor[(1), float16] */, Primitive=1) -> Tensor[(1), float32] {
    cast(%p0, dtype="float32") /* ty=Tensor[(1), float32] span=from_string:38:13 */
  } /* ty=fn (Tensor[(1), float16]) -> Tensor[(1), float32] */;
  %20 = %19(%18) /* ty=Tensor[(1), float32] */;
  %21 = fn (%p02: Tensor[(1), float32] /* ty=Tensor[(1), float32] span=from_string:27:15 */, Primitive=1) -> Tensor[(1), float16] {
    %8 = cast(%p02, dtype="float16") /* ty=Tensor[(1), float16] span=from_string:28:15 */;
    %9 = cast(%8, dtype="float16") /* ty=Tensor[(1), float16] span=from_string:30:15 */;
    %10 = zeros_like(%9) /* ty=Tensor[(1), float16] span=from_string:30:19 */;
    %11 = add(%9, %10) /* ty=Tensor[(1), float16] span=from_string:32:9 */;
    %12 = zeros(shape=[1], dtype="float16") /* ty=Tensor[(1), float16] span=from_string:32:14 */;
    add(%11, %12) /* ty=Tensor[(1), float16] span=from_string:27:5 */
  } /* ty=fn (Tensor[(1), float32]) -> Tensor[(1), float16] span=from_string:38:9 */;
  %22 = %0() /* ty=Tensor[(1), float16] span=from_string:39:4 */;
  %23 = (2f /* ty=float32 span=from_string:35:12 */, 4f /* ty=float32 span=from_string:35:56 */) /* ty=(float32, float32) span=from_string:39:9 */;
  %24 = %6(%x1) /* ty=float16 span=from_string:39:14 */;
  %25 = %7() /* ty=Tensor[(1), float16] span=from_string:39:19 */;
  %26 = %21(%20) /* ty=Tensor[(1), float16] span=from_string:39:100 */;
  (%22, %23, %24, %25, meta[relay.Constant][0] /* ty=Tensor[(1), int32] span=from_string:39:29 */, %26) /* ty=(Tensor[(1), float16], (float32, float32), float16, Tensor[(1), float16], Tensor[(1), int32], Tensor[(1), float16]) span=from_string:3:3 */
}

#[metadata]
{
  "root": 1, 
  "nodes": [
    {
      "type_key": ""
    }, 
    {
      "type_key": "Map", 
      "keys": [
        "relay.Constant"
      ], 
      "data": [2]
    }, 
    {
      "type_key": "Array", 
      "data": [3]
    }, 
    {
      "type_key": "relay.Constant", 
      "attrs": {
        "_checked_type_": "8", 
        "data": "0", 
        "span": "6", 
        "virtual_device_": "4"
      }
    }, 
    {
      "type_key": "VirtualDevice", 
      "attrs": {
        "device_type_int": "-1", 
        "memory_scope": "5", 
        "target": "0", 
        "virtual_device_id": "-1"
      }
    }, 
    {
      "type_key": "runtime.String"
    }, 
    {
      "type_key": "Span", 
      "attrs": {
        "column": "29", 
        "end_column": "47", 
        "end_line": "39", 
        "line": "39", 
        "source_name": "7"
      }
    }, 
    {
      "type_key": "SourceName", 
      "repr_str": "from_string"
    }, 
    {
      "type_key": "relay.TensorType", 
      "attrs": {
        "dtype": "int32", 
        "shape": "9", 
        "span": "11"
      }
    }, 
    {
      "type_key": "Array", 
      "data": [10]
    }, 
    {
      "type_key": "IntImm", 
      "attrs": {
        "dtype": "int32", 
        "span": "0", 
        "value": "1"
      }
    }, 
    {
      "type_key": "Span", 
      "attrs": {
        "column": "223", 
        "end_column": "243", 
        "end_line": "2", 
        "line": "2", 
        "source_name": "7"
      }
    }
  ], 
  "b64ndarrays": [
    "P6G0lvBAXt0AAAAAAAAAAAEAAAAAAAAAAQAAAAAgAQABAAAAAAAAAAQAAAAAAAAAAQAAAA=="
  ], 
  "attrs": {"tvm_version": "0.13.0"}
}