#[version = "0.0.5"]
def @main(%x0: Tensor[(1), float32] /* ty=Tensor[(1), float32] span=from_string:4:13 */, %x1: float32 /* ty=float32 span=from_string:7:13 */) -> (Tensor[(1), float16], (float32, float32), float16, Tensor[(1), float16], Tensor[(1), int32], Tensor[(1), float16]) {
  %0 = cast(%x0, dtype="float16") /* ty=Tensor[(1), float16] span=from_string:5:95 */;
  let %x4: Tensor[(1), float16] /* ty=Tensor[(1), float16] span=from_string:10:12 */ = add(2f16 /* ty=float16 */, %0) /* ty=Tensor[(1), float16] span=from_string:5:87 */;
  %1 = cast(%x1, dtype="float16") /* ty=float16 span=from_string:14:23 */;
  %2 = subtract(2f16 /* ty=float16 */, %1) /* ty=float16 span=from_string:14:19 */;
  %3 = zeros_like(%x4) /* ty=Tensor[(1), float16] span=from_string:10:17 */;
  %4 = add(%x4, %3) /* ty=Tensor[(1), float16] span=from_string:16:13 */;
  %5 = zeros(shape=[1], dtype="float16") /* ty=Tensor[(1), float16] span=from_string:16:17 */;
  %6 = ones(shape=[1], dtype="float16") /* ty=Tensor[(1), float16] span=from_string:17:4 */;
  %7 = (2f /* ty=float32 span=from_string:13:11 */, 4f /* ty=float32 span=from_string:13:54 */) /* ty=(float32, float32) span=from_string:17:8 */;
  %8 = multiply(%2, %1) /* ty=float16 span=from_string:17:12 */;
  %9 = ones(shape=[1], dtype="float16") /* ty=Tensor[(1), float16] span=from_string:17:17 */;
  %10 = add(%4, %5) /* ty=Tensor[(1), float16] span=from_string:17:98 */;
  (%6, %7, %8, %9, meta[relay.Constant][0] /* ty=Tensor[(1), int32] span=from_string:17:27 */, %10) /* ty=(Tensor[(1), float16], (float32, float32), float16, Tensor[(1), float16], Tensor[(1), int32], Tensor[(1), float16]) span=from_string:17:3 */
}

#[metadata]
{
  "root": 1, 
  "nodes": [
    {
      "type_key": ""
    }, 
    {
      "type_key": "Map", 
      "keys": [
        "relay.Constant"
      ], 
      "data": [2]
    }, 
    {
      "type_key": "Array", 
      "data": [3]
    }, 
    {
      "type_key": "relay.Constant", 
      "attrs": {
        "_checked_type_": "8", 
        "data": "0", 
        "span": "6", 
        "virtual_device_": "4"
      }
    }, 
    {
      "type_key": "VirtualDevice", 
      "attrs": {
        "device_type_int": "-1", 
        "memory_scope": "5", 
        "target": "0", 
        "virtual_device_id": "-1"
      }
    }, 
    {
      "type_key": "runtime.String"
    }, 
    {
      "type_key": "Span", 
      "attrs": {
        "column": "27", 
        "end_column": "45", 
        "end_line": "17", 
        "line": "17", 
        "source_name": "7"
      }
    }, 
    {
      "type_key": "SourceName", 
      "repr_str": "from_string"
    }, 
    {
      "type_key": "relay.TensorType", 
      "attrs": {
        "dtype": "int32", 
        "shape": "9", 
        "span": "11"
      }
    }, 
    {
      "type_key": "Array", 
      "data": [10]
    }, 
    {
      "type_key": "IntImm", 
      "attrs": {
        "dtype": "int32", 
        "span": "0", 
        "value": "1"
      }
    }, 
    {
      "type_key": "Span", 
      "attrs": {
        "column": "223", 
        "end_column": "243", 
        "end_line": "2", 
        "line": "2", 
        "source_name": "7"
      }
    }
  ], 
  "b64ndarrays": [
    "P6G0lvBAXt0AAAAAAAAAAAEAAAAAAAAAAQAAAAAgAQABAAAAAAAAAAQAAAAAAAAAAQAAAA=="
  ], 
  "attrs": {"tvm_version": "0.13.0"}
}