#[version = "0.0.5"]
def @main(%x0: Tensor[(1), float32] /* ty=Tensor[(1), float32] span=from_string:5:19 */, %x1: float32 /* ty=float32 span=from_string:13:19 */) -> (Tensor[(1), float16], (float32, float32), float16, Tensor[(1), float16], Tensor[(1), int32], Tensor[(1), float16]) {
  let %x_2: Tensor[(1), float16] /* ty=Tensor[(1), float16] span=from_string:6:98 */ = cast(%x0, dtype="float16") /* ty=Tensor[(1), float16] span=from_string:5:14 */;
  let %x4: Tensor[(1), float16] /* ty=Tensor[(1), float16] span=from_string:19:19 */ = add(2f16 /* ty=float16 */, %x_2) /* ty=Tensor[(1), float16] span=from_string:6:88 */;
  let %x_3: Tensor[(1), float16] /* ty=Tensor[(1), float16] span=from_string:22:16 */ = ones(shape=[1], dtype="float16") /* ty=Tensor[(1), float16] span=from_string:7:14 */;
  let %x_6: (float32, float32) /* ty=(float32, float32) span=from_string:22:22 */ = (2f /* ty=float32 span=from_string:8:16 */, 4f /* ty=float32 span=from_string:9:16 */) /* ty=(float32, float32) span=from_string:10:14 */;
  let %x_9: float16 /* ty=float16 span=from_string:15:32 */ = cast(%x1, dtype="float16") /* ty=float16 span=from_string:13:14 */;
  let %x_10: float16 /* ty=float16 span=from_string:15:25 */ = subtract(2f16 /* ty=float16 */, %x_9) /* ty=float16 span=from_string:14:15 */;
  let %x_11: float16 /* ty=float16 span=from_string:22:28 */ = multiply(%x_10, %x_9) /* ty=float16 span=from_string:15:16 */;
  let %x_12: Tensor[(1), float16] /* ty=Tensor[(1), float16] span=from_string:22:35 */ = ones(shape=[1], dtype="float16") /* ty=Tensor[(1), float16] span=from_string:16:15 */;
  let %x_14: Tensor[(1), float16] /* ty=Tensor[(1), float16] span=from_string:19:24 */ = zeros_like(%x4) /* ty=Tensor[(1), float16] span=from_string:18:15 */;
  let %x_15: Tensor[(1), float16] /* ty=Tensor[(1), float16] span=from_string:21:19 */ = add(%x4, %x_14) /* ty=Tensor[(1), float16] span=from_string:19:15 */;
  let %x_16: Tensor[(1), float16] /* ty=Tensor[(1), float16] span=from_string:21:26 */ = zeros(shape=[1], dtype="float16") /* ty=Tensor[(1), float16] span=from_string:20:15 */;
  let %x_17: Tensor[(1), float16] /* ty=Tensor[(1), float16] span=from_string:22:49 */ = add(%x_15, %x_16) /* ty=Tensor[(1), float16] span=from_string:21:15 */;
  let %x_18: (Tensor[(1), float16], (float32, float32), float16, Tensor[(1), float16], Tensor[(1), int32], Tensor[(1), float16]) /* ty=(Tensor[(1), float16], (float32, float32), float16, Tensor[(1), float16], Tensor[(1), int32], Tensor[(1), float16]) span=from_string:23:15 */ = (%x_3, %x_6, %x_11, %x_12, meta[relay.Constant][0] /* ty=Tensor[(1), int32] span=from_string:17:20 */, %x_17) /* ty=(Tensor[(1), float16], (float32, float32), float16, Tensor[(1), float16], Tensor[(1), int32], Tensor[(1), float16]) span=from_string:22:15 */;
  let %x_19: (Tensor[(1), float16], (float32, float32), float16, Tensor[(1), float16], Tensor[(1), int32], Tensor[(1), float16]) /* ty=(Tensor[(1), float16], (float32, float32), float16, Tensor[(1), float16], Tensor[(1), int32], Tensor[(1), float16]) span=from_string:24:3 */ = %x_18;
  %x_19
}

#[metadata]
{
  "root": 1, 
  "nodes": [
    {
      "type_key": ""
    }, 
    {
      "type_key": "Map", 
      "keys": [
        "relay.Constant"
      ], 
      "data": [2]
    }, 
    {
      "type_key": "Array", 
      "data": [3]
    }, 
    {
      "type_key": "relay.Constant", 
      "attrs": {
        "_checked_type_": "8", 
        "data": "0", 
        "span": "6", 
        "virtual_device_": "4"
      }
    }, 
    {
      "type_key": "VirtualDevice", 
      "attrs": {
        "device_type_int": "-1", 
        "memory_scope": "5", 
        "target": "0", 
        "virtual_device_id": "-1"
      }
    }, 
    {
      "type_key": "runtime.String"
    }, 
    {
      "type_key": "Span", 
      "attrs": {
        "column": "20", 
        "end_column": "38", 
        "end_line": "17", 
        "line": "17", 
        "source_name": "7"
      }
    }, 
    {
      "type_key": "SourceName", 
      "repr_str": "from_string"
    }, 
    {
      "type_key": "relay.TensorType", 
      "attrs": {
        "dtype": "int32", 
        "shape": "9", 
        "span": "0"
      }
    }, 
    {
      "type_key": "Array", 
      "data": [10]
    }, 
    {
      "type_key": "IntImm", 
      "attrs": {
        "dtype": "int32", 
        "span": "0", 
        "value": "1"
      }
    }
  ], 
  "b64ndarrays": [
    "P6G0lvBAXt0AAAAAAAAAAAEAAAAAAAAAAQAAAAAgAQABAAAAAAAAAAQAAAAAAAAAAQAAAA=="
  ], 
  "attrs": {"tvm_version": "0.13.0"}
}