#[version = "0.0.5"]
def @main(%x0: Tensor[(1), float32] /* ty=Tensor[(1), float32] span=from_string:7:13 */, %x1: float32 /* ty=float32 span=from_string:4:13 */) -> (Tensor[(1), float16], (float32, float32), float16, Tensor[(1), float16], Tensor[(1), int32], Tensor[(1), float16]) {
  %0 = cast(2f /* ty=float32 span=from_string:3:15 */, dtype="float16") /* ty=float16 span=from_string:5:17 */;
  %1 = cast(%x1, dtype="float16") /* ty=float16 span=from_string:16:23 */;
  %2 = subtract(%0, %1) /* ty=float16 span=from_string:16:19 */;
  %3 = cast(%x0, dtype="float16") /* ty=Tensor[(1), float16] span=from_string:8:16 */;
  %4 = add(%0, %3) /* ty=Tensor[(1), float16] span=from_string:9:13 */;
  %5 = cast(%4, dtype="float32") /* ty=Tensor[(1), float32] span=from_string:10:13 */;
  %6 = cast(%5, dtype="float16") /* ty=Tensor[(1), float16] span=from_string:12:12 */;
  %7 = zeros_like(%6) /* ty=Tensor[(1), float16] span=from_string:12:16 */;
  %8 = add(%6, %7) /* ty=Tensor[(1), float16] span=from_string:18:13 */;
  %9 = zeros(shape=[1], dtype="float16") /* ty=Tensor[(1), float16] span=from_string:18:17 */;
  %10 = ones(shape=[1], dtype="float16") /* ty=Tensor[(1), float16] span=from_string:19:4 */;
  %11 = (2f /* ty=float32 span=from_string:15:12 */, 4f /* ty=float32 span=from_string:15:56 */) /* ty=(float32, float32) span=from_string:19:9 */;
  %12 = multiply(%2, %1) /* ty=float16 span=from_string:19:14 */;
  %13 = ones(shape=[1], dtype="float16") /* ty=Tensor[(1), float16] span=from_string:19:19 */;
  %14 = add(%8, %9) /* ty=Tensor[(1), float16] span=from_string:19:100 */;
  (%10, %11, %12, %13, meta[relay.Constant][0] /* ty=Tensor[(1), int32] span=from_string:19:29 */, %14) /* ty=(Tensor[(1), float16], (float32, float32), float16, Tensor[(1), float16], Tensor[(1), int32], Tensor[(1), float16]) span=from_string:3:3 */
}

#[metadata]
{
  "root": 1, 
  "nodes": [
    {
      "type_key": ""
    }, 
    {
      "type_key": "Map", 
      "keys": [
        "relay.Constant"
      ], 
      "data": [2]
    }, 
    {
      "type_key": "Array", 
      "data": [3]
    }, 
    {
      "type_key": "relay.Constant", 
      "attrs": {
        "_checked_type_": "8", 
        "data": "0", 
        "span": "6", 
        "virtual_device_": "4"
      }
    }, 
    {
      "type_key": "VirtualDevice", 
      "attrs": {
        "device_type_int": "-1", 
        "memory_scope": "5", 
        "target": "0", 
        "virtual_device_id": "-1"
      }
    }, 
    {
      "type_key": "runtime.String"
    }, 
    {
      "type_key": "Span", 
      "attrs": {
        "column": "29", 
        "end_column": "47", 
        "end_line": "19", 
        "line": "19", 
        "source_name": "7"
      }
    }, 
    {
      "type_key": "SourceName", 
      "repr_str": "from_string"
    }, 
    {
      "type_key": "relay.TensorType", 
      "attrs": {
        "dtype": "int32", 
        "shape": "9", 
        "span": "11"
      }
    }, 
    {
      "type_key": "Array", 
      "data": [10]
    }, 
    {
      "type_key": "IntImm", 
      "attrs": {
        "dtype": "int32", 
        "span": "0", 
        "value": "1"
      }
    }, 
    {
      "type_key": "Span", 
      "attrs": {
        "column": "223", 
        "end_column": "243", 
        "end_line": "2", 
        "line": "2", 
        "source_name": "7"
      }
    }
  ], 
  "b64ndarrays": [
    "P6G0lvBAXt0AAAAAAAAAAAEAAAAAAAAAAQAAAAAgAQABAAAAAAAAAAQAAAAAAAAAAQAAAA=="
  ], 
  "attrs": {"tvm_version": "0.13.0"}
}