#[version = "0.0.5"]
def @main(%x0: Tensor[(1), float32] /* ty=Tensor[(1), float32] span=from_string:9:13 */, %x1: float32 /* ty=float32 span=from_string:4:13 */) -> (Tensor[(1), float16], (float32, float32), float16, Tensor[(1), float16], Tensor[(1), int32], Tensor[(1), float16]) {
  %0 = cast(2f /* ty=float32 span=from_string:3:15 */, dtype="float16") /* ty=float16 span=from_string:5:13 */;
  %1 = cast(%x1, dtype="float16") /* ty=float16 span=from_string:6:13 */;
  %2 = cast(%0, dtype="float16") /* ty=float16 span=from_string:7:17 */;
  %3 = cast(%1, dtype="float16") /* ty=float16 span=from_string:18:23 */;
  %4 = subtract(%2, %3) /* ty=float16 span=from_string:18:19 */;
  %5 = cast(%x0, dtype="float16") /* ty=Tensor[(1), float16] span=from_string:11:13 */;
  %6 = cast(%5, dtype="float16") /* ty=Tensor[(1), float16] span=from_string:12:16 */;
  %7 = add(%2, %6) /* ty=Tensor[(1), float16] span=from_string:14:13 */;
  %8 = zeros_like(%7) /* ty=Tensor[(1), float16] span=from_string:14:17 */;
  %9 = add(%7, %8) /* ty=Tensor[(1), float16] span=from_string:20:13 */;
  %10 = zeros(shape=[1], dtype="float16") /* ty=Tensor[(1), float16] span=from_string:20:18 */;
  %11 = ones(shape=[1], dtype="float16") /* ty=Tensor[(1), float16] span=from_string:21:4 */;
  %12 = (2f /* ty=float32 span=from_string:17:12 */, 4f /* ty=float32 span=from_string:17:56 */) /* ty=(float32, float32) span=from_string:21:9 */;
  %13 = multiply(%4, %3) /* ty=float16 span=from_string:21:14 */;
  %14 = ones(shape=[1], dtype="float16") /* ty=Tensor[(1), float16] span=from_string:21:19 */;
  %15 = add(%9, %10) /* ty=Tensor[(1), float16] span=from_string:21:100 */;
  (%11, %12, %13, %14, meta[relay.Constant][0] /* ty=Tensor[(1), int32] span=from_string:21:29 */, %15) /* ty=(Tensor[(1), float16], (float32, float32), float16, Tensor[(1), float16], Tensor[(1), int32], Tensor[(1), float16]) span=from_string:3:3 */
}

#[metadata]
{
  "root": 1, 
  "nodes": [
    {
      "type_key": ""
    }, 
    {
      "type_key": "Map", 
      "keys": [
        "relay.Constant"
      ], 
      "data": [2]
    }, 
    {
      "type_key": "Array", 
      "data": [3]
    }, 
    {
      "type_key": "relay.Constant", 
      "attrs": {
        "_checked_type_": "8", 
        "data": "0", 
        "span": "6", 
        "virtual_device_": "4"
      }
    }, 
    {
      "type_key": "VirtualDevice", 
      "attrs": {
        "device_type_int": "-1", 
        "memory_scope": "5", 
        "target": "0", 
        "virtual_device_id": "-1"
      }
    }, 
    {
      "type_key": "runtime.String"
    }, 
    {
      "type_key": "Span", 
      "attrs": {
        "column": "29", 
        "end_column": "47", 
        "end_line": "21", 
        "line": "21", 
        "source_name": "7"
      }
    }, 
    {
      "type_key": "SourceName", 
      "repr_str": "from_string"
    }, 
    {
      "type_key": "relay.TensorType", 
      "attrs": {
        "dtype": "int32", 
        "shape": "9", 
        "span": "11"
      }
    }, 
    {
      "type_key": "Array", 
      "data": [10]
    }, 
    {
      "type_key": "IntImm", 
      "attrs": {
        "dtype": "int32", 
        "span": "0", 
        "value": "1"
      }
    }, 
    {
      "type_key": "Span", 
      "attrs": {
        "column": "221", 
        "end_column": "241", 
        "end_line": "2", 
        "line": "2", 
        "source_name": "7"
      }
    }
  ], 
  "b64ndarrays": [
    "P6G0lvBAXt0AAAAAAAAAAAEAAAAAAAAAAQAAAAAgAQABAAAAAAAAAAQAAAAAAAAAAQAAAA=="
  ], 
  "attrs": {"tvm_version": "0.13.0"}
}