#[version = "0.0.5"]
def @main(%x0: Tensor[(1), float32] /* ty=Tensor[(1), float32] span=from_string:27:21 */, %x1: float32 /* ty=float32 span=from_string:16:19 */) -> (Tensor[(1), float16], (float32, float32), float16, Tensor[(1), float16], Tensor[(1), int32], Tensor[(1), float16]) {
  let %x_0: fn () -> Tensor[(1), float16] /* ty=fn () -> Tensor[(1), float16] span=from_string:6:14 */ = fn (Primitive=1) -> Tensor[(1), float16] {
    ones(shape=[1], dtype="float16") /* ty=Tensor[(1), float16] span=from_string:4:5 */
  } /* ty=fn () -> Tensor[(1), float16] span=from_string:3:3 */;
  let %x_1: Tensor[(1), float16] /* ty=Tensor[(1), float16] span=from_string:37:16 */ = %x_0() /* ty=Tensor[(1), float16] span=from_string:6:14 */;
  let %x_2: float32 /* ty=float32 span=from_string:9:15 */ = 2f /* ty=float32 span=from_string:7:16 */;
  let %x_3: float32 /* ty=float32 span=from_string:9:21 */ = 4f /* ty=float32 span=from_string:8:16 */;
  let %x_4: (float32, float32) /* ty=(float32, float32) span=from_string:37:22 */ = (%x_2, %x_3) /* ty=(float32, float32) span=from_string:9:14 */;
  let %x_5: fn (float32) -> float16 /* ty=fn (float32) -> float16 span=from_string:16:14 */ = fn (%p01: float32 /* ty=float32 span=from_string:12:15 */, Primitive=1) -> float16 {
    %0 = cast(2f /* ty=float32 span=from_string:11:17 */, dtype="float16") /* ty=float16 span=from_string:13:19 */;
    %1 = cast(%p01, dtype="float16") /* ty=float16 span=from_string:14:19 */;
    %2 = subtract(%0, %1) /* ty=float16 span=from_string:14:15 */;
    multiply(%2, %1) /* ty=float16 span=from_string:11:5 */
  } /* ty=fn (float32) -> float16 span=from_string:10:3 */;
  let %x_6: float16 /* ty=float16 span=from_string:37:28 */ = %x_5(%x1) /* ty=float16 span=from_string:16:14 */;
  let %x_7: fn () -> Tensor[(1), float16] /* ty=fn () -> Tensor[(1), float16] span=from_string:20:14 */ = fn (Primitive=1) -> Tensor[(1), float16] {
    ones(shape=[1], dtype="float16") /* ty=Tensor[(1), float16] span=from_string:18:5 */
  } /* ty=fn () -> Tensor[(1), float16] span=from_string:17:3 */;
  let %x_8: Tensor[(1), float16] /* ty=Tensor[(1), float16] span=from_string:37:34 */ = %x_7() /* ty=Tensor[(1), float16] span=from_string:20:14 */;
  let %x_9: Tensor[(1), int32] /* ty=Tensor[(1), int32] span=from_string:37:40 */ = meta[relay.Constant][0] /* ty=Tensor[(1), int32] span=from_string:21:19 */;
  let %x_10: fn (Tensor[(1), float32]) -> Tensor[(1), float16] /* ty=fn (Tensor[(1), float32]) -> Tensor[(1), float16] span=from_string:27:15 */ = fn (%p0: Tensor[(1), float32] /* ty=Tensor[(1), float32] span=from_string:24:15 */, Primitive=1) -> Tensor[(1), float16] {
    %3 = cast(2f /* ty=float32 span=from_string:23:17 */, dtype="float16") /* ty=float16 span=from_string:25:9 */;
    %4 = cast(%p0, dtype="float16") /* ty=Tensor[(1), float16] span=from_string:25:13 */;
    add(%3, %4) /* ty=Tensor[(1), float16] span=from_string:23:5 */
  } /* ty=fn (Tensor[(1), float32]) -> Tensor[(1), float16] span=from_string:22:3 */;
  let %x_11: Tensor[(1), float16] /* ty=Tensor[(1), float16] span=from_string:28:20 */ = %x_10(%x0) /* ty=Tensor[(1), float16] span=from_string:27:15 */;
  %5 = fn (%p02: Tensor[(1), float16] /* ty=Tensor[(1), float16] */, Primitive=1) -> Tensor[(1), float32] {
    cast(%p02, dtype="float32") /* ty=Tensor[(1), float32] span=from_string:28:15 */
  } /* ty=fn (Tensor[(1), float16]) -> Tensor[(1), float32] */;
  let %x_12: Tensor[(1), float32] /* ty=Tensor[(1), float32] span=from_string:36:21 */ = %5(%x_11) /* ty=Tensor[(1), float32] */;
  let %x_13: fn (Tensor[(1), float32]) -> Tensor[(1), float16] /* ty=fn (Tensor[(1), float32]) -> Tensor[(1), float16] span=from_string:36:15 */ = fn (%p021: Tensor[(1), float32] /* ty=Tensor[(1), float32] span=from_string:30:15 */, Primitive=1) -> Tensor[(1), float16] {
    %6 = cast(%p021, dtype="float16") /* ty=Tensor[(1), float16] span=from_string:32:14 */;
    %7 = zeros_like(%6) /* ty=Tensor[(1), float16] span=from_string:32:18 */;
    %8 = add(%6, %7) /* ty=Tensor[(1), float16] span=from_string:34:9 */;
    %9 = zeros(shape=[1], dtype="float16") /* ty=Tensor[(1), float16] span=from_string:34:13 */;
    add(%8, %9) /* ty=Tensor[(1), float16] span=from_string:30:5 */
  } /* ty=fn (Tensor[(1), float32]) -> Tensor[(1), float16] span=from_string:29:3 */;
  let %x_14: Tensor[(1), float16] /* ty=Tensor[(1), float16] span=from_string:37:46 */ = %x_13(%x_12) /* ty=Tensor[(1), float16] span=from_string:36:15 */;
  let %x_15: (Tensor[(1), float16], (float32, float32), float16, Tensor[(1), float16], Tensor[(1), int32], Tensor[(1), float16]) /* ty=(Tensor[(1), float16], (float32, float32), float16, Tensor[(1), float16], Tensor[(1), int32], Tensor[(1), float16]) span=from_string:38:3 */ = (%x_1, %x_4, %x_6, %x_8, %x_9, %x_14) /* ty=(Tensor[(1), float16], (float32, float32), float16, Tensor[(1), float16], Tensor[(1), int32], Tensor[(1), float16]) span=from_string:37:15 */;
  %x_15
}

#[metadata]
{
  "root": 1, 
  "nodes": [
    {
      "type_key": ""
    }, 
    {
      "type_key": "Map", 
      "keys": [
        "relay.Constant"
      ], 
      "data": [2]
    }, 
    {
      "type_key": "Array", 
      "data": [3]
    }, 
    {
      "type_key": "relay.Constant", 
      "attrs": {
        "_checked_type_": "8", 
        "data": "0", 
        "span": "6", 
        "virtual_device_": "4"
      }
    }, 
    {
      "type_key": "VirtualDevice", 
      "attrs": {
        "device_type_int": "-1", 
        "memory_scope": "5", 
        "target": "0", 
        "virtual_device_id": "-1"
      }
    }, 
    {
      "type_key": "runtime.String"
    }, 
    {
      "type_key": "Span", 
      "attrs": {
        "column": "19", 
        "end_column": "37", 
        "end_line": "21", 
        "line": "21", 
        "source_name": "7"
      }
    }, 
    {
      "type_key": "SourceName", 
      "repr_str": "from_string"
    }, 
    {
      "type_key": "relay.TensorType", 
      "attrs": {
        "dtype": "int32", 
        "shape": "9", 
        "span": "0"
      }
    }, 
    {
      "type_key": "Array", 
      "data": [10]
    }, 
    {
      "type_key": "IntImm", 
      "attrs": {
        "dtype": "int32", 
        "span": "0", 
        "value": "1"
      }
    }
  ], 
  "b64ndarrays": [
    "P6G0lvBAXt0AAAAAAAAAAAEAAAAAAAAAAQAAAAAgAQABAAAAAAAAAAQAAAAAAAAAAQAAAA=="
  ], 
  "attrs": {"tvm_version": "0.13.0"}
}