#[version = "0.0.5"]
def @main(%x0: Tensor[(1), float32] /* ty=Tensor[(1), float32] span=from_string:3:93 */, %x1: float32 /* ty=float32 span=from_string:7:68 */) -> (Tensor[(1), float16], (float32, float32), float16, Tensor[(1), float16], Tensor[(1), int32], Tensor[(1), float16]) {
  let %x_2: Tensor[(1), float16] /* ty=Tensor[(1), float16] span=from_string:4:115 */ = cast(%x0, dtype="float16") /* ty=Tensor[(1), float16] span=from_string:3:88 */;
  let %x4: Tensor[(1), float16] /* ty=Tensor[(1), float16] span=from_string:12:94 */ = add(2f16 /* ty=float16 span=from_string:4:96 */, %x_2) /* ty=Tensor[(1), float16] span=from_string:4:88 */;
  let %x_3: Tensor[(1), float16] /* ty=Tensor[(1), float16] span=from_string:15:283 */ = ones(shape=[1], dtype="float16") /* ty=Tensor[(1), float16] span=from_string:5:89 */;
  let %x_6: (float32, float32) /* ty=(float32, float32) span=from_string:15:289 */ = (2f /* ty=float32 span=from_string:6:88 */, 4f /* ty=float32 span=from_string:6:131 */) /* ty=(float32, float32) span=from_string:6:85 */;
  let %x_9: float16 /* ty=float16 span=from_string:9:81 */ = cast(%x1, dtype="float16") /* ty=float16 span=from_string:7:63 */;
  let %x_10: float16 /* ty=float16 span=from_string:9:74 */ = subtract(2f16 /* ty=float16 span=from_string:8:77 */, %x_9) /* ty=float16 span=from_string:8:64 */;
  let %x_11: float16 /* ty=float16 span=from_string:15:295 */ = multiply(%x_10, %x_9) /* ty=float16 span=from_string:9:65 */;
  let %x_12: Tensor[(1), float16] /* ty=Tensor[(1), float16] span=from_string:15:302 */ = ones(shape=[1], dtype="float16") /* ty=Tensor[(1), float16] span=from_string:10:90 */;
  let %x_14: Tensor[(1), float16] /* ty=Tensor[(1), float16] span=from_string:12:99 */ = zeros_like(%x4) /* ty=Tensor[(1), float16] span=from_string:11:90 */;
  let %x_15: Tensor[(1), float16] /* ty=Tensor[(1), float16] span=from_string:14:94 */ = add(%x4, %x_14) /* ty=Tensor[(1), float16] span=from_string:12:90 */;
  let %x_16: Tensor[(1), float16] /* ty=Tensor[(1), float16] span=from_string:14:101 */ = zeros(shape=[1], dtype="float16") /* ty=Tensor[(1), float16] span=from_string:13:90 */;
  let %x_17: Tensor[(1), float16] /* ty=Tensor[(1), float16] span=from_string:15:385 */ = add(%x_15, %x_16) /* ty=Tensor[(1), float16] span=from_string:14:90 */;
  let %x_18: (Tensor[(1), float16], (float32, float32), float16, Tensor[(1), float16], Tensor[(1), int32], Tensor[(1), float16]) /* ty=(Tensor[(1), float16], (float32, float32), float16, Tensor[(1), float16], Tensor[(1), int32], Tensor[(1), float16]) span=from_string:16:281 */ = (%x_3, %x_6, %x_11, %x_12, meta[relay.Constant][0] /* ty=Tensor[(1), int32] span=from_string:15:314 */, %x_17) /* ty=(Tensor[(1), float16], (float32, float32), float16, Tensor[(1), float16], Tensor[(1), int32], Tensor[(1), float16]) span=from_string:15:282 */;
  let %x_19: (Tensor[(1), float16], (float32, float32), float16, Tensor[(1), float16], Tensor[(1), int32], Tensor[(1), float16]) /* ty=(Tensor[(1), float16], (float32, float32), float16, Tensor[(1), float16], Tensor[(1), int32], Tensor[(1), float16]) span=from_string:17:3 */ = %x_18;
  %x_19
}

#[metadata]
{
  "root": 1, 
  "nodes": [
    {
      "type_key": ""
    }, 
    {
      "type_key": "Map", 
      "keys": [
        "relay.Constant"
      ], 
      "data": [2]
    }, 
    {
      "type_key": "Array", 
      "data": [3]
    }, 
    {
      "type_key": "relay.Constant", 
      "attrs": {
        "_checked_type_": "8", 
        "data": "0", 
        "span": "6", 
        "virtual_device_": "4"
      }
    }, 
    {
      "type_key": "VirtualDevice", 
      "attrs": {
        "device_type_int": "-1", 
        "memory_scope": "5", 
        "target": "0", 
        "virtual_device_id": "-1"
      }
    }, 
    {
      "type_key": "runtime.String"
    }, 
    {
      "type_key": "Span", 
      "attrs": {
        "column": "314", 
        "end_column": "332", 
        "end_line": "15", 
        "line": "15", 
        "source_name": "7"
      }
    }, 
    {
      "type_key": "SourceName", 
      "repr_str": "from_string"
    }, 
    {
      "type_key": "relay.TensorType", 
      "attrs": {
        "dtype": "int32", 
        "shape": "9", 
        "span": "11"
      }
    }, 
    {
      "type_key": "Array", 
      "data": [10]
    }, 
    {
      "type_key": "IntImm", 
      "attrs": {
        "dtype": "int32", 
        "span": "0", 
        "value": "1"
      }
    }, 
    {
      "type_key": "Span", 
      "attrs": {
        "column": "222", 
        "end_column": "242", 
        "end_line": "2", 
        "line": "2", 
        "source_name": "7"
      }
    }
  ], 
  "b64ndarrays": [
    "P6G0lvBAXt0AAAAAAAAAAAEAAAAAAAAAAQAAAAAgAQABAAAAAAAAAAQAAAAAAAAAAQAAAA=="
  ], 
  "attrs": {"tvm_version": "0.13.0"}
}