#[version = "0.0.5"]
def @main(%x0: Tensor[(1), float32] /* ty=Tensor[(1), float32] span=from_string:26:57 */, %x1: float32 /* ty=float32 span=from_string:53:16 */) -> (Tensor[(1), float16], (float32, float32), float16, Tensor[(1), float16], Tensor[(1), int32], Tensor[(1), float16]) {
  let %x_0 = fn (Primitive=1) -> Tensor[(1), float16] {
    ones(shape=[1], dtype="float16") /* ty=Tensor[(1), float16] span=from_string:4:5 */
  } /* ty=fn () -> Tensor[(1), float16] span=from_string:51:9 */;
  let %x_1 = %x_0();
  let %x_2 = 2f /* ty=float32 span=from_string:52:12 */;
  let %x_3 = 4f /* ty=float32 span=from_string:52:56 */;
  let %x_4 = (%x_2, %x_3) /* ty=(float32, float32) span=from_string:56:9 */;
  let %x_5 = 2f /* ty=float32 span=from_string:11:13 */;
  let %x_6 = fn (%p01: float32 /* ty=float32 span=from_string:7:15 */, %p11: float32 /* ty=float32 span=from_string:8:15 */, Primitive=1) -> float16 {
    %0 = cast(%p01, dtype="float16") /* ty=float16 span=from_string:9:14 */;
    %1 = cast(%p11, dtype="float16") /* ty=float16 span=from_string:9:18 */;
    subtract(%0, %1) /* ty=float16 span=from_string:7:5 */
  } /* ty=fn (float32, float32) -> float16 span=from_string:11:8 */;
  let %x_7 = %x_6(%x_5, %x1);
  let %x_8 = cast(%x_7, dtype="float32");
  let %x_9 = fn (%p02: float32 /* ty=float32 span=from_string:14:15 */, %p12: float32 /* ty=float32 span=from_string:15:15 */, Primitive=1) -> float16 {
    %2 = cast(%p02, dtype="float16") /* ty=float16 span=from_string:16:15 */;
    %3 = cast(%p12, dtype="float16") /* ty=float16 span=from_string:16:19 */;
    multiply(%2, %3) /* ty=float16 span=from_string:14:5 */
  } /* ty=fn (float32, float32) -> float16 span=from_string:53:9 */;
  let %x_10 = %x_9(%x_8, %x1);
  let %x_11 = fn (Primitive=1) -> Tensor[(1), float16] {
    ones(shape=[1], dtype="float16") /* ty=Tensor[(1), float16] span=from_string:19:5 */
  } /* ty=fn () -> Tensor[(1), float16] span=from_string:54:9 */;
  let %x_12 = %x_11();
  let %x_13 = meta[relay.Constant][0] /* ty=Tensor[(1), int32] span=from_string:56:29 */;
  let %x_14 = 2f /* ty=float32 span=from_string:26:15 */;
  let %x_15 = fn (%p0: float32 /* ty=float32 span=from_string:22:16 */, %p1: Tensor[(1), float32] /* ty=Tensor[(1), float32] span=from_string:23:16 */, Primitive=1) -> Tensor[(1), float16] {
    %4 = cast(%p0, dtype="float16") /* ty=float16 span=from_string:24:9 */;
    %5 = cast(%p1, dtype="float16") /* ty=Tensor[(1), float16] span=from_string:24:14 */;
    add(%4, %5) /* ty=Tensor[(1), float16] span=from_string:22:5 */
  } /* ty=fn (float32, Tensor[(1), float32]) -> Tensor[(1), float16] span=from_string:26:9 */;
  let %x_16 = %x_15(%x_14, %x0);
  let %x_17 = cast(%x_16, dtype="float32");
  let %x_18 = fn (%p03: Tensor[(1), float32] /* ty=Tensor[(1), float32] span=from_string:29:16 */, Primitive=1) -> Tensor[(1), float16] {
    %6 = cast(%p03, dtype="float16") /* ty=Tensor[(1), float16] span=from_string:30:16 */;
    zeros_like(%6) /* ty=Tensor[(1), float16] span=from_string:29:5 */
  } /* ty=fn (Tensor[(1), float32]) -> Tensor[(1), float16] span=from_string:32:9 */;
  let %x_19 = %x_18(%x_17);
  let %x_20 = cast(%x_19, dtype="float32");
  let %x_21 = fn (%p04: Tensor[(1), float32] /* ty=Tensor[(1), float32] span=from_string:35:16 */, %p13: Tensor[(1), float32] /* ty=Tensor[(1), float32] span=from_string:36:16 */, Primitive=1) -> Tensor[(1), float16] {
    %7 = cast(%p04, dtype="float16") /* ty=Tensor[(1), float16] span=from_string:37:9 */;
    %8 = cast(%p13, dtype="float16") /* ty=Tensor[(1), float16] span=from_string:37:14 */;
    add(%7, %8) /* ty=Tensor[(1), float16] span=from_string:35:5 */
  } /* ty=fn (Tensor[(1), float32], Tensor[(1), float32]) -> Tensor[(1), float16] span=from_string:39:9 */;
  let %x_22 = %x_21(%x_17, %x_20);
  let %x_23 = cast(%x_22, dtype="float32");
  let %x_24 = fn (Primitive=1) -> Tensor[(1), float16] {
    zeros(shape=[1], dtype="float16") /* ty=Tensor[(1), float16] span=from_string:41:5 */
  } /* ty=fn () -> Tensor[(1), float16] span=from_string:43:9 */;
  let %x_25 = %x_24();
  let %x_26 = cast(%x_25, dtype="float32");
  let %x_27 = fn (%p05: Tensor[(1), float32] /* ty=Tensor[(1), float32] span=from_string:47:16 */, %p14: Tensor[(1), float32] /* ty=Tensor[(1), float32] span=from_string:48:16 */, Primitive=1) -> Tensor[(1), float16] {
    %9 = cast(%p05, dtype="float16") /* ty=Tensor[(1), float16] span=from_string:49:9 */;
    %10 = cast(%p14, dtype="float16") /* ty=Tensor[(1), float16] span=from_string:49:14 */;
    add(%9, %10) /* ty=Tensor[(1), float16] span=from_string:47:5 */
  } /* ty=fn (Tensor[(1), float32], Tensor[(1), float32]) -> Tensor[(1), float16] span=from_string:55:9 */;
  let %x_28 = %x_27(%x_23, %x_26);
  let %x_29 = (%x_1, %x_4, %x_10, %x_12, %x_13, %x_28) /* ty=(Tensor[(1), float16], (float32, float32), float16, Tensor[(1), float16], Tensor[(1), int32], Tensor[(1), float16]) span=from_string:3:3 */;
  %x_29
}

#[metadata]
{
  "root": 1, 
  "nodes": [
    {
      "type_key": ""
    }, 
    {
      "type_key": "Map", 
      "keys": [
        "relay.Constant"
      ], 
      "data": [2]
    }, 
    {
      "type_key": "Array", 
      "data": [3]
    }, 
    {
      "type_key": "relay.Constant", 
      "attrs": {
        "_checked_type_": "8", 
        "data": "0", 
        "span": "6", 
        "virtual_device_": "4"
      }
    }, 
    {
      "type_key": "VirtualDevice", 
      "attrs": {
        "device_type_int": "-1", 
        "memory_scope": "5", 
        "target": "0", 
        "virtual_device_id": "-1"
      }
    }, 
    {
      "type_key": "runtime.String"
    }, 
    {
      "type_key": "Span", 
      "attrs": {
        "column": "29", 
        "end_column": "47", 
        "end_line": "56", 
        "line": "56", 
        "source_name": "7"
      }
    }, 
    {
      "type_key": "SourceName", 
      "repr_str": "from_string"
    }, 
    {
      "type_key": "relay.TensorType", 
      "attrs": {
        "dtype": "int32", 
        "shape": "9", 
        "span": "11"
      }
    }, 
    {
      "type_key": "Array", 
      "data": [10]
    }, 
    {
      "type_key": "IntImm", 
      "attrs": {
        "dtype": "int32", 
        "span": "0", 
        "value": "1"
      }
    }, 
    {
      "type_key": "Span", 
      "attrs": {
        "column": "223", 
        "end_column": "243", 
        "end_line": "2", 
        "line": "2", 
        "source_name": "7"
      }
    }
  ], 
  "b64ndarrays": [
    "P6G0lvBAXt0AAAAAAAAAAAEAAAAAAAAAAQAAAAAgAQABAAAAAAAAAAQAAAAAAAAAAQAAAA=="
  ], 
  "attrs": {"tvm_version": "0.13.0"}
}