#[version = "0.0.5"]
def @main(%x0: Tensor[(1, 5, 5, 4), float32] /* ty=Tensor[(1, 5, 5, 4), float32] span=from_string:6:115 */, %x1: Tensor[(1, 5, 5, 62), float32] /* ty=Tensor[(1, 5, 5, 62), float32] span=from_string:16:251 */, %x2: Tensor[(1, 5, 5, 36), float32] /* ty=Tensor[(1, 5, 5, 36), float32] span=from_string:16:256 */, %x3: Tensor[(5, 5, 4), float32] /* ty=Tensor[(5, 5, 4), float32] */, %x4: Tensor[(4, 5, 1, 1), float32] /* ty=Tensor[(4, 5, 1, 1), float32] */) -> (Tensor[(1, 5, 5, 4), float32], Tensor[(1, 5, 5, 102), float32], Tensor[(1, 5, 5, 4), float32], int32, Tensor[(5, 5, 4), float32], int32) {
  %0 = fn (%p0: Tensor[(1, 5, 5, 4), float32] /* ty=Tensor[(1, 5, 5, 4), float32] span=from_string:4:9 */, %p1: float32 /* ty=float32 span=from_string:4:14 */, Primitive=1) -> Tensor[(1, 5, 5, 4), float32] {
    add(%p0, %p1) /* ty=Tensor[(1, 5, 5, 4), float32] span=from_string:4:5 */
  } /* ty=fn (Tensor[(1, 5, 5, 4), float32], float32) -> Tensor[(1, 5, 5, 4), float32] span=from_string:6:112 */;
  let %x_1: Tensor[(1, 5, 5, 4), float32] /* ty=Tensor[(1, 5, 5, 4), float32] span=from_string:11:115 */ = %0(%x0, 1f /* ty=float32 span=from_string:6:122 */) /* ty=Tensor[(1, 5, 5, 4), float32] span=from_string:6:112 */;
  let %x_3: Tensor[(1, 5, 5, 4), float32] /* ty=Tensor[(1, 5, 5, 4), float32] span=from_string:24:109 */ = %x_1;
  %1 = fn (%p01: Tensor[(1, 5, 5, 4), float32] /* ty=Tensor[(1, 5, 5, 4), float32] span=from_string:9:14 */, Primitive=1) -> Tensor[(1, 5, 5, 4), float32] {
    fast_exp(%p01) /* ty=Tensor[(1, 5, 5, 4), float32] span=from_string:9:5 */
  } /* ty=fn (Tensor[(1, 5, 5, 4), float32]) -> Tensor[(1, 5, 5, 4), float32] span=from_string:11:112 */;
  let %x_2: Tensor[(1, 5, 5, 4), float32] /* ty=Tensor[(1, 5, 5, 4), float32] span=from_string:61:332 */ = %1(%x_1) /* ty=Tensor[(1, 5, 5, 4), float32] span=from_string:11:112 */;
  %2 = fn (%p02: Tensor[(1, 5, 5, 4), float32] /* ty=Tensor[(1, 5, 5, 4), float32] span=from_string:13:14 */, Primitive=1) -> Tensor[(1, 5, 5, 4), float32] {
    fast_exp(%p02) /* ty=Tensor[(1, 5, 5, 4), float32] span=from_string:13:5 */
  } /* ty=fn (Tensor[(1, 5, 5, 4), float32]) -> Tensor[(1, 5, 5, 4), float32] span=from_string:15:112 */;
  let %x_4: Tensor[(1, 5, 5, 4), float32] /* ty=Tensor[(1, 5, 5, 4), float32] span=from_string:40:116 */ = %2(%x_3) /* ty=Tensor[(1, 5, 5, 4), float32] span=from_string:15:112 */;
  let %x_5: (Tensor[(1, 5, 5, 4), float32], Tensor[(1, 5, 5, 62), float32], Tensor[(1, 5, 5, 36), float32]) /* ty=(Tensor[(1, 5, 5, 4), float32], Tensor[(1, 5, 5, 62), float32], Tensor[(1, 5, 5, 36), float32]) span=from_string:20:119 */ = (%x_4, %x1, %x2) /* ty=(Tensor[(1, 5, 5, 4), float32], Tensor[(1, 5, 5, 62), float32], Tensor[(1, 5, 5, 36), float32]) span=from_string:16:244 */;
  %3 = fn (%p03: (Tensor[(1, 5, 5, 4), float32], Tensor[(1, 5, 5, 62), float32], Tensor[(1, 5, 5, 36), float32]) /* ty=(Tensor[(1, 5, 5, 4), float32], Tensor[(1, 5, 5, 62), float32], Tensor[(1, 5, 5, 36), float32]) span=from_string:18:17 */, Primitive=1) -> Tensor[(1, 5, 5, 102), float32] {
    concatenate(%p03, axis=3) /* ty=Tensor[(1, 5, 5, 102), float32] span=from_string:18:5 */
  } /* ty=fn ((Tensor[(1, 5, 5, 4), float32], Tensor[(1, 5, 5, 62), float32], Tensor[(1, 5, 5, 36), float32])) -> Tensor[(1, 5, 5, 102), float32] span=from_string:20:116 */;
  let %x_6: Tensor[(1, 5, 5, 102), float32] /* ty=Tensor[(1, 5, 5, 102), float32] span=from_string:61:338 */ = %3(%x_5) /* ty=Tensor[(1, 5, 5, 102), float32] span=from_string:20:116 */;
  %4 = fn (%p04: Tensor[(1, 5, 5, 4), float32] /* ty=Tensor[(1, 5, 5, 4), float32] span=from_string:22:13 */, Primitive=1, relay.reshape_only=1) -> Tensor[(5, 5, 4), float32] {
    reshape(%p04, newshape=[5, 5, 4]) /* ty=Tensor[(5, 5, 4), float32] span=from_string:22:5 */
  } /* ty=fn (Tensor[(1, 5, 5, 4), float32]) -> Tensor[(5, 5, 4), float32] span=from_string:24:106 */;
  let %x_7: Tensor[(5, 5, 4), float32] /* ty=Tensor[(5, 5, 4), float32] span=from_string:28:115 */ = %4(%x_3) /* ty=Tensor[(5, 5, 4), float32] span=from_string:24:106 */;
  %5 = fn (%p05: Tensor[(5, 5, 4), float32] /* ty=Tensor[(5, 5, 4), float32] span=from_string:26:13 */, Primitive=1, relay.reshape_only=1) -> Tensor[(1, 5, 5, 4), float32] {
    reshape(%p05, newshape=[1, 5, 5, 4]) /* ty=Tensor[(1, 5, 5, 4), float32] span=from_string:26:5 */
  } /* ty=fn (Tensor[(5, 5, 4), float32]) -> Tensor[(1, 5, 5, 4), float32] span=from_string:28:112 */;
  let %x_8: Tensor[(1, 5, 5, 4), float32] /* ty=Tensor[(1, 5, 5, 4), float32] span=from_string:32:109 */ = %5(%x_7) /* ty=Tensor[(1, 5, 5, 4), float32] span=from_string:28:112 */;
  %6 = fn (%p06: Tensor[(1, 5, 5, 4), float32] /* ty=Tensor[(1, 5, 5, 4), float32] span=from_string:30:13 */, Primitive=1, relay.reshape_only=1) -> Tensor[(5, 5, 4), float32] {
    reshape(%p06, newshape=[5, 5, 4]) /* ty=Tensor[(5, 5, 4), float32] span=from_string:30:5 */
  } /* ty=fn (Tensor[(1, 5, 5, 4), float32]) -> Tensor[(5, 5, 4), float32] span=from_string:32:106 */;
  let %x_9: Tensor[(5, 5, 4), float32] /* ty=Tensor[(5, 5, 4), float32] span=from_string:36:116 */ = %6(%x_8) /* ty=Tensor[(5, 5, 4), float32] span=from_string:32:106 */;
  %7 = fn (%p07: Tensor[(5, 5, 4), float32] /* ty=Tensor[(5, 5, 4), float32] span=from_string:34:13 */, Primitive=1, relay.reshape_only=1) -> Tensor[(1, 5, 5, 4), float32] {
    reshape(%p07, newshape=[1, 5, 5, 4]) /* ty=Tensor[(1, 5, 5, 4), float32] span=from_string:34:5 */
  } /* ty=fn (Tensor[(5, 5, 4), float32]) -> Tensor[(1, 5, 5, 4), float32] span=from_string:36:113 */;
  let %x_10: Tensor[(1, 5, 5, 4), float32] /* ty=Tensor[(1, 5, 5, 4), float32] span=from_string:61:344 */ = %7(%x_9) /* ty=Tensor[(1, 5, 5, 4), float32] span=from_string:36:113 */;
  %8 = fn (%p08: Tensor[(1, 5, 5, 4), float32] /* ty=Tensor[(1, 5, 5, 4), float32] span=from_string:38:22 */, Primitive=1) -> Tensor[(1, 5, 4, 5), float32] {
    layout_transform(%p08, src_layout="NCHW", dst_layout="NHWC") /* ty=Tensor[(1, 5, 4, 5), float32] span=from_string:38:5 */
  } /* ty=fn (Tensor[(1, 5, 5, 4), float32]) -> Tensor[(1, 5, 4, 5), float32] span=from_string:40:113 */;
  let %x_12: Tensor[(1, 5, 4, 5), float32] /* ty=Tensor[(1, 5, 4, 5), float32] span=from_string:44:116 */ = %8(%x_4) /* ty=Tensor[(1, 5, 4, 5), float32] span=from_string:40:113 */;
  %9 = fn (%p09: Tensor[(1, 5, 4, 5), float32] /* ty=Tensor[(1, 5, 4, 5), float32] span=from_string:42:22 */, Primitive=1) -> Tensor[(5, 5, 4, 1), float32] {
    layout_transform(%p09, src_layout="NHWC", dst_layout="CHWN") /* ty=Tensor[(5, 5, 4, 1), float32] span=from_string:42:5 */
  } /* ty=fn (Tensor[(1, 5, 4, 5), float32]) -> Tensor[(5, 5, 4, 1), float32] span=from_string:44:113 */;
  let %x_13: Tensor[(5, 5, 4, 1), float32] /* ty=Tensor[(5, 5, 4, 1), float32] span=from_string:48:117 */ = %9(%x_12) /* ty=Tensor[(5, 5, 4, 1), float32] span=from_string:44:113 */;
  %10 = fn (%p010: Tensor[(5, 5, 4, 1), float32] /* ty=Tensor[(5, 5, 4, 1), float32] span=from_string:46:13 */, Primitive=1) -> Tensor[(5, 5, 4, 1), float32] {
    nn.relu(%p010) /* ty=Tensor[(5, 5, 4, 1), float32] span=from_string:46:5 */
  } /* ty=fn (Tensor[(5, 5, 4, 1), float32]) -> Tensor[(5, 5, 4, 1), float32] span=from_string:48:113 */;
  let %x_14: Tensor[(5, 5, 4, 1), float32] /* ty=Tensor[(5, 5, 4, 1), float32] span=from_string:52:117 */ = %10(%x_13) /* ty=Tensor[(5, 5, 4, 1), float32] span=from_string:48:113 */;
  %11 = fn (%p011: Tensor[(5, 5, 4, 1), float32] /* ty=Tensor[(5, 5, 4, 1), float32] span=from_string:50:9 */, %p11: float32 /* ty=float32 span=from_string:50:16 */, Primitive=1) -> Tensor[(5, 5, 4, 1), float32] {
    add(%p011, %p11) /* ty=Tensor[(5, 5, 4, 1), float32] span=from_string:50:5 */
  } /* ty=fn (Tensor[(5, 5, 4, 1), float32], float32) -> Tensor[(5, 5, 4, 1), float32] span=from_string:52:113 */;
  let %x_16: Tensor[(5, 5, 4, 1), float32] /* ty=Tensor[(5, 5, 4, 1), float32] span=from_string:56:117 */ = %11(%x_14, 1f /* ty=float32 span=from_string:52:126 */) /* ty=Tensor[(5, 5, 4, 1), float32] span=from_string:52:113 */;
  %12 = fn (%p012: Tensor[(5, 5, 4, 1), float32] /* ty=Tensor[(5, 5, 4, 1), float32] span=from_string:54:14 */, Primitive=1) -> Tensor[(5, 5, 4, 1), float32] {
    fast_exp(%p012) /* ty=Tensor[(5, 5, 4, 1), float32] span=from_string:54:5 */
  } /* ty=fn (Tensor[(5, 5, 4, 1), float32]) -> Tensor[(5, 5, 4, 1), float32] span=from_string:56:113 */;
  let %x_17: Tensor[(5, 5, 4, 1), float32] /* ty=Tensor[(5, 5, 4, 1), float32] span=from_string:60:111 */ = %12(%x_16) /* ty=Tensor[(5, 5, 4, 1), float32] span=from_string:56:113 */;
  %13 = fn (%p013: Tensor[(5, 5, 4, 1), float32] /* ty=Tensor[(5, 5, 4, 1), float32] span=from_string:58:13 */, Primitive=1, relay.reshape_only=1) -> Tensor[(5, 5, 4), float32] {
    squeeze(%p013) /* ty=Tensor[(5, 5, 4), float32] span=from_string:58:5 */
  } /* ty=fn (Tensor[(5, 5, 4, 1), float32]) -> Tensor[(5, 5, 4), float32] span=from_string:60:107 */;
  let %x_18: Tensor[(5, 5, 4), float32] /* ty=Tensor[(5, 5, 4), float32] span=from_string:61:398 */ = %13(%x_17) /* ty=Tensor[(5, 5, 4), float32] span=from_string:60:107 */;
  let %x_20: (Tensor[(1, 5, 5, 4), float32], Tensor[(1, 5, 5, 102), float32], Tensor[(1, 5, 5, 4), float32], int32, Tensor[(5, 5, 4), float32], int32) /* ty=(Tensor[(1, 5, 5, 4), float32], Tensor[(1, 5, 5, 102), float32], Tensor[(1, 5, 5, 4), float32], int32, Tensor[(5, 5, 4), float32], int32) span=from_string:62:3 */ = (%x_2, %x_6, %x_10, 20 /* ty=int32 span=from_string:61:353 */, %x_18, 2 /* ty=int32 span=from_string:61:406 */) /* ty=(Tensor[(1, 5, 5, 4), float32], Tensor[(1, 5, 5, 102), float32], Tensor[(1, 5, 5, 4), float32], int32, Tensor[(5, 5, 4), float32], int32) span=from_string:61:331 */;
  %x_20
}
