#[version = "0.0.5"]
def @main(%x0: Tensor[(1, 5, 5, 4), float32] /* ty=Tensor[(1, 5, 5, 4), float32] span=from_string:7:111 */, %x1: Tensor[(1, 5, 5, 62), float32] /* ty=Tensor[(1, 5, 5, 62), float32] span=from_string:35:247 */, %x2: Tensor[(1, 5, 5, 36), float32] /* ty=Tensor[(1, 5, 5, 36), float32] span=from_string:35:252 */, %x3: Tensor[(5, 5, 4), float32] /* ty=Tensor[(5, 5, 4), float32] */, %x4: Tensor[(4, 5, 1, 1), float32] /* ty=Tensor[(4, 5, 1, 1), float32] */) -> (Tensor[(1, 5, 5, 4), float32], Tensor[(1, 5, 5, 102), float16], Tensor[(1, 5, 5, 4), float16], int32, Tensor[(5, 5, 4), float16], int32) {
  %1 = fn (%p0: Tensor[(1, 5, 5, 4), float32] /* ty=Tensor[(1, 5, 5, 4), float32] span=from_string:4:15 */, Primitive=1) -> Tensor[(1, 5, 5, 4), float16] {
    %0 = cast(%p0, dtype="float16") /* ty=Tensor[(1, 5, 5, 4), float16] span=from_string:5:10 */;
    cast(%0, dtype="float16") /* ty=Tensor[(1, 5, 5, 4), float16] span=from_string:4:5 */
  } /* ty=fn (Tensor[(1, 5, 5, 4), float32]) -> Tensor[(1, 5, 5, 4), float16] span=from_string:7:108 */;
  let %x_0: Tensor[(1, 5, 5, 4), float16] /* ty=Tensor[(1, 5, 5, 4), float16] span=from_string:17:111 */ = %1(%x0);
  let %x_1: float32 /* ty=float32 span=from_string:13:67 */ = 1f /* ty=float32 span=from_string:8:65 */;
  %3 = fn (%p01: float32 /* ty=float32 span=from_string:10:15 */, Primitive=1) -> float16 {
    %2 = cast(%p01, dtype="float16") /* ty=float16 span=from_string:11:10 */;
    cast(%2, dtype="float16") /* ty=float16 span=from_string:10:5 */
  } /* ty=fn (float32) -> float16 span=from_string:13:64 */;
  let %x_2: float16 /* ty=float16 span=from_string:17:117 */ = %3(%x_1);
  %4 = fn (%p02: Tensor[(1, 5, 5, 4), float16] /* ty=Tensor[(1, 5, 5, 4), float16] span=from_string:15:9 */, %p1: float16 /* ty=float16 span=from_string:15:15 */, Primitive=1) -> Tensor[(1, 5, 5, 4), float16] {
    add(%p02, %p1) /* ty=Tensor[(1, 5, 5, 4), float16] span=from_string:15:5 */
  } /* ty=fn (Tensor[(1, 5, 5, 4), float16], float16) -> Tensor[(1, 5, 5, 4), float16] span=from_string:17:108 */;
  let %x_3: Tensor[(1, 5, 5, 4), float16] /* ty=Tensor[(1, 5, 5, 4), float16] span=from_string:26:108 */ = %4(%x_0, %x_2);
  let %x_6: Tensor[(1, 5, 5, 4), float16] /* ty=Tensor[(1, 5, 5, 4), float16] span=from_string:50:107 */ = %x_3;
  %5 = fn (%p03: Tensor[(1, 5, 5, 4), float16] /* ty=Tensor[(1, 5, 5, 4), float16] span=from_string:19:10 */, Primitive=1) -> Tensor[(1, 5, 5, 4), float32] {
    cast(%p03, dtype="float32") /* ty=Tensor[(1, 5, 5, 4), float32] span=from_string:19:5 */
  } /* ty=fn (Tensor[(1, 5, 5, 4), float16]) -> Tensor[(1, 5, 5, 4), float32] span=from_string:21:108 */;
  let %x_4: Tensor[(1, 5, 5, 4), float32] /* ty=Tensor[(1, 5, 5, 4), float32] span=from_string:25:111 */ = %5(%x_3);
  %6 = fn (%p04: Tensor[(1, 5, 5, 4), float32] /* ty=Tensor[(1, 5, 5, 4), float32] span=from_string:23:9 */, Primitive=1) -> Tensor[(1, 5, 5, 4), float32] {
    exp(%p04) /* ty=Tensor[(1, 5, 5, 4), float32] span=from_string:23:5 */
  } /* ty=fn (Tensor[(1, 5, 5, 4), float32]) -> Tensor[(1, 5, 5, 4), float32] span=from_string:25:108 */;
  let %x_5: Tensor[(1, 5, 5, 4), float32] /* ty=Tensor[(1, 5, 5, 4), float32] span=from_string:94:328 */ = %6(%x_4);
  %7 = fn (%p05: Tensor[(1, 5, 5, 4), float16] /* ty=Tensor[(1, 5, 5, 4), float16] span=from_string:28:10 */, Primitive=1) -> Tensor[(1, 5, 5, 4), float32] {
    cast(%p05, dtype="float32") /* ty=Tensor[(1, 5, 5, 4), float32] span=from_string:28:5 */
  } /* ty=fn (Tensor[(1, 5, 5, 4), float16]) -> Tensor[(1, 5, 5, 4), float32] span=from_string:30:108 */;
  let %x_7: Tensor[(1, 5, 5, 4), float32] /* ty=Tensor[(1, 5, 5, 4), float32] span=from_string:34:111 */ = %7(%x_6);
  %8 = fn (%p06: Tensor[(1, 5, 5, 4), float32] /* ty=Tensor[(1, 5, 5, 4), float32] span=from_string:32:9 */, Primitive=1) -> Tensor[(1, 5, 5, 4), float32] {
    exp(%p06) /* ty=Tensor[(1, 5, 5, 4), float32] span=from_string:32:5 */
  } /* ty=fn (Tensor[(1, 5, 5, 4), float32]) -> Tensor[(1, 5, 5, 4), float32] span=from_string:34:108 */;
  let %x_8: Tensor[(1, 5, 5, 4), float32] /* ty=Tensor[(1, 5, 5, 4), float32] span=from_string:68:113 */ = %8(%x_7);
  let %x_9: (Tensor[(1, 5, 5, 4), float32], Tensor[(1, 5, 5, 62), float32], Tensor[(1, 5, 5, 36), float32]) /* ty=(Tensor[(1, 5, 5, 4), float32], Tensor[(1, 5, 5, 62), float32], Tensor[(1, 5, 5, 36), float32]) span=from_string:46:117 */ = (%x_8, %x1, %x2) /* ty=(Tensor[(1, 5, 5, 4), float32], Tensor[(1, 5, 5, 62), float32], Tensor[(1, 5, 5, 36), float32]) span=from_string:35:240 */;
  %16 = fn (%p07: (Tensor[(1, 5, 5, 4), float32], Tensor[(1, 5, 5, 62), float32], Tensor[(1, 5, 5, 36), float32]) /* ty=(Tensor[(1, 5, 5, 4), float32], Tensor[(1, 5, 5, 62), float32], Tensor[(1, 5, 5, 36), float32]) span=from_string:39:11 */, Primitive=1) -> Tensor[(1, 5, 5, 102), float16] {
    %9 = %p07.0 /* ty=Tensor[(1, 5, 5, 4), float32] span=from_string:40:16 */;
    %10 = %p07.1 /* ty=Tensor[(1, 5, 5, 62), float32] span=from_string:41:16 */;
    %11 = %p07.2 /* ty=Tensor[(1, 5, 5, 36), float32] span=from_string:42:16 */;
    %12 = cast(%9, dtype="float16") /* ty=Tensor[(1, 5, 5, 4), float16] span=from_string:43:12 */;
    %13 = cast(%10, dtype="float16") /* ty=Tensor[(1, 5, 5, 62), float16] span=from_string:43:17 */;
    %14 = cast(%11, dtype="float16") /* ty=Tensor[(1, 5, 5, 36), float16] span=from_string:43:22 */;
    %15 = (%12, %13, %14) /* ty=(Tensor[(1, 5, 5, 4), float16], Tensor[(1, 5, 5, 62), float16], Tensor[(1, 5, 5, 36), float16]) span=from_string:44:17 */;
    concatenate(%15, axis=3) /* ty=Tensor[(1, 5, 5, 102), float16] span=from_string:37:5 */
  } /* ty=fn ((Tensor[(1, 5, 5, 4), float32], Tensor[(1, 5, 5, 62), float32], Tensor[(1, 5, 5, 36), float32])) -> Tensor[(1, 5, 5, 102), float16] span=from_string:46:113 */;
  let %x_10: Tensor[(1, 5, 5, 102), float16] /* ty=Tensor[(1, 5, 5, 102), float16] span=from_string:94:334 */ = %16(%x_9);
  %17 = fn (%p08: Tensor[(1, 5, 5, 4), float16] /* ty=Tensor[(1, 5, 5, 4), float16] span=from_string:48:13 */, Primitive=1, relay.reshape_only=1) -> Tensor[(5, 5, 4), float16] {
    reshape(%p08, newshape=[5, 5, 4]) /* ty=Tensor[(5, 5, 4), float16] span=from_string:48:5 */
  } /* ty=fn (Tensor[(1, 5, 5, 4), float16]) -> Tensor[(5, 5, 4), float16] span=from_string:50:103 */;
  let %x_11: Tensor[(5, 5, 4), float16] /* ty=Tensor[(5, 5, 4), float16] span=from_string:54:113 */ = %17(%x_6);
  %18 = fn (%p09: Tensor[(5, 5, 4), float16] /* ty=Tensor[(5, 5, 4), float16] span=from_string:52:13 */, Primitive=1, relay.reshape_only=1) -> Tensor[(1, 5, 5, 4), float16] {
    reshape(%p09, newshape=[1, 5, 5, 4]) /* ty=Tensor[(1, 5, 5, 4), float16] span=from_string:52:5 */
  } /* ty=fn (Tensor[(5, 5, 4), float16]) -> Tensor[(1, 5, 5, 4), float16] span=from_string:54:109 */;
  let %x_12: Tensor[(1, 5, 5, 4), float16] /* ty=Tensor[(1, 5, 5, 4), float16] span=from_string:58:107 */ = %18(%x_11);
  %19 = fn (%p010: Tensor[(1, 5, 5, 4), float16] /* ty=Tensor[(1, 5, 5, 4), float16] span=from_string:56:13 */, Primitive=1, relay.reshape_only=1) -> Tensor[(5, 5, 4), float16] {
    reshape(%p010, newshape=[5, 5, 4]) /* ty=Tensor[(5, 5, 4), float16] span=from_string:56:5 */
  } /* ty=fn (Tensor[(1, 5, 5, 4), float16]) -> Tensor[(5, 5, 4), float16] span=from_string:58:103 */;
  let %x_13: Tensor[(5, 5, 4), float16] /* ty=Tensor[(5, 5, 4), float16] span=from_string:62:113 */ = %19(%x_12);
  %20 = fn (%p011: Tensor[(5, 5, 4), float16] /* ty=Tensor[(5, 5, 4), float16] span=from_string:60:13 */, Primitive=1, relay.reshape_only=1) -> Tensor[(1, 5, 5, 4), float16] {
    reshape(%p011, newshape=[1, 5, 5, 4]) /* ty=Tensor[(1, 5, 5, 4), float16] span=from_string:60:5 */
  } /* ty=fn (Tensor[(5, 5, 4), float16]) -> Tensor[(1, 5, 5, 4), float16] span=from_string:62:109 */;
  let %x_14: Tensor[(1, 5, 5, 4), float16] /* ty=Tensor[(1, 5, 5, 4), float16] span=from_string:94:341 */ = %20(%x_13);
  let %x_15: int32 /* ty=int32 span=from_string:94:348 */ = 20 /* ty=int32 span=from_string:63:65 */;
  %22 = fn (%p012: Tensor[(1, 5, 5, 4), float32] /* ty=Tensor[(1, 5, 5, 4), float32] span=from_string:65:16 */, Primitive=1) -> Tensor[(1, 5, 4, 5), float16] {
    %21 = cast(%p012, dtype="float16") /* ty=Tensor[(1, 5, 5, 4), float16] span=from_string:66:22 */;
    layout_transform(%21, src_layout="NCHW", dst_layout="NHWC") /* ty=Tensor[(1, 5, 4, 5), float16] span=from_string:65:5 */
  } /* ty=fn (Tensor[(1, 5, 5, 4), float32]) -> Tensor[(1, 5, 4, 5), float16] span=from_string:68:109 */;
  let %x_16: Tensor[(1, 5, 4, 5), float16] /* ty=Tensor[(1, 5, 4, 5), float16] span=from_string:72:113 */ = %22(%x_8);
  %23 = fn (%p013: Tensor[(1, 5, 4, 5), float16] /* ty=Tensor[(1, 5, 4, 5), float16] span=from_string:70:22 */, Primitive=1) -> Tensor[(5, 5, 4, 1), float16] {
    layout_transform(%p013, src_layout="NHWC", dst_layout="CHWN") /* ty=Tensor[(5, 5, 4, 1), float16] span=from_string:70:5 */
  } /* ty=fn (Tensor[(1, 5, 4, 5), float16]) -> Tensor[(5, 5, 4, 1), float16] span=from_string:72:109 */;
  let %x_17: Tensor[(5, 5, 4, 1), float16] /* ty=Tensor[(5, 5, 4, 1), float16] span=from_string:76:113 */ = %23(%x_16);
  %24 = fn (%p014: Tensor[(5, 5, 4, 1), float16] /* ty=Tensor[(5, 5, 4, 1), float16] span=from_string:74:13 */, Primitive=1) -> Tensor[(5, 5, 4, 1), float16] {
    nn.relu(%p014) /* ty=Tensor[(5, 5, 4, 1), float16] span=from_string:74:5 */
  } /* ty=fn (Tensor[(5, 5, 4, 1), float16]) -> Tensor[(5, 5, 4, 1), float16] span=from_string:76:109 */;
  let %x_18: Tensor[(5, 5, 4, 1), float16] /* ty=Tensor[(5, 5, 4, 1), float16] span=from_string:82:120 */ = %24(%x_17);
  let %x_19: float32 /* ty=float32 span=from_string:82:113 */ = 1f /* ty=float32 span=from_string:77:67 */;
  %26 = fn (%p015: float32 /* ty=float32 span=from_string:79:16 */, %p11: Tensor[(5, 5, 4, 1), float16] /* ty=Tensor[(5, 5, 4, 1), float16] span=from_string:80:9 */, Primitive=1) -> Tensor[(5, 5, 4, 1), float16] {
    %25 = cast(%p015, dtype="float16") /* ty=float16 span=from_string:80:15 */;
    add(%p11, %25) /* ty=Tensor[(5, 5, 4, 1), float16] span=from_string:79:5 */
  } /* ty=fn (float32, Tensor[(5, 5, 4, 1), float16]) -> Tensor[(5, 5, 4, 1), float16] span=from_string:82:109 */;
  let %x_20: Tensor[(5, 5, 4, 1), float16] /* ty=Tensor[(5, 5, 4, 1), float16] span=from_string:87:113 */ = %26(%x_19, %x_18);
  %28 = fn (%p016: Tensor[(5, 5, 4, 1), float16] /* ty=Tensor[(5, 5, 4, 1), float16] span=from_string:84:16 */, Primitive=1) -> Tensor[(5, 5, 4, 1), float32] {
    %27 = cast(%p016, dtype="float32") /* ty=Tensor[(5, 5, 4, 1), float32] span=from_string:85:9 */;
    exp(%27) /* ty=Tensor[(5, 5, 4, 1), float32] span=from_string:84:5 */
  } /* ty=fn (Tensor[(5, 5, 4, 1), float16]) -> Tensor[(5, 5, 4, 1), float32] span=from_string:87:109 */;
  let %x_21: Tensor[(5, 5, 4, 1), float32] /* ty=Tensor[(5, 5, 4, 1), float32] span=from_string:92:107 */ = %28(%x_20);
  %30 = fn (%p017: Tensor[(5, 5, 4, 1), float32] /* ty=Tensor[(5, 5, 4, 1), float32] span=from_string:89:16 */, Primitive=1) -> Tensor[(5, 5, 4), float16] {
    %29 = cast(%p017, dtype="float16") /* ty=Tensor[(5, 5, 4, 1), float16] span=from_string:90:13 */;
    squeeze(%29) /* ty=Tensor[(5, 5, 4), float16] span=from_string:89:5 */
  } /* ty=fn (Tensor[(5, 5, 4, 1), float32]) -> Tensor[(5, 5, 4), float16] span=from_string:92:103 */;
  let %x_22: Tensor[(5, 5, 4), float16] /* ty=Tensor[(5, 5, 4), float16] span=from_string:94:355 */ = %30(%x_21);
  let %x_23: int32 /* ty=int32 span=from_string:94:362 */ = 2 /* ty=int32 span=from_string:93:64 */;
  let %x_24: (Tensor[(1, 5, 5, 4), float32], Tensor[(1, 5, 5, 102), float16], Tensor[(1, 5, 5, 4), float16], int32, Tensor[(5, 5, 4), float16], int32) /* ty=(Tensor[(1, 5, 5, 4), float32], Tensor[(1, 5, 5, 102), float16], Tensor[(1, 5, 5, 4), float16], int32, Tensor[(5, 5, 4), float16], int32) span=from_string:95:3 */ = (%x_5, %x_10, %x_14, %x_15, %x_22, %x_23) /* ty=(Tensor[(1, 5, 5, 4), float32], Tensor[(1, 5, 5, 102), float16], Tensor[(1, 5, 5, 4), float16], int32, Tensor[(5, 5, 4), float16], int32) span=from_string:94:327 */;
  %x_24
}
