#[version = "0.0.5"]
def @main(%x0: Tensor[(1, 5, 5, 4), float32] /* ty=Tensor[(1, 5, 5, 4), float32] span=from_string:4:20 */, %x1: Tensor[(1, 5, 5, 62), float32] /* ty=Tensor[(1, 5, 5, 62), float32] span=from_string:12:245 */, %x2: Tensor[(1, 5, 5, 36), float32] /* ty=Tensor[(1, 5, 5, 36), float32] span=from_string:12:250 */, %x3: Tensor[(5, 5, 4), float32] /* ty=Tensor[(5, 5, 4), float32] */, %x4: Tensor[(4, 5, 1, 1), float32] /* ty=Tensor[(4, 5, 1, 1), float32] */) -> (Tensor[(1, 5, 5, 4), float32], Tensor[(1, 5, 5, 102), float16], Tensor[(1, 5, 5, 4), float16], int32, Tensor[(5, 5, 4), float16], int32) {
  let %x_0: float32 /* ty=float32 span=from_string:5:19 */ = 1f /* ty=float32 span=from_string:3:64 */;
  let %x_01: Tensor[(1, 5, 5, 4), float16] /* ty=Tensor[(1, 5, 5, 4), float16] span=from_string:6:112 */ = cast(%x0, dtype="float16") /* ty=Tensor[(1, 5, 5, 4), float16] span=from_string:4:15 */;
  let %x_1: float16 /* ty=float16 span=from_string:6:119 */ = cast(%x_0, dtype="float16") /* ty=float16 span=from_string:5:14 */;
  let %x_11: Tensor[(1, 5, 5, 4), float16] /* ty=Tensor[(1, 5, 5, 4), float16] span=from_string:9:131 */ = add(%x_01, %x_1) /* ty=Tensor[(1, 5, 5, 4), float16] span=from_string:6:108 */;
  let %x_2: Tensor[(1, 5, 5, 4), float32] /* ty=Tensor[(1, 5, 5, 4), float32] span=from_string:8:113 */ = cast(%x_11, dtype="float32") /* ty=Tensor[(1, 5, 5, 4), float32] span=from_string:7:14 */;
  let %x_21: Tensor[(1, 5, 5, 4), float32] /* ty=Tensor[(1, 5, 5, 4), float32] span=from_string:38:328 */ = fast_exp(%x_2) /* ty=Tensor[(1, 5, 5, 4), float32] */;
  let %x_3: Tensor[(1, 5, 5, 4), float16] /* ty=Tensor[(1, 5, 5, 4), float16] span=from_string:21:111 */ = annotation.stop_fusion(%x_11) /* ty=Tensor[(1, 5, 5, 4), float16] span=from_string:9:108 */;
  let %x_31: Tensor[(1, 5, 5, 4), float32] /* ty=Tensor[(1, 5, 5, 4), float32] span=from_string:11:111 */ = cast(%x_3, dtype="float32") /* ty=Tensor[(1, 5, 5, 4), float32] span=from_string:10:15 */;
  let %x_4: Tensor[(1, 5, 5, 4), float32] /* ty=Tensor[(1, 5, 5, 4), float32] span=from_string:26:21 */ = fast_exp(%x_31) /* ty=Tensor[(1, 5, 5, 4), float32] */;
  let %x_5: (Tensor[(1, 5, 5, 4), float32], Tensor[(1, 5, 5, 62), float32], Tensor[(1, 5, 5, 36), float32]) /* ty=(Tensor[(1, 5, 5, 4), float32], Tensor[(1, 5, 5, 62), float32], Tensor[(1, 5, 5, 36), float32]) span=from_string:17:14 */ = (%x_4, %x1, %x2) /* ty=(Tensor[(1, 5, 5, 4), float32], Tensor[(1, 5, 5, 62), float32], Tensor[(1, 5, 5, 36), float32]) span=from_string:12:238 */;
  let %x_41: Tensor[(1, 5, 5, 4), float32] /* ty=Tensor[(1, 5, 5, 4), float32] span=from_string:14:20 */ = %x_5.0 /* ty=Tensor[(1, 5, 5, 4), float32] span=from_string:13:15 */;
  let %x_51: Tensor[(1, 5, 5, 4), float16] /* ty=Tensor[(1, 5, 5, 4), float16] span=from_string:19:16 */ = cast(%x_41, dtype="float16") /* ty=Tensor[(1, 5, 5, 4), float16] span=from_string:14:15 */;
  let %x_6: Tensor[(1, 5, 5, 62), float32] /* ty=Tensor[(1, 5, 5, 62), float32] span=from_string:16:19 */ = %x_5.1 /* ty=Tensor[(1, 5, 5, 62), float32] span=from_string:15:14 */;
  let %x_7: Tensor[(1, 5, 5, 62), float16] /* ty=Tensor[(1, 5, 5, 62), float16] span=from_string:19:23 */ = cast(%x_6, dtype="float16") /* ty=Tensor[(1, 5, 5, 62), float16] span=from_string:16:14 */;
  let %x_8: Tensor[(1, 5, 5, 36), float32] /* ty=Tensor[(1, 5, 5, 36), float32] span=from_string:18:19 */ = %x_5.2 /* ty=Tensor[(1, 5, 5, 36), float32] span=from_string:17:14 */;
  let %x_9: Tensor[(1, 5, 5, 36), float16] /* ty=Tensor[(1, 5, 5, 36), float16] span=from_string:19:29 */ = cast(%x_8, dtype="float16") /* ty=Tensor[(1, 5, 5, 36), float16] span=from_string:18:14 */;
  let %x_10: (Tensor[(1, 5, 5, 4), float16], Tensor[(1, 5, 5, 62), float16], Tensor[(1, 5, 5, 36), float16]) /* ty=(Tensor[(1, 5, 5, 4), float16], Tensor[(1, 5, 5, 62), float16], Tensor[(1, 5, 5, 36), float16]) span=from_string:20:125 */ = (%x_51, %x_7, %x_9) /* ty=(Tensor[(1, 5, 5, 4), float16], Tensor[(1, 5, 5, 62), float16], Tensor[(1, 5, 5, 36), float16]) span=from_string:19:15 */;
  let %x_61: Tensor[(1, 5, 5, 102), float16] /* ty=Tensor[(1, 5, 5, 102), float16] span=from_string:38:335 */ = concatenate(%x_10, axis=3) /* ty=Tensor[(1, 5, 5, 102), float16] span=from_string:20:113 */;
  let %x_71: Tensor[(5, 5, 4), float16] /* ty=Tensor[(5, 5, 4), float16] span=from_string:22:117 */ = reshape(%x_3, newshape=[5, 5, 4]) /* ty=Tensor[(5, 5, 4), float16] span=from_string:21:103 */;
  let %x_81: Tensor[(1, 5, 5, 4), float16] /* ty=Tensor[(1, 5, 5, 4), float16] span=from_string:23:111 */ = reshape(%x_71, newshape=[1, 5, 5, 4]) /* ty=Tensor[(1, 5, 5, 4), float16] span=from_string:22:109 */;
  let %x_91: Tensor[(5, 5, 4), float16] /* ty=Tensor[(5, 5, 4), float16] span=from_string:24:118 */ = reshape(%x_81, newshape=[5, 5, 4]) /* ty=Tensor[(5, 5, 4), float16] span=from_string:23:103 */;
  let %x_101: Tensor[(1, 5, 5, 4), float16] /* ty=Tensor[(1, 5, 5, 4), float16] span=from_string:38:342 */ = reshape(%x_91, newshape=[1, 5, 5, 4]) /* ty=Tensor[(1, 5, 5, 4), float16] span=from_string:24:110 */;
  let %x_111: int32 /* ty=int32 span=from_string:38:350 */ = 20 /* ty=int32 span=from_string:25:66 */;
  let %x_112: Tensor[(1, 5, 5, 4), float16] /* ty=Tensor[(1, 5, 5, 4), float16] span=from_string:27:126 */ = cast(%x_4, dtype="float16") /* ty=Tensor[(1, 5, 5, 4), float16] span=from_string:26:16 */;
  let %x_12: Tensor[(1, 5, 4, 5), float16] /* ty=Tensor[(1, 5, 4, 5), float16] span=from_string:28:126 */ = layout_transform(%x_112, src_layout="NCHW", dst_layout="NHWC") /* ty=Tensor[(1, 5, 4, 5), float16] span=from_string:27:109 */;
  let %x_13: Tensor[(5, 5, 4, 1), float16] /* ty=Tensor[(5, 5, 4, 1), float16] span=from_string:29:117 */ = layout_transform(%x_12, src_layout="NHWC", dst_layout="CHWN") /* ty=Tensor[(5, 5, 4, 1), float16] span=from_string:28:109 */;
  let %x_14: Tensor[(5, 5, 4, 1), float16] /* ty=Tensor[(5, 5, 4, 1), float16] span=from_string:32:112 */ = nn.relu(%x_13) /* ty=Tensor[(5, 5, 4, 1), float16] span=from_string:29:109 */;
  let %x_15: float32 /* ty=float32 span=from_string:31:21 */ = 1f /* ty=float32 span=from_string:30:66 */;
  let %x_121: float16 /* ty=float16 span=from_string:32:119 */ = cast(%x_15, dtype="float16") /* ty=float16 span=from_string:31:16 */;
  let %x_16: Tensor[(5, 5, 4, 1), float16] /* ty=Tensor[(5, 5, 4, 1), float16] span=from_string:33:21 */ = add(%x_14, %x_121) /* ty=Tensor[(5, 5, 4, 1), float16] span=from_string:32:108 */;
  let %x_131: Tensor[(5, 5, 4, 1), float32] /* ty=Tensor[(5, 5, 4, 1), float32] span=from_string:34:112 */ = cast(%x_16, dtype="float32") /* ty=Tensor[(5, 5, 4, 1), float32] span=from_string:33:16 */;
  let %x_17: Tensor[(5, 5, 4, 1), float32] /* ty=Tensor[(5, 5, 4, 1), float32] span=from_string:35:21 */ = fast_exp(%x_131) /* ty=Tensor[(5, 5, 4, 1), float32] */;
  let %x_141: Tensor[(5, 5, 4, 1), float16] /* ty=Tensor[(5, 5, 4, 1), float16] span=from_string:36:111 */ = cast(%x_17, dtype="float16") /* ty=Tensor[(5, 5, 4, 1), float16] span=from_string:35:16 */;
  let %x_18: Tensor[(5, 5, 4), float16] /* ty=Tensor[(5, 5, 4), float16] span=from_string:38:358 */ = squeeze(%x_141) /* ty=Tensor[(5, 5, 4), float16] span=from_string:36:103 */;
  let %x_19: int32 /* ty=int32 span=from_string:38:365 */ = 2 /* ty=int32 span=from_string:37:64 */;
  let %x_20: (Tensor[(1, 5, 5, 4), float32], Tensor[(1, 5, 5, 102), float16], Tensor[(1, 5, 5, 4), float16], int32, Tensor[(5, 5, 4), float16], int32) /* ty=(Tensor[(1, 5, 5, 4), float32], Tensor[(1, 5, 5, 102), float16], Tensor[(1, 5, 5, 4), float16], int32, Tensor[(5, 5, 4), float16], int32) span=from_string:39:16 */ = (%x_21, %x_61, %x_101, %x_111, %x_18, %x_19) /* ty=(Tensor[(1, 5, 5, 4), float32], Tensor[(1, 5, 5, 102), float16], Tensor[(1, 5, 5, 4), float16], int32, Tensor[(5, 5, 4), float16], int32) span=from_string:38:327 */;
  let %x_151: (Tensor[(1, 5, 5, 4), float32], Tensor[(1, 5, 5, 102), float16], Tensor[(1, 5, 5, 4), float16], int32, Tensor[(5, 5, 4), float16], int32) /* ty=(Tensor[(1, 5, 5, 4), float32], Tensor[(1, 5, 5, 102), float16], Tensor[(1, 5, 5, 4), float16], int32, Tensor[(5, 5, 4), float16], int32) span=from_string:40:16 */ = %x_20;
  let %x_161: (Tensor[(1, 5, 5, 4), float32], Tensor[(1, 5, 5, 102), float16], Tensor[(1, 5, 5, 4), float16], int32, Tensor[(5, 5, 4), float16], int32) /* ty=(Tensor[(1, 5, 5, 4), float32], Tensor[(1, 5, 5, 102), float16], Tensor[(1, 5, 5, 4), float16], int32, Tensor[(5, 5, 4), float16], int32) span=from_string:41:16 */ = %x_151;
  let %x_171: (Tensor[(1, 5, 5, 4), float32], Tensor[(1, 5, 5, 102), float16], Tensor[(1, 5, 5, 4), float16], int32, Tensor[(5, 5, 4), float16], int32) /* ty=(Tensor[(1, 5, 5, 4), float32], Tensor[(1, 5, 5, 102), float16], Tensor[(1, 5, 5, 4), float16], int32, Tensor[(5, 5, 4), float16], int32) span=from_string:42:16 */ = %x_161;
  let %x_181: (Tensor[(1, 5, 5, 4), float32], Tensor[(1, 5, 5, 102), float16], Tensor[(1, 5, 5, 4), float16], int32, Tensor[(5, 5, 4), float16], int32) /* ty=(Tensor[(1, 5, 5, 4), float32], Tensor[(1, 5, 5, 102), float16], Tensor[(1, 5, 5, 4), float16], int32, Tensor[(5, 5, 4), float16], int32) span=from_string:43:16 */ = %x_171;
  let %x_191: (Tensor[(1, 5, 5, 4), float32], Tensor[(1, 5, 5, 102), float16], Tensor[(1, 5, 5, 4), float16], int32, Tensor[(5, 5, 4), float16], int32) /* ty=(Tensor[(1, 5, 5, 4), float32], Tensor[(1, 5, 5, 102), float16], Tensor[(1, 5, 5, 4), float16], int32, Tensor[(5, 5, 4), float16], int32) span=from_string:44:16 */ = %x_181;
  let %x_201: (Tensor[(1, 5, 5, 4), float32], Tensor[(1, 5, 5, 102), float16], Tensor[(1, 5, 5, 4), float16], int32, Tensor[(5, 5, 4), float16], int32) /* ty=(Tensor[(1, 5, 5, 4), float32], Tensor[(1, 5, 5, 102), float16], Tensor[(1, 5, 5, 4), float16], int32, Tensor[(5, 5, 4), float16], int32) span=from_string:45:16 */ = %x_191;
  let %x_211: (Tensor[(1, 5, 5, 4), float32], Tensor[(1, 5, 5, 102), float16], Tensor[(1, 5, 5, 4), float16], int32, Tensor[(5, 5, 4), float16], int32) /* ty=(Tensor[(1, 5, 5, 4), float32], Tensor[(1, 5, 5, 102), float16], Tensor[(1, 5, 5, 4), float16], int32, Tensor[(5, 5, 4), float16], int32) span=from_string:46:15 */ = %x_201;
  let %x_22: (Tensor[(1, 5, 5, 4), float32], Tensor[(1, 5, 5, 102), float16], Tensor[(1, 5, 5, 4), float16], int32, Tensor[(5, 5, 4), float16], int32) /* ty=(Tensor[(1, 5, 5, 4), float32], Tensor[(1, 5, 5, 102), float16], Tensor[(1, 5, 5, 4), float16], int32, Tensor[(5, 5, 4), float16], int32) span=from_string:47:15 */ = %x_211;
  let %x_23: (Tensor[(1, 5, 5, 4), float32], Tensor[(1, 5, 5, 102), float16], Tensor[(1, 5, 5, 4), float16], int32, Tensor[(5, 5, 4), float16], int32) /* ty=(Tensor[(1, 5, 5, 4), float32], Tensor[(1, 5, 5, 102), float16], Tensor[(1, 5, 5, 4), float16], int32, Tensor[(5, 5, 4), float16], int32) span=from_string:48:15 */ = %x_22;
  let %x_24: (Tensor[(1, 5, 5, 4), float32], Tensor[(1, 5, 5, 102), float16], Tensor[(1, 5, 5, 4), float16], int32, Tensor[(5, 5, 4), float16], int32) /* ty=(Tensor[(1, 5, 5, 4), float32], Tensor[(1, 5, 5, 102), float16], Tensor[(1, 5, 5, 4), float16], int32, Tensor[(5, 5, 4), float16], int32) span=from_string:49:15 */ = %x_23;
  let %x_25: (Tensor[(1, 5, 5, 4), float32], Tensor[(1, 5, 5, 102), float16], Tensor[(1, 5, 5, 4), float16], int32, Tensor[(5, 5, 4), float16], int32) /* ty=(Tensor[(1, 5, 5, 4), float32], Tensor[(1, 5, 5, 102), float16], Tensor[(1, 5, 5, 4), float16], int32, Tensor[(5, 5, 4), float16], int32) span=from_string:50:15 */ = %x_24;
  let %x_26: (Tensor[(1, 5, 5, 4), float32], Tensor[(1, 5, 5, 102), float16], Tensor[(1, 5, 5, 4), float16], int32, Tensor[(5, 5, 4), float16], int32) /* ty=(Tensor[(1, 5, 5, 4), float32], Tensor[(1, 5, 5, 102), float16], Tensor[(1, 5, 5, 4), float16], int32, Tensor[(5, 5, 4), float16], int32) span=from_string:51:15 */ = %x_25;
  let %x_27: (Tensor[(1, 5, 5, 4), float32], Tensor[(1, 5, 5, 102), float16], Tensor[(1, 5, 5, 4), float16], int32, Tensor[(5, 5, 4), float16], int32) /* ty=(Tensor[(1, 5, 5, 4), float32], Tensor[(1, 5, 5, 102), float16], Tensor[(1, 5, 5, 4), float16], int32, Tensor[(5, 5, 4), float16], int32) span=from_string:52:15 */ = %x_26;
  let %x_28: (Tensor[(1, 5, 5, 4), float32], Tensor[(1, 5, 5, 102), float16], Tensor[(1, 5, 5, 4), float16], int32, Tensor[(5, 5, 4), float16], int32) /* ty=(Tensor[(1, 5, 5, 4), float32], Tensor[(1, 5, 5, 102), float16], Tensor[(1, 5, 5, 4), float16], int32, Tensor[(5, 5, 4), float16], int32) span=from_string:53:15 */ = %x_27;
  let %x_29: (Tensor[(1, 5, 5, 4), float32], Tensor[(1, 5, 5, 102), float16], Tensor[(1, 5, 5, 4), float16], int32, Tensor[(5, 5, 4), float16], int32) /* ty=(Tensor[(1, 5, 5, 4), float32], Tensor[(1, 5, 5, 102), float16], Tensor[(1, 5, 5, 4), float16], int32, Tensor[(5, 5, 4), float16], int32) span=from_string:54:15 */ = %x_28;
  let %x_30: (Tensor[(1, 5, 5, 4), float32], Tensor[(1, 5, 5, 102), float16], Tensor[(1, 5, 5, 4), float16], int32, Tensor[(5, 5, 4), float16], int32) /* ty=(Tensor[(1, 5, 5, 4), float32], Tensor[(1, 5, 5, 102), float16], Tensor[(1, 5, 5, 4), float16], int32, Tensor[(5, 5, 4), float16], int32) span=from_string:55:16 */ = %x_29;
  let %x_311: (Tensor[(1, 5, 5, 4), float32], Tensor[(1, 5, 5, 102), float16], Tensor[(1, 5, 5, 4), float16], int32, Tensor[(5, 5, 4), float16], int32) /* ty=(Tensor[(1, 5, 5, 4), float32], Tensor[(1, 5, 5, 102), float16], Tensor[(1, 5, 5, 4), float16], int32, Tensor[(5, 5, 4), float16], int32) span=from_string:56:15 */ = %x_30;
  let %x_32: (Tensor[(1, 5, 5, 4), float32], Tensor[(1, 5, 5, 102), float16], Tensor[(1, 5, 5, 4), float16], int32, Tensor[(5, 5, 4), float16], int32) /* ty=(Tensor[(1, 5, 5, 4), float32], Tensor[(1, 5, 5, 102), float16], Tensor[(1, 5, 5, 4), float16], int32, Tensor[(5, 5, 4), float16], int32) span=from_string:57:15 */ = %x_311;
  let %x_33: (Tensor[(1, 5, 5, 4), float32], Tensor[(1, 5, 5, 102), float16], Tensor[(1, 5, 5, 4), float16], int32, Tensor[(5, 5, 4), float16], int32) /* ty=(Tensor[(1, 5, 5, 4), float32], Tensor[(1, 5, 5, 102), float16], Tensor[(1, 5, 5, 4), float16], int32, Tensor[(5, 5, 4), float16], int32) span=from_string:58:15 */ = %x_32;
  let %x_34: (Tensor[(1, 5, 5, 4), float32], Tensor[(1, 5, 5, 102), float16], Tensor[(1, 5, 5, 4), float16], int32, Tensor[(5, 5, 4), float16], int32) /* ty=(Tensor[(1, 5, 5, 4), float32], Tensor[(1, 5, 5, 102), float16], Tensor[(1, 5, 5, 4), float16], int32, Tensor[(5, 5, 4), float16], int32) span=from_string:59:15 */ = %x_33;
  let %x_35: (Tensor[(1, 5, 5, 4), float32], Tensor[(1, 5, 5, 102), float16], Tensor[(1, 5, 5, 4), float16], int32, Tensor[(5, 5, 4), float16], int32) /* ty=(Tensor[(1, 5, 5, 4), float32], Tensor[(1, 5, 5, 102), float16], Tensor[(1, 5, 5, 4), float16], int32, Tensor[(5, 5, 4), float16], int32) span=from_string:60:3 */ = %x_34;
  %x_35
}
