#[version = "0.0.5"]
def @main(%x0: Tensor[(1, 5, 5, 4), float32] /* ty=Tensor[(1, 5, 5, 4), float32] span=from_string:3:12 */, %x1: Tensor[(1, 5, 5, 62), float32] /* ty=Tensor[(1, 5, 5, 62), float32] span=from_string:6:13 */, %x2: Tensor[(1, 5, 5, 36), float32] /* ty=Tensor[(1, 5, 5, 36), float32] span=from_string:6:18 */, %x3: Tensor[(5, 5, 4), float32] /* ty=Tensor[(5, 5, 4), float32] */, %x4: Tensor[(4, 5, 1, 1), float32] /* ty=Tensor[(4, 5, 1, 1), float32] */) -> (Tensor[(1, 5, 5, 4), float32], Tensor[(1, 5, 5, 102), float32], Tensor[(1, 5, 5, 4), float32], int32, Tensor[(5, 5, 4), float32], int32) {
  %0 = add(%x0, 1f /* ty=float32 span=from_string:3:19 */);
  %1 = annotation.stop_fusion(%0);
  %2 = exp(%1);
  %3 = (%2, %x1, %x2) /* ty=(Tensor[(1, 5, 5, 4), float32], Tensor[(1, 5, 5, 62), float32], Tensor[(1, 5, 5, 36), float32]) span=from_string:16:21 */;
  %4 = reshape(%1, newshape=[5, 5, 4]);
  %5 = reshape(%4, newshape=[1, 5, 5, 4]);
  %6 = reshape(%5, newshape=[5, 5, 4]);
  %7 = layout_transform(%2, src_layout="NCHW", dst_layout="NHWC");
  %8 = layout_transform(%7, src_layout="NHWC", dst_layout="CHWN");
  %9 = nn.relu(%8);
  %10 = add(%9, 1f /* ty=float32 span=from_string:13:19 */);
  %11 = exp(%10);
  %12 = exp(%0);
  %13 = concatenate(%3, axis=3);
  %14 = reshape(%6, newshape=[1, 5, 5, 4]);
  %15 = squeeze(%11);
  (%12, %13, %14, 20 /* ty=int32 span=from_string:19:21 */, %15, 2 /* ty=int32 span=from_string:19:71 */) /* ty=(Tensor[(1, 5, 5, 4), float32], Tensor[(1, 5, 5, 102), float32], Tensor[(1, 5, 5, 4), float32], int32, Tensor[(5, 5, 4), float32], int32) span=from_string:3:3 */
}
