#[version = "0.0.5"]
def @main(%x0: Tensor[(1, 5, 5, 4), float32] /* ty=Tensor[(1, 5, 5, 4), float32] span=from_string:3:13 */, %x1: Tensor[(1, 5, 5, 62), float32] /* ty=Tensor[(1, 5, 5, 62), float32] span=from_string:10:13 */, %x2: Tensor[(1, 5, 5, 36), float32] /* ty=Tensor[(1, 5, 5, 36), float32] span=from_string:10:18 */, %x3: Tensor[(5, 5, 4), float32] /* ty=Tensor[(5, 5, 4), float32] */, %x4: Tensor[(4, 5, 1, 1), float32] /* ty=Tensor[(4, 5, 1, 1), float32] */) -> (Tensor[(1, 5, 5, 4), float32], Tensor[(1, 5, 5, 102), float32], Tensor[(1, 5, 5, 4), float16], int32, Tensor[(5, 5, 4), float32], int32) {
  %0 = cast(%x0, dtype="float16");
  %1 = cast(1f /* ty=float32 span=from_string:4:15 */, dtype="float16");
  %2 = add(%0, %1);
  %3 = cast(%2, dtype="float32");
  %4 = annotation.stop_fusion(%2);
  %5 = cast(%4, dtype="float32");
  %6 = exp(%5);
  %7 = (%6, %x1, %x2) /* ty=(Tensor[(1, 5, 5, 4), float32], Tensor[(1, 5, 5, 62), float32], Tensor[(1, 5, 5, 36), float32]) span=from_string:20:21 */;
  %8 = reshape(%4, newshape=[5, 5, 4]);
  %9 = reshape(%8, newshape=[1, 5, 5, 4]);
  %10 = reshape(%9, newshape=[5, 5, 4]);
  %11 = layout_transform(%6, src_layout="NCHW", dst_layout="NHWC");
  %12 = layout_transform(%11, src_layout="NHWC", dst_layout="CHWN");
  %13 = nn.relu(%12);
  %14 = add(%13, 1f /* ty=float32 span=from_string:17:20 */);
  %15 = exp(%14);
  %16 = exp(%3);
  %17 = concatenate(%7, axis=3);
  %18 = reshape(%10, newshape=[1, 5, 5, 4]);
  %19 = squeeze(%15);
  (%16, %17, %18, 20 /* ty=int32 span=from_string:23:21 */, %19, 2 /* ty=int32 span=from_string:23:67 */) /* ty=(Tensor[(1, 5, 5, 4), float32], Tensor[(1, 5, 5, 102), float32], Tensor[(1, 5, 5, 4), float16], int32, Tensor[(5, 5, 4), float32], int32) span=from_string:3:3 */
}
