#[version = "0.0.5"]
def @main(%x0: Tensor[(1, 5, 5, 4), float32] /* ty=Tensor[(1, 5, 5, 4), float32] span=from_string:3:12 */, %x1: Tensor[(1, 5, 5, 62), float32] /* ty=Tensor[(1, 5, 5, 62), float32] span=from_string:6:13 */, %x2: Tensor[(1, 5, 5, 36), float32] /* ty=Tensor[(1, 5, 5, 36), float32] span=from_string:6:18 */, %x3: Tensor[(5, 5, 4), float32] /* ty=Tensor[(5, 5, 4), float32] */, %x4: Tensor[(4, 5, 1, 1), float32] /* ty=Tensor[(4, 5, 1, 1), float32] */) -> (Tensor[(1, 5, 5, 4), float32], Tensor[(1, 5, 5, 102), float32], Tensor[(1, 5, 5, 4), float32], int32, Tensor[(5, 5, 4), float32], int32) {
  %0 = add(%x0, 1f /* ty=float32 span=from_string:3:19 */) /* ty=Tensor[(1, 5, 5, 4), float32] span=from_string:15:18 */;
  %1 = annotation.stop_fusion(%0) /* ty=Tensor[(1, 5, 5, 4), float32] span=from_string:7:16 */;
  %2 = fast_exp(%1) /* ty=Tensor[(1, 5, 5, 4), float32] span=from_string:10:25 */;
  %3 = (%2, %x1) /* ty=(Tensor[(1, 5, 5, 4), float32], Tensor[(1, 5, 5, 62), float32]) span=from_string:16:21 */;
  %4 = concatenate(%3, axis=3) /* ty=Tensor[(1, 5, 5, 66), float32] */;
  %5 = (%x2,) /* ty=(Tensor[(1, 5, 5, 36), float32],) span=from_string:16:21 */;
  %6 = concatenate(%5, axis=3) /* ty=Tensor[(1, 5, 5, 36), float32] */;
  %7 = annotation.stop_fusion(%4) /* ty=Tensor[(1, 5, 5, 66), float32] */;
  %8 = annotation.stop_fusion(%6) /* ty=Tensor[(1, 5, 5, 36), float32] */;
  %9 = (%7, %8) /* ty=(Tensor[(1, 5, 5, 66), float32], Tensor[(1, 5, 5, 36), float32]) span=from_string:16:21 */;
  %10 = reshape(%1, newshape=[5, 5, 4]) /* ty=Tensor[(5, 5, 4), float32] span=from_string:8:16 */;
  %11 = reshape(%10, newshape=[1, 5, 5, 4]) /* ty=Tensor[(1, 5, 5, 4), float32] span=from_string:9:16 */;
  %12 = reshape(%11, newshape=[5, 5, 4]) /* ty=Tensor[(5, 5, 4), float32] span=from_string:17:17 */;
  %13 = layout_transform(%2, src_layout="NCHW", dst_layout="NHWC") /* ty=Tensor[(1, 5, 4, 5), float32] span=from_string:11:25 */;
  %14 = layout_transform(%13, src_layout="NHWC", dst_layout="CHWN") /* ty=Tensor[(5, 5, 4, 1), float32] span=from_string:12:16 */;
  %15 = nn.relu(%14) /* ty=Tensor[(5, 5, 4, 1), float32] span=from_string:13:13 */;
  %16 = add(%15, 1f /* ty=float32 span=from_string:13:19 */) /* ty=Tensor[(5, 5, 4, 1), float32] span=from_string:14:18 */;
  %17 = fast_exp(%16) /* ty=Tensor[(5, 5, 4, 1), float32] span=from_string:18:17 */;
  %18 = fast_exp(%0) /* ty=Tensor[(1, 5, 5, 4), float32] span=from_string:19:4 */;
  %19 = concatenate(%9, axis=3) /* ty=Tensor[(1, 5, 5, 102), float32] */;
  %20 = reshape(%12, newshape=[1, 5, 5, 4]) /* ty=Tensor[(1, 5, 5, 4), float32] span=from_string:19:14 */;
  %21 = squeeze(%17) /* ty=Tensor[(5, 5, 4), float32] span=from_string:19:61 */;
  (%18, %19, %20, 20 /* ty=int32 span=from_string:19:21 */, %21, 2 /* ty=int32 span=from_string:19:67 */) /* ty=(Tensor[(1, 5, 5, 4), float32], Tensor[(1, 5, 5, 102), float32], Tensor[(1, 5, 5, 4), float32], int32, Tensor[(5, 5, 4), float32], int32) span=from_string:3:3 */
}
