#[version = "0.0.5"]
def @main(%x0: Tensor[(1, 5, 5, 4), float32] /* ty=Tensor[(1, 5, 5, 4), float32] span=from_string:3:13 */, %x1: Tensor[(1, 5, 5, 62), float32] /* ty=Tensor[(1, 5, 5, 62), float32] span=from_string:12:13 */, %x2: Tensor[(1, 5, 5, 36), float32] /* ty=Tensor[(1, 5, 5, 36), float32] span=from_string:12:18 */, %x3: Tensor[(5, 5, 4), float32] /* ty=Tensor[(5, 5, 4), float32] */, %x4: Tensor[(4, 5, 1, 1), float32] /* ty=Tensor[(4, 5, 1, 1), float32] */) -> (Tensor[(1, 5, 5, 4), float32], Tensor[(1, 5, 5, 102), float32], Tensor[(1, 5, 5, 4), float16], int32, Tensor[(5, 5, 4), float32], int32) {
  %0 = cast(%x0, dtype="float16");
  %1 = cast(1f /* ty=float32 span=from_string:4:15 */, dtype="float16");
  %2 = cast(%0, dtype="float16");
  %3 = cast(%1, dtype="float16");
  %4 = add(%2, %3);
  %5 = cast(%4, dtype="float32");
  %6 = annotation.stop_fusion(%4);
  %7 = cast(%6, dtype="float32");
  %8 = exp(%7);
  %9 = (%8, %x1, %x2) /* ty=(Tensor[(1, 5, 5, 4), float32], Tensor[(1, 5, 5, 62), float32], Tensor[(1, 5, 5, 36), float32]) span=from_string:18:21 */;
  %10 = transpose(%8, axes=[1, 2, 3, 0]);
  %11 = nn.relu(%10);
  %12 = add(%11, 1f /* ty=float32 span=from_string:15:20 */);
  %13 = exp(%12);
  %14 = exp(%5);
  %15 = concatenate(%9, axis=3);
  %16 = reshape(%6, newshape=[1, 5, 5, 4]);
  %17 = squeeze(%13);
  (%14, %15, %16, 20 /* ty=int32 span=from_string:21:21 */, %17, 2 /* ty=int32 span=from_string:21:67 */) /* ty=(Tensor[(1, 5, 5, 4), float32], Tensor[(1, 5, 5, 102), float32], Tensor[(1, 5, 5, 4), float16], int32, Tensor[(5, 5, 4), float32], int32) span=from_string:3:3 */
}
