#[version = "0.0.5"]
def @main(%x0: Tensor[(1, 5, 5, 4), float32] /* ty=Tensor[(1, 5, 5, 4), float32] span=from_string:3:13 */, %x1: Tensor[(1, 5, 5, 62), float32] /* ty=Tensor[(1, 5, 5, 62), float32] span=from_string:10:13 */, %x2: Tensor[(1, 5, 5, 36), float32] /* ty=Tensor[(1, 5, 5, 36), float32] span=from_string:10:18 */, %x3: Tensor[(5, 5, 4), float32] /* ty=Tensor[(5, 5, 4), float32] */, %x4: Tensor[(4, 5, 1, 1), float32] /* ty=Tensor[(4, 5, 1, 1), float32] */) -> (Tensor[(1, 5, 5, 4), float32], Tensor[(1, 5, 5, 102), float32], Tensor[(1, 5, 5, 4), float16], int32, Tensor[(5, 5, 4), float32], int32) {
  %0 = cast(%x0, dtype="float16");
  %1 = cast(1f /* ty=float32 span=from_string:4:15 */, dtype="float16");
  %2 = add(%0, %1);
  %3 = cast(%2, dtype="float32");
  %4 = annotation.stop_fusion(%2);
  %5 = cast(%4, dtype="float32");
  %6 = exp(%5);
  %7 = (%6, %x1, %x2) /* ty=(Tensor[(1, 5, 5, 4), float32], Tensor[(1, 5, 5, 62), float32], Tensor[(1, 5, 5, 36), float32]) span=from_string:16:21 */;
  %8 = transpose(%6, axes=[1, 2, 3, 0]);
  %9 = nn.relu(%8);
  %10 = add(%9, 1f /* ty=float32 span=from_string:13:19 */);
  %11 = exp(%10);
  %12 = exp(%3);
  %13 = concatenate(%7, axis=3);
  %14 = reshape(%4, newshape=[1, 5, 5, 4]);
  %15 = squeeze(%11);
  (%12, %13, %14, 20 /* ty=int32 span=from_string:19:21 */, %15, 2 /* ty=int32 span=from_string:19:67 */) /* ty=(Tensor[(1, 5, 5, 4), float32], Tensor[(1, 5, 5, 102), float32], Tensor[(1, 5, 5, 4), float16], int32, Tensor[(5, 5, 4), float32], int32) span=from_string:3:3 */
}
