#[version = "0.0.5"]
def @main(%x0: Tensor[(1, 16), float32] /* ty=Tensor[(1, 16), float32] span=from_string:3:13 */, %x1: Tensor[(16), float32] /* ty=Tensor[(16), float32] */) -> (Tensor[(1, 16), float16], float32, float32, float32, float32, float32, Tensor[(1, 16), float16], Tensor[(16), float16], Tensor[(2), int32]) {
  %0 = cast(%x0, dtype="float16") /* ty=Tensor[(1, 16), float16] span=from_string:5:16 */;
  %1 = nn.relu(%0) /* ty=Tensor[(1, 16), float16] span=from_string:6:12 */;
  %2 = nn.relu(%0) /* ty=Tensor[(1, 16), float16] span=from_string:7:12 */;
  %3 = add(%1, 1f16 /* ty=float16 span=from_string:6:20 */) /* ty=Tensor[(1, 16), float16] span=from_string:8:12 */;
  %4 = add(%2, 1f16 /* ty=float16 span=from_string:7:20 */) /* ty=Tensor[(1, 16), float16] span=from_string:11:16 */;
  %5 = add(%3, %4) /* ty=Tensor[(1, 16), float16] span=from_string:9:57 */;
  %6 = add(2f16 /* ty=float16 span=from_string:9:16 */, %5) /* ty=Tensor[(1, 16), float16] span=from_string:12:4 */;
  %7 = ones(shape=[1, 16], dtype="float16") /* ty=Tensor[(1, 16), float16] span=from_string:12:243 */;
  %8 = reshape(%4, newshape=[16]) /* ty=Tensor[(16), float16] span=from_string:12:247 */;
  (%6, 4f /* ty=float32 span=from_string:12:10 */, 7.38906f /* ty=float32 span=from_string:12:60 */, 20.0855f /* ty=float32 span=from_string:12:110 */, 1f /* ty=float32 span=from_string:12:155 */, 6f /* ty=float32 span=from_string:12:200 */, %7, %8, meta[relay.Constant][0] /* ty=Tensor[(2), int32] span=from_string:12:256 */) /* ty=(Tensor[(1, 16), float16], float32, float32, float32, float32, float32, Tensor[(1, 16), float16], Tensor[(16), float16], Tensor[(2), int32]) span=from_string:3:3 */
}

#[metadata]
{
  "root": 1, 
  "nodes": [
    {
      "type_key": ""
    }, 
    {
      "type_key": "Map", 
      "keys": [
        "relay.Constant"
      ], 
      "data": [2]
    }, 
    {
      "type_key": "Array", 
      "data": [3]
    }, 
    {
      "type_key": "relay.Constant", 
      "attrs": {
        "_checked_type_": "8", 
        "data": "0", 
        "span": "6", 
        "virtual_device_": "4"
      }
    }, 
    {
      "type_key": "VirtualDevice", 
      "attrs": {
        "device_type_int": "-1", 
        "memory_scope": "5", 
        "target": "0", 
        "virtual_device_id": "-1"
      }
    }, 
    {
      "type_key": "runtime.String"
    }, 
    {
      "type_key": "Span", 
      "attrs": {
        "column": "256", 
        "end_column": "274", 
        "end_line": "12", 
        "line": "12", 
        "source_name": "7"
      }
    }, 
    {
      "type_key": "SourceName", 
      "repr_str": "from_string"
    }, 
    {
      "type_key": "relay.TensorType", 
      "attrs": {
        "dtype": "int32", 
        "shape": "9", 
        "span": "11"
      }
    }, 
    {
      "type_key": "Array", 
      "data": [10]
    }, 
    {
      "type_key": "IntImm", 
      "attrs": {
        "dtype": "int32", 
        "span": "0", 
        "value": "2"
      }
    }, 
    {
      "type_key": "Span", 
      "attrs": {
        "column": "282", 
        "end_column": "302", 
        "end_line": "2", 
        "line": "2", 
        "source_name": "7"
      }
    }
  ], 
  "b64ndarrays": [
    "P6G0lvBAXt0AAAAAAAAAAAEAAAAAAAAAAQAAAAAgAQACAAAAAAAAAAgAAAAAAAAAAQAAABAAAAA="
  ], 
  "attrs": {"tvm_version": "0.13.0"}
}