#[version = "0.0.5"]
def @main(%x0: Tensor[(1, 64, 56, 56), float32] /* ty=Tensor[(1, 64, 56, 56), float32] span=from_string:5:13 */, %x1: Tensor[(64, 64, 3, 3), float32] /* ty=Tensor[(64, 64, 3, 3), float32] span=from_string:22:10 */, %x2: Tensor[(4096, 3, 3), float32] /* ty=Tensor[(4096, 3, 3), float32] */, %x3: Tensor[(1, 64, 56, 56), float32] /* ty=Tensor[(1, 64, 56, 56), float32] */, %x4: float32 /* ty=float32 span=from_string:21:14 */, %x5: Tensor[(4, 64, 3, 3), float32] /* ty=Tensor[(4, 64, 3, 3), float32] span=from_string:22:15 */) -> (Tensor[(1, 128, 56, 56), float16], float32, Tensor[(64, 64, 3, 3), float16], Tensor[(64, 64, 3, 3), float16], Tensor[(1, 64, 56, 56), float16], Tensor[(4), int32], Tensor[(68, 64, 3, 3), float32], bool) {
  %0 = cast(%x1, dtype="float16") /* ty=Tensor[(64, 64, 3, 3), float16] span=from_string:6:18 */;
  %1 = cast(%x0, dtype="float16") /* ty=Tensor[(1, 64, 56, 56), float16] span=from_string:8:18 */;
  %2 = multiply(%0, 2f16 /* ty=float16 */) /* ty=Tensor[(64, 64, 3, 3), float16] span=from_string:16:17 */;
  %3 = nn.conv2d(%1, %2, padding=[1, 1, 1, 1], channels=64, kernel_size=[3, 3], out_dtype="float16") /* ty=Tensor[(1, 64, 56, 56), float16] span=from_string:9:16 */;
  %4 = add(0f16 /* ty=float16 */, %3) /* ty=Tensor[(1, 64, 56, 56), float16] span=from_string:10:16 */;
  %5 = nn.relu(%4) /* ty=Tensor[(1, 64, 56, 56), float16] span=from_string:13:14 */;
  %6 = nn.max_pool2d(%5, pool_size=[2, 2], strides=[2, 2], padding=[0, 0, 0, 0]) /* ty=Tensor[(1, 64, 28, 28), float16] span=from_string:12:22 */;
  %7 = nn.upsampling(%6, scale_h=2f, scale_w=2f) /* ty=Tensor[(1, 64, 56, 56), float16] span=from_string:19:26 */;
  %8 = (%7, %5) /* ty=(Tensor[(1, 64, 56, 56), float16], Tensor[(1, 64, 56, 56), float16]) span=from_string:14:21 */;
  %9 = concatenate(%8, axis=1) /* ty=Tensor[(1, 128, 56, 56), float16] span=from_string:23:13 */;
  %10 = nn.relu(%2) /* ty=Tensor[(64, 64, 3, 3), float16] span=from_string:18:17 */;
  %11 = add(%10, 1f16 /* ty=float16 */) /* ty=Tensor[(64, 64, 3, 3), float16] span=from_string:24:18 */;
  %12 = reshape(%10, newshape=[4096, 3, 3]) /* ty=Tensor[(4096, 3, 3), float16] span=from_string:25:17 */;
  %13 = layout_transform(%7, src_layout="NCHW", dst_layout="NHWC") /* ty=Tensor[(1, 56, 56, 64), float16] span=from_string:20:26 */;
  %14 = layout_transform(%13, src_layout="NHWC", dst_layout="NCHW") /* ty=Tensor[(1, 64, 56, 56), float16] span=from_string:26:17 */;
  %15 = cast(%x4, dtype="float16") /* ty=float16 span=from_string:27:95 */;
  %16 = (%x1, %x5) /* ty=(Tensor[(64, 64, 3, 3), float32], Tensor[(4, 64, 3, 3), float32]) span=from_string:28:21 */;
  %17 = add(%9, 1f16 /* ty=float16 */) /* ty=Tensor[(1, 128, 56, 56), float16] span=from_string:29:4 */;
  %18 = add(%11, %11) /* ty=Tensor[(64, 64, 3, 3), float16] span=from_string:29:53 */;
  %19 = reshape(%12, newshape=[64, 64, 3, 3]) /* ty=Tensor[(64, 64, 3, 3), float16] span=from_string:29:58 */;
  %20 = nn.relu(%14) /* ty=Tensor[(1, 64, 56, 56), float16] span=from_string:29:63 */;
  %21 = full_like(meta[relay.Constant][0] /* ty=Tensor[(4), int32] span=from_string:27:24 */, %15) /* ty=Tensor[(4), int32] span=from_string:29:68 */;
  %22 = concatenate(%16) /* ty=Tensor[(68, 64, 3, 3), float32] span=from_string:29:73 */;
  (%17, 2f /* ty=float32 span=from_string:29:11 */, %18, %19, %20, %21, %22, False /* ty=bool span=from_string:29:78 */) /* ty=(Tensor[(1, 128, 56, 56), float16], float32, Tensor[(64, 64, 3, 3), float16], Tensor[(64, 64, 3, 3), float16], Tensor[(1, 64, 56, 56), float16], Tensor[(4), int32], Tensor[(68, 64, 3, 3), float32], bool) span=from_string:3:3 */
}

#[metadata]
{
  "root": 1, 
  "nodes": [
    {
      "type_key": ""
    }, 
    {
      "type_key": "Map", 
      "keys": [
        "relay.Constant"
      ], 
      "data": [2]
    }, 
    {
      "type_key": "Array", 
      "data": [3]
    }, 
    {
      "type_key": "relay.Constant", 
      "attrs": {
        "_checked_type_": "8", 
        "data": "0", 
        "span": "6", 
        "virtual_device_": "4"
      }
    }, 
    {
      "type_key": "VirtualDevice", 
      "attrs": {
        "device_type_int": "-1", 
        "memory_scope": "5", 
        "target": "0", 
        "virtual_device_id": "-1"
      }
    }, 
    {
      "type_key": "runtime.String"
    }, 
    {
      "type_key": "Span", 
      "attrs": {
        "column": "24", 
        "end_column": "42", 
        "end_line": "27", 
        "line": "27", 
        "source_name": "7"
      }
    }, 
    {
      "type_key": "SourceName", 
      "repr_str": "from_string"
    }, 
    {
      "type_key": "relay.TensorType", 
      "attrs": {
        "dtype": "int32", 
        "shape": "9", 
        "span": "0"
      }
    }, 
    {
      "type_key": "Array", 
      "data": [10]
    }, 
    {
      "type_key": "IntImm", 
      "attrs": {
        "dtype": "int32", 
        "span": "0", 
        "value": "4"
      }
    }
  ], 
  "b64ndarrays": [
    "P6G0lvBAXt0AAAAAAAAAAAEAAAAAAAAAAQAAAAAgAQAEAAAAAAAAABAAAAAAAAAAQAAAAEAAAAADAAAAAwAAAA=="
  ], 
  "attrs": {"tvm_version": "0.13.0"}
}