#[version = "0.0.5"]
def @main(%x0: Tensor[(1, 64, 56, 56), float32] /* ty=Tensor[(1, 64, 56, 56), float32] span=from_string:3:117 */, %x1: Tensor[(64, 64, 3, 3), float32] /* ty=Tensor[(64, 64, 3, 3), float32] span=from_string:32:181 */, %x2: Tensor[(4096, 3, 3), float32] /* ty=Tensor[(4096, 3, 3), float32] */, %x3: Tensor[(1, 64, 56, 56), float32] /* ty=Tensor[(1, 64, 56, 56), float32] */, %x4: float32 /* ty=float32 span=from_string:30:69 */, %x5: Tensor[(4, 64, 3, 3), float32] /* ty=Tensor[(4, 64, 3, 3), float32] span=from_string:32:186 */) -> (Tensor[(1, 128, 56, 56), float16], float32, Tensor[(64, 64, 3, 3), float16], Tensor[(64, 64, 3, 3), float16], Tensor[(1, 64, 56, 56), float16], Tensor[(4), int32], Tensor[(68, 64, 3, 3), float32], bool) {
  %0 = fn (%p0: Tensor[(1, 64, 56, 56), float32] /* ty=Tensor[(1, 64, 56, 56), float32] */, Primitive=1) -> Tensor[(1, 64, 56, 56), float16] {
    cast(%p0, dtype="float16") /* ty=Tensor[(1, 64, 56, 56), float16] span=from_string:3:112 */
  } /* ty=fn (Tensor[(1, 64, 56, 56), float32]) -> Tensor[(1, 64, 56, 56), float16] */;
  let %x_0: Tensor[(1, 64, 56, 56), float16] /* ty=Tensor[(1, 64, 56, 56), float16] span=from_string:8:122 */ = %0(%x0) /* ty=Tensor[(1, 64, 56, 56), float16] */;
  %1 = fn (%p01: Tensor[(64, 64, 3, 3), float32] /* ty=Tensor[(64, 64, 3, 3), float32] */, Primitive=1) -> Tensor[(64, 64, 3, 3), float16] {
    cast(%p01, dtype="float16") /* ty=Tensor[(64, 64, 3, 3), float16] span=from_string:4:110 */
  } /* ty=fn (Tensor[(64, 64, 3, 3), float32]) -> Tensor[(64, 64, 3, 3), float16] */;
  let %x_1: Tensor[(64, 64, 3, 3), float16] /* ty=Tensor[(64, 64, 3, 3), float16] span=from_string:7:121 */ = %1(%x1) /* ty=Tensor[(64, 64, 3, 3), float16] */;
  let %x_2: float32 /* ty=float32 span=from_string:6:67 */ = 2f /* ty=float32 span=from_string:5:64 */;
  %2 = fn (%p02: float32 /* ty=float32 */, Primitive=1) -> float16 {
    cast(%p02, dtype="float16") /* ty=float16 span=from_string:6:62 */
  } /* ty=fn (float32) -> float16 */;
  let %x_3: float16 /* ty=float16 span=from_string:7:127 */ = %2(%x_2) /* ty=float16 */;
  %3 = fn (%p03: Tensor[(64, 64, 3, 3), float16] /* ty=Tensor[(64, 64, 3, 3), float16] */, %p1: float16 /* ty=float16 */, Primitive=1) -> Tensor[(64, 64, 3, 3), float16] {
    multiply(%p03, %p1) /* ty=Tensor[(64, 64, 3, 3), float16] span=from_string:7:112 */
  } /* ty=fn (Tensor[(64, 64, 3, 3), float16], float16) -> Tensor[(64, 64, 3, 3), float16] */;
  let %x_4: Tensor[(64, 64, 3, 3), float16] /* ty=Tensor[(64, 64, 3, 3), float16] span=from_string:18:16 */ = %3(%x_1, %x_3) /* ty=Tensor[(64, 64, 3, 3), float16] */;
  %4 = fn (%p04: Tensor[(1, 64, 56, 56), float16] /* ty=Tensor[(1, 64, 56, 56), float16] */, %p11: Tensor[(64, 64, 3, 3), float16] /* ty=Tensor[(64, 64, 3, 3), float16] */, Primitive=1) -> Tensor[(1, 64, 56, 56), float16] {
    nn.conv2d(%p04, %p11, padding=[1, 1, 1, 1], channels=64, kernel_size=[3, 3], out_dtype="float16") /* ty=Tensor[(1, 64, 56, 56), float16] span=from_string:8:112 */
  } /* ty=fn (Tensor[(1, 64, 56, 56), float16], Tensor[(64, 64, 3, 3), float16]) -> Tensor[(1, 64, 56, 56), float16] */;
  let %x_5: Tensor[(1, 64, 56, 56), float16] /* ty=Tensor[(1, 64, 56, 56), float16] span=from_string:9:121 */ = %4(%x_0, %x_4) /* ty=Tensor[(1, 64, 56, 56), float16] */;
  %5 = fn (%p05: Tensor[(1, 64, 56, 56), float16] /* ty=Tensor[(1, 64, 56, 56), float16] */, Primitive=1) -> Tensor[(1, 64, 56, 56), float16] {
    nn.relu(%p05) /* ty=Tensor[(1, 64, 56, 56), float16] span=from_string:9:113 */
  } /* ty=fn (Tensor[(1, 64, 56, 56), float16]) -> Tensor[(1, 64, 56, 56), float16] */;
  let %x_6: Tensor[(1, 64, 56, 56), float16] /* ty=Tensor[(1, 64, 56, 56), float16] span=from_string:12:192 */ = %5(%x_5) /* ty=Tensor[(1, 64, 56, 56), float16] */;
  %6 = fn (%p06: Tensor[(1, 64, 56, 56), float16] /* ty=Tensor[(1, 64, 56, 56), float16] */, Primitive=1) -> Tensor[(1, 64, 28, 28), float16] {
    nn.max_pool2d(%p06, pool_size=[2, 2], strides=[2, 2], padding=[0, 0, 0, 0]) /* ty=Tensor[(1, 64, 28, 28), float16] span=from_string:10:113 */
  } /* ty=fn (Tensor[(1, 64, 56, 56), float16]) -> Tensor[(1, 64, 28, 28), float16] */;
  let %x_7: Tensor[(1, 64, 28, 28), float16] /* ty=Tensor[(1, 64, 28, 28), float16] span=from_string:11:127 */ = %6(%x_6) /* ty=Tensor[(1, 64, 28, 28), float16] */;
  %7 = fn (%p07: Tensor[(1, 64, 28, 28), float16] /* ty=Tensor[(1, 64, 28, 28), float16] */, Primitive=1) -> Tensor[(1, 64, 56, 56), float16] {
    nn.upsampling(%p07, scale_h=2f, scale_w=2f) /* ty=Tensor[(1, 64, 56, 56), float16] span=from_string:11:113 */
  } /* ty=fn (Tensor[(1, 64, 28, 28), float16]) -> Tensor[(1, 64, 56, 56), float16] */;
  let %x_8: Tensor[(1, 64, 56, 56), float16] /* ty=Tensor[(1, 64, 56, 56), float16] span=from_string:29:122 */ = %7(%x_7) /* ty=Tensor[(1, 64, 56, 56), float16] */;
  let %x_9: (Tensor[(1, 64, 56, 56), float16], Tensor[(1, 64, 56, 56), float16]) /* ty=(Tensor[(1, 64, 56, 56), float16], Tensor[(1, 64, 56, 56), float16]) span=from_string:13:128 */ = (%x_8, %x_6) /* ty=(Tensor[(1, 64, 56, 56), float16], Tensor[(1, 64, 56, 56), float16]) span=from_string:12:185 */;
  %8 = fn (%p08: (Tensor[(1, 64, 56, 56), float16], Tensor[(1, 64, 56, 56), float16]) /* ty=(Tensor[(1, 64, 56, 56), float16], Tensor[(1, 64, 56, 56), float16]) */, Primitive=1) -> Tensor[(1, 128, 56, 56), float16] {
    concatenate(%p08, axis=1) /* ty=Tensor[(1, 128, 56, 56), float16] span=from_string:13:116 */
  } /* ty=fn ((Tensor[(1, 64, 56, 56), float16], Tensor[(1, 64, 56, 56), float16])) -> Tensor[(1, 128, 56, 56), float16] */;
  let %x_10: Tensor[(1, 128, 56, 56), float16] /* ty=Tensor[(1, 128, 56, 56), float16] span=from_string:16:120 */ = %8(%x_9) /* ty=Tensor[(1, 128, 56, 56), float16] */;
  let %x_11: float32 /* ty=float32 span=from_string:15:69 */ = 1f /* ty=float32 span=from_string:14:66 */;
  %9 = fn (%p09: float32 /* ty=float32 */, Primitive=1) -> float16 {
    cast(%p09, dtype="float16") /* ty=float16 span=from_string:15:64 */
  } /* ty=fn (float32) -> float16 */;
  let %x_12: float16 /* ty=float16 span=from_string:16:127 */ = %9(%x_11) /* ty=float16 */;
  %10 = fn (%p010: Tensor[(1, 128, 56, 56), float16] /* ty=Tensor[(1, 128, 56, 56), float16] */, %p12: float16 /* ty=float16 */, Primitive=1) -> Tensor[(1, 128, 56, 56), float16] {
    add(%p010, %p12) /* ty=Tensor[(1, 128, 56, 56), float16] span=from_string:16:116 */
  } /* ty=fn (Tensor[(1, 128, 56, 56), float16], float16) -> Tensor[(1, 128, 56, 56), float16] */;
  let %x_13: Tensor[(1, 128, 56, 56), float16] /* ty=Tensor[(1, 128, 56, 56), float16] span=from_string:35:458 */ = %10(%x_10, %x_12) /* ty=Tensor[(1, 128, 56, 56), float16] */;
  let %x_14: float32 /* ty=float32 span=from_string:35:465 */ = 2f /* ty=float32 span=from_string:17:66 */;
  %11 = fn (%p011: Tensor[(64, 64, 3, 3), float16] /* ty=Tensor[(64, 64, 3, 3), float16] */, Primitive=1) -> Tensor[(64, 64, 3, 3), float16] {
    nn.relu(%p011) /* ty=Tensor[(64, 64, 3, 3), float16] span=from_string:23:112 */
  } /* ty=fn (Tensor[(64, 64, 3, 3), float16]) -> Tensor[(64, 64, 3, 3), float16] */;
  %12 = %11(%x_4) /* ty=Tensor[(64, 64, 3, 3), float16] */;
  let %x_15: Tensor[(64, 64, 3, 3), float16] /* ty=Tensor[(64, 64, 3, 3), float16] span=from_string:28:120 */ = %12;
  let %x_16: float32 /* ty=float32 span=from_string:21:69 */ = 1f /* ty=float32 span=from_string:20:66 */;
  %13 = fn (%p012: float32 /* ty=float32 */, Primitive=1) -> float16 {
    cast(%p012, dtype="float16") /* ty=float16 span=from_string:21:64 */
  } /* ty=fn (float32) -> float16 */;
  let %x_17: float16 /* ty=float16 span=from_string:22:123 */ = %13(%x_16) /* ty=float16 */;
  %14 = fn (%p013: Tensor[(64, 64, 3, 3), float16] /* ty=Tensor[(64, 64, 3, 3), float16] */, %p13: float16 /* ty=float16 */, Primitive=1) -> Tensor[(64, 64, 3, 3), float16] {
    add(%p013, %p13) /* ty=Tensor[(64, 64, 3, 3), float16] span=from_string:22:112 */
  } /* ty=fn (Tensor[(64, 64, 3, 3), float16], float16) -> Tensor[(64, 64, 3, 3), float16] */;
  let %x_18: Tensor[(64, 64, 3, 3), float16] /* ty=Tensor[(64, 64, 3, 3), float16] span=from_string:27:116 */ = %14(%x_15, %x_17) /* ty=Tensor[(64, 64, 3, 3), float16] */;
  let %x_19: Tensor[(64, 64, 3, 3), float16] /* ty=Tensor[(64, 64, 3, 3), float16] span=from_string:26:116 */ = %12;
  let %x_20: float32 /* ty=float32 span=from_string:25:69 */ = 1f /* ty=float32 span=from_string:24:66 */;
  %15 = fn (%p014: float32 /* ty=float32 */, Primitive=1) -> float16 {
    cast(%p014, dtype="float16") /* ty=float16 span=from_string:25:64 */
  } /* ty=fn (float32) -> float16 */;
  let %x_21: float16 /* ty=float16 span=from_string:26:123 */ = %15(%x_20) /* ty=float16 */;
  %16 = fn (%p015: Tensor[(64, 64, 3, 3), float16] /* ty=Tensor[(64, 64, 3, 3), float16] */, %p14: float16 /* ty=float16 */, Primitive=1) -> Tensor[(64, 64, 3, 3), float16] {
    add(%p015, %p14) /* ty=Tensor[(64, 64, 3, 3), float16] span=from_string:26:112 */
  } /* ty=fn (Tensor[(64, 64, 3, 3), float16], float16) -> Tensor[(64, 64, 3, 3), float16] */;
  let %x_22: Tensor[(64, 64, 3, 3), float16] /* ty=Tensor[(64, 64, 3, 3), float16] span=from_string:27:123 */ = %16(%x_19, %x_21) /* ty=Tensor[(64, 64, 3, 3), float16] */;
  %17 = fn (%p016: Tensor[(64, 64, 3, 3), float16] /* ty=Tensor[(64, 64, 3, 3), float16] */, %p15: Tensor[(64, 64, 3, 3), float16] /* ty=Tensor[(64, 64, 3, 3), float16] */, Primitive=1) -> Tensor[(64, 64, 3, 3), float16] {
    add(%p016, %p15) /* ty=Tensor[(64, 64, 3, 3), float16] span=from_string:27:112 */
  } /* ty=fn (Tensor[(64, 64, 3, 3), float16], Tensor[(64, 64, 3, 3), float16]) -> Tensor[(64, 64, 3, 3), float16] */;
  let %x_23: Tensor[(64, 64, 3, 3), float16] /* ty=Tensor[(64, 64, 3, 3), float16] span=from_string:35:472 */ = %17(%x_18, %x_22) /* ty=Tensor[(64, 64, 3, 3), float16] */;
  %18 = fn (%p017: Tensor[(64, 64, 3, 3), float16] /* ty=Tensor[(64, 64, 3, 3), float16] */, Primitive=1, relay.reshape_only=1) -> Tensor[(64, 64, 3, 3), float16] {
    reshape(%p017, newshape=[64, 64, 3, 3]) /* ty=Tensor[(64, 64, 3, 3), float16] span=from_string:28:112 */
  } /* ty=fn (Tensor[(64, 64, 3, 3), float16]) -> Tensor[(64, 64, 3, 3), float16] */;
  let %x_24: Tensor[(64, 64, 3, 3), float16] /* ty=Tensor[(64, 64, 3, 3), float16] span=from_string:35:479 */ = %18(%x_15) /* ty=Tensor[(64, 64, 3, 3), float16] */;
  %19 = fn (%p018: Tensor[(1, 64, 56, 56), float16] /* ty=Tensor[(1, 64, 56, 56), float16] */, Primitive=1) -> Tensor[(1, 64, 56, 56), float16] {
    nn.relu(%p018) /* ty=Tensor[(1, 64, 56, 56), float16] span=from_string:29:114 */
  } /* ty=fn (Tensor[(1, 64, 56, 56), float16]) -> Tensor[(1, 64, 56, 56), float16] */;
  let %x_25: Tensor[(1, 64, 56, 56), float16] /* ty=Tensor[(1, 64, 56, 56), float16] span=from_string:35:486 */ = %19(%x_8) /* ty=Tensor[(1, 64, 56, 56), float16] */;
  %20 = fn (%p019: float32 /* ty=float32 */, Primitive=1) -> float16 {
    cast(%p019, dtype="float16") /* ty=float16 span=from_string:30:64 */
  } /* ty=fn (float32) -> float16 */;
  let %x_26: float16 /* ty=float16 span=from_string:31:93 */ = %20(%x4) /* ty=float16 */;
  %21 = fn (%p020: float16 /* ty=float16 */, Primitive=1) -> Tensor[(4), int32] {
    full(%p020, shape=[4], dtype="int32") /* ty=Tensor[(4), int32] span=from_string:31:88 */
  } /* ty=fn (float16) -> Tensor[(4), int32] */;
  let %x_27: Tensor[(4), int32] /* ty=Tensor[(4), int32] span=from_string:35:493 */ = %21(%x_26) /* ty=Tensor[(4), int32] */;
  let %x_28: (Tensor[(64, 64, 3, 3), float32], Tensor[(4, 64, 3, 3), float32]) /* ty=(Tensor[(64, 64, 3, 3), float32], Tensor[(4, 64, 3, 3), float32]) span=from_string:33:124 */ = (%x1, %x5) /* ty=(Tensor[(64, 64, 3, 3), float32], Tensor[(4, 64, 3, 3), float32]) span=from_string:32:180 */;
  %22 = fn (%p021: (Tensor[(64, 64, 3, 3), float32], Tensor[(4, 64, 3, 3), float32]) /* ty=(Tensor[(64, 64, 3, 3), float32], Tensor[(4, 64, 3, 3), float32]) */, Primitive=1) -> Tensor[(68, 64, 3, 3), float32] {
    concatenate(%p021) /* ty=Tensor[(68, 64, 3, 3), float32] span=from_string:33:112 */
  } /* ty=fn ((Tensor[(64, 64, 3, 3), float32], Tensor[(4, 64, 3, 3), float32])) -> Tensor[(68, 64, 3, 3), float32] */;
  let %x_29: Tensor[(68, 64, 3, 3), float32] /* ty=Tensor[(68, 64, 3, 3), float32] span=from_string:35:500 */ = %22(%x_28) /* ty=Tensor[(68, 64, 3, 3), float32] */;
  let %x_30: bool /* ty=bool span=from_string:35:507 */ = False /* ty=bool span=from_string:34:58 */;
  let %x_31: (Tensor[(1, 128, 56, 56), float16], float32, Tensor[(64, 64, 3, 3), float16], Tensor[(64, 64, 3, 3), float16], Tensor[(1, 64, 56, 56), float16], Tensor[(4), int32], Tensor[(68, 64, 3, 3), float32], bool) /* ty=(Tensor[(1, 128, 56, 56), float16], float32, Tensor[(64, 64, 3, 3), float16], Tensor[(64, 64, 3, 3), float16], Tensor[(1, 64, 56, 56), float16], Tensor[(4), int32], Tensor[(68, 64, 3, 3), float32], bool) span=from_string:36:3 */ = (%x_13, %x_14, %x_23, %x_24, %x_25, %x_27, %x_29, %x_30) /* ty=(Tensor[(1, 128, 56, 56), float16], float32, Tensor[(64, 64, 3, 3), float16], Tensor[(64, 64, 3, 3), float16], Tensor[(1, 64, 56, 56), float16], Tensor[(4), int32], Tensor[(68, 64, 3, 3), float32], bool) span=from_string:35:457 */;
  %x_31
}
