#[version = "0.0.5"]
def @main(%x0: Tensor[(1, 64, 56, 56), float32] /* ty=Tensor[(1, 64, 56, 56), float32] span=from_string:11:115 */, %x1: Tensor[(64, 64, 3, 3), float32] /* ty=Tensor[(64, 64, 3, 3), float32] span=from_string:69:181 */, %x2: Tensor[(4096, 3, 3), float32] /* ty=Tensor[(4096, 3, 3), float32] */, %x3: Tensor[(1, 64, 56, 56), float32] /* ty=Tensor[(1, 64, 56, 56), float32] */, %x4: float32 /* ty=float32 span=from_string:68:92 */, %x5: Tensor[(4, 64, 3, 3), float32] /* ty=Tensor[(4, 64, 3, 3), float32] span=from_string:69:186 */) -> (Tensor[(1, 128, 56, 56), float32], float32, Tensor[(64, 64, 3, 3), float32], Tensor[(64, 64, 3, 3), float32], Tensor[(1, 64, 56, 56), float32], Tensor[(4), int32], Tensor[(68, 64, 3, 3), float32], bool) {
  let %x_0: float32 /* ty=float32 span=from_string:7:119 */ = 2f /* ty=float32 span=from_string:3:64 */;
  %0 = fn (%p0: Tensor[(64, 64, 3, 3), float32] /* ty=Tensor[(64, 64, 3, 3), float32] span=from_string:5:15 */, %p1: float32 /* ty=float32 span=from_string:5:20 */, Primitive=1) -> Tensor[(64, 64, 3, 3), float32] {
    multiply(%p0, %p1) /* ty=Tensor[(64, 64, 3, 3), float32] span=from_string:5:6 */
  } /* ty=fn (Tensor[(64, 64, 3, 3), float32], float32) -> Tensor[(64, 64, 3, 3), float32] span=from_string:7:111 */;
  let %x_1: Tensor[(64, 64, 3, 3), float32] /* ty=Tensor[(64, 64, 3, 3), float32] span=from_string:47:115 */ = %0(%x1, %x_0) /* ty=Tensor[(64, 64, 3, 3), float32] span=from_string:7:111 */;
  %1 = fn (%p01: Tensor[(1, 64, 56, 56), float32] /* ty=Tensor[(1, 64, 56, 56), float32] span=from_string:9:15 */, %p11: Tensor[(64, 64, 3, 3), float32] /* ty=Tensor[(64, 64, 3, 3), float32] span=from_string:9:21 */, Primitive=1) -> Tensor[(1, 64, 56, 56), float32] {
    nn.conv2d(%p01, %p11, padding=[1, 1, 1, 1], channels=64, kernel_size=[3, 3]) /* ty=Tensor[(1, 64, 56, 56), float32] span=from_string:9:5 */
  } /* ty=fn (Tensor[(1, 64, 56, 56), float32], Tensor[(64, 64, 3, 3), float32]) -> Tensor[(1, 64, 56, 56), float32] span=from_string:11:112 */;
  let %x_2: Tensor[(1, 64, 56, 56), float32] /* ty=Tensor[(1, 64, 56, 56), float32] span=from_string:15:115 */ = %1(%x0, %x_1) /* ty=Tensor[(1, 64, 56, 56), float32] span=from_string:11:112 */;
  %2 = fn (%p02: Tensor[(1, 64, 56, 56), float32] /* ty=Tensor[(1, 64, 56, 56), float32] span=from_string:13:13 */, Primitive=1) -> Tensor[(1, 64, 56, 56), float32] {
    nn.relu(%p02) /* ty=Tensor[(1, 64, 56, 56), float32] span=from_string:13:5 */
  } /* ty=fn (Tensor[(1, 64, 56, 56), float32]) -> Tensor[(1, 64, 56, 56), float32] span=from_string:15:112 */;
  let %x_3: Tensor[(1, 64, 56, 56), float32] /* ty=Tensor[(1, 64, 56, 56), float32] span=from_string:24:192 */ = %2(%x_2) /* ty=Tensor[(1, 64, 56, 56), float32] span=from_string:15:112 */;
  %3 = fn (%p03: Tensor[(1, 64, 56, 56), float32] /* ty=Tensor[(1, 64, 56, 56), float32] span=from_string:17:20 */, Primitive=1) -> Tensor[(1, 64, 28, 28), float32] {
    nn.max_pool2d(%p03, pool_size=[2, 2], strides=[2, 2], padding=[0, 0, 0, 0]) /* ty=Tensor[(1, 64, 28, 28), float32] span=from_string:17:5 */
  } /* ty=fn (Tensor[(1, 64, 56, 56), float32]) -> Tensor[(1, 64, 28, 28), float32] span=from_string:19:112 */;
  let %x_4: Tensor[(1, 64, 28, 28), float32] /* ty=Tensor[(1, 64, 28, 28), float32] span=from_string:23:116 */ = %3(%x_3) /* ty=Tensor[(1, 64, 28, 28), float32] span=from_string:19:112 */;
  %4 = fn (%p04: Tensor[(1, 64, 28, 28), float32] /* ty=Tensor[(1, 64, 28, 28), float32] span=from_string:21:19 */, Primitive=1) -> Tensor[(1, 64, 56, 56), float32] {
    nn.upsampling(%p04, scale_h=2f, scale_w=2f) /* ty=Tensor[(1, 64, 56, 56), float32] span=from_string:21:5 */
  } /* ty=fn (Tensor[(1, 64, 28, 28), float32]) -> Tensor[(1, 64, 56, 56), float32] span=from_string:23:113 */;
  let %x_5: Tensor[(1, 64, 56, 56), float32] /* ty=Tensor[(1, 64, 56, 56), float32] span=from_string:64:118 */ = %4(%x_4) /* ty=Tensor[(1, 64, 56, 56), float32] span=from_string:23:113 */;
  let %x_6: (Tensor[(1, 64, 56, 56), float32], Tensor[(1, 64, 56, 56), float32]) /* ty=(Tensor[(1, 64, 56, 56), float32], Tensor[(1, 64, 56, 56), float32]) span=from_string:28:118 */ = (%x_5, %x_3) /* ty=(Tensor[(1, 64, 56, 56), float32], Tensor[(1, 64, 56, 56), float32]) span=from_string:24:185 */;
  %5 = fn (%p05: (Tensor[(1, 64, 56, 56), float32], Tensor[(1, 64, 56, 56), float32]) /* ty=(Tensor[(1, 64, 56, 56), float32], Tensor[(1, 64, 56, 56), float32]) span=from_string:26:17 */, Primitive=1) -> Tensor[(1, 128, 56, 56), float32] {
    concatenate(%p05, axis=1) /* ty=Tensor[(1, 128, 56, 56), float32] span=from_string:26:5 */
  } /* ty=fn ((Tensor[(1, 64, 56, 56), float32], Tensor[(1, 64, 56, 56), float32])) -> Tensor[(1, 128, 56, 56), float32] span=from_string:28:115 */;
  let %x_7: Tensor[(1, 128, 56, 56), float32] /* ty=Tensor[(1, 128, 56, 56), float32] span=from_string:33:118 */ = %5(%x_6) /* ty=Tensor[(1, 128, 56, 56), float32] span=from_string:28:115 */;
  let %x_8: float32 /* ty=float32 span=from_string:33:124 */ = 1f /* ty=float32 span=from_string:29:65 */;
  %6 = fn (%p06: Tensor[(1, 128, 56, 56), float32] /* ty=Tensor[(1, 128, 56, 56), float32] span=from_string:31:9 */, %p12: float32 /* ty=float32 span=from_string:31:15 */, Primitive=1) -> Tensor[(1, 128, 56, 56), float32] {
    add(%p06, %p12) /* ty=Tensor[(1, 128, 56, 56), float32] span=from_string:31:5 */
  } /* ty=fn (Tensor[(1, 128, 56, 56), float32], float32) -> Tensor[(1, 128, 56, 56), float32] span=from_string:33:115 */;
  let %x_9: Tensor[(1, 128, 56, 56), float32] /* ty=Tensor[(1, 128, 56, 56), float32] span=from_string:75:458 */ = %6(%x_7, %x_8) /* ty=Tensor[(1, 128, 56, 56), float32] span=from_string:33:115 */;
  let %x_10: float32 /* ty=float32 span=from_string:75:464 */ = 2f /* ty=float32 span=from_string:34:66 */;
  %7 = fn (%p07: Tensor[(64, 64, 3, 3), float32] /* ty=Tensor[(64, 64, 3, 3), float32] span=from_string:36:13 */, Primitive=1) -> Tensor[(64, 64, 3, 3), float32] {
    nn.relu(%p07) /* ty=Tensor[(64, 64, 3, 3), float32] span=from_string:36:5 */
  } /* ty=fn (Tensor[(64, 64, 3, 3), float32]) -> Tensor[(64, 64, 3, 3), float32] span=from_string:38:112 */;
  let %x_11: Tensor[(64, 64, 3, 3), float32] /* ty=Tensor[(64, 64, 3, 3), float32] span=from_string:60:116 */ = %7(%x_1) /* ty=Tensor[(64, 64, 3, 3), float32] span=from_string:38:112 */;
  let %x_12: float32 /* ty=float32 span=from_string:43:122 */ = 1f /* ty=float32 span=from_string:39:66 */;
  %8 = fn (%p08: Tensor[(64, 64, 3, 3), float32] /* ty=Tensor[(64, 64, 3, 3), float32] span=from_string:41:9 */, %p13: float32 /* ty=float32 span=from_string:41:15 */, Primitive=1) -> Tensor[(64, 64, 3, 3), float32] {
    add(%p08, %p13) /* ty=Tensor[(64, 64, 3, 3), float32] span=from_string:41:5 */
  } /* ty=fn (Tensor[(64, 64, 3, 3), float32], float32) -> Tensor[(64, 64, 3, 3), float32] span=from_string:43:112 */;
  let %x_13: Tensor[(64, 64, 3, 3), float32] /* ty=Tensor[(64, 64, 3, 3), float32] span=from_string:56:116 */ = %8(%x_11, %x_12) /* ty=Tensor[(64, 64, 3, 3), float32] span=from_string:43:112 */;
  %9 = fn (%p09: Tensor[(64, 64, 3, 3), float32] /* ty=Tensor[(64, 64, 3, 3), float32] span=from_string:45:13 */, Primitive=1) -> Tensor[(64, 64, 3, 3), float32] {
    nn.relu(%p09) /* ty=Tensor[(64, 64, 3, 3), float32] span=from_string:45:5 */
  } /* ty=fn (Tensor[(64, 64, 3, 3), float32]) -> Tensor[(64, 64, 3, 3), float32] span=from_string:47:112 */;
  let %x_14: Tensor[(64, 64, 3, 3), float32] /* ty=Tensor[(64, 64, 3, 3), float32] span=from_string:52:116 */ = %9(%x_1) /* ty=Tensor[(64, 64, 3, 3), float32] span=from_string:47:112 */;
  let %x_15: float32 /* ty=float32 span=from_string:52:123 */ = 1f /* ty=float32 span=from_string:48:66 */;
  %10 = fn (%p010: Tensor[(64, 64, 3, 3), float32] /* ty=Tensor[(64, 64, 3, 3), float32] span=from_string:50:9 */, %p14: float32 /* ty=float32 span=from_string:50:16 */, Primitive=1) -> Tensor[(64, 64, 3, 3), float32] {
    add(%p010, %p14) /* ty=Tensor[(64, 64, 3, 3), float32] span=from_string:50:5 */
  } /* ty=fn (Tensor[(64, 64, 3, 3), float32], float32) -> Tensor[(64, 64, 3, 3), float32] span=from_string:52:112 */;
  let %x_16: Tensor[(64, 64, 3, 3), float32] /* ty=Tensor[(64, 64, 3, 3), float32] span=from_string:56:123 */ = %10(%x_14, %x_15) /* ty=Tensor[(64, 64, 3, 3), float32] span=from_string:52:112 */;
  %11 = fn (%p011: Tensor[(64, 64, 3, 3), float32] /* ty=Tensor[(64, 64, 3, 3), float32] span=from_string:54:9 */, %p15: Tensor[(64, 64, 3, 3), float32] /* ty=Tensor[(64, 64, 3, 3), float32] span=from_string:54:16 */, Primitive=1) -> Tensor[(64, 64, 3, 3), float32] {
    add(%p011, %p15) /* ty=Tensor[(64, 64, 3, 3), float32] span=from_string:54:5 */
  } /* ty=fn (Tensor[(64, 64, 3, 3), float32], Tensor[(64, 64, 3, 3), float32]) -> Tensor[(64, 64, 3, 3), float32] span=from_string:56:112 */;
  let %x_17: Tensor[(64, 64, 3, 3), float32] /* ty=Tensor[(64, 64, 3, 3), float32] span=from_string:75:471 */ = %11(%x_13, %x_16) /* ty=Tensor[(64, 64, 3, 3), float32] span=from_string:56:112 */;
  %12 = fn (%p012: Tensor[(64, 64, 3, 3), float32] /* ty=Tensor[(64, 64, 3, 3), float32] span=from_string:58:13 */, Primitive=1, relay.reshape_only=1) -> Tensor[(64, 64, 3, 3), float32] {
    reshape(%p012, newshape=[64, 64, 3, 3]) /* ty=Tensor[(64, 64, 3, 3), float32] span=from_string:58:5 */
  } /* ty=fn (Tensor[(64, 64, 3, 3), float32]) -> Tensor[(64, 64, 3, 3), float32] span=from_string:60:112 */;
  let %x_18: Tensor[(64, 64, 3, 3), float32] /* ty=Tensor[(64, 64, 3, 3), float32] span=from_string:75:478 */ = %12(%x_11) /* ty=Tensor[(64, 64, 3, 3), float32] span=from_string:60:112 */;
  %13 = fn (%p013: Tensor[(1, 64, 56, 56), float32] /* ty=Tensor[(1, 64, 56, 56), float32] span=from_string:62:13 */, Primitive=1) -> Tensor[(1, 64, 56, 56), float32] {
    nn.relu(%p013) /* ty=Tensor[(1, 64, 56, 56), float32] span=from_string:62:5 */
  } /* ty=fn (Tensor[(1, 64, 56, 56), float32]) -> Tensor[(1, 64, 56, 56), float32] span=from_string:64:114 */;
  let %x_19: Tensor[(1, 64, 56, 56), float32] /* ty=Tensor[(1, 64, 56, 56), float32] span=from_string:75:485 */ = %13(%x_5) /* ty=Tensor[(1, 64, 56, 56), float32] span=from_string:64:114 */;
  %14 = fn (%p014: float32 /* ty=float32 span=from_string:66:10 */, Primitive=1) -> Tensor[(4), int32] {
    full(%p014, shape=[4], dtype="int32") /* ty=Tensor[(4), int32] span=from_string:66:5 */
  } /* ty=fn (float32) -> Tensor[(4), int32] span=from_string:68:88 */;
  let %x_20: Tensor[(4), int32] /* ty=Tensor[(4), int32] span=from_string:75:492 */ = %14(%x4) /* ty=Tensor[(4), int32] span=from_string:68:88 */;
  let %x_21: (Tensor[(64, 64, 3, 3), float32], Tensor[(4, 64, 3, 3), float32]) /* ty=(Tensor[(64, 64, 3, 3), float32], Tensor[(4, 64, 3, 3), float32]) span=from_string:73:116 */ = (%x1, %x5) /* ty=(Tensor[(64, 64, 3, 3), float32], Tensor[(4, 64, 3, 3), float32]) span=from_string:69:180 */;
  %15 = fn (%p015: (Tensor[(64, 64, 3, 3), float32], Tensor[(4, 64, 3, 3), float32]) /* ty=(Tensor[(64, 64, 3, 3), float32], Tensor[(4, 64, 3, 3), float32]) span=from_string:71:17 */, Primitive=1) -> Tensor[(68, 64, 3, 3), float32] {
    concatenate(%p015) /* ty=Tensor[(68, 64, 3, 3), float32] span=from_string:71:5 */
  } /* ty=fn ((Tensor[(64, 64, 3, 3), float32], Tensor[(4, 64, 3, 3), float32])) -> Tensor[(68, 64, 3, 3), float32] span=from_string:73:112 */;
  let %x_22: Tensor[(68, 64, 3, 3), float32] /* ty=Tensor[(68, 64, 3, 3), float32] span=from_string:75:499 */ = %15(%x_21) /* ty=Tensor[(68, 64, 3, 3), float32] span=from_string:73:112 */;
  let %x_23: bool /* ty=bool span=from_string:75:506 */ = False /* ty=bool span=from_string:74:58 */;
  let %x_24: (Tensor[(1, 128, 56, 56), float32], float32, Tensor[(64, 64, 3, 3), float32], Tensor[(64, 64, 3, 3), float32], Tensor[(1, 64, 56, 56), float32], Tensor[(4), int32], Tensor[(68, 64, 3, 3), float32], bool) /* ty=(Tensor[(1, 128, 56, 56), float32], float32, Tensor[(64, 64, 3, 3), float32], Tensor[(64, 64, 3, 3), float32], Tensor[(1, 64, 56, 56), float32], Tensor[(4), int32], Tensor[(68, 64, 3, 3), float32], bool) span=from_string:76:3 */ = (%x_9, %x_10, %x_17, %x_18, %x_19, %x_20, %x_22, %x_23) /* ty=(Tensor[(1, 128, 56, 56), float32], float32, Tensor[(64, 64, 3, 3), float32], Tensor[(64, 64, 3, 3), float32], Tensor[(1, 64, 56, 56), float32], Tensor[(4), int32], Tensor[(68, 64, 3, 3), float32], bool) span=from_string:75:457 */;
  %x_24
}
