#[version = "0.0.5"]
def @main(%x0: Tensor[(1, 64, 56, 56), float32] /* ty=Tensor[(1, 64, 56, 56), float32] span=from_string:8:20 */, %x1: Tensor[(64, 64, 3, 3), float32] /* ty=Tensor[(64, 64, 3, 3), float32] span=from_string:36:180 */, %x2: Tensor[(4096, 3, 3), float32] /* ty=Tensor[(4096, 3, 3), float32] */, %x3: Tensor[(1, 64, 56, 56), float32] /* ty=Tensor[(1, 64, 56, 56), float32] */, %x4: float32 /* ty=float32 span=from_string:34:20 */, %x5: Tensor[(4, 64, 3, 3), float32] /* ty=Tensor[(4, 64, 3, 3), float32] span=from_string:36:185 */) -> (Tensor[(1, 128, 56, 56), float16], float32, Tensor[(64, 64, 3, 3), float16], Tensor[(64, 64, 3, 3), float16], Tensor[(1, 64, 56, 56), float16], Tensor[(4), int32], Tensor[(68, 64, 3, 3), float16], bool) {
  %0 = cast(%x1, dtype="float16") /* ty=Tensor[(64, 64, 3, 3), float16] span=from_string:5:15 */;
  %1 = cast(2f /* ty=float32 span=from_string:4:64 */, dtype="float16") /* ty=float16 span=from_string:6:15 */;
  %2 = cast(%x0, dtype="float16") /* ty=Tensor[(1, 64, 56, 56), float16] span=from_string:8:15 */;
  %3 = multiply(%0, %1) /* ty=Tensor[(64, 64, 3, 3), float16] span=from_string:7:113 */;
  %4 = cast(0f /* ty=float32 span=from_string:3:65 */, dtype="float16") /* ty=float16 span=from_string:10:15 */;
  %5 = nn.conv2d(%2, %3, padding=[1, 1, 1, 1], channels=64, kernel_size=[3, 3], out_dtype="float16") /* ty=Tensor[(1, 64, 56, 56), float16] span=from_string:9:114 */;
  %6 = add(%4, %5) /* ty=Tensor[(1, 64, 56, 56), float16] span=from_string:11:114 */;
  %7 = nn.relu(%6) /* ty=Tensor[(1, 64, 56, 56), float16] span=from_string:12:114 */;
  %8 = nn.max_pool2d(%7, pool_size=[2, 2], strides=[2, 2], padding=[0, 0, 0, 0]) /* ty=Tensor[(1, 64, 28, 28), float16] span=from_string:13:114 */;
  %9 = nn.upsampling(%8, scale_h=2f, scale_w=2f) /* ty=Tensor[(1, 64, 56, 56), float16] span=from_string:14:114 */;
  %10 = (%9, %7) /* ty=(Tensor[(1, 64, 56, 56), float16], Tensor[(1, 64, 56, 56), float16]) span=from_string:15:186 */;
  %11 = concatenate(%10, axis=1) /* ty=Tensor[(1, 128, 56, 56), float16] span=from_string:16:116 */;
  %12 = cast(1f /* ty=float32 span=from_string:17:66 */, dtype="float16") /* ty=float16 span=from_string:18:15 */;
  %13 = nn.relu(%3) /* ty=Tensor[(64, 64, 3, 3), float16] span=from_string:21:113 */;
  %14 = cast(1f /* ty=float32 span=from_string:22:66 */, dtype="float16") /* ty=float16 span=from_string:23:15 */;
  %15 = add(%13, %14) /* ty=Tensor[(64, 64, 3, 3), float16] span=from_string:24:113 */;
  %16 = cast(2f /* ty=float32 span=from_string:25:17 */, dtype="float16") /* ty=float16 span=from_string:26:15 */;
  %17 = reshape(%13, newshape=[4096, 3, 3]) /* ty=Tensor[(4096, 3, 3), float16] span=from_string:28:109 */;
  %18 = layout_transform(%9, src_layout="NCHW", dst_layout="NHWC") /* ty=Tensor[(1, 56, 56, 64), float16] span=from_string:30:115 */;
  %19 = layout_transform(%18, src_layout="NHWC", dst_layout="NCHW") /* ty=Tensor[(1, 64, 56, 56), float16] span=from_string:31:115 */;
  %20 = cast(%x4, dtype="float16") /* ty=float16 span=from_string:34:15 */;
  %21 = (%x1, %x5) /* ty=(Tensor[(64, 64, 3, 3), float32], Tensor[(4, 64, 3, 3), float32]) span=from_string:36:179 */;
  %22 = %21.0 /* ty=Tensor[(64, 64, 3, 3), float32] span=from_string:37:15 */;
  %23 = %21.1 /* ty=Tensor[(4, 64, 3, 3), float32] span=from_string:39:16 */;
  %24 = cast(%22, dtype="float16") /* ty=Tensor[(64, 64, 3, 3), float16] span=from_string:38:16 */;
  %25 = cast(%23, dtype="float16") /* ty=Tensor[(4, 64, 3, 3), float16] span=from_string:40:16 */;
  %26 = (%24, %25) /* ty=(Tensor[(64, 64, 3, 3), float16], Tensor[(4, 64, 3, 3), float16]) span=from_string:41:16 */;
  %27 = add(%11, %12) /* ty=Tensor[(1, 128, 56, 56), float16] span=from_string:19:118 */;
  %28 = multiply(%15, %16) /* ty=Tensor[(64, 64, 3, 3), float16] span=from_string:27:114 */;
  %29 = reshape(%17, newshape=[64, 64, 3, 3]) /* ty=Tensor[(64, 64, 3, 3), float16] span=from_string:29:113 */;
  %30 = nn.relu(%19) /* ty=Tensor[(1, 64, 56, 56), float16] span=from_string:32:116 */;
  %31 = full(%20, shape=[4], dtype="int32") /* ty=Tensor[(4), int32] span=from_string:35:89 */;
  %32 = concatenate(%26) /* ty=Tensor[(68, 64, 3, 3), float16] span=from_string:42:113 */;
  (%27, 2f /* ty=float32 span=from_string:20:67 */, %28, %29, %30, %31, %32, False /* ty=bool span=from_string:43:59 */) /* ty=(Tensor[(1, 128, 56, 56), float16], float32, Tensor[(64, 64, 3, 3), float16], Tensor[(64, 64, 3, 3), float16], Tensor[(1, 64, 56, 56), float16], Tensor[(4), int32], Tensor[(68, 64, 3, 3), float16], bool) span=from_string:44:457 */
}
