#[version = "0.0.5"]
def @main(%x0: Tensor[(1, 64, 56, 56), float32] /* ty=Tensor[(1, 64, 56, 56), float32] span=from_string:9:20 */, %x1: Tensor[(64, 64, 3, 3), float32] /* ty=Tensor[(64, 64, 3, 3), float32] span=from_string:39:158 */, %x2: Tensor[(4096, 3, 3), float32] /* ty=Tensor[(4096, 3, 3), float32] */, %x3: Tensor[(1, 64, 56, 56), float32] /* ty=Tensor[(1, 64, 56, 56), float32] */, %x4: float32 /* ty=float32 span=from_string:36:20 */, %x5: Tensor[(4, 64, 3, 3), float32] /* ty=Tensor[(4, 64, 3, 3), float32] span=from_string:41:19 */) -> (Tensor[(1, 128, 56, 56), float16], float32, Tensor[(64, 64, 3, 3), float16], Tensor[(64, 64, 3, 3), float16], Tensor[(1, 64, 56, 56), float16], Tensor[(4), int32], Tensor[(68, 64, 3, 3), float16], bool) {
  let %x_01: Tensor[(64, 64, 3, 3), float16] /* ty=Tensor[(64, 64, 3, 3), float16] span=from_string:40:118 */ = cast(%x1, dtype="float16") /* ty=Tensor[(64, 64, 3, 3), float16] span=from_string:5:15 */;
  let %x_2: Tensor[(64, 64, 3, 3), float16] /* ty=Tensor[(64, 64, 3, 3), float16] span=from_string:8:122 */ = cast(%x_01, dtype="float16") /* ty=Tensor[(64, 64, 3, 3), float16] span=from_string:6:111 */;
  let %x_7: Tensor[(64, 64, 3, 3), float16] /* ty=Tensor[(64, 64, 3, 3), float16] span=from_string:23:121 */ = multiply(%x_2, 2f16 /* ty=float16 span=from_string:7:67 */) /* ty=Tensor[(64, 64, 3, 3), float16] span=from_string:8:113 */;
  let %x_11: Tensor[(1, 64, 56, 56), float16] /* ty=Tensor[(1, 64, 56, 56), float16] span=from_string:10:119 */ = cast(%x0, dtype="float16") /* ty=Tensor[(1, 64, 56, 56), float16] span=from_string:9:15 */;
  let %x_8: Tensor[(1, 64, 56, 56), float16] /* ty=Tensor[(1, 64, 56, 56), float16] span=from_string:11:124 */ = cast(%x_11, dtype="float16") /* ty=Tensor[(1, 64, 56, 56), float16] span=from_string:10:114 */;
  let %x_9: Tensor[(1, 64, 56, 56), float16] /* ty=Tensor[(1, 64, 56, 56), float16] span=from_string:13:126 */ = nn.conv2d(%x_8, %x_7, padding=[1, 1, 1, 1], channels=64, kernel_size=[3, 3], out_dtype="float16") /* ty=Tensor[(1, 64, 56, 56), float16] span=from_string:11:114 */;
  let %x_14: Tensor[(1, 64, 56, 56), float16] /* ty=Tensor[(1, 64, 56, 56), float16] span=from_string:14:123 */ = add(0f16 /* ty=float16 span=from_string:12:69 */, %x_9) /* ty=Tensor[(1, 64, 56, 56), float16] span=from_string:13:115 */;
  let %x_15: Tensor[(1, 64, 56, 56), float16] /* ty=Tensor[(1, 64, 56, 56), float16] span=from_string:17:195 */ = nn.relu(%x_14) /* ty=Tensor[(1, 64, 56, 56), float16] span=from_string:14:115 */;
  let %x_16: Tensor[(1, 64, 28, 28), float16] /* ty=Tensor[(1, 64, 28, 28), float16] span=from_string:16:129 */ = nn.max_pool2d(%x_15, pool_size=[2, 2], strides=[2, 2], padding=[0, 0, 0, 0]) /* ty=Tensor[(1, 64, 28, 28), float16] span=from_string:15:115 */;
  let %x_17: Tensor[(1, 64, 56, 56), float16] /* ty=Tensor[(1, 64, 56, 56), float16] span=from_string:32:132 */ = nn.upsampling(%x_16, scale_h=2f, scale_w=2f) /* ty=Tensor[(1, 64, 56, 56), float16] span=from_string:16:115 */;
  let %x_18: (Tensor[(1, 64, 56, 56), float16], Tensor[(1, 64, 56, 56), float16]) /* ty=(Tensor[(1, 64, 56, 56), float16], Tensor[(1, 64, 56, 56), float16]) span=from_string:18:129 */ = (%x_17, %x_15) /* ty=(Tensor[(1, 64, 56, 56), float16], Tensor[(1, 64, 56, 56), float16]) span=from_string:17:187 */;
  let %x_19: Tensor[(1, 128, 56, 56), float16] /* ty=Tensor[(1, 128, 56, 56), float16] span=from_string:21:121 */ = concatenate(%x_18, axis=1) /* ty=Tensor[(1, 128, 56, 56), float16] span=from_string:18:117 */;
  let %x_25: Tensor[(1, 128, 56, 56), float16] /* ty=Tensor[(1, 128, 56, 56), float16] span=from_string:46:458 */ = add(%x_19, 1f16 /* ty=float16 span=from_string:20:69 */) /* ty=Tensor[(1, 128, 56, 56), float16] span=from_string:21:117 */;
  let %x_27: Tensor[(64, 64, 3, 3), float16] /* ty=Tensor[(64, 64, 3, 3), float16] span=from_string:30:117 */ = nn.relu(%x_7) /* ty=Tensor[(64, 64, 3, 3), float16] span=from_string:23:113 */;
  let %x_33: Tensor[(64, 64, 3, 3), float16] /* ty=Tensor[(64, 64, 3, 3), float16] span=from_string:29:123 */ = add(%x_27, 1f16 /* ty=float16 span=from_string:25:69 */) /* ty=Tensor[(64, 64, 3, 3), float16] span=from_string:26:113 */;
  let %x_39: Tensor[(64, 64, 3, 3), float16] /* ty=Tensor[(64, 64, 3, 3), float16] span=from_string:46:472 */ = multiply(%x_33, 2f16 /* ty=float16 span=from_string:28:69 */) /* ty=Tensor[(64, 64, 3, 3), float16] span=from_string:29:114 */;
  let %x_40: Tensor[(4096, 3, 3), float16] /* ty=Tensor[(4096, 3, 3), float16] span=from_string:31:121 */ = reshape(%x_27, newshape=[4096, 3, 3]) /* ty=Tensor[(4096, 3, 3), float16] span=from_string:30:109 */;
  let %x_41: Tensor[(64, 64, 3, 3), float16] /* ty=Tensor[(64, 64, 3, 3), float16] span=from_string:46:479 */ = reshape(%x_40, newshape=[64, 64, 3, 3]) /* ty=Tensor[(64, 64, 3, 3), float16] span=from_string:31:113 */;
  let %x_42: Tensor[(1, 56, 56, 64), float16] /* ty=Tensor[(1, 56, 56, 64), float16] span=from_string:33:132 */ = layout_transform(%x_17, src_layout="NCHW", dst_layout="NHWC") /* ty=Tensor[(1, 56, 56, 64), float16] span=from_string:32:115 */;
  let %x_43: Tensor[(1, 64, 56, 56), float16] /* ty=Tensor[(1, 64, 56, 56), float16] span=from_string:34:123 */ = layout_transform(%x_42, src_layout="NHWC", dst_layout="NCHW") /* ty=Tensor[(1, 64, 56, 56), float16] span=from_string:33:115 */;
  let %x_44: Tensor[(1, 64, 56, 56), float16] /* ty=Tensor[(1, 64, 56, 56), float16] span=from_string:46:486 */ = nn.relu(%x_43) /* ty=Tensor[(1, 64, 56, 56), float16] span=from_string:34:115 */;
  let %x_21: float16 /* ty=float16 span=from_string:37:69 */ = cast(%x4, dtype="float16") /* ty=float16 span=from_string:36:15 */;
  let %x_46: float16 /* ty=float16 span=from_string:38:94 */ = cast(%x_21, dtype="float16") /* ty=float16 span=from_string:37:64 */;
  let %x_47: Tensor[(4), int32] /* ty=Tensor[(4), int32] span=from_string:46:493 */ = full(%x_46, shape=[4], dtype="int32") /* ty=Tensor[(4), int32] span=from_string:38:89 */;
  let %x_48: (Tensor[(64, 64, 3, 3), float32], Tensor[(4, 64, 3, 3), float32]) /* ty=(Tensor[(64, 64, 3, 3), float32], Tensor[(4, 64, 3, 3), float32]) */ = (%x1, %x5) /* ty=(Tensor[(64, 64, 3, 3), float32], Tensor[(4, 64, 3, 3), float32]) span=from_string:39:157 */;
  let %x_49: Tensor[(64, 64, 3, 3), float16] /* ty=Tensor[(64, 64, 3, 3), float16] span=from_string:43:182 */ = cast(%x_01, dtype="float16") /* ty=Tensor[(64, 64, 3, 3), float16] span=from_string:40:113 */;
  let %x_3: Tensor[(4, 64, 3, 3), float16] /* ty=Tensor[(4, 64, 3, 3), float16] span=from_string:42:116 */ = cast(%x5, dtype="float16") /* ty=Tensor[(4, 64, 3, 3), float16] span=from_string:41:14 */;
  let %x_50: Tensor[(4, 64, 3, 3), float16] /* ty=Tensor[(4, 64, 3, 3), float16] span=from_string:43:189 */ = cast(%x_3, dtype="float16") /* ty=Tensor[(4, 64, 3, 3), float16] span=from_string:42:111 */;
  let %x_51: (Tensor[(64, 64, 3, 3), float16], Tensor[(4, 64, 3, 3), float16]) /* ty=(Tensor[(64, 64, 3, 3), float16], Tensor[(4, 64, 3, 3), float16]) span=from_string:44:125 */ = (%x_49, %x_50) /* ty=(Tensor[(64, 64, 3, 3), float16], Tensor[(4, 64, 3, 3), float16]) span=from_string:43:181 */;
  let %x_52: Tensor[(68, 64, 3, 3), float16] /* ty=Tensor[(68, 64, 3, 3), float16] span=from_string:46:500 */ = concatenate(%x_51) /* ty=Tensor[(68, 64, 3, 3), float16] span=from_string:44:113 */;
  let %x_54: (Tensor[(1, 128, 56, 56), float16], float32, Tensor[(64, 64, 3, 3), float16], Tensor[(64, 64, 3, 3), float16], Tensor[(1, 64, 56, 56), float16], Tensor[(4), int32], Tensor[(68, 64, 3, 3), float16], bool) /* ty=(Tensor[(1, 128, 56, 56), float16], float32, Tensor[(64, 64, 3, 3), float16], Tensor[(64, 64, 3, 3), float16], Tensor[(1, 64, 56, 56), float16], Tensor[(4), int32], Tensor[(68, 64, 3, 3), float16], bool) span=from_string:47:14 */ = (%x_25, 2f /* ty=float32 span=from_string:22:67 */, %x_39, %x_41, %x_44, %x_47, %x_52, False /* ty=bool span=from_string:45:59 */) /* ty=(Tensor[(1, 128, 56, 56), float16], float32, Tensor[(64, 64, 3, 3), float16], Tensor[(64, 64, 3, 3), float16], Tensor[(1, 64, 56, 56), float16], Tensor[(4), int32], Tensor[(68, 64, 3, 3), float16], bool) span=from_string:46:457 */;
  let %x_4: (Tensor[(1, 128, 56, 56), float16], float32, Tensor[(64, 64, 3, 3), float16], Tensor[(64, 64, 3, 3), float16], Tensor[(1, 64, 56, 56), float16], Tensor[(4), int32], Tensor[(68, 64, 3, 3), float16], bool) /* ty=(Tensor[(1, 128, 56, 56), float16], float32, Tensor[(64, 64, 3, 3), float16], Tensor[(64, 64, 3, 3), float16], Tensor[(1, 64, 56, 56), float16], Tensor[(4), int32], Tensor[(68, 64, 3, 3), float16], bool) span=from_string:48:14 */ = %x_54;
  let %x_5: (Tensor[(1, 128, 56, 56), float16], float32, Tensor[(64, 64, 3, 3), float16], Tensor[(64, 64, 3, 3), float16], Tensor[(1, 64, 56, 56), float16], Tensor[(4), int32], Tensor[(68, 64, 3, 3), float16], bool) /* ty=(Tensor[(1, 128, 56, 56), float16], float32, Tensor[(64, 64, 3, 3), float16], Tensor[(64, 64, 3, 3), float16], Tensor[(1, 64, 56, 56), float16], Tensor[(4), int32], Tensor[(68, 64, 3, 3), float16], bool) span=from_string:49:15 */ = %x_4;
  let %x_61: (Tensor[(1, 128, 56, 56), float16], float32, Tensor[(64, 64, 3, 3), float16], Tensor[(64, 64, 3, 3), float16], Tensor[(1, 64, 56, 56), float16], Tensor[(4), int32], Tensor[(68, 64, 3, 3), float16], bool) /* ty=(Tensor[(1, 128, 56, 56), float16], float32, Tensor[(64, 64, 3, 3), float16], Tensor[(64, 64, 3, 3), float16], Tensor[(1, 64, 56, 56), float16], Tensor[(4), int32], Tensor[(68, 64, 3, 3), float16], bool) span=from_string:50:15 */ = %x_5;
  let %x_71: (Tensor[(1, 128, 56, 56), float16], float32, Tensor[(64, 64, 3, 3), float16], Tensor[(64, 64, 3, 3), float16], Tensor[(1, 64, 56, 56), float16], Tensor[(4), int32], Tensor[(68, 64, 3, 3), float16], bool) /* ty=(Tensor[(1, 128, 56, 56), float16], float32, Tensor[(64, 64, 3, 3), float16], Tensor[(64, 64, 3, 3), float16], Tensor[(1, 64, 56, 56), float16], Tensor[(4), int32], Tensor[(68, 64, 3, 3), float16], bool) span=from_string:51:15 */ = %x_61;
  let %x_81: (Tensor[(1, 128, 56, 56), float16], float32, Tensor[(64, 64, 3, 3), float16], Tensor[(64, 64, 3, 3), float16], Tensor[(1, 64, 56, 56), float16], Tensor[(4), int32], Tensor[(68, 64, 3, 3), float16], bool) /* ty=(Tensor[(1, 128, 56, 56), float16], float32, Tensor[(64, 64, 3, 3), float16], Tensor[(64, 64, 3, 3), float16], Tensor[(1, 64, 56, 56), float16], Tensor[(4), int32], Tensor[(68, 64, 3, 3), float16], bool) span=from_string:52:15 */ = %x_71;
  let %x_91: (Tensor[(1, 128, 56, 56), float16], float32, Tensor[(64, 64, 3, 3), float16], Tensor[(64, 64, 3, 3), float16], Tensor[(1, 64, 56, 56), float16], Tensor[(4), int32], Tensor[(68, 64, 3, 3), float16], bool) /* ty=(Tensor[(1, 128, 56, 56), float16], float32, Tensor[(64, 64, 3, 3), float16], Tensor[(64, 64, 3, 3), float16], Tensor[(1, 64, 56, 56), float16], Tensor[(4), int32], Tensor[(68, 64, 3, 3), float16], bool) span=from_string:53:15 */ = %x_81;
  let %x_10: (Tensor[(1, 128, 56, 56), float16], float32, Tensor[(64, 64, 3, 3), float16], Tensor[(64, 64, 3, 3), float16], Tensor[(1, 64, 56, 56), float16], Tensor[(4), int32], Tensor[(68, 64, 3, 3), float16], bool) /* ty=(Tensor[(1, 128, 56, 56), float16], float32, Tensor[(64, 64, 3, 3), float16], Tensor[(64, 64, 3, 3), float16], Tensor[(1, 64, 56, 56), float16], Tensor[(4), int32], Tensor[(68, 64, 3, 3), float16], bool) span=from_string:54:16 */ = %x_91;
  let %x_111: (Tensor[(1, 128, 56, 56), float16], float32, Tensor[(64, 64, 3, 3), float16], Tensor[(64, 64, 3, 3), float16], Tensor[(1, 64, 56, 56), float16], Tensor[(4), int32], Tensor[(68, 64, 3, 3), float16], bool) /* ty=(Tensor[(1, 128, 56, 56), float16], float32, Tensor[(64, 64, 3, 3), float16], Tensor[(64, 64, 3, 3), float16], Tensor[(1, 64, 56, 56), float16], Tensor[(4), int32], Tensor[(68, 64, 3, 3), float16], bool) span=from_string:55:15 */ = %x_10;
  let %x_12: (Tensor[(1, 128, 56, 56), float16], float32, Tensor[(64, 64, 3, 3), float16], Tensor[(64, 64, 3, 3), float16], Tensor[(1, 64, 56, 56), float16], Tensor[(4), int32], Tensor[(68, 64, 3, 3), float16], bool) /* ty=(Tensor[(1, 128, 56, 56), float16], float32, Tensor[(64, 64, 3, 3), float16], Tensor[(64, 64, 3, 3), float16], Tensor[(1, 64, 56, 56), float16], Tensor[(4), int32], Tensor[(68, 64, 3, 3), float16], bool) span=from_string:56:16 */ = %x_111;
  let %x_131: (Tensor[(1, 128, 56, 56), float16], float32, Tensor[(64, 64, 3, 3), float16], Tensor[(64, 64, 3, 3), float16], Tensor[(1, 64, 56, 56), float16], Tensor[(4), int32], Tensor[(68, 64, 3, 3), float16], bool) /* ty=(Tensor[(1, 128, 56, 56), float16], float32, Tensor[(64, 64, 3, 3), float16], Tensor[(64, 64, 3, 3), float16], Tensor[(1, 64, 56, 56), float16], Tensor[(4), int32], Tensor[(68, 64, 3, 3), float16], bool) span=from_string:57:16 */ = %x_12;
  let %x_141: (Tensor[(1, 128, 56, 56), float16], float32, Tensor[(64, 64, 3, 3), float16], Tensor[(64, 64, 3, 3), float16], Tensor[(1, 64, 56, 56), float16], Tensor[(4), int32], Tensor[(68, 64, 3, 3), float16], bool) /* ty=(Tensor[(1, 128, 56, 56), float16], float32, Tensor[(64, 64, 3, 3), float16], Tensor[(64, 64, 3, 3), float16], Tensor[(1, 64, 56, 56), float16], Tensor[(4), int32], Tensor[(68, 64, 3, 3), float16], bool) span=from_string:58:16 */ = %x_131;
  let %x_151: (Tensor[(1, 128, 56, 56), float16], float32, Tensor[(64, 64, 3, 3), float16], Tensor[(64, 64, 3, 3), float16], Tensor[(1, 64, 56, 56), float16], Tensor[(4), int32], Tensor[(68, 64, 3, 3), float16], bool) /* ty=(Tensor[(1, 128, 56, 56), float16], float32, Tensor[(64, 64, 3, 3), float16], Tensor[(64, 64, 3, 3), float16], Tensor[(1, 64, 56, 56), float16], Tensor[(4), int32], Tensor[(68, 64, 3, 3), float16], bool) span=from_string:59:16 */ = %x_141;
  let %x_161: (Tensor[(1, 128, 56, 56), float16], float32, Tensor[(64, 64, 3, 3), float16], Tensor[(64, 64, 3, 3), float16], Tensor[(1, 64, 56, 56), float16], Tensor[(4), int32], Tensor[(68, 64, 3, 3), float16], bool) /* ty=(Tensor[(1, 128, 56, 56), float16], float32, Tensor[(64, 64, 3, 3), float16], Tensor[(64, 64, 3, 3), float16], Tensor[(1, 64, 56, 56), float16], Tensor[(4), int32], Tensor[(68, 64, 3, 3), float16], bool) span=from_string:60:16 */ = %x_151;
  let %x_171: (Tensor[(1, 128, 56, 56), float16], float32, Tensor[(64, 64, 3, 3), float16], Tensor[(64, 64, 3, 3), float16], Tensor[(1, 64, 56, 56), float16], Tensor[(4), int32], Tensor[(68, 64, 3, 3), float16], bool) /* ty=(Tensor[(1, 128, 56, 56), float16], float32, Tensor[(64, 64, 3, 3), float16], Tensor[(64, 64, 3, 3), float16], Tensor[(1, 64, 56, 56), float16], Tensor[(4), int32], Tensor[(68, 64, 3, 3), float16], bool) span=from_string:61:16 */ = %x_161;
  let %x_181: (Tensor[(1, 128, 56, 56), float16], float32, Tensor[(64, 64, 3, 3), float16], Tensor[(64, 64, 3, 3), float16], Tensor[(1, 64, 56, 56), float16], Tensor[(4), int32], Tensor[(68, 64, 3, 3), float16], bool) /* ty=(Tensor[(1, 128, 56, 56), float16], float32, Tensor[(64, 64, 3, 3), float16], Tensor[(64, 64, 3, 3), float16], Tensor[(1, 64, 56, 56), float16], Tensor[(4), int32], Tensor[(68, 64, 3, 3), float16], bool) span=from_string:62:16 */ = %x_171;
  let %x_191: (Tensor[(1, 128, 56, 56), float16], float32, Tensor[(64, 64, 3, 3), float16], Tensor[(64, 64, 3, 3), float16], Tensor[(1, 64, 56, 56), float16], Tensor[(4), int32], Tensor[(68, 64, 3, 3), float16], bool) /* ty=(Tensor[(1, 128, 56, 56), float16], float32, Tensor[(64, 64, 3, 3), float16], Tensor[(64, 64, 3, 3), float16], Tensor[(1, 64, 56, 56), float16], Tensor[(4), int32], Tensor[(68, 64, 3, 3), float16], bool) span=from_string:63:16 */ = %x_181;
  let %x_201: (Tensor[(1, 128, 56, 56), float16], float32, Tensor[(64, 64, 3, 3), float16], Tensor[(64, 64, 3, 3), float16], Tensor[(1, 64, 56, 56), float16], Tensor[(4), int32], Tensor[(68, 64, 3, 3), float16], bool) /* ty=(Tensor[(1, 128, 56, 56), float16], float32, Tensor[(64, 64, 3, 3), float16], Tensor[(64, 64, 3, 3), float16], Tensor[(1, 64, 56, 56), float16], Tensor[(4), int32], Tensor[(68, 64, 3, 3), float16], bool) span=from_string:64:16 */ = %x_191;
  let %x_211: (Tensor[(1, 128, 56, 56), float16], float32, Tensor[(64, 64, 3, 3), float16], Tensor[(64, 64, 3, 3), float16], Tensor[(1, 64, 56, 56), float16], Tensor[(4), int32], Tensor[(68, 64, 3, 3), float16], bool) /* ty=(Tensor[(1, 128, 56, 56), float16], float32, Tensor[(64, 64, 3, 3), float16], Tensor[(64, 64, 3, 3), float16], Tensor[(1, 64, 56, 56), float16], Tensor[(4), int32], Tensor[(68, 64, 3, 3), float16], bool) span=from_string:65:15 */ = %x_201;
  let %x_22: (Tensor[(1, 128, 56, 56), float16], float32, Tensor[(64, 64, 3, 3), float16], Tensor[(64, 64, 3, 3), float16], Tensor[(1, 64, 56, 56), float16], Tensor[(4), int32], Tensor[(68, 64, 3, 3), float16], bool) /* ty=(Tensor[(1, 128, 56, 56), float16], float32, Tensor[(64, 64, 3, 3), float16], Tensor[(64, 64, 3, 3), float16], Tensor[(1, 64, 56, 56), float16], Tensor[(4), int32], Tensor[(68, 64, 3, 3), float16], bool) span=from_string:66:15 */ = %x_211;
  let %x_23: (Tensor[(1, 128, 56, 56), float16], float32, Tensor[(64, 64, 3, 3), float16], Tensor[(64, 64, 3, 3), float16], Tensor[(1, 64, 56, 56), float16], Tensor[(4), int32], Tensor[(68, 64, 3, 3), float16], bool) /* ty=(Tensor[(1, 128, 56, 56), float16], float32, Tensor[(64, 64, 3, 3), float16], Tensor[(64, 64, 3, 3), float16], Tensor[(1, 64, 56, 56), float16], Tensor[(4), int32], Tensor[(68, 64, 3, 3), float16], bool) span=from_string:67:16 */ = %x_22;
  let %x_241: (Tensor[(1, 128, 56, 56), float16], float32, Tensor[(64, 64, 3, 3), float16], Tensor[(64, 64, 3, 3), float16], Tensor[(1, 64, 56, 56), float16], Tensor[(4), int32], Tensor[(68, 64, 3, 3), float16], bool) /* ty=(Tensor[(1, 128, 56, 56), float16], float32, Tensor[(64, 64, 3, 3), float16], Tensor[(64, 64, 3, 3), float16], Tensor[(1, 64, 56, 56), float16], Tensor[(4), int32], Tensor[(68, 64, 3, 3), float16], bool) span=from_string:68:16 */ = %x_23;
  let %x_251: (Tensor[(1, 128, 56, 56), float16], float32, Tensor[(64, 64, 3, 3), float16], Tensor[(64, 64, 3, 3), float16], Tensor[(1, 64, 56, 56), float16], Tensor[(4), int32], Tensor[(68, 64, 3, 3), float16], bool) /* ty=(Tensor[(1, 128, 56, 56), float16], float32, Tensor[(64, 64, 3, 3), float16], Tensor[(64, 64, 3, 3), float16], Tensor[(1, 64, 56, 56), float16], Tensor[(4), int32], Tensor[(68, 64, 3, 3), float16], bool) span=from_string:69:16 */ = %x_241;
  let %x_261: (Tensor[(1, 128, 56, 56), float16], float32, Tensor[(64, 64, 3, 3), float16], Tensor[(64, 64, 3, 3), float16], Tensor[(1, 64, 56, 56), float16], Tensor[(4), int32], Tensor[(68, 64, 3, 3), float16], bool) /* ty=(Tensor[(1, 128, 56, 56), float16], float32, Tensor[(64, 64, 3, 3), float16], Tensor[(64, 64, 3, 3), float16], Tensor[(1, 64, 56, 56), float16], Tensor[(4), int32], Tensor[(68, 64, 3, 3), float16], bool) span=from_string:70:16 */ = %x_251;
  let %x_271: (Tensor[(1, 128, 56, 56), float16], float32, Tensor[(64, 64, 3, 3), float16], Tensor[(64, 64, 3, 3), float16], Tensor[(1, 64, 56, 56), float16], Tensor[(4), int32], Tensor[(68, 64, 3, 3), float16], bool) /* ty=(Tensor[(1, 128, 56, 56), float16], float32, Tensor[(64, 64, 3, 3), float16], Tensor[(64, 64, 3, 3), float16], Tensor[(1, 64, 56, 56), float16], Tensor[(4), int32], Tensor[(68, 64, 3, 3), float16], bool) span=from_string:71:16 */ = %x_261;
  let %x_281: (Tensor[(1, 128, 56, 56), float16], float32, Tensor[(64, 64, 3, 3), float16], Tensor[(64, 64, 3, 3), float16], Tensor[(1, 64, 56, 56), float16], Tensor[(4), int32], Tensor[(68, 64, 3, 3), float16], bool) /* ty=(Tensor[(1, 128, 56, 56), float16], float32, Tensor[(64, 64, 3, 3), float16], Tensor[(64, 64, 3, 3), float16], Tensor[(1, 64, 56, 56), float16], Tensor[(4), int32], Tensor[(68, 64, 3, 3), float16], bool) span=from_string:72:15 */ = %x_271;
  let %x_29: (Tensor[(1, 128, 56, 56), float16], float32, Tensor[(64, 64, 3, 3), float16], Tensor[(64, 64, 3, 3), float16], Tensor[(1, 64, 56, 56), float16], Tensor[(4), int32], Tensor[(68, 64, 3, 3), float16], bool) /* ty=(Tensor[(1, 128, 56, 56), float16], float32, Tensor[(64, 64, 3, 3), float16], Tensor[(64, 64, 3, 3), float16], Tensor[(1, 64, 56, 56), float16], Tensor[(4), int32], Tensor[(68, 64, 3, 3), float16], bool) span=from_string:73:15 */ = %x_281;
  let %x_30: (Tensor[(1, 128, 56, 56), float16], float32, Tensor[(64, 64, 3, 3), float16], Tensor[(64, 64, 3, 3), float16], Tensor[(1, 64, 56, 56), float16], Tensor[(4), int32], Tensor[(68, 64, 3, 3), float16], bool) /* ty=(Tensor[(1, 128, 56, 56), float16], float32, Tensor[(64, 64, 3, 3), float16], Tensor[(64, 64, 3, 3), float16], Tensor[(1, 64, 56, 56), float16], Tensor[(4), int32], Tensor[(68, 64, 3, 3), float16], bool) span=from_string:74:15 */ = %x_29;
  let %x_31: (Tensor[(1, 128, 56, 56), float16], float32, Tensor[(64, 64, 3, 3), float16], Tensor[(64, 64, 3, 3), float16], Tensor[(1, 64, 56, 56), float16], Tensor[(4), int32], Tensor[(68, 64, 3, 3), float16], bool) /* ty=(Tensor[(1, 128, 56, 56), float16], float32, Tensor[(64, 64, 3, 3), float16], Tensor[(64, 64, 3, 3), float16], Tensor[(1, 64, 56, 56), float16], Tensor[(4), int32], Tensor[(68, 64, 3, 3), float16], bool) span=from_string:75:16 */ = %x_30;
  let %x_321: (Tensor[(1, 128, 56, 56), float16], float32, Tensor[(64, 64, 3, 3), float16], Tensor[(64, 64, 3, 3), float16], Tensor[(1, 64, 56, 56), float16], Tensor[(4), int32], Tensor[(68, 64, 3, 3), float16], bool) /* ty=(Tensor[(1, 128, 56, 56), float16], float32, Tensor[(64, 64, 3, 3), float16], Tensor[(64, 64, 3, 3), float16], Tensor[(1, 64, 56, 56), float16], Tensor[(4), int32], Tensor[(68, 64, 3, 3), float16], bool) span=from_string:76:16 */ = %x_31;
  let %x_331: (Tensor[(1, 128, 56, 56), float16], float32, Tensor[(64, 64, 3, 3), float16], Tensor[(64, 64, 3, 3), float16], Tensor[(1, 64, 56, 56), float16], Tensor[(4), int32], Tensor[(68, 64, 3, 3), float16], bool) /* ty=(Tensor[(1, 128, 56, 56), float16], float32, Tensor[(64, 64, 3, 3), float16], Tensor[(64, 64, 3, 3), float16], Tensor[(1, 64, 56, 56), float16], Tensor[(4), int32], Tensor[(68, 64, 3, 3), float16], bool) span=from_string:77:16 */ = %x_321;
  let %x_341: (Tensor[(1, 128, 56, 56), float16], float32, Tensor[(64, 64, 3, 3), float16], Tensor[(64, 64, 3, 3), float16], Tensor[(1, 64, 56, 56), float16], Tensor[(4), int32], Tensor[(68, 64, 3, 3), float16], bool) /* ty=(Tensor[(1, 128, 56, 56), float16], float32, Tensor[(64, 64, 3, 3), float16], Tensor[(64, 64, 3, 3), float16], Tensor[(1, 64, 56, 56), float16], Tensor[(4), int32], Tensor[(68, 64, 3, 3), float16], bool) span=from_string:78:15 */ = %x_331;
  let %x_35: (Tensor[(1, 128, 56, 56), float16], float32, Tensor[(64, 64, 3, 3), float16], Tensor[(64, 64, 3, 3), float16], Tensor[(1, 64, 56, 56), float16], Tensor[(4), int32], Tensor[(68, 64, 3, 3), float16], bool) /* ty=(Tensor[(1, 128, 56, 56), float16], float32, Tensor[(64, 64, 3, 3), float16], Tensor[(64, 64, 3, 3), float16], Tensor[(1, 64, 56, 56), float16], Tensor[(4), int32], Tensor[(68, 64, 3, 3), float16], bool) span=from_string:79:15 */ = %x_341;
  let %x_36: (Tensor[(1, 128, 56, 56), float16], float32, Tensor[(64, 64, 3, 3), float16], Tensor[(64, 64, 3, 3), float16], Tensor[(1, 64, 56, 56), float16], Tensor[(4), int32], Tensor[(68, 64, 3, 3), float16], bool) /* ty=(Tensor[(1, 128, 56, 56), float16], float32, Tensor[(64, 64, 3, 3), float16], Tensor[(64, 64, 3, 3), float16], Tensor[(1, 64, 56, 56), float16], Tensor[(4), int32], Tensor[(68, 64, 3, 3), float16], bool) span=from_string:80:15 */ = %x_35;
  let %x_37: (Tensor[(1, 128, 56, 56), float16], float32, Tensor[(64, 64, 3, 3), float16], Tensor[(64, 64, 3, 3), float16], Tensor[(1, 64, 56, 56), float16], Tensor[(4), int32], Tensor[(68, 64, 3, 3), float16], bool) /* ty=(Tensor[(1, 128, 56, 56), float16], float32, Tensor[(64, 64, 3, 3), float16], Tensor[(64, 64, 3, 3), float16], Tensor[(1, 64, 56, 56), float16], Tensor[(4), int32], Tensor[(68, 64, 3, 3), float16], bool) span=from_string:81:16 */ = %x_36;
  let %x_381: (Tensor[(1, 128, 56, 56), float16], float32, Tensor[(64, 64, 3, 3), float16], Tensor[(64, 64, 3, 3), float16], Tensor[(1, 64, 56, 56), float16], Tensor[(4), int32], Tensor[(68, 64, 3, 3), float16], bool) /* ty=(Tensor[(1, 128, 56, 56), float16], float32, Tensor[(64, 64, 3, 3), float16], Tensor[(64, 64, 3, 3), float16], Tensor[(1, 64, 56, 56), float16], Tensor[(4), int32], Tensor[(68, 64, 3, 3), float16], bool) span=from_string:82:16 */ = %x_37;
  let %x_391: (Tensor[(1, 128, 56, 56), float16], float32, Tensor[(64, 64, 3, 3), float16], Tensor[(64, 64, 3, 3), float16], Tensor[(1, 64, 56, 56), float16], Tensor[(4), int32], Tensor[(68, 64, 3, 3), float16], bool) /* ty=(Tensor[(1, 128, 56, 56), float16], float32, Tensor[(64, 64, 3, 3), float16], Tensor[(64, 64, 3, 3), float16], Tensor[(1, 64, 56, 56), float16], Tensor[(4), int32], Tensor[(68, 64, 3, 3), float16], bool) span=from_string:83:16 */ = %x_381;
  let %x_401: (Tensor[(1, 128, 56, 56), float16], float32, Tensor[(64, 64, 3, 3), float16], Tensor[(64, 64, 3, 3), float16], Tensor[(1, 64, 56, 56), float16], Tensor[(4), int32], Tensor[(68, 64, 3, 3), float16], bool) /* ty=(Tensor[(1, 128, 56, 56), float16], float32, Tensor[(64, 64, 3, 3), float16], Tensor[(64, 64, 3, 3), float16], Tensor[(1, 64, 56, 56), float16], Tensor[(4), int32], Tensor[(68, 64, 3, 3), float16], bool) span=from_string:84:16 */ = %x_391;
  let %x_411: (Tensor[(1, 128, 56, 56), float16], float32, Tensor[(64, 64, 3, 3), float16], Tensor[(64, 64, 3, 3), float16], Tensor[(1, 64, 56, 56), float16], Tensor[(4), int32], Tensor[(68, 64, 3, 3), float16], bool) /* ty=(Tensor[(1, 128, 56, 56), float16], float32, Tensor[(64, 64, 3, 3), float16], Tensor[(64, 64, 3, 3), float16], Tensor[(1, 64, 56, 56), float16], Tensor[(4), int32], Tensor[(68, 64, 3, 3), float16], bool) span=from_string:85:16 */ = %x_401;
  let %x_421: (Tensor[(1, 128, 56, 56), float16], float32, Tensor[(64, 64, 3, 3), float16], Tensor[(64, 64, 3, 3), float16], Tensor[(1, 64, 56, 56), float16], Tensor[(4), int32], Tensor[(68, 64, 3, 3), float16], bool) /* ty=(Tensor[(1, 128, 56, 56), float16], float32, Tensor[(64, 64, 3, 3), float16], Tensor[(64, 64, 3, 3), float16], Tensor[(1, 64, 56, 56), float16], Tensor[(4), int32], Tensor[(68, 64, 3, 3), float16], bool) span=from_string:86:16 */ = %x_411;
  let %x_431: (Tensor[(1, 128, 56, 56), float16], float32, Tensor[(64, 64, 3, 3), float16], Tensor[(64, 64, 3, 3), float16], Tensor[(1, 64, 56, 56), float16], Tensor[(4), int32], Tensor[(68, 64, 3, 3), float16], bool) /* ty=(Tensor[(1, 128, 56, 56), float16], float32, Tensor[(64, 64, 3, 3), float16], Tensor[(64, 64, 3, 3), float16], Tensor[(1, 64, 56, 56), float16], Tensor[(4), int32], Tensor[(68, 64, 3, 3), float16], bool) span=from_string:87:3 */ = %x_421;
  %x_431
}
