#[version = "0.0.5"]
def @main(%x0: Tensor[(1, 64, 56, 56), float32] /* ty=Tensor[(1, 64, 56, 56), float32] span=from_string:22:117 */, %x1: Tensor[(64, 64, 3, 3), float32] /* ty=Tensor[(64, 64, 3, 3), float32] span=from_string:102:158 */, %x2: Tensor[(4096, 3, 3), float32] /* ty=Tensor[(4096, 3, 3), float32] */, %x3: Tensor[(1, 64, 56, 56), float32] /* ty=Tensor[(1, 64, 56, 56), float32] */, %x4: float32 /* ty=float32 span=from_string:97:68 */, %x5: Tensor[(4, 64, 3, 3), float32] /* ty=Tensor[(4, 64, 3, 3), float32] span=from_string:111:115 */) -> (Tensor[(1, 128, 56, 56), float16], float32, Tensor[(64, 64, 3, 3), float16], Tensor[(64, 64, 3, 3), float16], Tensor[(1, 64, 56, 56), float16], Tensor[(4), int32], Tensor[(68, 64, 3, 3), float16], bool) {
  let %x_0: float32 /* ty=float32 */ = 0f /* ty=float32 span=from_string:3:42 */;
  let %x_1: float32 /* ty=float32 */ = 2f /* ty=float32 span=from_string:4:42 */;
  let %x_01 = fn (%p01: Tensor[(64, 64, 3, 3), float32] /* ty=Tensor[(64, 64, 3, 3), float32] span=from_string:6:10 */, Primitive=1) -> Tensor[(64, 64, 3, 3), float16] {
    cast(%p01, dtype="float16") /* ty=Tensor[(64, 64, 3, 3), float16] span=from_string:6:5 */
  } /* ty=fn (Tensor[(64, 64, 3, 3), float32]) -> Tensor[(64, 64, 3, 3), float16] span=from_string:8:8 */;
  let %x_11 = %x_01(%x1);
  let %x_2 = fn (%p0: Tensor[(64, 64, 3, 3), float16] /* ty=Tensor[(64, 64, 3, 3), float16] span=from_string:10:10 */, Primitive=1) -> Tensor[(64, 64, 3, 3), float16] {
    cast(%p0, dtype="float16") /* ty=Tensor[(64, 64, 3, 3), float16] span=from_string:10:5 */
  } /* ty=fn (Tensor[(64, 64, 3, 3), float16]) -> Tensor[(64, 64, 3, 3), float16] span=from_string:12:111 */;
  let %x_21: Tensor[(64, 64, 3, 3), float16] /* ty=Tensor[(64, 64, 3, 3), float16] span=from_string:17:115 */ = %x_2(%x_11);
  let %x_6: float16 /* ty=float16 span=from_string:17:121 */ = 2f16 /* ty=float16 span=from_string:13:67 */;
  let %x_3 = fn (%p02: Tensor[(64, 64, 3, 3), float16] /* ty=Tensor[(64, 64, 3, 3), float16] span=from_string:15:15 */, %p1: float16 /* ty=float16 span=from_string:15:21 */, Primitive=1) -> Tensor[(64, 64, 3, 3), float16] {
    multiply(%p02, %p1) /* ty=Tensor[(64, 64, 3, 3), float16] span=from_string:15:6 */
  } /* ty=fn (Tensor[(64, 64, 3, 3), float16], float16) -> Tensor[(64, 64, 3, 3), float16] span=from_string:17:112 */;
  let %x_7: Tensor[(64, 64, 3, 3), float16] /* ty=Tensor[(64, 64, 3, 3), float16] span=from_string:59:117 */ = %x_3(%x_21, %x_6);
  let %x_4 = fn (%p03: Tensor[(1, 64, 56, 56), float32] /* ty=Tensor[(1, 64, 56, 56), float32] span=from_string:19:15 */, Primitive=1) -> Tensor[(1, 64, 56, 56), float16] {
    %0 = cast(%p03, dtype="float16") /* ty=Tensor[(1, 64, 56, 56), float16] span=from_string:20:10 */;
    cast(%0, dtype="float16") /* ty=Tensor[(1, 64, 56, 56), float16] span=from_string:19:5 */
  } /* ty=fn (Tensor[(1, 64, 56, 56), float32]) -> Tensor[(1, 64, 56, 56), float16] span=from_string:22:114 */;
  let %x_8: Tensor[(1, 64, 56, 56), float16] /* ty=Tensor[(1, 64, 56, 56), float16] span=from_string:26:117 */ = %x_4(%x0);
  let %x_5 = fn (%p04: Tensor[(1, 64, 56, 56), float16] /* ty=Tensor[(1, 64, 56, 56), float16] span=from_string:24:15 */, %p11: Tensor[(64, 64, 3, 3), float16] /* ty=Tensor[(64, 64, 3, 3), float16] span=from_string:24:21 */, Primitive=1) -> Tensor[(1, 64, 56, 56), float16] {
    nn.conv2d(%p04, %p11, padding=[1, 1, 1, 1], channels=64, kernel_size=[3, 3], out_dtype="float16") /* ty=Tensor[(1, 64, 56, 56), float16] span=from_string:24:5 */
  } /* ty=fn (Tensor[(1, 64, 56, 56), float16], Tensor[(64, 64, 3, 3), float16]) -> Tensor[(1, 64, 56, 56), float16] span=from_string:26:114 */;
  let %x_9: Tensor[(1, 64, 56, 56), float16] /* ty=Tensor[(1, 64, 56, 56), float16] span=from_string:31:125 */ = %x_5(%x_8, %x_7);
  let %x_13: float16 /* ty=float16 span=from_string:31:118 */ = 0f16 /* ty=float16 span=from_string:27:69 */;
  let %x_61 = fn (%p05: float16 /* ty=float16 span=from_string:29:9 */, %p12: Tensor[(1, 64, 56, 56), float16] /* ty=Tensor[(1, 64, 56, 56), float16] span=from_string:29:15 */, Primitive=1) -> Tensor[(1, 64, 56, 56), float16] {
    add(%p05, %p12) /* ty=Tensor[(1, 64, 56, 56), float16] span=from_string:29:5 */
  } /* ty=fn (float16, Tensor[(1, 64, 56, 56), float16]) -> Tensor[(1, 64, 56, 56), float16] span=from_string:31:115 */;
  let %x_14: Tensor[(1, 64, 56, 56), float16] /* ty=Tensor[(1, 64, 56, 56), float16] span=from_string:35:118 */ = %x_61(%x_13, %x_9);
  let %x_71 = fn (%p06: Tensor[(1, 64, 56, 56), float16] /* ty=Tensor[(1, 64, 56, 56), float16] span=from_string:33:13 */, Primitive=1) -> Tensor[(1, 64, 56, 56), float16] {
    nn.relu(%p06) /* ty=Tensor[(1, 64, 56, 56), float16] span=from_string:33:5 */
  } /* ty=fn (Tensor[(1, 64, 56, 56), float16]) -> Tensor[(1, 64, 56, 56), float16] span=from_string:35:115 */;
  let %x_15: Tensor[(1, 64, 56, 56), float16] /* ty=Tensor[(1, 64, 56, 56), float16] span=from_string:44:195 */ = %x_71(%x_14);
  let %x_81 = fn (%p07: Tensor[(1, 64, 56, 56), float16] /* ty=Tensor[(1, 64, 56, 56), float16] span=from_string:37:20 */, Primitive=1) -> Tensor[(1, 64, 28, 28), float16] {
    nn.max_pool2d(%p07, pool_size=[2, 2], strides=[2, 2], padding=[0, 0, 0, 0]) /* ty=Tensor[(1, 64, 28, 28), float16] span=from_string:37:5 */
  } /* ty=fn (Tensor[(1, 64, 56, 56), float16]) -> Tensor[(1, 64, 28, 28), float16] span=from_string:39:115 */;
  let %x_16: Tensor[(1, 64, 28, 28), float16] /* ty=Tensor[(1, 64, 28, 28), float16] span=from_string:43:119 */ = %x_81(%x_15);
  let %x_91 = fn (%p08: Tensor[(1, 64, 28, 28), float16] /* ty=Tensor[(1, 64, 28, 28), float16] span=from_string:41:19 */, Primitive=1) -> Tensor[(1, 64, 56, 56), float16] {
    nn.upsampling(%p08, scale_h=2f, scale_w=2f) /* ty=Tensor[(1, 64, 56, 56), float16] span=from_string:41:5 */
  } /* ty=fn (Tensor[(1, 64, 28, 28), float16]) -> Tensor[(1, 64, 56, 56), float16] span=from_string:43:115 */;
  let %x_17: Tensor[(1, 64, 56, 56), float16] /* ty=Tensor[(1, 64, 56, 56), float16] span=from_string:83:119 */ = %x_91(%x_16);
  let %x_18: (Tensor[(1, 64, 56, 56), float16], Tensor[(1, 64, 56, 56), float16]) /* ty=(Tensor[(1, 64, 56, 56), float16], Tensor[(1, 64, 56, 56), float16]) span=from_string:48:121 */ = (%x_17, %x_15) /* ty=(Tensor[(1, 64, 56, 56), float16], Tensor[(1, 64, 56, 56), float16]) span=from_string:44:187 */;
  let %x_10 = fn (%p09: (Tensor[(1, 64, 56, 56), float16], Tensor[(1, 64, 56, 56), float16]) /* ty=(Tensor[(1, 64, 56, 56), float16], Tensor[(1, 64, 56, 56), float16]) span=from_string:46:17 */, Primitive=1) -> Tensor[(1, 128, 56, 56), float16] {
    concatenate(%p09, axis=1) /* ty=Tensor[(1, 128, 56, 56), float16] span=from_string:46:5 */
  } /* ty=fn ((Tensor[(1, 64, 56, 56), float16], Tensor[(1, 64, 56, 56), float16])) -> Tensor[(1, 128, 56, 56), float16] span=from_string:48:117 */;
  let %x_19: Tensor[(1, 128, 56, 56), float16] /* ty=Tensor[(1, 128, 56, 56), float16] span=from_string:54:121 */ = %x_10(%x_18);
  let %x_20: float32 /* ty=float32 */ = 1f /* ty=float32 span=from_string:49:43 */;
  let %x_24: float16 /* ty=float16 span=from_string:54:128 */ = 1f16 /* ty=float16 span=from_string:50:69 */;
  let %x_111 = fn (%p010: Tensor[(1, 128, 56, 56), float16] /* ty=Tensor[(1, 128, 56, 56), float16] span=from_string:52:9 */, %p13: float16 /* ty=float16 span=from_string:52:16 */, Primitive=1) -> Tensor[(1, 128, 56, 56), float16] {
    add(%p010, %p13) /* ty=Tensor[(1, 128, 56, 56), float16] span=from_string:52:5 */
  } /* ty=fn (Tensor[(1, 128, 56, 56), float16], float16) -> Tensor[(1, 128, 56, 56), float16] span=from_string:54:117 */;
  let %x_25: Tensor[(1, 128, 56, 56), float16] /* ty=Tensor[(1, 128, 56, 56), float16] span=from_string:118:458 */ = %x_111(%x_19, %x_24);
  let %x_26: float32 /* ty=float32 span=from_string:118:465 */ = 2f /* ty=float32 span=from_string:55:67 */;
  let %x_12 = fn (%p011: Tensor[(64, 64, 3, 3), float16] /* ty=Tensor[(64, 64, 3, 3), float16] span=from_string:57:13 */, Primitive=1) -> Tensor[(64, 64, 3, 3), float16] {
    nn.relu(%p011) /* ty=Tensor[(64, 64, 3, 3), float16] span=from_string:57:5 */
  } /* ty=fn (Tensor[(64, 64, 3, 3), float16]) -> Tensor[(64, 64, 3, 3), float16] span=from_string:59:113 */;
  let %x_27: Tensor[(64, 64, 3, 3), float16] /* ty=Tensor[(64, 64, 3, 3), float16] span=from_string:75:113 */ = %x_12(%x_7);
  let %x_28: float32 /* ty=float32 */ = 1f /* ty=float32 span=from_string:60:43 */;
  let %x_32: float16 /* ty=float16 span=from_string:65:124 */ = 1f16 /* ty=float16 span=from_string:61:69 */;
  let %x_131 = fn (%p012: Tensor[(64, 64, 3, 3), float16] /* ty=Tensor[(64, 64, 3, 3), float16] span=from_string:63:9 */, %p14: float16 /* ty=float16 span=from_string:63:16 */, Primitive=1) -> Tensor[(64, 64, 3, 3), float16] {
    add(%p012, %p14) /* ty=Tensor[(64, 64, 3, 3), float16] span=from_string:63:5 */
  } /* ty=fn (Tensor[(64, 64, 3, 3), float16], float16) -> Tensor[(64, 64, 3, 3), float16] span=from_string:65:113 */;
  let %x_33: Tensor[(64, 64, 3, 3), float16] /* ty=Tensor[(64, 64, 3, 3), float16] span=from_string:71:117 */ = %x_131(%x_27, %x_32);
  let %x_34: float32 /* ty=float32 */ = 2f /* ty=float32 span=from_string:66:43 */;
  let %x_38: float16 /* ty=float16 span=from_string:71:124 */ = 2f16 /* ty=float16 span=from_string:67:69 */;
  let %x_141 = fn (%p013: Tensor[(64, 64, 3, 3), float16] /* ty=Tensor[(64, 64, 3, 3), float16] span=from_string:69:15 */, %p15: float16 /* ty=float16 span=from_string:69:22 */, Primitive=1) -> Tensor[(64, 64, 3, 3), float16] {
    multiply(%p013, %p15) /* ty=Tensor[(64, 64, 3, 3), float16] span=from_string:69:6 */
  } /* ty=fn (Tensor[(64, 64, 3, 3), float16], float16) -> Tensor[(64, 64, 3, 3), float16] span=from_string:71:113 */;
  let %x_39: Tensor[(64, 64, 3, 3), float16] /* ty=Tensor[(64, 64, 3, 3), float16] span=from_string:118:472 */ = %x_141(%x_33, %x_38);
  let %x_151 = fn (%p014: Tensor[(64, 64, 3, 3), float16] /* ty=Tensor[(64, 64, 3, 3), float16] span=from_string:73:13 */, Primitive=1, relay.reshape_only=1) -> Tensor[(4096, 3, 3), float16] {
    reshape(%p014, newshape=[4096, 3, 3]) /* ty=Tensor[(4096, 3, 3), float16] span=from_string:73:5 */
  } /* ty=fn (Tensor[(64, 64, 3, 3), float16]) -> Tensor[(4096, 3, 3), float16] span=from_string:75:109 */;
  let %x_40: Tensor[(4096, 3, 3), float16] /* ty=Tensor[(4096, 3, 3), float16] span=from_string:79:117 */ = %x_151(%x_27);
  let %x_161 = fn (%p015: Tensor[(4096, 3, 3), float16] /* ty=Tensor[(4096, 3, 3), float16] span=from_string:77:13 */, Primitive=1, relay.reshape_only=1) -> Tensor[(64, 64, 3, 3), float16] {
    reshape(%p015, newshape=[64, 64, 3, 3]) /* ty=Tensor[(64, 64, 3, 3), float16] span=from_string:77:5 */
  } /* ty=fn (Tensor[(4096, 3, 3), float16]) -> Tensor[(64, 64, 3, 3), float16] span=from_string:79:113 */;
  let %x_41: Tensor[(64, 64, 3, 3), float16] /* ty=Tensor[(64, 64, 3, 3), float16] span=from_string:118:479 */ = %x_161(%x_40);
  let %x_171 = fn (%p016: Tensor[(1, 64, 56, 56), float16] /* ty=Tensor[(1, 64, 56, 56), float16] span=from_string:81:22 */, Primitive=1) -> Tensor[(1, 56, 56, 64), float16] {
    layout_transform(%p016, src_layout="NCHW", dst_layout="NHWC") /* ty=Tensor[(1, 56, 56, 64), float16] span=from_string:81:5 */
  } /* ty=fn (Tensor[(1, 64, 56, 56), float16]) -> Tensor[(1, 56, 56, 64), float16] span=from_string:83:115 */;
  let %x_42: Tensor[(1, 56, 56, 64), float16] /* ty=Tensor[(1, 56, 56, 64), float16] span=from_string:87:119 */ = %x_171(%x_17);
  let %x_181 = fn (%p017: Tensor[(1, 56, 56, 64), float16] /* ty=Tensor[(1, 56, 56, 64), float16] span=from_string:85:22 */, Primitive=1) -> Tensor[(1, 64, 56, 56), float16] {
    layout_transform(%p017, src_layout="NHWC", dst_layout="NCHW") /* ty=Tensor[(1, 64, 56, 56), float16] span=from_string:85:5 */
  } /* ty=fn (Tensor[(1, 56, 56, 64), float16]) -> Tensor[(1, 64, 56, 56), float16] span=from_string:87:115 */;
  let %x_43: Tensor[(1, 64, 56, 56), float16] /* ty=Tensor[(1, 64, 56, 56), float16] span=from_string:91:119 */ = %x_181(%x_42);
  let %x_191 = fn (%p018: Tensor[(1, 64, 56, 56), float16] /* ty=Tensor[(1, 64, 56, 56), float16] span=from_string:89:13 */, Primitive=1) -> Tensor[(1, 64, 56, 56), float16] {
    nn.relu(%p018) /* ty=Tensor[(1, 64, 56, 56), float16] span=from_string:89:5 */
  } /* ty=fn (Tensor[(1, 64, 56, 56), float16]) -> Tensor[(1, 64, 56, 56), float16] span=from_string:91:115 */;
  let %x_44: Tensor[(1, 64, 56, 56), float16] /* ty=Tensor[(1, 64, 56, 56), float16] span=from_string:118:486 */ = %x_191(%x_43);
  let %x_45: Tensor[(4), int32] /* ty=Tensor[(4), int32] */ = meta[relay.Constant][0] /* ty=Tensor[(4), int32] span=from_string:92:70 */;
  let %x_201 = fn (%p019: float32 /* ty=float32 span=from_string:94:16 */, Primitive=1) -> float16 {
    %1 = cast(%p019, dtype="float16") /* ty=float16 span=from_string:95:10 */;
    cast(%1, dtype="float16") /* ty=float16 span=from_string:94:5 */
  } /* ty=fn (float32) -> float16 span=from_string:97:64 */;
  let %x_46: float16 /* ty=float16 span=from_string:101:93 */ = %x_201(%x4);
  let %x_211 = fn (%p020: float16 /* ty=float16 span=from_string:99:10 */, Primitive=1) -> Tensor[(4), int32] {
    full(%p020, shape=[4], dtype="int32") /* ty=Tensor[(4), int32] span=from_string:99:5 */
  } /* ty=fn (float16) -> Tensor[(4), int32] span=from_string:101:89 */;
  let %x_47: Tensor[(4), int32] /* ty=Tensor[(4), int32] span=from_string:118:493 */ = %x_211(%x_46);
  let %x_48: (Tensor[(64, 64, 3, 3), float32], Tensor[(4, 64, 3, 3), float32]) /* ty=(Tensor[(64, 64, 3, 3), float32], Tensor[(4, 64, 3, 3), float32]) */ = (%x1, %x5) /* ty=(Tensor[(64, 64, 3, 3), float32], Tensor[(4, 64, 3, 3), float32]) span=from_string:102:157 */;
  let %x_22 = fn (%p021: Tensor[(64, 64, 3, 3), float16] /* ty=Tensor[(64, 64, 3, 3), float16] span=from_string:104:10 */, Primitive=1) -> Tensor[(64, 64, 3, 3), float16] {
    cast(%p021, dtype="float16") /* ty=Tensor[(64, 64, 3, 3), float16] span=from_string:104:5 */
  } /* ty=fn (Tensor[(64, 64, 3, 3), float16]) -> Tensor[(64, 64, 3, 3), float16] span=from_string:106:113 */;
  let %x_49: Tensor[(64, 64, 3, 3), float16] /* ty=Tensor[(64, 64, 3, 3), float16] span=from_string:112:182 */ = %x_22(%x_11);
  let %x_23 = fn (%p022: Tensor[(4, 64, 3, 3), float32] /* ty=Tensor[(4, 64, 3, 3), float32] span=from_string:108:16 */, Primitive=1) -> Tensor[(4, 64, 3, 3), float16] {
    %2 = cast(%p022, dtype="float16") /* ty=Tensor[(4, 64, 3, 3), float16] span=from_string:109:10 */;
    cast(%2, dtype="float16") /* ty=Tensor[(4, 64, 3, 3), float16] span=from_string:108:5 */
  } /* ty=fn (Tensor[(4, 64, 3, 3), float32]) -> Tensor[(4, 64, 3, 3), float16] span=from_string:111:111 */;
  let %x_50: Tensor[(4, 64, 3, 3), float16] /* ty=Tensor[(4, 64, 3, 3), float16] span=from_string:112:189 */ = %x_23(%x5);
  let %x_51: (Tensor[(64, 64, 3, 3), float16], Tensor[(4, 64, 3, 3), float16]) /* ty=(Tensor[(64, 64, 3, 3), float16], Tensor[(4, 64, 3, 3), float16]) span=from_string:116:117 */ = (%x_49, %x_50) /* ty=(Tensor[(64, 64, 3, 3), float16], Tensor[(4, 64, 3, 3), float16]) span=from_string:112:181 */;
  let %x_241 = fn (%p023: (Tensor[(64, 64, 3, 3), float16], Tensor[(4, 64, 3, 3), float16]) /* ty=(Tensor[(64, 64, 3, 3), float16], Tensor[(4, 64, 3, 3), float16]) span=from_string:114:17 */, Primitive=1) -> Tensor[(68, 64, 3, 3), float16] {
    concatenate(%p023) /* ty=Tensor[(68, 64, 3, 3), float16] span=from_string:114:5 */
  } /* ty=fn ((Tensor[(64, 64, 3, 3), float16], Tensor[(4, 64, 3, 3), float16])) -> Tensor[(68, 64, 3, 3), float16] span=from_string:116:113 */;
  let %x_52: Tensor[(68, 64, 3, 3), float16] /* ty=Tensor[(68, 64, 3, 3), float16] span=from_string:118:500 */ = %x_241(%x_51);
  let %x_53: bool /* ty=bool span=from_string:118:507 */ = False /* ty=bool span=from_string:117:59 */;
  let %x_54: (Tensor[(1, 128, 56, 56), float16], float32, Tensor[(64, 64, 3, 3), float16], Tensor[(64, 64, 3, 3), float16], Tensor[(1, 64, 56, 56), float16], Tensor[(4), int32], Tensor[(68, 64, 3, 3), float16], bool) /* ty=(Tensor[(1, 128, 56, 56), float16], float32, Tensor[(64, 64, 3, 3), float16], Tensor[(64, 64, 3, 3), float16], Tensor[(1, 64, 56, 56), float16], Tensor[(4), int32], Tensor[(68, 64, 3, 3), float16], bool) span=from_string:119:3 */ = (%x_25, %x_26, %x_39, %x_41, %x_44, %x_47, %x_52, %x_53) /* ty=(Tensor[(1, 128, 56, 56), float16], float32, Tensor[(64, 64, 3, 3), float16], Tensor[(64, 64, 3, 3), float16], Tensor[(1, 64, 56, 56), float16], Tensor[(4), int32], Tensor[(68, 64, 3, 3), float16], bool) span=from_string:118:457 */;
  let %x_251 = %x_54;
  let %x_261 = %x_251;
  let %x_271 = %x_261;
  let %x_281 = %x_271;
  let %x_29 = %x_281;
  let %x_30 = %x_29;
  let %x_31 = %x_30;
  let %x_321 = %x_31;
  let %x_331 = %x_321;
  let %x_341 = %x_331;
  let %x_35 = %x_341;
  let %x_36 = %x_35;
  let %x_37 = %x_36;
  let %x_381 = %x_37;
  let %x_391 = %x_381;
  let %x_401 = %x_391;
  let %x_411 = %x_401;
  let %x_421 = %x_411;
  let %x_431 = %x_421;
  let %x_441 = %x_431;
  let %x_451 = %x_441;
  let %x_461 = %x_451;
  let %x_471 = %x_461;
  let %x_481 = %x_471;
  let %x_491 = %x_481;
  let %x_501 = %x_491;
  let %x_511 = %x_501;
  let %x_521 = %x_511;
  let %x_531 = %x_521;
  let %x_541 = %x_531;
  let %x_55 = %x_541;
  let %x_56 = %x_55;
  let %x_57 = %x_56;
  let %x_58 = %x_57;
  let %x_59 = %x_58;
  let %x_60 = %x_59;
  let %x_611 = %x_60;
  let %x_62 = %x_611;
  let %x_63 = %x_62;
  let %x_64 = %x_63;
  %x_64
}

#[metadata]
{
  "root": 1, 
  "nodes": [
    {
      "type_key": ""
    }, 
    {
      "type_key": "Map", 
      "keys": [
        "relay.Constant"
      ], 
      "data": [2]
    }, 
    {
      "type_key": "Array", 
      "data": [3]
    }, 
    {
      "type_key": "relay.Constant", 
      "attrs": {
        "_checked_type_": "8", 
        "data": "0", 
        "span": "6", 
        "virtual_device_": "4"
      }
    }, 
    {
      "type_key": "VirtualDevice", 
      "attrs": {
        "device_type_int": "-1", 
        "memory_scope": "5", 
        "target": "0", 
        "virtual_device_id": "-1"
      }
    }, 
    {
      "type_key": "runtime.String"
    }, 
    {
      "type_key": "Span", 
      "attrs": {
        "column": "70", 
        "end_column": "88", 
        "end_line": "92", 
        "line": "92", 
        "source_name": "7"
      }
    }, 
    {
      "type_key": "SourceName", 
      "repr_str": "from_string"
    }, 
    {
      "type_key": "relay.TensorType", 
      "attrs": {
        "dtype": "int32", 
        "shape": "9", 
        "span": "0"
      }
    }, 
    {
      "type_key": "Array", 
      "data": [10]
    }, 
    {
      "type_key": "IntImm", 
      "attrs": {
        "dtype": "int32", 
        "span": "0", 
        "value": "4"
      }
    }
  ], 
  "b64ndarrays": [
    "P6G0lvBAXt0AAAAAAAAAAAEAAAAAAAAAAQAAAAAgAQAEAAAAAAAAABAAAAAAAAAAQAAAAEAAAAADAAAAAwAAAA=="
  ], 
  "attrs": {"tvm_version": "0.13.0"}
}