#[version = "0.0.5"]
def @main(%x0: Tensor[(1, 64, 56, 56), float32] /* ty=Tensor[(1, 64, 56, 56), float32] span=from_string:16:19 */, %x1: Tensor[(64, 64, 3, 3), float32] /* ty=Tensor[(64, 64, 3, 3), float32] span=from_string:74:21 */, %x2: Tensor[(4096, 3, 3), float32] /* ty=Tensor[(4096, 3, 3), float32] */, %x3: Tensor[(1, 64, 56, 56), float32] /* ty=Tensor[(1, 64, 56, 56), float32] */, %x4: float32 /* ty=float32 span=from_string:69:28 */, %x5: Tensor[(4, 64, 3, 3), float32] /* ty=Tensor[(4, 64, 3, 3), float32] span=from_string:74:26 */) -> (Tensor[(1, 128, 56, 56), float32], float32, Tensor[(64, 64, 3, 3), float16], Tensor[(64, 64, 3, 3), float16], Tensor[(1, 64, 56, 56), float16], Tensor[(4), int32], Tensor[(68, 64, 3, 3), float32], bool) {
  let %x_0: fn (Tensor[(64, 64, 3, 3), float32]) -> Tensor[(64, 64, 3, 3), float16] /* ty=fn (Tensor[(64, 64, 3, 3), float32]) -> Tensor[(64, 64, 3, 3), float16] span=from_string:8:14 */ = fn (%p04: Tensor[(64, 64, 3, 3), float32] /* ty=Tensor[(64, 64, 3, 3), float32] span=from_string:4:15 */, Primitive=1) -> Tensor[(64, 64, 3, 3), float16] {
    %0 = cast(%p04, dtype="float16") /* ty=Tensor[(64, 64, 3, 3), float16] span=from_string:6:15 */;
    %1 = cast(2f /* ty=float32 span=from_string:5:17 */, dtype="float16") /* ty=float16 span=from_string:6:19 */;
    multiply(%0, %1) /* ty=Tensor[(64, 64, 3, 3), float16] span=from_string:4:5 */
  } /* ty=fn (Tensor[(64, 64, 3, 3), float32]) -> Tensor[(64, 64, 3, 3), float16] span=from_string:3:3 */;
  let %x_1: Tensor[(64, 64, 3, 3), float16] /* ty=Tensor[(64, 64, 3, 3), float16] span=from_string:9:19 */ = %x_0(%x1) /* ty=Tensor[(64, 64, 3, 3), float16] span=from_string:8:14 */;
  let %x_2: Tensor[(64, 64, 3, 3), float32] /* ty=Tensor[(64, 64, 3, 3), float32] span=from_string:53:28 */ = cast(%x_1, dtype="float32") /* ty=Tensor[(64, 64, 3, 3), float32] span=from_string:9:14 */;
  let %x_3: fn (Tensor[(1, 64, 56, 56), float32], Tensor[(64, 64, 3, 3), float32]) -> Tensor[(1, 64, 56, 56), float16] /* ty=fn (Tensor[(1, 64, 56, 56), float32], Tensor[(64, 64, 3, 3), float32]) -> Tensor[(1, 64, 56, 56), float16] span=from_string:16:14 */ = fn (%p03: Tensor[(1, 64, 56, 56), float32] /* ty=Tensor[(1, 64, 56, 56), float32] span=from_string:11:15 */, %p11: Tensor[(64, 64, 3, 3), float32] /* ty=Tensor[(64, 64, 3, 3), float32] span=from_string:12:15 */, Primitive=1) -> Tensor[(1, 64, 56, 56), float16] {
    %2 = cast(%p03, dtype="float16") /* ty=Tensor[(1, 64, 56, 56), float16] span=from_string:13:20 */;
    %3 = cast(%p11, dtype="float16") /* ty=Tensor[(64, 64, 3, 3), float16] span=from_string:13:24 */;
    %4 = nn.conv2d(%2, %3, padding=[1, 1, 1, 1], channels=64, kernel_size=[3, 3], out_dtype="float16") /* ty=Tensor[(1, 64, 56, 56), float16] span=from_string:14:13 */;
    nn.relu(%4) /* ty=Tensor[(1, 64, 56, 56), float16] span=from_string:11:5 */
  } /* ty=fn (Tensor[(1, 64, 56, 56), float32], Tensor[(64, 64, 3, 3), float32]) -> Tensor[(1, 64, 56, 56), float16] span=from_string:10:3 */;
  let %x_4: Tensor[(1, 64, 56, 56), float16] /* ty=Tensor[(1, 64, 56, 56), float16] span=from_string:17:19 */ = %x_3(%x0, %x_2) /* ty=Tensor[(1, 64, 56, 56), float16] span=from_string:16:14 */;
  let %x_5: Tensor[(1, 64, 56, 56), float32] /* ty=Tensor[(1, 64, 56, 56), float32] span=from_string:35:28 */ = cast(%x_4, dtype="float32") /* ty=Tensor[(1, 64, 56, 56), float32] span=from_string:17:14 */;
  let %x_6: fn (Tensor[(1, 64, 56, 56), float32]) -> Tensor[(1, 64, 28, 28), float16] /* ty=fn (Tensor[(1, 64, 56, 56), float32]) -> Tensor[(1, 64, 28, 28), float16] span=from_string:22:14 */ = fn (%p02: Tensor[(1, 64, 56, 56), float32] /* ty=Tensor[(1, 64, 56, 56), float32] span=from_string:19:15 */, Primitive=1) -> Tensor[(1, 64, 28, 28), float16] {
    %5 = cast(%p02, dtype="float16") /* ty=Tensor[(1, 64, 56, 56), float16] span=from_string:20:20 */;
    nn.max_pool2d(%5, pool_size=[2, 2], strides=[2, 2], padding=[0, 0, 0, 0]) /* ty=Tensor[(1, 64, 28, 28), float16] span=from_string:19:5 */
  } /* ty=fn (Tensor[(1, 64, 56, 56), float32]) -> Tensor[(1, 64, 28, 28), float16] span=from_string:18:3 */;
  let %x_7: Tensor[(1, 64, 28, 28), float16] /* ty=Tensor[(1, 64, 28, 28), float16] span=from_string:23:19 */ = %x_6(%x_5) /* ty=Tensor[(1, 64, 28, 28), float16] span=from_string:22:14 */;
  let %x_8: Tensor[(1, 64, 28, 28), float32] /* ty=Tensor[(1, 64, 28, 28), float32] span=from_string:28:20 */ = cast(%x_7, dtype="float32") /* ty=Tensor[(1, 64, 28, 28), float32] span=from_string:23:14 */;
  let %x_9: fn (Tensor[(1, 64, 28, 28), float32]) -> Tensor[(1, 64, 56, 56), float16] /* ty=fn (Tensor[(1, 64, 28, 28), float32]) -> Tensor[(1, 64, 56, 56), float16] span=from_string:28:15 */ = fn (%p01: Tensor[(1, 64, 28, 28), float32] /* ty=Tensor[(1, 64, 28, 28), float32] span=from_string:25:15 */, Primitive=1) -> Tensor[(1, 64, 56, 56), float16] {
    %6 = cast(%p01, dtype="float16") /* ty=Tensor[(1, 64, 28, 28), float16] span=from_string:26:19 */;
    nn.upsampling(%6, scale_h=2f, scale_w=2f) /* ty=Tensor[(1, 64, 56, 56), float16] span=from_string:25:5 */
  } /* ty=fn (Tensor[(1, 64, 28, 28), float32]) -> Tensor[(1, 64, 56, 56), float16] span=from_string:24:3 */;
  let %x_10: Tensor[(1, 64, 56, 56), float16] /* ty=Tensor[(1, 64, 56, 56), float16] span=from_string:29:20 */ = %x_9(%x_8) /* ty=Tensor[(1, 64, 56, 56), float16] span=from_string:28:15 */;
  let %x_11: Tensor[(1, 64, 56, 56), float32] /* ty=Tensor[(1, 64, 56, 56), float32] span=from_string:63:21 */ = cast(%x_10, dtype="float32") /* ty=Tensor[(1, 64, 56, 56), float32] span=from_string:29:15 */;
  let %x_12: fn (Tensor[(1, 64, 56, 56), float32], Tensor[(1, 64, 56, 56), float32]) -> Tensor[(1, 128, 56, 56), float32] /* ty=fn (Tensor[(1, 64, 56, 56), float32], Tensor[(1, 64, 56, 56), float32]) -> Tensor[(1, 128, 56, 56), float32] span=from_string:35:15 */ = fn (%p0: Tensor[(1, 64, 56, 56), float32] /* ty=Tensor[(1, 64, 56, 56), float32] span=from_string:31:11 */, %p1: Tensor[(1, 64, 56, 56), float32] /* ty=Tensor[(1, 64, 56, 56), float32] span=from_string:31:16 */, Primitive=1) -> Tensor[(1, 128, 56, 56), float32] {
    %7 = (%p0, %p1) /* ty=(Tensor[(1, 64, 56, 56), float32], Tensor[(1, 64, 56, 56), float32]) span=from_string:32:22 */;
    %8 = concatenate(%7, axis=1) /* ty=Tensor[(1, 128, 56, 56), float32] */;
    %9 = annotation.stop_fusion(%8) /* ty=Tensor[(1, 128, 56, 56), float32] */;
    %10 = (%9,) /* ty=(Tensor[(1, 128, 56, 56), float32],) span=from_string:32:22 */;
    %11 = concatenate(%10, axis=1) /* ty=Tensor[(1, 128, 56, 56), float32] */;
    add(%11, 1f /* ty=float32 span=from_string:33:15 */) /* ty=Tensor[(1, 128, 56, 56), float32] span=from_string:31:5 */
  } /* ty=fn (Tensor[(1, 64, 56, 56), float32], Tensor[(1, 64, 56, 56), float32]) -> Tensor[(1, 128, 56, 56), float32] span=from_string:30:3 */;
  let %x_13: Tensor[(1, 128, 56, 56), float32] /* ty=Tensor[(1, 128, 56, 56), float32] span=from_string:76:16 */ = %x_12(%x_11, %x_5) /* ty=Tensor[(1, 128, 56, 56), float32] span=from_string:35:15 */;
  let %x_14: float32 /* ty=float32 span=from_string:76:23 */ = 2f /* ty=float32 span=from_string:36:17 */;
  let %x_15: fn (Tensor[(64, 64, 3, 3), float32]) -> Tensor[(64, 64, 3, 3), float16] /* ty=fn (Tensor[(64, 64, 3, 3), float32]) -> Tensor[(64, 64, 3, 3), float16] span=from_string:41:15 */ = fn (%p06: Tensor[(64, 64, 3, 3), float32] /* ty=Tensor[(64, 64, 3, 3), float32] span=from_string:38:15 */, Primitive=1) -> Tensor[(64, 64, 3, 3), float16] {
    %12 = cast(%p06, dtype="float16") /* ty=Tensor[(64, 64, 3, 3), float16] span=from_string:39:13 */;
    nn.relu(%12) /* ty=Tensor[(64, 64, 3, 3), float16] span=from_string:38:5 */
  } /* ty=fn (Tensor[(64, 64, 3, 3), float32]) -> Tensor[(64, 64, 3, 3), float16] span=from_string:37:3 */;
  let %x_16: Tensor[(64, 64, 3, 3), float16] /* ty=Tensor[(64, 64, 3, 3), float16] span=from_string:42:20 */ = %x_15(%x_2) /* ty=Tensor[(64, 64, 3, 3), float16] span=from_string:41:15 */;
  let %x_17: Tensor[(64, 64, 3, 3), float32] /* ty=Tensor[(64, 64, 3, 3), float32] span=from_string:58:21 */ = cast(%x_16, dtype="float32") /* ty=Tensor[(64, 64, 3, 3), float32] span=from_string:42:15 */;
  let %x_18: fn (Tensor[(64, 64, 3, 3), float32], Tensor[(64, 64, 3, 3), float32]) -> Tensor[(64, 64, 3, 3), float16] /* ty=fn (Tensor[(64, 64, 3, 3), float32], Tensor[(64, 64, 3, 3), float32]) -> Tensor[(64, 64, 3, 3), float16] span=from_string:53:15 */ = fn (%p05: Tensor[(64, 64, 3, 3), float32] /* ty=Tensor[(64, 64, 3, 3), float32] span=from_string:44:16 */, %p12: Tensor[(64, 64, 3, 3), float32] /* ty=Tensor[(64, 64, 3, 3), float32] span=from_string:46:16 */, Primitive=1) -> Tensor[(64, 64, 3, 3), float16] {
    %13 = cast(%p05, dtype="float16") /* ty=Tensor[(64, 64, 3, 3), float16] span=from_string:49:15 */;
    %14 = cast(1f /* ty=float32 span=from_string:45:18 */, dtype="float16") /* ty=float16 span=from_string:49:20 */;
    %15 = cast(%p12, dtype="float16") /* ty=Tensor[(64, 64, 3, 3), float16] span=from_string:47:19 */;
    %16 = nn.relu(%15) /* ty=Tensor[(64, 64, 3, 3), float16] span=from_string:50:15 */;
    %17 = cast(1f /* ty=float32 span=from_string:48:18 */, dtype="float16") /* ty=float16 span=from_string:50:20 */;
    %18 = add(%13, %14) /* ty=Tensor[(64, 64, 3, 3), float16] span=from_string:51:9 */;
    %19 = add(%16, %17) /* ty=Tensor[(64, 64, 3, 3), float16] span=from_string:51:14 */;
    add(%18, %19) /* ty=Tensor[(64, 64, 3, 3), float16] span=from_string:44:5 */
  } /* ty=fn (Tensor[(64, 64, 3, 3), float32], Tensor[(64, 64, 3, 3), float32]) -> Tensor[(64, 64, 3, 3), float16] span=from_string:43:3 */;
  let %x_19: Tensor[(64, 64, 3, 3), float16] /* ty=Tensor[(64, 64, 3, 3), float16] span=from_string:76:30 */ = %x_18(%x_17, %x_2) /* ty=Tensor[(64, 64, 3, 3), float16] span=from_string:53:15 */;
  let %x_20: fn (Tensor[(64, 64, 3, 3), float32]) -> Tensor[(64, 64, 3, 3), float16] /* ty=fn (Tensor[(64, 64, 3, 3), float32]) -> Tensor[(64, 64, 3, 3), float16] span=from_string:58:15 */ = fn (%p07: Tensor[(64, 64, 3, 3), float32] /* ty=Tensor[(64, 64, 3, 3), float32] span=from_string:55:16 */, Primitive=1, relay.reshape_only=1) -> Tensor[(64, 64, 3, 3), float16] {
    %20 = cast(%p07, dtype="float16") /* ty=Tensor[(64, 64, 3, 3), float16] span=from_string:56:13 */;
    reshape(%20, newshape=[64, 64, 3, 3]) /* ty=Tensor[(64, 64, 3, 3), float16] span=from_string:55:5 */
  } /* ty=fn (Tensor[(64, 64, 3, 3), float32]) -> Tensor[(64, 64, 3, 3), float16] span=from_string:54:3 */;
  let %x_21: Tensor[(64, 64, 3, 3), float16] /* ty=Tensor[(64, 64, 3, 3), float16] span=from_string:76:37 */ = %x_20(%x_17) /* ty=Tensor[(64, 64, 3, 3), float16] span=from_string:58:15 */;
  let %x_22: fn (Tensor[(1, 64, 56, 56), float32]) -> Tensor[(1, 64, 56, 56), float16] /* ty=fn (Tensor[(1, 64, 56, 56), float32]) -> Tensor[(1, 64, 56, 56), float16] span=from_string:63:15 */ = fn (%p08: Tensor[(1, 64, 56, 56), float32] /* ty=Tensor[(1, 64, 56, 56), float32] span=from_string:60:16 */, Primitive=1) -> Tensor[(1, 64, 56, 56), float16] {
    %21 = cast(%p08, dtype="float16") /* ty=Tensor[(1, 64, 56, 56), float16] span=from_string:61:13 */;
    nn.relu(%21) /* ty=Tensor[(1, 64, 56, 56), float16] span=from_string:60:5 */
  } /* ty=fn (Tensor[(1, 64, 56, 56), float32]) -> Tensor[(1, 64, 56, 56), float16] span=from_string:59:3 */;
  let %x_23: Tensor[(1, 64, 56, 56), float16] /* ty=Tensor[(1, 64, 56, 56), float16] span=from_string:76:44 */ = %x_22(%x_11) /* ty=Tensor[(1, 64, 56, 56), float16] span=from_string:63:15 */;
  let %x_24: Tensor[(4), int32] /* ty=Tensor[(4), int32] span=from_string:69:21 */ = meta[relay.Constant][0] /* ty=Tensor[(4), int32] span=from_string:64:20 */;
  let %x_25: fn (Tensor[(4), int32], float32) -> Tensor[(4), int32] /* ty=fn (Tensor[(4), int32], float32) -> Tensor[(4), int32] span=from_string:69:15 */ = fn (%p09: Tensor[(4), int32] /* ty=Tensor[(4), int32] */, %p13: float32 /* ty=float32 span=from_string:66:16 */, Primitive=1) -> Tensor[(4), int32] {
    %22 = cast(%p13, dtype="float16") /* ty=float16 span=from_string:67:10 */;
    full(%22, shape=[4], dtype="int32") /* ty=Tensor[(4), int32] span=from_string:66:5 */
  } /* ty=fn (Tensor[(4), int32], float32) -> Tensor[(4), int32] span=from_string:65:3 */;
  let %x_26: Tensor[(4), int32] /* ty=Tensor[(4), int32] span=from_string:76:51 */ = %x_25(%x_24, %x4) /* ty=Tensor[(4), int32] span=from_string:69:15 */;
  let %x_27: fn (Tensor[(64, 64, 3, 3), float32], Tensor[(4, 64, 3, 3), float32]) -> Tensor[(68, 64, 3, 3), float32] /* ty=fn (Tensor[(64, 64, 3, 3), float32], Tensor[(4, 64, 3, 3), float32]) -> Tensor[(68, 64, 3, 3), float32] span=from_string:74:15 */ = fn (%p010: Tensor[(64, 64, 3, 3), float32] /* ty=Tensor[(64, 64, 3, 3), float32] span=from_string:71:12 */, %p14: Tensor[(4, 64, 3, 3), float32] /* ty=Tensor[(4, 64, 3, 3), float32] span=from_string:71:19 */, Primitive=1) -> Tensor[(68, 64, 3, 3), float32] {
    %23 = (%p010, %p14) /* ty=(Tensor[(64, 64, 3, 3), float32], Tensor[(4, 64, 3, 3), float32]) span=from_string:72:17 */;
    %24 = concatenate(%23) /* ty=Tensor[(68, 64, 3, 3), float32] */;
    %25 = annotation.stop_fusion(%24) /* ty=Tensor[(68, 64, 3, 3), float32] */;
    %26 = (%25,) /* ty=(Tensor[(68, 64, 3, 3), float32],) span=from_string:72:17 */;
    concatenate(%26) /* ty=Tensor[(68, 64, 3, 3), float32] */
  } /* ty=fn (Tensor[(64, 64, 3, 3), float32], Tensor[(4, 64, 3, 3), float32]) -> Tensor[(68, 64, 3, 3), float32] span=from_string:70:3 */;
  let %x_28: Tensor[(68, 64, 3, 3), float32] /* ty=Tensor[(68, 64, 3, 3), float32] span=from_string:76:58 */ = %x_27(%x1, %x5) /* ty=Tensor[(68, 64, 3, 3), float32] span=from_string:74:15 */;
  let %x_29: bool /* ty=bool span=from_string:76:65 */ = False /* ty=bool span=from_string:75:15 */;
  let %x_30: (Tensor[(1, 128, 56, 56), float32], float32, Tensor[(64, 64, 3, 3), float16], Tensor[(64, 64, 3, 3), float16], Tensor[(1, 64, 56, 56), float16], Tensor[(4), int32], Tensor[(68, 64, 3, 3), float32], bool) /* ty=(Tensor[(1, 128, 56, 56), float32], float32, Tensor[(64, 64, 3, 3), float16], Tensor[(64, 64, 3, 3), float16], Tensor[(1, 64, 56, 56), float16], Tensor[(4), int32], Tensor[(68, 64, 3, 3), float32], bool) span=from_string:77:3 */ = (%x_13, %x_14, %x_19, %x_21, %x_23, %x_26, %x_28, %x_29) /* ty=(Tensor[(1, 128, 56, 56), float32], float32, Tensor[(64, 64, 3, 3), float16], Tensor[(64, 64, 3, 3), float16], Tensor[(1, 64, 56, 56), float16], Tensor[(4), int32], Tensor[(68, 64, 3, 3), float32], bool) span=from_string:76:15 */;
  %x_30
}

#[metadata]
{
  "root": 1, 
  "nodes": [
    {
      "type_key": ""
    }, 
    {
      "type_key": "Map", 
      "keys": [
        "relay.Constant"
      ], 
      "data": [2]
    }, 
    {
      "type_key": "Array", 
      "data": [3]
    }, 
    {
      "type_key": "relay.Constant", 
      "attrs": {
        "_checked_type_": "8", 
        "data": "0", 
        "span": "6", 
        "virtual_device_": "4"
      }
    }, 
    {
      "type_key": "VirtualDevice", 
      "attrs": {
        "device_type_int": "-1", 
        "memory_scope": "5", 
        "target": "0", 
        "virtual_device_id": "-1"
      }
    }, 
    {
      "type_key": "runtime.String"
    }, 
    {
      "type_key": "Span", 
      "attrs": {
        "column": "20", 
        "end_column": "38", 
        "end_line": "64", 
        "line": "64", 
        "source_name": "7"
      }
    }, 
    {
      "type_key": "SourceName", 
      "repr_str": "from_string"
    }, 
    {
      "type_key": "relay.TensorType", 
      "attrs": {
        "dtype": "int32", 
        "shape": "9", 
        "span": "0"
      }
    }, 
    {
      "type_key": "Array", 
      "data": [10]
    }, 
    {
      "type_key": "IntImm", 
      "attrs": {
        "dtype": "int32", 
        "span": "0", 
        "value": "4"
      }
    }
  ], 
  "b64ndarrays": [
    "P6G0lvBAXt0AAAAAAAAAAAEAAAAAAAAAAQAAAAAgAQAEAAAAAAAAABAAAAAAAAAAQAAAAEAAAAADAAAAAwAAAA=="
  ], 
  "attrs": {"tvm_version": "0.13.0"}
}