#[version = "0.0.5"]
def @main(%x0: Tensor[(1, 64, 56, 56), float32] /* ty=Tensor[(1, 64, 56, 56), float32] span=from_string:6:122 */, %x1: Tensor[(64, 64, 3, 3), float32] /* ty=Tensor[(64, 64, 3, 3), float32] span=from_string:27:181 */, %x2: Tensor[(4096, 3, 3), float32] /* ty=Tensor[(4096, 3, 3), float32] */, %x3: Tensor[(1, 64, 56, 56), float32] /* ty=Tensor[(1, 64, 56, 56), float32] */, %x4: float32 /* ty=float32 span=from_string:26:93 */, %x5: Tensor[(4, 64, 3, 3), float32] /* ty=Tensor[(4, 64, 3, 3), float32] span=from_string:27:186 */) -> (Tensor[(1, 128, 56, 56), float32], float32, Tensor[(64, 64, 3, 3), float32], Tensor[(64, 64, 3, 3), float32], Tensor[(1, 64, 56, 56), float32], Tensor[(4), int32], Tensor[(68, 64, 3, 3), float32], bool) {
  %0 = multiply(%x1, 2f /* ty=float32 span=from_string:4:64 */) /* ty=Tensor[(64, 64, 3, 3), float32] span=from_string:5:112 */;
  %1 = nn.conv2d(%x0, %0, padding=[1, 1, 1, 1], channels=64, kernel_size=[3, 3]) /* ty=Tensor[(1, 64, 56, 56), float32] span=from_string:6:112 */;
  %2 = add(0f /* ty=float32 span=from_string:3:64 */, %1) /* ty=Tensor[(1, 64, 56, 56), float32] span=from_string:7:112 */;
  %3 = nn.relu(%2) /* ty=Tensor[(1, 64, 56, 56), float32] span=from_string:8:113 */;
  %4 = nn.max_pool2d(%3, pool_size=[2, 2], strides=[2, 2], padding=[0, 0, 0, 0]) /* ty=Tensor[(1, 64, 28, 28), float32] span=from_string:9:113 */;
  %5 = nn.upsampling(%4, scale_h=2f, scale_w=2f) /* ty=Tensor[(1, 64, 56, 56), float32] span=from_string:10:113 */;
  %6 = (%5, %3) /* ty=(Tensor[(1, 64, 56, 56), float32], Tensor[(1, 64, 56, 56), float32]) span=from_string:11:185 */;
  %7 = concatenate(%6, axis=1) /* ty=Tensor[(1, 128, 56, 56), float32] span=from_string:12:115 */;
  %8 = nn.relu(%0) /* ty=Tensor[(64, 64, 3, 3), float32] span=from_string:16:112 */;
  %9 = add(%8, 1f /* ty=float32 span=from_string:17:66 */) /* ty=Tensor[(64, 64, 3, 3), float32] span=from_string:18:112 */;
  %10 = reshape(%8, newshape=[4096, 3, 3]) /* ty=Tensor[(4096, 3, 3), float32] span=from_string:20:108 */;
  %11 = layout_transform(%5, src_layout="NCHW", dst_layout="NHWC") /* ty=Tensor[(1, 56, 56, 64), float32] span=from_string:22:114 */;
  %12 = layout_transform(%11, src_layout="NHWC", dst_layout="NCHW") /* ty=Tensor[(1, 64, 56, 56), float32] span=from_string:23:114 */;
  %13 = (%x1, %x5) /* ty=(Tensor[(64, 64, 3, 3), float32], Tensor[(4, 64, 3, 3), float32]) span=from_string:27:180 */;
  %14 = add(%7, 1f /* ty=float32 span=from_string:13:66 */) /* ty=Tensor[(1, 128, 56, 56), float32] span=from_string:14:116 */;
  %15 = multiply(%9, 2f /* ty=float32 span=from_string:19:131 */) /* ty=Tensor[(64, 64, 3, 3), float32] span=from_string:19:113 */;
  %16 = reshape(%10, newshape=[64, 64, 3, 3]) /* ty=Tensor[(64, 64, 3, 3), float32] span=from_string:21:112 */;
  %17 = nn.relu(%12) /* ty=Tensor[(1, 64, 56, 56), float32] span=from_string:24:114 */;
  %18 = full(%x4, shape=[4], dtype="int32") /* ty=Tensor[(4), int32] span=from_string:26:88 */;
  %19 = concatenate(%13) /* ty=Tensor[(68, 64, 3, 3), float32] span=from_string:28:112 */;
  (%14, 2f /* ty=float32 span=from_string:15:66 */, %15, %16, %17, %18, %19, False /* ty=bool span=from_string:29:58 */) /* ty=(Tensor[(1, 128, 56, 56), float32], float32, Tensor[(64, 64, 3, 3), float32], Tensor[(64, 64, 3, 3), float32], Tensor[(1, 64, 56, 56), float32], Tensor[(4), int32], Tensor[(68, 64, 3, 3), float32], bool) span=from_string:30:457 */
}
