#[version = "0.0.5"]
def @main(%x0: Tensor[(1, 64, 56, 56), float32] /* ty=Tensor[(1, 64, 56, 56), float32] span=from_string:11:11 */, %x1: Tensor[(64, 64, 3, 3), float32] /* ty=Tensor[(64, 64, 3, 3), float32] span=from_string:77:10 */, %x2: Tensor[(4096, 3, 3), float32] /* ty=Tensor[(4096, 3, 3), float32] */, %x3: Tensor[(1, 64, 56, 56), float32] /* ty=Tensor[(1, 64, 56, 56), float32] */, %x4: float32 /* ty=float32 span=from_string:90:13 */, %x5: Tensor[(4, 64, 3, 3), float32] /* ty=Tensor[(4, 64, 3, 3), float32] span=from_string:77:15 */) -> (Tensor[(1, 128, 56, 56), float16], float32, Tensor[(64, 64, 3, 3), float16], Tensor[(64, 64, 3, 3), float16], Tensor[(1, 64, 56, 56), float16], Tensor[(4), int32], Tensor[(68, 64, 3, 3), float16], bool) {
  %2 = fn (%p02: Tensor[(1, 64, 56, 56), float32] /* ty=Tensor[(1, 64, 56, 56), float32] span=from_string:4:10 */, Primitive=1) -> Tensor[(1, 64, 56, 56), float16] {
    cast(%p02, dtype="float16") /* ty=Tensor[(1, 64, 56, 56), float16] span=from_string:4:5 */
  } /* ty=fn (Tensor[(1, 64, 56, 56), float32]) -> Tensor[(1, 64, 56, 56), float16] */;
  %5 = fn (%p0: Tensor[(64, 64, 3, 3), float32] /* ty=Tensor[(64, 64, 3, 3), float32] span=from_string:7:15 */, %p1: float32 /* ty=float32 span=from_string:8:15 */, Primitive=1) -> Tensor[(64, 64, 3, 3), float16] {
    %3 = cast(%p0, dtype="float16") /* ty=Tensor[(64, 64, 3, 3), float16] span=from_string:9:15 */;
    %4 = cast(%p1, dtype="float16") /* ty=float16 span=from_string:9:19 */;
    multiply(%3, %4) /* ty=Tensor[(64, 64, 3, 3), float16] span=from_string:7:5 */
  } /* ty=fn (Tensor[(64, 64, 3, 3), float32], float32) -> Tensor[(64, 64, 3, 3), float16] */;
  %6 = %2(%x0) /* ty=Tensor[(1, 64, 56, 56), float16] span=from_string:16:11 */;
  %7 = %5(%x1, 2f /* ty=float32 span=from_string:12:18 */) /* ty=Tensor[(64, 64, 3, 3), float16] span=from_string:46:13 */;
  %8 = fn (%p01: Tensor[(1, 64, 56, 56), float16] /* ty=Tensor[(1, 64, 56, 56), float16] span=from_string:14:15 */, %p11: Tensor[(64, 64, 3, 3), float16] /* ty=Tensor[(64, 64, 3, 3), float16] span=from_string:14:21 */, Primitive=1) -> Tensor[(1, 64, 56, 56), float16] {
    nn.conv2d(%p01, %p11, padding=[1, 1, 1, 1], channels=64, kernel_size=[3, 3], out_dtype="float16") /* ty=Tensor[(1, 64, 56, 56), float16] span=from_string:14:5 */
  } /* ty=fn (Tensor[(1, 64, 56, 56), float16], Tensor[(64, 64, 3, 3), float16]) -> Tensor[(1, 64, 56, 56), float16] */;
  %9 = %8(%6, %7) /* ty=Tensor[(1, 64, 56, 56), float16] span=from_string:21:56 */;
  %10 = fn (%p03: float32 /* ty=float32 span=from_string:18:15 */, %p12: Tensor[(1, 64, 56, 56), float16] /* ty=Tensor[(1, 64, 56, 56), float16] span=from_string:19:13 */, Primitive=1) -> Tensor[(1, 64, 56, 56), float16] {
    %1 = cast(%p03, dtype="float16") /* ty=float16 span=from_string:19:9 */;
    add(%1, %p12) /* ty=Tensor[(1, 64, 56, 56), float16] span=from_string:18:5 */
  } /* ty=fn (float32, Tensor[(1, 64, 56, 56), float16]) -> Tensor[(1, 64, 56, 56), float16] */;
  %11 = %10(0f /* ty=float32 span=from_string:21:15 */, %9) /* ty=Tensor[(1, 64, 56, 56), float16] span=from_string:25:13 */;
  %12 = fn (%p04: Tensor[(1, 64, 56, 56), float16] /* ty=Tensor[(1, 64, 56, 56), float16] span=from_string:23:13 */, Primitive=1) -> Tensor[(1, 64, 56, 56), float16] {
    nn.relu(%p04) /* ty=Tensor[(1, 64, 56, 56), float16] span=from_string:23:5 */
  } /* ty=fn (Tensor[(1, 64, 56, 56), float16]) -> Tensor[(1, 64, 56, 56), float16] */;
  %13 = %12(%11) /* ty=Tensor[(1, 64, 56, 56), float16] span=from_string:34:15 */;
  %14 = fn (%p05: Tensor[(1, 64, 56, 56), float16] /* ty=Tensor[(1, 64, 56, 56), float16] span=from_string:27:20 */, Primitive=1) -> Tensor[(1, 64, 28, 28), float16] {
    nn.max_pool2d(%p05, pool_size=[2, 2], strides=[2, 2], padding=[0, 0, 0, 0]) /* ty=Tensor[(1, 64, 28, 28), float16] span=from_string:27:5 */
  } /* ty=fn (Tensor[(1, 64, 56, 56), float16]) -> Tensor[(1, 64, 28, 28), float16] */;
  %15 = %14(%13) /* ty=Tensor[(1, 64, 28, 28), float16] span=from_string:33:13 */;
  %16 = fn (%p06: Tensor[(1, 64, 28, 28), float16] /* ty=Tensor[(1, 64, 28, 28), float16] span=from_string:31:19 */, Primitive=1) -> Tensor[(1, 64, 56, 56), float16] {
    nn.upsampling(%p06, scale_h=2f, scale_w=2f) /* ty=Tensor[(1, 64, 56, 56), float16] span=from_string:31:5 */
  } /* ty=fn (Tensor[(1, 64, 28, 28), float16]) -> Tensor[(1, 64, 56, 56), float16] */;
  %17 = %16(%15) /* ty=Tensor[(1, 64, 56, 56), float16] span=from_string:65:13 */;
  %18 = (%17, %13) /* ty=(Tensor[(1, 64, 56, 56), float16], Tensor[(1, 64, 56, 56), float16]) span=from_string:38:13 */;
  %19 = fn (%p07: (Tensor[(1, 64, 56, 56), float16], Tensor[(1, 64, 56, 56), float16]) /* ty=(Tensor[(1, 64, 56, 56), float16], Tensor[(1, 64, 56, 56), float16]) span=from_string:36:17 */, Primitive=1) -> Tensor[(1, 128, 56, 56), float16] {
    concatenate(%p07, axis=1) /* ty=Tensor[(1, 128, 56, 56), float16] span=from_string:36:5 */
  } /* ty=fn ((Tensor[(1, 64, 56, 56), float16], Tensor[(1, 64, 56, 56), float16])) -> Tensor[(1, 128, 56, 56), float16] */;
  %20 = %19(%18) /* ty=Tensor[(1, 128, 56, 56), float16] span=from_string:86:57 */;
  %21 = fn (%p08: float32 /* ty=float32 span=from_string:40:15 */, %p13: Tensor[(1, 128, 56, 56), float16] /* ty=Tensor[(1, 128, 56, 56), float16] span=from_string:41:9 */, Primitive=1) -> Tensor[(1, 128, 56, 56), float16] {
    %0 = cast(%p08, dtype="float16") /* ty=float16 span=from_string:41:15 */;
    add(%p13, %0) /* ty=Tensor[(1, 128, 56, 56), float16] span=from_string:40:5 */
  } /* ty=fn (float32, Tensor[(1, 128, 56, 56), float16]) -> Tensor[(1, 128, 56, 56), float16] */;
  %23 = fn (%p09: Tensor[(64, 64, 3, 3), float16] /* ty=Tensor[(64, 64, 3, 3), float16] span=from_string:44:13 */, Primitive=1) -> Tensor[(64, 64, 3, 3), float16] {
    nn.relu(%p09) /* ty=Tensor[(64, 64, 3, 3), float16] span=from_string:44:5 */
  } /* ty=fn (Tensor[(64, 64, 3, 3), float16]) -> Tensor[(64, 64, 3, 3), float16] */;
  %24 = %23(%7) /* ty=Tensor[(64, 64, 3, 3), float16] span=from_string:58:13 */;
  %25 = fn (%p010: float32 /* ty=float32 span=from_string:48:16 */, %p14: Tensor[(64, 64, 3, 3), float16] /* ty=Tensor[(64, 64, 3, 3), float16] span=from_string:49:9 */, Primitive=1) -> Tensor[(64, 64, 3, 3), float16] {
    %22 = cast(%p010, dtype="float16") /* ty=float16 span=from_string:49:15 */;
    add(%p14, %22) /* ty=Tensor[(64, 64, 3, 3), float16] span=from_string:48:5 */
  } /* ty=fn (float32, Tensor[(64, 64, 3, 3), float16]) -> Tensor[(64, 64, 3, 3), float16] */;
  %26 = %25(1f /* ty=float32 span=from_string:51:15 */, %24) /* ty=Tensor[(64, 64, 3, 3), float16] span=from_string:87:13 */;
  %27 = fn (%p011: Tensor[(64, 64, 3, 3), float16] /* ty=Tensor[(64, 64, 3, 3), float16] span=from_string:53:15 */, Primitive=1) -> Tensor[(64, 64, 3, 3), float16] {
    multiply(%p011, 2f16 /* ty=float16 span=from_string:53:26 */) /* ty=Tensor[(64, 64, 3, 3), float16] span=from_string:53:6 */
  } /* ty=fn (Tensor[(64, 64, 3, 3), float16]) -> Tensor[(64, 64, 3, 3), float16] */;
  %28 = fn (%p012: Tensor[(64, 64, 3, 3), float16] /* ty=Tensor[(64, 64, 3, 3), float16] span=from_string:56:13 */, Primitive=1, relay.reshape_only=1) -> Tensor[(4096, 3, 3), float16] {
    reshape(%p012, newshape=[4096, 3, 3]) /* ty=Tensor[(4096, 3, 3), float16] span=from_string:56:5 */
  } /* ty=fn (Tensor[(64, 64, 3, 3), float16]) -> Tensor[(4096, 3, 3), float16] */;
  %29 = %28(%24) /* ty=Tensor[(4096, 3, 3), float16] span=from_string:88:13 */;
  %30 = fn (%p013: Tensor[(4096, 3, 3), float16] /* ty=Tensor[(4096, 3, 3), float16] span=from_string:60:13 */, Primitive=1, relay.reshape_only=1) -> Tensor[(64, 64, 3, 3), float16] {
    reshape(%p013, newshape=[64, 64, 3, 3]) /* ty=Tensor[(64, 64, 3, 3), float16] span=from_string:60:5 */
  } /* ty=fn (Tensor[(4096, 3, 3), float16]) -> Tensor[(64, 64, 3, 3), float16] */;
  %31 = fn (%p014: Tensor[(1, 64, 56, 56), float16] /* ty=Tensor[(1, 64, 56, 56), float16] span=from_string:63:22 */, Primitive=1) -> Tensor[(1, 56, 56, 64), float16] {
    layout_transform(%p014, src_layout="NCHW", dst_layout="NHWC") /* ty=Tensor[(1, 56, 56, 64), float16] span=from_string:63:5 */
  } /* ty=fn (Tensor[(1, 64, 56, 56), float16]) -> Tensor[(1, 56, 56, 64), float16] */;
  %32 = %31(%17) /* ty=Tensor[(1, 56, 56, 64), float16] span=from_string:69:13 */;
  %33 = fn (%p015: Tensor[(1, 56, 56, 64), float16] /* ty=Tensor[(1, 56, 56, 64), float16] span=from_string:67:22 */, Primitive=1) -> Tensor[(1, 64, 56, 56), float16] {
    layout_transform(%p015, src_layout="NHWC", dst_layout="NCHW") /* ty=Tensor[(1, 64, 56, 56), float16] span=from_string:67:5 */
  } /* ty=fn (Tensor[(1, 56, 56, 64), float16]) -> Tensor[(1, 64, 56, 56), float16] */;
  %34 = %33(%32) /* ty=Tensor[(1, 64, 56, 56), float16] span=from_string:89:13 */;
  %35 = fn (%p016: Tensor[(1, 64, 56, 56), float16] /* ty=Tensor[(1, 64, 56, 56), float16] span=from_string:71:13 */, Primitive=1) -> Tensor[(1, 64, 56, 56), float16] {
    nn.relu(%p016) /* ty=Tensor[(1, 64, 56, 56), float16] span=from_string:71:5 */
  } /* ty=fn (Tensor[(1, 64, 56, 56), float16]) -> Tensor[(1, 64, 56, 56), float16] */;
  %37 = fn (%p017: float32 /* ty=float32 span=from_string:74:16 */, %p15: Tensor[(4), int32] /* ty=Tensor[(4), int32] */, Primitive=1) -> Tensor[(4), int32] {
    %36 = cast(%p017, dtype="float16") /* ty=float16 span=from_string:75:10 */;
    full(%36, shape=[4], dtype="int32") /* ty=Tensor[(4), int32] span=from_string:74:5 */
  } /* ty=fn (float32, Tensor[(4), int32]) -> Tensor[(4), int32] */;
  %43 = (%x1, %x5) /* ty=(Tensor[(64, 64, 3, 3), float32], Tensor[(4, 64, 3, 3), float32]) span=from_string:91:13 */;
  %44 = fn (%p018: (Tensor[(64, 64, 3, 3), float32], Tensor[(4, 64, 3, 3), float32]) /* ty=(Tensor[(64, 64, 3, 3), float32], Tensor[(4, 64, 3, 3), float32]) span=from_string:80:11 */, Primitive=1) -> Tensor[(68, 64, 3, 3), float16] {
    %38 = %p018.0 /* ty=Tensor[(64, 64, 3, 3), float32] span=from_string:81:16 */;
    %39 = %p018.1 /* ty=Tensor[(4, 64, 3, 3), float32] span=from_string:82:16 */;
    %40 = cast(%38, dtype="float16") /* ty=Tensor[(64, 64, 3, 3), float16] span=from_string:83:12 */;
    %41 = cast(%39, dtype="float16") /* ty=Tensor[(4, 64, 3, 3), float16] span=from_string:83:17 */;
    %42 = (%40, %41) /* ty=(Tensor[(64, 64, 3, 3), float16], Tensor[(4, 64, 3, 3), float16]) span=from_string:84:17 */;
    concatenate(%42) /* ty=Tensor[(68, 64, 3, 3), float16] span=from_string:79:5 */
  } /* ty=fn ((Tensor[(64, 64, 3, 3), float32], Tensor[(4, 64, 3, 3), float32])) -> Tensor[(68, 64, 3, 3), float16] */;
  %45 = %21(1f /* ty=float32 span=from_string:86:15 */, %20) /* ty=Tensor[(1, 128, 56, 56), float16] span=from_string:92:4 */;
  %46 = %27(%26) /* ty=Tensor[(64, 64, 3, 3), float16] span=from_string:92:53 */;
  %47 = %30(%29) /* ty=Tensor[(64, 64, 3, 3), float16] span=from_string:92:58 */;
  %48 = %35(%34) /* ty=Tensor[(1, 64, 56, 56), float16] span=from_string:92:63 */;
  %49 = %37(%x4, meta[relay.Constant][0] /* ty=Tensor[(4), int32] span=from_string:90:23 */) /* ty=Tensor[(4), int32] span=from_string:92:68 */;
  %50 = %44(%43) /* ty=Tensor[(68, 64, 3, 3), float16] span=from_string:92:73 */;
  (%45, 2f /* ty=float32 span=from_string:92:11 */, %46, %47, %48, %49, %50, False /* ty=bool span=from_string:92:78 */) /* ty=(Tensor[(1, 128, 56, 56), float16], float32, Tensor[(64, 64, 3, 3), float16], Tensor[(64, 64, 3, 3), float16], Tensor[(1, 64, 56, 56), float16], Tensor[(4), int32], Tensor[(68, 64, 3, 3), float16], bool) span=from_string:3:3 */
}

#[metadata]
{
  "root": 1, 
  "nodes": [
    {
      "type_key": ""
    }, 
    {
      "type_key": "Map", 
      "keys": [
        "relay.Constant"
      ], 
      "data": [2]
    }, 
    {
      "type_key": "Array", 
      "data": [3]
    }, 
    {
      "type_key": "relay.Constant", 
      "attrs": {
        "_checked_type_": "8", 
        "data": "0", 
        "span": "6", 
        "virtual_device_": "4"
      }
    }, 
    {
      "type_key": "VirtualDevice", 
      "attrs": {
        "device_type_int": "-1", 
        "memory_scope": "5", 
        "target": "0", 
        "virtual_device_id": "-1"
      }
    }, 
    {
      "type_key": "runtime.String"
    }, 
    {
      "type_key": "Span", 
      "attrs": {
        "column": "23", 
        "end_column": "41", 
        "end_line": "90", 
        "line": "90", 
        "source_name": "7"
      }
    }, 
    {
      "type_key": "SourceName", 
      "repr_str": "from_string"
    }, 
    {
      "type_key": "relay.TensorType", 
      "attrs": {
        "dtype": "int32", 
        "shape": "9", 
        "span": "0"
      }
    }, 
    {
      "type_key": "Array", 
      "data": [10]
    }, 
    {
      "type_key": "IntImm", 
      "attrs": {
        "dtype": "int32", 
        "span": "0", 
        "value": "4"
      }
    }
  ], 
  "b64ndarrays": [
    "P6G0lvBAXt0AAAAAAAAAAAEAAAAAAAAAAQAAAAAgAQAEAAAAAAAAABAAAAAAAAAAQAAAAEAAAAADAAAAAwAAAA=="
  ], 
  "attrs": {"tvm_version": "0.13.0"}
}