#[version = "0.0.5"]
def @main(%x0: Tensor[(1, 64, 56, 56), float32] /* ty=Tensor[(1, 64, 56, 56), float32] span=from_string:6:118 */, %x1: Tensor[(64, 64, 3, 3), float32] /* ty=Tensor[(64, 64, 3, 3), float32] span=from_string:68:118 */, %x2: Tensor[(4096, 3, 3), float32] /* ty=Tensor[(4096, 3, 3), float32] */, %x3: Tensor[(1, 64, 56, 56), float32] /* ty=Tensor[(1, 64, 56, 56), float32] */, %x4: float32 /* ty=float32 span=from_string:63:94 */, %x5: Tensor[(4, 64, 3, 3), float32] /* ty=Tensor[(4, 64, 3, 3), float32] span=from_string:68:123 */) -> (Tensor[(1, 128, 56, 56), float16], float32, Tensor[(64, 64, 3, 3), float16], Tensor[(64, 64, 3, 3), float16], Tensor[(1, 64, 56, 56), float16], Tensor[(4), int32], Tensor[(68, 64, 3, 3), float32], bool) {
  let %x_0: fn (Tensor[(1, 64, 56, 56), float32]) -> Tensor[(1, 64, 56, 56), float16] /* ty=fn (Tensor[(1, 64, 56, 56), float32]) -> Tensor[(1, 64, 56, 56), float16] span=from_string:6:113 */ = fn (%p04: Tensor[(1, 64, 56, 56), float32] /* ty=Tensor[(1, 64, 56, 56), float32] span=from_string:4:10 */, Primitive=1) -> Tensor[(1, 64, 56, 56), float16] {
    cast(%p04, dtype="float16") /* ty=Tensor[(1, 64, 56, 56), float16] span=from_string:4:5 */
  } /* ty=fn (Tensor[(1, 64, 56, 56), float32]) -> Tensor[(1, 64, 56, 56), float16] */;
  let %x_1: Tensor[(1, 64, 56, 56), float16] /* ty=Tensor[(1, 64, 56, 56), float16] span=from_string:19:118 */ = %x_0(%x0) /* ty=Tensor[(1, 64, 56, 56), float16] span=from_string:6:113 */;
  let %x_2: fn (Tensor[(64, 64, 3, 3), float32]) -> Tensor[(64, 64, 3, 3), float16] /* ty=fn (Tensor[(64, 64, 3, 3), float32]) -> Tensor[(64, 64, 3, 3), float16] span=from_string:12:111 */ = fn (%p05: Tensor[(64, 64, 3, 3), float32] /* ty=Tensor[(64, 64, 3, 3), float32] span=from_string:8:15 */, Primitive=1) -> Tensor[(64, 64, 3, 3), float16] {
    %0 = cast(%p05, dtype="float16") /* ty=Tensor[(64, 64, 3, 3), float16] span=from_string:10:15 */;
    %1 = cast(2f /* ty=float32 span=from_string:9:17 */, dtype="float16") /* ty=float16 span=from_string:10:19 */;
    multiply(%0, %1) /* ty=Tensor[(64, 64, 3, 3), float16] span=from_string:8:5 */
  } /* ty=fn (Tensor[(64, 64, 3, 3), float32]) -> Tensor[(64, 64, 3, 3), float16] */;
  let %x_3: Tensor[(64, 64, 3, 3), float16] /* ty=Tensor[(64, 64, 3, 3), float16] span=from_string:46:125 */ = %x_2(%x1) /* ty=Tensor[(64, 64, 3, 3), float16] span=from_string:12:111 */;
  let %x_4: fn (Tensor[(1, 64, 56, 56), float16], Tensor[(64, 64, 3, 3), float16]) -> Tensor[(1, 64, 56, 56), float16] /* ty=fn (Tensor[(1, 64, 56, 56), float16], Tensor[(64, 64, 3, 3), float16]) -> Tensor[(1, 64, 56, 56), float16] span=from_string:19:113 */ = fn (%p03: Tensor[(1, 64, 56, 56), float16] /* ty=Tensor[(1, 64, 56, 56), float16] span=from_string:15:20 */, %p11: Tensor[(64, 64, 3, 3), float16] /* ty=Tensor[(64, 64, 3, 3), float16] span=from_string:15:26 */, Primitive=1) -> Tensor[(1, 64, 56, 56), float16] {
    %2 = cast(0f /* ty=float32 span=from_string:14:17 */, dtype="float16") /* ty=float16 span=from_string:16:14 */;
    %3 = nn.conv2d(%p03, %p11, padding=[1, 1, 1, 1], channels=64, kernel_size=[3, 3], out_dtype="float16") /* ty=Tensor[(1, 64, 56, 56), float16] span=from_string:16:18 */;
    %4 = add(%2, %3) /* ty=Tensor[(1, 64, 56, 56), float16] span=from_string:17:13 */;
    nn.relu(%4) /* ty=Tensor[(1, 64, 56, 56), float16] span=from_string:14:5 */
  } /* ty=fn (Tensor[(1, 64, 56, 56), float16], Tensor[(64, 64, 3, 3), float16]) -> Tensor[(1, 64, 56, 56), float16] */;
  let %x_5: Tensor[(1, 64, 56, 56), float16] /* ty=Tensor[(1, 64, 56, 56), float16] span=from_string:34:128 */ = %x_4(%x_1, %x_3) /* ty=Tensor[(1, 64, 56, 56), float16] span=from_string:19:113 */;
  let %x_6: fn (Tensor[(1, 64, 56, 56), float16]) -> Tensor[(1, 64, 28, 28), float16] /* ty=fn (Tensor[(1, 64, 56, 56), float16]) -> Tensor[(1, 64, 28, 28), float16] span=from_string:23:113 */ = fn (%p02: Tensor[(1, 64, 56, 56), float16] /* ty=Tensor[(1, 64, 56, 56), float16] span=from_string:21:20 */, Primitive=1) -> Tensor[(1, 64, 28, 28), float16] {
    nn.max_pool2d(%p02, pool_size=[2, 2], strides=[2, 2], padding=[0, 0, 0, 0]) /* ty=Tensor[(1, 64, 28, 28), float16] span=from_string:21:5 */
  } /* ty=fn (Tensor[(1, 64, 56, 56), float16]) -> Tensor[(1, 64, 28, 28), float16] */;
  let %x_7: Tensor[(1, 64, 28, 28), float16] /* ty=Tensor[(1, 64, 28, 28), float16] span=from_string:27:118 */ = %x_6(%x_5) /* ty=Tensor[(1, 64, 28, 28), float16] span=from_string:23:113 */;
  let %x_8: fn (Tensor[(1, 64, 28, 28), float16]) -> Tensor[(1, 64, 56, 56), float16] /* ty=fn (Tensor[(1, 64, 28, 28), float16]) -> Tensor[(1, 64, 56, 56), float16] span=from_string:27:113 */ = fn (%p01: Tensor[(1, 64, 28, 28), float16] /* ty=Tensor[(1, 64, 28, 28), float16] span=from_string:25:19 */, Primitive=1) -> Tensor[(1, 64, 56, 56), float16] {
    nn.upsampling(%p01, scale_h=2f, scale_w=2f) /* ty=Tensor[(1, 64, 56, 56), float16] span=from_string:25:5 */
  } /* ty=fn (Tensor[(1, 64, 28, 28), float16]) -> Tensor[(1, 64, 56, 56), float16] */;
  let %x_9: Tensor[(1, 64, 56, 56), float16] /* ty=Tensor[(1, 64, 56, 56), float16] span=from_string:57:120 */ = %x_8(%x_7) /* ty=Tensor[(1, 64, 56, 56), float16] span=from_string:27:113 */;
  let %x_10: fn (Tensor[(1, 64, 56, 56), float16], Tensor[(1, 64, 56, 56), float16]) -> Tensor[(1, 128, 56, 56), float16] /* ty=fn (Tensor[(1, 64, 56, 56), float16], Tensor[(1, 64, 56, 56), float16]) -> Tensor[(1, 128, 56, 56), float16] span=from_string:34:116 */ = fn (%p0: Tensor[(1, 64, 56, 56), float16] /* ty=Tensor[(1, 64, 56, 56), float16] span=from_string:29:11 */, %p1: Tensor[(1, 64, 56, 56), float16] /* ty=Tensor[(1, 64, 56, 56), float16] span=from_string:29:16 */, Primitive=1) -> Tensor[(1, 128, 56, 56), float16] {
    %5 = (%p0, %p1) /* ty=(Tensor[(1, 64, 56, 56), float16], Tensor[(1, 64, 56, 56), float16]) span=from_string:30:22 */;
    %6 = concatenate(%5, axis=1) /* ty=Tensor[(1, 128, 56, 56), float16] span=from_string:32:9 */;
    %7 = cast(1f /* ty=float32 span=from_string:31:17 */, dtype="float16") /* ty=float16 span=from_string:43:19 */;
    add(%6, %7) /* ty=Tensor[(1, 128, 56, 56), float16] span=from_string:29:5 */
  } /* ty=fn (Tensor[(1, 64, 56, 56), float16], Tensor[(1, 64, 56, 56), float16]) -> Tensor[(1, 128, 56, 56), float16] */;
  let %x_11: Tensor[(1, 128, 56, 56), float16] /* ty=Tensor[(1, 128, 56, 56), float16] span=from_string:70:458 */ = %x_10(%x_9, %x_5) /* ty=Tensor[(1, 128, 56, 56), float16] span=from_string:34:116 */;
  let %x_13: fn (Tensor[(64, 64, 3, 3), float16]) -> Tensor[(64, 64, 3, 3), float16] /* ty=fn (Tensor[(64, 64, 3, 3), float16]) -> Tensor[(64, 64, 3, 3), float16] span=from_string:39:112 */ = fn (%p07: Tensor[(64, 64, 3, 3), float16] /* ty=Tensor[(64, 64, 3, 3), float16] span=from_string:37:13 */, Primitive=1) -> Tensor[(64, 64, 3, 3), float16] {
    nn.relu(%p07) /* ty=Tensor[(64, 64, 3, 3), float16] span=from_string:37:5 */
  } /* ty=fn (Tensor[(64, 64, 3, 3), float16]) -> Tensor[(64, 64, 3, 3), float16] */;
  let %x_14: Tensor[(64, 64, 3, 3), float16] /* ty=Tensor[(64, 64, 3, 3), float16] span=from_string:51:118 */ = %x_13(%x_3) /* ty=Tensor[(64, 64, 3, 3), float16] span=from_string:39:112 */;
  let %x_15: fn (Tensor[(64, 64, 3, 3), float16], Tensor[(64, 64, 3, 3), float16]) -> Tensor[(64, 64, 3, 3), float16] /* ty=fn (Tensor[(64, 64, 3, 3), float16], Tensor[(64, 64, 3, 3), float16]) -> Tensor[(64, 64, 3, 3), float16] span=from_string:46:112 */ = fn (%p06: Tensor[(64, 64, 3, 3), float16] /* ty=Tensor[(64, 64, 3, 3), float16] span=from_string:42:14 */, %p12: Tensor[(64, 64, 3, 3), float16] /* ty=Tensor[(64, 64, 3, 3), float16] span=from_string:41:18 */, Primitive=1) -> Tensor[(64, 64, 3, 3), float16] {
    %8 = nn.relu(%p12) /* ty=Tensor[(64, 64, 3, 3), float16] span=from_string:43:15 */;
    %9 = add(%p06, %7) /* ty=Tensor[(64, 64, 3, 3), float16] span=from_string:44:9 */;
    %10 = add(%8, %7) /* ty=Tensor[(64, 64, 3, 3), float16] span=from_string:44:13 */;
    add(%9, %10) /* ty=Tensor[(64, 64, 3, 3), float16] span=from_string:41:5 */
  } /* ty=fn (Tensor[(64, 64, 3, 3), float16], Tensor[(64, 64, 3, 3), float16]) -> Tensor[(64, 64, 3, 3), float16] */;
  let %x_16: Tensor[(64, 64, 3, 3), float16] /* ty=Tensor[(64, 64, 3, 3), float16] span=from_string:70:472 */ = %x_15(%x_14, %x_3) /* ty=Tensor[(64, 64, 3, 3), float16] span=from_string:46:112 */;
  let %x_17: fn (Tensor[(64, 64, 3, 3), float16]) -> Tensor[(64, 64, 3, 3), float16] /* ty=fn (Tensor[(64, 64, 3, 3), float16]) -> Tensor[(64, 64, 3, 3), float16] span=from_string:51:112 */ = fn (%p08: Tensor[(64, 64, 3, 3), float16] /* ty=Tensor[(64, 64, 3, 3), float16] span=from_string:48:19 */, Primitive=1, relay.reshape_only=1) -> Tensor[(64, 64, 3, 3), float16] {
    %11 = reshape(%p08, newshape=[4096, 3, 3]) /* ty=Tensor[(4096, 3, 3), float16] span=from_string:49:13 */;
    reshape(%11, newshape=[64, 64, 3, 3]) /* ty=Tensor[(64, 64, 3, 3), float16] span=from_string:48:5 */
  } /* ty=fn (Tensor[(64, 64, 3, 3), float16]) -> Tensor[(64, 64, 3, 3), float16] */;
  let %x_18: Tensor[(64, 64, 3, 3), float16] /* ty=Tensor[(64, 64, 3, 3), float16] span=from_string:70:479 */ = %x_17(%x_14) /* ty=Tensor[(64, 64, 3, 3), float16] span=from_string:51:112 */;
  let %x_19: fn (Tensor[(1, 64, 56, 56), float16]) -> Tensor[(1, 64, 56, 56), float16] /* ty=fn (Tensor[(1, 64, 56, 56), float16]) -> Tensor[(1, 64, 56, 56), float16] span=from_string:57:114 */ = fn (%p09: Tensor[(1, 64, 56, 56), float16] /* ty=Tensor[(1, 64, 56, 56), float16] span=from_string:53:28 */, Primitive=1) -> Tensor[(1, 64, 56, 56), float16] {
    %12 = layout_transform(%p09, src_layout="NCHW", dst_layout="NHWC") /* ty=Tensor[(1, 56, 56, 64), float16] span=from_string:54:28 */;
    %13 = layout_transform(%12, src_layout="NHWC", dst_layout="NCHW") /* ty=Tensor[(1, 64, 56, 56), float16] span=from_string:55:13 */;
    nn.relu(%13) /* ty=Tensor[(1, 64, 56, 56), float16] span=from_string:53:5 */
  } /* ty=fn (Tensor[(1, 64, 56, 56), float16]) -> Tensor[(1, 64, 56, 56), float16] */;
  let %x_20: Tensor[(1, 64, 56, 56), float16] /* ty=Tensor[(1, 64, 56, 56), float16] span=from_string:70:486 */ = %x_19(%x_9) /* ty=Tensor[(1, 64, 56, 56), float16] span=from_string:57:114 */;
  let %x_22: fn (float32, Tensor[(4), int32]) -> Tensor[(4), int32] /* ty=fn (float32, Tensor[(4), int32]) -> Tensor[(4), int32] span=from_string:63:88 */ = fn (%p010: float32 /* ty=float32 span=from_string:60:16 */, %p13: Tensor[(4), int32] /* ty=Tensor[(4), int32] span=from_string:61:15 */, Primitive=1) -> Tensor[(4), int32] {
    %14 = cast(%p010, dtype="float16") /* ty=float16 span=from_string:61:21 */;
    full_like(%p13, %14) /* ty=Tensor[(4), int32] span=from_string:60:5 */
  } /* ty=fn (float32, Tensor[(4), int32]) -> Tensor[(4), int32] */;
  let %x_23: Tensor[(4), int32] /* ty=Tensor[(4), int32] span=from_string:70:493 */ = %x_22(%x4, meta[relay.Constant][0] /* ty=Tensor[(4), int32] span=from_string:58:93 */) /* ty=Tensor[(4), int32] span=from_string:63:88 */;
  let %x_24: fn (Tensor[(64, 64, 3, 3), float32], Tensor[(4, 64, 3, 3), float32]) -> Tensor[(68, 64, 3, 3), float32] /* ty=fn (Tensor[(64, 64, 3, 3), float32], Tensor[(4, 64, 3, 3), float32]) -> Tensor[(68, 64, 3, 3), float32] span=from_string:68:112 */ = fn (%p011: Tensor[(64, 64, 3, 3), float32] /* ty=Tensor[(64, 64, 3, 3), float32] span=from_string:65:12 */, %p14: Tensor[(4, 64, 3, 3), float32] /* ty=Tensor[(4, 64, 3, 3), float32] span=from_string:65:19 */, Primitive=1) -> Tensor[(68, 64, 3, 3), float32] {
    %15 = (%p011, %p14) /* ty=(Tensor[(64, 64, 3, 3), float32], Tensor[(4, 64, 3, 3), float32]) span=from_string:66:17 */;
    concatenate(%15) /* ty=Tensor[(68, 64, 3, 3), float32] span=from_string:65:5 */
  } /* ty=fn (Tensor[(64, 64, 3, 3), float32], Tensor[(4, 64, 3, 3), float32]) -> Tensor[(68, 64, 3, 3), float32] */;
  let %x_25: Tensor[(68, 64, 3, 3), float32] /* ty=Tensor[(68, 64, 3, 3), float32] span=from_string:70:500 */ = %x_24(%x1, %x5) /* ty=Tensor[(68, 64, 3, 3), float32] span=from_string:68:112 */;
  let %x_27: (Tensor[(1, 128, 56, 56), float16], float32, Tensor[(64, 64, 3, 3), float16], Tensor[(64, 64, 3, 3), float16], Tensor[(1, 64, 56, 56), float16], Tensor[(4), int32], Tensor[(68, 64, 3, 3), float32], bool) /* ty=(Tensor[(1, 128, 56, 56), float16], float32, Tensor[(64, 64, 3, 3), float16], Tensor[(64, 64, 3, 3), float16], Tensor[(1, 64, 56, 56), float16], Tensor[(4), int32], Tensor[(68, 64, 3, 3), float32], bool) span=from_string:71:3 */ = (%x_11, 2f /* ty=float32 span=from_string:35:66 */, %x_16, %x_18, %x_20, %x_23, %x_25, False /* ty=bool span=from_string:69:58 */) /* ty=(Tensor[(1, 128, 56, 56), float16], float32, Tensor[(64, 64, 3, 3), float16], Tensor[(64, 64, 3, 3), float16], Tensor[(1, 64, 56, 56), float16], Tensor[(4), int32], Tensor[(68, 64, 3, 3), float32], bool) span=from_string:70:457 */;
  %x_27
}

#[metadata]
{
  "root": 1, 
  "nodes": [
    {
      "type_key": ""
    }, 
    {
      "type_key": "Map", 
      "keys": [
        "relay.Constant"
      ], 
      "data": [2]
    }, 
    {
      "type_key": "Array", 
      "data": [3]
    }, 
    {
      "type_key": "relay.Constant", 
      "attrs": {
        "_checked_type_": "8", 
        "data": "0", 
        "span": "6", 
        "virtual_device_": "4"
      }
    }, 
    {
      "type_key": "VirtualDevice", 
      "attrs": {
        "device_type_int": "-1", 
        "memory_scope": "5", 
        "target": "0", 
        "virtual_device_id": "-1"
      }
    }, 
    {
      "type_key": "runtime.String"
    }, 
    {
      "type_key": "Span", 
      "attrs": {
        "column": "93", 
        "end_column": "111", 
        "end_line": "58", 
        "line": "58", 
        "source_name": "7"
      }
    }, 
    {
      "type_key": "SourceName", 
      "repr_str": "from_string"
    }, 
    {
      "type_key": "relay.TensorType", 
      "attrs": {
        "dtype": "int32", 
        "shape": "9", 
        "span": "0"
      }
    }, 
    {
      "type_key": "Array", 
      "data": [10]
    }, 
    {
      "type_key": "IntImm", 
      "attrs": {
        "dtype": "int32", 
        "span": "0", 
        "value": "4"
      }
    }
  ], 
  "b64ndarrays": [
    "P6G0lvBAXt0AAAAAAAAAAAEAAAAAAAAAAQAAAAAgAQAEAAAAAAAAABAAAAAAAAAAQAAAAEAAAAADAAAAAwAAAA=="
  ], 
  "attrs": {"tvm_version": "0.13.0"}
}