#[version = "0.0.5"]
def @main(%x0: Tensor[(1, 64, 56, 56), float32] /* ty=Tensor[(1, 64, 56, 56), float32] span=from_string:5:24 */, %x1: Tensor[(64, 64, 3, 3), float32] /* ty=Tensor[(64, 64, 3, 3), float32] span=from_string:24:16 */, %x2: Tensor[(4096, 3, 3), float32] /* ty=Tensor[(4096, 3, 3), float32] */, %x3: Tensor[(1, 64, 56, 56), float32] /* ty=Tensor[(1, 64, 56, 56), float32] */, %x4: float32 /* ty=float32 span=from_string:23:20 */, %x5: Tensor[(4, 64, 3, 3), float32] /* ty=Tensor[(4, 64, 3, 3), float32] span=from_string:24:21 */) -> (Tensor[(1, 128, 56, 56), float32], float32, Tensor[(64, 64, 3, 3), float32], Tensor[(64, 64, 3, 3), float32], Tensor[(1, 64, 56, 56), float32], Tensor[(4), int32], Tensor[(68, 64, 3, 3), float32], bool) {
  let %x_0: float32 /* ty=float32 span=from_string:4:29 */ = 2f /* ty=float32 span=from_string:3:16 */;
  %0 = fn (%p0: Tensor[(64, 64, 3, 3), float32] /* ty=Tensor[(64, 64, 3, 3), float32] */, %p1: float32 /* ty=float32 */, Primitive=1) -> Tensor[(64, 64, 3, 3), float32] {
    multiply(%p0, %p1) /* ty=Tensor[(64, 64, 3, 3), float32] span=from_string:4:15 */
  } /* ty=fn (Tensor[(64, 64, 3, 3), float32], float32) -> Tensor[(64, 64, 3, 3), float32] */;
  let %x_1: Tensor[(64, 64, 3, 3), float32] /* ty=Tensor[(64, 64, 3, 3), float32] span=from_string:17:23 */ = %0(%x1, %x_0) /* ty=Tensor[(64, 64, 3, 3), float32] */;
  %1 = fn (%p01: Tensor[(1, 64, 56, 56), float32] /* ty=Tensor[(1, 64, 56, 56), float32] */, %p11: Tensor[(64, 64, 3, 3), float32] /* ty=Tensor[(64, 64, 3, 3), float32] */, Primitive=1) -> Tensor[(1, 64, 56, 56), float32] {
    nn.conv2d(%p01, %p11, padding=[1, 1, 1, 1], channels=64, kernel_size=[3, 3]) /* ty=Tensor[(1, 64, 56, 56), float32] span=from_string:5:14 */
  } /* ty=fn (Tensor[(1, 64, 56, 56), float32], Tensor[(64, 64, 3, 3), float32]) -> Tensor[(1, 64, 56, 56), float32] */;
  let %x_2: Tensor[(1, 64, 56, 56), float32] /* ty=Tensor[(1, 64, 56, 56), float32] span=from_string:6:22 */ = %1(%x0, %x_1) /* ty=Tensor[(1, 64, 56, 56), float32] */;
  %2 = fn (%p02: Tensor[(1, 64, 56, 56), float32] /* ty=Tensor[(1, 64, 56, 56), float32] */, Primitive=1) -> Tensor[(1, 64, 56, 56), float32] {
    nn.relu(%p02) /* ty=Tensor[(1, 64, 56, 56), float32] span=from_string:6:14 */
  } /* ty=fn (Tensor[(1, 64, 56, 56), float32]) -> Tensor[(1, 64, 56, 56), float32] */;
  let %x_3: Tensor[(1, 64, 56, 56), float32] /* ty=Tensor[(1, 64, 56, 56), float32] span=from_string:9:21 */ = %2(%x_2) /* ty=Tensor[(1, 64, 56, 56), float32] */;
  %3 = fn (%p03: Tensor[(1, 64, 56, 56), float32] /* ty=Tensor[(1, 64, 56, 56), float32] */, Primitive=1) -> Tensor[(1, 64, 28, 28), float32] {
    nn.max_pool2d(%p03, pool_size=[2, 2], strides=[2, 2], padding=[0, 0, 0, 0]) /* ty=Tensor[(1, 64, 28, 28), float32] span=from_string:7:14 */
  } /* ty=fn (Tensor[(1, 64, 56, 56), float32]) -> Tensor[(1, 64, 28, 28), float32] */;
  let %x_4: Tensor[(1, 64, 28, 28), float32] /* ty=Tensor[(1, 64, 28, 28), float32] span=from_string:8:28 */ = %3(%x_3) /* ty=Tensor[(1, 64, 28, 28), float32] */;
  %4 = fn (%p04: Tensor[(1, 64, 28, 28), float32] /* ty=Tensor[(1, 64, 28, 28), float32] */, Primitive=1) -> Tensor[(1, 64, 56, 56), float32] {
    nn.upsampling(%p04, scale_h=2f, scale_w=2f) /* ty=Tensor[(1, 64, 56, 56), float32] span=from_string:8:14 */
  } /* ty=fn (Tensor[(1, 64, 28, 28), float32]) -> Tensor[(1, 64, 56, 56), float32] */;
  let %x_5: Tensor[(1, 64, 56, 56), float32] /* ty=Tensor[(1, 64, 56, 56), float32] span=from_string:22:23 */ = %4(%x_4) /* ty=Tensor[(1, 64, 56, 56), float32] */;
  let %x_6: (Tensor[(1, 64, 56, 56), float32], Tensor[(1, 64, 56, 56), float32]) /* ty=(Tensor[(1, 64, 56, 56), float32], Tensor[(1, 64, 56, 56), float32]) span=from_string:10:26 */ = (%x_5, %x_3) /* ty=(Tensor[(1, 64, 56, 56), float32], Tensor[(1, 64, 56, 56), float32]) span=from_string:9:14 */;
  %5 = fn (%p05: (Tensor[(1, 64, 56, 56), float32], Tensor[(1, 64, 56, 56), float32]) /* ty=(Tensor[(1, 64, 56, 56), float32], Tensor[(1, 64, 56, 56), float32]) */, Primitive=1) -> Tensor[(1, 128, 56, 56), float32] {
    concatenate(%p05, axis=1) /* ty=Tensor[(1, 128, 56, 56), float32] span=from_string:10:14 */
  } /* ty=fn ((Tensor[(1, 64, 56, 56), float32], Tensor[(1, 64, 56, 56), float32])) -> Tensor[(1, 128, 56, 56), float32] */;
  let %x_7: Tensor[(1, 128, 56, 56), float32] /* ty=Tensor[(1, 128, 56, 56), float32] span=from_string:12:18 */ = %5(%x_6) /* ty=Tensor[(1, 128, 56, 56), float32] */;
  let %x_8: float32 /* ty=float32 span=from_string:12:24 */ = 1f /* ty=float32 span=from_string:11:16 */;
  %6 = fn (%p06: Tensor[(1, 128, 56, 56), float32] /* ty=Tensor[(1, 128, 56, 56), float32] */, %p12: float32 /* ty=float32 */, Primitive=1) -> Tensor[(1, 128, 56, 56), float32] {
    add(%p06, %p12) /* ty=Tensor[(1, 128, 56, 56), float32] span=from_string:12:14 */
  } /* ty=fn (Tensor[(1, 128, 56, 56), float32], float32) -> Tensor[(1, 128, 56, 56), float32] */;
  let %x_9: Tensor[(1, 128, 56, 56), float32] /* ty=Tensor[(1, 128, 56, 56), float32] span=from_string:27:16 */ = %6(%x_7, %x_8) /* ty=Tensor[(1, 128, 56, 56), float32] */;
  let %x_10: float32 /* ty=float32 span=from_string:27:22 */ = 2f /* ty=float32 span=from_string:13:17 */;
  %7 = fn (%p07: Tensor[(64, 64, 3, 3), float32] /* ty=Tensor[(64, 64, 3, 3), float32] */, Primitive=1) -> Tensor[(64, 64, 3, 3), float32] {
    nn.relu(%p07) /* ty=Tensor[(64, 64, 3, 3), float32] span=from_string:14:15 */
  } /* ty=fn (Tensor[(64, 64, 3, 3), float32]) -> Tensor[(64, 64, 3, 3), float32] */;
  let %x_11: Tensor[(64, 64, 3, 3), float32] /* ty=Tensor[(64, 64, 3, 3), float32] span=from_string:21:23 */ = %7(%x_1) /* ty=Tensor[(64, 64, 3, 3), float32] */;
  let %x_12: float32 /* ty=float32 span=from_string:16:26 */ = 1f /* ty=float32 span=from_string:15:17 */;
  %8 = fn (%p08: Tensor[(64, 64, 3, 3), float32] /* ty=Tensor[(64, 64, 3, 3), float32] */, %p13: float32 /* ty=float32 */, Primitive=1) -> Tensor[(64, 64, 3, 3), float32] {
    add(%p08, %p13) /* ty=Tensor[(64, 64, 3, 3), float32] span=from_string:16:15 */
  } /* ty=fn (Tensor[(64, 64, 3, 3), float32], float32) -> Tensor[(64, 64, 3, 3), float32] */;
  let %x_13: Tensor[(64, 64, 3, 3), float32] /* ty=Tensor[(64, 64, 3, 3), float32] span=from_string:20:19 */ = %8(%x_11, %x_12) /* ty=Tensor[(64, 64, 3, 3), float32] */;
  %9 = fn (%p09: Tensor[(64, 64, 3, 3), float32] /* ty=Tensor[(64, 64, 3, 3), float32] */, Primitive=1) -> Tensor[(64, 64, 3, 3), float32] {
    nn.relu(%p09) /* ty=Tensor[(64, 64, 3, 3), float32] span=from_string:17:15 */
  } /* ty=fn (Tensor[(64, 64, 3, 3), float32]) -> Tensor[(64, 64, 3, 3), float32] */;
  let %x_14: Tensor[(64, 64, 3, 3), float32] /* ty=Tensor[(64, 64, 3, 3), float32] span=from_string:19:19 */ = %9(%x_1) /* ty=Tensor[(64, 64, 3, 3), float32] */;
  let %x_15: float32 /* ty=float32 span=from_string:19:26 */ = 1f /* ty=float32 span=from_string:18:17 */;
  %10 = fn (%p010: Tensor[(64, 64, 3, 3), float32] /* ty=Tensor[(64, 64, 3, 3), float32] */, %p14: float32 /* ty=float32 */, Primitive=1) -> Tensor[(64, 64, 3, 3), float32] {
    add(%p010, %p14) /* ty=Tensor[(64, 64, 3, 3), float32] span=from_string:19:15 */
  } /* ty=fn (Tensor[(64, 64, 3, 3), float32], float32) -> Tensor[(64, 64, 3, 3), float32] */;
  let %x_16: Tensor[(64, 64, 3, 3), float32] /* ty=Tensor[(64, 64, 3, 3), float32] span=from_string:20:26 */ = %10(%x_14, %x_15) /* ty=Tensor[(64, 64, 3, 3), float32] */;
  %11 = fn (%p011: Tensor[(64, 64, 3, 3), float32] /* ty=Tensor[(64, 64, 3, 3), float32] */, %p15: Tensor[(64, 64, 3, 3), float32] /* ty=Tensor[(64, 64, 3, 3), float32] */, Primitive=1) -> Tensor[(64, 64, 3, 3), float32] {
    add(%p011, %p15) /* ty=Tensor[(64, 64, 3, 3), float32] span=from_string:20:15 */
  } /* ty=fn (Tensor[(64, 64, 3, 3), float32], Tensor[(64, 64, 3, 3), float32]) -> Tensor[(64, 64, 3, 3), float32] */;
  let %x_17: Tensor[(64, 64, 3, 3), float32] /* ty=Tensor[(64, 64, 3, 3), float32] span=from_string:27:29 */ = %11(%x_13, %x_16) /* ty=Tensor[(64, 64, 3, 3), float32] */;
  %12 = fn (%p012: Tensor[(64, 64, 3, 3), float32] /* ty=Tensor[(64, 64, 3, 3), float32] */, Primitive=1, relay.reshape_only=1) -> Tensor[(64, 64, 3, 3), float32] {
    reshape(%p012, newshape=[64, 64, 3, 3]) /* ty=Tensor[(64, 64, 3, 3), float32] span=from_string:21:15 */
  } /* ty=fn (Tensor[(64, 64, 3, 3), float32]) -> Tensor[(64, 64, 3, 3), float32] */;
  let %x_18: Tensor[(64, 64, 3, 3), float32] /* ty=Tensor[(64, 64, 3, 3), float32] span=from_string:27:36 */ = %12(%x_11) /* ty=Tensor[(64, 64, 3, 3), float32] */;
  %13 = fn (%p013: Tensor[(1, 64, 56, 56), float32] /* ty=Tensor[(1, 64, 56, 56), float32] */, Primitive=1) -> Tensor[(1, 64, 56, 56), float32] {
    nn.relu(%p013) /* ty=Tensor[(1, 64, 56, 56), float32] span=from_string:22:15 */
  } /* ty=fn (Tensor[(1, 64, 56, 56), float32]) -> Tensor[(1, 64, 56, 56), float32] */;
  let %x_19: Tensor[(1, 64, 56, 56), float32] /* ty=Tensor[(1, 64, 56, 56), float32] span=from_string:27:43 */ = %13(%x_5) /* ty=Tensor[(1, 64, 56, 56), float32] */;
  %14 = fn (%p014: float32 /* ty=float32 */, Primitive=1) -> Tensor[(4), int32] {
    full(%p014, shape=[4], dtype="int32") /* ty=Tensor[(4), int32] span=from_string:23:15 */
  } /* ty=fn (float32) -> Tensor[(4), int32] */;
  let %x_20: Tensor[(4), int32] /* ty=Tensor[(4), int32] span=from_string:27:50 */ = %14(%x4) /* ty=Tensor[(4), int32] */;
  let %x_21: (Tensor[(64, 64, 3, 3), float32], Tensor[(4, 64, 3, 3), float32]) /* ty=(Tensor[(64, 64, 3, 3), float32], Tensor[(4, 64, 3, 3), float32]) span=from_string:25:27 */ = (%x1, %x5) /* ty=(Tensor[(64, 64, 3, 3), float32], Tensor[(4, 64, 3, 3), float32]) span=from_string:24:15 */;
  %15 = fn (%p015: (Tensor[(64, 64, 3, 3), float32], Tensor[(4, 64, 3, 3), float32]) /* ty=(Tensor[(64, 64, 3, 3), float32], Tensor[(4, 64, 3, 3), float32]) */, Primitive=1) -> Tensor[(68, 64, 3, 3), float32] {
    concatenate(%p015) /* ty=Tensor[(68, 64, 3, 3), float32] span=from_string:25:15 */
  } /* ty=fn ((Tensor[(64, 64, 3, 3), float32], Tensor[(4, 64, 3, 3), float32])) -> Tensor[(68, 64, 3, 3), float32] */;
  let %x_22: Tensor[(68, 64, 3, 3), float32] /* ty=Tensor[(68, 64, 3, 3), float32] span=from_string:27:57 */ = %15(%x_21) /* ty=Tensor[(68, 64, 3, 3), float32] */;
  let %x_23: bool /* ty=bool span=from_string:27:64 */ = False /* ty=bool span=from_string:26:15 */;
  let %x_24: (Tensor[(1, 128, 56, 56), float32], float32, Tensor[(64, 64, 3, 3), float32], Tensor[(64, 64, 3, 3), float32], Tensor[(1, 64, 56, 56), float32], Tensor[(4), int32], Tensor[(68, 64, 3, 3), float32], bool) /* ty=(Tensor[(1, 128, 56, 56), float32], float32, Tensor[(64, 64, 3, 3), float32], Tensor[(64, 64, 3, 3), float32], Tensor[(1, 64, 56, 56), float32], Tensor[(4), int32], Tensor[(68, 64, 3, 3), float32], bool) span=from_string:28:3 */ = (%x_9, %x_10, %x_17, %x_18, %x_19, %x_20, %x_22, %x_23) /* ty=(Tensor[(1, 128, 56, 56), float32], float32, Tensor[(64, 64, 3, 3), float32], Tensor[(64, 64, 3, 3), float32], Tensor[(1, 64, 56, 56), float32], Tensor[(4), int32], Tensor[(68, 64, 3, 3), float32], bool) span=from_string:27:15 */;
  %x_24
}
