#[version = "0.0.5"]
def @main(%x0: Tensor[(1, 64, 56, 56), float32] /* ty=Tensor[(1, 64, 56, 56), float32] span=from_string:4:18 */, %x1: Tensor[(64, 64, 3, 3), float32] /* ty=Tensor[(64, 64, 3, 3), float32] span=from_string:16:10 */, %x2: Tensor[(4096, 3, 3), float32] /* ty=Tensor[(4096, 3, 3), float32] */, %x3: Tensor[(1, 64, 56, 56), float32] /* ty=Tensor[(1, 64, 56, 56), float32] */, %x4: float32 /* ty=float32 span=from_string:21:14 */, %x5: Tensor[(4, 64, 3, 3), float32] /* ty=Tensor[(4, 64, 3, 3), float32] span=from_string:16:15 */) -> (Tensor[(1, 128, 56, 56), float32], float32, Tensor[(64, 64, 3, 3), float32], Tensor[(64, 64, 3, 3), float32], Tensor[(1, 64, 56, 56), float32], Tensor[(4), int32], Tensor[(68, 64, 3, 3), float32], bool) {
  %0 = multiply(%x1, 2f /* ty=float32 span=from_string:3:25 */) /* ty=Tensor[(64, 64, 3, 3), float32] span=from_string:11:16 */;
  %1 = nn.conv2d(%x0, %0, padding=[1, 1, 1, 1], channels=64, kernel_size=[3, 3]) /* ty=Tensor[(1, 64, 56, 56), float32] span=from_string:5:55 */;
  %2 = add(0f /* ty=float32 span=from_string:5:14 */, %1) /* ty=Tensor[(1, 64, 56, 56), float32] span=from_string:6:16 */;
  %3 = nn.relu(%2) /* ty=Tensor[(1, 64, 56, 56), float32] span=from_string:9:13 */;
  %4 = nn.max_pool2d(%3, pool_size=[2, 2], strides=[2, 2], padding=[0, 0, 0, 0]) /* ty=Tensor[(1, 64, 28, 28), float32] span=from_string:8:22 */;
  %5 = nn.upsampling(%4, scale_h=2f, scale_w=2f) /* ty=Tensor[(1, 64, 56, 56), float32] span=from_string:14:26 */;
  %6 = (%5, %3) /* ty=(Tensor[(1, 64, 56, 56), float32], Tensor[(1, 64, 56, 56), float32]) span=from_string:10:20 */;
  %7 = concatenate(%6, axis=1) /* ty=Tensor[(1, 128, 56, 56), float32] span=from_string:17:13 */;
  %8 = nn.relu(%0) /* ty=Tensor[(64, 64, 3, 3), float32] span=from_string:13:17 */;
  %9 = add(%8, 1f /* ty=float32 span=from_string:12:18 */) /* ty=Tensor[(64, 64, 3, 3), float32] span=from_string:18:19 */;
  %10 = reshape(%8, newshape=[4096, 3, 3]) /* ty=Tensor[(4096, 3, 3), float32] span=from_string:19:17 */;
  %11 = layout_transform(%5, src_layout="NCHW", dst_layout="NHWC") /* ty=Tensor[(1, 56, 56, 64), float32] span=from_string:15:26 */;
  %12 = layout_transform(%11, src_layout="NHWC", dst_layout="NCHW") /* ty=Tensor[(1, 64, 56, 56), float32] span=from_string:20:17 */;
  %13 = (%x1, %x5) /* ty=(Tensor[(64, 64, 3, 3), float32], Tensor[(4, 64, 3, 3), float32]) span=from_string:22:21 */;
  %14 = add(%7, 1f /* ty=float32 span=from_string:17:19 */) /* ty=Tensor[(1, 128, 56, 56), float32] span=from_string:23:4 */;
  %15 = multiply(%9, 2f /* ty=float32 span=from_string:18:25 */) /* ty=Tensor[(64, 64, 3, 3), float32] span=from_string:23:53 */;
  %16 = reshape(%10, newshape=[64, 64, 3, 3]) /* ty=Tensor[(64, 64, 3, 3), float32] span=from_string:23:58 */;
  %17 = nn.relu(%12) /* ty=Tensor[(1, 64, 56, 56), float32] span=from_string:23:63 */;
  %18 = full(%x4, shape=[4], dtype="int32") /* ty=Tensor[(4), int32] span=from_string:23:68 */;
  %19 = concatenate(%13) /* ty=Tensor[(68, 64, 3, 3), float32] span=from_string:23:73 */;
  (%14, 2f /* ty=float32 span=from_string:23:11 */, %15, %16, %17, %18, %19, False /* ty=bool span=from_string:23:78 */) /* ty=(Tensor[(1, 128, 56, 56), float32], float32, Tensor[(64, 64, 3, 3), float32], Tensor[(64, 64, 3, 3), float32], Tensor[(1, 64, 56, 56), float32], Tensor[(4), int32], Tensor[(68, 64, 3, 3), float32], bool) span=from_string:3:3 */
}
