#[version = "0.0.5"]
def @main(%x0: Tensor[(1, 64, 56, 56), float32] /* ty=Tensor[(1, 64, 56, 56), float32] span=from_string:11:117 */, %x1: Tensor[(64, 64, 3, 3), float32] /* ty=Tensor[(64, 64, 3, 3), float32] span=from_string:125:183 */, %x2: Tensor[(4096, 3, 3), float32] /* ty=Tensor[(4096, 3, 3), float32] */, %x3: Tensor[(1, 64, 56, 56), float32] /* ty=Tensor[(1, 64, 56, 56), float32] */, %x4: float32 /* ty=float32 span=from_string:120:69 */, %x5: Tensor[(4, 64, 3, 3), float32] /* ty=Tensor[(4, 64, 3, 3), float32] span=from_string:125:188 */) -> (Tensor[(1, 128, 56, 56), float16], float32, Tensor[(64, 64, 3, 3), float16], Tensor[(64, 64, 3, 3), float16], Tensor[(1, 64, 56, 56), float16], Tensor[(4), int32], Tensor[(68, 64, 3, 3), float32], bool) {
  %0 = fn (%p0: float32 /* ty=float32 span=from_string:5:10 */, Primitive=1) -> float16 {
    cast(%p0, dtype="float16") /* ty=float16 span=from_string:5:5 */
  } /* ty=fn (float32) -> float16 span=from_string:7:64 */;
  let %x_1: float16 /* ty=float16 span=from_string:32:117 */ = %0(0f /* ty=float32 span=from_string:3:64 */) /* ty=float16 span=from_string:7:64 */;
  %1 = fn (%p01: Tensor[(1, 64, 56, 56), float32] /* ty=Tensor[(1, 64, 56, 56), float32] span=from_string:9:10 */, Primitive=1) -> Tensor[(1, 64, 56, 56), float16] {
    cast(%p01, dtype="float16") /* ty=Tensor[(1, 64, 56, 56), float16] span=from_string:9:5 */
  } /* ty=fn (Tensor[(1, 64, 56, 56), float32]) -> Tensor[(1, 64, 56, 56), float16] span=from_string:11:114 */;
  let %x_2: Tensor[(1, 64, 56, 56), float16] /* ty=Tensor[(1, 64, 56, 56), float16] span=from_string:28:117 */ = %1(%x0) /* ty=Tensor[(1, 64, 56, 56), float16] span=from_string:11:114 */;
  %2 = fn (%p02: Tensor[(64, 64, 3, 3), float32] /* ty=Tensor[(64, 64, 3, 3), float32] span=from_string:13:10 */, Primitive=1) -> Tensor[(64, 64, 3, 3), float16] {
    cast(%p02, dtype="float16") /* ty=Tensor[(64, 64, 3, 3), float16] span=from_string:13:5 */
  } /* ty=fn (Tensor[(64, 64, 3, 3), float32]) -> Tensor[(64, 64, 3, 3), float16] span=from_string:15:112 */;
  let %x_3: Tensor[(64, 64, 3, 3), float16] /* ty=Tensor[(64, 64, 3, 3), float16] span=from_string:24:115 */ = %2(%x1) /* ty=Tensor[(64, 64, 3, 3), float16] span=from_string:15:112 */;
  %3 = fn (%p03: float32 /* ty=float32 span=from_string:18:10 */, Primitive=1) -> float16 {
    cast(%p03, dtype="float16") /* ty=float16 span=from_string:18:5 */
  } /* ty=fn (float32) -> float16 span=from_string:20:64 */;
  let %x_5: float16 /* ty=float16 span=from_string:24:121 */ = %3(2f /* ty=float32 span=from_string:16:65 */) /* ty=float16 span=from_string:20:64 */;
  %4 = fn (%p04: Tensor[(64, 64, 3, 3), float16] /* ty=Tensor[(64, 64, 3, 3), float16] span=from_string:22:15 */, %p1: float16 /* ty=float16 span=from_string:22:21 */, Primitive=1) -> Tensor[(64, 64, 3, 3), float16] {
    multiply(%p04, %p1) /* ty=Tensor[(64, 64, 3, 3), float16] span=from_string:22:6 */
  } /* ty=fn (Tensor[(64, 64, 3, 3), float16], float16) -> Tensor[(64, 64, 3, 3), float16] span=from_string:24:112 */;
  let %x_6: Tensor[(64, 64, 3, 3), float16] /* ty=Tensor[(64, 64, 3, 3), float16] span=from_string:82:117 */ = %4(%x_3, %x_5) /* ty=Tensor[(64, 64, 3, 3), float16] span=from_string:24:112 */;
  %5 = fn (%p05: Tensor[(1, 64, 56, 56), float16] /* ty=Tensor[(1, 64, 56, 56), float16] span=from_string:26:15 */, %p11: Tensor[(64, 64, 3, 3), float16] /* ty=Tensor[(64, 64, 3, 3), float16] span=from_string:26:21 */, Primitive=1) -> Tensor[(1, 64, 56, 56), float16] {
    nn.conv2d(%p05, %p11, padding=[1, 1, 1, 1], channels=64, kernel_size=[3, 3], out_dtype="float16") /* ty=Tensor[(1, 64, 56, 56), float16] span=from_string:26:5 */
  } /* ty=fn (Tensor[(1, 64, 56, 56), float16], Tensor[(64, 64, 3, 3), float16]) -> Tensor[(1, 64, 56, 56), float16] span=from_string:28:114 */;
  let %x_7: Tensor[(1, 64, 56, 56), float16] /* ty=Tensor[(1, 64, 56, 56), float16] span=from_string:32:123 */ = %5(%x_2, %x_6) /* ty=Tensor[(1, 64, 56, 56), float16] span=from_string:28:114 */;
  %6 = fn (%p06: float16 /* ty=float16 span=from_string:30:9 */, %p12: Tensor[(1, 64, 56, 56), float16] /* ty=Tensor[(1, 64, 56, 56), float16] span=from_string:30:15 */, Primitive=1) -> Tensor[(1, 64, 56, 56), float16] {
    add(%p06, %p12) /* ty=Tensor[(1, 64, 56, 56), float16] span=from_string:30:5 */
  } /* ty=fn (float16, Tensor[(1, 64, 56, 56), float16]) -> Tensor[(1, 64, 56, 56), float16] span=from_string:32:114 */;
  let %x_8: Tensor[(1, 64, 56, 56), float16] /* ty=Tensor[(1, 64, 56, 56), float16] span=from_string:36:117 */ = %6(%x_1, %x_7) /* ty=Tensor[(1, 64, 56, 56), float16] span=from_string:32:114 */;
  %7 = fn (%p07: Tensor[(1, 64, 56, 56), float16] /* ty=Tensor[(1, 64, 56, 56), float16] span=from_string:34:13 */, Primitive=1) -> Tensor[(1, 64, 56, 56), float16] {
    nn.relu(%p07) /* ty=Tensor[(1, 64, 56, 56), float16] span=from_string:34:5 */
  } /* ty=fn (Tensor[(1, 64, 56, 56), float16]) -> Tensor[(1, 64, 56, 56), float16] span=from_string:36:114 */;
  let %x_9: Tensor[(1, 64, 56, 56), float16] /* ty=Tensor[(1, 64, 56, 56), float16] span=from_string:45:195 */ = %7(%x_8) /* ty=Tensor[(1, 64, 56, 56), float16] span=from_string:36:114 */;
  %8 = fn (%p08: Tensor[(1, 64, 56, 56), float16] /* ty=Tensor[(1, 64, 56, 56), float16] span=from_string:38:20 */, Primitive=1) -> Tensor[(1, 64, 28, 28), float16] {
    nn.max_pool2d(%p08, pool_size=[2, 2], strides=[2, 2], padding=[0, 0, 0, 0]) /* ty=Tensor[(1, 64, 28, 28), float16] span=from_string:38:5 */
  } /* ty=fn (Tensor[(1, 64, 56, 56), float16]) -> Tensor[(1, 64, 28, 28), float16] span=from_string:40:115 */;
  let %x_10: Tensor[(1, 64, 28, 28), float16] /* ty=Tensor[(1, 64, 28, 28), float16] span=from_string:44:119 */ = %8(%x_9) /* ty=Tensor[(1, 64, 28, 28), float16] span=from_string:40:115 */;
  %9 = fn (%p09: Tensor[(1, 64, 28, 28), float16] /* ty=Tensor[(1, 64, 28, 28), float16] span=from_string:42:19 */, Primitive=1) -> Tensor[(1, 64, 56, 56), float16] {
    nn.upsampling(%p09, scale_h=2f, scale_w=2f) /* ty=Tensor[(1, 64, 56, 56), float16] span=from_string:42:5 */
  } /* ty=fn (Tensor[(1, 64, 28, 28), float16]) -> Tensor[(1, 64, 56, 56), float16] span=from_string:44:116 */;
  let %x_11: Tensor[(1, 64, 56, 56), float16] /* ty=Tensor[(1, 64, 56, 56), float16] span=from_string:107:120 */ = %9(%x_10) /* ty=Tensor[(1, 64, 56, 56), float16] span=from_string:44:116 */;
  let %x_12: (Tensor[(1, 64, 56, 56), float16], Tensor[(1, 64, 56, 56), float16]) /* ty=(Tensor[(1, 64, 56, 56), float16], Tensor[(1, 64, 56, 56), float16]) span=from_string:49:121 */ = (%x_11, %x_9) /* ty=(Tensor[(1, 64, 56, 56), float16], Tensor[(1, 64, 56, 56), float16]) span=from_string:45:187 */;
  %10 = fn (%p010: (Tensor[(1, 64, 56, 56), float16], Tensor[(1, 64, 56, 56), float16]) /* ty=(Tensor[(1, 64, 56, 56), float16], Tensor[(1, 64, 56, 56), float16]) span=from_string:47:17 */, Primitive=1) -> Tensor[(1, 128, 56, 56), float16] {
    concatenate(%p010, axis=1) /* ty=Tensor[(1, 128, 56, 56), float16] span=from_string:47:5 */
  } /* ty=fn ((Tensor[(1, 64, 56, 56), float16], Tensor[(1, 64, 56, 56), float16])) -> Tensor[(1, 128, 56, 56), float16] span=from_string:49:117 */;
  let %x_13: Tensor[(1, 128, 56, 56), float16] /* ty=Tensor[(1, 128, 56, 56), float16] span=from_string:50:117 */ = %10(%x_12) /* ty=Tensor[(1, 128, 56, 56), float16] span=from_string:49:117 */;
  let %x_14: Tensor[(1, 128, 56, 56), float16] /* ty=Tensor[(1, 128, 56, 56), float16] span=from_string:51:124 */ = %x_13;
  let %x_15: (Tensor[(1, 128, 56, 56), float16],) /* ty=(Tensor[(1, 128, 56, 56), float16],) span=from_string:55:121 */ = (%x_14,) /* ty=(Tensor[(1, 128, 56, 56), float16],) span=from_string:51:123 */;
  %11 = fn (%p011: (Tensor[(1, 128, 56, 56), float16],) /* ty=(Tensor[(1, 128, 56, 56), float16],) span=from_string:53:17 */, Primitive=1) -> Tensor[(1, 128, 56, 56), float16] {
    concatenate(%p011, axis=1) /* ty=Tensor[(1, 128, 56, 56), float16] span=from_string:53:5 */
  } /* ty=fn ((Tensor[(1, 128, 56, 56), float16],)) -> Tensor[(1, 128, 56, 56), float16] span=from_string:55:117 */;
  let %x_16: Tensor[(1, 128, 56, 56), float16] /* ty=Tensor[(1, 128, 56, 56), float16] span=from_string:64:122 */ = %11(%x_15) /* ty=Tensor[(1, 128, 56, 56), float16] span=from_string:55:117 */;
  %12 = fn (%p012: float32 /* ty=float32 span=from_string:58:10 */, Primitive=1) -> float16 {
    cast(%p012, dtype="float16") /* ty=float16 span=from_string:58:5 */
  } /* ty=fn (float32) -> float16 span=from_string:60:65 */;
  let %x_18: float16 /* ty=float16 span=from_string:64:129 */ = %12(1f /* ty=float32 span=from_string:56:66 */) /* ty=float16 span=from_string:60:65 */;
  %13 = fn (%p013: Tensor[(1, 128, 56, 56), float16] /* ty=Tensor[(1, 128, 56, 56), float16] span=from_string:62:9 */, %p13: float16 /* ty=float16 span=from_string:62:16 */, Primitive=1) -> Tensor[(1, 128, 56, 56), float16] {
    add(%p013, %p13) /* ty=Tensor[(1, 128, 56, 56), float16] span=from_string:62:5 */
  } /* ty=fn (Tensor[(1, 128, 56, 56), float16], float16) -> Tensor[(1, 128, 56, 56), float16] span=from_string:64:118 */;
  let %x_19: Tensor[(1, 128, 56, 56), float16] /* ty=Tensor[(1, 128, 56, 56), float16] span=from_string:137:459 */ = %13(%x_16, %x_18) /* ty=Tensor[(1, 128, 56, 56), float16] span=from_string:64:118 */;
  %14 = fn (%p014: Tensor[(64, 64, 3, 3), float16] /* ty=Tensor[(64, 64, 3, 3), float16] span=from_string:67:13 */, Primitive=1) -> Tensor[(64, 64, 3, 3), float16] {
    nn.relu(%p014) /* ty=Tensor[(64, 64, 3, 3), float16] span=from_string:67:5 */
  } /* ty=fn (Tensor[(64, 64, 3, 3), float16]) -> Tensor[(64, 64, 3, 3), float16] span=from_string:69:113 */;
  let %x_21: Tensor[(64, 64, 3, 3), float16] /* ty=Tensor[(64, 64, 3, 3), float16] span=from_string:99:114 */ = %14(%x_6) /* ty=Tensor[(64, 64, 3, 3), float16] span=from_string:69:113 */;
  %15 = fn (%p015: float32 /* ty=float32 span=from_string:72:10 */, Primitive=1) -> float16 {
    cast(%p015, dtype="float16") /* ty=float16 span=from_string:72:5 */
  } /* ty=fn (float32) -> float16 span=from_string:74:65 */;
  let %x_23: float16 /* ty=float16 span=from_string:78:124 */ = %15(1f /* ty=float32 span=from_string:70:66 */) /* ty=float16 span=from_string:74:65 */;
  %16 = fn (%p016: Tensor[(64, 64, 3, 3), float16] /* ty=Tensor[(64, 64, 3, 3), float16] span=from_string:76:9 */, %p14: float16 /* ty=float16 span=from_string:76:16 */, Primitive=1) -> Tensor[(64, 64, 3, 3), float16] {
    add(%p016, %p14) /* ty=Tensor[(64, 64, 3, 3), float16] span=from_string:76:5 */
  } /* ty=fn (Tensor[(64, 64, 3, 3), float16], float16) -> Tensor[(64, 64, 3, 3), float16] span=from_string:78:113 */;
  let %x_24: Tensor[(64, 64, 3, 3), float16] /* ty=Tensor[(64, 64, 3, 3), float16] span=from_string:95:118 */ = %16(%x_21, %x_23) /* ty=Tensor[(64, 64, 3, 3), float16] span=from_string:78:113 */;
  %17 = fn (%p017: Tensor[(64, 64, 3, 3), float16] /* ty=Tensor[(64, 64, 3, 3), float16] span=from_string:80:13 */, Primitive=1) -> Tensor[(64, 64, 3, 3), float16] {
    nn.relu(%p017) /* ty=Tensor[(64, 64, 3, 3), float16] span=from_string:80:5 */
  } /* ty=fn (Tensor[(64, 64, 3, 3), float16]) -> Tensor[(64, 64, 3, 3), float16] span=from_string:82:113 */;
  let %x_25: Tensor[(64, 64, 3, 3), float16] /* ty=Tensor[(64, 64, 3, 3), float16] span=from_string:91:117 */ = %17(%x_6) /* ty=Tensor[(64, 64, 3, 3), float16] span=from_string:82:113 */;
  %18 = fn (%p018: float32 /* ty=float32 span=from_string:85:10 */, Primitive=1) -> float16 {
    cast(%p018, dtype="float16") /* ty=float16 span=from_string:85:5 */
  } /* ty=fn (float32) -> float16 span=from_string:87:65 */;
  let %x_27: float16 /* ty=float16 span=from_string:91:124 */ = %18(1f /* ty=float32 span=from_string:83:66 */) /* ty=float16 span=from_string:87:65 */;
  %19 = fn (%p019: Tensor[(64, 64, 3, 3), float16] /* ty=Tensor[(64, 64, 3, 3), float16] span=from_string:89:9 */, %p15: float16 /* ty=float16 span=from_string:89:16 */, Primitive=1) -> Tensor[(64, 64, 3, 3), float16] {
    add(%p019, %p15) /* ty=Tensor[(64, 64, 3, 3), float16] span=from_string:89:5 */
  } /* ty=fn (Tensor[(64, 64, 3, 3), float16], float16) -> Tensor[(64, 64, 3, 3), float16] span=from_string:91:113 */;
  let %x_28: Tensor[(64, 64, 3, 3), float16] /* ty=Tensor[(64, 64, 3, 3), float16] span=from_string:95:125 */ = %19(%x_25, %x_27) /* ty=Tensor[(64, 64, 3, 3), float16] span=from_string:91:113 */;
  %20 = fn (%p020: Tensor[(64, 64, 3, 3), float16] /* ty=Tensor[(64, 64, 3, 3), float16] span=from_string:93:9 */, %p16: Tensor[(64, 64, 3, 3), float16] /* ty=Tensor[(64, 64, 3, 3), float16] span=from_string:93:16 */, Primitive=1) -> Tensor[(64, 64, 3, 3), float16] {
    add(%p020, %p16) /* ty=Tensor[(64, 64, 3, 3), float16] span=from_string:93:5 */
  } /* ty=fn (Tensor[(64, 64, 3, 3), float16], Tensor[(64, 64, 3, 3), float16]) -> Tensor[(64, 64, 3, 3), float16] span=from_string:95:114 */;
  let %x_29: Tensor[(64, 64, 3, 3), float16] /* ty=Tensor[(64, 64, 3, 3), float16] span=from_string:137:473 */ = %20(%x_24, %x_28) /* ty=Tensor[(64, 64, 3, 3), float16] span=from_string:95:114 */;
  %21 = fn (%p021: Tensor[(64, 64, 3, 3), float16] /* ty=Tensor[(64, 64, 3, 3), float16] span=from_string:97:13 */, Primitive=1, relay.reshape_only=1) -> Tensor[(4096, 3, 3), float16] {
    reshape(%p021, newshape=[4096, 3, 3]) /* ty=Tensor[(4096, 3, 3), float16] span=from_string:97:5 */
  } /* ty=fn (Tensor[(64, 64, 3, 3), float16]) -> Tensor[(4096, 3, 3), float16] span=from_string:99:110 */;
  let %x_30: Tensor[(4096, 3, 3), float16] /* ty=Tensor[(4096, 3, 3), float16] span=from_string:103:118 */ = %21(%x_21) /* ty=Tensor[(4096, 3, 3), float16] span=from_string:99:110 */;
  %22 = fn (%p022: Tensor[(4096, 3, 3), float16] /* ty=Tensor[(4096, 3, 3), float16] span=from_string:101:13 */, Primitive=1, relay.reshape_only=1) -> Tensor[(64, 64, 3, 3), float16] {
    reshape(%p022, newshape=[64, 64, 3, 3]) /* ty=Tensor[(64, 64, 3, 3), float16] span=from_string:101:5 */
  } /* ty=fn (Tensor[(4096, 3, 3), float16]) -> Tensor[(64, 64, 3, 3), float16] span=from_string:103:114 */;
  let %x_31: Tensor[(64, 64, 3, 3), float16] /* ty=Tensor[(64, 64, 3, 3), float16] span=from_string:137:480 */ = %22(%x_30) /* ty=Tensor[(64, 64, 3, 3), float16] span=from_string:103:114 */;
  %23 = fn (%p023: Tensor[(1, 64, 56, 56), float16] /* ty=Tensor[(1, 64, 56, 56), float16] span=from_string:105:22 */, Primitive=1) -> Tensor[(1, 56, 56, 64), float16] {
    layout_transform(%p023, src_layout="NCHW", dst_layout="NHWC") /* ty=Tensor[(1, 56, 56, 64), float16] span=from_string:105:5 */
  } /* ty=fn (Tensor[(1, 64, 56, 56), float16]) -> Tensor[(1, 56, 56, 64), float16] span=from_string:107:116 */;
  let %x_32: Tensor[(1, 56, 56, 64), float16] /* ty=Tensor[(1, 56, 56, 64), float16] span=from_string:111:120 */ = %23(%x_11) /* ty=Tensor[(1, 56, 56, 64), float16] span=from_string:107:116 */;
  %24 = fn (%p024: Tensor[(1, 56, 56, 64), float16] /* ty=Tensor[(1, 56, 56, 64), float16] span=from_string:109:22 */, Primitive=1) -> Tensor[(1, 64, 56, 56), float16] {
    layout_transform(%p024, src_layout="NHWC", dst_layout="NCHW") /* ty=Tensor[(1, 64, 56, 56), float16] span=from_string:109:5 */
  } /* ty=fn (Tensor[(1, 56, 56, 64), float16]) -> Tensor[(1, 64, 56, 56), float16] span=from_string:111:116 */;
  let %x_33: Tensor[(1, 64, 56, 56), float16] /* ty=Tensor[(1, 64, 56, 56), float16] span=from_string:115:120 */ = %24(%x_32) /* ty=Tensor[(1, 64, 56, 56), float16] span=from_string:111:116 */;
  %25 = fn (%p025: Tensor[(1, 64, 56, 56), float16] /* ty=Tensor[(1, 64, 56, 56), float16] span=from_string:113:13 */, Primitive=1) -> Tensor[(1, 64, 56, 56), float16] {
    nn.relu(%p025) /* ty=Tensor[(1, 64, 56, 56), float16] span=from_string:113:5 */
  } /* ty=fn (Tensor[(1, 64, 56, 56), float16]) -> Tensor[(1, 64, 56, 56), float16] span=from_string:115:116 */;
  let %x_34: Tensor[(1, 64, 56, 56), float16] /* ty=Tensor[(1, 64, 56, 56), float16] span=from_string:137:487 */ = %25(%x_33) /* ty=Tensor[(1, 64, 56, 56), float16] span=from_string:115:116 */;
  %26 = fn (%p026: float32 /* ty=float32 span=from_string:118:10 */, Primitive=1) -> float16 {
    cast(%p026, dtype="float16") /* ty=float16 span=from_string:118:5 */
  } /* ty=fn (float32) -> float16 span=from_string:120:65 */;
  let %x_36: float16 /* ty=float16 span=from_string:124:101 */ = %26(%x4) /* ty=float16 span=from_string:120:65 */;
  %27 = fn (%p027: Tensor[(4), int32] /* ty=Tensor[(4), int32] */, %p17: float16 /* ty=float16 span=from_string:122:10 */, Primitive=1) -> Tensor[(4), int32] {
    full(%p17, shape=[4], dtype="int32") /* ty=Tensor[(4), int32] span=from_string:122:5 */
  } /* ty=fn (Tensor[(4), int32], float16) -> Tensor[(4), int32] span=from_string:124:90 */;
  let %x_37: Tensor[(4), int32] /* ty=Tensor[(4), int32] span=from_string:137:494 */ = %27(meta[relay.Constant][0] /* ty=Tensor[(4), int32] span=from_string:116:94 */, %x_36) /* ty=Tensor[(4), int32] span=from_string:124:90 */;
  let %x_38: (Tensor[(64, 64, 3, 3), float32], Tensor[(4, 64, 3, 3), float32]) /* ty=(Tensor[(64, 64, 3, 3), float32], Tensor[(4, 64, 3, 3), float32]) span=from_string:129:118 */ = (%x1, %x5) /* ty=(Tensor[(64, 64, 3, 3), float32], Tensor[(4, 64, 3, 3), float32]) span=from_string:125:182 */;
  %28 = fn (%p028: (Tensor[(64, 64, 3, 3), float32], Tensor[(4, 64, 3, 3), float32]) /* ty=(Tensor[(64, 64, 3, 3), float32], Tensor[(4, 64, 3, 3), float32]) span=from_string:127:17 */, Primitive=1) -> Tensor[(68, 64, 3, 3), float32] {
    concatenate(%p028) /* ty=Tensor[(68, 64, 3, 3), float32] span=from_string:127:5 */
  } /* ty=fn ((Tensor[(64, 64, 3, 3), float32], Tensor[(4, 64, 3, 3), float32])) -> Tensor[(68, 64, 3, 3), float32] span=from_string:129:114 */;
  let %x_39: Tensor[(68, 64, 3, 3), float32] /* ty=Tensor[(68, 64, 3, 3), float32] span=from_string:130:114 */ = %28(%x_38) /* ty=Tensor[(68, 64, 3, 3), float32] span=from_string:129:114 */;
  let %x_40: Tensor[(68, 64, 3, 3), float32] /* ty=Tensor[(68, 64, 3, 3), float32] span=from_string:131:121 */ = %x_39;
  let %x_41: (Tensor[(68, 64, 3, 3), float32],) /* ty=(Tensor[(68, 64, 3, 3), float32],) span=from_string:135:118 */ = (%x_40,) /* ty=(Tensor[(68, 64, 3, 3), float32],) span=from_string:131:120 */;
  %29 = fn (%p029: (Tensor[(68, 64, 3, 3), float32],) /* ty=(Tensor[(68, 64, 3, 3), float32],) span=from_string:133:17 */, Primitive=1) -> Tensor[(68, 64, 3, 3), float32] {
    concatenate(%p029) /* ty=Tensor[(68, 64, 3, 3), float32] span=from_string:133:5 */
  } /* ty=fn ((Tensor[(68, 64, 3, 3), float32],)) -> Tensor[(68, 64, 3, 3), float32] span=from_string:135:114 */;
  let %x_42: Tensor[(68, 64, 3, 3), float32] /* ty=Tensor[(68, 64, 3, 3), float32] span=from_string:137:501 */ = %29(%x_41) /* ty=Tensor[(68, 64, 3, 3), float32] span=from_string:135:114 */;
  let %x_44: (Tensor[(1, 128, 56, 56), float16], float32, Tensor[(64, 64, 3, 3), float16], Tensor[(64, 64, 3, 3), float16], Tensor[(1, 64, 56, 56), float16], Tensor[(4), int32], Tensor[(68, 64, 3, 3), float32], bool) /* ty=(Tensor[(1, 128, 56, 56), float16], float32, Tensor[(64, 64, 3, 3), float16], Tensor[(64, 64, 3, 3), float16], Tensor[(1, 64, 56, 56), float16], Tensor[(4), int32], Tensor[(68, 64, 3, 3), float32], bool) span=from_string:138:3 */ = (%x_19, 2f /* ty=float32 span=from_string:65:68 */, %x_29, %x_31, %x_34, %x_37, %x_42, False /* ty=bool span=from_string:136:60 */) /* ty=(Tensor[(1, 128, 56, 56), float16], float32, Tensor[(64, 64, 3, 3), float16], Tensor[(64, 64, 3, 3), float16], Tensor[(1, 64, 56, 56), float16], Tensor[(4), int32], Tensor[(68, 64, 3, 3), float32], bool) span=from_string:137:458 */;
  %x_44
}

#[metadata]
{
  "root": 1, 
  "nodes": [
    {
      "type_key": ""
    }, 
    {
      "type_key": "Map", 
      "keys": [
        "relay.Constant"
      ], 
      "data": [2]
    }, 
    {
      "type_key": "Array", 
      "data": [3]
    }, 
    {
      "type_key": "relay.Constant", 
      "attrs": {
        "_checked_type_": "8", 
        "data": "0", 
        "span": "6", 
        "virtual_device_": "4"
      }
    }, 
    {
      "type_key": "VirtualDevice", 
      "attrs": {
        "device_type_int": "-1", 
        "memory_scope": "5", 
        "target": "0", 
        "virtual_device_id": "-1"
      }
    }, 
    {
      "type_key": "runtime.String"
    }, 
    {
      "type_key": "Span", 
      "attrs": {
        "column": "94", 
        "end_column": "112", 
        "end_line": "116", 
        "line": "116", 
        "source_name": "7"
      }
    }, 
    {
      "type_key": "SourceName", 
      "repr_str": "from_string"
    }, 
    {
      "type_key": "relay.TensorType", 
      "attrs": {
        "dtype": "int32", 
        "shape": "9", 
        "span": "0"
      }
    }, 
    {
      "type_key": "Array", 
      "data": [10]
    }, 
    {
      "type_key": "IntImm", 
      "attrs": {
        "dtype": "int32", 
        "span": "0", 
        "value": "4"
      }
    }
  ], 
  "b64ndarrays": [
    "P6G0lvBAXt0AAAAAAAAAAAEAAAAAAAAAAQAAAAAgAQAEAAAAAAAAABAAAAAAAAAAQAAAAEAAAAADAAAAAwAAAA=="
  ], 
  "attrs": {"tvm_version": "0.13.0"}
}