#[version = "0.0.5"]
def @main(%x0: Tensor[(1, 64, 56, 56), float32] /* ty=Tensor[(1, 64, 56, 56), float32] span=from_string:5:13 */, %x1: Tensor[(64, 64, 3, 3), float32] /* ty=Tensor[(64, 64, 3, 3), float32] span=from_string:21:10 */, %x2: Tensor[(4096, 3, 3), float32] /* ty=Tensor[(4096, 3, 3), float32] */, %x3: Tensor[(1, 64, 56, 56), float32] /* ty=Tensor[(1, 64, 56, 56), float32] */, %x4: float32 /* ty=float32 span=from_string:20:14 */, %x5: Tensor[(4, 64, 3, 3), float32] /* ty=Tensor[(4, 64, 3, 3), float32] span=from_string:21:15 */) -> (Tensor[(1, 128, 56, 56), float16], float32, Tensor[(64, 64, 3, 3), float16], Tensor[(64, 64, 3, 3), float16], Tensor[(1, 64, 56, 56), float16], Tensor[(4), int32], Tensor[(68, 64, 3, 3), float32], bool) {
  %4 = fn (%p04: Tensor[(1, 64, 56, 56), float32] /* ty=Tensor[(1, 64, 56, 56), float32] */, Primitive=1) -> Tensor[(1, 64, 56, 56), float16] {
    cast(%p04, dtype="float16") /* ty=Tensor[(1, 64, 56, 56), float16] span=from_string:7:18 */
  } /* ty=fn (Tensor[(1, 64, 56, 56), float32]) -> Tensor[(1, 64, 56, 56), float16] */;
  %7 = fn (%p05: Tensor[(64, 64, 3, 3), float32] /* ty=Tensor[(64, 64, 3, 3), float32] */, Primitive=1) -> Tensor[(64, 64, 3, 3), float16] {
    %5 = cast(%p05, dtype="float16") /* ty=Tensor[(64, 64, 3, 3), float16] span=from_string:6:18 */;
    %6 = cast(2f /* ty=float32 span=from_string:4:15 */, dtype="float16") /* ty=float16 span=from_string:6:22 */;
    multiply(%5, %6) /* ty=Tensor[(64, 64, 3, 3), float16] span=from_string:16:17 */
  } /* ty=fn (Tensor[(64, 64, 3, 3), float32]) -> Tensor[(64, 64, 3, 3), float16] */;
  %8 = %4(%x0) /* ty=Tensor[(1, 64, 56, 56), float16] */;
  %9 = %7(%x1) /* ty=Tensor[(64, 64, 3, 3), float16] */;
  %10 = fn (%p03: Tensor[(1, 64, 56, 56), float16] /* ty=Tensor[(1, 64, 56, 56), float16] */, %p11: Tensor[(64, 64, 3, 3), float16] /* ty=Tensor[(64, 64, 3, 3), float16] */, Primitive=1) -> Tensor[(1, 64, 56, 56), float16] {
    %3 = nn.conv2d(%p03, %p11, padding=[1, 1, 1, 1], channels=64, kernel_size=[3, 3], out_dtype="float16") /* ty=Tensor[(1, 64, 56, 56), float16] span=from_string:8:16 */;
    nn.relu(%3) /* ty=Tensor[(1, 64, 56, 56), float16] span=from_string:11:13 */
  } /* ty=fn (Tensor[(1, 64, 56, 56), float16], Tensor[(64, 64, 3, 3), float16]) -> Tensor[(1, 64, 56, 56), float16] */;
  %11 = %10(%8, %9) /* ty=Tensor[(1, 64, 56, 56), float16] */;
  %12 = fn (%p02: Tensor[(1, 64, 56, 56), float16] /* ty=Tensor[(1, 64, 56, 56), float16] */, Primitive=1) -> Tensor[(1, 64, 28, 28), float16] {
    nn.max_pool2d(%p02, pool_size=[2, 2], strides=[2, 2], padding=[0, 0, 0, 0]) /* ty=Tensor[(1, 64, 28, 28), float16] span=from_string:10:22 */
  } /* ty=fn (Tensor[(1, 64, 56, 56), float16]) -> Tensor[(1, 64, 28, 28), float16] */;
  %13 = %12(%11) /* ty=Tensor[(1, 64, 28, 28), float16] */;
  %14 = fn (%p01: Tensor[(1, 64, 28, 28), float16] /* ty=Tensor[(1, 64, 28, 28), float16] */, Primitive=1) -> Tensor[(1, 64, 56, 56), float16] {
    nn.upsampling(%p01, scale_h=2f, scale_w=2f) /* ty=Tensor[(1, 64, 56, 56), float16] span=from_string:25:17 */
  } /* ty=fn (Tensor[(1, 64, 28, 28), float16]) -> Tensor[(1, 64, 56, 56), float16] */;
  %15 = %14(%13) /* ty=Tensor[(1, 64, 56, 56), float16] */;
  %16 = fn (%p0: Tensor[(1, 64, 56, 56), float16] /* ty=Tensor[(1, 64, 56, 56), float16] */, %p1: Tensor[(1, 64, 56, 56), float16] /* ty=Tensor[(1, 64, 56, 56), float16] */, Primitive=1) -> Tensor[(1, 128, 56, 56), float16] {
    %0 = (%p0, %p1) /* ty=(Tensor[(1, 64, 56, 56), float16], Tensor[(1, 64, 56, 56), float16]) span=from_string:12:20 */;
    %1 = concatenate(%0, axis=1) /* ty=Tensor[(1, 128, 56, 56), float16] span=from_string:22:13 */;
    %2 = cast(1f /* ty=float32 span=from_string:13:16 */, dtype="float16") /* ty=float16 span=from_string:22:17 */;
    add(%1, %2) /* ty=Tensor[(1, 128, 56, 56), float16] span=from_string:28:4 */
  } /* ty=fn (Tensor[(1, 64, 56, 56), float16], Tensor[(1, 64, 56, 56), float16]) -> Tensor[(1, 128, 56, 56), float16] */;
  %22 = fn (%p07: Tensor[(64, 64, 3, 3), float16] /* ty=Tensor[(64, 64, 3, 3), float16] */, Primitive=1) -> Tensor[(64, 64, 3, 3), float16] {
    nn.relu(%p07) /* ty=Tensor[(64, 64, 3, 3), float16] span=from_string:24:17 */
  } /* ty=fn (Tensor[(64, 64, 3, 3), float16]) -> Tensor[(64, 64, 3, 3), float16] */;
  %23 = %22(%9) /* ty=Tensor[(64, 64, 3, 3), float16] */;
  %24 = fn (%p06: Tensor[(64, 64, 3, 3), float16] /* ty=Tensor[(64, 64, 3, 3), float16] */, %p12: Tensor[(64, 64, 3, 3), float16] /* ty=Tensor[(64, 64, 3, 3), float16] */, Primitive=1) -> Tensor[(64, 64, 3, 3), float16] {
    %17 = cast(1f /* ty=float32 span=from_string:15:16 */, dtype="float16") /* ty=float16 span=from_string:18:18 */;
    %18 = nn.relu(%p12) /* ty=Tensor[(64, 64, 3, 3), float16] span=from_string:19:13 */;
    %19 = cast(1f /* ty=float32 span=from_string:17:16 */, dtype="float16") /* ty=float16 span=from_string:19:18 */;
    %20 = add(%p06, %17) /* ty=Tensor[(64, 64, 3, 3), float16] span=from_string:23:13 */;
    %21 = add(%18, %19) /* ty=Tensor[(64, 64, 3, 3), float16] span=from_string:23:18 */;
    add(%20, %21) /* ty=Tensor[(64, 64, 3, 3), float16] span=from_string:28:53 */
  } /* ty=fn (Tensor[(64, 64, 3, 3), float16], Tensor[(64, 64, 3, 3), float16]) -> Tensor[(64, 64, 3, 3), float16] */;
  %25 = fn (%p08: Tensor[(64, 64, 3, 3), float16] /* ty=Tensor[(64, 64, 3, 3), float16] */, Primitive=1, relay.reshape_only=1) -> Tensor[(64, 64, 3, 3), float16] {
    reshape(%p08, newshape=[64, 64, 3, 3]) /* ty=Tensor[(64, 64, 3, 3), float16] span=from_string:28:58 */
  } /* ty=fn (Tensor[(64, 64, 3, 3), float16]) -> Tensor[(64, 64, 3, 3), float16] */;
  %26 = fn (%p09: Tensor[(1, 64, 56, 56), float16] /* ty=Tensor[(1, 64, 56, 56), float16] */, Primitive=1) -> Tensor[(1, 64, 56, 56), float16] {
    nn.relu(%p09) /* ty=Tensor[(1, 64, 56, 56), float16] span=from_string:28:63 */
  } /* ty=fn (Tensor[(1, 64, 56, 56), float16]) -> Tensor[(1, 64, 56, 56), float16] */;
  %28 = fn (%p010: float32 /* ty=float32 */, Primitive=1) -> Tensor[(4), int32] {
    %27 = cast(%p010, dtype="float16") /* ty=float16 span=from_string:26:14 */;
    full(%27, shape=[4], dtype="int32") /* ty=Tensor[(4), int32] span=from_string:28:68 */
  } /* ty=fn (float32) -> Tensor[(4), int32] */;
  %30 = fn (%p011: Tensor[(64, 64, 3, 3), float32] /* ty=Tensor[(64, 64, 3, 3), float32] */, %p13: Tensor[(4, 64, 3, 3), float32] /* ty=Tensor[(4, 64, 3, 3), float32] */, Primitive=1) -> Tensor[(68, 64, 3, 3), float32] {
    %29 = (%p011, %p13) /* ty=(Tensor[(64, 64, 3, 3), float32], Tensor[(4, 64, 3, 3), float32]) span=from_string:27:21 */;
    concatenate(%29) /* ty=Tensor[(68, 64, 3, 3), float32] span=from_string:28:73 */
  } /* ty=fn (Tensor[(64, 64, 3, 3), float32], Tensor[(4, 64, 3, 3), float32]) -> Tensor[(68, 64, 3, 3), float32] */;
  %31 = %16(%15, %11) /* ty=Tensor[(1, 128, 56, 56), float16] */;
  %32 = %24(%23, %9) /* ty=Tensor[(64, 64, 3, 3), float16] */;
  %33 = %25(%23) /* ty=Tensor[(64, 64, 3, 3), float16] */;
  %34 = %26(%15) /* ty=Tensor[(1, 64, 56, 56), float16] */;
  %35 = %28(%x4) /* ty=Tensor[(4), int32] */;
  %36 = %30(%x1, %x5) /* ty=Tensor[(68, 64, 3, 3), float32] */;
  (%31, 2f /* ty=float32 span=from_string:28:11 */, %32, %33, %34, %35, %36, False /* ty=bool span=from_string:28:78 */) /* ty=(Tensor[(1, 128, 56, 56), float16], float32, Tensor[(64, 64, 3, 3), float16], Tensor[(64, 64, 3, 3), float16], Tensor[(1, 64, 56, 56), float16], Tensor[(4), int32], Tensor[(68, 64, 3, 3), float32], bool) span=from_string:3:3 */
}
