#[version = "0.0.5"]
def @main(%x0: Tensor[(1, 64, 56, 56), float32] /* ty=Tensor[(1, 64, 56, 56), float32] span=from_string:6:119 */, %x1: Tensor[(64, 64, 3, 3), float32] /* ty=Tensor[(64, 64, 3, 3), float32] span=from_string:71:119 */, %x2: Tensor[(4096, 3, 3), float32] /* ty=Tensor[(4096, 3, 3), float32] */, %x3: Tensor[(1, 64, 56, 56), float32] /* ty=Tensor[(1, 64, 56, 56), float32] */, %x4: float32 /* ty=float32 span=from_string:66:95 */, %x5: Tensor[(4, 64, 3, 3), float32] /* ty=Tensor[(4, 64, 3, 3), float32] span=from_string:71:124 */) -> (Tensor[(1, 128, 56, 56), float16], float32, Tensor[(64, 64, 3, 3), float16], Tensor[(64, 64, 3, 3), float16], Tensor[(1, 64, 56, 56), float16], Tensor[(4), int32], Tensor[(68, 64, 3, 3), float32], bool) {
  let %x_0: fn (Tensor[(1, 64, 56, 56), float32]) -> Tensor[(1, 64, 56, 56), float16] /* ty=fn (Tensor[(1, 64, 56, 56), float32]) -> Tensor[(1, 64, 56, 56), float16] span=from_string:6:114 */ = fn (%p05: Tensor[(1, 64, 56, 56), float32] /* ty=Tensor[(1, 64, 56, 56), float32] span=from_string:4:10 */, Primitive=1) -> Tensor[(1, 64, 56, 56), float16] {
    cast(%p05, dtype="float16") /* ty=Tensor[(1, 64, 56, 56), float16] span=from_string:4:5 */
  } /* ty=fn (Tensor[(1, 64, 56, 56), float32]) -> Tensor[(1, 64, 56, 56), float16] span=from_string:3:3 */;
  let %x_1: Tensor[(1, 64, 56, 56), float16] /* ty=Tensor[(1, 64, 56, 56), float16] span=from_string:19:119 */ = %x_0(%x0) /* ty=Tensor[(1, 64, 56, 56), float16] span=from_string:6:114 */;
  let %x_2: fn (Tensor[(64, 64, 3, 3), float32]) -> Tensor[(64, 64, 3, 3), float16] /* ty=fn (Tensor[(64, 64, 3, 3), float32]) -> Tensor[(64, 64, 3, 3), float16] span=from_string:12:112 */ = fn (%p06: Tensor[(64, 64, 3, 3), float32] /* ty=Tensor[(64, 64, 3, 3), float32] span=from_string:8:15 */, Primitive=1) -> Tensor[(64, 64, 3, 3), float16] {
    %0 = cast(%p06, dtype="float16") /* ty=Tensor[(64, 64, 3, 3), float16] span=from_string:10:15 */;
    %1 = cast(2f /* ty=float32 span=from_string:9:17 */, dtype="float16") /* ty=float16 span=from_string:10:19 */;
    multiply(%0, %1) /* ty=Tensor[(64, 64, 3, 3), float16] span=from_string:8:5 */
  } /* ty=fn (Tensor[(64, 64, 3, 3), float32]) -> Tensor[(64, 64, 3, 3), float16] span=from_string:7:3 */;
  let %x_3: Tensor[(64, 64, 3, 3), float16] /* ty=Tensor[(64, 64, 3, 3), float16] span=from_string:50:126 */ = %x_2(%x1) /* ty=Tensor[(64, 64, 3, 3), float16] span=from_string:12:112 */;
  let %x_4: fn (Tensor[(1, 64, 56, 56), float16], Tensor[(64, 64, 3, 3), float16]) -> Tensor[(1, 64, 56, 56), float16] /* ty=fn (Tensor[(1, 64, 56, 56), float16], Tensor[(64, 64, 3, 3), float16]) -> Tensor[(1, 64, 56, 56), float16] span=from_string:19:114 */ = fn (%p04: Tensor[(1, 64, 56, 56), float16] /* ty=Tensor[(1, 64, 56, 56), float16] span=from_string:15:20 */, %p11: Tensor[(64, 64, 3, 3), float16] /* ty=Tensor[(64, 64, 3, 3), float16] span=from_string:15:26 */, Primitive=1) -> Tensor[(1, 64, 56, 56), float16] {
    %2 = cast(0f /* ty=float32 span=from_string:14:17 */, dtype="float16") /* ty=float16 span=from_string:16:14 */;
    %3 = nn.conv2d(%p04, %p11, padding=[1, 1, 1, 1], channels=64, kernel_size=[3, 3], out_dtype="float16") /* ty=Tensor[(1, 64, 56, 56), float16] span=from_string:16:18 */;
    %4 = add(%2, %3) /* ty=Tensor[(1, 64, 56, 56), float16] span=from_string:17:13 */;
    nn.relu(%4) /* ty=Tensor[(1, 64, 56, 56), float16] span=from_string:14:5 */
  } /* ty=fn (Tensor[(1, 64, 56, 56), float16], Tensor[(64, 64, 3, 3), float16]) -> Tensor[(1, 64, 56, 56), float16] span=from_string:13:3 */;
  let %x_5: Tensor[(1, 64, 56, 56), float16] /* ty=Tensor[(1, 64, 56, 56), float16] span=from_string:32:129 */ = %x_4(%x_1, %x_3) /* ty=Tensor[(1, 64, 56, 56), float16] span=from_string:19:114 */;
  let %x_6: fn (Tensor[(1, 64, 56, 56), float16]) -> Tensor[(1, 64, 28, 28), float16] /* ty=fn (Tensor[(1, 64, 56, 56), float16]) -> Tensor[(1, 64, 28, 28), float16] span=from_string:23:114 */ = fn (%p03: Tensor[(1, 64, 56, 56), float16] /* ty=Tensor[(1, 64, 56, 56), float16] span=from_string:21:20 */, Primitive=1) -> Tensor[(1, 64, 28, 28), float16] {
    nn.max_pool2d(%p03, pool_size=[2, 2], strides=[2, 2], padding=[0, 0, 0, 0]) /* ty=Tensor[(1, 64, 28, 28), float16] span=from_string:21:5 */
  } /* ty=fn (Tensor[(1, 64, 56, 56), float16]) -> Tensor[(1, 64, 28, 28), float16] span=from_string:20:3 */;
  let %x_7: Tensor[(1, 64, 28, 28), float16] /* ty=Tensor[(1, 64, 28, 28), float16] span=from_string:27:119 */ = %x_6(%x_5) /* ty=Tensor[(1, 64, 28, 28), float16] span=from_string:23:114 */;
  let %x_8: fn (Tensor[(1, 64, 28, 28), float16]) -> Tensor[(1, 64, 56, 56), float16] /* ty=fn (Tensor[(1, 64, 28, 28), float16]) -> Tensor[(1, 64, 56, 56), float16] span=from_string:27:114 */ = fn (%p02: Tensor[(1, 64, 28, 28), float16] /* ty=Tensor[(1, 64, 28, 28), float16] span=from_string:25:19 */, Primitive=1) -> Tensor[(1, 64, 56, 56), float16] {
    nn.upsampling(%p02, scale_h=2f, scale_w=2f) /* ty=Tensor[(1, 64, 56, 56), float16] span=from_string:25:5 */
  } /* ty=fn (Tensor[(1, 64, 28, 28), float16]) -> Tensor[(1, 64, 56, 56), float16] span=from_string:24:3 */;
  let %x_9: Tensor[(1, 64, 56, 56), float16] /* ty=Tensor[(1, 64, 56, 56), float16] span=from_string:61:121 */ = %x_8(%x_7) /* ty=Tensor[(1, 64, 56, 56), float16] span=from_string:27:114 */;
  let %x_10: fn (Tensor[(1, 64, 56, 56), float16], Tensor[(1, 64, 56, 56), float16]) -> Tensor[(1, 128, 56, 56), float16] /* ty=fn (Tensor[(1, 64, 56, 56), float16], Tensor[(1, 64, 56, 56), float16]) -> Tensor[(1, 128, 56, 56), float16] span=from_string:32:117 */ = fn (%p01: Tensor[(1, 64, 56, 56), float16] /* ty=Tensor[(1, 64, 56, 56), float16] span=from_string:29:11 */, %p1: Tensor[(1, 64, 56, 56), float16] /* ty=Tensor[(1, 64, 56, 56), float16] span=from_string:29:17 */, Primitive=1) -> Tensor[(1, 128, 56, 56), float16] {
    %5 = (%p01, %p1) /* ty=(Tensor[(1, 64, 56, 56), float16], Tensor[(1, 64, 56, 56), float16]) span=from_string:30:17 */;
    concatenate(%5, axis=1) /* ty=Tensor[(1, 128, 56, 56), float16] span=from_string:29:5 */
  } /* ty=fn (Tensor[(1, 64, 56, 56), float16], Tensor[(1, 64, 56, 56), float16]) -> Tensor[(1, 128, 56, 56), float16] span=from_string:28:3 */;
  let %x_11: Tensor[(1, 128, 56, 56), float16] /* ty=Tensor[(1, 128, 56, 56), float16] span=from_string:39:123 */ = %x_10(%x_9, %x_5) /* ty=Tensor[(1, 128, 56, 56), float16] span=from_string:32:117 */;
  let %x_12: fn (Tensor[(1, 128, 56, 56), float16]) -> Tensor[(1, 128, 56, 56), float16] /* ty=fn (Tensor[(1, 128, 56, 56), float16]) -> Tensor[(1, 128, 56, 56), float16] span=from_string:39:117 */ = fn (%p0: Tensor[(1, 128, 56, 56), float16] /* ty=Tensor[(1, 128, 56, 56), float16] span=from_string:34:11 */, Primitive=1) -> Tensor[(1, 128, 56, 56), float16] {
    %6 = (%p0,) /* ty=(Tensor[(1, 128, 56, 56), float16],) span=from_string:35:22 */;
    %7 = concatenate(%6, axis=1) /* ty=Tensor[(1, 128, 56, 56), float16] span=from_string:37:9 */;
    %8 = cast(1f /* ty=float32 span=from_string:36:17 */, dtype="float16") /* ty=float16 span=from_string:47:19 */;
    add(%7, %8) /* ty=Tensor[(1, 128, 56, 56), float16] span=from_string:34:5 */
  } /* ty=fn (Tensor[(1, 128, 56, 56), float16]) -> Tensor[(1, 128, 56, 56), float16] span=from_string:33:3 */;
  let %x_13: Tensor[(1, 128, 56, 56), float16] /* ty=Tensor[(1, 128, 56, 56), float16] span=from_string:77:458 */ = %x_12(%x_11) /* ty=Tensor[(1, 128, 56, 56), float16] span=from_string:39:117 */;
  let %x_15: fn (Tensor[(64, 64, 3, 3), float16]) -> Tensor[(64, 64, 3, 3), float16] /* ty=fn (Tensor[(64, 64, 3, 3), float16]) -> Tensor[(64, 64, 3, 3), float16] span=from_string:43:113 */ = fn (%p08: Tensor[(64, 64, 3, 3), float16] /* ty=Tensor[(64, 64, 3, 3), float16] span=from_string:41:13 */, Primitive=1) -> Tensor[(64, 64, 3, 3), float16] {
    nn.relu(%p08) /* ty=Tensor[(64, 64, 3, 3), float16] span=from_string:41:5 */
  } /* ty=fn (Tensor[(64, 64, 3, 3), float16]) -> Tensor[(64, 64, 3, 3), float16] span=from_string:40:3 */;
  let %x_16: Tensor[(64, 64, 3, 3), float16] /* ty=Tensor[(64, 64, 3, 3), float16] span=from_string:55:119 */ = %x_15(%x_3) /* ty=Tensor[(64, 64, 3, 3), float16] span=from_string:43:113 */;
  let %x_17: fn (Tensor[(64, 64, 3, 3), float16], Tensor[(64, 64, 3, 3), float16]) -> Tensor[(64, 64, 3, 3), float16] /* ty=fn (Tensor[(64, 64, 3, 3), float16], Tensor[(64, 64, 3, 3), float16]) -> Tensor[(64, 64, 3, 3), float16] span=from_string:50:113 */ = fn (%p07: Tensor[(64, 64, 3, 3), float16] /* ty=Tensor[(64, 64, 3, 3), float16] span=from_string:46:15 */, %p12: Tensor[(64, 64, 3, 3), float16] /* ty=Tensor[(64, 64, 3, 3), float16] span=from_string:45:18 */, Primitive=1) -> Tensor[(64, 64, 3, 3), float16] {
    %9 = nn.relu(%p12) /* ty=Tensor[(64, 64, 3, 3), float16] span=from_string:47:15 */;
    %10 = add(%p07, %8) /* ty=Tensor[(64, 64, 3, 3), float16] span=from_string:48:9 */;
    %11 = add(%9, %8) /* ty=Tensor[(64, 64, 3, 3), float16] span=from_string:48:14 */;
    add(%10, %11) /* ty=Tensor[(64, 64, 3, 3), float16] span=from_string:45:5 */
  } /* ty=fn (Tensor[(64, 64, 3, 3), float16], Tensor[(64, 64, 3, 3), float16]) -> Tensor[(64, 64, 3, 3), float16] span=from_string:44:3 */;
  let %x_18: Tensor[(64, 64, 3, 3), float16] /* ty=Tensor[(64, 64, 3, 3), float16] span=from_string:77:509 */ = %x_17(%x_16, %x_3) /* ty=Tensor[(64, 64, 3, 3), float16] span=from_string:50:113 */;
  let %x_19: fn (Tensor[(64, 64, 3, 3), float16]) -> Tensor[(64, 64, 3, 3), float16] /* ty=fn (Tensor[(64, 64, 3, 3), float16]) -> Tensor[(64, 64, 3, 3), float16] span=from_string:55:113 */ = fn (%p09: Tensor[(64, 64, 3, 3), float16] /* ty=Tensor[(64, 64, 3, 3), float16] span=from_string:52:19 */, Primitive=1, relay.reshape_only=1) -> Tensor[(64, 64, 3, 3), float16] {
    %12 = reshape(%p09, newshape=[4096, 3, 3]) /* ty=Tensor[(4096, 3, 3), float16] span=from_string:53:13 */;
    reshape(%12, newshape=[64, 64, 3, 3]) /* ty=Tensor[(64, 64, 3, 3), float16] span=from_string:52:5 */
  } /* ty=fn (Tensor[(64, 64, 3, 3), float16]) -> Tensor[(64, 64, 3, 3), float16] span=from_string:51:3 */;
  let %x_20: Tensor[(64, 64, 3, 3), float16] /* ty=Tensor[(64, 64, 3, 3), float16] span=from_string:77:516 */ = %x_19(%x_16) /* ty=Tensor[(64, 64, 3, 3), float16] span=from_string:55:113 */;
  let %x_21: fn (Tensor[(1, 64, 56, 56), float16]) -> Tensor[(1, 64, 56, 56), float16] /* ty=fn (Tensor[(1, 64, 56, 56), float16]) -> Tensor[(1, 64, 56, 56), float16] span=from_string:61:115 */ = fn (%p010: Tensor[(1, 64, 56, 56), float16] /* ty=Tensor[(1, 64, 56, 56), float16] span=from_string:57:28 */, Primitive=1) -> Tensor[(1, 64, 56, 56), float16] {
    %13 = layout_transform(%p010, src_layout="NCHW", dst_layout="NHWC") /* ty=Tensor[(1, 56, 56, 64), float16] span=from_string:58:28 */;
    %14 = layout_transform(%13, src_layout="NHWC", dst_layout="NCHW") /* ty=Tensor[(1, 64, 56, 56), float16] span=from_string:59:13 */;
    nn.relu(%14) /* ty=Tensor[(1, 64, 56, 56), float16] span=from_string:57:5 */
  } /* ty=fn (Tensor[(1, 64, 56, 56), float16]) -> Tensor[(1, 64, 56, 56), float16] span=from_string:56:3 */;
  let %x_22: Tensor[(1, 64, 56, 56), float16] /* ty=Tensor[(1, 64, 56, 56), float16] span=from_string:77:523 */ = %x_21(%x_9) /* ty=Tensor[(1, 64, 56, 56), float16] span=from_string:61:115 */;
  let %x_24: fn (float32, Tensor[(4), int32]) -> Tensor[(4), int32] /* ty=fn (float32, Tensor[(4), int32]) -> Tensor[(4), int32] span=from_string:66:89 */ = fn (%p011: float32 /* ty=float32 span=from_string:63:16 */, %p13: Tensor[(4), int32] /* ty=Tensor[(4), int32] span=from_string:64:15 */, Primitive=1) -> Tensor[(4), int32] {
    %15 = cast(%p011, dtype="float16") /* ty=float16 span=from_string:64:21 */;
    full_like(%p13, %15) /* ty=Tensor[(4), int32] span=from_string:63:5 */
  } /* ty=fn (float32, Tensor[(4), int32]) -> Tensor[(4), int32] span=from_string:62:3 */;
  let %x_25: Tensor[(4), int32] /* ty=Tensor[(4), int32] span=from_string:77:530 */ = %x_24(%x4, meta[relay.Constant][0] /* ty=Tensor[(4), int32] span=from_string:66:105 */) /* ty=Tensor[(4), int32] span=from_string:66:89 */;
  let %x_26: fn (Tensor[(64, 64, 3, 3), float32], Tensor[(4, 64, 3, 3), float32]) -> Tensor[(68, 64, 3, 3), float32] /* ty=fn (Tensor[(64, 64, 3, 3), float32], Tensor[(4, 64, 3, 3), float32]) -> Tensor[(68, 64, 3, 3), float32] span=from_string:71:113 */ = fn (%p013: Tensor[(64, 64, 3, 3), float32] /* ty=Tensor[(64, 64, 3, 3), float32] span=from_string:68:12 */, %p14: Tensor[(4, 64, 3, 3), float32] /* ty=Tensor[(4, 64, 3, 3), float32] span=from_string:68:19 */, Primitive=1) -> Tensor[(68, 64, 3, 3), float32] {
    %16 = (%p013, %p14) /* ty=(Tensor[(64, 64, 3, 3), float32], Tensor[(4, 64, 3, 3), float32]) span=from_string:69:17 */;
    concatenate(%16) /* ty=Tensor[(68, 64, 3, 3), float32] span=from_string:68:5 */
  } /* ty=fn (Tensor[(64, 64, 3, 3), float32], Tensor[(4, 64, 3, 3), float32]) -> Tensor[(68, 64, 3, 3), float32] span=from_string:67:3 */;
  let %x_27: Tensor[(68, 64, 3, 3), float32] /* ty=Tensor[(68, 64, 3, 3), float32] span=from_string:76:119 */ = %x_26(%x1, %x5) /* ty=Tensor[(68, 64, 3, 3), float32] span=from_string:71:113 */;
  let %x_28: fn (Tensor[(68, 64, 3, 3), float32]) -> Tensor[(68, 64, 3, 3), float32] /* ty=fn (Tensor[(68, 64, 3, 3), float32]) -> Tensor[(68, 64, 3, 3), float32] span=from_string:76:113 */ = fn (%p012: Tensor[(68, 64, 3, 3), float32] /* ty=Tensor[(68, 64, 3, 3), float32] span=from_string:73:12 */, Primitive=1) -> Tensor[(68, 64, 3, 3), float32] {
    %17 = (%p012,) /* ty=(Tensor[(68, 64, 3, 3), float32],) span=from_string:74:17 */;
    concatenate(%17) /* ty=Tensor[(68, 64, 3, 3), float32] span=from_string:73:5 */
  } /* ty=fn (Tensor[(68, 64, 3, 3), float32]) -> Tensor[(68, 64, 3, 3), float32] span=from_string:72:3 */;
  let %x_29: Tensor[(68, 64, 3, 3), float32] /* ty=Tensor[(68, 64, 3, 3), float32] span=from_string:77:537 */ = %x_28(%x_27) /* ty=Tensor[(68, 64, 3, 3), float32] span=from_string:76:113 */;
  let %x_31: (Tensor[(1, 128, 56, 56), float16], float32, Tensor[(64, 64, 3, 3), float16], Tensor[(64, 64, 3, 3), float16], Tensor[(1, 64, 56, 56), float16], Tensor[(4), int32], Tensor[(68, 64, 3, 3), float32], bool) /* ty=(Tensor[(1, 128, 56, 56), float16], float32, Tensor[(64, 64, 3, 3), float16], Tensor[(64, 64, 3, 3), float16], Tensor[(1, 64, 56, 56), float16], Tensor[(4), int32], Tensor[(68, 64, 3, 3), float32], bool) span=from_string:78:3 */ = (%x_13, 2f /* ty=float32 span=from_string:77:467 */, %x_18, %x_20, %x_22, %x_25, %x_29, False /* ty=bool span=from_string:77:544 */) /* ty=(Tensor[(1, 128, 56, 56), float16], float32, Tensor[(64, 64, 3, 3), float16], Tensor[(64, 64, 3, 3), float16], Tensor[(1, 64, 56, 56), float16], Tensor[(4), int32], Tensor[(68, 64, 3, 3), float32], bool) span=from_string:77:457 */;
  %x_31
}

#[metadata]
{
  "root": 1, 
  "nodes": [
    {
      "type_key": ""
    }, 
    {
      "type_key": "Map", 
      "keys": [
        "relay.Constant"
      ], 
      "data": [2]
    }, 
    {
      "type_key": "Array", 
      "data": [3]
    }, 
    {
      "type_key": "relay.Constant", 
      "attrs": {
        "_checked_type_": "8", 
        "data": "0", 
        "span": "6", 
        "virtual_device_": "4"
      }
    }, 
    {
      "type_key": "VirtualDevice", 
      "attrs": {
        "device_type_int": "-1", 
        "memory_scope": "5", 
        "target": "0", 
        "virtual_device_id": "-1"
      }
    }, 
    {
      "type_key": "runtime.String"
    }, 
    {
      "type_key": "Span", 
      "attrs": {
        "column": "105", 
        "end_column": "123", 
        "end_line": "66", 
        "line": "66", 
        "source_name": "7"
      }
    }, 
    {
      "type_key": "SourceName", 
      "repr_str": "from_string"
    }, 
    {
      "type_key": "relay.TensorType", 
      "attrs": {
        "dtype": "int32", 
        "shape": "9", 
        "span": "0"
      }
    }, 
    {
      "type_key": "Array", 
      "data": [10]
    }, 
    {
      "type_key": "IntImm", 
      "attrs": {
        "dtype": "int32", 
        "span": "0", 
        "value": "4"
      }
    }
  ], 
  "b64ndarrays": [
    "P6G0lvBAXt0AAAAAAAAAAAEAAAAAAAAAAQAAAAAgAQAEAAAAAAAAABAAAAAAAAAAQAAAAEAAAAADAAAAAwAAAA=="
  ], 
  "attrs": {"tvm_version": "0.13.0"}
}