#[version = "0.0.5"]
def @main(%x0: Tensor[(1, 64, 56, 56), float32] /* ty=Tensor[(1, 64, 56, 56), float32] span=from_string:3:118 */, %x1: Tensor[(64, 64, 3, 3), float32] /* ty=Tensor[(64, 64, 3, 3), float32] span=from_string:26:181 */, %x2: Tensor[(4096, 3, 3), float32] /* ty=Tensor[(4096, 3, 3), float32] */, %x3: Tensor[(1, 64, 56, 56), float32] /* ty=Tensor[(1, 64, 56, 56), float32] */, %x4: float32 /* ty=float32 span=from_string:24:69 */, %x5: Tensor[(4, 64, 3, 3), float32] /* ty=Tensor[(4, 64, 3, 3), float32] span=from_string:26:186 */) -> (Tensor[(1, 128, 56, 56), float16], float32, Tensor[(64, 64, 3, 3), float16], Tensor[(64, 64, 3, 3), float16], Tensor[(1, 64, 56, 56), float16], Tensor[(4), int32], Tensor[(68, 64, 3, 3), float32], bool) {
  let %x_2: Tensor[(1, 64, 56, 56), float16] /* ty=Tensor[(1, 64, 56, 56), float16] span=from_string:6:123 */ = cast(%x0, dtype="float16") /* ty=Tensor[(1, 64, 56, 56), float16] span=from_string:3:113 */;
  let %x_3: Tensor[(64, 64, 3, 3), float16] /* ty=Tensor[(64, 64, 3, 3), float16] span=from_string:5:121 */ = cast(%x1, dtype="float16") /* ty=Tensor[(64, 64, 3, 3), float16] span=from_string:4:110 */;
  let %x_6: Tensor[(64, 64, 3, 3), float16] /* ty=Tensor[(64, 64, 3, 3), float16] span=from_string:16:120 */ = multiply(%x_3, 2f16 /* ty=float16 span=from_string:5:131 */) /* ty=Tensor[(64, 64, 3, 3), float16] span=from_string:5:112 */;
  let %x_7: Tensor[(1, 64, 56, 56), float16] /* ty=Tensor[(1, 64, 56, 56), float16] span=from_string:7:140 */ = nn.conv2d(%x_2, %x_6, padding=[1, 1, 1, 1], channels=64, kernel_size=[3, 3], out_dtype="float16") /* ty=Tensor[(1, 64, 56, 56), float16] span=from_string:6:113 */;
  let %x_8: Tensor[(1, 64, 56, 56), float16] /* ty=Tensor[(1, 64, 56, 56), float16] span=from_string:8:121 */ = add(0f16 /* ty=float16 span=from_string:7:121 */, %x_7) /* ty=Tensor[(1, 64, 56, 56), float16] span=from_string:7:113 */;
  let %x_9: Tensor[(1, 64, 56, 56), float16] /* ty=Tensor[(1, 64, 56, 56), float16] span=from_string:11:194 */ = nn.relu(%x_8) /* ty=Tensor[(1, 64, 56, 56), float16] span=from_string:8:113 */;
  let %x_10: Tensor[(1, 64, 28, 28), float16] /* ty=Tensor[(1, 64, 28, 28), float16] span=from_string:10:128 */ = nn.max_pool2d(%x_9, pool_size=[2, 2], strides=[2, 2], padding=[0, 0, 0, 0]) /* ty=Tensor[(1, 64, 28, 28), float16] span=from_string:9:114 */;
  let %x_11: Tensor[(1, 64, 56, 56), float16] /* ty=Tensor[(1, 64, 56, 56), float16] span=from_string:21:131 */ = nn.upsampling(%x_10, scale_h=2f, scale_w=2f) /* ty=Tensor[(1, 64, 56, 56), float16] span=from_string:10:114 */;
  let %x_12: (Tensor[(1, 64, 56, 56), float16], Tensor[(1, 64, 56, 56), float16]) /* ty=(Tensor[(1, 64, 56, 56), float16], Tensor[(1, 64, 56, 56), float16]) span=from_string:12:128 */ = (%x_11, %x_9) /* ty=(Tensor[(1, 64, 56, 56), float16], Tensor[(1, 64, 56, 56), float16]) span=from_string:11:186 */;
  let %x_13: Tensor[(1, 128, 56, 56), float16] /* ty=Tensor[(1, 128, 56, 56), float16] span=from_string:13:120 */ = concatenate(%x_12, axis=1) /* ty=Tensor[(1, 128, 56, 56), float16] span=from_string:12:116 */;
  let %x_16: Tensor[(1, 128, 56, 56), float16] /* ty=Tensor[(1, 128, 56, 56), float16] span=from_string:28:458 */ = add(%x_13, 1f16 /* ty=float16 span=from_string:13:131 */) /* ty=Tensor[(1, 128, 56, 56), float16] span=from_string:13:116 */;
  %0 = nn.relu(%x_6) /* ty=Tensor[(64, 64, 3, 3), float16] span=from_string:14:112 */;
  let %x_18: Tensor[(64, 64, 3, 3), float16] /* ty=Tensor[(64, 64, 3, 3), float16] span=from_string:19:116 */ = %0;
  let %x_21: Tensor[(64, 64, 3, 3), float16] /* ty=Tensor[(64, 64, 3, 3), float16] span=from_string:18:116 */ = add(%x_18, 1f16 /* ty=float16 span=from_string:15:127 */) /* ty=Tensor[(64, 64, 3, 3), float16] span=from_string:15:112 */;
  let %x_22: Tensor[(64, 64, 3, 3), float16] /* ty=Tensor[(64, 64, 3, 3), float16] span=from_string:17:116 */ = %0;
  let %x_25: Tensor[(64, 64, 3, 3), float16] /* ty=Tensor[(64, 64, 3, 3), float16] span=from_string:18:123 */ = add(%x_22, 1f16 /* ty=float16 span=from_string:17:127 */) /* ty=Tensor[(64, 64, 3, 3), float16] span=from_string:17:112 */;
  let %x_26: Tensor[(64, 64, 3, 3), float16] /* ty=Tensor[(64, 64, 3, 3), float16] span=from_string:28:509 */ = add(%x_21, %x_25) /* ty=Tensor[(64, 64, 3, 3), float16] span=from_string:18:112 */;
  let %x_27: Tensor[(4096, 3, 3), float16] /* ty=Tensor[(4096, 3, 3), float16] span=from_string:20:120 */ = reshape(%x_18, newshape=[4096, 3, 3]) /* ty=Tensor[(4096, 3, 3), float16] span=from_string:19:108 */;
  let %x_28: Tensor[(64, 64, 3, 3), float16] /* ty=Tensor[(64, 64, 3, 3), float16] span=from_string:28:516 */ = reshape(%x_27, newshape=[64, 64, 3, 3]) /* ty=Tensor[(64, 64, 3, 3), float16] span=from_string:20:112 */;
  let %x_29: Tensor[(1, 56, 56, 64), float16] /* ty=Tensor[(1, 56, 56, 64), float16] span=from_string:22:131 */ = layout_transform(%x_11, src_layout="NCHW", dst_layout="NHWC") /* ty=Tensor[(1, 56, 56, 64), float16] span=from_string:21:114 */;
  let %x_30: Tensor[(1, 64, 56, 56), float16] /* ty=Tensor[(1, 64, 56, 56), float16] span=from_string:23:122 */ = layout_transform(%x_29, src_layout="NHWC", dst_layout="NCHW") /* ty=Tensor[(1, 64, 56, 56), float16] span=from_string:22:114 */;
  let %x_31: Tensor[(1, 64, 56, 56), float16] /* ty=Tensor[(1, 64, 56, 56), float16] span=from_string:28:523 */ = nn.relu(%x_30) /* ty=Tensor[(1, 64, 56, 56), float16] span=from_string:23:114 */;
  let %x_33: float16 /* ty=float16 span=from_string:25:174 */ = cast(%x4, dtype="float16") /* ty=float16 span=from_string:24:64 */;
  let %x_34: Tensor[(4), int32] /* ty=Tensor[(4), int32] span=from_string:28:530 */ = full_like(meta[relay.Constant][0] /* ty=Tensor[(4), int32] span=from_string:25:103 */, %x_33) /* ty=Tensor[(4), int32] span=from_string:25:88 */;
  let %x_35: (Tensor[(64, 64, 3, 3), float32], Tensor[(4, 64, 3, 3), float32]) /* ty=(Tensor[(64, 64, 3, 3), float32], Tensor[(4, 64, 3, 3), float32]) span=from_string:27:124 */ = (%x1, %x5) /* ty=(Tensor[(64, 64, 3, 3), float32], Tensor[(4, 64, 3, 3), float32]) span=from_string:26:180 */;
  let %x_36: Tensor[(68, 64, 3, 3), float32] /* ty=Tensor[(68, 64, 3, 3), float32] span=from_string:28:537 */ = concatenate(%x_35) /* ty=Tensor[(68, 64, 3, 3), float32] span=from_string:27:112 */;
  let %x_38: (Tensor[(1, 128, 56, 56), float16], float32, Tensor[(64, 64, 3, 3), float16], Tensor[(64, 64, 3, 3), float16], Tensor[(1, 64, 56, 56), float16], Tensor[(4), int32], Tensor[(68, 64, 3, 3), float32], bool) /* ty=(Tensor[(1, 128, 56, 56), float16], float32, Tensor[(64, 64, 3, 3), float16], Tensor[(64, 64, 3, 3), float16], Tensor[(1, 64, 56, 56), float16], Tensor[(4), int32], Tensor[(68, 64, 3, 3), float32], bool) span=from_string:29:3 */ = (%x_16, 2f /* ty=float32 span=from_string:28:467 */, %x_26, %x_28, %x_31, %x_34, %x_36, False /* ty=bool span=from_string:28:544 */) /* ty=(Tensor[(1, 128, 56, 56), float16], float32, Tensor[(64, 64, 3, 3), float16], Tensor[(64, 64, 3, 3), float16], Tensor[(1, 64, 56, 56), float16], Tensor[(4), int32], Tensor[(68, 64, 3, 3), float32], bool) span=from_string:28:457 */;
  %x_38
}

#[metadata]
{
  "root": 1, 
  "nodes": [
    {
      "type_key": ""
    }, 
    {
      "type_key": "Map", 
      "keys": [
        "relay.Constant"
      ], 
      "data": [2]
    }, 
    {
      "type_key": "Array", 
      "data": [3]
    }, 
    {
      "type_key": "relay.Constant", 
      "attrs": {
        "_checked_type_": "8", 
        "data": "0", 
        "span": "6", 
        "virtual_device_": "4"
      }
    }, 
    {
      "type_key": "VirtualDevice", 
      "attrs": {
        "device_type_int": "-1", 
        "memory_scope": "5", 
        "target": "0", 
        "virtual_device_id": "-1"
      }
    }, 
    {
      "type_key": "runtime.String"
    }, 
    {
      "type_key": "Span", 
      "attrs": {
        "column": "103", 
        "end_column": "121", 
        "end_line": "25", 
        "line": "25", 
        "source_name": "7"
      }
    }, 
    {
      "type_key": "SourceName", 
      "repr_str": "from_string"
    }, 
    {
      "type_key": "relay.TensorType", 
      "attrs": {
        "dtype": "int32", 
        "shape": "9", 
        "span": "0"
      }
    }, 
    {
      "type_key": "Array", 
      "data": [10]
    }, 
    {
      "type_key": "IntImm", 
      "attrs": {
        "dtype": "int32", 
        "span": "0", 
        "value": "4"
      }
    }
  ], 
  "b64ndarrays": [
    "P6G0lvBAXt0AAAAAAAAAAAEAAAAAAAAAAQAAAAAgAQAEAAAAAAAAABAAAAAAAAAAQAAAAEAAAAADAAAAAwAAAA=="
  ], 
  "attrs": {"tvm_version": "0.13.0"}
}