#[version = "0.0.5"]
def @main(%x0: Tensor[(1, 16, 16, 16), float32] /* ty=Tensor[(1, 16, 16, 16), float32] span=from_string:3:17 */, %x1: Tensor[(64, 16, 3, 3), float32] /* ty=Tensor[(64, 16, 3, 3), float32] span=from_string:5:22 */, %x2: Tensor[(64, 64, 3, 3), float32] /* ty=Tensor[(64, 64, 3, 3), float32] span=from_string:16:19 */, %x3: Tensor[(64, 16, 3, 3), float32] /* ty=Tensor[(64, 16, 3, 3), float32] span=from_string:27:19 */) -> (Tensor[(1, 64, 16, 16), float32], Tensor[(1, 16, 16, 64), float32], Tensor[(1, 16, 16, 16), float32], Tensor[(1, 64, 16, 16), float32], float32, Tensor[(64, 48, 16), float32], Tensor[(64, 64, 16, 1), float32]) {
  %0 = fast_exp(%x0) /* ty=Tensor[(1, 16, 16, 16), float32] span=from_string:13:13 */;
  %1 = zeros_like(%0) /* ty=Tensor[(1, 16, 16, 16), float32] span=from_string:13:17 */;
  %2 = nn.conv2d(%1, %x1, padding=[1, 1, 1, 1], channels=64, kernel_size=[3, 3]) /* ty=Tensor[(1, 64, 16, 16), float32] span=from_string:6:16 */;
  %3 = nn.relu(%2) /* ty=Tensor[(1, 64, 16, 16), float32] span=from_string:17:19 */;
  %4 = add(%3, 1f /* ty=float32 span=from_string:7:18 */) /* ty=Tensor[(1, 64, 16, 16), float32] span=from_string:30:17 */;
  %5 = nn.relu(%3) /* ty=Tensor[(1, 64, 16, 16), float32] span=from_string:9:18 */;
  %6 = transpose(%5, axes=[3, 2, 1, 0]) /* ty=Tensor[(16, 16, 64, 1), float32] span=from_string:10:18 */;
  %7 = transpose(%6, axes=[3, 2, 1, 0]) /* ty=Tensor[(1, 64, 16, 16), float32] span=from_string:11:18 */;
  %8 = transpose(%7, axes=[0, 2, 3, 1]) /* ty=Tensor[(1, 16, 16, 64), float32] span=from_string:12:18 */;
  %9 = transpose(%8, axes=[3, 2, 1, 0]) /* ty=Tensor[(64, 16, 16, 1), float32] span=from_string:31:19 */;
  %10 = add(%0, %1) /* ty=Tensor[(1, 16, 16, 16), float32] span=from_string:14:19 */;
  %11 = transpose(%10, axes=[0, 2, 3, 1]) /* ty=Tensor[(1, 16, 16, 16), float32] span=from_string:15:26 */;
  %12 = layout_transform(%11, src_layout="NHWC", dst_layout="HWCN") /* ty=Tensor[(16, 16, 16, 1), float32] span=from_string:32:19 */;
  %13 = multiply(%x2, 2f /* ty=float32 span=from_string:16:26 */) /* ty=Tensor[(64, 64, 3, 3), float32] span=from_string:17:23 */;
  %14 = nn.conv2d(%3, %13, padding=[1, 1, 1, 1], channels=64, kernel_size=[3, 3]) /* ty=Tensor[(1, 64, 16, 16), float32] span=from_string:18:57 */;
  %15 = add(0f /* ty=float32 span=from_string:18:15 */, %14) /* ty=Tensor[(1, 64, 16, 16), float32] span=from_string:33:17 */;
  %16 = squeeze(%15, axis=[0]) /* ty=Tensor[(64, 16, 16), float32] span=from_string:22:13 */;
  %17 = squeeze(%16, axis=[]) /* ty=Tensor[(64, 16, 16), float32] span=from_string:21:13 */;
  %18 = add(%17, 1f /* ty=float32 span=from_string:21:20 */) /* ty=Tensor[(64, 16, 16), float32] span=from_string:23:13 */;
  %19 = add(%16, 1f /* ty=float32 span=from_string:22:20 */) /* ty=Tensor[(64, 16, 16), float32] span=from_string:24:20 */;
  %20 = add(%18, 1f /* ty=float32 span=from_string:23:20 */) /* ty=Tensor[(64, 16, 16), float32] span=from_string:24:15 */;
  %21 = (%19, %20, %19) /* ty=(Tensor[(64, 16, 16), float32], Tensor[(64, 16, 16), float32], Tensor[(64, 16, 16), float32]) span=from_string:25:21 */;
  %22 = concatenate(%21, axis=1) /* ty=Tensor[(64, 48, 16), float32] span=from_string:26:17 */;
  %23 = squeeze(%22, axis=[]) /* ty=Tensor[(64, 48, 16), float32] span=from_string:34:13 */;
  %24 = multiply(%x3, 2f /* ty=float32 span=from_string:27:26 */) /* ty=Tensor[(64, 16, 3, 3), float32] span=from_string:28:23 */;
  %25 = nn.conv2d(%9, %24, padding=[1, 1, 1, 1], channels=64, kernel_size=[3, 3]) /* ty=Tensor[(64, 64, 16, 1), float32] span=from_string:29:57 */;
  %26 = add(0f /* ty=float32 span=from_string:29:15 */, %25) /* ty=Tensor[(64, 64, 16, 1), float32] span=from_string:35:17 */;
  %27 = add(%4, %4) /* ty=Tensor[(1, 64, 16, 16), float32] span=from_string:36:4 */;
  %28 = transpose(%9, axes=[3, 2, 1, 0]) /* ty=Tensor[(1, 16, 16, 64), float32] span=from_string:36:9 */;
  %29 = transpose(%12, axes=[3, 0, 1, 2]) /* ty=Tensor[(1, 16, 16, 16), float32] span=from_string:36:14 */;
  %30 = nn.relu(%15) /* ty=Tensor[(1, 64, 16, 16), float32] span=from_string:36:19 */;
  %31 = add(%23, 1f /* ty=float32 span=from_string:34:20 */) /* ty=Tensor[(64, 48, 16), float32] span=from_string:36:68 */;
  %32 = nn.relu(%26) /* ty=Tensor[(64, 64, 16, 1), float32] span=from_string:36:73 */;
  (%27, %28, %29, %30, 0f /* ty=float32 span=from_string:36:26 */, %31, %32) /* ty=(Tensor[(1, 64, 16, 16), float32], Tensor[(1, 16, 16, 64), float32], Tensor[(1, 16, 16, 16), float32], Tensor[(1, 64, 16, 16), float32], float32, Tensor[(64, 48, 16), float32], Tensor[(64, 64, 16, 1), float32]) span=from_string:3:3 */
}
