#[version = "0.0.5"]
def @main(%x0: Tensor[(1, 16, 16, 16), float32] /* ty=Tensor[(1, 16, 16, 16), float32] span=from_string:3:12 */, %x1: Tensor[(64, 16, 3, 3), float32] /* ty=Tensor[(64, 16, 3, 3), float32] span=from_string:5:22 */, %x2: Tensor[(64, 64, 3, 3), float32] /* ty=Tensor[(64, 64, 3, 3), float32] span=from_string:19:19 */, %x3: Tensor[(64, 16, 3, 3), float32] /* ty=Tensor[(64, 16, 3, 3), float32] span=from_string:31:19 */) -> (Tensor[(1, 64, 16, 16), float32], Tensor[(1, 16, 16, 64), float32], Tensor[(1, 16, 16, 16), float32], Tensor[(1, 64, 16, 16), float32], float32, Tensor[(64, 48, 16), float32], Tensor[(64, 64, 16, 1), float32]) {
  %0 = exp(%x0);
  %1 = zeros_like(%0);
  %2 = nn.conv2d(%1, %x1, padding=[1, 1, 1, 1], channels=64, kernel_size=[3, 3]);
  %3 = nn.relu(%2);
  %4 = nn.relu(%2);
  %5 = add(%3, 1f /* ty=float32 span=from_string:8:18 */);
  %6 = add(%4, 1f /* ty=float32 span=from_string:9:18 */);
  %7 = nn.relu(%3);
  %8 = transpose(%7, axes=None);
  %9 = transpose(%8, axes=None);
  %10 = transpose(%9, axes=[0, 2, -1, 1]);
  %11 = transpose(%10, axes=None);
  %12 = add(%0, %1);
  %13 = transpose(%12, axes=[0, 2, 3, 1]);
  %14 = layout_transform(%13, src_layout="NHWC", dst_layout="HWCN");
  %15 = nn.relu(%2);
  %16 = multiply(%x2, 2f /* ty=float32 span=from_string:19:26 */);
  %17 = nn.conv2d(%15, %16, padding=[1, 1, 1, 1], channels=64, kernel_size=[3, 3]);
  %18 = add(0f /* ty=float32 span=from_string:21:15 */, %17);
  %19 = squeeze(%18);
  %20 = squeeze(%19);
  %21 = add(%20, 1f /* ty=float32 span=from_string:24:20 */);
  %22 = add(%19, 1f /* ty=float32 span=from_string:25:20 */);
  %23 = add(%21, 1f /* ty=float32 span=from_string:26:20 */);
  %24 = add(%19, 1f /* ty=float32 span=from_string:27:20 */);
  %25 = (%22, %23, %24) /* ty=(Tensor[(64, 16, 16), float32], Tensor[(64, 16, 16), float32], Tensor[(64, 16, 16), float32]) span=from_string:29:21 */;
  %26 = concatenate(%25, axis=1);
  %27 = squeeze(%26);
  %28 = multiply(%x3, 2f /* ty=float32 span=from_string:31:26 */);
  %29 = nn.conv2d(%11, %28, padding=[1, 1, 1, 1], channels=64, kernel_size=[3, 3]);
  %30 = add(0f /* ty=float32 span=from_string:33:15 */, %29);
  %31 = add(%5, %6);
  %32 = transpose(%11, axes=None);
  %33 = transpose(%14, axes=[3, 0, 1, 2]);
  %34 = nn.relu(%18);
  %35 = add(%27, 1f /* ty=float32 span=from_string:38:20 */);
  %36 = nn.relu(%30);
  (%31, %32, %33, %34, 0f /* ty=float32 span=from_string:40:26 */, %35, %36) /* ty=(Tensor[(1, 64, 16, 16), float32], Tensor[(1, 16, 16, 64), float32], Tensor[(1, 16, 16, 16), float32], Tensor[(1, 64, 16, 16), float32], float32, Tensor[(64, 48, 16), float32], Tensor[(64, 64, 16, 1), float32]) span=from_string:3:3 */
}
