#[version = "0.0.5"]
def @main(%x0: Tensor[(1, 3, 10, 10), int8] /* ty=Tensor[(1, 3, 10, 10), int8] span=from_string:13:15 */, %x1: Tensor[(1, 6, 10, 10), float32] /* ty=Tensor[(1, 6, 10, 10), float32] span=from_string:19:18 */, %x2: Tensor[(92), int64] /* ty=Tensor[(92), int64] span=from_string:34:19 */, %x3: Tensor[(1, 6, 10, 41), float32] /* ty=Tensor[(1, 6, 10, 41), float32] span=from_string:20:15 */, %x4: Tensor[(1, 6, 10, 72), float32] /* ty=Tensor[(1, 6, 10, 72), float32] span=from_string:22:10 */) -> (int8, Tensor[(1, 6, 10, 10), float32], Tensor[(1, 3, 5, 5), float32], Tensor[(1, 10, 5), int32], int32, float32, Tensor[(92, 10, 5), float32], Tensor[(1, 6, 10, 123), float32], Tensor[(0, 40, 40, 1), float32]) {
  %0 = fn (%p01: Tensor[(1, 3, 10, 10), int8] /* ty=Tensor[(1, 3, 10, 10), int8] */, Primitive=1) -> Tensor[(1, 0, 40, 40), int8] {
    nn.depth_to_space(%p01, block_size=4) /* ty=Tensor[(1, 0, 40, 40), int8] span=from_string:30:14 */
  } /* ty=fn (Tensor[(1, 3, 10, 10), int8]) -> Tensor[(1, 0, 40, 40), int8] */;
  %1 = %0(%x0) /* ty=Tensor[(1, 0, 40, 40), int8] */;
  %2 = fn (%p0: Tensor[(1, 0, 40, 40), int8] /* ty=Tensor[(1, 0, 40, 40), int8] */, Primitive=1) -> int8 {
    max(%p0) /* ty=int8 span=from_string:37:4 */
  } /* ty=fn (Tensor[(1, 0, 40, 40), int8]) -> int8 */;
  %5 = fn (%p06: Tensor[(1, 3, 10, 10), int8] /* ty=Tensor[(1, 3, 10, 10), int8] */, Primitive=1) -> Tensor[(1, 3, 10, 10), float32] {
    qnn.dequantize(%p06, 2f /* ty=float32 span=from_string:4:30 */, 0 /* ty=int32 span=from_string:4:72 */) /* ty=Tensor[(1, 3, 10, 10), float32] span=from_string:27:27 */
  } /* ty=fn (Tensor[(1, 3, 10, 10), int8]) -> Tensor[(1, 3, 10, 10), float32] */;
  %6 = %5(%x0) /* ty=Tensor[(1, 3, 10, 10), float32] */;
  %7 = fn (%p05: Tensor[(1, 3, 10, 10), float32] /* ty=Tensor[(1, 3, 10, 10), float32] */, Primitive=1) -> Tensor[(1, 3, 5, 5), float32] {
    nn.max_pool2d(%p05, pool_size=[2, 2], strides=[2, 2], padding=[0, 0, 0, 0]) /* ty=Tensor[(1, 3, 5, 5), float32] span=from_string:32:13 */
  } /* ty=fn (Tensor[(1, 3, 10, 10), float32]) -> Tensor[(1, 3, 5, 5), float32] */;
  %8 = %7(%6) /* ty=Tensor[(1, 3, 5, 5), float32] */;
  %9 = fn (%p04: Tensor[(1, 3, 5, 5), float32] /* ty=Tensor[(1, 3, 5, 5), float32] */, Primitive=1) -> Tensor[(1, 3, 10, 10), float32] {
    nn.upsampling(%p04, scale_h=2f, scale_w=2f) /* ty=Tensor[(1, 3, 10, 10), float32] span=from_string:7:9 */
  } /* ty=fn (Tensor[(1, 3, 5, 5), float32]) -> Tensor[(1, 3, 10, 10), float32] */;
  %10 = %9(%8) /* ty=Tensor[(1, 3, 10, 10), float32] */;
  %11 = (%10, %6) /* ty=(Tensor[(1, 3, 10, 10), float32], Tensor[(1, 3, 10, 10), float32]) span=from_string:18:21 */;
  %12 = fn (%p03: (Tensor[(1, 3, 10, 10), float32], Tensor[(1, 3, 10, 10), float32]) /* ty=(Tensor[(1, 3, 10, 10), float32], Tensor[(1, 3, 10, 10), float32]) */, Primitive=1) -> Tensor[(1, 6, 10, 10), float32] {
    concatenate(%p03, axis=1) /* ty=Tensor[(1, 6, 10, 10), float32] span=from_string:9:31 */
  } /* ty=fn ((Tensor[(1, 3, 10, 10), float32], Tensor[(1, 3, 10, 10), float32])) -> Tensor[(1, 6, 10, 10), float32] */;
  %13 = %12(%11) /* ty=Tensor[(1, 6, 10, 10), float32] */;
  %14 = fn (%p02: Tensor[(1, 6, 10, 10), float32] /* ty=Tensor[(1, 6, 10, 10), float32] */, Primitive=1) -> Tensor[(1, 6, 10, 10), float32] {
    %3 = (%p02,) /* ty=(Tensor[(1, 6, 10, 10), float32],) span=from_string:11:20 */;
    %4 = concatenate(%3, axis=1) /* ty=Tensor[(1, 6, 10, 10), float32] span=from_string:31:13 */;
    add(%4, 1f /* ty=float32 span=from_string:31:19 */) /* ty=Tensor[(1, 6, 10, 10), float32] span=from_string:37:9 */
  } /* ty=fn (Tensor[(1, 6, 10, 10), float32]) -> Tensor[(1, 6, 10, 10), float32] */;
  %16 = fn (%p07: Tensor[(1, 3, 5, 5), float32] /* ty=Tensor[(1, 3, 5, 5), float32] */, Primitive=1) -> Tensor[(1, 3, 5, 5), float32] {
    %15 = zeros(shape=[1], dtype="float32") /* ty=Tensor[(1), float32] span=from_string:32:17 */;
    add(%p07, %15) /* ty=Tensor[(1, 3, 5, 5), float32] span=from_string:37:14 */
  } /* ty=fn (Tensor[(1, 3, 5, 5), float32]) -> Tensor[(1, 3, 5, 5), float32] */;
  %19 = fn (%p09: Tensor[(1, 3, 10, 10), int8] /* ty=Tensor[(1, 3, 10, 10), int8] */, Primitive=1) -> Tensor[(1, 3, 10, 5), float32] {
    %17 = split(%p09, indices_or_sections=2, axis=3) /* ty=(Tensor[(1, 3, 10, 5), int8], Tensor[(1, 3, 10, 5), int8]) span=from_string:14:9 */;
    %18 = %17.0 /* ty=Tensor[(1, 3, 10, 5), int8] */;
    qnn.dequantize(%18, 2f /* ty=float32 span=from_string:15:31 */, 0 /* ty=int32 span=from_string:15:74 */) /* ty=Tensor[(1, 3, 10, 5), float32] span=from_string:33:16 */
  } /* ty=fn (Tensor[(1, 3, 10, 10), int8]) -> Tensor[(1, 3, 10, 5), float32] */;
  %20 = %19(%x0) /* ty=Tensor[(1, 3, 10, 5), float32] */;
  %21 = fn (%p08: Tensor[(1, 3, 10, 5), float32] /* ty=Tensor[(1, 3, 10, 5), float32] */, Primitive=1) -> Tensor[(1, 10, 5), int32] {
    argmin(%p08, axis=[1]) /* ty=Tensor[(1, 10, 5), int32] span=from_string:37:19 */
  } /* ty=fn (Tensor[(1, 3, 10, 5), float32]) -> Tensor[(1, 10, 5), int32] */;
  %24 = fn (%p010: Tensor[(1, 3, 10, 5), float32] /* ty=Tensor[(1, 3, 10, 5), float32] */, %p1: Tensor[(92), int64] /* ty=Tensor[(92), int64] */, Primitive=1) -> Tensor[(92, 10, 5), float32] {
    %22 = squeeze(%p010) /* ty=Tensor[(3, 10, 5), float32] span=from_string:17:23 */;
    %23 = strided_slice(%22, begin=[0, 0, 0], end=[3, 10, 5], strides=[1, 1, 1], axes=None) /* ty=Tensor[(3, 10, 5), float32] span=from_string:34:14 */;
    take(%23, %p1, axis=0) /* ty=Tensor[(92, 10, 5), float32] span=from_string:37:117 */
  } /* ty=fn (Tensor[(1, 3, 10, 5), float32], Tensor[(92), int64]) -> Tensor[(92, 10, 5), float32] */;
  %29 = fn (%p012: (Tensor[(1, 3, 10, 10), float32], Tensor[(1, 3, 10, 10), float32]) /* ty=(Tensor[(1, 3, 10, 10), float32], Tensor[(1, 3, 10, 10), float32]) */, %p12: Tensor[(1, 6, 10, 10), float32] /* ty=Tensor[(1, 6, 10, 10), float32] */, %p2: Tensor[(1, 6, 10, 41), float32] /* ty=Tensor[(1, 6, 10, 41), float32] */, Primitive=1) -> Tensor[(1, 6, 10, 51), float32] {
    %26 = concatenate(%p012, axis=1) /* ty=Tensor[(1, 6, 10, 10), float32] span=from_string:19:13 */;
    %27 = add(%26, %p12) /* ty=Tensor[(1, 6, 10, 10), float32] span=from_string:20:10 */;
    %28 = (%27, %p2) /* ty=(Tensor[(1, 6, 10, 10), float32], Tensor[(1, 6, 10, 41), float32]) span=from_string:21:21 */;
    concatenate(%28, axis=3) /* ty=Tensor[(1, 6, 10, 51), float32] span=from_string:24:32 */
  } /* ty=fn ((Tensor[(1, 3, 10, 10), float32], Tensor[(1, 3, 10, 10), float32]), Tensor[(1, 6, 10, 10), float32], Tensor[(1, 6, 10, 41), float32]) -> Tensor[(1, 6, 10, 51), float32] */;
  %31 = fn (%p013: Tensor[(1, 6, 10, 72), float32] /* ty=Tensor[(1, 6, 10, 72), float32] */, Primitive=1) -> Tensor[(1, 6, 10, 72), float32] {
    %30 = (%p013,) /* ty=(Tensor[(1, 6, 10, 72), float32],) span=from_string:23:21 */;
    concatenate(%30, axis=3) /* ty=Tensor[(1, 6, 10, 72), float32] span=from_string:25:32 */
  } /* ty=fn (Tensor[(1, 6, 10, 72), float32]) -> Tensor[(1, 6, 10, 72), float32] */;
  %32 = %29(%11, %x1, %x3) /* ty=Tensor[(1, 6, 10, 51), float32] */;
  %33 = %31(%x4) /* ty=Tensor[(1, 6, 10, 72), float32] */;
  %34 = fn (%p011: Tensor[(1, 6, 10, 51), float32] /* ty=Tensor[(1, 6, 10, 51), float32] */, %p11: Tensor[(1, 6, 10, 72), float32] /* ty=Tensor[(1, 6, 10, 72), float32] */, Primitive=1) -> Tensor[(1, 6, 10, 123), float32] {
    %25 = (%p011, %p11) /* ty=(Tensor[(1, 6, 10, 51), float32], Tensor[(1, 6, 10, 72), float32]) span=from_string:35:21 */;
    concatenate(%25, axis=3) /* ty=Tensor[(1, 6, 10, 123), float32] span=from_string:37:122 */
  } /* ty=fn (Tensor[(1, 6, 10, 51), float32], Tensor[(1, 6, 10, 72), float32]) -> Tensor[(1, 6, 10, 123), float32] */;
  %38 = fn (%p014: Tensor[(1, 3, 10, 10), float32] /* ty=Tensor[(1, 3, 10, 10), float32] */, Primitive=1) -> Tensor[(0, 40, 40, 1), float32] {
    %35 = nn.depth_to_space(%p014, block_size=4) /* ty=Tensor[(1, 0, 40, 40), float32] span=from_string:28:26 */;
    %36 = layout_transform(%35, src_layout="NCHW", dst_layout="NHWC") /* ty=Tensor[(1, 40, 40, 0), float32] span=from_string:29:26 */;
    %37 = layout_transform(%36, src_layout="NHWC", dst_layout="CHWN") /* ty=Tensor[(0, 40, 40, 1), float32] span=from_string:36:17 */;
    nn.relu(%37) /* ty=Tensor[(0, 40, 40, 1), float32] span=from_string:37:127 */
  } /* ty=fn (Tensor[(1, 3, 10, 10), float32]) -> Tensor[(0, 40, 40, 1), float32] */;
  %39 = %2(%1) /* ty=int8 */;
  %40 = %14(%13) /* ty=Tensor[(1, 6, 10, 10), float32] */;
  %41 = %16(%8) /* ty=Tensor[(1, 3, 5, 5), float32] */;
  %42 = %21(%20) /* ty=Tensor[(1, 10, 5), int32] */;
  %43 = %24(%20, %x2) /* ty=Tensor[(92, 10, 5), float32] */;
  %44 = %34(%32, %33) /* ty=Tensor[(1, 6, 10, 123), float32] */;
  %45 = %38(%6) /* ty=Tensor[(0, 40, 40, 1), float32] */;
  (%39, %40, %41, %42, 600 /* ty=int32 span=from_string:37:27 */, 20.0855f /* ty=float32 span=from_string:37:75 */, %43, %44, %45) /* ty=(int8, Tensor[(1, 6, 10, 10), float32], Tensor[(1, 3, 5, 5), float32], Tensor[(1, 10, 5), int32], int32, float32, Tensor[(92, 10, 5), float32], Tensor[(1, 6, 10, 123), float32], Tensor[(0, 40, 40, 1), float32]) span=from_string:3:3 */
}
