#[version = "0.0.5"]
def @main(%x0: Tensor[(1, 3, 10, 10), int8] /* ty=Tensor[(1, 3, 10, 10), int8] span=from_string:6:11 */, %x1: Tensor[(1, 6, 10, 10), float32] /* ty=Tensor[(1, 6, 10, 10), float32] span=from_string:59:18 */, %x2: Tensor[(92), int64] /* ty=Tensor[(92), int64] span=from_string:58:18 */, %x3: Tensor[(1, 6, 10, 41), float32] /* ty=Tensor[(1, 6, 10, 41), float32] span=from_string:59:23 */, %x4: Tensor[(1, 6, 10, 72), float32] /* ty=Tensor[(1, 6, 10, 72), float32] span=from_string:59:28 */) -> (int8, Tensor[(1, 6, 10, 10), float32], Tensor[(1, 3, 5, 5), float32], Tensor[(1, 10, 5), int32], int32, float32, Tensor[(92, 10, 5), float32], Tensor[(1, 6, 10, 123), float32], Tensor[(0, 40, 40, 1), float32]) {
  %0 = qnn.dequantize(%x0, 2f /* ty=float32 span=from_string:4:28 */, 0 /* ty=int32 span=from_string:4:70 */) /* ty=Tensor[(1, 3, 10, 10), float32] span=from_string:4:5 */;
  %1 = nn.depth_to_space(%0, block_size=4) /* ty=Tensor[(1, 0, 40, 40), float32] span=from_string:8:5 */;
  %2 = max(%1) /* ty=float32 span=from_string:12:6 */;
  %3 = nn.max_pool2d(%0, pool_size=[2, 2], strides=[2, 2], padding=[0, 0, 0, 0]) /* ty=Tensor[(1, 3, 5, 5), float32] span=from_string:19:5 */;
  %4 = nn.upsampling(%3, scale_h=2f, scale_w=2f) /* ty=Tensor[(1, 3, 10, 10), float32] span=from_string:24:11 */;
  %5 = (%4, %0) /* ty=(Tensor[(1, 3, 10, 10), float32], Tensor[(1, 3, 10, 10), float32]) span=from_string:25:17 */;
  %6 = concatenate(%5, axis=1) /* ty=Tensor[(1, 6, 10, 10), float32] span=from_string:23:5 */;
  %7 = split(%0, indices_or_sections=2, axis=3) /* ty=(Tensor[(1, 3, 10, 5), float32], Tensor[(1, 3, 10, 5), float32]) span=from_string:33:11 */;
  %8 = %7.0 /* ty=Tensor[(1, 3, 10, 5), float32] span=from_string:34:24 */;
  %9 = qnn.quantize(%8, 2f /* ty=float32 span=from_string:34:31 */, 0 /* ty=int32 span=from_string:34:74 */, out_dtype="int8") /* ty=Tensor[(1, 3, 10, 5), int8] span=from_string:35:20 */;
  %10 = qnn.dequantize(%9, 2f /* ty=float32 span=from_string:35:27 */, 0 /* ty=int32 span=from_string:35:70 */) /* ty=Tensor[(1, 3, 10, 5), float32] span=from_string:32:5 */;
  %11 = squeeze(%10) /* ty=Tensor[(3, 10, 5), float32] span=from_string:43:25 */;
  %12 = strided_slice(%11, begin=[0, 0, 0], end=[3, 10, 5], strides=[1, 1, 1], axes=None) /* ty=Tensor[(3, 10, 5), float32] span=from_string:44:10 */;
  %13 = add(%6, %x1) /* ty=Tensor[(1, 6, 10, 10), float32] span=from_string:48:12 */;
  %14 = (%13, %x3, %x4) /* ty=(Tensor[(1, 6, 10, 10), float32], Tensor[(1, 6, 10, 41), float32], Tensor[(1, 6, 10, 72), float32]) span=from_string:49:17 */;
  %15 = transpose(%1, axes=[1, 2, 3, 0]) /* ty=Tensor[(0, 40, 40, 1), float32] span=from_string:53:13 */;
  %16 = qnn.quantize(%2, 2f /* ty=float32 span=from_string:16:25 */, 0 /* ty=int32 span=from_string:16:68 */, out_dtype="int8") /* ty=int8 span=from_string:16:5 */;
  %17 = add(%6, 1f /* ty=float32 span=from_string:29:17 */) /* ty=Tensor[(1, 6, 10, 10), float32] span=from_string:29:5 */;
  %18 = argmin(%10, axis=[1]) /* ty=Tensor[(1, 10, 5), int32] span=from_string:39:5 */;
  %19 = take(%12, %x2, axis=0) /* ty=Tensor[(92, 10, 5), float32] span=from_string:42:5 */;
  %20 = concatenate(%14, axis=3) /* ty=Tensor[(1, 6, 10, 123), float32] span=from_string:47:5 */;
  %21 = nn.relu(%15) /* ty=Tensor[(0, 40, 40, 1), float32] span=from_string:52:5 */;
  (%16, %17, %3, %18, 600 /* ty=int32 span=from_string:61:27 */, 20.0855f /* ty=float32 span=from_string:61:75 */, %19, %20, %21) /* ty=(int8, Tensor[(1, 6, 10, 10), float32], Tensor[(1, 3, 5, 5), float32], Tensor[(1, 10, 5), int32], int32, float32, Tensor[(92, 10, 5), float32], Tensor[(1, 6, 10, 123), float32], Tensor[(0, 40, 40, 1), float32]) span=from_string:3:3 */
}
