#[version = "0.0.5"]
def @main(%x0: Tensor[(1, 3, 10, 10), int8] /* ty=Tensor[(1, 3, 10, 10), int8] span=from_string:54:117 */, %x1: Tensor[(1, 6, 10, 10), float32] /* ty=Tensor[(1, 6, 10, 10), float32] span=from_string:93:124 */, %x2: Tensor[(92), int64] /* ty=Tensor[(92), int64] span=from_string:89:118 */, %x3: Tensor[(1, 6, 10, 41), float32] /* ty=Tensor[(1, 6, 10, 41), float32] span=from_string:94:257 */, %x4: Tensor[(1, 6, 10, 72), float32] /* ty=Tensor[(1, 6, 10, 72), float32] span=from_string:94:262 */) -> (int8, Tensor[(1, 6, 10, 10), float32], Tensor[(1, 3, 5, 5), float32], Tensor[(1, 10, 5), int32], int32, float32, Tensor[(92, 10, 5), float32], Tensor[(1, 6, 10, 123), float32], Tensor[(0, 40, 40, 1), float32]) {
  %0 = fn (%p0: Tensor[(1, 3, 10, 10), int8] /* ty=Tensor[(1, 3, 10, 10), int8] span=from_string:6:20 */, %p1: float32 /* ty=float32 span=from_string:6:25 */, %p2: int32 /* ty=int32 span=from_string:6:30 */, Primitive=1) -> Tensor[(1, 3, 10, 10), float32] {
    qnn.dequantize(%p0, %p1, %p2) /* ty=Tensor[(1, 3, 10, 10), float32] span=from_string:6:5 */
  } /* ty=fn (Tensor[(1, 3, 10, 10), int8], float32, int32) -> Tensor[(1, 3, 10, 10), float32] span=from_string:8:112 */;
  %1 = %0(%x0, 2f /* ty=float32 span=from_string:3:65 */, 0 /* ty=int32 span=from_string:4:62 */) /* ty=Tensor[(1, 3, 10, 10), float32] span=from_string:8:112 */;
  %2 = fn (%p01: Tensor[(1, 3, 10, 10), float32] /* ty=Tensor[(1, 3, 10, 10), float32] span=from_string:10:23 */, Primitive=1) -> Tensor[(1, 0, 40, 40), float32] {
    nn.depth_to_space(%p01, block_size=4) /* ty=Tensor[(1, 0, 40, 40), float32] span=from_string:10:5 */
  } /* ty=fn (Tensor[(1, 3, 10, 10), float32]) -> Tensor[(1, 0, 40, 40), float32] span=from_string:12:112 */;
  %3 = %2(%1) /* ty=Tensor[(1, 0, 40, 40), float32] span=from_string:12:112 */;
  %4 = fn (%p02: Tensor[(1, 0, 40, 40), float32] /* ty=Tensor[(1, 0, 40, 40), float32] span=from_string:14:10 */, Primitive=1) -> float32 {
    max(%p02) /* ty=float32 span=from_string:14:6 */
  } /* ty=fn (Tensor[(1, 0, 40, 40), float32]) -> float32 span=from_string:16:63 */;
  %5 = %4(%3) /* ty=float32 span=from_string:16:63 */;
  %6 = fn (%p03: float32 /* ty=float32 span=from_string:20:18 */, %p11: float32 /* ty=float32 span=from_string:20:24 */, %p21: int32 /* ty=int32 span=from_string:20:30 */, Primitive=1) -> int8 {
    qnn.quantize(%p03, %p11, %p21, out_dtype="int8") /* ty=int8 span=from_string:20:5 */
  } /* ty=fn (float32, float32, int32) -> int8 span=from_string:22:60 */;
  %7 = fn (%p04: Tensor[(1, 3, 10, 10), float32] /* ty=Tensor[(1, 3, 10, 10), float32] span=from_string:24:20 */, Primitive=1) -> Tensor[(1, 3, 5, 5), float32] {
    nn.max_pool2d(%p04, pool_size=[2, 2], strides=[2, 2], padding=[0, 0, 0, 0]) /* ty=Tensor[(1, 3, 5, 5), float32] span=from_string:24:5 */
  } /* ty=fn (Tensor[(1, 3, 10, 10), float32]) -> Tensor[(1, 3, 5, 5), float32] span=from_string:26:108 */;
  %8 = %7(%1) /* ty=Tensor[(1, 3, 5, 5), float32] span=from_string:26:108 */;
  %9 = fn (%p05: Tensor[(1, 3, 5, 5), float32] /* ty=Tensor[(1, 3, 5, 5), float32] span=from_string:28:19 */, Primitive=1) -> Tensor[(1, 3, 10, 10), float32] {
    nn.upsampling(%p05, scale_h=2f, scale_w=2f) /* ty=Tensor[(1, 3, 10, 10), float32] span=from_string:28:5 */
  } /* ty=fn (Tensor[(1, 3, 5, 5), float32]) -> Tensor[(1, 3, 10, 10), float32] span=from_string:30:112 */;
  %10 = %9(%8) /* ty=Tensor[(1, 3, 10, 10), float32] span=from_string:30:112 */;
  %11 = (%10, %1) /* ty=(Tensor[(1, 3, 10, 10), float32], Tensor[(1, 3, 10, 10), float32]) span=from_string:31:183 */;
  %12 = fn (%p06: (Tensor[(1, 3, 10, 10), float32], Tensor[(1, 3, 10, 10), float32]) /* ty=(Tensor[(1, 3, 10, 10), float32], Tensor[(1, 3, 10, 10), float32]) span=from_string:33:17 */, Primitive=1) -> Tensor[(1, 6, 10, 10), float32] {
    concatenate(%p06, axis=1) /* ty=Tensor[(1, 6, 10, 10), float32] span=from_string:33:5 */
  } /* ty=fn ((Tensor[(1, 3, 10, 10), float32], Tensor[(1, 3, 10, 10), float32])) -> Tensor[(1, 6, 10, 10), float32] span=from_string:35:113 */;
  %13 = %12(%11) /* ty=Tensor[(1, 6, 10, 10), float32] span=from_string:35:113 */;
  %14 = fn (%p07: Tensor[(1, 6, 10, 10), float32] /* ty=Tensor[(1, 6, 10, 10), float32] span=from_string:38:9 */, %p12: float32 /* ty=float32 span=from_string:38:15 */, Primitive=1) -> Tensor[(1, 6, 10, 10), float32] {
    add(%p07, %p12) /* ty=Tensor[(1, 6, 10, 10), float32] span=from_string:38:5 */
  } /* ty=fn (Tensor[(1, 6, 10, 10), float32], float32) -> Tensor[(1, 6, 10, 10), float32] span=from_string:40:113 */;
  %15 = fn (Primitive=1) -> Tensor[(1), float32] {
    zeros(shape=[1], dtype="float32") /* ty=Tensor[(1), float32] span=from_string:42:5 */
  } /* ty=fn () -> Tensor[(1), float32] span=from_string:44:91 */;
  %16 = %15() /* ty=Tensor[(1), float32] span=from_string:44:91 */;
  %17 = fn (%p08: Tensor[(1, 3, 5, 5), float32] /* ty=Tensor[(1, 3, 5, 5), float32] span=from_string:46:9 */, %p13: Tensor[(1), float32] /* ty=Tensor[(1), float32] span=from_string:46:15 */, Primitive=1) -> Tensor[(1, 3, 5, 5), float32] {
    add(%p08, %p13) /* ty=Tensor[(1, 3, 5, 5), float32] span=from_string:46:5 */
  } /* ty=fn (Tensor[(1, 3, 5, 5), float32], Tensor[(1), float32]) -> Tensor[(1, 3, 5, 5), float32] span=from_string:48:109 */;
  %18 = fn (%p09: Tensor[(1, 3, 10, 10), int8] /* ty=Tensor[(1, 3, 10, 10), int8] span=from_string:52:20 */, %p14: float32 /* ty=float32 span=from_string:52:26 */, %p22: int32 /* ty=int32 span=from_string:52:32 */, Primitive=1) -> Tensor[(1, 3, 10, 10), float32] {
    qnn.dequantize(%p09, %p14, %p22) /* ty=Tensor[(1, 3, 10, 10), float32] span=from_string:52:5 */
  } /* ty=fn (Tensor[(1, 3, 10, 10), int8], float32, int32) -> Tensor[(1, 3, 10, 10), float32] span=from_string:54:113 */;
  %19 = %18(%x0, 2f /* ty=float32 span=from_string:49:67 */, 0 /* ty=int32 span=from_string:50:64 */) /* ty=Tensor[(1, 3, 10, 10), float32] span=from_string:54:113 */;
  %20 = fn (%p010: Tensor[(1, 3, 10, 10), float32] /* ty=Tensor[(1, 3, 10, 10), float32] span=from_string:56:11 */, Primitive=1) -> (Tensor[(1, 3, 10, 5), float32], Tensor[(1, 3, 10, 5), float32]) {
    split(%p010, indices_or_sections=2, axis=3) /* ty=(Tensor[(1, 3, 10, 5), float32], Tensor[(1, 3, 10, 5), float32]) span=from_string:56:5 */
  } /* ty=fn (Tensor[(1, 3, 10, 10), float32]) -> (Tensor[(1, 3, 10, 5), float32], Tensor[(1, 3, 10, 5), float32]) span=from_string:58:179 */;
  %21 = %20(%19) /* ty=(Tensor[(1, 3, 10, 5), float32], Tensor[(1, 3, 10, 5), float32]) span=from_string:58:179 */;
  %22 = %21.0 /* ty=Tensor[(1, 3, 10, 5), float32] span=from_string:59:111 */;
  %23 = fn (%p011: Tensor[(1, 3, 10, 5), float32] /* ty=Tensor[(1, 3, 10, 5), float32] span=from_string:63:18 */, %p15: float32 /* ty=float32 span=from_string:63:25 */, %p23: int32 /* ty=int32 span=from_string:63:31 */, Primitive=1) -> Tensor[(1, 3, 10, 5), int8] {
    qnn.quantize(%p011, %p15, %p23, out_dtype="int8") /* ty=Tensor[(1, 3, 10, 5), int8] span=from_string:63:5 */
  } /* ty=fn (Tensor[(1, 3, 10, 5), float32], float32, int32) -> Tensor[(1, 3, 10, 5), int8] span=from_string:65:107 */;
  %24 = %23(%22, 2f /* ty=float32 span=from_string:60:67 */, 0 /* ty=int32 span=from_string:61:64 */) /* ty=Tensor[(1, 3, 10, 5), int8] span=from_string:65:107 */;
  %25 = fn (%p012: Tensor[(1, 3, 10, 5), int8] /* ty=Tensor[(1, 3, 10, 5), int8] span=from_string:69:20 */, %p16: float32 /* ty=float32 span=from_string:69:27 */, %p24: int32 /* ty=int32 span=from_string:69:33 */, Primitive=1) -> Tensor[(1, 3, 10, 5), float32] {
    qnn.dequantize(%p012, %p16, %p24) /* ty=Tensor[(1, 3, 10, 5), float32] span=from_string:69:5 */
  } /* ty=fn (Tensor[(1, 3, 10, 5), int8], float32, int32) -> Tensor[(1, 3, 10, 5), float32] span=from_string:71:111 */;
  %26 = %25(%24, 2f /* ty=float32 span=from_string:66:67 */, 0 /* ty=int32 span=from_string:67:64 */) /* ty=Tensor[(1, 3, 10, 5), float32] span=from_string:71:111 */;
  %27 = fn (%p013: Tensor[(1, 3, 10, 5), float32] /* ty=Tensor[(1, 3, 10, 5), float32] span=from_string:73:12 */, Primitive=1) -> Tensor[(1, 10, 5), int32] {
    argmin(%p013, axis=[1]) /* ty=Tensor[(1, 10, 5), int32] span=from_string:73:5 */
  } /* ty=fn (Tensor[(1, 3, 10, 5), float32]) -> Tensor[(1, 10, 5), int32] span=from_string:75:103 */;
  %28 = fn (%p014: Tensor[(1, 3, 10, 5), float32] /* ty=Tensor[(1, 3, 10, 5), float32] span=from_string:79:13 */, Primitive=1, relay.reshape_only=1) -> Tensor[(3, 10, 5), float32] {
    squeeze(%p014) /* ty=Tensor[(3, 10, 5), float32] span=from_string:79:5 */
  } /* ty=fn (Tensor[(1, 3, 10, 5), float32]) -> Tensor[(3, 10, 5), float32] span=from_string:81:105 */;
  %29 = %28(%26) /* ty=Tensor[(3, 10, 5), float32] span=from_string:81:105 */;
  %30 = fn (%p015: Tensor[(3, 10, 5), float32] /* ty=Tensor[(3, 10, 5), float32] span=from_string:83:19 */, Primitive=1) -> Tensor[(3, 10, 5), float32] {
    strided_slice(%p015, begin=[0, 0, 0], end=[3, 10, 5], strides=[1, 1, 1], axes=None) /* ty=Tensor[(3, 10, 5), float32] span=from_string:83:5 */
  } /* ty=fn (Tensor[(3, 10, 5), float32]) -> Tensor[(3, 10, 5), float32] span=from_string:85:105 */;
  %31 = %30(%29) /* ty=Tensor[(3, 10, 5), float32] span=from_string:85:105 */;
  %32 = fn (%p016: Tensor[(3, 10, 5), float32] /* ty=Tensor[(3, 10, 5), float32] span=from_string:87:10 */, %p17: Tensor[(92), int64] /* ty=Tensor[(92), int64] span=from_string:87:17 */, Primitive=1) -> Tensor[(92, 10, 5), float32] {
    take(%p016, %p17, axis=0) /* ty=Tensor[(92, 10, 5), float32] span=from_string:87:5 */
  } /* ty=fn (Tensor[(3, 10, 5), float32], Tensor[(92), int64]) -> Tensor[(92, 10, 5), float32] span=from_string:89:107 */;
  %33 = fn (%p017: Tensor[(1, 6, 10, 10), float32] /* ty=Tensor[(1, 6, 10, 10), float32] span=from_string:91:9 */, %p18: Tensor[(1, 6, 10, 10), float32] /* ty=Tensor[(1, 6, 10, 10), float32] span=from_string:91:16 */, Primitive=1) -> Tensor[(1, 6, 10, 10), float32] {
    add(%p017, %p18) /* ty=Tensor[(1, 6, 10, 10), float32] span=from_string:91:5 */
  } /* ty=fn (Tensor[(1, 6, 10, 10), float32], Tensor[(1, 6, 10, 10), float32]) -> Tensor[(1, 6, 10, 10), float32] span=from_string:93:113 */;
  %34 = %33(%13, %x1) /* ty=Tensor[(1, 6, 10, 10), float32] span=from_string:93:113 */;
  %35 = (%34, %x3, %x4) /* ty=(Tensor[(1, 6, 10, 10), float32], Tensor[(1, 6, 10, 41), float32], Tensor[(1, 6, 10, 72), float32]) span=from_string:94:249 */;
  %36 = fn (%p018: (Tensor[(1, 6, 10, 10), float32], Tensor[(1, 6, 10, 41), float32], Tensor[(1, 6, 10, 72), float32]) /* ty=(Tensor[(1, 6, 10, 10), float32], Tensor[(1, 6, 10, 41), float32], Tensor[(1, 6, 10, 72), float32]) span=from_string:96:17 */, Primitive=1) -> Tensor[(1, 6, 10, 123), float32] {
    concatenate(%p018, axis=3) /* ty=Tensor[(1, 6, 10, 123), float32] span=from_string:96:5 */
  } /* ty=fn ((Tensor[(1, 6, 10, 10), float32], Tensor[(1, 6, 10, 41), float32], Tensor[(1, 6, 10, 72), float32])) -> Tensor[(1, 6, 10, 123), float32] span=from_string:98:115 */;
  %37 = fn (%p019: Tensor[(1, 0, 40, 40), float32] /* ty=Tensor[(1, 0, 40, 40), float32] span=from_string:100:22 */, Primitive=1) -> Tensor[(1, 40, 40, 0), float32] {
    layout_transform(%p019, src_layout="NCHW", dst_layout="NHWC") /* ty=Tensor[(1, 40, 40, 0), float32] span=from_string:100:5 */
  } /* ty=fn (Tensor[(1, 0, 40, 40), float32]) -> Tensor[(1, 40, 40, 0), float32] span=from_string:102:113 */;
  %38 = %37(%3) /* ty=Tensor[(1, 40, 40, 0), float32] span=from_string:102:113 */;
  %39 = fn (%p020: Tensor[(1, 40, 40, 0), float32] /* ty=Tensor[(1, 40, 40, 0), float32] span=from_string:104:22 */, Primitive=1) -> Tensor[(0, 40, 40, 1), float32] {
    layout_transform(%p020, src_layout="NHWC", dst_layout="CHWN") /* ty=Tensor[(0, 40, 40, 1), float32] span=from_string:104:5 */
  } /* ty=fn (Tensor[(1, 40, 40, 0), float32]) -> Tensor[(0, 40, 40, 1), float32] span=from_string:106:113 */;
  %40 = %39(%38) /* ty=Tensor[(0, 40, 40, 1), float32] span=from_string:106:113 */;
  %41 = fn (%p021: Tensor[(0, 40, 40, 1), float32] /* ty=Tensor[(0, 40, 40, 1), float32] span=from_string:108:13 */, Primitive=1) -> Tensor[(0, 40, 40, 1), float32] {
    nn.relu(%p021) /* ty=Tensor[(0, 40, 40, 1), float32] span=from_string:108:5 */
  } /* ty=fn (Tensor[(0, 40, 40, 1), float32]) -> Tensor[(0, 40, 40, 1), float32] span=from_string:110:113 */;
  %42 = %6(%5, 2f /* ty=float32 span=from_string:17:65 */, 0 /* ty=int32 span=from_string:18:62 */) /* ty=int8 span=from_string:22:60 */;
  %43 = %14(%13, 1f /* ty=float32 span=from_string:36:67 */) /* ty=Tensor[(1, 6, 10, 10), float32] span=from_string:40:113 */;
  %44 = %17(%8, %16) /* ty=Tensor[(1, 3, 5, 5), float32] span=from_string:48:109 */;
  %45 = %27(%26) /* ty=Tensor[(1, 10, 5), int32] span=from_string:75:103 */;
  %46 = %32(%31, %x2) /* ty=Tensor[(92, 10, 5), float32] span=from_string:89:107 */;
  %47 = %36(%35) /* ty=Tensor[(1, 6, 10, 123), float32] span=from_string:98:115 */;
  %48 = %41(%40) /* ty=Tensor[(0, 40, 40, 1), float32] span=from_string:110:113 */;
  (%42, %43, %44, %45, 600 /* ty=int32 span=from_string:76:66 */, 20.0855f /* ty=float32 span=from_string:77:73 */, %46, %47, %48) /* ty=(int8, Tensor[(1, 6, 10, 10), float32], Tensor[(1, 3, 5, 5), float32], Tensor[(1, 10, 5), int32], int32, float32, Tensor[(92, 10, 5), float32], Tensor[(1, 6, 10, 123), float32], Tensor[(0, 40, 40, 1), float32]) span=from_string:111:476 */
}
