#[version = "0.0.5"]
def @main(%x0: Tensor[(1, 3, 10, 10), int8] /* ty=Tensor[(1, 3, 10, 10), int8] span=from_string:47:120 */, %x1: Tensor[(1, 6, 10, 10), float32] /* ty=Tensor[(1, 6, 10, 10), float32] span=from_string:80:127 */, %x2: Tensor[(92), int64] /* ty=Tensor[(92), int64] span=from_string:76:121 */, %x3: Tensor[(1, 6, 10, 41), float32] /* ty=Tensor[(1, 6, 10, 41), float32] span=from_string:81:257 */, %x4: Tensor[(1, 6, 10, 72), float32] /* ty=Tensor[(1, 6, 10, 72), float32] span=from_string:81:262 */) -> (int8, Tensor[(1, 6, 10, 10), float32], Tensor[(1, 3, 5, 5), float32], Tensor[(1, 10, 5), int32], int32, float32, Tensor[(92, 10, 5), float32], Tensor[(1, 6, 10, 123), float32], Tensor[(0, 40, 40, 1), float32]) {
  %0 = fn (%p0: Tensor[(1, 3, 10, 10), int8] /* ty=Tensor[(1, 3, 10, 10), int8] span=from_string:4:20 */, Primitive=1) -> Tensor[(1, 3, 10, 10), float32] {
    qnn.dequantize(%p0, 2f /* ty=float32 span=from_string:4:27 */, 0 /* ty=int32 span=from_string:4:69 */) /* ty=Tensor[(1, 3, 10, 10), float32] span=from_string:4:5 */
  } /* ty=fn (Tensor[(1, 3, 10, 10), int8]) -> Tensor[(1, 3, 10, 10), float32] span=from_string:3:3 */;
  %1 = %0(%x0) /* ty=Tensor[(1, 3, 10, 10), float32] span=from_string:6:112 */;
  %2 = fn (%p01: Tensor[(1, 3, 10, 10), float32] /* ty=Tensor[(1, 3, 10, 10), float32] span=from_string:8:23 */, Primitive=1) -> Tensor[(1, 0, 40, 40), float32] {
    nn.depth_to_space(%p01, block_size=4) /* ty=Tensor[(1, 0, 40, 40), float32] span=from_string:8:5 */
  } /* ty=fn (Tensor[(1, 3, 10, 10), float32]) -> Tensor[(1, 0, 40, 40), float32] span=from_string:7:3 */;
  %3 = %2(%1) /* ty=Tensor[(1, 0, 40, 40), float32] span=from_string:10:112 */;
  %4 = fn (%p02: Tensor[(1, 0, 40, 40), float32] /* ty=Tensor[(1, 0, 40, 40), float32] span=from_string:12:10 */, Primitive=1) -> float32 {
    max(%p02) /* ty=float32 span=from_string:12:6 */
  } /* ty=fn (Tensor[(1, 0, 40, 40), float32]) -> float32 span=from_string:11:3 */;
  %5 = %4(%3) /* ty=float32 span=from_string:14:63 */;
  %6 = fn (%p03: float32 /* ty=float32 span=from_string:16:18 */, Primitive=1) -> int8 {
    qnn.quantize(%p03, 2f /* ty=float32 span=from_string:16:26 */, 0 /* ty=int32 span=from_string:16:69 */, out_dtype="int8") /* ty=int8 span=from_string:16:5 */
  } /* ty=fn (float32) -> int8 span=from_string:15:3 */;
  %7 = fn (%p04: Tensor[(1, 3, 10, 10), float32] /* ty=Tensor[(1, 3, 10, 10), float32] span=from_string:20:20 */, Primitive=1) -> Tensor[(1, 3, 5, 5), float32] {
    nn.max_pool2d(%p04, pool_size=[2, 2], strides=[2, 2], padding=[0, 0, 0, 0]) /* ty=Tensor[(1, 3, 5, 5), float32] span=from_string:20:5 */
  } /* ty=fn (Tensor[(1, 3, 10, 10), float32]) -> Tensor[(1, 3, 5, 5), float32] span=from_string:19:3 */;
  %8 = %7(%1) /* ty=Tensor[(1, 3, 5, 5), float32] span=from_string:22:108 */;
  %9 = fn (%p05: Tensor[(1, 3, 5, 5), float32] /* ty=Tensor[(1, 3, 5, 5), float32] span=from_string:24:19 */, Primitive=1) -> Tensor[(1, 3, 10, 10), float32] {
    nn.upsampling(%p05, scale_h=2f, scale_w=2f) /* ty=Tensor[(1, 3, 10, 10), float32] span=from_string:24:5 */
  } /* ty=fn (Tensor[(1, 3, 5, 5), float32]) -> Tensor[(1, 3, 10, 10), float32] span=from_string:23:3 */;
  %10 = %9(%8) /* ty=Tensor[(1, 3, 10, 10), float32] span=from_string:26:112 */;
  %11 = (%10, %1) /* ty=(Tensor[(1, 3, 10, 10), float32], Tensor[(1, 3, 10, 10), float32]) span=from_string:27:183 */;
  %12 = fn (%p06: (Tensor[(1, 3, 10, 10), float32], Tensor[(1, 3, 10, 10), float32]) /* ty=(Tensor[(1, 3, 10, 10), float32], Tensor[(1, 3, 10, 10), float32]) span=from_string:29:17 */, Primitive=1) -> Tensor[(1, 6, 10, 10), float32] {
    concatenate(%p06, axis=1) /* ty=Tensor[(1, 6, 10, 10), float32] span=from_string:29:5 */
  } /* ty=fn ((Tensor[(1, 3, 10, 10), float32], Tensor[(1, 3, 10, 10), float32])) -> Tensor[(1, 6, 10, 10), float32] span=from_string:28:3 */;
  %13 = %12(%11) /* ty=Tensor[(1, 6, 10, 10), float32] span=from_string:31:113 */;
  %14 = fn (%p07: Tensor[(1, 6, 10, 10), float32] /* ty=Tensor[(1, 6, 10, 10), float32] span=from_string:33:9 */, Primitive=1) -> Tensor[(1, 6, 10, 10), float32] {
    add(%p07, 1f /* ty=float32 span=from_string:33:17 */) /* ty=Tensor[(1, 6, 10, 10), float32] span=from_string:33:5 */
  } /* ty=fn (Tensor[(1, 6, 10, 10), float32]) -> Tensor[(1, 6, 10, 10), float32] span=from_string:32:3 */;
  %15 = fn (Primitive=1) -> Tensor[(1), float32] {
    zeros(shape=[1], dtype="float32") /* ty=Tensor[(1), float32] span=from_string:37:5 */
  } /* ty=fn () -> Tensor[(1), float32] span=from_string:36:3 */;
  %16 = %15() /* ty=Tensor[(1), float32] span=from_string:39:91 */;
  %17 = fn (%p08: Tensor[(1, 3, 5, 5), float32] /* ty=Tensor[(1, 3, 5, 5), float32] span=from_string:41:9 */, %p1: Tensor[(1), float32] /* ty=Tensor[(1), float32] span=from_string:41:15 */, Primitive=1) -> Tensor[(1, 3, 5, 5), float32] {
    add(%p08, %p1) /* ty=Tensor[(1, 3, 5, 5), float32] span=from_string:41:5 */
  } /* ty=fn (Tensor[(1, 3, 5, 5), float32], Tensor[(1), float32]) -> Tensor[(1, 3, 5, 5), float32] span=from_string:40:3 */;
  %18 = fn (%p09: Tensor[(1, 3, 10, 10), int8] /* ty=Tensor[(1, 3, 10, 10), int8] span=from_string:45:20 */, Primitive=1) -> Tensor[(1, 3, 10, 10), float32] {
    qnn.dequantize(%p09, 2f /* ty=float32 span=from_string:45:28 */, 0 /* ty=int32 span=from_string:45:71 */) /* ty=Tensor[(1, 3, 10, 10), float32] span=from_string:45:5 */
  } /* ty=fn (Tensor[(1, 3, 10, 10), int8]) -> Tensor[(1, 3, 10, 10), float32] span=from_string:44:3 */;
  %19 = %18(%x0) /* ty=Tensor[(1, 3, 10, 10), float32] span=from_string:47:113 */;
  %20 = fn (%p010: Tensor[(1, 3, 10, 10), float32] /* ty=Tensor[(1, 3, 10, 10), float32] span=from_string:49:11 */, Primitive=1) -> (Tensor[(1, 3, 10, 5), float32], Tensor[(1, 3, 10, 5), float32]) {
    split(%p010, indices_or_sections=2, axis=3) /* ty=(Tensor[(1, 3, 10, 5), float32], Tensor[(1, 3, 10, 5), float32]) span=from_string:49:5 */
  } /* ty=fn (Tensor[(1, 3, 10, 10), float32]) -> (Tensor[(1, 3, 10, 5), float32], Tensor[(1, 3, 10, 5), float32]) span=from_string:48:3 */;
  %21 = %20(%19) /* ty=(Tensor[(1, 3, 10, 5), float32], Tensor[(1, 3, 10, 5), float32]) span=from_string:51:179 */;
  %22 = %21.0 /* ty=Tensor[(1, 3, 10, 5), float32] span=from_string:52:111 */;
  %23 = fn (%p011: Tensor[(1, 3, 10, 5), float32] /* ty=Tensor[(1, 3, 10, 5), float32] span=from_string:54:18 */, Primitive=1) -> Tensor[(1, 3, 10, 5), int8] {
    qnn.quantize(%p011, 2f /* ty=float32 span=from_string:54:27 */, 0 /* ty=int32 span=from_string:54:70 */, out_dtype="int8") /* ty=Tensor[(1, 3, 10, 5), int8] span=from_string:54:5 */
  } /* ty=fn (Tensor[(1, 3, 10, 5), float32]) -> Tensor[(1, 3, 10, 5), int8] span=from_string:53:3 */;
  %24 = %23(%22) /* ty=Tensor[(1, 3, 10, 5), int8] span=from_string:56:107 */;
  %25 = fn (%p012: Tensor[(1, 3, 10, 5), int8] /* ty=Tensor[(1, 3, 10, 5), int8] span=from_string:58:20 */, Primitive=1) -> Tensor[(1, 3, 10, 5), float32] {
    qnn.dequantize(%p012, 2f /* ty=float32 span=from_string:58:29 */, 0 /* ty=int32 span=from_string:58:72 */) /* ty=Tensor[(1, 3, 10, 5), float32] span=from_string:58:5 */
  } /* ty=fn (Tensor[(1, 3, 10, 5), int8]) -> Tensor[(1, 3, 10, 5), float32] span=from_string:57:3 */;
  %26 = %25(%24) /* ty=Tensor[(1, 3, 10, 5), float32] span=from_string:60:111 */;
  %27 = fn (%p013: Tensor[(1, 3, 10, 5), float32] /* ty=Tensor[(1, 3, 10, 5), float32] span=from_string:62:12 */, Primitive=1) -> Tensor[(1, 10, 5), int32] {
    argmin(%p013, axis=[1]) /* ty=Tensor[(1, 10, 5), int32] span=from_string:62:5 */
  } /* ty=fn (Tensor[(1, 3, 10, 5), float32]) -> Tensor[(1, 10, 5), int32] span=from_string:61:3 */;
  %28 = fn (%p014: Tensor[(1, 3, 10, 5), float32] /* ty=Tensor[(1, 3, 10, 5), float32] span=from_string:66:13 */, Primitive=1, relay.reshape_only=1) -> Tensor[(3, 10, 5), float32] {
    squeeze(%p014) /* ty=Tensor[(3, 10, 5), float32] span=from_string:66:5 */
  } /* ty=fn (Tensor[(1, 3, 10, 5), float32]) -> Tensor[(3, 10, 5), float32] span=from_string:65:3 */;
  %29 = %28(%26) /* ty=Tensor[(3, 10, 5), float32] span=from_string:68:105 */;
  %30 = fn (%p015: Tensor[(3, 10, 5), float32] /* ty=Tensor[(3, 10, 5), float32] span=from_string:70:19 */, Primitive=1) -> Tensor[(3, 10, 5), float32] {
    strided_slice(%p015, begin=[0, 0, 0], end=[3, 10, 5], strides=[1, 1, 1], axes=None) /* ty=Tensor[(3, 10, 5), float32] span=from_string:70:5 */
  } /* ty=fn (Tensor[(3, 10, 5), float32]) -> Tensor[(3, 10, 5), float32] span=from_string:69:3 */;
  %31 = %30(%29) /* ty=Tensor[(3, 10, 5), float32] span=from_string:72:106 */;
  %32 = fn (%p016: Tensor[(3, 10, 5), float32] /* ty=Tensor[(3, 10, 5), float32] span=from_string:74:10 */, %p11: Tensor[(92), int64] /* ty=Tensor[(92), int64] span=from_string:74:17 */, Primitive=1) -> Tensor[(92, 10, 5), float32] {
    take(%p016, %p11, axis=0) /* ty=Tensor[(92, 10, 5), float32] span=from_string:74:5 */
  } /* ty=fn (Tensor[(3, 10, 5), float32], Tensor[(92), int64]) -> Tensor[(92, 10, 5), float32] span=from_string:73:3 */;
  %33 = fn (%p017: Tensor[(1, 6, 10, 10), float32] /* ty=Tensor[(1, 6, 10, 10), float32] span=from_string:78:9 */, %p12: Tensor[(1, 6, 10, 10), float32] /* ty=Tensor[(1, 6, 10, 10), float32] span=from_string:78:16 */, Primitive=1) -> Tensor[(1, 6, 10, 10), float32] {
    add(%p017, %p12) /* ty=Tensor[(1, 6, 10, 10), float32] span=from_string:78:5 */
  } /* ty=fn (Tensor[(1, 6, 10, 10), float32], Tensor[(1, 6, 10, 10), float32]) -> Tensor[(1, 6, 10, 10), float32] span=from_string:77:3 */;
  %34 = %33(%13, %x1) /* ty=Tensor[(1, 6, 10, 10), float32] span=from_string:80:113 */;
  %35 = (%34, %x3, %x4) /* ty=(Tensor[(1, 6, 10, 10), float32], Tensor[(1, 6, 10, 41), float32], Tensor[(1, 6, 10, 72), float32]) span=from_string:81:249 */;
  %36 = fn (%p018: (Tensor[(1, 6, 10, 10), float32], Tensor[(1, 6, 10, 41), float32], Tensor[(1, 6, 10, 72), float32]) /* ty=(Tensor[(1, 6, 10, 10), float32], Tensor[(1, 6, 10, 41), float32], Tensor[(1, 6, 10, 72), float32]) span=from_string:83:17 */, Primitive=1) -> Tensor[(1, 6, 10, 123), float32] {
    concatenate(%p018, axis=3) /* ty=Tensor[(1, 6, 10, 123), float32] span=from_string:83:5 */
  } /* ty=fn ((Tensor[(1, 6, 10, 10), float32], Tensor[(1, 6, 10, 41), float32], Tensor[(1, 6, 10, 72), float32])) -> Tensor[(1, 6, 10, 123), float32] span=from_string:82:3 */;
  %37 = fn (%p019: Tensor[(1, 0, 40, 40), float32] /* ty=Tensor[(1, 0, 40, 40), float32] span=from_string:87:22 */, Primitive=1) -> Tensor[(1, 40, 40, 0), float32] {
    layout_transform(%p019, src_layout="NCHW", dst_layout="NHWC") /* ty=Tensor[(1, 40, 40, 0), float32] span=from_string:87:5 */
  } /* ty=fn (Tensor[(1, 0, 40, 40), float32]) -> Tensor[(1, 40, 40, 0), float32] span=from_string:86:3 */;
  %38 = %37(%3) /* ty=Tensor[(1, 40, 40, 0), float32] span=from_string:89:113 */;
  %39 = fn (%p020: Tensor[(1, 40, 40, 0), float32] /* ty=Tensor[(1, 40, 40, 0), float32] span=from_string:91:22 */, Primitive=1) -> Tensor[(0, 40, 40, 1), float32] {
    layout_transform(%p020, src_layout="NHWC", dst_layout="CHWN") /* ty=Tensor[(0, 40, 40, 1), float32] span=from_string:91:5 */
  } /* ty=fn (Tensor[(1, 40, 40, 0), float32]) -> Tensor[(0, 40, 40, 1), float32] span=from_string:90:3 */;
  %40 = %39(%38) /* ty=Tensor[(0, 40, 40, 1), float32] span=from_string:93:113 */;
  %41 = fn (%p021: Tensor[(0, 40, 40, 1), float32] /* ty=Tensor[(0, 40, 40, 1), float32] span=from_string:95:13 */, Primitive=1) -> Tensor[(0, 40, 40, 1), float32] {
    nn.relu(%p021) /* ty=Tensor[(0, 40, 40, 1), float32] span=from_string:95:5 */
  } /* ty=fn (Tensor[(0, 40, 40, 1), float32]) -> Tensor[(0, 40, 40, 1), float32] span=from_string:94:3 */;
  %42 = %6(%5) /* ty=int8 span=from_string:18:60 */;
  %43 = %14(%13) /* ty=Tensor[(1, 6, 10, 10), float32] span=from_string:35:113 */;
  %44 = %17(%8, %16) /* ty=Tensor[(1, 3, 5, 5), float32] span=from_string:43:109 */;
  %45 = %27(%26) /* ty=Tensor[(1, 10, 5), int32] span=from_string:64:103 */;
  %46 = %32(%31, %x2) /* ty=Tensor[(92, 10, 5), float32] span=from_string:76:107 */;
  %47 = %36(%35) /* ty=Tensor[(1, 6, 10, 123), float32] span=from_string:85:115 */;
  %48 = %41(%40) /* ty=Tensor[(0, 40, 40, 1), float32] span=from_string:97:113 */;
  (%42, %43, %44, %45, 600 /* ty=int32 span=from_string:98:19 */, 20.0855f /* ty=float32 span=from_string:99:23 */, %46, %47, %48) /* ty=(int8, Tensor[(1, 6, 10, 10), float32], Tensor[(1, 3, 5, 5), float32], Tensor[(1, 10, 5), int32], int32, float32, Tensor[(92, 10, 5), float32], Tensor[(1, 6, 10, 123), float32], Tensor[(0, 40, 40, 1), float32]) span=from_string:100:475 */
}
