#[version = "0.0.5"]
def @main(%x0: Tensor[(1, 3, 10, 10), int8] /* ty=Tensor[(1, 3, 10, 10), int8] span=from_string:13:24 */, %x1: Tensor[(1, 6, 10, 10), float32] /* ty=Tensor[(1, 6, 10, 10), float32] span=from_string:21:18 */, %x2: Tensor[(92), int64] /* ty=Tensor[(92), int64] span=from_string:33:19 */, %x3: Tensor[(1, 6, 10, 41), float32] /* ty=Tensor[(1, 6, 10, 41), float32] span=from_string:22:15 */, %x4: Tensor[(1, 6, 10, 72), float32] /* ty=Tensor[(1, 6, 10, 72), float32] span=from_string:24:10 */) -> (int8, Tensor[(1, 6, 10, 10), float32], Tensor[(1, 3, 5, 5), float32], Tensor[(1, 10, 5), int32], int32, float32, Tensor[(92, 10, 5), float32], Tensor[(1, 6, 10, 123), float32], Tensor[(0, 40, 40, 1), float32]) {
  let %x_0 = 2f /* ty=float32 span=from_string:3:30 */;
  let %x_1 = 0 /* ty=int32 span=from_string:3:72 */;
  let %x_2 = qnn.dequantize(%x0, %x_0, %x_1);
  let %x_3 = nn.depth_to_space(%x_2, block_size=4);
  let %x_4 = max(%x_3);
  let %x_5 = 2f /* ty=float32 span=from_string:30:28 */;
  let %x_6 = 0 /* ty=int32 span=from_string:30:71 */;
  let %x_7 = qnn.quantize(%x_4, %x_5, %x_6, out_dtype="int8");
  let %x_8 = nn.max_pool2d(%x_2, pool_size=[2, 2], strides=[2, 2], padding=[0, 0, 0, 0]);
  let %x_9 = nn.upsampling(%x_8, scale_h=2f, scale_w=2f);
  let %x_10 = (%x_9, %x_2) /* ty=(Tensor[(1, 3, 10, 10), float32], Tensor[(1, 3, 10, 10), float32]) span=from_string:20:21 */;
  let %x_11 = concatenate(%x_10, axis=1);
  let %x_12 = annotation.stop_fusion(%x_11);
  let %x_13 = (%x_12,) /* ty=(Tensor[(1, 6, 10, 10), float32],) span=from_string:12:20 */;
  let %x_14 = concatenate(%x_13, axis=1);
  let %x_15 = 1f /* ty=float32 span=from_string:31:19 */;
  let %x_16 = add(%x_14, %x_15);
  let %x_17 = 2f /* ty=float32 span=from_string:13:31 */;
  let %x_18 = 0 /* ty=int32 span=from_string:13:74 */;
  let %x_19 = qnn.dequantize(%x0, %x_17, %x_18);
  let %x_20 = split(%x_19, indices_or_sections=2, axis=3);
  let %x_21 = %x_20.0;
  let %x_22 = 2f /* ty=float32 span=from_string:16:29 */;
  let %x_23 = 0 /* ty=int32 span=from_string:16:72 */;
  let %x_24 = qnn.quantize(%x_21, %x_22, %x_23, out_dtype="int8");
  let %x_25 = 2f /* ty=float32 span=from_string:17:31 */;
  let %x_26 = 0 /* ty=int32 span=from_string:17:74 */;
  let %x_27 = qnn.dequantize(%x_24, %x_25, %x_26);
  let %x_28 = argmin(%x_27, axis=[1]);
  let %x_29 = 600 /* ty=int32 span=from_string:36:26 */;
  let %x_30 = 20.0855f /* ty=float32 span=from_string:36:74 */;
  let %x_31 = squeeze(%x_27);
  let %x_32 = strided_slice(%x_31, begin=[0, 0, 0], end=[3, 10, 5], strides=[1, 1, 1], axes=None);
  let %x_33 = take(%x_32, %x2, axis=0);
  let %x_34 = concatenate(%x_10, axis=1);
  let %x_35 = add(%x_34, %x1);
  let %x_36 = (%x_35, %x3) /* ty=(Tensor[(1, 6, 10, 10), float32], Tensor[(1, 6, 10, 41), float32]) span=from_string:23:21 */;
  let %x_37 = concatenate(%x_36, axis=3);
  let %x_38 = annotation.stop_fusion(%x_37);
  let %x_39 = (%x4,) /* ty=(Tensor[(1, 6, 10, 72), float32],) span=from_string:25:21 */;
  let %x_40 = concatenate(%x_39, axis=3);
  let %x_41 = annotation.stop_fusion(%x_40);
  let %x_42 = (%x_38, %x_41) /* ty=(Tensor[(1, 6, 10, 51), float32], Tensor[(1, 6, 10, 72), float32]) span=from_string:34:21 */;
  let %x_43 = concatenate(%x_42, axis=3);
  let %x_44 = transpose(%x_3, axes=[1, 2, 3, 0]);
  let %x_45 = nn.relu(%x_44);
  let %x_46 = (%x_7, %x_16, %x_8, %x_28, %x_29, %x_30, %x_33, %x_43, %x_45) /* ty=(int8, Tensor[(1, 6, 10, 10), float32], Tensor[(1, 3, 5, 5), float32], Tensor[(1, 10, 5), int32], int32, float32, Tensor[(92, 10, 5), float32], Tensor[(1, 6, 10, 123), float32], Tensor[(0, 40, 40, 1), float32]) span=from_string:3:3 */;
  %x_46
}
