#[version = "0.0.5"]
def @main(%x0: Tensor[(1, 3, 10, 10), int8] /* ty=Tensor[(1, 3, 10, 10), int8] span=from_string:46:115 */, %x1: Tensor[(1, 6, 10, 10), float32] /* ty=Tensor[(1, 6, 10, 10), float32] span=from_string:85:123 */, %x2: Tensor[(92), int64] /* ty=Tensor[(92), int64] span=from_string:81:117 */, %x3: Tensor[(1, 6, 10, 41), float32] /* ty=Tensor[(1, 6, 10, 41), float32] span=from_string:86:256 */, %x4: Tensor[(1, 6, 10, 72), float32] /* ty=Tensor[(1, 6, 10, 72), float32] span=from_string:86:261 */) -> (int8, Tensor[(1, 6, 10, 10), float32], Tensor[(1, 3, 5, 5), float32], Tensor[(1, 10, 5), int32], int32, float32, Tensor[(92, 10, 5), float32], Tensor[(1, 6, 10, 123), float32], Tensor[(0, 40, 40, 1), float32]) {
  let %x_0: float32 /* ty=float32 span=from_string:8:119 */ = 2f /* ty=float32 span=from_string:3:64 */;
  let %x_1: int32 /* ty=int32 span=from_string:8:125 */ = 0 /* ty=int32 span=from_string:4:61 */;
  %0 = fn (%p0: Tensor[(1, 3, 10, 10), int8] /* ty=Tensor[(1, 3, 10, 10), int8] span=from_string:6:20 */, %p1: float32 /* ty=float32 span=from_string:6:25 */, %p2: int32 /* ty=int32 span=from_string:6:30 */, Primitive=1) -> Tensor[(1, 3, 10, 10), float32] {
    qnn.dequantize(%p0, %p1, %p2) /* ty=Tensor[(1, 3, 10, 10), float32] span=from_string:6:5 */
  } /* ty=fn (Tensor[(1, 3, 10, 10), int8], float32, int32) -> Tensor[(1, 3, 10, 10), float32] span=from_string:8:111 */;
  let %x_2: Tensor[(1, 3, 10, 10), float32] /* ty=Tensor[(1, 3, 10, 10), float32] span=from_string:31:189 */ = %0(%x0, %x_0, %x_1) /* ty=Tensor[(1, 3, 10, 10), float32] span=from_string:8:111 */;
  %1 = fn (%p01: Tensor[(1, 3, 10, 10), float32] /* ty=Tensor[(1, 3, 10, 10), float32] span=from_string:10:23 */, Primitive=1) -> Tensor[(1, 0, 40, 40), float32] {
    nn.depth_to_space(%p01, block_size=4) /* ty=Tensor[(1, 0, 40, 40), float32] span=from_string:10:5 */
  } /* ty=fn (Tensor[(1, 3, 10, 10), float32]) -> Tensor[(1, 0, 40, 40), float32] span=from_string:12:111 */;
  let %x_3: Tensor[(1, 0, 40, 40), float32] /* ty=Tensor[(1, 0, 40, 40), float32] span=from_string:94:116 */ = %1(%x_2) /* ty=Tensor[(1, 0, 40, 40), float32] span=from_string:12:111 */;
  %2 = fn (%p02: Tensor[(1, 0, 40, 40), float32] /* ty=Tensor[(1, 0, 40, 40), float32] span=from_string:14:10 */, Primitive=1) -> float32 {
    max(%p02) /* ty=float32 span=from_string:14:6 */
  } /* ty=fn (Tensor[(1, 0, 40, 40), float32]) -> float32 span=from_string:16:63 */;
  let %x_4: float32 /* ty=float32 span=from_string:22:62 */ = %2(%x_3) /* ty=float32 span=from_string:16:63 */;
  let %x_5: float32 /* ty=float32 span=from_string:22:68 */ = 2f /* ty=float32 span=from_string:17:65 */;
  let %x_6: int32 /* ty=int32 span=from_string:22:74 */ = 0 /* ty=int32 span=from_string:18:62 */;
  %3 = fn (%p03: float32 /* ty=float32 span=from_string:20:18 */, %p11: float32 /* ty=float32 span=from_string:20:24 */, %p21: int32 /* ty=int32 span=from_string:20:30 */, Primitive=1) -> int8 {
    qnn.quantize(%p03, %p11, %p21, out_dtype="int8") /* ty=int8 span=from_string:20:5 */
  } /* ty=fn (float32, float32, int32) -> int8 span=from_string:22:59 */;
  let %x_7: int8 /* ty=int8 span=from_string:99:476 */ = %3(%x_4, %x_5, %x_6) /* ty=int8 span=from_string:22:59 */;
  %4 = fn (%p04: Tensor[(1, 3, 10, 10), float32] /* ty=Tensor[(1, 3, 10, 10), float32] span=from_string:24:20 */, Primitive=1) -> Tensor[(1, 3, 5, 5), float32] {
    nn.max_pool2d(%p04, pool_size=[2, 2], strides=[2, 2], padding=[0, 0, 0, 0]) /* ty=Tensor[(1, 3, 5, 5), float32] span=from_string:24:5 */
  } /* ty=fn (Tensor[(1, 3, 10, 10), float32]) -> Tensor[(1, 3, 5, 5), float32] span=from_string:26:107 */;
  let %x_8: Tensor[(1, 3, 5, 5), float32] /* ty=Tensor[(1, 3, 5, 5), float32] span=from_string:99:489 */ = %4(%x_2) /* ty=Tensor[(1, 3, 5, 5), float32] span=from_string:26:107 */;
  %5 = fn (%p05: Tensor[(1, 3, 5, 5), float32] /* ty=Tensor[(1, 3, 5, 5), float32] span=from_string:28:19 */, Primitive=1) -> Tensor[(1, 3, 10, 10), float32] {
    nn.upsampling(%p05, scale_h=2f, scale_w=2f) /* ty=Tensor[(1, 3, 10, 10), float32] span=from_string:28:5 */
  } /* ty=fn (Tensor[(1, 3, 5, 5), float32]) -> Tensor[(1, 3, 10, 10), float32] span=from_string:30:111 */;
  let %x_9: Tensor[(1, 3, 10, 10), float32] /* ty=Tensor[(1, 3, 10, 10), float32] span=from_string:31:183 */ = %5(%x_8) /* ty=Tensor[(1, 3, 10, 10), float32] span=from_string:30:111 */;
  let %x_10: (Tensor[(1, 3, 10, 10), float32], Tensor[(1, 3, 10, 10), float32]) /* ty=(Tensor[(1, 3, 10, 10), float32], Tensor[(1, 3, 10, 10), float32]) span=from_string:35:115 */ = (%x_9, %x_2) /* ty=(Tensor[(1, 3, 10, 10), float32], Tensor[(1, 3, 10, 10), float32]) span=from_string:31:182 */;
  %6 = fn (%p06: (Tensor[(1, 3, 10, 10), float32], Tensor[(1, 3, 10, 10), float32]) /* ty=(Tensor[(1, 3, 10, 10), float32], Tensor[(1, 3, 10, 10), float32]) span=from_string:33:17 */, Primitive=1) -> Tensor[(1, 6, 10, 10), float32] {
    concatenate(%p06, axis=1) /* ty=Tensor[(1, 6, 10, 10), float32] span=from_string:33:5 */
  } /* ty=fn ((Tensor[(1, 3, 10, 10), float32], Tensor[(1, 3, 10, 10), float32])) -> Tensor[(1, 6, 10, 10), float32] span=from_string:35:112 */;
  let %x_11: Tensor[(1, 6, 10, 10), float32] /* ty=Tensor[(1, 6, 10, 10), float32] span=from_string:85:116 */ = %6(%x_10) /* ty=Tensor[(1, 6, 10, 10), float32] span=from_string:35:112 */;
  let %x_12: float32 /* ty=float32 span=from_string:40:122 */ = 1f /* ty=float32 span=from_string:36:66 */;
  %7 = fn (%p07: Tensor[(1, 6, 10, 10), float32] /* ty=Tensor[(1, 6, 10, 10), float32] span=from_string:38:9 */, %p12: float32 /* ty=float32 span=from_string:38:15 */, Primitive=1) -> Tensor[(1, 6, 10, 10), float32] {
    add(%p07, %p12) /* ty=Tensor[(1, 6, 10, 10), float32] span=from_string:38:5 */
  } /* ty=fn (Tensor[(1, 6, 10, 10), float32], float32) -> Tensor[(1, 6, 10, 10), float32] span=from_string:40:112 */;
  let %x_13: Tensor[(1, 6, 10, 10), float32] /* ty=Tensor[(1, 6, 10, 10), float32] span=from_string:99:482 */ = %7(%x_11, %x_12) /* ty=Tensor[(1, 6, 10, 10), float32] span=from_string:40:112 */;
  let %x_14: float32 /* ty=float32 span=from_string:46:120 */ = 2f /* ty=float32 span=from_string:41:66 */;
  let %x_15: int32 /* ty=int32 span=from_string:46:127 */ = 0 /* ty=int32 span=from_string:42:63 */;
  %8 = fn (%p08: Tensor[(1, 3, 10, 10), int8] /* ty=Tensor[(1, 3, 10, 10), int8] span=from_string:44:20 */, %p13: float32 /* ty=float32 span=from_string:44:26 */, %p22: int32 /* ty=int32 span=from_string:44:32 */, Primitive=1) -> Tensor[(1, 3, 10, 10), float32] {
    qnn.dequantize(%p08, %p13, %p22) /* ty=Tensor[(1, 3, 10, 10), float32] span=from_string:44:5 */
  } /* ty=fn (Tensor[(1, 3, 10, 10), int8], float32, int32) -> Tensor[(1, 3, 10, 10), float32] span=from_string:46:112 */;
  let %x_16: Tensor[(1, 3, 10, 10), float32] /* ty=Tensor[(1, 3, 10, 10), float32] span=from_string:50:181 */ = %8(%x0, %x_14, %x_15) /* ty=Tensor[(1, 3, 10, 10), float32] span=from_string:46:112 */;
  %9 = fn (%p09: Tensor[(1, 3, 10, 10), float32] /* ty=Tensor[(1, 3, 10, 10), float32] span=from_string:48:11 */, Primitive=1) -> (Tensor[(1, 3, 10, 5), float32], Tensor[(1, 3, 10, 5), float32]) {
    split(%p09, indices_or_sections=2, axis=3) /* ty=(Tensor[(1, 3, 10, 5), float32], Tensor[(1, 3, 10, 5), float32]) span=from_string:48:5 */
  } /* ty=fn (Tensor[(1, 3, 10, 10), float32]) -> (Tensor[(1, 3, 10, 5), float32], Tensor[(1, 3, 10, 5), float32]) span=from_string:50:178 */;
  let %x_17: (Tensor[(1, 3, 10, 5), float32], Tensor[(1, 3, 10, 5), float32]) /* ty=(Tensor[(1, 3, 10, 5), float32], Tensor[(1, 3, 10, 5), float32]) span=from_string:51:110 */ = %9(%x_16) /* ty=(Tensor[(1, 3, 10, 5), float32], Tensor[(1, 3, 10, 5), float32]) span=from_string:50:178 */;
  let %x_18: Tensor[(1, 3, 10, 5), float32] /* ty=Tensor[(1, 3, 10, 5), float32] span=from_string:57:110 */ = %x_17.0 /* ty=Tensor[(1, 3, 10, 5), float32] span=from_string:51:110 */;
  let %x_19: float32 /* ty=float32 span=from_string:57:117 */ = 2f /* ty=float32 span=from_string:52:66 */;
  let %x_20: int32 /* ty=int32 span=from_string:57:124 */ = 0 /* ty=int32 span=from_string:53:63 */;
  %10 = fn (%p010: Tensor[(1, 3, 10, 5), float32] /* ty=Tensor[(1, 3, 10, 5), float32] span=from_string:55:18 */, %p14: float32 /* ty=float32 span=from_string:55:25 */, %p23: int32 /* ty=int32 span=from_string:55:31 */, Primitive=1) -> Tensor[(1, 3, 10, 5), int8] {
    qnn.quantize(%p010, %p14, %p23, out_dtype="int8") /* ty=Tensor[(1, 3, 10, 5), int8] span=from_string:55:5 */
  } /* ty=fn (Tensor[(1, 3, 10, 5), float32], float32, int32) -> Tensor[(1, 3, 10, 5), int8] span=from_string:57:106 */;
  let %x_21: Tensor[(1, 3, 10, 5), int8] /* ty=Tensor[(1, 3, 10, 5), int8] span=from_string:63:114 */ = %10(%x_18, %x_19, %x_20) /* ty=Tensor[(1, 3, 10, 5), int8] span=from_string:57:106 */;
  let %x_22: float32 /* ty=float32 span=from_string:63:121 */ = 2f /* ty=float32 span=from_string:58:66 */;
  let %x_23: int32 /* ty=int32 span=from_string:63:128 */ = 0 /* ty=int32 span=from_string:59:63 */;
  %11 = fn (%p011: Tensor[(1, 3, 10, 5), int8] /* ty=Tensor[(1, 3, 10, 5), int8] span=from_string:61:20 */, %p15: float32 /* ty=float32 span=from_string:61:27 */, %p24: int32 /* ty=int32 span=from_string:61:33 */, Primitive=1) -> Tensor[(1, 3, 10, 5), float32] {
    qnn.dequantize(%p011, %p15, %p24) /* ty=Tensor[(1, 3, 10, 5), float32] span=from_string:61:5 */
  } /* ty=fn (Tensor[(1, 3, 10, 5), int8], float32, int32) -> Tensor[(1, 3, 10, 5), float32] span=from_string:63:110 */;
  let %x_24: Tensor[(1, 3, 10, 5), float32] /* ty=Tensor[(1, 3, 10, 5), float32] span=from_string:73:108 */ = %11(%x_21, %x_22, %x_23) /* ty=Tensor[(1, 3, 10, 5), float32] span=from_string:63:110 */;
  %12 = fn (%p012: Tensor[(1, 3, 10, 5), float32] /* ty=Tensor[(1, 3, 10, 5), float32] span=from_string:65:12 */, Primitive=1) -> Tensor[(1, 10, 5), int32] {
    argmin(%p012, axis=[1]) /* ty=Tensor[(1, 10, 5), int32] span=from_string:65:5 */
  } /* ty=fn (Tensor[(1, 3, 10, 5), float32]) -> Tensor[(1, 10, 5), int32] span=from_string:67:102 */;
  let %x_25: Tensor[(1, 10, 5), int32] /* ty=Tensor[(1, 10, 5), int32] span=from_string:99:495 */ = %12(%x_24) /* ty=Tensor[(1, 10, 5), int32] span=from_string:67:102 */;
  let %x_26: int32 /* ty=int32 span=from_string:99:502 */ = 600 /* ty=int32 span=from_string:68:65 */;
  let %x_27: float32 /* ty=float32 span=from_string:99:509 */ = 20.0855f /* ty=float32 span=from_string:69:72 */;
  %13 = fn (%p013: Tensor[(1, 3, 10, 5), float32] /* ty=Tensor[(1, 3, 10, 5), float32] span=from_string:71:13 */, Primitive=1, relay.reshape_only=1) -> Tensor[(3, 10, 5), float32] {
    squeeze(%p013) /* ty=Tensor[(3, 10, 5), float32] span=from_string:71:5 */
  } /* ty=fn (Tensor[(1, 3, 10, 5), float32]) -> Tensor[(3, 10, 5), float32] span=from_string:73:104 */;
  let %x_28: Tensor[(3, 10, 5), float32] /* ty=Tensor[(3, 10, 5), float32] span=from_string:77:108 */ = %13(%x_24) /* ty=Tensor[(3, 10, 5), float32] span=from_string:73:104 */;
  %14 = fn (%p014: Tensor[(3, 10, 5), float32] /* ty=Tensor[(3, 10, 5), float32] span=from_string:75:19 */, Primitive=1) -> Tensor[(3, 10, 5), float32] {
    strided_slice(%p014, begin=[0, 0, 0], end=[3, 10, 5], strides=[1, 1, 1], axes=None) /* ty=Tensor[(3, 10, 5), float32] span=from_string:75:5 */
  } /* ty=fn (Tensor[(3, 10, 5), float32]) -> Tensor[(3, 10, 5), float32] span=from_string:77:104 */;
  let %x_29: Tensor[(3, 10, 5), float32] /* ty=Tensor[(3, 10, 5), float32] span=from_string:81:110 */ = %14(%x_28) /* ty=Tensor[(3, 10, 5), float32] span=from_string:77:104 */;
  %15 = fn (%p015: Tensor[(3, 10, 5), float32] /* ty=Tensor[(3, 10, 5), float32] span=from_string:79:10 */, %p16: Tensor[(92), int64] /* ty=Tensor[(92), int64] span=from_string:79:17 */, Primitive=1) -> Tensor[(92, 10, 5), float32] {
    take(%p015, %p16, axis=0) /* ty=Tensor[(92, 10, 5), float32] span=from_string:79:5 */
  } /* ty=fn (Tensor[(3, 10, 5), float32], Tensor[(92), int64]) -> Tensor[(92, 10, 5), float32] span=from_string:81:106 */;
  let %x_30: Tensor[(92, 10, 5), float32] /* ty=Tensor[(92, 10, 5), float32] span=from_string:99:516 */ = %15(%x_29, %x2) /* ty=Tensor[(92, 10, 5), float32] span=from_string:81:106 */;
  %16 = fn (%p016: Tensor[(1, 6, 10, 10), float32] /* ty=Tensor[(1, 6, 10, 10), float32] span=from_string:83:9 */, %p17: Tensor[(1, 6, 10, 10), float32] /* ty=Tensor[(1, 6, 10, 10), float32] span=from_string:83:16 */, Primitive=1) -> Tensor[(1, 6, 10, 10), float32] {
    add(%p016, %p17) /* ty=Tensor[(1, 6, 10, 10), float32] span=from_string:83:5 */
  } /* ty=fn (Tensor[(1, 6, 10, 10), float32], Tensor[(1, 6, 10, 10), float32]) -> Tensor[(1, 6, 10, 10), float32] span=from_string:85:112 */;
  let %x_31: Tensor[(1, 6, 10, 10), float32] /* ty=Tensor[(1, 6, 10, 10), float32] span=from_string:86:249 */ = %16(%x_11, %x1) /* ty=Tensor[(1, 6, 10, 10), float32] span=from_string:85:112 */;
  let %x_32: (Tensor[(1, 6, 10, 10), float32], Tensor[(1, 6, 10, 41), float32], Tensor[(1, 6, 10, 72), float32]) /* ty=(Tensor[(1, 6, 10, 10), float32], Tensor[(1, 6, 10, 41), float32], Tensor[(1, 6, 10, 72), float32]) span=from_string:90:118 */ = (%x_31, %x3, %x4) /* ty=(Tensor[(1, 6, 10, 10), float32], Tensor[(1, 6, 10, 41), float32], Tensor[(1, 6, 10, 72), float32]) span=from_string:86:248 */;
  %17 = fn (%p017: (Tensor[(1, 6, 10, 10), float32], Tensor[(1, 6, 10, 41), float32], Tensor[(1, 6, 10, 72), float32]) /* ty=(Tensor[(1, 6, 10, 10), float32], Tensor[(1, 6, 10, 41), float32], Tensor[(1, 6, 10, 72), float32]) span=from_string:88:17 */, Primitive=1) -> Tensor[(1, 6, 10, 123), float32] {
    concatenate(%p017, axis=3) /* ty=Tensor[(1, 6, 10, 123), float32] span=from_string:88:5 */
  } /* ty=fn ((Tensor[(1, 6, 10, 10), float32], Tensor[(1, 6, 10, 41), float32], Tensor[(1, 6, 10, 72), float32])) -> Tensor[(1, 6, 10, 123), float32] span=from_string:90:114 */;
  let %x_33: Tensor[(1, 6, 10, 123), float32] /* ty=Tensor[(1, 6, 10, 123), float32] span=from_string:99:523 */ = %17(%x_32) /* ty=Tensor[(1, 6, 10, 123), float32] span=from_string:90:114 */;
  %18 = fn (%p018: Tensor[(1, 0, 40, 40), float32] /* ty=Tensor[(1, 0, 40, 40), float32] span=from_string:92:15 */, Primitive=1) -> Tensor[(0, 40, 40, 1), float32] {
    transpose(%p018, axes=[1, 2, 3, 0]) /* ty=Tensor[(0, 40, 40, 1), float32] span=from_string:92:5 */
  } /* ty=fn (Tensor[(1, 0, 40, 40), float32]) -> Tensor[(0, 40, 40, 1), float32] span=from_string:94:112 */;
  let %x_34: Tensor[(0, 40, 40, 1), float32] /* ty=Tensor[(0, 40, 40, 1), float32] span=from_string:98:116 */ = %18(%x_3) /* ty=Tensor[(0, 40, 40, 1), float32] span=from_string:94:112 */;
  %19 = fn (%p019: Tensor[(0, 40, 40, 1), float32] /* ty=Tensor[(0, 40, 40, 1), float32] span=from_string:96:13 */, Primitive=1) -> Tensor[(0, 40, 40, 1), float32] {
    nn.relu(%p019) /* ty=Tensor[(0, 40, 40, 1), float32] span=from_string:96:5 */
  } /* ty=fn (Tensor[(0, 40, 40, 1), float32]) -> Tensor[(0, 40, 40, 1), float32] span=from_string:98:112 */;
  let %x_35: Tensor[(0, 40, 40, 1), float32] /* ty=Tensor[(0, 40, 40, 1), float32] span=from_string:99:530 */ = %19(%x_34) /* ty=Tensor[(0, 40, 40, 1), float32] span=from_string:98:112 */;
  let %x_36: (int8, Tensor[(1, 6, 10, 10), float32], Tensor[(1, 3, 5, 5), float32], Tensor[(1, 10, 5), int32], int32, float32, Tensor[(92, 10, 5), float32], Tensor[(1, 6, 10, 123), float32], Tensor[(0, 40, 40, 1), float32]) /* ty=(int8, Tensor[(1, 6, 10, 10), float32], Tensor[(1, 3, 5, 5), float32], Tensor[(1, 10, 5), int32], int32, float32, Tensor[(92, 10, 5), float32], Tensor[(1, 6, 10, 123), float32], Tensor[(0, 40, 40, 1), float32]) span=from_string:100:3 */ = (%x_7, %x_13, %x_8, %x_25, %x_26, %x_27, %x_30, %x_33, %x_35) /* ty=(int8, Tensor[(1, 6, 10, 10), float32], Tensor[(1, 3, 5, 5), float32], Tensor[(1, 10, 5), int32], int32, float32, Tensor[(92, 10, 5), float32], Tensor[(1, 6, 10, 123), float32], Tensor[(0, 40, 40, 1), float32]) span=from_string:99:475 */;
  %x_36
}
