#[version = "0.0.5"]
def @main(%x0: Tensor[(1, 3, 10, 10), int8] /* ty=Tensor[(1, 3, 10, 10), int8] span=from_string:12:14 */, %x1: Tensor[(1, 6, 10, 10), float32] /* ty=Tensor[(1, 6, 10, 10), float32] span=from_string:18:18 */, %x2: Tensor[(92), int64] /* ty=Tensor[(92), int64] span=from_string:31:19 */, %x3: Tensor[(1, 6, 10, 41), float32] /* ty=Tensor[(1, 6, 10, 41), float32] span=from_string:19:15 */, %x4: Tensor[(1, 6, 10, 72), float32] /* ty=Tensor[(1, 6, 10, 72), float32] span=from_string:21:10 */) -> (int8, Tensor[(1, 6, 10, 10), float32], Tensor[(1, 3, 5, 5), float32], Tensor[(1, 10, 5), int32], int32, float32, Tensor[(92, 10, 5), float32], Tensor[(1, 6, 10, 123), float32], Tensor[(0, 40, 40, 1), float32]) {
  let %x_0 = nn.depth_to_space(%x0, block_size=4);
  let %x_1 = max(%x_0);
  let %x_2 = 2f /* ty=float32 span=from_string:4:30 */;
  let %x_3 = 0 /* ty=int32 span=from_string:4:72 */;
  let %x_4 = qnn.dequantize(%x0, %x_2, %x_3);
  let %x_5 = nn.max_pool2d(%x_4, pool_size=[2, 2], strides=[2, 2], padding=[0, 0, 0, 0]);
  let %x_6 = nn.upsampling(%x_5, scale_h=2f, scale_w=2f);
  let %x_7 = (%x_6, %x_4) /* ty=(Tensor[(1, 3, 10, 10), float32], Tensor[(1, 3, 10, 10), float32]) span=from_string:17:21 */;
  let %x_8 = concatenate(%x_7, axis=1);
  let %x_9 = annotation.stop_fusion(%x_8);
  let %x_10 = (%x_9,) /* ty=(Tensor[(1, 6, 10, 10), float32],) span=from_string:11:20 */;
  let %x_11 = concatenate(%x_10, axis=1);
  let %x_12 = 1f /* ty=float32 span=from_string:29:19 */;
  let %x_13 = add(%x_11, %x_12);
  let %x_14 = split(%x0, indices_or_sections=2, axis=3);
  let %x_15 = %x_14.0;
  let %x_16 = 2f /* ty=float32 span=from_string:14:31 */;
  let %x_17 = 0 /* ty=int32 span=from_string:14:74 */;
  let %x_18 = qnn.dequantize(%x_15, %x_16, %x_17);
  let %x_19 = argmin(%x_18, axis=[1]);
  let %x_20 = 600 /* ty=int32 span=from_string:34:26 */;
  let %x_21 = 20.0855f /* ty=float32 span=from_string:34:74 */;
  let %x_22 = squeeze(%x_18);
  let %x_23 = strided_slice(%x_22, begin=[0, 0, 0], end=[3, 10, 5], strides=[1, 1, 1], axes=None);
  let %x_24 = take(%x_23, %x2, axis=0);
  let %x_25 = concatenate(%x_7, axis=1);
  let %x_26 = add(%x_25, %x1);
  let %x_27 = (%x_26, %x3) /* ty=(Tensor[(1, 6, 10, 10), float32], Tensor[(1, 6, 10, 41), float32]) span=from_string:20:21 */;
  let %x_28 = concatenate(%x_27, axis=3);
  let %x_29 = annotation.stop_fusion(%x_28);
  let %x_30 = (%x4,) /* ty=(Tensor[(1, 6, 10, 72), float32],) span=from_string:22:21 */;
  let %x_31 = concatenate(%x_30, axis=3);
  let %x_32 = annotation.stop_fusion(%x_31);
  let %x_33 = (%x_29, %x_32) /* ty=(Tensor[(1, 6, 10, 51), float32], Tensor[(1, 6, 10, 72), float32]) span=from_string:32:21 */;
  let %x_34 = concatenate(%x_33, axis=3);
  let %x_35 = nn.depth_to_space(%x_4, block_size=4);
  let %x_36 = transpose(%x_35, axes=[1, 2, 3, 0]);
  let %x_37 = nn.relu(%x_36);
  let %x_38 = (%x_1, %x_13, %x_5, %x_19, %x_20, %x_21, %x_24, %x_34, %x_37) /* ty=(int8, Tensor[(1, 6, 10, 10), float32], Tensor[(1, 3, 5, 5), float32], Tensor[(1, 10, 5), int32], int32, float32, Tensor[(92, 10, 5), float32], Tensor[(1, 6, 10, 123), float32], Tensor[(0, 40, 40, 1), float32]) span=from_string:3:3 */;
  %x_38
}
