#[version = "0.0.5"]
def @main(%x0: Tensor[(1, 224, 224, 3), int8] /* ty=Tensor[(1, 224, 224, 3), int8] span=from_string:59:13 */, %x1: Tensor[(16, 3, 5, 5), int8] /* ty=Tensor[(16, 3, 5, 5), int8] span=from_string:27:13 */, %x2: Tensor[(16), int32] /* ty=Tensor[(16), int32] span=from_string:17:11 */, %x3: Tensor[(84), int32] /* ty=Tensor[(84), int32] span=from_string:4:65 */) -> (Tensor[(1, 16, 220, 220), int8], Tensor[(16, 3, 3, 3), int8], Tensor[(16), int32], Tensor[(1, 16, 220, 220), float32], Tensor[(84), int32], Tensor[(1, 3, 1, 1), float32], Tensor[(16), float16], Tensor[(1, 224, 224, 3), int8], Tensor[(16, 3, 5, 5), float32], float32) {
  let %x4: Tensor[(16), int32] /* ty=Tensor[(16), int32] span=from_string:61:14 */ = %x2;
  let %x5: Tensor[(84), int32] /* ty=Tensor[(84), int32] */ = %x3;
  %4 = fn (%p01: Tensor[(1, 224, 224, 3), int8] /* ty=Tensor[(1, 224, 224, 3), int8] span=from_string:6:25 */, Primitive=1) -> Tensor[(1, 3, 224, 224), float32] {
    %3 = qnn.dequantize(%p01, 2f /* ty=float32 span=from_string:6:33 */, 0 /* ty=int32 span=from_string:6:75 */) /* ty=Tensor[(1, 224, 224, 3), float32] span=from_string:7:15 */;
    transpose(%3, axes=[0, 3, 1, 2]) /* ty=Tensor[(1, 3, 224, 224), float32] span=from_string:6:5 */
  } /* ty=fn (Tensor[(1, 224, 224, 3), int8]) -> Tensor[(1, 3, 224, 224), float32] span=from_string:15:8 */;
  %5 = fn (%p02: Tensor[(16, 3, 5, 5), int8] /* ty=Tensor[(16, 3, 5, 5), int8] span=from_string:10:20 */, Primitive=1) -> Tensor[(16, 3, 5, 5), float32] {
    qnn.dequantize(%p02, 0.5f /* ty=float32 span=from_string:10:30 */, 0 /* ty=int32 span=from_string:10:72 */) /* ty=Tensor[(16, 3, 5, 5), float32] span=from_string:10:5 */
  } /* ty=fn (Tensor[(16, 3, 5, 5), int8]) -> Tensor[(16, 3, 5, 5), float32] span=from_string:16:8 */;
  %6 = fn (%p03: Tensor[(16), int32] /* ty=Tensor[(16), int32] span=from_string:13:20 */, Primitive=1) -> Tensor[(16), float32] {
    qnn.dequantize(%p03, 2f /* ty=float32 span=from_string:13:28 */, 0 /* ty=int32 span=from_string:13:70 */) /* ty=Tensor[(16), float32] span=from_string:13:5 */
  } /* ty=fn (Tensor[(16), int32]) -> Tensor[(16), float32] span=from_string:17:8 */;
  %7 = %4(%x0) /* ty=Tensor[(1, 3, 224, 224), float32] span=from_string:57:13 */;
  %8 = %5(%x1) /* ty=Tensor[(16, 3, 5, 5), float32] span=from_string:53:17 */;
  %9 = %6(%x2) /* ty=Tensor[(16), float32] span=from_string:58:13 */;
  %10 = fn (%p0: Tensor[(1, 3, 224, 224), float32] /* ty=Tensor[(1, 3, 224, 224), float32] span=from_string:19:20 */, %p1: Tensor[(16, 3, 5, 5), float32] /* ty=Tensor[(16, 3, 5, 5), float32] span=from_string:19:25 */, %p2: Tensor[(16), float32] /* ty=Tensor[(16), float32] span=from_string:20:22 */, Primitive=1) -> Tensor[(1, 16, 220, 220), int8] {
    %0 = nn.conv2d(%p0, %p1, padding=[0, 0, 0, 0], kernel_size=[5, 5]) /* ty=Tensor[(1, 16, 220, 220), float32] span=from_string:21:14 */;
    %1 = expand_dims(%p2, axis=1, num_newaxis=2) /* ty=Tensor[(16, 1, 1), float32] span=from_string:21:18 */;
    %2 = add(%0, %1) /* ty=Tensor[(1, 16, 220, 220), float32] span=from_string:22:18 */;
    qnn.quantize(%2, 1f /* ty=float32 span=from_string:22:24 */, 0 /* ty=int32 span=from_string:22:67 */, out_dtype="int8") /* ty=Tensor[(1, 16, 220, 220), int8] span=from_string:19:5 */
  } /* ty=fn (Tensor[(1, 3, 224, 224), float32], Tensor[(16, 3, 5, 5), float32], Tensor[(16), float32]) -> Tensor[(1, 16, 220, 220), int8] span=from_string:53:9 */;
  %12 = fn (%p05: Tensor[(16, 3, 5, 5), int8] /* ty=Tensor[(16, 3, 5, 5), int8] span=from_string:25:20 */, Primitive=1) -> Tensor[(16, 3, 5, 5), float32] {
    qnn.dequantize(%p05, 2f /* ty=float32 span=from_string:25:28 */, -12 /* ty=int32 span=from_string:25:73 */) /* ty=Tensor[(16, 3, 5, 5), float32] span=from_string:25:5 */
  } /* ty=fn (Tensor[(16, 3, 5, 5), int8]) -> Tensor[(16, 3, 5, 5), float32] span=from_string:27:9 */;
  %13 = %12(%x1) /* ty=Tensor[(16, 3, 5, 5), float32] span=from_string:60:13 */;
  %14 = fn (%p04: Tensor[(16, 3, 5, 5), float32] /* ty=Tensor[(16, 3, 5, 5), float32] span=from_string:29:25 */, Primitive=1) -> Tensor[(16, 3, 3, 3), int8] {
    %11 = nn.avg_pool2d(%p04, pool_size=[3, 3], padding=[0, 0, 0, 0]) /* ty=Tensor[(16, 3, 3, 3), float32] span=from_string:30:18 */;
    qnn.quantize(%11, 0.5f /* ty=float32 span=from_string:30:27 */, 10 /* ty=int32 span=from_string:30:71 */, out_dtype="int8") /* ty=Tensor[(16, 3, 3, 3), int8] span=from_string:29:5 */
  } /* ty=fn (Tensor[(16, 3, 5, 5), float32]) -> Tensor[(16, 3, 3, 3), int8] span=from_string:54:9 */;
  %15 = fn (Primitive=1) -> Tensor[(1, 16, 220, 220), float32] {
    ones(shape=[1, 16, 220, 220], dtype="float32") /* ty=Tensor[(1, 16, 220, 220), float32] span=from_string:33:5 */
  } /* ty=fn () -> Tensor[(1, 16, 220, 220), float32] span=from_string:55:9 */;
  %16 = fn (Primitive=1) -> Tensor[(84), int32] {
    zeros(shape=[84], dtype="int32") /* ty=Tensor[(84), int32] span=from_string:36:5 */
  } /* ty=fn () -> Tensor[(84), int32] span=from_string:56:9 */;
  %17 = fn (%p06: Tensor[(1, 3, 224, 224), float32] /* ty=Tensor[(1, 3, 224, 224), float32] span=from_string:39:26 */, Primitive=1) -> Tensor[(1, 3, 1, 1), float32] {
    nn.global_max_pool2d(%p06) /* ty=Tensor[(1, 3, 1, 1), float32] span=from_string:39:5 */
  } /* ty=fn (Tensor[(1, 3, 224, 224), float32]) -> Tensor[(1, 3, 1, 1), float32] span=from_string:57:9 */;
  %19 = fn (%p07: Tensor[(16), float32] /* ty=Tensor[(16), float32] span=from_string:42:27 */, Primitive=1) -> Tensor[(16), float16] {
    %18 = nn.fast_softmax(%p07) /* ty=Tensor[(16), float32] span=from_string:43:10 */;
    cast(%18, dtype="float16") /* ty=Tensor[(16), float16] span=from_string:42:5 */
  } /* ty=fn (Tensor[(16), float32]) -> Tensor[(16), float16] span=from_string:58:9 */;
  %21 = fn (%p08: Tensor[(1, 224, 224, 3), int8] /* ty=Tensor[(1, 224, 224, 3), int8] span=from_string:46:26 */, Primitive=1) -> Tensor[(1, 224, 224, 3), int8] {
    %20 = qnn.dequantize(%p08, 0.1f /* ty=float32 span=from_string:46:36 */, 10 /* ty=int32 span=from_string:46:80 */) /* ty=Tensor[(1, 224, 224, 3), float32] span=from_string:47:18 */;
    qnn.quantize(%20, 0.1f /* ty=float32 span=from_string:47:27 */, 10 /* ty=int32 span=from_string:47:71 */, out_dtype="int8") /* ty=Tensor[(1, 224, 224, 3), int8] span=from_string:46:5 */
  } /* ty=fn (Tensor[(1, 224, 224, 3), int8]) -> Tensor[(1, 224, 224, 3), int8] span=from_string:59:9 */;
  %23 = fn (%p09: Tensor[(16, 3, 5, 5), float32] /* ty=Tensor[(16, 3, 5, 5), float32] span=from_string:50:17 */, Primitive=1) -> Tensor[(16, 3, 5, 5), float32] {
    %22 = rsqrt(%p09) /* ty=Tensor[(16, 3, 5, 5), float32] span=from_string:51:59 */;
    multiply(2f /* ty=float32 span=from_string:51:17 */, %22) /* ty=Tensor[(16, 3, 5, 5), float32] span=from_string:50:5 */
  } /* ty=fn (Tensor[(16, 3, 5, 5), float32]) -> Tensor[(16, 3, 5, 5), float32] span=from_string:60:9 */;
  %24 = %10(%7, %8, %9) /* ty=Tensor[(1, 16, 220, 220), int8] span=from_string:61:4 */;
  %25 = %14(%13) /* ty=Tensor[(16, 3, 3, 3), int8] span=from_string:61:9 */;
  %26 = %15() /* ty=Tensor[(1, 16, 220, 220), float32] span=from_string:61:19 */;
  %27 = %16() /* ty=Tensor[(84), int32] span=from_string:61:24 */;
  %28 = %17(%7) /* ty=Tensor[(1, 3, 1, 1), float32] span=from_string:61:29 */;
  %29 = %19(%9) /* ty=Tensor[(16), float16] span=from_string:61:34 */;
  %30 = %21(%x0) /* ty=Tensor[(1, 224, 224, 3), int8] span=from_string:61:39 */;
  %31 = %23(%13) /* ty=Tensor[(16, 3, 5, 5), float32] span=from_string:61:44 */;
  (%24, %25, %x4, %26, %27, %28, %29, %30, %31, 4f /* ty=float32 span=from_string:61:51 */) /* ty=(Tensor[(1, 16, 220, 220), int8], Tensor[(16, 3, 3, 3), int8], Tensor[(16), int32], Tensor[(1, 16, 220, 220), float32], Tensor[(84), int32], Tensor[(1, 3, 1, 1), float32], Tensor[(16), float16], Tensor[(1, 224, 224, 3), int8], Tensor[(16, 3, 5, 5), float32], float32) span=from_string:61:3 */
}
