#[version = "0.0.5"]
def @main(%x0: Tensor[(1, 3, 10, 10), int8] /* ty=Tensor[(1, 3, 10, 10), int8] span=from_string:10:23 */, %x1: Tensor[(1, 6, 10, 10), float32] /* ty=Tensor[(1, 6, 10, 10), float32] span=from_string:17:17 */, %x2: Tensor[(92), int64] /* ty=Tensor[(92), int64] span=from_string:23:19 */, %x3: Tensor[(1, 6, 10, 41), float32] /* ty=Tensor[(1, 6, 10, 41), float32] span=from_string:18:15 */, %x4: Tensor[(1, 6, 10, 72), float32] /* ty=Tensor[(1, 6, 10, 72), float32] span=from_string:18:20 */) -> (int8, Tensor[(1, 6, 10, 10), float32], Tensor[(1, 3, 5, 5), float32], Tensor[(1, 10, 5), int32], int32, float32, Tensor[(92, 10, 5), float32], Tensor[(1, 6, 10, 123), float32], Tensor[(0, 40, 40, 1), float32]) {
  %0 = qnn.dequantize(%x0, 2f /* ty=float32 span=from_string:3:30 */, 0 /* ty=int32 span=from_string:3:72 */);
  %1 = nn.depth_to_space(%0, block_size=4);
  %2 = max(%1);
  %3 = nn.max_pool2d(%0, pool_size=[2, 2], strides=[2, 2], padding=[0, 0, 0, 0]);
  %4 = nn.upsampling(%3, scale_h=2f, scale_w=2f);
  %5 = (%4, %0) /* ty=(Tensor[(1, 3, 10, 10), float32], Tensor[(1, 3, 10, 10), float32]) span=from_string:9:20 */;
  %6 = concatenate(%5, axis=1);
  %7 = qnn.dequantize(%x0, 2f /* ty=float32 span=from_string:10:30 */, 0 /* ty=int32 span=from_string:10:73 */);
  %8 = split(%7, indices_or_sections=2, axis=3);
  %9 = %8.0;
  %10 = qnn.quantize(%9, 2f /* ty=float32 span=from_string:13:28 */, 0 /* ty=int32 span=from_string:13:71 */, out_dtype="int8");
  %11 = qnn.dequantize(%10, 2f /* ty=float32 span=from_string:14:31 */, 0 /* ty=int32 span=from_string:14:74 */);
  %12 = squeeze(%11);
  %13 = strided_slice(%12, begin=[0, 0, 0], end=[3, 10, 5], strides=[1, 1, 1], axes=None);
  %14 = add(%6, %x1);
  %15 = (%14, %x3, %x4) /* ty=(Tensor[(1, 6, 10, 10), float32], Tensor[(1, 6, 10, 41), float32], Tensor[(1, 6, 10, 72), float32]) span=from_string:24:21 */;
  %16 = transpose(%1, axes=[1, 2, 3, 0]);
  %17 = qnn.quantize(%2, 2f /* ty=float32 span=from_string:20:28 */, 0 /* ty=int32 span=from_string:20:71 */, out_dtype="int8");
  %18 = add(%6, 1f /* ty=float32 span=from_string:21:19 */);
  %19 = argmin(%11, axis=[1]);
  %20 = take(%13, %x2, axis=0);
  %21 = concatenate(%15, axis=3);
  %22 = nn.relu(%16);
  (%17, %18, %3, %19, 600 /* ty=int32 span=from_string:26:26 */, 20.0855f /* ty=float32 span=from_string:26:74 */, %20, %21, %22) /* ty=(int8, Tensor[(1, 6, 10, 10), float32], Tensor[(1, 3, 5, 5), float32], Tensor[(1, 10, 5), int32], int32, float32, Tensor[(92, 10, 5), float32], Tensor[(1, 6, 10, 123), float32], Tensor[(0, 40, 40, 1), float32]) span=from_string:3:3 */
}
