#[version = "0.0.5"]
def @main(%x0: Tensor[(1, 3, 10, 10), int8] /* ty=Tensor[(1, 3, 10, 10), int8] span=from_string:3:23 */, %x1: Tensor[(1, 6, 10, 10), float32] /* ty=Tensor[(1, 6, 10, 10), float32] span=from_string:16:17 */, %x2: Tensor[(92), int64] /* ty=Tensor[(92), int64] span=from_string:22:19 */, %x3: Tensor[(1, 6, 10, 41), float32] /* ty=Tensor[(1, 6, 10, 41), float32] span=from_string:17:15 */, %x4: Tensor[(1, 6, 10, 72), float32] /* ty=Tensor[(1, 6, 10, 72), float32] span=from_string:17:20 */) -> (int8, Tensor[(1, 6, 10, 10), float32], Tensor[(1, 3, 5, 5), float32], Tensor[(1, 10, 5), int32], int32, float32, Tensor[(92, 10, 5), float32], Tensor[(1, 6, 10, 123), float32], Tensor[(0, 40, 40, 1), float32]) {
  %0 = qnn.dequantize(%x0, 2f /* ty=float32 span=from_string:3:30 */, 0 /* ty=int32 span=from_string:3:72 */) /* ty=Tensor[(1, 3, 10, 10), float32] span=from_string:10:14 */;
  %1 = nn.depth_to_space(%0, block_size=4) /* ty=Tensor[(1, 0, 40, 40), float32] span=from_string:18:19 */;
  %2 = max(%1) /* ty=float32 span=from_string:19:22 */;
  %3 = nn.max_pool2d(%0, pool_size=[2, 2], strides=[2, 2], padding=[0, 0, 0, 0]) /* ty=Tensor[(1, 3, 5, 5), float32] span=from_string:25:14 */;
  %4 = nn.upsampling(%3, scale_h=2f, scale_w=2f) /* ty=Tensor[(1, 3, 10, 10), float32] span=from_string:8:9 */;
  %5 = (%4, %0) /* ty=(Tensor[(1, 3, 10, 10), float32], Tensor[(1, 3, 10, 10), float32]) span=from_string:9:20 */;
  %6 = concatenate(%5, axis=1) /* ty=Tensor[(1, 6, 10, 10), float32] span=from_string:20:13 */;
  %7 = split(%0, indices_or_sections=2, axis=3) /* ty=(Tensor[(1, 3, 10, 5), float32], Tensor[(1, 3, 10, 5), float32]) span=from_string:11:8 */;
  %8 = %7.0 /* ty=Tensor[(1, 3, 10, 5), float32] span=from_string:12:21 */;
  %9 = qnn.quantize(%8, 2f /* ty=float32 span=from_string:12:27 */, 0 /* ty=int32 span=from_string:12:70 */, out_dtype="int8") /* ty=Tensor[(1, 3, 10, 5), int8] span=from_string:13:24 */;
  %10 = qnn.dequantize(%9, 2f /* ty=float32 span=from_string:13:30 */, 0 /* ty=int32 span=from_string:13:73 */) /* ty=Tensor[(1, 3, 10, 5), float32] span=from_string:21:16 */;
  %11 = squeeze(%10) /* ty=Tensor[(3, 10, 5), float32] span=from_string:15:23 */;
  %12 = strided_slice(%11, begin=[0, 0, 0], end=[3, 10, 5], strides=[1, 1, 1], axes=None) /* ty=Tensor[(3, 10, 5), float32] span=from_string:22:14 */;
  %13 = add(%6, %x1) /* ty=Tensor[(1, 6, 10, 10), float32] span=from_string:17:10 */;
  %14 = (%13, %x3, %x4) /* ty=(Tensor[(1, 6, 10, 10), float32], Tensor[(1, 6, 10, 41), float32], Tensor[(1, 6, 10, 72), float32]) span=from_string:23:21 */;
  %15 = transpose(%1, axes=[1, 2, 3, 0]) /* ty=Tensor[(0, 40, 40, 1), float32] span=from_string:24:17 */;
  %16 = qnn.quantize(%2, 2f /* ty=float32 span=from_string:19:28 */, 0 /* ty=int32 span=from_string:19:71 */, out_dtype="int8") /* ty=int8 span=from_string:25:4 */;
  %17 = add(%6, 1f /* ty=float32 span=from_string:20:19 */) /* ty=Tensor[(1, 6, 10, 10), float32] span=from_string:25:9 */;
  %18 = argmin(%10, axis=[1]) /* ty=Tensor[(1, 10, 5), int32] span=from_string:25:18 */;
  %19 = take(%12, %x2, axis=0) /* ty=Tensor[(92, 10, 5), float32] span=from_string:25:116 */;
  %20 = concatenate(%14, axis=3) /* ty=Tensor[(1, 6, 10, 123), float32] span=from_string:25:121 */;
  %21 = nn.relu(%15) /* ty=Tensor[(0, 40, 40, 1), float32] span=from_string:25:126 */;
  (%16, %17, %3, %18, 600 /* ty=int32 span=from_string:25:26 */, 20.0855f /* ty=float32 span=from_string:25:74 */, %19, %20, %21) /* ty=(int8, Tensor[(1, 6, 10, 10), float32], Tensor[(1, 3, 5, 5), float32], Tensor[(1, 10, 5), int32], int32, float32, Tensor[(92, 10, 5), float32], Tensor[(1, 6, 10, 123), float32], Tensor[(0, 40, 40, 1), float32]) span=from_string:3:3 */
}
