#[version = "0.0.5"]
def @main(%x0: Tensor[(1, 3, 10, 10), int8] /* ty=Tensor[(1, 3, 10, 10), int8] span=from_string:10:14 */, %x1: Tensor[(1, 6, 10, 10), float32] /* ty=Tensor[(1, 6, 10, 10), float32] span=from_string:15:17 */, %x2: Tensor[(92), int64] /* ty=Tensor[(92), int64] span=from_string:24:19 */, %x3: Tensor[(1, 6, 10, 41), float32] /* ty=Tensor[(1, 6, 10, 41), float32] span=from_string:16:15 */, %x4: Tensor[(1, 6, 10, 72), float32] /* ty=Tensor[(1, 6, 10, 72), float32] span=from_string:16:20 */) -> (int8, Tensor[(1, 6, 10, 10), float32], Tensor[(1, 3, 5, 5), float32], Tensor[(1, 10, 5), int32], int32, float32, Tensor[(92, 10, 5), float32], Tensor[(1, 6, 10, 123), float32], Tensor[(0, 40, 40, 1), float32]) {
  let %x_0 = nn.depth_to_space(%x0, block_size=4);
  let %x_1 = max(%x_0);
  let %x_2 = 2f /* ty=float32 span=from_string:4:30 */;
  let %x_3 = 0 /* ty=int32 span=from_string:4:72 */;
  let %x_4 = qnn.dequantize(%x0, %x_2, %x_3);
  let %x_5 = nn.max_pool2d(%x_4, pool_size=[2, 2], strides=[2, 2], padding=[0, 0, 0, 0]);
  let %x_6 = nn.upsampling(%x_5, scale_h=2f, scale_w=2f);
  let %x_7 = (%x_6, %x_4) /* ty=(Tensor[(1, 3, 10, 10), float32], Tensor[(1, 3, 10, 10), float32]) span=from_string:8:20 */;
  let %x_8 = concatenate(%x_7, axis=1);
  let %x_9 = 1f /* ty=float32 span=from_string:21:19 */;
  let %x_10 = add(%x_8, %x_9);
  let %x_11 = zeros(shape=[1], dtype="float32");
  let %x_12 = add(%x_5, %x_11);
  let %x_13 = split(%x0, indices_or_sections=2, axis=3);
  let %x_14 = %x_13.0;
  let %x_15 = 2f /* ty=float32 span=from_string:12:29 */;
  let %x_16 = 0 /* ty=int32 span=from_string:12:72 */;
  let %x_17 = qnn.dequantize(%x_14, %x_15, %x_16);
  let %x_18 = argmin(%x_17, axis=[1]);
  let %x_19 = 600 /* ty=int32 span=from_string:27:27 */;
  let %x_20 = 20.0855f /* ty=float32 span=from_string:27:75 */;
  let %x_21 = squeeze(%x_17);
  let %x_22 = strided_slice(%x_21, begin=[0, 0, 0], end=[3, 10, 5], strides=[1, 1, 1], axes=None);
  let %x_23 = take(%x_22, %x2, axis=0);
  let %x_24 = add(%x_8, %x1);
  let %x_25 = (%x_24, %x3, %x4) /* ty=(Tensor[(1, 6, 10, 10), float32], Tensor[(1, 6, 10, 41), float32], Tensor[(1, 6, 10, 72), float32]) span=from_string:25:21 */;
  let %x_26 = concatenate(%x_25, axis=3);
  let %x_27 = nn.depth_to_space(%x_4, block_size=4);
  let %x_28 = layout_transform(%x_27, src_layout="NCHW", dst_layout="NHWC");
  let %x_29 = layout_transform(%x_28, src_layout="NHWC", dst_layout="CHWN");
  let %x_30 = nn.relu(%x_29);
  let %x_31 = (%x_1, %x_10, %x_12, %x_18, %x_19, %x_20, %x_23, %x_26, %x_30) /* ty=(int8, Tensor[(1, 6, 10, 10), float32], Tensor[(1, 3, 5, 5), float32], Tensor[(1, 10, 5), int32], int32, float32, Tensor[(92, 10, 5), float32], Tensor[(1, 6, 10, 123), float32], Tensor[(0, 40, 40, 1), float32]) span=from_string:3:3 */;
  %x_31
}
