#[version = "0.0.5"]
def @main(%x0: Tensor[(4, 7), float32] /* ty=Tensor[(4, 7), float32] span=from_string:5:108 */, %x1: Tensor[(2, 7, 2), float32] /* ty=Tensor[(2, 7, 2), float32] span=from_string:14:125 */, %x2: Tensor[(14, 2), float32] /* ty=Tensor[(14, 2), float32] span=from_string:44:109 */, %x3: int32 /* ty=int32 span=from_string:21:111 */, %x4: int32 /* ty=int32 span=from_string:21:116 */, %x5: Tensor[(74, 7, 2), float32] /* ty=Tensor[(74, 7, 2), float32] span=from_string:32:172 */, %x6: Tensor[(16, 2), float32] /* ty=Tensor[(16, 2), float32] span=from_string:39:114 */, %x7: Tensor[(16), float32] /* ty=Tensor[(16), float32] span=from_string:40:110 */, %x8: Tensor[(1), float32] /* ty=Tensor[(1), float32] span=from_string:42:117 */, %x9: Tensor[(32, 2), float32] /* ty=Tensor[(32, 2), float32] span=from_string:44:114 */, %x10: Tensor[(32), float32] /* ty=Tensor[(32), float32] span=from_string:45:110 */, %x11: Tensor[(1), float32] /* ty=Tensor[(1), float32] span=from_string:47:117 */) -> (Tensor[(4, 7), float32], (Tensor[(2, 7, 2), float32], (Tensor[(2, 7, 2), float32],)), Tensor[(2, 7, 2), float32], Tensor[(6, 2), float32], Tensor[(2, 7, 2), float32], Tensor[(2, 7, 2), float32], Tensor[(76, 7, 2), float32], (Tensor[(1, 1, 224), float32], Tensor[(1, 1, 448), float32])) {
  let %x12: Tensor[(2, 7, 2), float32] /* ty=Tensor[(2, 7, 2), float32] span=from_string:17:169 */ = multiply(%x1, %x1) /* ty=Tensor[(2, 7, 2), float32] span=from_string:3:102 */;
  let %x13: Tensor[(2, 7, 2), float32] /* ty=Tensor[(2, 7, 2), float32] span=from_string:13:111 */ = ones_like(%x12) /* ty=Tensor[(2, 7, 2), float32] span=from_string:4:101 */;
  let %x_0: Tensor[(2, 7, 2), float32] /* ty=Tensor[(2, 7, 2), float32] span=from_string:6:102 */ = reshape(%x0, newshape=[2, 7, 2]) /* ty=Tensor[(2, 7, 2), float32] span=from_string:5:100 */;
  let %x_1: Tensor[(4, 7), float32] /* ty=Tensor[(4, 7), float32] span=from_string:7:108 */ = reshape(%x_0, newshape=[4, 7]) /* ty=Tensor[(4, 7), float32] span=from_string:6:94 */;
  let %x_2: Tensor[(2, 7, 2), float32] /* ty=Tensor[(2, 7, 2), float32] span=from_string:8:103 */ = reshape(%x_1, newshape=[2, 7, 2]) /* ty=Tensor[(2, 7, 2), float32] span=from_string:7:100 */;
  let %x_3: Tensor[(4, 7), float32] /* ty=Tensor[(4, 7), float32] span=from_string:50:623 */ = reshape(%x_2, newshape=[4, 7]) /* ty=Tensor[(4, 7), float32] span=from_string:8:95 */;
  let %x_4: Tensor[(2, 7, 2), float32] /* ty=Tensor[(2, 7, 2), float32] span=from_string:12:105 */ = zeros_like(%x1) /* ty=Tensor[(2, 7, 2), float32] span=from_string:9:101 */;
  let %x_5: Tensor[(2, 7, 2), float32] /* ty=Tensor[(2, 7, 2), float32] span=from_string:28:106 */ = multiply(%x13, %x1) /* ty=Tensor[(2, 7, 2), float32] span=from_string:10:102 */;
  let %x_6: Tensor[(2, 7, 2), float32] /* ty=Tensor[(2, 7, 2), float32] span=from_string:18:106 */ = collapse_sum_like(%x_5, %x1) /* ty=Tensor[(2, 7, 2), float32] span=from_string:11:101 */;
  let %x_7: Tensor[(2, 7, 2), float32] /* ty=Tensor[(2, 7, 2), float32] span=from_string:23:106 */ = add(%x_4, %x_6) /* ty=Tensor[(2, 7, 2), float32] span=from_string:12:101 */;
  let %x_8: Tensor[(2, 7, 2), float32] /* ty=Tensor[(2, 7, 2), float32] span=from_string:14:119 */ = multiply(%x13, %x1) /* ty=Tensor[(2, 7, 2), float32] span=from_string:13:102 */;
  let %x_9: Tensor[(2, 7, 2), float32] /* ty=Tensor[(2, 7, 2), float32] span=from_string:15:112 */ = collapse_sum_like(%x_8, %x1) /* ty=Tensor[(2, 7, 2), float32] span=from_string:14:101 */;
  let %x_10: Tensor[(2, 7, 2), float32] /* ty=Tensor[(2, 7, 2), float32] span=from_string:16:109 */ = add(%x_7, %x_9) /* ty=Tensor[(2, 7, 2), float32] span=from_string:15:102 */;
  let %x_11: (Tensor[(2, 7, 2), float32],) /* ty=(Tensor[(2, 7, 2), float32],) span=from_string:17:175 */ = (%x_10,) /* ty=(Tensor[(2, 7, 2), float32],) span=from_string:16:108 */;
  let %x_12: (Tensor[(2, 7, 2), float32], (Tensor[(2, 7, 2), float32],)) /* ty=(Tensor[(2, 7, 2), float32], (Tensor[(2, 7, 2), float32],)) span=from_string:50:629 */ = (%x12, %x_11) /* ty=(Tensor[(2, 7, 2), float32], (Tensor[(2, 7, 2), float32],)) span=from_string:17:168 */;
  let %x_13: Tensor[(14, 2), float32] /* ty=Tensor[(14, 2), float32] span=from_string:19:110 */ = reshape(%x_6, newshape=[14, 2]) /* ty=Tensor[(14, 2), float32] span=from_string:18:98 */;
  let %x_14: Tensor[(2, 7, 2), float32] /* ty=Tensor[(2, 7, 2), float32] span=from_string:50:636 */ = reshape(%x_13, newshape=[2, 7, 2]) /* ty=Tensor[(2, 7, 2), float32] span=from_string:19:102 */;
  let %x_16: Tensor[(6, 2), float32] /* ty=Tensor[(6, 2), float32] span=from_string:50:643 */ = one_hot(meta[relay.Constant][0] /* ty=Tensor[(2), int32] span=from_string:20:93 */, %x3, %x4, depth=6, axis=0, dtype="float32") /* ty=Tensor[(6, 2), float32] span=from_string:21:96 */;
  let %x_18: Tensor[(2, 7, 2), float32] /* ty=Tensor[(2, 7, 2), float32] span=from_string:24:125 */ = add(%x_7, 1f /* ty=float32 span=from_string:22:66 */) /* ty=Tensor[(2, 7, 2), float32] span=from_string:23:102 */;
  let %x_19: Tensor[(2, 7, 2), float32] /* ty=Tensor[(2, 7, 2), float32] span=from_string:32:165 */ = annotation.stop_fusion(%x_18) /* ty=Tensor[(2, 7, 2), float32] span=from_string:24:102 */;
  let %x_20: Tensor[(2, 7, 2), float32] /* ty=Tensor[(2, 7, 2), float32] span=from_string:26:119 */ = fast_exp(%x_19) /* ty=Tensor[(2, 7, 2), float32] span=from_string:25:102 */;
  let %x_21: Tensor[(2, 7, 2), float32] /* ty=Tensor[(2, 7, 2), float32] span=from_string:50:650 */ = multiply(%x_20, %x_20) /* ty=Tensor[(2, 7, 2), float32] span=from_string:26:103 */;
  let %x_23: Tensor[(2, 7, 2), float32] /* ty=Tensor[(2, 7, 2), float32] span=from_string:29:111 */ = add(%x_5, 1f /* ty=float32 span=from_string:27:66 */) /* ty=Tensor[(2, 7, 2), float32] span=from_string:28:102 */;
  let %x_24: Tensor[(2, 7, 2), float32] /* ty=Tensor[(2, 7, 2), float32] span=from_string:30:110 */ = fast_exp(%x_23) /* ty=Tensor[(2, 7, 2), float32] span=from_string:29:102 */;
  let %x_25: Tensor[(2, 7, 2), float32] /* ty=Tensor[(2, 7, 2), float32] span=from_string:50:657 */ = squeeze(%x_24) /* ty=Tensor[(2, 7, 2), float32] span=from_string:30:102 */;
  let %x_27: (Tensor[(2, 7, 2), float32], Tensor[(74, 7, 2), float32]) /* ty=(Tensor[(2, 7, 2), float32], Tensor[(74, 7, 2), float32]) span=from_string:33:116 */ = (%x_19, %x5) /* ty=(Tensor[(2, 7, 2), float32], Tensor[(74, 7, 2), float32]) span=from_string:32:164 */;
  let %x_28: Tensor[(76, 7, 2), float32] /* ty=Tensor[(76, 7, 2), float32] span=from_string:34:127 */ = concatenate(%x_27) /* ty=Tensor[(76, 7, 2), float32] span=from_string:33:104 */;
  let %x_29: Tensor[(76, 7, 2), float32] /* ty=Tensor[(76, 7, 2), float32] span=from_string:35:111 */ = annotation.stop_fusion(%x_28) /* ty=Tensor[(76, 7, 2), float32] span=from_string:34:104 */;
  let %x_30: (Tensor[(76, 7, 2), float32],) /* ty=(Tensor[(76, 7, 2), float32],) span=from_string:36:116 */ = (%x_29,) /* ty=(Tensor[(76, 7, 2), float32],) span=from_string:35:110 */;
  let %x_31: Tensor[(76, 7, 2), float32] /* ty=Tensor[(76, 7, 2), float32] span=from_string:37:109 */ = concatenate(%x_30) /* ty=Tensor[(76, 7, 2), float32] span=from_string:36:104 */;
  let %x_32: Tensor[(76, 7, 2), float32] /* ty=Tensor[(76, 7, 2), float32] span=from_string:38:118 */ = sqrt(%x_31) /* ty=Tensor[(76, 7, 2), float32] span=from_string:37:104 */;
  let %x_33: Tensor[(76, 7, 2), float32] /* ty=Tensor[(76, 7, 2), float32] span=from_string:50:664 */ = divide(2f /* ty=float32 span=from_string:31:66 */, %x_32) /* ty=Tensor[(76, 7, 2), float32] span=from_string:38:104 */;
  let %x_34: Tensor[(14, 16), float32] /* ty=Tensor[(14, 16), float32] span=from_string:41:104 */ = nn.dense(%x2, %x6, units=None) /* ty=Tensor[(14, 16), float32] span=from_string:39:100 */;
  let %x_35: Tensor[(1, 16), float32] /* ty=Tensor[(1, 16), float32] span=from_string:41:111 */ = expand_dims(%x7, axis=0) /* ty=Tensor[(1, 16), float32] span=from_string:40:98 */;
  let %x_36: Tensor[(14, 16), float32] /* ty=Tensor[(14, 16), float32] span=from_string:42:110 */ = add(%x_34, %x_35) /* ty=Tensor[(14, 16), float32] span=from_string:41:100 */;
  let %x_37: Tensor[(14, 16), float32] /* ty=Tensor[(14, 16), float32] span=from_string:43:114 */ = multiply(%x_36, %x8) /* ty=Tensor[(14, 16), float32] span=from_string:42:101 */;
  let %x_38: Tensor[(1, 1, 224), float32] /* ty=Tensor[(1, 1, 224), float32] span=from_string:49:171 */ = reshape(%x_37, newshape=[1, 1, 224]) /* ty=Tensor[(1, 1, 224), float32] span=from_string:43:106 */;
  let %x_39: Tensor[(14, 32), float32] /* ty=Tensor[(14, 32), float32] span=from_string:46:104 */ = nn.dense(%x2, %x9, units=None) /* ty=Tensor[(14, 32), float32] span=from_string:44:100 */;
  let %x_40: Tensor[(1, 32), float32] /* ty=Tensor[(1, 32), float32] span=from_string:46:111 */ = expand_dims(%x10, axis=0) /* ty=Tensor[(1, 32), float32] span=from_string:45:98 */;
  let %x_41: Tensor[(14, 32), float32] /* ty=Tensor[(14, 32), float32] span=from_string:47:110 */ = add(%x_39, %x_40) /* ty=Tensor[(14, 32), float32] span=from_string:46:100 */;
  let %x_42: Tensor[(14, 32), float32] /* ty=Tensor[(14, 32), float32] span=from_string:48:114 */ = multiply(%x_41, %x11) /* ty=Tensor[(14, 32), float32] span=from_string:47:101 */;
  let %x_43: Tensor[(1, 1, 448), float32] /* ty=Tensor[(1, 1, 448), float32] span=from_string:49:178 */ = reshape(%x_42, newshape=[1, 1, 448]) /* ty=Tensor[(1, 1, 448), float32] span=from_string:48:106 */;
  let %x_44: (Tensor[(1, 1, 224), float32], Tensor[(1, 1, 448), float32]) /* ty=(Tensor[(1, 1, 224), float32], Tensor[(1, 1, 448), float32]) span=from_string:50:671 */ = (%x_38, %x_43) /* ty=(Tensor[(1, 1, 224), float32], Tensor[(1, 1, 448), float32]) span=from_string:49:170 */;
  let %x_45: (Tensor[(4, 7), float32], (Tensor[(2, 7, 2), float32], (Tensor[(2, 7, 2), float32],)), Tensor[(2, 7, 2), float32], Tensor[(6, 2), float32], Tensor[(2, 7, 2), float32], Tensor[(2, 7, 2), float32], Tensor[(76, 7, 2), float32], (Tensor[(1, 1, 224), float32], Tensor[(1, 1, 448), float32])) /* ty=(Tensor[(4, 7), float32], (Tensor[(2, 7, 2), float32], (Tensor[(2, 7, 2), float32],)), Tensor[(2, 7, 2), float32], Tensor[(6, 2), float32], Tensor[(2, 7, 2), float32], Tensor[(2, 7, 2), float32], Tensor[(76, 7, 2), float32], (Tensor[(1, 1, 224), float32], Tensor[(1, 1, 448), float32])) span=from_string:51:622 */ = (%x_3, %x_12, %x_14, %x_16, %x_21, %x_25, %x_33, %x_44) /* ty=(Tensor[(4, 7), float32], (Tensor[(2, 7, 2), float32], (Tensor[(2, 7, 2), float32],)), Tensor[(2, 7, 2), float32], Tensor[(6, 2), float32], Tensor[(2, 7, 2), float32], Tensor[(2, 7, 2), float32], Tensor[(76, 7, 2), float32], (Tensor[(1, 1, 224), float32], Tensor[(1, 1, 448), float32])) span=from_string:50:622 */;
  let %x_46: (Tensor[(4, 7), float32], (Tensor[(2, 7, 2), float32], (Tensor[(2, 7, 2), float32],)), Tensor[(2, 7, 2), float32], Tensor[(6, 2), float32], Tensor[(2, 7, 2), float32], Tensor[(2, 7, 2), float32], Tensor[(76, 7, 2), float32], (Tensor[(1, 1, 224), float32], Tensor[(1, 1, 448), float32])) /* ty=(Tensor[(4, 7), float32], (Tensor[(2, 7, 2), float32], (Tensor[(2, 7, 2), float32],)), Tensor[(2, 7, 2), float32], Tensor[(6, 2), float32], Tensor[(2, 7, 2), float32], Tensor[(2, 7, 2), float32], Tensor[(76, 7, 2), float32], (Tensor[(1, 1, 224), float32], Tensor[(1, 1, 448), float32])) span=from_string:52:621 */ = %x_45;
  let %x_47: (Tensor[(4, 7), float32], (Tensor[(2, 7, 2), float32], (Tensor[(2, 7, 2), float32],)), Tensor[(2, 7, 2), float32], Tensor[(6, 2), float32], Tensor[(2, 7, 2), float32], Tensor[(2, 7, 2), float32], Tensor[(76, 7, 2), float32], (Tensor[(1, 1, 224), float32], Tensor[(1, 1, 448), float32])) /* ty=(Tensor[(4, 7), float32], (Tensor[(2, 7, 2), float32], (Tensor[(2, 7, 2), float32],)), Tensor[(2, 7, 2), float32], Tensor[(6, 2), float32], Tensor[(2, 7, 2), float32], Tensor[(2, 7, 2), float32], Tensor[(76, 7, 2), float32], (Tensor[(1, 1, 224), float32], Tensor[(1, 1, 448), float32])) span=from_string:53:3 */ = %x_46;
  %x_47
}

#[metadata]
{
  "root": 1, 
  "nodes": [
    {
      "type_key": ""
    }, 
    {
      "type_key": "Map", 
      "keys": [
        "relay.Constant"
      ], 
      "data": [2]
    }, 
    {
      "type_key": "Array", 
      "data": [3]
    }, 
    {
      "type_key": "relay.Constant", 
      "attrs": {
        "_checked_type_": "8", 
        "data": "0", 
        "span": "6", 
        "virtual_device_": "4"
      }
    }, 
    {
      "type_key": "VirtualDevice", 
      "attrs": {
        "device_type_int": "-1", 
        "memory_scope": "5", 
        "target": "0", 
        "virtual_device_id": "-1"
      }
    }, 
    {
      "type_key": "runtime.String"
    }, 
    {
      "type_key": "Span", 
      "attrs": {
        "column": "93", 
        "end_column": "111", 
        "end_line": "20", 
        "line": "20", 
        "source_name": "7"
      }
    }, 
    {
      "type_key": "SourceName", 
      "repr_str": "from_string"
    }, 
    {
      "type_key": "relay.TensorType", 
      "attrs": {
        "dtype": "int32", 
        "shape": "9", 
        "span": "0"
      }
    }, 
    {
      "type_key": "Array", 
      "data": [10]
    }, 
    {
      "type_key": "IntImm", 
      "attrs": {
        "dtype": "int32", 
        "span": "0", 
        "value": "2"
      }
    }
  ], 
  "b64ndarrays": [
    "P6G0lvBAXt0AAAAAAAAAAAEAAAAAAAAAAQAAAAAgAQACAAAAAAAAAAgAAAAAAAAABAAAAAcAAAA="
  ], 
  "attrs": {"tvm_version": "0.13.0"}
}