#[version = "0.0.5"]
def @main(%x0: Tensor[(4, 7), float32] /* ty=Tensor[(4, 7), float32] span=from_string:5:16 */, %x1: Tensor[(2, 7, 2), float32] /* ty=Tensor[(2, 7, 2), float32] span=from_string:13:30 */, %x2: Tensor[(14, 2), float32] /* ty=Tensor[(14, 2), float32] span=from_string:29:18 */, %x3: int32 /* ty=int32 span=from_string:38:93 */, %x4: int32 /* ty=int32 span=from_string:38:98 */, %x5: Tensor[(74, 7, 2), float32] /* ty=Tensor[(74, 7, 2), float32] span=from_string:22:15 */, %x6: Tensor[(16, 2), float32] /* ty=Tensor[(16, 2), float32] span=from_string:25:23 */, %x7: Tensor[(16), float32] /* ty=Tensor[(16), float32] span=from_string:26:21 */, %x8: Tensor[(1), float32] /* ty=Tensor[(1), float32] span=from_string:28:24 */, %x9: Tensor[(32, 2), float32] /* ty=Tensor[(32, 2), float32] span=from_string:29:23 */, %x10: Tensor[(32), float32] /* ty=Tensor[(32), float32] span=from_string:30:21 */, %x11: Tensor[(1), float32] /* ty=Tensor[(1), float32] span=from_string:32:24 */) -> (Tensor[(4, 7), float32], (Tensor[(2, 7, 2), float32], (Tensor[(2, 7, 2), float32],)), Tensor[(2, 7, 2), float32], Tensor[(6, 2), float32], Tensor[(2, 7, 2), float32], Tensor[(2, 7, 2), float32], Tensor[(76, 7, 2), float32], (Tensor[(1, 1, 224), float32], Tensor[(1, 1, 448), float32])) {
  let %x12: Tensor[(2, 7, 2), float32] /* ty=Tensor[(2, 7, 2), float32] span=from_string:36:10 */ = multiply(%x1, %x1) /* ty=Tensor[(2, 7, 2), float32] span=from_string:3:102 */;
  let %x13: Tensor[(2, 7, 2), float32] /* ty=Tensor[(2, 7, 2), float32] span=from_string:11:18 */ = ones_like(%x12) /* ty=Tensor[(2, 7, 2), float32] span=from_string:4:101 */;
  %0 = reshape(%x0, newshape=[2, 7, 2]) /* ty=Tensor[(2, 7, 2), float32] span=from_string:6:16 */;
  %1 = reshape(%0, newshape=[4, 7]) /* ty=Tensor[(4, 7), float32] span=from_string:7:16 */;
  %2 = reshape(%1, newshape=[2, 7, 2]) /* ty=Tensor[(2, 7, 2), float32] span=from_string:35:17 */;
  %3 = multiply(%x13, %x1) /* ty=Tensor[(2, 7, 2), float32] span=from_string:20:13 */;
  %4 = zeros_like(%x1) /* ty=Tensor[(2, 7, 2), float32] span=from_string:12:12 */;
  %5 = collapse_sum_like(%3, %x1) /* ty=Tensor[(2, 7, 2), float32] span=from_string:16:17 */;
  %6 = multiply(%x13, %x1) /* ty=Tensor[(2, 7, 2), float32] span=from_string:13:26 */;
  %7 = add(%4, %5) /* ty=Tensor[(2, 7, 2), float32] span=from_string:17:13 */;
  %8 = collapse_sum_like(%6, %x1) /* ty=Tensor[(2, 7, 2), float32] span=from_string:14:16 */;
  %9 = add(%7, %8) /* ty=Tensor[(2, 7, 2), float32] span=from_string:15:10 */;
  %10 = (%9,) /* ty=(Tensor[(2, 7, 2), float32],) span=from_string:36:16 */;
  %11 = reshape(%5, newshape=[14, 2]) /* ty=Tensor[(14, 2), float32] span=from_string:37:17 */;
  %12 = add(%7, 1f /* ty=float32 span=from_string:17:19 */) /* ty=Tensor[(2, 7, 2), float32] span=from_string:18:32 */;
  %13 = annotation.stop_fusion(%12) /* ty=Tensor[(2, 7, 2), float32] span=from_string:22:10 */;
  %14 = fast_exp(%13) /* ty=Tensor[(2, 7, 2), float32] span=from_string:39:24 */;
  %15 = add(%3, 1f /* ty=float32 span=from_string:20:19 */) /* ty=Tensor[(2, 7, 2), float32] span=from_string:21:18 */;
  %16 = fast_exp(%15) /* ty=Tensor[(2, 7, 2), float32] span=from_string:40:17 */;
  %17 = (%13, %x5) /* ty=(Tensor[(2, 7, 2), float32], Tensor[(74, 7, 2), float32]) span=from_string:23:21 */;
  %18 = concatenate(%17) /* ty=Tensor[(76, 7, 2), float32] span=from_string:24:14 */;
  %19 = sqrt(%18) /* ty=Tensor[(76, 7, 2), float32] span=from_string:41:60 */;
  %20 = nn.dense(%x2, %x6, units=None) /* ty=Tensor[(14, 16), float32] span=from_string:27:13 */;
  %21 = expand_dims(%x7, axis=0) /* ty=Tensor[(1, 16), float32] span=from_string:27:18 */;
  %22 = add(%20, %21) /* ty=Tensor[(14, 16), float32] span=from_string:28:19 */;
  %23 = multiply(%22, %x8) /* ty=Tensor[(14, 16), float32] span=from_string:33:17 */;
  %24 = nn.dense(%x2, %x9, units=None) /* ty=Tensor[(14, 32), float32] span=from_string:31:13 */;
  %25 = expand_dims(%x10, axis=0) /* ty=Tensor[(1, 32), float32] span=from_string:31:18 */;
  %26 = add(%24, %25) /* ty=Tensor[(14, 32), float32] span=from_string:32:19 */;
  %27 = multiply(%26, %x11) /* ty=Tensor[(14, 32), float32] span=from_string:34:17 */;
  %28 = reshape(%23, newshape=[1, 1, 224]) /* ty=Tensor[(1, 1, 224), float32] span=from_string:42:10 */;
  %29 = reshape(%27, newshape=[1, 1, 448]) /* ty=Tensor[(1, 1, 448), float32] span=from_string:42:15 */;
  %30 = reshape(%2, newshape=[4, 7]) /* ty=Tensor[(4, 7), float32] span=from_string:43:4 */;
  %31 = (%x12, %10) /* ty=(Tensor[(2, 7, 2), float32], (Tensor[(2, 7, 2), float32],)) span=from_string:43:9 */;
  %32 = reshape(%11, newshape=[2, 7, 2]) /* ty=Tensor[(2, 7, 2), float32] span=from_string:43:14 */;
  %33 = one_hot(meta[relay.Constant][0] /* ty=Tensor[(2), int32] span=from_string:38:22 */, %x3, %x4, depth=6, axis=0, dtype="float32") /* ty=Tensor[(6, 2), float32] span=from_string:43:19 */;
  %34 = multiply(%14, %14) /* ty=Tensor[(2, 7, 2), float32] span=from_string:43:24 */;
  %35 = squeeze(%16) /* ty=Tensor[(2, 7, 2), float32] span=from_string:43:29 */;
  %36 = divide(2f /* ty=float32 span=from_string:41:18 */, %19) /* ty=Tensor[(76, 7, 2), float32] span=from_string:43:34 */;
  %37 = (%28, %29) /* ty=(Tensor[(1, 1, 224), float32], Tensor[(1, 1, 448), float32]) span=from_string:43:39 */;
  (%30, %31, %32, %33, %34, %35, %36, %37) /* ty=(Tensor[(4, 7), float32], (Tensor[(2, 7, 2), float32], (Tensor[(2, 7, 2), float32],)), Tensor[(2, 7, 2), float32], Tensor[(6, 2), float32], Tensor[(2, 7, 2), float32], Tensor[(2, 7, 2), float32], Tensor[(76, 7, 2), float32], (Tensor[(1, 1, 224), float32], Tensor[(1, 1, 448), float32])) span=from_string:43:3 */
}

#[metadata]
{
  "root": 1, 
  "nodes": [
    {
      "type_key": ""
    }, 
    {
      "type_key": "Map", 
      "keys": [
        "relay.Constant"
      ], 
      "data": [2]
    }, 
    {
      "type_key": "Array", 
      "data": [3]
    }, 
    {
      "type_key": "relay.Constant", 
      "attrs": {
        "_checked_type_": "8", 
        "data": "0", 
        "span": "6", 
        "virtual_device_": "4"
      }
    }, 
    {
      "type_key": "VirtualDevice", 
      "attrs": {
        "device_type_int": "-1", 
        "memory_scope": "5", 
        "target": "0", 
        "virtual_device_id": "-1"
      }
    }, 
    {
      "type_key": "runtime.String"
    }, 
    {
      "type_key": "Span", 
      "attrs": {
        "column": "22", 
        "end_column": "40", 
        "end_line": "38", 
        "line": "38", 
        "source_name": "7"
      }
    }, 
    {
      "type_key": "SourceName", 
      "repr_str": "from_string"
    }, 
    {
      "type_key": "relay.TensorType", 
      "attrs": {
        "dtype": "int32", 
        "shape": "9", 
        "span": "0"
      }
    }, 
    {
      "type_key": "Array", 
      "data": [10]
    }, 
    {
      "type_key": "IntImm", 
      "attrs": {
        "dtype": "int32", 
        "span": "0", 
        "value": "2"
      }
    }
  ], 
  "b64ndarrays": [
    "P6G0lvBAXt0AAAAAAAAAAAEAAAAAAAAAAQAAAAAgAQACAAAAAAAAAAgAAAAAAAAABAAAAAcAAAA="
  ], 
  "attrs": {"tvm_version": "0.13.0"}
}