#[version = "0.0.5"]
def @main(%x0: Tensor[(4, 7), float32] /* ty=Tensor[(4, 7), float32] span=from_string:6:13 */, %x1: Tensor[(2, 7, 2), float32] /* ty=Tensor[(2, 7, 2), float32] span=from_string:3:13 */, %x2: Tensor[(14, 2), float32] /* ty=Tensor[(14, 2), float32] span=from_string:44:13 */, %x3: int32 /* ty=int32 span=from_string:22:182 */, %x4: int32 /* ty=int32 span=from_string:22:187 */, %x5: Tensor[(74, 7, 2), float32] /* ty=Tensor[(74, 7, 2), float32] span=from_string:32:171 */, %x6: Tensor[(16, 2), float32] /* ty=Tensor[(16, 2), float32] span=from_string:45:14 */, %x7: Tensor[(16), float32] /* ty=Tensor[(16), float32] span=from_string:47:14 */, %x8: Tensor[(1), float32] /* ty=Tensor[(1), float32] span=from_string:50:14 */, %x9: Tensor[(32, 2), float32] /* ty=Tensor[(32, 2), float32] span=from_string:53:14 */, %x10: Tensor[(32), float32] /* ty=Tensor[(32), float32] span=from_string:55:14 */, %x11: Tensor[(1), float32] /* ty=Tensor[(1), float32] span=from_string:58:14 */) -> (Tensor[(4, 7), float16], (Tensor[(2, 7, 2), float16], (Tensor[(2, 7, 2), float16],)), Tensor[(2, 7, 2), float16], Tensor[(6, 2), float32], Tensor[(2, 7, 2), float16], Tensor[(2, 7, 2), float16], Tensor[(76, 7, 2), float16], (Tensor[(1, 1, 224), float16], Tensor[(1, 1, 448), float16])) {
  %0 = cast(%x1, dtype="float16") /* ty=Tensor[(2, 7, 2), float16] span=from_string:16:126 */;
  let %x12: Tensor[(2, 7, 2), float16] /* ty=Tensor[(2, 7, 2), float16] span=from_string:19:170 */ = multiply(%0, %0) /* ty=Tensor[(2, 7, 2), float16] span=from_string:4:103 */;
  let %x13: Tensor[(2, 7, 2), float16] /* ty=Tensor[(2, 7, 2), float16] span=from_string:15:112 */ = ones_like(%x12) /* ty=Tensor[(2, 7, 2), float16] span=from_string:5:102 */;
  %1 = cast(%x0, dtype="float16") /* ty=Tensor[(4, 7), float16] span=from_string:7:109 */;
  let %x_0: Tensor[(2, 7, 2), float16] /* ty=Tensor[(2, 7, 2), float16] span=from_string:8:103 */ = reshape(%1, newshape=[2, 7, 2]) /* ty=Tensor[(2, 7, 2), float16] span=from_string:7:101 */;
  let %x_1: Tensor[(4, 7), float16] /* ty=Tensor[(4, 7), float16] span=from_string:9:110 */ = reshape(%x_0, newshape=[4, 7]) /* ty=Tensor[(4, 7), float16] span=from_string:8:95 */;
  let %x_2: Tensor[(2, 7, 2), float16] /* ty=Tensor[(2, 7, 2), float16] span=from_string:10:104 */ = reshape(%x_1, newshape=[2, 7, 2]) /* ty=Tensor[(2, 7, 2), float16] span=from_string:9:102 */;
  let %x_3: Tensor[(4, 7), float16] /* ty=Tensor[(4, 7), float16] span=from_string:62:624 */ = reshape(%x_2, newshape=[4, 7]) /* ty=Tensor[(4, 7), float16] span=from_string:10:96 */;
  let %x_4: Tensor[(2, 7, 2), float16] /* ty=Tensor[(2, 7, 2), float16] span=from_string:14:106 */ = zeros_like(%0) /* ty=Tensor[(2, 7, 2), float16] span=from_string:11:102 */;
  %2 = multiply(%x13, %0) /* ty=Tensor[(2, 7, 2), float16] span=from_string:12:103 */;
  let %x_5: Tensor[(2, 7, 2), float16] /* ty=Tensor[(2, 7, 2), float16] span=from_string:29:107 */ = %2;
  let %x_6: Tensor[(2, 7, 2), float16] /* ty=Tensor[(2, 7, 2), float16] span=from_string:20:107 */ = collapse_sum_like(%x_5, %0) /* ty=Tensor[(2, 7, 2), float16] span=from_string:13:102 */;
  let %x_7: Tensor[(2, 7, 2), float16] /* ty=Tensor[(2, 7, 2), float16] span=from_string:24:107 */ = add(%x_4, %x_6) /* ty=Tensor[(2, 7, 2), float16] span=from_string:14:102 */;
  let %x_8: Tensor[(2, 7, 2), float16] /* ty=Tensor[(2, 7, 2), float16] span=from_string:16:120 */ = %2;
  let %x_9: Tensor[(2, 7, 2), float16] /* ty=Tensor[(2, 7, 2), float16] span=from_string:17:113 */ = collapse_sum_like(%x_8, %0) /* ty=Tensor[(2, 7, 2), float16] span=from_string:16:102 */;
  let %x_10: Tensor[(2, 7, 2), float16] /* ty=Tensor[(2, 7, 2), float16] span=from_string:18:110 */ = add(%x_7, %x_9) /* ty=Tensor[(2, 7, 2), float16] span=from_string:17:103 */;
  let %x_11: (Tensor[(2, 7, 2), float16],) /* ty=(Tensor[(2, 7, 2), float16],) span=from_string:19:176 */ = (%x_10,) /* ty=(Tensor[(2, 7, 2), float16],) span=from_string:18:109 */;
  let %x_12: (Tensor[(2, 7, 2), float16], (Tensor[(2, 7, 2), float16],)) /* ty=(Tensor[(2, 7, 2), float16], (Tensor[(2, 7, 2), float16],)) span=from_string:62:630 */ = (%x12, %x_11) /* ty=(Tensor[(2, 7, 2), float16], (Tensor[(2, 7, 2), float16],)) span=from_string:19:169 */;
  let %x_13: Tensor[(14, 2), float16] /* ty=Tensor[(14, 2), float16] span=from_string:21:111 */ = reshape(%x_6, newshape=[14, 2]) /* ty=Tensor[(14, 2), float16] span=from_string:20:99 */;
  let %x_14: Tensor[(2, 7, 2), float16] /* ty=Tensor[(2, 7, 2), float16] span=from_string:62:637 */ = reshape(%x_13, newshape=[2, 7, 2]) /* ty=Tensor[(2, 7, 2), float16] span=from_string:21:103 */;
  let %x_16: Tensor[(6, 2), float32] /* ty=Tensor[(6, 2), float32] span=from_string:62:644 */ = one_hot(meta[relay.Constant][0] /* ty=Tensor[(2), int32] span=from_string:22:110 */, %x3, %x4, depth=6, axis=0, dtype="float32") /* ty=Tensor[(6, 2), float32] span=from_string:22:97 */;
  %3 = cast(1f /* ty=float32 span=from_string:23:15 */, dtype="float16") /* ty=float16 span=from_string:24:113 */;
  let %x_18: Tensor[(2, 7, 2), float16] /* ty=Tensor[(2, 7, 2), float16] span=from_string:25:126 */ = add(%x_7, %3) /* ty=Tensor[(2, 7, 2), float16] span=from_string:24:103 */;
  let %x_19: Tensor[(2, 7, 2), float16] /* ty=Tensor[(2, 7, 2), float16] span=from_string:32:164 */ = annotation.stop_fusion(%x_18) /* ty=Tensor[(2, 7, 2), float16] span=from_string:25:103 */;
  let %x_20: Tensor[(2, 7, 2), float16] /* ty=Tensor[(2, 7, 2), float16] span=from_string:27:120 */ = fast_exp(%x_19) /* ty=Tensor[(2, 7, 2), float16] span=from_string:26:103 */;
  let %x_21: Tensor[(2, 7, 2), float16] /* ty=Tensor[(2, 7, 2), float16] span=from_string:62:651 */ = multiply(%x_20, %x_20) /* ty=Tensor[(2, 7, 2), float16] span=from_string:27:104 */;
  let %x_23: Tensor[(2, 7, 2), float16] /* ty=Tensor[(2, 7, 2), float16] span=from_string:30:112 */ = add(%x_5, %3) /* ty=Tensor[(2, 7, 2), float16] span=from_string:29:103 */;
  let %x_24: Tensor[(2, 7, 2), float16] /* ty=Tensor[(2, 7, 2), float16] span=from_string:31:111 */ = fast_exp(%x_23) /* ty=Tensor[(2, 7, 2), float16] span=from_string:30:103 */;
  let %x_25: Tensor[(2, 7, 2), float16] /* ty=Tensor[(2, 7, 2), float16] span=from_string:62:658 */ = squeeze(%x_24) /* ty=Tensor[(2, 7, 2), float16] span=from_string:31:103 */;
  let %x_27: (Tensor[(2, 7, 2), float16], Tensor[(74, 7, 2), float32]) /* ty=(Tensor[(2, 7, 2), float16], Tensor[(74, 7, 2), float32]) span=from_string:34:8 */ = (%x_19, %x5) /* ty=(Tensor[(2, 7, 2), float16], Tensor[(74, 7, 2), float32]) span=from_string:32:163 */;
  %4 = %x_27.1 /* ty=Tensor[(74, 7, 2), float32] span=from_string:35:13 */;
  %5 = %x_27.0 /* ty=Tensor[(2, 7, 2), float16] span=from_string:36:9 */;
  %6 = cast(%4, dtype="float16") /* ty=Tensor[(74, 7, 2), float16] span=from_string:36:13 */;
  %7 = (%5, %6) /* ty=(Tensor[(2, 7, 2), float16], Tensor[(74, 7, 2), float16]) span=from_string:37:117 */;
  let %x_28: Tensor[(76, 7, 2), float16] /* ty=Tensor[(76, 7, 2), float16] span=from_string:38:128 */ = concatenate(%7) /* ty=Tensor[(76, 7, 2), float16] span=from_string:37:105 */;
  let %x_29: Tensor[(76, 7, 2), float16] /* ty=Tensor[(76, 7, 2), float16] span=from_string:39:112 */ = annotation.stop_fusion(%x_28) /* ty=Tensor[(76, 7, 2), float16] span=from_string:38:105 */;
  let %x_30: (Tensor[(76, 7, 2), float16],) /* ty=(Tensor[(76, 7, 2), float16],) span=from_string:40:117 */ = (%x_29,) /* ty=(Tensor[(76, 7, 2), float16],) span=from_string:39:111 */;
  let %x_31: Tensor[(76, 7, 2), float16] /* ty=Tensor[(76, 7, 2), float16] span=from_string:41:110 */ = concatenate(%x_30) /* ty=Tensor[(76, 7, 2), float16] span=from_string:40:105 */;
  let %x_32: Tensor[(76, 7, 2), float16] /* ty=Tensor[(76, 7, 2), float16] span=from_string:43:116 */ = sqrt(%x_31) /* ty=Tensor[(76, 7, 2), float16] span=from_string:41:105 */;
  %8 = cast(2f /* ty=float32 span=from_string:42:15 */, dtype="float16") /* ty=float16 span=from_string:43:112 */;
  let %x_33: Tensor[(76, 7, 2), float16] /* ty=Tensor[(76, 7, 2), float16] span=from_string:62:665 */ = divide(%8, %x_32) /* ty=Tensor[(76, 7, 2), float16] span=from_string:43:105 */;
  %9 = cast(%x2, dtype="float16") /* ty=Tensor[(14, 2), float16] span=from_string:54:110 */;
  %10 = cast(%x6, dtype="float16") /* ty=Tensor[(16, 2), float16] span=from_string:46:114 */;
  let %x_34: Tensor[(14, 16), float16] /* ty=Tensor[(14, 16), float16] span=from_string:49:105 */ = nn.dense(%9, %10, units=None, out_dtype="float16") /* ty=Tensor[(14, 16), float16] span=from_string:46:101 */;
  %11 = cast(%x7, dtype="float16") /* ty=Tensor[(16), float16] span=from_string:48:111 */;
  let %x_35: Tensor[(1, 16), float16] /* ty=Tensor[(1, 16), float16] span=from_string:49:112 */ = expand_dims(%11, axis=0) /* ty=Tensor[(1, 16), float16] span=from_string:48:99 */;
  let %x_36: Tensor[(14, 16), float16] /* ty=Tensor[(14, 16), float16] span=from_string:51:111 */ = add(%x_34, %x_35) /* ty=Tensor[(14, 16), float16] span=from_string:49:101 */;
  %12 = cast(%x8, dtype="float16") /* ty=Tensor[(1), float16] span=from_string:51:118 */;
  let %x_37: Tensor[(14, 16), float16] /* ty=Tensor[(14, 16), float16] span=from_string:52:115 */ = multiply(%x_36, %12) /* ty=Tensor[(14, 16), float16] span=from_string:51:102 */;
  let %x_38: Tensor[(1, 1, 224), float16] /* ty=Tensor[(1, 1, 224), float16] span=from_string:61:172 */ = reshape(%x_37, newshape=[1, 1, 224]) /* ty=Tensor[(1, 1, 224), float16] span=from_string:52:107 */;
  %13 = cast(%x9, dtype="float16") /* ty=Tensor[(32, 2), float16] span=from_string:54:114 */;
  let %x_39: Tensor[(14, 32), float16] /* ty=Tensor[(14, 32), float16] span=from_string:57:105 */ = nn.dense(%9, %13, units=None, out_dtype="float16") /* ty=Tensor[(14, 32), float16] span=from_string:54:101 */;
  %14 = cast(%x10, dtype="float16") /* ty=Tensor[(32), float16] span=from_string:56:111 */;
  let %x_40: Tensor[(1, 32), float16] /* ty=Tensor[(1, 32), float16] span=from_string:57:112 */ = expand_dims(%14, axis=0) /* ty=Tensor[(1, 32), float16] span=from_string:56:99 */;
  let %x_41: Tensor[(14, 32), float16] /* ty=Tensor[(14, 32), float16] span=from_string:59:111 */ = add(%x_39, %x_40) /* ty=Tensor[(14, 32), float16] span=from_string:57:101 */;
  %15 = cast(%x11, dtype="float16") /* ty=Tensor[(1), float16] span=from_string:59:118 */;
  let %x_42: Tensor[(14, 32), float16] /* ty=Tensor[(14, 32), float16] span=from_string:60:115 */ = multiply(%x_41, %15) /* ty=Tensor[(14, 32), float16] span=from_string:59:102 */;
  let %x_43: Tensor[(1, 1, 448), float16] /* ty=Tensor[(1, 1, 448), float16] span=from_string:61:179 */ = reshape(%x_42, newshape=[1, 1, 448]) /* ty=Tensor[(1, 1, 448), float16] span=from_string:60:107 */;
  let %x_44: (Tensor[(1, 1, 224), float16], Tensor[(1, 1, 448), float16]) /* ty=(Tensor[(1, 1, 224), float16], Tensor[(1, 1, 448), float16]) span=from_string:62:672 */ = (%x_38, %x_43) /* ty=(Tensor[(1, 1, 224), float16], Tensor[(1, 1, 448), float16]) span=from_string:61:171 */;
  let %x_45: (Tensor[(4, 7), float16], (Tensor[(2, 7, 2), float16], (Tensor[(2, 7, 2), float16],)), Tensor[(2, 7, 2), float16], Tensor[(6, 2), float32], Tensor[(2, 7, 2), float16], Tensor[(2, 7, 2), float16], Tensor[(76, 7, 2), float16], (Tensor[(1, 1, 224), float16], Tensor[(1, 1, 448), float16])) /* ty=(Tensor[(4, 7), float16], (Tensor[(2, 7, 2), float16], (Tensor[(2, 7, 2), float16],)), Tensor[(2, 7, 2), float16], Tensor[(6, 2), float32], Tensor[(2, 7, 2), float16], Tensor[(2, 7, 2), float16], Tensor[(76, 7, 2), float16], (Tensor[(1, 1, 224), float16], Tensor[(1, 1, 448), float16])) span=from_string:63:623 */ = (%x_3, %x_12, %x_14, %x_16, %x_21, %x_25, %x_33, %x_44) /* ty=(Tensor[(4, 7), float16], (Tensor[(2, 7, 2), float16], (Tensor[(2, 7, 2), float16],)), Tensor[(2, 7, 2), float16], Tensor[(6, 2), float32], Tensor[(2, 7, 2), float16], Tensor[(2, 7, 2), float16], Tensor[(76, 7, 2), float16], (Tensor[(1, 1, 224), float16], Tensor[(1, 1, 448), float16])) span=from_string:62:623 */;
  let %x_46: (Tensor[(4, 7), float16], (Tensor[(2, 7, 2), float16], (Tensor[(2, 7, 2), float16],)), Tensor[(2, 7, 2), float16], Tensor[(6, 2), float32], Tensor[(2, 7, 2), float16], Tensor[(2, 7, 2), float16], Tensor[(76, 7, 2), float16], (Tensor[(1, 1, 224), float16], Tensor[(1, 1, 448), float16])) /* ty=(Tensor[(4, 7), float16], (Tensor[(2, 7, 2), float16], (Tensor[(2, 7, 2), float16],)), Tensor[(2, 7, 2), float16], Tensor[(6, 2), float32], Tensor[(2, 7, 2), float16], Tensor[(2, 7, 2), float16], Tensor[(76, 7, 2), float16], (Tensor[(1, 1, 224), float16], Tensor[(1, 1, 448), float16])) span=from_string:64:621 */ = %x_45;
  let %x_47: (Tensor[(4, 7), float16], (Tensor[(2, 7, 2), float16], (Tensor[(2, 7, 2), float16],)), Tensor[(2, 7, 2), float16], Tensor[(6, 2), float32], Tensor[(2, 7, 2), float16], Tensor[(2, 7, 2), float16], Tensor[(76, 7, 2), float16], (Tensor[(1, 1, 224), float16], Tensor[(1, 1, 448), float16])) /* ty=(Tensor[(4, 7), float16], (Tensor[(2, 7, 2), float16], (Tensor[(2, 7, 2), float16],)), Tensor[(2, 7, 2), float16], Tensor[(6, 2), float32], Tensor[(2, 7, 2), float16], Tensor[(2, 7, 2), float16], Tensor[(76, 7, 2), float16], (Tensor[(1, 1, 224), float16], Tensor[(1, 1, 448), float16])) span=from_string:65:3 */ = %x_46;
  %x_47
}

#[metadata]
{
  "root": 1, 
  "nodes": [
    {
      "type_key": ""
    }, 
    {
      "type_key": "Map", 
      "keys": [
        "relay.Constant"
      ], 
      "data": [2]
    }, 
    {
      "type_key": "Array", 
      "data": [3]
    }, 
    {
      "type_key": "relay.Constant", 
      "attrs": {
        "_checked_type_": "8", 
        "data": "0", 
        "span": "6", 
        "virtual_device_": "4"
      }
    }, 
    {
      "type_key": "VirtualDevice", 
      "attrs": {
        "device_type_int": "-1", 
        "memory_scope": "5", 
        "target": "0", 
        "virtual_device_id": "-1"
      }
    }, 
    {
      "type_key": "runtime.String"
    }, 
    {
      "type_key": "Span", 
      "attrs": {
        "column": "110", 
        "end_column": "128", 
        "end_line": "22", 
        "line": "22", 
        "source_name": "7"
      }
    }, 
    {
      "type_key": "SourceName", 
      "repr_str": "from_string"
    }, 
    {
      "type_key": "relay.TensorType", 
      "attrs": {
        "dtype": "int32", 
        "shape": "9", 
        "span": "0"
      }
    }, 
    {
      "type_key": "Array", 
      "data": [10]
    }, 
    {
      "type_key": "IntImm", 
      "attrs": {
        "dtype": "int32", 
        "span": "0", 
        "value": "2"
      }
    }
  ], 
  "b64ndarrays": [
    "P6G0lvBAXt0AAAAAAAAAAAEAAAAAAAAAAQAAAAAgAQACAAAAAAAAAAgAAAAAAAAABAAAAAcAAAA="
  ], 
  "attrs": {"tvm_version": "0.13.0"}
}