#[version = "0.0.5"]
def @main(%x0: Tensor[(10, 20), float32] /* ty=Tensor[(10, 20), float32] span=from_string:3:13 */, %x1: Tensor[(19, 20), float32] /* ty=Tensor[(19, 20), float32] span=from_string:15:14 */, %x2: Tensor[(10, 20), float32] /* ty=Tensor[(10, 20), float32] span=from_string:19:14 */, %x3: Tensor[(10), float32] /* ty=Tensor[(10), float32] span=from_string:18:14 */, %x4: Tensor[(10), float32] /* ty=Tensor[(10), float32] span=from_string:21:14 */, %x5: Tensor[(92, 20), float32] /* ty=Tensor[(92, 20), float32] span=from_string:28:14 */, %x6: Tensor[(59, 20), float32] /* ty=Tensor[(59, 20), float32] span=from_string:30:14 */, %x7: Tensor[(21, 10), float32] /* ty=Tensor[(21, 10), float32] span=from_string:34:14 */, %x8: Tensor[(21), float32] /* ty=Tensor[(21), float32] span=from_string:36:14 */, %x9: Tensor[(1), float32] /* ty=Tensor[(1), float32] span=from_string:38:14 */, %x10: Tensor[(42, 10), float32] /* ty=Tensor[(42, 10), float32] span=from_string:40:14 */, %x11: Tensor[(42), float32] /* ty=Tensor[(42), float32] span=from_string:42:14 */, %x12: Tensor[(1), float32] /* ty=Tensor[(1), float32] span=from_string:44:14 */, %x13: Tensor[(10, 59, 1), float32] /* ty=Tensor[(10, 59, 1), float32] */) -> (Tensor[(10, 20), float32], (Tensor[(19, 10), float16], Tensor[(19, 10), float16]), (Tensor[(10, 92, 1), float16], Tensor[(10, 59, 1), float16]), (Tensor[(1, 1, 399), float16], Tensor[(1, 1, 798), float16]), Tensor[(1), float16], int32) {
  let %x_0 = cast(%x0, dtype="float16");
  let %x_1 = 1f /* ty=float32 span=from_string:4:15 */;
  let %x_2 = cast(%x_1, dtype="float16");
  let %x_3 = add(%x_0, %x_2);
  let %x_4 = cast(%x_3, dtype="float32");
  let %x_5 = exp(%x_4);
  let %x_6 = squeeze(%x_5);
  let %x_7 = 1f /* ty=float32 span=from_string:9:18 */;
  let %x_8 = add(%x_6, %x_7);
  let %x_9 = exp(%x_8);
  let %x_10 = squeeze(%x_9);
  let %x_11 = add(%x_10, %x_10);
  let %x_12 = cast(%x1, dtype="float16");
  let %x_13 = ones(shape=[1], dtype="float16");
  let %x_14 = cast(%x_13, dtype="float32");
  let %x_15 = multiply(%x_14, %x_6);
  let %x_16 = cast(%x_15, dtype="float16");
  let %x_17 = nn.dense(%x_12, %x_16, units=None, out_dtype="float16");
  let %x_18 = cast(%x3, dtype="float16");
  let %x_19 = add(%x_17, %x_18);
  let %x_20 = cast(%x2, dtype="float16");
  let %x_21 = nn.dense(%x_12, %x_20, units=None, out_dtype="float16");
  let %x_22 = cast(%x4, dtype="float16");
  let %x_23 = add(%x_21, %x_22);
  let %x_24 = (%x_19, %x_23) /* ty=(Tensor[(19, 10), float16], Tensor[(19, 10), float16]) span=from_string:54:9 */;
  let %x_25 = 1f /* ty=float32 span=from_string:24:19 */;
  let %x_26 = add(%x_5, %x_25);
  let %x_27 = exp(%x_26);
  let %x_28 = squeeze(%x_27);
  let %x_29 = cast(%x_28, dtype="float16");
  let %x_30 = cast(%x5, dtype="float16");
  let %x_31 = nn.dense(%x_29, %x_30, units=None, out_dtype="float16");
  let %x_32 = expand_dims(%x_31, axis=2);
  let %x_33 = cast(%x6, dtype="float16");
  let %x_34 = nn.dense(%x_29, %x_33, units=None, out_dtype="float16");
  let %x_35 = expand_dims(%x_34, axis=2);
  let %x_36 = (%x_32, %x_35) /* ty=(Tensor[(10, 92, 1), float16], Tensor[(10, 59, 1), float16]) span=from_string:54:14 */;
  let %x_37 = cast(%x7, dtype="float16");
  let %x_38 = nn.dense(%x_19, %x_37, units=None, out_dtype="float16");
  let %x_39 = cast(%x8, dtype="float16");
  let %x_40 = add(%x_38, %x_39);
  let %x_41 = cast(%x9, dtype="float16");
  let %x_42 = multiply(%x_40, %x_41);
  let %x_43 = reshape(%x_42, newshape=[1, 1, 399]);
  let %x_44 = cast(%x10, dtype="float16");
  let %x_45 = nn.dense(%x_19, %x_44, units=None, out_dtype="float16");
  let %x_46 = cast(%x11, dtype="float16");
  let %x_47 = add(%x_45, %x_46);
  let %x_48 = cast(%x12, dtype="float16");
  let %x_49 = multiply(%x_47, %x_48);
  let %x_50 = reshape(%x_49, newshape=[1, 1, 798]);
  let %x_51 = (%x_43, %x_50) /* ty=(Tensor[(1, 1, 399), float16], Tensor[(1, 1, 798), float16]) span=from_string:54:19 */;
  let %x_52 = ones(shape=[1], dtype="float16");
  let %x_53 = multiply(%x_52, %x_48);
  let %x_54 = 590 /* ty=int32 span=from_string:54:32 */;
  let %x_55 = (%x_11, %x_24, %x_36, %x_51, %x_53, %x_54) /* ty=(Tensor[(10, 20), float32], (Tensor[(19, 10), float16], Tensor[(19, 10), float16]), (Tensor[(10, 92, 1), float16], Tensor[(10, 59, 1), float16]), (Tensor[(1, 1, 399), float16], Tensor[(1, 1, 798), float16]), Tensor[(1), float16], int32) span=from_string:3:3 */;
  %x_55
}
