#[version = "0.0.5"]
def @main(%x0: Tensor[(4, 7), float32] /* ty=Tensor[(4, 7), float32] span=GeneratedSource:23:12 */, %x1: Tensor[(2, 7, 2), float32] /* ty=Tensor[(2, 7, 2), float32] span=GeneratedSource:11:11 */, %x2: Tensor[(14, 2), float32] /* ty=Tensor[(14, 2), float32] */, %x3: Tensor[(52, 7, 2), float32] /* ty=Tensor[(52, 7, 2), float32] span=GeneratedSource:25:17 */) -> (Tensor[(4, 7), float32], Tensor[(2), int32], Tensor[(14, 2), float32], int32, int32, Tensor[(54, 7, 2), float32]) {
  %1 = fn (%p0: Tensor[(4, 7), float32] /* ty=Tensor[(4, 7), float32] span=GeneratedSource:4:18 */, Primitive=1, relay.reshape_only=1) -> Tensor[(4, 7), float32] {
    %0 = reshape(%p0, newshape=[2, 7, 2]) /* ty=Tensor[(2, 7, 2), float32] span=GeneratedSource:5:13 */;
    reshape(%0, newshape=[4, 7]) /* ty=Tensor[(4, 7), float32] span=GeneratedSource:4:5 */
  } /* ty=fn (Tensor[(4, 7), float32]) -> Tensor[(4, 7), float32] span=GeneratedSource:23:9 */;
  %3 = fn (%p02: Tensor[(2, 7, 2), float32] /* ty=Tensor[(2, 7, 2), float32] span=GeneratedSource:8:14 */, Primitive=1) -> Tensor[(2, 7, 2), float32] {
    %2 = erf(%p02) /* ty=Tensor[(2, 7, 2), float32] span=GeneratedSource:9:9 */;
    add(%2, 1f /* ty=float32 span=GeneratedSource:9:15 */) /* ty=Tensor[(2, 7, 2), float32] span=GeneratedSource:8:5 */
  } /* ty=fn (Tensor[(2, 7, 2), float32]) -> Tensor[(2, 7, 2), float32] span=GeneratedSource:11:8 */;
  %4 = %3(%x1) /* ty=Tensor[(2, 7, 2), float32] span=GeneratedSource:25:13 */;
  %5 = fn (%p01: Tensor[(2, 7, 2), float32] /* ty=Tensor[(2, 7, 2), float32] span=GeneratedSource:13:13 */, Primitive=1, relay.reshape_only=1) -> Tensor[(14, 2), float32] {
    reshape(%p01, newshape=[14, 2]) /* ty=Tensor[(14, 2), float32] span=GeneratedSource:13:5 */
  } /* ty=fn (Tensor[(2, 7, 2), float32]) -> Tensor[(14, 2), float32] span=GeneratedSource:24:9 */;
  %11 = fn (%p03: Tensor[(2, 7, 2), float32] /* ty=Tensor[(2, 7, 2), float32] span=GeneratedSource:16:14 */, %p1: Tensor[(52, 7, 2), float32] /* ty=Tensor[(52, 7, 2), float32] span=GeneratedSource:20:16 */, Primitive=1) -> Tensor[(54, 7, 2), float32] {
    %6 = exp(%p03) /* ty=Tensor[(2, 7, 2), float32] span=GeneratedSource:17:15 */;
    %7 = sqrt(%6) /* ty=Tensor[(2, 7, 2), float32] span=GeneratedSource:18:61 */;
    %8 = divide(2f /* ty=float32 span=GeneratedSource:18:19 */, %7) /* ty=Tensor[(2, 7, 2), float32] span=GeneratedSource:19:58 */;
    %9 = add(2f /* ty=float32 span=GeneratedSource:19:16 */, %8) /* ty=Tensor[(2, 7, 2), float32] span=GeneratedSource:20:12 */;
    %10 = (%9, %p1) /* ty=(Tensor[(2, 7, 2), float32], Tensor[(52, 7, 2), float32]) span=GeneratedSource:21:17 */;
    concatenate(%10) /* ty=Tensor[(54, 7, 2), float32] span=GeneratedSource:16:5 */
  } /* ty=fn (Tensor[(2, 7, 2), float32], Tensor[(52, 7, 2), float32]) -> Tensor[(54, 7, 2), float32] span=GeneratedSource:25:9 */;
  %12 = %1(%x0) /* ty=Tensor[(4, 7), float32] span=GeneratedSource:26:4 */;
  %13 = %5(%4) /* ty=Tensor[(14, 2), float32] span=GeneratedSource:26:85 */;
  %14 = %11(%4, %x3) /* ty=Tensor[(54, 7, 2), float32] span=GeneratedSource:26:173 */;
  (%12, meta[relay.Constant][0] /* ty=Tensor[(2), int32] span=GeneratedSource:26:14 */, %13, 2 /* ty=int32 span=GeneratedSource:26:91 */, 1 /* ty=int32 span=GeneratedSource:26:132 */, %14) /* ty=(Tensor[(4, 7), float32], Tensor[(2), int32], Tensor[(14, 2), float32], int32, int32, Tensor[(54, 7, 2), float32]) span=GeneratedSource:3:3 */
}

#[metadata]
{
  "root": 1, 
  "nodes": [
    {
      "type_key": ""
    }, 
    {
      "type_key": "Map", 
      "keys": [
        "relay.Constant"
      ], 
      "data": [2]
    }, 
    {
      "type_key": "Array", 
      "data": [3]
    }, 
    {
      "type_key": "relay.Constant", 
      "attrs": {
        "_checked_type_": "8", 
        "data": "0", 
        "span": "6", 
        "virtual_device_": "4"
      }
    }, 
    {
      "type_key": "VirtualDevice", 
      "attrs": {
        "device_type_int": "-1", 
        "memory_scope": "5", 
        "target": "0", 
        "virtual_device_id": "-1"
      }
    }, 
    {
      "type_key": "runtime.String"
    }, 
    {
      "type_key": "Span", 
      "attrs": {
        "column": "14", 
        "end_column": "32", 
        "end_line": "26", 
        "line": "26", 
        "source_name": "7"
      }
    }, 
    {
      "type_key": "SourceName", 
      "repr_str": "GeneratedSource"
    }, 
    {
      "type_key": "relay.TensorType", 
      "attrs": {
        "dtype": "int32", 
        "shape": "9", 
        "span": "11"
      }
    }, 
    {
      "type_key": "Array", 
      "data": [10]
    }, 
    {
      "type_key": "IntImm", 
      "attrs": {
        "dtype": "int32", 
        "span": "0", 
        "value": "2"
      }
    }, 
    {
      "type_key": "Span", 
      "attrs": {
        "column": "378", 
        "end_column": "398", 
        "end_line": "2", 
        "line": "2", 
        "source_name": "7"
      }
    }
  ], 
  "b64ndarrays": [
    "P6G0lvBAXt0AAAAAAAAAAAEAAAAAAAAAAQAAAAAgAQACAAAAAAAAAAgAAAAAAAAABAAAAAcAAAA="
  ], 
  "attrs": {"tvm_version": "0.13.0"}
}