#[version = "0.0.5"]
def @main(%x0: Tensor[(1, 5, 5, 4), float32] /* ty=Tensor[(1, 5, 5, 4), float32] span=from_string:13:114 */, %x1: Tensor[(0, 9, 4), float32] /* ty=Tensor[(0, 9, 4), float32] */, %x2: Tensor[(1, 5, 5, 4), float32] /* ty=Tensor[(1, 5, 5, 4), float32] span=from_string:5:113 */) -> (Tensor[(0, 9, 9, 4), float16], Tensor[(1, 5, 5, 4), float16], Tensor[(3), int32], Tensor[(1, 5, 5, 4), float16], Tensor[(1, 5, 5, 4), float16], (Tensor[(5, 5, 4, 1), float16], (Tensor[(5, 5, 4, 1), float16],)), int32) {
  let %x_0: Tensor[(1, 5, 5, 4), float32] /* ty=Tensor[(1, 5, 5, 4), float32] span=from_string:18:125 */ = fast_erf(%x0) /* ty=Tensor[(1, 5, 5, 4), float32] span=from_string:3:108 */;
  let %x_01: Tensor[(1, 5, 5, 4), float16] /* ty=Tensor[(1, 5, 5, 4), float16] span=from_string:6:118 */ = cast(%x_0, dtype="float16") /* ty=Tensor[(1, 5, 5, 4), float16] span=from_string:4:108 */;
  let %x_1: Tensor[(1, 5, 5, 4), float16] /* ty=Tensor[(1, 5, 5, 4), float16] span=from_string:22:126 */ = cast(%x2, dtype="float16") /* ty=Tensor[(1, 5, 5, 4), float16] span=from_string:5:108 */;
  let %x_11: Tensor[(1, 5, 5, 4), float16] /* ty=Tensor[(1, 5, 5, 4), float16] span=from_string:22:119 */ = subtract(%x_01, %x_1) /* ty=Tensor[(1, 5, 5, 4), float16] span=from_string:6:109 */;
  let %x_2: Tensor[(1, 5, 4, 5), float16] /* ty=Tensor[(1, 5, 4, 5), float16] span=from_string:8:124 */ = layout_transform(%x_11, src_layout="NCHW", dst_layout="NHWC") /* ty=Tensor[(1, 5, 4, 5), float16] span=from_string:7:107 */;
  let %x_3: Tensor[(5, 5, 4, 1), float16] /* ty=Tensor[(5, 5, 4, 1), float16] span=from_string:9:116 */ = layout_transform(%x_2, src_layout="NHWC", dst_layout="CHWN") /* ty=Tensor[(5, 5, 4, 1), float16] span=from_string:8:107 */;
  let %x_4: Tensor[(5, 5, 4, 1), float16] /* ty=Tensor[(5, 5, 4, 1), float16] span=from_string:30:135 */ = nn.relu(%x_3) /* ty=Tensor[(5, 5, 4, 1), float16] span=from_string:9:108 */;
  let %x3: Tensor[(5, 5, 4, 1), float16] /* ty=Tensor[(5, 5, 4, 1), float16] span=from_string:33:182 */ = multiply(%x_4, %x_4) /* ty=Tensor[(5, 5, 4, 1), float16] span=from_string:10:108 */;
  let %x_5: Tensor[(5, 5, 4, 1), float16] /* ty=Tensor[(5, 5, 4, 1), float16] span=from_string:12:117 */ = cast(%x3, dtype="float16") /* ty=Tensor[(5, 5, 4, 1), float16] span=from_string:11:108 */;
  let %x4: Tensor[(5, 5, 4, 1), float16] /* ty=Tensor[(5, 5, 4, 1), float16] span=from_string:24:114 */ = ones_like(%x_5) /* ty=Tensor[(5, 5, 4, 1), float16] span=from_string:12:107 */;
  let %x_21: Tensor[(1, 5, 5, 4), float16] /* ty=Tensor[(1, 5, 5, 4), float16] span=from_string:14:113 */ = cast(%x0, dtype="float16") /* ty=Tensor[(1, 5, 5, 4), float16] span=from_string:13:109 */;
  let %x_6: Tensor[(1, 5, 5, 4), float16] /* ty=Tensor[(1, 5, 5, 4), float16] span=from_string:15:129 */ = cast(%x_21, dtype="float16") /* ty=Tensor[(1, 5, 5, 4), float16] span=from_string:14:108 */;
  let %x_7: Tensor[(0, 9, 9, 4), float16] /* ty=Tensor[(0, 9, 9, 4), float16] span=from_string:16:110 */ = nn.batch_to_space_nd(%x_6, block_shape=[2, 2], crops=[[0, 1], [0, 1]]) /* ty=Tensor[(0, 9, 9, 4), float16] span=from_string:15:108 */;
  let %x_8: Tensor[(0, 9, 4), float16] /* ty=Tensor[(0, 9, 4), float16] span=from_string:17:116 */ = reshape(%x_7, newshape=[0, 9, 4]) /* ty=Tensor[(0, 9, 4), float16] span=from_string:16:102 */;
  let %x_9: Tensor[(0, 9, 9, 4), float16] /* ty=Tensor[(0, 9, 9, 4), float16] span=from_string:34:492 */ = reshape(%x_8, newshape=[0, 9, 9, 4]) /* ty=Tensor[(0, 9, 9, 4), float16] span=from_string:17:108 */;
  let %x_10: Tensor[(1, 5, 5, 4), float32] /* ty=Tensor[(1, 5, 5, 4), float32] span=from_string:19:114 */ = nn.fast_softmax(%x_0) /* ty=Tensor[(1, 5, 5, 4), float32] span=from_string:18:109 */;
  let %x_31: Tensor[(1, 5, 5, 4), float16] /* ty=Tensor[(1, 5, 5, 4), float16] span=from_string:21:119 */ = cast(%x_10, dtype="float16") /* ty=Tensor[(1, 5, 5, 4), float16] span=from_string:19:109 */;
  let %x_111: Tensor[(1, 5, 5, 4), float16] /* ty=Tensor[(1, 5, 5, 4), float16] span=from_string:34:498 */ = cast(%x_31, dtype="float16") /* ty=Tensor[(1, 5, 5, 4), float16] span=from_string:20:110 */;
  let %x_13: Tensor[(1, 5, 5, 4), float16] /* ty=Tensor[(1, 5, 5, 4), float16] span=from_string:34:583 */ = fast_tanh(%x_31) /* ty=Tensor[(1, 5, 5, 4), float16] span=from_string:21:109 */;
  let %x_14: Tensor[(1, 5, 5, 4), float16] /* ty=Tensor[(1, 5, 5, 4), float16] span=from_string:34:590 */ = multiply(%x_11, %x_1) /* ty=Tensor[(1, 5, 5, 4), float16] span=from_string:22:110 */;
  let %x_15: Tensor[(5, 5, 4, 1), float16] /* ty=Tensor[(5, 5, 4, 1), float16] span=from_string:28:113 */ = zeros_like(%x_4) /* ty=Tensor[(5, 5, 4, 1), float16] span=from_string:23:109 */;
  let %x_16: Tensor[(5, 5, 4, 1), float32] /* ty=Tensor[(5, 5, 4, 1), float32] span=from_string:25:114 */ = cast(%x4, dtype="float32") /* ty=Tensor[(5, 5, 4, 1), float32] span=from_string:24:109 */;
  let %x_41: Tensor[(5, 5, 4, 1), float16] /* ty=Tensor[(5, 5, 4, 1), float16] span=from_string:29:119 */ = cast(%x_16, dtype="float16") /* ty=Tensor[(5, 5, 4, 1), float16] span=from_string:25:109 */;
  let %x_17: Tensor[(5, 5, 4, 1), float16] /* ty=Tensor[(5, 5, 4, 1), float16] span=from_string:27:127 */ = multiply(%x_41, %x_4) /* ty=Tensor[(5, 5, 4, 1), float16] span=from_string:26:110 */;
  let %x_18: Tensor[(5, 5, 4, 1), float16] /* ty=Tensor[(5, 5, 4, 1), float16] span=from_string:28:120 */ = collapse_sum_like(%x_17, %x_4) /* ty=Tensor[(5, 5, 4, 1), float16] span=from_string:27:109 */;
  let %x_19: Tensor[(5, 5, 4, 1), float16] /* ty=Tensor[(5, 5, 4, 1), float16] span=from_string:31:113 */ = add(%x_15, %x_18) /* ty=Tensor[(5, 5, 4, 1), float16] span=from_string:28:109 */;
  let %x_20: Tensor[(5, 5, 4, 1), float16] /* ty=Tensor[(5, 5, 4, 1), float16] span=from_string:30:128 */ = multiply(%x_41, %x_4) /* ty=Tensor[(5, 5, 4, 1), float16] span=from_string:29:110 */;
  let %x_211: Tensor[(5, 5, 4, 1), float16] /* ty=Tensor[(5, 5, 4, 1), float16] span=from_string:31:120 */ = collapse_sum_like(%x_20, %x_4) /* ty=Tensor[(5, 5, 4, 1), float16] span=from_string:30:110 */;
  let %x_22: Tensor[(5, 5, 4, 1), float16] /* ty=Tensor[(5, 5, 4, 1), float16] span=from_string:32:116 */ = add(%x_19, %x_211) /* ty=Tensor[(5, 5, 4, 1), float16] span=from_string:31:109 */;
  let %x_23: (Tensor[(5, 5, 4, 1), float16],) /* ty=(Tensor[(5, 5, 4, 1), float16],) span=from_string:33:187 */ = (%x_22,) /* ty=(Tensor[(5, 5, 4, 1), float16],) span=from_string:32:115 */;
  let %x_24: (Tensor[(5, 5, 4, 1), float16], (Tensor[(5, 5, 4, 1), float16],)) /* ty=(Tensor[(5, 5, 4, 1), float16], (Tensor[(5, 5, 4, 1), float16],)) span=from_string:34:597 */ = (%x3, %x_23) /* ty=(Tensor[(5, 5, 4, 1), float16], (Tensor[(5, 5, 4, 1), float16],)) span=from_string:33:181 */;
  let %x_26: (Tensor[(0, 9, 9, 4), float16], Tensor[(1, 5, 5, 4), float16], Tensor[(3), int32], Tensor[(1, 5, 5, 4), float16], Tensor[(1, 5, 5, 4), float16], (Tensor[(5, 5, 4, 1), float16], (Tensor[(5, 5, 4, 1), float16],)), int32) /* ty=(Tensor[(0, 9, 9, 4), float16], Tensor[(1, 5, 5, 4), float16], Tensor[(3), int32], Tensor[(1, 5, 5, 4), float16], Tensor[(1, 5, 5, 4), float16], (Tensor[(5, 5, 4, 1), float16], (Tensor[(5, 5, 4, 1), float16],)), int32) span=from_string:35:491 */ = (%x_9, %x_111, meta[relay.Constant][0] /* ty=Tensor[(3), int32] span=from_string:34:511 */, %x_13, %x_14, %x_24, 2 /* ty=int32 span=from_string:34:605 */) /* ty=(Tensor[(0, 9, 9, 4), float16], Tensor[(1, 5, 5, 4), float16], Tensor[(3), int32], Tensor[(1, 5, 5, 4), float16], Tensor[(1, 5, 5, 4), float16], (Tensor[(5, 5, 4, 1), float16], (Tensor[(5, 5, 4, 1), float16],)), int32) span=from_string:34:491 */;
  let %x_27: (Tensor[(0, 9, 9, 4), float16], Tensor[(1, 5, 5, 4), float16], Tensor[(3), int32], Tensor[(1, 5, 5, 4), float16], Tensor[(1, 5, 5, 4), float16], (Tensor[(5, 5, 4, 1), float16], (Tensor[(5, 5, 4, 1), float16],)), int32) /* ty=(Tensor[(0, 9, 9, 4), float16], Tensor[(1, 5, 5, 4), float16], Tensor[(3), int32], Tensor[(1, 5, 5, 4), float16], Tensor[(1, 5, 5, 4), float16], (Tensor[(5, 5, 4, 1), float16], (Tensor[(5, 5, 4, 1), float16],)), int32) span=from_string:36:491 */ = %x_26;
  let %x_28: (Tensor[(0, 9, 9, 4), float16], Tensor[(1, 5, 5, 4), float16], Tensor[(3), int32], Tensor[(1, 5, 5, 4), float16], Tensor[(1, 5, 5, 4), float16], (Tensor[(5, 5, 4, 1), float16], (Tensor[(5, 5, 4, 1), float16],)), int32) /* ty=(Tensor[(0, 9, 9, 4), float16], Tensor[(1, 5, 5, 4), float16], Tensor[(3), int32], Tensor[(1, 5, 5, 4), float16], Tensor[(1, 5, 5, 4), float16], (Tensor[(5, 5, 4, 1), float16], (Tensor[(5, 5, 4, 1), float16],)), int32) span=from_string:37:491 */ = %x_27;
  let %x_51: (Tensor[(0, 9, 9, 4), float16], Tensor[(1, 5, 5, 4), float16], Tensor[(3), int32], Tensor[(1, 5, 5, 4), float16], Tensor[(1, 5, 5, 4), float16], (Tensor[(5, 5, 4, 1), float16], (Tensor[(5, 5, 4, 1), float16],)), int32) /* ty=(Tensor[(0, 9, 9, 4), float16], Tensor[(1, 5, 5, 4), float16], Tensor[(3), int32], Tensor[(1, 5, 5, 4), float16], Tensor[(1, 5, 5, 4), float16], (Tensor[(5, 5, 4, 1), float16], (Tensor[(5, 5, 4, 1), float16],)), int32) span=from_string:38:491 */ = %x_28;
  let %x_61: (Tensor[(0, 9, 9, 4), float16], Tensor[(1, 5, 5, 4), float16], Tensor[(3), int32], Tensor[(1, 5, 5, 4), float16], Tensor[(1, 5, 5, 4), float16], (Tensor[(5, 5, 4, 1), float16], (Tensor[(5, 5, 4, 1), float16],)), int32) /* ty=(Tensor[(0, 9, 9, 4), float16], Tensor[(1, 5, 5, 4), float16], Tensor[(3), int32], Tensor[(1, 5, 5, 4), float16], Tensor[(1, 5, 5, 4), float16], (Tensor[(5, 5, 4, 1), float16], (Tensor[(5, 5, 4, 1), float16],)), int32) span=from_string:39:491 */ = %x_51;
  let %x_71: (Tensor[(0, 9, 9, 4), float16], Tensor[(1, 5, 5, 4), float16], Tensor[(3), int32], Tensor[(1, 5, 5, 4), float16], Tensor[(1, 5, 5, 4), float16], (Tensor[(5, 5, 4, 1), float16], (Tensor[(5, 5, 4, 1), float16],)), int32) /* ty=(Tensor[(0, 9, 9, 4), float16], Tensor[(1, 5, 5, 4), float16], Tensor[(3), int32], Tensor[(1, 5, 5, 4), float16], Tensor[(1, 5, 5, 4), float16], (Tensor[(5, 5, 4, 1), float16], (Tensor[(5, 5, 4, 1), float16],)), int32) span=from_string:40:491 */ = %x_61;
  let %x_81: (Tensor[(0, 9, 9, 4), float16], Tensor[(1, 5, 5, 4), float16], Tensor[(3), int32], Tensor[(1, 5, 5, 4), float16], Tensor[(1, 5, 5, 4), float16], (Tensor[(5, 5, 4, 1), float16], (Tensor[(5, 5, 4, 1), float16],)), int32) /* ty=(Tensor[(0, 9, 9, 4), float16], Tensor[(1, 5, 5, 4), float16], Tensor[(3), int32], Tensor[(1, 5, 5, 4), float16], Tensor[(1, 5, 5, 4), float16], (Tensor[(5, 5, 4, 1), float16], (Tensor[(5, 5, 4, 1), float16],)), int32) span=from_string:41:491 */ = %x_71;
  let %x_91: (Tensor[(0, 9, 9, 4), float16], Tensor[(1, 5, 5, 4), float16], Tensor[(3), int32], Tensor[(1, 5, 5, 4), float16], Tensor[(1, 5, 5, 4), float16], (Tensor[(5, 5, 4, 1), float16], (Tensor[(5, 5, 4, 1), float16],)), int32) /* ty=(Tensor[(0, 9, 9, 4), float16], Tensor[(1, 5, 5, 4), float16], Tensor[(3), int32], Tensor[(1, 5, 5, 4), float16], Tensor[(1, 5, 5, 4), float16], (Tensor[(5, 5, 4, 1), float16], (Tensor[(5, 5, 4, 1), float16],)), int32) span=from_string:42:492 */ = %x_81;
  let %x_101: (Tensor[(0, 9, 9, 4), float16], Tensor[(1, 5, 5, 4), float16], Tensor[(3), int32], Tensor[(1, 5, 5, 4), float16], Tensor[(1, 5, 5, 4), float16], (Tensor[(5, 5, 4, 1), float16], (Tensor[(5, 5, 4, 1), float16],)), int32) /* ty=(Tensor[(0, 9, 9, 4), float16], Tensor[(1, 5, 5, 4), float16], Tensor[(3), int32], Tensor[(1, 5, 5, 4), float16], Tensor[(1, 5, 5, 4), float16], (Tensor[(5, 5, 4, 1), float16], (Tensor[(5, 5, 4, 1), float16],)), int32) span=from_string:43:492 */ = %x_91;
  let %x_112: (Tensor[(0, 9, 9, 4), float16], Tensor[(1, 5, 5, 4), float16], Tensor[(3), int32], Tensor[(1, 5, 5, 4), float16], Tensor[(1, 5, 5, 4), float16], (Tensor[(5, 5, 4, 1), float16], (Tensor[(5, 5, 4, 1), float16],)), int32) /* ty=(Tensor[(0, 9, 9, 4), float16], Tensor[(1, 5, 5, 4), float16], Tensor[(3), int32], Tensor[(1, 5, 5, 4), float16], Tensor[(1, 5, 5, 4), float16], (Tensor[(5, 5, 4, 1), float16], (Tensor[(5, 5, 4, 1), float16],)), int32) span=from_string:44:492 */ = %x_101;
  let %x_121: (Tensor[(0, 9, 9, 4), float16], Tensor[(1, 5, 5, 4), float16], Tensor[(3), int32], Tensor[(1, 5, 5, 4), float16], Tensor[(1, 5, 5, 4), float16], (Tensor[(5, 5, 4, 1), float16], (Tensor[(5, 5, 4, 1), float16],)), int32) /* ty=(Tensor[(0, 9, 9, 4), float16], Tensor[(1, 5, 5, 4), float16], Tensor[(3), int32], Tensor[(1, 5, 5, 4), float16], Tensor[(1, 5, 5, 4), float16], (Tensor[(5, 5, 4, 1), float16], (Tensor[(5, 5, 4, 1), float16],)), int32) span=from_string:45:492 */ = %x_112;
  let %x_131: (Tensor[(0, 9, 9, 4), float16], Tensor[(1, 5, 5, 4), float16], Tensor[(3), int32], Tensor[(1, 5, 5, 4), float16], Tensor[(1, 5, 5, 4), float16], (Tensor[(5, 5, 4, 1), float16], (Tensor[(5, 5, 4, 1), float16],)), int32) /* ty=(Tensor[(0, 9, 9, 4), float16], Tensor[(1, 5, 5, 4), float16], Tensor[(3), int32], Tensor[(1, 5, 5, 4), float16], Tensor[(1, 5, 5, 4), float16], (Tensor[(5, 5, 4, 1), float16], (Tensor[(5, 5, 4, 1), float16],)), int32) span=from_string:46:492 */ = %x_121;
  let %x_141: (Tensor[(0, 9, 9, 4), float16], Tensor[(1, 5, 5, 4), float16], Tensor[(3), int32], Tensor[(1, 5, 5, 4), float16], Tensor[(1, 5, 5, 4), float16], (Tensor[(5, 5, 4, 1), float16], (Tensor[(5, 5, 4, 1), float16],)), int32) /* ty=(Tensor[(0, 9, 9, 4), float16], Tensor[(1, 5, 5, 4), float16], Tensor[(3), int32], Tensor[(1, 5, 5, 4), float16], Tensor[(1, 5, 5, 4), float16], (Tensor[(5, 5, 4, 1), float16], (Tensor[(5, 5, 4, 1), float16],)), int32) span=from_string:47:492 */ = %x_131;
  let %x_151: (Tensor[(0, 9, 9, 4), float16], Tensor[(1, 5, 5, 4), float16], Tensor[(3), int32], Tensor[(1, 5, 5, 4), float16], Tensor[(1, 5, 5, 4), float16], (Tensor[(5, 5, 4, 1), float16], (Tensor[(5, 5, 4, 1), float16],)), int32) /* ty=(Tensor[(0, 9, 9, 4), float16], Tensor[(1, 5, 5, 4), float16], Tensor[(3), int32], Tensor[(1, 5, 5, 4), float16], Tensor[(1, 5, 5, 4), float16], (Tensor[(5, 5, 4, 1), float16], (Tensor[(5, 5, 4, 1), float16],)), int32) span=from_string:48:492 */ = %x_141;
  let %x_161: (Tensor[(0, 9, 9, 4), float16], Tensor[(1, 5, 5, 4), float16], Tensor[(3), int32], Tensor[(1, 5, 5, 4), float16], Tensor[(1, 5, 5, 4), float16], (Tensor[(5, 5, 4, 1), float16], (Tensor[(5, 5, 4, 1), float16],)), int32) /* ty=(Tensor[(0, 9, 9, 4), float16], Tensor[(1, 5, 5, 4), float16], Tensor[(3), int32], Tensor[(1, 5, 5, 4), float16], Tensor[(1, 5, 5, 4), float16], (Tensor[(5, 5, 4, 1), float16], (Tensor[(5, 5, 4, 1), float16],)), int32) span=from_string:49:492 */ = %x_151;
  let %x_171: (Tensor[(0, 9, 9, 4), float16], Tensor[(1, 5, 5, 4), float16], Tensor[(3), int32], Tensor[(1, 5, 5, 4), float16], Tensor[(1, 5, 5, 4), float16], (Tensor[(5, 5, 4, 1), float16], (Tensor[(5, 5, 4, 1), float16],)), int32) /* ty=(Tensor[(0, 9, 9, 4), float16], Tensor[(1, 5, 5, 4), float16], Tensor[(3), int32], Tensor[(1, 5, 5, 4), float16], Tensor[(1, 5, 5, 4), float16], (Tensor[(5, 5, 4, 1), float16], (Tensor[(5, 5, 4, 1), float16],)), int32) span=from_string:50:492 */ = %x_161;
  let %x_181: (Tensor[(0, 9, 9, 4), float16], Tensor[(1, 5, 5, 4), float16], Tensor[(3), int32], Tensor[(1, 5, 5, 4), float16], Tensor[(1, 5, 5, 4), float16], (Tensor[(5, 5, 4, 1), float16], (Tensor[(5, 5, 4, 1), float16],)), int32) /* ty=(Tensor[(0, 9, 9, 4), float16], Tensor[(1, 5, 5, 4), float16], Tensor[(3), int32], Tensor[(1, 5, 5, 4), float16], Tensor[(1, 5, 5, 4), float16], (Tensor[(5, 5, 4, 1), float16], (Tensor[(5, 5, 4, 1), float16],)), int32) span=from_string:51:492 */ = %x_171;
  let %x_191: (Tensor[(0, 9, 9, 4), float16], Tensor[(1, 5, 5, 4), float16], Tensor[(3), int32], Tensor[(1, 5, 5, 4), float16], Tensor[(1, 5, 5, 4), float16], (Tensor[(5, 5, 4, 1), float16], (Tensor[(5, 5, 4, 1), float16],)), int32) /* ty=(Tensor[(0, 9, 9, 4), float16], Tensor[(1, 5, 5, 4), float16], Tensor[(3), int32], Tensor[(1, 5, 5, 4), float16], Tensor[(1, 5, 5, 4), float16], (Tensor[(5, 5, 4, 1), float16], (Tensor[(5, 5, 4, 1), float16],)), int32) span=from_string:52:492 */ = %x_181;
  let %x_201: (Tensor[(0, 9, 9, 4), float16], Tensor[(1, 5, 5, 4), float16], Tensor[(3), int32], Tensor[(1, 5, 5, 4), float16], Tensor[(1, 5, 5, 4), float16], (Tensor[(5, 5, 4, 1), float16], (Tensor[(5, 5, 4, 1), float16],)), int32) /* ty=(Tensor[(0, 9, 9, 4), float16], Tensor[(1, 5, 5, 4), float16], Tensor[(3), int32], Tensor[(1, 5, 5, 4), float16], Tensor[(1, 5, 5, 4), float16], (Tensor[(5, 5, 4, 1), float16], (Tensor[(5, 5, 4, 1), float16],)), int32) span=from_string:53:492 */ = %x_191;
  let %x_212: (Tensor[(0, 9, 9, 4), float16], Tensor[(1, 5, 5, 4), float16], Tensor[(3), int32], Tensor[(1, 5, 5, 4), float16], Tensor[(1, 5, 5, 4), float16], (Tensor[(5, 5, 4, 1), float16], (Tensor[(5, 5, 4, 1), float16],)), int32) /* ty=(Tensor[(0, 9, 9, 4), float16], Tensor[(1, 5, 5, 4), float16], Tensor[(3), int32], Tensor[(1, 5, 5, 4), float16], Tensor[(1, 5, 5, 4), float16], (Tensor[(5, 5, 4, 1), float16], (Tensor[(5, 5, 4, 1), float16],)), int32) span=from_string:54:492 */ = %x_201;
  let %x_221: (Tensor[(0, 9, 9, 4), float16], Tensor[(1, 5, 5, 4), float16], Tensor[(3), int32], Tensor[(1, 5, 5, 4), float16], Tensor[(1, 5, 5, 4), float16], (Tensor[(5, 5, 4, 1), float16], (Tensor[(5, 5, 4, 1), float16],)), int32) /* ty=(Tensor[(0, 9, 9, 4), float16], Tensor[(1, 5, 5, 4), float16], Tensor[(3), int32], Tensor[(1, 5, 5, 4), float16], Tensor[(1, 5, 5, 4), float16], (Tensor[(5, 5, 4, 1), float16], (Tensor[(5, 5, 4, 1), float16],)), int32) span=from_string:55:492 */ = %x_212;
  let %x_231: (Tensor[(0, 9, 9, 4), float16], Tensor[(1, 5, 5, 4), float16], Tensor[(3), int32], Tensor[(1, 5, 5, 4), float16], Tensor[(1, 5, 5, 4), float16], (Tensor[(5, 5, 4, 1), float16], (Tensor[(5, 5, 4, 1), float16],)), int32) /* ty=(Tensor[(0, 9, 9, 4), float16], Tensor[(1, 5, 5, 4), float16], Tensor[(3), int32], Tensor[(1, 5, 5, 4), float16], Tensor[(1, 5, 5, 4), float16], (Tensor[(5, 5, 4, 1), float16], (Tensor[(5, 5, 4, 1), float16],)), int32) span=from_string:56:492 */ = %x_221;
  let %x_241: (Tensor[(0, 9, 9, 4), float16], Tensor[(1, 5, 5, 4), float16], Tensor[(3), int32], Tensor[(1, 5, 5, 4), float16], Tensor[(1, 5, 5, 4), float16], (Tensor[(5, 5, 4, 1), float16], (Tensor[(5, 5, 4, 1), float16],)), int32) /* ty=(Tensor[(0, 9, 9, 4), float16], Tensor[(1, 5, 5, 4), float16], Tensor[(3), int32], Tensor[(1, 5, 5, 4), float16], Tensor[(1, 5, 5, 4), float16], (Tensor[(5, 5, 4, 1), float16], (Tensor[(5, 5, 4, 1), float16],)), int32) span=from_string:57:492 */ = %x_231;
  let %x_251: (Tensor[(0, 9, 9, 4), float16], Tensor[(1, 5, 5, 4), float16], Tensor[(3), int32], Tensor[(1, 5, 5, 4), float16], Tensor[(1, 5, 5, 4), float16], (Tensor[(5, 5, 4, 1), float16], (Tensor[(5, 5, 4, 1), float16],)), int32) /* ty=(Tensor[(0, 9, 9, 4), float16], Tensor[(1, 5, 5, 4), float16], Tensor[(3), int32], Tensor[(1, 5, 5, 4), float16], Tensor[(1, 5, 5, 4), float16], (Tensor[(5, 5, 4, 1), float16], (Tensor[(5, 5, 4, 1), float16],)), int32) span=from_string:58:492 */ = %x_241;
  let %x_261: (Tensor[(0, 9, 9, 4), float16], Tensor[(1, 5, 5, 4), float16], Tensor[(3), int32], Tensor[(1, 5, 5, 4), float16], Tensor[(1, 5, 5, 4), float16], (Tensor[(5, 5, 4, 1), float16], (Tensor[(5, 5, 4, 1), float16],)), int32) /* ty=(Tensor[(0, 9, 9, 4), float16], Tensor[(1, 5, 5, 4), float16], Tensor[(3), int32], Tensor[(1, 5, 5, 4), float16], Tensor[(1, 5, 5, 4), float16], (Tensor[(5, 5, 4, 1), float16], (Tensor[(5, 5, 4, 1), float16],)), int32) span=from_string:59:492 */ = %x_251;
  let %x_271: (Tensor[(0, 9, 9, 4), float16], Tensor[(1, 5, 5, 4), float16], Tensor[(3), int32], Tensor[(1, 5, 5, 4), float16], Tensor[(1, 5, 5, 4), float16], (Tensor[(5, 5, 4, 1), float16], (Tensor[(5, 5, 4, 1), float16],)), int32) /* ty=(Tensor[(0, 9, 9, 4), float16], Tensor[(1, 5, 5, 4), float16], Tensor[(3), int32], Tensor[(1, 5, 5, 4), float16], Tensor[(1, 5, 5, 4), float16], (Tensor[(5, 5, 4, 1), float16], (Tensor[(5, 5, 4, 1), float16],)), int32) span=from_string:60:492 */ = %x_261;
  let %x_281: (Tensor[(0, 9, 9, 4), float16], Tensor[(1, 5, 5, 4), float16], Tensor[(3), int32], Tensor[(1, 5, 5, 4), float16], Tensor[(1, 5, 5, 4), float16], (Tensor[(5, 5, 4, 1), float16], (Tensor[(5, 5, 4, 1), float16],)), int32) /* ty=(Tensor[(0, 9, 9, 4), float16], Tensor[(1, 5, 5, 4), float16], Tensor[(3), int32], Tensor[(1, 5, 5, 4), float16], Tensor[(1, 5, 5, 4), float16], (Tensor[(5, 5, 4, 1), float16], (Tensor[(5, 5, 4, 1), float16],)), int32) span=from_string:61:491 */ = %x_271;
  let %x_29: (Tensor[(0, 9, 9, 4), float16], Tensor[(1, 5, 5, 4), float16], Tensor[(3), int32], Tensor[(1, 5, 5, 4), float16], Tensor[(1, 5, 5, 4), float16], (Tensor[(5, 5, 4, 1), float16], (Tensor[(5, 5, 4, 1), float16],)), int32) /* ty=(Tensor[(0, 9, 9, 4), float16], Tensor[(1, 5, 5, 4), float16], Tensor[(3), int32], Tensor[(1, 5, 5, 4), float16], Tensor[(1, 5, 5, 4), float16], (Tensor[(5, 5, 4, 1), float16], (Tensor[(5, 5, 4, 1), float16],)), int32) span=from_string:62:491 */ = %x_281;
  let %x_30: (Tensor[(0, 9, 9, 4), float16], Tensor[(1, 5, 5, 4), float16], Tensor[(3), int32], Tensor[(1, 5, 5, 4), float16], Tensor[(1, 5, 5, 4), float16], (Tensor[(5, 5, 4, 1), float16], (Tensor[(5, 5, 4, 1), float16],)), int32) /* ty=(Tensor[(0, 9, 9, 4), float16], Tensor[(1, 5, 5, 4), float16], Tensor[(3), int32], Tensor[(1, 5, 5, 4), float16], Tensor[(1, 5, 5, 4), float16], (Tensor[(5, 5, 4, 1), float16], (Tensor[(5, 5, 4, 1), float16],)), int32) span=from_string:63:492 */ = %x_29;
  let %x_311: (Tensor[(0, 9, 9, 4), float16], Tensor[(1, 5, 5, 4), float16], Tensor[(3), int32], Tensor[(1, 5, 5, 4), float16], Tensor[(1, 5, 5, 4), float16], (Tensor[(5, 5, 4, 1), float16], (Tensor[(5, 5, 4, 1), float16],)), int32) /* ty=(Tensor[(0, 9, 9, 4), float16], Tensor[(1, 5, 5, 4), float16], Tensor[(3), int32], Tensor[(1, 5, 5, 4), float16], Tensor[(1, 5, 5, 4), float16], (Tensor[(5, 5, 4, 1), float16], (Tensor[(5, 5, 4, 1), float16],)), int32) span=from_string:64:491 */ = %x_30;
  let %x_32: (Tensor[(0, 9, 9, 4), float16], Tensor[(1, 5, 5, 4), float16], Tensor[(3), int32], Tensor[(1, 5, 5, 4), float16], Tensor[(1, 5, 5, 4), float16], (Tensor[(5, 5, 4, 1), float16], (Tensor[(5, 5, 4, 1), float16],)), int32) /* ty=(Tensor[(0, 9, 9, 4), float16], Tensor[(1, 5, 5, 4), float16], Tensor[(3), int32], Tensor[(1, 5, 5, 4), float16], Tensor[(1, 5, 5, 4), float16], (Tensor[(5, 5, 4, 1), float16], (Tensor[(5, 5, 4, 1), float16],)), int32) span=from_string:65:491 */ = %x_311;
  let %x_33: (Tensor[(0, 9, 9, 4), float16], Tensor[(1, 5, 5, 4), float16], Tensor[(3), int32], Tensor[(1, 5, 5, 4), float16], Tensor[(1, 5, 5, 4), float16], (Tensor[(5, 5, 4, 1), float16], (Tensor[(5, 5, 4, 1), float16],)), int32) /* ty=(Tensor[(0, 9, 9, 4), float16], Tensor[(1, 5, 5, 4), float16], Tensor[(3), int32], Tensor[(1, 5, 5, 4), float16], Tensor[(1, 5, 5, 4), float16], (Tensor[(5, 5, 4, 1), float16], (Tensor[(5, 5, 4, 1), float16],)), int32) span=from_string:66:491 */ = %x_32;
  let %x_34: (Tensor[(0, 9, 9, 4), float16], Tensor[(1, 5, 5, 4), float16], Tensor[(3), int32], Tensor[(1, 5, 5, 4), float16], Tensor[(1, 5, 5, 4), float16], (Tensor[(5, 5, 4, 1), float16], (Tensor[(5, 5, 4, 1), float16],)), int32) /* ty=(Tensor[(0, 9, 9, 4), float16], Tensor[(1, 5, 5, 4), float16], Tensor[(3), int32], Tensor[(1, 5, 5, 4), float16], Tensor[(1, 5, 5, 4), float16], (Tensor[(5, 5, 4, 1), float16], (Tensor[(5, 5, 4, 1), float16],)), int32) span=from_string:67:489 */ = %x_33;
  let %x_35: (Tensor[(0, 9, 9, 4), float16], Tensor[(1, 5, 5, 4), float16], Tensor[(3), int32], Tensor[(1, 5, 5, 4), float16], Tensor[(1, 5, 5, 4), float16], (Tensor[(5, 5, 4, 1), float16], (Tensor[(5, 5, 4, 1), float16],)), int32) /* ty=(Tensor[(0, 9, 9, 4), float16], Tensor[(1, 5, 5, 4), float16], Tensor[(3), int32], Tensor[(1, 5, 5, 4), float16], Tensor[(1, 5, 5, 4), float16], (Tensor[(5, 5, 4, 1), float16], (Tensor[(5, 5, 4, 1), float16],)), int32) span=from_string:68:3 */ = %x_34;
  %x_35
}

#[metadata]
{
  "root": 1, 
  "nodes": [
    {
      "type_key": ""
    }, 
    {
      "type_key": "Map", 
      "keys": [
        "relay.Constant"
      ], 
      "data": [2]
    }, 
    {
      "type_key": "Array", 
      "data": [3]
    }, 
    {
      "type_key": "relay.Constant", 
      "attrs": {
        "_checked_type_": "8", 
        "data": "0", 
        "span": "6", 
        "virtual_device_": "4"
      }
    }, 
    {
      "type_key": "VirtualDevice", 
      "attrs": {
        "device_type_int": "-1", 
        "memory_scope": "5", 
        "target": "0", 
        "virtual_device_id": "-1"
      }
    }, 
    {
      "type_key": "runtime.String"
    }, 
    {
      "type_key": "Span", 
      "attrs": {
        "column": "511", 
        "end_column": "529", 
        "end_line": "34", 
        "line": "34", 
        "source_name": "7"
      }
    }, 
    {
      "type_key": "SourceName", 
      "repr_str": "from_string"
    }, 
    {
      "type_key": "relay.TensorType", 
      "attrs": {
        "dtype": "int32", 
        "shape": "9", 
        "span": "11"
      }
    }, 
    {
      "type_key": "Array", 
      "data": [10]
    }, 
    {
      "type_key": "IntImm", 
      "attrs": {
        "dtype": "int32", 
        "span": "0", 
        "value": "3"
      }
    }, 
    {
      "type_key": "Span", 
      "attrs": {
        "column": "344", 
        "end_column": "364", 
        "end_line": "2", 
        "line": "2", 
        "source_name": "7"
      }
    }
  ], 
  "b64ndarrays": [
    "P6G0lvBAXt0AAAAAAAAAAAEAAAAAAAAAAQAAAAAgAQADAAAAAAAAAAwAAAAAAAAAAQAAAAEAAAABAAAA"
  ], 
  "attrs": {"tvm_version": "0.13.0"}
}