#[version = "0.0.5"]
def @main(%x0: Tensor[(1, 5, 5, 4), float32] /* ty=Tensor[(1, 5, 5, 4), float32] span=from_string:10:129 */, %x1: Tensor[(0, 9, 4), float32] /* ty=Tensor[(0, 9, 4), float32] */, %x2: Tensor[(1, 5, 5, 4), float32] /* ty=Tensor[(1, 5, 5, 4), float32] span=from_string:17:125 */) -> (Tensor[(0, 9, 9, 4), float32], Tensor[(1, 5, 5, 4), float16], Tensor[(3), int32], Tensor[(1, 5, 5, 4), float32], Tensor[(1, 5, 5, 4), float32], (Tensor[(5, 5, 4, 1), float32], (Tensor[(5, 5, 4, 1), float32],)), int32) {
  let %x_0: Tensor[(1, 5, 5, 4), float32] /* ty=Tensor[(1, 5, 5, 4), float32] span=from_string:13:119 */ = erf(%x0);
  let %x_1: Tensor[(1, 5, 5, 4), float32] /* ty=Tensor[(1, 5, 5, 4), float32] span=from_string:17:119 */ = subtract(%x_0, %x2);
  let %x_2: Tensor[(1, 5, 4, 5), float32] /* ty=Tensor[(1, 5, 4, 5), float32] span=from_string:6:124 */ = layout_transform(%x_1, src_layout="NCHW", dst_layout="NHWC");
  let %x_3: Tensor[(5, 5, 4, 1), float32] /* ty=Tensor[(5, 5, 4, 1), float32] span=from_string:7:116 */ = layout_transform(%x_2, src_layout="NHWC", dst_layout="CHWN");
  let %x_4: Tensor[(5, 5, 4, 1), float32] /* ty=Tensor[(5, 5, 4, 1), float32] span=from_string:23:134 */ = nn.relu(%x_3);
  let %x3: Tensor[(5, 5, 4, 1), float32] /* ty=Tensor[(5, 5, 4, 1), float32] span=from_string:26:182 */ = multiply(%x_4, %x_4);
  let %x4: Tensor[(5, 5, 4, 1), float32] /* ty=Tensor[(5, 5, 4, 1), float32] span=from_string:22:119 */ = ones_like(%x3);
  let %x_5: Tensor[(0, 9, 9, 4), float32] /* ty=Tensor[(0, 9, 9, 4), float32] span=from_string:11:110 */ = nn.batch_to_space_nd(%x0, block_shape=[2, 2], crops=[[0, 1], [0, 1]]);
  let %x_6: Tensor[(0, 9, 4), float32] /* ty=Tensor[(0, 9, 4), float32] span=from_string:12:116 */ = reshape(%x_5, newshape=[0, 9, 4]);
  let %x_7: Tensor[(0, 9, 9, 4), float32] /* ty=Tensor[(0, 9, 9, 4), float32] span=from_string:28:492 */ = reshape(%x_6, newshape=[0, 9, 9, 4]);
  let %x_8: Tensor[(1, 5, 5, 4), float32] /* ty=Tensor[(1, 5, 5, 4), float32] span=from_string:16:114 */ = nn.softmax(%x_0);
  let %x_9: Tensor[(1, 5, 5, 4), float16] /* ty=Tensor[(1, 5, 5, 4), float16] span=from_string:28:498 */ = cast(%x_8, dtype="float16");
  let %x_10: Tensor[(3), int32] /* ty=Tensor[(3), int32] span=from_string:28:504 */ = meta[relay.Constant][0] /* ty=Tensor[(3), int32] span=from_string:15:94 */;
  let %x_11: Tensor[(1, 5, 5, 4), float32] /* ty=Tensor[(1, 5, 5, 4), float32] span=from_string:28:511 */ = tanh(%x_8);
  let %x_12: Tensor[(1, 5, 5, 4), float32] /* ty=Tensor[(1, 5, 5, 4), float32] span=from_string:28:518 */ = multiply(%x_1, %x2);
  let %x_13: Tensor[(5, 5, 4, 1), float32] /* ty=Tensor[(5, 5, 4, 1), float32] span=from_string:21:113 */ = zeros_like(%x_4);
  let %x_14: Tensor[(5, 5, 4, 1), float32] /* ty=Tensor[(5, 5, 4, 1), float32] span=from_string:20:127 */ = multiply(%x4, %x_4);
  let %x_15: Tensor[(5, 5, 4, 1), float32] /* ty=Tensor[(5, 5, 4, 1), float32] span=from_string:21:120 */ = collapse_sum_like(%x_14, %x_4);
  let %x_16: Tensor[(5, 5, 4, 1), float32] /* ty=Tensor[(5, 5, 4, 1), float32] span=from_string:24:113 */ = add(%x_13, %x_15);
  let %x_17: Tensor[(5, 5, 4, 1), float32] /* ty=Tensor[(5, 5, 4, 1), float32] span=from_string:23:127 */ = multiply(%x4, %x_4);
  let %x_18: Tensor[(5, 5, 4, 1), float32] /* ty=Tensor[(5, 5, 4, 1), float32] span=from_string:24:120 */ = collapse_sum_like(%x_17, %x_4);
  let %x_19: Tensor[(5, 5, 4, 1), float32] /* ty=Tensor[(5, 5, 4, 1), float32] span=from_string:25:116 */ = add(%x_16, %x_18);
  let %x_20: (Tensor[(5, 5, 4, 1), float32],) /* ty=(Tensor[(5, 5, 4, 1), float32],) span=from_string:26:187 */ = (%x_19,) /* ty=(Tensor[(5, 5, 4, 1), float32],) span=from_string:25:115 */;
  let %x_21: (Tensor[(5, 5, 4, 1), float32], (Tensor[(5, 5, 4, 1), float32],)) /* ty=(Tensor[(5, 5, 4, 1), float32], (Tensor[(5, 5, 4, 1), float32],)) span=from_string:28:525 */ = (%x3, %x_20) /* ty=(Tensor[(5, 5, 4, 1), float32], (Tensor[(5, 5, 4, 1), float32],)) span=from_string:26:181 */;
  let %x_22: int32 /* ty=int32 span=from_string:28:532 */ = 2 /* ty=int32 span=from_string:27:64 */;
  let %x_23: (Tensor[(0, 9, 9, 4), float32], Tensor[(1, 5, 5, 4), float16], Tensor[(3), int32], Tensor[(1, 5, 5, 4), float32], Tensor[(1, 5, 5, 4), float32], (Tensor[(5, 5, 4, 1), float32], (Tensor[(5, 5, 4, 1), float32],)), int32) /* ty=(Tensor[(0, 9, 9, 4), float32], Tensor[(1, 5, 5, 4), float16], Tensor[(3), int32], Tensor[(1, 5, 5, 4), float32], Tensor[(1, 5, 5, 4), float32], (Tensor[(5, 5, 4, 1), float32], (Tensor[(5, 5, 4, 1), float32],)), int32) span=from_string:29:491 */ = (%x_7, %x_9, %x_10, %x_11, %x_12, %x_21, %x_22) /* ty=(Tensor[(0, 9, 9, 4), float32], Tensor[(1, 5, 5, 4), float16], Tensor[(3), int32], Tensor[(1, 5, 5, 4), float32], Tensor[(1, 5, 5, 4), float32], (Tensor[(5, 5, 4, 1), float32], (Tensor[(5, 5, 4, 1), float32],)), int32) span=from_string:28:491 */;
  let %x_24: (Tensor[(0, 9, 9, 4), float32], Tensor[(1, 5, 5, 4), float16], Tensor[(3), int32], Tensor[(1, 5, 5, 4), float32], Tensor[(1, 5, 5, 4), float32], (Tensor[(5, 5, 4, 1), float32], (Tensor[(5, 5, 4, 1), float32],)), int32) /* ty=(Tensor[(0, 9, 9, 4), float32], Tensor[(1, 5, 5, 4), float16], Tensor[(3), int32], Tensor[(1, 5, 5, 4), float32], Tensor[(1, 5, 5, 4), float32], (Tensor[(5, 5, 4, 1), float32], (Tensor[(5, 5, 4, 1), float32],)), int32) span=from_string:30:489 */ = %x_23;
  let %x_25: (Tensor[(0, 9, 9, 4), float32], Tensor[(1, 5, 5, 4), float16], Tensor[(3), int32], Tensor[(1, 5, 5, 4), float32], Tensor[(1, 5, 5, 4), float32], (Tensor[(5, 5, 4, 1), float32], (Tensor[(5, 5, 4, 1), float32],)), int32) /* ty=(Tensor[(0, 9, 9, 4), float32], Tensor[(1, 5, 5, 4), float16], Tensor[(3), int32], Tensor[(1, 5, 5, 4), float32], Tensor[(1, 5, 5, 4), float32], (Tensor[(5, 5, 4, 1), float32], (Tensor[(5, 5, 4, 1), float32],)), int32) span=from_string:31:3 */ = %x_24;
  let %x_01 = %x_25;
  let %x_110 = %x_01;
  let %x_26 = %x_110;
  let %x_31 = %x_26;
  let %x_41 = %x_31;
  let %x_51 = %x_41;
  let %x_61 = %x_51;
  let %x_71 = %x_61;
  let %x_81 = %x_71;
  let %x_91 = %x_81;
  let %x_101 = %x_91;
  let %x_111 = %x_101;
  let %x_121 = %x_111;
  let %x_131 = %x_121;
  let %x_141 = %x_131;
  let %x_151 = %x_141;
  let %x_161 = %x_151;
  let %x_171 = %x_161;
  let %x_181 = %x_171;
  let %x_191 = %x_181;
  let %x_201 = %x_191;
  let %x_211 = %x_201;
  let %x_221 = %x_211;
  let %x_231 = %x_221;
  let %x_241 = %x_231;
  let %x_251 = %x_241;
  let %x_261 = %x_251;
  let %x_27 = %x_261;
  %x_27
}

#[metadata]
{
  "root": 1, 
  "nodes": [
    {
      "type_key": ""
    }, 
    {
      "type_key": "Map", 
      "keys": [
        "relay.Constant"
      ], 
      "data": [2]
    }, 
    {
      "type_key": "Array", 
      "data": [3]
    }, 
    {
      "type_key": "relay.Constant", 
      "attrs": {
        "_checked_type_": "8", 
        "data": "0", 
        "span": "6", 
        "virtual_device_": "4"
      }
    }, 
    {
      "type_key": "VirtualDevice", 
      "attrs": {
        "device_type_int": "-1", 
        "memory_scope": "5", 
        "target": "0", 
        "virtual_device_id": "-1"
      }
    }, 
    {
      "type_key": "runtime.String"
    }, 
    {
      "type_key": "Span", 
      "attrs": {
        "column": "94", 
        "end_column": "112", 
        "end_line": "15", 
        "line": "15", 
        "source_name": "7"
      }
    }, 
    {
      "type_key": "SourceName", 
      "repr_str": "from_string"
    }, 
    {
      "type_key": "relay.TensorType", 
      "attrs": {
        "dtype": "int32", 
        "shape": "9", 
        "span": "0"
      }
    }, 
    {
      "type_key": "Array", 
      "data": [10]
    }, 
    {
      "type_key": "IntImm", 
      "attrs": {
        "dtype": "int32", 
        "span": "0", 
        "value": "3"
      }
    }
  ], 
  "b64ndarrays": [
    "P6G0lvBAXt0AAAAAAAAAAAEAAAAAAAAAAQAAAAAgAQADAAAAAAAAAAwAAAAAAAAAAQAAAAEAAAABAAAA"
  ], 
  "attrs": {"tvm_version": "0.13.0"}
}