#[version = "0.0.5"]
def @main(%x0: Tensor[(1, 5, 5, 4), float32] /* ty=Tensor[(1, 5, 5, 4), float32] span=from_string:11:13 */, %x1: Tensor[(0, 9, 4), float32] /* ty=Tensor[(0, 9, 4), float32] */, %x2: Tensor[(1, 5, 5, 4), float32] /* ty=Tensor[(1, 5, 5, 4), float32] span=from_string:27:23 */) -> (Tensor[(0, 9, 9, 4), float16], Tensor[(1, 5, 5, 4), float16], Tensor[(3), int32], Tensor[(1, 5, 5, 4), float32], Tensor[(1, 5, 5, 4), float32], (Tensor[(5, 5, 4, 1), float32], (Tensor[(5, 5, 4, 1), float32],)), int32) {
  %0 = erf(%x0) /* ty=Tensor[(1, 5, 5, 4), float32] span=from_string:14:19 */;
  %1 = subtract(%0, %x2) /* ty=Tensor[(1, 5, 5, 4), float32] span=from_string:27:19 */;
  %2 = transpose(%1, axes=[1, 2, 3, 0]) /* ty=Tensor[(5, 5, 4, 1), float32] */;
  %3 = nn.relu(%2) /* ty=Tensor[(5, 5, 4, 1), float32] span=from_string:21:32 */;
  let %x3: Tensor[(5, 5, 4, 1), float32] /* ty=Tensor[(5, 5, 4, 1), float32] span=from_string:28:10 */ = multiply(%3, %3) /* ty=Tensor[(5, 5, 4, 1), float32] span=from_string:8:107 */;
  let %x4: Tensor[(5, 5, 4, 1), float16] /* ty=Tensor[(5, 5, 4, 1), float16] span=from_string:15:14 */ = ones(shape=[5, 5, 4, 1], dtype="float16") /* ty=Tensor[(5, 5, 4, 1), float16] */;
  %4 = cast(%x0, dtype="float16") /* ty=Tensor[(1, 5, 5, 4), float16] span=from_string:12:29 */;
  %5 = nn.batch_to_space_nd(%4, block_shape=[2, 2], crops=[[0, 1], [0, 1]]) /* ty=Tensor[(0, 9, 9, 4), float16] span=from_string:13:16 */;
  %6 = nn.softmax(%0) /* ty=Tensor[(1, 5, 5, 4), float32] span=from_string:26:14 */;
  %7 = cast(%x4, dtype="float32") /* ty=Tensor[(5, 5, 4, 1), float32] span=from_string:19:19 */;
  %8 = multiply(%7, %3) /* ty=Tensor[(5, 5, 4, 1), float32] span=from_string:18:27 */;
  %9 = multiply(%7, %3) /* ty=Tensor[(5, 5, 4, 1), float32] span=from_string:21:27 */;
  %10 = collapse_sum_to(%8, meta[relay.Constant][1] /* ty=Tensor[(4), int32] */, meta[relay.attrs.InitOpAttrs][0]) /* ty=Tensor[(5, 5, 4, 1), float32] */;
  %11 = collapse_sum_to(%9, meta[relay.Constant][2] /* ty=Tensor[(4), int32] */, meta[relay.attrs.InitOpAttrs][1]) /* ty=Tensor[(5, 5, 4, 1), float32] */;
  %12 = add(%10, %11) /* ty=Tensor[(5, 5, 4, 1), float32] span=from_string:23:10 */;
  %13 = (%12,) /* ty=(Tensor[(5, 5, 4, 1), float32],) span=from_string:28:15 */;
  %14 = reshape(%5, newshape=[0, 9, 9, 4]) /* ty=Tensor[(0, 9, 9, 4), float16] */;
  %15 = cast(%6, dtype="float16") /* ty=Tensor[(1, 5, 5, 4), float16] span=from_string:29:9 */;
  %16 = tanh(%6) /* ty=Tensor[(1, 5, 5, 4), float32] span=from_string:29:90 */;
  %17 = multiply(%1, %x2) /* ty=Tensor[(1, 5, 5, 4), float32] span=from_string:29:95 */;
  %18 = (%x3, %13) /* ty=(Tensor[(5, 5, 4, 1), float32], (Tensor[(5, 5, 4, 1), float32],)) span=from_string:29:100 */;
  (%14, %15, meta[relay.Constant][0] /* ty=Tensor[(3), int32] span=from_string:29:19 */, %16, %17, %18, 2 /* ty=int32 span=from_string:29:106 */) /* ty=(Tensor[(0, 9, 9, 4), float16], Tensor[(1, 5, 5, 4), float16], Tensor[(3), int32], Tensor[(1, 5, 5, 4), float32], Tensor[(1, 5, 5, 4), float32], (Tensor[(5, 5, 4, 1), float32], (Tensor[(5, 5, 4, 1), float32],)), int32) span=from_string:29:3 */
}

#[metadata]
{
  "root": 1, 
  "nodes": [
    {
      "type_key": ""
    }, 
    {
      "type_key": "Map", 
      "keys": [
        "relay.attrs.InitOpAttrs", 
        "relay.Constant"
      ], 
      "data": [2, 11]
    }, 
    {
      "type_key": "Array", 
      "data": [3, 9]
    }, 
    {
      "type_key": "relay.attrs.InitOpAttrs", 
      "attrs": {
        "dtype": "", 
        "shape": "4"
      }
    }, 
    {
      "type_key": "Array", 
      "data": [5, 6, 7, 8]
    }, 
    {
      "type_key": "IntImm", 
      "attrs": {
        "dtype": "int32", 
        "span": "0", 
        "value": "5"
      }
    }, 
    {
      "type_key": "IntImm", 
      "attrs": {
        "dtype": "int32", 
        "span": "0", 
        "value": "5"
      }
    }, 
    {
      "type_key": "IntImm", 
      "attrs": {
        "dtype": "int32", 
        "span": "0", 
        "value": "4"
      }
    }, 
    {
      "type_key": "IntImm", 
      "attrs": {
        "dtype": "int32", 
        "span": "0", 
        "value": "1"
      }
    }, 
    {
      "type_key": "relay.attrs.InitOpAttrs", 
      "attrs": {
        "dtype": "", 
        "shape": "10"
      }
    }, 
    {
      "type_key": "Array", 
      "data": [5, 6, 7, 8]
    }, 
    {
      "type_key": "Array", 
      "data": [12, 21, 27]
    }, 
    {
      "type_key": "relay.Constant", 
      "attrs": {
        "_checked_type_": "17", 
        "data": "0", 
        "span": "15", 
        "virtual_device_": "13"
      }
    }, 
    {
      "type_key": "VirtualDevice", 
      "attrs": {
        "device_type_int": "-1", 
        "memory_scope": "14", 
        "target": "0", 
        "virtual_device_id": "-1"
      }
    }, 
    {
      "type_key": "runtime.String"
    }, 
    {
      "type_key": "Span", 
      "attrs": {
        "column": "19", 
        "end_column": "37", 
        "end_line": "29", 
        "line": "29", 
        "source_name": "16"
      }
    }, 
    {
      "type_key": "SourceName", 
      "repr_str": "from_string"
    }, 
    {
      "type_key": "relay.TensorType", 
      "attrs": {
        "dtype": "int32", 
        "shape": "18", 
        "span": "20"
      }
    }, 
    {
      "type_key": "Array", 
      "data": [19]
    }, 
    {
      "type_key": "IntImm", 
      "attrs": {
        "dtype": "int32", 
        "span": "0", 
        "value": "3"
      }
    }, 
    {
      "type_key": "Span", 
      "attrs": {
        "column": "343", 
        "end_column": "363", 
        "end_line": "2", 
        "line": "2", 
        "source_name": "16"
      }
    }, 
    {
      "type_key": "relay.Constant", 
      "attrs": {
        "_checked_type_": "24", 
        "data": "1", 
        "span": "0", 
        "virtual_device_": "22"
      }
    }, 
    {
      "type_key": "VirtualDevice", 
      "attrs": {
        "device_type_int": "-1", 
        "memory_scope": "23", 
        "target": "0", 
        "virtual_device_id": "-1"
      }
    }, 
    {
      "type_key": "runtime.String"
    }, 
    {
      "type_key": "relay.TensorType", 
      "attrs": {
        "dtype": "int32", 
        "shape": "25", 
        "span": "0"
      }
    }, 
    {
      "type_key": "Array", 
      "data": [26]
    }, 
    {
      "type_key": "IntImm", 
      "attrs": {
        "dtype": "int32", 
        "span": "0", 
        "value": "4"
      }
    }, 
    {
      "type_key": "relay.Constant", 
      "attrs": {
        "_checked_type_": "28", 
        "data": "2", 
        "span": "0", 
        "virtual_device_": "22"
      }
    }, 
    {
      "type_key": "relay.TensorType", 
      "attrs": {
        "dtype": "int32", 
        "shape": "29", 
        "span": "0"
      }
    }, 
    {
      "type_key": "Array", 
      "data": [30]
    }, 
    {
      "type_key": "IntImm", 
      "attrs": {
        "dtype": "int32", 
        "span": "0", 
        "value": "4"
      }
    }
  ], 
  "b64ndarrays": [
    "P6G0lvBAXt0AAAAAAAAAAAEAAAAAAAAAAQAAAAAgAQADAAAAAAAAAAwAAAAAAAAAAQAAAAEAAAABAAAA", 
    "P6G0lvBAXt0AAAAAAAAAAAEAAAAAAAAAAQAAAAAgAQAEAAAAAAAAABAAAAAAAAAABQAAAAUAAAAEAAAAAQAAAA==", 
    "P6G0lvBAXt0AAAAAAAAAAAEAAAAAAAAAAQAAAAAgAQAEAAAAAAAAABAAAAAAAAAABQAAAAUAAAAEAAAAAQAAAA=="
  ], 
  "attrs": {"tvm_version": "0.13.0"}
}