#[version = "0.0.5"]
def @main(%x0: Tensor[(1, 64, 56, 56), float32] /* ty=Tensor[(1, 64, 56, 56), float32] span=from_string:8:138 */, %x1: Tensor[(64, 64, 3, 3), float32] /* ty=Tensor[(64, 64, 3, 3), float32] span=from_string:15:128 */) -> ((Tensor[(1, 64, 1, 1), float32], Tensor[(1, 64, 1, 1), float32]), float32, Tensor[(0, 127, 111, 56), float32], Tensor[(1, 64, 1, 1), float32], Tensor[(0, 111, 1, 1), float32], Tensor[(111, 56, 127, 0), float32]) {
  let %x_0: Tensor[(1, 64, 1, 1), float32] /* ty=Tensor[(1, 64, 1, 1), float32] span=from_string:6:179 */ = nn.global_max_pool2d(%x0) /* ty=Tensor[(1, 64, 1, 1), float32] span=from_string:3:109 */;
  let %x_1: float32 /* ty=float32 span=from_string:5:126 */ = 2f /* ty=float32 span=from_string:4:65 */;
  let %x_2: Tensor[(1, 64, 1, 1), float32] /* ty=Tensor[(1, 64, 1, 1), float32] span=from_string:14:115 */ = multiply(%x_0, %x_1) /* ty=Tensor[(1, 64, 1, 1), float32] span=from_string:5:111 */;
  let %x_3: (Tensor[(1, 64, 1, 1), float32], Tensor[(1, 64, 1, 1), float32]) /* ty=(Tensor[(1, 64, 1, 1), float32], Tensor[(1, 64, 1, 1), float32]) span=from_string:20:474 */ = (%x_0, %x_2) /* ty=(Tensor[(1, 64, 1, 1), float32], Tensor[(1, 64, 1, 1), float32]) span=from_string:6:178 */;
  let %x_4: float32 /* ty=float32 span=from_string:20:480 */ = 7.38906f /* ty=float32 span=from_string:7:72 */;
  let %x_5: Tensor[(0, 127, 111, 56), float32] /* ty=Tensor[(0, 127, 111, 56), float32] span=from_string:9:126 */ = nn.batch_to_space_nd(%x0, block_shape=[2, 2], crops=[[0, 1], [0, 1]]) /* ty=Tensor[(0, 127, 111, 56), float32] span=from_string:8:117 */;
  let %x_6: Tensor[(0, 127, 111, 56), float32] /* ty=Tensor[(0, 127, 111, 56), float32] span=from_string:10:128 */ = nn.relu(%x_5) /* ty=Tensor[(0, 127, 111, 56), float32] span=from_string:9:118 */;
  let %x_7: Tensor[(0, 111, 56, 127), float32] /* ty=Tensor[(0, 111, 56, 127), float32] span=from_string:17:134 */ = transpose(%x_6, axes=[0, 2, 3, 1]) /* ty=Tensor[(0, 111, 56, 127), float32] span=from_string:10:118 */;
  let %x_8: Tensor[(111, 56, 127, 0), float32] /* ty=Tensor[(111, 56, 127, 0), float32] span=from_string:19:127 */ = transpose(%x_7, axes=[1, 2, 3, 0]) /* ty=Tensor[(111, 56, 127, 0), float32] span=from_string:11:118 */;
  let %x_9: Tensor[(0, 127, 111, 56), float32] /* ty=Tensor[(0, 127, 111, 56), float32] span=from_string:20:486 */ = transpose(%x_8, axes=[3, 2, 0, 1]) /* ty=Tensor[(0, 127, 111, 56), float32] span=from_string:12:118 */;
  let %x_10: float32 /* ty=float32 span=from_string:14:121 */ = 1f /* ty=float32 span=from_string:13:67 */;
  let %x_11: Tensor[(1, 64, 1, 1), float32] /* ty=Tensor[(1, 64, 1, 1), float32] span=from_string:15:121 */ = add(%x_2, %x_10) /* ty=Tensor[(1, 64, 1, 1), float32] span=from_string:14:111 */;
  let %x_12: Tensor[(1, 64, 1, 1), float32] /* ty=Tensor[(1, 64, 1, 1), float32] span=from_string:16:119 */ = nn.conv2d(%x_11, %x1, padding=[1, 1, 1, 1], channels=64, kernel_size=[3, 3]) /* ty=Tensor[(1, 64, 1, 1), float32] span=from_string:15:111 */;
  let %x_13: Tensor[(1, 64, 1, 1), float32] /* ty=Tensor[(1, 64, 1, 1), float32] span=from_string:20:492 */ = nn.relu(%x_12) /* ty=Tensor[(1, 64, 1, 1), float32] span=from_string:16:111 */;
  let %x_14: Tensor[(0, 111, 1, 1), float32] /* ty=Tensor[(0, 111, 1, 1), float32] span=from_string:18:121 */ = nn.global_max_pool2d(%x_7) /* ty=Tensor[(0, 111, 1, 1), float32] span=from_string:17:113 */;
  let %x_15: Tensor[(0, 111, 1, 1), float32] /* ty=Tensor[(0, 111, 1, 1), float32] span=from_string:20:499 */ = nn.relu(%x_14) /* ty=Tensor[(0, 111, 1, 1), float32] span=from_string:18:113 */;
  let %x_16: Tensor[(111, 56, 127, 0), float32] /* ty=Tensor[(111, 56, 127, 0), float32] span=from_string:20:506 */ = nn.relu(%x_8) /* ty=Tensor[(111, 56, 127, 0), float32] span=from_string:19:119 */;
  let %x_17: ((Tensor[(1, 64, 1, 1), float32], Tensor[(1, 64, 1, 1), float32]), float32, Tensor[(0, 127, 111, 56), float32], Tensor[(1, 64, 1, 1), float32], Tensor[(0, 111, 1, 1), float32], Tensor[(111, 56, 127, 0), float32]) /* ty=((Tensor[(1, 64, 1, 1), float32], Tensor[(1, 64, 1, 1), float32]), float32, Tensor[(0, 127, 111, 56), float32], Tensor[(1, 64, 1, 1), float32], Tensor[(0, 111, 1, 1), float32], Tensor[(111, 56, 127, 0), float32]) span=from_string:21:15 */ = (%x_3, %x_4, %x_9, %x_13, %x_15, %x_16) /* ty=((Tensor[(1, 64, 1, 1), float32], Tensor[(1, 64, 1, 1), float32]), float32, Tensor[(0, 127, 111, 56), float32], Tensor[(1, 64, 1, 1), float32], Tensor[(0, 111, 1, 1), float32], Tensor[(111, 56, 127, 0), float32]) span=from_string:20:473 */;
  let %x_01: ((Tensor[(1, 64, 1, 1), float32], Tensor[(1, 64, 1, 1), float32]), float32, Tensor[(0, 127, 111, 56), float32], Tensor[(1, 64, 1, 1), float32], Tensor[(0, 111, 1, 1), float32], Tensor[(111, 56, 127, 0), float32]) /* ty=((Tensor[(1, 64, 1, 1), float32], Tensor[(1, 64, 1, 1), float32]), float32, Tensor[(0, 127, 111, 56), float32], Tensor[(1, 64, 1, 1), float32], Tensor[(0, 111, 1, 1), float32], Tensor[(111, 56, 127, 0), float32]) span=from_string:22:15 */ = %x_17;
  let %x_18: ((Tensor[(1, 64, 1, 1), float32], Tensor[(1, 64, 1, 1), float32]), float32, Tensor[(0, 127, 111, 56), float32], Tensor[(1, 64, 1, 1), float32], Tensor[(0, 111, 1, 1), float32], Tensor[(111, 56, 127, 0), float32]) /* ty=((Tensor[(1, 64, 1, 1), float32], Tensor[(1, 64, 1, 1), float32]), float32, Tensor[(0, 127, 111, 56), float32], Tensor[(1, 64, 1, 1), float32], Tensor[(0, 111, 1, 1), float32], Tensor[(111, 56, 127, 0), float32]) span=from_string:23:15 */ = %x_01;
  let %x_21: ((Tensor[(1, 64, 1, 1), float32], Tensor[(1, 64, 1, 1), float32]), float32, Tensor[(0, 127, 111, 56), float32], Tensor[(1, 64, 1, 1), float32], Tensor[(0, 111, 1, 1), float32], Tensor[(111, 56, 127, 0), float32]) /* ty=((Tensor[(1, 64, 1, 1), float32], Tensor[(1, 64, 1, 1), float32]), float32, Tensor[(0, 127, 111, 56), float32], Tensor[(1, 64, 1, 1), float32], Tensor[(0, 111, 1, 1), float32], Tensor[(111, 56, 127, 0), float32]) span=from_string:24:15 */ = %x_18;
  let %x_31: ((Tensor[(1, 64, 1, 1), float32], Tensor[(1, 64, 1, 1), float32]), float32, Tensor[(0, 127, 111, 56), float32], Tensor[(1, 64, 1, 1), float32], Tensor[(0, 111, 1, 1), float32], Tensor[(111, 56, 127, 0), float32]) /* ty=((Tensor[(1, 64, 1, 1), float32], Tensor[(1, 64, 1, 1), float32]), float32, Tensor[(0, 127, 111, 56), float32], Tensor[(1, 64, 1, 1), float32], Tensor[(0, 111, 1, 1), float32], Tensor[(111, 56, 127, 0), float32]) span=from_string:25:15 */ = %x_21;
  let %x_41: ((Tensor[(1, 64, 1, 1), float32], Tensor[(1, 64, 1, 1), float32]), float32, Tensor[(0, 127, 111, 56), float32], Tensor[(1, 64, 1, 1), float32], Tensor[(0, 111, 1, 1), float32], Tensor[(111, 56, 127, 0), float32]) /* ty=((Tensor[(1, 64, 1, 1), float32], Tensor[(1, 64, 1, 1), float32]), float32, Tensor[(0, 127, 111, 56), float32], Tensor[(1, 64, 1, 1), float32], Tensor[(0, 111, 1, 1), float32], Tensor[(111, 56, 127, 0), float32]) span=from_string:26:15 */ = %x_31;
  let %x_51: ((Tensor[(1, 64, 1, 1), float32], Tensor[(1, 64, 1, 1), float32]), float32, Tensor[(0, 127, 111, 56), float32], Tensor[(1, 64, 1, 1), float32], Tensor[(0, 111, 1, 1), float32], Tensor[(111, 56, 127, 0), float32]) /* ty=((Tensor[(1, 64, 1, 1), float32], Tensor[(1, 64, 1, 1), float32]), float32, Tensor[(0, 127, 111, 56), float32], Tensor[(1, 64, 1, 1), float32], Tensor[(0, 111, 1, 1), float32], Tensor[(111, 56, 127, 0), float32]) span=from_string:27:15 */ = %x_41;
  let %x_61: ((Tensor[(1, 64, 1, 1), float32], Tensor[(1, 64, 1, 1), float32]), float32, Tensor[(0, 127, 111, 56), float32], Tensor[(1, 64, 1, 1), float32], Tensor[(0, 111, 1, 1), float32], Tensor[(111, 56, 127, 0), float32]) /* ty=((Tensor[(1, 64, 1, 1), float32], Tensor[(1, 64, 1, 1), float32]), float32, Tensor[(0, 127, 111, 56), float32], Tensor[(1, 64, 1, 1), float32], Tensor[(0, 111, 1, 1), float32], Tensor[(111, 56, 127, 0), float32]) span=from_string:28:15 */ = %x_51;
  let %x_71: ((Tensor[(1, 64, 1, 1), float32], Tensor[(1, 64, 1, 1), float32]), float32, Tensor[(0, 127, 111, 56), float32], Tensor[(1, 64, 1, 1), float32], Tensor[(0, 111, 1, 1), float32], Tensor[(111, 56, 127, 0), float32]) /* ty=((Tensor[(1, 64, 1, 1), float32], Tensor[(1, 64, 1, 1), float32]), float32, Tensor[(0, 127, 111, 56), float32], Tensor[(1, 64, 1, 1), float32], Tensor[(0, 111, 1, 1), float32], Tensor[(111, 56, 127, 0), float32]) span=from_string:29:15 */ = %x_61;
  let %x_81: ((Tensor[(1, 64, 1, 1), float32], Tensor[(1, 64, 1, 1), float32]), float32, Tensor[(0, 127, 111, 56), float32], Tensor[(1, 64, 1, 1), float32], Tensor[(0, 111, 1, 1), float32], Tensor[(111, 56, 127, 0), float32]) /* ty=((Tensor[(1, 64, 1, 1), float32], Tensor[(1, 64, 1, 1), float32]), float32, Tensor[(0, 127, 111, 56), float32], Tensor[(1, 64, 1, 1), float32], Tensor[(0, 111, 1, 1), float32], Tensor[(111, 56, 127, 0), float32]) span=from_string:30:15 */ = %x_71;
  let %x_91: ((Tensor[(1, 64, 1, 1), float32], Tensor[(1, 64, 1, 1), float32]), float32, Tensor[(0, 127, 111, 56), float32], Tensor[(1, 64, 1, 1), float32], Tensor[(0, 111, 1, 1), float32], Tensor[(111, 56, 127, 0), float32]) /* ty=((Tensor[(1, 64, 1, 1), float32], Tensor[(1, 64, 1, 1), float32]), float32, Tensor[(0, 127, 111, 56), float32], Tensor[(1, 64, 1, 1), float32], Tensor[(0, 111, 1, 1), float32], Tensor[(111, 56, 127, 0), float32]) span=from_string:31:16 */ = %x_81;
  let %x_101: ((Tensor[(1, 64, 1, 1), float32], Tensor[(1, 64, 1, 1), float32]), float32, Tensor[(0, 127, 111, 56), float32], Tensor[(1, 64, 1, 1), float32], Tensor[(0, 111, 1, 1), float32], Tensor[(111, 56, 127, 0), float32]) /* ty=((Tensor[(1, 64, 1, 1), float32], Tensor[(1, 64, 1, 1), float32]), float32, Tensor[(0, 127, 111, 56), float32], Tensor[(1, 64, 1, 1), float32], Tensor[(0, 111, 1, 1), float32], Tensor[(111, 56, 127, 0), float32]) span=from_string:32:16 */ = %x_91;
  let %x_111: ((Tensor[(1, 64, 1, 1), float32], Tensor[(1, 64, 1, 1), float32]), float32, Tensor[(0, 127, 111, 56), float32], Tensor[(1, 64, 1, 1), float32], Tensor[(0, 111, 1, 1), float32], Tensor[(111, 56, 127, 0), float32]) /* ty=((Tensor[(1, 64, 1, 1), float32], Tensor[(1, 64, 1, 1), float32]), float32, Tensor[(0, 127, 111, 56), float32], Tensor[(1, 64, 1, 1), float32], Tensor[(0, 111, 1, 1), float32], Tensor[(111, 56, 127, 0), float32]) span=from_string:33:16 */ = %x_101;
  let %x_121: ((Tensor[(1, 64, 1, 1), float32], Tensor[(1, 64, 1, 1), float32]), float32, Tensor[(0, 127, 111, 56), float32], Tensor[(1, 64, 1, 1), float32], Tensor[(0, 111, 1, 1), float32], Tensor[(111, 56, 127, 0), float32]) /* ty=((Tensor[(1, 64, 1, 1), float32], Tensor[(1, 64, 1, 1), float32]), float32, Tensor[(0, 127, 111, 56), float32], Tensor[(1, 64, 1, 1), float32], Tensor[(0, 111, 1, 1), float32], Tensor[(111, 56, 127, 0), float32]) span=from_string:34:16 */ = %x_111;
  let %x_131: ((Tensor[(1, 64, 1, 1), float32], Tensor[(1, 64, 1, 1), float32]), float32, Tensor[(0, 127, 111, 56), float32], Tensor[(1, 64, 1, 1), float32], Tensor[(0, 111, 1, 1), float32], Tensor[(111, 56, 127, 0), float32]) /* ty=((Tensor[(1, 64, 1, 1), float32], Tensor[(1, 64, 1, 1), float32]), float32, Tensor[(0, 127, 111, 56), float32], Tensor[(1, 64, 1, 1), float32], Tensor[(0, 111, 1, 1), float32], Tensor[(111, 56, 127, 0), float32]) span=from_string:35:16 */ = %x_121;
  let %x_141: ((Tensor[(1, 64, 1, 1), float32], Tensor[(1, 64, 1, 1), float32]), float32, Tensor[(0, 127, 111, 56), float32], Tensor[(1, 64, 1, 1), float32], Tensor[(0, 111, 1, 1), float32], Tensor[(111, 56, 127, 0), float32]) /* ty=((Tensor[(1, 64, 1, 1), float32], Tensor[(1, 64, 1, 1), float32]), float32, Tensor[(0, 127, 111, 56), float32], Tensor[(1, 64, 1, 1), float32], Tensor[(0, 111, 1, 1), float32], Tensor[(111, 56, 127, 0), float32]) span=from_string:36:16 */ = %x_131;
  let %x_151: ((Tensor[(1, 64, 1, 1), float32], Tensor[(1, 64, 1, 1), float32]), float32, Tensor[(0, 127, 111, 56), float32], Tensor[(1, 64, 1, 1), float32], Tensor[(0, 111, 1, 1), float32], Tensor[(111, 56, 127, 0), float32]) /* ty=((Tensor[(1, 64, 1, 1), float32], Tensor[(1, 64, 1, 1), float32]), float32, Tensor[(0, 127, 111, 56), float32], Tensor[(1, 64, 1, 1), float32], Tensor[(0, 111, 1, 1), float32], Tensor[(111, 56, 127, 0), float32]) span=from_string:37:16 */ = %x_141;
  let %x_161: ((Tensor[(1, 64, 1, 1), float32], Tensor[(1, 64, 1, 1), float32]), float32, Tensor[(0, 127, 111, 56), float32], Tensor[(1, 64, 1, 1), float32], Tensor[(0, 111, 1, 1), float32], Tensor[(111, 56, 127, 0), float32]) /* ty=((Tensor[(1, 64, 1, 1), float32], Tensor[(1, 64, 1, 1), float32]), float32, Tensor[(0, 127, 111, 56), float32], Tensor[(1, 64, 1, 1), float32], Tensor[(0, 111, 1, 1), float32], Tensor[(111, 56, 127, 0), float32]) span=from_string:38:16 */ = %x_151;
  let %x_171: ((Tensor[(1, 64, 1, 1), float32], Tensor[(1, 64, 1, 1), float32]), float32, Tensor[(0, 127, 111, 56), float32], Tensor[(1, 64, 1, 1), float32], Tensor[(0, 111, 1, 1), float32], Tensor[(111, 56, 127, 0), float32]) /* ty=((Tensor[(1, 64, 1, 1), float32], Tensor[(1, 64, 1, 1), float32]), float32, Tensor[(0, 127, 111, 56), float32], Tensor[(1, 64, 1, 1), float32], Tensor[(0, 111, 1, 1), float32], Tensor[(111, 56, 127, 0), float32]) span=from_string:39:3 */ = %x_161;
  %x_171
}
