#[version = "0.0.5"]
def @main(%x0: Tensor[(10, 10), float32] /* ty=Tensor[(10, 10), float32] span=from_string:36:18 */, %x1: Tensor[(34, 10), float32] /* ty=Tensor[(34, 10), float32] span=from_string:14:22 */, %x2: Tensor[(38, 10), float32] /* ty=Tensor[(38, 10), float32] span=from_string:15:22 */, %x3: Tensor[(100), float32] /* ty=Tensor[(100), float32] */, %x4: Tensor[(57), int32] /* ty=Tensor[(57), int32] span=from_string:3:65 */, %x5: Tensor[(30, 10), float32] /* ty=Tensor[(30, 10), float32] span=from_string:27:23 */) -> (Tensor[(10, 10), float32], (Tensor[(10, 10), float32], (Tensor[(10, 10), float32],)), (Tensor[(10, 34, 1), float32], Tensor[(10, 38, 1), float32]), Tensor[(10, 34, 1), float32], Tensor[(10, 10), float32], Tensor[(10, 10), float32], Tensor[(1), int32], Tensor[(10, 10), float32], float32) {
  let %x9: Tensor[(57), int32] /* ty=Tensor[(57), int32] */ = %x4;
  let %x6: Tensor[(10, 10), float32] /* ty=Tensor[(10, 10), float32] span=from_string:37:10 */ = multiply(%x0, %x0) /* ty=Tensor[(10, 10), float32] span=from_string:4:99 */;
  let %x7: Tensor[(10, 10), float32] /* ty=Tensor[(10, 10), float32] span=from_string:27:18 */ = ones_like(%x6) /* ty=Tensor[(10, 10), float32] span=from_string:5:98 */;
  %0 = multiply(%x7, %x0) /* ty=Tensor[(10, 10), float32] span=from_string:8:26 */;
  %1 = zeros_like(%x0) /* ty=Tensor[(10, 10), float32] span=from_string:10:12 */;
  %2 = collapse_sum_like(%0, %x0) /* ty=Tensor[(10, 10), float32] span=from_string:10:16 */;
  %3 = add(%1, %2) /* ty=Tensor[(10, 10), float32] span=from_string:12:12 */;
  %4 = add(%3, %2) /* ty=Tensor[(10, 10), float32] span=from_string:13:9 */;
  %5 = (%4,) /* ty=(Tensor[(10, 10), float32],) span=from_string:37:15 */;
  %6 = nn.dense(%x6, %x1, units=None) /* ty=Tensor[(10, 34), float32] span=from_string:16:21 */;
  %7 = nn.dense(%x6, %x2, units=None) /* ty=Tensor[(10, 38), float32] span=from_string:17:21 */;
  %8 = expand_dims(%6, axis=2) /* ty=Tensor[(10, 34, 1), float32] span=from_string:38:10 */;
  %9 = expand_dims(%7, axis=2) /* ty=Tensor[(10, 38, 1), float32] span=from_string:38:15 */;
  %10 = add(%8, 1f /* ty=float32 span=from_string:18:20 */) /* ty=Tensor[(10, 34, 1), float32] span=from_string:19:32 */;
  %11 = annotation.stop_fusion(%10) /* ty=Tensor[(10, 34, 1), float32] span=from_string:39:13 */;
  %12 = zeros(shape=[1], dtype="float32") /* ty=Tensor[(1), float32] span=from_string:21:17 */;
  %13 = add(%2, %12) /* ty=Tensor[(10, 10), float32] span=from_string:22:13 */;
  %14 = add(%13, 1f /* ty=float32 span=from_string:22:20 */) /* ty=Tensor[(10, 10), float32] span=from_string:24:17 */;
  %15 = exp(%14) /* ty=Tensor[(10, 10), float32] span=from_string:40:17 */;
  %16 = reshape(%14, newshape=[100]) /* ty=Tensor[(100), float32] span=from_string:25:17 */;
  %17 = reshape(%16, newshape=[10, 10]) /* ty=Tensor[(10, 10), float32] span=from_string:26:17 */;
  %18 = reshape(%17, newshape=[100]) /* ty=Tensor[(100), float32] span=from_string:41:17 */;
  %19 = nn.dense(%x7, %x5, units=None) /* ty=Tensor[(10, 30), float32] span=from_string:28:15 */;
  %20 = split(%19, indices_or_sections=3, axis=1) /* ty=(Tensor[(10, 10), float32], Tensor[(10, 10), float32], Tensor[(10, 10), float32]) span=from_string:31:9 */;
  %21 = %20.0 /* ty=Tensor[(10, 10), float32] span=from_string:34:17 */;
  %22 = %20.1 /* ty=Tensor[(10, 10), float32] span=from_string:32:14 */;
  %23 = %20.2 /* ty=Tensor[(10, 10), float32] span=from_string:33:13 */;
  %24 = tanh(%22) /* ty=Tensor[(10, 10), float32] span=from_string:35:19 */;
  %25 = exp(%23) /* ty=Tensor[(10, 10), float32] span=from_string:35:24 */;
  %26 = sigmoid(%21) /* ty=Tensor[(10, 10), float32] span=from_string:42:13 */;
  %27 = multiply(%24, %25) /* ty=Tensor[(10, 10), float32] span=from_string:42:18 */;
  %28 = add(%x0, %x0) /* ty=Tensor[(10, 10), float32] span=from_string:43:4 */;
  %29 = (%x6, %5) /* ty=(Tensor[(10, 10), float32], (Tensor[(10, 10), float32],)) span=from_string:43:9 */;
  %30 = (%8, %9) /* ty=(Tensor[(10, 34, 1), float32], Tensor[(10, 38, 1), float32]) span=from_string:43:14 */;
  %31 = exp(%11) /* ty=Tensor[(10, 34, 1), float32] span=from_string:43:19 */;
  %32 = squeeze(%15) /* ty=Tensor[(10, 10), float32] span=from_string:43:24 */;
  %33 = reshape(%18, newshape=[10, 10]) /* ty=Tensor[(10, 10), float32] span=from_string:43:29 */;
  %34 = add(%26, %27) /* ty=Tensor[(10, 10), float32] span=from_string:43:110 */;
  (%28, %29, %30, %31, %32, %33, meta[relay.Constant][0] /* ty=Tensor[(1), int32] span=from_string:43:39 */, %34, 0.761594f /* ty=float32 span=from_string:43:124 */) /* ty=(Tensor[(10, 10), float32], (Tensor[(10, 10), float32], (Tensor[(10, 10), float32],)), (Tensor[(10, 34, 1), float32], Tensor[(10, 38, 1), float32]), Tensor[(10, 34, 1), float32], Tensor[(10, 10), float32], Tensor[(10, 10), float32], Tensor[(1), int32], Tensor[(10, 10), float32], float32) span=from_string:43:3 */
}

#[metadata]
{
  "root": 1, 
  "nodes": [
    {
      "type_key": ""
    }, 
    {
      "type_key": "Map", 
      "keys": [
        "relay.Constant"
      ], 
      "data": [2]
    }, 
    {
      "type_key": "Array", 
      "data": [3]
    }, 
    {
      "type_key": "relay.Constant", 
      "attrs": {
        "_checked_type_": "8", 
        "data": "0", 
        "span": "6", 
        "virtual_device_": "4"
      }
    }, 
    {
      "type_key": "VirtualDevice", 
      "attrs": {
        "device_type_int": "-1", 
        "memory_scope": "5", 
        "target": "0", 
        "virtual_device_id": "-1"
      }
    }, 
    {
      "type_key": "runtime.String"
    }, 
    {
      "type_key": "Span", 
      "attrs": {
        "column": "39", 
        "end_column": "57", 
        "end_line": "43", 
        "line": "43", 
        "source_name": "7"
      }
    }, 
    {
      "type_key": "SourceName", 
      "repr_str": "from_string"
    }, 
    {
      "type_key": "relay.TensorType", 
      "attrs": {
        "dtype": "int32", 
        "shape": "9", 
        "span": "11"
      }
    }, 
    {
      "type_key": "Array", 
      "data": [10]
    }, 
    {
      "type_key": "IntImm", 
      "attrs": {
        "dtype": "int32", 
        "span": "0", 
        "value": "1"
      }
    }, 
    {
      "type_key": "Span", 
      "attrs": {
        "column": "748", 
        "end_column": "768", 
        "end_line": "2", 
        "line": "2", 
        "source_name": "7"
      }
    }
  ], 
  "b64ndarrays": [
    "P6G0lvBAXt0AAAAAAAAAAAEAAAAAAAAAAQAAAAAgAQABAAAAAAAAAAQAAAAAAAAAZAAAAA=="
  ], 
  "attrs": {"tvm_version": "0.13.0"}
}