#[version = "0.0.5"]
def @main(%x0: Tensor[(1, 3, 224, 224), uint8] /* ty=Tensor[(1, 3, 224, 224), uint8] span=from_string:3:23 */, %x1: Tensor[(3, 224, 224), float32] /* ty=Tensor[(3, 224, 224), float32] span=from_string:25:27 */, %x2: Tensor[(224), float32] /* ty=Tensor[(224), float32] span=from_string:25:32 */) -> (Tensor[(1, 3, 224, 224), uint8], Tensor[(3, 224, 224), float32], (Tensor[(1, 3, 224, 224), float32], (Tensor[(1, 3, 224, 224), float32],)), Tensor[(1, 3, 224, 224), uint8], Tensor[(1, 3, 224, 224), float32], Tensor[(0, 5, 447, 224), float32], float32, Tensor[(1, 3, 224, 224), float32], Tensor[(224), float32], Tensor[(3, 224, 224), float32]) {
  %0 = qnn.dequantize(%x0, 2f /* ty=float32 span=from_string:3:30 */, 114 /* ty=int32 span=from_string:3:74 */) /* ty=Tensor[(1, 3, 224, 224), float32] span=from_string:9:30 */;
  let %x3: Tensor[(1, 3, 224, 224), float32] /* ty=Tensor[(1, 3, 224, 224), float32] span=from_string:21:10 */ = multiply(%0, %0) /* ty=Tensor[(1, 3, 224, 224), float32] span=from_string:4:115 */;
  let %x4: Tensor[(1, 3, 224, 224), float32] /* ty=Tensor[(1, 3, 224, 224), float32] span=from_string:7:18 */ = ones_like(%x3) /* ty=Tensor[(1, 3, 224, 224), float32] span=from_string:5:113 */;
  %1 = clip(%0, a_min=0f, a_max=6f) /* ty=Tensor[(1, 3, 224, 224), float32] span=from_string:20:17 */;
  %2 = multiply(%x4, %0) /* ty=Tensor[(1, 3, 224, 224), float32] span=from_string:9:26 */;
  %3 = zeros_like(%0) /* ty=Tensor[(1, 3, 224, 224), float32] span=from_string:22:13 */;
  %4 = collapse_sum_like(%2, %0) /* ty=Tensor[(1, 3, 224, 224), float32] span=from_string:14:16 */;
  %5 = add(%3, %4) /* ty=Tensor[(1, 3, 224, 224), float32] span=from_string:23:30 */;
  %6 = add(%5, %4) /* ty=Tensor[(1, 3, 224, 224), float32] span=from_string:12:9 */;
  %7 = (%6,) /* ty=(Tensor[(1, 3, 224, 224), float32],) span=from_string:21:15 */;
  %8 = ones_like(%3) /* ty=Tensor[(1, 3, 224, 224), float32] span=from_string:22:17 */;
  %9 = nn.relu(%4) /* ty=Tensor[(1, 3, 224, 224), float32] span=from_string:15:19 */;
  %10 = transpose(%9, axes=[0, 2, 3, 1]) /* ty=Tensor[(1, 224, 224, 3), float32] span=from_string:16:19 */;
  %11 = transpose(%10, axes=[1, 2, 3, 0]) /* ty=Tensor[(224, 224, 3, 1), float32] span=from_string:24:19 */;
  %12 = add(%8, 1f /* ty=float32 span=from_string:17:19 */) /* ty=Tensor[(1, 3, 224, 224), float32] span=from_string:18:13 */;
  %13 = exp(%12) /* ty=Tensor[(1, 3, 224, 224), float32] span=from_string:26:17 */;
  %14 = qnn.quantize(%1, 2f /* ty=float32 span=from_string:19:28 */, 114 /* ty=int32 span=from_string:19:73 */, out_dtype="uint8") /* ty=Tensor[(1, 3, 224, 224), uint8] span=from_string:27:19 */;
  %15 = reshape(%1, newshape=[3, 224, 224]) /* ty=Tensor[(3, 224, 224), float32] span=from_string:27:9 */;
  %16 = (%x3, %7) /* ty=(Tensor[(1, 3, 224, 224), float32], (Tensor[(1, 3, 224, 224), float32],)) span=from_string:27:14 */;
  %17 = add(%3, %8) /* ty=Tensor[(1, 3, 224, 224), float32] span=from_string:27:24 */;
  %18 = nn.batch_to_space_nd(%5, block_shape=[2, 2], crops=[[0, 1], [0, 1]]) /* ty=Tensor[(0, 5, 447, 224), float32] span=from_string:27:29 */;
  %19 = transpose(%11, axes=[3, 2, 0, 1]) /* ty=Tensor[(1, 3, 224, 224), float32] span=from_string:27:78 */;
  %20 = collapse_sum_like(%x1, %x2) /* ty=Tensor[(224), float32] span=from_string:27:83 */;
  %21 = squeeze(%13) /* ty=Tensor[(3, 224, 224), float32] span=from_string:27:88 */;
  (%14, %15, %16, %14, %17, %18, 4f /* ty=float32 span=from_string:27:36 */, %19, %20, %21) /* ty=(Tensor[(1, 3, 224, 224), uint8], Tensor[(3, 224, 224), float32], (Tensor[(1, 3, 224, 224), float32], (Tensor[(1, 3, 224, 224), float32],)), Tensor[(1, 3, 224, 224), uint8], Tensor[(1, 3, 224, 224), float32], Tensor[(0, 5, 447, 224), float32], float32, Tensor[(1, 3, 224, 224), float32], Tensor[(224), float32], Tensor[(3, 224, 224), float32]) span=from_string:27:3 */
}
