#[version = "0.0.5"]
def @main(%x0: Tensor[(1, 16), float32] /* ty=Tensor[(1, 16), float32] span=from_string:3:16 */, %x1: Tensor[(16), float32] /* ty=Tensor[(16), float32] */) -> (Tensor[(1, 16), float16], float32, float32, float32, float32, float32, Tensor[(1, 16), float16], Tensor[(16), float16], Tensor[(2), int32]) {
  %0 = cast(%x0, dtype="float16") /* ty=Tensor[(1, 16), float16] */;
  %1 = nn.relu(%0) /* ty=Tensor[(1, 16), float16] span=from_string:4:12 */;
  %2 = cast(1f /* ty=float32 span=from_string:4:18 */, dtype="float16") /* ty=float16 */;
  %3 = add(%1, %2) /* ty=Tensor[(1, 16), float16] span=from_string:8:16 */;
  %4 = cast(2f /* ty=float32 span=from_string:6:101 */, dtype="float16") /* ty=float16 */;
  %5 = add(%3, %3) /* ty=Tensor[(1, 16), float16] span=from_string:6:143 */;
  let %x4: Tensor[(1, 16), float16] /* ty=Tensor[(1, 16), float16] span=from_string:9:4 */ = add(%4, %5) /* ty=Tensor[(1, 16), float16] span=from_string:6:95 */;
  %6 = ones(shape=[1, 16], dtype="float16") /* ty=Tensor[(1, 16), float16] span=from_string:9:242 */;
  %7 = reshape(%3, newshape=[16]) /* ty=Tensor[(16), float16] span=from_string:9:246 */;
  (%x4, 4f /* ty=float32 span=from_string:9:11 */, 7.38906f /* ty=float32 span=from_string:9:61 */, 20.0855f /* ty=float32 span=from_string:9:111 */, 1f /* ty=float32 span=from_string:9:155 */, 6f /* ty=float32 span=from_string:9:199 */, %6, %7, meta[relay.Constant][0] /* ty=Tensor[(2), int32] span=from_string:9:255 */) /* ty=(Tensor[(1, 16), float16], float32, float32, float32, float32, float32, Tensor[(1, 16), float16], Tensor[(16), float16], Tensor[(2), int32]) span=from_string:9:3 */
}

#[metadata]
{
  "root": 1, 
  "nodes": [
    {
      "type_key": ""
    }, 
    {
      "type_key": "Map", 
      "keys": [
        "relay.Constant"
      ], 
      "data": [2]
    }, 
    {
      "type_key": "Array", 
      "data": [3]
    }, 
    {
      "type_key": "relay.Constant", 
      "attrs": {
        "_checked_type_": "8", 
        "data": "0", 
        "span": "6", 
        "virtual_device_": "4"
      }
    }, 
    {
      "type_key": "VirtualDevice", 
      "attrs": {
        "device_type_int": "-1", 
        "memory_scope": "5", 
        "target": "0", 
        "virtual_device_id": "-1"
      }
    }, 
    {
      "type_key": "runtime.String"
    }, 
    {
      "type_key": "Span", 
      "attrs": {
        "column": "255", 
        "end_column": "273", 
        "end_line": "9", 
        "line": "9", 
        "source_name": "7"
      }
    }, 
    {
      "type_key": "SourceName", 
      "repr_str": "from_string"
    }, 
    {
      "type_key": "relay.TensorType", 
      "attrs": {
        "dtype": "int32", 
        "shape": "9", 
        "span": "0"
      }
    }, 
    {
      "type_key": "Array", 
      "data": [10]
    }, 
    {
      "type_key": "IntImm", 
      "attrs": {
        "dtype": "int32", 
        "span": "0", 
        "value": "2"
      }
    }
  ], 
  "b64ndarrays": [
    "P6G0lvBAXt0AAAAAAAAAAAEAAAAAAAAAAQAAAAAgAQACAAAAAAAAAAgAAAAAAAAAAQAAABAAAAA="
  ], 
  "attrs": {"tvm_version": "0.13.0"}
}