#[version = "0.0.5"]
def @main(%x0: Tensor[(1, 128, 56, 56), float32] /* ty=Tensor[(1, 128, 56, 56), float32] span=from_string:3:135 */, %x1: Tensor[(1, 128, 56, 56), float32] /* ty=Tensor[(1, 128, 56, 56), float32] span=from_string:7:131 */, %x2: Tensor[(128, 128, 3, 3), float32] /* ty=Tensor[(128, 128, 3, 3), float32] span=from_string:12:132 */, %x3: Tensor[(128, 128, 1, 1), float32] /* ty=Tensor[(128, 128, 1, 1), float32] span=from_string:26:112 */, %x4: Tensor[(128, 128, 3, 3), float32] /* ty=Tensor[(128, 128, 3, 3), float32] span=from_string:15:133 */, %x5: Tensor[(128, 56, 56), float32] /* ty=Tensor[(128, 56, 56), float32] */, %x6: float32 /* ty=float32 span=from_string:21:174 */, %x7: Tensor[(80, 128, 56, 56), float32] /* ty=Tensor[(80, 128, 56, 56), float32] span=from_string:24:200 */) -> (Tensor[(1, 128, 56, 56), float32], Tensor[(1, 32, 56, 56, 4), float32], Tensor[(0, 255, 111, 56), float32], Tensor[(1, 128, 56, 56), float32], Tensor[(3), int32], Tensor[(4), int32], Tensor[(81, 128, 56, 56), float32], Tensor[(128, 384), float32]) {
  let %x_0: Tensor[(1, 32, 56, 56, 4), float32] /* ty=Tensor[(1, 32, 56, 56, 4), float32] span=from_string:8:135 */ = layout_transform(%x0, src_layout="NCHW", dst_layout="NCHW4c") /* ty=Tensor[(1, 32, 56, 56, 4), float32] span=from_string:3:118 */;
  let %x_1: Tensor[(1, 128, 56, 56), float32] /* ty=Tensor[(1, 128, 56, 56), float32] span=from_string:5:123 */ = layout_transform(%x_0, src_layout="NCHW4c", dst_layout="NCHW") /* ty=Tensor[(1, 128, 56, 56), float32] span=from_string:4:114 */;
  let %x_2: Tensor[(1, 128, 56, 56), float32] /* ty=Tensor[(1, 128, 56, 56), float32] span=from_string:11:119 */ = nn.relu(%x_1) /* ty=Tensor[(1, 128, 56, 56), float32] span=from_string:5:115 */;
  let %x_3: Tensor[(1, 128, 56, 56), float32] /* ty=Tensor[(1, 128, 56, 56), float32] span=from_string:7:125 */ = subtract(%x_2, %x1) /* ty=Tensor[(1, 128, 56, 56), float32] span=from_string:6:114 */;
  let %x_4: Tensor[(1, 128, 56, 56), float32] /* ty=Tensor[(1, 128, 56, 56), float32] span=from_string:36:550 */ = multiply(%x_3, %x1) /* ty=Tensor[(1, 128, 56, 56), float32] span=from_string:7:116 */;
  let %x_5: Tensor[(1, 16, 56, 56, 8), float32] /* ty=Tensor[(1, 16, 56, 56, 8), float32] span=from_string:9:136 */ = layout_transform(%x_0, src_layout="NCHW4c", dst_layout="NCHW8c") /* ty=Tensor[(1, 16, 56, 56, 8), float32] span=from_string:8:118 */;
  let %x_6: Tensor[(1, 32, 56, 56, 4), float32] /* ty=Tensor[(1, 32, 56, 56, 4), float32] span=from_string:10:127 */ = layout_transform(%x_5, src_layout="NCHW8c", dst_layout="NCHW4c") /* ty=Tensor[(1, 32, 56, 56, 4), float32] span=from_string:9:119 */;
  let %x_7: Tensor[(1, 32, 56, 56, 4), float32] /* ty=Tensor[(1, 32, 56, 56, 4), float32] span=from_string:36:556 */ = nn.relu(%x_6) /* ty=Tensor[(1, 32, 56, 56, 4), float32] span=from_string:10:119 */;
  let %x_9: Tensor[(1, 128, 56, 56), float32] /* ty=Tensor[(1, 128, 56, 56), float32] span=from_string:17:118 */ = add(%x_2, 1f /* ty=float32 span=from_string:11:127 */) /* ty=Tensor[(1, 128, 56, 56), float32] span=from_string:11:115 */;
  let %x_10: Tensor[(1, 128, 56, 56), float32] /* ty=Tensor[(1, 128, 56, 56), float32] span=from_string:14:120 */ = nn.conv2d(%x_9, %x2, padding=[1, 1, 1, 1], channels=128, kernel_size=[3, 3]) /* ty=Tensor[(1, 128, 56, 56), float32] span=from_string:12:116 */;
  let %x_12: Tensor[(1, 128, 56, 56), float32] /* ty=Tensor[(1, 128, 56, 56), float32] span=from_string:14:127 */ = add(1f /* ty=float32 span=from_string:13:122 */, %x_10) /* ty=Tensor[(1, 128, 56, 56), float32] span=from_string:13:116 */;
  let %x_13: Tensor[(1, 128, 56, 56), float32] /* ty=Tensor[(1, 128, 56, 56), float32] span=from_string:22:126 */ = add(%x_10, %x_12) /* ty=Tensor[(1, 128, 56, 56), float32] span=from_string:14:116 */;
  let %x_14: Tensor[(1, 128, 56, 56), float32] /* ty=Tensor[(1, 128, 56, 56), float32] span=from_string:23:127 */ = nn.conv2d(%x_13, %x4, padding=[1, 1, 1, 1], channels=128, kernel_size=[3, 3]) /* ty=Tensor[(1, 128, 56, 56), float32] span=from_string:15:116 */;
  let %x_15: Tensor[(0, 255, 111, 56), float32] /* ty=Tensor[(0, 255, 111, 56), float32] span=from_string:36:562 */ = nn.batch_to_space_nd(%x_14, block_shape=[2, 2], crops=[[0, 1], [0, 1]]) /* ty=Tensor[(0, 255, 111, 56), float32] span=from_string:16:118 */;
  let %x_16: Tensor[(128, 56, 56), float32] /* ty=Tensor[(128, 56, 56), float32] span=from_string:18:124 */ = reshape(%x_9, newshape=[128, 56, 56]) /* ty=Tensor[(128, 56, 56), float32] span=from_string:17:110 */;
  let %x_17: Tensor[(1, 128, 56, 56), float32] /* ty=Tensor[(1, 128, 56, 56), float32] span=from_string:19:118 */ = reshape(%x_16, newshape=[1, 128, 56, 56]) /* ty=Tensor[(1, 128, 56, 56), float32] span=from_string:18:116 */;
  let %x_18: Tensor[(128, 56, 56), float32] /* ty=Tensor[(128, 56, 56), float32] span=from_string:20:124 */ = reshape(%x_17, newshape=[128, 56, 56]) /* ty=Tensor[(128, 56, 56), float32] span=from_string:19:110 */;
  let %x_19: Tensor[(1, 128, 56, 56), float32] /* ty=Tensor[(1, 128, 56, 56), float32] span=from_string:36:569 */ = reshape(%x_18, newshape=[1, 128, 56, 56]) /* ty=Tensor[(1, 128, 56, 56), float32] span=from_string:20:116 */;
  let %x_21: Tensor[(3), int32] /* ty=Tensor[(3), int32] span=from_string:36:576 */ = full_like(meta[relay.Constant][0] /* ty=Tensor[(3), int32] span=from_string:21:103 */, %x6) /* ty=Tensor[(3), int32] span=from_string:21:88 */;
  let %x_23: Tensor[(1, 128, 56, 56), float32] /* ty=Tensor[(1, 128, 56, 56), float32] span=from_string:23:120 */ = nn.conv2d(%x_13, %x3, padding=[0, 0, 0, 0], channels=128, kernel_size=[1, 1]) /* ty=Tensor[(1, 128, 56, 56), float32] span=from_string:22:116 */;
  let %x_24: Tensor[(1, 128, 56, 56), float32] /* ty=Tensor[(1, 128, 56, 56), float32] span=from_string:24:193 */ = add(%x_23, %x_14) /* ty=Tensor[(1, 128, 56, 56), float32] span=from_string:23:116 */;
  let %x_25: (Tensor[(1, 128, 56, 56), float32], Tensor[(80, 128, 56, 56), float32]) /* ty=(Tensor[(1, 128, 56, 56), float32], Tensor[(80, 128, 56, 56), float32]) span=from_string:25:130 */ = (%x_24, %x7) /* ty=(Tensor[(1, 128, 56, 56), float32], Tensor[(80, 128, 56, 56), float32]) span=from_string:24:192 */;
  let %x_26: Tensor[(81, 128, 56, 56), float32] /* ty=Tensor[(81, 128, 56, 56), float32] span=from_string:36:659 */ = concatenate(%x_25) /* ty=Tensor[(81, 128, 56, 56), float32] span=from_string:25:118 */;
  let %x_27: Tensor[(128, 128), float32] /* ty=Tensor[(128, 128), float32] span=from_string:31:108 */ = squeeze(%x3) /* ty=Tensor[(128, 128), float32] span=from_string:26:104 */;
  let %x_29: Tensor[(128, 128), float32] /* ty=Tensor[(128, 128), float32] span=from_string:32:225 */ = add(%x_27, 1f /* ty=float32 span=from_string:27:117 */) /* ty=Tensor[(128, 128), float32] span=from_string:27:104 */;
  let %x_30: Tensor[(128, 128), float32] /* ty=Tensor[(128, 128), float32] span=from_string:29:108 */ = squeeze(%x_27) /* ty=Tensor[(128, 128), float32] span=from_string:28:104 */;
  let %x_32: Tensor[(128, 128), float32] /* ty=Tensor[(128, 128), float32] span=from_string:30:108 */ = add(%x_30, 1f /* ty=float32 span=from_string:29:117 */) /* ty=Tensor[(128, 128), float32] span=from_string:29:104 */;
  let %x_34: Tensor[(128, 128), float32] /* ty=Tensor[(128, 128), float32] span=from_string:32:232 */ = add(%x_32, 1f /* ty=float32 span=from_string:30:117 */) /* ty=Tensor[(128, 128), float32] span=from_string:30:104 */;
  let %x_36: Tensor[(128, 128), float32] /* ty=Tensor[(128, 128), float32] span=from_string:32:239 */ = add(%x_27, 1f /* ty=float32 span=from_string:31:117 */) /* ty=Tensor[(128, 128), float32] span=from_string:31:104 */;
  let %x_37: (Tensor[(128, 128), float32], Tensor[(128, 128), float32], Tensor[(128, 128), float32]) /* ty=(Tensor[(128, 128), float32], Tensor[(128, 128), float32], Tensor[(128, 128), float32]) span=from_string:33:116 */ = (%x_29, %x_34, %x_36) /* ty=(Tensor[(128, 128), float32], Tensor[(128, 128), float32], Tensor[(128, 128), float32]) span=from_string:32:224 */;
  let %x_38: Tensor[(128, 384), float32] /* ty=Tensor[(128, 384), float32] span=from_string:34:112 */ = concatenate(%x_37, axis=1) /* ty=Tensor[(128, 384), float32] span=from_string:33:104 */;
  let %x_39: Tensor[(128, 384), float32] /* ty=Tensor[(128, 384), float32] span=from_string:35:108 */ = squeeze(%x_38) /* ty=Tensor[(128, 384), float32] span=from_string:34:104 */;
  let %x_41: Tensor[(128, 384), float32] /* ty=Tensor[(128, 384), float32] span=from_string:36:666 */ = add(%x_39, 1f /* ty=float32 span=from_string:35:117 */) /* ty=Tensor[(128, 384), float32] span=from_string:35:104 */;
  let %x_42: (Tensor[(1, 128, 56, 56), float32], Tensor[(1, 32, 56, 56, 4), float32], Tensor[(0, 255, 111, 56), float32], Tensor[(1, 128, 56, 56), float32], Tensor[(3), int32], Tensor[(4), int32], Tensor[(81, 128, 56, 56), float32], Tensor[(128, 384), float32]) /* ty=(Tensor[(1, 128, 56, 56), float32], Tensor[(1, 32, 56, 56, 4), float32], Tensor[(0, 255, 111, 56), float32], Tensor[(1, 128, 56, 56), float32], Tensor[(3), int32], Tensor[(4), int32], Tensor[(81, 128, 56, 56), float32], Tensor[(128, 384), float32]) span=from_string:37:3 */ = (%x_4, %x_7, %x_15, %x_19, %x_21, meta[relay.Constant][1] /* ty=Tensor[(4), int32] span=from_string:36:588 */, %x_26, %x_41) /* ty=(Tensor[(1, 128, 56, 56), float32], Tensor[(1, 32, 56, 56, 4), float32], Tensor[(0, 255, 111, 56), float32], Tensor[(1, 128, 56, 56), float32], Tensor[(3), int32], Tensor[(4), int32], Tensor[(81, 128, 56, 56), float32], Tensor[(128, 384), float32]) span=from_string:36:549 */;
  %x_42
}

#[metadata]
{
  "root": 1, 
  "nodes": [
    {
      "type_key": ""
    }, 
    {
      "type_key": "Map", 
      "keys": [
        "relay.Constant"
      ], 
      "data": [2]
    }, 
    {
      "type_key": "Array", 
      "data": [3, 11]
    }, 
    {
      "type_key": "relay.Constant", 
      "attrs": {
        "_checked_type_": "8", 
        "data": "0", 
        "span": "6", 
        "virtual_device_": "4"
      }
    }, 
    {
      "type_key": "VirtualDevice", 
      "attrs": {
        "device_type_int": "-1", 
        "memory_scope": "5", 
        "target": "0", 
        "virtual_device_id": "-1"
      }
    }, 
    {
      "type_key": "runtime.String"
    }, 
    {
      "type_key": "Span", 
      "attrs": {
        "column": "103", 
        "end_column": "121", 
        "end_line": "21", 
        "line": "21", 
        "source_name": "7"
      }
    }, 
    {
      "type_key": "SourceName", 
      "repr_str": "from_string"
    }, 
    {
      "type_key": "relay.TensorType", 
      "attrs": {
        "dtype": "int32", 
        "shape": "9", 
        "span": "0"
      }
    }, 
    {
      "type_key": "Array", 
      "data": [10]
    }, 
    {
      "type_key": "IntImm", 
      "attrs": {
        "dtype": "int32", 
        "span": "0", 
        "value": "3"
      }
    }, 
    {
      "type_key": "relay.Constant", 
      "attrs": {
        "_checked_type_": "13", 
        "data": "1", 
        "span": "12", 
        "virtual_device_": "4"
      }
    }, 
    {
      "type_key": "Span", 
      "attrs": {
        "column": "588", 
        "end_column": "606", 
        "end_line": "36", 
        "line": "36", 
        "source_name": "7"
      }
    }, 
    {
      "type_key": "relay.TensorType", 
      "attrs": {
        "dtype": "int32", 
        "shape": "14", 
        "span": "16"
      }
    }, 
    {
      "type_key": "Array", 
      "data": [15]
    }, 
    {
      "type_key": "IntImm", 
      "attrs": {
        "dtype": "int32", 
        "span": "0", 
        "value": "4"
      }
    }, 
    {
      "type_key": "Span", 
      "attrs": {
        "column": "948", 
        "end_column": "968", 
        "end_line": "2", 
        "line": "2", 
        "source_name": "7"
      }
    }
  ], 
  "b64ndarrays": [
    "P6G0lvBAXt0AAAAAAAAAAAEAAAAAAAAAAQAAAAAgAQADAAAAAAAAAAwAAAAAAAAAgAAAADgAAAA4AAAA", 
    "P6G0lvBAXt0AAAAAAAAAAAEAAAAAAAAAAQAAAAAgAQAEAAAAAAAAABAAAAAAAAAAAAAAAAAAAAAAAAAAAAAAAA=="
  ], 
  "attrs": {"tvm_version": "0.13.0"}
}