#[version = "0.0.5"]
def @main(%x0: Tensor[(1, 4, 2), int8] /* ty=Tensor[(1, 4, 2), int8] span=from_string:34:13 */, %x1: Tensor[(1, 4, 2), int8] /* ty=Tensor[(1, 4, 2), int8] span=from_string:95:13 */, %x2: Tensor[(31, 65), int64] /* ty=Tensor[(31, 65), int64] span=from_string:97:13 */, %x3: Tensor[(58), float32] /* ty=Tensor[(58), float32] */, %x4: Tensor[(1, 100, 2), int8] /* ty=Tensor[(1, 100, 2), int8] span=from_string:49:13 */, %x5: Tensor[(1, 18, 2), int8] /* ty=Tensor[(1, 18, 2), int8] span=from_string:67:13 */, %x6: Tensor[(1, 46, 2), int8] /* ty=Tensor[(1, 46, 2), int8] span=from_string:102:13 */, %x7: Tensor[(49, 17, 31), int32] /* ty=Tensor[(49, 17, 31), int32] */) -> (Tensor[(1, 4, 4), float32], Tensor[(1, 4, 2), float32], Tensor[(1, 4, 100), float32], Tensor[(31, 65), int32], Tensor[(1, 100, 18), int8], Tensor[(1, 4, 2), float32], Tensor[(1, 18, 46), int8], (Tensor[(1), float32], (Tensor[(1), float32],)), Tensor[(1, 2), int32], Tensor[(1, 100, 18), int32]) {
  %0 = fn (Primitive=1) -> Tensor[(1), float32] {
    ones(shape=[1], dtype="float32") /* ty=Tensor[(1), float32] span=from_string:4:5 */
  } /* ty=fn () -> Tensor[(1), float32] span=from_string:6:8 */;
  %1 = %0() /* ty=Tensor[(1), float32] span=from_string:99:17 */;
  let %x8: Tensor[(1), float32] /* ty=Tensor[(1), float32] span=from_string:101:10 */ = %1;
  %2 = fn (Primitive=1) -> Tensor[(1), float32] {
    ones(shape=[1], dtype="float32") /* ty=Tensor[(1), float32] span=from_string:9:5 */
  } /* ty=fn () -> Tensor[(1), float32] span=from_string:11:88 */;
  let %x9: Tensor[(1), float32] /* ty=Tensor[(1), float32] span=from_string:82:13 */ = %2() /* ty=Tensor[(1), float32] span=from_string:11:88 */;
  %5 = fn (%p01: Tensor[(1, 4, 2), int8] /* ty=Tensor[(1, 4, 2), int8] span=from_string:13:20 */, Primitive=1) -> Tensor[(1, 4, 2), float32] {
    qnn.dequantize(%p01, 2f /* ty=float32 span=from_string:13:28 */, 0 /* ty=int32 span=from_string:13:71 */) /* ty=Tensor[(1, 4, 2), float32] span=from_string:13:5 */
  } /* ty=fn (Tensor[(1, 4, 2), int8]) -> Tensor[(1, 4, 2), float32] span=from_string:18:8 */;
  %6 = fn (%p02: Tensor[(1, 4, 2), int8] /* ty=Tensor[(1, 4, 2), int8] span=from_string:16:20 */, Primitive=1) -> Tensor[(1, 4, 2), float32] {
    qnn.dequantize(%p02, 6f /* ty=float32 span=from_string:16:28 */, 0 /* ty=int32 span=from_string:16:71 */) /* ty=Tensor[(1, 4, 2), float32] span=from_string:16:5 */
  } /* ty=fn (Tensor[(1, 4, 2), int8]) -> Tensor[(1, 4, 2), float32] span=from_string:19:8 */;
  %7 = %5(%x0) /* ty=Tensor[(1, 4, 2), float32] span=from_string:94:12 */;
  %8 = %6(%x1) /* ty=Tensor[(1, 4, 2), float32] span=from_string:99:13 */;
  %9 = fn (%p0: Tensor[(1, 4, 2), float32] /* ty=Tensor[(1, 4, 2), float32] span=from_string:21:26 */, %p1: Tensor[(1, 4, 2), float32] /* ty=Tensor[(1, 4, 2), float32] span=from_string:21:31 */, Primitive=1) -> Tensor[(1, 4, 4), float32] {
    %3 = nn.batch_matmul(%p0, %p1, transpose_b=True) /* ty=Tensor[(1, 4, 4), float32] span=from_string:22:14 */;
    %4 = add(%3, 1f /* ty=float32 span=from_string:22:20 */) /* ty=Tensor[(1, 4, 4), float32] span=from_string:23:9 */;
    erf(%4) /* ty=Tensor[(1, 4, 4), float32] span=from_string:21:5 */
  } /* ty=fn (Tensor[(1, 4, 2), float32], Tensor[(1, 4, 2), float32]) -> Tensor[(1, 4, 4), float32] span=from_string:94:9 */;
  %10 = fn (%p03: Tensor[(1, 4, 2), int8] /* ty=Tensor[(1, 4, 2), int8] span=from_string:26:10 */, Primitive=1) -> Tensor[(1, 4, 2), float32] {
    cast(%p03, dtype="float32") /* ty=Tensor[(1, 4, 2), float32] span=from_string:26:5 */
  } /* ty=fn (Tensor[(1, 4, 2), int8]) -> Tensor[(1, 4, 2), float32] span=from_string:95:9 */;
  %11 = fn (%p05: Tensor[(1, 4, 2), int8] /* ty=Tensor[(1, 4, 2), int8] span=from_string:29:20 */, Primitive=1) -> Tensor[(1, 4, 2), float32] {
    qnn.dequantize(%p05, 2f /* ty=float32 span=from_string:29:28 */, 0 /* ty=int32 span=from_string:29:71 */) /* ty=Tensor[(1, 4, 2), float32] span=from_string:29:5 */
  } /* ty=fn (Tensor[(1, 4, 2), int8]) -> Tensor[(1, 4, 2), float32] span=from_string:34:9 */;
  %12 = fn (%p06: Tensor[(1, 100, 2), int8] /* ty=Tensor[(1, 100, 2), int8] span=from_string:32:20 */, Primitive=1) -> Tensor[(1, 100, 2), float32] {
    qnn.dequantize(%p06, 6f /* ty=float32 span=from_string:32:28 */, 0 /* ty=int32 span=from_string:32:71 */) /* ty=Tensor[(1, 100, 2), float32] span=from_string:32:5 */
  } /* ty=fn (Tensor[(1, 100, 2), int8]) -> Tensor[(1, 100, 2), float32] span=from_string:35:9 */;
  %13 = %11(%x0) /* ty=Tensor[(1, 4, 2), float32] span=from_string:96:13 */;
  %14 = %12(%x4) /* ty=Tensor[(1, 100, 2), float32] span=from_string:96:18 */;
  %15 = fn (%p04: Tensor[(1, 4, 2), float32] /* ty=Tensor[(1, 4, 2), float32] span=from_string:37:21 */, %p11: Tensor[(1, 100, 2), float32] /* ty=Tensor[(1, 100, 2), float32] span=from_string:37:27 */, Primitive=1) -> Tensor[(1, 4, 100), float32] {
    nn.batch_matmul(%p04, %p11, transpose_b=True) /* ty=Tensor[(1, 4, 100), float32] span=from_string:37:5 */
  } /* ty=fn (Tensor[(1, 4, 2), float32], Tensor[(1, 100, 2), float32]) -> Tensor[(1, 4, 100), float32] span=from_string:96:9 */;
  %17 = fn (%p07: Tensor[(31, 65), int64] /* ty=Tensor[(31, 65), int64] span=from_string:40:16 */, Primitive=1) -> Tensor[(31, 65), int32] {
    %16 = cast(%p07, dtype="bool") /* ty=Tensor[(31, 65), bool] span=from_string:41:10 */;
    cast(%16, dtype="int32") /* ty=Tensor[(31, 65), int32] span=from_string:40:5 */
  } /* ty=fn (Tensor[(31, 65), int64]) -> Tensor[(31, 65), int32] span=from_string:97:9 */;
  %18 = fn (%p010: Tensor[(1, 100, 2), int8] /* ty=Tensor[(1, 100, 2), int8] span=from_string:44:20 */, Primitive=1) -> Tensor[(1, 100, 2), float32] {
    qnn.dequantize(%p010, 2f /* ty=float32 span=from_string:44:29 */, 0 /* ty=int32 span=from_string:44:72 */) /* ty=Tensor[(1, 100, 2), float32] span=from_string:44:5 */
  } /* ty=fn (Tensor[(1, 100, 2), int8]) -> Tensor[(1, 100, 2), float32] span=from_string:49:9 */;
  %19 = fn (%p011: Tensor[(1, 18, 2), int8] /* ty=Tensor[(1, 18, 2), int8] span=from_string:47:20 */, Primitive=1) -> Tensor[(1, 18, 2), float32] {
    qnn.dequantize(%p011, 0.5f /* ty=float32 span=from_string:47:31 */, 0 /* ty=int32 span=from_string:47:74 */) /* ty=Tensor[(1, 18, 2), float32] span=from_string:47:5 */
  } /* ty=fn (Tensor[(1, 18, 2), int8]) -> Tensor[(1, 18, 2), float32] span=from_string:50:9 */;
  %20 = %18(%x4) /* ty=Tensor[(1, 100, 2), float32] span=from_string:54:13 */;
  %21 = %19(%x5) /* ty=Tensor[(1, 18, 2), float32] span=from_string:54:18 */;
  %22 = fn (%p09: Tensor[(1, 100, 2), float32] /* ty=Tensor[(1, 100, 2), float32] span=from_string:52:21 */, %p12: Tensor[(1, 18, 2), float32] /* ty=Tensor[(1, 18, 2), float32] span=from_string:52:27 */, Primitive=1) -> Tensor[(1, 100, 18), float32] {
    nn.batch_matmul(%p09, %p12, transpose_b=True) /* ty=Tensor[(1, 100, 18), float32] span=from_string:52:5 */
  } /* ty=fn (Tensor[(1, 100, 2), float32], Tensor[(1, 18, 2), float32]) -> Tensor[(1, 100, 18), float32] span=from_string:54:9 */;
  %23 = %22(%20, %21) /* ty=Tensor[(1, 100, 18), float32] span=from_string:103:13 */;
  %24 = fn (%p08: Tensor[(1, 100, 18), float32] /* ty=Tensor[(1, 100, 18), float32] span=from_string:56:18 */, Primitive=1) -> Tensor[(1, 100, 18), int8] {
    qnn.quantize(%p08, 1f /* ty=float32 span=from_string:56:26 */, 0 /* ty=int32 span=from_string:56:69 */, out_dtype="int8") /* ty=Tensor[(1, 100, 18), int8] span=from_string:56:5 */
  } /* ty=fn (Tensor[(1, 100, 18), float32]) -> Tensor[(1, 100, 18), int8] span=from_string:98:9 */;
  %25 = fn (%p012: Tensor[(1, 4, 2), float32] /* ty=Tensor[(1, 4, 2), float32] span=from_string:59:9 */, %p13: Tensor[(1), float32] /* ty=Tensor[(1), float32] span=from_string:59:16 */, Primitive=1) -> Tensor[(1, 4, 2), float32] {
    add(%p012, %p13) /* ty=Tensor[(1, 4, 2), float32] span=from_string:59:5 */
  } /* ty=fn (Tensor[(1, 4, 2), float32], Tensor[(1), float32]) -> Tensor[(1, 4, 2), float32] span=from_string:99:9 */;
  %27 = fn (%p014: Tensor[(1, 18, 2), int8] /* ty=Tensor[(1, 18, 2), int8] span=from_string:62:20 */, Primitive=1) -> Tensor[(1, 18, 2), float32] {
    qnn.dequantize(%p014, 2f /* ty=float32 span=from_string:62:29 */, 0 /* ty=int32 span=from_string:62:72 */) /* ty=Tensor[(1, 18, 2), float32] span=from_string:62:5 */
  } /* ty=fn (Tensor[(1, 18, 2), int8]) -> Tensor[(1, 18, 2), float32] span=from_string:67:9 */;
  %28 = fn (%p015: Tensor[(1, 46, 2), int8] /* ty=Tensor[(1, 46, 2), int8] span=from_string:65:20 */, Primitive=1) -> Tensor[(1, 46, 2), float32] {
    qnn.dequantize(%p015, 0.5f /* ty=float32 span=from_string:65:31 */, 0 /* ty=int32 span=from_string:65:74 */) /* ty=Tensor[(1, 46, 2), float32] span=from_string:65:5 */
  } /* ty=fn (Tensor[(1, 46, 2), int8]) -> Tensor[(1, 46, 2), float32] span=from_string:68:9 */;
  %29 = %27(%x5) /* ty=Tensor[(1, 18, 2), float32] span=from_string:100:13 */;
  %30 = %28(%x6) /* ty=Tensor[(1, 46, 2), float32] span=from_string:100:18 */;
  %31 = fn (%p013: Tensor[(1, 18, 2), float32] /* ty=Tensor[(1, 18, 2), float32] span=from_string:70:27 */, %p14: Tensor[(1, 46, 2), float32] /* ty=Tensor[(1, 46, 2), float32] span=from_string:70:34 */, Primitive=1) -> Tensor[(1, 18, 46), int8] {
    %26 = nn.batch_matmul(%p013, %p14, transpose_b=True) /* ty=Tensor[(1, 18, 46), float32] span=from_string:71:18 */;
    qnn.quantize(%26, 1f /* ty=float32 span=from_string:71:25 */, 0 /* ty=int32 span=from_string:71:68 */, out_dtype="int8") /* ty=Tensor[(1, 18, 46), int8] span=from_string:70:5 */
  } /* ty=fn (Tensor[(1, 18, 2), float32], Tensor[(1, 46, 2), float32]) -> Tensor[(1, 18, 46), int8] span=from_string:100:9 */;
  %33 = fn (%p017: Tensor[(1), float32] /* ty=Tensor[(1), float32] span=from_string:74:21 */, %p16: Tensor[(1), float32] /* ty=Tensor[(1), float32] span=from_string:74:28 */, %p2: Tensor[(1), int32] /* ty=Tensor[(1), int32] span=from_string:75:26 */, Primitive=1) -> Tensor[(1), float32] {
    %32 = multiply(%p017, %p16) /* ty=Tensor[(1), float32] span=from_string:75:21 */;
    collapse_sum_to(%32, %p2, meta[relay.attrs.InitOpAttrs][0]) /* ty=Tensor[(1), float32] span=from_string:74:5 */
  } /* ty=fn (Tensor[(1), float32], Tensor[(1), float32], Tensor[(1), int32]) -> Tensor[(1), float32] span=from_string:81:9 */;
  %35 = fn (%p018: Tensor[(1), float32] /* ty=Tensor[(1), float32] span=from_string:78:21 */, %p17: Tensor[(1), float32] /* ty=Tensor[(1), float32] span=from_string:78:28 */, %p21: Tensor[(1), int32] /* ty=Tensor[(1), int32] span=from_string:79:26 */, Primitive=1) -> Tensor[(1), float32] {
    %34 = multiply(%p018, %p17) /* ty=Tensor[(1), float32] span=from_string:79:21 */;
    collapse_sum_to(%34, %p21, meta[relay.attrs.InitOpAttrs][1]) /* ty=Tensor[(1), float32] span=from_string:78:5 */
  } /* ty=fn (Tensor[(1), float32], Tensor[(1), float32], Tensor[(1), int32]) -> Tensor[(1), float32] span=from_string:82:9 */;
  %36 = %33(%x9, %1, meta[relay.Constant][0] /* ty=Tensor[(1), int32] span=from_string:81:27 */) /* ty=Tensor[(1), float32] span=from_string:86:13 */;
  %37 = %35(%x9, %1, meta[relay.Constant][1] /* ty=Tensor[(1), int32] span=from_string:82:27 */) /* ty=Tensor[(1), float32] span=from_string:86:18 */;
  %38 = fn (%p016: Tensor[(1), float32] /* ty=Tensor[(1), float32] span=from_string:84:9 */, %p15: Tensor[(1), float32] /* ty=Tensor[(1), float32] span=from_string:84:16 */, Primitive=1) -> Tensor[(1), float32] {
    add(%p016, %p15) /* ty=Tensor[(1), float32] span=from_string:84:5 */
  } /* ty=fn (Tensor[(1), float32], Tensor[(1), float32]) -> Tensor[(1), float32] span=from_string:86:9 */;
  %39 = %38(%36, %37) /* ty=Tensor[(1), float32] span=from_string:87:10 */;
  %40 = (%39,) /* ty=(Tensor[(1), float32],) span=from_string:101:15 */;
  %41 = fn (%p019: Tensor[(1, 46, 2), int8] /* ty=Tensor[(1, 46, 2), int8] span=from_string:89:12 */, Primitive=1) -> Tensor[(1, 2), int32] {
    argmax(%p019, axis=[1]) /* ty=Tensor[(1, 2), int32] span=from_string:89:5 */
  } /* ty=fn (Tensor[(1, 46, 2), int8]) -> Tensor[(1, 2), int32] span=from_string:102:9 */;
  %42 = fn (%p020: Tensor[(1, 100, 18), float32] /* ty=Tensor[(1, 100, 18), float32] span=from_string:92:10 */, Primitive=1) -> Tensor[(1, 100, 18), int32] {
    cast(%p020, dtype="int32") /* ty=Tensor[(1, 100, 18), int32] span=from_string:92:5 */
  } /* ty=fn (Tensor[(1, 100, 18), float32]) -> Tensor[(1, 100, 18), int32] span=from_string:103:9 */;
  %43 = %9(%7, %8) /* ty=Tensor[(1, 4, 4), float32] span=from_string:104:4 */;
  %44 = %10(%x1) /* ty=Tensor[(1, 4, 2), float32] span=from_string:104:9 */;
  %45 = %15(%13, %14) /* ty=Tensor[(1, 4, 100), float32] span=from_string:104:14 */;
  %46 = %17(%x2) /* ty=Tensor[(31, 65), int32] span=from_string:104:19 */;
  %47 = %24(%23) /* ty=Tensor[(1, 100, 18), int8] span=from_string:104:24 */;
  %48 = %25(%8, %1) /* ty=Tensor[(1, 4, 2), float32] span=from_string:104:29 */;
  %49 = %31(%29, %30) /* ty=Tensor[(1, 18, 46), int8] span=from_string:104:34 */;
  %50 = (%x8, %40) /* ty=(Tensor[(1), float32], (Tensor[(1), float32],)) span=from_string:104:39 */;
  %51 = %41(%x6) /* ty=Tensor[(1, 2), int32] span=from_string:104:44 */;
  %52 = %42(%23) /* ty=Tensor[(1, 100, 18), int32] span=from_string:104:49 */;
  (%43, %44, %45, %46, %47, %48, %49, %50, %51, %52) /* ty=(Tensor[(1, 4, 4), float32], Tensor[(1, 4, 2), float32], Tensor[(1, 4, 100), float32], Tensor[(31, 65), int32], Tensor[(1, 100, 18), int8], Tensor[(1, 4, 2), float32], Tensor[(1, 18, 46), int8], (Tensor[(1), float32], (Tensor[(1), float32],)), Tensor[(1, 2), int32], Tensor[(1, 100, 18), int32]) span=from_string:104:3 */
}

#[metadata]
{
  "root": 1, 
  "nodes": [
    {
      "type_key": ""
    }, 
    {
      "type_key": "Map", 
      "keys": [
        "relay.Constant", 
        "relay.attrs.InitOpAttrs"
      ], 
      "data": [2, 16]
    }, 
    {
      "type_key": "Array", 
      "data": [3, 11]
    }, 
    {
      "type_key": "relay.Constant", 
      "attrs": {
        "_checked_type_": "8", 
        "data": "0", 
        "span": "6", 
        "virtual_device_": "4"
      }
    }, 
    {
      "type_key": "VirtualDevice", 
      "attrs": {
        "device_type_int": "-1", 
        "memory_scope": "5", 
        "target": "0", 
        "virtual_device_id": "-1"
      }
    }, 
    {
      "type_key": "runtime.String"
    }, 
    {
      "type_key": "Span", 
      "attrs": {
        "column": "27", 
        "end_column": "45", 
        "end_line": "81", 
        "line": "81", 
        "source_name": "7"
      }
    }, 
    {
      "type_key": "SourceName", 
      "repr_str": "from_string"
    }, 
    {
      "type_key": "relay.TensorType", 
      "attrs": {
        "dtype": "int32", 
        "shape": "9", 
        "span": "0"
      }
    }, 
    {
      "type_key": "Array", 
      "data": [10]
    }, 
    {
      "type_key": "IntImm", 
      "attrs": {
        "dtype": "int32", 
        "span": "0", 
        "value": "1"
      }
    }, 
    {
      "type_key": "relay.Constant", 
      "attrs": {
        "_checked_type_": "13", 
        "data": "1", 
        "span": "12", 
        "virtual_device_": "4"
      }
    }, 
    {
      "type_key": "Span", 
      "attrs": {
        "column": "27", 
        "end_column": "45", 
        "end_line": "82", 
        "line": "82", 
        "source_name": "7"
      }
    }, 
    {
      "type_key": "relay.TensorType", 
      "attrs": {
        "dtype": "int32", 
        "shape": "14", 
        "span": "0"
      }
    }, 
    {
      "type_key": "Array", 
      "data": [15]
    }, 
    {
      "type_key": "IntImm", 
      "attrs": {
        "dtype": "int32", 
        "span": "0", 
        "value": "1"
      }
    }, 
    {
      "type_key": "Array", 
      "data": [17, 20]
    }, 
    {
      "type_key": "relay.attrs.InitOpAttrs", 
      "attrs": {
        "dtype": "", 
        "shape": "18"
      }
    }, 
    {
      "type_key": "Array", 
      "data": [19]
    }, 
    {
      "type_key": "IntImm", 
      "attrs": {
        "dtype": "int32", 
        "span": "0", 
        "value": "1"
      }
    }, 
    {
      "type_key": "relay.attrs.InitOpAttrs", 
      "attrs": {
        "dtype": "", 
        "shape": "21"
      }
    }, 
    {
      "type_key": "Array", 
      "data": [19]
    }
  ], 
  "b64ndarrays": [
    "P6G0lvBAXt0AAAAAAAAAAAEAAAAAAAAAAQAAAAAgAQABAAAAAAAAAAQAAAAAAAAAAQAAAA==", 
    "P6G0lvBAXt0AAAAAAAAAAAEAAAAAAAAAAQAAAAAgAQABAAAAAAAAAAQAAAAAAAAAAQAAAA=="
  ], 
  "attrs": {"tvm_version": "0.13.0"}
}