#[version = "0.0.5"]
def @main(%x0: Tensor[(1, 4, 2), int8] /* ty=Tensor[(1, 4, 2), int8] span=from_string:33:13 */, %x1: Tensor[(1, 4, 2), int8] /* ty=Tensor[(1, 4, 2), int8] span=from_string:94:12 */, %x2: Tensor[(31, 65), int64] /* ty=Tensor[(31, 65), int64] span=from_string:96:13 */, %x3: Tensor[(58), float32] /* ty=Tensor[(58), float32] */, %x4: Tensor[(1, 100, 2), int8] /* ty=Tensor[(1, 100, 2), int8] span=from_string:48:13 */, %x5: Tensor[(1, 18, 2), int8] /* ty=Tensor[(1, 18, 2), int8] span=from_string:66:13 */, %x6: Tensor[(1, 46, 2), int8] /* ty=Tensor[(1, 46, 2), int8] span=from_string:101:13 */, %x7: Tensor[(49, 17, 31), int32] /* ty=Tensor[(49, 17, 31), int32] */) -> (Tensor[(1, 4, 4), float32], Tensor[(1, 4, 2), float32], Tensor[(1, 4, 100), float32], Tensor[(31, 65), int32], Tensor[(1, 100, 18), int8], Tensor[(1, 4, 2), float32], Tensor[(1, 18, 46), int8], (Tensor[(1), float32], (Tensor[(1), float32],)), Tensor[(1, 2), int32], Tensor[(1, 100, 18), int32]) {
  %0 = fn (Primitive=1) -> Tensor[(1), float32] {
    ones(shape=[1], dtype="float32") /* ty=Tensor[(1), float32] span=from_string:4:5 */
  } /* ty=fn () -> Tensor[(1), float32] span=from_string:6:89 */;
  let %x8: Tensor[(1), float32] /* ty=Tensor[(1), float32] span=from_string:100:10 */ = %0() /* ty=Tensor[(1), float32] span=from_string:6:89 */;
  %1 = fn (Primitive=1) -> Tensor[(1), float32] {
    ones(shape=[1], dtype="float32") /* ty=Tensor[(1), float32] span=from_string:8:5 */
  } /* ty=fn () -> Tensor[(1), float32] span=from_string:10:88 */;
  let %x9: Tensor[(1), float32] /* ty=Tensor[(1), float32] span=from_string:81:13 */ = %1() /* ty=Tensor[(1), float32] span=from_string:10:88 */;
  %4 = fn (%p01: Tensor[(1, 4, 2), int8] /* ty=Tensor[(1, 4, 2), int8] span=from_string:12:20 */, Primitive=1) -> Tensor[(1, 4, 2), float32] {
    qnn.dequantize(%p01, 2f /* ty=float32 span=from_string:12:28 */, 0 /* ty=int32 span=from_string:12:71 */) /* ty=Tensor[(1, 4, 2), float32] span=from_string:12:5 */
  } /* ty=fn (Tensor[(1, 4, 2), int8]) -> Tensor[(1, 4, 2), float32] span=from_string:17:8 */;
  %5 = fn (%p02: Tensor[(1, 4, 2), int8] /* ty=Tensor[(1, 4, 2), int8] span=from_string:15:20 */, Primitive=1) -> Tensor[(1, 4, 2), float32] {
    qnn.dequantize(%p02, 6f /* ty=float32 span=from_string:15:28 */, 0 /* ty=int32 span=from_string:15:71 */) /* ty=Tensor[(1, 4, 2), float32] span=from_string:15:5 */
  } /* ty=fn (Tensor[(1, 4, 2), int8]) -> Tensor[(1, 4, 2), float32] span=from_string:18:8 */;
  %6 = %4(%x0) /* ty=Tensor[(1, 4, 2), float32] span=from_string:93:12 */;
  %7 = %5(%x1) /* ty=Tensor[(1, 4, 2), float32] span=from_string:98:13 */;
  %8 = fn (%p0: Tensor[(1, 4, 2), float32] /* ty=Tensor[(1, 4, 2), float32] span=from_string:20:26 */, %p1: Tensor[(1, 4, 2), float32] /* ty=Tensor[(1, 4, 2), float32] span=from_string:20:31 */, Primitive=1) -> Tensor[(1, 4, 4), float32] {
    %2 = nn.batch_matmul(%p0, %p1, transpose_b=True) /* ty=Tensor[(1, 4, 4), float32] span=from_string:21:14 */;
    %3 = add(%2, 1f /* ty=float32 span=from_string:21:20 */) /* ty=Tensor[(1, 4, 4), float32] span=from_string:22:9 */;
    erf(%3) /* ty=Tensor[(1, 4, 4), float32] span=from_string:20:5 */
  } /* ty=fn (Tensor[(1, 4, 2), float32], Tensor[(1, 4, 2), float32]) -> Tensor[(1, 4, 4), float32] span=from_string:93:9 */;
  %9 = fn (%p03: Tensor[(1, 4, 2), int8] /* ty=Tensor[(1, 4, 2), int8] span=from_string:25:10 */, Primitive=1) -> Tensor[(1, 4, 2), float32] {
    cast(%p03, dtype="float32") /* ty=Tensor[(1, 4, 2), float32] span=from_string:25:5 */
  } /* ty=fn (Tensor[(1, 4, 2), int8]) -> Tensor[(1, 4, 2), float32] span=from_string:94:9 */;
  %10 = fn (%p05: Tensor[(1, 4, 2), int8] /* ty=Tensor[(1, 4, 2), int8] span=from_string:28:20 */, Primitive=1) -> Tensor[(1, 4, 2), float32] {
    qnn.dequantize(%p05, 2f /* ty=float32 span=from_string:28:28 */, 0 /* ty=int32 span=from_string:28:71 */) /* ty=Tensor[(1, 4, 2), float32] span=from_string:28:5 */
  } /* ty=fn (Tensor[(1, 4, 2), int8]) -> Tensor[(1, 4, 2), float32] span=from_string:33:9 */;
  %11 = fn (%p06: Tensor[(1, 100, 2), int8] /* ty=Tensor[(1, 100, 2), int8] span=from_string:31:20 */, Primitive=1) -> Tensor[(1, 100, 2), float32] {
    qnn.dequantize(%p06, 6f /* ty=float32 span=from_string:31:28 */, 0 /* ty=int32 span=from_string:31:71 */) /* ty=Tensor[(1, 100, 2), float32] span=from_string:31:5 */
  } /* ty=fn (Tensor[(1, 100, 2), int8]) -> Tensor[(1, 100, 2), float32] span=from_string:34:9 */;
  %12 = %10(%x0) /* ty=Tensor[(1, 4, 2), float32] span=from_string:95:13 */;
  %13 = %11(%x4) /* ty=Tensor[(1, 100, 2), float32] span=from_string:95:18 */;
  %14 = fn (%p04: Tensor[(1, 4, 2), float32] /* ty=Tensor[(1, 4, 2), float32] span=from_string:36:21 */, %p11: Tensor[(1, 100, 2), float32] /* ty=Tensor[(1, 100, 2), float32] span=from_string:36:27 */, Primitive=1) -> Tensor[(1, 4, 100), float32] {
    nn.batch_matmul(%p04, %p11, transpose_b=True) /* ty=Tensor[(1, 4, 100), float32] span=from_string:36:5 */
  } /* ty=fn (Tensor[(1, 4, 2), float32], Tensor[(1, 100, 2), float32]) -> Tensor[(1, 4, 100), float32] span=from_string:95:9 */;
  %16 = fn (%p07: Tensor[(31, 65), int64] /* ty=Tensor[(31, 65), int64] span=from_string:39:16 */, Primitive=1) -> Tensor[(31, 65), int32] {
    %15 = cast(%p07, dtype="bool") /* ty=Tensor[(31, 65), bool] span=from_string:40:10 */;
    cast(%15, dtype="int32") /* ty=Tensor[(31, 65), int32] span=from_string:39:5 */
  } /* ty=fn (Tensor[(31, 65), int64]) -> Tensor[(31, 65), int32] span=from_string:96:9 */;
  %17 = fn (%p010: Tensor[(1, 100, 2), int8] /* ty=Tensor[(1, 100, 2), int8] span=from_string:43:20 */, Primitive=1) -> Tensor[(1, 100, 2), float32] {
    qnn.dequantize(%p010, 2f /* ty=float32 span=from_string:43:29 */, 0 /* ty=int32 span=from_string:43:72 */) /* ty=Tensor[(1, 100, 2), float32] span=from_string:43:5 */
  } /* ty=fn (Tensor[(1, 100, 2), int8]) -> Tensor[(1, 100, 2), float32] span=from_string:48:9 */;
  %18 = fn (%p011: Tensor[(1, 18, 2), int8] /* ty=Tensor[(1, 18, 2), int8] span=from_string:46:20 */, Primitive=1) -> Tensor[(1, 18, 2), float32] {
    qnn.dequantize(%p011, 0.5f /* ty=float32 span=from_string:46:31 */, 0 /* ty=int32 span=from_string:46:74 */) /* ty=Tensor[(1, 18, 2), float32] span=from_string:46:5 */
  } /* ty=fn (Tensor[(1, 18, 2), int8]) -> Tensor[(1, 18, 2), float32] span=from_string:49:9 */;
  %19 = %17(%x4) /* ty=Tensor[(1, 100, 2), float32] span=from_string:53:13 */;
  %20 = %18(%x5) /* ty=Tensor[(1, 18, 2), float32] span=from_string:53:18 */;
  %21 = fn (%p09: Tensor[(1, 100, 2), float32] /* ty=Tensor[(1, 100, 2), float32] span=from_string:51:21 */, %p12: Tensor[(1, 18, 2), float32] /* ty=Tensor[(1, 18, 2), float32] span=from_string:51:27 */, Primitive=1) -> Tensor[(1, 100, 18), float32] {
    nn.batch_matmul(%p09, %p12, transpose_b=True) /* ty=Tensor[(1, 100, 18), float32] span=from_string:51:5 */
  } /* ty=fn (Tensor[(1, 100, 2), float32], Tensor[(1, 18, 2), float32]) -> Tensor[(1, 100, 18), float32] span=from_string:53:9 */;
  %22 = %21(%19, %20) /* ty=Tensor[(1, 100, 18), float32] span=from_string:102:13 */;
  %23 = fn (%p08: Tensor[(1, 100, 18), float32] /* ty=Tensor[(1, 100, 18), float32] span=from_string:55:18 */, Primitive=1) -> Tensor[(1, 100, 18), int8] {
    qnn.quantize(%p08, 1f /* ty=float32 span=from_string:55:26 */, 0 /* ty=int32 span=from_string:55:69 */, out_dtype="int8") /* ty=Tensor[(1, 100, 18), int8] span=from_string:55:5 */
  } /* ty=fn (Tensor[(1, 100, 18), float32]) -> Tensor[(1, 100, 18), int8] span=from_string:97:9 */;
  %24 = fn (%p012: Tensor[(1, 4, 2), float32] /* ty=Tensor[(1, 4, 2), float32] span=from_string:58:9 */, %p13: Tensor[(1), float32] /* ty=Tensor[(1), float32] span=from_string:58:16 */, Primitive=1) -> Tensor[(1, 4, 2), float32] {
    add(%p012, %p13) /* ty=Tensor[(1, 4, 2), float32] span=from_string:58:5 */
  } /* ty=fn (Tensor[(1, 4, 2), float32], Tensor[(1), float32]) -> Tensor[(1, 4, 2), float32] span=from_string:98:9 */;
  %26 = fn (%p014: Tensor[(1, 18, 2), int8] /* ty=Tensor[(1, 18, 2), int8] span=from_string:61:20 */, Primitive=1) -> Tensor[(1, 18, 2), float32] {
    qnn.dequantize(%p014, 2f /* ty=float32 span=from_string:61:29 */, 0 /* ty=int32 span=from_string:61:72 */) /* ty=Tensor[(1, 18, 2), float32] span=from_string:61:5 */
  } /* ty=fn (Tensor[(1, 18, 2), int8]) -> Tensor[(1, 18, 2), float32] span=from_string:66:9 */;
  %27 = fn (%p015: Tensor[(1, 46, 2), int8] /* ty=Tensor[(1, 46, 2), int8] span=from_string:64:20 */, Primitive=1) -> Tensor[(1, 46, 2), float32] {
    qnn.dequantize(%p015, 0.5f /* ty=float32 span=from_string:64:31 */, 0 /* ty=int32 span=from_string:64:74 */) /* ty=Tensor[(1, 46, 2), float32] span=from_string:64:5 */
  } /* ty=fn (Tensor[(1, 46, 2), int8]) -> Tensor[(1, 46, 2), float32] span=from_string:67:9 */;
  %28 = %26(%x5) /* ty=Tensor[(1, 18, 2), float32] span=from_string:99:13 */;
  %29 = %27(%x6) /* ty=Tensor[(1, 46, 2), float32] span=from_string:99:18 */;
  %30 = fn (%p013: Tensor[(1, 18, 2), float32] /* ty=Tensor[(1, 18, 2), float32] span=from_string:69:27 */, %p14: Tensor[(1, 46, 2), float32] /* ty=Tensor[(1, 46, 2), float32] span=from_string:69:34 */, Primitive=1) -> Tensor[(1, 18, 46), int8] {
    %25 = nn.batch_matmul(%p013, %p14, transpose_b=True) /* ty=Tensor[(1, 18, 46), float32] span=from_string:70:18 */;
    qnn.quantize(%25, 1f /* ty=float32 span=from_string:70:25 */, 0 /* ty=int32 span=from_string:70:68 */, out_dtype="int8") /* ty=Tensor[(1, 18, 46), int8] span=from_string:69:5 */
  } /* ty=fn (Tensor[(1, 18, 2), float32], Tensor[(1, 46, 2), float32]) -> Tensor[(1, 18, 46), int8] span=from_string:99:9 */;
  %32 = fn (%p017: Tensor[(1), float32] /* ty=Tensor[(1), float32] span=from_string:73:21 */, %p16: Tensor[(1), float32] /* ty=Tensor[(1), float32] span=from_string:73:28 */, %p2: Tensor[(1), int32] /* ty=Tensor[(1), int32] span=from_string:74:26 */, Primitive=1) -> Tensor[(1), float32] {
    %31 = multiply(%p017, %p16) /* ty=Tensor[(1), float32] span=from_string:74:21 */;
    collapse_sum_to(%31, %p2, meta[relay.attrs.InitOpAttrs][0]) /* ty=Tensor[(1), float32] span=from_string:73:5 */
  } /* ty=fn (Tensor[(1), float32], Tensor[(1), float32], Tensor[(1), int32]) -> Tensor[(1), float32] span=from_string:80:9 */;
  %34 = fn (%p018: Tensor[(1), float32] /* ty=Tensor[(1), float32] span=from_string:77:21 */, %p17: Tensor[(1), float32] /* ty=Tensor[(1), float32] span=from_string:77:28 */, %p21: Tensor[(1), int32] /* ty=Tensor[(1), int32] span=from_string:78:26 */, Primitive=1) -> Tensor[(1), float32] {
    %33 = multiply(%p018, %p17) /* ty=Tensor[(1), float32] span=from_string:78:21 */;
    collapse_sum_to(%33, %p21, meta[relay.attrs.InitOpAttrs][1]) /* ty=Tensor[(1), float32] span=from_string:77:5 */
  } /* ty=fn (Tensor[(1), float32], Tensor[(1), float32], Tensor[(1), int32]) -> Tensor[(1), float32] span=from_string:81:9 */;
  %35 = %32(%x9, %x8, meta[relay.Constant][0] /* ty=Tensor[(1), int32] span=from_string:80:28 */) /* ty=Tensor[(1), float32] span=from_string:85:13 */;
  %36 = %34(%x9, %x8, meta[relay.Constant][1] /* ty=Tensor[(1), int32] span=from_string:81:28 */) /* ty=Tensor[(1), float32] span=from_string:85:18 */;
  %37 = fn (%p016: Tensor[(1), float32] /* ty=Tensor[(1), float32] span=from_string:83:9 */, %p15: Tensor[(1), float32] /* ty=Tensor[(1), float32] span=from_string:83:16 */, Primitive=1) -> Tensor[(1), float32] {
    add(%p016, %p15) /* ty=Tensor[(1), float32] span=from_string:83:5 */
  } /* ty=fn (Tensor[(1), float32], Tensor[(1), float32]) -> Tensor[(1), float32] span=from_string:85:9 */;
  %38 = %37(%35, %36) /* ty=Tensor[(1), float32] span=from_string:86:10 */;
  %39 = (%38,) /* ty=(Tensor[(1), float32],) span=from_string:100:15 */;
  %40 = fn (%p019: Tensor[(1, 46, 2), int8] /* ty=Tensor[(1, 46, 2), int8] span=from_string:88:12 */, Primitive=1) -> Tensor[(1, 2), int32] {
    argmax(%p019, axis=[1]) /* ty=Tensor[(1, 2), int32] span=from_string:88:5 */
  } /* ty=fn (Tensor[(1, 46, 2), int8]) -> Tensor[(1, 2), int32] span=from_string:101:9 */;
  %41 = fn (%p020: Tensor[(1, 100, 18), float32] /* ty=Tensor[(1, 100, 18), float32] span=from_string:91:10 */, Primitive=1) -> Tensor[(1, 100, 18), int32] {
    cast(%p020, dtype="int32") /* ty=Tensor[(1, 100, 18), int32] span=from_string:91:5 */
  } /* ty=fn (Tensor[(1, 100, 18), float32]) -> Tensor[(1, 100, 18), int32] span=from_string:102:9 */;
  %42 = %8(%6, %7) /* ty=Tensor[(1, 4, 4), float32] span=from_string:103:4 */;
  %43 = %9(%x1) /* ty=Tensor[(1, 4, 2), float32] span=from_string:103:9 */;
  %44 = %14(%12, %13) /* ty=Tensor[(1, 4, 100), float32] span=from_string:103:14 */;
  %45 = %16(%x2) /* ty=Tensor[(31, 65), int32] span=from_string:103:19 */;
  %46 = %23(%22) /* ty=Tensor[(1, 100, 18), int8] span=from_string:103:24 */;
  %47 = %24(%7, %x8) /* ty=Tensor[(1, 4, 2), float32] span=from_string:103:29 */;
  %48 = %30(%28, %29) /* ty=Tensor[(1, 18, 46), int8] span=from_string:103:34 */;
  %49 = (%x8, %39) /* ty=(Tensor[(1), float32], (Tensor[(1), float32],)) span=from_string:103:39 */;
  %50 = %40(%x6) /* ty=Tensor[(1, 2), int32] span=from_string:103:44 */;
  %51 = %41(%22) /* ty=Tensor[(1, 100, 18), int32] span=from_string:103:49 */;
  (%42, %43, %44, %45, %46, %47, %48, %49, %50, %51) /* ty=(Tensor[(1, 4, 4), float32], Tensor[(1, 4, 2), float32], Tensor[(1, 4, 100), float32], Tensor[(31, 65), int32], Tensor[(1, 100, 18), int8], Tensor[(1, 4, 2), float32], Tensor[(1, 18, 46), int8], (Tensor[(1), float32], (Tensor[(1), float32],)), Tensor[(1, 2), int32], Tensor[(1, 100, 18), int32]) span=from_string:103:3 */
}

#[metadata]
{
  "root": 1, 
  "nodes": [
    {
      "type_key": ""
    }, 
    {
      "type_key": "Map", 
      "keys": [
        "relay.Constant", 
        "relay.attrs.InitOpAttrs"
      ], 
      "data": [2, 16]
    }, 
    {
      "type_key": "Array", 
      "data": [3, 11]
    }, 
    {
      "type_key": "relay.Constant", 
      "attrs": {
        "_checked_type_": "8", 
        "data": "0", 
        "span": "6", 
        "virtual_device_": "4"
      }
    }, 
    {
      "type_key": "VirtualDevice", 
      "attrs": {
        "device_type_int": "-1", 
        "memory_scope": "5", 
        "target": "0", 
        "virtual_device_id": "-1"
      }
    }, 
    {
      "type_key": "runtime.String"
    }, 
    {
      "type_key": "Span", 
      "attrs": {
        "column": "28", 
        "end_column": "46", 
        "end_line": "80", 
        "line": "80", 
        "source_name": "7"
      }
    }, 
    {
      "type_key": "SourceName", 
      "repr_str": "from_string"
    }, 
    {
      "type_key": "relay.TensorType", 
      "attrs": {
        "dtype": "int32", 
        "shape": "9", 
        "span": "0"
      }
    }, 
    {
      "type_key": "Array", 
      "data": [10]
    }, 
    {
      "type_key": "IntImm", 
      "attrs": {
        "dtype": "int32", 
        "span": "0", 
        "value": "1"
      }
    }, 
    {
      "type_key": "relay.Constant", 
      "attrs": {
        "_checked_type_": "13", 
        "data": "1", 
        "span": "12", 
        "virtual_device_": "4"
      }
    }, 
    {
      "type_key": "Span", 
      "attrs": {
        "column": "28", 
        "end_column": "46", 
        "end_line": "81", 
        "line": "81", 
        "source_name": "7"
      }
    }, 
    {
      "type_key": "relay.TensorType", 
      "attrs": {
        "dtype": "int32", 
        "shape": "14", 
        "span": "0"
      }
    }, 
    {
      "type_key": "Array", 
      "data": [15]
    }, 
    {
      "type_key": "IntImm", 
      "attrs": {
        "dtype": "int32", 
        "span": "0", 
        "value": "1"
      }
    }, 
    {
      "type_key": "Array", 
      "data": [17, 20]
    }, 
    {
      "type_key": "relay.attrs.InitOpAttrs", 
      "attrs": {
        "dtype": "", 
        "shape": "18"
      }
    }, 
    {
      "type_key": "Array", 
      "data": [19]
    }, 
    {
      "type_key": "IntImm", 
      "attrs": {
        "dtype": "int32", 
        "span": "0", 
        "value": "1"
      }
    }, 
    {
      "type_key": "relay.attrs.InitOpAttrs", 
      "attrs": {
        "dtype": "", 
        "shape": "21"
      }
    }, 
    {
      "type_key": "Array", 
      "data": [19]
    }
  ], 
  "b64ndarrays": [
    "P6G0lvBAXt0AAAAAAAAAAAEAAAAAAAAAAQAAAAAgAQABAAAAAAAAAAQAAAAAAAAAAQAAAA==", 
    "P6G0lvBAXt0AAAAAAAAAAAEAAAAAAAAAAQAAAAAgAQABAAAAAAAAAAQAAAAAAAAAAQAAAA=="
  ], 
  "attrs": {"tvm_version": "0.13.0"}
}