#[version = "0.0.5"]
def @main(%x0: Tensor[(1, 4, 2), int8] /* ty=Tensor[(1, 4, 2), int8] span=from_string:6:23 */, %x1: Tensor[(1, 4, 2), int8] /* ty=Tensor[(1, 4, 2), int8] span=from_string:10:13 */, %x2: Tensor[(31, 65), int64] /* ty=Tensor[(31, 65), int64] span=from_string:14:13 */, %x3: Tensor[(58), float32] /* ty=Tensor[(58), float32] span=from_string:28:23 */, %x4: Tensor[(1, 100, 2), int8] /* ty=Tensor[(1, 100, 2), int8] span=from_string:24:24 */, %x5: Tensor[(1, 18, 2), int8] /* ty=Tensor[(1, 18, 2), int8] span=from_string:25:24 */, %x6: Tensor[(1, 46, 2), int8] /* ty=Tensor[(1, 46, 2), int8] span=from_string:23:24 */, %x7: Tensor[(49, 17, 31), int32] /* ty=Tensor[(49, 17, 31), int32] span=from_string:36:24 */) -> (Tensor[(1, 4, 4), float32], Tensor[(1, 4, 2), float32], Tensor[(1, 4, 100), float32], Tensor[(31, 65), int32], Tensor[(1, 100, 18), int8], Tensor[(1, 4, 2), float32], Tensor[(1, 18, 46), int8], (Tensor[(1), float32], (Tensor[(1), float32],)), Tensor[(1, 2), int32], Tensor[(1, 100, 18), int32]) {
  %0 = ones(shape=[1], dtype="float32") /* ty=Tensor[(1), float32] span=from_string:32:17 */;
  let %x8: Tensor[(1), float32] /* ty=Tensor[(1), float32] span=from_string:34:10 */ = multiply(%0, %0) /* ty=Tensor[(1), float32] span=from_string:4:89 */;
  let %x9: Tensor[(1), float32] /* ty=Tensor[(1), float32] span=from_string:17:19 */ = ones_like(%x8) /* ty=Tensor[(1), float32] span=from_string:5:88 */;
  %1 = qnn.dequantize(%x0, 2f /* ty=float32 span=from_string:6:30 */, 0 /* ty=int32 span=from_string:6:72 */) /* ty=Tensor[(1, 4, 2), float32] span=from_string:29:25 */;
  %2 = qnn.dequantize(%x1, 6f /* ty=float32 span=from_string:7:30 */, 0 /* ty=int32 span=from_string:7:72 */) /* ty=Tensor[(1, 4, 2), float32] span=from_string:32:13 */;
  %3 = nn.batch_matmul(%1, %2, transpose_b=True) /* ty=Tensor[(1, 4, 4), float32] span=from_string:9:12 */;
  %4 = add(%3, 1f /* ty=float32 span=from_string:9:18 */) /* ty=Tensor[(1, 4, 4), float32] span=from_string:27:13 */;
  %5 = cast(%x1, dtype="int16") /* ty=Tensor[(1, 4, 2), int16] span=from_string:11:13 */;
  %6 = cast(%5, dtype="int32") /* ty=Tensor[(1, 4, 2), int32] span=from_string:12:18 */;
  %7 = cast_like(%6, %x2) /* ty=Tensor[(1, 4, 2), int64] span=from_string:28:19 */;
  %8 = qnn.dequantize(%x4, 6f /* ty=float32 span=from_string:13:30 */, 0 /* ty=int32 span=from_string:13:73 */) /* ty=Tensor[(1, 100, 2), float32] span=from_string:29:29 */;
  %9 = cast(%x2, dtype="bool") /* ty=Tensor[(31, 65), bool] span=from_string:30:14 */;
  %10 = qnn.batch_matmul(%x4, %x5, 0 /* ty=int32 span=from_string:15:37 */, 0 /* ty=int32 span=from_string:15:78 */, 2f /* ty=float32 span=from_string:15:120 */, 0.5f /* ty=float32 span=from_string:15:167 */, out_dtype="int32", transpose_b=True) /* ty=Tensor[(1, 100, 18), int32] span=from_string:31:24 */;
  %11 = qnn.batch_matmul(%x5, %x6, 0 /* ty=int32 span=from_string:16:37 */, 0 /* ty=int32 span=from_string:16:78 */, 2f /* ty=float32 span=from_string:16:120 */, 0.5f /* ty=float32 span=from_string:16:167 */, out_dtype="int32", transpose_b=True) /* ty=Tensor[(1, 18, 46), int32] span=from_string:33:24 */;
  %12 = multiply(%x9, %0) /* ty=Tensor[(1), float32] span=from_string:19:27 */;
  %13 = zeros_like(%0) /* ty=Tensor[(1), float32] span=from_string:20:13 */;
  %14 = collapse_sum_like(%12, %0) /* ty=Tensor[(1), float32] span=from_string:21:18 */;
  %15 = add(%13, %14) /* ty=Tensor[(1), float32] span=from_string:21:13 */;
  %16 = add(%15, %14) /* ty=Tensor[(1), float32] span=from_string:22:10 */;
  %17 = (%16,) /* ty=(Tensor[(1), float32],) span=from_string:34:15 */;
  %18 = qnn.dequantize(%x6, 2f /* ty=float32 span=from_string:23:31 */, 0 /* ty=int32 span=from_string:23:74 */) /* ty=Tensor[(1, 46, 2), float32] span=from_string:35:16 */;
  %19 = qnn.dequantize(%x4, 2f /* ty=float32 span=from_string:24:31 */, 0 /* ty=int32 span=from_string:24:74 */) /* ty=Tensor[(1, 100, 2), float32] span=from_string:26:25 */;
  %20 = qnn.dequantize(%x5, 0.5f /* ty=float32 span=from_string:25:33 */, 0 /* ty=int32 span=from_string:25:76 */) /* ty=Tensor[(1, 18, 2), float32] span=from_string:26:30 */;
  %21 = nn.batch_matmul(%19, %20, transpose_b=True) /* ty=Tensor[(1, 100, 18), float32] span=from_string:36:19 */;
  %22 = erf(%4) /* ty=Tensor[(1, 4, 4), float32] span=from_string:37:4 */;
  %23 = cast_like(%7, %x3) /* ty=Tensor[(1, 4, 2), float32] span=from_string:37:9 */;
  %24 = nn.batch_matmul(%1, %8, transpose_b=True) /* ty=Tensor[(1, 4, 100), float32] span=from_string:37:14 */;
  %25 = cast(%9, dtype="int32") /* ty=Tensor[(31, 65), int32] span=from_string:37:19 */;
  %26 = qnn.requantize(%10, 1f /* ty=float32 span=from_string:31:31 */, 0 /* ty=int32 span=from_string:31:74 */, 1f /* ty=float32 span=from_string:31:116 */, 0 /* ty=int32 span=from_string:31:160 */, out_dtype="int8") /* ty=Tensor[(1, 100, 18), int8] span=from_string:37:24 */;
  %27 = add(%2, %0) /* ty=Tensor[(1, 4, 2), float32] span=from_string:37:29 */;
  %28 = qnn.requantize(%11, 1f /* ty=float32 span=from_string:33:31 */, 0 /* ty=int32 span=from_string:33:74 */, 1f /* ty=float32 span=from_string:33:116 */, 0 /* ty=int32 span=from_string:33:160 */, out_dtype="int8") /* ty=Tensor[(1, 18, 46), int8] span=from_string:37:34 */;
  %29 = (%x8, %17) /* ty=(Tensor[(1), float32], (Tensor[(1), float32],)) span=from_string:37:39 */;
  %30 = argmax(%18, axis=[1]) /* ty=Tensor[(1, 2), int32] span=from_string:37:44 */;
  %31 = cast_like(%21, %x7) /* ty=Tensor[(1, 100, 18), int32] span=from_string:37:49 */;
  (%22, %23, %24, %25, %26, %27, %28, %29, %30, %31) /* ty=(Tensor[(1, 4, 4), float32], Tensor[(1, 4, 2), float32], Tensor[(1, 4, 100), float32], Tensor[(31, 65), int32], Tensor[(1, 100, 18), int8], Tensor[(1, 4, 2), float32], Tensor[(1, 18, 46), int8], (Tensor[(1), float32], (Tensor[(1), float32],)), Tensor[(1, 2), int32], Tensor[(1, 100, 18), int32]) span=from_string:37:3 */
}
