#[version = "0.0.5"]
def @main(%x0: Tensor[(4, 7), float32] /* ty=Tensor[(4, 7), float32] span=from_string:7:99 */, %x1: Tensor[(2, 7, 2), float32] /* ty=Tensor[(2, 7, 2), float32] */, %x2: Tensor[(2, 7, 2), float32] /* ty=Tensor[(2, 7, 2), float32] span=from_string:13:112 */, %x3: Tensor[(2, 77, 2), float32] /* ty=Tensor[(2, 77, 2), float32] span=from_string:25:108 */, %x4: Tensor[(2, 7, 2), float32] /* ty=Tensor[(2, 7, 2), float32] span=from_string:19:112 */, %x5: Tensor[(2, 7, 2), float32] /* ty=Tensor[(2, 7, 2), float32] span=from_string:32:149 */, %x6: Tensor[(14, 2), float32] /* ty=Tensor[(14, 2), float32] */, %x7: float32 /* ty=float32 */) -> (Tensor[(4, 7), float16], int32, (Tensor[(2, 77, 7), float16], Tensor[(2, 77, 7), float16], Tensor[(2, 77, 7), float16]), Tensor[(2, 7, 2), float16], Tensor[(2, 7, 2), float16], Tensor[(1), float16], Tensor[(3), int32]) {
  let %x_0 = fn (%p0: Tensor[(4, 7), float32] /* ty=Tensor[(4, 7), float32] span=from_string:4:15 */, Primitive=1, relay.reshape_only=1) -> Tensor[(4, 7), float16] {
    %0 = cast(%p0, dtype="float16") /* ty=Tensor[(4, 7), float16] span=from_string:5:13 */;
    reshape(%0, newshape=[4, 7]) /* ty=Tensor[(4, 7), float16] span=from_string:4:5 */
  } /* ty=fn (Tensor[(4, 7), float32]) -> Tensor[(4, 7), float16] span=from_string:7:96 */;
  let %x_01: Tensor[(4, 7), float16] /* ty=Tensor[(4, 7), float16] span=from_string:65:492 */ = %x_0(%x0);
  let %x_1 = fn (%p01: Tensor[(2, 77, 2), float32] /* ty=Tensor[(2, 77, 2), float32] span=from_string:9:15 */, %p1: Tensor[(2, 7, 2), float32] /* ty=Tensor[(2, 7, 2), float32] span=from_string:10:15 */, Primitive=1) -> Tensor[(2, 77, 7), float16] {
    %1 = cast(%p01, dtype="float16") /* ty=Tensor[(2, 77, 2), float16] span=from_string:11:21 */;
    %2 = cast(%p1, dtype="float16") /* ty=Tensor[(2, 7, 2), float16] span=from_string:11:25 */;
    nn.batch_matmul(%1, %2, out_dtype="float16", transpose_b=True) /* ty=Tensor[(2, 77, 7), float16] span=from_string:9:5 */
  } /* ty=fn (Tensor[(2, 77, 2), float32], Tensor[(2, 7, 2), float32]) -> Tensor[(2, 77, 7), float16] span=from_string:13:104 */;
  let %x_2: Tensor[(2, 77, 7), float16] /* ty=Tensor[(2, 77, 7), float16] span=from_string:26:225 */ = %x_1(%x3, %x2);
  let %x_21 = fn (%p02: Tensor[(2, 77, 2), float32] /* ty=Tensor[(2, 77, 2), float32] span=from_string:15:15 */, %p11: Tensor[(2, 7, 2), float32] /* ty=Tensor[(2, 7, 2), float32] span=from_string:16:15 */, Primitive=1) -> Tensor[(2, 77, 7), float16] {
    %3 = cast(%p02, dtype="float16") /* ty=Tensor[(2, 77, 2), float16] span=from_string:17:21 */;
    %4 = cast(%p11, dtype="float16") /* ty=Tensor[(2, 7, 2), float16] span=from_string:17:25 */;
    nn.batch_matmul(%3, %4, out_dtype="float16", transpose_b=True) /* ty=Tensor[(2, 77, 7), float16] span=from_string:15:5 */
  } /* ty=fn (Tensor[(2, 77, 2), float32], Tensor[(2, 7, 2), float32]) -> Tensor[(2, 77, 7), float16] span=from_string:19:104 */;
  let %x_3: Tensor[(2, 77, 7), float16] /* ty=Tensor[(2, 77, 7), float16] span=from_string:26:231 */ = %x_21(%x3, %x4);
  let %x_31 = fn (%p03: Tensor[(2, 77, 2), float32] /* ty=Tensor[(2, 77, 2), float32] span=from_string:21:15 */, %p12: Tensor[(2, 7, 2), float32] /* ty=Tensor[(2, 7, 2), float32] span=from_string:22:15 */, Primitive=1) -> Tensor[(2, 77, 7), float16] {
    %5 = cast(%p03, dtype="float16") /* ty=Tensor[(2, 77, 2), float16] span=from_string:23:21 */;
    %6 = cast(%p12, dtype="float16") /* ty=Tensor[(2, 7, 2), float16] span=from_string:23:25 */;
    nn.batch_matmul(%5, %6, out_dtype="float16", transpose_b=True) /* ty=Tensor[(2, 77, 7), float16] span=from_string:21:5 */
  } /* ty=fn (Tensor[(2, 77, 2), float32], Tensor[(2, 7, 2), float32]) -> Tensor[(2, 77, 7), float16] span=from_string:25:104 */;
  let %x_4: Tensor[(2, 77, 7), float16] /* ty=Tensor[(2, 77, 7), float16] span=from_string:26:237 */ = %x_31(%x3, %x5);
  let %x_5: (Tensor[(2, 77, 7), float16], Tensor[(2, 77, 7), float16], Tensor[(2, 77, 7), float16]) /* ty=(Tensor[(2, 77, 7), float16], Tensor[(2, 77, 7), float16], Tensor[(2, 77, 7), float16]) span=from_string:65:538 */ = (%x_2, %x_3, %x_4) /* ty=(Tensor[(2, 77, 7), float16], Tensor[(2, 77, 7), float16], Tensor[(2, 77, 7), float16]) span=from_string:26:224 */;
  let %x_41 = 2f /* ty=float32 span=from_string:32:107 */;
  let %x_51 = fn (%p04: float32 /* ty=float32 span=from_string:28:16 */, %p13: Tensor[(2, 7, 2), float32] /* ty=Tensor[(2, 7, 2), float32] span=from_string:29:16 */, Primitive=1) -> Tensor[(2, 7, 2), float16] {
    %7 = cast(%p04, dtype="float16") /* ty=float16 span=from_string:30:9 */;
    %8 = cast(%p13, dtype="float16") /* ty=Tensor[(2, 7, 2), float16] span=from_string:30:14 */;
    add(%7, %8) /* ty=Tensor[(2, 7, 2), float16] span=from_string:28:5 */
  } /* ty=fn (float32, Tensor[(2, 7, 2), float32]) -> Tensor[(2, 7, 2), float16] span=from_string:32:101 */;
  let %x_7: Tensor[(2, 7, 2), float16] /* ty=Tensor[(2, 7, 2), float16] span=from_string:37:14 */ = %x_51(%x_41, %x5);
  let %x_6 = fn (Primitive=1) -> Tensor[(1), float16] {
    zeros(shape=[1], dtype="float16") /* ty=Tensor[(1), float16] span=from_string:34:5 */
  } /* ty=fn () -> Tensor[(1), float16] span=from_string:36:89 */;
  let %x_8: Tensor[(1), float16] /* ty=Tensor[(1), float16] span=from_string:38:14 */ = %x_6();
  let %x_71 = cast(%x_7, dtype="float32");
  let %x_81 = cast(%x_8, dtype="float32");
  let %x_9 = fn (%p05: Tensor[(2, 7, 2), float32] /* ty=Tensor[(2, 7, 2), float32] span=from_string:40:16 */, %p14: Tensor[(1), float32] /* ty=Tensor[(1), float32] span=from_string:41:16 */, Primitive=1) -> Tensor[(2, 7, 2), float16] {
    %9 = cast(%p05, dtype="float16") /* ty=Tensor[(2, 7, 2), float16] span=from_string:42:9 */;
    %10 = cast(%p14, dtype="float16") /* ty=Tensor[(1), float16] span=from_string:42:14 */;
    add(%9, %10) /* ty=Tensor[(2, 7, 2), float16] span=from_string:40:5 */
  } /* ty=fn (Tensor[(2, 7, 2), float32], Tensor[(1), float32]) -> Tensor[(2, 7, 2), float16] span=from_string:44:102 */;
  let %x_91: Tensor[(2, 7, 2), float16] /* ty=Tensor[(2, 7, 2), float16] span=from_string:65:544 */ = %x_9(%x_71, %x_81);
  let %x_10 = fn (%p06: Tensor[(2, 7, 2), float32] /* ty=Tensor[(2, 7, 2), float32] span=from_string:46:16 */, Primitive=1, relay.reshape_only=1) -> Tensor[(2, 7, 2), float16] {
    %11 = cast(%p06, dtype="float16") /* ty=Tensor[(2, 7, 2), float16] span=from_string:47:13 */;
    reshape(%11, newshape=[2, 7, 2]) /* ty=Tensor[(2, 7, 2), float16] span=from_string:46:5 */
  } /* ty=fn (Tensor[(2, 7, 2), float32]) -> Tensor[(2, 7, 2), float16] span=from_string:49:103 */;
  let %x_101: Tensor[(2, 7, 2), float16] /* ty=Tensor[(2, 7, 2), float16] span=from_string:65:550 */ = %x_10(%x_71);
  let %x_11 = fn (Primitive=1) -> Tensor[(1), float16] {
    ones(shape=[1], dtype="float16") /* ty=Tensor[(1), float16] span=from_string:51:5 */
  } /* ty=fn () -> Tensor[(1), float16] span=from_string:53:90 */;
  let %x_111: Tensor[(1), float16] /* ty=Tensor[(1), float16] span=from_string:54:14 */ = %x_11();
  let %x_12 = cast(%x_111, dtype="float32");
  let %x_13 = fn (%p07: Tensor[(1), float32] /* ty=Tensor[(1), float32] span=from_string:56:16 */, %p15: Tensor[(1), float32] /* ty=Tensor[(1), float32] span=from_string:57:16 */, Primitive=1) -> Tensor[(1), float16] {
    %12 = cast(%p07, dtype="float16") /* ty=Tensor[(1), float16] span=from_string:58:9 */;
    %13 = cast(%p15, dtype="float16") /* ty=Tensor[(1), float16] span=from_string:58:14 */;
    add(%12, %13) /* ty=Tensor[(1), float16] span=from_string:56:5 */
  } /* ty=fn (Tensor[(1), float32], Tensor[(1), float32]) -> Tensor[(1), float16] span=from_string:60:91 */;
  let %x_121: Tensor[(1), float16] /* ty=Tensor[(1), float16] span=from_string:65:557 */ = %x_13(%x_81, %x_12);
  let %x_14 = fn (Primitive=1) -> Tensor[(3), int32] {
    zeros(shape=[3], dtype="int32") /* ty=Tensor[(3), int32] span=from_string:62:5 */
  } /* ty=fn () -> Tensor[(3), int32] span=from_string:64:89 */;
  let %x_131: Tensor[(3), int32] /* ty=Tensor[(3), int32] span=from_string:65:564 */ = %x_14();
  let %x_15 = 0 /* ty=int32 span=from_string:65:499 */;
  let %x_141: (Tensor[(4, 7), float16], int32, (Tensor[(2, 77, 7), float16], Tensor[(2, 77, 7), float16], Tensor[(2, 77, 7), float16]), Tensor[(2, 7, 2), float16], Tensor[(2, 7, 2), float16], Tensor[(1), float16], Tensor[(3), int32]) /* ty=(Tensor[(4, 7), float16], int32, (Tensor[(2, 77, 7), float16], Tensor[(2, 77, 7), float16], Tensor[(2, 77, 7), float16]), Tensor[(2, 7, 2), float16], Tensor[(2, 7, 2), float16], Tensor[(1), float16], Tensor[(3), int32]) span=from_string:66:3 */ = (%x_01, %x_15, %x_5, %x_91, %x_101, %x_121, %x_131) /* ty=(Tensor[(4, 7), float16], int32, (Tensor[(2, 77, 7), float16], Tensor[(2, 77, 7), float16], Tensor[(2, 77, 7), float16]), Tensor[(2, 7, 2), float16], Tensor[(2, 7, 2), float16], Tensor[(1), float16], Tensor[(3), int32]) span=from_string:65:491 */;
  let %x_16 = %x_141;
  let %x_17 = %x_16;
  let %x_18 = %x_17;
  let %x_19 = %x_18;
  let %x_20 = %x_19;
  let %x_211 = %x_20;
  let %x_22 = %x_211;
  let %x_23 = %x_22;
  let %x_24 = %x_23;
  let %x_25 = %x_24;
  let %x_26 = %x_25;
  let %x_27 = %x_26;
  let %x_28 = %x_27;
  %x_28
}
