#[version = "0.0.5"]
def @main(%x0: Tensor[(4, 7), float32] /* ty=Tensor[(4, 7), float32] span=from_string:3:13 */, %x1: Tensor[(2, 7, 2), float32] /* ty=Tensor[(2, 7, 2), float32] */, %x2: Tensor[(2, 7, 2), float32] /* ty=Tensor[(2, 7, 2), float32] span=from_string:5:13 */, %x3: Tensor[(2, 77, 2), float32] /* ty=Tensor[(2, 77, 2), float32] span=from_string:8:13 */, %x4: Tensor[(2, 7, 2), float32] /* ty=Tensor[(2, 7, 2), float32] span=from_string:7:13 */, %x5: Tensor[(2, 7, 2), float32] /* ty=Tensor[(2, 7, 2), float32] span=from_string:13:14 */, %x6: Tensor[(14, 2), float32] /* ty=Tensor[(14, 2), float32] */, %x7: float32 /* ty=float32 */) -> (Tensor[(4, 7), float16], int32, (Tensor[(2, 77, 7), float16], Tensor[(2, 77, 7), float16], Tensor[(2, 77, 7), float16]), Tensor[(2, 7, 2), float16], Tensor[(2, 7, 2), float16], Tensor[(1), float16], Tensor[(3), int32]) {
  let %x_0 = cast(%x0, dtype="float16");
  let %x_1 = reshape(%x_0, newshape=[4, 7]);
  let %x_2 = 0 /* ty=int32 span=from_string:28:10 */;
  let %x_3 = cast(%x3, dtype="float16");
  let %x_4 = cast(%x2, dtype="float16");
  let %x_5 = nn.batch_matmul(%x_3, %x_4, out_dtype="float16", transpose_b=True);
  let %x_6 = cast(%x3, dtype="float16");
  let %x_7 = cast(%x4, dtype="float16");
  let %x_8 = nn.batch_matmul(%x_6, %x_7, out_dtype="float16", transpose_b=True);
  let %x_9 = cast(%x3, dtype="float16");
  let %x_10 = cast(%x5, dtype="float16");
  let %x_11 = nn.batch_matmul(%x_9, %x_10, out_dtype="float16", transpose_b=True);
  let %x_12 = (%x_5, %x_8, %x_11) /* ty=(Tensor[(2, 77, 7), float16], Tensor[(2, 77, 7), float16], Tensor[(2, 77, 7), float16]) span=from_string:28:51 */;
  let %x_13 = 2f16 /* ty=float16 span=from_string:14:17 */;
  let %x_14 = cast(%x5, dtype="float16");
  let %x_15 = add(%x_13, %x_14);
  let %x_16 = cast(%x_15, dtype="float32");
  let %x_17 = cast(%x_16, dtype="float16");
  let %x_18 = zeros(shape=[1], dtype="float16");
  let %x_19 = cast(%x_18, dtype="float32");
  let %x_20 = cast(%x_19, dtype="float16");
  let %x_21 = add(%x_17, %x_20);
  let %x_22 = cast(%x_16, dtype="float16");
  let %x_23 = reshape(%x_22, newshape=[2, 7, 2]);
  let %x_24 = cast(%x_19, dtype="float16");
  let %x_25 = 1f16 /* ty=float16 span=from_string:26:22 */;
  let %x_26 = add(%x_24, %x_25);
  let %x_27 = zeros(shape=[3], dtype="int32");
  let %x_28 = (%x_1, %x_2, %x_12, %x_21, %x_23, %x_26, %x_27) /* ty=(Tensor[(4, 7), float16], int32, (Tensor[(2, 77, 7), float16], Tensor[(2, 77, 7), float16], Tensor[(2, 77, 7), float16]), Tensor[(2, 7, 2), float16], Tensor[(2, 7, 2), float16], Tensor[(1), float16], Tensor[(3), int32]) span=from_string:3:3 */;
  %x_28
}
