#[version = "0.0.5"]
def @main(%x0: Tensor[(4, 7), float32] /* ty=Tensor[(4, 7), float32] span=from_string:3:13 */, %x1: Tensor[(2, 7, 2), float32] /* ty=Tensor[(2, 7, 2), float32] */, %x2: Tensor[(2, 7, 2), float32] /* ty=Tensor[(2, 7, 2), float32] span=from_string:7:13 */, %x3: Tensor[(2, 77, 2), float32] /* ty=Tensor[(2, 77, 2), float32] span=from_string:11:13 */, %x4: Tensor[(2, 7, 2), float32] /* ty=Tensor[(2, 7, 2), float32] span=from_string:8:13 */, %x5: Tensor[(2, 7, 2), float32] /* ty=Tensor[(2, 7, 2), float32] span=from_string:9:13 */, %x6: Tensor[(14, 2), float32] /* ty=Tensor[(14, 2), float32] */, %x7: float32 /* ty=float32 span=from_string:28:13 */) -> (Tensor[(4, 7), float16], int32, (Tensor[(2, 77, 7), float16], Tensor[(2, 77, 7), float16], Tensor[(2, 77, 7), float16]), Tensor[(2, 7, 2), float16], Tensor[(2, 7, 2), float16], Tensor[(1), float16], Tensor[(3), int32]) {
  %1 = fn (%p0: Tensor[(4, 7), float32] /* ty=Tensor[(4, 7), float32] */, Primitive=1) -> Tensor[(2, 7, 2), float16] {
    %0 = cast(%p0, dtype="float16") /* ty=Tensor[(4, 7), float16] span=from_string:4:109 */;
    reshape(%0, newshape=[2, 7, 2]) /* ty=Tensor[(2, 7, 2), float16] span=from_string:4:101 */
  } /* ty=fn (Tensor[(4, 7), float32]) -> Tensor[(2, 7, 2), float16] */;
  let %x_0: Tensor[(2, 7, 2), float16] /* ty=Tensor[(2, 7, 2), float16] span=from_string:5:104 */ = %1(%x0) /* ty=Tensor[(2, 7, 2), float16] */;
  %2 = fn (%p01: Tensor[(2, 7, 2), float16] /* ty=Tensor[(2, 7, 2), float16] */, Primitive=1, relay.reshape_only=1) -> Tensor[(4, 7), float16] {
    reshape(%p01, newshape=[4, 7]) /* ty=Tensor[(4, 7), float16] span=from_string:5:96 */
  } /* ty=fn (Tensor[(2, 7, 2), float16]) -> Tensor[(4, 7), float16] */;
  let %x_1: Tensor[(4, 7), float16] /* ty=Tensor[(4, 7), float16] span=from_string:31:492 */ = %2(%x_0) /* ty=Tensor[(4, 7), float16] */;
  let %x_2: int32 /* ty=int32 span=from_string:31:498 */ = 0 /* ty=int32 span=from_string:6:63 */;
  %3 = fn (%p04: Tensor[(2, 77, 2), float32] /* ty=Tensor[(2, 77, 2), float32] */, Primitive=1) -> Tensor[(2, 77, 2), float16] {
    cast(%p04, dtype="float16") /* ty=Tensor[(2, 77, 2), float16] span=from_string:13:24 */
  } /* ty=fn (Tensor[(2, 77, 2), float32]) -> Tensor[(2, 77, 2), float16] */;
  %7 = fn (%p06: Tensor[(2, 7, 2), float32] /* ty=Tensor[(2, 7, 2), float32] */, Primitive=1) -> Tensor[(2, 7, 2), float16] {
    cast(%p06, dtype="float16") /* ty=Tensor[(2, 7, 2), float16] span=from_string:20:110 */
  } /* ty=fn (Tensor[(2, 7, 2), float32]) -> Tensor[(2, 7, 2), float16] */;
  %8 = %7(%x5) /* ty=Tensor[(2, 7, 2), float16] */;
  %9 = fn (%p05: Tensor[(2, 7, 2), float32] /* ty=Tensor[(2, 7, 2), float32] */, %p11: Tensor[(2, 7, 2), float32] /* ty=Tensor[(2, 7, 2), float32] */, %p2: Tensor[(2, 7, 2), float16] /* ty=Tensor[(2, 7, 2), float16] */, Primitive=1) -> Tensor[(2, 21, 2), float16] {
    %4 = cast(%p05, dtype="float16") /* ty=Tensor[(2, 7, 2), float16] span=from_string:10:9 */;
    %5 = cast(%p11, dtype="float16") /* ty=Tensor[(2, 7, 2), float16] span=from_string:10:13 */;
    %6 = (%4, %5, %p2) /* ty=(Tensor[(2, 7, 2), float16], Tensor[(2, 7, 2), float16], Tensor[(2, 7, 2), float16]) span=from_string:12:20 */;
    concatenate(%6, axis=1) /* ty=Tensor[(2, 21, 2), float16] span=from_string:13:28 */
  } /* ty=fn (Tensor[(2, 7, 2), float32], Tensor[(2, 7, 2), float32], Tensor[(2, 7, 2), float16]) -> Tensor[(2, 21, 2), float16] */;
  %10 = %3(%x3) /* ty=Tensor[(2, 77, 2), float16] */;
  %11 = %9(%x2, %x4, %8) /* ty=Tensor[(2, 21, 2), float16] */;
  %12 = fn (%p03: Tensor[(2, 77, 2), float16] /* ty=Tensor[(2, 77, 2), float16] */, %p1: Tensor[(2, 21, 2), float16] /* ty=Tensor[(2, 21, 2), float16] */, Primitive=1) -> Tensor[(2, 77, 21), float16] {
    nn.batch_matmul(%p03, %p1, out_dtype="float16", transpose_b=True) /* ty=Tensor[(2, 77, 21), float16] span=from_string:16:118 */
  } /* ty=fn (Tensor[(2, 77, 2), float16], Tensor[(2, 21, 2), float16]) -> Tensor[(2, 77, 21), float16] */;
  %13 = %12(%10, %11) /* ty=Tensor[(2, 77, 21), float16] */;
  %14 = fn (%p02: Tensor[(2, 77, 21), float16] /* ty=Tensor[(2, 77, 21), float16] */, Primitive=1) -> Tensor[(2, 77, 7), float16] {
    strided_slice(%p02, begin=[0, 0, 0], end=[-1, -1, 7], strides=[1, 1, 1], slice_mode="size", axes=None) /* ty=Tensor[(2, 77, 7), float16] span=from_string:14:104 */
  } /* ty=fn (Tensor[(2, 77, 21), float16]) -> Tensor[(2, 77, 7), float16] */;
  let %x_3: Tensor[(2, 77, 7), float16] /* ty=Tensor[(2, 77, 7), float16] span=from_string:17:225 */ = %14(%13) /* ty=Tensor[(2, 77, 7), float16] */;
  %15 = fn (%p07: Tensor[(2, 77, 21), float16] /* ty=Tensor[(2, 77, 21), float16] */, Primitive=1) -> Tensor[(2, 77, 7), float16] {
    strided_slice(%p07, begin=[0, 0, 7], end=[-1, -1, 7], strides=[1, 1, 1], slice_mode="size", axes=None) /* ty=Tensor[(2, 77, 7), float16] span=from_string:15:104 */
  } /* ty=fn (Tensor[(2, 77, 21), float16]) -> Tensor[(2, 77, 7), float16] */;
  let %x_4: Tensor[(2, 77, 7), float16] /* ty=Tensor[(2, 77, 7), float16] span=from_string:17:231 */ = %15(%13) /* ty=Tensor[(2, 77, 7), float16] */;
  %16 = fn (%p08: Tensor[(2, 77, 21), float16] /* ty=Tensor[(2, 77, 21), float16] */, Primitive=1) -> Tensor[(2, 77, 7), float16] {
    strided_slice(%p08, begin=[0, 0, 14], end=[-1, -1, 7], strides=[1, 1, 1], slice_mode="size", axes=None) /* ty=Tensor[(2, 77, 7), float16] span=from_string:16:104 */
  } /* ty=fn (Tensor[(2, 77, 21), float16]) -> Tensor[(2, 77, 7), float16] */;
  let %x_5: Tensor[(2, 77, 7), float16] /* ty=Tensor[(2, 77, 7), float16] span=from_string:17:237 */ = %16(%13) /* ty=Tensor[(2, 77, 7), float16] */;
  let %x_6: (Tensor[(2, 77, 7), float16], Tensor[(2, 77, 7), float16], Tensor[(2, 77, 7), float16]) /* ty=(Tensor[(2, 77, 7), float16], Tensor[(2, 77, 7), float16], Tensor[(2, 77, 7), float16]) span=from_string:31:504 */ = (%x_3, %x_4, %x_5) /* ty=(Tensor[(2, 77, 7), float16], Tensor[(2, 77, 7), float16], Tensor[(2, 77, 7), float16]) span=from_string:17:224 */;
  let %x_7: float32 /* ty=float32 span=from_string:19:13 */ = 2f /* ty=float32 span=from_string:18:65 */;
  %18 = fn (%p09: float32 /* ty=float32 */, %p12: Tensor[(2, 7, 2), float16] /* ty=Tensor[(2, 7, 2), float16] */, Primitive=1) -> Tensor[(2, 7, 2), float16] {
    %17 = cast(%p09, dtype="float16") /* ty=float16 span=from_string:20:106 */;
    add(%17, %p12) /* ty=Tensor[(2, 7, 2), float16] span=from_string:20:102 */
  } /* ty=fn (float32, Tensor[(2, 7, 2), float16]) -> Tensor[(2, 7, 2), float16] */;
  let %x_8: Tensor[(2, 7, 2), float16] /* ty=Tensor[(2, 7, 2), float16] span=from_string:23:107 */ = %18(%x_7, %8) /* ty=Tensor[(2, 7, 2), float16] */;
  %19 = fn (Primitive=1) -> Tensor[(1), float16] {
    zeros(shape=[1], dtype="float16") /* ty=Tensor[(1), float16] span=from_string:21:89 */
  } /* ty=fn () -> Tensor[(1), float16] */;
  let %x_9: Tensor[(1), float16] /* ty=Tensor[(1), float16] span=from_string:26:95 */ = %19() /* ty=Tensor[(1), float16] */;
  %20 = fn (%p010: Tensor[(2, 7, 2), float16] /* ty=Tensor[(2, 7, 2), float16] */, %p13: Tensor[(1), float16] /* ty=Tensor[(1), float16] */, Primitive=1) -> Tensor[(2, 7, 2), float16] {
    add(%p010, %p13) /* ty=Tensor[(2, 7, 2), float16] span=from_string:22:103 */
  } /* ty=fn (Tensor[(2, 7, 2), float16], Tensor[(1), float16]) -> Tensor[(2, 7, 2), float16] */;
  let %x_10: Tensor[(2, 7, 2), float16] /* ty=Tensor[(2, 7, 2), float16] span=from_string:31:510 */ = %20(%x_8, %x_9) /* ty=Tensor[(2, 7, 2), float16] */;
  %21 = fn (%p011: Tensor[(2, 7, 2), float16] /* ty=Tensor[(2, 7, 2), float16] */, Primitive=1, relay.reshape_only=1) -> Tensor[(14, 2), float16] {
    reshape(%p011, newshape=[14, 2]) /* ty=Tensor[(14, 2), float16] span=from_string:23:99 */
  } /* ty=fn (Tensor[(2, 7, 2), float16]) -> Tensor[(14, 2), float16] */;
  let %x_11: Tensor[(14, 2), float16] /* ty=Tensor[(14, 2), float16] span=from_string:24:111 */ = %21(%x_8) /* ty=Tensor[(14, 2), float16] */;
  %22 = fn (%p012: Tensor[(14, 2), float16] /* ty=Tensor[(14, 2), float16] */, Primitive=1, relay.reshape_only=1) -> Tensor[(2, 7, 2), float16] {
    reshape(%p012, newshape=[2, 7, 2]) /* ty=Tensor[(2, 7, 2), float16] span=from_string:24:103 */
  } /* ty=fn (Tensor[(14, 2), float16]) -> Tensor[(2, 7, 2), float16] */;
  let %x_12: Tensor[(2, 7, 2), float16] /* ty=Tensor[(2, 7, 2), float16] span=from_string:31:517 */ = %22(%x_11) /* ty=Tensor[(2, 7, 2), float16] */;
  %23 = fn (Primitive=1) -> Tensor[(1), float16] {
    ones(shape=[1], dtype="float16") /* ty=Tensor[(1), float16] span=from_string:25:91 */
  } /* ty=fn () -> Tensor[(1), float16] */;
  let %x_13: Tensor[(1), float16] /* ty=Tensor[(1), float16] span=from_string:26:101 */ = %23() /* ty=Tensor[(1), float16] */;
  %24 = fn (%p013: Tensor[(1), float16] /* ty=Tensor[(1), float16] */, %p14: Tensor[(1), float16] /* ty=Tensor[(1), float16] */, Primitive=1) -> Tensor[(1), float16] {
    add(%p013, %p14) /* ty=Tensor[(1), float16] span=from_string:26:91 */
  } /* ty=fn (Tensor[(1), float16], Tensor[(1), float16]) -> Tensor[(1), float16] */;
  let %x_14: Tensor[(1), float16] /* ty=Tensor[(1), float16] span=from_string:31:524 */ = %24(%x_9, %x_13) /* ty=Tensor[(1), float16] */;
  let %x_15: Tensor[(3), int32] /* ty=Tensor[(3), int32] */ = meta[relay.Constant][0] /* ty=Tensor[(3), int32] span=from_string:27:70 */;
  %26 = fn (%p014: float32 /* ty=float32 */, Primitive=1) -> Tensor[(3), int32] {
    %25 = cast(%p014, dtype="float16") /* ty=float16 span=from_string:29:70 */;
    full(%25, shape=[3], dtype="int32") /* ty=Tensor[(3), int32] span=from_string:29:65 */
  } /* ty=fn (float32) -> Tensor[(3), int32] */;
  let %x_16: Tensor[(3), int32] /* ty=Tensor[(3), int32] */ = %26(%x7) /* ty=Tensor[(3), int32] */;
  %27 = fn (Primitive=1) -> Tensor[(3), int32] {
    zeros(shape=[3], dtype="int32") /* ty=Tensor[(3), int32] span=from_string:30:89 */
  } /* ty=fn () -> Tensor[(3), int32] */;
  let %x_17: Tensor[(3), int32] /* ty=Tensor[(3), int32] span=from_string:31:531 */ = %27() /* ty=Tensor[(3), int32] */;
  let %x_18: (Tensor[(4, 7), float16], int32, (Tensor[(2, 77, 7), float16], Tensor[(2, 77, 7), float16], Tensor[(2, 77, 7), float16]), Tensor[(2, 7, 2), float16], Tensor[(2, 7, 2), float16], Tensor[(1), float16], Tensor[(3), int32]) /* ty=(Tensor[(4, 7), float16], int32, (Tensor[(2, 77, 7), float16], Tensor[(2, 77, 7), float16], Tensor[(2, 77, 7), float16]), Tensor[(2, 7, 2), float16], Tensor[(2, 7, 2), float16], Tensor[(1), float16], Tensor[(3), int32]) span=from_string:32:3 */ = (%x_1, %x_2, %x_6, %x_10, %x_12, %x_14, %x_17) /* ty=(Tensor[(4, 7), float16], int32, (Tensor[(2, 77, 7), float16], Tensor[(2, 77, 7), float16], Tensor[(2, 77, 7), float16]), Tensor[(2, 7, 2), float16], Tensor[(2, 7, 2), float16], Tensor[(1), float16], Tensor[(3), int32]) span=from_string:31:491 */;
  %x_18
}

#[metadata]
{
  "root": 1, 
  "nodes": [
    {
      "type_key": ""
    }, 
    {
      "type_key": "Map", 
      "keys": [
        "relay.Constant"
      ], 
      "data": [2]
    }, 
    {
      "type_key": "Array", 
      "data": [3]
    }, 
    {
      "type_key": "relay.Constant", 
      "attrs": {
        "_checked_type_": "8", 
        "data": "0", 
        "span": "6", 
        "virtual_device_": "4"
      }
    }, 
    {
      "type_key": "VirtualDevice", 
      "attrs": {
        "device_type_int": "-1", 
        "memory_scope": "5", 
        "target": "0", 
        "virtual_device_id": "-1"
      }
    }, 
    {
      "type_key": "runtime.String"
    }, 
    {
      "type_key": "Span", 
      "attrs": {
        "column": "70", 
        "end_column": "88", 
        "end_line": "27", 
        "line": "27", 
        "source_name": "7"
      }
    }, 
    {
      "type_key": "SourceName", 
      "repr_str": "from_string"
    }, 
    {
      "type_key": "relay.TensorType", 
      "attrs": {
        "dtype": "int32", 
        "shape": "9", 
        "span": "0"
      }
    }, 
    {
      "type_key": "Array", 
      "data": [10]
    }, 
    {
      "type_key": "IntImm", 
      "attrs": {
        "dtype": "int32", 
        "span": "0", 
        "value": "3"
      }
    }
  ], 
  "b64ndarrays": [
    "P6G0lvBAXt0AAAAAAAAAAAEAAAAAAAAAAQAAAAAgAQADAAAAAAAAAAwAAAAAAAAAAgAAAAcAAAACAAAA"
  ], 
  "attrs": {"tvm_version": "0.13.0"}
}