#[version = "0.0.5"]
def @main(%x0: Tensor[(4, 7), float32] /* ty=Tensor[(4, 7), float32] span=from_string:56:12 */, %x1: Tensor[(2, 7, 2), float32] /* ty=Tensor[(2, 7, 2), float32] */, %x2: Tensor[(2, 7, 2), float32] /* ty=Tensor[(2, 7, 2), float32] span=from_string:14:11 */, %x3: Tensor[(2, 77, 2), float32] /* ty=Tensor[(2, 77, 2), float32] span=from_string:13:11 */, %x4: Tensor[(2, 7, 2), float32] /* ty=Tensor[(2, 7, 2), float32] span=from_string:21:11 */, %x5: Tensor[(2, 7, 2), float32] /* ty=Tensor[(2, 7, 2), float32] span=from_string:28:13 */, %x6: Tensor[(14, 2), float32] /* ty=Tensor[(14, 2), float32] */, %x7: float32 /* ty=float32 span=from_string:61:13 */) -> (Tensor[(4, 7), float16], int32, (Tensor[(2, 77, 7), float16], Tensor[(2, 77, 7), float16], Tensor[(2, 77, 7), float16]), Tensor[(2, 7, 2), float16], Tensor[(2, 7, 2), float16], Tensor[(1), float16], Tensor[(3), int32]) {
  %1 = fn (%p0: Tensor[(4, 7), float32] /* ty=Tensor[(4, 7), float32] span=from_string:4:15 */, Primitive=1) -> Tensor[(4, 7), float16] {
    %0 = cast(%p0, dtype="float16") /* ty=Tensor[(4, 7), float16] span=from_string:5:13 */;
    reshape(%0, newshape=[4, 7]) /* ty=Tensor[(4, 7), float16] span=from_string:4:5 */
  } /* ty=fn (Tensor[(4, 7), float32]) -> Tensor[(4, 7), float16] span=from_string:56:9 */;
  %2 = fn (%p02: Tensor[(2, 77, 2), float32] /* ty=Tensor[(2, 77, 2), float32] span=from_string:8:10 */, Primitive=1) -> Tensor[(2, 77, 2), float16] {
    cast(%p02, dtype="float16") /* ty=Tensor[(2, 77, 2), float16] span=from_string:8:5 */
  } /* ty=fn (Tensor[(2, 77, 2), float32]) -> Tensor[(2, 77, 2), float16] span=from_string:13:8 */;
  %3 = fn (%p03: Tensor[(2, 7, 2), float32] /* ty=Tensor[(2, 7, 2), float32] span=from_string:11:10 */, Primitive=1) -> Tensor[(2, 7, 2), float16] {
    cast(%p03, dtype="float16") /* ty=Tensor[(2, 7, 2), float16] span=from_string:11:5 */
  } /* ty=fn (Tensor[(2, 7, 2), float32]) -> Tensor[(2, 7, 2), float16] span=from_string:14:8 */;
  %4 = %2(%x3) /* ty=Tensor[(2, 77, 2), float16] span=from_string:34:13 */;
  %5 = %3(%x2) /* ty=Tensor[(2, 7, 2), float16] span=from_string:32:16 */;
  %6 = fn (%p01: Tensor[(2, 77, 2), float16] /* ty=Tensor[(2, 77, 2), float16] span=from_string:16:21 */, %p1: Tensor[(2, 7, 2), float16] /* ty=Tensor[(2, 7, 2), float16] span=from_string:16:27 */, Primitive=1) -> Tensor[(2, 77, 7), float16] {
    nn.batch_matmul(%p01, %p1, out_dtype="float16", transpose_b=True) /* ty=Tensor[(2, 77, 7), float16] span=from_string:16:5 */
  } /* ty=fn (Tensor[(2, 77, 2), float16], Tensor[(2, 7, 2), float16]) -> Tensor[(2, 77, 7), float16] span=from_string:32:9 */;
  %7 = fn (%p05: Tensor[(2, 7, 2), float32] /* ty=Tensor[(2, 7, 2), float32] span=from_string:19:10 */, Primitive=1) -> Tensor[(2, 7, 2), float16] {
    cast(%p05, dtype="float16") /* ty=Tensor[(2, 7, 2), float16] span=from_string:19:5 */
  } /* ty=fn (Tensor[(2, 7, 2), float32]) -> Tensor[(2, 7, 2), float16] span=from_string:21:8 */;
  %8 = %7(%x4) /* ty=Tensor[(2, 7, 2), float16] span=from_string:33:16 */;
  %9 = fn (%p04: Tensor[(2, 77, 2), float16] /* ty=Tensor[(2, 77, 2), float16] span=from_string:23:21 */, %p11: Tensor[(2, 7, 2), float16] /* ty=Tensor[(2, 7, 2), float16] span=from_string:23:27 */, Primitive=1) -> Tensor[(2, 77, 7), float16] {
    nn.batch_matmul(%p04, %p11, out_dtype="float16", transpose_b=True) /* ty=Tensor[(2, 77, 7), float16] span=from_string:23:5 */
  } /* ty=fn (Tensor[(2, 77, 2), float16], Tensor[(2, 7, 2), float16]) -> Tensor[(2, 77, 7), float16] span=from_string:33:9 */;
  %10 = fn (%p07: Tensor[(2, 7, 2), float32] /* ty=Tensor[(2, 7, 2), float32] span=from_string:26:10 */, Primitive=1) -> Tensor[(2, 7, 2), float16] {
    cast(%p07, dtype="float16") /* ty=Tensor[(2, 7, 2), float16] span=from_string:26:5 */
  } /* ty=fn (Tensor[(2, 7, 2), float32]) -> Tensor[(2, 7, 2), float16] span=from_string:28:9 */;
  %11 = %10(%x5) /* ty=Tensor[(2, 7, 2), float16] span=from_string:42:13 */;
  %12 = fn (%p06: Tensor[(2, 77, 2), float16] /* ty=Tensor[(2, 77, 2), float16] span=from_string:30:21 */, %p12: Tensor[(2, 7, 2), float16] /* ty=Tensor[(2, 7, 2), float16] span=from_string:30:27 */, Primitive=1) -> Tensor[(2, 77, 7), float16] {
    nn.batch_matmul(%p06, %p12, out_dtype="float16", transpose_b=True) /* ty=Tensor[(2, 77, 7), float16] span=from_string:30:5 */
  } /* ty=fn (Tensor[(2, 77, 2), float16], Tensor[(2, 7, 2), float16]) -> Tensor[(2, 77, 7), float16] span=from_string:34:9 */;
  %13 = %6(%4, %5) /* ty=Tensor[(2, 77, 7), float16] span=from_string:57:10 */;
  %14 = %9(%4, %8) /* ty=Tensor[(2, 77, 7), float16] span=from_string:57:15 */;
  %15 = %12(%4, %11) /* ty=Tensor[(2, 77, 7), float16] span=from_string:57:20 */;
  %17 = fn (%p09: Tensor[(2, 7, 2), float16] /* ty=Tensor[(2, 7, 2), float16] span=from_string:37:14 */, Primitive=1) -> Tensor[(2, 7, 2), float16] {
    %16 = cast(2f /* ty=float32 span=from_string:36:18 */, dtype="float16") /* ty=float16 span=from_string:37:9 */;
    add(%16, %p09) /* ty=Tensor[(2, 7, 2), float16] span=from_string:36:5 */
  } /* ty=fn (Tensor[(2, 7, 2), float16]) -> Tensor[(2, 7, 2), float16] span=from_string:42:9 */;
  %18 = fn (Primitive=1) -> Tensor[(1), float16] {
    zeros(shape=[1], dtype="float16") /* ty=Tensor[(1), float16] span=from_string:40:5 */
  } /* ty=fn () -> Tensor[(1), float16] span=from_string:43:9 */;
  %19 = %17(%11) /* ty=Tensor[(2, 7, 2), float16] span=from_string:59:13 */;
  %20 = %18() /* ty=Tensor[(1), float16] span=from_string:60:13 */;
  %21 = fn (%p08: Tensor[(2, 7, 2), float16] /* ty=Tensor[(2, 7, 2), float16] span=from_string:45:9 */, %p13: Tensor[(1), float16] /* ty=Tensor[(1), float16] span=from_string:45:15 */, Primitive=1) -> Tensor[(2, 7, 2), float16] {
    add(%p08, %p13) /* ty=Tensor[(2, 7, 2), float16] span=from_string:45:5 */
  } /* ty=fn (Tensor[(2, 7, 2), float16], Tensor[(1), float16]) -> Tensor[(2, 7, 2), float16] span=from_string:58:9 */;
  %22 = fn (%p010: Tensor[(2, 7, 2), float16] /* ty=Tensor[(2, 7, 2), float16] span=from_string:48:13 */, Primitive=1, relay.reshape_only=1) -> Tensor[(2, 7, 2), float16] {
    reshape(%p010, newshape=[2, 7, 2]) /* ty=Tensor[(2, 7, 2), float16] span=from_string:48:5 */
  } /* ty=fn (Tensor[(2, 7, 2), float16]) -> Tensor[(2, 7, 2), float16] span=from_string:59:9 */;
  %23 = fn (%p011: Tensor[(1), float16] /* ty=Tensor[(1), float16] span=from_string:51:9 */, Primitive=1) -> Tensor[(1), float16] {
    add(%p011, 1f16 /* ty=float16 span=from_string:51:20 */) /* ty=Tensor[(1), float16] span=from_string:51:5 */
  } /* ty=fn (Tensor[(1), float16]) -> Tensor[(1), float16] span=from_string:60:9 */;
  %24 = fn (%p012: float32 /* ty=float32 */, %p14: Tensor[(3), int32] /* ty=Tensor[(3), int32] */, Primitive=1) -> Tensor[(3), int32] {
    zeros(shape=[3], dtype="int32") /* ty=Tensor[(3), int32] span=from_string:54:5 */
  } /* ty=fn (float32, Tensor[(3), int32]) -> Tensor[(3), int32] span=from_string:61:9 */;
  %25 = %1(%x0) /* ty=Tensor[(4, 7), float16] span=from_string:62:4 */;
  %26 = (%13, %14, %15) /* ty=(Tensor[(2, 77, 7), float16], Tensor[(2, 77, 7), float16], Tensor[(2, 77, 7), float16]) span=from_string:62:50 */;
  %27 = %21(%19, %20) /* ty=Tensor[(2, 7, 2), float16] span=from_string:62:55 */;
  %28 = %22(%19) /* ty=Tensor[(2, 7, 2), float16] span=from_string:62:60 */;
  %29 = %23(%20) /* ty=Tensor[(1), float16] span=from_string:62:65 */;
  %30 = %24(%x7, meta[relay.Constant][0] /* ty=Tensor[(3), int32] span=from_string:61:23 */) /* ty=Tensor[(3), int32] span=from_string:62:70 */;
  (%25, 0 /* ty=int32 span=from_string:62:10 */, %26, %27, %28, %29, %30) /* ty=(Tensor[(4, 7), float16], int32, (Tensor[(2, 77, 7), float16], Tensor[(2, 77, 7), float16], Tensor[(2, 77, 7), float16]), Tensor[(2, 7, 2), float16], Tensor[(2, 7, 2), float16], Tensor[(1), float16], Tensor[(3), int32]) span=from_string:3:3 */
}

#[metadata]
{
  "root": 1, 
  "nodes": [
    {
      "type_key": ""
    }, 
    {
      "type_key": "Map", 
      "keys": [
        "relay.Constant"
      ], 
      "data": [2]
    }, 
    {
      "type_key": "Array", 
      "data": [3]
    }, 
    {
      "type_key": "relay.Constant", 
      "attrs": {
        "_checked_type_": "8", 
        "data": "0", 
        "span": "6", 
        "virtual_device_": "4"
      }
    }, 
    {
      "type_key": "VirtualDevice", 
      "attrs": {
        "device_type_int": "-1", 
        "memory_scope": "5", 
        "target": "0", 
        "virtual_device_id": "-1"
      }
    }, 
    {
      "type_key": "runtime.String"
    }, 
    {
      "type_key": "Span", 
      "attrs": {
        "column": "23", 
        "end_column": "41", 
        "end_line": "61", 
        "line": "61", 
        "source_name": "7"
      }
    }, 
    {
      "type_key": "SourceName", 
      "repr_str": "from_string"
    }, 
    {
      "type_key": "relay.TensorType", 
      "attrs": {
        "dtype": "int32", 
        "shape": "9", 
        "span": "0"
      }
    }, 
    {
      "type_key": "Array", 
      "data": [10]
    }, 
    {
      "type_key": "IntImm", 
      "attrs": {
        "dtype": "int32", 
        "span": "0", 
        "value": "3"
      }
    }
  ], 
  "b64ndarrays": [
    "P6G0lvBAXt0AAAAAAAAAAAEAAAAAAAAAAQAAAAAgAQADAAAAAAAAAAwAAAAAAAAAAgAAAAcAAAACAAAA"
  ], 
  "attrs": {"tvm_version": "0.13.0"}
}