#[version = "0.0.5"]
def @main(%x0: Tensor[(4, 7), float32] /* ty=Tensor[(4, 7), float32] span=from_string:3:22 */, %x1: Tensor[(2, 7, 2), float32] /* ty=Tensor[(2, 7, 2), float32] */, %x2: Tensor[(2, 7, 2), float32] /* ty=Tensor[(2, 7, 2), float32] span=from_string:6:35 */, %x3: Tensor[(2, 77, 2), float32] /* ty=Tensor[(2, 77, 2), float32] span=from_string:8:30 */, %x4: Tensor[(2, 7, 2), float32] /* ty=Tensor[(2, 7, 2), float32] span=from_string:7:35 */, %x5: Tensor[(2, 7, 2), float32] /* ty=Tensor[(2, 7, 2), float32] span=from_string:11:24 */, %x6: Tensor[(14, 2), float32] /* ty=Tensor[(14, 2), float32] */, %x7: float32 /* ty=float32 span=from_string:19:32 */) -> (Tensor[(4, 7), float32], int32, (Tensor[(2, 77, 7), float32], Tensor[(2, 77, 7), float32], Tensor[(2, 77, 7), float32]), Tensor[(2, 7, 2), float32], Tensor[(2, 7, 2), float32], Tensor[(1), float32], Tensor[(3), int32]) {
  %0 = fn (%p0: Tensor[(4, 7), float32] /* ty=Tensor[(4, 7), float32] */, Primitive=1, relay.reshape_only=1) -> Tensor[(2, 7, 2), float32] {
    reshape(%p0, newshape=[2, 7, 2]) /* ty=Tensor[(2, 7, 2), float32] span=from_string:3:14 */
  } /* ty=fn (Tensor[(4, 7), float32]) -> Tensor[(2, 7, 2), float32] */;
  let %x_0: Tensor[(2, 7, 2), float32] /* ty=Tensor[(2, 7, 2), float32] span=from_string:4:22 */ = %0(%x0) /* ty=Tensor[(2, 7, 2), float32] */;
  %1 = fn (%p01: Tensor[(2, 7, 2), float32] /* ty=Tensor[(2, 7, 2), float32] */, Primitive=1, relay.reshape_only=1) -> Tensor[(4, 7), float32] {
    reshape(%p01, newshape=[4, 7]) /* ty=Tensor[(4, 7), float32] span=from_string:4:14 */
  } /* ty=fn (Tensor[(2, 7, 2), float32]) -> Tensor[(4, 7), float32] */;
  let %x_1: Tensor[(4, 7), float32] /* ty=Tensor[(4, 7), float32] span=from_string:21:16 */ = %1(%x_0) /* ty=Tensor[(4, 7), float32] */;
  let %x_2: int32 /* ty=int32 span=from_string:21:22 */ = 0 /* ty=int32 span=from_string:5:15 */;
  %2 = fn (%p02: Tensor[(2, 77, 2), float32] /* ty=Tensor[(2, 77, 2), float32] */, %p1: Tensor[(2, 7, 2), float32] /* ty=Tensor[(2, 7, 2), float32] */, Primitive=1) -> Tensor[(2, 77, 7), float32] {
    nn.batch_matmul(%p02, %p1, transpose_b=True) /* ty=Tensor[(2, 77, 7), float32] span=from_string:6:14 */
  } /* ty=fn (Tensor[(2, 77, 2), float32], Tensor[(2, 7, 2), float32]) -> Tensor[(2, 77, 7), float32] */;
  let %x_3: Tensor[(2, 77, 7), float32] /* ty=Tensor[(2, 77, 7), float32] span=from_string:9:15 */ = %2(%x3, %x2) /* ty=Tensor[(2, 77, 7), float32] */;
  %3 = fn (%p03: Tensor[(2, 77, 2), float32] /* ty=Tensor[(2, 77, 2), float32] */, %p11: Tensor[(2, 7, 2), float32] /* ty=Tensor[(2, 7, 2), float32] */, Primitive=1) -> Tensor[(2, 77, 7), float32] {
    nn.batch_matmul(%p03, %p11, transpose_b=True) /* ty=Tensor[(2, 77, 7), float32] span=from_string:7:14 */
  } /* ty=fn (Tensor[(2, 77, 2), float32], Tensor[(2, 7, 2), float32]) -> Tensor[(2, 77, 7), float32] */;
  let %x_4: Tensor[(2, 77, 7), float32] /* ty=Tensor[(2, 77, 7), float32] span=from_string:9:21 */ = %3(%x3, %x4) /* ty=Tensor[(2, 77, 7), float32] */;
  %4 = fn (%p04: Tensor[(2, 77, 2), float32] /* ty=Tensor[(2, 77, 2), float32] */, %p12: Tensor[(2, 7, 2), float32] /* ty=Tensor[(2, 7, 2), float32] */, Primitive=1) -> Tensor[(2, 77, 7), float32] {
    nn.batch_matmul(%p04, %p12, transpose_b=True) /* ty=Tensor[(2, 77, 7), float32] span=from_string:8:14 */
  } /* ty=fn (Tensor[(2, 77, 2), float32], Tensor[(2, 7, 2), float32]) -> Tensor[(2, 77, 7), float32] */;
  let %x_5: Tensor[(2, 77, 7), float32] /* ty=Tensor[(2, 77, 7), float32] span=from_string:9:27 */ = %4(%x3, %x5) /* ty=Tensor[(2, 77, 7), float32] */;
  let %x_6: (Tensor[(2, 77, 7), float32], Tensor[(2, 77, 7), float32], Tensor[(2, 77, 7), float32]) /* ty=(Tensor[(2, 77, 7), float32], Tensor[(2, 77, 7), float32], Tensor[(2, 77, 7), float32]) span=from_string:21:28 */ = (%x_3, %x_4, %x_5) /* ty=(Tensor[(2, 77, 7), float32], Tensor[(2, 77, 7), float32], Tensor[(2, 77, 7), float32]) span=from_string:9:14 */;
  let %x_7: float32 /* ty=float32 span=from_string:11:18 */ = 2f /* ty=float32 span=from_string:10:16 */;
  %5 = fn (%p05: float32 /* ty=float32 */, %p13: Tensor[(2, 7, 2), float32] /* ty=Tensor[(2, 7, 2), float32] */, Primitive=1) -> Tensor[(2, 7, 2), float32] {
    add(%p05, %p13) /* ty=Tensor[(2, 7, 2), float32] span=from_string:11:14 */
  } /* ty=fn (float32, Tensor[(2, 7, 2), float32]) -> Tensor[(2, 7, 2), float32] */;
  let %x_8: Tensor[(2, 7, 2), float32] /* ty=Tensor[(2, 7, 2), float32] span=from_string:14:23 */ = %5(%x_7, %x5) /* ty=Tensor[(2, 7, 2), float32] */;
  %6 = fn (Primitive=1) -> Tensor[(1), float32] {
    zeros(shape=[1], dtype="float32") /* ty=Tensor[(1), float32] span=from_string:12:14 */
  } /* ty=fn () -> Tensor[(1), float32] */;
  let %x_9: Tensor[(1), float32] /* ty=Tensor[(1), float32] span=from_string:17:19 */ = %6() /* ty=Tensor[(1), float32] */;
  %7 = fn (%p06: Tensor[(2, 7, 2), float32] /* ty=Tensor[(2, 7, 2), float32] */, %p14: Tensor[(1), float32] /* ty=Tensor[(1), float32] */, Primitive=1) -> Tensor[(2, 7, 2), float32] {
    add(%p06, %p14) /* ty=Tensor[(2, 7, 2), float32] span=from_string:13:15 */
  } /* ty=fn (Tensor[(2, 7, 2), float32], Tensor[(1), float32]) -> Tensor[(2, 7, 2), float32] */;
  let %x_10: Tensor[(2, 7, 2), float32] /* ty=Tensor[(2, 7, 2), float32] span=from_string:21:34 */ = %7(%x_8, %x_9) /* ty=Tensor[(2, 7, 2), float32] */;
  %8 = fn (%p07: Tensor[(2, 7, 2), float32] /* ty=Tensor[(2, 7, 2), float32] */, Primitive=1, relay.reshape_only=1) -> Tensor[(14, 2), float32] {
    reshape(%p07, newshape=[14, 2]) /* ty=Tensor[(14, 2), float32] span=from_string:14:15 */
  } /* ty=fn (Tensor[(2, 7, 2), float32]) -> Tensor[(14, 2), float32] */;
  let %x_11: Tensor[(14, 2), float32] /* ty=Tensor[(14, 2), float32] span=from_string:15:23 */ = %8(%x_8) /* ty=Tensor[(14, 2), float32] */;
  %9 = fn (%p08: Tensor[(14, 2), float32] /* ty=Tensor[(14, 2), float32] */, Primitive=1, relay.reshape_only=1) -> Tensor[(2, 7, 2), float32] {
    reshape(%p08, newshape=[2, 7, 2]) /* ty=Tensor[(2, 7, 2), float32] span=from_string:15:15 */
  } /* ty=fn (Tensor[(14, 2), float32]) -> Tensor[(2, 7, 2), float32] */;
  let %x_12: Tensor[(2, 7, 2), float32] /* ty=Tensor[(2, 7, 2), float32] span=from_string:21:41 */ = %9(%x_11) /* ty=Tensor[(2, 7, 2), float32] */;
  %10 = fn (%p09: Tensor[(1), float32] /* ty=Tensor[(1), float32] */, Primitive=1) -> Tensor[(1), float32] {
    ones_like(%p09) /* ty=Tensor[(1), float32] span=from_string:16:15 */
  } /* ty=fn (Tensor[(1), float32]) -> Tensor[(1), float32] */;
  let %x_13: Tensor[(1), float32] /* ty=Tensor[(1), float32] span=from_string:17:25 */ = %10(%x_9) /* ty=Tensor[(1), float32] */;
  %11 = fn (%p010: Tensor[(1), float32] /* ty=Tensor[(1), float32] */, %p15: Tensor[(1), float32] /* ty=Tensor[(1), float32] */, Primitive=1) -> Tensor[(1), float32] {
    add(%p010, %p15) /* ty=Tensor[(1), float32] span=from_string:17:15 */
  } /* ty=fn (Tensor[(1), float32], Tensor[(1), float32]) -> Tensor[(1), float32] */;
  let %x_14: Tensor[(1), float32] /* ty=Tensor[(1), float32] span=from_string:21:48 */ = %11(%x_9, %x_13) /* ty=Tensor[(1), float32] */;
  let %x_15: Tensor[(3), int32] /* ty=Tensor[(3), int32] span=from_string:19:25 */ = meta[relay.Constant][0] /* ty=Tensor[(3), int32] span=from_string:18:20 */;
  %12 = fn (%p011: Tensor[(3), int32] /* ty=Tensor[(3), int32] */, %p16: float32 /* ty=float32 */, Primitive=1) -> Tensor[(3), int32] {
    full_like(%p011, %p16) /* ty=Tensor[(3), int32] span=from_string:19:15 */
  } /* ty=fn (Tensor[(3), int32], float32) -> Tensor[(3), int32] */;
  let %x_16: Tensor[(3), int32] /* ty=Tensor[(3), int32] span=from_string:20:26 */ = %12(%x_15, %x7) /* ty=Tensor[(3), int32] */;
  %13 = fn (%p012: Tensor[(3), int32] /* ty=Tensor[(3), int32] */, Primitive=1) -> Tensor[(3), int32] {
    zeros_like(%p012) /* ty=Tensor[(3), int32] span=from_string:20:15 */
  } /* ty=fn (Tensor[(3), int32]) -> Tensor[(3), int32] */;
  let %x_17: Tensor[(3), int32] /* ty=Tensor[(3), int32] span=from_string:21:55 */ = %13(%x_16) /* ty=Tensor[(3), int32] */;
  let %x_18: (Tensor[(4, 7), float32], int32, (Tensor[(2, 77, 7), float32], Tensor[(2, 77, 7), float32], Tensor[(2, 77, 7), float32]), Tensor[(2, 7, 2), float32], Tensor[(2, 7, 2), float32], Tensor[(1), float32], Tensor[(3), int32]) /* ty=(Tensor[(4, 7), float32], int32, (Tensor[(2, 77, 7), float32], Tensor[(2, 77, 7), float32], Tensor[(2, 77, 7), float32]), Tensor[(2, 7, 2), float32], Tensor[(2, 7, 2), float32], Tensor[(1), float32], Tensor[(3), int32]) span=from_string:22:3 */ = (%x_1, %x_2, %x_6, %x_10, %x_12, %x_14, %x_17) /* ty=(Tensor[(4, 7), float32], int32, (Tensor[(2, 77, 7), float32], Tensor[(2, 77, 7), float32], Tensor[(2, 77, 7), float32]), Tensor[(2, 7, 2), float32], Tensor[(2, 7, 2), float32], Tensor[(1), float32], Tensor[(3), int32]) span=from_string:21:15 */;
  %x_18
}

#[metadata]
{
  "root": 1, 
  "nodes": [
    {
      "type_key": ""
    }, 
    {
      "type_key": "Map", 
      "keys": [
        "relay.Constant"
      ], 
      "data": [2]
    }, 
    {
      "type_key": "Array", 
      "data": [3]
    }, 
    {
      "type_key": "relay.Constant", 
      "attrs": {
        "_checked_type_": "8", 
        "data": "0", 
        "span": "6", 
        "virtual_device_": "4"
      }
    }, 
    {
      "type_key": "VirtualDevice", 
      "attrs": {
        "device_type_int": "-1", 
        "memory_scope": "5", 
        "target": "0", 
        "virtual_device_id": "-1"
      }
    }, 
    {
      "type_key": "runtime.String"
    }, 
    {
      "type_key": "Span", 
      "attrs": {
        "column": "20", 
        "end_column": "38", 
        "end_line": "18", 
        "line": "18", 
        "source_name": "7"
      }
    }, 
    {
      "type_key": "SourceName", 
      "repr_str": "from_string"
    }, 
    {
      "type_key": "relay.TensorType", 
      "attrs": {
        "dtype": "int32", 
        "shape": "9", 
        "span": "0"
      }
    }, 
    {
      "type_key": "Array", 
      "data": [10]
    }, 
    {
      "type_key": "IntImm", 
      "attrs": {
        "dtype": "int32", 
        "span": "0", 
        "value": "3"
      }
    }
  ], 
  "b64ndarrays": [
    "P6G0lvBAXt0AAAAAAAAAAAEAAAAAAAAAAQAAAAAgAQADAAAAAAAAAAwAAAAAAAAAAgAAAAcAAAACAAAA"
  ], 
  "attrs": {"tvm_version": "0.13.0"}
}