#[version = "0.0.5"]
def @main(%x0: Tensor[(4, 7), float32] /* ty=Tensor[(4, 7), float32] span=from_string:3:13 */, %x1: Tensor[(2, 7, 2), float32] /* ty=Tensor[(2, 7, 2), float32] */, %x2: Tensor[(2, 7, 2), float32] /* ty=Tensor[(2, 7, 2), float32] span=from_string:6:13 */, %x3: Tensor[(2, 77, 2), float32] /* ty=Tensor[(2, 77, 2), float32] span=from_string:5:13 */, %x4: Tensor[(2, 7, 2), float32] /* ty=Tensor[(2, 7, 2), float32] span=from_string:7:13 */, %x5: Tensor[(2, 7, 2), float32] /* ty=Tensor[(2, 7, 2), float32] span=from_string:8:13 */, %x6: Tensor[(14, 2), float32] /* ty=Tensor[(14, 2), float32] */, %x7: float32 /* ty=float32 span=from_string:16:14 */) -> (Tensor[(4, 7), float16], int32, (Tensor[(2, 77, 7), float16], Tensor[(2, 77, 7), float16], Tensor[(2, 77, 7), float16]), Tensor[(2, 7, 2), float16], Tensor[(2, 7, 2), float16], Tensor[(1), float16], Tensor[(3), int32]) {
  %0 = cast(%x0, dtype="float16") /* ty=Tensor[(4, 7), float16] span=from_string:4:16 */;
  %1 = cast(%x3, dtype="float16") /* ty=Tensor[(2, 77, 2), float16] span=from_string:11:24 */;
  %2 = cast(%x2, dtype="float16") /* ty=Tensor[(2, 7, 2), float16] span=from_string:9:28 */;
  %3 = cast(%x4, dtype="float16") /* ty=Tensor[(2, 7, 2), float16] span=from_string:10:28 */;
  %4 = cast(%x5, dtype="float16") /* ty=Tensor[(2, 7, 2), float16] span=from_string:12:35 */;
  %5 = nn.batch_matmul(%1, %2, out_dtype="float16", transpose_b=True) /* ty=Tensor[(2, 77, 7), float16] span=from_string:19:10 */;
  %6 = nn.batch_matmul(%1, %3, out_dtype="float16", transpose_b=True) /* ty=Tensor[(2, 77, 7), float16] span=from_string:19:14 */;
  %7 = nn.batch_matmul(%1, %4, out_dtype="float16", transpose_b=True) /* ty=Tensor[(2, 77, 7), float16] span=from_string:19:18 */;
  %8 = add(2f16 /* ty=float16 span=from_string:12:16 */, %4) /* ty=Tensor[(2, 7, 2), float16] span=from_string:20:13 */;
  %9 = zeros(shape=[1], dtype="float16") /* ty=Tensor[(1), float16] span=from_string:22:13 */;
  %10 = ones(shape=[1], dtype="float16") /* ty=Tensor[(1), float16] */;
  %11 = reshape(%0, newshape=[4, 7]) /* ty=Tensor[(4, 7), float16] */;
  %12 = (%5, %6, %7) /* ty=(Tensor[(2, 77, 7), float16], Tensor[(2, 77, 7), float16], Tensor[(2, 77, 7), float16]) span=from_string:24:50 */;
  %13 = add(%8, %9) /* ty=Tensor[(2, 7, 2), float16] span=from_string:24:55 */;
  %14 = reshape(%8, newshape=[2, 7, 2]) /* ty=Tensor[(2, 7, 2), float16] */;
  %15 = add(%9, %10) /* ty=Tensor[(1), float16] span=from_string:24:65 */;
  %16 = zeros(shape=[3], dtype="int32") /* ty=Tensor[(3), int32] */;
  (%11, 0 /* ty=int32 span=from_string:24:10 */, %12, %13, %14, %15, %16) /* ty=(Tensor[(4, 7), float16], int32, (Tensor[(2, 77, 7), float16], Tensor[(2, 77, 7), float16], Tensor[(2, 77, 7), float16]), Tensor[(2, 7, 2), float16], Tensor[(2, 7, 2), float16], Tensor[(1), float16], Tensor[(3), int32]) span=from_string:3:3 */
}
