#[version = "0.0.5"]
def @main(%x0: Tensor[(4, 7), float32] /* ty=Tensor[(4, 7), float32] span=from_string:7:19 */, %x1: Tensor[(2, 7, 2), float32] /* ty=Tensor[(2, 7, 2), float32] */, %x2: Tensor[(2, 7, 2), float32] /* ty=Tensor[(2, 7, 2), float32] span=from_string:14:24 */, %x3: Tensor[(2, 77, 2), float32] /* ty=Tensor[(2, 77, 2), float32] span=from_string:26:19 */, %x4: Tensor[(2, 7, 2), float32] /* ty=Tensor[(2, 7, 2), float32] span=from_string:20:24 */, %x5: Tensor[(2, 7, 2), float32] /* ty=Tensor[(2, 7, 2), float32] span=from_string:33:21 */, %x6: Tensor[(14, 2), float32] /* ty=Tensor[(14, 2), float32] */, %x7: float32 /* ty=float32 */) -> (Tensor[(4, 7), float16], int32, (Tensor[(2, 77, 7), float16], Tensor[(2, 77, 7), float16], Tensor[(2, 77, 7), float16]), Tensor[(2, 7, 2), float16], Tensor[(2, 7, 2), float16], Tensor[(1), float16], Tensor[(3), int32]) {
  let %x_0: fn (Tensor[(4, 7), float32]) -> Tensor[(4, 7), float16] /* ty=fn (Tensor[(4, 7), float32]) -> Tensor[(4, 7), float16] span=from_string:7:14 */ = fn (%p0: Tensor[(4, 7), float32] /* ty=Tensor[(4, 7), float32] span=from_string:4:15 */, Primitive=1, relay.reshape_only=1) -> Tensor[(4, 7), float16] {
    %0 = cast(%p0, dtype="float16") /* ty=Tensor[(4, 7), float16] span=from_string:5:13 */;
    reshape(%0, newshape=[4, 7]) /* ty=Tensor[(4, 7), float16] span=from_string:4:5 */
  } /* ty=fn (Tensor[(4, 7), float32]) -> Tensor[(4, 7), float16] span=from_string:3:3 */;
  let %x_1: Tensor[(4, 7), float16] /* ty=Tensor[(4, 7), float16] span=from_string:61:16 */ = %x_0(%x0) /* ty=Tensor[(4, 7), float16] span=from_string:7:14 */;
  let %x_2: int32 /* ty=int32 span=from_string:61:22 */ = 0 /* ty=int32 span=from_string:8:15 */;
  let %x_3: fn (Tensor[(2, 77, 2), float32], Tensor[(2, 7, 2), float32]) -> Tensor[(2, 77, 7), float16] /* ty=fn (Tensor[(2, 77, 2), float32], Tensor[(2, 7, 2), float32]) -> Tensor[(2, 77, 7), float16] span=from_string:14:14 */ = fn (%p01: Tensor[(2, 77, 2), float32] /* ty=Tensor[(2, 77, 2), float32] span=from_string:10:15 */, %p1: Tensor[(2, 7, 2), float32] /* ty=Tensor[(2, 7, 2), float32] span=from_string:11:15 */, Primitive=1) -> Tensor[(2, 77, 7), float16] {
    %1 = cast(%p01, dtype="float16") /* ty=Tensor[(2, 77, 2), float16] span=from_string:12:21 */;
    %2 = cast(%p1, dtype="float16") /* ty=Tensor[(2, 7, 2), float16] span=from_string:12:25 */;
    nn.batch_matmul(%1, %2, out_dtype="float16", transpose_b=True) /* ty=Tensor[(2, 77, 7), float16] span=from_string:10:5 */
  } /* ty=fn (Tensor[(2, 77, 2), float32], Tensor[(2, 7, 2), float32]) -> Tensor[(2, 77, 7), float16] span=from_string:9:3 */;
  let %x_4: Tensor[(2, 77, 7), float16] /* ty=Tensor[(2, 77, 7), float16] span=from_string:27:15 */ = %x_3(%x3, %x2) /* ty=Tensor[(2, 77, 7), float16] span=from_string:14:14 */;
  let %x_5: fn (Tensor[(2, 77, 2), float32], Tensor[(2, 7, 2), float32]) -> Tensor[(2, 77, 7), float16] /* ty=fn (Tensor[(2, 77, 2), float32], Tensor[(2, 7, 2), float32]) -> Tensor[(2, 77, 7), float16] span=from_string:20:14 */ = fn (%p02: Tensor[(2, 77, 2), float32] /* ty=Tensor[(2, 77, 2), float32] span=from_string:16:15 */, %p11: Tensor[(2, 7, 2), float32] /* ty=Tensor[(2, 7, 2), float32] span=from_string:17:15 */, Primitive=1) -> Tensor[(2, 77, 7), float16] {
    %3 = cast(%p02, dtype="float16") /* ty=Tensor[(2, 77, 2), float16] span=from_string:18:21 */;
    %4 = cast(%p11, dtype="float16") /* ty=Tensor[(2, 7, 2), float16] span=from_string:18:25 */;
    nn.batch_matmul(%3, %4, out_dtype="float16", transpose_b=True) /* ty=Tensor[(2, 77, 7), float16] span=from_string:16:5 */
  } /* ty=fn (Tensor[(2, 77, 2), float32], Tensor[(2, 7, 2), float32]) -> Tensor[(2, 77, 7), float16] span=from_string:15:3 */;
  let %x_6: Tensor[(2, 77, 7), float16] /* ty=Tensor[(2, 77, 7), float16] span=from_string:27:21 */ = %x_5(%x3, %x4) /* ty=Tensor[(2, 77, 7), float16] span=from_string:20:14 */;
  let %x_7: fn (Tensor[(2, 77, 2), float32], Tensor[(2, 7, 2), float32]) -> Tensor[(2, 77, 7), float16] /* ty=fn (Tensor[(2, 77, 2), float32], Tensor[(2, 7, 2), float32]) -> Tensor[(2, 77, 7), float16] span=from_string:26:14 */ = fn (%p03: Tensor[(2, 77, 2), float32] /* ty=Tensor[(2, 77, 2), float32] span=from_string:22:15 */, %p12: Tensor[(2, 7, 2), float32] /* ty=Tensor[(2, 7, 2), float32] span=from_string:23:15 */, Primitive=1) -> Tensor[(2, 77, 7), float16] {
    %5 = cast(%p03, dtype="float16") /* ty=Tensor[(2, 77, 2), float16] span=from_string:24:21 */;
    %6 = cast(%p12, dtype="float16") /* ty=Tensor[(2, 7, 2), float16] span=from_string:24:25 */;
    nn.batch_matmul(%5, %6, out_dtype="float16", transpose_b=True) /* ty=Tensor[(2, 77, 7), float16] span=from_string:22:5 */
  } /* ty=fn (Tensor[(2, 77, 2), float32], Tensor[(2, 7, 2), float32]) -> Tensor[(2, 77, 7), float16] span=from_string:21:3 */;
  let %x_8: Tensor[(2, 77, 7), float16] /* ty=Tensor[(2, 77, 7), float16] span=from_string:27:27 */ = %x_7(%x3, %x5) /* ty=Tensor[(2, 77, 7), float16] span=from_string:26:14 */;
  let %x_9: (Tensor[(2, 77, 7), float16], Tensor[(2, 77, 7), float16], Tensor[(2, 77, 7), float16]) /* ty=(Tensor[(2, 77, 7), float16], Tensor[(2, 77, 7), float16], Tensor[(2, 77, 7), float16]) span=from_string:61:28 */ = (%x_4, %x_6, %x_8) /* ty=(Tensor[(2, 77, 7), float16], Tensor[(2, 77, 7), float16], Tensor[(2, 77, 7), float16]) span=from_string:27:14 */;
  let %x_10: fn (Tensor[(2, 7, 2), float32]) -> Tensor[(2, 7, 2), float16] /* ty=fn (Tensor[(2, 7, 2), float32]) -> Tensor[(2, 7, 2), float16] span=from_string:33:15 */ = fn (%p05: Tensor[(2, 7, 2), float32] /* ty=Tensor[(2, 7, 2), float32] span=from_string:30:15 */, Primitive=1) -> Tensor[(2, 7, 2), float16] {
    %7 = cast(2f /* ty=float32 span=from_string:29:17 */, dtype="float16") /* ty=float16 span=from_string:31:9 */;
    %8 = cast(%p05, dtype="float16") /* ty=Tensor[(2, 7, 2), float16] span=from_string:31:13 */;
    add(%7, %8) /* ty=Tensor[(2, 7, 2), float16] span=from_string:29:5 */
  } /* ty=fn (Tensor[(2, 7, 2), float32]) -> Tensor[(2, 7, 2), float16] span=from_string:28:3 */;
  let %x_11: Tensor[(2, 7, 2), float16] /* ty=Tensor[(2, 7, 2), float16] span=from_string:34:20 */ = %x_10(%x5) /* ty=Tensor[(2, 7, 2), float16] span=from_string:33:15 */;
  let %x_12: Tensor[(2, 7, 2), float32] /* ty=Tensor[(2, 7, 2), float32] span=from_string:50:21 */ = cast(%x_11, dtype="float32") /* ty=Tensor[(2, 7, 2), float32] span=from_string:34:15 */;
  let %x_13: fn () -> Tensor[(1), float16] /* ty=fn () -> Tensor[(1), float16] span=from_string:38:15 */ = fn (Primitive=1) -> Tensor[(1), float16] {
    zeros(shape=[1], dtype="float16") /* ty=Tensor[(1), float16] span=from_string:36:5 */
  } /* ty=fn () -> Tensor[(1), float16] span=from_string:35:3 */;
  let %x_14: Tensor[(1), float16] /* ty=Tensor[(1), float16] span=from_string:39:20 */ = %x_13() /* ty=Tensor[(1), float16] span=from_string:38:15 */;
  let %x_15: Tensor[(1), float32] /* ty=Tensor[(1), float32] span=from_string:56:21 */ = cast(%x_14, dtype="float32") /* ty=Tensor[(1), float32] span=from_string:39:15 */;
  let %x_16: fn (Tensor[(2, 7, 2), float32], Tensor[(1), float32]) -> Tensor[(2, 7, 2), float16] /* ty=fn (Tensor[(2, 7, 2), float32], Tensor[(1), float32]) -> Tensor[(2, 7, 2), float16] span=from_string:45:15 */ = fn (%p04: Tensor[(2, 7, 2), float32] /* ty=Tensor[(2, 7, 2), float32] span=from_string:41:15 */, %p13: Tensor[(1), float32] /* ty=Tensor[(1), float32] span=from_string:42:16 */, Primitive=1) -> Tensor[(2, 7, 2), float16] {
    %9 = cast(%p04, dtype="float16") /* ty=Tensor[(2, 7, 2), float16] span=from_string:43:9 */;
    %10 = cast(%p13, dtype="float16") /* ty=Tensor[(1), float16] span=from_string:43:13 */;
    add(%9, %10) /* ty=Tensor[(2, 7, 2), float16] span=from_string:41:5 */
  } /* ty=fn (Tensor[(2, 7, 2), float32], Tensor[(1), float32]) -> Tensor[(2, 7, 2), float16] span=from_string:40:3 */;
  let %x_17: Tensor[(2, 7, 2), float16] /* ty=Tensor[(2, 7, 2), float16] span=from_string:61:34 */ = %x_16(%x_12, %x_15) /* ty=Tensor[(2, 7, 2), float16] span=from_string:45:15 */;
  let %x_18: fn (Tensor[(2, 7, 2), float32]) -> Tensor[(2, 7, 2), float16] /* ty=fn (Tensor[(2, 7, 2), float32]) -> Tensor[(2, 7, 2), float16] span=from_string:50:15 */ = fn (%p06: Tensor[(2, 7, 2), float32] /* ty=Tensor[(2, 7, 2), float32] span=from_string:47:16 */, Primitive=1, relay.reshape_only=1) -> Tensor[(2, 7, 2), float16] {
    %11 = cast(%p06, dtype="float16") /* ty=Tensor[(2, 7, 2), float16] span=from_string:48:13 */;
    reshape(%11, newshape=[2, 7, 2]) /* ty=Tensor[(2, 7, 2), float16] span=from_string:47:5 */
  } /* ty=fn (Tensor[(2, 7, 2), float32]) -> Tensor[(2, 7, 2), float16] span=from_string:46:3 */;
  let %x_19: Tensor[(2, 7, 2), float16] /* ty=Tensor[(2, 7, 2), float16] span=from_string:61:41 */ = %x_18(%x_12) /* ty=Tensor[(2, 7, 2), float16] span=from_string:50:15 */;
  let %x_20: fn (Tensor[(1), float32]) -> Tensor[(1), float16] /* ty=fn (Tensor[(1), float32]) -> Tensor[(1), float16] span=from_string:56:15 */ = fn (%p07: Tensor[(1), float32] /* ty=Tensor[(1), float32] span=from_string:52:16 */, Primitive=1) -> Tensor[(1), float16] {
    %12 = cast(%p07, dtype="float16") /* ty=Tensor[(1), float16] span=from_string:54:9 */;
    %13 = ones(shape=[1], dtype="float16") /* ty=Tensor[(1), float16] span=from_string:54:14 */;
    add(%12, %13) /* ty=Tensor[(1), float16] span=from_string:52:5 */
  } /* ty=fn (Tensor[(1), float32]) -> Tensor[(1), float16] span=from_string:51:3 */;
  let %x_21: Tensor[(1), float16] /* ty=Tensor[(1), float16] span=from_string:61:48 */ = %x_20(%x_15) /* ty=Tensor[(1), float16] span=from_string:56:15 */;
  let %x_22: fn () -> Tensor[(3), int32] /* ty=fn () -> Tensor[(3), int32] span=from_string:60:15 */ = fn (Primitive=1) -> Tensor[(3), int32] {
    zeros(shape=[3], dtype="int32") /* ty=Tensor[(3), int32] span=from_string:58:5 */
  } /* ty=fn () -> Tensor[(3), int32] span=from_string:57:3 */;
  let %x_23: Tensor[(3), int32] /* ty=Tensor[(3), int32] span=from_string:61:55 */ = %x_22() /* ty=Tensor[(3), int32] span=from_string:60:15 */;
  let %x_24: (Tensor[(4, 7), float16], int32, (Tensor[(2, 77, 7), float16], Tensor[(2, 77, 7), float16], Tensor[(2, 77, 7), float16]), Tensor[(2, 7, 2), float16], Tensor[(2, 7, 2), float16], Tensor[(1), float16], Tensor[(3), int32]) /* ty=(Tensor[(4, 7), float16], int32, (Tensor[(2, 77, 7), float16], Tensor[(2, 77, 7), float16], Tensor[(2, 77, 7), float16]), Tensor[(2, 7, 2), float16], Tensor[(2, 7, 2), float16], Tensor[(1), float16], Tensor[(3), int32]) span=from_string:62:3 */ = (%x_1, %x_2, %x_9, %x_17, %x_19, %x_21, %x_23) /* ty=(Tensor[(4, 7), float16], int32, (Tensor[(2, 77, 7), float16], Tensor[(2, 77, 7), float16], Tensor[(2, 77, 7), float16]), Tensor[(2, 7, 2), float16], Tensor[(2, 7, 2), float16], Tensor[(1), float16], Tensor[(3), int32]) span=from_string:61:15 */;
  %x_24
}
