#[version = "0.0.5"]
def @main(%x0: Tensor[(4, 7), float32] /* ty=Tensor[(4, 7), float32] span=from_string:8:16 */, %x1: Tensor[(2, 7, 2), float32] /* ty=Tensor[(2, 7, 2), float32] */, %x2: Tensor[(2, 7, 2), float32] /* ty=Tensor[(2, 7, 2), float32] span=from_string:3:29 */, %x3: Tensor[(2, 77, 2), float32] /* ty=Tensor[(2, 77, 2), float32] span=from_string:5:24 */, %x4: Tensor[(2, 7, 2), float32] /* ty=Tensor[(2, 7, 2), float32] span=from_string:4:29 */, %x5: Tensor[(2, 7, 2), float32] /* ty=Tensor[(2, 7, 2), float32] span=from_string:6:56 */, %x6: Tensor[(14, 2), float32] /* ty=Tensor[(14, 2), float32] */, %x7: float32 /* ty=float32 */) -> (Tensor[(4, 7), float32], int32, (Tensor[(2, 77, 7), float32], Tensor[(2, 77, 7), float32], Tensor[(2, 77, 7), float32]), Tensor[(2, 7, 2), float32], Tensor[(2, 7, 2), float32], Tensor[(1), float32], Tensor[(3), int32]) {
  let %x_0 = reshape(%x0, newshape=[4, 7]);
  let %x_1 = 0 /* ty=int32 span=from_string:14:9 */;
  let %x_2 = nn.batch_matmul(%x3, %x2, transpose_b=True);
  let %x_3 = nn.batch_matmul(%x3, %x4, transpose_b=True);
  let %x_4 = nn.batch_matmul(%x3, %x5, transpose_b=True);
  let %x_5 = (%x_2, %x_3, %x_4) /* ty=(Tensor[(2, 77, 7), float32], Tensor[(2, 77, 7), float32], Tensor[(2, 77, 7), float32]) span=from_string:14:49 */;
  let %x_6 = 2f /* ty=float32 span=from_string:6:14 */;
  let %x_7 = add(%x_6, %x5);
  let %x_8 = zeros(shape=[1], dtype="float32");
  let %x_9 = add(%x_7, %x_8);
  let %x_10 = reshape(%x_7, newshape=[2, 7, 2]);
  let %x_11 = 1f /* ty=float32 span=from_string:12:18 */;
  let %x_12 = add(%x_8, %x_11);
  let %x_13 = zeros(shape=[3], dtype="int32");
  let %x_14 = (%x_0, %x_1, %x_5, %x_9, %x_10, %x_12, %x_13) /* ty=(Tensor[(4, 7), float32], int32, (Tensor[(2, 77, 7), float32], Tensor[(2, 77, 7), float32], Tensor[(2, 77, 7), float32]), Tensor[(2, 7, 2), float32], Tensor[(2, 7, 2), float32], Tensor[(1), float32], Tensor[(3), int32]) span=from_string:3:3 */;
  %x_14
}
