#[version = "0.0.5"]
def @main(%x0: Tensor[(4, 7), float32] /* ty=Tensor[(4, 7), float32] span=from_string:3:13 */, %x1: Tensor[(2, 7, 2), float32] /* ty=Tensor[(2, 7, 2), float32] */, %x2: Tensor[(2, 7, 2), float32] /* ty=Tensor[(2, 7, 2), float32] span=from_string:7:13 */, %x3: Tensor[(2, 77, 2), float32] /* ty=Tensor[(2, 77, 2), float32] span=from_string:6:13 */, %x4: Tensor[(2, 7, 2), float32] /* ty=Tensor[(2, 7, 2), float32] span=from_string:8:13 */, %x5: Tensor[(2, 7, 2), float32] /* ty=Tensor[(2, 7, 2), float32] span=from_string:9:13 */, %x6: Tensor[(14, 2), float32] /* ty=Tensor[(14, 2), float32] */, %x7: float32 /* ty=float32 span=from_string:26:14 */) -> (Tensor[(4, 7), float16], int32, (Tensor[(2, 77, 7), float16], Tensor[(2, 77, 7), float16], Tensor[(2, 77, 7), float16]), Tensor[(2, 7, 2), float16], Tensor[(2, 7, 2), float16], Tensor[(1), float16], Tensor[(3), int32]) {
  %3 = fn (%p0: Tensor[(4, 7), float32] /* ty=Tensor[(4, 7), float32] */, Primitive=1) -> Tensor[(4, 7), float16] {
    %0 = cast(%p0, dtype="float16") /* ty=Tensor[(4, 7), float16] span=from_string:4:13 */;
    %1 = cast(%0, dtype="float16") /* ty=Tensor[(4, 7), float16] span=from_string:5:16 */;
    %2 = reshape(%1, newshape=[2, 7, 2]) /* ty=Tensor[(2, 7, 2), float16] span=from_string:29:17 */;
    reshape(%2, newshape=[4, 7]) /* ty=Tensor[(4, 7), float16] span=from_string:35:4 */
  } /* ty=fn (Tensor[(4, 7), float32]) -> Tensor[(4, 7), float16] */;
  %5 = fn (%p03: Tensor[(2, 77, 2), float32] /* ty=Tensor[(2, 77, 2), float32] */, Primitive=1) -> Tensor[(2, 77, 2), float16] {
    %4 = cast(%p03, dtype="float16") /* ty=Tensor[(2, 77, 2), float16] span=from_string:14:14 */;
    cast(%4, dtype="float16") /* ty=Tensor[(2, 77, 2), float16] span=from_string:16:25 */
  } /* ty=fn (Tensor[(2, 77, 2), float32]) -> Tensor[(2, 77, 2), float16] */;
  %12 = fn (%p05: Tensor[(2, 7, 2), float32] /* ty=Tensor[(2, 7, 2), float32] */, Primitive=1) -> Tensor[(2, 7, 2), float16] {
    %11 = cast(%p05, dtype="float16") /* ty=Tensor[(2, 7, 2), float16] span=from_string:12:13 */;
    cast(%11, dtype="float16") /* ty=Tensor[(2, 7, 2), float16] span=from_string:22:18 */
  } /* ty=fn (Tensor[(2, 7, 2), float32]) -> Tensor[(2, 7, 2), float16] */;
  %13 = %12(%x5) /* ty=Tensor[(2, 7, 2), float16] */;
  %14 = fn (%p04: Tensor[(2, 7, 2), float32] /* ty=Tensor[(2, 7, 2), float32] */, %p11: Tensor[(2, 7, 2), float32] /* ty=Tensor[(2, 7, 2), float32] */, %p2: Tensor[(2, 7, 2), float16] /* ty=Tensor[(2, 7, 2), float16] */, Primitive=1) -> Tensor[(2, 21, 2), float16] {
    %6 = cast(%p04, dtype="float16") /* ty=Tensor[(2, 7, 2), float16] span=from_string:10:13 */;
    %7 = cast(%p11, dtype="float16") /* ty=Tensor[(2, 7, 2), float16] span=from_string:11:13 */;
    %8 = cast(%6, dtype="float16") /* ty=Tensor[(2, 7, 2), float16] span=from_string:13:10 */;
    %9 = cast(%7, dtype="float16") /* ty=Tensor[(2, 7, 2), float16] span=from_string:13:14 */;
    %10 = (%8, %9, %p2) /* ty=(Tensor[(2, 7, 2), float16], Tensor[(2, 7, 2), float16], Tensor[(2, 7, 2), float16]) span=from_string:15:21 */;
    concatenate(%10, axis=1) /* ty=Tensor[(2, 21, 2), float16] span=from_string:16:30 */
  } /* ty=fn (Tensor[(2, 7, 2), float32], Tensor[(2, 7, 2), float32], Tensor[(2, 7, 2), float16]) -> Tensor[(2, 21, 2), float16] */;
  %15 = %5(%x3) /* ty=Tensor[(2, 77, 2), float16] */;
  %16 = %14(%x2, %x4, %13) /* ty=Tensor[(2, 21, 2), float16] */;
  %17 = fn (%p02: Tensor[(2, 77, 2), float16] /* ty=Tensor[(2, 77, 2), float16] */, %p1: Tensor[(2, 21, 2), float16] /* ty=Tensor[(2, 21, 2), float16] */, Primitive=1) -> Tensor[(2, 77, 21), float16] {
    nn.batch_matmul(%p02, %p1, out_dtype="float16", transpose_b=True) /* ty=Tensor[(2, 77, 21), float16] span=from_string:19:23 */
  } /* ty=fn (Tensor[(2, 77, 2), float16], Tensor[(2, 21, 2), float16]) -> Tensor[(2, 77, 21), float16] */;
  %18 = %17(%15, %16) /* ty=Tensor[(2, 77, 21), float16] */;
  %19 = fn (%p01: Tensor[(2, 77, 21), float16] /* ty=Tensor[(2, 77, 21), float16] */, Primitive=1) -> Tensor[(2, 77, 7), float16] {
    strided_slice(%p01, begin=[0, 0, 0], end=[-1, -1, 7], strides=[1, 1, 1], slice_mode="size", axes=None) /* ty=Tensor[(2, 77, 7), float16] span=from_string:30:10 */
  } /* ty=fn (Tensor[(2, 77, 21), float16]) -> Tensor[(2, 77, 7), float16] */;
  %20 = fn (%p06: Tensor[(2, 77, 21), float16] /* ty=Tensor[(2, 77, 21), float16] */, Primitive=1) -> Tensor[(2, 77, 7), float16] {
    strided_slice(%p06, begin=[0, 0, 7], end=[-1, -1, 7], strides=[1, 1, 1], slice_mode="size", axes=None) /* ty=Tensor[(2, 77, 7), float16] span=from_string:30:15 */
  } /* ty=fn (Tensor[(2, 77, 21), float16]) -> Tensor[(2, 77, 7), float16] */;
  %21 = fn (%p07: Tensor[(2, 77, 21), float16] /* ty=Tensor[(2, 77, 21), float16] */, Primitive=1) -> Tensor[(2, 77, 7), float16] {
    strided_slice(%p07, begin=[0, 0, 14], end=[-1, -1, 7], strides=[1, 1, 1], slice_mode="size", axes=None) /* ty=Tensor[(2, 77, 7), float16] span=from_string:30:20 */
  } /* ty=fn (Tensor[(2, 77, 21), float16]) -> Tensor[(2, 77, 7), float16] */;
  %22 = %19(%18) /* ty=Tensor[(2, 77, 7), float16] */;
  %23 = %20(%18) /* ty=Tensor[(2, 77, 7), float16] */;
  %24 = %21(%18) /* ty=Tensor[(2, 77, 7), float16] */;
  %27 = fn (%p09: Tensor[(2, 7, 2), float16] /* ty=Tensor[(2, 7, 2), float16] */, Primitive=1) -> Tensor[(2, 7, 2), float16] {
    %25 = cast(2f /* ty=float32 span=from_string:20:16 */, dtype="float16") /* ty=float16 span=from_string:21:14 */;
    %26 = cast(%25, dtype="float16") /* ty=float16 span=from_string:22:13 */;
    add(%26, %p09) /* ty=Tensor[(2, 7, 2), float16] span=from_string:31:13 */
  } /* ty=fn (Tensor[(2, 7, 2), float16]) -> Tensor[(2, 7, 2), float16] */;
  %28 = fn (Primitive=1) -> Tensor[(1), float16] {
    zeros(shape=[1], dtype="float16") /* ty=Tensor[(1), float16] span=from_string:33:13 */
  } /* ty=fn () -> Tensor[(1), float16] */;
  %29 = %27(%13) /* ty=Tensor[(2, 7, 2), float16] */;
  %30 = %28() /* ty=Tensor[(1), float16] */;
  %31 = fn (%p08: Tensor[(2, 7, 2), float16] /* ty=Tensor[(2, 7, 2), float16] */, %p12: Tensor[(1), float16] /* ty=Tensor[(1), float16] */, Primitive=1) -> Tensor[(2, 7, 2), float16] {
    add(%p08, %p12) /* ty=Tensor[(2, 7, 2), float16] span=from_string:35:55 */
  } /* ty=fn (Tensor[(2, 7, 2), float16], Tensor[(1), float16]) -> Tensor[(2, 7, 2), float16] */;
  %33 = fn (%p010: Tensor[(2, 7, 2), float16] /* ty=Tensor[(2, 7, 2), float16] */, Primitive=1, relay.reshape_only=1) -> Tensor[(2, 7, 2), float16] {
    %32 = reshape(%p010, newshape=[14, 2]) /* ty=Tensor[(14, 2), float16] span=from_string:32:17 */;
    reshape(%32, newshape=[2, 7, 2]) /* ty=Tensor[(2, 7, 2), float16] span=from_string:35:60 */
  } /* ty=fn (Tensor[(2, 7, 2), float16]) -> Tensor[(2, 7, 2), float16] */;
  %35 = fn (%p011: Tensor[(1), float16] /* ty=Tensor[(1), float16] */, Primitive=1) -> Tensor[(1), float16] {
    %34 = ones_like(%p011) /* ty=Tensor[(1), float16] span=from_string:33:18 */;
    add(%p011, %34) /* ty=Tensor[(1), float16] span=from_string:35:65 */
  } /* ty=fn (Tensor[(1), float16]) -> Tensor[(1), float16] */;
  %39 = fn (%p012: float32 /* ty=float32 */, %p13: Tensor[(3), int32] /* ty=Tensor[(3), int32] */, Primitive=1) -> Tensor[(3), int32] {
    %36 = cast(%p012, dtype="float16") /* ty=float16 span=from_string:27:14 */;
    %37 = cast(%36, dtype="float16") /* ty=float16 span=from_string:28:95 */;
    %38 = full_like(%p13, %37) /* ty=Tensor[(3), int32] span=from_string:34:20 */;
    zeros_like(%38) /* ty=Tensor[(3), int32] span=from_string:35:70 */
  } /* ty=fn (float32, Tensor[(3), int32]) -> Tensor[(3), int32] */;
  %40 = %3(%x0) /* ty=Tensor[(4, 7), float16] */;
  %41 = (%22, %23, %24) /* ty=(Tensor[(2, 77, 7), float16], Tensor[(2, 77, 7), float16], Tensor[(2, 77, 7), float16]) span=from_string:35:50 */;
  %42 = %31(%29, %30) /* ty=Tensor[(2, 7, 2), float16] */;
  %43 = %33(%29) /* ty=Tensor[(2, 7, 2), float16] */;
  %44 = %35(%30) /* ty=Tensor[(1), float16] */;
  %45 = %39(%x7, meta[relay.Constant][0] /* ty=Tensor[(3), int32] span=from_string:28:24 */) /* ty=Tensor[(3), int32] */;
  (%40, 0 /* ty=int32 span=from_string:35:10 */, %41, %42, %43, %44, %45) /* ty=(Tensor[(4, 7), float16], int32, (Tensor[(2, 77, 7), float16], Tensor[(2, 77, 7), float16], Tensor[(2, 77, 7), float16]), Tensor[(2, 7, 2), float16], Tensor[(2, 7, 2), float16], Tensor[(1), float16], Tensor[(3), int32]) span=from_string:3:3 */
}

#[metadata]
{
  "root": 1, 
  "nodes": [
    {
      "type_key": ""
    }, 
    {
      "type_key": "Map", 
      "keys": [
        "relay.Constant"
      ], 
      "data": [2]
    }, 
    {
      "type_key": "Array", 
      "data": [3]
    }, 
    {
      "type_key": "relay.Constant", 
      "attrs": {
        "_checked_type_": "8", 
        "data": "0", 
        "span": "6", 
        "virtual_device_": "4"
      }
    }, 
    {
      "type_key": "VirtualDevice", 
      "attrs": {
        "device_type_int": "-1", 
        "memory_scope": "5", 
        "target": "0", 
        "virtual_device_id": "-1"
      }
    }, 
    {
      "type_key": "runtime.String"
    }, 
    {
      "type_key": "Span", 
      "attrs": {
        "column": "24", 
        "end_column": "42", 
        "end_line": "28", 
        "line": "28", 
        "source_name": "7"
      }
    }, 
    {
      "type_key": "SourceName", 
      "repr_str": "from_string"
    }, 
    {
      "type_key": "relay.TensorType", 
      "attrs": {
        "dtype": "int32", 
        "shape": "9", 
        "span": "0"
      }
    }, 
    {
      "type_key": "Array", 
      "data": [10]
    }, 
    {
      "type_key": "IntImm", 
      "attrs": {
        "dtype": "int32", 
        "span": "0", 
        "value": "3"
      }
    }
  ], 
  "b64ndarrays": [
    "P6G0lvBAXt0AAAAAAAAAAAEAAAAAAAAAAQAAAAAgAQADAAAAAAAAAAwAAAAAAAAAAgAAAAcAAAACAAAA"
  ], 
  "attrs": {"tvm_version": "0.13.0"}
}