#[version = "0.0.5"]
def @main(%x0: Tensor[(4, 7), float32] /* ty=Tensor[(4, 7), float32] span=from_string:3:13 */, %x1: Tensor[(2, 7, 2), float32] /* ty=Tensor[(2, 7, 2), float32] */, %x2: Tensor[(2, 7, 2), float32] /* ty=Tensor[(2, 7, 2), float32] span=from_string:4:13 */, %x3: Tensor[(2, 77, 2), float32] /* ty=Tensor[(2, 77, 2), float32] span=from_string:8:13 */, %x4: Tensor[(2, 7, 2), float32] /* ty=Tensor[(2, 7, 2), float32] span=from_string:5:13 */, %x5: Tensor[(2, 7, 2), float32] /* ty=Tensor[(2, 7, 2), float32] span=from_string:6:13 */, %x6: Tensor[(14, 2), float32] /* ty=Tensor[(14, 2), float32] */, %x7: float32 /* ty=float32 */) -> (Tensor[(4, 7), float16], int32, (Tensor[(2, 77, 7), float16], Tensor[(2, 77, 7), float16], Tensor[(2, 77, 7), float16]), Tensor[(2, 7, 2), float16], Tensor[(2, 7, 2), float16], Tensor[(1), float16], Tensor[(3), int32]) {
  %0 = cast(%x0, dtype="float16") /* ty=Tensor[(4, 7), float16] */;
  %1 = cast(%0, dtype="float16") /* ty=Tensor[(4, 7), float16] span=from_string:17:17 */;
  %2 = cast(%x3, dtype="float16") /* ty=Tensor[(2, 77, 2), float16] */;
  %3 = cast(%x2, dtype="float16") /* ty=Tensor[(2, 7, 2), float16] */;
  %4 = cast(%x4, dtype="float16") /* ty=Tensor[(2, 7, 2), float16] */;
  %5 = cast(%x5, dtype="float16") /* ty=Tensor[(2, 7, 2), float16] */;
  %6 = cast(%3, dtype="float16") /* ty=Tensor[(2, 7, 2), float16] span=from_string:7:9 */;
  %7 = cast(%4, dtype="float16") /* ty=Tensor[(2, 7, 2), float16] span=from_string:7:13 */;
  %8 = cast(%5, dtype="float16") /* ty=Tensor[(2, 7, 2), float16] span=from_string:14:59 */;
  %9 = (%6, %7, %8) /* ty=(Tensor[(2, 7, 2), float16], Tensor[(2, 7, 2), float16], Tensor[(2, 7, 2), float16]) span=from_string:9:20 */;
  %10 = cast(%2, dtype="float16") /* ty=Tensor[(2, 77, 2), float16] span=from_string:10:24 */;
  %11 = concatenate(%9, axis=1) /* ty=Tensor[(2, 21, 2), float16] span=from_string:10:28 */;
  %12 = nn.batch_matmul(%10, %11, out_dtype="float16", transpose_b=True) /* ty=Tensor[(2, 77, 21), float16] span=from_string:13:23 */;
  %13 = strided_slice(%12, begin=[0, 0, 0], end=[-1, -1, 7], strides=[1, 1, 1], slice_mode="size", axes=None) /* ty=Tensor[(2, 77, 7), float16] span=from_string:18:10 */;
  %14 = strided_slice(%12, begin=[0, 0, 7], end=[-1, -1, 7], strides=[1, 1, 1], slice_mode="size", axes=None) /* ty=Tensor[(2, 77, 7), float16] span=from_string:18:14 */;
  %15 = strided_slice(%12, begin=[0, 0, 14], end=[-1, -1, 7], strides=[1, 1, 1], slice_mode="size", axes=None) /* ty=Tensor[(2, 77, 7), float16] span=from_string:18:18 */;
  %16 = add(2f16 /* ty=float16 span=from_string:14:17 */, %8) /* ty=Tensor[(2, 7, 2), float16] span=from_string:20:17 */;
  %17 = zeros(shape=[1], dtype="float16") /* ty=Tensor[(1), float16] span=from_string:21:13 */;
  %18 = ones(shape=[1], dtype="float16") /* ty=Tensor[(1), float16] span=from_string:21:18 */;
  %19 = reshape(%1, newshape=[4, 7]) /* ty=Tensor[(4, 7), float16] span=from_string:23:4 */;
  %20 = (%13, %14, %15) /* ty=(Tensor[(2, 77, 7), float16], Tensor[(2, 77, 7), float16], Tensor[(2, 77, 7), float16]) span=from_string:23:50 */;
  %21 = add(%16, %17) /* ty=Tensor[(2, 7, 2), float16] span=from_string:23:55 */;
  %22 = reshape(%16, newshape=[2, 7, 2]) /* ty=Tensor[(2, 7, 2), float16] span=from_string:23:60 */;
  %23 = add(%17, %18) /* ty=Tensor[(1), float16] span=from_string:23:65 */;
  %24 = zeros(shape=[3], dtype="int32") /* ty=Tensor[(3), int32] span=from_string:23:70 */;
  (%19, 0 /* ty=int32 span=from_string:23:10 */, %20, %21, %22, %23, %24) /* ty=(Tensor[(4, 7), float16], int32, (Tensor[(2, 77, 7), float16], Tensor[(2, 77, 7), float16], Tensor[(2, 77, 7), float16]), Tensor[(2, 7, 2), float16], Tensor[(2, 7, 2), float16], Tensor[(1), float16], Tensor[(3), int32]) span=from_string:3:3 */
}
