#[version = "0.0.5"]
def @main(%x0: Tensor[(1, 3, 100, 100), float32] /* ty=Tensor[(1, 3, 100, 100), float32] span=from_string:17:25 */, %x1: Tensor[(3, 100, 100), float32] /* ty=Tensor[(3, 100, 100), float32] */, %x2: Tensor[(64, 3, 3, 3), float32] /* ty=Tensor[(64, 3, 3, 3), float32] span=from_string:24:26 */, %x3: Tensor[(64, 100, 100), float32] /* ty=Tensor[(64, 100, 100), float32] */) -> (Tensor[(1, 3, 100, 100), float32], Tensor[(3), int32], Tensor[(3), uint8], Tensor[(1, 64, 100, 100), float32], float32, Tensor[(64, 3, 3, 3), float32], Tensor[(1, 64, 100, 100), float16], Tensor[(1, 64, 100, 100), float32]) {
  let %x_0: Tensor[(1, 3, 100, 100), float32] /* ty=Tensor[(1, 3, 100, 100), float32] span=from_string:4:22 */ = add(%x0, %x0) /* ty=Tensor[(1, 3, 100, 100), float32] span=from_string:3:14 */;
  let %x_1: Tensor[(3, 100, 100), float32] /* ty=Tensor[(3, 100, 100), float32] span=from_string:5:22 */ = reshape(%x_0, newshape=[3, 100, 100]) /* ty=Tensor[(3, 100, 100), float32] span=from_string:4:14 */;
  let %x_2: Tensor[(1, 3, 100, 100), float32] /* ty=Tensor[(1, 3, 100, 100), float32] span=from_string:6:22 */ = reshape(%x_1, newshape=[1, 3, 100, 100]) /* ty=Tensor[(1, 3, 100, 100), float32] span=from_string:5:14 */;
  let %x_3: Tensor[(3, 100, 100), float32] /* ty=Tensor[(3, 100, 100), float32] span=from_string:7:22 */ = reshape(%x_2, newshape=[3, 100, 100]) /* ty=Tensor[(3, 100, 100), float32] span=from_string:6:14 */;
  let %x_4: Tensor[(1, 3, 100, 100), float32] /* ty=Tensor[(1, 3, 100, 100), float32] span=from_string:32:16 */ = reshape(%x_3, newshape=[1, 3, 100, 100]) /* ty=Tensor[(1, 3, 100, 100), float32] span=from_string:7:14 */;
  let %x_5: Tensor[(3), int32] /* ty=Tensor[(3), int32] span=from_string:32:22 */ = meta[relay.Constant][0] /* ty=Tensor[(3), int32] span=from_string:8:19 */;
  let %x_6: Tensor[(3), uint8] /* ty=Tensor[(3), uint8] */ = meta[relay.Constant][1] /* ty=Tensor[(3), uint8] span=from_string:9:19 */;
  let %x_7: float32 /* ty=float32 */ = 2f /* ty=float32 span=from_string:10:16 */;
  let %x_8: int32 /* ty=int32 */ = 114 /* ty=int32 span=from_string:11:17 */;
  let %x_20: Tensor[(3), float32] /* ty=Tensor[(3), float32] */ = meta[relay.Constant][2] /* ty=Tensor[(3), float32] span=from_string:12:20 */;
  let %x_24: Tensor[(3), float32] /* ty=Tensor[(3), float32] */ = meta[relay.Constant][3] /* ty=Tensor[(3), float32] span=from_string:13:20 */;
  let %x_25: float32 /* ty=float32 */ = 2f /* ty=float32 span=from_string:14:17 */;
  let %x_26: int32 /* ty=int32 */ = 114 /* ty=int32 span=from_string:15:18 */;
  let %x_42: Tensor[(3), uint8] /* ty=Tensor[(3), uint8] span=from_string:32:28 */ = meta[relay.Constant][4] /* ty=Tensor[(3), uint8] span=from_string:16:20 */;
  let %x_43: Tensor[(1, 64, 100, 100), float32] /* ty=Tensor[(1, 64, 100, 100), float32] span=from_string:25:26 */ = nn.conv2d(%x0, %x2, padding=[1, 1, 1, 1], channels=64, kernel_size=[3, 3]) /* ty=Tensor[(1, 64, 100, 100), float32] span=from_string:17:15 */;
  let %x_44: Tensor[(1, 64, 100, 100), float32] /* ty=Tensor[(1, 64, 100, 100), float32] span=from_string:19:23 */ = nn.relu(%x_43) /* ty=Tensor[(1, 64, 100, 100), float32] span=from_string:18:15 */;
  let %x_45: Tensor[(64, 100, 100), float32] /* ty=Tensor[(64, 100, 100), float32] span=from_string:20:23 */ = reshape(%x_44, newshape=[64, 100, 100]) /* ty=Tensor[(64, 100, 100), float32] span=from_string:19:15 */;
  let %x_46: Tensor[(1, 64, 100, 100), float32] /* ty=Tensor[(1, 64, 100, 100), float32] span=from_string:21:23 */ = reshape(%x_45, newshape=[1, 64, 100, 100]) /* ty=Tensor[(1, 64, 100, 100), float32] span=from_string:20:15 */;
  let %x_47: Tensor[(64, 100, 100), float32] /* ty=Tensor[(64, 100, 100), float32] span=from_string:22:23 */ = reshape(%x_46, newshape=[64, 100, 100]) /* ty=Tensor[(64, 100, 100), float32] span=from_string:21:15 */;
  let %x_48: Tensor[(1, 64, 100, 100), float32] /* ty=Tensor[(1, 64, 100, 100), float32] span=from_string:32:35 */ = reshape(%x_47, newshape=[1, 64, 100, 100]) /* ty=Tensor[(1, 64, 100, 100), float32] span=from_string:22:15 */;
  let %x_49: float32 /* ty=float32 span=from_string:32:42 */ = 6f /* ty=float32 span=from_string:23:17 */;
  let %x_50: Tensor[(64, 3, 3, 3), float32] /* ty=Tensor[(64, 3, 3, 3), float32] span=from_string:32:49 */ = nn.softmax(%x2) /* ty=Tensor[(64, 3, 3, 3), float32] span=from_string:24:15 */;
  let %x_51: Tensor[(1, 64, 100, 100), float32] /* ty=Tensor[(1, 64, 100, 100), float32] span=from_string:27:32 */ = nn.softmax(%x_43) /* ty=Tensor[(1, 64, 100, 100), float32] span=from_string:25:15 */;
  let %x_52: Tensor[(1, 64, 100, 100), float16] /* ty=Tensor[(1, 64, 100, 100), float16] span=from_string:32:56 */ = cast(%x_51, dtype="float16") /* ty=Tensor[(1, 64, 100, 100), float16] span=from_string:26:15 */;
  let %x_53: Tensor[(1, 100, 64, 100), float32] /* ty=Tensor[(1, 100, 64, 100), float32] span=from_string:28:32 */ = layout_transform(%x_51, src_layout="NHWC", dst_layout="NCHW") /* ty=Tensor[(1, 100, 64, 100), float32] span=from_string:27:15 */;
  let %x_54: Tensor[(1, 25, 64, 100, 4), float32] /* ty=Tensor[(1, 25, 64, 100, 4), float32] span=from_string:29:23 */ = layout_transform(%x_53, src_layout="NCHW", dst_layout="NCHW4c") /* ty=Tensor[(1, 25, 64, 100, 4), float32] span=from_string:28:15 */;
  let %x_55: Tensor[(1, 25, 64, 100, 4), float32] /* ty=Tensor[(1, 25, 64, 100, 4), float32] span=from_string:30:32 */ = nn.relu(%x_54) /* ty=Tensor[(1, 25, 64, 100, 4), float32] span=from_string:29:15 */;
  let %x_56: Tensor[(1, 100, 64, 100), float32] /* ty=Tensor[(1, 100, 64, 100), float32] span=from_string:31:32 */ = layout_transform(%x_55, src_layout="NCHW4c", dst_layout="NCHW") /* ty=Tensor[(1, 100, 64, 100), float32] span=from_string:30:15 */;
  let %x_57: Tensor[(1, 64, 100, 100), float32] /* ty=Tensor[(1, 64, 100, 100), float32] span=from_string:32:63 */ = layout_transform(%x_56, src_layout="NCHW", dst_layout="NHWC") /* ty=Tensor[(1, 64, 100, 100), float32] span=from_string:31:15 */;
  let %x_58: (Tensor[(1, 3, 100, 100), float32], Tensor[(3), int32], Tensor[(3), uint8], Tensor[(1, 64, 100, 100), float32], float32, Tensor[(64, 3, 3, 3), float32], Tensor[(1, 64, 100, 100), float16], Tensor[(1, 64, 100, 100), float32]) /* ty=(Tensor[(1, 3, 100, 100), float32], Tensor[(3), int32], Tensor[(3), uint8], Tensor[(1, 64, 100, 100), float32], float32, Tensor[(64, 3, 3, 3), float32], Tensor[(1, 64, 100, 100), float16], Tensor[(1, 64, 100, 100), float32]) span=from_string:33:3 */ = (%x_4, %x_5, %x_42, %x_48, %x_49, %x_50, %x_52, %x_57) /* ty=(Tensor[(1, 3, 100, 100), float32], Tensor[(3), int32], Tensor[(3), uint8], Tensor[(1, 64, 100, 100), float32], float32, Tensor[(64, 3, 3, 3), float32], Tensor[(1, 64, 100, 100), float16], Tensor[(1, 64, 100, 100), float32]) span=from_string:32:15 */;
  %x_58
}

#[metadata]
{
  "root": 1, 
  "nodes": [
    {
      "type_key": ""
    }, 
    {
      "type_key": "Map", 
      "keys": [
        "relay.Constant"
      ], 
      "data": [2]
    }, 
    {
      "type_key": "Array", 
      "data": [3, 11, 16, 23, 28]
    }, 
    {
      "type_key": "relay.Constant", 
      "attrs": {
        "_checked_type_": "8", 
        "data": "0", 
        "span": "6", 
        "virtual_device_": "4"
      }
    }, 
    {
      "type_key": "VirtualDevice", 
      "attrs": {
        "device_type_int": "-1", 
        "memory_scope": "5", 
        "target": "0", 
        "virtual_device_id": "-1"
      }
    }, 
    {
      "type_key": "runtime.String"
    }, 
    {
      "type_key": "Span", 
      "attrs": {
        "column": "19", 
        "end_column": "37", 
        "end_line": "8", 
        "line": "8", 
        "source_name": "7"
      }
    }, 
    {
      "type_key": "SourceName", 
      "repr_str": "from_string"
    }, 
    {
      "type_key": "relay.TensorType", 
      "attrs": {
        "dtype": "int32", 
        "shape": "9", 
        "span": "0"
      }
    }, 
    {
      "type_key": "Array", 
      "data": [10]
    }, 
    {
      "type_key": "IntImm", 
      "attrs": {
        "dtype": "int32", 
        "span": "0", 
        "value": "3"
      }
    }, 
    {
      "type_key": "relay.Constant", 
      "attrs": {
        "_checked_type_": "13", 
        "data": "1", 
        "span": "12", 
        "virtual_device_": "4"
      }
    }, 
    {
      "type_key": "Span", 
      "attrs": {
        "column": "19", 
        "end_column": "37", 
        "end_line": "9", 
        "line": "9", 
        "source_name": "7"
      }
    }, 
    {
      "type_key": "relay.TensorType", 
      "attrs": {
        "dtype": "uint8", 
        "shape": "14", 
        "span": "0"
      }
    }, 
    {
      "type_key": "Array", 
      "data": [15]
    }, 
    {
      "type_key": "IntImm", 
      "attrs": {
        "dtype": "int32", 
        "span": "0", 
        "value": "3"
      }
    }, 
    {
      "type_key": "relay.Constant", 
      "attrs": {
        "_checked_type_": "20", 
        "data": "2", 
        "span": "19", 
        "virtual_device_": "17"
      }
    }, 
    {
      "type_key": "VirtualDevice", 
      "attrs": {
        "device_type_int": "-1", 
        "memory_scope": "18", 
        "target": "0", 
        "virtual_device_id": "-1"
      }
    }, 
    {
      "type_key": "runtime.String"
    }, 
    {
      "type_key": "Span", 
      "attrs": {
        "column": "20", 
        "end_column": "38", 
        "end_line": "12", 
        "line": "12", 
        "source_name": "7"
      }
    }, 
    {
      "type_key": "relay.TensorType", 
      "attrs": {
        "dtype": "float32", 
        "shape": "21", 
        "span": "0"
      }
    }, 
    {
      "type_key": "Array", 
      "data": [22]
    }, 
    {
      "type_key": "IntImm", 
      "attrs": {
        "dtype": "int32", 
        "span": "0", 
        "value": "3"
      }
    }, 
    {
      "type_key": "relay.Constant", 
      "attrs": {
        "_checked_type_": "25", 
        "data": "3", 
        "span": "24", 
        "virtual_device_": "17"
      }
    }, 
    {
      "type_key": "Span", 
      "attrs": {
        "column": "20", 
        "end_column": "38", 
        "end_line": "13", 
        "line": "13", 
        "source_name": "7"
      }
    }, 
    {
      "type_key": "relay.TensorType", 
      "attrs": {
        "dtype": "float32", 
        "shape": "26", 
        "span": "0"
      }
    }, 
    {
      "type_key": "Array", 
      "data": [27]
    }, 
    {
      "type_key": "IntImm", 
      "attrs": {
        "dtype": "int32", 
        "span": "0", 
        "value": "3"
      }
    }, 
    {
      "type_key": "relay.Constant", 
      "attrs": {
        "_checked_type_": "30", 
        "data": "4", 
        "span": "29", 
        "virtual_device_": "17"
      }
    }, 
    {
      "type_key": "Span", 
      "attrs": {
        "column": "20", 
        "end_column": "38", 
        "end_line": "16", 
        "line": "16", 
        "source_name": "7"
      }
    }, 
    {
      "type_key": "relay.TensorType", 
      "attrs": {
        "dtype": "uint8", 
        "shape": "31", 
        "span": "0"
      }
    }, 
    {
      "type_key": "Array", 
      "data": [32]
    }, 
    {
      "type_key": "IntImm", 
      "attrs": {
        "dtype": "int32", 
        "span": "0", 
        "value": "3"
      }
    }
  ], 
  "b64ndarrays": [
    "P6G0lvBAXt0AAAAAAAAAAAEAAAAAAAAAAQAAAAAgAQADAAAAAAAAAAwAAAAAAAAAAwAAAGQAAABkAAAA", 
    "P6G0lvBAXt0AAAAAAAAAAAEAAAAAAAAAAQAAAAEIAQADAAAAAAAAAAMAAAAAAAAAA2Rk", 
    "P6G0lvBAXt0AAAAAAAAAAAEAAAAAAAAAAQAAAAIgAQADAAAAAAAAAAwAAAAAAAAAAABewwAA4MEAAODB", 
    "P6G0lvBAXt0AAAAAAAAAAAEAAAAAAAAAAQAAAAIgAQADAAAAAAAAAAwAAAAAAAAAAAAAAAAAAAAAAAAA", 
    "P6G0lvBAXt0AAAAAAAAAAAEAAAAAAAAAAQAAAAEIAQADAAAAAAAAAAMAAAAAAAAAcnJy"
  ], 
  "attrs": {"tvm_version": "0.13.0"}
}