#[version = "0.0.5"]
def @main(%x0: Tensor[(1, 3, 100, 100), float32] /* ty=Tensor[(1, 3, 100, 100), float32] span=GeneratedSource:17:128 */, %x1: Tensor[(3, 100, 100), float32] /* ty=Tensor[(3, 100, 100), float32] */, %x2: Tensor[(64, 3, 3, 3), float32] /* ty=Tensor[(64, 3, 3, 3), float32] span=GeneratedSource:24:121 */, %x3: Tensor[(64, 100, 100), float32] /* ty=Tensor[(64, 100, 100), float32] */) -> (Tensor[(1, 3, 100, 100), float32], Tensor[(3), int32], Tensor[(3), uint8], Tensor[(1, 64, 100, 100), float32], float32, Tensor[(64, 3, 3, 3), float32], Tensor[(1, 64, 100, 100), float16], Tensor[(1, 64, 100, 100), float32]) {
  let %x_0: Tensor[(1, 3, 100, 100), float32] /* ty=Tensor[(1, 3, 100, 100), float32] span=GeneratedSource:4:116 */ = add(%x0, %x0) /* ty=Tensor[(1, 3, 100, 100), float32] span=GeneratedSource:3:114 */;
  let %x_1: Tensor[(3, 100, 100), float32] /* ty=Tensor[(3, 100, 100), float32] span=GeneratedSource:5:122 */ = reshape(%x_0, newshape=[3, 100, 100]) /* ty=Tensor[(3, 100, 100), float32] span=GeneratedSource:4:108 */;
  let %x_2: Tensor[(1, 3, 100, 100), float32] /* ty=Tensor[(1, 3, 100, 100), float32] span=GeneratedSource:6:116 */ = reshape(%x_1, newshape=[1, 3, 100, 100]) /* ty=Tensor[(1, 3, 100, 100), float32] span=GeneratedSource:5:114 */;
  let %x_3: Tensor[(3, 100, 100), float32] /* ty=Tensor[(3, 100, 100), float32] span=GeneratedSource:7:123 */ = reshape(%x_2, newshape=[3, 100, 100]) /* ty=Tensor[(3, 100, 100), float32] span=GeneratedSource:6:108 */;
  let %x_4: Tensor[(1, 3, 100, 100), float32] /* ty=Tensor[(1, 3, 100, 100), float32] span=GeneratedSource:32:500 */ = reshape(%x_3, newshape=[1, 3, 100, 100]) /* ty=Tensor[(1, 3, 100, 100), float32] span=GeneratedSource:7:115 */;
  let %x_5: Tensor[(3), int32] /* ty=Tensor[(3), int32] span=GeneratedSource:32:506 */ = meta[relay.Constant][0] /* ty=Tensor[(3), int32] span=GeneratedSource:8:92 */;
  let %x_6: Tensor[(3), uint8] /* ty=Tensor[(3), uint8] */ = meta[relay.Constant][1] /* ty=Tensor[(3), uint8] span=GeneratedSource:9:67 */;
  let %x_7: float32 /* ty=float32 */ = 2f /* ty=float32 span=GeneratedSource:10:42 */;
  let %x_8: int32 /* ty=int32 */ = 114 /* ty=int32 span=GeneratedSource:11:41 */;
  let %x_20: Tensor[(3), float32] /* ty=Tensor[(3), float32] */ = meta[relay.Constant][2] /* ty=Tensor[(3), float32] span=GeneratedSource:12:72 */;
  let %x_24: Tensor[(3), float32] /* ty=Tensor[(3), float32] */ = meta[relay.Constant][3] /* ty=Tensor[(3), float32] span=GeneratedSource:13:72 */;
  let %x_25: float32 /* ty=float32 */ = 2f /* ty=float32 span=GeneratedSource:14:43 */;
  let %x_26: int32 /* ty=int32 */ = 114 /* ty=int32 span=GeneratedSource:15:42 */;
  let %x_42: Tensor[(3), uint8] /* ty=Tensor[(3), uint8] span=GeneratedSource:32:512 */ = meta[relay.Constant][4] /* ty=Tensor[(3), uint8] span=GeneratedSource:16:91 */;
  let %x_43: Tensor[(1, 64, 100, 100), float32] /* ty=Tensor[(1, 64, 100, 100), float32] span=GeneratedSource:25:129 */ = nn.conv2d(%x0, %x2, padding=[1, 1, 1, 1], channels=64, kernel_size=[3, 3]) /* ty=Tensor[(1, 64, 100, 100), float32] span=GeneratedSource:17:118 */;
  let %x_44: Tensor[(1, 64, 100, 100), float32] /* ty=Tensor[(1, 64, 100, 100), float32] span=GeneratedSource:19:120 */ = nn.relu(%x_43) /* ty=Tensor[(1, 64, 100, 100), float32] span=GeneratedSource:18:118 */;
  let %x_45: Tensor[(64, 100, 100), float32] /* ty=Tensor[(64, 100, 100), float32] span=GeneratedSource:20:126 */ = reshape(%x_44, newshape=[64, 100, 100]) /* ty=Tensor[(64, 100, 100), float32] span=GeneratedSource:19:112 */;
  let %x_46: Tensor[(1, 64, 100, 100), float32] /* ty=Tensor[(1, 64, 100, 100), float32] span=GeneratedSource:21:120 */ = reshape(%x_45, newshape=[1, 64, 100, 100]) /* ty=Tensor[(1, 64, 100, 100), float32] span=GeneratedSource:20:118 */;
  let %x_47: Tensor[(64, 100, 100), float32] /* ty=Tensor[(64, 100, 100), float32] span=GeneratedSource:22:126 */ = reshape(%x_46, newshape=[64, 100, 100]) /* ty=Tensor[(64, 100, 100), float32] span=GeneratedSource:21:112 */;
  let %x_48: Tensor[(1, 64, 100, 100), float32] /* ty=Tensor[(1, 64, 100, 100), float32] span=GeneratedSource:32:519 */ = reshape(%x_47, newshape=[1, 64, 100, 100]) /* ty=Tensor[(1, 64, 100, 100), float32] span=GeneratedSource:22:118 */;
  let %x_49: float32 /* ty=float32 span=GeneratedSource:32:526 */ = 6f /* ty=float32 span=GeneratedSource:23:66 */;
  let %x_50: Tensor[(64, 3, 3, 3), float32] /* ty=Tensor[(64, 3, 3, 3), float32] span=GeneratedSource:32:533 */ = nn.softmax(%x2) /* ty=Tensor[(64, 3, 3, 3), float32] span=GeneratedSource:24:110 */;
  let %x_51: Tensor[(1, 64, 100, 100), float32] /* ty=Tensor[(1, 64, 100, 100), float32] span=GeneratedSource:27:135 */ = nn.softmax(%x_43) /* ty=Tensor[(1, 64, 100, 100), float32] span=GeneratedSource:25:118 */;
  let %x_52: Tensor[(1, 64, 100, 100), float16] /* ty=Tensor[(1, 64, 100, 100), float16] span=GeneratedSource:32:540 */ = cast(%x_51, dtype="float16") /* ty=Tensor[(1, 64, 100, 100), float16] span=GeneratedSource:26:118 */;
  let %x_53: Tensor[(1, 100, 64, 100), float32] /* ty=Tensor[(1, 100, 64, 100), float32] span=GeneratedSource:28:139 */ = layout_transform(%x_51, src_layout="NHWC", dst_layout="NCHW") /* ty=Tensor[(1, 100, 64, 100), float32] span=GeneratedSource:27:118 */;
  let %x_54: Tensor[(1, 25, 64, 100, 4), float32] /* ty=Tensor[(1, 25, 64, 100, 4), float32] span=GeneratedSource:29:130 */ = layout_transform(%x_53, src_layout="NCHW", dst_layout="NCHW4c") /* ty=Tensor[(1, 25, 64, 100, 4), float32] span=GeneratedSource:28:122 */;
  let %x_55: Tensor[(1, 25, 64, 100, 4), float32] /* ty=Tensor[(1, 25, 64, 100, 4), float32] span=GeneratedSource:30:135 */ = nn.relu(%x_54) /* ty=Tensor[(1, 25, 64, 100, 4), float32] span=GeneratedSource:29:122 */;
  let %x_56: Tensor[(1, 100, 64, 100), float32] /* ty=Tensor[(1, 100, 64, 100), float32] span=GeneratedSource:31:135 */ = layout_transform(%x_55, src_layout="NCHW4c", dst_layout="NCHW") /* ty=Tensor[(1, 100, 64, 100), float32] span=GeneratedSource:30:118 */;
  let %x_57: Tensor[(1, 64, 100, 100), float32] /* ty=Tensor[(1, 64, 100, 100), float32] span=GeneratedSource:32:547 */ = layout_transform(%x_56, src_layout="NCHW", dst_layout="NHWC") /* ty=Tensor[(1, 64, 100, 100), float32] span=GeneratedSource:31:118 */;
  let %x_58: (Tensor[(1, 3, 100, 100), float32], Tensor[(3), int32], Tensor[(3), uint8], Tensor[(1, 64, 100, 100), float32], float32, Tensor[(64, 3, 3, 3), float32], Tensor[(1, 64, 100, 100), float16], Tensor[(1, 64, 100, 100), float32]) /* ty=(Tensor[(1, 3, 100, 100), float32], Tensor[(3), int32], Tensor[(3), uint8], Tensor[(1, 64, 100, 100), float32], float32, Tensor[(64, 3, 3, 3), float32], Tensor[(1, 64, 100, 100), float16], Tensor[(1, 64, 100, 100), float32]) span=GeneratedSource:33:3 */ = (%x_4, %x_5, %x_42, %x_48, %x_49, %x_50, %x_52, %x_57) /* ty=(Tensor[(1, 3, 100, 100), float32], Tensor[(3), int32], Tensor[(3), uint8], Tensor[(1, 64, 100, 100), float32], float32, Tensor[(64, 3, 3, 3), float32], Tensor[(1, 64, 100, 100), float16], Tensor[(1, 64, 100, 100), float32]) span=GeneratedSource:32:499 */;
  %x_58
}

#[metadata]
{
  "root": 1, 
  "nodes": [
    {
      "type_key": ""
    }, 
    {
      "type_key": "Map", 
      "keys": [
        "relay.Constant"
      ], 
      "data": [2]
    }, 
    {
      "type_key": "Array", 
      "data": [3, 12, 17, 24, 29]
    }, 
    {
      "type_key": "relay.Constant", 
      "attrs": {
        "_checked_type_": "8", 
        "data": "0", 
        "span": "6", 
        "virtual_device_": "4"
      }
    }, 
    {
      "type_key": "VirtualDevice", 
      "attrs": {
        "device_type_int": "-1", 
        "memory_scope": "5", 
        "target": "0", 
        "virtual_device_id": "-1"
      }
    }, 
    {
      "type_key": "runtime.String"
    }, 
    {
      "type_key": "Span", 
      "attrs": {
        "column": "92", 
        "end_column": "110", 
        "end_line": "8", 
        "line": "8", 
        "source_name": "7"
      }
    }, 
    {
      "type_key": "SourceName", 
      "repr_str": "GeneratedSource"
    }, 
    {
      "type_key": "relay.TensorType", 
      "attrs": {
        "dtype": "int32", 
        "shape": "9", 
        "span": "11"
      }
    }, 
    {
      "type_key": "Array", 
      "data": [10]
    }, 
    {
      "type_key": "IntImm", 
      "attrs": {
        "dtype": "int32", 
        "span": "0", 
        "value": "3"
      }
    }, 
    {
      "type_key": "Span", 
      "attrs": {
        "column": "413", 
        "end_column": "433", 
        "end_line": "2", 
        "line": "2", 
        "source_name": "7"
      }
    }, 
    {
      "type_key": "relay.Constant", 
      "attrs": {
        "_checked_type_": "14", 
        "data": "1", 
        "span": "13", 
        "virtual_device_": "4"
      }
    }, 
    {
      "type_key": "Span", 
      "attrs": {
        "column": "67", 
        "end_column": "85", 
        "end_line": "9", 
        "line": "9", 
        "source_name": "7"
      }
    }, 
    {
      "type_key": "relay.TensorType", 
      "attrs": {
        "dtype": "uint8", 
        "shape": "15", 
        "span": "0"
      }
    }, 
    {
      "type_key": "Array", 
      "data": [16]
    }, 
    {
      "type_key": "IntImm", 
      "attrs": {
        "dtype": "int32", 
        "span": "0", 
        "value": "3"
      }
    }, 
    {
      "type_key": "relay.Constant", 
      "attrs": {
        "_checked_type_": "21", 
        "data": "2", 
        "span": "20", 
        "virtual_device_": "18"
      }
    }, 
    {
      "type_key": "VirtualDevice", 
      "attrs": {
        "device_type_int": "-1", 
        "memory_scope": "19", 
        "target": "0", 
        "virtual_device_id": "-1"
      }
    }, 
    {
      "type_key": "runtime.String"
    }, 
    {
      "type_key": "Span", 
      "attrs": {
        "column": "72", 
        "end_column": "90", 
        "end_line": "12", 
        "line": "12", 
        "source_name": "7"
      }
    }, 
    {
      "type_key": "relay.TensorType", 
      "attrs": {
        "dtype": "float32", 
        "shape": "22", 
        "span": "0"
      }
    }, 
    {
      "type_key": "Array", 
      "data": [23]
    }, 
    {
      "type_key": "IntImm", 
      "attrs": {
        "dtype": "int32", 
        "span": "0", 
        "value": "3"
      }
    }, 
    {
      "type_key": "relay.Constant", 
      "attrs": {
        "_checked_type_": "26", 
        "data": "3", 
        "span": "25", 
        "virtual_device_": "18"
      }
    }, 
    {
      "type_key": "Span", 
      "attrs": {
        "column": "72", 
        "end_column": "90", 
        "end_line": "13", 
        "line": "13", 
        "source_name": "7"
      }
    }, 
    {
      "type_key": "relay.TensorType", 
      "attrs": {
        "dtype": "float32", 
        "shape": "27", 
        "span": "0"
      }
    }, 
    {
      "type_key": "Array", 
      "data": [28]
    }, 
    {
      "type_key": "IntImm", 
      "attrs": {
        "dtype": "int32", 
        "span": "0", 
        "value": "3"
      }
    }, 
    {
      "type_key": "relay.Constant", 
      "attrs": {
        "_checked_type_": "31", 
        "data": "4", 
        "span": "30", 
        "virtual_device_": "18"
      }
    }, 
    {
      "type_key": "Span", 
      "attrs": {
        "column": "91", 
        "end_column": "109", 
        "end_line": "16", 
        "line": "16", 
        "source_name": "7"
      }
    }, 
    {
      "type_key": "relay.TensorType", 
      "attrs": {
        "dtype": "uint8", 
        "shape": "32", 
        "span": "34"
      }
    }, 
    {
      "type_key": "Array", 
      "data": [33]
    }, 
    {
      "type_key": "IntImm", 
      "attrs": {
        "dtype": "int32", 
        "span": "0", 
        "value": "3"
      }
    }, 
    {
      "type_key": "Span", 
      "attrs": {
        "column": "435", 
        "end_column": "453", 
        "end_line": "2", 
        "line": "2", 
        "source_name": "7"
      }
    }
  ], 
  "b64ndarrays": [
    "P6G0lvBAXt0AAAAAAAAAAAEAAAAAAAAAAQAAAAAgAQADAAAAAAAAAAwAAAAAAAAAAwAAAGQAAABkAAAA", 
    "P6G0lvBAXt0AAAAAAAAAAAEAAAAAAAAAAQAAAAEIAQADAAAAAAAAAAMAAAAAAAAAA2Rk", 
    "P6G0lvBAXt0AAAAAAAAAAAEAAAAAAAAAAQAAAAIgAQADAAAAAAAAAAwAAAAAAAAAAABewwAA4MEAAODB", 
    "P6G0lvBAXt0AAAAAAAAAAAEAAAAAAAAAAQAAAAIgAQADAAAAAAAAAAwAAAAAAAAAAAAAAAAAAAAAAAAA", 
    "P6G0lvBAXt0AAAAAAAAAAAEAAAAAAAAAAQAAAAEIAQADAAAAAAAAAAMAAAAAAAAAcnJy"
  ], 
  "attrs": {"tvm_version": "0.13.0"}
}